HloModule jit_train_step, entry_computation_layout={(f32[1536]{0}, f32[768,1536]{1,0}, f32[16]{0}, f32[768,16]{1,0}, f32[1001,768]{1,0}, /*index=5*/f32[768]{0}, f32[768,768]{1,0}, f32[768]{0}, f32[768,768]{1,0}, f32[4608]{0}, /*index=10*/f32[768,4608]{1,0}, f32[3072]{0}, f32[768,3072]{1,0}, f32[768]{0}, f32[3072,768]{1,0}, /*index=15*/f32[12,64]{1,0}, f32[768,12,64]{2,1,0}, f32[768]{0}, f32[12,64,768]{2,1,0}, f32[12,64]{1,0}, /*index=20*/f32[768,12,64]{2,1,0}, f32[12,64]{1,0}, f32[768,12,64]{2,1,0}, f32[4608]{0}, f32[768,4608]{1,0}, /*index=25*/f32[3072]{0}, f32[768,3072]{1,0}, f32[768]{0}, f32[3072,768]{1,0}, f32[12,64]{1,0}, /*index=30*/f32[768,12,64]{2,1,0}, f32[768]{0}, f32[12,64,768]{2,1,0}, f32[12,64]{1,0}, f32[768,12,64]{2,1,0}, /*index=35*/f32[12,64]{1,0}, f32[768,12,64]{2,1,0}, f32[4608]{0}, f32[768,4608]{1,0}, f32[3072]{0}, /*index=40*/f32[768,3072]{1,0}, f32[768]{0}, f32[3072,768]{1,0}, f32[12,64]{1,0}, f32[768,12,64]{2,1,0}, /*index=45*/f32[768]{0}, f32[12,64,768]{2,1,0}, f32[12,64]{1,0}, f32[768,12,64]{2,1,0}, f32[12,64]{1,0}, /*index=50*/f32[768,12,64]{2,1,0}, f32[4608]{0}, f32[768,4608]{1,0}, f32[3072]{0}, f32[768,3072]{1,0}, /*index=55*/f32[768]{0}, f32[3072,768]{1,0}, f32[12,64]{1,0}, f32[768,12,64]{2,1,0}, f32[768]{0}, /*index=60*/f32[12,64,768]{2,1,0}, f32[12,64]{1,0}, f32[768,12,64]{2,1,0}, f32[12,64]{1,0}, f32[768,12,64]{2,1,0}, /*index=65*/f32[4608]{0}, f32[768,4608]{1,0}, f32[3072]{0}, f32[768,3072]{1,0}, f32[768]{0}, /*index=70*/f32[3072,768]{1,0}, f32[12,64]{1,0}, f32[768,12,64]{2,1,0}, f32[768]{0}, f32[12,64,768]{2,1,0}, /*index=75*/f32[12,64]{1,0}, f32[768,12,64]{2,1,0}, f32[12,64]{1,0}, f32[768,12,64]{2,1,0}, f32[4608]{0}, /*index=80*/f32[768,4608]{1,0}, f32[3072]{0}, f32[768,3072]{1,0}, f32[768]{0}, f32[3072,768]{1,0}, /*index=85*/f32[12,64]{1,0}, f32[768,12,64]{2,1,0}, f32[768]{0}, f32[12,64,768]{2,1,0}, f32[12,64]{1,0}, /*index=90*/f32[768,12,64]{2,1,0}, f32[12,64]{1,0}, f32[768,12,64]{2,1,0}, f32[4608]{0}, f32[768,4608]{1,0}, /*index=95*/f32[3072]{0}, f32[768,3072]{1,0}, f32[768]{0}, f32[3072,768]{1,0}, f32[12,64]{1,0}, /*index=100*/f32[768,12,64]{2,1,0}, f32[768]{0}, f32[12,64,768]{2,1,0}, f32[12,64]{1,0}, f32[768,12,64]{2,1,0}, /*index=105*/f32[12,64]{1,0}, f32[768,12,64]{2,1,0}, f32[4608]{0}, f32[768,4608]{1,0}, f32[3072]{0}, /*index=110*/f32[768,3072]{1,0}, f32[768]{0}, f32[3072,768]{1,0}, f32[12,64]{1,0}, f32[768,12,64]{2,1,0}, /*index=115*/f32[768]{0}, f32[12,64,768]{2,1,0}, f32[12,64]{1,0}, f32[768,12,64]{2,1,0}, f32[12,64]{1,0}, /*index=120*/f32[768,12,64]{2,1,0}, f32[4608]{0}, f32[768,4608]{1,0}, f32[3072]{0}, f32[768,3072]{1,0}, /*index=125*/f32[768]{0}, f32[3072,768]{1,0}, f32[12,64]{1,0}, f32[768,12,64]{2,1,0}, f32[768]{0}, /*index=130*/f32[12,64,768]{2,1,0}, f32[12,64]{1,0}, f32[768,12,64]{2,1,0}, f32[12,64]{1,0}, f32[768,12,64]{2,1,0}, /*index=135*/f32[4608]{0}, f32[768,4608]{1,0}, f32[3072]{0}, f32[768,3072]{1,0}, f32[768]{0}, /*index=140*/f32[3072,768]{1,0}, f32[12,64]{1,0}, f32[768,12,64]{2,1,0}, f32[768]{0}, f32[12,64,768]{2,1,0}, /*index=145*/f32[12,64]{1,0}, f32[768,12,64]{2,1,0}, f32[12,64]{1,0}, f32[768,12,64]{2,1,0}, f32[4608]{0}, /*index=150*/f32[768,4608]{1,0}, f32[3072]{0}, f32[768,3072]{1,0}, f32[768]{0}, f32[3072,768]{1,0}, /*index=155*/f32[12,64]{1,0}, f32[768,12,64]{2,1,0}, f32[768]{0}, f32[12,64,768]{2,1,0}, f32[12,64]{1,0}, /*index=160*/f32[768,12,64]{2,1,0}, f32[12,64]{1,0}, f32[768,12,64]{2,1,0}, f32[4608]{0}, f32[768,4608]{1,0}, /*index=165*/f32[3072]{0}, f32[768,3072]{1,0}, f32[768]{0}, f32[3072,768]{1,0}, f32[12,64]{1,0}, /*index=170*/f32[768,12,64]{2,1,0}, f32[768]{0}, f32[12,64,768]{2,1,0}, f32[12,64]{1,0}, f32[768,12,64]{2,1,0}, /*index=175*/f32[12,64]{1,0}, f32[768,12,64]{2,1,0}, f32[768]{0}, f32[2,2,4,768]{3,2,1,0}, f32[1,256,768]{2,1,0}, /*index=180*/s32[], f32[1536]{0}, f32[768,1536]{1,0}, f32[16]{0}, f32[768,16]{1,0}, /*index=185*/f32[1001,768]{1,0}, f32[768]{0}, f32[768,768]{1,0}, f32[768]{0}, f32[768,768]{1,0}, /*index=190*/f32[4608]{0}, f32[768,4608]{1,0}, f32[3072]{0}, f32[768,3072]{1,0}, f32[768]{0}, /*index=195*/f32[3072,768]{1,0}, f32[12,64]{1,0}, f32[768,12,64]{2,1,0}, f32[768]{0}, f32[12,64,768]{2,1,0}, /*index=200*/f32[12,64]{1,0}, f32[768,12,64]{2,1,0}, f32[12,64]{1,0}, f32[768,12,64]{2,1,0}, f32[4608]{0}, /*index=205*/f32[768,4608]{1,0}, f32[3072]{0}, f32[768,3072]{1,0}, f32[768]{0}, f32[3072,768]{1,0}, /*index=210*/f32[12,64]{1,0}, f32[768,12,64]{2,1,0}, f32[768]{0}, f32[12,64,768]{2,1,0}, f32[12,64]{1,0}, /*index=215*/f32[768,12,64]{2,1,0}, f32[12,64]{1,0}, f32[768,12,64]{2,1,0}, f32[4608]{0}, f32[768,4608]{1,0}, /*index=220*/f32[3072]{0}, f32[768,3072]{1,0}, f32[768]{0}, f32[3072,768]{1,0}, f32[12,64]{1,0}, /*index=225*/f32[768,12,64]{2,1,0}, f32[768]{0}, f32[12,64,768]{2,1,0}, f32[12,64]{1,0}, f32[768,12,64]{2,1,0}, /*index=230*/f32[12,64]{1,0}, f32[768,12,64]{2,1,0}, f32[4608]{0}, f32[768,4608]{1,0}, f32[3072]{0}, /*index=235*/f32[768,3072]{1,0}, f32[768]{0}, f32[3072,768]{1,0}, f32[12,64]{1,0}, f32[768,12,64]{2,1,0}, /*index=240*/f32[768]{0}, f32[12,64,768]{2,1,0}, f32[12,64]{1,0}, f32[768,12,64]{2,1,0}, f32[12,64]{1,0}, /*index=245*/f32[768,12,64]{2,1,0}, f32[4608]{0}, f32[768,4608]{1,0}, f32[3072]{0}, f32[768,3072]{1,0}, /*index=250*/f32[768]{0}, f32[3072,768]{1,0}, f32[12,64]{1,0}, f32[768,12,64]{2,1,0}, f32[768]{0}, /*index=255*/f32[12,64,768]{2,1,0}, f32[12,64]{1,0}, f32[768,12,64]{2,1,0}, f32[12,64]{1,0}, f32[768,12,64]{2,1,0}, /*index=260*/f32[4608]{0}, f32[768,4608]{1,0}, f32[3072]{0}, f32[768,3072]{1,0}, f32[768]{0}, /*index=265*/f32[3072,768]{1,0}, f32[12,64]{1,0}, f32[768,12,64]{2,1,0}, f32[768]{0}, f32[12,64,768]{2,1,0}, /*index=270*/f32[12,64]{1,0}, f32[768,12,64]{2,1,0}, f32[12,64]{1,0}, f32[768,12,64]{2,1,0}, f32[4608]{0}, /*index=275*/f32[768,4608]{1,0}, f32[3072]{0}, f32[768,3072]{1,0}, f32[768]{0}, f32[3072,768]{1,0}, /*index=280*/f32[12,64]{1,0}, f32[768,12,64]{2,1,0}, f32[768]{0}, f32[12,64,768]{2,1,0}, f32[12,64]{1,0}, /*index=285*/f32[768,12,64]{2,1,0}, f32[12,64]{1,0}, f32[768,12,64]{2,1,0}, f32[4608]{0}, f32[768,4608]{1,0}, /*index=290*/f32[3072]{0}, f32[768,3072]{1,0}, f32[768]{0}, f32[3072,768]{1,0}, f32[12,64]{1,0}, /*index=295*/f32[768,12,64]{2,1,0}, f32[768]{0}, f32[12,64,768]{2,1,0}, f32[12,64]{1,0}, f32[768,12,64]{2,1,0}, /*index=300*/f32[12,64]{1,0}, f32[768,12,64]{2,1,0}, f32[4608]{0}, f32[768,4608]{1,0}, f32[3072]{0}, /*index=305*/f32[768,3072]{1,0}, f32[768]{0}, f32[3072,768]{1,0}, f32[12,64]{1,0}, f32[768,12,64]{2,1,0}, /*index=310*/f32[768]{0}, f32[12,64,768]{2,1,0}, f32[12,64]{1,0}, f32[768,12,64]{2,1,0}, f32[12,64]{1,0}, /*index=315*/f32[768,12,64]{2,1,0}, f32[4608]{0}, f32[768,4608]{1,0}, f32[3072]{0}, f32[768,3072]{1,0}, /*index=320*/f32[768]{0}, f32[3072,768]{1,0}, f32[12,64]{1,0}, f32[768,12,64]{2,1,0}, f32[768]{0}, /*index=325*/f32[12,64,768]{2,1,0}, f32[12,64]{1,0}, f32[768,12,64]{2,1,0}, f32[12,64]{1,0}, f32[768,12,64]{2,1,0}, /*index=330*/f32[4608]{0}, f32[768,4608]{1,0}, f32[3072]{0}, f32[768,3072]{1,0}, f32[768]{0}, /*index=335*/f32[3072,768]{1,0}, f32[12,64]{1,0}, f32[768,12,64]{2,1,0}, f32[768]{0}, f32[12,64,768]{2,1,0}, /*index=340*/f32[12,64]{1,0}, f32[768,12,64]{2,1,0}, f32[12,64]{1,0}, f32[768,12,64]{2,1,0}, f32[4608]{0}, /*index=345*/f32[768,4608]{1,0}, f32[3072]{0}, f32[768,3072]{1,0}, f32[768]{0}, f32[3072,768]{1,0}, /*index=350*/f32[12,64]{1,0}, f32[768,12,64]{2,1,0}, f32[768]{0}, f32[12,64,768]{2,1,0}, f32[12,64]{1,0}, /*index=355*/f32[768,12,64]{2,1,0}, f32[12,64]{1,0}, f32[768,12,64]{2,1,0}, f32[768]{0}, f32[2,2,4,768]{3,2,1,0}, /*index=360*/f32[1,256,768]{2,1,0}, f32[1536]{0}, f32[768,1536]{1,0}, f32[16]{0}, f32[768,16]{1,0}, /*index=365*/f32[1001,768]{1,0}, f32[768]{0}, f32[768,768]{1,0}, f32[768]{0}, f32[768,768]{1,0}, /*index=370*/f32[4608]{0}, f32[768,4608]{1,0}, f32[3072]{0}, f32[768,3072]{1,0}, f32[768]{0}, /*index=375*/f32[3072,768]{1,0}, f32[12,64]{1,0}, f32[768,12,64]{2,1,0}, f32[768]{0}, f32[12,64,768]{2,1,0}, /*index=380*/f32[12,64]{1,0}, f32[768,12,64]{2,1,0}, f32[12,64]{1,0}, f32[768,12,64]{2,1,0}, f32[4608]{0}, /*index=385*/f32[768,4608]{1,0}, f32[3072]{0}, f32[768,3072]{1,0}, f32[768]{0}, f32[3072,768]{1,0}, /*index=390*/f32[12,64]{1,0}, f32[768,12,64]{2,1,0}, f32[768]{0}, f32[12,64,768]{2,1,0}, f32[12,64]{1,0}, /*index=395*/f32[768,12,64]{2,1,0}, f32[12,64]{1,0}, f32[768,12,64]{2,1,0}, f32[4608]{0}, f32[768,4608]{1,0}, /*index=400*/f32[3072]{0}, f32[768,3072]{1,0}, f32[768]{0}, f32[3072,768]{1,0}, f32[12,64]{1,0}, /*index=405*/f32[768,12,64]{2,1,0}, f32[768]{0}, f32[12,64,768]{2,1,0}, f32[12,64]{1,0}, f32[768,12,64]{2,1,0}, /*index=410*/f32[12,64]{1,0}, f32[768,12,64]{2,1,0}, f32[4608]{0}, f32[768,4608]{1,0}, f32[3072]{0}, /*index=415*/f32[768,3072]{1,0}, f32[768]{0}, f32[3072,768]{1,0}, f32[12,64]{1,0}, f32[768,12,64]{2,1,0}, /*index=420*/f32[768]{0}, f32[12,64,768]{2,1,0}, f32[12,64]{1,0}, f32[768,12,64]{2,1,0}, f32[12,64]{1,0}, /*index=425*/f32[768,12,64]{2,1,0}, f32[4608]{0}, f32[768,4608]{1,0}, f32[3072]{0}, f32[768,3072]{1,0}, /*index=430*/f32[768]{0}, f32[3072,768]{1,0}, f32[12,64]{1,0}, f32[768,12,64]{2,1,0}, f32[768]{0}, /*index=435*/f32[12,64,768]{2,1,0}, f32[12,64]{1,0}, f32[768,12,64]{2,1,0}, f32[12,64]{1,0}, f32[768,12,64]{2,1,0}, /*index=440*/f32[4608]{0}, f32[768,4608]{1,0}, f32[3072]{0}, f32[768,3072]{1,0}, f32[768]{0}, /*index=445*/f32[3072,768]{1,0}, f32[12,64]{1,0}, f32[768,12,64]{2,1,0}, f32[768]{0}, f32[12,64,768]{2,1,0}, /*index=450*/f32[12,64]{1,0}, f32[768,12,64]{2,1,0}, f32[12,64]{1,0}, f32[768,12,64]{2,1,0}, f32[4608]{0}, /*index=455*/f32[768,4608]{1,0}, f32[3072]{0}, f32[768,3072]{1,0}, f32[768]{0}, f32[3072,768]{1,0}, /*index=460*/f32[12,64]{1,0}, f32[768,12,64]{2,1,0}, f32[768]{0}, f32[12,64,768]{2,1,0}, f32[12,64]{1,0}, /*index=465*/f32[768,12,64]{2,1,0}, f32[12,64]{1,0}, f32[768,12,64]{2,1,0}, f32[4608]{0}, f32[768,4608]{1,0}, /*index=470*/f32[3072]{0}, f32[768,3072]{1,0}, f32[768]{0}, f32[3072,768]{1,0}, f32[12,64]{1,0}, /*index=475*/f32[768,12,64]{2,1,0}, f32[768]{0}, f32[12,64,768]{2,1,0}, f32[12,64]{1,0}, f32[768,12,64]{2,1,0}, /*index=480*/f32[12,64]{1,0}, f32[768,12,64]{2,1,0}, f32[4608]{0}, f32[768,4608]{1,0}, f32[3072]{0}, /*index=485*/f32[768,3072]{1,0}, f32[768]{0}, f32[3072,768]{1,0}, f32[12,64]{1,0}, f32[768,12,64]{2,1,0}, /*index=490*/f32[768]{0}, f32[12,64,768]{2,1,0}, f32[12,64]{1,0}, f32[768,12,64]{2,1,0}, f32[12,64]{1,0}, /*index=495*/f32[768,12,64]{2,1,0}, f32[4608]{0}, f32[768,4608]{1,0}, f32[3072]{0}, f32[768,3072]{1,0}, /*index=500*/f32[768]{0}, f32[3072,768]{1,0}, f32[12,64]{1,0}, f32[768,12,64]{2,1,0}, f32[768]{0}, /*index=505*/f32[12,64,768]{2,1,0}, f32[12,64]{1,0}, f32[768,12,64]{2,1,0}, f32[12,64]{1,0}, f32[768,12,64]{2,1,0}, /*index=510*/f32[4608]{0}, f32[768,4608]{1,0}, f32[3072]{0}, f32[768,3072]{1,0}, f32[768]{0}, /*index=515*/f32[3072,768]{1,0}, f32[12,64]{1,0}, f32[768,12,64]{2,1,0}, f32[768]{0}, f32[12,64,768]{2,1,0}, /*index=520*/f32[12,64]{1,0}, f32[768,12,64]{2,1,0}, f32[12,64]{1,0}, f32[768,12,64]{2,1,0}, f32[4608]{0}, /*index=525*/f32[768,4608]{1,0}, f32[3072]{0}, f32[768,3072]{1,0}, f32[768]{0}, f32[3072,768]{1,0}, /*index=530*/f32[12,64]{1,0}, f32[768,12,64]{2,1,0}, f32[768]{0}, f32[12,64,768]{2,1,0}, f32[12,64]{1,0}, /*index=535*/f32[768,12,64]{2,1,0}, f32[12,64]{1,0}, f32[768,12,64]{2,1,0}, f32[768]{0}, f32[2,2,4,768]{3,2,1,0}, /*index=540*/f32[1,256,768]{2,1,0}, f32[8,4,32,32]{3,2,1,0}, f32[8]{0}, s32[8]{0}, f32[8,4,32,32]{3,2,1,0})->(f32[1536]{0}, f32[768,1536]{1,0}, f32[16]{0}, f32[768,16]{1,0}, f32[1001,768]{1,0}, /*index=5*/f32[768]{0}, f32[768,768]{1,0}, f32[768]{0}, f32[768,768]{1,0}, f32[4608]{0}, /*index=10*/f32[768,4608]{1,0}, f32[3072]{0}, f32[768,3072]{1,0}, f32[768]{0}, f32[3072,768]{1,0}, /*index=15*/f32[12,64]{1,0}, f32[768,12,64]{2,1,0}, f32[768]{0}, f32[12,64,768]{2,1,0}, f32[12,64]{1,0}, /*index=20*/f32[768,12,64]{2,1,0}, f32[12,64]{1,0}, f32[768,12,64]{2,1,0}, f32[4608]{0}, f32[768,4608]{1,0}, /*index=25*/f32[3072]{0}, f32[768,3072]{1,0}, f32[768]{0}, f32[3072,768]{1,0}, f32[12,64]{1,0}, /*index=30*/f32[768,12,64]{2,1,0}, f32[768]{0}, f32[12,64,768]{2,1,0}, f32[12,64]{1,0}, f32[768,12,64]{2,1,0}, /*index=35*/f32[12,64]{1,0}, f32[768,12,64]{2,1,0}, f32[4608]{0}, f32[768,4608]{1,0}, f32[3072]{0}, /*index=40*/f32[768,3072]{1,0}, f32[768]{0}, f32[3072,768]{1,0}, f32[12,64]{1,0}, f32[768,12,64]{2,1,0}, /*index=45*/f32[768]{0}, f32[12,64,768]{2,1,0}, f32[12,64]{1,0}, f32[768,12,64]{2,1,0}, f32[12,64]{1,0}, /*index=50*/f32[768,12,64]{2,1,0}, f32[4608]{0}, f32[768,4608]{1,0}, f32[3072]{0}, f32[768,3072]{1,0}, /*index=55*/f32[768]{0}, f32[3072,768]{1,0}, f32[12,64]{1,0}, f32[768,12,64]{2,1,0}, f32[768]{0}, /*index=60*/f32[12,64,768]{2,1,0}, f32[12,64]{1,0}, f32[768,12,64]{2,1,0}, f32[12,64]{1,0}, f32[768,12,64]{2,1,0}, /*index=65*/f32[4608]{0}, f32[768,4608]{1,0}, f32[3072]{0}, f32[768,3072]{1,0}, f32[768]{0}, /*index=70*/f32[3072,768]{1,0}, f32[12,64]{1,0}, f32[768,12,64]{2,1,0}, f32[768]{0}, f32[12,64,768]{2,1,0}, /*index=75*/f32[12,64]{1,0}, f32[768,12,64]{2,1,0}, f32[12,64]{1,0}, f32[768,12,64]{2,1,0}, f32[4608]{0}, /*index=80*/f32[768,4608]{1,0}, f32[3072]{0}, f32[768,3072]{1,0}, f32[768]{0}, f32[3072,768]{1,0}, /*index=85*/f32[12,64]{1,0}, f32[768,12,64]{2,1,0}, f32[768]{0}, f32[12,64,768]{2,1,0}, f32[12,64]{1,0}, /*index=90*/f32[768,12,64]{2,1,0}, f32[12,64]{1,0}, f32[768,12,64]{2,1,0}, f32[4608]{0}, f32[768,4608]{1,0}, /*index=95*/f32[3072]{0}, f32[768,3072]{1,0}, f32[768]{0}, f32[3072,768]{1,0}, f32[12,64]{1,0}, /*index=100*/f32[768,12,64]{2,1,0}, f32[768]{0}, f32[12,64,768]{2,1,0}, f32[12,64]{1,0}, f32[768,12,64]{2,1,0}, /*index=105*/f32[12,64]{1,0}, f32[768,12,64]{2,1,0}, f32[4608]{0}, f32[768,4608]{1,0}, f32[3072]{0}, /*index=110*/f32[768,3072]{1,0}, f32[768]{0}, f32[3072,768]{1,0}, f32[12,64]{1,0}, f32[768,12,64]{2,1,0}, /*index=115*/f32[768]{0}, f32[12,64,768]{2,1,0}, f32[12,64]{1,0}, f32[768,12,64]{2,1,0}, f32[12,64]{1,0}, /*index=120*/f32[768,12,64]{2,1,0}, f32[4608]{0}, f32[768,4608]{1,0}, f32[3072]{0}, f32[768,3072]{1,0}, /*index=125*/f32[768]{0}, f32[3072,768]{1,0}, f32[12,64]{1,0}, f32[768,12,64]{2,1,0}, f32[768]{0}, /*index=130*/f32[12,64,768]{2,1,0}, f32[12,64]{1,0}, f32[768,12,64]{2,1,0}, f32[12,64]{1,0}, f32[768,12,64]{2,1,0}, /*index=135*/f32[4608]{0}, f32[768,4608]{1,0}, f32[3072]{0}, f32[768,3072]{1,0}, f32[768]{0}, /*index=140*/f32[3072,768]{1,0}, f32[12,64]{1,0}, f32[768,12,64]{2,1,0}, f32[768]{0}, f32[12,64,768]{2,1,0}, /*index=145*/f32[12,64]{1,0}, f32[768,12,64]{2,1,0}, f32[12,64]{1,0}, f32[768,12,64]{2,1,0}, f32[4608]{0}, /*index=150*/f32[768,4608]{1,0}, f32[3072]{0}, f32[768,3072]{1,0}, f32[768]{0}, f32[3072,768]{1,0}, /*index=155*/f32[12,64]{1,0}, f32[768,12,64]{2,1,0}, f32[768]{0}, f32[12,64,768]{2,1,0}, f32[12,64]{1,0}, /*index=160*/f32[768,12,64]{2,1,0}, f32[12,64]{1,0}, f32[768,12,64]{2,1,0}, f32[4608]{0}, f32[768,4608]{1,0}, /*index=165*/f32[3072]{0}, f32[768,3072]{1,0}, f32[768]{0}, f32[3072,768]{1,0}, f32[12,64]{1,0}, /*index=170*/f32[768,12,64]{2,1,0}, f32[768]{0}, f32[12,64,768]{2,1,0}, f32[12,64]{1,0}, f32[768,12,64]{2,1,0}, /*index=175*/f32[12,64]{1,0}, f32[768,12,64]{2,1,0}, f32[768]{0}, f32[2,2,4,768]{3,2,1,0}, f32[1,256,768]{2,1,0}, /*index=180*/s32[], f32[1536]{0}, f32[768,1536]{1,0}, f32[16]{0}, f32[768,16]{1,0}, /*index=185*/f32[1001,768]{1,0}, f32[768]{0}, f32[768,768]{1,0}, f32[768]{0}, f32[768,768]{1,0}, /*index=190*/f32[4608]{0}, f32[768,4608]{1,0}, f32[3072]{0}, f32[768,3072]{1,0}, f32[768]{0}, /*index=195*/f32[3072,768]{1,0}, f32[12,64]{1,0}, f32[768,12,64]{2,1,0}, f32[768]{0}, f32[12,64,768]{2,1,0}, /*index=200*/f32[12,64]{1,0}, f32[768,12,64]{2,1,0}, f32[12,64]{1,0}, f32[768,12,64]{2,1,0}, f32[4608]{0}, /*index=205*/f32[768,4608]{1,0}, f32[3072]{0}, f32[768,3072]{1,0}, f32[768]{0}, f32[3072,768]{1,0}, /*index=210*/f32[12,64]{1,0}, f32[768,12,64]{2,1,0}, f32[768]{0}, f32[12,64,768]{2,1,0}, f32[12,64]{1,0}, /*index=215*/f32[768,12,64]{2,1,0}, f32[12,64]{1,0}, f32[768,12,64]{2,1,0}, f32[4608]{0}, f32[768,4608]{1,0}, /*index=220*/f32[3072]{0}, f32[768,3072]{1,0}, f32[768]{0}, f32[3072,768]{1,0}, f32[12,64]{1,0}, /*index=225*/f32[768,12,64]{2,1,0}, f32[768]{0}, f32[12,64,768]{2,1,0}, f32[12,64]{1,0}, f32[768,12,64]{2,1,0}, /*index=230*/f32[12,64]{1,0}, f32[768,12,64]{2,1,0}, f32[4608]{0}, f32[768,4608]{1,0}, f32[3072]{0}, /*index=235*/f32[768,3072]{1,0}, f32[768]{0}, f32[3072,768]{1,0}, f32[12,64]{1,0}, f32[768,12,64]{2,1,0}, /*index=240*/f32[768]{0}, f32[12,64,768]{2,1,0}, f32[12,64]{1,0}, f32[768,12,64]{2,1,0}, f32[12,64]{1,0}, /*index=245*/f32[768,12,64]{2,1,0}, f32[4608]{0}, f32[768,4608]{1,0}, f32[3072]{0}, f32[768,3072]{1,0}, /*index=250*/f32[768]{0}, f32[3072,768]{1,0}, f32[12,64]{1,0}, f32[768,12,64]{2,1,0}, f32[768]{0}, /*index=255*/f32[12,64,768]{2,1,0}, f32[12,64]{1,0}, f32[768,12,64]{2,1,0}, f32[12,64]{1,0}, f32[768,12,64]{2,1,0}, /*index=260*/f32[4608]{0}, f32[768,4608]{1,0}, f32[3072]{0}, f32[768,3072]{1,0}, f32[768]{0}, /*index=265*/f32[3072,768]{1,0}, f32[12,64]{1,0}, f32[768,12,64]{2,1,0}, f32[768]{0}, f32[12,64,768]{2,1,0}, /*index=270*/f32[12,64]{1,0}, f32[768,12,64]{2,1,0}, f32[12,64]{1,0}, f32[768,12,64]{2,1,0}, f32[4608]{0}, /*index=275*/f32[768,4608]{1,0}, f32[3072]{0}, f32[768,3072]{1,0}, f32[768]{0}, f32[3072,768]{1,0}, /*index=280*/f32[12,64]{1,0}, f32[768,12,64]{2,1,0}, f32[768]{0}, f32[12,64,768]{2,1,0}, f32[12,64]{1,0}, /*index=285*/f32[768,12,64]{2,1,0}, f32[12,64]{1,0}, f32[768,12,64]{2,1,0}, f32[4608]{0}, f32[768,4608]{1,0}, /*index=290*/f32[3072]{0}, f32[768,3072]{1,0}, f32[768]{0}, f32[3072,768]{1,0}, f32[12,64]{1,0}, /*index=295*/f32[768,12,64]{2,1,0}, f32[768]{0}, f32[12,64,768]{2,1,0}, f32[12,64]{1,0}, f32[768,12,64]{2,1,0}, /*index=300*/f32[12,64]{1,0}, f32[768,12,64]{2,1,0}, f32[4608]{0}, f32[768,4608]{1,0}, f32[3072]{0}, /*index=305*/f32[768,3072]{1,0}, f32[768]{0}, f32[3072,768]{1,0}, f32[12,64]{1,0}, f32[768,12,64]{2,1,0}, /*index=310*/f32[768]{0}, f32[12,64,768]{2,1,0}, f32[12,64]{1,0}, f32[768,12,64]{2,1,0}, f32[12,64]{1,0}, /*index=315*/f32[768,12,64]{2,1,0}, f32[4608]{0}, f32[768,4608]{1,0}, f32[3072]{0}, f32[768,3072]{1,0}, /*index=320*/f32[768]{0}, f32[3072,768]{1,0}, f32[12,64]{1,0}, f32[768,12,64]{2,1,0}, f32[768]{0}, /*index=325*/f32[12,64,768]{2,1,0}, f32[12,64]{1,0}, f32[768,12,64]{2,1,0}, f32[12,64]{1,0}, f32[768,12,64]{2,1,0}, /*index=330*/f32[4608]{0}, f32[768,4608]{1,0}, f32[3072]{0}, f32[768,3072]{1,0}, f32[768]{0}, /*index=335*/f32[3072,768]{1,0}, f32[12,64]{1,0}, f32[768,12,64]{2,1,0}, f32[768]{0}, f32[12,64,768]{2,1,0}, /*index=340*/f32[12,64]{1,0}, f32[768,12,64]{2,1,0}, f32[12,64]{1,0}, f32[768,12,64]{2,1,0}, f32[4608]{0}, /*index=345*/f32[768,4608]{1,0}, f32[3072]{0}, f32[768,3072]{1,0}, f32[768]{0}, f32[3072,768]{1,0}, /*index=350*/f32[12,64]{1,0}, f32[768,12,64]{2,1,0}, f32[768]{0}, f32[12,64,768]{2,1,0}, f32[12,64]{1,0}, /*index=355*/f32[768,12,64]{2,1,0}, f32[12,64]{1,0}, f32[768,12,64]{2,1,0}, f32[768]{0}, f32[2,2,4,768]{3,2,1,0}, /*index=360*/f32[1,256,768]{2,1,0}, f32[1536]{0}, f32[768,1536]{1,0}, f32[16]{0}, f32[768,16]{1,0}, /*index=365*/f32[1001,768]{1,0}, f32[768]{0}, f32[768,768]{1,0}, f32[768]{0}, f32[768,768]{1,0}, /*index=370*/f32[4608]{0}, f32[768,4608]{1,0}, f32[3072]{0}, f32[768,3072]{1,0}, f32[768]{0}, /*index=375*/f32[3072,768]{1,0}, f32[12,64]{1,0}, f32[768,12,64]{2,1,0}, f32[768]{0}, f32[12,64,768]{2,1,0}, /*index=380*/f32[12,64]{1,0}, f32[768,12,64]{2,1,0}, f32[12,64]{1,0}, f32[768,12,64]{2,1,0}, f32[4608]{0}, /*index=385*/f32[768,4608]{1,0}, f32[3072]{0}, f32[768,3072]{1,0}, f32[768]{0}, f32[3072,768]{1,0}, /*index=390*/f32[12,64]{1,0}, f32[768,12,64]{2,1,0}, f32[768]{0}, f32[12,64,768]{2,1,0}, f32[12,64]{1,0}, /*index=395*/f32[768,12,64]{2,1,0}, f32[12,64]{1,0}, f32[768,12,64]{2,1,0}, f32[4608]{0}, f32[768,4608]{1,0}, /*index=400*/f32[3072]{0}, f32[768,3072]{1,0}, f32[768]{0}, f32[3072,768]{1,0}, f32[12,64]{1,0}, /*index=405*/f32[768,12,64]{2,1,0}, f32[768]{0}, f32[12,64,768]{2,1,0}, f32[12,64]{1,0}, f32[768,12,64]{2,1,0}, /*index=410*/f32[12,64]{1,0}, f32[768,12,64]{2,1,0}, f32[4608]{0}, f32[768,4608]{1,0}, f32[3072]{0}, /*index=415*/f32[768,3072]{1,0}, f32[768]{0}, f32[3072,768]{1,0}, f32[12,64]{1,0}, f32[768,12,64]{2,1,0}, /*index=420*/f32[768]{0}, f32[12,64,768]{2,1,0}, f32[12,64]{1,0}, f32[768,12,64]{2,1,0}, f32[12,64]{1,0}, /*index=425*/f32[768,12,64]{2,1,0}, f32[4608]{0}, f32[768,4608]{1,0}, f32[3072]{0}, f32[768,3072]{1,0}, /*index=430*/f32[768]{0}, f32[3072,768]{1,0}, f32[12,64]{1,0}, f32[768,12,64]{2,1,0}, f32[768]{0}, /*index=435*/f32[12,64,768]{2,1,0}, f32[12,64]{1,0}, f32[768,12,64]{2,1,0}, f32[12,64]{1,0}, f32[768,12,64]{2,1,0}, /*index=440*/f32[4608]{0}, f32[768,4608]{1,0}, f32[3072]{0}, f32[768,3072]{1,0}, f32[768]{0}, /*index=445*/f32[3072,768]{1,0}, f32[12,64]{1,0}, f32[768,12,64]{2,1,0}, f32[768]{0}, f32[12,64,768]{2,1,0}, /*index=450*/f32[12,64]{1,0}, f32[768,12,64]{2,1,0}, f32[12,64]{1,0}, f32[768,12,64]{2,1,0}, f32[4608]{0}, /*index=455*/f32[768,4608]{1,0}, f32[3072]{0}, f32[768,3072]{1,0}, f32[768]{0}, f32[3072,768]{1,0}, /*index=460*/f32[12,64]{1,0}, f32[768,12,64]{2,1,0}, f32[768]{0}, f32[12,64,768]{2,1,0}, f32[12,64]{1,0}, /*index=465*/f32[768,12,64]{2,1,0}, f32[12,64]{1,0}, f32[768,12,64]{2,1,0}, f32[4608]{0}, f32[768,4608]{1,0}, /*index=470*/f32[3072]{0}, f32[768,3072]{1,0}, f32[768]{0}, f32[3072,768]{1,0}, f32[12,64]{1,0}, /*index=475*/f32[768,12,64]{2,1,0}, f32[768]{0}, f32[12,64,768]{2,1,0}, f32[12,64]{1,0}, f32[768,12,64]{2,1,0}, /*index=480*/f32[12,64]{1,0}, f32[768,12,64]{2,1,0}, f32[4608]{0}, f32[768,4608]{1,0}, f32[3072]{0}, /*index=485*/f32[768,3072]{1,0}, f32[768]{0}, f32[3072,768]{1,0}, f32[12,64]{1,0}, f32[768,12,64]{2,1,0}, /*index=490*/f32[768]{0}, f32[12,64,768]{2,1,0}, f32[12,64]{1,0}, f32[768,12,64]{2,1,0}, f32[12,64]{1,0}, /*index=495*/f32[768,12,64]{2,1,0}, f32[4608]{0}, f32[768,4608]{1,0}, f32[3072]{0}, f32[768,3072]{1,0}, /*index=500*/f32[768]{0}, f32[3072,768]{1,0}, f32[12,64]{1,0}, f32[768,12,64]{2,1,0}, f32[768]{0}, /*index=505*/f32[12,64,768]{2,1,0}, f32[12,64]{1,0}, f32[768,12,64]{2,1,0}, f32[12,64]{1,0}, f32[768,12,64]{2,1,0}, /*index=510*/f32[4608]{0}, f32[768,4608]{1,0}, f32[3072]{0}, f32[768,3072]{1,0}, f32[768]{0}, /*index=515*/f32[3072,768]{1,0}, f32[12,64]{1,0}, f32[768,12,64]{2,1,0}, f32[768]{0}, f32[12,64,768]{2,1,0}, /*index=520*/f32[12,64]{1,0}, f32[768,12,64]{2,1,0}, f32[12,64]{1,0}, f32[768,12,64]{2,1,0}, f32[4608]{0}, /*index=525*/f32[768,4608]{1,0}, f32[3072]{0}, f32[768,3072]{1,0}, f32[768]{0}, f32[3072,768]{1,0}, /*index=530*/f32[12,64]{1,0}, f32[768,12,64]{2,1,0}, f32[768]{0}, f32[12,64,768]{2,1,0}, f32[12,64]{1,0}, /*index=535*/f32[768,12,64]{2,1,0}, f32[12,64]{1,0}, f32[768,12,64]{2,1,0}, f32[768]{0}, f32[2,2,4,768]{3,2,1,0}, /*index=540*/f32[1,256,768]{2,1,0}, f32[])}, allow_spmd_sharding_propagation_to_parameters={true,true,true,true,true,true,true,true,true,true,true,true,true,true,true,true,true,true,true,true,true,true,true,true,true,true,true,true,true,true,true,true,true,true,true,true,true,true,true,true,true,true,true,true,true,true,true,true,true,true,true,true,true,true,true,true,true,true,true,true,true,true,true,true,true,true,true,true,true,true,true,true,true,true,true,true,true,true,true,true,true,true,true,true,true,true,true,true,true,true,true,true,true,true,true,true,true,true,true,true,true,true,true,true,true,true,true,true,true,true,true,true,true,true,true,true,true,true,true,true,true,true,true,true,true,true,true,true,true,true,true,true,true,true,true,true,true,true,true,true,true,true,true,true,true,true,true,true,true,true,true,true,true,true,true,true,true,true,true,true,true,true,true,true,true,true,true,true,true,true,true,true,true,true,true,true,true,true,true,true,true,true,true,true,true,true,true,true,true,true,true,true,true,true,true,true,true,true,true,true,true,true,true,true,true,true,true,true,true,true,true,true,true,true,true,true,true,true,true,true,true,true,true,true,true,true,true,true,true,true,true,true,true,true,true,true,true,true,true,true,true,true,true,true,true,true,true,true,true,true,true,true,true,true,true,true,true,true,true,true,true,true,true,true,true,true,true,true,true,true,true,true,true,true,true,true,true,true,true,true,true,true,true,true,true,true,true,true,true,true,true,true,true,true,true,true,true,true,true,true,true,true,true,true,true,true,true,true,true,true,true,true,true,true,true,true,true,true,true,true,true,true,true,true,true,true,true,true,true,true,true,true,true,true,true,true,true,true,true,true,true,true,true,true,true,true,true,true,true,true,true,true,true,true,true,true,true,true,true,true,true,true,true,true,true,true,true,true,true,true,true,true,true,true,true,true,true,true,true,true,true,true,true,true,true,true,true,true,true,true,true,true,true,true,true,true,true,true,true,true,true,true,true,true,true,true,true,true,true,true,true,true,true,true,true,true,true,true,true,true,true,true,true,true,true,true,true,true,true,true,true,true,true,true,true,true,true,true,true,true,true,true,true,true,true,true,true,true,true,true,true,true,true,true,true,true,true,true,true,true,true,true,true,true,true,true,true,true,true,true,true,true,true,true,true,true,true,true,true,true,true,true,true,true,true,true,true,true,true,true,true,true,true,true,true,true,true,true,true,true,true,true,true,true,true,true,true,true,true,true,true,true,true,true,true,true,true,true,true,true,true,true,true,true,true,true,true,true,true,true,true,true,true,true,true,true,true,true,true,true,true,true,true,true,true}, allow_spmd_sharding_propagation_to_output={true,true,true,true,true,true,true,true,true,true,true,true,true,true,true,true,true,true,true,true,true,true,true,true,true,true,true,true,true,true,true,true,true,true,true,true,true,true,true,true,true,true,true,true,true,true,true,true,true,true,true,true,true,true,true,true,true,true,true,true,true,true,true,true,true,true,true,true,true,true,true,true,true,true,true,true,true,true,true,true,true,true,true,true,true,true,true,true,true,true,true,true,true,true,true,true,true,true,true,true,true,true,true,true,true,true,true,true,true,true,true,true,true,true,true,true,true,true,true,true,true,true,true,true,true,true,true,true,true,true,true,true,true,true,true,true,true,true,true,true,true,true,true,true,true,true,true,true,true,true,true,true,true,true,true,true,true,true,true,true,true,true,true,true,true,true,true,true,true,true,true,true,true,true,true,true,true,true,true,true,true,true,true,true,true,true,true,true,true,true,true,true,true,true,true,true,true,true,true,true,true,true,true,true,true,true,true,true,true,true,true,true,true,true,true,true,true,true,true,true,true,true,true,true,true,true,true,true,true,true,true,true,true,true,true,true,true,true,true,true,true,true,true,true,true,true,true,true,true,true,true,true,true,true,true,true,true,true,true,true,true,true,true,true,true,true,true,true,true,true,true,true,true,true,true,true,true,true,true,true,true,true,true,true,true,true,true,true,true,true,true,true,true,true,true,true,true,true,true,true,true,true,true,true,true,true,true,true,true,true,true,true,true,true,true,true,true,true,true,true,true,true,true,true,true,true,true,true,true,true,true,true,true,true,true,true,true,true,true,true,true,true,true,true,true,true,true,true,true,true,true,true,true,true,true,true,true,true,true,true,true,true,true,true,true,true,true,true,true,true,true,true,true,true,true,true,true,true,true,true,true,true,true,true,true,true,true,true,true,true,true,true,true,true,true,true,true,true,true,true,true,true,true,true,true,true,true,true,true,true,true,true,true,true,true,true,true,true,true,true,true,true,true,true,true,true,true,true,true,true,true,true,true,true,true,true,true,true,true,true,true,true,true,true,true,true,true,true,true,true,true,true,true,true,true,true,true,true,true,true,true,true,true,true,true,true,true,true,true,true,true,true,true,true,true,true,true,true,true,true,true,true,true,true,true,true,true,true,true,true,true,true,true,true,true,true,true,true,true,true,true,true,true,true,true,true,true,true,true,true,true,true,true,true,true,true,true,true,true,true,true,true,true,true,true,true,true,true,true,true,true,true,true,true,true,true,true,true,true,true,true,true}

FileNames
1 "/root/hlo_dump/dit_dump.py"
2 "/root/hlo_dump/dit_model.py"
3 "/usr/local/lib/python3.12/dist-packages/flax/linen/normalization.py"
4 "/usr/local/lib/python3.12/dist-packages/flax/linen/attention.py"
5 "/usr/local/lib/python3.12/dist-packages/flax/linen/linear.py"
6 "/usr/local/lib/python3.12/dist-packages/optax/transforms/_combining.py"
7 "/usr/local/lib/python3.12/dist-packages/optax/_src/base.py"
8 "/usr/local/lib/python3.12/dist-packages/optax/_src/transform.py"
9 "/usr/local/lib/python3.12/dist-packages/optax/tree_utils/_tree_math.py"
10 "/usr/local/lib/python3.12/dist-packages/optax/_src/numerics.py"
11 "/usr/local/lib/python3.12/dist-packages/optax/transforms/_adding.py"
12 "/usr/local/lib/python3.12/dist-packages/optax/_src/update.py"

FunctionNames
1 "<module>"
2 "train_step"
3 "train_step.<locals>.loss_fn"
4 "DiT.__call__"
5 "DiTBlock.__call__"
6 "LayerNorm.__call__"
7 "_compute_stats"
8 "_compute_stats.<locals>.maybe_distributed_mean"
9 "_compute_stats.<locals>.maybe_distributed_mean.<locals>.<genexpr>"
10 "MultiHeadDotProductAttention.__call__"
11 "dot_product_attention"
12 "dot_product_attention_weights"
13 "Dense.__call__"
14 "modulate"
15 "_normalize"
16 "DenseGeneral.__call__"
17 "TimestepEmbedder.__call__"
18 "_Conv.__call__"
19 "timestep_embedding"
20 "Embed.__call__"
21 "_abs_sq"
22 "chain.<locals>.update_fn"
23 "with_extra_args_support.<locals>.update"
24 "scale_by_adam.<locals>.update_fn"
25 "tree_update_moment"
26 "tree_update_moment.<locals>.<lambda>"
27 "safe_increment"
28 "tree_update_moment_per_elem_norm"
29 "tree_update_moment_per_elem_norm.<locals>.<lambda>"
30 "tree_update_moment_per_elem_norm.<locals>.orderth_norm"
31 "scale_by_adam.<locals>.update_fn.<locals>.<lambda>"
32 "add_decayed_weights.<locals>.update_fn"
33 "add_decayed_weights.<locals>.update_fn.<locals>.<lambda>"
34 "scale.<locals>.update_fn"
35 "scale.<locals>.update_fn.<locals>.<lambda>"
36 "apply_updates"
37 "apply_updates.<locals>.<lambda>"

FileLocations
1 {file_name_id=1 function_name_id=1 line=36 end_line=36 column=17 end_column=62}
2 {file_name_id=1 function_name_id=2 line=33 end_line=33 column=22 end_column=57}
3 {file_name_id=1 function_name_id=3 line=31 end_line=31 column=19 end_column=55}
4 {file_name_id=2 function_name_id=4 line=71 end_line=71 column=16 end_column=73}
5 {file_name_id=2 function_name_id=5 line=41 end_line=41 column=21 end_column=69}
6 {file_name_id=3 function_name_id=6 line=512 end_line=521 column=16 end_column=5}
7 {file_name_id=3 function_name_id=7 line=139 end_line=139 column=16 end_column=64}
8 {file_name_id=3 function_name_id=8 line=122 end_line=122 column=10 end_column=53}
9 {file_name_id=3 function_name_id=9 line=122 end_line=122 column=16 end_column=40}
10 {file_name_id=2 function_name_id=5 line=42 end_line=42 column=12 end_column=97}
11 {file_name_id=4 function_name_id=10 line=674 end_line=674 column=10 end_column=54}
12 {file_name_id=4 function_name_id=11 line=266 end_line=281 column=17 end_column=3}
13 {file_name_id=4 function_name_id=12 line=146 end_line=146 column=19 end_column=47}
14 {file_name_id=2 function_name_id=5 line=44 end_line=44 column=21 end_column=69}
15 {file_name_id=2 function_name_id=4 line=74 end_line=74 column=21 end_column=69}
16 {file_name_id=1 function_name_id=3 line=32 end_line=32 column=19 end_column=48}
17 {file_name_id=2 function_name_id=4 line=75 end_line=76 column=12 end_column=58}
18 {file_name_id=5 function_name_id=13 line=294 end_line=294 column=6 end_column=57}
19 {file_name_id=2 function_name_id=4 line=74 end_line=74 column=12 end_column=84}
20 {file_name_id=2 function_name_id=14 line=14 end_line=14 column=11 end_column=35}
21 {file_name_id=2 function_name_id=14 line=14 end_line=14 column=38 end_column=52}
22 {file_name_id=2 function_name_id=14 line=14 end_line=14 column=20 end_column=34}
23 {file_name_id=3 function_name_id=6 line=523 end_line=538 column=11 end_column=5}
24 {file_name_id=3 function_name_id=15 line=216 end_line=216 column=2 end_column=10}
25 {file_name_id=3 function_name_id=15 line=205 end_line=205 column=6 end_column=14}
26 {file_name_id=3 function_name_id=15 line=204 end_line=204 column=8 end_column=44}
27 {file_name_id=3 function_name_id=15 line=203 end_line=203 column=9 end_column=46}
28 {file_name_id=2 function_name_id=4 line=72 end_line=72 column=14 end_column=86}
29 {file_name_id=2 function_name_id=5 line=47 end_line=47 column=16 end_column=27}
30 {file_name_id=2 function_name_id=5 line=46 end_line=46 column=12 end_column=36}
31 {file_name_id=2 function_name_id=5 line=45 end_line=45 column=12 end_column=58}
32 {file_name_id=2 function_name_id=5 line=44 end_line=44 column=12 end_column=78}
33 {file_name_id=2 function_name_id=5 line=43 end_line=43 column=16 end_column=27}
34 {file_name_id=4 function_name_id=10 line=676 end_line=688 column=10 end_column=8}
35 {file_name_id=5 function_name_id=16 line=210 end_line=210 column=6 end_column=17}
36 {file_name_id=4 function_name_id=10 line=551 end_line=551 column=6 end_column=35}
37 {file_name_id=4 function_name_id=10 line=550 end_line=550 column=6 end_column=33}
38 {file_name_id=4 function_name_id=10 line=549 end_line=549 column=6 end_column=35}
39 {file_name_id=2 function_name_id=5 line=41 end_line=41 column=12 end_column=78}
40 {file_name_id=2 function_name_id=5 line=39 end_line=39 column=14 end_column=86}
41 {file_name_id=2 function_name_id=4 line=69 end_line=69 column=12 end_column=44}
42 {file_name_id=2 function_name_id=17 line=29 end_line=29 column=58 end_column=82}
43 {file_name_id=2 function_name_id=17 line=29 end_line=29 column=12 end_column=36}
44 {file_name_id=2 function_name_id=4 line=68 end_line=68 column=12 end_column=19}
45 {file_name_id=2 function_name_id=4 line=63 end_line=64 column=12 end_column=84}
46 {file_name_id=5 function_name_id=18 line=726 end_line=726 column=6 end_column=15}
47 {file_name_id=2 function_name_id=4 line=62 end_line=62 column=12 end_column=42}
48 {file_name_id=5 function_name_id=18 line=700 end_line=710 column=10 end_column=7}
49 {file_name_id=5 function_name_id=18 line=725 end_line=725 column=13 end_column=67}
50 {file_name_id=2 function_name_id=4 line=66 end_line=66 column=12 end_column=53}
51 {file_name_id=2 function_name_id=17 line=28 end_line=28 column=12 end_column=46}
52 {file_name_id=2 function_name_id=19 line=20 end_line=20 column=11 end_column=21}
53 {file_name_id=2 function_name_id=19 line=19 end_line=19 column=44 end_column=60}
54 {file_name_id=2 function_name_id=19 line=19 end_line=19 column=20 end_column=67}
55 {file_name_id=2 function_name_id=19 line=19 end_line=19 column=12 end_column=68}
56 {file_name_id=2 function_name_id=19 line=20 end_line=20 column=44 end_column=55}
57 {file_name_id=2 function_name_id=19 line=21 end_line=21 column=28 end_column=41}
58 {file_name_id=2 function_name_id=19 line=21 end_line=21 column=43 end_column=56}
59 {file_name_id=2 function_name_id=19 line=21 end_line=21 column=11 end_column=67}
60 {file_name_id=5 function_name_id=13 line=287 end_line=292 column=8 end_column=5}
61 {file_name_id=5 function_name_id=13 line=294 end_line=294 column=11 end_column=57}
62 {file_name_id=2 function_name_id=17 line=29 end_line=29 column=42 end_column=52}
63 {file_name_id=2 function_name_id=4 line=69 end_line=69 column=47 end_column=93}
64 {file_name_id=5 function_name_id=20 line=1194 end_line=1194 column=11 end_column=46}
65 {file_name_id=2 function_name_id=5 line=39 end_line=39 column=75 end_column=85}
66 {file_name_id=2 function_name_id=5 line=40 end_line=40 column=33 end_column=59}
67 {file_name_id=3 function_name_id=7 line=139 end_line=139 column=42 end_column=52}
68 {file_name_id=3 function_name_id=21 line=57 end_line=57 column=11 end_column=24}
69 {file_name_id=3 function_name_id=7 line=142 end_line=142 column=35 end_column=46}
70 {file_name_id=3 function_name_id=7 line=142 end_line=142 column=29 end_column=46}
71 {file_name_id=3 function_name_id=7 line=142 end_line=142 column=12 end_column=47}
72 {file_name_id=3 function_name_id=15 line=206 end_line=206 column=18 end_column=31}
73 {file_name_id=3 function_name_id=15 line=206 end_line=206 column=8 end_column=32}
74 {file_name_id=2 function_name_id=14 line=14 end_line=14 column=16 end_column=34}
75 {file_name_id=5 function_name_id=16 line=199 end_line=204 column=10 end_column=5}
76 {file_name_id=5 function_name_id=16 line=209 end_line=209 column=13 end_column=63}
77 {file_name_id=4 function_name_id=12 line=130 end_line=130 column=10 end_column=47}
78 {file_name_id=4 function_name_id=12 line=132 end_line=132 column=17 end_column=60}
79 {file_name_id=4 function_name_id=11 line=291 end_line=295 column=9 end_column=3}
80 {file_name_id=2 function_name_id=5 line=43 end_line=43 column=12 end_column=31}
81 {file_name_id=2 function_name_id=5 line=45 end_line=45 column=64 end_column=74}
82 {file_name_id=2 function_name_id=5 line=47 end_line=47 column=12 end_column=31}
83 {file_name_id=2 function_name_id=4 line=72 end_line=72 column=75 end_column=85}
84 {file_name_id=2 function_name_id=4 line=73 end_line=73 column=23 end_column=49}
85 {file_name_id=2 function_name_id=4 line=78 end_line=78 column=12 end_column=91}
86 {file_name_id=2 function_name_id=4 line=79 end_line=79 column=12 end_column=43}
87 {file_name_id=2 function_name_id=4 line=80 end_line=80 column=12 end_column=93}
88 {file_name_id=1 function_name_id=3 line=32 end_line=32 column=29 end_column=41}
89 {file_name_id=1 function_name_id=3 line=32 end_line=32 column=28 end_column=47}
90 {file_name_id=1 function_name_id=2 line=34 end_line=34 column=29 end_column=64}
91 {file_name_id=6 function_name_id=22 line=90 end_line=90 column=23 end_column=59}
92 {file_name_id=7 function_name_id=23 line=339 end_line=339 column=11 end_column=44}
93 {file_name_id=8 function_name_id=24 line=283 end_line=283 column=9 end_column=59}
94 {file_name_id=9 function_name_id=25 line=396 end_line=403 column=9 end_column=3}
95 {file_name_id=9 function_name_id=26 line=398 end_line=398 column=10 end_column=34}
96 {file_name_id=9 function_name_id=26 line=398 end_line=398 column=37 end_column=46}
97 {file_name_id=8 function_name_id=24 line=285 end_line=285 column=16 end_column=52}
98 {file_name_id=10 function_name_id=27 line=143 end_line=143 column=19 end_column=36}
99 {file_name_id=10 function_name_id=27 line=143 end_line=143 column=38 end_column=49}
100 {file_name_id=10 function_name_id=27 line=143 end_line=143 column=9 end_column=61}
101 {file_name_id=8 function_name_id=24 line=294 end_line=294 column=15 end_column=60}
102 {file_name_id=8 function_name_id=24 line=284 end_line=284 column=9 end_column=73}
103 {file_name_id=9 function_name_id=28 line=431 end_line=438 column=9 end_column=3}
104 {file_name_id=9 function_name_id=29 line=433 end_line=433 column=24 end_column=39}
105 {file_name_id=9 function_name_id=30 line=423 end_line=423 column=13 end_column=23}
106 {file_name_id=9 function_name_id=29 line=433 end_line=433 column=10 end_column=39}
107 {file_name_id=9 function_name_id=29 line=433 end_line=433 column=42 end_column=51}
108 {file_name_id=8 function_name_id=24 line=298 end_line=298 column=13 end_column=58}
109 {file_name_id=8 function_name_id=24 line=299 end_line=304 column=14 end_column=5}
110 {file_name_id=8 function_name_id=31 line=300 end_line=300 column=49 end_column=77}
111 {file_name_id=8 function_name_id=31 line=300 end_line=300 column=44 end_column=78}
112 {file_name_id=11 function_name_id=32 line=72 end_line=77 column=14 end_column=5}
113 {file_name_id=11 function_name_id=33 line=73 end_line=73 column=48 end_column=53}
114 {file_name_id=11 function_name_id=33 line=73 end_line=73 column=44 end_column=53}
115 {file_name_id=8 function_name_id=34 line=507 end_line=507 column=14 end_column=60}
116 {file_name_id=8 function_name_id=35 line=507 end_line=507 column=37 end_column=50}
117 {file_name_id=1 function_name_id=2 line=35 end_line=35 column=15 end_column=51}
118 {file_name_id=12 function_name_id=36 line=40 end_line=47 column=9 end_column=3}
119 {file_name_id=12 function_name_id=37 line=42 end_line=42 column=45 end_column=50}

StackFrames
1 {file_location_id=1 parent_frame_id=1}
2 {file_location_id=2 parent_frame_id=2}
3 {file_location_id=3 parent_frame_id=3}
4 {file_location_id=4 parent_frame_id=4}
5 {file_location_id=5 parent_frame_id=5}
6 {file_location_id=6 parent_frame_id=6}
7 {file_location_id=7 parent_frame_id=7}
8 {file_location_id=8 parent_frame_id=8}
9 {file_location_id=9 parent_frame_id=9}
10 {file_location_id=10 parent_frame_id=5}
11 {file_location_id=11 parent_frame_id=11}
12 {file_location_id=12 parent_frame_id=12}
13 {file_location_id=13 parent_frame_id=13}
14 {file_location_id=14 parent_frame_id=5}
15 {file_location_id=6 parent_frame_id=15}
16 {file_location_id=7 parent_frame_id=16}
17 {file_location_id=8 parent_frame_id=17}
18 {file_location_id=9 parent_frame_id=18}
19 {file_location_id=15 parent_frame_id=4}
20 {file_location_id=6 parent_frame_id=20}
21 {file_location_id=7 parent_frame_id=21}
22 {file_location_id=8 parent_frame_id=22}
23 {file_location_id=9 parent_frame_id=23}
24 {file_location_id=16 parent_frame_id=3}
25 {file_location_id=17 parent_frame_id=4}
26 {file_location_id=18 parent_frame_id=26}
27 {file_location_id=19 parent_frame_id=4}
28 {file_location_id=20 parent_frame_id=28}
29 {file_location_id=21 parent_frame_id=28}
30 {file_location_id=22 parent_frame_id=28}
31 {file_location_id=23 parent_frame_id=20}
32 {file_location_id=24 parent_frame_id=32}
33 {file_location_id=25 parent_frame_id=32}
34 {file_location_id=26 parent_frame_id=32}
35 {file_location_id=27 parent_frame_id=32}
36 {file_location_id=28 parent_frame_id=4}
37 {file_location_id=18 parent_frame_id=37}
38 {file_location_id=29 parent_frame_id=5}
39 {file_location_id=30 parent_frame_id=5}
40 {file_location_id=18 parent_frame_id=40}
41 {file_location_id=31 parent_frame_id=5}
42 {file_location_id=18 parent_frame_id=42}
43 {file_location_id=32 parent_frame_id=5}
44 {file_location_id=20 parent_frame_id=44}
45 {file_location_id=21 parent_frame_id=44}
46 {file_location_id=22 parent_frame_id=44}
47 {file_location_id=23 parent_frame_id=15}
48 {file_location_id=24 parent_frame_id=48}
49 {file_location_id=25 parent_frame_id=48}
50 {file_location_id=26 parent_frame_id=48}
51 {file_location_id=27 parent_frame_id=48}
52 {file_location_id=33 parent_frame_id=5}
53 {file_location_id=34 parent_frame_id=11}
54 {file_location_id=35 parent_frame_id=54}
55 {file_location_id=36 parent_frame_id=11}
56 {file_location_id=35 parent_frame_id=56}
57 {file_location_id=37 parent_frame_id=11}
58 {file_location_id=35 parent_frame_id=58}
59 {file_location_id=38 parent_frame_id=11}
60 {file_location_id=35 parent_frame_id=60}
61 {file_location_id=39 parent_frame_id=5}
62 {file_location_id=20 parent_frame_id=62}
63 {file_location_id=21 parent_frame_id=62}
64 {file_location_id=22 parent_frame_id=62}
65 {file_location_id=23 parent_frame_id=6}
66 {file_location_id=24 parent_frame_id=66}
67 {file_location_id=25 parent_frame_id=66}
68 {file_location_id=26 parent_frame_id=66}
69 {file_location_id=27 parent_frame_id=66}
70 {file_location_id=40 parent_frame_id=5}
71 {file_location_id=18 parent_frame_id=71}
72 {file_location_id=41 parent_frame_id=4}
73 {file_location_id=42 parent_frame_id=73}
74 {file_location_id=18 parent_frame_id=74}
75 {file_location_id=43 parent_frame_id=73}
76 {file_location_id=18 parent_frame_id=76}
77 {file_location_id=44 parent_frame_id=4}
78 {file_location_id=45 parent_frame_id=4}
79 {file_location_id=46 parent_frame_id=79}
80 {file_location_id=47 parent_frame_id=4}
81 {file_location_id=48 parent_frame_id=79}
82 {file_location_id=49 parent_frame_id=79}
83 {file_location_id=50 parent_frame_id=4}
84 {file_location_id=51 parent_frame_id=73}
85 {file_location_id=52 parent_frame_id=85}
86 {file_location_id=53 parent_frame_id=85}
87 {file_location_id=54 parent_frame_id=85}
88 {file_location_id=55 parent_frame_id=85}
89 {file_location_id=56 parent_frame_id=85}
90 {file_location_id=57 parent_frame_id=85}
91 {file_location_id=58 parent_frame_id=85}
92 {file_location_id=59 parent_frame_id=85}
93 {file_location_id=60 parent_frame_id=76}
94 {file_location_id=61 parent_frame_id=76}
95 {file_location_id=62 parent_frame_id=73}
96 {file_location_id=60 parent_frame_id=74}
97 {file_location_id=61 parent_frame_id=74}
98 {file_location_id=63 parent_frame_id=4}
99 {file_location_id=64 parent_frame_id=99}
100 {file_location_id=65 parent_frame_id=5}
101 {file_location_id=60 parent_frame_id=71}
102 {file_location_id=61 parent_frame_id=71}
103 {file_location_id=66 parent_frame_id=5}
104 {file_location_id=67 parent_frame_id=7}
105 {file_location_id=68 parent_frame_id=105}
106 {file_location_id=69 parent_frame_id=7}
107 {file_location_id=68 parent_frame_id=107}
108 {file_location_id=70 parent_frame_id=7}
109 {file_location_id=71 parent_frame_id=7}
110 {file_location_id=72 parent_frame_id=66}
111 {file_location_id=73 parent_frame_id=66}
112 {file_location_id=74 parent_frame_id=62}
113 {file_location_id=75 parent_frame_id=56}
114 {file_location_id=76 parent_frame_id=56}
115 {file_location_id=75 parent_frame_id=60}
116 {file_location_id=76 parent_frame_id=60}
117 {file_location_id=77 parent_frame_id=13}
118 {file_location_id=75 parent_frame_id=58}
119 {file_location_id=76 parent_frame_id=58}
120 {file_location_id=78 parent_frame_id=13}
121 {file_location_id=79 parent_frame_id=12}
122 {file_location_id=75 parent_frame_id=54}
123 {file_location_id=76 parent_frame_id=54}
124 {file_location_id=80 parent_frame_id=5}
125 {file_location_id=67 parent_frame_id=16}
126 {file_location_id=68 parent_frame_id=126}
127 {file_location_id=69 parent_frame_id=16}
128 {file_location_id=68 parent_frame_id=128}
129 {file_location_id=70 parent_frame_id=16}
130 {file_location_id=71 parent_frame_id=16}
131 {file_location_id=72 parent_frame_id=48}
132 {file_location_id=73 parent_frame_id=48}
133 {file_location_id=74 parent_frame_id=44}
134 {file_location_id=60 parent_frame_id=42}
135 {file_location_id=61 parent_frame_id=42}
136 {file_location_id=81 parent_frame_id=5}
137 {file_location_id=60 parent_frame_id=40}
138 {file_location_id=61 parent_frame_id=40}
139 {file_location_id=82 parent_frame_id=5}
140 {file_location_id=67 parent_frame_id=21}
141 {file_location_id=68 parent_frame_id=141}
142 {file_location_id=69 parent_frame_id=21}
143 {file_location_id=68 parent_frame_id=143}
144 {file_location_id=70 parent_frame_id=21}
145 {file_location_id=71 parent_frame_id=21}
146 {file_location_id=72 parent_frame_id=32}
147 {file_location_id=73 parent_frame_id=32}
148 {file_location_id=83 parent_frame_id=4}
149 {file_location_id=60 parent_frame_id=37}
150 {file_location_id=61 parent_frame_id=37}
151 {file_location_id=84 parent_frame_id=4}
152 {file_location_id=74 parent_frame_id=28}
153 {file_location_id=60 parent_frame_id=26}
154 {file_location_id=61 parent_frame_id=26}
155 {file_location_id=85 parent_frame_id=4}
156 {file_location_id=86 parent_frame_id=4}
157 {file_location_id=87 parent_frame_id=4}
158 {file_location_id=88 parent_frame_id=3}
159 {file_location_id=89 parent_frame_id=3}
160 {file_location_id=90 parent_frame_id=2}
161 {file_location_id=91 parent_frame_id=161}
162 {file_location_id=92 parent_frame_id=162}
163 {file_location_id=93 parent_frame_id=163}
164 {file_location_id=94 parent_frame_id=164}
165 {file_location_id=95 parent_frame_id=165}
166 {file_location_id=96 parent_frame_id=165}
167 {file_location_id=97 parent_frame_id=163}
168 {file_location_id=98 parent_frame_id=168}
169 {file_location_id=99 parent_frame_id=168}
170 {file_location_id=100 parent_frame_id=168}
171 {file_location_id=101 parent_frame_id=163}
172 {file_location_id=102 parent_frame_id=163}
173 {file_location_id=103 parent_frame_id=173}
174 {file_location_id=104 parent_frame_id=174}
175 {file_location_id=105 parent_frame_id=175}
176 {file_location_id=106 parent_frame_id=174}
177 {file_location_id=107 parent_frame_id=174}
178 {file_location_id=108 parent_frame_id=163}
179 {file_location_id=109 parent_frame_id=163}
180 {file_location_id=110 parent_frame_id=180}
181 {file_location_id=111 parent_frame_id=180}
182 {file_location_id=112 parent_frame_id=163}
183 {file_location_id=113 parent_frame_id=183}
184 {file_location_id=114 parent_frame_id=183}
185 {file_location_id=115 parent_frame_id=163}
186 {file_location_id=116 parent_frame_id=186}
187 {file_location_id=117 parent_frame_id=2}
188 {file_location_id=118 parent_frame_id=188}
189 {file_location_id=119 parent_frame_id=189}
190 {file_location_id=2 parent_frame_id=14}
191 {file_location_id=3 parent_frame_id=191}
192 {file_location_id=4 parent_frame_id=192}
193 {file_location_id=10 parent_frame_id=193}
194 {file_location_id=11 parent_frame_id=194}
195 {file_location_id=12 parent_frame_id=195}
196 {file_location_id=13 parent_frame_id=196}


%silu.1 (Arg_0.1: f32[8,768]) -> (f32[8,768], f32[8,768], f32[8,768]) {
  %Arg_0.1 = f32[8,768]{1,0} parameter(0)
  %constant.148 = f32[] constant(1)
  %broadcast.94 = f32[8,768]{1,0} broadcast(%constant.148), dimensions={}
  %neg.1 = f32[8,768]{1,0} negate(%Arg_0.1), metadata={op_name="neg"}
  %exp.2 = f32[8,768]{1,0} exponential(%neg.1), metadata={op_name="exp"}
  %add.19 = f32[8,768]{1,0} add(%exp.2, %broadcast.94), metadata={op_name="add"}
  %div.3 = f32[8,768]{1,0} divide(%broadcast.94, %add.19), metadata={op_name="div"}
  %mul.49 = f32[8,768]{1,0} multiply(%Arg_0.1, %div.3), metadata={op_name="mul"}
  %sub.1 = f32[8,768]{1,0} subtract(%broadcast.94, %div.3), metadata={op_name="sub"}
  %mul.48 = f32[8,768]{1,0} multiply(%div.3, %sub.1), metadata={op_name="mul"}
  ROOT %tuple.1 = (f32[8,768]{1,0}, f32[8,768]{1,0}, f32[8,768]{1,0}) tuple(%mul.49, %mul.48, %div.3)
}

%_where.2 (Arg_0.4: pred[8], Arg_1.2: s32[8], Arg_2.1: s32[8]) -> s32[8] {
  %Arg_0.4 = pred[8]{0} parameter(0)
  %Arg_1.2 = s32[8]{0} parameter(1)
  %Arg_2.1 = s32[8]{0} parameter(2)
  ROOT %select_n.1 = s32[8]{0} select(%Arg_0.4, %Arg_1.2, %Arg_2.1), metadata={op_name="select_n"}
}

%region_0.3 (reduce_and.3: pred[], reduce_and.4: pred[]) -> pred[] {
  %reduce_and.3 = pred[] parameter(0), metadata={op_name="reduce_and"}
  %reduce_and.4 = pred[] parameter(1), metadata={op_name="reduce_and"}
  ROOT %reduce_and.5 = pred[] and(%reduce_and.3, %reduce_and.4), metadata={op_name="reduce_and"}
}

%_take.4 (Arg_0.5: f32[1001,768], Arg_1.3: s32[8]) -> (f32[8,768], s32[8,1]) {
  %Arg_1.3 = s32[8]{0} parameter(1)
  %constant.160 = s32[] constant(0)
  %broadcast.102 = s32[8]{0} broadcast(%constant.160), dimensions={}
  %lt.1 = pred[8]{0} compare(%Arg_1.3, %broadcast.102), direction=LT, metadata={op_name="lt"}
  %constant.158 = s32[] constant(1001)
  %broadcast.101 = s32[8]{0} broadcast(%constant.158), dimensions={}
  %add.25 = s32[8]{0} add(%Arg_1.3, %broadcast.101), metadata={op_name="add"}
  %jit__where_.1 = s32[8]{0} call(%lt.1, %add.25, %Arg_1.3), to_apply=%_where.2, metadata={op_name="jit(_where)"}
  %broadcast_in_dim.7 = s32[8,1]{1,0} reshape(%jit__where_.1), metadata={op_name="broadcast_in_dim"}
  %constant.157 = s32[] constant(0)
  %broadcast.100 = s32[8,1]{1,0} broadcast(%constant.157), dimensions={}
  %ge.1 = pred[8,1]{1,0} compare(%broadcast_in_dim.7, %broadcast.100), direction=GE, metadata={op_name="ge"}
  %constant.156 = s32[] constant(1000)
  %broadcast.99 = s32[8,1]{1,0} broadcast(%constant.156), dimensions={}
  %le.1 = pred[8,1]{1,0} compare(%broadcast_in_dim.7, %broadcast.99), direction=LE, metadata={op_name="le"}
  %and.1 = pred[8,1]{1,0} and(%ge.1, %le.1), metadata={op_name="and"}
  %constant.159 = pred[] constant(true)
  %reduce_and.7 = pred[8]{0} reduce(%and.1, %constant.159), dimensions={1}, to_apply=%region_0.3, metadata={op_name="reduce_and"}
  %broadcast_in_dim.8 = pred[8,768]{1,0} broadcast(%reduce_and.7), dimensions={0}, metadata={op_name="broadcast_in_dim"}
  %Arg_0.5 = f32[1001,768]{1,0} parameter(0)
  %gather.1 = f32[8,768]{1,0} gather(%Arg_0.5, %broadcast_in_dim.7), offset_dims={1}, collapsed_slice_dims={0}, start_index_map={0}, index_vector_dim=1, slice_sizes={1,768}, metadata={op_name="gather"}
  %constant.155 = f32[] constant(nan)
  %broadcast_in_dim.6 = f32[8,768]{1,0} broadcast(%constant.155), dimensions={}, metadata={op_name="broadcast_in_dim"}
  %select_n.3 = f32[8,768]{1,0} select(%broadcast_in_dim.8, %gather.1, %broadcast_in_dim.6), metadata={op_name="select_n"}
  ROOT %tuple.3 = (f32[8,768]{1,0}, s32[8,1]{1,0}) tuple(%select_n.3, %broadcast_in_dim.7)
}

%region_1.5 (reduce_sum.3: f32[], reduce_sum.4: f32[]) -> f32[] {
  %reduce_sum.3 = f32[] parameter(0), metadata={op_name="reduce_sum"}
  %reduce_sum.4 = f32[] parameter(1), metadata={op_name="reduce_sum"}
  ROOT %reduce_sum.5 = f32[] add(%reduce_sum.3, %reduce_sum.4), metadata={op_name="jit(train_step)/jvp(DiT)/block0/LayerNorm_0/reduce_sum" stack_frame_id=9}
}

%region_2.6 (reduce_sum.10: f32[], reduce_sum.11: f32[]) -> f32[] {
  %reduce_sum.10 = f32[] parameter(0), metadata={op_name="reduce_sum"}
  %reduce_sum.11 = f32[] parameter(1), metadata={op_name="reduce_sum"}
  ROOT %reduce_sum.12 = f32[] add(%reduce_sum.10, %reduce_sum.11), metadata={op_name="jit(train_step)/jvp(DiT)/block0/LayerNorm_0/reduce_sum" stack_frame_id=9}
}

%region_3.7 (reduce_max.3: f32[], reduce_max.4: f32[]) -> f32[] {
  %reduce_max.3 = f32[] parameter(0), metadata={op_name="reduce_max"}
  %reduce_max.4 = f32[] parameter(1), metadata={op_name="reduce_max"}
  ROOT %reduce_max.5 = f32[] maximum(%reduce_max.3, %reduce_max.4), metadata={op_name="jit(train_step)/jvp(DiT)/block0/MultiHeadDotProductAttention_0/reduce_max" stack_frame_id=13}
}

%region_4.8 (reduce_sum.17: f32[], reduce_sum.18: f32[]) -> f32[] {
  %reduce_sum.17 = f32[] parameter(0), metadata={op_name="reduce_sum"}
  %reduce_sum.18 = f32[] parameter(1), metadata={op_name="reduce_sum"}
  ROOT %reduce_sum.19 = f32[] add(%reduce_sum.17, %reduce_sum.18), metadata={op_name="jit(train_step)/jvp(DiT)/block0/MultiHeadDotProductAttention_0/reduce_sum" stack_frame_id=13}
}

%region_5.9 (reduce_sum.24: f32[], reduce_sum.25: f32[]) -> f32[] {
  %reduce_sum.24 = f32[] parameter(0), metadata={op_name="reduce_sum"}
  %reduce_sum.25 = f32[] parameter(1), metadata={op_name="reduce_sum"}
  ROOT %reduce_sum.26 = f32[] add(%reduce_sum.24, %reduce_sum.25), metadata={op_name="jit(train_step)/jvp(DiT)/block0/LayerNorm_1/reduce_sum" stack_frame_id=18}
}

%region_6.10 (reduce_sum.31: f32[], reduce_sum.32: f32[]) -> f32[] {
  %reduce_sum.31 = f32[] parameter(0), metadata={op_name="reduce_sum"}
  %reduce_sum.32 = f32[] parameter(1), metadata={op_name="reduce_sum"}
  ROOT %reduce_sum.33 = f32[] add(%reduce_sum.31, %reduce_sum.32), metadata={op_name="jit(train_step)/jvp(DiT)/block0/LayerNorm_1/reduce_sum" stack_frame_id=18}
}

%region_7.11 (reduce_sum.38: f32[], reduce_sum.39: f32[]) -> f32[] {
  %reduce_sum.38 = f32[] parameter(0), metadata={op_name="reduce_sum"}
  %reduce_sum.39 = f32[] parameter(1), metadata={op_name="reduce_sum"}
  ROOT %reduce_sum.40 = f32[] add(%reduce_sum.38, %reduce_sum.39), metadata={op_name="jit(train_step)/jvp(DiT)/block1/LayerNorm_0/reduce_sum" stack_frame_id=9}
}

%region_8.12 (reduce_sum.45: f32[], reduce_sum.46: f32[]) -> f32[] {
  %reduce_sum.45 = f32[] parameter(0), metadata={op_name="reduce_sum"}
  %reduce_sum.46 = f32[] parameter(1), metadata={op_name="reduce_sum"}
  ROOT %reduce_sum.47 = f32[] add(%reduce_sum.45, %reduce_sum.46), metadata={op_name="jit(train_step)/jvp(DiT)/block1/LayerNorm_0/reduce_sum" stack_frame_id=9}
}

%region_9.13 (reduce_max.10: f32[], reduce_max.11: f32[]) -> f32[] {
  %reduce_max.10 = f32[] parameter(0), metadata={op_name="reduce_max"}
  %reduce_max.11 = f32[] parameter(1), metadata={op_name="reduce_max"}
  ROOT %reduce_max.12 = f32[] maximum(%reduce_max.10, %reduce_max.11), metadata={op_name="jit(train_step)/jvp(DiT)/block1/MultiHeadDotProductAttention_0/reduce_max" stack_frame_id=13}
}

%region_10.14 (reduce_sum.52: f32[], reduce_sum.53: f32[]) -> f32[] {
  %reduce_sum.52 = f32[] parameter(0), metadata={op_name="reduce_sum"}
  %reduce_sum.53 = f32[] parameter(1), metadata={op_name="reduce_sum"}
  ROOT %reduce_sum.54 = f32[] add(%reduce_sum.52, %reduce_sum.53), metadata={op_name="jit(train_step)/jvp(DiT)/block1/MultiHeadDotProductAttention_0/reduce_sum" stack_frame_id=13}
}

%region_11.15 (reduce_sum.59: f32[], reduce_sum.60: f32[]) -> f32[] {
  %reduce_sum.59 = f32[] parameter(0), metadata={op_name="reduce_sum"}
  %reduce_sum.60 = f32[] parameter(1), metadata={op_name="reduce_sum"}
  ROOT %reduce_sum.61 = f32[] add(%reduce_sum.59, %reduce_sum.60), metadata={op_name="jit(train_step)/jvp(DiT)/block1/LayerNorm_1/reduce_sum" stack_frame_id=18}
}

%region_12.16 (reduce_sum.66: f32[], reduce_sum.67: f32[]) -> f32[] {
  %reduce_sum.66 = f32[] parameter(0), metadata={op_name="reduce_sum"}
  %reduce_sum.67 = f32[] parameter(1), metadata={op_name="reduce_sum"}
  ROOT %reduce_sum.68 = f32[] add(%reduce_sum.66, %reduce_sum.67), metadata={op_name="jit(train_step)/jvp(DiT)/block1/LayerNorm_1/reduce_sum" stack_frame_id=18}
}

%region_13.17 (reduce_sum.73: f32[], reduce_sum.74: f32[]) -> f32[] {
  %reduce_sum.73 = f32[] parameter(0), metadata={op_name="reduce_sum"}
  %reduce_sum.74 = f32[] parameter(1), metadata={op_name="reduce_sum"}
  ROOT %reduce_sum.75 = f32[] add(%reduce_sum.73, %reduce_sum.74), metadata={op_name="jit(train_step)/jvp(DiT)/block2/LayerNorm_0/reduce_sum" stack_frame_id=9}
}

%region_14.18 (reduce_sum.80: f32[], reduce_sum.81: f32[]) -> f32[] {
  %reduce_sum.80 = f32[] parameter(0), metadata={op_name="reduce_sum"}
  %reduce_sum.81 = f32[] parameter(1), metadata={op_name="reduce_sum"}
  ROOT %reduce_sum.82 = f32[] add(%reduce_sum.80, %reduce_sum.81), metadata={op_name="jit(train_step)/jvp(DiT)/block2/LayerNorm_0/reduce_sum" stack_frame_id=9}
}

%region_15.19 (reduce_max.17: f32[], reduce_max.18: f32[]) -> f32[] {
  %reduce_max.17 = f32[] parameter(0), metadata={op_name="reduce_max"}
  %reduce_max.18 = f32[] parameter(1), metadata={op_name="reduce_max"}
  ROOT %reduce_max.19 = f32[] maximum(%reduce_max.17, %reduce_max.18), metadata={op_name="jit(train_step)/jvp(DiT)/block2/MultiHeadDotProductAttention_0/reduce_max" stack_frame_id=13}
}

%region_16.20 (reduce_sum.87: f32[], reduce_sum.88: f32[]) -> f32[] {
  %reduce_sum.87 = f32[] parameter(0), metadata={op_name="reduce_sum"}
  %reduce_sum.88 = f32[] parameter(1), metadata={op_name="reduce_sum"}
  ROOT %reduce_sum.89 = f32[] add(%reduce_sum.87, %reduce_sum.88), metadata={op_name="jit(train_step)/jvp(DiT)/block2/MultiHeadDotProductAttention_0/reduce_sum" stack_frame_id=13}
}

%region_17.21 (reduce_sum.94: f32[], reduce_sum.95: f32[]) -> f32[] {
  %reduce_sum.94 = f32[] parameter(0), metadata={op_name="reduce_sum"}
  %reduce_sum.95 = f32[] parameter(1), metadata={op_name="reduce_sum"}
  ROOT %reduce_sum.96 = f32[] add(%reduce_sum.94, %reduce_sum.95), metadata={op_name="jit(train_step)/jvp(DiT)/block2/LayerNorm_1/reduce_sum" stack_frame_id=18}
}

%region_18.22 (reduce_sum.101: f32[], reduce_sum.102: f32[]) -> f32[] {
  %reduce_sum.101 = f32[] parameter(0), metadata={op_name="reduce_sum"}
  %reduce_sum.102 = f32[] parameter(1), metadata={op_name="reduce_sum"}
  ROOT %reduce_sum.103 = f32[] add(%reduce_sum.101, %reduce_sum.102), metadata={op_name="jit(train_step)/jvp(DiT)/block2/LayerNorm_1/reduce_sum" stack_frame_id=18}
}

%region_19.23 (reduce_sum.108: f32[], reduce_sum.109: f32[]) -> f32[] {
  %reduce_sum.108 = f32[] parameter(0), metadata={op_name="reduce_sum"}
  %reduce_sum.109 = f32[] parameter(1), metadata={op_name="reduce_sum"}
  ROOT %reduce_sum.110 = f32[] add(%reduce_sum.108, %reduce_sum.109), metadata={op_name="jit(train_step)/jvp(DiT)/block3/LayerNorm_0/reduce_sum" stack_frame_id=9}
}

%region_20.24 (reduce_sum.115: f32[], reduce_sum.116: f32[]) -> f32[] {
  %reduce_sum.115 = f32[] parameter(0), metadata={op_name="reduce_sum"}
  %reduce_sum.116 = f32[] parameter(1), metadata={op_name="reduce_sum"}
  ROOT %reduce_sum.117 = f32[] add(%reduce_sum.115, %reduce_sum.116), metadata={op_name="jit(train_step)/jvp(DiT)/block3/LayerNorm_0/reduce_sum" stack_frame_id=9}
}

%region_21.25 (reduce_max.24: f32[], reduce_max.25: f32[]) -> f32[] {
  %reduce_max.24 = f32[] parameter(0), metadata={op_name="reduce_max"}
  %reduce_max.25 = f32[] parameter(1), metadata={op_name="reduce_max"}
  ROOT %reduce_max.26 = f32[] maximum(%reduce_max.24, %reduce_max.25), metadata={op_name="jit(train_step)/jvp(DiT)/block3/MultiHeadDotProductAttention_0/reduce_max" stack_frame_id=13}
}

%region_22.26 (reduce_sum.122: f32[], reduce_sum.123: f32[]) -> f32[] {
  %reduce_sum.122 = f32[] parameter(0), metadata={op_name="reduce_sum"}
  %reduce_sum.123 = f32[] parameter(1), metadata={op_name="reduce_sum"}
  ROOT %reduce_sum.124 = f32[] add(%reduce_sum.122, %reduce_sum.123), metadata={op_name="jit(train_step)/jvp(DiT)/block3/MultiHeadDotProductAttention_0/reduce_sum" stack_frame_id=13}
}

%region_23.27 (reduce_sum.129: f32[], reduce_sum.130: f32[]) -> f32[] {
  %reduce_sum.129 = f32[] parameter(0), metadata={op_name="reduce_sum"}
  %reduce_sum.130 = f32[] parameter(1), metadata={op_name="reduce_sum"}
  ROOT %reduce_sum.131 = f32[] add(%reduce_sum.129, %reduce_sum.130), metadata={op_name="jit(train_step)/jvp(DiT)/block3/LayerNorm_1/reduce_sum" stack_frame_id=18}
}

%region_24.28 (reduce_sum.136: f32[], reduce_sum.137: f32[]) -> f32[] {
  %reduce_sum.136 = f32[] parameter(0), metadata={op_name="reduce_sum"}
  %reduce_sum.137 = f32[] parameter(1), metadata={op_name="reduce_sum"}
  ROOT %reduce_sum.138 = f32[] add(%reduce_sum.136, %reduce_sum.137), metadata={op_name="jit(train_step)/jvp(DiT)/block3/LayerNorm_1/reduce_sum" stack_frame_id=18}
}

%region_25.29 (reduce_sum.143: f32[], reduce_sum.144: f32[]) -> f32[] {
  %reduce_sum.143 = f32[] parameter(0), metadata={op_name="reduce_sum"}
  %reduce_sum.144 = f32[] parameter(1), metadata={op_name="reduce_sum"}
  ROOT %reduce_sum.145 = f32[] add(%reduce_sum.143, %reduce_sum.144), metadata={op_name="jit(train_step)/jvp(DiT)/block4/LayerNorm_0/reduce_sum" stack_frame_id=9}
}

%region_26.30 (reduce_sum.150: f32[], reduce_sum.151: f32[]) -> f32[] {
  %reduce_sum.150 = f32[] parameter(0), metadata={op_name="reduce_sum"}
  %reduce_sum.151 = f32[] parameter(1), metadata={op_name="reduce_sum"}
  ROOT %reduce_sum.152 = f32[] add(%reduce_sum.150, %reduce_sum.151), metadata={op_name="jit(train_step)/jvp(DiT)/block4/LayerNorm_0/reduce_sum" stack_frame_id=9}
}

%region_27.31 (reduce_max.31: f32[], reduce_max.32: f32[]) -> f32[] {
  %reduce_max.31 = f32[] parameter(0), metadata={op_name="reduce_max"}
  %reduce_max.32 = f32[] parameter(1), metadata={op_name="reduce_max"}
  ROOT %reduce_max.33 = f32[] maximum(%reduce_max.31, %reduce_max.32), metadata={op_name="jit(train_step)/jvp(DiT)/block4/MultiHeadDotProductAttention_0/reduce_max" stack_frame_id=13}
}

%region_28.32 (reduce_sum.157: f32[], reduce_sum.158: f32[]) -> f32[] {
  %reduce_sum.157 = f32[] parameter(0), metadata={op_name="reduce_sum"}
  %reduce_sum.158 = f32[] parameter(1), metadata={op_name="reduce_sum"}
  ROOT %reduce_sum.159 = f32[] add(%reduce_sum.157, %reduce_sum.158), metadata={op_name="jit(train_step)/jvp(DiT)/block4/MultiHeadDotProductAttention_0/reduce_sum" stack_frame_id=13}
}

%region_29.33 (reduce_sum.164: f32[], reduce_sum.165: f32[]) -> f32[] {
  %reduce_sum.164 = f32[] parameter(0), metadata={op_name="reduce_sum"}
  %reduce_sum.165 = f32[] parameter(1), metadata={op_name="reduce_sum"}
  ROOT %reduce_sum.166 = f32[] add(%reduce_sum.164, %reduce_sum.165), metadata={op_name="jit(train_step)/jvp(DiT)/block4/LayerNorm_1/reduce_sum" stack_frame_id=18}
}

%region_30.34 (reduce_sum.171: f32[], reduce_sum.172: f32[]) -> f32[] {
  %reduce_sum.171 = f32[] parameter(0), metadata={op_name="reduce_sum"}
  %reduce_sum.172 = f32[] parameter(1), metadata={op_name="reduce_sum"}
  ROOT %reduce_sum.173 = f32[] add(%reduce_sum.171, %reduce_sum.172), metadata={op_name="jit(train_step)/jvp(DiT)/block4/LayerNorm_1/reduce_sum" stack_frame_id=18}
}

%region_31.35 (reduce_sum.178: f32[], reduce_sum.179: f32[]) -> f32[] {
  %reduce_sum.178 = f32[] parameter(0), metadata={op_name="reduce_sum"}
  %reduce_sum.179 = f32[] parameter(1), metadata={op_name="reduce_sum"}
  ROOT %reduce_sum.180 = f32[] add(%reduce_sum.178, %reduce_sum.179), metadata={op_name="jit(train_step)/jvp(DiT)/block5/LayerNorm_0/reduce_sum" stack_frame_id=9}
}

%region_32.36 (reduce_sum.185: f32[], reduce_sum.186: f32[]) -> f32[] {
  %reduce_sum.185 = f32[] parameter(0), metadata={op_name="reduce_sum"}
  %reduce_sum.186 = f32[] parameter(1), metadata={op_name="reduce_sum"}
  ROOT %reduce_sum.187 = f32[] add(%reduce_sum.185, %reduce_sum.186), metadata={op_name="jit(train_step)/jvp(DiT)/block5/LayerNorm_0/reduce_sum" stack_frame_id=9}
}

%region_33.37 (reduce_max.38: f32[], reduce_max.39: f32[]) -> f32[] {
  %reduce_max.38 = f32[] parameter(0), metadata={op_name="reduce_max"}
  %reduce_max.39 = f32[] parameter(1), metadata={op_name="reduce_max"}
  ROOT %reduce_max.40 = f32[] maximum(%reduce_max.38, %reduce_max.39), metadata={op_name="jit(train_step)/jvp(DiT)/block5/MultiHeadDotProductAttention_0/reduce_max" stack_frame_id=13}
}

%region_34.38 (reduce_sum.192: f32[], reduce_sum.193: f32[]) -> f32[] {
  %reduce_sum.192 = f32[] parameter(0), metadata={op_name="reduce_sum"}
  %reduce_sum.193 = f32[] parameter(1), metadata={op_name="reduce_sum"}
  ROOT %reduce_sum.194 = f32[] add(%reduce_sum.192, %reduce_sum.193), metadata={op_name="jit(train_step)/jvp(DiT)/block5/MultiHeadDotProductAttention_0/reduce_sum" stack_frame_id=13}
}

%region_35.39 (reduce_sum.199: f32[], reduce_sum.200: f32[]) -> f32[] {
  %reduce_sum.199 = f32[] parameter(0), metadata={op_name="reduce_sum"}
  %reduce_sum.200 = f32[] parameter(1), metadata={op_name="reduce_sum"}
  ROOT %reduce_sum.201 = f32[] add(%reduce_sum.199, %reduce_sum.200), metadata={op_name="jit(train_step)/jvp(DiT)/block5/LayerNorm_1/reduce_sum" stack_frame_id=18}
}

%region_36.40 (reduce_sum.206: f32[], reduce_sum.207: f32[]) -> f32[] {
  %reduce_sum.206 = f32[] parameter(0), metadata={op_name="reduce_sum"}
  %reduce_sum.207 = f32[] parameter(1), metadata={op_name="reduce_sum"}
  ROOT %reduce_sum.208 = f32[] add(%reduce_sum.206, %reduce_sum.207), metadata={op_name="jit(train_step)/jvp(DiT)/block5/LayerNorm_1/reduce_sum" stack_frame_id=18}
}

%region_37.41 (reduce_sum.213: f32[], reduce_sum.214: f32[]) -> f32[] {
  %reduce_sum.213 = f32[] parameter(0), metadata={op_name="reduce_sum"}
  %reduce_sum.214 = f32[] parameter(1), metadata={op_name="reduce_sum"}
  ROOT %reduce_sum.215 = f32[] add(%reduce_sum.213, %reduce_sum.214), metadata={op_name="jit(train_step)/jvp(DiT)/block6/LayerNorm_0/reduce_sum" stack_frame_id=9}
}

%region_38.42 (reduce_sum.220: f32[], reduce_sum.221: f32[]) -> f32[] {
  %reduce_sum.220 = f32[] parameter(0), metadata={op_name="reduce_sum"}
  %reduce_sum.221 = f32[] parameter(1), metadata={op_name="reduce_sum"}
  ROOT %reduce_sum.222 = f32[] add(%reduce_sum.220, %reduce_sum.221), metadata={op_name="jit(train_step)/jvp(DiT)/block6/LayerNorm_0/reduce_sum" stack_frame_id=9}
}

%region_39.43 (reduce_max.45: f32[], reduce_max.46: f32[]) -> f32[] {
  %reduce_max.45 = f32[] parameter(0), metadata={op_name="reduce_max"}
  %reduce_max.46 = f32[] parameter(1), metadata={op_name="reduce_max"}
  ROOT %reduce_max.47 = f32[] maximum(%reduce_max.45, %reduce_max.46), metadata={op_name="jit(train_step)/jvp(DiT)/block6/MultiHeadDotProductAttention_0/reduce_max" stack_frame_id=13}
}

%region_40.44 (reduce_sum.227: f32[], reduce_sum.228: f32[]) -> f32[] {
  %reduce_sum.227 = f32[] parameter(0), metadata={op_name="reduce_sum"}
  %reduce_sum.228 = f32[] parameter(1), metadata={op_name="reduce_sum"}
  ROOT %reduce_sum.229 = f32[] add(%reduce_sum.227, %reduce_sum.228), metadata={op_name="jit(train_step)/jvp(DiT)/block6/MultiHeadDotProductAttention_0/reduce_sum" stack_frame_id=13}
}

%region_41.45 (reduce_sum.234: f32[], reduce_sum.235: f32[]) -> f32[] {
  %reduce_sum.234 = f32[] parameter(0), metadata={op_name="reduce_sum"}
  %reduce_sum.235 = f32[] parameter(1), metadata={op_name="reduce_sum"}
  ROOT %reduce_sum.236 = f32[] add(%reduce_sum.234, %reduce_sum.235), metadata={op_name="jit(train_step)/jvp(DiT)/block6/LayerNorm_1/reduce_sum" stack_frame_id=18}
}

%region_42.46 (reduce_sum.241: f32[], reduce_sum.242: f32[]) -> f32[] {
  %reduce_sum.241 = f32[] parameter(0), metadata={op_name="reduce_sum"}
  %reduce_sum.242 = f32[] parameter(1), metadata={op_name="reduce_sum"}
  ROOT %reduce_sum.243 = f32[] add(%reduce_sum.241, %reduce_sum.242), metadata={op_name="jit(train_step)/jvp(DiT)/block6/LayerNorm_1/reduce_sum" stack_frame_id=18}
}

%region_43.47 (reduce_sum.248: f32[], reduce_sum.249: f32[]) -> f32[] {
  %reduce_sum.248 = f32[] parameter(0), metadata={op_name="reduce_sum"}
  %reduce_sum.249 = f32[] parameter(1), metadata={op_name="reduce_sum"}
  ROOT %reduce_sum.250 = f32[] add(%reduce_sum.248, %reduce_sum.249), metadata={op_name="jit(train_step)/jvp(DiT)/block7/LayerNorm_0/reduce_sum" stack_frame_id=9}
}

%region_44.48 (reduce_sum.255: f32[], reduce_sum.256: f32[]) -> f32[] {
  %reduce_sum.255 = f32[] parameter(0), metadata={op_name="reduce_sum"}
  %reduce_sum.256 = f32[] parameter(1), metadata={op_name="reduce_sum"}
  ROOT %reduce_sum.257 = f32[] add(%reduce_sum.255, %reduce_sum.256), metadata={op_name="jit(train_step)/jvp(DiT)/block7/LayerNorm_0/reduce_sum" stack_frame_id=9}
}

%region_45.49 (reduce_max.52: f32[], reduce_max.53: f32[]) -> f32[] {
  %reduce_max.52 = f32[] parameter(0), metadata={op_name="reduce_max"}
  %reduce_max.53 = f32[] parameter(1), metadata={op_name="reduce_max"}
  ROOT %reduce_max.54 = f32[] maximum(%reduce_max.52, %reduce_max.53), metadata={op_name="jit(train_step)/jvp(DiT)/block7/MultiHeadDotProductAttention_0/reduce_max" stack_frame_id=13}
}

%region_46.50 (reduce_sum.262: f32[], reduce_sum.263: f32[]) -> f32[] {
  %reduce_sum.262 = f32[] parameter(0), metadata={op_name="reduce_sum"}
  %reduce_sum.263 = f32[] parameter(1), metadata={op_name="reduce_sum"}
  ROOT %reduce_sum.264 = f32[] add(%reduce_sum.262, %reduce_sum.263), metadata={op_name="jit(train_step)/jvp(DiT)/block7/MultiHeadDotProductAttention_0/reduce_sum" stack_frame_id=13}
}

%region_47.51 (reduce_sum.269: f32[], reduce_sum.270: f32[]) -> f32[] {
  %reduce_sum.269 = f32[] parameter(0), metadata={op_name="reduce_sum"}
  %reduce_sum.270 = f32[] parameter(1), metadata={op_name="reduce_sum"}
  ROOT %reduce_sum.271 = f32[] add(%reduce_sum.269, %reduce_sum.270), metadata={op_name="jit(train_step)/jvp(DiT)/block7/LayerNorm_1/reduce_sum" stack_frame_id=18}
}

%region_48.52 (reduce_sum.276: f32[], reduce_sum.277: f32[]) -> f32[] {
  %reduce_sum.276 = f32[] parameter(0), metadata={op_name="reduce_sum"}
  %reduce_sum.277 = f32[] parameter(1), metadata={op_name="reduce_sum"}
  ROOT %reduce_sum.278 = f32[] add(%reduce_sum.276, %reduce_sum.277), metadata={op_name="jit(train_step)/jvp(DiT)/block7/LayerNorm_1/reduce_sum" stack_frame_id=18}
}

%region_49.53 (reduce_sum.283: f32[], reduce_sum.284: f32[]) -> f32[] {
  %reduce_sum.283 = f32[] parameter(0), metadata={op_name="reduce_sum"}
  %reduce_sum.284 = f32[] parameter(1), metadata={op_name="reduce_sum"}
  ROOT %reduce_sum.285 = f32[] add(%reduce_sum.283, %reduce_sum.284), metadata={op_name="jit(train_step)/jvp(DiT)/block8/LayerNorm_0/reduce_sum" stack_frame_id=9}
}

%region_50.54 (reduce_sum.290: f32[], reduce_sum.291: f32[]) -> f32[] {
  %reduce_sum.290 = f32[] parameter(0), metadata={op_name="reduce_sum"}
  %reduce_sum.291 = f32[] parameter(1), metadata={op_name="reduce_sum"}
  ROOT %reduce_sum.292 = f32[] add(%reduce_sum.290, %reduce_sum.291), metadata={op_name="jit(train_step)/jvp(DiT)/block8/LayerNorm_0/reduce_sum" stack_frame_id=9}
}

%region_51.55 (reduce_max.59: f32[], reduce_max.60: f32[]) -> f32[] {
  %reduce_max.59 = f32[] parameter(0), metadata={op_name="reduce_max"}
  %reduce_max.60 = f32[] parameter(1), metadata={op_name="reduce_max"}
  ROOT %reduce_max.61 = f32[] maximum(%reduce_max.59, %reduce_max.60), metadata={op_name="jit(train_step)/jvp(DiT)/block8/MultiHeadDotProductAttention_0/reduce_max" stack_frame_id=13}
}

%region_52.56 (reduce_sum.297: f32[], reduce_sum.298: f32[]) -> f32[] {
  %reduce_sum.297 = f32[] parameter(0), metadata={op_name="reduce_sum"}
  %reduce_sum.298 = f32[] parameter(1), metadata={op_name="reduce_sum"}
  ROOT %reduce_sum.299 = f32[] add(%reduce_sum.297, %reduce_sum.298), metadata={op_name="jit(train_step)/jvp(DiT)/block8/MultiHeadDotProductAttention_0/reduce_sum" stack_frame_id=13}
}

%region_53.57 (reduce_sum.304: f32[], reduce_sum.305: f32[]) -> f32[] {
  %reduce_sum.304 = f32[] parameter(0), metadata={op_name="reduce_sum"}
  %reduce_sum.305 = f32[] parameter(1), metadata={op_name="reduce_sum"}
  ROOT %reduce_sum.306 = f32[] add(%reduce_sum.304, %reduce_sum.305), metadata={op_name="jit(train_step)/jvp(DiT)/block8/LayerNorm_1/reduce_sum" stack_frame_id=18}
}

%region_54.58 (reduce_sum.311: f32[], reduce_sum.312: f32[]) -> f32[] {
  %reduce_sum.311 = f32[] parameter(0), metadata={op_name="reduce_sum"}
  %reduce_sum.312 = f32[] parameter(1), metadata={op_name="reduce_sum"}
  ROOT %reduce_sum.313 = f32[] add(%reduce_sum.311, %reduce_sum.312), metadata={op_name="jit(train_step)/jvp(DiT)/block8/LayerNorm_1/reduce_sum" stack_frame_id=18}
}

%region_55.59 (reduce_sum.318: f32[], reduce_sum.319: f32[]) -> f32[] {
  %reduce_sum.318 = f32[] parameter(0), metadata={op_name="reduce_sum"}
  %reduce_sum.319 = f32[] parameter(1), metadata={op_name="reduce_sum"}
  ROOT %reduce_sum.320 = f32[] add(%reduce_sum.318, %reduce_sum.319), metadata={op_name="jit(train_step)/jvp(DiT)/block9/LayerNorm_0/reduce_sum" stack_frame_id=9}
}

%region_56.60 (reduce_sum.325: f32[], reduce_sum.326: f32[]) -> f32[] {
  %reduce_sum.325 = f32[] parameter(0), metadata={op_name="reduce_sum"}
  %reduce_sum.326 = f32[] parameter(1), metadata={op_name="reduce_sum"}
  ROOT %reduce_sum.327 = f32[] add(%reduce_sum.325, %reduce_sum.326), metadata={op_name="jit(train_step)/jvp(DiT)/block9/LayerNorm_0/reduce_sum" stack_frame_id=9}
}

%region_57.61 (reduce_max.66: f32[], reduce_max.67: f32[]) -> f32[] {
  %reduce_max.66 = f32[] parameter(0), metadata={op_name="reduce_max"}
  %reduce_max.67 = f32[] parameter(1), metadata={op_name="reduce_max"}
  ROOT %reduce_max.68 = f32[] maximum(%reduce_max.66, %reduce_max.67), metadata={op_name="jit(train_step)/jvp(DiT)/block9/MultiHeadDotProductAttention_0/reduce_max" stack_frame_id=13}
}

%region_58.62 (reduce_sum.332: f32[], reduce_sum.333: f32[]) -> f32[] {
  %reduce_sum.332 = f32[] parameter(0), metadata={op_name="reduce_sum"}
  %reduce_sum.333 = f32[] parameter(1), metadata={op_name="reduce_sum"}
  ROOT %reduce_sum.334 = f32[] add(%reduce_sum.332, %reduce_sum.333), metadata={op_name="jit(train_step)/jvp(DiT)/block9/MultiHeadDotProductAttention_0/reduce_sum" stack_frame_id=13}
}

%region_59.63 (reduce_sum.339: f32[], reduce_sum.340: f32[]) -> f32[] {
  %reduce_sum.339 = f32[] parameter(0), metadata={op_name="reduce_sum"}
  %reduce_sum.340 = f32[] parameter(1), metadata={op_name="reduce_sum"}
  ROOT %reduce_sum.341 = f32[] add(%reduce_sum.339, %reduce_sum.340), metadata={op_name="jit(train_step)/jvp(DiT)/block9/LayerNorm_1/reduce_sum" stack_frame_id=18}
}

%region_60.64 (reduce_sum.346: f32[], reduce_sum.347: f32[]) -> f32[] {
  %reduce_sum.346 = f32[] parameter(0), metadata={op_name="reduce_sum"}
  %reduce_sum.347 = f32[] parameter(1), metadata={op_name="reduce_sum"}
  ROOT %reduce_sum.348 = f32[] add(%reduce_sum.346, %reduce_sum.347), metadata={op_name="jit(train_step)/jvp(DiT)/block9/LayerNorm_1/reduce_sum" stack_frame_id=18}
}

%region_61.65 (reduce_sum.353: f32[], reduce_sum.354: f32[]) -> f32[] {
  %reduce_sum.353 = f32[] parameter(0), metadata={op_name="reduce_sum"}
  %reduce_sum.354 = f32[] parameter(1), metadata={op_name="reduce_sum"}
  ROOT %reduce_sum.355 = f32[] add(%reduce_sum.353, %reduce_sum.354), metadata={op_name="jit(train_step)/jvp(DiT)/block10/LayerNorm_0/reduce_sum" stack_frame_id=9}
}

%region_62.66 (reduce_sum.360: f32[], reduce_sum.361: f32[]) -> f32[] {
  %reduce_sum.360 = f32[] parameter(0), metadata={op_name="reduce_sum"}
  %reduce_sum.361 = f32[] parameter(1), metadata={op_name="reduce_sum"}
  ROOT %reduce_sum.362 = f32[] add(%reduce_sum.360, %reduce_sum.361), metadata={op_name="jit(train_step)/jvp(DiT)/block10/LayerNorm_0/reduce_sum" stack_frame_id=9}
}

%region_63.67 (reduce_max.73: f32[], reduce_max.74: f32[]) -> f32[] {
  %reduce_max.73 = f32[] parameter(0), metadata={op_name="reduce_max"}
  %reduce_max.74 = f32[] parameter(1), metadata={op_name="reduce_max"}
  ROOT %reduce_max.75 = f32[] maximum(%reduce_max.73, %reduce_max.74), metadata={op_name="jit(train_step)/jvp(DiT)/block10/MultiHeadDotProductAttention_0/reduce_max" stack_frame_id=13}
}

%region_64.68 (reduce_sum.367: f32[], reduce_sum.368: f32[]) -> f32[] {
  %reduce_sum.367 = f32[] parameter(0), metadata={op_name="reduce_sum"}
  %reduce_sum.368 = f32[] parameter(1), metadata={op_name="reduce_sum"}
  ROOT %reduce_sum.369 = f32[] add(%reduce_sum.367, %reduce_sum.368), metadata={op_name="jit(train_step)/jvp(DiT)/block10/MultiHeadDotProductAttention_0/reduce_sum" stack_frame_id=13}
}

%region_65.69 (reduce_sum.374: f32[], reduce_sum.375: f32[]) -> f32[] {
  %reduce_sum.374 = f32[] parameter(0), metadata={op_name="reduce_sum"}
  %reduce_sum.375 = f32[] parameter(1), metadata={op_name="reduce_sum"}
  ROOT %reduce_sum.376 = f32[] add(%reduce_sum.374, %reduce_sum.375), metadata={op_name="jit(train_step)/jvp(DiT)/block10/LayerNorm_1/reduce_sum" stack_frame_id=18}
}

%region_66.70 (reduce_sum.381: f32[], reduce_sum.382: f32[]) -> f32[] {
  %reduce_sum.381 = f32[] parameter(0), metadata={op_name="reduce_sum"}
  %reduce_sum.382 = f32[] parameter(1), metadata={op_name="reduce_sum"}
  ROOT %reduce_sum.383 = f32[] add(%reduce_sum.381, %reduce_sum.382), metadata={op_name="jit(train_step)/jvp(DiT)/block10/LayerNorm_1/reduce_sum" stack_frame_id=18}
}

%region_67.71 (reduce_sum.388: f32[], reduce_sum.389: f32[]) -> f32[] {
  %reduce_sum.388 = f32[] parameter(0), metadata={op_name="reduce_sum"}
  %reduce_sum.389 = f32[] parameter(1), metadata={op_name="reduce_sum"}
  ROOT %reduce_sum.390 = f32[] add(%reduce_sum.388, %reduce_sum.389), metadata={op_name="jit(train_step)/jvp(DiT)/block11/LayerNorm_0/reduce_sum" stack_frame_id=9}
}

%region_68.72 (reduce_sum.395: f32[], reduce_sum.396: f32[]) -> f32[] {
  %reduce_sum.395 = f32[] parameter(0), metadata={op_name="reduce_sum"}
  %reduce_sum.396 = f32[] parameter(1), metadata={op_name="reduce_sum"}
  ROOT %reduce_sum.397 = f32[] add(%reduce_sum.395, %reduce_sum.396), metadata={op_name="jit(train_step)/jvp(DiT)/block11/LayerNorm_0/reduce_sum" stack_frame_id=9}
}

%region_69.73 (reduce_max.80: f32[], reduce_max.81: f32[]) -> f32[] {
  %reduce_max.80 = f32[] parameter(0), metadata={op_name="reduce_max"}
  %reduce_max.81 = f32[] parameter(1), metadata={op_name="reduce_max"}
  ROOT %reduce_max.82 = f32[] maximum(%reduce_max.80, %reduce_max.81), metadata={op_name="jit(train_step)/jvp(DiT)/block11/MultiHeadDotProductAttention_0/reduce_max" stack_frame_id=13}
}

%region_70.74 (reduce_sum.402: f32[], reduce_sum.403: f32[]) -> f32[] {
  %reduce_sum.402 = f32[] parameter(0), metadata={op_name="reduce_sum"}
  %reduce_sum.403 = f32[] parameter(1), metadata={op_name="reduce_sum"}
  ROOT %reduce_sum.404 = f32[] add(%reduce_sum.402, %reduce_sum.403), metadata={op_name="jit(train_step)/jvp(DiT)/block11/MultiHeadDotProductAttention_0/reduce_sum" stack_frame_id=13}
}

%region_71.75 (reduce_sum.409: f32[], reduce_sum.410: f32[]) -> f32[] {
  %reduce_sum.409 = f32[] parameter(0), metadata={op_name="reduce_sum"}
  %reduce_sum.410 = f32[] parameter(1), metadata={op_name="reduce_sum"}
  ROOT %reduce_sum.411 = f32[] add(%reduce_sum.409, %reduce_sum.410), metadata={op_name="jit(train_step)/jvp(DiT)/block11/LayerNorm_1/reduce_sum" stack_frame_id=18}
}

%region_72.76 (reduce_sum.416: f32[], reduce_sum.417: f32[]) -> f32[] {
  %reduce_sum.416 = f32[] parameter(0), metadata={op_name="reduce_sum"}
  %reduce_sum.417 = f32[] parameter(1), metadata={op_name="reduce_sum"}
  ROOT %reduce_sum.418 = f32[] add(%reduce_sum.416, %reduce_sum.417), metadata={op_name="jit(train_step)/jvp(DiT)/block11/LayerNorm_1/reduce_sum" stack_frame_id=18}
}

%region_73.77 (reduce_sum.423: f32[], reduce_sum.424: f32[]) -> f32[] {
  %reduce_sum.423 = f32[] parameter(0), metadata={op_name="reduce_sum"}
  %reduce_sum.424 = f32[] parameter(1), metadata={op_name="reduce_sum"}
  ROOT %reduce_sum.425 = f32[] add(%reduce_sum.423, %reduce_sum.424), metadata={op_name="jit(train_step)/jvp(DiT)/LayerNorm_0/reduce_sum" stack_frame_id=23}
}

%region_74.78 (reduce_sum.430: f32[], reduce_sum.431: f32[]) -> f32[] {
  %reduce_sum.430 = f32[] parameter(0), metadata={op_name="reduce_sum"}
  %reduce_sum.431 = f32[] parameter(1), metadata={op_name="reduce_sum"}
  ROOT %reduce_sum.432 = f32[] add(%reduce_sum.430, %reduce_sum.431), metadata={op_name="jit(train_step)/jvp(DiT)/LayerNorm_0/reduce_sum" stack_frame_id=23}
}

%region_77.81 (reduce_sum.451: f32[], reduce_sum.452: f32[]) -> f32[] {
  %reduce_sum.451 = f32[] parameter(0), metadata={op_name="reduce_sum"}
  %reduce_sum.452 = f32[] parameter(1), metadata={op_name="reduce_sum"}
  ROOT %reduce_sum.453 = f32[] add(%reduce_sum.451, %reduce_sum.452), metadata={op_name="jit(train_step)/transpose(jvp(DiT))/reduce_sum" stack_frame_id=28}
}

%region_78.82 (reduce_sum.458: f32[], reduce_sum.459: f32[]) -> f32[] {
  %reduce_sum.458 = f32[] parameter(0), metadata={op_name="reduce_sum"}
  %reduce_sum.459 = f32[] parameter(1), metadata={op_name="reduce_sum"}
  ROOT %reduce_sum.460 = f32[] add(%reduce_sum.458, %reduce_sum.459), metadata={op_name="jit(train_step)/transpose(jvp(DiT))/reduce_sum" stack_frame_id=29}
}

%region_79.83 (reduce_sum.465: f32[], reduce_sum.466: f32[]) -> f32[] {
  %reduce_sum.465 = f32[] parameter(0), metadata={op_name="reduce_sum"}
  %reduce_sum.466 = f32[] parameter(1), metadata={op_name="reduce_sum"}
  ROOT %reduce_sum.467 = f32[] add(%reduce_sum.465, %reduce_sum.466), metadata={op_name="jit(train_step)/transpose(jvp(DiT))/reduce_sum" stack_frame_id=28}
}

%region_80.84 (reduce_sum.472: f32[], reduce_sum.473: f32[]) -> f32[] {
  %reduce_sum.472 = f32[] parameter(0), metadata={op_name="reduce_sum"}
  %reduce_sum.473 = f32[] parameter(1), metadata={op_name="reduce_sum"}
  ROOT %reduce_sum.474 = f32[] add(%reduce_sum.472, %reduce_sum.473), metadata={op_name="jit(train_step)/transpose(jvp(DiT))/reduce_sum" stack_frame_id=30}
}

%region_85.89 (reduce_sum.507: f32[], reduce_sum.508: f32[]) -> f32[] {
  %reduce_sum.507 = f32[] parameter(0), metadata={op_name="reduce_sum"}
  %reduce_sum.508 = f32[] parameter(1), metadata={op_name="reduce_sum"}
  ROOT %reduce_sum.509 = f32[] add(%reduce_sum.507, %reduce_sum.508), metadata={op_name="jit(train_step)/transpose(jvp(DiT))/Dense_0/reduce_sum" stack_frame_id=37}
}

%_where_2.445 (Arg_0.11: pred[], Arg_1.9: s32[], Arg_2.5: s32[]) -> s32[] {
  %Arg_0.11 = pred[] parameter(0)
  %Arg_1.9 = s32[] parameter(1)
  %Arg_2.5 = s32[] parameter(2)
  ROOT %select_n.55 = s32[] select(%Arg_0.11, %Arg_1.9, %Arg_2.5), metadata={op_name="select_n"}
}

%region_76.80 (reduce_sum.444: f32[], reduce_sum.445: f32[]) -> f32[] {
  %reduce_sum.444 = f32[] parameter(0), metadata={op_name="reduce_sum"}
  %reduce_sum.445 = f32[] parameter(1), metadata={op_name="reduce_sum"}
  ROOT %reduce_sum.446 = f32[] add(%reduce_sum.444, %reduce_sum.445), metadata={op_name="jit(train_step)/transpose(jvp(DiT))/Dense_1/reduce_sum" stack_frame_id=26}
}

%silu_0.90 (Arg_0.7: f32[8,768], Arg_1.5: f32[8,768], Arg_2.3: f32[8,768], Arg_3.1: f32[8,768]) -> f32[8,768] {
  %Arg_3.1 = f32[8,768]{1,0} parameter(3)
  %Arg_1.5 = f32[8,768]{1,0} parameter(1)
  %mul.512 = f32[8,768]{1,0} multiply(%Arg_3.1, %Arg_1.5), metadata={op_name="mul"}
  %Arg_2.3 = f32[8,768]{1,0} parameter(2)
  %mul.511 = f32[8,768]{1,0} multiply(%Arg_2.3, %Arg_3.1), metadata={op_name="mul"}
  %Arg_0.7 = f32[8,768]{1,0} parameter(0)
  %mul.513 = f32[8,768]{1,0} multiply(%mul.511, %Arg_0.7), metadata={op_name="mul"}
  ROOT %add_any.4 = f32[8,768]{1,0} add(%mul.512, %mul.513), metadata={op_name="add_any"}
}

%region_82.86 (reduce_sum.486: f32[], reduce_sum.487: f32[]) -> f32[] {
  %reduce_sum.486 = f32[] parameter(0), metadata={op_name="reduce_sum"}
  %reduce_sum.487 = f32[] parameter(1), metadata={op_name="reduce_sum"}
  ROOT %reduce_sum.488 = f32[] add(%reduce_sum.486, %reduce_sum.487), metadata={op_name="jit(train_step)/transpose(jvp(DiT))/LayerNorm_0/reduce_sum" stack_frame_id=33}
}

%region_84.88 (reduce_sum.500: f32[], reduce_sum.501: f32[]) -> f32[] {
  %reduce_sum.500 = f32[] parameter(0), metadata={op_name="reduce_sum"}
  %reduce_sum.501 = f32[] parameter(1), metadata={op_name="reduce_sum"}
  ROOT %reduce_sum.502 = f32[] add(%reduce_sum.500, %reduce_sum.501), metadata={op_name="jit(train_step)/transpose(jvp(DiT))/LayerNorm_0/reduce_sum" stack_frame_id=35}
}

%region_81.85 (reduce_sum.479: f32[], reduce_sum.480: f32[]) -> f32[] {
  %reduce_sum.479 = f32[] parameter(0), metadata={op_name="reduce_sum"}
  %reduce_sum.480 = f32[] parameter(1), metadata={op_name="reduce_sum"}
  ROOT %reduce_sum.481 = f32[] add(%reduce_sum.479, %reduce_sum.480), metadata={op_name="jit(train_step)/transpose(jvp(DiT))/LayerNorm_0/reduce_sum" stack_frame_id=32}
}

%region_83.87 (reduce_sum.493: f32[], reduce_sum.494: f32[]) -> f32[] {
  %reduce_sum.493 = f32[] parameter(0), metadata={op_name="reduce_sum"}
  %reduce_sum.494 = f32[] parameter(1), metadata={op_name="reduce_sum"}
  ROOT %reduce_sum.495 = f32[] add(%reduce_sum.493, %reduce_sum.494), metadata={op_name="jit(train_step)/transpose(jvp(DiT))/LayerNorm_0/reduce_sum" stack_frame_id=34}
}

%region_95.100 (reduce_sum.577: f32[], reduce_sum.578: f32[]) -> f32[] {
  %reduce_sum.577 = f32[] parameter(0), metadata={op_name="reduce_sum"}
  %reduce_sum.578 = f32[] parameter(1), metadata={op_name="reduce_sum"}
  ROOT %reduce_sum.579 = f32[] add(%reduce_sum.577, %reduce_sum.578), metadata={op_name="jit(train_step)/transpose(jvp(DiT))/block11/LayerNorm_1/reduce_sum" stack_frame_id=49}
}

%region_97.102 (reduce_sum.591: f32[], reduce_sum.592: f32[]) -> f32[] {
  %reduce_sum.591 = f32[] parameter(0), metadata={op_name="reduce_sum"}
  %reduce_sum.592 = f32[] parameter(1), metadata={op_name="reduce_sum"}
  ROOT %reduce_sum.593 = f32[] add(%reduce_sum.591, %reduce_sum.592), metadata={op_name="jit(train_step)/transpose(jvp(DiT))/block11/LayerNorm_1/reduce_sum" stack_frame_id=51}
}

%region_94.99 (reduce_sum.570: f32[], reduce_sum.571: f32[]) -> f32[] {
  %reduce_sum.570 = f32[] parameter(0), metadata={op_name="reduce_sum"}
  %reduce_sum.571 = f32[] parameter(1), metadata={op_name="reduce_sum"}
  ROOT %reduce_sum.572 = f32[] add(%reduce_sum.570, %reduce_sum.571), metadata={op_name="jit(train_step)/transpose(jvp(DiT))/block11/LayerNorm_1/reduce_sum" stack_frame_id=48}
}

%region_96.101 (reduce_sum.584: f32[], reduce_sum.585: f32[]) -> f32[] {
  %reduce_sum.584 = f32[] parameter(0), metadata={op_name="reduce_sum"}
  %reduce_sum.585 = f32[] parameter(1), metadata={op_name="reduce_sum"}
  ROOT %reduce_sum.586 = f32[] add(%reduce_sum.584, %reduce_sum.585), metadata={op_name="jit(train_step)/transpose(jvp(DiT))/block11/LayerNorm_1/reduce_sum" stack_frame_id=50}
}

%region_101.106 (reduce_sum.619: f32[], reduce_sum.620: f32[]) -> f32[] {
  %reduce_sum.619 = f32[] parameter(0), metadata={op_name="reduce_sum"}
  %reduce_sum.620 = f32[] parameter(1), metadata={op_name="reduce_sum"}
  ROOT %reduce_sum.621 = f32[] add(%reduce_sum.619, %reduce_sum.620), metadata={op_name="jit(train_step)/transpose(jvp(DiT))/block11/MultiHeadDotProductAttention_0/reduce_sum" stack_frame_id=13}
}

%region_102.107 (reduce_sum.626: f32[], reduce_sum.627: f32[]) -> f32[] {
  %reduce_sum.626 = f32[] parameter(0), metadata={op_name="reduce_sum"}
  %reduce_sum.627 = f32[] parameter(1), metadata={op_name="reduce_sum"}
  ROOT %reduce_sum.628 = f32[] add(%reduce_sum.626, %reduce_sum.627), metadata={op_name="jit(train_step)/transpose(jvp(DiT))/block11/MultiHeadDotProductAttention_0/reduce_sum" stack_frame_id=13}
}

%region_108.113 (reduce_sum.668: f32[], reduce_sum.669: f32[]) -> f32[] {
  %reduce_sum.668 = f32[] parameter(0), metadata={op_name="reduce_sum"}
  %reduce_sum.669 = f32[] parameter(1), metadata={op_name="reduce_sum"}
  ROOT %reduce_sum.670 = f32[] add(%reduce_sum.668, %reduce_sum.669), metadata={op_name="jit(train_step)/transpose(jvp(DiT))/block11/reduce_sum" stack_frame_id=62}
}

%region_109.114 (reduce_sum.675: f32[], reduce_sum.676: f32[]) -> f32[] {
  %reduce_sum.675 = f32[] parameter(0), metadata={op_name="reduce_sum"}
  %reduce_sum.676 = f32[] parameter(1), metadata={op_name="reduce_sum"}
  ROOT %reduce_sum.677 = f32[] add(%reduce_sum.675, %reduce_sum.676), metadata={op_name="jit(train_step)/transpose(jvp(DiT))/block11/reduce_sum" stack_frame_id=64}
}

%region_106.111 (reduce_sum.654: f32[], reduce_sum.655: f32[]) -> f32[] {
  %reduce_sum.654 = f32[] parameter(0), metadata={op_name="reduce_sum"}
  %reduce_sum.655 = f32[] parameter(1), metadata={op_name="reduce_sum"}
  ROOT %reduce_sum.656 = f32[] add(%reduce_sum.654, %reduce_sum.655), metadata={op_name="jit(train_step)/transpose(jvp(DiT))/block11/reduce_sum" stack_frame_id=62}
}

%region_107.112 (reduce_sum.661: f32[], reduce_sum.662: f32[]) -> f32[] {
  %reduce_sum.661 = f32[] parameter(0), metadata={op_name="reduce_sum"}
  %reduce_sum.662 = f32[] parameter(1), metadata={op_name="reduce_sum"}
  ROOT %reduce_sum.663 = f32[] add(%reduce_sum.661, %reduce_sum.662), metadata={op_name="jit(train_step)/transpose(jvp(DiT))/block11/reduce_sum" stack_frame_id=63}
}

%region_98.103 (reduce_sum.598: f32[], reduce_sum.599: f32[]) -> f32[] {
  %reduce_sum.598 = f32[] parameter(0), metadata={op_name="reduce_sum"}
  %reduce_sum.599 = f32[] parameter(1), metadata={op_name="reduce_sum"}
  ROOT %reduce_sum.600 = f32[] add(%reduce_sum.598, %reduce_sum.599), metadata={op_name="jit(train_step)/transpose(jvp(DiT))/block11/reduce_sum" stack_frame_id=52}
}

%region_99.104 (reduce_sum.605: f32[], reduce_sum.606: f32[]) -> f32[] {
  %reduce_sum.605 = f32[] parameter(0), metadata={op_name="reduce_sum"}
  %reduce_sum.606 = f32[] parameter(1), metadata={op_name="reduce_sum"}
  ROOT %reduce_sum.607 = f32[] add(%reduce_sum.605, %reduce_sum.606), metadata={op_name="jit(train_step)/transpose(jvp(DiT))/block11/reduce_sum" stack_frame_id=52}
}

%region_92.97 (reduce_sum.556: f32[], reduce_sum.557: f32[]) -> f32[] {
  %reduce_sum.556 = f32[] parameter(0), metadata={op_name="reduce_sum"}
  %reduce_sum.557 = f32[] parameter(1), metadata={op_name="reduce_sum"}
  ROOT %reduce_sum.558 = f32[] add(%reduce_sum.556, %reduce_sum.557), metadata={op_name="jit(train_step)/transpose(jvp(DiT))/block11/reduce_sum" stack_frame_id=44}
}

%region_93.98 (reduce_sum.563: f32[], reduce_sum.564: f32[]) -> f32[] {
  %reduce_sum.563 = f32[] parameter(0), metadata={op_name="reduce_sum"}
  %reduce_sum.564 = f32[] parameter(1), metadata={op_name="reduce_sum"}
  ROOT %reduce_sum.565 = f32[] add(%reduce_sum.563, %reduce_sum.564), metadata={op_name="jit(train_step)/transpose(jvp(DiT))/block11/reduce_sum" stack_frame_id=46}
}

%region_90.95 (reduce_sum.542: f32[], reduce_sum.543: f32[]) -> f32[] {
  %reduce_sum.542 = f32[] parameter(0), metadata={op_name="reduce_sum"}
  %reduce_sum.543 = f32[] parameter(1), metadata={op_name="reduce_sum"}
  ROOT %reduce_sum.544 = f32[] add(%reduce_sum.542, %reduce_sum.543), metadata={op_name="jit(train_step)/transpose(jvp(DiT))/block11/reduce_sum" stack_frame_id=44}
}

%region_91.96 (reduce_sum.549: f32[], reduce_sum.550: f32[]) -> f32[] {
  %reduce_sum.549 = f32[] parameter(0), metadata={op_name="reduce_sum"}
  %reduce_sum.550 = f32[] parameter(1), metadata={op_name="reduce_sum"}
  ROOT %reduce_sum.551 = f32[] add(%reduce_sum.549, %reduce_sum.550), metadata={op_name="jit(train_step)/transpose(jvp(DiT))/block11/reduce_sum" stack_frame_id=45}
}

%region_86.91 (reduce_sum.514: f32[], reduce_sum.515: f32[]) -> f32[] {
  %reduce_sum.514 = f32[] parameter(0), metadata={op_name="reduce_sum"}
  %reduce_sum.515 = f32[] parameter(1), metadata={op_name="reduce_sum"}
  ROOT %reduce_sum.516 = f32[] add(%reduce_sum.514, %reduce_sum.515), metadata={op_name="jit(train_step)/transpose(jvp(DiT))/block11/reduce_sum" stack_frame_id=38}
}

%region_87.92 (reduce_sum.521: f32[], reduce_sum.522: f32[]) -> f32[] {
  %reduce_sum.521 = f32[] parameter(0), metadata={op_name="reduce_sum"}
  %reduce_sum.522 = f32[] parameter(1), metadata={op_name="reduce_sum"}
  ROOT %reduce_sum.523 = f32[] add(%reduce_sum.521, %reduce_sum.522), metadata={op_name="jit(train_step)/transpose(jvp(DiT))/block11/reduce_sum" stack_frame_id=38}
}

%region_111.116 (reduce_sum.689: f32[], reduce_sum.690: f32[]) -> f32[] {
  %reduce_sum.689 = f32[] parameter(0), metadata={op_name="reduce_sum"}
  %reduce_sum.690 = f32[] parameter(1), metadata={op_name="reduce_sum"}
  ROOT %reduce_sum.691 = f32[] add(%reduce_sum.689, %reduce_sum.690), metadata={op_name="jit(train_step)/transpose(jvp(DiT))/block11/LayerNorm_0/reduce_sum" stack_frame_id=67}
}

%region_113.118 (reduce_sum.703: f32[], reduce_sum.704: f32[]) -> f32[] {
  %reduce_sum.703 = f32[] parameter(0), metadata={op_name="reduce_sum"}
  %reduce_sum.704 = f32[] parameter(1), metadata={op_name="reduce_sum"}
  ROOT %reduce_sum.705 = f32[] add(%reduce_sum.703, %reduce_sum.704), metadata={op_name="jit(train_step)/transpose(jvp(DiT))/block11/LayerNorm_0/reduce_sum" stack_frame_id=69}
}

%region_110.115 (reduce_sum.682: f32[], reduce_sum.683: f32[]) -> f32[] {
  %reduce_sum.682 = f32[] parameter(0), metadata={op_name="reduce_sum"}
  %reduce_sum.683 = f32[] parameter(1), metadata={op_name="reduce_sum"}
  ROOT %reduce_sum.684 = f32[] add(%reduce_sum.682, %reduce_sum.683), metadata={op_name="jit(train_step)/transpose(jvp(DiT))/block11/LayerNorm_0/reduce_sum" stack_frame_id=66}
}

%region_112.117 (reduce_sum.696: f32[], reduce_sum.697: f32[]) -> f32[] {
  %reduce_sum.696 = f32[] parameter(0), metadata={op_name="reduce_sum"}
  %reduce_sum.697 = f32[] parameter(1), metadata={op_name="reduce_sum"}
  ROOT %reduce_sum.698 = f32[] add(%reduce_sum.696, %reduce_sum.697), metadata={op_name="jit(train_step)/transpose(jvp(DiT))/block11/LayerNorm_0/reduce_sum" stack_frame_id=68}
}

%region_124.129 (reduce_sum.780: f32[], reduce_sum.781: f32[]) -> f32[] {
  %reduce_sum.780 = f32[] parameter(0), metadata={op_name="reduce_sum"}
  %reduce_sum.781 = f32[] parameter(1), metadata={op_name="reduce_sum"}
  ROOT %reduce_sum.782 = f32[] add(%reduce_sum.780, %reduce_sum.781), metadata={op_name="jit(train_step)/transpose(jvp(DiT))/block10/LayerNorm_1/reduce_sum" stack_frame_id=49}
}

%region_126.131 (reduce_sum.794: f32[], reduce_sum.795: f32[]) -> f32[] {
  %reduce_sum.794 = f32[] parameter(0), metadata={op_name="reduce_sum"}
  %reduce_sum.795 = f32[] parameter(1), metadata={op_name="reduce_sum"}
  ROOT %reduce_sum.796 = f32[] add(%reduce_sum.794, %reduce_sum.795), metadata={op_name="jit(train_step)/transpose(jvp(DiT))/block10/LayerNorm_1/reduce_sum" stack_frame_id=51}
}

%region_123.128 (reduce_sum.773: f32[], reduce_sum.774: f32[]) -> f32[] {
  %reduce_sum.773 = f32[] parameter(0), metadata={op_name="reduce_sum"}
  %reduce_sum.774 = f32[] parameter(1), metadata={op_name="reduce_sum"}
  ROOT %reduce_sum.775 = f32[] add(%reduce_sum.773, %reduce_sum.774), metadata={op_name="jit(train_step)/transpose(jvp(DiT))/block10/LayerNorm_1/reduce_sum" stack_frame_id=48}
}

%region_125.130 (reduce_sum.787: f32[], reduce_sum.788: f32[]) -> f32[] {
  %reduce_sum.787 = f32[] parameter(0), metadata={op_name="reduce_sum"}
  %reduce_sum.788 = f32[] parameter(1), metadata={op_name="reduce_sum"}
  ROOT %reduce_sum.789 = f32[] add(%reduce_sum.787, %reduce_sum.788), metadata={op_name="jit(train_step)/transpose(jvp(DiT))/block10/LayerNorm_1/reduce_sum" stack_frame_id=50}
}

%region_130.135 (reduce_sum.822: f32[], reduce_sum.823: f32[]) -> f32[] {
  %reduce_sum.822 = f32[] parameter(0), metadata={op_name="reduce_sum"}
  %reduce_sum.823 = f32[] parameter(1), metadata={op_name="reduce_sum"}
  ROOT %reduce_sum.824 = f32[] add(%reduce_sum.822, %reduce_sum.823), metadata={op_name="jit(train_step)/transpose(jvp(DiT))/block10/MultiHeadDotProductAttention_0/reduce_sum" stack_frame_id=13}
}

%region_131.136 (reduce_sum.829: f32[], reduce_sum.830: f32[]) -> f32[] {
  %reduce_sum.829 = f32[] parameter(0), metadata={op_name="reduce_sum"}
  %reduce_sum.830 = f32[] parameter(1), metadata={op_name="reduce_sum"}
  ROOT %reduce_sum.831 = f32[] add(%reduce_sum.829, %reduce_sum.830), metadata={op_name="jit(train_step)/transpose(jvp(DiT))/block10/MultiHeadDotProductAttention_0/reduce_sum" stack_frame_id=13}
}

%region_137.142 (reduce_sum.871: f32[], reduce_sum.872: f32[]) -> f32[] {
  %reduce_sum.871 = f32[] parameter(0), metadata={op_name="reduce_sum"}
  %reduce_sum.872 = f32[] parameter(1), metadata={op_name="reduce_sum"}
  ROOT %reduce_sum.873 = f32[] add(%reduce_sum.871, %reduce_sum.872), metadata={op_name="jit(train_step)/transpose(jvp(DiT))/block10/reduce_sum" stack_frame_id=62}
}

%region_138.143 (reduce_sum.878: f32[], reduce_sum.879: f32[]) -> f32[] {
  %reduce_sum.878 = f32[] parameter(0), metadata={op_name="reduce_sum"}
  %reduce_sum.879 = f32[] parameter(1), metadata={op_name="reduce_sum"}
  ROOT %reduce_sum.880 = f32[] add(%reduce_sum.878, %reduce_sum.879), metadata={op_name="jit(train_step)/transpose(jvp(DiT))/block10/reduce_sum" stack_frame_id=64}
}

%region_135.140 (reduce_sum.857: f32[], reduce_sum.858: f32[]) -> f32[] {
  %reduce_sum.857 = f32[] parameter(0), metadata={op_name="reduce_sum"}
  %reduce_sum.858 = f32[] parameter(1), metadata={op_name="reduce_sum"}
  ROOT %reduce_sum.859 = f32[] add(%reduce_sum.857, %reduce_sum.858), metadata={op_name="jit(train_step)/transpose(jvp(DiT))/block10/reduce_sum" stack_frame_id=62}
}

%region_136.141 (reduce_sum.864: f32[], reduce_sum.865: f32[]) -> f32[] {
  %reduce_sum.864 = f32[] parameter(0), metadata={op_name="reduce_sum"}
  %reduce_sum.865 = f32[] parameter(1), metadata={op_name="reduce_sum"}
  ROOT %reduce_sum.866 = f32[] add(%reduce_sum.864, %reduce_sum.865), metadata={op_name="jit(train_step)/transpose(jvp(DiT))/block10/reduce_sum" stack_frame_id=63}
}

%region_127.132 (reduce_sum.801: f32[], reduce_sum.802: f32[]) -> f32[] {
  %reduce_sum.801 = f32[] parameter(0), metadata={op_name="reduce_sum"}
  %reduce_sum.802 = f32[] parameter(1), metadata={op_name="reduce_sum"}
  ROOT %reduce_sum.803 = f32[] add(%reduce_sum.801, %reduce_sum.802), metadata={op_name="jit(train_step)/transpose(jvp(DiT))/block10/reduce_sum" stack_frame_id=52}
}

%region_128.133 (reduce_sum.808: f32[], reduce_sum.809: f32[]) -> f32[] {
  %reduce_sum.808 = f32[] parameter(0), metadata={op_name="reduce_sum"}
  %reduce_sum.809 = f32[] parameter(1), metadata={op_name="reduce_sum"}
  ROOT %reduce_sum.810 = f32[] add(%reduce_sum.808, %reduce_sum.809), metadata={op_name="jit(train_step)/transpose(jvp(DiT))/block10/reduce_sum" stack_frame_id=52}
}

%region_121.126 (reduce_sum.759: f32[], reduce_sum.760: f32[]) -> f32[] {
  %reduce_sum.759 = f32[] parameter(0), metadata={op_name="reduce_sum"}
  %reduce_sum.760 = f32[] parameter(1), metadata={op_name="reduce_sum"}
  ROOT %reduce_sum.761 = f32[] add(%reduce_sum.759, %reduce_sum.760), metadata={op_name="jit(train_step)/transpose(jvp(DiT))/block10/reduce_sum" stack_frame_id=44}
}

%region_122.127 (reduce_sum.766: f32[], reduce_sum.767: f32[]) -> f32[] {
  %reduce_sum.766 = f32[] parameter(0), metadata={op_name="reduce_sum"}
  %reduce_sum.767 = f32[] parameter(1), metadata={op_name="reduce_sum"}
  ROOT %reduce_sum.768 = f32[] add(%reduce_sum.766, %reduce_sum.767), metadata={op_name="jit(train_step)/transpose(jvp(DiT))/block10/reduce_sum" stack_frame_id=46}
}

%region_119.124 (reduce_sum.745: f32[], reduce_sum.746: f32[]) -> f32[] {
  %reduce_sum.745 = f32[] parameter(0), metadata={op_name="reduce_sum"}
  %reduce_sum.746 = f32[] parameter(1), metadata={op_name="reduce_sum"}
  ROOT %reduce_sum.747 = f32[] add(%reduce_sum.745, %reduce_sum.746), metadata={op_name="jit(train_step)/transpose(jvp(DiT))/block10/reduce_sum" stack_frame_id=44}
}

%region_120.125 (reduce_sum.752: f32[], reduce_sum.753: f32[]) -> f32[] {
  %reduce_sum.752 = f32[] parameter(0), metadata={op_name="reduce_sum"}
  %reduce_sum.753 = f32[] parameter(1), metadata={op_name="reduce_sum"}
  ROOT %reduce_sum.754 = f32[] add(%reduce_sum.752, %reduce_sum.753), metadata={op_name="jit(train_step)/transpose(jvp(DiT))/block10/reduce_sum" stack_frame_id=45}
}

%region_115.120 (reduce_sum.717: f32[], reduce_sum.718: f32[]) -> f32[] {
  %reduce_sum.717 = f32[] parameter(0), metadata={op_name="reduce_sum"}
  %reduce_sum.718 = f32[] parameter(1), metadata={op_name="reduce_sum"}
  ROOT %reduce_sum.719 = f32[] add(%reduce_sum.717, %reduce_sum.718), metadata={op_name="jit(train_step)/transpose(jvp(DiT))/block10/reduce_sum" stack_frame_id=38}
}

%region_116.121 (reduce_sum.724: f32[], reduce_sum.725: f32[]) -> f32[] {
  %reduce_sum.724 = f32[] parameter(0), metadata={op_name="reduce_sum"}
  %reduce_sum.725 = f32[] parameter(1), metadata={op_name="reduce_sum"}
  ROOT %reduce_sum.726 = f32[] add(%reduce_sum.724, %reduce_sum.725), metadata={op_name="jit(train_step)/transpose(jvp(DiT))/block10/reduce_sum" stack_frame_id=38}
}

%region_140.145 (reduce_sum.892: f32[], reduce_sum.893: f32[]) -> f32[] {
  %reduce_sum.892 = f32[] parameter(0), metadata={op_name="reduce_sum"}
  %reduce_sum.893 = f32[] parameter(1), metadata={op_name="reduce_sum"}
  ROOT %reduce_sum.894 = f32[] add(%reduce_sum.892, %reduce_sum.893), metadata={op_name="jit(train_step)/transpose(jvp(DiT))/block10/LayerNorm_0/reduce_sum" stack_frame_id=67}
}

%region_142.147 (reduce_sum.906: f32[], reduce_sum.907: f32[]) -> f32[] {
  %reduce_sum.906 = f32[] parameter(0), metadata={op_name="reduce_sum"}
  %reduce_sum.907 = f32[] parameter(1), metadata={op_name="reduce_sum"}
  ROOT %reduce_sum.908 = f32[] add(%reduce_sum.906, %reduce_sum.907), metadata={op_name="jit(train_step)/transpose(jvp(DiT))/block10/LayerNorm_0/reduce_sum" stack_frame_id=69}
}

%region_139.144 (reduce_sum.885: f32[], reduce_sum.886: f32[]) -> f32[] {
  %reduce_sum.885 = f32[] parameter(0), metadata={op_name="reduce_sum"}
  %reduce_sum.886 = f32[] parameter(1), metadata={op_name="reduce_sum"}
  ROOT %reduce_sum.887 = f32[] add(%reduce_sum.885, %reduce_sum.886), metadata={op_name="jit(train_step)/transpose(jvp(DiT))/block10/LayerNorm_0/reduce_sum" stack_frame_id=66}
}

%region_141.146 (reduce_sum.899: f32[], reduce_sum.900: f32[]) -> f32[] {
  %reduce_sum.899 = f32[] parameter(0), metadata={op_name="reduce_sum"}
  %reduce_sum.900 = f32[] parameter(1), metadata={op_name="reduce_sum"}
  ROOT %reduce_sum.901 = f32[] add(%reduce_sum.899, %reduce_sum.900), metadata={op_name="jit(train_step)/transpose(jvp(DiT))/block10/LayerNorm_0/reduce_sum" stack_frame_id=68}
}

%region_153.158 (reduce_sum.983: f32[], reduce_sum.984: f32[]) -> f32[] {
  %reduce_sum.983 = f32[] parameter(0), metadata={op_name="reduce_sum"}
  %reduce_sum.984 = f32[] parameter(1), metadata={op_name="reduce_sum"}
  ROOT %reduce_sum.985 = f32[] add(%reduce_sum.983, %reduce_sum.984), metadata={op_name="jit(train_step)/transpose(jvp(DiT))/block9/LayerNorm_1/reduce_sum" stack_frame_id=49}
}

%region_155.160 (reduce_sum.997: f32[], reduce_sum.998: f32[]) -> f32[] {
  %reduce_sum.997 = f32[] parameter(0), metadata={op_name="reduce_sum"}
  %reduce_sum.998 = f32[] parameter(1), metadata={op_name="reduce_sum"}
  ROOT %reduce_sum.999 = f32[] add(%reduce_sum.997, %reduce_sum.998), metadata={op_name="jit(train_step)/transpose(jvp(DiT))/block9/LayerNorm_1/reduce_sum" stack_frame_id=51}
}

%region_152.157 (reduce_sum.976: f32[], reduce_sum.977: f32[]) -> f32[] {
  %reduce_sum.976 = f32[] parameter(0), metadata={op_name="reduce_sum"}
  %reduce_sum.977 = f32[] parameter(1), metadata={op_name="reduce_sum"}
  ROOT %reduce_sum.978 = f32[] add(%reduce_sum.976, %reduce_sum.977), metadata={op_name="jit(train_step)/transpose(jvp(DiT))/block9/LayerNorm_1/reduce_sum" stack_frame_id=48}
}

%region_154.159 (reduce_sum.990: f32[], reduce_sum.991: f32[]) -> f32[] {
  %reduce_sum.990 = f32[] parameter(0), metadata={op_name="reduce_sum"}
  %reduce_sum.991 = f32[] parameter(1), metadata={op_name="reduce_sum"}
  ROOT %reduce_sum.992 = f32[] add(%reduce_sum.990, %reduce_sum.991), metadata={op_name="jit(train_step)/transpose(jvp(DiT))/block9/LayerNorm_1/reduce_sum" stack_frame_id=50}
}

%region_159.164 (reduce_sum.1025: f32[], reduce_sum.1026: f32[]) -> f32[] {
  %reduce_sum.1025 = f32[] parameter(0), metadata={op_name="reduce_sum"}
  %reduce_sum.1026 = f32[] parameter(1), metadata={op_name="reduce_sum"}
  ROOT %reduce_sum.1027 = f32[] add(%reduce_sum.1025, %reduce_sum.1026), metadata={op_name="jit(train_step)/transpose(jvp(DiT))/block9/MultiHeadDotProductAttention_0/reduce_sum" stack_frame_id=13}
}

%region_160.165 (reduce_sum.1032: f32[], reduce_sum.1033: f32[]) -> f32[] {
  %reduce_sum.1032 = f32[] parameter(0), metadata={op_name="reduce_sum"}
  %reduce_sum.1033 = f32[] parameter(1), metadata={op_name="reduce_sum"}
  ROOT %reduce_sum.1034 = f32[] add(%reduce_sum.1032, %reduce_sum.1033), metadata={op_name="jit(train_step)/transpose(jvp(DiT))/block9/MultiHeadDotProductAttention_0/reduce_sum" stack_frame_id=13}
}

%region_166.171 (reduce_sum.1074: f32[], reduce_sum.1075: f32[]) -> f32[] {
  %reduce_sum.1074 = f32[] parameter(0), metadata={op_name="reduce_sum"}
  %reduce_sum.1075 = f32[] parameter(1), metadata={op_name="reduce_sum"}
  ROOT %reduce_sum.1076 = f32[] add(%reduce_sum.1074, %reduce_sum.1075), metadata={op_name="jit(train_step)/transpose(jvp(DiT))/block9/reduce_sum" stack_frame_id=62}
}

%region_167.172 (reduce_sum.1081: f32[], reduce_sum.1082: f32[]) -> f32[] {
  %reduce_sum.1081 = f32[] parameter(0), metadata={op_name="reduce_sum"}
  %reduce_sum.1082 = f32[] parameter(1), metadata={op_name="reduce_sum"}
  ROOT %reduce_sum.1083 = f32[] add(%reduce_sum.1081, %reduce_sum.1082), metadata={op_name="jit(train_step)/transpose(jvp(DiT))/block9/reduce_sum" stack_frame_id=64}
}

%region_164.169 (reduce_sum.1060: f32[], reduce_sum.1061: f32[]) -> f32[] {
  %reduce_sum.1060 = f32[] parameter(0), metadata={op_name="reduce_sum"}
  %reduce_sum.1061 = f32[] parameter(1), metadata={op_name="reduce_sum"}
  ROOT %reduce_sum.1062 = f32[] add(%reduce_sum.1060, %reduce_sum.1061), metadata={op_name="jit(train_step)/transpose(jvp(DiT))/block9/reduce_sum" stack_frame_id=62}
}

%region_165.170 (reduce_sum.1067: f32[], reduce_sum.1068: f32[]) -> f32[] {
  %reduce_sum.1067 = f32[] parameter(0), metadata={op_name="reduce_sum"}
  %reduce_sum.1068 = f32[] parameter(1), metadata={op_name="reduce_sum"}
  ROOT %reduce_sum.1069 = f32[] add(%reduce_sum.1067, %reduce_sum.1068), metadata={op_name="jit(train_step)/transpose(jvp(DiT))/block9/reduce_sum" stack_frame_id=63}
}

%region_156.161 (reduce_sum.1004: f32[], reduce_sum.1005: f32[]) -> f32[] {
  %reduce_sum.1004 = f32[] parameter(0), metadata={op_name="reduce_sum"}
  %reduce_sum.1005 = f32[] parameter(1), metadata={op_name="reduce_sum"}
  ROOT %reduce_sum.1006 = f32[] add(%reduce_sum.1004, %reduce_sum.1005), metadata={op_name="jit(train_step)/transpose(jvp(DiT))/block9/reduce_sum" stack_frame_id=52}
}

%region_157.162 (reduce_sum.1011: f32[], reduce_sum.1012: f32[]) -> f32[] {
  %reduce_sum.1011 = f32[] parameter(0), metadata={op_name="reduce_sum"}
  %reduce_sum.1012 = f32[] parameter(1), metadata={op_name="reduce_sum"}
  ROOT %reduce_sum.1013 = f32[] add(%reduce_sum.1011, %reduce_sum.1012), metadata={op_name="jit(train_step)/transpose(jvp(DiT))/block9/reduce_sum" stack_frame_id=52}
}

%region_150.155 (reduce_sum.962: f32[], reduce_sum.963: f32[]) -> f32[] {
  %reduce_sum.962 = f32[] parameter(0), metadata={op_name="reduce_sum"}
  %reduce_sum.963 = f32[] parameter(1), metadata={op_name="reduce_sum"}
  ROOT %reduce_sum.964 = f32[] add(%reduce_sum.962, %reduce_sum.963), metadata={op_name="jit(train_step)/transpose(jvp(DiT))/block9/reduce_sum" stack_frame_id=44}
}

%region_151.156 (reduce_sum.969: f32[], reduce_sum.970: f32[]) -> f32[] {
  %reduce_sum.969 = f32[] parameter(0), metadata={op_name="reduce_sum"}
  %reduce_sum.970 = f32[] parameter(1), metadata={op_name="reduce_sum"}
  ROOT %reduce_sum.971 = f32[] add(%reduce_sum.969, %reduce_sum.970), metadata={op_name="jit(train_step)/transpose(jvp(DiT))/block9/reduce_sum" stack_frame_id=46}
}

%region_148.153 (reduce_sum.948: f32[], reduce_sum.949: f32[]) -> f32[] {
  %reduce_sum.948 = f32[] parameter(0), metadata={op_name="reduce_sum"}
  %reduce_sum.949 = f32[] parameter(1), metadata={op_name="reduce_sum"}
  ROOT %reduce_sum.950 = f32[] add(%reduce_sum.948, %reduce_sum.949), metadata={op_name="jit(train_step)/transpose(jvp(DiT))/block9/reduce_sum" stack_frame_id=44}
}

%region_149.154 (reduce_sum.955: f32[], reduce_sum.956: f32[]) -> f32[] {
  %reduce_sum.955 = f32[] parameter(0), metadata={op_name="reduce_sum"}
  %reduce_sum.956 = f32[] parameter(1), metadata={op_name="reduce_sum"}
  ROOT %reduce_sum.957 = f32[] add(%reduce_sum.955, %reduce_sum.956), metadata={op_name="jit(train_step)/transpose(jvp(DiT))/block9/reduce_sum" stack_frame_id=45}
}

%region_144.149 (reduce_sum.920: f32[], reduce_sum.921: f32[]) -> f32[] {
  %reduce_sum.920 = f32[] parameter(0), metadata={op_name="reduce_sum"}
  %reduce_sum.921 = f32[] parameter(1), metadata={op_name="reduce_sum"}
  ROOT %reduce_sum.922 = f32[] add(%reduce_sum.920, %reduce_sum.921), metadata={op_name="jit(train_step)/transpose(jvp(DiT))/block9/reduce_sum" stack_frame_id=38}
}

%region_145.150 (reduce_sum.927: f32[], reduce_sum.928: f32[]) -> f32[] {
  %reduce_sum.927 = f32[] parameter(0), metadata={op_name="reduce_sum"}
  %reduce_sum.928 = f32[] parameter(1), metadata={op_name="reduce_sum"}
  ROOT %reduce_sum.929 = f32[] add(%reduce_sum.927, %reduce_sum.928), metadata={op_name="jit(train_step)/transpose(jvp(DiT))/block9/reduce_sum" stack_frame_id=38}
}

%region_169.174 (reduce_sum.1095: f32[], reduce_sum.1096: f32[]) -> f32[] {
  %reduce_sum.1095 = f32[] parameter(0), metadata={op_name="reduce_sum"}
  %reduce_sum.1096 = f32[] parameter(1), metadata={op_name="reduce_sum"}
  ROOT %reduce_sum.1097 = f32[] add(%reduce_sum.1095, %reduce_sum.1096), metadata={op_name="jit(train_step)/transpose(jvp(DiT))/block9/LayerNorm_0/reduce_sum" stack_frame_id=67}
}

%region_171.176 (reduce_sum.1109: f32[], reduce_sum.1110: f32[]) -> f32[] {
  %reduce_sum.1109 = f32[] parameter(0), metadata={op_name="reduce_sum"}
  %reduce_sum.1110 = f32[] parameter(1), metadata={op_name="reduce_sum"}
  ROOT %reduce_sum.1111 = f32[] add(%reduce_sum.1109, %reduce_sum.1110), metadata={op_name="jit(train_step)/transpose(jvp(DiT))/block9/LayerNorm_0/reduce_sum" stack_frame_id=69}
}

%region_168.173 (reduce_sum.1088: f32[], reduce_sum.1089: f32[]) -> f32[] {
  %reduce_sum.1088 = f32[] parameter(0), metadata={op_name="reduce_sum"}
  %reduce_sum.1089 = f32[] parameter(1), metadata={op_name="reduce_sum"}
  ROOT %reduce_sum.1090 = f32[] add(%reduce_sum.1088, %reduce_sum.1089), metadata={op_name="jit(train_step)/transpose(jvp(DiT))/block9/LayerNorm_0/reduce_sum" stack_frame_id=66}
}

%region_170.175 (reduce_sum.1102: f32[], reduce_sum.1103: f32[]) -> f32[] {
  %reduce_sum.1102 = f32[] parameter(0), metadata={op_name="reduce_sum"}
  %reduce_sum.1103 = f32[] parameter(1), metadata={op_name="reduce_sum"}
  ROOT %reduce_sum.1104 = f32[] add(%reduce_sum.1102, %reduce_sum.1103), metadata={op_name="jit(train_step)/transpose(jvp(DiT))/block9/LayerNorm_0/reduce_sum" stack_frame_id=68}
}

%region_182.187 (reduce_sum.1186: f32[], reduce_sum.1187: f32[]) -> f32[] {
  %reduce_sum.1186 = f32[] parameter(0), metadata={op_name="reduce_sum"}
  %reduce_sum.1187 = f32[] parameter(1), metadata={op_name="reduce_sum"}
  ROOT %reduce_sum.1188 = f32[] add(%reduce_sum.1186, %reduce_sum.1187), metadata={op_name="jit(train_step)/transpose(jvp(DiT))/block8/LayerNorm_1/reduce_sum" stack_frame_id=49}
}

%region_184.189 (reduce_sum.1200: f32[], reduce_sum.1201: f32[]) -> f32[] {
  %reduce_sum.1200 = f32[] parameter(0), metadata={op_name="reduce_sum"}
  %reduce_sum.1201 = f32[] parameter(1), metadata={op_name="reduce_sum"}
  ROOT %reduce_sum.1202 = f32[] add(%reduce_sum.1200, %reduce_sum.1201), metadata={op_name="jit(train_step)/transpose(jvp(DiT))/block8/LayerNorm_1/reduce_sum" stack_frame_id=51}
}

%region_181.186 (reduce_sum.1179: f32[], reduce_sum.1180: f32[]) -> f32[] {
  %reduce_sum.1179 = f32[] parameter(0), metadata={op_name="reduce_sum"}
  %reduce_sum.1180 = f32[] parameter(1), metadata={op_name="reduce_sum"}
  ROOT %reduce_sum.1181 = f32[] add(%reduce_sum.1179, %reduce_sum.1180), metadata={op_name="jit(train_step)/transpose(jvp(DiT))/block8/LayerNorm_1/reduce_sum" stack_frame_id=48}
}

%region_183.188 (reduce_sum.1193: f32[], reduce_sum.1194: f32[]) -> f32[] {
  %reduce_sum.1193 = f32[] parameter(0), metadata={op_name="reduce_sum"}
  %reduce_sum.1194 = f32[] parameter(1), metadata={op_name="reduce_sum"}
  ROOT %reduce_sum.1195 = f32[] add(%reduce_sum.1193, %reduce_sum.1194), metadata={op_name="jit(train_step)/transpose(jvp(DiT))/block8/LayerNorm_1/reduce_sum" stack_frame_id=50}
}

%region_188.193 (reduce_sum.1228: f32[], reduce_sum.1229: f32[]) -> f32[] {
  %reduce_sum.1228 = f32[] parameter(0), metadata={op_name="reduce_sum"}
  %reduce_sum.1229 = f32[] parameter(1), metadata={op_name="reduce_sum"}
  ROOT %reduce_sum.1230 = f32[] add(%reduce_sum.1228, %reduce_sum.1229), metadata={op_name="jit(train_step)/transpose(jvp(DiT))/block8/MultiHeadDotProductAttention_0/reduce_sum" stack_frame_id=13}
}

%region_189.194 (reduce_sum.1235: f32[], reduce_sum.1236: f32[]) -> f32[] {
  %reduce_sum.1235 = f32[] parameter(0), metadata={op_name="reduce_sum"}
  %reduce_sum.1236 = f32[] parameter(1), metadata={op_name="reduce_sum"}
  ROOT %reduce_sum.1237 = f32[] add(%reduce_sum.1235, %reduce_sum.1236), metadata={op_name="jit(train_step)/transpose(jvp(DiT))/block8/MultiHeadDotProductAttention_0/reduce_sum" stack_frame_id=13}
}

%region_195.200 (reduce_sum.1277: f32[], reduce_sum.1278: f32[]) -> f32[] {
  %reduce_sum.1277 = f32[] parameter(0), metadata={op_name="reduce_sum"}
  %reduce_sum.1278 = f32[] parameter(1), metadata={op_name="reduce_sum"}
  ROOT %reduce_sum.1279 = f32[] add(%reduce_sum.1277, %reduce_sum.1278), metadata={op_name="jit(train_step)/transpose(jvp(DiT))/block8/reduce_sum" stack_frame_id=62}
}

%region_196.201 (reduce_sum.1284: f32[], reduce_sum.1285: f32[]) -> f32[] {
  %reduce_sum.1284 = f32[] parameter(0), metadata={op_name="reduce_sum"}
  %reduce_sum.1285 = f32[] parameter(1), metadata={op_name="reduce_sum"}
  ROOT %reduce_sum.1286 = f32[] add(%reduce_sum.1284, %reduce_sum.1285), metadata={op_name="jit(train_step)/transpose(jvp(DiT))/block8/reduce_sum" stack_frame_id=64}
}

%region_193.198 (reduce_sum.1263: f32[], reduce_sum.1264: f32[]) -> f32[] {
  %reduce_sum.1263 = f32[] parameter(0), metadata={op_name="reduce_sum"}
  %reduce_sum.1264 = f32[] parameter(1), metadata={op_name="reduce_sum"}
  ROOT %reduce_sum.1265 = f32[] add(%reduce_sum.1263, %reduce_sum.1264), metadata={op_name="jit(train_step)/transpose(jvp(DiT))/block8/reduce_sum" stack_frame_id=62}
}

%region_194.199 (reduce_sum.1270: f32[], reduce_sum.1271: f32[]) -> f32[] {
  %reduce_sum.1270 = f32[] parameter(0), metadata={op_name="reduce_sum"}
  %reduce_sum.1271 = f32[] parameter(1), metadata={op_name="reduce_sum"}
  ROOT %reduce_sum.1272 = f32[] add(%reduce_sum.1270, %reduce_sum.1271), metadata={op_name="jit(train_step)/transpose(jvp(DiT))/block8/reduce_sum" stack_frame_id=63}
}

%region_185.190 (reduce_sum.1207: f32[], reduce_sum.1208: f32[]) -> f32[] {
  %reduce_sum.1207 = f32[] parameter(0), metadata={op_name="reduce_sum"}
  %reduce_sum.1208 = f32[] parameter(1), metadata={op_name="reduce_sum"}
  ROOT %reduce_sum.1209 = f32[] add(%reduce_sum.1207, %reduce_sum.1208), metadata={op_name="jit(train_step)/transpose(jvp(DiT))/block8/reduce_sum" stack_frame_id=52}
}

%region_186.191 (reduce_sum.1214: f32[], reduce_sum.1215: f32[]) -> f32[] {
  %reduce_sum.1214 = f32[] parameter(0), metadata={op_name="reduce_sum"}
  %reduce_sum.1215 = f32[] parameter(1), metadata={op_name="reduce_sum"}
  ROOT %reduce_sum.1216 = f32[] add(%reduce_sum.1214, %reduce_sum.1215), metadata={op_name="jit(train_step)/transpose(jvp(DiT))/block8/reduce_sum" stack_frame_id=52}
}

%region_179.184 (reduce_sum.1165: f32[], reduce_sum.1166: f32[]) -> f32[] {
  %reduce_sum.1165 = f32[] parameter(0), metadata={op_name="reduce_sum"}
  %reduce_sum.1166 = f32[] parameter(1), metadata={op_name="reduce_sum"}
  ROOT %reduce_sum.1167 = f32[] add(%reduce_sum.1165, %reduce_sum.1166), metadata={op_name="jit(train_step)/transpose(jvp(DiT))/block8/reduce_sum" stack_frame_id=44}
}

%region_180.185 (reduce_sum.1172: f32[], reduce_sum.1173: f32[]) -> f32[] {
  %reduce_sum.1172 = f32[] parameter(0), metadata={op_name="reduce_sum"}
  %reduce_sum.1173 = f32[] parameter(1), metadata={op_name="reduce_sum"}
  ROOT %reduce_sum.1174 = f32[] add(%reduce_sum.1172, %reduce_sum.1173), metadata={op_name="jit(train_step)/transpose(jvp(DiT))/block8/reduce_sum" stack_frame_id=46}
}

%region_177.182 (reduce_sum.1151: f32[], reduce_sum.1152: f32[]) -> f32[] {
  %reduce_sum.1151 = f32[] parameter(0), metadata={op_name="reduce_sum"}
  %reduce_sum.1152 = f32[] parameter(1), metadata={op_name="reduce_sum"}
  ROOT %reduce_sum.1153 = f32[] add(%reduce_sum.1151, %reduce_sum.1152), metadata={op_name="jit(train_step)/transpose(jvp(DiT))/block8/reduce_sum" stack_frame_id=44}
}

%region_178.183 (reduce_sum.1158: f32[], reduce_sum.1159: f32[]) -> f32[] {
  %reduce_sum.1158 = f32[] parameter(0), metadata={op_name="reduce_sum"}
  %reduce_sum.1159 = f32[] parameter(1), metadata={op_name="reduce_sum"}
  ROOT %reduce_sum.1160 = f32[] add(%reduce_sum.1158, %reduce_sum.1159), metadata={op_name="jit(train_step)/transpose(jvp(DiT))/block8/reduce_sum" stack_frame_id=45}
}

%region_173.178 (reduce_sum.1123: f32[], reduce_sum.1124: f32[]) -> f32[] {
  %reduce_sum.1123 = f32[] parameter(0), metadata={op_name="reduce_sum"}
  %reduce_sum.1124 = f32[] parameter(1), metadata={op_name="reduce_sum"}
  ROOT %reduce_sum.1125 = f32[] add(%reduce_sum.1123, %reduce_sum.1124), metadata={op_name="jit(train_step)/transpose(jvp(DiT))/block8/reduce_sum" stack_frame_id=38}
}

%region_174.179 (reduce_sum.1130: f32[], reduce_sum.1131: f32[]) -> f32[] {
  %reduce_sum.1130 = f32[] parameter(0), metadata={op_name="reduce_sum"}
  %reduce_sum.1131 = f32[] parameter(1), metadata={op_name="reduce_sum"}
  ROOT %reduce_sum.1132 = f32[] add(%reduce_sum.1130, %reduce_sum.1131), metadata={op_name="jit(train_step)/transpose(jvp(DiT))/block8/reduce_sum" stack_frame_id=38}
}

%region_198.203 (reduce_sum.1298: f32[], reduce_sum.1299: f32[]) -> f32[] {
  %reduce_sum.1298 = f32[] parameter(0), metadata={op_name="reduce_sum"}
  %reduce_sum.1299 = f32[] parameter(1), metadata={op_name="reduce_sum"}
  ROOT %reduce_sum.1300 = f32[] add(%reduce_sum.1298, %reduce_sum.1299), metadata={op_name="jit(train_step)/transpose(jvp(DiT))/block8/LayerNorm_0/reduce_sum" stack_frame_id=67}
}

%region_200.205 (reduce_sum.1312: f32[], reduce_sum.1313: f32[]) -> f32[] {
  %reduce_sum.1312 = f32[] parameter(0), metadata={op_name="reduce_sum"}
  %reduce_sum.1313 = f32[] parameter(1), metadata={op_name="reduce_sum"}
  ROOT %reduce_sum.1314 = f32[] add(%reduce_sum.1312, %reduce_sum.1313), metadata={op_name="jit(train_step)/transpose(jvp(DiT))/block8/LayerNorm_0/reduce_sum" stack_frame_id=69}
}

%region_197.202 (reduce_sum.1291: f32[], reduce_sum.1292: f32[]) -> f32[] {
  %reduce_sum.1291 = f32[] parameter(0), metadata={op_name="reduce_sum"}
  %reduce_sum.1292 = f32[] parameter(1), metadata={op_name="reduce_sum"}
  ROOT %reduce_sum.1293 = f32[] add(%reduce_sum.1291, %reduce_sum.1292), metadata={op_name="jit(train_step)/transpose(jvp(DiT))/block8/LayerNorm_0/reduce_sum" stack_frame_id=66}
}

%region_199.204 (reduce_sum.1305: f32[], reduce_sum.1306: f32[]) -> f32[] {
  %reduce_sum.1305 = f32[] parameter(0), metadata={op_name="reduce_sum"}
  %reduce_sum.1306 = f32[] parameter(1), metadata={op_name="reduce_sum"}
  ROOT %reduce_sum.1307 = f32[] add(%reduce_sum.1305, %reduce_sum.1306), metadata={op_name="jit(train_step)/transpose(jvp(DiT))/block8/LayerNorm_0/reduce_sum" stack_frame_id=68}
}

%region_211.216 (reduce_sum.1389: f32[], reduce_sum.1390: f32[]) -> f32[] {
  %reduce_sum.1389 = f32[] parameter(0), metadata={op_name="reduce_sum"}
  %reduce_sum.1390 = f32[] parameter(1), metadata={op_name="reduce_sum"}
  ROOT %reduce_sum.1391 = f32[] add(%reduce_sum.1389, %reduce_sum.1390), metadata={op_name="jit(train_step)/transpose(jvp(DiT))/block7/LayerNorm_1/reduce_sum" stack_frame_id=49}
}

%region_213.218 (reduce_sum.1403: f32[], reduce_sum.1404: f32[]) -> f32[] {
  %reduce_sum.1403 = f32[] parameter(0), metadata={op_name="reduce_sum"}
  %reduce_sum.1404 = f32[] parameter(1), metadata={op_name="reduce_sum"}
  ROOT %reduce_sum.1405 = f32[] add(%reduce_sum.1403, %reduce_sum.1404), metadata={op_name="jit(train_step)/transpose(jvp(DiT))/block7/LayerNorm_1/reduce_sum" stack_frame_id=51}
}

%region_210.215 (reduce_sum.1382: f32[], reduce_sum.1383: f32[]) -> f32[] {
  %reduce_sum.1382 = f32[] parameter(0), metadata={op_name="reduce_sum"}
  %reduce_sum.1383 = f32[] parameter(1), metadata={op_name="reduce_sum"}
  ROOT %reduce_sum.1384 = f32[] add(%reduce_sum.1382, %reduce_sum.1383), metadata={op_name="jit(train_step)/transpose(jvp(DiT))/block7/LayerNorm_1/reduce_sum" stack_frame_id=48}
}

%region_212.217 (reduce_sum.1396: f32[], reduce_sum.1397: f32[]) -> f32[] {
  %reduce_sum.1396 = f32[] parameter(0), metadata={op_name="reduce_sum"}
  %reduce_sum.1397 = f32[] parameter(1), metadata={op_name="reduce_sum"}
  ROOT %reduce_sum.1398 = f32[] add(%reduce_sum.1396, %reduce_sum.1397), metadata={op_name="jit(train_step)/transpose(jvp(DiT))/block7/LayerNorm_1/reduce_sum" stack_frame_id=50}
}

%region_217.222 (reduce_sum.1431: f32[], reduce_sum.1432: f32[]) -> f32[] {
  %reduce_sum.1431 = f32[] parameter(0), metadata={op_name="reduce_sum"}
  %reduce_sum.1432 = f32[] parameter(1), metadata={op_name="reduce_sum"}
  ROOT %reduce_sum.1433 = f32[] add(%reduce_sum.1431, %reduce_sum.1432), metadata={op_name="jit(train_step)/transpose(jvp(DiT))/block7/MultiHeadDotProductAttention_0/reduce_sum" stack_frame_id=13}
}

%region_218.223 (reduce_sum.1438: f32[], reduce_sum.1439: f32[]) -> f32[] {
  %reduce_sum.1438 = f32[] parameter(0), metadata={op_name="reduce_sum"}
  %reduce_sum.1439 = f32[] parameter(1), metadata={op_name="reduce_sum"}
  ROOT %reduce_sum.1440 = f32[] add(%reduce_sum.1438, %reduce_sum.1439), metadata={op_name="jit(train_step)/transpose(jvp(DiT))/block7/MultiHeadDotProductAttention_0/reduce_sum" stack_frame_id=13}
}

%region_224.229 (reduce_sum.1480: f32[], reduce_sum.1481: f32[]) -> f32[] {
  %reduce_sum.1480 = f32[] parameter(0), metadata={op_name="reduce_sum"}
  %reduce_sum.1481 = f32[] parameter(1), metadata={op_name="reduce_sum"}
  ROOT %reduce_sum.1482 = f32[] add(%reduce_sum.1480, %reduce_sum.1481), metadata={op_name="jit(train_step)/transpose(jvp(DiT))/block7/reduce_sum" stack_frame_id=62}
}

%region_225.230 (reduce_sum.1487: f32[], reduce_sum.1488: f32[]) -> f32[] {
  %reduce_sum.1487 = f32[] parameter(0), metadata={op_name="reduce_sum"}
  %reduce_sum.1488 = f32[] parameter(1), metadata={op_name="reduce_sum"}
  ROOT %reduce_sum.1489 = f32[] add(%reduce_sum.1487, %reduce_sum.1488), metadata={op_name="jit(train_step)/transpose(jvp(DiT))/block7/reduce_sum" stack_frame_id=64}
}

%region_222.227 (reduce_sum.1466: f32[], reduce_sum.1467: f32[]) -> f32[] {
  %reduce_sum.1466 = f32[] parameter(0), metadata={op_name="reduce_sum"}
  %reduce_sum.1467 = f32[] parameter(1), metadata={op_name="reduce_sum"}
  ROOT %reduce_sum.1468 = f32[] add(%reduce_sum.1466, %reduce_sum.1467), metadata={op_name="jit(train_step)/transpose(jvp(DiT))/block7/reduce_sum" stack_frame_id=62}
}

%region_223.228 (reduce_sum.1473: f32[], reduce_sum.1474: f32[]) -> f32[] {
  %reduce_sum.1473 = f32[] parameter(0), metadata={op_name="reduce_sum"}
  %reduce_sum.1474 = f32[] parameter(1), metadata={op_name="reduce_sum"}
  ROOT %reduce_sum.1475 = f32[] add(%reduce_sum.1473, %reduce_sum.1474), metadata={op_name="jit(train_step)/transpose(jvp(DiT))/block7/reduce_sum" stack_frame_id=63}
}

%region_214.219 (reduce_sum.1410: f32[], reduce_sum.1411: f32[]) -> f32[] {
  %reduce_sum.1410 = f32[] parameter(0), metadata={op_name="reduce_sum"}
  %reduce_sum.1411 = f32[] parameter(1), metadata={op_name="reduce_sum"}
  ROOT %reduce_sum.1412 = f32[] add(%reduce_sum.1410, %reduce_sum.1411), metadata={op_name="jit(train_step)/transpose(jvp(DiT))/block7/reduce_sum" stack_frame_id=52}
}

%region_215.220 (reduce_sum.1417: f32[], reduce_sum.1418: f32[]) -> f32[] {
  %reduce_sum.1417 = f32[] parameter(0), metadata={op_name="reduce_sum"}
  %reduce_sum.1418 = f32[] parameter(1), metadata={op_name="reduce_sum"}
  ROOT %reduce_sum.1419 = f32[] add(%reduce_sum.1417, %reduce_sum.1418), metadata={op_name="jit(train_step)/transpose(jvp(DiT))/block7/reduce_sum" stack_frame_id=52}
}

%region_208.213 (reduce_sum.1368: f32[], reduce_sum.1369: f32[]) -> f32[] {
  %reduce_sum.1368 = f32[] parameter(0), metadata={op_name="reduce_sum"}
  %reduce_sum.1369 = f32[] parameter(1), metadata={op_name="reduce_sum"}
  ROOT %reduce_sum.1370 = f32[] add(%reduce_sum.1368, %reduce_sum.1369), metadata={op_name="jit(train_step)/transpose(jvp(DiT))/block7/reduce_sum" stack_frame_id=44}
}

%region_209.214 (reduce_sum.1375: f32[], reduce_sum.1376: f32[]) -> f32[] {
  %reduce_sum.1375 = f32[] parameter(0), metadata={op_name="reduce_sum"}
  %reduce_sum.1376 = f32[] parameter(1), metadata={op_name="reduce_sum"}
  ROOT %reduce_sum.1377 = f32[] add(%reduce_sum.1375, %reduce_sum.1376), metadata={op_name="jit(train_step)/transpose(jvp(DiT))/block7/reduce_sum" stack_frame_id=46}
}

%region_206.211 (reduce_sum.1354: f32[], reduce_sum.1355: f32[]) -> f32[] {
  %reduce_sum.1354 = f32[] parameter(0), metadata={op_name="reduce_sum"}
  %reduce_sum.1355 = f32[] parameter(1), metadata={op_name="reduce_sum"}
  ROOT %reduce_sum.1356 = f32[] add(%reduce_sum.1354, %reduce_sum.1355), metadata={op_name="jit(train_step)/transpose(jvp(DiT))/block7/reduce_sum" stack_frame_id=44}
}

%region_207.212 (reduce_sum.1361: f32[], reduce_sum.1362: f32[]) -> f32[] {
  %reduce_sum.1361 = f32[] parameter(0), metadata={op_name="reduce_sum"}
  %reduce_sum.1362 = f32[] parameter(1), metadata={op_name="reduce_sum"}
  ROOT %reduce_sum.1363 = f32[] add(%reduce_sum.1361, %reduce_sum.1362), metadata={op_name="jit(train_step)/transpose(jvp(DiT))/block7/reduce_sum" stack_frame_id=45}
}

%region_202.207 (reduce_sum.1326: f32[], reduce_sum.1327: f32[]) -> f32[] {
  %reduce_sum.1326 = f32[] parameter(0), metadata={op_name="reduce_sum"}
  %reduce_sum.1327 = f32[] parameter(1), metadata={op_name="reduce_sum"}
  ROOT %reduce_sum.1328 = f32[] add(%reduce_sum.1326, %reduce_sum.1327), metadata={op_name="jit(train_step)/transpose(jvp(DiT))/block7/reduce_sum" stack_frame_id=38}
}

%region_203.208 (reduce_sum.1333: f32[], reduce_sum.1334: f32[]) -> f32[] {
  %reduce_sum.1333 = f32[] parameter(0), metadata={op_name="reduce_sum"}
  %reduce_sum.1334 = f32[] parameter(1), metadata={op_name="reduce_sum"}
  ROOT %reduce_sum.1335 = f32[] add(%reduce_sum.1333, %reduce_sum.1334), metadata={op_name="jit(train_step)/transpose(jvp(DiT))/block7/reduce_sum" stack_frame_id=38}
}

%region_227.232 (reduce_sum.1501: f32[], reduce_sum.1502: f32[]) -> f32[] {
  %reduce_sum.1501 = f32[] parameter(0), metadata={op_name="reduce_sum"}
  %reduce_sum.1502 = f32[] parameter(1), metadata={op_name="reduce_sum"}
  ROOT %reduce_sum.1503 = f32[] add(%reduce_sum.1501, %reduce_sum.1502), metadata={op_name="jit(train_step)/transpose(jvp(DiT))/block7/LayerNorm_0/reduce_sum" stack_frame_id=67}
}

%region_229.234 (reduce_sum.1515: f32[], reduce_sum.1516: f32[]) -> f32[] {
  %reduce_sum.1515 = f32[] parameter(0), metadata={op_name="reduce_sum"}
  %reduce_sum.1516 = f32[] parameter(1), metadata={op_name="reduce_sum"}
  ROOT %reduce_sum.1517 = f32[] add(%reduce_sum.1515, %reduce_sum.1516), metadata={op_name="jit(train_step)/transpose(jvp(DiT))/block7/LayerNorm_0/reduce_sum" stack_frame_id=69}
}

%region_226.231 (reduce_sum.1494: f32[], reduce_sum.1495: f32[]) -> f32[] {
  %reduce_sum.1494 = f32[] parameter(0), metadata={op_name="reduce_sum"}
  %reduce_sum.1495 = f32[] parameter(1), metadata={op_name="reduce_sum"}
  ROOT %reduce_sum.1496 = f32[] add(%reduce_sum.1494, %reduce_sum.1495), metadata={op_name="jit(train_step)/transpose(jvp(DiT))/block7/LayerNorm_0/reduce_sum" stack_frame_id=66}
}

%region_228.233 (reduce_sum.1508: f32[], reduce_sum.1509: f32[]) -> f32[] {
  %reduce_sum.1508 = f32[] parameter(0), metadata={op_name="reduce_sum"}
  %reduce_sum.1509 = f32[] parameter(1), metadata={op_name="reduce_sum"}
  ROOT %reduce_sum.1510 = f32[] add(%reduce_sum.1508, %reduce_sum.1509), metadata={op_name="jit(train_step)/transpose(jvp(DiT))/block7/LayerNorm_0/reduce_sum" stack_frame_id=68}
}

%region_240.245 (reduce_sum.1592: f32[], reduce_sum.1593: f32[]) -> f32[] {
  %reduce_sum.1592 = f32[] parameter(0), metadata={op_name="reduce_sum"}
  %reduce_sum.1593 = f32[] parameter(1), metadata={op_name="reduce_sum"}
  ROOT %reduce_sum.1594 = f32[] add(%reduce_sum.1592, %reduce_sum.1593), metadata={op_name="jit(train_step)/transpose(jvp(DiT))/block6/LayerNorm_1/reduce_sum" stack_frame_id=49}
}

%region_242.247 (reduce_sum.1606: f32[], reduce_sum.1607: f32[]) -> f32[] {
  %reduce_sum.1606 = f32[] parameter(0), metadata={op_name="reduce_sum"}
  %reduce_sum.1607 = f32[] parameter(1), metadata={op_name="reduce_sum"}
  ROOT %reduce_sum.1608 = f32[] add(%reduce_sum.1606, %reduce_sum.1607), metadata={op_name="jit(train_step)/transpose(jvp(DiT))/block6/LayerNorm_1/reduce_sum" stack_frame_id=51}
}

%region_239.244 (reduce_sum.1585: f32[], reduce_sum.1586: f32[]) -> f32[] {
  %reduce_sum.1585 = f32[] parameter(0), metadata={op_name="reduce_sum"}
  %reduce_sum.1586 = f32[] parameter(1), metadata={op_name="reduce_sum"}
  ROOT %reduce_sum.1587 = f32[] add(%reduce_sum.1585, %reduce_sum.1586), metadata={op_name="jit(train_step)/transpose(jvp(DiT))/block6/LayerNorm_1/reduce_sum" stack_frame_id=48}
}

%region_241.246 (reduce_sum.1599: f32[], reduce_sum.1600: f32[]) -> f32[] {
  %reduce_sum.1599 = f32[] parameter(0), metadata={op_name="reduce_sum"}
  %reduce_sum.1600 = f32[] parameter(1), metadata={op_name="reduce_sum"}
  ROOT %reduce_sum.1601 = f32[] add(%reduce_sum.1599, %reduce_sum.1600), metadata={op_name="jit(train_step)/transpose(jvp(DiT))/block6/LayerNorm_1/reduce_sum" stack_frame_id=50}
}

%region_246.251 (reduce_sum.1634: f32[], reduce_sum.1635: f32[]) -> f32[] {
  %reduce_sum.1634 = f32[] parameter(0), metadata={op_name="reduce_sum"}
  %reduce_sum.1635 = f32[] parameter(1), metadata={op_name="reduce_sum"}
  ROOT %reduce_sum.1636 = f32[] add(%reduce_sum.1634, %reduce_sum.1635), metadata={op_name="jit(train_step)/transpose(jvp(DiT))/block6/MultiHeadDotProductAttention_0/reduce_sum" stack_frame_id=13}
}

%region_247.252 (reduce_sum.1641: f32[], reduce_sum.1642: f32[]) -> f32[] {
  %reduce_sum.1641 = f32[] parameter(0), metadata={op_name="reduce_sum"}
  %reduce_sum.1642 = f32[] parameter(1), metadata={op_name="reduce_sum"}
  ROOT %reduce_sum.1643 = f32[] add(%reduce_sum.1641, %reduce_sum.1642), metadata={op_name="jit(train_step)/transpose(jvp(DiT))/block6/MultiHeadDotProductAttention_0/reduce_sum" stack_frame_id=13}
}

%region_253.258 (reduce_sum.1683: f32[], reduce_sum.1684: f32[]) -> f32[] {
  %reduce_sum.1683 = f32[] parameter(0), metadata={op_name="reduce_sum"}
  %reduce_sum.1684 = f32[] parameter(1), metadata={op_name="reduce_sum"}
  ROOT %reduce_sum.1685 = f32[] add(%reduce_sum.1683, %reduce_sum.1684), metadata={op_name="jit(train_step)/transpose(jvp(DiT))/block6/reduce_sum" stack_frame_id=62}
}

%region_254.259 (reduce_sum.1690: f32[], reduce_sum.1691: f32[]) -> f32[] {
  %reduce_sum.1690 = f32[] parameter(0), metadata={op_name="reduce_sum"}
  %reduce_sum.1691 = f32[] parameter(1), metadata={op_name="reduce_sum"}
  ROOT %reduce_sum.1692 = f32[] add(%reduce_sum.1690, %reduce_sum.1691), metadata={op_name="jit(train_step)/transpose(jvp(DiT))/block6/reduce_sum" stack_frame_id=64}
}

%region_251.256 (reduce_sum.1669: f32[], reduce_sum.1670: f32[]) -> f32[] {
  %reduce_sum.1669 = f32[] parameter(0), metadata={op_name="reduce_sum"}
  %reduce_sum.1670 = f32[] parameter(1), metadata={op_name="reduce_sum"}
  ROOT %reduce_sum.1671 = f32[] add(%reduce_sum.1669, %reduce_sum.1670), metadata={op_name="jit(train_step)/transpose(jvp(DiT))/block6/reduce_sum" stack_frame_id=62}
}

%region_252.257 (reduce_sum.1676: f32[], reduce_sum.1677: f32[]) -> f32[] {
  %reduce_sum.1676 = f32[] parameter(0), metadata={op_name="reduce_sum"}
  %reduce_sum.1677 = f32[] parameter(1), metadata={op_name="reduce_sum"}
  ROOT %reduce_sum.1678 = f32[] add(%reduce_sum.1676, %reduce_sum.1677), metadata={op_name="jit(train_step)/transpose(jvp(DiT))/block6/reduce_sum" stack_frame_id=63}
}

%region_243.248 (reduce_sum.1613: f32[], reduce_sum.1614: f32[]) -> f32[] {
  %reduce_sum.1613 = f32[] parameter(0), metadata={op_name="reduce_sum"}
  %reduce_sum.1614 = f32[] parameter(1), metadata={op_name="reduce_sum"}
  ROOT %reduce_sum.1615 = f32[] add(%reduce_sum.1613, %reduce_sum.1614), metadata={op_name="jit(train_step)/transpose(jvp(DiT))/block6/reduce_sum" stack_frame_id=52}
}

%region_244.249 (reduce_sum.1620: f32[], reduce_sum.1621: f32[]) -> f32[] {
  %reduce_sum.1620 = f32[] parameter(0), metadata={op_name="reduce_sum"}
  %reduce_sum.1621 = f32[] parameter(1), metadata={op_name="reduce_sum"}
  ROOT %reduce_sum.1622 = f32[] add(%reduce_sum.1620, %reduce_sum.1621), metadata={op_name="jit(train_step)/transpose(jvp(DiT))/block6/reduce_sum" stack_frame_id=52}
}

%region_237.242 (reduce_sum.1571: f32[], reduce_sum.1572: f32[]) -> f32[] {
  %reduce_sum.1571 = f32[] parameter(0), metadata={op_name="reduce_sum"}
  %reduce_sum.1572 = f32[] parameter(1), metadata={op_name="reduce_sum"}
  ROOT %reduce_sum.1573 = f32[] add(%reduce_sum.1571, %reduce_sum.1572), metadata={op_name="jit(train_step)/transpose(jvp(DiT))/block6/reduce_sum" stack_frame_id=44}
}

%region_238.243 (reduce_sum.1578: f32[], reduce_sum.1579: f32[]) -> f32[] {
  %reduce_sum.1578 = f32[] parameter(0), metadata={op_name="reduce_sum"}
  %reduce_sum.1579 = f32[] parameter(1), metadata={op_name="reduce_sum"}
  ROOT %reduce_sum.1580 = f32[] add(%reduce_sum.1578, %reduce_sum.1579), metadata={op_name="jit(train_step)/transpose(jvp(DiT))/block6/reduce_sum" stack_frame_id=46}
}

%region_235.240 (reduce_sum.1557: f32[], reduce_sum.1558: f32[]) -> f32[] {
  %reduce_sum.1557 = f32[] parameter(0), metadata={op_name="reduce_sum"}
  %reduce_sum.1558 = f32[] parameter(1), metadata={op_name="reduce_sum"}
  ROOT %reduce_sum.1559 = f32[] add(%reduce_sum.1557, %reduce_sum.1558), metadata={op_name="jit(train_step)/transpose(jvp(DiT))/block6/reduce_sum" stack_frame_id=44}
}

%region_236.241 (reduce_sum.1564: f32[], reduce_sum.1565: f32[]) -> f32[] {
  %reduce_sum.1564 = f32[] parameter(0), metadata={op_name="reduce_sum"}
  %reduce_sum.1565 = f32[] parameter(1), metadata={op_name="reduce_sum"}
  ROOT %reduce_sum.1566 = f32[] add(%reduce_sum.1564, %reduce_sum.1565), metadata={op_name="jit(train_step)/transpose(jvp(DiT))/block6/reduce_sum" stack_frame_id=45}
}

%region_231.236 (reduce_sum.1529: f32[], reduce_sum.1530: f32[]) -> f32[] {
  %reduce_sum.1529 = f32[] parameter(0), metadata={op_name="reduce_sum"}
  %reduce_sum.1530 = f32[] parameter(1), metadata={op_name="reduce_sum"}
  ROOT %reduce_sum.1531 = f32[] add(%reduce_sum.1529, %reduce_sum.1530), metadata={op_name="jit(train_step)/transpose(jvp(DiT))/block6/reduce_sum" stack_frame_id=38}
}

%region_232.237 (reduce_sum.1536: f32[], reduce_sum.1537: f32[]) -> f32[] {
  %reduce_sum.1536 = f32[] parameter(0), metadata={op_name="reduce_sum"}
  %reduce_sum.1537 = f32[] parameter(1), metadata={op_name="reduce_sum"}
  ROOT %reduce_sum.1538 = f32[] add(%reduce_sum.1536, %reduce_sum.1537), metadata={op_name="jit(train_step)/transpose(jvp(DiT))/block6/reduce_sum" stack_frame_id=38}
}

%region_256.261 (reduce_sum.1704: f32[], reduce_sum.1705: f32[]) -> f32[] {
  %reduce_sum.1704 = f32[] parameter(0), metadata={op_name="reduce_sum"}
  %reduce_sum.1705 = f32[] parameter(1), metadata={op_name="reduce_sum"}
  ROOT %reduce_sum.1706 = f32[] add(%reduce_sum.1704, %reduce_sum.1705), metadata={op_name="jit(train_step)/transpose(jvp(DiT))/block6/LayerNorm_0/reduce_sum" stack_frame_id=67}
}

%region_258.263 (reduce_sum.1718: f32[], reduce_sum.1719: f32[]) -> f32[] {
  %reduce_sum.1718 = f32[] parameter(0), metadata={op_name="reduce_sum"}
  %reduce_sum.1719 = f32[] parameter(1), metadata={op_name="reduce_sum"}
  ROOT %reduce_sum.1720 = f32[] add(%reduce_sum.1718, %reduce_sum.1719), metadata={op_name="jit(train_step)/transpose(jvp(DiT))/block6/LayerNorm_0/reduce_sum" stack_frame_id=69}
}

%region_255.260 (reduce_sum.1697: f32[], reduce_sum.1698: f32[]) -> f32[] {
  %reduce_sum.1697 = f32[] parameter(0), metadata={op_name="reduce_sum"}
  %reduce_sum.1698 = f32[] parameter(1), metadata={op_name="reduce_sum"}
  ROOT %reduce_sum.1699 = f32[] add(%reduce_sum.1697, %reduce_sum.1698), metadata={op_name="jit(train_step)/transpose(jvp(DiT))/block6/LayerNorm_0/reduce_sum" stack_frame_id=66}
}

%region_257.262 (reduce_sum.1711: f32[], reduce_sum.1712: f32[]) -> f32[] {
  %reduce_sum.1711 = f32[] parameter(0), metadata={op_name="reduce_sum"}
  %reduce_sum.1712 = f32[] parameter(1), metadata={op_name="reduce_sum"}
  ROOT %reduce_sum.1713 = f32[] add(%reduce_sum.1711, %reduce_sum.1712), metadata={op_name="jit(train_step)/transpose(jvp(DiT))/block6/LayerNorm_0/reduce_sum" stack_frame_id=68}
}

%region_269.274 (reduce_sum.1795: f32[], reduce_sum.1796: f32[]) -> f32[] {
  %reduce_sum.1795 = f32[] parameter(0), metadata={op_name="reduce_sum"}
  %reduce_sum.1796 = f32[] parameter(1), metadata={op_name="reduce_sum"}
  ROOT %reduce_sum.1797 = f32[] add(%reduce_sum.1795, %reduce_sum.1796), metadata={op_name="jit(train_step)/transpose(jvp(DiT))/block5/LayerNorm_1/reduce_sum" stack_frame_id=49}
}

%region_271.276 (reduce_sum.1809: f32[], reduce_sum.1810: f32[]) -> f32[] {
  %reduce_sum.1809 = f32[] parameter(0), metadata={op_name="reduce_sum"}
  %reduce_sum.1810 = f32[] parameter(1), metadata={op_name="reduce_sum"}
  ROOT %reduce_sum.1811 = f32[] add(%reduce_sum.1809, %reduce_sum.1810), metadata={op_name="jit(train_step)/transpose(jvp(DiT))/block5/LayerNorm_1/reduce_sum" stack_frame_id=51}
}

%region_268.273 (reduce_sum.1788: f32[], reduce_sum.1789: f32[]) -> f32[] {
  %reduce_sum.1788 = f32[] parameter(0), metadata={op_name="reduce_sum"}
  %reduce_sum.1789 = f32[] parameter(1), metadata={op_name="reduce_sum"}
  ROOT %reduce_sum.1790 = f32[] add(%reduce_sum.1788, %reduce_sum.1789), metadata={op_name="jit(train_step)/transpose(jvp(DiT))/block5/LayerNorm_1/reduce_sum" stack_frame_id=48}
}

%region_270.275 (reduce_sum.1802: f32[], reduce_sum.1803: f32[]) -> f32[] {
  %reduce_sum.1802 = f32[] parameter(0), metadata={op_name="reduce_sum"}
  %reduce_sum.1803 = f32[] parameter(1), metadata={op_name="reduce_sum"}
  ROOT %reduce_sum.1804 = f32[] add(%reduce_sum.1802, %reduce_sum.1803), metadata={op_name="jit(train_step)/transpose(jvp(DiT))/block5/LayerNorm_1/reduce_sum" stack_frame_id=50}
}

%region_275.280 (reduce_sum.1837: f32[], reduce_sum.1838: f32[]) -> f32[] {
  %reduce_sum.1837 = f32[] parameter(0), metadata={op_name="reduce_sum"}
  %reduce_sum.1838 = f32[] parameter(1), metadata={op_name="reduce_sum"}
  ROOT %reduce_sum.1839 = f32[] add(%reduce_sum.1837, %reduce_sum.1838), metadata={op_name="jit(train_step)/transpose(jvp(DiT))/block5/MultiHeadDotProductAttention_0/reduce_sum" stack_frame_id=13}
}

%region_276.281 (reduce_sum.1844: f32[], reduce_sum.1845: f32[]) -> f32[] {
  %reduce_sum.1844 = f32[] parameter(0), metadata={op_name="reduce_sum"}
  %reduce_sum.1845 = f32[] parameter(1), metadata={op_name="reduce_sum"}
  ROOT %reduce_sum.1846 = f32[] add(%reduce_sum.1844, %reduce_sum.1845), metadata={op_name="jit(train_step)/transpose(jvp(DiT))/block5/MultiHeadDotProductAttention_0/reduce_sum" stack_frame_id=13}
}

%region_282.287 (reduce_sum.1886: f32[], reduce_sum.1887: f32[]) -> f32[] {
  %reduce_sum.1886 = f32[] parameter(0), metadata={op_name="reduce_sum"}
  %reduce_sum.1887 = f32[] parameter(1), metadata={op_name="reduce_sum"}
  ROOT %reduce_sum.1888 = f32[] add(%reduce_sum.1886, %reduce_sum.1887), metadata={op_name="jit(train_step)/transpose(jvp(DiT))/block5/reduce_sum" stack_frame_id=62}
}

%region_283.288 (reduce_sum.1893: f32[], reduce_sum.1894: f32[]) -> f32[] {
  %reduce_sum.1893 = f32[] parameter(0), metadata={op_name="reduce_sum"}
  %reduce_sum.1894 = f32[] parameter(1), metadata={op_name="reduce_sum"}
  ROOT %reduce_sum.1895 = f32[] add(%reduce_sum.1893, %reduce_sum.1894), metadata={op_name="jit(train_step)/transpose(jvp(DiT))/block5/reduce_sum" stack_frame_id=64}
}

%region_280.285 (reduce_sum.1872: f32[], reduce_sum.1873: f32[]) -> f32[] {
  %reduce_sum.1872 = f32[] parameter(0), metadata={op_name="reduce_sum"}
  %reduce_sum.1873 = f32[] parameter(1), metadata={op_name="reduce_sum"}
  ROOT %reduce_sum.1874 = f32[] add(%reduce_sum.1872, %reduce_sum.1873), metadata={op_name="jit(train_step)/transpose(jvp(DiT))/block5/reduce_sum" stack_frame_id=62}
}

%region_281.286 (reduce_sum.1879: f32[], reduce_sum.1880: f32[]) -> f32[] {
  %reduce_sum.1879 = f32[] parameter(0), metadata={op_name="reduce_sum"}
  %reduce_sum.1880 = f32[] parameter(1), metadata={op_name="reduce_sum"}
  ROOT %reduce_sum.1881 = f32[] add(%reduce_sum.1879, %reduce_sum.1880), metadata={op_name="jit(train_step)/transpose(jvp(DiT))/block5/reduce_sum" stack_frame_id=63}
}

%region_272.277 (reduce_sum.1816: f32[], reduce_sum.1817: f32[]) -> f32[] {
  %reduce_sum.1816 = f32[] parameter(0), metadata={op_name="reduce_sum"}
  %reduce_sum.1817 = f32[] parameter(1), metadata={op_name="reduce_sum"}
  ROOT %reduce_sum.1818 = f32[] add(%reduce_sum.1816, %reduce_sum.1817), metadata={op_name="jit(train_step)/transpose(jvp(DiT))/block5/reduce_sum" stack_frame_id=52}
}

%region_273.278 (reduce_sum.1823: f32[], reduce_sum.1824: f32[]) -> f32[] {
  %reduce_sum.1823 = f32[] parameter(0), metadata={op_name="reduce_sum"}
  %reduce_sum.1824 = f32[] parameter(1), metadata={op_name="reduce_sum"}
  ROOT %reduce_sum.1825 = f32[] add(%reduce_sum.1823, %reduce_sum.1824), metadata={op_name="jit(train_step)/transpose(jvp(DiT))/block5/reduce_sum" stack_frame_id=52}
}

%region_266.271 (reduce_sum.1774: f32[], reduce_sum.1775: f32[]) -> f32[] {
  %reduce_sum.1774 = f32[] parameter(0), metadata={op_name="reduce_sum"}
  %reduce_sum.1775 = f32[] parameter(1), metadata={op_name="reduce_sum"}
  ROOT %reduce_sum.1776 = f32[] add(%reduce_sum.1774, %reduce_sum.1775), metadata={op_name="jit(train_step)/transpose(jvp(DiT))/block5/reduce_sum" stack_frame_id=44}
}

%region_267.272 (reduce_sum.1781: f32[], reduce_sum.1782: f32[]) -> f32[] {
  %reduce_sum.1781 = f32[] parameter(0), metadata={op_name="reduce_sum"}
  %reduce_sum.1782 = f32[] parameter(1), metadata={op_name="reduce_sum"}
  ROOT %reduce_sum.1783 = f32[] add(%reduce_sum.1781, %reduce_sum.1782), metadata={op_name="jit(train_step)/transpose(jvp(DiT))/block5/reduce_sum" stack_frame_id=46}
}

%region_264.269 (reduce_sum.1760: f32[], reduce_sum.1761: f32[]) -> f32[] {
  %reduce_sum.1760 = f32[] parameter(0), metadata={op_name="reduce_sum"}
  %reduce_sum.1761 = f32[] parameter(1), metadata={op_name="reduce_sum"}
  ROOT %reduce_sum.1762 = f32[] add(%reduce_sum.1760, %reduce_sum.1761), metadata={op_name="jit(train_step)/transpose(jvp(DiT))/block5/reduce_sum" stack_frame_id=44}
}

%region_265.270 (reduce_sum.1767: f32[], reduce_sum.1768: f32[]) -> f32[] {
  %reduce_sum.1767 = f32[] parameter(0), metadata={op_name="reduce_sum"}
  %reduce_sum.1768 = f32[] parameter(1), metadata={op_name="reduce_sum"}
  ROOT %reduce_sum.1769 = f32[] add(%reduce_sum.1767, %reduce_sum.1768), metadata={op_name="jit(train_step)/transpose(jvp(DiT))/block5/reduce_sum" stack_frame_id=45}
}

%region_260.265 (reduce_sum.1732: f32[], reduce_sum.1733: f32[]) -> f32[] {
  %reduce_sum.1732 = f32[] parameter(0), metadata={op_name="reduce_sum"}
  %reduce_sum.1733 = f32[] parameter(1), metadata={op_name="reduce_sum"}
  ROOT %reduce_sum.1734 = f32[] add(%reduce_sum.1732, %reduce_sum.1733), metadata={op_name="jit(train_step)/transpose(jvp(DiT))/block5/reduce_sum" stack_frame_id=38}
}

%region_261.266 (reduce_sum.1739: f32[], reduce_sum.1740: f32[]) -> f32[] {
  %reduce_sum.1739 = f32[] parameter(0), metadata={op_name="reduce_sum"}
  %reduce_sum.1740 = f32[] parameter(1), metadata={op_name="reduce_sum"}
  ROOT %reduce_sum.1741 = f32[] add(%reduce_sum.1739, %reduce_sum.1740), metadata={op_name="jit(train_step)/transpose(jvp(DiT))/block5/reduce_sum" stack_frame_id=38}
}

%region_285.290 (reduce_sum.1907: f32[], reduce_sum.1908: f32[]) -> f32[] {
  %reduce_sum.1907 = f32[] parameter(0), metadata={op_name="reduce_sum"}
  %reduce_sum.1908 = f32[] parameter(1), metadata={op_name="reduce_sum"}
  ROOT %reduce_sum.1909 = f32[] add(%reduce_sum.1907, %reduce_sum.1908), metadata={op_name="jit(train_step)/transpose(jvp(DiT))/block5/LayerNorm_0/reduce_sum" stack_frame_id=67}
}

%region_287.292 (reduce_sum.1921: f32[], reduce_sum.1922: f32[]) -> f32[] {
  %reduce_sum.1921 = f32[] parameter(0), metadata={op_name="reduce_sum"}
  %reduce_sum.1922 = f32[] parameter(1), metadata={op_name="reduce_sum"}
  ROOT %reduce_sum.1923 = f32[] add(%reduce_sum.1921, %reduce_sum.1922), metadata={op_name="jit(train_step)/transpose(jvp(DiT))/block5/LayerNorm_0/reduce_sum" stack_frame_id=69}
}

%region_284.289 (reduce_sum.1900: f32[], reduce_sum.1901: f32[]) -> f32[] {
  %reduce_sum.1900 = f32[] parameter(0), metadata={op_name="reduce_sum"}
  %reduce_sum.1901 = f32[] parameter(1), metadata={op_name="reduce_sum"}
  ROOT %reduce_sum.1902 = f32[] add(%reduce_sum.1900, %reduce_sum.1901), metadata={op_name="jit(train_step)/transpose(jvp(DiT))/block5/LayerNorm_0/reduce_sum" stack_frame_id=66}
}

%region_286.291 (reduce_sum.1914: f32[], reduce_sum.1915: f32[]) -> f32[] {
  %reduce_sum.1914 = f32[] parameter(0), metadata={op_name="reduce_sum"}
  %reduce_sum.1915 = f32[] parameter(1), metadata={op_name="reduce_sum"}
  ROOT %reduce_sum.1916 = f32[] add(%reduce_sum.1914, %reduce_sum.1915), metadata={op_name="jit(train_step)/transpose(jvp(DiT))/block5/LayerNorm_0/reduce_sum" stack_frame_id=68}
}

%region_298.303 (reduce_sum.1998: f32[], reduce_sum.1999: f32[]) -> f32[] {
  %reduce_sum.1998 = f32[] parameter(0), metadata={op_name="reduce_sum"}
  %reduce_sum.1999 = f32[] parameter(1), metadata={op_name="reduce_sum"}
  ROOT %reduce_sum.2000 = f32[] add(%reduce_sum.1998, %reduce_sum.1999), metadata={op_name="jit(train_step)/transpose(jvp(DiT))/block4/LayerNorm_1/reduce_sum" stack_frame_id=49}
}

%region_300.305 (reduce_sum.2012: f32[], reduce_sum.2013: f32[]) -> f32[] {
  %reduce_sum.2012 = f32[] parameter(0), metadata={op_name="reduce_sum"}
  %reduce_sum.2013 = f32[] parameter(1), metadata={op_name="reduce_sum"}
  ROOT %reduce_sum.2014 = f32[] add(%reduce_sum.2012, %reduce_sum.2013), metadata={op_name="jit(train_step)/transpose(jvp(DiT))/block4/LayerNorm_1/reduce_sum" stack_frame_id=51}
}

%region_297.302 (reduce_sum.1991: f32[], reduce_sum.1992: f32[]) -> f32[] {
  %reduce_sum.1991 = f32[] parameter(0), metadata={op_name="reduce_sum"}
  %reduce_sum.1992 = f32[] parameter(1), metadata={op_name="reduce_sum"}
  ROOT %reduce_sum.1993 = f32[] add(%reduce_sum.1991, %reduce_sum.1992), metadata={op_name="jit(train_step)/transpose(jvp(DiT))/block4/LayerNorm_1/reduce_sum" stack_frame_id=48}
}

%region_299.304 (reduce_sum.2005: f32[], reduce_sum.2006: f32[]) -> f32[] {
  %reduce_sum.2005 = f32[] parameter(0), metadata={op_name="reduce_sum"}
  %reduce_sum.2006 = f32[] parameter(1), metadata={op_name="reduce_sum"}
  ROOT %reduce_sum.2007 = f32[] add(%reduce_sum.2005, %reduce_sum.2006), metadata={op_name="jit(train_step)/transpose(jvp(DiT))/block4/LayerNorm_1/reduce_sum" stack_frame_id=50}
}

%region_304.309 (reduce_sum.2040: f32[], reduce_sum.2041: f32[]) -> f32[] {
  %reduce_sum.2040 = f32[] parameter(0), metadata={op_name="reduce_sum"}
  %reduce_sum.2041 = f32[] parameter(1), metadata={op_name="reduce_sum"}
  ROOT %reduce_sum.2042 = f32[] add(%reduce_sum.2040, %reduce_sum.2041), metadata={op_name="jit(train_step)/transpose(jvp(DiT))/block4/MultiHeadDotProductAttention_0/reduce_sum" stack_frame_id=13}
}

%region_305.310 (reduce_sum.2047: f32[], reduce_sum.2048: f32[]) -> f32[] {
  %reduce_sum.2047 = f32[] parameter(0), metadata={op_name="reduce_sum"}
  %reduce_sum.2048 = f32[] parameter(1), metadata={op_name="reduce_sum"}
  ROOT %reduce_sum.2049 = f32[] add(%reduce_sum.2047, %reduce_sum.2048), metadata={op_name="jit(train_step)/transpose(jvp(DiT))/block4/MultiHeadDotProductAttention_0/reduce_sum" stack_frame_id=13}
}

%region_311.316 (reduce_sum.2089: f32[], reduce_sum.2090: f32[]) -> f32[] {
  %reduce_sum.2089 = f32[] parameter(0), metadata={op_name="reduce_sum"}
  %reduce_sum.2090 = f32[] parameter(1), metadata={op_name="reduce_sum"}
  ROOT %reduce_sum.2091 = f32[] add(%reduce_sum.2089, %reduce_sum.2090), metadata={op_name="jit(train_step)/transpose(jvp(DiT))/block4/reduce_sum" stack_frame_id=62}
}

%region_312.317 (reduce_sum.2096: f32[], reduce_sum.2097: f32[]) -> f32[] {
  %reduce_sum.2096 = f32[] parameter(0), metadata={op_name="reduce_sum"}
  %reduce_sum.2097 = f32[] parameter(1), metadata={op_name="reduce_sum"}
…
  %opt_state_0__mu__block9____MultiHeadDotProductAttention_0____query____bias__.1 = f32[12,64]{1,0} parameter(354), metadata={op_name="opt_state[0].mu[\'block9\'][\'MultiHeadDotProductAttention_0\'][\'query\'][\'bias\']"}
  %mul.3693 = f32[12,64]{1,0} multiply(%opt_state_0__mu__block9____MultiHeadDotProductAttention_0____query____bias__.1, %broadcast.162), metadata={op_name="jit(train_step)/mul" stack_frame_id=166}
  %add.2210 = f32[12,64]{1,0} add(%mul.3692, %mul.3693), metadata={op_name="jit(train_step)/add" stack_frame_id=165}
  %div.1818 = f32[12,64]{1,0} broadcast(%sub.376), dimensions={}, metadata={op_name="jit(train_step)/div" stack_frame_id=171}
  %div.1819 = f32[12,64]{1,0} divide(%add.2210, %div.1818), metadata={op_name="jit(train_step)/div" stack_frame_id=171}
  %integer_pow.427 = f32[12,64]{1,0} multiply(%reduce_sum.3125, %reduce_sum.3125), metadata={op_name="jit(train_step)/integer_pow" stack_frame_id=175}
  %mul.4052 = f32[12,64]{1,0} multiply(%integer_pow.427, %broadcast.141), metadata={op_name="jit(train_step)/mul" stack_frame_id=176}
  %opt_state_0__nu__block9____MultiHeadDotProductAttention_0____query____bias__.1 = f32[12,64]{1,0} parameter(534), metadata={op_name="opt_state[0].nu[\'block9\'][\'MultiHeadDotProductAttention_0\'][\'query\'][\'bias\']"}
  %mul.4053 = f32[12,64]{1,0} multiply(%opt_state_0__nu__block9____MultiHeadDotProductAttention_0____query____bias__.1, %broadcast.140), metadata={op_name="jit(train_step)/mul" stack_frame_id=177}
  %add.2390 = f32[12,64]{1,0} add(%mul.4052, %mul.4053), metadata={op_name="jit(train_step)/add" stack_frame_id=176}
  %div.2178 = f32[12,64]{1,0} broadcast(%sub.377), dimensions={}, metadata={op_name="jit(train_step)/div" stack_frame_id=178}
  %div.2179 = f32[12,64]{1,0} divide(%add.2390, %div.2178), metadata={op_name="jit(train_step)/div" stack_frame_id=178}
  %sqrt.353 = f32[12,64]{1,0} sqrt(%div.2179), metadata={op_name="jit(train_step)/sqrt" stack_frame_id=180}
  %add.2571 = f32[12,64]{1,0} add(%sqrt.353, %broadcast.127), metadata={op_name="jit(train_step)/add" stack_frame_id=180}
  %div.2365 = f32[12,64]{1,0} divide(%div.1819, %add.2571), metadata={op_name="jit(train_step)/div" stack_frame_id=181}
  %mul.4239 = f32[12,64]{1,0} multiply(%params__block9____MultiHeadDotProductAttention_0____query____bias__.1, %broadcast.116), metadata={op_name="jit(train_step)/mul" stack_frame_id=183}
  %add.2751 = f32[12,64]{1,0} add(%div.2365, %mul.4239), metadata={op_name="jit(train_step)/add" stack_frame_id=184}
  %mul.4419 = f32[12,64]{1,0} multiply(%add.2751, %broadcast.105), metadata={op_name="jit(train_step)/mul" stack_frame_id=186}
  %add.2931 = f32[12,64]{1,0} add(%params__block9____MultiHeadDotProductAttention_0____query____bias__.1, %mul.4419), metadata={op_name="jit(train_step)/add" stack_frame_id=189}
  %dot_general.501 = f32[12,64,768]{2,1,0} dot(%div.1388, %add.1900), lhs_contracting_dims={0,1}, rhs_contracting_dims={0,1}, metadata={op_name="jit(train_step)/transpose(jvp(DiT))/block9/MultiHeadDotProductAttention_0/query/dot_general" stack_frame_id=115}
  %transpose.199 = f32[768,12,64]{0,2,1} transpose(%dot_general.501), dimensions={2,0,1}, metadata={op_name="jit(train_step)/transpose(jvp(DiT))/block9/MultiHeadDotProductAttention_0/query/transpose" stack_frame_id=115}
  %mul.3694 = f32[768,12,64]{0,2,1} multiply(%transpose.199, %broadcast.161), metadata={op_name="jit(train_step)/mul" stack_frame_id=165}
  %opt_state_0__mu__block9____MultiHeadDotProductAttention_0____query____kernel__.1 = f32[768,12,64]{2,1,0} parameter(355), metadata={op_name="opt_state[0].mu[\'block9\'][\'MultiHeadDotProductAttention_0\'][\'query\'][\'kernel\']"}
  %mul.3695 = f32[768,12,64]{2,1,0} multiply(%opt_state_0__mu__block9____MultiHeadDotProductAttention_0____query____kernel__.1, %broadcast.160), metadata={op_name="jit(train_step)/mul" stack_frame_id=166}
  %add.2211 = f32[768,12,64]{0,2,1} add(%mul.3694, %mul.3695), metadata={op_name="jit(train_step)/add" stack_frame_id=165}
  %div.1820 = f32[768,12,64]{2,1,0} broadcast(%sub.376), dimensions={}, metadata={op_name="jit(train_step)/div" stack_frame_id=171}
  %div.1821 = f32[768,12,64]{0,2,1} divide(%add.2211, %div.1820), metadata={op_name="jit(train_step)/div" stack_frame_id=171}
  %integer_pow.428 = f32[768,12,64]{0,2,1} multiply(%transpose.199, %transpose.199), metadata={op_name="jit(train_step)/integer_pow" stack_frame_id=175}
  %mul.4054 = f32[768,12,64]{0,2,1} multiply(%integer_pow.428, %broadcast.139), metadata={op_name="jit(train_step)/mul" stack_frame_id=176}
  %opt_state_0__nu__block9____MultiHeadDotProductAttention_0____query____kernel__.1 = f32[768,12,64]{2,1,0} parameter(535), metadata={op_name="opt_state[0].nu[\'block9\'][\'MultiHeadDotProductAttention_0\'][\'query\'][\'kernel\']"}
  %mul.4055 = f32[768,12,64]{2,1,0} multiply(%opt_state_0__nu__block9____MultiHeadDotProductAttention_0____query____kernel__.1, %broadcast.138), metadata={op_name="jit(train_step)/mul" stack_frame_id=177}
  %add.2391 = f32[768,12,64]{0,2,1} add(%mul.4054, %mul.4055), metadata={op_name="jit(train_step)/add" stack_frame_id=176}
  %div.2180 = f32[768,12,64]{2,1,0} broadcast(%sub.377), dimensions={}, metadata={op_name="jit(train_step)/div" stack_frame_id=178}
  %div.2181 = f32[768,12,64]{0,2,1} divide(%add.2391, %div.2180), metadata={op_name="jit(train_step)/div" stack_frame_id=178}
  %sqrt.354 = f32[768,12,64]{0,2,1} sqrt(%div.2181), metadata={op_name="jit(train_step)/sqrt" stack_frame_id=180}
  %add.2572 = f32[768,12,64]{0,2,1} add(%sqrt.354, %broadcast.126), metadata={op_name="jit(train_step)/add" stack_frame_id=180}
  %div.2366 = f32[768,12,64]{0,2,1} divide(%div.1821, %add.2572), metadata={op_name="jit(train_step)/div" stack_frame_id=181}
  %mul.4240 = f32[768,12,64]{2,1,0} multiply(%params__block9____MultiHeadDotProductAttention_0____query____kernel__.1, %broadcast.115), metadata={op_name="jit(train_step)/mul" stack_frame_id=183}
  %add.2752 = f32[768,12,64]{0,2,1} add(%div.2366, %mul.4240), metadata={op_name="jit(train_step)/add" stack_frame_id=184}
  %mul.4420 = f32[768,12,64]{0,2,1} multiply(%add.2752, %broadcast.104), metadata={op_name="jit(train_step)/mul" stack_frame_id=186}
  %add.2932 = f32[768,12,64]{2,1,0} add(%params__block9____MultiHeadDotProductAttention_0____query____kernel__.1, %mul.4420), metadata={op_name="jit(train_step)/add" stack_frame_id=189}
  %reduce_sum.3123 = f32[12,64]{1,0} reduce(%transpose.194, %constant.309), dimensions={0,1}, to_apply=%region_161.166, metadata={op_name="jit(train_step)/transpose(jvp(DiT))/block9/MultiHeadDotProductAttention_0/value/reduce_sum" stack_frame_id=56}
  %mul.3696 = f32[12,64]{1,0} multiply(%reduce_sum.3123, %broadcast.163), metadata={op_name="jit(train_step)/mul" stack_frame_id=165}
  %opt_state_0__mu__block9____MultiHeadDotProductAttention_0____value____bias__.1 = f32[12,64]{1,0} parameter(356), metadata={op_name="opt_state[0].mu[\'block9\'][\'MultiHeadDotProductAttention_0\'][\'value\'][\'bias\']"}
  %mul.3697 = f32[12,64]{1,0} multiply(%opt_state_0__mu__block9____MultiHeadDotProductAttention_0____value____bias__.1, %broadcast.162), metadata={op_name="jit(train_step)/mul" stack_frame_id=166}
  %add.2212 = f32[12,64]{1,0} add(%mul.3696, %mul.3697), metadata={op_name="jit(train_step)/add" stack_frame_id=165}
  %div.1822 = f32[12,64]{1,0} broadcast(%sub.376), dimensions={}, metadata={op_name="jit(train_step)/div" stack_frame_id=171}
  %div.1823 = f32[12,64]{1,0} divide(%add.2212, %div.1822), metadata={op_name="jit(train_step)/div" stack_frame_id=171}
  %integer_pow.429 = f32[12,64]{1,0} multiply(%reduce_sum.3123, %reduce_sum.3123), metadata={op_name="jit(train_step)/integer_pow" stack_frame_id=175}
  %mul.4056 = f32[12,64]{1,0} multiply(%integer_pow.429, %broadcast.141), metadata={op_name="jit(train_step)/mul" stack_frame_id=176}
  %opt_state_0__nu__block9____MultiHeadDotProductAttention_0____value____bias__.1 = f32[12,64]{1,0} parameter(536), metadata={op_name="opt_state[0].nu[\'block9\'][\'MultiHeadDotProductAttention_0\'][\'value\'][\'bias\']"}
  %mul.4057 = f32[12,64]{1,0} multiply(%opt_state_0__nu__block9____MultiHeadDotProductAttention_0____value____bias__.1, %broadcast.140), metadata={op_name="jit(train_step)/mul" stack_frame_id=177}
  %add.2392 = f32[12,64]{1,0} add(%mul.4056, %mul.4057), metadata={op_name="jit(train_step)/add" stack_frame_id=176}
  %div.2182 = f32[12,64]{1,0} broadcast(%sub.377), dimensions={}, metadata={op_name="jit(train_step)/div" stack_frame_id=178}
  %div.2183 = f32[12,64]{1,0} divide(%add.2392, %div.2182), metadata={op_name="jit(train_step)/div" stack_frame_id=178}
  %sqrt.355 = f32[12,64]{1,0} sqrt(%div.2183), metadata={op_name="jit(train_step)/sqrt" stack_frame_id=180}
  %add.2573 = f32[12,64]{1,0} add(%sqrt.355, %broadcast.127), metadata={op_name="jit(train_step)/add" stack_frame_id=180}
  %div.2367 = f32[12,64]{1,0} divide(%div.1823, %add.2573), metadata={op_name="jit(train_step)/div" stack_frame_id=181}
  %mul.4241 = f32[12,64]{1,0} multiply(%params__block9____MultiHeadDotProductAttention_0____value____bias__.1, %broadcast.116), metadata={op_name="jit(train_step)/mul" stack_frame_id=183}
  %add.2753 = f32[12,64]{1,0} add(%div.2367, %mul.4241), metadata={op_name="jit(train_step)/add" stack_frame_id=184}
  %mul.4421 = f32[12,64]{1,0} multiply(%add.2753, %broadcast.105), metadata={op_name="jit(train_step)/mul" stack_frame_id=186}
  %add.2933 = f32[12,64]{1,0} add(%params__block9____MultiHeadDotProductAttention_0____value____bias__.1, %mul.4421), metadata={op_name="jit(train_step)/add" stack_frame_id=189}
  %dot_general.497 = f32[12,64,768]{2,1,0} dot(%transpose.194, %add.1900), lhs_contracting_dims={0,1}, rhs_contracting_dims={0,1}, metadata={op_name="jit(train_step)/transpose(jvp(DiT))/block9/MultiHeadDotProductAttention_0/value/dot_general" stack_frame_id=113}
  %transpose.197 = f32[768,12,64]{0,2,1} transpose(%dot_general.497), dimensions={2,0,1}, metadata={op_name="jit(train_step)/transpose(jvp(DiT))/block9/MultiHeadDotProductAttention_0/value/transpose" stack_frame_id=113}
  %mul.3698 = f32[768,12,64]{0,2,1} multiply(%transpose.197, %broadcast.161), metadata={op_name="jit(train_step)/mul" stack_frame_id=165}
  %opt_state_0__mu__block9____MultiHeadDotProductAttention_0____value____kernel__.1 = f32[768,12,64]{2,1,0} parameter(357), metadata={op_name="opt_state[0].mu[\'block9\'][\'MultiHeadDotProductAttention_0\'][\'value\'][\'kernel\']"}
  %mul.3699 = f32[768,12,64]{2,1,0} multiply(%opt_state_0__mu__block9____MultiHeadDotProductAttention_0____value____kernel__.1, %broadcast.160), metadata={op_name="jit(train_step)/mul" stack_frame_id=166}
  %add.2213 = f32[768,12,64]{0,2,1} add(%mul.3698, %mul.3699), metadata={op_name="jit(train_step)/add" stack_frame_id=165}
  %div.1824 = f32[768,12,64]{2,1,0} broadcast(%sub.376), dimensions={}, metadata={op_name="jit(train_step)/div" stack_frame_id=171}
  %div.1825 = f32[768,12,64]{0,2,1} divide(%add.2213, %div.1824), metadata={op_name="jit(train_step)/div" stack_frame_id=171}
  %integer_pow.430 = f32[768,12,64]{0,2,1} multiply(%transpose.197, %transpose.197), metadata={op_name="jit(train_step)/integer_pow" stack_frame_id=175}
  %mul.4058 = f32[768,12,64]{0,2,1} multiply(%integer_pow.430, %broadcast.139), metadata={op_name="jit(train_step)/mul" stack_frame_id=176}
  %opt_state_0__nu__block9____MultiHeadDotProductAttention_0____value____kernel__.1 = f32[768,12,64]{2,1,0} parameter(537), metadata={op_name="opt_state[0].nu[\'block9\'][\'MultiHeadDotProductAttention_0\'][\'value\'][\'kernel\']"}
  %mul.4059 = f32[768,12,64]{2,1,0} multiply(%opt_state_0__nu__block9____MultiHeadDotProductAttention_0____value____kernel__.1, %broadcast.138), metadata={op_name="jit(train_step)/mul" stack_frame_id=177}
  %add.2393 = f32[768,12,64]{0,2,1} add(%mul.4058, %mul.4059), metadata={op_name="jit(train_step)/add" stack_frame_id=176}
  %div.2184 = f32[768,12,64]{2,1,0} broadcast(%sub.377), dimensions={}, metadata={op_name="jit(train_step)/div" stack_frame_id=178}
  %div.2185 = f32[768,12,64]{0,2,1} divide(%add.2393, %div.2184), metadata={op_name="jit(train_step)/div" stack_frame_id=178}
  %sqrt.356 = f32[768,12,64]{0,2,1} sqrt(%div.2185), metadata={op_name="jit(train_step)/sqrt" stack_frame_id=180}
  %add.2574 = f32[768,12,64]{0,2,1} add(%sqrt.356, %broadcast.126), metadata={op_name="jit(train_step)/add" stack_frame_id=180}
  %div.2368 = f32[768,12,64]{0,2,1} divide(%div.1825, %add.2574), metadata={op_name="jit(train_step)/div" stack_frame_id=181}
  %mul.4242 = f32[768,12,64]{2,1,0} multiply(%params__block9____MultiHeadDotProductAttention_0____value____kernel__.1, %broadcast.115), metadata={op_name="jit(train_step)/mul" stack_frame_id=183}
  %add.2754 = f32[768,12,64]{0,2,1} add(%div.2368, %mul.4242), metadata={op_name="jit(train_step)/add" stack_frame_id=184}
  %mul.4422 = f32[768,12,64]{0,2,1} multiply(%add.2754, %broadcast.104), metadata={op_name="jit(train_step)/mul" stack_frame_id=186}
  %add.2934 = f32[768,12,64]{2,1,0} add(%params__block9____MultiHeadDotProductAttention_0____value____kernel__.1, %mul.4422), metadata={op_name="jit(train_step)/add" stack_frame_id=189}
  %mul.3333 = f32[8,1,768]{2,1,0} broadcast(%add.1500), dimensions={0,1,2}, metadata={op_name="jit(train_step)/transpose(jvp(DiT))/block0/mul" stack_frame_id=62}
  %mul.3334 = f32[8,768]{1,0} reshape(%mul.3333), metadata={op_name="jit(train_step)/transpose(jvp(DiT))/block0/mul" stack_frame_id=62}
  %mul.3335 = f32[8,256,768]{2,1,0} broadcast(%mul.3334), dimensions={0,2}, metadata={op_name="jit(train_step)/transpose(jvp(DiT))/block0/mul" stack_frame_id=62}
  %mul.3336 = f32[8,256,768]{2,1,0} multiply(%add_any.362, %mul.3335), metadata={op_name="jit(train_step)/transpose(jvp(DiT))/block0/mul" stack_frame_id=62}
  %mul.3338 = f32[8,256,1]{2,1,0} broadcast(%rsqrt.25), dimensions={0,1,2}, metadata={op_name="jit(train_step)/transpose(jvp(DiT))/block0/LayerNorm_0/mul" stack_frame_id=66}
  %mul.3339 = f32[8,256]{1,0} reshape(%mul.3338), metadata={op_name="jit(train_step)/transpose(jvp(DiT))/block0/LayerNorm_0/mul" stack_frame_id=66}
  %mul.3340 = f32[8,256,768]{2,1,0} broadcast(%mul.3339), dimensions={0,1}, metadata={op_name="jit(train_step)/transpose(jvp(DiT))/block0/LayerNorm_0/mul" stack_frame_id=66}
  %mul.3341 = f32[8,256,768]{2,1,0} multiply(%mul.3336, %mul.3340), metadata={op_name="jit(train_step)/transpose(jvp(DiT))/block0/LayerNorm_0/mul" stack_frame_id=66}
  %add_any.363 = f32[8,256,768]{2,1,0} add(%add_any.359, %mul.3341), metadata={op_name="jit(train_step)/transpose(jvp(DiT))/block0/LayerNorm_0/add_any" stack_frame_id=67}
  %neg.124 = f32[8,256,768]{2,1,0} negate(%mul.3341), metadata={op_name="jit(train_step)/transpose(jvp(DiT))/block0/LayerNorm_0/neg" stack_frame_id=67}
  %reduce_sum.3392 = f32[8,256]{1,0} reduce(%neg.124, %constant.309), dimensions={2}, to_apply=%region_430.435, metadata={op_name="jit(train_step)/transpose(jvp(DiT))/block0/LayerNorm_0/reduce_sum" stack_frame_id=67}
  %reshape.461 = f32[8,256,1]{2,1,0} reshape(%reduce_sum.3392), metadata={op_name="jit(train_step)/transpose(jvp(DiT))/block0/LayerNorm_0/reshape" stack_frame_id=67}
  %reduce_sum.3394 = f32[8,256]{1,0} reduce(%reshape.461, %constant.309), dimensions={2}, to_apply=%region_432.437, metadata={op_name="jit(train_step)/transpose(jvp(DiT))/block0/LayerNorm_0/reduce_sum" stack_frame_id=69}
  %mul.3337 = f32[8,256,768]{2,1,0} multiply(%sub.194, %mul.3336), metadata={op_name="jit(train_step)/transpose(jvp(DiT))/block0/LayerNorm_0/mul" stack_frame_id=66}
  %reduce_sum.3391 = f32[8,256]{1,0} reduce(%mul.3337, %constant.309), dimensions={2}, to_apply=%region_429.434, metadata={op_name="jit(train_step)/transpose(jvp(DiT))/block0/LayerNorm_0/reduce_sum" stack_frame_id=66}
  %reshape.460 = f32[8,256,1]{2,1,0} reshape(%reduce_sum.3391), metadata={op_name="jit(train_step)/transpose(jvp(DiT))/block0/LayerNorm_0/reshape" stack_frame_id=66}
  %div.1192 = f32[8,256,1]{2,1,0} divide(%rsqrt.25, %add.1499), metadata={op_name="jit(train_step)/jvp(DiT)/block0/LayerNorm_0/div" stack_frame_id=111}
  %mul.2266 = f32[8,256,1]{2,1,0} multiply(%div.1192, %broadcast.189), metadata={op_name="jit(train_step)/jvp(DiT)/block0/LayerNorm_0/mul" stack_frame_id=111}
  %mul.3342 = f32[8,256,1]{2,1,0} multiply(%reshape.460, %mul.2266), metadata={op_name="jit(train_step)/transpose(jvp(DiT))/block0/LayerNorm_0/mul" stack_frame_id=111}
  %reduce_sum.3393 = f32[8,256]{1,0} reduce(%mul.3342, %constant.309), dimensions={2}, to_apply=%region_431.436, metadata={op_name="jit(train_step)/transpose(jvp(DiT))/block0/LayerNorm_0/reduce_sum" stack_frame_id=68}
  %eq.50 = pred[8,256]{1,0} compare(%sub.190, %max.37), direction=EQ, metadata={op_name="jit(train_step)/jvp(DiT)/block0/LayerNorm_0/eq" stack_frame_id=109}
  %select_n.56 = f32[8,256]{1,0} select(%eq.50, %broadcast.191, %broadcast.192), metadata={op_name="jit(train_step)/jvp(DiT)/block0/LayerNorm_0/select_n" stack_frame_id=109}
  %eq.51 = pred[8,256]{1,0} compare(%broadcast.192, %max.37), direction=EQ, metadata={op_name="jit(train_step)/jvp(DiT)/block0/LayerNorm_0/eq" stack_frame_id=109}
  %select_n.57 = f32[8,256]{1,0} select(%eq.51, %broadcast.193, %broadcast.191), metadata={op_name="jit(train_step)/jvp(DiT)/block0/LayerNorm_0/select_n" stack_frame_id=109}
  %div.1191 = f32[8,256]{1,0} divide(%select_n.56, %select_n.57), metadata={op_name="jit(train_step)/jvp(DiT)/block0/LayerNorm_0/div" stack_frame_id=109}
  %mul.3343 = f32[8,256]{1,0} multiply(%reduce_sum.3393, %div.1191), metadata={op_name="jit(train_step)/transpose(jvp(DiT))/block0/LayerNorm_0/mul" stack_frame_id=109}
  %neg.125 = f32[8,256]{1,0} negate(%mul.3343), metadata={op_name="jit(train_step)/transpose(jvp(DiT))/block0/LayerNorm_0/neg" stack_frame_id=108}
  %mul.2265 = f32[8,256]{1,0} multiply(%div.1189, %broadcast.193), metadata={op_name="jit(train_step)/jvp(DiT)/block0/LayerNorm_0/mul" stack_frame_id=107}
  %mul.3344 = f32[8,256]{1,0} multiply(%neg.125, %mul.2265), metadata={op_name="jit(train_step)/transpose(jvp(DiT))/block0/LayerNorm_0/mul" stack_frame_id=107}
  %add_any.364 = f32[8,256]{1,0} add(%reduce_sum.3394, %mul.3344), metadata={op_name="jit(train_step)/transpose(jvp(DiT))/block0/LayerNorm_0/add_any" stack_frame_id=107}
  %div.1471 = f32[8,256]{1,0} divide(%add_any.364, %broadcast.194), metadata={op_name="jit(train_step)/transpose(jvp(DiT))/block0/LayerNorm_0/div" stack_frame_id=9}
  %broadcast_in_dim.435 = f32[8,256,768]{2,1,0} broadcast(%div.1471), dimensions={0,1}, metadata={op_name="jit(train_step)/transpose(jvp(DiT))/block0/LayerNorm_0/broadcast_in_dim" stack_frame_id=9}
  %add_any.365 = f32[8,256,768]{2,1,0} add(%add_any.363, %broadcast_in_dim.435), metadata={op_name="jit(train_step)/transpose(jvp(DiT))/block0/LayerNorm_0/add_any" stack_frame_id=9}
  %div.1470 = f32[8,256]{1,0} divide(%mul.3343, %broadcast.194), metadata={op_name="jit(train_step)/transpose(jvp(DiT))/block0/LayerNorm_0/div" stack_frame_id=9}
  %broadcast_in_dim.434 = f32[8,256,768]{2,1,0} broadcast(%div.1470), dimensions={0,1}, metadata={op_name="jit(train_step)/transpose(jvp(DiT))/block0/LayerNorm_0/broadcast_in_dim" stack_frame_id=9}
  %mul.2264 = f32[8,256,768]{2,1,0} multiply(%add.1485, %broadcast.195), metadata={op_name="jit(train_step)/jvp(DiT)/block0/LayerNorm_0/mul" stack_frame_id=105}
  %mul.3345 = f32[8,256,768]{2,1,0} multiply(%broadcast_in_dim.434, %mul.2264), metadata={op_name="jit(train_step)/transpose(jvp(DiT))/block0/LayerNorm_0/mul" stack_frame_id=105}
  %add_any.366 = f32[8,256,768]{2,1,0} add(%add_any.365, %mul.3345), metadata={op_name="jit(train_step)/transpose(jvp(DiT))/block0/LayerNorm_0/add_any" stack_frame_id=105}
  %reshape.463 = f32[8,16,16,768]{3,2,1,0} reshape(%add_any.366), metadata={op_name="jit(train_step)/transpose(jvp(DiT))/reshape" stack_frame_id=83}
  %reduce_sum.3399 = f32[768]{0} reduce(%reshape.463, %constant.309), dimensions={0,1,2}, to_apply=%region_438.444, metadata={op_name="jit(train_step)/transpose(jvp(DiT))/patch_embed/reduce_sum" stack_frame_id=79}
  %mul.3700 = f32[768]{0} multiply(%reduce_sum.3399, %broadcast.177), metadata={op_name="jit(train_step)/mul" stack_frame_id=165}
  %opt_state_0__mu__patch_embed____bias__.1 = f32[768]{0} parameter(358), metadata={op_name="opt_state[0].mu[\'patch_embed\'][\'bias\']"}
  %mul.3701 = f32[768]{0} multiply(%opt_state_0__mu__patch_embed____bias__.1, %broadcast.176), metadata={op_name="jit(train_step)/mul" stack_frame_id=166}
  %add.2214 = f32[768]{0} add(%mul.3700, %mul.3701), metadata={op_name="jit(train_step)/add" stack_frame_id=165}
  %div.1826 = f32[768]{0} broadcast(%sub.376), dimensions={}, metadata={op_name="jit(train_step)/div" stack_frame_id=171}
  %div.1827 = f32[768]{0} divide(%add.2214, %div.1826), metadata={op_name="jit(train_step)/div" stack_frame_id=171}
  %integer_pow.431 = f32[768]{0} multiply(%reduce_sum.3399, %reduce_sum.3399), metadata={op_name="jit(train_step)/integer_pow" stack_frame_id=175}
  %mul.4060 = f32[768]{0} multiply(%integer_pow.431, %broadcast.155), metadata={op_name="jit(train_step)/mul" stack_frame_id=176}
  %opt_state_0__nu__patch_embed____bias__.1 = f32[768]{0} parameter(538), metadata={op_name="opt_state[0].nu[\'patch_embed\'][\'bias\']"}
  %mul.4061 = f32[768]{0} multiply(%opt_state_0__nu__patch_embed____bias__.1, %broadcast.154), metadata={op_name="jit(train_step)/mul" stack_frame_id=177}
  %add.2394 = f32[768]{0} add(%mul.4060, %mul.4061), metadata={op_name="jit(train_step)/add" stack_frame_id=176}
  %div.2186 = f32[768]{0} broadcast(%sub.377), dimensions={}, metadata={op_name="jit(train_step)/div" stack_frame_id=178}
  %div.2187 = f32[768]{0} divide(%add.2394, %div.2186), metadata={op_name="jit(train_step)/div" stack_frame_id=178}
  %sqrt.357 = f32[768]{0} sqrt(%div.2187), metadata={op_name="jit(train_step)/sqrt" stack_frame_id=180}
  %add.2575 = f32[768]{0} add(%sqrt.357, %broadcast.134), metadata={op_name="jit(train_step)/add" stack_frame_id=180}
  %div.2369 = f32[768]{0} divide(%div.1827, %add.2575), metadata={op_name="jit(train_step)/div" stack_frame_id=181}
  %mul.4243 = f32[768]{0} multiply(%params__patch_embed____bias__.1, %broadcast.123), metadata={op_name="jit(train_step)/mul" stack_frame_id=183}
  %add.2755 = f32[768]{0} add(%div.2369, %mul.4243), metadata={op_name="jit(train_step)/add" stack_frame_id=184}
  %mul.4423 = f32[768]{0} multiply(%add.2755, %broadcast.112), metadata={op_name="jit(train_step)/mul" stack_frame_id=186}
  %add.2935 = f32[768]{0} add(%params__patch_embed____bias__.1, %mul.4423), metadata={op_name="jit(train_step)/add" stack_frame_id=189}
  %conv_general_dilated.3 = f32[2,2,4,768]{3,2,1,0} convolution(%transpose.151, %reshape.463), window={size=16x16 rhs_dilate=2x2}, dim_labels=f01b_i01o->01bf, metadata={op_name="jit(train_step)/transpose(jvp(DiT))/patch_embed/conv_general_dilated" stack_frame_id=81}
  %constant.251 = f32[] constant(0.1)
  %mul.2245 = f32[2,2,4,768]{3,2,1,0} broadcast(%constant.251), dimensions={}, metadata={op_name="jit(train_step)/mul" stack_frame_id=165}
  %mul.3702 = f32[2,2,4,768]{3,2,1,0} multiply(%conv_general_dilated.3, %mul.2245), metadata={op_name="jit(train_step)/mul" stack_frame_id=165}
  %opt_state_0__mu__patch_embed____kernel__.1 = f32[2,2,4,768]{3,2,1,0} parameter(359), metadata={op_name="opt_state[0].mu[\'patch_embed\'][\'kernel\']"}
  %constant.250 = f32[] constant(0.9)
  %mul.2244 = f32[2,2,4,768]{3,2,1,0} broadcast(%constant.250), dimensions={}, metadata={op_name="jit(train_step)/mul" stack_frame_id=166}
  %mul.3703 = f32[2,2,4,768]{3,2,1,0} multiply(%opt_state_0__mu__patch_embed____kernel__.1, %mul.2244), metadata={op_name="jit(train_step)/mul" stack_frame_id=166}
  %add.2215 = f32[2,2,4,768]{3,2,1,0} add(%mul.3702, %mul.3703), metadata={op_name="jit(train_step)/add" stack_frame_id=165}
  %div.1828 = f32[2,2,4,768]{3,2,1,0} broadcast(%sub.376), dimensions={}, metadata={op_name="jit(train_step)/div" stack_frame_id=171}
  %div.1829 = f32[2,2,4,768]{3,2,1,0} divide(%add.2215, %div.1828), metadata={op_name="jit(train_step)/div" stack_frame_id=171}
  %integer_pow.432 = f32[2,2,4,768]{3,2,1,0} multiply(%conv_general_dilated.3, %conv_general_dilated.3), metadata={op_name="jit(train_step)/integer_pow" stack_frame_id=175}
  %constant.217 = f32[] constant(0.001)
  %mul.2233 = f32[2,2,4,768]{3,2,1,0} broadcast(%constant.217), dimensions={}, metadata={op_name="jit(train_step)/mul" stack_frame_id=176}
  %mul.4062 = f32[2,2,4,768]{3,2,1,0} multiply(%integer_pow.432, %mul.2233), metadata={op_name="jit(train_step)/mul" stack_frame_id=176}
  %opt_state_0__nu__patch_embed____kernel__.1 = f32[2,2,4,768]{3,2,1,0} parameter(539), metadata={op_name="opt_state[0].nu[\'patch_embed\'][\'kernel\']"}
  %constant.216 = f32[] constant(0.999)
  %mul.2232 = f32[2,2,4,768]{3,2,1,0} broadcast(%constant.216), dimensions={}, metadata={op_name="jit(train_step)/mul" stack_frame_id=177}
  %mul.4063 = f32[2,2,4,768]{3,2,1,0} multiply(%opt_state_0__nu__patch_embed____kernel__.1, %mul.2232), metadata={op_name="jit(train_step)/mul" stack_frame_id=177}
  %add.2395 = f32[2,2,4,768]{3,2,1,0} add(%mul.4062, %mul.4063), metadata={op_name="jit(train_step)/add" stack_frame_id=176}
  %div.2188 = f32[2,2,4,768]{3,2,1,0} broadcast(%sub.377), dimensions={}, metadata={op_name="jit(train_step)/div" stack_frame_id=178}
  %div.2189 = f32[2,2,4,768]{3,2,1,0} divide(%add.2395, %div.2188), metadata={op_name="jit(train_step)/div" stack_frame_id=178}
  %sqrt.358 = f32[2,2,4,768]{3,2,1,0} sqrt(%div.2189), metadata={op_name="jit(train_step)/sqrt" stack_frame_id=180}
  %constant.198 = f32[] constant(1e-08)
  %add.1473 = f32[2,2,4,768]{3,2,1,0} broadcast(%constant.198), dimensions={}, metadata={op_name="jit(train_step)/add" stack_frame_id=180}
  %add.2576 = f32[2,2,4,768]{3,2,1,0} add(%sqrt.358, %add.1473), metadata={op_name="jit(train_step)/add" stack_frame_id=180}
  %div.2370 = f32[2,2,4,768]{3,2,1,0} divide(%div.1829, %add.2576), metadata={op_name="jit(train_step)/div" stack_frame_id=181}
  %constant.181 = f32[] constant(0.0001)
  %mul.2225 = f32[2,2,4,768]{3,2,1,0} broadcast(%constant.181), dimensions={}, metadata={op_name="jit(train_step)/mul" stack_frame_id=183}
  %mul.4244 = f32[2,2,4,768]{3,2,1,0} multiply(%params__patch_embed____kernel__.1, %mul.2225), metadata={op_name="jit(train_step)/mul" stack_frame_id=183}
  %add.2756 = f32[2,2,4,768]{3,2,1,0} add(%div.2370, %mul.4244), metadata={op_name="jit(train_step)/add" stack_frame_id=184}
  %constant.164 = f32[] constant(-0.0001)
  %mul.2219 = f32[2,2,4,768]{3,2,1,0} broadcast(%constant.164), dimensions={}, metadata={op_name="jit(train_step)/mul" stack_frame_id=186}
  %mul.4424 = f32[2,2,4,768]{3,2,1,0} multiply(%add.2756, %mul.2219), metadata={op_name="jit(train_step)/mul" stack_frame_id=186}
  %add.2936 = f32[2,2,4,768]{3,2,1,0} add(%params__patch_embed____kernel__.1, %mul.4424), metadata={op_name="jit(train_step)/add" stack_frame_id=189}
  %reduce_sum.3398 = f32[256,768]{1,0} reduce(%add_any.366, %constant.309), dimensions={0}, to_apply=%region_437.443, metadata={op_name="jit(train_step)/transpose(jvp(DiT))/reduce_sum" stack_frame_id=77}
  %reshape.462 = f32[1,256,768]{2,1,0} reshape(%reduce_sum.3398), metadata={op_name="jit(train_step)/transpose(jvp(DiT))/reshape" stack_frame_id=77}
  %constant.249 = f32[] constant(0.1)
  %mul.2243 = f32[1,256,768]{2,1,0} broadcast(%constant.249), dimensions={}, metadata={op_name="jit(train_step)/mul" stack_frame_id=165}
  %mul.3704 = f32[1,256,768]{2,1,0} multiply(%reshape.462, %mul.2243), metadata={op_name="jit(train_step)/mul" stack_frame_id=165}
  %opt_state_0__mu__pos_embed__.1 = f32[1,256,768]{2,1,0} parameter(360), metadata={op_name="opt_state[0].mu[\'pos_embed\']"}
  %constant.248 = f32[] constant(0.9)
  %mul.2242 = f32[1,256,768]{2,1,0} broadcast(%constant.248), dimensions={}, metadata={op_name="jit(train_step)/mul" stack_frame_id=166}
  %mul.3705 = f32[1,256,768]{2,1,0} multiply(%opt_state_0__mu__pos_embed__.1, %mul.2242), metadata={op_name="jit(train_step)/mul" stack_frame_id=166}
  %add.2216 = f32[1,256,768]{2,1,0} add(%mul.3704, %mul.3705), metadata={op_name="jit(train_step)/add" stack_frame_id=165}
  %div.1830 = f32[1,256,768]{2,1,0} broadcast(%sub.376), dimensions={}, metadata={op_name="jit(train_step)/div" stack_frame_id=171}
  %div.1831 = f32[1,256,768]{2,1,0} divide(%add.2216, %div.1830), metadata={op_name="jit(train_step)/div" stack_frame_id=171}
  %integer_pow.433 = f32[1,256,768]{2,1,0} multiply(%reshape.462, %reshape.462), metadata={op_name="jit(train_step)/integer_pow" stack_frame_id=175}
  %constant.215 = f32[] constant(0.001)
  %mul.2231 = f32[1,256,768]{2,1,0} broadcast(%constant.215), dimensions={}, metadata={op_name="jit(train_step)/mul" stack_frame_id=176}
  %mul.4064 = f32[1,256,768]{2,1,0} multiply(%integer_pow.433, %mul.2231), metadata={op_name="jit(train_step)/mul" stack_frame_id=176}
  %opt_state_0__nu__pos_embed__.1 = f32[1,256,768]{2,1,0} parameter(540), metadata={op_name="opt_state[0].nu[\'pos_embed\']"}
  %constant.214 = f32[] constant(0.999)
  %mul.2230 = f32[1,256,768]{2,1,0} broadcast(%constant.214), dimensions={}, metadata={op_name="jit(train_step)/mul" stack_frame_id=177}
  %mul.4065 = f32[1,256,768]{2,1,0} multiply(%opt_state_0__nu__pos_embed__.1, %mul.2230), metadata={op_name="jit(train_step)/mul" stack_frame_id=177}
  %add.2396 = f32[1,256,768]{2,1,0} add(%mul.4064, %mul.4065), metadata={op_name="jit(train_step)/add" stack_frame_id=176}
  %div.2190 = f32[1,256,768]{2,1,0} broadcast(%sub.377), dimensions={}, metadata={op_name="jit(train_step)/div" stack_frame_id=178}
  %div.2191 = f32[1,256,768]{2,1,0} divide(%add.2396, %div.2190), metadata={op_name="jit(train_step)/div" stack_frame_id=178}
  %sqrt.359 = f32[1,256,768]{2,1,0} sqrt(%div.2191), metadata={op_name="jit(train_step)/sqrt" stack_frame_id=180}
  %constant.197 = f32[] constant(1e-08)
  %add.1472 = f32[1,256,768]{2,1,0} broadcast(%constant.197), dimensions={}, metadata={op_name="jit(train_step)/add" stack_frame_id=180}
  %add.2577 = f32[1,256,768]{2,1,0} add(%sqrt.359, %add.1472), metadata={op_name="jit(train_step)/add" stack_frame_id=180}
  %div.2371 = f32[1,256,768]{2,1,0} divide(%div.1831, %add.2577), metadata={op_name="jit(train_step)/div" stack_frame_id=181}
  %constant.180 = f32[] constant(0.0001)
  %mul.2224 = f32[1,256,768]{2,1,0} broadcast(%constant.180), dimensions={}, metadata={op_name="jit(train_step)/mul" stack_frame_id=183}
  %mul.4245 = f32[1,256,768]{2,1,0} multiply(%params__pos_embed__.1, %mul.2224), metadata={op_name="jit(train_step)/mul" stack_frame_id=183}
  %add.2757 = f32[1,256,768]{2,1,0} add(%div.2371, %mul.4245), metadata={op_name="jit(train_step)/add" stack_frame_id=184}
  %constant.163 = f32[] constant(-0.0001)
  %mul.2218 = f32[1,256,768]{2,1,0} broadcast(%constant.163), dimensions={}, metadata={op_name="jit(train_step)/mul" stack_frame_id=186}
  %mul.4425 = f32[1,256,768]{2,1,0} multiply(%add.2757, %mul.2218), metadata={op_name="jit(train_step)/mul" stack_frame_id=186}
  %add.2937 = f32[1,256,768]{2,1,0} add(%params__pos_embed__.1, %mul.4425), metadata={op_name="jit(train_step)/add" stack_frame_id=189}
  %integer_pow.253 = f32[8,4,32,32]{3,2,1,0} multiply(%sub.375, %sub.375), metadata={op_name="jit(train_step)/jvp()/integer_pow" stack_frame_id=159}
  %reduce_sum.3037 = f32[] reduce(%integer_pow.253, %constant.309), dimensions={0,1,2,3}, to_apply=%region_75.79, metadata={op_name="jit(train_step)/jvp()/reduce_sum" stack_frame_id=24}
  %constant.306 = f32[] constant(32768)
  %div.1361 = f32[] divide(%reduce_sum.3037, %constant.306), metadata={op_name="jit(train_step)/jvp()/div" stack_frame_id=24}
  ROOT %tuple.5 = (f32[1536]{0}, f32[768,1536]{1,0}, f32[16]{0}, f32[768,16]{1,0}, f32[1001,768]{1,0}, /*index=5*/f32[768]{0}, f32[768,768]{1,0}, f32[768]{0}, f32[768,768]{1,0}, f32[4608]{0}, /*index=10*/f32[768,4608]{1,0}, f32[3072]{0}, f32[768,3072]{1,0}, f32[768]{0}, f32[3072,768]{1,0}, /*index=15*/f32[12,64]{1,0}, f32[768,12,64]{2,1,0}, f32[768]{0}, f32[12,64,768]{2,1,0}, f32[12,64]{1,0}, /*index=20*/f32[768,12,64]{2,1,0}, f32[12,64]{1,0}, f32[768,12,64]{2,1,0}, f32[4608]{0}, f32[768,4608]{1,0}, /*index=25*/f32[3072]{0}, f32[768,3072]{1,0}, f32[768]{0}, f32[3072,768]{1,0}, f32[12,64]{1,0}, /*index=30*/f32[768,12,64]{2,1,0}, f32[768]{0}, f32[12,64,768]{2,1,0}, f32[12,64]{1,0}, f32[768,12,64]{2,1,0}, /*index=35*/f32[12,64]{1,0}, f32[768,12,64]{2,1,0}, f32[4608]{0}, f32[768,4608]{1,0}, f32[3072]{0}, /*index=40*/f32[768,3072]{1,0}, f32[768]{0}, f32[3072,768]{1,0}, f32[12,64]{1,0}, f32[768,12,64]{2,1,0}, /*index=45*/f32[768]{0}, f32[12,64,768]{2,1,0}, f32[12,64]{1,0}, f32[768,12,64]{2,1,0}, f32[12,64]{1,0}, /*index=50*/f32[768,12,64]{2,1,0}, f32[4608]{0}, f32[768,4608]{1,0}, f32[3072]{0}, f32[768,3072]{1,0}, /*index=55*/f32[768]{0}, f32[3072,768]{1,0}, f32[12,64]{1,0}, f32[768,12,64]{2,1,0}, f32[768]{0}, /*index=60*/f32[12,64,768]{2,1,0}, f32[12,64]{1,0}, f32[768,12,64]{2,1,0}, f32[12,64]{1,0}, f32[768,12,64]{2,1,0}, /*index=65*/f32[4608]{0}, f32[768,4608]{1,0}, f32[3072]{0}, f32[768,3072]{1,0}, f32[768]{0}, /*index=70*/f32[3072,768]{1,0}, f32[12,64]{1,0}, f32[768,12,64]{2,1,0}, f32[768]{0}, f32[12,64,768]{2,1,0}, /*index=75*/f32[12,64]{1,0}, f32[768,12,64]{2,1,0}, f32[12,64]{1,0}, f32[768,12,64]{2,1,0}, f32[4608]{0}, /*index=80*/f32[768,4608]{1,0}, f32[3072]{0}, f32[768,3072]{1,0}, f32[768]{0}, f32[3072,768]{1,0}, /*index=85*/f32[12,64]{1,0}, f32[768,12,64]{2,1,0}, f32[768]{0}, f32[12,64,768]{2,1,0}, f32[12,64]{1,0}, /*index=90*/f32[768,12,64]{2,1,0}, f32[12,64]{1,0}, f32[768,12,64]{2,1,0}, f32[4608]{0}, f32[768,4608]{1,0}, /*index=95*/f32[3072]{0}, f32[768,3072]{1,0}, f32[768]{0}, f32[3072,768]{1,0}, f32[12,64]{1,0}, /*index=100*/f32[768,12,64]{2,1,0}, f32[768]{0}, f32[12,64,768]{2,1,0}, f32[12,64]{1,0}, f32[768,12,64]{2,1,0}, /*index=105*/f32[12,64]{1,0}, f32[768,12,64]{2,1,0}, f32[4608]{0}, f32[768,4608]{1,0}, f32[3072]{0}, /*index=110*/f32[768,3072]{1,0}, f32[768]{0}, f32[3072,768]{1,0}, f32[12,64]{1,0}, f32[768,12,64]{2,1,0}, /*index=115*/f32[768]{0}, f32[12,64,768]{2,1,0}, f32[12,64]{1,0}, f32[768,12,64]{2,1,0}, f32[12,64]{1,0}, /*index=120*/f32[768,12,64]{2,1,0}, f32[4608]{0}, f32[768,4608]{1,0}, f32[3072]{0}, f32[768,3072]{1,0}, /*index=125*/f32[768]{0}, f32[3072,768]{1,0}, f32[12,64]{1,0}, f32[768,12,64]{2,1,0}, f32[768]{0}, /*index=130*/f32[12,64,768]{2,1,0}, f32[12,64]{1,0}, f32[768,12,64]{2,1,0}, f32[12,64]{1,0}, f32[768,12,64]{2,1,0}, /*index=135*/f32[4608]{0}, f32[768,4608]{1,0}, f32[3072]{0}, f32[768,3072]{1,0}, f32[768]{0}, /*index=140*/f32[3072,768]{1,0}, f32[12,64]{1,0}, f32[768,12,64]{2,1,0}, f32[768]{0}, f32[12,64,768]{2,1,0}, /*index=145*/f32[12,64]{1,0}, f32[768,12,64]{2,1,0}, f32[12,64]{1,0}, f32[768,12,64]{2,1,0}, f32[4608]{0}, /*index=150*/f32[768,4608]{1,0}, f32[3072]{0}, f32[768,3072]{1,0}, f32[768]{0}, f32[3072,768]{1,0}, /*index=155*/f32[12,64]{1,0}, f32[768,12,64]{2,1,0}, f32[768]{0}, f32[12,64,768]{2,1,0}, f32[12,64]{1,0}, /*index=160*/f32[768,12,64]{2,1,0}, f32[12,64]{1,0}, f32[768,12,64]{2,1,0}, f32[4608]{0}, f32[768,4608]{1,0}, /*index=165*/f32[3072]{0}, f32[768,3072]{1,0}, f32[768]{0}, f32[3072,768]{1,0}, f32[12,64]{1,0}, /*index=170*/f32[768,12,64]{2,1,0}, f32[768]{0}, f32[12,64,768]{2,1,0}, f32[12,64]{1,0}, f32[768,12,64]{2,1,0}, /*index=175*/f32[12,64]{1,0}, f32[768,12,64]{2,1,0}, f32[768]{0}, f32[2,2,4,768]{3,2,1,0}, f32[1,256,768]{2,1,0}, /*index=180*/s32[], f32[1536]{0}, f32[768,1536]{0,1}, f32[16]{0}, f32[768,16]{0,1}, /*index=185*/f32[1001,768]{1,0}, f32[768]{0}, f32[768,768]{0,1}, f32[768]{0}, f32[768,768]{0,1}, /*index=190*/f32[4608]{0}, f32[768,4608]{0,1}, f32[3072]{0}, f32[768,3072]{0,1}, f32[768]{0}, /*index=195*/f32[3072,768]{0,1}, f32[12,64]{1,0}, f32[768,12,64]{0,2,1}, f32[768]{0}, f32[12,64,768]{1,0,2}, /*index=200*/f32[12,64]{1,0}, f32[768,12,64]{0,2,1}, f32[12,64]{1,0}, f32[768,12,64]{0,2,1}, f32[4608]{0}, /*index=205*/f32[768,4608]{0,1}, f32[3072]{0}, f32[768,3072]{0,1}, f32[768]{0}, f32[3072,768]{0,1}, /*index=210*/f32[12,64]{1,0}, f32[768,12,64]{0,2,1}, f32[768]{0}, f32[12,64,768]{1,0,2}, f32[12,64]{1,0}, /*index=215*/f32[768,12,64]{0,2,1}, f32[12,64]{1,0}, f32[768,12,64]{0,2,1}, f32[4608]{0}, f32[768,4608]{0,1}, /*index=220*/f32[3072]{0}, f32[768,3072]{0,1}, f32[768]{0}, f32[3072,768]{0,1}, f32[12,64]{1,0}, /*index=225*/f32[768,12,64]{0,2,1}, f32[768]{0}, f32[12,64,768]{1,0,2}, f32[12,64]{1,0}, f32[768,12,64]{0,2,1}, /*index=230*/f32[12,64]{1,0}, f32[768,12,64]{0,2,1}, f32[4608]{0}, f32[768,4608]{0,1}, f32[3072]{0}, /*index=235*/f32[768,3072]{0,1}, f32[768]{0}, f32[3072,768]{0,1}, f32[12,64]{1,0}, f32[768,12,64]{0,2,1}, /*index=240*/f32[768]{0}, f32[12,64,768]{1,0,2}, f32[12,64]{1,0}, f32[768,12,64]{0,2,1}, f32[12,64]{1,0}, /*index=245*/f32[768,12,64]{0,2,1}, f32[4608]{0}, f32[768,4608]{0,1}, f32[3072]{0}, f32[768,3072]{0,1}, /*index=250*/f32[768]{0}, f32[3072,768]{0,1}, f32[12,64]{1,0}, f32[768,12,64]{0,2,1}, f32[768]{0}, /*index=255*/f32[12,64,768]{1,0,2}, f32[12,64]{1,0}, f32[768,12,64]{0,2,1}, f32[12,64]{1,0}, f32[768,12,64]{0,2,1}, /*index=260*/f32[4608]{0}, f32[768,4608]{0,1}, f32[3072]{0}, f32[768,3072]{0,1}, f32[768]{0}, /*index=265*/f32[3072,768]{0,1}, f32[12,64]{1,0}, f32[768,12,64]{0,2,1}, f32[768]{0}, f32[12,64,768]{1,0,2}, /*index=270*/f32[12,64]{1,0}, f32[768,12,64]{0,2,1}, f32[12,64]{1,0}, f32[768,12,64]{0,2,1}, f32[4608]{0}, /*index=275*/f32[768,4608]{0,1}, f32[3072]{0}, f32[768,3072]{0,1}, f32[768]{0}, f32[3072,768]{0,1}, /*index=280*/f32[12,64]{1,0}, f32[768,12,64]{0,2,1}, f32[768]{0}, f32[12,64,768]{1,0,2}, f32[12,64]{1,0}, /*index=285*/f32[768,12,64]{0,2,1}, f32[12,64]{1,0}, f32[768,12,64]{0,2,1}, f32[4608]{0}, f32[768,4608]{0,1}, /*index=290*/f32[3072]{0}, f32[768,3072]{0,1}, f32[768]{0}, f32[3072,768]{0,1}, f32[12,64]{1,0}, /*index=295*/f32[768,12,64]{0,2,1}, f32[768]{0}, f32[12,64,768]{1,0,2}, f32[12,64]{1,0}, f32[768,12,64]{0,2,1}, /*index=300*/f32[12,64]{1,0}, f32[768,12,64]{0,2,1}, f32[4608]{0}, f32[768,4608]{0,1}, f32[3072]{0}, /*index=305*/f32[768,3072]{0,1}, f32[768]{0}, f32[3072,768]{0,1}, f32[12,64]{1,0}, f32[768,12,64]{0,2,1}, /*index=310*/f32[768]{0}, f32[12,64,768]{1,0,2}, f32[12,64]{1,0}, f32[768,12,64]{0,2,1}, f32[12,64]{1,0}, /*index=315*/f32[768,12,64]{0,2,1}, f32[4608]{0}, f32[768,4608]{0,1}, f32[3072]{0}, f32[768,3072]{0,1}, /*index=320*/f32[768]{0}, f32[3072,768]{0,1}, f32[12,64]{1,0}, f32[768,12,64]{0,2,1}, f32[768]{0}, /*index=325*/f32[12,64,768]{1,0,2}, f32[12,64]{1,0}, f32[768,12,64]{0,2,1}, f32[12,64]{1,0}, f32[768,12,64]{0,2,1}, /*index=330*/f32[4608]{0}, f32[768,4608]{0,1}, f32[3072]{0}, f32[768,3072]{0,1}, f32[768]{0}, /*index=335*/f32[3072,768]{0,1}, f32[12,64]{1,0}, f32[768,12,64]{0,2,1}, f32[768]{0}, f32[12,64,768]{1,0,2}, /*index=340*/f32[12,64]{1,0}, f32[768,12,64]{0,2,1}, f32[12,64]{1,0}, f32[768,12,64]{0,2,1}, f32[4608]{0}, /*index=345*/f32[768,4608]{0,1}, f32[3072]{0}, f32[768,3072]{0,1}, f32[768]{0}, f32[3072,768]{0,1}, /*index=350*/f32[12,64]{1,0}, f32[768,12,64]{0,2,1}, f32[768]{0}, f32[12,64,768]{1,0,2}, f32[12,64]{1,0}, /*index=355*/f32[768,12,64]{0,2,1}, f32[12,64]{1,0}, f32[768,12,64]{0,2,1}, f32[768]{0}, f32[2,2,4,768]{3,2,1,0}, /*index=360*/f32[1,256,768]{2,1,0}, f32[1536]{0}, f32[768,1536]{0,1}, f32[16]{0}, f32[768,16]{0,1}, /*index=365*/f32[1001,768]{1,0}, f32[768]{0}, f32[768,768]{0,1}, f32[768]{0}, f32[768,768]{0,1}, /*index=370*/f32[4608]{0}, f32[768,4608]{0,1}, f32[3072]{0}, f32[768,3072]{0,1}, f32[768]{0}, /*index=375*/f32[3072,768]{0,1}, f32[12,64]{1,0}, f32[768,12,64]{0,2,1}, f32[768]{0}, f32[12,64,768]{1,0,2}, /*index=380*/f32[12,64]{1,0}, f32[768,12,64]{0,2,1}, f32[12,64]{1,0}, f32[768,12,64]{0,2,1}, f32[4608]{0}, /*index=385*/f32[768,4608]{0,1}, f32[3072]{0}, f32[768,3072]{0,1}, f32[768]{0}, f32[3072,768]{0,1}, /*index=390*/f32[12,64]{1,0}, f32[768,12,64]{0,2,1}, f32[768]{0}, f32[12,64,768]{1,0,2}, f32[12,64]{1,0}, /*index=395*/f32[768,12,64]{0,2,1}, f32[12,64]{1,0}, f32[768,12,64]{0,2,1}, f32[4608]{0}, f32[768,4608]{0,1}, /*index=400*/f32[3072]{0}, f32[768,3072]{0,1}, f32[768]{0}, f32[3072,768]{0,1}, f32[12,64]{1,0}, /*index=405*/f32[768,12,64]{0,2,1}, f32[768]{0}, f32[12,64,768]{1,0,2}, f32[12,64]{1,0}, f32[768,12,64]{0,2,1}, /*index=410*/f32[12,64]{1,0}, f32[768,12,64]{0,2,1}, f32[4608]{0}, f32[768,4608]{0,1}, f32[3072]{0}, /*index=415*/f32[768,3072]{0,1}, f32[768]{0}, f32[3072,768]{0,1}, f32[12,64]{1,0}, f32[768,12,64]{0,2,1}, /*index=420*/f32[768]{0}, f32[12,64,768]{1,0,2}, f32[12,64]{1,0}, f32[768,12,64]{0,2,1}, f32[12,64]{1,0}, /*index=425*/f32[768,12,64]{0,2,1}, f32[4608]{0}, f32[768,4608]{0,1}, f32[3072]{0}, f32[768,3072]{0,1}, /*index=430*/f32[768]{0}, f32[3072,768]{0,1}, f32[12,64]{1,0}, f32[768,12,64]{0,2,1}, f32[768]{0}, /*index=435*/f32[12,64,768]{1,0,2}, f32[12,64]{1,0}, f32[768,12,64]{0,2,1}, f32[12,64]{1,0}, f32[768,12,64]{0,2,1}, /*index=440*/f32[4608]{0}, f32[768,4608]{0,1}, f32[3072]{0}, f32[768,3072]{0,1}, f32[768]{0}, /*index=445*/f32[3072,768]{0,1}, f32[12,64]{1,0}, f32[768,12,64]{0,2,1}, f32[768]{0}, f32[12,64,768]{1,0,2}, /*index=450*/f32[12,64]{1,0}, f32[768,12,64]{0,2,1}, f32[12,64]{1,0}, f32[768,12,64]{0,2,1}, f32[4608]{0}, /*index=455*/f32[768,4608]{0,1}, f32[3072]{0}, f32[768,3072]{0,1}, f32[768]{0}, f32[3072,768]{0,1}, /*index=460*/f32[12,64]{1,0}, f32[768,12,64]{0,2,1}, f32[768]{0}, f32[12,64,768]{1,0,2}, f32[12,64]{1,0}, /*index=465*/f32[768,12,64]{0,2,1}, f32[12,64]{1,0}, f32[768,12,64]{0,2,1}, f32[4608]{0}, f32[768,4608]{0,1}, /*index=470*/f32[3072]{0}, f32[768,3072]{0,1}, f32[768]{0}, f32[3072,768]{0,1}, f32[12,64]{1,0}, /*index=475*/f32[768,12,64]{0,2,1}, f32[768]{0}, f32[12,64,768]{1,0,2}, f32[12,64]{1,0}, f32[768,12,64]{0,2,1}, /*index=480*/f32[12,64]{1,0}, f32[768,12,64]{0,2,1}, f32[4608]{0}, f32[768,4608]{0,1}, f32[3072]{0}, /*index=485*/f32[768,3072]{0,1}, f32[768]{0}, f32[3072,768]{0,1}, f32[12,64]{1,0}, f32[768,12,64]{0,2,1}, /*index=490*/f32[768]{0}, f32[12,64,768]{1,0,2}, f32[12,64]{1,0}, f32[768,12,64]{0,2,1}, f32[12,64]{1,0}, /*index=495*/f32[768,12,64]{0,2,1}, f32[4608]{0}, f32[768,4608]{0,1}, f32[3072]{0}, f32[768,3072]{0,1}, /*index=500*/f32[768]{0}, f32[3072,768]{0,1}, f32[12,64]{1,0}, f32[768,12,64]{0,2,1}, f32[768]{0}, /*index=505*/f32[12,64,768]{1,0,2}, f32[12,64]{1,0}, f32[768,12,64]{0,2,1}, f32[12,64]{1,0}, f32[768,12,64]{0,2,1}, /*index=510*/f32[4608]{0}, f32[768,4608]{0,1}, f32[3072]{0}, f32[768,3072]{0,1}, f32[768]{0}, /*index=515*/f32[3072,768]{0,1}, f32[12,64]{1,0}, f32[768,12,64]{0,2,1}, f32[768]{0}, f32[12,64,768]{1,0,2}, /*index=520*/f32[12,64]{1,0}, f32[768,12,64]{0,2,1}, f32[12,64]{1,0}, f32[768,12,64]{0,2,1}, f32[4608]{0}, /*index=525*/f32[768,4608]{0,1}, f32[3072]{0}, f32[768,3072]{0,1}, f32[768]{0}, f32[3072,768]{0,1}, /*index=530*/f32[12,64]{1,0}, f32[768,12,64]{0,2,1}, f32[768]{0}, f32[12,64,768]{1,0,2}, f32[12,64]{1,0}, /*index=535*/f32[768,12,64]{0,2,1}, f32[12,64]{1,0}, f32[768,12,64]{0,2,1}, f32[768]{0}, f32[2,2,4,768]{3,2,1,0}, /*index=540*/f32[1,256,768]{2,1,0}, f32[]) tuple(%add.2758, %add.2759, %add.2760, %add.2761, %add.2762, /*index=5*/%add.2763, %add.2764, %add.2765, %add.2766, %add.2767, /*index=10*/%add.2768, %add.2769, %add.2770, %add.2771, %add.2772, /*index=15*/%add.2773, %add.2774, %add.2775, %add.2776, %add.2777, /*index=20*/%add.2778, %add.2779, %add.2780, %add.2781, %add.2782, /*index=25*/%add.2783, %add.2784, %add.2785, %add.2786, %add.2787, /*index=30*/%add.2788, %add.2789, %add.2790, %add.2791, %add.2792, /*index=35*/%add.2793, %add.2794, %add.2795, %add.2796, %add.2797, /*index=40*/%add.2798, %add.2799, %add.2800, %add.2801, %add.2802, /*index=45*/%add.2803, %add.2804, %add.2805, %add.2806, %add.2807, /*index=50*/%add.2808, %add.2809, %add.2810, %add.2811, %add.2812, /*index=55*/%add.2813, %add.2814, %add.2815, %add.2816, %add.2817, /*index=60*/%add.2818, %add.2819, %add.2820, %add.2821, %add.2822, /*index=65*/%add.2823, %add.2824, %add.2825, %add.2826, %add.2827, /*index=70*/%add.2828, %add.2829, %add.2830, %add.2831, %add.2832, /*index=75*/%add.2833, %add.2834, %add.2835, %add.2836, %add.2837, /*index=80*/%add.2838, %add.2839, %add.2840, %add.2841, %add.2842, /*index=85*/%add.2843, %add.2844, %add.2845, %add.2846, %add.2847, /*index=90*/%add.2848, %add.2849, %add.2850, %add.2851, %add.2852, /*index=95*/%add.2853, %add.2854, %add.2855, %add.2856, %add.2857, /*index=100*/%add.2858, %add.2859, %add.2860, %add.2861, %add.2862, /*index=105*/%add.2863, %add.2864, %add.2865, %add.2866, %add.2867, /*index=110*/%add.2868, %add.2869, %add.2870, %add.2871, %add.2872, /*index=115*/%add.2873, %add.2874, %add.2875, %add.2876, %add.2877, /*index=120*/%add.2878, %add.2879, %add.2880, %add.2881, %add.2882, /*index=125*/%add.2883, %add.2884, %add.2885, %add.2886, %add.2887, /*index=130*/%add.2888, %add.2889, %add.2890, %add.2891, %add.2892, /*index=135*/%add.2893, %add.2894, %add.2895, %add.2896, %add.2897, /*index=140*/%add.2898, %add.2899, %add.2900, %add.2901, %add.2902, /*index=145*/%add.2903, %add.2904, %add.2905, %add.2906, %add.2907, /*index=150*/%add.2908, %add.2909, %add.2910, %add.2911, %add.2912, /*index=155*/%add.2913, %add.2914, %add.2915, %add.2916, %add.2917, /*index=160*/%add.2918, %add.2919, %add.2920, %add.2921, %add.2922, /*index=165*/%add.2923, %add.2924, %add.2925, %add.2926, %add.2927, /*index=170*/%add.2928, %add.2929, %add.2930, %add.2931, %add.2932, /*index=175*/%add.2933, %add.2934, %add.2935, %add.2936, %add.2937, /*index=180*/%jit__where_.3, %add.2037, %add.2038, %add.2039, %add.2040, /*index=185*/%add.2041, %add.2042, %add.2043, %add.2044, %add.2045, /*index=190*/%add.2046, %add.2047, %add.2048, %add.2049, %add.2050, /*index=195*/%add.2051, %add.2052, %add.2053, %add.2054, %add.2055, /*index=200*/%add.2056, %add.2057, %add.2058, %add.2059, %add.2060, /*index=205*/%add.2061, %add.2062, %add.2063, %add.2064, %add.2065, /*index=210*/%add.2066, %add.2067, %add.2068, %add.2069, %add.2070, /*index=215*/%add.2071, %add.2072, %add.2073, %add.2074, %add.2075, /*index=220*/%add.2076, %add.2077, %add.2078, %add.2079, %add.2080, /*index=225*/%add.2081, %add.2082, %add.2083, %add.2084, %add.2085, /*index=230*/%add.2086, %add.2087, %add.2088, %add.2089, %add.2090, /*index=235*/%add.2091, %add.2092, %add.2093, %add.2094, %add.2095, /*index=240*/%add.2096, %add.2097, %add.2098, %add.2099, %add.2100, /*index=245*/%add.2101, %add.2102, %add.2103, %add.2104, %add.2105, /*index=250*/%add.2106, %add.2107, %add.2108, %add.2109, %add.2110, /*index=255*/%add.2111, %add.2112, %add.2113, %add.2114, %add.2115, /*index=260*/%add.2116, %add.2117, %add.2118, %add.2119, %add.2120, /*index=265*/%add.2121, %add.2122, %add.2123, %add.2124, %add.2125, /*index=270*/%add.2126, %add.2127, %add.2128, %add.2129, %add.2130, /*index=275*/%add.2131, %add.2132, %add.2133, %add.2134, %add.2135, /*index=280*/%add.2136, %add.2137, %add.2138, %add.2139, %add.2140, /*index=285*/%add.2141, %add.2142, %add.2143, %add.2144, %add.2145, /*index=290*/%add.2146, %add.2147, %add.2148, %add.2149, %add.2150, /*index=295*/%add.2151, %add.2152, %add.2153, %add.2154, %add.2155, /*index=300*/%add.2156, %add.2157, %add.2158, %add.2159, %add.2160, /*index=305*/%add.2161, %add.2162, %add.2163, %add.2164, %add.2165, /*index=310*/%add.2166, %add.2167, %add.2168, %add.2169, %add.2170, /*index=315*/%add.2171, %add.2172, %add.2173, %add.2174, %add.2175, /*index=320*/%add.2176, %add.2177, %add.2178, %add.2179, %add.2180, /*index=325*/%add.2181, %add.2182, %add.2183, %add.2184, %add.2185, /*index=330*/%add.2186, %add.2187, %add.2188, %add.2189, %add.2190, /*index=335*/%add.2191, %add.2192, %add.2193, %add.2194, %add.2195, /*index=340*/%add.2196, %add.2197, %add.2198, %add.2199, %add.2200, /*index=345*/%add.2201, %add.2202, %add.2203, %add.2204, %add.2205, /*index=350*/%add.2206, %add.2207, %add.2208, %add.2209, %add.2210, /*index=355*/%add.2211, %add.2212, %add.2213, %add.2214, %add.2215, /*index=360*/%add.2216, %add.2217, %add.2218, %add.2219, %add.2220, /*index=365*/%add.2221, %add.2222, %add.2223, %add.2224, %add.2225, /*index=370*/%add.2226, %add.2227, %add.2228, %add.2229, %add.2230, /*index=375*/%add.2231, %add.2232, %add.2233, %add.2234, %add.2235, /*index=380*/%add.2236, %add.2237, %add.2238, %add.2239, %add.2240, /*index=385*/%add.2241, %add.2242, %add.2243, %add.2244, %add.2245, /*index=390*/%add.2246, %add.2247, %add.2248, %add.2249, %add.2250, /*index=395*/%add.2251, %add.2252, %add.2253, %add.2254, %add.2255, /*index=400*/%add.2256, %add.2257, %add.2258, %add.2259, %add.2260, /*index=405*/%add.2261, %add.2262, %add.2263, %add.2264, %add.2265, /*index=410*/%add.2266, %add.2267, %add.2268, %add.2269, %add.2270, /*index=415*/%add.2271, %add.2272, %add.2273, %add.2274, %add.2275, /*index=420*/%add.2276, %add.2277, %add.2278, %add.2279, %add.2280, /*index=425*/%add.2281, %add.2282, %add.2283, %add.2284, %add.2285, /*index=430*/%add.2286, %add.2287, %add.2288, %add.2289, %add.2290, /*index=435*/%add.2291, %add.2292, %add.2293, %add.2294, %add.2295, /*index=440*/%add.2296, %add.2297, %add.2298, %add.2299, %add.2300, /*index=445*/%add.2301, %add.2302, %add.2303, %add.2304, %add.2305, /*index=450*/%add.2306, %add.2307, %add.2308, %add.2309, %add.2310, /*index=455*/%add.2311, %add.2312, %add.2313, %add.2314, %add.2315, /*index=460*/%add.2316, %add.2317, %add.2318, %add.2319, %add.2320, /*index=465*/%add.2321, %add.2322, %add.2323, %add.2324, %add.2325, /*index=470*/%add.2326, %add.2327, %add.2328, %add.2329, %add.2330, /*index=475*/%add.2331, %add.2332, %add.2333, %add.2334, %add.2335, /*index=480*/%add.2336, %add.2337, %add.2338, %add.2339, %add.2340, /*index=485*/%add.2341, %add.2342, %add.2343, %add.2344, %add.2345, /*index=490*/%add.2346, %add.2347, %add.2348, %add.2349, %add.2350, /*index=495*/%add.2351, %add.2352, %add.2353, %add.2354, %add.2355, /*index=500*/%add.2356, %add.2357, %add.2358, %add.2359, %add.2360, /*index=505*/%add.2361, %add.2362, %add.2363, %add.2364, %add.2365, /*index=510*/%add.2366, %add.2367, %add.2368, %add.2369, %add.2370, /*index=515*/%add.2371, %add.2372, %add.2373, %add.2374, %add.2375, /*index=520*/%add.2376, %add.2377, %add.2378, %add.2379, %add.2380, /*index=525*/%add.2381, %add.2382, %add.2383, %add.2384, %add.2385, /*index=530*/%add.2386, %add.2387, %add.2388, %add.2389, %add.2390, /*index=535*/%add.2391, %add.2392, %add.2393, %add.2394, %add.2395, /*index=540*/%add.2396, %div.1361)
}

