HloModule jit__fun, entry_computation_layout={(s32[1,1,77]{2,1,0}, f32[1,1000]{1,0}, f32[1]{0}, f32[1]{0}, bf16[1,77,768]{2,1,0}, /*index=5*/bf16[1,49408,768]{2,1,0}, bf16[1,768]{1,0}, bf16[1,768]{1,0}, bf16[1,768]{1,0}, bf16[1,768]{1,0}, /*index=10*/bf16[1,3072]{1,0}, bf16[1,768,3072]{2,1,0}, bf16[1,768]{1,0}, bf16[1,3072,768]{2,1,0}, bf16[1,768]{1,0}, /*index=15*/bf16[1,768,768]{2,1,0}, bf16[1,768]{1,0}, bf16[1,768,768]{2,1,0}, bf16[1,768]{1,0}, bf16[1,768,768]{2,1,0}, /*index=20*/bf16[1,768]{1,0}, bf16[1,768,768]{2,1,0}, bf16[1,768]{1,0}, bf16[1,768]{1,0}, bf16[1,768]{1,0}, /*index=25*/bf16[1,768]{1,0}, bf16[1,3072]{1,0}, bf16[1,768,3072]{2,1,0}, bf16[1,768]{1,0}, bf16[1,3072,768]{2,1,0}, /*index=30*/bf16[1,768]{1,0}, bf16[1,768,768]{2,1,0}, bf16[1,768]{1,0}, bf16[1,768,768]{2,1,0}, bf16[1,768]{1,0}, /*index=35*/bf16[1,768,768]{2,1,0}, bf16[1,768]{1,0}, bf16[1,768,768]{2,1,0}, bf16[1,768]{1,0}, bf16[1,768]{1,0}, /*index=40*/bf16[1,768]{1,0}, bf16[1,768]{1,0}, bf16[1,3072]{1,0}, bf16[1,768,3072]{2,1,0}, bf16[1,768]{1,0}, /*index=45*/bf16[1,3072,768]{2,1,0}, bf16[1,768]{1,0}, bf16[1,768,768]{2,1,0}, bf16[1,768]{1,0}, bf16[1,768,768]{2,1,0}, /*index=50*/bf16[1,768]{1,0}, bf16[1,768,768]{2,1,0}, bf16[1,768]{1,0}, bf16[1,768,768]{2,1,0}, bf16[1,768]{1,0}, /*index=55*/bf16[1,768]{1,0}, bf16[1,768]{1,0}, bf16[1,768]{1,0}, bf16[1,3072]{1,0}, bf16[1,768,3072]{2,1,0}, /*index=60*/bf16[1,768]{1,0}, bf16[1,3072,768]{2,1,0}, bf16[1,768]{1,0}, bf16[1,768,768]{2,1,0}, bf16[1,768]{1,0}, /*index=65*/bf16[1,768,768]{2,1,0}, bf16[1,768]{1,0}, bf16[1,768,768]{2,1,0}, bf16[1,768]{1,0}, bf16[1,768,768]{2,1,0}, /*index=70*/bf16[1,768]{1,0}, bf16[1,768]{1,0}, bf16[1,768]{1,0}, bf16[1,768]{1,0}, bf16[1,3072]{1,0}, /*index=75*/bf16[1,768,3072]{2,1,0}, bf16[1,768]{1,0}, bf16[1,3072,768]{2,1,0}, bf16[1,768]{1,0}, bf16[1,768,768]{2,1,0}, /*index=80*/bf16[1,768]{1,0}, bf16[1,768,768]{2,1,0}, bf16[1,768]{1,0}, bf16[1,768,768]{2,1,0}, bf16[1,768]{1,0}, /*index=85*/bf16[1,768,768]{2,1,0}, bf16[1,768]{1,0}, bf16[1,768]{1,0}, bf16[1,768]{1,0}, bf16[1,768]{1,0}, /*index=90*/bf16[1,3072]{1,0}, bf16[1,768,3072]{2,1,0}, bf16[1,768]{1,0}, bf16[1,3072,768]{2,1,0}, bf16[1,768]{1,0}, /*index=95*/bf16[1,768,768]{2,1,0}, bf16[1,768]{1,0}, bf16[1,768,768]{2,1,0}, bf16[1,768]{1,0}, bf16[1,768,768]{2,1,0}, /*index=100*/bf16[1,768]{1,0}, bf16[1,768,768]{2,1,0}, bf16[1,768]{1,0}, bf16[1,768]{1,0}, bf16[1,768]{1,0}, /*index=105*/bf16[1,768]{1,0}, bf16[1,3072]{1,0}, bf16[1,768,3072]{2,1,0}, bf16[1,768]{1,0}, bf16[1,3072,768]{2,1,0}, /*index=110*/bf16[1,768]{1,0}, bf16[1,768,768]{2,1,0}, bf16[1,768]{1,0}, bf16[1,768,768]{2,1,0}, bf16[1,768]{1,0}, /*index=115*/bf16[1,768,768]{2,1,0}, bf16[1,768]{1,0}, bf16[1,768,768]{2,1,0}, bf16[1,768]{1,0}, bf16[1,768]{1,0}, /*index=120*/bf16[1,768]{1,0}, bf16[1,768]{1,0}, bf16[1,3072]{1,0}, bf16[1,768,3072]{2,1,0}, bf16[1,768]{1,0}, /*index=125*/bf16[1,3072,768]{2,1,0}, bf16[1,768]{1,0}, bf16[1,768,768]{2,1,0}, bf16[1,768]{1,0}, bf16[1,768,768]{2,1,0}, /*index=130*/bf16[1,768]{1,0}, bf16[1,768,768]{2,1,0}, bf16[1,768]{1,0}, bf16[1,768,768]{2,1,0}, bf16[1,768]{1,0}, /*index=135*/bf16[1,768]{1,0}, bf16[1,768]{1,0}, bf16[1,768]{1,0}, bf16[1,3072]{1,0}, bf16[1,768,3072]{2,1,0}, /*index=140*/bf16[1,768]{1,0}, bf16[1,3072,768]{2,1,0}, bf16[1,768]{1,0}, bf16[1,768,768]{2,1,0}, bf16[1,768]{1,0}, /*index=145*/bf16[1,768,768]{2,1,0}, bf16[1,768]{1,0}, bf16[1,768,768]{2,1,0}, bf16[1,768]{1,0}, bf16[1,768,768]{2,1,0}, /*index=150*/bf16[1,768]{1,0}, bf16[1,768]{1,0}, bf16[1,768]{1,0}, bf16[1,768]{1,0}, bf16[1,3072]{1,0}, /*index=155*/bf16[1,768,3072]{2,1,0}, bf16[1,768]{1,0}, bf16[1,3072,768]{2,1,0}, bf16[1,768]{1,0}, bf16[1,768,768]{2,1,0}, /*index=160*/bf16[1,768]{1,0}, bf16[1,768,768]{2,1,0}, bf16[1,768]{1,0}, bf16[1,768,768]{2,1,0}, bf16[1,768]{1,0}, /*index=165*/bf16[1,768,768]{2,1,0}, bf16[1,768]{1,0}, bf16[1,768]{1,0}, bf16[1,768]{1,0}, bf16[1,768]{1,0}, /*index=170*/bf16[1,3072]{1,0}, bf16[1,768,3072]{2,1,0}, bf16[1,768]{1,0}, bf16[1,3072,768]{2,1,0}, bf16[1,768]{1,0}, /*index=175*/bf16[1,768,768]{2,1,0}, bf16[1,768]{1,0}, bf16[1,768,768]{2,1,0}, bf16[1,768]{1,0}, bf16[1,768,768]{2,1,0}, /*index=180*/bf16[1,768]{1,0}, bf16[1,768,768]{2,1,0}, bf16[1,768]{1,0}, bf16[1,768]{1,0}, bf16[1,768]{1,0}, /*index=185*/bf16[1,768]{1,0}, bf16[1,3072]{1,0}, bf16[1,768,3072]{2,1,0}, bf16[1,768]{1,0}, bf16[1,3072,768]{2,1,0}, /*index=190*/bf16[1,768]{1,0}, bf16[1,768,768]{2,1,0}, bf16[1,768]{1,0}, bf16[1,768,768]{2,1,0}, bf16[1,768]{1,0}, /*index=195*/bf16[1,768,768]{2,1,0}, bf16[1,768]{1,0}, bf16[1,768,768]{2,1,0}, bf16[1,768]{1,0}, bf16[1,768]{1,0}, /*index=200*/bf16[1,320]{1,0}, bf16[1,3,3,4,320]{4,3,2,1,0}, bf16[1,320]{1,0}, bf16[1,320]{1,0}, bf16[1,4]{1,0}, /*index=205*/bf16[1,3,3,320,4]{4,3,2,1,0}, bf16[1,320]{1,0}, bf16[1,320]{1,0}, bf16[1,320]{1,0}, bf16[1,1,1,320,320]{4,3,2,1,0}, /*index=210*/bf16[1,320]{1,0}, bf16[1,1,1,320,320]{4,3,2,1,0}, bf16[1,320,320]{2,1,0}, bf16[1,320]{1,0}, bf16[1,320,320]{2,1,0}, /*index=215*/bf16[1,320,320]{2,1,0}, bf16[1,320,320]{2,1,0}, bf16[1,768,320]{2,1,0}, bf16[1,320]{1,0}, bf16[1,320,320]{2,1,0}, /*index=220*/bf16[1,320,320]{2,1,0}, bf16[1,768,320]{2,1,0}, bf16[1,2560]{1,0}, bf16[1,320,2560]{2,1,0}, bf16[1,320]{1,0}, /*index=225*/bf16[1,1280,320]{2,1,0}, bf16[1,320]{1,0}, bf16[1,320]{1,0}, bf16[1,320]{1,0}, bf16[1,320]{1,0}, /*index=230*/bf16[1,320]{1,0}, bf16[1,320]{1,0}, bf16[1,320]{1,0}, bf16[1,320]{1,0}, bf16[1,320]{1,0}, /*index=235*/bf16[1,1,1,320,320]{4,3,2,1,0}, bf16[1,320]{1,0}, bf16[1,1,1,320,320]{4,3,2,1,0}, bf16[1,320,320]{2,1,0}, bf16[1,320]{1,0}, /*index=240*/bf16[1,320,320]{2,1,0}, bf16[1,320,320]{2,1,0}, bf16[1,320,320]{2,1,0}, bf16[1,768,320]{2,1,0}, bf16[1,320]{1,0}, /*index=245*/bf16[1,320,320]{2,1,0}, bf16[1,320,320]{2,1,0}, bf16[1,768,320]{2,1,0}, bf16[1,2560]{1,0}, bf16[1,320,2560]{2,1,0}, /*index=250*/bf16[1,320]{1,0}, bf16[1,1280,320]{2,1,0}, bf16[1,320]{1,0}, bf16[1,320]{1,0}, bf16[1,320]{1,0}, /*index=255*/bf16[1,320]{1,0}, bf16[1,320]{1,0}, bf16[1,320]{1,0}, bf16[1,320]{1,0}, bf16[1,3,3,320,320]{4,3,2,1,0}, /*index=260*/bf16[1,320]{1,0}, bf16[1,3,3,320,320]{4,3,2,1,0}, bf16[1,320]{1,0}, bf16[1,3,3,320,320]{4,3,2,1,0}, bf16[1,320]{1,0}, /*index=265*/bf16[1,320]{1,0}, bf16[1,320]{1,0}, bf16[1,320]{1,0}, bf16[1,320]{1,0}, bf16[1,1280,320]{2,1,0}, /*index=270*/bf16[1,320]{1,0}, bf16[1,3,3,320,320]{4,3,2,1,0}, bf16[1,320]{1,0}, bf16[1,3,3,320,320]{4,3,2,1,0}, bf16[1,320]{1,0}, /*index=275*/bf16[1,320]{1,0}, bf16[1,320]{1,0}, bf16[1,320]{1,0}, bf16[1,320]{1,0}, bf16[1,1280,320]{2,1,0}, /*index=280*/bf16[1,640]{1,0}, bf16[1,640]{1,0}, bf16[1,640]{1,0}, bf16[1,1,1,640,640]{4,3,2,1,0}, bf16[1,640]{1,0}, /*index=285*/bf16[1,1,1,640,640]{4,3,2,1,0}, bf16[1,640,640]{2,1,0}, bf16[1,640]{1,0}, bf16[1,640,640]{2,1,0}, bf16[1,640,640]{2,1,0}, /*index=290*/bf16[1,640,640]{2,1,0}, bf16[1,768,640]{2,1,0}, bf16[1,640]{1,0}, bf16[1,640,640]{2,1,0}, bf16[1,640,640]{2,1,0}, /*index=295*/bf16[1,768,640]{2,1,0}, bf16[1,5120]{1,0}, bf16[1,640,5120]{2,1,0}, bf16[1,640]{1,0}, bf16[1,2560,640]{2,1,0}, /*index=300*/bf16[1,640]{1,0}, bf16[1,640]{1,0}, bf16[1,640]{1,0}, bf16[1,640]{1,0}, bf16[1,640]{1,0}, /*index=305*/bf16[1,640]{1,0}, bf16[1,640]{1,0}, bf16[1,640]{1,0}, bf16[1,640]{1,0}, bf16[1,1,1,640,640]{4,3,2,1,0}, /*index=310*/bf16[1,640]{1,0}, bf16[1,1,1,640,640]{4,3,2,1,0}, bf16[1,640,640]{2,1,0}, bf16[1,640]{1,0}, bf16[1,640,640]{2,1,0}, /*index=315*/bf16[1,640,640]{2,1,0}, bf16[1,640,640]{2,1,0}, bf16[1,768,640]{2,1,0}, bf16[1,640]{1,0}, bf16[1,640,640]{2,1,0}, /*index=320*/bf16[1,640,640]{2,1,0}, bf16[1,768,640]{2,1,0}, bf16[1,5120]{1,0}, bf16[1,640,5120]{2,1,0}, bf16[1,640]{1,0}, /*index=325*/bf16[1,2560,640]{2,1,0}, bf16[1,640]{1,0}, bf16[1,640]{1,0}, bf16[1,640]{1,0}, bf16[1,640]{1,0}, /*index=330*/bf16[1,640]{1,0}, bf16[1,640]{1,0}, bf16[1,640]{1,0}, bf16[1,3,3,640,640]{4,3,2,1,0}, bf16[1,640]{1,0}, /*index=335*/bf16[1,3,3,320,640]{4,3,2,1,0}, bf16[1,640]{1,0}, bf16[1,3,3,640,640]{4,3,2,1,0}, bf16[1,640]{1,0}, bf16[1,1,1,320,640]{4,3,2,1,0}, /*index=340*/bf16[1,320]{1,0}, bf16[1,320]{1,0}, bf16[1,640]{1,0}, bf16[1,640]{1,0}, bf16[1,640]{1,0}, /*index=345*/bf16[1,1280,640]{2,1,0}, bf16[1,640]{1,0}, bf16[1,3,3,640,640]{4,3,2,1,0}, bf16[1,640]{1,0}, bf16[1,3,3,640,640]{4,3,2,1,0}, /*index=350*/bf16[1,640]{1,0}, bf16[1,640]{1,0}, bf16[1,640]{1,0}, bf16[1,640]{1,0}, bf16[1,640]{1,0}, /*index=355*/bf16[1,1280,640]{2,1,0}, bf16[1,1280]{1,0}, bf16[1,1280]{1,0}, bf16[1,1280]{1,0}, bf16[1,1,1,1280,1280]{4,3,2,1,0}, /*index=360*/bf16[1,1280]{1,0}, bf16[1,1,1,1280,1280]{4,3,2,1,0}, bf16[1,1280,1280]{2,1,0}, bf16[1,1280]{1,0}, bf16[1,1280,1280]{2,1,0}, /*index=365*/bf16[1,1280,1280]{2,1,0}, bf16[1,1280,1280]{2,1,0}, bf16[1,768,1280]{2,1,0}, bf16[1,1280]{1,0}, bf16[1,1280,1280]{2,1,0}, /*index=370*/bf16[1,1280,1280]{2,1,0}, bf16[1,768,1280]{2,1,0}, bf16[1,10240]{1,0}, bf16[1,1280,10240]{2,1,0}, bf16[1,1280]{1,0}, /*index=375*/bf16[1,5120,1280]{2,1,0}, bf16[1,1280]{1,0}, bf16[1,1280]{1,0}, bf16[1,1280]{1,0}, bf16[1,1280]{1,0}, /*index=380*/bf16[1,1280]{1,0}, bf16[1,1280]{1,0}, bf16[1,1280]{1,0}, bf16[1,1280]{1,0}, bf16[1,1280]{1,0}, /*index=385*/bf16[1,1,1,1280,1280]{4,3,2,1,0}, bf16[1,1280]{1,0}, bf16[1,1,1,1280,1280]{4,3,2,1,0}, bf16[1,1280,1280]{2,1,0}, bf16[1,1280]{1,0}, /*index=390*/bf16[1,1280,1280]{2,1,0}, bf16[1,1280,1280]{2,1,0}, bf16[1,1280,1280]{2,1,0}, bf16[1,768,1280]{2,1,0}, bf16[1,1280]{1,0}, /*index=395*/bf16[1,1280,1280]{2,1,0}, bf16[1,1280,1280]{2,1,0}, bf16[1,768,1280]{2,1,0}, bf16[1,10240]{1,0}, bf16[1,1280,10240]{2,1,0}, /*index=400*/bf16[1,1280]{1,0}, bf16[1,5120,1280]{2,1,0}, bf16[1,1280]{1,0}, bf16[1,1280]{1,0}, bf16[1,1280]{1,0}, /*index=405*/bf16[1,1280]{1,0}, bf16[1,1280]{1,0}, bf16[1,1280]{1,0}, bf16[1,1280]{1,0}, bf16[1,3,3,1280,1280]{4,3,2,1,0}, /*index=410*/bf16[1,1280]{1,0}, bf16[1,3,3,640,1280]{4,3,2,1,0}, bf16[1,1280]{1,0}, bf16[1,3,3,1280,1280]{4,3,2,1,0}, bf16[1,1280]{1,0}, /*index=415*/bf16[1,1,1,640,1280]{4,3,2,1,0}, bf16[1,640]{1,0}, bf16[1,640]{1,0}, bf16[1,1280]{1,0}, bf16[1,1280]{1,0}, /*index=420*/bf16[1,1280]{1,0}, bf16[1,1280,1280]{2,1,0}, bf16[1,1280]{1,0}, bf16[1,3,3,1280,1280]{4,3,2,1,0}, bf16[1,1280]{1,0}, /*index=425*/bf16[1,3,3,1280,1280]{4,3,2,1,0}, bf16[1,1280]{1,0}, bf16[1,1280]{1,0}, bf16[1,1280]{1,0}, bf16[1,1280]{1,0}, /*index=430*/bf16[1,1280]{1,0}, bf16[1,1280,1280]{2,1,0}, bf16[1,1280]{1,0}, bf16[1,3,3,1280,1280]{4,3,2,1,0}, bf16[1,1280]{1,0}, /*index=435*/bf16[1,3,3,1280,1280]{4,3,2,1,0}, bf16[1,1280]{1,0}, bf16[1,1280]{1,0}, bf16[1,1280]{1,0}, bf16[1,1280]{1,0}, /*index=440*/bf16[1,1280]{1,0}, bf16[1,1280,1280]{2,1,0}, bf16[1,1280]{1,0}, bf16[1,3,3,1280,1280]{4,3,2,1,0}, bf16[1,1280]{1,0}, /*index=445*/bf16[1,3,3,1280,1280]{4,3,2,1,0}, bf16[1,1280]{1,0}, bf16[1,1280]{1,0}, bf16[1,1280]{1,0}, bf16[1,1280]{1,0}, /*index=450*/bf16[1,1280]{1,0}, bf16[1,1280,1280]{2,1,0}, bf16[1,1280]{1,0}, bf16[1,1280]{1,0}, bf16[1,1280]{1,0}, /*index=455*/bf16[1,1,1,1280,1280]{4,3,2,1,0}, bf16[1,1280]{1,0}, bf16[1,1,1,1280,1280]{4,3,2,1,0}, bf16[1,1280,1280]{2,1,0}, bf16[1,1280]{1,0}, /*index=460*/bf16[1,1280,1280]{2,1,0}, bf16[1,1280,1280]{2,1,0}, bf16[1,1280,1280]{2,1,0}, bf16[1,768,1280]{2,1,0}, bf16[1,1280]{1,0}, /*index=465*/bf16[1,1280,1280]{2,1,0}, bf16[1,1280,1280]{2,1,0}, bf16[1,768,1280]{2,1,0}, bf16[1,10240]{1,0}, bf16[1,1280,10240]{2,1,0}, /*index=470*/bf16[1,1280]{1,0}, bf16[1,5120,1280]{2,1,0}, bf16[1,1280]{1,0}, bf16[1,1280]{1,0}, bf16[1,1280]{1,0}, /*index=475*/bf16[1,1280]{1,0}, bf16[1,1280]{1,0}, bf16[1,1280]{1,0}, bf16[1,1280]{1,0}, bf16[1,3,3,1280,1280]{4,3,2,1,0}, /*index=480*/bf16[1,1280]{1,0}, bf16[1,3,3,1280,1280]{4,3,2,1,0}, bf16[1,1280]{1,0}, bf16[1,1280]{1,0}, bf16[1,1280]{1,0}, /*index=485*/bf16[1,1280]{1,0}, bf16[1,1280]{1,0}, bf16[1,1280,1280]{2,1,0}, bf16[1,1280]{1,0}, bf16[1,3,3,1280,1280]{4,3,2,1,0}, /*index=490*/bf16[1,1280]{1,0}, bf16[1,3,3,1280,1280]{4,3,2,1,0}, bf16[1,1280]{1,0}, bf16[1,1280]{1,0}, bf16[1,1280]{1,0}, /*index=495*/bf16[1,1280]{1,0}, bf16[1,1280]{1,0}, bf16[1,1280,1280]{2,1,0}, bf16[1,1280]{1,0}, bf16[1,320,1280]{2,1,0}, /*index=500*/bf16[1,1280]{1,0}, bf16[1,1280,1280]{2,1,0}, bf16[1,1280]{1,0}, bf16[1,3,3,2560,1280]{4,3,2,1,0}, bf16[1,1280]{1,0}, /*index=505*/bf16[1,3,3,1280,1280]{4,3,2,1,0}, bf16[1,1280]{1,0}, bf16[1,1,1,2560,1280]{4,3,2,1,0}, bf16[1,2560]{1,0}, bf16[1,2560]{1,0}, /*index=510*/bf16[1,1280]{1,0}, bf16[1,1280]{1,0}, bf16[1,1280]{1,0}, bf16[1,1280,1280]{2,1,0}, bf16[1,1280]{1,0}, /*index=515*/bf16[1,3,3,2560,1280]{4,3,2,1,0}, bf16[1,1280]{1,0}, bf16[1,3,3,1280,1280]{4,3,2,1,0}, bf16[1,1280]{1,0}, bf16[1,1,1,2560,1280]{4,3,2,1,0}, /*index=520*/bf16[1,2560]{1,0}, bf16[1,2560]{1,0}, bf16[1,1280]{1,0}, bf16[1,1280]{1,0}, bf16[1,1280]{1,0}, /*index=525*/bf16[1,1280,1280]{2,1,0}, bf16[1,1280]{1,0}, bf16[1,3,3,2560,1280]{4,3,2,1,0}, bf16[1,1280]{1,0}, bf16[1,3,3,1280,1280]{4,3,2,1,0}, /*index=530*/bf16[1,1280]{1,0}, bf16[1,1,1,2560,1280]{4,3,2,1,0}, bf16[1,2560]{1,0}, bf16[1,2560]{1,0}, bf16[1,1280]{1,0}, /*index=535*/bf16[1,1280]{1,0}, bf16[1,1280]{1,0}, bf16[1,1280,1280]{2,1,0}, bf16[1,1280]{1,0}, bf16[1,3,3,1280,1280]{4,3,2,1,0}, /*index=540*/bf16[1,1280]{1,0}, bf16[1,1280]{1,0}, bf16[1,1280]{1,0}, bf16[1,1,1,1280,1280]{4,3,2,1,0}, bf16[1,1280]{1,0}, /*index=545*/bf16[1,1,1,1280,1280]{4,3,2,1,0}, bf16[1,1280,1280]{2,1,0}, bf16[1,1280]{1,0}, bf16[1,1280,1280]{2,1,0}, bf16[1,1280,1280]{2,1,0}, /*index=550*/bf16[1,1280,1280]{2,1,0}, bf16[1,768,1280]{2,1,0}, bf16[1,1280]{1,0}, bf16[1,1280,1280]{2,1,0}, bf16[1,1280,1280]{2,1,0}, /*index=555*/bf16[1,768,1280]{2,1,0}, bf16[1,10240]{1,0}, bf16[1,1280,10240]{2,1,0}, bf16[1,1280]{1,0}, bf16[1,5120,1280]{2,1,0}, /*index=560*/bf16[1,1280]{1,0}, bf16[1,1280]{1,0}, bf16[1,1280]{1,0}, bf16[1,1280]{1,0}, bf16[1,1280]{1,0}, /*index=565*/bf16[1,1280]{1,0}, bf16[1,1280]{1,0}, bf16[1,1280]{1,0}, bf16[1,1280]{1,0}, bf16[1,1,1,1280,1280]{4,3,2,1,0}, /*index=570*/bf16[1,1280]{1,0}, bf16[1,1,1,1280,1280]{4,3,2,1,0}, bf16[1,1280,1280]{2,1,0}, bf16[1,1280]{1,0}, bf16[1,1280,1280]{2,1,0}, /*index=575*/bf16[1,1280,1280]{2,1,0}, bf16[1,1280,1280]{2,1,0}, bf16[1,768,1280]{2,1,0}, bf16[1,1280]{1,0}, bf16[1,1280,1280]{2,1,0}, /*index=580*/bf16[1,1280,1280]{2,1,0}, bf16[1,768,1280]{2,1,0}, bf16[1,10240]{1,0}, bf16[1,1280,10240]{2,1,0}, bf16[1,1280]{1,0}, /*index=585*/bf16[1,5120,1280]{2,1,0}, bf16[1,1280]{1,0}, bf16[1,1280]{1,0}, bf16[1,1280]{1,0}, bf16[1,1280]{1,0}, /*index=590*/bf16[1,1280]{1,0}, bf16[1,1280]{1,0}, bf16[1,1280]{1,0}, bf16[1,1280]{1,0}, bf16[1,1280]{1,0}, /*index=595*/bf16[1,1,1,1280,1280]{4,3,2,1,0}, bf16[1,1280]{1,0}, bf16[1,1,1,1280,1280]{4,3,2,1,0}, bf16[1,1280,1280]{2,1,0}, bf16[1,1280]{1,0}, /*index=600*/bf16[1,1280,1280]{2,1,0}, bf16[1,1280,1280]{2,1,0}, bf16[1,1280,1280]{2,1,0}, bf16[1,768,1280]{2,1,0}, bf16[1,1280]{1,0}, /*index=605*/bf16[1,1280,1280]{2,1,0}, bf16[1,1280,1280]{2,1,0}, bf16[1,768,1280]{2,1,0}, bf16[1,10240]{1,0}, bf16[1,1280,10240]{2,1,0}, /*index=610*/bf16[1,1280]{1,0}, bf16[1,5120,1280]{2,1,0}, bf16[1,1280]{1,0}, bf16[1,1280]{1,0}, bf16[1,1280]{1,0}, /*index=615*/bf16[1,1280]{1,0}, bf16[1,1280]{1,0}, bf16[1,1280]{1,0}, bf16[1,1280]{1,0}, bf16[1,3,3,2560,1280]{4,3,2,1,0}, /*index=620*/bf16[1,1280]{1,0}, bf16[1,3,3,1280,1280]{4,3,2,1,0}, bf16[1,1280]{1,0}, bf16[1,1,1,2560,1280]{4,3,2,1,0}, bf16[1,2560]{1,0}, /*index=625*/bf16[1,2560]{1,0}, bf16[1,1280]{1,0}, bf16[1,1280]{1,0}, bf16[1,1280]{1,0}, bf16[1,1280,1280]{2,1,0}, /*index=630*/bf16[1,1280]{1,0}, bf16[1,3,3,2560,1280]{4,3,2,1,0}, bf16[1,1280]{1,0}, bf16[1,3,3,1280,1280]{4,3,2,1,0}, bf16[1,1280]{1,0}, /*index=635*/bf16[1,1,1,2560,1280]{4,3,2,1,0}, bf16[1,2560]{1,0}, bf16[1,2560]{1,0}, bf16[1,1280]{1,0}, bf16[1,1280]{1,0}, /*index=640*/bf16[1,1280]{1,0}, bf16[1,1280,1280]{2,1,0}, bf16[1,1280]{1,0}, bf16[1,3,3,1920,1280]{4,3,2,1,0}, bf16[1,1280]{1,0}, /*index=645*/bf16[1,3,3,1280,1280]{4,3,2,1,0}, bf16[1,1280]{1,0}, bf16[1,1,1,1920,1280]{4,3,2,1,0}, bf16[1,1920]{1,0}, bf16[1,1920]{1,0}, /*index=650*/bf16[1,1280]{1,0}, bf16[1,1280]{1,0}, bf16[1,1280]{1,0}, bf16[1,1280,1280]{2,1,0}, bf16[1,1280]{1,0}, /*index=655*/bf16[1,3,3,1280,1280]{4,3,2,1,0}, bf16[1,640]{1,0}, bf16[1,640]{1,0}, bf16[1,640]{1,0}, bf16[1,1,1,640,640]{4,3,2,1,0}, /*index=660*/bf16[1,640]{1,0}, bf16[1,1,1,640,640]{4,3,2,1,0}, bf16[1,640,640]{2,1,0}, bf16[1,640]{1,0}, bf16[1,640,640]{2,1,0}, /*index=665*/bf16[1,640,640]{2,1,0}, bf16[1,640,640]{2,1,0}, bf16[1,768,640]{2,1,0}, bf16[1,640]{1,0}, bf16[1,640,640]{2,1,0}, /*index=670*/bf16[1,640,640]{2,1,0}, bf16[1,768,640]{2,1,0}, bf16[1,5120]{1,0}, bf16[1,640,5120]{2,1,0}, bf16[1,640]{1,0}, /*index=675*/bf16[1,2560,640]{2,1,0}, bf16[1,640]{1,0}, bf16[1,640]{1,0}, bf16[1,640]{1,0}, bf16[1,640]{1,0}, /*index=680*/bf16[1,640]{1,0}, bf16[1,640]{1,0}, bf16[1,640]{1,0}, bf16[1,640]{1,0}, bf16[1,640]{1,0}, /*index=685*/bf16[1,1,1,640,640]{4,3,2,1,0}, bf16[1,640]{1,0}, bf16[1,1,1,640,640]{4,3,2,1,0}, bf16[1,640,640]{2,1,0}, bf16[1,640]{1,0}, /*index=690*/bf16[1,640,640]{2,1,0}, bf16[1,640,640]{2,1,0}, bf16[1,640,640]{2,1,0}, bf16[1,768,640]{2,1,0}, bf16[1,640]{1,0}, /*index=695*/bf16[1,640,640]{2,1,0}, bf16[1,640,640]{2,1,0}, bf16[1,768,640]{2,1,0}, bf16[1,5120]{1,0}, bf16[1,640,5120]{2,1,0}, /*index=700*/bf16[1,640]{1,0}, bf16[1,2560,640]{2,1,0}, bf16[1,640]{1,0}, bf16[1,640]{1,0}, bf16[1,640]{1,0}, /*index=705*/bf16[1,640]{1,0}, bf16[1,640]{1,0}, bf16[1,640]{1,0}, bf16[1,640]{1,0}, bf16[1,640]{1,0}, /*index=710*/bf16[1,640]{1,0}, bf16[1,1,1,640,640]{4,3,2,1,0}, bf16[1,640]{1,0}, bf16[1,1,1,640,640]{4,3,2,1,0}, bf16[1,640,640]{2,1,0}, /*index=715*/bf16[1,640]{1,0}, bf16[1,640,640]{2,1,0}, bf16[1,640,640]{2,1,0}, bf16[1,640,640]{2,1,0}, bf16[1,768,640]{2,1,0}, /*index=720*/bf16[1,640]{1,0}, bf16[1,640,640]{2,1,0}, bf16[1,640,640]{2,1,0}, bf16[1,768,640]{2,1,0}, bf16[1,5120]{1,0}, /*index=725*/bf16[1,640,5120]{2,1,0}, bf16[1,640]{1,0}, bf16[1,2560,640]{2,1,0}, bf16[1,640]{1,0}, bf16[1,640]{1,0}, /*index=730*/bf16[1,640]{1,0}, bf16[1,640]{1,0}, bf16[1,640]{1,0}, bf16[1,640]{1,0}, bf16[1,640]{1,0}, /*index=735*/bf16[1,3,3,1920,640]{4,3,2,1,0}, bf16[1,640]{1,0}, bf16[1,3,3,640,640]{4,3,2,1,0}, bf16[1,640]{1,0}, bf16[1,1,1,1920,640]{4,3,2,1,0}, /*index=740*/bf16[1,1920]{1,0}, bf16[1,1920]{1,0}, bf16[1,640]{1,0}, bf16[1,640]{1,0}, bf16[1,640]{1,0}, /*index=745*/bf16[1,1280,640]{2,1,0}, bf16[1,640]{1,0}, bf16[1,3,3,1280,640]{4,3,2,1,0}, bf16[1,640]{1,0}, bf16[1,3,3,640,640]{4,3,2,1,0}, /*index=750*/bf16[1,640]{1,0}, bf16[1,1,1,1280,640]{4,3,2,1,0}, bf16[1,1280]{1,0}, bf16[1,1280]{1,0}, bf16[1,640]{1,0}, /*index=755*/bf16[1,640]{1,0}, bf16[1,640]{1,0}, bf16[1,1280,640]{2,1,0}, bf16[1,640]{1,0}, bf16[1,3,3,960,640]{4,3,2,1,0}, /*index=760*/bf16[1,640]{1,0}, bf16[1,3,3,640,640]{4,3,2,1,0}, bf16[1,640]{1,0}, bf16[1,1,1,960,640]{4,3,2,1,0}, bf16[1,960]{1,0}, /*index=765*/bf16[1,960]{1,0}, bf16[1,640]{1,0}, bf16[1,640]{1,0}, bf16[1,640]{1,0}, bf16[1,1280,640]{2,1,0}, /*index=770*/bf16[1,640]{1,0}, bf16[1,3,3,640,640]{4,3,2,1,0}, bf16[1,320]{1,0}, bf16[1,320]{1,0}, bf16[1,320]{1,0}, /*index=775*/bf16[1,1,1,320,320]{4,3,2,1,0}, bf16[1,320]{1,0}, bf16[1,1,1,320,320]{4,3,2,1,0}, bf16[1,320,320]{2,1,0}, bf16[1,320]{1,0}, /*index=780*/bf16[1,320,320]{2,1,0}, bf16[1,320,320]{2,1,0}, bf16[1,320,320]{2,1,0}, bf16[1,768,320]{2,1,0}, bf16[1,320]{1,0}, /*index=785*/bf16[1,320,320]{2,1,0}, bf16[1,320,320]{2,1,0}, bf16[1,768,320]{2,1,0}, bf16[1,2560]{1,0}, bf16[1,320,2560]{2,1,0}, /*index=790*/bf16[1,320]{1,0}, bf16[1,1280,320]{2,1,0}, bf16[1,320]{1,0}, bf16[1,320]{1,0}, bf16[1,320]{1,0}, /*index=795*/bf16[1,320]{1,0}, bf16[1,320]{1,0}, bf16[1,320]{1,0}, bf16[1,320]{1,0}, bf16[1,320]{1,0}, /*index=800*/bf16[1,320]{1,0}, bf16[1,1,1,320,320]{4,3,2,1,0}, bf16[1,320]{1,0}, bf16[1,1,1,320,320]{4,3,2,1,0}, bf16[1,320,320]{2,1,0}, /*index=805*/bf16[1,320]{1,0}, bf16[1,320,320]{2,1,0}, bf16[1,320,320]{2,1,0}, bf16[1,320,320]{2,1,0}, bf16[1,768,320]{2,1,0}, /*index=810*/bf16[1,320]{1,0}, bf16[1,320,320]{2,1,0}, bf16[1,320,320]{2,1,0}, bf16[1,768,320]{2,1,0}, bf16[1,2560]{1,0}, /*index=815*/bf16[1,320,2560]{2,1,0}, bf16[1,320]{1,0}, bf16[1,1280,320]{2,1,0}, bf16[1,320]{1,0}, bf16[1,320]{1,0}, /*index=820*/bf16[1,320]{1,0}, bf16[1,320]{1,0}, bf16[1,320]{1,0}, bf16[1,320]{1,0}, bf16[1,320]{1,0}, /*index=825*/bf16[1,320]{1,0}, bf16[1,320]{1,0}, bf16[1,1,1,320,320]{4,3,2,1,0}, bf16[1,320]{1,0}, bf16[1,1,1,320,320]{4,3,2,1,0}, /*index=830*/bf16[1,320,320]{2,1,0}, bf16[1,320]{1,0}, bf16[1,320,320]{2,1,0}, bf16[1,320,320]{2,1,0}, bf16[1,320,320]{2,1,0}, /*index=835*/bf16[1,768,320]{2,1,0}, bf16[1,320]{1,0}, bf16[1,320,320]{2,1,0}, bf16[1,320,320]{2,1,0}, bf16[1,768,320]{2,1,0}, /*index=840*/bf16[1,2560]{1,0}, bf16[1,320,2560]{2,1,0}, bf16[1,320]{1,0}, bf16[1,1280,320]{2,1,0}, bf16[1,320]{1,0}, /*index=845*/bf16[1,320]{1,0}, bf16[1,320]{1,0}, bf16[1,320]{1,0}, bf16[1,320]{1,0}, bf16[1,320]{1,0}, /*index=850*/bf16[1,320]{1,0}, bf16[1,3,3,960,320]{4,3,2,1,0}, bf16[1,320]{1,0}, bf16[1,3,3,320,320]{4,3,2,1,0}, bf16[1,320]{1,0}, /*index=855*/bf16[1,1,1,960,320]{4,3,2,1,0}, bf16[1,960]{1,0}, bf16[1,960]{1,0}, bf16[1,320]{1,0}, bf16[1,320]{1,0}, /*index=860*/bf16[1,320]{1,0}, bf16[1,1280,320]{2,1,0}, bf16[1,320]{1,0}, bf16[1,3,3,640,320]{4,3,2,1,0}, bf16[1,320]{1,0}, /*index=865*/bf16[1,3,3,320,320]{4,3,2,1,0}, bf16[1,320]{1,0}, bf16[1,1,1,640,320]{4,3,2,1,0}, bf16[1,640]{1,0}, bf16[1,640]{1,0}, /*index=870*/bf16[1,320]{1,0}, bf16[1,320]{1,0}, bf16[1,320]{1,0}, bf16[1,1280,320]{2,1,0}, bf16[1,320]{1,0}, /*index=875*/bf16[1,3,3,640,320]{4,3,2,1,0}, bf16[1,320]{1,0}, bf16[1,3,3,320,320]{4,3,2,1,0}, bf16[1,320]{1,0}, bf16[1,1,1,640,320]{4,3,2,1,0}, /*index=880*/bf16[1,640]{1,0}, bf16[1,640]{1,0}, bf16[1,320]{1,0}, bf16[1,320]{1,0}, bf16[1,320]{1,0}, /*index=885*/bf16[1,1280,320]{2,1,0}, bf16[1,512]{1,0}, bf16[1,3,3,4,512]{4,3,2,1,0}, bf16[1,128]{1,0}, bf16[1,128]{1,0}, /*index=890*/bf16[1,3]{1,0}, bf16[1,3,3,128,3]{4,3,2,1,0}, bf16[1,512]{1,0}, bf16[1,512]{1,0}, bf16[1,512]{1,0}, /*index=895*/bf16[1,512,512]{2,1,0}, bf16[1,512]{1,0}, bf16[1,512,512]{2,1,0}, bf16[1,512]{1,0}, bf16[1,512,512]{2,1,0}, /*index=900*/bf16[1,512]{1,0}, bf16[1,512,512]{2,1,0}, bf16[1,512]{1,0}, bf16[1,3,3,512,512]{4,3,2,1,0}, bf16[1,512]{1,0}, /*index=905*/bf16[1,3,3,512,512]{4,3,2,1,0}, bf16[1,512]{1,0}, bf16[1,512]{1,0}, bf16[1,512]{1,0}, bf16[1,512]{1,0}, /*index=910*/bf16[1,512]{1,0}, bf16[1,3,3,512,512]{4,3,2,1,0}, bf16[1,512]{1,0}, bf16[1,3,3,512,512]{4,3,2,1,0}, bf16[1,512]{1,0}, /*index=915*/bf16[1,512]{1,0}, bf16[1,512]{1,0}, bf16[1,512]{1,0}, bf16[1,512]{1,0}, bf16[1,3,3,512,512]{4,3,2,1,0}, /*index=920*/bf16[1,512]{1,0}, bf16[1,3,3,512,512]{4,3,2,1,0}, bf16[1,512]{1,0}, bf16[1,512]{1,0}, bf16[1,512]{1,0}, /*index=925*/bf16[1,512]{1,0}, bf16[1,512]{1,0}, bf16[1,3,3,512,512]{4,3,2,1,0}, bf16[1,512]{1,0}, bf16[1,3,3,512,512]{4,3,2,1,0}, /*index=930*/bf16[1,512]{1,0}, bf16[1,512]{1,0}, bf16[1,512]{1,0}, bf16[1,512]{1,0}, bf16[1,512]{1,0}, /*index=935*/bf16[1,3,3,512,512]{4,3,2,1,0}, bf16[1,512]{1,0}, bf16[1,3,3,512,512]{4,3,2,1,0}, bf16[1,512]{1,0}, bf16[1,512]{1,0}, /*index=940*/bf16[1,512]{1,0}, bf16[1,512]{1,0}, bf16[1,512]{1,0}, bf16[1,3,3,512,512]{4,3,2,1,0}, bf16[1,512]{1,0}, /*index=945*/bf16[1,3,3,512,512]{4,3,2,1,0}, bf16[1,512]{1,0}, bf16[1,3,3,512,512]{4,3,2,1,0}, bf16[1,512]{1,0}, bf16[1,512]{1,0}, /*index=950*/bf16[1,512]{1,0}, bf16[1,512]{1,0}, bf16[1,512]{1,0}, bf16[1,3,3,512,512]{4,3,2,1,0}, bf16[1,512]{1,0}, /*index=955*/bf16[1,3,3,512,512]{4,3,2,1,0}, bf16[1,512]{1,0}, bf16[1,512]{1,0}, bf16[1,512]{1,0}, bf16[1,512]{1,0}, /*index=960*/bf16[1,512]{1,0}, bf16[1,3,3,512,512]{4,3,2,1,0}, bf16[1,512]{1,0}, bf16[1,3,3,512,512]{4,3,2,1,0}, bf16[1,512]{1,0}, /*index=965*/bf16[1,512]{1,0}, bf16[1,512]{1,0}, bf16[1,512]{1,0}, bf16[1,512]{1,0}, bf16[1,3,3,512,512]{4,3,2,1,0}, /*index=970*/bf16[1,256]{1,0}, bf16[1,3,3,512,256]{4,3,2,1,0}, bf16[1,256]{1,0}, bf16[1,3,3,256,256]{4,3,2,1,0}, bf16[1,256]{1,0}, /*index=975*/bf16[1,1,1,512,256]{4,3,2,1,0}, bf16[1,512]{1,0}, bf16[1,512]{1,0}, bf16[1,256]{1,0}, bf16[1,256]{1,0}, /*index=980*/bf16[1,256]{1,0}, bf16[1,3,3,256,256]{4,3,2,1,0}, bf16[1,256]{1,0}, bf16[1,3,3,256,256]{4,3,2,1,0}, bf16[1,256]{1,0}, /*index=985*/bf16[1,256]{1,0}, bf16[1,256]{1,0}, bf16[1,256]{1,0}, bf16[1,256]{1,0}, bf16[1,3,3,256,256]{4,3,2,1,0}, /*index=990*/bf16[1,256]{1,0}, bf16[1,3,3,256,256]{4,3,2,1,0}, bf16[1,256]{1,0}, bf16[1,256]{1,0}, bf16[1,256]{1,0}, /*index=995*/bf16[1,256]{1,0}, bf16[1,256]{1,0}, bf16[1,3,3,256,256]{4,3,2,1,0}, bf16[1,128]{1,0}, bf16[1,3,3,256,128]{4,3,2,1,0}, /*index=1000*/bf16[1,128]{1,0}, bf16[1,3,3,128,128]{4,3,2,1,0}, bf16[1,128]{1,0}, bf16[1,1,1,256,128]{4,3,2,1,0}, bf16[1,256]{1,0}, /*index=1005*/bf16[1,256]{1,0}, bf16[1,128]{1,0}, bf16[1,128]{1,0}, bf16[1,128]{1,0}, bf16[1,3,3,128,128]{4,3,2,1,0}, /*index=1010*/bf16[1,128]{1,0}, bf16[1,3,3,128,128]{4,3,2,1,0}, bf16[1,128]{1,0}, bf16[1,128]{1,0}, bf16[1,128]{1,0}, /*index=1015*/bf16[1,128]{1,0}, bf16[1,128]{1,0}, bf16[1,3,3,128,128]{4,3,2,1,0}, bf16[1,128]{1,0}, bf16[1,3,3,128,128]{4,3,2,1,0}, /*index=1020*/bf16[1,128]{1,0}, bf16[1,128]{1,0}, bf16[1,128]{1,0}, bf16[1,128]{1,0}, bf16[1,4]{1,0}, /*index=1025*/bf16[1,1,1,4,4]{4,3,2,1,0}, u32[1,2]{1,0}, f32[1,1]{1,0})->f16[1,1,512,512,3]{4,3,2,1,0}}, allow_spmd_sharding_propagation_to_parameters={false,false,false,false,false,false,false,false,false,false,false,false,false,false,false,false,false,false,false,false,false,false,false,false,false,false,false,false,false,false,false,false,false,false,false,false,false,false,false,false,false,false,false,false,false,false,false,false,false,false,false,false,false,false,false,false,false,false,false,false,false,false,false,false,false,false,false,false,false,false,false,false,false,false,false,false,false,false,false,false,false,false,false,false,false,false,false,false,false,false,false,false,false,false,false,false,false,false,false,false,false,false,false,false,false,false,false,false,false,false,false,false,false,false,false,false,false,false,false,false,false,false,false,false,false,false,false,false,false,false,false,false,false,false,false,false,false,false,false,false,false,false,false,false,false,false,false,false,false,false,false,false,false,false,false,false,false,false,false,false,false,false,false,false,false,false,false,false,false,false,false,false,false,false,false,false,false,false,false,false,false,false,false,false,false,false,false,false,false,false,false,false,false,false,false,false,false,false,false,false,false,false,false,false,false,false,false,false,false,false,false,false,false,false,false,false,false,false,false,false,false,false,false,false,false,false,false,false,false,false,false,false,false,false,false,false,false,false,false,false,false,false,false,false,false,false,false,false,false,false,false,false,false,false,false,false,false,false,false,false,false,false,false,false,false,false,false,false,false,false,false,false,false,false,false,false,false,false,false,false,false,false,false,false,false,false,false,false,false,false,false,false,false,false,false,false,false,false,false,false,false,false,false,false,false,false,false,false,false,false,false,false,false,false,false,false,false,false,false,false,false,false,false,false,false,false,false,false,false,false,false,false,false,false,false,false,false,false,false,false,false,false,false,false,false,false,false,false,false,false,false,false,false,false,false,false,false,false,false,false,false,false,false,false,false,false,false,false,false,false,false,false,false,false,false,false,false,false,false,false,false,false,false,false,false,false,false,false,false,false,false,false,false,false,false,false,false,false,false,false,false,false,false,false,false,false,false,false,false,false,false,false,false,false,false,false,false,false,false,false,false,false,false,false,false,false,false,false,false,false,false,false,false,false,false,false,false,false,false,false,false,false,false,false,false,false,false,false,false,false,false,false,false,false,false,false,false,false,false,false,false,false,false,false,false,false,false,false,false,false,false,false,false,false,false,false,false,false,false,false,false,false,false,false,false,false,false,false,false,false,false,false,false,false,false,false,false,false,false,false,false,false,false,false,false,false,false,false,false,false,false,false,false,false,false,false,false,false,false,false,false,false,false,false,false,false,false,false,false,false,false,false,false,false,false,false,false,false,false,false,false,false,false,false,false,false,false,false,false,false,false,false,false,false,false,false,false,false,false,false,false,false,false,false,false,false,false,false,false,false,false,false,false,false,false,false,false,false,false,false,false,false,false,false,false,false,false,false,false,false,false,false,false,false,false,false,false,false,false,false,false,false,false,false,false,false,false,false,false,false,false,false,false,false,false,false,false,false,false,false,false,false,false,false,false,false,false,false,false,false,false,false,false,false,false,false,false,false,false,false,false,false,false,false,false,false,false,false,false,false,false,false,false,false,false,false,false,false,false,false,false,false,false,false,false,false,false,false,false,false,false,false,false,false,false,false,false,false,false,false,false,false,false,false,false,false,false,false,false,false,false,false,false,false,false,false,false,false,false,false,false,false,false,false,false,false,false,false,false,false,false,false,false,false,false,false,false,false,false,false,false,false,false,false,false,false,false,false,false,false,false,false,false,false,false,false,false,false,false,false,false,false,false,false,false,false,false,false,false,false,false,false,false,false,false,false,false,false,false,false,false,false,false,false,false,false,false,false,false,false,false,false,false,false,false,false,false,false,false,false,false,false,false,false,false,false,false,false,false,false,false,false,false,false,false,false,false,false,false,false,false,false,false,false,false,false,false,false,false,false,false,false,false,false,false,false,false,false,false,false,false,false,false,false,false,false,false,false,false,false,false,false,false,false,false,false,false,false,false,false,false,false,false,false,false,false,false,false,false,false,false,false,false,false,false,false,false,false,false,false,false,false,false,false,false,false,false,false,false,false,false,false,false,false,false,false,false,false,false,false,false,false,false,false,false,false,false,false,false,false,false,false,false,false,false,false,false,false,false,false,false,false,false,false,false,false,false,false,false,false,false,false,false,false,false,false,false,false,false,false,false,false,false,false,false,false,false,false,false,false,false,false,false,false,false,false,false,false,false,false,false,false,false,false,false,false,false,false,false,false,false,false,false,false,false,false,false,false,false,false,false,false,false,false,false,false,false,false,false,false,false,false,false,false,false,false,false,false,false,false,false,false,false,false,false,false,false,false,false,false,false,false,false,false,false,false,false,false,false,false,false,false,false,false,false,false,false,false,false,false,false,false,false,false,false,false,false,false,false,false,false,false,false,false,false,false,false,false}, frontend_attributes={xla.sdy.meshes={mesh = #sdy.mesh<["_internal_pmap_axis_name"=1]>}}

FileNames
1 "/root/hlo_dump/sd_infer.py"
2 "/usr/local/lib/python3.12/dist-packages/diffusers/pipelines/stable_diffusion/pipeline_flax_stable_diffusion.py"
3 "/usr/local/lib/python3.12/dist-packages/transformers/models/clip/modeling_flax_clip.py"
4 "/usr/local/lib/python3.12/dist-packages/flax/linen/normalization.py"
5 "/usr/local/lib/python3.12/dist-packages/flax/linen/attention.py"
6 "/usr/local/lib/python3.12/dist-packages/diffusers/models/unets/unet_2d_condition_flax.py"
7 "/usr/local/lib/python3.12/dist-packages/diffusers/models/unets/unet_2d_blocks_flax.py"
8 "/usr/local/lib/python3.12/dist-packages/diffusers/models/resnet_flax.py"
9 "/usr/local/lib/python3.12/dist-packages/diffusers/models/attention_flax.py"
10 "/usr/local/lib/python3.12/dist-packages/diffusers/schedulers/scheduling_pndm_flax.py"
11 "/usr/local/lib/python3.12/dist-packages/flax/linen/linear.py"
12 "/usr/local/lib/python3.12/dist-packages/flax/linen/dtypes.py"
13 "/usr/local/lib/python3.12/dist-packages/diffusers/models/embeddings_flax.py"
14 "/usr/local/lib/python3.12/dist-packages/diffusers/models/vae_flax.py"
15 "/usr/local/lib/python3.12/dist-packages/transformers/modeling_flax_utils.py"

FunctionNames
1 "<module>"
2 "FlaxStableDiffusionPipeline.__call__"
3 "_p_generate"
4 "FlaxStableDiffusionPipeline._generate"
5 "FlaxCLIPTextPreTrainedModel.__call__"
6 "FlaxCLIPTextModule.__call__"
7 "FlaxCLIPTextTransformer.__call__"
8 "FlaxCLIPEncoder.__call__"
9 "FlaxCLIPLayerCollection.__call__"
10 "FlaxCLIPEncoderLayer.__call__"
11 "LayerNorm.__call__"
12 "_compute_stats"
13 "_compute_stats.<locals>.maybe_distributed_mean"
14 "_compute_stats.<locals>.maybe_distributed_mean.<locals>.<genexpr>"
15 "FlaxCLIPAttention.__call__"
16 "dot_product_attention_weights"
17 "FlaxStableDiffusionPipeline._generate.<locals>.loop_body"
18 "FlaxUNet2DConditionModel.__call__"
19 "FlaxCrossAttnDownBlock2D.__call__"
20 "FlaxResnetBlock2D.__call__"
21 "GroupNorm.__call__"
22 "FlaxTransformer2DModel.__call__"
23 "FlaxBasicTransformerBlock.__call__"
24 "FlaxAttention.__call__"
25 "FlaxDownBlock2D.__call__"
26 "FlaxUNetMidBlock2DCrossAttn.__call__"
27 "FlaxUpBlock2D.__call__"
28 "FlaxCrossAttnUpBlock2D.__call__"
29 "FlaxPNDMScheduler.step"
30 "FlaxPNDMScheduler.step_plms"
31 "FlaxPNDMScheduler._get_prev_sample"
32 "_Conv.__call__"
33 "promote_dtype"
34 "_normalize"
35 "_abs_sq"
36 "FlaxTimesteps.__call__"
37 "get_sinusoidal_embeddings"
38 "FlaxTimestepEmbedding.__call__"
39 "Dense.__call__"
40 "FlaxAttention.reshape_heads_to_batch_dim"
41 "FlaxAttention.reshape_batch_dim_to_heads"
42 "FlaxFeedForward.__call__"
43 "FlaxGEGLU.__call__"
44 "FlaxDownsample2D.__call__"
45 "FlaxUpsample2D.__call__"
46 "FlaxAutoencoderKL.decode"
47 "FlaxDecoder.__call__"
48 "FlaxUNetMidBlock2D.__call__"
49 "FlaxAttentionBlock.__call__"
50 "FlaxUpDecoderBlock2D.__call__"
51 "FlaxPNDMScheduler.set_timesteps"
52 "FlaxCLIPTextEmbeddings.__call__"
53 "Embed.__call__"
54 "FlaxCLIPAttention._split_heads"
55 "FlaxCLIPAttention.setup"
56 "make_causal_mask"
57 "make_attention_mask"
58 "combine_masks"
59 "FlaxCLIPAttention._merge_heads"
60 "FlaxCLIPMLP.__call__"
61 "quick_gelu"

FileLocations
1 {file_name_id=1 function_name_id=1 line=86 end_line=92 column=12 end_column=9}
2 {file_name_id=2 function_name_id=2 line=378 end_line=389 column=21 end_column=13}
3 {file_name_id=2 function_name_id=3 line=448 end_line=458 column=11 end_column=5}
4 {file_name_id=2 function_name_id=4 line=231 end_line=231 column=24 end_column=84}
5 {file_name_id=3 function_name_id=5 line=694 end_line=704 column=15 end_column=9}
6 {file_name_id=3 function_name_id=6 line=1001 end_line=1009 column=15 end_column=9}
7 {file_name_id=3 function_name_id=7 line=542 end_line=549 column=26 end_column=9}
8 {file_name_id=3 function_name_id=8 line=502 end_line=509 column=15 end_column=9}
9 {file_name_id=3 function_name_id=9 line=465 end_line=467 column=28 end_column=13}
10 {file_name_id=3 function_name_id=10 line=416 end_line=416 column=24 end_column=55}
11 {file_name_id=4 function_name_id=11 line=512 end_line=521 column=16 end_column=5}
12 {file_name_id=4 function_name_id=12 line=139 end_line=139 column=16 end_column=64}
13 {file_name_id=4 function_name_id=13 line=122 end_line=122 column=10 end_column=53}
14 {file_name_id=4 function_name_id=14 line=122 end_line=122 column=16 end_column=40}
15 {file_name_id=3 function_name_id=10 line=417 end_line=422 column=23 end_column=9}
16 {file_name_id=3 function_name_id=15 line=358 end_line=367 column=23 end_column=9}
17 {file_name_id=5 function_name_id=16 line=146 end_line=146 column=19 end_column=47}
18 {file_name_id=3 function_name_id=10 line=427 end_line=427 column=24 end_column=55}
19 {file_name_id=3 function_name_id=7 line=552 end_line=552 column=28 end_column=68}
20 {file_name_id=2 function_name_id=4 line=245 end_line=245 column=33 end_column=95}
21 {file_name_id=2 function_name_id=17 line=276 end_line=281 column=25 end_column=13}
22 {file_name_id=6 function_name_id=18 line=414 end_line=414 column=38 end_column=111}
23 {file_name_id=7 function_name_id=19 line=109 end_line=109 column=28 end_column=84}
24 {file_name_id=8 function_name_id=20 line=128 end_line=128 column=24 end_column=49}
25 {file_name_id=4 function_name_id=21 line=791 end_line=800 column=16 end_column=5}
26 {file_name_id=8 function_name_id=20 line=136 end_line=136 column=24 end_column=49}
27 {file_name_id=7 function_name_id=19 line=110 end_line=110 column=28 end_column=99}
28 {file_name_id=9 function_name_id=22 line=432 end_line=432 column=24 end_column=48}
29 {file_name_id=9 function_name_id=22 line=441 end_line=441 column=28 end_column=98}
30 {file_name_id=9 function_name_id=23 line=327 end_line=327 column=39 end_column=64}
31 {file_name_id=9 function_name_id=23 line=327 end_line=327 column=28 end_column=94}
32 {file_name_id=9 function_name_id=24 line=239 end_line=239 column=30 end_column=97}
33 {file_name_id=9 function_name_id=23 line=332 end_line=332 column=35 end_column=60}
34 {file_name_id=9 function_name_id=23 line=332 end_line=332 column=24 end_column=99}
35 {file_name_id=9 function_name_id=23 line=337 end_line=337 column=32 end_column=57}
36 {file_name_id=6 function_name_id=18 line=416 end_line=416 column=38 end_column=88}
37 {file_name_id=7 function_name_id=25 line=173 end_line=173 column=28 end_column=84}
38 {file_name_id=6 function_name_id=18 line=432 end_line=432 column=21 end_column=98}
39 {file_name_id=7 function_name_id=26 line=425 end_line=425 column=24 end_column=60}
40 {file_name_id=7 function_name_id=26 line=427 end_line=427 column=28 end_column=99}
41 {file_name_id=7 function_name_id=26 line=428 end_line=428 column=28 end_column=84}
42 {file_name_id=6 function_name_id=18 line=450 end_line=450 column=25 end_column=115}
43 {file_name_id=7 function_name_id=27 line=341 end_line=341 column=28 end_column=84}
44 {file_name_id=6 function_name_id=18 line=442 end_line=448 column=25 end_column=17}
45 {file_name_id=7 function_name_id=28 line=271 end_line=271 column=28 end_column=84}
46 {file_name_id=7 function_name_id=28 line=272 end_line=272 column=28 end_column=99}
47 {file_name_id=6 function_name_id=18 line=453 end_line=453 column=17 end_column=43}
48 {file_name_id=2 function_name_id=17 line=287 end_line=287 column=39 end_column=99}
49 {file_name_id=10 function_name_id=29 line=284 end_line=284 column=33 end_column=86}
50 {file_name_id=10 function_name_id=30 line=417 end_line=417 column=34 end_column=52}
51 {file_name_id=2 function_name_id=17 line=270 end_line=270 column=16 end_column=75}
52 {file_name_id=10 function_name_id=30 line=407 end_line=407 column=35 end_column=95}
53 {file_name_id=10 function_name_id=30 line=407 end_line=407 column=24 end_column=95}
54 {file_name_id=10 function_name_id=30 line=408 end_line=408 column=34 end_column=51}
55 {file_name_id=10 function_name_id=30 line=408 end_line=408 column=24 end_column=70}
56 {file_name_id=10 function_name_id=30 line=417 end_line=417 column=24 end_column=78}
57 {file_name_id=10 function_name_id=30 line=466 end_line=466 column=22 end_column=97}
58 {file_name_id=10 function_name_id=31 line=486 end_line=486 column=12 end_column=30}
59 {file_name_id=10 function_name_id=31 line=487 end_line=487 column=12 end_column=54}
60 {file_name_id=10 function_name_id=31 line=485 end_line=489 column=28 end_column=9}
61 {file_name_id=10 function_name_id=30 line=419 end_line=419 column=12 end_column=30}
62 {file_name_id=10 function_name_id=30 line=420 end_line=420 column=23 end_column=83}
63 {file_name_id=10 function_name_id=30 line=420 end_line=420 column=12 end_column=83}
64 {file_name_id=10 function_name_id=30 line=418 end_line=422 column=19 end_column=9}
65 {file_name_id=10 function_name_id=31 line=484 end_line=484 column=23 end_column=60}
66 {file_name_id=10 function_name_id=31 line=504 end_line=504 column=24 end_column=56}
67 {file_name_id=10 function_name_id=31 line=504 end_line=504 column=23 end_column=66}
68 {file_name_id=10 function_name_id=31 line=513 end_line=513 column=12 end_column=33}
69 {file_name_id=10 function_name_id=30 line=446 end_line=446 column=16 end_column=34}
70 {file_name_id=10 function_name_id=30 line=445 end_line=449 column=23 end_column=13}
71 {file_name_id=10 function_name_id=31 line=513 end_line=513 column=37 end_column=69}
72 {file_name_id=10 function_name_id=31 line=513 end_line=513 column=36 end_column=85}
73 {file_name_id=10 function_name_id=30 line=454 end_line=454 column=16 end_column=45}
74 {file_name_id=10 function_name_id=30 line=453 end_line=461 column=29 end_column=13}
75 {file_name_id=2 function_name_id=17 line=268 end_line=268 column=28 end_column=58}
76 {file_name_id=6 function_name_id=18 line=407 end_line=407 column=17 end_column=52}
77 {file_name_id=6 function_name_id=18 line=408 end_line=408 column=17 end_column=37}
78 {file_name_id=11 function_name_id=32 line=687 end_line=689 column=27 end_column=5}
79 {file_name_id=12 function_name_id=33 line=79 end_line=79 column=10 end_column=31}
80 {file_name_id=11 function_name_id=32 line=700 end_line=710 column=10 end_column=7}
81 {file_name_id=11 function_name_id=32 line=725 end_line=725 column=13 end_column=67}
82 {file_name_id=11 function_name_id=32 line=726 end_line=726 column=6 end_column=15}
83 {file_name_id=4 function_name_id=21 line=804 end_line=819 column=11 end_column=5}
84 {file_name_id=4 function_name_id=34 line=205 end_line=205 column=6 end_column=14}
85 {file_name_id=4 function_name_id=21 line=792 end_line=792 column=8 end_column=30}
86 {file_name_id=4 function_name_id=12 line=114 end_line=114 column=8 end_column=23}
87 {file_name_id=4 function_name_id=21 line=801 end_line=801 column=11 end_column=48}
88 {file_name_id=4 function_name_id=12 line=139 end_line=139 column=42 end_column=52}
89 {file_name_id=4 function_name_id=35 line=57 end_line=57 column=11 end_column=24}
90 {file_name_id=4 function_name_id=12 line=142 end_line=142 column=35 end_column=46}
91 {file_name_id=4 function_name_id=12 line=142 end_line=142 column=29 end_column=46}
92 {file_name_id=4 function_name_id=12 line=142 end_line=142 column=12 end_column=47}
93 {file_name_id=4 function_name_id=21 line=802 end_line=802 column=10 end_column=46}
94 {file_name_id=4 function_name_id=34 line=206 end_line=206 column=18 end_column=31}
95 {file_name_id=4 function_name_id=34 line=206 end_line=206 column=8 end_column=32}
96 {file_name_id=4 function_name_id=34 line=211 end_line=211 column=6 end_column=28}
97 {file_name_id=4 function_name_id=34 line=214 end_line=214 column=4 end_column=16}
98 {file_name_id=4 function_name_id=34 line=216 end_line=216 column=2 end_column=10}
99 {file_name_id=4 function_name_id=34 line=220 end_line=220 column=6 end_column=28}
100 {file_name_id=4 function_name_id=34 line=223 end_line=223 column=4 end_column=13}
101 {file_name_id=8 function_name_id=20 line=129 end_line=129 column=24 end_column=47}
102 {file_name_id=8 function_name_id=20 line=130 end_line=130 column=24 end_column=49}
103 {file_name_id=6 function_name_id=18 line=378 end_line=378 column=16 end_column=41}
104 {file_name_id=13 function_name_id=36 line=124 end_line=126 column=15 end_column=9}
105 {file_name_id=13 function_name_id=37 line=60 end_line=60 column=10 end_column=76}
106 {file_name_id=13 function_name_id=37 line=59 end_line=59 column=45 end_column=117}
107 {file_name_id=13 function_name_id=37 line=59 end_line=59 column=37 end_column=118}
108 {file_name_id=13 function_name_id=37 line=60 end_line=60 column=42 end_column=76}
109 {file_name_id=13 function_name_id=37 line=66 end_line=66 column=34 end_column=54}
110 {file_name_id=13 function_name_id=37 line=66 end_line=66 column=56 end_column=76}
111 {file_name_id=13 function_name_id=37 line=66 end_line=66 column=17 end_column=86}
112 {file_name_id=6 function_name_id=18 line=379 end_line=379 column=16 end_column=42}
113 {file_name_id=13 function_name_id=38 line=94 end_line=94 column=15 end_column=85}
114 {file_name_id=11 function_name_id=39 line=275 end_line=277 column=27 end_column=5}
115 {file_name_id=11 function_name_id=39 line=287 end_line=292 column=8 end_column=5}
116 {file_name_id=11 function_name_id=39 line=294 end_line=294 column=11 end_column=57}
117 {file_name_id=11 function_name_id=39 line=294 end_line=294 column=6 end_column=57}
118 {file_name_id=13 function_name_id=38 line=95 end_line=95 column=15 end_column=28}
119 {file_name_id=13 function_name_id=38 line=96 end_line=96 column=15 end_column=85}
120 {file_name_id=8 function_name_id=20 line=132 end_line=132 column=34 end_column=48}
121 {file_name_id=8 function_name_id=20 line=132 end_line=132 column=15 end_column=49}
122 {file_name_id=8 function_name_id=20 line=134 end_line=134 column=24 end_column=44}
123 {file_name_id=8 function_name_id=20 line=137 end_line=137 column=24 end_column=47}
124 {file_name_id=8 function_name_id=20 line=139 end_line=139 column=24 end_column=49}
125 {file_name_id=8 function_name_id=20 line=144 end_line=144 column=15 end_column=39}
126 {file_name_id=9 function_name_id=22 line=437 end_line=437 column=28 end_column=55}
127 {file_name_id=9 function_name_id=22 line=438 end_line=438 column=28 end_column=82}
128 {file_name_id=4 function_name_id=11 line=523 end_line=538 column=11 end_column=5}
129 {file_name_id=4 function_name_id=34 line=203 end_line=203 column=9 end_column=46}
130 {file_name_id=4 function_name_id=34 line=204 end_line=204 column=8 end_column=44}
131 {file_name_id=4 function_name_id=34 line=226 end_line=226 column=9 end_column=30}
132 {file_name_id=9 function_name_id=24 line=194 end_line=194 column=21 end_column=46}
133 {file_name_id=9 function_name_id=24 line=204 end_line=204 column=27 end_column=70}
134 {file_name_id=9 function_name_id=40 line=178 end_line=178 column=17 end_column=81}
135 {file_name_id=9 function_name_id=40 line=179 end_line=179 column=17 end_column=52}
136 {file_name_id=9 function_name_id=40 line=180 end_line=180 column=17 end_column=82}
137 {file_name_id=9 function_name_id=24 line=195 end_line=195 column=19 end_column=36}
138 {file_name_id=9 function_name_id=24 line=205 end_line=205 column=25 end_column=66}
139 {file_name_id=9 function_name_id=24 line=236 end_line=236 column=35 end_column=94}
140 {file_name_id=9 function_name_id=24 line=238 end_line=238 column=31 end_column=60}
141 {file_name_id=9 function_name_id=24 line=196 end_line=196 column=21 end_column=40}
142 {file_name_id=9 function_name_id=24 line=206 end_line=206 column=27 end_column=70}
143 {file_name_id=9 function_name_id=24 line=247 end_line=247 column=32 end_column=98}
144 {file_name_id=9 function_name_id=24 line=248 end_line=248 column=32 end_column=78}
145 {file_name_id=9 function_name_id=41 line=186 end_line=186 column=17 end_column=81}
146 {file_name_id=9 function_name_id=41 line=187 end_line=187 column=17 end_column=52}
147 {file_name_id=9 function_name_id=41 line=188 end_line=188 column=17 end_column=82}
148 {file_name_id=9 function_name_id=24 line=250 end_line=250 column=24 end_column=53}
149 {file_name_id=9 function_name_id=23 line=328 end_line=328 column=24 end_column=48}
150 {file_name_id=9 function_name_id=23 line=333 end_line=333 column=24 end_column=48}
151 {file_name_id=9 function_name_id=23 line=337 end_line=337 column=24 end_column=87}
152 {file_name_id=9 function_name_id=42 line=488 end_line=488 column=24 end_column=78}
153 {file_name_id=9 function_name_id=43 line=522 end_line=522 column=24 end_column=48}
154 {file_name_id=9 function_name_id=43 line=523 end_line=523 column=37 end_column=72}
155 {file_name_id=9 function_name_id=43 line=524 end_line=524 column=50 end_column=70}
156 {file_name_id=9 function_name_id=43 line=524 end_line=524 column=34 end_column=70}
157 {file_name_id=9 function_name_id=42 line=489 end_line=489 column=24 end_column=49}
158 {file_name_id=9 function_name_id=23 line=338 end_line=338 column=24 end_column=48}
159 {file_name_id=9 function_name_id=22 line=447 end_line=447 column=28 end_column=81}
160 {file_name_id=9 function_name_id=22 line=448 end_line=448 column=28 end_column=56}
161 {file_name_id=9 function_name_id=22 line=450 end_line=450 column=24 end_column=48}
162 {file_name_id=7 function_name_id=19 line=114 end_line=114 column=28 end_column=62}
163 {file_name_id=8 function_name_id=44 line=74 end_line=74 column=24 end_column=48}
164 {file_name_id=8 function_name_id=20 line=142 end_line=142 column=23 end_column=51}
165 {file_name_id=7 function_name_id=27 line=339 end_line=339 column=28 end_column=88}
166 {file_name_id=7 function_name_id=27 line=344 end_line=344 column=28 end_column=60}
167 {file_name_id=8 function_name_id=45 line=44 end_line=48 column=24 end_column=9}
168 {file_name_id=8 function_name_id=45 line=49 end_line=49 column=24 end_column=48}
169 {file_name_id=7 function_name_id=28 line=269 end_line=269 column=28 end_column=88}
170 {file_name_id=7 function_name_id=28 line=275 end_line=275 column=28 end_column=60}
171 {file_name_id=6 function_name_id=18 line=454 end_line=454 column=17 end_column=32}
172 {file_name_id=6 function_name_id=18 line=455 end_line=455 column=17 end_column=38}
173 {file_name_id=6 function_name_id=18 line=456 end_line=456 column=17 end_column=52}
174 {file_name_id=2 function_name_id=17 line=283 end_line=283 column=55 end_column=87}
175 {file_name_id=2 function_name_id=17 line=284 end_line=284 column=25 end_column=105}
176 {file_name_id=2 function_name_id=17 line=284 end_line=284 column=45 end_column=105}
177 {file_name_id=2 function_name_id=17 line=284 end_line=284 column=63 end_column=104}
178 {file_name_id=10 function_name_id=30 line=441 end_line=441 column=16 end_column=34}
179 {file_name_id=10 function_name_id=30 line=440 end_line=444 column=16 end_column=13}
180 {file_name_id=10 function_name_id=30 line=442 end_line=442 column=38 end_column=52}
181 {file_name_id=10 function_name_id=30 line=442 end_line=442 column=16 end_column=77}
182 {file_name_id=10 function_name_id=30 line=456 end_line=456 column=32 end_column=45}
183 {file_name_id=10 function_name_id=30 line=456 end_line=456 column=17 end_column=45}
184 {file_name_id=10 function_name_id=30 line=456 end_line=456 column=16 end_column=50}
185 {file_name_id=10 function_name_id=30 line=457 end_line=457 column=21 end_column=34}
186 {file_name_id=10 function_name_id=30 line=457 end_line=457 column=17 end_column=34}
187 {file_name_id=10 function_name_id=30 line=457 end_line=457 column=37 end_column=50}
188 {file_name_id=10 function_name_id=30 line=457 end_line=457 column=16 end_column=55}
189 {file_name_id=10 function_name_id=30 line=458 end_line=458 column=22 end_column=35}
190 {file_name_id=10 function_name_id=30 line=458 end_line=458 column=17 end_column=35}
191 {file_name_id=10 function_name_id=30 line=458 end_line=458 column=43 end_column=56}
192 {file_name_id=10 function_name_id=30 line=458 end_line=458 column=38 end_column=56}
193 {file_name_id=10 function_name_id=30 line=458 end_line=458 column=63 end_column=76}
194 {file_name_id=10 function_name_id=30 line=458 end_line=458 column=59 end_column=76}
195 {file_name_id=10 function_name_id=30 line=458 end_line=458 column=16 end_column=82}
196 {file_name_id=10 function_name_id=30 line=460 end_line=460 column=24 end_column=37}
197 {file_name_id=10 function_name_id=30 line=460 end_line=460 column=19 end_column=37}
198 {file_name_id=10 function_name_id=30 line=460 end_line=460 column=45 end_column=58}
199 {file_name_id=10 function_name_id=30 line=460 end_line=460 column=40 end_column=58}
200 {file_name_id=10 function_name_id=30 line=460 end_line=460 column=66 end_column=79}
201 {file_name_id=10 function_name_id=30 line=460 end_line=460 column=61 end_column=79}
202 {file_name_id=10 function_name_id=30 line=460 end_line=460 column=86 end_column=99}
203 {file_name_id=10 function_name_id=30 line=460 end_line=460 column=82 end_column=99}
204 {file_name_id=10 function_name_id=30 line=459 end_line=460 column=16 end_column=100}
205 {file_name_id=10 function_name_id=31 line=491 end_line=491 column=27 end_column=48}
206 {file_name_id=10 function_name_id=31 line=507 end_line=507 column=50 end_column=75}
207 {file_name_id=10 function_name_id=31 line=507 end_line=507 column=35 end_column=75}
208 {file_name_id=10 function_name_id=31 line=490 end_line=490 column=22 end_column=38}
209 {file_name_id=10 function_name_id=31 line=508 end_line=508 column=12 end_column=38}
210 {file_name_id=10 function_name_id=31 line=507 end_line=509 column=78 end_column=18}
211 {file_name_id=10 function_name_id=30 line=467 end_line=467 column=38 end_column=55}
212 {file_name_id=2 function_name_id=4 line=302 end_line=302 column=25 end_column=105}
213 {file_name_id=2 function_name_id=4 line=306 end_line=306 column=16 end_column=90}
214 {file_name_id=14 function_name_id=46 line=905 end_line=905 column=24 end_column=80}
215 {file_name_id=14 function_name_id=47 line=722 end_line=722 column=17 end_column=68}
216 {file_name_id=14 function_name_id=48 line=489 end_line=489 column=24 end_column=83}
217 {file_name_id=14 function_name_id=20 line=203 end_line=203 column=24 end_column=49}
218 {file_name_id=14 function_name_id=20 line=207 end_line=207 column=24 end_column=49}
219 {file_name_id=14 function_name_id=48 line=491 end_line=491 column=28 end_column=47}
220 {file_name_id=14 function_name_id=49 line=265 end_line=265 column=24 end_column=54}
221 {file_name_id=14 function_name_id=49 line=281 end_line=281 column=23 end_column=56}
222 {file_name_id=14 function_name_id=48 line=492 end_line=492 column=28 end_column=78}
223 {file_name_id=14 function_name_id=47 line=726 end_line=726 column=21 end_column=63}
224 {file_name_id=14 function_name_id=50 line=412 end_line=412 column=28 end_column=78}
225 {file_name_id=14 function_name_id=47 line=728 end_line=728 column=17 end_column=43}
226 {file_name_id=2 function_name_id=4 line=258 end_line=258 column=22 end_column=90}
227 {file_name_id=2 function_name_id=4 line=295 end_line=295 column=18 end_column=64}
228 {file_name_id=2 function_name_id=4 line=290 end_line=292 column=26 end_column=9}
229 {file_name_id=10 function_name_id=51 line=216 end_line=216 column=21 end_column=55}
230 {file_name_id=10 function_name_id=51 line=217 end_line=217 column=14 end_column=55}
231 {file_name_id=10 function_name_id=51 line=188 end_line=188 column=22 end_column=69}
232 {file_name_id=10 function_name_id=51 line=188 end_line=188 column=21 end_column=105}
233 {file_name_id=10 function_name_id=51 line=196 end_line=196 column=46 end_column=61}
234 {file_name_id=10 function_name_id=51 line=196 end_line=196 column=63 end_column=80}
235 {file_name_id=10 function_name_id=51 line=196 end_line=196 column=82 end_column=97}
236 {file_name_id=10 function_name_id=51 line=196 end_line=196 column=29 end_column=99}
237 {file_name_id=3 function_name_id=7 line=540 end_line=540 column=24 end_column=87}
238 {file_name_id=3 function_name_id=52 line=279 end_line=279 column=23 end_column=67}
239 {file_name_id=11 function_name_id=53 line=1194 end_line=1194 column=11 end_column=46}
240 {file_name_id=3 function_name_id=5 line=684 end_line=684 column=44 end_column=91}
241 {file_name_id=3 function_name_id=5 line=684 end_line=684 column=27 end_column=109}
242 {file_name_id=3 function_name_id=52 line=280 end_line=280 column=26 end_column=76}
243 {file_name_id=3 function_name_id=52 line=282 end_line=282 column=21 end_column=51}
244 {file_name_id=3 function_name_id=10 line=424 end_line=424 column=24 end_column=48}
245 {file_name_id=3 function_name_id=15 line=326 end_line=326 column=16 end_column=42}
246 {file_name_id=3 function_name_id=15 line=330 end_line=330 column=16 end_column=40}
247 {file_name_id=3 function_name_id=54 line=312 end_line=312 column=15 end_column=95}
248 {file_name_id=3 function_name_id=15 line=324 end_line=324 column=16 end_column=42}
249 {file_name_id=3 function_name_id=15 line=328 end_line=328 column=16 end_column=40}
250 {file_name_id=5 function_name_id=16 line=130 end_line=130 column=10 end_column=47}
251 {file_name_id=3 function_name_id=15 line=325 end_line=325 column=14 end_column=40}
252 {file_name_id=3 function_name_id=15 line=329 end_line=329 column=14 end_column=36}
253 {file_name_id=5 function_name_id=16 line=132 end_line=132 column=17 end_column=60}
254 {file_name_id=3 function_name_id=55 line=309 end_line=309 column=31 end_column=111}
255 {file_name_id=5 function_name_id=56 line=880 end_line=880 column=26 end_column=66}
256 {file_name_id=5 function_name_id=56 line=881 end_line=887 column=9 end_column=3}
257 {file_name_id=5 function_name_id=57 line=854 end_line=856 column=9 end_column=3}
258 {file_name_id=5 function_name_id=57 line=857 end_line=857 column=9 end_column=39}
259 {file_name_id=5 function_name_id=57 line=859 end_line=859 column=9 end_column=27}
260 {file_name_id=3 function_name_id=15 line=339 end_line=339 column=29 end_column=93}
261 {file_name_id=5 function_name_id=58 line=910 end_line=910 column=11 end_column=44}
262 {file_name_id=5 function_name_id=58 line=911 end_line=911 column=9 end_column=27}
263 {file_name_id=3 function_name_id=15 line=347 end_line=347 column=16 end_column=34}
264 {file_name_id=3 function_name_id=15 line=346 end_line=350 column=29 end_column=13}
265 {file_name_id=5 function_name_id=16 line=136 end_line=136 column=19 end_column=38}
266 {file_name_id=3 function_name_id=15 line=369 end_line=369 column=22 end_column=78}
267 {file_name_id=3 function_name_id=15 line=370 end_line=370 column=22 end_column=52}
268 {file_name_id=3 function_name_id=59 line=315 end_line=315 column=15 end_column=81}
269 {file_name_id=3 function_name_id=15 line=371 end_line=371 column=22 end_column=48}
270 {file_name_id=3 function_name_id=10 line=428 end_line=428 column=24 end_column=47}
271 {file_name_id=3 function_name_id=60 line=391 end_line=391 column=24 end_column=47}
272 {file_name_id=3 function_name_id=60 line=392 end_line=392 column=24 end_column=57}
273 {file_name_id=15 function_name_id=61 line=70 end_line=70 column=30 end_column=39}
274 {file_name_id=15 function_name_id=61 line=70 end_line=70 column=15 end_column=40}
275 {file_name_id=15 function_name_id=61 line=70 end_line=70 column=11 end_column=40}
276 {file_name_id=3 function_name_id=60 line=393 end_line=393 column=24 end_column=47}
277 {file_name_id=3 function_name_id=10 line=429 end_line=429 column=24 end_column=48}
278 {file_name_id=2 function_name_id=4 line=246 end_line=246 column=18 end_column=74}
279 {file_name_id=2 function_name_id=4 line=305 end_line=305 column=18 end_column=62}
280 {file_name_id=14 function_name_id=46 line=902 end_line=902 column=22 end_column=58}
281 {file_name_id=14 function_name_id=46 line=904 end_line=904 column=24 end_column=53}
282 {file_name_id=14 function_name_id=47 line=719 end_line=719 column=17 end_column=37}
283 {file_name_id=14 function_name_id=20 line=204 end_line=204 column=24 end_column=47}
284 {file_name_id=14 function_name_id=20 line=205 end_line=205 column=24 end_column=49}
285 {file_name_id=14 function_name_id=20 line=208 end_line=208 column=24 end_column=47}
286 {file_name_id=14 function_name_id=20 line=210 end_line=210 column=24 end_column=49}
287 {file_name_id=14 function_name_id=20 line=215 end_line=215 column=15 end_column=39}
288 {file_name_id=14 function_name_id=49 line=267 end_line=267 column=24 end_column=80}
289 {file_name_id=14 function_name_id=49 line=269 end_line=269 column=16 end_column=41}
290 {file_name_id=14 function_name_id=49 line=280 end_line=280 column=56 end_column=69}
291 {file_name_id=14 function_name_id=49 line=270 end_line=270 column=14 end_column=37}
292 {file_name_id=14 function_name_id=49 line=280 end_line=280 column=71 end_column=82}
293 {file_name_id=14 function_name_id=49 line=280 end_line=280 column=23 end_column=83}
294 {file_name_id=14 function_name_id=49 line=271 end_line=271 column=16 end_column=41}
295 {file_name_id=14 function_name_id=49 line=284 end_line=284 column=24 end_column=77}
296 {file_name_id=14 function_name_id=49 line=290 end_line=290 column=24 end_column=53}
297 {file_name_id=14 function_name_id=49 line=291 end_line=291 column=24 end_column=79}
298 {file_name_id=14 function_name_id=49 line=292 end_line=292 column=24 end_column=48}
299 {file_name_id=14 function_name_id=50 line=415 end_line=415 column=28 end_column=60}
300 {file_name_id=14 function_name_id=45 line=92 end_line=96 column=24 end_column=9}
301 {file_name_id=14 function_name_id=45 line=97 end_line=97 column=24 end_column=48}
302 {file_name_id=14 function_name_id=20 line=213 end_line=213 column=23 end_column=51}
303 {file_name_id=14 function_name_id=47 line=729 end_line=729 column=17 end_column=33}
304 {file_name_id=14 function_name_id=47 line=730 end_line=730 column=17 end_column=38}
305 {file_name_id=14 function_name_id=46 line=907 end_line=907 column=24 end_column=66}
306 {file_name_id=2 function_name_id=4 line=308 end_line=308 column=17 end_column=32}
307 {file_name_id=2 function_name_id=4 line=308 end_line=308 column=16 end_column=44}

StackFrames
1 {file_location_id=1 parent_frame_id=1}
2 {file_location_id=2 parent_frame_id=2}
3 {file_location_id=3 parent_frame_id=3}
4 {file_location_id=4 parent_frame_id=4}
5 {file_location_id=5 parent_frame_id=5}
6 {file_location_id=6 parent_frame_id=6}
7 {file_location_id=7 parent_frame_id=7}
8 {file_location_id=8 parent_frame_id=8}
9 {file_location_id=9 parent_frame_id=9}
10 {file_location_id=10 parent_frame_id=10}
11 {file_location_id=11 parent_frame_id=11}
12 {file_location_id=12 parent_frame_id=12}
13 {file_location_id=13 parent_frame_id=13}
14 {file_location_id=14 parent_frame_id=14}
15 {file_location_id=15 parent_frame_id=10}
16 {file_location_id=16 parent_frame_id=16}
17 {file_location_id=17 parent_frame_id=17}
18 {file_location_id=18 parent_frame_id=10}
19 {file_location_id=11 parent_frame_id=19}
20 {file_location_id=12 parent_frame_id=20}
21 {file_location_id=13 parent_frame_id=21}
22 {file_location_id=14 parent_frame_id=22}
23 {file_location_id=19 parent_frame_id=7}
24 {file_location_id=11 parent_frame_id=24}
25 {file_location_id=12 parent_frame_id=25}
26 {file_location_id=13 parent_frame_id=26}
27 {file_location_id=14 parent_frame_id=27}
28 {file_location_id=20 parent_frame_id=4}
29 {file_location_id=5 parent_frame_id=29}
30 {file_location_id=6 parent_frame_id=30}
31 {file_location_id=7 parent_frame_id=31}
32 {file_location_id=8 parent_frame_id=32}
33 {file_location_id=9 parent_frame_id=33}
34 {file_location_id=10 parent_frame_id=34}
35 {file_location_id=11 parent_frame_id=35}
36 {file_location_id=12 parent_frame_id=36}
37 {file_location_id=13 parent_frame_id=37}
38 {file_location_id=14 parent_frame_id=38}
39 {file_location_id=15 parent_frame_id=34}
40 {file_location_id=16 parent_frame_id=40}
41 {file_location_id=17 parent_frame_id=41}
42 {file_location_id=18 parent_frame_id=34}
43 {file_location_id=11 parent_frame_id=43}
44 {file_location_id=12 parent_frame_id=44}
45 {file_location_id=13 parent_frame_id=45}
46 {file_location_id=14 parent_frame_id=46}
47 {file_location_id=19 parent_frame_id=31}
48 {file_location_id=11 parent_frame_id=48}
49 {file_location_id=12 parent_frame_id=49}
50 {file_location_id=13 parent_frame_id=50}
51 {file_location_id=14 parent_frame_id=51}
52 {file_location_id=21 parent_frame_id=1}
53 {file_location_id=22 parent_frame_id=53}
54 {file_location_id=23 parent_frame_id=54}
55 {file_location_id=24 parent_frame_id=55}
56 {file_location_id=25 parent_frame_id=56}
57 {file_location_id=12 parent_frame_id=57}
58 {file_location_id=13 parent_frame_id=58}
59 {file_location_id=14 parent_frame_id=59}
60 {file_location_id=26 parent_frame_id=55}
61 {file_location_id=25 parent_frame_id=61}
62 {file_location_id=12 parent_frame_id=62}
63 {file_location_id=13 parent_frame_id=63}
64 {file_location_id=14 parent_frame_id=64}
65 {file_location_id=27 parent_frame_id=54}
66 {file_location_id=28 parent_frame_id=66}
67 {file_location_id=25 parent_frame_id=67}
68 {file_location_id=12 parent_frame_id=68}
69 {file_location_id=13 parent_frame_id=69}
70 {file_location_id=14 parent_frame_id=70}
71 {file_location_id=29 parent_frame_id=66}
72 {file_location_id=30 parent_frame_id=72}
73 {file_location_id=11 parent_frame_id=73}
74 {file_location_id=12 parent_frame_id=74}
75 {file_location_id=13 parent_frame_id=75}
76 {file_location_id=14 parent_frame_id=76}
77 {file_location_id=31 parent_frame_id=72}
78 {file_location_id=32 parent_frame_id=78}
79 {file_location_id=33 parent_frame_id=72}
80 {file_location_id=11 parent_frame_id=80}
81 {file_location_id=12 parent_frame_id=81}
82 {file_location_id=13 parent_frame_id=82}
83 {file_location_id=14 parent_frame_id=83}
84 {file_location_id=34 parent_frame_id=72}
85 {file_location_id=32 parent_frame_id=85}
86 {file_location_id=35 parent_frame_id=72}
87 {file_location_id=11 parent_frame_id=87}
88 {file_location_id=12 parent_frame_id=88}
89 {file_location_id=13 parent_frame_id=89}
90 {file_location_id=14 parent_frame_id=90}
91 {file_location_id=36 parent_frame_id=53}
92 {file_location_id=37 parent_frame_id=92}
93 {file_location_id=24 parent_frame_id=93}
94 {file_location_id=25 parent_frame_id=94}
95 {file_location_id=12 parent_frame_id=95}
96 {file_location_id=13 parent_frame_id=96}
97 {file_location_id=14 parent_frame_id=97}
98 {file_location_id=26 parent_frame_id=93}
99 {file_location_id=25 parent_frame_id=99}
100 {file_location_id=12 parent_frame_id=100}
101 {file_location_id=13 parent_frame_id=101}
102 {file_location_id=14 parent_frame_id=102}
103 {file_location_id=38 parent_frame_id=53}
104 {file_location_id=39 parent_frame_id=104}
105 {file_location_id=24 parent_frame_id=105}
106 {file_location_id=25 parent_frame_id=106}
107 {file_location_id=12 parent_frame_id=107}
108 {file_location_id=13 parent_frame_id=108}
109 {file_location_id=14 parent_frame_id=109}
110 {file_location_id=26 parent_frame_id=105}
111 {file_location_id=25 parent_frame_id=111}
112 {file_location_id=12 parent_frame_id=112}
113 {file_location_id=13 parent_frame_id=113}
114 {file_location_id=14 parent_frame_id=114}
115 {file_location_id=40 parent_frame_id=104}
116 {file_location_id=28 parent_frame_id=116}
117 {file_location_id=25 parent_frame_id=117}
118 {file_location_id=12 parent_frame_id=118}
119 {file_location_id=13 parent_frame_id=119}
120 {file_location_id=14 parent_frame_id=120}
121 {file_location_id=29 parent_frame_id=116}
122 {file_location_id=30 parent_frame_id=122}
123 {file_location_id=11 parent_frame_id=123}
124 {file_location_id=12 parent_frame_id=124}
125 {file_location_id=13 parent_frame_id=125}
126 {file_location_id=14 parent_frame_id=126}
127 {file_location_id=31 parent_frame_id=122}
128 {file_location_id=32 parent_frame_id=128}
129 {file_location_id=33 parent_frame_id=122}
130 {file_location_id=11 parent_frame_id=130}
131 {file_location_id=12 parent_frame_id=131}
132 {file_location_id=13 parent_frame_id=132}
133 {file_location_id=14 parent_frame_id=133}
134 {file_location_id=34 parent_frame_id=122}
135 {file_location_id=32 parent_frame_id=135}
136 {file_location_id=35 parent_frame_id=122}
137 {file_location_id=11 parent_frame_id=137}
138 {file_location_id=12 parent_frame_id=138}
139 {file_location_id=13 parent_frame_id=139}
140 {file_location_id=14 parent_frame_id=140}
141 {file_location_id=41 parent_frame_id=104}
142 {file_location_id=24 parent_frame_id=142}
143 {file_location_id=25 parent_frame_id=143}
144 {file_location_id=12 parent_frame_id=144}
145 {file_location_id=13 parent_frame_id=145}
146 {file_location_id=14 parent_frame_id=146}
147 {file_location_id=26 parent_frame_id=142}
148 {file_location_id=25 parent_frame_id=148}
149 {file_location_id=12 parent_frame_id=149}
150 {file_location_id=13 parent_frame_id=150}
151 {file_location_id=14 parent_frame_id=151}
152 {file_location_id=42 parent_frame_id=53}
153 {file_location_id=43 parent_frame_id=153}
154 {file_location_id=24 parent_frame_id=154}
155 {file_location_id=25 parent_frame_id=155}
156 {file_location_id=12 parent_frame_id=156}
157 {file_location_id=13 parent_frame_id=157}
158 {file_location_id=14 parent_frame_id=158}
159 {file_location_id=26 parent_frame_id=154}
160 {file_location_id=25 parent_frame_id=160}
161 {file_location_id=12 parent_frame_id=161}
162 {file_location_id=13 parent_frame_id=162}
163 {file_location_id=14 parent_frame_id=163}
164 {file_location_id=44 parent_frame_id=53}
165 {file_location_id=45 parent_frame_id=165}
166 {file_location_id=24 parent_frame_id=166}
167 {file_location_id=25 parent_frame_id=167}
168 {file_location_id=12 parent_frame_id=168}
169 {file_location_id=13 parent_frame_id=169}
170 {file_location_id=14 parent_frame_id=170}
171 {file_location_id=26 parent_frame_id=166}
172 {file_location_id=25 parent_frame_id=172}
173 {file_location_id=12 parent_frame_id=173}
174 {file_location_id=13 parent_frame_id=174}
175 {file_location_id=14 parent_frame_id=175}
176 {file_location_id=46 parent_frame_id=165}
177 {file_location_id=28 parent_frame_id=177}
178 {file_location_id=25 parent_frame_id=178}
179 {file_location_id=12 parent_frame_id=179}
180 {file_location_id=13 parent_frame_id=180}
181 {file_location_id=14 parent_frame_id=181}
182 {file_location_id=29 parent_frame_id=177}
183 {file_location_id=30 parent_frame_id=183}
184 {file_location_id=11 parent_frame_id=184}
185 {file_location_id=12 parent_frame_id=185}
186 {file_location_id=13 parent_frame_id=186}
187 {file_location_id=14 parent_frame_id=187}
188 {file_location_id=31 parent_frame_id=183}
189 {file_location_id=32 parent_frame_id=189}
190 {file_location_id=33 parent_frame_id=183}
191 {file_location_id=11 parent_frame_id=191}
192 {file_location_id=12 parent_frame_id=192}
193 {file_location_id=13 parent_frame_id=193}
194 {file_location_id=14 parent_frame_id=194}
195 {file_location_id=34 parent_frame_id=183}
196 {file_location_id=32 parent_frame_id=196}
197 {file_location_id=35 parent_frame_id=183}
198 {file_location_id=11 parent_frame_id=198}
199 {file_location_id=12 parent_frame_id=199}
200 {file_location_id=13 parent_frame_id=200}
201 {file_location_id=14 parent_frame_id=201}
202 {file_location_id=47 parent_frame_id=53}
203 {file_location_id=25 parent_frame_id=203}
204 {file_location_id=12 parent_frame_id=204}
205 {file_location_id=13 parent_frame_id=205}
206 {file_location_id=14 parent_frame_id=206}
207 {file_location_id=48 parent_frame_id=1}
208 {file_location_id=49 parent_frame_id=208}
209 {file_location_id=50 parent_frame_id=209}
210 {file_location_id=51 parent_frame_id=1}
211 {file_location_id=52 parent_frame_id=209}
212 {file_location_id=53 parent_frame_id=209}
213 {file_location_id=54 parent_frame_id=209}
214 {file_location_id=55 parent_frame_id=209}
215 {file_location_id=56 parent_frame_id=209}
216 {file_location_id=57 parent_frame_id=209}
217 {file_location_id=58 parent_frame_id=217}
218 {file_location_id=59 parent_frame_id=217}
219 {file_location_id=60 parent_frame_id=217}
220 {file_location_id=61 parent_frame_id=209}
221 {file_location_id=62 parent_frame_id=209}
222 {file_location_id=63 parent_frame_id=209}
223 {file_location_id=64 parent_frame_id=209}
224 {file_location_id=65 parent_frame_id=217}
225 {file_location_id=66 parent_frame_id=217}
226 {file_location_id=67 parent_frame_id=217}
227 {file_location_id=68 parent_frame_id=217}
228 {file_location_id=69 parent_frame_id=209}
229 {file_location_id=70 parent_frame_id=209}
230 {file_location_id=71 parent_frame_id=217}
231 {file_location_id=72 parent_frame_id=217}
232 {file_location_id=73 parent_frame_id=209}
233 {file_location_id=74 parent_frame_id=209}
234 {file_location_id=75 parent_frame_id=1}
235 {file_location_id=76 parent_frame_id=53}
236 {file_location_id=77 parent_frame_id=53}
237 {file_location_id=78 parent_frame_id=237}
238 {file_location_id=79 parent_frame_id=238}
239 {file_location_id=80 parent_frame_id=237}
240 {file_location_id=81 parent_frame_id=237}
241 {file_location_id=82 parent_frame_id=237}
242 {file_location_id=83 parent_frame_id=56}
243 {file_location_id=84 parent_frame_id=243}
244 {file_location_id=85 parent_frame_id=56}
245 {file_location_id=86 parent_frame_id=57}
246 {file_location_id=87 parent_frame_id=56}
247 {file_location_id=88 parent_frame_id=57}
248 {file_location_id=89 parent_frame_id=248}
249 {file_location_id=90 parent_frame_id=57}
250 {file_location_id=89 parent_frame_id=250}
251 {file_location_id=91 parent_frame_id=57}
252 {file_location_id=92 parent_frame_id=57}
253 {file_location_id=93 parent_frame_id=56}
254 {file_location_id=94 parent_frame_id=243}
255 {file_location_id=95 parent_frame_id=243}
256 {file_location_id=96 parent_frame_id=243}
257 {file_location_id=97 parent_frame_id=243}
258 {file_location_id=98 parent_frame_id=243}
259 {file_location_id=99 parent_frame_id=243}
260 {file_location_id=100 parent_frame_id=243}
261 {file_location_id=101 parent_frame_id=55}
262 {file_location_id=102 parent_frame_id=55}
263 {file_location_id=78 parent_frame_id=263}
264 {file_location_id=79 parent_frame_id=264}
265 {file_location_id=80 parent_frame_id=263}
266 {file_location_id=81 parent_frame_id=263}
267 {file_location_id=82 parent_frame_id=263}
268 {file_location_id=103 parent_frame_id=53}
269 {file_location_id=104 parent_frame_id=269}
270 {file_location_id=105 parent_frame_id=270}
271 {file_location_id=106 parent_frame_id=270}
272 {file_location_id=107 parent_frame_id=270}
273 {file_location_id=108 parent_frame_id=270}
274 {file_location_id=109 parent_frame_id=270}
275 {file_location_id=110 parent_frame_id=270}
276 {file_location_id=111 parent_frame_id=270}
277 {file_location_id=112 parent_frame_id=53}
278 {file_location_id=113 parent_frame_id=278}
279 {file_location_id=114 parent_frame_id=279}
280 {file_location_id=79 parent_frame_id=280}
281 {file_location_id=115 parent_frame_id=279}
282 {file_location_id=116 parent_frame_id=279}
283 {file_location_id=117 parent_frame_id=279}
284 {file_location_id=118 parent_frame_id=278}
285 {file_location_id=119 parent_frame_id=278}
286 {file_location_id=114 parent_frame_id=286}
287 {file_location_id=79 parent_frame_id=287}
288 {file_location_id=115 parent_frame_id=286}
289 {file_location_id=116 parent_frame_id=286}
290 {file_location_id=117 parent_frame_id=286}
291 {file_location_id=120 parent_frame_id=55}
292 {file_location_id=121 parent_frame_id=55}
293 {file_location_id=114 parent_frame_id=293}
294 {file_location_id=79 parent_frame_id=294}
295 {file_location_id=115 parent_frame_id=293}
296 {file_location_id=116 parent_frame_id=293}
297 {file_location_id=117 parent_frame_id=293}
298 {file_location_id=122 parent_frame_id=55}
299 {file_location_id=83 parent_frame_id=61}
300 {file_location_id=84 parent_frame_id=300}
301 {file_location_id=85 parent_frame_id=61}
302 {file_location_id=86 parent_frame_id=62}
303 {file_location_id=87 parent_frame_id=61}
304 {file_location_id=88 parent_frame_id=62}
305 {file_location_id=89 parent_frame_id=305}
306 {file_location_id=90 parent_frame_id=62}
307 {file_location_id=89 parent_frame_id=307}
308 {file_location_id=91 parent_frame_id=62}
309 {file_location_id=92 parent_frame_id=62}
310 {file_location_id=93 parent_frame_id=61}
311 {file_location_id=94 parent_frame_id=300}
312 {file_location_id=95 parent_frame_id=300}
313 {file_location_id=96 parent_frame_id=300}
314 {file_location_id=97 parent_frame_id=300}
315 {file_location_id=98 parent_frame_id=300}
316 {file_location_id=99 parent_frame_id=300}
317 {file_location_id=100 parent_frame_id=300}
318 {file_location_id=123 parent_frame_id=55}
319 {file_location_id=124 parent_frame_id=55}
320 {file_location_id=78 parent_frame_id=320}
321 {file_location_id=79 parent_frame_id=321}
322 {file_location_id=80 parent_frame_id=320}
323 {file_location_id=81 parent_frame_id=320}
324 {file_location_id=82 parent_frame_id=320}
325 {file_location_id=125 parent_frame_id=55}
326 {file_location_id=83 parent_frame_id=67}
327 {file_location_id=84 parent_frame_id=327}
328 {file_location_id=85 parent_frame_id=67}
329 {file_location_id=86 parent_frame_id=68}
330 {file_location_id=87 parent_frame_id=67}
331 {file_location_id=88 parent_frame_id=68}
332 {file_location_id=89 parent_frame_id=332}
333 {file_location_id=90 parent_frame_id=68}
334 {file_location_id=89 parent_frame_id=334}
335 {file_location_id=91 parent_frame_id=68}
336 {file_location_id=92 parent_frame_id=68}
337 {file_location_id=93 parent_frame_id=67}
338 {file_location_id=94 parent_frame_id=327}
339 {file_location_id=95 parent_frame_id=327}
340 {file_location_id=96 parent_frame_id=327}
341 {file_location_id=97 parent_frame_id=327}
342 {file_location_id=98 parent_frame_id=327}
343 {file_location_id=99 parent_frame_id=327}
344 {file_location_id=100 parent_frame_id=327}
345 {file_location_id=126 parent_frame_id=66}
346 {file_location_id=78 parent_frame_id=346}
347 {file_location_id=79 parent_frame_id=347}
348 {file_location_id=80 parent_frame_id=346}
349 {file_location_id=81 parent_frame_id=346}
350 {file_location_id=82 parent_frame_id=346}
351 {file_location_id=127 parent_frame_id=66}
352 {file_location_id=128 parent_frame_id=73}
353 {file_location_id=84 parent_frame_id=353}
354 {file_location_id=86 parent_frame_id=74}
355 {file_location_id=129 parent_frame_id=353}
356 {file_location_id=88 parent_frame_id=74}
357 {file_location_id=89 parent_frame_id=357}
358 {file_location_id=90 parent_frame_id=74}
359 {file_location_id=89 parent_frame_id=359}
360 {file_location_id=91 parent_frame_id=74}
361 {file_location_id=92 parent_frame_id=74}
362 {file_location_id=130 parent_frame_id=353}
363 {file_location_id=94 parent_frame_id=353}
364 {file_location_id=95 parent_frame_id=353}
365 {file_location_id=97 parent_frame_id=353}
366 {file_location_id=96 parent_frame_id=353}
367 {file_location_id=98 parent_frame_id=353}
368 {file_location_id=99 parent_frame_id=353}
369 {file_location_id=100 parent_frame_id=353}
370 {file_location_id=131 parent_frame_id=353}
371 {file_location_id=132 parent_frame_id=78}
372 {file_location_id=114 parent_frame_id=372}
373 {file_location_id=79 parent_frame_id=373}
374 {file_location_id=115 parent_frame_id=372}
375 {file_location_id=133 parent_frame_id=78}
376 {file_location_id=134 parent_frame_id=376}
377 {file_location_id=135 parent_frame_id=376}
378 {file_location_id=136 parent_frame_id=376}
379 {file_location_id=137 parent_frame_id=78}
380 {file_location_id=114 parent_frame_id=380}
381 {file_location_id=79 parent_frame_id=381}
382 {file_location_id=115 parent_frame_id=380}
383 {file_location_id=138 parent_frame_id=78}
384 {file_location_id=134 parent_frame_id=384}
385 {file_location_id=135 parent_frame_id=384}
386 {file_location_id=136 parent_frame_id=384}
387 {file_location_id=139 parent_frame_id=78}
388 {file_location_id=140 parent_frame_id=78}
389 {file_location_id=141 parent_frame_id=78}
390 {file_location_id=114 parent_frame_id=390}
391 {file_location_id=79 parent_frame_id=391}
392 {file_location_id=115 parent_frame_id=390}
393 {file_location_id=142 parent_frame_id=78}
394 {file_location_id=134 parent_frame_id=394}
395 {file_location_id=135 parent_frame_id=394}
396 {file_location_id=136 parent_frame_id=394}
397 {file_location_id=143 parent_frame_id=78}
398 {file_location_id=144 parent_frame_id=78}
399 {file_location_id=145 parent_frame_id=399}
400 {file_location_id=146 parent_frame_id=399}
401 {file_location_id=147 parent_frame_id=399}
402 {file_location_id=148 parent_frame_id=78}
403 {file_location_id=114 parent_frame_id=403}
404 {file_location_id=79 parent_frame_id=404}
405 {file_location_id=115 parent_frame_id=403}
406 {file_location_id=116 parent_frame_id=403}
407 {file_location_id=117 parent_frame_id=403}
408 {file_location_id=149 parent_frame_id=72}
409 {file_location_id=128 parent_frame_id=80}
410 {file_location_id=84 parent_frame_id=410}
411 {file_location_id=86 parent_frame_id=81}
412 {file_location_id=129 parent_frame_id=410}
413 {file_location_id=88 parent_frame_id=81}
414 {file_location_id=89 parent_frame_id=414}
415 {file_location_id=90 parent_frame_id=81}
416 {file_location_id=89 parent_frame_id=416}
417 {file_location_id=91 parent_frame_id=81}
418 {file_location_id=92 parent_frame_id=81}
419 {file_location_id=130 parent_frame_id=410}
420 {file_location_id=94 parent_frame_id=410}
421 {file_location_id=95 parent_frame_id=410}
422 {file_location_id=97 parent_frame_id=410}
423 {file_location_id=96 parent_frame_id=410}
424 {file_location_id=98 parent_frame_id=410}
425 {file_location_id=99 parent_frame_id=410}
426 {file_location_id=100 parent_frame_id=410}
427 {file_location_id=131 parent_frame_id=410}
428 {file_location_id=132 parent_frame_id=85}
429 {file_location_id=114 parent_frame_id=429}
430 {file_location_id=79 parent_frame_id=430}
431 {file_location_id=115 parent_frame_id=429}
432 {file_location_id=133 parent_frame_id=85}
433 {file_location_id=134 parent_frame_id=433}
434 {file_location_id=135 parent_frame_id=433}
435 {file_location_id=136 parent_frame_id=433}
436 {file_location_id=137 parent_frame_id=85}
437 {file_location_id=114 parent_frame_id=437}
438 {file_location_id=79 parent_frame_id=438}
439 {file_location_id=115 parent_frame_id=437}
440 {file_location_id=138 parent_frame_id=85}
441 {file_location_id=134 parent_frame_id=441}
442 {file_location_id=135 parent_frame_id=441}
443 {file_location_id=136 parent_frame_id=441}
444 {file_location_id=139 parent_frame_id=85}
445 {file_location_id=140 parent_frame_id=85}
446 {file_location_id=141 parent_frame_id=85}
447 {file_location_id=114 parent_frame_id=447}
448 {file_location_id=79 parent_frame_id=448}
449 {file_location_id=115 parent_frame_id=447}
450 {file_location_id=142 parent_frame_id=85}
451 {file_location_id=134 parent_frame_id=451}
452 {file_location_id=135 parent_frame_id=451}
453 {file_location_id=136 parent_frame_id=451}
454 {file_location_id=143 parent_frame_id=85}
455 {file_location_id=144 parent_frame_id=85}
456 {file_location_id=145 parent_frame_id=456}
457 {file_location_id=146 parent_frame_id=456}
458 {file_location_id=147 parent_frame_id=456}
459 {file_location_id=148 parent_frame_id=85}
460 {file_location_id=114 parent_frame_id=460}
461 {file_location_id=79 parent_frame_id=461}
462 {file_location_id=115 parent_frame_id=460}
463 {file_location_id=116 parent_frame_id=460}
464 {file_location_id=117 parent_frame_id=460}
465 {file_location_id=150 parent_frame_id=72}
466 {file_location_id=128 parent_frame_id=87}
467 {file_location_id=84 parent_frame_id=467}
468 {file_location_id=86 parent_frame_id=88}
469 {file_location_id=129 parent_frame_id=467}
470 {file_location_id=88 parent_frame_id=88}
471 {file_location_id=89 parent_frame_id=471}
472 {file_location_id=90 parent_frame_id=88}
473 {file_location_id=89 parent_frame_id=473}
474 {file_location_id=91 parent_frame_id=88}
475 {file_location_id=92 parent_frame_id=88}
476 {file_location_id=130 parent_frame_id=467}
477 {file_location_id=94 parent_frame_id=467}
478 {file_location_id=95 parent_frame_id=467}
479 {file_location_id=97 parent_frame_id=467}
480 {file_location_id=96 parent_frame_id=467}
481 {file_location_id=98 parent_frame_id=467}
482 {file_location_id=99 parent_frame_id=467}
483 {file_location_id=100 parent_frame_id=467}
484 {file_location_id=131 parent_frame_id=467}
485 {file_location_id=151 parent_frame_id=72}
486 {file_location_id=152 parent_frame_id=486}
487 {file_location_id=153 parent_frame_id=487}
488 {file_location_id=114 parent_frame_id=488}
489 {file_location_id=79 parent_frame_id=489}
490 {file_location_id=115 parent_frame_id=488}
491 {file_location_id=116 parent_frame_id=488}
492 {file_location_id=117 parent_frame_id=488}
493 {file_location_id=154 parent_frame_id=487}
494 {file_location_id=155 parent_frame_id=487}
495 {file_location_id=156 parent_frame_id=487}
496 {file_location_id=157 parent_frame_id=486}
497 {file_location_id=114 parent_frame_id=497}
498 {file_location_id=79 parent_frame_id=498}
499 {file_location_id=115 parent_frame_id=497}
500 {file_location_id=116 parent_frame_id=497}
501 {file_location_id=117 parent_frame_id=497}
502 {file_location_id=158 parent_frame_id=72}
503 {file_location_id=159 parent_frame_id=66}
504 {file_location_id=160 parent_frame_id=66}
505 {file_location_id=78 parent_frame_id=505}
506 {file_location_id=79 parent_frame_id=506}
507 {file_location_id=80 parent_frame_id=505}
508 {file_location_id=81 parent_frame_id=505}
509 {file_location_id=82 parent_frame_id=505}
510 {file_location_id=161 parent_frame_id=66}
511 {file_location_id=162 parent_frame_id=54}
512 {file_location_id=163 parent_frame_id=512}
513 {file_location_id=78 parent_frame_id=513}
514 {file_location_id=79 parent_frame_id=514}
515 {file_location_id=80 parent_frame_id=513}
516 {file_location_id=81 parent_frame_id=513}
517 {file_location_id=82 parent_frame_id=513}
518 {file_location_id=164 parent_frame_id=55}
519 {file_location_id=78 parent_frame_id=519}
520 {file_location_id=79 parent_frame_id=520}
521 {file_location_id=80 parent_frame_id=519}
522 {file_location_id=81 parent_frame_id=519}
523 {file_location_id=82 parent_frame_id=519}
524 {file_location_id=83 parent_frame_id=94}
525 {file_location_id=84 parent_frame_id=525}
526 {file_location_id=85 parent_frame_id=94}
527 {file_location_id=86 parent_frame_id=95}
528 {file_location_id=87 parent_frame_id=94}
529 {file_location_id=88 parent_frame_id=95}
530 {file_location_id=89 parent_frame_id=530}
531 {file_location_id=90 parent_frame_id=95}
532 {file_location_id=89 parent_frame_id=532}
533 {file_location_id=91 parent_frame_id=95}
534 {file_location_id=92 parent_frame_id=95}
535 {file_location_id=93 parent_frame_id=94}
536 {file_location_id=94 parent_frame_id=525}
537 {file_location_id=95 parent_frame_id=525}
538 {file_location_id=96 parent_frame_id=525}
539 {file_location_id=97 parent_frame_id=525}
540 {file_location_id=98 parent_frame_id=525}
541 {file_location_id=99 parent_frame_id=525}
542 {file_location_id=100 parent_frame_id=525}
543 {file_location_id=101 parent_frame_id=93}
544 {file_location_id=102 parent_frame_id=93}
545 {file_location_id=78 parent_frame_id=545}
546 {file_location_id=79 parent_frame_id=546}
547 {file_location_id=80 parent_frame_id=545}
548 {file_location_id=81 parent_frame_id=545}
549 {file_location_id=82 parent_frame_id=545}
550 {file_location_id=120 parent_frame_id=93}
551 {file_location_id=121 parent_frame_id=93}
552 {file_location_id=114 parent_frame_id=552}
553 {file_location_id=79 parent_frame_id=553}
554 {file_location_id=115 parent_frame_id=552}
555 {file_location_id=116 parent_frame_id=552}
556 {file_location_id=117 parent_frame_id=552}
557 {file_location_id=122 parent_frame_id=93}
558 {file_location_id=83 parent_frame_id=99}
559 {file_location_id=84 parent_frame_id=559}
560 {file_location_id=85 parent_frame_id=99}
561 {file_location_id=86 parent_frame_id=100}
562 {file_location_id=87 parent_frame_id=99}
563 {file_location_id=88 parent_frame_id=100}
564 {file_location_id=89 parent_frame_id=564}
565 {file_location_id=90 parent_frame_id=100}
566 {file_location_id=89 parent_frame_id=566}
567 {file_location_id=91 parent_frame_id=100}
568 {file_location_id=92 parent_frame_id=100}
569 {file_location_id=93 parent_frame_id=99}
570 {file_location_id=94 parent_frame_id=559}
571 {file_location_id=95 parent_frame_id=559}
572 {file_location_id=96 parent_frame_id=559}
573 {file_location_id=97 parent_frame_id=559}
574 {file_location_id=98 parent_frame_id=559}
575 {file_location_id=99 parent_frame_id=559}
576 {file_location_id=100 parent_frame_id=559}
577 {file_location_id=123 parent_frame_id=93}
578 {file_location_id=124 parent_frame_id=93}
579 {file_location_id=78 parent_frame_id=579}
580 {file_location_id=79 parent_frame_id=580}
581 {file_location_id=80 parent_frame_id=579}
582 {file_location_id=81 parent_frame_id=579}
583 {file_location_id=82 parent_frame_id=579}
584 {file_location_id=125 parent_frame_id=93}
585 {file_location_id=83 parent_frame_id=106}
586 {file_location_id=84 parent_frame_id=586}
587 {file_location_id=85 parent_frame_id=106}
588 {file_location_id=86 parent_frame_id=107}
589 {file_location_id=87 parent_frame_id=106}
590 {file_location_id=88 parent_frame_id=107}
591 {file_location_id=89 parent_frame_id=591}
592 {file_location_id=90 parent_frame_id=107}
593 {file_location_id=89 parent_frame_id=593}
594 {file_location_id=91 parent_frame_id=107}
595 {file_location_id=92 parent_frame_id=107}
596 {file_location_id=93 parent_frame_id=106}
597 {file_location_id=94 parent_frame_id=586}
598 {file_location_id=95 parent_frame_id=586}
599 {file_location_id=96 parent_frame_id=586}
600 {file_location_id=97 parent_frame_id=586}
601 {file_location_id=98 parent_frame_id=586}
602 {file_location_id=99 parent_frame_id=586}
603 {file_location_id=100 parent_frame_id=586}
604 {file_location_id=101 parent_frame_id=105}
605 {file_location_id=102 parent_frame_id=105}
606 {file_location_id=78 parent_frame_id=606}
607 {file_location_id=79 parent_frame_id=607}
608 {file_location_id=80 parent_frame_id=606}
609 {file_location_id=81 parent_frame_id=606}
610 {file_location_id=82 parent_frame_id=606}
611 {file_location_id=120 parent_frame_id=105}
612 {file_location_id=121 parent_frame_id=105}
613 {file_location_id=114 parent_frame_id=613}
614 {file_location_id=79 parent_frame_id=614}
615 {file_location_id=115 parent_frame_id=613}
616 {file_location_id=116 parent_frame_id=613}
617 {file_location_id=117 parent_frame_id=613}
618 {file_location_id=122 parent_frame_id=105}
619 {file_location_id=83 parent_frame_id=111}
620 {file_location_id=84 parent_frame_id=620}
621 {file_location_id=85 parent_frame_id=111}
622 {file_location_id=86 parent_frame_id=112}
623 {file_location_id=87 parent_frame_id=111}
624 {file_location_id=88 parent_frame_id=112}
625 {file_location_id=89 parent_frame_id=625}
626 {file_location_id=90 parent_frame_id=112}
627 {file_location_id=89 parent_frame_id=627}
628 {file_location_id=91 parent_frame_id=112}
629 {file_location_id=92 parent_frame_id=112}
630 {file_location_id=93 parent_frame_id=111}
631 {file_location_id=94 parent_frame_id=620}
632 {file_location_id=95 parent_frame_id=620}
633 {file_location_id=96 parent_frame_id=620}
634 {file_location_id=97 parent_frame_id=620}
635 {file_location_id=98 parent_frame_id=620}
636 {file_location_id=99 parent_frame_id=620}
637 {file_location_id=100 parent_frame_id=620}
638 {file_location_id=123 parent_frame_id=105}
639 {file_location_id=124 parent_frame_id=105}
640 {file_location_id=78 parent_frame_id=640}
641 {file_location_id=79 parent_frame_id=641}
642 {file_location_id=80 parent_frame_id=640}
643 {file_location_id=81 parent_frame_id=640}
644 {file_location_id=82 parent_frame_id=640}
645 {file_location_id=125 parent_frame_id=105}
646 {file_location_id=83 parent_frame_id=117}
647 {file_location_id=84 parent_frame_id=647}
648 {file_location_id=85 parent_frame_id=117}
649 {file_location_id=86 parent_frame_id=118}
650 {file_location_id=87 parent_frame_id=117}
651 {file_location_id=88 parent_frame_id=118}
652 {file_location_id=89 parent_frame_id=652}
653 {file_location_id=90 parent_frame_id=118}
654 {file_location_id=89 parent_frame_id=654}
655 {file_location_id=91 parent_frame_id=118}
656 {file_location_id=92 parent_frame_id=118}
657 {file_location_id=93 parent_frame_id=117}
658 {file_location_id=94 parent_frame_id=647}
659 {file_location_id=95 parent_frame_id=647}
660 {file_location_id=96 parent_frame_id=647}
661 {file_location_id=97 parent_frame_id=647}
662 {file_location_id=98 parent_frame_id=647}
663 {file_location_id=99 parent_frame_id=647}
664 {file_location_id=100 parent_frame_id=647}
665 {file_location_id=126 parent_frame_id=116}
666 {file_location_id=78 parent_frame_id=666}
667 {file_location_id=79 parent_frame_id=667}
668 {file_location_id=80 parent_frame_id=666}
669 {file_location_id=81 parent_frame_id=666}
670 {file_location_id=82 parent_frame_id=666}
671 {file_location_id=127 parent_frame_id=116}
672 {file_location_id=128 parent_frame_id=123}
673 {file_location_id=84 parent_frame_id=673}
674 {file_location_id=86 parent_frame_id=124}
675 {file_location_id=129 parent_frame_id=673}
676 {file_location_id=88 parent_frame_id=124}
677 {file_location_id=89 parent_frame_id=677}
678 {file_location_id=90 parent_frame_id=124}
679 {file_location_id=89 parent_frame_id=679}
680 {file_location_id=91 parent_frame_id=124}
681 {file_location_id=92 parent_frame_id=124}
682 {file_location_id=130 parent_frame_id=673}
683 {file_location_id=94 parent_frame_id=673}
684 {file_location_id=95 parent_frame_id=673}
685 {file_location_id=97 parent_frame_id=673}
686 {file_location_id=96 parent_frame_id=673}
687 {file_location_id=98 parent_frame_id=673}
688 {file_location_id=99 parent_frame_id=673}
689 {file_location_id=100 parent_frame_id=673}
690 {file_location_id=131 parent_frame_id=673}
691 {file_location_id=132 parent_frame_id=128}
692 {file_location_id=114 parent_frame_id=692}
693 {file_location_id=79 parent_frame_id=693}
694 {file_location_id=115 parent_frame_id=692}
695 {file_location_id=133 parent_frame_id=128}
696 {file_location_id=134 parent_frame_id=696}
697 {file_location_id=135 parent_frame_id=696}
698 {file_location_id=136 parent_frame_id=696}
699 {file_location_id=137 parent_frame_id=128}
700 {file_location_id=114 parent_frame_id=700}
701 {file_location_id=79 parent_frame_id=701}
702 {file_location_id=115 parent_frame_id=700}
703 {file_location_id=138 parent_frame_id=128}
704 {file_location_id=134 parent_frame_id=704}
705 {file_location_id=135 parent_frame_id=704}
706 {file_location_id=136 parent_frame_id=704}
707 {file_location_id=139 parent_frame_id=128}
708 {file_location_id=140 parent_frame_id=128}
709 {file_location_id=141 parent_frame_id=128}
710 {file_location_id=114 parent_frame_id=710}
711 {file_location_id=79 parent_frame_id=711}
712 {file_location_id=115 parent_frame_id=710}
713 {file_location_id=142 parent_frame_id=128}
714 {file_location_id=134 parent_frame_id=714}
715 {file_location_id=135 parent_frame_id=714}
716 {file_location_id=136 parent_frame_id=714}
717 {file_location_id=143 parent_frame_id=128}
718 {file_location_id=144 parent_frame_id=128}
719 {file_location_id=145 parent_frame_id=719}
720 {file_location_id=146 parent_frame_id=719}
721 {file_location_id=147 parent_frame_id=719}
722 {file_location_id=148 parent_frame_id=128}
723 {file_location_id=114 parent_frame_id=723}
724 {file_location_id=79 parent_frame_id=724}
725 {file_location_id=115 parent_frame_id=723}
726 {file_location_id=116 parent_frame_id=723}
727 {file_location_id=117 parent_frame_id=723}
728 {file_location_id=149 parent_frame_id=122}
729 {file_location_id=128 parent_frame_id=130}
730 {file_location_id=84 parent_frame_id=730}
731 {file_location_id=86 parent_frame_id=131}
732 {file_location_id=129 parent_frame_id=730}
733 {file_location_id=88 parent_frame_id=131}
734 {file_location_id=89 parent_frame_id=734}
735 {file_location_id=90 parent_frame_id=131}
736 {file_location_id=89 parent_frame_id=736}
737 {file_location_id=91 parent_frame_id=131}
738 {file_location_id=92 parent_frame_id=131}
739 {file_location_id=130 parent_frame_id=730}
740 {file_location_id=94 parent_frame_id=730}
741 {file_location_id=95 parent_frame_id=730}
742 {file_location_id=97 parent_frame_id=730}
743 {file_location_id=96 parent_frame_id=730}
744 {file_location_id=98 parent_frame_id=730}
745 {file_location_id=99 parent_frame_id=730}
746 {file_location_id=100 parent_frame_id=730}
747 {file_location_id=131 parent_frame_id=730}
748 {file_location_id=132 parent_frame_id=135}
749 {file_location_id=114 parent_frame_id=749}
750 {file_location_id=79 parent_frame_id=750}
751 {file_location_id=115 parent_frame_id=749}
752 {file_location_id=133 parent_frame_id=135}
753 {file_location_id=134 parent_frame_id=753}
754 {file_location_id=135 parent_frame_id=753}
755 {file_location_id=136 parent_frame_id=753}
756 {file_location_id=137 parent_frame_id=135}
757 {file_location_id=114 parent_frame_id=757}
758 {file_location_id=79 parent_frame_id=758}
759 {file_location_id=115 parent_frame_id=757}
760 {file_location_id=138 parent_frame_id=135}
761 {file_location_id=134 parent_frame_id=761}
762 {file_location_id=135 parent_frame_id=761}
763 {file_location_id=136 parent_frame_id=761}
764 {file_location_id=139 parent_frame_id=135}
765 {file_location_id=140 parent_frame_id=135}
766 {file_location_id=141 parent_frame_id=135}
767 {file_location_id=114 parent_frame_id=767}
768 {file_location_id=79 parent_frame_id=768}
769 {file_location_id=115 parent_frame_id=767}
770 {file_location_id=142 parent_frame_id=135}
771 {file_location_id=134 parent_frame_id=771}
772 {file_location_id=135 parent_frame_id=771}
773 {file_location_id=136 parent_frame_id=771}
774 {file_location_id=143 parent_frame_id=135}
775 {file_location_id=144 parent_frame_id=135}
776 {file_location_id=145 parent_frame_id=776}
777 {file_location_id=146 parent_frame_id=776}
778 {file_location_id=147 parent_frame_id=776}
779 {file_location_id=148 parent_frame_id=135}
780 {file_location_id=114 parent_frame_id=780}
781 {file_location_id=79 parent_frame_id=781}
782 {file_location_id=115 parent_frame_id=780}
783 {file_location_id=116 parent_frame_id=780}
784 {file_location_id=117 parent_frame_id=780}
785 {file_location_id=150 parent_frame_id=122}
786 {file_location_id=128 parent_frame_id=137}
787 {file_location_id=84 parent_frame_id=787}
788 {file_location_id=86 parent_frame_id=138}
789 {file_location_id=129 parent_frame_id=787}
790 {file_location_id=88 parent_frame_id=138}
791 {file_location_id=89 parent_frame_id=791}
792 {file_location_id=90 parent_frame_id=138}
793 {file_location_id=89 parent_frame_id=793}
794 {file_location_id=91 parent_frame_id=138}
795 {file_location_id=92 parent_frame_id=138}
796 {file_location_id=130 parent_frame_id=787}
797 {file_location_id=94 parent_frame_id=787}
798 {file_location_id=95 parent_frame_id=787}
799 {file_location_id=97 parent_frame_id=787}
800 {file_location_id=96 parent_frame_id=787}
801 {file_location_id=98 parent_frame_id=787}
802 {file_location_id=99 parent_frame_id=787}
803 {file_location_id=100 parent_frame_id=787}
804 {file_location_id=131 parent_frame_id=787}
805 {file_location_id=151 parent_frame_id=122}
806 {file_location_id=152 parent_frame_id=806}
807 {file_location_id=153 parent_frame_id=807}
808 {file_location_id=114 parent_frame_id=808}
809 {file_location_id=79 parent_frame_id=809}
810 {file_location_id=115 parent_frame_id=808}
811 {file_location_id=116 parent_frame_id=808}
812 {file_location_id=117 parent_frame_id=808}
813 {file_location_id=154 parent_frame_id=807}
814 {file_location_id=155 parent_frame_id=807}
815 {file_location_id=156 parent_frame_id=807}
816 {file_location_id=157 parent_frame_id=806}
817 {file_location_id=114 parent_frame_id=817}
818 {file_location_id=79 parent_frame_id=818}
819 {file_location_id=115 parent_frame_id=817}
820 {file_location_id=116 parent_frame_id=817}
821 {file_location_id=117 parent_frame_id=817}
822 {file_location_id=158 parent_frame_id=122}
823 {file_location_id=159 parent_frame_id=116}
824 {file_location_id=160 parent_frame_id=116}
825 {file_location_id=78 parent_frame_id=825}
826 {file_location_id=79 parent_frame_id=826}
827 {file_location_id=80 parent_frame_id=825}
828 {file_location_id=81 parent_frame_id=825}
829 {file_location_id=82 parent_frame_id=825}
830 {file_location_id=161 parent_frame_id=116}
831 {file_location_id=83 parent_frame_id=143}
832 {file_location_id=84 parent_frame_id=832}
833 {file_location_id=85 parent_frame_id=143}
834 {file_location_id=86 parent_frame_id=144}
835 {file_location_id=87 parent_frame_id=143}
836 {file_location_id=88 parent_frame_id=144}
837 {file_location_id=89 parent_frame_id=837}
838 {file_location_id=90 parent_frame_id=144}
839 {file_location_id=89 parent_frame_id=839}
840 {file_location_id=91 parent_frame_id=144}
841 {file_location_id=92 parent_frame_id=144}
842 {file_location_id=93 parent_frame_id=143}
843 {file_location_id=94 parent_frame_id=832}
844 {file_location_id=95 parent_frame_id=832}
845 {file_location_id=96 parent_frame_id=832}
846 {file_location_id=97 parent_frame_id=832}
847 {file_location_id=98 parent_frame_id=832}
848 {file_location_id=99 parent_frame_id=832}
849 {file_location_id=100 parent_frame_id=832}
850 {file_location_id=101 parent_frame_id=142}
851 {file_location_id=102 parent_frame_id=142}
852 {file_location_id=78 parent_frame_id=852}
853 {file_location_id=79 parent_frame_id=853}
854 {file_location_id=80 parent_frame_id=852}
855 {file_location_id=81 parent_frame_id=852}
856 {file_location_id=82 parent_frame_id=852}
857 {file_location_id=120 parent_frame_id=142}
858 {file_location_id=121 parent_frame_id=142}
859 {file_location_id=114 parent_frame_id=859}
860 {file_location_id=79 parent_frame_id=860}
861 {file_location_id=115 parent_frame_id=859}
862 {file_location_id=116 parent_frame_id=859}
863 {file_location_id=117 parent_frame_id=859}
864 {file_location_id=122 parent_frame_id=142}
865 {file_location_id=83 parent_frame_id=148}
866 {file_location_id=84 parent_frame_id=866}
867 {file_location_id=85 parent_frame_id=148}
868 {file_location_id=86 parent_frame_id=149}
869 {file_location_id=87 parent_frame_id=148}
870 {file_location_id=88 parent_frame_id=149}
871 {file_location_id=89 parent_frame_id=871}
872 {file_location_id=90 parent_frame_id=149}
873 {file_location_id=89 parent_frame_id=873}
874 {file_location_id=91 parent_frame_id=149}
875 {file_location_id=92 parent_frame_id=149}
876 {file_location_id=93 parent_frame_id=148}
877 {file_location_id=94 parent_frame_id=866}
878 {file_location_id=95 parent_frame_id=866}
879 {file_location_id=96 parent_frame_id=866}
880 {file_location_id=97 parent_frame_id=866}
881 {file_location_id=98 parent_frame_id=866}
882 {file_location_id=99 parent_frame_id=866}
883 {file_location_id=100 parent_frame_id=866}
884 {file_location_id=123 parent_frame_id=142}
885 {file_location_id=124 parent_frame_id=142}
886 {file_location_id=78 parent_frame_id=886}
887 {file_location_id=79 parent_frame_id=887}
888 {file_location_id=80 parent_frame_id=886}
889 {file_location_id=81 parent_frame_id=886}
890 {file_location_id=82 parent_frame_id=886}
891 {file_location_id=125 parent_frame_id=142}
892 {file_location_id=165 parent_frame_id=153}
893 {file_location_id=83 parent_frame_id=155}
894 {file_location_id=84 parent_frame_id=894}
895 {file_location_id=85 parent_frame_id=155}
896 {file_location_id=86 parent_frame_id=156}
897 {file_location_id=87 parent_frame_id=155}
898 {file_location_id=88 parent_frame_id=156}
899 {file_location_id=89 parent_frame_id=899}
900 {file_location_id=90 parent_frame_id=156}
901 {file_location_id=89 parent_frame_id=901}
902 {file_location_id=91 parent_frame_id=156}
903 {file_location_id=92 parent_frame_id=156}
904 {file_location_id=93 parent_frame_id=155}
905 {file_location_id=94 parent_frame_id=894}
906 {file_location_id=95 parent_frame_id=894}
907 {file_location_id=96 parent_frame_id=894}
908 {file_location_id=97 parent_frame_id=894}
909 {file_location_id=98 parent_frame_id=894}
910 {file_location_id=99 parent_frame_id=894}
911 {file_location_id=100 parent_frame_id=894}
912 {file_location_id=101 parent_frame_id=154}
913 {file_location_id=102 parent_frame_id=154}
914 {file_location_id=78 parent_frame_id=914}
915 {file_location_id=79 parent_frame_id=915}
916 {file_location_id=80 parent_frame_id=914}
917 {file_location_id=81 parent_frame_id=914}
918 {file_location_id=82 parent_frame_id=914}
919 {file_location_id=120 parent_frame_id=154}
920 {file_location_id=121 parent_frame_id=154}
921 {file_location_id=114 parent_frame_id=921}
922 {file_location_id=79 parent_frame_id=922}
923 {file_location_id=115 parent_frame_id=921}
924 {file_location_id=116 parent_frame_id=921}
925 {file_location_id=117 parent_frame_id=921}
926 {file_location_id=122 parent_frame_id=154}
927 {file_location_id=83 parent_frame_id=160}
928 {file_location_id=84 parent_frame_id=928}
929 {file_location_id=85 parent_frame_id=160}
930 {file_location_id=86 parent_frame_id=161}
931 {file_location_id=87 parent_frame_id=160}
932 {file_location_id=88 parent_frame_id=161}
933 {file_location_id=89 parent_frame_id=933}
934 {file_location_id=90 parent_frame_id=161}
935 {file_location_id=89 parent_frame_id=935}
936 {file_location_id=91 parent_frame_id=161}
937 {file_location_id=92 parent_frame_id=161}
938 {file_location_id=93 parent_frame_id=160}
939 {file_location_id=94 parent_frame_id=928}
940 {file_location_id=95 parent_frame_id=928}
941 {file_location_id=96 parent_frame_id=928}
942 {file_location_id=97 parent_frame_id=928}
943 {file_location_id=98 parent_frame_id=928}
944 {file_location_id=99 parent_frame_id=928}
945 {file_location_id=100 parent_frame_id=928}
946 {file_location_id=123 parent_frame_id=154}
947 {file_location_id=124 parent_frame_id=154}
948 {file_location_id=78 parent_frame_id=948}
949 {file_location_id=79 parent_frame_id=949}
950 {file_location_id=80 parent_frame_id=948}
951 {file_location_id=81 parent_frame_id=948}
952 {file_location_id=82 parent_frame_id=948}
953 {file_location_id=164 parent_frame_id=154}
954 {file_location_id=78 parent_frame_id=954}
955 {file_location_id=79 parent_frame_id=955}
956 {file_location_id=80 parent_frame_id=954}
957 {file_location_id=81 parent_frame_id=954}
958 {file_location_id=82 parent_frame_id=954}
959 {file_location_id=125 parent_frame_id=154}
960 {file_location_id=166 parent_frame_id=153}
961 {file_location_id=167 parent_frame_id=961}
962 {file_location_id=168 parent_frame_id=961}
963 {file_location_id=78 parent_frame_id=963}
964 {file_location_id=79 parent_frame_id=964}
965 {file_location_id=80 parent_frame_id=963}
966 {file_location_id=81 parent_frame_id=963}
967 {file_location_id=82 parent_frame_id=963}
968 {file_location_id=169 parent_frame_id=165}
969 {file_location_id=83 parent_frame_id=167}
970 {file_location_id=84 parent_frame_id=970}
971 {file_location_id=85 parent_frame_id=167}
972 {file_location_id=86 parent_frame_id=168}
973 {file_location_id=87 parent_frame_id=167}
974 {file_location_id=88 parent_frame_id=168}
975 {file_location_id=89 parent_frame_id=975}
976 {file_location_id=90 parent_frame_id=168}
977 {file_location_id=89 parent_frame_id=977}
978 {file_location_id=91 parent_frame_id=168}
979 {file_location_id=92 parent_frame_id=168}
980 {file_location_id=93 parent_frame_id=167}
981 {file_location_id=94 parent_frame_id=970}
982 {file_location_id=95 parent_frame_id=970}
983 {file_location_id=96 parent_frame_id=970}
984 {file_location_id=97 parent_frame_id=970}
985 {file_location_id=98 parent_frame_id=970}
986 {file_location_id=99 parent_frame_id=970}
987 {file_location_id=100 parent_frame_id=970}
988 {file_location_id=101 parent_frame_id=166}
989 {file_location_id=102 parent_frame_id=166}
990 {file_location_id=78 parent_frame_id=990}
991 {file_location_id=79 parent_frame_id=991}
992 {file_location_id=80 parent_frame_id=990}
993 {file_location_id=81 parent_frame_id=990}
994 {file_location_id=82 parent_frame_id=990}
995 {file_location_id=120 parent_frame_id=166}
996 {file_location_id=121 parent_frame_id=166}
997 {file_location_id=114 parent_frame_id=997}
998 {file_location_id=79 parent_frame_id=998}
999 {file_location_id=115 parent_frame_id=997}
1000 {file_location_id=116 parent_frame_id=997}
1001 {file_location_id=117 parent_frame_id=997}
1002 {file_location_id=122 parent_frame_id=166}
1003 {file_location_id=83 parent_frame_id=172}
1004 {file_location_id=84 parent_frame_id=1004}
1005 {file_location_id=85 parent_frame_id=172}
1006 {file_location_id=86 parent_frame_id=173}
1007 {file_location_id=87 parent_frame_id=172}
1008 {file_location_id=88 parent_frame_id=173}
1009 {file_location_id=89 parent_frame_id=1009}
1010 {file_location_id=90 parent_frame_id=173}
1011 {file_location_id=89 parent_frame_id=1011}
1012 {file_location_id=91 parent_frame_id=173}
1013 {file_location_id=92 parent_frame_id=173}
1014 {file_location_id=93 parent_frame_id=172}
1015 {file_location_id=94 parent_frame_id=1004}
1016 {file_location_id=95 parent_frame_id=1004}
1017 {file_location_id=96 parent_frame_id=1004}
1018 {file_location_id=97 parent_frame_id=1004}
1019 {file_location_id=98 parent_frame_id=1004}
1020 {file_location_id=99 parent_frame_id=1004}
1021 {file_location_id=100 parent_frame_id=1004}
1022 {file_location_id=123 parent_frame_id=166}
1023 {file_location_id=124 parent_frame_id=166}
1024 {file_location_id=78 parent_frame_id=1024}
1025 {file_location_id=79 parent_frame_id=1025}
1026 {file_location_id=80 parent_frame_id=1024}
1027 {file_location_id=81 parent_frame_id=1024}
1028 {file_location_id=82 parent_frame_id=1024}
1029 {file_location_id=164 parent_frame_id=166}
1030 {file_location_id=78 parent_frame_id=1030}
1031 {file_location_id=79 parent_frame_id=1031}
1032 {file_location_id=80 parent_frame_id=1030}
1033 {file_location_id=81 parent_frame_id=1030}
1034 {file_location_id=82 parent_frame_id=1030}
1035 {file_location_id=125 parent_frame_id=166}
1036 {file_location_id=83 parent_frame_id=178}
1037 {file_location_id=84 parent_frame_id=1037}
1038 {file_location_id=85 parent_frame_id=178}
1039 {file_location_id=86 parent_frame_id=179}
1040 {file_location_id=87 parent_frame_id=178}
1041 {file_location_id=88 parent_frame_id=179}
1042 {file_location_id=89 parent_frame_id=1042}
1043 {file_location_id=90 parent_frame_id=179}
1044 {file_location_id=89 parent_frame_id=1044}
1045 {file_location_id=91 parent_frame_id=179}
1046 {file_location_id=92 parent_frame_id=179}
1047 {file_location_id=93 parent_frame_id=178}
1048 {file_location_id=94 parent_frame_id=1037}
1049 {file_location_id=95 parent_frame_id=1037}
1050 {file_location_id=96 parent_frame_id=1037}
1051 {file_location_id=97 parent_frame_id=1037}
1052 {file_location_id=98 parent_frame_id=1037}
1053 {file_location_id=99 parent_frame_id=1037}
1054 {file_location_id=100 parent_frame_id=1037}
1055 {file_location_id=126 parent_frame_id=177}
1056 {file_location_id=78 parent_frame_id=1056}
1057 {file_location_id=79 parent_frame_id=1057}
1058 {file_location_id=80 parent_frame_id=1056}
1059 {file_location_id=81 parent_frame_id=1056}
1060 {file_location_id=82 parent_frame_id=1056}
1061 {file_location_id=127 parent_frame_id=177}
1062 {file_location_id=128 parent_frame_id=184}
1063 {file_location_id=84 parent_frame_id=1063}
1064 {file_location_id=86 parent_frame_id=185}
1065 {file_location_id=129 parent_frame_id=1063}
1066 {file_location_id=88 parent_frame_id=185}
1067 {file_location_id=89 parent_frame_id=1067}
1068 {file_location_id=90 parent_frame_id=185}
1069 {file_location_id=89 parent_frame_id=1069}
1070 {file_location_id=91 parent_frame_id=185}
1071 {file_location_id=92 parent_frame_id=185}
1072 {file_location_id=130 parent_frame_id=1063}
1073 {file_location_id=94 parent_frame_id=1063}
1074 {file_location_id=95 parent_frame_id=1063}
1075 {file_location_id=97 parent_frame_id=1063}
1076 {file_location_id=96 parent_frame_id=1063}
1077 {file_location_id=98 parent_frame_id=1063}
1078 {file_location_id=99 parent_frame_id=1063}
1079 {file_location_id=100 parent_frame_id=1063}
1080 {file_location_id=131 parent_frame_id=1063}
1081 {file_location_id=132 parent_frame_id=189}
1082 {file_location_id=114 parent_frame_id=1082}
1083 {file_location_id=79 parent_frame_id=1083}
1084 {file_location_id=115 parent_frame_id=1082}
1085 {file_location_id=133 parent_frame_id=189}
1086 {file_location_id=134 parent_frame_id=1086}
1087 {file_location_id=135 parent_frame_id=1086}
1088 {file_location_id=136 parent_frame_id=1086}
1089 {file_location_id=137 parent_frame_id=189}
1090 {file_location_id=114 parent_frame_id=1090}
1091 {file_location_id=79 parent_frame_id=1091}
1092 {file_location_id=115 parent_frame_id=1090}
1093 {file_location_id=138 parent_frame_id=189}
1094 {file_location_id=134 parent_frame_id=1094}
1095 {file_location_id=135 parent_frame_id=1094}
1096 {file_location_id=136 parent_frame_id=1094}
1097 {file_location_id=139 parent_frame_id=189}
1098 {file_location_id=140 parent_frame_id=189}
1099 {file_location_id=141 parent_frame_id=189}
1100 {file_location_id=114 parent_frame_id=1100}
1101 {file_location_id=79 parent_frame_id=1101}
1102 {file_location_id=115 parent_frame_id=1100}
1103 {file_location_id=142 parent_frame_id=189}
1104 {file_location_id=134 parent_frame_id=1104}
1105 {file_location_id=135 parent_frame_id=1104}
1106 {file_location_id=136 parent_frame_id=1104}
1107 {file_location_id=143 parent_frame_id=189}
1108 {file_location_id=144 parent_frame_id=189}
1109 {file_location_id=145 parent_frame_id=1109}
1110 {file_location_id=146 parent_frame_id=1109}
1111 {file_location_id=147 parent_frame_id=1109}
1112 {file_location_id=148 parent_frame_id=189}
1113 {file_location_id=114 parent_frame_id=1113}
1114 {file_location_id=79 parent_frame_id=1114}
1115 {file_location_id=115 parent_frame_id=1113}
1116 {file_location_id=116 parent_frame_id=1113}
1117 {file_location_id=117 parent_frame_id=1113}
1118 {file_location_id=149 parent_frame_id=183}
1119 {file_location_id=128 parent_frame_id=191}
1120 {file_location_id=84 parent_frame_id=1120}
1121 {file_location_id=86 parent_frame_id=192}
1122 {file_location_id=129 parent_frame_id=1120}
1123 {file_location_id=88 parent_frame_id=192}
1124 {file_location_id=89 parent_frame_id=1124}
1125 {file_location_id=90 parent_frame_id=192}
1126 {file_location_id=89 parent_frame_id=1126}
1127 {file_location_id=91 parent_frame_id=192}
1128 {file_location_id=92 parent_frame_id=192}
1129 {file_location_id=130 parent_frame_id=1120}
1130 {file_location_id=94 parent_frame_id=1120}
1131 {file_location_id=95 parent_frame_id=1120}
1132 {file_location_id=97 parent_frame_id=1120}
1133 {file_location_id=96 parent_frame_id=1120}
1134 {file_location_id=98 parent_frame_id=1120}
1135 {file_location_id=99 parent_frame_id=1120}
1136 {file_location_id=100 parent_frame_id=1120}
1137 {file_location_id=131 parent_frame_id=1120}
1138 {file_location_id=132 parent_frame_id=196}
1139 {file_location_id=114 parent_frame_id=1139}
1140 {file_location_id=79 parent_frame_id=1140}
1141 {file_location_id=115 parent_frame_id=1139}
1142 {file_location_id=133 parent_frame_id=196}
1143 {file_location_id=134 parent_frame_id=1143}
1144 {file_location_id=135 parent_frame_id=1143}
1145 {file_location_id=136 parent_frame_id=1143}
1146 {file_location_id=137 parent_frame_id=196}
1147 {file_location_id=114 parent_frame_id=1147}
1148 {file_location_id=79 parent_frame_id=1148}
1149 {file_location_id=115 parent_frame_id=1147}
1150 {file_location_id=138 parent_frame_id=196}
1151 {file_location_id=134 parent_frame_id=1151}
1152 {file_location_id=135 parent_frame_id=1151}
1153 {file_location_id=136 parent_frame_id=1151}
1154 {file_location_id=139 parent_frame_id=196}
1155 {file_location_id=140 parent_frame_id=196}
1156 {file_location_id=141 parent_frame_id=196}
1157 {file_location_id=114 parent_frame_id=1157}
1158 {file_location_id=79 parent_frame_id=1158}
1159 {file_location_id=115 parent_frame_id=1157}
1160 {file_location_id=142 parent_frame_id=196}
1161 {file_location_id=134 parent_frame_id=1161}
1162 {file_location_id=135 parent_frame_id=1161}
1163 {file_location_id=136 parent_frame_id=1161}
1164 {file_location_id=143 parent_frame_id=196}
1165 {file_location_id=144 parent_frame_id=196}
1166 {file_location_id=145 parent_frame_id=1166}
1167 {file_location_id=146 parent_frame_id=1166}
1168 {file_location_id=147 parent_frame_id=1166}
1169 {file_location_id=148 parent_frame_id=196}
1170 {file_location_id=114 parent_frame_id=1170}
1171 {file_location_id=79 parent_frame_id=1171}
1172 {file_location_id=115 parent_frame_id=1170}
1173 {file_location_id=116 parent_frame_id=1170}
1174 {file_location_id=117 parent_frame_id=1170}
1175 {file_location_id=150 parent_frame_id=183}
1176 {file_location_id=128 parent_frame_id=198}
1177 {file_location_id=84 parent_frame_id=1177}
1178 {file_location_id=86 parent_frame_id=199}
1179 {file_location_id=129 parent_frame_id=1177}
1180 {file_location_id=88 parent_frame_id=199}
1181 {file_location_id=89 parent_frame_id=1181}
1182 {file_location_id=90 parent_frame_id=199}
1183 {file_location_id=89 parent_frame_id=1183}
1184 {file_location_id=91 parent_frame_id=199}
1185 {file_location_id=92 parent_frame_id=199}
1186 {file_location_id=130 parent_frame_id=1177}
1187 {file_location_id=94 parent_frame_id=1177}
1188 {file_location_id=95 parent_frame_id=1177}
1189 {file_location_id=97 parent_frame_id=1177}
1190 {file_location_id=96 parent_frame_id=1177}
1191 {file_location_id=98 parent_frame_id=1177}
1192 {file_location_id=99 parent_frame_id=1177}
1193 {file_location_id=100 parent_frame_id=1177}
1194 {file_location_id=131 parent_frame_id=1177}
1195 {file_location_id=151 parent_frame_id=183}
1196 {file_location_id=152 parent_frame_id=1196}
1197 {file_location_id=153 parent_frame_id=1197}
1198 {file_location_id=114 parent_frame_id=1198}
1199 {file_location_id=79 parent_frame_id=1199}
1200 {file_location_id=115 parent_frame_id=1198}
1201 {file_location_id=116 parent_frame_id=1198}
1202 {file_location_id=117 parent_frame_id=1198}
1203 {file_location_id=154 parent_frame_id=1197}
1204 {file_location_id=155 parent_frame_id=1197}
1205 {file_location_id=156 parent_frame_id=1197}
1206 {file_location_id=157 parent_frame_id=1196}
1207 {file_location_id=114 parent_frame_id=1207}
1208 {file_location_id=79 parent_frame_id=1208}
1209 {file_location_id=115 parent_frame_id=1207}
1210 {file_location_id=116 parent_frame_id=1207}
1211 {file_location_id=117 parent_frame_id=1207}
1212 {file_location_id=158 parent_frame_id=183}
1213 {file_location_id=159 parent_frame_id=177}
1214 {file_location_id=160 parent_frame_id=177}
1215 {file_location_id=78 parent_frame_id=1215}
1216 {file_location_id=79 parent_frame_id=1216}
1217 {file_location_id=80 parent_frame_id=1215}
1218 {file_location_id=81 parent_frame_id=1215}
1219 {file_location_id=82 parent_frame_id=1215}
1220 {file_location_id=161 parent_frame_id=177}
1221 {file_location_id=170 parent_frame_id=165}
1222 {file_location_id=167 parent_frame_id=1222}
1223 {file_location_id=168 parent_frame_id=1222}
1224 {file_location_id=78 parent_frame_id=1224}
1225 {file_location_id=79 parent_frame_id=1225}
1226 {file_location_id=80 parent_frame_id=1224}
1227 {file_location_id=81 parent_frame_id=1224}
1228 {file_location_id=82 parent_frame_id=1224}
1229 {file_location_id=83 parent_frame_id=203}
1230 {file_location_id=84 parent_frame_id=1230}
1231 {file_location_id=85 parent_frame_id=203}
1232 {file_location_id=86 parent_frame_id=204}
1233 {file_location_id=87 parent_frame_id=203}
1234 {file_location_id=88 parent_frame_id=204}
1235 {file_location_id=89 parent_frame_id=1235}
1236 {file_location_id=90 parent_frame_id=204}
1237 {file_location_id=89 parent_frame_id=1237}
1238 {file_location_id=91 parent_frame_id=204}
1239 {file_location_id=92 parent_frame_id=204}
1240 {file_location_id=93 parent_frame_id=203}
1241 {file_location_id=94 parent_frame_id=1230}
1242 {file_location_id=95 parent_frame_id=1230}
1243 {file_location_id=96 parent_frame_id=1230}
1244 {file_location_id=97 parent_frame_id=1230}
1245 {file_location_id=98 parent_frame_id=1230}
1246 {file_location_id=99 parent_frame_id=1230}
1247 {file_location_id=100 parent_frame_id=1230}
1248 {file_location_id=171 parent_frame_id=53}
1249 {file_location_id=172 parent_frame_id=53}
1250 {file_location_id=78 parent_frame_id=1250}
1251 {file_location_id=79 parent_frame_id=1251}
1252 {file_location_id=80 parent_frame_id=1250}
1253 {file_location_id=81 parent_frame_id=1250}
1254 {file_location_id=82 parent_frame_id=1250}
1255 {file_location_id=173 parent_frame_id=53}
1256 {file_location_id=174 parent_frame_id=1}
1257 {file_location_id=175 parent_frame_id=1}
1258 {file_location_id=176 parent_frame_id=1}
1259 {file_location_id=177 parent_frame_id=1}
1260 {file_location_id=178 parent_frame_id=209}
1261 {file_location_id=179 parent_frame_id=209}
1262 {file_location_id=180 parent_frame_id=209}
1263 {file_location_id=181 parent_frame_id=209}
1264 {file_location_id=182 parent_frame_id=209}
1265 {file_location_id=183 parent_frame_id=209}
1266 {file_location_id=184 parent_frame_id=209}
1267 {file_location_id=185 parent_frame_id=209}
1268 {file_location_id=186 parent_frame_id=209}
1269 {file_location_id=187 parent_frame_id=209}
1270 {file_location_id=188 parent_frame_id=209}
1271 {file_location_id=189 parent_frame_id=209}
1272 {file_location_id=190 parent_frame_id=209}
1273 {file_location_id=191 parent_frame_id=209}
1274 {file_location_id=192 parent_frame_id=209}
1275 {file_location_id=193 parent_frame_id=209}
1276 {file_location_id=194 parent_frame_id=209}
1277 {file_location_id=195 parent_frame_id=209}
1278 {file_location_id=196 parent_frame_id=209}
1279 {file_location_id=197 parent_frame_id=209}
1280 {file_location_id=198 parent_frame_id=209}
1281 {file_location_id=199 parent_frame_id=209}
1282 {file_location_id=200 parent_frame_id=209}
1283 {file_location_id=201 parent_frame_id=209}
1284 {file_location_id=202 parent_frame_id=209}
1285 {file_location_id=203 parent_frame_id=209}
1286 {file_location_id=204 parent_frame_id=209}
1287 {file_location_id=205 parent_frame_id=217}
1288 {file_location_id=206 parent_frame_id=217}
1289 {file_location_id=207 parent_frame_id=217}
1290 {file_location_id=208 parent_frame_id=217}
1291 {file_location_id=209 parent_frame_id=217}
1292 {file_location_id=210 parent_frame_id=217}
1293 {file_location_id=211 parent_frame_id=209}
1294 {file_location_id=212 parent_frame_id=4}
1295 {file_location_id=3 parent_frame_id=1295}
1296 {file_location_id=212 parent_frame_id=1296}
1297 {file_location_id=3 parent_frame_id=1297}
1298 {file_location_id=212 parent_frame_id=1298}
1299 {file_location_id=213 parent_frame_id=4}
1300 {file_location_id=214 parent_frame_id=1300}
1301 {file_location_id=215 parent_frame_id=1301}
1302 {file_location_id=216 parent_frame_id=1302}
1303 {file_location_id=217 parent_frame_id=1303}
1304 {file_location_id=25 parent_frame_id=1304}
1305 {file_location_id=12 parent_frame_id=1305}
1306 {file_location_id=13 parent_frame_id=1306}
1307 {file_location_id=14 parent_frame_id=1307}
1308 {file_location_id=218 parent_frame_id=1303}
1309 {file_location_id=25 parent_frame_id=1309}
1310 {file_location_id=12 parent_frame_id=1310}
1311 {file_location_id=13 parent_frame_id=1311}
1312 {file_location_id=14 parent_frame_id=1312}
1313 {file_location_id=219 parent_frame_id=1302}
1314 {file_location_id=220 parent_frame_id=1314}
1315 {file_location_id=25 parent_frame_id=1315}
1316 {file_location_id=12 parent_frame_id=1316}
1317 {file_location_id=13 parent_frame_id=1317}
1318 {file_location_id=14 parent_frame_id=1318}
1319 {file_location_id=221 parent_frame_id=1314}
1320 {file_location_id=222 parent_frame_id=1302}
1321 {file_location_id=217 parent_frame_id=1321}
1322 {file_location_id=25 parent_frame_id=1322}
1323 {file_location_id=12 parent_frame_id=1323}
1324 {file_location_id=13 parent_frame_id=1324}
1325 {file_location_id=14 parent_frame_id=1325}
1326 {file_location_id=218 parent_frame_id=1321}
1327 {file_location_id=25 parent_frame_id=1327}
1328 {file_location_id=12 parent_frame_id=1328}
1329 {file_location_id=13 parent_frame_id=1329}
1330 {file_location_id=14 parent_frame_id=1330}
1331 {file_location_id=223 parent_frame_id=1301}
1332 {file_location_id=224 parent_frame_id=1332}
1333 {file_location_id=217 parent_frame_id=1333}
1334 {file_location_id=25 parent_frame_id=1334}
1335 {file_location_id=12 parent_frame_id=1335}
1336 {file_location_id=13 parent_frame_id=1336}
1337 {file_location_id=14 parent_frame_id=1337}
1338 {file_location_id=218 parent_frame_id=1333}
1339 {file_location_id=25 parent_frame_id=1339}
1340 {file_location_id=12 parent_frame_id=1340}
1341 {file_location_id=13 parent_frame_id=1341}
1342 {file_location_id=14 parent_frame_id=1342}
1343 {file_location_id=225 parent_frame_id=1301}
1344 {file_location_id=25 parent_frame_id=1344}
1345 {file_location_id=12 parent_frame_id=1345}
1346 {file_location_id=13 parent_frame_id=1346}
1347 {file_location_id=14 parent_frame_id=1347}
1348 {file_location_id=226 parent_frame_id=4}
1349 {file_location_id=227 parent_frame_id=4}
1350 {file_location_id=228 parent_frame_id=4}
1351 {file_location_id=229 parent_frame_id=1351}
1352 {file_location_id=230 parent_frame_id=1351}
1353 {file_location_id=231 parent_frame_id=1351}
1354 {file_location_id=232 parent_frame_id=1351}
1355 {file_location_id=233 parent_frame_id=1351}
1356 {file_location_id=234 parent_frame_id=1351}
1357 {file_location_id=235 parent_frame_id=1351}
1358 {file_location_id=236 parent_frame_id=1351}
1359 {file_location_id=237 parent_frame_id=31}
1360 {file_location_id=238 parent_frame_id=1360}
1361 {file_location_id=239 parent_frame_id=1361}
1362 {file_location_id=240 parent_frame_id=29}
1363 {file_location_id=241 parent_frame_id=29}
1364 {file_location_id=242 parent_frame_id=1360}
1365 {file_location_id=239 parent_frame_id=1365}
1366 {file_location_id=243 parent_frame_id=1360}
1367 {file_location_id=244 parent_frame_id=34}
1368 {file_location_id=128 parent_frame_id=35}
1369 {file_location_id=84 parent_frame_id=1369}
1370 {file_location_id=86 parent_frame_id=36}
1371 {file_location_id=129 parent_frame_id=1369}
1372 {file_location_id=88 parent_frame_id=36}
1373 {file_location_id=89 parent_frame_id=1373}
1374 {file_location_id=90 parent_frame_id=36}
1375 {file_location_id=89 parent_frame_id=1375}
1376 {file_location_id=91 parent_frame_id=36}
1377 {file_location_id=92 parent_frame_id=36}
1378 {file_location_id=130 parent_frame_id=1369}
1379 {file_location_id=94 parent_frame_id=1369}
1380 {file_location_id=95 parent_frame_id=1369}
1381 {file_location_id=97 parent_frame_id=1369}
1382 {file_location_id=98 parent_frame_id=1369}
1383 {file_location_id=100 parent_frame_id=1369}
1384 {file_location_id=245 parent_frame_id=40}
1385 {file_location_id=114 parent_frame_id=1385}
1386 {file_location_id=79 parent_frame_id=1386}
1387 {file_location_id=115 parent_frame_id=1385}
1388 {file_location_id=116 parent_frame_id=1385}
1389 {file_location_id=117 parent_frame_id=1385}
1390 {file_location_id=246 parent_frame_id=40}
1391 {file_location_id=247 parent_frame_id=1391}
1392 {file_location_id=248 parent_frame_id=40}
1393 {file_location_id=114 parent_frame_id=1393}
1394 {file_location_id=79 parent_frame_id=1394}
1395 {file_location_id=115 parent_frame_id=1393}
1396 {file_location_id=116 parent_frame_id=1393}
1397 {file_location_id=117 parent_frame_id=1393}
1398 {file_location_id=249 parent_frame_id=40}
1399 {file_location_id=247 parent_frame_id=1399}
1400 {file_location_id=250 parent_frame_id=41}
1401 {file_location_id=251 parent_frame_id=40}
1402 {file_location_id=114 parent_frame_id=1402}
1403 {file_location_id=79 parent_frame_id=1403}
1404 {file_location_id=115 parent_frame_id=1402}
1405 {file_location_id=116 parent_frame_id=1402}
1406 {file_location_id=117 parent_frame_id=1402}
1407 {file_location_id=252 parent_frame_id=40}
1408 {file_location_id=247 parent_frame_id=1408}
1409 {file_location_id=253 parent_frame_id=41}
1410 {file_location_id=254 parent_frame_id=40}
1411 {file_location_id=255 parent_frame_id=1411}
1412 {file_location_id=256 parent_frame_id=1411}
1413 {file_location_id=257 parent_frame_id=1413}
1414 {file_location_id=258 parent_frame_id=1413}
1415 {file_location_id=259 parent_frame_id=1413}
1416 {file_location_id=260 parent_frame_id=40}
1417 {file_location_id=261 parent_frame_id=1417}
1418 {file_location_id=262 parent_frame_id=1417}
1419 {file_location_id=263 parent_frame_id=40}
1420 {file_location_id=264 parent_frame_id=40}
1421 {file_location_id=265 parent_frame_id=41}
1422 {file_location_id=266 parent_frame_id=40}
1423 {file_location_id=267 parent_frame_id=40}
1424 {file_location_id=268 parent_frame_id=1424}
1425 {file_location_id=269 parent_frame_id=40}
1426 {file_location_id=114 parent_frame_id=1426}
1427 {file_location_id=79 parent_frame_id=1427}
1428 {file_location_id=115 parent_frame_id=1426}
1429 {file_location_id=116 parent_frame_id=1426}
1430 {file_location_id=117 parent_frame_id=1426}
1431 {file_location_id=128 parent_frame_id=43}
1432 {file_location_id=129 parent_frame_id=1432}
1433 {file_location_id=84 parent_frame_id=1432}
1434 {file_location_id=88 parent_frame_id=44}
1435 {file_location_id=89 parent_frame_id=1435}
1436 {file_location_id=90 parent_frame_id=44}
1437 {file_location_id=89 parent_frame_id=1437}
1438 {file_location_id=91 parent_frame_id=44}
1439 {file_location_id=92 parent_frame_id=44}
1440 {file_location_id=130 parent_frame_id=1432}
1441 {file_location_id=94 parent_frame_id=1432}
1442 {file_location_id=95 parent_frame_id=1432}
1443 {file_location_id=97 parent_frame_id=1432}
1444 {file_location_id=98 parent_frame_id=1432}
1445 {file_location_id=100 parent_frame_id=1432}
1446 {file_location_id=270 parent_frame_id=34}
1447 {file_location_id=271 parent_frame_id=1447}
1448 {file_location_id=114 parent_frame_id=1448}
1449 {file_location_id=79 parent_frame_id=1449}
1450 {file_location_id=115 parent_frame_id=1448}
1451 {file_location_id=116 parent_frame_id=1448}
1452 {file_location_id=117 parent_frame_id=1448}
1453 {file_location_id=272 parent_frame_id=1447}
1454 {file_location_id=273 parent_frame_id=1454}
1455 {file_location_id=274 parent_frame_id=1454}
1456 {file_location_id=3 parent_frame_id=1456}
1457 {file_location_id=4 parent_frame_id=1457}
1458 {file_location_id=5 parent_frame_id=1458}
1459 {file_location_id=6 parent_frame_id=1459}
1460 {file_location_id=7 parent_frame_id=1460}
1461 {file_location_id=8 parent_frame_id=1461}
1462 {file_location_id=9 parent_frame_id=1462}
1463 {file_location_id=270 parent_frame_id=1463}
1464 {file_location_id=272 parent_frame_id=1464}
1465 {file_location_id=274 parent_frame_id=1465}
1466 {file_location_id=275 parent_frame_id=1454}
1467 {file_location_id=276 parent_frame_id=1447}
1468 {file_location_id=114 parent_frame_id=1468}
1469 {file_location_id=79 parent_frame_id=1469}
1470 {file_location_id=115 parent_frame_id=1468}
1471 {file_location_id=116 parent_frame_id=1468}
1472 {file_location_id=117 parent_frame_id=1468}
1473 {file_location_id=277 parent_frame_id=34}
1474 {file_location_id=128 parent_frame_id=48}
1475 {file_location_id=129 parent_frame_id=1475}
1476 {file_location_id=84 parent_frame_id=1475}
1477 {file_location_id=88 parent_frame_id=49}
1478 {file_location_id=89 parent_frame_id=1478}
1479 {file_location_id=90 parent_frame_id=49}
1480 {file_location_id=89 parent_frame_id=1480}
1481 {file_location_id=91 parent_frame_id=49}
1482 {file_location_id=92 parent_frame_id=49}
1483 {file_location_id=130 parent_frame_id=1475}
1484 {file_location_id=94 parent_frame_id=1475}
1485 {file_location_id=95 parent_frame_id=1475}
1486 {file_location_id=97 parent_frame_id=1475}
1487 {file_location_id=98 parent_frame_id=1475}
1488 {file_location_id=100 parent_frame_id=1475}
1489 {file_location_id=237 parent_frame_id=7}
1490 {file_location_id=238 parent_frame_id=1490}
1491 {file_location_id=239 parent_frame_id=1491}
1492 {file_location_id=240 parent_frame_id=5}
1493 {file_location_id=241 parent_frame_id=5}
1494 {file_location_id=242 parent_frame_id=1490}
1495 {file_location_id=239 parent_frame_id=1495}
1496 {file_location_id=243 parent_frame_id=1490}
1497 {file_location_id=244 parent_frame_id=10}
1498 {file_location_id=128 parent_frame_id=11}
1499 {file_location_id=84 parent_frame_id=1499}
1500 {file_location_id=86 parent_frame_id=12}
1501 {file_location_id=129 parent_frame_id=1499}
1502 {file_location_id=88 parent_frame_id=12}
1503 {file_location_id=89 parent_frame_id=1503}
1504 {file_location_id=90 parent_frame_id=12}
1505 {file_location_id=89 parent_frame_id=1505}
1506 {file_location_id=91 parent_frame_id=12}
1507 {file_location_id=92 parent_frame_id=12}
1508 {file_location_id=130 parent_frame_id=1499}
1509 {file_location_id=94 parent_frame_id=1499}
1510 {file_location_id=95 parent_frame_id=1499}
1511 {file_location_id=97 parent_frame_id=1499}
1512 {file_location_id=98 parent_frame_id=1499}
1513 {file_location_id=100 parent_frame_id=1499}
1514 {file_location_id=245 parent_frame_id=16}
1515 {file_location_id=114 parent_frame_id=1515}
1516 {file_location_id=79 parent_frame_id=1516}
1517 {file_location_id=115 parent_frame_id=1515}
1518 {file_location_id=116 parent_frame_id=1515}
1519 {file_location_id=117 parent_frame_id=1515}
1520 {file_location_id=246 parent_frame_id=16}
1521 {file_location_id=247 parent_frame_id=1521}
1522 {file_location_id=248 parent_frame_id=16}
1523 {file_location_id=114 parent_frame_id=1523}
1524 {file_location_id=79 parent_frame_id=1524}
1525 {file_location_id=115 parent_frame_id=1523}
1526 {file_location_id=116 parent_frame_id=1523}
1527 {file_location_id=117 parent_frame_id=1523}
1528 {file_location_id=249 parent_frame_id=16}
1529 {file_location_id=247 parent_frame_id=1529}
1530 {file_location_id=250 parent_frame_id=17}
1531 {file_location_id=251 parent_frame_id=16}
1532 {file_location_id=114 parent_frame_id=1532}
1533 {file_location_id=79 parent_frame_id=1533}
1534 {file_location_id=115 parent_frame_id=1532}
1535 {file_location_id=116 parent_frame_id=1532}
1536 {file_location_id=117 parent_frame_id=1532}
1537 {file_location_id=252 parent_frame_id=16}
1538 {file_location_id=247 parent_frame_id=1538}
1539 {file_location_id=253 parent_frame_id=17}
1540 {file_location_id=254 parent_frame_id=16}
1541 {file_location_id=255 parent_frame_id=1541}
1542 {file_location_id=256 parent_frame_id=1541}
1543 {file_location_id=257 parent_frame_id=1543}
1544 {file_location_id=258 parent_frame_id=1543}
1545 {file_location_id=259 parent_frame_id=1543}
1546 {file_location_id=260 parent_frame_id=16}
1547 {file_location_id=261 parent_frame_id=1547}
1548 {file_location_id=262 parent_frame_id=1547}
1549 {file_location_id=263 parent_frame_id=16}
1550 {file_location_id=264 parent_frame_id=16}
1551 {file_location_id=265 parent_frame_id=17}
1552 {file_location_id=266 parent_frame_id=16}
1553 {file_location_id=267 parent_frame_id=16}
1554 {file_location_id=268 parent_frame_id=1554}
1555 {file_location_id=269 parent_frame_id=16}
1556 {file_location_id=114 parent_frame_id=1556}
1557 {file_location_id=79 parent_frame_id=1557}
1558 {file_location_id=115 parent_frame_id=1556}
1559 {file_location_id=116 parent_frame_id=1556}
1560 {file_location_id=117 parent_frame_id=1556}
1561 {file_location_id=128 parent_frame_id=19}
1562 {file_location_id=129 parent_frame_id=1562}
1563 {file_location_id=84 parent_frame_id=1562}
1564 {file_location_id=88 parent_frame_id=20}
1565 {file_location_id=89 parent_frame_id=1565}
1566 {file_location_id=90 parent_frame_id=20}
1567 {file_location_id=89 parent_frame_id=1567}
1568 {file_location_id=91 parent_frame_id=20}
1569 {file_location_id=92 parent_frame_id=20}
1570 {file_location_id=130 parent_frame_id=1562}
1571 {file_location_id=94 parent_frame_id=1562}
1572 {file_location_id=95 parent_frame_id=1562}
1573 {file_location_id=97 parent_frame_id=1562}
1574 {file_location_id=98 parent_frame_id=1562}
1575 {file_location_id=100 parent_frame_id=1562}
1576 {file_location_id=270 parent_frame_id=10}
1577 {file_location_id=271 parent_frame_id=1577}
1578 {file_location_id=114 parent_frame_id=1578}
1579 {file_location_id=79 parent_frame_id=1579}
1580 {file_location_id=115 parent_frame_id=1578}
1581 {file_location_id=116 parent_frame_id=1578}
1582 {file_location_id=117 parent_frame_id=1578}
1583 {file_location_id=272 parent_frame_id=1577}
1584 {file_location_id=273 parent_frame_id=1584}
1585 {file_location_id=274 parent_frame_id=1584}
1586 {file_location_id=3 parent_frame_id=1586}
1587 {file_location_id=4 parent_frame_id=1587}
1588 {file_location_id=5 parent_frame_id=1588}
1589 {file_location_id=6 parent_frame_id=1589}
1590 {file_location_id=7 parent_frame_id=1590}
1591 {file_location_id=8 parent_frame_id=1591}
1592 {file_location_id=9 parent_frame_id=1592}
1593 {file_location_id=270 parent_frame_id=1593}
1594 {file_location_id=272 parent_frame_id=1594}
1595 {file_location_id=274 parent_frame_id=1595}
1596 {file_location_id=275 parent_frame_id=1584}
1597 {file_location_id=276 parent_frame_id=1577}
1598 {file_location_id=114 parent_frame_id=1598}
1599 {file_location_id=79 parent_frame_id=1599}
1600 {file_location_id=115 parent_frame_id=1598}
1601 {file_location_id=116 parent_frame_id=1598}
1602 {file_location_id=117 parent_frame_id=1598}
1603 {file_location_id=277 parent_frame_id=10}
1604 {file_location_id=128 parent_frame_id=24}
1605 {file_location_id=129 parent_frame_id=1605}
1606 {file_location_id=84 parent_frame_id=1605}
1607 {file_location_id=88 parent_frame_id=25}
1608 {file_location_id=89 parent_frame_id=1608}
1609 {file_location_id=90 parent_frame_id=25}
1610 {file_location_id=89 parent_frame_id=1610}
1611 {file_location_id=91 parent_frame_id=25}
1612 {file_location_id=92 parent_frame_id=25}
1613 {file_location_id=130 parent_frame_id=1605}
1614 {file_location_id=94 parent_frame_id=1605}
1615 {file_location_id=95 parent_frame_id=1605}
1616 {file_location_id=97 parent_frame_id=1605}
1617 {file_location_id=98 parent_frame_id=1605}
1618 {file_location_id=100 parent_frame_id=1605}
1619 {file_location_id=278 parent_frame_id=4}
1620 {file_location_id=279 parent_frame_id=4}
1621 {file_location_id=280 parent_frame_id=1300}
1622 {file_location_id=281 parent_frame_id=1300}
1623 {file_location_id=78 parent_frame_id=1623}
1624 {file_location_id=79 parent_frame_id=1624}
1625 {file_location_id=80 parent_frame_id=1623}
1626 {file_location_id=81 parent_frame_id=1623}
1627 {file_location_id=82 parent_frame_id=1623}
1628 {file_location_id=282 parent_frame_id=1301}
1629 {file_location_id=78 parent_frame_id=1629}
1630 {file_location_id=79 parent_frame_id=1630}
1631 {file_location_id=80 parent_frame_id=1629}
1632 {file_location_id=81 parent_frame_id=1629}
1633 {file_location_id=82 parent_frame_id=1629}
1634 {file_location_id=83 parent_frame_id=1304}
1635 {file_location_id=84 parent_frame_id=1635}
1636 {file_location_id=85 parent_frame_id=1304}
1637 {file_location_id=86 parent_frame_id=1305}
1638 {file_location_id=87 parent_frame_id=1304}
1639 {file_location_id=88 parent_frame_id=1305}
1640 {file_location_id=89 parent_frame_id=1640}
1641 {file_location_id=90 parent_frame_id=1305}
1642 {file_location_id=89 parent_frame_id=1642}
1643 {file_location_id=91 parent_frame_id=1305}
1644 {file_location_id=92 parent_frame_id=1305}
1645 {file_location_id=93 parent_frame_id=1304}
1646 {file_location_id=94 parent_frame_id=1635}
1647 {file_location_id=95 parent_frame_id=1635}
1648 {file_location_id=97 parent_frame_id=1635}
1649 {file_location_id=98 parent_frame_id=1635}
1650 {file_location_id=100 parent_frame_id=1635}
1651 {file_location_id=283 parent_frame_id=1303}
1652 {file_location_id=284 parent_frame_id=1303}
1653 {file_location_id=78 parent_frame_id=1653}
1654 {file_location_id=79 parent_frame_id=1654}
1655 {file_location_id=80 parent_frame_id=1653}
1656 {file_location_id=81 parent_frame_id=1653}
1657 {file_location_id=82 parent_frame_id=1653}
1658 {file_location_id=83 parent_frame_id=1309}
1659 {file_location_id=84 parent_frame_id=1659}
1660 {file_location_id=85 parent_frame_id=1309}
1661 {file_location_id=86 parent_frame_id=1310}
1662 {file_location_id=87 parent_frame_id=1309}
1663 {file_location_id=88 parent_frame_id=1310}
1664 {file_location_id=89 parent_frame_id=1664}
1665 {file_location_id=90 parent_frame_id=1310}
1666 {file_location_id=89 parent_frame_id=1666}
1667 {file_location_id=91 parent_frame_id=1310}
1668 {file_location_id=92 parent_frame_id=1310}
1669 {file_location_id=93 parent_frame_id=1309}
1670 {file_location_id=94 parent_frame_id=1659}
1671 {file_location_id=95 parent_frame_id=1659}
1672 {file_location_id=97 parent_frame_id=1659}
1673 {file_location_id=98 parent_frame_id=1659}
1674 {file_location_id=100 parent_frame_id=1659}
1675 {file_location_id=285 parent_frame_id=1303}
1676 {file_location_id=286 parent_frame_id=1303}
1677 {file_location_id=78 parent_frame_id=1677}
1678 {file_location_id=79 parent_frame_id=1678}
1679 {file_location_id=80 parent_frame_id=1677}
1680 {file_location_id=81 parent_frame_id=1677}
1681 {file_location_id=82 parent_frame_id=1677}
1682 {file_location_id=287 parent_frame_id=1303}
1683 {file_location_id=83 parent_frame_id=1315}
1684 {file_location_id=84 parent_frame_id=1684}
1685 {file_location_id=85 parent_frame_id=1315}
1686 {file_location_id=86 parent_frame_id=1316}
1687 {file_location_id=87 parent_frame_id=1315}
1688 {file_location_id=88 parent_frame_id=1316}
1689 {file_location_id=89 parent_frame_id=1689}
1690 {file_location_id=90 parent_frame_id=1316}
1691 {file_location_id=89 parent_frame_id=1691}
1692 {file_location_id=91 parent_frame_id=1316}
1693 {file_location_id=92 parent_frame_id=1316}
1694 {file_location_id=93 parent_frame_id=1315}
1695 {file_location_id=94 parent_frame_id=1684}
1696 {file_location_id=95 parent_frame_id=1684}
1697 {file_location_id=97 parent_frame_id=1684}
1698 {file_location_id=98 parent_frame_id=1684}
1699 {file_location_id=100 parent_frame_id=1684}
1700 {file_location_id=288 parent_frame_id=1314}
1701 {file_location_id=289 parent_frame_id=1314}
1702 {file_location_id=114 parent_frame_id=1702}
1703 {file_location_id=79 parent_frame_id=1703}
1704 {file_location_id=115 parent_frame_id=1702}
1705 {file_location_id=116 parent_frame_id=1702}
1706 {file_location_id=117 parent_frame_id=1702}
1707 {file_location_id=290 parent_frame_id=1314}
1708 {file_location_id=291 parent_frame_id=1314}
1709 {file_location_id=114 parent_frame_id=1709}
1710 {file_location_id=79 parent_frame_id=1710}
1711 {file_location_id=115 parent_frame_id=1709}
1712 {file_location_id=116 parent_frame_id=1709}
1713 {file_location_id=117 parent_frame_id=1709}
1714 {file_location_id=292 parent_frame_id=1314}
1715 {file_location_id=293 parent_frame_id=1314}
1716 {file_location_id=294 parent_frame_id=1314}
1717 {file_location_id=114 parent_frame_id=1717}
1718 {file_location_id=79 parent_frame_id=1718}
1719 {file_location_id=115 parent_frame_id=1717}
1720 {file_location_id=116 parent_frame_id=1717}
1721 {file_location_id=117 parent_frame_id=1717}
1722 {file_location_id=295 parent_frame_id=1314}
1723 {file_location_id=296 parent_frame_id=1314}
1724 {file_location_id=114 parent_frame_id=1724}
1725 {file_location_id=79 parent_frame_id=1725}
1726 {file_location_id=115 parent_frame_id=1724}
1727 {file_location_id=116 parent_frame_id=1724}
1728 {file_location_id=117 parent_frame_id=1724}
1729 {file_location_id=297 parent_frame_id=1314}
1730 {file_location_id=298 parent_frame_id=1314}
1731 {file_location_id=83 parent_frame_id=1322}
1732 {file_location_id=84 parent_frame_id=1732}
1733 {file_location_id=85 parent_frame_id=1322}
1734 {file_location_id=86 parent_frame_id=1323}
1735 {file_location_id=87 parent_frame_id=1322}
1736 {file_location_id=88 parent_frame_id=1323}
1737 {file_location_id=89 parent_frame_id=1737}
1738 {file_location_id=90 parent_frame_id=1323}
1739 {file_location_id=89 parent_frame_id=1739}
1740 {file_location_id=91 parent_frame_id=1323}
1741 {file_location_id=92 parent_frame_id=1323}
1742 {file_location_id=93 parent_frame_id=1322}
1743 {file_location_id=94 parent_frame_id=1732}
1744 {file_location_id=95 parent_frame_id=1732}
1745 {file_location_id=97 parent_frame_id=1732}
1746 {file_location_id=98 parent_frame_id=1732}
1747 {file_location_id=100 parent_frame_id=1732}
1748 {file_location_id=283 parent_frame_id=1321}
1749 {file_location_id=284 parent_frame_id=1321}
1750 {file_location_id=78 parent_frame_id=1750}
1751 {file_location_id=79 parent_frame_id=1751}
1752 {file_location_id=80 parent_frame_id=1750}
1753 {file_location_id=81 parent_frame_id=1750}
1754 {file_location_id=82 parent_frame_id=1750}
1755 {file_location_id=83 parent_frame_id=1327}
1756 {file_location_id=84 parent_frame_id=1756}
1757 {file_location_id=85 parent_frame_id=1327}
1758 {file_location_id=86 parent_frame_id=1328}
1759 {file_location_id=87 parent_frame_id=1327}
1760 {file_location_id=88 parent_frame_id=1328}
1761 {file_location_id=89 parent_frame_id=1761}
1762 {file_location_id=90 parent_frame_id=1328}
1763 {file_location_id=89 parent_frame_id=1763}
1764 {file_location_id=91 parent_frame_id=1328}
1765 {file_location_id=92 parent_frame_id=1328}
1766 {file_location_id=93 parent_frame_id=1327}
1767 {file_location_id=94 parent_frame_id=1756}
1768 {file_location_id=95 parent_frame_id=1756}
1769 {file_location_id=97 parent_frame_id=1756}
1770 {file_location_id=98 parent_frame_id=1756}
1771 {file_location_id=100 parent_frame_id=1756}
1772 {file_location_id=285 parent_frame_id=1321}
1773 {file_location_id=286 parent_frame_id=1321}
1774 {file_location_id=78 parent_frame_id=1774}
1775 {file_location_id=79 parent_frame_id=1775}
1776 {file_location_id=80 parent_frame_id=1774}
1777 {file_location_id=81 parent_frame_id=1774}
1778 {file_location_id=82 parent_frame_id=1774}
1779 {file_location_id=287 parent_frame_id=1321}
1780 {file_location_id=83 parent_frame_id=1334}
1781 {file_location_id=84 parent_frame_id=1781}
1782 {file_location_id=85 parent_frame_id=1334}
1783 {file_location_id=86 parent_frame_id=1335}
1784 {file_location_id=87 parent_frame_id=1334}
1785 {file_location_id=88 parent_frame_id=1335}
1786 {file_location_id=89 parent_frame_id=1786}
1787 {file_location_id=90 parent_frame_id=1335}
1788 {file_location_id=89 parent_frame_id=1788}
1789 {file_location_id=91 parent_frame_id=1335}
1790 {file_location_id=92 parent_frame_id=1335}
1791 {file_location_id=93 parent_frame_id=1334}
1792 {file_location_id=94 parent_frame_id=1781}
1793 {file_location_id=95 parent_frame_id=1781}
1794 {file_location_id=97 parent_frame_id=1781}
1795 {file_location_id=98 parent_frame_id=1781}
1796 {file_location_id=100 parent_frame_id=1781}
1797 {file_location_id=283 parent_frame_id=1333}
1798 {file_location_id=284 parent_frame_id=1333}
1799 {file_location_id=78 parent_frame_id=1799}
1800 {file_location_id=79 parent_frame_id=1800}
1801 {file_location_id=80 parent_frame_id=1799}
1802 {file_location_id=81 parent_frame_id=1799}
1803 {file_location_id=82 parent_frame_id=1799}
1804 {file_location_id=83 parent_frame_id=1339}
1805 {file_location_id=84 parent_frame_id=1805}
1806 {file_location_id=85 parent_frame_id=1339}
1807 {file_location_id=86 parent_frame_id=1340}
1808 {file_location_id=87 parent_frame_id=1339}
1809 {file_location_id=88 parent_frame_id=1340}
1810 {file_location_id=89 parent_frame_id=1810}
1811 {file_location_id=90 parent_frame_id=1340}
1812 {file_location_id=89 parent_frame_id=1812}
1813 {file_location_id=91 parent_frame_id=1340}
1814 {file_location_id=92 parent_frame_id=1340}
1815 {file_location_id=93 parent_frame_id=1339}
1816 {file_location_id=94 parent_frame_id=1805}
1817 {file_location_id=95 parent_frame_id=1805}
1818 {file_location_id=97 parent_frame_id=1805}
1819 {file_location_id=98 parent_frame_id=1805}
1820 {file_location_id=100 parent_frame_id=1805}
1821 {file_location_id=285 parent_frame_id=1333}
1822 {file_location_id=286 parent_frame_id=1333}
1823 {file_location_id=78 parent_frame_id=1823}
1824 {file_location_id=79 parent_frame_id=1824}
1825 {file_location_id=80 parent_frame_id=1823}
1826 {file_location_id=81 parent_frame_id=1823}
1827 {file_location_id=82 parent_frame_id=1823}
1828 {file_location_id=287 parent_frame_id=1333}
1829 {file_location_id=299 parent_frame_id=1332}
1830 {file_location_id=300 parent_frame_id=1830}
1831 {file_location_id=301 parent_frame_id=1830}
1832 {file_location_id=78 parent_frame_id=1832}
1833 {file_location_id=79 parent_frame_id=1833}
1834 {file_location_id=80 parent_frame_id=1832}
1835 {file_location_id=81 parent_frame_id=1832}
1836 {file_location_id=82 parent_frame_id=1832}
1837 {file_location_id=302 parent_frame_id=1333}
1838 {file_location_id=78 parent_frame_id=1838}
1839 {file_location_id=79 parent_frame_id=1839}
1840 {file_location_id=80 parent_frame_id=1838}
1841 {file_location_id=81 parent_frame_id=1838}
1842 {file_location_id=82 parent_frame_id=1838}
1843 {file_location_id=83 parent_frame_id=1344}
1844 {file_location_id=84 parent_frame_id=1844}
1845 {file_location_id=85 parent_frame_id=1344}
1846 {file_location_id=86 parent_frame_id=1345}
1847 {file_location_id=87 parent_frame_id=1344}
1848 {file_location_id=88 parent_frame_id=1345}
1849 {file_location_id=89 parent_frame_id=1849}
1850 {file_location_id=90 parent_frame_id=1345}
1851 {file_location_id=89 parent_frame_id=1851}
1852 {file_location_id=91 parent_frame_id=1345}
1853 {file_location_id=92 parent_frame_id=1345}
1854 {file_location_id=93 parent_frame_id=1344}
1855 {file_location_id=94 parent_frame_id=1844}
1856 {file_location_id=95 parent_frame_id=1844}
1857 {file_location_id=97 parent_frame_id=1844}
1858 {file_location_id=98 parent_frame_id=1844}
1859 {file_location_id=100 parent_frame_id=1844}
1860 {file_location_id=303 parent_frame_id=1301}
1861 {file_location_id=304 parent_frame_id=1301}
1862 {file_location_id=78 parent_frame_id=1862}
1863 {file_location_id=79 parent_frame_id=1863}
1864 {file_location_id=80 parent_frame_id=1862}
1865 {file_location_id=81 parent_frame_id=1862}
1866 {file_location_id=82 parent_frame_id=1862}
1867 {file_location_id=305 parent_frame_id=1300}
1868 {file_location_id=306 parent_frame_id=4}
1869 {file_location_id=307 parent_frame_id=4}


%threefry2x32.157 (Arg_0.14: u32[], Arg_1.12: u32[], Arg_2.6: u32[1,4,64,64], Arg_3.1: u32[1,4,64,64]) -> (u32[1,4,64,64], u32[1,4,64,64]) {
  %Arg_2.6 = u32[1,4,64,64]{3,2,1,0} parameter(2)
  %Arg_0.14 = u32[] parameter(0)
  %add.1066 = u32[1,4,64,64]{3,2,1,0} broadcast(%Arg_0.14), dimensions={}, metadata={op_name="add"}
  %add.1067 = u32[1,4,64,64]{3,2,1,0} add(%Arg_2.6, %add.1066), metadata={op_name="add"}
  %Arg_3.1 = u32[1,4,64,64]{3,2,1,0} parameter(3)
  %Arg_1.12 = u32[] parameter(1)
  %add.1068 = u32[1,4,64,64]{3,2,1,0} broadcast(%Arg_1.12), dimensions={}, metadata={op_name="add"}
  %add.1069 = u32[1,4,64,64]{3,2,1,0} add(%Arg_3.1, %add.1068), metadata={op_name="add"}
  %add.1070 = u32[1,4,64,64]{3,2,1,0} add(%add.1067, %add.1069), metadata={op_name="add"}
  %constant.132 = u32[] constant(13)
  %broadcast.43 = u32[1,4,64,64]{3,2,1,0} broadcast(%constant.132), dimensions={}
…
  %sub.2353 = f32[1,512,512,128]{3,2,1,0} subtract(%convert_element_type.3576, %sub.2352), metadata={op_name="jit(_fun)/FlaxAutoencoderKL.decode/decoder/up_blocks_3/resnets_1/norm1/sub" stack_frame_id=1781}
  %square.746 = f32[1,512,512,32,4]{4,3,2,1,0} multiply(%convert_element_type.3575, %convert_element_type.3575), metadata={op_name="jit(_fun)/FlaxAutoencoderKL.decode/decoder/up_blocks_3/resnets_1/norm1/square" stack_frame_id=1786}
  %reduce_sum.3471 = f32[1,32]{1,0} reduce(%square.746, %constant.473), dimensions={1,2,4}, to_apply=%region_490.535, metadata={op_name="jit(_fun)/FlaxAutoencoderKL.decode/decoder/up_blocks_3/resnets_1/norm1/reduce_sum" stack_frame_id=1337}
  %div.1384 = f32[1,32]{1,0} divide(%reduce_sum.3471, %broadcast.254), metadata={op_name="jit(_fun)/FlaxAutoencoderKL.decode/decoder/up_blocks_3/resnets_1/norm1/div" stack_frame_id=1337}
  %square.747 = f32[1,32]{1,0} multiply(%div.1383, %div.1383), metadata={op_name="jit(_fun)/FlaxAutoencoderKL.decode/decoder/up_blocks_3/resnets_1/norm1/square" stack_frame_id=1788}
  %sub.2349 = f32[1,32]{1,0} subtract(%div.1384, %square.747), metadata={op_name="jit(_fun)/FlaxAutoencoderKL.decode/decoder/up_blocks_3/resnets_1/norm1/sub" stack_frame_id=1789}
  %max.503 = f32[1,32]{1,0} maximum(%sub.2349, %broadcast.258), metadata={op_name="jit(_fun)/FlaxAutoencoderKL.decode/decoder/up_blocks_3/resnets_1/norm1/max" stack_frame_id=1790}
  %broadcast_in_dim.1223 = f32[1,32,4]{2,1,0} broadcast(%max.503), dimensions={0,1}, metadata={op_name="jit(_fun)/FlaxAutoencoderKL.decode/decoder/up_blocks_3/resnets_1/norm1/broadcast_in_dim" stack_frame_id=1791}
  %reshape.2482 = f32[1,1,1,128]{3,2,1,0} reshape(%broadcast_in_dim.1223), metadata={op_name="jit(_fun)/FlaxAutoencoderKL.decode/decoder/up_blocks_3/resnets_1/norm1/broadcast_in_dim;jit(_fun)/FlaxAutoencoderKL.decode/decoder/up_blocks_3/resnets_1/norm1/reshape"}
  %add.5832 = f32[1,1,1,128]{3,2,1,0} add(%reshape.2482, %broadcast.250), metadata={op_name="jit(_fun)/FlaxAutoencoderKL.decode/decoder/up_blocks_3/resnets_1/norm1/add" stack_frame_id=1792}
  %rsqrt.373 = f32[1,1,1,128]{3,2,1,0} rsqrt(%add.5832), metadata={op_name="jit(_fun)/FlaxAutoencoderKL.decode/decoder/up_blocks_3/resnets_1/norm1/rsqrt" stack_frame_id=1793}
  %flat_args_1016_.1 = bf16[1,128]{1,0} parameter(1013), sharding={replicated}, frontend_attributes={xla.sdy.sharding="#sdy.sharding<@mesh, [{\"_internal_pmap_axis_name\"}, {}]>"}, metadata={op_name="flat_args[1016]"}
  %squeeze.2174 = bf16[1,1,1,128]{3,2,1,0} reshape(%flat_args_1016_.1), metadata={op_name="jit(_fun)/FlaxAutoencoderKL.decode/decoder/up_blocks_3/resnets_1/norm1/reshape;jit(_fun)/squeeze"}
  %convert_element_type.3577 = f32[1,1,1,128]{3,2,1,0} convert(%squeeze.2174), metadata={op_name="jit(_fun)/FlaxAutoencoderKL.decode/decoder/up_blocks_3/resnets_1/norm1/convert_element_type" stack_frame_id=1794}
  %mul.3317 = f32[1,1,1,128]{3,2,1,0} multiply(%rsqrt.373, %convert_element_type.3577), metadata={op_name="jit(_fun)/FlaxAutoencoderKL.decode/decoder/up_blocks_3/resnets_1/norm1/mul" stack_frame_id=1794}
  %mul.3318 = f32[1,1,1,128]{3,2,1,0} broadcast(%mul.3317), dimensions={0,1,2,3}, metadata={op_name="jit(_fun)/FlaxAutoencoderKL.decode/decoder/up_blocks_3/resnets_1/norm1/mul" stack_frame_id=1795}
  %mul.3319 = f32[1,128]{1,0} reshape(%mul.3318), metadata={op_name="jit(_fun)/FlaxAutoencoderKL.decode/decoder/up_blocks_3/resnets_1/norm1/mul" stack_frame_id=1795}
  %mul.3320 = f32[1,512,512,128]{3,2,1,0} broadcast(%mul.3319), dimensions={0,3}, metadata={op_name="jit(_fun)/FlaxAutoencoderKL.decode/decoder/up_blocks_3/resnets_1/norm1/mul" stack_frame_id=1795}
  %mul.3321 = f32[1,512,512,128]{3,2,1,0} multiply(%sub.2353, %mul.3320), metadata={op_name="jit(_fun)/FlaxAutoencoderKL.decode/decoder/up_blocks_3/resnets_1/norm1/mul" stack_frame_id=1795}
  %flat_args_1015_.1 = bf16[1,128]{1,0} parameter(1012), sharding={replicated}, frontend_attributes={xla.sdy.sharding="#sdy.sharding<@mesh, [{\"_internal_pmap_axis_name\"}, {}]>"}, metadata={op_name="flat_args[1015]"}
  %squeeze.2175 = bf16[1,1,1,128]{3,2,1,0} reshape(%flat_args_1015_.1), metadata={op_name="jit(_fun)/FlaxAutoencoderKL.decode/decoder/up_blocks_3/resnets_1/norm1/reshape;jit(_fun)/squeeze"}
  %convert_element_type.3578 = f32[1,1,1,128]{3,2,1,0} convert(%squeeze.2175), metadata={op_name="jit(_fun)/FlaxAutoencoderKL.decode/decoder/up_blocks_3/resnets_1/norm1/convert_element_type" stack_frame_id=1796}
  %add.5833 = f32[1,1,1,128]{3,2,1,0} broadcast(%convert_element_type.3578), dimensions={0,1,2,3}, metadata={op_name="jit(_fun)/FlaxAutoencoderKL.decode/decoder/up_blocks_3/resnets_1/norm1/add" stack_frame_id=1796}
  %add.5834 = f32[1,128]{1,0} reshape(%add.5833), metadata={op_name="jit(_fun)/FlaxAutoencoderKL.decode/decoder/up_blocks_3/resnets_1/norm1/add" stack_frame_id=1796}
  %add.5835 = f32[1,512,512,128]{3,2,1,0} broadcast(%add.5834), dimensions={0,3}, metadata={op_name="jit(_fun)/FlaxAutoencoderKL.decode/decoder/up_blocks_3/resnets_1/norm1/add" stack_frame_id=1796}
  %add.5836 = f32[1,512,512,128]{3,2,1,0} add(%mul.3321, %add.5835), metadata={op_name="jit(_fun)/FlaxAutoencoderKL.decode/decoder/up_blocks_3/resnets_1/norm1/add" stack_frame_id=1796}
  %jit_silu_.189 = f32[1,512,512,128]{3,2,1,0} call(%add.5836), to_apply=%silu_31.533, metadata={op_name="jit(_fun)/FlaxAutoencoderKL.decode/decoder/up_blocks_3/resnets_1/jit(silu)" stack_frame_id=1797}
  %convert_element_type.3579 = f16[1,512,512,128]{3,2,1,0} convert(%jit_silu_.189), metadata={op_name="jit(_fun)/FlaxAutoencoderKL.decode/decoder/up_blocks_3/resnets_1/conv1/convert_element_type" stack_frame_id=1800}
  %flat_args_1012_.1 = bf16[1,3,3,128,128]{4,3,2,1,0} parameter(1009), sharding={replicated}, frontend_attributes={xla.sdy.sharding="#sdy.sharding<@mesh, [{\"_internal_pmap_axis_name\"}, {}, {}, {}, {}]>"}, metadata={op_name="flat_args[1012]"}
  %squeeze.2014 = bf16[3,3,128,128]{3,2,1,0} reshape(%flat_args_1012_.1), metadata={op_name="jit(_fun)/squeeze" stack_frame_id=2}
  %convert_element_type.3580 = f16[3,3,128,128]{3,2,1,0} convert(%squeeze.2014), metadata={op_name="jit(_fun)/FlaxAutoencoderKL.decode/decoder/up_blocks_3/resnets_1/conv1/convert_element_type" stack_frame_id=1800}
  %conv_general_dilated.263 = f16[1,512,512,128]{3,2,1,0} convolution(%convert_element_type.3579, %convert_element_type.3580), window={size=3x3 pad=1_1x1_1}, dim_labels=b01f_01io->b01f, metadata={op_name="jit(_fun)/FlaxAutoencoderKL.decode/decoder/up_blocks_3/resnets_1/conv1/conv_general_dilated" stack_frame_id=1801}
  %flat_args_1011_.1 = bf16[1,128]{1,0} parameter(1008), sharding={replicated}, frontend_attributes={xla.sdy.sharding="#sdy.sharding<@mesh, [{\"_internal_pmap_axis_name\"}, {}]>"}, metadata={op_name="flat_args[1011]"}
  %squeeze.2013 = bf16[128]{0} reshape(%flat_args_1011_.1), metadata={op_name="jit(_fun)/squeeze" stack_frame_id=2}
  %convert_element_type.3581 = f16[128]{0} convert(%squeeze.2013), metadata={op_name="jit(_fun)/FlaxAutoencoderKL.decode/decoder/up_blocks_3/resnets_1/conv1/convert_element_type" stack_frame_id=1800}
  %reshape.2483 = f16[1,1,1,128]{3,2,1,0} reshape(%convert_element_type.3581), metadata={op_name="jit(_fun)/FlaxAutoencoderKL.decode/decoder/up_blocks_3/resnets_1/conv1/reshape" stack_frame_id=1802}
  %add.5837 = f16[1,1,1,128]{3,2,1,0} broadcast(%reshape.2483), dimensions={0,1,2,3}, metadata={op_name="jit(_fun)/FlaxAutoencoderKL.decode/decoder/up_blocks_3/resnets_1/conv1/add" stack_frame_id=1803}
  %add.5838 = f16[1,128]{1,0} reshape(%add.5837), metadata={op_name="jit(_fun)/FlaxAutoencoderKL.decode/decoder/up_blocks_3/resnets_1/conv1/add" stack_frame_id=1803}
  %add.5839 = f16[1,512,512,128]{3,2,1,0} broadcast(%add.5838), dimensions={0,3}, metadata={op_name="jit(_fun)/FlaxAutoencoderKL.decode/decoder/up_blocks_3/resnets_1/conv1/add" stack_frame_id=1803}
  %add.5840 = f16[1,512,512,128]{3,2,1,0} add(%conv_general_dilated.263, %add.5839), metadata={op_name="jit(_fun)/FlaxAutoencoderKL.decode/decoder/up_blocks_3/resnets_1/conv1/add" stack_frame_id=1803}
  %convert_element_type.3583 = f32[1,512,512,128]{3,2,1,0} convert(%add.5840), metadata={op_name="jit(_fun)/FlaxAutoencoderKL.decode/decoder/up_blocks_3/resnets_1/norm2/convert_element_type" stack_frame_id=1805}
  %reshape.2484 = f16[1,512,512,32,4]{4,3,2,1,0} reshape(%add.5840), metadata={op_name="jit(_fun)/FlaxAutoencoderKL.decode/decoder/up_blocks_3/resnets_1/norm2/reshape" stack_frame_id=1806}
  %convert_element_type.3582 = f32[1,512,512,32,4]{4,3,2,1,0} convert(%reshape.2484), metadata={op_name="jit(_fun)/FlaxAutoencoderKL.decode/decoder/up_blocks_3/resnets_1/norm2/convert_element_type" stack_frame_id=1807}
  %reduce_sum.3472 = f32[1,32]{1,0} reduce(%convert_element_type.3582, %constant.473), dimensions={1,2,4}, to_apply=%region_491.536, metadata={op_name="jit(_fun)/FlaxAutoencoderKL.decode/decoder/up_blocks_3/resnets_1/norm2/reduce_sum" stack_frame_id=1342}
  %div.1385 = f32[1,32]{1,0} divide(%reduce_sum.3472, %broadcast.254), metadata={op_name="jit(_fun)/FlaxAutoencoderKL.decode/decoder/up_blocks_3/resnets_1/norm2/div" stack_frame_id=1342}
  %broadcast_in_dim.1224 = f32[1,32,4]{2,1,0} broadcast(%div.1385), dimensions={0,1}, metadata={op_name="jit(_fun)/FlaxAutoencoderKL.decode/decoder/up_blocks_3/resnets_1/norm2/broadcast_in_dim" stack_frame_id=1808}
  %reshape.2485 = f32[1,1,1,128]{3,2,1,0} reshape(%broadcast_in_dim.1224), metadata={op_name="jit(_fun)/FlaxAutoencoderKL.decode/decoder/up_blocks_3/resnets_1/norm2/broadcast_in_dim;jit(_fun)/FlaxAutoencoderKL.decode/decoder/up_blocks_3/resnets_1/norm2/reshape"}
  %sub.2355 = f32[1,1,1,128]{3,2,1,0} broadcast(%reshape.2485), dimensions={0,1,2,3}, metadata={op_name="jit(_fun)/FlaxAutoencoderKL.decode/decoder/up_blocks_3/resnets_1/norm2/sub" stack_frame_id=1805}
  %sub.2356 = f32[1,128]{1,0} reshape(%sub.2355), metadata={op_name="jit(_fun)/FlaxAutoencoderKL.decode/decoder/up_blocks_3/resnets_1/norm2/sub" stack_frame_id=1805}
  %sub.2357 = f32[1,512,512,128]{3,2,1,0} broadcast(%sub.2356), dimensions={0,3}, metadata={op_name="jit(_fun)/FlaxAutoencoderKL.decode/decoder/up_blocks_3/resnets_1/norm2/sub" stack_frame_id=1805}
  %sub.2358 = f32[1,512,512,128]{3,2,1,0} subtract(%convert_element_type.3583, %sub.2357), metadata={op_name="jit(_fun)/FlaxAutoencoderKL.decode/decoder/up_blocks_3/resnets_1/norm2/sub" stack_frame_id=1805}
  %square.748 = f32[1,512,512,32,4]{4,3,2,1,0} multiply(%convert_element_type.3582, %convert_element_type.3582), metadata={op_name="jit(_fun)/FlaxAutoencoderKL.decode/decoder/up_blocks_3/resnets_1/norm2/square" stack_frame_id=1810}
  %reduce_sum.3473 = f32[1,32]{1,0} reduce(%square.748, %constant.473), dimensions={1,2,4}, to_apply=%region_492.537, metadata={op_name="jit(_fun)/FlaxAutoencoderKL.decode/decoder/up_blocks_3/resnets_1/norm2/reduce_sum" stack_frame_id=1342}
  %div.1386 = f32[1,32]{1,0} divide(%reduce_sum.3473, %broadcast.254), metadata={op_name="jit(_fun)/FlaxAutoencoderKL.decode/decoder/up_blocks_3/resnets_1/norm2/div" stack_frame_id=1342}
  %square.749 = f32[1,32]{1,0} multiply(%div.1385, %div.1385), metadata={op_name="jit(_fun)/FlaxAutoencoderKL.decode/decoder/up_blocks_3/resnets_1/norm2/square" stack_frame_id=1812}
  %sub.2354 = f32[1,32]{1,0} subtract(%div.1386, %square.749), metadata={op_name="jit(_fun)/FlaxAutoencoderKL.decode/decoder/up_blocks_3/resnets_1/norm2/sub" stack_frame_id=1813}
  %max.504 = f32[1,32]{1,0} maximum(%sub.2354, %broadcast.258), metadata={op_name="jit(_fun)/FlaxAutoencoderKL.decode/decoder/up_blocks_3/resnets_1/norm2/max" stack_frame_id=1814}
  %broadcast_in_dim.1225 = f32[1,32,4]{2,1,0} broadcast(%max.504), dimensions={0,1}, metadata={op_name="jit(_fun)/FlaxAutoencoderKL.decode/decoder/up_blocks_3/resnets_1/norm2/broadcast_in_dim" stack_frame_id=1815}
  %reshape.2486 = f32[1,1,1,128]{3,2,1,0} reshape(%broadcast_in_dim.1225), metadata={op_name="jit(_fun)/FlaxAutoencoderKL.decode/decoder/up_blocks_3/resnets_1/norm2/broadcast_in_dim;jit(_fun)/FlaxAutoencoderKL.decode/decoder/up_blocks_3/resnets_1/norm2/reshape"}
  %add.5841 = f32[1,1,1,128]{3,2,1,0} add(%reshape.2486, %broadcast.250), metadata={op_name="jit(_fun)/FlaxAutoencoderKL.decode/decoder/up_blocks_3/resnets_1/norm2/add" stack_frame_id=1816}
  %rsqrt.374 = f32[1,1,1,128]{3,2,1,0} rsqrt(%add.5841), metadata={op_name="jit(_fun)/FlaxAutoencoderKL.decode/decoder/up_blocks_3/resnets_1/norm2/rsqrt" stack_frame_id=1817}
  %flat_args_1018_.1 = bf16[1,128]{1,0} parameter(1015), sharding={replicated}, frontend_attributes={xla.sdy.sharding="#sdy.sharding<@mesh, [{\"_internal_pmap_axis_name\"}, {}]>"}, metadata={op_name="flat_args[1018]"}
  %squeeze.2176 = bf16[1,1,1,128]{3,2,1,0} reshape(%flat_args_1018_.1), metadata={op_name="jit(_fun)/FlaxAutoencoderKL.decode/decoder/up_blocks_3/resnets_1/norm2/reshape;jit(_fun)/squeeze"}
  %convert_element_type.3584 = f32[1,1,1,128]{3,2,1,0} convert(%squeeze.2176), metadata={op_name="jit(_fun)/FlaxAutoencoderKL.decode/decoder/up_blocks_3/resnets_1/norm2/convert_element_type" stack_frame_id=1818}
  %mul.3322 = f32[1,1,1,128]{3,2,1,0} multiply(%rsqrt.374, %convert_element_type.3584), metadata={op_name="jit(_fun)/FlaxAutoencoderKL.decode/decoder/up_blocks_3/resnets_1/norm2/mul" stack_frame_id=1818}
  %mul.3323 = f32[1,1,1,128]{3,2,1,0} broadcast(%mul.3322), dimensions={0,1,2,3}, metadata={op_name="jit(_fun)/FlaxAutoencoderKL.decode/decoder/up_blocks_3/resnets_1/norm2/mul" stack_frame_id=1819}
  %mul.3324 = f32[1,128]{1,0} reshape(%mul.3323), metadata={op_name="jit(_fun)/FlaxAutoencoderKL.decode/decoder/up_blocks_3/resnets_1/norm2/mul" stack_frame_id=1819}
  %mul.3325 = f32[1,512,512,128]{3,2,1,0} broadcast(%mul.3324), dimensions={0,3}, metadata={op_name="jit(_fun)/FlaxAutoencoderKL.decode/decoder/up_blocks_3/resnets_1/norm2/mul" stack_frame_id=1819}
  %mul.3326 = f32[1,512,512,128]{3,2,1,0} multiply(%sub.2358, %mul.3325), metadata={op_name="jit(_fun)/FlaxAutoencoderKL.decode/decoder/up_blocks_3/resnets_1/norm2/mul" stack_frame_id=1819}
  %flat_args_1017_.1 = bf16[1,128]{1,0} parameter(1014), sharding={replicated}, frontend_attributes={xla.sdy.sharding="#sdy.sharding<@mesh, [{\"_internal_pmap_axis_name\"}, {}]>"}, metadata={op_name="flat_args[1017]"}
  %squeeze.2177 = bf16[1,1,1,128]{3,2,1,0} reshape(%flat_args_1017_.1), metadata={op_name="jit(_fun)/FlaxAutoencoderKL.decode/decoder/up_blocks_3/resnets_1/norm2/reshape;jit(_fun)/squeeze"}
  %convert_element_type.3585 = f32[1,1,1,128]{3,2,1,0} convert(%squeeze.2177), metadata={op_name="jit(_fun)/FlaxAutoencoderKL.decode/decoder/up_blocks_3/resnets_1/norm2/convert_element_type" stack_frame_id=1820}
  %add.5842 = f32[1,1,1,128]{3,2,1,0} broadcast(%convert_element_type.3585), dimensions={0,1,2,3}, metadata={op_name="jit(_fun)/FlaxAutoencoderKL.decode/decoder/up_blocks_3/resnets_1/norm2/add" stack_frame_id=1820}
  %add.5843 = f32[1,128]{1,0} reshape(%add.5842), metadata={op_name="jit(_fun)/FlaxAutoencoderKL.decode/decoder/up_blocks_3/resnets_1/norm2/add" stack_frame_id=1820}
  %add.5844 = f32[1,512,512,128]{3,2,1,0} broadcast(%add.5843), dimensions={0,3}, metadata={op_name="jit(_fun)/FlaxAutoencoderKL.decode/decoder/up_blocks_3/resnets_1/norm2/add" stack_frame_id=1820}
  %add.5845 = f32[1,512,512,128]{3,2,1,0} add(%mul.3326, %add.5844), metadata={op_name="jit(_fun)/FlaxAutoencoderKL.decode/decoder/up_blocks_3/resnets_1/norm2/add" stack_frame_id=1820}
  %jit_silu_.190 = f32[1,512,512,128]{3,2,1,0} call(%add.5845), to_apply=%silu_31.533, metadata={op_name="jit(_fun)/FlaxAutoencoderKL.decode/decoder/up_blocks_3/resnets_1/jit(silu)" stack_frame_id=1821}
  %convert_element_type.3586 = f16[1,512,512,128]{3,2,1,0} convert(%jit_silu_.190), metadata={op_name="jit(_fun)/FlaxAutoencoderKL.decode/decoder/up_blocks_3/resnets_1/conv2/convert_element_type" stack_frame_id=1824}
  %flat_args_1014_.1 = bf16[1,3,3,128,128]{4,3,2,1,0} parameter(1011), sharding={replicated}, frontend_attributes={xla.sdy.sharding="#sdy.sharding<@mesh, [{\"_internal_pmap_axis_name\"}, {}, {}, {}, {}]>"}, metadata={op_name="flat_args[1014]"}
  %squeeze.2016 = bf16[3,3,128,128]{3,2,1,0} reshape(%flat_args_1014_.1), metadata={op_name="jit(_fun)/squeeze" stack_frame_id=2}
  %convert_element_type.3587 = f16[3,3,128,128]{3,2,1,0} convert(%squeeze.2016), metadata={op_name="jit(_fun)/FlaxAutoencoderKL.decode/decoder/up_blocks_3/resnets_1/conv2/convert_element_type" stack_frame_id=1824}
  %conv_general_dilated.264 = f16[1,512,512,128]{3,2,1,0} convolution(%convert_element_type.3586, %convert_element_type.3587), window={size=3x3 pad=1_1x1_1}, dim_labels=b01f_01io->b01f, metadata={op_name="jit(_fun)/FlaxAutoencoderKL.decode/decoder/up_blocks_3/resnets_1/conv2/conv_general_dilated" stack_frame_id=1825}
  %flat_args_1013_.1 = bf16[1,128]{1,0} parameter(1010), sharding={replicated}, frontend_attributes={xla.sdy.sharding="#sdy.sharding<@mesh, [{\"_internal_pmap_axis_name\"}, {}]>"}, metadata={op_name="flat_args[1013]"}
  %squeeze.2015 = bf16[128]{0} reshape(%flat_args_1013_.1), metadata={op_name="jit(_fun)/squeeze" stack_frame_id=2}
  %convert_element_type.3588 = f16[128]{0} convert(%squeeze.2015), metadata={op_name="jit(_fun)/FlaxAutoencoderKL.decode/decoder/up_blocks_3/resnets_1/conv2/convert_element_type" stack_frame_id=1824}
  %reshape.2487 = f16[1,1,1,128]{3,2,1,0} reshape(%convert_element_type.3588), metadata={op_name="jit(_fun)/FlaxAutoencoderKL.decode/decoder/up_blocks_3/resnets_1/conv2/reshape" stack_frame_id=1826}
  %add.5846 = f16[1,1,1,128]{3,2,1,0} broadcast(%reshape.2487), dimensions={0,1,2,3}, metadata={op_name="jit(_fun)/FlaxAutoencoderKL.decode/decoder/up_blocks_3/resnets_1/conv2/add" stack_frame_id=1827}
  %add.5847 = f16[1,128]{1,0} reshape(%add.5846), metadata={op_name="jit(_fun)/FlaxAutoencoderKL.decode/decoder/up_blocks_3/resnets_1/conv2/add" stack_frame_id=1827}
  %add.5848 = f16[1,512,512,128]{3,2,1,0} broadcast(%add.5847), dimensions={0,3}, metadata={op_name="jit(_fun)/FlaxAutoencoderKL.decode/decoder/up_blocks_3/resnets_1/conv2/add" stack_frame_id=1827}
  %add.5849 = f16[1,512,512,128]{3,2,1,0} add(%conv_general_dilated.264, %add.5848), metadata={op_name="jit(_fun)/FlaxAutoencoderKL.decode/decoder/up_blocks_3/resnets_1/conv2/add" stack_frame_id=1827}
  %add.5850 = f16[1,512,512,128]{3,2,1,0} add(%add.5849, %add.5831), metadata={op_name="jit(_fun)/FlaxAutoencoderKL.decode/decoder/up_blocks_3/resnets_1/add" stack_frame_id=1828}
  %convert_element_type.3590 = f32[1,512,512,128]{3,2,1,0} convert(%add.5850), metadata={op_name="jit(_fun)/FlaxAutoencoderKL.decode/decoder/up_blocks_3/resnets_2/norm1/convert_element_type" stack_frame_id=1781}
  %reshape.2488 = f16[1,512,512,32,4]{4,3,2,1,0} reshape(%add.5850), metadata={op_name="jit(_fun)/FlaxAutoencoderKL.decode/decoder/up_blocks_3/resnets_2/norm1/reshape" stack_frame_id=1782}
  %convert_element_type.3589 = f32[1,512,512,32,4]{4,3,2,1,0} convert(%reshape.2488), metadata={op_name="jit(_fun)/FlaxAutoencoderKL.decode/decoder/up_blocks_3/resnets_2/norm1/convert_element_type" stack_frame_id=1783}
  %reduce_sum.3474 = f32[1,32]{1,0} reduce(%convert_element_type.3589, %constant.473), dimensions={1,2,4}, to_apply=%region_493.538, metadata={op_name="jit(_fun)/FlaxAutoencoderKL.decode/decoder/up_blocks_3/resnets_2/norm1/reduce_sum" stack_frame_id=1337}
  %div.1387 = f32[1,32]{1,0} divide(%reduce_sum.3474, %broadcast.254), metadata={op_name="jit(_fun)/FlaxAutoencoderKL.decode/decoder/up_blocks_3/resnets_2/norm1/div" stack_frame_id=1337}
  %broadcast_in_dim.1226 = f32[1,32,4]{2,1,0} broadcast(%div.1387), dimensions={0,1}, metadata={op_name="jit(_fun)/FlaxAutoencoderKL.decode/decoder/up_blocks_3/resnets_2/norm1/broadcast_in_dim" stack_frame_id=1784}
  %reshape.2489 = f32[1,1,1,128]{3,2,1,0} reshape(%broadcast_in_dim.1226), metadata={op_name="jit(_fun)/FlaxAutoencoderKL.decode/decoder/up_blocks_3/resnets_2/norm1/broadcast_in_dim;jit(_fun)/FlaxAutoencoderKL.decode/decoder/up_blocks_3/resnets_2/norm1/reshape"}
  %sub.2360 = f32[1,1,1,128]{3,2,1,0} broadcast(%reshape.2489), dimensions={0,1,2,3}, metadata={op_name="jit(_fun)/FlaxAutoencoderKL.decode/decoder/up_blocks_3/resnets_2/norm1/sub" stack_frame_id=1781}
  %sub.2361 = f32[1,128]{1,0} reshape(%sub.2360), metadata={op_name="jit(_fun)/FlaxAutoencoderKL.decode/decoder/up_blocks_3/resnets_2/norm1/sub" stack_frame_id=1781}
  %sub.2362 = f32[1,512,512,128]{3,2,1,0} broadcast(%sub.2361), dimensions={0,3}, metadata={op_name="jit(_fun)/FlaxAutoencoderKL.decode/decoder/up_blocks_3/resnets_2/norm1/sub" stack_frame_id=1781}
  %sub.2363 = f32[1,512,512,128]{3,2,1,0} subtract(%convert_element_type.3590, %sub.2362), metadata={op_name="jit(_fun)/FlaxAutoencoderKL.decode/decoder/up_blocks_3/resnets_2/norm1/sub" stack_frame_id=1781}
  %square.750 = f32[1,512,512,32,4]{4,3,2,1,0} multiply(%convert_element_type.3589, %convert_element_type.3589), metadata={op_name="jit(_fun)/FlaxAutoencoderKL.decode/decoder/up_blocks_3/resnets_2/norm1/square" stack_frame_id=1786}
  %reduce_sum.3475 = f32[1,32]{1,0} reduce(%square.750, %constant.473), dimensions={1,2,4}, to_apply=%region_494.539, metadata={op_name="jit(_fun)/FlaxAutoencoderKL.decode/decoder/up_blocks_3/resnets_2/norm1/reduce_sum" stack_frame_id=1337}
  %div.1388 = f32[1,32]{1,0} divide(%reduce_sum.3475, %broadcast.254), metadata={op_name="jit(_fun)/FlaxAutoencoderKL.decode/decoder/up_blocks_3/resnets_2/norm1/div" stack_frame_id=1337}
  %square.751 = f32[1,32]{1,0} multiply(%div.1387, %div.1387), metadata={op_name="jit(_fun)/FlaxAutoencoderKL.decode/decoder/up_blocks_3/resnets_2/norm1/square" stack_frame_id=1788}
  %sub.2359 = f32[1,32]{1,0} subtract(%div.1388, %square.751), metadata={op_name="jit(_fun)/FlaxAutoencoderKL.decode/decoder/up_blocks_3/resnets_2/norm1/sub" stack_frame_id=1789}
  %max.505 = f32[1,32]{1,0} maximum(%sub.2359, %broadcast.258), metadata={op_name="jit(_fun)/FlaxAutoencoderKL.decode/decoder/up_blocks_3/resnets_2/norm1/max" stack_frame_id=1790}
  %broadcast_in_dim.1227 = f32[1,32,4]{2,1,0} broadcast(%max.505), dimensions={0,1}, metadata={op_name="jit(_fun)/FlaxAutoencoderKL.decode/decoder/up_blocks_3/resnets_2/norm1/broadcast_in_dim" stack_frame_id=1791}
  %reshape.2490 = f32[1,1,1,128]{3,2,1,0} reshape(%broadcast_in_dim.1227), metadata={op_name="jit(_fun)/FlaxAutoencoderKL.decode/decoder/up_blocks_3/resnets_2/norm1/broadcast_in_dim;jit(_fun)/FlaxAutoencoderKL.decode/decoder/up_blocks_3/resnets_2/norm1/reshape"}
  %add.5851 = f32[1,1,1,128]{3,2,1,0} add(%reshape.2490, %broadcast.250), metadata={op_name="jit(_fun)/FlaxAutoencoderKL.decode/decoder/up_blocks_3/resnets_2/norm1/add" stack_frame_id=1792}
  %rsqrt.375 = f32[1,1,1,128]{3,2,1,0} rsqrt(%add.5851), metadata={op_name="jit(_fun)/FlaxAutoencoderKL.decode/decoder/up_blocks_3/resnets_2/norm1/rsqrt" stack_frame_id=1793}
  %flat_args_1024_.1 = bf16[1,128]{1,0} parameter(1021), sharding={replicated}, frontend_attributes={xla.sdy.sharding="#sdy.sharding<@mesh, [{\"_internal_pmap_axis_name\"}, {}]>"}, metadata={op_name="flat_args[1024]"}
  %squeeze.2178 = bf16[1,1,1,128]{3,2,1,0} reshape(%flat_args_1024_.1), metadata={op_name="jit(_fun)/FlaxAutoencoderKL.decode/decoder/up_blocks_3/resnets_2/norm1/reshape;jit(_fun)/squeeze"}
  %convert_element_type.3591 = f32[1,1,1,128]{3,2,1,0} convert(%squeeze.2178), metadata={op_name="jit(_fun)/FlaxAutoencoderKL.decode/decoder/up_blocks_3/resnets_2/norm1/convert_element_type" stack_frame_id=1794}
  %mul.3327 = f32[1,1,1,128]{3,2,1,0} multiply(%rsqrt.375, %convert_element_type.3591), metadata={op_name="jit(_fun)/FlaxAutoencoderKL.decode/decoder/up_blocks_3/resnets_2/norm1/mul" stack_frame_id=1794}
  %mul.3328 = f32[1,1,1,128]{3,2,1,0} broadcast(%mul.3327), dimensions={0,1,2,3}, metadata={op_name="jit(_fun)/FlaxAutoencoderKL.decode/decoder/up_blocks_3/resnets_2/norm1/mul" stack_frame_id=1795}
  %mul.3329 = f32[1,128]{1,0} reshape(%mul.3328), metadata={op_name="jit(_fun)/FlaxAutoencoderKL.decode/decoder/up_blocks_3/resnets_2/norm1/mul" stack_frame_id=1795}
  %mul.3330 = f32[1,512,512,128]{3,2,1,0} broadcast(%mul.3329), dimensions={0,3}, metadata={op_name="jit(_fun)/FlaxAutoencoderKL.decode/decoder/up_blocks_3/resnets_2/norm1/mul" stack_frame_id=1795}
  %mul.3331 = f32[1,512,512,128]{3,2,1,0} multiply(%sub.2363, %mul.3330), metadata={op_name="jit(_fun)/FlaxAutoencoderKL.decode/decoder/up_blocks_3/resnets_2/norm1/mul" stack_frame_id=1795}
  %flat_args_1023_.1 = bf16[1,128]{1,0} parameter(1020), sharding={replicated}, frontend_attributes={xla.sdy.sharding="#sdy.sharding<@mesh, [{\"_internal_pmap_axis_name\"}, {}]>"}, metadata={op_name="flat_args[1023]"}
  %squeeze.2179 = bf16[1,1,1,128]{3,2,1,0} reshape(%flat_args_1023_.1), metadata={op_name="jit(_fun)/FlaxAutoencoderKL.decode/decoder/up_blocks_3/resnets_2/norm1/reshape;jit(_fun)/squeeze"}
  %convert_element_type.3592 = f32[1,1,1,128]{3,2,1,0} convert(%squeeze.2179), metadata={op_name="jit(_fun)/FlaxAutoencoderKL.decode/decoder/up_blocks_3/resnets_2/norm1/convert_element_type" stack_frame_id=1796}
  %add.5852 = f32[1,1,1,128]{3,2,1,0} broadcast(%convert_element_type.3592), dimensions={0,1,2,3}, metadata={op_name="jit(_fun)/FlaxAutoencoderKL.decode/decoder/up_blocks_3/resnets_2/norm1/add" stack_frame_id=1796}
  %add.5853 = f32[1,128]{1,0} reshape(%add.5852), metadata={op_name="jit(_fun)/FlaxAutoencoderKL.decode/decoder/up_blocks_3/resnets_2/norm1/add" stack_frame_id=1796}
  %add.5854 = f32[1,512,512,128]{3,2,1,0} broadcast(%add.5853), dimensions={0,3}, metadata={op_name="jit(_fun)/FlaxAutoencoderKL.decode/decoder/up_blocks_3/resnets_2/norm1/add" stack_frame_id=1796}
  %add.5855 = f32[1,512,512,128]{3,2,1,0} add(%mul.3331, %add.5854), metadata={op_name="jit(_fun)/FlaxAutoencoderKL.decode/decoder/up_blocks_3/resnets_2/norm1/add" stack_frame_id=1796}
  %jit_silu_.191 = f32[1,512,512,128]{3,2,1,0} call(%add.5855), to_apply=%silu_31.533, metadata={op_name="jit(_fun)/FlaxAutoencoderKL.decode/decoder/up_blocks_3/resnets_2/jit(silu)" stack_frame_id=1797}
  %convert_element_type.3593 = f16[1,512,512,128]{3,2,1,0} convert(%jit_silu_.191), metadata={op_name="jit(_fun)/FlaxAutoencoderKL.decode/decoder/up_blocks_3/resnets_2/conv1/convert_element_type" stack_frame_id=1800}
  %flat_args_1020_.1 = bf16[1,3,3,128,128]{4,3,2,1,0} parameter(1017), sharding={replicated}, frontend_attributes={xla.sdy.sharding="#sdy.sharding<@mesh, [{\"_internal_pmap_axis_name\"}, {}, {}, {}, {}]>"}, metadata={op_name="flat_args[1020]"}
  %squeeze.2018 = bf16[3,3,128,128]{3,2,1,0} reshape(%flat_args_1020_.1), metadata={op_name="jit(_fun)/squeeze" stack_frame_id=2}
  %convert_element_type.3594 = f16[3,3,128,128]{3,2,1,0} convert(%squeeze.2018), metadata={op_name="jit(_fun)/FlaxAutoencoderKL.decode/decoder/up_blocks_3/resnets_2/conv1/convert_element_type" stack_frame_id=1800}
  %conv_general_dilated.265 = f16[1,512,512,128]{3,2,1,0} convolution(%convert_element_type.3593, %convert_element_type.3594), window={size=3x3 pad=1_1x1_1}, dim_labels=b01f_01io->b01f, metadata={op_name="jit(_fun)/FlaxAutoencoderKL.decode/decoder/up_blocks_3/resnets_2/conv1/conv_general_dilated" stack_frame_id=1801}
  %flat_args_1019_.1 = bf16[1,128]{1,0} parameter(1016), sharding={replicated}, frontend_attributes={xla.sdy.sharding="#sdy.sharding<@mesh, [{\"_internal_pmap_axis_name\"}, {}]>"}, metadata={op_name="flat_args[1019]"}
  %squeeze.2017 = bf16[128]{0} reshape(%flat_args_1019_.1), metadata={op_name="jit(_fun)/squeeze" stack_frame_id=2}
  %convert_element_type.3595 = f16[128]{0} convert(%squeeze.2017), metadata={op_name="jit(_fun)/FlaxAutoencoderKL.decode/decoder/up_blocks_3/resnets_2/conv1/convert_element_type" stack_frame_id=1800}
  %reshape.2491 = f16[1,1,1,128]{3,2,1,0} reshape(%convert_element_type.3595), metadata={op_name="jit(_fun)/FlaxAutoencoderKL.decode/decoder/up_blocks_3/resnets_2/conv1/reshape" stack_frame_id=1802}
  %add.5856 = f16[1,1,1,128]{3,2,1,0} broadcast(%reshape.2491), dimensions={0,1,2,3}, metadata={op_name="jit(_fun)/FlaxAutoencoderKL.decode/decoder/up_blocks_3/resnets_2/conv1/add" stack_frame_id=1803}
  %add.5857 = f16[1,128]{1,0} reshape(%add.5856), metadata={op_name="jit(_fun)/FlaxAutoencoderKL.decode/decoder/up_blocks_3/resnets_2/conv1/add" stack_frame_id=1803}
  %add.5858 = f16[1,512,512,128]{3,2,1,0} broadcast(%add.5857), dimensions={0,3}, metadata={op_name="jit(_fun)/FlaxAutoencoderKL.decode/decoder/up_blocks_3/resnets_2/conv1/add" stack_frame_id=1803}
  %add.5859 = f16[1,512,512,128]{3,2,1,0} add(%conv_general_dilated.265, %add.5858), metadata={op_name="jit(_fun)/FlaxAutoencoderKL.decode/decoder/up_blocks_3/resnets_2/conv1/add" stack_frame_id=1803}
  %convert_element_type.3597 = f32[1,512,512,128]{3,2,1,0} convert(%add.5859), metadata={op_name="jit(_fun)/FlaxAutoencoderKL.decode/decoder/up_blocks_3/resnets_2/norm2/convert_element_type" stack_frame_id=1805}
  %reshape.2492 = f16[1,512,512,32,4]{4,3,2,1,0} reshape(%add.5859), metadata={op_name="jit(_fun)/FlaxAutoencoderKL.decode/decoder/up_blocks_3/resnets_2/norm2/reshape" stack_frame_id=1806}
  %convert_element_type.3596 = f32[1,512,512,32,4]{4,3,2,1,0} convert(%reshape.2492), metadata={op_name="jit(_fun)/FlaxAutoencoderKL.decode/decoder/up_blocks_3/resnets_2/norm2/convert_element_type" stack_frame_id=1807}
  %reduce_sum.3476 = f32[1,32]{1,0} reduce(%convert_element_type.3596, %constant.473), dimensions={1,2,4}, to_apply=%region_495.540, metadata={op_name="jit(_fun)/FlaxAutoencoderKL.decode/decoder/up_blocks_3/resnets_2/norm2/reduce_sum" stack_frame_id=1342}
  %div.1389 = f32[1,32]{1,0} divide(%reduce_sum.3476, %broadcast.254), metadata={op_name="jit(_fun)/FlaxAutoencoderKL.decode/decoder/up_blocks_3/resnets_2/norm2/div" stack_frame_id=1342}
  %broadcast_in_dim.1228 = f32[1,32,4]{2,1,0} broadcast(%div.1389), dimensions={0,1}, metadata={op_name="jit(_fun)/FlaxAutoencoderKL.decode/decoder/up_blocks_3/resnets_2/norm2/broadcast_in_dim" stack_frame_id=1808}
  %reshape.2493 = f32[1,1,1,128]{3,2,1,0} reshape(%broadcast_in_dim.1228), metadata={op_name="jit(_fun)/FlaxAutoencoderKL.decode/decoder/up_blocks_3/resnets_2/norm2/broadcast_in_dim;jit(_fun)/FlaxAutoencoderKL.decode/decoder/up_blocks_3/resnets_2/norm2/reshape"}
  %sub.2365 = f32[1,1,1,128]{3,2,1,0} broadcast(%reshape.2493), dimensions={0,1,2,3}, metadata={op_name="jit(_fun)/FlaxAutoencoderKL.decode/decoder/up_blocks_3/resnets_2/norm2/sub" stack_frame_id=1805}
  %sub.2366 = f32[1,128]{1,0} reshape(%sub.2365), metadata={op_name="jit(_fun)/FlaxAutoencoderKL.decode/decoder/up_blocks_3/resnets_2/norm2/sub" stack_frame_id=1805}
  %sub.2367 = f32[1,512,512,128]{3,2,1,0} broadcast(%sub.2366), dimensions={0,3}, metadata={op_name="jit(_fun)/FlaxAutoencoderKL.decode/decoder/up_blocks_3/resnets_2/norm2/sub" stack_frame_id=1805}
  %sub.2368 = f32[1,512,512,128]{3,2,1,0} subtract(%convert_element_type.3597, %sub.2367), metadata={op_name="jit(_fun)/FlaxAutoencoderKL.decode/decoder/up_blocks_3/resnets_2/norm2/sub" stack_frame_id=1805}
  %square.752 = f32[1,512,512,32,4]{4,3,2,1,0} multiply(%convert_element_type.3596, %convert_element_type.3596), metadata={op_name="jit(_fun)/FlaxAutoencoderKL.decode/decoder/up_blocks_3/resnets_2/norm2/square" stack_frame_id=1810}
  %reduce_sum.3477 = f32[1,32]{1,0} reduce(%square.752, %constant.473), dimensions={1,2,4}, to_apply=%region_496.541, metadata={op_name="jit(_fun)/FlaxAutoencoderKL.decode/decoder/up_blocks_3/resnets_2/norm2/reduce_sum" stack_frame_id=1342}
  %div.1390 = f32[1,32]{1,0} divide(%reduce_sum.3477, %broadcast.254), metadata={op_name="jit(_fun)/FlaxAutoencoderKL.decode/decoder/up_blocks_3/resnets_2/norm2/div" stack_frame_id=1342}
  %square.753 = f32[1,32]{1,0} multiply(%div.1389, %div.1389), metadata={op_name="jit(_fun)/FlaxAutoencoderKL.decode/decoder/up_blocks_3/resnets_2/norm2/square" stack_frame_id=1812}
  %sub.2364 = f32[1,32]{1,0} subtract(%div.1390, %square.753), metadata={op_name="jit(_fun)/FlaxAutoencoderKL.decode/decoder/up_blocks_3/resnets_2/norm2/sub" stack_frame_id=1813}
  %max.506 = f32[1,32]{1,0} maximum(%sub.2364, %broadcast.258), metadata={op_name="jit(_fun)/FlaxAutoencoderKL.decode/decoder/up_blocks_3/resnets_2/norm2/max" stack_frame_id=1814}
  %broadcast_in_dim.1229 = f32[1,32,4]{2,1,0} broadcast(%max.506), dimensions={0,1}, metadata={op_name="jit(_fun)/FlaxAutoencoderKL.decode/decoder/up_blocks_3/resnets_2/norm2/broadcast_in_dim" stack_frame_id=1815}
  %reshape.2494 = f32[1,1,1,128]{3,2,1,0} reshape(%broadcast_in_dim.1229), metadata={op_name="jit(_fun)/FlaxAutoencoderKL.decode/decoder/up_blocks_3/resnets_2/norm2/broadcast_in_dim;jit(_fun)/FlaxAutoencoderKL.decode/decoder/up_blocks_3/resnets_2/norm2/reshape"}
  %add.5860 = f32[1,1,1,128]{3,2,1,0} add(%reshape.2494, %broadcast.250), metadata={op_name="jit(_fun)/FlaxAutoencoderKL.decode/decoder/up_blocks_3/resnets_2/norm2/add" stack_frame_id=1816}
  %rsqrt.376 = f32[1,1,1,128]{3,2,1,0} rsqrt(%add.5860), metadata={op_name="jit(_fun)/FlaxAutoencoderKL.decode/decoder/up_blocks_3/resnets_2/norm2/rsqrt" stack_frame_id=1817}
  %flat_args_1026_.1 = bf16[1,128]{1,0} parameter(1023), sharding={replicated}, frontend_attributes={xla.sdy.sharding="#sdy.sharding<@mesh, [{\"_internal_pmap_axis_name\"}, {}]>"}, metadata={op_name="flat_args[1026]"}
  %squeeze.2180 = bf16[1,1,1,128]{3,2,1,0} reshape(%flat_args_1026_.1), metadata={op_name="jit(_fun)/FlaxAutoencoderKL.decode/decoder/up_blocks_3/resnets_2/norm2/reshape;jit(_fun)/squeeze"}
  %convert_element_type.3598 = f32[1,1,1,128]{3,2,1,0} convert(%squeeze.2180), metadata={op_name="jit(_fun)/FlaxAutoencoderKL.decode/decoder/up_blocks_3/resnets_2/norm2/convert_element_type" stack_frame_id=1818}
  %mul.3332 = f32[1,1,1,128]{3,2,1,0} multiply(%rsqrt.376, %convert_element_type.3598), metadata={op_name="jit(_fun)/FlaxAutoencoderKL.decode/decoder/up_blocks_3/resnets_2/norm2/mul" stack_frame_id=1818}
  %mul.3333 = f32[1,1,1,128]{3,2,1,0} broadcast(%mul.3332), dimensions={0,1,2,3}, metadata={op_name="jit(_fun)/FlaxAutoencoderKL.decode/decoder/up_blocks_3/resnets_2/norm2/mul" stack_frame_id=1819}
  %mul.3334 = f32[1,128]{1,0} reshape(%mul.3333), metadata={op_name="jit(_fun)/FlaxAutoencoderKL.decode/decoder/up_blocks_3/resnets_2/norm2/mul" stack_frame_id=1819}
  %mul.3335 = f32[1,512,512,128]{3,2,1,0} broadcast(%mul.3334), dimensions={0,3}, metadata={op_name="jit(_fun)/FlaxAutoencoderKL.decode/decoder/up_blocks_3/resnets_2/norm2/mul" stack_frame_id=1819}
  %mul.3336 = f32[1,512,512,128]{3,2,1,0} multiply(%sub.2368, %mul.3335), metadata={op_name="jit(_fun)/FlaxAutoencoderKL.decode/decoder/up_blocks_3/resnets_2/norm2/mul" stack_frame_id=1819}
  %flat_args_1025_.1 = bf16[1,128]{1,0} parameter(1022), sharding={replicated}, frontend_attributes={xla.sdy.sharding="#sdy.sharding<@mesh, [{\"_internal_pmap_axis_name\"}, {}]>"}, metadata={op_name="flat_args[1025]"}
  %squeeze.2181 = bf16[1,1,1,128]{3,2,1,0} reshape(%flat_args_1025_.1), metadata={op_name="jit(_fun)/FlaxAutoencoderKL.decode/decoder/up_blocks_3/resnets_2/norm2/reshape;jit(_fun)/squeeze"}
  %convert_element_type.3599 = f32[1,1,1,128]{3,2,1,0} convert(%squeeze.2181), metadata={op_name="jit(_fun)/FlaxAutoencoderKL.decode/decoder/up_blocks_3/resnets_2/norm2/convert_element_type" stack_frame_id=1820}
  %add.5861 = f32[1,1,1,128]{3,2,1,0} broadcast(%convert_element_type.3599), dimensions={0,1,2,3}, metadata={op_name="jit(_fun)/FlaxAutoencoderKL.decode/decoder/up_blocks_3/resnets_2/norm2/add" stack_frame_id=1820}
  %add.5862 = f32[1,128]{1,0} reshape(%add.5861), metadata={op_name="jit(_fun)/FlaxAutoencoderKL.decode/decoder/up_blocks_3/resnets_2/norm2/add" stack_frame_id=1820}
  %add.5863 = f32[1,512,512,128]{3,2,1,0} broadcast(%add.5862), dimensions={0,3}, metadata={op_name="jit(_fun)/FlaxAutoencoderKL.decode/decoder/up_blocks_3/resnets_2/norm2/add" stack_frame_id=1820}
  %add.5864 = f32[1,512,512,128]{3,2,1,0} add(%mul.3336, %add.5863), metadata={op_name="jit(_fun)/FlaxAutoencoderKL.decode/decoder/up_blocks_3/resnets_2/norm2/add" stack_frame_id=1820}
  %jit_silu_.192 = f32[1,512,512,128]{3,2,1,0} call(%add.5864), to_apply=%silu_31.533, metadata={op_name="jit(_fun)/FlaxAutoencoderKL.decode/decoder/up_blocks_3/resnets_2/jit(silu)" stack_frame_id=1821}
  %convert_element_type.3600 = f16[1,512,512,128]{3,2,1,0} convert(%jit_silu_.192), metadata={op_name="jit(_fun)/FlaxAutoencoderKL.decode/decoder/up_blocks_3/resnets_2/conv2/convert_element_type" stack_frame_id=1824}
  %flat_args_1022_.1 = bf16[1,3,3,128,128]{4,3,2,1,0} parameter(1019), sharding={replicated}, frontend_attributes={xla.sdy.sharding="#sdy.sharding<@mesh, [{\"_internal_pmap_axis_name\"}, {}, {}, {}, {}]>"}, metadata={op_name="flat_args[1022]"}
  %squeeze.2020 = bf16[3,3,128,128]{3,2,1,0} reshape(%flat_args_1022_.1), metadata={op_name="jit(_fun)/squeeze" stack_frame_id=2}
  %convert_element_type.3601 = f16[3,3,128,128]{3,2,1,0} convert(%squeeze.2020), metadata={op_name="jit(_fun)/FlaxAutoencoderKL.decode/decoder/up_blocks_3/resnets_2/conv2/convert_element_type" stack_frame_id=1824}
  %conv_general_dilated.266 = f16[1,512,512,128]{3,2,1,0} convolution(%convert_element_type.3600, %convert_element_type.3601), window={size=3x3 pad=1_1x1_1}, dim_labels=b01f_01io->b01f, metadata={op_name="jit(_fun)/FlaxAutoencoderKL.decode/decoder/up_blocks_3/resnets_2/conv2/conv_general_dilated" stack_frame_id=1825}
  %flat_args_1021_.1 = bf16[1,128]{1,0} parameter(1018), sharding={replicated}, frontend_attributes={xla.sdy.sharding="#sdy.sharding<@mesh, [{\"_internal_pmap_axis_name\"}, {}]>"}, metadata={op_name="flat_args[1021]"}
  %squeeze.2019 = bf16[128]{0} reshape(%flat_args_1021_.1), metadata={op_name="jit(_fun)/squeeze" stack_frame_id=2}
  %convert_element_type.3602 = f16[128]{0} convert(%squeeze.2019), metadata={op_name="jit(_fun)/FlaxAutoencoderKL.decode/decoder/up_blocks_3/resnets_2/conv2/convert_element_type" stack_frame_id=1824}
  %reshape.2495 = f16[1,1,1,128]{3,2,1,0} reshape(%convert_element_type.3602), metadata={op_name="jit(_fun)/FlaxAutoencoderKL.decode/decoder/up_blocks_3/resnets_2/conv2/reshape" stack_frame_id=1826}
  %add.5865 = f16[1,1,1,128]{3,2,1,0} broadcast(%reshape.2495), dimensions={0,1,2,3}, metadata={op_name="jit(_fun)/FlaxAutoencoderKL.decode/decoder/up_blocks_3/resnets_2/conv2/add" stack_frame_id=1827}
  %add.5866 = f16[1,128]{1,0} reshape(%add.5865), metadata={op_name="jit(_fun)/FlaxAutoencoderKL.decode/decoder/up_blocks_3/resnets_2/conv2/add" stack_frame_id=1827}
  %add.5867 = f16[1,512,512,128]{3,2,1,0} broadcast(%add.5866), dimensions={0,3}, metadata={op_name="jit(_fun)/FlaxAutoencoderKL.decode/decoder/up_blocks_3/resnets_2/conv2/add" stack_frame_id=1827}
  %add.5868 = f16[1,512,512,128]{3,2,1,0} add(%conv_general_dilated.266, %add.5867), metadata={op_name="jit(_fun)/FlaxAutoencoderKL.decode/decoder/up_blocks_3/resnets_2/conv2/add" stack_frame_id=1827}
  %add.5869 = f16[1,512,512,128]{3,2,1,0} add(%add.5868, %add.5850), metadata={op_name="jit(_fun)/FlaxAutoencoderKL.decode/decoder/up_blocks_3/resnets_2/add" stack_frame_id=1828}
  %convert_element_type.3604 = f32[1,512,512,128]{3,2,1,0} convert(%add.5869), metadata={op_name="jit(_fun)/FlaxAutoencoderKL.decode/decoder/conv_norm_out/convert_element_type" stack_frame_id=1844}
  %reshape.2496 = f16[1,512,512,32,4]{4,3,2,1,0} reshape(%add.5869), metadata={op_name="jit(_fun)/FlaxAutoencoderKL.decode/decoder/conv_norm_out/reshape" stack_frame_id=1845}
  %convert_element_type.3603 = f32[1,512,512,32,4]{4,3,2,1,0} convert(%reshape.2496), metadata={op_name="jit(_fun)/FlaxAutoencoderKL.decode/decoder/conv_norm_out/convert_element_type" stack_frame_id=1846}
  %reduce_sum.3478 = f32[1,32]{1,0} reduce(%convert_element_type.3603, %constant.473), dimensions={1,2,4}, to_apply=%region_497.542, metadata={op_name="jit(_fun)/FlaxAutoencoderKL.decode/decoder/conv_norm_out/reduce_sum" stack_frame_id=1347}
  %div.1391 = f32[1,32]{1,0} divide(%reduce_sum.3478, %broadcast.254), metadata={op_name="jit(_fun)/FlaxAutoencoderKL.decode/decoder/conv_norm_out/div" stack_frame_id=1347}
  %broadcast_in_dim.1230 = f32[1,32,4]{2,1,0} broadcast(%div.1391), dimensions={0,1}, metadata={op_name="jit(_fun)/FlaxAutoencoderKL.decode/decoder/conv_norm_out/broadcast_in_dim" stack_frame_id=1847}
  %reshape.2497 = f32[1,1,1,128]{3,2,1,0} reshape(%broadcast_in_dim.1230), metadata={op_name="jit(_fun)/FlaxAutoencoderKL.decode/decoder/conv_norm_out/broadcast_in_dim;jit(_fun)/FlaxAutoencoderKL.decode/decoder/conv_norm_out/reshape"}
  %sub.2370 = f32[1,1,1,128]{3,2,1,0} broadcast(%reshape.2497), dimensions={0,1,2,3}, metadata={op_name="jit(_fun)/FlaxAutoencoderKL.decode/decoder/conv_norm_out/sub" stack_frame_id=1844}
  %sub.2371 = f32[1,128]{1,0} reshape(%sub.2370), metadata={op_name="jit(_fun)/FlaxAutoencoderKL.decode/decoder/conv_norm_out/sub" stack_frame_id=1844}
  %sub.2372 = f32[1,512,512,128]{3,2,1,0} broadcast(%sub.2371), dimensions={0,3}, metadata={op_name="jit(_fun)/FlaxAutoencoderKL.decode/decoder/conv_norm_out/sub" stack_frame_id=1844}
  %sub.2373 = f32[1,512,512,128]{3,2,1,0} subtract(%convert_element_type.3604, %sub.2372), metadata={op_name="jit(_fun)/FlaxAutoencoderKL.decode/decoder/conv_norm_out/sub" stack_frame_id=1844}
  %square.754 = f32[1,512,512,32,4]{4,3,2,1,0} multiply(%convert_element_type.3603, %convert_element_type.3603), metadata={op_name="jit(_fun)/FlaxAutoencoderKL.decode/decoder/conv_norm_out/square" stack_frame_id=1849}
  %reduce_sum.3479 = f32[1,32]{1,0} reduce(%square.754, %constant.473), dimensions={1,2,4}, to_apply=%region_498.543, metadata={op_name="jit(_fun)/FlaxAutoencoderKL.decode/decoder/conv_norm_out/reduce_sum" stack_frame_id=1347}
  %div.1392 = f32[1,32]{1,0} divide(%reduce_sum.3479, %broadcast.254), metadata={op_name="jit(_fun)/FlaxAutoencoderKL.decode/decoder/conv_norm_out/div" stack_frame_id=1347}
  %square.755 = f32[1,32]{1,0} multiply(%div.1391, %div.1391), metadata={op_name="jit(_fun)/FlaxAutoencoderKL.decode/decoder/conv_norm_out/square" stack_frame_id=1851}
  %sub.2369 = f32[1,32]{1,0} subtract(%div.1392, %square.755), metadata={op_name="jit(_fun)/FlaxAutoencoderKL.decode/decoder/conv_norm_out/sub" stack_frame_id=1852}
  %max.507 = f32[1,32]{1,0} maximum(%sub.2369, %broadcast.258), metadata={op_name="jit(_fun)/FlaxAutoencoderKL.decode/decoder/conv_norm_out/max" stack_frame_id=1853}
  %broadcast_in_dim.1231 = f32[1,32,4]{2,1,0} broadcast(%max.507), dimensions={0,1}, metadata={op_name="jit(_fun)/FlaxAutoencoderKL.decode/decoder/conv_norm_out/broadcast_in_dim" stack_frame_id=1854}
  %reshape.2498 = f32[1,1,1,128]{3,2,1,0} reshape(%broadcast_in_dim.1231), metadata={op_name="jit(_fun)/FlaxAutoencoderKL.decode/decoder/conv_norm_out/broadcast_in_dim;jit(_fun)/FlaxAutoencoderKL.decode/decoder/conv_norm_out/reshape"}
  %add.5870 = f32[1,1,1,128]{3,2,1,0} add(%reshape.2498, %broadcast.250), metadata={op_name="jit(_fun)/FlaxAutoencoderKL.decode/decoder/conv_norm_out/add" stack_frame_id=1855}
  %rsqrt.377 = f32[1,1,1,128]{3,2,1,0} rsqrt(%add.5870), metadata={op_name="jit(_fun)/FlaxAutoencoderKL.decode/decoder/conv_norm_out/rsqrt" stack_frame_id=1856}
  %flat_args_892_.1 = bf16[1,128]{1,0} parameter(889), sharding={replicated}, frontend_attributes={xla.sdy.sharding="#sdy.sharding<@mesh, [{\"_internal_pmap_axis_name\"}, {}]>"}, metadata={op_name="flat_args[892]"}
  %squeeze.2182 = bf16[1,1,1,128]{3,2,1,0} reshape(%flat_args_892_.1), metadata={op_name="jit(_fun)/FlaxAutoencoderKL.decode/decoder/conv_norm_out/reshape;jit(_fun)/squeeze"}
  %convert_element_type.3605 = f32[1,1,1,128]{3,2,1,0} convert(%squeeze.2182), metadata={op_name="jit(_fun)/FlaxAutoencoderKL.decode/decoder/conv_norm_out/convert_element_type" stack_frame_id=1857}
  %mul.3337 = f32[1,1,1,128]{3,2,1,0} multiply(%rsqrt.377, %convert_element_type.3605), metadata={op_name="jit(_fun)/FlaxAutoencoderKL.decode/decoder/conv_norm_out/mul" stack_frame_id=1857}
  %mul.3338 = f32[1,1,1,128]{3,2,1,0} broadcast(%mul.3337), dimensions={0,1,2,3}, metadata={op_name="jit(_fun)/FlaxAutoencoderKL.decode/decoder/conv_norm_out/mul" stack_frame_id=1858}
  %mul.3339 = f32[1,128]{1,0} reshape(%mul.3338), metadata={op_name="jit(_fun)/FlaxAutoencoderKL.decode/decoder/conv_norm_out/mul" stack_frame_id=1858}
  %mul.3340 = f32[1,512,512,128]{3,2,1,0} broadcast(%mul.3339), dimensions={0,3}, metadata={op_name="jit(_fun)/FlaxAutoencoderKL.decode/decoder/conv_norm_out/mul" stack_frame_id=1858}
  %mul.3341 = f32[1,512,512,128]{3,2,1,0} multiply(%sub.2373, %mul.3340), metadata={op_name="jit(_fun)/FlaxAutoencoderKL.decode/decoder/conv_norm_out/mul" stack_frame_id=1858}
  %flat_args_891_.1 = bf16[1,128]{1,0} parameter(888), sharding={replicated}, frontend_attributes={xla.sdy.sharding="#sdy.sharding<@mesh, [{\"_internal_pmap_axis_name\"}, {}]>"}, metadata={op_name="flat_args[891]"}
  %squeeze.2183 = bf16[1,1,1,128]{3,2,1,0} reshape(%flat_args_891_.1), metadata={op_name="jit(_fun)/FlaxAutoencoderKL.decode/decoder/conv_norm_out/reshape;jit(_fun)/squeeze"}
  %convert_element_type.3606 = f32[1,1,1,128]{3,2,1,0} convert(%squeeze.2183), metadata={op_name="jit(_fun)/FlaxAutoencoderKL.decode/decoder/conv_norm_out/convert_element_type" stack_frame_id=1859}
  %add.5871 = f32[1,1,1,128]{3,2,1,0} broadcast(%convert_element_type.3606), dimensions={0,1,2,3}, metadata={op_name="jit(_fun)/FlaxAutoencoderKL.decode/decoder/conv_norm_out/add" stack_frame_id=1859}
  %add.5872 = f32[1,128]{1,0} reshape(%add.5871), metadata={op_name="jit(_fun)/FlaxAutoencoderKL.decode/decoder/conv_norm_out/add" stack_frame_id=1859}
  %add.5873 = f32[1,512,512,128]{3,2,1,0} broadcast(%add.5872), dimensions={0,3}, metadata={op_name="jit(_fun)/FlaxAutoencoderKL.decode/decoder/conv_norm_out/add" stack_frame_id=1859}
  %add.5874 = f32[1,512,512,128]{3,2,1,0} add(%mul.3341, %add.5873), metadata={op_name="jit(_fun)/FlaxAutoencoderKL.decode/decoder/conv_norm_out/add" stack_frame_id=1859}
  %jit_silu_.193 = f32[1,512,512,128]{3,2,1,0} call(%add.5874), to_apply=%silu_31.533, metadata={op_name="jit(_fun)/FlaxAutoencoderKL.decode/decoder/jit(silu)" stack_frame_id=1860}
  %convert_element_type.3607 = f16[1,512,512,128]{3,2,1,0} convert(%jit_silu_.193), metadata={op_name="jit(_fun)/FlaxAutoencoderKL.decode/decoder/conv_out/convert_element_type" stack_frame_id=1863}
  %flat_args_894_.1 = bf16[1,3,3,128,3]{4,3,2,1,0} parameter(891), sharding={replicated}, frontend_attributes={xla.sdy.sharding="#sdy.sharding<@mesh, [{\"_internal_pmap_axis_name\"}, {}, {}, {}, {}]>"}, metadata={op_name="flat_args[894]"}
  %squeeze.1946 = bf16[3,3,128,3]{3,2,1,0} reshape(%flat_args_894_.1), metadata={op_name="jit(_fun)/squeeze" stack_frame_id=2}
  %convert_element_type.3608 = f16[3,3,128,3]{3,2,1,0} convert(%squeeze.1946), metadata={op_name="jit(_fun)/FlaxAutoencoderKL.decode/decoder/conv_out/convert_element_type" stack_frame_id=1863}
  %conv_general_dilated.267 = f16[1,512,512,3]{3,2,1,0} convolution(%convert_element_type.3607, %convert_element_type.3608), window={size=3x3 pad=1_1x1_1}, dim_labels=b01f_01io->b01f, metadata={op_name="jit(_fun)/FlaxAutoencoderKL.decode/decoder/conv_out/conv_general_dilated" stack_frame_id=1864}
  %flat_args_893_.1 = bf16[1,3]{1,0} parameter(890), sharding={replicated}, frontend_attributes={xla.sdy.sharding="#sdy.sharding<@mesh, [{\"_internal_pmap_axis_name\"}, {}]>"}, metadata={op_name="flat_args[893]"}
  %squeeze.1945 = bf16[3]{0} reshape(%flat_args_893_.1), metadata={op_name="jit(_fun)/squeeze" stack_frame_id=2}
  %convert_element_type.3609 = f16[3]{0} convert(%squeeze.1945), metadata={op_name="jit(_fun)/FlaxAutoencoderKL.decode/decoder/conv_out/convert_element_type" stack_frame_id=1863}
  %reshape.2499 = f16[1,1,1,3]{3,2,1,0} reshape(%convert_element_type.3609), metadata={op_name="jit(_fun)/FlaxAutoencoderKL.decode/decoder/conv_out/reshape" stack_frame_id=1865}
  %add.5875 = f16[1,1,1,3]{3,2,1,0} broadcast(%reshape.2499), dimensions={0,1,2,3}, metadata={op_name="jit(_fun)/FlaxAutoencoderKL.decode/decoder/conv_out/add" stack_frame_id=1866}
  %add.5876 = f16[1,3]{1,0} reshape(%add.5875), metadata={op_name="jit(_fun)/FlaxAutoencoderKL.decode/decoder/conv_out/add" stack_frame_id=1866}
  %add.5877 = f16[1,512,512,3]{3,2,1,0} broadcast(%add.5876), dimensions={0,3}, metadata={op_name="jit(_fun)/FlaxAutoencoderKL.decode/decoder/conv_out/add" stack_frame_id=1866}
  %add.5878 = f16[1,512,512,3]{3,2,1,0} add(%conv_general_dilated.267, %add.5877), metadata={op_name="jit(_fun)/FlaxAutoencoderKL.decode/decoder/conv_out/add" stack_frame_id=1866}
  %transpose.314 = f16[1,3,512,512]{1,3,2,0} transpose(%add.5878), dimensions={0,3,1,2}, metadata={op_name="jit(_fun)/FlaxAutoencoderKL.decode/transpose" stack_frame_id=1867}
  %constant.443 = f16[] constant(2)
  %div.1084 = f16[1,3,512,512]{3,2,1,0} broadcast(%constant.443), dimensions={}, metadata={op_name="jit(_fun)/div" stack_frame_id=1868}
  %div.1393 = f16[1,3,512,512]{1,3,2,0} divide(%transpose.314, %div.1084), metadata={op_name="jit(_fun)/div" stack_frame_id=1868}
  %constant.442 = f16[] constant(0.5)
  %add.4556 = f16[1,3,512,512]{3,2,1,0} broadcast(%constant.442), dimensions={}, metadata={op_name="jit(_fun)/add" stack_frame_id=1868}
  %add.5879 = f16[1,3,512,512]{1,3,2,0} add(%div.1393, %add.4556), metadata={op_name="jit(_fun)/add" stack_frame_id=1868}
  %constant.474 = s32[] constant(1)
  %jit_clip_.3 = f16[1,3,512,512]{3,2,1,0} call(%add.5879, %constant.474, %constant.472), to_apply=%clip_32.544, metadata={op_name="jit(_fun)/jit(clip)" stack_frame_id=1869}
  %transpose.315 = f16[1,512,512,3]{2,1,3,0} transpose(%jit_clip_.3), dimensions={0,2,3,1}, metadata={op_name="jit(_fun)/transpose" stack_frame_id=1869}
  %broadcast_in_dim.1232 = f16[1,1,512,512,3]{4,3,2,1,0} reshape(%transpose.315), metadata={op_name="jit(_fun)/broadcast_in_dim" stack_frame_id=2}
  %broadcast_in_dim.1233 = f16[1,1,512,512,3]{4,3,2,1,0} custom-call(%broadcast_in_dim.1232), custom_call_target="xla.sdy.FuncResultSharding", custom_call_has_side_effect=true, frontend_attributes={xla.sdy.sharding="#sdy.sharding_per_value<[<@mesh, [{\"_internal_pmap_axis_name\"}, {}, {}, {}, {}]>]>"}, metadata={op_name="jit(_fun)/broadcast_in_dim" stack_frame_id=2}
  %tuple.7 = (f16[1,1,512,512,3]{4,3,2,1,0}) tuple(%broadcast_in_dim.1233)
  ROOT %get-tuple-element.2793 = f16[1,1,512,512,3]{4,3,2,1,0} get-tuple-element(%tuple.7), index=0, sharding={replicated}
}

