HloModule jit_predict_step, entry_computation_layout={(f32[1,1,64,64]{3,2,1,0}, f32[3,3,64,64]{3,2,1,0}, f32[1,1,64,256]{3,2,1,0}, f32[1,1,64,256]{3,2,1,0}, f32[1,1,1,64]{3,2,1,0}, /*index=5*/f32[1,1,1,64]{3,2,1,0}, f32[1,1,1,64]{3,2,1,0}, f32[1,1,1,64]{3,2,1,0}, f32[1,1,1,64]{3,2,1,0}, f32[1,1,1,64]{3,2,1,0}, /*index=10*/f32[1,1,256,64]{3,2,1,0}, f32[3,3,64,64]{3,2,1,0}, f32[1,1,64,256]{3,2,1,0}, f32[1,1,1,256]{3,2,1,0}, f32[1,1,1,256]{3,2,1,0}, /*index=15*/f32[1,1,1,64]{3,2,1,0}, f32[1,1,1,64]{3,2,1,0}, f32[1,1,1,64]{3,2,1,0}, f32[1,1,1,64]{3,2,1,0}, f32[1,1,256,64]{3,2,1,0}, /*index=20*/f32[3,3,64,64]{3,2,1,0}, f32[1,1,64,256]{3,2,1,0}, f32[1,1,1,256]{3,2,1,0}, f32[1,1,1,256]{3,2,1,0}, f32[1,1,1,64]{3,2,1,0}, /*index=25*/f32[1,1,1,64]{3,2,1,0}, f32[1,1,1,64]{3,2,1,0}, f32[1,1,1,64]{3,2,1,0}, f32[1,1,256,128]{3,2,1,0}, f32[3,3,128,128]{3,2,1,0}, /*index=30*/f32[1,1,128,512]{3,2,1,0}, f32[1,1,256,512]{3,2,1,0}, f32[1,1,1,256]{3,2,1,0}, f32[1,1,1,256]{3,2,1,0}, f32[1,1,1,128]{3,2,1,0}, /*index=35*/f32[1,1,1,128]{3,2,1,0}, f32[1,1,1,128]{3,2,1,0}, f32[1,1,1,128]{3,2,1,0}, f32[1,1,512,128]{3,2,1,0}, f32[3,3,128,128]{3,2,1,0}, /*index=40*/f32[1,1,128,512]{3,2,1,0}, f32[1,1,1,512]{3,2,1,0}, f32[1,1,1,512]{3,2,1,0}, f32[1,1,1,128]{3,2,1,0}, f32[1,1,1,128]{3,2,1,0}, /*index=45*/f32[1,1,1,128]{3,2,1,0}, f32[1,1,1,128]{3,2,1,0}, f32[1,1,512,128]{3,2,1,0}, f32[3,3,128,128]{3,2,1,0}, f32[1,1,128,512]{3,2,1,0}, /*index=50*/f32[1,1,1,512]{3,2,1,0}, f32[1,1,1,512]{3,2,1,0}, f32[1,1,1,128]{3,2,1,0}, f32[1,1,1,128]{3,2,1,0}, f32[1,1,1,128]{3,2,1,0}, /*index=55*/f32[1,1,1,128]{3,2,1,0}, f32[1,1,512,128]{3,2,1,0}, f32[3,3,128,128]{3,2,1,0}, f32[1,1,128,512]{3,2,1,0}, f32[1,1,1,512]{3,2,1,0}, /*index=60*/f32[1,1,1,512]{3,2,1,0}, f32[1,1,1,128]{3,2,1,0}, f32[1,1,1,128]{3,2,1,0}, f32[1,1,1,128]{3,2,1,0}, f32[1,1,1,128]{3,2,1,0}, /*index=65*/f32[1,1,512,256]{3,2,1,0}, f32[3,3,256,256]{3,2,1,0}, f32[1,1,256,1024]{3,2,1,0}, f32[1,1,512,1024]{3,2,1,0}, f32[1,1,1,512]{3,2,1,0}, /*index=70*/f32[1,1,1,512]{3,2,1,0}, f32[1,1,1,256]{3,2,1,0}, f32[1,1,1,256]{3,2,1,0}, f32[1,1,1,256]{3,2,1,0}, f32[1,1,1,256]{3,2,1,0}, /*index=75*/f32[1,1,1024,256]{3,2,1,0}, f32[3,3,256,256]{3,2,1,0}, f32[1,1,256,1024]{3,2,1,0}, f32[1,1,1,1024]{3,2,1,0}, f32[1,1,1,1024]{3,2,1,0}, /*index=80*/f32[1,1,1,256]{3,2,1,0}, f32[1,1,1,256]{3,2,1,0}, f32[1,1,1,256]{3,2,1,0}, f32[1,1,1,256]{3,2,1,0}, f32[1,1,1024,256]{3,2,1,0}, /*index=85*/f32[3,3,256,256]{3,2,1,0}, f32[1,1,256,1024]{3,2,1,0}, f32[1,1,1,1024]{3,2,1,0}, f32[1,1,1,1024]{3,2,1,0}, f32[1,1,1,256]{3,2,1,0}, /*index=90*/f32[1,1,1,256]{3,2,1,0}, f32[1,1,1,256]{3,2,1,0}, f32[1,1,1,256]{3,2,1,0}, f32[1,1,1024,256]{3,2,1,0}, f32[3,3,256,256]{3,2,1,0}, /*index=95*/f32[1,1,256,1024]{3,2,1,0}, f32[1,1,1,1024]{3,2,1,0}, f32[1,1,1,1024]{3,2,1,0}, f32[1,1,1,256]{3,2,1,0}, f32[1,1,1,256]{3,2,1,0}, /*index=100*/f32[1,1,1,256]{3,2,1,0}, f32[1,1,1,256]{3,2,1,0}, f32[1,1,1024,256]{3,2,1,0}, f32[3,3,256,256]{3,2,1,0}, f32[1,1,256,1024]{3,2,1,0}, /*index=105*/f32[1,1,1,1024]{3,2,1,0}, f32[1,1,1,1024]{3,2,1,0}, f32[1,1,1,256]{3,2,1,0}, f32[1,1,1,256]{3,2,1,0}, f32[1,1,1,256]{3,2,1,0}, /*index=110*/f32[1,1,1,256]{3,2,1,0}, f32[1,1,1024,256]{3,2,1,0}, f32[3,3,256,256]{3,2,1,0}, f32[1,1,256,1024]{3,2,1,0}, f32[1,1,1,1024]{3,2,1,0}, /*index=115*/f32[1,1,1,1024]{3,2,1,0}, f32[1,1,1,256]{3,2,1,0}, f32[1,1,1,256]{3,2,1,0}, f32[1,1,1,256]{3,2,1,0}, f32[1,1,1,256]{3,2,1,0}, /*index=120*/f32[1,1,1024,512]{3,2,1,0}, f32[3,3,512,512]{3,2,1,0}, f32[1,1,512,2048]{3,2,1,0}, f32[1,1,1024,2048]{3,2,1,0}, f32[1,1,1,1024]{3,2,1,0}, /*index=125*/f32[1,1,1,1024]{3,2,1,0}, f32[1,1,1,512]{3,2,1,0}, f32[1,1,1,512]{3,2,1,0}, f32[1,1,1,512]{3,2,1,0}, f32[1,1,1,512]{3,2,1,0}, /*index=130*/f32[1,1,2048,512]{3,2,1,0}, f32[3,3,512,512]{3,2,1,0}, f32[1,1,512,2048]{3,2,1,0}, f32[1,1,1,2048]{3,2,1,0}, f32[1,1,1,2048]{3,2,1,0}, /*index=135*/f32[1,1,1,512]{3,2,1,0}, f32[1,1,1,512]{3,2,1,0}, f32[1,1,1,512]{3,2,1,0}, f32[1,1,1,512]{3,2,1,0}, f32[1,1,2048,512]{3,2,1,0}, /*index=140*/f32[3,3,512,512]{3,2,1,0}, f32[1,1,512,2048]{3,2,1,0}, f32[1,1,1,2048]{3,2,1,0}, f32[1,1,1,2048]{3,2,1,0}, f32[1,1,1,512]{3,2,1,0}, /*index=145*/f32[1,1,1,512]{3,2,1,0}, f32[1,1,1,512]{3,2,1,0}, f32[1,1,1,512]{3,2,1,0}, f32[1000]{0}, f32[2048,1000]{1,0}, /*index=150*/f32[1,1,1,2048]{3,2,1,0}, f32[1,1,1,2048]{3,2,1,0}, f32[7,7,3,64]{3,2,1,0}, f32[8,224,224,3]{3,2,1,0})->f32[8,1000]{1,0}}, allow_spmd_sharding_propagation_to_parameters={false,false,false,false,false,false,false,false,false,false,false,false,false,false,false,false,false,false,false,false,false,false,false,false,false,false,false,false,false,false,false,false,false,false,false,false,false,false,false,false,false,false,false,false,false,false,false,false,false,false,false,false,false,false,false,false,false,false,false,false,false,false,false,false,false,false,false,false,false,false,false,false,false,false,false,false,false,false,false,false,false,false,false,false,false,false,false,false,false,false,false,false,false,false,false,false,false,false,false,false,false,false,false,false,false,false,false,false,false,false,false,false,false,false,false,false,false,false,false,false,false,false,false,false,false,false,false,false,false,false,false,false,false,false,false,false,false,false,false,false,false,false,false,false,false,false,false,false,false,false,false,false,false,false}, num_partitions=2, frontend_attributes={xla.sdy.meshes={mesh = #sdy.mesh<["fsdp"=2]>}}

FileNames
1 "/root/hlo_dump/mgpu_infer.py"
2 "/root/big_vision/big_vision/models/bit_paper.py"
3 "/usr/local/lib/python3.12/dist-packages/flax/linen/linear.py"
4 "/usr/local/lib/python3.12/dist-packages/flax/linen/pooling.py"

FunctionNames
1 "<module>"
2 "main"
3 "main.<locals>.predict_step"
4 "build_resnet50.<locals>.fn"
5 "Model.__call__"
6 "RootBlock.__call__"
7 "_Conv.__call__"
8 "StdConv.param"
9 "standardize"
10 "max_pool"
11 "pool"
12 "ResNetStage.__call__"
13 "ResidualUnit.__call__"
14 "GroupNorm.__call__"
15 "Dense.__call__"

FileLocations
1 {file_name_id=1 function_name_id=1 line=195 end_line=195 column=4 end_column=10}
2 {file_name_id=1 function_name_id=2 line=189 end_line=189 column=14 end_column=36}
3 {file_name_id=1 function_name_id=3 line=185 end_line=185 column=15 end_column=36}
4 {file_name_id=1 function_name_id=4 line=49 end_line=49 column=26 end_column=68}
5 {file_name_id=2 function_name_id=5 line=142 end_line=142 column=22 end_column=70}
6 {file_name_id=2 function_name_id=6 line=76 end_line=77 column=8 end_column=52}
7 {file_name_id=3 function_name_id=7 line=668 end_line=670 column=13 end_column=5}
8 {file_name_id=2 function_name_id=8 line=66 end_line=66 column=14 end_column=59}
9 {file_name_id=2 function_name_id=9 line=32 end_line=32 column=10 end_column=47}
10 {file_name_id=2 function_name_id=9 line=33 end_line=33 column=19 end_column=68}
11 {file_name_id=2 function_name_id=6 line=78 end_line=78 column=8 end_column=72}
12 {file_name_id=4 function_name_id=10 line=124 end_line=124 column=6 end_column=69}
13 {file_name_id=4 function_name_id=11 line=73 end_line=73 column=6 end_column=72}
14 {file_name_id=2 function_name_id=5 line=145 end_line=145 column=23 end_column=75}
15 {file_name_id=2 function_name_id=12 line=121 end_line=122 column=24 end_column=63}
16 {file_name_id=2 function_name_id=13 line=94 end_line=94 column=8 end_column=32}
17 {file_name_id=2 function_name_id=14 line=52 end_line=52 column=8 end_column=48}
18 {file_name_id=2 function_name_id=13 line=98 end_line=98 column=17 end_column=70}
19 {file_name_id=2 function_name_id=13 line=100 end_line=100 column=8 end_column=43}
20 {file_name_id=2 function_name_id=13 line=101 end_line=101 column=8 end_column=32}
21 {file_name_id=2 function_name_id=13 line=103 end_line=104 column=8 end_column=29}
22 {file_name_id=2 function_name_id=13 line=105 end_line=105 column=8 end_column=32}
23 {file_name_id=2 function_name_id=13 line=107 end_line=107 column=8 end_column=43}
24 {file_name_id=2 function_name_id=12 line=124 end_line=125 column=34 end_column=46}
25 {file_name_id=2 function_name_id=5 line=147 end_line=149 column=32 end_column=55}
26 {file_name_id=2 function_name_id=5 line=152 end_line=152 column=31 end_column=65}
27 {file_name_id=2 function_name_id=5 line=154 end_line=154 column=28 end_column=52}
28 {file_name_id=2 function_name_id=9 line=32 end_line=32 column=6 end_column=47}
29 {file_name_id=2 function_name_id=9 line=33 end_line=33 column=28 end_column=41}
30 {file_name_id=2 function_name_id=9 line=33 end_line=33 column=10 end_column=75}
31 {file_name_id=2 function_name_id=9 line=33 end_line=33 column=6 end_column=75}
32 {file_name_id=3 function_name_id=7 line=700 end_line=710 column=10 end_column=7}
33 {file_name_id=2 function_name_id=14 line=49 end_line=49 column=8 end_column=30}
34 {file_name_id=2 function_name_id=14 line=53 end_line=53 column=8 end_column=30}
35 {file_name_id=2 function_name_id=14 line=56 end_line=56 column=8 end_column=71}
36 {file_name_id=2 function_name_id=14 line=57 end_line=57 column=8 end_column=71}
37 {file_name_id=2 function_name_id=13 line=95 end_line=95 column=8 end_column=18}
38 {file_name_id=2 function_name_id=13 line=102 end_line=102 column=8 end_column=18}
39 {file_name_id=2 function_name_id=13 line=106 end_line=106 column=8 end_column=18}
40 {file_name_id=2 function_name_id=13 line=109 end_line=109 column=11 end_column=23}
41 {file_name_id=2 function_name_id=5 line=153 end_line=153 column=31 end_column=41}
42 {file_name_id=2 function_name_id=5 line=161 end_line=161 column=26 end_column=49}
43 {file_name_id=3 function_name_id=15 line=287 end_line=292 column=8 end_column=5}
44 {file_name_id=3 function_name_id=15 line=294 end_line=294 column=11 end_column=57}
45 {file_name_id=3 function_name_id=15 line=294 end_line=294 column=6 end_column=57}

StackFrames
1 {file_location_id=1 parent_frame_id=1}
2 {file_location_id=2 parent_frame_id=2}
3 {file_location_id=3 parent_frame_id=3}
4 {file_location_id=4 parent_frame_id=4}
5 {file_location_id=5 parent_frame_id=5}
6 {file_location_id=6 parent_frame_id=6}
7 {file_location_id=7 parent_frame_id=7}
8 {file_location_id=8 parent_frame_id=8}
9 {file_location_id=9 parent_frame_id=9}
10 {file_location_id=10 parent_frame_id=9}
11 {file_location_id=11 parent_frame_id=6}
12 {file_location_id=12 parent_frame_id=12}
13 {file_location_id=13 parent_frame_id=13}
14 {file_location_id=14 parent_frame_id=5}
15 {file_location_id=15 parent_frame_id=15}
16 {file_location_id=16 parent_frame_id=16}
17 {file_location_id=17 parent_frame_id=17}
18 {file_location_id=9 parent_frame_id=18}
19 {file_location_id=10 parent_frame_id=18}
20 {file_location_id=18 parent_frame_id=16}
21 {file_location_id=7 parent_frame_id=21}
22 {file_location_id=8 parent_frame_id=22}
23 {file_location_id=9 parent_frame_id=23}
24 {file_location_id=10 parent_frame_id=23}
25 {file_location_id=19 parent_frame_id=16}
26 {file_location_id=7 parent_frame_id=26}
27 {file_location_id=8 parent_frame_id=27}
28 {file_location_id=9 parent_frame_id=28}
29 {file_location_id=10 parent_frame_id=28}
30 {file_location_id=20 parent_frame_id=16}
31 {file_location_id=17 parent_frame_id=31}
32 {file_location_id=9 parent_frame_id=32}
33 {file_location_id=10 parent_frame_id=32}
34 {file_location_id=21 parent_frame_id=16}
35 {file_location_id=7 parent_frame_id=35}
36 {file_location_id=8 parent_frame_id=36}
37 {file_location_id=9 parent_frame_id=37}
38 {file_location_id=10 parent_frame_id=37}
39 {file_location_id=22 parent_frame_id=16}
40 {file_location_id=17 parent_frame_id=40}
41 {file_location_id=9 parent_frame_id=41}
42 {file_location_id=10 parent_frame_id=41}
43 {file_location_id=23 parent_frame_id=16}
44 {file_location_id=7 parent_frame_id=44}
45 {file_location_id=8 parent_frame_id=45}
46 {file_location_id=9 parent_frame_id=46}
47 {file_location_id=10 parent_frame_id=46}
48 {file_location_id=24 parent_frame_id=15}
49 {file_location_id=16 parent_frame_id=49}
50 {file_location_id=17 parent_frame_id=50}
51 {file_location_id=9 parent_frame_id=51}
52 {file_location_id=10 parent_frame_id=51}
53 {file_location_id=19 parent_frame_id=49}
54 {file_location_id=7 parent_frame_id=54}
55 {file_location_id=8 parent_frame_id=55}
56 {file_location_id=9 parent_frame_id=56}
57 {file_location_id=10 parent_frame_id=56}
58 {file_location_id=20 parent_frame_id=49}
59 {file_location_id=17 parent_frame_id=59}
60 {file_location_id=9 parent_frame_id=60}
61 {file_location_id=10 parent_frame_id=60}
62 {file_location_id=21 parent_frame_id=49}
63 {file_location_id=7 parent_frame_id=63}
64 {file_location_id=8 parent_frame_id=64}
65 {file_location_id=9 parent_frame_id=65}
66 {file_location_id=10 parent_frame_id=65}
67 {file_location_id=22 parent_frame_id=49}
68 {file_location_id=17 parent_frame_id=68}
69 {file_location_id=9 parent_frame_id=69}
70 {file_location_id=10 parent_frame_id=69}
71 {file_location_id=23 parent_frame_id=49}
72 {file_location_id=7 parent_frame_id=72}
73 {file_location_id=8 parent_frame_id=73}
74 {file_location_id=9 parent_frame_id=74}
75 {file_location_id=10 parent_frame_id=74}
76 {file_location_id=25 parent_frame_id=5}
77 {file_location_id=15 parent_frame_id=77}
78 {file_location_id=16 parent_frame_id=78}
79 {file_location_id=17 parent_frame_id=79}
80 {file_location_id=9 parent_frame_id=80}
81 {file_location_id=10 parent_frame_id=80}
82 {file_location_id=18 parent_frame_id=78}
83 {file_location_id=7 parent_frame_id=83}
84 {file_location_id=8 parent_frame_id=84}
85 {file_location_id=9 parent_frame_id=85}
86 {file_location_id=10 parent_frame_id=85}
87 {file_location_id=19 parent_frame_id=78}
88 {file_location_id=7 parent_frame_id=88}
89 {file_location_id=8 parent_frame_id=89}
90 {file_location_id=9 parent_frame_id=90}
91 {file_location_id=10 parent_frame_id=90}
92 {file_location_id=20 parent_frame_id=78}
93 {file_location_id=17 parent_frame_id=93}
94 {file_location_id=9 parent_frame_id=94}
95 {file_location_id=10 parent_frame_id=94}
96 {file_location_id=21 parent_frame_id=78}
97 {file_location_id=7 parent_frame_id=97}
98 {file_location_id=8 parent_frame_id=98}
99 {file_location_id=9 parent_frame_id=99}
100 {file_location_id=10 parent_frame_id=99}
101 {file_location_id=22 parent_frame_id=78}
102 {file_location_id=17 parent_frame_id=102}
103 {file_location_id=9 parent_frame_id=103}
104 {file_location_id=10 parent_frame_id=103}
105 {file_location_id=23 parent_frame_id=78}
106 {file_location_id=7 parent_frame_id=106}
107 {file_location_id=8 parent_frame_id=107}
108 {file_location_id=9 parent_frame_id=108}
109 {file_location_id=10 parent_frame_id=108}
110 {file_location_id=24 parent_frame_id=77}
111 {file_location_id=16 parent_frame_id=111}
112 {file_location_id=17 parent_frame_id=112}
113 {file_location_id=9 parent_frame_id=113}
114 {file_location_id=10 parent_frame_id=113}
115 {file_location_id=19 parent_frame_id=111}
116 {file_location_id=7 parent_frame_id=116}
117 {file_location_id=8 parent_frame_id=117}
118 {file_location_id=9 parent_frame_id=118}
119 {file_location_id=10 parent_frame_id=118}
120 {file_location_id=20 parent_frame_id=111}
121 {file_location_id=17 parent_frame_id=121}
122 {file_location_id=9 parent_frame_id=122}
123 {file_location_id=10 parent_frame_id=122}
124 {file_location_id=21 parent_frame_id=111}
125 {file_location_id=7 parent_frame_id=125}
126 {file_location_id=8 parent_frame_id=126}
127 {file_location_id=9 parent_frame_id=127}
128 {file_location_id=10 parent_frame_id=127}
129 {file_location_id=22 parent_frame_id=111}
130 {file_location_id=17 parent_frame_id=130}
131 {file_location_id=9 parent_frame_id=131}
132 {file_location_id=10 parent_frame_id=131}
133 {file_location_id=23 parent_frame_id=111}
134 {file_location_id=7 parent_frame_id=134}
135 {file_location_id=8 parent_frame_id=135}
136 {file_location_id=9 parent_frame_id=136}
137 {file_location_id=10 parent_frame_id=136}
138 {file_location_id=26 parent_frame_id=5}
139 {file_location_id=17 parent_frame_id=139}
140 {file_location_id=9 parent_frame_id=140}
141 {file_location_id=10 parent_frame_id=140}
142 {file_location_id=27 parent_frame_id=5}
143 {file_location_id=28 parent_frame_id=9}
144 {file_location_id=29 parent_frame_id=9}
145 {file_location_id=30 parent_frame_id=9}
146 {file_location_id=31 parent_frame_id=9}
147 {file_location_id=32 parent_frame_id=7}
148 {file_location_id=33 parent_frame_id=17}
149 {file_location_id=28 parent_frame_id=18}
150 {file_location_id=29 parent_frame_id=18}
151 {file_location_id=30 parent_frame_id=18}
152 {file_location_id=31 parent_frame_id=18}
153 {file_location_id=34 parent_frame_id=17}
154 {file_location_id=35 parent_frame_id=17}
155 {file_location_id=36 parent_frame_id=17}
156 {file_location_id=37 parent_frame_id=16}
157 {file_location_id=28 parent_frame_id=28}
158 {file_location_id=29 parent_frame_id=28}
159 {file_location_id=30 parent_frame_id=28}
160 {file_location_id=31 parent_frame_id=28}
161 {file_location_id=32 parent_frame_id=26}
162 {file_location_id=33 parent_frame_id=31}
163 {file_location_id=28 parent_frame_id=32}
164 {file_location_id=29 parent_frame_id=32}
165 {file_location_id=30 parent_frame_id=32}
166 {file_location_id=31 parent_frame_id=32}
167 {file_location_id=34 parent_frame_id=31}
168 {file_location_id=35 parent_frame_id=31}
169 {file_location_id=36 parent_frame_id=31}
170 {file_location_id=38 parent_frame_id=16}
171 {file_location_id=28 parent_frame_id=37}
172 {file_location_id=29 parent_frame_id=37}
173 {file_location_id=30 parent_frame_id=37}
174 {file_location_id=31 parent_frame_id=37}
175 {file_location_id=32 parent_frame_id=35}
176 {file_location_id=33 parent_frame_id=40}
177 {file_location_id=28 parent_frame_id=41}
178 {file_location_id=29 parent_frame_id=41}
179 {file_location_id=30 parent_frame_id=41}
180 {file_location_id=31 parent_frame_id=41}
181 {file_location_id=34 parent_frame_id=40}
182 {file_location_id=35 parent_frame_id=40}
183 {file_location_id=36 parent_frame_id=40}
184 {file_location_id=39 parent_frame_id=16}
185 {file_location_id=28 parent_frame_id=46}
186 {file_location_id=29 parent_frame_id=46}
187 {file_location_id=30 parent_frame_id=46}
188 {file_location_id=31 parent_frame_id=46}
189 {file_location_id=32 parent_frame_id=44}
190 {file_location_id=28 parent_frame_id=23}
191 {file_location_id=29 parent_frame_id=23}
192 {file_location_id=30 parent_frame_id=23}
193 {file_location_id=31 parent_frame_id=23}
194 {file_location_id=32 parent_frame_id=21}
195 {file_location_id=40 parent_frame_id=16}
196 {file_location_id=33 parent_frame_id=50}
197 {file_location_id=28 parent_frame_id=51}
198 {file_location_id=29 parent_frame_id=51}
199 {file_location_id=30 parent_frame_id=51}
200 {file_location_id=31 parent_frame_id=51}
201 {file_location_id=34 parent_frame_id=50}
202 {file_location_id=35 parent_frame_id=50}
203 {file_location_id=36 parent_frame_id=50}
204 {file_location_id=37 parent_frame_id=49}
205 {file_location_id=28 parent_frame_id=56}
206 {file_location_id=29 parent_frame_id=56}
207 {file_location_id=30 parent_frame_id=56}
208 {file_location_id=31 parent_frame_id=56}
209 {file_location_id=32 parent_frame_id=54}
210 {file_location_id=33 parent_frame_id=59}
211 {file_location_id=28 parent_frame_id=60}
212 {file_location_id=29 parent_frame_id=60}
213 {file_location_id=30 parent_frame_id=60}
214 {file_location_id=31 parent_frame_id=60}
215 {file_location_id=34 parent_frame_id=59}
216 {file_location_id=35 parent_frame_id=59}
217 {file_location_id=36 parent_frame_id=59}
218 {file_location_id=38 parent_frame_id=49}
219 {file_location_id=28 parent_frame_id=65}
220 {file_location_id=29 parent_frame_id=65}
221 {file_location_id=30 parent_frame_id=65}
222 {file_location_id=31 parent_frame_id=65}
223 {file_location_id=32 parent_frame_id=63}
224 {file_location_id=33 parent_frame_id=68}
225 {file_location_id=28 parent_frame_id=69}
226 {file_location_id=29 parent_frame_id=69}
227 {file_location_id=30 parent_frame_id=69}
228 {file_location_id=31 parent_frame_id=69}
229 {file_location_id=34 parent_frame_id=68}
230 {file_location_id=35 parent_frame_id=68}
231 {file_location_id=36 parent_frame_id=68}
232 {file_location_id=39 parent_frame_id=49}
233 {file_location_id=28 parent_frame_id=74}
234 {file_location_id=29 parent_frame_id=74}
235 {file_location_id=30 parent_frame_id=74}
236 {file_location_id=31 parent_frame_id=74}
237 {file_location_id=32 parent_frame_id=72}
238 {file_location_id=40 parent_frame_id=49}
239 {file_location_id=33 parent_frame_id=79}
240 {file_location_id=28 parent_frame_id=80}
241 {file_location_id=29 parent_frame_id=80}
242 {file_location_id=30 parent_frame_id=80}
243 {file_location_id=31 parent_frame_id=80}
244 {file_location_id=34 parent_frame_id=79}
245 {file_location_id=35 parent_frame_id=79}
246 {file_location_id=36 parent_frame_id=79}
247 {file_location_id=37 parent_frame_id=78}
248 {file_location_id=28 parent_frame_id=90}
249 {file_location_id=29 parent_frame_id=90}
250 {file_location_id=30 parent_frame_id=90}
251 {file_location_id=31 parent_frame_id=90}
252 {file_location_id=32 parent_frame_id=88}
253 {file_location_id=33 parent_frame_id=93}
254 {file_location_id=28 parent_frame_id=94}
255 {file_location_id=29 parent_frame_id=94}
256 {file_location_id=30 parent_frame_id=94}
257 {file_location_id=31 parent_frame_id=94}
258 {file_location_id=34 parent_frame_id=93}
259 {file_location_id=35 parent_frame_id=93}
260 {file_location_id=36 parent_frame_id=93}
261 {file_location_id=38 parent_frame_id=78}
262 {file_location_id=28 parent_frame_id=99}
263 {file_location_id=29 parent_frame_id=99}
264 {file_location_id=30 parent_frame_id=99}
265 {file_location_id=31 parent_frame_id=99}
266 {file_location_id=32 parent_frame_id=97}
267 {file_location_id=33 parent_frame_id=102}
268 {file_location_id=28 parent_frame_id=103}
269 {file_location_id=29 parent_frame_id=103}
270 {file_location_id=30 parent_frame_id=103}
271 {file_location_id=31 parent_frame_id=103}
272 {file_location_id=34 parent_frame_id=102}
273 {file_location_id=35 parent_frame_id=102}
274 {file_location_id=36 parent_frame_id=102}
275 {file_location_id=39 parent_frame_id=78}
276 {file_location_id=28 parent_frame_id=108}
277 {file_location_id=29 parent_frame_id=108}
278 {file_location_id=30 parent_frame_id=108}
279 {file_location_id=31 parent_frame_id=108}
280 {file_location_id=32 parent_frame_id=106}
281 {file_location_id=28 parent_frame_id=85}
282 {file_location_id=29 parent_frame_id=85}
283 {file_location_id=30 parent_frame_id=85}
284 {file_location_id=31 parent_frame_id=85}
285 {file_location_id=32 parent_frame_id=83}
286 {file_location_id=40 parent_frame_id=78}
287 {file_location_id=33 parent_frame_id=112}
288 {file_location_id=28 parent_frame_id=113}
289 {file_location_id=29 parent_frame_id=113}
290 {file_location_id=30 parent_frame_id=113}
291 {file_location_id=31 parent_frame_id=113}
292 {file_location_id=34 parent_frame_id=112}
293 {file_location_id=35 parent_frame_id=112}
294 {file_location_id=36 parent_frame_id=112}
295 {file_location_id=37 parent_frame_id=111}
296 {file_location_id=28 parent_frame_id=118}
297 {file_location_id=29 parent_frame_id=118}
298 {file_location_id=30 parent_frame_id=118}
299 {file_location_id=31 parent_frame_id=118}
300 {file_location_id=32 parent_frame_id=116}
301 {file_location_id=33 parent_frame_id=121}
302 {file_location_id=28 parent_frame_id=122}
303 {file_location_id=29 parent_frame_id=122}
304 {file_location_id=30 parent_frame_id=122}
305 {file_location_id=31 parent_frame_id=122}
306 {file_location_id=34 parent_frame_id=121}
307 {file_location_id=35 parent_frame_id=121}
308 {file_location_id=36 parent_frame_id=121}
309 {file_location_id=38 parent_frame_id=111}
310 {file_location_id=28 parent_frame_id=127}
311 {file_location_id=29 parent_frame_id=127}
312 {file_location_id=30 parent_frame_id=127}
313 {file_location_id=31 parent_frame_id=127}
314 {file_location_id=32 parent_frame_id=125}
315 {file_location_id=33 parent_frame_id=130}
316 {file_location_id=28 parent_frame_id=131}
317 {file_location_id=29 parent_frame_id=131}
318 {file_location_id=30 parent_frame_id=131}
319 {file_location_id=31 parent_frame_id=131}
320 {file_location_id=34 parent_frame_id=130}
321 {file_location_id=35 parent_frame_id=130}
322 {file_location_id=36 parent_frame_id=130}
323 {file_location_id=39 parent_frame_id=111}
324 {file_location_id=28 parent_frame_id=136}
325 {file_location_id=29 parent_frame_id=136}
326 {file_location_id=30 parent_frame_id=136}
327 {file_location_id=31 parent_frame_id=136}
328 {file_location_id=32 parent_frame_id=134}
329 {file_location_id=40 parent_frame_id=111}
330 {file_location_id=33 parent_frame_id=139}
331 {file_location_id=28 parent_frame_id=140}
332 {file_location_id=29 parent_frame_id=140}
333 {file_location_id=30 parent_frame_id=140}
334 {file_location_id=31 parent_frame_id=140}
335 {file_location_id=34 parent_frame_id=139}
336 {file_location_id=35 parent_frame_id=139}
337 {file_location_id=36 parent_frame_id=139}
338 {file_location_id=41 parent_frame_id=5}
339 {file_location_id=42 parent_frame_id=5}
340 {file_location_id=43 parent_frame_id=340}
341 {file_location_id=44 parent_frame_id=340}
342 {file_location_id=45 parent_frame_id=340}


%region_0.1 (reduce_sum.3: f32[], reduce_sum.4: f32[]) -> f32[] {
  %reduce_sum.3 = f32[] parameter(0), metadata={op_name="reduce_sum"}
  %reduce_sum.4 = f32[] parameter(1), metadata={op_name="reduce_sum"}
  ROOT %reduce_sum.5 = f32[] add(%reduce_sum.3, %reduce_sum.4), metadata={op_name="jit(predict_step)/Model/root_block/conv_root/conv_root.param/reduce_sum" stack_frame_id=9}
}

%region_1.2 (reduce_sum.10: f32[], reduce_sum.11: f32[]) -> f32[] {
  %reduce_sum.10 = f32[] parameter(0), metadata={op_name="reduce_sum"}
  %reduce_sum.11 = f32[] parameter(1), metadata={op_name="reduce_sum"}
  ROOT %reduce_sum.12 = f32[] add(%reduce_sum.10, %reduce_sum.11), metadata={op_name="jit(predict_step)/Model/root_block/conv_root/conv_root.param/reduce_sum" stack_frame_id=10}
}

%region_2.3 (reduce_window_max.3: f32[], reduce_window_max.4: f32[]) -> f32[] {
  %reduce_window_max.3 = f32[] parameter(0), metadata={op_name="reduce_window_max"}
  %reduce_window_max.4 = f32[] parameter(1), metadata={op_name="reduce_window_max"}
  ROOT %reduce_window_max.5 = f32[] maximum(%reduce_window_max.3, %reduce_window_max.4), metadata={op_name="jit(predict_step)/Model/root_block/reduce_window_max" stack_frame_id=13}
}

%region_3.4 (reduce_sum.17: f32[], reduce_sum.18: f32[]) -> f32[] {
  %reduce_sum.17 = f32[] parameter(0), metadata={op_name="reduce_sum"}
  %reduce_sum.18 = f32[] parameter(1), metadata={op_name="reduce_sum"}
  ROOT %reduce_sum.19 = f32[] add(%reduce_sum.17, %reduce_sum.18), metadata={op_name="jit(predict_step)/Model/block1/unit01/gn1/reduce_sum" stack_frame_id=18}
}

%region_4.5 (reduce_sum.24: f32[], reduce_sum.25: f32[]) -> f32[] {
  %reduce_sum.24 = f32[] parameter(0), metadata={op_name="reduce_sum"}
  %reduce_sum.25 = f32[] parameter(1), metadata={op_name="reduce_sum"}
  ROOT %reduce_sum.26 = f32[] add(%reduce_sum.24, %reduce_sum.25), metadata={op_name="jit(predict_step)/Model/block1/unit01/gn1/reduce_sum" stack_frame_id=19}
}

%relu.6 (Arg_0.1: f32[8,56,56,64]) -> f32[8,56,56,64] {
  %Arg_0.1 = f32[8,56,56,64]{3,2,1,0} parameter(0)
  %constant.37 = f32[] constant(0)
  %max.2 = f32[8,56,56,64]{3,2,1,0} broadcast(%constant.37), dimensions={}, metadata={op_name="max"}
  ROOT %max.3 = f32[8,56,56,64]{3,2,1,0} maximum(%Arg_0.1, %max.2), metadata={op_name="max"}
}

%region_7.9 (reduce_sum.45: f32[], reduce_sum.46: f32[]) -> f32[] {
  %reduce_sum.45 = f32[] parameter(0), metadata={op_name="reduce_sum"}
  %reduce_sum.46 = f32[] parameter(1), metadata={op_name="reduce_sum"}
  ROOT %reduce_sum.47 = f32[] add(%reduce_sum.45, %reduce_sum.46), metadata={op_name="jit(predict_step)/Model/block1/unit01/conv1/conv1.param/reduce_sum" stack_frame_id=28}
}

%region_8.10 (reduce_sum.52: f32[], reduce_sum.53: f32[]) -> f32[] {
  %reduce_sum.52 = f32[] parameter(0), metadata={op_name="reduce_sum"}
  %reduce_sum.53 = f32[] parameter(1), metadata={op_name="reduce_sum"}
  ROOT %reduce_sum.54 = f32[] add(%reduce_sum.52, %reduce_sum.53), metadata={op_name="jit(predict_step)/Model/block1/unit01/conv1/conv1.param/reduce_sum" stack_frame_id=29}
}

%region_9.11 (reduce_sum.59: f32[], reduce_sum.60: f32[]) -> f32[] {
  %reduce_sum.59 = f32[] parameter(0), metadata={op_name="reduce_sum"}
  %reduce_sum.60 = f32[] parameter(1), metadata={op_name="reduce_sum"}
  ROOT %reduce_sum.61 = f32[] add(%reduce_sum.59, %reduce_sum.60), metadata={op_name="jit(predict_step)/Model/block1/unit01/gn2/reduce_sum" stack_frame_id=32}
}

%region_10.12 (reduce_sum.66: f32[], reduce_sum.67: f32[]) -> f32[] {
  %reduce_sum.66 = f32[] parameter(0), metadata={op_name="reduce_sum"}
  %reduce_sum.67 = f32[] parameter(1), metadata={op_name="reduce_sum"}
  ROOT %reduce_sum.68 = f32[] add(%reduce_sum.66, %reduce_sum.67), metadata={op_name="jit(predict_step)/Model/block1/unit01/gn2/reduce_sum" stack_frame_id=33}
}

%region_11.13 (reduce_sum.73: f32[], reduce_sum.74: f32[]) -> f32[] {
  %reduce_sum.73 = f32[] parameter(0), metadata={op_name="reduce_sum"}
  %reduce_sum.74 = f32[] parameter(1), metadata={op_name="reduce_sum"}
  ROOT %reduce_sum.75 = f32[] add(%reduce_sum.73, %reduce_sum.74), metadata={op_name="jit(predict_step)/Model/block1/unit01/conv2/conv2.param/reduce_sum" stack_frame_id=37}
}

%region_12.14 (reduce_sum.80: f32[], reduce_sum.81: f32[]) -> f32[] {
  %reduce_sum.80 = f32[] parameter(0), metadata={op_name="reduce_sum"}
  %reduce_sum.81 = f32[] parameter(1), metadata={op_name="reduce_sum"}
  ROOT %reduce_sum.82 = f32[] add(%reduce_sum.80, %reduce_sum.81), metadata={op_name="jit(predict_step)/Model/block1/unit01/conv2/conv2.param/reduce_sum" stack_frame_id=38}
}

%region_13.15 (reduce_sum.87: f32[], reduce_sum.88: f32[]) -> f32[] {
  %reduce_sum.87 = f32[] parameter(0), metadata={op_name="reduce_sum"}
  %reduce_sum.88 = f32[] parameter(1), metadata={op_name="reduce_sum"}
  ROOT %reduce_sum.89 = f32[] add(%reduce_sum.87, %reduce_sum.88), metadata={op_name="jit(predict_step)/Model/block1/unit01/gn3/reduce_sum" stack_frame_id=41}
}

%region_14.16 (reduce_sum.94: f32[], reduce_sum.95: f32[]) -> f32[] {
  %reduce_sum.94 = f32[] parameter(0), metadata={op_name="reduce_sum"}
  %reduce_sum.95 = f32[] parameter(1), metadata={op_name="reduce_sum"}
  ROOT %reduce_sum.96 = f32[] add(%reduce_sum.94, %reduce_sum.95), metadata={op_name="jit(predict_step)/Model/block1/unit01/gn3/reduce_sum" stack_frame_id=42}
}

%region_15.17 (reduce_sum.101: f32[], reduce_sum.102: f32[]) -> f32[] {
  %reduce_sum.101 = f32[] parameter(0), metadata={op_name="reduce_sum"}
  %reduce_sum.102 = f32[] parameter(1), metadata={op_name="reduce_sum"}
  ROOT %reduce_sum.103 = f32[] add(%reduce_sum.101, %reduce_sum.102), metadata={op_name="jit(predict_step)/Model/block1/unit01/conv3/conv3.param/reduce_sum" stack_frame_id=46}
}

%region_16.18 (reduce_sum.108: f32[], reduce_sum.109: f32[]) -> f32[] {
  %reduce_sum.108 = f32[] parameter(0), metadata={op_name="reduce_sum"}
  %reduce_sum.109 = f32[] parameter(1), metadata={op_name="reduce_sum"}
  ROOT %reduce_sum.110 = f32[] add(%reduce_sum.108, %reduce_sum.109), metadata={op_name="jit(predict_step)/Model/block1/unit01/conv3/conv3.param/reduce_sum" stack_frame_id=47}
}

%region_5.7 (reduce_sum.31: f32[], reduce_sum.32: f32[]) -> f32[] {
  %reduce_sum.31 = f32[] parameter(0), metadata={op_name="reduce_sum"}
  %reduce_sum.32 = f32[] parameter(1), metadata={op_name="reduce_sum"}
  ROOT %reduce_sum.33 = f32[] add(%reduce_sum.31, %reduce_sum.32), metadata={op_name="jit(predict_step)/Model/block1/unit01/conv_proj/conv_proj.param/reduce_sum" stack_frame_id=23}
}

%region_6.8 (reduce_sum.38: f32[], reduce_sum.39: f32[]) -> f32[] {
  %reduce_sum.38 = f32[] parameter(0), metadata={op_name="reduce_sum"}
  %reduce_sum.39 = f32[] parameter(1), metadata={op_name="reduce_sum"}
  ROOT %reduce_sum.40 = f32[] add(%reduce_sum.38, %reduce_sum.39), metadata={op_name="jit(predict_step)/Model/block1/unit01/conv_proj/conv_proj.param/reduce_sum" stack_frame_id=24}
}

%region_17.19 (reduce_sum.115: f32[], reduce_sum.116: f32[]) -> f32[] {
  %reduce_sum.115 = f32[] parameter(0), metadata={op_name="reduce_sum"}
  %reduce_sum.116 = f32[] parameter(1), metadata={op_name="reduce_sum"}
  ROOT %reduce_sum.117 = f32[] add(%reduce_sum.115, %reduce_sum.116), metadata={op_name="jit(predict_step)/Model/block1/unit02/gn1/reduce_sum" stack_frame_id=51}
}

%region_18.20 (reduce_sum.122: f32[], reduce_sum.123: f32[]) -> f32[] {
  %reduce_sum.122 = f32[] parameter(0), metadata={op_name="reduce_sum"}
  %reduce_sum.123 = f32[] parameter(1), metadata={op_name="reduce_sum"}
  ROOT %reduce_sum.124 = f32[] add(%reduce_sum.122, %reduce_sum.123), metadata={op_name="jit(predict_step)/Model/block1/unit02/gn1/reduce_sum" stack_frame_id=52}
}

%relu_0.21 (Arg_0.3: f32[8,56,56,256]) -> f32[8,56,56,256] {
  %Arg_0.3 = f32[8,56,56,256]{3,2,1,0} parameter(0)
  %constant.39 = f32[] constant(0)
  %max.6 = f32[8,56,56,256]{3,2,1,0} broadcast(%constant.39), dimensions={}, metadata={op_name="max"}
  ROOT %max.7 = f32[8,56,56,256]{3,2,1,0} maximum(%Arg_0.3, %max.6), metadata={op_name="max"}
}

%region_19.22 (reduce_sum.129: f32[], reduce_sum.130: f32[]) -> f32[] {
  %reduce_sum.129 = f32[] parameter(0), metadata={op_name="reduce_sum"}
  %reduce_sum.130 = f32[] parameter(1), metadata={op_name="reduce_sum"}
  ROOT %reduce_sum.131 = f32[] add(%reduce_sum.129, %reduce_sum.130), metadata={op_name="jit(predict_step)/Model/block1/unit02/conv1/conv1.param/reduce_sum" stack_frame_id=56}
}

%region_20.23 (reduce_sum.136: f32[], reduce_sum.137: f32[]) -> f32[] {
  %reduce_sum.136 = f32[] parameter(0), metadata={op_name="reduce_sum"}
  %reduce_sum.137 = f32[] parameter(1), metadata={op_name="reduce_sum"}
  ROOT %reduce_sum.138 = f32[] add(%reduce_sum.136, %reduce_sum.137), metadata={op_name="jit(predict_step)/Model/block1/unit02/conv1/conv1.param/reduce_sum" stack_frame_id=57}
}

%region_21.24 (reduce_sum.143: f32[], reduce_sum.144: f32[]) -> f32[] {
  %reduce_sum.143 = f32[] parameter(0), metadata={op_name="reduce_sum"}
  %reduce_sum.144 = f32[] parameter(1), metadata={op_name="reduce_sum"}
  ROOT %reduce_sum.145 = f32[] add(%reduce_sum.143, %reduce_sum.144), metadata={op_name="jit(predict_step)/Model/block1/unit02/gn2/reduce_sum" stack_frame_id=60}
}

%region_22.25 (reduce_sum.150: f32[], reduce_sum.151: f32[]) -> f32[] {
  %reduce_sum.150 = f32[] parameter(0), metadata={op_name="reduce_sum"}
  %reduce_sum.151 = f32[] parameter(1), metadata={op_name="reduce_sum"}
  ROOT %reduce_sum.152 = f32[] add(%reduce_sum.150, %reduce_sum.151), metadata={op_name="jit(predict_step)/Model/block1/unit02/gn2/reduce_sum" stack_frame_id=61}
}

%region_23.26 (reduce_sum.157: f32[], reduce_sum.158: f32[]) -> f32[] {
  %reduce_sum.157 = f32[] parameter(0), metadata={op_name="reduce_sum"}
  %reduce_sum.158 = f32[] parameter(1), metadata={op_name="reduce_sum"}
  ROOT %reduce_sum.159 = f32[] add(%reduce_sum.157, %reduce_sum.158), metadata={op_name="jit(predict_step)/Model/block1/unit02/conv2/conv2.param/reduce_sum" stack_frame_id=65}
}

%region_24.27 (reduce_sum.164: f32[], reduce_sum.165: f32[]) -> f32[] {
  %reduce_sum.164 = f32[] parameter(0), metadata={op_name="reduce_sum"}
  %reduce_sum.165 = f32[] parameter(1), metadata={op_name="reduce_sum"}
  ROOT %reduce_sum.166 = f32[] add(%reduce_sum.164, %reduce_sum.165), metadata={op_name="jit(predict_step)/Model/block1/unit02/conv2/conv2.param/reduce_sum" stack_frame_id=66}
}

%region_25.28 (reduce_sum.171: f32[], reduce_sum.172: f32[]) -> f32[] {
  %reduce_sum.171 = f32[] parameter(0), metadata={op_name="reduce_sum"}
  %reduce_sum.172 = f32[] parameter(1), metadata={op_name="reduce_sum"}
  ROOT %reduce_sum.173 = f32[] add(%reduce_sum.171, %reduce_sum.172), metadata={op_name="jit(predict_step)/Model/block1/unit02/gn3/reduce_sum" stack_frame_id=69}
}

%region_26.29 (reduce_sum.178: f32[], reduce_sum.179: f32[]) -> f32[] {
  %reduce_sum.178 = f32[] parameter(0), metadata={op_name="reduce_sum"}
  %reduce_sum.179 = f32[] parameter(1), metadata={op_name="reduce_sum"}
  ROOT %reduce_sum.180 = f32[] add(%reduce_sum.178, %reduce_sum.179), metadata={op_name="jit(predict_step)/Model/block1/unit02/gn3/reduce_sum" stack_frame_id=70}
}

%region_27.30 (reduce_sum.185: f32[], reduce_sum.186: f32[]) -> f32[] {
  %reduce_sum.185 = f32[] parameter(0), metadata={op_name="reduce_sum"}
  %reduce_sum.186 = f32[] parameter(1), metadata={op_name="reduce_sum"}
  ROOT %reduce_sum.187 = f32[] add(%reduce_sum.185, %reduce_sum.186), metadata={op_name="jit(predict_step)/Model/block1/unit02/conv3/conv3.param/reduce_sum" stack_frame_id=74}
}

%region_28.31 (reduce_sum.192: f32[], reduce_sum.193: f32[]) -> f32[] {
  %reduce_sum.192 = f32[] parameter(0), metadata={op_name="reduce_sum"}
  %reduce_sum.193 = f32[] parameter(1), metadata={op_name="reduce_sum"}
  ROOT %reduce_sum.194 = f32[] add(%reduce_sum.192, %reduce_sum.193), metadata={op_name="jit(predict_step)/Model/block1/unit02/conv3/conv3.param/reduce_sum" stack_frame_id=75}
}

%region_29.32 (reduce_sum.199: f32[], reduce_sum.200: f32[]) -> f32[] {
  %reduce_sum.199 = f32[] parameter(0), metadata={op_name="reduce_sum"}
  %reduce_sum.200 = f32[] parameter(1), metadata={op_name="reduce_sum"}
  ROOT %reduce_sum.201 = f32[] add(%reduce_sum.199, %reduce_sum.200), metadata={op_name="jit(predict_step)/Model/block1/unit03/gn1/reduce_sum" stack_frame_id=51}
}

%region_30.33 (reduce_sum.206: f32[], reduce_sum.207: f32[]) -> f32[] {
  %reduce_sum.206 = f32[] parameter(0), metadata={op_name="reduce_sum"}
  %reduce_sum.207 = f32[] parameter(1), metadata={op_name="reduce_sum"}
  ROOT %reduce_sum.208 = f32[] add(%reduce_sum.206, %reduce_sum.207), metadata={op_name="jit(predict_step)/Model/block1/unit03/gn1/reduce_sum" stack_frame_id=52}
}

%region_31.34 (reduce_sum.213: f32[], reduce_sum.214: f32[]) -> f32[] {
  %reduce_sum.213 = f32[] parameter(0), metadata={op_name="reduce_sum"}
  %reduce_sum.214 = f32[] parameter(1), metadata={op_name="reduce_sum"}
  ROOT %reduce_sum.215 = f32[] add(%reduce_sum.213, %reduce_sum.214), metadata={op_name="jit(predict_step)/Model/block1/unit03/conv1/conv1.param/reduce_sum" stack_frame_id=56}
}

%region_32.35 (reduce_sum.220: f32[], reduce_sum.221: f32[]) -> f32[] {
  %reduce_sum.220 = f32[] parameter(0), metadata={op_name="reduce_sum"}
  %reduce_sum.221 = f32[] parameter(1), metadata={op_name="reduce_sum"}
  ROOT %reduce_sum.222 = f32[] add(%reduce_sum.220, %reduce_sum.221), metadata={op_name="jit(predict_step)/Model/block1/unit03/conv1/conv1.param/reduce_sum" stack_frame_id=57}
}

%region_33.36 (reduce_sum.227: f32[], reduce_sum.228: f32[]) -> f32[] {
  %reduce_sum.227 = f32[] parameter(0), metadata={op_name="reduce_sum"}
  %reduce_sum.228 = f32[] parameter(1), metadata={op_name="reduce_sum"}
  ROOT %reduce_sum.229 = f32[] add(%reduce_sum.227, %reduce_sum.228), metadata={op_name="jit(predict_step)/Model/block1/unit03/gn2/reduce_sum" stack_frame_id=60}
}

%region_34.37 (reduce_sum.234: f32[], reduce_sum.235: f32[]) -> f32[] {
  %reduce_sum.234 = f32[] parameter(0), metadata={op_name="reduce_sum"}
  %reduce_sum.235 = f32[] parameter(1), metadata={op_name="reduce_sum"}
  ROOT %reduce_sum.236 = f32[] add(%reduce_sum.234, %reduce_sum.235), metadata={op_name="jit(predict_step)/Model/block1/unit03/gn2/reduce_sum" stack_frame_id=61}
}

%region_35.38 (reduce_sum.241: f32[], reduce_sum.242: f32[]) -> f32[] {
  %reduce_sum.241 = f32[] parameter(0), metadata={op_name="reduce_sum"}
  %reduce_sum.242 = f32[] parameter(1), metadata={op_name="reduce_sum"}
  ROOT %reduce_sum.243 = f32[] add(%reduce_sum.241, %reduce_sum.242), metadata={op_name="jit(predict_step)/Model/block1/unit03/conv2/conv2.param/reduce_sum" stack_frame_id=65}
}

%region_36.39 (reduce_sum.248: f32[], reduce_sum.249: f32[]) -> f32[] {
  %reduce_sum.248 = f32[] parameter(0), metadata={op_name="reduce_sum"}
  %reduce_sum.249 = f32[] parameter(1), metadata={op_name="reduce_sum"}
  ROOT %reduce_sum.250 = f32[] add(%reduce_sum.248, %reduce_sum.249), metadata={op_name="jit(predict_step)/Model/block1/unit03/conv2/conv2.param/reduce_sum" stack_frame_id=66}
}

%region_37.40 (reduce_sum.255: f32[], reduce_sum.256: f32[]) -> f32[] {
  %reduce_sum.255 = f32[] parameter(0), metadata={op_name="reduce_sum"}
  %reduce_sum.256 = f32[] parameter(1), metadata={op_name="reduce_sum"}
  ROOT %reduce_sum.257 = f32[] add(%reduce_sum.255, %reduce_sum.256), metadata={op_name="jit(predict_step)/Model/block1/unit03/gn3/reduce_sum" stack_frame_id=69}
}

%region_38.41 (reduce_sum.262: f32[], reduce_sum.263: f32[]) -> f32[] {
  %reduce_sum.262 = f32[] parameter(0), metadata={op_name="reduce_sum"}
  %reduce_sum.263 = f32[] parameter(1), metadata={op_name="reduce_sum"}
  ROOT %reduce_sum.264 = f32[] add(%reduce_sum.262, %reduce_sum.263), metadata={op_name="jit(predict_step)/Model/block1/unit03/gn3/reduce_sum" stack_frame_id=70}
}

%region_39.42 (reduce_sum.269: f32[], reduce_sum.270: f32[]) -> f32[] {
  %reduce_sum.269 = f32[] parameter(0), metadata={op_name="reduce_sum"}
  %reduce_sum.270 = f32[] parameter(1), metadata={op_name="reduce_sum"}
  ROOT %reduce_sum.271 = f32[] add(%reduce_sum.269, %reduce_sum.270), metadata={op_name="jit(predict_step)/Model/block1/unit03/conv3/conv3.param/reduce_sum" stack_frame_id=74}
}

%region_40.43 (reduce_sum.276: f32[], reduce_sum.277: f32[]) -> f32[] {
  %reduce_sum.276 = f32[] parameter(0), metadata={op_name="reduce_sum"}
  %reduce_sum.277 = f32[] parameter(1), metadata={op_name="reduce_sum"}
  ROOT %reduce_sum.278 = f32[] add(%reduce_sum.276, %reduce_sum.277), metadata={op_name="jit(predict_step)/Model/block1/unit03/conv3/conv3.param/reduce_sum" stack_frame_id=75}
}

%region_41.44 (reduce_sum.283: f32[], reduce_sum.284: f32[]) -> f32[] {
  %reduce_sum.283 = f32[] parameter(0), metadata={op_name="reduce_sum"}
  %reduce_sum.284 = f32[] parameter(1), metadata={op_name="reduce_sum"}
  ROOT %reduce_sum.285 = f32[] add(%reduce_sum.283, %reduce_sum.284), metadata={op_name="jit(predict_step)/Model/block2/unit01/gn1/reduce_sum" stack_frame_id=80}
}

%region_42.45 (reduce_sum.290: f32[], reduce_sum.291: f32[]) -> f32[] {
  %reduce_sum.290 = f32[] parameter(0), metadata={op_name="reduce_sum"}
  %reduce_sum.291 = f32[] parameter(1), metadata={op_name="reduce_sum"}
  ROOT %reduce_sum.292 = f32[] add(%reduce_sum.290, %reduce_sum.291), metadata={op_name="jit(predict_step)/Model/block2/unit01/gn1/reduce_sum" stack_frame_id=81}
}

%region_45.48 (reduce_sum.311: f32[], reduce_sum.312: f32[]) -> f32[] {
  %reduce_sum.311 = f32[] parameter(0), metadata={op_name="reduce_sum"}
  %reduce_sum.312 = f32[] parameter(1), metadata={op_name="reduce_sum"}
  ROOT %reduce_sum.313 = f32[] add(%reduce_sum.311, %reduce_sum.312), metadata={op_name="jit(predict_step)/Model/block2/unit01/conv1/conv1.param/reduce_sum" stack_frame_id=90}
}

%region_46.49 (reduce_sum.318: f32[], reduce_sum.319: f32[]) -> f32[] {
  %reduce_sum.318 = f32[] parameter(0), metadata={op_name="reduce_sum"}
  %reduce_sum.319 = f32[] parameter(1), metadata={op_name="reduce_sum"}
  ROOT %reduce_sum.320 = f32[] add(%reduce_sum.318, %reduce_sum.319), metadata={op_name="jit(predict_step)/Model/block2/unit01/conv1/conv1.param/reduce_sum" stack_frame_id=91}
}

%region_47.50 (reduce_sum.325: f32[], reduce_sum.326: f32[]) -> f32[] {
  %reduce_sum.325 = f32[] parameter(0), metadata={op_name="reduce_sum"}
  %reduce_sum.326 = f32[] parameter(1), metadata={op_name="reduce_sum"}
  ROOT %reduce_sum.327 = f32[] add(%reduce_sum.325, %reduce_sum.326), metadata={op_name="jit(predict_step)/Model/block2/unit01/gn2/reduce_sum" stack_frame_id=94}
}

%region_48.51 (reduce_sum.332: f32[], reduce_sum.333: f32[]) -> f32[] {
  %reduce_sum.332 = f32[] parameter(0), metadata={op_name="reduce_sum"}
  %reduce_sum.333 = f32[] parameter(1), metadata={op_name="reduce_sum"}
  ROOT %reduce_sum.334 = f32[] add(%reduce_sum.332, %reduce_sum.333), metadata={op_name="jit(predict_step)/Model/block2/unit01/gn2/reduce_sum" stack_frame_id=95}
}

%relu_1.52 (Arg_0.5: f32[8,56,56,128]) -> f32[8,56,56,128] {
  %Arg_0.5 = f32[8,56,56,128]{3,2,1,0} parameter(0)
  %constant.41 = f32[] constant(0)
  %max.10 = f32[8,56,56,128]{3,2,1,0} broadcast(%constant.41), dimensions={}, metadata={op_name="max"}
  ROOT %max.11 = f32[8,56,56,128]{3,2,1,0} maximum(%Arg_0.5, %max.10), metadata={op_name="max"}
}

%region_49.53 (reduce_sum.339: f32[], reduce_sum.340: f32[]) -> f32[] {
  %reduce_sum.339 = f32[] parameter(0), metadata={op_name="reduce_sum"}
  %reduce_sum.340 = f32[] parameter(1), metadata={op_name="reduce_sum"}
  ROOT %reduce_sum.341 = f32[] add(%reduce_sum.339, %reduce_sum.340), metadata={op_name="jit(predict_step)/Model/block2/unit01/conv2/conv2.param/reduce_sum" stack_frame_id=99}
}

%region_50.54 (reduce_sum.346: f32[], reduce_sum.347: f32[]) -> f32[] {
  %reduce_sum.346 = f32[] parameter(0), metadata={op_name="reduce_sum"}
  %reduce_sum.347 = f32[] parameter(1), metadata={op_name="reduce_sum"}
  ROOT %reduce_sum.348 = f32[] add(%reduce_sum.346, %reduce_sum.347), metadata={op_name="jit(predict_step)/Model/block2/unit01/conv2/conv2.param/reduce_sum" stack_frame_id=100}
}

%region_51.55 (reduce_sum.353: f32[], reduce_sum.354: f32[]) -> f32[] {
  %reduce_sum.353 = f32[] parameter(0), metadata={op_name="reduce_sum"}
  %reduce_sum.354 = f32[] parameter(1), metadata={op_name="reduce_sum"}
  ROOT %reduce_sum.355 = f32[] add(%reduce_sum.353, %reduce_sum.354), metadata={op_name="jit(predict_step)/Model/block2/unit01/gn3/reduce_sum" stack_frame_id=103}
}

%region_52.56 (reduce_sum.360: f32[], reduce_sum.361: f32[]) -> f32[] {
  %reduce_sum.360 = f32[] parameter(0), metadata={op_name="reduce_sum"}
  %reduce_sum.361 = f32[] parameter(1), metadata={op_name="reduce_sum"}
  ROOT %reduce_sum.362 = f32[] add(%reduce_sum.360, %reduce_sum.361), metadata={op_name="jit(predict_step)/Model/block2/unit01/gn3/reduce_sum" stack_frame_id=104}
}

%relu_2.57 (Arg_0.7: f32[8,28,28,128]) -> f32[8,28,28,128] {
  %Arg_0.7 = f32[8,28,28,128]{3,2,1,0} parameter(0)
  %constant.43 = f32[] constant(0)
  %max.14 = f32[8,28,28,128]{3,2,1,0} broadcast(%constant.43), dimensions={}, metadata={op_name="max"}
  ROOT %max.15 = f32[8,28,28,128]{3,2,1,0} maximum(%Arg_0.7, %max.14), metadata={op_name="max"}
}

%region_53.58 (reduce_sum.367: f32[], reduce_sum.368: f32[]) -> f32[] {
  %reduce_sum.367 = f32[] parameter(0), metadata={op_name="reduce_sum"}
  %reduce_sum.368 = f32[] parameter(1), metadata={op_name="reduce_sum"}
  ROOT %reduce_sum.369 = f32[] add(%reduce_sum.367, %reduce_sum.368), metadata={op_name="jit(predict_step)/Model/block2/unit01/conv3/conv3.param/reduce_sum" stack_frame_id=108}
}

%region_54.59 (reduce_sum.374: f32[], reduce_sum.375: f32[]) -> f32[] {
  %reduce_sum.374 = f32[] parameter(0), metadata={op_name="reduce_sum"}
  %reduce_sum.375 = f32[] parameter(1), metadata={op_name="reduce_sum"}
  ROOT %reduce_sum.376 = f32[] add(%reduce_sum.374, %reduce_sum.375), metadata={op_name="jit(predict_step)/Model/block2/unit01/conv3/conv3.param/reduce_sum" stack_frame_id=109}
}

%region_43.46 (reduce_sum.297: f32[], reduce_sum.298: f32[]) -> f32[] {
  %reduce_sum.297 = f32[] parameter(0), metadata={op_name="reduce_sum"}
  %reduce_sum.298 = f32[] parameter(1), metadata={op_name="reduce_sum"}
  ROOT %reduce_sum.299 = f32[] add(%reduce_sum.297, %reduce_sum.298), metadata={op_name="jit(predict_step)/Model/block2/unit01/conv_proj/conv_proj.param/reduce_sum" stack_frame_id=85}
}

%region_44.47 (reduce_sum.304: f32[], reduce_sum.305: f32[]) -> f32[] {
  %reduce_sum.304 = f32[] parameter(0), metadata={op_name="reduce_sum"}
  %reduce_sum.305 = f32[] parameter(1), metadata={op_name="reduce_sum"}
  ROOT %reduce_sum.306 = f32[] add(%reduce_sum.304, %reduce_sum.305), metadata={op_name="jit(predict_step)/Model/block2/unit01/conv_proj/conv_proj.param/reduce_sum" stack_frame_id=86}
}

%region_55.60 (reduce_sum.381: f32[], reduce_sum.382: f32[]) -> f32[] {
  %reduce_sum.381 = f32[] parameter(0), metadata={op_name="reduce_sum"}
  %reduce_sum.382 = f32[] parameter(1), metadata={op_name="reduce_sum"}
  ROOT %reduce_sum.383 = f32[] add(%reduce_sum.381, %reduce_sum.382), metadata={op_name="jit(predict_step)/Model/block2/unit02/gn1/reduce_sum" stack_frame_id=113}
}

%region_56.61 (reduce_sum.388: f32[], reduce_sum.389: f32[]) -> f32[] {
  %reduce_sum.388 = f32[] parameter(0), metadata={op_name="reduce_sum"}
  %reduce_sum.389 = f32[] parameter(1), metadata={op_name="reduce_sum"}
  ROOT %reduce_sum.390 = f32[] add(%reduce_sum.388, %reduce_sum.389), metadata={op_name="jit(predict_step)/Model/block2/unit02/gn1/reduce_sum" stack_frame_id=114}
}

%relu_3.62 (Arg_0.9: f32[8,28,28,512]) -> f32[8,28,28,512] {
  %Arg_0.9 = f32[8,28,28,512]{3,2,1,0} parameter(0)
  %constant.45 = f32[] constant(0)
  %max.18 = f32[8,28,28,512]{3,2,1,0} broadcast(%constant.45), dimensions={}, metadata={op_name="max"}
  ROOT %max.19 = f32[8,28,28,512]{3,2,1,0} maximum(%Arg_0.9, %max.18), metadata={op_name="max"}
}

%region_57.63 (reduce_sum.395: f32[], reduce_sum.396: f32[]) -> f32[] {
  %reduce_sum.395 = f32[] parameter(0), metadata={op_name="reduce_sum"}
  %reduce_sum.396 = f32[] parameter(1), metadata={op_name="reduce_sum"}
  ROOT %reduce_sum.397 = f32[] add(%reduce_sum.395, %reduce_sum.396), metadata={op_name="jit(predict_step)/Model/block2/unit02/conv1/conv1.param/reduce_sum" stack_frame_id=118}
}

%region_58.64 (reduce_sum.402: f32[], reduce_sum.403: f32[]) -> f32[] {
  %reduce_sum.402 = f32[] parameter(0), metadata={op_name="reduce_sum"}
  %reduce_sum.403 = f32[] parameter(1), metadata={op_name="reduce_sum"}
  ROOT %reduce_sum.404 = f32[] add(%reduce_sum.402, %reduce_sum.403), metadata={op_name="jit(predict_step)/Model/block2/unit02/conv1/conv1.param/reduce_sum" stack_frame_id=119}
}

%region_59.65 (reduce_sum.409: f32[], reduce_sum.410: f32[]) -> f32[] {
  %reduce_sum.409 = f32[] parameter(0), metadata={op_name="reduce_sum"}
  %reduce_sum.410 = f32[] parameter(1), metadata={op_name="reduce_sum"}
  ROOT %reduce_sum.411 = f32[] add(%reduce_sum.409, %reduce_sum.410), metadata={op_name="jit(predict_step)/Model/block2/unit02/gn2/reduce_sum" stack_frame_id=122}
}

%region_60.66 (reduce_sum.416: f32[], reduce_sum.417: f32[]) -> f32[] {
  %reduce_sum.416 = f32[] parameter(0), metadata={op_name="reduce_sum"}
  %reduce_sum.417 = f32[] parameter(1), metadata={op_name="reduce_sum"}
  ROOT %reduce_sum.418 = f32[] add(%reduce_sum.416, %reduce_sum.417), metadata={op_name="jit(predict_step)/Model/block2/unit02/gn2/reduce_sum" stack_frame_id=123}
}

%region_61.67 (reduce_sum.423: f32[], reduce_sum.424: f32[]) -> f32[] {
  %reduce_sum.423 = f32[] parameter(0), metadata={op_name="reduce_sum"}
  %reduce_sum.424 = f32[] parameter(1), metadata={op_name="reduce_sum"}
  ROOT %reduce_sum.425 = f32[] add(%reduce_sum.423, %reduce_sum.424), metadata={op_name="jit(predict_step)/Model/block2/unit02/conv2/conv2.param/reduce_sum" stack_frame_id=127}
}

%region_62.68 (reduce_sum.430: f32[], reduce_sum.431: f32[]) -> f32[] {
  %reduce_sum.430 = f32[] parameter(0), metadata={op_name="reduce_sum"}
  %reduce_sum.431 = f32[] parameter(1), metadata={op_name="reduce_sum"}
  ROOT %reduce_sum.432 = f32[] add(%reduce_sum.430, %reduce_sum.431), metadata={op_name="jit(predict_step)/Model/block2/unit02/conv2/conv2.param/reduce_sum" stack_frame_id=128}
}

%region_63.69 (reduce_sum.437: f32[], reduce_sum.438: f32[]) -> f32[] {
  %reduce_sum.437 = f32[] parameter(0), metadata={op_name="reduce_sum"}
  %reduce_sum.438 = f32[] parameter(1), metadata={op_name="reduce_sum"}
  ROOT %reduce_sum.439 = f32[] add(%reduce_sum.437, %reduce_sum.438), metadata={op_name="jit(predict_step)/Model/block2/unit02/gn3/reduce_sum" stack_frame_id=131}
}

%region_64.70 (reduce_sum.444: f32[], reduce_sum.445: f32[]) -> f32[] {
  %reduce_sum.444 = f32[] parameter(0), metadata={op_name="reduce_sum"}
  %reduce_sum.445 = f32[] parameter(1), metadata={op_name="reduce_sum"}
  ROOT %reduce_sum.446 = f32[] add(%reduce_sum.444, %reduce_sum.445), metadata={op_name="jit(predict_step)/Model/block2/unit02/gn3/reduce_sum" stack_frame_id=132}
}

%region_65.71 (reduce_sum.451: f32[], reduce_sum.452: f32[]) -> f32[] {
  %reduce_sum.451 = f32[] parameter(0), metadata={op_name="reduce_sum"}
  %reduce_sum.452 = f32[] parameter(1), metadata={op_name="reduce_sum"}
  ROOT %reduce_sum.453 = f32[] add(%reduce_sum.451, %reduce_sum.452), metadata={op_name="jit(predict_step)/Model/block2/unit02/conv3/conv3.param/reduce_sum" stack_frame_id=136}
}

%region_66.72 (reduce_sum.458: f32[], reduce_sum.459: f32[]) -> f32[] {
  %reduce_sum.458 = f32[] parameter(0), metadata={op_name="reduce_sum"}
  %reduce_sum.459 = f32[] parameter(1), metadata={op_name="reduce_sum"}
  ROOT %reduce_sum.460 = f32[] add(%reduce_sum.458, %reduce_sum.459), metadata={op_name="jit(predict_step)/Model/block2/unit02/conv3/conv3.param/reduce_sum" stack_frame_id=137}
}

%region_67.73 (reduce_sum.465: f32[], reduce_sum.466: f32[]) -> f32[] {
  %reduce_sum.465 = f32[] parameter(0), metadata={op_name="reduce_sum"}
  %reduce_sum.466 = f32[] parameter(1), metadata={op_name="reduce_sum"}
  ROOT %reduce_sum.467 = f32[] add(%reduce_sum.465, %reduce_sum.466), metadata={op_name="jit(predict_step)/Model/block2/unit03/gn1/reduce_sum" stack_frame_id=113}
}

%region_68.74 (reduce_sum.472: f32[], reduce_sum.473: f32[]) -> f32[] {
  %reduce_sum.472 = f32[] parameter(0), metadata={op_name="reduce_sum"}
  %reduce_sum.473 = f32[] parameter(1), metadata={op_name="reduce_sum"}
  ROOT %reduce_sum.474 = f32[] add(%reduce_sum.472, %reduce_sum.473), metadata={op_name="jit(predict_step)/Model/block2/unit03/gn1/reduce_sum" stack_frame_id=114}
}

%region_69.75 (reduce_sum.479: f32[], reduce_sum.480: f32[]) -> f32[] {
  %reduce_sum.479 = f32[] parameter(0), metadata={op_name="reduce_sum"}
  %reduce_sum.480 = f32[] parameter(1), metadata={op_name="reduce_sum"}
  ROOT %reduce_sum.481 = f32[] add(%reduce_sum.479, %reduce_sum.480), metadata={op_name="jit(predict_step)/Model/block2/unit03/conv1/conv1.param/reduce_sum" stack_frame_id=118}
}

%region_70.76 (reduce_sum.486: f32[], reduce_sum.487: f32[]) -> f32[] {
  %reduce_sum.486 = f32[] parameter(0), metadata={op_name="reduce_sum"}
  %reduce_sum.487 = f32[] parameter(1), metadata={op_name="reduce_sum"}
  ROOT %reduce_sum.488 = f32[] add(%reduce_sum.486, %reduce_sum.487), metadata={op_name="jit(predict_step)/Model/block2/unit03/conv1/conv1.param/reduce_sum" stack_frame_id=119}
}

%region_71.77 (reduce_sum.493: f32[], reduce_sum.494: f32[]) -> f32[] {
  %reduce_sum.493 = f32[] parameter(0), metadata={op_name="reduce_sum"}
  %reduce_sum.494 = f32[] parameter(1), metadata={op_name="reduce_sum"}
  ROOT %reduce_sum.495 = f32[] add(%reduce_sum.493, %reduce_sum.494), metadata={op_name="jit(predict_step)/Model/block2/unit03/gn2/reduce_sum" stack_frame_id=122}
}

%region_72.78 (reduce_sum.500: f32[], reduce_sum.501: f32[]) -> f32[] {
  %reduce_sum.500 = f32[] parameter(0), metadata={op_name="reduce_sum"}
  %reduce_sum.501 = f32[] parameter(1), metadata={op_name="reduce_sum"}
  ROOT %reduce_sum.502 = f32[] add(%reduce_sum.500, %reduce_sum.501), metadata={op_name="jit(predict_step)/Model/block2/unit03/gn2/reduce_sum" stack_frame_id=123}
}

%region_73.79 (reduce_sum.507: f32[], reduce_sum.508: f32[]) -> f32[] {
  %reduce_sum.507 = f32[] parameter(0), metadata={op_name="reduce_sum"}
  %reduce_sum.508 = f32[] parameter(1), metadata={op_name="reduce_sum"}
  ROOT %reduce_sum.509 = f32[] add(%reduce_sum.507, %reduce_sum.508), metadata={op_name="jit(predict_step)/Model/block2/unit03/conv2/conv2.param/reduce_sum" stack_frame_id=127}
}

%region_74.80 (reduce_sum.514: f32[], reduce_sum.515: f32[]) -> f32[] {
  %reduce_sum.514 = f32[] parameter(0), metadata={op_name="reduce_sum"}
  %reduce_sum.515 = f32[] parameter(1), metadata={op_name="reduce_sum"}
  ROOT %reduce_sum.516 = f32[] add(%reduce_sum.514, %reduce_sum.515), metadata={op_name="jit(predict_step)/Model/block2/unit03/conv2/conv2.param/reduce_sum" stack_frame_id=128}
}

%region_75.81 (reduce_sum.521: f32[], reduce_sum.522: f32[]) -> f32[] {
  %reduce_sum.521 = f32[] parameter(0), metadata={op_name="reduce_sum"}
  %reduce_sum.522 = f32[] parameter(1), metadata={op_name="reduce_sum"}
  ROOT %reduce_sum.523 = f32[] add(%reduce_sum.521, %reduce_sum.522), metadata={op_name="jit(predict_step)/Model/block2/unit03/gn3/reduce_sum" stack_frame_id=131}
}

%region_76.82 (reduce_sum.528: f32[], reduce_sum.529: f32[]) -> f32[] {
  %reduce_sum.528 = f32[] parameter(0), metadata={op_name="reduce_sum"}
  %reduce_sum.529 = f32[] parameter(1), metadata={op_name="reduce_sum"}
  ROOT %reduce_sum.530 = f32[] add(%reduce_sum.528, %reduce_sum.529), metadata={op_name="jit(predict_step)/Model/block2/unit03/gn3/reduce_sum" stack_frame_id=132}
}

%region_77.83 (reduce_sum.535: f32[], reduce_sum.536: f32[]) -> f32[] {
  %reduce_sum.535 = f32[] parameter(0), metadata={op_name="reduce_sum"}
  %reduce_sum.536 = f32[] parameter(1), metadata={op_name="reduce_sum"}
  ROOT %reduce_sum.537 = f32[] add(%reduce_sum.535, %reduce_sum.536), metadata={op_name="jit(predict_step)/Model/block2/unit03/conv3/conv3.param/reduce_sum" stack_frame_id=136}
}

%region_78.84 (reduce_sum.542: f32[], reduce_sum.543: f32[]) -> f32[] {
  %reduce_sum.542 = f32[] parameter(0), metadata={op_name="reduce_sum"}
  %reduce_sum.543 = f32[] parameter(1), metadata={op_name="reduce_sum"}
  ROOT %reduce_sum.544 = f32[] add(%reduce_sum.542, %reduce_sum.543), metadata={op_name="jit(predict_step)/Model/block2/unit03/conv3/conv3.param/reduce_sum" stack_frame_id=137}
}

%region_79.85 (reduce_sum.549: f32[], reduce_sum.550: f32[]) -> f32[] {
  %reduce_sum.549 = f32[] parameter(0), metadata={op_name="reduce_sum"}
  %reduce_sum.550 = f32[] parameter(1), metadata={op_name="reduce_sum"}
  ROOT %reduce_sum.551 = f32[] add(%reduce_sum.549, %reduce_sum.550), metadata={op_name="jit(predict_step)/Model/block2/unit04/gn1/reduce_sum" stack_frame_id=113}
}

%region_80.86 (reduce_sum.556: f32[], reduce_sum.557: f32[]) -> f32[] {
  %reduce_sum.556 = f32[] parameter(0), metadata={op_name="reduce_sum"}
  %reduce_sum.557 = f32[] parameter(1), metadata={op_name="reduce_sum"}
  ROOT %reduce_sum.558 = f32[] add(%reduce_sum.556, %reduce_sum.557), metadata={op_name="jit(predict_step)/Model/block2/unit04/gn1/reduce_sum" stack_frame_id=114}
}

%region_81.87 (reduce_sum.563: f32[], reduce_sum.564: f32[]) -> f32[] {
  %reduce_sum.563 = f32[] parameter(0), metadata={op_name="reduce_sum"}
  %reduce_sum.564 = f32[] parameter(1), metadata={op_name="reduce_sum"}
  ROOT %reduce_sum.565 = f32[] add(%reduce_sum.563, %reduce_sum.564), metadata={op_name="jit(predict_step)/Model/block2/unit04/conv1/conv1.param/reduce_sum" stack_frame_id=118}
}

%region_82.88 (reduce_sum.570: f32[], reduce_sum.571: f32[]) -> f32[] {
  %reduce_sum.570 = f32[] parameter(0), metadata={op_name="reduce_sum"}
  %reduce_sum.571 = f32[] parameter(1), metadata={op_name="reduce_sum"}
  ROOT %reduce_sum.572 = f32[] add(%reduce_sum.570, %reduce_sum.571), metadata={op_name="jit(predict_step)/Model/block2/unit04/conv1/conv1.param/reduce_sum" stack_frame_id=119}
}

%region_83.89 (reduce_sum.577: f32[], reduce_sum.578: f32[]) -> f32[] {
  %reduce_sum.577 = f32[] parameter(0), metadata={op_name="reduce_sum"}
  %reduce_sum.578 = f32[] parameter(1), metadata={op_name="reduce_sum"}
  ROOT %reduce_sum.579 = f32[] add(%reduce_sum.577, %reduce_sum.578), metadata={op_name="jit(predict_step)/Model/block2/unit04/gn2/reduce_sum" stack_frame_id=122}
}

%region_84.90 (reduce_sum.584: f32[], reduce_sum.585: f32[]) -> f32[] {
  %reduce_sum.584 = f32[] parameter(0), metadata={op_name="reduce_sum"}
  %reduce_sum.585 = f32[] parameter(1), metadata={op_name="reduce_sum"}
  ROOT %reduce_sum.586 = f32[] add(%reduce_sum.584, %reduce_sum.585), metadata={op_name="jit(predict_step)/Model/block2/unit04/gn2/reduce_sum" stack_frame_id=123}
}

%region_85.91 (reduce_sum.591: f32[], reduce_sum.592: f32[]) -> f32[] {
  %reduce_sum.591 = f32[] parameter(0), metadata={op_name="reduce_sum"}
  %reduce_sum.592 = f32[] parameter(1), metadata={op_name="reduce_sum"}
  ROOT %reduce_sum.593 = f32[] add(%reduce_sum.591, %reduce_sum.592), metadata={op_name="jit(predict_step)/Model/block2/unit04/conv2/conv2.param/reduce_sum" stack_frame_id=127}
}

%region_86.92 (reduce_sum.598: f32[], reduce_sum.599: f32[]) -> f32[] {
  %reduce_sum.598 = f32[] parameter(0), metadata={op_name="reduce_sum"}
  %reduce_sum.599 = f32[] parameter(1), metadata={op_name="reduce_sum"}
  ROOT %reduce_sum.600 = f32[] add(%reduce_sum.598, %reduce_sum.599), metadata={op_name="jit(predict_step)/Model/block2/unit04/conv2/conv2.param/reduce_sum" stack_frame_id=128}
}

%region_87.93 (reduce_sum.605: f32[], reduce_sum.606: f32[]) -> f32[] {
  %reduce_sum.605 = f32[] parameter(0), metadata={op_name="reduce_sum"}
  %reduce_sum.606 = f32[] parameter(1), metadata={op_name="reduce_sum"}
  ROOT %reduce_sum.607 = f32[] add(%reduce_sum.605, %reduce_sum.606), metadata={op_name="jit(predict_step)/Model/block2/unit04/gn3/reduce_sum" stack_frame_id=131}
}

%region_88.94 (reduce_sum.612: f32[], reduce_sum.613: f32[]) -> f32[] {
  %reduce_sum.612 = f32[] parameter(0), metadata={op_name="reduce_sum"}
  %reduce_sum.613 = f32[] parameter(1), metadata={op_name="reduce_sum"}
  ROOT %reduce_sum.614 = f32[] add(%reduce_sum.612, %reduce_sum.613), metadata={op_name="jit(predict_step)/Model/block2/unit04/gn3/reduce_sum" stack_frame_id=132}
}

%region_89.95 (reduce_sum.619: f32[], reduce_sum.620: f32[]) -> f32[] {
  %reduce_sum.619 = f32[] parameter(0), metadata={op_name="reduce_sum"}
  %reduce_sum.620 = f32[] parameter(1), metadata={op_name="reduce_sum"}
  ROOT %reduce_sum.621 = f32[] add(%reduce_sum.619, %reduce_sum.620), metadata={op_name="jit(predict_step)/Model/block2/unit04/conv3/conv3.param/reduce_sum" stack_frame_id=136}
}

%region_90.96 (reduce_sum.626: f32[], reduce_sum.627: f32[]) -> f32[] {
  %reduce_sum.626 = f32[] parameter(0), metadata={op_name="reduce_sum"}
  %reduce_sum.627 = f32[] parameter(1), metadata={op_name="reduce_sum"}
  ROOT %reduce_sum.628 = f32[] add(%reduce_sum.626, %reduce_sum.627), metadata={op_name="jit(predict_step)/Model/block2/unit04/conv3/conv3.param/reduce_sum" stack_frame_id=137}
}

%region_91.97 (reduce_sum.633: f32[], reduce_sum.634: f32[]) -> f32[] {
  %reduce_sum.633 = f32[] parameter(0), metadata={op_name="reduce_sum"}
  %reduce_sum.634 = f32[] parameter(1), metadata={op_name="reduce_sum"}
  ROOT %reduce_sum.635 = f32[] add(%reduce_sum.633, %reduce_sum.634), metadata={op_name="jit(predict_step)/Model/block3/unit01/gn1/reduce_sum" stack_frame_id=80}
}

%region_92.98 (reduce_sum.640: f32[], reduce_sum.641: f32[]) -> f32[] {
  %reduce_sum.640 = f32[] parameter(0), metadata={op_name="reduce_sum"}
  %reduce_sum.641 = f32[] parameter(1), metadata={op_name="reduce_sum"}
  ROOT %reduce_sum.642 = f32[] add(%reduce_sum.640, %reduce_sum.641), metadata={op_name="jit(predict_step)/Model/block3/unit01/gn1/reduce_sum" stack_frame_id=81}
}

%region_95.101 (reduce_sum.661: f32[], reduce_sum.662: f32[]) -> f32[] {
  %reduce_sum.661 = f32[] parameter(0), metadata={op_name="reduce_sum"}
  %reduce_sum.662 = f32[] parameter(1), metadata={op_name="reduce_sum"}
  ROOT %reduce_sum.663 = f32[] add(%reduce_sum.661, %reduce_sum.662), metadata={op_name="jit(predict_step)/Model/block3/unit01/conv1/conv1.param/reduce_sum" stack_frame_id=90}
}

%region_96.102 (reduce_sum.668: f32[], reduce_sum.669: f32[]) -> f32[] {
  %reduce_sum.668 = f32[] parameter(0), metadata={op_name="reduce_sum"}
  %reduce_sum.669 = f32[] parameter(1), metadata={op_name="reduce_sum"}
  ROOT %reduce_sum.670 = f32[] add(%reduce_sum.668, %reduce_sum.669), metadata={op_name="jit(predict_step)/Model/block3/unit01/conv1/conv1.param/reduce_sum" stack_frame_id=91}
}

%region_97.103 (reduce_sum.675: f32[], reduce_sum.676: f32[]) -> f32[] {
  %reduce_sum.675 = f32[] parameter(0), metadata={op_name="reduce_sum"}
  %reduce_sum.676 = f32[] parameter(1), metadata={op_name="reduce_sum"}
  ROOT %reduce_sum.677 = f32[] add(%reduce_sum.675, %reduce_sum.676), metadata={op_name="jit(predict_step)/Model/block3/unit01/gn2/reduce_sum" stack_frame_id=94}
}

%region_98.104 (reduce_sum.682: f32[], reduce_sum.683: f32[]) -> f32[] {
  %reduce_sum.682 = f32[] parameter(0), metadata={op_name="reduce_sum"}
  %reduce_sum.683 = f32[] parameter(1), metadata={op_name="reduce_sum"}
  ROOT %reduce_sum.684 = f32[] add(%reduce_sum.682, %reduce_sum.683), metadata={op_name="jit(predict_step)/Model/block3/unit01/gn2/reduce_sum" stack_frame_id=95}
}

%relu_4.105 (Arg_0.11: f32[8,28,28,256]) -> f32[8,28,28,256] {
  %Arg_0.11 = f32[8,28,28,256]{3,2,1,0} parameter(0)
  %constant.47 = f32[] constant(0)
  %max.22 = f32[8,28,28,256]{3,2,1,0} broadcast(%constant.47), dimensions={}, metadata={op_name="max"}
  ROOT %max.23 = f32[8,28,28,256]{3,2,1,0} maximum(%Arg_0.11, %max.22), metadata={op_name="max"}
}

%region_99.106 (reduce_sum.689: f32[], reduce_sum.690: f32[]) -> f32[] {
  %reduce_sum.689 = f32[] parameter(0), metadata={op_name="reduce_sum"}
  %reduce_sum.690 = f32[] parameter(1), metadata={op_name="reduce_sum"}
  ROOT %reduce_sum.691 = f32[] add(%reduce_sum.689, %reduce_sum.690), metadata={op_name="jit(predict_step)/Model/block3/unit01/conv2/conv2.param/reduce_sum" stack_frame_id=99}
}

%region_100.107 (reduce_sum.696: f32[], reduce_sum.697: f32[]) -> f32[] {
  %reduce_sum.696 = f32[] parameter(0), metadata={op_name="reduce_sum"}
  %reduce_sum.697 = f32[] parameter(1), metadata={op_name="reduce_sum"}
  ROOT %reduce_sum.698 = f32[] add(%reduce_sum.696, %reduce_sum.697), metadata={op_name="jit(predict_step)/Model/block3/unit01/conv2/conv2.param/reduce_sum" stack_frame_id=100}
}

%region_101.108 (reduce_sum.703: f32[], reduce_sum.704: f32[]) -> f32[] {
  %reduce_sum.703 = f32[] parameter(0), metadata={op_name="reduce_sum"}
  %reduce_sum.704 = f32[] parameter(1), metadata={op_name="reduce_sum"}
  ROOT %reduce_sum.705 = f32[] add(%reduce_sum.703, %reduce_sum.704), metadata={op_name="jit(predict_step)/Model/block3/unit01/gn3/reduce_sum" stack_frame_id=103}
}

%region_102.109 (reduce_sum.710: f32[], reduce_sum.711: f32[]) -> f32[] {
  %reduce_sum.710 = f32[] parameter(0), metadata={op_name="reduce_sum"}
  %reduce_sum.711 = f32[] parameter(1), metadata={op_name="reduce_sum"}
  ROOT %reduce_sum.712 = f32[] add(%reduce_sum.710, %reduce_sum.711), metadata={op_name="jit(predict_step)/Model/block3/unit01/gn3/reduce_sum" stack_frame_id=104}
}

%relu_5.110 (Arg_0.13: f32[8,14,14,256]) -> f32[8,14,14,256] {
  %Arg_0.13 = f32[8,14,14,256]{3,2,1,0} parameter(0)
  %constant.49 = f32[] constant(0)
  %max.26 = f32[8,14,14,256]{3,2,1,0} broadcast(%constant.49), dimensions={}, metadata={op_name="max"}
  ROOT %max.27 = f32[8,14,14,256]{3,2,1,0} maximum(%Arg_0.13, %max.26), metadata={op_name="max"}
}

%region_103.111 (reduce_sum.717: f32[], reduce_sum.718: f32[]) -> f32[] {
  %reduce_sum.717 = f32[] parameter(0), metadata={op_name="reduce_sum"}
  %reduce_sum.718 = f32[] parameter(1), metadata={op_name="reduce_sum"}
  ROOT %reduce_sum.719 = f32[] add(%reduce_sum.717, %reduce_sum.718), metadata={op_name="jit(predict_step)/Model/block3/unit01/conv3/conv3.param/reduce_sum" stack_frame_id=108}
}

%region_104.112 (reduce_sum.724: f32[], reduce_sum.725: f32[]) -> f32[] {
  %reduce_sum.724 = f32[] parameter(0), metadata={op_name="reduce_sum"}
  %reduce_sum.725 = f32[] parameter(1), metadata={op_name="reduce_sum"}
  ROOT %reduce_sum.726 = f32[] add(%reduce_sum.724, %reduce_sum.725), metadata={op_name="jit(predict_step)/Model/block3/unit01/conv3/conv3.param/reduce_sum" stack_frame_id=109}
}

%region_93.99 (reduce_sum.647: f32[], reduce_sum.648: f32[]) -> f32[] {
  %reduce_sum.647 = f32[] parameter(0), metadata={op_name="reduce_sum"}
  %reduce_sum.648 = f32[] parameter(1), metadata={op_name="reduce_sum"}
  ROOT %reduce_sum.649 = f32[] add(%reduce_sum.647, %reduce_sum.648), metadata={op_name="jit(predict_step)/Model/block3/unit01/conv_proj/conv_proj.param/reduce_sum" stack_frame_id=85}
}

%region_94.100 (reduce_sum.654: f32[], reduce_sum.655: f32[]) -> f32[] {
  %reduce_sum.654 = f32[] parameter(0), metadata={op_name="reduce_sum"}
  %reduce_sum.655 = f32[] parameter(1), metadata={op_name="reduce_sum"}
  ROOT %reduce_sum.656 = f32[] add(%reduce_sum.654, %reduce_sum.655), metadata={op_name="jit(predict_step)/Model/block3/unit01/conv_proj/conv_proj.param/reduce_sum" stack_frame_id=86}
}

%region_105.113 (reduce_sum.731: f32[], reduce_sum.732: f32[]) -> f32[] {
  %reduce_sum.731 = f32[] parameter(0), metadata={op_name="reduce_sum"}
  %reduce_sum.732 = f32[] parameter(1), metadata={op_name="reduce_sum"}
  ROOT %reduce_sum.733 = f32[] add(%reduce_sum.731, %reduce_sum.732), metadata={op_name="jit(predict_step)/Model/block3/unit02/gn1/reduce_sum" stack_frame_id=113}
}

%region_106.114 (reduce_sum.738: f32[], reduce_sum.739: f32[]) -> f32[] {
  %reduce_sum.738 = f32[] parameter(0), metadata={op_name="reduce_sum"}
  %reduce_sum.739 = f32[] parameter(1), metadata={op_name="reduce_sum"}
  ROOT %reduce_sum.740 = f32[] add(%reduce_sum.738, %reduce_sum.739), metadata={op_name="jit(predict_step)/Model/block3/unit02/gn1/reduce_sum" stack_frame_id=114}
}

%relu_6.115 (Arg_0.15: f32[8,14,14,1024]) -> f32[8,14,14,1024] {
  %Arg_0.15 = f32[8,14,14,1024]{3,2,1,0} parameter(0)
  %constant.51 = f32[] constant(0)
  %max.30 = f32[8,14,14,1024]{3,2,1,0} broadcast(%constant.51), dimensions={}, metadata={op_name="max"}
  ROOT %max.31 = f32[8,14,14,1024]{3,2,1,0} maximum(%Arg_0.15, %max.30), metadata={op_name="max"}
}

%region_107.116 (reduce_sum.745: f32[], reduce_sum.746: f32[]) -> f32[] {
  %reduce_sum.745 = f32[] parameter(0), metadata={op_name="reduce_sum"}
  %reduce_sum.746 = f32[] parameter(1), metadata={op_name="reduce_sum"}
  ROOT %reduce_sum.747 = f32[] add(%reduce_sum.745, %reduce_sum.746), metadata={op_name="jit(predict_step)/Model/block3/unit02/conv1/conv1.param/reduce_sum" stack_frame_id=118}
}

%region_108.117 (reduce_sum.752: f32[], reduce_sum.753: f32[]) -> f32[] {
  %reduce_sum.752 = f32[] parameter(0), metadata={op_name="reduce_sum"}
  %reduce_sum.753 = f32[] parameter(1), metadata={op_name="reduce_sum"}
  ROOT %reduce_sum.754 = f32[] add(%reduce_sum.752, %reduce_sum.753), metadata={op_name="jit(predict_step)/Model/block3/unit02/conv1/conv1.param/reduce_sum" stack_frame_id=119}
}

%region_109.118 (reduce_sum.759: f32[], reduce_sum.760: f32[]) -> f32[] {
  %reduce_sum.759 = f32[] parameter(0), metadata={op_name="reduce_sum"}
  %reduce_sum.760 = f32[] parameter(1), metadata={op_name="reduce_sum"}
  ROOT %reduce_sum.761 = f32[] add(%reduce_sum.759, %reduce_sum.760), metadata={op_name="jit(predict_step)/Model/block3/unit02/gn2/reduce_sum" stack_frame_id=122}
}

%region_110.119 (reduce_sum.766: f32[], reduce_sum.767: f32[]) -> f32[] {
  %reduce_sum.766 = f32[] parameter(0), metadata={op_name="reduce_sum"}
  %reduce_sum.767 = f32[] parameter(1), metadata={op_name="reduce_sum"}
  ROOT %reduce_sum.768 = f32[] add(%reduce_sum.766, %reduce_sum.767), metadata={op_name="jit(predict_step)/Model/block3/unit02/gn2/reduce_sum" stack_frame_id=123}
}

%region_111.120 (reduce_sum.773: f32[], reduce_sum.774: f32[]) -> f32[] {
  %reduce_sum.773 = f32[] parameter(0), metadata={op_name="reduce_sum"}
  %reduce_sum.774 = f32[] parameter(1), metadata={op_name="reduce_sum"}
  ROOT %reduce_sum.775 = f32[] add(%reduce_sum.773, %reduce_sum.774), metadata={op_name="jit(predict_step)/Model/block3/unit02/conv2/conv2.param/reduce_sum" stack_frame_id=127}
}

%region_112.121 (reduce_sum.780: f32[], reduce_sum.781: f32[]) -> f32[] {
  %reduce_sum.780 = f32[] parameter(0), metadata={op_name="reduce_sum"}
  %reduce_sum.781 = f32[] parameter(1), metadata={op_name="reduce_sum"}
  ROOT %reduce_sum.782 = f32[] add(%reduce_sum.780, %reduce_sum.781), metadata={op_name="jit(predict_step)/Model/block3/unit02/conv2/conv2.param/reduce_sum" stack_frame_id=128}
}

%region_113.122 (reduce_sum.787: f32[], reduce_sum.788: f32[]) -> f32[] {
  %reduce_sum.787 = f32[] parameter(0), metadata={op_name="reduce_sum"}
  %reduce_sum.788 = f32[] parameter(1), metadata={op_name="reduce_sum"}
  ROOT %reduce_sum.789 = f32[] add(%reduce_sum.787, %reduce_sum.788), metadata={op_name="jit(predict_step)/Model/block3/unit02/gn3/reduce_sum" stack_frame_id=131}
}

%region_114.123 (reduce_sum.794: f32[], reduce_sum.795: f32[]) -> f32[] {
  %reduce_sum.794 = f32[] parameter(0), metadata={op_name="reduce_sum"}
  %reduce_sum.795 = f32[] parameter(1), metadata={op_name="reduce_sum"}
  ROOT %reduce_sum.796 = f32[] add(%reduce_sum.794, %reduce_sum.795), metadata={op_name="jit(predict_step)/Model/block3/unit02/gn3/reduce_sum" stack_frame_id=132}
}

%region_115.124 (reduce_sum.801: f32[], reduce_sum.802: f32[]) -> f32[] {
  %reduce_sum.801 = f32[] parameter(0), metadata={op_name="reduce_sum"}
  %reduce_sum.802 = f32[] parameter(1), metadata={op_name="reduce_sum"}
  ROOT %reduce_sum.803 = f32[] add(%reduce_sum.801, %reduce_sum.802), metadata={op_name="jit(predict_step)/Model/block3/unit02/conv3/conv3.param/reduce_sum" stack_frame_id=136}
}

%region_116.125 (reduce_sum.808: f32[], reduce_sum.809: f32[]) -> f32[] {
  %reduce_sum.808 = f32[] parameter(0), metadata={op_name="reduce_sum"}
  %reduce_sum.809 = f32[] parameter(1), metadata={op_name="reduce_sum"}
  ROOT %reduce_sum.810 = f32[] add(%reduce_sum.808, %reduce_sum.809), metadata={op_name="jit(predict_step)/Model/block3/unit02/conv3/conv3.param/reduce_sum" stack_frame_id=137}
}

%region_117.126 (reduce_sum.815: f32[], reduce_sum.816: f32[]) -> f32[] {
  %reduce_sum.815 = f32[] parameter(0), metadata={op_name="reduce_sum"}
  %reduce_sum.816 = f32[] parameter(1), metadata={op_name="reduce_sum"}
  ROOT %reduce_sum.817 = f32[] add(%reduce_sum.815, %reduce_sum.816), metadata={op_name="jit(predict_step)/Model/block3/unit03/gn1/reduce_sum" stack_frame_id=113}
}

%region_118.127 (reduce_sum.822: f32[], reduce_sum.823: f32[]) -> f32[] {
  %reduce_sum.822 = f32[] parameter(0), metadata={op_name="reduce_sum"}
  %reduce_sum.823 = f32[] parameter(1), metadata={op_name="reduce_sum"}
  ROOT %reduce_sum.824 = f32[] add(%reduce_sum.822, %reduce_sum.823), metadata={op_name="jit(predict_step)/Model/block3/unit03/gn1/reduce_sum" stack_frame_id=114}
}

%region_119.128 (reduce_sum.829: f32[], reduce_sum.830: f32[]) -> f32[] {
  %reduce_sum.829 = f32[] parameter(0), metadata={op_name="reduce_sum"}
  %reduce_sum.830 = f32[] parameter(1), metadata={op_name="reduce_sum"}
  ROOT %reduce_sum.831 = f32[] add(%reduce_sum.829, %reduce_sum.830), metadata={op_name="jit(predict_step)/Model/block3/unit03/conv1/conv1.param/reduce_sum" stack_frame_id=118}
}

%region_120.129 (reduce_sum.836: f32[], reduce_sum.837: f32[]) -> f32[] {
  %reduce_sum.836 = f32[] parameter(0), metadata={op_name="reduce_sum"}
  %reduce_sum.837 = f32[] parameter(1), metadata={op_name="reduce_sum"}
  ROOT %reduce_sum.838 = f32[] add(%reduce_sum.836, %reduce_sum.837), metadata={op_name="jit(predict_step)/Model/block3/unit03/conv1/conv1.param/reduce_sum" stack_frame_id=119}
}

%region_121.130 (reduce_sum.843: f32[], reduce_sum.844: f32[]) -> f32[] {
  %reduce_sum.843 = f32[] parameter(0), metadata={op_name="reduce_sum"}
  %reduce_sum.844 = f32[] parameter(1), metadata={op_name="reduce_sum"}
  ROOT %reduce_sum.845 = f32[] add(%reduce_sum.843, %reduce_sum.844), metadata={op_name="jit(predict_step)/Model/block3/unit03/gn2/reduce_sum" stack_frame_id=122}
}

%region_122.131 (reduce_sum.850: f32[], reduce_sum.851: f32[]) -> f32[] {
  %reduce_sum.850 = f32[] parameter(0), metadata={op_name="reduce_sum"}
  %reduce_sum.851 = f32[] parameter(1), metadata={op_name="reduce_sum"}
  ROOT %reduce_sum.852 = f32[] add(%reduce_sum.850, %reduce_sum.851), metadata={op_name="jit(predict_step)/Model/block3/unit03/gn2/reduce_sum" stack_frame_id=123}
}

%region_123.132 (reduce_sum.857: f32[], reduce_sum.858: f32[]) -> f32[] {
  %reduce_sum.857 = f32[] parameter(0), metadata={op_name="reduce_sum"}
  %reduce_sum.858 = f32[] parameter(1), metadata={op_name="reduce_sum"}
  ROOT %reduce_sum.859 = f32[] add(%reduce_sum.857, %reduce_sum.858), metadata={op_name="jit(predict_step)/Model/block3/unit03/conv2/conv2.param/reduce_sum" stack_frame_id=127}
}

%region_124.133 (reduce_sum.864: f32[], reduce_sum.865: f32[]) -> f32[] {
  %reduce_sum.864 = f32[] parameter(0), metadata={op_name="reduce_sum"}
  %reduce_sum.865 = f32[] parameter(1), metadata={op_name="reduce_sum"}
  ROOT %reduce_sum.866 = f32[] add(%reduce_sum.864, %reduce_sum.865), metadata={op_name="jit(predict_step)/Model/block3/unit03/conv2/conv2.param/reduce_sum" stack_frame_id=128}
}

%region_125.134 (reduce_sum.871: f32[], reduce_sum.872: f32[]) -> f32[] {
  %reduce_sum.871 = f32[] parameter(0), metadata={op_name="reduce_sum"}
  %reduce_sum.872 = f32[] parameter(1), metadata={op_name="reduce_sum"}
  ROOT %reduce_sum.873 = f32[] add(%reduce_sum.871, %reduce_sum.872), metadata={op_name="jit(predict_step)/Model/block3/unit03/gn3/reduce_sum" stack_frame_id=131}
}

%region_126.135 (reduce_sum.878: f32[], reduce_sum.879: f32[]) -> f32[] {
  %reduce_sum.878 = f32[] parameter(0), metadata={op_name="reduce_sum"}
  %reduce_sum.879 = f32[] parameter(1), metadata={op_name="reduce_sum"}
  ROOT %reduce_sum.880 = f32[] add(%reduce_sum.878, %reduce_sum.879), metadata={op_name="jit(predict_step)/Model/block3/unit03/gn3/reduce_sum" stack_frame_id=132}
}

%region_127.136 (reduce_sum.885: f32[], reduce_sum.886: f32[]) -> f32[] {
  %reduce_sum.885 = f32[] parameter(0), metadata={op_name="reduce_sum"}
  %reduce_sum.886 = f32[] parameter(1), metadata={op_name="reduce_sum"}
  ROOT %reduce_sum.887 = f32[] add(%reduce_sum.885, %reduce_sum.886), metadata={op_name="jit(predict_step)/Model/block3/unit03/conv3/conv3.param/reduce_sum" stack_frame_id=136}
}

%region_128.137 (reduce_sum.892: f32[], reduce_sum.893: f32[]) -> f32[] {
  %reduce_sum.892 = f32[] parameter(0), metadata={op_name="reduce_sum"}
  %reduce_sum.893 = f32[] parameter(1), metadata={op_name="reduce_sum"}
  ROOT %reduce_sum.894 = f32[] add(%reduce_sum.892, %reduce_sum.893), metadata={op_name="jit(predict_step)/Model/block3/unit03/conv3/conv3.param/reduce_sum" stack_frame_id=137}
}

%region_129.138 (reduce_sum.899: f32[], reduce_sum.900: f32[]) -> f32[] {
  %reduce_sum.899 = f32[] parameter(0), metadata={op_name="reduce_sum"}
  %reduce_sum.900 = f32[] parameter(1), metadata={op_name="reduce_sum"}
  ROOT %reduce_sum.901 = f32[] add(%reduce_sum.899, %reduce_sum.900), metadata={op_name="jit(predict_step)/Model/block3/unit04/gn1/reduce_sum" stack_frame_id=113}
}

%region_130.139 (reduce_sum.906: f32[], reduce_sum.907: f32[]) -> f32[] {
  %reduce_sum.906 = f32[] parameter(0), metadata={op_name="reduce_sum"}
  %reduce_sum.907 = f32[] parameter(1), metadata={op_name="reduce_sum"}
  ROOT %reduce_sum.908 = f32[] add(%reduce_sum.906, %reduce_sum.907), metadata={op_name="jit(predict_step)/Model/block3/unit04/gn1/reduce_sum" stack_frame_id=114}
}

%region_131.140 (reduce_sum.913: f32[], reduce_sum.914: f32[]) -> f32[] {
  %reduce_sum.913 = f32[] parameter(0), metadata={op_name="reduce_sum"}
  %reduce_sum.914 = f32[] parameter(1), metadata={op_name="reduce_sum"}
  ROOT %reduce_sum.915 = f32[] add(%reduce_sum.913, %reduce_sum.914), metadata={op_name="jit(predict_step)/Model/block3/unit04/conv1/conv1.param/reduce_sum" stack_frame_id=118}
}

%region_132.141 (reduce_sum.920: f32[], reduce_sum.921: f32[]) -> f32[] {
  %reduce_sum.920 = f32[] parameter(0), metadata={op_name="reduce_sum"}
  %reduce_sum.921 = f32[] parameter(1), metadata={op_name="reduce_sum"}
  ROOT %reduce_sum.922 = f32[] add(%reduce_sum.920, %reduce_sum.921), metadata={op_name="jit(predict_step)/Model/block3/unit04/conv1/conv1.param/reduce_sum" stack_frame_id=119}
}

%region_133.142 (reduce_sum.927: f32[], reduce_sum.928: f32[]) -> f32[] {
  %reduce_sum.927 = f32[] parameter(0), metadata={op_name="reduce_sum"}
  %reduce_sum.928 = f32[] parameter(1), metadata={op_name="reduce_sum"}
  ROOT %reduce_sum.929 = f32[] add(%reduce_sum.927, %reduce_sum.928), metadata={op_name="jit(predict_step)/Model/block3/unit04/gn2/reduce_sum" stack_frame_id=122}
}

%region_134.143 (reduce_sum.934: f32[], reduce_sum.935: f32[]) -> f32[] {
  %reduce_sum.934 = f32[] parameter(0), metadata={op_name="reduce_sum"}
  %reduce_sum.935 = f32[] parameter(1), metadata={op_name="reduce_sum"}
  ROOT %reduce_sum.936 = f32[] add(%reduce_sum.934, %reduce_sum.935), metadata={op_name="jit(predict_step)/Model/block3/unit04/gn2/reduce_sum" stack_frame_id=123}
}

%region_135.144 (reduce_sum.941: f32[], reduce_sum.942: f32[]) -> f32[] {
  %reduce_sum.941 = f32[] parameter(0), metadata={op_name="reduce_sum"}
  %reduce_sum.942 = f32[] parameter(1), metadata={op_name="reduce_sum"}
  ROOT %reduce_sum.943 = f32[] add(%reduce_sum.941, %reduce_sum.942), metadata={op_name="jit(predict_step)/Model/block3/unit04/conv2/conv2.param/reduce_sum" stack_frame_id=127}
}

%region_136.145 (reduce_sum.948: f32[], reduce_sum.949: f32[]) -> f32[] {
  %reduce_sum.948 = f32[] parameter(0), metadata={op_name="reduce_sum"}
  %reduce_sum.949 = f32[] parameter(1), metadata={op_name="reduce_sum"}
  ROOT %reduce_sum.950 = f32[] add(%reduce_sum.948, %reduce_sum.949), metadata={op_name="jit(predict_step)/Model/block3/unit04/conv2/conv2.param/reduce_sum" stack_frame_id=128}
}

%region_137.146 (reduce_sum.955: f32[], reduce_sum.956: f32[]) -> f32[] {
  %reduce_sum.955 = f32[] parameter(0), metadata={op_name="reduce_sum"}
  %reduce_sum.956 = f32[] parameter(1), metadata={op_name="reduce_sum"}
  ROOT %reduce_sum.957 = f32[] add(%reduce_sum.955, %reduce_sum.956), metadata={op_name="jit(predict_step)/Model/block3/unit04/gn3/reduce_sum" stack_frame_id=131}
}

%region_138.147 (reduce_sum.962: f32[], reduce_sum.963: f32[]) -> f32[] {
  %reduce_sum.962 = f32[] parameter(0), metadata={op_name="reduce_sum"}
  %reduce_sum.963 = f32[] parameter(1), metadata={op_name="reduce_sum"}
  ROOT %reduce_sum.964 = f32[] add(%reduce_sum.962, %reduce_sum.963), metadata={op_name="jit(predict_step)/Model/block3/unit04/gn3/reduce_sum" stack_frame_id=132}
}

%region_139.148 (reduce_sum.969: f32[], reduce_sum.970: f32[]) -> f32[] {
  %reduce_sum.969 = f32[] parameter(0), metadata={op_name="reduce_sum"}
  %reduce_sum.970 = f32[] parameter(1), metadata={op_name="reduce_sum"}
  ROOT %reduce_sum.971 = f32[] add(%reduce_sum.969, %reduce_sum.970), metadata={op_name="jit(predict_step)/Model/block3/unit04/conv3/conv3.param/reduce_sum" stack_frame_id=136}
}

%region_140.149 (reduce_sum.976: f32[], reduce_sum.977: f32[]) -> f32[] {
  %reduce_sum.976 = f32[] parameter(0), metadata={op_name="reduce_sum"}
  %reduce_sum.977 = f32[] parameter(1), metadata={op_name="reduce_sum"}
  ROOT %reduce_sum.978 = f32[] add(%reduce_sum.976, %reduce_sum.977), metadata={op_name="jit(predict_step)/Model/block3/unit04/conv3/conv3.param/reduce_sum" stack_frame_id=137}
}

%region_141.150 (reduce_sum.983: f32[], reduce_sum.984: f32[]) -> f32[] {
  %reduce_sum.983 = f32[] parameter(0), metadata={op_name="reduce_sum"}
  %reduce_sum.984 = f32[] parameter(1), metadata={op_name="reduce_sum"}
  ROOT %reduce_sum.985 = f32[] add(%reduce_sum.983, %reduce_sum.984), metadata={op_name="jit(predict_step)/Model/block3/unit05/gn1/reduce_sum" stack_frame_id=113}
}

%region_142.151 (reduce_sum.990: f32[], reduce_sum.991: f32[]) -> f32[] {
  %reduce_sum.990 = f32[] parameter(0), metadata={op_name="reduce_sum"}
  %reduce_sum.991 = f32[] parameter(1), metadata={op_name="reduce_sum"}
  ROOT %reduce_sum.992 = f32[] add(%reduce_sum.990, %reduce_sum.991), metadata={op_name="jit(predict_step)/Model/block3/unit05/gn1/reduce_sum" stack_frame_id=114}
}

%region_143.152 (reduce_sum.997: f32[], reduce_sum.998: f32[]) -> f32[] {
  %reduce_sum.997 = f32[] parameter(0), metadata={op_name="reduce_sum"}
  %reduce_sum.998 = f32[] parameter(1), metadata={op_name="reduce_sum"}
  ROOT %reduce_sum.999 = f32[] add(%reduce_sum.997, %reduce_sum.998), metadata={op_name="jit(predict_step)/Model/block3/unit05/conv1/conv1.param/reduce_sum" stack_frame_id=118}
}

%region_144.153 (reduce_sum.1004: f32[], reduce_sum.1005: f32[]) -> f32[] {
  %reduce_sum.1004 = f32[] parameter(0), metadata={op_name="reduce_sum"}
  %reduce_sum.1005 = f32[] parameter(1), metadata={op_name="reduce_sum"}
  ROOT %reduce_sum.1006 = f32[] add(%reduce_sum.1004, %reduce_sum.1005), metadata={op_name="jit(predict_step)/Model/block3/unit05/conv1/conv1.param/reduce_sum" stack_frame_id=119}
}

%region_145.154 (reduce_sum.1011: f32[], reduce_sum.1012: f32[]) -> f32[] {
  %reduce_sum.1011 = f32[] parameter(0), metadata={op_name="reduce_sum"}
  %reduce_sum.1012 = f32[] parameter(1), metadata={op_name="reduce_sum"}
  ROOT %reduce_sum.1013 = f32[] add(%reduce_sum.1011, %reduce_sum.1012), metadata={op_name="jit(predict_step)/Model/block3/unit05/gn2/reduce_sum" stack_frame_id=122}
}

%region_146.155 (reduce_sum.1018: f32[], reduce_sum.1019: f32[]) -> f32[] {
  %reduce_sum.1018 = f32[] parameter(0), metadata={op_name="reduce_sum"}
  %reduce_sum.1019 = f32[] parameter(1), metadata={op_name="reduce_sum"}
  ROOT %reduce_sum.1020 = f32[] add(%reduce_sum.1018, %reduce_sum.1019), metadata={op_name="jit(predict_step)/Model/block3/unit05/gn2/reduce_sum" stack_frame_id=123}
}

%region_147.156 (reduce_sum.1025: f32[], reduce_sum.1026: f32[]) -> f32[] {
  %reduce_sum.1025 = f32[] parameter(0), metadata={op_name="reduce_sum"}
  %reduce_sum.1026 = f32[] parameter(1), metadata={op_name="reduce_sum"}
  ROOT %reduce_sum.1027 = f32[] add(%reduce_sum.1025, %reduce_sum.1026), metadata={op_name="jit(predict_step)/Model/block3/unit05/conv2/conv2.param/reduce_sum" stack_frame_id=127}
}

%region_148.157 (reduce_sum.1032: f32[], reduce_sum.1033: f32[]) -> f32[] {
  %reduce_sum.1032 = f32[] parameter(0), metadata={op_name="reduce_sum"}
  %reduce_sum.1033 = f32[] parameter(1), metadata={op_name="reduce_sum"}
  ROOT %reduce_sum.1034 = f32[] add(%reduce_sum.1032, %reduce_sum.1033), metadata={op_name="jit(predict_step)/Model/block3/unit05/conv2/conv2.param/reduce_sum" stack_frame_id=128}
}

%region_149.158 (reduce_sum.1039: f32[], reduce_sum.1040: f32[]) -> f32[] {
  %reduce_sum.1039 = f32[] parameter(0), metadata={op_name="reduce_sum"}
  %reduce_sum.1040 = f32[] parameter(1), metadata={op_name="reduce_sum"}
  ROOT %reduce_sum.1041 = f32[] add(%reduce_sum.1039, %reduce_sum.1040), metadata={op_name="jit(predict_step)/Model/block3/unit05/gn3/reduce_sum" stack_frame_id=131}
}

%region_150.159 (reduce_sum.1046: f32[], reduce_sum.1047: f32[]) -> f32[] {
  %reduce_sum.1046 = f32[] parameter(0), metadata={op_name="reduce_sum"}
  %reduce_sum.1047 = f32[] parameter(1), metadata={op_name="reduce_sum"}
  ROOT %reduce_sum.1048 = f32[] add(%reduce_sum.1046, %reduce_sum.1047), metadata={op_name="jit(predict_step)/Model/block3/unit05/gn3/reduce_sum" stack_frame_id=132}
}

%region_151.160 (reduce_sum.1053: f32[], reduce_sum.1054: f32[]) -> f32[] {
  %reduce_sum.1053 = f32[] parameter(0), metadata={op_name="reduce_sum"}
  %reduce_sum.1054 = f32[] parameter(1), metadata={op_name="reduce_sum"}
  ROOT %reduce_sum.1055 = f32[] add(%reduce_sum.1053, %reduce_sum.1054), metadata={op_name="jit(predict_step)/Model/block3/unit05/conv3/conv3.param/reduce_sum" stack_frame_id=136}
}

%region_152.161 (reduce_sum.1060: f32[], reduce_sum.1061: f32[]) -> f32[] {
  %reduce_sum.1060 = f32[] parameter(0), metadata={op_name="reduce_sum"}
  %reduce_sum.1061 = f32[] parameter(1), metadata={op_name="reduce_sum"}
  ROOT %reduce_sum.1062 = f32[] add(%reduce_sum.1060, %reduce_sum.1061), metadata={op_name="jit(predict_step)/Model/block3/unit05/conv3/conv3.param/reduce_sum" stack_frame_id=137}
}

%region_153.162 (reduce_sum.1067: f32[], reduce_sum.1068: f32[]) -> f32[] {
  %reduce_sum.1067 = f32[] parameter(0), metadata={op_name="reduce_sum"}
  %reduce_sum.1068 = f32[] parameter(1), metadata={op_name="reduce_sum"}
  ROOT %reduce_sum.1069 = f32[] add(%reduce_sum.1067, %reduce_sum.1068), metadata={op_name="jit(predict_step)/Model/block3/unit06/gn1/reduce_sum" stack_frame_id=113}
}

%region_154.163 (reduce_sum.1074: f32[], reduce_sum.1075: f32[]) -> f32[] {
  %reduce_sum.1074 = f32[] parameter(0), metadata={op_name="reduce_sum"}
  %reduce_sum.1075 = f32[] parameter(1), metadata={op_name="reduce_sum"}
  ROOT %reduce_sum.1076 = f32[] add(%reduce_sum.1074, %reduce_sum.1075), metadata={op_name="jit(predict_step)/Model/block3/unit06/gn1/reduce_sum" stack_frame_id=114}
}

%region_155.164 (reduce_sum.1081: f32[], reduce_sum.1082: f32[]) -> f32[] {
  %reduce_sum.1081 = f32[] parameter(0), metadata={op_name="reduce_sum"}
  %reduce_sum.1082 = f32[] parameter(1), metadata={op_name="reduce_sum"}
  ROOT %reduce_sum.1083 = f32[] add(%reduce_sum.1081, %reduce_sum.1082), metadata={op_name="jit(predict_step)/Model/block3/unit06/conv1/conv1.param/reduce_sum" stack_frame_id=118}
}

%region_156.165 (reduce_sum.1088: f32[], reduce_sum.1089: f32[]) -> f32[] {
  %reduce_sum.1088 = f32[] parameter(0), metadata={op_name="reduce_sum"}
  %reduce_sum.1089 = f32[] parameter(1), metadata={op_name="reduce_sum"}
  ROOT %reduce_sum.1090 = f32[] add(%reduce_sum.1088, %reduce_sum.1089), metadata={op_name="jit(predict_step)/Model/block3/unit06/conv1/conv1.param/reduce_sum" stack_frame_id=119}
}

%region_157.166 (reduce_sum.1095: f32[], reduce_sum.1096: f32[]) -> f32[] {
  %reduce_sum.1095 = f32[] parameter(0), metadata={op_name="reduce_sum"}
  %reduce_sum.1096 = f32[] parameter(1), metadata={op_name="reduce_sum"}
  ROOT %reduce_sum.1097 = f32[] add(%reduce_sum.1095, %reduce_sum.1096), metadata={op_name="jit(predict_step)/Model/block3/unit06/gn2/reduce_sum" stack_frame_id=122}
}

%region_158.167 (reduce_sum.1102: f32[], reduce_sum.1103: f32[]) -> f32[] {
  %reduce_sum.1102 = f32[] parameter(0), metadata={op_name="reduce_sum"}
  %reduce_sum.1103 = f32[] parameter(1), metadata={op_name="reduce_sum"}
  ROOT %reduce_sum.1104 = f32[] add(%reduce_sum.1102, %reduce_sum.1103), metadata={op_name="jit(predict_step)/Model/block3/unit06/gn2/reduce_sum" stack_frame_id=123}
}

%region_159.168 (reduce_sum.1109: f32[], reduce_sum.1110: f32[]) -> f32[] {
  %reduce_sum.1109 = f32[] parameter(0), metadata={op_name="reduce_sum"}
  %reduce_sum.1110 = f32[] parameter(1), metadata={op_name="reduce_sum"}
  ROOT %reduce_sum.1111 = f32[] add(%reduce_sum.1109, %reduce_sum.1110), metadata={op_name="jit(predict_step)/Model/block3/unit06/conv2/conv2.param/reduce_sum" stack_frame_id=127}
}

%region_160.169 (reduce_sum.1116: f32[], reduce_sum.1117: f32[]) -> f32[] {
  %reduce_sum.1116 = f32[] parameter(0), metadata={op_name="reduce_sum"}
  %reduce_sum.1117 = f32[] parameter(1), metadata={op_name="reduce_sum"}
  ROOT %reduce_sum.1118 = f32[] add(%reduce_sum.1116, %reduce_sum.1117), metadata={op_name="jit(predict_step)/Model/block3/unit06/conv2/conv2.param/reduce_sum" stack_frame_id=128}
}

%region_161.170 (reduce_sum.1123: f32[], reduce_sum.1124: f32[]) -> f32[] {
  %reduce_sum.1123 = f32[] parameter(0), metadata={op_name="reduce_sum"}
  %reduce_sum.1124 = f32[] parameter(1), metadata={op_name="reduce_sum"}
  ROOT %reduce_sum.1125 = f32[] add(%reduce_sum.1123, %reduce_sum.1124), metadata={op_name="jit(predict_step)/Model/block3/unit06/gn3/reduce_sum" stack_frame_id=131}
}

%region_162.171 (reduce_sum.1130: f32[], reduce_sum.1131: f32[]) -> f32[] {
  %reduce_sum.1130 = f32[] parameter(0), metadata={op_name="reduce_sum"}
  %reduce_sum.1131 = f32[] parameter(1), metadata={op_name="reduce_sum"}
  ROOT %reduce_sum.1132 = f32[] add(%reduce_sum.1130, %reduce_sum.1131), metadata={op_name="jit(predict_step)/Model/block3/unit06/gn3/reduce_sum" stack_frame_id=132}
}

%region_163.172 (reduce_sum.1137: f32[], reduce_sum.1138: f32[]) -> f32[] {
  %reduce_sum.1137 = f32[] parameter(0), metadata={op_name="reduce_sum"}
  %reduce_sum.1138 = f32[] parameter(1), metadata={op_name="reduce_sum"}
  ROOT %reduce_sum.1139 = f32[] add(%reduce_sum.1137, %reduce_sum.1138), metadata={op_name="jit(predict_step)/Model/block3/unit06/conv3/conv3.param/reduce_sum" stack_frame_id=136}
}

%region_164.173 (reduce_sum.1144: f32[], reduce_sum.1145: f32[]) -> f32[] {
  %reduce_sum.1144 = f32[] parameter(0), metadata={op_name="reduce_sum"}
  %reduce_sum.1145 = f32[] parameter(1), metadata={op_name="reduce_sum"}
  ROOT %reduce_sum.1146 = f32[] add(%reduce_sum.1144, %reduce_sum.1145), metadata={op_name="jit(predict_step)/Model/block3/unit06/conv3/conv3.param/reduce_sum" stack_frame_id=137}
}

%region_165.174 (reduce_sum.1151: f32[], reduce_sum.1152: f32[]) -> f32[] {
  %reduce_sum.1151 = f32[] parameter(0), metadata={op_name="reduce_sum"}
  %reduce_sum.1152 = f32[] parameter(1), metadata={op_name="reduce_sum"}
  ROOT %reduce_sum.1153 = f32[] add(%reduce_sum.1151, %reduce_sum.1152), metadata={op_name="jit(predict_step)/Model/block4/unit01/gn1/reduce_sum" stack_frame_id=80}
}

%region_166.175 (reduce_sum.1158: f32[], reduce_sum.1159: f32[]) -> f32[] {
  %reduce_sum.1158 = f32[] parameter(0), metadata={op_name="reduce_sum"}
  %reduce_sum.1159 = f32[] parameter(1), metadata={op_name="reduce_sum"}
  ROOT %reduce_sum.1160 = f32[] add(%reduce_sum.1158, %reduce_sum.1159), metadata={op_name="jit(predict_step)/Model/block4/unit01/gn1/reduce_sum" stack_frame_id=81}
}

%region_169.178 (reduce_sum.1179: f32[], reduce_sum.1180: f32[]) -> f32[] {
  %reduce_sum.1179 = f32[] parameter(0), metadata={op_name="reduce_sum"}
  %reduce_sum.1180 = f32[] parameter(1), metadata={op_name="reduce_sum"}
  ROOT %reduce_sum.1181 = f32[] add(%reduce_sum.1179, %reduce_sum.1180), metadata={op_name="jit(predict_step)/Model/block4/unit01/conv1/conv1.param/reduce_sum" stack_frame_id=90}
}

%region_170.179 (reduce_sum.1186: f32[], reduce_sum.1187: f32[]) -> f32[] {
  %reduce_sum.1186 = f32[] parameter(0), metadata={op_name="reduce_sum"}
  %reduce_sum.1187 = f32[] parameter(1), metadata={op_name="reduce_sum"}
  ROOT %reduce_sum.1188 = f32[] add(%reduce_sum.1186, %reduce_sum.1187), metadata={op_name="jit(predict_step)/Model/block4/unit01/conv1/conv1.param/reduce_sum" stack_frame_id=91}
}

%region_171.180 (reduce_sum.1193: f32[], reduce_sum.1194: f32[]) -> f32[] {
  %reduce_sum.1193 = f32[] parameter(0), metadata={op_name="reduce_sum"}
  %reduce_sum.1194 = f32[] parameter(1), metadata={op_name="reduce_sum"}
  ROOT %reduce_sum.1195 = f32[] add(%reduce_sum.1193, %reduce_sum.1194), metadata={op_name="jit(predict_step)/Model/block4/unit01/gn2/reduce_sum" stack_frame_id=94}
}

%region_172.181 (reduce_sum.1200: f32[], reduce_sum.1201: f32[]) -> f32[] {
  %reduce_sum.1200 = f32[] parameter(0), metadata={op_name="reduce_sum"}
  %reduce_sum.1201 = f32[] parameter(1), metadata={op_name="reduce_sum"}
  ROOT %reduce_sum.1202 = f32[] add(%reduce_sum.1200, %reduce_sum.1201), metadata={op_name="jit(predict_step)/Model/block4/unit01/gn2/reduce_sum" stack_frame_id=95}
}

%relu_7.182 (Arg_0.17: f32[8,14,14,512]) -> f32[8,14,14,512] {
  %Arg_0.17 = f32[8,14,14,512]{3,2,1,0} parameter(0)
  %constant.53 = f32[] constant(0)
  %max.34 = f32[8,14,14,512]{3,2,1,0} broadcast(%constant.53), dimensions={}, metadata={op_name="max"}
  ROOT %max.35 = f32[8,14,14,512]{3,2,1,0} maximum(%Arg_0.17, %max.34), metadata={op_name="max"}
}

%region_173.183 (reduce_sum.1207: f32[], reduce_sum.1208: f32[]) -> f32[] {
  %reduce_sum.1207 = f32[] parameter(0), metadata={op_name="reduce_sum"}
  %reduce_sum.1208 = f32[] parameter(1), metadata={op_name="reduce_sum"}
  ROOT %reduce_sum.1209 = f32[] add(%reduce_sum.1207, %reduce_sum.1208), metadata={op_name="jit(predict_step)/Model/block4/unit01/conv2/conv2.param/reduce_sum" stack_frame_id=99}
}

%region_174.184 (reduce_sum.1214: f32[], reduce_sum.1215: f32[]) -> f32[] {
  %reduce_sum.1214 = f32[] parameter(0), metadata={op_name="reduce_sum"}
  %reduce_sum.1215 = f32[] parameter(1), metadata={op_name="reduce_sum"}
  ROOT %reduce_sum.1216 = f32[] add(%reduce_sum.1214, %reduce_sum.1215), metadata={op_name="jit(predict_step)/Model/block4/unit01/conv2/conv2.param/reduce_sum" stack_frame_id=100}
}

%region_175.185 (reduce_sum.1221: f32[], reduce_sum.1222: f32[]) -> f32[] {
  %reduce_sum.1221 = f32[] parameter(0), metadata={op_name="reduce_sum"}
  %reduce_sum.1222 = f32[] parameter(1), metadata={op_name="reduce_sum"}
  ROOT %reduce_sum.1223 = f32[] add(%reduce_sum.1221, %reduce_sum.1222), metadata={op_name="jit(predict_step)/Model/block4/unit01/gn3/reduce_sum" stack_frame_id=103}
}

%region_176.186 (reduce_sum.1228: f32[], reduce_sum.1229: f32[]) -> f32[] {
  %reduce_sum.1228 = f32[] parameter(0), metadata={op_name="reduce_sum"}
  %reduce_sum.1229 = f32[] parameter(1), metadata={op_name="reduce_sum"}
  ROOT %reduce_sum.1230 = f32[] add(%reduce_sum.1228, %reduce_sum.1229), metadata={op_name="jit(predict_step)/Model/block4/unit01/gn3/reduce_sum" stack_frame_id=104}
}

%relu_8.187 (Arg_0.19: f32[8,7,7,512]) -> f32[8,7,7,512] {
  %Arg_0.19 = f32[8,7,7,512]{3,2,1,0} parameter(0)
  %constant.55 = f32[] constant(0)
  %max.38 = f32[8,7,7,512]{3,2,1,0} broadcast(%constant.55), dimensions={}, metadata={op_name="max"}
  ROOT %max.39 = f32[8,7,7,512]{3,2,1,0} maximum(%Arg_0.19, %max.38), metadata={op_name="max"}
}

%region_177.188 (reduce_sum.1235: f32[], reduce_sum.1236: f32[]) -> f32[] {
  %reduce_sum.1235 = f32[] parameter(0), metadata={op_name="reduce_sum"}
  %reduce_sum.1236 = f32[] parameter(1), metadata={op_name="reduce_sum"}
  ROOT %reduce_sum.1237 = f32[] add(%reduce_sum.1235, %reduce_sum.1236), metadata={op_name="jit(predict_step)/Model/block4/unit01/conv3/conv3.param/reduce_sum" stack_frame_id=108}
}

%region_178.189 (reduce_sum.1242: f32[], reduce_sum.1243: f32[]) -> f32[] {
  %reduce_sum.1242 = f32[] parameter(0), metadata={op_name="reduce_sum"}
  %reduce_sum.1243 = f32[] parameter(1), metadata={op_name="reduce_sum"}
  ROOT %reduce_sum.1244 = f32[] add(%reduce_sum.1242, %reduce_sum.1243), metadata={op_name="jit(predict_step)/Model/block4/unit01/conv3/conv3.param/reduce_sum" stack_frame_id=109}
}

%region_167.176 (reduce_sum.1165: f32[], reduce_sum.1166: f32[]) -> f32[] {
  %reduce_sum.1165 = f32[] parameter(0), metadata={op_name="reduce_sum"}
  %reduce_sum.1166 = f32[] parameter(1), metadata={op_name="reduce_sum"}
  ROOT %reduce_sum.1167 = f32[] add(%reduce_sum.1165, %reduce_sum.1166), metadata={op_name="jit(predict_step)/Model/block4/unit01/conv_proj/conv_proj.param/reduce_sum" stack_frame_id=85}
}

%region_168.177 (reduce_sum.1172: f32[], reduce_sum.1173: f32[]) -> f32[] {
  %reduce_sum.1172 = f32[] parameter(0), metadata={op_name="reduce_sum"}
  %reduce_sum.1173 = f32[] parameter(1), metadata={op_name="reduce_sum"}
  ROOT %reduce_sum.1174 = f32[] add(%reduce_sum.1172, %reduce_sum.1173), metadata={op_name="jit(predict_step)/Model/block4/unit01/conv_proj/conv_proj.param/reduce_sum" stack_frame_id=86}
}

%region_179.190 (reduce_sum.1249: f32[], reduce_sum.1250: f32[]) -> f32[] {
  %reduce_sum.1249 = f32[] parameter(0), metadata={op_name="reduce_sum"}
  %reduce_sum.1250 = f32[] parameter(1), metadata={op_name="reduce_sum"}
  ROOT %reduce_sum.1251 = f32[] add(%reduce_sum.1249, %reduce_sum.1250), metadata={op_name="jit(predict_step)/Model/block4/unit02/gn1/reduce_sum" stack_frame_id=113}
}

%region_180.191 (reduce_sum.1256: f32[], reduce_sum.1257: f32[]) -> f32[] {
  %reduce_sum.1256 = f32[] parameter(0), metadata={op_name="reduce_sum"}
  %reduce_sum.1257 = f32[] parameter(1), metadata={op_name="reduce_sum"}
  ROOT %reduce_sum.1258 = f32[] add(%reduce_sum.1256, %reduce_sum.1257), metadata={op_name="jit(predict_step)/Model/block4/unit02/gn1/reduce_sum" stack_frame_id=114}
}

%relu_9.192 (Arg_0.21: f32[8,7,7,2048]) -> f32[8,7,7,2048] {
  %Arg_0.21 = f32[8,7,7,2048]{3,2,1,0} parameter(0)
  %constant.57 = f32[] constant(0)
  %max.42 = f32[8,7,7,2048]{3,2,1,0} broadcast(%constant.57), dimensions={}, metadata={op_name="max"}
  ROOT %max.43 = f32[8,7,7,2048]{3,2,1,0} maximum(%Arg_0.21, %max.42), metadata={op_name="max"}
}

%region_181.193 (reduce_sum.1263: f32[], reduce_sum.1264: f32[]) -> f32[] {
  %reduce_sum.1263 = f32[] parameter(0), metadata={op_name="reduce_sum"}
  %reduce_sum.1264 = f32[] parameter(1), metadata={op_name="reduce_sum"}
  ROOT %reduce_sum.1265 = f32[] add(%reduce_sum.1263, %reduce_sum.1264), metadata={op_name="jit(predict_step)/Model/block4/unit02/conv1/conv1.param/reduce_sum" stack_frame_id=118}
}

%region_182.194 (reduce_sum.1270: f32[], reduce_sum.1271: f32[]) -> f32[] {
  %reduce_sum.1270 = f32[] parameter(0), metadata={op_name="reduce_sum"}
  %reduce_sum.1271 = f32[] parameter(1), metadata={op_name="reduce_sum"}
  ROOT %reduce_sum.1272 = f32[] add(%reduce_sum.1270, %reduce_sum.1271), metadata={op_name="jit(predict_step)/Model/block4/unit02/conv1/conv1.param/reduce_sum" stack_frame_id=119}
}

%region_183.195 (reduce_sum.1277: f32[], reduce_sum.1278: f32[]) -> f32[] {
  %reduce_sum.1277 = f32[] parameter(0), metadata={op_name="reduce_sum"}
  %reduce_sum.1278 = f32[] parameter(1), metadata={op_name="reduce_sum"}
  ROOT %reduce_sum.1279 = f32[] add(%reduce_sum.1277, %reduce_sum.1278), metadata={op_name="jit(predict_step)/Model/block4/unit02/gn2/reduce_sum" stack_frame_id=122}
}

%region_184.196 (reduce_sum.1284: f32[], reduce_sum.1285: f32[]) -> f32[] {
  %reduce_sum.1284 = f32[] parameter(0), metadata={op_name="reduce_sum"}
  %reduce_sum.1285 = f32[] parameter(1), metadata={op_name="reduce_sum"}
  ROOT %reduce_sum.1286 = f32[] add(%reduce_sum.1284, %reduce_sum.1285), metadata={op_name="jit(predict_step)/Model/block4/unit02/gn2/reduce_sum" stack_frame_id=123}
}

%region_185.197 (reduce_sum.1291: f32[], reduce_sum.1292: f32[]) -> f32[] {
  %reduce_sum.1291 = f32[] parameter(0), metadata={op_name="reduce_sum"}
  %reduce_sum.1292 = f32[] parameter(1), metadata={op_name="reduce_sum"}
  ROOT %reduce_sum.1293 = f32[] add(%reduce_sum.1291, %reduce_sum.1292), metadata={op_name="jit(predict_step)/Model/block4/unit02/conv2/conv2.param/reduce_sum" stack_frame_id=127}
}

%region_186.198 (reduce_sum.1298: f32[], reduce_sum.1299: f32[]) -> f32[] {
  %reduce_sum.1298 = f32[] parameter(0), metadata={op_name="reduce_sum"}
  %reduce_sum.1299 = f32[] parameter(1), metadata={op_name="reduce_sum"}
  ROOT %reduce_sum.1300 = f32[] add(%reduce_sum.1298, %reduce_sum.1299), metadata={op_name="jit(predict_step)/Model/block4/unit02/conv2/conv2.param/reduce_sum" stack_frame_id=128}
}

%region_187.199 (reduce_sum.1305: f32[], reduce_sum.1306: f32[]) -> f32[] {
  %reduce_sum.1305 = f32[] parameter(0), metadata={op_name="reduce_sum"}
  %reduce_sum.1306 = f32[] parameter(1), metadata={op_name="reduce_sum"}
  ROOT %reduce_sum.1307 = f32[] add(%reduce_sum.1305, %reduce_sum.1306), metadata={op_name="jit(predict_step)/Model/block4/unit02/gn3/reduce_sum" stack_frame_id=131}
}

%region_188.200 (reduce_sum.1312: f32[], reduce_sum.1313: f32[]) -> f32[] {
  %reduce_sum.1312 = f32[] parameter(0), metadata={op_name="reduce_sum"}
  %reduce_sum.1313 = f32[] parameter(1), metadata={op_name="reduce_sum"}
  ROOT %reduce_sum.1314 = f32[] add(%reduce_sum.1312, %reduce_sum.1313), metadata={op_name="jit(predict_step)/Model/block4/unit02/gn3/reduce_sum" stack_frame_id=132}
}

%region_189.201 (reduce_sum.1319: f32[], reduce_sum.1320: f32[]) -> f32[] {
  %reduce_sum.1319 = f32[] parameter(0), metadata={op_name="reduce_sum"}
  %reduce_sum.1320 = f32[] parameter(1), metadata={op_name="reduce_sum"}
  ROOT %reduce_sum.1321 = f32[] add(%reduce_sum.1319, %reduce_sum.1320), metadata={op_name="jit(predict_step)/Model/block4/unit02/conv3/conv3.param/reduce_sum" stack_frame_id=136}
}

%region_190.202 (reduce_sum.1326: f32[], reduce_sum.1327: f32[]) -> f32[] {
  %reduce_sum.1326 = f32[] parameter(0), metadata={op_name="reduce_sum"}
  %reduce_sum.1327 = f32[] parameter(1), metadata={op_name="reduce_sum"}
  ROOT %reduce_sum.1328 = f32[] add(%reduce_sum.1326, %reduce_sum.1327), metadata={op_name="jit(predict_step)/Model/block4/unit02/conv3/conv3.param/reduce_sum" stack_frame_id=137}
}

%region_191.203 (reduce_sum.1333: f32[], reduce_sum.1334: f32[]) -> f32[] {
  %reduce_sum.1333 = f32[] parameter(0), metadata={op_name="reduce_sum"}
  %reduce_sum.1334 = f32[] parameter(1), metadata={op_name="reduce_sum"}
  ROOT %reduce_sum.1335 = f32[] add(%reduce_sum.1333, %reduce_sum.1334), metadata={op_name="jit(predict_step)/Model/block4/unit03/gn1/reduce_sum" stack_frame_id=113}
}

%region_192.204 (reduce_sum.1340: f32[], reduce_sum.1341: f32[]) -> f32[] {
  %reduce_sum.1340 = f32[] parameter(0), metadata={op_name="reduce_sum"}
  %reduce_sum.1341 = f32[] parameter(1), metadata={op_name="reduce_sum"}
  ROOT %reduce_sum.1342 = f32[] add(%reduce_sum.1340, %reduce_sum.1341), metadata={op_name="jit(predict_step)/Model/block4/unit03/gn1/reduce_sum" stack_frame_id=114}
}

%region_193.205 (reduce_sum.1347: f32[], reduce_sum.1348: f32[]) -> f32[] {
  %reduce_sum.1347 = f32[] parameter(0), metadata={op_name="reduce_sum"}
  %reduce_sum.1348 = f32[] parameter(1), metadata={op_name="reduce_sum"}
  ROOT %reduce_sum.1349 = f32[] add(%reduce_sum.1347, %reduce_sum.1348), metadata={op_name="jit(predict_step)/Model/block4/unit03/conv1/conv1.param/reduce_sum" stack_frame_id=118}
}

%region_194.206 (reduce_sum.1354: f32[], reduce_sum.1355: f32[]) -> f32[] {
  %reduce_sum.1354 = f32[] parameter(0), metadata={op_name="reduce_sum"}
  %reduce_sum.1355 = f32[] parameter(1), metadata={op_name="reduce_sum"}
  ROOT %reduce_sum.1356 = f32[] add(%reduce_sum.1354, %reduce_sum.1355), metadata={op_name="jit(predict_step)/Model/block4/unit03/conv1/conv1.param/reduce_sum" stack_frame_id=119}
}

%region_195.207 (reduce_sum.1361: f32[], reduce_sum.1362: f32[]) -> f32[] {
  %reduce_sum.1361 = f32[] parameter(0), metadata={op_name="reduce_sum"}
  %reduce_sum.1362 = f32[] parameter(1), metadata={op_name="reduce_sum"}
  ROOT %reduce_sum.1363 = f32[] add(%reduce_sum.1361, %reduce_sum.1362), metadata={op_name="jit(predict_step)/Model/block4/unit03/gn2/reduce_sum" stack_frame_id=122}
}

%region_196.208 (reduce_sum.1368: f32[], reduce_sum.1369: f32[]) -> f32[] {
  %reduce_sum.1368 = f32[] parameter(0), metadata={op_name="reduce_sum"}
  %reduce_sum.1369 = f32[] parameter(1), metadata={op_name="reduce_sum"}
  ROOT %reduce_sum.1370 = f32[] add(%reduce_sum.1368, %reduce_sum.1369), metadata={op_name="jit(predict_step)/Model/block4/unit03/gn2/reduce_sum" stack_frame_id=123}
}

%region_197.209 (reduce_sum.1375: f32[], reduce_sum.1376: f32[]) -> f32[] {
  %reduce_sum.1375 = f32[] parameter(0), metadata={op_name="reduce_sum"}
  %reduce_sum.1376 = f32[] parameter(1), metadata={op_name="reduce_sum"}
  ROOT %reduce_sum.1377 = f32[] add(%reduce_sum.1375, %reduce_sum.1376), metadata={op_name="jit(predict_step)/Model/block4/unit03/conv2/conv2.param/reduce_sum" stack_frame_id=127}
}

%region_198.210 (reduce_sum.1382: f32[], reduce_sum.1383: f32[]) -> f32[] {
  %reduce_sum.1382 = f32[] parameter(0), metadata={op_name="reduce_sum"}
  %reduce_sum.1383 = f32[] parameter(1), metadata={op_name="reduce_sum"}
  ROOT %reduce_sum.1384 = f32[] add(%reduce_sum.1382, %reduce_sum.1383), metadata={op_name="jit(predict_step)/Model/block4/unit03/conv2/conv2.param/reduce_sum" stack_frame_id=128}
}

%region_199.211 (reduce_sum.1389: f32[], reduce_sum.1390: f32[]) -> f32[] {
  %reduce_sum.1389 = f32[] parameter(0), metadata={op_name="reduce_sum"}
  %reduce_sum.1390 = f32[] parameter(1), metadata={op_name="reduce_sum"}
  ROOT %reduce_sum.1391 = f32[] add(%reduce_sum.1389, %reduce_sum.1390), metadata={op_name="jit(predict_step)/Model/block4/unit03/gn3/reduce_sum" stack_frame_id=131}
}

%region_200.212 (reduce_sum.1396: f32[], reduce_sum.1397: f32[]) -> f32[] {
  %reduce_sum.1396 = f32[] parameter(0), metadata={op_name="reduce_sum"}
  %reduce_sum.1397 = f32[] parameter(1), metadata={op_name="reduce_sum"}
  ROOT %reduce_sum.1398 = f32[] add(%reduce_sum.1396, %reduce_sum.1397), metadata={op_name="jit(predict_step)/Model/block4/unit03/gn3/reduce_sum" stack_frame_id=132}
}

%region_201.213 (reduce_sum.1403: f32[], reduce_sum.1404: f32[]) -> f32[] {
  %reduce_sum.1403 = f32[] parameter(0), metadata={op_name="reduce_sum"}
  %reduce_sum.1404 = f32[] parameter(1), metadata={op_name="reduce_sum"}
  ROOT %reduce_sum.1405 = f32[] add(%reduce_sum.1403, %reduce_sum.1404), metadata={op_name="jit(predict_step)/Model/block4/unit03/conv3/conv3.param/reduce_sum" stack_frame_id=136}
}

%region_202.214 (reduce_sum.1410: f32[], reduce_sum.1411: f32[]) -> f32[] {
  %reduce_sum.1410 = f32[] parameter(0), metadata={op_name="reduce_sum"}
  %reduce_sum.1411 = f32[] parameter(1), metadata={op_name="reduce_sum"}
  ROOT %reduce_sum.1412 = f32[] add(%reduce_sum.1410, %reduce_sum.1411), metadata={op_name="jit(predict_step)/Model/block4/unit03/conv3/conv3.param/reduce_sum" stack_frame_id=137}
}

%region_203.215 (reduce_sum.1417: f32[], reduce_sum.1418: f32[]) -> f32[] {
  %reduce_sum.1417 = f32[] parameter(0), metadata={op_name="reduce_sum"}
  %reduce_sum.1418 = f32[] parameter(1), metadata={op_name="reduce_sum"}
  ROOT %reduce_sum.1419 = f32[] add(%reduce_sum.1417, %reduce_sum.1418), metadata={op_name="jit(predict_step)/Model/norm-pre-head/reduce_sum" stack_frame_id=140}
}

%region_204.216 (reduce_sum.1424: f32[], reduce_sum.1425: f32[]) -> f32[] {
  %reduce_sum.1424 = f32[] parameter(0), metadata={op_name="reduce_sum"}
  %reduce_sum.1425 = f32[] parameter(1), metadata={op_name="reduce_sum"}
  ROOT %reduce_sum.1426 = f32[] add(%reduce_sum.1424, %reduce_sum.1425), metadata={op_name="jit(predict_step)/Model/norm-pre-head/reduce_sum" stack_frame_id=141}
}

%region_205.217 (reduce_sum.1431: f32[], reduce_sum.1432: f32[]) -> f32[] {
  %reduce_sum.1431 = f32[] parameter(0), metadata={op_name="reduce_sum"}
  %reduce_sum.1432 = f32[] parameter(1), metadata={op_name="reduce_sum"}
  ROOT %reduce_sum.1433 = f32[] add(%reduce_sum.1431, %reduce_sum.1432), metadata={op_name="jit(predict_step)/Model/reduce_sum" stack_frame_id=142}
}

ENTRY %main.218 (variables__block1____unit01____conv1____kernel__.1: f32[1,1,64,64], variables__block1____unit01____conv2____kernel__.1: f32[3,3,64,64], variables__block1____unit01____conv3____kernel__.1: f32[1,1,64,256], variables__block1____unit01____conv_proj____kernel__.1: f32[1,1,64,256], variables__block1____unit01____gn1____bias__.1: f32[1,1,1,64], variables__block1____unit01____gn1____scale__.1: f32[1,1,1,64], variables__block1____unit01____gn2____bias__.1: f32[1,1,1,64], variables__block1____unit01____gn2____scale__.1: f32[1,1,1,64], variables__block1____unit01____gn3____bias__.1: f32[1,1,1,64], variables__block1____unit01____gn3____scale__.1: f32[1,1,1,64], variables__block1____unit02____conv1____kernel__.1: f32[1,1,256,64], variables__block1____unit02____conv2____kernel__.1: f32[3,3,64,64], variables__block1____unit02____conv3____kernel__.1: f32[1,1,64,256], variables__block1____unit02____gn1____bias__.1: f32[1,1,1,256], variables__block1____unit02____gn1____scale__.1: f32[1,1,1,256], variables__block1____unit02____gn2____bias__.1: f32[1,1,1,64], variables__block1____unit02____gn2____scale__.1: f32[1,1,1,64], variables__block1____unit02____gn3____bias__.1: f32[1,1,1,64], variables__block1____unit02____gn3____scale__.1: f32[1,1,1,64], variables__block1____unit03____conv1____kernel__.1: f32[1,1,256,64], variables__block1____unit03____conv2____kernel__.1: f32[3,3,64,64], variables__block1____unit03____conv3____kernel__.1: f32[1,1,64,256], variables__block1____unit03____gn1____bias__.1: f32[1,1,1,256], variables__block1____unit03____gn1____scale__.1: f32[1,1,1,256], variables__block1____unit03____gn2____bias__.1: f32[1,1,1,64], variables__block1____unit03____gn2____scale__.1: f32[1,1,1,64], variables__block1____unit03____gn3____bias__.1: f32[1,1,1,64], variables__block1____unit03____gn3____scale__.1: f32[1,1,1,64], variables__block2____unit01____conv1____kernel__.1: f32[1,1,256,128], variables__block2____unit01____conv2____kernel__.1: f32[3,3,128,128], variables__block2____unit01____conv3____kernel__.1: f32[1,1,128,512], variables__block2____unit01____conv_proj____kernel__.1: f32[1,1,256,512], variables__block2____unit01____gn1____bias__.1: f32[1,1,1,256], variables__block2____unit01____gn1____scale__.1: f32[1,1,1,256], variables__block2____unit01____gn2____bias__.1: f32[1,1,1,128], variables__block2____unit01____gn2____scale__.1: f32[1,1,1,128], variables__block2____unit01____gn3____bias__.1: f32[1,1,1,128], variables__block2____unit01____gn3____scale__.1: f32[1,1,1,128], variables__block2____unit02____conv1____kernel__.1: f32[1,1,512,128], variables__block2____unit02____conv2____kernel__.1: f32[3,3,128,128], variables__block2____unit02____conv3____kernel__.1: f32[1,1,128,512], variables__block2____unit02____gn1____bias__.1: f32[1,1,1,512], variables__block2____unit02____gn1____scale__.1: f32[1,1,1,512], variables__block2____unit02____gn2____bias__.1: f32[1,1,1,128], variables__block2____unit02____gn2____scale__.1: f32[1,1,1,128], variables__block2____unit02____gn3____bias__.1: f32[1,1,1,128], variables__block2____unit02____gn3____scale__.1: f32[1,1,1,128], variables__block2____unit03____conv1____kernel__.1: f32[1,1,512,128], variables__block2____unit03____conv2____kernel__.1: f32[3,3,128,128], variables__block2____unit03____conv3____kernel__.1: f32[1,1,128,512], variables__block2____unit03____gn1____bias__.1: f32[1,1,1,512], variables__block2____unit03____gn1____scale__.1: f32[1,1,1,512], variables__block2____unit03____gn2____bias__.1: f32[1,1,1,128], variables__block2____unit03____gn2____scale__.1: f32[1,1,1,128], variables__block2____unit03____gn3____bias__.1: f32[1,1,1,128], variables__block2____unit03____gn3____scale__.1: f32[1,1,1,128], variables__block2____unit04____conv1____kernel__.1: f32[1,1,512,128], variables__block2____unit04____conv2____kernel__.1: f32[3,3,128,128], variables__block2____unit04____conv3____kernel__.1: f32[1,1,128,512], variables__block2____unit04____gn1____bias__.1: f32[1,1,1,512], variables__block2____unit04____gn1____scale__.1: f32[1,1,1,512], variables__block2____unit04____gn2____bias__.1: f32[1,1,1,128], variables__block2____unit04____gn2____scale__.1: f32[1,1,1,128], variables__block2____unit04____gn3____bias__.1: f32[1,1,1,128], variables__block2____unit04____gn3____scale__.1: f32[1,1,1,128], variables__block3____unit01____conv1____kernel__.1: f32[1,1,512,256], variables__block3____unit01____conv2____kernel__.1: f32[3,3,256,256], variables__block3____unit01____conv3____kernel__.1: f32[1,1,256,1024], variables__block3____unit01____conv_proj____kernel__.1: f32[1,1,512,1024], variables__block3____unit01____gn1____bias__.1: f32[1,1,1,512], variables__block3____unit01____gn1____scale__.1: f32[1,1,1,512], variables__block3____unit01____gn2____bias__.1: f32[1,1,1,256], variables__block3____unit01____gn2____scale__.1: f32[1,1,1,256], variables__block3____unit01____gn3____bias__.1: f32[1,1,1,256], variables__block3____unit01____gn3____scale__.1: f32[1,1,1,256], variables__block3____unit02____conv1____kernel__.1: f32[1,1,1024,256], variables__block3____unit02____conv2____kernel__.1: f32[3,3,256,256], variables__block3____unit02____conv3____kernel__.1: f32[1,1,256,1024], variables__block3____unit02____gn1____bias__.1: f32[1,1,1,1024], variables__block3____unit02____gn1____scale__.1: f32[1,1,1,1024], variables__block3____unit02____gn2____bias__.1: f32[1,1,1,256], variables__block3____unit02____gn2____scale__.1: f32[1,1,1,256], variables__block3____unit02____gn3____bias__.1: f32[1,1,1,256], variables__block3____unit02____gn3____scale__.1: f32[1,1,1,256], variables__block3____unit03____conv1____kernel__.1: f32[1,1,1024,256], variables__block3____unit03____conv2____kernel__.1: f32[3,3,256,256], variables__block3____unit03____conv3____kernel__.1: f32[1,1,256,1024], variables__block3____unit03____gn1____bias__.1: f32[1,1,1,1024], variables__block3____unit03____gn1____scale__.1: f32[1,1,1,1024], variables__block3____unit03____gn2____bias__.1: f32[1,1,1,256], variables__block3____unit03____gn2____scale__.1: f32[1,1,1,256], variables__block3____unit03____gn3____bias__.1: f32[1,1,1,256], variables__block3____unit03____gn3____scale__.1: f32[1,1,1,256], variables__block3____unit04____conv1____kernel__.1: f32[1,1,1024,256], variables__block3____unit04____conv2____kernel__.1: f32[3,3,256,256], variables__block3____unit04____conv3____kernel__.1: f32[1,1,256,1024], variables__block3____unit04____gn1____bias__.1: f32[1,1,1,1024], variables__block3____unit04____gn1____scale__.1: f32[1,1,1,1024], variables__block3____unit04____gn2____bias__.1: f32[1,1,1,256], variables__block3____unit04____gn2____scale__.1: f32[1,1,1,256], variables__block3____unit04____gn3____bias__.1: f32[1,1,1,256], variables__block3____unit04____gn3____scale__.1: f32[1,1,1,256], variables__block3____unit05____conv1____kernel__.1: f32[1,1,1024,256], variables__block3____unit05____conv2____kernel__.1: f32[3,3,256,256], variables__block3____unit05____conv3____kernel__.1: f32[1,1,256,1024], variables__block3____unit05____gn1____bias__.1: f32[1,1,1,1024], variables__block3____unit05____gn1____scale__.1: f32[1,1,1,1024], variables__block3____unit05____gn2____bias__.1: f32[1,1,1,256], variables__block3____unit05____gn2____scale__.1: f32[1,1,1,256], variables__block3____unit05____gn3____bias__.1: f32[1,1,1,256], variables__block3____unit05____gn3____scale__.1: f32[1,1,1,256], variables__block3____unit06____conv1____kernel__.1: f32[1,1,1024,256], variables__block3____unit06____conv2____kernel__.1: f32[3,3,256,256], variables__block3____unit06____conv3____kernel__.1: f32[1,1,256,1024], variables__block3____unit06____gn1____bias__.1: f32[1,1,1,1024], variables__block3____unit06____gn1____scale__.1: f32[1,1,1,1024], variables__block3____unit06____gn2____bias__.1: f32[1,1,1,256], variables__block3____unit06____gn2____scale__.1: f32[1,1,1,256], variables__block3____unit06____gn3____bias__.1: f32[1,1,1,256], variables__block3____unit06____gn3____scale__.1: f32[1,1,1,256], variables__block4____unit01____conv1____kernel__.1: f32[1,1,1024,512], variables__block4____unit01____conv2____kernel__.1: f32[3,3,512,512], variables__block4____unit01____conv3____kernel__.1: f32[1,1,512,2048], variables__block4____unit01____conv_proj____kernel__.1: f32[1,1,1024,2048], variables__block4____unit01____gn1____bias__.1: f32[1,1,1,1024], variables__block4____unit01____gn1____scale__.1: f32[1,1,1,1024], variables__block4____unit01____gn2____bias__.1: f32[1,1,1,512], variables__block4____unit01____gn2____scale__.1: f32[1,1,1,512], variables__block4____unit01____gn3____bias__.1: f32[1,1,1,512], variables__block4____unit01____gn3____scale__.1: f32[1,1,1,512], variables__block4____unit02____conv1____kernel__.1: f32[1,1,2048,512], variables__block4____unit02____conv2____kernel__.1: f32[3,3,512,512], variables__block4____unit02____conv3____kernel__.1: f32[1,1,512,2048], variables__block4____unit02____gn1____bias__.1: f32[1,1,1,2048], variables__block4____unit02____gn1____scale__.1: f32[1,1,1,2048], variables__block4____unit02____gn2____bias__.1: f32[1,1,1,512], variables__block4____unit02____gn2____scale__.1: f32[1,1,1,512], variables__block4____unit02____gn3____bias__.1: f32[1,1,1,512], variables__block4____unit02____gn3____scale__.1: f32[1,1,1,512], variables__block4____unit03____conv1____kernel__.1: f32[1,1,2048,512], variables__block4____unit03____conv2____kernel__.1: f32[3,3,512,512], variables__block4____unit03____conv3____kernel__.1: f32[1,1,512,2048], variables__block4____unit03____gn1____bias__.1: f32[1,1,1,2048], variables__block4____unit03____gn1____scale__.1: f32[1,1,1,2048], variables__block4____unit03____gn2____bias__.1: f32[1,1,1,512], variables__block4____unit03____gn2____scale__.1: f32[1,1,1,512], variables__block4____unit03____gn3____bias__.1: f32[1,1,1,512], variables__block4____unit03____gn3____scale__.1: f32[1,1,1,512], variables__head____bias__.1: f32[1000], variables__head____kernel__.1: f32[2048,1000], variables__norm-pre-head____bias__.1: f32[1,1,1,2048], variables__norm-pre-head____scale__.1: f32[1,1,1,2048], variables__root_block____conv_root____kernel__.1: f32[7,7,3,64], inputs_0_.1: f32[8,224,224,3]) -> f32[8,1000] {
  %inputs_0_.1 = f32[8,224,224,3]{3,2,1,0} parameter(153), sharding={replicated}, frontend_attributes={xla.sdy.sharding="#sdy.sharding<@mesh, [{}, {}, {}, {}]>"}, metadata={op_name="inputs[0]"}
  %variables__root_block____conv_root____kernel__.1 = f32[7,7,3,64]{3,2,1,0} parameter(152), sharding={devices=[1,1,1,2]<=[2]}, frontend_attributes={xla.sdy.sharding="#sdy.sharding<@mesh, [{}, {}, {}, {\"fsdp\"}]>"}, metadata={op_name="variables[\'root_block\'][\'conv_root\'][\'kernel\']"}
  %constant.93 = f32[] constant(0)
  %reduce_sum.1435 = f32[64]{0} reduce(%variables__root_block____conv_root____kernel__.1, %constant.93), dimensions={0,1,2}, to_apply=%region_0.1, metadata={op_name="jit(predict_step)/Model/root_block/conv_root/conv_root.param/reduce_sum" stack_frame_id=9}
  %broadcast_in_dim.204 = f32[1,1,1,64]{3,2,1,0} reshape(%reduce_sum.1435), metadata={op_name="jit(predict_step)/Model/root_block/conv_root/conv_root.param/broadcast_in_dim" stack_frame_id=9}
  %constant.92 = f32[] constant(147)
  %broadcast.65 = f32[1,1,1,64]{3,2,1,0} broadcast(%constant.92), dimensions={}
  %div.615 = f32[1,1,1,64]{3,2,1,0} divide(%broadcast_in_dim.204, %broadcast.65), metadata={op_name="jit(predict_step)/Model/root_block/conv_root/conv_root.param/div" stack_frame_id=9}
  %sub.408 = f32[1,1,1,64]{3,2,1,0} broadcast(%div.615), dimensions={0,1,2,3}, metadata={op_name="jit(predict_step)/Model/root_block/conv_root/conv_root.param/sub" stack_frame_id=143}
  %sub.409 = f32[64]{0} reshape(%sub.408), metadata={op_name="jit(predict_step)/Model/root_block/conv_root/conv_root.param/sub" stack_frame_id=143}
  %sub.410 = f32[7,7,3,64]{3,2,1,0} broadcast(%sub.409), dimensions={3}, metadata={op_name="jit(predict_step)/Model/root_block/conv_root/conv_root.param/sub" stack_frame_id=143}
  %sub.411 = f32[7,7,3,64]{3,2,1,0} subtract(%variables__root_block____conv_root____kernel__.1, %sub.410), metadata={op_name="jit(predict_step)/Model/root_block/conv_root/conv_root.param/sub" stack_frame_id=143}
  %square.102 = f32[7,7,3,64]{3,2,1,0} multiply(%sub.411, %sub.411), metadata={op_name="jit(predict_step)/Model/root_block/conv_root/conv_root.param/square" stack_frame_id=144}
  %reduce_sum.1436 = f32[64]{0} reduce(%square.102, %constant.93), dimensions={0,1,2}, to_apply=%region_1.2, metadata={op_name="jit(predict_step)/Model/root_block/conv_root/conv_root.param/reduce_sum" stack_frame_id=10}
  %broadcast_in_dim.205 = f32[1,1,1,64]{3,2,1,0} reshape(%reduce_sum.1436), metadata={op_name="jit(predict_step)/Model/root_block/conv_root/conv_root.param/broadcast_in_dim" stack_frame_id=10}
  %div.616 = f32[1,1,1,64]{3,2,1,0} divide(%broadcast_in_dim.205, %broadcast.65), metadata={op_name="jit(predict_step)/Model/root_block/conv_root/conv_root.param/div" stack_frame_id=10}
  %constant.91 = f32[] constant(1e-10)
  %broadcast.64 = f32[1,1,1,64]{3,2,1,0} broadcast(%constant.91), dimensions={}
  %add.319 = f32[1,1,1,64]{3,2,1,0} add(%div.616, %broadcast.64), metadata={op_name="jit(predict_step)/Model/root_block/conv_root/conv_root.param/add" stack_frame_id=10}
  %sqrt.102 = f32[1,1,1,64]{3,2,1,0} sqrt(%add.319), metadata={op_name="jit(predict_step)/Model/root_block/conv_root/conv_root.param/sqrt" stack_frame_id=145}
  %div.617 = f32[1,1,1,64]{3,2,1,0} broadcast(%sqrt.102), dimensions={0,1,2,3}, metadata={op_name="jit(predict_step)/Model/root_block/conv_root/conv_root.param/div" stack_frame_id=146}
  %div.618 = f32[64]{0} reshape(%div.617), metadata={op_name="jit(predict_step)/Model/root_block/conv_root/conv_root.param/div" stack_frame_id=146}
  %div.619 = f32[7,7,3,64]{3,2,1,0} broadcast(%div.618), dimensions={3}, metadata={op_name="jit(predict_step)/Model/root_block/conv_root/conv_root.param/div" stack_frame_id=146}
  %div.620 = f32[7,7,3,64]{3,2,1,0} divide(%sub.411, %div.619), metadata={op_name="jit(predict_step)/Model/root_block/conv_root/conv_root.param/div" stack_frame_id=146}
  %conv_general_dilated.53 = f32[8,112,112,64]{3,2,1,0} convolution(%inputs_0_.1, %div.620), window={size=7x7 stride=2x2 pad=3_3x3_3}, dim_labels=b01f_01io->b01f, metadata={op_name="jit(predict_step)/Model/root_block/conv_root/conv_general_dilated" stack_frame_id=147}
  %constant.90 = f32[] constant(-inf)
  %reduce_window_max.7 = f32[8,56,56,64]{3,2,1,0} reduce-window(%conv_general_dilated.53, %constant.90), window={size=1x3x3x1 stride=1x2x2x1 pad=0_0x1_1x1_1x0_0}, to_apply=%region_2.3, metadata={op_name="jit(predict_step)/Model/root_block/reduce_window_max" stack_frame_id=13}
  %reshape.99 = f32[8,56,56,32,2]{4,3,2,1,0} reshape(%reduce_window_max.7), metadata={op_name="jit(predict_step)/Model/block1/unit01/gn1/reshape" stack_frame_id=148}
  %reduce_sum.1437 = f32[8,32]{1,0} reduce(%reshape.99, %constant.93), dimensions={1,2,4}, to_apply=%region_3.4, metadata={op_name="jit(predict_step)/Model/block1/unit01/gn1/reduce_sum" stack_frame_id=18}
  %broadcast_in_dim.206 = f32[8,1,1,32,1]{4,3,2,1,0} reshape(%reduce_sum.1437), metadata={op_name="jit(predict_step)/Model/block1/unit01/gn1/broadcast_in_dim" stack_frame_id=18}
  %constant.89 = f32[] constant(6272)
  %broadcast.63 = f32[8,1,1,32,1]{4,3,2,1,0} broadcast(%constant.89), dimensions={}
  %div.621 = f32[8,1,1,32,1]{4,3,2,1,0} divide(%broadcast_in_dim.206, %broadcast.63), metadata={op_name="jit(predict_step)/Model/block1/unit01/gn1/div" stack_frame_id=18}
  %sub.412 = f32[8,1,1,32,1]{4,3,2,1,0} broadcast(%div.621), dimensions={0,1,2,3,4}, metadata={op_name="jit(predict_step)/Model/block1/unit01/gn1/sub" stack_frame_id=149}
  %sub.413 = f32[8,32]{1,0} reshape(%sub.412), metadata={op_name="jit(predict_step)/Model/block1/unit01/gn1/sub" stack_frame_id=149}
  %sub.414 = f32[8,56,56,32,2]{4,3,2,1,0} broadcast(%sub.413), dimensions={0,3}, metadata={op_name="jit(predict_step)/Model/block1/unit01/gn1/sub" stack_frame_id=149}
  %sub.415 = f32[8,56,56,32,2]{4,3,2,1,0} subtract(%reshape.99, %sub.414), metadata={op_name="jit(predict_step)/Model/block1/unit01/gn1/sub" stack_frame_id=149}
  %square.103 = f32[8,56,56,32,2]{4,3,2,1,0} multiply(%sub.415, %sub.415), metadata={op_name="jit(predict_step)/Model/block1/unit01/gn1/square" stack_frame_id=150}
  %reduce_sum.1438 = f32[8,32]{1,0} reduce(%square.103, %constant.93), dimensions={1,2,4}, to_apply=%region_4.5, metadata={op_name="jit(predict_step)/Model/block1/unit01/gn1/reduce_sum" stack_frame_id=19}
  %broadcast_in_dim.207 = f32[8,1,1,32,1]{4,3,2,1,0} reshape(%reduce_sum.1438), metadata={op_name="jit(predict_step)/Model/block1/unit01/gn1/broadcast_in_dim" stack_frame_id=19}
  %div.622 = f32[8,1,1,32,1]{4,3,2,1,0} divide(%broadcast_in_dim.207, %broadcast.63), metadata={op_name="jit(predict_step)/Model/block1/unit01/gn1/div" stack_frame_id=19}
  %constant.88 = f32[] constant(1e-05)
  %broadcast.62 = f32[8,1,1,32,1]{4,3,2,1,0} broadcast(%constant.88), dimensions={}
  %add.320 = f32[8,1,1,32,1]{4,3,2,1,0} add(%div.622, %broadcast.62), metadata={op_name="jit(predict_step)/Model/block1/unit01/gn1/add" stack_frame_id=19}
  %sqrt.103 = f32[8,1,1,32,1]{4,3,2,1,0} sqrt(%add.320), metadata={op_name="jit(predict_step)/Model/block1/unit01/gn1/sqrt" stack_frame_id=151}
  %div.623 = f32[8,1,1,32,1]{4,3,2,1,0} broadcast(%sqrt.103), dimensions={0,1,2,3,4}, metadata={op_name="jit(predict_step)/Model/block1/unit01/gn1/div" stack_frame_id=152}
  %div.624 = f32[8,32]{1,0} reshape(%div.623), metadata={op_name="jit(predict_step)/Model/block1/unit01/gn1/div" stack_frame_id=152}
  %div.625 = f32[8,56,56,32,2]{4,3,2,1,0} broadcast(%div.624), dimensions={0,3}, metadata={op_name="jit(predict_step)/Model/block1/unit01/gn1/div" stack_frame_id=152}
  %div.626 = f32[8,56,56,32,2]{4,3,2,1,0} divide(%sub.415, %div.625), metadata={op_name="jit(predict_step)/Model/block1/unit01/gn1/div" stack_frame_id=152}
  %reshape.100 = f32[8,56,56,64]{3,2,1,0} reshape(%div.626), metadata={op_name="jit(predict_step)/Model/block1/unit01/gn1/reshape" stack_frame_id=153}
  %variables__block1____unit01____gn1____scale__.1 = f32[1,1,1,64]{3,2,1,0} parameter(5), sharding={devices=[1,1,1,2]<=[2]}, frontend_attributes={xla.sdy.sharding="#sdy.sharding<@mesh, [{}, {}, {}, {\"fsdp\"}]>"}, metadata={op_name="variables[\'block1\'][\'unit01\'][\'gn1\'][\'scale\']"}
  %mul.196 = f32[1,1,1,64]{3,2,1,0} broadcast(%variables__block1____unit01____gn1____scale__.1), dimensions={0,1,2,3}, metadata={op_name="jit(predict_step)/Model/block1/unit01/gn1/mul" stack_frame_id=154}
  %mul.197 = f32[64]{0} reshape(%mul.196), metadata={op_name="jit(predict_step)/Model/block1/unit01/gn1/mul" stack_frame_id=154}
  %mul.198 = f32[8,56,56,64]{3,2,1,0} broadcast(%mul.197), dimensions={3}, metadata={op_name="jit(predict_step)/Model/block1/unit01/gn1/mul" stack_frame_id=154}
  %mul.199 = f32[8,56,56,64]{3,2,1,0} multiply(%reshape.100, %mul.198), metadata={op_name="jit(predict_step)/Model/block1/unit01/gn1/mul" stack_frame_id=154}
  %variables__block1____unit01____gn1____bias__.1 = f32[1,1,1,64]{3,2,1,0} parameter(4), sharding={devices=[1,1,1,2]<=[2]}, frontend_attributes={xla.sdy.sharding="#sdy.sharding<@mesh, [{}, {}, {}, {\"fsdp\"}]>"}, metadata={op_name="variables[\'block1\'][\'unit01\'][\'gn1\'][\'bias\']"}
  %add.321 = f32[1,1,1,64]{3,2,1,0} broadcast(%variables__block1____unit01____gn1____bias__.1), dimensions={0,1,2,3}, metadata={op_name="jit(predict_step)/Model/block1/unit01/gn1/add" stack_frame_id=155}
  %add.322 = f32[64]{0} reshape(%add.321), metadata={op_name="jit(predict_step)/Model/block1/unit01/gn1/add" stack_frame_id=155}
  %add.323 = f32[8,56,56,64]{3,2,1,0} broadcast(%add.322), dimensions={3}, metadata={op_name="jit(predict_step)/Model/block1/unit01/gn1/add" stack_frame_id=155}
  %add.324 = f32[8,56,56,64]{3,2,1,0} add(%mul.199, %add.323), metadata={op_name="jit(predict_step)/Model/block1/unit01/gn1/add" stack_frame_id=155}
  %jit_relu_.49 = f32[8,56,56,64]{3,2,1,0} call(%add.324), to_apply=%relu.6, metadata={op_name="jit(predict_step)/Model/block1/unit01/jit(relu)" stack_frame_id=156}
  %variables__block1____unit01____conv1____kernel__.1 = f32[1,1,64,64]{3,2,1,0} parameter(0), sharding={devices=[1,1,2,1]<=[2]}, frontend_attributes={xla.sdy.sharding="#sdy.sharding<@mesh, [{}, {}, {\"fsdp\"}, {}]>"}, metadata={op_name="variables[\'block1\'][\'unit01\'][\'conv1\'][\'kernel\']"}
  %reduce_sum.1441 = f32[64]{0} reduce(%variables__block1____unit01____conv1____kernel__.1, %constant.93), dimensions={0,1,2}, to_apply=%region_7.9, metadata={op_name="jit(predict_step)/Model/block1/unit01/conv1/conv1.param/reduce_sum" stack_frame_id=28}
  %broadcast_in_dim.210 = f32[1,1,1,64]{3,2,1,0} reshape(%reduce_sum.1441), metadata={op_name="jit(predict_step)/Model/block1/unit01/conv1/conv1.param/broadcast_in_dim" stack_frame_id=28}
  %constant.85 = f32[] constant(64)
  %broadcast.59 = f32[1,1,1,64]{3,2,1,0} broadcast(%constant.85), dimensions={}
  %div.633 = f32[1,1,1,64]{3,2,1,0} divide(%broadcast_in_dim.210, %broadcast.59), metadata={op_name="jit(predict_step)/Model/block1/unit01/conv1/conv1.param/div" stack_frame_id=28}
  %sub.420 = f32[1,1,1,64]{3,2,1,0} broadcast(%div.633), dimensions={0,1,2,3}, metadata={op_name="jit(predict_step)/Model/block1/unit01/conv1/conv1.param/sub" stack_frame_id=157}
  %sub.421 = f32[1,1,64]{2,1,0} reshape(%sub.420), metadata={op_name="jit(predict_step)/Model/block1/unit01/conv1/conv1.param/sub" stack_frame_id=157}
  %sub.422 = f32[1,1,64,64]{3,2,1,0} broadcast(%sub.421), dimensions={0,1,3}, metadata={op_name="jit(predict_step)/Model/block1/unit01/conv1/conv1.param/sub" stack_frame_id=157}
  %sub.423 = f32[1,1,64,64]{3,2,1,0} subtract(%variables__block1____unit01____conv1____kernel__.1, %sub.422), metadata={op_name="jit(predict_step)/Model/block1/unit01/conv1/conv1.param/sub" stack_frame_id=157}
  %square.105 = f32[1,1,64,64]{3,2,1,0} multiply(%sub.423, %sub.423), metadata={op_name="jit(predict_step)/Model/block1/unit01/conv1/conv1.param/square" stack_frame_id=158}
  %reduce_sum.1442 = f32[64]{0} reduce(%square.105, %constant.93), dimensions={0,1,2}, to_apply=%region_8.10, metadata={op_name="jit(predict_step)/Model/block1/unit01/conv1/conv1.param/reduce_sum" stack_frame_id=29}
  %broadcast_in_dim.211 = f32[1,1,1,64]{3,2,1,0} reshape(%reduce_sum.1442), metadata={op_name="jit(predict_step)/Model/block1/unit01/conv1/conv1.param/broadcast_in_dim" stack_frame_id=29}
  %div.634 = f32[1,1,1,64]{3,2,1,0} divide(%broadcast_in_dim.211, %broadcast.59), metadata={op_name="jit(predict_step)/Model/block1/unit01/conv1/conv1.param/div" stack_frame_id=29}
  %add.326 = f32[1,1,1,64]{3,2,1,0} add(%div.634, %broadcast.64), metadata={op_name="jit(predict_step)/Model/block1/unit01/conv1/conv1.param/add" stack_frame_id=29}
  %sqrt.105 = f32[1,1,1,64]{3,2,1,0} sqrt(%add.326), metadata={op_name="jit(predict_step)/Model/block1/unit01/conv1/conv1.param/sqrt" stack_frame_id=159}
  %div.635 = f32[1,1,1,64]{3,2,1,0} broadcast(%sqrt.105), dimensions={0,1,2,3}, metadata={op_name="jit(predict_step)/Model/block1/unit01/conv1/conv1.param/div" stack_frame_id=160}
  %div.636 = f32[1,1,64]{2,1,0} reshape(%div.635), metadata={op_name="jit(predict_step)/Model/block1/unit01/conv1/conv1.param/div" stack_frame_id=160}
  %div.637 = f32[1,1,64,64]{3,2,1,0} broadcast(%div.636), dimensions={0,1,3}, metadata={op_name="jit(predict_step)/Model/block1/unit01/conv1/conv1.param/div" stack_frame_id=160}
  %div.638 = f32[1,1,64,64]{3,2,1,0} divide(%sub.423, %div.637), metadata={op_name="jit(predict_step)/Model/block1/unit01/conv1/conv1.param/div" stack_frame_id=160}
  %conv_general_dilated.55 = f32[8,56,56,64]{3,2,1,0} convolution(%jit_relu_.49, %div.638), window={size=1x1}, dim_labels=b01f_01io->b01f, metadata={op_name="jit(predict_step)/Model/block1/unit01/conv1/conv_general_dilated" stack_frame_id=161}
  %reshape.101 = f32[8,56,56,32,2]{4,3,2,1,0} reshape(%conv_general_dilated.55), metadata={op_name="jit(predict_step)/Model/block1/unit01/gn2/reshape" stack_frame_id=162}
  %reduce_sum.1443 = f32[8,32]{1,0} reduce(%reshape.101, %constant.93), dimensions={1,2,4}, to_apply=%region_9.11, metadata={op_name="jit(predict_step)/Model/block1/unit01/gn2/reduce_sum" stack_frame_id=32}
  %broadcast_in_dim.212 = f32[8,1,1,32,1]{4,3,2,1,0} reshape(%reduce_sum.1443), metadata={op_name="jit(predict_step)/Model/block1/unit01/gn2/broadcast_in_dim" stack_frame_id=32}
  %div.639 = f32[8,1,1,32,1]{4,3,2,1,0} divide(%broadcast_in_dim.212, %broadcast.63), metadata={op_name="jit(predict_step)/Model/block1/unit01/gn2/div" stack_frame_id=32}
  %sub.424 = f32[8,1,1,32,1]{4,3,2,1,0} broadcast(%div.639), dimensions={0,1,2,3,4}, metadata={op_name="jit(predict_step)/Model/block1/unit01/gn2/sub" stack_frame_id=163}
  %sub.425 = f32[8,32]{1,0} reshape(%sub.424), metadata={op_name="jit(predict_step)/Model/block1/unit01/gn2/sub" stack_frame_id=163}
  %sub.426 = f32[8,56,56,32,2]{4,3,2,1,0} broadcast(%sub.425), dimensions={0,3}, metadata={op_name="jit(predict_step)/Model/block1/unit01/gn2/sub" stack_frame_id=163}
  %sub.427 = f32[8,56,56,32,2]{4,3,2,1,0} subtract(%reshape.101, %sub.426), metadata={op_name="jit(predict_step)/Model/block1/unit01/gn2/sub" stack_frame_id=163}
  %square.106 = f32[8,56,56,32,2]{4,3,2,1,0} multiply(%sub.427, %sub.427), metadata={op_name="jit(predict_step)/Model/block1/unit01/gn2/square" stack_frame_id=164}
  %reduce_sum.1444 = f32[8,32]{1,0} reduce(%square.106, %constant.93), dimensions={1,2,4}, to_apply=%region_10.12, metadata={op_name="jit(predict_step)/Model/block1/unit01/gn2/reduce_sum" stack_frame_id=33}
  %broadcast_in_dim.213 = f32[8,1,1,32,1]{4,3,2,1,0} reshape(%reduce_sum.1444), metadata={op_name="jit(predict_step)/Model/block1/unit01/gn2/broadcast_in_dim" stack_frame_id=33}
  %div.640 = f32[8,1,1,32,1]{4,3,2,1,0} divide(%broadcast_in_dim.213, %broadcast.63), metadata={op_name="jit(predict_step)/Model/block1/unit01/gn2/div" stack_frame_id=33}
  %add.327 = f32[8,1,1,32,1]{4,3,2,1,0} add(%div.640, %broadcast.62), metadata={op_name="jit(predict_step)/Model/block1/unit01/gn2/add" stack_frame_id=33}
  %sqrt.106 = f32[8,1,1,32,1]{4,3,2,1,0} sqrt(%add.327), metadata={op_name="jit(predict_step)/Model/block1/unit01/gn2/sqrt" stack_frame_id=165}
  %div.641 = f32[8,1,1,32,1]{4,3,2,1,0} broadcast(%sqrt.106), dimensions={0,1,2,3,4}, metadata={op_name="jit(predict_step)/Model/block1/unit01/gn2/div" stack_frame_id=166}
  %div.642 = f32[8,32]{1,0} reshape(%div.641), metadata={op_name="jit(predict_step)/Model/block1/unit01/gn2/div" stack_frame_id=166}
  %div.643 = f32[8,56,56,32,2]{4,3,2,1,0} broadcast(%div.642), dimensions={0,3}, metadata={op_name="jit(predict_step)/Model/block1/unit01/gn2/div" stack_frame_id=166}
  %div.644 = f32[8,56,56,32,2]{4,3,2,1,0} divide(%sub.427, %div.643), metadata={op_name="jit(predict_step)/Model/block1/unit01/gn2/div" stack_frame_id=166}
  %reshape.102 = f32[8,56,56,64]{3,2,1,0} reshape(%div.644), metadata={op_name="jit(predict_step)/Model/block1/unit01/gn2/reshape" stack_frame_id=167}
  %variables__block1____unit01____gn2____scale__.1 = f32[1,1,1,64]{3,2,1,0} parameter(7), sharding={devices=[1,1,1,2]<=[2]}, frontend_attributes={xla.sdy.sharding="#sdy.sharding<@mesh, [{}, {}, {}, {\"fsdp\"}]>"}, metadata={op_name="variables[\'block1\'][\'unit01\'][\'gn2\'][\'scale\']"}
  %mul.200 = f32[1,1,1,64]{3,2,1,0} broadcast(%variables__block1____unit01____gn2____scale__.1), dimensions={0,1,2,3}, metadata={op_name="jit(predict_step)/Model/block1/unit01/gn2/mul" stack_frame_id=168}
  %mul.201 = f32[64]{0} reshape(%mul.200), metadata={op_name="jit(predict_step)/Model/block1/unit01/gn2/mul" stack_frame_id=168}
  %mul.202 = f32[8,56,56,64]{3,2,1,0} broadcast(%mul.201), dimensions={3}, metadata={op_name="jit(predict_step)/Model/block1/unit01/gn2/mul" stack_frame_id=168}
  %mul.203 = f32[8,56,56,64]{3,2,1,0} multiply(%reshape.102, %mul.202), metadata={op_name="jit(predict_step)/Model/block1/unit01/gn2/mul" stack_frame_id=168}
  %variables__block1____unit01____gn2____bias__.1 = f32[1,1,1,64]{3,2,1,0} parameter(6), sharding={devices=[1,1,1,2]<=[2]}, frontend_attributes={xla.sdy.sharding="#sdy.sharding<@mesh, [{}, {}, {}, {\"fsdp\"}]>"}, metadata={op_name="variables[\'block1\'][\'unit01\'][\'gn2\'][\'bias\']"}
  %add.328 = f32[1,1,1,64]{3,2,1,0} broadcast(%variables__block1____unit01____gn2____bias__.1), dimensions={0,1,2,3}, metadata={op_name="jit(predict_step)/Model/block1/unit01/gn2/add" stack_frame_id=169}
  %add.329 = f32[64]{0} reshape(%add.328), metadata={op_name="jit(predict_step)/Model/block1/unit01/gn2/add" stack_frame_id=169}
  %add.330 = f32[8,56,56,64]{3,2,1,0} broadcast(%add.329), dimensions={3}, metadata={op_name="jit(predict_step)/Model/block1/unit01/gn2/add" stack_frame_id=169}
  %add.331 = f32[8,56,56,64]{3,2,1,0} add(%mul.203, %add.330), metadata={op_name="jit(predict_step)/Model/block1/unit01/gn2/add" stack_frame_id=169}
  %jit_relu_.50 = f32[8,56,56,64]{3,2,1,0} call(%add.331), to_apply=%relu.6, metadata={op_name="jit(predict_step)/Model/block1/unit01/jit(relu)" stack_frame_id=170}
  %variables__block1____unit01____conv2____kernel__.1 = f32[3,3,64,64]{3,2,1,0} parameter(1), sharding={devices=[1,1,2,1]<=[2]}, frontend_attributes={xla.sdy.sharding="#sdy.sharding<@mesh, [{}, {}, {\"fsdp\"}, {}]>"}, metadata={op_name="variables[\'block1\'][\'unit01\'][\'conv2\'][\'kernel\']"}
  %reduce_sum.1445 = f32[64]{0} reduce(%variables__block1____unit01____conv2____kernel__.1, %constant.93), dimensions={0,1,2}, to_apply=%region_11.13, metadata={op_name="jit(predict_step)/Model/block1/unit01/conv2/conv2.param/reduce_sum" stack_frame_id=37}
  %broadcast_in_dim.214 = f32[1,1,1,64]{3,2,1,0} reshape(%reduce_sum.1445), metadata={op_name="jit(predict_step)/Model/block1/unit01/conv2/conv2.param/broadcast_in_dim" stack_frame_id=37}
  %constant.84 = f32[] constant(576)
  %broadcast.58 = f32[1,1,1,64]{3,2,1,0} broadcast(%constant.84), dimensions={}
  %div.645 = f32[1,1,1,64]{3,2,1,0} divide(%broadcast_in_dim.214, %broadcast.58), metadata={op_name="jit(predict_step)/Model/block1/unit01/conv2/conv2.param/div" stack_frame_id=37}
  %sub.428 = f32[1,1,1,64]{3,2,1,0} broadcast(%div.645), dimensions={0,1,2,3}, metadata={op_name="jit(predict_step)/Model/block1/unit01/conv2/conv2.param/sub" stack_frame_id=171}
  %sub.429 = f32[64]{0} reshape(%sub.428), metadata={op_name="jit(predict_step)/Model/block1/unit01/conv2/conv2.param/sub" stack_frame_id=171}
  %sub.430 = f32[3,3,64,64]{3,2,1,0} broadcast(%sub.429), dimensions={3}, metadata={op_name="jit(predict_step)/Model/block1/unit01/conv2/conv2.param/sub" stack_frame_id=171}
  %sub.431 = f32[3,3,64,64]{3,2,1,0} subtract(%variables__block1____unit01____conv2____kernel__.1, %sub.430), metadata={op_name="jit(predict_step)/Model/block1/unit01/conv2/conv2.param/sub" stack_frame_id=171}
  %square.107 = f32[3,3,64,64]{3,2,1,0} multiply(%sub.431, %sub.431), metadata={op_name="jit(predict_step)/Model/block1/unit01/conv2/conv2.param/square" stack_frame_id=172}
  %reduce_sum.1446 = f32[64]{0} reduce(%square.107, %constant.93), dimensions={0,1,2}, to_apply=%region_12.14, metadata={op_name="jit(predict_step)/Model/block1/unit01/conv2/conv2.param/reduce_sum" stack_frame_id=38}
  %broadcast_in_dim.215 = f32[1,1,1,64]{3,2,1,0} reshape(%reduce_sum.1446), metadata={op_name="jit(predict_step)/Model/block1/unit01/conv2/conv2.param/broadcast_in_dim" stack_frame_id=38}
  %div.646 = f32[1,1,1,64]{3,2,1,0} divide(%broadcast_in_dim.215, %broadcast.58), metadata={op_name="jit(predict_step)/Model/block1/unit01/conv2/conv2.param/div" stack_frame_id=38}
  %add.332 = f32[1,1,1,64]{3,2,1,0} add(%div.646, %broadcast.64), metadata={op_name="jit(predict_step)/Model/block1/unit01/conv2/conv2.param/add" stack_frame_id=38}
  %sqrt.107 = f32[1,1,1,64]{3,2,1,0} sqrt(%add.332), metadata={op_name="jit(predict_step)/Model/block1/unit01/conv2/conv2.param/sqrt" stack_frame_id=173}
  %div.647 = f32[1,1,1,64]{3,2,1,0} broadcast(%sqrt.107), dimensions={0,1,2,3}, metadata={op_name="jit(predict_step)/Model/block1/unit01/conv2/conv2.param/div" stack_frame_id=174}
  %div.648 = f32[64]{0} reshape(%div.647), metadata={op_name="jit(predict_step)/Model/block1/unit01/conv2/conv2.param/div" stack_frame_id=174}
  %div.649 = f32[3,3,64,64]{3,2,1,0} broadcast(%div.648), dimensions={3}, metadata={op_name="jit(predict_step)/Model/block1/unit01/conv2/conv2.param/div" stack_frame_id=174}
  %div.650 = f32[3,3,64,64]{3,2,1,0} divide(%sub.431, %div.649), metadata={op_name="jit(predict_step)/Model/block1/unit01/conv2/conv2.param/div" stack_frame_id=174}
  %conv_general_dilated.56 = f32[8,56,56,64]{3,2,1,0} convolution(%jit_relu_.50, %div.650), window={size=3x3 pad=1_1x1_1}, dim_labels=b01f_01io->b01f, metadata={op_name="jit(predict_step)/Model/block1/unit01/conv2/conv_general_dilated" stack_frame_id=175}
  %reshape.103 = f32[8,56,56,32,2]{4,3,2,1,0} reshape(%conv_general_dilated.56), metadata={op_name="jit(predict_step)/Model/block1/unit01/gn3/reshape" stack_frame_id=176}
  %reduce_sum.1447 = f32[8,32]{1,0} reduce(%reshape.103, %constant.93), dimensions={1,2,4}, to_apply=%region_13.15, metadata={op_name="jit(predict_step)/Model/block1/unit01/gn3/reduce_sum" stack_frame_id=41}
  %broadcast_in_dim.216 = f32[8,1,1,32,1]{4,3,2,1,0} reshape(%reduce_sum.1447), metadata={op_name="jit(predict_step)/Model/block1/unit01/gn3/broadcast_in_dim" stack_frame_id=41}
  %div.651 = f32[8,1,1,32,1]{4,3,2,1,0} divide(%broadcast_in_dim.216, %broadcast.63), metadata={op_name="jit(predict_step)/Model/block1/unit01/gn3/div" stack_frame_id=41}
  %sub.432 = f32[8,1,1,32,1]{4,3,2,1,0} broadcast(%div.651), dimensions={0,1,2,3,4}, metadata={op_name="jit(predict_step)/Model/block1/unit01/gn3/sub" stack_frame_id=177}
  %sub.433 = f32[8,32]{1,0} reshape(%sub.432), metadata={op_name="jit(predict_step)/Model/block1/unit01/gn3/sub" stack_frame_id=177}
  %sub.434 = f32[8,56,56,32,2]{4,3,2,1,0} broadcast(%sub.433), dimensions={0,3}, metadata={op_name="jit(predict_step)/Model/block1/unit01/gn3/sub" stack_frame_id=177}
  %sub.435 = f32[8,56,56,32,2]{4,3,2,1,0} subtract(%reshape.103, %sub.434), metadata={op_name="jit(predict_step)/Model/block1/unit01/gn3/sub" stack_frame_id=177}
  %square.108 = f32[8,56,56,32,2]{4,3,2,1,0} multiply(%sub.435, %sub.435), metadata={op_name="jit(predict_step)/Model/block1/unit01/gn3/square" stack_frame_id=178}
  %reduce_sum.1448 = f32[8,32]{1,0} reduce(%square.108, %constant.93), dimensions={1,2,4}, to_apply=%region_14.16, metadata={op_name="jit(predict_step)/Model/block1/unit01/gn3/reduce_sum" stack_frame_id=42}
  %broadcast_in_dim.217 = f32[8,1,1,32,1]{4,3,2,1,0} reshape(%reduce_sum.1448), metadata={op_name="jit(predict_step)/Model/block1/unit01/gn3/broadcast_in_dim" stack_frame_id=42}
  %div.652 = f32[8,1,1,32,1]{4,3,2,1,0} divide(%broadcast_in_dim.217, %broadcast.63), metadata={op_name="jit(predict_step)/Model/block1/unit01/gn3/div" stack_frame_id=42}
  %add.333 = f32[8,1,1,32,1]{4,3,2,1,0} add(%div.652, %broadcast.62), metadata={op_name="jit(predict_step)/Model/block1/unit01/gn3/add" stack_frame_id=42}
  %sqrt.108 = f32[8,1,1,32,1]{4,3,2,1,0} sqrt(%add.333), metadata={op_name="jit(predict_step)/Model/block1/unit01/gn3/sqrt" stack_frame_id=179}
  %div.653 = f32[8,1,1,32,1]{4,3,2,1,0} broadcast(%sqrt.108), dimensions={0,1,2,3,4}, metadata={op_name="jit(predict_step)/Model/block1/unit01/gn3/div" stack_frame_id=180}
  %div.654 = f32[8,32]{1,0} reshape(%div.653), metadata={op_name="jit(predict_step)/Model/block1/unit01/gn3/div" stack_frame_id=180}
  %div.655 = f32[8,56,56,32,2]{4,3,2,1,0} broadcast(%div.654), dimensions={0,3}, metadata={op_name="jit(predict_step)/Model/block1/unit01/gn3/div" stack_frame_id=180}
  %div.656 = f32[8,56,56,32,2]{4,3,2,1,0} divide(%sub.435, %div.655), metadata={op_name="jit(predict_step)/Model/block1/unit01/gn3/div" stack_frame_id=180}
  %reshape.104 = f32[8,56,56,64]{3,2,1,0} reshape(%div.656), metadata={op_name="jit(predict_step)/Model/block1/unit01/gn3/reshape" stack_frame_id=181}
  %variables__block1____unit01____gn3____scale__.1 = f32[1,1,1,64]{3,2,1,0} parameter(9), sharding={devices=[1,1,1,2]<=[2]}, frontend_attributes={xla.sdy.sharding="#sdy.sharding<@mesh, [{}, {}, {}, {\"fsdp\"}]>"}, metadata={op_name="variables[\'block1\'][\'unit01\'][\'gn3\'][\'scale\']"}
  %mul.204 = f32[1,1,1,64]{3,2,1,0} broadcast(%variables__block1____unit01____gn3____scale__.1), dimensions={0,1,2,3}, metadata={op_name="jit(predict_step)/Model/block1/unit01/gn3/mul" stack_frame_id=182}
  %mul.205 = f32[64]{0} reshape(%mul.204), metadata={op_name="jit(predict_step)/Model/block1/unit01/gn3/mul" stack_frame_id=182}
  %mul.206 = f32[8,56,56,64]{3,2,1,0} broadcast(%mul.205), dimensions={3}, metadata={op_name="jit(predict_step)/Model/block1/unit01/gn3/mul" stack_frame_id=182}
  %mul.207 = f32[8,56,56,64]{3,2,1,0} multiply(%reshape.104, %mul.206), metadata={op_name="jit(predict_step)/Model/block1/unit01/gn3/mul" stack_frame_id=182}
  %variables__block1____unit01____gn3____bias__.1 = f32[1,1,1,64]{3,2,1,0} parameter(8), sharding={devices=[1,1,1,2]<=[2]}, frontend_attributes={xla.sdy.sharding="#sdy.sharding<@mesh, [{}, {}, {}, {\"fsdp\"}]>"}, metadata={op_name="variables[\'block1\'][\'unit01\'][\'gn3\'][\'bias\']"}
  %add.334 = f32[1,1,1,64]{3,2,1,0} broadcast(%variables__block1____unit01____gn3____bias__.1), dimensions={0,1,2,3}, metadata={op_name="jit(predict_step)/Model/block1/unit01/gn3/add" stack_frame_id=183}
  %add.335 = f32[64]{0} reshape(%add.334), metadata={op_name="jit(predict_step)/Model/block1/unit01/gn3/add" stack_frame_id=183}
  %add.336 = f32[8,56,56,64]{3,2,1,0} broadcast(%add.335), dimensions={3}, metadata={op_name="jit(predict_step)/Model/block1/unit01/gn3/add" stack_frame_id=183}
  %add.337 = f32[8,56,56,64]{3,2,1,0} add(%mul.207, %add.336), metadata={op_name="jit(predict_step)/Model/block1/unit01/gn3/add" stack_frame_id=183}
  %jit_relu_.51 = f32[8,56,56,64]{3,2,1,0} call(%add.337), to_apply=%relu.6, metadata={op_name="jit(predict_step)/Model/block1/unit01/jit(relu)" stack_frame_id=184}
  %variables__block1____unit01____conv3____kernel__.1 = f32[1,1,64,256]{3,2,1,0} parameter(2), sharding={devices=[1,1,2,1]<=[2]}, frontend_attributes={xla.sdy.sharding="#sdy.sharding<@mesh, [{}, {}, {\"fsdp\"}, {}]>"}, metadata={op_name="variables[\'block1\'][\'unit01\'][\'conv3\'][\'kernel\']"}
  %reduce_sum.1449 = f32[256]{0} reduce(%variables__block1____unit01____conv3____kernel__.1, %constant.93), dimensions={0,1,2}, to_apply=%region_15.17, metadata={op_name="jit(predict_step)/Model/block1/unit01/conv3/conv3.param/reduce_sum" stack_frame_id=46}
  %broadcast_in_dim.218 = f32[1,1,1,256]{3,2,1,0} reshape(%reduce_sum.1449), metadata={op_name="jit(predict_step)/Model/block1/unit01/conv3/conv3.param/broadcast_in_dim" stack_frame_id=46}
  %constant.87 = f32[] constant(64)
  %broadcast.61 = f32[1,1,1,256]{3,2,1,0} broadcast(%constant.87), dimensions={}
  %div.657 = f32[1,1,1,256]{3,2,1,0} divide(%broadcast_in_dim.218, %broadcast.61), metadata={op_name="jit(predict_step)/Model/block1/unit01/conv3/conv3.param/div" stack_frame_id=46}
  %sub.436 = f32[1,1,1,256]{3,2,1,0} broadcast(%div.657), dimensions={0,1,2,3}, metadata={op_name="jit(predict_step)/Model/block1/unit01/conv3/conv3.param/sub" stack_frame_id=185}
  %sub.437 = f32[1,1,256]{2,1,0} reshape(%sub.436), metadata={op_name="jit(predict_step)/Model/block1/unit01/conv3/conv3.param/sub" stack_frame_id=185}
  %sub.438 = f32[1,1,64,256]{3,2,1,0} broadcast(%sub.437), dimensions={0,1,3}, metadata={op_name="jit(predict_step)/Model/block1/unit01/conv3/conv3.param/sub" stack_frame_id=185}
  %sub.439 = f32[1,1,64,256]{3,2,1,0} subtract(%variables__block1____unit01____conv3____kernel__.1, %sub.438), metadata={op_name="jit(predict_step)/Model/block1/unit01/conv3/conv3.param/sub" stack_frame_id=185}
  %square.109 = f32[1,1,64,256]{3,2,1,0} multiply(%sub.439, %sub.439), metadata={op_name="jit(predict_step)/Model/block1/unit01/conv3/conv3.param/square" stack_frame_id=186}
  %reduce_sum.1450 = f32[256]{0} reduce(%square.109, %constant.93), dimensions={0,1,2}, to_apply=%region_16.18, metadata={op_name="jit(predict_step)/Model/block1/unit01/conv3/conv3.param/reduce_sum" stack_frame_id=47}
…
  %add.596 = f32[8,1,1,32,1]{4,3,2,1,0} add(%div.1162, %broadcast.62), metadata={op_name="jit(predict_step)/Model/block4/unit02/gn2/add" stack_frame_id=123}
  %sqrt.193 = f32[8,1,1,32,1]{4,3,2,1,0} sqrt(%add.596), metadata={op_name="jit(predict_step)/Model/block4/unit02/gn2/sqrt" stack_frame_id=304}
  %div.1163 = f32[8,1,1,32,1]{4,3,2,1,0} broadcast(%sqrt.193), dimensions={0,1,2,3,4}, metadata={op_name="jit(predict_step)/Model/block4/unit02/gn2/div" stack_frame_id=305}
  %div.1164 = f32[8,32]{1,0} reshape(%div.1163), metadata={op_name="jit(predict_step)/Model/block4/unit02/gn2/div" stack_frame_id=305}
  %div.1165 = f32[8,7,7,32,16]{4,3,2,1,0} broadcast(%div.1164), dimensions={0,3}, metadata={op_name="jit(predict_step)/Model/block4/unit02/gn2/div" stack_frame_id=305}
  %div.1166 = f32[8,7,7,32,16]{4,3,2,1,0} divide(%sub.775, %div.1165), metadata={op_name="jit(predict_step)/Model/block4/unit02/gn2/div" stack_frame_id=305}
  %reshape.186 = f32[8,7,7,512]{3,2,1,0} reshape(%div.1166), metadata={op_name="jit(predict_step)/Model/block4/unit02/gn2/reshape" stack_frame_id=306}
  %variables__block4____unit02____gn2____scale__.1 = f32[1,1,1,512]{3,2,1,0} parameter(136), sharding={devices=[1,1,1,2]<=[2]}, frontend_attributes={xla.sdy.sharding="#sdy.sharding<@mesh, [{}, {}, {}, {\"fsdp\"}]>"}, metadata={op_name="variables[\'block4\'][\'unit02\'][\'gn2\'][\'scale\']"}
  %mul.368 = f32[1,1,1,512]{3,2,1,0} broadcast(%variables__block4____unit02____gn2____scale__.1), dimensions={0,1,2,3}, metadata={op_name="jit(predict_step)/Model/block4/unit02/gn2/mul" stack_frame_id=307}
  %mul.369 = f32[512]{0} reshape(%mul.368), metadata={op_name="jit(predict_step)/Model/block4/unit02/gn2/mul" stack_frame_id=307}
  %mul.370 = f32[8,7,7,512]{3,2,1,0} broadcast(%mul.369), dimensions={3}, metadata={op_name="jit(predict_step)/Model/block4/unit02/gn2/mul" stack_frame_id=307}
  %mul.371 = f32[8,7,7,512]{3,2,1,0} multiply(%reshape.186, %mul.370), metadata={op_name="jit(predict_step)/Model/block4/unit02/gn2/mul" stack_frame_id=307}
  %variables__block4____unit02____gn2____bias__.1 = f32[1,1,1,512]{3,2,1,0} parameter(135), sharding={devices=[1,1,1,2]<=[2]}, frontend_attributes={xla.sdy.sharding="#sdy.sharding<@mesh, [{}, {}, {}, {\"fsdp\"}]>"}, metadata={op_name="variables[\'block4\'][\'unit02\'][\'gn2\'][\'bias\']"}
  %add.597 = f32[1,1,1,512]{3,2,1,0} broadcast(%variables__block4____unit02____gn2____bias__.1), dimensions={0,1,2,3}, metadata={op_name="jit(predict_step)/Model/block4/unit02/gn2/add" stack_frame_id=308}
  %add.598 = f32[512]{0} reshape(%add.597), metadata={op_name="jit(predict_step)/Model/block4/unit02/gn2/add" stack_frame_id=308}
  %add.599 = f32[8,7,7,512]{3,2,1,0} broadcast(%add.598), dimensions={3}, metadata={op_name="jit(predict_step)/Model/block4/unit02/gn2/add" stack_frame_id=308}
  %add.600 = f32[8,7,7,512]{3,2,1,0} add(%mul.371, %add.599), metadata={op_name="jit(predict_step)/Model/block4/unit02/gn2/add" stack_frame_id=308}
  %jit_relu_.92 = f32[8,7,7,512]{3,2,1,0} call(%add.600), to_apply=%relu_8.187, metadata={op_name="jit(predict_step)/Model/block4/unit02/jit(relu)" stack_frame_id=309}
  %variables__block4____unit02____conv2____kernel__.1 = f32[3,3,512,512]{3,2,1,0} parameter(131), sharding={devices=[1,1,2,1]<=[2]}, frontend_attributes={xla.sdy.sharding="#sdy.sharding<@mesh, [{}, {}, {\"fsdp\"}, {}]>"}, metadata={op_name="variables[\'block4\'][\'unit02\'][\'conv2\'][\'kernel\']"}
  %reduce_sum.1619 = f32[512]{0} reduce(%variables__block4____unit02____conv2____kernel__.1, %constant.93), dimensions={0,1,2}, to_apply=%region_185.197, metadata={op_name="jit(predict_step)/Model/block4/unit02/conv2/conv2.param/reduce_sum" stack_frame_id=127}
  %broadcast_in_dim.388 = f32[1,1,1,512]{3,2,1,0} reshape(%reduce_sum.1619), metadata={op_name="jit(predict_step)/Model/block4/unit02/conv2/conv2.param/broadcast_in_dim" stack_frame_id=127}
  %div.1167 = f32[1,1,1,512]{3,2,1,0} divide(%broadcast_in_dim.388, %broadcast.36), metadata={op_name="jit(predict_step)/Model/block4/unit02/conv2/conv2.param/div" stack_frame_id=127}
  %sub.776 = f32[1,1,1,512]{3,2,1,0} broadcast(%div.1167), dimensions={0,1,2,3}, metadata={op_name="jit(predict_step)/Model/block4/unit02/conv2/conv2.param/sub" stack_frame_id=310}
  %sub.777 = f32[512]{0} reshape(%sub.776), metadata={op_name="jit(predict_step)/Model/block4/unit02/conv2/conv2.param/sub" stack_frame_id=310}
  %sub.778 = f32[3,3,512,512]{3,2,1,0} broadcast(%sub.777), dimensions={3}, metadata={op_name="jit(predict_step)/Model/block4/unit02/conv2/conv2.param/sub" stack_frame_id=310}
  %sub.779 = f32[3,3,512,512]{3,2,1,0} subtract(%variables__block4____unit02____conv2____kernel__.1, %sub.778), metadata={op_name="jit(predict_step)/Model/block4/unit02/conv2/conv2.param/sub" stack_frame_id=310}
  %square.194 = f32[3,3,512,512]{3,2,1,0} multiply(%sub.779, %sub.779), metadata={op_name="jit(predict_step)/Model/block4/unit02/conv2/conv2.param/square" stack_frame_id=311}
  %reduce_sum.1620 = f32[512]{0} reduce(%square.194, %constant.93), dimensions={0,1,2}, to_apply=%region_186.198, metadata={op_name="jit(predict_step)/Model/block4/unit02/conv2/conv2.param/reduce_sum" stack_frame_id=128}
  %broadcast_in_dim.389 = f32[1,1,1,512]{3,2,1,0} reshape(%reduce_sum.1620), metadata={op_name="jit(predict_step)/Model/block4/unit02/conv2/conv2.param/broadcast_in_dim" stack_frame_id=128}
  %div.1168 = f32[1,1,1,512]{3,2,1,0} divide(%broadcast_in_dim.389, %broadcast.36), metadata={op_name="jit(predict_step)/Model/block4/unit02/conv2/conv2.param/div" stack_frame_id=128}
  %add.601 = f32[1,1,1,512]{3,2,1,0} add(%div.1168, %broadcast.54), metadata={op_name="jit(predict_step)/Model/block4/unit02/conv2/conv2.param/add" stack_frame_id=128}
  %sqrt.194 = f32[1,1,1,512]{3,2,1,0} sqrt(%add.601), metadata={op_name="jit(predict_step)/Model/block4/unit02/conv2/conv2.param/sqrt" stack_frame_id=312}
  %div.1169 = f32[1,1,1,512]{3,2,1,0} broadcast(%sqrt.194), dimensions={0,1,2,3}, metadata={op_name="jit(predict_step)/Model/block4/unit02/conv2/conv2.param/div" stack_frame_id=313}
  %div.1170 = f32[512]{0} reshape(%div.1169), metadata={op_name="jit(predict_step)/Model/block4/unit02/conv2/conv2.param/div" stack_frame_id=313}
  %div.1171 = f32[3,3,512,512]{3,2,1,0} broadcast(%div.1170), dimensions={3}, metadata={op_name="jit(predict_step)/Model/block4/unit02/conv2/conv2.param/div" stack_frame_id=313}
  %div.1172 = f32[3,3,512,512]{3,2,1,0} divide(%sub.779, %div.1171), metadata={op_name="jit(predict_step)/Model/block4/unit02/conv2/conv2.param/div" stack_frame_id=313}
  %conv_general_dilated.101 = f32[8,7,7,512]{3,2,1,0} convolution(%jit_relu_.92, %div.1172), window={size=3x3 pad=1_1x1_1}, dim_labels=b01f_01io->b01f, metadata={op_name="jit(predict_step)/Model/block4/unit02/conv2/conv_general_dilated" stack_frame_id=314}
  %reshape.187 = f32[8,7,7,32,16]{4,3,2,1,0} reshape(%conv_general_dilated.101), metadata={op_name="jit(predict_step)/Model/block4/unit02/gn3/reshape" stack_frame_id=315}
  %reduce_sum.1621 = f32[8,32]{1,0} reduce(%reshape.187, %constant.93), dimensions={1,2,4}, to_apply=%region_187.199, metadata={op_name="jit(predict_step)/Model/block4/unit02/gn3/reduce_sum" stack_frame_id=131}
  %broadcast_in_dim.390 = f32[8,1,1,32,1]{4,3,2,1,0} reshape(%reduce_sum.1621), metadata={op_name="jit(predict_step)/Model/block4/unit02/gn3/broadcast_in_dim" stack_frame_id=131}
  %div.1173 = f32[8,1,1,32,1]{4,3,2,1,0} divide(%broadcast_in_dim.390, %broadcast.35), metadata={op_name="jit(predict_step)/Model/block4/unit02/gn3/div" stack_frame_id=131}
  %sub.780 = f32[8,1,1,32,1]{4,3,2,1,0} broadcast(%div.1173), dimensions={0,1,2,3,4}, metadata={op_name="jit(predict_step)/Model/block4/unit02/gn3/sub" stack_frame_id=316}
  %sub.781 = f32[8,32]{1,0} reshape(%sub.780), metadata={op_name="jit(predict_step)/Model/block4/unit02/gn3/sub" stack_frame_id=316}
  %sub.782 = f32[8,7,7,32,16]{4,3,2,1,0} broadcast(%sub.781), dimensions={0,3}, metadata={op_name="jit(predict_step)/Model/block4/unit02/gn3/sub" stack_frame_id=316}
  %sub.783 = f32[8,7,7,32,16]{4,3,2,1,0} subtract(%reshape.187, %sub.782), metadata={op_name="jit(predict_step)/Model/block4/unit02/gn3/sub" stack_frame_id=316}
  %square.195 = f32[8,7,7,32,16]{4,3,2,1,0} multiply(%sub.783, %sub.783), metadata={op_name="jit(predict_step)/Model/block4/unit02/gn3/square" stack_frame_id=317}
  %reduce_sum.1622 = f32[8,32]{1,0} reduce(%square.195, %constant.93), dimensions={1,2,4}, to_apply=%region_188.200, metadata={op_name="jit(predict_step)/Model/block4/unit02/gn3/reduce_sum" stack_frame_id=132}
  %broadcast_in_dim.391 = f32[8,1,1,32,1]{4,3,2,1,0} reshape(%reduce_sum.1622), metadata={op_name="jit(predict_step)/Model/block4/unit02/gn3/broadcast_in_dim" stack_frame_id=132}
  %div.1174 = f32[8,1,1,32,1]{4,3,2,1,0} divide(%broadcast_in_dim.391, %broadcast.35), metadata={op_name="jit(predict_step)/Model/block4/unit02/gn3/div" stack_frame_id=132}
  %add.602 = f32[8,1,1,32,1]{4,3,2,1,0} add(%div.1174, %broadcast.62), metadata={op_name="jit(predict_step)/Model/block4/unit02/gn3/add" stack_frame_id=132}
  %sqrt.195 = f32[8,1,1,32,1]{4,3,2,1,0} sqrt(%add.602), metadata={op_name="jit(predict_step)/Model/block4/unit02/gn3/sqrt" stack_frame_id=318}
  %div.1175 = f32[8,1,1,32,1]{4,3,2,1,0} broadcast(%sqrt.195), dimensions={0,1,2,3,4}, metadata={op_name="jit(predict_step)/Model/block4/unit02/gn3/div" stack_frame_id=319}
  %div.1176 = f32[8,32]{1,0} reshape(%div.1175), metadata={op_name="jit(predict_step)/Model/block4/unit02/gn3/div" stack_frame_id=319}
  %div.1177 = f32[8,7,7,32,16]{4,3,2,1,0} broadcast(%div.1176), dimensions={0,3}, metadata={op_name="jit(predict_step)/Model/block4/unit02/gn3/div" stack_frame_id=319}
  %div.1178 = f32[8,7,7,32,16]{4,3,2,1,0} divide(%sub.783, %div.1177), metadata={op_name="jit(predict_step)/Model/block4/unit02/gn3/div" stack_frame_id=319}
  %reshape.188 = f32[8,7,7,512]{3,2,1,0} reshape(%div.1178), metadata={op_name="jit(predict_step)/Model/block4/unit02/gn3/reshape" stack_frame_id=320}
  %variables__block4____unit02____gn3____scale__.1 = f32[1,1,1,512]{3,2,1,0} parameter(138), sharding={devices=[1,1,1,2]<=[2]}, frontend_attributes={xla.sdy.sharding="#sdy.sharding<@mesh, [{}, {}, {}, {\"fsdp\"}]>"}, metadata={op_name="variables[\'block4\'][\'unit02\'][\'gn3\'][\'scale\']"}
  %mul.372 = f32[1,1,1,512]{3,2,1,0} broadcast(%variables__block4____unit02____gn3____scale__.1), dimensions={0,1,2,3}, metadata={op_name="jit(predict_step)/Model/block4/unit02/gn3/mul" stack_frame_id=321}
  %mul.373 = f32[512]{0} reshape(%mul.372), metadata={op_name="jit(predict_step)/Model/block4/unit02/gn3/mul" stack_frame_id=321}
  %mul.374 = f32[8,7,7,512]{3,2,1,0} broadcast(%mul.373), dimensions={3}, metadata={op_name="jit(predict_step)/Model/block4/unit02/gn3/mul" stack_frame_id=321}
  %mul.375 = f32[8,7,7,512]{3,2,1,0} multiply(%reshape.188, %mul.374), metadata={op_name="jit(predict_step)/Model/block4/unit02/gn3/mul" stack_frame_id=321}
  %variables__block4____unit02____gn3____bias__.1 = f32[1,1,1,512]{3,2,1,0} parameter(137), sharding={devices=[1,1,1,2]<=[2]}, frontend_attributes={xla.sdy.sharding="#sdy.sharding<@mesh, [{}, {}, {}, {\"fsdp\"}]>"}, metadata={op_name="variables[\'block4\'][\'unit02\'][\'gn3\'][\'bias\']"}
  %add.603 = f32[1,1,1,512]{3,2,1,0} broadcast(%variables__block4____unit02____gn3____bias__.1), dimensions={0,1,2,3}, metadata={op_name="jit(predict_step)/Model/block4/unit02/gn3/add" stack_frame_id=322}
  %add.604 = f32[512]{0} reshape(%add.603), metadata={op_name="jit(predict_step)/Model/block4/unit02/gn3/add" stack_frame_id=322}
  %add.605 = f32[8,7,7,512]{3,2,1,0} broadcast(%add.604), dimensions={3}, metadata={op_name="jit(predict_step)/Model/block4/unit02/gn3/add" stack_frame_id=322}
  %add.606 = f32[8,7,7,512]{3,2,1,0} add(%mul.375, %add.605), metadata={op_name="jit(predict_step)/Model/block4/unit02/gn3/add" stack_frame_id=322}
  %jit_relu_.93 = f32[8,7,7,512]{3,2,1,0} call(%add.606), to_apply=%relu_8.187, metadata={op_name="jit(predict_step)/Model/block4/unit02/jit(relu)" stack_frame_id=323}
  %variables__block4____unit02____conv3____kernel__.1 = f32[1,1,512,2048]{3,2,1,0} parameter(132), sharding={devices=[1,1,2,1]<=[2]}, frontend_attributes={xla.sdy.sharding="#sdy.sharding<@mesh, [{}, {}, {\"fsdp\"}, {}]>"}, metadata={op_name="variables[\'block4\'][\'unit02\'][\'conv3\'][\'kernel\']"}
  %reduce_sum.1623 = f32[2048]{0} reduce(%variables__block4____unit02____conv3____kernel__.1, %constant.93), dimensions={0,1,2}, to_apply=%region_189.201, metadata={op_name="jit(predict_step)/Model/block4/unit02/conv3/conv3.param/reduce_sum" stack_frame_id=136}
  %broadcast_in_dim.392 = f32[1,1,1,2048]{3,2,1,0} reshape(%reduce_sum.1623), metadata={op_name="jit(predict_step)/Model/block4/unit02/conv3/conv3.param/broadcast_in_dim" stack_frame_id=136}
  %div.1179 = f32[1,1,1,2048]{3,2,1,0} divide(%broadcast_in_dim.392, %broadcast.34), metadata={op_name="jit(predict_step)/Model/block4/unit02/conv3/conv3.param/div" stack_frame_id=136}
  %sub.784 = f32[1,1,1,2048]{3,2,1,0} broadcast(%div.1179), dimensions={0,1,2,3}, metadata={op_name="jit(predict_step)/Model/block4/unit02/conv3/conv3.param/sub" stack_frame_id=324}
  %sub.785 = f32[1,1,2048]{2,1,0} reshape(%sub.784), metadata={op_name="jit(predict_step)/Model/block4/unit02/conv3/conv3.param/sub" stack_frame_id=324}
  %sub.786 = f32[1,1,512,2048]{3,2,1,0} broadcast(%sub.785), dimensions={0,1,3}, metadata={op_name="jit(predict_step)/Model/block4/unit02/conv3/conv3.param/sub" stack_frame_id=324}
  %sub.787 = f32[1,1,512,2048]{3,2,1,0} subtract(%variables__block4____unit02____conv3____kernel__.1, %sub.786), metadata={op_name="jit(predict_step)/Model/block4/unit02/conv3/conv3.param/sub" stack_frame_id=324}
  %square.196 = f32[1,1,512,2048]{3,2,1,0} multiply(%sub.787, %sub.787), metadata={op_name="jit(predict_step)/Model/block4/unit02/conv3/conv3.param/square" stack_frame_id=325}
  %reduce_sum.1624 = f32[2048]{0} reduce(%square.196, %constant.93), dimensions={0,1,2}, to_apply=%region_190.202, metadata={op_name="jit(predict_step)/Model/block4/unit02/conv3/conv3.param/reduce_sum" stack_frame_id=137}
  %broadcast_in_dim.393 = f32[1,1,1,2048]{3,2,1,0} reshape(%reduce_sum.1624), metadata={op_name="jit(predict_step)/Model/block4/unit02/conv3/conv3.param/broadcast_in_dim" stack_frame_id=137}
  %div.1180 = f32[1,1,1,2048]{3,2,1,0} divide(%broadcast_in_dim.393, %broadcast.34), metadata={op_name="jit(predict_step)/Model/block4/unit02/conv3/conv3.param/div" stack_frame_id=137}
  %add.607 = f32[1,1,1,2048]{3,2,1,0} add(%div.1180, %broadcast.38), metadata={op_name="jit(predict_step)/Model/block4/unit02/conv3/conv3.param/add" stack_frame_id=137}
  %sqrt.196 = f32[1,1,1,2048]{3,2,1,0} sqrt(%add.607), metadata={op_name="jit(predict_step)/Model/block4/unit02/conv3/conv3.param/sqrt" stack_frame_id=326}
  %div.1181 = f32[1,1,1,2048]{3,2,1,0} broadcast(%sqrt.196), dimensions={0,1,2,3}, metadata={op_name="jit(predict_step)/Model/block4/unit02/conv3/conv3.param/div" stack_frame_id=327}
  %div.1182 = f32[1,1,2048]{2,1,0} reshape(%div.1181), metadata={op_name="jit(predict_step)/Model/block4/unit02/conv3/conv3.param/div" stack_frame_id=327}
  %div.1183 = f32[1,1,512,2048]{3,2,1,0} broadcast(%div.1182), dimensions={0,1,3}, metadata={op_name="jit(predict_step)/Model/block4/unit02/conv3/conv3.param/div" stack_frame_id=327}
  %div.1184 = f32[1,1,512,2048]{3,2,1,0} divide(%sub.787, %div.1183), metadata={op_name="jit(predict_step)/Model/block4/unit02/conv3/conv3.param/div" stack_frame_id=327}
  %conv_general_dilated.102 = f32[8,7,7,2048]{3,2,1,0} convolution(%jit_relu_.93, %div.1184), window={size=1x1}, dim_labels=b01f_01io->b01f, metadata={op_name="jit(predict_step)/Model/block4/unit02/conv3/conv_general_dilated" stack_frame_id=328}
  %add.608 = f32[8,7,7,2048]{3,2,1,0} add(%conv_general_dilated.102, %add.589), metadata={op_name="jit(predict_step)/Model/block4/unit02/add" stack_frame_id=329}
  %reshape.189 = f32[8,7,7,32,64]{4,3,2,1,0} reshape(%add.608), metadata={op_name="jit(predict_step)/Model/block4/unit03/gn1/reshape" stack_frame_id=287}
  %reduce_sum.1625 = f32[8,32]{1,0} reduce(%reshape.189, %constant.93), dimensions={1,2,4}, to_apply=%region_191.203, metadata={op_name="jit(predict_step)/Model/block4/unit03/gn1/reduce_sum" stack_frame_id=113}
  %broadcast_in_dim.394 = f32[8,1,1,32,1]{4,3,2,1,0} reshape(%reduce_sum.1625), metadata={op_name="jit(predict_step)/Model/block4/unit03/gn1/broadcast_in_dim" stack_frame_id=113}
  %div.1185 = f32[8,1,1,32,1]{4,3,2,1,0} divide(%broadcast_in_dim.394, %broadcast.49), metadata={op_name="jit(predict_step)/Model/block4/unit03/gn1/div" stack_frame_id=113}
  %sub.788 = f32[8,1,1,32,1]{4,3,2,1,0} broadcast(%div.1185), dimensions={0,1,2,3,4}, metadata={op_name="jit(predict_step)/Model/block4/unit03/gn1/sub" stack_frame_id=288}
  %sub.789 = f32[8,32]{1,0} reshape(%sub.788), metadata={op_name="jit(predict_step)/Model/block4/unit03/gn1/sub" stack_frame_id=288}
  %sub.790 = f32[8,7,7,32,64]{4,3,2,1,0} broadcast(%sub.789), dimensions={0,3}, metadata={op_name="jit(predict_step)/Model/block4/unit03/gn1/sub" stack_frame_id=288}
  %sub.791 = f32[8,7,7,32,64]{4,3,2,1,0} subtract(%reshape.189, %sub.790), metadata={op_name="jit(predict_step)/Model/block4/unit03/gn1/sub" stack_frame_id=288}
  %square.197 = f32[8,7,7,32,64]{4,3,2,1,0} multiply(%sub.791, %sub.791), metadata={op_name="jit(predict_step)/Model/block4/unit03/gn1/square" stack_frame_id=289}
  %reduce_sum.1626 = f32[8,32]{1,0} reduce(%square.197, %constant.93), dimensions={1,2,4}, to_apply=%region_192.204, metadata={op_name="jit(predict_step)/Model/block4/unit03/gn1/reduce_sum" stack_frame_id=114}
  %broadcast_in_dim.395 = f32[8,1,1,32,1]{4,3,2,1,0} reshape(%reduce_sum.1626), metadata={op_name="jit(predict_step)/Model/block4/unit03/gn1/broadcast_in_dim" stack_frame_id=114}
  %div.1186 = f32[8,1,1,32,1]{4,3,2,1,0} divide(%broadcast_in_dim.395, %broadcast.49), metadata={op_name="jit(predict_step)/Model/block4/unit03/gn1/div" stack_frame_id=114}
  %add.609 = f32[8,1,1,32,1]{4,3,2,1,0} add(%div.1186, %broadcast.62), metadata={op_name="jit(predict_step)/Model/block4/unit03/gn1/add" stack_frame_id=114}
  %sqrt.197 = f32[8,1,1,32,1]{4,3,2,1,0} sqrt(%add.609), metadata={op_name="jit(predict_step)/Model/block4/unit03/gn1/sqrt" stack_frame_id=290}
  %div.1187 = f32[8,1,1,32,1]{4,3,2,1,0} broadcast(%sqrt.197), dimensions={0,1,2,3,4}, metadata={op_name="jit(predict_step)/Model/block4/unit03/gn1/div" stack_frame_id=291}
  %div.1188 = f32[8,32]{1,0} reshape(%div.1187), metadata={op_name="jit(predict_step)/Model/block4/unit03/gn1/div" stack_frame_id=291}
  %div.1189 = f32[8,7,7,32,64]{4,3,2,1,0} broadcast(%div.1188), dimensions={0,3}, metadata={op_name="jit(predict_step)/Model/block4/unit03/gn1/div" stack_frame_id=291}
  %div.1190 = f32[8,7,7,32,64]{4,3,2,1,0} divide(%sub.791, %div.1189), metadata={op_name="jit(predict_step)/Model/block4/unit03/gn1/div" stack_frame_id=291}
  %reshape.190 = f32[8,7,7,2048]{3,2,1,0} reshape(%div.1190), metadata={op_name="jit(predict_step)/Model/block4/unit03/gn1/reshape" stack_frame_id=292}
  %variables__block4____unit03____gn1____scale__.1 = f32[1,1,1,2048]{3,2,1,0} parameter(143), sharding={devices=[1,1,1,2]<=[2]}, frontend_attributes={xla.sdy.sharding="#sdy.sharding<@mesh, [{}, {}, {}, {\"fsdp\"}]>"}, metadata={op_name="variables[\'block4\'][\'unit03\'][\'gn1\'][\'scale\']"}
  %mul.376 = f32[1,1,1,2048]{3,2,1,0} broadcast(%variables__block4____unit03____gn1____scale__.1), dimensions={0,1,2,3}, metadata={op_name="jit(predict_step)/Model/block4/unit03/gn1/mul" stack_frame_id=293}
  %mul.377 = f32[2048]{0} reshape(%mul.376), metadata={op_name="jit(predict_step)/Model/block4/unit03/gn1/mul" stack_frame_id=293}
  %mul.378 = f32[8,7,7,2048]{3,2,1,0} broadcast(%mul.377), dimensions={3}, metadata={op_name="jit(predict_step)/Model/block4/unit03/gn1/mul" stack_frame_id=293}
  %mul.379 = f32[8,7,7,2048]{3,2,1,0} multiply(%reshape.190, %mul.378), metadata={op_name="jit(predict_step)/Model/block4/unit03/gn1/mul" stack_frame_id=293}
  %variables__block4____unit03____gn1____bias__.1 = f32[1,1,1,2048]{3,2,1,0} parameter(142), sharding={devices=[1,1,1,2]<=[2]}, frontend_attributes={xla.sdy.sharding="#sdy.sharding<@mesh, [{}, {}, {}, {\"fsdp\"}]>"}, metadata={op_name="variables[\'block4\'][\'unit03\'][\'gn1\'][\'bias\']"}
  %add.610 = f32[1,1,1,2048]{3,2,1,0} broadcast(%variables__block4____unit03____gn1____bias__.1), dimensions={0,1,2,3}, metadata={op_name="jit(predict_step)/Model/block4/unit03/gn1/add" stack_frame_id=294}
  %add.611 = f32[2048]{0} reshape(%add.610), metadata={op_name="jit(predict_step)/Model/block4/unit03/gn1/add" stack_frame_id=294}
  %add.612 = f32[8,7,7,2048]{3,2,1,0} broadcast(%add.611), dimensions={3}, metadata={op_name="jit(predict_step)/Model/block4/unit03/gn1/add" stack_frame_id=294}
  %add.613 = f32[8,7,7,2048]{3,2,1,0} add(%mul.379, %add.612), metadata={op_name="jit(predict_step)/Model/block4/unit03/gn1/add" stack_frame_id=294}
  %jit_relu_.94 = f32[8,7,7,2048]{3,2,1,0} call(%add.613), to_apply=%relu_9.192, metadata={op_name="jit(predict_step)/Model/block4/unit03/jit(relu)" stack_frame_id=295}
  %variables__block4____unit03____conv1____kernel__.1 = f32[1,1,2048,512]{3,2,1,0} parameter(139), sharding={devices=[1,1,2,1]<=[2]}, frontend_attributes={xla.sdy.sharding="#sdy.sharding<@mesh, [{}, {}, {\"fsdp\"}, {}]>"}, metadata={op_name="variables[\'block4\'][\'unit03\'][\'conv1\'][\'kernel\']"}
  %reduce_sum.1627 = f32[512]{0} reduce(%variables__block4____unit03____conv1____kernel__.1, %constant.93), dimensions={0,1,2}, to_apply=%region_193.205, metadata={op_name="jit(predict_step)/Model/block4/unit03/conv1/conv1.param/reduce_sum" stack_frame_id=118}
  %broadcast_in_dim.396 = f32[1,1,1,512]{3,2,1,0} reshape(%reduce_sum.1627), metadata={op_name="jit(predict_step)/Model/block4/unit03/conv1/conv1.param/broadcast_in_dim" stack_frame_id=118}
  %div.1191 = f32[1,1,1,512]{3,2,1,0} divide(%broadcast_in_dim.396, %broadcast.33), metadata={op_name="jit(predict_step)/Model/block4/unit03/conv1/conv1.param/div" stack_frame_id=118}
  %sub.792 = f32[1,1,1,512]{3,2,1,0} broadcast(%div.1191), dimensions={0,1,2,3}, metadata={op_name="jit(predict_step)/Model/block4/unit03/conv1/conv1.param/sub" stack_frame_id=296}
  %sub.793 = f32[1,1,512]{2,1,0} reshape(%sub.792), metadata={op_name="jit(predict_step)/Model/block4/unit03/conv1/conv1.param/sub" stack_frame_id=296}
  %sub.794 = f32[1,1,2048,512]{3,2,1,0} broadcast(%sub.793), dimensions={0,1,3}, metadata={op_name="jit(predict_step)/Model/block4/unit03/conv1/conv1.param/sub" stack_frame_id=296}
  %sub.795 = f32[1,1,2048,512]{3,2,1,0} subtract(%variables__block4____unit03____conv1____kernel__.1, %sub.794), metadata={op_name="jit(predict_step)/Model/block4/unit03/conv1/conv1.param/sub" stack_frame_id=296}
  %square.198 = f32[1,1,2048,512]{3,2,1,0} multiply(%sub.795, %sub.795), metadata={op_name="jit(predict_step)/Model/block4/unit03/conv1/conv1.param/square" stack_frame_id=297}
  %reduce_sum.1628 = f32[512]{0} reduce(%square.198, %constant.93), dimensions={0,1,2}, to_apply=%region_194.206, metadata={op_name="jit(predict_step)/Model/block4/unit03/conv1/conv1.param/reduce_sum" stack_frame_id=119}
  %broadcast_in_dim.397 = f32[1,1,1,512]{3,2,1,0} reshape(%reduce_sum.1628), metadata={op_name="jit(predict_step)/Model/block4/unit03/conv1/conv1.param/broadcast_in_dim" stack_frame_id=119}
  %div.1192 = f32[1,1,1,512]{3,2,1,0} divide(%broadcast_in_dim.397, %broadcast.33), metadata={op_name="jit(predict_step)/Model/block4/unit03/conv1/conv1.param/div" stack_frame_id=119}
  %add.614 = f32[1,1,1,512]{3,2,1,0} add(%div.1192, %broadcast.54), metadata={op_name="jit(predict_step)/Model/block4/unit03/conv1/conv1.param/add" stack_frame_id=119}
  %sqrt.198 = f32[1,1,1,512]{3,2,1,0} sqrt(%add.614), metadata={op_name="jit(predict_step)/Model/block4/unit03/conv1/conv1.param/sqrt" stack_frame_id=298}
  %div.1193 = f32[1,1,1,512]{3,2,1,0} broadcast(%sqrt.198), dimensions={0,1,2,3}, metadata={op_name="jit(predict_step)/Model/block4/unit03/conv1/conv1.param/div" stack_frame_id=299}
  %div.1194 = f32[1,1,512]{2,1,0} reshape(%div.1193), metadata={op_name="jit(predict_step)/Model/block4/unit03/conv1/conv1.param/div" stack_frame_id=299}
  %div.1195 = f32[1,1,2048,512]{3,2,1,0} broadcast(%div.1194), dimensions={0,1,3}, metadata={op_name="jit(predict_step)/Model/block4/unit03/conv1/conv1.param/div" stack_frame_id=299}
  %div.1196 = f32[1,1,2048,512]{3,2,1,0} divide(%sub.795, %div.1195), metadata={op_name="jit(predict_step)/Model/block4/unit03/conv1/conv1.param/div" stack_frame_id=299}
  %conv_general_dilated.103 = f32[8,7,7,512]{3,2,1,0} convolution(%jit_relu_.94, %div.1196), window={size=1x1}, dim_labels=b01f_01io->b01f, metadata={op_name="jit(predict_step)/Model/block4/unit03/conv1/conv_general_dilated" stack_frame_id=300}
  %reshape.191 = f32[8,7,7,32,16]{4,3,2,1,0} reshape(%conv_general_dilated.103), metadata={op_name="jit(predict_step)/Model/block4/unit03/gn2/reshape" stack_frame_id=301}
  %reduce_sum.1629 = f32[8,32]{1,0} reduce(%reshape.191, %constant.93), dimensions={1,2,4}, to_apply=%region_195.207, metadata={op_name="jit(predict_step)/Model/block4/unit03/gn2/reduce_sum" stack_frame_id=122}
  %broadcast_in_dim.398 = f32[8,1,1,32,1]{4,3,2,1,0} reshape(%reduce_sum.1629), metadata={op_name="jit(predict_step)/Model/block4/unit03/gn2/broadcast_in_dim" stack_frame_id=122}
  %div.1197 = f32[8,1,1,32,1]{4,3,2,1,0} divide(%broadcast_in_dim.398, %broadcast.35), metadata={op_name="jit(predict_step)/Model/block4/unit03/gn2/div" stack_frame_id=122}
  %sub.796 = f32[8,1,1,32,1]{4,3,2,1,0} broadcast(%div.1197), dimensions={0,1,2,3,4}, metadata={op_name="jit(predict_step)/Model/block4/unit03/gn2/sub" stack_frame_id=302}
  %sub.797 = f32[8,32]{1,0} reshape(%sub.796), metadata={op_name="jit(predict_step)/Model/block4/unit03/gn2/sub" stack_frame_id=302}
  %sub.798 = f32[8,7,7,32,16]{4,3,2,1,0} broadcast(%sub.797), dimensions={0,3}, metadata={op_name="jit(predict_step)/Model/block4/unit03/gn2/sub" stack_frame_id=302}
  %sub.799 = f32[8,7,7,32,16]{4,3,2,1,0} subtract(%reshape.191, %sub.798), metadata={op_name="jit(predict_step)/Model/block4/unit03/gn2/sub" stack_frame_id=302}
  %square.199 = f32[8,7,7,32,16]{4,3,2,1,0} multiply(%sub.799, %sub.799), metadata={op_name="jit(predict_step)/Model/block4/unit03/gn2/square" stack_frame_id=303}
  %reduce_sum.1630 = f32[8,32]{1,0} reduce(%square.199, %constant.93), dimensions={1,2,4}, to_apply=%region_196.208, metadata={op_name="jit(predict_step)/Model/block4/unit03/gn2/reduce_sum" stack_frame_id=123}
  %broadcast_in_dim.399 = f32[8,1,1,32,1]{4,3,2,1,0} reshape(%reduce_sum.1630), metadata={op_name="jit(predict_step)/Model/block4/unit03/gn2/broadcast_in_dim" stack_frame_id=123}
  %div.1198 = f32[8,1,1,32,1]{4,3,2,1,0} divide(%broadcast_in_dim.399, %broadcast.35), metadata={op_name="jit(predict_step)/Model/block4/unit03/gn2/div" stack_frame_id=123}
  %add.615 = f32[8,1,1,32,1]{4,3,2,1,0} add(%div.1198, %broadcast.62), metadata={op_name="jit(predict_step)/Model/block4/unit03/gn2/add" stack_frame_id=123}
  %sqrt.199 = f32[8,1,1,32,1]{4,3,2,1,0} sqrt(%add.615), metadata={op_name="jit(predict_step)/Model/block4/unit03/gn2/sqrt" stack_frame_id=304}
  %div.1199 = f32[8,1,1,32,1]{4,3,2,1,0} broadcast(%sqrt.199), dimensions={0,1,2,3,4}, metadata={op_name="jit(predict_step)/Model/block4/unit03/gn2/div" stack_frame_id=305}
  %div.1200 = f32[8,32]{1,0} reshape(%div.1199), metadata={op_name="jit(predict_step)/Model/block4/unit03/gn2/div" stack_frame_id=305}
  %div.1201 = f32[8,7,7,32,16]{4,3,2,1,0} broadcast(%div.1200), dimensions={0,3}, metadata={op_name="jit(predict_step)/Model/block4/unit03/gn2/div" stack_frame_id=305}
  %div.1202 = f32[8,7,7,32,16]{4,3,2,1,0} divide(%sub.799, %div.1201), metadata={op_name="jit(predict_step)/Model/block4/unit03/gn2/div" stack_frame_id=305}
  %reshape.192 = f32[8,7,7,512]{3,2,1,0} reshape(%div.1202), metadata={op_name="jit(predict_step)/Model/block4/unit03/gn2/reshape" stack_frame_id=306}
  %variables__block4____unit03____gn2____scale__.1 = f32[1,1,1,512]{3,2,1,0} parameter(145), sharding={devices=[1,1,1,2]<=[2]}, frontend_attributes={xla.sdy.sharding="#sdy.sharding<@mesh, [{}, {}, {}, {\"fsdp\"}]>"}, metadata={op_name="variables[\'block4\'][\'unit03\'][\'gn2\'][\'scale\']"}
  %mul.380 = f32[1,1,1,512]{3,2,1,0} broadcast(%variables__block4____unit03____gn2____scale__.1), dimensions={0,1,2,3}, metadata={op_name="jit(predict_step)/Model/block4/unit03/gn2/mul" stack_frame_id=307}
  %mul.381 = f32[512]{0} reshape(%mul.380), metadata={op_name="jit(predict_step)/Model/block4/unit03/gn2/mul" stack_frame_id=307}
  %mul.382 = f32[8,7,7,512]{3,2,1,0} broadcast(%mul.381), dimensions={3}, metadata={op_name="jit(predict_step)/Model/block4/unit03/gn2/mul" stack_frame_id=307}
  %mul.383 = f32[8,7,7,512]{3,2,1,0} multiply(%reshape.192, %mul.382), metadata={op_name="jit(predict_step)/Model/block4/unit03/gn2/mul" stack_frame_id=307}
  %variables__block4____unit03____gn2____bias__.1 = f32[1,1,1,512]{3,2,1,0} parameter(144), sharding={devices=[1,1,1,2]<=[2]}, frontend_attributes={xla.sdy.sharding="#sdy.sharding<@mesh, [{}, {}, {}, {\"fsdp\"}]>"}, metadata={op_name="variables[\'block4\'][\'unit03\'][\'gn2\'][\'bias\']"}
  %add.616 = f32[1,1,1,512]{3,2,1,0} broadcast(%variables__block4____unit03____gn2____bias__.1), dimensions={0,1,2,3}, metadata={op_name="jit(predict_step)/Model/block4/unit03/gn2/add" stack_frame_id=308}
  %add.617 = f32[512]{0} reshape(%add.616), metadata={op_name="jit(predict_step)/Model/block4/unit03/gn2/add" stack_frame_id=308}
  %add.618 = f32[8,7,7,512]{3,2,1,0} broadcast(%add.617), dimensions={3}, metadata={op_name="jit(predict_step)/Model/block4/unit03/gn2/add" stack_frame_id=308}
  %add.619 = f32[8,7,7,512]{3,2,1,0} add(%mul.383, %add.618), metadata={op_name="jit(predict_step)/Model/block4/unit03/gn2/add" stack_frame_id=308}
  %jit_relu_.95 = f32[8,7,7,512]{3,2,1,0} call(%add.619), to_apply=%relu_8.187, metadata={op_name="jit(predict_step)/Model/block4/unit03/jit(relu)" stack_frame_id=309}
  %variables__block4____unit03____conv2____kernel__.1 = f32[3,3,512,512]{3,2,1,0} parameter(140), sharding={devices=[1,1,2,1]<=[2]}, frontend_attributes={xla.sdy.sharding="#sdy.sharding<@mesh, [{}, {}, {\"fsdp\"}, {}]>"}, metadata={op_name="variables[\'block4\'][\'unit03\'][\'conv2\'][\'kernel\']"}
  %reduce_sum.1631 = f32[512]{0} reduce(%variables__block4____unit03____conv2____kernel__.1, %constant.93), dimensions={0,1,2}, to_apply=%region_197.209, metadata={op_name="jit(predict_step)/Model/block4/unit03/conv2/conv2.param/reduce_sum" stack_frame_id=127}
  %broadcast_in_dim.400 = f32[1,1,1,512]{3,2,1,0} reshape(%reduce_sum.1631), metadata={op_name="jit(predict_step)/Model/block4/unit03/conv2/conv2.param/broadcast_in_dim" stack_frame_id=127}
  %div.1203 = f32[1,1,1,512]{3,2,1,0} divide(%broadcast_in_dim.400, %broadcast.36), metadata={op_name="jit(predict_step)/Model/block4/unit03/conv2/conv2.param/div" stack_frame_id=127}
  %sub.800 = f32[1,1,1,512]{3,2,1,0} broadcast(%div.1203), dimensions={0,1,2,3}, metadata={op_name="jit(predict_step)/Model/block4/unit03/conv2/conv2.param/sub" stack_frame_id=310}
  %sub.801 = f32[512]{0} reshape(%sub.800), metadata={op_name="jit(predict_step)/Model/block4/unit03/conv2/conv2.param/sub" stack_frame_id=310}
  %sub.802 = f32[3,3,512,512]{3,2,1,0} broadcast(%sub.801), dimensions={3}, metadata={op_name="jit(predict_step)/Model/block4/unit03/conv2/conv2.param/sub" stack_frame_id=310}
  %sub.803 = f32[3,3,512,512]{3,2,1,0} subtract(%variables__block4____unit03____conv2____kernel__.1, %sub.802), metadata={op_name="jit(predict_step)/Model/block4/unit03/conv2/conv2.param/sub" stack_frame_id=310}
  %square.200 = f32[3,3,512,512]{3,2,1,0} multiply(%sub.803, %sub.803), metadata={op_name="jit(predict_step)/Model/block4/unit03/conv2/conv2.param/square" stack_frame_id=311}
  %reduce_sum.1632 = f32[512]{0} reduce(%square.200, %constant.93), dimensions={0,1,2}, to_apply=%region_198.210, metadata={op_name="jit(predict_step)/Model/block4/unit03/conv2/conv2.param/reduce_sum" stack_frame_id=128}
  %broadcast_in_dim.401 = f32[1,1,1,512]{3,2,1,0} reshape(%reduce_sum.1632), metadata={op_name="jit(predict_step)/Model/block4/unit03/conv2/conv2.param/broadcast_in_dim" stack_frame_id=128}
  %div.1204 = f32[1,1,1,512]{3,2,1,0} divide(%broadcast_in_dim.401, %broadcast.36), metadata={op_name="jit(predict_step)/Model/block4/unit03/conv2/conv2.param/div" stack_frame_id=128}
  %add.620 = f32[1,1,1,512]{3,2,1,0} add(%div.1204, %broadcast.54), metadata={op_name="jit(predict_step)/Model/block4/unit03/conv2/conv2.param/add" stack_frame_id=128}
  %sqrt.200 = f32[1,1,1,512]{3,2,1,0} sqrt(%add.620), metadata={op_name="jit(predict_step)/Model/block4/unit03/conv2/conv2.param/sqrt" stack_frame_id=312}
  %div.1205 = f32[1,1,1,512]{3,2,1,0} broadcast(%sqrt.200), dimensions={0,1,2,3}, metadata={op_name="jit(predict_step)/Model/block4/unit03/conv2/conv2.param/div" stack_frame_id=313}
  %div.1206 = f32[512]{0} reshape(%div.1205), metadata={op_name="jit(predict_step)/Model/block4/unit03/conv2/conv2.param/div" stack_frame_id=313}
  %div.1207 = f32[3,3,512,512]{3,2,1,0} broadcast(%div.1206), dimensions={3}, metadata={op_name="jit(predict_step)/Model/block4/unit03/conv2/conv2.param/div" stack_frame_id=313}
  %div.1208 = f32[3,3,512,512]{3,2,1,0} divide(%sub.803, %div.1207), metadata={op_name="jit(predict_step)/Model/block4/unit03/conv2/conv2.param/div" stack_frame_id=313}
  %conv_general_dilated.104 = f32[8,7,7,512]{3,2,1,0} convolution(%jit_relu_.95, %div.1208), window={size=3x3 pad=1_1x1_1}, dim_labels=b01f_01io->b01f, metadata={op_name="jit(predict_step)/Model/block4/unit03/conv2/conv_general_dilated" stack_frame_id=314}
  %reshape.193 = f32[8,7,7,32,16]{4,3,2,1,0} reshape(%conv_general_dilated.104), metadata={op_name="jit(predict_step)/Model/block4/unit03/gn3/reshape" stack_frame_id=315}
  %reduce_sum.1633 = f32[8,32]{1,0} reduce(%reshape.193, %constant.93), dimensions={1,2,4}, to_apply=%region_199.211, metadata={op_name="jit(predict_step)/Model/block4/unit03/gn3/reduce_sum" stack_frame_id=131}
  %broadcast_in_dim.402 = f32[8,1,1,32,1]{4,3,2,1,0} reshape(%reduce_sum.1633), metadata={op_name="jit(predict_step)/Model/block4/unit03/gn3/broadcast_in_dim" stack_frame_id=131}
  %div.1209 = f32[8,1,1,32,1]{4,3,2,1,0} divide(%broadcast_in_dim.402, %broadcast.35), metadata={op_name="jit(predict_step)/Model/block4/unit03/gn3/div" stack_frame_id=131}
  %sub.804 = f32[8,1,1,32,1]{4,3,2,1,0} broadcast(%div.1209), dimensions={0,1,2,3,4}, metadata={op_name="jit(predict_step)/Model/block4/unit03/gn3/sub" stack_frame_id=316}
  %sub.805 = f32[8,32]{1,0} reshape(%sub.804), metadata={op_name="jit(predict_step)/Model/block4/unit03/gn3/sub" stack_frame_id=316}
  %sub.806 = f32[8,7,7,32,16]{4,3,2,1,0} broadcast(%sub.805), dimensions={0,3}, metadata={op_name="jit(predict_step)/Model/block4/unit03/gn3/sub" stack_frame_id=316}
  %sub.807 = f32[8,7,7,32,16]{4,3,2,1,0} subtract(%reshape.193, %sub.806), metadata={op_name="jit(predict_step)/Model/block4/unit03/gn3/sub" stack_frame_id=316}
  %square.201 = f32[8,7,7,32,16]{4,3,2,1,0} multiply(%sub.807, %sub.807), metadata={op_name="jit(predict_step)/Model/block4/unit03/gn3/square" stack_frame_id=317}
  %reduce_sum.1634 = f32[8,32]{1,0} reduce(%square.201, %constant.93), dimensions={1,2,4}, to_apply=%region_200.212, metadata={op_name="jit(predict_step)/Model/block4/unit03/gn3/reduce_sum" stack_frame_id=132}
  %broadcast_in_dim.403 = f32[8,1,1,32,1]{4,3,2,1,0} reshape(%reduce_sum.1634), metadata={op_name="jit(predict_step)/Model/block4/unit03/gn3/broadcast_in_dim" stack_frame_id=132}
  %div.1210 = f32[8,1,1,32,1]{4,3,2,1,0} divide(%broadcast_in_dim.403, %broadcast.35), metadata={op_name="jit(predict_step)/Model/block4/unit03/gn3/div" stack_frame_id=132}
  %add.621 = f32[8,1,1,32,1]{4,3,2,1,0} add(%div.1210, %broadcast.62), metadata={op_name="jit(predict_step)/Model/block4/unit03/gn3/add" stack_frame_id=132}
  %sqrt.201 = f32[8,1,1,32,1]{4,3,2,1,0} sqrt(%add.621), metadata={op_name="jit(predict_step)/Model/block4/unit03/gn3/sqrt" stack_frame_id=318}
  %div.1211 = f32[8,1,1,32,1]{4,3,2,1,0} broadcast(%sqrt.201), dimensions={0,1,2,3,4}, metadata={op_name="jit(predict_step)/Model/block4/unit03/gn3/div" stack_frame_id=319}
  %div.1212 = f32[8,32]{1,0} reshape(%div.1211), metadata={op_name="jit(predict_step)/Model/block4/unit03/gn3/div" stack_frame_id=319}
  %div.1213 = f32[8,7,7,32,16]{4,3,2,1,0} broadcast(%div.1212), dimensions={0,3}, metadata={op_name="jit(predict_step)/Model/block4/unit03/gn3/div" stack_frame_id=319}
  %div.1214 = f32[8,7,7,32,16]{4,3,2,1,0} divide(%sub.807, %div.1213), metadata={op_name="jit(predict_step)/Model/block4/unit03/gn3/div" stack_frame_id=319}
  %reshape.194 = f32[8,7,7,512]{3,2,1,0} reshape(%div.1214), metadata={op_name="jit(predict_step)/Model/block4/unit03/gn3/reshape" stack_frame_id=320}
  %variables__block4____unit03____gn3____scale__.1 = f32[1,1,1,512]{3,2,1,0} parameter(147), sharding={devices=[1,1,1,2]<=[2]}, frontend_attributes={xla.sdy.sharding="#sdy.sharding<@mesh, [{}, {}, {}, {\"fsdp\"}]>"}, metadata={op_name="variables[\'block4\'][\'unit03\'][\'gn3\'][\'scale\']"}
  %mul.384 = f32[1,1,1,512]{3,2,1,0} broadcast(%variables__block4____unit03____gn3____scale__.1), dimensions={0,1,2,3}, metadata={op_name="jit(predict_step)/Model/block4/unit03/gn3/mul" stack_frame_id=321}
  %mul.385 = f32[512]{0} reshape(%mul.384), metadata={op_name="jit(predict_step)/Model/block4/unit03/gn3/mul" stack_frame_id=321}
  %mul.386 = f32[8,7,7,512]{3,2,1,0} broadcast(%mul.385), dimensions={3}, metadata={op_name="jit(predict_step)/Model/block4/unit03/gn3/mul" stack_frame_id=321}
  %mul.387 = f32[8,7,7,512]{3,2,1,0} multiply(%reshape.194, %mul.386), metadata={op_name="jit(predict_step)/Model/block4/unit03/gn3/mul" stack_frame_id=321}
  %variables__block4____unit03____gn3____bias__.1 = f32[1,1,1,512]{3,2,1,0} parameter(146), sharding={devices=[1,1,1,2]<=[2]}, frontend_attributes={xla.sdy.sharding="#sdy.sharding<@mesh, [{}, {}, {}, {\"fsdp\"}]>"}, metadata={op_name="variables[\'block4\'][\'unit03\'][\'gn3\'][\'bias\']"}
  %add.622 = f32[1,1,1,512]{3,2,1,0} broadcast(%variables__block4____unit03____gn3____bias__.1), dimensions={0,1,2,3}, metadata={op_name="jit(predict_step)/Model/block4/unit03/gn3/add" stack_frame_id=322}
  %add.623 = f32[512]{0} reshape(%add.622), metadata={op_name="jit(predict_step)/Model/block4/unit03/gn3/add" stack_frame_id=322}
  %add.624 = f32[8,7,7,512]{3,2,1,0} broadcast(%add.623), dimensions={3}, metadata={op_name="jit(predict_step)/Model/block4/unit03/gn3/add" stack_frame_id=322}
  %add.625 = f32[8,7,7,512]{3,2,1,0} add(%mul.387, %add.624), metadata={op_name="jit(predict_step)/Model/block4/unit03/gn3/add" stack_frame_id=322}
  %jit_relu_.96 = f32[8,7,7,512]{3,2,1,0} call(%add.625), to_apply=%relu_8.187, metadata={op_name="jit(predict_step)/Model/block4/unit03/jit(relu)" stack_frame_id=323}
  %variables__block4____unit03____conv3____kernel__.1 = f32[1,1,512,2048]{3,2,1,0} parameter(141), sharding={devices=[1,1,2,1]<=[2]}, frontend_attributes={xla.sdy.sharding="#sdy.sharding<@mesh, [{}, {}, {\"fsdp\"}, {}]>"}, metadata={op_name="variables[\'block4\'][\'unit03\'][\'conv3\'][\'kernel\']"}
  %reduce_sum.1635 = f32[2048]{0} reduce(%variables__block4____unit03____conv3____kernel__.1, %constant.93), dimensions={0,1,2}, to_apply=%region_201.213, metadata={op_name="jit(predict_step)/Model/block4/unit03/conv3/conv3.param/reduce_sum" stack_frame_id=136}
  %broadcast_in_dim.404 = f32[1,1,1,2048]{3,2,1,0} reshape(%reduce_sum.1635), metadata={op_name="jit(predict_step)/Model/block4/unit03/conv3/conv3.param/broadcast_in_dim" stack_frame_id=136}
  %div.1215 = f32[1,1,1,2048]{3,2,1,0} divide(%broadcast_in_dim.404, %broadcast.34), metadata={op_name="jit(predict_step)/Model/block4/unit03/conv3/conv3.param/div" stack_frame_id=136}
  %sub.808 = f32[1,1,1,2048]{3,2,1,0} broadcast(%div.1215), dimensions={0,1,2,3}, metadata={op_name="jit(predict_step)/Model/block4/unit03/conv3/conv3.param/sub" stack_frame_id=324}
  %sub.809 = f32[1,1,2048]{2,1,0} reshape(%sub.808), metadata={op_name="jit(predict_step)/Model/block4/unit03/conv3/conv3.param/sub" stack_frame_id=324}
  %sub.810 = f32[1,1,512,2048]{3,2,1,0} broadcast(%sub.809), dimensions={0,1,3}, metadata={op_name="jit(predict_step)/Model/block4/unit03/conv3/conv3.param/sub" stack_frame_id=324}
  %sub.811 = f32[1,1,512,2048]{3,2,1,0} subtract(%variables__block4____unit03____conv3____kernel__.1, %sub.810), metadata={op_name="jit(predict_step)/Model/block4/unit03/conv3/conv3.param/sub" stack_frame_id=324}
  %square.202 = f32[1,1,512,2048]{3,2,1,0} multiply(%sub.811, %sub.811), metadata={op_name="jit(predict_step)/Model/block4/unit03/conv3/conv3.param/square" stack_frame_id=325}
  %reduce_sum.1636 = f32[2048]{0} reduce(%square.202, %constant.93), dimensions={0,1,2}, to_apply=%region_202.214, metadata={op_name="jit(predict_step)/Model/block4/unit03/conv3/conv3.param/reduce_sum" stack_frame_id=137}
  %broadcast_in_dim.405 = f32[1,1,1,2048]{3,2,1,0} reshape(%reduce_sum.1636), metadata={op_name="jit(predict_step)/Model/block4/unit03/conv3/conv3.param/broadcast_in_dim" stack_frame_id=137}
  %div.1216 = f32[1,1,1,2048]{3,2,1,0} divide(%broadcast_in_dim.405, %broadcast.34), metadata={op_name="jit(predict_step)/Model/block4/unit03/conv3/conv3.param/div" stack_frame_id=137}
  %add.626 = f32[1,1,1,2048]{3,2,1,0} add(%div.1216, %broadcast.38), metadata={op_name="jit(predict_step)/Model/block4/unit03/conv3/conv3.param/add" stack_frame_id=137}
  %sqrt.202 = f32[1,1,1,2048]{3,2,1,0} sqrt(%add.626), metadata={op_name="jit(predict_step)/Model/block4/unit03/conv3/conv3.param/sqrt" stack_frame_id=326}
  %div.1217 = f32[1,1,1,2048]{3,2,1,0} broadcast(%sqrt.202), dimensions={0,1,2,3}, metadata={op_name="jit(predict_step)/Model/block4/unit03/conv3/conv3.param/div" stack_frame_id=327}
  %div.1218 = f32[1,1,2048]{2,1,0} reshape(%div.1217), metadata={op_name="jit(predict_step)/Model/block4/unit03/conv3/conv3.param/div" stack_frame_id=327}
  %div.1219 = f32[1,1,512,2048]{3,2,1,0} broadcast(%div.1218), dimensions={0,1,3}, metadata={op_name="jit(predict_step)/Model/block4/unit03/conv3/conv3.param/div" stack_frame_id=327}
  %div.1220 = f32[1,1,512,2048]{3,2,1,0} divide(%sub.811, %div.1219), metadata={op_name="jit(predict_step)/Model/block4/unit03/conv3/conv3.param/div" stack_frame_id=327}
  %conv_general_dilated.105 = f32[8,7,7,2048]{3,2,1,0} convolution(%jit_relu_.96, %div.1220), window={size=1x1}, dim_labels=b01f_01io->b01f, metadata={op_name="jit(predict_step)/Model/block4/unit03/conv3/conv_general_dilated" stack_frame_id=328}
  %add.627 = f32[8,7,7,2048]{3,2,1,0} add(%conv_general_dilated.105, %add.608), metadata={op_name="jit(predict_step)/Model/block4/unit03/add" stack_frame_id=329}
  %reshape.195 = f32[8,7,7,32,64]{4,3,2,1,0} reshape(%add.627), metadata={op_name="jit(predict_step)/Model/norm-pre-head/reshape" stack_frame_id=330}
  %reduce_sum.1637 = f32[8,32]{1,0} reduce(%reshape.195, %constant.93), dimensions={1,2,4}, to_apply=%region_203.215, metadata={op_name="jit(predict_step)/Model/norm-pre-head/reduce_sum" stack_frame_id=140}
  %broadcast_in_dim.406 = f32[8,1,1,32,1]{4,3,2,1,0} reshape(%reduce_sum.1637), metadata={op_name="jit(predict_step)/Model/norm-pre-head/broadcast_in_dim" stack_frame_id=140}
  %div.1221 = f32[8,1,1,32,1]{4,3,2,1,0} divide(%broadcast_in_dim.406, %broadcast.49), metadata={op_name="jit(predict_step)/Model/norm-pre-head/div" stack_frame_id=140}
  %sub.812 = f32[8,1,1,32,1]{4,3,2,1,0} broadcast(%div.1221), dimensions={0,1,2,3,4}, metadata={op_name="jit(predict_step)/Model/norm-pre-head/sub" stack_frame_id=331}
  %sub.813 = f32[8,32]{1,0} reshape(%sub.812), metadata={op_name="jit(predict_step)/Model/norm-pre-head/sub" stack_frame_id=331}
  %sub.814 = f32[8,7,7,32,64]{4,3,2,1,0} broadcast(%sub.813), dimensions={0,3}, metadata={op_name="jit(predict_step)/Model/norm-pre-head/sub" stack_frame_id=331}
  %sub.815 = f32[8,7,7,32,64]{4,3,2,1,0} subtract(%reshape.195, %sub.814), metadata={op_name="jit(predict_step)/Model/norm-pre-head/sub" stack_frame_id=331}
  %square.203 = f32[8,7,7,32,64]{4,3,2,1,0} multiply(%sub.815, %sub.815), metadata={op_name="jit(predict_step)/Model/norm-pre-head/square" stack_frame_id=332}
  %reduce_sum.1638 = f32[8,32]{1,0} reduce(%square.203, %constant.93), dimensions={1,2,4}, to_apply=%region_204.216, metadata={op_name="jit(predict_step)/Model/norm-pre-head/reduce_sum" stack_frame_id=141}
  %broadcast_in_dim.407 = f32[8,1,1,32,1]{4,3,2,1,0} reshape(%reduce_sum.1638), metadata={op_name="jit(predict_step)/Model/norm-pre-head/broadcast_in_dim" stack_frame_id=141}
  %div.1222 = f32[8,1,1,32,1]{4,3,2,1,0} divide(%broadcast_in_dim.407, %broadcast.49), metadata={op_name="jit(predict_step)/Model/norm-pre-head/div" stack_frame_id=141}
  %add.628 = f32[8,1,1,32,1]{4,3,2,1,0} add(%div.1222, %broadcast.62), metadata={op_name="jit(predict_step)/Model/norm-pre-head/add" stack_frame_id=141}
  %sqrt.203 = f32[8,1,1,32,1]{4,3,2,1,0} sqrt(%add.628), metadata={op_name="jit(predict_step)/Model/norm-pre-head/sqrt" stack_frame_id=333}
  %div.1223 = f32[8,1,1,32,1]{4,3,2,1,0} broadcast(%sqrt.203), dimensions={0,1,2,3,4}, metadata={op_name="jit(predict_step)/Model/norm-pre-head/div" stack_frame_id=334}
  %div.1224 = f32[8,32]{1,0} reshape(%div.1223), metadata={op_name="jit(predict_step)/Model/norm-pre-head/div" stack_frame_id=334}
  %div.1225 = f32[8,7,7,32,64]{4,3,2,1,0} broadcast(%div.1224), dimensions={0,3}, metadata={op_name="jit(predict_step)/Model/norm-pre-head/div" stack_frame_id=334}
  %div.1226 = f32[8,7,7,32,64]{4,3,2,1,0} divide(%sub.815, %div.1225), metadata={op_name="jit(predict_step)/Model/norm-pre-head/div" stack_frame_id=334}
  %reshape.196 = f32[8,7,7,2048]{3,2,1,0} reshape(%div.1226), metadata={op_name="jit(predict_step)/Model/norm-pre-head/reshape" stack_frame_id=335}
  %variables__norm-pre-head____scale__.1 = f32[1,1,1,2048]{3,2,1,0} parameter(151), sharding={devices=[1,1,1,2]<=[2]}, frontend_attributes={xla.sdy.sharding="#sdy.sharding<@mesh, [{}, {}, {}, {\"fsdp\"}]>"}, metadata={op_name="variables[\'norm-pre-head\'][\'scale\']"}
  %mul.388 = f32[1,1,1,2048]{3,2,1,0} broadcast(%variables__norm-pre-head____scale__.1), dimensions={0,1,2,3}, metadata={op_name="jit(predict_step)/Model/norm-pre-head/mul" stack_frame_id=336}
  %mul.389 = f32[2048]{0} reshape(%mul.388), metadata={op_name="jit(predict_step)/Model/norm-pre-head/mul" stack_frame_id=336}
  %mul.390 = f32[8,7,7,2048]{3,2,1,0} broadcast(%mul.389), dimensions={3}, metadata={op_name="jit(predict_step)/Model/norm-pre-head/mul" stack_frame_id=336}
  %mul.391 = f32[8,7,7,2048]{3,2,1,0} multiply(%reshape.196, %mul.390), metadata={op_name="jit(predict_step)/Model/norm-pre-head/mul" stack_frame_id=336}
  %variables__norm-pre-head____bias__.1 = f32[1,1,1,2048]{3,2,1,0} parameter(150), sharding={devices=[1,1,1,2]<=[2]}, frontend_attributes={xla.sdy.sharding="#sdy.sharding<@mesh, [{}, {}, {}, {\"fsdp\"}]>"}, metadata={op_name="variables[\'norm-pre-head\'][\'bias\']"}
  %add.629 = f32[1,1,1,2048]{3,2,1,0} broadcast(%variables__norm-pre-head____bias__.1), dimensions={0,1,2,3}, metadata={op_name="jit(predict_step)/Model/norm-pre-head/add" stack_frame_id=337}
  %add.630 = f32[2048]{0} reshape(%add.629), metadata={op_name="jit(predict_step)/Model/norm-pre-head/add" stack_frame_id=337}
  %add.631 = f32[8,7,7,2048]{3,2,1,0} broadcast(%add.630), dimensions={3}, metadata={op_name="jit(predict_step)/Model/norm-pre-head/add" stack_frame_id=337}
  %add.632 = f32[8,7,7,2048]{3,2,1,0} add(%mul.391, %add.631), metadata={op_name="jit(predict_step)/Model/norm-pre-head/add" stack_frame_id=337}
  %jit_relu_.97 = f32[8,7,7,2048]{3,2,1,0} call(%add.632), to_apply=%relu_9.192, metadata={op_name="jit(predict_step)/Model/jit(relu)" stack_frame_id=338}
  %reduce_sum.1639 = f32[8,2048]{1,0} reduce(%jit_relu_.97, %constant.93), dimensions={1,2}, to_apply=%region_205.217, metadata={op_name="jit(predict_step)/Model/reduce_sum" stack_frame_id=142}
  %constant.58 = f32[] constant(49)
  %div.614 = f32[8,2048]{1,0} broadcast(%constant.58), dimensions={}, metadata={op_name="jit(predict_step)/Model/div" stack_frame_id=142}
  %div.1227 = f32[8,2048]{1,0} divide(%reduce_sum.1639, %div.614), metadata={op_name="jit(predict_step)/Model/div" stack_frame_id=142}
  %variables__head____kernel__.1 = f32[2048,1000]{1,0} parameter(149), sharding={devices=[2,1]<=[2]}, frontend_attributes={xla.sdy.sharding="#sdy.sharding<@mesh, [{\"fsdp\"}, {}]>"}, metadata={op_name="variables[\'head\'][\'kernel\']"}
  %dot_general.1 = f32[8,1000]{1,0} dot(%div.1227, %variables__head____kernel__.1), lhs_contracting_dims={1}, rhs_contracting_dims={0}, metadata={op_name="jit(predict_step)/Model/head/dot_general" stack_frame_id=340}
  %variables__head____bias__.1 = f32[1000]{0} parameter(148), sharding={devices=[2]<=[2]}, frontend_attributes={xla.sdy.sharding="#sdy.sharding<@mesh, [{\"fsdp\"}]>"}, metadata={op_name="variables[\'head\'][\'bias\']"}
  %reshape.197 = f32[1,1000]{1,0} reshape(%variables__head____bias__.1), metadata={op_name="jit(predict_step)/Model/head/reshape" stack_frame_id=341}
  %add.633 = f32[1,1000]{1,0} broadcast(%reshape.197), dimensions={0,1}, metadata={op_name="jit(predict_step)/Model/head/add" stack_frame_id=342}
  %add.634 = f32[1000]{0} reshape(%add.633), metadata={op_name="jit(predict_step)/Model/head/add" stack_frame_id=342}
  %add.635 = f32[8,1000]{1,0} broadcast(%add.634), dimensions={1}, metadata={op_name="jit(predict_step)/Model/head/add" stack_frame_id=342}
  %add.636 = f32[8,1000]{1,0} add(%dot_general.1, %add.635), metadata={op_name="jit(predict_step)/Model/head/add" stack_frame_id=342}
  %add.637 = f32[8,1000]{1,0} custom-call(%add.636), custom_call_target="xla.sdy.FuncResultSharding", custom_call_has_side_effect=true, frontend_attributes={xla.sdy.sharding="#sdy.sharding_per_value<[<@mesh, [{}, {}]>]>"}, metadata={op_name="jit(predict_step)/Model/head/add" stack_frame_id=342}
  %tuple.1 = (f32[8,1000]{1,0}) tuple(%add.637)
  ROOT %get-tuple-element.1 = f32[8,1000]{1,0} get-tuple-element(%tuple.1), index=0, sharding={replicated}
}

