HloModule jit_train_step, entry_computation_layout={(f32[768]{0}, f32[768]{0}, f32[768]{0}, f32[768]{0}, f32[768]{0}, /*index=5*/f32[768]{0}, f32[3072]{0}, f32[768,3072]{1,0}, f32[768]{0}, f32[3072,768]{1,0}, /*index=10*/f32[12,64]{1,0}, f32[768,12,64]{2,1,0}, f32[768]{0}, f32[12,64,768]{2,1,0}, f32[12,64]{1,0}, /*index=15*/f32[768,12,64]{2,1,0}, f32[12,64]{1,0}, f32[768,12,64]{2,1,0}, f32[768]{0}, f32[768]{0}, /*index=20*/f32[768]{0}, f32[768]{0}, f32[3072]{0}, f32[768,3072]{1,0}, f32[768]{0}, /*index=25*/f32[3072,768]{1,0}, f32[12,64]{1,0}, f32[768,12,64]{2,1,0}, f32[768]{0}, f32[12,64,768]{2,1,0}, /*index=30*/f32[12,64]{1,0}, f32[768,12,64]{2,1,0}, f32[12,64]{1,0}, f32[768,12,64]{2,1,0}, f32[768]{0}, /*index=35*/f32[768]{0}, f32[768]{0}, f32[768]{0}, f32[3072]{0}, f32[768,3072]{1,0}, /*index=40*/f32[768]{0}, f32[3072,768]{1,0}, f32[12,64]{1,0}, f32[768,12,64]{2,1,0}, f32[768]{0}, /*index=45*/f32[12,64,768]{2,1,0}, f32[12,64]{1,0}, f32[768,12,64]{2,1,0}, f32[12,64]{1,0}, f32[768,12,64]{2,1,0}, /*index=50*/f32[768]{0}, f32[768]{0}, f32[768]{0}, f32[768]{0}, f32[3072]{0}, /*index=55*/f32[768,3072]{1,0}, f32[768]{0}, f32[3072,768]{1,0}, f32[12,64]{1,0}, f32[768,12,64]{2,1,0}, /*index=60*/f32[768]{0}, f32[12,64,768]{2,1,0}, f32[12,64]{1,0}, f32[768,12,64]{2,1,0}, f32[12,64]{1,0}, /*index=65*/f32[768,12,64]{2,1,0}, f32[768]{0}, f32[768]{0}, f32[768]{0}, f32[768]{0}, /*index=70*/f32[3072]{0}, f32[768,3072]{1,0}, f32[768]{0}, f32[3072,768]{1,0}, f32[12,64]{1,0}, /*index=75*/f32[768,12,64]{2,1,0}, f32[768]{0}, f32[12,64,768]{2,1,0}, f32[12,64]{1,0}, f32[768,12,64]{2,1,0}, /*index=80*/f32[12,64]{1,0}, f32[768,12,64]{2,1,0}, f32[768]{0}, f32[768]{0}, f32[768]{0}, /*index=85*/f32[768]{0}, f32[3072]{0}, f32[768,3072]{1,0}, f32[768]{0}, f32[3072,768]{1,0}, /*index=90*/f32[12,64]{1,0}, f32[768,12,64]{2,1,0}, f32[768]{0}, f32[12,64,768]{2,1,0}, f32[12,64]{1,0}, /*index=95*/f32[768,12,64]{2,1,0}, f32[12,64]{1,0}, f32[768,12,64]{2,1,0}, f32[768]{0}, f32[768]{0}, /*index=100*/f32[768]{0}, f32[768]{0}, f32[3072]{0}, f32[768,3072]{1,0}, f32[768]{0}, /*index=105*/f32[3072,768]{1,0}, f32[12,64]{1,0}, f32[768,12,64]{2,1,0}, f32[768]{0}, f32[12,64,768]{2,1,0}, /*index=110*/f32[12,64]{1,0}, f32[768,12,64]{2,1,0}, f32[12,64]{1,0}, f32[768,12,64]{2,1,0}, f32[768]{0}, /*index=115*/f32[768]{0}, f32[768]{0}, f32[768]{0}, f32[3072]{0}, f32[768,3072]{1,0}, /*index=120*/f32[768]{0}, f32[3072,768]{1,0}, f32[12,64]{1,0}, f32[768,12,64]{2,1,0}, f32[768]{0}, /*index=125*/f32[12,64,768]{2,1,0}, f32[12,64]{1,0}, f32[768,12,64]{2,1,0}, f32[12,64]{1,0}, f32[768,12,64]{2,1,0}, /*index=130*/f32[768]{0}, f32[768]{0}, f32[768]{0}, f32[768]{0}, f32[3072]{0}, /*index=135*/f32[768,3072]{1,0}, f32[768]{0}, f32[3072,768]{1,0}, f32[12,64]{1,0}, f32[768,12,64]{2,1,0}, /*index=140*/f32[768]{0}, f32[12,64,768]{2,1,0}, f32[12,64]{1,0}, f32[768,12,64]{2,1,0}, f32[12,64]{1,0}, /*index=145*/f32[768,12,64]{2,1,0}, f32[768]{0}, f32[768]{0}, f32[768]{0}, f32[768]{0}, /*index=150*/f32[3072]{0}, f32[768,3072]{1,0}, f32[768]{0}, f32[3072,768]{1,0}, f32[12,64]{1,0}, /*index=155*/f32[768,12,64]{2,1,0}, f32[768]{0}, f32[12,64,768]{2,1,0}, f32[12,64]{1,0}, f32[768,12,64]{2,1,0}, /*index=160*/f32[12,64]{1,0}, f32[768,12,64]{2,1,0}, f32[768]{0}, f32[768]{0}, f32[768]{0}, /*index=165*/f32[768]{0}, f32[3072]{0}, f32[768,3072]{1,0}, f32[768]{0}, f32[3072,768]{1,0}, /*index=170*/f32[12,64]{1,0}, f32[768,12,64]{2,1,0}, f32[768]{0}, f32[12,64,768]{2,1,0}, f32[12,64]{1,0}, /*index=175*/f32[768,12,64]{2,1,0}, f32[12,64]{1,0}, f32[768,12,64]{2,1,0}, f32[768]{0}, f32[768]{0}, /*index=180*/f32[768]{0}, f32[768]{0}, f32[3072]{0}, f32[768,3072]{1,0}, f32[768]{0}, /*index=185*/f32[3072,768]{1,0}, f32[12,64]{1,0}, f32[768,12,64]{2,1,0}, f32[768]{0}, f32[12,64,768]{2,1,0}, /*index=190*/f32[12,64]{1,0}, f32[768,12,64]{2,1,0}, f32[12,64]{1,0}, f32[768,12,64]{2,1,0}, f32[768]{0}, /*index=195*/f32[16,16,3,768]{3,2,1,0}, f32[2048]{0}, f32[768,2048]{1,0}, f32[1,196,768]{2,1,0}, f32[256000,2048]{1,0}, /*index=200*/f32[2048]{0}, f32[18,8,256,2048]{3,2,1,0}, f32[18,2,1,2048,256]{4,3,2,1,0}, f32[18,8,2048,256]{3,2,1,0}, f32[18,2,2048,16384]{3,2,1,0}, /*index=205*/f32[18,16384,2048]{2,1,0}, f32[18,2048]{1,0}, f32[18,2048]{1,0}, s32[], f32[768]{0}, /*index=210*/f32[768]{0}, f32[768]{0}, f32[768]{0}, f32[768]{0}, f32[768]{0}, /*index=215*/f32[3072]{0}, f32[768,3072]{1,0}, f32[768]{0}, f32[3072,768]{1,0}, f32[12,64]{1,0}, /*index=220*/f32[768,12,64]{2,1,0}, f32[768]{0}, f32[12,64,768]{2,1,0}, f32[12,64]{1,0}, f32[768,12,64]{2,1,0}, /*index=225*/f32[12,64]{1,0}, f32[768,12,64]{2,1,0}, f32[768]{0}, f32[768]{0}, f32[768]{0}, /*index=230*/f32[768]{0}, f32[3072]{0}, f32[768,3072]{1,0}, f32[768]{0}, f32[3072,768]{1,0}, /*index=235*/f32[12,64]{1,0}, f32[768,12,64]{2,1,0}, f32[768]{0}, f32[12,64,768]{2,1,0}, f32[12,64]{1,0}, /*index=240*/f32[768,12,64]{2,1,0}, f32[12,64]{1,0}, f32[768,12,64]{2,1,0}, f32[768]{0}, f32[768]{0}, /*index=245*/f32[768]{0}, f32[768]{0}, f32[3072]{0}, f32[768,3072]{1,0}, f32[768]{0}, /*index=250*/f32[3072,768]{1,0}, f32[12,64]{1,0}, f32[768,12,64]{2,1,0}, f32[768]{0}, f32[12,64,768]{2,1,0}, /*index=255*/f32[12,64]{1,0}, f32[768,12,64]{2,1,0}, f32[12,64]{1,0}, f32[768,12,64]{2,1,0}, f32[768]{0}, /*index=260*/f32[768]{0}, f32[768]{0}, f32[768]{0}, f32[3072]{0}, f32[768,3072]{1,0}, /*index=265*/f32[768]{0}, f32[3072,768]{1,0}, f32[12,64]{1,0}, f32[768,12,64]{2,1,0}, f32[768]{0}, /*index=270*/f32[12,64,768]{2,1,0}, f32[12,64]{1,0}, f32[768,12,64]{2,1,0}, f32[12,64]{1,0}, f32[768,12,64]{2,1,0}, /*index=275*/f32[768]{0}, f32[768]{0}, f32[768]{0}, f32[768]{0}, f32[3072]{0}, /*index=280*/f32[768,3072]{1,0}, f32[768]{0}, f32[3072,768]{1,0}, f32[12,64]{1,0}, f32[768,12,64]{2,1,0}, /*index=285*/f32[768]{0}, f32[12,64,768]{2,1,0}, f32[12,64]{1,0}, f32[768,12,64]{2,1,0}, f32[12,64]{1,0}, /*index=290*/f32[768,12,64]{2,1,0}, f32[768]{0}, f32[768]{0}, f32[768]{0}, f32[768]{0}, /*index=295*/f32[3072]{0}, f32[768,3072]{1,0}, f32[768]{0}, f32[3072,768]{1,0}, f32[12,64]{1,0}, /*index=300*/f32[768,12,64]{2,1,0}, f32[768]{0}, f32[12,64,768]{2,1,0}, f32[12,64]{1,0}, f32[768,12,64]{2,1,0}, /*index=305*/f32[12,64]{1,0}, f32[768,12,64]{2,1,0}, f32[768]{0}, f32[768]{0}, f32[768]{0}, /*index=310*/f32[768]{0}, f32[3072]{0}, f32[768,3072]{1,0}, f32[768]{0}, f32[3072,768]{1,0}, /*index=315*/f32[12,64]{1,0}, f32[768,12,64]{2,1,0}, f32[768]{0}, f32[12,64,768]{2,1,0}, f32[12,64]{1,0}, /*index=320*/f32[768,12,64]{2,1,0}, f32[12,64]{1,0}, f32[768,12,64]{2,1,0}, f32[768]{0}, f32[768]{0}, /*index=325*/f32[768]{0}, f32[768]{0}, f32[3072]{0}, f32[768,3072]{1,0}, f32[768]{0}, /*index=330*/f32[3072,768]{1,0}, f32[12,64]{1,0}, f32[768,12,64]{2,1,0}, f32[768]{0}, f32[12,64,768]{2,1,0}, /*index=335*/f32[12,64]{1,0}, f32[768,12,64]{2,1,0}, f32[12,64]{1,0}, f32[768,12,64]{2,1,0}, f32[768]{0}, /*index=340*/f32[768]{0}, f32[768]{0}, f32[768]{0}, f32[3072]{0}, f32[768,3072]{1,0}, /*index=345*/f32[768]{0}, f32[3072,768]{1,0}, f32[12,64]{1,0}, f32[768,12,64]{2,1,0}, f32[768]{0}, /*index=350*/f32[12,64,768]{2,1,0}, f32[12,64]{1,0}, f32[768,12,64]{2,1,0}, f32[12,64]{1,0}, f32[768,12,64]{2,1,0}, /*index=355*/f32[768]{0}, f32[768]{0}, f32[768]{0}, f32[768]{0}, f32[3072]{0}, /*index=360*/f32[768,3072]{1,0}, f32[768]{0}, f32[3072,768]{1,0}, f32[12,64]{1,0}, f32[768,12,64]{2,1,0}, /*index=365*/f32[768]{0}, f32[12,64,768]{2,1,0}, f32[12,64]{1,0}, f32[768,12,64]{2,1,0}, f32[12,64]{1,0}, /*index=370*/f32[768,12,64]{2,1,0}, f32[768]{0}, f32[768]{0}, f32[768]{0}, f32[768]{0}, /*index=375*/f32[3072]{0}, f32[768,3072]{1,0}, f32[768]{0}, f32[3072,768]{1,0}, f32[12,64]{1,0}, /*index=380*/f32[768,12,64]{2,1,0}, f32[768]{0}, f32[12,64,768]{2,1,0}, f32[12,64]{1,0}, f32[768,12,64]{2,1,0}, /*index=385*/f32[12,64]{1,0}, f32[768,12,64]{2,1,0}, f32[768]{0}, f32[768]{0}, f32[768]{0}, /*index=390*/f32[768]{0}, f32[3072]{0}, f32[768,3072]{1,0}, f32[768]{0}, f32[3072,768]{1,0}, /*index=395*/f32[12,64]{1,0}, f32[768,12,64]{2,1,0}, f32[768]{0}, f32[12,64,768]{2,1,0}, f32[12,64]{1,0}, /*index=400*/f32[768,12,64]{2,1,0}, f32[12,64]{1,0}, f32[768,12,64]{2,1,0}, f32[768]{0}, f32[16,16,3,768]{3,2,1,0}, /*index=405*/f32[2048]{0}, f32[768,2048]{1,0}, f32[1,196,768]{2,1,0}, f32[256000,2048]{1,0}, f32[2048]{0}, /*index=410*/f32[18,8,256,2048]{3,2,1,0}, f32[18,2,1,2048,256]{4,3,2,1,0}, f32[18,8,2048,256]{3,2,1,0}, f32[18,2,2048,16384]{3,2,1,0}, f32[18,16384,2048]{2,1,0}, /*index=415*/f32[18,2048]{1,0}, f32[18,2048]{1,0}, f32[768]{0}, f32[768]{0}, f32[768]{0}, /*index=420*/f32[768]{0}, f32[768]{0}, f32[768]{0}, f32[3072]{0}, f32[768,3072]{1,0}, /*index=425*/f32[768]{0}, f32[3072,768]{1,0}, f32[12,64]{1,0}, f32[768,12,64]{2,1,0}, f32[768]{0}, /*index=430*/f32[12,64,768]{2,1,0}, f32[12,64]{1,0}, f32[768,12,64]{2,1,0}, f32[12,64]{1,0}, f32[768,12,64]{2,1,0}, /*index=435*/f32[768]{0}, f32[768]{0}, f32[768]{0}, f32[768]{0}, f32[3072]{0}, /*index=440*/f32[768,3072]{1,0}, f32[768]{0}, f32[3072,768]{1,0}, f32[12,64]{1,0}, f32[768,12,64]{2,1,0}, /*index=445*/f32[768]{0}, f32[12,64,768]{2,1,0}, f32[12,64]{1,0}, f32[768,12,64]{2,1,0}, f32[12,64]{1,0}, /*index=450*/f32[768,12,64]{2,1,0}, f32[768]{0}, f32[768]{0}, f32[768]{0}, f32[768]{0}, /*index=455*/f32[3072]{0}, f32[768,3072]{1,0}, f32[768]{0}, f32[3072,768]{1,0}, f32[12,64]{1,0}, /*index=460*/f32[768,12,64]{2,1,0}, f32[768]{0}, f32[12,64,768]{2,1,0}, f32[12,64]{1,0}, f32[768,12,64]{2,1,0}, /*index=465*/f32[12,64]{1,0}, f32[768,12,64]{2,1,0}, f32[768]{0}, f32[768]{0}, f32[768]{0}, /*index=470*/f32[768]{0}, f32[3072]{0}, f32[768,3072]{1,0}, f32[768]{0}, f32[3072,768]{1,0}, /*index=475*/f32[12,64]{1,0}, f32[768,12,64]{2,1,0}, f32[768]{0}, f32[12,64,768]{2,1,0}, f32[12,64]{1,0}, /*index=480*/f32[768,12,64]{2,1,0}, f32[12,64]{1,0}, f32[768,12,64]{2,1,0}, f32[768]{0}, f32[768]{0}, /*index=485*/f32[768]{0}, f32[768]{0}, f32[3072]{0}, f32[768,3072]{1,0}, f32[768]{0}, /*index=490*/f32[3072,768]{1,0}, f32[12,64]{1,0}, f32[768,12,64]{2,1,0}, f32[768]{0}, f32[12,64,768]{2,1,0}, /*index=495*/f32[12,64]{1,0}, f32[768,12,64]{2,1,0}, f32[12,64]{1,0}, f32[768,12,64]{2,1,0}, f32[768]{0}, /*index=500*/f32[768]{0}, f32[768]{0}, f32[768]{0}, f32[3072]{0}, f32[768,3072]{1,0}, /*index=505*/f32[768]{0}, f32[3072,768]{1,0}, f32[12,64]{1,0}, f32[768,12,64]{2,1,0}, f32[768]{0}, /*index=510*/f32[12,64,768]{2,1,0}, f32[12,64]{1,0}, f32[768,12,64]{2,1,0}, f32[12,64]{1,0}, f32[768,12,64]{2,1,0}, /*index=515*/f32[768]{0}, f32[768]{0}, f32[768]{0}, f32[768]{0}, f32[3072]{0}, /*index=520*/f32[768,3072]{1,0}, f32[768]{0}, f32[3072,768]{1,0}, f32[12,64]{1,0}, f32[768,12,64]{2,1,0}, /*index=525*/f32[768]{0}, f32[12,64,768]{2,1,0}, f32[12,64]{1,0}, f32[768,12,64]{2,1,0}, f32[12,64]{1,0}, /*index=530*/f32[768,12,64]{2,1,0}, f32[768]{0}, f32[768]{0}, f32[768]{0}, f32[768]{0}, /*index=535*/f32[3072]{0}, f32[768,3072]{1,0}, f32[768]{0}, f32[3072,768]{1,0}, f32[12,64]{1,0}, /*index=540*/f32[768,12,64]{2,1,0}, f32[768]{0}, f32[12,64,768]{2,1,0}, f32[12,64]{1,0}, f32[768,12,64]{2,1,0}, /*index=545*/f32[12,64]{1,0}, f32[768,12,64]{2,1,0}, f32[768]{0}, f32[768]{0}, f32[768]{0}, /*index=550*/f32[768]{0}, f32[3072]{0}, f32[768,3072]{1,0}, f32[768]{0}, f32[3072,768]{1,0}, /*index=555*/f32[12,64]{1,0}, f32[768,12,64]{2,1,0}, f32[768]{0}, f32[12,64,768]{2,1,0}, f32[12,64]{1,0}, /*index=560*/f32[768,12,64]{2,1,0}, f32[12,64]{1,0}, f32[768,12,64]{2,1,0}, f32[768]{0}, f32[768]{0}, /*index=565*/f32[768]{0}, f32[768]{0}, f32[3072]{0}, f32[768,3072]{1,0}, f32[768]{0}, /*index=570*/f32[3072,768]{1,0}, f32[12,64]{1,0}, f32[768,12,64]{2,1,0}, f32[768]{0}, f32[12,64,768]{2,1,0}, /*index=575*/f32[12,64]{1,0}, f32[768,12,64]{2,1,0}, f32[12,64]{1,0}, f32[768,12,64]{2,1,0}, f32[768]{0}, /*index=580*/f32[768]{0}, f32[768]{0}, f32[768]{0}, f32[3072]{0}, f32[768,3072]{1,0}, /*index=585*/f32[768]{0}, f32[3072,768]{1,0}, f32[12,64]{1,0}, f32[768,12,64]{2,1,0}, f32[768]{0}, /*index=590*/f32[12,64,768]{2,1,0}, f32[12,64]{1,0}, f32[768,12,64]{2,1,0}, f32[12,64]{1,0}, f32[768,12,64]{2,1,0}, /*index=595*/f32[768]{0}, f32[768]{0}, f32[768]{0}, f32[768]{0}, f32[3072]{0}, /*index=600*/f32[768,3072]{1,0}, f32[768]{0}, f32[3072,768]{1,0}, f32[12,64]{1,0}, f32[768,12,64]{2,1,0}, /*index=605*/f32[768]{0}, f32[12,64,768]{2,1,0}, f32[12,64]{1,0}, f32[768,12,64]{2,1,0}, f32[12,64]{1,0}, /*index=610*/f32[768,12,64]{2,1,0}, f32[768]{0}, f32[16,16,3,768]{3,2,1,0}, f32[2048]{0}, f32[768,2048]{1,0}, /*index=615*/f32[1,196,768]{2,1,0}, f32[256000,2048]{1,0}, f32[2048]{0}, f32[18,8,256,2048]{3,2,1,0}, f32[18,2,1,2048,256]{4,3,2,1,0}, /*index=620*/f32[18,8,2048,256]{3,2,1,0}, f32[18,2,2048,16384]{3,2,1,0}, f32[18,16384,2048]{2,1,0}, f32[18,2048]{1,0}, f32[18,2048]{1,0}, /*index=625*/f32[2,224,224,3]{3,2,1,0}, s32[2,32]{1,0}, s32[2,32]{1,0})->(f32[768]{0}, f32[768]{0}, f32[768]{0}, f32[768]{0}, f32[768]{0}, /*index=5*/f32[768]{0}, f32[3072]{0}, f32[768,3072]{1,0}, f32[768]{0}, f32[3072,768]{1,0}, /*index=10*/f32[12,64]{1,0}, f32[768,12,64]{2,1,0}, f32[768]{0}, f32[12,64,768]{2,1,0}, f32[12,64]{1,0}, /*index=15*/f32[768,12,64]{2,1,0}, f32[12,64]{1,0}, f32[768,12,64]{2,1,0}, f32[768]{0}, f32[768]{0}, /*index=20*/f32[768]{0}, f32[768]{0}, f32[3072]{0}, f32[768,3072]{1,0}, f32[768]{0}, /*index=25*/f32[3072,768]{1,0}, f32[12,64]{1,0}, f32[768,12,64]{2,1,0}, f32[768]{0}, f32[12,64,768]{2,1,0}, /*index=30*/f32[12,64]{1,0}, f32[768,12,64]{2,1,0}, f32[12,64]{1,0}, f32[768,12,64]{2,1,0}, f32[768]{0}, /*index=35*/f32[768]{0}, f32[768]{0}, f32[768]{0}, f32[3072]{0}, f32[768,3072]{1,0}, /*index=40*/f32[768]{0}, f32[3072,768]{1,0}, f32[12,64]{1,0}, f32[768,12,64]{2,1,0}, f32[768]{0}, /*index=45*/f32[12,64,768]{2,1,0}, f32[12,64]{1,0}, f32[768,12,64]{2,1,0}, f32[12,64]{1,0}, f32[768,12,64]{2,1,0}, /*index=50*/f32[768]{0}, f32[768]{0}, f32[768]{0}, f32[768]{0}, f32[3072]{0}, /*index=55*/f32[768,3072]{1,0}, f32[768]{0}, f32[3072,768]{1,0}, f32[12,64]{1,0}, f32[768,12,64]{2,1,0}, /*index=60*/f32[768]{0}, f32[12,64,768]{2,1,0}, f32[12,64]{1,0}, f32[768,12,64]{2,1,0}, f32[12,64]{1,0}, /*index=65*/f32[768,12,64]{2,1,0}, f32[768]{0}, f32[768]{0}, f32[768]{0}, f32[768]{0}, /*index=70*/f32[3072]{0}, f32[768,3072]{1,0}, f32[768]{0}, f32[3072,768]{1,0}, f32[12,64]{1,0}, /*index=75*/f32[768,12,64]{2,1,0}, f32[768]{0}, f32[12,64,768]{2,1,0}, f32[12,64]{1,0}, f32[768,12,64]{2,1,0}, /*index=80*/f32[12,64]{1,0}, f32[768,12,64]{2,1,0}, f32[768]{0}, f32[768]{0}, f32[768]{0}, /*index=85*/f32[768]{0}, f32[3072]{0}, f32[768,3072]{1,0}, f32[768]{0}, f32[3072,768]{1,0}, /*index=90*/f32[12,64]{1,0}, f32[768,12,64]{2,1,0}, f32[768]{0}, f32[12,64,768]{2,1,0}, f32[12,64]{1,0}, /*index=95*/f32[768,12,64]{2,1,0}, f32[12,64]{1,0}, f32[768,12,64]{2,1,0}, f32[768]{0}, f32[768]{0}, /*index=100*/f32[768]{0}, f32[768]{0}, f32[3072]{0}, f32[768,3072]{1,0}, f32[768]{0}, /*index=105*/f32[3072,768]{1,0}, f32[12,64]{1,0}, f32[768,12,64]{2,1,0}, f32[768]{0}, f32[12,64,768]{2,1,0}, /*index=110*/f32[12,64]{1,0}, f32[768,12,64]{2,1,0}, f32[12,64]{1,0}, f32[768,12,64]{2,1,0}, f32[768]{0}, /*index=115*/f32[768]{0}, f32[768]{0}, f32[768]{0}, f32[3072]{0}, f32[768,3072]{1,0}, /*index=120*/f32[768]{0}, f32[3072,768]{1,0}, f32[12,64]{1,0}, f32[768,12,64]{2,1,0}, f32[768]{0}, /*index=125*/f32[12,64,768]{2,1,0}, f32[12,64]{1,0}, f32[768,12,64]{2,1,0}, f32[12,64]{1,0}, f32[768,12,64]{2,1,0}, /*index=130*/f32[768]{0}, f32[768]{0}, f32[768]{0}, f32[768]{0}, f32[3072]{0}, /*index=135*/f32[768,3072]{1,0}, f32[768]{0}, f32[3072,768]{1,0}, f32[12,64]{1,0}, f32[768,12,64]{2,1,0}, /*index=140*/f32[768]{0}, f32[12,64,768]{2,1,0}, f32[12,64]{1,0}, f32[768,12,64]{2,1,0}, f32[12,64]{1,0}, /*index=145*/f32[768,12,64]{2,1,0}, f32[768]{0}, f32[768]{0}, f32[768]{0}, f32[768]{0}, /*index=150*/f32[3072]{0}, f32[768,3072]{1,0}, f32[768]{0}, f32[3072,768]{1,0}, f32[12,64]{1,0}, /*index=155*/f32[768,12,64]{2,1,0}, f32[768]{0}, f32[12,64,768]{2,1,0}, f32[12,64]{1,0}, f32[768,12,64]{2,1,0}, /*index=160*/f32[12,64]{1,0}, f32[768,12,64]{2,1,0}, f32[768]{0}, f32[768]{0}, f32[768]{0}, /*index=165*/f32[768]{0}, f32[3072]{0}, f32[768,3072]{1,0}, f32[768]{0}, f32[3072,768]{1,0}, /*index=170*/f32[12,64]{1,0}, f32[768,12,64]{2,1,0}, f32[768]{0}, f32[12,64,768]{2,1,0}, f32[12,64]{1,0}, /*index=175*/f32[768,12,64]{2,1,0}, f32[12,64]{1,0}, f32[768,12,64]{2,1,0}, f32[768]{0}, f32[768]{0}, /*index=180*/f32[768]{0}, f32[768]{0}, f32[3072]{0}, f32[768,3072]{1,0}, f32[768]{0}, /*index=185*/f32[3072,768]{1,0}, f32[12,64]{1,0}, f32[768,12,64]{2,1,0}, f32[768]{0}, f32[12,64,768]{2,1,0}, /*index=190*/f32[12,64]{1,0}, f32[768,12,64]{2,1,0}, f32[12,64]{1,0}, f32[768,12,64]{2,1,0}, f32[768]{0}, /*index=195*/f32[16,16,3,768]{3,2,1,0}, f32[2048]{0}, f32[768,2048]{1,0}, f32[1,196,768]{2,1,0}, f32[256000,2048]{1,0}, /*index=200*/f32[2048]{0}, f32[18,8,256,2048]{3,2,1,0}, f32[18,2,1,2048,256]{4,3,2,1,0}, f32[18,8,2048,256]{3,2,1,0}, f32[18,2,2048,16384]{3,2,1,0}, /*index=205*/f32[18,16384,2048]{2,1,0}, f32[18,2048]{1,0}, f32[18,2048]{1,0}, s32[], f32[768]{0}, /*index=210*/f32[768]{0}, f32[768]{0}, f32[768]{0}, f32[768]{0}, f32[768]{0}, /*index=215*/f32[3072]{0}, f32[768,3072]{1,0}, f32[768]{0}, f32[3072,768]{1,0}, f32[12,64]{1,0}, /*index=220*/f32[768,12,64]{2,1,0}, f32[768]{0}, f32[12,64,768]{2,1,0}, f32[12,64]{1,0}, f32[768,12,64]{2,1,0}, /*index=225*/f32[12,64]{1,0}, f32[768,12,64]{2,1,0}, f32[768]{0}, f32[768]{0}, f32[768]{0}, /*index=230*/f32[768]{0}, f32[3072]{0}, f32[768,3072]{1,0}, f32[768]{0}, f32[3072,768]{1,0}, /*index=235*/f32[12,64]{1,0}, f32[768,12,64]{2,1,0}, f32[768]{0}, f32[12,64,768]{2,1,0}, f32[12,64]{1,0}, /*index=240*/f32[768,12,64]{2,1,0}, f32[12,64]{1,0}, f32[768,12,64]{2,1,0}, f32[768]{0}, f32[768]{0}, /*index=245*/f32[768]{0}, f32[768]{0}, f32[3072]{0}, f32[768,3072]{1,0}, f32[768]{0}, /*index=250*/f32[3072,768]{1,0}, f32[12,64]{1,0}, f32[768,12,64]{2,1,0}, f32[768]{0}, f32[12,64,768]{2,1,0}, /*index=255*/f32[12,64]{1,0}, f32[768,12,64]{2,1,0}, f32[12,64]{1,0}, f32[768,12,64]{2,1,0}, f32[768]{0}, /*index=260*/f32[768]{0}, f32[768]{0}, f32[768]{0}, f32[3072]{0}, f32[768,3072]{1,0}, /*index=265*/f32[768]{0}, f32[3072,768]{1,0}, f32[12,64]{1,0}, f32[768,12,64]{2,1,0}, f32[768]{0}, /*index=270*/f32[12,64,768]{2,1,0}, f32[12,64]{1,0}, f32[768,12,64]{2,1,0}, f32[12,64]{1,0}, f32[768,12,64]{2,1,0}, /*index=275*/f32[768]{0}, f32[768]{0}, f32[768]{0}, f32[768]{0}, f32[3072]{0}, /*index=280*/f32[768,3072]{1,0}, f32[768]{0}, f32[3072,768]{1,0}, f32[12,64]{1,0}, f32[768,12,64]{2,1,0}, /*index=285*/f32[768]{0}, f32[12,64,768]{2,1,0}, f32[12,64]{1,0}, f32[768,12,64]{2,1,0}, f32[12,64]{1,0}, /*index=290*/f32[768,12,64]{2,1,0}, f32[768]{0}, f32[768]{0}, f32[768]{0}, f32[768]{0}, /*index=295*/f32[3072]{0}, f32[768,3072]{1,0}, f32[768]{0}, f32[3072,768]{1,0}, f32[12,64]{1,0}, /*index=300*/f32[768,12,64]{2,1,0}, f32[768]{0}, f32[12,64,768]{2,1,0}, f32[12,64]{1,0}, f32[768,12,64]{2,1,0}, /*index=305*/f32[12,64]{1,0}, f32[768,12,64]{2,1,0}, f32[768]{0}, f32[768]{0}, f32[768]{0}, /*index=310*/f32[768]{0}, f32[3072]{0}, f32[768,3072]{1,0}, f32[768]{0}, f32[3072,768]{1,0}, /*index=315*/f32[12,64]{1,0}, f32[768,12,64]{2,1,0}, f32[768]{0}, f32[12,64,768]{2,1,0}, f32[12,64]{1,0}, /*index=320*/f32[768,12,64]{2,1,0}, f32[12,64]{1,0}, f32[768,12,64]{2,1,0}, f32[768]{0}, f32[768]{0}, /*index=325*/f32[768]{0}, f32[768]{0}, f32[3072]{0}, f32[768,3072]{1,0}, f32[768]{0}, /*index=330*/f32[3072,768]{1,0}, f32[12,64]{1,0}, f32[768,12,64]{2,1,0}, f32[768]{0}, f32[12,64,768]{2,1,0}, /*index=335*/f32[12,64]{1,0}, f32[768,12,64]{2,1,0}, f32[12,64]{1,0}, f32[768,12,64]{2,1,0}, f32[768]{0}, /*index=340*/f32[768]{0}, f32[768]{0}, f32[768]{0}, f32[3072]{0}, f32[768,3072]{1,0}, /*index=345*/f32[768]{0}, f32[3072,768]{1,0}, f32[12,64]{1,0}, f32[768,12,64]{2,1,0}, f32[768]{0}, /*index=350*/f32[12,64,768]{2,1,0}, f32[12,64]{1,0}, f32[768,12,64]{2,1,0}, f32[12,64]{1,0}, f32[768,12,64]{2,1,0}, /*index=355*/f32[768]{0}, f32[768]{0}, f32[768]{0}, f32[768]{0}, f32[3072]{0}, /*index=360*/f32[768,3072]{1,0}, f32[768]{0}, f32[3072,768]{1,0}, f32[12,64]{1,0}, f32[768,12,64]{2,1,0}, /*index=365*/f32[768]{0}, f32[12,64,768]{2,1,0}, f32[12,64]{1,0}, f32[768,12,64]{2,1,0}, f32[12,64]{1,0}, /*index=370*/f32[768,12,64]{2,1,0}, f32[768]{0}, f32[768]{0}, f32[768]{0}, f32[768]{0}, /*index=375*/f32[3072]{0}, f32[768,3072]{1,0}, f32[768]{0}, f32[3072,768]{1,0}, f32[12,64]{1,0}, /*index=380*/f32[768,12,64]{2,1,0}, f32[768]{0}, f32[12,64,768]{2,1,0}, f32[12,64]{1,0}, f32[768,12,64]{2,1,0}, /*index=385*/f32[12,64]{1,0}, f32[768,12,64]{2,1,0}, f32[768]{0}, f32[768]{0}, f32[768]{0}, /*index=390*/f32[768]{0}, f32[3072]{0}, f32[768,3072]{1,0}, f32[768]{0}, f32[3072,768]{1,0}, /*index=395*/f32[12,64]{1,0}, f32[768,12,64]{2,1,0}, f32[768]{0}, f32[12,64,768]{2,1,0}, f32[12,64]{1,0}, /*index=400*/f32[768,12,64]{2,1,0}, f32[12,64]{1,0}, f32[768,12,64]{2,1,0}, f32[768]{0}, f32[16,16,3,768]{3,2,1,0}, /*index=405*/f32[2048]{0}, f32[768,2048]{1,0}, f32[1,196,768]{2,1,0}, f32[256000,2048]{1,0}, f32[2048]{0}, /*index=410*/f32[18,8,256,2048]{3,2,1,0}, f32[18,2,1,2048,256]{4,3,2,1,0}, f32[18,8,2048,256]{3,2,1,0}, f32[18,2,2048,16384]{3,2,1,0}, f32[18,16384,2048]{2,1,0}, /*index=415*/f32[18,2048]{1,0}, f32[18,2048]{1,0}, f32[768]{0}, f32[768]{0}, f32[768]{0}, /*index=420*/f32[768]{0}, f32[768]{0}, f32[768]{0}, f32[3072]{0}, f32[768,3072]{1,0}, /*index=425*/f32[768]{0}, f32[3072,768]{1,0}, f32[12,64]{1,0}, f32[768,12,64]{2,1,0}, f32[768]{0}, /*index=430*/f32[12,64,768]{2,1,0}, f32[12,64]{1,0}, f32[768,12,64]{2,1,0}, f32[12,64]{1,0}, f32[768,12,64]{2,1,0}, /*index=435*/f32[768]{0}, f32[768]{0}, f32[768]{0}, f32[768]{0}, f32[3072]{0}, /*index=440*/f32[768,3072]{1,0}, f32[768]{0}, f32[3072,768]{1,0}, f32[12,64]{1,0}, f32[768,12,64]{2,1,0}, /*index=445*/f32[768]{0}, f32[12,64,768]{2,1,0}, f32[12,64]{1,0}, f32[768,12,64]{2,1,0}, f32[12,64]{1,0}, /*index=450*/f32[768,12,64]{2,1,0}, f32[768]{0}, f32[768]{0}, f32[768]{0}, f32[768]{0}, /*index=455*/f32[3072]{0}, f32[768,3072]{1,0}, f32[768]{0}, f32[3072,768]{1,0}, f32[12,64]{1,0}, /*index=460*/f32[768,12,64]{2,1,0}, f32[768]{0}, f32[12,64,768]{2,1,0}, f32[12,64]{1,0}, f32[768,12,64]{2,1,0}, /*index=465*/f32[12,64]{1,0}, f32[768,12,64]{2,1,0}, f32[768]{0}, f32[768]{0}, f32[768]{0}, /*index=470*/f32[768]{0}, f32[3072]{0}, f32[768,3072]{1,0}, f32[768]{0}, f32[3072,768]{1,0}, /*index=475*/f32[12,64]{1,0}, f32[768,12,64]{2,1,0}, f32[768]{0}, f32[12,64,768]{2,1,0}, f32[12,64]{1,0}, /*index=480*/f32[768,12,64]{2,1,0}, f32[12,64]{1,0}, f32[768,12,64]{2,1,0}, f32[768]{0}, f32[768]{0}, /*index=485*/f32[768]{0}, f32[768]{0}, f32[3072]{0}, f32[768,3072]{1,0}, f32[768]{0}, /*index=490*/f32[3072,768]{1,0}, f32[12,64]{1,0}, f32[768,12,64]{2,1,0}, f32[768]{0}, f32[12,64,768]{2,1,0}, /*index=495*/f32[12,64]{1,0}, f32[768,12,64]{2,1,0}, f32[12,64]{1,0}, f32[768,12,64]{2,1,0}, f32[768]{0}, /*index=500*/f32[768]{0}, f32[768]{0}, f32[768]{0}, f32[3072]{0}, f32[768,3072]{1,0}, /*index=505*/f32[768]{0}, f32[3072,768]{1,0}, f32[12,64]{1,0}, f32[768,12,64]{2,1,0}, f32[768]{0}, /*index=510*/f32[12,64,768]{2,1,0}, f32[12,64]{1,0}, f32[768,12,64]{2,1,0}, f32[12,64]{1,0}, f32[768,12,64]{2,1,0}, /*index=515*/f32[768]{0}, f32[768]{0}, f32[768]{0}, f32[768]{0}, f32[3072]{0}, /*index=520*/f32[768,3072]{1,0}, f32[768]{0}, f32[3072,768]{1,0}, f32[12,64]{1,0}, f32[768,12,64]{2,1,0}, /*index=525*/f32[768]{0}, f32[12,64,768]{2,1,0}, f32[12,64]{1,0}, f32[768,12,64]{2,1,0}, f32[12,64]{1,0}, /*index=530*/f32[768,12,64]{2,1,0}, f32[768]{0}, f32[768]{0}, f32[768]{0}, f32[768]{0}, /*index=535*/f32[3072]{0}, f32[768,3072]{1,0}, f32[768]{0}, f32[3072,768]{1,0}, f32[12,64]{1,0}, /*index=540*/f32[768,12,64]{2,1,0}, f32[768]{0}, f32[12,64,768]{2,1,0}, f32[12,64]{1,0}, f32[768,12,64]{2,1,0}, /*index=545*/f32[12,64]{1,0}, f32[768,12,64]{2,1,0}, f32[768]{0}, f32[768]{0}, f32[768]{0}, /*index=550*/f32[768]{0}, f32[3072]{0}, f32[768,3072]{1,0}, f32[768]{0}, f32[3072,768]{1,0}, /*index=555*/f32[12,64]{1,0}, f32[768,12,64]{2,1,0}, f32[768]{0}, f32[12,64,768]{2,1,0}, f32[12,64]{1,0}, /*index=560*/f32[768,12,64]{2,1,0}, f32[12,64]{1,0}, f32[768,12,64]{2,1,0}, f32[768]{0}, f32[768]{0}, /*index=565*/f32[768]{0}, f32[768]{0}, f32[3072]{0}, f32[768,3072]{1,0}, f32[768]{0}, /*index=570*/f32[3072,768]{1,0}, f32[12,64]{1,0}, f32[768,12,64]{2,1,0}, f32[768]{0}, f32[12,64,768]{2,1,0}, /*index=575*/f32[12,64]{1,0}, f32[768,12,64]{2,1,0}, f32[12,64]{1,0}, f32[768,12,64]{2,1,0}, f32[768]{0}, /*index=580*/f32[768]{0}, f32[768]{0}, f32[768]{0}, f32[3072]{0}, f32[768,3072]{1,0}, /*index=585*/f32[768]{0}, f32[3072,768]{1,0}, f32[12,64]{1,0}, f32[768,12,64]{2,1,0}, f32[768]{0}, /*index=590*/f32[12,64,768]{2,1,0}, f32[12,64]{1,0}, f32[768,12,64]{2,1,0}, f32[12,64]{1,0}, f32[768,12,64]{2,1,0}, /*index=595*/f32[768]{0}, f32[768]{0}, f32[768]{0}, f32[768]{0}, f32[3072]{0}, /*index=600*/f32[768,3072]{1,0}, f32[768]{0}, f32[3072,768]{1,0}, f32[12,64]{1,0}, f32[768,12,64]{2,1,0}, /*index=605*/f32[768]{0}, f32[12,64,768]{2,1,0}, f32[12,64]{1,0}, f32[768,12,64]{2,1,0}, f32[12,64]{1,0}, /*index=610*/f32[768,12,64]{2,1,0}, f32[768]{0}, f32[16,16,3,768]{3,2,1,0}, f32[2048]{0}, f32[768,2048]{1,0}, /*index=615*/f32[1,196,768]{2,1,0}, f32[256000,2048]{1,0}, f32[2048]{0}, f32[18,8,256,2048]{3,2,1,0}, f32[18,2,1,2048,256]{4,3,2,1,0}, /*index=620*/f32[18,8,2048,256]{3,2,1,0}, f32[18,2,2048,16384]{3,2,1,0}, f32[18,16384,2048]{2,1,0}, f32[18,2048]{1,0}, f32[18,2048]{1,0}, /*index=625*/f32[])}, allow_spmd_sharding_propagation_to_parameters={true,true,true,true,true,true,true,true,true,true,true,true,true,true,true,true,true,true,true,true,true,true,true,true,true,true,true,true,true,true,true,true,true,true,true,true,true,true,true,true,true,true,true,true,true,true,true,true,true,true,true,true,true,true,true,true,true,true,true,true,true,true,true,true,true,true,true,true,true,true,true,true,true,true,true,true,true,true,true,true,true,true,true,true,true,true,true,true,true,true,true,true,true,true,true,true,true,true,true,true,true,true,true,true,true,true,true,true,true,true,true,true,true,true,true,true,true,true,true,true,true,true,true,true,true,true,true,true,true,true,true,true,true,true,true,true,true,true,true,true,true,true,true,true,true,true,true,true,true,true,true,true,true,true,true,true,true,true,true,true,true,true,true,true,true,true,true,true,true,true,true,true,true,true,true,true,true,true,true,true,true,true,true,true,true,true,true,true,true,true,true,true,true,true,true,true,true,true,true,true,true,true,true,true,true,true,true,true,true,true,true,true,true,true,true,true,true,true,true,true,true,true,true,true,true,true,true,true,true,true,true,true,true,true,true,true,true,true,true,true,true,true,true,true,true,true,true,true,true,true,true,true,true,true,true,true,true,true,true,true,true,true,true,true,true,true,true,true,true,true,true,true,true,true,true,true,true,true,true,true,true,true,true,true,true,true,true,true,true,true,true,true,true,true,true,true,true,true,true,true,true,true,true,true,true,true,true,true,true,true,true,true,true,true,true,true,true,true,true,true,true,true,true,true,true,true,true,true,true,true,true,true,true,true,true,true,true,true,true,true,true,true,true,true,true,true,true,true,true,true,true,true,true,true,true,true,true,true,true,true,true,true,true,true,true,true,true,true,true,true,true,true,true,true,true,true,true,true,true,true,true,true,true,true,true,true,true,true,true,true,true,true,true,true,true,true,true,true,true,true,true,true,true,true,true,true,true,true,true,true,true,true,true,true,true,true,true,true,true,true,true,true,true,true,true,true,true,true,true,true,true,true,true,true,true,true,true,true,true,true,true,true,true,true,true,true,true,true,true,true,true,true,true,true,true,true,true,true,true,true,true,true,true,true,true,true,true,true,true,true,true,true,true,true,true,true,true,true,true,true,true,true,true,true,true,true,true,true,true,true,true,true,true,true,true,true,true,true,true,true,true,true,true,true,true,true,true,true,true,true,true,true,true,true,true,true,true,true,true,true,true,true,true,true,true,true,true,true,true,true,true,true,true,true,true,true,true,true,true,true,true,true,true,true,true,true,true,true,true,true,true,true,true,true,true,true,true,true,true,true,true,true,true,true,true,true,true,true,true,true,true,true,true,true,true,true,true,true,true,true,true,true,true,true,true,true,true,true,true,true,true,true,true,true,true,true,true,true,true,true,true,true,true,true,true,true,true,true,true,true,true,true,true,true,true,true,true,true,true,true,true,true,true,true,true,true,true,true}, allow_spmd_sharding_propagation_to_output={true,true,true,true,true,true,true,true,true,true,true,true,true,true,true,true,true,true,true,true,true,true,true,true,true,true,true,true,true,true,true,true,true,true,true,true,true,true,true,true,true,true,true,true,true,true,true,true,true,true,true,true,true,true,true,true,true,true,true,true,true,true,true,true,true,true,true,true,true,true,true,true,true,true,true,true,true,true,true,true,true,true,true,true,true,true,true,true,true,true,true,true,true,true,true,true,true,true,true,true,true,true,true,true,true,true,true,true,true,true,true,true,true,true,true,true,true,true,true,true,true,true,true,true,true,true,true,true,true,true,true,true,true,true,true,true,true,true,true,true,true,true,true,true,true,true,true,true,true,true,true,true,true,true,true,true,true,true,true,true,true,true,true,true,true,true,true,true,true,true,true,true,true,true,true,true,true,true,true,true,true,true,true,true,true,true,true,true,true,true,true,true,true,true,true,true,true,true,true,true,true,true,true,true,true,true,true,true,true,true,true,true,true,true,true,true,true,true,true,true,true,true,true,true,true,true,true,true,true,true,true,true,true,true,true,true,true,true,true,true,true,true,true,true,true,true,true,true,true,true,true,true,true,true,true,true,true,true,true,true,true,true,true,true,true,true,true,true,true,true,true,true,true,true,true,true,true,true,true,true,true,true,true,true,true,true,true,true,true,true,true,true,true,true,true,true,true,true,true,true,true,true,true,true,true,true,true,true,true,true,true,true,true,true,true,true,true,true,true,true,true,true,true,true,true,true,true,true,true,true,true,true,true,true,true,true,true,true,true,true,true,true,true,true,true,true,true,true,true,true,true,true,true,true,true,true,true,true,true,true,true,true,true,true,true,true,true,true,true,true,true,true,true,true,true,true,true,true,true,true,true,true,true,true,true,true,true,true,true,true,true,true,true,true,true,true,true,true,true,true,true,true,true,true,true,true,true,true,true,true,true,true,true,true,true,true,true,true,true,true,true,true,true,true,true,true,true,true,true,true,true,true,true,true,true,true,true,true,true,true,true,true,true,true,true,true,true,true,true,true,true,true,true,true,true,true,true,true,true,true,true,true,true,true,true,true,true,true,true,true,true,true,true,true,true,true,true,true,true,true,true,true,true,true,true,true,true,true,true,true,true,true,true,true,true,true,true,true,true,true,true,true,true,true,true,true,true,true,true,true,true,true,true,true,true,true,true,true,true,true,true,true,true,true,true,true,true,true,true,true,true,true,true,true,true,true,true,true,true,true,true,true,true,true,true,true,true,true,true,true,true,true,true,true,true,true,true,true,true,true,true,true,true,true,true,true,true,true,true,true,true,true,true,true,true,true,true,true,true,true,true,true,true,true,true,true,true,true,true,true,true,true,true,true,true,true,true,true,true,true,true,true,true,true,true,true,true,true,true,true,true,true,true,true,true,true,true,true,true,true,true,true,true,true,true,true}

FileNames
1 "/root/hlo_dump/bv_paligemma_dump.py"
2 "/root/big_vision/big_vision/models/proj/paligemma/paligemma.py"
3 "/root/big_vision/big_vision/models/vit.py"
4 "/usr/local/lib/python3.12/dist-packages/flax/linen/normalization.py"
5 "/usr/local/lib/python3.12/dist-packages/flax/linen/attention.py"
6 "/root/big_vision/big_vision/models/proj/paligemma/gemma_bv.py"
7 "/root/big_vision/big_vision/models/ppp/gemma.py"
8 "/usr/local/lib/python3.12/dist-packages/flax/core/axes_scan.py"
9 "/usr/local/lib/python3.12/dist-packages/einops/einops.py"
10 "/usr/local/lib/python3.12/dist-packages/einops/_backends.py"
11 "/usr/local/lib/python3.12/dist-packages/optax/losses/_classification.py"
12 "/usr/local/lib/python3.12/dist-packages/flax/linen/linear.py"
13 "/usr/local/lib/python3.12/dist-packages/optax/transforms/_combining.py"
14 "/usr/local/lib/python3.12/dist-packages/optax/_src/base.py"
15 "/usr/local/lib/python3.12/dist-packages/optax/_src/transform.py"
16 "/usr/local/lib/python3.12/dist-packages/optax/tree_utils/_tree_math.py"
17 "/usr/local/lib/python3.12/dist-packages/optax/_src/numerics.py"
18 "/usr/local/lib/python3.12/dist-packages/optax/transforms/_adding.py"
19 "/usr/local/lib/python3.12/dist-packages/optax/_src/update.py"

FunctionNames
1 "<module>"
2 "train_step"
3 "train_step.<locals>.loss_fn"
4 "Model.__call__"
5 "Model.embed_image_and_text"
6 "Model.embed_image"
7 "_Model.__call__"
8 "Encoder.__call__"
9 "Encoder1DBlock.__call__"
10 "LayerNorm.__call__"
11 "_compute_stats"
12 "_compute_stats.<locals>.maybe_distributed_mean"
13 "_compute_stats.<locals>.maybe_distributed_mean.<locals>.<genexpr>"
14 "MultiHeadDotProductAttention.__call__"
15 "dot_product_attention"
16 "dot_product_attention_weights"
17 "scan.<locals>.scan_fn"
18 "Block.__call__"
19 "RMSNorm.__call__"
20 "Attention.__call__"
21 "Einsum.__call__"
22 "_apply_rope"
23 "rearrange"
24 "reduce"
25 "_apply_recipe"
26 "AbstractBackend.reshape"
27 "FeedForward.__call__"
28 "softmax_cross_entropy_with_integer_labels"
29 "scan.<locals>.scan_fn.<locals>.body_fn"
30 "Model.embed_text"
31 "Model.embed_tokens"
32 "Embedder.encode"
33 "Dense.__call__"
34 "_normalize"
35 "MlpBlock.__call__"
36 "DenseGeneral.__call__"
37 "_Conv.__call__"
38 "_abs_sq"
39 "make_attn_mask"
40 "Model.compute_logits"
41 "Embedder.decode"
42 "chain.<locals>.update_fn"
43 "with_extra_args_support.<locals>.update"
44 "scale_by_adam.<locals>.update_fn"
45 "tree_update_moment"
46 "tree_update_moment.<locals>.<lambda>"
47 "safe_increment"
48 "tree_update_moment_per_elem_norm"
49 "tree_update_moment_per_elem_norm.<locals>.<lambda>"
50 "tree_update_moment_per_elem_norm.<locals>.orderth_norm"
51 "scale_by_adam.<locals>.update_fn.<locals>.<lambda>"
52 "add_decayed_weights.<locals>.update_fn"
53 "add_decayed_weights.<locals>.update_fn.<locals>.<lambda>"
54 "scale.<locals>.update_fn"
55 "scale.<locals>.update_fn.<locals>.<lambda>"
56 "apply_updates"
57 "apply_updates.<locals>.<lambda>"

FileLocations
1 {file_name_id=1 function_name_id=1 line=49 end_line=49 column=17 end_column=71}
2 {file_name_id=1 function_name_id=2 line=45 end_line=45 column=22 end_column=57}
3 {file_name_id=1 function_name_id=3 line=39 end_line=40 column=24 end_column=71}
4 {file_name_id=2 function_name_id=4 line=146 end_line=147 column=36 end_column=50}
5 {file_name_id=2 function_name_id=5 line=114 end_line=114 column=20 end_column=56}
6 {file_name_id=2 function_name_id=6 line=80 end_line=80 column=20 end_column=55}
7 {file_name_id=3 function_name_id=7 line=230 end_line=239 column=24 end_column=39}
8 {file_name_id=3 function_name_id=8 line=157 end_line=157 column=36 end_column=63}
9 {file_name_id=3 function_name_id=9 line=92 end_line=92 column=8 end_column=25}
10 {file_name_id=4 function_name_id=10 line=512 end_line=521 column=16 end_column=5}
11 {file_name_id=4 function_name_id=11 line=139 end_line=139 column=16 end_column=64}
12 {file_name_id=4 function_name_id=12 line=122 end_line=122 column=10 end_column=53}
13 {file_name_id=4 function_name_id=13 line=122 end_line=122 column=16 end_column=40}
14 {file_name_id=3 function_name_id=9 line=93 end_line=98 column=20 end_column=11}
15 {file_name_id=5 function_name_id=14 line=674 end_line=674 column=10 end_column=54}
16 {file_name_id=5 function_name_id=15 line=266 end_line=281 column=17 end_column=3}
17 {file_name_id=5 function_name_id=16 line=146 end_line=146 column=19 end_column=47}
18 {file_name_id=3 function_name_id=9 line=103 end_line=103 column=8 end_column=25}
19 {file_name_id=3 function_name_id=8 line=160 end_line=160 column=11 end_column=47}
20 {file_name_id=2 function_name_id=4 line=151 end_line=151 column=17 end_column=58}
21 {file_name_id=6 function_name_id=4 line=88 end_line=93 column=18 end_column=5}
22 {file_name_id=7 function_name_id=4 line=564 end_line=565 column=27 end_column=69}
23 {file_name_id=8 function_name_id=17 line=200 end_line=203 column=14 end_column=7}
24 {file_name_id=7 function_name_id=18 line=406 end_line=406 column=24 end_column=50}
25 {file_name_id=7 function_name_id=19 line=219 end_line=219 column=10 end_column=57}
26 {file_name_id=7 function_name_id=18 line=407 end_line=408 column=18 end_column=50}
27 {file_name_id=7 function_name_id=20 line=327 end_line=327 column=12 end_column=50}
28 {file_name_id=7 function_name_id=18 line=414 end_line=414 column=18 end_column=48}
29 {file_name_id=7 function_name_id=19 line=219 end_line=219 column=19 end_column=32}
30 {file_name_id=7 function_name_id=19 line=220 end_line=220 column=60 end_column=71}
31 {file_name_id=7 function_name_id=19 line=220 end_line=220 column=51 end_column=72}
32 {file_name_id=7 function_name_id=19 line=220 end_line=220 column=36 end_column=73}
33 {file_name_id=7 function_name_id=19 line=220 end_line=220 column=32 end_column=73}
34 {file_name_id=7 function_name_id=19 line=221 end_line=221 column=37 end_column=46}
35 {file_name_id=7 function_name_id=19 line=221 end_line=221 column=20 end_column=47}
36 {file_name_id=7 function_name_id=20 line=291 end_line=291 column=13 end_column=49}
37 {file_name_id=7 function_name_id=21 line=211 end_line=211 column=11 end_column=32}
38 {file_name_id=7 function_name_id=20 line=291 end_line=291 column=6 end_column=10}
39 {file_name_id=7 function_name_id=20 line=303 end_line=303 column=8 end_column=43}
40 {file_name_id=7 function_name_id=22 line=156 end_line=156 column=11 end_column=35}
41 {file_name_id=7 function_name_id=22 line=157 end_line=157 column=25 end_column=33}
42 {file_name_id=7 function_name_id=22 line=157 end_line=157 column=36 end_column=44}
43 {file_name_id=7 function_name_id=22 line=157 end_line=157 column=46 end_column=54}
44 {file_name_id=7 function_name_id=22 line=157 end_line=157 column=57 end_column=65}
45 {file_name_id=7 function_name_id=22 line=157 end_line=157 column=8 end_column=76}
46 {file_name_id=7 function_name_id=20 line=290 end_line=290 column=10 end_column=43}
47 {file_name_id=7 function_name_id=20 line=293 end_line=293 column=8 end_column=43}
48 {file_name_id=7 function_name_id=20 line=295 end_line=295 column=6 end_column=30}
49 {file_name_id=7 function_name_id=20 line=309 end_line=309 column=8 end_column=76}
50 {file_name_id=9 function_name_id=23 line=616 end_line=616 column=11 end_column=73}
51 {file_name_id=9 function_name_id=24 line=540 end_line=542 column=15 end_column=9}
52 {file_name_id=9 function_name_id=25 line=243 end_line=243 column=17 end_column=53}
53 {file_name_id=10 function_name_id=26 line=96 end_line=96 column=15 end_column=31}
54 {file_name_id=7 function_name_id=20 line=310 end_line=310 column=13 end_column=50}
55 {file_name_id=7 function_name_id=20 line=325 end_line=325 column=20 end_column=75}
56 {file_name_id=7 function_name_id=20 line=329 end_line=329 column=14 end_column=55}
57 {file_name_id=7 function_name_id=20 line=330 end_line=330 column=14 end_column=67}
58 {file_name_id=9 function_name_id=25 line=251 end_line=251 column=17 end_column=54}
59 {file_name_id=7 function_name_id=20 line=331 end_line=331 column=18 end_column=64}
60 {file_name_id=7 function_name_id=18 line=412 end_line=412 column=4 end_column=20}
61 {file_name_id=7 function_name_id=18 line=415 end_line=415 column=14 end_column=35}
62 {file_name_id=7 function_name_id=27 line=349 end_line=349 column=25 end_column=36}
63 {file_name_id=7 function_name_id=27 line=349 end_line=349 column=14 end_column=37}
64 {file_name_id=7 function_name_id=27 line=350 end_line=350 column=17 end_column=33}
65 {file_name_id=7 function_name_id=27 line=352 end_line=352 column=21 end_column=32}
66 {file_name_id=7 function_name_id=27 line=352 end_line=352 column=10 end_column=33}
67 {file_name_id=7 function_name_id=27 line=353 end_line=353 column=18 end_column=34}
68 {file_name_id=7 function_name_id=27 line=360 end_line=360 column=14 end_column=44}
69 {file_name_id=7 function_name_id=18 line=419 end_line=419 column=14 end_column=32}
70 {file_name_id=7 function_name_id=4 line=570 end_line=570 column=8 end_column=37}
71 {file_name_id=1 function_name_id=3 line=43 end_line=44 column=19 end_column=35}
72 {file_name_id=11 function_name_id=28 line=403 end_line=403 column=20 end_column=68}
73 {file_name_id=1 function_name_id=3 line=44 end_line=44 column=36 end_column=42}
74 {file_name_id=8 function_name_id=29 line=157 end_line=157 column=29 end_column=53}
75 {file_name_id=7 function_name_id=20 line=325 end_line=325 column=30 end_column=57}
76 {file_name_id=7 function_name_id=22 line=152 end_line=152 column=12 end_column=59}
77 {file_name_id=7 function_name_id=22 line=150 end_line=150 column=40 end_column=68}
78 {file_name_id=7 function_name_id=22 line=150 end_line=150 column=19 end_column=68}
79 {file_name_id=7 function_name_id=22 line=151 end_line=151 column=15 end_column=47}
80 {file_name_id=7 function_name_id=22 line=152 end_line=152 column=35 end_column=59}
81 {file_name_id=7 function_name_id=22 line=153 end_line=153 column=12 end_column=33}
82 {file_name_id=7 function_name_id=22 line=155 end_line=155 column=31 end_column=47}
83 {file_name_id=7 function_name_id=22 line=155 end_line=155 column=13 end_column=29}
84 {file_name_id=2 function_name_id=5 line=115 end_line=115 column=20 end_column=54}
85 {file_name_id=2 function_name_id=30 line=92 end_line=92 column=29 end_column=72}
86 {file_name_id=6 function_name_id=31 line=74 end_line=74 column=11 end_column=71}
87 {file_name_id=7 function_name_id=4 line=495 end_line=495 column=15 end_column=38}
88 {file_name_id=7 function_name_id=32 line=241 end_line=241 column=8 end_column=40}
89 {file_name_id=3 function_name_id=7 line=274 end_line=274 column=26 end_column=33}
90 {file_name_id=12 function_name_id=33 line=294 end_line=294 column=6 end_column=57}
91 {file_name_id=4 function_name_id=10 line=523 end_line=538 column=11 end_column=5}
92 {file_name_id=4 function_name_id=34 line=223 end_line=223 column=4 end_column=13}
93 {file_name_id=4 function_name_id=34 line=214 end_line=214 column=4 end_column=16}
94 {file_name_id=4 function_name_id=34 line=205 end_line=205 column=6 end_column=14}
95 {file_name_id=4 function_name_id=34 line=204 end_line=204 column=8 end_column=44}
96 {file_name_id=4 function_name_id=34 line=203 end_line=203 column=9 end_column=46}
97 {file_name_id=3 function_name_id=9 line=104 end_line=107 column=21 end_column=23}
98 {file_name_id=3 function_name_id=35 line=77 end_line=77 column=8 end_column=52}
99 {file_name_id=3 function_name_id=35 line=72 end_line=72 column=8 end_column=72}
100 {file_name_id=5 function_name_id=14 line=676 end_line=688 column=10 end_column=8}
101 {file_name_id=12 function_name_id=36 line=210 end_line=210 column=6 end_column=17}
102 {file_name_id=5 function_name_id=14 line=551 end_line=551 column=6 end_column=35}
103 {file_name_id=5 function_name_id=14 line=550 end_line=550 column=6 end_column=33}
104 {file_name_id=5 function_name_id=14 line=549 end_line=549 column=6 end_column=35}
105 {file_name_id=3 function_name_id=7 line=220 end_line=221 column=29 end_column=63}
106 {file_name_id=3 function_name_id=7 line=212 end_line=214 column=22 end_column=70}
107 {file_name_id=12 function_name_id=37 line=726 end_line=726 column=6 end_column=15}
108 {file_name_id=12 function_name_id=37 line=700 end_line=710 column=10 end_column=7}
109 {file_name_id=12 function_name_id=37 line=725 end_line=725 column=13 end_column=67}
110 {file_name_id=3 function_name_id=7 line=217 end_line=217 column=8 end_column=37}
111 {file_name_id=4 function_name_id=11 line=139 end_line=139 column=42 end_column=52}
112 {file_name_id=4 function_name_id=38 line=57 end_line=57 column=11 end_column=24}
113 {file_name_id=4 function_name_id=11 line=142 end_line=142 column=35 end_column=46}
114 {file_name_id=4 function_name_id=11 line=142 end_line=142 column=29 end_column=46}
115 {file_name_id=4 function_name_id=11 line=142 end_line=142 column=12 end_column=47}
116 {file_name_id=4 function_name_id=34 line=206 end_line=206 column=18 end_column=31}
117 {file_name_id=4 function_name_id=34 line=206 end_line=206 column=8 end_column=32}
118 {file_name_id=4 function_name_id=34 line=211 end_line=211 column=6 end_column=28}
119 {file_name_id=4 function_name_id=34 line=216 end_line=216 column=2 end_column=10}
120 {file_name_id=4 function_name_id=34 line=220 end_line=220 column=6 end_column=28}
121 {file_name_id=12 function_name_id=36 line=199 end_line=204 column=10 end_column=5}
122 {file_name_id=12 function_name_id=36 line=209 end_line=209 column=13 end_column=63}
123 {file_name_id=5 function_name_id=16 line=130 end_line=130 column=10 end_column=47}
124 {file_name_id=5 function_name_id=16 line=132 end_line=132 column=17 end_column=60}
125 {file_name_id=5 function_name_id=15 line=291 end_line=295 column=9 end_column=3}
126 {file_name_id=3 function_name_id=9 line=101 end_line=101 column=21 end_column=26}
127 {file_name_id=12 function_name_id=33 line=287 end_line=292 column=8 end_column=5}
128 {file_name_id=12 function_name_id=33 line=294 end_line=294 column=11 end_column=57}
129 {file_name_id=3 function_name_id=35 line=75 end_line=75 column=8 end_column=18}
130 {file_name_id=3 function_name_id=9 line=110 end_line=110 column=22 end_column=27}
131 {file_name_id=7 function_name_id=32 line=242 end_line=242 column=4 end_column=49}
132 {file_name_id=7 function_name_id=4 line=497 end_line=497 column=8 end_column=35}
133 {file_name_id=7 function_name_id=4 line=509 end_line=509 column=18 end_column=37}
134 {file_name_id=2 function_name_id=5 line=126 end_line=126 column=14 end_column=60}
135 {file_name_id=2 function_name_id=4 line=150 end_line=150 column=35 end_column=70}
136 {file_name_id=2 function_name_id=39 line=48 end_line=48 column=11 end_column=38}
137 {file_name_id=2 function_name_id=39 line=49 end_line=49 column=15 end_column=33}
138 {file_name_id=2 function_name_id=39 line=49 end_line=49 column=37 end_column=55}
139 {file_name_id=2 function_name_id=5 line=118 end_line=118 column=19 end_column=45}
140 {file_name_id=2 function_name_id=5 line=127 end_line=127 column=17 end_column=69}
141 {file_name_id=2 function_name_id=39 line=50 end_line=50 column=16 end_column=38}
142 {file_name_id=2 function_name_id=39 line=50 end_line=50 column=41 end_column=63}
143 {file_name_id=2 function_name_id=39 line=51 end_line=51 column=9 end_column=47}
144 {file_name_id=2 function_name_id=4 line=157 end_line=157 column=22 end_column=65}
145 {file_name_id=2 function_name_id=4 line=158 end_line=158 column=18 end_column=72}
146 {file_name_id=6 function_name_id=40 line=77 end_line=77 column=11 end_column=75}
147 {file_name_id=7 function_name_id=4 line=488 end_line=488 column=31 end_column=49}
148 {file_name_id=7 function_name_id=41 line=246 end_line=246 column=22 end_column=50}
149 {file_name_id=7 function_name_id=41 line=246 end_line=246 column=11 end_column=51}
150 {file_name_id=1 function_name_id=3 line=41 end_line=41 column=21 end_column=47}
151 {file_name_id=11 function_name_id=28 line=401 end_line=401 column=14 end_column=43}
152 {file_name_id=11 function_name_id=28 line=400 end_line=402 column=17 end_column=3}
153 {file_name_id=11 function_name_id=28 line=402 end_line=402 column=4 end_column=22}
154 {file_name_id=11 function_name_id=28 line=404 end_line=404 column=8 end_column=38}
155 {file_name_id=7 function_name_id=4 line=515 end_line=515 column=13 end_column=32}
156 {file_name_id=2 function_name_id=5 line=123 end_line=123 column=8 end_column=45}
157 {file_name_id=1 function_name_id=2 line=46 end_line=46 column=29 end_column=64}
158 {file_name_id=13 function_name_id=42 line=90 end_line=90 column=23 end_column=59}
159 {file_name_id=14 function_name_id=43 line=339 end_line=339 column=11 end_column=44}
160 {file_name_id=15 function_name_id=44 line=283 end_line=283 column=9 end_column=59}
161 {file_name_id=16 function_name_id=45 line=396 end_line=403 column=9 end_column=3}
162 {file_name_id=16 function_name_id=46 line=398 end_line=398 column=10 end_column=34}
163 {file_name_id=16 function_name_id=46 line=398 end_line=398 column=37 end_column=46}
164 {file_name_id=15 function_name_id=44 line=285 end_line=285 column=16 end_column=52}
165 {file_name_id=17 function_name_id=47 line=143 end_line=143 column=19 end_column=36}
166 {file_name_id=17 function_name_id=47 line=143 end_line=143 column=38 end_column=49}
167 {file_name_id=17 function_name_id=47 line=143 end_line=143 column=9 end_column=61}
168 {file_name_id=15 function_name_id=44 line=294 end_line=294 column=15 end_column=60}
169 {file_name_id=15 function_name_id=44 line=284 end_line=284 column=9 end_column=73}
170 {file_name_id=16 function_name_id=48 line=431 end_line=438 column=9 end_column=3}
171 {file_name_id=16 function_name_id=49 line=433 end_line=433 column=24 end_column=39}
172 {file_name_id=16 function_name_id=50 line=423 end_line=423 column=13 end_column=23}
173 {file_name_id=16 function_name_id=49 line=433 end_line=433 column=10 end_column=39}
174 {file_name_id=16 function_name_id=49 line=433 end_line=433 column=42 end_column=51}
175 {file_name_id=15 function_name_id=44 line=298 end_line=298 column=13 end_column=58}
176 {file_name_id=15 function_name_id=44 line=299 end_line=304 column=14 end_column=5}
177 {file_name_id=15 function_name_id=51 line=300 end_line=300 column=49 end_column=77}
178 {file_name_id=15 function_name_id=51 line=300 end_line=300 column=44 end_column=78}
179 {file_name_id=18 function_name_id=52 line=72 end_line=77 column=14 end_column=5}
180 {file_name_id=18 function_name_id=53 line=73 end_line=73 column=48 end_column=53}
181 {file_name_id=18 function_name_id=53 line=73 end_line=73 column=44 end_column=53}
182 {file_name_id=15 function_name_id=54 line=507 end_line=507 column=14 end_column=60}
183 {file_name_id=15 function_name_id=55 line=507 end_line=507 column=37 end_column=50}
184 {file_name_id=1 function_name_id=2 line=47 end_line=47 column=17 end_column=53}
185 {file_name_id=19 function_name_id=56 line=40 end_line=47 column=9 end_column=3}
186 {file_name_id=19 function_name_id=57 line=42 end_line=42 column=45 end_column=50}

StackFrames
1 {file_location_id=1 parent_frame_id=1}
2 {file_location_id=2 parent_frame_id=2}
3 {file_location_id=3 parent_frame_id=3}
4 {file_location_id=4 parent_frame_id=4}
5 {file_location_id=5 parent_frame_id=5}
6 {file_location_id=6 parent_frame_id=6}
7 {file_location_id=7 parent_frame_id=7}
8 {file_location_id=8 parent_frame_id=8}
9 {file_location_id=9 parent_frame_id=9}
10 {file_location_id=10 parent_frame_id=10}
11 {file_location_id=11 parent_frame_id=11}
12 {file_location_id=12 parent_frame_id=12}
13 {file_location_id=13 parent_frame_id=13}
14 {file_location_id=14 parent_frame_id=9}
15 {file_location_id=15 parent_frame_id=15}
16 {file_location_id=16 parent_frame_id=16}
17 {file_location_id=17 parent_frame_id=17}
18 {file_location_id=18 parent_frame_id=9}
19 {file_location_id=10 parent_frame_id=19}
20 {file_location_id=11 parent_frame_id=20}
21 {file_location_id=12 parent_frame_id=21}
22 {file_location_id=13 parent_frame_id=22}
23 {file_location_id=19 parent_frame_id=8}
24 {file_location_id=10 parent_frame_id=24}
25 {file_location_id=11 parent_frame_id=25}
26 {file_location_id=12 parent_frame_id=26}
27 {file_location_id=13 parent_frame_id=27}
28 {file_location_id=2 parent_frame_id=1}
29 {file_location_id=3 parent_frame_id=29}
30 {file_location_id=20 parent_frame_id=30}
31 {file_location_id=21 parent_frame_id=31}
32 {file_location_id=22 parent_frame_id=32}
33 {file_location_id=23 parent_frame_id=33}
34 {file_location_id=24 parent_frame_id=1}
35 {file_location_id=25 parent_frame_id=35}
36 {file_location_id=26 parent_frame_id=1}
37 {file_location_id=27 parent_frame_id=37}
38 {file_location_id=28 parent_frame_id=1}
39 {file_location_id=25 parent_frame_id=39}
40 {file_location_id=29 parent_frame_id=35}
41 {file_location_id=30 parent_frame_id=35}
42 {file_location_id=31 parent_frame_id=35}
43 {file_location_id=32 parent_frame_id=35}
44 {file_location_id=33 parent_frame_id=35}
45 {file_location_id=34 parent_frame_id=35}
46 {file_location_id=35 parent_frame_id=35}
47 {file_location_id=36 parent_frame_id=37}
48 {file_location_id=37 parent_frame_id=48}
49 {file_location_id=38 parent_frame_id=37}
50 {file_location_id=39 parent_frame_id=37}
51 {file_location_id=40 parent_frame_id=51}
52 {file_location_id=41 parent_frame_id=51}
53 {file_location_id=42 parent_frame_id=51}
54 {file_location_id=43 parent_frame_id=51}
55 {file_location_id=44 parent_frame_id=51}
56 {file_location_id=45 parent_frame_id=51}
57 {file_location_id=46 parent_frame_id=37}
58 {file_location_id=37 parent_frame_id=58}
59 {file_location_id=47 parent_frame_id=37}
60 {file_location_id=40 parent_frame_id=60}
61 {file_location_id=41 parent_frame_id=60}
62 {file_location_id=42 parent_frame_id=60}
63 {file_location_id=43 parent_frame_id=60}
64 {file_location_id=44 parent_frame_id=60}
65 {file_location_id=45 parent_frame_id=60}
66 {file_location_id=48 parent_frame_id=37}
67 {file_location_id=49 parent_frame_id=37}
68 {file_location_id=50 parent_frame_id=68}
69 {file_location_id=51 parent_frame_id=69}
70 {file_location_id=52 parent_frame_id=70}
71 {file_location_id=53 parent_frame_id=71}
72 {file_location_id=54 parent_frame_id=37}
73 {file_location_id=55 parent_frame_id=37}
74 {file_location_id=56 parent_frame_id=37}
75 {file_location_id=57 parent_frame_id=37}
76 {file_location_id=50 parent_frame_id=76}
77 {file_location_id=51 parent_frame_id=77}
78 {file_location_id=58 parent_frame_id=78}
79 {file_location_id=53 parent_frame_id=79}
80 {file_location_id=59 parent_frame_id=37}
81 {file_location_id=37 parent_frame_id=81}
82 {file_location_id=60 parent_frame_id=1}
83 {file_location_id=29 parent_frame_id=39}
84 {file_location_id=30 parent_frame_id=39}
85 {file_location_id=31 parent_frame_id=39}
86 {file_location_id=32 parent_frame_id=39}
87 {file_location_id=33 parent_frame_id=39}
88 {file_location_id=34 parent_frame_id=39}
89 {file_location_id=35 parent_frame_id=39}
90 {file_location_id=61 parent_frame_id=1}
91 {file_location_id=62 parent_frame_id=91}
92 {file_location_id=63 parent_frame_id=91}
93 {file_location_id=64 parent_frame_id=91}
94 {file_location_id=65 parent_frame_id=91}
95 {file_location_id=66 parent_frame_id=91}
96 {file_location_id=67 parent_frame_id=91}
97 {file_location_id=68 parent_frame_id=91}
98 {file_location_id=69 parent_frame_id=1}
99 {file_location_id=20 parent_frame_id=4}
100 {file_location_id=21 parent_frame_id=100}
101 {file_location_id=22 parent_frame_id=101}
102 {file_location_id=23 parent_frame_id=102}
103 {file_location_id=2 parent_frame_id=103}
104 {file_location_id=3 parent_frame_id=104}
105 {file_location_id=20 parent_frame_id=105}
106 {file_location_id=21 parent_frame_id=106}
107 {file_location_id=22 parent_frame_id=107}
108 {file_location_id=23 parent_frame_id=108}
109 {file_location_id=2 parent_frame_id=109}
110 {file_location_id=3 parent_frame_id=110}
111 {file_location_id=20 parent_frame_id=111}
112 {file_location_id=21 parent_frame_id=112}
113 {file_location_id=22 parent_frame_id=113}
114 {file_location_id=23 parent_frame_id=114}
115 {file_location_id=70 parent_frame_id=101}
116 {file_location_id=25 parent_frame_id=116}
117 {file_location_id=71 parent_frame_id=3}
118 {file_location_id=72 parent_frame_id=118}
119 {file_location_id=73 parent_frame_id=3}
120 {file_location_id=35 parent_frame_id=116}
121 {file_location_id=33 parent_frame_id=116}
122 {file_location_id=74 parent_frame_id=1}
123 {file_location_id=24 parent_frame_id=123}
124 {file_location_id=25 parent_frame_id=124}
125 {file_location_id=26 parent_frame_id=123}
126 {file_location_id=27 parent_frame_id=126}
127 {file_location_id=28 parent_frame_id=123}
128 {file_location_id=25 parent_frame_id=128}
129 {file_location_id=35 parent_frame_id=128}
130 {file_location_id=33 parent_frame_id=128}
131 {file_location_id=35 parent_frame_id=124}
132 {file_location_id=33 parent_frame_id=124}
133 {file_location_id=29 parent_frame_id=124}
134 {file_location_id=30 parent_frame_id=124}
135 {file_location_id=31 parent_frame_id=124}
136 {file_location_id=32 parent_frame_id=124}
137 {file_location_id=34 parent_frame_id=124}
138 {file_location_id=36 parent_frame_id=126}
139 {file_location_id=37 parent_frame_id=139}
140 {file_location_id=38 parent_frame_id=126}
141 {file_location_id=75 parent_frame_id=126}
142 {file_location_id=39 parent_frame_id=126}
143 {file_location_id=40 parent_frame_id=143}
144 {file_location_id=76 parent_frame_id=143}
145 {file_location_id=77 parent_frame_id=143}
146 {file_location_id=78 parent_frame_id=143}
147 {file_location_id=79 parent_frame_id=143}
148 {file_location_id=80 parent_frame_id=143}
149 {file_location_id=81 parent_frame_id=143}
150 {file_location_id=82 parent_frame_id=143}
151 {file_location_id=41 parent_frame_id=143}
152 {file_location_id=83 parent_frame_id=143}
153 {file_location_id=42 parent_frame_id=143}
154 {file_location_id=43 parent_frame_id=143}
155 {file_location_id=44 parent_frame_id=143}
156 {file_location_id=45 parent_frame_id=143}
157 {file_location_id=46 parent_frame_id=126}
158 {file_location_id=37 parent_frame_id=158}
159 {file_location_id=47 parent_frame_id=126}
160 {file_location_id=40 parent_frame_id=160}
161 {file_location_id=76 parent_frame_id=160}
162 {file_location_id=77 parent_frame_id=160}
163 {file_location_id=78 parent_frame_id=160}
164 {file_location_id=79 parent_frame_id=160}
165 {file_location_id=80 parent_frame_id=160}
166 {file_location_id=81 parent_frame_id=160}
167 {file_location_id=82 parent_frame_id=160}
168 {file_location_id=41 parent_frame_id=160}
169 {file_location_id=83 parent_frame_id=160}
170 {file_location_id=42 parent_frame_id=160}
171 {file_location_id=43 parent_frame_id=160}
172 {file_location_id=44 parent_frame_id=160}
173 {file_location_id=45 parent_frame_id=160}
174 {file_location_id=48 parent_frame_id=126}
175 {file_location_id=49 parent_frame_id=126}
176 {file_location_id=50 parent_frame_id=176}
177 {file_location_id=51 parent_frame_id=177}
178 {file_location_id=52 parent_frame_id=178}
179 {file_location_id=53 parent_frame_id=179}
180 {file_location_id=54 parent_frame_id=126}
181 {file_location_id=55 parent_frame_id=126}
182 {file_location_id=56 parent_frame_id=126}
183 {file_location_id=57 parent_frame_id=126}
184 {file_location_id=50 parent_frame_id=184}
185 {file_location_id=51 parent_frame_id=185}
186 {file_location_id=58 parent_frame_id=186}
187 {file_location_id=53 parent_frame_id=187}
188 {file_location_id=59 parent_frame_id=126}
189 {file_location_id=37 parent_frame_id=189}
190 {file_location_id=60 parent_frame_id=123}
191 {file_location_id=29 parent_frame_id=128}
192 {file_location_id=30 parent_frame_id=128}
193 {file_location_id=31 parent_frame_id=128}
194 {file_location_id=32 parent_frame_id=128}
195 {file_location_id=34 parent_frame_id=128}
196 {file_location_id=61 parent_frame_id=123}
197 {file_location_id=62 parent_frame_id=197}
198 {file_location_id=63 parent_frame_id=197}
199 {file_location_id=64 parent_frame_id=197}
200 {file_location_id=68 parent_frame_id=197}
201 {file_location_id=67 parent_frame_id=197}
202 {file_location_id=65 parent_frame_id=197}
203 {file_location_id=66 parent_frame_id=197}
204 {file_location_id=2 parent_frame_id=195}
205 {file_location_id=3 parent_frame_id=205}
206 {file_location_id=20 parent_frame_id=206}
207 {file_location_id=21 parent_frame_id=207}
208 {file_location_id=70 parent_frame_id=208}
209 {file_location_id=32 parent_frame_id=209}
210 {file_location_id=26 parent_frame_id=127}
211 {file_location_id=27 parent_frame_id=211}
212 {file_location_id=2 parent_frame_id=137}
213 {file_location_id=3 parent_frame_id=213}
214 {file_location_id=20 parent_frame_id=214}
215 {file_location_id=21 parent_frame_id=215}
216 {file_location_id=70 parent_frame_id=216}
217 {file_location_id=32 parent_frame_id=217}
218 {file_location_id=84 parent_frame_id=5}
219 {file_location_id=85 parent_frame_id=219}
220 {file_location_id=86 parent_frame_id=220}
221 {file_location_id=87 parent_frame_id=221}
222 {file_location_id=88 parent_frame_id=222}
223 {file_location_id=89 parent_frame_id=7}
224 {file_location_id=90 parent_frame_id=224}
225 {file_location_id=91 parent_frame_id=24}
226 {file_location_id=92 parent_frame_id=226}
227 {file_location_id=93 parent_frame_id=226}
228 {file_location_id=94 parent_frame_id=226}
229 {file_location_id=95 parent_frame_id=226}
230 {file_location_id=96 parent_frame_id=226}
231 {file_location_id=97 parent_frame_id=9}
232 {file_location_id=98 parent_frame_id=232}
233 {file_location_id=90 parent_frame_id=233}
234 {file_location_id=99 parent_frame_id=232}
235 {file_location_id=90 parent_frame_id=235}
236 {file_location_id=91 parent_frame_id=19}
237 {file_location_id=92 parent_frame_id=237}
238 {file_location_id=93 parent_frame_id=237}
239 {file_location_id=94 parent_frame_id=237}
240 {file_location_id=95 parent_frame_id=237}
241 {file_location_id=96 parent_frame_id=237}
242 {file_location_id=100 parent_frame_id=15}
243 {file_location_id=101 parent_frame_id=243}
244 {file_location_id=102 parent_frame_id=15}
245 {file_location_id=101 parent_frame_id=245}
246 {file_location_id=103 parent_frame_id=15}
247 {file_location_id=101 parent_frame_id=247}
248 {file_location_id=104 parent_frame_id=15}
249 {file_location_id=101 parent_frame_id=249}
250 {file_location_id=91 parent_frame_id=10}
251 {file_location_id=92 parent_frame_id=251}
252 {file_location_id=93 parent_frame_id=251}
253 {file_location_id=94 parent_frame_id=251}
254 {file_location_id=95 parent_frame_id=251}
255 {file_location_id=96 parent_frame_id=251}
256 {file_location_id=105 parent_frame_id=7}
257 {file_location_id=106 parent_frame_id=7}
258 {file_location_id=107 parent_frame_id=258}
259 {file_location_id=108 parent_frame_id=258}
260 {file_location_id=109 parent_frame_id=258}
261 {file_location_id=110 parent_frame_id=7}
262 {file_location_id=111 parent_frame_id=11}
263 {file_location_id=112 parent_frame_id=263}
264 {file_location_id=113 parent_frame_id=11}
265 {file_location_id=112 parent_frame_id=265}
266 {file_location_id=114 parent_frame_id=11}
267 {file_location_id=115 parent_frame_id=11}
268 {file_location_id=116 parent_frame_id=251}
269 {file_location_id=117 parent_frame_id=251}
270 {file_location_id=118 parent_frame_id=251}
271 {file_location_id=119 parent_frame_id=251}
272 {file_location_id=120 parent_frame_id=251}
273 {file_location_id=121 parent_frame_id=245}
274 {file_location_id=122 parent_frame_id=245}
275 {file_location_id=121 parent_frame_id=249}
276 {file_location_id=122 parent_frame_id=249}
277 {file_location_id=123 parent_frame_id=17}
278 {file_location_id=121 parent_frame_id=247}
279 {file_location_id=122 parent_frame_id=247}
280 {file_location_id=124 parent_frame_id=17}
281 {file_location_id=125 parent_frame_id=16}
282 {file_location_id=121 parent_frame_id=243}
283 {file_location_id=122 parent_frame_id=243}
284 {file_location_id=126 parent_frame_id=9}
285 {file_location_id=111 parent_frame_id=20}
286 {file_location_id=112 parent_frame_id=286}
287 {file_location_id=113 parent_frame_id=20}
288 {file_location_id=112 parent_frame_id=288}
289 {file_location_id=114 parent_frame_id=20}
290 {file_location_id=115 parent_frame_id=20}
291 {file_location_id=116 parent_frame_id=237}
292 {file_location_id=117 parent_frame_id=237}
293 {file_location_id=118 parent_frame_id=237}
294 {file_location_id=119 parent_frame_id=237}
295 {file_location_id=120 parent_frame_id=237}
296 {file_location_id=127 parent_frame_id=235}
297 {file_location_id=128 parent_frame_id=235}
298 {file_location_id=129 parent_frame_id=232}
299 {file_location_id=127 parent_frame_id=233}
300 {file_location_id=128 parent_frame_id=233}
301 {file_location_id=130 parent_frame_id=9}
302 {file_location_id=111 parent_frame_id=25}
303 {file_location_id=112 parent_frame_id=303}
304 {file_location_id=113 parent_frame_id=25}
305 {file_location_id=112 parent_frame_id=305}
306 {file_location_id=114 parent_frame_id=25}
307 {file_location_id=115 parent_frame_id=25}
308 {file_location_id=116 parent_frame_id=226}
309 {file_location_id=117 parent_frame_id=226}
310 {file_location_id=118 parent_frame_id=226}
311 {file_location_id=119 parent_frame_id=226}
312 {file_location_id=120 parent_frame_id=226}
313 {file_location_id=127 parent_frame_id=224}
314 {file_location_id=128 parent_frame_id=224}
315 {file_location_id=131 parent_frame_id=222}
316 {file_location_id=132 parent_frame_id=101}
317 {file_location_id=133 parent_frame_id=101}
318 {file_location_id=26 parent_frame_id=2}
319 {file_location_id=39 parent_frame_id=319}
320 {file_location_id=76 parent_frame_id=320}
321 {file_location_id=77 parent_frame_id=320}
322 {file_location_id=78 parent_frame_id=320}
323 {file_location_id=79 parent_frame_id=320}
324 {file_location_id=80 parent_frame_id=320}
325 {file_location_id=81 parent_frame_id=320}
326 {file_location_id=82 parent_frame_id=320}
327 {file_location_id=83 parent_frame_id=320}
328 {file_location_id=47 parent_frame_id=319}
329 {file_location_id=76 parent_frame_id=329}
330 {file_location_id=77 parent_frame_id=329}
331 {file_location_id=78 parent_frame_id=329}
332 {file_location_id=79 parent_frame_id=329}
333 {file_location_id=80 parent_frame_id=329}
334 {file_location_id=81 parent_frame_id=329}
335 {file_location_id=82 parent_frame_id=329}
336 {file_location_id=83 parent_frame_id=329}
337 {file_location_id=134 parent_frame_id=5}
338 {file_location_id=135 parent_frame_id=4}
339 {file_location_id=136 parent_frame_id=339}
340 {file_location_id=137 parent_frame_id=339}
341 {file_location_id=138 parent_frame_id=339}
342 {file_location_id=139 parent_frame_id=5}
343 {file_location_id=140 parent_frame_id=5}
344 {file_location_id=141 parent_frame_id=339}
345 {file_location_id=142 parent_frame_id=339}
346 {file_location_id=143 parent_frame_id=339}
347 {file_location_id=55 parent_frame_id=319}
348 {file_location_id=29 parent_frame_id=116}
349 {file_location_id=30 parent_frame_id=116}
350 {file_location_id=31 parent_frame_id=116}
351 {file_location_id=32 parent_frame_id=116}
352 {file_location_id=34 parent_frame_id=116}
353 {file_location_id=144 parent_frame_id=4}
354 {file_location_id=145 parent_frame_id=4}
355 {file_location_id=146 parent_frame_id=355}
356 {file_location_id=147 parent_frame_id=356}
357 {file_location_id=148 parent_frame_id=357}
358 {file_location_id=149 parent_frame_id=357}
359 {file_location_id=150 parent_frame_id=3}
360 {file_location_id=151 parent_frame_id=118}
361 {file_location_id=152 parent_frame_id=118}
362 {file_location_id=153 parent_frame_id=118}
363 {file_location_id=154 parent_frame_id=118}
364 {file_location_id=2 parent_frame_id=352}
365 {file_location_id=3 parent_frame_id=365}
366 {file_location_id=20 parent_frame_id=366}
367 {file_location_id=21 parent_frame_id=367}
368 {file_location_id=70 parent_frame_id=368}
369 {file_location_id=32 parent_frame_id=369}
370 {file_location_id=155 parent_frame_id=101}
371 {file_location_id=156 parent_frame_id=5}
372 {file_location_id=157 parent_frame_id=2}
373 {file_location_id=158 parent_frame_id=373}
374 {file_location_id=159 parent_frame_id=374}
375 {file_location_id=160 parent_frame_id=375}
376 {file_location_id=161 parent_frame_id=376}
377 {file_location_id=162 parent_frame_id=377}
378 {file_location_id=163 parent_frame_id=377}
379 {file_location_id=164 parent_frame_id=375}
380 {file_location_id=165 parent_frame_id=380}
381 {file_location_id=166 parent_frame_id=380}
382 {file_location_id=167 parent_frame_id=380}
383 {file_location_id=168 parent_frame_id=375}
384 {file_location_id=169 parent_frame_id=375}
385 {file_location_id=170 parent_frame_id=385}
386 {file_location_id=171 parent_frame_id=386}
387 {file_location_id=172 parent_frame_id=387}
388 {file_location_id=173 parent_frame_id=386}
389 {file_location_id=174 parent_frame_id=386}
390 {file_location_id=175 parent_frame_id=375}
391 {file_location_id=176 parent_frame_id=375}
392 {file_location_id=177 parent_frame_id=392}
393 {file_location_id=178 parent_frame_id=392}
394 {file_location_id=179 parent_frame_id=375}
395 {file_location_id=180 parent_frame_id=395}
396 {file_location_id=181 parent_frame_id=395}
397 {file_location_id=182 parent_frame_id=375}
398 {file_location_id=183 parent_frame_id=398}
399 {file_location_id=184 parent_frame_id=2}
400 {file_location_id=185 parent_frame_id=400}
401 {file_location_id=186 parent_frame_id=401}
402 {file_location_id=2 parent_frame_id=18}
403 {file_location_id=3 parent_frame_id=403}
404 {file_location_id=4 parent_frame_id=404}
405 {file_location_id=5 parent_frame_id=405}
406 {file_location_id=6 parent_frame_id=406}
407 {file_location_id=7 parent_frame_id=407}
408 {file_location_id=8 parent_frame_id=408}
409 {file_location_id=14 parent_frame_id=409}
410 {file_location_id=15 parent_frame_id=410}
411 {file_location_id=16 parent_frame_id=411}
412 {file_location_id=17 parent_frame_id=412}


%region_0.1 (reduce_sum.3: f32[], reduce_sum.4: f32[]) -> f32[] {
  %reduce_sum.3 = f32[] parameter(0), metadata={op_name="reduce_sum"}
  %reduce_sum.4 = f32[] parameter(1), metadata={op_name="reduce_sum"}
  ROOT %reduce_sum.5 = f32[] add(%reduce_sum.3, %reduce_sum.4), metadata={op_name="jit(train_step)/jvp(Model)/Model.embed_image_and_text/Model.embed_image/img/Transformer/encoderblock_0/LayerNorm_0/reduce_sum" stack_frame_id=13}
}

%region_1.2 (reduce_sum.10: f32[], reduce_sum.11: f32[]) -> f32[] {
  %reduce_sum.10 = f32[] parameter(0), metadata={op_name="reduce_sum"}
  %reduce_sum.11 = f32[] parameter(1), metadata={op_name="reduce_sum"}
  ROOT %reduce_sum.12 = f32[] add(%reduce_sum.10, %reduce_sum.11), metadata={op_name="jit(train_step)/jvp(Model)/Model.embed_image_and_text/Model.embed_image/img/Transformer/encoderblock_0/LayerNorm_0/reduce_sum" stack_frame_id=13}
}

%region_2.3 (reduce_max.3: f32[], reduce_max.4: f32[]) -> f32[] {
  %reduce_max.3 = f32[] parameter(0), metadata={op_name="reduce_max"}
  %reduce_max.4 = f32[] parameter(1), metadata={op_name="reduce_max"}
  ROOT %reduce_max.5 = f32[] maximum(%reduce_max.3, %reduce_max.4), metadata={op_name="jit(train_step)/jvp(Model)/Model.embed_image_and_text/Model.embed_image/img/Transformer/encoderblock_0/MultiHeadDotProductAttention_0/reduce_max" stack_frame_id=17}
}

%region_3.4 (reduce_sum.17: f32[], reduce_sum.18: f32[]) -> f32[] {
  %reduce_sum.17 = f32[] parameter(0), metadata={op_name="reduce_sum"}
  %reduce_sum.18 = f32[] parameter(1), metadata={op_name="reduce_sum"}
  ROOT %reduce_sum.19 = f32[] add(%reduce_sum.17, %reduce_sum.18), metadata={op_name="jit(train_step)/jvp(Model)/Model.embed_image_and_text/Model.embed_image/img/Transformer/encoderblock_0/MultiHeadDotProductAttention_0/reduce_sum" stack_frame_id=17}
}

%region_4.5 (reduce_sum.24: f32[], reduce_sum.25: f32[]) -> f32[] {
  %reduce_sum.24 = f32[] parameter(0), metadata={op_name="reduce_sum"}
  %reduce_sum.25 = f32[] parameter(1), metadata={op_name="reduce_sum"}
  ROOT %reduce_sum.26 = f32[] add(%reduce_sum.24, %reduce_sum.25), metadata={op_name="jit(train_step)/jvp(Model)/Model.embed_image_and_text/Model.embed_image/img/Transformer/encoderblock_0/LayerNorm_1/reduce_sum" stack_frame_id=22}
}

%region_5.6 (reduce_sum.31: f32[], reduce_sum.32: f32[]) -> f32[] {
  %reduce_sum.31 = f32[] parameter(0), metadata={op_name="reduce_sum"}
  %reduce_sum.32 = f32[] parameter(1), metadata={op_name="reduce_sum"}
  ROOT %reduce_sum.33 = f32[] add(%reduce_sum.31, %reduce_sum.32), metadata={op_name="jit(train_step)/jvp(Model)/Model.embed_image_and_text/Model.embed_image/img/Transformer/encoderblock_0/LayerNorm_1/reduce_sum" stack_frame_id=22}
}

%region_6.7 (reduce_sum.38: f32[], reduce_sum.39: f32[]) -> f32[] {
  %reduce_sum.38 = f32[] parameter(0), metadata={op_name="reduce_sum"}
  %reduce_sum.39 = f32[] parameter(1), metadata={op_name="reduce_sum"}
  ROOT %reduce_sum.40 = f32[] add(%reduce_sum.38, %reduce_sum.39), metadata={op_name="jit(train_step)/jvp(Model)/Model.embed_image_and_text/Model.embed_image/img/Transformer/encoderblock_1/LayerNorm_0/reduce_sum" stack_frame_id=13}
}

%region_7.8 (reduce_sum.45: f32[], reduce_sum.46: f32[]) -> f32[] {
  %reduce_sum.45 = f32[] parameter(0), metadata={op_name="reduce_sum"}
  %reduce_sum.46 = f32[] parameter(1), metadata={op_name="reduce_sum"}
  ROOT %reduce_sum.47 = f32[] add(%reduce_sum.45, %reduce_sum.46), metadata={op_name="jit(train_step)/jvp(Model)/Model.embed_image_and_text/Model.embed_image/img/Transformer/encoderblock_1/LayerNorm_0/reduce_sum" stack_frame_id=13}
}

%region_8.9 (reduce_max.10: f32[], reduce_max.11: f32[]) -> f32[] {
  %reduce_max.10 = f32[] parameter(0), metadata={op_name="reduce_max"}
  %reduce_max.11 = f32[] parameter(1), metadata={op_name="reduce_max"}
  ROOT %reduce_max.12 = f32[] maximum(%reduce_max.10, %reduce_max.11), metadata={op_name="jit(train_step)/jvp(Model)/Model.embed_image_and_text/Model.embed_image/img/Transformer/encoderblock_1/MultiHeadDotProductAttention_0/reduce_max" stack_frame_id=17}
}

%region_9.10 (reduce_sum.52: f32[], reduce_sum.53: f32[]) -> f32[] {
  %reduce_sum.52 = f32[] parameter(0), metadata={op_name="reduce_sum"}
  %reduce_sum.53 = f32[] parameter(1), metadata={op_name="reduce_sum"}
  ROOT %reduce_sum.54 = f32[] add(%reduce_sum.52, %reduce_sum.53), metadata={op_name="jit(train_step)/jvp(Model)/Model.embed_image_and_text/Model.embed_image/img/Transformer/encoderblock_1/MultiHeadDotProductAttention_0/reduce_sum" stack_frame_id=17}
}

%region_10.11 (reduce_sum.59: f32[], reduce_sum.60: f32[]) -> f32[] {
  %reduce_sum.59 = f32[] parameter(0), metadata={op_name="reduce_sum"}
  %reduce_sum.60 = f32[] parameter(1), metadata={op_name="reduce_sum"}
  ROOT %reduce_sum.61 = f32[] add(%reduce_sum.59, %reduce_sum.60), metadata={op_name="jit(train_step)/jvp(Model)/Model.embed_image_and_text/Model.embed_image/img/Transformer/encoderblock_1/LayerNorm_1/reduce_sum" stack_frame_id=22}
}

%region_11.12 (reduce_sum.66: f32[], reduce_sum.67: f32[]) -> f32[] {
  %reduce_sum.66 = f32[] parameter(0), metadata={op_name="reduce_sum"}
  %reduce_sum.67 = f32[] parameter(1), metadata={op_name="reduce_sum"}
  ROOT %reduce_sum.68 = f32[] add(%reduce_sum.66, %reduce_sum.67), metadata={op_name="jit(train_step)/jvp(Model)/Model.embed_image_and_text/Model.embed_image/img/Transformer/encoderblock_1/LayerNorm_1/reduce_sum" stack_frame_id=22}
}

%region_12.13 (reduce_sum.73: f32[], reduce_sum.74: f32[]) -> f32[] {
  %reduce_sum.73 = f32[] parameter(0), metadata={op_name="reduce_sum"}
  %reduce_sum.74 = f32[] parameter(1), metadata={op_name="reduce_sum"}
  ROOT %reduce_sum.75 = f32[] add(%reduce_sum.73, %reduce_sum.74), metadata={op_name="jit(train_step)/jvp(Model)/Model.embed_image_and_text/Model.embed_image/img/Transformer/encoderblock_2/LayerNorm_0/reduce_sum" stack_frame_id=13}
}

%region_13.14 (reduce_sum.80: f32[], reduce_sum.81: f32[]) -> f32[] {
  %reduce_sum.80 = f32[] parameter(0), metadata={op_name="reduce_sum"}
  %reduce_sum.81 = f32[] parameter(1), metadata={op_name="reduce_sum"}
  ROOT %reduce_sum.82 = f32[] add(%reduce_sum.80, %reduce_sum.81), metadata={op_name="jit(train_step)/jvp(Model)/Model.embed_image_and_text/Model.embed_image/img/Transformer/encoderblock_2/LayerNorm_0/reduce_sum" stack_frame_id=13}
}

%region_14.15 (reduce_max.17: f32[], reduce_max.18: f32[]) -> f32[] {
  %reduce_max.17 = f32[] parameter(0), metadata={op_name="reduce_max"}
  %reduce_max.18 = f32[] parameter(1), metadata={op_name="reduce_max"}
  ROOT %reduce_max.19 = f32[] maximum(%reduce_max.17, %reduce_max.18), metadata={op_name="jit(train_step)/jvp(Model)/Model.embed_image_and_text/Model.embed_image/img/Transformer/encoderblock_2/MultiHeadDotProductAttention_0/reduce_max" stack_frame_id=17}
}

%region_15.16 (reduce_sum.87: f32[], reduce_sum.88: f32[]) -> f32[] {
  %reduce_sum.87 = f32[] parameter(0), metadata={op_name="reduce_sum"}
  %reduce_sum.88 = f32[] parameter(1), metadata={op_name="reduce_sum"}
  ROOT %reduce_sum.89 = f32[] add(%reduce_sum.87, %reduce_sum.88), metadata={op_name="jit(train_step)/jvp(Model)/Model.embed_image_and_text/Model.embed_image/img/Transformer/encoderblock_2/MultiHeadDotProductAttention_0/reduce_sum" stack_frame_id=17}
}

%region_16.17 (reduce_sum.94: f32[], reduce_sum.95: f32[]) -> f32[] {
  %reduce_sum.94 = f32[] parameter(0), metadata={op_name="reduce_sum"}
  %reduce_sum.95 = f32[] parameter(1), metadata={op_name="reduce_sum"}
  ROOT %reduce_sum.96 = f32[] add(%reduce_sum.94, %reduce_sum.95), metadata={op_name="jit(train_step)/jvp(Model)/Model.embed_image_and_text/Model.embed_image/img/Transformer/encoderblock_2/LayerNorm_1/reduce_sum" stack_frame_id=22}
}

%region_17.18 (reduce_sum.101: f32[], reduce_sum.102: f32[]) -> f32[] {
  %reduce_sum.101 = f32[] parameter(0), metadata={op_name="reduce_sum"}
  %reduce_sum.102 = f32[] parameter(1), metadata={op_name="reduce_sum"}
  ROOT %reduce_sum.103 = f32[] add(%reduce_sum.101, %reduce_sum.102), metadata={op_name="jit(train_step)/jvp(Model)/Model.embed_image_and_text/Model.embed_image/img/Transformer/encoderblock_2/LayerNorm_1/reduce_sum" stack_frame_id=22}
}

%region_18.19 (reduce_sum.108: f32[], reduce_sum.109: f32[]) -> f32[] {
  %reduce_sum.108 = f32[] parameter(0), metadata={op_name="reduce_sum"}
  %reduce_sum.109 = f32[] parameter(1), metadata={op_name="reduce_sum"}
  ROOT %reduce_sum.110 = f32[] add(%reduce_sum.108, %reduce_sum.109), metadata={op_name="jit(train_step)/jvp(Model)/Model.embed_image_and_text/Model.embed_image/img/Transformer/encoderblock_3/LayerNorm_0/reduce_sum" stack_frame_id=13}
}

%region_19.20 (reduce_sum.115: f32[], reduce_sum.116: f32[]) -> f32[] {
  %reduce_sum.115 = f32[] parameter(0), metadata={op_name="reduce_sum"}
  %reduce_sum.116 = f32[] parameter(1), metadata={op_name="reduce_sum"}
  ROOT %reduce_sum.117 = f32[] add(%reduce_sum.115, %reduce_sum.116), metadata={op_name="jit(train_step)/jvp(Model)/Model.embed_image_and_text/Model.embed_image/img/Transformer/encoderblock_3/LayerNorm_0/reduce_sum" stack_frame_id=13}
}

%region_20.21 (reduce_max.24: f32[], reduce_max.25: f32[]) -> f32[] {
  %reduce_max.24 = f32[] parameter(0), metadata={op_name="reduce_max"}
  %reduce_max.25 = f32[] parameter(1), metadata={op_name="reduce_max"}
  ROOT %reduce_max.26 = f32[] maximum(%reduce_max.24, %reduce_max.25), metadata={op_name="jit(train_step)/jvp(Model)/Model.embed_image_and_text/Model.embed_image/img/Transformer/encoderblock_3/MultiHeadDotProductAttention_0/reduce_max" stack_frame_id=17}
}

%region_21.22 (reduce_sum.122: f32[], reduce_sum.123: f32[]) -> f32[] {
  %reduce_sum.122 = f32[] parameter(0), metadata={op_name="reduce_sum"}
  %reduce_sum.123 = f32[] parameter(1), metadata={op_name="reduce_sum"}
  ROOT %reduce_sum.124 = f32[] add(%reduce_sum.122, %reduce_sum.123), metadata={op_name="jit(train_step)/jvp(Model)/Model.embed_image_and_text/Model.embed_image/img/Transformer/encoderblock_3/MultiHeadDotProductAttention_0/reduce_sum" stack_frame_id=17}
}

%region_22.23 (reduce_sum.129: f32[], reduce_sum.130: f32[]) -> f32[] {
  %reduce_sum.129 = f32[] parameter(0), metadata={op_name="reduce_sum"}
  %reduce_sum.130 = f32[] parameter(1), metadata={op_name="reduce_sum"}
  ROOT %reduce_sum.131 = f32[] add(%reduce_sum.129, %reduce_sum.130), metadata={op_name="jit(train_step)/jvp(Model)/Model.embed_image_and_text/Model.embed_image/img/Transformer/encoderblock_3/LayerNorm_1/reduce_sum" stack_frame_id=22}
}

%region_23.24 (reduce_sum.136: f32[], reduce_sum.137: f32[]) -> f32[] {
  %reduce_sum.136 = f32[] parameter(0), metadata={op_name="reduce_sum"}
  %reduce_sum.137 = f32[] parameter(1), metadata={op_name="reduce_sum"}
  ROOT %reduce_sum.138 = f32[] add(%reduce_sum.136, %reduce_sum.137), metadata={op_name="jit(train_step)/jvp(Model)/Model.embed_image_and_text/Model.embed_image/img/Transformer/encoderblock_3/LayerNorm_1/reduce_sum" stack_frame_id=22}
}

%region_24.25 (reduce_sum.143: f32[], reduce_sum.144: f32[]) -> f32[] {
  %reduce_sum.143 = f32[] parameter(0), metadata={op_name="reduce_sum"}
  %reduce_sum.144 = f32[] parameter(1), metadata={op_name="reduce_sum"}
  ROOT %reduce_sum.145 = f32[] add(%reduce_sum.143, %reduce_sum.144), metadata={op_name="jit(train_step)/jvp(Model)/Model.embed_image_and_text/Model.embed_image/img/Transformer/encoderblock_4/LayerNorm_0/reduce_sum" stack_frame_id=13}
}

%region_25.26 (reduce_sum.150: f32[], reduce_sum.151: f32[]) -> f32[] {
  %reduce_sum.150 = f32[] parameter(0), metadata={op_name="reduce_sum"}
  %reduce_sum.151 = f32[] parameter(1), metadata={op_name="reduce_sum"}
  ROOT %reduce_sum.152 = f32[] add(%reduce_sum.150, %reduce_sum.151), metadata={op_name="jit(train_step)/jvp(Model)/Model.embed_image_and_text/Model.embed_image/img/Transformer/encoderblock_4/LayerNorm_0/reduce_sum" stack_frame_id=13}
}

%region_26.27 (reduce_max.31: f32[], reduce_max.32: f32[]) -> f32[] {
  %reduce_max.31 = f32[] parameter(0), metadata={op_name="reduce_max"}
  %reduce_max.32 = f32[] parameter(1), metadata={op_name="reduce_max"}
  ROOT %reduce_max.33 = f32[] maximum(%reduce_max.31, %reduce_max.32), metadata={op_name="jit(train_step)/jvp(Model)/Model.embed_image_and_text/Model.embed_image/img/Transformer/encoderblock_4/MultiHeadDotProductAttention_0/reduce_max" stack_frame_id=17}
}

%region_27.28 (reduce_sum.157: f32[], reduce_sum.158: f32[]) -> f32[] {
  %reduce_sum.157 = f32[] parameter(0), metadata={op_name="reduce_sum"}
  %reduce_sum.158 = f32[] parameter(1), metadata={op_name="reduce_sum"}
  ROOT %reduce_sum.159 = f32[] add(%reduce_sum.157, %reduce_sum.158), metadata={op_name="jit(train_step)/jvp(Model)/Model.embed_image_and_text/Model.embed_image/img/Transformer/encoderblock_4/MultiHeadDotProductAttention_0/reduce_sum" stack_frame_id=17}
}

%region_28.29 (reduce_sum.164: f32[], reduce_sum.165: f32[]) -> f32[] {
  %reduce_sum.164 = f32[] parameter(0), metadata={op_name="reduce_sum"}
  %reduce_sum.165 = f32[] parameter(1), metadata={op_name="reduce_sum"}
  ROOT %reduce_sum.166 = f32[] add(%reduce_sum.164, %reduce_sum.165), metadata={op_name="jit(train_step)/jvp(Model)/Model.embed_image_and_text/Model.embed_image/img/Transformer/encoderblock_4/LayerNorm_1/reduce_sum" stack_frame_id=22}
}

%region_29.30 (reduce_sum.171: f32[], reduce_sum.172: f32[]) -> f32[] {
  %reduce_sum.171 = f32[] parameter(0), metadata={op_name="reduce_sum"}
  %reduce_sum.172 = f32[] parameter(1), metadata={op_name="reduce_sum"}
  ROOT %reduce_sum.173 = f32[] add(%reduce_sum.171, %reduce_sum.172), metadata={op_name="jit(train_step)/jvp(Model)/Model.embed_image_and_text/Model.embed_image/img/Transformer/encoderblock_4/LayerNorm_1/reduce_sum" stack_frame_id=22}
}

%region_30.31 (reduce_sum.178: f32[], reduce_sum.179: f32[]) -> f32[] {
  %reduce_sum.178 = f32[] parameter(0), metadata={op_name="reduce_sum"}
  %reduce_sum.179 = f32[] parameter(1), metadata={op_name="reduce_sum"}
  ROOT %reduce_sum.180 = f32[] add(%reduce_sum.178, %reduce_sum.179), metadata={op_name="jit(train_step)/jvp(Model)/Model.embed_image_and_text/Model.embed_image/img/Transformer/encoderblock_5/LayerNorm_0/reduce_sum" stack_frame_id=13}
}

%region_31.32 (reduce_sum.185: f32[], reduce_sum.186: f32[]) -> f32[] {
  %reduce_sum.185 = f32[] parameter(0), metadata={op_name="reduce_sum"}
  %reduce_sum.186 = f32[] parameter(1), metadata={op_name="reduce_sum"}
  ROOT %reduce_sum.187 = f32[] add(%reduce_sum.185, %reduce_sum.186), metadata={op_name="jit(train_step)/jvp(Model)/Model.embed_image_and_text/Model.embed_image/img/Transformer/encoderblock_5/LayerNorm_0/reduce_sum" stack_frame_id=13}
}

%region_32.33 (reduce_max.38: f32[], reduce_max.39: f32[]) -> f32[] {
  %reduce_max.38 = f32[] parameter(0), metadata={op_name="reduce_max"}
  %reduce_max.39 = f32[] parameter(1), metadata={op_name="reduce_max"}
  ROOT %reduce_max.40 = f32[] maximum(%reduce_max.38, %reduce_max.39), metadata={op_name="jit(train_step)/jvp(Model)/Model.embed_image_and_text/Model.embed_image/img/Transformer/encoderblock_5/MultiHeadDotProductAttention_0/reduce_max" stack_frame_id=17}
}

%region_33.34 (reduce_sum.192: f32[], reduce_sum.193: f32[]) -> f32[] {
  %reduce_sum.192 = f32[] parameter(0), metadata={op_name="reduce_sum"}
  %reduce_sum.193 = f32[] parameter(1), metadata={op_name="reduce_sum"}
  ROOT %reduce_sum.194 = f32[] add(%reduce_sum.192, %reduce_sum.193), metadata={op_name="jit(train_step)/jvp(Model)/Model.embed_image_and_text/Model.embed_image/img/Transformer/encoderblock_5/MultiHeadDotProductAttention_0/reduce_sum" stack_frame_id=17}
}

%region_34.35 (reduce_sum.199: f32[], reduce_sum.200: f32[]) -> f32[] {
  %reduce_sum.199 = f32[] parameter(0), metadata={op_name="reduce_sum"}
  %reduce_sum.200 = f32[] parameter(1), metadata={op_name="reduce_sum"}
  ROOT %reduce_sum.201 = f32[] add(%reduce_sum.199, %reduce_sum.200), metadata={op_name="jit(train_step)/jvp(Model)/Model.embed_image_and_text/Model.embed_image/img/Transformer/encoderblock_5/LayerNorm_1/reduce_sum" stack_frame_id=22}
}

%region_35.36 (reduce_sum.206: f32[], reduce_sum.207: f32[]) -> f32[] {
  %reduce_sum.206 = f32[] parameter(0), metadata={op_name="reduce_sum"}
  %reduce_sum.207 = f32[] parameter(1), metadata={op_name="reduce_sum"}
  ROOT %reduce_sum.208 = f32[] add(%reduce_sum.206, %reduce_sum.207), metadata={op_name="jit(train_step)/jvp(Model)/Model.embed_image_and_text/Model.embed_image/img/Transformer/encoderblock_5/LayerNorm_1/reduce_sum" stack_frame_id=22}
}

%region_36.37 (reduce_sum.213: f32[], reduce_sum.214: f32[]) -> f32[] {
  %reduce_sum.213 = f32[] parameter(0), metadata={op_name="reduce_sum"}
  %reduce_sum.214 = f32[] parameter(1), metadata={op_name="reduce_sum"}
  ROOT %reduce_sum.215 = f32[] add(%reduce_sum.213, %reduce_sum.214), metadata={op_name="jit(train_step)/jvp(Model)/Model.embed_image_and_text/Model.embed_image/img/Transformer/encoderblock_6/LayerNorm_0/reduce_sum" stack_frame_id=13}
}

%region_37.38 (reduce_sum.220: f32[], reduce_sum.221: f32[]) -> f32[] {
  %reduce_sum.220 = f32[] parameter(0), metadata={op_name="reduce_sum"}
  %reduce_sum.221 = f32[] parameter(1), metadata={op_name="reduce_sum"}
  ROOT %reduce_sum.222 = f32[] add(%reduce_sum.220, %reduce_sum.221), metadata={op_name="jit(train_step)/jvp(Model)/Model.embed_image_and_text/Model.embed_image/img/Transformer/encoderblock_6/LayerNorm_0/reduce_sum" stack_frame_id=13}
}

%region_38.39 (reduce_max.45: f32[], reduce_max.46: f32[]) -> f32[] {
  %reduce_max.45 = f32[] parameter(0), metadata={op_name="reduce_max"}
  %reduce_max.46 = f32[] parameter(1), metadata={op_name="reduce_max"}
  ROOT %reduce_max.47 = f32[] maximum(%reduce_max.45, %reduce_max.46), metadata={op_name="jit(train_step)/jvp(Model)/Model.embed_image_and_text/Model.embed_image/img/Transformer/encoderblock_6/MultiHeadDotProductAttention_0/reduce_max" stack_frame_id=17}
}

%region_39.40 (reduce_sum.227: f32[], reduce_sum.228: f32[]) -> f32[] {
  %reduce_sum.227 = f32[] parameter(0), metadata={op_name="reduce_sum"}
  %reduce_sum.228 = f32[] parameter(1), metadata={op_name="reduce_sum"}
  ROOT %reduce_sum.229 = f32[] add(%reduce_sum.227, %reduce_sum.228), metadata={op_name="jit(train_step)/jvp(Model)/Model.embed_image_and_text/Model.embed_image/img/Transformer/encoderblock_6/MultiHeadDotProductAttention_0/reduce_sum" stack_frame_id=17}
}

%region_40.41 (reduce_sum.234: f32[], reduce_sum.235: f32[]) -> f32[] {
  %reduce_sum.234 = f32[] parameter(0), metadata={op_name="reduce_sum"}
  %reduce_sum.235 = f32[] parameter(1), metadata={op_name="reduce_sum"}
  ROOT %reduce_sum.236 = f32[] add(%reduce_sum.234, %reduce_sum.235), metadata={op_name="jit(train_step)/jvp(Model)/Model.embed_image_and_text/Model.embed_image/img/Transformer/encoderblock_6/LayerNorm_1/reduce_sum" stack_frame_id=22}
}

%region_41.42 (reduce_sum.241: f32[], reduce_sum.242: f32[]) -> f32[] {
  %reduce_sum.241 = f32[] parameter(0), metadata={op_name="reduce_sum"}
  %reduce_sum.242 = f32[] parameter(1), metadata={op_name="reduce_sum"}
  ROOT %reduce_sum.243 = f32[] add(%reduce_sum.241, %reduce_sum.242), metadata={op_name="jit(train_step)/jvp(Model)/Model.embed_image_and_text/Model.embed_image/img/Transformer/encoderblock_6/LayerNorm_1/reduce_sum" stack_frame_id=22}
}

%region_42.43 (reduce_sum.248: f32[], reduce_sum.249: f32[]) -> f32[] {
  %reduce_sum.248 = f32[] parameter(0), metadata={op_name="reduce_sum"}
  %reduce_sum.249 = f32[] parameter(1), metadata={op_name="reduce_sum"}
  ROOT %reduce_sum.250 = f32[] add(%reduce_sum.248, %reduce_sum.249), metadata={op_name="jit(train_step)/jvp(Model)/Model.embed_image_and_text/Model.embed_image/img/Transformer/encoderblock_7/LayerNorm_0/reduce_sum" stack_frame_id=13}
}

%region_43.44 (reduce_sum.255: f32[], reduce_sum.256: f32[]) -> f32[] {
  %reduce_sum.255 = f32[] parameter(0), metadata={op_name="reduce_sum"}
  %reduce_sum.256 = f32[] parameter(1), metadata={op_name="reduce_sum"}
  ROOT %reduce_sum.257 = f32[] add(%reduce_sum.255, %reduce_sum.256), metadata={op_name="jit(train_step)/jvp(Model)/Model.embed_image_and_text/Model.embed_image/img/Transformer/encoderblock_7/LayerNorm_0/reduce_sum" stack_frame_id=13}
}

%region_44.45 (reduce_max.52: f32[], reduce_max.53: f32[]) -> f32[] {
  %reduce_max.52 = f32[] parameter(0), metadata={op_name="reduce_max"}
  %reduce_max.53 = f32[] parameter(1), metadata={op_name="reduce_max"}
  ROOT %reduce_max.54 = f32[] maximum(%reduce_max.52, %reduce_max.53), metadata={op_name="jit(train_step)/jvp(Model)/Model.embed_image_and_text/Model.embed_image/img/Transformer/encoderblock_7/MultiHeadDotProductAttention_0/reduce_max" stack_frame_id=17}
}

%region_45.46 (reduce_sum.262: f32[], reduce_sum.263: f32[]) -> f32[] {
  %reduce_sum.262 = f32[] parameter(0), metadata={op_name="reduce_sum"}
  %reduce_sum.263 = f32[] parameter(1), metadata={op_name="reduce_sum"}
  ROOT %reduce_sum.264 = f32[] add(%reduce_sum.262, %reduce_sum.263), metadata={op_name="jit(train_step)/jvp(Model)/Model.embed_image_and_text/Model.embed_image/img/Transformer/encoderblock_7/MultiHeadDotProductAttention_0/reduce_sum" stack_frame_id=17}
}

%region_46.47 (reduce_sum.269: f32[], reduce_sum.270: f32[]) -> f32[] {
  %reduce_sum.269 = f32[] parameter(0), metadata={op_name="reduce_sum"}
  %reduce_sum.270 = f32[] parameter(1), metadata={op_name="reduce_sum"}
  ROOT %reduce_sum.271 = f32[] add(%reduce_sum.269, %reduce_sum.270), metadata={op_name="jit(train_step)/jvp(Model)/Model.embed_image_and_text/Model.embed_image/img/Transformer/encoderblock_7/LayerNorm_1/reduce_sum" stack_frame_id=22}
}

%region_47.48 (reduce_sum.276: f32[], reduce_sum.277: f32[]) -> f32[] {
  %reduce_sum.276 = f32[] parameter(0), metadata={op_name="reduce_sum"}
  %reduce_sum.277 = f32[] parameter(1), metadata={op_name="reduce_sum"}
  ROOT %reduce_sum.278 = f32[] add(%reduce_sum.276, %reduce_sum.277), metadata={op_name="jit(train_step)/jvp(Model)/Model.embed_image_and_text/Model.embed_image/img/Transformer/encoderblock_7/LayerNorm_1/reduce_sum" stack_frame_id=22}
}

%region_48.49 (reduce_sum.283: f32[], reduce_sum.284: f32[]) -> f32[] {
  %reduce_sum.283 = f32[] parameter(0), metadata={op_name="reduce_sum"}
  %reduce_sum.284 = f32[] parameter(1), metadata={op_name="reduce_sum"}
  ROOT %reduce_sum.285 = f32[] add(%reduce_sum.283, %reduce_sum.284), metadata={op_name="jit(train_step)/jvp(Model)/Model.embed_image_and_text/Model.embed_image/img/Transformer/encoderblock_8/LayerNorm_0/reduce_sum" stack_frame_id=13}
}

%region_49.50 (reduce_sum.290: f32[], reduce_sum.291: f32[]) -> f32[] {
  %reduce_sum.290 = f32[] parameter(0), metadata={op_name="reduce_sum"}
  %reduce_sum.291 = f32[] parameter(1), metadata={op_name="reduce_sum"}
  ROOT %reduce_sum.292 = f32[] add(%reduce_sum.290, %reduce_sum.291), metadata={op_name="jit(train_step)/jvp(Model)/Model.embed_image_and_text/Model.embed_image/img/Transformer/encoderblock_8/LayerNorm_0/reduce_sum" stack_frame_id=13}
}

%region_50.51 (reduce_max.59: f32[], reduce_max.60: f32[]) -> f32[] {
  %reduce_max.59 = f32[] parameter(0), metadata={op_name="reduce_max"}
  %reduce_max.60 = f32[] parameter(1), metadata={op_name="reduce_max"}
  ROOT %reduce_max.61 = f32[] maximum(%reduce_max.59, %reduce_max.60), metadata={op_name="jit(train_step)/jvp(Model)/Model.embed_image_and_text/Model.embed_image/img/Transformer/encoderblock_8/MultiHeadDotProductAttention_0/reduce_max" stack_frame_id=17}
}

%region_51.52 (reduce_sum.297: f32[], reduce_sum.298: f32[]) -> f32[] {
  %reduce_sum.297 = f32[] parameter(0), metadata={op_name="reduce_sum"}
  %reduce_sum.298 = f32[] parameter(1), metadata={op_name="reduce_sum"}
  ROOT %reduce_sum.299 = f32[] add(%reduce_sum.297, %reduce_sum.298), metadata={op_name="jit(train_step)/jvp(Model)/Model.embed_image_and_text/Model.embed_image/img/Transformer/encoderblock_8/MultiHeadDotProductAttention_0/reduce_sum" stack_frame_id=17}
}

%region_52.53 (reduce_sum.304: f32[], reduce_sum.305: f32[]) -> f32[] {
  %reduce_sum.304 = f32[] parameter(0), metadata={op_name="reduce_sum"}
  %reduce_sum.305 = f32[] parameter(1), metadata={op_name="reduce_sum"}
  ROOT %reduce_sum.306 = f32[] add(%reduce_sum.304, %reduce_sum.305), metadata={op_name="jit(train_step)/jvp(Model)/Model.embed_image_and_text/Model.embed_image/img/Transformer/encoderblock_8/LayerNorm_1/reduce_sum" stack_frame_id=22}
}

%region_53.54 (reduce_sum.311: f32[], reduce_sum.312: f32[]) -> f32[] {
  %reduce_sum.311 = f32[] parameter(0), metadata={op_name="reduce_sum"}
  %reduce_sum.312 = f32[] parameter(1), metadata={op_name="reduce_sum"}
  ROOT %reduce_sum.313 = f32[] add(%reduce_sum.311, %reduce_sum.312), metadata={op_name="jit(train_step)/jvp(Model)/Model.embed_image_and_text/Model.embed_image/img/Transformer/encoderblock_8/LayerNorm_1/reduce_sum" stack_frame_id=22}
}

%region_54.55 (reduce_sum.318: f32[], reduce_sum.319: f32[]) -> f32[] {
  %reduce_sum.318 = f32[] parameter(0), metadata={op_name="reduce_sum"}
  %reduce_sum.319 = f32[] parameter(1), metadata={op_name="reduce_sum"}
  ROOT %reduce_sum.320 = f32[] add(%reduce_sum.318, %reduce_sum.319), metadata={op_name="jit(train_step)/jvp(Model)/Model.embed_image_and_text/Model.embed_image/img/Transformer/encoderblock_9/LayerNorm_0/reduce_sum" stack_frame_id=13}
}

%region_55.56 (reduce_sum.325: f32[], reduce_sum.326: f32[]) -> f32[] {
  %reduce_sum.325 = f32[] parameter(0), metadata={op_name="reduce_sum"}
  %reduce_sum.326 = f32[] parameter(1), metadata={op_name="reduce_sum"}
  ROOT %reduce_sum.327 = f32[] add(%reduce_sum.325, %reduce_sum.326), metadata={op_name="jit(train_step)/jvp(Model)/Model.embed_image_and_text/Model.embed_image/img/Transformer/encoderblock_9/LayerNorm_0/reduce_sum" stack_frame_id=13}
}

%region_56.57 (reduce_max.66: f32[], reduce_max.67: f32[]) -> f32[] {
  %reduce_max.66 = f32[] parameter(0), metadata={op_name="reduce_max"}
  %reduce_max.67 = f32[] parameter(1), metadata={op_name="reduce_max"}
  ROOT %reduce_max.68 = f32[] maximum(%reduce_max.66, %reduce_max.67), metadata={op_name="jit(train_step)/jvp(Model)/Model.embed_image_and_text/Model.embed_image/img/Transformer/encoderblock_9/MultiHeadDotProductAttention_0/reduce_max" stack_frame_id=17}
}

%region_57.58 (reduce_sum.332: f32[], reduce_sum.333: f32[]) -> f32[] {
  %reduce_sum.332 = f32[] parameter(0), metadata={op_name="reduce_sum"}
  %reduce_sum.333 = f32[] parameter(1), metadata={op_name="reduce_sum"}
  ROOT %reduce_sum.334 = f32[] add(%reduce_sum.332, %reduce_sum.333), metadata={op_name="jit(train_step)/jvp(Model)/Model.embed_image_and_text/Model.embed_image/img/Transformer/encoderblock_9/MultiHeadDotProductAttention_0/reduce_sum" stack_frame_id=17}
}

%region_58.59 (reduce_sum.339: f32[], reduce_sum.340: f32[]) -> f32[] {
  %reduce_sum.339 = f32[] parameter(0), metadata={op_name="reduce_sum"}
  %reduce_sum.340 = f32[] parameter(1), metadata={op_name="reduce_sum"}
  ROOT %reduce_sum.341 = f32[] add(%reduce_sum.339, %reduce_sum.340), metadata={op_name="jit(train_step)/jvp(Model)/Model.embed_image_and_text/Model.embed_image/img/Transformer/encoderblock_9/LayerNorm_1/reduce_sum" stack_frame_id=22}
}

%region_59.60 (reduce_sum.346: f32[], reduce_sum.347: f32[]) -> f32[] {
  %reduce_sum.346 = f32[] parameter(0), metadata={op_name="reduce_sum"}
  %reduce_sum.347 = f32[] parameter(1), metadata={op_name="reduce_sum"}
  ROOT %reduce_sum.348 = f32[] add(%reduce_sum.346, %reduce_sum.347), metadata={op_name="jit(train_step)/jvp(Model)/Model.embed_image_and_text/Model.embed_image/img/Transformer/encoderblock_9/LayerNorm_1/reduce_sum" stack_frame_id=22}
}

%region_60.61 (reduce_sum.353: f32[], reduce_sum.354: f32[]) -> f32[] {
  %reduce_sum.353 = f32[] parameter(0), metadata={op_name="reduce_sum"}
  %reduce_sum.354 = f32[] parameter(1), metadata={op_name="reduce_sum"}
  ROOT %reduce_sum.355 = f32[] add(%reduce_sum.353, %reduce_sum.354), metadata={op_name="jit(train_step)/jvp(Model)/Model.embed_image_and_text/Model.embed_image/img/Transformer/encoderblock_10/LayerNorm_0/reduce_sum" stack_frame_id=13}
}

%region_61.62 (reduce_sum.360: f32[], reduce_sum.361: f32[]) -> f32[] {
  %reduce_sum.360 = f32[] parameter(0), metadata={op_name="reduce_sum"}
  %reduce_sum.361 = f32[] parameter(1), metadata={op_name="reduce_sum"}
  ROOT %reduce_sum.362 = f32[] add(%reduce_sum.360, %reduce_sum.361), metadata={op_name="jit(train_step)/jvp(Model)/Model.embed_image_and_text/Model.embed_image/img/Transformer/encoderblock_10/LayerNorm_0/reduce_sum" stack_frame_id=13}
}

%region_62.63 (reduce_max.73: f32[], reduce_max.74: f32[]) -> f32[] {
  %reduce_max.73 = f32[] parameter(0), metadata={op_name="reduce_max"}
  %reduce_max.74 = f32[] parameter(1), metadata={op_name="reduce_max"}
  ROOT %reduce_max.75 = f32[] maximum(%reduce_max.73, %reduce_max.74), metadata={op_name="jit(train_step)/jvp(Model)/Model.embed_image_and_text/Model.embed_image/img/Transformer/encoderblock_10/MultiHeadDotProductAttention_0/reduce_max" stack_frame_id=17}
}

%region_63.64 (reduce_sum.367: f32[], reduce_sum.368: f32[]) -> f32[] {
  %reduce_sum.367 = f32[] parameter(0), metadata={op_name="reduce_sum"}
  %reduce_sum.368 = f32[] parameter(1), metadata={op_name="reduce_sum"}
  ROOT %reduce_sum.369 = f32[] add(%reduce_sum.367, %reduce_sum.368), metadata={op_name="jit(train_step)/jvp(Model)/Model.embed_image_and_text/Model.embed_image/img/Transformer/encoderblock_10/MultiHeadDotProductAttention_0/reduce_sum" stack_frame_id=17}
}

%region_64.65 (reduce_sum.374: f32[], reduce_sum.375: f32[]) -> f32[] {
  %reduce_sum.374 = f32[] parameter(0), metadata={op_name="reduce_sum"}
  %reduce_sum.375 = f32[] parameter(1), metadata={op_name="reduce_sum"}
  ROOT %reduce_sum.376 = f32[] add(%reduce_sum.374, %reduce_sum.375), metadata={op_name="jit(train_step)/jvp(Model)/Model.embed_image_and_text/Model.embed_image/img/Transformer/encoderblock_10/LayerNorm_1/reduce_sum" stack_frame_id=22}
}

%region_65.66 (reduce_sum.381: f32[], reduce_sum.382: f32[]) -> f32[] {
  %reduce_sum.381 = f32[] parameter(0), metadata={op_name="reduce_sum"}
  %reduce_sum.382 = f32[] parameter(1), metadata={op_name="reduce_sum"}
  ROOT %reduce_sum.383 = f32[] add(%reduce_sum.381, %reduce_sum.382), metadata={op_name="jit(train_step)/jvp(Model)/Model.embed_image_and_text/Model.embed_image/img/Transformer/encoderblock_10/LayerNorm_1/reduce_sum" stack_frame_id=22}
}

%region_66.67 (reduce_sum.388: f32[], reduce_sum.389: f32[]) -> f32[] {
  %reduce_sum.388 = f32[] parameter(0), metadata={op_name="reduce_sum"}
  %reduce_sum.389 = f32[] parameter(1), metadata={op_name="reduce_sum"}
  ROOT %reduce_sum.390 = f32[] add(%reduce_sum.388, %reduce_sum.389), metadata={op_name="jit(train_step)/jvp(Model)/Model.embed_image_and_text/Model.embed_image/img/Transformer/encoderblock_11/LayerNorm_0/reduce_sum" stack_frame_id=13}
}

%region_67.68 (reduce_sum.395: f32[], reduce_sum.396: f32[]) -> f32[] {
  %reduce_sum.395 = f32[] parameter(0), metadata={op_name="reduce_sum"}
  %reduce_sum.396 = f32[] parameter(1), metadata={op_name="reduce_sum"}
  ROOT %reduce_sum.397 = f32[] add(%reduce_sum.395, %reduce_sum.396), metadata={op_name="jit(train_step)/jvp(Model)/Model.embed_image_and_text/Model.embed_image/img/Transformer/encoderblock_11/LayerNorm_0/reduce_sum" stack_frame_id=13}
}

%region_68.69 (reduce_max.80: f32[], reduce_max.81: f32[]) -> f32[] {
  %reduce_max.80 = f32[] parameter(0), metadata={op_name="reduce_max"}
  %reduce_max.81 = f32[] parameter(1), metadata={op_name="reduce_max"}
  ROOT %reduce_max.82 = f32[] maximum(%reduce_max.80, %reduce_max.81), metadata={op_name="jit(train_step)/jvp(Model)/Model.embed_image_and_text/Model.embed_image/img/Transformer/encoderblock_11/MultiHeadDotProductAttention_0/reduce_max" stack_frame_id=17}
}

%region_69.70 (reduce_sum.402: f32[], reduce_sum.403: f32[]) -> f32[] {
  %reduce_sum.402 = f32[] parameter(0), metadata={op_name="reduce_sum"}
  %reduce_sum.403 = f32[] parameter(1), metadata={op_name="reduce_sum"}
  ROOT %reduce_sum.404 = f32[] add(%reduce_sum.402, %reduce_sum.403), metadata={op_name="jit(train_step)/jvp(Model)/Model.embed_image_and_text/Model.embed_image/img/Transformer/encoderblock_11/MultiHeadDotProductAttention_0/reduce_sum" stack_frame_id=17}
}

%region_70.71 (reduce_sum.409: f32[], reduce_sum.410: f32[]) -> f32[] {
  %reduce_sum.409 = f32[] parameter(0), metadata={op_name="reduce_sum"}
  %reduce_sum.410 = f32[] parameter(1), metadata={op_name="reduce_sum"}
  ROOT %reduce_sum.411 = f32[] add(%reduce_sum.409, %reduce_sum.410), metadata={op_name="jit(train_step)/jvp(Model)/Model.embed_image_and_text/Model.embed_image/img/Transformer/encoderblock_11/LayerNorm_1/reduce_sum" stack_frame_id=22}
}

%region_71.72 (reduce_sum.416: f32[], reduce_sum.417: f32[]) -> f32[] {
  %reduce_sum.416 = f32[] parameter(0), metadata={op_name="reduce_sum"}
  %reduce_sum.417 = f32[] parameter(1), metadata={op_name="reduce_sum"}
  ROOT %reduce_sum.418 = f32[] add(%reduce_sum.416, %reduce_sum.417), metadata={op_name="jit(train_step)/jvp(Model)/Model.embed_image_and_text/Model.embed_image/img/Transformer/encoderblock_11/LayerNorm_1/reduce_sum" stack_frame_id=22}
}

%region_72.73 (reduce_sum.423: f32[], reduce_sum.424: f32[]) -> f32[] {
  %reduce_sum.423 = f32[] parameter(0), metadata={op_name="reduce_sum"}
  %reduce_sum.424 = f32[] parameter(1), metadata={op_name="reduce_sum"}
  ROOT %reduce_sum.425 = f32[] add(%reduce_sum.423, %reduce_sum.424), metadata={op_name="jit(train_step)/jvp(Model)/Model.embed_image_and_text/Model.embed_image/img/Transformer/encoder_norm/reduce_sum" stack_frame_id=27}
}

%region_73.74 (reduce_sum.430: f32[], reduce_sum.431: f32[]) -> f32[] {
  %reduce_sum.430 = f32[] parameter(0), metadata={op_name="reduce_sum"}
  %reduce_sum.431 = f32[] parameter(1), metadata={op_name="reduce_sum"}
  ROOT %reduce_sum.432 = f32[] add(%reduce_sum.430, %reduce_sum.431), metadata={op_name="jit(train_step)/jvp(Model)/Model.embed_image_and_text/Model.embed_image/img/Transformer/encoder_norm/reduce_sum" stack_frame_id=27}
}

%_pad.75 (Arg_0.1: s32[2,32], Arg_1.1: s32[]) -> s32[2,228] {
  %Arg_0.1 = s32[2,32]{1,0} parameter(0)
  %Arg_1.1 = s32[] parameter(1)
  ROOT %pad.1 = s32[2,228]{1,0} pad(%Arg_0.1, %Arg_1.1), padding=0_0x196_0, metadata={op_name="pad"}
}

%region_74.77 (reduce_window_sum.3: s32[], reduce_window_sum.4: s32[]) -> s32[] {
  %reduce_window_sum.3 = s32[] parameter(0), metadata={op_name="reduce_window_sum"}
  %reduce_window_sum.4 = s32[] parameter(1), metadata={op_name="reduce_window_sum"}
  ROOT %reduce_window_sum.5 = s32[] add(%reduce_window_sum.3, %reduce_window_sum.4), metadata={op_name="reduce_window_sum"}
}

%cumsum_1.78 (Arg_0.6: s32[2,228]) -> s32[2,228] {
  %Arg_0.6 = s32[2,228]{1,0} parameter(0)
  %constant.178 = s32[] constant(0)
  ROOT %reduce_window_sum.7 = s32[2,228]{1,0} reduce-window(%Arg_0.6, %constant.178), window={size=1x228 pad=0_0x227_0}, to_apply=%region_74.77, metadata={op_name="reduce_window_sum"}
}

%cumsum.79 (Arg_0.7: s32[2,228]) -> s32[2,228] {
  %Arg_0.7 = s32[2,228]{1,0} parameter(0)
  ROOT %call.1 = s32[2,228]{1,0} call(%Arg_0.7), to_apply=%cumsum_1.78
}

%_pad_0.76 (Arg_0.3: pred[2,32], Arg_1.3: pred[]) -> pred[2,228] {
  %Arg_0.3 = pred[2,32]{1,0} parameter(0)
  %Arg_1.3 = pred[] parameter(1)
  ROOT %pad.3 = pred[2,228]{1,0} pad(%Arg_0.3, %Arg_1.3), padding=0_0x196_0, metadata={op_name="pad"}
}

%_where.80 (Arg_0.9: pred[2,1,1,228,228], Arg_1.5: f32[]) -> (pred[2,1,8,228,228], f32[2,1,8,228,228]) {
  %Arg_0.9 = pred[2,1,1,228,228]{4,3,2,1,0} parameter(0)
  %broadcast_in_dim.101 = pred[2,1,1,228,228]{4,3,2,1,0} broadcast(%Arg_0.9), dimensions={0,1,2,3,4}, metadata={op_name="broadcast_in_dim"}
  %broadcast_in_dim.102 = pred[2,1,228,228]{3,2,1,0} reshape(%broadcast_in_dim.101), metadata={op_name="broadcast_in_dim"}
  %broadcast_in_dim.103 = pred[2,1,8,228,228]{4,3,2,1,0} broadcast(%broadcast_in_dim.102), dimensions={0,1,3,4}, metadata={op_name="broadcast_in_dim"}
  %Arg_1.5 = f32[] parameter(1)
  %broadcast_in_dim.104 = f32[2,1,8,228,228]{4,3,2,1,0} broadcast(%Arg_1.5), dimensions={}, metadata={op_name="broadcast_in_dim"}
  ROOT %tuple.1 = (pred[2,1,8,228,228]{4,3,2,1,0}, f32[2,1,8,228,228]{4,3,2,1,0}) tuple(%broadcast_in_dim.103, %broadcast_in_dim.104)
}

%dynamic_index_in_dim.81 (Arg_0.11: f32[18,8,256,2048], Arg_1.7: s32[]) -> f32[8,256,2048] {
  %Arg_0.11 = f32[18,8,256,2048]{3,2,1,0} parameter(0)
  %Arg_1.7 = s32[] parameter(1)
  %constant.181 = s32[] constant(0)
  %dynamic_slice.1 = f32[1,8,256,2048]{3,2,1,0} dynamic-slice(%Arg_0.11, %Arg_1.7, %constant.181, %constant.181, %constant.181), dynamic_slice_sizes={1,8,256,2048}, metadata={op_name="dynamic_slice" stack_frame_id=33}
  ROOT %squeeze.1 = f32[8,256,2048]{2,1,0} reshape(%dynamic_slice.1), metadata={op_name="squeeze" stack_frame_id=33}
}

%dynamic_index_in_dim_2.82 (Arg_0.13: f32[18,2,1,2048,256], Arg_1.9: s32[]) -> f32[2,1,2048,256] {
  %Arg_0.13 = f32[18,2,1,2048,256]{4,3,2,1,0} parameter(0)
  %Arg_1.9 = s32[] parameter(1)
  %constant.183 = s32[] constant(0)
  %dynamic_slice.3 = f32[1,2,1,2048,256]{4,3,2,1,0} dynamic-slice(%Arg_0.13, %Arg_1.9, %constant.183, %constant.183, %constant.183, /*index=5*/%constant.183), dynamic_slice_sizes={1,2,1,2048,256}, metadata={op_name="dynamic_slice" stack_frame_id=33}
  ROOT %squeeze.3 = f32[2,1,2048,256]{3,2,1,0} reshape(%dynamic_slice.3), metadata={op_name="squeeze" stack_frame_id=33}
}

%dynamic_index_in_dim_3.83 (Arg_0.15: f32[18,8,2048,256], Arg_1.11: s32[]) -> f32[8,2048,256] {
  %Arg_0.15 = f32[18,8,2048,256]{3,2,1,0} parameter(0)
  %Arg_1.11 = s32[] parameter(1)
  %constant.185 = s32[] constant(0)
  %dynamic_slice.5 = f32[1,8,2048,256]{3,2,1,0} dynamic-slice(%Arg_0.15, %Arg_1.11, %constant.185, %constant.185, %constant.185), dynamic_slice_sizes={1,8,2048,256}, metadata={op_name="dynamic_slice" stack_frame_id=33}
  ROOT %squeeze.5 = f32[8,2048,256]{2,1,0} reshape(%dynamic_slice.5), metadata={op_name="squeeze" stack_frame_id=33}
}

%dynamic_index_in_dim_4.84 (Arg_0.17: f32[18,2,2048,16384], Arg_1.13: s32[]) -> f32[2,2048,16384] {
  %Arg_0.17 = f32[18,2,2048,16384]{3,2,1,0} parameter(0)
  %Arg_1.13 = s32[] parameter(1)
  %constant.187 = s32[] constant(0)
  %dynamic_slice.7 = f32[1,2,2048,16384]{3,2,1,0} dynamic-slice(%Arg_0.17, %Arg_1.13, %constant.187, %constant.187, %constant.187), dynamic_slice_sizes={1,2,2048,16384}, metadata={op_name="dynamic_slice" stack_frame_id=33}
  ROOT %squeeze.7 = f32[2,2048,16384]{2,1,0} reshape(%dynamic_slice.7), metadata={op_name="squeeze" stack_frame_id=33}
}

%dynamic_index_in_dim_5.85 (Arg_0.19: f32[18,16384,2048], Arg_1.15: s32[]) -> f32[16384,2048] {
  %Arg_0.19 = f32[18,16384,2048]{2,1,0} parameter(0)
  %Arg_1.15 = s32[] parameter(1)
  %constant.189 = s32[] constant(0)
  %dynamic_slice.9 = f32[1,16384,2048]{2,1,0} dynamic-slice(%Arg_0.19, %Arg_1.15, %constant.189, %constant.189), dynamic_slice_sizes={1,16384,2048}, metadata={op_name="dynamic_slice" stack_frame_id=33}
  ROOT %squeeze.9 = f32[16384,2048]{1,0} reshape(%dynamic_slice.9), metadata={op_name="squeeze" stack_frame_id=33}
}

%dynamic_index_in_dim_6.86 (Arg_0.21: f32[18,2048], Arg_1.17: s32[]) -> f32[2048] {
  %Arg_0.21 = f32[18,2048]{1,0} parameter(0)
  %Arg_1.17 = s32[] parameter(1)
  %constant.191 = s32[] constant(0)
  %dynamic_slice.11 = f32[1,2048]{1,0} dynamic-slice(%Arg_0.21, %Arg_1.17, %constant.191), dynamic_slice_sizes={1,2048}, metadata={op_name="dynamic_slice" stack_frame_id=33}
  ROOT %squeeze.11 = f32[2048]{0} reshape(%dynamic_slice.11), metadata={op_name="squeeze" stack_frame_id=33}
}

%region_76.87 (reduce_sum.437: f32[], reduce_sum.438: f32[]) -> f32[] {
  %reduce_sum.437 = f32[] parameter(0), metadata={op_name="reduce_sum"}
  %reduce_sum.438 = f32[] parameter(1), metadata={op_name="reduce_sum"}
  ROOT %reduce_sum.439 = f32[] add(%reduce_sum.437, %reduce_sum.438), metadata={op_name="Block/pre_attention_norm/reduce_sum" stack_frame_id=35}
}

%_where_7.88 (Arg_0.24: f32[2,1,8,228,228], Arg_1.20: pred[2,1,8,228,228], Arg_2.2: f32[2,1,8,228,228]) -> f32[2,1,8,228,228] {
  %Arg_1.20 = pred[2,1,8,228,228]{4,3,2,1,0} parameter(1)
  %Arg_0.24 = f32[2,1,8,228,228]{4,3,2,1,0} parameter(0)
  %Arg_2.2 = f32[2,1,8,228,228]{4,3,2,1,0} parameter(2)
  ROOT %select_n.52 = f32[2,1,8,228,228]{4,3,2,1,0} select(%Arg_1.20, %Arg_0.24, %Arg_2.2), metadata={op_name="select_n"}
}

%region_77.89 (reduce_max.87: f32[], reduce_max.88: f32[]) -> f32[] {
  %reduce_max.87 = f32[] parameter(0), metadata={op_name="reduce_max"}
  %reduce_max.88 = f32[] parameter(1), metadata={op_name="reduce_max"}
  ROOT %reduce_max.89 = f32[] maximum(%reduce_max.87, %reduce_max.88), metadata={op_name="Block/attn/reduce_max" stack_frame_id=37}
}

%region_78.90 (reduce_sum.444: f32[], reduce_sum.445: f32[]) -> f32[] {
  %reduce_sum.444 = f32[] parameter(0), metadata={op_name="reduce_sum"}
  %reduce_sum.445 = f32[] parameter(1), metadata={op_name="reduce_sum"}
  ROOT %reduce_sum.446 = f32[] add(%reduce_sum.444, %reduce_sum.445), metadata={op_name="Block/attn/reduce_sum" stack_frame_id=37}
}

%region_79.91 (reduce_sum.451: f32[], reduce_sum.452: f32[]) -> f32[] {
  %reduce_sum.451 = f32[] parameter(0), metadata={op_name="reduce_sum"}
  %reduce_sum.452 = f32[] parameter(1), metadata={op_name="reduce_sum"}
  ROOT %reduce_sum.453 = f32[] add(%reduce_sum.451, %reduce_sum.452), metadata={op_name="Block/pre_ffw_norm/reduce_sum" stack_frame_id=39}
}

%closed_call.92 (Arg_0.25: f32[1,228,1,128], Arg_1.21: f32[1,228,1,128], Arg_2.3: f32[1,228,1,128], Arg_3.1: f32[1,228,1,128], Arg_4.1: f32[1,228,1,128], Arg_5.1: f32[1,228,1,128], Arg_6.1: f32[1,228,1,128], Arg_7.1: f32[1,228,1,128], Arg_8.1: pred[2,1,8,228,228], Arg_9.1: f32[2,1,8,228,228], Arg_10.1: f32[2,228,2048], Arg_11.1: f32[8,256,2048], Arg_12.1: f32[2,1,2048,256], Arg_13.1: f32[8,2048,256], Arg_14.1: f32[2,2048,16384], Arg_15.1: f32[16384,2048], Arg_16.1: f32[2048], Arg_17.1: f32[2048]) -> (f32[2,228,2048], f32[2,228,2048]) {
  %Arg_12.1 = f32[2,1,2048,256]{3,2,1,0} parameter(12)
  %Arg_10.1 = f32[2,228,2048]{2,1,0} parameter(10)
  %constant.211 = f32[] constant(1)
  %broadcast.90 = f32[2,228,1]{2,1,0} broadcast(%constant.211), dimensions={}
  %square.52 = f32[2,228,2048]{2,1,0} multiply(%Arg_10.1, %Arg_10.1), metadata={op_name="Block/pre_attention_norm/square" stack_frame_id=40}
  %constant.215 = f32[] constant(0)
  %reduce_sum.455 = f32[2,228]{1,0} reduce(%square.52, %constant.215), dimensions={2}, to_apply=%region_76.87, metadata={op_name="Block/pre_attention_norm/reduce_sum" stack_frame_id=35}
  %broadcast_in_dim.111 = f32[2,228,1]{2,1,0} reshape(%reduce_sum.455), metadata={op_name="Block/pre_attention_norm/broadcast_in_dim" stack_frame_id=35}
  %constant.213 = f32[] constant(2048)
  %broadcast.92 = f32[2,228,1]{2,1,0} broadcast(%constant.213), dimensions={}
  %div.193 = f32[2,228,1]{2,1,0} divide(%broadcast_in_dim.111, %broadcast.92), metadata={op_name="Block/pre_attention_norm/div" stack_frame_id=35}
  %constant.212 = f32[] constant(1e-06)
  %broadcast.91 = f32[2,228,1]{2,1,0} broadcast(%constant.212), dimensions={}
  %add.498 = f32[2,228,1]{2,1,0} add(%div.193, %broadcast.91), metadata={op_name="Block/pre_attention_norm/add" stack_frame_id=41}
  %sqrt.2 = f32[2,228,1]{2,1,0} sqrt(%add.498), metadata={op_name="Block/pre_attention_norm/sqrt" stack_frame_id=42}
  %integer_pow.40 = f32[2,228,1]{2,1,0} divide(%broadcast.90, %sqrt.2), metadata={op_name="Block/pre_attention_norm/integer_pow" stack_frame_id=43}
  %mul.468 = f32[2,228,1]{2,1,0} broadcast(%integer_pow.40), dimensions={0,1,2}, metadata={op_name="Block/pre_attention_norm/mul" stack_frame_id=44}
  %mul.469 = f32[2,228]{1,0} reshape(%mul.468), metadata={op_name="Block/pre_attention_norm/mul" stack_frame_id=44}
  %mul.470 = f32[2,228,2048]{2,1,0} broadcast(%mul.469), dimensions={0,1}, metadata={op_name="Block/pre_attention_norm/mul" stack_frame_id=44}
  %mul.471 = f32[2,228,2048]{2,1,0} multiply(%Arg_10.1, %mul.470), metadata={op_name="Block/pre_attention_norm/mul" stack_frame_id=44}
  %Arg_16.1 = f32[2048]{0} parameter(16)
  %constant.210 = f32[] constant(1)
  %broadcast.89 = f32[2048]{0} broadcast(%constant.210), dimensions={}
  %add.499 = f32[2048]{0} add(%Arg_16.1, %broadcast.89), metadata={op_name="Block/pre_attention_norm/add" stack_frame_id=45}
  %broadcast_in_dim.112 = f32[1,1,2048]{2,1,0} reshape(%add.499), metadata={op_name="Block/pre_attention_norm/broadcast_in_dim" stack_frame_id=46}
  %mul.472 = f32[1,1,2048]{2,1,0} broadcast(%broadcast_in_dim.112), dimensions={0,1,2}, metadata={op_name="Block/pre_attention_norm/mul" stack_frame_id=46}
  %mul.473 = f32[2048]{0} reshape(%mul.472), metadata={op_name="Block/pre_attention_norm/mul" stack_frame_id=46}
  %mul.474 = f32[2,228,2048]{2,1,0} broadcast(%mul.473), dimensions={2}, metadata={op_name="Block/pre_attention_norm/mul" stack_frame_id=46}
  %mul.475 = f32[2,228,2048]{2,1,0} multiply(%mul.471, %mul.474), metadata={op_name="Block/pre_attention_norm/mul" stack_frame_id=46}
  %dot_general.106 = f32[2,1,256,2,228]{4,3,2,1,0} dot(%Arg_12.1, %mul.475), lhs_contracting_dims={2}, rhs_contracting_dims={2}, metadata={op_name="Block/attn/kv_einsum/BSD,2KDH->2BSKH/dot_general" stack_frame_id=48}
  %transpose.15 = f32[2,2,228,1,256]{2,1,4,3,0} transpose(%dot_general.106), dimensions={0,3,4,1,2}, metadata={op_name="Block/attn/kv_einsum/BSD,2KDH->2BSKH/transpose" stack_frame_id=48}
  %slice.5 = f32[1,2,228,1,256]{4,3,2,1,0} slice(%transpose.15), slice={[1:2], [0:2], [0:228], [0:1], [0:256]}, metadata={op_name="Block/attn/slice" stack_frame_id=49}
  %squeeze.17 = f32[2,228,1,256]{3,2,1,0} reshape(%slice.5), metadata={op_name="Block/attn/squeeze" stack_frame_id=49}
  %slice.4 = f32[1,2,228,1,256]{4,3,2,1,0} slice(%transpose.15), slice={[0:1], [0:2], [0:228], [0:1], [0:256]}, metadata={op_name="Block/attn/slice" stack_frame_id=49}
  %squeeze.16 = f32[2,228,1,256]{3,2,1,0} reshape(%slice.4), metadata={op_name="Block/attn/squeeze" stack_frame_id=49}
  %split.6 = f32[2,228,1,128]{3,2,1,0} slice(%squeeze.16), slice={[0:2], [0:228], [0:1], [0:128]}, metadata={op_name="Block/attn/split" stack_frame_id=51}
  %Arg_0.25 = f32[1,228,1,128]{3,2,1,0} parameter(0)
  %mul.493 = f32[1,228,1,128]{3,2,1,0} broadcast(%Arg_0.25), dimensions={0,1,2,3}, metadata={op_name="Block/attn/mul" stack_frame_id=52}
  %mul.494 = f32[228,1,128]{2,1,0} reshape(%mul.493), metadata={op_name="Block/attn/mul" stack_frame_id=52}
  %mul.495 = f32[2,228,1,128]{3,2,1,0} broadcast(%mul.494), dimensions={1,2,3}, metadata={op_name="Block/attn/mul" stack_frame_id=52}
  %mul.496 = f32[2,228,1,128]{3,2,1,0} multiply(%split.6, %mul.495), metadata={op_name="Block/attn/mul" stack_frame_id=52}
  %split.7 = f32[2,228,1,128]{3,2,1,0} slice(%squeeze.16), slice={[0:2], [0:228], [0:1], [128:256]}, metadata={op_name="Block/attn/split" stack_frame_id=51}
  %Arg_1.21 = f32[1,228,1,128]{3,2,1,0} parameter(1)
  %mul.497 = f32[1,228,1,128]{3,2,1,0} broadcast(%Arg_1.21), dimensions={0,1,2,3}, metadata={op_name="Block/attn/mul" stack_frame_id=53}
  %mul.498 = f32[228,1,128]{2,1,0} reshape(%mul.497), metadata={op_name="Block/attn/mul" stack_frame_id=53}
  %mul.499 = f32[2,228,1,128]{3,2,1,0} broadcast(%mul.498), dimensions={1,2,3}, metadata={op_name="Block/attn/mul" stack_frame_id=53}
  %mul.500 = f32[2,228,1,128]{3,2,1,0} multiply(%split.7, %mul.499), metadata={op_name="Block/attn/mul" stack_frame_id=53}
  %sub.192 = f32[2,228,1,128]{3,2,1,0} subtract(%mul.496, %mul.500), metadata={op_name="Block/attn/sub" stack_frame_id=52}
  %Arg_2.3 = f32[1,228,1,128]{3,2,1,0} parameter(2)
  %mul.501 = f32[1,228,1,128]{3,2,1,0} broadcast(%Arg_2.3), dimensions={0,1,2,3}, metadata={op_name="Block/attn/mul" stack_frame_id=54}
  %mul.502 = f32[228,1,128]{2,1,0} reshape(%mul.501), metadata={op_name="Block/attn/mul" stack_frame_id=54}
  %mul.503 = f32[2,228,1,128]{3,2,1,0} broadcast(%mul.502), dimensions={1,2,3}, metadata={op_name="Block/attn/mul" stack_frame_id=54}
  %mul.504 = f32[2,228,1,128]{3,2,1,0} multiply(%split.7, %mul.503), metadata={op_name="Block/attn/mul" stack_frame_id=54}
  %Arg_3.1 = f32[1,228,1,128]{3,2,1,0} parameter(3)
  %mul.505 = f32[1,228,1,128]{3,2,1,0} broadcast(%Arg_3.1), dimensions={0,1,2,3}, metadata={op_name="Block/attn/mul" stack_frame_id=55}
  %mul.506 = f32[228,1,128]{2,1,0} reshape(%mul.505), metadata={op_name="Block/attn/mul" stack_frame_id=55}
  %mul.507 = f32[2,228,1,128]{3,2,1,0} broadcast(%mul.506), dimensions={1,2,3}, metadata={op_name="Block/attn/mul" stack_frame_id=55}
  %mul.508 = f32[2,228,1,128]{3,2,1,0} multiply(%split.6, %mul.507), metadata={op_name="Block/attn/mul" stack_frame_id=55}
  %add.501 = f32[2,228,1,128]{3,2,1,0} add(%mul.504, %mul.508), metadata={op_name="Block/attn/add" stack_frame_id=54}
  %concatenate.4 = f32[2,228,1,256]{3,2,1,0} concatenate(%sub.192, %add.501), dimensions={3}, metadata={op_name="Block/attn/concatenate" stack_frame_id=56}
  %Arg_13.1 = f32[8,2048,256]{2,1,0} parameter(13)
  %dot_general.105 = f32[2,228,8,256]{3,2,1,0} dot(%mul.475, %Arg_13.1), lhs_contracting_dims={2}, rhs_contracting_dims={1}, metadata={op_name="Block/attn/q_einsum/BTD,NDH->BTNH/dot_general" stack_frame_id=58}
  %split.4 = f32[2,228,8,128]{3,2,1,0} slice(%dot_general.105), slice={[0:2], [0:228], [0:8], [0:128]}, metadata={op_name="Block/attn/split" stack_frame_id=60}
  %Arg_4.1 = f32[1,228,1,128]{3,2,1,0} parameter(4)
  %mul.476 = f32[1,228,1,128]{3,2,1,0} broadcast(%Arg_4.1), dimensions={0,1,2,3}, metadata={op_name="Block/attn/mul" stack_frame_id=61}
  %mul.477 = f32[228,128]{1,0} reshape(%mul.476), metadata={op_name="Block/attn/mul" stack_frame_id=61}
  %mul.478 = f32[2,228,8,128]{3,2,1,0} broadcast(%mul.477), dimensions={1,3}, metadata={op_name="Block/attn/mul" stack_frame_id=61}
  %mul.479 = f32[2,228,8,128]{3,2,1,0} multiply(%split.4, %mul.478), metadata={op_name="Block/attn/mul" stack_frame_id=61}
  %split.5 = f32[2,228,8,128]{3,2,1,0} slice(%dot_general.105), slice={[0:2], [0:228], [0:8], [128:256]}, metadata={op_name="Block/attn/split" stack_frame_id=60}
  %Arg_5.1 = f32[1,228,1,128]{3,2,1,0} parameter(5)
  %mul.480 = f32[1,228,1,128]{3,2,1,0} broadcast(%Arg_5.1), dimensions={0,1,2,3}, metadata={op_name="Block/attn/mul" stack_frame_id=62}
  %mul.481 = f32[228,128]{1,0} reshape(%mul.480), metadata={op_name="Block/attn/mul" stack_frame_id=62}
  %mul.482 = f32[2,228,8,128]{3,2,1,0} broadcast(%mul.481), dimensions={1,3}, metadata={op_name="Block/attn/mul" stack_frame_id=62}
  %mul.483 = f32[2,228,8,128]{3,2,1,0} multiply(%split.5, %mul.482), metadata={op_name="Block/attn/mul" stack_frame_id=62}
  %sub.191 = f32[2,228,8,128]{3,2,1,0} subtract(%mul.479, %mul.483), metadata={op_name="Block/attn/sub" stack_frame_id=61}
  %Arg_6.1 = f32[1,228,1,128]{3,2,1,0} parameter(6)
  %mul.484 = f32[1,228,1,128]{3,2,1,0} broadcast(%Arg_6.1), dimensions={0,1,2,3}, metadata={op_name="Block/attn/mul" stack_frame_id=63}
  %mul.485 = f32[228,128]{1,0} reshape(%mul.484), metadata={op_name="Block/attn/mul" stack_frame_id=63}
  %mul.486 = f32[2,228,8,128]{3,2,1,0} broadcast(%mul.485), dimensions={1,3}, metadata={op_name="Block/attn/mul" stack_frame_id=63}
  %mul.487 = f32[2,228,8,128]{3,2,1,0} multiply(%split.5, %mul.486), metadata={op_name="Block/attn/mul" stack_frame_id=63}
  %Arg_7.1 = f32[1,228,1,128]{3,2,1,0} parameter(7)
  %mul.488 = f32[1,228,1,128]{3,2,1,0} broadcast(%Arg_7.1), dimensions={0,1,2,3}, metadata={op_name="Block/attn/mul" stack_frame_id=64}
  %mul.489 = f32[228,128]{1,0} reshape(%mul.488), metadata={op_name="Block/attn/mul" stack_frame_id=64}
  %mul.490 = f32[2,228,8,128]{3,2,1,0} broadcast(%mul.489), dimensions={1,3}, metadata={op_name="Block/attn/mul" stack_frame_id=64}
  %mul.491 = f32[2,228,8,128]{3,2,1,0} multiply(%split.4, %mul.490), metadata={op_name="Block/attn/mul" stack_frame_id=64}
  %add.500 = f32[2,228,8,128]{3,2,1,0} add(%mul.487, %mul.491), metadata={op_name="Block/attn/add" stack_frame_id=63}
  %concatenate.3 = f32[2,228,8,256]{3,2,1,0} concatenate(%sub.191, %add.500), dimensions={3}, metadata={op_name="Block/attn/concatenate" stack_frame_id=65}
  %constant.209 = f32[] constant(0.0625)
  %mul.467 = f32[2,228,8,256]{3,2,1,0} broadcast(%constant.209), dimensions={}, metadata={op_name="Block/attn/mul" stack_frame_id=66}
  %mul.492 = f32[2,228,8,256]{3,2,1,0} multiply(%concatenate.3, %mul.467), metadata={op_name="Block/attn/mul" stack_frame_id=66}
  %reshape.127 = f32[2,228,1,8,256]{4,3,2,1,0} reshape(%mul.492), metadata={op_name="Block/attn/reshape" stack_frame_id=71}
  %dot_general.107 = f32[2,1,228,228,8]{4,3,2,1,0} dot(%concatenate.4, %reshape.127), lhs_batch_dims={0,2}, lhs_contracting_dims={3}, rhs_batch_dims={0,2}, rhs_contracting_dims={4}, metadata={op_name="Block/attn/BTKGH,BSKH->BKGTS/dot_general" stack_frame_id=72}
  %transpose.16 = f32[2,1,8,228,228]{2,3,4,1,0} transpose(%dot_general.107), dimensions={0,1,4,3,2}, metadata={op_name="Block/attn/BTKGH,BSKH->BKGTS/transpose" stack_frame_id=72}
  %Arg_8.1 = pred[2,1,8,228,228]{4,3,2,1,0} parameter(8)
  %Arg_9.1 = f32[2,1,8,228,228]{4,3,2,1,0} parameter(9)
  %jit__where_.4 = f32[2,1,8,228,228]{4,3,2,1,0} call(%transpose.16, %Arg_8.1, %Arg_9.1), to_apply=%_where_7.88, metadata={op_name="Block/attn/jit(_where)" stack_frame_id=73}
  %constant.214 = f32[] constant(-inf)
  %reduce_max.91 = f32[2,1,8,228]{3,2,1,0} reduce(%jit__where_.4, %constant.214), dimensions={4}, to_apply=%region_77.89, metadata={op_name="Block/attn/reduce_max" stack_frame_id=37}
  %constant.208 = f32[] constant(-inf)
  %max.40 = f32[2,1,8,228]{3,2,1,0} broadcast(%constant.208), dimensions={}, metadata={op_name="Block/attn/max" stack_frame_id=37}
  %max.41 = f32[2,1,8,228]{3,2,1,0} maximum(%reduce_max.91, %max.40), metadata={op_name="Block/attn/max" stack_frame_id=37}
  %broadcast_in_dim.113 = f32[2,1,8,228,1]{4,3,2,1,0} reshape(%max.41), metadata={op_name="Block/attn/broadcast_in_dim" stack_frame_id=37}
  %sub.193 = f32[2,1,8,228,1]{4,3,2,1,0} broadcast(%broadcast_in_dim.113), dimensions={0,1,2,3,4}, metadata={op_name="Block/attn/sub" stack_frame_id=37}
  %sub.194 = f32[2,1,8,228]{3,2,1,0} reshape(%sub.193), metadata={op_name="Block/attn/sub" stack_frame_id=37}
  %sub.195 = f32[2,1,8,228,228]{4,3,2,1,0} broadcast(%sub.194), dimensions={0,1,2,3}, metadata={op_name="Block/attn/sub" stack_frame_id=37}
  %sub.196 = f32[2,1,8,228,228]{4,3,2,1,0} subtract(%jit__where_.4, %sub.195), metadata={op_name="Block/attn/sub" stack_frame_id=37}
  %exp.13 = f32[2,1,8,228,228]{4,3,2,1,0} exponential(%sub.196), metadata={op_name="Block/attn/exp" stack_frame_id=37}
  %reduce_sum.456 = f32[2,1,8,228]{3,2,1,0} reduce(%exp.13, %constant.215), dimensions={4}, to_apply=%region_78.90, metadata={op_name="Block/attn/reduce_sum" stack_frame_id=37}
  %broadcast_in_dim.114 = f32[2,1,8,228,1]{4,3,2,1,0} reshape(%reduce_sum.456), metadata={op_name="Block/attn/broadcast_in_dim" stack_frame_id=37}
  %div.194 = f32[2,1,8,228,1]{4,3,2,1,0} broadcast(%broadcast_in_dim.114), dimensions={0,1,2,3,4}, metadata={op_name="Block/attn/div" stack_frame_id=37}
  %div.195 = f32[2,1,8,228]{3,2,1,0} reshape(%div.194), metadata={op_name="Block/attn/div" stack_frame_id=37}
  %div.196 = f32[2,1,8,228,228]{4,3,2,1,0} broadcast(%div.195), dimensions={0,1,2,3}, metadata={op_name="Block/attn/div" stack_frame_id=37}
  %div.197 = f32[2,1,8,228,228]{4,3,2,1,0} divide(%exp.13, %div.196), metadata={op_name="Block/attn/div" stack_frame_id=37}
  %dot_general.108 = f32[2,1,256,8,228]{4,3,2,1,0} dot(%squeeze.17, %div.197), lhs_batch_dims={0,2}, lhs_contracting_dims={1}, rhs_batch_dims={0,1}, rhs_contracting_dims={4}, metadata={op_name="Block/attn/BKGTS,BSKH->BTKGH/dot_general" stack_frame_id=74}
  %transpose.17 = f32[2,228,1,8,256]{1,3,4,2,0} transpose(%dot_general.108), dimensions={0,4,1,3,2}, metadata={op_name="Block/attn/BKGTS,BSKH->BTKGH/transpose" stack_frame_id=74}
  %reshape.128 = f32[2,228,8,256]{3,2,1,0} reshape(%transpose.17), metadata={op_name="Block/attn/reshape" stack_frame_id=79}
  %Arg_11.1 = f32[8,256,2048]{2,1,0} parameter(11)
  %dot_general.109 = f32[2,228,2048]{2,1,0} dot(%reshape.128, %Arg_11.1), lhs_contracting_dims={3,2}, rhs_contracting_dims={1,0}, metadata={op_name="Block/attn/attn_vec_einsum/BTNH,NHD->BTD/dot_general" stack_frame_id=81}
  %add.502 = f32[2,228,2048]{2,1,0} add(%dot_general.109, %Arg_10.1), metadata={op_name="Block/add" stack_frame_id=82}
  %square.53 = f32[2,228,2048]{2,1,0} multiply(%add.502, %add.502), metadata={op_name="Block/pre_ffw_norm/square" stack_frame_id=83}
  %reduce_sum.457 = f32[2,228]{1,0} reduce(%square.53, %constant.215), dimensions={2}, to_apply=%region_79.91, metadata={op_name="Block/pre_ffw_norm/reduce_sum" stack_frame_id=39}
  %broadcast_in_dim.115 = f32[2,228,1]{2,1,0} reshape(%reduce_sum.457), metadata={op_name="Block/pre_ffw_norm/broadcast_in_dim" stack_frame_id=39}
  %div.198 = f32[2,228,1]{2,1,0} divide(%broadcast_in_dim.115, %broadcast.92), metadata={op_name="Block/pre_ffw_norm/div" stack_frame_id=39}
  %add.503 = f32[2,228,1]{2,1,0} add(%div.198, %broadcast.91), metadata={op_name="Block/pre_ffw_norm/add" stack_frame_id=84}
  %sqrt.3 = f32[2,228,1]{2,1,0} sqrt(%add.503), metadata={op_name="Block/pre_ffw_norm/sqrt" stack_frame_id=85}
  %integer_pow.41 = f32[2,228,1]{2,1,0} divide(%broadcast.90, %sqrt.3), metadata={op_name="Block/pre_ffw_norm/integer_pow" stack_frame_id=86}
  %mul.509 = f32[2,228,1]{2,1,0} broadcast(%integer_pow.41), dimensions={0,1,2}, metadata={op_name="Block/pre_ffw_norm/mul" stack_frame_id=87}
  %mul.510 = f32[2,228]{1,0} reshape(%mul.509), metadata={op_name="Block/pre_ffw_norm/mul" stack_frame_id=87}
  %mul.511 = f32[2,228,2048]{2,1,0} broadcast(%mul.510), dimensions={0,1}, metadata={op_name="Block/pre_ffw_norm/mul" stack_frame_id=87}
  %mul.512 = f32[2,228,2048]{2,1,0} multiply(%add.502, %mul.511), metadata={op_name="Block/pre_ffw_norm/mul" stack_frame_id=87}
  %Arg_17.1 = f32[2048]{0} parameter(17)
  %add.504 = f32[2048]{0} add(%Arg_17.1, %broadcast.89), metadata={op_name="Block/pre_ffw_norm/add" stack_frame_id=88}
  %broadcast_in_dim.116 = f32[1,1,2048]{2,1,0} reshape(%add.504), metadata={op_name="Block/pre_ffw_norm/broadcast_in_dim" stack_frame_id=89}
  %mul.513 = f32[1,1,2048]{2,1,0} broadcast(%broadcast_in_dim.116), dimensions={0,1,2}, metadata={op_name="Block/pre_ffw_norm/mul" stack_frame_id=89}
  %mul.514 = f32[2048]{0} reshape(%mul.513), metadata={op_name="Block/pre_ffw_norm/mul" stack_frame_id=89}
  %mul.515 = f32[2,228,2048]{2,1,0} broadcast(%mul.514), dimensions={2}, metadata={op_name="Block/pre_ffw_norm/mul" stack_frame_id=89}
  %mul.516 = f32[2,228,2048]{2,1,0} multiply(%mul.512, %mul.515), metadata={op_name="Block/pre_ffw_norm/mul" stack_frame_id=89}
  %Arg_14.1 = f32[2,2048,16384]{2,1,0} parameter(14)
  %slice.6 = f32[1,2048,16384]{2,1,0} slice(%Arg_14.1), slice={[0:1], [0:2048], [0:16384]}, metadata={op_name="Block/mlp/slice" stack_frame_id=91}
  %squeeze.18 = f32[2048,16384]{1,0} reshape(%slice.6), metadata={op_name="Block/mlp/squeeze" stack_frame_id=91}
  %dot_general.110 = f32[2,228,16384]{2,1,0} dot(%mul.516, %squeeze.18), lhs_contracting_dims={2}, rhs_contracting_dims={0}, metadata={op_name="Block/mlp/dot_general" stack_frame_id=92}
  %integer_pow.42 = f32[2,228,16384]{2,1,0} multiply(%dot_general.110, %dot_general.110), metadata={op_name="Block/mlp/integer_pow" stack_frame_id=93}
  %integer_pow.43 = f32[2,228,16384]{2,1,0} multiply(%integer_pow.42, %dot_general.110), metadata={op_name="Block/mlp/integer_pow" stack_frame_id=93}
  %constant.207 = f32[] constant(0.044715)
  %mul.466 = f32[2,228,16384]{2,1,0} broadcast(%constant.207), dimensions={}, metadata={op_name="Block/mlp/mul" stack_frame_id=93}
  %mul.517 = f32[2,228,16384]{2,1,0} multiply(%integer_pow.43, %mul.466), metadata={op_name="Block/mlp/mul" stack_frame_id=93}
  %add.505 = f32[2,228,16384]{2,1,0} add(%dot_general.110, %mul.517), metadata={op_name="Block/mlp/add" stack_frame_id=93}
  %constant.206 = f32[] constant(0.797884583)
  %mul.465 = f32[2,228,16384]{2,1,0} broadcast(%constant.206), dimensions={}, metadata={op_name="Block/mlp/mul" stack_frame_id=93}
  %mul.518 = f32[2,228,16384]{2,1,0} multiply(%add.505, %mul.465), metadata={op_name="Block/mlp/mul" stack_frame_id=93}
  %tanh.13 = f32[2,228,16384]{2,1,0} tanh(%mul.518), metadata={op_name="Block/mlp/tanh" stack_frame_id=93}
  %constant.205 = f32[] constant(1)
  %add.497 = f32[2,228,16384]{2,1,0} broadcast(%constant.205), dimensions={}, metadata={op_name="Block/mlp/add" stack_frame_id=93}
  %add.506 = f32[2,228,16384]{2,1,0} add(%tanh.13, %add.497), metadata={op_name="Block/mlp/add" stack_frame_id=93}
  %constant.204 = f32[] constant(0.5)
  %mul.464 = f32[2,228,16384]{2,1,0} broadcast(%constant.204), dimensions={}, metadata={op_name="Block/mlp/mul" stack_frame_id=93}
  %mul.519 = f32[2,228,16384]{2,1,0} multiply(%add.506, %mul.464), metadata={op_name="Block/mlp/mul" stack_frame_id=93}
  %mul.520 = f32[2,228,16384]{2,1,0} multiply(%dot_general.110, %mul.519), metadata={op_name="Block/mlp/mul" stack_frame_id=93}
  %slice.7 = f32[1,2048,16384]{2,1,0} slice(%Arg_14.1), slice={[1:2], [0:2048], [0:16384]}, metadata={op_name="Block/mlp/slice" stack_frame_id=94}
  %squeeze.19 = f32[2048,16384]{1,0} reshape(%slice.7), metadata={op_name="Block/mlp/squeeze" stack_frame_id=94}
  %dot_general.111 = f32[2,228,16384]{2,1,0} dot(%mul.516, %squeeze.19), lhs_contracting_dims={2}, rhs_contracting_dims={0}, metadata={op_name="Block/mlp/dot_general" stack_frame_id=95}
  %mul.521 = f32[2,228,16384]{2,1,0} multiply(%mul.520, %dot_general.111), metadata={op_name="Block/mlp/mul" stack_frame_id=96}
  %Arg_15.1 = f32[16384,2048]{1,0} parameter(15)
  %dot_general.112 = f32[2,228,2048]{2,1,0} dot(%mul.521, %Arg_15.1), lhs_contracting_dims={2}, rhs_contracting_dims={0}, metadata={op_name="Block/mlp/dot_general" stack_frame_id=97}
  %add.507 = f32[2,228,2048]{2,1,0} add(%add.502, %dot_general.112), metadata={op_name="Block/add" stack_frame_id=98}
  ROOT %tuple.3 = (f32[2,228,2048]{2,1,0}, f32[2,228,2048]{2,1,0}) tuple(%add.507, %Arg_10.1)
}

%dynamic_update_index_in_dim.93 (Arg_0.27: f32[18,2,228,2048], Arg_1.23: f32[2,228,2048], Arg_2.5: s32[]) -> f32[18,2,228,2048] {
  %Arg_0.27 = f32[18,2,228,2048]{3,2,1,0} parameter(0)
  %Arg_1.23 = f32[2,228,2048]{2,1,0} parameter(1)
  %broadcast_in_dim.118 = f32[1,2,228,2048]{3,2,1,0} reshape(%Arg_1.23), metadata={op_name="broadcast_in_dim" stack_frame_id=33}
  %Arg_2.5 = s32[] parameter(2)
  %constant.217 = s32[] constant(0)
  ROOT %dynamic_update_slice.1 = f32[18,2,228,2048]{3,2,1,0} dynamic-update-slice(%Arg_0.27, %broadcast_in_dim.118, %Arg_2.5, %constant.217, %constant.217, /*index=5*/%constant.217), metadata={op_name="dynamic_update_slice" stack_frame_id=33}
}

%region_75.94 (arg_tuple.1: (s32[], f32[2,228,2048], f32[18,2,228,2048], f32[18,8,256,2048], f32[18,2,1,2048,256], /*index=5*/f32[18,8,2048,256], f32[18,2,2048,16384], f32[18,16384,2048], f32[18,2048], f32[18,2048], /*index=10*/f32[1,228,1,128], f32[1,228,1,128], f32[1,228,1,128], f32[1,228,1,128], pred[2,1,8,228,228], /*index=15*/f32[2,1,8,228,228])) -> (s32[], f32[2,228,2048], f32[18,2,228,2048], f32[18,8,256,2048], f32[18,2,1,2048,256], /*index=5*/f32[18,8,2048,256], f32[18,2,2048,16384], f32[18,16384,2048], f32[18,2048], f32[18,2048], /*index=10*/f32[1,228,1,128], f32[1,228,1,128], f32[1,228,1,128], f32[1,228,1,128], pred[2,1,8,228,228], /*index=15*/f32[2,1,8,228,228]) {
  %arg_tuple.1 = (s32[], f32[2,228,2048]{2,1,0}, f32[18,2,228,2048]{3,2,1,0}, f32[18,8,256,2048]{3,2,1,0}, f32[18,2,1,2048,256]{4,3,2,1,0}, /*index=5*/f32[18,8,2048,256]{3,2,1,0}, f32[18,2,2048,16384]{3,2,1,0}, f32[18,16384,2048]{2,1,0}, f32[18,2048]{1,0}, f32[18,2048]{1,0}, /*index=10*/f32[1,228,1,128]{3,2,1,0}, f32[1,228,1,128]{3,2,1,0}, f32[1,228,1,128]{3,2,1,0}, f32[1,228,1,128]{3,2,1,0}, pred[2,1,8,228,228]{4,3,2,1,0}, /*index=15*/f32[2,1,8,228,228]{4,3,2,1,0}) parameter(0)
  %get-tuple-element.16 = s32[] get-tuple-element(%arg_tuple.1), index=0
  %constant.218 = s32[] constant(1)
  %add.509 = s32[] add(%get-tuple-element.16, %constant.218), metadata={op_name="jit(train_step)/jvp(Model)/llm/Model/while/body/add" stack_frame_id=114}
  %get-tuple-element.26 = f32[1,228,1,128]{3,2,1,0} get-tuple-element(%arg_tuple.1), index=10
  %get-tuple-element.27 = f32[1,228,1,128]{3,2,1,0} get-tuple-element(%arg_tuple.1), index=11
  %get-tuple-element.28 = f32[1,228,1,128]{3,2,1,0} get-tuple-element(%arg_tuple.1), index=12
  %get-tuple-element.29 = f32[1,228,1,128]{3,2,1,0} get-tuple-element(%arg_tuple.1), index=13
  %get-tuple-element.30 = pred[2,1,8,228,228]{4,3,2,1,0} get-tuple-element(%arg_tuple.1), index=14
  %get-tuple-element.31 = f32[2,1,8,228,228]{4,3,2,1,0} get-tuple-element(%arg_tuple.1), index=15
  %get-tuple-element.17 = f32[2,228,2048]{2,1,0} get-tuple-element(%arg_tuple.1), index=1
  %get-tuple-element.19 = f32[18,8,256,2048]{3,2,1,0} get-tuple-element(%arg_tuple.1), index=3
  %jit_dynamic_index_in_dim_.7 = f32[8,256,2048]{2,1,0} call(%get-tuple-element.19, %get-tuple-element.16), to_apply=%dynamic_index_in_dim.81, metadata={op_name="jit(train_step)/jvp(Model)/llm/Model/while/body/jit(dynamic_index_in_dim)" stack_frame_id=114}
  %get-tuple-element.20 = f32[18,2,1,2048,256]{4,3,2,1,0} get-tuple-element(%arg_tuple.1), index=4
  %jit_dynamic_index_in_dim_.8 = f32[2,1,2048,256]{3,2,1,0} call(%get-tuple-element.20, %get-tuple-element.16), to_apply=%dynamic_index_in_dim_2.82, metadata={op_name="jit(train_step)/jvp(Model)/llm/Model/while/body/jit(dynamic_index_in_dim)" stack_frame_id=114}
  %get-tuple-element.21 = f32[18,8,2048,256]{3,2,1,0} get-tuple-element(%arg_tuple.1), index=5
  %jit_dynamic_index_in_dim_.9 = f32[8,2048,256]{2,1,0} call(%get-tuple-element.21, %get-tuple-element.16), to_apply=%dynamic_index_in_dim_3.83, metadata={op_name="jit(train_step)/jvp(Model)/llm/Model/while/body/jit(dynamic_index_in_dim)" stack_frame_id=114}
  %get-tuple-element.22 = f32[18,2,2048,16384]{3,2,1,0} get-tuple-element(%arg_tuple.1), index=6
  %jit_dynamic_index_in_dim_.10 = f32[2,2048,16384]{2,1,0} call(%get-tuple-element.22, %get-tuple-element.16), to_apply=%dynamic_index_in_dim_4.84, metadata={op_name="jit(train_step)/jvp(Model)/llm/Model/while/body/jit(dynamic_index_in_dim)" stack_frame_id=114}
  %get-tuple-element.23 = f32[18,16384,2048]{2,1,0} get-tuple-element(%arg_tuple.1), index=7
  %jit_dynamic_index_in_dim_.11 = f32[16384,2048]{1,0} call(%get-tuple-element.23, %get-tuple-element.16), to_apply=%dynamic_index_in_dim_5.85, metadata={op_name="jit(train_step)/jvp(Model)/llm/Model/while/body/jit(dynamic_index_in_dim)" stack_frame_id=114}
  %get-tuple-element.24 = f32[18,2048]{1,0} get-tuple-element(%arg_tuple.1), index=8
  %jit_dynamic_index_in_dim_.12 = f32[2048]{0} call(%get-tuple-element.24, %get-tuple-element.16), to_apply=%dynamic_index_in_dim_6.86, metadata={op_name="jit(train_step)/jvp(Model)/llm/Model/while/body/jit(dynamic_index_in_dim)" stack_frame_id=114}
  %get-tuple-element.25 = f32[18,2048]{1,0} get-tuple-element(%arg_tuple.1), index=9
  %jit_dynamic_index_in_dim_.13 = f32[2048]{0} call(%get-tuple-element.25, %get-tuple-element.16), to_apply=%dynamic_index_in_dim_6.86, metadata={op_name="jit(train_step)/jvp(Model)/llm/Model/while/body/jit(dynamic_index_in_dim)" stack_frame_id=114}
  %closed_call.3 = (f32[2,228,2048]{2,1,0}, f32[2,228,2048]{2,1,0}) call(%get-tuple-element.26, %get-tuple-element.27, %get-tuple-element.26, %get-tuple-element.27, %get-tuple-element.28, /*index=5*/%get-tuple-element.29, %get-tuple-element.28, %get-tuple-element.29, %get-tuple-element.30, %get-tuple-element.31, /*index=10*/%get-tuple-element.17, %jit_dynamic_index_in_dim_.7, %jit_dynamic_index_in_dim_.8, %jit_dynamic_index_in_dim_.9, %jit_dynamic_index_in_dim_.10, /*index=15*/%jit_dynamic_index_in_dim_.11, %jit_dynamic_index_in_dim_.12, %jit_dynamic_index_in_dim_.13), to_apply=%closed_call.92, metadata={op_name="jit(train_step)/jvp(Model)/llm/Model/while/body/closed_call" stack_frame_id=114}
  %closed_call.4 = f32[2,228,2048]{2,1,0} get-tuple-element(%closed_call.3), index=0, metadata={op_name="jit(train_step)/jvp(Model)/llm/Model/while/body/closed_call" stack_frame_id=114}
  %get-tuple-element.18 = f32[18,2,228,2048]{3,2,1,0} get-tuple-element(%arg_tuple.1), index=2
  %closed_call.5 = f32[2,228,2048]{2,1,0} get-tuple-element(%closed_call.3), index=1, metadata={op_name="jit(train_step)/jvp(Model)/llm/Model/while/body/closed_call" stack_frame_id=114}
  %jit_dynamic_update_index_in_dim_.1 = f32[18,2,228,2048]{3,2,1,0} call(%get-tuple-element.18, %closed_call.5, %get-tuple-element.16), to_apply=%dynamic_update_index_in_dim.93, metadata={op_name="jit(train_step)/jvp(Model)/llm/Model/while/body/jit(dynamic_update_index_in_dim)" stack_frame_id=114}
  ROOT %tuple.5 = (s32[], f32[2,228,2048]{2,1,0}, f32[18,2,228,2048]{3,2,1,0}, f32[18,8,256,2048]{3,2,1,0}, f32[18,2,1,2048,256]{4,3,2,1,0}, /*index=5*/f32[18,8,2048,256]{3,2,1,0}, f32[18,2,2048,16384]{3,2,1,0}, f32[18,16384,2048]{2,1,0}, f32[18,2048]{1,0}, f32[18,2048]{1,0}, /*index=10*/f32[1,228,1,128]{3,2,1,0}, f32[1,228,1,128]{3,2,1,0}, f32[1,228,1,128]{3,2,1,0}, f32[1,228,1,128]{3,2,1,0}, pred[2,1,8,228,228]{4,3,2,1,0}, /*index=15*/f32[2,1,8,228,228]{4,3,2,1,0}) tuple(%add.509, %closed_call.4, %jit_dynamic_update_index_in_dim_.1, %get-tuple-element.19, %get-tuple-element.20, /*index=5*/%get-tuple-element.21, %get-tuple-element.22, %get-tuple-element.23, %get-tuple-element.24, %get-tuple-element.25, /*index=10*/%get-tuple-element.26, %get-tuple-element.27, %get-tuple-element.28, %get-tuple-element.29, %get-tuple-element.30, /*index=15*/%get-tuple-element.31)
}

%region_80.95 (arg_tuple.3: (s32[], f32[2,228,2048], f32[18,2,228,2048], f32[18,8,256,2048], f32[18,2,1,2048,256], /*index=5*/f32[18,8,2048,256], f32[18,2,2048,16384], f32[18,16384,2048], f32[18,2048], f32[18,2048], /*index=10*/f32[1,228,1,128], f32[1,228,1,128], f32[1,228,1,128], f32[1,228,1,128], pred[2,1,8,228,228], /*index=15*/f32[2,1,8,228,228])) -> pred[] {
  %arg_tuple.3 = (s32[], f32[2,228,2048]{2,1,0}, f32[18,2,228,2048]{3,2,1,0}, f32[18,8,256,2048]{3,2,1,0}, f32[18,2,1,2048,256]{4,3,2,1,0}, /*index=5*/f32[18,8,2048,256]{3,2,1,0}, f32[18,2,2048,16384]{3,2,1,0}, f32[18,16384,2048]{2,1,0}, f32[18,2048]{1,0}, f32[18,2048]{1,0}, /*index=10*/f32[1,228,1,128]{3,2,1,0}, f32[1,228,1,128]{3,2,1,0}, f32[1,228,1,128]{3,2,1,0}, f32[1,228,1,128]{3,2,1,0}, pred[2,1,8,228,228]{4,3,2,1,0}, /*index=15*/f32[2,1,8,228,228]{4,3,2,1,0}) parameter(0)
  %get-tuple-element.49 = f32[2,228,2048]{2,1,0} get-tuple-element(%arg_tuple.3), index=1
  %get-tuple-element.50 = f32[18,2,228,2048]{3,2,1,0} get-tuple-element(%arg_tuple.3), index=2
  %get-tuple-element.51 = f32[18,8,256,2048]{3,2,1,0} get-tuple-element(%arg_tuple.3), index=3
  %get-tuple-element.52 = f32[18,2,1,2048,256]{4,3,2,1,0} get-tuple-element(%arg_tuple.3), index=4
  %get-tuple-element.53 = f32[18,8,2048,256]{3,2,1,0} get-tuple-element(%arg_tuple.3), index=5
  %get-tuple-element.54 = f32[18,2,2048,16384]{3,2,1,0} get-tuple-element(%arg_tuple.3), index=6
  %get-tuple-element.55 = f32[18,16384,2048]{2,1,0} get-tuple-element(%arg_tuple.3), index=7
  %get-tuple-element.56 = f32[18,2048]{1,0} get-tuple-element(%arg_tuple.3), index=8
  %get-tuple-element.57 = f32[18,2048]{1,0} get-tuple-element(%arg_tuple.3), index=9
  %get-tuple-element.58 = f32[1,228,1,128]{3,2,1,0} get-tuple-element(%arg_tuple.3), index=10
  %get-tuple-element.59 = f32[1,228,1,128]{3,2,1,0} get-tuple-element(%arg_tuple.3), index=11
  %get-tuple-element.60 = f32[1,228,1,128]{3,2,1,0} get-tuple-element(%arg_tuple.3), index=12
  %get-tuple-element.61 = f32[1,228,1,128]{3,2,1,0} get-tuple-element(%arg_tuple.3), index=13
  %get-tuple-element.62 = pred[2,1,8,228,228]{4,3,2,1,0} get-tuple-element(%arg_tuple.3), index=14
  %get-tuple-element.63 = f32[2,1,8,228,228]{4,3,2,1,0} get-tuple-element(%arg_tuple.3), index=15
  %get-tuple-element.48 = s32[] get-tuple-element(%arg_tuple.3), index=0
  %constant.220 = s32[] constant(18)
  ROOT %lt.3 = pred[] compare(%get-tuple-element.48, %constant.220), direction=LT, metadata={op_name="jit(train_step)/jvp(Model)/llm/Model/while/cond/lt" stack_frame_id=114}
}

%region_81.96 (reduce_sum.461: f32[], reduce_sum.462: f32[]) -> f32[] {
  %reduce_sum.461 = f32[] parameter(0), metadata={op_name="reduce_sum"}
  %reduce_sum.462 = f32[] parameter(1), metadata={op_name="reduce_sum"}
  ROOT %reduce_sum.463 = f32[] add(%reduce_sum.461, %reduce_sum.462), metadata={op_name="jit(train_step)/jvp(Model)/llm/Model/final_norm/reduce_sum" stack_frame_id=116}
}

%region_84.103 (reduce_max.95: f32[], reduce_max.96: f32[]) -> f32[] {
  %reduce_max.95 = f32[] parameter(0), metadata={op_name="reduce_max"}
  %reduce_max.96 = f32[] parameter(1), metadata={op_name="reduce_max"}
  ROOT %reduce_max.97 = f32[] maximum(%reduce_max.95, %reduce_max.96), metadata={op_name="jit(train_step)/jvp()/reduce_max" stack_frame_id=118}
}

%region_85.104 (reduce_sum.468: f32[], reduce_sum.469: f32[]) -> f32[] {
  %reduce_sum.468 = f32[] parameter(0), metadata={op_name="reduce_sum"}
  %reduce_sum.469 = f32[] parameter(1), metadata={op_name="reduce_sum"}
  ROOT %reduce_sum.470 = f32[] add(%reduce_sum.468, %reduce_sum.469), metadata={op_name="jit(train_step)/jvp()/reduce_sum" stack_frame_id=118}
}

%_roll_static.97 (Arg_0.29: s32[2,32]) -> s32[2,32] {
  %Arg_0.29 = s32[2,32]{1,0} parameter(0)
  %slice.11 = s32[2,31]{1,0} slice(%Arg_0.29), slice={[0:2], [1:32]}, metadata={op_name="slice"}
  %slice.12 = s32[2,1]{1,0} slice(%Arg_0.29), slice={[0:2], [0:1]}, metadata={op_name="slice"}
  ROOT %concatenate.6 = s32[2,32]{1,0} concatenate(%slice.11, %slice.12), dimensions={1}, metadata={op_name="concatenate"}
}

%region_82.98 (reduce_and.3: pred[], reduce_and.4: pred[]) -> pred[] {
  %reduce_and.3 = pred[] parameter(0), metadata={op_name="reduce_and"}
  %reduce_and.4 = pred[] parameter(1), metadata={op_name="reduce_and"}
  ROOT %reduce_and.5 = pred[] and(%reduce_and.3, %reduce_and.4), metadata={op_name="reduce_and"}
}

%take_along_axis.99 (Arg_0.31: f32[2,32,256000], Arg_1.25: s32[2,32,1]) -> (f32[2,32,1], s32[2,32,1,1]) {
  %Arg_1.25 = s32[2,32,1]{2,1,0} parameter(1)
  %constant.232 = s32[] constant(0)
  %lt.6 = s32[2,32,1]{2,1,0} broadcast(%constant.232), dimensions={}, metadata={op_name="lt"}
  %lt.7 = pred[2,32,1]{2,1,0} compare(%Arg_1.25, %lt.6), direction=LT, metadata={op_name="lt"}
  %constant.230 = s32[] constant(256000)
  %add.514 = s32[2,32,1]{2,1,0} broadcast(%constant.230), dimensions={}, metadata={op_name="add"}
  %add.515 = s32[2,32,1]{2,1,0} add(%Arg_1.25, %add.514), metadata={op_name="add"}
  %select_n.55 = s32[2,32,1]{2,1,0} select(%lt.7, %add.515, %Arg_1.25), metadata={op_name="select_n"}
  %reshape.130 = s32[2,32,1,1]{3,2,1,0} reshape(%select_n.55), metadata={op_name="reshape"}
  %constant.229 = s32[] constant(0)
  %ge.2 = s32[2,32,1,1]{3,2,1,0} broadcast(%constant.229), dimensions={}, metadata={op_name="ge"}
  %ge.3 = pred[2,32,1,1]{3,2,1,0} compare(%reshape.130, %ge.2), direction=GE, metadata={op_name="ge"}
  %constant.228 = s32[] constant(255999)
  %le.9 = s32[2,32,1,1]{3,2,1,0} broadcast(%constant.228), dimensions={}, metadata={op_name="le"}
  %le.10 = pred[2,32,1,1]{3,2,1,0} compare(%reshape.130, %le.9), direction=LE, metadata={op_name="le"}
  %and.9 = pred[2,32,1,1]{3,2,1,0} and(%ge.3, %le.10), metadata={op_name="and"}
  %constant.231 = pred[] constant(true)
  %reduce_and.7 = pred[2,32,1]{2,1,0} reduce(%and.9, %constant.231), dimensions={3}, to_apply=%region_82.98, metadata={op_name="reduce_and"}
  %Arg_0.31 = f32[2,32,256000]{2,1,0} parameter(0)
  %gather.2 = f32[2,32,1]{2,1,0} gather(%Arg_0.31, %reshape.130), offset_dims={}, collapsed_slice_dims={2}, start_index_map={2}, operand_batching_dims={0,1}, start_indices_batching_dims={0,1}, index_vector_dim=3, slice_sizes={1,1,1}, metadata={op_name="gather"}
  %constant.227 = f32[] constant(nan)
  %broadcast_in_dim.123 = f32[2,32,1]{2,1,0} broadcast(%constant.227), dimensions={}, metadata={op_name="broadcast_in_dim"}
  %select_n.56 = f32[2,32,1]{2,1,0} select(%reduce_and.7, %gather.2, %broadcast_in_dim.123), metadata={op_name="select_n"}
  ROOT %tuple.7 = (f32[2,32,1]{2,1,0}, s32[2,32,1,1]{3,2,1,0}) tuple(%select_n.56, %reshape.130)
}

%_where_8.100 (Arg_0.34: pred[], Arg_1.28: s32[], Arg_2.7: s32[]) -> s32[] {
  %Arg_0.34 = pred[] parameter(0)
  %Arg_1.28 = s32[] parameter(1)
  %Arg_2.7 = s32[] parameter(2)
  ROOT %select_n.58 = s32[] select(%Arg_0.34, %Arg_1.28, %Arg_2.7), metadata={op_name="select_n"}
}

%region_83.101 (reduce_and.11: pred[], reduce_and.12: pred[]) -> pred[] {
  %reduce_and.11 = pred[] parameter(0), metadata={op_name="reduce_and"}
  %reduce_and.12 = pred[] parameter(1), metadata={op_name="reduce_and"}
  ROOT %reduce_and.13 = pred[] and(%reduce_and.11, %reduce_and.12), metadata={op_name="reduce_and"}
}

%_take.102 (Arg_0.35: f32[2,32,1], Arg_1.29: s32[]) -> (f32[2,32], s32[1]) {
  %Arg_1.29 = s32[] parameter(1)
  %constant.242 = s32[] constant(0)
  %lt.9 = pred[] compare(%Arg_1.29, %constant.242), direction=LT, metadata={op_name="lt"}
  %constant.241 = s32[] constant(1)
  %add.517 = s32[] add(%Arg_1.29, %constant.241), metadata={op_name="add"}
  %jit__where_.6 = s32[] call(%lt.9, %add.517, %Arg_1.29), to_apply=%_where_8.100, metadata={op_name="jit(_where)"}
  %broadcast_in_dim.128 = s32[1]{0} reshape(%jit__where_.6), metadata={op_name="broadcast_in_dim"}
  %constant.240 = s32[1]{0} constant({0})
  %ge.5 = pred[1]{0} compare(%broadcast_in_dim.128, %constant.240), direction=GE, metadata={op_name="ge"}
  %le.12 = pred[1]{0} compare(%broadcast_in_dim.128, %constant.240), direction=LE, metadata={op_name="le"}
  %and.11 = pred[1]{0} and(%ge.5, %le.12), metadata={op_name="and"}
  %constant.239 = pred[] constant(true)
  %reduce_and.15 = pred[] reduce(%and.11, %constant.239), dimensions={0}, to_apply=%region_83.101, metadata={op_name="reduce_and"}
  %broadcast_in_dim.129 = pred[2,32]{1,0} broadcast(%reduce_and.15), dimensions={}, metadata={op_name="broadcast_in_dim"}
  %Arg_0.35 = f32[2,32,1]{2,1,0} parameter(0)
  %gather.4 = f32[2,32]{1,0} gather(%Arg_0.35, %broadcast_in_dim.128), offset_dims={0,1}, collapsed_slice_dims={2}, start_index_map={2}, index_vector_dim=0, slice_sizes={2,32,1}, metadata={op_name="gather"}
  %constant.238 = f32[] constant(nan)
  %broadcast_in_dim.127 = f32[2,32]{1,0} broadcast(%constant.238), dimensions={}, metadata={op_name="broadcast_in_dim"}
  %select_n.60 = f32[2,32]{1,0} select(%broadcast_in_dim.129, %gather.4, %broadcast_in_dim.127), metadata={op_name="select_n"}
  ROOT %tuple.9 = (f32[2,32]{1,0}, s32[1]{0}) tuple(%select_n.60, %broadcast_in_dim.128)
}

%region_87.106 (scatter-add.2: f32[], scatter-add.3: f32[]) -> f32[] {
  %scatter-add.2 = f32[] parameter(0), metadata={op_name="scatter-add"}
  %scatter-add.3 = f32[] parameter(1), metadata={op_name="scatter-add"}
  ROOT %add.520 = f32[] add(%scatter-add.2, %scatter-add.3), metadata={op_name="add"}
}

%_take_9.107 (Arg_0.37: s32[1], Arg_1.31: f32[2,32]) -> f32[2,32,1] {
  %constant.244 = f32[] constant(0)
  %broadcast_in_dim.133 = f32[2,32,1]{2,1,0} broadcast(%constant.244), dimensions={}, metadata={op_name="broadcast_in_dim"}
  %Arg_0.37 = s32[1]{0} parameter(0)
  %Arg_1.31 = f32[2,32]{1,0} parameter(1)
  ROOT %scatter-add.5 = f32[2,32,1]{2,1,0} scatter(%broadcast_in_dim.133, %Arg_0.37, %Arg_1.31), update_window_dims={0,1}, inserted_window_dims={2}, scatter_dims_to_operand_dims={2}, index_vector_dim=0, to_apply=%region_87.106, metadata={op_name="scatter-add"}
}

%region_88.108 (scatter-add.8: f32[], scatter-add.9: f32[]) -> f32[] {
  %scatter-add.8 = f32[] parameter(0), metadata={op_name="scatter-add"}
  %scatter-add.9 = f32[] parameter(1), metadata={op_name="scatter-add"}
  ROOT %add.522 = f32[] add(%scatter-add.8, %scatter-add.9), metadata={op_name="add"}
}

%take_along_axis_10.109 (Arg_0.39: s32[2,32,1,1], Arg_1.33: f32[2,32,1]) -> f32[2,32,256000] {
  %constant.246 = f32[] constant(0)
  %broadcast_in_dim.135 = f32[2,32,256000]{2,1,0} broadcast(%constant.246), dimensions={}, metadata={op_name="broadcast_in_dim"}
  %Arg_0.39 = s32[2,32,1,1]{3,2,1,0} parameter(0)
  %Arg_1.33 = f32[2,32,1]{2,1,0} parameter(1)
  ROOT %scatter-add.11 = f32[2,32,256000]{2,1,0} scatter(%broadcast_in_dim.135, %Arg_0.39, %Arg_1.33), update_window_dims={}, inserted_window_dims={2}, scatter_dims_to_operand_dims={2}, input_batching_dims={0,1}, scatter_indices_batching_dims={0,1}, index_vector_dim=3, to_apply=%region_88.108, metadata={op_name="scatter-add"}
}

%region_91.112 (reduce_sum.496: f32[], reduce_sum.497: f32[]) -> f32[] {
  %reduce_sum.496 = f32[] parameter(0), metadata={op_name="reduce_sum"}
  %reduce_sum.497 = f32[] parameter(1), metadata={op_name="reduce_sum"}
  ROOT %reduce_sum.498 = f32[] add(%reduce_sum.496, %reduce_sum.497), metadata={op_name="jit(train_step)/transpose(jvp(Model))/llm/Model/final_norm/reduce_sum" stack_frame_id=121}
}

…
  %mul.3947 = f32[18,8,256,2048]{3,2,1,0} multiply(%opt_state_0__mu__llm____layers____attn____attn_vec_einsum____w__.1, %mul.2638), metadata={op_name="jit(train_step)/mul" stack_frame_id=378}
  %add.2276 = f32[18,8,256,2048]{3,2,1,0} add(%mul.3946, %mul.3947), metadata={op_name="jit(train_step)/add" stack_frame_id=377}
  %div.2122 = f32[18,8,256,2048]{3,2,1,0} broadcast(%sub.412), dimensions={}, metadata={op_name="jit(train_step)/div" stack_frame_id=383}
  %div.2123 = f32[18,8,256,2048]{3,2,1,0} divide(%add.2276, %div.2122), metadata={op_name="jit(train_step)/div" stack_frame_id=383}
  %integer_pow.501 = f32[18,8,256,2048]{3,2,1,0} multiply(%while.25, %while.25), metadata={op_name="jit(train_step)/integer_pow" stack_frame_id=387}
  %constant.374 = f32[] constant(0.001)
  %mul.2621 = f32[18,8,256,2048]{3,2,1,0} broadcast(%constant.374), dimensions={}, metadata={op_name="jit(train_step)/mul" stack_frame_id=388}
  %mul.4362 = f32[18,8,256,2048]{3,2,1,0} multiply(%integer_pow.501, %mul.2621), metadata={op_name="jit(train_step)/mul" stack_frame_id=388}
  %opt_state_0__nu__llm____layers____attn____attn_vec_einsum____w__.1 = f32[18,8,256,2048]{3,2,1,0} parameter(618), metadata={op_name="opt_state[0].nu[\'llm\'][\'layers\'][\'attn\'][\'attn_vec_einsum\'][\'w\']"}
  %constant.373 = f32[] constant(0.999)
  %mul.2620 = f32[18,8,256,2048]{3,2,1,0} broadcast(%constant.373), dimensions={}, metadata={op_name="jit(train_step)/mul" stack_frame_id=389}
  %mul.4363 = f32[18,8,256,2048]{3,2,1,0} multiply(%opt_state_0__nu__llm____layers____attn____attn_vec_einsum____w__.1, %mul.2620), metadata={op_name="jit(train_step)/mul" stack_frame_id=389}
  %add.2484 = f32[18,8,256,2048]{3,2,1,0} add(%mul.4362, %mul.4363), metadata={op_name="jit(train_step)/add" stack_frame_id=388}
  %div.2538 = f32[18,8,256,2048]{3,2,1,0} broadcast(%sub.413), dimensions={}, metadata={op_name="jit(train_step)/div" stack_frame_id=390}
  %div.2539 = f32[18,8,256,2048]{3,2,1,0} divide(%add.2484, %div.2538), metadata={op_name="jit(train_step)/div" stack_frame_id=390}
  %sqrt.419 = f32[18,8,256,2048]{3,2,1,0} sqrt(%div.2539), metadata={op_name="jit(train_step)/sqrt" stack_frame_id=392}
  %constant.350 = f32[] constant(1e-08)
  %add.1590 = f32[18,8,256,2048]{3,2,1,0} broadcast(%constant.350), dimensions={}, metadata={op_name="jit(train_step)/add" stack_frame_id=392}
  %add.2693 = f32[18,8,256,2048]{3,2,1,0} add(%sqrt.419, %add.1590), metadata={op_name="jit(train_step)/add" stack_frame_id=392}
  %div.2753 = f32[18,8,256,2048]{3,2,1,0} divide(%div.2123, %add.2693), metadata={op_name="jit(train_step)/div" stack_frame_id=393}
  %constant.332 = f32[] constant(0.0001)
  %mul.2607 = f32[18,8,256,2048]{3,2,1,0} broadcast(%constant.332), dimensions={}, metadata={op_name="jit(train_step)/mul" stack_frame_id=395}
  %mul.4577 = f32[18,8,256,2048]{3,2,1,0} multiply(%params__llm____layers____attn____attn_vec_einsum____w__.1, %mul.2607), metadata={op_name="jit(train_step)/mul" stack_frame_id=395}
  %add.2901 = f32[18,8,256,2048]{3,2,1,0} add(%div.2753, %mul.4577), metadata={op_name="jit(train_step)/add" stack_frame_id=396}
  %constant.314 = f32[] constant(-0.0001)
  %mul.2598 = f32[18,8,256,2048]{3,2,1,0} broadcast(%constant.314), dimensions={}, metadata={op_name="jit(train_step)/mul" stack_frame_id=398}
  %mul.4785 = f32[18,8,256,2048]{3,2,1,0} multiply(%add.2901, %mul.2598), metadata={op_name="jit(train_step)/mul" stack_frame_id=398}
  %add.3109 = f32[18,8,256,2048]{3,2,1,0} add(%params__llm____layers____attn____attn_vec_einsum____w__.1, %mul.4785), metadata={op_name="jit(train_step)/add" stack_frame_id=401}
  %while.26 = f32[18,2,1,2048,256]{4,3,2,1,0} get-tuple-element(%while.22), index=3, metadata={op_name="jit(train_step)/transpose(jvp(Model))/llm/Model/while" stack_frame_id=108}
  %constant.408 = f32[] constant(0.1)
  %mul.2637 = f32[18,2,1,2048,256]{4,3,2,1,0} broadcast(%constant.408), dimensions={}, metadata={op_name="jit(train_step)/mul" stack_frame_id=377}
  %mul.3948 = f32[18,2,1,2048,256]{4,3,2,1,0} multiply(%while.26, %mul.2637), metadata={op_name="jit(train_step)/mul" stack_frame_id=377}
  %opt_state_0__mu__llm____layers____attn____kv_einsum____w__.1 = f32[18,2,1,2048,256]{4,3,2,1,0} parameter(411), metadata={op_name="opt_state[0].mu[\'llm\'][\'layers\'][\'attn\'][\'kv_einsum\'][\'w\']"}
  %constant.407 = f32[] constant(0.9)
  %mul.2636 = f32[18,2,1,2048,256]{4,3,2,1,0} broadcast(%constant.407), dimensions={}, metadata={op_name="jit(train_step)/mul" stack_frame_id=378}
  %mul.3949 = f32[18,2,1,2048,256]{4,3,2,1,0} multiply(%opt_state_0__mu__llm____layers____attn____kv_einsum____w__.1, %mul.2636), metadata={op_name="jit(train_step)/mul" stack_frame_id=378}
  %add.2277 = f32[18,2,1,2048,256]{4,3,2,1,0} add(%mul.3948, %mul.3949), metadata={op_name="jit(train_step)/add" stack_frame_id=377}
  %div.2124 = f32[18,2,1,2048,256]{4,3,2,1,0} broadcast(%sub.412), dimensions={}, metadata={op_name="jit(train_step)/div" stack_frame_id=383}
  %div.2125 = f32[18,2,1,2048,256]{4,3,2,1,0} divide(%add.2277, %div.2124), metadata={op_name="jit(train_step)/div" stack_frame_id=383}
  %integer_pow.502 = f32[18,2,1,2048,256]{4,3,2,1,0} multiply(%while.26, %while.26), metadata={op_name="jit(train_step)/integer_pow" stack_frame_id=387}
  %constant.372 = f32[] constant(0.001)
  %mul.2619 = f32[18,2,1,2048,256]{4,3,2,1,0} broadcast(%constant.372), dimensions={}, metadata={op_name="jit(train_step)/mul" stack_frame_id=388}
  %mul.4364 = f32[18,2,1,2048,256]{4,3,2,1,0} multiply(%integer_pow.502, %mul.2619), metadata={op_name="jit(train_step)/mul" stack_frame_id=388}
  %opt_state_0__nu__llm____layers____attn____kv_einsum____w__.1 = f32[18,2,1,2048,256]{4,3,2,1,0} parameter(619), metadata={op_name="opt_state[0].nu[\'llm\'][\'layers\'][\'attn\'][\'kv_einsum\'][\'w\']"}
  %constant.371 = f32[] constant(0.999)
  %mul.2618 = f32[18,2,1,2048,256]{4,3,2,1,0} broadcast(%constant.371), dimensions={}, metadata={op_name="jit(train_step)/mul" stack_frame_id=389}
  %mul.4365 = f32[18,2,1,2048,256]{4,3,2,1,0} multiply(%opt_state_0__nu__llm____layers____attn____kv_einsum____w__.1, %mul.2618), metadata={op_name="jit(train_step)/mul" stack_frame_id=389}
  %add.2485 = f32[18,2,1,2048,256]{4,3,2,1,0} add(%mul.4364, %mul.4365), metadata={op_name="jit(train_step)/add" stack_frame_id=388}
  %div.2540 = f32[18,2,1,2048,256]{4,3,2,1,0} broadcast(%sub.413), dimensions={}, metadata={op_name="jit(train_step)/div" stack_frame_id=390}
  %div.2541 = f32[18,2,1,2048,256]{4,3,2,1,0} divide(%add.2485, %div.2540), metadata={op_name="jit(train_step)/div" stack_frame_id=390}
  %sqrt.420 = f32[18,2,1,2048,256]{4,3,2,1,0} sqrt(%div.2541), metadata={op_name="jit(train_step)/sqrt" stack_frame_id=392}
  %constant.349 = f32[] constant(1e-08)
  %add.1589 = f32[18,2,1,2048,256]{4,3,2,1,0} broadcast(%constant.349), dimensions={}, metadata={op_name="jit(train_step)/add" stack_frame_id=392}
  %add.2694 = f32[18,2,1,2048,256]{4,3,2,1,0} add(%sqrt.420, %add.1589), metadata={op_name="jit(train_step)/add" stack_frame_id=392}
  %div.2754 = f32[18,2,1,2048,256]{4,3,2,1,0} divide(%div.2125, %add.2694), metadata={op_name="jit(train_step)/div" stack_frame_id=393}
  %constant.331 = f32[] constant(0.0001)
  %mul.2606 = f32[18,2,1,2048,256]{4,3,2,1,0} broadcast(%constant.331), dimensions={}, metadata={op_name="jit(train_step)/mul" stack_frame_id=395}
  %mul.4578 = f32[18,2,1,2048,256]{4,3,2,1,0} multiply(%params__llm____layers____attn____kv_einsum____w__.1, %mul.2606), metadata={op_name="jit(train_step)/mul" stack_frame_id=395}
  %add.2902 = f32[18,2,1,2048,256]{4,3,2,1,0} add(%div.2754, %mul.4578), metadata={op_name="jit(train_step)/add" stack_frame_id=396}
  %constant.313 = f32[] constant(-0.0001)
  %mul.2597 = f32[18,2,1,2048,256]{4,3,2,1,0} broadcast(%constant.313), dimensions={}, metadata={op_name="jit(train_step)/mul" stack_frame_id=398}
  %mul.4786 = f32[18,2,1,2048,256]{4,3,2,1,0} multiply(%add.2902, %mul.2597), metadata={op_name="jit(train_step)/mul" stack_frame_id=398}
  %add.3110 = f32[18,2,1,2048,256]{4,3,2,1,0} add(%params__llm____layers____attn____kv_einsum____w__.1, %mul.4786), metadata={op_name="jit(train_step)/add" stack_frame_id=401}
  %while.27 = f32[18,8,2048,256]{3,2,1,0} get-tuple-element(%while.22), index=4, metadata={op_name="jit(train_step)/transpose(jvp(Model))/llm/Model/while" stack_frame_id=108}
  %constant.406 = f32[] constant(0.1)
  %mul.2635 = f32[18,8,2048,256]{3,2,1,0} broadcast(%constant.406), dimensions={}, metadata={op_name="jit(train_step)/mul" stack_frame_id=377}
  %mul.3950 = f32[18,8,2048,256]{3,2,1,0} multiply(%while.27, %mul.2635), metadata={op_name="jit(train_step)/mul" stack_frame_id=377}
  %opt_state_0__mu__llm____layers____attn____q_einsum____w__.1 = f32[18,8,2048,256]{3,2,1,0} parameter(412), metadata={op_name="opt_state[0].mu[\'llm\'][\'layers\'][\'attn\'][\'q_einsum\'][\'w\']"}
  %constant.405 = f32[] constant(0.9)
  %mul.2634 = f32[18,8,2048,256]{3,2,1,0} broadcast(%constant.405), dimensions={}, metadata={op_name="jit(train_step)/mul" stack_frame_id=378}
  %mul.3951 = f32[18,8,2048,256]{3,2,1,0} multiply(%opt_state_0__mu__llm____layers____attn____q_einsum____w__.1, %mul.2634), metadata={op_name="jit(train_step)/mul" stack_frame_id=378}
  %add.2278 = f32[18,8,2048,256]{3,2,1,0} add(%mul.3950, %mul.3951), metadata={op_name="jit(train_step)/add" stack_frame_id=377}
  %div.2126 = f32[18,8,2048,256]{3,2,1,0} broadcast(%sub.412), dimensions={}, metadata={op_name="jit(train_step)/div" stack_frame_id=383}
  %div.2127 = f32[18,8,2048,256]{3,2,1,0} divide(%add.2278, %div.2126), metadata={op_name="jit(train_step)/div" stack_frame_id=383}
  %integer_pow.503 = f32[18,8,2048,256]{3,2,1,0} multiply(%while.27, %while.27), metadata={op_name="jit(train_step)/integer_pow" stack_frame_id=387}
  %constant.370 = f32[] constant(0.001)
  %mul.2617 = f32[18,8,2048,256]{3,2,1,0} broadcast(%constant.370), dimensions={}, metadata={op_name="jit(train_step)/mul" stack_frame_id=388}
  %mul.4366 = f32[18,8,2048,256]{3,2,1,0} multiply(%integer_pow.503, %mul.2617), metadata={op_name="jit(train_step)/mul" stack_frame_id=388}
  %opt_state_0__nu__llm____layers____attn____q_einsum____w__.1 = f32[18,8,2048,256]{3,2,1,0} parameter(620), metadata={op_name="opt_state[0].nu[\'llm\'][\'layers\'][\'attn\'][\'q_einsum\'][\'w\']"}
  %constant.369 = f32[] constant(0.999)
  %mul.2616 = f32[18,8,2048,256]{3,2,1,0} broadcast(%constant.369), dimensions={}, metadata={op_name="jit(train_step)/mul" stack_frame_id=389}
  %mul.4367 = f32[18,8,2048,256]{3,2,1,0} multiply(%opt_state_0__nu__llm____layers____attn____q_einsum____w__.1, %mul.2616), metadata={op_name="jit(train_step)/mul" stack_frame_id=389}
  %add.2486 = f32[18,8,2048,256]{3,2,1,0} add(%mul.4366, %mul.4367), metadata={op_name="jit(train_step)/add" stack_frame_id=388}
  %div.2542 = f32[18,8,2048,256]{3,2,1,0} broadcast(%sub.413), dimensions={}, metadata={op_name="jit(train_step)/div" stack_frame_id=390}
  %div.2543 = f32[18,8,2048,256]{3,2,1,0} divide(%add.2486, %div.2542), metadata={op_name="jit(train_step)/div" stack_frame_id=390}
  %sqrt.421 = f32[18,8,2048,256]{3,2,1,0} sqrt(%div.2543), metadata={op_name="jit(train_step)/sqrt" stack_frame_id=392}
  %constant.348 = f32[] constant(1e-08)
  %add.1588 = f32[18,8,2048,256]{3,2,1,0} broadcast(%constant.348), dimensions={}, metadata={op_name="jit(train_step)/add" stack_frame_id=392}
  %add.2695 = f32[18,8,2048,256]{3,2,1,0} add(%sqrt.421, %add.1588), metadata={op_name="jit(train_step)/add" stack_frame_id=392}
  %div.2755 = f32[18,8,2048,256]{3,2,1,0} divide(%div.2127, %add.2695), metadata={op_name="jit(train_step)/div" stack_frame_id=393}
  %constant.330 = f32[] constant(0.0001)
  %mul.2605 = f32[18,8,2048,256]{3,2,1,0} broadcast(%constant.330), dimensions={}, metadata={op_name="jit(train_step)/mul" stack_frame_id=395}
  %mul.4579 = f32[18,8,2048,256]{3,2,1,0} multiply(%params__llm____layers____attn____q_einsum____w__.1, %mul.2605), metadata={op_name="jit(train_step)/mul" stack_frame_id=395}
  %add.2903 = f32[18,8,2048,256]{3,2,1,0} add(%div.2755, %mul.4579), metadata={op_name="jit(train_step)/add" stack_frame_id=396}
  %constant.312 = f32[] constant(-0.0001)
  %mul.2596 = f32[18,8,2048,256]{3,2,1,0} broadcast(%constant.312), dimensions={}, metadata={op_name="jit(train_step)/mul" stack_frame_id=398}
  %mul.4787 = f32[18,8,2048,256]{3,2,1,0} multiply(%add.2903, %mul.2596), metadata={op_name="jit(train_step)/mul" stack_frame_id=398}
  %add.3111 = f32[18,8,2048,256]{3,2,1,0} add(%params__llm____layers____attn____q_einsum____w__.1, %mul.4787), metadata={op_name="jit(train_step)/add" stack_frame_id=401}
  %while.28 = f32[18,2,2048,16384]{3,2,1,0} get-tuple-element(%while.22), index=5, metadata={op_name="jit(train_step)/transpose(jvp(Model))/llm/Model/while" stack_frame_id=108}
  %constant.404 = f32[] constant(0.1)
  %mul.2633 = f32[18,2,2048,16384]{3,2,1,0} broadcast(%constant.404), dimensions={}, metadata={op_name="jit(train_step)/mul" stack_frame_id=377}
  %mul.3952 = f32[18,2,2048,16384]{3,2,1,0} multiply(%while.28, %mul.2633), metadata={op_name="jit(train_step)/mul" stack_frame_id=377}
  %opt_state_0__mu__llm____layers____mlp____gating_einsum__.1 = f32[18,2,2048,16384]{3,2,1,0} parameter(413), metadata={op_name="opt_state[0].mu[\'llm\'][\'layers\'][\'mlp\'][\'gating_einsum\']"}
  %constant.403 = f32[] constant(0.9)
  %mul.2632 = f32[18,2,2048,16384]{3,2,1,0} broadcast(%constant.403), dimensions={}, metadata={op_name="jit(train_step)/mul" stack_frame_id=378}
  %mul.3953 = f32[18,2,2048,16384]{3,2,1,0} multiply(%opt_state_0__mu__llm____layers____mlp____gating_einsum__.1, %mul.2632), metadata={op_name="jit(train_step)/mul" stack_frame_id=378}
  %add.2279 = f32[18,2,2048,16384]{3,2,1,0} add(%mul.3952, %mul.3953), metadata={op_name="jit(train_step)/add" stack_frame_id=377}
  %div.2128 = f32[18,2,2048,16384]{3,2,1,0} broadcast(%sub.412), dimensions={}, metadata={op_name="jit(train_step)/div" stack_frame_id=383}
  %div.2129 = f32[18,2,2048,16384]{3,2,1,0} divide(%add.2279, %div.2128), metadata={op_name="jit(train_step)/div" stack_frame_id=383}
  %integer_pow.504 = f32[18,2,2048,16384]{3,2,1,0} multiply(%while.28, %while.28), metadata={op_name="jit(train_step)/integer_pow" stack_frame_id=387}
  %constant.368 = f32[] constant(0.001)
  %mul.2615 = f32[18,2,2048,16384]{3,2,1,0} broadcast(%constant.368), dimensions={}, metadata={op_name="jit(train_step)/mul" stack_frame_id=388}
  %mul.4368 = f32[18,2,2048,16384]{3,2,1,0} multiply(%integer_pow.504, %mul.2615), metadata={op_name="jit(train_step)/mul" stack_frame_id=388}
  %opt_state_0__nu__llm____layers____mlp____gating_einsum__.1 = f32[18,2,2048,16384]{3,2,1,0} parameter(621), metadata={op_name="opt_state[0].nu[\'llm\'][\'layers\'][\'mlp\'][\'gating_einsum\']"}
  %constant.367 = f32[] constant(0.999)
  %mul.2614 = f32[18,2,2048,16384]{3,2,1,0} broadcast(%constant.367), dimensions={}, metadata={op_name="jit(train_step)/mul" stack_frame_id=389}
  %mul.4369 = f32[18,2,2048,16384]{3,2,1,0} multiply(%opt_state_0__nu__llm____layers____mlp____gating_einsum__.1, %mul.2614), metadata={op_name="jit(train_step)/mul" stack_frame_id=389}
  %add.2487 = f32[18,2,2048,16384]{3,2,1,0} add(%mul.4368, %mul.4369), metadata={op_name="jit(train_step)/add" stack_frame_id=388}
  %div.2544 = f32[18,2,2048,16384]{3,2,1,0} broadcast(%sub.413), dimensions={}, metadata={op_name="jit(train_step)/div" stack_frame_id=390}
  %div.2545 = f32[18,2,2048,16384]{3,2,1,0} divide(%add.2487, %div.2544), metadata={op_name="jit(train_step)/div" stack_frame_id=390}
  %sqrt.422 = f32[18,2,2048,16384]{3,2,1,0} sqrt(%div.2545), metadata={op_name="jit(train_step)/sqrt" stack_frame_id=392}
  %constant.347 = f32[] constant(1e-08)
  %add.1587 = f32[18,2,2048,16384]{3,2,1,0} broadcast(%constant.347), dimensions={}, metadata={op_name="jit(train_step)/add" stack_frame_id=392}
  %add.2696 = f32[18,2,2048,16384]{3,2,1,0} add(%sqrt.422, %add.1587), metadata={op_name="jit(train_step)/add" stack_frame_id=392}
  %div.2756 = f32[18,2,2048,16384]{3,2,1,0} divide(%div.2129, %add.2696), metadata={op_name="jit(train_step)/div" stack_frame_id=393}
  %constant.329 = f32[] constant(0.0001)
  %mul.2604 = f32[18,2,2048,16384]{3,2,1,0} broadcast(%constant.329), dimensions={}, metadata={op_name="jit(train_step)/mul" stack_frame_id=395}
  %mul.4580 = f32[18,2,2048,16384]{3,2,1,0} multiply(%params__llm____layers____mlp____gating_einsum__.1, %mul.2604), metadata={op_name="jit(train_step)/mul" stack_frame_id=395}
  %add.2904 = f32[18,2,2048,16384]{3,2,1,0} add(%div.2756, %mul.4580), metadata={op_name="jit(train_step)/add" stack_frame_id=396}
  %constant.311 = f32[] constant(-0.0001)
  %mul.2595 = f32[18,2,2048,16384]{3,2,1,0} broadcast(%constant.311), dimensions={}, metadata={op_name="jit(train_step)/mul" stack_frame_id=398}
  %mul.4788 = f32[18,2,2048,16384]{3,2,1,0} multiply(%add.2904, %mul.2595), metadata={op_name="jit(train_step)/mul" stack_frame_id=398}
  %add.3112 = f32[18,2,2048,16384]{3,2,1,0} add(%params__llm____layers____mlp____gating_einsum__.1, %mul.4788), metadata={op_name="jit(train_step)/add" stack_frame_id=401}
  %while.29 = f32[18,16384,2048]{2,1,0} get-tuple-element(%while.22), index=6, metadata={op_name="jit(train_step)/transpose(jvp(Model))/llm/Model/while" stack_frame_id=108}
  %constant.402 = f32[] constant(0.1)
  %mul.2631 = f32[18,16384,2048]{2,1,0} broadcast(%constant.402), dimensions={}, metadata={op_name="jit(train_step)/mul" stack_frame_id=377}
  %mul.3954 = f32[18,16384,2048]{2,1,0} multiply(%while.29, %mul.2631), metadata={op_name="jit(train_step)/mul" stack_frame_id=377}
  %opt_state_0__mu__llm____layers____mlp____linear__.1 = f32[18,16384,2048]{2,1,0} parameter(414), metadata={op_name="opt_state[0].mu[\'llm\'][\'layers\'][\'mlp\'][\'linear\']"}
  %constant.401 = f32[] constant(0.9)
  %mul.2630 = f32[18,16384,2048]{2,1,0} broadcast(%constant.401), dimensions={}, metadata={op_name="jit(train_step)/mul" stack_frame_id=378}
  %mul.3955 = f32[18,16384,2048]{2,1,0} multiply(%opt_state_0__mu__llm____layers____mlp____linear__.1, %mul.2630), metadata={op_name="jit(train_step)/mul" stack_frame_id=378}
  %add.2280 = f32[18,16384,2048]{2,1,0} add(%mul.3954, %mul.3955), metadata={op_name="jit(train_step)/add" stack_frame_id=377}
  %div.2130 = f32[18,16384,2048]{2,1,0} broadcast(%sub.412), dimensions={}, metadata={op_name="jit(train_step)/div" stack_frame_id=383}
  %div.2131 = f32[18,16384,2048]{2,1,0} divide(%add.2280, %div.2130), metadata={op_name="jit(train_step)/div" stack_frame_id=383}
  %integer_pow.505 = f32[18,16384,2048]{2,1,0} multiply(%while.29, %while.29), metadata={op_name="jit(train_step)/integer_pow" stack_frame_id=387}
  %constant.366 = f32[] constant(0.001)
  %mul.2613 = f32[18,16384,2048]{2,1,0} broadcast(%constant.366), dimensions={}, metadata={op_name="jit(train_step)/mul" stack_frame_id=388}
  %mul.4370 = f32[18,16384,2048]{2,1,0} multiply(%integer_pow.505, %mul.2613), metadata={op_name="jit(train_step)/mul" stack_frame_id=388}
  %opt_state_0__nu__llm____layers____mlp____linear__.1 = f32[18,16384,2048]{2,1,0} parameter(622), metadata={op_name="opt_state[0].nu[\'llm\'][\'layers\'][\'mlp\'][\'linear\']"}
  %constant.365 = f32[] constant(0.999)
  %mul.2612 = f32[18,16384,2048]{2,1,0} broadcast(%constant.365), dimensions={}, metadata={op_name="jit(train_step)/mul" stack_frame_id=389}
  %mul.4371 = f32[18,16384,2048]{2,1,0} multiply(%opt_state_0__nu__llm____layers____mlp____linear__.1, %mul.2612), metadata={op_name="jit(train_step)/mul" stack_frame_id=389}
  %add.2488 = f32[18,16384,2048]{2,1,0} add(%mul.4370, %mul.4371), metadata={op_name="jit(train_step)/add" stack_frame_id=388}
  %div.2546 = f32[18,16384,2048]{2,1,0} broadcast(%sub.413), dimensions={}, metadata={op_name="jit(train_step)/div" stack_frame_id=390}
  %div.2547 = f32[18,16384,2048]{2,1,0} divide(%add.2488, %div.2546), metadata={op_name="jit(train_step)/div" stack_frame_id=390}
  %sqrt.423 = f32[18,16384,2048]{2,1,0} sqrt(%div.2547), metadata={op_name="jit(train_step)/sqrt" stack_frame_id=392}
  %constant.346 = f32[] constant(1e-08)
  %add.1586 = f32[18,16384,2048]{2,1,0} broadcast(%constant.346), dimensions={}, metadata={op_name="jit(train_step)/add" stack_frame_id=392}
  %add.2697 = f32[18,16384,2048]{2,1,0} add(%sqrt.423, %add.1586), metadata={op_name="jit(train_step)/add" stack_frame_id=392}
  %div.2757 = f32[18,16384,2048]{2,1,0} divide(%div.2131, %add.2697), metadata={op_name="jit(train_step)/div" stack_frame_id=393}
  %constant.328 = f32[] constant(0.0001)
  %mul.2603 = f32[18,16384,2048]{2,1,0} broadcast(%constant.328), dimensions={}, metadata={op_name="jit(train_step)/mul" stack_frame_id=395}
  %mul.4581 = f32[18,16384,2048]{2,1,0} multiply(%params__llm____layers____mlp____linear__.1, %mul.2603), metadata={op_name="jit(train_step)/mul" stack_frame_id=395}
  %add.2905 = f32[18,16384,2048]{2,1,0} add(%div.2757, %mul.4581), metadata={op_name="jit(train_step)/add" stack_frame_id=396}
  %constant.310 = f32[] constant(-0.0001)
  %mul.2594 = f32[18,16384,2048]{2,1,0} broadcast(%constant.310), dimensions={}, metadata={op_name="jit(train_step)/mul" stack_frame_id=398}
  %mul.4789 = f32[18,16384,2048]{2,1,0} multiply(%add.2905, %mul.2594), metadata={op_name="jit(train_step)/mul" stack_frame_id=398}
  %add.3113 = f32[18,16384,2048]{2,1,0} add(%params__llm____layers____mlp____linear__.1, %mul.4789), metadata={op_name="jit(train_step)/add" stack_frame_id=401}
  %while.30 = f32[18,2048]{1,0} get-tuple-element(%while.22), index=7, metadata={op_name="jit(train_step)/transpose(jvp(Model))/llm/Model/while" stack_frame_id=108}
  %constant.400 = f32[] constant(0.1)
  %broadcast.167 = f32[18,2048]{1,0} broadcast(%constant.400), dimensions={}
  %mul.3956 = f32[18,2048]{1,0} multiply(%while.30, %broadcast.167), metadata={op_name="jit(train_step)/mul" stack_frame_id=377}
  %opt_state_0__mu__llm____layers____pre_attention_norm____scale__.1 = f32[18,2048]{1,0} parameter(415), metadata={op_name="opt_state[0].mu[\'llm\'][\'layers\'][\'pre_attention_norm\'][\'scale\']"}
  %constant.399 = f32[] constant(0.9)
  %broadcast.166 = f32[18,2048]{1,0} broadcast(%constant.399), dimensions={}
  %mul.3957 = f32[18,2048]{1,0} multiply(%opt_state_0__mu__llm____layers____pre_attention_norm____scale__.1, %broadcast.166), metadata={op_name="jit(train_step)/mul" stack_frame_id=378}
  %add.2281 = f32[18,2048]{1,0} add(%mul.3956, %mul.3957), metadata={op_name="jit(train_step)/add" stack_frame_id=377}
  %div.2132 = f32[18,2048]{1,0} broadcast(%sub.412), dimensions={}, metadata={op_name="jit(train_step)/div" stack_frame_id=383}
  %div.2133 = f32[18,2048]{1,0} divide(%add.2281, %div.2132), metadata={op_name="jit(train_step)/div" stack_frame_id=383}
  %integer_pow.506 = f32[18,2048]{1,0} multiply(%while.30, %while.30), metadata={op_name="jit(train_step)/integer_pow" stack_frame_id=387}
  %constant.364 = f32[] constant(0.001)
  %broadcast.149 = f32[18,2048]{1,0} broadcast(%constant.364), dimensions={}
  %mul.4372 = f32[18,2048]{1,0} multiply(%integer_pow.506, %broadcast.149), metadata={op_name="jit(train_step)/mul" stack_frame_id=388}
  %opt_state_0__nu__llm____layers____pre_attention_norm____scale__.1 = f32[18,2048]{1,0} parameter(623), metadata={op_name="opt_state[0].nu[\'llm\'][\'layers\'][\'pre_attention_norm\'][\'scale\']"}
  %constant.363 = f32[] constant(0.999)
  %broadcast.148 = f32[18,2048]{1,0} broadcast(%constant.363), dimensions={}
  %mul.4373 = f32[18,2048]{1,0} multiply(%opt_state_0__nu__llm____layers____pre_attention_norm____scale__.1, %broadcast.148), metadata={op_name="jit(train_step)/mul" stack_frame_id=389}
  %add.2489 = f32[18,2048]{1,0} add(%mul.4372, %mul.4373), metadata={op_name="jit(train_step)/add" stack_frame_id=388}
  %div.2548 = f32[18,2048]{1,0} broadcast(%sub.413), dimensions={}, metadata={op_name="jit(train_step)/div" stack_frame_id=390}
  %div.2549 = f32[18,2048]{1,0} divide(%add.2489, %div.2548), metadata={op_name="jit(train_step)/div" stack_frame_id=390}
  %sqrt.424 = f32[18,2048]{1,0} sqrt(%div.2549), metadata={op_name="jit(train_step)/sqrt" stack_frame_id=392}
  %constant.345 = f32[] constant(1e-08)
  %broadcast.139 = f32[18,2048]{1,0} broadcast(%constant.345), dimensions={}
  %add.2698 = f32[18,2048]{1,0} add(%sqrt.424, %broadcast.139), metadata={op_name="jit(train_step)/add" stack_frame_id=392}
  %div.2758 = f32[18,2048]{1,0} divide(%div.2133, %add.2698), metadata={op_name="jit(train_step)/div" stack_frame_id=393}
  %constant.327 = f32[] constant(0.0001)
  %broadcast.130 = f32[18,2048]{1,0} broadcast(%constant.327), dimensions={}
  %mul.4582 = f32[18,2048]{1,0} multiply(%params__llm____layers____pre_attention_norm____scale__.1, %broadcast.130), metadata={op_name="jit(train_step)/mul" stack_frame_id=395}
  %add.2906 = f32[18,2048]{1,0} add(%div.2758, %mul.4582), metadata={op_name="jit(train_step)/add" stack_frame_id=396}
  %constant.309 = f32[] constant(-0.0001)
  %broadcast.121 = f32[18,2048]{1,0} broadcast(%constant.309), dimensions={}
  %mul.4790 = f32[18,2048]{1,0} multiply(%add.2906, %broadcast.121), metadata={op_name="jit(train_step)/mul" stack_frame_id=398}
  %add.3114 = f32[18,2048]{1,0} add(%params__llm____layers____pre_attention_norm____scale__.1, %mul.4790), metadata={op_name="jit(train_step)/add" stack_frame_id=401}
  %while.31 = f32[18,2048]{1,0} get-tuple-element(%while.22), index=8, metadata={op_name="jit(train_step)/transpose(jvp(Model))/llm/Model/while" stack_frame_id=108}
  %mul.3958 = f32[18,2048]{1,0} multiply(%while.31, %broadcast.167), metadata={op_name="jit(train_step)/mul" stack_frame_id=377}
  %opt_state_0__mu__llm____layers____pre_ffw_norm____scale__.1 = f32[18,2048]{1,0} parameter(416), metadata={op_name="opt_state[0].mu[\'llm\'][\'layers\'][\'pre_ffw_norm\'][\'scale\']"}
  %mul.3959 = f32[18,2048]{1,0} multiply(%opt_state_0__mu__llm____layers____pre_ffw_norm____scale__.1, %broadcast.166), metadata={op_name="jit(train_step)/mul" stack_frame_id=378}
  %add.2282 = f32[18,2048]{1,0} add(%mul.3958, %mul.3959), metadata={op_name="jit(train_step)/add" stack_frame_id=377}
  %div.2134 = f32[18,2048]{1,0} broadcast(%sub.412), dimensions={}, metadata={op_name="jit(train_step)/div" stack_frame_id=383}
  %div.2135 = f32[18,2048]{1,0} divide(%add.2282, %div.2134), metadata={op_name="jit(train_step)/div" stack_frame_id=383}
  %integer_pow.507 = f32[18,2048]{1,0} multiply(%while.31, %while.31), metadata={op_name="jit(train_step)/integer_pow" stack_frame_id=387}
  %mul.4374 = f32[18,2048]{1,0} multiply(%integer_pow.507, %broadcast.149), metadata={op_name="jit(train_step)/mul" stack_frame_id=388}
  %opt_state_0__nu__llm____layers____pre_ffw_norm____scale__.1 = f32[18,2048]{1,0} parameter(624), metadata={op_name="opt_state[0].nu[\'llm\'][\'layers\'][\'pre_ffw_norm\'][\'scale\']"}
  %mul.4375 = f32[18,2048]{1,0} multiply(%opt_state_0__nu__llm____layers____pre_ffw_norm____scale__.1, %broadcast.148), metadata={op_name="jit(train_step)/mul" stack_frame_id=389}
  %add.2490 = f32[18,2048]{1,0} add(%mul.4374, %mul.4375), metadata={op_name="jit(train_step)/add" stack_frame_id=388}
  %div.2550 = f32[18,2048]{1,0} broadcast(%sub.413), dimensions={}, metadata={op_name="jit(train_step)/div" stack_frame_id=390}
  %div.2551 = f32[18,2048]{1,0} divide(%add.2490, %div.2550), metadata={op_name="jit(train_step)/div" stack_frame_id=390}
  %sqrt.425 = f32[18,2048]{1,0} sqrt(%div.2551), metadata={op_name="jit(train_step)/sqrt" stack_frame_id=392}
  %add.2699 = f32[18,2048]{1,0} add(%sqrt.425, %broadcast.139), metadata={op_name="jit(train_step)/add" stack_frame_id=392}
  %div.2759 = f32[18,2048]{1,0} divide(%div.2135, %add.2699), metadata={op_name="jit(train_step)/div" stack_frame_id=393}
  %mul.4583 = f32[18,2048]{1,0} multiply(%params__llm____layers____pre_ffw_norm____scale__.1, %broadcast.130), metadata={op_name="jit(train_step)/mul" stack_frame_id=395}
  %add.2907 = f32[18,2048]{1,0} add(%div.2759, %mul.4583), metadata={op_name="jit(train_step)/add" stack_frame_id=396}
  %mul.4791 = f32[18,2048]{1,0} multiply(%add.2907, %broadcast.121), metadata={op_name="jit(train_step)/mul" stack_frame_id=398}
  %add.3115 = f32[18,2048]{1,0} add(%params__llm____layers____pre_ffw_norm____scale__.1, %mul.4791), metadata={op_name="jit(train_step)/add" stack_frame_id=401}
  %log.1 = f32[2,32]{1,0} log(%abs.1), metadata={op_name="jit(train_step)/jvp()/log" stack_frame_id=118}
  %add.2074 = f32[2,32]{1,0} add(%log.1, %select_n.121), metadata={op_name="jit(train_step)/jvp()/add" stack_frame_id=118}
  %jvp_jit__take__.4 = f32[2,32]{1,0} get-tuple-element(%jvp_jit__take__.3), index=0, metadata={op_name="jit(train_step)/jvp(jit(_take))" stack_frame_id=362}
  %sub.411 = f32[2,32]{1,0} subtract(%add.2074, %jvp_jit__take__.4), metadata={op_name="jit(train_step)/jvp()/sub" stack_frame_id=363}
  %reduce_sum.2418 = f32[] reduce(%sub.411, %constant.485), dimensions={0,1}, to_apply=%region_86.105, metadata={op_name="jit(train_step)/jvp()/reduce_sum" stack_frame_id=119}
  %constant.483 = f32[] constant(64)
  %div.1607 = f32[] divide(%reduce_sum.2418, %constant.483), metadata={op_name="jit(train_step)/jvp()/div" stack_frame_id=119}
  ROOT %tuple.17 = (f32[768]{0}, f32[768]{0}, f32[768]{0}, f32[768]{0}, f32[768]{0}, /*index=5*/f32[768]{0}, f32[3072]{0}, f32[768,3072]{1,0}, f32[768]{0}, f32[3072,768]{1,0}, /*index=10*/f32[12,64]{1,0}, f32[768,12,64]{2,1,0}, f32[768]{0}, f32[12,64,768]{2,1,0}, f32[12,64]{1,0}, /*index=15*/f32[768,12,64]{2,1,0}, f32[12,64]{1,0}, f32[768,12,64]{2,1,0}, f32[768]{0}, f32[768]{0}, /*index=20*/f32[768]{0}, f32[768]{0}, f32[3072]{0}, f32[768,3072]{1,0}, f32[768]{0}, /*index=25*/f32[3072,768]{1,0}, f32[12,64]{1,0}, f32[768,12,64]{2,1,0}, f32[768]{0}, f32[12,64,768]{2,1,0}, /*index=30*/f32[12,64]{1,0}, f32[768,12,64]{2,1,0}, f32[12,64]{1,0}, f32[768,12,64]{2,1,0}, f32[768]{0}, /*index=35*/f32[768]{0}, f32[768]{0}, f32[768]{0}, f32[3072]{0}, f32[768,3072]{1,0}, /*index=40*/f32[768]{0}, f32[3072,768]{1,0}, f32[12,64]{1,0}, f32[768,12,64]{2,1,0}, f32[768]{0}, /*index=45*/f32[12,64,768]{2,1,0}, f32[12,64]{1,0}, f32[768,12,64]{2,1,0}, f32[12,64]{1,0}, f32[768,12,64]{2,1,0}, /*index=50*/f32[768]{0}, f32[768]{0}, f32[768]{0}, f32[768]{0}, f32[3072]{0}, /*index=55*/f32[768,3072]{1,0}, f32[768]{0}, f32[3072,768]{1,0}, f32[12,64]{1,0}, f32[768,12,64]{2,1,0}, /*index=60*/f32[768]{0}, f32[12,64,768]{2,1,0}, f32[12,64]{1,0}, f32[768,12,64]{2,1,0}, f32[12,64]{1,0}, /*index=65*/f32[768,12,64]{2,1,0}, f32[768]{0}, f32[768]{0}, f32[768]{0}, f32[768]{0}, /*index=70*/f32[3072]{0}, f32[768,3072]{1,0}, f32[768]{0}, f32[3072,768]{1,0}, f32[12,64]{1,0}, /*index=75*/f32[768,12,64]{2,1,0}, f32[768]{0}, f32[12,64,768]{2,1,0}, f32[12,64]{1,0}, f32[768,12,64]{2,1,0}, /*index=80*/f32[12,64]{1,0}, f32[768,12,64]{2,1,0}, f32[768]{0}, f32[768]{0}, f32[768]{0}, /*index=85*/f32[768]{0}, f32[3072]{0}, f32[768,3072]{1,0}, f32[768]{0}, f32[3072,768]{1,0}, /*index=90*/f32[12,64]{1,0}, f32[768,12,64]{2,1,0}, f32[768]{0}, f32[12,64,768]{2,1,0}, f32[12,64]{1,0}, /*index=95*/f32[768,12,64]{2,1,0}, f32[12,64]{1,0}, f32[768,12,64]{2,1,0}, f32[768]{0}, f32[768]{0}, /*index=100*/f32[768]{0}, f32[768]{0}, f32[3072]{0}, f32[768,3072]{1,0}, f32[768]{0}, /*index=105*/f32[3072,768]{1,0}, f32[12,64]{1,0}, f32[768,12,64]{2,1,0}, f32[768]{0}, f32[12,64,768]{2,1,0}, /*index=110*/f32[12,64]{1,0}, f32[768,12,64]{2,1,0}, f32[12,64]{1,0}, f32[768,12,64]{2,1,0}, f32[768]{0}, /*index=115*/f32[768]{0}, f32[768]{0}, f32[768]{0}, f32[3072]{0}, f32[768,3072]{1,0}, /*index=120*/f32[768]{0}, f32[3072,768]{1,0}, f32[12,64]{1,0}, f32[768,12,64]{2,1,0}, f32[768]{0}, /*index=125*/f32[12,64,768]{2,1,0}, f32[12,64]{1,0}, f32[768,12,64]{2,1,0}, f32[12,64]{1,0}, f32[768,12,64]{2,1,0}, /*index=130*/f32[768]{0}, f32[768]{0}, f32[768]{0}, f32[768]{0}, f32[3072]{0}, /*index=135*/f32[768,3072]{1,0}, f32[768]{0}, f32[3072,768]{1,0}, f32[12,64]{1,0}, f32[768,12,64]{2,1,0}, /*index=140*/f32[768]{0}, f32[12,64,768]{2,1,0}, f32[12,64]{1,0}, f32[768,12,64]{2,1,0}, f32[12,64]{1,0}, /*index=145*/f32[768,12,64]{2,1,0}, f32[768]{0}, f32[768]{0}, f32[768]{0}, f32[768]{0}, /*index=150*/f32[3072]{0}, f32[768,3072]{1,0}, f32[768]{0}, f32[3072,768]{1,0}, f32[12,64]{1,0}, /*index=155*/f32[768,12,64]{2,1,0}, f32[768]{0}, f32[12,64,768]{2,1,0}, f32[12,64]{1,0}, f32[768,12,64]{2,1,0}, /*index=160*/f32[12,64]{1,0}, f32[768,12,64]{2,1,0}, f32[768]{0}, f32[768]{0}, f32[768]{0}, /*index=165*/f32[768]{0}, f32[3072]{0}, f32[768,3072]{1,0}, f32[768]{0}, f32[3072,768]{1,0}, /*index=170*/f32[12,64]{1,0}, f32[768,12,64]{2,1,0}, f32[768]{0}, f32[12,64,768]{2,1,0}, f32[12,64]{1,0}, /*index=175*/f32[768,12,64]{2,1,0}, f32[12,64]{1,0}, f32[768,12,64]{2,1,0}, f32[768]{0}, f32[768]{0}, /*index=180*/f32[768]{0}, f32[768]{0}, f32[3072]{0}, f32[768,3072]{1,0}, f32[768]{0}, /*index=185*/f32[3072,768]{1,0}, f32[12,64]{1,0}, f32[768,12,64]{2,1,0}, f32[768]{0}, f32[12,64,768]{2,1,0}, /*index=190*/f32[12,64]{1,0}, f32[768,12,64]{2,1,0}, f32[12,64]{1,0}, f32[768,12,64]{2,1,0}, f32[768]{0}, /*index=195*/f32[16,16,3,768]{3,2,1,0}, f32[2048]{0}, f32[768,2048]{1,0}, f32[1,196,768]{2,1,0}, f32[256000,2048]{1,0}, /*index=200*/f32[2048]{0}, f32[18,8,256,2048]{3,2,1,0}, f32[18,2,1,2048,256]{4,3,2,1,0}, f32[18,8,2048,256]{3,2,1,0}, f32[18,2,2048,16384]{3,2,1,0}, /*index=205*/f32[18,16384,2048]{2,1,0}, f32[18,2048]{1,0}, f32[18,2048]{1,0}, s32[], f32[768]{0}, /*index=210*/f32[768]{0}, f32[768]{0}, f32[768]{0}, f32[768]{0}, f32[768]{0}, /*index=215*/f32[3072]{0}, f32[768,3072]{0,1}, f32[768]{0}, f32[3072,768]{0,1}, f32[12,64]{1,0}, /*index=220*/f32[768,12,64]{0,2,1}, f32[768]{0}, f32[12,64,768]{1,0,2}, f32[12,64]{1,0}, f32[768,12,64]{0,2,1}, /*index=225*/f32[12,64]{1,0}, f32[768,12,64]{0,2,1}, f32[768]{0}, f32[768]{0}, f32[768]{0}, /*index=230*/f32[768]{0}, f32[3072]{0}, f32[768,3072]{0,1}, f32[768]{0}, f32[3072,768]{0,1}, /*index=235*/f32[12,64]{1,0}, f32[768,12,64]{0,2,1}, f32[768]{0}, f32[12,64,768]{1,0,2}, f32[12,64]{1,0}, /*index=240*/f32[768,12,64]{0,2,1}, f32[12,64]{1,0}, f32[768,12,64]{0,2,1}, f32[768]{0}, f32[768]{0}, /*index=245*/f32[768]{0}, f32[768]{0}, f32[3072]{0}, f32[768,3072]{0,1}, f32[768]{0}, /*index=250*/f32[3072,768]{0,1}, f32[12,64]{1,0}, f32[768,12,64]{0,2,1}, f32[768]{0}, f32[12,64,768]{1,0,2}, /*index=255*/f32[12,64]{1,0}, f32[768,12,64]{0,2,1}, f32[12,64]{1,0}, f32[768,12,64]{0,2,1}, f32[768]{0}, /*index=260*/f32[768]{0}, f32[768]{0}, f32[768]{0}, f32[3072]{0}, f32[768,3072]{0,1}, /*index=265*/f32[768]{0}, f32[3072,768]{0,1}, f32[12,64]{1,0}, f32[768,12,64]{0,2,1}, f32[768]{0}, /*index=270*/f32[12,64,768]{1,0,2}, f32[12,64]{1,0}, f32[768,12,64]{0,2,1}, f32[12,64]{1,0}, f32[768,12,64]{0,2,1}, /*index=275*/f32[768]{0}, f32[768]{0}, f32[768]{0}, f32[768]{0}, f32[3072]{0}, /*index=280*/f32[768,3072]{0,1}, f32[768]{0}, f32[3072,768]{0,1}, f32[12,64]{1,0}, f32[768,12,64]{0,2,1}, /*index=285*/f32[768]{0}, f32[12,64,768]{1,0,2}, f32[12,64]{1,0}, f32[768,12,64]{0,2,1}, f32[12,64]{1,0}, /*index=290*/f32[768,12,64]{0,2,1}, f32[768]{0}, f32[768]{0}, f32[768]{0}, f32[768]{0}, /*index=295*/f32[3072]{0}, f32[768,3072]{0,1}, f32[768]{0}, f32[3072,768]{0,1}, f32[12,64]{1,0}, /*index=300*/f32[768,12,64]{0,2,1}, f32[768]{0}, f32[12,64,768]{1,0,2}, f32[12,64]{1,0}, f32[768,12,64]{0,2,1}, /*index=305*/f32[12,64]{1,0}, f32[768,12,64]{0,2,1}, f32[768]{0}, f32[768]{0}, f32[768]{0}, /*index=310*/f32[768]{0}, f32[3072]{0}, f32[768,3072]{0,1}, f32[768]{0}, f32[3072,768]{0,1}, /*index=315*/f32[12,64]{1,0}, f32[768,12,64]{0,2,1}, f32[768]{0}, f32[12,64,768]{1,0,2}, f32[12,64]{1,0}, /*index=320*/f32[768,12,64]{0,2,1}, f32[12,64]{1,0}, f32[768,12,64]{0,2,1}, f32[768]{0}, f32[768]{0}, /*index=325*/f32[768]{0}, f32[768]{0}, f32[3072]{0}, f32[768,3072]{0,1}, f32[768]{0}, /*index=330*/f32[3072,768]{0,1}, f32[12,64]{1,0}, f32[768,12,64]{0,2,1}, f32[768]{0}, f32[12,64,768]{1,0,2}, /*index=335*/f32[12,64]{1,0}, f32[768,12,64]{0,2,1}, f32[12,64]{1,0}, f32[768,12,64]{0,2,1}, f32[768]{0}, /*index=340*/f32[768]{0}, f32[768]{0}, f32[768]{0}, f32[3072]{0}, f32[768,3072]{0,1}, /*index=345*/f32[768]{0}, f32[3072,768]{0,1}, f32[12,64]{1,0}, f32[768,12,64]{0,2,1}, f32[768]{0}, /*index=350*/f32[12,64,768]{1,0,2}, f32[12,64]{1,0}, f32[768,12,64]{0,2,1}, f32[12,64]{1,0}, f32[768,12,64]{0,2,1}, /*index=355*/f32[768]{0}, f32[768]{0}, f32[768]{0}, f32[768]{0}, f32[3072]{0}, /*index=360*/f32[768,3072]{0,1}, f32[768]{0}, f32[3072,768]{0,1}, f32[12,64]{1,0}, f32[768,12,64]{0,2,1}, /*index=365*/f32[768]{0}, f32[12,64,768]{1,0,2}, f32[12,64]{1,0}, f32[768,12,64]{0,2,1}, f32[12,64]{1,0}, /*index=370*/f32[768,12,64]{0,2,1}, f32[768]{0}, f32[768]{0}, f32[768]{0}, f32[768]{0}, /*index=375*/f32[3072]{0}, f32[768,3072]{0,1}, f32[768]{0}, f32[3072,768]{0,1}, f32[12,64]{1,0}, /*index=380*/f32[768,12,64]{0,2,1}, f32[768]{0}, f32[12,64,768]{1,0,2}, f32[12,64]{1,0}, f32[768,12,64]{0,2,1}, /*index=385*/f32[12,64]{1,0}, f32[768,12,64]{0,2,1}, f32[768]{0}, f32[768]{0}, f32[768]{0}, /*index=390*/f32[768]{0}, f32[3072]{0}, f32[768,3072]{0,1}, f32[768]{0}, f32[3072,768]{0,1}, /*index=395*/f32[12,64]{1,0}, f32[768,12,64]{0,2,1}, f32[768]{0}, f32[12,64,768]{1,0,2}, f32[12,64]{1,0}, /*index=400*/f32[768,12,64]{0,2,1}, f32[12,64]{1,0}, f32[768,12,64]{0,2,1}, f32[768]{0}, f32[16,16,3,768]{3,2,1,0}, /*index=405*/f32[2048]{0}, f32[768,2048]{0,1}, f32[1,196,768]{2,1,0}, f32[256000,2048]{1,0}, f32[2048]{0}, /*index=410*/f32[18,8,256,2048]{3,2,1,0}, f32[18,2,1,2048,256]{4,3,2,1,0}, f32[18,8,2048,256]{3,2,1,0}, f32[18,2,2048,16384]{3,2,1,0}, f32[18,16384,2048]{2,1,0}, /*index=415*/f32[18,2048]{1,0}, f32[18,2048]{1,0}, f32[768]{0}, f32[768]{0}, f32[768]{0}, /*index=420*/f32[768]{0}, f32[768]{0}, f32[768]{0}, f32[3072]{0}, f32[768,3072]{0,1}, /*index=425*/f32[768]{0}, f32[3072,768]{0,1}, f32[12,64]{1,0}, f32[768,12,64]{0,2,1}, f32[768]{0}, /*index=430*/f32[12,64,768]{1,0,2}, f32[12,64]{1,0}, f32[768,12,64]{0,2,1}, f32[12,64]{1,0}, f32[768,12,64]{0,2,1}, /*index=435*/f32[768]{0}, f32[768]{0}, f32[768]{0}, f32[768]{0}, f32[3072]{0}, /*index=440*/f32[768,3072]{0,1}, f32[768]{0}, f32[3072,768]{0,1}, f32[12,64]{1,0}, f32[768,12,64]{0,2,1}, /*index=445*/f32[768]{0}, f32[12,64,768]{1,0,2}, f32[12,64]{1,0}, f32[768,12,64]{0,2,1}, f32[12,64]{1,0}, /*index=450*/f32[768,12,64]{0,2,1}, f32[768]{0}, f32[768]{0}, f32[768]{0}, f32[768]{0}, /*index=455*/f32[3072]{0}, f32[768,3072]{0,1}, f32[768]{0}, f32[3072,768]{0,1}, f32[12,64]{1,0}, /*index=460*/f32[768,12,64]{0,2,1}, f32[768]{0}, f32[12,64,768]{1,0,2}, f32[12,64]{1,0}, f32[768,12,64]{0,2,1}, /*index=465*/f32[12,64]{1,0}, f32[768,12,64]{0,2,1}, f32[768]{0}, f32[768]{0}, f32[768]{0}, /*index=470*/f32[768]{0}, f32[3072]{0}, f32[768,3072]{0,1}, f32[768]{0}, f32[3072,768]{0,1}, /*index=475*/f32[12,64]{1,0}, f32[768,12,64]{0,2,1}, f32[768]{0}, f32[12,64,768]{1,0,2}, f32[12,64]{1,0}, /*index=480*/f32[768,12,64]{0,2,1}, f32[12,64]{1,0}, f32[768,12,64]{0,2,1}, f32[768]{0}, f32[768]{0}, /*index=485*/f32[768]{0}, f32[768]{0}, f32[3072]{0}, f32[768,3072]{0,1}, f32[768]{0}, /*index=490*/f32[3072,768]{0,1}, f32[12,64]{1,0}, f32[768,12,64]{0,2,1}, f32[768]{0}, f32[12,64,768]{1,0,2}, /*index=495*/f32[12,64]{1,0}, f32[768,12,64]{0,2,1}, f32[12,64]{1,0}, f32[768,12,64]{0,2,1}, f32[768]{0}, /*index=500*/f32[768]{0}, f32[768]{0}, f32[768]{0}, f32[3072]{0}, f32[768,3072]{0,1}, /*index=505*/f32[768]{0}, f32[3072,768]{0,1}, f32[12,64]{1,0}, f32[768,12,64]{0,2,1}, f32[768]{0}, /*index=510*/f32[12,64,768]{1,0,2}, f32[12,64]{1,0}, f32[768,12,64]{0,2,1}, f32[12,64]{1,0}, f32[768,12,64]{0,2,1}, /*index=515*/f32[768]{0}, f32[768]{0}, f32[768]{0}, f32[768]{0}, f32[3072]{0}, /*index=520*/f32[768,3072]{0,1}, f32[768]{0}, f32[3072,768]{0,1}, f32[12,64]{1,0}, f32[768,12,64]{0,2,1}, /*index=525*/f32[768]{0}, f32[12,64,768]{1,0,2}, f32[12,64]{1,0}, f32[768,12,64]{0,2,1}, f32[12,64]{1,0}, /*index=530*/f32[768,12,64]{0,2,1}, f32[768]{0}, f32[768]{0}, f32[768]{0}, f32[768]{0}, /*index=535*/f32[3072]{0}, f32[768,3072]{0,1}, f32[768]{0}, f32[3072,768]{0,1}, f32[12,64]{1,0}, /*index=540*/f32[768,12,64]{0,2,1}, f32[768]{0}, f32[12,64,768]{1,0,2}, f32[12,64]{1,0}, f32[768,12,64]{0,2,1}, /*index=545*/f32[12,64]{1,0}, f32[768,12,64]{0,2,1}, f32[768]{0}, f32[768]{0}, f32[768]{0}, /*index=550*/f32[768]{0}, f32[3072]{0}, f32[768,3072]{0,1}, f32[768]{0}, f32[3072,768]{0,1}, /*index=555*/f32[12,64]{1,0}, f32[768,12,64]{0,2,1}, f32[768]{0}, f32[12,64,768]{1,0,2}, f32[12,64]{1,0}, /*index=560*/f32[768,12,64]{0,2,1}, f32[12,64]{1,0}, f32[768,12,64]{0,2,1}, f32[768]{0}, f32[768]{0}, /*index=565*/f32[768]{0}, f32[768]{0}, f32[3072]{0}, f32[768,3072]{0,1}, f32[768]{0}, /*index=570*/f32[3072,768]{0,1}, f32[12,64]{1,0}, f32[768,12,64]{0,2,1}, f32[768]{0}, f32[12,64,768]{1,0,2}, /*index=575*/f32[12,64]{1,0}, f32[768,12,64]{0,2,1}, f32[12,64]{1,0}, f32[768,12,64]{0,2,1}, f32[768]{0}, /*index=580*/f32[768]{0}, f32[768]{0}, f32[768]{0}, f32[3072]{0}, f32[768,3072]{0,1}, /*index=585*/f32[768]{0}, f32[3072,768]{0,1}, f32[12,64]{1,0}, f32[768,12,64]{0,2,1}, f32[768]{0}, /*index=590*/f32[12,64,768]{1,0,2}, f32[12,64]{1,0}, f32[768,12,64]{0,2,1}, f32[12,64]{1,0}, f32[768,12,64]{0,2,1}, /*index=595*/f32[768]{0}, f32[768]{0}, f32[768]{0}, f32[768]{0}, f32[3072]{0}, /*index=600*/f32[768,3072]{0,1}, f32[768]{0}, f32[3072,768]{0,1}, f32[12,64]{1,0}, f32[768,12,64]{0,2,1}, /*index=605*/f32[768]{0}, f32[12,64,768]{1,0,2}, f32[12,64]{1,0}, f32[768,12,64]{0,2,1}, f32[12,64]{1,0}, /*index=610*/f32[768,12,64]{0,2,1}, f32[768]{0}, f32[16,16,3,768]{3,2,1,0}, f32[2048]{0}, f32[768,2048]{0,1}, /*index=615*/f32[1,196,768]{2,1,0}, f32[256000,2048]{1,0}, f32[2048]{0}, f32[18,8,256,2048]{3,2,1,0}, f32[18,2,1,2048,256]{4,3,2,1,0}, /*index=620*/f32[18,8,2048,256]{3,2,1,0}, f32[18,2,2048,16384]{3,2,1,0}, f32[18,16384,2048]{2,1,0}, f32[18,2048]{1,0}, f32[18,2048]{1,0}, /*index=625*/f32[]) tuple(%add.2908, %add.2909, %add.2910, %add.2911, %add.2912, /*index=5*/%add.2913, %add.2914, %add.2915, %add.2916, %add.2917, /*index=10*/%add.2918, %add.2919, %add.2920, %add.2921, %add.2922, /*index=15*/%add.2923, %add.2924, %add.2925, %add.2926, %add.2927, /*index=20*/%add.2928, %add.2929, %add.2930, %add.2931, %add.2932, /*index=25*/%add.2933, %add.2934, %add.2935, %add.2936, %add.2937, /*index=30*/%add.2938, %add.2939, %add.2940, %add.2941, %add.2942, /*index=35*/%add.2943, %add.2944, %add.2945, %add.2946, %add.2947, /*index=40*/%add.2948, %add.2949, %add.2950, %add.2951, %add.2952, /*index=45*/%add.2953, %add.2954, %add.2955, %add.2956, %add.2957, /*index=50*/%add.2958, %add.2959, %add.2960, %add.2961, %add.2962, /*index=55*/%add.2963, %add.2964, %add.2965, %add.2966, %add.2967, /*index=60*/%add.2968, %add.2969, %add.2970, %add.2971, %add.2972, /*index=65*/%add.2973, %add.2974, %add.2975, %add.2976, %add.2977, /*index=70*/%add.2978, %add.2979, %add.2980, %add.2981, %add.2982, /*index=75*/%add.2983, %add.2984, %add.2985, %add.2986, %add.2987, /*index=80*/%add.2988, %add.2989, %add.2990, %add.2991, %add.2992, /*index=85*/%add.2993, %add.2994, %add.2995, %add.2996, %add.2997, /*index=90*/%add.2998, %add.2999, %add.3000, %add.3001, %add.3002, /*index=95*/%add.3003, %add.3004, %add.3005, %add.3006, %add.3007, /*index=100*/%add.3008, %add.3009, %add.3010, %add.3011, %add.3012, /*index=105*/%add.3013, %add.3014, %add.3015, %add.3016, %add.3017, /*index=110*/%add.3018, %add.3019, %add.3020, %add.3021, %add.3022, /*index=115*/%add.3023, %add.3024, %add.3025, %add.3026, %add.3027, /*index=120*/%add.3028, %add.3029, %add.3030, %add.3031, %add.3032, /*index=125*/%add.3033, %add.3034, %add.3035, %add.3036, %add.3037, /*index=130*/%add.3038, %add.3039, %add.3040, %add.3041, %add.3042, /*index=135*/%add.3043, %add.3044, %add.3045, %add.3046, %add.3047, /*index=140*/%add.3048, %add.3049, %add.3050, %add.3051, %add.3052, /*index=145*/%add.3053, %add.3054, %add.3055, %add.3056, %add.3057, /*index=150*/%add.3058, %add.3059, %add.3060, %add.3061, %add.3062, /*index=155*/%add.3063, %add.3064, %add.3065, %add.3066, %add.3067, /*index=160*/%add.3068, %add.3069, %add.3070, %add.3071, %add.3072, /*index=165*/%add.3073, %add.3074, %add.3075, %add.3076, %add.3077, /*index=170*/%add.3078, %add.3079, %add.3080, %add.3081, %add.3082, /*index=175*/%add.3083, %add.3084, %add.3085, %add.3086, %add.3087, /*index=180*/%add.3088, %add.3089, %add.3090, %add.3091, %add.3092, /*index=185*/%add.3093, %add.3094, %add.3095, %add.3096, %add.3097, /*index=190*/%add.3098, %add.3099, %add.3100, %add.3101, %add.3102, /*index=195*/%add.3103, %add.3104, %add.3105, %add.3106, %add.3107, /*index=200*/%add.3108, %add.3109, %add.3110, %add.3111, %add.3112, /*index=205*/%add.3113, %add.3114, %add.3115, %jit__where_.19, %add.2075, /*index=210*/%add.2076, %add.2077, %add.2078, %add.2079, %add.2080, /*index=215*/%add.2081, %add.2082, %add.2083, %add.2084, %add.2085, /*index=220*/%add.2086, %add.2087, %add.2088, %add.2089, %add.2090, /*index=225*/%add.2091, %add.2092, %add.2093, %add.2094, %add.2095, /*index=230*/%add.2096, %add.2097, %add.2098, %add.2099, %add.2100, /*index=235*/%add.2101, %add.2102, %add.2103, %add.2104, %add.2105, /*index=240*/%add.2106, %add.2107, %add.2108, %add.2109, %add.2110, /*index=245*/%add.2111, %add.2112, %add.2113, %add.2114, %add.2115, /*index=250*/%add.2116, %add.2117, %add.2118, %add.2119, %add.2120, /*index=255*/%add.2121, %add.2122, %add.2123, %add.2124, %add.2125, /*index=260*/%add.2126, %add.2127, %add.2128, %add.2129, %add.2130, /*index=265*/%add.2131, %add.2132, %add.2133, %add.2134, %add.2135, /*index=270*/%add.2136, %add.2137, %add.2138, %add.2139, %add.2140, /*index=275*/%add.2141, %add.2142, %add.2143, %add.2144, %add.2145, /*index=280*/%add.2146, %add.2147, %add.2148, %add.2149, %add.2150, /*index=285*/%add.2151, %add.2152, %add.2153, %add.2154, %add.2155, /*index=290*/%add.2156, %add.2157, %add.2158, %add.2159, %add.2160, /*index=295*/%add.2161, %add.2162, %add.2163, %add.2164, %add.2165, /*index=300*/%add.2166, %add.2167, %add.2168, %add.2169, %add.2170, /*index=305*/%add.2171, %add.2172, %add.2173, %add.2174, %add.2175, /*index=310*/%add.2176, %add.2177, %add.2178, %add.2179, %add.2180, /*index=315*/%add.2181, %add.2182, %add.2183, %add.2184, %add.2185, /*index=320*/%add.2186, %add.2187, %add.2188, %add.2189, %add.2190, /*index=325*/%add.2191, %add.2192, %add.2193, %add.2194, %add.2195, /*index=330*/%add.2196, %add.2197, %add.2198, %add.2199, %add.2200, /*index=335*/%add.2201, %add.2202, %add.2203, %add.2204, %add.2205, /*index=340*/%add.2206, %add.2207, %add.2208, %add.2209, %add.2210, /*index=345*/%add.2211, %add.2212, %add.2213, %add.2214, %add.2215, /*index=350*/%add.2216, %add.2217, %add.2218, %add.2219, %add.2220, /*index=355*/%add.2221, %add.2222, %add.2223, %add.2224, %add.2225, /*index=360*/%add.2226, %add.2227, %add.2228, %add.2229, %add.2230, /*index=365*/%add.2231, %add.2232, %add.2233, %add.2234, %add.2235, /*index=370*/%add.2236, %add.2237, %add.2238, %add.2239, %add.2240, /*index=375*/%add.2241, %add.2242, %add.2243, %add.2244, %add.2245, /*index=380*/%add.2246, %add.2247, %add.2248, %add.2249, %add.2250, /*index=385*/%add.2251, %add.2252, %add.2253, %add.2254, %add.2255, /*index=390*/%add.2256, %add.2257, %add.2258, %add.2259, %add.2260, /*index=395*/%add.2261, %add.2262, %add.2263, %add.2264, %add.2265, /*index=400*/%add.2266, %add.2267, %add.2268, %add.2269, %add.2270, /*index=405*/%add.2271, %add.2272, %add.2273, %add.2274, %add.2275, /*index=410*/%add.2276, %add.2277, %add.2278, %add.2279, %add.2280, /*index=415*/%add.2281, %add.2282, %add.2283, %add.2284, %add.2285, /*index=420*/%add.2286, %add.2287, %add.2288, %add.2289, %add.2290, /*index=425*/%add.2291, %add.2292, %add.2293, %add.2294, %add.2295, /*index=430*/%add.2296, %add.2297, %add.2298, %add.2299, %add.2300, /*index=435*/%add.2301, %add.2302, %add.2303, %add.2304, %add.2305, /*index=440*/%add.2306, %add.2307, %add.2308, %add.2309, %add.2310, /*index=445*/%add.2311, %add.2312, %add.2313, %add.2314, %add.2315, /*index=450*/%add.2316, %add.2317, %add.2318, %add.2319, %add.2320, /*index=455*/%add.2321, %add.2322, %add.2323, %add.2324, %add.2325, /*index=460*/%add.2326, %add.2327, %add.2328, %add.2329, %add.2330, /*index=465*/%add.2331, %add.2332, %add.2333, %add.2334, %add.2335, /*index=470*/%add.2336, %add.2337, %add.2338, %add.2339, %add.2340, /*index=475*/%add.2341, %add.2342, %add.2343, %add.2344, %add.2345, /*index=480*/%add.2346, %add.2347, %add.2348, %add.2349, %add.2350, /*index=485*/%add.2351, %add.2352, %add.2353, %add.2354, %add.2355, /*index=490*/%add.2356, %add.2357, %add.2358, %add.2359, %add.2360, /*index=495*/%add.2361, %add.2362, %add.2363, %add.2364, %add.2365, /*index=500*/%add.2366, %add.2367, %add.2368, %add.2369, %add.2370, /*index=505*/%add.2371, %add.2372, %add.2373, %add.2374, %add.2375, /*index=510*/%add.2376, %add.2377, %add.2378, %add.2379, %add.2380, /*index=515*/%add.2381, %add.2382, %add.2383, %add.2384, %add.2385, /*index=520*/%add.2386, %add.2387, %add.2388, %add.2389, %add.2390, /*index=525*/%add.2391, %add.2392, %add.2393, %add.2394, %add.2395, /*index=530*/%add.2396, %add.2397, %add.2398, %add.2399, %add.2400, /*index=535*/%add.2401, %add.2402, %add.2403, %add.2404, %add.2405, /*index=540*/%add.2406, %add.2407, %add.2408, %add.2409, %add.2410, /*index=545*/%add.2411, %add.2412, %add.2413, %add.2414, %add.2415, /*index=550*/%add.2416, %add.2417, %add.2418, %add.2419, %add.2420, /*index=555*/%add.2421, %add.2422, %add.2423, %add.2424, %add.2425, /*index=560*/%add.2426, %add.2427, %add.2428, %add.2429, %add.2430, /*index=565*/%add.2431, %add.2432, %add.2433, %add.2434, %add.2435, /*index=570*/%add.2436, %add.2437, %add.2438, %add.2439, %add.2440, /*index=575*/%add.2441, %add.2442, %add.2443, %add.2444, %add.2445, /*index=580*/%add.2446, %add.2447, %add.2448, %add.2449, %add.2450, /*index=585*/%add.2451, %add.2452, %add.2453, %add.2454, %add.2455, /*index=590*/%add.2456, %add.2457, %add.2458, %add.2459, %add.2460, /*index=595*/%add.2461, %add.2462, %add.2463, %add.2464, %add.2465, /*index=600*/%add.2466, %add.2467, %add.2468, %add.2469, %add.2470, /*index=605*/%add.2471, %add.2472, %add.2473, %add.2474, %add.2475, /*index=610*/%add.2476, %add.2477, %add.2478, %add.2479, %add.2480, /*index=615*/%add.2481, %add.2482, %add.2483, %add.2484, %add.2485, /*index=620*/%add.2486, %add.2487, %add.2488, %add.2489, %add.2490, /*index=625*/%div.1607)
}

