HloModule jit_predict_step, entry_computation_layout={(f32[32000,512]{1,0}, f32[512,8,64]{2,1,0}, f32[8,64,512]{2,1,0}, f32[512,8,64]{2,1,0}, f32[512,8,64]{2,1,0}, /*index=5*/f32[512]{0}, f32[512]{0}, f32[512]{0}, f32[512]{0}, f32[512]{0}, /*index=10*/f32[512]{0}, f32[2048]{0}, f32[512,2048]{1,0}, f32[512]{0}, f32[2048,512]{1,0}, /*index=15*/f32[512,8,64]{2,1,0}, f32[8,64,512]{2,1,0}, f32[512,8,64]{2,1,0}, f32[512,8,64]{2,1,0}, f32[512,8,64]{2,1,0}, /*index=20*/f32[8,64,512]{2,1,0}, f32[512,8,64]{2,1,0}, f32[512,8,64]{2,1,0}, f32[512]{0}, f32[512]{0}, /*index=25*/f32[512]{0}, f32[512]{0}, f32[512]{0}, f32[512]{0}, f32[2048]{0}, /*index=30*/f32[512,2048]{1,0}, f32[512]{0}, f32[2048,512]{1,0}, f32[512,8,64]{2,1,0}, f32[8,64,512]{2,1,0}, /*index=35*/f32[512,8,64]{2,1,0}, f32[512,8,64]{2,1,0}, f32[512,8,64]{2,1,0}, f32[8,64,512]{2,1,0}, f32[512,8,64]{2,1,0}, /*index=40*/f32[512,8,64]{2,1,0}, f32[512]{0}, f32[512]{0}, f32[512]{0}, f32[512]{0}, /*index=45*/f32[512]{0}, f32[512]{0}, f32[2048]{0}, f32[512,2048]{1,0}, f32[512]{0}, /*index=50*/f32[2048,512]{1,0}, f32[512,8,64]{2,1,0}, f32[8,64,512]{2,1,0}, f32[512,8,64]{2,1,0}, f32[512,8,64]{2,1,0}, /*index=55*/f32[512,8,64]{2,1,0}, f32[8,64,512]{2,1,0}, f32[512,8,64]{2,1,0}, f32[512,8,64]{2,1,0}, f32[512]{0}, /*index=60*/f32[512]{0}, f32[512]{0}, f32[512]{0}, f32[512]{0}, f32[512]{0}, /*index=65*/f32[2048]{0}, f32[512,2048]{1,0}, f32[512]{0}, f32[2048,512]{1,0}, f32[512,8,64]{2,1,0}, /*index=70*/f32[8,64,512]{2,1,0}, f32[512,8,64]{2,1,0}, f32[512,8,64]{2,1,0}, f32[512,8,64]{2,1,0}, f32[8,64,512]{2,1,0}, /*index=75*/f32[512,8,64]{2,1,0}, f32[512,8,64]{2,1,0}, f32[512]{0}, f32[512]{0}, f32[512]{0}, /*index=80*/f32[512]{0}, f32[512]{0}, f32[512]{0}, f32[2048]{0}, f32[512,2048]{1,0}, /*index=85*/f32[512]{0}, f32[2048,512]{1,0}, f32[512,8,64]{2,1,0}, f32[8,64,512]{2,1,0}, f32[512,8,64]{2,1,0}, /*index=90*/f32[512,8,64]{2,1,0}, f32[512,8,64]{2,1,0}, f32[8,64,512]{2,1,0}, f32[512,8,64]{2,1,0}, f32[512,8,64]{2,1,0}, /*index=95*/f32[512]{0}, f32[512]{0}, f32[512]{0}, f32[512]{0}, f32[512]{0}, /*index=100*/f32[512]{0}, f32[2048]{0}, f32[512,2048]{1,0}, f32[512]{0}, f32[2048,512]{1,0}, /*index=105*/f32[512,8,64]{2,1,0}, f32[8,64,512]{2,1,0}, f32[512,8,64]{2,1,0}, f32[512,8,64]{2,1,0}, f32[512]{0}, /*index=110*/f32[512]{0}, f32[32000]{0}, f32[512,32000]{1,0}, f32[512]{0}, f32[512]{0}, /*index=115*/f32[512]{0}, f32[512]{0}, f32[512]{0}, f32[512]{0}, f32[2048]{0}, /*index=120*/f32[512,2048]{1,0}, f32[512]{0}, f32[2048,512]{1,0}, f32[8,64]{1,0}, f32[512,8,64]{2,1,0}, /*index=125*/f32[512]{0}, f32[8,64,512]{2,1,0}, f32[8,64]{1,0}, f32[512,8,64]{2,1,0}, f32[8,64]{1,0}, /*index=130*/f32[512,8,64]{2,1,0}, f32[512]{0}, f32[512]{0}, f32[512]{0}, f32[512]{0}, /*index=135*/f32[2048]{0}, f32[512,2048]{1,0}, f32[512]{0}, f32[2048,512]{1,0}, f32[8,64]{1,0}, /*index=140*/f32[512,8,64]{2,1,0}, f32[512]{0}, f32[8,64,512]{2,1,0}, f32[8,64]{1,0}, f32[512,8,64]{2,1,0}, /*index=145*/f32[8,64]{1,0}, f32[512,8,64]{2,1,0}, f32[512]{0}, f32[512]{0}, f32[512]{0}, /*index=150*/f32[512]{0}, f32[2048]{0}, f32[512,2048]{1,0}, f32[512]{0}, f32[2048,512]{1,0}, /*index=155*/f32[8,64]{1,0}, f32[512,8,64]{2,1,0}, f32[512]{0}, f32[8,64,512]{2,1,0}, f32[8,64]{1,0}, /*index=160*/f32[512,8,64]{2,1,0}, f32[8,64]{1,0}, f32[512,8,64]{2,1,0}, f32[512]{0}, f32[512]{0}, /*index=165*/f32[512]{0}, f32[512]{0}, f32[2048]{0}, f32[512,2048]{1,0}, f32[512]{0}, /*index=170*/f32[2048,512]{1,0}, f32[8,64]{1,0}, f32[512,8,64]{2,1,0}, f32[512]{0}, f32[8,64,512]{2,1,0}, /*index=175*/f32[8,64]{1,0}, f32[512,8,64]{2,1,0}, f32[8,64]{1,0}, f32[512,8,64]{2,1,0}, f32[512]{0}, /*index=180*/f32[512]{0}, f32[512]{0}, f32[512]{0}, f32[2048]{0}, f32[512,2048]{1,0}, /*index=185*/f32[512]{0}, f32[2048,512]{1,0}, f32[8,64]{1,0}, f32[512,8,64]{2,1,0}, f32[512]{0}, /*index=190*/f32[8,64,512]{2,1,0}, f32[8,64]{1,0}, f32[512,8,64]{2,1,0}, f32[8,64]{1,0}, f32[512,8,64]{2,1,0}, /*index=195*/f32[512]{0}, f32[512]{0}, f32[512]{0}, f32[512]{0}, f32[2048]{0}, /*index=200*/f32[512,2048]{1,0}, f32[512]{0}, f32[2048,512]{1,0}, f32[8,64]{1,0}, f32[512,8,64]{2,1,0}, /*index=205*/f32[512]{0}, f32[8,64,512]{2,1,0}, f32[8,64]{1,0}, f32[512,8,64]{2,1,0}, f32[8,64]{1,0}, /*index=210*/f32[512,8,64]{2,1,0}, f32[512]{0}, f32[16,16,3,512]{3,2,1,0}, f32[1,196,512]{2,1,0}, f32[1,64,512]{2,1,0}, /*index=215*/f32[8,224,224,3]{3,2,1,0}, s32[8,64]{1,0})->f32[8,64,32000]{2,1,0}}, allow_spmd_sharding_propagation_to_parameters={true,true,true,true,true,true,true,true,true,true,true,true,true,true,true,true,true,true,true,true,true,true,true,true,true,true,true,true,true,true,true,true,true,true,true,true,true,true,true,true,true,true,true,true,true,true,true,true,true,true,true,true,true,true,true,true,true,true,true,true,true,true,true,true,true,true,true,true,true,true,true,true,true,true,true,true,true,true,true,true,true,true,true,true,true,true,true,true,true,true,true,true,true,true,true,true,true,true,true,true,true,true,true,true,true,true,true,true,true,true,true,true,true,true,true,true,true,true,true,true,true,true,true,true,true,true,true,true,true,true,true,true,true,true,true,true,true,true,true,true,true,true,true,true,true,true,true,true,true,true,true,true,true,true,true,true,true,true,true,true,true,true,true,true,true,true,true,true,true,true,true,true,true,true,true,true,true,true,true,true,true,true,true,true,true,true,true,true,true,true,true,true,true,true,true,true,true,true,true,true,true,true,true,true,true,true,true,true,true,true,true,true,true,true,true,true,true}, allow_spmd_sharding_propagation_to_output={true}

FileNames
1 "/root/hlo_dump/bv_cappa_dump.py"
2 "/root/big_vision/big_vision/models/proj/cappa/cappa.py"
3 "/root/big_vision/big_vision/models/vit.py"
4 "/usr/local/lib/python3.12/dist-packages/flax/linen/normalization.py"
5 "/usr/local/lib/python3.12/dist-packages/flax/linen/attention.py"
6 "/usr/local/lib/python3.12/dist-packages/flax/linen/linear.py"
7 "/root/big_vision/big_vision/models/common.py"

FunctionNames
1 "<module>"
2 "predict_step"
3 "Model.__call__"
4 "Model.encode"
5 "_Model.__call__"
6 "Encoder.__call__"
7 "Encoder1DBlock.__call__"
8 "LayerNorm.__call__"
9 "_compute_stats"
10 "_compute_stats.<locals>.maybe_distributed_mean"
11 "_compute_stats.<locals>.maybe_distributed_mean.<locals>.<genexpr>"
12 "MultiHeadDotProductAttention.__call__"
13 "dot_product_attention"
14 "dot_product_attention_weights"
15 "Model.decode"
16 "Decoder.__call__"
17 "EncoderDecoderBlock.__call__"
18 "SelfAttention.__call__"
19 "_Conv.__call__"
20 "_normalize"
21 "_abs_sq"
22 "DenseGeneral.__call__"
23 "MlpBlock.__call__"
24 "Dense.__call__"
25 "shift_right"
26 "Embed.__call__"
27 "AddPositionEmbs.__call__"
28 "make_causal_mask"
29 "make_attention_mask"

FileLocations
1 {file_name_id=1 function_name_id=1 line=31 end_line=31 column=10 end_column=41}
2 {file_name_id=1 function_name_id=2 line=30 end_line=30 column=15 end_column=70}
3 {file_name_id=2 function_name_id=3 line=386 end_line=386 column=14 end_column=45}
4 {file_name_id=2 function_name_id=4 line=334 end_line=334 column=13 end_column=45}
5 {file_name_id=3 function_name_id=5 line=230 end_line=239 column=24 end_column=39}
6 {file_name_id=3 function_name_id=6 line=157 end_line=157 column=36 end_column=63}
7 {file_name_id=3 function_name_id=7 line=92 end_line=92 column=8 end_column=25}
8 {file_name_id=4 function_name_id=8 line=512 end_line=521 column=16 end_column=5}
9 {file_name_id=4 function_name_id=9 line=139 end_line=139 column=16 end_column=64}
10 {file_name_id=4 function_name_id=10 line=122 end_line=122 column=10 end_column=53}
11 {file_name_id=4 function_name_id=11 line=122 end_line=122 column=16 end_column=40}
12 {file_name_id=3 function_name_id=7 line=93 end_line=98 column=20 end_column=11}
13 {file_name_id=5 function_name_id=12 line=674 end_line=674 column=10 end_column=54}
14 {file_name_id=5 function_name_id=13 line=266 end_line=281 column=17 end_column=3}
15 {file_name_id=5 function_name_id=14 line=146 end_line=146 column=19 end_column=47}
16 {file_name_id=3 function_name_id=7 line=103 end_line=103 column=8 end_column=25}
17 {file_name_id=3 function_name_id=6 line=160 end_line=160 column=11 end_column=47}
18 {file_name_id=2 function_name_id=3 line=388 end_line=388 column=14 end_column=68}
19 {file_name_id=2 function_name_id=15 line=358 end_line=365 column=13 end_column=44}
20 {file_name_id=2 function_name_id=16 line=246 end_line=251 column=15 end_column=44}
21 {file_name_id=2 function_name_id=17 line=97 end_line=97 column=12 end_column=76}
22 {file_name_id=2 function_name_id=17 line=98 end_line=101 column=12 end_column=57}
23 {file_name_id=5 function_name_id=18 line=818 end_line=824 column=11 end_column=5}
24 {file_name_id=2 function_name_id=17 line=107 end_line=107 column=14 end_column=72}
25 {file_name_id=2 function_name_id=17 line=108 end_line=111 column=14 end_column=54}
26 {file_name_id=2 function_name_id=17 line=119 end_line=119 column=12 end_column=70}
27 {file_name_id=2 function_name_id=16 line=253 end_line=253 column=8 end_column=41}
28 {file_name_id=3 function_name_id=5 line=212 end_line=214 column=22 end_column=70}
29 {file_name_id=6 function_name_id=19 line=700 end_line=710 column=10 end_column=7}
30 {file_name_id=6 function_name_id=19 line=725 end_line=725 column=13 end_column=67}
31 {file_name_id=6 function_name_id=19 line=726 end_line=726 column=6 end_column=15}
32 {file_name_id=3 function_name_id=5 line=217 end_line=217 column=8 end_column=37}
33 {file_name_id=3 function_name_id=5 line=220 end_line=221 column=29 end_column=63}
34 {file_name_id=4 function_name_id=8 line=523 end_line=538 column=11 end_column=5}
35 {file_name_id=4 function_name_id=20 line=203 end_line=203 column=9 end_column=46}
36 {file_name_id=4 function_name_id=20 line=205 end_line=205 column=6 end_column=14}
37 {file_name_id=4 function_name_id=9 line=139 end_line=139 column=42 end_column=52}
38 {file_name_id=4 function_name_id=21 line=57 end_line=57 column=11 end_column=24}
39 {file_name_id=4 function_name_id=9 line=142 end_line=142 column=35 end_column=46}
40 {file_name_id=4 function_name_id=9 line=142 end_line=142 column=29 end_column=46}
41 {file_name_id=4 function_name_id=9 line=142 end_line=142 column=12 end_column=47}
42 {file_name_id=4 function_name_id=20 line=204 end_line=204 column=8 end_column=44}
43 {file_name_id=4 function_name_id=20 line=206 end_line=206 column=18 end_column=31}
44 {file_name_id=4 function_name_id=20 line=206 end_line=206 column=8 end_column=32}
45 {file_name_id=4 function_name_id=20 line=214 end_line=214 column=4 end_column=16}
46 {file_name_id=4 function_name_id=20 line=211 end_line=211 column=6 end_column=28}
47 {file_name_id=4 function_name_id=20 line=216 end_line=216 column=2 end_column=10}
48 {file_name_id=4 function_name_id=20 line=220 end_line=220 column=6 end_column=28}
49 {file_name_id=4 function_name_id=20 line=223 end_line=223 column=4 end_column=13}
50 {file_name_id=5 function_name_id=12 line=551 end_line=551 column=6 end_column=35}
51 {file_name_id=6 function_name_id=22 line=199 end_line=204 column=10 end_column=5}
52 {file_name_id=6 function_name_id=22 line=209 end_line=209 column=13 end_column=63}
53 {file_name_id=6 function_name_id=22 line=210 end_line=210 column=6 end_column=17}
54 {file_name_id=5 function_name_id=12 line=549 end_line=549 column=6 end_column=35}
55 {file_name_id=5 function_name_id=14 line=130 end_line=130 column=10 end_column=47}
56 {file_name_id=5 function_name_id=12 line=550 end_line=550 column=6 end_column=33}
57 {file_name_id=5 function_name_id=14 line=132 end_line=132 column=17 end_column=60}
58 {file_name_id=5 function_name_id=13 line=291 end_line=295 column=9 end_column=3}
59 {file_name_id=5 function_name_id=12 line=676 end_line=688 column=10 end_column=8}
60 {file_name_id=3 function_name_id=7 line=101 end_line=101 column=21 end_column=26}
61 {file_name_id=3 function_name_id=7 line=104 end_line=107 column=21 end_column=23}
62 {file_name_id=3 function_name_id=23 line=72 end_line=72 column=8 end_column=72}
63 {file_name_id=6 function_name_id=24 line=287 end_line=292 column=8 end_column=5}
64 {file_name_id=6 function_name_id=24 line=294 end_line=294 column=11 end_column=57}
65 {file_name_id=6 function_name_id=24 line=294 end_line=294 column=6 end_column=57}
66 {file_name_id=3 function_name_id=23 line=75 end_line=75 column=8 end_column=18}
67 {file_name_id=3 function_name_id=23 line=77 end_line=77 column=8 end_column=52}
68 {file_name_id=3 function_name_id=7 line=110 end_line=110 column=22 end_column=27}
69 {file_name_id=2 function_name_id=16 line=200 end_line=200 column=12 end_column=26}
70 {file_name_id=2 function_name_id=25 line=43 end_line=43 column=11 end_column=66}
71 {file_name_id=2 function_name_id=25 line=46 end_line=46 column=9 end_column=79}
72 {file_name_id=2 function_name_id=16 line=208 end_line=208 column=8 end_column=16}
73 {file_name_id=6 function_name_id=26 line=1194 end_line=1194 column=11 end_column=46}
74 {file_name_id=2 function_name_id=16 line=210 end_line=211 column=8 end_column=58}
75 {file_name_id=7 function_name_id=27 line=133 end_line=133 column=11 end_column=22}
76 {file_name_id=2 function_name_id=15 line=357 end_line=357 column=39 end_column=67}
77 {file_name_id=5 function_name_id=28 line=880 end_line=880 column=26 end_column=66}
78 {file_name_id=5 function_name_id=28 line=881 end_line=887 column=9 end_column=3}
79 {file_name_id=5 function_name_id=29 line=854 end_line=856 column=9 end_column=3}
80 {file_name_id=5 function_name_id=29 line=857 end_line=857 column=9 end_column=39}
81 {file_name_id=5 function_name_id=29 line=859 end_line=859 column=9 end_column=27}
82 {file_name_id=5 function_name_id=14 line=140 end_line=140 column=19 end_column=57}
83 {file_name_id=2 function_name_id=17 line=103 end_line=103 column=12 end_column=23}
84 {file_name_id=2 function_name_id=17 line=114 end_line=114 column=14 end_column=19}
85 {file_name_id=2 function_name_id=17 line=120 end_line=122 column=12 end_column=51}
86 {file_name_id=2 function_name_id=23 line=64 end_line=64 column=8 end_column=75}
87 {file_name_id=2 function_name_id=23 line=65 end_line=65 column=8 end_column=18}
88 {file_name_id=2 function_name_id=23 line=67 end_line=67 column=8 end_column=55}
89 {file_name_id=2 function_name_id=17 line=124 end_line=124 column=15 end_column=20}
90 {file_name_id=2 function_name_id=16 line=255 end_line=259 column=13 end_column=8}

StackFrames
1 {file_location_id=1 parent_frame_id=1}
2 {file_location_id=2 parent_frame_id=2}
3 {file_location_id=3 parent_frame_id=3}
4 {file_location_id=4 parent_frame_id=4}
5 {file_location_id=5 parent_frame_id=5}
6 {file_location_id=6 parent_frame_id=6}
7 {file_location_id=7 parent_frame_id=7}
8 {file_location_id=8 parent_frame_id=8}
9 {file_location_id=9 parent_frame_id=9}
10 {file_location_id=10 parent_frame_id=10}
11 {file_location_id=11 parent_frame_id=11}
12 {file_location_id=12 parent_frame_id=7}
13 {file_location_id=13 parent_frame_id=13}
14 {file_location_id=14 parent_frame_id=14}
15 {file_location_id=15 parent_frame_id=15}
16 {file_location_id=16 parent_frame_id=7}
17 {file_location_id=8 parent_frame_id=17}
18 {file_location_id=9 parent_frame_id=18}
19 {file_location_id=10 parent_frame_id=19}
20 {file_location_id=11 parent_frame_id=20}
21 {file_location_id=17 parent_frame_id=6}
22 {file_location_id=8 parent_frame_id=22}
23 {file_location_id=9 parent_frame_id=23}
24 {file_location_id=10 parent_frame_id=24}
25 {file_location_id=11 parent_frame_id=25}
26 {file_location_id=18 parent_frame_id=3}
27 {file_location_id=19 parent_frame_id=27}
28 {file_location_id=20 parent_frame_id=28}
29 {file_location_id=21 parent_frame_id=29}
30 {file_location_id=8 parent_frame_id=30}
31 {file_location_id=9 parent_frame_id=31}
32 {file_location_id=10 parent_frame_id=32}
33 {file_location_id=11 parent_frame_id=33}
34 {file_location_id=22 parent_frame_id=29}
35 {file_location_id=23 parent_frame_id=35}
36 {file_location_id=13 parent_frame_id=36}
37 {file_location_id=14 parent_frame_id=37}
38 {file_location_id=15 parent_frame_id=38}
39 {file_location_id=24 parent_frame_id=29}
40 {file_location_id=8 parent_frame_id=40}
41 {file_location_id=9 parent_frame_id=41}
42 {file_location_id=10 parent_frame_id=42}
43 {file_location_id=11 parent_frame_id=43}
44 {file_location_id=25 parent_frame_id=29}
45 {file_location_id=13 parent_frame_id=45}
46 {file_location_id=14 parent_frame_id=46}
47 {file_location_id=15 parent_frame_id=47}
48 {file_location_id=26 parent_frame_id=29}
49 {file_location_id=8 parent_frame_id=49}
50 {file_location_id=9 parent_frame_id=50}
51 {file_location_id=10 parent_frame_id=51}
52 {file_location_id=11 parent_frame_id=52}
53 {file_location_id=27 parent_frame_id=28}
54 {file_location_id=8 parent_frame_id=54}
55 {file_location_id=9 parent_frame_id=55}
56 {file_location_id=10 parent_frame_id=56}
57 {file_location_id=11 parent_frame_id=57}
58 {file_location_id=28 parent_frame_id=5}
59 {file_location_id=29 parent_frame_id=59}
60 {file_location_id=30 parent_frame_id=59}
61 {file_location_id=31 parent_frame_id=59}
62 {file_location_id=32 parent_frame_id=5}
63 {file_location_id=33 parent_frame_id=5}
64 {file_location_id=34 parent_frame_id=8}
65 {file_location_id=35 parent_frame_id=65}
66 {file_location_id=36 parent_frame_id=65}
67 {file_location_id=37 parent_frame_id=9}
68 {file_location_id=38 parent_frame_id=68}
69 {file_location_id=39 parent_frame_id=9}
70 {file_location_id=38 parent_frame_id=70}
71 {file_location_id=40 parent_frame_id=9}
72 {file_location_id=41 parent_frame_id=9}
73 {file_location_id=42 parent_frame_id=65}
74 {file_location_id=43 parent_frame_id=65}
75 {file_location_id=44 parent_frame_id=65}
76 {file_location_id=45 parent_frame_id=65}
77 {file_location_id=46 parent_frame_id=65}
78 {file_location_id=47 parent_frame_id=65}
79 {file_location_id=48 parent_frame_id=65}
80 {file_location_id=49 parent_frame_id=65}
81 {file_location_id=50 parent_frame_id=13}
82 {file_location_id=51 parent_frame_id=82}
83 {file_location_id=52 parent_frame_id=82}
84 {file_location_id=53 parent_frame_id=82}
85 {file_location_id=54 parent_frame_id=13}
86 {file_location_id=51 parent_frame_id=86}
87 {file_location_id=52 parent_frame_id=86}
88 {file_location_id=53 parent_frame_id=86}
89 {file_location_id=55 parent_frame_id=15}
90 {file_location_id=56 parent_frame_id=13}
91 {file_location_id=51 parent_frame_id=91}
92 {file_location_id=52 parent_frame_id=91}
93 {file_location_id=53 parent_frame_id=91}
94 {file_location_id=57 parent_frame_id=15}
95 {file_location_id=58 parent_frame_id=14}
96 {file_location_id=59 parent_frame_id=13}
97 {file_location_id=51 parent_frame_id=97}
98 {file_location_id=52 parent_frame_id=97}
99 {file_location_id=53 parent_frame_id=97}
100 {file_location_id=60 parent_frame_id=7}
101 {file_location_id=34 parent_frame_id=17}
102 {file_location_id=35 parent_frame_id=102}
103 {file_location_id=36 parent_frame_id=102}
104 {file_location_id=37 parent_frame_id=18}
105 {file_location_id=38 parent_frame_id=105}
106 {file_location_id=39 parent_frame_id=18}
107 {file_location_id=38 parent_frame_id=107}
108 {file_location_id=40 parent_frame_id=18}
109 {file_location_id=41 parent_frame_id=18}
110 {file_location_id=42 parent_frame_id=102}
111 {file_location_id=43 parent_frame_id=102}
112 {file_location_id=44 parent_frame_id=102}
113 {file_location_id=45 parent_frame_id=102}
114 {file_location_id=46 parent_frame_id=102}
115 {file_location_id=47 parent_frame_id=102}
116 {file_location_id=48 parent_frame_id=102}
117 {file_location_id=49 parent_frame_id=102}
118 {file_location_id=61 parent_frame_id=7}
119 {file_location_id=62 parent_frame_id=119}
120 {file_location_id=63 parent_frame_id=120}
121 {file_location_id=64 parent_frame_id=120}
122 {file_location_id=65 parent_frame_id=120}
123 {file_location_id=66 parent_frame_id=119}
124 {file_location_id=67 parent_frame_id=119}
125 {file_location_id=63 parent_frame_id=125}
126 {file_location_id=64 parent_frame_id=125}
127 {file_location_id=65 parent_frame_id=125}
128 {file_location_id=68 parent_frame_id=7}
129 {file_location_id=34 parent_frame_id=22}
130 {file_location_id=35 parent_frame_id=130}
131 {file_location_id=36 parent_frame_id=130}
132 {file_location_id=37 parent_frame_id=23}
133 {file_location_id=38 parent_frame_id=133}
134 {file_location_id=39 parent_frame_id=23}
135 {file_location_id=38 parent_frame_id=135}
136 {file_location_id=40 parent_frame_id=23}
137 {file_location_id=41 parent_frame_id=23}
138 {file_location_id=42 parent_frame_id=130}
139 {file_location_id=43 parent_frame_id=130}
140 {file_location_id=44 parent_frame_id=130}
141 {file_location_id=45 parent_frame_id=130}
142 {file_location_id=46 parent_frame_id=130}
143 {file_location_id=47 parent_frame_id=130}
144 {file_location_id=48 parent_frame_id=130}
145 {file_location_id=49 parent_frame_id=130}
146 {file_location_id=50 parent_frame_id=45}
147 {file_location_id=51 parent_frame_id=147}
148 {file_location_id=69 parent_frame_id=28}
149 {file_location_id=70 parent_frame_id=149}
150 {file_location_id=71 parent_frame_id=149}
151 {file_location_id=72 parent_frame_id=28}
152 {file_location_id=73 parent_frame_id=152}
153 {file_location_id=74 parent_frame_id=28}
154 {file_location_id=75 parent_frame_id=154}
155 {file_location_id=34 parent_frame_id=30}
156 {file_location_id=35 parent_frame_id=156}
157 {file_location_id=36 parent_frame_id=156}
158 {file_location_id=37 parent_frame_id=31}
159 {file_location_id=38 parent_frame_id=159}
160 {file_location_id=39 parent_frame_id=31}
161 {file_location_id=38 parent_frame_id=161}
162 {file_location_id=40 parent_frame_id=31}
163 {file_location_id=41 parent_frame_id=31}
164 {file_location_id=42 parent_frame_id=156}
165 {file_location_id=43 parent_frame_id=156}
166 {file_location_id=44 parent_frame_id=156}
167 {file_location_id=45 parent_frame_id=156}
168 {file_location_id=46 parent_frame_id=156}
169 {file_location_id=47 parent_frame_id=156}
170 {file_location_id=48 parent_frame_id=156}
171 {file_location_id=49 parent_frame_id=156}
172 {file_location_id=50 parent_frame_id=36}
173 {file_location_id=51 parent_frame_id=173}
174 {file_location_id=76 parent_frame_id=27}
175 {file_location_id=77 parent_frame_id=175}
176 {file_location_id=78 parent_frame_id=175}
177 {file_location_id=79 parent_frame_id=177}
178 {file_location_id=80 parent_frame_id=177}
179 {file_location_id=81 parent_frame_id=177}
180 {file_location_id=54 parent_frame_id=36}
181 {file_location_id=51 parent_frame_id=181}
182 {file_location_id=55 parent_frame_id=38}
183 {file_location_id=56 parent_frame_id=36}
184 {file_location_id=51 parent_frame_id=184}
185 {file_location_id=57 parent_frame_id=38}
186 {file_location_id=82 parent_frame_id=38}
187 {file_location_id=58 parent_frame_id=37}
188 {file_location_id=59 parent_frame_id=36}
189 {file_location_id=51 parent_frame_id=189}
190 {file_location_id=83 parent_frame_id=29}
191 {file_location_id=34 parent_frame_id=40}
192 {file_location_id=35 parent_frame_id=192}
193 {file_location_id=36 parent_frame_id=192}
194 {file_location_id=37 parent_frame_id=41}
195 {file_location_id=38 parent_frame_id=195}
196 {file_location_id=39 parent_frame_id=41}
197 {file_location_id=38 parent_frame_id=197}
198 {file_location_id=40 parent_frame_id=41}
199 {file_location_id=41 parent_frame_id=41}
200 {file_location_id=42 parent_frame_id=192}
201 {file_location_id=43 parent_frame_id=192}
202 {file_location_id=44 parent_frame_id=192}
203 {file_location_id=45 parent_frame_id=192}
204 {file_location_id=46 parent_frame_id=192}
205 {file_location_id=47 parent_frame_id=192}
206 {file_location_id=48 parent_frame_id=192}
207 {file_location_id=49 parent_frame_id=192}
208 {file_location_id=54 parent_frame_id=45}
209 {file_location_id=51 parent_frame_id=209}
210 {file_location_id=55 parent_frame_id=47}
211 {file_location_id=56 parent_frame_id=45}
212 {file_location_id=51 parent_frame_id=212}
213 {file_location_id=57 parent_frame_id=47}
214 {file_location_id=58 parent_frame_id=46}
215 {file_location_id=59 parent_frame_id=45}
216 {file_location_id=51 parent_frame_id=216}
217 {file_location_id=84 parent_frame_id=29}
218 {file_location_id=34 parent_frame_id=49}
219 {file_location_id=35 parent_frame_id=219}
220 {file_location_id=36 parent_frame_id=219}
221 {file_location_id=37 parent_frame_id=50}
222 {file_location_id=38 parent_frame_id=222}
223 {file_location_id=39 parent_frame_id=50}
224 {file_location_id=38 parent_frame_id=224}
225 {file_location_id=40 parent_frame_id=50}
226 {file_location_id=41 parent_frame_id=50}
227 {file_location_id=42 parent_frame_id=219}
228 {file_location_id=43 parent_frame_id=219}
229 {file_location_id=44 parent_frame_id=219}
230 {file_location_id=45 parent_frame_id=219}
231 {file_location_id=46 parent_frame_id=219}
232 {file_location_id=47 parent_frame_id=219}
233 {file_location_id=48 parent_frame_id=219}
234 {file_location_id=49 parent_frame_id=219}
235 {file_location_id=85 parent_frame_id=29}
236 {file_location_id=86 parent_frame_id=236}
237 {file_location_id=63 parent_frame_id=237}
238 {file_location_id=64 parent_frame_id=237}
239 {file_location_id=65 parent_frame_id=237}
240 {file_location_id=87 parent_frame_id=236}
241 {file_location_id=88 parent_frame_id=236}
242 {file_location_id=63 parent_frame_id=242}
243 {file_location_id=64 parent_frame_id=242}
244 {file_location_id=65 parent_frame_id=242}
245 {file_location_id=89 parent_frame_id=29}
246 {file_location_id=34 parent_frame_id=54}
247 {file_location_id=35 parent_frame_id=247}
248 {file_location_id=36 parent_frame_id=247}
249 {file_location_id=37 parent_frame_id=55}
250 {file_location_id=38 parent_frame_id=250}
251 {file_location_id=39 parent_frame_id=55}
252 {file_location_id=38 parent_frame_id=252}
253 {file_location_id=40 parent_frame_id=55}
254 {file_location_id=41 parent_frame_id=55}
255 {file_location_id=42 parent_frame_id=247}
256 {file_location_id=43 parent_frame_id=247}
257 {file_location_id=44 parent_frame_id=247}
258 {file_location_id=45 parent_frame_id=247}
259 {file_location_id=46 parent_frame_id=247}
260 {file_location_id=47 parent_frame_id=247}
261 {file_location_id=48 parent_frame_id=247}
262 {file_location_id=49 parent_frame_id=247}
263 {file_location_id=90 parent_frame_id=28}
264 {file_location_id=63 parent_frame_id=264}
265 {file_location_id=64 parent_frame_id=264}
266 {file_location_id=65 parent_frame_id=264}


%region_0.1 (reduce_sum.3: f32[], reduce_sum.4: f32[]) -> f32[] {
  %reduce_sum.3 = f32[] parameter(0), metadata={op_name="reduce_sum"}
  %reduce_sum.4 = f32[] parameter(1), metadata={op_name="reduce_sum"}
  ROOT %reduce_sum.5 = f32[] add(%reduce_sum.3, %reduce_sum.4), metadata={op_name="jit(predict_step)/Model/Model.encode/encoder/Transformer/encoderblock_0/LayerNorm_0/reduce_sum" stack_frame_id=11}
}

%region_1.2 (reduce_sum.10: f32[], reduce_sum.11: f32[]) -> f32[] {
  %reduce_sum.10 = f32[] parameter(0), metadata={op_name="reduce_sum"}
  %reduce_sum.11 = f32[] parameter(1), metadata={op_name="reduce_sum"}
  ROOT %reduce_sum.12 = f32[] add(%reduce_sum.10, %reduce_sum.11), metadata={op_name="jit(predict_step)/Model/Model.encode/encoder/Transformer/encoderblock_0/LayerNorm_0/reduce_sum" stack_frame_id=11}
}

%region_2.3 (reduce_max.3: f32[], reduce_max.4: f32[]) -> f32[] {
  %reduce_max.3 = f32[] parameter(0), metadata={op_name="reduce_max"}
  %reduce_max.4 = f32[] parameter(1), metadata={op_name="reduce_max"}
  ROOT %reduce_max.5 = f32[] maximum(%reduce_max.3, %reduce_max.4), metadata={op_name="jit(predict_step)/Model/Model.encode/encoder/Transformer/encoderblock_0/MultiHeadDotProductAttention_0/reduce_max" stack_frame_id=15}
}

%region_3.4 (reduce_sum.17: f32[], reduce_sum.18: f32[]) -> f32[] {
  %reduce_sum.17 = f32[] parameter(0), metadata={op_name="reduce_sum"}
  %reduce_sum.18 = f32[] parameter(1), metadata={op_name="reduce_sum"}
  ROOT %reduce_sum.19 = f32[] add(%reduce_sum.17, %reduce_sum.18), metadata={op_name="jit(predict_step)/Model/Model.encode/encoder/Transformer/encoderblock_0/MultiHeadDotProductAttention_0/reduce_sum" stack_frame_id=15}
}

%region_4.5 (reduce_sum.24: f32[], reduce_sum.25: f32[]) -> f32[] {
  %reduce_sum.24 = f32[] parameter(0), metadata={op_name="reduce_sum"}
  %reduce_sum.25 = f32[] parameter(1), metadata={op_name="reduce_sum"}
  ROOT %reduce_sum.26 = f32[] add(%reduce_sum.24, %reduce_sum.25), metadata={op_name="jit(predict_step)/Model/Model.encode/encoder/Transformer/encoderblock_0/LayerNorm_1/reduce_sum" stack_frame_id=20}
}

%region_5.6 (reduce_sum.31: f32[], reduce_sum.32: f32[]) -> f32[] {
  %reduce_sum.31 = f32[] parameter(0), metadata={op_name="reduce_sum"}
  %reduce_sum.32 = f32[] parameter(1), metadata={op_name="reduce_sum"}
  ROOT %reduce_sum.33 = f32[] add(%reduce_sum.31, %reduce_sum.32), metadata={op_name="jit(predict_step)/Model/Model.encode/encoder/Transformer/encoderblock_0/LayerNorm_1/reduce_sum" stack_frame_id=20}
}

%region_6.7 (reduce_sum.38: f32[], reduce_sum.39: f32[]) -> f32[] {
  %reduce_sum.38 = f32[] parameter(0), metadata={op_name="reduce_sum"}
  %reduce_sum.39 = f32[] parameter(1), metadata={op_name="reduce_sum"}
  ROOT %reduce_sum.40 = f32[] add(%reduce_sum.38, %reduce_sum.39), metadata={op_name="jit(predict_step)/Model/Model.encode/encoder/Transformer/encoderblock_1/LayerNorm_0/reduce_sum" stack_frame_id=11}
}

%region_7.8 (reduce_sum.45: f32[], reduce_sum.46: f32[]) -> f32[] {
  %reduce_sum.45 = f32[] parameter(0), metadata={op_name="reduce_sum"}
  %reduce_sum.46 = f32[] parameter(1), metadata={op_name="reduce_sum"}
  ROOT %reduce_sum.47 = f32[] add(%reduce_sum.45, %reduce_sum.46), metadata={op_name="jit(predict_step)/Model/Model.encode/encoder/Transformer/encoderblock_1/LayerNorm_0/reduce_sum" stack_frame_id=11}
}

%region_8.9 (reduce_max.10: f32[], reduce_max.11: f32[]) -> f32[] {
  %reduce_max.10 = f32[] parameter(0), metadata={op_name="reduce_max"}
  %reduce_max.11 = f32[] parameter(1), metadata={op_name="reduce_max"}
  ROOT %reduce_max.12 = f32[] maximum(%reduce_max.10, %reduce_max.11), metadata={op_name="jit(predict_step)/Model/Model.encode/encoder/Transformer/encoderblock_1/MultiHeadDotProductAttention_0/reduce_max" stack_frame_id=15}
}

%region_9.10 (reduce_sum.52: f32[], reduce_sum.53: f32[]) -> f32[] {
  %reduce_sum.52 = f32[] parameter(0), metadata={op_name="reduce_sum"}
  %reduce_sum.53 = f32[] parameter(1), metadata={op_name="reduce_sum"}
  ROOT %reduce_sum.54 = f32[] add(%reduce_sum.52, %reduce_sum.53), metadata={op_name="jit(predict_step)/Model/Model.encode/encoder/Transformer/encoderblock_1/MultiHeadDotProductAttention_0/reduce_sum" stack_frame_id=15}
}

%region_10.11 (reduce_sum.59: f32[], reduce_sum.60: f32[]) -> f32[] {
  %reduce_sum.59 = f32[] parameter(0), metadata={op_name="reduce_sum"}
  %reduce_sum.60 = f32[] parameter(1), metadata={op_name="reduce_sum"}
  ROOT %reduce_sum.61 = f32[] add(%reduce_sum.59, %reduce_sum.60), metadata={op_name="jit(predict_step)/Model/Model.encode/encoder/Transformer/encoderblock_1/LayerNorm_1/reduce_sum" stack_frame_id=20}
}

%region_11.12 (reduce_sum.66: f32[], reduce_sum.67: f32[]) -> f32[] {
  %reduce_sum.66 = f32[] parameter(0), metadata={op_name="reduce_sum"}
  %reduce_sum.67 = f32[] parameter(1), metadata={op_name="reduce_sum"}
  ROOT %reduce_sum.68 = f32[] add(%reduce_sum.66, %reduce_sum.67), metadata={op_name="jit(predict_step)/Model/Model.encode/encoder/Transformer/encoderblock_1/LayerNorm_1/reduce_sum" stack_frame_id=20}
}

%region_12.13 (reduce_sum.73: f32[], reduce_sum.74: f32[]) -> f32[] {
  %reduce_sum.73 = f32[] parameter(0), metadata={op_name="reduce_sum"}
  %reduce_sum.74 = f32[] parameter(1), metadata={op_name="reduce_sum"}
  ROOT %reduce_sum.75 = f32[] add(%reduce_sum.73, %reduce_sum.74), metadata={op_name="jit(predict_step)/Model/Model.encode/encoder/Transformer/encoderblock_2/LayerNorm_0/reduce_sum" stack_frame_id=11}
}

%region_13.14 (reduce_sum.80: f32[], reduce_sum.81: f32[]) -> f32[] {
  %reduce_sum.80 = f32[] parameter(0), metadata={op_name="reduce_sum"}
  %reduce_sum.81 = f32[] parameter(1), metadata={op_name="reduce_sum"}
  ROOT %reduce_sum.82 = f32[] add(%reduce_sum.80, %reduce_sum.81), metadata={op_name="jit(predict_step)/Model/Model.encode/encoder/Transformer/encoderblock_2/LayerNorm_0/reduce_sum" stack_frame_id=11}
}

%region_14.15 (reduce_max.17: f32[], reduce_max.18: f32[]) -> f32[] {
  %reduce_max.17 = f32[] parameter(0), metadata={op_name="reduce_max"}
  %reduce_max.18 = f32[] parameter(1), metadata={op_name="reduce_max"}
  ROOT %reduce_max.19 = f32[] maximum(%reduce_max.17, %reduce_max.18), metadata={op_name="jit(predict_step)/Model/Model.encode/encoder/Transformer/encoderblock_2/MultiHeadDotProductAttention_0/reduce_max" stack_frame_id=15}
}

%region_15.16 (reduce_sum.87: f32[], reduce_sum.88: f32[]) -> f32[] {
  %reduce_sum.87 = f32[] parameter(0), metadata={op_name="reduce_sum"}
  %reduce_sum.88 = f32[] parameter(1), metadata={op_name="reduce_sum"}
  ROOT %reduce_sum.89 = f32[] add(%reduce_sum.87, %reduce_sum.88), metadata={op_name="jit(predict_step)/Model/Model.encode/encoder/Transformer/encoderblock_2/MultiHeadDotProductAttention_0/reduce_sum" stack_frame_id=15}
}

%region_16.17 (reduce_sum.94: f32[], reduce_sum.95: f32[]) -> f32[] {
  %reduce_sum.94 = f32[] parameter(0), metadata={op_name="reduce_sum"}
  %reduce_sum.95 = f32[] parameter(1), metadata={op_name="reduce_sum"}
  ROOT %reduce_sum.96 = f32[] add(%reduce_sum.94, %reduce_sum.95), metadata={op_name="jit(predict_step)/Model/Model.encode/encoder/Transformer/encoderblock_2/LayerNorm_1/reduce_sum" stack_frame_id=20}
}

%region_17.18 (reduce_sum.101: f32[], reduce_sum.102: f32[]) -> f32[] {
  %reduce_sum.101 = f32[] parameter(0), metadata={op_name="reduce_sum"}
  %reduce_sum.102 = f32[] parameter(1), metadata={op_name="reduce_sum"}
  ROOT %reduce_sum.103 = f32[] add(%reduce_sum.101, %reduce_sum.102), metadata={op_name="jit(predict_step)/Model/Model.encode/encoder/Transformer/encoderblock_2/LayerNorm_1/reduce_sum" stack_frame_id=20}
}

%region_18.19 (reduce_sum.108: f32[], reduce_sum.109: f32[]) -> f32[] {
  %reduce_sum.108 = f32[] parameter(0), metadata={op_name="reduce_sum"}
  %reduce_sum.109 = f32[] parameter(1), metadata={op_name="reduce_sum"}
  ROOT %reduce_sum.110 = f32[] add(%reduce_sum.108, %reduce_sum.109), metadata={op_name="jit(predict_step)/Model/Model.encode/encoder/Transformer/encoderblock_3/LayerNorm_0/reduce_sum" stack_frame_id=11}
}

%region_19.20 (reduce_sum.115: f32[], reduce_sum.116: f32[]) -> f32[] {
  %reduce_sum.115 = f32[] parameter(0), metadata={op_name="reduce_sum"}
  %reduce_sum.116 = f32[] parameter(1), metadata={op_name="reduce_sum"}
  ROOT %reduce_sum.117 = f32[] add(%reduce_sum.115, %reduce_sum.116), metadata={op_name="jit(predict_step)/Model/Model.encode/encoder/Transformer/encoderblock_3/LayerNorm_0/reduce_sum" stack_frame_id=11}
}

%region_20.21 (reduce_max.24: f32[], reduce_max.25: f32[]) -> f32[] {
  %reduce_max.24 = f32[] parameter(0), metadata={op_name="reduce_max"}
  %reduce_max.25 = f32[] parameter(1), metadata={op_name="reduce_max"}
  ROOT %reduce_max.26 = f32[] maximum(%reduce_max.24, %reduce_max.25), metadata={op_name="jit(predict_step)/Model/Model.encode/encoder/Transformer/encoderblock_3/MultiHeadDotProductAttention_0/reduce_max" stack_frame_id=15}
}

%region_21.22 (reduce_sum.122: f32[], reduce_sum.123: f32[]) -> f32[] {
  %reduce_sum.122 = f32[] parameter(0), metadata={op_name="reduce_sum"}
  %reduce_sum.123 = f32[] parameter(1), metadata={op_name="reduce_sum"}
  ROOT %reduce_sum.124 = f32[] add(%reduce_sum.122, %reduce_sum.123), metadata={op_name="jit(predict_step)/Model/Model.encode/encoder/Transformer/encoderblock_3/MultiHeadDotProductAttention_0/reduce_sum" stack_frame_id=15}
}

%region_22.23 (reduce_sum.129: f32[], reduce_sum.130: f32[]) -> f32[] {
  %reduce_sum.129 = f32[] parameter(0), metadata={op_name="reduce_sum"}
  %reduce_sum.130 = f32[] parameter(1), metadata={op_name="reduce_sum"}
  ROOT %reduce_sum.131 = f32[] add(%reduce_sum.129, %reduce_sum.130), metadata={op_name="jit(predict_step)/Model/Model.encode/encoder/Transformer/encoderblock_3/LayerNorm_1/reduce_sum" stack_frame_id=20}
}

%region_23.24 (reduce_sum.136: f32[], reduce_sum.137: f32[]) -> f32[] {
  %reduce_sum.136 = f32[] parameter(0), metadata={op_name="reduce_sum"}
  %reduce_sum.137 = f32[] parameter(1), metadata={op_name="reduce_sum"}
  ROOT %reduce_sum.138 = f32[] add(%reduce_sum.136, %reduce_sum.137), metadata={op_name="jit(predict_step)/Model/Model.encode/encoder/Transformer/encoderblock_3/LayerNorm_1/reduce_sum" stack_frame_id=20}
}

%region_24.25 (reduce_sum.143: f32[], reduce_sum.144: f32[]) -> f32[] {
  %reduce_sum.143 = f32[] parameter(0), metadata={op_name="reduce_sum"}
  %reduce_sum.144 = f32[] parameter(1), metadata={op_name="reduce_sum"}
  ROOT %reduce_sum.145 = f32[] add(%reduce_sum.143, %reduce_sum.144), metadata={op_name="jit(predict_step)/Model/Model.encode/encoder/Transformer/encoderblock_4/LayerNorm_0/reduce_sum" stack_frame_id=11}
}

%region_25.26 (reduce_sum.150: f32[], reduce_sum.151: f32[]) -> f32[] {
  %reduce_sum.150 = f32[] parameter(0), metadata={op_name="reduce_sum"}
  %reduce_sum.151 = f32[] parameter(1), metadata={op_name="reduce_sum"}
  ROOT %reduce_sum.152 = f32[] add(%reduce_sum.150, %reduce_sum.151), metadata={op_name="jit(predict_step)/Model/Model.encode/encoder/Transformer/encoderblock_4/LayerNorm_0/reduce_sum" stack_frame_id=11}
}

%region_26.27 (reduce_max.31: f32[], reduce_max.32: f32[]) -> f32[] {
  %reduce_max.31 = f32[] parameter(0), metadata={op_name="reduce_max"}
  %reduce_max.32 = f32[] parameter(1), metadata={op_name="reduce_max"}
  ROOT %reduce_max.33 = f32[] maximum(%reduce_max.31, %reduce_max.32), metadata={op_name="jit(predict_step)/Model/Model.encode/encoder/Transformer/encoderblock_4/MultiHeadDotProductAttention_0/reduce_max" stack_frame_id=15}
}

%region_27.28 (reduce_sum.157: f32[], reduce_sum.158: f32[]) -> f32[] {
  %reduce_sum.157 = f32[] parameter(0), metadata={op_name="reduce_sum"}
  %reduce_sum.158 = f32[] parameter(1), metadata={op_name="reduce_sum"}
  ROOT %reduce_sum.159 = f32[] add(%reduce_sum.157, %reduce_sum.158), metadata={op_name="jit(predict_step)/Model/Model.encode/encoder/Transformer/encoderblock_4/MultiHeadDotProductAttention_0/reduce_sum" stack_frame_id=15}
}

%region_28.29 (reduce_sum.164: f32[], reduce_sum.165: f32[]) -> f32[] {
  %reduce_sum.164 = f32[] parameter(0), metadata={op_name="reduce_sum"}
  %reduce_sum.165 = f32[] parameter(1), metadata={op_name="reduce_sum"}
  ROOT %reduce_sum.166 = f32[] add(%reduce_sum.164, %reduce_sum.165), metadata={op_name="jit(predict_step)/Model/Model.encode/encoder/Transformer/encoderblock_4/LayerNorm_1/reduce_sum" stack_frame_id=20}
}

%region_29.30 (reduce_sum.171: f32[], reduce_sum.172: f32[]) -> f32[] {
  %reduce_sum.171 = f32[] parameter(0), metadata={op_name="reduce_sum"}
  %reduce_sum.172 = f32[] parameter(1), metadata={op_name="reduce_sum"}
  ROOT %reduce_sum.173 = f32[] add(%reduce_sum.171, %reduce_sum.172), metadata={op_name="jit(predict_step)/Model/Model.encode/encoder/Transformer/encoderblock_4/LayerNorm_1/reduce_sum" stack_frame_id=20}
}

%region_30.31 (reduce_sum.178: f32[], reduce_sum.179: f32[]) -> f32[] {
  %reduce_sum.178 = f32[] parameter(0), metadata={op_name="reduce_sum"}
  %reduce_sum.179 = f32[] parameter(1), metadata={op_name="reduce_sum"}
  ROOT %reduce_sum.180 = f32[] add(%reduce_sum.178, %reduce_sum.179), metadata={op_name="jit(predict_step)/Model/Model.encode/encoder/Transformer/encoderblock_5/LayerNorm_0/reduce_sum" stack_frame_id=11}
}

%region_31.32 (reduce_sum.185: f32[], reduce_sum.186: f32[]) -> f32[] {
  %reduce_sum.185 = f32[] parameter(0), metadata={op_name="reduce_sum"}
  %reduce_sum.186 = f32[] parameter(1), metadata={op_name="reduce_sum"}
  ROOT %reduce_sum.187 = f32[] add(%reduce_sum.185, %reduce_sum.186), metadata={op_name="jit(predict_step)/Model/Model.encode/encoder/Transformer/encoderblock_5/LayerNorm_0/reduce_sum" stack_frame_id=11}
}

%region_32.33 (reduce_max.38: f32[], reduce_max.39: f32[]) -> f32[] {
  %reduce_max.38 = f32[] parameter(0), metadata={op_name="reduce_max"}
  %reduce_max.39 = f32[] parameter(1), metadata={op_name="reduce_max"}
  ROOT %reduce_max.40 = f32[] maximum(%reduce_max.38, %reduce_max.39), metadata={op_name="jit(predict_step)/Model/Model.encode/encoder/Transformer/encoderblock_5/MultiHeadDotProductAttention_0/reduce_max" stack_frame_id=15}
}

%region_33.34 (reduce_sum.192: f32[], reduce_sum.193: f32[]) -> f32[] {
  %reduce_sum.192 = f32[] parameter(0), metadata={op_name="reduce_sum"}
  %reduce_sum.193 = f32[] parameter(1), metadata={op_name="reduce_sum"}
  ROOT %reduce_sum.194 = f32[] add(%reduce_sum.192, %reduce_sum.193), metadata={op_name="jit(predict_step)/Model/Model.encode/encoder/Transformer/encoderblock_5/MultiHeadDotProductAttention_0/reduce_sum" stack_frame_id=15}
}

%region_34.35 (reduce_sum.199: f32[], reduce_sum.200: f32[]) -> f32[] {
  %reduce_sum.199 = f32[] parameter(0), metadata={op_name="reduce_sum"}
  %reduce_sum.200 = f32[] parameter(1), metadata={op_name="reduce_sum"}
  ROOT %reduce_sum.201 = f32[] add(%reduce_sum.199, %reduce_sum.200), metadata={op_name="jit(predict_step)/Model/Model.encode/encoder/Transformer/encoderblock_5/LayerNorm_1/reduce_sum" stack_frame_id=20}
}

%region_35.36 (reduce_sum.206: f32[], reduce_sum.207: f32[]) -> f32[] {
  %reduce_sum.206 = f32[] parameter(0), metadata={op_name="reduce_sum"}
  %reduce_sum.207 = f32[] parameter(1), metadata={op_name="reduce_sum"}
  ROOT %reduce_sum.208 = f32[] add(%reduce_sum.206, %reduce_sum.207), metadata={op_name="jit(predict_step)/Model/Model.encode/encoder/Transformer/encoderblock_5/LayerNorm_1/reduce_sum" stack_frame_id=20}
}

%region_36.37 (reduce_sum.213: f32[], reduce_sum.214: f32[]) -> f32[] {
  %reduce_sum.213 = f32[] parameter(0), metadata={op_name="reduce_sum"}
  %reduce_sum.214 = f32[] parameter(1), metadata={op_name="reduce_sum"}
  ROOT %reduce_sum.215 = f32[] add(%reduce_sum.213, %reduce_sum.214), metadata={op_name="jit(predict_step)/Model/Model.encode/encoder/Transformer/encoder_norm/reduce_sum" stack_frame_id=25}
}

%region_37.38 (reduce_sum.220: f32[], reduce_sum.221: f32[]) -> f32[] {
  %reduce_sum.220 = f32[] parameter(0), metadata={op_name="reduce_sum"}
  %reduce_sum.221 = f32[] parameter(1), metadata={op_name="reduce_sum"}
  ROOT %reduce_sum.222 = f32[] add(%reduce_sum.220, %reduce_sum.221), metadata={op_name="jit(predict_step)/Model/Model.encode/encoder/Transformer/encoder_norm/reduce_sum" stack_frame_id=25}
}

%_pad.39 (Arg_0.1: s32[8,64], Arg_1.1: s32[]) -> s32[8,65] {
  %Arg_0.1 = s32[8,64]{1,0} parameter(0)
  %Arg_1.1 = s32[] parameter(1)
  ROOT %pad.1 = s32[8,65]{1,0} pad(%Arg_0.1, %Arg_1.1), padding=0_0x1_0, metadata={op_name="pad"}
}

%_where.40 (Arg_0.4: pred[8,64], Arg_1.4: s32[8,64], Arg_2.1: s32[8,64]) -> s32[8,64] {
  %Arg_0.4 = pred[8,64]{1,0} parameter(0)
  %Arg_1.4 = s32[8,64]{1,0} parameter(1)
  %Arg_2.1 = s32[8,64]{1,0} parameter(2)
  ROOT %select_n.1 = s32[8,64]{1,0} select(%Arg_0.4, %Arg_1.4, %Arg_2.1), metadata={op_name="select_n"}
}

%region_38.41 (reduce_and.3: pred[], reduce_and.4: pred[]) -> pred[] {
  %reduce_and.3 = pred[] parameter(0), metadata={op_name="reduce_and"}
  %reduce_and.4 = pred[] parameter(1), metadata={op_name="reduce_and"}
  ROOT %reduce_and.5 = pred[] and(%reduce_and.3, %reduce_and.4), metadata={op_name="reduce_and"}
}

%_take.42 (Arg_0.5: f32[32000,512], Arg_1.5: s32[8,64]) -> f32[8,64,512] {
  %Arg_1.5 = s32[8,64]{1,0} parameter(1)
  %constant.33 = s32[] constant(0)
  %lt.2 = s32[8,64]{1,0} broadcast(%constant.33), dimensions={}, metadata={op_name="lt"}
  %lt.3 = pred[8,64]{1,0} compare(%Arg_1.5, %lt.2), direction=LT, metadata={op_name="lt"}
  %constant.31 = s32[] constant(32000)
  %add.243 = s32[8,64]{1,0} broadcast(%constant.31), dimensions={}, metadata={op_name="add"}
  %add.244 = s32[8,64]{1,0} add(%Arg_1.5, %add.243), metadata={op_name="add"}
  %jit__where_.1 = s32[8,64]{1,0} call(%lt.3, %add.244, %Arg_1.5), to_apply=%_where.40, metadata={op_name="jit(_where)"}
  %broadcast_in_dim.45 = s32[8,64,1]{2,1,0} reshape(%jit__where_.1), metadata={op_name="broadcast_in_dim"}
  %constant.30 = s32[] constant(0)
  %ge.3 = s32[8,64,1]{2,1,0} broadcast(%constant.30), dimensions={}, metadata={op_name="ge"}
  %ge.4 = pred[8,64,1]{2,1,0} compare(%broadcast_in_dim.45, %ge.3), direction=GE, metadata={op_name="ge"}
  %constant.29 = s32[] constant(31999)
  %le.2 = s32[8,64,1]{2,1,0} broadcast(%constant.29), dimensions={}, metadata={op_name="le"}
  %le.3 = pred[8,64,1]{2,1,0} compare(%broadcast_in_dim.45, %le.2), direction=LE, metadata={op_name="le"}
  %and.1 = pred[8,64,1]{2,1,0} and(%ge.4, %le.3), metadata={op_name="and"}
  %constant.32 = pred[] constant(true)
  %reduce_and.7 = pred[8,64]{1,0} reduce(%and.1, %constant.32), dimensions={2}, to_apply=%region_38.41, metadata={op_name="reduce_and"}
  %broadcast_in_dim.46 = pred[8,64,512]{2,1,0} broadcast(%reduce_and.7), dimensions={0,1}, metadata={op_name="broadcast_in_dim"}
  %Arg_0.5 = f32[32000,512]{1,0} parameter(0)
  %gather.1 = f32[8,64,512]{2,1,0} gather(%Arg_0.5, %broadcast_in_dim.45), offset_dims={2}, collapsed_slice_dims={0}, start_index_map={0}, index_vector_dim=2, slice_sizes={1,512}, metadata={op_name="gather"}
  %constant.28 = f32[] constant(nan)
  %broadcast_in_dim.44 = f32[8,64,512]{2,1,0} broadcast(%constant.28), dimensions={}, metadata={op_name="broadcast_in_dim"}
  ROOT %select_n.3 = f32[8,64,512]{2,1,0} select(%broadcast_in_dim.46, %gather.1, %broadcast_in_dim.44), metadata={op_name="select_n"}
}

%region_39.43 (reduce_sum.227: f32[], reduce_sum.228: f32[]) -> f32[] {
  %reduce_sum.227 = f32[] parameter(0), metadata={op_name="reduce_sum"}
  %reduce_sum.228 = f32[] parameter(1), metadata={op_name="reduce_sum"}
  ROOT %reduce_sum.229 = f32[] add(%reduce_sum.227, %reduce_sum.228), metadata={op_name="jit(predict_step)/Model/Model.decode/decoder/EncDecBlock0/LayerNorm1/reduce_sum" stack_frame_id=33}
}

%region_40.44 (reduce_sum.234: f32[], reduce_sum.235: f32[]) -> f32[] {
  %reduce_sum.234 = f32[] parameter(0), metadata={op_name="reduce_sum"}
  %reduce_sum.235 = f32[] parameter(1), metadata={op_name="reduce_sum"}
  ROOT %reduce_sum.236 = f32[] add(%reduce_sum.234, %reduce_sum.235), metadata={op_name="jit(predict_step)/Model/Model.decode/decoder/EncDecBlock0/LayerNorm1/reduce_sum" stack_frame_id=33}
}

%_where_0.45 (Arg_0.7: f32[8,1,64,64], Arg_1.7: f32[8,8,64,64], Arg_2.3: f32[]) -> f32[8,8,64,64] {
  %Arg_0.7 = f32[8,1,64,64]{3,2,1,0} parameter(0)
  %constant.35 = f32[] constant(0)
  %ne.2 = f32[8,1,64,64]{3,2,1,0} broadcast(%constant.35), dimensions={}, metadata={op_name="ne"}
  %ne.3 = pred[8,1,64,64]{3,2,1,0} compare(%Arg_0.7, %ne.2), direction=NE, metadata={op_name="ne"}
  %broadcast_in_dim.53 = pred[8,1,64,64]{3,2,1,0} broadcast(%ne.3), dimensions={0,1,2,3}, metadata={op_name="broadcast_in_dim"}
  %broadcast_in_dim.54 = pred[8,64,64]{2,1,0} reshape(%broadcast_in_dim.53), metadata={op_name="broadcast_in_dim"}
  %broadcast_in_dim.55 = pred[8,8,64,64]{3,2,1,0} broadcast(%broadcast_in_dim.54), dimensions={0,2,3}, metadata={op_name="broadcast_in_dim"}
  %Arg_1.7 = f32[8,8,64,64]{3,2,1,0} parameter(1)
  %Arg_2.3 = f32[] parameter(2)
  %broadcast_in_dim.56 = f32[8,8,64,64]{3,2,1,0} broadcast(%Arg_2.3), dimensions={}, metadata={op_name="broadcast_in_dim"}
  ROOT %select_n.5 = f32[8,8,64,64]{3,2,1,0} select(%broadcast_in_dim.55, %Arg_1.7, %broadcast_in_dim.56), metadata={op_name="select_n"}
}

%region_41.46 (reduce_max.45: f32[], reduce_max.46: f32[]) -> f32[] {
  %reduce_max.45 = f32[] parameter(0), metadata={op_name="reduce_max"}
  %reduce_max.46 = f32[] parameter(1), metadata={op_name="reduce_max"}
  ROOT %reduce_max.47 = f32[] maximum(%reduce_max.45, %reduce_max.46), metadata={op_name="jit(predict_step)/Model/Model.decode/decoder/EncDecBlock0/SelfAttn/SelfAttn/reduce_max" stack_frame_id=38}
}

%region_42.47 (reduce_sum.241: f32[], reduce_sum.242: f32[]) -> f32[] {
  %reduce_sum.241 = f32[] parameter(0), metadata={op_name="reduce_sum"}
  %reduce_sum.242 = f32[] parameter(1), metadata={op_name="reduce_sum"}
  ROOT %reduce_sum.243 = f32[] add(%reduce_sum.241, %reduce_sum.242), metadata={op_name="jit(predict_step)/Model/Model.decode/decoder/EncDecBlock0/SelfAttn/SelfAttn/reduce_sum" stack_frame_id=38}
}

%region_43.48 (reduce_sum.248: f32[], reduce_sum.249: f32[]) -> f32[] {
  %reduce_sum.248 = f32[] parameter(0), metadata={op_name="reduce_sum"}
  %reduce_sum.249 = f32[] parameter(1), metadata={op_name="reduce_sum"}
  ROOT %reduce_sum.250 = f32[] add(%reduce_sum.248, %reduce_sum.249), metadata={op_name="jit(predict_step)/Model/Model.decode/decoder/EncDecBlock0/LayerNorm2/reduce_sum" stack_frame_id=43}
}

%region_44.49 (reduce_sum.255: f32[], reduce_sum.256: f32[]) -> f32[] {
  %reduce_sum.255 = f32[] parameter(0), metadata={op_name="reduce_sum"}
  %reduce_sum.256 = f32[] parameter(1), metadata={op_name="reduce_sum"}
  ROOT %reduce_sum.257 = f32[] add(%reduce_sum.255, %reduce_sum.256), metadata={op_name="jit(predict_step)/Model/Model.decode/decoder/EncDecBlock0/LayerNorm2/reduce_sum" stack_frame_id=43}
}

%region_45.50 (reduce_max.52: f32[], reduce_max.53: f32[]) -> f32[] {
  %reduce_max.52 = f32[] parameter(0), metadata={op_name="reduce_max"}
  %reduce_max.53 = f32[] parameter(1), metadata={op_name="reduce_max"}
  ROOT %reduce_max.54 = f32[] maximum(%reduce_max.52, %reduce_max.53), metadata={op_name="jit(predict_step)/Model/Model.decode/decoder/EncDecBlock0/CrossAttn/reduce_max" stack_frame_id=47}
}

%region_46.51 (reduce_sum.262: f32[], reduce_sum.263: f32[]) -> f32[] {
  %reduce_sum.262 = f32[] parameter(0), metadata={op_name="reduce_sum"}
  %reduce_sum.263 = f32[] parameter(1), metadata={op_name="reduce_sum"}
  ROOT %reduce_sum.264 = f32[] add(%reduce_sum.262, %reduce_sum.263), metadata={op_name="jit(predict_step)/Model/Model.decode/decoder/EncDecBlock0/CrossAttn/reduce_sum" stack_frame_id=47}
}

%region_47.52 (reduce_sum.269: f32[], reduce_sum.270: f32[]) -> f32[] {
  %reduce_sum.269 = f32[] parameter(0), metadata={op_name="reduce_sum"}
  %reduce_sum.270 = f32[] parameter(1), metadata={op_name="reduce_sum"}
  ROOT %reduce_sum.271 = f32[] add(%reduce_sum.269, %reduce_sum.270), metadata={op_name="jit(predict_step)/Model/Model.decode/decoder/EncDecBlock0/LayerNorm3/reduce_sum" stack_frame_id=52}
}

%region_48.53 (reduce_sum.276: f32[], reduce_sum.277: f32[]) -> f32[] {
  %reduce_sum.276 = f32[] parameter(0), metadata={op_name="reduce_sum"}
  %reduce_sum.277 = f32[] parameter(1), metadata={op_name="reduce_sum"}
  ROOT %reduce_sum.278 = f32[] add(%reduce_sum.276, %reduce_sum.277), metadata={op_name="jit(predict_step)/Model/Model.decode/decoder/EncDecBlock0/LayerNorm3/reduce_sum" stack_frame_id=52}
}

%region_49.54 (reduce_sum.283: f32[], reduce_sum.284: f32[]) -> f32[] {
  %reduce_sum.283 = f32[] parameter(0), metadata={op_name="reduce_sum"}
  %reduce_sum.284 = f32[] parameter(1), metadata={op_name="reduce_sum"}
  ROOT %reduce_sum.285 = f32[] add(%reduce_sum.283, %reduce_sum.284), metadata={op_name="jit(predict_step)/Model/Model.decode/decoder/EncDecBlock1/LayerNorm1/reduce_sum" stack_frame_id=33}
}

%region_50.55 (reduce_sum.290: f32[], reduce_sum.291: f32[]) -> f32[] {
  %reduce_sum.290 = f32[] parameter(0), metadata={op_name="reduce_sum"}
  %reduce_sum.291 = f32[] parameter(1), metadata={op_name="reduce_sum"}
  ROOT %reduce_sum.292 = f32[] add(%reduce_sum.290, %reduce_sum.291), metadata={op_name="jit(predict_step)/Model/Model.decode/decoder/EncDecBlock1/LayerNorm1/reduce_sum" stack_frame_id=33}
}

%region_51.56 (reduce_max.59: f32[], reduce_max.60: f32[]) -> f32[] {
  %reduce_max.59 = f32[] parameter(0), metadata={op_name="reduce_max"}
  %reduce_max.60 = f32[] parameter(1), metadata={op_name="reduce_max"}
  ROOT %reduce_max.61 = f32[] maximum(%reduce_max.59, %reduce_max.60), metadata={op_name="jit(predict_step)/Model/Model.decode/decoder/EncDecBlock1/SelfAttn/SelfAttn/reduce_max" stack_frame_id=38}
}

%region_52.57 (reduce_sum.297: f32[], reduce_sum.298: f32[]) -> f32[] {
  %reduce_sum.297 = f32[] parameter(0), metadata={op_name="reduce_sum"}
  %reduce_sum.298 = f32[] parameter(1), metadata={op_name="reduce_sum"}
  ROOT %reduce_sum.299 = f32[] add(%reduce_sum.297, %reduce_sum.298), metadata={op_name="jit(predict_step)/Model/Model.decode/decoder/EncDecBlock1/SelfAttn/SelfAttn/reduce_sum" stack_frame_id=38}
}

%region_53.58 (reduce_sum.304: f32[], reduce_sum.305: f32[]) -> f32[] {
  %reduce_sum.304 = f32[] parameter(0), metadata={op_name="reduce_sum"}
  %reduce_sum.305 = f32[] parameter(1), metadata={op_name="reduce_sum"}
  ROOT %reduce_sum.306 = f32[] add(%reduce_sum.304, %reduce_sum.305), metadata={op_name="jit(predict_step)/Model/Model.decode/decoder/EncDecBlock1/LayerNorm2/reduce_sum" stack_frame_id=43}
}

%region_54.59 (reduce_sum.311: f32[], reduce_sum.312: f32[]) -> f32[] {
  %reduce_sum.311 = f32[] parameter(0), metadata={op_name="reduce_sum"}
  %reduce_sum.312 = f32[] parameter(1), metadata={op_name="reduce_sum"}
  ROOT %reduce_sum.313 = f32[] add(%reduce_sum.311, %reduce_sum.312), metadata={op_name="jit(predict_step)/Model/Model.decode/decoder/EncDecBlock1/LayerNorm2/reduce_sum" stack_frame_id=43}
}

%region_55.60 (reduce_max.66: f32[], reduce_max.67: f32[]) -> f32[] {
  %reduce_max.66 = f32[] parameter(0), metadata={op_name="reduce_max"}
  %reduce_max.67 = f32[] parameter(1), metadata={op_name="reduce_max"}
  ROOT %reduce_max.68 = f32[] maximum(%reduce_max.66, %reduce_max.67), metadata={op_name="jit(predict_step)/Model/Model.decode/decoder/EncDecBlock1/CrossAttn/reduce_max" stack_frame_id=47}
}

%region_56.61 (reduce_sum.318: f32[], reduce_sum.319: f32[]) -> f32[] {
  %reduce_sum.318 = f32[] parameter(0), metadata={op_name="reduce_sum"}
  %reduce_sum.319 = f32[] parameter(1), metadata={op_name="reduce_sum"}
  ROOT %reduce_sum.320 = f32[] add(%reduce_sum.318, %reduce_sum.319), metadata={op_name="jit(predict_step)/Model/Model.decode/decoder/EncDecBlock1/CrossAttn/reduce_sum" stack_frame_id=47}
}

%region_57.62 (reduce_sum.325: f32[], reduce_sum.326: f32[]) -> f32[] {
  %reduce_sum.325 = f32[] parameter(0), metadata={op_name="reduce_sum"}
  %reduce_sum.326 = f32[] parameter(1), metadata={op_name="reduce_sum"}
  ROOT %reduce_sum.327 = f32[] add(%reduce_sum.325, %reduce_sum.326), metadata={op_name="jit(predict_step)/Model/Model.decode/decoder/EncDecBlock1/LayerNorm3/reduce_sum" stack_frame_id=52}
}

%region_58.63 (reduce_sum.332: f32[], reduce_sum.333: f32[]) -> f32[] {
  %reduce_sum.332 = f32[] parameter(0), metadata={op_name="reduce_sum"}
  %reduce_sum.333 = f32[] parameter(1), metadata={op_name="reduce_sum"}
  ROOT %reduce_sum.334 = f32[] add(%reduce_sum.332, %reduce_sum.333), metadata={op_name="jit(predict_step)/Model/Model.decode/decoder/EncDecBlock1/LayerNorm3/reduce_sum" stack_frame_id=52}
}

%region_59.64 (reduce_sum.339: f32[], reduce_sum.340: f32[]) -> f32[] {
  %reduce_sum.339 = f32[] parameter(0), metadata={op_name="reduce_sum"}
  %reduce_sum.340 = f32[] parameter(1), metadata={op_name="reduce_sum"}
  ROOT %reduce_sum.341 = f32[] add(%reduce_sum.339, %reduce_sum.340), metadata={op_name="jit(predict_step)/Model/Model.decode/decoder/EncDecBlock2/LayerNorm1/reduce_sum" stack_frame_id=33}
}

%region_60.65 (reduce_sum.346: f32[], reduce_sum.347: f32[]) -> f32[] {
  %reduce_sum.346 = f32[] parameter(0), metadata={op_name="reduce_sum"}
  %reduce_sum.347 = f32[] parameter(1), metadata={op_name="reduce_sum"}
  ROOT %reduce_sum.348 = f32[] add(%reduce_sum.346, %reduce_sum.347), metadata={op_name="jit(predict_step)/Model/Model.decode/decoder/EncDecBlock2/LayerNorm1/reduce_sum" stack_frame_id=33}
}

%region_61.66 (reduce_max.73: f32[], reduce_max.74: f32[]) -> f32[] {
  %reduce_max.73 = f32[] parameter(0), metadata={op_name="reduce_max"}
  %reduce_max.74 = f32[] parameter(1), metadata={op_name="reduce_max"}
  ROOT %reduce_max.75 = f32[] maximum(%reduce_max.73, %reduce_max.74), metadata={op_name="jit(predict_step)/Model/Model.decode/decoder/EncDecBlock2/SelfAttn/SelfAttn/reduce_max" stack_frame_id=38}
}

%region_62.67 (reduce_sum.353: f32[], reduce_sum.354: f32[]) -> f32[] {
  %reduce_sum.353 = f32[] parameter(0), metadata={op_name="reduce_sum"}
  %reduce_sum.354 = f32[] parameter(1), metadata={op_name="reduce_sum"}
  ROOT %reduce_sum.355 = f32[] add(%reduce_sum.353, %reduce_sum.354), metadata={op_name="jit(predict_step)/Model/Model.decode/decoder/EncDecBlock2/SelfAttn/SelfAttn/reduce_sum" stack_frame_id=38}
}

%region_63.68 (reduce_sum.360: f32[], reduce_sum.361: f32[]) -> f32[] {
  %reduce_sum.360 = f32[] parameter(0), metadata={op_name="reduce_sum"}
  %reduce_sum.361 = f32[] parameter(1), metadata={op_name="reduce_sum"}
  ROOT %reduce_sum.362 = f32[] add(%reduce_sum.360, %reduce_sum.361), metadata={op_name="jit(predict_step)/Model/Model.decode/decoder/EncDecBlock2/LayerNorm2/reduce_sum" stack_frame_id=43}
}

%region_64.69 (reduce_sum.367: f32[], reduce_sum.368: f32[]) -> f32[] {
  %reduce_sum.367 = f32[] parameter(0), metadata={op_name="reduce_sum"}
  %reduce_sum.368 = f32[] parameter(1), metadata={op_name="reduce_sum"}
  ROOT %reduce_sum.369 = f32[] add(%reduce_sum.367, %reduce_sum.368), metadata={op_name="jit(predict_step)/Model/Model.decode/decoder/EncDecBlock2/LayerNorm2/reduce_sum" stack_frame_id=43}
}

%region_65.70 (reduce_max.80: f32[], reduce_max.81: f32[]) -> f32[] {
  %reduce_max.80 = f32[] parameter(0), metadata={op_name="reduce_max"}
  %reduce_max.81 = f32[] parameter(1), metadata={op_name="reduce_max"}
  ROOT %reduce_max.82 = f32[] maximum(%reduce_max.80, %reduce_max.81), metadata={op_name="jit(predict_step)/Model/Model.decode/decoder/EncDecBlock2/CrossAttn/reduce_max" stack_frame_id=47}
}

%region_66.71 (reduce_sum.374: f32[], reduce_sum.375: f32[]) -> f32[] {
  %reduce_sum.374 = f32[] parameter(0), metadata={op_name="reduce_sum"}
  %reduce_sum.375 = f32[] parameter(1), metadata={op_name="reduce_sum"}
  ROOT %reduce_sum.376 = f32[] add(%reduce_sum.374, %reduce_sum.375), metadata={op_name="jit(predict_step)/Model/Model.decode/decoder/EncDecBlock2/CrossAttn/reduce_sum" stack_frame_id=47}
}

%region_67.72 (reduce_sum.381: f32[], reduce_sum.382: f32[]) -> f32[] {
  %reduce_sum.381 = f32[] parameter(0), metadata={op_name="reduce_sum"}
  %reduce_sum.382 = f32[] parameter(1), metadata={op_name="reduce_sum"}
  ROOT %reduce_sum.383 = f32[] add(%reduce_sum.381, %reduce_sum.382), metadata={op_name="jit(predict_step)/Model/Model.decode/decoder/EncDecBlock2/LayerNorm3/reduce_sum" stack_frame_id=52}
}

%region_68.73 (reduce_sum.388: f32[], reduce_sum.389: f32[]) -> f32[] {
  %reduce_sum.388 = f32[] parameter(0), metadata={op_name="reduce_sum"}
  %reduce_sum.389 = f32[] parameter(1), metadata={op_name="reduce_sum"}
  ROOT %reduce_sum.390 = f32[] add(%reduce_sum.388, %reduce_sum.389), metadata={op_name="jit(predict_step)/Model/Model.decode/decoder/EncDecBlock2/LayerNorm3/reduce_sum" stack_frame_id=52}
}

%region_69.74 (reduce_sum.395: f32[], reduce_sum.396: f32[]) -> f32[] {
  %reduce_sum.395 = f32[] parameter(0), metadata={op_name="reduce_sum"}
  %reduce_sum.396 = f32[] parameter(1), metadata={op_name="reduce_sum"}
  ROOT %reduce_sum.397 = f32[] add(%reduce_sum.395, %reduce_sum.396), metadata={op_name="jit(predict_step)/Model/Model.decode/decoder/EncDecBlock3/LayerNorm1/reduce_sum" stack_frame_id=33}
}

%region_70.75 (reduce_sum.402: f32[], reduce_sum.403: f32[]) -> f32[] {
  %reduce_sum.402 = f32[] parameter(0), metadata={op_name="reduce_sum"}
  %reduce_sum.403 = f32[] parameter(1), metadata={op_name="reduce_sum"}
  ROOT %reduce_sum.404 = f32[] add(%reduce_sum.402, %reduce_sum.403), metadata={op_name="jit(predict_step)/Model/Model.decode/decoder/EncDecBlock3/LayerNorm1/reduce_sum" stack_frame_id=33}
}

%region_71.76 (reduce_max.87: f32[], reduce_max.88: f32[]) -> f32[] {
  %reduce_max.87 = f32[] parameter(0), metadata={op_name="reduce_max"}
  %reduce_max.88 = f32[] parameter(1), metadata={op_name="reduce_max"}
  ROOT %reduce_max.89 = f32[] maximum(%reduce_max.87, %reduce_max.88), metadata={op_name="jit(predict_step)/Model/Model.decode/decoder/EncDecBlock3/SelfAttn/SelfAttn/reduce_max" stack_frame_id=38}
}

%region_72.77 (reduce_sum.409: f32[], reduce_sum.410: f32[]) -> f32[] {
  %reduce_sum.409 = f32[] parameter(0), metadata={op_name="reduce_sum"}
  %reduce_sum.410 = f32[] parameter(1), metadata={op_name="reduce_sum"}
  ROOT %reduce_sum.411 = f32[] add(%reduce_sum.409, %reduce_sum.410), metadata={op_name="jit(predict_step)/Model/Model.decode/decoder/EncDecBlock3/SelfAttn/SelfAttn/reduce_sum" stack_frame_id=38}
}

%region_73.78 (reduce_sum.416: f32[], reduce_sum.417: f32[]) -> f32[] {
  %reduce_sum.416 = f32[] parameter(0), metadata={op_name="reduce_sum"}
  %reduce_sum.417 = f32[] parameter(1), metadata={op_name="reduce_sum"}
  ROOT %reduce_sum.418 = f32[] add(%reduce_sum.416, %reduce_sum.417), metadata={op_name="jit(predict_step)/Model/Model.decode/decoder/EncDecBlock3/LayerNorm2/reduce_sum" stack_frame_id=43}
}

%region_74.79 (reduce_sum.423: f32[], reduce_sum.424: f32[]) -> f32[] {
  %reduce_sum.423 = f32[] parameter(0), metadata={op_name="reduce_sum"}
  %reduce_sum.424 = f32[] parameter(1), metadata={op_name="reduce_sum"}
  ROOT %reduce_sum.425 = f32[] add(%reduce_sum.423, %reduce_sum.424), metadata={op_name="jit(predict_step)/Model/Model.decode/decoder/EncDecBlock3/LayerNorm2/reduce_sum" stack_frame_id=43}
}

%region_75.80 (reduce_max.94: f32[], reduce_max.95: f32[]) -> f32[] {
  %reduce_max.94 = f32[] parameter(0), metadata={op_name="reduce_max"}
  %reduce_max.95 = f32[] parameter(1), metadata={op_name="reduce_max"}
  ROOT %reduce_max.96 = f32[] maximum(%reduce_max.94, %reduce_max.95), metadata={op_name="jit(predict_step)/Model/Model.decode/decoder/EncDecBlock3/CrossAttn/reduce_max" stack_frame_id=47}
}

%region_76.81 (reduce_sum.430: f32[], reduce_sum.431: f32[]) -> f32[] {
  %reduce_sum.430 = f32[] parameter(0), metadata={op_name="reduce_sum"}
  %reduce_sum.431 = f32[] parameter(1), metadata={op_name="reduce_sum"}
  ROOT %reduce_sum.432 = f32[] add(%reduce_sum.430, %reduce_sum.431), metadata={op_name="jit(predict_step)/Model/Model.decode/decoder/EncDecBlock3/CrossAttn/reduce_sum" stack_frame_id=47}
}

%region_77.82 (reduce_sum.437: f32[], reduce_sum.438: f32[]) -> f32[] {
  %reduce_sum.437 = f32[] parameter(0), metadata={op_name="reduce_sum"}
  %reduce_sum.438 = f32[] parameter(1), metadata={op_name="reduce_sum"}
  ROOT %reduce_sum.439 = f32[] add(%reduce_sum.437, %reduce_sum.438), metadata={op_name="jit(predict_step)/Model/Model.decode/decoder/EncDecBlock3/LayerNorm3/reduce_sum" stack_frame_id=52}
}

%region_78.83 (reduce_sum.444: f32[], reduce_sum.445: f32[]) -> f32[] {
  %reduce_sum.444 = f32[] parameter(0), metadata={op_name="reduce_sum"}
  %reduce_sum.445 = f32[] parameter(1), metadata={op_name="reduce_sum"}
  ROOT %reduce_sum.446 = f32[] add(%reduce_sum.444, %reduce_sum.445), metadata={op_name="jit(predict_step)/Model/Model.decode/decoder/EncDecBlock3/LayerNorm3/reduce_sum" stack_frame_id=52}
}

%region_79.84 (reduce_sum.451: f32[], reduce_sum.452: f32[]) -> f32[] {
  %reduce_sum.451 = f32[] parameter(0), metadata={op_name="reduce_sum"}
  %reduce_sum.452 = f32[] parameter(1), metadata={op_name="reduce_sum"}
  ROOT %reduce_sum.453 = f32[] add(%reduce_sum.451, %reduce_sum.452), metadata={op_name="jit(predict_step)/Model/Model.decode/decoder/EncDecBlock4/LayerNorm1/reduce_sum" stack_frame_id=33}
}

%region_80.85 (reduce_sum.458: f32[], reduce_sum.459: f32[]) -> f32[] {
  %reduce_sum.458 = f32[] parameter(0), metadata={op_name="reduce_sum"}
  %reduce_sum.459 = f32[] parameter(1), metadata={op_name="reduce_sum"}
  ROOT %reduce_sum.460 = f32[] add(%reduce_sum.458, %reduce_sum.459), metadata={op_name="jit(predict_step)/Model/Model.decode/decoder/EncDecBlock4/LayerNorm1/reduce_sum" stack_frame_id=33}
}

%region_81.86 (reduce_max.101: f32[], reduce_max.102: f32[]) -> f32[] {
  %reduce_max.101 = f32[] parameter(0), metadata={op_name="reduce_max"}
  %reduce_max.102 = f32[] parameter(1), metadata={op_name="reduce_max"}
  ROOT %reduce_max.103 = f32[] maximum(%reduce_max.101, %reduce_max.102), metadata={op_name="jit(predict_step)/Model/Model.decode/decoder/EncDecBlock4/SelfAttn/SelfAttn/reduce_max" stack_frame_id=38}
}

%region_82.87 (reduce_sum.465: f32[], reduce_sum.466: f32[]) -> f32[] {
  %reduce_sum.465 = f32[] parameter(0), metadata={op_name="reduce_sum"}
  %reduce_sum.466 = f32[] parameter(1), metadata={op_name="reduce_sum"}
  ROOT %reduce_sum.467 = f32[] add(%reduce_sum.465, %reduce_sum.466), metadata={op_name="jit(predict_step)/Model/Model.decode/decoder/EncDecBlock4/SelfAttn/SelfAttn/reduce_sum" stack_frame_id=38}
}

%region_83.88 (reduce_sum.472: f32[], reduce_sum.473: f32[]) -> f32[] {
  %reduce_sum.472 = f32[] parameter(0), metadata={op_name="reduce_sum"}
  %reduce_sum.473 = f32[] parameter(1), metadata={op_name="reduce_sum"}
  ROOT %reduce_sum.474 = f32[] add(%reduce_sum.472, %reduce_sum.473), metadata={op_name="jit(predict_step)/Model/Model.decode/decoder/EncDecBlock4/LayerNorm2/reduce_sum" stack_frame_id=43}
}

%region_84.89 (reduce_sum.479: f32[], reduce_sum.480: f32[]) -> f32[] {
  %reduce_sum.479 = f32[] parameter(0), metadata={op_name="reduce_sum"}
  %reduce_sum.480 = f32[] parameter(1), metadata={op_name="reduce_sum"}
  ROOT %reduce_sum.481 = f32[] add(%reduce_sum.479, %reduce_sum.480), metadata={op_name="jit(predict_step)/Model/Model.decode/decoder/EncDecBlock4/LayerNorm2/reduce_sum" stack_frame_id=43}
}

%region_85.90 (reduce_max.108: f32[], reduce_max.109: f32[]) -> f32[] {
  %reduce_max.108 = f32[] parameter(0), metadata={op_name="reduce_max"}
  %reduce_max.109 = f32[] parameter(1), metadata={op_name="reduce_max"}
  ROOT %reduce_max.110 = f32[] maximum(%reduce_max.108, %reduce_max.109), metadata={op_name="jit(predict_step)/Model/Model.decode/decoder/EncDecBlock4/CrossAttn/reduce_max" stack_frame_id=47}
}

%region_86.91 (reduce_sum.486: f32[], reduce_sum.487: f32[]) -> f32[] {
  %reduce_sum.486 = f32[] parameter(0), metadata={op_name="reduce_sum"}
  %reduce_sum.487 = f32[] parameter(1), metadata={op_name="reduce_sum"}
  ROOT %reduce_sum.488 = f32[] add(%reduce_sum.486, %reduce_sum.487), metadata={op_name="jit(predict_step)/Model/Model.decode/decoder/EncDecBlock4/CrossAttn/reduce_sum" stack_frame_id=47}
}

%region_87.92 (reduce_sum.493: f32[], reduce_sum.494: f32[]) -> f32[] {
  %reduce_sum.493 = f32[] parameter(0), metadata={op_name="reduce_sum"}
  %reduce_sum.494 = f32[] parameter(1), metadata={op_name="reduce_sum"}
  ROOT %reduce_sum.495 = f32[] add(%reduce_sum.493, %reduce_sum.494), metadata={op_name="jit(predict_step)/Model/Model.decode/decoder/EncDecBlock4/LayerNorm3/reduce_sum" stack_frame_id=52}
}

%region_88.93 (reduce_sum.500: f32[], reduce_sum.501: f32[]) -> f32[] {
  %reduce_sum.500 = f32[] parameter(0), metadata={op_name="reduce_sum"}
  %reduce_sum.501 = f32[] parameter(1), metadata={op_name="reduce_sum"}
  ROOT %reduce_sum.502 = f32[] add(%reduce_sum.500, %reduce_sum.501), metadata={op_name="jit(predict_step)/Model/Model.decode/decoder/EncDecBlock4/LayerNorm3/reduce_sum" stack_frame_id=52}
}

%region_89.94 (reduce_sum.507: f32[], reduce_sum.508: f32[]) -> f32[] {
  %reduce_sum.507 = f32[] parameter(0), metadata={op_name="reduce_sum"}
  %reduce_sum.508 = f32[] parameter(1), metadata={op_name="reduce_sum"}
  ROOT %reduce_sum.509 = f32[] add(%reduce_sum.507, %reduce_sum.508), metadata={op_name="jit(predict_step)/Model/Model.decode/decoder/EncDecBlock5/LayerNorm1/reduce_sum" stack_frame_id=33}
}

%region_90.95 (reduce_sum.514: f32[], reduce_sum.515: f32[]) -> f32[] {
  %reduce_sum.514 = f32[] parameter(0), metadata={op_name="reduce_sum"}
  %reduce_sum.515 = f32[] parameter(1), metadata={op_name="reduce_sum"}
  ROOT %reduce_sum.516 = f32[] add(%reduce_sum.514, %reduce_sum.515), metadata={op_name="jit(predict_step)/Model/Model.decode/decoder/EncDecBlock5/LayerNorm1/reduce_sum" stack_frame_id=33}
}

%region_91.96 (reduce_max.115: f32[], reduce_max.116: f32[]) -> f32[] {
  %reduce_max.115 = f32[] parameter(0), metadata={op_name="reduce_max"}
  %reduce_max.116 = f32[] parameter(1), metadata={op_name="reduce_max"}
  ROOT %reduce_max.117 = f32[] maximum(%reduce_max.115, %reduce_max.116), metadata={op_name="jit(predict_step)/Model/Model.decode/decoder/EncDecBlock5/SelfAttn/SelfAttn/reduce_max" stack_frame_id=38}
}

%region_92.97 (reduce_sum.521: f32[], reduce_sum.522: f32[]) -> f32[] {
  %reduce_sum.521 = f32[] parameter(0), metadata={op_name="reduce_sum"}
  %reduce_sum.522 = f32[] parameter(1), metadata={op_name="reduce_sum"}
  ROOT %reduce_sum.523 = f32[] add(%reduce_sum.521, %reduce_sum.522), metadata={op_name="jit(predict_step)/Model/Model.decode/decoder/EncDecBlock5/SelfAttn/SelfAttn/reduce_sum" stack_frame_id=38}
}

%region_93.98 (reduce_sum.528: f32[], reduce_sum.529: f32[]) -> f32[] {
  %reduce_sum.528 = f32[] parameter(0), metadata={op_name="reduce_sum"}
  %reduce_sum.529 = f32[] parameter(1), metadata={op_name="reduce_sum"}
  ROOT %reduce_sum.530 = f32[] add(%reduce_sum.528, %reduce_sum.529), metadata={op_name="jit(predict_step)/Model/Model.decode/decoder/EncDecBlock5/LayerNorm2/reduce_sum" stack_frame_id=43}
}

%region_94.99 (reduce_sum.535: f32[], reduce_sum.536: f32[]) -> f32[] {
  %reduce_sum.535 = f32[] parameter(0), metadata={op_name="reduce_sum"}
  %reduce_sum.536 = f32[] parameter(1), metadata={op_name="reduce_sum"}
  ROOT %reduce_sum.537 = f32[] add(%reduce_sum.535, %reduce_sum.536), metadata={op_name="jit(predict_step)/Model/Model.decode/decoder/EncDecBlock5/LayerNorm2/reduce_sum" stack_frame_id=43}
}

%region_95.100 (reduce_max.122: f32[], reduce_max.123: f32[]) -> f32[] {
  %reduce_max.122 = f32[] parameter(0), metadata={op_name="reduce_max"}
  %reduce_max.123 = f32[] parameter(1), metadata={op_name="reduce_max"}
  ROOT %reduce_max.124 = f32[] maximum(%reduce_max.122, %reduce_max.123), metadata={op_name="jit(predict_step)/Model/Model.decode/decoder/EncDecBlock5/CrossAttn/reduce_max" stack_frame_id=47}
}

%region_96.101 (reduce_sum.542: f32[], reduce_sum.543: f32[]) -> f32[] {
  %reduce_sum.542 = f32[] parameter(0), metadata={op_name="reduce_sum"}
  %reduce_sum.543 = f32[] parameter(1), metadata={op_name="reduce_sum"}
  ROOT %reduce_sum.544 = f32[] add(%reduce_sum.542, %reduce_sum.543), metadata={op_name="jit(predict_step)/Model/Model.decode/decoder/EncDecBlock5/CrossAttn/reduce_sum" stack_frame_id=47}
}

%region_97.102 (reduce_sum.549: f32[], reduce_sum.550: f32[]) -> f32[] {
  %reduce_sum.549 = f32[] parameter(0), metadata={op_name="reduce_sum"}
  %reduce_sum.550 = f32[] parameter(1), metadata={op_name="reduce_sum"}
  ROOT %reduce_sum.551 = f32[] add(%reduce_sum.549, %reduce_sum.550), metadata={op_name="jit(predict_step)/Model/Model.decode/decoder/EncDecBlock5/LayerNorm3/reduce_sum" stack_frame_id=52}
}

%region_98.103 (reduce_sum.556: f32[], reduce_sum.557: f32[]) -> f32[] {
  %reduce_sum.556 = f32[] parameter(0), metadata={op_name="reduce_sum"}
  %reduce_sum.557 = f32[] parameter(1), metadata={op_name="reduce_sum"}
  ROOT %reduce_sum.558 = f32[] add(%reduce_sum.556, %reduce_sum.557), metadata={op_name="jit(predict_step)/Model/Model.decode/decoder/EncDecBlock5/LayerNorm3/reduce_sum" stack_frame_id=52}
}

%region_99.104 (reduce_sum.563: f32[], reduce_sum.564: f32[]) -> f32[] {
  %reduce_sum.563 = f32[] parameter(0), metadata={op_name="reduce_sum"}
  %reduce_sum.564 = f32[] parameter(1), metadata={op_name="reduce_sum"}
  ROOT %reduce_sum.565 = f32[] add(%reduce_sum.563, %reduce_sum.564), metadata={op_name="jit(predict_step)/Model/Model.decode/decoder/LayerNorm/reduce_sum" stack_frame_id=57}
}

%region_100.105 (reduce_sum.570: f32[], reduce_sum.571: f32[]) -> f32[] {
  %reduce_sum.570 = f32[] parameter(0), metadata={op_name="reduce_sum"}
  %reduce_sum.571 = f32[] parameter(1), metadata={op_name="reduce_sum"}
  ROOT %reduce_sum.572 = f32[] add(%reduce_sum.570, %reduce_sum.571), metadata={op_name="jit(predict_step)/Model/Model.decode/decoder/LayerNorm/reduce_sum" stack_frame_id=57}
}

ENTRY %main.106 (params__decoder____EmbedTargets____embedding__.1: f32[32000,512], params__decoder____EncDecBlock0____CrossAttn____key____kernel__.1: f32[512,8,64], params__decoder____EncDecBlock0____CrossAttn____out____kernel__.1: f32[8,64,512], params__decoder____EncDecBlock0____CrossAttn____query____kernel__.1: f32[512,8,64], params__decoder____EncDecBlock0____CrossAttn____value____kernel__.1: f32[512,8,64], params__decoder____EncDecBlock0____LayerNorm1____bias__.1: f32[512], params__decoder____EncDecBlock0____LayerNorm1____scale__.1: f32[512], params__decoder____EncDecBlock0____LayerNorm2____bias__.1: f32[512], params__decoder____EncDecBlock0____LayerNorm2____scale__.1: f32[512], params__decoder____EncDecBlock0____LayerNorm3____bias__.1: f32[512], params__decoder____EncDecBlock0____LayerNorm3____scale__.1: f32[512], params__decoder____EncDecBlock0____MLP____Dense_0____bias__.1: f32[2048], params__decoder____EncDecBlock0____MLP____Dense_0____kernel__.1: f32[512,2048], params__decoder____EncDecBlock0____MLP____Dense_1____bias__.1: f32[512], params__decoder____EncDecBlock0____MLP____Dense_1____kernel__.1: f32[2048,512], params__decoder____EncDecBlock0____SelfAttn____key____kernel__.1: f32[512,8,64], params__decoder____EncDecBlock0____SelfAttn____out____kernel__.1: f32[8,64,512], params__decoder____EncDecBlock0____SelfAttn____query____kernel__.1: f32[512,8,64], params__decoder____EncDecBlock0____SelfAttn____value____kernel__.1: f32[512,8,64], params__decoder____EncDecBlock1____CrossAttn____key____kernel__.1: f32[512,8,64], params__decoder____EncDecBlock1____CrossAttn____out____kernel__.1: f32[8,64,512], params__decoder____EncDecBlock1____CrossAttn____query____kernel__.1: f32[512,8,64], params__decoder____EncDecBlock1____CrossAttn____value____kernel__.1: f32[512,8,64], params__decoder____EncDecBlock1____LayerNorm1____bias__.1: f32[512], params__decoder____EncDecBlock1____LayerNorm1____scale__.1: f32[512], params__decoder____EncDecBlock1____LayerNorm2____bias__.1: f32[512], params__decoder____EncDecBlock1____LayerNorm2____scale__.1: f32[512], params__decoder____EncDecBlock1____LayerNorm3____bias__.1: f32[512], params__decoder____EncDecBlock1____LayerNorm3____scale__.1: f32[512], params__decoder____EncDecBlock1____MLP____Dense_0____bias__.1: f32[2048], params__decoder____EncDecBlock1____MLP____Dense_0____kernel__.1: f32[512,2048], params__decoder____EncDecBlock1____MLP____Dense_1____bias__.1: f32[512], params__decoder____EncDecBlock1____MLP____Dense_1____kernel__.1: f32[2048,512], params__decoder____EncDecBlock1____SelfAttn____key____kernel__.1: f32[512,8,64], params__decoder____EncDecBlock1____SelfAttn____out____kernel__.1: f32[8,64,512], params__decoder____EncDecBlock1____SelfAttn____query____kernel__.1: f32[512,8,64], params__decoder____EncDecBlock1____SelfAttn____value____kernel__.1: f32[512,8,64], params__decoder____EncDecBlock2____CrossAttn____key____kernel__.1: f32[512,8,64], params__decoder____EncDecBlock2____CrossAttn____out____kernel__.1: f32[8,64,512], params__decoder____EncDecBlock2____CrossAttn____query____kernel__.1: f32[512,8,64], params__decoder____EncDecBlock2____CrossAttn____value____kernel__.1: f32[512,8,64], params__decoder____EncDecBlock2____LayerNorm1____bias__.1: f32[512], params__decoder____EncDecBlock2____LayerNorm1____scale__.1: f32[512], params__decoder____EncDecBlock2____LayerNorm2____bias__.1: f32[512], params__decoder____EncDecBlock2____LayerNorm2____scale__.1: f32[512], params__decoder____EncDecBlock2____LayerNorm3____bias__.1: f32[512], params__decoder____EncDecBlock2____LayerNorm3____scale__.1: f32[512], params__decoder____EncDecBlock2____MLP____Dense_0____bias__.1: f32[2048], params__decoder____EncDecBlock2____MLP____Dense_0____kernel__.1: f32[512,2048], params__decoder____EncDecBlock2____MLP____Dense_1____bias__.1: f32[512], params__decoder____EncDecBlock2____MLP____Dense_1____kernel__.1: f32[2048,512], params__decoder____EncDecBlock2____SelfAttn____key____kernel__.1: f32[512,8,64], params__decoder____EncDecBlock2____SelfAttn____out____kernel__.1: f32[8,64,512], params__decoder____EncDecBlock2____SelfAttn____query____kernel__.1: f32[512,8,64], params__decoder____EncDecBlock2____SelfAttn____value____kernel__.1: f32[512,8,64], params__decoder____EncDecBlock3____CrossAttn____key____kernel__.1: f32[512,8,64], params__decoder____EncDecBlock3____CrossAttn____out____kernel__.1: f32[8,64,512], params__decoder____EncDecBlock3____CrossAttn____query____kernel__.1: f32[512,8,64], params__decoder____EncDecBlock3____CrossAttn____value____kernel__.1: f32[512,8,64], params__decoder____EncDecBlock3____LayerNorm1____bias__.1: f32[512], params__decoder____EncDecBlock3____LayerNorm1____scale__.1: f32[512], params__decoder____EncDecBlock3____LayerNorm2____bias__.1: f32[512], params__decoder____EncDecBlock3____LayerNorm2____scale__.1: f32[512], params__decoder____EncDecBlock3____LayerNorm3____bias__.1: f32[512], params__decoder____EncDecBlock3____LayerNorm3____scale__.1: f32[512], params__decoder____EncDecBlock3____MLP____Dense_0____bias__.1: f32[2048], params__decoder____EncDecBlock3____MLP____Dense_0____kernel__.1: f32[512,2048], params__decoder____EncDecBlock3____MLP____Dense_1____bias__.1: f32[512], params__decoder____EncDecBlock3____MLP____Dense_1____kernel__.1: f32[2048,512], params__decoder____EncDecBlock3____SelfAttn____key____kernel__.1: f32[512,8,64], params__decoder____EncDecBlock3____SelfAttn____out____kernel__.1: f32[8,64,512], params__decoder____EncDecBlock3____SelfAttn____query____kernel__.1: f32[512,8,64], params__decoder____EncDecBlock3____SelfAttn____value____kernel__.1: f32[512,8,64], params__decoder____EncDecBlock4____CrossAttn____key____kernel__.1: f32[512,8,64], params__decoder____EncDecBlock4____CrossAttn____out____kernel__.1: f32[8,64,512], params__decoder____EncDecBlock4____CrossAttn____query____kernel__.1: f32[512,8,64], params__decoder____EncDecBlock4____CrossAttn____value____kernel__.1: f32[512,8,64], params__decoder____EncDecBlock4____LayerNorm1____bias__.1: f32[512], params__decoder____EncDecBlock4____LayerNorm1____scale__.1: f32[512], params__decoder____EncDecBlock4____LayerNorm2____bias__.1: f32[512], params__decoder____EncDecBlock4____LayerNorm2____scale__.1: f32[512], params__decoder____EncDecBlock4____LayerNorm3____bias__.1: f32[512], params__decoder____EncDecBlock4____LayerNorm3____scale__.1: f32[512], params__decoder____EncDecBlock4____MLP____Dense_0____bias__.1: f32[2048], params__decoder____EncDecBlock4____MLP____Dense_0____kernel__.1: f32[512,2048], params__decoder____EncDecBlock4____MLP____Dense_1____bias__.1: f32[512], params__decoder____EncDecBlock4____MLP____Dense_1____kernel__.1: f32[2048,512], params__decoder____EncDecBlock4____SelfAttn____key____kernel__.1: f32[512,8,64], params__decoder____EncDecBlock4____SelfAttn____out____kernel__.1: f32[8,64,512], params__decoder____EncDecBlock4____SelfAttn____query____kernel__.1: f32[512,8,64], params__decoder____EncDecBlock4____SelfAttn____value____kernel__.1: f32[512,8,64], params__decoder____EncDecBlock5____CrossAttn____key____kernel__.1: f32[512,8,64], params__decoder____EncDecBlock5____CrossAttn____out____kernel__.1: f32[8,64,512], params__decoder____EncDecBlock5____CrossAttn____query____kernel__.1: f32[512,8,64], params__decoder____EncDecBlock5____CrossAttn____value____kernel__.1: f32[512,8,64], params__decoder____EncDecBlock5____LayerNorm1____bias__.1: f32[512], params__decoder____EncDecBlock5____LayerNorm1____scale__.1: f32[512], params__decoder____EncDecBlock5____LayerNorm2____bias__.1: f32[512], params__decoder____EncDecBlock5____LayerNorm2____scale__.1: f32[512], params__decoder____EncDecBlock5____LayerNorm3____bias__.1: f32[512], params__decoder____EncDecBlock5____LayerNorm3____scale__.1: f32[512], params__decoder____EncDecBlock5____MLP____Dense_0____bias__.1: f32[2048], params__decoder____EncDecBlock5____MLP____Dense_0____kernel__.1: f32[512,2048], params__decoder____EncDecBlock5____MLP____Dense_1____bias__.1: f32[512], params__decoder____EncDecBlock5____MLP____Dense_1____kernel__.1: f32[2048,512], params__decoder____EncDecBlock5____SelfAttn____key____kernel__.1: f32[512,8,64], params__decoder____EncDecBlock5____SelfAttn____out____kernel__.1: f32[8,64,512], params__decoder____EncDecBlock5____SelfAttn____query____kernel__.1: f32[512,8,64], params__decoder____EncDecBlock5____SelfAttn____value____kernel__.1: f32[512,8,64], params__decoder____LayerNorm____bias__.1: f32[512], params__decoder____LayerNorm____scale__.1: f32[512], params__decoder____LogitsDense____bias__.1: f32[32000], params__decoder____LogitsDense____kernel__.1: f32[512,32000], params__encoder____Transformer____encoder_norm____bias__.1: f32[512], params__encoder____Transformer____encoder_norm____scale__.1: f32[512], params__encoder____Transformer____encoderblock_0____LayerNorm_0____bias__.1: f32[512], params__encoder____Transformer____encoderblock_0____LayerNorm_0____scale__.1: f32[512], params__encoder____Transformer____encoderblock_0____LayerNorm_1____bias__.1: f32[512], params__encoder____Transformer____encoderblock_0____LayerNorm_1____scale__.1: f32[512], params__encoder____Transformer____encoderblock_0____MlpBlock_0____Dense_0____bias__.1: f32[2048], params__encoder____Transformer____encoderblock_0____MlpBlock_0____Dense_0____kernel__.1: f32[512,2048], params__encoder____Transformer____encoderblock_0____MlpBlock_0____Dense_1____bias__.1: f32[512], params__encoder____Transformer____encoderblock_0____MlpBlock_0____Dense_1____kernel__.1: f32[2048,512], params__encoder____Transformer____encoderblock_0____MultiHeadDotProductAttention_0____key____bias__.1: f32[8,64], params__encoder____Transformer____encoderblock_0____MultiHeadDotProductAttention_0____key____kernel__.1: f32[512,8,64], params__encoder____Transformer____encoderblock_0____MultiHeadDotProductAttention_0____out____bias__.1: f32[512], params__encoder____Transformer____encoderblock_0____MultiHeadDotProductAttention_0____out____kernel__.1: f32[8,64,512], params__encoder____Transformer____encoderblock_0____MultiHeadDotProductAttention_0____query____bias__.1: f32[8,64], params__encoder____Transformer____encoderblock_0____MultiHeadDotProductAttention_0____query____kernel__.1: f32[512,8,64], params__encoder____Transformer____encoderblock_0____MultiHeadDotProductAttention_0____value____bias__.1: f32[8,64], params__encoder____Transformer____encoderblock_0____MultiHeadDotProductAttention_0____value____kernel__.1: f32[512,8,64], params__encoder____Transformer____encoderblock_1____LayerNorm_0____bias__.1: f32[512], params__encoder____Transformer____encoderblock_1____LayerNorm_0____scale__.1: f32[512], params__encoder____Transformer____encoderblock_1____LayerNorm_1____bias__.1: f32[512], params__encoder____Transformer____encoderblock_1____LayerNorm_1____scale__.1: f32[512], params__encoder____Transformer____encoderblock_1____MlpBlock_0____Dense_0____bias__.1: f32[2048], params__encoder____Transformer____encoderblock_1____MlpBlock_0____Dense_0____kernel__.1: f32[512,2048], params__encoder____Transformer____encoderblock_1____MlpBlock_0____Dense_1____bias__.1: f32[512], params__encoder____Transformer____encoderblock_1____MlpBlock_0____Dense_1____kernel__.1: f32[2048,512], params__encoder____Transformer____encoderblock_1____MultiHeadDotProductAttention_0____key____bias__.1: f32[8,64], params__encoder____Transformer____encoderblock_1____MultiHeadDotProductAttention_0____key____kernel__.1: f32[512,8,64], params__encoder____Transformer____encoderblock_1____MultiHeadDotProductAttention_0____out____bias__.1: f32[512], params__encoder____Transformer____encoderblock_1____MultiHeadDotProductAttention_0____out____kernel__.1: f32[8,64,512], params__encoder____Transformer____encoderblock_1____MultiHeadDotProductAttention_0____query____bias__.1: f32[8,64], params__encoder____Transformer____encoderblock_1____MultiHeadDotProductAttention_0____query____kernel__.1: f32[512,8,64], params__encoder____Transformer____encoderblock_1____MultiHeadDotProductAttention_0____value____bias__.1: f32[8,64], params__encoder____Transformer____encoderblock_1____MultiHeadDotProductAttention_0____value____kernel__.1: f32[512,8,64], params__encoder____Transformer____encoderblock_2____LayerNorm_0____bias__.1: f32[512], params__encoder____Transformer____encoderblock_2____LayerNorm_0____scale__.1: f32[512], params__encoder____Transformer____encoderblock_2____LayerNorm_1____bias__.1: f32[512], params__encoder____Transformer____encoderblock_2____LayerNorm_1____scale__.1: f32[512], params__encoder____Transformer____encoderblock_2____MlpBlock_0____Dense_0____bias__.1: f32[2048], params__encoder____Transformer____encoderblock_2____MlpBlock_0____Dense_0____kernel__.1: f32[512,2048], params__encoder____Transformer____encoderblock_2____MlpBlock_0____Dense_1____bias__.1: f32[512], params__encoder____Transformer____encoderblock_2____MlpBlock_0____Dense_1____kernel__.1: f32[2048,512], params__encoder____Transformer____encoderblock_2____MultiHeadDotProductAttention_0____key____bias__.1: f32[8,64], params__encoder____Transformer____encoderblock_2____MultiHeadDotProductAttention_0____key____kernel__.1: f32[512,8,64], params__encoder____Transformer____encoderblock_2____MultiHeadDotProductAttention_0____out____bias__.1: f32[512], params__encoder____Transformer____encoderblock_2____MultiHeadDotProductAttention_0____out____kernel__.1: f32[8,64,512], params__encoder____Transformer____encoderblock_2____MultiHeadDotProductAttention_0____query____bias__.1: f32[8,64], params__encoder____Transformer____encoderblock_2____MultiHeadDotProductAttention_0____query____kernel__.1: f32[512,8,64], params__encoder____Transformer____encoderblock_2____MultiHeadDotProductAttention_0____value____bias__.1: f32[8,64], params__encoder____Transformer____encoderblock_2____MultiHeadDotProductAttention_0____value____kernel__.1: f32[512,8,64], params__encoder____Transformer____encoderblock_3____LayerNorm_0____bias__.1: f32[512], params__encoder____Transformer____encoderblock_3____LayerNorm_0____scale__.1: f32[512], params__encoder____Transformer____encoderblock_3____LayerNorm_1____bias__.1: f32[512], params__encoder____Transformer____encoderblock_3____LayerNorm_1____scale__.1: f32[512], params__encoder____Transformer____encoderblock_3____MlpBlock_0____Dense_0____bias__.1: f32[2048], params__encoder____Transformer____encoderblock_3____MlpBlock_0____Dense_0____kernel__.1: f32[512,2048], params__encoder____Transformer____encoderblock_3____MlpBlock_0____Dense_1____bias__.1: f32[512], params__encoder____Transformer____encoderblock_3____MlpBlock_0____Dense_1____kernel__.1: f32[2048,512], params__encoder____Transformer____encoderblock_3____MultiHeadDotProductAttention_0____key____bias__.1: f32[8,64], params__encoder____Transformer____encoderblock_3____MultiHeadDotProductAttention_0____key____kernel__.1: f32[512,8,64], params__encoder____Transformer____encoderblock_3____MultiHeadDotProductAttention_0____out____bias__.1: f32[512], params__encoder____Transformer____encoderblock_3____MultiHeadDotProductAttention_0____out____kernel__.1: f32[8,64,512], params__encoder____Transformer____encoderblock_3____MultiHeadDotProductAttention_0____query____bias__.1: f32[8,64], params__encoder____Transformer____encoderblock_3____MultiHeadDotProductAttention_0____query____kernel__.1: f32[512,8,64], params__encoder____Transformer____encoderblock_3____MultiHeadDotProductAttention_0____value____bias__.1: f32[8,64], params__encoder____Transformer____encoderblock_3____MultiHeadDotProductAttention_0____value____kernel__.1: f32[512,8,64], params__encoder____Transformer____encoderblock_4____LayerNorm_0____bias__.1: f32[512], params__encoder____Transformer____encoderblock_4____LayerNorm_0____scale__.1: f32[512], params__encoder____Transformer____encoderblock_4____LayerNorm_1____bias__.1: f32[512], params__encoder____Transformer____encoderblock_4____LayerNorm_1____scale__.1: f32[512], params__encoder____Transformer____encoderblock_4____MlpBlock_0____Dense_0____bias__.1: f32[2048], params__encoder____Transformer____encoderblock_4____MlpBlock_0____Dense_0____kernel__.1: f32[512,2048], params__encoder____Transformer____encoderblock_4____MlpBlock_0____Dense_1____bias__.1: f32[512], params__encoder____Transformer____encoderblock_4____MlpBlock_0____Dense_1____kernel__.1: f32[2048,512], params__encoder____Transformer____encoderblock_4____MultiHeadDotProductAttention_0____key____bias__.1: f32[8,64], params__encoder____Transformer____encoderblock_4____MultiHeadDotProductAttention_0____key____kernel__.1: f32[512,8,64], params__encoder____Transformer____encoderblock_4____MultiHeadDotProductAttention_0____out____bias__.1: f32[512], params__encoder____Transformer____encoderblock_4____MultiHeadDotProductAttention_0____out____kernel__.1: f32[8,64,512], params__encoder____Transformer____encoderblock_4____MultiHeadDotProductAttention_0____query____bias__.1: f32[8,64], params__encoder____Transformer____encoderblock_4____MultiHeadDotProductAttention_0____query____kernel__.1: f32[512,8,64], params__encoder____Transformer____encoderblock_4____MultiHeadDotProductAttention_0____value____bias__.1: f32[8,64], params__encoder____Transformer____encoderblock_4____MultiHeadDotProductAttention_0____value____kernel__.1: f32[512,8,64], params__encoder____Transformer____encoderblock_5____LayerNorm_0____bias__.1: f32[512], params__encoder____Transformer____encoderblock_5____LayerNorm_0____scale__.1: f32[512], params__encoder____Transformer____encoderblock_5____LayerNorm_1____bias__.1: f32[512], params__encoder____Transformer____encoderblock_5____LayerNorm_1____scale__.1: f32[512], params__encoder____Transformer____encoderblock_5____MlpBlock_0____Dense_0____bias__.1: f32[2048], params__encoder____Transformer____encoderblock_5____MlpBlock_0____Dense_0____kernel__.1: f32[512,2048], params__encoder____Transformer____encoderblock_5____MlpBlock_0____Dense_1____bias__.1: f32[512], params__encoder____Transformer____encoderblock_5____MlpBlock_0____Dense_1____kernel__.1: f32[2048,512], params__encoder____Transformer____encoderblock_5____MultiHeadDotProductAttention_0____key____bias__.1: f32[8,64], params__encoder____Transformer____encoderblock_5____MultiHeadDotProductAttention_0____key____kernel__.1: f32[512,8,64], params__encoder____Transformer____encoderblock_5____MultiHeadDotProductAttention_0____out____bias__.1: f32[512], params__encoder____Transformer____encoderblock_5____MultiHeadDotProductAttention_0____out____kernel__.1: f32[8,64,512], params__encoder____Transformer____encoderblock_5____MultiHeadDotProductAttention_0____query____bias__.1: f32[8,64], params__encoder____Transformer____encoderblock_5____MultiHeadDotProductAttention_0____query____kernel__.1: f32[512,8,64], params__encoder____Transformer____encoderblock_5____MultiHeadDotProductAttention_0____value____bias__.1: f32[8,64], params__encoder____Transformer____encoderblock_5____MultiHeadDotProductAttention_0____value____kernel__.1: f32[512,8,64], params__encoder____embedding____bias__.1: f32[512], params__encoder____embedding____kernel__.1: f32[16,16,3,512], params__encoder____pos_embedding__.1: f32[1,196,512], params__pos_embedding_decoder__.1: f32[1,64,512], img.1: f32[8,224,224,3], text.1: s32[8,64]) -> f32[8,64,32000] {
  %img.1 = f32[8,224,224,3]{3,2,1,0} parameter(215), metadata={op_name="img"}
  %params__encoder____embedding____kernel__.1 = f32[16,16,3,512]{3,2,1,0} parameter(212), metadata={op_name="params[\'encoder\'][\'embedding\'][\'kernel\']"}
  %conv_general_dilated.1 = f32[8,14,14,512]{3,2,1,0} convolution(%img.1, %params__encoder____embedding____kernel__.1), window={size=16x16 stride=16x16}, dim_labels=b01f_01io->b01f, metadata={op_name="jit(predict_step)/Model/Model.encode/encoder/embedding/conv_general_dilated" stack_frame_id=59}
  %params__encoder____embedding____bias__.1 = f32[512]{0} parameter(211), metadata={op_name="params[\'encoder\'][\'embedding\'][\'bias\']"}
  %reshape.115 = f32[1,1,1,512]{3,2,1,0} reshape(%params__encoder____embedding____bias__.1), metadata={op_name="jit(predict_step)/Model/Model.encode/encoder/embedding/reshape" stack_frame_id=60}
  %add.426 = f32[1,1,1,512]{3,2,1,0} broadcast(%reshape.115), dimensions={0,1,2,3}, metadata={op_name="jit(predict_step)/Model/Model.encode/encoder/embedding/add" stack_frame_id=61}
  %add.427 = f32[512]{0} reshape(%add.426), metadata={op_name="jit(predict_step)/Model/Model.encode/encoder/embedding/add" stack_frame_id=61}
  %add.428 = f32[8,14,14,512]{3,2,1,0} broadcast(%add.427), dimensions={3}, metadata={op_name="jit(predict_step)/Model/Model.encode/encoder/embedding/add" stack_frame_id=61}
  %add.429 = f32[8,14,14,512]{3,2,1,0} add(%conv_general_dilated.1, %add.428), metadata={op_name="jit(predict_step)/Model/Model.encode/encoder/embedding/add" stack_frame_id=61}
  %reshape.116 = f32[8,196,512]{2,1,0} reshape(%add.429), metadata={op_name="jit(predict_step)/Model/Model.encode/encoder/reshape" stack_frame_id=62}
  %params__encoder____pos_embedding__.1 = f32[1,196,512]{2,1,0} parameter(213), metadata={op_name="params[\'encoder\'][\'pos_embedding\']"}
  %add.430 = f32[1,196,512]{2,1,0} broadcast(%params__encoder____pos_embedding__.1), dimensions={0,1,2}, metadata={op_name="jit(predict_step)/Model/Model.encode/encoder/add" stack_frame_id=63}
  %add.431 = f32[196,512]{1,0} reshape(%add.430), metadata={op_name="jit(predict_step)/Model/Model.encode/encoder/add" stack_frame_id=63}
  %add.432 = f32[8,196,512]{2,1,0} broadcast(%add.431), dimensions={1,2}, metadata={op_name="jit(predict_step)/Model/Model.encode/encoder/add" stack_frame_id=63}
  %add.433 = f32[8,196,512]{2,1,0} add(%reshape.116, %add.432), metadata={op_name="jit(predict_step)/Model/Model.encode/encoder/add" stack_frame_id=63}
  %constant.57 = f32[] constant(0)
  %reduce_sum.574 = f32[8,196]{1,0} reduce(%add.433, %constant.57), dimensions={2}, to_apply=%region_0.1, metadata={op_name="jit(predict_step)/Model/Model.encode/encoder/Transformer/encoderblock_0/LayerNorm_0/reduce_sum" stack_frame_id=11}
  %constant.53 = f32[] constant(512)
  %broadcast.35 = f32[8,196]{1,0} broadcast(%constant.53), dimensions={}
  %div.154 = f32[8,196]{1,0} divide(%reduce_sum.574, %broadcast.35), metadata={op_name="jit(predict_step)/Model/Model.encode/encoder/Transformer/encoderblock_0/LayerNorm_0/div" stack_frame_id=11}
  %broadcast_in_dim.117 = f32[8,196,1]{2,1,0} reshape(%div.154), metadata={op_name="jit(predict_step)/Model/Model.encode/encoder/Transformer/encoderblock_0/LayerNorm_0/broadcast_in_dim" stack_frame_id=65}
  %sub.233 = f32[8,196,1]{2,1,0} broadcast(%broadcast_in_dim.117), dimensions={0,1,2}, metadata={op_name="jit(predict_step)/Model/Model.encode/encoder/Transformer/encoderblock_0/LayerNorm_0/sub" stack_frame_id=66}
  %sub.234 = f32[8,196]{1,0} reshape(%sub.233), metadata={op_name="jit(predict_step)/Model/Model.encode/encoder/Transformer/encoderblock_0/LayerNorm_0/sub" stack_frame_id=66}
  %sub.235 = f32[8,196,512]{2,1,0} broadcast(%sub.234), dimensions={0,1}, metadata={op_name="jit(predict_step)/Model/Model.encode/encoder/Transformer/encoderblock_0/LayerNorm_0/sub" stack_frame_id=66}
  %sub.236 = f32[8,196,512]{2,1,0} subtract(%add.433, %sub.235), metadata={op_name="jit(predict_step)/Model/Model.encode/encoder/Transformer/encoderblock_0/LayerNorm_0/sub" stack_frame_id=66}
  %square.64 = f32[8,196,512]{2,1,0} multiply(%add.433, %add.433), metadata={op_name="jit(predict_step)/Model/Model.encode/encoder/Transformer/encoderblock_0/LayerNorm_0/square" stack_frame_id=68}
  %reduce_sum.575 = f32[8,196]{1,0} reduce(%square.64, %constant.57), dimensions={2}, to_apply=%region_1.2, metadata={op_name="jit(predict_step)/Model/Model.encode/encoder/Transformer/encoderblock_0/LayerNorm_0/reduce_sum" stack_frame_id=11}
  %div.155 = f32[8,196]{1,0} divide(%reduce_sum.575, %broadcast.35), metadata={op_name="jit(predict_step)/Model/Model.encode/encoder/Transformer/encoderblock_0/LayerNorm_0/div" stack_frame_id=11}
  %square.65 = f32[8,196]{1,0} multiply(%div.154, %div.154), metadata={op_name="jit(predict_step)/Model/Model.encode/encoder/Transformer/encoderblock_0/LayerNorm_0/square" stack_frame_id=70}
  %sub.232 = f32[8,196]{1,0} subtract(%div.155, %square.65), metadata={op_name="jit(predict_step)/Model/Model.encode/encoder/Transformer/encoderblock_0/LayerNorm_0/sub" stack_frame_id=71}
  %constant.52 = f32[] constant(0)
  %broadcast.34 = f32[8,196]{1,0} broadcast(%constant.52), dimensions={}
  %max.50 = f32[8,196]{1,0} maximum(%sub.232, %broadcast.34), metadata={op_name="jit(predict_step)/Model/Model.encode/encoder/Transformer/encoderblock_0/LayerNorm_0/max" stack_frame_id=72}
  %broadcast_in_dim.118 = f32[8,196,1]{2,1,0} reshape(%max.50), metadata={op_name="jit(predict_step)/Model/Model.encode/encoder/Transformer/encoderblock_0/LayerNorm_0/broadcast_in_dim" stack_frame_id=73}
  %constant.51 = f32[] constant(1e-06)
  %broadcast.33 = f32[8,196,1]{2,1,0} broadcast(%constant.51), dimensions={}
  %add.434 = f32[8,196,1]{2,1,0} add(%broadcast_in_dim.118, %broadcast.33), metadata={op_name="jit(predict_step)/Model/Model.encode/encoder/Transformer/encoderblock_0/LayerNorm_0/add" stack_frame_id=74}
  %rsqrt.32 = f32[8,196,1]{2,1,0} rsqrt(%add.434), metadata={op_name="jit(predict_step)/Model/Model.encode/encoder/Transformer/encoderblock_0/LayerNorm_0/rsqrt" stack_frame_id=75}
  %mul.304 = f32[8,196,1]{2,1,0} broadcast(%rsqrt.32), dimensions={0,1,2}, metadata={op_name="jit(predict_step)/Model/Model.encode/encoder/Transformer/encoderblock_0/LayerNorm_0/mul" stack_frame_id=76}
  %mul.305 = f32[8,196]{1,0} reshape(%mul.304), metadata={op_name="jit(predict_step)/Model/Model.encode/encoder/Transformer/encoderblock_0/LayerNorm_0/mul" stack_frame_id=76}
  %mul.306 = f32[8,196,512]{2,1,0} broadcast(%mul.305), dimensions={0,1}, metadata={op_name="jit(predict_step)/Model/Model.encode/encoder/Transformer/encoderblock_0/LayerNorm_0/mul" stack_frame_id=76}
  %params__encoder____Transformer____encoderblock_0____LayerNorm_0____scale__.1 = f32[512]{0} parameter(116), metadata={op_name="params[\'encoder\'][\'Transformer\'][\'encoderblock_0\'][\'LayerNorm_0\'][\'scale\']"}
  %reshape.117 = f32[1,1,512]{2,1,0} reshape(%params__encoder____Transformer____encoderblock_0____LayerNorm_0____scale__.1), metadata={op_name="jit(predict_step)/Model/Model.encode/encoder/Transformer/encoderblock_0/LayerNorm_0/reshape" stack_frame_id=77}
  %mul.307 = f32[1,1,512]{2,1,0} broadcast(%reshape.117), dimensions={0,1,2}, metadata={op_name="jit(predict_step)/Model/Model.encode/encoder/Transformer/encoderblock_0/LayerNorm_0/mul" stack_frame_id=76}
  %mul.308 = f32[512]{0} reshape(%mul.307), metadata={op_name="jit(predict_step)/Model/Model.encode/encoder/Transformer/encoderblock_0/LayerNorm_0/mul" stack_frame_id=76}
  %mul.309 = f32[8,196,512]{2,1,0} broadcast(%mul.308), dimensions={2}, metadata={op_name="jit(predict_step)/Model/Model.encode/encoder/Transformer/encoderblock_0/LayerNorm_0/mul" stack_frame_id=76}
  %mul.310 = f32[8,196,512]{2,1,0} multiply(%mul.306, %mul.309), metadata={op_name="jit(predict_step)/Model/Model.encode/encoder/Transformer/encoderblock_0/LayerNorm_0/mul" stack_frame_id=76}
  %mul.311 = f32[8,196,512]{2,1,0} multiply(%sub.236, %mul.310), metadata={op_name="jit(predict_step)/Model/Model.encode/encoder/Transformer/encoderblock_0/LayerNorm_0/mul" stack_frame_id=78}
  %params__encoder____Transformer____encoderblock_0____LayerNorm_0____bias__.1 = f32[512]{0} parameter(115), metadata={op_name="params[\'encoder\'][\'Transformer\'][\'encoderblock_0\'][\'LayerNorm_0\'][\'bias\']"}
  %reshape.118 = f32[1,1,512]{2,1,0} reshape(%params__encoder____Transformer____encoderblock_0____LayerNorm_0____bias__.1), metadata={op_name="jit(predict_step)/Model/Model.encode/encoder/Transformer/encoderblock_0/LayerNorm_0/reshape" stack_frame_id=79}
  %add.435 = f32[1,1,512]{2,1,0} broadcast(%reshape.118), dimensions={0,1,2}, metadata={op_name="jit(predict_step)/Model/Model.encode/encoder/Transformer/encoderblock_0/LayerNorm_0/add" stack_frame_id=80}
  %add.436 = f32[512]{0} reshape(%add.435), metadata={op_name="jit(predict_step)/Model/Model.encode/encoder/Transformer/encoderblock_0/LayerNorm_0/add" stack_frame_id=80}
  %add.437 = f32[8,196,512]{2,1,0} broadcast(%add.436), dimensions={2}, metadata={op_name="jit(predict_step)/Model/Model.encode/encoder/Transformer/encoderblock_0/LayerNorm_0/add" stack_frame_id=80}
  %add.438 = f32[8,196,512]{2,1,0} add(%mul.311, %add.437), metadata={op_name="jit(predict_step)/Model/Model.encode/encoder/Transformer/encoderblock_0/LayerNorm_0/add" stack_frame_id=80}
  %params__encoder____Transformer____encoderblock_0____MultiHeadDotProductAttention_0____value____kernel__.1 = f32[512,8,64]{2,1,0} parameter(130), metadata={op_name="params[\'encoder\'][\'Transformer\'][\'encoderblock_0\'][\'MultiHeadDotProductAttention_0\'][\'value\'][\'kernel\']"}
  %dot_general.135 = f32[8,196,8,64]{3,2,1,0} dot(%add.438, %params__encoder____Transformer____encoderblock_0____MultiHeadDotProductAttention_0____value____kernel__.1), lhs_contracting_dims={2}, rhs_contracting_dims={0}, metadata={op_name="jit(predict_step)/Model/Model.encode/encoder/Transformer/encoderblock_0/MultiHeadDotProductAttention_0/value/dot_general" stack_frame_id=82}
  %params__encoder____Transformer____encoderblock_0____MultiHeadDotProductAttention_0____value____bias__.1 = f32[8,64]{1,0} parameter(129), metadata={op_name="params[\'encoder\'][\'Transformer\'][\'encoderblock_0\'][\'MultiHeadDotProductAttention_0\'][\'value\'][\'bias\']"}
  %reshape.121 = f32[1,1,8,64]{3,2,1,0} reshape(%params__encoder____Transformer____encoderblock_0____MultiHeadDotProductAttention_0____value____bias__.1), metadata={op_name="jit(predict_step)/Model/Model.encode/encoder/Transformer/encoderblock_0/MultiHeadDotProductAttention_0/value/reshape" stack_frame_id=83}
  %add.447 = f32[1,1,8,64]{3,2,1,0} broadcast(%reshape.121), dimensions={0,1,2,3}, metadata={op_name="jit(predict_step)/Model/Model.encode/encoder/Transformer/encoderblock_0/MultiHeadDotProductAttention_0/value/add" stack_frame_id=84}
  %add.448 = f32[8,64]{1,0} reshape(%add.447), metadata={op_name="jit(predict_step)/Model/Model.encode/encoder/Transformer/encoderblock_0/MultiHeadDotProductAttention_0/value/add" stack_frame_id=84}
  %add.449 = f32[8,196,8,64]{3,2,1,0} broadcast(%add.448), dimensions={2,3}, metadata={op_name="jit(predict_step)/Model/Model.encode/encoder/Transformer/encoderblock_0/MultiHeadDotProductAttention_0/value/add" stack_frame_id=84}
  %add.450 = f32[8,196,8,64]{3,2,1,0} add(%dot_general.135, %add.449), metadata={op_name="jit(predict_step)/Model/Model.encode/encoder/Transformer/encoderblock_0/MultiHeadDotProductAttention_0/value/add" stack_frame_id=84}
  %params__encoder____Transformer____encoderblock_0____MultiHeadDotProductAttention_0____query____kernel__.1 = f32[512,8,64]{2,1,0} parameter(128), metadata={op_name="params[\'encoder\'][\'Transformer\'][\'encoderblock_0\'][\'MultiHeadDotProductAttention_0\'][\'query\'][\'kernel\']"}
  %dot_general.133 = f32[8,196,8,64]{3,2,1,0} dot(%add.438, %params__encoder____Transformer____encoderblock_0____MultiHeadDotProductAttention_0____query____kernel__.1), lhs_contracting_dims={2}, rhs_contracting_dims={0}, metadata={op_name="jit(predict_step)/Model/Model.encode/encoder/Transformer/encoderblock_0/MultiHeadDotProductAttention_0/query/dot_general" stack_frame_id=86}
  %params__encoder____Transformer____encoderblock_0____MultiHeadDotProductAttention_0____query____bias__.1 = f32[8,64]{1,0} parameter(127), metadata={op_name="params[\'encoder\'][\'Transformer\'][\'encoderblock_0\'][\'MultiHeadDotProductAttention_0\'][\'query\'][\'bias\']"}
  %reshape.119 = f32[1,1,8,64]{3,2,1,0} reshape(%params__encoder____Transformer____encoderblock_0____MultiHeadDotProductAttention_0____query____bias__.1), metadata={op_name="jit(predict_step)/Model/Model.encode/encoder/Transformer/encoderblock_0/MultiHeadDotProductAttention_0/query/reshape" stack_frame_id=87}
  %add.439 = f32[1,1,8,64]{3,2,1,0} broadcast(%reshape.119), dimensions={0,1,2,3}, metadata={op_name="jit(predict_step)/Model/Model.encode/encoder/Transformer/encoderblock_0/MultiHeadDotProductAttention_0/query/add" stack_frame_id=88}
  %add.440 = f32[8,64]{1,0} reshape(%add.439), metadata={op_name="jit(predict_step)/Model/Model.encode/encoder/Transformer/encoderblock_0/MultiHeadDotProductAttention_0/query/add" stack_frame_id=88}
  %add.441 = f32[8,196,8,64]{3,2,1,0} broadcast(%add.440), dimensions={2,3}, metadata={op_name="jit(predict_step)/Model/Model.encode/encoder/Transformer/encoderblock_0/MultiHeadDotProductAttention_0/query/add" stack_frame_id=88}
  %add.442 = f32[8,196,8,64]{3,2,1,0} add(%dot_general.133, %add.441), metadata={op_name="jit(predict_step)/Model/Model.encode/encoder/Transformer/encoderblock_0/MultiHeadDotProductAttention_0/query/add" stack_frame_id=88}
  %constant.50 = f32[] constant(8)
  %broadcast.32 = f32[8,196,8,64]{3,2,1,0} broadcast(%constant.50), dimensions={}
  %div.156 = f32[8,196,8,64]{3,2,1,0} divide(%add.442, %broadcast.32), metadata={op_name="jit(predict_step)/Model/Model.encode/encoder/Transformer/encoderblock_0/MultiHeadDotProductAttention_0/div" stack_frame_id=89}
  %params__encoder____Transformer____encoderblock_0____MultiHeadDotProductAttention_0____key____kernel__.1 = f32[512,8,64]{2,1,0} parameter(124), metadata={op_name="params[\'encoder\'][\'Transformer\'][\'encoderblock_0\'][\'MultiHeadDotProductAttention_0\'][\'key\'][\'kernel\']"}
  %dot_general.134 = f32[8,196,8,64]{3,2,1,0} dot(%add.438, %params__encoder____Transformer____encoderblock_0____MultiHeadDotProductAttention_0____key____kernel__.1), lhs_contracting_dims={2}, rhs_contracting_dims={0}, metadata={op_name="jit(predict_step)/Model/Model.encode/encoder/Transformer/encoderblock_0/MultiHeadDotProductAttention_0/key/dot_general" stack_frame_id=91}
  %params__encoder____Transformer____encoderblock_0____MultiHeadDotProductAttention_0____key____bias__.1 = f32[8,64]{1,0} parameter(123), metadata={op_name="params[\'encoder\'][\'Transformer\'][\'encoderblock_0\'][\'MultiHeadDotProductAttention_0\'][\'key\'][\'bias\']"}
  %reshape.120 = f32[1,1,8,64]{3,2,1,0} reshape(%params__encoder____Transformer____encoderblock_0____MultiHeadDotProductAttention_0____key____bias__.1), metadata={op_name="jit(predict_step)/Model/Model.encode/encoder/Transformer/encoderblock_0/MultiHeadDotProductAttention_0/key/reshape" stack_frame_id=92}
  %add.443 = f32[1,1,8,64]{3,2,1,0} broadcast(%reshape.120), dimensions={0,1,2,3}, metadata={op_name="jit(predict_step)/Model/Model.encode/encoder/Transformer/encoderblock_0/MultiHeadDotProductAttention_0/key/add" stack_frame_id=93}
  %add.444 = f32[8,64]{1,0} reshape(%add.443), metadata={op_name="jit(predict_step)/Model/Model.encode/encoder/Transformer/encoderblock_0/MultiHeadDotProductAttention_0/key/add" stack_frame_id=93}
  %add.445 = f32[8,196,8,64]{3,2,1,0} broadcast(%add.444), dimensions={2,3}, metadata={op_name="jit(predict_step)/Model/Model.encode/encoder/Transformer/encoderblock_0/MultiHeadDotProductAttention_0/key/add" stack_frame_id=93}
  %add.446 = f32[8,196,8,64]{3,2,1,0} add(%dot_general.134, %add.445), metadata={op_name="jit(predict_step)/Model/Model.encode/encoder/Transformer/encoderblock_0/MultiHeadDotProductAttention_0/key/add" stack_frame_id=93}
  %dot_general.136 = f32[8,8,196,196]{3,2,1,0} dot(%div.156, %add.446), lhs_batch_dims={0,2}, lhs_contracting_dims={3}, rhs_batch_dims={0,2}, rhs_contracting_dims={3}, metadata={op_name="jit(predict_step)/Model/Model.encode/encoder/Transformer/encoderblock_0/MultiHeadDotProductAttention_0/...qhd,...khd->...hqk/dot_general" stack_frame_id=94}
  %constant.56 = f32[] constant(-inf)
  %reduce_max.126 = f32[8,8,196]{2,1,0} reduce(%dot_general.136, %constant.56), dimensions={3}, to_apply=%region_2.3, metadata={op_name="jit(predict_step)/Model/Model.encode/encoder/Transformer/encoderblock_0/MultiHeadDotProductAttention_0/reduce_max" stack_frame_id=15}
  %constant.49 = f32[] constant(-inf)
  %broadcast.31 = f32[8,8,196]{2,1,0} broadcast(%constant.49), dimensions={}
  %max.51 = f32[8,8,196]{2,1,0} maximum(%reduce_max.126, %broadcast.31), metadata={op_name="jit(predict_step)/Model/Model.encode/encoder/Transformer/encoderblock_0/MultiHeadDotProductAttention_0/max" stack_frame_id=15}
  %broadcast_in_dim.119 = f32[8,8,196,1]{3,2,1,0} reshape(%max.51), metadata={op_name="jit(predict_step)/Model/Model.encode/encoder/Transformer/encoderblock_0/MultiHeadDotProductAttention_0/broadcast_in_dim" stack_frame_id=15}
  %sub.237 = f32[8,8,196,1]{3,2,1,0} broadcast(%broadcast_in_dim.119), dimensions={0,1,2,3}, metadata={op_name="jit(predict_step)/Model/Model.encode/encoder/Transformer/encoderblock_0/MultiHeadDotProductAttention_0/sub" stack_frame_id=15}
  %sub.238 = f32[8,8,196]{2,1,0} reshape(%sub.237), metadata={op_name="jit(predict_step)/Model/Model.encode/encoder/Transformer/encoderblock_0/MultiHeadDotProductAttention_0/sub" stack_frame_id=15}
  %sub.239 = f32[8,8,196,196]{3,2,1,0} broadcast(%sub.238), dimensions={0,1,2}, metadata={op_name="jit(predict_step)/Model/Model.encode/encoder/Transformer/encoderblock_0/MultiHeadDotProductAttention_0/sub" stack_frame_id=15}
  %sub.240 = f32[8,8,196,196]{3,2,1,0} subtract(%dot_general.136, %sub.239), metadata={op_name="jit(predict_step)/Model/Model.encode/encoder/Transformer/encoderblock_0/MultiHeadDotProductAttention_0/sub" stack_frame_id=15}
  %exp.18 = f32[8,8,196,196]{3,2,1,0} exponential(%sub.240), metadata={op_name="jit(predict_step)/Model/Model.encode/encoder/Transformer/encoderblock_0/MultiHeadDotProductAttention_0/exp" stack_frame_id=15}
  %reduce_sum.576 = f32[8,8,196]{2,1,0} reduce(%exp.18, %constant.57), dimensions={3}, to_apply=%region_3.4, metadata={op_name="jit(predict_step)/Model/Model.encode/encoder/Transformer/encoderblock_0/MultiHeadDotProductAttention_0/reduce_sum" stack_frame_id=15}
  %broadcast_in_dim.120 = f32[8,8,196,1]{3,2,1,0} reshape(%reduce_sum.576), metadata={op_name="jit(predict_step)/Model/Model.encode/encoder/Transformer/encoderblock_0/MultiHeadDotProductAttention_0/broadcast_in_dim" stack_frame_id=15}
  %div.157 = f32[8,8,196,1]{3,2,1,0} broadcast(%broadcast_in_dim.120), dimensions={0,1,2,3}, metadata={op_name="jit(predict_step)/Model/Model.encode/encoder/Transformer/encoderblock_0/MultiHeadDotProductAttention_0/div" stack_frame_id=15}
  %div.158 = f32[8,8,196]{2,1,0} reshape(%div.157), metadata={op_name="jit(predict_step)/Model/Model.encode/encoder/Transformer/encoderblock_0/MultiHeadDotProductAttention_0/div" stack_frame_id=15}
  %div.159 = f32[8,8,196,196]{3,2,1,0} broadcast(%div.158), dimensions={0,1,2}, metadata={op_name="jit(predict_step)/Model/Model.encode/encoder/Transformer/encoderblock_0/MultiHeadDotProductAttention_0/div" stack_frame_id=15}
  %div.160 = f32[8,8,196,196]{3,2,1,0} divide(%exp.18, %div.159), metadata={op_name="jit(predict_step)/Model/Model.encode/encoder/Transformer/encoderblock_0/MultiHeadDotProductAttention_0/div" stack_frame_id=15}
  %dot_general.137 = f32[8,8,64,196]{3,2,1,0} dot(%add.450, %div.160), lhs_batch_dims={0,2}, lhs_contracting_dims={1}, rhs_batch_dims={0,1}, rhs_contracting_dims={3}, metadata={op_name="jit(predict_step)/Model/Model.encode/encoder/Transformer/encoderblock_0/MultiHeadDotProductAttention_0/...hqk,...khd->...qhd/dot_general" stack_frame_id=95}
  %transpose.18 = f32[8,196,8,64]{1,3,2,0} transpose(%dot_general.137), dimensions={0,3,1,2}, metadata={op_name="jit(predict_step)/Model/Model.encode/encoder/Transformer/encoderblock_0/MultiHeadDotProductAttention_0/...hqk,...khd->...qhd/transpose" stack_frame_id=95}
  %params__encoder____Transformer____encoderblock_0____MultiHeadDotProductAttention_0____out____kernel__.1 = f32[8,64,512]{2,1,0} parameter(126), metadata={op_name="params[\'encoder\'][\'Transformer\'][\'encoderblock_0\'][\'MultiHeadDotProductAttention_0\'][\'out\'][\'kernel\']"}
  %dot_general.138 = f32[8,196,512]{2,1,0} dot(%transpose.18, %params__encoder____Transformer____encoderblock_0____MultiHeadDotProductAttention_0____out____kernel__.1), lhs_contracting_dims={2,3}, rhs_contracting_dims={0,1}, metadata={op_name="jit(predict_step)/Model/Model.encode/encoder/Transformer/encoderblock_0/MultiHeadDotProductAttention_0/out/dot_general" stack_frame_id=97}
  %params__encoder____Transformer____encoderblock_0____MultiHeadDotProductAttention_0____out____bias__.1 = f32[512]{0} parameter(125), metadata={op_name="params[\'encoder\'][\'Transformer\'][\'encoderblock_0\'][\'MultiHeadDotProductAttention_0\'][\'out\'][\'bias\']"}
  %reshape.122 = f32[1,1,512]{2,1,0} reshape(%params__encoder____Transformer____encoderblock_0____MultiHeadDotProductAttention_0____out____bias__.1), metadata={op_name="jit(predict_step)/Model/Model.encode/encoder/Transformer/encoderblock_0/MultiHeadDotProductAttention_0/out/reshape" stack_frame_id=98}
  %add.451 = f32[1,1,512]{2,1,0} broadcast(%reshape.122), dimensions={0,1,2}, metadata={op_name="jit(predict_step)/Model/Model.encode/encoder/Transformer/encoderblock_0/MultiHeadDotProductAttention_0/out/add" stack_frame_id=99}
  %add.452 = f32[512]{0} reshape(%add.451), metadata={op_name="jit(predict_step)/Model/Model.encode/encoder/Transformer/encoderblock_0/MultiHeadDotProductAttention_0/out/add" stack_frame_id=99}
  %add.453 = f32[8,196,512]{2,1,0} broadcast(%add.452), dimensions={2}, metadata={op_name="jit(predict_step)/Model/Model.encode/encoder/Transformer/encoderblock_0/MultiHeadDotProductAttention_0/out/add" stack_frame_id=99}
  %add.454 = f32[8,196,512]{2,1,0} add(%dot_general.138, %add.453), metadata={op_name="jit(predict_step)/Model/Model.encode/encoder/Transformer/encoderblock_0/MultiHeadDotProductAttention_0/out/add" stack_frame_id=99}
  %add.455 = f32[8,196,512]{2,1,0} add(%add.433, %add.454), metadata={op_name="jit(predict_step)/Model/Model.encode/encoder/Transformer/encoderblock_0/add" stack_frame_id=100}
  %reduce_sum.577 = f32[8,196]{1,0} reduce(%add.455, %constant.57), dimensions={2}, to_apply=%region_4.5, metadata={op_name="jit(predict_step)/Model/Model.encode/encoder/Transformer/encoderblock_0/LayerNorm_1/reduce_sum" stack_frame_id=20}
  %div.161 = f32[8,196]{1,0} divide(%reduce_sum.577, %broadcast.35), metadata={op_name="jit(predict_step)/Model/Model.encode/encoder/Transformer/encoderblock_0/LayerNorm_1/div" stack_frame_id=20}
  %broadcast_in_dim.121 = f32[8,196,1]{2,1,0} reshape(%div.161), metadata={op_name="jit(predict_step)/Model/Model.encode/encoder/Transformer/encoderblock_0/LayerNorm_1/broadcast_in_dim" stack_frame_id=102}
  %sub.242 = f32[8,196,1]{2,1,0} broadcast(%broadcast_in_dim.121), dimensions={0,1,2}, metadata={op_name="jit(predict_step)/Model/Model.encode/encoder/Transformer/encoderblock_0/LayerNorm_1/sub" stack_frame_id=103}
  %sub.243 = f32[8,196]{1,0} reshape(%sub.242), metadata={op_name="jit(predict_step)/Model/Model.encode/encoder/Transformer/encoderblock_0/LayerNorm_1/sub" stack_frame_id=103}
  %sub.244 = f32[8,196,512]{2,1,0} broadcast(%sub.243), dimensions={0,1}, metadata={op_name="jit(predict_step)/Model/Model.encode/encoder/Transformer/encoderblock_0/LayerNorm_1/sub" stack_frame_id=103}
  %sub.245 = f32[8,196,512]{2,1,0} subtract(%add.455, %sub.244), metadata={op_name="jit(predict_step)/Model/Model.encode/encoder/Transformer/encoderblock_0/LayerNorm_1/sub" stack_frame_id=103}
  %square.66 = f32[8,196,512]{2,1,0} multiply(%add.455, %add.455), metadata={op_name="jit(predict_step)/Model/Model.encode/encoder/Transformer/encoderblock_0/LayerNorm_1/square" stack_frame_id=105}
  %reduce_sum.578 = f32[8,196]{1,0} reduce(%square.66, %constant.57), dimensions={2}, to_apply=%region_5.6, metadata={op_name="jit(predict_step)/Model/Model.encode/encoder/Transformer/encoderblock_0/LayerNorm_1/reduce_sum" stack_frame_id=20}
  %div.162 = f32[8,196]{1,0} divide(%reduce_sum.578, %broadcast.35), metadata={op_name="jit(predict_step)/Model/Model.encode/encoder/Transformer/encoderblock_0/LayerNorm_1/div" stack_frame_id=20}
  %square.67 = f32[8,196]{1,0} multiply(%div.161, %div.161), metadata={op_name="jit(predict_step)/Model/Model.encode/encoder/Transformer/encoderblock_0/LayerNorm_1/square" stack_frame_id=107}
  %sub.241 = f32[8,196]{1,0} subtract(%div.162, %square.67), metadata={op_name="jit(predict_step)/Model/Model.encode/encoder/Transformer/encoderblock_0/LayerNorm_1/sub" stack_frame_id=108}
  %max.52 = f32[8,196]{1,0} maximum(%sub.241, %broadcast.34), metadata={op_name="jit(predict_step)/Model/Model.encode/encoder/Transformer/encoderblock_0/LayerNorm_1/max" stack_frame_id=109}
  %broadcast_in_dim.122 = f32[8,196,1]{2,1,0} reshape(%max.52), metadata={op_name="jit(predict_step)/Model/Model.encode/encoder/Transformer/encoderblock_0/LayerNorm_1/broadcast_in_dim" stack_frame_id=110}
  %add.456 = f32[8,196,1]{2,1,0} add(%broadcast_in_dim.122, %broadcast.33), metadata={op_name="jit(predict_step)/Model/Model.encode/encoder/Transformer/encoderblock_0/LayerNorm_1/add" stack_frame_id=111}
  %rsqrt.33 = f32[8,196,1]{2,1,0} rsqrt(%add.456), metadata={op_name="jit(predict_step)/Model/Model.encode/encoder/Transformer/encoderblock_0/LayerNorm_1/rsqrt" stack_frame_id=112}
  %mul.312 = f32[8,196,1]{2,1,0} broadcast(%rsqrt.33), dimensions={0,1,2}, metadata={op_name="jit(predict_step)/Model/Model.encode/encoder/Transformer/encoderblock_0/LayerNorm_1/mul" stack_frame_id=113}
  %mul.313 = f32[8,196]{1,0} reshape(%mul.312), metadata={op_name="jit(predict_step)/Model/Model.encode/encoder/Transformer/encoderblock_0/LayerNorm_1/mul" stack_frame_id=113}
  %mul.314 = f32[8,196,512]{2,1,0} broadcast(%mul.313), dimensions={0,1}, metadata={op_name="jit(predict_step)/Model/Model.encode/encoder/Transformer/encoderblock_0/LayerNorm_1/mul" stack_frame_id=113}
  %params__encoder____Transformer____encoderblock_0____LayerNorm_1____scale__.1 = f32[512]{0} parameter(118), metadata={op_name="params[\'encoder\'][\'Transformer\'][\'encoderblock_0\'][\'LayerNorm_1\'][\'scale\']"}
  %reshape.123 = f32[1,1,512]{2,1,0} reshape(%params__encoder____Transformer____encoderblock_0____LayerNorm_1____scale__.1), metadata={op_name="jit(predict_step)/Model/Model.encode/encoder/Transformer/encoderblock_0/LayerNorm_1/reshape" stack_frame_id=114}
  %mul.315 = f32[1,1,512]{2,1,0} broadcast(%reshape.123), dimensions={0,1,2}, metadata={op_name="jit(predict_step)/Model/Model.encode/encoder/Transformer/encoderblock_0/LayerNorm_1/mul" stack_frame_id=113}
  %mul.316 = f32[512]{0} reshape(%mul.315), metadata={op_name="jit(predict_step)/Model/Model.encode/encoder/Transformer/encoderblock_0/LayerNorm_1/mul" stack_frame_id=113}
  %mul.317 = f32[8,196,512]{2,1,0} broadcast(%mul.316), dimensions={2}, metadata={op_name="jit(predict_step)/Model/Model.encode/encoder/Transformer/encoderblock_0/LayerNorm_1/mul" stack_frame_id=113}
  %mul.318 = f32[8,196,512]{2,1,0} multiply(%mul.314, %mul.317), metadata={op_name="jit(predict_step)/Model/Model.encode/encoder/Transformer/encoderblock_0/LayerNorm_1/mul" stack_frame_id=113}
  %mul.319 = f32[8,196,512]{2,1,0} multiply(%sub.245, %mul.318), metadata={op_name="jit(predict_step)/Model/Model.encode/encoder/Transformer/encoderblock_0/LayerNorm_1/mul" stack_frame_id=115}
  %params__encoder____Transformer____encoderblock_0____LayerNorm_1____bias__.1 = f32[512]{0} parameter(117), metadata={op_name="params[\'encoder\'][\'Transformer\'][\'encoderblock_0\'][\'LayerNorm_1\'][\'bias\']"}
  %reshape.124 = f32[1,1,512]{2,1,0} reshape(%params__encoder____Transformer____encoderblock_0____LayerNorm_1____bias__.1), metadata={op_name="jit(predict_step)/Model/Model.encode/encoder/Transformer/encoderblock_0/LayerNorm_1/reshape" stack_frame_id=116}
  %add.457 = f32[1,1,512]{2,1,0} broadcast(%reshape.124), dimensions={0,1,2}, metadata={op_name="jit(predict_step)/Model/Model.encode/encoder/Transformer/encoderblock_0/LayerNorm_1/add" stack_frame_id=117}
  %add.458 = f32[512]{0} reshape(%add.457), metadata={op_name="jit(predict_step)/Model/Model.encode/encoder/Transformer/encoderblock_0/LayerNorm_1/add" stack_frame_id=117}
  %add.459 = f32[8,196,512]{2,1,0} broadcast(%add.458), dimensions={2}, metadata={op_name="jit(predict_step)/Model/Model.encode/encoder/Transformer/encoderblock_0/LayerNorm_1/add" stack_frame_id=117}
  %add.460 = f32[8,196,512]{2,1,0} add(%mul.319, %add.459), metadata={op_name="jit(predict_step)/Model/Model.encode/encoder/Transformer/encoderblock_0/LayerNorm_1/add" stack_frame_id=117}
  %params__encoder____Transformer____encoderblock_0____MlpBlock_0____Dense_0____kernel__.1 = f32[512,2048]{1,0} parameter(120), metadata={op_name="params[\'encoder\'][\'Transformer\'][\'encoderblock_0\'][\'MlpBlock_0\'][\'Dense_0\'][\'kernel\']"}
  %dot_general.139 = f32[8,196,2048]{2,1,0} dot(%add.460, %params__encoder____Transformer____encoderblock_0____MlpBlock_0____Dense_0____kernel__.1), lhs_contracting_dims={2}, rhs_contracting_dims={0}, metadata={op_name="jit(predict_step)/Model/Model.encode/encoder/Transformer/encoderblock_0/MlpBlock_0/Dense_0/dot_general" stack_frame_id=120}
  %params__encoder____Transformer____encoderblock_0____MlpBlock_0____Dense_0____bias__.1 = f32[2048]{0} parameter(119), metadata={op_name="params[\'encoder\'][\'Transformer\'][\'encoderblock_0\'][\'MlpBlock_0\'][\'Dense_0\'][\'bias\']"}
  %reshape.125 = f32[1,1,2048]{2,1,0} reshape(%params__encoder____Transformer____encoderblock_0____MlpBlock_0____Dense_0____bias__.1), metadata={op_name="jit(predict_step)/Model/Model.encode/encoder/Transformer/encoderblock_0/MlpBlock_0/Dense_0/reshape" stack_frame_id=121}
  %add.461 = f32[1,1,2048]{2,1,0} broadcast(%reshape.125), dimensions={0,1,2}, metadata={op_name="jit(predict_step)/Model/Model.encode/encoder/Transformer/encoderblock_0/MlpBlock_0/Dense_0/add" stack_frame_id=122}
  %add.462 = f32[2048]{0} reshape(%add.461), metadata={op_name="jit(predict_step)/Model/Model.encode/encoder/Transformer/encoderblock_0/MlpBlock_0/Dense_0/add" stack_frame_id=122}
  %add.463 = f32[8,196,2048]{2,1,0} broadcast(%add.462), dimensions={2}, metadata={op_name="jit(predict_step)/Model/Model.encode/encoder/Transformer/encoderblock_0/MlpBlock_0/Dense_0/add" stack_frame_id=122}
  %add.464 = f32[8,196,2048]{2,1,0} add(%dot_general.139, %add.463), metadata={op_name="jit(predict_step)/Model/Model.encode/encoder/Transformer/encoderblock_0/MlpBlock_0/Dense_0/add" stack_frame_id=122}
  %integer_pow.24 = f32[8,196,2048]{2,1,0} multiply(%add.464, %add.464), metadata={op_name="jit(predict_step)/Model/Model.encode/encoder/Transformer/encoderblock_0/MlpBlock_0/integer_pow" stack_frame_id=123}
  %integer_pow.25 = f32[8,196,2048]{2,1,0} multiply(%integer_pow.24, %add.464), metadata={op_name="jit(predict_step)/Model/Model.encode/encoder/Transformer/encoderblock_0/MlpBlock_0/integer_pow" stack_frame_id=123}
  %constant.48 = f32[] constant(0.044715)
  %broadcast.30 = f32[8,196,2048]{2,1,0} broadcast(%constant.48), dimensions={}
  %mul.320 = f32[8,196,2048]{2,1,0} multiply(%integer_pow.25, %broadcast.30), metadata={op_name="jit(predict_step)/Model/Model.encode/encoder/Transformer/encoderblock_0/MlpBlock_0/mul" stack_frame_id=123}
  %add.465 = f32[8,196,2048]{2,1,0} add(%add.464, %mul.320), metadata={op_name="jit(predict_step)/Model/Model.encode/encoder/Transformer/encoderblock_0/MlpBlock_0/add" stack_frame_id=123}
  %constant.47 = f32[] constant(0.797884583)
  %broadcast.29 = f32[8,196,2048]{2,1,0} broadcast(%constant.47), dimensions={}
  %mul.321 = f32[8,196,2048]{2,1,0} multiply(%add.465, %broadcast.29), metadata={op_name="jit(predict_step)/Model/Model.encode/encoder/Transformer/encoderblock_0/MlpBlock_0/mul" stack_frame_id=123}
  %tanh.12 = f32[8,196,2048]{2,1,0} tanh(%mul.321), metadata={op_name="jit(predict_step)/Model/Model.encode/encoder/Transformer/encoderblock_0/MlpBlock_0/tanh" stack_frame_id=123}
  %constant.46 = f32[] constant(1)
  %broadcast.28 = f32[8,196,2048]{2,1,0} broadcast(%constant.46), dimensions={}
  %add.466 = f32[8,196,2048]{2,1,0} add(%tanh.12, %broadcast.28), metadata={op_name="jit(predict_step)/Model/Model.encode/encoder/Transformer/encoderblock_0/MlpBlock_0/add" stack_frame_id=123}
  %constant.45 = f32[] constant(0.5)
  %broadcast.27 = f32[8,196,2048]{2,1,0} broadcast(%constant.45), dimensions={}
  %mul.322 = f32[8,196,2048]{2,1,0} multiply(%add.466, %broadcast.27), metadata={op_name="jit(predict_step)/Model/Model.encode/encoder/Transformer/encoderblock_0/MlpBlock_0/mul" stack_frame_id=123}
  %mul.323 = f32[8,196,2048]{2,1,0} multiply(%add.464, %mul.322), metadata={op_name="jit(predict_step)/Model/Model.encode/encoder/Transformer/encoderblock_0/MlpBlock_0/mul" stack_frame_id=123}
  %params__encoder____Transformer____encoderblock_0____MlpBlock_0____Dense_1____kernel__.1 = f32[2048,512]{1,0} parameter(122), metadata={op_name="params[\'encoder\'][\'Transformer\'][\'encoderblock_0\'][\'MlpBlock_0\'][\'Dense_1\'][\'kernel\']"}
  %dot_general.140 = f32[8,196,512]{2,1,0} dot(%mul.323, %params__encoder____Transformer____encoderblock_0____MlpBlock_0____Dense_1____kernel__.1), lhs_contracting_dims={2}, rhs_contracting_dims={0}, metadata={op_name="jit(predict_step)/Model/Model.encode/encoder/Transformer/encoderblock_0/MlpBlock_0/Dense_1/dot_general" stack_frame_id=125}
  %params__encoder____Transformer____encoderblock_0____MlpBlock_0____Dense_1____bias__.1 = f32[512]{0} parameter(121), metadata={op_name="params[\'encoder\'][\'Transformer\'][\'encoderblock_0\'][\'MlpBlock_0\'][\'Dense_1\'][\'bias\']"}
  %reshape.126 = f32[1,1,512]{2,1,0} reshape(%params__encoder____Transformer____encoderblock_0____MlpBlock_0____Dense_1____bias__.1), metadata={op_name="jit(predict_step)/Model/Model.encode/encoder/Transformer/encoderblock_0/MlpBlock_0/Dense_1/reshape" stack_frame_id=126}
  %add.467 = f32[1,1,512]{2,1,0} broadcast(%reshape.126), dimensions={0,1,2}, metadata={op_name="jit(predict_step)/Model/Model.encode/encoder/Transformer/encoderblock_0/MlpBlock_0/Dense_1/add" stack_frame_id=127}
  %add.468 = f32[512]{0} reshape(%add.467), metadata={op_name="jit(predict_step)/Model/Model.encode/encoder/Transformer/encoderblock_0/MlpBlock_0/Dense_1/add" stack_frame_id=127}
  %add.469 = f32[8,196,512]{2,1,0} broadcast(%add.468), dimensions={2}, metadata={op_name="jit(predict_step)/Model/Model.encode/encoder/Transformer/encoderblock_0/MlpBlock_0/Dense_1/add" stack_frame_id=127}
  %add.470 = f32[8,196,512]{2,1,0} add(%dot_general.140, %add.469), metadata={op_name="jit(predict_step)/Model/Model.encode/encoder/Transformer/encoderblock_0/MlpBlock_0/Dense_1/add" stack_frame_id=127}
  %add.471 = f32[8,196,512]{2,1,0} add(%add.455, %add.470), metadata={op_name="jit(predict_step)/Model/Model.encode/encoder/Transformer/encoderblock_0/add" stack_frame_id=128}
  %reduce_sum.579 = f32[8,196]{1,0} reduce(%add.471, %constant.57), dimensions={2}, to_apply=%region_6.7, metadata={op_name="jit(predict_step)/Model/Model.encode/encoder/Transformer/encoderblock_1/LayerNorm_0/reduce_sum" stack_frame_id=11}
  %div.163 = f32[8,196]{1,0} divide(%reduce_sum.579, %broadcast.35), metadata={op_name="jit(predict_step)/Model/Model.encode/encoder/Transformer/encoderblock_1/LayerNorm_0/div" stack_frame_id=11}
  %broadcast_in_dim.123 = f32[8,196,1]{2,1,0} reshape(%div.163), metadata={op_name="jit(predict_step)/Model/Model.encode/encoder/Transformer/encoderblock_1/LayerNorm_0/broadcast_in_dim" stack_frame_id=65}
  %sub.247 = f32[8,196,1]{2,1,0} broadcast(%broadcast_in_dim.123), dimensions={0,1,2}, metadata={op_name="jit(predict_step)/Model/Model.encode/encoder/Transformer/encoderblock_1/LayerNorm_0/sub" stack_frame_id=66}
  %sub.248 = f32[8,196]{1,0} reshape(%sub.247), metadata={op_name="jit(predict_step)/Model/Model.encode/encoder/Transformer/encoderblock_1/LayerNorm_0/sub" stack_frame_id=66}
  %sub.249 = f32[8,196,512]{2,1,0} broadcast(%sub.248), dimensions={0,1}, metadata={op_name="jit(predict_step)/Model/Model.encode/encoder/Transformer/encoderblock_1/LayerNorm_0/sub" stack_frame_id=66}
  %sub.250 = f32[8,196,512]{2,1,0} subtract(%add.471, %sub.249), metadata={op_name="jit(predict_step)/Model/Model.encode/encoder/Transformer/encoderblock_1/LayerNorm_0/sub" stack_frame_id=66}
  %square.68 = f32[8,196,512]{2,1,0} multiply(%add.471, %add.471), metadata={op_name="jit(predict_step)/Model/Model.encode/encoder/Transformer/encoderblock_1/LayerNorm_0/square" stack_frame_id=68}
  %reduce_sum.580 = f32[8,196]{1,0} reduce(%square.68, %constant.57), dimensions={2}, to_apply=%region_7.8, metadata={op_name="jit(predict_step)/Model/Model.encode/encoder/Transformer/encoderblock_1/LayerNorm_0/reduce_sum" stack_frame_id=11}
  %div.164 = f32[8,196]{1,0} divide(%reduce_sum.580, %broadcast.35), metadata={op_name="jit(predict_step)/Model/Model.encode/encoder/Transformer/encoderblock_1/LayerNorm_0/div" stack_frame_id=11}
  %square.69 = f32[8,196]{1,0} multiply(%div.163, %div.163), metadata={op_name="jit(predict_step)/Model/Model.encode/encoder/Transformer/encoderblock_1/LayerNorm_0/square" stack_frame_id=70}
  %sub.246 = f32[8,196]{1,0} subtract(%div.164, %square.69), metadata={op_name="jit(predict_step)/Model/Model.encode/encoder/Transformer/encoderblock_1/LayerNorm_0/sub" stack_frame_id=71}
  %max.53 = f32[8,196]{1,0} maximum(%sub.246, %broadcast.34), metadata={op_name="jit(predict_step)/Model/Model.encode/encoder/Transformer/encoderblock_1/LayerNorm_0/max" stack_frame_id=72}
  %broadcast_in_dim.124 = f32[8,196,1]{2,1,0} reshape(%max.53), metadata={op_name="jit(predict_step)/Model/Model.encode/encoder/Transformer/encoderblock_1/LayerNorm_0/broadcast_in_dim" stack_frame_id=73}
  %add.472 = f32[8,196,1]{2,1,0} add(%broadcast_in_dim.124, %broadcast.33), metadata={op_name="jit(predict_step)/Model/Model.encode/encoder/Transformer/encoderblock_1/LayerNorm_0/add" stack_frame_id=74}
  %rsqrt.34 = f32[8,196,1]{2,1,0} rsqrt(%add.472), metadata={op_name="jit(predict_step)/Model/Model.encode/encoder/Transformer/encoderblock_1/LayerNorm_0/rsqrt" stack_frame_id=75}
  %mul.324 = f32[8,196,1]{2,1,0} broadcast(%rsqrt.34), dimensions={0,1,2}, metadata={op_name="jit(predict_step)/Model/Model.encode/encoder/Transformer/encoderblock_1/LayerNorm_0/mul" stack_frame_id=76}
  %mul.325 = f32[8,196]{1,0} reshape(%mul.324), metadata={op_name="jit(predict_step)/Model/Model.encode/encoder/Transformer/encoderblock_1/LayerNorm_0/mul" stack_frame_id=76}
  %mul.326 = f32[8,196,512]{2,1,0} broadcast(%mul.325), dimensions={0,1}, metadata={op_name="jit(predict_step)/Model/Model.encode/encoder/Transformer/encoderblock_1/LayerNorm_0/mul" stack_frame_id=76}
  %params__encoder____Transformer____encoderblock_1____LayerNorm_0____scale__.1 = f32[512]{0} parameter(132), metadata={op_name="params[\'encoder\'][\'Transformer\'][\'encoderblock_1\'][\'LayerNorm_0\'][\'scale\']"}
  %reshape.127 = f32[1,1,512]{2,1,0} reshape(%params__encoder____Transformer____encoderblock_1____LayerNorm_0____scale__.1), metadata={op_name="jit(predict_step)/Model/Model.encode/encoder/Transformer/encoderblock_1/LayerNorm_0/reshape" stack_frame_id=77}
  %mul.327 = f32[1,1,512]{2,1,0} broadcast(%reshape.127), dimensions={0,1,2}, metadata={op_name="jit(predict_step)/Model/Model.encode/encoder/Transformer/encoderblock_1/LayerNorm_0/mul" stack_frame_id=76}
  %mul.328 = f32[512]{0} reshape(%mul.327), metadata={op_name="jit(predict_step)/Model/Model.encode/encoder/Transformer/encoderblock_1/LayerNorm_0/mul" stack_frame_id=76}
  %mul.329 = f32[8,196,512]{2,1,0} broadcast(%mul.328), dimensions={2}, metadata={op_name="jit(predict_step)/Model/Model.encode/encoder/Transformer/encoderblock_1/LayerNorm_0/mul" stack_frame_id=76}
  %mul.330 = f32[8,196,512]{2,1,0} multiply(%mul.326, %mul.329), metadata={op_name="jit(predict_step)/Model/Model.encode/encoder/Transformer/encoderblock_1/LayerNorm_0/mul" stack_frame_id=76}
  %mul.331 = f32[8,196,512]{2,1,0} multiply(%sub.250, %mul.330), metadata={op_name="jit(predict_step)/Model/Model.encode/encoder/Transformer/encoderblock_1/LayerNorm_0/mul" stack_frame_id=78}
  %params__encoder____Transformer____encoderblock_1____LayerNorm_0____bias__.1 = f32[512]{0} parameter(131), metadata={op_name="params[\'encoder\'][\'Transformer\'][\'encoderblock_1\'][\'LayerNorm_0\'][\'bias\']"}
  %reshape.128 = f32[1,1,512]{2,1,0} reshape(%params__encoder____Transformer____encoderblock_1____LayerNorm_0____bias__.1), metadata={op_name="jit(predict_step)/Model/Model.encode/encoder/Transformer/encoderblock_1/LayerNorm_0/reshape" stack_frame_id=79}
  %add.473 = f32[1,1,512]{2,1,0} broadcast(%reshape.128), dimensions={0,1,2}, metadata={op_name="jit(predict_step)/Model/Model.encode/encoder/Transformer/encoderblock_1/LayerNorm_0/add" stack_frame_id=80}
  %add.474 = f32[512]{0} reshape(%add.473), metadata={op_name="jit(predict_step)/Model/Model.encode/encoder/Transformer/encoderblock_1/LayerNorm_0/add" stack_frame_id=80}
  %add.475 = f32[8,196,512]{2,1,0} broadcast(%add.474), dimensions={2}, metadata={op_name="jit(predict_step)/Model/Model.encode/encoder/Transformer/encoderblock_1/LayerNorm_0/add" stack_frame_id=80}
  %add.476 = f32[8,196,512]{2,1,0} add(%mul.331, %add.475), metadata={op_name="jit(predict_step)/Model/Model.encode/encoder/Transformer/encoderblock_1/LayerNorm_0/add" stack_frame_id=80}
  %params__encoder____Transformer____encoderblock_1____MultiHeadDotProductAttention_0____value____kernel__.1 = f32[512,8,64]{2,1,0} parameter(146), metadata={op_name="params[\'encoder\'][\'Transformer\'][\'encoderblock_1\'][\'MultiHeadDotProductAttention_0\'][\'value\'][\'kernel\']"}
  %dot_general.143 = f32[8,196,8,64]{3,2,1,0} dot(%add.476, %params__encoder____Transformer____encoderblock_1____MultiHeadDotProductAttention_0____value____kernel__.1), lhs_contracting_dims={2}, rhs_contracting_dims={0}, metadata={op_name="jit(predict_step)/Model/Model.encode/encoder/Transformer/encoderblock_1/MultiHeadDotProductAttention_0/value/dot_general" stack_frame_id=82}
  %params__encoder____Transformer____encoderblock_1____MultiHeadDotProductAttention_0____value____bias__.1 = f32[8,64]{1,0} parameter(145), metadata={op_name="params[\'encoder\'][\'Transformer\'][\'encoderblock_1\'][\'MultiHeadDotProductAttention_0\'][\'value\'][\'bias\']"}
  %reshape.131 = f32[1,1,8,64]{3,2,1,0} reshape(%params__encoder____Transformer____encoderblock_1____MultiHeadDotProductAttention_0____value____bias__.1), metadata={op_name="jit(predict_step)/Model/Model.encode/encoder/Transformer/encoderblock_1/MultiHeadDotProductAttention_0/value/reshape" stack_frame_id=83}
  %add.485 = f32[1,1,8,64]{3,2,1,0} broadcast(%reshape.131), dimensions={0,1,2,3}, metadata={op_name="jit(predict_step)/Model/Model.encode/encoder/Transformer/encoderblock_1/MultiHeadDotProductAttention_0/value/add" stack_frame_id=84}
  %add.486 = f32[8,64]{1,0} reshape(%add.485), metadata={op_name="jit(predict_step)/Model/Model.encode/encoder/Transformer/encoderblock_1/MultiHeadDotProductAttention_0/value/add" stack_frame_id=84}
  %add.487 = f32[8,196,8,64]{3,2,1,0} broadcast(%add.486), dimensions={2,3}, metadata={op_name="jit(predict_step)/Model/Model.encode/encoder/Transformer/encoderblock_1/MultiHeadDotProductAttention_0/value/add" stack_frame_id=84}
  %add.488 = f32[8,196,8,64]{3,2,1,0} add(%dot_general.143, %add.487), metadata={op_name="jit(predict_step)/Model/Model.encode/encoder/Transformer/encoderblock_1/MultiHeadDotProductAttention_0/value/add" stack_frame_id=84}
  %params__encoder____Transformer____encoderblock_1____MultiHeadDotProductAttention_0____query____kernel__.1 = f32[512,8,64]{2,1,0} parameter(144), metadata={op_name="params[\'encoder\'][\'Transformer\'][\'encoderblock_1\'][\'MultiHeadDotProductAttention_0\'][\'query\'][\'kernel\']"}
  %dot_general.141 = f32[8,196,8,64]{3,2,1,0} dot(%add.476, %params__encoder____Transformer____encoderblock_1____MultiHeadDotProductAttention_0____query____kernel__.1), lhs_contracting_dims={2}, rhs_contracting_dims={0}, metadata={op_name="jit(predict_step)/Model/Model.encode/encoder/Transformer/encoderblock_1/MultiHeadDotProductAttention_0/query/dot_general" stack_frame_id=86}
  %params__encoder____Transformer____encoderblock_1____MultiHeadDotProductAttention_0____query____bias__.1 = f32[8,64]{1,0} parameter(143), metadata={op_name="params[\'encoder\'][\'Transformer\'][\'encoderblock_1\'][\'MultiHeadDotProductAttention_0\'][\'query\'][\'bias\']"}
  %reshape.129 = f32[1,1,8,64]{3,2,1,0} reshape(%params__encoder____Transformer____encoderblock_1____MultiHeadDotProductAttention_0____query____bias__.1), metadata={op_name="jit(predict_step)/Model/Model.encode/encoder/Transformer/encoderblock_1/MultiHeadDotProductAttention_0/query/reshape" stack_frame_id=87}
  %add.477 = f32[1,1,8,64]{3,2,1,0} broadcast(%reshape.129), dimensions={0,1,2,3}, metadata={op_name="jit(predict_step)/Model/Model.encode/encoder/Transformer/encoderblock_1/MultiHeadDotProductAttention_0/query/add" stack_frame_id=88}
  %add.478 = f32[8,64]{1,0} reshape(%add.477), metadata={op_name="jit(predict_step)/Model/Model.encode/encoder/Transformer/encoderblock_1/MultiHeadDotProductAttention_0/query/add" stack_frame_id=88}
  %add.479 = f32[8,196,8,64]{3,2,1,0} broadcast(%add.478), dimensions={2,3}, metadata={op_name="jit(predict_step)/Model/Model.encode/encoder/Transformer/encoderblock_1/MultiHeadDotProductAttention_0/query/add" stack_frame_id=88}
  %add.480 = f32[8,196,8,64]{3,2,1,0} add(%dot_general.141, %add.479), metadata={op_name="jit(predict_step)/Model/Model.encode/encoder/Transformer/encoderblock_1/MultiHeadDotProductAttention_0/query/add" stack_frame_id=88}
  %div.165 = f32[8,196,8,64]{3,2,1,0} divide(%add.480, %broadcast.32), metadata={op_name="jit(predict_step)/Model/Model.encode/encoder/Transformer/encoderblock_1/MultiHeadDotProductAttention_0/div" stack_frame_id=89}
  %params__encoder____Transformer____encoderblock_1____MultiHeadDotProductAttention_0____key____kernel__.1 = f32[512,8,64]{2,1,0} parameter(140), metadata={op_name="params[\'encoder\'][\'Transformer\'][\'encoderblock_1\'][\'MultiHeadDotProductAttention_0\'][\'key\'][\'kernel\']"}
  %dot_general.142 = f32[8,196,8,64]{3,2,1,0} dot(%add.476, %params__encoder____Transformer____encoderblock_1____MultiHeadDotProductAttention_0____key____kernel__.1), lhs_contracting_dims={2}, rhs_contracting_dims={0}, metadata={op_name="jit(predict_step)/Model/Model.encode/encoder/Transformer/encoderblock_1/MultiHeadDotProductAttention_0/key/dot_general" stack_frame_id=91}
  %params__encoder____Transformer____encoderblock_1____MultiHeadDotProductAttention_0____key____bias__.1 = f32[8,64]{1,0} parameter(139), metadata={op_name="params[\'encoder\'][\'Transformer\'][\'encoderblock_1\'][\'MultiHeadDotProductAttention_0\'][\'key\'][\'bias\']"}
  %reshape.130 = f32[1,1,8,64]{3,2,1,0} reshape(%params__encoder____Transformer____encoderblock_1____MultiHeadDotProductAttention_0____key____bias__.1), metadata={op_name="jit(predict_step)/Model/Model.encode/encoder/Transformer/encoderblock_1/MultiHeadDotProductAttention_0/key/reshape" stack_frame_id=92}
  %add.481 = f32[1,1,8,64]{3,2,1,0} broadcast(%reshape.130), dimensions={0,1,2,3}, metadata={op_name="jit(predict_step)/Model/Model.encode/encoder/Transformer/encoderblock_1/MultiHeadDotProductAttention_0/key/add" stack_frame_id=93}
  %add.482 = f32[8,64]{1,0} reshape(%add.481), metadata={op_name="jit(predict_step)/Model/Model.encode/encoder/Transformer/encoderblock_1/MultiHeadDotProductAttention_0/key/add" stack_frame_id=93}
  %add.483 = f32[8,196,8,64]{3,2,1,0} broadcast(%add.482), dimensions={2,3}, metadata={op_name="jit(predict_step)/Model/Model.encode/encoder/Transformer/encoderblock_1/MultiHeadDotProductAttention_0/key/add" stack_frame_id=93}
  %add.484 = f32[8,196,8,64]{3,2,1,0} add(%dot_general.142, %add.483), metadata={op_name="jit(predict_step)/Model/Model.encode/encoder/Transformer/encoderblock_1/MultiHeadDotProductAttention_0/key/add" stack_frame_id=93}
  %dot_general.144 = f32[8,8,196,196]{3,2,1,0} dot(%div.165, %add.484), lhs_batch_dims={0,2}, lhs_contracting_dims={3}, rhs_batch_dims={0,2}, rhs_contracting_dims={3}, metadata={op_name="jit(predict_step)/Model/Model.encode/encoder/Transformer/encoderblock_1/MultiHeadDotProductAttention_0/...qhd,...khd->...hqk/dot_general" stack_frame_id=94}
  %reduce_max.127 = f32[8,8,196]{2,1,0} reduce(%dot_general.144, %constant.56), dimensions={3}, to_apply=%region_8.9, metadata={op_name="jit(predict_step)/Model/Model.encode/encoder/Transformer/encoderblock_1/MultiHeadDotProductAttention_0/reduce_max" stack_frame_id=15}
  %max.54 = f32[8,8,196]{2,1,0} maximum(%reduce_max.127, %broadcast.31), metadata={op_name="jit(predict_step)/Model/Model.encode/encoder/Transformer/encoderblock_1/MultiHeadDotProductAttention_0/max" stack_frame_id=15}
  %broadcast_in_dim.125 = f32[8,8,196,1]{3,2,1,0} reshape(%max.54), metadata={op_name="jit(predict_step)/Model/Model.encode/encoder/Transformer/encoderblock_1/MultiHeadDotProductAttention_0/broadcast_in_dim" stack_frame_id=15}
  %sub.251 = f32[8,8,196,1]{3,2,1,0} broadcast(%broadcast_in_dim.125), dimensions={0,1,2,3}, metadata={op_name="jit(predict_step)/Model/Model.encode/encoder/Transformer/encoderblock_1/MultiHeadDotProductAttention_0/sub" stack_frame_id=15}
  %sub.252 = f32[8,8,196]{2,1,0} reshape(%sub.251), metadata={op_name="jit(predict_step)/Model/Model.encode/encoder/Transformer/encoderblock_1/MultiHeadDotProductAttention_0/sub" stack_frame_id=15}
  %sub.253 = f32[8,8,196,196]{3,2,1,0} broadcast(%sub.252), dimensions={0,1,2}, metadata={op_name="jit(predict_step)/Model/Model.encode/encoder/Transformer/encoderblock_1/MultiHeadDotProductAttention_0/sub" stack_frame_id=15}
  %sub.254 = f32[8,8,196,196]{3,2,1,0} subtract(%dot_general.144, %sub.253), metadata={op_name="jit(predict_step)/Model/Model.encode/encoder/Transformer/encoderblock_1/MultiHeadDotProductAttention_0/sub" stack_frame_id=15}
  %exp.19 = f32[8,8,196,196]{3,2,1,0} exponential(%sub.254), metadata={op_name="jit(predict_step)/Model/Model.encode/encoder/Transformer/encoderblock_1/MultiHeadDotProductAttention_0/exp" stack_frame_id=15}
  %reduce_sum.581 = f32[8,8,196]{2,1,0} reduce(%exp.19, %constant.57), dimensions={3}, to_apply=%region_9.10, metadata={op_name="jit(predict_step)/Model/Model.encode/encoder/Transformer/encoderblock_1/MultiHeadDotProductAttention_0/reduce_sum" stack_frame_id=15}
  %broadcast_in_dim.126 = f32[8,8,196,1]{3,2,1,0} reshape(%reduce_sum.581), metadata={op_name="jit(predict_step)/Model/Model.encode/encoder/Transformer/encoderblock_1/MultiHeadDotProductAttention_0/broadcast_in_dim" stack_frame_id=15}
  %div.166 = f32[8,8,196,1]{3,2,1,0} broadcast(%broadcast_in_dim.126), dimensions={0,1,2,3}, metadata={op_name="jit(predict_step)/Model/Model.encode/encoder/Transformer/encoderblock_1/MultiHeadDotProductAttention_0/div" stack_frame_id=15}
  %div.167 = f32[8,8,196]{2,1,0} reshape(%div.166), metadata={op_name="jit(predict_step)/Model/Model.encode/encoder/Transformer/encoderblock_1/MultiHeadDotProductAttention_0/div" stack_frame_id=15}
  %div.168 = f32[8,8,196,196]{3,2,1,0} broadcast(%div.167), dimensions={0,1,2}, metadata={op_name="jit(predict_step)/Model/Model.encode/encoder/Transformer/encoderblock_1/MultiHeadDotProductAttention_0/div" stack_frame_id=15}
  %div.169 = f32[8,8,196,196]{3,2,1,0} divide(%exp.19, %div.168), metadata={op_name="jit(predict_step)/Model/Model.encode/encoder/Transformer/encoderblock_1/MultiHeadDotProductAttention_0/div" stack_frame_id=15}
  %dot_general.145 = f32[8,8,64,196]{3,2,1,0} dot(%add.488, %div.169), lhs_batch_dims={0,2}, lhs_contracting_dims={1}, rhs_batch_dims={0,1}, rhs_contracting_dims={3}, metadata={op_name="jit(predict_step)/Model/Model.encode/encoder/Transformer/encoderblock_1/MultiHeadDotProductAttention_0/...hqk,...khd->...qhd/dot_general" stack_frame_id=95}
  %transpose.19 = f32[8,196,8,64]{1,3,2,0} transpose(%dot_general.145), dimensions={0,3,1,2}, metadata={op_name="jit(predict_step)/Model/Model.encode/encoder/Transformer/encoderblock_1/MultiHeadDotProductAttention_0/...hqk,...khd->...qhd/transpose" stack_frame_id=95}
  %params__encoder____Transformer____encoderblock_1____MultiHeadDotProductAttention_0____out____kernel__.1 = f32[8,64,512]{2,1,0} parameter(142), metadata={op_name="params[\'encoder\'][\'Transformer\'][\'encoderblock_1\'][\'MultiHeadDotProductAttention_0\'][\'out\'][\'kernel\']"}
  %dot_general.146 = f32[8,196,512]{2,1,0} dot(%transpose.19, %params__encoder____Transformer____encoderblock_1____MultiHeadDotProductAttention_0____out____kernel__.1), lhs_contracting_dims={2,3}, rhs_contracting_dims={0,1}, metadata={op_name="jit(predict_step)/Model/Model.encode/encoder/Transformer/encoderblock_1/MultiHeadDotProductAttention_0/out/dot_general" stack_frame_id=97}
  %params__encoder____Transformer____encoderblock_1____MultiHeadDotProductAttention_0____out____bias__.1 = f32[512]{0} parameter(141), metadata={op_name="params[\'encoder\'][\'Transformer\'][\'encoderblock_1\'][\'MultiHeadDotProductAttention_0\'][\'out\'][\'bias\']"}
  %reshape.132 = f32[1,1,512]{2,1,0} reshape(%params__encoder____Transformer____encoderblock_1____MultiHeadDotProductAttention_0____out____bias__.1), metadata={op_name="jit(predict_step)/Model/Model.encode/encoder/Transformer/encoderblock_1/MultiHeadDotProductAttention_0/out/reshape" stack_frame_id=98}
  %add.489 = f32[1,1,512]{2,1,0} broadcast(%reshape.132), dimensions={0,1,2}, metadata={op_name="jit(predict_step)/Model/Model.encode/encoder/Transformer/encoderblock_1/MultiHeadDotProductAttention_0/out/add" stack_frame_id=99}
  %add.490 = f32[512]{0} reshape(%add.489), metadata={op_name="jit(predict_step)/Model/Model.encode/encoder/Transformer/encoderblock_1/MultiHeadDotProductAttention_0/out/add" stack_frame_id=99}
  %add.491 = f32[8,196,512]{2,1,0} broadcast(%add.490), dimensions={2}, metadata={op_name="jit(predict_step)/Model/Model.encode/encoder/Transformer/encoderblock_1/MultiHeadDotProductAttention_0/out/add" stack_frame_id=99}
  %add.492 = f32[8,196,512]{2,1,0} add(%dot_general.146, %add.491), metadata={op_name="jit(predict_step)/Model/Model.encode/encoder/Transformer/encoderblock_1/MultiHeadDotProductAttention_0/out/add" stack_frame_id=99}
  %add.493 = f32[8,196,512]{2,1,0} add(%add.471, %add.492), metadata={op_name="jit(predict_step)/Model/Model.encode/encoder/Transformer/encoderblock_1/add" stack_frame_id=100}
  %reduce_sum.582 = f32[8,196]{1,0} reduce(%add.493, %constant.57), dimensions={2}, to_apply=%region_10.11, metadata={op_name="jit(predict_step)/Model/Model.encode/encoder/Transformer/encoderblock_1/LayerNorm_1/reduce_sum" stack_frame_id=20}
  %div.170 = f32[8,196]{1,0} divide(%reduce_sum.582, %broadcast.35), metadata={op_name="jit(predict_step)/Model/Model.encode/encoder/Transformer/encoderblock_1/LayerNorm_1/div" stack_frame_id=20}
  %broadcast_in_dim.127 = f32[8,196,1]{2,1,0} reshape(%div.170), metadata={op_name="jit(predict_step)/Model/Model.encode/encoder/Transformer/encoderblock_1/LayerNorm_1/broadcast_in_dim" stack_frame_id=102}
  %sub.256 = f32[8,196,1]{2,1,0} broadcast(%broadcast_in_dim.127), dimensions={0,1,2}, metadata={op_name="jit(predict_step)/Model/Model.encode/encoder/Transformer/encoderblock_1/LayerNorm_1/sub" stack_frame_id=103}
  %sub.257 = f32[8,196]{1,0} reshape(%sub.256), metadata={op_name="jit(predict_step)/Model/Model.encode/encoder/Transformer/encoderblock_1/LayerNorm_1/sub" stack_frame_id=103}
  %sub.258 = f32[8,196,512]{2,1,0} broadcast(%sub.257), dimensions={0,1}, metadata={op_name="jit(predict_step)/Model/Model.encode/encoder/Transformer/encoderblock_1/LayerNorm_1/sub" stack_frame_id=103}
  %sub.259 = f32[8,196,512]{2,1,0} subtract(%add.493, %sub.258), metadata={op_name="jit(predict_step)/Model/Model.encode/encoder/Transformer/encoderblock_1/LayerNorm_1/sub" stack_frame_id=103}
  %square.70 = f32[8,196,512]{2,1,0} multiply(%add.493, %add.493), metadata={op_name="jit(predict_step)/Model/Model.encode/encoder/Transformer/encoderblock_1/LayerNorm_1/square" stack_frame_id=105}
  %reduce_sum.583 = f32[8,196]{1,0} reduce(%square.70, %constant.57), dimensions={2}, to_apply=%region_11.12, metadata={op_name="jit(predict_step)/Model/Model.encode/encoder/Transformer/encoderblock_1/LayerNorm_1/reduce_sum" stack_frame_id=20}
  %div.171 = f32[8,196]{1,0} divide(%reduce_sum.583, %broadcast.35), metadata={op_name="jit(predict_step)/Model/Model.encode/encoder/Transformer/encoderblock_1/LayerNorm_1/div" stack_frame_id=20}
  %square.71 = f32[8,196]{1,0} multiply(%div.170, %div.170), metadata={op_name="jit(predict_step)/Model/Model.encode/encoder/Transformer/encoderblock_1/LayerNorm_1/square" stack_frame_id=107}
  %sub.255 = f32[8,196]{1,0} subtract(%div.171, %square.71), metadata={op_name="jit(predict_step)/Model/Model.encode/encoder/Transformer/encoderblock_1/LayerNorm_1/sub" stack_frame_id=108}
  %max.55 = f32[8,196]{1,0} maximum(%sub.255, %broadcast.34), metadata={op_name="jit(predict_step)/Model/Model.encode/encoder/Transformer/encoderblock_1/LayerNorm_1/max" stack_frame_id=109}
  %broadcast_in_dim.128 = f32[8,196,1]{2,1,0} reshape(%max.55), metadata={op_name="jit(predict_step)/Model/Model.encode/encoder/Transformer/encoderblock_1/LayerNorm_1/broadcast_in_dim" stack_frame_id=110}
  %add.494 = f32[8,196,1]{2,1,0} add(%broadcast_in_dim.128, %broadcast.33), metadata={op_name="jit(predict_step)/Model/Model.encode/encoder/Transformer/encoderblock_1/LayerNorm_1/add" stack_frame_id=111}
  %rsqrt.35 = f32[8,196,1]{2,1,0} rsqrt(%add.494), metadata={op_name="jit(predict_step)/Model/Model.encode/encoder/Transformer/encoderblock_1/LayerNorm_1/rsqrt" stack_frame_id=112}
  %mul.332 = f32[8,196,1]{2,1,0} broadcast(%rsqrt.35), dimensions={0,1,2}, metadata={op_name="jit(predict_step)/Model/Model.encode/encoder/Transformer/encoderblock_1/LayerNorm_1/mul" stack_frame_id=113}
  %mul.333 = f32[8,196]{1,0} reshape(%mul.332), metadata={op_name="jit(predict_step)/Model/Model.encode/encoder/Transformer/encoderblock_1/LayerNorm_1/mul" stack_frame_id=113}
  %mul.334 = f32[8,196,512]{2,1,0} broadcast(%mul.333), dimensions={0,1}, metadata={op_name="jit(predict_step)/Model/Model.encode/encoder/Transformer/encoderblock_1/LayerNorm_1/mul" stack_frame_id=113}
  %params__encoder____Transformer____encoderblock_1____LayerNorm_1____scale__.1 = f32[512]{0} parameter(134), metadata={op_name="params[\'encoder\'][\'Transformer\'][\'encoderblock_1\'][\'LayerNorm_1\'][\'scale\']"}
…
  %sub.431 = f32[8,64]{1,0} subtract(%div.289, %square.119), metadata={op_name="jit(predict_step)/Model/Model.decode/decoder/EncDecBlock4/LayerNorm3/sub" stack_frame_id=225}
  %max.93 = f32[8,64]{1,0} maximum(%sub.431, %broadcast.25), metadata={op_name="jit(predict_step)/Model/Model.decode/decoder/EncDecBlock4/LayerNorm3/max" stack_frame_id=226}
  %broadcast_in_dim.207 = f32[8,64,1]{2,1,0} reshape(%max.93), metadata={op_name="jit(predict_step)/Model/Model.decode/decoder/EncDecBlock4/LayerNorm3/broadcast_in_dim" stack_frame_id=227}
  %add.795 = f32[8,64,1]{2,1,0} add(%broadcast_in_dim.207, %broadcast.24), metadata={op_name="jit(predict_step)/Model/Model.decode/decoder/EncDecBlock4/LayerNorm3/add" stack_frame_id=228}
  %rsqrt.59 = f32[8,64,1]{2,1,0} rsqrt(%add.795), metadata={op_name="jit(predict_step)/Model/Model.decode/decoder/EncDecBlock4/LayerNorm3/rsqrt" stack_frame_id=229}
  %mul.560 = f32[8,64,1]{2,1,0} broadcast(%rsqrt.59), dimensions={0,1,2}, metadata={op_name="jit(predict_step)/Model/Model.decode/decoder/EncDecBlock4/LayerNorm3/mul" stack_frame_id=230}
  %mul.561 = f32[8,64]{1,0} reshape(%mul.560), metadata={op_name="jit(predict_step)/Model/Model.decode/decoder/EncDecBlock4/LayerNorm3/mul" stack_frame_id=230}
  %mul.562 = f32[8,64,512]{2,1,0} broadcast(%mul.561), dimensions={0,1}, metadata={op_name="jit(predict_step)/Model/Model.decode/decoder/EncDecBlock4/LayerNorm3/mul" stack_frame_id=230}
  %params__decoder____EncDecBlock4____LayerNorm3____scale__.1 = f32[512]{0} parameter(82), metadata={op_name="params[\'decoder\'][\'EncDecBlock4\'][\'LayerNorm3\'][\'scale\']"}
  %reshape.215 = f32[1,1,512]{2,1,0} reshape(%params__decoder____EncDecBlock4____LayerNorm3____scale__.1), metadata={op_name="jit(predict_step)/Model/Model.decode/decoder/EncDecBlock4/LayerNorm3/reshape" stack_frame_id=231}
  %mul.563 = f32[1,1,512]{2,1,0} broadcast(%reshape.215), dimensions={0,1,2}, metadata={op_name="jit(predict_step)/Model/Model.decode/decoder/EncDecBlock4/LayerNorm3/mul" stack_frame_id=230}
  %mul.564 = f32[512]{0} reshape(%mul.563), metadata={op_name="jit(predict_step)/Model/Model.decode/decoder/EncDecBlock4/LayerNorm3/mul" stack_frame_id=230}
  %mul.565 = f32[8,64,512]{2,1,0} broadcast(%mul.564), dimensions={2}, metadata={op_name="jit(predict_step)/Model/Model.decode/decoder/EncDecBlock4/LayerNorm3/mul" stack_frame_id=230}
  %mul.566 = f32[8,64,512]{2,1,0} multiply(%mul.562, %mul.565), metadata={op_name="jit(predict_step)/Model/Model.decode/decoder/EncDecBlock4/LayerNorm3/mul" stack_frame_id=230}
  %mul.567 = f32[8,64,512]{2,1,0} multiply(%sub.435, %mul.566), metadata={op_name="jit(predict_step)/Model/Model.decode/decoder/EncDecBlock4/LayerNorm3/mul" stack_frame_id=232}
  %params__decoder____EncDecBlock4____LayerNorm3____bias__.1 = f32[512]{0} parameter(81), metadata={op_name="params[\'decoder\'][\'EncDecBlock4\'][\'LayerNorm3\'][\'bias\']"}
  %reshape.216 = f32[1,1,512]{2,1,0} reshape(%params__decoder____EncDecBlock4____LayerNorm3____bias__.1), metadata={op_name="jit(predict_step)/Model/Model.decode/decoder/EncDecBlock4/LayerNorm3/reshape" stack_frame_id=233}
  %add.796 = f32[1,1,512]{2,1,0} broadcast(%reshape.216), dimensions={0,1,2}, metadata={op_name="jit(predict_step)/Model/Model.decode/decoder/EncDecBlock4/LayerNorm3/add" stack_frame_id=234}
  %add.797 = f32[512]{0} reshape(%add.796), metadata={op_name="jit(predict_step)/Model/Model.decode/decoder/EncDecBlock4/LayerNorm3/add" stack_frame_id=234}
  %add.798 = f32[8,64,512]{2,1,0} broadcast(%add.797), dimensions={2}, metadata={op_name="jit(predict_step)/Model/Model.decode/decoder/EncDecBlock4/LayerNorm3/add" stack_frame_id=234}
  %add.799 = f32[8,64,512]{2,1,0} add(%mul.567, %add.798), metadata={op_name="jit(predict_step)/Model/Model.decode/decoder/EncDecBlock4/LayerNorm3/add" stack_frame_id=234}
  %params__decoder____EncDecBlock4____MLP____Dense_0____kernel__.1 = f32[512,2048]{1,0} parameter(84), metadata={op_name="params[\'decoder\'][\'EncDecBlock4\'][\'MLP\'][\'Dense_0\'][\'kernel\']"}
  %dot_general.249 = f32[8,64,2048]{2,1,0} dot(%add.799, %params__decoder____EncDecBlock4____MLP____Dense_0____kernel__.1), lhs_contracting_dims={2}, rhs_contracting_dims={0}, metadata={op_name="jit(predict_step)/Model/Model.decode/decoder/EncDecBlock4/MLP/Dense_0/dot_general" stack_frame_id=237}
  %params__decoder____EncDecBlock4____MLP____Dense_0____bias__.1 = f32[2048]{0} parameter(83), metadata={op_name="params[\'decoder\'][\'EncDecBlock4\'][\'MLP\'][\'Dense_0\'][\'bias\']"}
  %reshape.217 = f32[1,1,2048]{2,1,0} reshape(%params__decoder____EncDecBlock4____MLP____Dense_0____bias__.1), metadata={op_name="jit(predict_step)/Model/Model.decode/decoder/EncDecBlock4/MLP/Dense_0/reshape" stack_frame_id=238}
  %add.800 = f32[1,1,2048]{2,1,0} broadcast(%reshape.217), dimensions={0,1,2}, metadata={op_name="jit(predict_step)/Model/Model.decode/decoder/EncDecBlock4/MLP/Dense_0/add" stack_frame_id=239}
  %add.801 = f32[2048]{0} reshape(%add.800), metadata={op_name="jit(predict_step)/Model/Model.decode/decoder/EncDecBlock4/MLP/Dense_0/add" stack_frame_id=239}
  %add.802 = f32[8,64,2048]{2,1,0} broadcast(%add.801), dimensions={2}, metadata={op_name="jit(predict_step)/Model/Model.decode/decoder/EncDecBlock4/MLP/Dense_0/add" stack_frame_id=239}
  %add.803 = f32[8,64,2048]{2,1,0} add(%dot_general.249, %add.802), metadata={op_name="jit(predict_step)/Model/Model.decode/decoder/EncDecBlock4/MLP/Dense_0/add" stack_frame_id=239}
  %integer_pow.44 = f32[8,64,2048]{2,1,0} multiply(%add.803, %add.803), metadata={op_name="jit(predict_step)/Model/Model.decode/decoder/EncDecBlock4/MLP/integer_pow" stack_frame_id=240}
  %integer_pow.45 = f32[8,64,2048]{2,1,0} multiply(%integer_pow.44, %add.803), metadata={op_name="jit(predict_step)/Model/Model.decode/decoder/EncDecBlock4/MLP/integer_pow" stack_frame_id=240}
  %mul.568 = f32[8,64,2048]{2,1,0} multiply(%integer_pow.45, %broadcast.21), metadata={op_name="jit(predict_step)/Model/Model.decode/decoder/EncDecBlock4/MLP/mul" stack_frame_id=240}
  %add.804 = f32[8,64,2048]{2,1,0} add(%add.803, %mul.568), metadata={op_name="jit(predict_step)/Model/Model.decode/decoder/EncDecBlock4/MLP/add" stack_frame_id=240}
  %mul.569 = f32[8,64,2048]{2,1,0} multiply(%add.804, %broadcast.20), metadata={op_name="jit(predict_step)/Model/Model.decode/decoder/EncDecBlock4/MLP/mul" stack_frame_id=240}
  %tanh.22 = f32[8,64,2048]{2,1,0} tanh(%mul.569), metadata={op_name="jit(predict_step)/Model/Model.decode/decoder/EncDecBlock4/MLP/tanh" stack_frame_id=240}
  %add.805 = f32[8,64,2048]{2,1,0} add(%tanh.22, %broadcast.19), metadata={op_name="jit(predict_step)/Model/Model.decode/decoder/EncDecBlock4/MLP/add" stack_frame_id=240}
  %mul.570 = f32[8,64,2048]{2,1,0} multiply(%add.805, %broadcast.18), metadata={op_name="jit(predict_step)/Model/Model.decode/decoder/EncDecBlock4/MLP/mul" stack_frame_id=240}
  %mul.571 = f32[8,64,2048]{2,1,0} multiply(%add.803, %mul.570), metadata={op_name="jit(predict_step)/Model/Model.decode/decoder/EncDecBlock4/MLP/mul" stack_frame_id=240}
  %params__decoder____EncDecBlock4____MLP____Dense_1____kernel__.1 = f32[2048,512]{1,0} parameter(86), metadata={op_name="params[\'decoder\'][\'EncDecBlock4\'][\'MLP\'][\'Dense_1\'][\'kernel\']"}
  %dot_general.250 = f32[8,64,512]{2,1,0} dot(%mul.571, %params__decoder____EncDecBlock4____MLP____Dense_1____kernel__.1), lhs_contracting_dims={2}, rhs_contracting_dims={0}, metadata={op_name="jit(predict_step)/Model/Model.decode/decoder/EncDecBlock4/MLP/Dense_1/dot_general" stack_frame_id=242}
  %params__decoder____EncDecBlock4____MLP____Dense_1____bias__.1 = f32[512]{0} parameter(85), metadata={op_name="params[\'decoder\'][\'EncDecBlock4\'][\'MLP\'][\'Dense_1\'][\'bias\']"}
  %reshape.218 = f32[1,1,512]{2,1,0} reshape(%params__decoder____EncDecBlock4____MLP____Dense_1____bias__.1), metadata={op_name="jit(predict_step)/Model/Model.decode/decoder/EncDecBlock4/MLP/Dense_1/reshape" stack_frame_id=243}
  %add.806 = f32[1,1,512]{2,1,0} broadcast(%reshape.218), dimensions={0,1,2}, metadata={op_name="jit(predict_step)/Model/Model.decode/decoder/EncDecBlock4/MLP/Dense_1/add" stack_frame_id=244}
  %add.807 = f32[512]{0} reshape(%add.806), metadata={op_name="jit(predict_step)/Model/Model.decode/decoder/EncDecBlock4/MLP/Dense_1/add" stack_frame_id=244}
  %add.808 = f32[8,64,512]{2,1,0} broadcast(%add.807), dimensions={2}, metadata={op_name="jit(predict_step)/Model/Model.decode/decoder/EncDecBlock4/MLP/Dense_1/add" stack_frame_id=244}
  %add.809 = f32[8,64,512]{2,1,0} add(%dot_general.250, %add.808), metadata={op_name="jit(predict_step)/Model/Model.decode/decoder/EncDecBlock4/MLP/Dense_1/add" stack_frame_id=244}
  %add.810 = f32[8,64,512]{2,1,0} add(%add.794, %add.809), metadata={op_name="jit(predict_step)/Model/Model.decode/decoder/EncDecBlock4/add" stack_frame_id=245}
  %reduce_sum.646 = f32[8,64]{1,0} reduce(%add.810, %constant.57), dimensions={2}, to_apply=%region_89.94, metadata={op_name="jit(predict_step)/Model/Model.decode/decoder/EncDecBlock5/LayerNorm1/reduce_sum" stack_frame_id=33}
  %div.290 = f32[8,64]{1,0} divide(%reduce_sum.646, %broadcast.26), metadata={op_name="jit(predict_step)/Model/Model.decode/decoder/EncDecBlock5/LayerNorm1/div" stack_frame_id=33}
  %broadcast_in_dim.208 = f32[8,64,1]{2,1,0} reshape(%div.290), metadata={op_name="jit(predict_step)/Model/Model.decode/decoder/EncDecBlock5/LayerNorm1/broadcast_in_dim" stack_frame_id=156}
  %sub.437 = f32[8,64,1]{2,1,0} broadcast(%broadcast_in_dim.208), dimensions={0,1,2}, metadata={op_name="jit(predict_step)/Model/Model.decode/decoder/EncDecBlock5/LayerNorm1/sub" stack_frame_id=157}
  %sub.438 = f32[8,64]{1,0} reshape(%sub.437), metadata={op_name="jit(predict_step)/Model/Model.decode/decoder/EncDecBlock5/LayerNorm1/sub" stack_frame_id=157}
  %sub.439 = f32[8,64,512]{2,1,0} broadcast(%sub.438), dimensions={0,1}, metadata={op_name="jit(predict_step)/Model/Model.decode/decoder/EncDecBlock5/LayerNorm1/sub" stack_frame_id=157}
  %sub.440 = f32[8,64,512]{2,1,0} subtract(%add.810, %sub.439), metadata={op_name="jit(predict_step)/Model/Model.decode/decoder/EncDecBlock5/LayerNorm1/sub" stack_frame_id=157}
  %square.120 = f32[8,64,512]{2,1,0} multiply(%add.810, %add.810), metadata={op_name="jit(predict_step)/Model/Model.decode/decoder/EncDecBlock5/LayerNorm1/square" stack_frame_id=159}
  %reduce_sum.647 = f32[8,64]{1,0} reduce(%square.120, %constant.57), dimensions={2}, to_apply=%region_90.95, metadata={op_name="jit(predict_step)/Model/Model.decode/decoder/EncDecBlock5/LayerNorm1/reduce_sum" stack_frame_id=33}
  %div.291 = f32[8,64]{1,0} divide(%reduce_sum.647, %broadcast.26), metadata={op_name="jit(predict_step)/Model/Model.decode/decoder/EncDecBlock5/LayerNorm1/div" stack_frame_id=33}
  %square.121 = f32[8,64]{1,0} multiply(%div.290, %div.290), metadata={op_name="jit(predict_step)/Model/Model.decode/decoder/EncDecBlock5/LayerNorm1/square" stack_frame_id=161}
  %sub.436 = f32[8,64]{1,0} subtract(%div.291, %square.121), metadata={op_name="jit(predict_step)/Model/Model.decode/decoder/EncDecBlock5/LayerNorm1/sub" stack_frame_id=162}
  %max.94 = f32[8,64]{1,0} maximum(%sub.436, %broadcast.25), metadata={op_name="jit(predict_step)/Model/Model.decode/decoder/EncDecBlock5/LayerNorm1/max" stack_frame_id=163}
  %broadcast_in_dim.209 = f32[8,64,1]{2,1,0} reshape(%max.94), metadata={op_name="jit(predict_step)/Model/Model.decode/decoder/EncDecBlock5/LayerNorm1/broadcast_in_dim" stack_frame_id=164}
  %add.811 = f32[8,64,1]{2,1,0} add(%broadcast_in_dim.209, %broadcast.24), metadata={op_name="jit(predict_step)/Model/Model.decode/decoder/EncDecBlock5/LayerNorm1/add" stack_frame_id=165}
  %rsqrt.60 = f32[8,64,1]{2,1,0} rsqrt(%add.811), metadata={op_name="jit(predict_step)/Model/Model.decode/decoder/EncDecBlock5/LayerNorm1/rsqrt" stack_frame_id=166}
  %mul.572 = f32[8,64,1]{2,1,0} broadcast(%rsqrt.60), dimensions={0,1,2}, metadata={op_name="jit(predict_step)/Model/Model.decode/decoder/EncDecBlock5/LayerNorm1/mul" stack_frame_id=167}
  %mul.573 = f32[8,64]{1,0} reshape(%mul.572), metadata={op_name="jit(predict_step)/Model/Model.decode/decoder/EncDecBlock5/LayerNorm1/mul" stack_frame_id=167}
  %mul.574 = f32[8,64,512]{2,1,0} broadcast(%mul.573), dimensions={0,1}, metadata={op_name="jit(predict_step)/Model/Model.decode/decoder/EncDecBlock5/LayerNorm1/mul" stack_frame_id=167}
  %params__decoder____EncDecBlock5____LayerNorm1____scale__.1 = f32[512]{0} parameter(96), metadata={op_name="params[\'decoder\'][\'EncDecBlock5\'][\'LayerNorm1\'][\'scale\']"}
  %reshape.219 = f32[1,1,512]{2,1,0} reshape(%params__decoder____EncDecBlock5____LayerNorm1____scale__.1), metadata={op_name="jit(predict_step)/Model/Model.decode/decoder/EncDecBlock5/LayerNorm1/reshape" stack_frame_id=168}
  %mul.575 = f32[1,1,512]{2,1,0} broadcast(%reshape.219), dimensions={0,1,2}, metadata={op_name="jit(predict_step)/Model/Model.decode/decoder/EncDecBlock5/LayerNorm1/mul" stack_frame_id=167}
  %mul.576 = f32[512]{0} reshape(%mul.575), metadata={op_name="jit(predict_step)/Model/Model.decode/decoder/EncDecBlock5/LayerNorm1/mul" stack_frame_id=167}
  %mul.577 = f32[8,64,512]{2,1,0} broadcast(%mul.576), dimensions={2}, metadata={op_name="jit(predict_step)/Model/Model.decode/decoder/EncDecBlock5/LayerNorm1/mul" stack_frame_id=167}
  %mul.578 = f32[8,64,512]{2,1,0} multiply(%mul.574, %mul.577), metadata={op_name="jit(predict_step)/Model/Model.decode/decoder/EncDecBlock5/LayerNorm1/mul" stack_frame_id=167}
  %mul.579 = f32[8,64,512]{2,1,0} multiply(%sub.440, %mul.578), metadata={op_name="jit(predict_step)/Model/Model.decode/decoder/EncDecBlock5/LayerNorm1/mul" stack_frame_id=169}
  %params__decoder____EncDecBlock5____LayerNorm1____bias__.1 = f32[512]{0} parameter(95), metadata={op_name="params[\'decoder\'][\'EncDecBlock5\'][\'LayerNorm1\'][\'bias\']"}
  %reshape.220 = f32[1,1,512]{2,1,0} reshape(%params__decoder____EncDecBlock5____LayerNorm1____bias__.1), metadata={op_name="jit(predict_step)/Model/Model.decode/decoder/EncDecBlock5/LayerNorm1/reshape" stack_frame_id=170}
  %add.812 = f32[1,1,512]{2,1,0} broadcast(%reshape.220), dimensions={0,1,2}, metadata={op_name="jit(predict_step)/Model/Model.decode/decoder/EncDecBlock5/LayerNorm1/add" stack_frame_id=171}
  %add.813 = f32[512]{0} reshape(%add.812), metadata={op_name="jit(predict_step)/Model/Model.decode/decoder/EncDecBlock5/LayerNorm1/add" stack_frame_id=171}
  %add.814 = f32[8,64,512]{2,1,0} broadcast(%add.813), dimensions={2}, metadata={op_name="jit(predict_step)/Model/Model.decode/decoder/EncDecBlock5/LayerNorm1/add" stack_frame_id=171}
  %add.815 = f32[8,64,512]{2,1,0} add(%mul.579, %add.814), metadata={op_name="jit(predict_step)/Model/Model.decode/decoder/EncDecBlock5/LayerNorm1/add" stack_frame_id=171}
  %params__decoder____EncDecBlock5____SelfAttn____value____kernel__.1 = f32[512,8,64]{2,1,0} parameter(108), metadata={op_name="params[\'decoder\'][\'EncDecBlock5\'][\'SelfAttn\'][\'value\'][\'kernel\']"}
  %dot_general.253 = f32[8,64,8,64]{3,2,1,0} dot(%add.815, %params__decoder____EncDecBlock5____SelfAttn____value____kernel__.1), lhs_contracting_dims={2}, rhs_contracting_dims={0}, metadata={op_name="jit(predict_step)/Model/Model.decode/decoder/EncDecBlock5/SelfAttn/SelfAttn/value/dot_general" stack_frame_id=173}
  %params__decoder____EncDecBlock5____SelfAttn____query____kernel__.1 = f32[512,8,64]{2,1,0} parameter(107), metadata={op_name="params[\'decoder\'][\'EncDecBlock5\'][\'SelfAttn\'][\'query\'][\'kernel\']"}
  %dot_general.251 = f32[8,64,8,64]{3,2,1,0} dot(%add.815, %params__decoder____EncDecBlock5____SelfAttn____query____kernel__.1), lhs_contracting_dims={2}, rhs_contracting_dims={0}, metadata={op_name="jit(predict_step)/Model/Model.decode/decoder/EncDecBlock5/SelfAttn/SelfAttn/query/dot_general" stack_frame_id=181}
  %div.292 = f32[8,64,8,64]{3,2,1,0} divide(%dot_general.251, %broadcast.23), metadata={op_name="jit(predict_step)/Model/Model.decode/decoder/EncDecBlock5/SelfAttn/SelfAttn/div" stack_frame_id=182}
  %params__decoder____EncDecBlock5____SelfAttn____key____kernel__.1 = f32[512,8,64]{2,1,0} parameter(105), metadata={op_name="params[\'decoder\'][\'EncDecBlock5\'][\'SelfAttn\'][\'key\'][\'kernel\']"}
  %dot_general.252 = f32[8,64,8,64]{3,2,1,0} dot(%add.815, %params__decoder____EncDecBlock5____SelfAttn____key____kernel__.1), lhs_contracting_dims={2}, rhs_contracting_dims={0}, metadata={op_name="jit(predict_step)/Model/Model.decode/decoder/EncDecBlock5/SelfAttn/SelfAttn/key/dot_general" stack_frame_id=184}
  %dot_general.254 = f32[8,8,64,64]{3,2,1,0} dot(%div.292, %dot_general.252), lhs_batch_dims={0,2}, lhs_contracting_dims={3}, rhs_batch_dims={0,2}, rhs_contracting_dims={3}, metadata={op_name="jit(predict_step)/Model/Model.decode/decoder/EncDecBlock5/SelfAttn/SelfAttn/...qhd,...khd->...hqk/dot_general" stack_frame_id=185}
  %jit__where_.13 = f32[8,8,64,64]{3,2,1,0} call(%convert_element_type.1, %dot_general.254, %constant.54), to_apply=%_where_0.45, metadata={op_name="jit(predict_step)/Model/Model.decode/decoder/EncDecBlock5/SelfAttn/SelfAttn/jit(_where)" stack_frame_id=186}
  %reduce_max.142 = f32[8,8,64]{2,1,0} reduce(%jit__where_.13, %constant.56), dimensions={3}, to_apply=%region_91.96, metadata={op_name="jit(predict_step)/Model/Model.decode/decoder/EncDecBlock5/SelfAttn/SelfAttn/reduce_max" stack_frame_id=38}
  %max.95 = f32[8,8,64]{2,1,0} maximum(%reduce_max.142, %broadcast.22), metadata={op_name="jit(predict_step)/Model/Model.decode/decoder/EncDecBlock5/SelfAttn/SelfAttn/max" stack_frame_id=38}
  %broadcast_in_dim.210 = f32[8,8,64,1]{3,2,1,0} reshape(%max.95), metadata={op_name="jit(predict_step)/Model/Model.decode/decoder/EncDecBlock5/SelfAttn/SelfAttn/broadcast_in_dim" stack_frame_id=38}
  %sub.441 = f32[8,8,64,1]{3,2,1,0} broadcast(%broadcast_in_dim.210), dimensions={0,1,2,3}, metadata={op_name="jit(predict_step)/Model/Model.decode/decoder/EncDecBlock5/SelfAttn/SelfAttn/sub" stack_frame_id=38}
  %sub.442 = f32[8,8,64]{2,1,0} reshape(%sub.441), metadata={op_name="jit(predict_step)/Model/Model.decode/decoder/EncDecBlock5/SelfAttn/SelfAttn/sub" stack_frame_id=38}
  %sub.443 = f32[8,8,64,64]{3,2,1,0} broadcast(%sub.442), dimensions={0,1,2}, metadata={op_name="jit(predict_step)/Model/Model.decode/decoder/EncDecBlock5/SelfAttn/SelfAttn/sub" stack_frame_id=38}
  %sub.444 = f32[8,8,64,64]{3,2,1,0} subtract(%jit__where_.13, %sub.443), metadata={op_name="jit(predict_step)/Model/Model.decode/decoder/EncDecBlock5/SelfAttn/SelfAttn/sub" stack_frame_id=38}
  %exp.34 = f32[8,8,64,64]{3,2,1,0} exponential(%sub.444), metadata={op_name="jit(predict_step)/Model/Model.decode/decoder/EncDecBlock5/SelfAttn/SelfAttn/exp" stack_frame_id=38}
  %reduce_sum.648 = f32[8,8,64]{2,1,0} reduce(%exp.34, %constant.57), dimensions={3}, to_apply=%region_92.97, metadata={op_name="jit(predict_step)/Model/Model.decode/decoder/EncDecBlock5/SelfAttn/SelfAttn/reduce_sum" stack_frame_id=38}
  %broadcast_in_dim.211 = f32[8,8,64,1]{3,2,1,0} reshape(%reduce_sum.648), metadata={op_name="jit(predict_step)/Model/Model.decode/decoder/EncDecBlock5/SelfAttn/SelfAttn/broadcast_in_dim" stack_frame_id=38}
  %div.293 = f32[8,8,64,1]{3,2,1,0} broadcast(%broadcast_in_dim.211), dimensions={0,1,2,3}, metadata={op_name="jit(predict_step)/Model/Model.decode/decoder/EncDecBlock5/SelfAttn/SelfAttn/div" stack_frame_id=38}
  %div.294 = f32[8,8,64]{2,1,0} reshape(%div.293), metadata={op_name="jit(predict_step)/Model/Model.decode/decoder/EncDecBlock5/SelfAttn/SelfAttn/div" stack_frame_id=38}
  %div.295 = f32[8,8,64,64]{3,2,1,0} broadcast(%div.294), dimensions={0,1,2}, metadata={op_name="jit(predict_step)/Model/Model.decode/decoder/EncDecBlock5/SelfAttn/SelfAttn/div" stack_frame_id=38}
  %div.296 = f32[8,8,64,64]{3,2,1,0} divide(%exp.34, %div.295), metadata={op_name="jit(predict_step)/Model/Model.decode/decoder/EncDecBlock5/SelfAttn/SelfAttn/div" stack_frame_id=38}
  %dot_general.255 = f32[8,8,64,64]{3,2,1,0} dot(%dot_general.253, %div.296), lhs_batch_dims={0,2}, lhs_contracting_dims={1}, rhs_batch_dims={0,1}, rhs_contracting_dims={3}, metadata={op_name="jit(predict_step)/Model/Model.decode/decoder/EncDecBlock5/SelfAttn/SelfAttn/...hqk,...khd->...qhd/dot_general" stack_frame_id=187}
  %transpose.34 = f32[8,64,8,64]{1,3,2,0} transpose(%dot_general.255), dimensions={0,3,1,2}, metadata={op_name="jit(predict_step)/Model/Model.decode/decoder/EncDecBlock5/SelfAttn/SelfAttn/...hqk,...khd->...qhd/transpose" stack_frame_id=187}
  %params__decoder____EncDecBlock5____SelfAttn____out____kernel__.1 = f32[8,64,512]{2,1,0} parameter(106), metadata={op_name="params[\'decoder\'][\'EncDecBlock5\'][\'SelfAttn\'][\'out\'][\'kernel\']"}
  %dot_general.256 = f32[8,64,512]{2,1,0} dot(%transpose.34, %params__decoder____EncDecBlock5____SelfAttn____out____kernel__.1), lhs_contracting_dims={2,3}, rhs_contracting_dims={0,1}, metadata={op_name="jit(predict_step)/Model/Model.decode/decoder/EncDecBlock5/SelfAttn/SelfAttn/out/dot_general" stack_frame_id=189}
  %add.816 = f32[8,64,512]{2,1,0} add(%dot_general.256, %add.810), metadata={op_name="jit(predict_step)/Model/Model.decode/decoder/EncDecBlock5/add" stack_frame_id=190}
  %reduce_sum.649 = f32[8,64]{1,0} reduce(%add.816, %constant.57), dimensions={2}, to_apply=%region_93.98, metadata={op_name="jit(predict_step)/Model/Model.decode/decoder/EncDecBlock5/LayerNorm2/reduce_sum" stack_frame_id=43}
  %div.297 = f32[8,64]{1,0} divide(%reduce_sum.649, %broadcast.26), metadata={op_name="jit(predict_step)/Model/Model.decode/decoder/EncDecBlock5/LayerNorm2/div" stack_frame_id=43}
  %broadcast_in_dim.212 = f32[8,64,1]{2,1,0} reshape(%div.297), metadata={op_name="jit(predict_step)/Model/Model.decode/decoder/EncDecBlock5/LayerNorm2/broadcast_in_dim" stack_frame_id=192}
  %sub.446 = f32[8,64,1]{2,1,0} broadcast(%broadcast_in_dim.212), dimensions={0,1,2}, metadata={op_name="jit(predict_step)/Model/Model.decode/decoder/EncDecBlock5/LayerNorm2/sub" stack_frame_id=193}
  %sub.447 = f32[8,64]{1,0} reshape(%sub.446), metadata={op_name="jit(predict_step)/Model/Model.decode/decoder/EncDecBlock5/LayerNorm2/sub" stack_frame_id=193}
  %sub.448 = f32[8,64,512]{2,1,0} broadcast(%sub.447), dimensions={0,1}, metadata={op_name="jit(predict_step)/Model/Model.decode/decoder/EncDecBlock5/LayerNorm2/sub" stack_frame_id=193}
  %sub.449 = f32[8,64,512]{2,1,0} subtract(%add.816, %sub.448), metadata={op_name="jit(predict_step)/Model/Model.decode/decoder/EncDecBlock5/LayerNorm2/sub" stack_frame_id=193}
  %square.122 = f32[8,64,512]{2,1,0} multiply(%add.816, %add.816), metadata={op_name="jit(predict_step)/Model/Model.decode/decoder/EncDecBlock5/LayerNorm2/square" stack_frame_id=195}
  %reduce_sum.650 = f32[8,64]{1,0} reduce(%square.122, %constant.57), dimensions={2}, to_apply=%region_94.99, metadata={op_name="jit(predict_step)/Model/Model.decode/decoder/EncDecBlock5/LayerNorm2/reduce_sum" stack_frame_id=43}
  %div.298 = f32[8,64]{1,0} divide(%reduce_sum.650, %broadcast.26), metadata={op_name="jit(predict_step)/Model/Model.decode/decoder/EncDecBlock5/LayerNorm2/div" stack_frame_id=43}
  %square.123 = f32[8,64]{1,0} multiply(%div.297, %div.297), metadata={op_name="jit(predict_step)/Model/Model.decode/decoder/EncDecBlock5/LayerNorm2/square" stack_frame_id=197}
  %sub.445 = f32[8,64]{1,0} subtract(%div.298, %square.123), metadata={op_name="jit(predict_step)/Model/Model.decode/decoder/EncDecBlock5/LayerNorm2/sub" stack_frame_id=198}
  %max.96 = f32[8,64]{1,0} maximum(%sub.445, %broadcast.25), metadata={op_name="jit(predict_step)/Model/Model.decode/decoder/EncDecBlock5/LayerNorm2/max" stack_frame_id=199}
  %broadcast_in_dim.213 = f32[8,64,1]{2,1,0} reshape(%max.96), metadata={op_name="jit(predict_step)/Model/Model.decode/decoder/EncDecBlock5/LayerNorm2/broadcast_in_dim" stack_frame_id=200}
  %add.817 = f32[8,64,1]{2,1,0} add(%broadcast_in_dim.213, %broadcast.24), metadata={op_name="jit(predict_step)/Model/Model.decode/decoder/EncDecBlock5/LayerNorm2/add" stack_frame_id=201}
  %rsqrt.61 = f32[8,64,1]{2,1,0} rsqrt(%add.817), metadata={op_name="jit(predict_step)/Model/Model.decode/decoder/EncDecBlock5/LayerNorm2/rsqrt" stack_frame_id=202}
  %mul.580 = f32[8,64,1]{2,1,0} broadcast(%rsqrt.61), dimensions={0,1,2}, metadata={op_name="jit(predict_step)/Model/Model.decode/decoder/EncDecBlock5/LayerNorm2/mul" stack_frame_id=203}
  %mul.581 = f32[8,64]{1,0} reshape(%mul.580), metadata={op_name="jit(predict_step)/Model/Model.decode/decoder/EncDecBlock5/LayerNorm2/mul" stack_frame_id=203}
  %mul.582 = f32[8,64,512]{2,1,0} broadcast(%mul.581), dimensions={0,1}, metadata={op_name="jit(predict_step)/Model/Model.decode/decoder/EncDecBlock5/LayerNorm2/mul" stack_frame_id=203}
  %params__decoder____EncDecBlock5____LayerNorm2____scale__.1 = f32[512]{0} parameter(98), metadata={op_name="params[\'decoder\'][\'EncDecBlock5\'][\'LayerNorm2\'][\'scale\']"}
  %reshape.221 = f32[1,1,512]{2,1,0} reshape(%params__decoder____EncDecBlock5____LayerNorm2____scale__.1), metadata={op_name="jit(predict_step)/Model/Model.decode/decoder/EncDecBlock5/LayerNorm2/reshape" stack_frame_id=204}
  %mul.583 = f32[1,1,512]{2,1,0} broadcast(%reshape.221), dimensions={0,1,2}, metadata={op_name="jit(predict_step)/Model/Model.decode/decoder/EncDecBlock5/LayerNorm2/mul" stack_frame_id=203}
  %mul.584 = f32[512]{0} reshape(%mul.583), metadata={op_name="jit(predict_step)/Model/Model.decode/decoder/EncDecBlock5/LayerNorm2/mul" stack_frame_id=203}
  %mul.585 = f32[8,64,512]{2,1,0} broadcast(%mul.584), dimensions={2}, metadata={op_name="jit(predict_step)/Model/Model.decode/decoder/EncDecBlock5/LayerNorm2/mul" stack_frame_id=203}
  %mul.586 = f32[8,64,512]{2,1,0} multiply(%mul.582, %mul.585), metadata={op_name="jit(predict_step)/Model/Model.decode/decoder/EncDecBlock5/LayerNorm2/mul" stack_frame_id=203}
  %mul.587 = f32[8,64,512]{2,1,0} multiply(%sub.449, %mul.586), metadata={op_name="jit(predict_step)/Model/Model.decode/decoder/EncDecBlock5/LayerNorm2/mul" stack_frame_id=205}
  %params__decoder____EncDecBlock5____LayerNorm2____bias__.1 = f32[512]{0} parameter(97), metadata={op_name="params[\'decoder\'][\'EncDecBlock5\'][\'LayerNorm2\'][\'bias\']"}
  %reshape.222 = f32[1,1,512]{2,1,0} reshape(%params__decoder____EncDecBlock5____LayerNorm2____bias__.1), metadata={op_name="jit(predict_step)/Model/Model.decode/decoder/EncDecBlock5/LayerNorm2/reshape" stack_frame_id=206}
  %add.818 = f32[1,1,512]{2,1,0} broadcast(%reshape.222), dimensions={0,1,2}, metadata={op_name="jit(predict_step)/Model/Model.decode/decoder/EncDecBlock5/LayerNorm2/add" stack_frame_id=207}
  %add.819 = f32[512]{0} reshape(%add.818), metadata={op_name="jit(predict_step)/Model/Model.decode/decoder/EncDecBlock5/LayerNorm2/add" stack_frame_id=207}
  %add.820 = f32[8,64,512]{2,1,0} broadcast(%add.819), dimensions={2}, metadata={op_name="jit(predict_step)/Model/Model.decode/decoder/EncDecBlock5/LayerNorm2/add" stack_frame_id=207}
  %add.821 = f32[8,64,512]{2,1,0} add(%mul.587, %add.820), metadata={op_name="jit(predict_step)/Model/Model.decode/decoder/EncDecBlock5/LayerNorm2/add" stack_frame_id=207}
  %params__decoder____EncDecBlock5____CrossAttn____query____kernel__.1 = f32[512,8,64]{2,1,0} parameter(93), metadata={op_name="params[\'decoder\'][\'EncDecBlock5\'][\'CrossAttn\'][\'query\'][\'kernel\']"}
  %dot_general.257 = f32[8,64,8,64]{3,2,1,0} dot(%add.821, %params__decoder____EncDecBlock5____CrossAttn____query____kernel__.1), lhs_contracting_dims={2}, rhs_contracting_dims={0}, metadata={op_name="jit(predict_step)/Model/Model.decode/decoder/EncDecBlock5/CrossAttn/query/dot_general" stack_frame_id=209}
  %div.299 = f32[8,64,8,64]{3,2,1,0} divide(%dot_general.257, %broadcast.23), metadata={op_name="jit(predict_step)/Model/Model.decode/decoder/EncDecBlock5/CrossAttn/div" stack_frame_id=210}
  %params__decoder____EncDecBlock5____CrossAttn____key____kernel__.1 = f32[512,8,64]{2,1,0} parameter(91), metadata={op_name="params[\'decoder\'][\'EncDecBlock5\'][\'CrossAttn\'][\'key\'][\'kernel\']"}
  %dot_general.258 = f32[8,196,8,64]{3,2,1,0} dot(%add.666, %params__decoder____EncDecBlock5____CrossAttn____key____kernel__.1), lhs_contracting_dims={2}, rhs_contracting_dims={0}, metadata={op_name="jit(predict_step)/Model/Model.decode/decoder/EncDecBlock5/CrossAttn/key/dot_general" stack_frame_id=212}
  %dot_general.260 = f32[8,8,64,196]{3,2,1,0} dot(%div.299, %dot_general.258), lhs_batch_dims={0,2}, lhs_contracting_dims={3}, rhs_batch_dims={0,2}, rhs_contracting_dims={3}, metadata={op_name="jit(predict_step)/Model/Model.decode/decoder/EncDecBlock5/CrossAttn/...qhd,...khd->...hqk/dot_general" stack_frame_id=213}
  %reduce_max.143 = f32[8,8,64]{2,1,0} reduce(%dot_general.260, %constant.56), dimensions={3}, to_apply=%region_95.100, metadata={op_name="jit(predict_step)/Model/Model.decode/decoder/EncDecBlock5/CrossAttn/reduce_max" stack_frame_id=47}
  %max.97 = f32[8,8,64]{2,1,0} maximum(%reduce_max.143, %broadcast.22), metadata={op_name="jit(predict_step)/Model/Model.decode/decoder/EncDecBlock5/CrossAttn/max" stack_frame_id=47}
  %broadcast_in_dim.214 = f32[8,8,64,1]{3,2,1,0} reshape(%max.97), metadata={op_name="jit(predict_step)/Model/Model.decode/decoder/EncDecBlock5/CrossAttn/broadcast_in_dim" stack_frame_id=47}
  %sub.450 = f32[8,8,64,1]{3,2,1,0} broadcast(%broadcast_in_dim.214), dimensions={0,1,2,3}, metadata={op_name="jit(predict_step)/Model/Model.decode/decoder/EncDecBlock5/CrossAttn/sub" stack_frame_id=47}
  %sub.451 = f32[8,8,64]{2,1,0} reshape(%sub.450), metadata={op_name="jit(predict_step)/Model/Model.decode/decoder/EncDecBlock5/CrossAttn/sub" stack_frame_id=47}
  %sub.452 = f32[8,8,64,196]{3,2,1,0} broadcast(%sub.451), dimensions={0,1,2}, metadata={op_name="jit(predict_step)/Model/Model.decode/decoder/EncDecBlock5/CrossAttn/sub" stack_frame_id=47}
  %sub.453 = f32[8,8,64,196]{3,2,1,0} subtract(%dot_general.260, %sub.452), metadata={op_name="jit(predict_step)/Model/Model.decode/decoder/EncDecBlock5/CrossAttn/sub" stack_frame_id=47}
  %exp.35 = f32[8,8,64,196]{3,2,1,0} exponential(%sub.453), metadata={op_name="jit(predict_step)/Model/Model.decode/decoder/EncDecBlock5/CrossAttn/exp" stack_frame_id=47}
  %reduce_sum.651 = f32[8,8,64]{2,1,0} reduce(%exp.35, %constant.57), dimensions={3}, to_apply=%region_96.101, metadata={op_name="jit(predict_step)/Model/Model.decode/decoder/EncDecBlock5/CrossAttn/reduce_sum" stack_frame_id=47}
  %broadcast_in_dim.215 = f32[8,8,64,1]{3,2,1,0} reshape(%reduce_sum.651), metadata={op_name="jit(predict_step)/Model/Model.decode/decoder/EncDecBlock5/CrossAttn/broadcast_in_dim" stack_frame_id=47}
  %div.300 = f32[8,8,64,1]{3,2,1,0} broadcast(%broadcast_in_dim.215), dimensions={0,1,2,3}, metadata={op_name="jit(predict_step)/Model/Model.decode/decoder/EncDecBlock5/CrossAttn/div" stack_frame_id=47}
  %div.301 = f32[8,8,64]{2,1,0} reshape(%div.300), metadata={op_name="jit(predict_step)/Model/Model.decode/decoder/EncDecBlock5/CrossAttn/div" stack_frame_id=47}
  %div.302 = f32[8,8,64,196]{3,2,1,0} broadcast(%div.301), dimensions={0,1,2}, metadata={op_name="jit(predict_step)/Model/Model.decode/decoder/EncDecBlock5/CrossAttn/div" stack_frame_id=47}
  %div.303 = f32[8,8,64,196]{3,2,1,0} divide(%exp.35, %div.302), metadata={op_name="jit(predict_step)/Model/Model.decode/decoder/EncDecBlock5/CrossAttn/div" stack_frame_id=47}
  %dot_general.261 = f32[8,8,64,64]{3,2,1,0} dot(%dot_general.259, %div.303), lhs_batch_dims={0,2}, lhs_contracting_dims={1}, rhs_batch_dims={0,1}, rhs_contracting_dims={3}, metadata={op_name="jit(predict_step)/Model/Model.decode/decoder/EncDecBlock5/CrossAttn/...hqk,...khd->...qhd/dot_general" stack_frame_id=214}
  %transpose.35 = f32[8,64,8,64]{1,3,2,0} transpose(%dot_general.261), dimensions={0,3,1,2}, metadata={op_name="jit(predict_step)/Model/Model.decode/decoder/EncDecBlock5/CrossAttn/...hqk,...khd->...qhd/transpose" stack_frame_id=214}
  %params__decoder____EncDecBlock5____CrossAttn____out____kernel__.1 = f32[8,64,512]{2,1,0} parameter(92), metadata={op_name="params[\'decoder\'][\'EncDecBlock5\'][\'CrossAttn\'][\'out\'][\'kernel\']"}
  %dot_general.262 = f32[8,64,512]{2,1,0} dot(%transpose.35, %params__decoder____EncDecBlock5____CrossAttn____out____kernel__.1), lhs_contracting_dims={2,3}, rhs_contracting_dims={0,1}, metadata={op_name="jit(predict_step)/Model/Model.decode/decoder/EncDecBlock5/CrossAttn/out/dot_general" stack_frame_id=216}
  %add.822 = f32[8,64,512]{2,1,0} add(%dot_general.262, %add.816), metadata={op_name="jit(predict_step)/Model/Model.decode/decoder/EncDecBlock5/add" stack_frame_id=217}
  %reduce_sum.652 = f32[8,64]{1,0} reduce(%add.822, %constant.57), dimensions={2}, to_apply=%region_97.102, metadata={op_name="jit(predict_step)/Model/Model.decode/decoder/EncDecBlock5/LayerNorm3/reduce_sum" stack_frame_id=52}
  %div.304 = f32[8,64]{1,0} divide(%reduce_sum.652, %broadcast.26), metadata={op_name="jit(predict_step)/Model/Model.decode/decoder/EncDecBlock5/LayerNorm3/div" stack_frame_id=52}
  %broadcast_in_dim.216 = f32[8,64,1]{2,1,0} reshape(%div.304), metadata={op_name="jit(predict_step)/Model/Model.decode/decoder/EncDecBlock5/LayerNorm3/broadcast_in_dim" stack_frame_id=219}
  %sub.455 = f32[8,64,1]{2,1,0} broadcast(%broadcast_in_dim.216), dimensions={0,1,2}, metadata={op_name="jit(predict_step)/Model/Model.decode/decoder/EncDecBlock5/LayerNorm3/sub" stack_frame_id=220}
  %sub.456 = f32[8,64]{1,0} reshape(%sub.455), metadata={op_name="jit(predict_step)/Model/Model.decode/decoder/EncDecBlock5/LayerNorm3/sub" stack_frame_id=220}
  %sub.457 = f32[8,64,512]{2,1,0} broadcast(%sub.456), dimensions={0,1}, metadata={op_name="jit(predict_step)/Model/Model.decode/decoder/EncDecBlock5/LayerNorm3/sub" stack_frame_id=220}
  %sub.458 = f32[8,64,512]{2,1,0} subtract(%add.822, %sub.457), metadata={op_name="jit(predict_step)/Model/Model.decode/decoder/EncDecBlock5/LayerNorm3/sub" stack_frame_id=220}
  %square.124 = f32[8,64,512]{2,1,0} multiply(%add.822, %add.822), metadata={op_name="jit(predict_step)/Model/Model.decode/decoder/EncDecBlock5/LayerNorm3/square" stack_frame_id=222}
  %reduce_sum.653 = f32[8,64]{1,0} reduce(%square.124, %constant.57), dimensions={2}, to_apply=%region_98.103, metadata={op_name="jit(predict_step)/Model/Model.decode/decoder/EncDecBlock5/LayerNorm3/reduce_sum" stack_frame_id=52}
  %div.305 = f32[8,64]{1,0} divide(%reduce_sum.653, %broadcast.26), metadata={op_name="jit(predict_step)/Model/Model.decode/decoder/EncDecBlock5/LayerNorm3/div" stack_frame_id=52}
  %square.125 = f32[8,64]{1,0} multiply(%div.304, %div.304), metadata={op_name="jit(predict_step)/Model/Model.decode/decoder/EncDecBlock5/LayerNorm3/square" stack_frame_id=224}
  %sub.454 = f32[8,64]{1,0} subtract(%div.305, %square.125), metadata={op_name="jit(predict_step)/Model/Model.decode/decoder/EncDecBlock5/LayerNorm3/sub" stack_frame_id=225}
  %max.98 = f32[8,64]{1,0} maximum(%sub.454, %broadcast.25), metadata={op_name="jit(predict_step)/Model/Model.decode/decoder/EncDecBlock5/LayerNorm3/max" stack_frame_id=226}
  %broadcast_in_dim.217 = f32[8,64,1]{2,1,0} reshape(%max.98), metadata={op_name="jit(predict_step)/Model/Model.decode/decoder/EncDecBlock5/LayerNorm3/broadcast_in_dim" stack_frame_id=227}
  %add.823 = f32[8,64,1]{2,1,0} add(%broadcast_in_dim.217, %broadcast.24), metadata={op_name="jit(predict_step)/Model/Model.decode/decoder/EncDecBlock5/LayerNorm3/add" stack_frame_id=228}
  %rsqrt.62 = f32[8,64,1]{2,1,0} rsqrt(%add.823), metadata={op_name="jit(predict_step)/Model/Model.decode/decoder/EncDecBlock5/LayerNorm3/rsqrt" stack_frame_id=229}
  %mul.588 = f32[8,64,1]{2,1,0} broadcast(%rsqrt.62), dimensions={0,1,2}, metadata={op_name="jit(predict_step)/Model/Model.decode/decoder/EncDecBlock5/LayerNorm3/mul" stack_frame_id=230}
  %mul.589 = f32[8,64]{1,0} reshape(%mul.588), metadata={op_name="jit(predict_step)/Model/Model.decode/decoder/EncDecBlock5/LayerNorm3/mul" stack_frame_id=230}
  %mul.590 = f32[8,64,512]{2,1,0} broadcast(%mul.589), dimensions={0,1}, metadata={op_name="jit(predict_step)/Model/Model.decode/decoder/EncDecBlock5/LayerNorm3/mul" stack_frame_id=230}
  %params__decoder____EncDecBlock5____LayerNorm3____scale__.1 = f32[512]{0} parameter(100), metadata={op_name="params[\'decoder\'][\'EncDecBlock5\'][\'LayerNorm3\'][\'scale\']"}
  %reshape.223 = f32[1,1,512]{2,1,0} reshape(%params__decoder____EncDecBlock5____LayerNorm3____scale__.1), metadata={op_name="jit(predict_step)/Model/Model.decode/decoder/EncDecBlock5/LayerNorm3/reshape" stack_frame_id=231}
  %mul.591 = f32[1,1,512]{2,1,0} broadcast(%reshape.223), dimensions={0,1,2}, metadata={op_name="jit(predict_step)/Model/Model.decode/decoder/EncDecBlock5/LayerNorm3/mul" stack_frame_id=230}
  %mul.592 = f32[512]{0} reshape(%mul.591), metadata={op_name="jit(predict_step)/Model/Model.decode/decoder/EncDecBlock5/LayerNorm3/mul" stack_frame_id=230}
  %mul.593 = f32[8,64,512]{2,1,0} broadcast(%mul.592), dimensions={2}, metadata={op_name="jit(predict_step)/Model/Model.decode/decoder/EncDecBlock5/LayerNorm3/mul" stack_frame_id=230}
  %mul.594 = f32[8,64,512]{2,1,0} multiply(%mul.590, %mul.593), metadata={op_name="jit(predict_step)/Model/Model.decode/decoder/EncDecBlock5/LayerNorm3/mul" stack_frame_id=230}
  %mul.595 = f32[8,64,512]{2,1,0} multiply(%sub.458, %mul.594), metadata={op_name="jit(predict_step)/Model/Model.decode/decoder/EncDecBlock5/LayerNorm3/mul" stack_frame_id=232}
  %params__decoder____EncDecBlock5____LayerNorm3____bias__.1 = f32[512]{0} parameter(99), metadata={op_name="params[\'decoder\'][\'EncDecBlock5\'][\'LayerNorm3\'][\'bias\']"}
  %reshape.224 = f32[1,1,512]{2,1,0} reshape(%params__decoder____EncDecBlock5____LayerNorm3____bias__.1), metadata={op_name="jit(predict_step)/Model/Model.decode/decoder/EncDecBlock5/LayerNorm3/reshape" stack_frame_id=233}
  %add.824 = f32[1,1,512]{2,1,0} broadcast(%reshape.224), dimensions={0,1,2}, metadata={op_name="jit(predict_step)/Model/Model.decode/decoder/EncDecBlock5/LayerNorm3/add" stack_frame_id=234}
  %add.825 = f32[512]{0} reshape(%add.824), metadata={op_name="jit(predict_step)/Model/Model.decode/decoder/EncDecBlock5/LayerNorm3/add" stack_frame_id=234}
  %add.826 = f32[8,64,512]{2,1,0} broadcast(%add.825), dimensions={2}, metadata={op_name="jit(predict_step)/Model/Model.decode/decoder/EncDecBlock5/LayerNorm3/add" stack_frame_id=234}
  %add.827 = f32[8,64,512]{2,1,0} add(%mul.595, %add.826), metadata={op_name="jit(predict_step)/Model/Model.decode/decoder/EncDecBlock5/LayerNorm3/add" stack_frame_id=234}
  %params__decoder____EncDecBlock5____MLP____Dense_0____kernel__.1 = f32[512,2048]{1,0} parameter(102), metadata={op_name="params[\'decoder\'][\'EncDecBlock5\'][\'MLP\'][\'Dense_0\'][\'kernel\']"}
  %dot_general.263 = f32[8,64,2048]{2,1,0} dot(%add.827, %params__decoder____EncDecBlock5____MLP____Dense_0____kernel__.1), lhs_contracting_dims={2}, rhs_contracting_dims={0}, metadata={op_name="jit(predict_step)/Model/Model.decode/decoder/EncDecBlock5/MLP/Dense_0/dot_general" stack_frame_id=237}
  %params__decoder____EncDecBlock5____MLP____Dense_0____bias__.1 = f32[2048]{0} parameter(101), metadata={op_name="params[\'decoder\'][\'EncDecBlock5\'][\'MLP\'][\'Dense_0\'][\'bias\']"}
  %reshape.225 = f32[1,1,2048]{2,1,0} reshape(%params__decoder____EncDecBlock5____MLP____Dense_0____bias__.1), metadata={op_name="jit(predict_step)/Model/Model.decode/decoder/EncDecBlock5/MLP/Dense_0/reshape" stack_frame_id=238}
  %add.828 = f32[1,1,2048]{2,1,0} broadcast(%reshape.225), dimensions={0,1,2}, metadata={op_name="jit(predict_step)/Model/Model.decode/decoder/EncDecBlock5/MLP/Dense_0/add" stack_frame_id=239}
  %add.829 = f32[2048]{0} reshape(%add.828), metadata={op_name="jit(predict_step)/Model/Model.decode/decoder/EncDecBlock5/MLP/Dense_0/add" stack_frame_id=239}
  %add.830 = f32[8,64,2048]{2,1,0} broadcast(%add.829), dimensions={2}, metadata={op_name="jit(predict_step)/Model/Model.decode/decoder/EncDecBlock5/MLP/Dense_0/add" stack_frame_id=239}
  %add.831 = f32[8,64,2048]{2,1,0} add(%dot_general.263, %add.830), metadata={op_name="jit(predict_step)/Model/Model.decode/decoder/EncDecBlock5/MLP/Dense_0/add" stack_frame_id=239}
  %integer_pow.46 = f32[8,64,2048]{2,1,0} multiply(%add.831, %add.831), metadata={op_name="jit(predict_step)/Model/Model.decode/decoder/EncDecBlock5/MLP/integer_pow" stack_frame_id=240}
  %integer_pow.47 = f32[8,64,2048]{2,1,0} multiply(%integer_pow.46, %add.831), metadata={op_name="jit(predict_step)/Model/Model.decode/decoder/EncDecBlock5/MLP/integer_pow" stack_frame_id=240}
  %mul.596 = f32[8,64,2048]{2,1,0} multiply(%integer_pow.47, %broadcast.21), metadata={op_name="jit(predict_step)/Model/Model.decode/decoder/EncDecBlock5/MLP/mul" stack_frame_id=240}
  %add.832 = f32[8,64,2048]{2,1,0} add(%add.831, %mul.596), metadata={op_name="jit(predict_step)/Model/Model.decode/decoder/EncDecBlock5/MLP/add" stack_frame_id=240}
  %mul.597 = f32[8,64,2048]{2,1,0} multiply(%add.832, %broadcast.20), metadata={op_name="jit(predict_step)/Model/Model.decode/decoder/EncDecBlock5/MLP/mul" stack_frame_id=240}
  %tanh.23 = f32[8,64,2048]{2,1,0} tanh(%mul.597), metadata={op_name="jit(predict_step)/Model/Model.decode/decoder/EncDecBlock5/MLP/tanh" stack_frame_id=240}
  %add.833 = f32[8,64,2048]{2,1,0} add(%tanh.23, %broadcast.19), metadata={op_name="jit(predict_step)/Model/Model.decode/decoder/EncDecBlock5/MLP/add" stack_frame_id=240}
  %mul.598 = f32[8,64,2048]{2,1,0} multiply(%add.833, %broadcast.18), metadata={op_name="jit(predict_step)/Model/Model.decode/decoder/EncDecBlock5/MLP/mul" stack_frame_id=240}
  %mul.599 = f32[8,64,2048]{2,1,0} multiply(%add.831, %mul.598), metadata={op_name="jit(predict_step)/Model/Model.decode/decoder/EncDecBlock5/MLP/mul" stack_frame_id=240}
  %params__decoder____EncDecBlock5____MLP____Dense_1____kernel__.1 = f32[2048,512]{1,0} parameter(104), metadata={op_name="params[\'decoder\'][\'EncDecBlock5\'][\'MLP\'][\'Dense_1\'][\'kernel\']"}
  %dot_general.264 = f32[8,64,512]{2,1,0} dot(%mul.599, %params__decoder____EncDecBlock5____MLP____Dense_1____kernel__.1), lhs_contracting_dims={2}, rhs_contracting_dims={0}, metadata={op_name="jit(predict_step)/Model/Model.decode/decoder/EncDecBlock5/MLP/Dense_1/dot_general" stack_frame_id=242}
  %params__decoder____EncDecBlock5____MLP____Dense_1____bias__.1 = f32[512]{0} parameter(103), metadata={op_name="params[\'decoder\'][\'EncDecBlock5\'][\'MLP\'][\'Dense_1\'][\'bias\']"}
  %reshape.226 = f32[1,1,512]{2,1,0} reshape(%params__decoder____EncDecBlock5____MLP____Dense_1____bias__.1), metadata={op_name="jit(predict_step)/Model/Model.decode/decoder/EncDecBlock5/MLP/Dense_1/reshape" stack_frame_id=243}
  %add.834 = f32[1,1,512]{2,1,0} broadcast(%reshape.226), dimensions={0,1,2}, metadata={op_name="jit(predict_step)/Model/Model.decode/decoder/EncDecBlock5/MLP/Dense_1/add" stack_frame_id=244}
  %add.835 = f32[512]{0} reshape(%add.834), metadata={op_name="jit(predict_step)/Model/Model.decode/decoder/EncDecBlock5/MLP/Dense_1/add" stack_frame_id=244}
  %add.836 = f32[8,64,512]{2,1,0} broadcast(%add.835), dimensions={2}, metadata={op_name="jit(predict_step)/Model/Model.decode/decoder/EncDecBlock5/MLP/Dense_1/add" stack_frame_id=244}
  %add.837 = f32[8,64,512]{2,1,0} add(%dot_general.264, %add.836), metadata={op_name="jit(predict_step)/Model/Model.decode/decoder/EncDecBlock5/MLP/Dense_1/add" stack_frame_id=244}
  %add.838 = f32[8,64,512]{2,1,0} add(%add.822, %add.837), metadata={op_name="jit(predict_step)/Model/Model.decode/decoder/EncDecBlock5/add" stack_frame_id=245}
  %reduce_sum.654 = f32[8,64]{1,0} reduce(%add.838, %constant.57), dimensions={2}, to_apply=%region_99.104, metadata={op_name="jit(predict_step)/Model/Model.decode/decoder/LayerNorm/reduce_sum" stack_frame_id=57}
  %div.306 = f32[8,64]{1,0} divide(%reduce_sum.654, %broadcast.26), metadata={op_name="jit(predict_step)/Model/Model.decode/decoder/LayerNorm/div" stack_frame_id=57}
  %broadcast_in_dim.218 = f32[8,64,1]{2,1,0} reshape(%div.306), metadata={op_name="jit(predict_step)/Model/Model.decode/decoder/LayerNorm/broadcast_in_dim" stack_frame_id=247}
  %sub.460 = f32[8,64,1]{2,1,0} broadcast(%broadcast_in_dim.218), dimensions={0,1,2}, metadata={op_name="jit(predict_step)/Model/Model.decode/decoder/LayerNorm/sub" stack_frame_id=248}
  %sub.461 = f32[8,64]{1,0} reshape(%sub.460), metadata={op_name="jit(predict_step)/Model/Model.decode/decoder/LayerNorm/sub" stack_frame_id=248}
  %sub.462 = f32[8,64,512]{2,1,0} broadcast(%sub.461), dimensions={0,1}, metadata={op_name="jit(predict_step)/Model/Model.decode/decoder/LayerNorm/sub" stack_frame_id=248}
  %sub.463 = f32[8,64,512]{2,1,0} subtract(%add.838, %sub.462), metadata={op_name="jit(predict_step)/Model/Model.decode/decoder/LayerNorm/sub" stack_frame_id=248}
  %square.126 = f32[8,64,512]{2,1,0} multiply(%add.838, %add.838), metadata={op_name="jit(predict_step)/Model/Model.decode/decoder/LayerNorm/square" stack_frame_id=250}
  %reduce_sum.655 = f32[8,64]{1,0} reduce(%square.126, %constant.57), dimensions={2}, to_apply=%region_100.105, metadata={op_name="jit(predict_step)/Model/Model.decode/decoder/LayerNorm/reduce_sum" stack_frame_id=57}
  %div.307 = f32[8,64]{1,0} divide(%reduce_sum.655, %broadcast.26), metadata={op_name="jit(predict_step)/Model/Model.decode/decoder/LayerNorm/div" stack_frame_id=57}
  %square.127 = f32[8,64]{1,0} multiply(%div.306, %div.306), metadata={op_name="jit(predict_step)/Model/Model.decode/decoder/LayerNorm/square" stack_frame_id=252}
  %sub.459 = f32[8,64]{1,0} subtract(%div.307, %square.127), metadata={op_name="jit(predict_step)/Model/Model.decode/decoder/LayerNorm/sub" stack_frame_id=253}
  %max.99 = f32[8,64]{1,0} maximum(%sub.459, %broadcast.25), metadata={op_name="jit(predict_step)/Model/Model.decode/decoder/LayerNorm/max" stack_frame_id=254}
  %broadcast_in_dim.219 = f32[8,64,1]{2,1,0} reshape(%max.99), metadata={op_name="jit(predict_step)/Model/Model.decode/decoder/LayerNorm/broadcast_in_dim" stack_frame_id=255}
  %add.839 = f32[8,64,1]{2,1,0} add(%broadcast_in_dim.219, %broadcast.24), metadata={op_name="jit(predict_step)/Model/Model.decode/decoder/LayerNorm/add" stack_frame_id=256}
  %rsqrt.63 = f32[8,64,1]{2,1,0} rsqrt(%add.839), metadata={op_name="jit(predict_step)/Model/Model.decode/decoder/LayerNorm/rsqrt" stack_frame_id=257}
  %mul.600 = f32[8,64,1]{2,1,0} broadcast(%rsqrt.63), dimensions={0,1,2}, metadata={op_name="jit(predict_step)/Model/Model.decode/decoder/LayerNorm/mul" stack_frame_id=258}
  %mul.601 = f32[8,64]{1,0} reshape(%mul.600), metadata={op_name="jit(predict_step)/Model/Model.decode/decoder/LayerNorm/mul" stack_frame_id=258}
  %mul.602 = f32[8,64,512]{2,1,0} broadcast(%mul.601), dimensions={0,1}, metadata={op_name="jit(predict_step)/Model/Model.decode/decoder/LayerNorm/mul" stack_frame_id=258}
  %params__decoder____LayerNorm____scale__.1 = f32[512]{0} parameter(110), metadata={op_name="params[\'decoder\'][\'LayerNorm\'][\'scale\']"}
  %reshape.227 = f32[1,1,512]{2,1,0} reshape(%params__decoder____LayerNorm____scale__.1), metadata={op_name="jit(predict_step)/Model/Model.decode/decoder/LayerNorm/reshape" stack_frame_id=259}
  %mul.603 = f32[1,1,512]{2,1,0} broadcast(%reshape.227), dimensions={0,1,2}, metadata={op_name="jit(predict_step)/Model/Model.decode/decoder/LayerNorm/mul" stack_frame_id=258}
  %mul.604 = f32[512]{0} reshape(%mul.603), metadata={op_name="jit(predict_step)/Model/Model.decode/decoder/LayerNorm/mul" stack_frame_id=258}
  %mul.605 = f32[8,64,512]{2,1,0} broadcast(%mul.604), dimensions={2}, metadata={op_name="jit(predict_step)/Model/Model.decode/decoder/LayerNorm/mul" stack_frame_id=258}
  %mul.606 = f32[8,64,512]{2,1,0} multiply(%mul.602, %mul.605), metadata={op_name="jit(predict_step)/Model/Model.decode/decoder/LayerNorm/mul" stack_frame_id=258}
  %mul.607 = f32[8,64,512]{2,1,0} multiply(%sub.463, %mul.606), metadata={op_name="jit(predict_step)/Model/Model.decode/decoder/LayerNorm/mul" stack_frame_id=260}
  %params__decoder____LayerNorm____bias__.1 = f32[512]{0} parameter(109), metadata={op_name="params[\'decoder\'][\'LayerNorm\'][\'bias\']"}
  %reshape.228 = f32[1,1,512]{2,1,0} reshape(%params__decoder____LayerNorm____bias__.1), metadata={op_name="jit(predict_step)/Model/Model.decode/decoder/LayerNorm/reshape" stack_frame_id=261}
  %add.840 = f32[1,1,512]{2,1,0} broadcast(%reshape.228), dimensions={0,1,2}, metadata={op_name="jit(predict_step)/Model/Model.decode/decoder/LayerNorm/add" stack_frame_id=262}
  %add.841 = f32[512]{0} reshape(%add.840), metadata={op_name="jit(predict_step)/Model/Model.decode/decoder/LayerNorm/add" stack_frame_id=262}
  %add.842 = f32[8,64,512]{2,1,0} broadcast(%add.841), dimensions={2}, metadata={op_name="jit(predict_step)/Model/Model.decode/decoder/LayerNorm/add" stack_frame_id=262}
  %add.843 = f32[8,64,512]{2,1,0} add(%mul.607, %add.842), metadata={op_name="jit(predict_step)/Model/Model.decode/decoder/LayerNorm/add" stack_frame_id=262}
  %params__decoder____LogitsDense____kernel__.1 = f32[512,32000]{1,0} parameter(112), metadata={op_name="params[\'decoder\'][\'LogitsDense\'][\'kernel\']"}
  %dot_general.265 = f32[8,64,32000]{2,1,0} dot(%add.843, %params__decoder____LogitsDense____kernel__.1), lhs_contracting_dims={2}, rhs_contracting_dims={0}, metadata={op_name="jit(predict_step)/Model/Model.decode/decoder/LogitsDense/dot_general" stack_frame_id=264}
  %params__decoder____LogitsDense____bias__.1 = f32[32000]{0} parameter(111), metadata={op_name="params[\'decoder\'][\'LogitsDense\'][\'bias\']"}
  %reshape.229 = f32[1,1,32000]{2,1,0} reshape(%params__decoder____LogitsDense____bias__.1), metadata={op_name="jit(predict_step)/Model/Model.decode/decoder/LogitsDense/reshape" stack_frame_id=265}
  %add.844 = f32[1,1,32000]{2,1,0} broadcast(%reshape.229), dimensions={0,1,2}, metadata={op_name="jit(predict_step)/Model/Model.decode/decoder/LogitsDense/add" stack_frame_id=266}
  %add.845 = f32[32000]{0} reshape(%add.844), metadata={op_name="jit(predict_step)/Model/Model.decode/decoder/LogitsDense/add" stack_frame_id=266}
  %add.846 = f32[8,64,32000]{2,1,0} broadcast(%add.845), dimensions={2}, metadata={op_name="jit(predict_step)/Model/Model.decode/decoder/LogitsDense/add" stack_frame_id=266}
  ROOT %add.847 = f32[8,64,32000]{2,1,0} add(%dot_general.265, %add.846), metadata={op_name="jit(predict_step)/Model/Model.decode/decoder/LogitsDense/add" stack_frame_id=266}
}

