HloModule jit_train_step, entry_computation_layout={(s32[], f32[64]{0}, f32[64]{0}, f32[128]{0}, f32[128]{0}, /*index=5*/f32[256]{0}, f32[256]{0}, f32[512]{0}, f32[512]{0}, f32[512]{0}, /*index=10*/f32[512]{0}, f32[3,3,3,64]{3,2,1,0}, f32[3,3,64,128]{3,2,1,0}, f32[3,3,128,256]{3,2,1,0}, f32[3,3,256,512]{3,2,1,0}, /*index=15*/f32[3,3,512,512]{3,2,1,0}, f32[256]{0}, f32[1,1,512,256]{3,2,1,0}, f32[2048]{0}, f32[256,2048]{1,0}, /*index=20*/f32[256]{0}, f32[2048,256]{1,0}, f32[256]{0}, f32[256]{0}, f32[256]{0}, /*index=25*/f32[256]{0}, f32[256]{0}, f32[256]{0}, f32[8,32]{1,0}, f32[256,8,32]{2,1,0}, /*index=30*/f32[256]{0}, f32[8,32,256]{2,1,0}, f32[8,32]{1,0}, f32[256,8,32]{2,1,0}, f32[8,32]{1,0}, /*index=35*/f32[256,8,32]{2,1,0}, f32[8,32]{1,0}, f32[256,8,32]{2,1,0}, f32[256]{0}, f32[8,32,256]{2,1,0}, /*index=40*/f32[8,32]{1,0}, f32[256,8,32]{2,1,0}, f32[8,32]{1,0}, f32[256,8,32]{2,1,0}, f32[2048]{0}, /*index=45*/f32[256,2048]{1,0}, f32[256]{0}, f32[2048,256]{1,0}, f32[256]{0}, f32[256]{0}, /*index=50*/f32[256]{0}, f32[256]{0}, f32[256]{0}, f32[256]{0}, f32[8,32]{1,0}, /*index=55*/f32[256,8,32]{2,1,0}, f32[256]{0}, f32[8,32,256]{2,1,0}, f32[8,32]{1,0}, f32[256,8,32]{2,1,0}, /*index=60*/f32[8,32]{1,0}, f32[256,8,32]{2,1,0}, f32[8,32]{1,0}, f32[256,8,32]{2,1,0}, f32[256]{0}, /*index=65*/f32[8,32,256]{2,1,0}, f32[8,32]{1,0}, f32[256,8,32]{2,1,0}, f32[8,32]{1,0}, f32[256,8,32]{2,1,0}, /*index=70*/f32[2048]{0}, f32[256,2048]{1,0}, f32[256]{0}, f32[2048,256]{1,0}, f32[256]{0}, /*index=75*/f32[256]{0}, f32[256]{0}, f32[256]{0}, f32[256]{0}, f32[256]{0}, /*index=80*/f32[8,32]{1,0}, f32[256,8,32]{2,1,0}, f32[256]{0}, f32[8,32,256]{2,1,0}, f32[8,32]{1,0}, /*index=85*/f32[256,8,32]{2,1,0}, f32[8,32]{1,0}, f32[256,8,32]{2,1,0}, f32[8,32]{1,0}, f32[256,8,32]{2,1,0}, /*index=90*/f32[256]{0}, f32[8,32,256]{2,1,0}, f32[8,32]{1,0}, f32[256,8,32]{2,1,0}, f32[8,32]{1,0}, /*index=95*/f32[256,8,32]{2,1,0}, f32[2048]{0}, f32[256,2048]{1,0}, f32[256]{0}, f32[2048,256]{1,0}, /*index=100*/f32[256]{0}, f32[256]{0}, f32[256]{0}, f32[256]{0}, f32[256]{0}, /*index=105*/f32[256]{0}, f32[8,32]{1,0}, f32[256,8,32]{2,1,0}, f32[256]{0}, f32[8,32,256]{2,1,0}, /*index=110*/f32[8,32]{1,0}, f32[256,8,32]{2,1,0}, f32[8,32]{1,0}, f32[256,8,32]{2,1,0}, f32[8,32]{1,0}, /*index=115*/f32[256,8,32]{2,1,0}, f32[256]{0}, f32[8,32,256]{2,1,0}, f32[8,32]{1,0}, f32[256,8,32]{2,1,0}, /*index=120*/f32[8,32]{1,0}, f32[256,8,32]{2,1,0}, f32[2048]{0}, f32[256,2048]{1,0}, f32[256]{0}, /*index=125*/f32[2048,256]{1,0}, f32[256]{0}, f32[256]{0}, f32[256]{0}, f32[256]{0}, /*index=130*/f32[256]{0}, f32[256]{0}, f32[8,32]{1,0}, f32[256,8,32]{2,1,0}, f32[256]{0}, /*index=135*/f32[8,32,256]{2,1,0}, f32[8,32]{1,0}, f32[256,8,32]{2,1,0}, f32[8,32]{1,0}, f32[256,8,32]{2,1,0}, /*index=140*/f32[8,32]{1,0}, f32[256,8,32]{2,1,0}, f32[256]{0}, f32[8,32,256]{2,1,0}, f32[8,32]{1,0}, /*index=145*/f32[256,8,32]{2,1,0}, f32[8,32]{1,0}, f32[256,8,32]{2,1,0}, f32[2048]{0}, f32[256,2048]{1,0}, /*index=150*/f32[256]{0}, f32[2048,256]{1,0}, f32[256]{0}, f32[256]{0}, f32[256]{0}, /*index=155*/f32[256]{0}, f32[256]{0}, f32[256]{0}, f32[8,32]{1,0}, f32[256,8,32]{2,1,0}, /*index=160*/f32[256]{0}, f32[8,32,256]{2,1,0}, f32[8,32]{1,0}, f32[256,8,32]{2,1,0}, f32[8,32]{1,0}, /*index=165*/f32[256,8,32]{2,1,0}, f32[8,32]{1,0}, f32[256,8,32]{2,1,0}, f32[256]{0}, f32[8,32,256]{2,1,0}, /*index=170*/f32[8,32]{1,0}, f32[256,8,32]{2,1,0}, f32[8,32]{1,0}, f32[256,8,32]{2,1,0}, f32[92]{0}, /*index=175*/f32[256,92]{1,0}, f32[256]{0}, f32[256,256]{1,0}, f32[256]{0}, f32[256,256]{1,0}, /*index=180*/f32[4]{0}, f32[256,4]{1,0}, f32[2048]{0}, f32[256,2048]{1,0}, f32[256]{0}, /*index=185*/f32[2048,256]{1,0}, f32[256]{0}, f32[256]{0}, f32[256]{0}, f32[256]{0}, /*index=190*/f32[8,32]{1,0}, f32[256,8,32]{2,1,0}, f32[256]{0}, f32[8,32,256]{2,1,0}, f32[8,32]{1,0}, /*index=195*/f32[256,8,32]{2,1,0}, f32[8,32]{1,0}, f32[256,8,32]{2,1,0}, f32[2048]{0}, f32[256,2048]{1,0}, /*index=200*/f32[256]{0}, f32[2048,256]{1,0}, f32[256]{0}, f32[256]{0}, f32[256]{0}, /*index=205*/f32[256]{0}, f32[8,32]{1,0}, f32[256,8,32]{2,1,0}, f32[256]{0}, f32[8,32,256]{2,1,0}, /*index=210*/f32[8,32]{1,0}, f32[256,8,32]{2,1,0}, f32[8,32]{1,0}, f32[256,8,32]{2,1,0}, f32[2048]{0}, /*index=215*/f32[256,2048]{1,0}, f32[256]{0}, f32[2048,256]{1,0}, f32[256]{0}, f32[256]{0}, /*index=220*/f32[256]{0}, f32[256]{0}, f32[8,32]{1,0}, f32[256,8,32]{2,1,0}, f32[256]{0}, /*index=225*/f32[8,32,256]{2,1,0}, f32[8,32]{1,0}, f32[256,8,32]{2,1,0}, f32[8,32]{1,0}, f32[256,8,32]{2,1,0}, /*index=230*/f32[2048]{0}, f32[256,2048]{1,0}, f32[256]{0}, f32[2048,256]{1,0}, f32[256]{0}, /*index=235*/f32[256]{0}, f32[256]{0}, f32[256]{0}, f32[8,32]{1,0}, f32[256,8,32]{2,1,0}, /*index=240*/f32[256]{0}, f32[8,32,256]{2,1,0}, f32[8,32]{1,0}, f32[256,8,32]{2,1,0}, f32[8,32]{1,0}, /*index=245*/f32[256,8,32]{2,1,0}, f32[2048]{0}, f32[256,2048]{1,0}, f32[256]{0}, f32[2048,256]{1,0}, /*index=250*/f32[256]{0}, f32[256]{0}, f32[256]{0}, f32[256]{0}, f32[8,32]{1,0}, /*index=255*/f32[256,8,32]{2,1,0}, f32[256]{0}, f32[8,32,256]{2,1,0}, f32[8,32]{1,0}, f32[256,8,32]{2,1,0}, /*index=260*/f32[8,32]{1,0}, f32[256,8,32]{2,1,0}, f32[2048]{0}, f32[256,2048]{1,0}, f32[256]{0}, /*index=265*/f32[2048,256]{1,0}, f32[256]{0}, f32[256]{0}, f32[256]{0}, f32[256]{0}, /*index=270*/f32[8,32]{1,0}, f32[256,8,32]{2,1,0}, f32[256]{0}, f32[8,32,256]{2,1,0}, f32[8,32]{1,0}, /*index=275*/f32[256,8,32]{2,1,0}, f32[8,32]{1,0}, f32[256,8,32]{2,1,0}, f32[100,256]{1,0}, s32[], /*index=280*/f32[64]{0}, f32[64]{0}, f32[128]{0}, f32[128]{0}, f32[256]{0}, /*index=285*/f32[256]{0}, f32[512]{0}, f32[512]{0}, f32[512]{0}, f32[512]{0}, /*index=290*/f32[3,3,3,64]{3,2,1,0}, f32[3,3,64,128]{3,2,1,0}, f32[3,3,128,256]{3,2,1,0}, f32[3,3,256,512]{3,2,1,0}, f32[3,3,512,512]{3,2,1,0}, /*index=295*/f32[256]{0}, f32[1,1,512,256]{3,2,1,0}, f32[2048]{0}, f32[256,2048]{1,0}, f32[256]{0}, /*index=300*/f32[2048,256]{1,0}, f32[256]{0}, f32[256]{0}, f32[256]{0}, f32[256]{0}, /*index=305*/f32[256]{0}, f32[256]{0}, f32[8,32]{1,0}, f32[256,8,32]{2,1,0}, f32[256]{0}, /*index=310*/f32[8,32,256]{2,1,0}, f32[8,32]{1,0}, f32[256,8,32]{2,1,0}, f32[8,32]{1,0}, f32[256,8,32]{2,1,0}, /*index=315*/f32[8,32]{1,0}, f32[256,8,32]{2,1,0}, f32[256]{0}, f32[8,32,256]{2,1,0}, f32[8,32]{1,0}, /*index=320*/f32[256,8,32]{2,1,0}, f32[8,32]{1,0}, f32[256,8,32]{2,1,0}, f32[2048]{0}, f32[256,2048]{1,0}, /*index=325*/f32[256]{0}, f32[2048,256]{1,0}, f32[256]{0}, f32[256]{0}, f32[256]{0}, /*index=330*/f32[256]{0}, f32[256]{0}, f32[256]{0}, f32[8,32]{1,0}, f32[256,8,32]{2,1,0}, /*index=335*/f32[256]{0}, f32[8,32,256]{2,1,0}, f32[8,32]{1,0}, f32[256,8,32]{2,1,0}, f32[8,32]{1,0}, /*index=340*/f32[256,8,32]{2,1,0}, f32[8,32]{1,0}, f32[256,8,32]{2,1,0}, f32[256]{0}, f32[8,32,256]{2,1,0}, /*index=345*/f32[8,32]{1,0}, f32[256,8,32]{2,1,0}, f32[8,32]{1,0}, f32[256,8,32]{2,1,0}, f32[2048]{0}, /*index=350*/f32[256,2048]{1,0}, f32[256]{0}, f32[2048,256]{1,0}, f32[256]{0}, f32[256]{0}, /*index=355*/f32[256]{0}, f32[256]{0}, f32[256]{0}, f32[256]{0}, f32[8,32]{1,0}, /*index=360*/f32[256,8,32]{2,1,0}, f32[256]{0}, f32[8,32,256]{2,1,0}, f32[8,32]{1,0}, f32[256,8,32]{2,1,0}, /*index=365*/f32[8,32]{1,0}, f32[256,8,32]{2,1,0}, f32[8,32]{1,0}, f32[256,8,32]{2,1,0}, f32[256]{0}, /*index=370*/f32[8,32,256]{2,1,0}, f32[8,32]{1,0}, f32[256,8,32]{2,1,0}, f32[8,32]{1,0}, f32[256,8,32]{2,1,0}, /*index=375*/f32[2048]{0}, f32[256,2048]{1,0}, f32[256]{0}, f32[2048,256]{1,0}, f32[256]{0}, /*index=380*/f32[256]{0}, f32[256]{0}, f32[256]{0}, f32[256]{0}, f32[256]{0}, /*index=385*/f32[8,32]{1,0}, f32[256,8,32]{2,1,0}, f32[256]{0}, f32[8,32,256]{2,1,0}, f32[8,32]{1,0}, /*index=390*/f32[256,8,32]{2,1,0}, f32[8,32]{1,0}, f32[256,8,32]{2,1,0}, f32[8,32]{1,0}, f32[256,8,32]{2,1,0}, /*index=395*/f32[256]{0}, f32[8,32,256]{2,1,0}, f32[8,32]{1,0}, f32[256,8,32]{2,1,0}, f32[8,32]{1,0}, /*index=400*/f32[256,8,32]{2,1,0}, f32[2048]{0}, f32[256,2048]{1,0}, f32[256]{0}, f32[2048,256]{1,0}, /*index=405*/f32[256]{0}, f32[256]{0}, f32[256]{0}, f32[256]{0}, f32[256]{0}, /*index=410*/f32[256]{0}, f32[8,32]{1,0}, f32[256,8,32]{2,1,0}, f32[256]{0}, f32[8,32,256]{2,1,0}, /*index=415*/f32[8,32]{1,0}, f32[256,8,32]{2,1,0}, f32[8,32]{1,0}, f32[256,8,32]{2,1,0}, f32[8,32]{1,0}, /*index=420*/f32[256,8,32]{2,1,0}, f32[256]{0}, f32[8,32,256]{2,1,0}, f32[8,32]{1,0}, f32[256,8,32]{2,1,0}, /*index=425*/f32[8,32]{1,0}, f32[256,8,32]{2,1,0}, f32[2048]{0}, f32[256,2048]{1,0}, f32[256]{0}, /*index=430*/f32[2048,256]{1,0}, f32[256]{0}, f32[256]{0}, f32[256]{0}, f32[256]{0}, /*index=435*/f32[256]{0}, f32[256]{0}, f32[8,32]{1,0}, f32[256,8,32]{2,1,0}, f32[256]{0}, /*index=440*/f32[8,32,256]{2,1,0}, f32[8,32]{1,0}, f32[256,8,32]{2,1,0}, f32[8,32]{1,0}, f32[256,8,32]{2,1,0}, /*index=445*/f32[8,32]{1,0}, f32[256,8,32]{2,1,0}, f32[256]{0}, f32[8,32,256]{2,1,0}, f32[8,32]{1,0}, /*index=450*/f32[256,8,32]{2,1,0}, f32[8,32]{1,0}, f32[256,8,32]{2,1,0}, f32[92]{0}, f32[256,92]{1,0}, /*index=455*/f32[256]{0}, f32[256,256]{1,0}, f32[256]{0}, f32[256,256]{1,0}, f32[4]{0}, /*index=460*/f32[256,4]{1,0}, f32[2048]{0}, f32[256,2048]{1,0}, f32[256]{0}, f32[2048,256]{1,0}, /*index=465*/f32[256]{0}, f32[256]{0}, f32[256]{0}, f32[256]{0}, f32[8,32]{1,0}, /*index=470*/f32[256,8,32]{2,1,0}, f32[256]{0}, f32[8,32,256]{2,1,0}, f32[8,32]{1,0}, f32[256,8,32]{2,1,0}, /*index=475*/f32[8,32]{1,0}, f32[256,8,32]{2,1,0}, f32[2048]{0}, f32[256,2048]{1,0}, f32[256]{0}, /*index=480*/f32[2048,256]{1,0}, f32[256]{0}, f32[256]{0}, f32[256]{0}, f32[256]{0}, /*index=485*/f32[8,32]{1,0}, f32[256,8,32]{2,1,0}, f32[256]{0}, f32[8,32,256]{2,1,0}, f32[8,32]{1,0}, /*index=490*/f32[256,8,32]{2,1,0}, f32[8,32]{1,0}, f32[256,8,32]{2,1,0}, f32[2048]{0}, f32[256,2048]{1,0}, /*index=495*/f32[256]{0}, f32[2048,256]{1,0}, f32[256]{0}, f32[256]{0}, f32[256]{0}, /*index=500*/f32[256]{0}, f32[8,32]{1,0}, f32[256,8,32]{2,1,0}, f32[256]{0}, f32[8,32,256]{2,1,0}, /*index=505*/f32[8,32]{1,0}, f32[256,8,32]{2,1,0}, f32[8,32]{1,0}, f32[256,8,32]{2,1,0}, f32[2048]{0}, /*index=510*/f32[256,2048]{1,0}, f32[256]{0}, f32[2048,256]{1,0}, f32[256]{0}, f32[256]{0}, /*index=515*/f32[256]{0}, f32[256]{0}, f32[8,32]{1,0}, f32[256,8,32]{2,1,0}, f32[256]{0}, /*index=520*/f32[8,32,256]{2,1,0}, f32[8,32]{1,0}, f32[256,8,32]{2,1,0}, f32[8,32]{1,0}, f32[256,8,32]{2,1,0}, /*index=525*/f32[2048]{0}, f32[256,2048]{1,0}, f32[256]{0}, f32[2048,256]{1,0}, f32[256]{0}, /*index=530*/f32[256]{0}, f32[256]{0}, f32[256]{0}, f32[8,32]{1,0}, f32[256,8,32]{2,1,0}, /*index=535*/f32[256]{0}, f32[8,32,256]{2,1,0}, f32[8,32]{1,0}, f32[256,8,32]{2,1,0}, f32[8,32]{1,0}, /*index=540*/f32[256,8,32]{2,1,0}, f32[2048]{0}, f32[256,2048]{1,0}, f32[256]{0}, f32[2048,256]{1,0}, /*index=545*/f32[256]{0}, f32[256]{0}, f32[256]{0}, f32[256]{0}, f32[8,32]{1,0}, /*index=550*/f32[256,8,32]{2,1,0}, f32[256]{0}, f32[8,32,256]{2,1,0}, f32[8,32]{1,0}, f32[256,8,32]{2,1,0}, /*index=555*/f32[8,32]{1,0}, f32[256,8,32]{2,1,0}, f32[100,256]{1,0}, f32[64]{0}, f32[64]{0}, /*index=560*/f32[128]{0}, f32[128]{0}, f32[256]{0}, f32[256]{0}, f32[512]{0}, /*index=565*/f32[512]{0}, f32[512]{0}, f32[512]{0}, f32[3,3,3,64]{3,2,1,0}, f32[3,3,64,128]{3,2,1,0}, /*index=570*/f32[3,3,128,256]{3,2,1,0}, f32[3,3,256,512]{3,2,1,0}, f32[3,3,512,512]{3,2,1,0}, f32[256]{0}, f32[1,1,512,256]{3,2,1,0}, /*index=575*/f32[2048]{0}, f32[256,2048]{1,0}, f32[256]{0}, f32[2048,256]{1,0}, f32[256]{0}, /*index=580*/f32[256]{0}, f32[256]{0}, f32[256]{0}, f32[256]{0}, f32[256]{0}, /*index=585*/f32[8,32]{1,0}, f32[256,8,32]{2,1,0}, f32[256]{0}, f32[8,32,256]{2,1,0}, f32[8,32]{1,0}, /*index=590*/f32[256,8,32]{2,1,0}, f32[8,32]{1,0}, f32[256,8,32]{2,1,0}, f32[8,32]{1,0}, f32[256,8,32]{2,1,0}, /*index=595*/f32[256]{0}, f32[8,32,256]{2,1,0}, f32[8,32]{1,0}, f32[256,8,32]{2,1,0}, f32[8,32]{1,0}, /*index=600*/f32[256,8,32]{2,1,0}, f32[2048]{0}, f32[256,2048]{1,0}, f32[256]{0}, f32[2048,256]{1,0}, /*index=605*/f32[256]{0}, f32[256]{0}, f32[256]{0}, f32[256]{0}, f32[256]{0}, /*index=610*/f32[256]{0}, f32[8,32]{1,0}, f32[256,8,32]{2,1,0}, f32[256]{0}, f32[8,32,256]{2,1,0}, /*index=615*/f32[8,32]{1,0}, f32[256,8,32]{2,1,0}, f32[8,32]{1,0}, f32[256,8,32]{2,1,0}, f32[8,32]{1,0}, /*index=620*/f32[256,8,32]{2,1,0}, f32[256]{0}, f32[8,32,256]{2,1,0}, f32[8,32]{1,0}, f32[256,8,32]{2,1,0}, /*index=625*/f32[8,32]{1,0}, f32[256,8,32]{2,1,0}, f32[2048]{0}, f32[256,2048]{1,0}, f32[256]{0}, /*index=630*/f32[2048,256]{1,0}, f32[256]{0}, f32[256]{0}, f32[256]{0}, f32[256]{0}, /*index=635*/f32[256]{0}, f32[256]{0}, f32[8,32]{1,0}, f32[256,8,32]{2,1,0}, f32[256]{0}, /*index=640*/f32[8,32,256]{2,1,0}, f32[8,32]{1,0}, f32[256,8,32]{2,1,0}, f32[8,32]{1,0}, f32[256,8,32]{2,1,0}, /*index=645*/f32[8,32]{1,0}, f32[256,8,32]{2,1,0}, f32[256]{0}, f32[8,32,256]{2,1,0}, f32[8,32]{1,0}, /*index=650*/f32[256,8,32]{2,1,0}, f32[8,32]{1,0}, f32[256,8,32]{2,1,0}, f32[2048]{0}, f32[256,2048]{1,0}, /*index=655*/f32[256]{0}, f32[2048,256]{1,0}, f32[256]{0}, f32[256]{0}, f32[256]{0}, /*index=660*/f32[256]{0}, f32[256]{0}, f32[256]{0}, f32[8,32]{1,0}, f32[256,8,32]{2,1,0}, /*index=665*/f32[256]{0}, f32[8,32,256]{2,1,0}, f32[8,32]{1,0}, f32[256,8,32]{2,1,0}, f32[8,32]{1,0}, /*index=670*/f32[256,8,32]{2,1,0}, f32[8,32]{1,0}, f32[256,8,32]{2,1,0}, f32[256]{0}, f32[8,32,256]{2,1,0}, /*index=675*/f32[8,32]{1,0}, f32[256,8,32]{2,1,0}, f32[8,32]{1,0}, f32[256,8,32]{2,1,0}, f32[2048]{0}, /*index=680*/f32[256,2048]{1,0}, f32[256]{0}, f32[2048,256]{1,0}, f32[256]{0}, f32[256]{0}, /*index=685*/f32[256]{0}, f32[256]{0}, f32[256]{0}, f32[256]{0}, f32[8,32]{1,0}, /*index=690*/f32[256,8,32]{2,1,0}, f32[256]{0}, f32[8,32,256]{2,1,0}, f32[8,32]{1,0}, f32[256,8,32]{2,1,0}, /*index=695*/f32[8,32]{1,0}, f32[256,8,32]{2,1,0}, f32[8,32]{1,0}, f32[256,8,32]{2,1,0}, f32[256]{0}, /*index=700*/f32[8,32,256]{2,1,0}, f32[8,32]{1,0}, f32[256,8,32]{2,1,0}, f32[8,32]{1,0}, f32[256,8,32]{2,1,0}, /*index=705*/f32[2048]{0}, f32[256,2048]{1,0}, f32[256]{0}, f32[2048,256]{1,0}, f32[256]{0}, /*index=710*/f32[256]{0}, f32[256]{0}, f32[256]{0}, f32[256]{0}, f32[256]{0}, /*index=715*/f32[8,32]{1,0}, f32[256,8,32]{2,1,0}, f32[256]{0}, f32[8,32,256]{2,1,0}, f32[8,32]{1,0}, /*index=720*/f32[256,8,32]{2,1,0}, f32[8,32]{1,0}, f32[256,8,32]{2,1,0}, f32[8,32]{1,0}, f32[256,8,32]{2,1,0}, /*index=725*/f32[256]{0}, f32[8,32,256]{2,1,0}, f32[8,32]{1,0}, f32[256,8,32]{2,1,0}, f32[8,32]{1,0}, /*index=730*/f32[256,8,32]{2,1,0}, f32[92]{0}, f32[256,92]{1,0}, f32[256]{0}, f32[256,256]{1,0}, /*index=735*/f32[256]{0}, f32[256,256]{1,0}, f32[4]{0}, f32[256,4]{1,0}, f32[2048]{0}, /*index=740*/f32[256,2048]{1,0}, f32[256]{0}, f32[2048,256]{1,0}, f32[256]{0}, f32[256]{0}, /*index=745*/f32[256]{0}, f32[256]{0}, f32[8,32]{1,0}, f32[256,8,32]{2,1,0}, f32[256]{0}, /*index=750*/f32[8,32,256]{2,1,0}, f32[8,32]{1,0}, f32[256,8,32]{2,1,0}, f32[8,32]{1,0}, f32[256,8,32]{2,1,0}, /*index=755*/f32[2048]{0}, f32[256,2048]{1,0}, f32[256]{0}, f32[2048,256]{1,0}, f32[256]{0}, /*index=760*/f32[256]{0}, f32[256]{0}, f32[256]{0}, f32[8,32]{1,0}, f32[256,8,32]{2,1,0}, /*index=765*/f32[256]{0}, f32[8,32,256]{2,1,0}, f32[8,32]{1,0}, f32[256,8,32]{2,1,0}, f32[8,32]{1,0}, /*index=770*/f32[256,8,32]{2,1,0}, f32[2048]{0}, f32[256,2048]{1,0}, f32[256]{0}, f32[2048,256]{1,0}, /*index=775*/f32[256]{0}, f32[256]{0}, f32[256]{0}, f32[256]{0}, f32[8,32]{1,0}, /*index=780*/f32[256,8,32]{2,1,0}, f32[256]{0}, f32[8,32,256]{2,1,0}, f32[8,32]{1,0}, f32[256,8,32]{2,1,0}, /*index=785*/f32[8,32]{1,0}, f32[256,8,32]{2,1,0}, f32[2048]{0}, f32[256,2048]{1,0}, f32[256]{0}, /*index=790*/f32[2048,256]{1,0}, f32[256]{0}, f32[256]{0}, f32[256]{0}, f32[256]{0}, /*index=795*/f32[8,32]{1,0}, f32[256,8,32]{2,1,0}, f32[256]{0}, f32[8,32,256]{2,1,0}, f32[8,32]{1,0}, /*index=800*/f32[256,8,32]{2,1,0}, f32[8,32]{1,0}, f32[256,8,32]{2,1,0}, f32[2048]{0}, f32[256,2048]{1,0}, /*index=805*/f32[256]{0}, f32[2048,256]{1,0}, f32[256]{0}, f32[256]{0}, f32[256]{0}, /*index=810*/f32[256]{0}, f32[8,32]{1,0}, f32[256,8,32]{2,1,0}, f32[256]{0}, f32[8,32,256]{2,1,0}, /*index=815*/f32[8,32]{1,0}, f32[256,8,32]{2,1,0}, f32[8,32]{1,0}, f32[256,8,32]{2,1,0}, f32[2048]{0}, /*index=820*/f32[256,2048]{1,0}, f32[256]{0}, f32[2048,256]{1,0}, f32[256]{0}, f32[256]{0}, /*index=825*/f32[256]{0}, f32[256]{0}, f32[8,32]{1,0}, f32[256,8,32]{2,1,0}, f32[256]{0}, /*index=830*/f32[8,32,256]{2,1,0}, f32[8,32]{1,0}, f32[256,8,32]{2,1,0}, f32[8,32]{1,0}, f32[256,8,32]{2,1,0}, /*index=835*/f32[100,256]{1,0}, f32[64]{0}, f32[64]{0}, f32[128]{0}, f32[128]{0}, /*index=840*/f32[256]{0}, f32[256]{0}, f32[512]{0}, f32[512]{0}, f32[512]{0}, /*index=845*/f32[512]{0}, f32[4,224,224,3]{3,2,1,0}, s32[4,100]{1,0}, f32[4,100,4]{2,1,0})->(s32[], f32[64]{0}, f32[64]{0}, f32[128]{0}, f32[128]{0}, /*index=5*/f32[256]{0}, f32[256]{0}, f32[512]{0}, f32[512]{0}, f32[512]{0}, /*index=10*/f32[512]{0}, f32[3,3,3,64]{3,2,1,0}, f32[3,3,64,128]{3,2,1,0}, f32[3,3,128,256]{3,2,1,0}, f32[3,3,256,512]{3,2,1,0}, /*index=15*/f32[3,3,512,512]{3,2,1,0}, f32[256]{0}, f32[1,1,512,256]{3,2,1,0}, f32[2048]{0}, f32[256,2048]{1,0}, /*index=20*/f32[256]{0}, f32[2048,256]{1,0}, f32[256]{0}, f32[256]{0}, f32[256]{0}, /*index=25*/f32[256]{0}, f32[256]{0}, f32[256]{0}, f32[8,32]{1,0}, f32[256,8,32]{2,1,0}, /*index=30*/f32[256]{0}, f32[8,32,256]{2,1,0}, f32[8,32]{1,0}, f32[256,8,32]{2,1,0}, f32[8,32]{1,0}, /*index=35*/f32[256,8,32]{2,1,0}, f32[8,32]{1,0}, f32[256,8,32]{2,1,0}, f32[256]{0}, f32[8,32,256]{2,1,0}, /*index=40*/f32[8,32]{1,0}, f32[256,8,32]{2,1,0}, f32[8,32]{1,0}, f32[256,8,32]{2,1,0}, f32[2048]{0}, /*index=45*/f32[256,2048]{1,0}, f32[256]{0}, f32[2048,256]{1,0}, f32[256]{0}, f32[256]{0}, /*index=50*/f32[256]{0}, f32[256]{0}, f32[256]{0}, f32[256]{0}, f32[8,32]{1,0}, /*index=55*/f32[256,8,32]{2,1,0}, f32[256]{0}, f32[8,32,256]{2,1,0}, f32[8,32]{1,0}, f32[256,8,32]{2,1,0}, /*index=60*/f32[8,32]{1,0}, f32[256,8,32]{2,1,0}, f32[8,32]{1,0}, f32[256,8,32]{2,1,0}, f32[256]{0}, /*index=65*/f32[8,32,256]{2,1,0}, f32[8,32]{1,0}, f32[256,8,32]{2,1,0}, f32[8,32]{1,0}, f32[256,8,32]{2,1,0}, /*index=70*/f32[2048]{0}, f32[256,2048]{1,0}, f32[256]{0}, f32[2048,256]{1,0}, f32[256]{0}, /*index=75*/f32[256]{0}, f32[256]{0}, f32[256]{0}, f32[256]{0}, f32[256]{0}, /*index=80*/f32[8,32]{1,0}, f32[256,8,32]{2,1,0}, f32[256]{0}, f32[8,32,256]{2,1,0}, f32[8,32]{1,0}, /*index=85*/f32[256,8,32]{2,1,0}, f32[8,32]{1,0}, f32[256,8,32]{2,1,0}, f32[8,32]{1,0}, f32[256,8,32]{2,1,0}, /*index=90*/f32[256]{0}, f32[8,32,256]{2,1,0}, f32[8,32]{1,0}, f32[256,8,32]{2,1,0}, f32[8,32]{1,0}, /*index=95*/f32[256,8,32]{2,1,0}, f32[2048]{0}, f32[256,2048]{1,0}, f32[256]{0}, f32[2048,256]{1,0}, /*index=100*/f32[256]{0}, f32[256]{0}, f32[256]{0}, f32[256]{0}, f32[256]{0}, /*index=105*/f32[256]{0}, f32[8,32]{1,0}, f32[256,8,32]{2,1,0}, f32[256]{0}, f32[8,32,256]{2,1,0}, /*index=110*/f32[8,32]{1,0}, f32[256,8,32]{2,1,0}, f32[8,32]{1,0}, f32[256,8,32]{2,1,0}, f32[8,32]{1,0}, /*index=115*/f32[256,8,32]{2,1,0}, f32[256]{0}, f32[8,32,256]{2,1,0}, f32[8,32]{1,0}, f32[256,8,32]{2,1,0}, /*index=120*/f32[8,32]{1,0}, f32[256,8,32]{2,1,0}, f32[2048]{0}, f32[256,2048]{1,0}, f32[256]{0}, /*index=125*/f32[2048,256]{1,0}, f32[256]{0}, f32[256]{0}, f32[256]{0}, f32[256]{0}, /*index=130*/f32[256]{0}, f32[256]{0}, f32[8,32]{1,0}, f32[256,8,32]{2,1,0}, f32[256]{0}, /*index=135*/f32[8,32,256]{2,1,0}, f32[8,32]{1,0}, f32[256,8,32]{2,1,0}, f32[8,32]{1,0}, f32[256,8,32]{2,1,0}, /*index=140*/f32[8,32]{1,0}, f32[256,8,32]{2,1,0}, f32[256]{0}, f32[8,32,256]{2,1,0}, f32[8,32]{1,0}, /*index=145*/f32[256,8,32]{2,1,0}, f32[8,32]{1,0}, f32[256,8,32]{2,1,0}, f32[2048]{0}, f32[256,2048]{1,0}, /*index=150*/f32[256]{0}, f32[2048,256]{1,0}, f32[256]{0}, f32[256]{0}, f32[256]{0}, /*index=155*/f32[256]{0}, f32[256]{0}, f32[256]{0}, f32[8,32]{1,0}, f32[256,8,32]{2,1,0}, /*index=160*/f32[256]{0}, f32[8,32,256]{2,1,0}, f32[8,32]{1,0}, f32[256,8,32]{2,1,0}, f32[8,32]{1,0}, /*index=165*/f32[256,8,32]{2,1,0}, f32[8,32]{1,0}, f32[256,8,32]{2,1,0}, f32[256]{0}, f32[8,32,256]{2,1,0}, /*index=170*/f32[8,32]{1,0}, f32[256,8,32]{2,1,0}, f32[8,32]{1,0}, f32[256,8,32]{2,1,0}, f32[92]{0}, /*index=175*/f32[256,92]{1,0}, f32[256]{0}, f32[256,256]{1,0}, f32[256]{0}, f32[256,256]{1,0}, /*index=180*/f32[4]{0}, f32[256,4]{1,0}, f32[2048]{0}, f32[256,2048]{1,0}, f32[256]{0}, /*index=185*/f32[2048,256]{1,0}, f32[256]{0}, f32[256]{0}, f32[256]{0}, f32[256]{0}, /*index=190*/f32[8,32]{1,0}, f32[256,8,32]{2,1,0}, f32[256]{0}, f32[8,32,256]{2,1,0}, f32[8,32]{1,0}, /*index=195*/f32[256,8,32]{2,1,0}, f32[8,32]{1,0}, f32[256,8,32]{2,1,0}, f32[2048]{0}, f32[256,2048]{1,0}, /*index=200*/f32[256]{0}, f32[2048,256]{1,0}, f32[256]{0}, f32[256]{0}, f32[256]{0}, /*index=205*/f32[256]{0}, f32[8,32]{1,0}, f32[256,8,32]{2,1,0}, f32[256]{0}, f32[8,32,256]{2,1,0}, /*index=210*/f32[8,32]{1,0}, f32[256,8,32]{2,1,0}, f32[8,32]{1,0}, f32[256,8,32]{2,1,0}, f32[2048]{0}, /*index=215*/f32[256,2048]{1,0}, f32[256]{0}, f32[2048,256]{1,0}, f32[256]{0}, f32[256]{0}, /*index=220*/f32[256]{0}, f32[256]{0}, f32[8,32]{1,0}, f32[256,8,32]{2,1,0}, f32[256]{0}, /*index=225*/f32[8,32,256]{2,1,0}, f32[8,32]{1,0}, f32[256,8,32]{2,1,0}, f32[8,32]{1,0}, f32[256,8,32]{2,1,0}, /*index=230*/f32[2048]{0}, f32[256,2048]{1,0}, f32[256]{0}, f32[2048,256]{1,0}, f32[256]{0}, /*index=235*/f32[256]{0}, f32[256]{0}, f32[256]{0}, f32[8,32]{1,0}, f32[256,8,32]{2,1,0}, /*index=240*/f32[256]{0}, f32[8,32,256]{2,1,0}, f32[8,32]{1,0}, f32[256,8,32]{2,1,0}, f32[8,32]{1,0}, /*index=245*/f32[256,8,32]{2,1,0}, f32[2048]{0}, f32[256,2048]{1,0}, f32[256]{0}, f32[2048,256]{1,0}, /*index=250*/f32[256]{0}, f32[256]{0}, f32[256]{0}, f32[256]{0}, f32[8,32]{1,0}, /*index=255*/f32[256,8,32]{2,1,0}, f32[256]{0}, f32[8,32,256]{2,1,0}, f32[8,32]{1,0}, f32[256,8,32]{2,1,0}, /*index=260*/f32[8,32]{1,0}, f32[256,8,32]{2,1,0}, f32[2048]{0}, f32[256,2048]{1,0}, f32[256]{0}, /*index=265*/f32[2048,256]{1,0}, f32[256]{0}, f32[256]{0}, f32[256]{0}, f32[256]{0}, /*index=270*/f32[8,32]{1,0}, f32[256,8,32]{2,1,0}, f32[256]{0}, f32[8,32,256]{2,1,0}, f32[8,32]{1,0}, /*index=275*/f32[256,8,32]{2,1,0}, f32[8,32]{1,0}, f32[256,8,32]{2,1,0}, f32[100,256]{1,0}, s32[], /*index=280*/f32[64]{0}, f32[64]{0}, f32[128]{0}, f32[128]{0}, f32[256]{0}, /*index=285*/f32[256]{0}, f32[512]{0}, f32[512]{0}, f32[512]{0}, f32[512]{0}, /*index=290*/f32[3,3,3,64]{3,2,1,0}, f32[3,3,64,128]{3,2,1,0}, f32[3,3,128,256]{3,2,1,0}, f32[3,3,256,512]{3,2,1,0}, f32[3,3,512,512]{3,2,1,0}, /*index=295*/f32[256]{0}, f32[1,1,512,256]{3,2,1,0}, f32[2048]{0}, f32[256,2048]{1,0}, f32[256]{0}, /*index=300*/f32[2048,256]{1,0}, f32[256]{0}, f32[256]{0}, f32[256]{0}, f32[256]{0}, /*index=305*/f32[256]{0}, f32[256]{0}, f32[8,32]{1,0}, f32[256,8,32]{2,1,0}, f32[256]{0}, /*index=310*/f32[8,32,256]{2,1,0}, f32[8,32]{1,0}, f32[256,8,32]{2,1,0}, f32[8,32]{1,0}, f32[256,8,32]{2,1,0}, /*index=315*/f32[8,32]{1,0}, f32[256,8,32]{2,1,0}, f32[256]{0}, f32[8,32,256]{2,1,0}, f32[8,32]{1,0}, /*index=320*/f32[256,8,32]{2,1,0}, f32[8,32]{1,0}, f32[256,8,32]{2,1,0}, f32[2048]{0}, f32[256,2048]{1,0}, /*index=325*/f32[256]{0}, f32[2048,256]{1,0}, f32[256]{0}, f32[256]{0}, f32[256]{0}, /*index=330*/f32[256]{0}, f32[256]{0}, f32[256]{0}, f32[8,32]{1,0}, f32[256,8,32]{2,1,0}, /*index=335*/f32[256]{0}, f32[8,32,256]{2,1,0}, f32[8,32]{1,0}, f32[256,8,32]{2,1,0}, f32[8,32]{1,0}, /*index=340*/f32[256,8,32]{2,1,0}, f32[8,32]{1,0}, f32[256,8,32]{2,1,0}, f32[256]{0}, f32[8,32,256]{2,1,0}, /*index=345*/f32[8,32]{1,0}, f32[256,8,32]{2,1,0}, f32[8,32]{1,0}, f32[256,8,32]{2,1,0}, f32[2048]{0}, /*index=350*/f32[256,2048]{1,0}, f32[256]{0}, f32[2048,256]{1,0}, f32[256]{0}, f32[256]{0}, /*index=355*/f32[256]{0}, f32[256]{0}, f32[256]{0}, f32[256]{0}, f32[8,32]{1,0}, /*index=360*/f32[256,8,32]{2,1,0}, f32[256]{0}, f32[8,32,256]{2,1,0}, f32[8,32]{1,0}, f32[256,8,32]{2,1,0}, /*index=365*/f32[8,32]{1,0}, f32[256,8,32]{2,1,0}, f32[8,32]{1,0}, f32[256,8,32]{2,1,0}, f32[256]{0}, /*index=370*/f32[8,32,256]{2,1,0}, f32[8,32]{1,0}, f32[256,8,32]{2,1,0}, f32[8,32]{1,0}, f32[256,8,32]{2,1,0}, /*index=375*/f32[2048]{0}, f32[256,2048]{1,0}, f32[256]{0}, f32[2048,256]{1,0}, f32[256]{0}, /*index=380*/f32[256]{0}, f32[256]{0}, f32[256]{0}, f32[256]{0}, f32[256]{0}, /*index=385*/f32[8,32]{1,0}, f32[256,8,32]{2,1,0}, f32[256]{0}, f32[8,32,256]{2,1,0}, f32[8,32]{1,0}, /*index=390*/f32[256,8,32]{2,1,0}, f32[8,32]{1,0}, f32[256,8,32]{2,1,0}, f32[8,32]{1,0}, f32[256,8,32]{2,1,0}, /*index=395*/f32[256]{0}, f32[8,32,256]{2,1,0}, f32[8,32]{1,0}, f32[256,8,32]{2,1,0}, f32[8,32]{1,0}, /*index=400*/f32[256,8,32]{2,1,0}, f32[2048]{0}, f32[256,2048]{1,0}, f32[256]{0}, f32[2048,256]{1,0}, /*index=405*/f32[256]{0}, f32[256]{0}, f32[256]{0}, f32[256]{0}, f32[256]{0}, /*index=410*/f32[256]{0}, f32[8,32]{1,0}, f32[256,8,32]{2,1,0}, f32[256]{0}, f32[8,32,256]{2,1,0}, /*index=415*/f32[8,32]{1,0}, f32[256,8,32]{2,1,0}, f32[8,32]{1,0}, f32[256,8,32]{2,1,0}, f32[8,32]{1,0}, /*index=420*/f32[256,8,32]{2,1,0}, f32[256]{0}, f32[8,32,256]{2,1,0}, f32[8,32]{1,0}, f32[256,8,32]{2,1,0}, /*index=425*/f32[8,32]{1,0}, f32[256,8,32]{2,1,0}, f32[2048]{0}, f32[256,2048]{1,0}, f32[256]{0}, /*index=430*/f32[2048,256]{1,0}, f32[256]{0}, f32[256]{0}, f32[256]{0}, f32[256]{0}, /*index=435*/f32[256]{0}, f32[256]{0}, f32[8,32]{1,0}, f32[256,8,32]{2,1,0}, f32[256]{0}, /*index=440*/f32[8,32,256]{2,1,0}, f32[8,32]{1,0}, f32[256,8,32]{2,1,0}, f32[8,32]{1,0}, f32[256,8,32]{2,1,0}, /*index=445*/f32[8,32]{1,0}, f32[256,8,32]{2,1,0}, f32[256]{0}, f32[8,32,256]{2,1,0}, f32[8,32]{1,0}, /*index=450*/f32[256,8,32]{2,1,0}, f32[8,32]{1,0}, f32[256,8,32]{2,1,0}, f32[92]{0}, f32[256,92]{1,0}, /*index=455*/f32[256]{0}, f32[256,256]{1,0}, f32[256]{0}, f32[256,256]{1,0}, f32[4]{0}, /*index=460*/f32[256,4]{1,0}, f32[2048]{0}, f32[256,2048]{1,0}, f32[256]{0}, f32[2048,256]{1,0}, /*index=465*/f32[256]{0}, f32[256]{0}, f32[256]{0}, f32[256]{0}, f32[8,32]{1,0}, /*index=470*/f32[256,8,32]{2,1,0}, f32[256]{0}, f32[8,32,256]{2,1,0}, f32[8,32]{1,0}, f32[256,8,32]{2,1,0}, /*index=475*/f32[8,32]{1,0}, f32[256,8,32]{2,1,0}, f32[2048]{0}, f32[256,2048]{1,0}, f32[256]{0}, /*index=480*/f32[2048,256]{1,0}, f32[256]{0}, f32[256]{0}, f32[256]{0}, f32[256]{0}, /*index=485*/f32[8,32]{1,0}, f32[256,8,32]{2,1,0}, f32[256]{0}, f32[8,32,256]{2,1,0}, f32[8,32]{1,0}, /*index=490*/f32[256,8,32]{2,1,0}, f32[8,32]{1,0}, f32[256,8,32]{2,1,0}, f32[2048]{0}, f32[256,2048]{1,0}, /*index=495*/f32[256]{0}, f32[2048,256]{1,0}, f32[256]{0}, f32[256]{0}, f32[256]{0}, /*index=500*/f32[256]{0}, f32[8,32]{1,0}, f32[256,8,32]{2,1,0}, f32[256]{0}, f32[8,32,256]{2,1,0}, /*index=505*/f32[8,32]{1,0}, f32[256,8,32]{2,1,0}, f32[8,32]{1,0}, f32[256,8,32]{2,1,0}, f32[2048]{0}, /*index=510*/f32[256,2048]{1,0}, f32[256]{0}, f32[2048,256]{1,0}, f32[256]{0}, f32[256]{0}, /*index=515*/f32[256]{0}, f32[256]{0}, f32[8,32]{1,0}, f32[256,8,32]{2,1,0}, f32[256]{0}, /*index=520*/f32[8,32,256]{2,1,0}, f32[8,32]{1,0}, f32[256,8,32]{2,1,0}, f32[8,32]{1,0}, f32[256,8,32]{2,1,0}, /*index=525*/f32[2048]{0}, f32[256,2048]{1,0}, f32[256]{0}, f32[2048,256]{1,0}, f32[256]{0}, /*index=530*/f32[256]{0}, f32[256]{0}, f32[256]{0}, f32[8,32]{1,0}, f32[256,8,32]{2,1,0}, /*index=535*/f32[256]{0}, f32[8,32,256]{2,1,0}, f32[8,32]{1,0}, f32[256,8,32]{2,1,0}, f32[8,32]{1,0}, /*index=540*/f32[256,8,32]{2,1,0}, f32[2048]{0}, f32[256,2048]{1,0}, f32[256]{0}, f32[2048,256]{1,0}, /*index=545*/f32[256]{0}, f32[256]{0}, f32[256]{0}, f32[256]{0}, f32[8,32]{1,0}, /*index=550*/f32[256,8,32]{2,1,0}, f32[256]{0}, f32[8,32,256]{2,1,0}, f32[8,32]{1,0}, f32[256,8,32]{2,1,0}, /*index=555*/f32[8,32]{1,0}, f32[256,8,32]{2,1,0}, f32[100,256]{1,0}, f32[64]{0}, f32[64]{0}, /*index=560*/f32[128]{0}, f32[128]{0}, f32[256]{0}, f32[256]{0}, f32[512]{0}, /*index=565*/f32[512]{0}, f32[512]{0}, f32[512]{0}, f32[3,3,3,64]{3,2,1,0}, f32[3,3,64,128]{3,2,1,0}, /*index=570*/f32[3,3,128,256]{3,2,1,0}, f32[3,3,256,512]{3,2,1,0}, f32[3,3,512,512]{3,2,1,0}, f32[256]{0}, f32[1,1,512,256]{3,2,1,0}, /*index=575*/f32[2048]{0}, f32[256,2048]{1,0}, f32[256]{0}, f32[2048,256]{1,0}, f32[256]{0}, /*index=580*/f32[256]{0}, f32[256]{0}, f32[256]{0}, f32[256]{0}, f32[256]{0}, /*index=585*/f32[8,32]{1,0}, f32[256,8,32]{2,1,0}, f32[256]{0}, f32[8,32,256]{2,1,0}, f32[8,32]{1,0}, /*index=590*/f32[256,8,32]{2,1,0}, f32[8,32]{1,0}, f32[256,8,32]{2,1,0}, f32[8,32]{1,0}, f32[256,8,32]{2,1,0}, /*index=595*/f32[256]{0}, f32[8,32,256]{2,1,0}, f32[8,32]{1,0}, f32[256,8,32]{2,1,0}, f32[8,32]{1,0}, /*index=600*/f32[256,8,32]{2,1,0}, f32[2048]{0}, f32[256,2048]{1,0}, f32[256]{0}, f32[2048,256]{1,0}, /*index=605*/f32[256]{0}, f32[256]{0}, f32[256]{0}, f32[256]{0}, f32[256]{0}, /*index=610*/f32[256]{0}, f32[8,32]{1,0}, f32[256,8,32]{2,1,0}, f32[256]{0}, f32[8,32,256]{2,1,0}, /*index=615*/f32[8,32]{1,0}, f32[256,8,32]{2,1,0}, f32[8,32]{1,0}, f32[256,8,32]{2,1,0}, f32[8,32]{1,0}, /*index=620*/f32[256,8,32]{2,1,0}, f32[256]{0}, f32[8,32,256]{2,1,0}, f32[8,32]{1,0}, f32[256,8,32]{2,1,0}, /*index=625*/f32[8,32]{1,0}, f32[256,8,32]{2,1,0}, f32[2048]{0}, f32[256,2048]{1,0}, f32[256]{0}, /*index=630*/f32[2048,256]{1,0}, f32[256]{0}, f32[256]{0}, f32[256]{0}, f32[256]{0}, /*index=635*/f32[256]{0}, f32[256]{0}, f32[8,32]{1,0}, f32[256,8,32]{2,1,0}, f32[256]{0}, /*index=640*/f32[8,32,256]{2,1,0}, f32[8,32]{1,0}, f32[256,8,32]{2,1,0}, f32[8,32]{1,0}, f32[256,8,32]{2,1,0}, /*index=645*/f32[8,32]{1,0}, f32[256,8,32]{2,1,0}, f32[256]{0}, f32[8,32,256]{2,1,0}, f32[8,32]{1,0}, /*index=650*/f32[256,8,32]{2,1,0}, f32[8,32]{1,0}, f32[256,8,32]{2,1,0}, f32[2048]{0}, f32[256,2048]{1,0}, /*index=655*/f32[256]{0}, f32[2048,256]{1,0}, f32[256]{0}, f32[256]{0}, f32[256]{0}, /*index=660*/f32[256]{0}, f32[256]{0}, f32[256]{0}, f32[8,32]{1,0}, f32[256,8,32]{2,1,0}, /*index=665*/f32[256]{0}, f32[8,32,256]{2,1,0}, f32[8,32]{1,0}, f32[256,8,32]{2,1,0}, f32[8,32]{1,0}, /*index=670*/f32[256,8,32]{2,1,0}, f32[8,32]{1,0}, f32[256,8,32]{2,1,0}, f32[256]{0}, f32[8,32,256]{2,1,0}, /*index=675*/f32[8,32]{1,0}, f32[256,8,32]{2,1,0}, f32[8,32]{1,0}, f32[256,8,32]{2,1,0}, f32[2048]{0}, /*index=680*/f32[256,2048]{1,0}, f32[256]{0}, f32[2048,256]{1,0}, f32[256]{0}, f32[256]{0}, /*index=685*/f32[256]{0}, f32[256]{0}, f32[256]{0}, f32[256]{0}, f32[8,32]{1,0}, /*index=690*/f32[256,8,32]{2,1,0}, f32[256]{0}, f32[8,32,256]{2,1,0}, f32[8,32]{1,0}, f32[256,8,32]{2,1,0}, /*index=695*/f32[8,32]{1,0}, f32[256,8,32]{2,1,0}, f32[8,32]{1,0}, f32[256,8,32]{2,1,0}, f32[256]{0}, /*index=700*/f32[8,32,256]{2,1,0}, f32[8,32]{1,0}, f32[256,8,32]{2,1,0}, f32[8,32]{1,0}, f32[256,8,32]{2,1,0}, /*index=705*/f32[2048]{0}, f32[256,2048]{1,0}, f32[256]{0}, f32[2048,256]{1,0}, f32[256]{0}, /*index=710*/f32[256]{0}, f32[256]{0}, f32[256]{0}, f32[256]{0}, f32[256]{0}, /*index=715*/f32[8,32]{1,0}, f32[256,8,32]{2,1,0}, f32[256]{0}, f32[8,32,256]{2,1,0}, f32[8,32]{1,0}, /*index=720*/f32[256,8,32]{2,1,0}, f32[8,32]{1,0}, f32[256,8,32]{2,1,0}, f32[8,32]{1,0}, f32[256,8,32]{2,1,0}, /*index=725*/f32[256]{0}, f32[8,32,256]{2,1,0}, f32[8,32]{1,0}, f32[256,8,32]{2,1,0}, f32[8,32]{1,0}, /*index=730*/f32[256,8,32]{2,1,0}, f32[92]{0}, f32[256,92]{1,0}, f32[256]{0}, f32[256,256]{1,0}, /*index=735*/f32[256]{0}, f32[256,256]{1,0}, f32[4]{0}, f32[256,4]{1,0}, f32[2048]{0}, /*index=740*/f32[256,2048]{1,0}, f32[256]{0}, f32[2048,256]{1,0}, f32[256]{0}, f32[256]{0}, /*index=745*/f32[256]{0}, f32[256]{0}, f32[8,32]{1,0}, f32[256,8,32]{2,1,0}, f32[256]{0}, /*index=750*/f32[8,32,256]{2,1,0}, f32[8,32]{1,0}, f32[256,8,32]{2,1,0}, f32[8,32]{1,0}, f32[256,8,32]{2,1,0}, /*index=755*/f32[2048]{0}, f32[256,2048]{1,0}, f32[256]{0}, f32[2048,256]{1,0}, f32[256]{0}, /*index=760*/f32[256]{0}, f32[256]{0}, f32[256]{0}, f32[8,32]{1,0}, f32[256,8,32]{2,1,0}, /*index=765*/f32[256]{0}, f32[8,32,256]{2,1,0}, f32[8,32]{1,0}, f32[256,8,32]{2,1,0}, f32[8,32]{1,0}, /*index=770*/f32[256,8,32]{2,1,0}, f32[2048]{0}, f32[256,2048]{1,0}, f32[256]{0}, f32[2048,256]{1,0}, /*index=775*/f32[256]{0}, f32[256]{0}, f32[256]{0}, f32[256]{0}, f32[8,32]{1,0}, /*index=780*/f32[256,8,32]{2,1,0}, f32[256]{0}, f32[8,32,256]{2,1,0}, f32[8,32]{1,0}, f32[256,8,32]{2,1,0}, /*index=785*/f32[8,32]{1,0}, f32[256,8,32]{2,1,0}, f32[2048]{0}, f32[256,2048]{1,0}, f32[256]{0}, /*index=790*/f32[2048,256]{1,0}, f32[256]{0}, f32[256]{0}, f32[256]{0}, f32[256]{0}, /*index=795*/f32[8,32]{1,0}, f32[256,8,32]{2,1,0}, f32[256]{0}, f32[8,32,256]{2,1,0}, f32[8,32]{1,0}, /*index=800*/f32[256,8,32]{2,1,0}, f32[8,32]{1,0}, f32[256,8,32]{2,1,0}, f32[2048]{0}, f32[256,2048]{1,0}, /*index=805*/f32[256]{0}, f32[2048,256]{1,0}, f32[256]{0}, f32[256]{0}, f32[256]{0}, /*index=810*/f32[256]{0}, f32[8,32]{1,0}, f32[256,8,32]{2,1,0}, f32[256]{0}, f32[8,32,256]{2,1,0}, /*index=815*/f32[8,32]{1,0}, f32[256,8,32]{2,1,0}, f32[8,32]{1,0}, f32[256,8,32]{2,1,0}, f32[2048]{0}, /*index=820*/f32[256,2048]{1,0}, f32[256]{0}, f32[2048,256]{1,0}, f32[256]{0}, f32[256]{0}, /*index=825*/f32[256]{0}, f32[256]{0}, f32[8,32]{1,0}, f32[256,8,32]{2,1,0}, f32[256]{0}, /*index=830*/f32[8,32,256]{2,1,0}, f32[8,32]{1,0}, f32[256,8,32]{2,1,0}, f32[8,32]{1,0}, f32[256,8,32]{2,1,0}, /*index=835*/f32[100,256]{1,0}, f32[64]{0}, f32[64]{0}, f32[128]{0}, f32[128]{0}, /*index=840*/f32[256]{0}, f32[256]{0}, f32[512]{0}, f32[512]{0}, f32[512]{0}, /*index=845*/f32[512]{0}, f32[])}, allow_spmd_sharding_propagation_to_parameters={true,true,true,true,true,true,true,true,true,true,true,true,true,true,true,true,true,true,true,true,true,true,true,true,true,true,true,true,true,true,true,true,true,true,true,true,true,true,true,true,true,true,true,true,true,true,true,true,true,true,true,true,true,true,true,true,true,true,true,true,true,true,true,true,true,true,true,true,true,true,true,true,true,true,true,true,true,true,true,true,true,true,true,true,true,true,true,true,true,true,true,true,true,true,true,true,true,true,true,true,true,true,true,true,true,true,true,true,true,true,true,true,true,true,true,true,true,true,true,true,true,true,true,true,true,true,true,true,true,true,true,true,true,true,true,true,true,true,true,true,true,true,true,true,true,true,true,true,true,true,true,true,true,true,true,true,true,true,true,true,true,true,true,true,true,true,true,true,true,true,true,true,true,true,true,true,true,true,true,true,true,true,true,true,true,true,true,true,true,true,true,true,true,true,true,true,true,true,true,true,true,true,true,true,true,true,true,true,true,true,true,true,true,true,true,true,true,true,true,true,true,true,true,true,true,true,true,true,true,true,true,true,true,true,true,true,true,true,true,true,true,true,true,true,true,true,true,true,true,true,true,true,true,true,true,true,true,true,true,true,true,true,true,true,true,true,true,true,true,true,true,true,true,true,true,true,true,true,true,true,true,true,true,true,true,true,true,true,true,true,true,true,true,true,true,true,true,true,true,true,true,true,true,true,true,true,true,true,true,true,true,true,true,true,true,true,true,true,true,true,true,true,true,true,true,true,true,true,true,true,true,true,true,true,true,true,true,true,true,true,true,true,true,true,true,true,true,true,true,true,true,true,true,true,true,true,true,true,true,true,true,true,true,true,true,true,true,true,true,true,true,true,true,true,true,true,true,true,true,true,true,true,true,true,true,true,true,true,true,true,true,true,true,true,true,true,true,true,true,true,true,true,true,true,true,true,true,true,true,true,true,true,true,true,true,true,true,true,true,true,true,true,true,true,true,true,true,true,true,true,true,true,true,true,true,true,true,true,true,true,true,true,true,true,true,true,true,true,true,true,true,true,true,true,true,true,true,true,true,true,true,true,true,true,true,true,true,true,true,true,true,true,true,true,true,true,true,true,true,true,true,true,true,true,true,true,true,true,true,true,true,true,true,true,true,true,true,true,true,true,true,true,true,true,true,true,true,true,true,true,true,true,true,true,true,true,true,true,true,true,true,true,true,true,true,true,true,true,true,true,true,true,true,true,true,true,true,true,true,true,true,true,true,true,true,true,true,true,true,true,true,true,true,true,true,true,true,true,true,true,true,true,true,true,true,true,true,true,true,true,true,true,true,true,true,true,true,true,true,true,true,true,true,true,true,true,true,true,true,true,true,true,true,true,true,true,true,true,true,true,true,true,true,true,true,true,true,true,true,true,true,true,true,true,true,true,true,true,true,true,true,true,true,true,true,true,true,true,true,true,true,true,true,true,true,true,true,true,true,true,true,true,true,true,true,true,true,true,true,true,true,true,true,true,true,true,true,true,true,true,true,true,true,true,true,true,true,true,true,true,true,true,true,true,true,true,true,true,true,true,true,true,true,true,true,true,true,true,true,true,true,true,true,true,true,true,true,true,true,true,true,true,true,true,true,true,true,true,true,true,true,true,true,true,true,true,true,true,true,true,true,true,true,true,true,true,true,true,true,true,true,true,true,true,true,true,true,true,true,true,true,true,true,true,true,true,true,true,true,true,true,true,true,true,true,true,true,true,true,true,true,true,true,true,true,true,true,true,true,true,true,true,true,true,true,true,true,true,true,true,true,true,true,true,true,true,true,true,true,true,true,true,true,true,true,true,true,true,true,true,true,true,true,true,true,true,true,true,true,true,true,true,true,true,true,true,true,true,true,true,true,true,true,true,true,true,true,true,true,true,true,true,true,true,true,true,true,true,true,true,true,true,true,true,true,true,true,true,true}, allow_spmd_sharding_propagation_to_output={true,true,true,true,true,true,true,true,true,true,true,true,true,true,true,true,true,true,true,true,true,true,true,true,true,true,true,true,true,true,true,true,true,true,true,true,true,true,true,true,true,true,true,true,true,true,true,true,true,true,true,true,true,true,true,true,true,true,true,true,true,true,true,true,true,true,true,true,true,true,true,true,true,true,true,true,true,true,true,true,true,true,true,true,true,true,true,true,true,true,true,true,true,true,true,true,true,true,true,true,true,true,true,true,true,true,true,true,true,true,true,true,true,true,true,true,true,true,true,true,true,true,true,true,true,true,true,true,true,true,true,true,true,true,true,true,true,true,true,true,true,true,true,true,true,true,true,true,true,true,true,true,true,true,true,true,true,true,true,true,true,true,true,true,true,true,true,true,true,true,true,true,true,true,true,true,true,true,true,true,true,true,true,true,true,true,true,true,true,true,true,true,true,true,true,true,true,true,true,true,true,true,true,true,true,true,true,true,true,true,true,true,true,true,true,true,true,true,true,true,true,true,true,true,true,true,true,true,true,true,true,true,true,true,true,true,true,true,true,true,true,true,true,true,true,true,true,true,true,true,true,true,true,true,true,true,true,true,true,true,true,true,true,true,true,true,true,true,true,true,true,true,true,true,true,true,true,true,true,true,true,true,true,true,true,true,true,true,true,true,true,true,true,true,true,true,true,true,true,true,true,true,true,true,true,true,true,true,true,true,true,true,true,true,true,true,true,true,true,true,true,true,true,true,true,true,true,true,true,true,true,true,true,true,true,true,true,true,true,true,true,true,true,true,true,true,true,true,true,true,true,true,true,true,true,true,true,true,true,true,true,true,true,true,true,true,true,true,true,true,true,true,true,true,true,true,true,true,true,true,true,true,true,true,true,true,true,true,true,true,true,true,true,true,true,true,true,true,true,true,true,true,true,true,true,true,true,true,true,true,true,true,true,true,true,true,true,true,true,true,true,true,true,true,true,true,true,true,true,true,true,true,true,true,true,true,true,true,true,true,true,true,true,true,true,true,true,true,true,true,true,true,true,true,true,true,true,true,true,true,true,true,true,true,true,true,true,true,true,true,true,true,true,true,true,true,true,true,true,true,true,true,true,true,true,true,true,true,true,true,true,true,true,true,true,true,true,true,true,true,true,true,true,true,true,true,true,true,true,true,true,true,true,true,true,true,true,true,true,true,true,true,true,true,true,true,true,true,true,true,true,true,true,true,true,true,true,true,true,true,true,true,true,true,true,true,true,true,true,true,true,true,true,true,true,true,true,true,true,true,true,true,true,true,true,true,true,true,true,true,true,true,true,true,true,true,true,true,true,true,true,true,true,true,true,true,true,true,true,true,true,true,true,true,true,true,true,true,true,true,true,true,true,true,true,true,true,true,true,true,true,true,true,true,true,true,true,true,true,true,true,true,true,true,true,true,true,true,true,true,true,true,true,true,true,true,true,true,true,true,true,true,true,true,true,true,true,true,true,true,true,true,true,true,true,true,true,true,true,true,true,true,true,true,true,true,true,true,true,true,true,true,true,true,true,true,true,true,true,true,true,true,true,true,true,true,true,true,true,true,true,true,true,true,true,true,true,true,true,true,true,true,true,true,true,true,true,true,true,true,true,true,true,true,true,true,true,true,true,true,true,true,true,true,true,true,true,true,true,true,true,true,true,true,true,true,true,true,true,true,true,true,true,true,true,true,true,true,true,true,true,true,true,true,true,true,true,true,true,true,true,true,true,true,true,true,true,true,true,true,true,true,true,true,true,true,true,true,true,true,true,true,true,true,true,true,true,true,true,true,true,true,true,true,true,true,true,true,true,true,true,true,true,true,true,true,true,true,true,true,true,true,true,true,true,true,true,true,true,true,true,true,true,true,true,true,true,true,true,true,true,true,true,true,true,true,true,true,true,true,true,true,true,true,true,true,true}

FileNames
1 "/root/hlo_dump/detr_dump.py"
2 "/root/hlo_dump/detr_model.py"
3 "/usr/local/lib/python3.12/dist-packages/flax/linen/normalization.py"
4 "/usr/local/lib/python3.12/dist-packages/flax/linen/attention.py"
5 "/usr/local/lib/python3.12/dist-packages/optax/losses/_classification.py"
6 "/usr/local/lib/python3.12/dist-packages/flax/linen/linear.py"
7 "/usr/local/lib/python3.12/dist-packages/flax/training/train_state.py"
8 "/usr/local/lib/python3.12/dist-packages/optax/transforms/_combining.py"
9 "/usr/local/lib/python3.12/dist-packages/optax/_src/base.py"
10 "/usr/local/lib/python3.12/dist-packages/optax/_src/transform.py"
11 "/usr/local/lib/python3.12/dist-packages/optax/tree_utils/_tree_math.py"
12 "/usr/local/lib/python3.12/dist-packages/optax/_src/numerics.py"
13 "/usr/local/lib/python3.12/dist-packages/optax/transforms/_adding.py"
14 "/usr/local/lib/python3.12/dist-packages/optax/_src/update.py"

FunctionNames
1 "<module>"
2 "train_step"
3 "train_step.<locals>.loss_fn"
4 "DETR.__call__"
5 "Backbone.__call__"
6 "BatchNorm.__call__"
7 "_compute_stats"
8 "_compute_stats.<locals>.maybe_distributed_mean"
9 "_compute_stats.<locals>.maybe_distributed_mean.<locals>.<genexpr>"
10 "EncoderLayer.__call__"
11 "MultiHeadDotProductAttention.__call__"
12 "dot_product_attention"
13 "dot_product_attention_weights"
14 "LayerNorm.__call__"
15 "DecoderLayer.__call__"
16 "softmax_cross_entropy_with_integer_labels"
17 "Dense.__call__"
18 "_normalize"
19 "DenseGeneral.__call__"
20 "_Conv.__call__"
21 "TrainState.apply_gradients"
22 "_abs_sq"
23 "sine_pos_embed"
24 "sine_pos_embed.<locals>.enc"
25 "chain.<locals>.update_fn"
26 "with_extra_args_support.<locals>.update"
27 "scale_by_adam.<locals>.update_fn"
28 "tree_update_moment"
29 "tree_update_moment.<locals>.<lambda>"
30 "safe_increment"
31 "tree_update_moment_per_elem_norm"
32 "tree_update_moment_per_elem_norm.<locals>.<lambda>"
33 "tree_update_moment_per_elem_norm.<locals>.orderth_norm"
34 "scale_by_adam.<locals>.update_fn.<locals>.<lambda>"
35 "add_decayed_weights.<locals>.update_fn"
36 "add_decayed_weights.<locals>.update_fn.<locals>.<lambda>"
37 "scale.<locals>.update_fn"
38 "scale.<locals>.update_fn.<locals>.<lambda>"
39 "apply_updates"
40 "apply_updates.<locals>.<lambda>"

FileLocations
1 {file_name_id=1 function_name_id=1 line=44 end_line=44 column=15 end_column=52}
2 {file_name_id=1 function_name_id=2 line=41 end_line=41 column=29 end_column=81}
3 {file_name_id=1 function_name_id=3 line=37 end_line=37 column=30 end_column=129}
4 {file_name_id=2 function_name_id=4 line=65 end_line=65 column=15 end_column=37}
5 {file_name_id=2 function_name_id=5 line=51 end_line=51 column=16 end_column=25}
6 {file_name_id=3 function_name_id=6 line=389 end_line=398 column=18 end_column=7}
7 {file_name_id=3 function_name_id=7 line=139 end_line=139 column=16 end_column=64}
8 {file_name_id=3 function_name_id=8 line=122 end_line=122 column=10 end_column=53}
9 {file_name_id=3 function_name_id=9 line=122 end_line=122 column=16 end_column=40}
10 {file_name_id=2 function_name_id=4 line=72 end_line=72 column=16 end_column=65}
11 {file_name_id=2 function_name_id=10 line=24 end_line=24 column=12 end_column=95}
12 {file_name_id=4 function_name_id=11 line=674 end_line=674 column=10 end_column=54}
13 {file_name_id=4 function_name_id=12 line=266 end_line=281 column=17 end_column=3}
14 {file_name_id=4 function_name_id=13 line=146 end_line=146 column=19 end_column=47}
15 {file_name_id=2 function_name_id=10 line=25 end_line=25 column=12 end_column=33}
16 {file_name_id=3 function_name_id=14 line=512 end_line=521 column=16 end_column=5}
17 {file_name_id=2 function_name_id=10 line=27 end_line=27 column=15 end_column=36}
18 {file_name_id=2 function_name_id=4 line=79 end_line=79 column=18 end_column=88}
19 {file_name_id=2 function_name_id=15 line=35 end_line=35 column=12 end_column=97}
20 {file_name_id=2 function_name_id=15 line=36 end_line=36 column=14 end_column=37}
21 {file_name_id=2 function_name_id=15 line=37 end_line=38 column=12 end_column=50}
22 {file_name_id=2 function_name_id=15 line=39 end_line=39 column=14 end_column=37}
23 {file_name_id=2 function_name_id=15 line=41 end_line=41 column=15 end_column=38}
24 {file_name_id=1 function_name_id=3 line=38 end_line=38 column=17 end_column=78}
25 {file_name_id=5 function_name_id=16 line=403 end_line=403 column=20 end_column=68}
26 {file_name_id=1 function_name_id=3 line=39 end_line=39 column=17 end_column=46}
27 {file_name_id=2 function_name_id=4 line=83 end_line=83 column=26 end_column=40}
28 {file_name_id=6 function_name_id=17 line=294 end_line=294 column=6 end_column=57}
29 {file_name_id=2 function_name_id=4 line=82 end_line=82 column=12 end_column=31}
30 {file_name_id=2 function_name_id=4 line=81 end_line=81 column=12 end_column=33}
31 {file_name_id=2 function_name_id=4 line=80 end_line=80 column=23 end_column=58}
32 {file_name_id=3 function_name_id=14 line=523 end_line=538 column=11 end_column=5}
33 {file_name_id=3 function_name_id=18 line=223 end_line=223 column=4 end_column=13}
34 {file_name_id=3 function_name_id=18 line=214 end_line=214 column=4 end_column=16}
35 {file_name_id=3 function_name_id=18 line=205 end_line=205 column=6 end_column=14}
36 {file_name_id=3 function_name_id=18 line=204 end_line=204 column=8 end_column=44}
37 {file_name_id=3 function_name_id=18 line=203 end_line=203 column=9 end_column=46}
38 {file_name_id=2 function_name_id=15 line=40 end_line=40 column=56 end_column=75}
39 {file_name_id=2 function_name_id=15 line=40 end_line=40 column=12 end_column=34}
40 {file_name_id=4 function_name_id=11 line=676 end_line=688 column=10 end_column=8}
41 {file_name_id=6 function_name_id=19 line=210 end_line=210 column=6 end_column=17}
42 {file_name_id=4 function_name_id=11 line=551 end_line=551 column=6 end_column=35}
43 {file_name_id=4 function_name_id=11 line=550 end_line=550 column=6 end_column=33}
44 {file_name_id=4 function_name_id=11 line=549 end_line=549 column=6 end_column=35}
45 {file_name_id=2 function_name_id=4 line=76 end_line=76 column=20 end_column=86}
46 {file_name_id=2 function_name_id=4 line=76 end_line=76 column=37 end_column=54}
47 {file_name_id=2 function_name_id=10 line=26 end_line=26 column=54 end_column=73}
48 {file_name_id=2 function_name_id=10 line=26 end_line=26 column=12 end_column=32}
49 {file_name_id=2 function_name_id=4 line=67 end_line=67 column=14 end_column=43}
50 {file_name_id=6 function_name_id=20 line=726 end_line=726 column=6 end_column=15}
51 {file_name_id=3 function_name_id=6 line=406 end_line=421 column=11 end_column=5}
52 {file_name_id=3 function_name_id=18 line=216 end_line=216 column=2 end_column=10}
53 {file_name_id=1 function_name_id=2 line=42 end_line=42 column=13 end_column=76}
54 {file_name_id=7 function_name_id=21 line=118 end_line=118 column=11 end_column=24}
55 {file_name_id=2 function_name_id=5 line=50 end_line=50 column=16 end_column=81}
56 {file_name_id=6 function_name_id=20 line=700 end_line=710 column=10 end_column=7}
57 {file_name_id=3 function_name_id=7 line=139 end_line=139 column=42 end_column=52}
58 {file_name_id=3 function_name_id=22 line=57 end_line=57 column=11 end_column=24}
59 {file_name_id=3 function_name_id=7 line=142 end_line=142 column=35 end_column=46}
60 {file_name_id=3 function_name_id=7 line=142 end_line=142 column=29 end_column=46}
61 {file_name_id=3 function_name_id=7 line=142 end_line=142 column=12 end_column=47}
62 {file_name_id=3 function_name_id=18 line=206 end_line=206 column=18 end_column=31}
63 {file_name_id=3 function_name_id=18 line=206 end_line=206 column=8 end_column=32}
64 {file_name_id=3 function_name_id=18 line=211 end_line=211 column=6 end_column=28}
65 {file_name_id=3 function_name_id=18 line=220 end_line=220 column=6 end_column=28}
66 {file_name_id=2 function_name_id=5 line=51 end_line=51 column=31 end_column=41}
67 {file_name_id=6 function_name_id=19 line=199 end_line=204 column=10 end_column=5}
68 {file_name_id=6 function_name_id=19 line=209 end_line=209 column=13 end_column=63}
69 {file_name_id=4 function_name_id=13 line=130 end_line=130 column=10 end_column=47}
70 {file_name_id=4 function_name_id=13 line=132 end_line=132 column=17 end_column=60}
71 {file_name_id=4 function_name_id=12 line=291 end_line=295 column=9 end_column=3}
72 {file_name_id=6 function_name_id=20 line=725 end_line=725 column=13 end_column=67}
73 {file_name_id=2 function_name_id=4 line=68 end_line=68 column=14 end_column=50}
74 {file_name_id=2 function_name_id=4 line=69 end_line=69 column=14 end_column=42}
75 {file_name_id=2 function_name_id=23 line=10 end_line=10 column=11 end_column=30}
76 {file_name_id=2 function_name_id=23 line=10 end_line=10 column=4 end_column=8}
77 {file_name_id=2 function_name_id=23 line=15 end_line=15 column=26 end_column=32}
78 {file_name_id=2 function_name_id=24 line=13 end_line=13 column=12 end_column=32}
79 {file_name_id=2 function_name_id=23 line=11 end_line=11 column=41 end_column=59}
80 {file_name_id=2 function_name_id=23 line=11 end_line=11 column=20 end_column=70}
81 {file_name_id=2 function_name_id=23 line=11 end_line=11 column=12 end_column=71}
82 {file_name_id=2 function_name_id=24 line=14 end_line=14 column=32 end_column=42}
83 {file_name_id=2 function_name_id=24 line=14 end_line=14 column=44 end_column=54}
84 {file_name_id=2 function_name_id=23 line=15 end_line=15 column=34 end_column=40}
85 {file_name_id=2 function_name_id=23 line=15 end_line=15 column=9 end_column=51}
86 {file_name_id=2 function_name_id=23 line=16 end_line=16 column=11 end_column=42}
87 {file_name_id=2 function_name_id=10 line=23 end_line=23 column=16 end_column=23}
88 {file_name_id=2 function_name_id=10 line=25 end_line=25 column=27 end_column=32}
89 {file_name_id=6 function_name_id=17 line=287 end_line=292 column=8 end_column=5}
90 {file_name_id=6 function_name_id=17 line=294 end_line=294 column=11 end_column=57}
91 {file_name_id=2 function_name_id=10 line=26 end_line=26 column=38 end_column=48}
92 {file_name_id=2 function_name_id=10 line=27 end_line=27 column=30 end_column=35}
93 {file_name_id=2 function_name_id=15 line=38 end_line=38 column=12 end_column=27}
94 {file_name_id=2 function_name_id=15 line=38 end_line=38 column=29 end_column=41}
95 {file_name_id=2 function_name_id=15 line=39 end_line=39 column=29 end_column=36}
96 {file_name_id=2 function_name_id=15 line=40 end_line=40 column=40 end_column=50}
97 {file_name_id=2 function_name_id=15 line=41 end_line=41 column=30 end_column=37}
98 {file_name_id=2 function_name_id=15 line=34 end_line=34 column=16 end_column=31}
99 {file_name_id=2 function_name_id=15 line=36 end_line=36 column=29 end_column=36}
100 {file_name_id=2 function_name_id=4 line=81 end_line=81 column=39 end_column=49}
101 {file_name_id=2 function_name_id=4 line=82 end_line=82 column=37 end_column=47}
102 {file_name_id=2 function_name_id=4 line=83 end_line=83 column=15 end_column=41}
103 {file_name_id=1 function_name_id=3 line=39 end_line=39 column=25 end_column=38}
104 {file_name_id=5 function_name_id=16 line=401 end_line=401 column=14 end_column=43}
105 {file_name_id=5 function_name_id=16 line=400 end_line=402 column=17 end_column=3}
106 {file_name_id=5 function_name_id=16 line=402 end_line=402 column=4 end_column=22}
107 {file_name_id=5 function_name_id=16 line=404 end_line=404 column=8 end_column=38}
108 {file_name_id=7 function_name_id=21 line=103 end_line=105 column=29 end_column=5}
109 {file_name_id=8 function_name_id=25 line=90 end_line=90 column=23 end_column=59}
110 {file_name_id=9 function_name_id=26 line=339 end_line=339 column=11 end_column=44}
111 {file_name_id=10 function_name_id=27 line=283 end_line=283 column=9 end_column=59}
112 {file_name_id=11 function_name_id=28 line=396 end_line=403 column=9 end_column=3}
113 {file_name_id=11 function_name_id=29 line=398 end_line=398 column=10 end_column=34}
114 {file_name_id=11 function_name_id=29 line=398 end_line=398 column=37 end_column=46}
115 {file_name_id=10 function_name_id=27 line=285 end_line=285 column=16 end_column=52}
116 {file_name_id=12 function_name_id=30 line=143 end_line=143 column=19 end_column=36}
117 {file_name_id=12 function_name_id=30 line=143 end_line=143 column=38 end_column=49}
118 {file_name_id=12 function_name_id=30 line=143 end_line=143 column=9 end_column=61}
119 {file_name_id=10 function_name_id=27 line=294 end_line=294 column=15 end_column=60}
120 {file_name_id=10 function_name_id=27 line=284 end_line=284 column=9 end_column=73}
121 {file_name_id=11 function_name_id=31 line=431 end_line=438 column=9 end_column=3}
122 {file_name_id=11 function_name_id=32 line=433 end_line=433 column=24 end_column=39}
123 {file_name_id=11 function_name_id=33 line=423 end_line=423 column=13 end_column=23}
124 {file_name_id=11 function_name_id=32 line=433 end_line=433 column=10 end_column=39}
125 {file_name_id=11 function_name_id=32 line=433 end_line=433 column=42 end_column=51}
126 {file_name_id=10 function_name_id=27 line=298 end_line=298 column=13 end_column=58}
127 {file_name_id=10 function_name_id=27 line=299 end_line=304 column=14 end_column=5}
128 {file_name_id=10 function_name_id=34 line=300 end_line=300 column=49 end_column=77}
129 {file_name_id=10 function_name_id=34 line=300 end_line=300 column=44 end_column=78}
130 {file_name_id=13 function_name_id=35 line=72 end_line=77 column=14 end_column=5}
131 {file_name_id=13 function_name_id=36 line=73 end_line=73 column=48 end_column=53}
132 {file_name_id=13 function_name_id=36 line=73 end_line=73 column=44 end_column=53}
133 {file_name_id=10 function_name_id=37 line=507 end_line=507 column=14 end_column=60}
134 {file_name_id=10 function_name_id=38 line=507 end_line=507 column=37 end_column=50}
135 {file_name_id=7 function_name_id=21 line=106 end_line=106 column=26 end_column=71}
136 {file_name_id=14 function_name_id=39 line=40 end_line=47 column=9 end_column=3}
137 {file_name_id=14 function_name_id=40 line=42 end_line=42 column=45 end_column=50}
138 {file_name_id=3 function_name_id=6 line=402 end_line=402 column=10 end_column=39}
139 {file_name_id=3 function_name_id=6 line=402 end_line=402 column=42 end_column=68}
140 {file_name_id=3 function_name_id=6 line=404 end_line=404 column=23 end_column=51}
141 {file_name_id=3 function_name_id=6 line=404 end_line=404 column=54 end_column=79}
142 {file_name_id=1 function_name_id=3 line=40 end_line=40 column=19 end_column=26}

StackFrames
1 {file_location_id=1 parent_frame_id=1}
2 {file_location_id=2 parent_frame_id=2}
3 {file_location_id=3 parent_frame_id=3}
4 {file_location_id=4 parent_frame_id=4}
5 {file_location_id=5 parent_frame_id=5}
6 {file_location_id=6 parent_frame_id=6}
7 {file_location_id=7 parent_frame_id=7}
8 {file_location_id=8 parent_frame_id=8}
9 {file_location_id=9 parent_frame_id=9}
10 {file_location_id=10 parent_frame_id=4}
11 {file_location_id=11 parent_frame_id=11}
12 {file_location_id=12 parent_frame_id=12}
13 {file_location_id=13 parent_frame_id=13}
14 {file_location_id=14 parent_frame_id=14}
15 {file_location_id=15 parent_frame_id=11}
16 {file_location_id=16 parent_frame_id=16}
17 {file_location_id=7 parent_frame_id=17}
18 {file_location_id=8 parent_frame_id=18}
19 {file_location_id=9 parent_frame_id=19}
20 {file_location_id=17 parent_frame_id=11}
21 {file_location_id=16 parent_frame_id=21}
22 {file_location_id=7 parent_frame_id=22}
23 {file_location_id=8 parent_frame_id=23}
24 {file_location_id=9 parent_frame_id=24}
25 {file_location_id=18 parent_frame_id=4}
26 {file_location_id=19 parent_frame_id=26}
27 {file_location_id=12 parent_frame_id=27}
28 {file_location_id=13 parent_frame_id=28}
29 {file_location_id=14 parent_frame_id=29}
30 {file_location_id=20 parent_frame_id=26}
31 {file_location_id=16 parent_frame_id=31}
32 {file_location_id=7 parent_frame_id=32}
33 {file_location_id=8 parent_frame_id=33}
34 {file_location_id=9 parent_frame_id=34}
35 {file_location_id=21 parent_frame_id=26}
36 {file_location_id=12 parent_frame_id=36}
37 {file_location_id=13 parent_frame_id=37}
38 {file_location_id=14 parent_frame_id=38}
39 {file_location_id=22 parent_frame_id=26}
40 {file_location_id=16 parent_frame_id=40}
41 {file_location_id=7 parent_frame_id=41}
42 {file_location_id=8 parent_frame_id=42}
43 {file_location_id=9 parent_frame_id=43}
44 {file_location_id=23 parent_frame_id=26}
45 {file_location_id=16 parent_frame_id=45}
46 {file_location_id=7 parent_frame_id=46}
47 {file_location_id=8 parent_frame_id=47}
48 {file_location_id=9 parent_frame_id=48}
49 {file_location_id=24 parent_frame_id=3}
50 {file_location_id=25 parent_frame_id=50}
51 {file_location_id=26 parent_frame_id=3}
52 {file_location_id=27 parent_frame_id=4}
53 {file_location_id=28 parent_frame_id=53}
54 {file_location_id=29 parent_frame_id=4}
55 {file_location_id=28 parent_frame_id=55}
56 {file_location_id=30 parent_frame_id=4}
57 {file_location_id=28 parent_frame_id=57}
58 {file_location_id=31 parent_frame_id=4}
59 {file_location_id=28 parent_frame_id=59}
60 {file_location_id=32 parent_frame_id=45}
61 {file_location_id=33 parent_frame_id=61}
62 {file_location_id=34 parent_frame_id=61}
63 {file_location_id=35 parent_frame_id=61}
64 {file_location_id=36 parent_frame_id=61}
65 {file_location_id=37 parent_frame_id=61}
66 {file_location_id=38 parent_frame_id=26}
67 {file_location_id=28 parent_frame_id=67}
68 {file_location_id=39 parent_frame_id=26}
69 {file_location_id=28 parent_frame_id=69}
70 {file_location_id=32 parent_frame_id=40}
71 {file_location_id=33 parent_frame_id=71}
72 {file_location_id=34 parent_frame_id=71}
73 {file_location_id=35 parent_frame_id=71}
74 {file_location_id=36 parent_frame_id=71}
75 {file_location_id=37 parent_frame_id=71}
76 {file_location_id=40 parent_frame_id=36}
77 {file_location_id=41 parent_frame_id=77}
78 {file_location_id=42 parent_frame_id=36}
79 {file_location_id=41 parent_frame_id=79}
80 {file_location_id=43 parent_frame_id=36}
81 {file_location_id=41 parent_frame_id=81}
82 {file_location_id=44 parent_frame_id=36}
83 {file_location_id=41 parent_frame_id=83}
84 {file_location_id=32 parent_frame_id=31}
85 {file_location_id=33 parent_frame_id=85}
86 {file_location_id=34 parent_frame_id=85}
87 {file_location_id=35 parent_frame_id=85}
88 {file_location_id=36 parent_frame_id=85}
89 {file_location_id=37 parent_frame_id=85}
90 {file_location_id=40 parent_frame_id=27}
91 {file_location_id=41 parent_frame_id=91}
92 {file_location_id=42 parent_frame_id=27}
93 {file_location_id=41 parent_frame_id=93}
94 {file_location_id=43 parent_frame_id=27}
95 {file_location_id=41 parent_frame_id=95}
96 {file_location_id=44 parent_frame_id=27}
97 {file_location_id=41 parent_frame_id=97}
98 {file_location_id=45 parent_frame_id=4}
99 {file_location_id=46 parent_frame_id=4}
100 {file_location_id=32 parent_frame_id=21}
101 {file_location_id=33 parent_frame_id=101}
102 {file_location_id=34 parent_frame_id=101}
103 {file_location_id=35 parent_frame_id=101}
104 {file_location_id=36 parent_frame_id=101}
105 {file_location_id=37 parent_frame_id=101}
106 {file_location_id=47 parent_frame_id=11}
107 {file_location_id=28 parent_frame_id=107}
108 {file_location_id=48 parent_frame_id=11}
109 {file_location_id=28 parent_frame_id=109}
110 {file_location_id=32 parent_frame_id=16}
111 {file_location_id=33 parent_frame_id=111}
112 {file_location_id=34 parent_frame_id=111}
113 {file_location_id=35 parent_frame_id=111}
114 {file_location_id=36 parent_frame_id=111}
115 {file_location_id=37 parent_frame_id=111}
116 {file_location_id=40 parent_frame_id=12}
117 {file_location_id=41 parent_frame_id=117}
118 {file_location_id=42 parent_frame_id=12}
119 {file_location_id=41 parent_frame_id=119}
120 {file_location_id=43 parent_frame_id=12}
121 {file_location_id=41 parent_frame_id=121}
122 {file_location_id=44 parent_frame_id=12}
123 {file_location_id=41 parent_frame_id=123}
124 {file_location_id=49 parent_frame_id=4}
125 {file_location_id=50 parent_frame_id=125}
126 {file_location_id=51 parent_frame_id=6}
127 {file_location_id=33 parent_frame_id=127}
128 {file_location_id=52 parent_frame_id=127}
129 {file_location_id=35 parent_frame_id=127}
130 {file_location_id=36 parent_frame_id=127}
131 {file_location_id=37 parent_frame_id=127}
132 {file_location_id=53 parent_frame_id=2}
133 {file_location_id=54 parent_frame_id=133}
134 {file_location_id=55 parent_frame_id=5}
135 {file_location_id=56 parent_frame_id=135}
136 {file_location_id=57 parent_frame_id=7}
137 {file_location_id=58 parent_frame_id=137}
138 {file_location_id=59 parent_frame_id=7}
139 {file_location_id=58 parent_frame_id=139}
140 {file_location_id=60 parent_frame_id=7}
141 {file_location_id=61 parent_frame_id=7}
142 {file_location_id=62 parent_frame_id=127}
143 {file_location_id=63 parent_frame_id=127}
144 {file_location_id=64 parent_frame_id=127}
145 {file_location_id=34 parent_frame_id=127}
146 {file_location_id=65 parent_frame_id=127}
147 {file_location_id=66 parent_frame_id=5}
148 {file_location_id=67 parent_frame_id=93}
149 {file_location_id=68 parent_frame_id=93}
150 {file_location_id=67 parent_frame_id=97}
151 {file_location_id=68 parent_frame_id=97}
152 {file_location_id=69 parent_frame_id=29}
153 {file_location_id=67 parent_frame_id=95}
154 {file_location_id=68 parent_frame_id=95}
155 {file_location_id=70 parent_frame_id=29}
156 {file_location_id=71 parent_frame_id=28}
157 {file_location_id=67 parent_frame_id=91}
158 {file_location_id=68 parent_frame_id=91}
159 {file_location_id=57 parent_frame_id=32}
160 {file_location_id=58 parent_frame_id=160}
161 {file_location_id=59 parent_frame_id=32}
162 {file_location_id=58 parent_frame_id=162}
163 {file_location_id=60 parent_frame_id=32}
164 {file_location_id=61 parent_frame_id=32}
165 {file_location_id=62 parent_frame_id=85}
166 {file_location_id=63 parent_frame_id=85}
167 {file_location_id=64 parent_frame_id=85}
168 {file_location_id=52 parent_frame_id=85}
169 {file_location_id=65 parent_frame_id=85}
170 {file_location_id=56 parent_frame_id=125}
171 {file_location_id=72 parent_frame_id=125}
172 {file_location_id=73 parent_frame_id=4}
173 {file_location_id=67 parent_frame_id=119}
174 {file_location_id=68 parent_frame_id=119}
175 {file_location_id=74 parent_frame_id=4}
176 {file_location_id=75 parent_frame_id=176}
177 {file_location_id=76 parent_frame_id=176}
178 {file_location_id=77 parent_frame_id=176}
179 {file_location_id=78 parent_frame_id=179}
180 {file_location_id=79 parent_frame_id=176}
181 {file_location_id=80 parent_frame_id=176}
182 {file_location_id=81 parent_frame_id=176}
183 {file_location_id=82 parent_frame_id=179}
184 {file_location_id=83 parent_frame_id=179}
185 {file_location_id=84 parent_frame_id=176}
186 {file_location_id=78 parent_frame_id=186}
187 {file_location_id=82 parent_frame_id=186}
188 {file_location_id=83 parent_frame_id=186}
189 {file_location_id=85 parent_frame_id=176}
190 {file_location_id=86 parent_frame_id=176}
191 {file_location_id=87 parent_frame_id=11}
192 {file_location_id=67 parent_frame_id=123}
193 {file_location_id=68 parent_frame_id=123}
194 {file_location_id=69 parent_frame_id=14}
195 {file_location_id=67 parent_frame_id=121}
196 {file_location_id=68 parent_frame_id=121}
197 {file_location_id=70 parent_frame_id=14}
198 {file_location_id=71 parent_frame_id=13}
199 {file_location_id=67 parent_frame_id=117}
200 {file_location_id=68 parent_frame_id=117}
201 {file_location_id=88 parent_frame_id=11}
202 {file_location_id=57 parent_frame_id=17}
203 {file_location_id=58 parent_frame_id=203}
204 {file_location_id=59 parent_frame_id=17}
205 {file_location_id=58 parent_frame_id=205}
206 {file_location_id=60 parent_frame_id=17}
207 {file_location_id=61 parent_frame_id=17}
208 {file_location_id=62 parent_frame_id=111}
209 {file_location_id=63 parent_frame_id=111}
210 {file_location_id=64 parent_frame_id=111}
211 {file_location_id=52 parent_frame_id=111}
212 {file_location_id=65 parent_frame_id=111}
213 {file_location_id=89 parent_frame_id=109}
214 {file_location_id=90 parent_frame_id=109}
215 {file_location_id=91 parent_frame_id=11}
216 {file_location_id=89 parent_frame_id=107}
217 {file_location_id=90 parent_frame_id=107}
218 {file_location_id=92 parent_frame_id=11}
219 {file_location_id=57 parent_frame_id=22}
220 {file_location_id=58 parent_frame_id=220}
221 {file_location_id=59 parent_frame_id=22}
222 {file_location_id=58 parent_frame_id=222}
223 {file_location_id=60 parent_frame_id=22}
224 {file_location_id=61 parent_frame_id=22}
225 {file_location_id=62 parent_frame_id=101}
226 {file_location_id=63 parent_frame_id=101}
227 {file_location_id=64 parent_frame_id=101}
228 {file_location_id=52 parent_frame_id=101}
229 {file_location_id=65 parent_frame_id=101}
230 {file_location_id=67 parent_frame_id=79}
231 {file_location_id=68 parent_frame_id=79}
232 {file_location_id=93 parent_frame_id=26}
233 {file_location_id=67 parent_frame_id=83}
234 {file_location_id=68 parent_frame_id=83}
235 {file_location_id=69 parent_frame_id=38}
236 {file_location_id=94 parent_frame_id=26}
237 {file_location_id=67 parent_frame_id=81}
238 {file_location_id=68 parent_frame_id=81}
239 {file_location_id=70 parent_frame_id=38}
240 {file_location_id=71 parent_frame_id=37}
241 {file_location_id=67 parent_frame_id=77}
242 {file_location_id=68 parent_frame_id=77}
243 {file_location_id=95 parent_frame_id=26}
244 {file_location_id=57 parent_frame_id=41}
245 {file_location_id=58 parent_frame_id=245}
246 {file_location_id=59 parent_frame_id=41}
247 {file_location_id=58 parent_frame_id=247}
248 {file_location_id=60 parent_frame_id=41}
249 {file_location_id=61 parent_frame_id=41}
250 {file_location_id=62 parent_frame_id=71}
251 {file_location_id=63 parent_frame_id=71}
252 {file_location_id=64 parent_frame_id=71}
253 {file_location_id=52 parent_frame_id=71}
254 {file_location_id=65 parent_frame_id=71}
255 {file_location_id=89 parent_frame_id=69}
256 {file_location_id=90 parent_frame_id=69}
257 {file_location_id=96 parent_frame_id=26}
258 {file_location_id=89 parent_frame_id=67}
259 {file_location_id=90 parent_frame_id=67}
260 {file_location_id=97 parent_frame_id=26}
261 {file_location_id=57 parent_frame_id=46}
262 {file_location_id=58 parent_frame_id=262}
263 {file_location_id=59 parent_frame_id=46}
264 {file_location_id=58 parent_frame_id=264}
265 {file_location_id=60 parent_frame_id=46}
266 {file_location_id=61 parent_frame_id=46}
267 {file_location_id=62 parent_frame_id=61}
268 {file_location_id=63 parent_frame_id=61}
269 {file_location_id=64 parent_frame_id=61}
270 {file_location_id=52 parent_frame_id=61}
271 {file_location_id=65 parent_frame_id=61}
272 {file_location_id=98 parent_frame_id=26}
273 {file_location_id=99 parent_frame_id=26}
274 {file_location_id=89 parent_frame_id=57}
275 {file_location_id=90 parent_frame_id=57}
276 {file_location_id=100 parent_frame_id=4}
277 {file_location_id=89 parent_frame_id=55}
278 {file_location_id=90 parent_frame_id=55}
279 {file_location_id=101 parent_frame_id=4}
280 {file_location_id=89 parent_frame_id=53}
281 {file_location_id=90 parent_frame_id=53}
282 {file_location_id=102 parent_frame_id=4}
283 {file_location_id=2 parent_frame_id=283}
284 {file_location_id=3 parent_frame_id=284}
285 {file_location_id=102 parent_frame_id=285}
286 {file_location_id=103 parent_frame_id=3}
287 {file_location_id=89 parent_frame_id=59}
288 {file_location_id=90 parent_frame_id=59}
289 {file_location_id=104 parent_frame_id=50}
290 {file_location_id=105 parent_frame_id=50}
291 {file_location_id=106 parent_frame_id=50}
292 {file_location_id=107 parent_frame_id=50}
293 {file_location_id=2 parent_frame_id=39}
294 {file_location_id=3 parent_frame_id=294}
295 {file_location_id=18 parent_frame_id=295}
296 {file_location_id=19 parent_frame_id=296}
297 {file_location_id=12 parent_frame_id=297}
298 {file_location_id=13 parent_frame_id=298}
299 {file_location_id=14 parent_frame_id=299}
300 {file_location_id=2 parent_frame_id=30}
301 {file_location_id=3 parent_frame_id=301}
302 {file_location_id=18 parent_frame_id=302}
303 {file_location_id=19 parent_frame_id=303}
304 {file_location_id=12 parent_frame_id=304}
305 {file_location_id=13 parent_frame_id=305}
306 {file_location_id=14 parent_frame_id=306}
307 {file_location_id=2 parent_frame_id=15}
308 {file_location_id=3 parent_frame_id=308}
309 {file_location_id=10 parent_frame_id=309}
310 {file_location_id=11 parent_frame_id=310}
311 {file_location_id=12 parent_frame_id=311}
312 {file_location_id=13 parent_frame_id=312}
313 {file_location_id=14 parent_frame_id=313}
314 {file_location_id=108 parent_frame_id=133}
315 {file_location_id=109 parent_frame_id=315}
316 {file_location_id=110 parent_frame_id=316}
317 {file_location_id=111 parent_frame_id=317}
318 {file_location_id=112 parent_frame_id=318}
319 {file_location_id=113 parent_frame_id=319}
320 {file_location_id=114 parent_frame_id=319}
321 {file_location_id=115 parent_frame_id=317}
322 {file_location_id=116 parent_frame_id=322}
323 {file_location_id=117 parent_frame_id=322}
324 {file_location_id=118 parent_frame_id=322}
325 {file_location_id=119 parent_frame_id=317}
326 {file_location_id=120 parent_frame_id=317}
327 {file_location_id=121 parent_frame_id=327}
328 {file_location_id=122 parent_frame_id=328}
329 {file_location_id=123 parent_frame_id=329}
330 {file_location_id=124 parent_frame_id=328}
331 {file_location_id=125 parent_frame_id=328}
332 {file_location_id=126 parent_frame_id=317}
333 {file_location_id=127 parent_frame_id=317}
334 {file_location_id=128 parent_frame_id=334}
335 {file_location_id=129 parent_frame_id=334}
336 {file_location_id=130 parent_frame_id=317}
337 {file_location_id=131 parent_frame_id=337}
338 {file_location_id=132 parent_frame_id=337}
339 {file_location_id=133 parent_frame_id=317}
340 {file_location_id=134 parent_frame_id=340}
341 {file_location_id=135 parent_frame_id=133}
342 {file_location_id=136 parent_frame_id=342}
343 {file_location_id=137 parent_frame_id=343}
344 {file_location_id=138 parent_frame_id=6}
345 {file_location_id=139 parent_frame_id=6}
346 {file_location_id=140 parent_frame_id=6}
347 {file_location_id=141 parent_frame_id=6}
348 {file_location_id=142 parent_frame_id=3}


%region_0.1 (reduce_sum.3: f32[], reduce_sum.4: f32[]) -> f32[] {
  %reduce_sum.3 = f32[] parameter(0), metadata={op_name="reduce_sum"}
  %reduce_sum.4 = f32[] parameter(1), metadata={op_name="reduce_sum"}
  ROOT %reduce_sum.5 = f32[] add(%reduce_sum.3, %reduce_sum.4), metadata={op_name="jit(train_step)/jvp(DETR)/Backbone_0/BatchNorm_0/reduce_sum" stack_frame_id=9}
}

%region_1.2 (reduce_sum.10: f32[], reduce_sum.11: f32[]) -> f32[] {
  %reduce_sum.10 = f32[] parameter(0), metadata={op_name="reduce_sum"}
  %reduce_sum.11 = f32[] parameter(1), metadata={op_name="reduce_sum"}
  ROOT %reduce_sum.12 = f32[] add(%reduce_sum.10, %reduce_sum.11), metadata={op_name="jit(train_step)/jvp(DETR)/Backbone_0/BatchNorm_0/reduce_sum" stack_frame_id=9}
}

%relu.3 (Arg_0.1: f32[4,112,112,64]) -> f32[4,112,112,64] {
  %Arg_0.1 = f32[4,112,112,64]{3,2,1,0} parameter(0)
  %constant.231 = f32[] constant(0)
  %max.4 = f32[4,112,112,64]{3,2,1,0} broadcast(%constant.231), dimensions={}, metadata={op_name="max"}
  ROOT %max.5 = f32[4,112,112,64]{3,2,1,0} maximum(%Arg_0.1, %max.4), metadata={op_name="max"}
}

%region_2.4 (reduce_sum.17: f32[], reduce_sum.18: f32[]) -> f32[] {
  %reduce_sum.17 = f32[] parameter(0), metadata={op_name="reduce_sum"}
  %reduce_sum.18 = f32[] parameter(1), metadata={op_name="reduce_sum"}
  ROOT %reduce_sum.19 = f32[] add(%reduce_sum.17, %reduce_sum.18), metadata={op_name="jit(train_step)/jvp(DETR)/Backbone_0/BatchNorm_1/reduce_sum" stack_frame_id=9}
}

%region_3.5 (reduce_sum.24: f32[], reduce_sum.25: f32[]) -> f32[] {
  %reduce_sum.24 = f32[] parameter(0), metadata={op_name="reduce_sum"}
  %reduce_sum.25 = f32[] parameter(1), metadata={op_name="reduce_sum"}
  ROOT %reduce_sum.26 = f32[] add(%reduce_sum.24, %reduce_sum.25), metadata={op_name="jit(train_step)/jvp(DETR)/Backbone_0/BatchNorm_1/reduce_sum" stack_frame_id=9}
}

%relu_0.6 (Arg_0.3: f32[4,56,56,128]) -> f32[4,56,56,128] {
  %Arg_0.3 = f32[4,56,56,128]{3,2,1,0} parameter(0)
  %constant.233 = f32[] constant(0)
  %max.9 = f32[4,56,56,128]{3,2,1,0} broadcast(%constant.233), dimensions={}, metadata={op_name="max"}
  ROOT %max.10 = f32[4,56,56,128]{3,2,1,0} maximum(%Arg_0.3, %max.9), metadata={op_name="max"}
}

%region_4.7 (reduce_sum.31: f32[], reduce_sum.32: f32[]) -> f32[] {
  %reduce_sum.31 = f32[] parameter(0), metadata={op_name="reduce_sum"}
  %reduce_sum.32 = f32[] parameter(1), metadata={op_name="reduce_sum"}
  ROOT %reduce_sum.33 = f32[] add(%reduce_sum.31, %reduce_sum.32), metadata={op_name="jit(train_step)/jvp(DETR)/Backbone_0/BatchNorm_2/reduce_sum" stack_frame_id=9}
}

%region_5.8 (reduce_sum.38: f32[], reduce_sum.39: f32[]) -> f32[] {
  %reduce_sum.38 = f32[] parameter(0), metadata={op_name="reduce_sum"}
  %reduce_sum.39 = f32[] parameter(1), metadata={op_name="reduce_sum"}
  ROOT %reduce_sum.40 = f32[] add(%reduce_sum.38, %reduce_sum.39), metadata={op_name="jit(train_step)/jvp(DETR)/Backbone_0/BatchNorm_2/reduce_sum" stack_frame_id=9}
}

%relu_1.9 (Arg_0.5: f32[4,28,28,256]) -> f32[4,28,28,256] {
  %Arg_0.5 = f32[4,28,28,256]{3,2,1,0} parameter(0)
  %constant.235 = f32[] constant(0)
  %max.14 = f32[4,28,28,256]{3,2,1,0} broadcast(%constant.235), dimensions={}, metadata={op_name="max"}
  ROOT %max.15 = f32[4,28,28,256]{3,2,1,0} maximum(%Arg_0.5, %max.14), metadata={op_name="max"}
}

%region_6.10 (reduce_sum.45: f32[], reduce_sum.46: f32[]) -> f32[] {
  %reduce_sum.45 = f32[] parameter(0), metadata={op_name="reduce_sum"}
  %reduce_sum.46 = f32[] parameter(1), metadata={op_name="reduce_sum"}
  ROOT %reduce_sum.47 = f32[] add(%reduce_sum.45, %reduce_sum.46), metadata={op_name="jit(train_step)/jvp(DETR)/Backbone_0/BatchNorm_3/reduce_sum" stack_frame_id=9}
}

%region_7.11 (reduce_sum.52: f32[], reduce_sum.53: f32[]) -> f32[] {
  %reduce_sum.52 = f32[] parameter(0), metadata={op_name="reduce_sum"}
  %reduce_sum.53 = f32[] parameter(1), metadata={op_name="reduce_sum"}
  ROOT %reduce_sum.54 = f32[] add(%reduce_sum.52, %reduce_sum.53), metadata={op_name="jit(train_step)/jvp(DETR)/Backbone_0/BatchNorm_3/reduce_sum" stack_frame_id=9}
}

%relu_2.12 (Arg_0.7: f32[4,14,14,512]) -> f32[4,14,14,512] {
  %Arg_0.7 = f32[4,14,14,512]{3,2,1,0} parameter(0)
  %constant.237 = f32[] constant(0)
  %max.19 = f32[4,14,14,512]{3,2,1,0} broadcast(%constant.237), dimensions={}, metadata={op_name="max"}
  ROOT %max.20 = f32[4,14,14,512]{3,2,1,0} maximum(%Arg_0.7, %max.19), metadata={op_name="max"}
}

%region_8.13 (reduce_sum.59: f32[], reduce_sum.60: f32[]) -> f32[] {
  %reduce_sum.59 = f32[] parameter(0), metadata={op_name="reduce_sum"}
  %reduce_sum.60 = f32[] parameter(1), metadata={op_name="reduce_sum"}
  ROOT %reduce_sum.61 = f32[] add(%reduce_sum.59, %reduce_sum.60), metadata={op_name="jit(train_step)/jvp(DETR)/Backbone_0/BatchNorm_4/reduce_sum" stack_frame_id=9}
}

%region_9.14 (reduce_sum.66: f32[], reduce_sum.67: f32[]) -> f32[] {
  %reduce_sum.66 = f32[] parameter(0), metadata={op_name="reduce_sum"}
  %reduce_sum.67 = f32[] parameter(1), metadata={op_name="reduce_sum"}
  ROOT %reduce_sum.68 = f32[] add(%reduce_sum.66, %reduce_sum.67), metadata={op_name="jit(train_step)/jvp(DETR)/Backbone_0/BatchNorm_4/reduce_sum" stack_frame_id=9}
}

%region_46.53 (reduce_max.45: f32[], reduce_max.46: f32[]) -> f32[] {
  %reduce_max.45 = f32[] parameter(0), metadata={op_name="reduce_max"}
  %reduce_max.46 = f32[] parameter(1), metadata={op_name="reduce_max"}
  ROOT %reduce_max.47 = f32[] maximum(%reduce_max.45, %reduce_max.46), metadata={op_name="jit(train_step)/jvp(DETR)/DecoderLayer_0/MultiHeadDotProductAttention_0/reduce_max" stack_frame_id=29}
}

%region_47.54 (reduce_sum.283: f32[], reduce_sum.284: f32[]) -> f32[] {
  %reduce_sum.283 = f32[] parameter(0), metadata={op_name="reduce_sum"}
  %reduce_sum.284 = f32[] parameter(1), metadata={op_name="reduce_sum"}
  ROOT %reduce_sum.285 = f32[] add(%reduce_sum.283, %reduce_sum.284), metadata={op_name="jit(train_step)/jvp(DETR)/DecoderLayer_0/MultiHeadDotProductAttention_0/reduce_sum" stack_frame_id=29}
}

%region_48.55 (reduce_sum.290: f32[], reduce_sum.291: f32[]) -> f32[] {
  %reduce_sum.290 = f32[] parameter(0), metadata={op_name="reduce_sum"}
  %reduce_sum.291 = f32[] parameter(1), metadata={op_name="reduce_sum"}
  ROOT %reduce_sum.292 = f32[] add(%reduce_sum.290, %reduce_sum.291), metadata={op_name="jit(train_step)/jvp(DETR)/DecoderLayer_0/LayerNorm_0/reduce_sum" stack_frame_id=34}
}

%region_49.56 (reduce_sum.297: f32[], reduce_sum.298: f32[]) -> f32[] {
  %reduce_sum.297 = f32[] parameter(0), metadata={op_name="reduce_sum"}
  %reduce_sum.298 = f32[] parameter(1), metadata={op_name="reduce_sum"}
  ROOT %reduce_sum.299 = f32[] add(%reduce_sum.297, %reduce_sum.298), metadata={op_name="jit(train_step)/jvp(DETR)/DecoderLayer_0/LayerNorm_0/reduce_sum" stack_frame_id=34}
}

%relu_3.15 (Arg_0.9: f32[4,7,7,512]) -> f32[4,7,7,512] {
  %Arg_0.9 = f32[4,7,7,512]{3,2,1,0} parameter(0)
  %constant.239 = f32[] constant(0)
  %max.24 = f32[4,7,7,512]{3,2,1,0} broadcast(%constant.239), dimensions={}, metadata={op_name="max"}
  ROOT %max.25 = f32[4,7,7,512]{3,2,1,0} maximum(%Arg_0.9, %max.24), metadata={op_name="max"}
}

%region_10.16 (reduce_max.3: f32[], reduce_max.4: f32[]) -> f32[] {
  %reduce_max.3 = f32[] parameter(0), metadata={op_name="reduce_max"}
  %reduce_max.4 = f32[] parameter(1), metadata={op_name="reduce_max"}
  ROOT %reduce_max.5 = f32[] maximum(%reduce_max.3, %reduce_max.4), metadata={op_name="jit(train_step)/jvp(DETR)/EncoderLayer_0/MultiHeadDotProductAttention_0/reduce_max" stack_frame_id=14}
}

%region_11.17 (reduce_sum.73: f32[], reduce_sum.74: f32[]) -> f32[] {
  %reduce_sum.73 = f32[] parameter(0), metadata={op_name="reduce_sum"}
  %reduce_sum.74 = f32[] parameter(1), metadata={op_name="reduce_sum"}
  ROOT %reduce_sum.75 = f32[] add(%reduce_sum.73, %reduce_sum.74), metadata={op_name="jit(train_step)/jvp(DETR)/EncoderLayer_0/MultiHeadDotProductAttention_0/reduce_sum" stack_frame_id=14}
}

%region_12.18 (reduce_sum.80: f32[], reduce_sum.81: f32[]) -> f32[] {
  %reduce_sum.80 = f32[] parameter(0), metadata={op_name="reduce_sum"}
  %reduce_sum.81 = f32[] parameter(1), metadata={op_name="reduce_sum"}
  ROOT %reduce_sum.82 = f32[] add(%reduce_sum.80, %reduce_sum.81), metadata={op_name="jit(train_step)/jvp(DETR)/EncoderLayer_0/LayerNorm_0/reduce_sum" stack_frame_id=19}
}

%region_13.19 (reduce_sum.87: f32[], reduce_sum.88: f32[]) -> f32[] {
  %reduce_sum.87 = f32[] parameter(0), metadata={op_name="reduce_sum"}
  %reduce_sum.88 = f32[] parameter(1), metadata={op_name="reduce_sum"}
  ROOT %reduce_sum.89 = f32[] add(%reduce_sum.87, %reduce_sum.88), metadata={op_name="jit(train_step)/jvp(DETR)/EncoderLayer_0/LayerNorm_0/reduce_sum" stack_frame_id=19}
}

%relu_4.20 (Arg_0.11: f32[4,49,2048]) -> f32[4,49,2048] {
  %Arg_0.11 = f32[4,49,2048]{2,1,0} parameter(0)
  %constant.241 = f32[] constant(0)
  %max.30 = f32[4,49,2048]{2,1,0} broadcast(%constant.241), dimensions={}, metadata={op_name="max"}
  ROOT %max.31 = f32[4,49,2048]{2,1,0} maximum(%Arg_0.11, %max.30), metadata={op_name="max"}
}

%region_14.21 (reduce_sum.94: f32[], reduce_sum.95: f32[]) -> f32[] {
  %reduce_sum.94 = f32[] parameter(0), metadata={op_name="reduce_sum"}
  %reduce_sum.95 = f32[] parameter(1), metadata={op_name="reduce_sum"}
  ROOT %reduce_sum.96 = f32[] add(%reduce_sum.94, %reduce_sum.95), metadata={op_name="jit(train_step)/jvp(DETR)/EncoderLayer_0/LayerNorm_1/reduce_sum" stack_frame_id=24}
}

%region_15.22 (reduce_sum.101: f32[], reduce_sum.102: f32[]) -> f32[] {
  %reduce_sum.101 = f32[] parameter(0), metadata={op_name="reduce_sum"}
  %reduce_sum.102 = f32[] parameter(1), metadata={op_name="reduce_sum"}
  ROOT %reduce_sum.103 = f32[] add(%reduce_sum.101, %reduce_sum.102), metadata={op_name="jit(train_step)/jvp(DETR)/EncoderLayer_0/LayerNorm_1/reduce_sum" stack_frame_id=24}
}

%region_16.23 (reduce_max.10: f32[], reduce_max.11: f32[]) -> f32[] {
  %reduce_max.10 = f32[] parameter(0), metadata={op_name="reduce_max"}
  %reduce_max.11 = f32[] parameter(1), metadata={op_name="reduce_max"}
  ROOT %reduce_max.12 = f32[] maximum(%reduce_max.10, %reduce_max.11), metadata={op_name="jit(train_step)/jvp(DETR)/EncoderLayer_1/MultiHeadDotProductAttention_0/reduce_max" stack_frame_id=14}
}

%region_17.24 (reduce_sum.108: f32[], reduce_sum.109: f32[]) -> f32[] {
  %reduce_sum.108 = f32[] parameter(0), metadata={op_name="reduce_sum"}
  %reduce_sum.109 = f32[] parameter(1), metadata={op_name="reduce_sum"}
  ROOT %reduce_sum.110 = f32[] add(%reduce_sum.108, %reduce_sum.109), metadata={op_name="jit(train_step)/jvp(DETR)/EncoderLayer_1/MultiHeadDotProductAttention_0/reduce_sum" stack_frame_id=14}
}

%region_18.25 (reduce_sum.115: f32[], reduce_sum.116: f32[]) -> f32[] {
  %reduce_sum.115 = f32[] parameter(0), metadata={op_name="reduce_sum"}
  %reduce_sum.116 = f32[] parameter(1), metadata={op_name="reduce_sum"}
  ROOT %reduce_sum.117 = f32[] add(%reduce_sum.115, %reduce_sum.116), metadata={op_name="jit(train_step)/jvp(DETR)/EncoderLayer_1/LayerNorm_0/reduce_sum" stack_frame_id=19}
}

%region_19.26 (reduce_sum.122: f32[], reduce_sum.123: f32[]) -> f32[] {
  %reduce_sum.122 = f32[] parameter(0), metadata={op_name="reduce_sum"}
  %reduce_sum.123 = f32[] parameter(1), metadata={op_name="reduce_sum"}
  ROOT %reduce_sum.124 = f32[] add(%reduce_sum.122, %reduce_sum.123), metadata={op_name="jit(train_step)/jvp(DETR)/EncoderLayer_1/LayerNorm_0/reduce_sum" stack_frame_id=19}
}

%region_20.27 (reduce_sum.129: f32[], reduce_sum.130: f32[]) -> f32[] {
  %reduce_sum.129 = f32[] parameter(0), metadata={op_name="reduce_sum"}
  %reduce_sum.130 = f32[] parameter(1), metadata={op_name="reduce_sum"}
  ROOT %reduce_sum.131 = f32[] add(%reduce_sum.129, %reduce_sum.130), metadata={op_name="jit(train_step)/jvp(DETR)/EncoderLayer_1/LayerNorm_1/reduce_sum" stack_frame_id=24}
}

%region_21.28 (reduce_sum.136: f32[], reduce_sum.137: f32[]) -> f32[] {
  %reduce_sum.136 = f32[] parameter(0), metadata={op_name="reduce_sum"}
  %reduce_sum.137 = f32[] parameter(1), metadata={op_name="reduce_sum"}
  ROOT %reduce_sum.138 = f32[] add(%reduce_sum.136, %reduce_sum.137), metadata={op_name="jit(train_step)/jvp(DETR)/EncoderLayer_1/LayerNorm_1/reduce_sum" stack_frame_id=24}
}

%region_22.29 (reduce_max.17: f32[], reduce_max.18: f32[]) -> f32[] {
  %reduce_max.17 = f32[] parameter(0), metadata={op_name="reduce_max"}
  %reduce_max.18 = f32[] parameter(1), metadata={op_name="reduce_max"}
  ROOT %reduce_max.19 = f32[] maximum(%reduce_max.17, %reduce_max.18), metadata={op_name="jit(train_step)/jvp(DETR)/EncoderLayer_2/MultiHeadDotProductAttention_0/reduce_max" stack_frame_id=14}
}

%region_23.30 (reduce_sum.143: f32[], reduce_sum.144: f32[]) -> f32[] {
  %reduce_sum.143 = f32[] parameter(0), metadata={op_name="reduce_sum"}
  %reduce_sum.144 = f32[] parameter(1), metadata={op_name="reduce_sum"}
  ROOT %reduce_sum.145 = f32[] add(%reduce_sum.143, %reduce_sum.144), metadata={op_name="jit(train_step)/jvp(DETR)/EncoderLayer_2/MultiHeadDotProductAttention_0/reduce_sum" stack_frame_id=14}
}

%region_24.31 (reduce_sum.150: f32[], reduce_sum.151: f32[]) -> f32[] {
  %reduce_sum.150 = f32[] parameter(0), metadata={op_name="reduce_sum"}
  %reduce_sum.151 = f32[] parameter(1), metadata={op_name="reduce_sum"}
  ROOT %reduce_sum.152 = f32[] add(%reduce_sum.150, %reduce_sum.151), metadata={op_name="jit(train_step)/jvp(DETR)/EncoderLayer_2/LayerNorm_0/reduce_sum" stack_frame_id=19}
}

%region_25.32 (reduce_sum.157: f32[], reduce_sum.158: f32[]) -> f32[] {
  %reduce_sum.157 = f32[] parameter(0), metadata={op_name="reduce_sum"}
  %reduce_sum.158 = f32[] parameter(1), metadata={op_name="reduce_sum"}
  ROOT %reduce_sum.159 = f32[] add(%reduce_sum.157, %reduce_sum.158), metadata={op_name="jit(train_step)/jvp(DETR)/EncoderLayer_2/LayerNorm_0/reduce_sum" stack_frame_id=19}
}

%region_26.33 (reduce_sum.164: f32[], reduce_sum.165: f32[]) -> f32[] {
  %reduce_sum.164 = f32[] parameter(0), metadata={op_name="reduce_sum"}
  %reduce_sum.165 = f32[] parameter(1), metadata={op_name="reduce_sum"}
  ROOT %reduce_sum.166 = f32[] add(%reduce_sum.164, %reduce_sum.165), metadata={op_name="jit(train_step)/jvp(DETR)/EncoderLayer_2/LayerNorm_1/reduce_sum" stack_frame_id=24}
}

%region_27.34 (reduce_sum.171: f32[], reduce_sum.172: f32[]) -> f32[] {
  %reduce_sum.171 = f32[] parameter(0), metadata={op_name="reduce_sum"}
  %reduce_sum.172 = f32[] parameter(1), metadata={op_name="reduce_sum"}
  ROOT %reduce_sum.173 = f32[] add(%reduce_sum.171, %reduce_sum.172), metadata={op_name="jit(train_step)/jvp(DETR)/EncoderLayer_2/LayerNorm_1/reduce_sum" stack_frame_id=24}
}

%region_28.35 (reduce_max.24: f32[], reduce_max.25: f32[]) -> f32[] {
  %reduce_max.24 = f32[] parameter(0), metadata={op_name="reduce_max"}
  %reduce_max.25 = f32[] parameter(1), metadata={op_name="reduce_max"}
  ROOT %reduce_max.26 = f32[] maximum(%reduce_max.24, %reduce_max.25), metadata={op_name="jit(train_step)/jvp(DETR)/EncoderLayer_3/MultiHeadDotProductAttention_0/reduce_max" stack_frame_id=14}
}

%region_29.36 (reduce_sum.178: f32[], reduce_sum.179: f32[]) -> f32[] {
  %reduce_sum.178 = f32[] parameter(0), metadata={op_name="reduce_sum"}
  %reduce_sum.179 = f32[] parameter(1), metadata={op_name="reduce_sum"}
  ROOT %reduce_sum.180 = f32[] add(%reduce_sum.178, %reduce_sum.179), metadata={op_name="jit(train_step)/jvp(DETR)/EncoderLayer_3/MultiHeadDotProductAttention_0/reduce_sum" stack_frame_id=14}
}

%region_30.37 (reduce_sum.185: f32[], reduce_sum.186: f32[]) -> f32[] {
  %reduce_sum.185 = f32[] parameter(0), metadata={op_name="reduce_sum"}
  %reduce_sum.186 = f32[] parameter(1), metadata={op_name="reduce_sum"}
  ROOT %reduce_sum.187 = f32[] add(%reduce_sum.185, %reduce_sum.186), metadata={op_name="jit(train_step)/jvp(DETR)/EncoderLayer_3/LayerNorm_0/reduce_sum" stack_frame_id=19}
}

%region_31.38 (reduce_sum.192: f32[], reduce_sum.193: f32[]) -> f32[] {
  %reduce_sum.192 = f32[] parameter(0), metadata={op_name="reduce_sum"}
  %reduce_sum.193 = f32[] parameter(1), metadata={op_name="reduce_sum"}
  ROOT %reduce_sum.194 = f32[] add(%reduce_sum.192, %reduce_sum.193), metadata={op_name="jit(train_step)/jvp(DETR)/EncoderLayer_3/LayerNorm_0/reduce_sum" stack_frame_id=19}
}

%region_32.39 (reduce_sum.199: f32[], reduce_sum.200: f32[]) -> f32[] {
  %reduce_sum.199 = f32[] parameter(0), metadata={op_name="reduce_sum"}
  %reduce_sum.200 = f32[] parameter(1), metadata={op_name="reduce_sum"}
  ROOT %reduce_sum.201 = f32[] add(%reduce_sum.199, %reduce_sum.200), metadata={op_name="jit(train_step)/jvp(DETR)/EncoderLayer_3/LayerNorm_1/reduce_sum" stack_frame_id=24}
}

%region_33.40 (reduce_sum.206: f32[], reduce_sum.207: f32[]) -> f32[] {
  %reduce_sum.206 = f32[] parameter(0), metadata={op_name="reduce_sum"}
  %reduce_sum.207 = f32[] parameter(1), metadata={op_name="reduce_sum"}
  ROOT %reduce_sum.208 = f32[] add(%reduce_sum.206, %reduce_sum.207), metadata={op_name="jit(train_step)/jvp(DETR)/EncoderLayer_3/LayerNorm_1/reduce_sum" stack_frame_id=24}
}

%region_34.41 (reduce_max.31: f32[], reduce_max.32: f32[]) -> f32[] {
  %reduce_max.31 = f32[] parameter(0), metadata={op_name="reduce_max"}
  %reduce_max.32 = f32[] parameter(1), metadata={op_name="reduce_max"}
  ROOT %reduce_max.33 = f32[] maximum(%reduce_max.31, %reduce_max.32), metadata={op_name="jit(train_step)/jvp(DETR)/EncoderLayer_4/MultiHeadDotProductAttention_0/reduce_max" stack_frame_id=14}
}

%region_35.42 (reduce_sum.213: f32[], reduce_sum.214: f32[]) -> f32[] {
  %reduce_sum.213 = f32[] parameter(0), metadata={op_name="reduce_sum"}
  %reduce_sum.214 = f32[] parameter(1), metadata={op_name="reduce_sum"}
  ROOT %reduce_sum.215 = f32[] add(%reduce_sum.213, %reduce_sum.214), metadata={op_name="jit(train_step)/jvp(DETR)/EncoderLayer_4/MultiHeadDotProductAttention_0/reduce_sum" stack_frame_id=14}
}

%region_36.43 (reduce_sum.220: f32[], reduce_sum.221: f32[]) -> f32[] {
  %reduce_sum.220 = f32[] parameter(0), metadata={op_name="reduce_sum"}
  %reduce_sum.221 = f32[] parameter(1), metadata={op_name="reduce_sum"}
  ROOT %reduce_sum.222 = f32[] add(%reduce_sum.220, %reduce_sum.221), metadata={op_name="jit(train_step)/jvp(DETR)/EncoderLayer_4/LayerNorm_0/reduce_sum" stack_frame_id=19}
}

%region_37.44 (reduce_sum.227: f32[], reduce_sum.228: f32[]) -> f32[] {
  %reduce_sum.227 = f32[] parameter(0), metadata={op_name="reduce_sum"}
  %reduce_sum.228 = f32[] parameter(1), metadata={op_name="reduce_sum"}
  ROOT %reduce_sum.229 = f32[] add(%reduce_sum.227, %reduce_sum.228), metadata={op_name="jit(train_step)/jvp(DETR)/EncoderLayer_4/LayerNorm_0/reduce_sum" stack_frame_id=19}
}

%region_38.45 (reduce_sum.234: f32[], reduce_sum.235: f32[]) -> f32[] {
  %reduce_sum.234 = f32[] parameter(0), metadata={op_name="reduce_sum"}
  %reduce_sum.235 = f32[] parameter(1), metadata={op_name="reduce_sum"}
  ROOT %reduce_sum.236 = f32[] add(%reduce_sum.234, %reduce_sum.235), metadata={op_name="jit(train_step)/jvp(DETR)/EncoderLayer_4/LayerNorm_1/reduce_sum" stack_frame_id=24}
}

%region_39.46 (reduce_sum.241: f32[], reduce_sum.242: f32[]) -> f32[] {
  %reduce_sum.241 = f32[] parameter(0), metadata={op_name="reduce_sum"}
  %reduce_sum.242 = f32[] parameter(1), metadata={op_name="reduce_sum"}
  ROOT %reduce_sum.243 = f32[] add(%reduce_sum.241, %reduce_sum.242), metadata={op_name="jit(train_step)/jvp(DETR)/EncoderLayer_4/LayerNorm_1/reduce_sum" stack_frame_id=24}
}

%region_40.47 (reduce_max.38: f32[], reduce_max.39: f32[]) -> f32[] {
  %reduce_max.38 = f32[] parameter(0), metadata={op_name="reduce_max"}
  %reduce_max.39 = f32[] parameter(1), metadata={op_name="reduce_max"}
  ROOT %reduce_max.40 = f32[] maximum(%reduce_max.38, %reduce_max.39), metadata={op_name="jit(train_step)/jvp(DETR)/EncoderLayer_5/MultiHeadDotProductAttention_0/reduce_max" stack_frame_id=14}
}

%region_41.48 (reduce_sum.248: f32[], reduce_sum.249: f32[]) -> f32[] {
  %reduce_sum.248 = f32[] parameter(0), metadata={op_name="reduce_sum"}
  %reduce_sum.249 = f32[] parameter(1), metadata={op_name="reduce_sum"}
  ROOT %reduce_sum.250 = f32[] add(%reduce_sum.248, %reduce_sum.249), metadata={op_name="jit(train_step)/jvp(DETR)/EncoderLayer_5/MultiHeadDotProductAttention_0/reduce_sum" stack_frame_id=14}
}

%region_42.49 (reduce_sum.255: f32[], reduce_sum.256: f32[]) -> f32[] {
  %reduce_sum.255 = f32[] parameter(0), metadata={op_name="reduce_sum"}
  %reduce_sum.256 = f32[] parameter(1), metadata={op_name="reduce_sum"}
  ROOT %reduce_sum.257 = f32[] add(%reduce_sum.255, %reduce_sum.256), metadata={op_name="jit(train_step)/jvp(DETR)/EncoderLayer_5/LayerNorm_0/reduce_sum" stack_frame_id=19}
}

%region_43.50 (reduce_sum.262: f32[], reduce_sum.263: f32[]) -> f32[] {
  %reduce_sum.262 = f32[] parameter(0), metadata={op_name="reduce_sum"}
  %reduce_sum.263 = f32[] parameter(1), metadata={op_name="reduce_sum"}
  ROOT %reduce_sum.264 = f32[] add(%reduce_sum.262, %reduce_sum.263), metadata={op_name="jit(train_step)/jvp(DETR)/EncoderLayer_5/LayerNorm_0/reduce_sum" stack_frame_id=19}
}

%region_44.51 (reduce_sum.269: f32[], reduce_sum.270: f32[]) -> f32[] {
  %reduce_sum.269 = f32[] parameter(0), metadata={op_name="reduce_sum"}
  %reduce_sum.270 = f32[] parameter(1), metadata={op_name="reduce_sum"}
  ROOT %reduce_sum.271 = f32[] add(%reduce_sum.269, %reduce_sum.270), metadata={op_name="jit(train_step)/jvp(DETR)/EncoderLayer_5/LayerNorm_1/reduce_sum" stack_frame_id=24}
}

%region_45.52 (reduce_sum.276: f32[], reduce_sum.277: f32[]) -> f32[] {
  %reduce_sum.276 = f32[] parameter(0), metadata={op_name="reduce_sum"}
  %reduce_sum.277 = f32[] parameter(1), metadata={op_name="reduce_sum"}
  ROOT %reduce_sum.278 = f32[] add(%reduce_sum.276, %reduce_sum.277), metadata={op_name="jit(train_step)/jvp(DETR)/EncoderLayer_5/LayerNorm_1/reduce_sum" stack_frame_id=24}
}

%region_50.57 (reduce_max.52: f32[], reduce_max.53: f32[]) -> f32[] {
  %reduce_max.52 = f32[] parameter(0), metadata={op_name="reduce_max"}
  %reduce_max.53 = f32[] parameter(1), metadata={op_name="reduce_max"}
  ROOT %reduce_max.54 = f32[] maximum(%reduce_max.52, %reduce_max.53), metadata={op_name="jit(train_step)/jvp(DETR)/DecoderLayer_0/MultiHeadDotProductAttention_1/reduce_max" stack_frame_id=38}
}

%region_51.58 (reduce_sum.304: f32[], reduce_sum.305: f32[]) -> f32[] {
  %reduce_sum.304 = f32[] parameter(0), metadata={op_name="reduce_sum"}
  %reduce_sum.305 = f32[] parameter(1), metadata={op_name="reduce_sum"}
  ROOT %reduce_sum.306 = f32[] add(%reduce_sum.304, %reduce_sum.305), metadata={op_name="jit(train_step)/jvp(DETR)/DecoderLayer_0/MultiHeadDotProductAttention_1/reduce_sum" stack_frame_id=38}
}

%region_52.59 (reduce_sum.311: f32[], reduce_sum.312: f32[]) -> f32[] {
  %reduce_sum.311 = f32[] parameter(0), metadata={op_name="reduce_sum"}
  %reduce_sum.312 = f32[] parameter(1), metadata={op_name="reduce_sum"}
  ROOT %reduce_sum.313 = f32[] add(%reduce_sum.311, %reduce_sum.312), metadata={op_name="jit(train_step)/jvp(DETR)/DecoderLayer_0/LayerNorm_1/reduce_sum" stack_frame_id=43}
}

%region_53.60 (reduce_sum.318: f32[], reduce_sum.319: f32[]) -> f32[] {
  %reduce_sum.318 = f32[] parameter(0), metadata={op_name="reduce_sum"}
  %reduce_sum.319 = f32[] parameter(1), metadata={op_name="reduce_sum"}
  ROOT %reduce_sum.320 = f32[] add(%reduce_sum.318, %reduce_sum.319), metadata={op_name="jit(train_step)/jvp(DETR)/DecoderLayer_0/LayerNorm_1/reduce_sum" stack_frame_id=43}
}

%relu_5.61 (Arg_0.13: f32[4,100,2048]) -> f32[4,100,2048] {
  %Arg_0.13 = f32[4,100,2048]{2,1,0} parameter(0)
  %constant.243 = f32[] constant(0)
  %max.54 = f32[4,100,2048]{2,1,0} broadcast(%constant.243), dimensions={}, metadata={op_name="max"}
  ROOT %max.55 = f32[4,100,2048]{2,1,0} maximum(%Arg_0.13, %max.54), metadata={op_name="max"}
}

%region_54.62 (reduce_sum.325: f32[], reduce_sum.326: f32[]) -> f32[] {
  %reduce_sum.325 = f32[] parameter(0), metadata={op_name="reduce_sum"}
  %reduce_sum.326 = f32[] parameter(1), metadata={op_name="reduce_sum"}
  ROOT %reduce_sum.327 = f32[] add(%reduce_sum.325, %reduce_sum.326), metadata={op_name="jit(train_step)/jvp(DETR)/DecoderLayer_0/LayerNorm_2/reduce_sum" stack_frame_id=48}
}

%region_55.63 (reduce_sum.332: f32[], reduce_sum.333: f32[]) -> f32[] {
  %reduce_sum.332 = f32[] parameter(0), metadata={op_name="reduce_sum"}
  %reduce_sum.333 = f32[] parameter(1), metadata={op_name="reduce_sum"}
  ROOT %reduce_sum.334 = f32[] add(%reduce_sum.332, %reduce_sum.333), metadata={op_name="jit(train_step)/jvp(DETR)/DecoderLayer_0/LayerNorm_2/reduce_sum" stack_frame_id=48}
}

%region_56.64 (reduce_max.59: f32[], reduce_max.60: f32[]) -> f32[] {
  %reduce_max.59 = f32[] parameter(0), metadata={op_name="reduce_max"}
  %reduce_max.60 = f32[] parameter(1), metadata={op_name="reduce_max"}
  ROOT %reduce_max.61 = f32[] maximum(%reduce_max.59, %reduce_max.60), metadata={op_name="jit(train_step)/jvp(DETR)/DecoderLayer_1/MultiHeadDotProductAttention_0/reduce_max" stack_frame_id=29}
}

%region_57.65 (reduce_sum.339: f32[], reduce_sum.340: f32[]) -> f32[] {
  %reduce_sum.339 = f32[] parameter(0), metadata={op_name="reduce_sum"}
  %reduce_sum.340 = f32[] parameter(1), metadata={op_name="reduce_sum"}
  ROOT %reduce_sum.341 = f32[] add(%reduce_sum.339, %reduce_sum.340), metadata={op_name="jit(train_step)/jvp(DETR)/DecoderLayer_1/MultiHeadDotProductAttention_0/reduce_sum" stack_frame_id=29}
}

%region_58.66 (reduce_sum.346: f32[], reduce_sum.347: f32[]) -> f32[] {
  %reduce_sum.346 = f32[] parameter(0), metadata={op_name="reduce_sum"}
  %reduce_sum.347 = f32[] parameter(1), metadata={op_name="reduce_sum"}
  ROOT %reduce_sum.348 = f32[] add(%reduce_sum.346, %reduce_sum.347), metadata={op_name="jit(train_step)/jvp(DETR)/DecoderLayer_1/LayerNorm_0/reduce_sum" stack_frame_id=34}
}

%region_59.67 (reduce_sum.353: f32[], reduce_sum.354: f32[]) -> f32[] {
  %reduce_sum.353 = f32[] parameter(0), metadata={op_name="reduce_sum"}
  %reduce_sum.354 = f32[] parameter(1), metadata={op_name="reduce_sum"}
  ROOT %reduce_sum.355 = f32[] add(%reduce_sum.353, %reduce_sum.354), metadata={op_name="jit(train_step)/jvp(DETR)/DecoderLayer_1/LayerNorm_0/reduce_sum" stack_frame_id=34}
}

%region_60.68 (reduce_max.66: f32[], reduce_max.67: f32[]) -> f32[] {
  %reduce_max.66 = f32[] parameter(0), metadata={op_name="reduce_max"}
  %reduce_max.67 = f32[] parameter(1), metadata={op_name="reduce_max"}
  ROOT %reduce_max.68 = f32[] maximum(%reduce_max.66, %reduce_max.67), metadata={op_name="jit(train_step)/jvp(DETR)/DecoderLayer_1/MultiHeadDotProductAttention_1/reduce_max" stack_frame_id=38}
}

%region_61.69 (reduce_sum.360: f32[], reduce_sum.361: f32[]) -> f32[] {
  %reduce_sum.360 = f32[] parameter(0), metadata={op_name="reduce_sum"}
  %reduce_sum.361 = f32[] parameter(1), metadata={op_name="reduce_sum"}
  ROOT %reduce_sum.362 = f32[] add(%reduce_sum.360, %reduce_sum.361), metadata={op_name="jit(train_step)/jvp(DETR)/DecoderLayer_1/MultiHeadDotProductAttention_1/reduce_sum" stack_frame_id=38}
}

%region_62.70 (reduce_sum.367: f32[], reduce_sum.368: f32[]) -> f32[] {
  %reduce_sum.367 = f32[] parameter(0), metadata={op_name="reduce_sum"}
  %reduce_sum.368 = f32[] parameter(1), metadata={op_name="reduce_sum"}
  ROOT %reduce_sum.369 = f32[] add(%reduce_sum.367, %reduce_sum.368), metadata={op_name="jit(train_step)/jvp(DETR)/DecoderLayer_1/LayerNorm_1/reduce_sum" stack_frame_id=43}
}

%region_63.71 (reduce_sum.374: f32[], reduce_sum.375: f32[]) -> f32[] {
  %reduce_sum.374 = f32[] parameter(0), metadata={op_name="reduce_sum"}
  %reduce_sum.375 = f32[] parameter(1), metadata={op_name="reduce_sum"}
  ROOT %reduce_sum.376 = f32[] add(%reduce_sum.374, %reduce_sum.375), metadata={op_name="jit(train_step)/jvp(DETR)/DecoderLayer_1/LayerNorm_1/reduce_sum" stack_frame_id=43}
}

%region_64.72 (reduce_sum.381: f32[], reduce_sum.382: f32[]) -> f32[] {
  %reduce_sum.381 = f32[] parameter(0), metadata={op_name="reduce_sum"}
  %reduce_sum.382 = f32[] parameter(1), metadata={op_name="reduce_sum"}
  ROOT %reduce_sum.383 = f32[] add(%reduce_sum.381, %reduce_sum.382), metadata={op_name="jit(train_step)/jvp(DETR)/DecoderLayer_1/LayerNorm_2/reduce_sum" stack_frame_id=48}
}

%region_65.73 (reduce_sum.388: f32[], reduce_sum.389: f32[]) -> f32[] {
  %reduce_sum.388 = f32[] parameter(0), metadata={op_name="reduce_sum"}
  %reduce_sum.389 = f32[] parameter(1), metadata={op_name="reduce_sum"}
  ROOT %reduce_sum.390 = f32[] add(%reduce_sum.388, %reduce_sum.389), metadata={op_name="jit(train_step)/jvp(DETR)/DecoderLayer_1/LayerNorm_2/reduce_sum" stack_frame_id=48}
}

%region_66.74 (reduce_max.73: f32[], reduce_max.74: f32[]) -> f32[] {
  %reduce_max.73 = f32[] parameter(0), metadata={op_name="reduce_max"}
  %reduce_max.74 = f32[] parameter(1), metadata={op_name="reduce_max"}
  ROOT %reduce_max.75 = f32[] maximum(%reduce_max.73, %reduce_max.74), metadata={op_name="jit(train_step)/jvp(DETR)/DecoderLayer_2/MultiHeadDotProductAttention_0/reduce_max" stack_frame_id=29}
}

%region_67.75 (reduce_sum.395: f32[], reduce_sum.396: f32[]) -> f32[] {
  %reduce_sum.395 = f32[] parameter(0), metadata={op_name="reduce_sum"}
  %reduce_sum.396 = f32[] parameter(1), metadata={op_name="reduce_sum"}
  ROOT %reduce_sum.397 = f32[] add(%reduce_sum.395, %reduce_sum.396), metadata={op_name="jit(train_step)/jvp(DETR)/DecoderLayer_2/MultiHeadDotProductAttention_0/reduce_sum" stack_frame_id=29}
}

%region_68.76 (reduce_sum.402: f32[], reduce_sum.403: f32[]) -> f32[] {
  %reduce_sum.402 = f32[] parameter(0), metadata={op_name="reduce_sum"}
  %reduce_sum.403 = f32[] parameter(1), metadata={op_name="reduce_sum"}
  ROOT %reduce_sum.404 = f32[] add(%reduce_sum.402, %reduce_sum.403), metadata={op_name="jit(train_step)/jvp(DETR)/DecoderLayer_2/LayerNorm_0/reduce_sum" stack_frame_id=34}
}

%region_69.77 (reduce_sum.409: f32[], reduce_sum.410: f32[]) -> f32[] {
  %reduce_sum.409 = f32[] parameter(0), metadata={op_name="reduce_sum"}
  %reduce_sum.410 = f32[] parameter(1), metadata={op_name="reduce_sum"}
  ROOT %reduce_sum.411 = f32[] add(%reduce_sum.409, %reduce_sum.410), metadata={op_name="jit(train_step)/jvp(DETR)/DecoderLayer_2/LayerNorm_0/reduce_sum" stack_frame_id=34}
}

%region_70.78 (reduce_max.80: f32[], reduce_max.81: f32[]) -> f32[] {
  %reduce_max.80 = f32[] parameter(0), metadata={op_name="reduce_max"}
  %reduce_max.81 = f32[] parameter(1), metadata={op_name="reduce_max"}
  ROOT %reduce_max.82 = f32[] maximum(%reduce_max.80, %reduce_max.81), metadata={op_name="jit(train_step)/jvp(DETR)/DecoderLayer_2/MultiHeadDotProductAttention_1/reduce_max" stack_frame_id=38}
}

%region_71.79 (reduce_sum.416: f32[], reduce_sum.417: f32[]) -> f32[] {
  %reduce_sum.416 = f32[] parameter(0), metadata={op_name="reduce_sum"}
  %reduce_sum.417 = f32[] parameter(1), metadata={op_name="reduce_sum"}
  ROOT %reduce_sum.418 = f32[] add(%reduce_sum.416, %reduce_sum.417), metadata={op_name="jit(train_step)/jvp(DETR)/DecoderLayer_2/MultiHeadDotProductAttention_1/reduce_sum" stack_frame_id=38}
}

%region_72.80 (reduce_sum.423: f32[], reduce_sum.424: f32[]) -> f32[] {
  %reduce_sum.423 = f32[] parameter(0), metadata={op_name="reduce_sum"}
  %reduce_sum.424 = f32[] parameter(1), metadata={op_name="reduce_sum"}
  ROOT %reduce_sum.425 = f32[] add(%reduce_sum.423, %reduce_sum.424), metadata={op_name="jit(train_step)/jvp(DETR)/DecoderLayer_2/LayerNorm_1/reduce_sum" stack_frame_id=43}
}

%region_73.81 (reduce_sum.430: f32[], reduce_sum.431: f32[]) -> f32[] {
  %reduce_sum.430 = f32[] parameter(0), metadata={op_name="reduce_sum"}
  %reduce_sum.431 = f32[] parameter(1), metadata={op_name="reduce_sum"}
  ROOT %reduce_sum.432 = f32[] add(%reduce_sum.430, %reduce_sum.431), metadata={op_name="jit(train_step)/jvp(DETR)/DecoderLayer_2/LayerNorm_1/reduce_sum" stack_frame_id=43}
}

%region_74.82 (reduce_sum.437: f32[], reduce_sum.438: f32[]) -> f32[] {
  %reduce_sum.437 = f32[] parameter(0), metadata={op_name="reduce_sum"}
  %reduce_sum.438 = f32[] parameter(1), metadata={op_name="reduce_sum"}
  ROOT %reduce_sum.439 = f32[] add(%reduce_sum.437, %reduce_sum.438), metadata={op_name="jit(train_step)/jvp(DETR)/DecoderLayer_2/LayerNorm_2/reduce_sum" stack_frame_id=48}
}

%region_75.83 (reduce_sum.444: f32[], reduce_sum.445: f32[]) -> f32[] {
  %reduce_sum.444 = f32[] parameter(0), metadata={op_name="reduce_sum"}
  %reduce_sum.445 = f32[] parameter(1), metadata={op_name="reduce_sum"}
  ROOT %reduce_sum.446 = f32[] add(%reduce_sum.444, %reduce_sum.445), metadata={op_name="jit(train_step)/jvp(DETR)/DecoderLayer_2/LayerNorm_2/reduce_sum" stack_frame_id=48}
}

%region_76.84 (reduce_max.87: f32[], reduce_max.88: f32[]) -> f32[] {
  %reduce_max.87 = f32[] parameter(0), metadata={op_name="reduce_max"}
  %reduce_max.88 = f32[] parameter(1), metadata={op_name="reduce_max"}
  ROOT %reduce_max.89 = f32[] maximum(%reduce_max.87, %reduce_max.88), metadata={op_name="jit(train_step)/jvp(DETR)/DecoderLayer_3/MultiHeadDotProductAttention_0/reduce_max" stack_frame_id=29}
}

%region_77.85 (reduce_sum.451: f32[], reduce_sum.452: f32[]) -> f32[] {
  %reduce_sum.451 = f32[] parameter(0), metadata={op_name="reduce_sum"}
  %reduce_sum.452 = f32[] parameter(1), metadata={op_name="reduce_sum"}
  ROOT %reduce_sum.453 = f32[] add(%reduce_sum.451, %reduce_sum.452), metadata={op_name="jit(train_step)/jvp(DETR)/DecoderLayer_3/MultiHeadDotProductAttention_0/reduce_sum" stack_frame_id=29}
}

%region_78.86 (reduce_sum.458: f32[], reduce_sum.459: f32[]) -> f32[] {
  %reduce_sum.458 = f32[] parameter(0), metadata={op_name="reduce_sum"}
  %reduce_sum.459 = f32[] parameter(1), metadata={op_name="reduce_sum"}
  ROOT %reduce_sum.460 = f32[] add(%reduce_sum.458, %reduce_sum.459), metadata={op_name="jit(train_step)/jvp(DETR)/DecoderLayer_3/LayerNorm_0/reduce_sum" stack_frame_id=34}
}

%region_79.87 (reduce_sum.465: f32[], reduce_sum.466: f32[]) -> f32[] {
  %reduce_sum.465 = f32[] parameter(0), metadata={op_name="reduce_sum"}
  %reduce_sum.466 = f32[] parameter(1), metadata={op_name="reduce_sum"}
  ROOT %reduce_sum.467 = f32[] add(%reduce_sum.465, %reduce_sum.466), metadata={op_name="jit(train_step)/jvp(DETR)/DecoderLayer_3/LayerNorm_0/reduce_sum" stack_frame_id=34}
}

%region_80.88 (reduce_max.94: f32[], reduce_max.95: f32[]) -> f32[] {
  %reduce_max.94 = f32[] parameter(0), metadata={op_name="reduce_max"}
  %reduce_max.95 = f32[] parameter(1), metadata={op_name="reduce_max"}
  ROOT %reduce_max.96 = f32[] maximum(%reduce_max.94, %reduce_max.95), metadata={op_name="jit(train_step)/jvp(DETR)/DecoderLayer_3/MultiHeadDotProductAttention_1/reduce_max" stack_frame_id=38}
}

%region_81.89 (reduce_sum.472: f32[], reduce_sum.473: f32[]) -> f32[] {
  %reduce_sum.472 = f32[] parameter(0), metadata={op_name="reduce_sum"}
  %reduce_sum.473 = f32[] parameter(1), metadata={op_name="reduce_sum"}
  ROOT %reduce_sum.474 = f32[] add(%reduce_sum.472, %reduce_sum.473), metadata={op_name="jit(train_step)/jvp(DETR)/DecoderLayer_3/MultiHeadDotProductAttention_1/reduce_sum" stack_frame_id=38}
}

%region_82.90 (reduce_sum.479: f32[], reduce_sum.480: f32[]) -> f32[] {
  %reduce_sum.479 = f32[] parameter(0), metadata={op_name="reduce_sum"}
  %reduce_sum.480 = f32[] parameter(1), metadata={op_name="reduce_sum"}
  ROOT %reduce_sum.481 = f32[] add(%reduce_sum.479, %reduce_sum.480), metadata={op_name="jit(train_step)/jvp(DETR)/DecoderLayer_3/LayerNorm_1/reduce_sum" stack_frame_id=43}
}

%region_83.91 (reduce_sum.486: f32[], reduce_sum.487: f32[]) -> f32[] {
  %reduce_sum.486 = f32[] parameter(0), metadata={op_name="reduce_sum"}
  %reduce_sum.487 = f32[] parameter(1), metadata={op_name="reduce_sum"}
  ROOT %reduce_sum.488 = f32[] add(%reduce_sum.486, %reduce_sum.487), metadata={op_name="jit(train_step)/jvp(DETR)/DecoderLayer_3/LayerNorm_1/reduce_sum" stack_frame_id=43}
}

%region_84.92 (reduce_sum.493: f32[], reduce_sum.494: f32[]) -> f32[] {
  %reduce_sum.493 = f32[] parameter(0), metadata={op_name="reduce_sum"}
  %reduce_sum.494 = f32[] parameter(1), metadata={op_name="reduce_sum"}
  ROOT %reduce_sum.495 = f32[] add(%reduce_sum.493, %reduce_sum.494), metadata={op_name="jit(train_step)/jvp(DETR)/DecoderLayer_3/LayerNorm_2/reduce_sum" stack_frame_id=48}
}

%region_85.93 (reduce_sum.500: f32[], reduce_sum.501: f32[]) -> f32[] {
  %reduce_sum.500 = f32[] parameter(0), metadata={op_name="reduce_sum"}
  %reduce_sum.501 = f32[] parameter(1), metadata={op_name="reduce_sum"}
  ROOT %reduce_sum.502 = f32[] add(%reduce_sum.500, %reduce_sum.501), metadata={op_name="jit(train_step)/jvp(DETR)/DecoderLayer_3/LayerNorm_2/reduce_sum" stack_frame_id=48}
}

%region_86.94 (reduce_max.101: f32[], reduce_max.102: f32[]) -> f32[] {
  %reduce_max.101 = f32[] parameter(0), metadata={op_name="reduce_max"}
  %reduce_max.102 = f32[] parameter(1), metadata={op_name="reduce_max"}
  ROOT %reduce_max.103 = f32[] maximum(%reduce_max.101, %reduce_max.102), metadata={op_name="jit(train_step)/jvp(DETR)/DecoderLayer_4/MultiHeadDotProductAttention_0/reduce_max" stack_frame_id=29}
}

%region_87.95 (reduce_sum.507: f32[], reduce_sum.508: f32[]) -> f32[] {
  %reduce_sum.507 = f32[] parameter(0), metadata={op_name="reduce_sum"}
  %reduce_sum.508 = f32[] parameter(1), metadata={op_name="reduce_sum"}
  ROOT %reduce_sum.509 = f32[] add(%reduce_sum.507, %reduce_sum.508), metadata={op_name="jit(train_step)/jvp(DETR)/DecoderLayer_4/MultiHeadDotProductAttention_0/reduce_sum" stack_frame_id=29}
}

%region_88.96 (reduce_sum.514: f32[], reduce_sum.515: f32[]) -> f32[] {
  %reduce_sum.514 = f32[] parameter(0), metadata={op_name="reduce_sum"}
  %reduce_sum.515 = f32[] parameter(1), metadata={op_name="reduce_sum"}
  ROOT %reduce_sum.516 = f32[] add(%reduce_sum.514, %reduce_sum.515), metadata={op_name="jit(train_step)/jvp(DETR)/DecoderLayer_4/LayerNorm_0/reduce_sum" stack_frame_id=34}
}

%region_89.97 (reduce_sum.521: f32[], reduce_sum.522: f32[]) -> f32[] {
  %reduce_sum.521 = f32[] parameter(0), metadata={op_name="reduce_sum"}
  %reduce_sum.522 = f32[] parameter(1), metadata={op_name="reduce_sum"}
  ROOT %reduce_sum.523 = f32[] add(%reduce_sum.521, %reduce_sum.522), metadata={op_name="jit(train_step)/jvp(DETR)/DecoderLayer_4/LayerNorm_0/reduce_sum" stack_frame_id=34}
}

%region_90.98 (reduce_max.108: f32[], reduce_max.109: f32[]) -> f32[] {
  %reduce_max.108 = f32[] parameter(0), metadata={op_name="reduce_max"}
  %reduce_max.109 = f32[] parameter(1), metadata={op_name="reduce_max"}
  ROOT %reduce_max.110 = f32[] maximum(%reduce_max.108, %reduce_max.109), metadata={op_name="jit(train_step)/jvp(DETR)/DecoderLayer_4/MultiHeadDotProductAttention_1/reduce_max" stack_frame_id=38}
}

%region_91.99 (reduce_sum.528: f32[], reduce_sum.529: f32[]) -> f32[] {
  %reduce_sum.528 = f32[] parameter(0), metadata={op_name="reduce_sum"}
  %reduce_sum.529 = f32[] parameter(1), metadata={op_name="reduce_sum"}
  ROOT %reduce_sum.530 = f32[] add(%reduce_sum.528, %reduce_sum.529), metadata={op_name="jit(train_step)/jvp(DETR)/DecoderLayer_4/MultiHeadDotProductAttention_1/reduce_sum" stack_frame_id=38}
}

%region_92.100 (reduce_sum.535: f32[], reduce_sum.536: f32[]) -> f32[] {
  %reduce_sum.535 = f32[] parameter(0), metadata={op_name="reduce_sum"}
  %reduce_sum.536 = f32[] parameter(1), metadata={op_name="reduce_sum"}
  ROOT %reduce_sum.537 = f32[] add(%reduce_sum.535, %reduce_sum.536), metadata={op_name="jit(train_step)/jvp(DETR)/DecoderLayer_4/LayerNorm_1/reduce_sum" stack_frame_id=43}
}

%region_93.101 (reduce_sum.542: f32[], reduce_sum.543: f32[]) -> f32[] {
  %reduce_sum.542 = f32[] parameter(0), metadata={op_name="reduce_sum"}
  %reduce_sum.543 = f32[] parameter(1), metadata={op_name="reduce_sum"}
  ROOT %reduce_sum.544 = f32[] add(%reduce_sum.542, %reduce_sum.543), metadata={op_name="jit(train_step)/jvp(DETR)/DecoderLayer_4/LayerNorm_1/reduce_sum" stack_frame_id=43}
}

%region_94.102 (reduce_sum.549: f32[], reduce_sum.550: f32[]) -> f32[] {
  %reduce_sum.549 = f32[] parameter(0), metadata={op_name="reduce_sum"}
  %reduce_sum.550 = f32[] parameter(1), metadata={op_name="reduce_sum"}
  ROOT %reduce_sum.551 = f32[] add(%reduce_sum.549, %reduce_sum.550), metadata={op_name="jit(train_step)/jvp(DETR)/DecoderLayer_4/LayerNorm_2/reduce_sum" stack_frame_id=48}
}

%region_95.103 (reduce_sum.556: f32[], reduce_sum.557: f32[]) -> f32[] {
  %reduce_sum.556 = f32[] parameter(0), metadata={op_name="reduce_sum"}
  %reduce_sum.557 = f32[] parameter(1), metadata={op_name="reduce_sum"}
  ROOT %reduce_sum.558 = f32[] add(%reduce_sum.556, %reduce_sum.557), metadata={op_name="jit(train_step)/jvp(DETR)/DecoderLayer_4/LayerNorm_2/reduce_sum" stack_frame_id=48}
}

%region_96.104 (reduce_max.115: f32[], reduce_max.116: f32[]) -> f32[] {
  %reduce_max.115 = f32[] parameter(0), metadata={op_name="reduce_max"}
  %reduce_max.116 = f32[] parameter(1), metadata={op_name="reduce_max"}
  ROOT %reduce_max.117 = f32[] maximum(%reduce_max.115, %reduce_max.116), metadata={op_name="jit(train_step)/jvp(DETR)/DecoderLayer_5/MultiHeadDotProductAttention_0/reduce_max" stack_frame_id=29}
}

%region_97.105 (reduce_sum.563: f32[], reduce_sum.564: f32[]) -> f32[] {
  %reduce_sum.563 = f32[] parameter(0), metadata={op_name="reduce_sum"}
  %reduce_sum.564 = f32[] parameter(1), metadata={op_name="reduce_sum"}
  ROOT %reduce_sum.565 = f32[] add(%reduce_sum.563, %reduce_sum.564), metadata={op_name="jit(train_step)/jvp(DETR)/DecoderLayer_5/MultiHeadDotProductAttention_0/reduce_sum" stack_frame_id=29}
}

%region_98.106 (reduce_sum.570: f32[], reduce_sum.571: f32[]) -> f32[] {
  %reduce_sum.570 = f32[] parameter(0), metadata={op_name="reduce_sum"}
  %reduce_sum.571 = f32[] parameter(1), metadata={op_name="reduce_sum"}
  ROOT %reduce_sum.572 = f32[] add(%reduce_sum.570, %reduce_sum.571), metadata={op_name="jit(train_step)/jvp(DETR)/DecoderLayer_5/LayerNorm_0/reduce_sum" stack_frame_id=34}
}

%region_99.107 (reduce_sum.577: f32[], reduce_sum.578: f32[]) -> f32[] {
  %reduce_sum.577 = f32[] parameter(0), metadata={op_name="reduce_sum"}
  %reduce_sum.578 = f32[] parameter(1), metadata={op_name="reduce_sum"}
  ROOT %reduce_sum.579 = f32[] add(%reduce_sum.577, %reduce_sum.578), metadata={op_name="jit(train_step)/jvp(DETR)/DecoderLayer_5/LayerNorm_0/reduce_sum" stack_frame_id=34}
}

%region_100.108 (reduce_max.122: f32[], reduce_max.123: f32[]) -> f32[] {
  %reduce_max.122 = f32[] parameter(0), metadata={op_name="reduce_max"}
  %reduce_max.123 = f32[] parameter(1), metadata={op_name="reduce_max"}
  ROOT %reduce_max.124 = f32[] maximum(%reduce_max.122, %reduce_max.123), metadata={op_name="jit(train_step)/jvp(DETR)/DecoderLayer_5/MultiHeadDotProductAttention_1/reduce_max" stack_frame_id=38}
}

%region_101.109 (reduce_sum.584: f32[], reduce_sum.585: f32[]) -> f32[] {
  %reduce_sum.584 = f32[] parameter(0), metadata={op_name="reduce_sum"}
  %reduce_sum.585 = f32[] parameter(1), metadata={op_name="reduce_sum"}
  ROOT %reduce_sum.586 = f32[] add(%reduce_sum.584, %reduce_sum.585), metadata={op_name="jit(train_step)/jvp(DETR)/DecoderLayer_5/MultiHeadDotProductAttention_1/reduce_sum" stack_frame_id=38}
}

%region_102.110 (reduce_sum.591: f32[], reduce_sum.592: f32[]) -> f32[] {
  %reduce_sum.591 = f32[] parameter(0), metadata={op_name="reduce_sum"}
  %reduce_sum.592 = f32[] parameter(1), metadata={op_name="reduce_sum"}
  ROOT %reduce_sum.593 = f32[] add(%reduce_sum.591, %reduce_sum.592), metadata={op_name="jit(train_step)/jvp(DETR)/DecoderLayer_5/LayerNorm_1/reduce_sum" stack_frame_id=43}
}

%region_103.111 (reduce_sum.598: f32[], reduce_sum.599: f32[]) -> f32[] {
  %reduce_sum.598 = f32[] parameter(0), metadata={op_name="reduce_sum"}
  %reduce_sum.599 = f32[] parameter(1), metadata={op_name="reduce_sum"}
  ROOT %reduce_sum.600 = f32[] add(%reduce_sum.598, %reduce_sum.599), metadata={op_name="jit(train_step)/jvp(DETR)/DecoderLayer_5/LayerNorm_1/reduce_sum" stack_frame_id=43}
}

%region_104.112 (reduce_sum.605: f32[], reduce_sum.606: f32[]) -> f32[] {
  %reduce_sum.605 = f32[] parameter(0), metadata={op_name="reduce_sum"}
  %reduce_sum.606 = f32[] parameter(1), metadata={op_name="reduce_sum"}
  ROOT %reduce_sum.607 = f32[] add(%reduce_sum.605, %reduce_sum.606), metadata={op_name="jit(train_step)/jvp(DETR)/DecoderLayer_5/LayerNorm_2/reduce_sum" stack_frame_id=48}
}

%region_105.113 (reduce_sum.612: f32[], reduce_sum.613: f32[]) -> f32[] {
  %reduce_sum.612 = f32[] parameter(0), metadata={op_name="reduce_sum"}
  %reduce_sum.613 = f32[] parameter(1), metadata={op_name="reduce_sum"}
  ROOT %reduce_sum.614 = f32[] add(%reduce_sum.612, %reduce_sum.613), metadata={op_name="jit(train_step)/jvp(DETR)/DecoderLayer_5/LayerNorm_2/reduce_sum" stack_frame_id=48}
}

%relu_6.114 (Arg_0.15: f32[4,100,256]) -> f32[4,100,256] {
  %Arg_0.15 = f32[4,100,256]{2,1,0} parameter(0)
  %constant.245 = f32[] constant(0)
  %max.84 = f32[4,100,256]{2,1,0} broadcast(%constant.245), dimensions={}, metadata={op_name="max"}
  ROOT %max.85 = f32[4,100,256]{2,1,0} maximum(%Arg_0.15, %max.84), metadata={op_name="max"}
}

%region_108.120 (reduce_max.129: f32[], reduce_max.130: f32[]) -> f32[] {
  %reduce_max.129 = f32[] parameter(0), metadata={op_name="reduce_max"}
  %reduce_max.130 = f32[] parameter(1), metadata={op_name="reduce_max"}
  ROOT %reduce_max.131 = f32[] maximum(%reduce_max.129, %reduce_max.130), metadata={op_name="jit(train_step)/jvp()/reduce_max" stack_frame_id=50}
}

%region_109.121 (reduce_sum.619: f32[], reduce_sum.620: f32[]) -> f32[] {
  %reduce_sum.619 = f32[] parameter(0), metadata={op_name="reduce_sum"}
  %reduce_sum.620 = f32[] parameter(1), metadata={op_name="reduce_sum"}
  ROOT %reduce_sum.621 = f32[] add(%reduce_sum.619, %reduce_sum.620), metadata={op_name="jit(train_step)/jvp()/reduce_sum" stack_frame_id=50}
}

%region_106.115 (reduce_and.3: pred[], reduce_and.4: pred[]) -> pred[] {
  %reduce_and.3 = pred[] parameter(0), metadata={op_name="reduce_and"}
  %reduce_and.4 = pred[] parameter(1), metadata={op_name="reduce_and"}
  ROOT %reduce_and.5 = pred[] and(%reduce_and.3, %reduce_and.4), metadata={op_name="reduce_and"}
}

%take_along_axis.116 (Arg_0.17: f32[4,100,92], Arg_1.1: s32[4,100,1]) -> (f32[4,100,1], s32[4,100,1,1]) {
  %Arg_1.1 = s32[4,100,1]{2,1,0} parameter(1)
  %constant.257 = s32[] constant(0)
  %lt.2 = s32[4,100,1]{2,1,0} broadcast(%constant.257), dimensions={}, metadata={op_name="lt"}
  %lt.3 = pred[4,100,1]{2,1,0} compare(%Arg_1.1, %lt.2), direction=LT, metadata={op_name="lt"}
  %constant.255 = s32[] constant(92)
  %add.693 = s32[4,100,1]{2,1,0} broadcast(%constant.255), dimensions={}, metadata={op_name="add"}
  %add.694 = s32[4,100,1]{2,1,0} add(%Arg_1.1, %add.693), metadata={op_name="add"}
  %select_n.72 = s32[4,100,1]{2,1,0} select(%lt.3, %add.694, %Arg_1.1), metadata={op_name="select_n"}
  %reshape.174 = s32[4,100,1,1]{3,2,1,0} reshape(%select_n.72), metadata={op_name="reshape"}
  %constant.254 = s32[] constant(0)
  %ge.2 = s32[4,100,1,1]{3,2,1,0} broadcast(%constant.254), dimensions={}, metadata={op_name="ge"}
  %ge.3 = pred[4,100,1,1]{3,2,1,0} compare(%reshape.174, %ge.2), direction=GE, metadata={op_name="ge"}
  %constant.253 = s32[] constant(91)
  %le.2 = s32[4,100,1,1]{3,2,1,0} broadcast(%constant.253), dimensions={}, metadata={op_name="le"}
  %le.3 = pred[4,100,1,1]{3,2,1,0} compare(%reshape.174, %le.2), direction=LE, metadata={op_name="le"}
  %and.1 = pred[4,100,1,1]{3,2,1,0} and(%ge.3, %le.3), metadata={op_name="and"}
  %constant.256 = pred[] constant(true)
  %reduce_and.7 = pred[4,100,1]{2,1,0} reduce(%and.1, %constant.256), dimensions={3}, to_apply=%region_106.115, metadata={op_name="reduce_and"}
  %Arg_0.17 = f32[4,100,92]{2,1,0} parameter(0)
  %gather.1 = f32[4,100,1]{2,1,0} gather(%Arg_0.17, %reshape.174), offset_dims={}, collapsed_slice_dims={2}, start_index_map={2}, operand_batching_dims={0,1}, start_indices_batching_dims={0,1}, index_vector_dim=3, slice_sizes={1,1,1}, metadata={op_name="gather"}
  %constant.252 = f32[] constant(nan)
  %broadcast_in_dim.118 = f32[4,100,1]{2,1,0} broadcast(%constant.252), dimensions={}, metadata={op_name="broadcast_in_dim"}
  %select_n.73 = f32[4,100,1]{2,1,0} select(%reduce_and.7, %gather.1, %broadcast_in_dim.118), metadata={op_name="select_n"}
  ROOT %tuple.1 = (f32[4,100,1]{2,1,0}, s32[4,100,1,1]{3,2,1,0}) tuple(%select_n.73, %reshape.174)
}

%_where.117 (Arg_0.20: pred[], Arg_1.4: s32[], Arg_2.1: s32[]) -> s32[] {
  %Arg_0.20 = pred[] parameter(0)
  %Arg_1.4 = s32[] parameter(1)
  %Arg_2.1 = s32[] parameter(2)
  ROOT %select_n.75 = s32[] select(%Arg_0.20, %Arg_1.4, %Arg_2.1), metadata={op_name="select_n"}
}

%region_107.118 (reduce_and.11: pred[], reduce_and.12: pred[]) -> pred[] {
  %reduce_and.11 = pred[] parameter(0), metadata={op_name="reduce_and"}
  %reduce_and.12 = pred[] parameter(1), metadata={op_name="reduce_and"}
  ROOT %reduce_and.13 = pred[] and(%reduce_and.11, %reduce_and.12), metadata={op_name="reduce_and"}
}

%_take.119 (Arg_0.21: f32[4,100,1], Arg_1.5: s32[]) -> (f32[4,100], s32[1]) {
  %Arg_1.5 = s32[] parameter(1)
  %constant.267 = s32[] constant(0)
  %lt.5 = pred[] compare(%Arg_1.5, %constant.267), direction=LT, metadata={op_name="lt"}
  %constant.266 = s32[] constant(1)
  %add.696 = s32[] add(%Arg_1.5, %constant.266), metadata={op_name="add"}
  %jit__where_.1 = s32[] call(%lt.5, %add.696, %Arg_1.5), to_apply=%_where.117, metadata={op_name="jit(_where)"}
  %broadcast_in_dim.123 = s32[1]{0} reshape(%jit__where_.1), metadata={op_name="broadcast_in_dim"}
  %constant.265 = s32[1]{0} constant({0})
  %ge.5 = pred[1]{0} compare(%broadcast_in_dim.123, %constant.265), direction=GE, metadata={op_name="ge"}
  %le.5 = pred[1]{0} compare(%broadcast_in_dim.123, %constant.265), direction=LE, metadata={op_name="le"}
  %and.3 = pred[1]{0} and(%ge.5, %le.5), metadata={op_name="and"}
  %constant.264 = pred[] constant(true)
  %reduce_and.15 = pred[] reduce(%and.3, %constant.264), dimensions={0}, to_apply=%region_107.118, metadata={op_name="reduce_and"}
  %broadcast_in_dim.124 = pred[4,100]{1,0} broadcast(%reduce_and.15), dimensions={}, metadata={op_name="broadcast_in_dim"}
  %Arg_0.21 = f32[4,100,1]{2,1,0} parameter(0)
  %gather.3 = f32[4,100]{1,0} gather(%Arg_0.21, %broadcast_in_dim.123), offset_dims={0,1}, collapsed_slice_dims={2}, start_index_map={2}, index_vector_dim=0, slice_sizes={4,100,1}, metadata={op_name="gather"}
  %constant.263 = f32[] constant(nan)
  %broadcast_in_dim.122 = f32[4,100]{1,0} broadcast(%constant.263), dimensions={}, metadata={op_name="broadcast_in_dim"}
  %select_n.77 = f32[4,100]{1,0} select(%broadcast_in_dim.124, %gather.3, %broadcast_in_dim.122), metadata={op_name="select_n"}
  ROOT %tuple.3 = (f32[4,100]{1,0}, s32[1]{0}) tuple(%select_n.77, %broadcast_in_dim.123)
}

%region_112.124 (scatter-add.2: f32[], scatter-add.3: f32[]) -> f32[] {
  %scatter-add.2 = f32[] parameter(0), metadata={op_name="scatter-add"}
  %scatter-add.3 = f32[] parameter(1), metadata={op_name="scatter-add"}
  ROOT %add.700 = f32[] add(%scatter-add.2, %scatter-add.3), metadata={op_name="add"}
}

%_take_7.125 (Arg_0.23: s32[1], Arg_1.7: f32[4,100]) -> f32[4,100,1] {
  %constant.269 = f32[] constant(0)
  %broadcast_in_dim.128 = f32[4,100,1]{2,1,0} broadcast(%constant.269), dimensions={}, metadata={op_name="broadcast_in_dim"}
  %Arg_0.23 = s32[1]{0} parameter(0)
  %Arg_1.7 = f32[4,100]{1,0} parameter(1)
  ROOT %scatter-add.5 = f32[4,100,1]{2,1,0} scatter(%broadcast_in_dim.128, %Arg_0.23, %Arg_1.7), update_window_dims={0,1}, inserted_window_dims={2}, scatter_dims_to_operand_dims={2}, index_vector_dim=0, to_apply=%region_112.124, metadata={op_name="scatter-add"}
}

%region_113.126 (scatter-add.8: f32[], scatter-add.9: f32[]) -> f32[] {
  %scatter-add.8 = f32[] parameter(0), metadata={op_name="scatter-add"}
  %scatter-add.9 = f32[] parameter(1), metadata={op_name="scatter-add"}
  ROOT %add.702 = f32[] add(%scatter-add.8, %scatter-add.9), metadata={op_name="add"}
}

%take_along_axis_8.127 (Arg_0.25: s32[4,100,1,1], Arg_1.9: f32[4,100,1]) -> f32[4,100,92] {
  %constant.271 = f32[] constant(0)
  %broadcast_in_dim.130 = f32[4,100,92]{2,1,0} broadcast(%constant.271), dimensions={}, metadata={op_name="broadcast_in_dim"}
  %Arg_0.25 = s32[4,100,1,1]{3,2,1,0} parameter(0)
  %Arg_1.9 = f32[4,100,1]{2,1,0} parameter(1)
  ROOT %scatter-add.11 = f32[4,100,92]{2,1,0} scatter(%broadcast_in_dim.130, %Arg_0.25, %Arg_1.9), update_window_dims={}, inserted_window_dims={2}, scatter_dims_to_operand_dims={2}, input_batching_dims={0,1}, scatter_indices_batching_dims={0,1}, index_vector_dim=3, to_apply=%region_113.126, metadata={op_name="scatter-add"}
}

%region_121.135 (reduce_sum.689: f32[], reduce_sum.690: f32[]) -> f32[] {
  %reduce_sum.689 = f32[] parameter(0), metadata={op_name="reduce_sum"}
  %reduce_sum.690 = f32[] parameter(1), metadata={op_name="reduce_sum"}
  ROOT %reduce_sum.691 = f32[] add(%reduce_sum.689, %reduce_sum.690), metadata={op_name="jit(train_step)/transpose(jvp(DETR))/DecoderLayer_5/LayerNorm_2/reduce_sum" stack_frame_id=63}
}

%region_123.137 (reduce_sum.703: f32[], reduce_sum.704: f32[]) -> f32[] {
  %reduce_sum.703 = f32[] parameter(0), metadata={op_name="reduce_sum"}
  %reduce_sum.704 = f32[] parameter(1), metadata={op_name="reduce_sum"}
  ROOT %reduce_sum.705 = f32[] add(%reduce_sum.703, %reduce_sum.704), metadata={op_name="jit(train_step)/transpose(jvp(DETR))/DecoderLayer_5/LayerNorm_2/reduce_sum" stack_frame_id=65}
}

%region_120.134 (reduce_sum.682: f32[], reduce_sum.683: f32[]) -> f32[] {
  %reduce_sum.682 = f32[] parameter(0), metadata={op_name="reduce_sum"}
  %reduce_sum.683 = f32[] parameter(1), metadata={op_name="reduce_sum"}
  ROOT %reduce_sum.684 = f32[] add(%reduce_sum.682, %reduce_sum.683), metadata={op_name="jit(train_step)/transpose(jvp(DETR))/DecoderLayer_5/LayerNorm_2/reduce_sum" stack_frame_id=62}
}

%region_122.136 (reduce_sum.696: f32[], reduce_sum.697: f32[]) -> f32[] {
  %reduce_sum.696 = f32[] parameter(0), metadata={op_name="reduce_sum"}
  %reduce_sum.697 = f32[] parameter(1), metadata={op_name="reduce_sum"}
  ROOT %reduce_sum.698 = f32[] add(%reduce_sum.696, %reduce_sum.697), metadata={op_name="jit(train_step)/transpose(jvp(DETR))/DecoderLayer_5/LayerNorm_2/reduce_sum" stack_frame_id=64}
}

%region_129.143 (reduce_sum.745: f32[], reduce_sum.746: f32[]) -> f32[] {
  %reduce_sum.745 = f32[] parameter(0), metadata={op_name="reduce_sum"}
  %reduce_sum.746 = f32[] parameter(1), metadata={op_name="reduce_sum"}
  ROOT %reduce_sum.747 = f32[] add(%reduce_sum.745, %reduce_sum.746), metadata={op_name="jit(train_step)/transpose(jvp(DETR))/DecoderLayer_5/LayerNorm_1/reduce_sum" stack_frame_id=73}
}

%region_131.145 (reduce_sum.759: f32[], reduce_sum.760: f32[]) -> f32[] {
  %reduce_sum.759 = f32[] parameter(0), metadata={op_name="reduce_sum"}
  %reduce_sum.760 = f32[] parameter(1), metadata={op_name="reduce_sum"}
  ROOT %reduce_sum.761 = f32[] add(%reduce_sum.759, %reduce_sum.760), metadata={op_name="jit(train_step)/transpose(jvp(DETR))/DecoderLayer_5/LayerNorm_1/reduce_sum" stack_frame_id=75}
}

%region_128.142 (reduce_sum.738: f32[], reduce_sum.739: f32[]) -> f32[] {
  %reduce_sum.738 = f32[] parameter(0), metadata={op_name="reduce_sum"}
  %reduce_sum.739 = f32[] parameter(1), metadata={op_name="reduce_sum"}
  ROOT %reduce_sum.740 = f32[] add(%reduce_sum.738, %reduce_sum.739), metadata={op_name="jit(train_step)/transpose(jvp(DETR))/DecoderLayer_5/LayerNorm_1/reduce_sum" stack_frame_id=72}
}

%region_130.144 (reduce_sum.752: f32[], reduce_sum.753: f32[]) -> f32[] {
  %reduce_sum.752 = f32[] parameter(0), metadata={op_name="reduce_sum"}
  %reduce_sum.753 = f32[] parameter(1), metadata={op_name="reduce_sum"}
  ROOT %reduce_sum.754 = f32[] add(%reduce_sum.752, %reduce_sum.753), metadata={op_name="jit(train_step)/transpose(jvp(DETR))/DecoderLayer_5/LayerNorm_1/reduce_sum" stack_frame_id=74}
}

%region_133.147 (reduce_sum.773: f32[], reduce_sum.774: f32[]) -> f32[] {
  %reduce_sum.773 = f32[] parameter(0), metadata={op_name="reduce_sum"}
  %reduce_sum.774 = f32[] parameter(1), metadata={op_name="reduce_sum"}
  ROOT %reduce_sum.775 = f32[] add(%reduce_sum.773, %reduce_sum.774), metadata={op_name="jit(train_step)/transpose(jvp(DETR))/DecoderLayer_5/MultiHeadDotProductAttention_1/reduce_sum" stack_frame_id=38}
}

%region_134.148 (reduce_sum.780: f32[], reduce_sum.781: f32[]) -> f32[] {
  %reduce_sum.780 = f32[] parameter(0), metadata={op_name="reduce_sum"}
  %reduce_sum.781 = f32[] parameter(1), metadata={op_name="reduce_sum"}
  ROOT %reduce_sum.782 = f32[] add(%reduce_sum.780, %reduce_sum.781), metadata={op_name="jit(train_step)/transpose(jvp(DETR))/DecoderLayer_5/MultiHeadDotProductAttention_1/reduce_sum" stack_frame_id=38}
}

%region_141.155 (reduce_sum.829: f32[], reduce_sum.830: f32[]) -> f32[] {
  %reduce_sum.829 = f32[] parameter(0), metadata={op_name="reduce_sum"}
  %reduce_sum.830 = f32[] parameter(1), metadata={op_name="reduce_sum"}
  ROOT %reduce_sum.831 = f32[] add(%reduce_sum.829, %reduce_sum.830), metadata={op_name="jit(train_step)/transpose(jvp(DETR))/DecoderLayer_5/LayerNorm_0/reduce_sum" stack_frame_id=87}
}

%region_143.157 (reduce_sum.843: f32[], reduce_sum.844: f32[]) -> f32[] {
  %reduce_sum.843 = f32[] parameter(0), metadata={op_name="reduce_sum"}
  %reduce_sum.844 = f32[] parameter(1), metadata={op_name="reduce_sum"}
  ROOT %reduce_sum.845 = f32[] add(%reduce_sum.843, %reduce_sum.844), metadata={op_name="jit(train_step)/transpose(jvp(DETR))/DecoderLayer_5/LayerNorm_0/reduce_sum" stack_frame_id=89}
}

%region_140.154 (reduce_sum.822: f32[], reduce_sum.823: f32[]) -> f32[] {
  %reduce_sum.822 = f32[] parameter(0), metadata={op_name="reduce_sum"}
  %reduce_sum.823 = f32[] parameter(1), metadata={op_name="reduce_sum"}
  ROOT %reduce_sum.824 = f32[] add(%reduce_sum.822, %reduce_sum.823), metadata={op_name="jit(train_step)/transpose(jvp(DETR))/DecoderLayer_5/LayerNorm_0/reduce_sum" stack_frame_id=86}
}

%region_142.156 (reduce_sum.836: f32[], reduce_sum.837: f32[]) -> f32[] {
  %reduce_sum.836 = f32[] parameter(0), metadata={op_name="reduce_sum"}
  %reduce_sum.837 = f32[] parameter(1), metadata={op_name="reduce_sum"}
  ROOT %reduce_sum.838 = f32[] add(%reduce_sum.836, %reduce_sum.837), metadata={op_name="jit(train_step)/transpose(jvp(DETR))/DecoderLayer_5/LayerNorm_0/reduce_sum" stack_frame_id=88}
}

%region_145.159 (reduce_sum.857: f32[], reduce_sum.858: f32[]) -> f32[] {
  %reduce_sum.857 = f32[] parameter(0), metadata={op_name="reduce_sum"}
  %reduce_sum.858 = f32[] parameter(1), metadata={op_name="reduce_sum"}
  ROOT %reduce_sum.859 = f32[] add(%reduce_sum.857, %reduce_sum.858), metadata={op_name="jit(train_step)/transpose(jvp(DETR))/DecoderLayer_5/MultiHeadDotProductAttention_0/reduce_sum" stack_frame_id=29}
}

%region_146.160 (reduce_sum.864: f32[], reduce_sum.865: f32[]) -> f32[] {
  %reduce_sum.864 = f32[] parameter(0), metadata={op_name="reduce_sum"}
  %reduce_sum.865 = f32[] parameter(1), metadata={op_name="reduce_sum"}
  ROOT %reduce_sum.866 = f32[] add(%reduce_sum.864, %reduce_sum.865), metadata={op_name="jit(train_step)/transpose(jvp(DETR))/DecoderLayer_5/MultiHeadDotProductAttention_0/reduce_sum" stack_frame_id=29}
}

%region_153.167 (reduce_sum.913: f32[], reduce_sum.914: f32[]) -> f32[] {
  %reduce_sum.913 = f32[] parameter(0), metadata={op_name="reduce_sum"}
  %reduce_sum.914 = f32[] parameter(1), metadata={op_name="reduce_sum"}
  ROOT %reduce_sum.915 = f32[] add(%reduce_sum.913, %reduce_sum.914), metadata={op_name="jit(train_step)/transpose(jvp(DETR))/DecoderLayer_4/LayerNorm_2/reduce_sum" stack_frame_id=63}
}

%region_155.169 (reduce_sum.927: f32[], reduce_sum.928: f32[]) -> f32[] {
  %reduce_sum.927 = f32[] parameter(0), metadata={op_name="reduce_sum"}
  %reduce_sum.928 = f32[] parameter(1), metadata={op_name="reduce_sum"}
  ROOT %reduce_sum.929 = f32[] add(%reduce_sum.927, %reduce_sum.928), metadata={op_name="jit(train_step)/transpose(jvp(DETR))/DecoderLayer_4/LayerNorm_2/reduce_sum" stack_frame_id=65}
}

%region_152.166 (reduce_sum.906: f32[], reduce_sum.907: f32[]) -> f32[] {
  %reduce_sum.906 = f32[] parameter(0), metadata={op_name="reduce_sum"}
  %reduce_sum.907 = f32[] parameter(1), metadata={op_name="reduce_sum"}
  ROOT %reduce_sum.908 = f32[] add(%reduce_sum.906, %reduce_sum.907), metadata={op_name="jit(train_step)/transpose(jvp(DETR))/DecoderLayer_4/LayerNorm_2/reduce_sum" stack_frame_id=62}
}

%region_154.168 (reduce_sum.920: f32[], reduce_sum.921: f32[]) -> f32[] {
  %reduce_sum.920 = f32[] parameter(0), metadata={op_name="reduce_sum"}
  %reduce_sum.921 = f32[] parameter(1), metadata={op_name="reduce_sum"}
  ROOT %reduce_sum.922 = f32[] add(%reduce_sum.920, %reduce_sum.921), metadata={op_name="jit(train_step)/transpose(jvp(DETR))/DecoderLayer_4/LayerNorm_2/reduce_sum" stack_frame_id=64}
}

%region_161.175 (reduce_sum.969: f32[], reduce_sum.970: f32[]) -> f32[] {
  %reduce_sum.969 = f32[] parameter(0), metadata={op_name="reduce_sum"}
  %reduce_sum.970 = f32[] parameter(1), metadata={op_name="reduce_sum"}
  ROOT %reduce_sum.971 = f32[] add(%reduce_sum.969, %reduce_sum.970), metadata={op_name="jit(train_step)/transpose(jvp(DETR))/DecoderLayer_4/LayerNorm_1/reduce_sum" stack_frame_id=73}
}

%region_163.177 (reduce_sum.983: f32[], reduce_sum.984: f32[]) -> f32[] {
  %reduce_sum.983 = f32[] parameter(0), metadata={op_name="reduce_sum"}
  %reduce_sum.984 = f32[] parameter(1), metadata={op_name="reduce_sum"}
  ROOT %reduce_sum.985 = f32[] add(%reduce_sum.983, %reduce_sum.984), metadata={op_name="jit(train_step)/transpose(jvp(DETR))/DecoderLayer_4/LayerNorm_1/reduce_sum" stack_frame_id=75}
}

%region_160.174 (reduce_sum.962: f32[], reduce_sum.963: f32[]) -> f32[] {
  %reduce_sum.962 = f32[] parameter(0), metadata={op_name="reduce_sum"}
  %reduce_sum.963 = f32[] parameter(1), metadata={op_name="reduce_sum"}
  ROOT %reduce_sum.964 = f32[] add(%reduce_sum.962, %reduce_sum.963), metadata={op_name="jit(train_step)/transpose(jvp(DETR))/DecoderLayer_4/LayerNorm_1/reduce_sum" stack_frame_id=72}
}

%region_162.176 (reduce_sum.976: f32[], reduce_sum.977: f32[]) -> f32[] {
  %reduce_sum.976 = f32[] parameter(0), metadata={op_name="reduce_sum"}
  %reduce_sum.977 = f32[] parameter(1), metadata={op_name="reduce_sum"}
  ROOT %reduce_sum.978 = f32[] add(%reduce_sum.976, %reduce_sum.977), metadata={op_name="jit(train_step)/transpose(jvp(DETR))/DecoderLayer_4/LayerNorm_1/reduce_sum" stack_frame_id=74}
}

%region_165.179 (reduce_sum.997: f32[], reduce_sum.998: f32[]) -> f32[] {
  %reduce_sum.997 = f32[] parameter(0), metadata={op_name="reduce_sum"}
  %reduce_sum.998 = f32[] parameter(1), metadata={op_name="reduce_sum"}
  ROOT %reduce_sum.999 = f32[] add(%reduce_sum.997, %reduce_sum.998), metadata={op_name="jit(train_step)/transpose(jvp(DETR))/DecoderLayer_4/MultiHeadDotProductAttention_1/reduce_sum" stack_frame_id=38}
}

%region_166.180 (reduce_sum.1004: f32[], reduce_sum.1005: f32[]) -> f32[] {
  %reduce_sum.1004 = f32[] parameter(0), metadata={op_name="reduce_sum"}
  %reduce_sum.1005 = f32[] parameter(1), metadata={op_name="reduce_sum"}
  ROOT %reduce_sum.1006 = f32[] add(%reduce_sum.1004, %reduce_sum.1005), metadata={op_name="jit(train_step)/transpose(jvp(DETR))/DecoderLayer_4/MultiHeadDotProductAttention_1/reduce_sum" stack_frame_id=38}
}

%region_173.187 (reduce_sum.1053: f32[], reduce_sum.1054: f32[]) -> f32[] {
  %reduce_sum.1053 = f32[] parameter(0), metadata={op_name="reduce_sum"}
  %reduce_sum.1054 = f32[] parameter(1), metadata={op_name="reduce_sum"}
  ROOT %reduce_sum.1055 = f32[] add(%reduce_sum.1053, %reduce_sum.1054), metadata={op_name="jit(train_step)/transpose(jvp(DETR))/DecoderLayer_4/LayerNorm_0/reduce_sum" stack_frame_id=87}
}

%region_175.189 (reduce_sum.1067: f32[], reduce_sum.1068: f32[]) -> f32[] {
  %reduce_sum.1067 = f32[] parameter(0), metadata={op_name="reduce_sum"}
  %reduce_sum.1068 = f32[] parameter(1), metadata={op_name="reduce_sum"}
  ROOT %reduce_sum.1069 = f32[] add(%reduce_sum.1067, %reduce_sum.1068), metadata={op_name="jit(train_step)/transpose(jvp(DETR))/DecoderLayer_4/LayerNorm_0/reduce_sum" stack_frame_id=89}
}

%region_172.186 (reduce_sum.1046: f32[], reduce_sum.1047: f32[]) -> f32[] {
  %reduce_sum.1046 = f32[] parameter(0), metadata={op_name="reduce_sum"}
  %reduce_sum.1047 = f32[] parameter(1), metadata={op_name="reduce_sum"}
  ROOT %reduce_sum.1048 = f32[] add(%reduce_sum.1046, %reduce_sum.1047), metadata={op_name="jit(train_step)/transpose(jvp(DETR))/DecoderLayer_4/LayerNorm_0/reduce_sum" stack_frame_id=86}
}

%region_174.188 (reduce_sum.1060: f32[], reduce_sum.1061: f32[]) -> f32[] {
  %reduce_sum.1060 = f32[] parameter(0), metadata={op_name="reduce_sum"}
  %reduce_sum.1061 = f32[] parameter(1), metadata={op_name="reduce_sum"}
  ROOT %reduce_sum.1062 = f32[] add(%reduce_sum.1060, %reduce_sum.1061), metadata={op_name="jit(train_step)/transpose(jvp(DETR))/DecoderLayer_4/LayerNorm_0/reduce_sum" stack_frame_id=88}
}

%region_177.191 (reduce_sum.1081: f32[], reduce_sum.1082: f32[]) -> f32[] {
  %reduce_sum.1081 = f32[] parameter(0), metadata={op_name="reduce_sum"}
  %reduce_sum.1082 = f32[] parameter(1), metadata={op_name="reduce_sum"}
  ROOT %reduce_sum.1083 = f32[] add(%reduce_sum.1081, %reduce_sum.1082), metadata={op_name="jit(train_step)/transpose(jvp(DETR))/DecoderLayer_4/MultiHeadDotProductAttention_0/reduce_sum" stack_frame_id=29}
}

%region_178.192 (reduce_sum.1088: f32[], reduce_sum.1089: f32[]) -> f32[] {
  %reduce_sum.1088 = f32[] parameter(0), metadata={op_name="reduce_sum"}
  %reduce_sum.1089 = f32[] parameter(1), metadata={op_name="reduce_sum"}
  ROOT %reduce_sum.1090 = f32[] add(%reduce_sum.1088, %reduce_sum.1089), metadata={op_name="jit(train_step)/transpose(jvp(DETR))/DecoderLayer_4/MultiHeadDotProductAttention_0/reduce_sum" stack_frame_id=29}
}

%region_185.199 (reduce_sum.1137: f32[], reduce_sum.1138: f32[]) -> f32[] {
  %reduce_sum.1137 = f32[] parameter(0), metadata={op_name="reduce_sum"}
  %reduce_sum.1138 = f32[] parameter(1), metadata={op_name="reduce_sum"}
  ROOT %reduce_sum.1139 = f32[] add(%reduce_sum.1137, %reduce_sum.1138), metadata={op_name="jit(train_step)/transpose(jvp(DETR))/DecoderLayer_3/LayerNorm_2/reduce_sum" stack_frame_id=63}
}

%region_187.201 (reduce_sum.1151: f32[], reduce_sum.1152: f32[]) -> f32[] {
  %reduce_sum.1151 = f32[] parameter(0), metadata={op_name="reduce_sum"}
  %reduce_sum.1152 = f32[] parameter(1), metadata={op_name="reduce_sum"}
  ROOT %reduce_sum.1153 = f32[] add(%reduce_sum.1151, %reduce_sum.1152), metadata={op_name="jit(train_step)/transpose(jvp(DETR))/DecoderLayer_3/LayerNorm_2/reduce_sum" stack_frame_id=65}
}

%region_184.198 (reduce_sum.1130: f32[], reduce_sum.1131: f32[]) -> f32[] {
  %reduce_sum.1130 = f32[] parameter(0), metadata={op_name="reduce_sum"}
  %reduce_sum.1131 = f32[] parameter(1), metadata={op_name="reduce_sum"}
  ROOT %reduce_sum.1132 = f32[] add(%reduce_sum.1130, %reduce_sum.1131), metadata={op_name="jit(train_step)/transpose(jvp(DETR))/DecoderLayer_3/LayerNorm_2/reduce_sum" stack_frame_id=62}
}

%region_186.200 (reduce_sum.1144: f32[], reduce_sum.1145: f32[]) -> f32[] {
  %reduce_sum.1144 = f32[] parameter(0), metadata={op_name="reduce_sum"}
  %reduce_sum.1145 = f32[] parameter(1), metadata={op_name="reduce_sum"}
  ROOT %reduce_sum.1146 = f32[] add(%reduce_sum.1144, %reduce_sum.1145), metadata={op_name="jit(train_step)/transpose(jvp(DETR))/DecoderLayer_3/LayerNorm_2/reduce_sum" stack_frame_id=64}
}

%region_193.207 (reduce_sum.1193: f32[], reduce_sum.1194: f32[]) -> f32[] {
  %reduce_sum.1193 = f32[] parameter(0), metadata={op_name="reduce_sum"}
  %reduce_sum.1194 = f32[] parameter(1), metadata={op_name="reduce_sum"}
  ROOT %reduce_sum.1195 = f32[] add(%reduce_sum.1193, %reduce_sum.1194), metadata={op_name="jit(train_step)/transpose(jvp(DETR))/DecoderLayer_3/LayerNorm_1/reduce_sum" stack_frame_id=73}
}

%region_195.209 (reduce_sum.1207: f32[], reduce_sum.1208: f32[]) -> f32[] {
  %reduce_sum.1207 = f32[] parameter(0), metadata={op_name="reduce_sum"}
  %reduce_sum.1208 = f32[] parameter(1), metadata={op_name="reduce_sum"}
  ROOT %reduce_sum.1209 = f32[] add(%reduce_sum.1207, %reduce_sum.1208), metadata={op_name="jit(train_step)/transpose(jvp(DETR))/DecoderLayer_3/LayerNorm_1/reduce_sum" stack_frame_id=75}
}

%region_192.206 (reduce_sum.1186: f32[], reduce_sum.1187: f32[]) -> f32[] {
  %reduce_sum.1186 = f32[] parameter(0), metadata={op_name="reduce_sum"}
  %reduce_sum.1187 = f32[] parameter(1), metadata={op_name="reduce_sum"}
  ROOT %reduce_sum.1188 = f32[] add(%reduce_sum.1186, %reduce_sum.1187), metadata={op_name="jit(train_step)/transpose(jvp(DETR))/DecoderLayer_3/LayerNorm_1/reduce_sum" stack_frame_id=72}
}

%region_194.208 (reduce_sum.1200: f32[], reduce_sum.1201: f32[]) -> f32[] {
  %reduce_sum.1200 = f32[] parameter(0), metadata={op_name="reduce_sum"}
  %reduce_sum.1201 = f32[] parameter(1), metadata={op_name="reduce_sum"}
  ROOT %reduce_sum.1202 = f32[] add(%reduce_sum.1200, %reduce_sum.1201), metadata={op_name="jit(train_step)/transpose(jvp(DETR))/DecoderLayer_3/LayerNorm_1/reduce_sum" stack_frame_id=74}
}

%region_197.211 (reduce_sum.1221: f32[], reduce_sum.1222: f32[]) -> f32[] {
  %reduce_sum.1221 = f32[] parameter(0), metadata={op_name="reduce_sum"}
  %reduce_sum.1222 = f32[] parameter(1), metadata={op_name="reduce_sum"}
  ROOT %reduce_sum.1223 = f32[] add(%reduce_sum.1221, %reduce_sum.1222), metadata={op_name="jit(train_step)/transpose(jvp(DETR))/DecoderLayer_3/MultiHeadDotProductAttention_1/reduce_sum" stack_frame_id=38}
}

%region_198.212 (reduce_sum.1228: f32[], reduce_sum.1229: f32[]) -> f32[] {
  %reduce_sum.1228 = f32[] parameter(0), metadata={op_name="reduce_sum"}
  %reduce_sum.1229 = f32[] parameter(1), metadata={op_name="reduce_sum"}
  ROOT %reduce_sum.1230 = f32[] add(%reduce_sum.1228, %reduce_sum.1229), metadata={op_name="jit(train_step)/transpose(jvp(DETR))/DecoderLayer_3/MultiHeadDotProductAttention_1/reduce_sum" stack_frame_id=38}
}

%region_205.219 (reduce_sum.1277: f32[], reduce_sum.1278: f32[]) -> f32[] {
  %reduce_sum.1277 = f32[] parameter(0), metadata={op_name="reduce_sum"}
  %reduce_sum.1278 = f32[] parameter(1), metadata={op_name="reduce_sum"}
  ROOT %reduce_sum.1279 = f32[] add(%reduce_sum.1277, %reduce_sum.1278), metadata={op_name="jit(train_step)/transpose(jvp(DETR))/DecoderLayer_3/LayerNorm_0/reduce_sum" stack_frame_id=87}
}

%region_207.221 (reduce_sum.1291: f32[], reduce_sum.1292: f32[]) -> f32[] {
  %reduce_sum.1291 = f32[] parameter(0), metadata={op_name="reduce_sum"}
  %reduce_sum.1292 = f32[] parameter(1), metadata={op_name="reduce_sum"}
  ROOT %reduce_sum.1293 = f32[] add(%reduce_sum.1291, %reduce_sum.1292), metadata={op_name="jit(train_step)/transpose(jvp(DETR))/DecoderLayer_3/LayerNorm_0/reduce_sum" stack_frame_id=89}
}

%region_204.218 (reduce_sum.1270: f32[], reduce_sum.1271: f32[]) -> f32[] {
  %reduce_sum.1270 = f32[] parameter(0), metadata={op_name="reduce_sum"}
  %reduce_sum.1271 = f32[] parameter(1), metadata={op_name="reduce_sum"}
  ROOT %reduce_sum.1272 = f32[] add(%reduce_sum.1270, %reduce_sum.1271), metadata={op_name="jit(train_step)/transpose(jvp(DETR))/DecoderLayer_3/LayerNorm_0/reduce_sum" stack_frame_id=86}
}

%region_206.220 (reduce_sum.1284: f32[], reduce_sum.1285: f32[]) -> f32[] {
  %reduce_sum.1284 = f32[] parameter(0), metadata={op_name="reduce_sum"}
  %reduce_sum.1285 = f32[] parameter(1), metadata={op_name="reduce_sum"}
  ROOT %reduce_sum.1286 = f32[] add(%reduce_sum.1284, %reduce_sum.1285), metadata={op_name="jit(train_step)/transpose(jvp(DETR))/DecoderLayer_3/LayerNorm_0/reduce_sum" stack_frame_id=88}
}

%region_209.223 (reduce_sum.1305: f32[], reduce_sum.1306: f32[]) -> f32[] {
  %reduce_sum.1305 = f32[] parameter(0), metadata={op_name="reduce_sum"}
  %reduce_sum.1306 = f32[] parameter(1), metadata={op_name="reduce_sum"}
  ROOT %reduce_sum.1307 = f32[] add(%reduce_sum.1305, %reduce_sum.1306), metadata={op_name="jit(train_step)/transpose(jvp(DETR))/DecoderLayer_3/MultiHeadDotProductAttention_0/reduce_sum" stack_frame_id=29}
}

%region_210.224 (reduce_sum.1312: f32[], reduce_sum.1313: f32[]) -> f32[] {
  %reduce_sum.1312 = f32[] parameter(0), metadata={op_name="reduce_sum"}
  %reduce_sum.1313 = f32[] parameter(1), metadata={op_name="reduce_sum"}
  ROOT %reduce_sum.1314 = f32[] add(%reduce_sum.1312, %reduce_sum.1313), metadata={op_name="jit(train_step)/transpose(jvp(DETR))/DecoderLayer_3/MultiHeadDotProductAttention_0/reduce_sum" stack_frame_id=29}
}

%region_217.231 (reduce_sum.1361: f32[], reduce_sum.1362: f32[]) -> f32[] {
  %reduce_sum.1361 = f32[] parameter(0), metadata={op_name="reduce_sum"}
  %reduce_sum.1362 = f32[] parameter(1), metadata={op_name="reduce_sum"}
  ROOT %reduce_sum.1363 = f32[] add(%reduce_sum.1361, %reduce_sum.1362), metadata={op_name="jit(train_step)/transpose(jvp(DETR))/DecoderLayer_2/LayerNorm_2/reduce_sum" stack_frame_id=63}
}

%region_219.233 (reduce_sum.1375: f32[], reduce_sum.1376: f32[]) -> f32[] {
  %reduce_sum.1375 = f32[] parameter(0), metadata={op_name="reduce_sum"}
  %reduce_sum.1376 = f32[] parameter(1), metadata={op_name="reduce_sum"}
  ROOT %reduce_sum.1377 = f32[] add(%reduce_sum.1375, %reduce_sum.1376), metadata={op_name="jit(train_step)/transpose(jvp(DETR))/DecoderLayer_2/LayerNorm_2/reduce_sum" stack_frame_id=65}
}

%region_216.230 (reduce_sum.1354: f32[], reduce_sum.1355: f32[]) -> f32[] {
  %reduce_sum.1354 = f32[] parameter(0), metadata={op_name="reduce_sum"}
  %reduce_sum.1355 = f32[] parameter(1), metadata={op_name="reduce_sum"}
  ROOT %reduce_sum.1356 = f32[] add(%reduce_sum.1354, %reduce_sum.1355), metadata={op_name="jit(train_step)/transpose(jvp(DETR))/DecoderLayer_2/LayerNorm_2/reduce_sum" stack_frame_id=62}
}

%region_218.232 (reduce_sum.1368: f32[], reduce_sum.1369: f32[]) -> f32[] {
  %reduce_sum.1368 = f32[] parameter(0), metadata={op_name="reduce_sum"}
  %reduce_sum.1369 = f32[] parameter(1), metadata={op_name="reduce_sum"}
  ROOT %reduce_sum.1370 = f32[] add(%reduce_sum.1368, %reduce_sum.1369), metadata={op_name="jit(train_step)/transpose(jvp(DETR))/DecoderLayer_2/LayerNorm_2/reduce_sum" stack_frame_id=64}
}

%region_225.239 (reduce_sum.1417: f32[], reduce_sum.1418: f32[]) -> f32[] {
  %reduce_sum.1417 = f32[] parameter(0), metadata={op_name="reduce_sum"}
  %reduce_sum.1418 = f32[] parameter(1), metadata={op_name="reduce_sum"}
  ROOT %reduce_sum.1419 = f32[] add(%reduce_sum.1417, %reduce_sum.1418), metadata={op_name="jit(train_step)/transpose(jvp(DETR))/DecoderLayer_2/LayerNorm_1/reduce_sum" stack_frame_id=73}
}

%region_227.241 (reduce_sum.1431: f32[], reduce_sum.1432: f32[]) -> f32[] {
  %reduce_sum.1431 = f32[] parameter(0), metadata={op_name="reduce_sum"}
  %reduce_sum.1432 = f32[] parameter(1), metadata={op_name="reduce_sum"}
  ROOT %reduce_sum.1433 = f32[] add(%reduce_sum.1431, %reduce_sum.1432), metadata={op_name="jit(train_step)/transpose(jvp(DETR))/DecoderLayer_2/LayerNorm_1/reduce_sum" stack_frame_id=75}
}

%region_224.238 (reduce_sum.1410: f32[], reduce_sum.1411: f32[]) -> f32[] {
  %reduce_sum.1410 = f32[] parameter(0), metadata={op_name="reduce_sum"}
  %reduce_sum.1411 = f32[] parameter(1), metadata={op_name="reduce_sum"}
  ROOT %reduce_sum.1412 = f32[] add(%reduce_sum.1410, %reduce_sum.1411), metadata={op_name="jit(train_step)/transpose(jvp(DETR))/DecoderLayer_2/LayerNorm_1/reduce_sum" stack_frame_id=72}
}

%region_226.240 (reduce_sum.1424: f32[], reduce_sum.1425: f32[]) -> f32[] {
  %reduce_sum.1424 = f32[] parameter(0), metadata={op_name="reduce_sum"}
  %reduce_sum.1425 = f32[] parameter(1), metadata={op_name="reduce_sum"}
  ROOT %reduce_sum.1426 = f32[] add(%reduce_sum.1424, %reduce_sum.1425), metadata={op_name="jit(train_step)/transpose(jvp(DETR))/DecoderLayer_2/LayerNorm_1/reduce_sum" stack_frame_id=74}
}

%region_229.243 (reduce_sum.1445: f32[], reduce_sum.1446: f32[]) -> f32[] {
  %reduce_sum.1445 = f32[] parameter(0), metadata={op_name="reduce_sum"}
  %reduce_sum.1446 = f32[] parameter(1), metadata={op_name="reduce_sum"}
  ROOT %reduce_sum.1447 = f32[] add(%reduce_sum.1445, %reduce_sum.1446), metadata={op_name="jit(train_step)/transpose(jvp(DETR))/DecoderLayer_2/MultiHeadDotProductAttention_1/reduce_sum" stack_frame_id=38}
}

%region_230.244 (reduce_sum.1452: f32[], reduce_sum.1453: f32[]) -> f32[] {
  %reduce_sum.1452 = f32[] parameter(0), metadata={op_name="reduce_sum"}
  %reduce_sum.1453 = f32[] parameter(1), metadata={op_name="reduce_sum"}
  ROOT %reduce_sum.1454 = f32[] add(%reduce_sum.1452, %reduce_sum.1453), metadata={op_name="jit(train_step)/transpose(jvp(DETR))/DecoderLayer_2/MultiHeadDotProductAttention_1/reduce_sum" stack_frame_id=38}
}

%region_237.251 (reduce_sum.1501: f32[], reduce_sum.1502: f32[]) -> f32[] {
  %reduce_sum.1501 = f32[] parameter(0), metadata={op_name="reduce_sum"}
  %reduce_sum.1502 = f32[] parameter(1), metadata={op_name="reduce_sum"}
  ROOT %reduce_sum.1503 = f32[] add(%reduce_sum.1501, %reduce_sum.1502), metadata={op_name="jit(train_step)/transpose(jvp(DETR))/DecoderLayer_2/LayerNorm_0/reduce_sum" stack_frame_id=87}
}

%region_239.253 (reduce_sum.1515: f32[], reduce_sum.1516: f32[]) -> f32[] {
  %reduce_sum.1515 = f32[] parameter(0), metadata={op_name="reduce_sum"}
  %reduce_sum.1516 = f32[] parameter(1), metadata={op_name="reduce_sum"}
  ROOT %reduce_sum.1517 = f32[] add(%reduce_sum.1515, %reduce_sum.1516), metadata={op_name="jit(train_step)/transpose(jvp(DETR))/DecoderLayer_2/LayerNorm_0/reduce_sum" stack_frame_id=89}
}

%region_236.250 (reduce_sum.1494: f32[], reduce_sum.1495: f32[]) -> f32[] {
  %reduce_sum.1494 = f32[] parameter(0), metadata={op_name="reduce_sum"}
  %reduce_sum.1495 = f32[] parameter(1), metadata={op_name="reduce_sum"}
  ROOT %reduce_sum.1496 = f32[] add(%reduce_sum.1494, %reduce_sum.1495), metadata={op_name="jit(train_step)/transpose(jvp(DETR))/DecoderLayer_2/LayerNorm_0/reduce_sum" stack_frame_id=86}
}

%region_238.252 (reduce_sum.1508: f32[], reduce_sum.1509: f32[]) -> f32[] {
  %reduce_sum.1508 = f32[] parameter(0), metadata={op_name="reduce_sum"}
  %reduce_sum.1509 = f32[] parameter(1), metadata={op_name="reduce_sum"}
  ROOT %reduce_sum.1510 = f32[] add(%reduce_sum.1508, %reduce_sum.1509), metadata={op_name="jit(train_step)/transpose(jvp(DETR))/DecoderLayer_2/LayerNorm_0/reduce_sum" stack_frame_id=88}
}

%region_241.255 (reduce_sum.1529: f32[], reduce_sum.1530: f32[]) -> f32[] {
  %reduce_sum.1529 = f32[] parameter(0), metadata={op_name="reduce_sum"}
  %reduce_sum.1530 = f32[] parameter(1), metadata={op_name="reduce_sum"}
  ROOT %reduce_sum.1531 = f32[] add(%reduce_sum.1529, %reduce_sum.1530), metadata={op_name="jit(train_step)/transpose(jvp(DETR))/DecoderLayer_2/MultiHeadDotProductAttention_0/reduce_sum" stack_frame_id=29}
…
  %reduce_sum.3351 = f32[8,32]{1,0} reduce(%transpose.324, %constant.501), dimensions={0,1}, to_apply=%region_329.343, metadata={op_name="jit(train_step)/transpose(jvp(DETR))/EncoderLayer_5/MultiHeadDotProductAttention_0/value/reduce_sum" stack_frame_id=119}
  %mul.4374 = f32[8,32]{1,0} multiply(%reduce_sum.3351, %broadcast.202), metadata={op_name="jit(train_step)/mul" stack_frame_id=319}
  %st_opt_state_0__mu__EncoderLayer_5____MultiHeadDotProductAttention_0____value____bias__.1 = f32[8,32]{1,0} parameter(555), metadata={op_name="st.opt_state[0].mu[\'EncoderLayer_5\'][\'MultiHeadDotProductAttention_0\'][\'value\'][\'bias\']"}
  %mul.4375 = f32[8,32]{1,0} multiply(%st_opt_state_0__mu__EncoderLayer_5____MultiHeadDotProductAttention_0____value____bias__.1, %broadcast.201), metadata={op_name="jit(train_step)/mul" stack_frame_id=320}
  %add.3063 = f32[8,32]{1,0} add(%mul.4374, %mul.4375), metadata={op_name="jit(train_step)/add" stack_frame_id=319}
  %div.2768 = f32[8,32]{1,0} broadcast(%sub.510), dimensions={}, metadata={op_name="jit(train_step)/div" stack_frame_id=325}
  %div.2769 = f32[8,32]{1,0} divide(%add.3063, %div.2768), metadata={op_name="jit(train_step)/div" stack_frame_id=325}
  %integer_pow.553 = f32[8,32]{1,0} multiply(%reduce_sum.3351, %reduce_sum.3351), metadata={op_name="jit(train_step)/integer_pow" stack_frame_id=329}
  %mul.4930 = f32[8,32]{1,0} multiply(%integer_pow.553, %broadcast.178), metadata={op_name="jit(train_step)/mul" stack_frame_id=330}
  %st_opt_state_0__nu__EncoderLayer_5____MultiHeadDotProductAttention_0____value____bias__.1 = f32[8,32]{1,0} parameter(833), metadata={op_name="st.opt_state[0].nu[\'EncoderLayer_5\'][\'MultiHeadDotProductAttention_0\'][\'value\'][\'bias\']"}
  %mul.4931 = f32[8,32]{1,0} multiply(%st_opt_state_0__nu__EncoderLayer_5____MultiHeadDotProductAttention_0____value____bias__.1, %broadcast.177), metadata={op_name="jit(train_step)/mul" stack_frame_id=331}
  %add.3341 = f32[8,32]{1,0} add(%mul.4930, %mul.4931), metadata={op_name="jit(train_step)/add" stack_frame_id=330}
  %div.3324 = f32[8,32]{1,0} broadcast(%sub.511), dimensions={}, metadata={op_name="jit(train_step)/div" stack_frame_id=332}
  %div.3325 = f32[8,32]{1,0} divide(%add.3341, %div.3324), metadata={op_name="jit(train_step)/div" stack_frame_id=332}
  %sqrt.553 = f32[8,32]{1,0} sqrt(%div.3325), metadata={op_name="jit(train_step)/sqrt" stack_frame_id=334}
  %add.3620 = f32[8,32]{1,0} add(%sqrt.553, %broadcast.161), metadata={op_name="jit(train_step)/add" stack_frame_id=334}
  %div.3605 = f32[8,32]{1,0} divide(%div.2769, %add.3620), metadata={op_name="jit(train_step)/div" stack_frame_id=335}
  %mul.5211 = f32[8,32]{1,0} multiply(%st_params__EncoderLayer_5____MultiHeadDotProductAttention_0____value____bias__.1, %broadcast.149), metadata={op_name="jit(train_step)/mul" stack_frame_id=337}
  %add.3898 = f32[8,32]{1,0} add(%div.3605, %mul.5211), metadata={op_name="jit(train_step)/add" stack_frame_id=338}
  %mul.5489 = f32[8,32]{1,0} multiply(%add.3898, %broadcast.137), metadata={op_name="jit(train_step)/mul" stack_frame_id=340}
  %add.4176 = f32[8,32]{1,0} add(%st_params__EncoderLayer_5____MultiHeadDotProductAttention_0____value____bias__.1, %mul.5489), metadata={op_name="jit(train_step)/add" stack_frame_id=343}
  %dot_general.728 = f32[8,32,256]{2,1,0} dot(%transpose.324, %add.2346), lhs_contracting_dims={0,1}, rhs_contracting_dims={0,1}, metadata={op_name="jit(train_step)/transpose(jvp(DETR))/EncoderLayer_5/MultiHeadDotProductAttention_0/value/dot_general" stack_frame_id=173}
  %transpose.327 = f32[256,8,32]{0,2,1} transpose(%dot_general.728), dimensions={2,0,1}, metadata={op_name="jit(train_step)/transpose(jvp(DETR))/EncoderLayer_5/MultiHeadDotProductAttention_0/value/transpose" stack_frame_id=173}
  %mul.4376 = f32[256,8,32]{0,2,1} multiply(%transpose.327, %broadcast.200), metadata={op_name="jit(train_step)/mul" stack_frame_id=319}
  %st_opt_state_0__mu__EncoderLayer_5____MultiHeadDotProductAttention_0____value____kernel__.1 = f32[256,8,32]{2,1,0} parameter(556), metadata={op_name="st.opt_state[0].mu[\'EncoderLayer_5\'][\'MultiHeadDotProductAttention_0\'][\'value\'][\'kernel\']"}
  %mul.4377 = f32[256,8,32]{2,1,0} multiply(%st_opt_state_0__mu__EncoderLayer_5____MultiHeadDotProductAttention_0____value____kernel__.1, %broadcast.199), metadata={op_name="jit(train_step)/mul" stack_frame_id=320}
  %add.3064 = f32[256,8,32]{0,2,1} add(%mul.4376, %mul.4377), metadata={op_name="jit(train_step)/add" stack_frame_id=319}
  %div.2770 = f32[256,8,32]{2,1,0} broadcast(%sub.510), dimensions={}, metadata={op_name="jit(train_step)/div" stack_frame_id=325}
  %div.2771 = f32[256,8,32]{0,2,1} divide(%add.3064, %div.2770), metadata={op_name="jit(train_step)/div" stack_frame_id=325}
  %integer_pow.554 = f32[256,8,32]{0,2,1} multiply(%transpose.327, %transpose.327), metadata={op_name="jit(train_step)/integer_pow" stack_frame_id=329}
  %mul.4932 = f32[256,8,32]{0,2,1} multiply(%integer_pow.554, %broadcast.176), metadata={op_name="jit(train_step)/mul" stack_frame_id=330}
  %st_opt_state_0__nu__EncoderLayer_5____MultiHeadDotProductAttention_0____value____kernel__.1 = f32[256,8,32]{2,1,0} parameter(834), metadata={op_name="st.opt_state[0].nu[\'EncoderLayer_5\'][\'MultiHeadDotProductAttention_0\'][\'value\'][\'kernel\']"}
  %mul.4933 = f32[256,8,32]{2,1,0} multiply(%st_opt_state_0__nu__EncoderLayer_5____MultiHeadDotProductAttention_0____value____kernel__.1, %broadcast.175), metadata={op_name="jit(train_step)/mul" stack_frame_id=331}
  %add.3342 = f32[256,8,32]{0,2,1} add(%mul.4932, %mul.4933), metadata={op_name="jit(train_step)/add" stack_frame_id=330}
  %div.3326 = f32[256,8,32]{2,1,0} broadcast(%sub.511), dimensions={}, metadata={op_name="jit(train_step)/div" stack_frame_id=332}
  %div.3327 = f32[256,8,32]{0,2,1} divide(%add.3342, %div.3326), metadata={op_name="jit(train_step)/div" stack_frame_id=332}
  %sqrt.554 = f32[256,8,32]{0,2,1} sqrt(%div.3327), metadata={op_name="jit(train_step)/sqrt" stack_frame_id=334}
  %add.3621 = f32[256,8,32]{0,2,1} add(%sqrt.554, %broadcast.160), metadata={op_name="jit(train_step)/add" stack_frame_id=334}
  %div.3606 = f32[256,8,32]{0,2,1} divide(%div.2771, %add.3621), metadata={op_name="jit(train_step)/div" stack_frame_id=335}
  %mul.5212 = f32[256,8,32]{2,1,0} multiply(%st_params__EncoderLayer_5____MultiHeadDotProductAttention_0____value____kernel__.1, %broadcast.148), metadata={op_name="jit(train_step)/mul" stack_frame_id=337}
  %add.3899 = f32[256,8,32]{0,2,1} add(%div.3606, %mul.5212), metadata={op_name="jit(train_step)/add" stack_frame_id=338}
  %mul.5490 = f32[256,8,32]{0,2,1} multiply(%add.3899, %broadcast.136), metadata={op_name="jit(train_step)/mul" stack_frame_id=340}
  %add.4177 = f32[256,8,32]{2,1,0} add(%st_params__EncoderLayer_5____MultiHeadDotProductAttention_0____value____kernel__.1, %mul.5490), metadata={op_name="jit(train_step)/add" stack_frame_id=343}
  %add_any.222 = f32[4,100,256]{2,1,0} add(%dot_general.566, %add_any.220), metadata={op_name="jit(train_step)/transpose(jvp(DETR))/DecoderLayer_5/add_any" stack_frame_id=272}
  %add_any.234 = f32[4,100,256]{2,1,0} add(%add_any.222, %dot_general.594), metadata={op_name="jit(train_step)/transpose(jvp(DETR))/DecoderLayer_4/add_any" stack_frame_id=232}
  %add_any.242 = f32[4,100,256]{2,1,0} add(%add_any.234, %add_any.240), metadata={op_name="jit(train_step)/transpose(jvp(DETR))/DecoderLayer_4/add_any" stack_frame_id=272}
  %add_any.254 = f32[4,100,256]{2,1,0} add(%add_any.242, %dot_general.622), metadata={op_name="jit(train_step)/transpose(jvp(DETR))/DecoderLayer_3/add_any" stack_frame_id=232}
  %add_any.262 = f32[4,100,256]{2,1,0} add(%add_any.254, %add_any.260), metadata={op_name="jit(train_step)/transpose(jvp(DETR))/DecoderLayer_3/add_any" stack_frame_id=272}
  %add_any.274 = f32[4,100,256]{2,1,0} add(%add_any.262, %dot_general.650), metadata={op_name="jit(train_step)/transpose(jvp(DETR))/DecoderLayer_2/add_any" stack_frame_id=232}
  %add_any.282 = f32[4,100,256]{2,1,0} add(%add_any.274, %add_any.280), metadata={op_name="jit(train_step)/transpose(jvp(DETR))/DecoderLayer_2/add_any" stack_frame_id=272}
  %add_any.294 = f32[4,100,256]{2,1,0} add(%add_any.282, %dot_general.678), metadata={op_name="jit(train_step)/transpose(jvp(DETR))/DecoderLayer_1/add_any" stack_frame_id=232}
  %add_any.302 = f32[4,100,256]{2,1,0} add(%add_any.294, %add_any.300), metadata={op_name="jit(train_step)/transpose(jvp(DETR))/DecoderLayer_1/add_any" stack_frame_id=272}
  %add_any.314 = f32[4,100,256]{2,1,0} add(%add_any.302, %dot_general.706), metadata={op_name="jit(train_step)/transpose(jvp(DETR))/DecoderLayer_0/add_any" stack_frame_id=232}
  %dot_general.715 = f32[4,100,256]{2,1,0} dot(%transpose.315, %st_params__DecoderLayer_0____MultiHeadDotProductAttention_0____key____kernel__.1), lhs_contracting_dims={2,3}, rhs_contracting_dims={1,2}, metadata={op_name="jit(train_step)/transpose(jvp(DETR))/DecoderLayer_0/MultiHeadDotProductAttention_0/key/dot_general" stack_frame_id=153}
  %add_any.319 = f32[4,100,256]{2,1,0} add(%add_any.314, %dot_general.715), metadata={op_name="jit(train_step)/transpose(jvp(DETR))/DecoderLayer_0/MultiHeadDotProductAttention_0/key/add_any" stack_frame_id=153}
  %dot_general.717 = f32[4,100,256]{2,1,0} dot(%div.2153, %st_params__DecoderLayer_0____MultiHeadDotProductAttention_0____query____kernel__.1), lhs_contracting_dims={2,3}, rhs_contracting_dims={1,2}, metadata={op_name="jit(train_step)/transpose(jvp(DETR))/DecoderLayer_0/MultiHeadDotProductAttention_0/query/dot_general" stack_frame_id=150}
  %add_any.320 = f32[4,100,256]{2,1,0} add(%add_any.319, %dot_general.717), metadata={op_name="jit(train_step)/transpose(jvp(DETR))/DecoderLayer_0/MultiHeadDotProductAttention_0/query/add_any" stack_frame_id=150}
  %reduce_sum.3332 = f32[100,256]{1,0} reduce(%add_any.320, %constant.501), dimensions={0}, to_apply=%region_310.324, metadata={op_name="jit(train_step)/transpose(jvp(DETR))/reduce_sum" stack_frame_id=98}
  %broadcast_in_dim.387 = f32[1,100,256]{2,1,0} reshape(%reduce_sum.3332), metadata={op_name="jit(train_step)/transpose(jvp(DETR))/broadcast_in_dim" stack_frame_id=98}
  %reduce_sum.3333 = f32[100,256]{1,0} reduce(%broadcast_in_dim.387, %constant.501), dimensions={0}, to_apply=%region_311.325, metadata={op_name="jit(train_step)/transpose(jvp(DETR))/reduce_sum" stack_frame_id=99}
  %constant.383 = f32[] constant(0.1)
  %mul.2787 = f32[100,256]{1,0} broadcast(%constant.383), dimensions={}, metadata={op_name="jit(train_step)/mul" stack_frame_id=319}
  %mul.4378 = f32[100,256]{1,0} multiply(%reduce_sum.3333, %mul.2787), metadata={op_name="jit(train_step)/mul" stack_frame_id=319}
  %st_opt_state_0__mu__query_embed__.1 = f32[100,256]{1,0} parameter(557), metadata={op_name="st.opt_state[0].mu[\'query_embed\']"}
  %constant.382 = f32[] constant(0.9)
  %mul.2786 = f32[100,256]{1,0} broadcast(%constant.382), dimensions={}, metadata={op_name="jit(train_step)/mul" stack_frame_id=320}
  %mul.4379 = f32[100,256]{1,0} multiply(%st_opt_state_0__mu__query_embed__.1, %mul.2786), metadata={op_name="jit(train_step)/mul" stack_frame_id=320}
  %add.3065 = f32[100,256]{1,0} add(%mul.4378, %mul.4379), metadata={op_name="jit(train_step)/add" stack_frame_id=319}
  %div.2772 = f32[100,256]{1,0} broadcast(%sub.510), dimensions={}, metadata={op_name="jit(train_step)/div" stack_frame_id=325}
  %div.2773 = f32[100,256]{1,0} divide(%add.3065, %div.2772), metadata={op_name="jit(train_step)/div" stack_frame_id=325}
  %integer_pow.555 = f32[100,256]{1,0} multiply(%reduce_sum.3333, %reduce_sum.3333), metadata={op_name="jit(train_step)/integer_pow" stack_frame_id=329}
  %constant.339 = f32[] constant(0.001)
  %mul.2767 = f32[100,256]{1,0} broadcast(%constant.339), dimensions={}, metadata={op_name="jit(train_step)/mul" stack_frame_id=330}
  %mul.4934 = f32[100,256]{1,0} multiply(%integer_pow.555, %mul.2767), metadata={op_name="jit(train_step)/mul" stack_frame_id=330}
  %st_opt_state_0__nu__query_embed__.1 = f32[100,256]{1,0} parameter(835), metadata={op_name="st.opt_state[0].nu[\'query_embed\']"}
  %constant.338 = f32[] constant(0.999)
  %mul.2766 = f32[100,256]{1,0} broadcast(%constant.338), dimensions={}, metadata={op_name="jit(train_step)/mul" stack_frame_id=331}
  %mul.4935 = f32[100,256]{1,0} multiply(%st_opt_state_0__nu__query_embed__.1, %mul.2766), metadata={op_name="jit(train_step)/mul" stack_frame_id=331}
  %add.3343 = f32[100,256]{1,0} add(%mul.4934, %mul.4935), metadata={op_name="jit(train_step)/add" stack_frame_id=330}
  %div.3328 = f32[100,256]{1,0} broadcast(%sub.511), dimensions={}, metadata={op_name="jit(train_step)/div" stack_frame_id=332}
  %div.3329 = f32[100,256]{1,0} divide(%add.3343, %div.3328), metadata={op_name="jit(train_step)/div" stack_frame_id=332}
  %sqrt.555 = f32[100,256]{1,0} sqrt(%div.3329), metadata={op_name="jit(train_step)/sqrt" stack_frame_id=334}
  %constant.316 = f32[] constant(1e-08)
  %add.2095 = f32[100,256]{1,0} broadcast(%constant.316), dimensions={}, metadata={op_name="jit(train_step)/add" stack_frame_id=334}
  %add.3622 = f32[100,256]{1,0} add(%sqrt.555, %add.2095), metadata={op_name="jit(train_step)/add" stack_frame_id=334}
  %div.3607 = f32[100,256]{1,0} divide(%div.2773, %add.3622), metadata={op_name="jit(train_step)/div" stack_frame_id=335}
  %constant.294 = f32[] constant(0.0001)
  %mul.2756 = f32[100,256]{1,0} broadcast(%constant.294), dimensions={}, metadata={op_name="jit(train_step)/mul" stack_frame_id=337}
  %mul.5213 = f32[100,256]{1,0} multiply(%st_params__query_embed__.1, %mul.2756), metadata={op_name="jit(train_step)/mul" stack_frame_id=337}
  %add.3900 = f32[100,256]{1,0} add(%div.3607, %mul.5213), metadata={op_name="jit(train_step)/add" stack_frame_id=338}
  %constant.272 = f32[] constant(-0.0001)
  %mul.2746 = f32[100,256]{1,0} broadcast(%constant.272), dimensions={}, metadata={op_name="jit(train_step)/mul" stack_frame_id=340}
  %mul.5491 = f32[100,256]{1,0} multiply(%add.3900, %mul.2746), metadata={op_name="jit(train_step)/mul" stack_frame_id=340}
  %add.4178 = f32[100,256]{1,0} add(%st_params__query_embed__.1, %mul.5491), metadata={op_name="jit(train_step)/add" stack_frame_id=343}
  %st_batch_stats__Backbone_0____BatchNorm_0____mean__.1 = f32[64]{0} parameter(836), metadata={op_name="st.batch_stats[\'Backbone_0\'][\'BatchNorm_0\'][\'mean\']"}
  %mul.2817 = f32[64]{0} multiply(%st_batch_stats__Backbone_0____BatchNorm_0____mean__.1, %broadcast.261), metadata={op_name="jit(train_step)/jvp(DETR)/Backbone_0/BatchNorm_0/mul" stack_frame_id=344}
  %mul.2818 = f32[64]{0} multiply(%div.1805, %broadcast.260), metadata={op_name="jit(train_step)/jvp(DETR)/Backbone_0/BatchNorm_0/mul" stack_frame_id=345}
  %add.2108 = f32[64]{0} add(%mul.2817, %mul.2818), metadata={op_name="jit(train_step)/jvp(DETR)/Backbone_0/BatchNorm_0/add" stack_frame_id=344}
  %st_batch_stats__Backbone_0____BatchNorm_0____var__.1 = f32[64]{0} parameter(837), metadata={op_name="st.batch_stats[\'Backbone_0\'][\'BatchNorm_0\'][\'var\']"}
  %mul.2819 = f32[64]{0} multiply(%st_batch_stats__Backbone_0____BatchNorm_0____var__.1, %broadcast.261), metadata={op_name="jit(train_step)/jvp(DETR)/Backbone_0/BatchNorm_0/mul" stack_frame_id=346}
  %mul.2820 = f32[64]{0} multiply(%max.88, %broadcast.260), metadata={op_name="jit(train_step)/jvp(DETR)/Backbone_0/BatchNorm_0/mul" stack_frame_id=347}
  %add.2109 = f32[64]{0} add(%mul.2819, %mul.2820), metadata={op_name="jit(train_step)/jvp(DETR)/Backbone_0/BatchNorm_0/add" stack_frame_id=346}
  %st_batch_stats__Backbone_0____BatchNorm_1____mean__.1 = f32[128]{0} parameter(838), metadata={op_name="st.batch_stats[\'Backbone_0\'][\'BatchNorm_1\'][\'mean\']"}
  %mul.2829 = f32[128]{0} multiply(%st_batch_stats__Backbone_0____BatchNorm_1____mean__.1, %broadcast.254), metadata={op_name="jit(train_step)/jvp(DETR)/Backbone_0/BatchNorm_1/mul" stack_frame_id=344}
  %mul.2830 = f32[128]{0} multiply(%div.1809, %broadcast.253), metadata={op_name="jit(train_step)/jvp(DETR)/Backbone_0/BatchNorm_1/mul" stack_frame_id=345}
  %add.2115 = f32[128]{0} add(%mul.2829, %mul.2830), metadata={op_name="jit(train_step)/jvp(DETR)/Backbone_0/BatchNorm_1/add" stack_frame_id=344}
  %st_batch_stats__Backbone_0____BatchNorm_1____var__.1 = f32[128]{0} parameter(839), metadata={op_name="st.batch_stats[\'Backbone_0\'][\'BatchNorm_1\'][\'var\']"}
  %mul.2831 = f32[128]{0} multiply(%st_batch_stats__Backbone_0____BatchNorm_1____var__.1, %broadcast.254), metadata={op_name="jit(train_step)/jvp(DETR)/Backbone_0/BatchNorm_1/mul" stack_frame_id=346}
  %mul.2832 = f32[128]{0} multiply(%max.89, %broadcast.253), metadata={op_name="jit(train_step)/jvp(DETR)/Backbone_0/BatchNorm_1/mul" stack_frame_id=347}
  %add.2116 = f32[128]{0} add(%mul.2831, %mul.2832), metadata={op_name="jit(train_step)/jvp(DETR)/Backbone_0/BatchNorm_1/add" stack_frame_id=346}
  %st_batch_stats__Backbone_0____BatchNorm_2____mean__.1 = f32[256]{0} parameter(840), metadata={op_name="st.batch_stats[\'Backbone_0\'][\'BatchNorm_2\'][\'mean\']"}
  %mul.2841 = f32[256]{0} multiply(%st_batch_stats__Backbone_0____BatchNorm_2____mean__.1, %broadcast.247), metadata={op_name="jit(train_step)/jvp(DETR)/Backbone_0/BatchNorm_2/mul" stack_frame_id=344}
  %mul.2842 = f32[256]{0} multiply(%div.1813, %broadcast.246), metadata={op_name="jit(train_step)/jvp(DETR)/Backbone_0/BatchNorm_2/mul" stack_frame_id=345}
  %add.2122 = f32[256]{0} add(%mul.2841, %mul.2842), metadata={op_name="jit(train_step)/jvp(DETR)/Backbone_0/BatchNorm_2/add" stack_frame_id=344}
  %st_batch_stats__Backbone_0____BatchNorm_2____var__.1 = f32[256]{0} parameter(841), metadata={op_name="st.batch_stats[\'Backbone_0\'][\'BatchNorm_2\'][\'var\']"}
  %mul.2843 = f32[256]{0} multiply(%st_batch_stats__Backbone_0____BatchNorm_2____var__.1, %broadcast.247), metadata={op_name="jit(train_step)/jvp(DETR)/Backbone_0/BatchNorm_2/mul" stack_frame_id=346}
  %mul.2844 = f32[256]{0} multiply(%max.90, %broadcast.246), metadata={op_name="jit(train_step)/jvp(DETR)/Backbone_0/BatchNorm_2/mul" stack_frame_id=347}
  %add.2123 = f32[256]{0} add(%mul.2843, %mul.2844), metadata={op_name="jit(train_step)/jvp(DETR)/Backbone_0/BatchNorm_2/add" stack_frame_id=346}
  %st_batch_stats__Backbone_0____BatchNorm_3____mean__.1 = f32[512]{0} parameter(842), metadata={op_name="st.batch_stats[\'Backbone_0\'][\'BatchNorm_3\'][\'mean\']"}
  %mul.2853 = f32[512]{0} multiply(%st_batch_stats__Backbone_0____BatchNorm_3____mean__.1, %broadcast.240), metadata={op_name="jit(train_step)/jvp(DETR)/Backbone_0/BatchNorm_3/mul" stack_frame_id=344}
  %mul.2854 = f32[512]{0} multiply(%div.1817, %broadcast.239), metadata={op_name="jit(train_step)/jvp(DETR)/Backbone_0/BatchNorm_3/mul" stack_frame_id=345}
  %add.2129 = f32[512]{0} add(%mul.2853, %mul.2854), metadata={op_name="jit(train_step)/jvp(DETR)/Backbone_0/BatchNorm_3/add" stack_frame_id=344}
  %st_batch_stats__Backbone_0____BatchNorm_3____var__.1 = f32[512]{0} parameter(843), metadata={op_name="st.batch_stats[\'Backbone_0\'][\'BatchNorm_3\'][\'var\']"}
  %mul.2855 = f32[512]{0} multiply(%st_batch_stats__Backbone_0____BatchNorm_3____var__.1, %broadcast.240), metadata={op_name="jit(train_step)/jvp(DETR)/Backbone_0/BatchNorm_3/mul" stack_frame_id=346}
  %mul.2856 = f32[512]{0} multiply(%max.91, %broadcast.239), metadata={op_name="jit(train_step)/jvp(DETR)/Backbone_0/BatchNorm_3/mul" stack_frame_id=347}
  %add.2130 = f32[512]{0} add(%mul.2855, %mul.2856), metadata={op_name="jit(train_step)/jvp(DETR)/Backbone_0/BatchNorm_3/add" stack_frame_id=346}
  %st_batch_stats__Backbone_0____BatchNorm_4____mean__.1 = f32[512]{0} parameter(844), metadata={op_name="st.batch_stats[\'Backbone_0\'][\'BatchNorm_4\'][\'mean\']"}
  %mul.2865 = f32[512]{0} multiply(%st_batch_stats__Backbone_0____BatchNorm_4____mean__.1, %broadcast.240), metadata={op_name="jit(train_step)/jvp(DETR)/Backbone_0/BatchNorm_4/mul" stack_frame_id=344}
  %mul.2866 = f32[512]{0} multiply(%div.1821, %broadcast.239), metadata={op_name="jit(train_step)/jvp(DETR)/Backbone_0/BatchNorm_4/mul" stack_frame_id=345}
  %add.2136 = f32[512]{0} add(%mul.2865, %mul.2866), metadata={op_name="jit(train_step)/jvp(DETR)/Backbone_0/BatchNorm_4/add" stack_frame_id=344}
  %st_batch_stats__Backbone_0____BatchNorm_4____var__.1 = f32[512]{0} parameter(845), metadata={op_name="st.batch_stats[\'Backbone_0\'][\'BatchNorm_4\'][\'var\']"}
  %mul.2867 = f32[512]{0} multiply(%st_batch_stats__Backbone_0____BatchNorm_4____var__.1, %broadcast.240), metadata={op_name="jit(train_step)/jvp(DETR)/Backbone_0/BatchNorm_4/mul" stack_frame_id=346}
  %mul.2868 = f32[512]{0} multiply(%max.92, %broadcast.239), metadata={op_name="jit(train_step)/jvp(DETR)/Backbone_0/BatchNorm_4/mul" stack_frame_id=347}
  %add.2137 = f32[512]{0} add(%mul.2867, %mul.2868), metadata={op_name="jit(train_step)/jvp(DETR)/Backbone_0/BatchNorm_4/add" stack_frame_id=346}
  %log.1 = f32[4,100]{1,0} log(%abs.2), metadata={op_name="jit(train_step)/jvp()/log" stack_frame_id=50}
  %add.2786 = f32[4,100]{1,0} add(%log.1, %select_n.174), metadata={op_name="jit(train_step)/jvp()/add" stack_frame_id=50}
  %jvp_jit__take__.4 = f32[4,100]{1,0} get-tuple-element(%jvp_jit__take__.3), index=0, metadata={op_name="jit(train_step)/jvp(jit(_take))" stack_frame_id=291}
  %sub.508 = f32[4,100]{1,0} subtract(%add.2786, %jvp_jit__take__.4), metadata={op_name="jit(train_step)/jvp()/sub" stack_frame_id=292}
  %reduce_sum.3134 = f32[] reduce(%sub.508, %constant.501), dimensions={0,1}, to_apply=%region_110.122, metadata={op_name="jit(train_step)/jvp()/reduce_sum" stack_frame_id=49}
  %constant.495 = f32[] constant(400)
  %div.2055 = f32[] divide(%reduce_sum.3134, %constant.495), metadata={op_name="jit(train_step)/jvp()/div" stack_frame_id=49}
  %abs.3 = f32[4,100,4]{2,1,0} abs(%sub.509), metadata={op_name="jit(train_step)/jvp()/abs" stack_frame_id=51}
  %reduce_sum.3135 = f32[] reduce(%abs.3, %constant.501), dimensions={0,1,2}, to_apply=%region_111.123, metadata={op_name="jit(train_step)/jvp()/reduce_sum" stack_frame_id=51}
  %constant.494 = f32[] constant(1600)
  %div.2056 = f32[] divide(%reduce_sum.3135, %constant.494), metadata={op_name="jit(train_step)/jvp()/div" stack_frame_id=51}
  %add.2787 = f32[] add(%div.2055, %div.2056), metadata={op_name="jit(train_step)/jvp()/add" stack_frame_id=348}
  ROOT %tuple.5 = (s32[], f32[64]{0}, f32[64]{0}, f32[128]{0}, f32[128]{0}, /*index=5*/f32[256]{0}, f32[256]{0}, f32[512]{0}, f32[512]{0}, f32[512]{0}, /*index=10*/f32[512]{0}, f32[3,3,3,64]{3,2,1,0}, f32[3,3,64,128]{3,2,1,0}, f32[3,3,128,256]{3,2,1,0}, f32[3,3,256,512]{3,2,1,0}, /*index=15*/f32[3,3,512,512]{3,2,1,0}, f32[256]{0}, f32[1,1,512,256]{3,2,1,0}, f32[2048]{0}, f32[256,2048]{1,0}, /*index=20*/f32[256]{0}, f32[2048,256]{1,0}, f32[256]{0}, f32[256]{0}, f32[256]{0}, /*index=25*/f32[256]{0}, f32[256]{0}, f32[256]{0}, f32[8,32]{1,0}, f32[256,8,32]{2,1,0}, /*index=30*/f32[256]{0}, f32[8,32,256]{2,1,0}, f32[8,32]{1,0}, f32[256,8,32]{2,1,0}, f32[8,32]{1,0}, /*index=35*/f32[256,8,32]{2,1,0}, f32[8,32]{1,0}, f32[256,8,32]{2,1,0}, f32[256]{0}, f32[8,32,256]{2,1,0}, /*index=40*/f32[8,32]{1,0}, f32[256,8,32]{2,1,0}, f32[8,32]{1,0}, f32[256,8,32]{2,1,0}, f32[2048]{0}, /*index=45*/f32[256,2048]{1,0}, f32[256]{0}, f32[2048,256]{1,0}, f32[256]{0}, f32[256]{0}, /*index=50*/f32[256]{0}, f32[256]{0}, f32[256]{0}, f32[256]{0}, f32[8,32]{1,0}, /*index=55*/f32[256,8,32]{2,1,0}, f32[256]{0}, f32[8,32,256]{2,1,0}, f32[8,32]{1,0}, f32[256,8,32]{2,1,0}, /*index=60*/f32[8,32]{1,0}, f32[256,8,32]{2,1,0}, f32[8,32]{1,0}, f32[256,8,32]{2,1,0}, f32[256]{0}, /*index=65*/f32[8,32,256]{2,1,0}, f32[8,32]{1,0}, f32[256,8,32]{2,1,0}, f32[8,32]{1,0}, f32[256,8,32]{2,1,0}, /*index=70*/f32[2048]{0}, f32[256,2048]{1,0}, f32[256]{0}, f32[2048,256]{1,0}, f32[256]{0}, /*index=75*/f32[256]{0}, f32[256]{0}, f32[256]{0}, f32[256]{0}, f32[256]{0}, /*index=80*/f32[8,32]{1,0}, f32[256,8,32]{2,1,0}, f32[256]{0}, f32[8,32,256]{2,1,0}, f32[8,32]{1,0}, /*index=85*/f32[256,8,32]{2,1,0}, f32[8,32]{1,0}, f32[256,8,32]{2,1,0}, f32[8,32]{1,0}, f32[256,8,32]{2,1,0}, /*index=90*/f32[256]{0}, f32[8,32,256]{2,1,0}, f32[8,32]{1,0}, f32[256,8,32]{2,1,0}, f32[8,32]{1,0}, /*index=95*/f32[256,8,32]{2,1,0}, f32[2048]{0}, f32[256,2048]{1,0}, f32[256]{0}, f32[2048,256]{1,0}, /*index=100*/f32[256]{0}, f32[256]{0}, f32[256]{0}, f32[256]{0}, f32[256]{0}, /*index=105*/f32[256]{0}, f32[8,32]{1,0}, f32[256,8,32]{2,1,0}, f32[256]{0}, f32[8,32,256]{2,1,0}, /*index=110*/f32[8,32]{1,0}, f32[256,8,32]{2,1,0}, f32[8,32]{1,0}, f32[256,8,32]{2,1,0}, f32[8,32]{1,0}, /*index=115*/f32[256,8,32]{2,1,0}, f32[256]{0}, f32[8,32,256]{2,1,0}, f32[8,32]{1,0}, f32[256,8,32]{2,1,0}, /*index=120*/f32[8,32]{1,0}, f32[256,8,32]{2,1,0}, f32[2048]{0}, f32[256,2048]{1,0}, f32[256]{0}, /*index=125*/f32[2048,256]{1,0}, f32[256]{0}, f32[256]{0}, f32[256]{0}, f32[256]{0}, /*index=130*/f32[256]{0}, f32[256]{0}, f32[8,32]{1,0}, f32[256,8,32]{2,1,0}, f32[256]{0}, /*index=135*/f32[8,32,256]{2,1,0}, f32[8,32]{1,0}, f32[256,8,32]{2,1,0}, f32[8,32]{1,0}, f32[256,8,32]{2,1,0}, /*index=140*/f32[8,32]{1,0}, f32[256,8,32]{2,1,0}, f32[256]{0}, f32[8,32,256]{2,1,0}, f32[8,32]{1,0}, /*index=145*/f32[256,8,32]{2,1,0}, f32[8,32]{1,0}, f32[256,8,32]{2,1,0}, f32[2048]{0}, f32[256,2048]{1,0}, /*index=150*/f32[256]{0}, f32[2048,256]{1,0}, f32[256]{0}, f32[256]{0}, f32[256]{0}, /*index=155*/f32[256]{0}, f32[256]{0}, f32[256]{0}, f32[8,32]{1,0}, f32[256,8,32]{2,1,0}, /*index=160*/f32[256]{0}, f32[8,32,256]{2,1,0}, f32[8,32]{1,0}, f32[256,8,32]{2,1,0}, f32[8,32]{1,0}, /*index=165*/f32[256,8,32]{2,1,0}, f32[8,32]{1,0}, f32[256,8,32]{2,1,0}, f32[256]{0}, f32[8,32,256]{2,1,0}, /*index=170*/f32[8,32]{1,0}, f32[256,8,32]{2,1,0}, f32[8,32]{1,0}, f32[256,8,32]{2,1,0}, f32[92]{0}, /*index=175*/f32[256,92]{1,0}, f32[256]{0}, f32[256,256]{1,0}, f32[256]{0}, f32[256,256]{1,0}, /*index=180*/f32[4]{0}, f32[256,4]{1,0}, f32[2048]{0}, f32[256,2048]{1,0}, f32[256]{0}, /*index=185*/f32[2048,256]{1,0}, f32[256]{0}, f32[256]{0}, f32[256]{0}, f32[256]{0}, /*index=190*/f32[8,32]{1,0}, f32[256,8,32]{2,1,0}, f32[256]{0}, f32[8,32,256]{2,1,0}, f32[8,32]{1,0}, /*index=195*/f32[256,8,32]{2,1,0}, f32[8,32]{1,0}, f32[256,8,32]{2,1,0}, f32[2048]{0}, f32[256,2048]{1,0}, /*index=200*/f32[256]{0}, f32[2048,256]{1,0}, f32[256]{0}, f32[256]{0}, f32[256]{0}, /*index=205*/f32[256]{0}, f32[8,32]{1,0}, f32[256,8,32]{2,1,0}, f32[256]{0}, f32[8,32,256]{2,1,0}, /*index=210*/f32[8,32]{1,0}, f32[256,8,32]{2,1,0}, f32[8,32]{1,0}, f32[256,8,32]{2,1,0}, f32[2048]{0}, /*index=215*/f32[256,2048]{1,0}, f32[256]{0}, f32[2048,256]{1,0}, f32[256]{0}, f32[256]{0}, /*index=220*/f32[256]{0}, f32[256]{0}, f32[8,32]{1,0}, f32[256,8,32]{2,1,0}, f32[256]{0}, /*index=225*/f32[8,32,256]{2,1,0}, f32[8,32]{1,0}, f32[256,8,32]{2,1,0}, f32[8,32]{1,0}, f32[256,8,32]{2,1,0}, /*index=230*/f32[2048]{0}, f32[256,2048]{1,0}, f32[256]{0}, f32[2048,256]{1,0}, f32[256]{0}, /*index=235*/f32[256]{0}, f32[256]{0}, f32[256]{0}, f32[8,32]{1,0}, f32[256,8,32]{2,1,0}, /*index=240*/f32[256]{0}, f32[8,32,256]{2,1,0}, f32[8,32]{1,0}, f32[256,8,32]{2,1,0}, f32[8,32]{1,0}, /*index=245*/f32[256,8,32]{2,1,0}, f32[2048]{0}, f32[256,2048]{1,0}, f32[256]{0}, f32[2048,256]{1,0}, /*index=250*/f32[256]{0}, f32[256]{0}, f32[256]{0}, f32[256]{0}, f32[8,32]{1,0}, /*index=255*/f32[256,8,32]{2,1,0}, f32[256]{0}, f32[8,32,256]{2,1,0}, f32[8,32]{1,0}, f32[256,8,32]{2,1,0}, /*index=260*/f32[8,32]{1,0}, f32[256,8,32]{2,1,0}, f32[2048]{0}, f32[256,2048]{1,0}, f32[256]{0}, /*index=265*/f32[2048,256]{1,0}, f32[256]{0}, f32[256]{0}, f32[256]{0}, f32[256]{0}, /*index=270*/f32[8,32]{1,0}, f32[256,8,32]{2,1,0}, f32[256]{0}, f32[8,32,256]{2,1,0}, f32[8,32]{1,0}, /*index=275*/f32[256,8,32]{2,1,0}, f32[8,32]{1,0}, f32[256,8,32]{2,1,0}, f32[100,256]{1,0}, s32[], /*index=280*/f32[64]{0}, f32[64]{0}, f32[128]{0}, f32[128]{0}, f32[256]{0}, /*index=285*/f32[256]{0}, f32[512]{0}, f32[512]{0}, f32[512]{0}, f32[512]{0}, /*index=290*/f32[3,3,3,64]{3,2,1,0}, f32[3,3,64,128]{3,2,1,0}, f32[3,3,128,256]{3,2,1,0}, f32[3,3,256,512]{3,2,1,0}, f32[3,3,512,512]{3,2,1,0}, /*index=295*/f32[256]{0}, f32[1,1,512,256]{3,2,1,0}, f32[2048]{0}, f32[256,2048]{0,1}, f32[256]{0}, /*index=300*/f32[2048,256]{0,1}, f32[256]{0}, f32[256]{0}, f32[256]{0}, f32[256]{0}, /*index=305*/f32[256]{0}, f32[256]{0}, f32[8,32]{1,0}, f32[256,8,32]{0,2,1}, f32[256]{0}, /*index=310*/f32[8,32,256]{1,0,2}, f32[8,32]{1,0}, f32[256,8,32]{0,2,1}, f32[8,32]{1,0}, f32[256,8,32]{0,2,1}, /*index=315*/f32[8,32]{1,0}, f32[256,8,32]{0,2,1}, f32[256]{0}, f32[8,32,256]{1,0,2}, f32[8,32]{1,0}, /*index=320*/f32[256,8,32]{0,2,1}, f32[8,32]{1,0}, f32[256,8,32]{0,2,1}, f32[2048]{0}, f32[256,2048]{0,1}, /*index=325*/f32[256]{0}, f32[2048,256]{0,1}, f32[256]{0}, f32[256]{0}, f32[256]{0}, /*index=330*/f32[256]{0}, f32[256]{0}, f32[256]{0}, f32[8,32]{1,0}, f32[256,8,32]{0,2,1}, /*index=335*/f32[256]{0}, f32[8,32,256]{1,0,2}, f32[8,32]{1,0}, f32[256,8,32]{0,2,1}, f32[8,32]{1,0}, /*index=340*/f32[256,8,32]{0,2,1}, f32[8,32]{1,0}, f32[256,8,32]{0,2,1}, f32[256]{0}, f32[8,32,256]{1,0,2}, /*index=345*/f32[8,32]{1,0}, f32[256,8,32]{0,2,1}, f32[8,32]{1,0}, f32[256,8,32]{0,2,1}, f32[2048]{0}, /*index=350*/f32[256,2048]{0,1}, f32[256]{0}, f32[2048,256]{0,1}, f32[256]{0}, f32[256]{0}, /*index=355*/f32[256]{0}, f32[256]{0}, f32[256]{0}, f32[256]{0}, f32[8,32]{1,0}, /*index=360*/f32[256,8,32]{0,2,1}, f32[256]{0}, f32[8,32,256]{1,0,2}, f32[8,32]{1,0}, f32[256,8,32]{0,2,1}, /*index=365*/f32[8,32]{1,0}, f32[256,8,32]{0,2,1}, f32[8,32]{1,0}, f32[256,8,32]{0,2,1}, f32[256]{0}, /*index=370*/f32[8,32,256]{1,0,2}, f32[8,32]{1,0}, f32[256,8,32]{0,2,1}, f32[8,32]{1,0}, f32[256,8,32]{0,2,1}, /*index=375*/f32[2048]{0}, f32[256,2048]{0,1}, f32[256]{0}, f32[2048,256]{0,1}, f32[256]{0}, /*index=380*/f32[256]{0}, f32[256]{0}, f32[256]{0}, f32[256]{0}, f32[256]{0}, /*index=385*/f32[8,32]{1,0}, f32[256,8,32]{0,2,1}, f32[256]{0}, f32[8,32,256]{1,0,2}, f32[8,32]{1,0}, /*index=390*/f32[256,8,32]{0,2,1}, f32[8,32]{1,0}, f32[256,8,32]{0,2,1}, f32[8,32]{1,0}, f32[256,8,32]{0,2,1}, /*index=395*/f32[256]{0}, f32[8,32,256]{1,0,2}, f32[8,32]{1,0}, f32[256,8,32]{0,2,1}, f32[8,32]{1,0}, /*index=400*/f32[256,8,32]{0,2,1}, f32[2048]{0}, f32[256,2048]{0,1}, f32[256]{0}, f32[2048,256]{0,1}, /*index=405*/f32[256]{0}, f32[256]{0}, f32[256]{0}, f32[256]{0}, f32[256]{0}, /*index=410*/f32[256]{0}, f32[8,32]{1,0}, f32[256,8,32]{0,2,1}, f32[256]{0}, f32[8,32,256]{1,0,2}, /*index=415*/f32[8,32]{1,0}, f32[256,8,32]{0,2,1}, f32[8,32]{1,0}, f32[256,8,32]{0,2,1}, f32[8,32]{1,0}, /*index=420*/f32[256,8,32]{0,2,1}, f32[256]{0}, f32[8,32,256]{1,0,2}, f32[8,32]{1,0}, f32[256,8,32]{0,2,1}, /*index=425*/f32[8,32]{1,0}, f32[256,8,32]{0,2,1}, f32[2048]{0}, f32[256,2048]{0,1}, f32[256]{0}, /*index=430*/f32[2048,256]{0,1}, f32[256]{0}, f32[256]{0}, f32[256]{0}, f32[256]{0}, /*index=435*/f32[256]{0}, f32[256]{0}, f32[8,32]{1,0}, f32[256,8,32]{0,2,1}, f32[256]{0}, /*index=440*/f32[8,32,256]{1,0,2}, f32[8,32]{1,0}, f32[256,8,32]{0,2,1}, f32[8,32]{1,0}, f32[256,8,32]{0,2,1}, /*index=445*/f32[8,32]{1,0}, f32[256,8,32]{0,2,1}, f32[256]{0}, f32[8,32,256]{1,0,2}, f32[8,32]{1,0}, /*index=450*/f32[256,8,32]{0,2,1}, f32[8,32]{1,0}, f32[256,8,32]{0,2,1}, f32[92]{0}, f32[256,92]{0,1}, /*index=455*/f32[256]{0}, f32[256,256]{0,1}, f32[256]{0}, f32[256,256]{0,1}, f32[4]{0}, /*index=460*/f32[256,4]{0,1}, f32[2048]{0}, f32[256,2048]{0,1}, f32[256]{0}, f32[2048,256]{0,1}, /*index=465*/f32[256]{0}, f32[256]{0}, f32[256]{0}, f32[256]{0}, f32[8,32]{1,0}, /*index=470*/f32[256,8,32]{0,2,1}, f32[256]{0}, f32[8,32,256]{1,0,2}, f32[8,32]{1,0}, f32[256,8,32]{0,2,1}, /*index=475*/f32[8,32]{1,0}, f32[256,8,32]{0,2,1}, f32[2048]{0}, f32[256,2048]{0,1}, f32[256]{0}, /*index=480*/f32[2048,256]{0,1}, f32[256]{0}, f32[256]{0}, f32[256]{0}, f32[256]{0}, /*index=485*/f32[8,32]{1,0}, f32[256,8,32]{0,2,1}, f32[256]{0}, f32[8,32,256]{1,0,2}, f32[8,32]{1,0}, /*index=490*/f32[256,8,32]{0,2,1}, f32[8,32]{1,0}, f32[256,8,32]{0,2,1}, f32[2048]{0}, f32[256,2048]{0,1}, /*index=495*/f32[256]{0}, f32[2048,256]{0,1}, f32[256]{0}, f32[256]{0}, f32[256]{0}, /*index=500*/f32[256]{0}, f32[8,32]{1,0}, f32[256,8,32]{0,2,1}, f32[256]{0}, f32[8,32,256]{1,0,2}, /*index=505*/f32[8,32]{1,0}, f32[256,8,32]{0,2,1}, f32[8,32]{1,0}, f32[256,8,32]{0,2,1}, f32[2048]{0}, /*index=510*/f32[256,2048]{0,1}, f32[256]{0}, f32[2048,256]{0,1}, f32[256]{0}, f32[256]{0}, /*index=515*/f32[256]{0}, f32[256]{0}, f32[8,32]{1,0}, f32[256,8,32]{0,2,1}, f32[256]{0}, /*index=520*/f32[8,32,256]{1,0,2}, f32[8,32]{1,0}, f32[256,8,32]{0,2,1}, f32[8,32]{1,0}, f32[256,8,32]{0,2,1}, /*index=525*/f32[2048]{0}, f32[256,2048]{0,1}, f32[256]{0}, f32[2048,256]{0,1}, f32[256]{0}, /*index=530*/f32[256]{0}, f32[256]{0}, f32[256]{0}, f32[8,32]{1,0}, f32[256,8,32]{0,2,1}, /*index=535*/f32[256]{0}, f32[8,32,256]{1,0,2}, f32[8,32]{1,0}, f32[256,8,32]{0,2,1}, f32[8,32]{1,0}, /*index=540*/f32[256,8,32]{0,2,1}, f32[2048]{0}, f32[256,2048]{0,1}, f32[256]{0}, f32[2048,256]{0,1}, /*index=545*/f32[256]{0}, f32[256]{0}, f32[256]{0}, f32[256]{0}, f32[8,32]{1,0}, /*index=550*/f32[256,8,32]{0,2,1}, f32[256]{0}, f32[8,32,256]{1,0,2}, f32[8,32]{1,0}, f32[256,8,32]{0,2,1}, /*index=555*/f32[8,32]{1,0}, f32[256,8,32]{0,2,1}, f32[100,256]{1,0}, f32[64]{0}, f32[64]{0}, /*index=560*/f32[128]{0}, f32[128]{0}, f32[256]{0}, f32[256]{0}, f32[512]{0}, /*index=565*/f32[512]{0}, f32[512]{0}, f32[512]{0}, f32[3,3,3,64]{3,2,1,0}, f32[3,3,64,128]{3,2,1,0}, /*index=570*/f32[3,3,128,256]{3,2,1,0}, f32[3,3,256,512]{3,2,1,0}, f32[3,3,512,512]{3,2,1,0}, f32[256]{0}, f32[1,1,512,256]{3,2,1,0}, /*index=575*/f32[2048]{0}, f32[256,2048]{0,1}, f32[256]{0}, f32[2048,256]{0,1}, f32[256]{0}, /*index=580*/f32[256]{0}, f32[256]{0}, f32[256]{0}, f32[256]{0}, f32[256]{0}, /*index=585*/f32[8,32]{1,0}, f32[256,8,32]{0,2,1}, f32[256]{0}, f32[8,32,256]{1,0,2}, f32[8,32]{1,0}, /*index=590*/f32[256,8,32]{0,2,1}, f32[8,32]{1,0}, f32[256,8,32]{0,2,1}, f32[8,32]{1,0}, f32[256,8,32]{0,2,1}, /*index=595*/f32[256]{0}, f32[8,32,256]{1,0,2}, f32[8,32]{1,0}, f32[256,8,32]{0,2,1}, f32[8,32]{1,0}, /*index=600*/f32[256,8,32]{0,2,1}, f32[2048]{0}, f32[256,2048]{0,1}, f32[256]{0}, f32[2048,256]{0,1}, /*index=605*/f32[256]{0}, f32[256]{0}, f32[256]{0}, f32[256]{0}, f32[256]{0}, /*index=610*/f32[256]{0}, f32[8,32]{1,0}, f32[256,8,32]{0,2,1}, f32[256]{0}, f32[8,32,256]{1,0,2}, /*index=615*/f32[8,32]{1,0}, f32[256,8,32]{0,2,1}, f32[8,32]{1,0}, f32[256,8,32]{0,2,1}, f32[8,32]{1,0}, /*index=620*/f32[256,8,32]{0,2,1}, f32[256]{0}, f32[8,32,256]{1,0,2}, f32[8,32]{1,0}, f32[256,8,32]{0,2,1}, /*index=625*/f32[8,32]{1,0}, f32[256,8,32]{0,2,1}, f32[2048]{0}, f32[256,2048]{0,1}, f32[256]{0}, /*index=630*/f32[2048,256]{0,1}, f32[256]{0}, f32[256]{0}, f32[256]{0}, f32[256]{0}, /*index=635*/f32[256]{0}, f32[256]{0}, f32[8,32]{1,0}, f32[256,8,32]{0,2,1}, f32[256]{0}, /*index=640*/f32[8,32,256]{1,0,2}, f32[8,32]{1,0}, f32[256,8,32]{0,2,1}, f32[8,32]{1,0}, f32[256,8,32]{0,2,1}, /*index=645*/f32[8,32]{1,0}, f32[256,8,32]{0,2,1}, f32[256]{0}, f32[8,32,256]{1,0,2}, f32[8,32]{1,0}, /*index=650*/f32[256,8,32]{0,2,1}, f32[8,32]{1,0}, f32[256,8,32]{0,2,1}, f32[2048]{0}, f32[256,2048]{0,1}, /*index=655*/f32[256]{0}, f32[2048,256]{0,1}, f32[256]{0}, f32[256]{0}, f32[256]{0}, /*index=660*/f32[256]{0}, f32[256]{0}, f32[256]{0}, f32[8,32]{1,0}, f32[256,8,32]{0,2,1}, /*index=665*/f32[256]{0}, f32[8,32,256]{1,0,2}, f32[8,32]{1,0}, f32[256,8,32]{0,2,1}, f32[8,32]{1,0}, /*index=670*/f32[256,8,32]{0,2,1}, f32[8,32]{1,0}, f32[256,8,32]{0,2,1}, f32[256]{0}, f32[8,32,256]{1,0,2}, /*index=675*/f32[8,32]{1,0}, f32[256,8,32]{0,2,1}, f32[8,32]{1,0}, f32[256,8,32]{0,2,1}, f32[2048]{0}, /*index=680*/f32[256,2048]{0,1}, f32[256]{0}, f32[2048,256]{0,1}, f32[256]{0}, f32[256]{0}, /*index=685*/f32[256]{0}, f32[256]{0}, f32[256]{0}, f32[256]{0}, f32[8,32]{1,0}, /*index=690*/f32[256,8,32]{0,2,1}, f32[256]{0}, f32[8,32,256]{1,0,2}, f32[8,32]{1,0}, f32[256,8,32]{0,2,1}, /*index=695*/f32[8,32]{1,0}, f32[256,8,32]{0,2,1}, f32[8,32]{1,0}, f32[256,8,32]{0,2,1}, f32[256]{0}, /*index=700*/f32[8,32,256]{1,0,2}, f32[8,32]{1,0}, f32[256,8,32]{0,2,1}, f32[8,32]{1,0}, f32[256,8,32]{0,2,1}, /*index=705*/f32[2048]{0}, f32[256,2048]{0,1}, f32[256]{0}, f32[2048,256]{0,1}, f32[256]{0}, /*index=710*/f32[256]{0}, f32[256]{0}, f32[256]{0}, f32[256]{0}, f32[256]{0}, /*index=715*/f32[8,32]{1,0}, f32[256,8,32]{0,2,1}, f32[256]{0}, f32[8,32,256]{1,0,2}, f32[8,32]{1,0}, /*index=720*/f32[256,8,32]{0,2,1}, f32[8,32]{1,0}, f32[256,8,32]{0,2,1}, f32[8,32]{1,0}, f32[256,8,32]{0,2,1}, /*index=725*/f32[256]{0}, f32[8,32,256]{1,0,2}, f32[8,32]{1,0}, f32[256,8,32]{0,2,1}, f32[8,32]{1,0}, /*index=730*/f32[256,8,32]{0,2,1}, f32[92]{0}, f32[256,92]{0,1}, f32[256]{0}, f32[256,256]{0,1}, /*index=735*/f32[256]{0}, f32[256,256]{0,1}, f32[4]{0}, f32[256,4]{0,1}, f32[2048]{0}, /*index=740*/f32[256,2048]{0,1}, f32[256]{0}, f32[2048,256]{0,1}, f32[256]{0}, f32[256]{0}, /*index=745*/f32[256]{0}, f32[256]{0}, f32[8,32]{1,0}, f32[256,8,32]{0,2,1}, f32[256]{0}, /*index=750*/f32[8,32,256]{1,0,2}, f32[8,32]{1,0}, f32[256,8,32]{0,2,1}, f32[8,32]{1,0}, f32[256,8,32]{0,2,1}, /*index=755*/f32[2048]{0}, f32[256,2048]{0,1}, f32[256]{0}, f32[2048,256]{0,1}, f32[256]{0}, /*index=760*/f32[256]{0}, f32[256]{0}, f32[256]{0}, f32[8,32]{1,0}, f32[256,8,32]{0,2,1}, /*index=765*/f32[256]{0}, f32[8,32,256]{1,0,2}, f32[8,32]{1,0}, f32[256,8,32]{0,2,1}, f32[8,32]{1,0}, /*index=770*/f32[256,8,32]{0,2,1}, f32[2048]{0}, f32[256,2048]{0,1}, f32[256]{0}, f32[2048,256]{0,1}, /*index=775*/f32[256]{0}, f32[256]{0}, f32[256]{0}, f32[256]{0}, f32[8,32]{1,0}, /*index=780*/f32[256,8,32]{0,2,1}, f32[256]{0}, f32[8,32,256]{1,0,2}, f32[8,32]{1,0}, f32[256,8,32]{0,2,1}, /*index=785*/f32[8,32]{1,0}, f32[256,8,32]{0,2,1}, f32[2048]{0}, f32[256,2048]{0,1}, f32[256]{0}, /*index=790*/f32[2048,256]{0,1}, f32[256]{0}, f32[256]{0}, f32[256]{0}, f32[256]{0}, /*index=795*/f32[8,32]{1,0}, f32[256,8,32]{0,2,1}, f32[256]{0}, f32[8,32,256]{1,0,2}, f32[8,32]{1,0}, /*index=800*/f32[256,8,32]{0,2,1}, f32[8,32]{1,0}, f32[256,8,32]{0,2,1}, f32[2048]{0}, f32[256,2048]{0,1}, /*index=805*/f32[256]{0}, f32[2048,256]{0,1}, f32[256]{0}, f32[256]{0}, f32[256]{0}, /*index=810*/f32[256]{0}, f32[8,32]{1,0}, f32[256,8,32]{0,2,1}, f32[256]{0}, f32[8,32,256]{1,0,2}, /*index=815*/f32[8,32]{1,0}, f32[256,8,32]{0,2,1}, f32[8,32]{1,0}, f32[256,8,32]{0,2,1}, f32[2048]{0}, /*index=820*/f32[256,2048]{0,1}, f32[256]{0}, f32[2048,256]{0,1}, f32[256]{0}, f32[256]{0}, /*index=825*/f32[256]{0}, f32[256]{0}, f32[8,32]{1,0}, f32[256,8,32]{0,2,1}, f32[256]{0}, /*index=830*/f32[8,32,256]{1,0,2}, f32[8,32]{1,0}, f32[256,8,32]{0,2,1}, f32[8,32]{1,0}, f32[256,8,32]{0,2,1}, /*index=835*/f32[100,256]{1,0}, f32[64]{0}, f32[64]{0}, f32[128]{0}, f32[128]{0}, /*index=840*/f32[256]{0}, f32[256]{0}, f32[512]{0}, f32[512]{0}, f32[512]{0}, /*index=845*/f32[512]{0}, f32[]) tuple(%add.4179, %add.3901, %add.3902, %add.3903, %add.3904, /*index=5*/%add.3905, %add.3906, %add.3907, %add.3908, %add.3909, /*index=10*/%add.3910, %add.3911, %add.3912, %add.3913, %add.3914, /*index=15*/%add.3915, %add.3916, %add.3917, %add.3918, %add.3919, /*index=20*/%add.3920, %add.3921, %add.3922, %add.3923, %add.3924, /*index=25*/%add.3925, %add.3926, %add.3927, %add.3928, %add.3929, /*index=30*/%add.3930, %add.3931, %add.3932, %add.3933, %add.3934, /*index=35*/%add.3935, %add.3936, %add.3937, %add.3938, %add.3939, /*index=40*/%add.3940, %add.3941, %add.3942, %add.3943, %add.3944, /*index=45*/%add.3945, %add.3946, %add.3947, %add.3948, %add.3949, /*index=50*/%add.3950, %add.3951, %add.3952, %add.3953, %add.3954, /*index=55*/%add.3955, %add.3956, %add.3957, %add.3958, %add.3959, /*index=60*/%add.3960, %add.3961, %add.3962, %add.3963, %add.3964, /*index=65*/%add.3965, %add.3966, %add.3967, %add.3968, %add.3969, /*index=70*/%add.3970, %add.3971, %add.3972, %add.3973, %add.3974, /*index=75*/%add.3975, %add.3976, %add.3977, %add.3978, %add.3979, /*index=80*/%add.3980, %add.3981, %add.3982, %add.3983, %add.3984, /*index=85*/%add.3985, %add.3986, %add.3987, %add.3988, %add.3989, /*index=90*/%add.3990, %add.3991, %add.3992, %add.3993, %add.3994, /*index=95*/%add.3995, %add.3996, %add.3997, %add.3998, %add.3999, /*index=100*/%add.4000, %add.4001, %add.4002, %add.4003, %add.4004, /*index=105*/%add.4005, %add.4006, %add.4007, %add.4008, %add.4009, /*index=110*/%add.4010, %add.4011, %add.4012, %add.4013, %add.4014, /*index=115*/%add.4015, %add.4016, %add.4017, %add.4018, %add.4019, /*index=120*/%add.4020, %add.4021, %add.4022, %add.4023, %add.4024, /*index=125*/%add.4025, %add.4026, %add.4027, %add.4028, %add.4029, /*index=130*/%add.4030, %add.4031, %add.4032, %add.4033, %add.4034, /*index=135*/%add.4035, %add.4036, %add.4037, %add.4038, %add.4039, /*index=140*/%add.4040, %add.4041, %add.4042, %add.4043, %add.4044, /*index=145*/%add.4045, %add.4046, %add.4047, %add.4048, %add.4049, /*index=150*/%add.4050, %add.4051, %add.4052, %add.4053, %add.4054, /*index=155*/%add.4055, %add.4056, %add.4057, %add.4058, %add.4059, /*index=160*/%add.4060, %add.4061, %add.4062, %add.4063, %add.4064, /*index=165*/%add.4065, %add.4066, %add.4067, %add.4068, %add.4069, /*index=170*/%add.4070, %add.4071, %add.4072, %add.4073, %add.4074, /*index=175*/%add.4075, %add.4076, %add.4077, %add.4078, %add.4079, /*index=180*/%add.4080, %add.4081, %add.4082, %add.4083, %add.4084, /*index=185*/%add.4085, %add.4086, %add.4087, %add.4088, %add.4089, /*index=190*/%add.4090, %add.4091, %add.4092, %add.4093, %add.4094, /*index=195*/%add.4095, %add.4096, %add.4097, %add.4098, %add.4099, /*index=200*/%add.4100, %add.4101, %add.4102, %add.4103, %add.4104, /*index=205*/%add.4105, %add.4106, %add.4107, %add.4108, %add.4109, /*index=210*/%add.4110, %add.4111, %add.4112, %add.4113, %add.4114, /*index=215*/%add.4115, %add.4116, %add.4117, %add.4118, %add.4119, /*index=220*/%add.4120, %add.4121, %add.4122, %add.4123, %add.4124, /*index=225*/%add.4125, %add.4126, %add.4127, %add.4128, %add.4129, /*index=230*/%add.4130, %add.4131, %add.4132, %add.4133, %add.4134, /*index=235*/%add.4135, %add.4136, %add.4137, %add.4138, %add.4139, /*index=240*/%add.4140, %add.4141, %add.4142, %add.4143, %add.4144, /*index=245*/%add.4145, %add.4146, %add.4147, %add.4148, %add.4149, /*index=250*/%add.4150, %add.4151, %add.4152, %add.4153, %add.4154, /*index=255*/%add.4155, %add.4156, %add.4157, %add.4158, %add.4159, /*index=260*/%add.4160, %add.4161, %add.4162, %add.4163, %add.4164, /*index=265*/%add.4165, %add.4166, %add.4167, %add.4168, %add.4169, /*index=270*/%add.4170, %add.4171, %add.4172, %add.4173, %add.4174, /*index=275*/%add.4175, %add.4176, %add.4177, %add.4178, %jit__where_.3, /*index=280*/%add.2788, %add.2789, %add.2790, %add.2791, %add.2792, /*index=285*/%add.2793, %add.2794, %add.2795, %add.2796, %add.2797, /*index=290*/%add.2798, %add.2799, %add.2800, %add.2801, %add.2802, /*index=295*/%add.2803, %add.2804, %add.2805, %add.2806, %add.2807, /*index=300*/%add.2808, %add.2809, %add.2810, %add.2811, %add.2812, /*index=305*/%add.2813, %add.2814, %add.2815, %add.2816, %add.2817, /*index=310*/%add.2818, %add.2819, %add.2820, %add.2821, %add.2822, /*index=315*/%add.2823, %add.2824, %add.2825, %add.2826, %add.2827, /*index=320*/%add.2828, %add.2829, %add.2830, %add.2831, %add.2832, /*index=325*/%add.2833, %add.2834, %add.2835, %add.2836, %add.2837, /*index=330*/%add.2838, %add.2839, %add.2840, %add.2841, %add.2842, /*index=335*/%add.2843, %add.2844, %add.2845, %add.2846, %add.2847, /*index=340*/%add.2848, %add.2849, %add.2850, %add.2851, %add.2852, /*index=345*/%add.2853, %add.2854, %add.2855, %add.2856, %add.2857, /*index=350*/%add.2858, %add.2859, %add.2860, %add.2861, %add.2862, /*index=355*/%add.2863, %add.2864, %add.2865, %add.2866, %add.2867, /*index=360*/%add.2868, %add.2869, %add.2870, %add.2871, %add.2872, /*index=365*/%add.2873, %add.2874, %add.2875, %add.2876, %add.2877, /*index=370*/%add.2878, %add.2879, %add.2880, %add.2881, %add.2882, /*index=375*/%add.2883, %add.2884, %add.2885, %add.2886, %add.2887, /*index=380*/%add.2888, %add.2889, %add.2890, %add.2891, %add.2892, /*index=385*/%add.2893, %add.2894, %add.2895, %add.2896, %add.2897, /*index=390*/%add.2898, %add.2899, %add.2900, %add.2901, %add.2902, /*index=395*/%add.2903, %add.2904, %add.2905, %add.2906, %add.2907, /*index=400*/%add.2908, %add.2909, %add.2910, %add.2911, %add.2912, /*index=405*/%add.2913, %add.2914, %add.2915, %add.2916, %add.2917, /*index=410*/%add.2918, %add.2919, %add.2920, %add.2921, %add.2922, /*index=415*/%add.2923, %add.2924, %add.2925, %add.2926, %add.2927, /*index=420*/%add.2928, %add.2929, %add.2930, %add.2931, %add.2932, /*index=425*/%add.2933, %add.2934, %add.2935, %add.2936, %add.2937, /*index=430*/%add.2938, %add.2939, %add.2940, %add.2941, %add.2942, /*index=435*/%add.2943, %add.2944, %add.2945, %add.2946, %add.2947, /*index=440*/%add.2948, %add.2949, %add.2950, %add.2951, %add.2952, /*index=445*/%add.2953, %add.2954, %add.2955, %add.2956, %add.2957, /*index=450*/%add.2958, %add.2959, %add.2960, %add.2961, %add.2962, /*index=455*/%add.2963, %add.2964, %add.2965, %add.2966, %add.2967, /*index=460*/%add.2968, %add.2969, %add.2970, %add.2971, %add.2972, /*index=465*/%add.2973, %add.2974, %add.2975, %add.2976, %add.2977, /*index=470*/%add.2978, %add.2979, %add.2980, %add.2981, %add.2982, /*index=475*/%add.2983, %add.2984, %add.2985, %add.2986, %add.2987, /*index=480*/%add.2988, %add.2989, %add.2990, %add.2991, %add.2992, /*index=485*/%add.2993, %add.2994, %add.2995, %add.2996, %add.2997, /*index=490*/%add.2998, %add.2999, %add.3000, %add.3001, %add.3002, /*index=495*/%add.3003, %add.3004, %add.3005, %add.3006, %add.3007, /*index=500*/%add.3008, %add.3009, %add.3010, %add.3011, %add.3012, /*index=505*/%add.3013, %add.3014, %add.3015, %add.3016, %add.3017, /*index=510*/%add.3018, %add.3019, %add.3020, %add.3021, %add.3022, /*index=515*/%add.3023, %add.3024, %add.3025, %add.3026, %add.3027, /*index=520*/%add.3028, %add.3029, %add.3030, %add.3031, %add.3032, /*index=525*/%add.3033, %add.3034, %add.3035, %add.3036, %add.3037, /*index=530*/%add.3038, %add.3039, %add.3040, %add.3041, %add.3042, /*index=535*/%add.3043, %add.3044, %add.3045, %add.3046, %add.3047, /*index=540*/%add.3048, %add.3049, %add.3050, %add.3051, %add.3052, /*index=545*/%add.3053, %add.3054, %add.3055, %add.3056, %add.3057, /*index=550*/%add.3058, %add.3059, %add.3060, %add.3061, %add.3062, /*index=555*/%add.3063, %add.3064, %add.3065, %add.3066, %add.3067, /*index=560*/%add.3068, %add.3069, %add.3070, %add.3071, %add.3072, /*index=565*/%add.3073, %add.3074, %add.3075, %add.3076, %add.3077, /*index=570*/%add.3078, %add.3079, %add.3080, %add.3081, %add.3082, /*index=575*/%add.3083, %add.3084, %add.3085, %add.3086, %add.3087, /*index=580*/%add.3088, %add.3089, %add.3090, %add.3091, %add.3092, /*index=585*/%add.3093, %add.3094, %add.3095, %add.3096, %add.3097, /*index=590*/%add.3098, %add.3099, %add.3100, %add.3101, %add.3102, /*index=595*/%add.3103, %add.3104, %add.3105, %add.3106, %add.3107, /*index=600*/%add.3108, %add.3109, %add.3110, %add.3111, %add.3112, /*index=605*/%add.3113, %add.3114, %add.3115, %add.3116, %add.3117, /*index=610*/%add.3118, %add.3119, %add.3120, %add.3121, %add.3122, /*index=615*/%add.3123, %add.3124, %add.3125, %add.3126, %add.3127, /*index=620*/%add.3128, %add.3129, %add.3130, %add.3131, %add.3132, /*index=625*/%add.3133, %add.3134, %add.3135, %add.3136, %add.3137, /*index=630*/%add.3138, %add.3139, %add.3140, %add.3141, %add.3142, /*index=635*/%add.3143, %add.3144, %add.3145, %add.3146, %add.3147, /*index=640*/%add.3148, %add.3149, %add.3150, %add.3151, %add.3152, /*index=645*/%add.3153, %add.3154, %add.3155, %add.3156, %add.3157, /*index=650*/%add.3158, %add.3159, %add.3160, %add.3161, %add.3162, /*index=655*/%add.3163, %add.3164, %add.3165, %add.3166, %add.3167, /*index=660*/%add.3168, %add.3169, %add.3170, %add.3171, %add.3172, /*index=665*/%add.3173, %add.3174, %add.3175, %add.3176, %add.3177, /*index=670*/%add.3178, %add.3179, %add.3180, %add.3181, %add.3182, /*index=675*/%add.3183, %add.3184, %add.3185, %add.3186, %add.3187, /*index=680*/%add.3188, %add.3189, %add.3190, %add.3191, %add.3192, /*index=685*/%add.3193, %add.3194, %add.3195, %add.3196, %add.3197, /*index=690*/%add.3198, %add.3199, %add.3200, %add.3201, %add.3202, /*index=695*/%add.3203, %add.3204, %add.3205, %add.3206, %add.3207, /*index=700*/%add.3208, %add.3209, %add.3210, %add.3211, %add.3212, /*index=705*/%add.3213, %add.3214, %add.3215, %add.3216, %add.3217, /*index=710*/%add.3218, %add.3219, %add.3220, %add.3221, %add.3222, /*index=715*/%add.3223, %add.3224, %add.3225, %add.3226, %add.3227, /*index=720*/%add.3228, %add.3229, %add.3230, %add.3231, %add.3232, /*index=725*/%add.3233, %add.3234, %add.3235, %add.3236, %add.3237, /*index=730*/%add.3238, %add.3239, %add.3240, %add.3241, %add.3242, /*index=735*/%add.3243, %add.3244, %add.3245, %add.3246, %add.3247, /*index=740*/%add.3248, %add.3249, %add.3250, %add.3251, %add.3252, /*index=745*/%add.3253, %add.3254, %add.3255, %add.3256, %add.3257, /*index=750*/%add.3258, %add.3259, %add.3260, %add.3261, %add.3262, /*index=755*/%add.3263, %add.3264, %add.3265, %add.3266, %add.3267, /*index=760*/%add.3268, %add.3269, %add.3270, %add.3271, %add.3272, /*index=765*/%add.3273, %add.3274, %add.3275, %add.3276, %add.3277, /*index=770*/%add.3278, %add.3279, %add.3280, %add.3281, %add.3282, /*index=775*/%add.3283, %add.3284, %add.3285, %add.3286, %add.3287, /*index=780*/%add.3288, %add.3289, %add.3290, %add.3291, %add.3292, /*index=785*/%add.3293, %add.3294, %add.3295, %add.3296, %add.3297, /*index=790*/%add.3298, %add.3299, %add.3300, %add.3301, %add.3302, /*index=795*/%add.3303, %add.3304, %add.3305, %add.3306, %add.3307, /*index=800*/%add.3308, %add.3309, %add.3310, %add.3311, %add.3312, /*index=805*/%add.3313, %add.3314, %add.3315, %add.3316, %add.3317, /*index=810*/%add.3318, %add.3319, %add.3320, %add.3321, %add.3322, /*index=815*/%add.3323, %add.3324, %add.3325, %add.3326, %add.3327, /*index=820*/%add.3328, %add.3329, %add.3330, %add.3331, %add.3332, /*index=825*/%add.3333, %add.3334, %add.3335, %add.3336, %add.3337, /*index=830*/%add.3338, %add.3339, %add.3340, %add.3341, %add.3342, /*index=835*/%add.3343, %add.2108, %add.2109, %add.2115, %add.2116, /*index=840*/%add.2122, %add.2123, %add.2129, %add.2130, %add.2136, /*index=845*/%add.2137, %add.2787)
}

