HloModule jit__generate_jit, buffer_donor={ (0, {}), (1, {}), (2, {}), (3, {}), (4, {}), (5, {}), (6, {}), (7, {}), (8, {}), (9, {}), (10, {}), (11, {}), (12, {}), (13, {}), (14, {}), (15, {}), (16, {}), (17, {}), (18, {}) }, entry_computation_layout={(s32[12,1]{1,0}, s32[12,8,1984]{2,1,0}, s32[12,8,64]{2,1,0}, bf16[12,1984,8,8,64]{4,3,2,1,0}, s32[12,8]{1,0}, /*index=5*/bf16[12,1984,8,8,64]{4,3,2,1,0}, bf16[12,64,8,8,64]{4,3,2,1,0}, bf16[12,64,8,8,64]{4,3,2,1,0}, s32[12,1]{1,0}, s32[12,8,1984]{2,1,0}, /*index=10*/s32[12,8,64]{2,1,0}, bf16[12,1984,8,8,64]{4,3,2,1,0}, s32[12,8]{1,0}, bf16[12,1984,8,8,64]{4,3,2,1,0}, bf16[12,64,8,8,64]{4,3,2,1,0}, /*index=15*/bf16[12,64,8,8,64]{4,3,2,1,0}, s32[8,1]{1,0}, s32[8,1]{1,0}, s32[8,1]{1,0}, f32[2880]{0}, /*index=20*/f32[8,12,64]{2,1,0}, f32[2880,12,8,64]{3,2,1,0}, f32[2880,12]{1,0}, f32[64,12,64,2880]{3,2,1,0}, f32[64,12,64]{2,1,0}, /*index=25*/f32[2880,12,64,64]{3,2,1,0}, f32[64,12]{1,0}, f32[8,12,64]{2,1,0}, f32[2880,12,8,64]{3,2,1,0}, f32[32,12]{1,0}, /*index=30*/f32[2880,12,32]{2,1,0}, f32[32,12,2880,2880]{3,2,1,0}, f32[32,12,2880]{2,1,0}, f32[32,12,2880,2880]{3,2,1,0}, f32[32,12,2880]{2,1,0}, /*index=35*/f32[32,12,2880,2880]{3,2,1,0}, f32[32,12,2880]{2,1,0}, f32[2880,12]{1,0}, f32[2880,12]{1,0}, f32[8,12,64]{2,1,0}, /*index=40*/f32[2880,12,8,64]{3,2,1,0}, f32[2880,12]{1,0}, f32[64,12,64,2880]{3,2,1,0}, f32[64,12,64]{2,1,0}, f32[2880,12,64,64]{3,2,1,0}, /*index=45*/f32[64,12]{1,0}, f32[8,12,64]{2,1,0}, f32[2880,12,8,64]{3,2,1,0}, f32[32,12]{1,0}, f32[2880,12,32]{2,1,0}, /*index=50*/f32[32,12,2880,2880]{3,2,1,0}, f32[32,12,2880]{2,1,0}, f32[32,12,2880,2880]{3,2,1,0}, f32[32,12,2880]{2,1,0}, f32[32,12,2880,2880]{3,2,1,0}, /*index=55*/f32[32,12,2880]{2,1,0}, f32[2880,12]{1,0}, f32[2880,12]{1,0}, f32[2880,201088]{1,0}, f32[201088,2880]{1,0})->(s32[12,1]{1,0}, s32[12,8,1984]{2,1,0}, s32[12,8,64]{2,1,0}, bf16[12,1984,8,8,64]{4,3,2,1,0}, s32[12,8]{1,0}, /*index=5*/bf16[12,1984,8,8,64]{4,3,2,1,0}, bf16[12,64,8,8,64]{4,3,2,1,0}, bf16[12,64,8,8,64]{4,3,2,1,0}, s32[12,1]{1,0}, s32[12,8,1984]{2,1,0}, /*index=10*/s32[12,8,64]{2,1,0}, bf16[12,1984,8,8,64]{4,3,2,1,0}, s32[12,8]{1,0}, bf16[12,1984,8,8,64]{4,3,2,1,0}, bf16[12,64,8,8,64]{4,3,2,1,0}, /*index=15*/bf16[12,64,8,8,64]{4,3,2,1,0}, s32[8,1]{1,0}, f32[8,1,201088]{2,1,0}, s32[8,1]{1,0}, f32[8,1]{1,0}, /*index=20*/s32[8,1]{1,0}, s32[8,3]{1,0}, f32[8,1]{1,0})}, allow_spmd_sharding_propagation_to_parameters={false,false,false,false,false,false,false,false,false,false,false,false,false,false,false,false,false,false,false,false,false,false,false,false,false,false,false,false,false,false,false,false,false,false,false,false,false,false,false,false,false,false,false,false,false,false,false,false,false,false,false,false,false,false,false,false,false,false,false,false}, allow_spmd_sharding_propagation_to_output={true,true,true,true,true,true,true,true,true,true,true,true,true,true,true,true,true,true,true,true,true,true,true}, num_partitions=8, frontend_attributes={xla.sdy.meshes={mesh = #sdy.mesh<["diloco"=1, "data"=1, "stage"=1, "fsdp"=1, "fsdp_transpose"=1, "context"=1, "context_autoregressive"=1, "tensor"=8, "tensor_transpose"=1, "tensor_sequence"=1, "expert"=1, "autoregressive"=1]>}}

FileNames
1 "/tf/jax-lab/targets/maxtext_release/maxtext/src/maxtext/inference/maxengine/maxengine.py"
2 "/tf/jax-lab/targets/maxtext_release/maxtext/src/maxtext/models/models.py"
3 "/tf/jax-lab/targets/maxtext_release/maxtext/src/maxtext/layers/decoders.py"
4 "/usr/local/lib/python3.12/dist-packages/flax/core/axes_scan.py"
5 "/tf/jax-lab/targets/maxtext_release/maxtext/src/maxtext/layers/nnx_wrappers.py"
6 "/tf/jax-lab/targets/maxtext_release/maxtext/src/maxtext/models/gpt_oss.py"
7 "/tf/jax-lab/targets/maxtext_release/maxtext/src/maxtext/layers/normalizations.py"
8 "/tf/jax-lab/targets/maxtext_release/maxtext/src/maxtext/layers/attentions.py"
9 "/tf/jax-lab/targets/maxtext_release/maxtext/src/maxtext/inference/kvcache.py"
10 "/tf/jax-lab/targets/maxtext_release/maxtext/src/maxtext/layers/attention_op.py"
11 "/tf/jax-lab/targets/maxtext_release/maxtext/src/maxtext/layers/moe.py"
12 "/tf/jax-lab/targets/maxtext_release/maxtext/src/maxtext/utils/sharding.py"
13 "/tf/jax-lab/targets/maxtext_release/maxtext/src/maxtext/layers/linears.py"
14 "/tf/jax-lab/targets/maxtext_release/maxtext/src/maxtext/layers/embeddings.py"
15 "<frozen runpy>"
16 "/tf/jax-lab/targets/maxtext_release/maxtext/src/maxtext/inference/decode.py"
17 "/usr/local/lib/python3.12/dist-packages/absl/app.py"
18 "/tf/jax-lab/targets/maxtext_release/maxtext/src/maxtext/inference/inference_utils.py"

FunctionNames
1 "MaxEngine._prefill_jit"
2 "TransformerLinenPure.apply"
3 "TransformerLinenPure.__call__"
4 "Decoder.__call__"
5 "scan.<locals>.scan_fn"
6 "MaxEngine._generate_jit"
7 "scan.<locals>.scan_fn.<locals>.body_fn"
8 "ToLinen.__call__"
9 "GptOssScannableBlock.__call__"
10 "_fix_for_qwix_quantization.<locals>.wrap.<locals>.wrapped"
11 "GptOssDecoderLayer.__call__"
12 "RMSNorm.__call__"
13 "Attention.__call__"
14 "Attention.update_kv_caches"
15 "KVCache.__call__"
16 "KVCache.kv_cache_autoregressive"
17 "AttentionOp.__call__"
18 "AttentionOp.apply_attention"
19 "AttentionOp.apply_attention_dot"
20 "AttentionOp.compute_local_attention"
21 "RoutedMoE.__call__"
22 "RoutedMoE.dense_matmul"
23 "RoutedMoE.get_topk"
24 "AttentionOp.generate_attention_mask"
25 "apply_mask_to_logits"
26 "KVCache.get_cached_values"
27 "KVCache.get_cached_values.<locals>.<lambda>"
28 "reverse_transpose"
29 "maybe_shard_with_logical"
30 "maybe_shard_with_name"
31 "Attention.query_projection"
32 "DenseGeneral.__call__"
33 "_compute_dot_general_nnx"
34 "Attention.apply_rotary_embedding"
35 "YarnRotaryEmbedding.__call__"
36 "YarnRotaryEmbedding.freqs_cis"
37 "YarnRotaryEmbedding._linear_ramp_factor"
38 "AttentionOp.qk_product"
39 "Attention.kv_projection"
40 "KVCache.update_ar_key_value"
41 "AttentionOp.normalize_attention"
42 "AttentionOp.normalize_attention.<locals>.<genexpr>"
43 "AttentionOp.wv_product"
44 "Attention.out_projection"
45 "RoutedMoE._maybe_shard_with_logical"
46 "RoutedMoE.apply_ffn_activation"
47 "RoutedMoE.reshape_and_update_weights"
48 "GateLogit.__call__"
49 "_run_module_as_main"
50 "_run_code"
51 "<module>"
52 "run"
53 "_run_main"
54 "main"
55 "MaxEngine.generate"
56 "Decoder.apply_output_head"
57 "sampling"
58 "Decoder._apply_embedding"
59 "Embed.__call__"
60 "scan.<locals>.transpose_to_front"
61 "scan.<locals>.transpose_to_front.<locals>.trans"

FileLocations
1 {file_name_id=1 function_name_id=1 line=798 end_line=815 column=32 end_column=9}
2 {file_name_id=2 function_name_id=2 line=71 end_line=71 column=11 end_column=51}
3 {file_name_id=2 function_name_id=3 line=202 end_line=215 column=38 end_column=5}
4 {file_name_id=3 function_name_id=4 line=1133 end_line=1142 column=19 end_column=41}
5 {file_name_id=4 function_name_id=5 line=200 end_line=203 column=14 end_column=7}
6 {file_name_id=1 function_name_id=6 line=1353 end_line=1361 column=31 end_column=9}
7 {file_name_id=4 function_name_id=7 line=157 end_line=157 column=29 end_column=53}
8 {file_name_id=5 function_name_id=8 line=549 end_line=549 column=10 end_column=44}
9 {file_name_id=6 function_name_id=9 line=292 end_line=302 column=20 end_column=7}
10 {file_name_id=5 function_name_id=10 line=383 end_line=383 column=15 end_column=39}
11 {file_name_id=6 function_name_id=11 line=163 end_line=163 column=10 end_column=52}
12 {file_name_id=7 function_name_id=12 line=72 end_line=72 column=12 end_column=59}
13 {file_name_id=6 function_name_id=11 line=166 end_line=175 column=30 end_column=5}
14 {file_name_id=8 function_name_id=13 line=1224 end_line=1224 column=24 end_column=106}
15 {file_name_id=8 function_name_id=14 line=994 end_line=1001 column=36 end_column=5}
16 {file_name_id=9 function_name_id=15 line=959 end_line=959 column=13 end_column=75}
17 {file_name_id=9 function_name_id=16 line=907 end_line=907 column=35 end_column=80}
18 {file_name_id=8 function_name_id=13 line=1225 end_line=1236 column=12 end_column=7}
19 {file_name_id=10 function_name_id=17 line=2106 end_line=2123 column=86 end_column=5}
20 {file_name_id=10 function_name_id=18 line=972 end_line=986 column=13 end_column=7}
21 {file_name_id=10 function_name_id=19 line=1919 end_line=1919 column=11 end_column=109}
22 {file_name_id=10 function_name_id=20 line=1770 end_line=1770 column=16 end_column=55}
23 {file_name_id=10 function_name_id=20 line=1772 end_line=1772 column=16 end_column=68}
24 {file_name_id=10 function_name_id=17 line=2133 end_line=2146 column=71 end_column=5}
25 {file_name_id=6 function_name_id=11 line=183 end_line=183 column=20 end_column=76}
26 {file_name_id=6 function_name_id=11 line=189 end_line=189 column=36 end_column=65}
27 {file_name_id=11 function_name_id=21 line=2639 end_line=2641 column=38 end_column=7}
28 {file_name_id=11 function_name_id=22 line=2193 end_line=2193 column=35 end_column=110}
29 {file_name_id=11 function_name_id=23 line=711 end_line=711 column=22 end_column=80}
30 {file_name_id=11 function_name_id=21 line=2588 end_line=2588 column=16 end_column=53}
31 {file_name_id=7 function_name_id=12 line=90 end_line=90 column=12 end_column=42}
32 {file_name_id=10 function_name_id=19 line=1866 end_line=1874 column=16 end_column=5}
33 {file_name_id=10 function_name_id=24 line=741 end_line=741 column=24 end_column=79}
34 {file_name_id=10 function_name_id=24 line=742 end_line=742 column=22 end_column=84}
35 {file_name_id=10 function_name_id=24 line=743 end_line=743 column=10 end_column=44}
36 {file_name_id=10 function_name_id=24 line=742 end_line=744 column=21 end_column=7}
37 {file_name_id=10 function_name_id=24 line=745 end_line=745 column=20 end_column=46}
38 {file_name_id=10 function_name_id=24 line=698 end_line=698 column=13 end_column=56}
39 {file_name_id=10 function_name_id=24 line=787 end_line=787 column=11 end_column=58}
40 {file_name_id=10 function_name_id=19 line=1906 end_line=1906 column=21 end_column=66}
41 {file_name_id=10 function_name_id=25 line=121 end_line=121 column=20 end_column=52}
42 {file_name_id=9 function_name_id=16 line=914 end_line=914 column=8 end_column=97}
43 {file_name_id=9 function_name_id=26 line=848 end_line=848 column=35 end_column=110}
44 {file_name_id=9 function_name_id=27 line=848 end_line=848 column=58 end_column=96}
45 {file_name_id=9 function_name_id=28 line=42 end_line=42 column=9 end_column=81}
46 {file_name_id=7 function_name_id=12 line=71 end_line=71 column=8 end_column=35}
47 {file_name_id=7 function_name_id=12 line=72 end_line=72 column=21 end_column=34}
48 {file_name_id=7 function_name_id=12 line=73 end_line=73 column=34 end_column=54}
49 {file_name_id=7 function_name_id=12 line=73 end_line=73 column=24 end_column=55}
50 {file_name_id=7 function_name_id=12 line=73 end_line=73 column=20 end_column=55}
51 {file_name_id=7 function_name_id=12 line=73 end_line=73 column=8 end_column=68}
52 {file_name_id=7 function_name_id=12 line=92 end_line=92 column=11 end_column=84}
53 {file_name_id=8 function_name_id=13 line=1124 end_line=1124 column=15 end_column=73}
54 {file_name_id=12 function_name_id=29 line=147 end_line=155 column=9 end_column=3}
55 {file_name_id=12 function_name_id=30 line=113 end_line=113 column=11 end_column=67}
56 {file_name_id=8 function_name_id=13 line=1142 end_line=1142 column=14 end_column=72}
57 {file_name_id=8 function_name_id=31 line=614 end_line=614 column=11 end_column=58}
58 {file_name_id=13 function_name_id=32 line=231 end_line=231 column=15 end_column=46}
59 {file_name_id=13 function_name_id=32 line=238 end_line=247 column=13 end_column=5}
60 {file_name_id=13 function_name_id=33 line=102 end_line=104 column=9 end_column=3}
61 {file_name_id=13 function_name_id=32 line=250 end_line=250 column=13 end_column=52}
62 {file_name_id=13 function_name_id=32 line=251 end_line=251 column=6 end_column=20}
63 {file_name_id=8 function_name_id=13 line=1172 end_line=1172 column=14 end_column=108}
64 {file_name_id=8 function_name_id=34 line=935 end_line=935 column=13 end_column=60}
65 {file_name_id=14 function_name_id=35 line=975 end_line=975 column=32 end_column=61}
66 {file_name_id=14 function_name_id=35 line=977 end_line=977 column=21 end_column=50}
67 {file_name_id=14 function_name_id=35 line=977 end_line=977 column=34 end_column=50}
68 {file_name_id=14 function_name_id=35 line=962 end_line=962 column=12 end_column=26}
69 {file_name_id=14 function_name_id=36 line=883 end_line=883 column=8 end_column=67}
70 {file_name_id=14 function_name_id=36 line=885 end_line=885 column=12 end_column=31}
71 {file_name_id=14 function_name_id=36 line=868 end_line=868 column=45 end_column=87}
72 {file_name_id=14 function_name_id=36 line=868 end_line=868 column=39 end_column=87}
73 {file_name_id=14 function_name_id=36 line=868 end_line=868 column=19 end_column=110}
74 {file_name_id=14 function_name_id=36 line=868 end_line=868 column=12 end_column=111}
75 {file_name_id=14 function_name_id=36 line=880 end_line=880 column=12 end_column=36}
76 {file_name_id=14 function_name_id=36 line=878 end_line=878 column=17 end_column=62}
77 {file_name_id=14 function_name_id=37 line=932 end_line=932 column=19 end_column=53}
78 {file_name_id=14 function_name_id=37 line=932 end_line=932 column=18 end_column=86}
79 {file_name_id=14 function_name_id=37 line=933 end_line=933 column=11 end_column=38}
80 {file_name_id=14 function_name_id=36 line=878 end_line=878 column=13 end_column=62}
81 {file_name_id=14 function_name_id=36 line=880 end_line=880 column=40 end_column=50}
82 {file_name_id=14 function_name_id=36 line=880 end_line=880 column=54 end_column=68}
83 {file_name_id=14 function_name_id=36 line=888 end_line=888 column=19 end_column=29}
84 {file_name_id=14 function_name_id=36 line=888 end_line=888 column=11 end_column=30}
85 {file_name_id=14 function_name_id=35 line=963 end_line=963 column=12 end_column=39}
86 {file_name_id=14 function_name_id=35 line=984 end_line=984 column=12 end_column=88}
87 {file_name_id=14 function_name_id=35 line=985 end_line=985 column=14 end_column=49}
88 {file_name_id=14 function_name_id=35 line=990 end_line=990 column=30 end_column=47}
89 {file_name_id=14 function_name_id=35 line=990 end_line=990 column=49 end_column=66}
90 {file_name_id=14 function_name_id=35 line=990 end_line=990 column=13 end_column=77}
91 {file_name_id=14 function_name_id=35 line=994 end_line=994 column=15 end_column=41}
92 {file_name_id=14 function_name_id=35 line=997 end_line=997 column=15 end_column=46}
93 {file_name_id=8 function_name_id=13 line=1184 end_line=1184 column=14 end_column=48}
94 {file_name_id=8 function_name_id=13 line=1199 end_line=1199 column=14 end_column=94}
95 {file_name_id=10 function_name_id=19 line=1850 end_line=1850 column=19 end_column=88}
96 {file_name_id=10 function_name_id=38 line=1957 end_line=1957 column=14 end_column=60}
97 {file_name_id=10 function_name_id=38 line=1960 end_line=1960 column=15 end_column=74}
98 {file_name_id=10 function_name_id=25 line=121 end_line=121 column=9 end_column=82}
99 {file_name_id=10 function_name_id=20 line=1761 end_line=1761 column=13 end_column=54}
100 {file_name_id=10 function_name_id=20 line=1764 end_line=1764 column=20 end_column=52}
101 {file_name_id=10 function_name_id=20 line=1765 end_line=1765 column=21 end_column=74}
102 {file_name_id=10 function_name_id=20 line=1766 end_line=1766 column=21 end_column=67}
103 {file_name_id=10 function_name_id=20 line=1767 end_line=1767 column=15 end_column=63}
104 {file_name_id=9 function_name_id=16 line=901 end_line=901 column=68 end_column=111}
105 {file_name_id=9 function_name_id=16 line=900 end_line=902 column=8 end_column=9}
106 {file_name_id=8 function_name_id=13 line=1125 end_line=1125 column=16 end_column=75}
107 {file_name_id=8 function_name_id=13 line=1143 end_line=1143 column=12 end_column=85}
108 {file_name_id=8 function_name_id=39 line=668 end_line=668 column=13 end_column=59}
109 {file_name_id=8 function_name_id=13 line=1174 end_line=1174 column=14 end_column=106}
110 {file_name_id=8 function_name_id=13 line=1200 end_line=1200 column=12 end_column=93}
111 {file_name_id=9 function_name_id=16 line=882 end_line=890 column=4 end_column=5}
112 {file_name_id=9 function_name_id=40 line=751 end_line=751 column=37 end_column=91}
113 {file_name_id=9 function_name_id=40 line=763 end_line=763 column=26 end_column=54}
114 {file_name_id=9 function_name_id=40 line=798 end_line=800 column=10 end_column=11}
115 {file_name_id=9 function_name_id=16 line=920 end_line=920 column=8 end_column=87}
116 {file_name_id=10 function_name_id=17 line=2161 end_line=2161 column=15 end_column=100}
117 {file_name_id=10 function_name_id=41 line=2062 end_line=2062 column=17 end_column=59}
118 {file_name_id=10 function_name_id=41 line=2069 end_line=2069 column=33 end_column=55}
119 {file_name_id=10 function_name_id=41 line=2069 end_line=2069 column=25 end_column=56}
120 {file_name_id=10 function_name_id=41 line=2063 end_line=2065 column=17 end_column=5}
121 {file_name_id=10 function_name_id=42 line=2064 end_line=2064 column=17 end_column=39}
122 {file_name_id=10 function_name_id=42 line=2064 end_line=2064 column=9 end_column=40}
123 {file_name_id=10 function_name_id=20 line=1771 end_line=1771 column=34 end_column=52}
124 {file_name_id=10 function_name_id=20 line=1771 end_line=1771 column=26 end_column=53}
125 {file_name_id=10 function_name_id=20 line=1778 end_line=1778 column=16 end_column=54}
126 {file_name_id=10 function_name_id=41 line=2070 end_line=2070 column=18 end_column=46}
127 {file_name_id=9 function_name_id=16 line=915 end_line=915 column=8 end_column=101}
128 {file_name_id=10 function_name_id=20 line=1775 end_line=1775 column=17 end_column=45}
129 {file_name_id=10 function_name_id=20 line=1776 end_line=1776 column=17 end_column=60}
130 {file_name_id=10 function_name_id=20 line=1780 end_line=1780 column=16 end_column=81}
131 {file_name_id=10 function_name_id=43 line=2010 end_line=2010 column=12 end_column=80}
132 {file_name_id=10 function_name_id=43 line=2012 end_line=2012 column=15 end_column=52}
133 {file_name_id=8 function_name_id=13 line=1147 end_line=1147 column=16 end_column=91}
134 {file_name_id=8 function_name_id=39 line=670 end_line=670 column=13 end_column=61}
135 {file_name_id=8 function_name_id=13 line=1201 end_line=1201 column=14 end_column=97}
136 {file_name_id=9 function_name_id=40 line=752 end_line=752 column=39 end_column=95}
137 {file_name_id=9 function_name_id=40 line=803 end_line=805 column=10 end_column=11}
138 {file_name_id=9 function_name_id=16 line=921 end_line=921 column=8 end_column=91}
139 {file_name_id=10 function_name_id=41 line=2070 end_line=2070 column=6 end_column=46}
140 {file_name_id=8 function_name_id=13 line=1243 end_line=1243 column=12 end_column=75}
141 {file_name_id=8 function_name_id=13 line=1247 end_line=1247 column=10 end_column=61}
142 {file_name_id=8 function_name_id=44 line=733 end_line=733 column=11 end_column=51}
143 {file_name_id=6 function_name_id=11 line=180 end_line=180 column=26 end_column=48}
144 {file_name_id=11 function_name_id=22 line=2419 end_line=2421 column=15 end_column=7}
145 {file_name_id=11 function_name_id=45 line=614 end_line=621 column=11 end_column=5}
146 {file_name_id=11 function_name_id=21 line=2596 end_line=2596 column=18 end_column=57}
147 {file_name_id=11 function_name_id=22 line=2423 end_line=2425 column=19 end_column=9}
148 {file_name_id=11 function_name_id=21 line=2608 end_line=2608 column=16 end_column=60}
149 {file_name_id=11 function_name_id=22 line=2427 end_line=2427 column=32 end_column=57}
150 {file_name_id=11 function_name_id=22 line=2427 end_line=2427 column=21 end_column=57}
151 {file_name_id=11 function_name_id=22 line=2440 end_line=2440 column=23 end_column=68}
152 {file_name_id=11 function_name_id=46 line=797 end_line=797 column=19 end_column=86}
153 {file_name_id=11 function_name_id=46 line=799 end_line=799 column=39 end_column=55}
154 {file_name_id=11 function_name_id=46 line=799 end_line=799 column=20 end_column=56}
155 {file_name_id=11 function_name_id=46 line=800 end_line=800 column=14 end_column=47}
156 {file_name_id=11 function_name_id=21 line=2597 end_line=2597 column=18 end_column=57}
157 {file_name_id=11 function_name_id=22 line=2432 end_line=2434 column=19 end_column=9}
158 {file_name_id=11 function_name_id=21 line=2609 end_line=2609 column=16 end_column=60}
159 {file_name_id=11 function_name_id=22 line=2436 end_line=2436 column=32 end_column=57}
160 {file_name_id=11 function_name_id=22 line=2436 end_line=2436 column=21 end_column=57}
161 {file_name_id=11 function_name_id=46 line=798 end_line=798 column=19 end_column=116}
162 {file_name_id=11 function_name_id=46 line=801 end_line=801 column=48 end_column=60}
163 {file_name_id=11 function_name_id=46 line=801 end_line=801 column=29 end_column=62}
164 {file_name_id=11 function_name_id=22 line=2443 end_line=2448 column=29 end_column=9}
165 {file_name_id=11 function_name_id=21 line=2610 end_line=2610 column=16 end_column=58}
166 {file_name_id=11 function_name_id=22 line=2450 end_line=2450 column=52 end_column=77}
167 {file_name_id=11 function_name_id=22 line=2450 end_line=2450 column=31 end_column=77}
168 {file_name_id=11 function_name_id=22 line=2458 end_line=2458 column=31 end_column=69}
169 {file_name_id=11 function_name_id=22 line=2199 end_line=2199 column=16 end_column=77}
170 {file_name_id=11 function_name_id=47 line=1931 end_line=1931 column=39 end_column=67}
171 {file_name_id=11 function_name_id=47 line=1931 end_line=1931 column=8 end_column=117}
172 {file_name_id=11 function_name_id=47 line=1940 end_line=1940 column=21 end_column=95}
173 {file_name_id=11 function_name_id=47 line=1932 end_line=1932 column=8 end_column=106}
174 {file_name_id=11 function_name_id=21 line=2586 end_line=2586 column=35 end_column=60}
175 {file_name_id=11 function_name_id=48 line=323 end_line=323 column=13 end_column=44}
176 {file_name_id=11 function_name_id=48 line=331 end_line=340 column=13 end_column=5}
177 {file_name_id=11 function_name_id=48 line=351 end_line=351 column=13 end_column=52}
178 {file_name_id=11 function_name_id=48 line=352 end_line=352 column=6 end_column=20}
179 {file_name_id=11 function_name_id=22 line=2186 end_line=2186 column=18 end_column=118}
180 {file_name_id=11 function_name_id=23 line=706 end_line=706 column=37 end_column=89}
181 {file_name_id=11 function_name_id=23 line=711 end_line=711 column=37 end_column=70}
182 {file_name_id=11 function_name_id=22 line=2459 end_line=2459 column=20 end_column=47}
183 {file_name_id=11 function_name_id=22 line=2461 end_line=2466 column=17 end_column=9}
184 {file_name_id=11 function_name_id=22 line=2466 end_line=2466 column=10 end_column=28}
185 {file_name_id=6 function_name_id=11 line=192 end_line=192 column=19 end_column=48}
186 {file_name_id=9 function_name_id=16 line=905 end_line=905 column=16 end_column=50}
187 {file_name_id=9 function_name_id=16 line=905 end_line=905 column=8 end_column=101}
188 {file_name_id=15 function_name_id=49 line=198 end_line=199 column=11 end_column=42}
189 {file_name_id=15 function_name_id=50 line=88 end_line=88 column=4 end_column=27}
190 {file_name_id=16 function_name_id=51 line=245 end_line=245 column=2 end_column=15}
191 {file_name_id=17 function_name_id=52 line=410 end_line=410 column=6 end_column=27}
192 {file_name_id=17 function_name_id=53 line=355 end_line=355 column=13 end_column=23}
193 {file_name_id=16 function_name_id=54 line=211 end_line=211 column=37 end_column=92}
194 {file_name_id=1 function_name_id=55 line=1280 end_line=1289 column=24 end_column=5}
195 {file_name_id=3 function_name_id=4 line=1289 end_line=1289 column=15 end_column=96}
196 {file_name_id=3 function_name_id=56 line=795 end_line=802 column=8 end_column=40}
197 {file_name_id=1 function_name_id=6 line=1366 end_line=1373 column=16 end_column=5}
198 {file_name_id=18 function_name_id=57 line=135 end_line=135 column=11 end_column=38}
199 {file_name_id=3 function_name_id=4 line=872 end_line=879 column=8 end_column=5}
200 {file_name_id=3 function_name_id=58 line=706 end_line=706 column=8 end_column=85}
201 {file_name_id=14 function_name_id=59 line=155 end_line=158 column=16 end_column=5}
202 {file_name_id=14 function_name_id=59 line=182 end_line=182 column=15 end_column=66}
203 {file_name_id=4 function_name_id=5 line=150 end_line=150 column=9 end_column=66}
204 {file_name_id=4 function_name_id=60 line=126 end_line=126 column=11 end_column=44}
205 {file_name_id=4 function_name_id=61 line=124 end_line=124 column=13 end_column=35}
206 {file_name_id=1 function_name_id=6 line=1363 end_line=1363 column=16 end_column=92}
207 {file_name_id=1 function_name_id=6 line=1382 end_line=1382 column=23 end_column=59}
208 {file_name_id=3 function_name_id=56 line=831 end_line=844 column=15 end_column=7}
209 {file_name_id=3 function_name_id=56 line=847 end_line=847 column=15 end_column=41}
210 {file_name_id=1 function_name_id=6 line=1362 end_line=1362 column=17 end_column=87}
211 {file_name_id=1 function_name_id=6 line=1381 end_line=1381 column=15 end_column=43}
212 {file_name_id=1 function_name_id=6 line=1385 end_line=1385 column=13 end_column=78}

StackFrames
1 {file_location_id=1 parent_frame_id=1}
2 {file_location_id=2 parent_frame_id=2}
3 {file_location_id=3 parent_frame_id=3}
4 {file_location_id=4 parent_frame_id=4}
5 {file_location_id=5 parent_frame_id=5}
6 {file_location_id=6 parent_frame_id=1}
7 {file_location_id=2 parent_frame_id=7}
8 {file_location_id=3 parent_frame_id=8}
9 {file_location_id=4 parent_frame_id=9}
10 {file_location_id=5 parent_frame_id=10}
11 {file_location_id=7 parent_frame_id=1}
12 {file_location_id=8 parent_frame_id=12}
13 {file_location_id=9 parent_frame_id=13}
14 {file_location_id=10 parent_frame_id=14}
15 {file_location_id=11 parent_frame_id=15}
16 {file_location_id=10 parent_frame_id=16}
17 {file_location_id=12 parent_frame_id=17}
18 {file_location_id=13 parent_frame_id=15}
19 {file_location_id=10 parent_frame_id=19}
20 {file_location_id=14 parent_frame_id=20}
21 {file_location_id=15 parent_frame_id=21}
22 {file_location_id=10 parent_frame_id=22}
23 {file_location_id=16 parent_frame_id=23}
24 {file_location_id=17 parent_frame_id=24}
25 {file_location_id=18 parent_frame_id=20}
26 {file_location_id=10 parent_frame_id=26}
27 {file_location_id=19 parent_frame_id=27}
28 {file_location_id=20 parent_frame_id=28}
29 {file_location_id=21 parent_frame_id=29}
30 {file_location_id=22 parent_frame_id=30}
31 {file_location_id=23 parent_frame_id=30}
32 {file_location_id=24 parent_frame_id=27}
33 {file_location_id=20 parent_frame_id=33}
34 {file_location_id=21 parent_frame_id=34}
35 {file_location_id=22 parent_frame_id=35}
36 {file_location_id=23 parent_frame_id=35}
37 {file_location_id=25 parent_frame_id=15}
38 {file_location_id=10 parent_frame_id=38}
39 {file_location_id=12 parent_frame_id=39}
40 {file_location_id=26 parent_frame_id=15}
41 {file_location_id=10 parent_frame_id=41}
42 {file_location_id=27 parent_frame_id=42}
43 {file_location_id=28 parent_frame_id=43}
44 {file_location_id=29 parent_frame_id=44}
45 {file_location_id=30 parent_frame_id=42}
46 {file_location_id=31 parent_frame_id=39}
47 {file_location_id=32 parent_frame_id=29}
48 {file_location_id=33 parent_frame_id=48}
49 {file_location_id=34 parent_frame_id=48}
50 {file_location_id=35 parent_frame_id=48}
51 {file_location_id=36 parent_frame_id=48}
52 {file_location_id=37 parent_frame_id=48}
53 {file_location_id=38 parent_frame_id=48}
54 {file_location_id=39 parent_frame_id=48}
55 {file_location_id=40 parent_frame_id=29}
56 {file_location_id=41 parent_frame_id=56}
57 {file_location_id=42 parent_frame_id=24}
58 {file_location_id=43 parent_frame_id=58}
59 {file_location_id=44 parent_frame_id=59}
60 {file_location_id=45 parent_frame_id=60}
61 {file_location_id=31 parent_frame_id=17}
62 {file_location_id=46 parent_frame_id=17}
63 {file_location_id=47 parent_frame_id=17}
64 {file_location_id=48 parent_frame_id=17}
65 {file_location_id=49 parent_frame_id=17}
66 {file_location_id=50 parent_frame_id=17}
67 {file_location_id=51 parent_frame_id=17}
68 {file_location_id=52 parent_frame_id=17}
69 {file_location_id=53 parent_frame_id=20}
70 {file_location_id=54 parent_frame_id=70}
71 {file_location_id=55 parent_frame_id=71}
72 {file_location_id=56 parent_frame_id=20}
73 {file_location_id=57 parent_frame_id=73}
74 {file_location_id=10 parent_frame_id=74}
75 {file_location_id=58 parent_frame_id=75}
76 {file_location_id=59 parent_frame_id=75}
77 {file_location_id=60 parent_frame_id=77}
78 {file_location_id=61 parent_frame_id=75}
79 {file_location_id=62 parent_frame_id=75}
80 {file_location_id=63 parent_frame_id=20}
81 {file_location_id=64 parent_frame_id=81}
82 {file_location_id=10 parent_frame_id=82}
83 {file_location_id=65 parent_frame_id=83}
84 {file_location_id=66 parent_frame_id=83}
85 {file_location_id=67 parent_frame_id=83}
86 {file_location_id=68 parent_frame_id=83}
87 {file_location_id=69 parent_frame_id=87}
88 {file_location_id=70 parent_frame_id=87}
89 {file_location_id=71 parent_frame_id=87}
90 {file_location_id=72 parent_frame_id=87}
91 {file_location_id=73 parent_frame_id=87}
92 {file_location_id=74 parent_frame_id=87}
93 {file_location_id=75 parent_frame_id=87}
94 {file_location_id=76 parent_frame_id=87}
95 {file_location_id=77 parent_frame_id=95}
96 {file_location_id=78 parent_frame_id=95}
97 {file_location_id=79 parent_frame_id=95}
98 {file_location_id=80 parent_frame_id=87}
99 {file_location_id=81 parent_frame_id=87}
100 {file_location_id=82 parent_frame_id=87}
101 {file_location_id=83 parent_frame_id=87}
102 {file_location_id=84 parent_frame_id=87}
103 {file_location_id=85 parent_frame_id=83}
104 {file_location_id=86 parent_frame_id=83}
105 {file_location_id=87 parent_frame_id=83}
106 {file_location_id=88 parent_frame_id=83}
107 {file_location_id=89 parent_frame_id=83}
108 {file_location_id=90 parent_frame_id=83}
109 {file_location_id=91 parent_frame_id=83}
110 {file_location_id=92 parent_frame_id=83}
111 {file_location_id=93 parent_frame_id=20}
112 {file_location_id=94 parent_frame_id=20}
113 {file_location_id=54 parent_frame_id=113}
114 {file_location_id=55 parent_frame_id=114}
115 {file_location_id=95 parent_frame_id=29}
116 {file_location_id=96 parent_frame_id=116}
117 {file_location_id=97 parent_frame_id=116}
118 {file_location_id=98 parent_frame_id=56}
119 {file_location_id=99 parent_frame_id=30}
120 {file_location_id=100 parent_frame_id=30}
121 {file_location_id=101 parent_frame_id=30}
122 {file_location_id=102 parent_frame_id=30}
123 {file_location_id=103 parent_frame_id=30}
124 {file_location_id=32 parent_frame_id=34}
125 {file_location_id=33 parent_frame_id=125}
126 {file_location_id=34 parent_frame_id=125}
127 {file_location_id=35 parent_frame_id=125}
128 {file_location_id=36 parent_frame_id=125}
129 {file_location_id=37 parent_frame_id=125}
130 {file_location_id=104 parent_frame_id=24}
131 {file_location_id=105 parent_frame_id=24}
132 {file_location_id=38 parent_frame_id=125}
133 {file_location_id=39 parent_frame_id=125}
134 {file_location_id=40 parent_frame_id=34}
135 {file_location_id=41 parent_frame_id=135}
136 {file_location_id=106 parent_frame_id=20}
137 {file_location_id=54 parent_frame_id=137}
138 {file_location_id=55 parent_frame_id=138}
139 {file_location_id=107 parent_frame_id=20}
140 {file_location_id=108 parent_frame_id=140}
141 {file_location_id=10 parent_frame_id=141}
142 {file_location_id=58 parent_frame_id=142}
143 {file_location_id=59 parent_frame_id=142}
144 {file_location_id=60 parent_frame_id=144}
145 {file_location_id=61 parent_frame_id=142}
146 {file_location_id=62 parent_frame_id=142}
147 {file_location_id=109 parent_frame_id=20}
148 {file_location_id=64 parent_frame_id=148}
149 {file_location_id=10 parent_frame_id=149}
150 {file_location_id=65 parent_frame_id=150}
151 {file_location_id=66 parent_frame_id=150}
152 {file_location_id=67 parent_frame_id=150}
153 {file_location_id=68 parent_frame_id=150}
154 {file_location_id=69 parent_frame_id=154}
155 {file_location_id=70 parent_frame_id=154}
156 {file_location_id=71 parent_frame_id=154}
157 {file_location_id=72 parent_frame_id=154}
158 {file_location_id=73 parent_frame_id=154}
159 {file_location_id=74 parent_frame_id=154}
160 {file_location_id=75 parent_frame_id=154}
161 {file_location_id=76 parent_frame_id=154}
162 {file_location_id=77 parent_frame_id=162}
163 {file_location_id=78 parent_frame_id=162}
164 {file_location_id=79 parent_frame_id=162}
165 {file_location_id=80 parent_frame_id=154}
166 {file_location_id=81 parent_frame_id=154}
167 {file_location_id=82 parent_frame_id=154}
168 {file_location_id=83 parent_frame_id=154}
169 {file_location_id=84 parent_frame_id=154}
170 {file_location_id=85 parent_frame_id=150}
171 {file_location_id=86 parent_frame_id=150}
172 {file_location_id=87 parent_frame_id=150}
173 {file_location_id=88 parent_frame_id=150}
174 {file_location_id=89 parent_frame_id=150}
175 {file_location_id=90 parent_frame_id=150}
176 {file_location_id=91 parent_frame_id=150}
177 {file_location_id=92 parent_frame_id=150}
178 {file_location_id=110 parent_frame_id=20}
179 {file_location_id=54 parent_frame_id=179}
180 {file_location_id=55 parent_frame_id=180}
181 {file_location_id=111 parent_frame_id=24}
182 {file_location_id=112 parent_frame_id=182}
183 {file_location_id=113 parent_frame_id=182}
184 {file_location_id=114 parent_frame_id=182}
185 {file_location_id=115 parent_frame_id=24}
186 {file_location_id=43 parent_frame_id=186}
187 {file_location_id=44 parent_frame_id=187}
188 {file_location_id=45 parent_frame_id=188}
189 {file_location_id=95 parent_frame_id=34}
190 {file_location_id=96 parent_frame_id=190}
191 {file_location_id=97 parent_frame_id=190}
192 {file_location_id=98 parent_frame_id=135}
193 {file_location_id=99 parent_frame_id=35}
194 {file_location_id=116 parent_frame_id=27}
195 {file_location_id=117 parent_frame_id=195}
196 {file_location_id=118 parent_frame_id=195}
197 {file_location_id=119 parent_frame_id=195}
198 {file_location_id=120 parent_frame_id=195}
199 {file_location_id=121 parent_frame_id=199}
200 {file_location_id=122 parent_frame_id=199}
201 {file_location_id=123 parent_frame_id=30}
202 {file_location_id=124 parent_frame_id=30}
203 {file_location_id=125 parent_frame_id=30}
204 {file_location_id=123 parent_frame_id=35}
205 {file_location_id=124 parent_frame_id=35}
206 {file_location_id=125 parent_frame_id=35}
207 {file_location_id=126 parent_frame_id=195}
208 {file_location_id=127 parent_frame_id=24}
209 {file_location_id=43 parent_frame_id=209}
210 {file_location_id=44 parent_frame_id=210}
211 {file_location_id=45 parent_frame_id=211}
212 {file_location_id=128 parent_frame_id=30}
213 {file_location_id=129 parent_frame_id=30}
214 {file_location_id=130 parent_frame_id=30}
215 {file_location_id=131 parent_frame_id=215}
216 {file_location_id=132 parent_frame_id=215}
217 {file_location_id=133 parent_frame_id=20}
218 {file_location_id=134 parent_frame_id=218}
219 {file_location_id=10 parent_frame_id=219}
220 {file_location_id=58 parent_frame_id=220}
221 {file_location_id=59 parent_frame_id=220}
222 {file_location_id=60 parent_frame_id=222}
223 {file_location_id=61 parent_frame_id=220}
224 {file_location_id=62 parent_frame_id=220}
225 {file_location_id=135 parent_frame_id=20}
226 {file_location_id=54 parent_frame_id=226}
227 {file_location_id=55 parent_frame_id=227}
228 {file_location_id=136 parent_frame_id=182}
229 {file_location_id=137 parent_frame_id=182}
230 {file_location_id=138 parent_frame_id=24}
231 {file_location_id=43 parent_frame_id=231}
232 {file_location_id=44 parent_frame_id=232}
233 {file_location_id=45 parent_frame_id=233}
234 {file_location_id=129 parent_frame_id=35}
235 {file_location_id=130 parent_frame_id=35}
236 {file_location_id=131 parent_frame_id=236}
237 {file_location_id=132 parent_frame_id=236}
238 {file_location_id=139 parent_frame_id=195}
239 {file_location_id=140 parent_frame_id=20}
240 {file_location_id=54 parent_frame_id=240}
241 {file_location_id=55 parent_frame_id=241}
242 {file_location_id=141 parent_frame_id=20}
243 {file_location_id=142 parent_frame_id=243}
244 {file_location_id=10 parent_frame_id=244}
245 {file_location_id=58 parent_frame_id=245}
246 {file_location_id=59 parent_frame_id=245}
247 {file_location_id=60 parent_frame_id=247}
248 {file_location_id=61 parent_frame_id=245}
249 {file_location_id=62 parent_frame_id=245}
250 {file_location_id=143 parent_frame_id=15}
251 {file_location_id=46 parent_frame_id=39}
252 {file_location_id=47 parent_frame_id=39}
253 {file_location_id=48 parent_frame_id=39}
254 {file_location_id=49 parent_frame_id=39}
255 {file_location_id=50 parent_frame_id=39}
256 {file_location_id=51 parent_frame_id=39}
257 {file_location_id=52 parent_frame_id=39}
258 {file_location_id=144 parent_frame_id=43}
259 {file_location_id=145 parent_frame_id=259}
260 {file_location_id=54 parent_frame_id=260}
261 {file_location_id=55 parent_frame_id=261}
262 {file_location_id=146 parent_frame_id=42}
263 {file_location_id=147 parent_frame_id=43}
264 {file_location_id=148 parent_frame_id=42}
265 {file_location_id=149 parent_frame_id=43}
266 {file_location_id=150 parent_frame_id=43}
267 {file_location_id=151 parent_frame_id=43}
268 {file_location_id=152 parent_frame_id=268}
269 {file_location_id=153 parent_frame_id=268}
270 {file_location_id=154 parent_frame_id=268}
271 {file_location_id=8 parent_frame_id=271}
272 {file_location_id=9 parent_frame_id=272}
273 {file_location_id=10 parent_frame_id=273}
274 {file_location_id=26 parent_frame_id=274}
275 {file_location_id=10 parent_frame_id=275}
276 {file_location_id=27 parent_frame_id=276}
277 {file_location_id=151 parent_frame_id=277}
278 {file_location_id=154 parent_frame_id=278}
279 {file_location_id=155 parent_frame_id=268}
280 {file_location_id=156 parent_frame_id=42}
281 {file_location_id=157 parent_frame_id=43}
282 {file_location_id=158 parent_frame_id=42}
283 {file_location_id=159 parent_frame_id=43}
284 {file_location_id=160 parent_frame_id=43}
285 {file_location_id=161 parent_frame_id=268}
286 {file_location_id=162 parent_frame_id=268}
287 {file_location_id=163 parent_frame_id=268}
288 {file_location_id=164 parent_frame_id=43}
289 {file_location_id=165 parent_frame_id=42}
290 {file_location_id=166 parent_frame_id=43}
291 {file_location_id=167 parent_frame_id=43}
292 {file_location_id=168 parent_frame_id=43}
293 {file_location_id=169 parent_frame_id=43}
294 {file_location_id=170 parent_frame_id=294}
295 {file_location_id=171 parent_frame_id=294}
296 {file_location_id=145 parent_frame_id=296}
297 {file_location_id=54 parent_frame_id=297}
298 {file_location_id=55 parent_frame_id=298}
299 {file_location_id=172 parent_frame_id=294}
300 {file_location_id=173 parent_frame_id=294}
301 {file_location_id=145 parent_frame_id=301}
302 {file_location_id=54 parent_frame_id=302}
303 {file_location_id=55 parent_frame_id=303}
304 {file_location_id=174 parent_frame_id=42}
305 {file_location_id=10 parent_frame_id=305}
306 {file_location_id=175 parent_frame_id=306}
307 {file_location_id=176 parent_frame_id=306}
308 {file_location_id=60 parent_frame_id=308}
309 {file_location_id=177 parent_frame_id=306}
310 {file_location_id=178 parent_frame_id=306}
311 {file_location_id=179 parent_frame_id=43}
312 {file_location_id=145 parent_frame_id=312}
313 {file_location_id=54 parent_frame_id=313}
314 {file_location_id=55 parent_frame_id=314}
315 {file_location_id=180 parent_frame_id=44}
316 {file_location_id=181 parent_frame_id=44}
317 {file_location_id=182 parent_frame_id=43}
318 {file_location_id=183 parent_frame_id=43}
319 {file_location_id=184 parent_frame_id=43}
320 {file_location_id=185 parent_frame_id=15}
321 {file_location_id=186 parent_frame_id=24}
322 {file_location_id=187 parent_frame_id=24}
323 {file_location_id=188 parent_frame_id=1}
324 {file_location_id=189 parent_frame_id=324}
325 {file_location_id=190 parent_frame_id=325}
326 {file_location_id=191 parent_frame_id=326}
327 {file_location_id=192 parent_frame_id=327}
328 {file_location_id=193 parent_frame_id=328}
329 {file_location_id=194 parent_frame_id=329}
330 {file_location_id=6 parent_frame_id=330}
331 {file_location_id=2 parent_frame_id=331}
332 {file_location_id=3 parent_frame_id=332}
333 {file_location_id=4 parent_frame_id=333}
334 {file_location_id=5 parent_frame_id=334}
335 {file_location_id=6 parent_frame_id=335}
336 {file_location_id=2 parent_frame_id=336}
337 {file_location_id=3 parent_frame_id=337}
338 {file_location_id=4 parent_frame_id=338}
339 {file_location_id=5 parent_frame_id=339}
340 {file_location_id=6 parent_frame_id=340}
341 {file_location_id=2 parent_frame_id=341}
342 {file_location_id=3 parent_frame_id=342}
343 {file_location_id=4 parent_frame_id=343}
344 {file_location_id=5 parent_frame_id=344}
345 {file_location_id=195 parent_frame_id=333}
346 {file_location_id=196 parent_frame_id=346}
347 {file_location_id=8 parent_frame_id=347}
348 {file_location_id=12 parent_frame_id=348}
349 {file_location_id=197 parent_frame_id=1}
350 {file_location_id=198 parent_frame_id=350}
351 {file_location_id=197 parent_frame_id=351}
352 {file_location_id=198 parent_frame_id=352}
353 {file_location_id=199 parent_frame_id=333}
354 {file_location_id=200 parent_frame_id=354}
355 {file_location_id=8 parent_frame_id=355}
356 {file_location_id=201 parent_frame_id=356}
357 {file_location_id=202 parent_frame_id=356}
358 {file_location_id=203 parent_frame_id=334}
359 {file_location_id=204 parent_frame_id=359}
360 {file_location_id=205 parent_frame_id=360}
361 {file_location_id=206 parent_frame_id=330}
362 {file_location_id=207 parent_frame_id=330}
363 {file_location_id=31 parent_frame_id=348}
364 {file_location_id=46 parent_frame_id=348}
365 {file_location_id=47 parent_frame_id=348}
366 {file_location_id=48 parent_frame_id=348}
367 {file_location_id=49 parent_frame_id=348}
368 {file_location_id=50 parent_frame_id=348}
369 {file_location_id=51 parent_frame_id=348}
370 {file_location_id=52 parent_frame_id=348}
371 {file_location_id=208 parent_frame_id=346}
372 {file_location_id=8 parent_frame_id=372}
373 {file_location_id=58 parent_frame_id=373}
374 {file_location_id=59 parent_frame_id=373}
375 {file_location_id=60 parent_frame_id=375}
376 {file_location_id=209 parent_frame_id=346}
377 {file_location_id=210 parent_frame_id=330}
378 {file_location_id=211 parent_frame_id=330}
379 {file_location_id=197 parent_frame_id=330}
380 {file_location_id=198 parent_frame_id=380}
381 {file_location_id=212 parent_frame_id=330}


%dynamic_index_in_dim.1 (Arg_0.1: f32[12,8,64], Arg_1.1: s32[]) -> f32[8,64] {
  %Arg_0.1 = f32[12,8,64]{2,1,0} parameter(0)
  %Arg_1.1 = s32[] parameter(1)
  %constant.17 = s32[] constant(0)
  %dynamic_slice.1 = f32[1,8,64]{2,1,0} dynamic-slice(%Arg_0.1, %Arg_1.1, %constant.17, %constant.17), dynamic_slice_sizes={1,8,64}, metadata={op_name="dynamic_slice" stack_frame_id=5}
  ROOT %squeeze.1 = f32[8,64]{1,0} reshape(%dynamic_slice.1), metadata={op_name="squeeze" stack_frame_id=5}
}

%dynamic_index_in_dim_0.2 (Arg_0.3: f32[12,2880,8,64], Arg_1.3: s32[]) -> f32[2880,8,64] {
  %Arg_0.3 = f32[12,2880,8,64]{3,2,1,0} parameter(0)
  %Arg_1.3 = s32[] parameter(1)
  %constant.19 = s32[] constant(0)
  %dynamic_slice.3 = f32[1,2880,8,64]{3,2,1,0} dynamic-slice(%Arg_0.3, %Arg_1.3, %constant.19, %constant.19, %constant.19), dynamic_slice_sizes={1,2880,8,64}, metadata={op_name="dynamic_slice" stack_frame_id=5}
  ROOT %squeeze.3 = f32[2880,8,64]{2,1,0} reshape(%dynamic_slice.3), metadata={op_name="squeeze" stack_frame_id=5}
}

%dynamic_index_in_dim_1.3 (Arg_0.5: f32[12,2880], Arg_1.5: s32[]) -> f32[2880] {
  %Arg_0.5 = f32[12,2880]{1,0} parameter(0)
  %Arg_1.5 = s32[] parameter(1)
  %constant.21 = s32[] constant(0)
  %dynamic_slice.5 = f32[1,2880]{1,0} dynamic-slice(%Arg_0.5, %Arg_1.5, %constant.21), dynamic_slice_sizes={1,2880}, metadata={op_name="dynamic_slice" stack_frame_id=5}
  ROOT %squeeze.5 = f32[2880]{0} reshape(%dynamic_slice.5), metadata={op_name="squeeze" stack_frame_id=5}
}

%dynamic_index_in_dim_2.4 (Arg_0.7: f32[12,64,64,2880], Arg_1.7: s32[]) -> f32[64,64,2880] {
  %Arg_0.7 = f32[12,64,64,2880]{3,2,1,0} parameter(0)
  %Arg_1.7 = s32[] parameter(1)
  %constant.23 = s32[] constant(0)
  %dynamic_slice.7 = f32[1,64,64,2880]{3,2,1,0} dynamic-slice(%Arg_0.7, %Arg_1.7, %constant.23, %constant.23, %constant.23), dynamic_slice_sizes={1,64,64,2880}, metadata={op_name="dynamic_slice" stack_frame_id=5}
  ROOT %squeeze.7 = f32[64,64,2880]{2,1,0} reshape(%dynamic_slice.7), metadata={op_name="squeeze" stack_frame_id=5}
}

%dynamic_index_in_dim_3.5 (Arg_0.9: f32[12,64,64], Arg_1.9: s32[]) -> f32[64,64] {
  %Arg_0.9 = f32[12,64,64]{2,1,0} parameter(0)
  %Arg_1.9 = s32[] parameter(1)
  %constant.25 = s32[] constant(0)
  %dynamic_slice.9 = f32[1,64,64]{2,1,0} dynamic-slice(%Arg_0.9, %Arg_1.9, %constant.25, %constant.25), dynamic_slice_sizes={1,64,64}, metadata={op_name="dynamic_slice" stack_frame_id=5}
  ROOT %squeeze.9 = f32[64,64]{1,0} reshape(%dynamic_slice.9), metadata={op_name="squeeze" stack_frame_id=5}
}

%dynamic_index_in_dim_4.6 (Arg_0.11: f32[12,2880,64,64], Arg_1.11: s32[]) -> f32[2880,64,64] {
  %Arg_0.11 = f32[12,2880,64,64]{3,2,1,0} parameter(0)
  %Arg_1.11 = s32[] parameter(1)
  %constant.27 = s32[] constant(0)
  %dynamic_slice.11 = f32[1,2880,64,64]{3,2,1,0} dynamic-slice(%Arg_0.11, %Arg_1.11, %constant.27, %constant.27, %constant.27), dynamic_slice_sizes={1,2880,64,64}, metadata={op_name="dynamic_slice" stack_frame_id=5}
  ROOT %squeeze.11 = f32[2880,64,64]{2,1,0} reshape(%dynamic_slice.11), metadata={op_name="squeeze" stack_frame_id=5}
}

%dynamic_index_in_dim_5.7 (Arg_0.13: f32[12,64], Arg_1.13: s32[]) -> f32[64] {
  %Arg_0.13 = f32[12,64]{1,0} parameter(0)
  %Arg_1.13 = s32[] parameter(1)
  %constant.29 = s32[] constant(0)
  %dynamic_slice.13 = f32[1,64]{1,0} dynamic-slice(%Arg_0.13, %Arg_1.13, %constant.29), dynamic_slice_sizes={1,64}, metadata={op_name="dynamic_slice" stack_frame_id=5}
  ROOT %squeeze.13 = f32[64]{0} reshape(%dynamic_slice.13), metadata={op_name="squeeze" stack_frame_id=5}
}

%dynamic_index_in_dim_6.8 (Arg_0.15: f32[12,32], Arg_1.15: s32[]) -> f32[32] {
  %Arg_0.15 = f32[12,32]{1,0} parameter(0)
  %Arg_1.15 = s32[] parameter(1)
  %constant.31 = s32[] constant(0)
  %dynamic_slice.15 = f32[1,32]{1,0} dynamic-slice(%Arg_0.15, %Arg_1.15, %constant.31), dynamic_slice_sizes={1,32}, metadata={op_name="dynamic_slice" stack_frame_id=5}
  ROOT %squeeze.15 = f32[32]{0} reshape(%dynamic_slice.15), metadata={op_name="squeeze" stack_frame_id=5}
}

%dynamic_index_in_dim_7.9 (Arg_0.17: f32[12,2880,32], Arg_1.17: s32[]) -> f32[2880,32] {
  %Arg_0.17 = f32[12,2880,32]{2,1,0} parameter(0)
  %Arg_1.17 = s32[] parameter(1)
  %constant.33 = s32[] constant(0)
  %dynamic_slice.17 = f32[1,2880,32]{2,1,0} dynamic-slice(%Arg_0.17, %Arg_1.17, %constant.33, %constant.33), dynamic_slice_sizes={1,2880,32}, metadata={op_name="dynamic_slice" stack_frame_id=5}
  ROOT %squeeze.17 = f32[2880,32]{1,0} reshape(%dynamic_slice.17), metadata={op_name="squeeze" stack_frame_id=5}
}

%dynamic_index_in_dim_8.10 (Arg_0.19: f32[12,32,2880,2880], Arg_1.19: s32[]) -> f32[32,2880,2880] {
  %Arg_0.19 = f32[12,32,2880,2880]{3,2,1,0} parameter(0)
  %Arg_1.19 = s32[] parameter(1)
  %constant.35 = s32[] constant(0)
  %dynamic_slice.19 = f32[1,32,2880,2880]{3,2,1,0} dynamic-slice(%Arg_0.19, %Arg_1.19, %constant.35, %constant.35, %constant.35), dynamic_slice_sizes={1,32,2880,2880}, metadata={op_name="dynamic_slice" stack_frame_id=5}
  ROOT %squeeze.19 = f32[32,2880,2880]{2,1,0} reshape(%dynamic_slice.19), metadata={op_name="squeeze" stack_frame_id=5}
}

%dynamic_index_in_dim_9.11 (Arg_0.21: f32[12,32,2880], Arg_1.21: s32[]) -> f32[32,2880] {
  %Arg_0.21 = f32[12,32,2880]{2,1,0} parameter(0)
  %Arg_1.21 = s32[] parameter(1)
  %constant.37 = s32[] constant(0)
  %dynamic_slice.21 = f32[1,32,2880]{2,1,0} dynamic-slice(%Arg_0.21, %Arg_1.21, %constant.37, %constant.37), dynamic_slice_sizes={1,32,2880}, metadata={op_name="dynamic_slice" stack_frame_id=5}
  ROOT %squeeze.21 = f32[32,2880]{1,0} reshape(%dynamic_slice.21), metadata={op_name="squeeze" stack_frame_id=5}
}

%dynamic_index_in_dim_10.12 (Arg_0.23: s32[12,1], Arg_1.23: s32[]) -> s32[1] {
  %Arg_0.23 = s32[12,1]{1,0} parameter(0)
  %Arg_1.23 = s32[] parameter(1)
  %constant.39 = s32[] constant(0)
  %dynamic_slice.23 = s32[1,1]{1,0} dynamic-slice(%Arg_0.23, %Arg_1.23, %constant.39), dynamic_slice_sizes={1,1}, metadata={op_name="dynamic_slice" stack_frame_id=10}
  ROOT %squeeze.23 = s32[1]{0} reshape(%dynamic_slice.23), metadata={op_name="squeeze" stack_frame_id=10}
}

%dynamic_index_in_dim_11.13 (Arg_0.25: s32[12,8,1984], Arg_1.25: s32[]) -> s32[8,1984] {
  %Arg_0.25 = s32[12,8,1984]{2,1,0} parameter(0)
  %Arg_1.25 = s32[] parameter(1)
  %constant.41 = s32[] constant(0)
  %dynamic_slice.25 = s32[1,8,1984]{2,1,0} dynamic-slice(%Arg_0.25, %Arg_1.25, %constant.41, %constant.41), dynamic_slice_sizes={1,8,1984}, metadata={op_name="dynamic_slice" stack_frame_id=10}
  ROOT %squeeze.25 = s32[8,1984]{1,0} reshape(%dynamic_slice.25), metadata={op_name="squeeze" stack_frame_id=10}
}

%dynamic_index_in_dim_12.14 (Arg_0.27: s32[12,8,64], Arg_1.27: s32[]) -> s32[8,64] {
  %Arg_0.27 = s32[12,8,64]{2,1,0} parameter(0)
  %Arg_1.27 = s32[] parameter(1)
  %constant.43 = s32[] constant(0)
  %dynamic_slice.27 = s32[1,8,64]{2,1,0} dynamic-slice(%Arg_0.27, %Arg_1.27, %constant.43, %constant.43), dynamic_slice_sizes={1,8,64}, metadata={op_name="dynamic_slice" stack_frame_id=10}
  ROOT %squeeze.27 = s32[8,64]{1,0} reshape(%dynamic_slice.27), metadata={op_name="squeeze" stack_frame_id=10}
}

%dynamic_index_in_dim_13.15 (Arg_0.29: bf16[12,1984,8,8,64], Arg_1.29: s32[]) -> bf16[1984,8,8,64] {
  %Arg_0.29 = bf16[12,1984,8,8,64]{4,3,2,1,0} parameter(0)
  %Arg_1.29 = s32[] parameter(1)
  %constant.45 = s32[] constant(0)
  %dynamic_slice.29 = bf16[1,1984,8,8,64]{4,3,2,1,0} dynamic-slice(%Arg_0.29, %Arg_1.29, %constant.45, %constant.45, %constant.45, /*index=5*/%constant.45), dynamic_slice_sizes={1,1984,8,8,64}, metadata={op_name="dynamic_slice" stack_frame_id=10}
  ROOT %squeeze.29 = bf16[1984,8,8,64]{3,2,1,0} reshape(%dynamic_slice.29), metadata={op_name="squeeze" stack_frame_id=10}
}

%dynamic_index_in_dim_14.16 (Arg_0.31: s32[12,8], Arg_1.31: s32[]) -> s32[8] {
  %Arg_0.31 = s32[12,8]{1,0} parameter(0)
  %Arg_1.31 = s32[] parameter(1)
  %constant.47 = s32[] constant(0)
  %dynamic_slice.31 = s32[1,8]{1,0} dynamic-slice(%Arg_0.31, %Arg_1.31, %constant.47), dynamic_slice_sizes={1,8}, metadata={op_name="dynamic_slice" stack_frame_id=10}
  ROOT %squeeze.31 = s32[8]{0} reshape(%dynamic_slice.31), metadata={op_name="squeeze" stack_frame_id=10}
}

%dynamic_index_in_dim_15.17 (Arg_0.33: bf16[12,64,8,8,64], Arg_1.33: s32[]) -> bf16[64,8,8,64] {
  %Arg_0.33 = bf16[12,64,8,8,64]{4,3,2,1,0} parameter(0)
  %Arg_1.33 = s32[] parameter(1)
  %constant.49 = s32[] constant(0)
  %dynamic_slice.33 = bf16[1,64,8,8,64]{4,3,2,1,0} dynamic-slice(%Arg_0.33, %Arg_1.33, %constant.49, %constant.49, %constant.49, /*index=5*/%constant.49), dynamic_slice_sizes={1,64,8,8,64}, metadata={op_name="dynamic_slice" stack_frame_id=10}
  ROOT %squeeze.33 = bf16[64,8,8,64]{3,2,1,0} reshape(%dynamic_slice.33), metadata={op_name="squeeze" stack_frame_id=10}
}

%_where_17.25 (Arg_0.46: pred[8,1,1,1,64], Arg_1.46: f32[], Arg_2.10: f32[]) -> f32[8,1,1,1,64] {
  %Arg_0.46 = pred[8,1,1,1,64]{4,3,2,1,0} parameter(0)
  %Arg_1.46 = f32[] parameter(1)
  %broadcast_in_dim.23 = f32[8,1,1,1,64]{4,3,2,1,0} broadcast(%Arg_1.46), dimensions={}, metadata={op_name="broadcast_in_dim"}
  %Arg_2.10 = f32[] parameter(2)
  %broadcast_in_dim.24 = f32[8,1,1,1,64]{4,3,2,1,0} broadcast(%Arg_2.10), dimensions={}, metadata={op_name="broadcast_in_dim"}
  ROOT %select_n.12 = f32[8,1,1,1,64]{4,3,2,1,0} select(%Arg_0.46, %broadcast_in_dim.23, %broadcast_in_dim.24), metadata={op_name="select_n"}
}

%region_1.18 (reduce_sum.3: f32[], reduce_sum.4: f32[]) -> f32[] {
  %reduce_sum.3 = f32[] parameter(0), metadata={op_name="reduce_sum"}
  %reduce_sum.4 = f32[] parameter(1), metadata={op_name="reduce_sum"}
  ROOT %reduce_sum.5 = f32[] add(%reduce_sum.3, %reduce_sum.4), metadata={op_name="checkpoint/layers/reduce_sum" stack_frame_id=17}
}

%clip.19 (Arg_0.36: f32[32], Arg_1.36: s32[], Arg_2.2: s32[]) -> f32[32] {
  %Arg_2.2 = s32[] parameter(2)
  %convert_element_type.13 = f32[] convert(%Arg_2.2), metadata={op_name="convert_element_type"}
  %min.2 = f32[32]{0} broadcast(%convert_element_type.13), dimensions={}, metadata={op_name="min"}
  %Arg_1.36 = s32[] parameter(1)
  %convert_element_type.12 = f32[] convert(%Arg_1.36), metadata={op_name="convert_element_type"}
  %max.2 = f32[32]{0} broadcast(%convert_element_type.12), dimensions={}, metadata={op_name="max"}
  %Arg_0.36 = f32[32]{0} parameter(0)
  %max.3 = f32[32]{0} maximum(%max.2, %Arg_0.36), metadata={op_name="max"}
  ROOT %min.3 = f32[32]{0} minimum(%min.2, %max.3), metadata={op_name="min"}
}

%_where_18.26 (Arg_0.48: pred[8,1,1,1,64], Arg_1.48: bf16[8,8,8,1,64], Arg_2.12: f32[]) -> bf16[8,8,8,1,64] {
  %Arg_0.48 = pred[8,1,1,1,64]{4,3,2,1,0} parameter(0)
  %broadcast_in_dim.29 = pred[8,1,1,1,64]{4,3,2,1,0} broadcast(%Arg_0.48), dimensions={0,1,2,3,4}, metadata={op_name="broadcast_in_dim"}
  %broadcast_in_dim.30 = pred[8,1,64]{2,1,0} reshape(%broadcast_in_dim.29), metadata={op_name="broadcast_in_dim"}
  %broadcast_in_dim.31 = pred[8,8,8,1,64]{4,3,2,1,0} broadcast(%broadcast_in_dim.30), dimensions={0,3,4}, metadata={op_name="broadcast_in_dim"}
  %Arg_1.48 = bf16[8,8,8,1,64]{4,3,2,1,0} parameter(1)
  %Arg_2.12 = f32[] parameter(2)
  %convert_element_type.23 = bf16[] convert(%Arg_2.12), metadata={op_name="convert_element_type"}
  %broadcast_in_dim.32 = bf16[8,8,8,1,64]{4,3,2,1,0} broadcast(%convert_element_type.23), dimensions={}, metadata={op_name="broadcast_in_dim"}
  ROOT %select_n.14 = bf16[8,8,8,1,64]{4,3,2,1,0} select(%broadcast_in_dim.31, %Arg_1.48, %broadcast_in_dim.32), metadata={op_name="select_n"}
}

%region_3.27 (reduce_max.3: bf16[], reduce_max.4: bf16[]) -> bf16[] {
  %reduce_max.3 = bf16[] parameter(0), metadata={op_name="reduce_max"}
  %reduce_max.4 = bf16[] parameter(1), metadata={op_name="reduce_max"}
  ROOT %reduce_max.5 = bf16[] maximum(%reduce_max.3, %reduce_max.4), metadata={op_name="checkpoint/layers/reduce_max" stack_frame_id=30}
}

%dynamic_update_index_in_dim_16.21 (Arg_0.40: s32[8,1984], Arg_1.40: s32[8,1], Arg_2.6: s32[]) -> s32[8,1984] {
  %Arg_0.40 = s32[8,1984]{1,0} parameter(0)
  %Arg_1.40 = s32[8,1]{1,0} parameter(1)
  %constant.108 = s32[] constant(0)
  %Arg_2.6 = s32[] parameter(2)
  %lt.6 = pred[] compare(%Arg_2.6, %constant.108), direction=LT, metadata={op_name="lt"}
  %constant.107 = s32[] constant(1984)
  %add.23 = s32[] add(%Arg_2.6, %constant.107), metadata={op_name="add"}
  %select_n.6 = s32[] select(%lt.6, %add.23, %Arg_2.6), metadata={op_name="select_n"}
  ROOT %dynamic_update_slice.3 = s32[8,1984]{1,0} dynamic-update-slice(%Arg_0.40, %Arg_1.40, %constant.108, %select_n.6), metadata={op_name="dynamic_update_slice"}
}

%_where_19.29 (Arg_0.50: pred[8,1,1,1,1984], Arg_1.50: f32[], Arg_2.14: f32[]) -> f32[8,1,1,1,1984] {
  %Arg_0.50 = pred[8,1,1,1,1984]{4,3,2,1,0} parameter(0)
  %Arg_1.50 = f32[] parameter(1)
  %broadcast_in_dim.44 = f32[8,1,1,1,1984]{4,3,2,1,0} broadcast(%Arg_1.50), dimensions={}, metadata={op_name="broadcast_in_dim"}
  %Arg_2.14 = f32[] parameter(2)
  %broadcast_in_dim.45 = f32[8,1,1,1,1984]{4,3,2,1,0} broadcast(%Arg_2.14), dimensions={}, metadata={op_name="broadcast_in_dim"}
  ROOT %select_n.16 = f32[8,1,1,1,1984]{4,3,2,1,0} select(%Arg_0.50, %broadcast_in_dim.44, %broadcast_in_dim.45), metadata={op_name="select_n"}
}

%dynamic_update_index_in_dim.20 (Arg_0.38: bf16[1984,8,8,64], Arg_1.38: bf16[1,8,8,64], Arg_2.4: s32[]) -> bf16[1984,8,8,64] {
  %Arg_0.38 = bf16[1984,8,8,64]{3,2,1,0} parameter(0)
  %Arg_1.38 = bf16[1,8,8,64]{3,2,1,0} parameter(1)
  %Arg_2.4 = s32[] parameter(2)
  %constant.104 = s32[] constant(0)
  %lt.4 = pred[] compare(%Arg_2.4, %constant.104), direction=LT, metadata={op_name="lt"}
  %constant.103 = s32[] constant(1984)
  %add.21 = s32[] add(%Arg_2.4, %constant.103), metadata={op_name="add"}
  %select_n.4 = s32[] select(%lt.4, %add.21, %Arg_2.4), metadata={op_name="select_n"}
  ROOT %dynamic_update_slice.1 = bf16[1984,8,8,64]{3,2,1,0} dynamic-update-slice(%Arg_0.38, %Arg_1.38, %select_n.4, %constant.104, %constant.104, /*index=5*/%constant.104), metadata={op_name="dynamic_update_slice"}
}

%_where_20.30 (Arg_0.52: pred[8,1,1,1,1984], Arg_1.52: bf16[8,8,8,1,1984], Arg_2.16: f32[]) -> bf16[8,8,8,1,1984] {
  %Arg_0.52 = pred[8,1,1,1,1984]{4,3,2,1,0} parameter(0)
  %broadcast_in_dim.50 = pred[8,1,1,1,1984]{4,3,2,1,0} broadcast(%Arg_0.52), dimensions={0,1,2,3,4}, metadata={op_name="broadcast_in_dim"}
  %broadcast_in_dim.51 = pred[8,1,1984]{2,1,0} reshape(%broadcast_in_dim.50), metadata={op_name="broadcast_in_dim"}
  %broadcast_in_dim.52 = pred[8,8,8,1,1984]{4,3,2,1,0} broadcast(%broadcast_in_dim.51), dimensions={0,3,4}, metadata={op_name="broadcast_in_dim"}
  %Arg_1.52 = bf16[8,8,8,1,1984]{4,3,2,1,0} parameter(1)
  %Arg_2.16 = f32[] parameter(2)
  %convert_element_type.28 = bf16[] convert(%Arg_2.16), metadata={op_name="convert_element_type"}
  %broadcast_in_dim.53 = bf16[8,8,8,1,1984]{4,3,2,1,0} broadcast(%convert_element_type.28), dimensions={}, metadata={op_name="broadcast_in_dim"}
  ROOT %select_n.18 = bf16[8,8,8,1,1984]{4,3,2,1,0} select(%broadcast_in_dim.52, %Arg_1.52, %broadcast_in_dim.53), metadata={op_name="select_n"}
}

%region_5.31 (reduce_max.10: bf16[], reduce_max.11: bf16[]) -> bf16[] {
  %reduce_max.10 = bf16[] parameter(0), metadata={op_name="reduce_max"}
  %reduce_max.11 = bf16[] parameter(1), metadata={op_name="reduce_max"}
  ROOT %reduce_max.12 = bf16[] maximum(%reduce_max.10, %reduce_max.11), metadata={op_name="checkpoint/layers/reduce_max" stack_frame_id=35}
}

%region_4.28 (reduce_sum.10: f32[], reduce_sum.11: f32[]) -> f32[] {
  %reduce_sum.10 = f32[] parameter(0), metadata={op_name="reduce_sum"}
  %reduce_sum.11 = f32[] parameter(1), metadata={op_name="reduce_sum"}
  ROOT %reduce_sum.12 = f32[] add(%reduce_sum.10, %reduce_sum.11), metadata={op_name="checkpoint/layers/reduce_sum" stack_frame_id=31}
}

%region_6.32 (reduce_sum.17: f32[], reduce_sum.18: f32[]) -> f32[] {
  %reduce_sum.17 = f32[] parameter(0), metadata={op_name="reduce_sum"}
  %reduce_sum.18 = f32[] parameter(1), metadata={op_name="reduce_sum"}
  ROOT %reduce_sum.19 = f32[] add(%reduce_sum.17, %reduce_sum.18), metadata={op_name="checkpoint/layers/reduce_sum" stack_frame_id=36}
}

%region_7.33 (reduce_sum.24: f32[], reduce_sum.25: f32[]) -> f32[] {
  %reduce_sum.24 = f32[] parameter(0), metadata={op_name="reduce_sum"}
  %reduce_sum.25 = f32[] parameter(1), metadata={op_name="reduce_sum"}
  ROOT %reduce_sum.26 = f32[] add(%reduce_sum.24, %reduce_sum.25), metadata={op_name="checkpoint/layers/reduce_sum" stack_frame_id=39}
}

%clip_21.37 (Arg_0.54: bf16[8,1,32,2880], Arg_1.54: f32[]) -> bf16[8,1,32,2880] {
  %Arg_1.54 = f32[] parameter(1)
  %convert_element_type.47 = bf16[] convert(%Arg_1.54), metadata={op_name="convert_element_type"}
  %min.6 = bf16[8,1,32,2880]{3,2,1,0} broadcast(%convert_element_type.47), dimensions={}, metadata={op_name="min"}
  %Arg_0.54 = bf16[8,1,32,2880]{3,2,1,0} parameter(0)
  ROOT %min.7 = bf16[8,1,32,2880]{3,2,1,0} minimum(%min.6, %Arg_0.54), metadata={op_name="min"}
}

%clip_22.38 (Arg_0.56: bf16[8,1,32,2880], Arg_1.56: f32[], Arg_2.18: f32[]) -> bf16[8,1,32,2880] {
  %Arg_1.56 = f32[] parameter(1)
  %convert_element_type.51 = bf16[] convert(%Arg_1.56), metadata={op_name="convert_element_type"}
  %min.10 = bf16[8,1,32,2880]{3,2,1,0} broadcast(%convert_element_type.51), dimensions={}, metadata={op_name="min"}
  %Arg_2.18 = f32[] parameter(2)
  %convert_element_type.50 = bf16[] convert(%Arg_2.18), metadata={op_name="convert_element_type"}
  %max.8 = bf16[8,1,32,2880]{3,2,1,0} broadcast(%convert_element_type.50), dimensions={}, metadata={op_name="max"}
  %Arg_0.56 = bf16[8,1,32,2880]{3,2,1,0} parameter(0)
  %max.9 = bf16[8,1,32,2880]{3,2,1,0} maximum(%max.8, %Arg_0.56), metadata={op_name="max"}
  ROOT %min.11 = bf16[8,1,32,2880]{3,2,1,0} minimum(%min.10, %max.9), metadata={op_name="min"}
}

%region_8.34 (reduce_max.17: f32[], reduce_max.18: f32[]) -> f32[] {
  %reduce_max.17 = f32[] parameter(0), metadata={op_name="reduce_max"}
  %reduce_max.18 = f32[] parameter(1), metadata={op_name="reduce_max"}
  ROOT %reduce_max.19 = f32[] maximum(%reduce_max.17, %reduce_max.18), metadata={op_name="checkpoint/layers/reduce_max" stack_frame_id=44}
}

%region_9.35 (reduce_sum.31: f32[], reduce_sum.32: f32[]) -> f32[] {
  %reduce_sum.31 = f32[] parameter(0), metadata={op_name="reduce_sum"}
  %reduce_sum.32 = f32[] parameter(1), metadata={op_name="reduce_sum"}
  ROOT %reduce_sum.33 = f32[] add(%reduce_sum.31, %reduce_sum.32), metadata={op_name="checkpoint/layers/reduce_sum" stack_frame_id=44}
}

%region_10.36 (scatter.2: bf16[], scatter.3: bf16[]) -> bf16[] {
  %scatter.2 = bf16[] parameter(0), metadata={op_name="scatter"}
  ROOT %scatter.3 = bf16[] parameter(1), metadata={op_name="scatter"}
}

%region_11.39 (reduce_sum.38: f32[], reduce_sum.39: f32[]) -> f32[] {
  %reduce_sum.38 = f32[] parameter(0), metadata={op_name="reduce_sum"}
  %reduce_sum.39 = f32[] parameter(1), metadata={op_name="reduce_sum"}
  ROOT %reduce_sum.40 = f32[] add(%reduce_sum.38, %reduce_sum.39), metadata={op_name="checkpoint/layers/reduce_sum" stack_frame_id=17}
}

%region_13.41 (reduce_max.24: bf16[], reduce_max.25: bf16[]) -> bf16[] {
  %reduce_max.24 = bf16[] parameter(0), metadata={op_name="reduce_max"}
  %reduce_max.25 = bf16[] parameter(1), metadata={op_name="reduce_max"}
  ROOT %reduce_max.26 = bf16[] maximum(%reduce_max.24, %reduce_max.25), metadata={op_name="checkpoint/layers/reduce_max" stack_frame_id=30}
}

%region_15.43 (reduce_max.31: bf16[], reduce_max.32: bf16[]) -> bf16[] {
  %reduce_max.31 = bf16[] parameter(0), metadata={op_name="reduce_max"}
  %reduce_max.32 = bf16[] parameter(1), metadata={op_name="reduce_max"}
  ROOT %reduce_max.33 = bf16[] maximum(%reduce_max.31, %reduce_max.32), metadata={op_name="checkpoint/layers/reduce_max" stack_frame_id=35}
}

%region_14.42 (reduce_sum.45: f32[], reduce_sum.46: f32[]) -> f32[] {
  %reduce_sum.45 = f32[] parameter(0), metadata={op_name="reduce_sum"}
  %reduce_sum.46 = f32[] parameter(1), metadata={op_name="reduce_sum"}
  ROOT %reduce_sum.47 = f32[] add(%reduce_sum.45, %reduce_sum.46), metadata={op_name="checkpoint/layers/reduce_sum" stack_frame_id=31}
}

%region_16.44 (reduce_sum.52: f32[], reduce_sum.53: f32[]) -> f32[] {
  %reduce_sum.52 = f32[] parameter(0), metadata={op_name="reduce_sum"}
  %reduce_sum.53 = f32[] parameter(1), metadata={op_name="reduce_sum"}
  ROOT %reduce_sum.54 = f32[] add(%reduce_sum.52, %reduce_sum.53), metadata={op_name="checkpoint/layers/reduce_sum" stack_frame_id=36}
}

%region_17.45 (reduce_sum.59: f32[], reduce_sum.60: f32[]) -> f32[] {
  %reduce_sum.59 = f32[] parameter(0), metadata={op_name="reduce_sum"}
  %reduce_sum.60 = f32[] parameter(1), metadata={op_name="reduce_sum"}
  ROOT %reduce_sum.61 = f32[] add(%reduce_sum.59, %reduce_sum.60), metadata={op_name="checkpoint/layers/reduce_sum" stack_frame_id=39}
}

%region_18.46 (reduce_max.38: f32[], reduce_max.39: f32[]) -> f32[] {
  %reduce_max.38 = f32[] parameter(0), metadata={op_name="reduce_max"}
  %reduce_max.39 = f32[] parameter(1), metadata={op_name="reduce_max"}
  ROOT %reduce_max.40 = f32[] maximum(%reduce_max.38, %reduce_max.39), metadata={op_name="checkpoint/layers/reduce_max" stack_frame_id=44}
}

%region_19.47 (reduce_sum.66: f32[], reduce_sum.67: f32[]) -> f32[] {
  %reduce_sum.66 = f32[] parameter(0), metadata={op_name="reduce_sum"}
  %reduce_sum.67 = f32[] parameter(1), metadata={op_name="reduce_sum"}
  ROOT %reduce_sum.68 = f32[] add(%reduce_sum.66, %reduce_sum.67), metadata={op_name="checkpoint/layers/reduce_sum" stack_frame_id=44}
}

%region_20.48 (scatter.7: bf16[], scatter.8: bf16[]) -> bf16[] {
  %scatter.7 = bf16[] parameter(0), metadata={op_name="scatter"}
  ROOT %scatter.8 = bf16[] parameter(1), metadata={op_name="scatter"}
}

%_where.22 (Arg_0.43: pred[], Arg_1.43: s32[], Arg_2.8: s32[]) -> s32[] {
  %Arg_0.43 = pred[] parameter(0)
  %Arg_1.43 = s32[] parameter(1)
  %Arg_2.8 = s32[] parameter(2)
  ROOT %select_n.8 = s32[] select(%Arg_0.43, %Arg_1.43, %Arg_2.8), metadata={op_name="select_n"}
}

%remainder.23 (Arg_0.44: s32[1], Arg_1.44: s32[]) -> s32[1] {
  %Arg_0.44 = s32[1]{0} parameter(0)
  %Arg_1.44 = s32[] parameter(1)
  %constant.114 = s32[] constant(0)
  %eq.1 = pred[] compare(%Arg_1.44, %constant.114), direction=EQ, metadata={op_name="eq"}
  %constant.113 = s32[] constant(1)
  %jit__where_.1 = s32[] call(%eq.1, %constant.113, %Arg_1.44), to_apply=%_where.22, metadata={op_name="jit(_where)"}
  %rem.2 = s32[1]{0} reshape(%jit__where_.1), metadata={op_name="rem"}
  %rem.3 = s32[1]{0} remainder(%Arg_0.44, %rem.2), metadata={op_name="rem"}
  %constant.112 = s32[1]{0} constant({0})
  %lt.9 = pred[1]{0} compare(%rem.3, %constant.112), direction=LT, metadata={op_name="lt"}
  %lt.10 = pred[] compare(%jit__where_.1, %constant.114), direction=LT, metadata={op_name="lt"}
  %ne.4 = pred[1]{0} reshape(%lt.10), metadata={op_name="ne"}
  %ne.5 = pred[1]{0} compare(%lt.9, %ne.4), direction=NE, metadata={op_name="ne"}
  %ne.3 = pred[1]{0} compare(%rem.3, %constant.112), direction=NE, metadata={op_name="ne"}
  %and.1 = pred[1]{0} and(%ne.5, %ne.3), metadata={op_name="and"}
  %add.27 = s32[1]{0} reshape(%jit__where_.1), metadata={op_name="add"}
  %add.28 = s32[1]{0} add(%rem.3, %add.27), metadata={op_name="add"}
  ROOT %select_n.10 = s32[1]{0} select(%and.1, %add.28, %rem.3), metadata={op_name="select_n"}
}

%region_2.24 (scatter-add.2: s32[], scatter-add.3: s32[]) -> s32[] {
  %scatter-add.2 = s32[] parameter(0), metadata={op_name="scatter-add"}
  %scatter-add.3 = s32[] parameter(1), metadata={op_name="scatter-add"}
  ROOT %add.30 = s32[] add(%scatter-add.2, %scatter-add.3), metadata={op_name="checkpoint/layers/add" stack_frame_id=24}
}

%region_12.40 (scatter-add.7: s32[], scatter-add.8: s32[]) -> s32[] {
  %scatter-add.7 = s32[] parameter(0), metadata={op_name="scatter-add"}
  %scatter-add.8 = s32[] parameter(1), metadata={op_name="scatter-add"}
  ROOT %add.82 = s32[] add(%scatter-add.7, %scatter-add.8), metadata={op_name="checkpoint/layers/add" stack_frame_id=24}
}

%closed_call.49 (Arg_0.57: s32[0], Arg_1.57: s32[0], Arg_2.19: s32[8,1], Arg_3.1: bf16[8,1,2880], Arg_4.1: f32[8,64], Arg_5.1: f32[2880,8,64], Arg_6.1: f32[2880], Arg_7.1: f32[64,64,2880], Arg_8.1: f32[64,64], Arg_9.1: f32[2880,64,64], Arg_10.1: f32[64], Arg_11.1: f32[8,64], Arg_12.1: f32[2880,8,64], Arg_13.1: f32[32], Arg_14.1: f32[2880,32], Arg_15.1: f32[32,2880,2880], Arg_16.1: f32[32,2880], Arg_17.1: f32[32,2880,2880], Arg_18.1: f32[32,2880], Arg_19.1: f32[32,2880,2880], Arg_20.1: f32[32,2880], Arg_21.1: f32[2880], Arg_22.1: f32[2880], Arg_23.1: f32[8,64], Arg_24.1: f32[2880,8,64], Arg_25.1: f32[2880], Arg_26.1: f32[64,64,2880], Arg_27.1: f32[64,64], Arg_28.1: f32[2880,64,64], Arg_29.1: f32[64], Arg_30.1: f32[8,64], Arg_31.1: f32[2880,8,64], Arg_32.1: f32[32], Arg_33.1: f32[2880,32], Arg_34.1: f32[32,2880,2880], Arg_35.1: f32[32,2880], Arg_36.1: f32[32,2880,2880], Arg_37.1: f32[32,2880], Arg_38.1: f32[32,2880,2880], Arg_39.1: f32[32,2880], Arg_40.1: f32[2880], Arg_41.1: f32[2880], Arg_42.1: s32[1], Arg_43.1: s32[8,1984], Arg_44.1: s32[8,64], Arg_45.1: bf16[1984,8,8,64], Arg_46.1: s32[8], Arg_47.1: bf16[1984,8,8,64], Arg_48.1: bf16[64,8,8,64], Arg_49.1: bf16[64,8,8,64], Arg_50.1: s32[1], Arg_51.1: s32[8,1984], Arg_52.1: s32[8,64], Arg_53.1: bf16[1984,8,8,64], Arg_54.1: s32[8], Arg_55.1: bf16[1984,8,8,64], Arg_56.1: bf16[64,8,8,64], Arg_57.1: bf16[64,8,8,64]) -> (bf16[8,1,2880], s32[1], s32[8,1984], s32[8,64], bf16[1984,8,8,64], /*index=5*/s32[8], bf16[1984,8,8,64], bf16[64,8,8,64], bf16[64,8,8,64], s32[1], /*index=10*/s32[8,1984], s32[8,64], bf16[1984,8,8,64], s32[8], bf16[1984,8,8,64], /*index=15*/bf16[64,8,8,64], bf16[64,8,8,64]) {
  %Arg_0.57 = s32[0]{0} parameter(0)
  %Arg_1.57 = s32[0]{0} parameter(1)
  %Arg_38.1 = f32[32,2880,2880]{2,1,0} parameter(38)
  %convert_element_type.164 = bf16[32,2880,2880]{2,1,0} convert(%Arg_38.1), metadata={op_name="checkpoint/layers/convert_element_type" stack_frame_id=45}
  %Arg_40.1 = f32[2880]{0} parameter(40)
  %convert_element_type.161 = bf16[2880]{0} convert(%Arg_40.1), metadata={op_name="checkpoint/layers/convert_element_type" stack_frame_id=46}
  %Arg_19.1 = f32[32,2880,2880]{2,1,0} parameter(19)
  %convert_element_type.124 = bf16[32,2880,2880]{2,1,0} convert(%Arg_19.1), metadata={op_name="checkpoint/layers/convert_element_type" stack_frame_id=45}
  %Arg_21.1 = f32[2880]{0} parameter(21)
  %convert_element_type.121 = bf16[2880]{0} convert(%Arg_21.1), metadata={op_name="checkpoint/layers/convert_element_type" stack_frame_id=46}
  %Arg_3.1 = bf16[8,1,2880]{2,1,0} parameter(3)
  %iota.24 = s32[64]{0} iota(), iota_dimension=0, metadata={op_name="checkpoint/layers/iota" stack_frame_id=48}
  %iota.25 = s32[1,64]{1,0} reshape(%iota.24), metadata={op_name="checkpoint/layers/iota" stack_frame_id=48}
  %constant.131 = s32[] constant(-65)
  %gt.5 = s32[1,64]{1,0} broadcast(%constant.131), dimensions={}, metadata={op_name="checkpoint/layers/gt" stack_frame_id=49}
  %gt.6 = pred[1,64]{1,0} compare(%iota.25, %gt.5), direction=GT, metadata={op_name="checkpoint/layers/gt" stack_frame_id=49}
  %constant.130 = s32[] constant(63)
  %le.5 = s32[1,64]{1,0} broadcast(%constant.130), dimensions={}, metadata={op_name="checkpoint/layers/le" stack_frame_id=50}
  %le.6 = pred[1,64]{1,0} compare(%iota.25, %le.5), direction=LE, metadata={op_name="checkpoint/layers/le" stack_frame_id=50}
  %and.12 = pred[1,64]{1,0} and(%gt.6, %le.6), metadata={op_name="checkpoint/layers/and" stack_frame_id=51}
  %broadcast_in_dim.138 = pred[1,1,1,1,64]{4,3,2,1,0} reshape(%and.12), metadata={op_name="checkpoint/layers/broadcast_in_dim" stack_frame_id=52}
  %and.13 = pred[1,1,1,1,64]{4,3,2,1,0} broadcast(%broadcast_in_dim.138), dimensions={0,1,2,3,4}, metadata={op_name="checkpoint/layers/and" stack_frame_id=52}
  %and.14 = pred[1,1,1,64]{3,2,1,0} reshape(%and.13), metadata={op_name="checkpoint/layers/and" stack_frame_id=52}
  %and.15 = pred[8,1,1,1,64]{4,3,2,1,0} broadcast(%and.14), dimensions={1,2,3,4}, metadata={op_name="checkpoint/layers/and" stack_frame_id=52}
  %Arg_44.1 = s32[8,64]{1,0} parameter(44)
  %broadcast_in_dim.137 = s32[8,1,1,1,64]{4,3,2,1,0} reshape(%Arg_44.1), metadata={op_name="checkpoint/layers/broadcast_in_dim" stack_frame_id=53}
  %constant.132 = s32[] constant(1)
  %broadcast.57 = s32[8,1,1,1,64]{4,3,2,1,0} broadcast(%constant.132), dimensions={}
  %eq.6 = pred[8,1,1,1,64]{4,3,2,1,0} compare(%broadcast_in_dim.137, %broadcast.57), direction=EQ, metadata={op_name="checkpoint/layers/eq" stack_frame_id=53}
  %and.16 = pred[8,1,1,1,64]{4,3,2,1,0} and(%and.15, %eq.6), metadata={op_name="checkpoint/layers/and" stack_frame_id=52}
  %constant.165 = f32[] constant(0)
  %constant.161 = f32[] constant(-2.38197633e+38)
  %jit__where_.10 = f32[8,1,1,1,64]{4,3,2,1,0} call(%and.16, %constant.165, %constant.161), to_apply=%_where_17.25, metadata={op_name="checkpoint/layers/jit(_where)" stack_frame_id=54}
  %constant.129 = f32[] constant(-1.19098816e+38)
  %broadcast.56 = f32[8,1,1,1,64]{4,3,2,1,0} broadcast(%constant.129), dimensions={}
  %ge.4 = pred[8,1,1,1,64]{4,3,2,1,0} compare(%jit__where_.10, %broadcast.56), direction=GE, metadata={op_name="checkpoint/layers/ge" stack_frame_id=56}
  %Arg_48.1 = bf16[64,8,8,64]{3,2,1,0} parameter(48)
  %transpose.71 = bf16[8,64,8,64]{3,0,2,1} transpose(%Arg_48.1), dimensions={2,0,1,3}, metadata={op_name="checkpoint/layers/transpose" stack_frame_id=60}
  %Arg_22.1 = f32[2880]{0} parameter(22)
  %convert_element_type.97 = bf16[2880]{0} convert(%Arg_22.1), metadata={op_name="checkpoint/layers/convert_element_type" stack_frame_id=61}
  %convert_element_type.95 = f32[8,1,2880]{2,1,0} convert(%Arg_3.1), metadata={op_name="checkpoint/layers/convert_element_type" stack_frame_id=62}
  %square.4 = f32[8,1,2880]{2,1,0} multiply(%convert_element_type.95, %convert_element_type.95), metadata={op_name="checkpoint/layers/square" stack_frame_id=63}
  %reduce_sum.70 = f32[8,1]{1,0} reduce(%square.4, %constant.165), dimensions={2}, to_apply=%region_1.18, metadata={op_name="checkpoint/layers/reduce_sum" stack_frame_id=17}
  %broadcast_in_dim.119 = f32[8,1,1]{2,1,0} reshape(%reduce_sum.70), metadata={op_name="checkpoint/layers/broadcast_in_dim" stack_frame_id=17}
  %constant.153 = f32[] constant(2880)
  %broadcast.76 = f32[8,1,1]{2,1,0} broadcast(%constant.153), dimensions={}
  %div.34 = f32[8,1,1]{2,1,0} divide(%broadcast_in_dim.119, %broadcast.76), metadata={op_name="checkpoint/layers/div" stack_frame_id=17}
  %constant.152 = f32[] constant(1e-05)
  %broadcast.75 = f32[8,1,1]{2,1,0} broadcast(%constant.152), dimensions={}
  %add.113 = f32[8,1,1]{2,1,0} add(%div.34, %broadcast.75), metadata={op_name="checkpoint/layers/add" stack_frame_id=64}
  %rsqrt.4 = f32[8,1,1]{2,1,0} rsqrt(%add.113), metadata={op_name="checkpoint/layers/rsqrt" stack_frame_id=65}
  %mul.100 = f32[8,1,1]{2,1,0} broadcast(%rsqrt.4), dimensions={0,1,2}, metadata={op_name="checkpoint/layers/mul" stack_frame_id=66}
  %mul.101 = f32[8,1]{1,0} reshape(%mul.100), metadata={op_name="checkpoint/layers/mul" stack_frame_id=66}
  %mul.102 = f32[8,1,2880]{2,1,0} broadcast(%mul.101), dimensions={0,1}, metadata={op_name="checkpoint/layers/mul" stack_frame_id=66}
  %mul.103 = f32[8,1,2880]{2,1,0} multiply(%convert_element_type.95, %mul.102), metadata={op_name="checkpoint/layers/mul" stack_frame_id=66}
  %convert_element_type.96 = bf16[8,1,2880]{2,1,0} convert(%mul.103), metadata={op_name="checkpoint/layers/convert_element_type" stack_frame_id=67}
  %dot_general.30 = bf16[2880,8,1]{2,1,0} dot(%convert_element_type.97, %convert_element_type.96), lhs_batch_dims={0}, lhs_contracting_dims={}, rhs_batch_dims={2}, rhs_contracting_dims={}, metadata={op_name="checkpoint/layers/...k,k->...k/dot_general" stack_frame_id=68}
  %transpose.68 = bf16[8,1,2880]{1,0,2} transpose(%dot_general.30), dimensions={1,2,0}, metadata={op_name="checkpoint/layers/...k,k->...k/transpose" stack_frame_id=68}
  %sharding_constraint.20 = bf16[8,1,2880]{2,1,0} custom-call(%transpose.68), custom_call_target="Sharding", sharding={devices=[1,1,8]<=[8]}, frontend_attributes={xla.sdy.sharding="#sdy.sharding_per_value<[<@mesh, [{}, {}, {\"tensor\"}]>]>"}, metadata={op_name="checkpoint/layers/sharding_constraint" stack_frame_id=71}
  %Arg_9.1 = f32[2880,64,64]{2,1,0} parameter(9)
  %convert_element_type.98 = bf16[2880,64,64]{2,1,0} convert(%Arg_9.1), metadata={op_name="checkpoint/layers/convert_element_type" stack_frame_id=75}
  %dot_general.31 = bf16[8,1,64,64]{3,2,1,0} dot(%sharding_constraint.20, %convert_element_type.98), lhs_contracting_dims={2}, rhs_contracting_dims={0}, metadata={op_name="checkpoint/layers/dot_general" stack_frame_id=77}
  %Arg_8.1 = f32[64,64]{1,0} parameter(8)
  %convert_element_type.99 = bf16[64,64]{1,0} convert(%Arg_8.1), metadata={op_name="checkpoint/layers/convert_element_type" stack_frame_id=78}
  %broadcast_in_dim.120 = bf16[1,1,64,64]{3,2,1,0} reshape(%convert_element_type.99), metadata={op_name="checkpoint/layers/broadcast_in_dim" stack_frame_id=79}
  %add.114 = bf16[1,1,64,64]{3,2,1,0} broadcast(%broadcast_in_dim.120), dimensions={0,1,2,3}, metadata={op_name="checkpoint/layers/add" stack_frame_id=79}
  %add.115 = bf16[1,64,64]{2,1,0} reshape(%add.114), metadata={op_name="checkpoint/layers/add" stack_frame_id=79}
  %add.116 = bf16[8,1,64,64]{3,2,1,0} broadcast(%add.115), dimensions={1,2,3}, metadata={op_name="checkpoint/layers/add" stack_frame_id=79}
  %add.117 = bf16[8,1,64,64]{3,2,1,0} add(%dot_general.31, %add.116), metadata={op_name="checkpoint/layers/add" stack_frame_id=79}
  %split.8 = bf16[8,1,64,32]{3,2,1,0} slice(%add.117), slice={[0:8], [0:1], [0:64], [0:32]}, metadata={op_name="checkpoint/layers/split" stack_frame_id=83}
  %convert_element_type.106 = c64[8,1,64,32]{3,2,1,0} convert(%split.8), metadata={op_name="checkpoint/layers/convert_element_type" stack_frame_id=84}
  %split.9 = bf16[8,1,64,32]{3,2,1,0} slice(%add.117), slice={[0:8], [0:1], [0:64], [32:64]}, metadata={op_name="checkpoint/layers/split" stack_frame_id=83}
  %convert_element_type.105 = c64[8,1,64,32]{3,2,1,0} convert(%split.9), metadata={op_name="checkpoint/layers/convert_element_type" stack_frame_id=85}
  %constant.141 = c64[] constant((0, 1))
  %broadcast.64 = c64[8,1,64,32]{3,2,1,0} broadcast(%constant.141), dimensions={}
  %mul.115 = c64[8,1,64,32]{3,2,1,0} multiply(%convert_element_type.105, %broadcast.64), metadata={op_name="checkpoint/layers/mul" stack_frame_id=85}
  %add.128 = c64[8,1,64,32]{3,2,1,0} add(%convert_element_type.106, %mul.115), metadata={op_name="checkpoint/layers/add" stack_frame_id=84}
  %iota.20 = f32[131072]{0} iota(), iota_dimension=0, metadata={op_name="checkpoint/layers/iota" stack_frame_id=87}
  %broadcast_in_dim.123 = f32[131072,1]{1,0} reshape(%iota.20), metadata={op_name="checkpoint/layers/broadcast_in_dim" stack_frame_id=88}
  %mul.107 = f32[131072,1]{1,0} broadcast(%broadcast_in_dim.123), dimensions={0,1}, metadata={op_name="checkpoint/layers/mul" stack_frame_id=88}
  %mul.108 = f32[131072]{0} reshape(%mul.107), metadata={op_name="checkpoint/layers/mul" stack_frame_id=88}
  %mul.109 = f32[131072,32]{1,0} broadcast(%mul.108), dimensions={0}, metadata={op_name="checkpoint/layers/mul" stack_frame_id=88}
  %constant.148 = f32[] constant(1)
  %broadcast.71 = f32[32]{0} broadcast(%constant.148), dimensions={}
  %constant.149 = f32[] constant(150000)
  %broadcast.72 = f32[32]{0} broadcast(%constant.149), dimensions={}
  %iota.18 = f32[32]{0} iota(), iota_dimension=0, metadata={op_name="checkpoint/layers/iota" stack_frame_id=89}
  %constant.151 = f32[] constant(2)
  %broadcast.74 = f32[32]{0} broadcast(%constant.151), dimensions={}
  %mul.104 = f32[32]{0} multiply(%iota.18, %broadcast.74), metadata={op_name="checkpoint/layers/mul" stack_frame_id=90}
  %constant.150 = f32[] constant(64)
  %broadcast.73 = f32[32]{0} broadcast(%constant.150), dimensions={}
  %div.35 = f32[32]{0} divide(%mul.104, %broadcast.73), metadata={op_name="checkpoint/layers/div" stack_frame_id=90}
  %pow.4 = f32[32]{0} power(%broadcast.72, %div.35), metadata={op_name="checkpoint/layers/pow" stack_frame_id=91}
  %div.36 = f32[32]{0} divide(%broadcast.71, %pow.4), metadata={op_name="checkpoint/layers/div" stack_frame_id=92}
  %constant.145 = f32[] constant(32)
  %broadcast.68 = f32[32]{0} broadcast(%constant.145), dimensions={}
  %div.38 = f32[32]{0} divide(%div.36, %broadcast.68), metadata={op_name="checkpoint/layers/div" stack_frame_id=93}
  %iota.19 = f32[32]{0} iota(), iota_dimension=0, metadata={op_name="checkpoint/layers/iota" stack_frame_id=95}
  %constant.147 = f32[] constant(8.09277916)
  %broadcast.70 = f32[32]{0} broadcast(%constant.147), dimensions={}
  %sub.44 = f32[32]{0} subtract(%iota.19, %broadcast.70), metadata={op_name="checkpoint/layers/sub" stack_frame_id=95}
  %constant.146 = f32[] constant(9.3052454)
  %broadcast.69 = f32[32]{0} broadcast(%constant.146), dimensions={}
  %div.37 = f32[32]{0} divide(%sub.44, %broadcast.69), metadata={op_name="checkpoint/layers/div" stack_frame_id=96}
  %constant.164 = s32[] constant(0)
  %constant.163 = s32[] constant(1)
  %jit_clip_.8 = f32[32]{0} call(%div.37, %constant.164, %constant.163), to_apply=%clip.19, metadata={op_name="checkpoint/layers/jit(clip)" stack_frame_id=97}
  %sub.45 = f32[32]{0} subtract(%broadcast.71, %jit_clip_.8), metadata={op_name="checkpoint/layers/sub" stack_frame_id=98}
  %sub.46 = f32[32]{0} subtract(%broadcast.71, %sub.45), metadata={op_name="checkpoint/layers/sub" stack_frame_id=99}
  %mul.105 = f32[32]{0} multiply(%div.38, %sub.46), metadata={op_name="checkpoint/layers/mul" stack_frame_id=93}
  %mul.106 = f32[32]{0} multiply(%div.36, %sub.45), metadata={op_name="checkpoint/layers/mul" stack_frame_id=100}
  %add.126 = f32[32]{0} add(%mul.105, %mul.106), metadata={op_name="checkpoint/layers/add" stack_frame_id=93}
  %broadcast_in_dim.124 = f32[1,32]{1,0} reshape(%add.126), metadata={op_name="checkpoint/layers/broadcast_in_dim" stack_frame_id=88}
  %mul.110 = f32[1,32]{1,0} broadcast(%broadcast_in_dim.124), dimensions={0,1}, metadata={op_name="checkpoint/layers/mul" stack_frame_id=88}
  %mul.111 = f32[32]{0} reshape(%mul.110), metadata={op_name="checkpoint/layers/mul" stack_frame_id=88}
  %mul.112 = f32[131072,32]{1,0} broadcast(%mul.111), dimensions={1}, metadata={op_name="checkpoint/layers/mul" stack_frame_id=88}
  %mul.113 = f32[131072,32]{1,0} multiply(%mul.109, %mul.112), metadata={op_name="checkpoint/layers/mul" stack_frame_id=88}
  %convert_element_type.104 = c64[131072,32]{1,0} convert(%mul.113), metadata={op_name="checkpoint/layers/convert_element_type" stack_frame_id=101}
  %constant.144 = c64[] constant((0, 1))
  %broadcast.67 = c64[131072,32]{1,0} broadcast(%constant.144), dimensions={}
  %mul.114 = c64[131072,32]{1,0} multiply(%convert_element_type.104, %broadcast.67), metadata={op_name="checkpoint/layers/mul" stack_frame_id=101}
  %exp.92 = f32[131072,32]{1,0} real(%mul.114), metadata={op_name="checkpoint/layers/exp" stack_frame_id=102}
  %exp.93 = f32[131072,32]{1,0} exponential(%exp.92), metadata={op_name="checkpoint/layers/exp" stack_frame_id=102}
  %constant.156 = f32[] constant(inf)
  %broadcast.79 = f32[131072,32]{1,0} broadcast(%constant.156), dimensions={}
  %exp.94 = pred[131072,32]{1,0} compare(%exp.93, %broadcast.79), direction=EQ, metadata={op_name="checkpoint/layers/exp" stack_frame_id=102}
  %constant.155 = f32[] constant(0.5)
  %broadcast.78 = f32[131072,32]{1,0} broadcast(%constant.155), dimensions={}
  %exp.95 = f32[131072,32]{1,0} multiply(%exp.92, %broadcast.78), metadata={op_name="checkpoint/layers/exp" stack_frame_id=102}
  %exp.96 = f32[131072,32]{1,0} exponential(%exp.95), metadata={op_name="checkpoint/layers/exp" stack_frame_id=102}
  %exp.97 = f32[131072,32]{1,0} imag(%mul.114), metadata={op_name="checkpoint/layers/exp" stack_frame_id=102}
  %exp.98 = f32[131072,32]{1,0} cosine(%exp.97), metadata={op_name="checkpoint/layers/exp" stack_frame_id=102}
  %exp.99 = f32[131072,32]{1,0} multiply(%exp.96, %exp.98), metadata={op_name="checkpoint/layers/exp" stack_frame_id=102}
  %exp.100 = f32[131072,32]{1,0} multiply(%exp.99, %exp.96), metadata={op_name="checkpoint/layers/exp" stack_frame_id=102}
  %exp.101 = f32[131072,32]{1,0} multiply(%exp.93, %exp.98), metadata={op_name="checkpoint/layers/exp" stack_frame_id=102}
  %exp.102 = f32[131072,32]{1,0} select(%exp.94, %exp.100, %exp.101), metadata={op_name="checkpoint/layers/exp" stack_frame_id=102}
  %constant.154 = f32[] constant(0)
  %broadcast.77 = f32[131072,32]{1,0} broadcast(%constant.154), dimensions={}
  %exp.103 = pred[131072,32]{1,0} compare(%exp.97, %broadcast.77), direction=EQ, metadata={op_name="checkpoint/layers/exp" stack_frame_id=102}
  %exp.104 = f32[131072,32]{1,0} sine(%exp.97), metadata={op_name="checkpoint/layers/exp" stack_frame_id=102}
  %exp.105 = f32[131072,32]{1,0} multiply(%exp.96, %exp.104), metadata={op_name="checkpoint/layers/exp" stack_frame_id=102}
  %exp.106 = f32[131072,32]{1,0} multiply(%exp.105, %exp.96), metadata={op_name="checkpoint/layers/exp" stack_frame_id=102}
  %exp.107 = f32[131072,32]{1,0} multiply(%exp.93, %exp.104), metadata={op_name="checkpoint/layers/exp" stack_frame_id=102}
  %exp.108 = f32[131072,32]{1,0} select(%exp.94, %exp.106, %exp.107), metadata={op_name="checkpoint/layers/exp" stack_frame_id=102}
  %exp.109 = f32[131072,32]{1,0} select(%exp.103, %broadcast.77, %exp.108), metadata={op_name="checkpoint/layers/exp" stack_frame_id=102}
  %exp.110 = c64[131072,32]{1,0} complex(%exp.102, %exp.109), metadata={op_name="checkpoint/layers/exp" stack_frame_id=102}
  %Arg_2.19 = s32[8,1]{1,0} parameter(2)
  %constant.143 = s32[] constant(0)
  %broadcast.66 = s32[8,1]{1,0} broadcast(%constant.143), dimensions={}
  %lt.19 = pred[8,1]{1,0} compare(%Arg_2.19, %broadcast.66), direction=LT, metadata={op_name="checkpoint/layers/lt" stack_frame_id=86}
  %constant.142 = s32[] constant(131072)
  %broadcast.65 = s32[8,1]{1,0} broadcast(%constant.142), dimensions={}
  %add.127 = s32[8,1]{1,0} add(%Arg_2.19, %broadcast.65), metadata={op_name="checkpoint/layers/add" stack_frame_id=86}
  %select_n.27 = s32[8,1]{1,0} select(%lt.19, %add.127, %Arg_2.19), metadata={op_name="checkpoint/layers/select_n" stack_frame_id=86}
  %broadcast_in_dim.125 = s32[8,1,1]{2,1,0} reshape(%select_n.27), metadata={op_name="checkpoint/layers/broadcast_in_dim" stack_frame_id=86}
  %gather.5 = c64[8,1,32]{2,1,0} gather(%exp.110, %broadcast_in_dim.125), offset_dims={2}, collapsed_slice_dims={0}, start_index_map={0}, index_vector_dim=2, slice_sizes={1,32}, metadata={op_name="checkpoint/layers/gather" stack_frame_id=86}
  %broadcast_in_dim.126 = c64[8,1,1,32]{3,2,1,0} reshape(%gather.5), metadata={op_name="checkpoint/layers/broadcast_in_dim" stack_frame_id=103}
  %broadcast_in_dim.127 = c64[8,1,1,32]{3,2,1,0} broadcast(%broadcast_in_dim.126), dimensions={0,1,2,3}, metadata={op_name="checkpoint/layers/broadcast_in_dim" stack_frame_id=104}
  %broadcast_in_dim.128 = c64[8,1,32]{2,1,0} reshape(%broadcast_in_dim.127), metadata={op_name="checkpoint/layers/broadcast_in_dim" stack_frame_id=104}
  %broadcast_in_dim.129 = c64[8,1,64,32]{3,2,1,0} broadcast(%broadcast_in_dim.128), dimensions={0,1,3}, metadata={op_name="checkpoint/layers/broadcast_in_dim" stack_frame_id=104}
  %mul.116 = c64[8,1,64,32]{3,2,1,0} multiply(%add.128, %broadcast_in_dim.129), metadata={op_name="checkpoint/layers/mul" stack_frame_id=105}
  %real.4 = f32[8,1,64,32]{3,2,1,0} real(%mul.116), metadata={op_name="checkpoint/layers/real" stack_frame_id=106}
  %imag.4 = f32[8,1,64,32]{3,2,1,0} imag(%mul.116), metadata={op_name="checkpoint/layers/imag" stack_frame_id=107}
  %concatenate.8 = f32[8,1,64,64]{3,2,1,0} concatenate(%real.4, %imag.4), dimensions={3}, metadata={op_name="checkpoint/layers/concatenate" stack_frame_id=108}
  %constant.140 = f32[] constant(1.34657359)
  %broadcast.63 = f32[8,1,64,64]{3,2,1,0} broadcast(%constant.140), dimensions={}
  %mul.117 = f32[8,1,64,64]{3,2,1,0} multiply(%concatenate.8, %broadcast.63), metadata={op_name="checkpoint/layers/mul" stack_frame_id=109}
  %convert_element_type.107 = bf16[8,1,64,64]{3,2,1,0} convert(%mul.117), metadata={op_name="checkpoint/layers/convert_element_type" stack_frame_id=110}
  %constant.137 = bf16[] constant(0.125)
  %broadcast.60 = bf16[8,1,64,64]{3,2,1,0} broadcast(%constant.137), dimensions={}
  %mul.132 = bf16[8,1,64,64]{3,2,1,0} multiply(%convert_element_type.107, %broadcast.60), metadata={op_name="checkpoint/layers/mul" stack_frame_id=111}
  %sharding_constraint.22 = bf16[8,1,64,64]{3,2,1,0} custom-call(%mul.132), custom_call_target="Sharding", sharding={devices=[1,1,8,1]<=[8]}, frontend_attributes={xla.sdy.sharding="#sdy.sharding_per_value<[<@mesh, [{}, {}, {\"tensor\"}, {}]>]>"}, metadata={op_name="checkpoint/layers/sharding_constraint" stack_frame_id=114}
  %reshape.16 = bf16[8,1,8,8,64]{4,3,2,1,0} reshape(%sharding_constraint.22), metadata={op_name="checkpoint/layers/reshape" stack_frame_id=116}
  %dot_general.34 = bf16[8,8,64,1,8]{4,3,2,1,0} dot(%transpose.71, %reshape.16), lhs_batch_dims={0,2}, lhs_contracting_dims={3}, rhs_batch_dims={0,2}, rhs_contracting_dims={4}, metadata={op_name="checkpoint/layers/btkgd,bskd->bkgts/dot_general" stack_frame_id=117}
  %transpose.75 = bf16[8,8,8,1,64]{2,3,4,1,0} transpose(%dot_general.34), dimensions={0,1,4,3,2}, metadata={op_name="checkpoint/layers/btkgd,bskd->bkgts/transpose" stack_frame_id=117}
  %jit__where_.11 = bf16[8,8,8,1,64]{4,3,2,1,0} call(%ge.4, %transpose.75, %constant.161), to_apply=%_where_18.26, metadata={op_name="checkpoint/layers/jit(_where)" stack_frame_id=118}
  %reshape.17 = bf16[8,64,1,64]{3,2,1,0} reshape(%jit__where_.11), metadata={op_name="checkpoint/layers/reshape" stack_frame_id=119}
  %Arg_10.1 = f32[64]{0} parameter(10)
  %convert_element_type.112 = bf16[64]{0} convert(%Arg_10.1), metadata={op_name="checkpoint/layers/convert_element_type" stack_frame_id=120}
  %broadcast_in_dim.139 = bf16[1,64,1,1]{3,2,1,0} reshape(%convert_element_type.112), metadata={op_name="checkpoint/layers/broadcast_in_dim" stack_frame_id=121}
  %broadcast_in_dim.140 = bf16[1,64,1,1]{3,2,1,0} broadcast(%broadcast_in_dim.139), dimensions={0,1,2,3}, metadata={op_name="checkpoint/layers/broadcast_in_dim" stack_frame_id=122}
  %broadcast_in_dim.141 = bf16[64,1,1]{2,1,0} reshape(%broadcast_in_dim.140), metadata={op_name="checkpoint/layers/broadcast_in_dim" stack_frame_id=122}
  %broadcast_in_dim.142 = bf16[8,64,1,1]{3,2,1,0} broadcast(%broadcast_in_dim.141), dimensions={1,2,3}, metadata={op_name="checkpoint/layers/broadcast_in_dim" stack_frame_id=122}
  %concatenate.10 = bf16[8,64,1,65]{3,2,1,0} concatenate(%reshape.17, %broadcast_in_dim.142), dimensions={3}, metadata={op_name="checkpoint/layers/concatenate" stack_frame_id=123}
  %constant.160 = bf16[] constant(-inf)
  %reduce_max.42 = bf16[8,64,1]{2,1,0} reduce(%concatenate.10, %constant.160), dimensions={3}, to_apply=%region_3.27, metadata={op_name="checkpoint/layers/reduce_max" stack_frame_id=30}
  %broadcast_in_dim.145 = bf16[8,1,64,1]{3,2,1,0} reshape(%reduce_max.42), metadata={op_name="checkpoint/layers/transpose;checkpoint/layers/broadcast_in_dim"}
  %iota.26 = s32[1984]{0} iota(), iota_dimension=0, metadata={op_name="checkpoint/layers/iota" stack_frame_id=125}
  %iota.27 = s32[1,1984]{1,0} reshape(%iota.26), metadata={op_name="checkpoint/layers/iota" stack_frame_id=125}
  %constant.127 = s32[] constant(1855)
  %gt.4 = s32[1,1984]{1,0} broadcast(%constant.127), dimensions={}, metadata={op_name="checkpoint/layers/gt" stack_frame_id=126}
  %gt.7 = pred[1,1984]{1,0} compare(%iota.27, %gt.4), direction=GT, metadata={op_name="checkpoint/layers/gt" stack_frame_id=126}
  %constant.126 = s32[] constant(1983)
  %le.4 = s32[1,1984]{1,0} broadcast(%constant.126), dimensions={}, metadata={op_name="checkpoint/layers/le" stack_frame_id=127}
  %le.7 = pred[1,1984]{1,0} compare(%iota.27, %le.4), direction=LE, metadata={op_name="checkpoint/layers/le" stack_frame_id=127}
  %and.17 = pred[1,1984]{1,0} and(%gt.7, %le.7), metadata={op_name="checkpoint/layers/and" stack_frame_id=128}
  %broadcast_in_dim.147 = pred[1,1,1,1,1984]{4,3,2,1,0} reshape(%and.17), metadata={op_name="checkpoint/layers/broadcast_in_dim" stack_frame_id=129}
  %and.18 = pred[1,1,1,1,1984]{4,3,2,1,0} broadcast(%broadcast_in_dim.147), dimensions={0,1,2,3,4}, metadata={op_name="checkpoint/layers/and" stack_frame_id=129}
  %and.19 = pred[1,1,1,1984]{3,2,1,0} reshape(%and.18), metadata={op_name="checkpoint/layers/and" stack_frame_id=129}
  %and.20 = pred[8,1,1,1,1984]{4,3,2,1,0} broadcast(%and.19), dimensions={1,2,3,4}, metadata={op_name="checkpoint/layers/and" stack_frame_id=129}
  %Arg_43.1 = s32[8,1984]{1,0} parameter(43)
  %constant.136 = s32[] constant(1)
  %broadcast.59 = s32[8,1]{1,0} broadcast(%constant.136), dimensions={}
  %Arg_42.1 = s32[1]{0} parameter(42)
  %squeeze.39 = s32[] reshape(%Arg_42.1), metadata={op_name="checkpoint/layers/squeeze" stack_frame_id=130}
  %jit_dynamic_update_index_in_dim_.8 = s32[8,1984]{1,0} call(%Arg_43.1, %broadcast.59, %squeeze.39), to_apply=%dynamic_update_index_in_dim_16.21, metadata={op_name="checkpoint/layers/jit(dynamic_update_index_in_dim)" stack_frame_id=131}
  %broadcast_in_dim.146 = s32[8,1,1,1,1984]{4,3,2,1,0} reshape(%jit_dynamic_update_index_in_dim_.8), metadata={op_name="checkpoint/layers/broadcast_in_dim" stack_frame_id=132}
  %constant.128 = s32[] constant(1)
  %broadcast.55 = s32[8,1,1,1,1984]{4,3,2,1,0} broadcast(%constant.128), dimensions={}
  %eq.7 = pred[8,1,1,1,1984]{4,3,2,1,0} compare(%broadcast_in_dim.146, %broadcast.55), direction=EQ, metadata={op_name="checkpoint/layers/eq" stack_frame_id=132}
  %and.21 = pred[8,1,1,1,1984]{4,3,2,1,0} and(%and.20, %eq.7), metadata={op_name="checkpoint/layers/and" stack_frame_id=129}
  %jit__where_.12 = f32[8,1,1,1,1984]{4,3,2,1,0} call(%and.21, %constant.165, %constant.161), to_apply=%_where_19.29, metadata={op_name="checkpoint/layers/jit(_where)" stack_frame_id=133}
  %constant.125 = f32[] constant(-1.19098816e+38)
  %broadcast.54 = f32[8,1,1,1,1984]{4,3,2,1,0} broadcast(%constant.125), dimensions={}
  %ge.5 = pred[8,1,1,1,1984]{4,3,2,1,0} compare(%jit__where_.12, %broadcast.54), direction=GE, metadata={op_name="checkpoint/layers/ge" stack_frame_id=135}
  %Arg_45.1 = bf16[1984,8,8,64]{3,2,1,0} parameter(45)
  %sharding_constraint.21 = bf16[8,1,2880]{2,1,0} custom-call(%transpose.68), custom_call_target="Sharding", sharding={devices=[1,1,8]<=[8]}, frontend_attributes={xla.sdy.sharding="#sdy.sharding_per_value<[<@mesh, [{}, {}, {\"tensor\"}]>]>"}, metadata={op_name="checkpoint/layers/sharding_constraint" stack_frame_id=138}
  %Arg_5.1 = f32[2880,8,64]{2,1,0} parameter(5)
  %convert_element_type.100 = bf16[2880,8,64]{2,1,0} convert(%Arg_5.1), metadata={op_name="checkpoint/layers/convert_element_type" stack_frame_id=142}
  %dot_general.32 = bf16[8,1,8,64]{3,2,1,0} dot(%sharding_constraint.21, %convert_element_type.100), lhs_contracting_dims={2}, rhs_contracting_dims={0}, metadata={op_name="checkpoint/layers/dot_general" stack_frame_id=144}
  %Arg_4.1 = f32[8,64]{1,0} parameter(4)
  %convert_element_type.101 = bf16[8,64]{1,0} convert(%Arg_4.1), metadata={op_name="checkpoint/layers/convert_element_type" stack_frame_id=145}
  %broadcast_in_dim.121 = bf16[1,1,8,64]{3,2,1,0} reshape(%convert_element_type.101), metadata={op_name="checkpoint/layers/broadcast_in_dim" stack_frame_id=146}
  %add.118 = bf16[1,1,8,64]{3,2,1,0} broadcast(%broadcast_in_dim.121), dimensions={0,1,2,3}, metadata={op_name="checkpoint/layers/add" stack_frame_id=146}
  %add.119 = bf16[1,8,64]{2,1,0} reshape(%add.118), metadata={op_name="checkpoint/layers/add" stack_frame_id=146}
  %add.120 = bf16[8,1,8,64]{3,2,1,0} broadcast(%add.119), dimensions={1,2,3}, metadata={op_name="checkpoint/layers/add" stack_frame_id=146}
  %add.121 = bf16[8,1,8,64]{3,2,1,0} add(%dot_general.32, %add.120), metadata={op_name="checkpoint/layers/add" stack_frame_id=146}
  %split.10 = bf16[8,1,8,32]{3,2,1,0} slice(%add.121), slice={[0:8], [0:1], [0:8], [0:32]}, metadata={op_name="checkpoint/layers/split" stack_frame_id=150}
  %convert_element_type.110 = c64[8,1,8,32]{3,2,1,0} convert(%split.10), metadata={op_name="checkpoint/layers/convert_element_type" stack_frame_id=151}
  %split.11 = bf16[8,1,8,32]{3,2,1,0} slice(%add.121), slice={[0:8], [0:1], [0:8], [32:64]}, metadata={op_name="checkpoint/layers/split" stack_frame_id=150}
  %convert_element_type.109 = c64[8,1,8,32]{3,2,1,0} convert(%split.11), metadata={op_name="checkpoint/layers/convert_element_type" stack_frame_id=152}
  %constant.139 = c64[] constant((0, 1))
  %broadcast.62 = c64[8,1,8,32]{3,2,1,0} broadcast(%constant.139), dimensions={}
  %mul.129 = c64[8,1,8,32]{3,2,1,0} multiply(%convert_element_type.109, %broadcast.62), metadata={op_name="checkpoint/layers/mul" stack_frame_id=152}
  %add.131 = c64[8,1,8,32]{3,2,1,0} add(%convert_element_type.110, %mul.129), metadata={op_name="checkpoint/layers/add" stack_frame_id=151}
  %iota.23 = f32[131072]{0} iota(), iota_dimension=0, metadata={op_name="checkpoint/layers/iota" stack_frame_id=154}
  %broadcast_in_dim.130 = f32[131072,1]{1,0} reshape(%iota.23), metadata={op_name="checkpoint/layers/broadcast_in_dim" stack_frame_id=155}
  %mul.121 = f32[131072,1]{1,0} broadcast(%broadcast_in_dim.130), dimensions={0,1}, metadata={op_name="checkpoint/layers/mul" stack_frame_id=155}
  %mul.122 = f32[131072]{0} reshape(%mul.121), metadata={op_name="checkpoint/layers/mul" stack_frame_id=155}
  %mul.123 = f32[131072,32]{1,0} broadcast(%mul.122), dimensions={0}, metadata={op_name="checkpoint/layers/mul" stack_frame_id=155}
  %iota.21 = f32[32]{0} iota(), iota_dimension=0, metadata={op_name="checkpoint/layers/iota" stack_frame_id=156}
  %mul.118 = f32[32]{0} multiply(%iota.21, %broadcast.74), metadata={op_name="checkpoint/layers/mul" stack_frame_id=157}
  %div.39 = f32[32]{0} divide(%mul.118, %broadcast.73), metadata={op_name="checkpoint/layers/div" stack_frame_id=157}
  %pow.5 = f32[32]{0} power(%broadcast.72, %div.39), metadata={op_name="checkpoint/layers/pow" stack_frame_id=158}
  %div.40 = f32[32]{0} divide(%broadcast.71, %pow.5), metadata={op_name="checkpoint/layers/div" stack_frame_id=159}
  %div.42 = f32[32]{0} divide(%div.40, %broadcast.68), metadata={op_name="checkpoint/layers/div" stack_frame_id=160}
  %iota.22 = f32[32]{0} iota(), iota_dimension=0, metadata={op_name="checkpoint/layers/iota" stack_frame_id=162}
  %sub.47 = f32[32]{0} subtract(%iota.22, %broadcast.70), metadata={op_name="checkpoint/layers/sub" stack_frame_id=162}
  %div.41 = f32[32]{0} divide(%sub.47, %broadcast.69), metadata={op_name="checkpoint/layers/div" stack_frame_id=163}
  %jit_clip_.9 = f32[32]{0} call(%div.41, %constant.164, %constant.163), to_apply=%clip.19, metadata={op_name="checkpoint/layers/jit(clip)" stack_frame_id=164}
  %sub.48 = f32[32]{0} subtract(%broadcast.71, %jit_clip_.9), metadata={op_name="checkpoint/layers/sub" stack_frame_id=165}
  %sub.49 = f32[32]{0} subtract(%broadcast.71, %sub.48), metadata={op_name="checkpoint/layers/sub" stack_frame_id=166}
  %mul.119 = f32[32]{0} multiply(%div.42, %sub.49), metadata={op_name="checkpoint/layers/mul" stack_frame_id=160}
  %mul.120 = f32[32]{0} multiply(%div.40, %sub.48), metadata={op_name="checkpoint/layers/mul" stack_frame_id=167}
  %add.129 = f32[32]{0} add(%mul.119, %mul.120), metadata={op_name="checkpoint/layers/add" stack_frame_id=160}
  %broadcast_in_dim.131 = f32[1,32]{1,0} reshape(%add.129), metadata={op_name="checkpoint/layers/broadcast_in_dim" stack_frame_id=155}
  %mul.124 = f32[1,32]{1,0} broadcast(%broadcast_in_dim.131), dimensions={0,1}, metadata={op_name="checkpoint/layers/mul" stack_frame_id=155}
  %mul.125 = f32[32]{0} reshape(%mul.124), metadata={op_name="checkpoint/layers/mul" stack_frame_id=155}
  %mul.126 = f32[131072,32]{1,0} broadcast(%mul.125), dimensions={1}, metadata={op_name="checkpoint/layers/mul" stack_frame_id=155}
  %mul.127 = f32[131072,32]{1,0} multiply(%mul.123, %mul.126), metadata={op_name="checkpoint/layers/mul" stack_frame_id=155}
  %convert_element_type.108 = c64[131072,32]{1,0} convert(%mul.127), metadata={op_name="checkpoint/layers/convert_element_type" stack_frame_id=168}
  %mul.128 = c64[131072,32]{1,0} multiply(%convert_element_type.108, %broadcast.67), metadata={op_name="checkpoint/layers/mul" stack_frame_id=168}
  %exp.111 = f32[131072,32]{1,0} real(%mul.128), metadata={op_name="checkpoint/layers/exp" stack_frame_id=169}
  %exp.112 = f32[131072,32]{1,0} exponential(%exp.111), metadata={op_name="checkpoint/layers/exp" stack_frame_id=169}
  %exp.113 = pred[131072,32]{1,0} compare(%exp.112, %broadcast.79), direction=EQ, metadata={op_name="checkpoint/layers/exp" stack_frame_id=169}
  %exp.114 = f32[131072,32]{1,0} multiply(%exp.111, %broadcast.78), metadata={op_name="checkpoint/layers/exp" stack_frame_id=169}
  %exp.115 = f32[131072,32]{1,0} exponential(%exp.114), metadata={op_name="checkpoint/layers/exp" stack_frame_id=169}
  %exp.116 = f32[131072,32]{1,0} imag(%mul.128), metadata={op_name="checkpoint/layers/exp" stack_frame_id=169}
  %exp.117 = f32[131072,32]{1,0} cosine(%exp.116), metadata={op_name="checkpoint/layers/exp" stack_frame_id=169}
  %exp.118 = f32[131072,32]{1,0} multiply(%exp.115, %exp.117), metadata={op_name="checkpoint/layers/exp" stack_frame_id=169}
  %exp.119 = f32[131072,32]{1,0} multiply(%exp.118, %exp.115), metadata={op_name="checkpoint/layers/exp" stack_frame_id=169}
  %exp.120 = f32[131072,32]{1,0} multiply(%exp.112, %exp.117), metadata={op_name="checkpoint/layers/exp" stack_frame_id=169}
  %exp.121 = f32[131072,32]{1,0} select(%exp.113, %exp.119, %exp.120), metadata={op_name="checkpoint/layers/exp" stack_frame_id=169}
  %exp.122 = pred[131072,32]{1,0} compare(%exp.116, %broadcast.77), direction=EQ, metadata={op_name="checkpoint/layers/exp" stack_frame_id=169}
  %exp.123 = f32[131072,32]{1,0} sine(%exp.116), metadata={op_name="checkpoint/layers/exp" stack_frame_id=169}
  %exp.124 = f32[131072,32]{1,0} multiply(%exp.115, %exp.123), metadata={op_name="checkpoint/layers/exp" stack_frame_id=169}
  %exp.125 = f32[131072,32]{1,0} multiply(%exp.124, %exp.115), metadata={op_name="checkpoint/layers/exp" stack_frame_id=169}
  %exp.126 = f32[131072,32]{1,0} multiply(%exp.112, %exp.123), metadata={op_name="checkpoint/layers/exp" stack_frame_id=169}
  %exp.127 = f32[131072,32]{1,0} select(%exp.113, %exp.125, %exp.126), metadata={op_name="checkpoint/layers/exp" stack_frame_id=169}
  %exp.128 = f32[131072,32]{1,0} select(%exp.122, %broadcast.77, %exp.127), metadata={op_name="checkpoint/layers/exp" stack_frame_id=169}
  %exp.129 = c64[131072,32]{1,0} complex(%exp.121, %exp.128), metadata={op_name="checkpoint/layers/exp" stack_frame_id=169}
  %lt.20 = pred[8,1]{1,0} compare(%Arg_2.19, %broadcast.66), direction=LT, metadata={op_name="checkpoint/layers/lt" stack_frame_id=153}
  %add.130 = s32[8,1]{1,0} add(%Arg_2.19, %broadcast.65), metadata={op_name="checkpoint/layers/add" stack_frame_id=153}
  %select_n.28 = s32[8,1]{1,0} select(%lt.20, %add.130, %Arg_2.19), metadata={op_name="checkpoint/layers/select_n" stack_frame_id=153}
  %broadcast_in_dim.132 = s32[8,1,1]{2,1,0} reshape(%select_n.28), metadata={op_name="checkpoint/layers/broadcast_in_dim" stack_frame_id=153}
  %gather.6 = c64[8,1,32]{2,1,0} gather(%exp.129, %broadcast_in_dim.132), offset_dims={2}, collapsed_slice_dims={0}, start_index_map={0}, index_vector_dim=2, slice_sizes={1,32}, metadata={op_name="checkpoint/layers/gather" stack_frame_id=153}
  %broadcast_in_dim.133 = c64[8,1,1,32]{3,2,1,0} reshape(%gather.6), metadata={op_name="checkpoint/layers/broadcast_in_dim" stack_frame_id=170}
  %broadcast_in_dim.134 = c64[8,1,1,32]{3,2,1,0} broadcast(%broadcast_in_dim.133), dimensions={0,1,2,3}, metadata={op_name="checkpoint/layers/broadcast_in_dim" stack_frame_id=171}
  %broadcast_in_dim.135 = c64[8,1,32]{2,1,0} reshape(%broadcast_in_dim.134), metadata={op_name="checkpoint/layers/broadcast_in_dim" stack_frame_id=171}
  %broadcast_in_dim.136 = c64[8,1,8,32]{3,2,1,0} broadcast(%broadcast_in_dim.135), dimensions={0,1,3}, metadata={op_name="checkpoint/layers/broadcast_in_dim" stack_frame_id=171}
  %mul.130 = c64[8,1,8,32]{3,2,1,0} multiply(%add.131, %broadcast_in_dim.136), metadata={op_name="checkpoint/layers/mul" stack_frame_id=172}
  %real.5 = f32[8,1,8,32]{3,2,1,0} real(%mul.130), metadata={op_name="checkpoint/layers/real" stack_frame_id=173}
  %imag.5 = f32[8,1,8,32]{3,2,1,0} imag(%mul.130), metadata={op_name="checkpoint/layers/imag" stack_frame_id=174}
  %concatenate.9 = f32[8,1,8,64]{3,2,1,0} concatenate(%real.5, %imag.5), dimensions={3}, metadata={op_name="checkpoint/layers/concatenate" stack_frame_id=175}
  %constant.138 = f32[] constant(1.34657359)
  %broadcast.61 = f32[8,1,8,64]{3,2,1,0} broadcast(%constant.138), dimensions={}
  %mul.131 = f32[8,1,8,64]{3,2,1,0} multiply(%concatenate.9, %broadcast.61), metadata={op_name="checkpoint/layers/mul" stack_frame_id=176}
  %convert_element_type.111 = bf16[8,1,8,64]{3,2,1,0} convert(%mul.131), metadata={op_name="checkpoint/layers/convert_element_type" stack_frame_id=177}
  %sharding_constraint.23 = bf16[8,1,8,64]{3,2,1,0} custom-call(%convert_element_type.111), custom_call_target="Sharding", sharding={devices=[1,1,8,1]<=[8]}, frontend_attributes={xla.sdy.sharding="#sdy.sharding_per_value<[<@mesh, [{}, {}, {\"tensor\"}, {}]>]>"}, metadata={op_name="checkpoint/layers/sharding_constraint" stack_frame_id=180}
  %transpose.69 = bf16[1,8,8,64]{3,1,0,2} transpose(%sharding_constraint.23), dimensions={1,2,0,3}, metadata={op_name="checkpoint/layers/transpose" stack_frame_id=182}
  %squeeze.38 = s32[] reshape(%Arg_42.1), metadata={op_name="checkpoint/layers/squeeze" stack_frame_id=183}
  %jit_dynamic_update_index_in_dim_.6 = bf16[1984,8,8,64]{3,2,1,0} call(%Arg_45.1, %transpose.69, %squeeze.38), to_apply=%dynamic_update_index_in_dim.20, metadata={op_name="checkpoint/layers/jit(dynamic_update_index_in_dim)" stack_frame_id=184}
  %transpose.73 = bf16[8,1984,8,64]{3,0,2,1} transpose(%jit_dynamic_update_index_in_dim_.6), dimensions={2,0,1,3}, metadata={op_name="checkpoint/layers/transpose" stack_frame_id=188}
  %reshape.20 = bf16[8,1,8,8,64]{4,3,2,1,0} reshape(%sharding_constraint.22), metadata={op_name="checkpoint/layers/reshape" stack_frame_id=190}
  %dot_general.36 = bf16[8,8,1984,1,8]{4,3,2,1,0} dot(%transpose.73, %reshape.20), lhs_batch_dims={0,2}, lhs_contracting_dims={3}, rhs_batch_dims={0,2}, rhs_contracting_dims={4}, metadata={op_name="checkpoint/layers/btkgd,bskd->bkgts/dot_general" stack_frame_id=191}
  %transpose.78 = bf16[8,8,8,1,1984]{2,3,4,1,0} transpose(%dot_general.36), dimensions={0,1,4,3,2}, metadata={op_name="checkpoint/layers/btkgd,bskd->bkgts/transpose" stack_frame_id=191}
  %jit__where_.13 = bf16[8,8,8,1,1984]{4,3,2,1,0} call(%ge.5, %transpose.78, %constant.161), to_apply=%_where_20.30, metadata={op_name="checkpoint/layers/jit(_where)" stack_frame_id=192}
  %reshape.21 = bf16[8,64,1,1984]{3,2,1,0} reshape(%jit__where_.13), metadata={op_name="checkpoint/layers/reshape" stack_frame_id=193}
  %reduce_max.43 = bf16[8,64,1]{2,1,0} reduce(%reshape.21, %constant.160), dimensions={3}, to_apply=%region_5.31, metadata={op_name="checkpoint/layers/reduce_max" stack_frame_id=35}
  %broadcast_in_dim.150 = bf16[8,1,64,1]{3,2,1,0} reshape(%reduce_max.43), metadata={op_name="checkpoint/layers/transpose;checkpoint/layers/broadcast_in_dim"}
  %max.12 = bf16[8,1,64,1]{3,2,1,0} maximum(%broadcast_in_dim.145, %broadcast_in_dim.150), metadata={op_name="checkpoint/layers/max" stack_frame_id=195}
  %sub.60 = bf16[8,1,64,1]{3,2,1,0} subtract(%broadcast_in_dim.145, %max.12), metadata={op_name="checkpoint/layers/sub" stack_frame_id=196}
  %exp.134 = bf16[8,1,64,1]{3,2,1,0} exponential(%sub.60), metadata={op_name="checkpoint/layers/exp" stack_frame_id=197}
  %sub.58 = bf16[8,1,64,1]{3,2,1,0} subtract(%broadcast_in_dim.145, %max.12), metadata={op_name="checkpoint/layers/sub" stack_frame_id=199}
  %exp.132 = bf16[8,1,64,1]{3,2,1,0} exponential(%sub.58), metadata={op_name="checkpoint/layers/exp" stack_frame_id=200}
  %broadcast_in_dim.143 = bf16[8,64,1,1]{3,2,1,0} reshape(%reduce_max.42), metadata={op_name="checkpoint/layers/broadcast_in_dim" stack_frame_id=30}
  %sub.50 = bf16[8,64,1,1]{3,2,1,0} broadcast(%broadcast_in_dim.143), dimensions={0,1,2,3}, metadata={op_name="checkpoint/layers/sub" stack_frame_id=201}
  %sub.51 = bf16[8,64,1]{2,1,0} reshape(%sub.50), metadata={op_name="checkpoint/layers/sub" stack_frame_id=201}
  %sub.52 = bf16[8,64,1,65]{3,2,1,0} broadcast(%sub.51), dimensions={0,1,2}, metadata={op_name="checkpoint/layers/sub" stack_frame_id=201}
  %sub.53 = bf16[8,64,1,65]{3,2,1,0} subtract(%concatenate.10, %sub.52), metadata={op_name="checkpoint/layers/sub" stack_frame_id=201}
  %exp.130 = bf16[8,64,1,65]{3,2,1,0} exponential(%sub.53), metadata={op_name="checkpoint/layers/exp" stack_frame_id=202}
  %convert_element_type.113 = f32[8,64,1,65]{3,2,1,0} convert(%exp.130), metadata={op_name="checkpoint/layers/convert_element_type" stack_frame_id=31}
  %reduce_sum.71 = f32[8,64,1]{2,1,0} reduce(%convert_element_type.113, %constant.165), dimensions={3}, to_apply=%region_4.28, metadata={op_name="checkpoint/layers/reduce_sum" stack_frame_id=31}
  %broadcast_in_dim.144 = f32[8,64,1,1]{3,2,1,0} reshape(%reduce_sum.71), metadata={op_name="checkpoint/layers/broadcast_in_dim" stack_frame_id=31}
  %convert_element_type.114 = bf16[8,64,1,1]{3,2,1,0} convert(%broadcast_in_dim.144), metadata={op_name="checkpoint/layers/convert_element_type" stack_frame_id=31}
  %transpose.76 = bf16[8,1,64,1]{3,2,1,0} reshape(%convert_element_type.114), metadata={op_name="checkpoint/layers/transpose" stack_frame_id=203}
  %mul.133 = bf16[8,1,64,1]{3,2,1,0} multiply(%exp.132, %transpose.76), metadata={op_name="checkpoint/layers/mul" stack_frame_id=200}
  %sub.59 = bf16[8,1,64,1]{3,2,1,0} subtract(%broadcast_in_dim.150, %max.12), metadata={op_name="checkpoint/layers/sub" stack_frame_id=199}
  %exp.133 = bf16[8,1,64,1]{3,2,1,0} exponential(%sub.59), metadata={op_name="checkpoint/layers/exp" stack_frame_id=200}
  %broadcast_in_dim.148 = bf16[8,64,1,1]{3,2,1,0} reshape(%reduce_max.43), metadata={op_name="checkpoint/layers/broadcast_in_dim" stack_frame_id=35}
  %sub.54 = bf16[8,64,1,1]{3,2,1,0} broadcast(%broadcast_in_dim.148), dimensions={0,1,2,3}, metadata={op_name="checkpoint/layers/sub" stack_frame_id=204}
  %sub.55 = bf16[8,64,1]{2,1,0} reshape(%sub.54), metadata={op_name="checkpoint/layers/sub" stack_frame_id=204}
  %sub.56 = bf16[8,64,1,1984]{3,2,1,0} broadcast(%sub.55), dimensions={0,1,2}, metadata={op_name="checkpoint/layers/sub" stack_frame_id=204}
  %sub.57 = bf16[8,64,1,1984]{3,2,1,0} subtract(%reshape.21, %sub.56), metadata={op_name="checkpoint/layers/sub" stack_frame_id=204}
  %exp.131 = bf16[8,64,1,1984]{3,2,1,0} exponential(%sub.57), metadata={op_name="checkpoint/layers/exp" stack_frame_id=205}
  %convert_element_type.115 = f32[8,64,1,1984]{3,2,1,0} convert(%exp.131), metadata={op_name="checkpoint/layers/convert_element_type" stack_frame_id=36}
  %reduce_sum.72 = f32[8,64,1]{2,1,0} reduce(%convert_element_type.115, %constant.165), dimensions={3}, to_apply=%region_6.32, metadata={op_name="checkpoint/layers/reduce_sum" stack_frame_id=36}
  %broadcast_in_dim.149 = f32[8,64,1,1]{3,2,1,0} reshape(%reduce_sum.72), metadata={op_name="checkpoint/layers/broadcast_in_dim" stack_frame_id=36}
  %convert_element_type.116 = bf16[8,64,1,1]{3,2,1,0} convert(%broadcast_in_dim.149), metadata={op_name="checkpoint/layers/convert_element_type" stack_frame_id=36}
  %transpose.79 = bf16[8,1,64,1]{3,2,1,0} reshape(%convert_element_type.116), metadata={op_name="checkpoint/layers/transpose" stack_frame_id=206}
  %mul.134 = bf16[8,1,64,1]{3,2,1,0} multiply(%exp.133, %transpose.79), metadata={op_name="checkpoint/layers/mul" stack_frame_id=200}
  %add.133 = bf16[8,1,64,1]{3,2,1,0} add(%mul.133, %mul.134), metadata={op_name="checkpoint/layers/add" stack_frame_id=198}
  %div.43 = bf16[8,1,64,1]{3,2,1,0} divide(%exp.134, %add.133), metadata={op_name="checkpoint/layers/div" stack_frame_id=197}
  %mul.135 = bf16[8,1,64,1]{3,2,1,0} broadcast(%div.43), dimensions={0,1,2,3}, metadata={op_name="checkpoint/layers/mul" stack_frame_id=207}
  %mul.136 = bf16[8,1,64]{2,1,0} reshape(%mul.135), metadata={op_name="checkpoint/layers/mul" stack_frame_id=207}
  %mul.137 = bf16[8,1,64,64]{3,2,1,0} broadcast(%mul.136), dimensions={0,1,2}, metadata={op_name="checkpoint/layers/mul" stack_frame_id=207}
  %Arg_49.1 = bf16[64,8,8,64]{3,2,1,0} parameter(49)
  %transpose.72 = bf16[8,64,8,64]{3,0,2,1} transpose(%Arg_49.1), dimensions={2,0,1,3}, metadata={op_name="checkpoint/layers/transpose" stack_frame_id=211}
  %slice.2 = bf16[8,64,1,64]{3,2,1,0} slice(%exp.130), slice={[0:8], [0:64], [0:1], [0:64]}, metadata={op_name="checkpoint/layers/slice" stack_frame_id=212}
  %reshape.18 = bf16[8,8,8,1,64]{4,3,2,1,0} reshape(%slice.2), metadata={op_name="checkpoint/layers/reshape" stack_frame_id=213}
  %dot_general.35 = bf16[8,8,64,8,1]{4,3,2,1,0} dot(%transpose.72, %reshape.18), lhs_batch_dims={0,2}, lhs_contracting_dims={1}, rhs_batch_dims={0,1}, rhs_contracting_dims={4}, metadata={op_name="checkpoint/layers/bkgts,bskd->btkgd/dot_general" stack_frame_id=215}
  %transpose.77 = bf16[8,1,8,8,64]{1,3,4,2,0} transpose(%dot_general.35), dimensions={0,4,1,3,2}, metadata={op_name="checkpoint/layers/bkgts,bskd->btkgd/transpose" stack_frame_id=215}
  %reshape.19 = bf16[8,1,64,64]{3,2,1,0} reshape(%transpose.77), metadata={op_name="checkpoint/layers/reshape" stack_frame_id=216}
  %mul.138 = bf16[8,1,64,64]{3,2,1,0} multiply(%mul.137, %reshape.19), metadata={op_name="checkpoint/layers/mul" stack_frame_id=207}
  %sub.61 = bf16[8,1,64,1]{3,2,1,0} subtract(%broadcast_in_dim.150, %max.12), metadata={op_name="checkpoint/layers/sub" stack_frame_id=196}
  %exp.135 = bf16[8,1,64,1]{3,2,1,0} exponential(%sub.61), metadata={op_name="checkpoint/layers/exp" stack_frame_id=197}
  %div.44 = bf16[8,1,64,1]{3,2,1,0} divide(%exp.135, %add.133), metadata={op_name="checkpoint/layers/div" stack_frame_id=197}
  %mul.139 = bf16[8,1,64,1]{3,2,1,0} broadcast(%div.44), dimensions={0,1,2,3}, metadata={op_name="checkpoint/layers/mul" stack_frame_id=207}
  %mul.140 = bf16[8,1,64]{2,1,0} reshape(%mul.139), metadata={op_name="checkpoint/layers/mul" stack_frame_id=207}
  %mul.141 = bf16[8,1,64,64]{3,2,1,0} broadcast(%mul.140), dimensions={0,1,2}, metadata={op_name="checkpoint/layers/mul" stack_frame_id=207}
  %Arg_47.1 = bf16[1984,8,8,64]{3,2,1,0} parameter(47)
  %Arg_12.1 = f32[2880,8,64]{2,1,0} parameter(12)
  %convert_element_type.102 = bf16[2880,8,64]{2,1,0} convert(%Arg_12.1), metadata={op_name="checkpoint/layers/convert_element_type" stack_frame_id=220}
  %dot_general.33 = bf16[8,1,8,64]{3,2,1,0} dot(%sharding_constraint.21, %convert_element_type.102), lhs_contracting_dims={2}, rhs_contracting_dims={0}, metadata={op_name="checkpoint/layers/dot_general" stack_frame_id=222}
  %Arg_11.1 = f32[8,64]{1,0} parameter(11)
  %convert_element_type.103 = bf16[8,64]{1,0} convert(%Arg_11.1), metadata={op_name="checkpoint/layers/convert_element_type" stack_frame_id=223}
  %broadcast_in_dim.122 = bf16[1,1,8,64]{3,2,1,0} reshape(%convert_element_type.103), metadata={op_name="checkpoint/layers/broadcast_in_dim" stack_frame_id=224}
  %add.122 = bf16[1,1,8,64]{3,2,1,0} broadcast(%broadcast_in_dim.122), dimensions={0,1,2,3}, metadata={op_name="checkpoint/layers/add" stack_frame_id=224}
  %add.123 = bf16[1,8,64]{2,1,0} reshape(%add.122), metadata={op_name="checkpoint/layers/add" stack_frame_id=224}
  %add.124 = bf16[8,1,8,64]{3,2,1,0} broadcast(%add.123), dimensions={1,2,3}, metadata={op_name="checkpoint/layers/add" stack_frame_id=224}
  %add.125 = bf16[8,1,8,64]{3,2,1,0} add(%dot_general.33, %add.124), metadata={op_name="checkpoint/layers/add" stack_frame_id=224}
  %sharding_constraint.24 = bf16[8,1,8,64]{3,2,1,0} custom-call(%add.125), custom_call_target="Sharding", sharding={devices=[1,1,8,1]<=[8]}, frontend_attributes={xla.sdy.sharding="#sdy.sharding_per_value<[<@mesh, [{}, {}, {\"tensor\"}, {}]>]>"}, metadata={op_name="checkpoint/layers/sharding_constraint" stack_frame_id=227}
  %transpose.70 = bf16[1,8,8,64]{3,1,0,2} transpose(%sharding_constraint.24), dimensions={1,2,0,3}, metadata={op_name="checkpoint/layers/transpose" stack_frame_id=228}
  %jit_dynamic_update_index_in_dim_.7 = bf16[1984,8,8,64]{3,2,1,0} call(%Arg_47.1, %transpose.70, %squeeze.38), to_apply=%dynamic_update_index_in_dim.20, metadata={op_name="checkpoint/layers/jit(dynamic_update_index_in_dim)" stack_frame_id=229}
  %transpose.74 = bf16[8,1984,8,64]{3,0,2,1} transpose(%jit_dynamic_update_index_in_dim_.7), dimensions={2,0,1,3}, metadata={op_name="checkpoint/layers/transpose" stack_frame_id=233}
  %reshape.22 = bf16[8,8,8,1,1984]{4,3,2,1,0} reshape(%exp.131), metadata={op_name="checkpoint/layers/reshape" stack_frame_id=234}
  %dot_general.37 = bf16[8,8,64,8,1]{4,3,2,1,0} dot(%transpose.74, %reshape.22), lhs_batch_dims={0,2}, lhs_contracting_dims={1}, rhs_batch_dims={0,1}, rhs_contracting_dims={4}, metadata={op_name="checkpoint/layers/bkgts,bskd->btkgd/dot_general" stack_frame_id=236}
  %transpose.80 = bf16[8,1,8,8,64]{1,3,4,2,0} transpose(%dot_general.37), dimensions={0,4,1,3,2}, metadata={op_name="checkpoint/layers/bkgts,bskd->btkgd/transpose" stack_frame_id=236}
  %reshape.23 = bf16[8,1,64,64]{3,2,1,0} reshape(%transpose.80), metadata={op_name="checkpoint/layers/reshape" stack_frame_id=237}
  %mul.142 = bf16[8,1,64,64]{3,2,1,0} multiply(%mul.141, %reshape.23), metadata={op_name="checkpoint/layers/mul" stack_frame_id=207}
  %add.134 = bf16[8,1,64,64]{3,2,1,0} add(%mul.138, %mul.142), metadata={op_name="checkpoint/layers/add" stack_frame_id=238}
  %sharding_constraint.25 = bf16[8,1,64,64]{3,2,1,0} custom-call(%add.134), custom_call_target="Sharding", sharding={devices=[1,1,8,1]<=[8]}, frontend_attributes={xla.sdy.sharding="#sdy.sharding_per_value<[<@mesh, [{}, {}, {\"tensor\"}, {}]>]>"}, metadata={op_name="checkpoint/layers/sharding_constraint" stack_frame_id=241}
  %Arg_7.1 = f32[64,64,2880]{2,1,0} parameter(7)
  %convert_element_type.117 = bf16[64,64,2880]{2,1,0} convert(%Arg_7.1), metadata={op_name="checkpoint/layers/convert_element_type" stack_frame_id=245}
  %dot_general.38 = bf16[8,1,2880]{2,1,0} dot(%sharding_constraint.25, %convert_element_type.117), lhs_contracting_dims={2,3}, rhs_contracting_dims={0,1}, metadata={op_name="checkpoint/layers/dot_general" stack_frame_id=247}
  %Arg_6.1 = f32[2880]{0} parameter(6)
  %convert_element_type.118 = bf16[2880]{0} convert(%Arg_6.1), metadata={op_name="checkpoint/layers/convert_element_type" stack_frame_id=248}
  %broadcast_in_dim.151 = bf16[1,1,2880]{2,1,0} reshape(%convert_element_type.118), metadata={op_name="checkpoint/layers/broadcast_in_dim" stack_frame_id=249}
  %add.135 = bf16[1,1,2880]{2,1,0} broadcast(%broadcast_in_dim.151), dimensions={0,1,2}, metadata={op_name="checkpoint/layers/add" stack_frame_id=249}
  %add.136 = bf16[1,2880]{1,0} reshape(%add.135), metadata={op_name="checkpoint/layers/add" stack_frame_id=249}
  %add.137 = bf16[8,1,2880]{2,1,0} broadcast(%add.136), dimensions={1,2}, metadata={op_name="checkpoint/layers/add" stack_frame_id=249}
  %add.138 = bf16[8,1,2880]{2,1,0} add(%dot_general.38, %add.137), metadata={op_name="checkpoint/layers/add" stack_frame_id=249}
  %add.139 = bf16[8,1,2880]{2,1,0} add(%Arg_3.1, %add.138), metadata={op_name="checkpoint/layers/add" stack_frame_id=250}
  %convert_element_type.119 = f32[8,1,2880]{2,1,0} convert(%add.139), metadata={op_name="checkpoint/layers/convert_element_type" stack_frame_id=251}
  %square.5 = f32[8,1,2880]{2,1,0} multiply(%convert_element_type.119, %convert_element_type.119), metadata={op_name="checkpoint/layers/square" stack_frame_id=252}
  %reduce_sum.73 = f32[8,1]{1,0} reduce(%square.5, %constant.165), dimensions={2}, to_apply=%region_7.33, metadata={op_name="checkpoint/layers/reduce_sum" stack_frame_id=39}
  %broadcast_in_dim.152 = f32[8,1,1]{2,1,0} reshape(%reduce_sum.73), metadata={op_name="checkpoint/layers/broadcast_in_dim" stack_frame_id=39}
  %div.45 = f32[8,1,1]{2,1,0} divide(%broadcast_in_dim.152, %broadcast.76), metadata={op_name="checkpoint/layers/div" stack_frame_id=39}
  %add.140 = f32[8,1,1]{2,1,0} add(%div.45, %broadcast.75), metadata={op_name="checkpoint/layers/add" stack_frame_id=253}
  %rsqrt.5 = f32[8,1,1]{2,1,0} rsqrt(%add.140), metadata={op_name="checkpoint/layers/rsqrt" stack_frame_id=254}
  %mul.143 = f32[8,1,1]{2,1,0} broadcast(%rsqrt.5), dimensions={0,1,2}, metadata={op_name="checkpoint/layers/mul" stack_frame_id=255}
  %mul.144 = f32[8,1]{1,0} reshape(%mul.143), metadata={op_name="checkpoint/layers/mul" stack_frame_id=255}
  %mul.145 = f32[8,1,2880]{2,1,0} broadcast(%mul.144), dimensions={0,1}, metadata={op_name="checkpoint/layers/mul" stack_frame_id=255}
  %mul.146 = f32[8,1,2880]{2,1,0} multiply(%convert_element_type.119, %mul.145), metadata={op_name="checkpoint/layers/mul" stack_frame_id=255}
  %convert_element_type.120 = bf16[8,1,2880]{2,1,0} convert(%mul.146), metadata={op_name="checkpoint/layers/convert_element_type" stack_frame_id=256}
  %dot_general.39 = bf16[2880,8,1]{2,1,0} dot(%convert_element_type.121, %convert_element_type.120), lhs_batch_dims={0}, lhs_contracting_dims={}, rhs_batch_dims={2}, rhs_contracting_dims={}, metadata={op_name="checkpoint/layers/...k,k->...k/dot_general" stack_frame_id=257}
  %transpose.81 = bf16[8,1,2880]{1,0,2} transpose(%dot_general.39), dimensions={1,2,0}, metadata={op_name="checkpoint/layers/...k,k->...k/transpose" stack_frame_id=257}
  %sharding_constraint.29 = bf16[8,1,2880]{2,1,0} custom-call(%transpose.81), custom_call_target="Sharding", sharding={devices=[1,1,8]<=[8]}, frontend_attributes={xla.sdy.sharding="#sdy.sharding_per_value<[<@mesh, [{}, {}, {\"tensor\"}]>]>"}, metadata={op_name="checkpoint/layers/sharding_constraint" stack_frame_id=261}
  %Arg_15.1 = f32[32,2880,2880]{2,1,0} parameter(15)
  %convert_element_type.125 = bf16[32,2880,2880]{2,1,0} convert(%Arg_15.1), metadata={op_name="checkpoint/layers/convert_element_type" stack_frame_id=262}
  %dot_general.41 = bf16[8,1,32,2880]{3,2,1,0} dot(%sharding_constraint.29, %convert_element_type.125), lhs_contracting_dims={2}, rhs_contracting_dims={1}, metadata={op_name="checkpoint/layers/wi_0/BSM,EMH -> BSEH/dot_general" stack_frame_id=263}
  %Arg_16.1 = f32[32,2880]{1,0} parameter(16)
  %convert_element_type.127 = bf16[32,2880]{1,0} convert(%Arg_16.1), metadata={op_name="checkpoint/layers/convert_element_type" stack_frame_id=264}
  %broadcast_in_dim.164 = bf16[1,1,32,2880]{3,2,1,0} reshape(%convert_element_type.127), metadata={op_name="checkpoint/layers/wi_0/broadcast_in_dim" stack_frame_id=265}
  %add.148 = bf16[1,1,32,2880]{3,2,1,0} broadcast(%broadcast_in_dim.164), dimensions={0,1,2,3}, metadata={op_name="checkpoint/layers/wi_0/add" stack_frame_id=266}
  %add.149 = bf16[1,32,2880]{2,1,0} reshape(%add.148), metadata={op_name="checkpoint/layers/wi_0/add" stack_frame_id=266}
  %add.150 = bf16[8,1,32,2880]{3,2,1,0} broadcast(%add.149), dimensions={1,2,3}, metadata={op_name="checkpoint/layers/wi_0/add" stack_frame_id=266}
  %add.151 = bf16[8,1,32,2880]{3,2,1,0} add(%dot_general.41, %add.150), metadata={op_name="checkpoint/layers/wi_0/add" stack_frame_id=266}
  %constant.158 = f32[] constant(7)
  %jit_clip_.10 = bf16[8,1,32,2880]{3,2,1,0} call(%add.151, %constant.158), to_apply=%clip_21.37, metadata={op_name="checkpoint/layers/ffn_act/jit(clip)" stack_frame_id=268}
  %constant.115 = bf16[] constant(1)
  %broadcast.46 = bf16[8,1,32,2880]{3,2,1,0} broadcast(%constant.115), dimensions={}
  %constant.116 = bf16[] constant(1.703)
  %broadcast.47 = bf16[8,1,32,2880]{3,2,1,0} broadcast(%constant.116), dimensions={}
  %mul.147 = bf16[8,1,32,2880]{3,2,1,0} multiply(%jit_clip_.10, %broadcast.47), metadata={op_name="checkpoint/layers/ffn_act/mul" stack_frame_id=269}
  %neg.2 = bf16[8,1,32,2880]{3,2,1,0} negate(%mul.147), metadata={op_name="checkpoint/layers/ffn_act/neg" stack_frame_id=278}
  %exp.137 = bf16[8,1,32,2880]{3,2,1,0} exponential(%neg.2), metadata={op_name="checkpoint/layers/ffn_act/exp" stack_frame_id=278}
  %add.156 = bf16[8,1,32,2880]{3,2,1,0} add(%exp.137, %broadcast.46), metadata={op_name="checkpoint/layers/ffn_act/add" stack_frame_id=278}
  %div.50 = bf16[8,1,32,2880]{3,2,1,0} divide(%broadcast.46, %add.156), metadata={op_name="checkpoint/layers/ffn_act/div" stack_frame_id=278}
  %mul.148 = bf16[8,1,32,2880]{3,2,1,0} multiply(%jit_clip_.10, %div.50), metadata={op_name="checkpoint/layers/ffn_act/mul" stack_frame_id=279}
  %Arg_17.1 = f32[32,2880,2880]{2,1,0} parameter(17)
  %convert_element_type.126 = bf16[32,2880,2880]{2,1,0} convert(%Arg_17.1), metadata={op_name="checkpoint/layers/convert_element_type" stack_frame_id=280}
  %dot_general.42 = bf16[8,1,32,2880]{3,2,1,0} dot(%sharding_constraint.29, %convert_element_type.126), lhs_contracting_dims={2}, rhs_contracting_dims={1}, metadata={op_name="checkpoint/layers/wi_1/BSM,EMH -> BSEH/dot_general" stack_frame_id=281}
  %Arg_18.1 = f32[32,2880]{1,0} parameter(18)
  %convert_element_type.128 = bf16[32,2880]{1,0} convert(%Arg_18.1), metadata={op_name="checkpoint/layers/convert_element_type" stack_frame_id=282}
  %broadcast_in_dim.165 = bf16[1,1,32,2880]{3,2,1,0} reshape(%convert_element_type.128), metadata={op_name="checkpoint/layers/wi_1/broadcast_in_dim" stack_frame_id=283}
  %add.152 = bf16[1,1,32,2880]{3,2,1,0} broadcast(%broadcast_in_dim.165), dimensions={0,1,2,3}, metadata={op_name="checkpoint/layers/wi_1/add" stack_frame_id=284}
  %add.153 = bf16[1,32,2880]{2,1,0} reshape(%add.152), metadata={op_name="checkpoint/layers/wi_1/add" stack_frame_id=284}
  %add.154 = bf16[8,1,32,2880]{3,2,1,0} broadcast(%add.153), dimensions={1,2,3}, metadata={op_name="checkpoint/layers/wi_1/add" stack_frame_id=284}
  %add.155 = bf16[8,1,32,2880]{3,2,1,0} add(%dot_general.42, %add.154), metadata={op_name="checkpoint/layers/wi_1/add" stack_frame_id=284}
  %constant.157 = f32[] constant(-7)
  %jit_clip_.11 = bf16[8,1,32,2880]{3,2,1,0} call(%add.155, %constant.158, %constant.157), to_apply=%clip_22.38, metadata={op_name="checkpoint/layers/ffn_act/jit(clip)" stack_frame_id=285}
  %add.157 = bf16[8,1,32,2880]{3,2,1,0} add(%jit_clip_.11, %broadcast.46), metadata={op_name="checkpoint/layers/ffn_act/add" stack_frame_id=286}
  %mul.149 = bf16[8,1,32,2880]{3,2,1,0} multiply(%mul.148, %add.157), metadata={op_name="checkpoint/layers/ffn_act/mul" stack_frame_id=287}
  %dot_general.43 = bf16[32,2880,8,1]{3,2,1,0} dot(%convert_element_type.124, %mul.149), lhs_batch_dims={0}, lhs_contracting_dims={1}, rhs_batch_dims={2}, rhs_contracting_dims={3}, metadata={op_name="checkpoint/layers/wo/BSEH,EHM -> BSEM/dot_general" stack_frame_id=288}
  %transpose.82 = bf16[8,1,32,2880]{1,0,3,2} transpose(%dot_general.43), dimensions={2,3,0,1}, metadata={op_name="checkpoint/layers/wo/BSEH,EHM -> BSEM/transpose" stack_frame_id=288}
  %Arg_20.1 = f32[32,2880]{1,0} parameter(20)
  %convert_element_type.129 = bf16[32,2880]{1,0} convert(%Arg_20.1), metadata={op_name="checkpoint/layers/convert_element_type" stack_frame_id=289}
  %broadcast_in_dim.166 = bf16[1,1,32,2880]{3,2,1,0} reshape(%convert_element_type.129), metadata={op_name="checkpoint/layers/wo/broadcast_in_dim" stack_frame_id=290}
  %add.158 = bf16[1,1,32,2880]{3,2,1,0} broadcast(%broadcast_in_dim.166), dimensions={0,1,2,3}, metadata={op_name="checkpoint/layers/wo/add" stack_frame_id=291}
  %add.159 = bf16[1,32,2880]{2,1,0} reshape(%add.158), metadata={op_name="checkpoint/layers/wo/add" stack_frame_id=291}
  %add.160 = bf16[8,1,32,2880]{3,2,1,0} broadcast(%add.159), dimensions={1,2,3}, metadata={op_name="checkpoint/layers/wo/add" stack_frame_id=291}
  %add.161 = bf16[8,1,32,2880]{1,0,3,2} add(%transpose.82, %add.160), metadata={op_name="checkpoint/layers/wo/add" stack_frame_id=291}
  %convert_element_type.132 = f32[8,1,32,2880]{1,0,3,2} convert(%add.161), metadata={op_name="checkpoint/layers/weight_sum/convert_element_type" stack_frame_id=292}
  %constant.123 = bf16[] constant(0)
  %broadcast.52 = bf16[8,1,32]{2,1,0} broadcast(%constant.123), dimensions={}
  %iota.28 = s32[8]{0} iota(), iota_dimension=0, metadata={op_name="checkpoint/layers/iota" stack_frame_id=294}
  %broadcast_in_dim.156 = s32[8,1,1]{2,1,0} reshape(%iota.28), metadata={op_name="checkpoint/layers/broadcast_in_dim" stack_frame_id=294}
  %sharding_constraint.27 = s32[8,1,1]{2,1,0} custom-call(%broadcast_in_dim.156), custom_call_target="Sharding", sharding={replicated}, frontend_attributes={xla.sdy.sharding="#sdy.sharding_per_value<[<@mesh, [{}, {}, {}]>]>"}, metadata={op_name="checkpoint/layers/sharding_constraint" stack_frame_id=298}
  %constant.121 = s32[] constant(0)
  %broadcast.51 = s32[8,1,1]{2,1,0} broadcast(%constant.121), dimensions={}
  %lt.21 = pred[8,1,1]{2,1,0} compare(%sharding_constraint.27, %broadcast.51), direction=LT, metadata={op_name="checkpoint/layers/lt" stack_frame_id=299}
  %constant.120 = s32[] constant(8)
  %broadcast.50 = s32[8,1,1]{2,1,0} broadcast(%constant.120), dimensions={}
  %add.145 = s32[8,1,1]{2,1,0} add(%sharding_constraint.27, %broadcast.50), metadata={op_name="checkpoint/layers/add" stack_frame_id=299}
  %select_n.29 = s32[8,1,1]{2,1,0} select(%lt.21, %add.145, %sharding_constraint.27), metadata={op_name="checkpoint/layers/select_n" stack_frame_id=299}
  %broadcast_in_dim.157 = s32[8,1,1,1]{3,2,1,0} broadcast(%select_n.29), dimensions={0,1,2}, metadata={op_name="checkpoint/layers/broadcast_in_dim" stack_frame_id=299}
  %broadcast_in_dim.158 = s32[8,1,1]{2,1,0} reshape(%broadcast_in_dim.157), metadata={op_name="checkpoint/layers/broadcast_in_dim" stack_frame_id=299}
  %broadcast_in_dim.159 = s32[8,1,4,1]{3,2,1,0} broadcast(%broadcast_in_dim.158), dimensions={0,1,3}, metadata={op_name="checkpoint/layers/broadcast_in_dim" stack_frame_id=299}
  %constant.122 = s32[1,1]{1,0} constant({ {0} })
  %sharding_constraint.28 = s32[1,1]{1,0} custom-call(%constant.122), custom_call_target="Sharding", sharding={replicated}, frontend_attributes={xla.sdy.sharding="#sdy.sharding_per_value<[<@mesh, [{}, {}]>]>"}, metadata={op_name="checkpoint/layers/sharding_constraint" stack_frame_id=303}
  %lt.22 = pred[1,1]{1,0} compare(%sharding_constraint.28, %constant.122), direction=LT, metadata={op_name="checkpoint/layers/lt" stack_frame_id=299}
  %constant.119 = s32[1,1]{1,0} constant({ {1} })
  %add.146 = s32[1,1]{1,0} add(%sharding_constraint.28, %constant.119), metadata={op_name="checkpoint/layers/add" stack_frame_id=299}
  %select_n.30 = s32[1,1]{1,0} select(%lt.22, %add.146, %sharding_constraint.28), metadata={op_name="checkpoint/layers/select_n" stack_frame_id=299}
  %broadcast_in_dim.160 = s32[8,1,1,1]{3,2,1,0} broadcast(%select_n.30), dimensions={1,2}, metadata={op_name="checkpoint/layers/broadcast_in_dim" stack_frame_id=299}
  %broadcast_in_dim.161 = s32[8,1,1]{2,1,0} reshape(%broadcast_in_dim.160), metadata={op_name="checkpoint/layers/broadcast_in_dim" stack_frame_id=299}
  %broadcast_in_dim.162 = s32[8,1,4,1]{3,2,1,0} broadcast(%broadcast_in_dim.161), dimensions={0,1,3}, metadata={op_name="checkpoint/layers/broadcast_in_dim" stack_frame_id=299}
  %Arg_14.1 = f32[2880,32]{1,0} parameter(14)
  %convert_element_type.122 = bf16[2880,32]{1,0} convert(%Arg_14.1), metadata={op_name="checkpoint/layers/convert_element_type" stack_frame_id=306}
  %dot_general.40 = bf16[8,1,32]{2,1,0} dot(%transpose.81, %convert_element_type.122), lhs_contracting_dims={2}, rhs_contracting_dims={0}, metadata={op_name="checkpoint/layers/dot_general" stack_frame_id=308}
  %Arg_13.1 = f32[32]{0} parameter(13)
  %convert_element_type.123 = bf16[32]{0} convert(%Arg_13.1), metadata={op_name="checkpoint/layers/convert_element_type" stack_frame_id=309}
  %broadcast_in_dim.153 = bf16[1,1,32]{2,1,0} reshape(%convert_element_type.123), metadata={op_name="checkpoint/layers/broadcast_in_dim" stack_frame_id=310}
  %add.141 = bf16[1,1,32]{2,1,0} broadcast(%broadcast_in_dim.153), dimensions={0,1,2}, metadata={op_name="checkpoint/layers/add" stack_frame_id=310}
  %add.142 = bf16[1,32]{1,0} reshape(%add.141), metadata={op_name="checkpoint/layers/add" stack_frame_id=310}
  %add.143 = bf16[8,1,32]{2,1,0} broadcast(%add.142), dimensions={1,2}, metadata={op_name="checkpoint/layers/add" stack_frame_id=310}
  %add.144 = bf16[8,1,32]{2,1,0} add(%dot_general.40, %add.143), metadata={op_name="checkpoint/layers/add" stack_frame_id=310}
  %sharding_constraint.26 = bf16[8,1,32]{2,1,0} custom-call(%add.144), custom_call_target="Sharding", sharding={replicated}, frontend_attributes={xla.sdy.sharding="#sdy.sharding_per_value<[<@mesh, [{}, {}, {}]>]>"}, metadata={op_name="checkpoint/layers/sharding_constraint" stack_frame_id=314}
  %top_k.6 = (bf16[8,1,4]{2,1,0}, s32[8,1,4]{2,1,0}) topk(%sharding_constraint.26), k=4, largest=true, metadata={op_name="checkpoint/layers/top_k" stack_frame_id=315}
  %top_k.8 = s32[8,1,4]{2,1,0} get-tuple-element(%top_k.6), index=1, metadata={op_name="checkpoint/layers/top_k" stack_frame_id=315}
  %constant.118 = s32[] constant(0)
  %broadcast.49 = s32[8,1,4]{2,1,0} broadcast(%constant.118), dimensions={}
  %lt.23 = pred[8,1,4]{2,1,0} compare(%top_k.8, %broadcast.49), direction=LT, metadata={op_name="checkpoint/layers/lt" stack_frame_id=299}
  %constant.117 = s32[] constant(32)
  %broadcast.48 = s32[8,1,4]{2,1,0} broadcast(%constant.117), dimensions={}
  %add.147 = s32[8,1,4]{2,1,0} add(%top_k.8, %broadcast.48), metadata={op_name="checkpoint/layers/add" stack_frame_id=299}
  %select_n.31 = s32[8,1,4]{2,1,0} select(%lt.23, %add.147, %top_k.8), metadata={op_name="checkpoint/layers/select_n" stack_frame_id=299}
  %broadcast_in_dim.163 = s32[8,1,4,1]{3,2,1,0} reshape(%select_n.31), metadata={op_name="checkpoint/layers/broadcast_in_dim" stack_frame_id=299}
  %concatenate.11 = s32[8,1,4,3]{3,2,1,0} concatenate(%broadcast_in_dim.159, %broadcast_in_dim.162, %broadcast_in_dim.163), dimensions={3}, metadata={op_name="checkpoint/layers/concatenate" stack_frame_id=299}
  %top_k.7 = bf16[8,1,4]{2,1,0} get-tuple-element(%top_k.6), index=0, metadata={op_name="checkpoint/layers/top_k" stack_frame_id=315}
  %convert_element_type.130 = f32[8,1,4]{2,1,0} convert(%top_k.7), metadata={op_name="checkpoint/layers/convert_element_type" stack_frame_id=316}
  %constant.159 = f32[] constant(-inf)
  %reduce_max.44 = f32[8,1]{1,0} reduce(%convert_element_type.130, %constant.159), dimensions={2}, to_apply=%region_8.34, metadata={op_name="checkpoint/layers/reduce_max" stack_frame_id=44}
  %constant.124 = f32[] constant(-inf)
  %broadcast.53 = f32[8,1]{1,0} broadcast(%constant.124), dimensions={}
  %max.13 = f32[8,1]{1,0} maximum(%reduce_max.44, %broadcast.53), metadata={op_name="checkpoint/layers/max" stack_frame_id=44}
  %broadcast_in_dim.154 = f32[8,1,1]{2,1,0} reshape(%max.13), metadata={op_name="checkpoint/layers/broadcast_in_dim" stack_frame_id=44}
  %sub.62 = f32[8,1,1]{2,1,0} broadcast(%broadcast_in_dim.154), dimensions={0,1,2}, metadata={op_name="checkpoint/layers/sub" stack_frame_id=44}
  %sub.63 = f32[8,1]{1,0} reshape(%sub.62), metadata={op_name="checkpoint/layers/sub" stack_frame_id=44}
  %sub.64 = f32[8,1,4]{2,1,0} broadcast(%sub.63), dimensions={0,1}, metadata={op_name="checkpoint/layers/sub" stack_frame_id=44}
  %sub.65 = f32[8,1,4]{2,1,0} subtract(%convert_element_type.130, %sub.64), metadata={op_name="checkpoint/layers/sub" stack_frame_id=44}
  %exp.136 = f32[8,1,4]{2,1,0} exponential(%sub.65), metadata={op_name="checkpoint/layers/exp" stack_frame_id=44}
  %reduce_sum.74 = f32[8,1]{1,0} reduce(%exp.136, %constant.165), dimensions={2}, to_apply=%region_9.35, metadata={op_name="checkpoint/layers/reduce_sum" stack_frame_id=44}
  %broadcast_in_dim.155 = f32[8,1,1]{2,1,0} reshape(%reduce_sum.74), metadata={op_name="checkpoint/layers/broadcast_in_dim" stack_frame_id=44}
  %div.46 = f32[8,1,1]{2,1,0} broadcast(%broadcast_in_dim.155), dimensions={0,1,2}, metadata={op_name="checkpoint/layers/div" stack_frame_id=44}
  %div.47 = f32[8,1]{1,0} reshape(%div.46), metadata={op_name="checkpoint/layers/div" stack_frame_id=44}
  %div.48 = f32[8,1,4]{2,1,0} broadcast(%div.47), dimensions={0,1}, metadata={op_name="checkpoint/layers/div" stack_frame_id=44}
  %div.49 = f32[8,1,4]{2,1,0} divide(%exp.136, %div.48), metadata={op_name="checkpoint/layers/div" stack_frame_id=44}
  %convert_element_type.131 = bf16[8,1,4]{2,1,0} convert(%div.49), metadata={op_name="checkpoint/layers/convert_element_type" stack_frame_id=44}
  %scatter.10 = bf16[8,1,32]{2,1,0} scatter(%broadcast.52, %concatenate.11, %convert_element_type.131), update_window_dims={}, inserted_window_dims={0,1,2}, scatter_dims_to_operand_dims={0,1,2}, index_vector_dim=3, to_apply=%region_10.36, metadata={op_name="checkpoint/layers/scatter" stack_frame_id=299}
  %convert_element_type.133 = f32[8,1,32]{2,1,0} convert(%scatter.10), metadata={op_name="checkpoint/layers/weight_sum/convert_element_type" stack_frame_id=317}
  %dot_general.44 = f32[8,1,2880]{2,1,0} dot(%convert_element_type.132, %convert_element_type.133), lhs_batch_dims={0,1}, lhs_contracting_dims={2}, rhs_batch_dims={0,1}, rhs_contracting_dims={2}, metadata={op_name="checkpoint/layers/weight_sum/BSEM,BSE -> BSM/dot_general" stack_frame_id=318}
  %convert_element_type.134 = bf16[8,1,2880]{2,1,0} convert(%dot_general.44), metadata={op_name="checkpoint/layers/weight_sum/convert_element_type" stack_frame_id=319}
  %add.162 = bf16[8,1,2880]{2,1,0} add(%convert_element_type.134, %add.139), metadata={op_name="checkpoint/layers/add" stack_frame_id=320}
  %Arg_52.1 = s32[8,64]{1,0} parameter(52)
  %broadcast_in_dim.185 = s32[8,1,1,1,64]{4,3,2,1,0} reshape(%Arg_52.1), metadata={op_name="checkpoint/layers/broadcast_in_dim" stack_frame_id=53}
  %eq.8 = pred[8,1,1,1,64]{4,3,2,1,0} compare(%broadcast_in_dim.185, %broadcast.57), direction=EQ, metadata={op_name="checkpoint/layers/eq" stack_frame_id=53}
  %jit__where_.14 = f32[8,1,1,1,64]{4,3,2,1,0} call(%eq.8, %constant.165, %constant.161), to_apply=%_where_17.25, metadata={op_name="checkpoint/layers/jit(_where)" stack_frame_id=54}
  %ge.6 = pred[8,1,1,1,64]{4,3,2,1,0} compare(%jit__where_.14, %broadcast.56), direction=GE, metadata={op_name="checkpoint/layers/ge" stack_frame_id=56}
  %Arg_56.1 = bf16[64,8,8,64]{3,2,1,0} parameter(56)
  %transpose.86 = bf16[8,64,8,64]{3,0,2,1} transpose(%Arg_56.1), dimensions={2,0,1,3}, metadata={op_name="checkpoint/layers/transpose" stack_frame_id=60}
  %Arg_41.1 = f32[2880]{0} parameter(41)
  %convert_element_type.137 = bf16[2880]{0} convert(%Arg_41.1), metadata={op_name="checkpoint/layers/convert_element_type" stack_frame_id=61}
  %convert_element_type.135 = f32[8,1,2880]{2,1,0} convert(%add.162), metadata={op_name="checkpoint/layers/convert_element_type" stack_frame_id=62}
  %square.6 = f32[8,1,2880]{2,1,0} multiply(%convert_element_type.135, %convert_element_type.135), metadata={op_name="checkpoint/layers/square" stack_frame_id=63}
  %reduce_sum.75 = f32[8,1]{1,0} reduce(%square.6, %constant.165), dimensions={2}, to_apply=%region_11.39, metadata={op_name="checkpoint/layers/reduce_sum" stack_frame_id=17}
  %broadcast_in_dim.167 = f32[8,1,1]{2,1,0} reshape(%reduce_sum.75), metadata={op_name="checkpoint/layers/broadcast_in_dim" stack_frame_id=17}
  %div.51 = f32[8,1,1]{2,1,0} divide(%broadcast_in_dim.167, %broadcast.76), metadata={op_name="checkpoint/layers/div" stack_frame_id=17}
  %add.163 = f32[8,1,1]{2,1,0} add(%div.51, %broadcast.75), metadata={op_name="checkpoint/layers/add" stack_frame_id=64}
  %rsqrt.6 = f32[8,1,1]{2,1,0} rsqrt(%add.163), metadata={op_name="checkpoint/layers/rsqrt" stack_frame_id=65}
  %mul.150 = f32[8,1,1]{2,1,0} broadcast(%rsqrt.6), dimensions={0,1,2}, metadata={op_name="checkpoint/layers/mul" stack_frame_id=66}
  %mul.151 = f32[8,1]{1,0} reshape(%mul.150), metadata={op_name="checkpoint/layers/mul" stack_frame_id=66}
  %mul.152 = f32[8,1,2880]{2,1,0} broadcast(%mul.151), dimensions={0,1}, metadata={op_name="checkpoint/layers/mul" stack_frame_id=66}
  %mul.153 = f32[8,1,2880]{2,1,0} multiply(%convert_element_type.135, %mul.152), metadata={op_name="checkpoint/layers/mul" stack_frame_id=66}
  %convert_element_type.136 = bf16[8,1,2880]{2,1,0} convert(%mul.153), metadata={op_name="checkpoint/layers/convert_element_type" stack_frame_id=67}
  %dot_general.45 = bf16[2880,8,1]{2,1,0} dot(%convert_element_type.137, %convert_element_type.136), lhs_batch_dims={0}, lhs_contracting_dims={}, rhs_batch_dims={2}, rhs_contracting_dims={}, metadata={op_name="checkpoint/layers/...k,k->...k/dot_general" stack_frame_id=68}
  %transpose.83 = bf16[8,1,2880]{1,0,2} transpose(%dot_general.45), dimensions={1,2,0}, metadata={op_name="checkpoint/layers/...k,k->...k/transpose" stack_frame_id=68}
  %sharding_constraint.30 = bf16[8,1,2880]{2,1,0} custom-call(%transpose.83), custom_call_target="Sharding", sharding={devices=[1,1,8]<=[8]}, frontend_attributes={xla.sdy.sharding="#sdy.sharding_per_value<[<@mesh, [{}, {}, {\"tensor\"}]>]>"}, metadata={op_name="checkpoint/layers/sharding_constraint" stack_frame_id=71}
  %Arg_28.1 = f32[2880,64,64]{2,1,0} parameter(28)
  %convert_element_type.138 = bf16[2880,64,64]{2,1,0} convert(%Arg_28.1), metadata={op_name="checkpoint/layers/convert_element_type" stack_frame_id=75}
  %dot_general.46 = bf16[8,1,64,64]{3,2,1,0} dot(%sharding_constraint.30, %convert_element_type.138), lhs_contracting_dims={2}, rhs_contracting_dims={0}, metadata={op_name="checkpoint/layers/dot_general" stack_frame_id=77}
  %Arg_27.1 = f32[64,64]{1,0} parameter(27)
  %convert_element_type.139 = bf16[64,64]{1,0} convert(%Arg_27.1), metadata={op_name="checkpoint/layers/convert_element_type" stack_frame_id=78}
  %broadcast_in_dim.168 = bf16[1,1,64,64]{3,2,1,0} reshape(%convert_element_type.139), metadata={op_name="checkpoint/layers/broadcast_in_dim" stack_frame_id=79}
  %add.164 = bf16[1,1,64,64]{3,2,1,0} broadcast(%broadcast_in_dim.168), dimensions={0,1,2,3}, metadata={op_name="checkpoint/layers/add" stack_frame_id=79}
  %add.165 = bf16[1,64,64]{2,1,0} reshape(%add.164), metadata={op_name="checkpoint/layers/add" stack_frame_id=79}
  %add.166 = bf16[8,1,64,64]{3,2,1,0} broadcast(%add.165), dimensions={1,2,3}, metadata={op_name="checkpoint/layers/add" stack_frame_id=79}
  %add.167 = bf16[8,1,64,64]{3,2,1,0} add(%dot_general.46, %add.166), metadata={op_name="checkpoint/layers/add" stack_frame_id=79}
  %split.12 = bf16[8,1,64,32]{3,2,1,0} slice(%add.167), slice={[0:8], [0:1], [0:64], [0:32]}, metadata={op_name="checkpoint/layers/split" stack_frame_id=83}
  %convert_element_type.146 = c64[8,1,64,32]{3,2,1,0} convert(%split.12), metadata={op_name="checkpoint/layers/convert_element_type" stack_frame_id=84}
  %split.13 = bf16[8,1,64,32]{3,2,1,0} slice(%add.167), slice={[0:8], [0:1], [0:64], [32:64]}, metadata={op_name="checkpoint/layers/split" stack_frame_id=83}
  %convert_element_type.145 = c64[8,1,64,32]{3,2,1,0} convert(%split.13), metadata={op_name="checkpoint/layers/convert_element_type" stack_frame_id=85}
  %mul.165 = c64[8,1,64,32]{3,2,1,0} multiply(%convert_element_type.145, %broadcast.64), metadata={op_name="checkpoint/layers/mul" stack_frame_id=85}
  %add.178 = c64[8,1,64,32]{3,2,1,0} add(%convert_element_type.146, %mul.165), metadata={op_name="checkpoint/layers/add" stack_frame_id=84}
  %iota.31 = f32[131072]{0} iota(), iota_dimension=0, metadata={op_name="checkpoint/layers/iota" stack_frame_id=87}
  %broadcast_in_dim.171 = f32[131072,1]{1,0} reshape(%iota.31), metadata={op_name="checkpoint/layers/broadcast_in_dim" stack_frame_id=88}
  %mul.157 = f32[131072,1]{1,0} broadcast(%broadcast_in_dim.171), dimensions={0,1}, metadata={op_name="checkpoint/layers/mul" stack_frame_id=88}
  %mul.158 = f32[131072]{0} reshape(%mul.157), metadata={op_name="checkpoint/layers/mul" stack_frame_id=88}
  %mul.159 = f32[131072,32]{1,0} broadcast(%mul.158), dimensions={0}, metadata={op_name="checkpoint/layers/mul" stack_frame_id=88}
  %iota.29 = f32[32]{0} iota(), iota_dimension=0, metadata={op_name="checkpoint/layers/iota" stack_frame_id=89}
  %mul.154 = f32[32]{0} multiply(%iota.29, %broadcast.74), metadata={op_name="checkpoint/layers/mul" stack_frame_id=90}
  %div.52 = f32[32]{0} divide(%mul.154, %broadcast.73), metadata={op_name="checkpoint/layers/div" stack_frame_id=90}
  %pow.6 = f32[32]{0} power(%broadcast.72, %div.52), metadata={op_name="checkpoint/layers/pow" stack_frame_id=91}
  %div.53 = f32[32]{0} divide(%broadcast.71, %pow.6), metadata={op_name="checkpoint/layers/div" stack_frame_id=92}
  %div.55 = f32[32]{0} divide(%div.53, %broadcast.68), metadata={op_name="checkpoint/layers/div" stack_frame_id=93}
  %iota.30 = f32[32]{0} iota(), iota_dimension=0, metadata={op_name="checkpoint/layers/iota" stack_frame_id=95}
  %sub.66 = f32[32]{0} subtract(%iota.30, %broadcast.70), metadata={op_name="checkpoint/layers/sub" stack_frame_id=95}
  %div.54 = f32[32]{0} divide(%sub.66, %broadcast.69), metadata={op_name="checkpoint/layers/div" stack_frame_id=96}
  %jit_clip_.12 = f32[32]{0} call(%div.54, %constant.164, %constant.163), to_apply=%clip.19, metadata={op_name="checkpoint/layers/jit(clip)" stack_frame_id=97}
  %sub.67 = f32[32]{0} subtract(%broadcast.71, %jit_clip_.12), metadata={op_name="checkpoint/layers/sub" stack_frame_id=98}
  %sub.68 = f32[32]{0} subtract(%broadcast.71, %sub.67), metadata={op_name="checkpoint/layers/sub" stack_frame_id=99}
  %mul.155 = f32[32]{0} multiply(%div.55, %sub.68), metadata={op_name="checkpoint/layers/mul" stack_frame_id=93}
  %mul.156 = f32[32]{0} multiply(%div.53, %sub.67), metadata={op_name="checkpoint/layers/mul" stack_frame_id=100}
  %add.176 = f32[32]{0} add(%mul.155, %mul.156), metadata={op_name="checkpoint/layers/add" stack_frame_id=93}
  %broadcast_in_dim.172 = f32[1,32]{1,0} reshape(%add.176), metadata={op_name="checkpoint/layers/broadcast_in_dim" stack_frame_id=88}
  %mul.160 = f32[1,32]{1,0} broadcast(%broadcast_in_dim.172), dimensions={0,1}, metadata={op_name="checkpoint/layers/mul" stack_frame_id=88}
  %mul.161 = f32[32]{0} reshape(%mul.160), metadata={op_name="checkpoint/layers/mul" stack_frame_id=88}
  %mul.162 = f32[131072,32]{1,0} broadcast(%mul.161), dimensions={1}, metadata={op_name="checkpoint/layers/mul" stack_frame_id=88}
  %mul.163 = f32[131072,32]{1,0} multiply(%mul.159, %mul.162), metadata={op_name="checkpoint/layers/mul" stack_frame_id=88}
  %convert_element_type.144 = c64[131072,32]{1,0} convert(%mul.163), metadata={op_name="checkpoint/layers/convert_element_type" stack_frame_id=101}
  %mul.164 = c64[131072,32]{1,0} multiply(%convert_element_type.144, %broadcast.67), metadata={op_name="checkpoint/layers/mul" stack_frame_id=101}
  %exp.138 = f32[131072,32]{1,0} real(%mul.164), metadata={op_name="checkpoint/layers/exp" stack_frame_id=102}
  %exp.139 = f32[131072,32]{1,0} exponential(%exp.138), metadata={op_name="checkpoint/layers/exp" stack_frame_id=102}
  %exp.140 = pred[131072,32]{1,0} compare(%exp.139, %broadcast.79), direction=EQ, metadata={op_name="checkpoint/layers/exp" stack_frame_id=102}
  %exp.141 = f32[131072,32]{1,0} multiply(%exp.138, %broadcast.78), metadata={op_name="checkpoint/layers/exp" stack_frame_id=102}
  %exp.142 = f32[131072,32]{1,0} exponential(%exp.141), metadata={op_name="checkpoint/layers/exp" stack_frame_id=102}
  %exp.143 = f32[131072,32]{1,0} imag(%mul.164), metadata={op_name="checkpoint/layers/exp" stack_frame_id=102}
  %exp.144 = f32[131072,32]{1,0} cosine(%exp.143), metadata={op_name="checkpoint/layers/exp" stack_frame_id=102}
  %exp.145 = f32[131072,32]{1,0} multiply(%exp.142, %exp.144), metadata={op_name="checkpoint/layers/exp" stack_frame_id=102}
  %exp.146 = f32[131072,32]{1,0} multiply(%exp.145, %exp.142), metadata={op_name="checkpoint/layers/exp" stack_frame_id=102}
  %exp.147 = f32[131072,32]{1,0} multiply(%exp.139, %exp.144), metadata={op_name="checkpoint/layers/exp" stack_frame_id=102}
  %exp.148 = f32[131072,32]{1,0} select(%exp.140, %exp.146, %exp.147), metadata={op_name="checkpoint/layers/exp" stack_frame_id=102}
  %exp.149 = pred[131072,32]{1,0} compare(%exp.143, %broadcast.77), direction=EQ, metadata={op_name="checkpoint/layers/exp" stack_frame_id=102}
  %exp.150 = f32[131072,32]{1,0} sine(%exp.143), metadata={op_name="checkpoint/layers/exp" stack_frame_id=102}
  %exp.151 = f32[131072,32]{1,0} multiply(%exp.142, %exp.150), metadata={op_name="checkpoint/layers/exp" stack_frame_id=102}
  %exp.152 = f32[131072,32]{1,0} multiply(%exp.151, %exp.142), metadata={op_name="checkpoint/layers/exp" stack_frame_id=102}
  %exp.153 = f32[131072,32]{1,0} multiply(%exp.139, %exp.150), metadata={op_name="checkpoint/layers/exp" stack_frame_id=102}
  %exp.154 = f32[131072,32]{1,0} select(%exp.140, %exp.152, %exp.153), metadata={op_name="checkpoint/layers/exp" stack_frame_id=102}
  %exp.155 = f32[131072,32]{1,0} select(%exp.149, %broadcast.77, %exp.154), metadata={op_name="checkpoint/layers/exp" stack_frame_id=102}
  %exp.156 = c64[131072,32]{1,0} complex(%exp.148, %exp.155), metadata={op_name="checkpoint/layers/exp" stack_frame_id=102}
  %lt.24 = pred[8,1]{1,0} compare(%Arg_2.19, %broadcast.66), direction=LT, metadata={op_name="checkpoint/layers/lt" stack_frame_id=86}
  %add.177 = s32[8,1]{1,0} add(%Arg_2.19, %broadcast.65), metadata={op_name="checkpoint/layers/add" stack_frame_id=86}
  %select_n.32 = s32[8,1]{1,0} select(%lt.24, %add.177, %Arg_2.19), metadata={op_name="checkpoint/layers/select_n" stack_frame_id=86}
  %broadcast_in_dim.173 = s32[8,1,1]{2,1,0} reshape(%select_n.32), metadata={op_name="checkpoint/layers/broadcast_in_dim" stack_frame_id=86}
  %gather.7 = c64[8,1,32]{2,1,0} gather(%exp.156, %broadcast_in_dim.173), offset_dims={2}, collapsed_slice_dims={0}, start_index_map={0}, index_vector_dim=2, slice_sizes={1,32}, metadata={op_name="checkpoint/layers/gather" stack_frame_id=86}
  %broadcast_in_dim.174 = c64[8,1,1,32]{3,2,1,0} reshape(%gather.7), metadata={op_name="checkpoint/layers/broadcast_in_dim" stack_frame_id=103}
  %broadcast_in_dim.175 = c64[8,1,1,32]{3,2,1,0} broadcast(%broadcast_in_dim.174), dimensions={0,1,2,3}, metadata={op_name="checkpoint/layers/broadcast_in_dim" stack_frame_id=104}
  %broadcast_in_dim.176 = c64[8,1,32]{2,1,0} reshape(%broadcast_in_dim.175), metadata={op_name="checkpoint/layers/broadcast_in_dim" stack_frame_id=104}
  %broadcast_in_dim.177 = c64[8,1,64,32]{3,2,1,0} broadcast(%broadcast_in_dim.176), dimensions={0,1,3}, metadata={op_name="checkpoint/layers/broadcast_in_dim" stack_frame_id=104}
  %mul.166 = c64[8,1,64,32]{3,2,1,0} multiply(%add.178, %broadcast_in_dim.177), metadata={op_name="checkpoint/layers/mul" stack_frame_id=105}
  %real.6 = f32[8,1,64,32]{3,2,1,0} real(%mul.166), metadata={op_name="checkpoint/layers/real" stack_frame_id=106}
  %imag.6 = f32[8,1,64,32]{3,2,1,0} imag(%mul.166), metadata={op_name="checkpoint/layers/imag" stack_frame_id=107}
  %concatenate.12 = f32[8,1,64,64]{3,2,1,0} concatenate(%real.6, %imag.6), dimensions={3}, metadata={op_name="checkpoint/layers/concatenate" stack_frame_id=108}
  %mul.167 = f32[8,1,64,64]{3,2,1,0} multiply(%concatenate.12, %broadcast.63), metadata={op_name="checkpoint/layers/mul" stack_frame_id=109}
  %convert_element_type.147 = bf16[8,1,64,64]{3,2,1,0} convert(%mul.167), metadata={op_name="checkpoint/layers/convert_element_type" stack_frame_id=110}
  %mul.182 = bf16[8,1,64,64]{3,2,1,0} multiply(%convert_element_type.147, %broadcast.60), metadata={op_name="checkpoint/layers/mul" stack_frame_id=111}
…
  %transpose.110 = f32[12,32,2880,2880]{3,2,0,1} transpose(%params__params____decoder____layers____layers_0____GptOssMlp____wi_0__.1), dimensions={1,0,2,3}, metadata={op_name="jit(_generate_jit)/TransformerLinenPure.apply/TransformerLinenPure/decoder/transpose" stack_frame_id=360}
  %params__params____decoder____layers____layers_0____GptOssMlp____wi_0_bias__.1 = f32[32,12,2880]{2,1,0} parameter(32), sharding={devices=[1,1,8]<=[8]}, frontend_attributes={xla.sdy.sharding="#sdy.sharding<@mesh, [{\"expert\"}, {\"stage\"}, {\"tensor\", \"tensor_transpose\", \"tensor_sequence\"}]>"}, metadata={op_name="params[\'params\'][\'decoder\'][\'layers\'][\'layers_0\'][\'GptOssMlp\'][\'wi_0_bias\']"}
  %transpose.111 = f32[12,32,2880]{2,0,1} transpose(%params__params____decoder____layers____layers_0____GptOssMlp____wi_0_bias__.1), dimensions={1,0,2}, metadata={op_name="jit(_generate_jit)/TransformerLinenPure.apply/TransformerLinenPure/decoder/transpose" stack_frame_id=360}
  %params__params____decoder____layers____layers_0____GptOssMlp____wi_1__.1 = f32[32,12,2880,2880]{3,2,1,0} parameter(33), sharding={devices=[1,1,1,8]<=[8]}, frontend_attributes={xla.sdy.sharding="#sdy.sharding<@mesh, [{\"expert\"}, {\"stage\"}, {\"fsdp\", \"tensor_transpose\", \"context\"}, {\"fsdp_transpose\", \"tensor\", \"tensor_sequence\", \"autoregressive\"}]>"}, metadata={op_name="params[\'params\'][\'decoder\'][\'layers\'][\'layers_0\'][\'GptOssMlp\'][\'wi_1\']"}
  %transpose.112 = f32[12,32,2880,2880]{3,2,0,1} transpose(%params__params____decoder____layers____layers_0____GptOssMlp____wi_1__.1), dimensions={1,0,2,3}, metadata={op_name="jit(_generate_jit)/TransformerLinenPure.apply/TransformerLinenPure/decoder/transpose" stack_frame_id=360}
  %params__params____decoder____layers____layers_0____GptOssMlp____wi_1_bias__.1 = f32[32,12,2880]{2,1,0} parameter(34), sharding={devices=[1,1,8]<=[8]}, frontend_attributes={xla.sdy.sharding="#sdy.sharding<@mesh, [{\"expert\"}, {\"stage\"}, {\"tensor\", \"tensor_transpose\", \"tensor_sequence\"}]>"}, metadata={op_name="params[\'params\'][\'decoder\'][\'layers\'][\'layers_0\'][\'GptOssMlp\'][\'wi_1_bias\']"}
  %transpose.113 = f32[12,32,2880]{2,0,1} transpose(%params__params____decoder____layers____layers_0____GptOssMlp____wi_1_bias__.1), dimensions={1,0,2}, metadata={op_name="jit(_generate_jit)/TransformerLinenPure.apply/TransformerLinenPure/decoder/transpose" stack_frame_id=360}
  %params__params____decoder____layers____layers_0____GptOssMlp____wo__.1 = f32[32,12,2880,2880]{3,2,1,0} parameter(35), sharding={devices=[1,1,8,1]<=[8]}, frontend_attributes={xla.sdy.sharding="#sdy.sharding<@mesh, [{\"expert\"}, {\"stage\"}, {\"fsdp_transpose\", \"tensor\", \"tensor_sequence\", \"autoregressive\"}, {\"fsdp\", \"tensor_transpose\", \"context\"}]>"}, metadata={op_name="params[\'params\'][\'decoder\'][\'layers\'][\'layers_0\'][\'GptOssMlp\'][\'wo\']"}
  %transpose.114 = f32[12,32,2880,2880]{3,2,0,1} transpose(%params__params____decoder____layers____layers_0____GptOssMlp____wo__.1), dimensions={1,0,2,3}, metadata={op_name="jit(_generate_jit)/TransformerLinenPure.apply/TransformerLinenPure/decoder/transpose" stack_frame_id=360}
  %params__params____decoder____layers____layers_0____GptOssMlp____wo_bias__.1 = f32[32,12,2880]{2,1,0} parameter(36), sharding={devices=[1,1,8]<=[8]}, frontend_attributes={xla.sdy.sharding="#sdy.sharding<@mesh, [{\"expert\"}, {\"stage\"}, {\"tensor\", \"tensor_transpose\"}]>"}, metadata={op_name="params[\'params\'][\'decoder\'][\'layers\'][\'layers_0\'][\'GptOssMlp\'][\'wo_bias\']"}
  %transpose.115 = f32[12,32,2880]{2,0,1} transpose(%params__params____decoder____layers____layers_0____GptOssMlp____wo_bias__.1), dimensions={1,0,2}, metadata={op_name="jit(_generate_jit)/TransformerLinenPure.apply/TransformerLinenPure/decoder/transpose" stack_frame_id=360}
  %params__params____decoder____layers____layers_0____post_self_attention_layer_norm____scale__.1 = f32[2880,12]{1,0} parameter(37), sharding={devices=[8,1]<=[8]}, frontend_attributes={xla.sdy.sharding="#sdy.sharding<@mesh, [{\"tensor\", \"tensor_transpose\"}, {\"stage\"}]>"}, metadata={op_name="params[\'params\'][\'decoder\'][\'layers\'][\'layers_0\'][\'post_self_attention_layer_norm\'][\'scale\']"}
  %transpose.116 = f32[12,2880]{0,1} transpose(%params__params____decoder____layers____layers_0____post_self_attention_layer_norm____scale__.1), dimensions={1,0}, metadata={op_name="jit(_generate_jit)/TransformerLinenPure.apply/TransformerLinenPure/decoder/transpose" stack_frame_id=360}
  %params__params____decoder____layers____layers_0____pre_self_attention_layer_norm____scale__.1 = f32[2880,12]{1,0} parameter(38), sharding={devices=[8,1]<=[8]}, frontend_attributes={xla.sdy.sharding="#sdy.sharding<@mesh, [{\"tensor\", \"tensor_transpose\"}, {\"stage\"}]>"}, metadata={op_name="params[\'params\'][\'decoder\'][\'layers\'][\'layers_0\'][\'pre_self_attention_layer_norm\'][\'scale\']"}
  %transpose.117 = f32[12,2880]{0,1} transpose(%params__params____decoder____layers____layers_0____pre_self_attention_layer_norm____scale__.1), dimensions={1,0}, metadata={op_name="jit(_generate_jit)/TransformerLinenPure.apply/TransformerLinenPure/decoder/transpose" stack_frame_id=360}
  %params__params____decoder____layers____layers_1____GptOssAttention____key____bias__.1 = f32[8,12,64]{2,1,0} parameter(39), sharding={devices=[8,1,1]<=[8]}, frontend_attributes={xla.sdy.sharding="#sdy.sharding<@mesh, [{\"tensor\", \"tensor_transpose\", \"tensor_sequence\", \"autoregressive\"}, {\"stage\"}, {}]>"}, metadata={op_name="params[\'params\'][\'decoder\'][\'layers\'][\'layers_1\'][\'GptOssAttention\'][\'key\'][\'bias\']"}
  %transpose.118 = f32[12,8,64]{2,0,1} transpose(%params__params____decoder____layers____layers_1____GptOssAttention____key____bias__.1), dimensions={1,0,2}, metadata={op_name="jit(_generate_jit)/TransformerLinenPure.apply/TransformerLinenPure/decoder/transpose" stack_frame_id=360}
  %params__params____decoder____layers____layers_1____GptOssAttention____key____kernel__.1 = f32[2880,12,8,64]{3,2,1,0} parameter(40), sharding={devices=[1,1,8,1]<=[8]}, frontend_attributes={xla.sdy.sharding="#sdy.sharding<@mesh, [{\"fsdp\", \"fsdp_transpose\", \"context\", \"expert\"}, {\"stage\"}, {\"tensor\", \"tensor_transpose\", \"tensor_sequence\", \"autoregressive\"}, {}]>"}, metadata={op_name="params[\'params\'][\'decoder\'][\'layers\'][\'layers_1\'][\'GptOssAttention\'][\'key\'][\'kernel\']"}
  %transpose.119 = f32[12,2880,8,64]{3,2,0,1} transpose(%params__params____decoder____layers____layers_1____GptOssAttention____key____kernel__.1), dimensions={1,0,2,3}, metadata={op_name="jit(_generate_jit)/TransformerLinenPure.apply/TransformerLinenPure/decoder/transpose" stack_frame_id=360}
  %params__params____decoder____layers____layers_1____GptOssAttention____out____bias__.1 = f32[2880,12]{1,0} parameter(41), sharding={replicated}, frontend_attributes={xla.sdy.sharding="#sdy.sharding<@mesh, [{\"fsdp\", \"fsdp_transpose\", \"tensor_transpose\", \"context\", \"expert\"}, {\"stage\"}]>"}, metadata={op_name="params[\'params\'][\'decoder\'][\'layers\'][\'layers_1\'][\'GptOssAttention\'][\'out\'][\'bias\']"}
  %transpose.120 = f32[12,2880]{0,1} transpose(%params__params____decoder____layers____layers_1____GptOssAttention____out____bias__.1), dimensions={1,0}, metadata={op_name="jit(_generate_jit)/TransformerLinenPure.apply/TransformerLinenPure/decoder/transpose" stack_frame_id=360}
  %params__params____decoder____layers____layers_1____GptOssAttention____out____kernel__.1 = f32[64,12,64,2880]{3,2,1,0} parameter(42), sharding={devices=[8,1,1,1]<=[8]}, frontend_attributes={xla.sdy.sharding="#sdy.sharding<@mesh, [{\"tensor\", \"tensor_transpose\", \"tensor_sequence\", \"autoregressive\"}, {\"stage\"}, {}, {\"fsdp\", \"fsdp_transpose\", \"context\", \"expert\"}]>"}, metadata={op_name="params[\'params\'][\'decoder\'][\'layers\'][\'layers_1\'][\'GptOssAttention\'][\'out\'][\'kernel\']"}
  %transpose.121 = f32[12,64,64,2880]{3,2,0,1} transpose(%params__params____decoder____layers____layers_1____GptOssAttention____out____kernel__.1), dimensions={1,0,2,3}, metadata={op_name="jit(_generate_jit)/TransformerLinenPure.apply/TransformerLinenPure/decoder/transpose" stack_frame_id=360}
  %params__params____decoder____layers____layers_1____GptOssAttention____query____bias__.1 = f32[64,12,64]{2,1,0} parameter(43), sharding={devices=[8,1,1]<=[8]}, frontend_attributes={xla.sdy.sharding="#sdy.sharding<@mesh, [{\"tensor\", \"tensor_transpose\", \"tensor_sequence\", \"autoregressive\"}, {\"stage\"}, {}]>"}, metadata={op_name="params[\'params\'][\'decoder\'][\'layers\'][\'layers_1\'][\'GptOssAttention\'][\'query\'][\'bias\']"}
  %transpose.122 = f32[12,64,64]{2,0,1} transpose(%params__params____decoder____layers____layers_1____GptOssAttention____query____bias__.1), dimensions={1,0,2}, metadata={op_name="jit(_generate_jit)/TransformerLinenPure.apply/TransformerLinenPure/decoder/transpose" stack_frame_id=360}
  %params__params____decoder____layers____layers_1____GptOssAttention____query____kernel__.1 = f32[2880,12,64,64]{3,2,1,0} parameter(44), sharding={devices=[1,1,8,1]<=[8]}, frontend_attributes={xla.sdy.sharding="#sdy.sharding<@mesh, [{\"fsdp\", \"fsdp_transpose\", \"context\", \"expert\"}, {\"stage\"}, {\"tensor\", \"tensor_transpose\", \"tensor_sequence\", \"autoregressive\"}, {}]>"}, metadata={op_name="params[\'params\'][\'decoder\'][\'layers\'][\'layers_1\'][\'GptOssAttention\'][\'query\'][\'kernel\']"}
  %transpose.123 = f32[12,2880,64,64]{3,2,0,1} transpose(%params__params____decoder____layers____layers_1____GptOssAttention____query____kernel__.1), dimensions={1,0,2,3}, metadata={op_name="jit(_generate_jit)/TransformerLinenPure.apply/TransformerLinenPure/decoder/transpose" stack_frame_id=360}
  %params__params____decoder____layers____layers_1____GptOssAttention____sinks__.1 = f32[64,12]{1,0} parameter(45), sharding={replicated}, frontend_attributes={xla.sdy.sharding="#sdy.sharding<@mesh, [{}, {\"stage\"}]>"}, metadata={op_name="params[\'params\'][\'decoder\'][\'layers\'][\'layers_1\'][\'GptOssAttention\'][\'sinks\']"}
  %transpose.124 = f32[12,64]{0,1} transpose(%params__params____decoder____layers____layers_1____GptOssAttention____sinks__.1), dimensions={1,0}, metadata={op_name="jit(_generate_jit)/TransformerLinenPure.apply/TransformerLinenPure/decoder/transpose" stack_frame_id=360}
  %params__params____decoder____layers____layers_1____GptOssAttention____value____bias__.1 = f32[8,12,64]{2,1,0} parameter(46), sharding={devices=[8,1,1]<=[8]}, frontend_attributes={xla.sdy.sharding="#sdy.sharding<@mesh, [{\"tensor\", \"tensor_transpose\", \"tensor_sequence\", \"autoregressive\"}, {\"stage\"}, {}]>"}, metadata={op_name="params[\'params\'][\'decoder\'][\'layers\'][\'layers_1\'][\'GptOssAttention\'][\'value\'][\'bias\']"}
  %transpose.125 = f32[12,8,64]{2,0,1} transpose(%params__params____decoder____layers____layers_1____GptOssAttention____value____bias__.1), dimensions={1,0,2}, metadata={op_name="jit(_generate_jit)/TransformerLinenPure.apply/TransformerLinenPure/decoder/transpose" stack_frame_id=360}
  %params__params____decoder____layers____layers_1____GptOssAttention____value____kernel__.1 = f32[2880,12,8,64]{3,2,1,0} parameter(47), sharding={devices=[1,1,8,1]<=[8]}, frontend_attributes={xla.sdy.sharding="#sdy.sharding<@mesh, [{\"fsdp\", \"fsdp_transpose\", \"context\", \"expert\"}, {\"stage\"}, {\"tensor\", \"tensor_transpose\", \"tensor_sequence\", \"autoregressive\"}, {}]>"}, metadata={op_name="params[\'params\'][\'decoder\'][\'layers\'][\'layers_1\'][\'GptOssAttention\'][\'value\'][\'kernel\']"}
  %transpose.126 = f32[12,2880,8,64]{3,2,0,1} transpose(%params__params____decoder____layers____layers_1____GptOssAttention____value____kernel__.1), dimensions={1,0,2,3}, metadata={op_name="jit(_generate_jit)/TransformerLinenPure.apply/TransformerLinenPure/decoder/transpose" stack_frame_id=360}
  %params__params____decoder____layers____layers_1____GptOssMlp____gate____bias__.1 = f32[32,12]{1,0} parameter(48), sharding={replicated}, frontend_attributes={xla.sdy.sharding="#sdy.sharding<@mesh, [{}, {\"stage\"}]>"}, metadata={op_name="params[\'params\'][\'decoder\'][\'layers\'][\'layers_1\'][\'GptOssMlp\'][\'gate\'][\'bias\']"}
  %transpose.127 = f32[12,32]{0,1} transpose(%params__params____decoder____layers____layers_1____GptOssMlp____gate____bias__.1), dimensions={1,0}, metadata={op_name="jit(_generate_jit)/TransformerLinenPure.apply/TransformerLinenPure/decoder/transpose" stack_frame_id=360}
  %params__params____decoder____layers____layers_1____GptOssMlp____gate____kernel__.1 = f32[2880,12,32]{2,1,0} parameter(49), sharding={replicated}, frontend_attributes={xla.sdy.sharding="#sdy.sharding<@mesh, [{\"fsdp\", \"fsdp_transpose\", \"tensor_transpose\", \"context\", \"expert\"}, {\"stage\"}, {}]>"}, metadata={op_name="params[\'params\'][\'decoder\'][\'layers\'][\'layers_1\'][\'GptOssMlp\'][\'gate\'][\'kernel\']"}
  %transpose.128 = f32[12,2880,32]{2,0,1} transpose(%params__params____decoder____layers____layers_1____GptOssMlp____gate____kernel__.1), dimensions={1,0,2}, metadata={op_name="jit(_generate_jit)/TransformerLinenPure.apply/TransformerLinenPure/decoder/transpose" stack_frame_id=360}
  %params__params____decoder____layers____layers_1____GptOssMlp____wi_0__.1 = f32[32,12,2880,2880]{3,2,1,0} parameter(50), sharding={devices=[1,1,1,8]<=[8]}, frontend_attributes={xla.sdy.sharding="#sdy.sharding<@mesh, [{\"expert\"}, {\"stage\"}, {\"fsdp\", \"tensor_transpose\", \"context\"}, {\"fsdp_transpose\", \"tensor\", \"tensor_sequence\", \"autoregressive\"}]>"}, metadata={op_name="params[\'params\'][\'decoder\'][\'layers\'][\'layers_1\'][\'GptOssMlp\'][\'wi_0\']"}
  %transpose.129 = f32[12,32,2880,2880]{3,2,0,1} transpose(%params__params____decoder____layers____layers_1____GptOssMlp____wi_0__.1), dimensions={1,0,2,3}, metadata={op_name="jit(_generate_jit)/TransformerLinenPure.apply/TransformerLinenPure/decoder/transpose" stack_frame_id=360}
  %params__params____decoder____layers____layers_1____GptOssMlp____wi_0_bias__.1 = f32[32,12,2880]{2,1,0} parameter(51), sharding={devices=[1,1,8]<=[8]}, frontend_attributes={xla.sdy.sharding="#sdy.sharding<@mesh, [{\"expert\"}, {\"stage\"}, {\"tensor\", \"tensor_transpose\", \"tensor_sequence\"}]>"}, metadata={op_name="params[\'params\'][\'decoder\'][\'layers\'][\'layers_1\'][\'GptOssMlp\'][\'wi_0_bias\']"}
  %transpose.130 = f32[12,32,2880]{2,0,1} transpose(%params__params____decoder____layers____layers_1____GptOssMlp____wi_0_bias__.1), dimensions={1,0,2}, metadata={op_name="jit(_generate_jit)/TransformerLinenPure.apply/TransformerLinenPure/decoder/transpose" stack_frame_id=360}
  %params__params____decoder____layers____layers_1____GptOssMlp____wi_1__.1 = f32[32,12,2880,2880]{3,2,1,0} parameter(52), sharding={devices=[1,1,1,8]<=[8]}, frontend_attributes={xla.sdy.sharding="#sdy.sharding<@mesh, [{\"expert\"}, {\"stage\"}, {\"fsdp\", \"tensor_transpose\", \"context\"}, {\"fsdp_transpose\", \"tensor\", \"tensor_sequence\", \"autoregressive\"}]>"}, metadata={op_name="params[\'params\'][\'decoder\'][\'layers\'][\'layers_1\'][\'GptOssMlp\'][\'wi_1\']"}
  %transpose.131 = f32[12,32,2880,2880]{3,2,0,1} transpose(%params__params____decoder____layers____layers_1____GptOssMlp____wi_1__.1), dimensions={1,0,2,3}, metadata={op_name="jit(_generate_jit)/TransformerLinenPure.apply/TransformerLinenPure/decoder/transpose" stack_frame_id=360}
  %params__params____decoder____layers____layers_1____GptOssMlp____wi_1_bias__.1 = f32[32,12,2880]{2,1,0} parameter(53), sharding={devices=[1,1,8]<=[8]}, frontend_attributes={xla.sdy.sharding="#sdy.sharding<@mesh, [{\"expert\"}, {\"stage\"}, {\"tensor\", \"tensor_transpose\", \"tensor_sequence\"}]>"}, metadata={op_name="params[\'params\'][\'decoder\'][\'layers\'][\'layers_1\'][\'GptOssMlp\'][\'wi_1_bias\']"}
  %transpose.132 = f32[12,32,2880]{2,0,1} transpose(%params__params____decoder____layers____layers_1____GptOssMlp____wi_1_bias__.1), dimensions={1,0,2}, metadata={op_name="jit(_generate_jit)/TransformerLinenPure.apply/TransformerLinenPure/decoder/transpose" stack_frame_id=360}
  %params__params____decoder____layers____layers_1____GptOssMlp____wo__.1 = f32[32,12,2880,2880]{3,2,1,0} parameter(54), sharding={devices=[1,1,8,1]<=[8]}, frontend_attributes={xla.sdy.sharding="#sdy.sharding<@mesh, [{\"expert\"}, {\"stage\"}, {\"fsdp_transpose\", \"tensor\", \"tensor_sequence\", \"autoregressive\"}, {\"fsdp\", \"tensor_transpose\", \"context\"}]>"}, metadata={op_name="params[\'params\'][\'decoder\'][\'layers\'][\'layers_1\'][\'GptOssMlp\'][\'wo\']"}
  %transpose.133 = f32[12,32,2880,2880]{3,2,0,1} transpose(%params__params____decoder____layers____layers_1____GptOssMlp____wo__.1), dimensions={1,0,2,3}, metadata={op_name="jit(_generate_jit)/TransformerLinenPure.apply/TransformerLinenPure/decoder/transpose" stack_frame_id=360}
  %params__params____decoder____layers____layers_1____GptOssMlp____wo_bias__.1 = f32[32,12,2880]{2,1,0} parameter(55), sharding={devices=[1,1,8]<=[8]}, frontend_attributes={xla.sdy.sharding="#sdy.sharding<@mesh, [{\"expert\"}, {\"stage\"}, {\"tensor\", \"tensor_transpose\"}]>"}, metadata={op_name="params[\'params\'][\'decoder\'][\'layers\'][\'layers_1\'][\'GptOssMlp\'][\'wo_bias\']"}
  %transpose.134 = f32[12,32,2880]{2,0,1} transpose(%params__params____decoder____layers____layers_1____GptOssMlp____wo_bias__.1), dimensions={1,0,2}, metadata={op_name="jit(_generate_jit)/TransformerLinenPure.apply/TransformerLinenPure/decoder/transpose" stack_frame_id=360}
  %params__params____decoder____layers____layers_1____post_self_attention_layer_norm____scale__.1 = f32[2880,12]{1,0} parameter(56), sharding={devices=[8,1]<=[8]}, frontend_attributes={xla.sdy.sharding="#sdy.sharding<@mesh, [{\"tensor\", \"tensor_transpose\"}, {\"stage\"}]>"}, metadata={op_name="params[\'params\'][\'decoder\'][\'layers\'][\'layers_1\'][\'post_self_attention_layer_norm\'][\'scale\']"}
  %transpose.135 = f32[12,2880]{0,1} transpose(%params__params____decoder____layers____layers_1____post_self_attention_layer_norm____scale__.1), dimensions={1,0}, metadata={op_name="jit(_generate_jit)/TransformerLinenPure.apply/TransformerLinenPure/decoder/transpose" stack_frame_id=360}
  %params__params____decoder____layers____layers_1____pre_self_attention_layer_norm____scale__.1 = f32[2880,12]{1,0} parameter(57), sharding={devices=[8,1]<=[8]}, frontend_attributes={xla.sdy.sharding="#sdy.sharding<@mesh, [{\"tensor\", \"tensor_transpose\"}, {\"stage\"}]>"}, metadata={op_name="params[\'params\'][\'decoder\'][\'layers\'][\'layers_1\'][\'pre_self_attention_layer_norm\'][\'scale\']"}
  %transpose.136 = f32[12,2880]{0,1} transpose(%params__params____decoder____layers____layers_1____pre_self_attention_layer_norm____scale__.1), dimensions={1,0}, metadata={op_name="jit(_generate_jit)/TransformerLinenPure.apply/TransformerLinenPure/decoder/transpose" stack_frame_id=360}
  %decode_state__cache____decoder____layers____layers_0____GptOssAttention____KVCache_0____cache_ar_index__.1 = s32[12,1]{1,0} parameter(0), sharding={replicated}, frontend_attributes={xla.sdy.sharding="#sdy.sharding<@mesh, [{\"stage\"}, {}]>"}, metadata={op_name="decode_state[\'cache\'][\'decoder\'][\'layers\'][\'layers_0\'][\'GptOssAttention\'][\'KVCache_0\'][\'cache_ar_index\']"}
  %decode_state__cache____decoder____layers____layers_0____GptOssAttention____KVCache_0____cache_ar_segment_id__.1 = s32[12,8,1984]{2,1,0} parameter(1), sharding={replicated}, frontend_attributes={xla.sdy.sharding="#sdy.sharding<@mesh, [{}, {}, {}]>"}, metadata={op_name="decode_state[\'cache\'][\'decoder\'][\'layers\'][\'layers_0\'][\'GptOssAttention\'][\'KVCache_0\'][\'cache_ar_segment_id\']"}
  %decode_state__cache____decoder____layers____layers_0____GptOssAttention____KVCache_0____cache_prefill_segment_id__.1 = s32[12,8,64]{2,1,0} parameter(2), sharding={replicated}, frontend_attributes={xla.sdy.sharding="#sdy.sharding<@mesh, [{}, {}, {}]>"}, metadata={op_name="decode_state[\'cache\'][\'decoder\'][\'layers\'][\'layers_0\'][\'GptOssAttention\'][\'KVCache_0\'][\'cache_prefill_segment_id\']"}
  %decode_state__cache____decoder____layers____layers_0____GptOssAttention____KVCache_0____cached_ar_key__.1 = bf16[12,1984,8,8,64]{4,3,2,1,0} parameter(3), sharding={devices=[1,1,8,1,1]<=[8]}, frontend_attributes={xla.sdy.sharding="#sdy.sharding<@mesh, [{}, {}, {\"tensor\"}, {}, {}]>"}, metadata={op_name="decode_state[\'cache\'][\'decoder\'][\'layers\'][\'layers_0\'][\'GptOssAttention\'][\'KVCache_0\'][\'cached_ar_key\']"}
  %decode_state__cache____decoder____layers____layers_0____GptOssAttention____KVCache_0____cached_ar_lengths__.1 = s32[12,8]{1,0} parameter(4), sharding={replicated}, frontend_attributes={xla.sdy.sharding="#sdy.sharding<@mesh, [{\"stage\"}, {}]>"}, metadata={op_name="decode_state[\'cache\'][\'decoder\'][\'layers\'][\'layers_0\'][\'GptOssAttention\'][\'KVCache_0\'][\'cached_ar_lengths\']"}
  %decode_state__cache____decoder____layers____layers_0____GptOssAttention____KVCache_0____cached_ar_value__.1 = bf16[12,1984,8,8,64]{4,3,2,1,0} parameter(5), sharding={devices=[1,1,8,1,1]<=[8]}, frontend_attributes={xla.sdy.sharding="#sdy.sharding<@mesh, [{}, {}, {\"tensor\"}, {}, {}]>"}, metadata={op_name="decode_state[\'cache\'][\'decoder\'][\'layers\'][\'layers_0\'][\'GptOssAttention\'][\'KVCache_0\'][\'cached_ar_value\']"}
  %decode_state__cache____decoder____layers____layers_0____GptOssAttention____KVCache_0____cached_prefill_key__.1 = bf16[12,64,8,8,64]{4,3,2,1,0} parameter(6), sharding={devices=[1,1,8,1,1]<=[8]}, frontend_attributes={xla.sdy.sharding="#sdy.sharding<@mesh, [{}, {}, {\"tensor\"}, {}, {}]>"}, metadata={op_name="decode_state[\'cache\'][\'decoder\'][\'layers\'][\'layers_0\'][\'GptOssAttention\'][\'KVCache_0\'][\'cached_prefill_key\']"}
  %decode_state__cache____decoder____layers____layers_0____GptOssAttention____KVCache_0____cached_prefill_value__.1 = bf16[12,64,8,8,64]{4,3,2,1,0} parameter(7), sharding={devices=[1,1,8,1,1]<=[8]}, frontend_attributes={xla.sdy.sharding="#sdy.sharding<@mesh, [{}, {}, {\"tensor\"}, {}, {}]>"}, metadata={op_name="decode_state[\'cache\'][\'decoder\'][\'layers\'][\'layers_0\'][\'GptOssAttention\'][\'KVCache_0\'][\'cached_prefill_value\']"}
  %decode_state__cache____decoder____layers____layers_1____GptOssAttention____KVCache_0____cache_ar_index__.1 = s32[12,1]{1,0} parameter(8), sharding={replicated}, frontend_attributes={xla.sdy.sharding="#sdy.sharding<@mesh, [{\"stage\"}, {}]>"}, metadata={op_name="decode_state[\'cache\'][\'decoder\'][\'layers\'][\'layers_1\'][\'GptOssAttention\'][\'KVCache_0\'][\'cache_ar_index\']"}
  %decode_state__cache____decoder____layers____layers_1____GptOssAttention____KVCache_0____cache_ar_segment_id__.1 = s32[12,8,1984]{2,1,0} parameter(9), sharding={replicated}, frontend_attributes={xla.sdy.sharding="#sdy.sharding<@mesh, [{}, {}, {}]>"}, metadata={op_name="decode_state[\'cache\'][\'decoder\'][\'layers\'][\'layers_1\'][\'GptOssAttention\'][\'KVCache_0\'][\'cache_ar_segment_id\']"}
  %decode_state__cache____decoder____layers____layers_1____GptOssAttention____KVCache_0____cache_prefill_segment_id__.1 = s32[12,8,64]{2,1,0} parameter(10), sharding={replicated}, frontend_attributes={xla.sdy.sharding="#sdy.sharding<@mesh, [{}, {}, {}]>"}, metadata={op_name="decode_state[\'cache\'][\'decoder\'][\'layers\'][\'layers_1\'][\'GptOssAttention\'][\'KVCache_0\'][\'cache_prefill_segment_id\']"}
  %decode_state__cache____decoder____layers____layers_1____GptOssAttention____KVCache_0____cached_ar_key__.1 = bf16[12,1984,8,8,64]{4,3,2,1,0} parameter(11), sharding={devices=[1,1,8,1,1]<=[8]}, frontend_attributes={xla.sdy.sharding="#sdy.sharding<@mesh, [{}, {}, {\"tensor\"}, {}, {}]>"}, metadata={op_name="decode_state[\'cache\'][\'decoder\'][\'layers\'][\'layers_1\'][\'GptOssAttention\'][\'KVCache_0\'][\'cached_ar_key\']"}
  %decode_state__cache____decoder____layers____layers_1____GptOssAttention____KVCache_0____cached_ar_lengths__.1 = s32[12,8]{1,0} parameter(12), sharding={replicated}, frontend_attributes={xla.sdy.sharding="#sdy.sharding<@mesh, [{\"stage\"}, {}]>"}, metadata={op_name="decode_state[\'cache\'][\'decoder\'][\'layers\'][\'layers_1\'][\'GptOssAttention\'][\'KVCache_0\'][\'cached_ar_lengths\']"}
  %decode_state__cache____decoder____layers____layers_1____GptOssAttention____KVCache_0____cached_ar_value__.1 = bf16[12,1984,8,8,64]{4,3,2,1,0} parameter(13), sharding={devices=[1,1,8,1,1]<=[8]}, frontend_attributes={xla.sdy.sharding="#sdy.sharding<@mesh, [{}, {}, {\"tensor\"}, {}, {}]>"}, metadata={op_name="decode_state[\'cache\'][\'decoder\'][\'layers\'][\'layers_1\'][\'GptOssAttention\'][\'KVCache_0\'][\'cached_ar_value\']"}
  %decode_state__cache____decoder____layers____layers_1____GptOssAttention____KVCache_0____cached_prefill_key__.1 = bf16[12,64,8,8,64]{4,3,2,1,0} parameter(14), sharding={devices=[1,1,8,1,1]<=[8]}, frontend_attributes={xla.sdy.sharding="#sdy.sharding<@mesh, [{}, {}, {\"tensor\"}, {}, {}]>"}, metadata={op_name="decode_state[\'cache\'][\'decoder\'][\'layers\'][\'layers_1\'][\'GptOssAttention\'][\'KVCache_0\'][\'cached_prefill_key\']"}
  %decode_state__cache____decoder____layers____layers_1____GptOssAttention____KVCache_0____cached_prefill_value__.1 = bf16[12,64,8,8,64]{4,3,2,1,0} parameter(15), sharding={devices=[1,1,8,1,1]<=[8]}, frontend_attributes={xla.sdy.sharding="#sdy.sharding<@mesh, [{}, {}, {\"tensor\"}, {}, {}]>"}, metadata={op_name="decode_state[\'cache\'][\'decoder\'][\'layers\'][\'layers_1\'][\'GptOssAttention\'][\'KVCache_0\'][\'cached_prefill_value\']"}
  %decode_state__next_pos__.1 = s32[8,1]{1,0} parameter(17), sharding={replicated}, frontend_attributes={xla.sdy.sharding="#sdy.sharding<@mesh, [{\"stage\"}, {}]>"}, metadata={op_name="decode_state[\'next_pos\']"}
  %while.20 = (s32[], bf16[8,1,2880]{2,1,0}, s32[12,1]{1,0}, s32[12,8,1984]{2,1,0}, s32[12,8,64]{2,1,0}, /*index=5*/bf16[12,1984,8,8,64]{4,3,2,1,0}, s32[12,8]{1,0}, bf16[12,1984,8,8,64]{4,3,2,1,0}, bf16[12,64,8,8,64]{4,3,2,1,0}, bf16[12,64,8,8,64]{4,3,2,1,0}, /*index=10*/s32[12,1]{1,0}, s32[12,8,1984]{2,1,0}, s32[12,8,64]{2,1,0}, bf16[12,1984,8,8,64]{4,3,2,1,0}, s32[12,8]{1,0}, /*index=15*/bf16[12,1984,8,8,64]{4,3,2,1,0}, bf16[12,64,8,8,64]{4,3,2,1,0}, bf16[12,64,8,8,64]{4,3,2,1,0}, f32[12,8,64]{2,0,1}, f32[12,2880,8,64]{3,2,0,1}, /*index=20*/f32[12,2880]{0,1}, f32[12,64,64,2880]{3,2,0,1}, f32[12,64,64]{2,0,1}, f32[12,2880,64,64]{3,2,0,1}, f32[12,64]{0,1}, /*index=25*/f32[12,8,64]{2,0,1}, f32[12,2880,8,64]{3,2,0,1}, f32[12,32]{0,1}, f32[12,2880,32]{2,0,1}, f32[12,32,2880,2880]{3,2,0,1}, /*index=30*/f32[12,32,2880]{2,0,1}, f32[12,32,2880,2880]{3,2,0,1}, f32[12,32,2880]{2,0,1}, f32[12,32,2880,2880]{3,2,0,1}, f32[12,32,2880]{2,0,1}, /*index=35*/f32[12,2880]{0,1}, f32[12,2880]{0,1}, f32[12,8,64]{2,0,1}, f32[12,2880,8,64]{3,2,0,1}, f32[12,2880]{0,1}, /*index=40*/f32[12,64,64,2880]{3,2,0,1}, f32[12,64,64]{2,0,1}, f32[12,2880,64,64]{3,2,0,1}, f32[12,64]{0,1}, f32[12,8,64]{2,0,1}, /*index=45*/f32[12,2880,8,64]{3,2,0,1}, f32[12,32]{0,1}, f32[12,2880,32]{2,0,1}, f32[12,32,2880,2880]{3,2,0,1}, f32[12,32,2880]{2,0,1}, /*index=50*/f32[12,32,2880,2880]{3,2,0,1}, f32[12,32,2880]{2,0,1}, f32[12,32,2880,2880]{3,2,0,1}, f32[12,32,2880]{2,0,1}, f32[12,2880]{0,1}, /*index=55*/f32[12,2880]{0,1}, s32[12,1]{1,0}, s32[12,8,1984]{2,1,0}, s32[12,8,64]{2,1,0}, bf16[12,1984,8,8,64]{4,3,2,1,0}, /*index=60*/s32[12,8]{1,0}, bf16[12,1984,8,8,64]{4,3,2,1,0}, bf16[12,64,8,8,64]{4,3,2,1,0}, bf16[12,64,8,8,64]{4,3,2,1,0}, s32[12,1]{1,0}, /*index=65*/s32[12,8,1984]{2,1,0}, s32[12,8,64]{2,1,0}, bf16[12,1984,8,8,64]{4,3,2,1,0}, s32[12,8]{1,0}, bf16[12,1984,8,8,64]{4,3,2,1,0}, /*index=70*/bf16[12,64,8,8,64]{4,3,2,1,0}, bf16[12,64,8,8,64]{4,3,2,1,0}, s32[8,1]{1,0}) tuple(%constant.199, %gather.9, %broadcast.89, %broadcast.88, %broadcast.87, /*index=5*/%broadcast.86, %broadcast.85, %broadcast.86, %broadcast.84, %broadcast.84, /*index=10*/%broadcast.89, %broadcast.88, %broadcast.87, %broadcast.86, %broadcast.85, /*index=15*/%broadcast.86, %broadcast.84, %broadcast.84, %transpose.99, %transpose.100, /*index=20*/%transpose.101, %transpose.102, %transpose.103, %transpose.104, %transpose.105, /*index=25*/%transpose.106, %transpose.107, %transpose.108, %transpose.109, %transpose.110, /*index=30*/%transpose.111, %transpose.112, %transpose.113, %transpose.114, %transpose.115, /*index=35*/%transpose.116, %transpose.117, %transpose.118, %transpose.119, %transpose.120, /*index=40*/%transpose.121, %transpose.122, %transpose.123, %transpose.124, %transpose.125, /*index=45*/%transpose.126, %transpose.127, %transpose.128, %transpose.129, %transpose.130, /*index=50*/%transpose.131, %transpose.132, %transpose.133, %transpose.134, %transpose.135, /*index=55*/%transpose.136, %decode_state__cache____decoder____layers____layers_0____GptOssAttention____KVCache_0____cache_ar_index__.1, %decode_state__cache____decoder____layers____layers_0____GptOssAttention____KVCache_0____cache_ar_segment_id__.1, %decode_state__cache____decoder____layers____layers_0____GptOssAttention____KVCache_0____cache_prefill_segment_id__.1, %decode_state__cache____decoder____layers____layers_0____GptOssAttention____KVCache_0____cached_ar_key__.1, /*index=60*/%decode_state__cache____decoder____layers____layers_0____GptOssAttention____KVCache_0____cached_ar_lengths__.1, %decode_state__cache____decoder____layers____layers_0____GptOssAttention____KVCache_0____cached_ar_value__.1, %decode_state__cache____decoder____layers____layers_0____GptOssAttention____KVCache_0____cached_prefill_key__.1, %decode_state__cache____decoder____layers____layers_0____GptOssAttention____KVCache_0____cached_prefill_value__.1, %decode_state__cache____decoder____layers____layers_1____GptOssAttention____KVCache_0____cache_ar_index__.1, /*index=65*/%decode_state__cache____decoder____layers____layers_1____GptOssAttention____KVCache_0____cache_ar_segment_id__.1, %decode_state__cache____decoder____layers____layers_1____GptOssAttention____KVCache_0____cache_prefill_segment_id__.1, %decode_state__cache____decoder____layers____layers_1____GptOssAttention____KVCache_0____cached_ar_key__.1, %decode_state__cache____decoder____layers____layers_1____GptOssAttention____KVCache_0____cached_ar_lengths__.1, %decode_state__cache____decoder____layers____layers_1____GptOssAttention____KVCache_0____cached_ar_value__.1, /*index=70*/%decode_state__cache____decoder____layers____layers_1____GptOssAttention____KVCache_0____cached_prefill_key__.1, %decode_state__cache____decoder____layers____layers_1____GptOssAttention____KVCache_0____cached_prefill_value__.1, %decode_state__next_pos__.1), metadata={op_name="jit(_generate_jit)/TransformerLinenPure.apply/TransformerLinenPure/decoder/while" stack_frame_id=339}
  %while.21 = (s32[], bf16[8,1,2880]{2,1,0}, s32[12,1]{1,0}, s32[12,8,1984]{2,1,0}, s32[12,8,64]{2,1,0}, /*index=5*/bf16[12,1984,8,8,64]{4,3,2,1,0}, s32[12,8]{1,0}, bf16[12,1984,8,8,64]{4,3,2,1,0}, bf16[12,64,8,8,64]{4,3,2,1,0}, bf16[12,64,8,8,64]{4,3,2,1,0}, /*index=10*/s32[12,1]{1,0}, s32[12,8,1984]{2,1,0}, s32[12,8,64]{2,1,0}, bf16[12,1984,8,8,64]{4,3,2,1,0}, s32[12,8]{1,0}, /*index=15*/bf16[12,1984,8,8,64]{4,3,2,1,0}, bf16[12,64,8,8,64]{4,3,2,1,0}, bf16[12,64,8,8,64]{4,3,2,1,0}, f32[12,8,64]{2,0,1}, f32[12,2880,8,64]{3,2,0,1}, /*index=20*/f32[12,2880]{0,1}, f32[12,64,64,2880]{3,2,0,1}, f32[12,64,64]{2,0,1}, f32[12,2880,64,64]{3,2,0,1}, f32[12,64]{0,1}, /*index=25*/f32[12,8,64]{2,0,1}, f32[12,2880,8,64]{3,2,0,1}, f32[12,32]{0,1}, f32[12,2880,32]{2,0,1}, f32[12,32,2880,2880]{3,2,0,1}, /*index=30*/f32[12,32,2880]{2,0,1}, f32[12,32,2880,2880]{3,2,0,1}, f32[12,32,2880]{2,0,1}, f32[12,32,2880,2880]{3,2,0,1}, f32[12,32,2880]{2,0,1}, /*index=35*/f32[12,2880]{0,1}, f32[12,2880]{0,1}, f32[12,8,64]{2,0,1}, f32[12,2880,8,64]{3,2,0,1}, f32[12,2880]{0,1}, /*index=40*/f32[12,64,64,2880]{3,2,0,1}, f32[12,64,64]{2,0,1}, f32[12,2880,64,64]{3,2,0,1}, f32[12,64]{0,1}, f32[12,8,64]{2,0,1}, /*index=45*/f32[12,2880,8,64]{3,2,0,1}, f32[12,32]{0,1}, f32[12,2880,32]{2,0,1}, f32[12,32,2880,2880]{3,2,0,1}, f32[12,32,2880]{2,0,1}, /*index=50*/f32[12,32,2880,2880]{3,2,0,1}, f32[12,32,2880]{2,0,1}, f32[12,32,2880,2880]{3,2,0,1}, f32[12,32,2880]{2,0,1}, f32[12,2880]{0,1}, /*index=55*/f32[12,2880]{0,1}, s32[12,1]{1,0}, s32[12,8,1984]{2,1,0}, s32[12,8,64]{2,1,0}, bf16[12,1984,8,8,64]{4,3,2,1,0}, /*index=60*/s32[12,8]{1,0}, bf16[12,1984,8,8,64]{4,3,2,1,0}, bf16[12,64,8,8,64]{4,3,2,1,0}, bf16[12,64,8,8,64]{4,3,2,1,0}, s32[12,1]{1,0}, /*index=65*/s32[12,8,1984]{2,1,0}, s32[12,8,64]{2,1,0}, bf16[12,1984,8,8,64]{4,3,2,1,0}, s32[12,8]{1,0}, bf16[12,1984,8,8,64]{4,3,2,1,0}, /*index=70*/bf16[12,64,8,8,64]{4,3,2,1,0}, bf16[12,64,8,8,64]{4,3,2,1,0}, s32[8,1]{1,0}) while(%while.20), condition=%region_21.57, body=%region_0.56, metadata={op_name="jit(_generate_jit)/TransformerLinenPure.apply/TransformerLinenPure/decoder/while" stack_frame_id=339}
  %while.22 = s32[] get-tuple-element(%while.21), index=0, metadata={op_name="jit(_generate_jit)/TransformerLinenPure.apply/TransformerLinenPure/decoder/while" stack_frame_id=339}
  %while.24 = s32[12,1]{1,0} get-tuple-element(%while.21), index=2, metadata={op_name="jit(_generate_jit)/TransformerLinenPure.apply/TransformerLinenPure/decoder/while" stack_frame_id=339}
  %sharding_constraint.58 = s32[12,1]{1,0} custom-call(%while.24), custom_call_target="Sharding", sharding={replicated}, frontend_attributes={xla.sdy.sharding="#sdy.sharding_per_value<[<@mesh, [{\"stage\"}, {}]>]>"}, metadata={op_name="jit(_generate_jit)/sharding_constraint" stack_frame_id=361}
  %while.25 = s32[12,8,1984]{2,1,0} get-tuple-element(%while.21), index=3, metadata={op_name="jit(_generate_jit)/TransformerLinenPure.apply/TransformerLinenPure/decoder/while" stack_frame_id=339}
  %sharding_constraint.59 = s32[12,8,1984]{2,1,0} custom-call(%while.25), custom_call_target="Sharding", sharding={replicated}, frontend_attributes={xla.sdy.sharding="#sdy.sharding_per_value<[<@mesh, [{\"stage\"}, {}, {}]>]>"}, metadata={op_name="jit(_generate_jit)/sharding_constraint" stack_frame_id=361}
  %while.26 = s32[12,8,64]{2,1,0} get-tuple-element(%while.21), index=4, metadata={op_name="jit(_generate_jit)/TransformerLinenPure.apply/TransformerLinenPure/decoder/while" stack_frame_id=339}
  %sharding_constraint.60 = s32[12,8,64]{2,1,0} custom-call(%while.26), custom_call_target="Sharding", sharding={replicated}, frontend_attributes={xla.sdy.sharding="#sdy.sharding_per_value<[<@mesh, [{\"stage\"}, {}, {}]>]>"}, metadata={op_name="jit(_generate_jit)/sharding_constraint" stack_frame_id=361}
  %while.27 = bf16[12,1984,8,8,64]{4,3,2,1,0} get-tuple-element(%while.21), index=5, metadata={op_name="jit(_generate_jit)/TransformerLinenPure.apply/TransformerLinenPure/decoder/while" stack_frame_id=339}
  %sharding_constraint.61 = bf16[12,1984,8,8,64]{4,3,2,1,0} custom-call(%while.27), custom_call_target="Sharding", sharding={devices=[1,1,8,1,1]<=[8]}, frontend_attributes={xla.sdy.sharding="#sdy.sharding_per_value<[<@mesh, [{\"stage\"}, {}, {\"autoregressive\", \"tensor\", \"tensor_transpose\", \"tensor_sequence\"}, {}, {}]>]>"}, metadata={op_name="jit(_generate_jit)/sharding_constraint" stack_frame_id=361}
  %while.28 = s32[12,8]{1,0} get-tuple-element(%while.21), index=6, metadata={op_name="jit(_generate_jit)/TransformerLinenPure.apply/TransformerLinenPure/decoder/while" stack_frame_id=339}
  %sharding_constraint.62 = s32[12,8]{1,0} custom-call(%while.28), custom_call_target="Sharding", sharding={replicated}, frontend_attributes={xla.sdy.sharding="#sdy.sharding_per_value<[<@mesh, [{\"stage\"}, {}]>]>"}, metadata={op_name="jit(_generate_jit)/sharding_constraint" stack_frame_id=361}
  %while.29 = bf16[12,1984,8,8,64]{4,3,2,1,0} get-tuple-element(%while.21), index=7, metadata={op_name="jit(_generate_jit)/TransformerLinenPure.apply/TransformerLinenPure/decoder/while" stack_frame_id=339}
  %sharding_constraint.63 = bf16[12,1984,8,8,64]{4,3,2,1,0} custom-call(%while.29), custom_call_target="Sharding", sharding={devices=[1,1,8,1,1]<=[8]}, frontend_attributes={xla.sdy.sharding="#sdy.sharding_per_value<[<@mesh, [{\"stage\"}, {}, {\"autoregressive\", \"tensor\", \"tensor_transpose\", \"tensor_sequence\"}, {}, {}]>]>"}, metadata={op_name="jit(_generate_jit)/sharding_constraint" stack_frame_id=361}
  %while.30 = bf16[12,64,8,8,64]{4,3,2,1,0} get-tuple-element(%while.21), index=8, metadata={op_name="jit(_generate_jit)/TransformerLinenPure.apply/TransformerLinenPure/decoder/while" stack_frame_id=339}
  %sharding_constraint.64 = bf16[12,64,8,8,64]{4,3,2,1,0} custom-call(%while.30), custom_call_target="Sharding", sharding={devices=[1,1,8,1,1]<=[8]}, frontend_attributes={xla.sdy.sharding="#sdy.sharding_per_value<[<@mesh, [{\"stage\"}, {}, {\"autoregressive\", \"tensor\", \"tensor_transpose\", \"tensor_sequence\"}, {}, {}]>]>"}, metadata={op_name="jit(_generate_jit)/sharding_constraint" stack_frame_id=361}
  %while.31 = bf16[12,64,8,8,64]{4,3,2,1,0} get-tuple-element(%while.21), index=9, metadata={op_name="jit(_generate_jit)/TransformerLinenPure.apply/TransformerLinenPure/decoder/while" stack_frame_id=339}
  %sharding_constraint.65 = bf16[12,64,8,8,64]{4,3,2,1,0} custom-call(%while.31), custom_call_target="Sharding", sharding={devices=[1,1,8,1,1]<=[8]}, frontend_attributes={xla.sdy.sharding="#sdy.sharding_per_value<[<@mesh, [{\"stage\"}, {}, {\"autoregressive\", \"tensor\", \"tensor_transpose\", \"tensor_sequence\"}, {}, {}]>]>"}, metadata={op_name="jit(_generate_jit)/sharding_constraint" stack_frame_id=361}
  %while.32 = s32[12,1]{1,0} get-tuple-element(%while.21), index=10, metadata={op_name="jit(_generate_jit)/TransformerLinenPure.apply/TransformerLinenPure/decoder/while" stack_frame_id=339}
  %sharding_constraint.66 = s32[12,1]{1,0} custom-call(%while.32), custom_call_target="Sharding", sharding={replicated}, frontend_attributes={xla.sdy.sharding="#sdy.sharding_per_value<[<@mesh, [{\"stage\"}, {}]>]>"}, metadata={op_name="jit(_generate_jit)/sharding_constraint" stack_frame_id=361}
  %while.33 = s32[12,8,1984]{2,1,0} get-tuple-element(%while.21), index=11, metadata={op_name="jit(_generate_jit)/TransformerLinenPure.apply/TransformerLinenPure/decoder/while" stack_frame_id=339}
  %sharding_constraint.67 = s32[12,8,1984]{2,1,0} custom-call(%while.33), custom_call_target="Sharding", sharding={replicated}, frontend_attributes={xla.sdy.sharding="#sdy.sharding_per_value<[<@mesh, [{\"stage\"}, {}, {}]>]>"}, metadata={op_name="jit(_generate_jit)/sharding_constraint" stack_frame_id=361}
  %while.34 = s32[12,8,64]{2,1,0} get-tuple-element(%while.21), index=12, metadata={op_name="jit(_generate_jit)/TransformerLinenPure.apply/TransformerLinenPure/decoder/while" stack_frame_id=339}
  %sharding_constraint.68 = s32[12,8,64]{2,1,0} custom-call(%while.34), custom_call_target="Sharding", sharding={replicated}, frontend_attributes={xla.sdy.sharding="#sdy.sharding_per_value<[<@mesh, [{\"stage\"}, {}, {}]>]>"}, metadata={op_name="jit(_generate_jit)/sharding_constraint" stack_frame_id=361}
  %while.35 = bf16[12,1984,8,8,64]{4,3,2,1,0} get-tuple-element(%while.21), index=13, metadata={op_name="jit(_generate_jit)/TransformerLinenPure.apply/TransformerLinenPure/decoder/while" stack_frame_id=339}
  %sharding_constraint.69 = bf16[12,1984,8,8,64]{4,3,2,1,0} custom-call(%while.35), custom_call_target="Sharding", sharding={devices=[1,1,8,1,1]<=[8]}, frontend_attributes={xla.sdy.sharding="#sdy.sharding_per_value<[<@mesh, [{\"stage\"}, {}, {\"autoregressive\", \"tensor\", \"tensor_transpose\", \"tensor_sequence\"}, {}, {}]>]>"}, metadata={op_name="jit(_generate_jit)/sharding_constraint" stack_frame_id=361}
  %while.36 = s32[12,8]{1,0} get-tuple-element(%while.21), index=14, metadata={op_name="jit(_generate_jit)/TransformerLinenPure.apply/TransformerLinenPure/decoder/while" stack_frame_id=339}
  %sharding_constraint.70 = s32[12,8]{1,0} custom-call(%while.36), custom_call_target="Sharding", sharding={replicated}, frontend_attributes={xla.sdy.sharding="#sdy.sharding_per_value<[<@mesh, [{\"stage\"}, {}]>]>"}, metadata={op_name="jit(_generate_jit)/sharding_constraint" stack_frame_id=361}
  %while.37 = bf16[12,1984,8,8,64]{4,3,2,1,0} get-tuple-element(%while.21), index=15, metadata={op_name="jit(_generate_jit)/TransformerLinenPure.apply/TransformerLinenPure/decoder/while" stack_frame_id=339}
  %sharding_constraint.71 = bf16[12,1984,8,8,64]{4,3,2,1,0} custom-call(%while.37), custom_call_target="Sharding", sharding={devices=[1,1,8,1,1]<=[8]}, frontend_attributes={xla.sdy.sharding="#sdy.sharding_per_value<[<@mesh, [{\"stage\"}, {}, {\"autoregressive\", \"tensor\", \"tensor_transpose\", \"tensor_sequence\"}, {}, {}]>]>"}, metadata={op_name="jit(_generate_jit)/sharding_constraint" stack_frame_id=361}
  %while.38 = bf16[12,64,8,8,64]{4,3,2,1,0} get-tuple-element(%while.21), index=16, metadata={op_name="jit(_generate_jit)/TransformerLinenPure.apply/TransformerLinenPure/decoder/while" stack_frame_id=339}
  %sharding_constraint.72 = bf16[12,64,8,8,64]{4,3,2,1,0} custom-call(%while.38), custom_call_target="Sharding", sharding={devices=[1,1,8,1,1]<=[8]}, frontend_attributes={xla.sdy.sharding="#sdy.sharding_per_value<[<@mesh, [{\"stage\"}, {}, {\"autoregressive\", \"tensor\", \"tensor_transpose\", \"tensor_sequence\"}, {}, {}]>]>"}, metadata={op_name="jit(_generate_jit)/sharding_constraint" stack_frame_id=361}
  %while.39 = bf16[12,64,8,8,64]{4,3,2,1,0} get-tuple-element(%while.21), index=17, metadata={op_name="jit(_generate_jit)/TransformerLinenPure.apply/TransformerLinenPure/decoder/while" stack_frame_id=339}
  %sharding_constraint.73 = bf16[12,64,8,8,64]{4,3,2,1,0} custom-call(%while.39), custom_call_target="Sharding", sharding={devices=[1,1,8,1,1]<=[8]}, frontend_attributes={xla.sdy.sharding="#sdy.sharding_per_value<[<@mesh, [{\"stage\"}, {}, {\"autoregressive\", \"tensor\", \"tensor_transpose\", \"tensor_sequence\"}, {}, {}]>]>"}, metadata={op_name="jit(_generate_jit)/sharding_constraint" stack_frame_id=361}
  %decode_state__generated_tokens__.1 = s32[8,1]{1,0} parameter(16), sharding={replicated}, frontend_attributes={xla.sdy.sharding="#sdy.sharding<@mesh, [{\"stage\"}, {}]>"}, metadata={op_name="decode_state[\'generated_tokens\']"}
  %constant.186 = s32[] constant(1)
  %broadcast.80 = s32[8,1]{1,0} broadcast(%constant.186), dimensions={}
  %add.221 = s32[8,1]{1,0} add(%decode_state__generated_tokens__.1, %broadcast.80), metadata={op_name="jit(_generate_jit)/add" stack_frame_id=362}
  %params__params____decoder____decoder_norm____scale__.1 = f32[2880]{0} parameter(19), sharding={devices=[8]<=[8]}, frontend_attributes={xla.sdy.sharding="#sdy.sharding<@mesh, [{\"tensor\", \"tensor_transpose\"}]>"}, metadata={op_name="params[\'params\'][\'decoder\'][\'decoder_norm\'][\'scale\']"}
  %convert_element_type.183 = bf16[2880]{0} convert(%params__params____decoder____decoder_norm____scale__.1), metadata={op_name="jit(_generate_jit)/TransformerLinenPure.apply/TransformerLinenPure/decoder/decoder.apply_output_head/decoder_norm/convert_element_type" stack_frame_id=363}
  %while.23 = bf16[8,1,2880]{2,1,0} get-tuple-element(%while.21), index=1, metadata={op_name="jit(_generate_jit)/TransformerLinenPure.apply/TransformerLinenPure/decoder/while" stack_frame_id=339}
  %convert_element_type.181 = f32[8,1,2880]{2,1,0} convert(%while.23), metadata={op_name="jit(_generate_jit)/TransformerLinenPure.apply/TransformerLinenPure/decoder/decoder.apply_output_head/decoder_norm/convert_element_type" stack_frame_id=364}
  %square.9 = f32[8,1,2880]{2,1,0} multiply(%convert_element_type.181, %convert_element_type.181), metadata={op_name="jit(_generate_jit)/TransformerLinenPure.apply/TransformerLinenPure/decoder/decoder.apply_output_head/decoder_norm/square" stack_frame_id=365}
  %constant.198 = f32[] constant(0)
  %reduce_sum.87 = f32[8,1]{1,0} reduce(%square.9, %constant.198), dimensions={2}, to_apply=%region_22.58, metadata={op_name="jit(_generate_jit)/TransformerLinenPure.apply/TransformerLinenPure/decoder/decoder.apply_output_head/decoder_norm/reduce_sum" stack_frame_id=348}
  %broadcast_in_dim.227 = f32[8,1,1]{2,1,0} reshape(%reduce_sum.87), metadata={op_name="jit(_generate_jit)/TransformerLinenPure.apply/TransformerLinenPure/decoder/decoder.apply_output_head/decoder_norm/broadcast_in_dim" stack_frame_id=348}
  %constant.189 = f32[] constant(2880)
  %broadcast.83 = f32[8,1,1]{2,1,0} broadcast(%constant.189), dimensions={}
  %div.69 = f32[8,1,1]{2,1,0} divide(%broadcast_in_dim.227, %broadcast.83), metadata={op_name="jit(_generate_jit)/TransformerLinenPure.apply/TransformerLinenPure/decoder/decoder.apply_output_head/decoder_norm/div" stack_frame_id=348}
  %constant.188 = f32[] constant(1e-05)
  %broadcast.82 = f32[8,1,1]{2,1,0} broadcast(%constant.188), dimensions={}
  %add.219 = f32[8,1,1]{2,1,0} add(%div.69, %broadcast.82), metadata={op_name="jit(_generate_jit)/TransformerLinenPure.apply/TransformerLinenPure/decoder/decoder.apply_output_head/decoder_norm/add" stack_frame_id=366}
  %rsqrt.9 = f32[8,1,1]{2,1,0} rsqrt(%add.219), metadata={op_name="jit(_generate_jit)/TransformerLinenPure.apply/TransformerLinenPure/decoder/decoder.apply_output_head/decoder_norm/rsqrt" stack_frame_id=367}
  %mul.204 = f32[8,1,1]{2,1,0} broadcast(%rsqrt.9), dimensions={0,1,2}, metadata={op_name="jit(_generate_jit)/TransformerLinenPure.apply/TransformerLinenPure/decoder/decoder.apply_output_head/decoder_norm/mul" stack_frame_id=368}
  %mul.205 = f32[8,1]{1,0} reshape(%mul.204), metadata={op_name="jit(_generate_jit)/TransformerLinenPure.apply/TransformerLinenPure/decoder/decoder.apply_output_head/decoder_norm/mul" stack_frame_id=368}
  %mul.206 = f32[8,1,2880]{2,1,0} broadcast(%mul.205), dimensions={0,1}, metadata={op_name="jit(_generate_jit)/TransformerLinenPure.apply/TransformerLinenPure/decoder/decoder.apply_output_head/decoder_norm/mul" stack_frame_id=368}
  %mul.207 = f32[8,1,2880]{2,1,0} multiply(%convert_element_type.181, %mul.206), metadata={op_name="jit(_generate_jit)/TransformerLinenPure.apply/TransformerLinenPure/decoder/decoder.apply_output_head/decoder_norm/mul" stack_frame_id=368}
  %convert_element_type.182 = bf16[8,1,2880]{2,1,0} convert(%mul.207), metadata={op_name="jit(_generate_jit)/TransformerLinenPure.apply/TransformerLinenPure/decoder/decoder.apply_output_head/decoder_norm/convert_element_type" stack_frame_id=369}
  %dot_general.62 = bf16[2880,8,1]{2,1,0} dot(%convert_element_type.183, %convert_element_type.182), lhs_batch_dims={0}, lhs_contracting_dims={}, rhs_batch_dims={2}, rhs_contracting_dims={}, metadata={op_name="jit(_generate_jit)/TransformerLinenPure.apply/TransformerLinenPure/decoder/decoder.apply_output_head/decoder_norm/...k,k->...k/dot_general" stack_frame_id=370}
  %transpose.137 = bf16[8,1,2880]{1,0,2} transpose(%dot_general.62), dimensions={1,2,0}, metadata={op_name="jit(_generate_jit)/TransformerLinenPure.apply/TransformerLinenPure/decoder/decoder.apply_output_head/decoder_norm/...k,k->...k/transpose" stack_frame_id=370}
  %params__params____decoder____logits_dense____kernel__.1 = f32[2880,201088]{1,0} parameter(58), sharding={devices=[1,8]<=[8]}, frontend_attributes={xla.sdy.sharding="#sdy.sharding<@mesh, [{\"fsdp\", \"fsdp_transpose\", \"context\", \"expert\"}, {\"tensor\", \"tensor_transpose\", \"tensor_sequence\", \"autoregressive\"}]>"}, metadata={op_name="params[\'params\'][\'decoder\'][\'logits_dense\'][\'kernel\']"}
  %convert_element_type.184 = bf16[2880,201088]{1,0} convert(%params__params____decoder____logits_dense____kernel__.1), metadata={op_name="jit(_generate_jit)/TransformerLinenPure.apply/TransformerLinenPure/decoder/decoder.apply_output_head/logits_dense/convert_element_type" stack_frame_id=373}
  %dot_general.63 = bf16[8,1,201088]{2,1,0} dot(%transpose.137, %convert_element_type.184), lhs_contracting_dims={2}, rhs_contracting_dims={0}, metadata={op_name="jit(_generate_jit)/TransformerLinenPure.apply/TransformerLinenPure/decoder/decoder.apply_output_head/logits_dense/dot_general" stack_frame_id=375}
  %convert_element_type.185 = f32[8,1,201088]{2,1,0} convert(%dot_general.63), metadata={op_name="jit(_generate_jit)/TransformerLinenPure.apply/TransformerLinenPure/decoder/decoder.apply_output_head/convert_element_type" stack_frame_id=376}
  %sharding_constraint.57 = f32[8,1,201088]{2,1,0} custom-call(%convert_element_type.185), custom_call_target="Sharding", sharding={replicated}, frontend_attributes={xla.sdy.sharding="#sdy.sharding_per_value<[<@mesh, [{}, {}, {}]>]>"}, metadata={op_name="jit(_generate_jit)/sharding_constraint" stack_frame_id=377}
  %add.220 = s32[8,1]{1,0} add(%decode_state__next_pos__.1, %broadcast.80), metadata={op_name="jit(_generate_jit)/add" stack_frame_id=378}
  %constant.187 = f32[] constant(0)
  %broadcast.81 = f32[8,1]{1,0} broadcast(%constant.187), dimensions={}
  %jit__generate_jit_.3 = s32[8,1]{1,0} call(%sharding_constraint.57), to_apply=%argmax.60, metadata={op_name="jit(_generate_jit)" stack_frame_id=380}
  %concatenate.17 = s32[8,3]{1,0} concatenate(%jit__generate_jit_.3, %broadcast.80, %add.221), dimensions={1}, metadata={op_name="jit(_generate_jit)/concatenate" stack_frame_id=381}
  ROOT %tuple.7 = (s32[12,1]{1,0}, s32[12,8,1984]{2,1,0}, s32[12,8,64]{2,1,0}, bf16[12,1984,8,8,64]{4,3,2,1,0}, s32[12,8]{1,0}, /*index=5*/bf16[12,1984,8,8,64]{4,3,2,1,0}, bf16[12,64,8,8,64]{4,3,2,1,0}, bf16[12,64,8,8,64]{4,3,2,1,0}, s32[12,1]{1,0}, s32[12,8,1984]{2,1,0}, /*index=10*/s32[12,8,64]{2,1,0}, bf16[12,1984,8,8,64]{4,3,2,1,0}, s32[12,8]{1,0}, bf16[12,1984,8,8,64]{4,3,2,1,0}, bf16[12,64,8,8,64]{4,3,2,1,0}, /*index=15*/bf16[12,64,8,8,64]{4,3,2,1,0}, s32[8,1]{1,0}, f32[8,1,201088]{2,1,0}, s32[8,1]{1,0}, f32[8,1]{1,0}, /*index=20*/s32[8,1]{1,0}, s32[8,3]{1,0}, f32[8,1]{1,0}) tuple(%sharding_constraint.58, %sharding_constraint.59, %sharding_constraint.60, %sharding_constraint.61, %sharding_constraint.62, /*index=5*/%sharding_constraint.63, %sharding_constraint.64, %sharding_constraint.65, %sharding_constraint.66, %sharding_constraint.67, /*index=10*/%sharding_constraint.68, %sharding_constraint.69, %sharding_constraint.70, %sharding_constraint.71, %sharding_constraint.72, /*index=15*/%sharding_constraint.73, %add.221, %sharding_constraint.57, %add.220, %broadcast.81, /*index=20*/%jit__generate_jit_.3, %concatenate.17, %broadcast.81)
}

