HloModule jit_apply_fn, entry_computation_layout={(f32[4,128]{1,0}, f32[4,128]{1,0}, bf16[4,128,128]{2,1,0}, bf16[4,4,32,128]{3,2,1,0}, bf16[4,128,128]{2,1,0}, /*index=5*/bf16[4,128,4]{2,1,0}, bf16[4,4,32,128]{3,2,1,0}, bf16[4,128,4,32]{3,2,1,0}, f32[4,128]{1,0}, f32[4,128]{1,0}, /*index=10*/bf16[4,128,128]{2,1,0}, bf16[4,4,32,128]{3,2,1,0}, bf16[4,128,128]{2,1,0}, bf16[4,128,4]{2,1,0}, bf16[4,4,32,128]{3,2,1,0}, /*index=15*/bf16[4,128,4,32]{3,2,1,0}, f32[4,128]{1,0}, f32[4,128]{1,0}, bf16[4,128,1024]{2,1,0}, bf16[4,512,128]{2,1,0}, /*index=20*/bf16[4,384,384]{2,1,0}, bf16[4,384,16,24]{3,2,1,0}, f32[4,384]{1,0}, f32[4,384]{1,0}, bf16[4,16,24]{2,1,0}, /*index=25*/bf16[4,384,16,24]{3,2,1,0}, bf16[4,384,384]{2,1,0}, bf16[4,384,16,24]{3,2,1,0}, f32[4,128]{1,0}, f32[4,128]{1,0}, /*index=30*/bf16[4,128,16]{2,1,0}, f32[4,384]{1,0}, f32[4,384]{1,0}, bf16[4,384,3072]{2,1,0}, bf16[4,1536,384]{2,1,0}, /*index=35*/f32[4,128]{1,0}, f32[4,128]{1,0}, bf16[4,128,256]{2,1,0}, bf16[4,128,128]{2,1,0}, f32[4,128]{1,0}, /*index=40*/f32[4,128]{1,0}, bf16[4,128,128]{2,1,0}, bf16[4,128,256]{2,1,0}, f32[4,128]{1,0}, f32[4,128]{1,0}, /*index=45*/bf16[4,128,256]{2,1,0}, bf16[4,128,128]{2,1,0}, f32[4,128]{1,0}, f32[4,128]{1,0}, bf16[4,128,128]{2,1,0}, /*index=50*/bf16[4,128,256]{2,1,0}, f32[384]{0}, f32[384]{0}, f32[384,24,2]{2,1,0}, f32[128,64]{1,0}, /*index=55*/f32[128]{0}, f32[128]{0}, f32[128,64]{1,0}, f32[128]{0}, f32[128]{0}, /*index=60*/f32[384,24,50]{2,1,0}, f32[384]{0}, f32[384]{0}, bf16[39,128]{1,0}, bf16[447,128]{1,0}, /*index=65*/bf16[447,128]{1,0}, f32[128,64]{1,0}, f32[4,64]{1,0}, f32[4,64]{1,0}, bf16[4,64,64]{2,1,0}, /*index=70*/bf16[4,64,64]{2,1,0}, bf16[4,128,8]{2,1,0}, f32[4,128]{1,0}, f32[4,128]{1,0}, bf16[4,64,8,8]{3,2,1,0}, /*index=75*/f32[4,64]{1,0}, f32[4,64]{1,0}, bf16[4,64,512]{2,1,0}, bf16[4,256,64]{2,1,0}, bf16[4,128]{1,0}, /*index=80*/bf16[4,32,32,128]{3,2,1,0}, f32[4,64]{1,0}, f32[4,64]{1,0}, bf16[4,64,32]{2,1,0}, bf16[4,64,32]{2,1,0}, /*index=85*/f32[4,128]{1,0}, f32[4,128]{1,0}, bf16[4,128,128]{2,1,0}, bf16[4,4,32,128]{3,2,1,0}, bf16[4,128,128]{2,1,0}, /*index=90*/bf16[4,128,4]{2,1,0}, bf16[4,4,32,128]{3,2,1,0}, bf16[4,128,4,32]{3,2,1,0}, f32[4,128]{1,0}, f32[4,128]{1,0}, /*index=95*/bf16[4,128,128]{2,1,0}, bf16[4,4,32,128]{3,2,1,0}, bf16[4,128,128]{2,1,0}, bf16[4,128,4]{2,1,0}, bf16[4,4,32,128]{3,2,1,0}, /*index=100*/bf16[4,128,4,32]{3,2,1,0}, f32[4,128]{1,0}, f32[4,128]{1,0}, bf16[4,128,1024]{2,1,0}, bf16[4,512,128]{2,1,0}, /*index=105*/f32[4,128]{1,0}, f32[4,128]{1,0}, bf16[4,128,256]{2,1,0}, bf16[4,128,128]{2,1,0}, f32[4,128]{1,0}, /*index=110*/f32[4,128]{1,0}, bf16[4,128,128]{2,1,0}, bf16[4,128,256]{2,1,0}, f32[4,128]{1,0}, f32[4,128]{1,0}, /*index=115*/bf16[4,128,256]{2,1,0}, bf16[4,128,128]{2,1,0}, f32[4,128]{1,0}, f32[4,128]{1,0}, bf16[4,128,128]{2,1,0}, /*index=120*/bf16[4,128,256]{2,1,0}, f32[48,128]{1,0}, f32[48,128]{1,0}, bf16[48,128,128]{2,1,0}, bf16[48,4,32,128]{3,2,1,0}, /*index=125*/bf16[48,128,128]{2,1,0}, bf16[48,128,4]{2,1,0}, bf16[48,4,32,128]{3,2,1,0}, bf16[48,128,4,32]{3,2,1,0}, f32[48,128]{1,0}, /*index=130*/f32[48,128]{1,0}, bf16[48,128,128]{2,1,0}, bf16[48,4,32,128]{3,2,1,0}, bf16[48,128,128]{2,1,0}, bf16[48,128,4]{2,1,0}, /*index=135*/bf16[48,4,32,128]{3,2,1,0}, bf16[48,128,4,32]{3,2,1,0}, f32[48,128]{1,0}, f32[48,128]{1,0}, bf16[48,128,1024]{2,1,0}, /*index=140*/bf16[48,512,128]{2,1,0}, bf16[48,384,384]{2,1,0}, bf16[48,384,16,24]{3,2,1,0}, f32[48,384]{1,0}, f32[48,384]{1,0}, /*index=145*/bf16[48,16,24]{2,1,0}, bf16[48,384,16,24]{3,2,1,0}, bf16[48,384,384]{2,1,0}, bf16[48,384,16,24]{3,2,1,0}, f32[48,128]{1,0}, /*index=150*/f32[48,128]{1,0}, bf16[48,128,16]{2,1,0}, f32[48,384]{1,0}, f32[48,384]{1,0}, bf16[48,384,3072]{2,1,0}, /*index=155*/bf16[48,1536,384]{2,1,0}, f32[48,128]{1,0}, f32[48,128]{1,0}, bf16[48,128,256]{2,1,0}, bf16[48,128,128]{2,1,0}, /*index=160*/f32[48,128]{1,0}, f32[48,128]{1,0}, bf16[48,128,128]{2,1,0}, bf16[48,128,256]{2,1,0}, f32[48,128]{1,0}, /*index=165*/f32[48,128]{1,0}, bf16[48,128,256]{2,1,0}, bf16[48,128,128]{2,1,0}, f32[48,128]{1,0}, f32[48,128]{1,0}, /*index=170*/bf16[48,128,128]{2,1,0}, bf16[48,128,256]{2,1,0}, bf16[1,128]{1,0}, bf16[447,64]{1,0}, bf16[447,128]{1,0}, /*index=175*/bf16[34,64]{1,0}, bf16[128,128]{1,0}, f32[128]{0}, f32[128]{0}, bf16[384,384]{1,0}, /*index=180*/f32[384]{0}, f32[384]{0}, bf16[447,128]{1,0}, bf16[447,384]{1,0}, bf16[64,128]{1,0}, /*index=185*/f32[2,64]{1,0}, f32[2,64]{1,0}, bf16[2,64,64]{2,1,0}, bf16[2,4,16,64]{3,2,1,0}, bf16[2,64,64]{2,1,0}, /*index=190*/bf16[2,64,4]{2,1,0}, bf16[2,4,16,64]{3,2,1,0}, bf16[2,64,4,16]{3,2,1,0}, f32[2,64]{1,0}, f32[2,64]{1,0}, /*index=195*/bf16[2,64,64]{2,1,0}, bf16[2,4,16,64]{3,2,1,0}, bf16[2,64,64]{2,1,0}, bf16[2,64,4]{2,1,0}, bf16[2,4,16,64]{3,2,1,0}, /*index=200*/bf16[2,64,4,16]{3,2,1,0}, f32[2,64]{1,0}, f32[2,64]{1,0}, bf16[2,64,256]{2,1,0}, bf16[2,128,64]{2,1,0}, /*index=205*/f32[2,64]{1,0}, f32[2,64]{1,0}, bf16[2,64,128]{2,1,0}, bf16[2,64,64]{2,1,0}, f32[2,64]{1,0}, /*index=210*/f32[2,64]{1,0}, bf16[2,64,64]{2,1,0}, bf16[2,64,128]{2,1,0}, f32[2,64]{1,0}, f32[2,64]{1,0}, /*index=215*/bf16[2,64,128]{2,1,0}, bf16[2,64,64]{2,1,0}, f32[2,64]{1,0}, f32[2,64]{1,0}, bf16[2,64,64]{2,1,0}, /*index=220*/bf16[2,64,128]{2,1,0}, f32[64]{0}, f32[64]{0}, f32[128]{0}, f32[128]{0}, /*index=225*/bf16[39,64]{1,0}, bf16[64]{0}, bf16[31,64]{1,0}, bf16[31,64]{1,0}, bf16[64]{0}, /*index=230*/bf16[64]{0}, bf16[64]{0}, bf16[64]{0}, bf16[128,64]{1,0}, bf16[139,128]{1,0}, /*index=235*/f32[3,128]{1,0}, f32[3,128,128]{2,1,0}, f32[3,128]{1,0}, f32[3,128,128]{2,1,0}, f32[3,128,128]{2,1,0}, /*index=240*/f32[3,128]{1,0}, f32[3,128]{1,0}, f32[3,128,128]{2,1,0}, f32[3,128,512]{2,1,0}, f32[3,256,128]{2,1,0}, /*index=245*/f32[3,128,128]{2,1,0}, f32[3,128,4,32]{3,2,1,0}, f32[3,128,128]{2,1,0}, f32[3,128]{1,0}, f32[3,128]{1,0}, /*index=250*/f32[3,128,128]{2,1,0}, f32[3,4,32]{2,1,0}, f32[3,128,4,32]{3,2,1,0}, f32[3,128,128]{2,1,0}, f32[3,128]{1,0}, /*index=255*/f32[3,128]{1,0}, f32[3,128,128]{2,1,0}, f32[3,128,128]{2,1,0}, f32[3,128,4,32]{3,2,1,0}, f32[16]{0}, /*index=260*/f32[16,3,4]{2,1,0}, f32[1,16]{1,0}, f32[3,16]{1,0}, f32[1,16]{1,0}, f32[256,128]{1,0}, /*index=265*/f32[1,128]{1,0}, f32[128,128]{1,0}, f32[1,128]{1,0}, f32[3,128]{1,0}, f32[16,16]{1,0}, /*index=270*/f32[16,16]{1,0}, f32[16,16]{1,0}, f32[128,384]{1,0}, f32[128,16]{1,0}, f32[128,16]{1,0}, /*index=275*/f32[128]{0}, f32[128,3]{1,0}, f32[3,128]{1,0}, f32[3,128]{1,0}, f32[3,128,128]{2,1,0}, /*index=280*/f32[3,128]{1,0}, f32[3,128,128]{2,1,0}, f32[3,128,128]{2,1,0}, f32[3,128]{1,0}, f32[3,128]{1,0}, /*index=285*/f32[3,128,128]{2,1,0}, f32[3,128,512]{2,1,0}, f32[3,256,128]{2,1,0}, f32[3,128,128]{2,1,0}, f32[3,128,4,32]{3,2,1,0}, /*index=290*/f32[3,128,128]{2,1,0}, f32[3,128]{1,0}, f32[3,128]{1,0}, f32[3,128,128]{2,1,0}, f32[3,4,32]{2,1,0}, /*index=295*/f32[3,128,4,32]{3,2,1,0}, f32[3,128,128]{2,1,0}, f32[3,128]{1,0}, f32[3,128]{1,0}, f32[3,128,128]{2,1,0}, /*index=300*/f32[3,128,128]{2,1,0}, f32[3,128,4,32]{3,2,1,0}, f32[16]{0}, f32[16,3,4]{2,1,0}, f32[3,128]{1,0}, /*index=305*/f32[3,128,128]{2,1,0}, f32[3,128]{1,0}, f32[3,128,128]{2,1,0}, f32[3,128,128]{2,1,0}, f32[3,128]{1,0}, /*index=310*/f32[3,128]{1,0}, f32[3,128,128]{2,1,0}, f32[3,128,512]{2,1,0}, f32[3,256,128]{2,1,0}, f32[3,128,128]{2,1,0}, /*index=315*/f32[3,128,4,32]{3,2,1,0}, f32[3,128,128]{2,1,0}, f32[3,128]{1,0}, f32[3,128]{1,0}, f32[3,128,128]{2,1,0}, /*index=320*/f32[3,4,32]{2,1,0}, f32[3,128,4,32]{3,2,1,0}, f32[3,128,128]{2,1,0}, f32[3,128]{1,0}, f32[3,128]{1,0}, /*index=325*/f32[3,128,128]{2,1,0}, f32[3,128,128]{2,1,0}, f32[3,128,4,32]{3,2,1,0}, f32[16]{0}, f32[16,3,4]{2,1,0}, /*index=330*/f32[1,16]{1,0}, f32[3,16]{1,0}, f32[1,16]{1,0}, f32[256,128]{1,0}, f32[1,128]{1,0}, /*index=335*/f32[128,128]{1,0}, f32[1,128]{1,0}, f32[3,128]{1,0}, f32[128,16]{1,0}, f32[384,128]{1,0}, /*index=340*/f32[128]{0}, f32[384]{0}, f32[16,16]{1,0}, f32[16,16]{1,0}, f32[16,16]{1,0}, /*index=345*/f32[128,768]{1,0}, f32[768,128]{1,0}, f32[128,16]{1,0}, f32[128,16]{1,0}, f32[256]{0}, /*index=350*/f32[256,384]{1,0}, f32[768]{0}, f32[267]{0}, f32[267,128]{1,0}, f32[128]{0}, /*index=355*/f32[128]{0}, f32[128,512]{1,0}, f32[256,128]{1,0}, f32[128]{0}, f32[128]{0}, /*index=360*/f32[128,512]{1,0}, f32[256,128]{1,0}, f32[384]{0}, f32[384,768]{1,0}, f32[831]{0}, /*index=365*/f32[831,384]{1,0}, f32[384]{0}, f32[384]{0}, f32[384,1536]{1,0}, f32[768,384]{1,0}, /*index=370*/f32[384]{0}, f32[384]{0}, f32[384,1536]{1,0}, f32[768,384]{1,0}, f32[6,4,768]{2,1,0}, /*index=375*/f32[6,4,384,768]{3,2,1,0}, f32[6,4,768]{2,1,0}, f32[6,4,384,768]{3,2,1,0}, f32[6,4,384,768]{3,2,1,0}, f32[6,4,384]{2,1,0}, /*index=380*/f32[6,4,768]{2,1,0}, f32[6,4,384,768]{3,2,1,0}, f32[6,4,768,3072]{3,2,1,0}, f32[6,4,1536,768]{3,2,1,0}, f32[6,4,768,768]{3,2,1,0}, /*index=385*/f32[6,4,768,16,48]{4,3,2,1,0}, f32[6,4,16,48]{3,2,1,0}, f32[6,4,768,16,48]{4,3,2,1,0}, f32[6,4,384,768]{3,2,1,0}, f32[6,4,384]{2,1,0}, /*index=390*/f32[6,4,768]{2,1,0}, f32[6,4,384,768]{3,2,1,0}, f32[6,4,768,768]{3,2,1,0}, f32[6,4,768,16,48]{4,3,2,1,0}, f32[6,128,4,16]{3,2,1,0}, /*index=395*/f32[128]{0}, u32[2]{0}, s32[150]{0}, s32[150]{0}, s8[16384,150]{1,0}, /*index=400*/f32[150]{0}, s32[150]{0}, s8[16384,150]{1,0}, pred[16384,150]{1,0}, pred[150,24]{1,0}, /*index=405*/f32[150,31]{1,0}, s32[113,128]{1,0}, pred[113,128]{1,0}, s32[150,24]{1,0}, pred[150,24]{1,0}, /*index=410*/s32[150,24,4]{2,1,0}, f32[150,24]{1,0}, s32[150,24]{1,0}, pred[150,24]{1,0}, f32[150,24,3]{2,1,0}, /*index=415*/s32[150,24]{1,0}, s32[150]{0}, pred[150]{0}, s32[150]{0}, s32[4,150]{1,0}, /*index=420*/pred[4,150,24]{2,1,0}, f32[4,150,24,3]{3,2,1,0}, s32[150]{0}, pred[150]{0}, s32[113,32]{1,0}, /*index=425*/pred[113,32]{1,0}, s32[150]{0}, s32[113,128]{1,0}, pred[113,128]{1,0}, s32[1500,2]{1,0}, /*index=430*/pred[1500,2]{1,0}, s32[150,2]{1,0}, pred[150,2]{1,0}, s32[113,32]{1,0}, pred[113,32]{1,0})->(f32[1]{0}, f32[1,150,24,3]{3,2,1,0}, pred[1,150,24]{2,1,0}, f32[63]{0}, f32[150,150]{1,0}, /*index=5*/f32[1,150,150]{2,1,0}, f32[1,150,150]{2,1,0}, f32[1,150,24]{2,1,0}, f32[1,150,24]{2,1,0}, f32[1,150,150]{2,1,0}, /*index=10*/f32[1,150,150]{2,1,0})}

closed_call.1 {
  Arg_0.2 = s32[] parameter(0)
  constant.39 = s32[] constant(1)
  add.20 = s32[] add(Arg_0.2, constant.39)
  Arg_1.1 = u32[2]{0} parameter(1)
  Arg_2.1 = u32[2]{0} parameter(2)
  add.21 = u32[2]{0} add(Arg_1.1, Arg_2.1)
  Arg_6.1 = u32[4]{0} parameter(6)
  slice.6 = u32[1]{0} slice(Arg_6.1), slice={[0:1]}
  squeeze.6 = u32[] reshape(slice.6)
  shift_left.8 = u32[2]{0} broadcast(squeeze.6), dimensions={}
  shift_left.9 = u32[2]{0} shift-left(Arg_2.1, shift_left.8)
  constant.38 = u32[] constant(32)
  sub.4 = u32[] subtract(constant.38, squeeze.6)
  shift_right_logical.8 = u32[2]{0} broadcast(sub.4), dimensions={}
  shift_right_logical.9 = u32[2]{0} shift-right-logical(Arg_2.1, shift_right_logical.8)
  or.4 = u32[2]{0} or(shift_left.9, shift_right_logical.9)
  xor.6 = u32[2]{0} xor(add.21, or.4)
  add.22 = u32[2]{0} add(add.21, xor.6)
  slice.7 = u32[1]{0} slice(Arg_6.1), slice={[1:2]}
  squeeze.7 = u32[] reshape(slice.7)
  shift_left.10 = u32[2]{0} broadcast(squeeze.7), dimensions={}
  shift_left.11 = u32[2]{0} shift-left(xor.6, shift_left.10)
  sub.5 = u32[] subtract(constant.38, squeeze.7)
  shift_right_logical.10 = u32[2]{0} broadcast(sub.5), dimensions={}
  shift_right_logical.11 = u32[2]{0} shift-right-logical(xor.6, shift_right_logical.10)
  or.5 = u32[2]{0} or(shift_left.11, shift_right_logical.11)
  xor.7 = u32[2]{0} xor(add.22, or.5)
  add.23 = u32[2]{0} add(add.22, xor.7)
  slice.8 = u32[1]{0} slice(Arg_6.1), slice={[2:3]}
  squeeze.8 = u32[] reshape(slice.8)
  shift_left.12 = u32[2]{0} broadcast(squeeze.8), dimensions={}
  shift_left.13 = u32[2]{0} shift-left(xor.7, shift_left.12)
  sub.6 = u32[] subtract(constant.38, squeeze.8)
  shift_right_logical.12 = u32[2]{0} broadcast(sub.6), dimensions={}
  shift_right_logical.13 = u32[2]{0} shift-right-logical(xor.7, shift_right_logical.12)
  or.6 = u32[2]{0} or(shift_left.13, shift_right_logical.13)
  xor.8 = u32[2]{0} xor(add.23, or.6)
  add.24 = u32[2]{0} add(add.23, xor.8)
  Arg_3.1 = u32[] parameter(3)
  add.25 = u32[2]{0} broadcast(Arg_3.1), dimensions={}
  add.26 = u32[2]{0} add(add.24, add.25)
  slice.9 = u32[1]{0} slice(Arg_6.1), slice={[3:4]}
  squeeze.9 = u32[] reshape(slice.9)
  shift_left.14 = u32[2]{0} broadcast(squeeze.9), dimensions={}
  shift_left.15 = u32[2]{0} shift-left(xor.8, shift_left.14)
  sub.7 = u32[] subtract(constant.38, squeeze.9)
  shift_right_logical.14 = u32[2]{0} broadcast(sub.7), dimensions={}
  shift_right_logical.15 = u32[2]{0} shift-right-logical(xor.8, shift_right_logical.14)
  or.7 = u32[2]{0} or(shift_left.15, shift_right_logical.15)
  xor.9 = u32[2]{0} xor(add.24, or.7)
  Arg_4.1 = u32[] parameter(4)
  add.27 = u32[2]{0} broadcast(Arg_4.1), dimensions={}
  add.28 = u32[2]{0} add(xor.9, add.27)
  add.29 = s32[] add(Arg_0.2, constant.39)
  convert_element_type.1 = u32[] convert(add.29)
  add.30 = u32[2]{0} broadcast(convert_element_type.1), dimensions={}
  add.31 = u32[2]{0} add(add.28, add.30)
  Arg_5.1 = u32[] parameter(5)
  Arg_7.1 = u32[4]{0} parameter(7)
  ROOT tuple.1 = (s32[], u32[2]{0}, u32[2]{0}, u32[], u32[], /*index=5*/u32[], u32[4]{0}, u32[4]{0}) tuple(add.20, add.26, add.31, Arg_4.1, Arg_5.1, Arg_3.1, Arg_7.1, Arg_6.1)
}

region_0.2 {
  arg_tuple.1 = (s32[], s32[], u32[2]{0}, u32[2]{0}, u32[], /*index=5*/u32[], u32[], u32[4]{0}, u32[4]{0}) parameter(0)
  get-tuple-element.9 = s32[] get-tuple-element(arg_tuple.1), index=0
  constant.40 = s32[] constant(1)
  add.33 = s32[] add(get-tuple-element.9, constant.40)
  get-tuple-element.10 = s32[] get-tuple-element(arg_tuple.1), index=1
  get-tuple-element.11 = u32[2]{0} get-tuple-element(arg_tuple.1), index=2
  get-tuple-element.12 = u32[2]{0} get-tuple-element(arg_tuple.1), index=3
  get-tuple-element.13 = u32[] get-tuple-element(arg_tuple.1), index=4
  get-tuple-element.14 = u32[] get-tuple-element(arg_tuple.1), index=5
  get-tuple-element.15 = u32[] get-tuple-element(arg_tuple.1), index=6
  get-tuple-element.16 = u32[4]{0} get-tuple-element(arg_tuple.1), index=7
  get-tuple-element.17 = u32[4]{0} get-tuple-element(arg_tuple.1), index=8
  closed_call.9 = (s32[], u32[2]{0}, u32[2]{0}, u32[], u32[], /*index=5*/u32[], u32[4]{0}, u32[4]{0}) call(get-tuple-element.10, get-tuple-element.11, get-tuple-element.12, get-tuple-element.13, get-tuple-element.14, get-tuple-element.15, get-tuple-element.16, get-tuple-element.17), to_apply=closed_call.1
  closed_call.10 = s32[] get-tuple-element(closed_call.9), index=0
  closed_call.11 = u32[2]{0} get-tuple-element(closed_call.9), index=1
  closed_call.12 = u32[2]{0} get-tuple-element(closed_call.9), index=2
  closed_call.13 = u32[] get-tuple-element(closed_call.9), index=3
  closed_call.14 = u32[] get-tuple-element(closed_call.9), index=4
  closed_call.15 = u32[] get-tuple-element(closed_call.9), index=5
  closed_call.16 = u32[4]{0} get-tuple-element(closed_call.9), index=6
  closed_call.17 = u32[4]{0} get-tuple-element(closed_call.9), index=7
  ROOT tuple.3 = (s32[], s32[], u32[2]{0}, u32[2]{0}, u32[], /*index=5*/u32[], u32[], u32[4]{0}, u32[4]{0}) tuple(add.33, closed_call.10, closed_call.11, closed_call.12, closed_call.13, closed_call.14, closed_call.15, closed_call.16, closed_call.17)
}

region_1.3 {
  arg_tuple.3 = (s32[], s32[], u32[2]{0}, u32[2]{0}, u32[], /*index=5*/u32[], u32[], u32[4]{0}, u32[4]{0}) parameter(0)
  get-tuple-element.28 = s32[] get-tuple-element(arg_tuple.3), index=1
  get-tuple-element.29 = u32[2]{0} get-tuple-element(arg_tuple.3), index=2
  get-tuple-element.30 = u32[2]{0} get-tuple-element(arg_tuple.3), index=3
  get-tuple-element.31 = u32[] get-tuple-element(arg_tuple.3), index=4
  get-tuple-element.32 = u32[] get-tuple-element(arg_tuple.3), index=5
  get-tuple-element.33 = u32[] get-tuple-element(arg_tuple.3), index=6
  get-tuple-element.34 = u32[4]{0} get-tuple-element(arg_tuple.3), index=7
  get-tuple-element.35 = u32[4]{0} get-tuple-element(arg_tuple.3), index=8
  get-tuple-element.27 = s32[] get-tuple-element(arg_tuple.3), index=0
  constant.42 = s32[] constant(5)
  ROOT lt.2 = pred[] compare(get-tuple-element.27, constant.42), direction=LT
}

threefry2x32.4 {
  constant.43 = s32[] constant(0)
  PRNGSequence_reserve.6 = u32[2]{0} parameter(2)
  PRNGSequence_reserve.4 = u32[] parameter(0)
  add.34 = u32[2]{0} broadcast(PRNGSequence_reserve.4), dimensions={}
  add.35 = u32[2]{0} add(PRNGSequence_reserve.6, add.34)
  PRNGSequence_reserve.7 = u32[2]{0} parameter(3)
  PRNGSequence_reserve.5 = u32[] parameter(1)
  add.36 = u32[2]{0} broadcast(PRNGSequence_reserve.5), dimensions={}
  add.37 = u32[2]{0} add(PRNGSequence_reserve.7, add.36)
  xor.10 = u32[] xor(PRNGSequence_reserve.4, PRNGSequence_reserve.5)
  constant.44 = u32[] constant(466688986)
  xor.11 = u32[] xor(xor.10, constant.44)
  constant.45 = u32[4]{0} constant({13, 15, 26, 6})
  constant.46 = u32[4]{0} constant({17, 29, 16, 24})
  while.11 = (s32[], s32[], u32[2]{0}, u32[2]{0}, u32[], /*index=5*/u32[], u32[], u32[4]{0}, u32[4]{0}) tuple(constant.43, constant.43, add.35, add.37, PRNGSequence_reserve.5, xor.11, PRNGSequence_reserve.4, constant.45, constant.46)
  while.12 = (s32[], s32[], u32[2]{0}, u32[2]{0}, u32[], /*index=5*/u32[], u32[], u32[4]{0}, u32[4]{0}) while(while.11), condition=region_1.3, body=region_0.2
  while.13 = s32[] get-tuple-element(while.12), index=0
  while.14 = s32[] get-tuple-element(while.12), index=1
  while.17 = u32[] get-tuple-element(while.12), index=4
  while.18 = u32[] get-tuple-element(while.12), index=5
  while.19 = u32[] get-tuple-element(while.12), index=6
  while.20 = u32[4]{0} get-tuple-element(while.12), index=7
  while.21 = u32[4]{0} get-tuple-element(while.12), index=8
  while.15 = u32[2]{0} get-tuple-element(while.12), index=2
  while.16 = u32[2]{0} get-tuple-element(while.12), index=3
  ROOT tuple.5 = (u32[2]{0}, u32[2]{0}) tuple(while.15, while.16)
}

_threefry_split.5 {
  Arg_0.3 = u32[2]{0} parameter(0)
  slice.10 = u32[1]{0} slice(Arg_0.3), slice={[0:1]}
  squeeze.10 = u32[] reshape(slice.10)
  slice.11 = u32[1]{0} slice(Arg_0.3), slice={[1:2]}
  squeeze.11 = u32[] reshape(slice.11)
  iota_2x32_shape.4 = u64[2]{0} iota(), iota_dimension=0
  constant.47 = u64[] constant(32)
  broadcast.8 = u64[2]{0} broadcast(constant.47), dimensions={}
  iota_2x32_shape.5 = u64[2]{0} shift-right-logical(iota_2x32_shape.4, broadcast.8)
  iota_2x32_shape.7 = u32[2]{0} convert(iota_2x32_shape.5)
  iota_2x32_shape.6 = u32[2]{0} convert(iota_2x32_shape.4)
  PRNGSequence_reserve.11 = (u32[2]{0}, u32[2]{0}) call(squeeze.10, squeeze.11, iota_2x32_shape.7, iota_2x32_shape.6), to_apply=threefry2x32.4
  PRNGSequence_reserve.12 = u32[2]{0} get-tuple-element(PRNGSequence_reserve.11), index=0
  stack.3 = u32[2,1]{1,0} reshape(PRNGSequence_reserve.12)
  PRNGSequence_reserve.13 = u32[2]{0} get-tuple-element(PRNGSequence_reserve.11), index=1
  stack.4 = u32[2,1]{1,0} reshape(PRNGSequence_reserve.13)
  ROOT stack.5 = u32[2,2]{1,0} concatenate(stack.3, stack.4), dimensions={1}
}

_one_hot.6 {
  Arg_0.5 = s32[150]{0} parameter(0)
  broadcast_in_dim.3 = s32[150,1]{1,0} reshape(Arg_0.5)
  eq.7 = s32[150,1]{1,0} broadcast(broadcast_in_dim.3), dimensions={0,1}
  eq.8 = s32[150]{0} reshape(eq.7)
  eq.9 = s32[150,31]{1,0} broadcast(eq.8), dimensions={0}
  iota.2 = s32[31]{0} iota(), iota_dimension=0
  iota.3 = s32[1,31]{1,0} reshape(iota.2)
  eq.10 = s32[1,31]{1,0} broadcast(iota.3), dimensions={0,1}
  eq.11 = s32[31]{0} reshape(eq.10)
  eq.12 = s32[150,31]{1,0} broadcast(eq.11), dimensions={1}
  eq.13 = pred[150,31]{1,0} compare(eq.9, eq.12), direction=EQ
  ROOT convert_element_type.3 = f32[150,31]{1,0} convert(eq.13)
}

_one_hot_0.7 {
  Arg_0.7 = s32[150,24]{1,0} parameter(0)
  broadcast_in_dim.7 = s32[150,24,1]{2,1,0} reshape(Arg_0.7)
  eq.21 = s32[150,24,1]{2,1,0} broadcast(broadcast_in_dim.7), dimensions={0,1,2}
  eq.22 = s32[150,24]{1,0} reshape(eq.21)
  eq.23 = s32[150,24,128]{2,1,0} broadcast(eq.22), dimensions={0,1}
  iota.6 = s32[128]{0} iota(), iota_dimension=0
  iota.7 = s32[1,1,128]{2,1,0} reshape(iota.6)
  eq.24 = s32[1,1,128]{2,1,0} broadcast(iota.7), dimensions={0,1,2}
  eq.25 = s32[128]{0} reshape(eq.24)
  eq.26 = s32[150,24,128]{2,1,0} broadcast(eq.25), dimensions={2}
  eq.27 = pred[150,24,128]{2,1,0} compare(eq.23, eq.26), direction=EQ
  ROOT convert_element_type.7 = f32[150,24,128]{2,1,0} convert(eq.27)
}

_one_hot_1.8 {
  Arg_0.9 = s32[150,24,4]{2,1,0} parameter(0)
  broadcast_in_dim.10 = s32[150,24,4,1]{3,2,1,0} reshape(Arg_0.9)
  eq.35 = s32[150,24,4,1]{3,2,1,0} broadcast(broadcast_in_dim.10), dimensions={0,1,2,3}
  eq.36 = s32[150,24,4]{2,1,0} reshape(eq.35)
  eq.37 = s32[150,24,4,64]{3,2,1,0} broadcast(eq.36), dimensions={0,1,2}
  iota.10 = s32[64]{0} iota(), iota_dimension=0
  iota.11 = s32[1,1,1,64]{3,2,1,0} reshape(iota.10)
  eq.38 = s32[1,1,1,64]{3,2,1,0} broadcast(iota.11), dimensions={0,1,2,3}
  eq.39 = s32[64]{0} reshape(eq.38)
  eq.40 = s32[150,24,4,64]{3,2,1,0} broadcast(eq.39), dimensions={3}
  eq.41 = pred[150,24,4,64]{3,2,1,0} compare(eq.37, eq.40), direction=EQ
  ROOT convert_element_type.9 = f32[150,24,4,64]{3,2,1,0} convert(eq.41)
}

relu.9 {
  Arg_0.11 = f32[113,32,128]{2,1,0} parameter(0)
  constant.49 = f32[] constant(0)
  max.4 = f32[113,32,128]{2,1,0} broadcast(constant.49), dimensions={}
  ROOT max.5 = f32[113,32,128]{2,1,0} maximum(Arg_0.11, max.4)
}

relu_2.10 {
  Arg_0.13 = f32[113,128,128]{2,1,0} parameter(0)
  constant.51 = f32[] constant(0)
  max.8 = f32[113,128,128]{2,1,0} broadcast(constant.51), dimensions={}
  ROOT max.9 = f32[113,128,128]{2,1,0} maximum(Arg_0.13, max.8)
}

region_2.11 {
  reduce_sum.3 = f32[] parameter(0)
  reduce_sum.4 = f32[] parameter(1)
  ROOT reduce_sum.5 = f32[] add(reduce_sum.3, reduce_sum.4)
}

relu_3.12 {
  Arg_0.15 = f32[113,32,128,16]{3,2,1,0} parameter(0)
  constant.53 = f32[] constant(0)
  max.12 = f32[113,32,128,16]{3,2,1,0} broadcast(constant.53), dimensions={}
  ROOT max.13 = f32[113,32,128,16]{3,2,1,0} maximum(Arg_0.15, max.12)
}

region_3.13 {
  reduce_sum.10 = f32[] parameter(0)
  reduce_sum.11 = f32[] parameter(1)
  ROOT reduce_sum.12 = f32[] add(reduce_sum.10, reduce_sum.11)
}

region_4.14 {
  reduce_sum.17 = f32[] parameter(0)
  reduce_sum.18 = f32[] parameter(1)
  ROOT reduce_sum.19 = f32[] add(reduce_sum.17, reduce_sum.18)
}

region_5.15 {
  reduce_sum.24 = f32[] parameter(0)
  reduce_sum.25 = f32[] parameter(1)
  ROOT reduce_sum.26 = f32[] add(reduce_sum.24, reduce_sum.25)
}

_where.16 {
  Arg_0.18 = pred[] parameter(0)
  select_n.11 = pred[113,32,128,1]{3,2,1,0} broadcast(Arg_0.18), dimensions={}
  Arg_1.4 = f32[113,32,128,1]{3,2,1,0} parameter(1)
  Arg_2.3 = f32[] parameter(2)
  broadcast_in_dim.35 = f32[113,32,128,1]{3,2,1,0} broadcast(Arg_2.3), dimensions={}
  ROOT select_n.12 = f32[113,32,128,1]{3,2,1,0} select(select_n.11, Arg_1.4, broadcast_in_dim.35)
}

_var.17 {
  constant.60 = f32[] constant(16)
  Arg_1.5 = s32[] parameter(1)
  convert_element_type.22 = f32[] convert(Arg_1.5)
  sub.24 = f32[] subtract(constant.60, convert_element_type.22)
  constant.61 = f32[] constant(0)
  gt.1 = pred[] compare(sub.24, constant.61), direction=GT
  Arg_0.19 = f32[113,32,128,16]{3,2,1,0} parameter(0)
  reduce_sum.28 = f32[113,32,128]{2,1,0} reduce(Arg_0.19, constant.61), dimensions={3}, to_apply=region_4.14
  broadcast_in_dim.36 = f32[113,32,128,1]{3,2,1,0} reshape(reduce_sum.28)
  constant.58 = f32[] constant(16)
  div.7 = f32[113,32,128,1]{3,2,1,0} broadcast(constant.58), dimensions={}
  div.8 = f32[113,32,128,1]{3,2,1,0} divide(broadcast_in_dim.36, div.7)
  sub.20 = f32[113,32,128,1]{3,2,1,0} broadcast(div.8), dimensions={0,1,2,3}
  sub.21 = f32[113,32,128]{2,1,0} reshape(sub.20)
  sub.22 = f32[113,32,128,16]{3,2,1,0} broadcast(sub.21), dimensions={0,1,2}
  sub.23 = f32[113,32,128,16]{3,2,1,0} subtract(Arg_0.19, sub.22)
  square.2 = f32[113,32,128,16]{3,2,1,0} multiply(sub.23, sub.23)
  reduce_sum.29 = f32[113,32,128]{2,1,0} reduce(square.2, constant.61), dimensions={3}, to_apply=region_5.15
  broadcast_in_dim.37 = f32[113,32,128,1]{3,2,1,0} reshape(reduce_sum.29)
  div.9 = f32[113,32,128,1]{3,2,1,0} broadcast(sub.24), dimensions={}
  div.10 = f32[113,32,128,1]{3,2,1,0} divide(broadcast_in_dim.37, div.9)
  constant.59 = f32[] constant(nan)
  ROOT jit__where_.1 = f32[113,32,128,1]{3,2,1,0} call(gt.1, div.10, constant.59), to_apply=_where.16
}

dynamic_index_in_dim.18 {
  Arg_0.21 = f32[3,128]{1,0} parameter(0)
  Arg_1.7 = s32[] parameter(1)
  constant.64 = s32[] constant(0)
  dynamic_slice.1 = f32[1,128]{1,0} dynamic-slice(Arg_0.21, Arg_1.7, constant.64), dynamic_slice_sizes={1,128}
  ROOT squeeze.17 = f32[128]{0} reshape(dynamic_slice.1)
}

dynamic_index_in_dim_4.19 {
  Arg_0.23 = f32[3,128,128]{2,1,0} parameter(0)
  Arg_1.9 = s32[] parameter(1)
  constant.66 = s32[] constant(0)
  dynamic_slice.3 = f32[1,128,128]{2,1,0} dynamic-slice(Arg_0.23, Arg_1.9, constant.66, constant.66), dynamic_slice_sizes={1,128,128}
  ROOT squeeze.19 = f32[128,128]{1,0} reshape(dynamic_slice.3)
}

dynamic_index_in_dim_5.20 {
  Arg_0.25 = f32[3,128,512]{2,1,0} parameter(0)
  Arg_1.11 = s32[] parameter(1)
  constant.68 = s32[] constant(0)
  dynamic_slice.5 = f32[1,128,512]{2,1,0} dynamic-slice(Arg_0.25, Arg_1.11, constant.68, constant.68), dynamic_slice_sizes={1,128,512}
  ROOT squeeze.21 = f32[128,512]{1,0} reshape(dynamic_slice.5)
}

dynamic_index_in_dim_6.21 {
  Arg_0.27 = f32[3,256,128]{2,1,0} parameter(0)
  Arg_1.13 = s32[] parameter(1)
  constant.70 = s32[] constant(0)
  dynamic_slice.7 = f32[1,256,128]{2,1,0} dynamic-slice(Arg_0.27, Arg_1.13, constant.70, constant.70), dynamic_slice_sizes={1,256,128}
  ROOT squeeze.23 = f32[256,128]{1,0} reshape(dynamic_slice.7)
}

dynamic_index_in_dim_7.22 {
  Arg_0.29 = f32[3,128,4,32]{3,2,1,0} parameter(0)
  Arg_1.15 = s32[] parameter(1)
  constant.72 = s32[] constant(0)
  dynamic_slice.9 = f32[1,128,4,32]{3,2,1,0} dynamic-slice(Arg_0.29, Arg_1.15, constant.72, constant.72, constant.72), dynamic_slice_sizes={1,128,4,32}
  ROOT squeeze.25 = f32[128,4,32]{2,1,0} reshape(dynamic_slice.9)
}

dynamic_index_in_dim_8.23 {
  Arg_0.31 = f32[3,4,32]{2,1,0} parameter(0)
  Arg_1.17 = s32[] parameter(1)
  constant.74 = s32[] constant(0)
  dynamic_slice.11 = f32[1,4,32]{2,1,0} dynamic-slice(Arg_0.31, Arg_1.17, constant.74, constant.74), dynamic_slice_sizes={1,4,32}
  ROOT squeeze.27 = f32[4,32]{1,0} reshape(dynamic_slice.11)
}

dynamic_index_in_dim_9.24 {
  Arg_0.33 = f32[3,113,4,32,128]{4,3,2,1,0} parameter(0)
  Arg_1.19 = s32[] parameter(1)
  constant.76 = s32[] constant(0)
  dynamic_slice.13 = f32[1,113,4,32,128]{4,3,2,1,0} dynamic-slice(Arg_0.33, Arg_1.19, constant.76, constant.76, constant.76, constant.76), dynamic_slice_sizes={1,113,4,32,128}
  ROOT squeeze.29 = f32[113,4,32,128]{3,2,1,0} reshape(dynamic_slice.13)
}

region_7.25 {
  reduce_sum.33 = f32[] parameter(0)
  reduce_sum.34 = f32[] parameter(1)
  ROOT reduce_sum.35 = f32[] add(reduce_sum.33, reduce_sum.34)
}

region_8.26 {
  reduce_sum.40 = f32[] parameter(0)
  reduce_sum.41 = f32[] parameter(1)
  ROOT reduce_sum.42 = f32[] add(reduce_sum.40, reduce_sum.41)
}

region_9.27 {
  reduce_sum.47 = f32[] parameter(0)
  reduce_sum.48 = f32[] parameter(1)
  ROOT reduce_sum.49 = f32[] add(reduce_sum.47, reduce_sum.48)
}

_where_12.28 {
  Arg_0.37 = pred[] parameter(0)
  select_n.16 = pred[113,32,1]{2,1,0} broadcast(Arg_0.37), dimensions={}
  Arg_1.23 = f32[113,32,1]{2,1,0} parameter(1)
  Arg_2.6 = f32[] parameter(2)
  broadcast_in_dim.45 = f32[113,32,1]{2,1,0} broadcast(Arg_2.6), dimensions={}
  ROOT select_n.17 = f32[113,32,1]{2,1,0} select(select_n.16, Arg_1.23, broadcast_in_dim.45)
}

_var_11.29 {
  constant.99 = f32[] constant(128)
  Arg_1.24 = s32[] parameter(1)
  convert_element_type.27 = f32[] convert(Arg_1.24)
  sub.42 = f32[] subtract(constant.99, convert_element_type.27)
  constant.100 = f32[] constant(0)
  gt.3 = pred[] compare(sub.42, constant.100), direction=GT
  Arg_0.38 = f32[113,32,128]{2,1,0} parameter(0)
  reduce_sum.51 = f32[113,32]{1,0} reduce(Arg_0.38, constant.100), dimensions={2}, to_apply=region_8.26
  broadcast_in_dim.46 = f32[113,32,1]{2,1,0} reshape(reduce_sum.51)
  constant.97 = f32[] constant(128)
  div.16 = f32[113,32,1]{2,1,0} broadcast(constant.97), dimensions={}
  div.17 = f32[113,32,1]{2,1,0} divide(broadcast_in_dim.46, div.16)
  sub.38 = f32[113,32,1]{2,1,0} broadcast(div.17), dimensions={0,1,2}
  sub.39 = f32[113,32]{1,0} reshape(sub.38)
  sub.40 = f32[113,32,128]{2,1,0} broadcast(sub.39), dimensions={0,1}
  sub.41 = f32[113,32,128]{2,1,0} subtract(Arg_0.38, sub.40)
  square.4 = f32[113,32,128]{2,1,0} multiply(sub.41, sub.41)
  reduce_sum.52 = f32[113,32]{1,0} reduce(square.4, constant.100), dimensions={2}, to_apply=region_9.27
  broadcast_in_dim.47 = f32[113,32,1]{2,1,0} reshape(reduce_sum.52)
  div.18 = f32[113,32,1]{2,1,0} broadcast(sub.42), dimensions={}
  div.19 = f32[113,32,1]{2,1,0} divide(broadcast_in_dim.47, div.18)
  constant.98 = f32[] constant(nan)
  ROOT jit__where_.3 = f32[113,32,1]{2,1,0} call(gt.3, div.19, constant.98), to_apply=_where_12.28
}

region_10.30 {
  reduce_sum.56 = f32[] parameter(0)
  reduce_sum.57 = f32[] parameter(1)
  ROOT reduce_sum.58 = f32[] add(reduce_sum.56, reduce_sum.57)
}

region_11.31 {
  reduce_sum.63 = f32[] parameter(0)
  reduce_sum.64 = f32[] parameter(1)
  ROOT reduce_sum.65 = f32[] add(reduce_sum.63, reduce_sum.64)
}

region_12.32 {
  reduce_sum.70 = f32[] parameter(0)
  reduce_sum.71 = f32[] parameter(1)
  ROOT reduce_sum.72 = f32[] add(reduce_sum.70, reduce_sum.71)
}

region_13.33 {
  reduce_sum.77 = f32[] parameter(0)
  reduce_sum.78 = f32[] parameter(1)
  ROOT reduce_sum.79 = f32[] add(reduce_sum.77, reduce_sum.78)
}

_where_14.34 {
  Arg_0.41 = pred[] parameter(0)
  select_n.20 = pred[113,128,1]{2,1,0} broadcast(Arg_0.41), dimensions={}
  Arg_1.27 = f32[113,128,1]{2,1,0} parameter(1)
  Arg_2.8 = f32[] parameter(2)
  broadcast_in_dim.54 = f32[113,128,1]{2,1,0} broadcast(Arg_2.8), dimensions={}
  ROOT select_n.21 = f32[113,128,1]{2,1,0} select(select_n.20, Arg_1.27, broadcast_in_dim.54)
}

_var_13.35 {
  constant.107 = f32[] constant(128)
  Arg_1.28 = s32[] parameter(1)
  convert_element_type.29 = f32[] convert(Arg_1.28)
  sub.60 = f32[] subtract(constant.107, convert_element_type.29)
  constant.108 = f32[] constant(0)
  gt.5 = pred[] compare(sub.60, constant.108), direction=GT
  Arg_0.42 = f32[113,128,128]{2,1,0} parameter(0)
  reduce_sum.81 = f32[113,128]{1,0} reduce(Arg_0.42, constant.108), dimensions={2}, to_apply=region_12.32
  broadcast_in_dim.55 = f32[113,128,1]{2,1,0} reshape(reduce_sum.81)
  constant.105 = f32[] constant(128)
  div.27 = f32[113,128,1]{2,1,0} broadcast(constant.105), dimensions={}
  div.28 = f32[113,128,1]{2,1,0} divide(broadcast_in_dim.55, div.27)
  sub.56 = f32[113,128,1]{2,1,0} broadcast(div.28), dimensions={0,1,2}
  sub.57 = f32[113,128]{1,0} reshape(sub.56)
  sub.58 = f32[113,128,128]{2,1,0} broadcast(sub.57), dimensions={0,1}
  sub.59 = f32[113,128,128]{2,1,0} subtract(Arg_0.42, sub.58)
  square.6 = f32[113,128,128]{2,1,0} multiply(sub.59, sub.59)
  reduce_sum.82 = f32[113,128]{1,0} reduce(square.6, constant.108), dimensions={2}, to_apply=region_13.33
  broadcast_in_dim.56 = f32[113,128,1]{2,1,0} reshape(reduce_sum.82)
  div.29 = f32[113,128,1]{2,1,0} broadcast(sub.60), dimensions={}
  div.30 = f32[113,128,1]{2,1,0} divide(broadcast_in_dim.56, div.29)
  constant.106 = f32[] constant(nan)
  ROOT jit__where_.5 = f32[113,128,1]{2,1,0} call(gt.5, div.30, constant.106), to_apply=_where_14.34
}

region_14.36 {
  reduce_sum.86 = f32[] parameter(0)
  reduce_sum.87 = f32[] parameter(1)
  ROOT reduce_sum.88 = f32[] add(reduce_sum.86, reduce_sum.87)
}

region_15.37 {
  reduce_max.3 = f32[] parameter(0)
  reduce_max.4 = f32[] parameter(1)
  ROOT reduce_max.5 = f32[] maximum(reduce_max.3, reduce_max.4)
}

region_16.38 {
  reduce_sum.93 = f32[] parameter(0)
  reduce_sum.94 = f32[] parameter(1)
  ROOT reduce_sum.95 = f32[] add(reduce_sum.93, reduce_sum.94)
}

region_17.39 {
  reduce_sum.100 = f32[] parameter(0)
  reduce_sum.101 = f32[] parameter(1)
  ROOT reduce_sum.102 = f32[] add(reduce_sum.100, reduce_sum.101)
}

region_18.40 {
  reduce_sum.107 = f32[] parameter(0)
  reduce_sum.108 = f32[] parameter(1)
  ROOT reduce_sum.109 = f32[] add(reduce_sum.107, reduce_sum.108)
}

silu.41 {
  Arg_0.44 = f32[113,32,256]{2,1,0} parameter(0)
  constant.110 = f32[] constant(1)
  broadcast.16 = f32[113,32,256]{2,1,0} broadcast(constant.110), dimensions={}
  neg.6 = f32[113,32,256]{2,1,0} negate(Arg_0.44)
  exp.7 = f32[113,32,256]{2,1,0} exponential(neg.6)
  add.107 = f32[113,32,256]{2,1,0} add(exp.7, broadcast.16)
  div.43 = f32[113,32,256]{2,1,0} divide(broadcast.16, add.107)
  ROOT mul.101 = f32[113,32,256]{2,1,0} multiply(Arg_0.44, div.43)
}

closed_call_10.42 {
  Arg_6.3 = f32[113,32,128]{2,1,0} parameter(6)
  constant.116 = f32[] constant(1)
  broadcast.20 = f32[113,32,128]{2,1,0} broadcast(constant.116), dimensions={}
  Arg_4.3 = f32[113,32,128]{2,1,0} parameter(4)
  Arg_8.1 = f32[128,128]{1,0} parameter(8)
  dot_general.42 = f32[113,32,128]{2,1,0} dot(Arg_4.3, Arg_8.1), lhs_contracting_dims={2}, rhs_contracting_dims={0}
  Arg_7.3 = f32[128]{0} parameter(7)
  broadcast_in_dim.79 = f32[1,1,128]{2,1,0} reshape(Arg_7.3)
  add.142 = f32[1,1,128]{2,1,0} broadcast(broadcast_in_dim.79), dimensions={0,1,2}
  add.143 = f32[128]{0} reshape(add.142)
  add.144 = f32[113,32,128]{2,1,0} broadcast(add.143), dimensions={2}
  add.145 = f32[113,32,128]{2,1,0} add(dot_general.42, add.144)
  neg.11 = f32[113,32,128]{2,1,0} negate(add.145)
  exp.13 = f32[113,32,128]{2,1,0} exponential(neg.11)
  add.146 = f32[113,32,128]{2,1,0} add(exp.13, broadcast.20)
  div.56 = f32[113,32,128]{2,1,0} divide(broadcast.20, add.146)
  constant.113 = f32[] constant(1)
  broadcast.17 = f32[113,128,128]{2,1,0} broadcast(constant.113), dimensions={}
  Arg_20.1 = f32[128]{0} parameter(20)
  reshape.27 = f32[1,1,128]{2,1,0} reshape(Arg_20.1)
  mul.135 = f32[1,1,128]{2,1,0} broadcast(reshape.27), dimensions={0,1,2}
  mul.136 = f32[128]{0} reshape(mul.135)
  mul.137 = f32[113,128,128]{2,1,0} broadcast(mul.136), dimensions={2}
  Arg_5.3 = f32[113,128,128]{2,1,0} parameter(5)
  constant.126 = s32[] constant(0)
  jit__var_.10 = f32[113,128,1]{2,1,0} call(Arg_5.3, constant.126), to_apply=_var_13.35
  constant.114 = f32[] constant(1e-05)
  broadcast.18 = f32[113,128,1]{2,1,0} broadcast(constant.114), dimensions={}
  add.125 = f32[113,128,1]{2,1,0} add(jit__var_.10, broadcast.18)
  rsqrt.10 = f32[113,128,1]{2,1,0} rsqrt(add.125)
  mul.138 = f32[113,128,1]{2,1,0} broadcast(rsqrt.10), dimensions={0,1,2}
  mul.139 = f32[113,128]{1,0} reshape(mul.138)
  mul.140 = f32[113,128,128]{2,1,0} broadcast(mul.139), dimensions={0,1}
  mul.141 = f32[113,128,128]{2,1,0} multiply(mul.137, mul.140)
  constant.125 = f32[] constant(0)
  reduce_sum.114 = f32[113,128]{1,0} reduce(Arg_5.3, constant.125), dimensions={2}, to_apply=region_14.36
  broadcast_in_dim.74 = f32[113,128,1]{2,1,0} reshape(reduce_sum.114)
  constant.115 = f32[] constant(128)
  broadcast.19 = f32[113,128,1]{2,1,0} broadcast(constant.115), dimensions={}
  div.49 = f32[113,128,1]{2,1,0} divide(broadcast_in_dim.74, broadcast.19)
  sub.97 = f32[113,128,1]{2,1,0} broadcast(div.49), dimensions={0,1,2}
  sub.98 = f32[113,128]{1,0} reshape(sub.97)
  sub.99 = f32[113,128,128]{2,1,0} broadcast(sub.98), dimensions={0,1}
  sub.100 = f32[113,128,128]{2,1,0} subtract(Arg_5.3, sub.99)
  mul.142 = f32[113,128,128]{2,1,0} multiply(mul.141, sub.100)
  Arg_22.1 = f32[128,128]{1,0} parameter(22)
  dot_general.33 = f32[113,128,128]{2,1,0} dot(mul.142, Arg_22.1), lhs_contracting_dims={2}, rhs_contracting_dims={0}
  Arg_21.1 = f32[128]{0} parameter(21)
  broadcast_in_dim.75 = f32[1,1,128]{2,1,0} reshape(Arg_21.1)
  add.126 = f32[1,1,128]{2,1,0} broadcast(broadcast_in_dim.75), dimensions={0,1,2}
  add.127 = f32[128]{0} reshape(add.126)
  add.128 = f32[113,128,128]{2,1,0} broadcast(add.127), dimensions={2}
  add.129 = f32[113,128,128]{2,1,0} add(dot_general.33, add.128)
  neg.9 = f32[113,128,128]{2,1,0} negate(add.129)
  exp.10 = f32[113,128,128]{2,1,0} exponential(neg.9)
  add.130 = f32[113,128,128]{2,1,0} add(exp.10, broadcast.17)
  div.50 = f32[113,128,128]{2,1,0} divide(broadcast.17, add.130)
  reshape.24 = f32[3616,128]{1,0} reshape(Arg_6.3)
  Arg_0.45 = s32[113,128]{1,0} parameter(0)
  constant.123 = s32[] constant(0)
  lt.14 = s32[113,128]{1,0} broadcast(constant.123), dimensions={}
  lt.15 = pred[113,128]{1,0} compare(Arg_0.45, lt.14), direction=LT
  constant.122 = s32[] constant(3616)
  add.114 = s32[113,128]{1,0} broadcast(constant.122), dimensions={}
  add.115 = s32[113,128]{1,0} add(Arg_0.45, add.114)
  select_n.22 = s32[113,128]{1,0} select(lt.15, add.115, Arg_0.45)
  broadcast_in_dim.67 = s32[113,128,1]{2,1,0} reshape(select_n.22)
  gather.10 = f32[113,128,128]{2,1,0} gather(reshape.24, broadcast_in_dim.67), offset_dims={2}, collapsed_slice_dims={0}, start_index_map={0}, index_vector_dim=2, slice_sizes={1,128}
  Arg_1.29 = pred[113,128]{1,0} parameter(1)
  reshape.25 = pred[113,128,1]{2,1,0} reshape(Arg_1.29)
  convert_element_type.30 = f32[113,128,1]{2,1,0} convert(reshape.25)
  mul.106 = f32[113,128,1]{2,1,0} broadcast(convert_element_type.30), dimensions={0,1,2}
  mul.107 = f32[113,128]{1,0} reshape(mul.106)
  mul.108 = f32[113,128,128]{2,1,0} broadcast(mul.107), dimensions={0,1}
  mul.109 = f32[113,128,128]{2,1,0} multiply(gather.10, mul.108)
  jit__var_.9 = f32[113,128,1]{2,1,0} call(mul.109, constant.126), to_apply=_var_13.35
  add.124 = f32[113,128,1]{2,1,0} add(jit__var_.9, broadcast.18)
  rsqrt.9 = f32[113,128,1]{2,1,0} rsqrt(add.124)
  mul.131 = f32[113,128,1]{2,1,0} broadcast(rsqrt.9), dimensions={0,1,2}
  mul.132 = f32[113,128]{1,0} reshape(mul.131)
  mul.133 = f32[113,128,128]{2,1,0} broadcast(mul.132), dimensions={0,1}
  reduce_sum.113 = f32[113,128]{1,0} reduce(mul.109, constant.125), dimensions={2}, to_apply=region_11.31
  broadcast_in_dim.73 = f32[113,128,1]{2,1,0} reshape(reduce_sum.113)
  div.48 = f32[113,128,1]{2,1,0} divide(broadcast_in_dim.73, broadcast.19)
  sub.93 = f32[113,128,1]{2,1,0} broadcast(div.48), dimensions={0,1,2}
  sub.94 = f32[113,128]{1,0} reshape(sub.93)
  sub.95 = f32[113,128,128]{2,1,0} broadcast(sub.94), dimensions={0,1}
  sub.96 = f32[113,128,128]{2,1,0} subtract(mul.109, sub.95)
  mul.134 = f32[113,128,128]{2,1,0} multiply(mul.133, sub.96)
  mul.143 = f32[113,128,128]{2,1,0} multiply(div.50, mul.134)
  Arg_19.1 = f32[128,128]{1,0} parameter(19)
  dot_general.34 = f32[113,128,128]{2,1,0} dot(mul.142, Arg_19.1), lhs_contracting_dims={2}, rhs_contracting_dims={0}
  add.131 = f32[113,128,128]{2,1,0} add(mul.143, dot_general.34)
  Arg_30.1 = f32[128,4,32]{2,1,0} parameter(30)
  dot_general.38 = f32[113,128,4,32]{3,2,1,0} dot(add.131, Arg_30.1), lhs_contracting_dims={2}, rhs_contracting_dims={0}
  Arg_26.1 = f32[128]{0} parameter(26)
  reshape.26 = f32[1,1,128]{2,1,0} reshape(Arg_26.1)
  mul.122 = f32[1,1,128]{2,1,0} broadcast(reshape.26), dimensions={0,1,2}
  mul.123 = f32[128]{0} reshape(mul.122)
  mul.124 = f32[113,32,128]{2,1,0} broadcast(mul.123), dimensions={2}
  jit__var_.8 = f32[113,32,1]{2,1,0} call(Arg_4.3, constant.126), to_apply=_var_11.29
  constant.117 = f32[] constant(1e-05)
  broadcast.21 = f32[113,32,1]{2,1,0} broadcast(constant.117), dimensions={}
  add.117 = f32[113,32,1]{2,1,0} add(jit__var_.8, broadcast.21)
  rsqrt.8 = f32[113,32,1]{2,1,0} rsqrt(add.117)
  mul.125 = f32[113,32,1]{2,1,0} broadcast(rsqrt.8), dimensions={0,1,2}
  mul.126 = f32[113,32]{1,0} reshape(mul.125)
  mul.127 = f32[113,32,128]{2,1,0} broadcast(mul.126), dimensions={0,1}
  mul.128 = f32[113,32,128]{2,1,0} multiply(mul.124, mul.127)
  reduce_sum.112 = f32[113,32]{1,0} reduce(Arg_4.3, constant.125), dimensions={2}, to_apply=region_10.30
  broadcast_in_dim.71 = f32[113,32,1]{2,1,0} reshape(reduce_sum.112)
  constant.118 = f32[] constant(128)
  broadcast.22 = f32[113,32,1]{2,1,0} broadcast(constant.118), dimensions={}
  div.46 = f32[113,32,1]{2,1,0} divide(broadcast_in_dim.71, broadcast.22)
  sub.89 = f32[113,32,1]{2,1,0} broadcast(div.46), dimensions={0,1,2}
  sub.90 = f32[113,32]{1,0} reshape(sub.89)
  sub.91 = f32[113,32,128]{2,1,0} broadcast(sub.90), dimensions={0,1}
  sub.92 = f32[113,32,128]{2,1,0} subtract(Arg_4.3, sub.91)
  mul.129 = f32[113,32,128]{2,1,0} multiply(mul.128, sub.92)
  Arg_28.1 = f32[128,128]{1,0} parameter(28)
  dot_general.31 = f32[113,32,128]{2,1,0} dot(mul.129, Arg_28.1), lhs_contracting_dims={2}, rhs_contracting_dims={0}
  Arg_27.1 = f32[128]{0} parameter(27)
  broadcast_in_dim.72 = f32[1,1,128]{2,1,0} reshape(Arg_27.1)
  add.118 = f32[1,1,128]{2,1,0} broadcast(broadcast_in_dim.72), dimensions={0,1,2}
  add.119 = f32[128]{0} reshape(add.118)
  add.120 = f32[113,32,128]{2,1,0} broadcast(add.119), dimensions={2}
  add.121 = f32[113,32,128]{2,1,0} add(dot_general.31, add.120)
  neg.8 = f32[113,32,128]{2,1,0} negate(add.121)
  exp.9 = f32[113,32,128]{2,1,0} exponential(neg.8)
  add.122 = f32[113,32,128]{2,1,0} add(exp.9, broadcast.20)
  div.47 = f32[113,32,128]{2,1,0} divide(broadcast.20, add.122)
  jit__var_.7 = f32[113,32,1]{2,1,0} call(Arg_6.3, constant.126), to_apply=_var_11.29
  add.116 = f32[113,32,1]{2,1,0} add(jit__var_.7, broadcast.21)
  rsqrt.7 = f32[113,32,1]{2,1,0} rsqrt(add.116)
  mul.118 = f32[113,32,1]{2,1,0} broadcast(rsqrt.7), dimensions={0,1,2}
  mul.119 = f32[113,32]{1,0} reshape(mul.118)
  mul.120 = f32[113,32,128]{2,1,0} broadcast(mul.119), dimensions={0,1}
  reduce_sum.111 = f32[113,32]{1,0} reduce(Arg_6.3, constant.125), dimensions={2}, to_apply=region_7.25
  broadcast_in_dim.70 = f32[113,32,1]{2,1,0} reshape(reduce_sum.111)
  div.45 = f32[113,32,1]{2,1,0} divide(broadcast_in_dim.70, broadcast.22)
  sub.85 = f32[113,32,1]{2,1,0} broadcast(div.45), dimensions={0,1,2}
  sub.86 = f32[113,32]{1,0} reshape(sub.85)
  sub.87 = f32[113,32,128]{2,1,0} broadcast(sub.86), dimensions={0,1}
  sub.88 = f32[113,32,128]{2,1,0} subtract(Arg_6.3, sub.87)
  mul.121 = f32[113,32,128]{2,1,0} multiply(mul.120, sub.88)
  mul.130 = f32[113,32,128]{2,1,0} multiply(div.47, mul.121)
  Arg_25.1 = f32[128,128]{1,0} parameter(25)
  dot_general.32 = f32[113,32,128]{2,1,0} dot(mul.129, Arg_25.1), lhs_contracting_dims={2}, rhs_contracting_dims={0}
  add.123 = f32[113,32,128]{2,1,0} add(mul.130, dot_general.32)
  Arg_24.1 = f32[128,4,32]{2,1,0} parameter(24)
  dot_general.35 = f32[113,32,4,32]{3,2,1,0} dot(add.123, Arg_24.1), lhs_contracting_dims={2}, rhs_contracting_dims={0}
  Arg_23.1 = f32[4,32]{1,0} parameter(23)
  broadcast_in_dim.76 = f32[1,1,4,32]{3,2,1,0} reshape(Arg_23.1)
  add.132 = f32[1,1,4,32]{3,2,1,0} broadcast(broadcast_in_dim.76), dimensions={0,1,2,3}
  add.133 = f32[4,32]{1,0} reshape(add.132)
  add.134 = f32[113,32,4,32]{3,2,1,0} broadcast(add.133), dimensions={2,3}
  add.135 = f32[113,32,4,32]{3,2,1,0} add(dot_general.35, add.134)
  constant.112 = f32[] constant(0.176776692)
  mul.104 = f32[113,32,4,32]{3,2,1,0} broadcast(constant.112), dimensions={}
  mul.144 = f32[113,32,4,32]{3,2,1,0} multiply(add.135, mul.104)
  Arg_18.1 = f32[128,4,32]{2,1,0} parameter(18)
  dot_general.36 = f32[113,128,4,32]{3,2,1,0} dot(add.131, Arg_18.1), lhs_contracting_dims={2}, rhs_contracting_dims={0}
  dot_general.37 = f32[113,4,32,128]{3,2,1,0} dot(mul.144, dot_general.36), lhs_batch_dims={0,2}, lhs_contracting_dims={3}, rhs_batch_dims={0,2}, rhs_contracting_dims={3}
  Arg_2.9 = pred[113,32]{1,0} parameter(2)
  convert_element_type.31 = f32[113,32]{1,0} convert(Arg_2.9)
  constant.121 = f32[] constant(1)
  sub.82 = f32[113,32]{1,0} broadcast(constant.121), dimensions={}
  sub.83 = f32[113,32]{1,0} subtract(convert_element_type.31, sub.82)
  broadcast_in_dim.68 = f32[113,1,32,1]{3,2,1,0} reshape(sub.83)
  constant.120 = f32[] constant(1e+09)
  mul.105 = f32[113,1,32,1]{3,2,1,0} broadcast(constant.120), dimensions={}
  mul.110 = f32[113,1,32,1]{3,2,1,0} multiply(broadcast_in_dim.68, mul.105)
  mul.111 = f32[113,1,32,1]{3,2,1,0} broadcast(mul.110), dimensions={0,1,2,3}
  mul.112 = f32[113,1,32]{2,1,0} reshape(mul.111)
  mul.113 = f32[113,1,32,128]{3,2,1,0} broadcast(mul.112), dimensions={0,1,2}
  Arg_3.3 = pred[113,128]{1,0} parameter(3)
  convert_element_type.32 = f32[113,128]{1,0} convert(Arg_3.3)
  constant.119 = f32[] constant(1)
  sub.81 = f32[113,128]{1,0} broadcast(constant.119), dimensions={}
  sub.84 = f32[113,128]{1,0} subtract(convert_element_type.32, sub.81)
  broadcast_in_dim.69 = f32[113,1,1,128]{3,2,1,0} reshape(sub.84)
  mul.114 = f32[113,1,1,128]{3,2,1,0} broadcast(broadcast_in_dim.69), dimensions={0,1,2,3}
  mul.115 = f32[113,1,128]{2,1,0} reshape(mul.114)
  mul.116 = f32[113,1,32,128]{3,2,1,0} broadcast(mul.115), dimensions={0,1,3}
  mul.117 = f32[113,1,32,128]{3,2,1,0} multiply(mul.113, mul.116)
  add.136 = f32[113,1,32,128]{3,2,1,0} broadcast(mul.117), dimensions={0,1,2,3}
  add.137 = f32[113,32,128]{2,1,0} reshape(add.136)
  add.138 = f32[113,4,32,128]{3,2,1,0} broadcast(add.137), dimensions={0,2,3}
  add.139 = f32[113,4,32,128]{3,2,1,0} add(dot_general.37, add.138)
  Arg_31.1 = f32[113,4,32,128]{3,2,1,0} parameter(31)
  add.140 = f32[113,4,32,128]{3,2,1,0} add(add.139, Arg_31.1)
  constant.124 = f32[] constant(-inf)
  reduce_max.7 = f32[113,4,32]{2,1,0} reduce(add.140, constant.124), dimensions={3}, to_apply=region_15.37
  constant.111 = f32[] constant(-inf)
  max.16 = f32[113,4,32]{2,1,0} broadcast(constant.111), dimensions={}
  max.17 = f32[113,4,32]{2,1,0} maximum(reduce_max.7, max.16)
  broadcast_in_dim.77 = f32[113,4,32,1]{3,2,1,0} reshape(max.17)
  sub.101 = f32[113,4,32,1]{3,2,1,0} broadcast(broadcast_in_dim.77), dimensions={0,1,2,3}
  sub.102 = f32[113,4,32]{2,1,0} reshape(sub.101)
  sub.103 = f32[113,4,32,128]{3,2,1,0} broadcast(sub.102), dimensions={0,1,2}
  sub.104 = f32[113,4,32,128]{3,2,1,0} subtract(add.140, sub.103)
  exp.11 = f32[113,4,32,128]{3,2,1,0} exponential(sub.104)
  reduce_sum.115 = f32[113,4,32]{2,1,0} reduce(exp.11, constant.125), dimensions={3}, to_apply=region_16.38
  broadcast_in_dim.78 = f32[113,4,32,1]{3,2,1,0} reshape(reduce_sum.115)
  div.51 = f32[113,4,32,1]{3,2,1,0} broadcast(broadcast_in_dim.78), dimensions={0,1,2,3}
  div.52 = f32[113,4,32]{2,1,0} reshape(div.51)
  div.53 = f32[113,4,32,128]{3,2,1,0} broadcast(div.52), dimensions={0,1,2}
  div.54 = f32[113,4,32,128]{3,2,1,0} divide(exp.11, div.53)
  dot_general.39 = f32[113,4,32,32]{3,2,1,0} dot(dot_general.38, div.54), lhs_batch_dims={0,2}, lhs_contracting_dims={1}, rhs_batch_dims={0,1}, rhs_contracting_dims={3}
  transpose.2 = f32[113,32,4,32]{1,3,2,0} transpose(dot_general.39), dimensions={0,3,1,2}
  reshape.28 = f32[113,32,128]{2,1,0} reshape(transpose.2)
  Arg_17.1 = f32[128,128]{1,0} parameter(17)
  dot_general.40 = f32[113,32,128]{2,1,0} dot(add.123, Arg_17.1), lhs_contracting_dims={2}, rhs_contracting_dims={0}
  neg.10 = f32[113,32,128]{2,1,0} negate(dot_general.40)
  exp.12 = f32[113,32,128]{2,1,0} exponential(neg.10)
  add.141 = f32[113,32,128]{2,1,0} add(exp.12, broadcast.20)
  div.55 = f32[113,32,128]{2,1,0} divide(broadcast.20, add.141)
  mul.145 = f32[113,32,128]{2,1,0} multiply(reshape.28, div.55)
  Arg_29.1 = f32[128,128]{1,0} parameter(29)
  dot_general.41 = f32[113,32,128]{2,1,0} dot(mul.145, Arg_29.1), lhs_contracting_dims={2}, rhs_contracting_dims={0}
  mul.146 = f32[113,32,128]{2,1,0} multiply(div.56, dot_general.41)
  add.147 = f32[113,32,128]{2,1,0} add(Arg_6.3, mul.146)
  Arg_10.1 = f32[128,128]{1,0} parameter(10)
  dot_general.47 = f32[113,32,128]{2,1,0} dot(Arg_4.3, Arg_10.1), lhs_contracting_dims={2}, rhs_contracting_dims={0}
  Arg_9.1 = f32[128]{0} parameter(9)
  broadcast_in_dim.83 = f32[1,1,128]{2,1,0} reshape(Arg_9.1)
  add.156 = f32[1,1,128]{2,1,0} broadcast(broadcast_in_dim.83), dimensions={0,1,2}
  add.157 = f32[128]{0} reshape(add.156)
  add.158 = f32[113,32,128]{2,1,0} broadcast(add.157), dimensions={2}
  add.159 = f32[113,32,128]{2,1,0} add(dot_general.47, add.158)
  neg.13 = f32[113,32,128]{2,1,0} negate(add.159)
  exp.15 = f32[113,32,128]{2,1,0} exponential(neg.13)
  add.160 = f32[113,32,128]{2,1,0} add(exp.15, broadcast.20)
  div.60 = f32[113,32,128]{2,1,0} divide(broadcast.20, add.160)
  Arg_12.1 = f32[128]{0} parameter(12)
  reshape.29 = f32[1,1,128]{2,1,0} reshape(Arg_12.1)
  mul.151 = f32[1,1,128]{2,1,0} broadcast(reshape.29), dimensions={0,1,2}
  mul.152 = f32[128]{0} reshape(mul.151)
  mul.153 = f32[113,32,128]{2,1,0} broadcast(mul.152), dimensions={2}
  jit__var_.12 = f32[113,32,1]{2,1,0} call(Arg_4.3, constant.126), to_apply=_var_11.29
  add.149 = f32[113,32,1]{2,1,0} add(jit__var_.12, broadcast.21)
  rsqrt.12 = f32[113,32,1]{2,1,0} rsqrt(add.149)
  mul.154 = f32[113,32,1]{2,1,0} broadcast(rsqrt.12), dimensions={0,1,2}
  mul.155 = f32[113,32]{1,0} reshape(mul.154)
  mul.156 = f32[113,32,128]{2,1,0} broadcast(mul.155), dimensions={0,1}
  mul.157 = f32[113,32,128]{2,1,0} multiply(mul.153, mul.156)
  reduce_sum.117 = f32[113,32]{1,0} reduce(Arg_4.3, constant.125), dimensions={2}, to_apply=region_18.40
  broadcast_in_dim.81 = f32[113,32,1]{2,1,0} reshape(reduce_sum.117)
  div.58 = f32[113,32,1]{2,1,0} divide(broadcast_in_dim.81, broadcast.22)
  sub.109 = f32[113,32,1]{2,1,0} broadcast(div.58), dimensions={0,1,2}
  sub.110 = f32[113,32]{1,0} reshape(sub.109)
  sub.111 = f32[113,32,128]{2,1,0} broadcast(sub.110), dimensions={0,1}
  sub.112 = f32[113,32,128]{2,1,0} subtract(Arg_4.3, sub.111)
  mul.158 = f32[113,32,128]{2,1,0} multiply(mul.157, sub.112)
  Arg_14.1 = f32[128,128]{1,0} parameter(14)
  dot_general.43 = f32[113,32,128]{2,1,0} dot(mul.158, Arg_14.1), lhs_contracting_dims={2}, rhs_contracting_dims={0}
  Arg_13.1 = f32[128]{0} parameter(13)
  broadcast_in_dim.82 = f32[1,1,128]{2,1,0} reshape(Arg_13.1)
  add.150 = f32[1,1,128]{2,1,0} broadcast(broadcast_in_dim.82), dimensions={0,1,2}
  add.151 = f32[128]{0} reshape(add.150)
  add.152 = f32[113,32,128]{2,1,0} broadcast(add.151), dimensions={2}
  add.153 = f32[113,32,128]{2,1,0} add(dot_general.43, add.152)
  neg.12 = f32[113,32,128]{2,1,0} negate(add.153)
  exp.14 = f32[113,32,128]{2,1,0} exponential(neg.12)
  add.154 = f32[113,32,128]{2,1,0} add(exp.14, broadcast.20)
  div.59 = f32[113,32,128]{2,1,0} divide(broadcast.20, add.154)
  jit__var_.11 = f32[113,32,1]{2,1,0} call(add.147, constant.126), to_apply=_var_11.29
  add.148 = f32[113,32,1]{2,1,0} add(jit__var_.11, broadcast.21)
  rsqrt.11 = f32[113,32,1]{2,1,0} rsqrt(add.148)
  mul.147 = f32[113,32,1]{2,1,0} broadcast(rsqrt.11), dimensions={0,1,2}
  mul.148 = f32[113,32]{1,0} reshape(mul.147)
  mul.149 = f32[113,32,128]{2,1,0} broadcast(mul.148), dimensions={0,1}
  reduce_sum.116 = f32[113,32]{1,0} reduce(add.147, constant.125), dimensions={2}, to_apply=region_17.39
  broadcast_in_dim.80 = f32[113,32,1]{2,1,0} reshape(reduce_sum.116)
  div.57 = f32[113,32,1]{2,1,0} divide(broadcast_in_dim.80, broadcast.22)
  sub.105 = f32[113,32,1]{2,1,0} broadcast(div.57), dimensions={0,1,2}
  sub.106 = f32[113,32]{1,0} reshape(sub.105)
  sub.107 = f32[113,32,128]{2,1,0} broadcast(sub.106), dimensions={0,1}
  sub.108 = f32[113,32,128]{2,1,0} subtract(add.147, sub.107)
  mul.150 = f32[113,32,128]{2,1,0} multiply(mul.149, sub.108)
  mul.159 = f32[113,32,128]{2,1,0} multiply(div.59, mul.150)
  Arg_11.1 = f32[128,128]{1,0} parameter(11)
  dot_general.44 = f32[113,32,128]{2,1,0} dot(mul.158, Arg_11.1), lhs_contracting_dims={2}, rhs_contracting_dims={0}
  add.155 = f32[113,32,128]{2,1,0} add(mul.159, dot_general.44)
  Arg_15.1 = f32[128,512]{1,0} parameter(15)
  reshape.30 = f32[128,2,256]{2,1,0} reshape(Arg_15.1)
  dot_general.45 = f32[113,32,2,256]{3,2,1,0} dot(add.155, reshape.30), lhs_contracting_dims={2}, rhs_contracting_dims={0}
  reshape.31 = f32[113,32,512]{2,1,0} reshape(dot_general.45)
  split.2 = f32[113,32,256]{2,1,0} slice(reshape.31), slice={[0:113], [0:32], [0:256]}
  jit_silu_.1 = f32[113,32,256]{2,1,0} call(split.2), to_apply=silu.41
  split.3 = f32[113,32,256]{2,1,0} slice(reshape.31), slice={[0:113], [0:32], [256:512]}
  mul.160 = f32[113,32,256]{2,1,0} multiply(jit_silu_.1, split.3)
  Arg_16.1 = f32[256,128]{1,0} parameter(16)
  dot_general.46 = f32[113,32,128]{2,1,0} dot(mul.160, Arg_16.1), lhs_contracting_dims={2}, rhs_contracting_dims={0}
  mul.161 = f32[113,32,128]{2,1,0} multiply(div.60, dot_general.46)
  ROOT add.161 = f32[113,32,128]{2,1,0} add(add.147, mul.161)
}

region_6.43 {
  arg_tuple.5 = (s32[], f32[113,32,128]{2,1,0}, f32[3,128]{1,0}, f32[3,128,128]{2,1,0}, f32[3,128]{1,0}, /*index=5*/f32[3,128,128]{2,1,0}, f32[3,128,128]{2,1,0}, f32[3,128]{1,0}, f32[3,128]{1,0}, f32[3,128,128]{2,1,0}, /*index=10*/f32[3,128,512]{2,1,0}, f32[3,256,128]{2,1,0}, f32[3,128,128]{2,1,0}, f32[3,128,4,32]{3,2,1,0}, f32[3,128,128]{2,1,0}, /*index=15*/f32[3,128]{1,0}, f32[3,128]{1,0}, f32[3,128,128]{2,1,0}, f32[3,4,32]{2,1,0}, f32[3,128,4,32]{3,2,1,0}, /*index=20*/f32[3,128,128]{2,1,0}, f32[3,128]{1,0}, f32[3,128]{1,0}, f32[3,128,128]{2,1,0}, f32[3,128,128]{2,1,0}, /*index=25*/f32[3,128,4,32]{3,2,1,0}, f32[3,113,4,32,128]{4,3,2,1,0}, s32[113,128]{1,0}, pred[113,128]{1,0}, pred[113,32]{1,0}, /*index=30*/pred[113,128]{1,0}, f32[113,32,128]{2,1,0}, f32[113,128,128]{2,1,0}) parameter(0)
  get-tuple-element.69 = s32[] get-tuple-element(arg_tuple.5), index=0
  constant.127 = s32[] constant(1)
  add.163 = s32[] add(get-tuple-element.69, constant.127)
  get-tuple-element.96 = s32[113,128]{1,0} get-tuple-element(arg_tuple.5), index=27
  get-tuple-element.97 = pred[113,128]{1,0} get-tuple-element(arg_tuple.5), index=28
  get-tuple-element.98 = pred[113,32]{1,0} get-tuple-element(arg_tuple.5), index=29
  get-tuple-element.99 = pred[113,128]{1,0} get-tuple-element(arg_tuple.5), index=30
  get-tuple-element.100 = f32[113,32,128]{2,1,0} get-tuple-element(arg_tuple.5), index=31
  get-tuple-element.101 = f32[113,128,128]{2,1,0} get-tuple-element(arg_tuple.5), index=32
  get-tuple-element.70 = f32[113,32,128]{2,1,0} get-tuple-element(arg_tuple.5), index=1
  get-tuple-element.71 = f32[3,128]{1,0} get-tuple-element(arg_tuple.5), index=2
  jit_dynamic_index_in_dim_.25 = f32[128]{0} call(get-tuple-element.71, get-tuple-element.69), to_apply=dynamic_index_in_dim.18
  get-tuple-element.72 = f32[3,128,128]{2,1,0} get-tuple-element(arg_tuple.5), index=3
  jit_dynamic_index_in_dim_.26 = f32[128,128]{1,0} call(get-tuple-element.72, get-tuple-element.69), to_apply=dynamic_index_in_dim_4.19
  get-tuple-element.73 = f32[3,128]{1,0} get-tuple-element(arg_tuple.5), index=4
  jit_dynamic_index_in_dim_.27 = f32[128]{0} call(get-tuple-element.73, get-tuple-element.69), to_apply=dynamic_index_in_dim.18
  get-tuple-element.74 = f32[3,128,128]{2,1,0} get-tuple-element(arg_tuple.5), index=5
  jit_dynamic_index_in_dim_.28 = f32[128,128]{1,0} call(get-tuple-element.74, get-tuple-element.69), to_apply=dynamic_index_in_dim_4.19
  get-tuple-element.75 = f32[3,128,128]{2,1,0} get-tuple-element(arg_tuple.5), index=6
  jit_dynamic_index_in_dim_.29 = f32[128,128]{1,0} call(get-tuple-element.75, get-tuple-element.69), to_apply=dynamic_index_in_dim_4.19
  get-tuple-element.76 = f32[3,128]{1,0} get-tuple-element(arg_tuple.5), index=7
  jit_dynamic_index_in_dim_.30 = f32[128]{0} call(get-tuple-element.76, get-tuple-element.69), to_apply=dynamic_index_in_dim.18
  get-tuple-element.77 = f32[3,128]{1,0} get-tuple-element(arg_tuple.5), index=8
  jit_dynamic_index_in_dim_.31 = f32[128]{0} call(get-tuple-element.77, get-tuple-element.69), to_apply=dynamic_index_in_dim.18
  get-tuple-element.78 = f32[3,128,128]{2,1,0} get-tuple-element(arg_tuple.5), index=9
  jit_dynamic_index_in_dim_.32 = f32[128,128]{1,0} call(get-tuple-element.78, get-tuple-element.69), to_apply=dynamic_index_in_dim_4.19
  get-tuple-element.79 = f32[3,128,512]{2,1,0} get-tuple-element(arg_tuple.5), index=10
  jit_dynamic_index_in_dim_.33 = f32[128,512]{1,0} call(get-tuple-element.79, get-tuple-element.69), to_apply=dynamic_index_in_dim_5.20
  get-tuple-element.80 = f32[3,256,128]{2,1,0} get-tuple-element(arg_tuple.5), index=11
  jit_dynamic_index_in_dim_.34 = f32[256,128]{1,0} call(get-tuple-element.80, get-tuple-element.69), to_apply=dynamic_index_in_dim_6.21
  get-tuple-element.81 = f32[3,128,128]{2,1,0} get-tuple-element(arg_tuple.5), index=12
  jit_dynamic_index_in_dim_.35 = f32[128,128]{1,0} call(get-tuple-element.81, get-tuple-element.69), to_apply=dynamic_index_in_dim_4.19
  get-tuple-element.82 = f32[3,128,4,32]{3,2,1,0} get-tuple-element(arg_tuple.5), index=13
  jit_dynamic_index_in_dim_.36 = f32[128,4,32]{2,1,0} call(get-tuple-element.82, get-tuple-element.69), to_apply=dynamic_index_in_dim_7.22
  get-tuple-element.83 = f32[3,128,128]{2,1,0} get-tuple-element(arg_tuple.5), index=14
  jit_dynamic_index_in_dim_.37 = f32[128,128]{1,0} call(get-tuple-element.83, get-tuple-element.69), to_apply=dynamic_index_in_dim_4.19
  get-tuple-element.84 = f32[3,128]{1,0} get-tuple-element(arg_tuple.5), index=15
  jit_dynamic_index_in_dim_.38 = f32[128]{0} call(get-tuple-element.84, get-tuple-element.69), to_apply=dynamic_index_in_dim.18
  get-tuple-element.85 = f32[3,128]{1,0} get-tuple-element(arg_tuple.5), index=16
  jit_dynamic_index_in_dim_.39 = f32[128]{0} call(get-tuple-element.85, get-tuple-element.69), to_apply=dynamic_index_in_dim.18
  get-tuple-element.86 = f32[3,128,128]{2,1,0} get-tuple-element(arg_tuple.5), index=17
  jit_dynamic_index_in_dim_.40 = f32[128,128]{1,0} call(get-tuple-element.86, get-tuple-element.69), to_apply=dynamic_index_in_dim_4.19
  get-tuple-element.87 = f32[3,4,32]{2,1,0} get-tuple-element(arg_tuple.5), index=18
  jit_dynamic_index_in_dim_.41 = f32[4,32]{1,0} call(get-tuple-element.87, get-tuple-element.69), to_apply=dynamic_index_in_dim_8.23
  get-tuple-element.88 = f32[3,128,4,32]{3,2,1,0} get-tuple-element(arg_tuple.5), index=19
  jit_dynamic_index_in_dim_.42 = f32[128,4,32]{2,1,0} call(get-tuple-element.88, get-tuple-element.69), to_apply=dynamic_index_in_dim_7.22
  get-tuple-element.89 = f32[3,128,128]{2,1,0} get-tuple-element(arg_tuple.5), index=20
  jit_dynamic_index_in_dim_.43 = f32[128,128]{1,0} call(get-tuple-element.89, get-tuple-element.69), to_apply=dynamic_index_in_dim_4.19
  get-tuple-element.90 = f32[3,128]{1,0} get-tuple-element(arg_tuple.5), index=21
  jit_dynamic_index_in_dim_.44 = f32[128]{0} call(get-tuple-element.90, get-tuple-element.69), to_apply=dynamic_index_in_dim.18
  get-tuple-element.91 = f32[3,128]{1,0} get-tuple-element(arg_tuple.5), index=22
  jit_dynamic_index_in_dim_.45 = f32[128]{0} call(get-tuple-element.91, get-tuple-element.69), to_apply=dynamic_index_in_dim.18
  get-tuple-element.92 = f32[3,128,128]{2,1,0} get-tuple-element(arg_tuple.5), index=23
  jit_dynamic_index_in_dim_.46 = f32[128,128]{1,0} call(get-tuple-element.92, get-tuple-element.69), to_apply=dynamic_index_in_dim_4.19
  get-tuple-element.93 = f32[3,128,128]{2,1,0} get-tuple-element(arg_tuple.5), index=24
  jit_dynamic_index_in_dim_.47 = f32[128,128]{1,0} call(get-tuple-element.93, get-tuple-element.69), to_apply=dynamic_index_in_dim_4.19
  get-tuple-element.94 = f32[3,128,4,32]{3,2,1,0} get-tuple-element(arg_tuple.5), index=25
  jit_dynamic_index_in_dim_.48 = f32[128,4,32]{2,1,0} call(get-tuple-element.94, get-tuple-element.69), to_apply=dynamic_index_in_dim_7.22
  get-tuple-element.95 = f32[3,113,4,32,128]{4,3,2,1,0} get-tuple-element(arg_tuple.5), index=26
  jit_dynamic_index_in_dim_.49 = f32[113,4,32,128]{3,2,1,0} call(get-tuple-element.95, get-tuple-element.69), to_apply=dynamic_index_in_dim_9.24
  closed_call.19 = f32[113,32,128]{2,1,0} call(get-tuple-element.96, get-tuple-element.97, get-tuple-element.98, get-tuple-element.99, get-tuple-element.100, get-tuple-element.101, get-tuple-element.70, jit_dynamic_index_in_dim_.25, jit_dynamic_index_in_dim_.26, jit_dynamic_index_in_dim_.27, jit_dynamic_index_in_dim_.28, jit_dynamic_index_in_dim_.29, jit_dynamic_index_in_dim_.30, jit_dynamic_index_in_dim_.31, jit_dynamic_index_in_dim_.32, jit_dynamic_index_in_dim_.33, jit_dynamic_index_in_dim_.34, jit_dynamic_index_in_dim_.35, jit_dynamic_index_in_dim_.36, jit_dynamic_index_in_dim_.37, jit_dynamic_index_in_dim_.38, jit_dynamic_index_in_dim_.39, jit_dynamic_index_in_dim_.40, jit_dynamic_index_in_dim_.41, jit_dynamic_index_in_dim_.42, jit_dynamic_index_in_dim_.43, jit_dynamic_index_in_dim_.44, jit_dynamic_index_in_dim_.45, jit_dynamic_index_in_dim_.46, jit_dynamic_index_in_dim_.47, jit_dynamic_index_in_dim_.48, jit_dynamic_index_in_dim_.49), to_apply=closed_call_10.42
  ROOT tuple.7 = (s32[], f32[113,32,128]{2,1,0}, f32[3,128]{1,0}, f32[3,128,128]{2,1,0}, f32[3,128]{1,0}, /*index=5*/f32[3,128,128]{2,1,0}, f32[3,128,128]{2,1,0}, f32[3,128]{1,0}, f32[3,128]{1,0}, f32[3,128,128]{2,1,0}, /*index=10*/f32[3,128,512]{2,1,0}, f32[3,256,128]{2,1,0}, f32[3,128,128]{2,1,0}, f32[3,128,4,32]{3,2,1,0}, f32[3,128,128]{2,1,0}, /*index=15*/f32[3,128]{1,0}, f32[3,128]{1,0}, f32[3,128,128]{2,1,0}, f32[3,4,32]{2,1,0}, f32[3,128,4,32]{3,2,1,0}, /*index=20*/f32[3,128,128]{2,1,0}, f32[3,128]{1,0}, f32[3,128]{1,0}, f32[3,128,128]{2,1,0}, f32[3,128,128]{2,1,0}, /*index=25*/f32[3,128,4,32]{3,2,1,0}, f32[3,113,4,32,128]{4,3,2,1,0}, s32[113,128]{1,0}, pred[113,128]{1,0}, pred[113,32]{1,0}, /*index=30*/pred[113,128]{1,0}, f32[113,32,128]{2,1,0}, f32[113,128,128]{2,1,0}) tuple(add.163, closed_call.19, get-tuple-element.71, get-tuple-element.72, get-tuple-element.73, get-tuple-element.74, get-tuple-element.75, get-tuple-element.76, get-tuple-element.77, get-tuple-element.78, get-tuple-element.79, get-tuple-element.80, get-tuple-element.81, get-tuple-element.82, get-tuple-element.83, get-tuple-element.84, get-tuple-element.85, get-tuple-element.86, get-tuple-element.87, get-tuple-element.88, get-tuple-element.89, get-tuple-element.90, get-tuple-element.91, get-tuple-element.92, get-tuple-element.93, get-tuple-element.94, get-tuple-element.95, get-tuple-element.96, get-tuple-element.97, get-tuple-element.98, get-tuple-element.99, get-tuple-element.100, get-tuple-element.101)
}

region_19.44 {
  arg_tuple.7 = (s32[], f32[113,32,128]{2,1,0}, f32[3,128]{1,0}, f32[3,128,128]{2,1,0}, f32[3,128]{1,0}, /*index=5*/f32[3,128,128]{2,1,0}, f32[3,128,128]{2,1,0}, f32[3,128]{1,0}, f32[3,128]{1,0}, f32[3,128,128]{2,1,0}, /*index=10*/f32[3,128,512]{2,1,0}, f32[3,256,128]{2,1,0}, f32[3,128,128]{2,1,0}, f32[3,128,4,32]{3,2,1,0}, f32[3,128,128]{2,1,0}, /*index=15*/f32[3,128]{1,0}, f32[3,128]{1,0}, f32[3,128,128]{2,1,0}, f32[3,4,32]{2,1,0}, f32[3,128,4,32]{3,2,1,0}, /*index=20*/f32[3,128,128]{2,1,0}, f32[3,128]{1,0}, f32[3,128]{1,0}, f32[3,128,128]{2,1,0}, f32[3,128,128]{2,1,0}, /*index=25*/f32[3,128,4,32]{3,2,1,0}, f32[3,113,4,32,128]{4,3,2,1,0}, s32[113,128]{1,0}, pred[113,128]{1,0}, pred[113,32]{1,0}, /*index=30*/pred[113,128]{1,0}, f32[113,32,128]{2,1,0}, f32[113,128,128]{2,1,0}) parameter(0)
  get-tuple-element.136 = f32[113,32,128]{2,1,0} get-tuple-element(arg_tuple.7), index=1
  get-tuple-element.137 = f32[3,128]{1,0} get-tuple-element(arg_tuple.7), index=2
  get-tuple-element.138 = f32[3,128,128]{2,1,0} get-tuple-element(arg_tuple.7), index=3
  get-tuple-element.139 = f32[3,128]{1,0} get-tuple-element(arg_tuple.7), index=4
  get-tuple-element.140 = f32[3,128,128]{2,1,0} get-tuple-element(arg_tuple.7), index=5
  get-tuple-element.141 = f32[3,128,128]{2,1,0} get-tuple-element(arg_tuple.7), index=6
  get-tuple-element.142 = f32[3,128]{1,0} get-tuple-element(arg_tuple.7), index=7
  get-tuple-element.143 = f32[3,128]{1,0} get-tuple-element(arg_tuple.7), index=8
  get-tuple-element.144 = f32[3,128,128]{2,1,0} get-tuple-element(arg_tuple.7), index=9
  get-tuple-element.145 = f32[3,128,512]{2,1,0} get-tuple-element(arg_tuple.7), index=10
  get-tuple-element.146 = f32[3,256,128]{2,1,0} get-tuple-element(arg_tuple.7), index=11
  get-tuple-element.147 = f32[3,128,128]{2,1,0} get-tuple-element(arg_tuple.7), index=12
  get-tuple-element.148 = f32[3,128,4,32]{3,2,1,0} get-tuple-element(arg_tuple.7), index=13
  get-tuple-element.149 = f32[3,128,128]{2,1,0} get-tuple-element(arg_tuple.7), index=14
  get-tuple-element.150 = f32[3,128]{1,0} get-tuple-element(arg_tuple.7), index=15
  get-tuple-element.151 = f32[3,128]{1,0} get-tuple-element(arg_tuple.7), index=16
  get-tuple-element.152 = f32[3,128,128]{2,1,0} get-tuple-element(arg_tuple.7), index=17
  get-tuple-element.153 = f32[3,4,32]{2,1,0} get-tuple-element(arg_tuple.7), index=18
  get-tuple-element.154 = f32[3,128,4,32]{3,2,1,0} get-tuple-element(arg_tuple.7), index=19
  get-tuple-element.155 = f32[3,128,128]{2,1,0} get-tuple-element(arg_tuple.7), index=20
  get-tuple-element.156 = f32[3,128]{1,0} get-tuple-element(arg_tuple.7), index=21
  get-tuple-element.157 = f32[3,128]{1,0} get-tuple-element(arg_tuple.7), index=22
  get-tuple-element.158 = f32[3,128,128]{2,1,0} get-tuple-element(arg_tuple.7), index=23
  get-tuple-element.159 = f32[3,128,128]{2,1,0} get-tuple-element(arg_tuple.7), index=24
  get-tuple-element.160 = f32[3,128,4,32]{3,2,1,0} get-tuple-element(arg_tuple.7), index=25
  get-tuple-element.161 = f32[3,113,4,32,128]{4,3,2,1,0} get-tuple-element(arg_tuple.7), index=26
  get-tuple-element.162 = s32[113,128]{1,0} get-tuple-element(arg_tuple.7), index=27
  get-tuple-element.163 = pred[113,128]{1,0} get-tuple-element(arg_tuple.7), index=28
  get-tuple-element.164 = pred[113,32]{1,0} get-tuple-element(arg_tuple.7), index=29
  get-tuple-element.165 = pred[113,128]{1,0} get-tuple-element(arg_tuple.7), index=30
  get-tuple-element.166 = f32[113,32,128]{2,1,0} get-tuple-element(arg_tuple.7), index=31
  get-tuple-element.167 = f32[113,128,128]{2,1,0} get-tuple-element(arg_tuple.7), index=32
  get-tuple-element.135 = s32[] get-tuple-element(arg_tuple.7), index=0
  constant.129 = s32[] constant(3)
  ROOT lt.17 = pred[] compare(get-tuple-element.135, constant.129), direction=LT
}

relu_15.45 {
  Arg_0.47 = f32[150,24,384]{2,1,0} parameter(0)
  constant.131 = f32[] constant(0)
  max.20 = f32[150,24,384]{2,1,0} broadcast(constant.131), dimensions={}
  ROOT max.21 = f32[150,24,384]{2,1,0} maximum(Arg_0.47, max.20)
}

region_20.46 {
  reduce_sum.121 = f32[] parameter(0)
  reduce_sum.122 = f32[] parameter(1)
  ROOT reduce_sum.123 = f32[] add(reduce_sum.121, reduce_sum.122)
}

region_21.47 {
  reduce_sum.128 = s32[] parameter(0)
  reduce_sum.129 = s32[] parameter(1)
  ROOT reduce_sum.130 = s32[] add(reduce_sum.128, reduce_sum.129)
}

region_23.48 {
  reduce_sum.135 = f32[] parameter(0)
  reduce_sum.136 = f32[] parameter(1)
  ROOT reduce_sum.137 = f32[] add(reduce_sum.135, reduce_sum.136)
}

region_24.49 {
  reduce_sum.142 = f32[] parameter(0)
  reduce_sum.143 = f32[] parameter(1)
  ROOT reduce_sum.144 = f32[] add(reduce_sum.142, reduce_sum.143)
}

clip.50 {
  Arg_1.32 = s32[] parameter(1)
  min.2 = s32[150,150]{1,0} broadcast(Arg_1.32), dimensions={}
  Arg_2.12 = s32[] parameter(2)
  max.25 = s32[150,150]{1,0} broadcast(Arg_2.12), dimensions={}
  Arg_0.50 = s32[150,150]{1,0} parameter(0)
  max.26 = s32[150,150]{1,0} maximum(max.25, Arg_0.50)
  ROOT min.3 = s32[150,150]{1,0} minimum(min.2, max.26)
}

_where_17.51 {
  Arg_0.52 = pred[150,150]{1,0} parameter(0)
  Arg_1.34 = s32[150,150]{1,0} parameter(1)
  Arg_2.14 = s32[150,150]{1,0} parameter(2)
  ROOT select_n.25 = s32[150,150]{1,0} select(Arg_0.52, Arg_1.34, Arg_2.14)
}

_one_hot_18.52 {
  Arg_0.54 = s32[150,150]{1,0} parameter(0)
  broadcast_in_dim.107 = s32[150,150,1]{2,1,0} reshape(Arg_0.54)
  eq.63 = s32[150,150,1]{2,1,0} broadcast(broadcast_in_dim.107), dimensions={0,1,2}
  eq.64 = s32[150,150]{1,0} reshape(eq.63)
  eq.65 = s32[150,150,66]{2,1,0} broadcast(eq.64), dimensions={0,1}
  iota.14 = s32[66]{0} iota(), iota_dimension=0
  iota.15 = s32[1,1,66]{2,1,0} reshape(iota.14)
  eq.66 = s32[1,1,66]{2,1,0} broadcast(iota.15), dimensions={0,1,2}
  eq.67 = s32[66]{0} reshape(eq.66)
  eq.68 = s32[150,150,66]{2,1,0} broadcast(eq.67), dimensions={2}
  eq.69 = pred[150,150,66]{2,1,0} compare(eq.65, eq.68), direction=EQ
  ROOT convert_element_type.45 = f32[150,150,66]{2,1,0} convert(eq.69)
}

_one_hot_19.53 {
  Arg_0.56 = s32[150,150]{1,0} parameter(0)
  broadcast_in_dim.110 = s32[150,150,1]{2,1,0} reshape(Arg_0.56)
  eq.98 = s32[150,150,1]{2,1,0} broadcast(broadcast_in_dim.110), dimensions={0,1,2}
  eq.99 = s32[150,150]{1,0} reshape(eq.98)
  eq.100 = s32[150,150,6]{2,1,0} broadcast(eq.99), dimensions={0,1}
  iota.18 = s32[6]{0} iota(), iota_dimension=0
  iota.19 = s32[1,1,6]{2,1,0} reshape(iota.18)
  eq.101 = s32[1,1,6]{2,1,0} broadcast(iota.19), dimensions={0,1,2}
  eq.102 = s32[6]{0} reshape(eq.101)
  eq.103 = s32[150,150,6]{2,1,0} broadcast(eq.102), dimensions={2}
  eq.104 = pred[150,150,6]{2,1,0} compare(eq.100, eq.103), direction=EQ
  ROOT convert_element_type.48 = f32[150,150,6]{2,1,0} convert(eq.104)
}

region_25.54 {
  reduce_prod.3 = s32[] parameter(0)
  reduce_prod.4 = s32[] parameter(1)
  ROOT reduce_prod.5 = s32[] multiply(reduce_prod.3, reduce_prod.4)
}

region_26.55 {
  reduce_prod.10 = s32[] parameter(0)
  reduce_prod.11 = s32[] parameter(1)
  ROOT reduce_prod.12 = s32[] multiply(reduce_prod.10, reduce_prod.11)
}

region_27.56 {
  scatter.2 = f32[] parameter(0)
  ROOT scatter.3 = f32[] parameter(1)
}

region_28.57 {
  scatter.7 = f32[] parameter(0)
  ROOT scatter.8 = f32[] parameter(1)
}

dynamic_index_in_dim_20.58 {
  Arg_0.58 = s32[4,150]{1,0} parameter(0)
  Arg_1.36 = s32[] parameter(1)
  constant.168 = s32[] constant(0)
  dynamic_slice.15 = s32[1,150]{1,0} dynamic-slice(Arg_0.58, Arg_1.36, constant.168), dynamic_slice_sizes={1,150}
  ROOT squeeze.38 = s32[150]{0} reshape(dynamic_slice.15)
}

dynamic_index_in_dim_21.59 {
  Arg_0.60 = f32[4,150,24,3]{3,2,1,0} parameter(0)
  Arg_1.38 = s32[] parameter(1)
  constant.170 = s32[] constant(0)
  dynamic_slice.17 = f32[1,150,24,3]{3,2,1,0} dynamic-slice(Arg_0.60, Arg_1.38, constant.170, constant.170, constant.170), dynamic_slice_sizes={1,150,24,3}
  ROOT squeeze.40 = f32[150,24,3]{2,1,0} reshape(dynamic_slice.17)
}

dynamic_index_in_dim_22.60 {
  Arg_0.62 = pred[4,150,24]{2,1,0} parameter(0)
  Arg_1.40 = s32[] parameter(1)
  constant.172 = s32[] constant(0)
  dynamic_slice.19 = pred[1,150,24]{2,1,0} dynamic-slice(Arg_0.62, Arg_1.40, constant.172, constant.172), dynamic_slice_sizes={1,150,24}
  ROOT squeeze.42 = pred[150,24]{1,0} reshape(dynamic_slice.19)
}

_where_24.61 {
  Arg_0.66 = pred[150]{0} parameter(0)
  Arg_1.44 = s32[150]{0} parameter(1)
  Arg_2.17 = s32[150]{0} parameter(2)
  ROOT select_n.29 = s32[150]{0} select(Arg_0.66, Arg_1.44, Arg_2.17)
}

region_30.62 {
  reduce_and.3 = pred[] parameter(0)
  reduce_and.4 = pred[] parameter(1)
  ROOT reduce_and.5 = pred[] and(reduce_and.3, reduce_and.4)
}

_take.63 {
  Arg_1.45 = s32[150]{0} parameter(1)
  constant.195 = s32[] constant(0)
  lt.23 = s32[150]{0} broadcast(constant.195), dimensions={}
  lt.24 = pred[150]{0} compare(Arg_1.45, lt.23), direction=LT
  constant.193 = s32[] constant(31)
  add.190 = s32[150]{0} broadcast(constant.193), dimensions={}
  add.191 = s32[150]{0} add(Arg_1.45, add.190)
  jit__where_.10 = s32[150]{0} call(lt.24, add.191, Arg_1.45), to_apply=_where_24.61
  broadcast_in_dim.122 = s32[150,1]{1,0} reshape(jit__where_.10)
  constant.192 = s32[] constant(0)
  ge.2 = s32[150,1]{1,0} broadcast(constant.192), dimensions={}
  ge.3 = pred[150,1]{1,0} compare(broadcast_in_dim.122, ge.2), direction=GE
  constant.191 = s32[] constant(30)
  le.3 = s32[150,1]{1,0} broadcast(constant.191), dimensions={}
  le.4 = pred[150,1]{1,0} compare(broadcast_in_dim.122, le.3), direction=LE
  and.11 = pred[150,1]{1,0} and(ge.3, le.4)
  constant.194 = pred[] constant(true)
  reduce_and.7 = pred[150]{0} reduce(and.11, constant.194), dimensions={1}, to_apply=region_30.62
  Arg_0.67 = s32[31]{0} parameter(0)
  gather.13 = s32[150]{0} gather(Arg_0.67, broadcast_in_dim.122), offset_dims={}, collapsed_slice_dims={0}, start_index_map={0}, index_vector_dim=1, slice_sizes={1}
  constant.190 = s32[] constant(-2147483648)
  broadcast_in_dim.121 = s32[150]{0} broadcast(constant.190), dimensions={}
  ROOT select_n.31 = s32[150]{0} select(reduce_and.7, gather.13, broadcast_in_dim.121)
}

_where_25.64 {
  Arg_0.69 = s32[150]{0} parameter(0)
  constant.197 = s32[] constant(0)
  ne.2 = s32[150]{0} broadcast(constant.197), dimensions={}
  ne.3 = pred[150]{0} compare(Arg_0.69, ne.2), direction=NE
  Arg_1.47 = s32[150]{0} parameter(1)
  Arg_2.19 = s32[150]{0} parameter(2)
  ROOT select_n.33 = s32[150]{0} select(ne.3, Arg_1.47, Arg_2.19)
}

region_31.65 {
  reduce_and.11 = pred[] parameter(0)
  reduce_and.12 = pred[] parameter(1)
  ROOT reduce_and.13 = pred[] and(reduce_and.11, reduce_and.12)
}

take_along_axis.66 {
  Arg_1.49 = s32[150,1,1]{2,1,0} parameter(1)
  constant.207 = s32[] constant(0)
  broadcast.41 = s32[150,1,1]{2,1,0} broadcast(constant.207), dimensions={}
  lt.26 = pred[150,1,1]{2,1,0} compare(Arg_1.49, broadcast.41), direction=LT
  constant.205 = s32[] constant(24)
  add.194 = s32[150,1,1]{2,1,0} broadcast(constant.205), dimensions={}
  add.195 = s32[150,1,1]{2,1,0} add(Arg_1.49, add.194)
  select_n.36 = s32[150,1,1]{2,1,0} select(lt.26, add.195, Arg_1.49)
  ge.5 = pred[150,1,1]{2,1,0} compare(select_n.36, broadcast.41), direction=GE
  constant.204 = s32[] constant(23)
  le.7 = s32[150,1,1]{2,1,0} broadcast(constant.204), dimensions={}
  le.8 = pred[150,1,1]{2,1,0} compare(select_n.36, le.7), direction=LE
  and.13 = pred[150,1,1]{2,1,0} and(ge.5, le.8)
  constant.206 = pred[] constant(true)
  reduce_and.15 = pred[150,1]{1,0} reduce(and.13, constant.206), dimensions={2}, to_apply=region_31.65
  broadcast_in_dim.127 = pred[150,1,3]{2,1,0} broadcast(reduce_and.15), dimensions={0,1}
  Arg_0.71 = f32[150,24,3]{2,1,0} parameter(0)
  gather.15 = f32[150,1,3]{2,1,0} gather(Arg_0.71, select_n.36), offset_dims={2}, collapsed_slice_dims={1}, start_index_map={1}, operand_batching_dims={0}, start_indices_batching_dims={0}, index_vector_dim=2, slice_sizes={1,1,3}
  constant.203 = f32[] constant(nan)
  broadcast_in_dim.126 = f32[150,1,3]{2,1,0} broadcast(constant.203), dimensions={}
  ROOT select_n.37 = f32[150,1,3]{2,1,0} select(broadcast_in_dim.127, gather.15, broadcast_in_dim.126)
}

region_32.67 {
  reduce_and.19 = pred[] parameter(0)
  reduce_and.20 = pred[] parameter(1)
  ROOT reduce_and.21 = pred[] and(reduce_and.19, reduce_and.20)
}

take_along_axis_26.68 {
  Arg_1.51 = s32[150,1]{1,0} parameter(1)
  constant.219 = s32[] constant(0)
  lt.29 = s32[150,1]{1,0} broadcast(constant.219), dimensions={}
  lt.30 = pred[150,1]{1,0} compare(Arg_1.51, lt.29), direction=LT
  constant.217 = s32[] constant(24)
  add.198 = s32[150,1]{1,0} broadcast(constant.217), dimensions={}
  add.199 = s32[150,1]{1,0} add(Arg_1.51, add.198)
  select_n.40 = s32[150,1]{1,0} select(lt.30, add.199, Arg_1.51)
  reshape.37 = s32[150,1,1]{2,1,0} reshape(select_n.40)
  constant.216 = s32[] constant(0)
  ge.8 = s32[150,1,1]{2,1,0} broadcast(constant.216), dimensions={}
  ge.9 = pred[150,1,1]{2,1,0} compare(reshape.37, ge.8), direction=GE
  constant.215 = s32[] constant(23)
  le.11 = s32[150,1,1]{2,1,0} broadcast(constant.215), dimensions={}
  le.12 = pred[150,1,1]{2,1,0} compare(reshape.37, le.11), direction=LE
  and.15 = pred[150,1,1]{2,1,0} and(ge.9, le.12)
  constant.218 = pred[] constant(true)
  reduce_and.23 = pred[150,1]{1,0} reduce(and.15, constant.218), dimensions={2}, to_apply=region_32.67
  Arg_0.73 = pred[150,24]{1,0} parameter(0)
  gather.17 = pred[150,1]{1,0} gather(Arg_0.73, reshape.37), offset_dims={}, collapsed_slice_dims={1}, start_index_map={1}, operand_batching_dims={0}, start_indices_batching_dims={0}, index_vector_dim=2, slice_sizes={1,1}
  constant.214 = pred[] constant(true)
  broadcast_in_dim.130 = pred[150,1]{1,0} broadcast(constant.214), dimensions={}
  ROOT select_n.41 = pred[150,1]{1,0} select(reduce_and.23, gather.17, broadcast_in_dim.130)
}

_linspace.69 {
  Arg_0.75 = f32[] parameter(0)
  reshape.40 = f32[1]{0} reshape(Arg_0.75)
  mul.213 = f32[1]{0} broadcast(reshape.40), dimensions={0}
  mul.214 = f32[] reshape(mul.213)
  mul.215 = f32[38]{0} broadcast(mul.214), dimensions={}
  constant.222 = f32[] constant(1)
  sub.142 = f32[38]{0} broadcast(constant.222), dimensions={}
  iota.21 = f32[38]{0} iota(), iota_dimension=0
  constant.223 = f32[] constant(38)
  div.71 = f32[38]{0} broadcast(constant.223), dimensions={}
  div.72 = f32[38]{0} divide(iota.21, div.71)
  sub.143 = f32[38]{0} subtract(sub.142, div.72)
  mul.216 = f32[38]{0} multiply(mul.215, sub.143)
  Arg_1.53 = f32[] parameter(1)
  reshape.41 = f32[1]{0} reshape(Arg_1.53)
  mul.217 = f32[1]{0} broadcast(reshape.41), dimensions={0}
  mul.218 = f32[] reshape(mul.217)
  mul.219 = f32[38]{0} broadcast(mul.218), dimensions={}
  mul.220 = f32[38]{0} multiply(mul.219, div.72)
  add.201 = f32[38]{0} add(mul.216, mul.220)
  broadcast_in_dim.132 = f32[1]{0} reshape(Arg_1.53)
  ROOT concatenate.6 = f32[39]{0} concatenate(add.201, broadcast_in_dim.132), dimensions={0}
}

region_33.70 {
  reduce_sum.149 = f32[] parameter(0)
  reduce_sum.150 = f32[] parameter(1)
  ROOT reduce_sum.151 = f32[] add(reduce_sum.149, reduce_sum.150)
}

_one_hot_27.71 {
  Arg_0.77 = s32[150]{0} parameter(0)
  broadcast_in_dim.138 = s32[150,1]{1,0} reshape(Arg_0.77)
  eq.119 = s32[150,1]{1,0} broadcast(broadcast_in_dim.138), dimensions={0,1}
  eq.120 = s32[150]{0} reshape(eq.119)
  eq.121 = s32[150,31]{1,0} broadcast(eq.120), dimensions={0}
  iota.24 = s32[31]{0} iota(), iota_dimension=0
  iota.25 = s32[1,31]{1,0} reshape(iota.24)
  eq.122 = s32[1,31]{1,0} broadcast(iota.25), dimensions={0,1}
  eq.123 = s32[31]{0} reshape(eq.122)
  eq.124 = s32[150,31]{1,0} broadcast(eq.123), dimensions={1}
  eq.125 = pred[150,31]{1,0} compare(eq.121, eq.124), direction=EQ
  ROOT convert_element_type.62 = bf16[150,31]{1,0} convert(eq.125)
}

region_34.72 {
  reduce_and.27 = pred[] parameter(0)
  reduce_and.28 = pred[] parameter(1)
  ROOT reduce_and.29 = pred[] and(reduce_and.27, reduce_and.28)
}

_take_28.73 {
  Arg_1.55 = s32[150]{0} parameter(1)
  constant.235 = s32[] constant(0)
  lt.40 = s32[150]{0} broadcast(constant.235), dimensions={}
  lt.41 = pred[150]{0} compare(Arg_1.55, lt.40), direction=LT
  constant.233 = s32[] constant(31)
  add.204 = s32[150]{0} broadcast(constant.233), dimensions={}
  add.205 = s32[150]{0} add(Arg_1.55, add.204)
  jit__where_.13 = s32[150]{0} call(lt.41, add.205, Arg_1.55), to_apply=_where_24.61
  broadcast_in_dim.145 = s32[150,1]{1,0} reshape(jit__where_.13)
  constant.232 = s32[] constant(0)
  ge.12 = s32[150,1]{1,0} broadcast(constant.232), dimensions={}
  ge.13 = pred[150,1]{1,0} compare(broadcast_in_dim.145, ge.12), direction=GE
  constant.231 = s32[] constant(30)
  le.15 = s32[150,1]{1,0} broadcast(constant.231), dimensions={}
  le.16 = pred[150,1]{1,0} compare(broadcast_in_dim.145, le.15), direction=LE
  and.17 = pred[150,1]{1,0} and(ge.13, le.16)
  constant.234 = pred[] constant(true)
  reduce_and.31 = pred[150]{0} reduce(and.17, constant.234), dimensions={1}, to_apply=region_34.72
  broadcast_in_dim.146 = pred[150,8,3]{2,1,0} broadcast(reduce_and.31), dimensions={0}
  Arg_0.79 = s32[31,8,3]{2,1,0} parameter(0)
  gather.19 = s32[150,8,3]{2,1,0} gather(Arg_0.79, broadcast_in_dim.145), offset_dims={1,2}, collapsed_slice_dims={0}, start_index_map={0}, index_vector_dim=1, slice_sizes={1,8,3}
  constant.230 = s32[] constant(-2147483648)
  broadcast_in_dim.144 = s32[150,8,3]{2,1,0} broadcast(constant.230), dimensions={}
  ROOT select_n.43 = s32[150,8,3]{2,1,0} select(broadcast_in_dim.146, gather.19, broadcast_in_dim.144)
}

region_35.74 {
  reduce_sum.156 = f32[] parameter(0)
  reduce_sum.157 = f32[] parameter(1)
  ROOT reduce_sum.158 = f32[] add(reduce_sum.156, reduce_sum.157)
}

region_36.75 {
  reduce_sum.163 = f32[] parameter(0)
  reduce_sum.164 = f32[] parameter(1)
  ROOT reduce_sum.165 = f32[] add(reduce_sum.163, reduce_sum.164)
}

dynamic_index_in_dim_29.76 {
  Arg_0.81 = f32[2,64]{1,0} parameter(0)
  Arg_1.57 = s32[] parameter(1)
  constant.238 = s32[] constant(0)
  dynamic_slice.21 = f32[1,64]{1,0} dynamic-slice(Arg_0.81, Arg_1.57, constant.238), dynamic_slice_sizes={1,64}
  ROOT squeeze.75 = f32[64]{0} reshape(dynamic_slice.21)
}

dynamic_index_in_dim_30.77 {
  Arg_0.83 = bf16[2,64,64]{2,1,0} parameter(0)
  Arg_1.59 = s32[] parameter(1)
  constant.240 = s32[] constant(0)
  dynamic_slice.23 = bf16[1,64,64]{2,1,0} dynamic-slice(Arg_0.83, Arg_1.59, constant.240, constant.240), dynamic_slice_sizes={1,64,64}
  ROOT squeeze.77 = bf16[64,64]{1,0} reshape(dynamic_slice.23)
}

dynamic_index_in_dim_31.78 {
  Arg_0.85 = bf16[2,4,16,64]{3,2,1,0} parameter(0)
  Arg_1.61 = s32[] parameter(1)
  constant.242 = s32[] constant(0)
  dynamic_slice.25 = bf16[1,4,16,64]{3,2,1,0} dynamic-slice(Arg_0.85, Arg_1.61, constant.242, constant.242, constant.242), dynamic_slice_sizes={1,4,16,64}
  ROOT squeeze.79 = bf16[4,16,64]{2,1,0} reshape(dynamic_slice.25)
}

dynamic_index_in_dim_32.79 {
  Arg_0.87 = bf16[2,64,4]{2,1,0} parameter(0)
  Arg_1.63 = s32[] parameter(1)
  constant.244 = s32[] constant(0)
  dynamic_slice.27 = bf16[1,64,4]{2,1,0} dynamic-slice(Arg_0.87, Arg_1.63, constant.244, constant.244), dynamic_slice_sizes={1,64,4}
  ROOT squeeze.81 = bf16[64,4]{1,0} reshape(dynamic_slice.27)
}

dynamic_index_in_dim_33.80 {
  Arg_0.89 = bf16[2,64,4,16]{3,2,1,0} parameter(0)
  Arg_1.65 = s32[] parameter(1)
  constant.246 = s32[] constant(0)
  dynamic_slice.29 = bf16[1,64,4,16]{3,2,1,0} dynamic-slice(Arg_0.89, Arg_1.65, constant.246, constant.246, constant.246), dynamic_slice_sizes={1,64,4,16}
  ROOT squeeze.83 = bf16[64,4,16]{2,1,0} reshape(dynamic_slice.29)
}

dynamic_index_in_dim_34.81 {
  Arg_0.91 = bf16[2,64,256]{2,1,0} parameter(0)
  Arg_1.67 = s32[] parameter(1)
  constant.248 = s32[] constant(0)
  dynamic_slice.31 = bf16[1,64,256]{2,1,0} dynamic-slice(Arg_0.91, Arg_1.67, constant.248, constant.248), dynamic_slice_sizes={1,64,256}
  ROOT squeeze.85 = bf16[64,256]{1,0} reshape(dynamic_slice.31)
}

dynamic_index_in_dim_35.82 {
  Arg_0.93 = bf16[2,128,64]{2,1,0} parameter(0)
  Arg_1.69 = s32[] parameter(1)
  constant.250 = s32[] constant(0)
  dynamic_slice.33 = bf16[1,128,64]{2,1,0} dynamic-slice(Arg_0.93, Arg_1.69, constant.250, constant.250), dynamic_slice_sizes={1,128,64}
  ROOT squeeze.87 = bf16[128,64]{1,0} reshape(dynamic_slice.33)
}

dynamic_index_in_dim_36.83 {
  Arg_0.95 = bf16[2,64,128]{2,1,0} parameter(0)
  Arg_1.71 = s32[] parameter(1)
  constant.252 = s32[] constant(0)
  dynamic_slice.35 = bf16[1,64,128]{2,1,0} dynamic-slice(Arg_0.95, Arg_1.71, constant.252, constant.252), dynamic_slice_sizes={1,64,128}
  ROOT squeeze.89 = bf16[64,128]{1,0} reshape(dynamic_slice.35)
}

region_38.84 {
  reduce_sum.170 = f32[] parameter(0)
  reduce_sum.171 = f32[] parameter(1)
  ROOT reduce_sum.172 = f32[] add(reduce_sum.170, reduce_sum.171)
}

region_39.85 {
  reduce_sum.177 = f32[] parameter(0)
  reduce_sum.178 = f32[] parameter(1)
  ROOT reduce_sum.179 = f32[] add(reduce_sum.177, reduce_sum.178)
}

region_40.86 {
  reduce_sum.184 = f32[] parameter(0)
  reduce_sum.185 = f32[] parameter(1)
  ROOT reduce_sum.186 = f32[] add(reduce_sum.184, reduce_sum.185)
}

region_41.87 {
  reduce_sum.191 = f32[] parameter(0)
  reduce_sum.192 = f32[] parameter(1)
  ROOT reduce_sum.193 = f32[] add(reduce_sum.191, reduce_sum.192)
}

region_42.88 {
  reduce_sum.198 = f32[] parameter(0)
  reduce_sum.199 = f32[] parameter(1)
  ROOT reduce_sum.200 = f32[] add(reduce_sum.198, reduce_sum.199)
}

region_43.89 {
  reduce_sum.205 = f32[] parameter(0)
  reduce_sum.206 = f32[] parameter(1)
  ROOT reduce_sum.207 = f32[] add(reduce_sum.205, reduce_sum.206)
}

region_44.90 {
  reduce_sum.212 = f32[] parameter(0)
  reduce_sum.213 = f32[] parameter(1)
  ROOT reduce_sum.214 = f32[] add(reduce_sum.212, reduce_sum.213)
}

region_45.91 {
  reduce_sum.219 = f32[] parameter(0)
  reduce_sum.220 = f32[] parameter(1)
  ROOT reduce_sum.221 = f32[] add(reduce_sum.219, reduce_sum.220)
}

region_46.92 {
  reduce_sum.226 = f32[] parameter(0)
  reduce_sum.227 = f32[] parameter(1)
  ROOT reduce_sum.228 = f32[] add(reduce_sum.226, reduce_sum.227)
}

region_47.93 {
  reduce_sum.233 = f32[] parameter(0)
  reduce_sum.234 = f32[] parameter(1)
  ROOT reduce_sum.235 = f32[] add(reduce_sum.233, reduce_sum.234)
}

dynamic_index_in_dim_38.94 {
  Arg_0.98 = s32[1]{0} parameter(0)
  Arg_1.74 = s32[] parameter(1)
  dynamic_slice.37 = s32[1]{0} dynamic-slice(Arg_0.98, Arg_1.74), dynamic_slice_sizes={1}
  ROOT squeeze.95 = s32[] reshape(dynamic_slice.37)
}

_where_40.95 {
  Arg_0.101 = pred[128,1,1,150]{3,2,1,0} parameter(0)
  broadcast_in_dim.200 = pred[128,1,1,150]{3,2,1,0} broadcast(Arg_0.101), dimensions={0,1,2,3}
  broadcast_in_dim.201 = pred[128,150]{1,0} reshape(broadcast_in_dim.200)
  broadcast_in_dim.202 = pred[128,4,150,150]{3,2,1,0} broadcast(broadcast_in_dim.201), dimensions={0,3}
  Arg_1.77 = f32[128,4,150,150]{3,2,1,0} parameter(1)
  Arg_2.23 = f32[] parameter(2)
  broadcast_in_dim.203 = f32[128,4,150,150]{3,2,1,0} broadcast(Arg_2.23), dimensions={}
  ROOT select_n.59 = f32[128,4,150,150]{3,2,1,0} select(broadcast_in_dim.202, Arg_1.77, broadcast_in_dim.203)
}

region_49.96 {
  reduce_max.11 = f32[] parameter(0)
  reduce_max.12 = f32[] parameter(1)
  ROOT reduce_max.13 = f32[] maximum(reduce_max.11, reduce_max.12)
}

region_50.97 {
  reduce_sum.240 = f32[] parameter(0)
  reduce_sum.241 = f32[] parameter(1)
  ROOT reduce_sum.242 = f32[] add(reduce_sum.240, reduce_sum.241)
}

closed_call_39.98 {
  Arg_8.6 = bf16[150,150,64]{2,1,0} parameter(8)
  Arg_0.102 = bf16[150,150,64]{2,1,0} parameter(0)
  Arg_9.6 = s32[] parameter(9)
  constant.283 = s32[] constant(0)
  lt.57 = pred[] compare(Arg_9.6, constant.283), direction=LT
  constant.282 = s32[] constant(150)
  add.308 = s32[] add(Arg_9.6, constant.282)
  select_n.61 = s32[] select(lt.57, add.308, Arg_9.6)
  dynamic_slice.40 = bf16[128,150,64]{2,1,0} dynamic-slice(Arg_0.102, select_n.61, constant.283, constant.283), dynamic_slice_sizes={128,150,64}
  Arg_4.8 = bf16[64,4,16]{2,1,0} parameter(4)
  dot_general.76 = bf16[128,150,4,16]{3,2,1,0} dot(dynamic_slice.40, Arg_4.8), lhs_contracting_dims={2}, rhs_contracting_dims={0}
  Arg_1.78 = pred[150,1,1,150]{3,2,1,0} parameter(1)
  lt.58 = pred[] compare(Arg_9.6, constant.283), direction=LT
  add.309 = s32[] add(Arg_9.6, constant.282)
  select_n.62 = s32[] select(lt.58, add.309, Arg_9.6)
  dynamic_slice.41 = pred[128,1,1,150]{3,2,1,0} dynamic-slice(Arg_1.78, select_n.62, constant.283, constant.283, constant.283), dynamic_slice_sizes={128,1,1,150}
  Arg_2.24 = bf16[4,16,64]{2,1,0} parameter(2)
  dot_general.74 = bf16[128,150,4,16]{3,2,1,0} dot(dynamic_slice.40, Arg_2.24), lhs_contracting_dims={2}, rhs_contracting_dims={2}
  Arg_3.8 = bf16[4,16,64]{2,1,0} parameter(3)
  dot_general.75 = bf16[128,150,4,16]{3,2,1,0} dot(dynamic_slice.40, Arg_3.8), lhs_contracting_dims={2}, rhs_contracting_dims={2}
  dot_general.77 = f32[128,4,150,150]{3,2,1,0} dot(dot_general.74, dot_general.75), lhs_batch_dims={0,2}, lhs_contracting_dims={3}, rhs_batch_dims={0,2}, rhs_contracting_dims={3}, algorithm=dot_bf16_bf16_f32
  constant.278 = f32[] constant(0.25)
  mul.428 = f32[128,4,150,150]{3,2,1,0} broadcast(constant.278), dimensions={}
  mul.429 = f32[128,4,150,150]{3,2,1,0} multiply(dot_general.77, mul.428)
  Arg_5.8 = bf16[4,150,150]{2,1,0} parameter(5)
  broadcast_in_dim.206 = bf16[1,4,150,150]{3,2,1,0} reshape(Arg_5.8)
  convert_element_type.87 = f32[1,4,150,150]{3,2,1,0} convert(broadcast_in_dim.206)
  add.310 = f32[1,4,150,150]{3,2,1,0} broadcast(convert_element_type.87), dimensions={0,1,2,3}
  add.311 = f32[4,150,150]{2,1,0} reshape(add.310)
  add.312 = f32[128,4,150,150]{3,2,1,0} broadcast(add.311), dimensions={1,2,3}
  add.313 = f32[128,4,150,150]{3,2,1,0} add(mul.429, add.312)
  constant.281 = f32[] constant(-3.40282347e+38)
  jit__where_.15 = f32[128,4,150,150]{3,2,1,0} call(dynamic_slice.41, add.313, constant.281), to_apply=_where_40.95
  constant.280 = f32[] constant(-inf)
  reduce_max.15 = f32[128,4,150]{2,1,0} reduce(jit__where_.15, constant.280), dimensions={3}, to_apply=region_49.96
  broadcast_in_dim.207 = f32[128,4,150,1]{3,2,1,0} reshape(reduce_max.15)
  sub.197 = f32[128,4,150,1]{3,2,1,0} broadcast(broadcast_in_dim.207), dimensions={0,1,2,3}
  sub.198 = f32[128,4,150]{2,1,0} reshape(sub.197)
  sub.199 = f32[128,4,150,150]{3,2,1,0} broadcast(sub.198), dimensions={0,1,2}
  sub.200 = f32[128,4,150,150]{3,2,1,0} subtract(jit__where_.15, sub.199)
  exp.22 = f32[128,4,150,150]{3,2,1,0} exponential(sub.200)
  constant.279 = f32[] constant(0)
  reduce_sum.244 = f32[128,4,150]{2,1,0} reduce(exp.22, constant.279), dimensions={3}, to_apply=region_50.97
  broadcast_in_dim.208 = f32[128,4,150,1]{3,2,1,0} reshape(reduce_sum.244)
  div.103 = f32[128,4,150,1]{3,2,1,0} broadcast(broadcast_in_dim.208), dimensions={0,1,2,3}
  div.104 = f32[128,4,150]{2,1,0} reshape(div.103)
  div.105 = f32[128,4,150,150]{3,2,1,0} broadcast(div.104), dimensions={0,1,2}
  div.106 = f32[128,4,150,150]{3,2,1,0} divide(exp.22, div.105)
  dot_general.78 = f32[128,4,16,150]{3,2,1,0} dot(dot_general.76, div.106), lhs_batch_dims={0,2}, lhs_contracting_dims={1}, rhs_batch_dims={0,1}, rhs_contracting_dims={3}, algorithm=dot_bf16_bf16_f32
  transpose.10 = f32[128,150,4,16]{1,3,2,0} transpose(dot_general.78), dimensions={0,3,1,2}
  convert_element_type.88 = bf16[128,150,4,16]{1,3,2,0} convert(transpose.10)
  reshape.59 = bf16[128,150,64]{2,1,0} reshape(convert_element_type.88)
  constant.277 = bf16[] constant(1)
  broadcast.53 = bf16[128,150,64]{2,1,0} broadcast(constant.277), dimensions={}
  Arg_6.8 = bf16[64,64]{1,0} parameter(6)
  dot_general.79 = bf16[128,150,64]{2,1,0} dot(dynamic_slice.40, Arg_6.8), lhs_contracting_dims={2}, rhs_contracting_dims={1}
  neg.22 = bf16[128,150,64]{2,1,0} negate(dot_general.79)
  exp.23 = bf16[128,150,64]{2,1,0} exponential(neg.22)
  add.314 = bf16[128,150,64]{2,1,0} add(exp.23, broadcast.53)
  div.107 = bf16[128,150,64]{2,1,0} divide(broadcast.53, add.314)
  mul.430 = bf16[128,150,64]{2,1,0} multiply(reshape.59, div.107)
  Arg_7.8 = bf16[64,64]{1,0} parameter(7)
  dot_general.80 = bf16[128,150,64]{2,1,0} dot(mul.430, Arg_7.8), lhs_contracting_dims={2}, rhs_contracting_dims={0}
  lt.59 = pred[] compare(Arg_9.6, constant.283), direction=LT
  add.315 = s32[] add(Arg_9.6, constant.282)
  select_n.63 = s32[] select(lt.59, add.315, Arg_9.6)
  ROOT dynamic_update_slice.1 = bf16[150,150,64]{2,1,0} dynamic-update-slice(Arg_8.6, dot_general.80, select_n.63, constant.283, constant.283)
}

region_48.99 {
  arg_tuple.12 = (s32[], bf16[150,150,64]{2,1,0}, bf16[150,150,64]{2,1,0}, pred[150,1,1,150]{3,2,1,0}, bf16[4,16,64]{2,1,0}, /*index=5*/bf16[4,16,64]{2,1,0}, bf16[64,4,16]{2,1,0}, bf16[4,150,150]{2,1,0}, bf16[64,64]{1,0}, bf16[64,64]{1,0}) parameter(0)
  get-tuple-element.470 = s32[] get-tuple-element(arg_tuple.12), index=0
  constant.284 = s32[] constant(1)
  add.317 = s32[] add(get-tuple-element.470, constant.284)
  get-tuple-element.472 = bf16[150,150,64]{2,1,0} get-tuple-element(arg_tuple.12), index=2
  get-tuple-element.473 = pred[150,1,1,150]{3,2,1,0} get-tuple-element(arg_tuple.12), index=3
  get-tuple-element.474 = bf16[4,16,64]{2,1,0} get-tuple-element(arg_tuple.12), index=4
  get-tuple-element.475 = bf16[4,16,64]{2,1,0} get-tuple-element(arg_tuple.12), index=5
  get-tuple-element.476 = bf16[64,4,16]{2,1,0} get-tuple-element(arg_tuple.12), index=6
  get-tuple-element.477 = bf16[4,150,150]{2,1,0} get-tuple-element(arg_tuple.12), index=7
  get-tuple-element.478 = bf16[64,64]{1,0} get-tuple-element(arg_tuple.12), index=8
  get-tuple-element.479 = bf16[64,64]{1,0} get-tuple-element(arg_tuple.12), index=9
  get-tuple-element.471 = bf16[150,150,64]{2,1,0} get-tuple-element(arg_tuple.12), index=1
  constant.285 = s32[1]{0} constant({0})
  jit_dynamic_index_in_dim_.90 = s32[] call(constant.285, get-tuple-element.470), to_apply=dynamic_index_in_dim_38.94
  closed_call.21 = bf16[150,150,64]{2,1,0} call(get-tuple-element.472, get-tuple-element.473, get-tuple-element.474, get-tuple-element.475, get-tuple-element.476, get-tuple-element.477, get-tuple-element.478, get-tuple-element.479, get-tuple-element.471, jit_dynamic_index_in_dim_.90), to_apply=closed_call_39.98
  ROOT tuple.9 = (s32[], bf16[150,150,64]{2,1,0}, bf16[150,150,64]{2,1,0}, pred[150,1,1,150]{3,2,1,0}, bf16[4,16,64]{2,1,0}, /*index=5*/bf16[4,16,64]{2,1,0}, bf16[64,4,16]{2,1,0}, bf16[4,150,150]{2,1,0}, bf16[64,64]{1,0}, bf16[64,64]{1,0}) tuple(add.317, closed_call.21, get-tuple-element.472, get-tuple-element.473, get-tuple-element.474, get-tuple-element.475, get-tuple-element.476, get-tuple-element.477, get-tuple-element.478, get-tuple-element.479)
}

region_51.100 {
  arg_tuple.14 = (s32[], bf16[150,150,64]{2,1,0}, bf16[150,150,64]{2,1,0}, pred[150,1,1,150]{3,2,1,0}, bf16[4,16,64]{2,1,0}, /*index=5*/bf16[4,16,64]{2,1,0}, bf16[64,4,16]{2,1,0}, bf16[4,150,150]{2,1,0}, bf16[64,64]{1,0}, bf16[64,64]{1,0}) parameter(0)
  get-tuple-element.491 = bf16[150,150,64]{2,1,0} get-tuple-element(arg_tuple.14), index=1
  get-tuple-element.492 = bf16[150,150,64]{2,1,0} get-tuple-element(arg_tuple.14), index=2
  get-tuple-element.493 = pred[150,1,1,150]{3,2,1,0} get-tuple-element(arg_tuple.14), index=3
  get-tuple-element.494 = bf16[4,16,64]{2,1,0} get-tuple-element(arg_tuple.14), index=4
  get-tuple-element.495 = bf16[4,16,64]{2,1,0} get-tuple-element(arg_tuple.14), index=5
  get-tuple-element.496 = bf16[64,4,16]{2,1,0} get-tuple-element(arg_tuple.14), index=6
  get-tuple-element.497 = bf16[4,150,150]{2,1,0} get-tuple-element(arg_tuple.14), index=7
  get-tuple-element.498 = bf16[64,64]{1,0} get-tuple-element(arg_tuple.14), index=8
  get-tuple-element.499 = bf16[64,64]{1,0} get-tuple-element(arg_tuple.14), index=9
  get-tuple-element.490 = s32[] get-tuple-element(arg_tuple.14), index=0
  constant.287 = s32[] constant(1)
  ROOT lt.61 = pred[] compare(get-tuple-element.490, constant.287), direction=LT
}

_where_41.101 {
  Arg_0.104 = pred[22,1,1,150]{3,2,1,0} parameter(0)
  broadcast_in_dim.214 = pred[22,1,1,150]{3,2,1,0} broadcast(Arg_0.104), dimensions={0,1,2,3}
  broadcast_in_dim.215 = pred[22,150]{1,0} reshape(broadcast_in_dim.214)
  broadcast_in_dim.216 = pred[22,4,150,150]{3,2,1,0} broadcast(broadcast_in_dim.215), dimensions={0,3}
  Arg_1.80 = f32[22,4,150,150]{3,2,1,0} parameter(1)
  Arg_2.26 = f32[] parameter(2)
  broadcast_in_dim.217 = f32[22,4,150,150]{3,2,1,0} broadcast(Arg_2.26), dimensions={}
  ROOT select_n.65 = f32[22,4,150,150]{3,2,1,0} select(broadcast_in_dim.216, Arg_1.80, broadcast_in_dim.217)
}

region_52.102 {
  reduce_max.19 = f32[] parameter(0)
  reduce_max.20 = f32[] parameter(1)
  ROOT reduce_max.21 = f32[] maximum(reduce_max.19, reduce_max.20)
}

region_53.103 {
  reduce_sum.248 = f32[] parameter(0)
  reduce_sum.249 = f32[] parameter(1)
  ROOT reduce_sum.250 = f32[] add(reduce_sum.248, reduce_sum.249)
}

region_54.104 {
  reduce_sum.255 = f32[] parameter(0)
  reduce_sum.256 = f32[] parameter(1)
  ROOT reduce_sum.257 = f32[] add(reduce_sum.255, reduce_sum.256)
}

region_55.105 {
  reduce_sum.262 = f32[] parameter(0)
  reduce_sum.263 = f32[] parameter(1)
  ROOT reduce_sum.264 = f32[] add(reduce_sum.262, reduce_sum.263)
}

region_57.106 {
  reduce_max.26 = f32[] parameter(0)
  reduce_max.27 = f32[] parameter(1)
  ROOT reduce_max.28 = f32[] maximum(reduce_max.26, reduce_max.27)
}

region_58.107 {
  reduce_sum.269 = f32[] parameter(0)
  reduce_sum.270 = f32[] parameter(1)
  ROOT reduce_sum.271 = f32[] add(reduce_sum.269, reduce_sum.270)
}

closed_call_42.108 {
  Arg_8.8 = bf16[150,150,64]{2,1,0} parameter(8)
  Arg_0.106 = bf16[150,150,64]{2,1,0} parameter(0)
  Arg_9.8 = s32[] parameter(9)
  constant.303 = s32[] constant(0)
  lt.65 = pred[] compare(Arg_9.8, constant.303), direction=LT
  constant.302 = s32[] constant(150)
  add.337 = s32[] add(Arg_9.8, constant.302)
  select_n.69 = s32[] select(lt.65, add.337, Arg_9.8)
  dynamic_slice.46 = bf16[128,150,64]{2,1,0} dynamic-slice(Arg_0.106, select_n.69, constant.303, constant.303), dynamic_slice_sizes={128,150,64}
  Arg_4.10 = bf16[64,4,16]{2,1,0} parameter(4)
  dot_general.98 = bf16[128,150,4,16]{3,2,1,0} dot(dynamic_slice.46, Arg_4.10), lhs_contracting_dims={2}, rhs_contracting_dims={0}
  Arg_1.82 = pred[150,1,1,150]{3,2,1,0} parameter(1)
  lt.66 = pred[] compare(Arg_9.8, constant.303), direction=LT
  add.338 = s32[] add(Arg_9.8, constant.302)
  select_n.70 = s32[] select(lt.66, add.338, Arg_9.8)
  dynamic_slice.47 = pred[128,1,1,150]{3,2,1,0} dynamic-slice(Arg_1.82, select_n.70, constant.303, constant.303, constant.303), dynamic_slice_sizes={128,1,1,150}
  Arg_2.28 = bf16[4,16,64]{2,1,0} parameter(2)
  dot_general.96 = bf16[128,150,4,16]{3,2,1,0} dot(dynamic_slice.46, Arg_2.28), lhs_contracting_dims={2}, rhs_contracting_dims={2}
  Arg_3.10 = bf16[4,16,64]{2,1,0} parameter(3)
  dot_general.97 = bf16[128,150,4,16]{3,2,1,0} dot(dynamic_slice.46, Arg_3.10), lhs_contracting_dims={2}, rhs_contracting_dims={2}
  dot_general.99 = f32[128,4,150,150]{3,2,1,0} dot(dot_general.96, dot_general.97), lhs_batch_dims={0,2}, lhs_contracting_dims={3}, rhs_batch_dims={0,2}, rhs_contracting_dims={3}, algorithm=dot_bf16_bf16_f32
  constant.298 = f32[] constant(0.25)
  mul.444 = f32[128,4,150,150]{3,2,1,0} broadcast(constant.298), dimensions={}
  mul.445 = f32[128,4,150,150]{3,2,1,0} multiply(dot_general.99, mul.444)
  Arg_5.10 = bf16[4,150,150]{2,1,0} parameter(5)
  broadcast_in_dim.226 = bf16[1,4,150,150]{3,2,1,0} reshape(Arg_5.10)
  convert_element_type.96 = f32[1,4,150,150]{3,2,1,0} convert(broadcast_in_dim.226)
  add.339 = f32[1,4,150,150]{3,2,1,0} broadcast(convert_element_type.96), dimensions={0,1,2,3}
  add.340 = f32[4,150,150]{2,1,0} reshape(add.339)
  add.341 = f32[128,4,150,150]{3,2,1,0} broadcast(add.340), dimensions={1,2,3}
  add.342 = f32[128,4,150,150]{3,2,1,0} add(mul.445, add.341)
  constant.301 = f32[] constant(-3.40282347e+38)
  jit__where_.18 = f32[128,4,150,150]{3,2,1,0} call(dynamic_slice.47, add.342, constant.301), to_apply=_where_40.95
  constant.300 = f32[] constant(-inf)
  reduce_max.30 = f32[128,4,150]{2,1,0} reduce(jit__where_.18, constant.300), dimensions={3}, to_apply=region_57.106
  broadcast_in_dim.227 = f32[128,4,150,1]{3,2,1,0} reshape(reduce_max.30)
  sub.214 = f32[128,4,150,1]{3,2,1,0} broadcast(broadcast_in_dim.227), dimensions={0,1,2,3}
  sub.215 = f32[128,4,150]{2,1,0} reshape(sub.214)
  sub.216 = f32[128,4,150,150]{3,2,1,0} broadcast(sub.215), dimensions={0,1,2}
  sub.217 = f32[128,4,150,150]{3,2,1,0} subtract(jit__where_.18, sub.216)
  exp.28 = f32[128,4,150,150]{3,2,1,0} exponential(sub.217)
  constant.299 = f32[] constant(0)
  reduce_sum.273 = f32[128,4,150]{2,1,0} reduce(exp.28, constant.299), dimensions={3}, to_apply=region_58.107
  broadcast_in_dim.228 = f32[128,4,150,1]{3,2,1,0} reshape(reduce_sum.273)
  div.120 = f32[128,4,150,1]{3,2,1,0} broadcast(broadcast_in_dim.228), dimensions={0,1,2,3}
  div.121 = f32[128,4,150]{2,1,0} reshape(div.120)
  div.122 = f32[128,4,150,150]{3,2,1,0} broadcast(div.121), dimensions={0,1,2}
  div.123 = f32[128,4,150,150]{3,2,1,0} divide(exp.28, div.122)
  dot_general.100 = f32[128,4,16,150]{3,2,1,0} dot(dot_general.98, div.123), lhs_batch_dims={0,2}, lhs_contracting_dims={1}, rhs_batch_dims={0,1}, rhs_contracting_dims={3}, algorithm=dot_bf16_bf16_f32
  transpose.16 = f32[128,150,4,16]{1,3,2,0} transpose(dot_general.100), dimensions={0,3,1,2}
  convert_element_type.97 = bf16[128,150,4,16]{1,3,2,0} convert(transpose.16)
  reshape.64 = bf16[128,150,64]{2,1,0} reshape(convert_element_type.97)
  constant.297 = bf16[] constant(1)
  broadcast.55 = bf16[128,150,64]{2,1,0} broadcast(constant.297), dimensions={}
  Arg_6.10 = bf16[64,64]{1,0} parameter(6)
  dot_general.101 = bf16[128,150,64]{2,1,0} dot(dynamic_slice.46, Arg_6.10), lhs_contracting_dims={2}, rhs_contracting_dims={1}
  neg.25 = bf16[128,150,64]{2,1,0} negate(dot_general.101)
  exp.29 = bf16[128,150,64]{2,1,0} exponential(neg.25)
  add.343 = bf16[128,150,64]{2,1,0} add(exp.29, broadcast.55)
  div.124 = bf16[128,150,64]{2,1,0} divide(broadcast.55, add.343)
  mul.446 = bf16[128,150,64]{2,1,0} multiply(reshape.64, div.124)
  Arg_7.10 = bf16[64,64]{1,0} parameter(7)
  dot_general.102 = bf16[128,150,64]{2,1,0} dot(mul.446, Arg_7.10), lhs_contracting_dims={2}, rhs_contracting_dims={0}
  lt.67 = pred[] compare(Arg_9.8, constant.303), direction=LT
  add.344 = s32[] add(Arg_9.8, constant.302)
  select_n.71 = s32[] select(lt.67, add.344, Arg_9.8)
  ROOT dynamic_update_slice.4 = bf16[150,150,64]{2,1,0} dynamic-update-slice(Arg_8.8, dot_general.102, select_n.71, constant.303, constant.303)
}

region_56.109 {
  arg_tuple.16 = (s32[], bf16[150,150,64]{2,1,0}, bf16[150,150,64]{2,1,0}, pred[150,1,1,150]{3,2,1,0}, bf16[4,16,64]{2,1,0}, /*index=5*/bf16[4,16,64]{2,1,0}, bf16[64,4,16]{2,1,0}, bf16[4,150,150]{2,1,0}, bf16[64,64]{1,0}, bf16[64,64]{1,0}) parameter(0)
  get-tuple-element.510 = s32[] get-tuple-element(arg_tuple.16), index=0
  constant.304 = s32[] constant(1)
  add.346 = s32[] add(get-tuple-element.510, constant.304)
  get-tuple-element.512 = bf16[150,150,64]{2,1,0} get-tuple-element(arg_tuple.16), index=2
  get-tuple-element.513 = pred[150,1,1,150]{3,2,1,0} get-tuple-element(arg_tuple.16), index=3
  get-tuple-element.514 = bf16[4,16,64]{2,1,0} get-tuple-element(arg_tuple.16), index=4
  get-tuple-element.515 = bf16[4,16,64]{2,1,0} get-tuple-element(arg_tuple.16), index=5
  get-tuple-element.516 = bf16[64,4,16]{2,1,0} get-tuple-element(arg_tuple.16), index=6
  get-tuple-element.517 = bf16[4,150,150]{2,1,0} get-tuple-element(arg_tuple.16), index=7
  get-tuple-element.518 = bf16[64,64]{1,0} get-tuple-element(arg_tuple.16), index=8
  get-tuple-element.519 = bf16[64,64]{1,0} get-tuple-element(arg_tuple.16), index=9
  get-tuple-element.511 = bf16[150,150,64]{2,1,0} get-tuple-element(arg_tuple.16), index=1
  constant.305 = s32[1]{0} constant({0})
  jit_dynamic_index_in_dim_.92 = s32[] call(constant.305, get-tuple-element.510), to_apply=dynamic_index_in_dim_38.94
  closed_call.23 = bf16[150,150,64]{2,1,0} call(get-tuple-element.512, get-tuple-element.513, get-tuple-element.514, get-tuple-element.515, get-tuple-element.516, get-tuple-element.517, get-tuple-element.518, get-tuple-element.519, get-tuple-element.511, jit_dynamic_index_in_dim_.92), to_apply=closed_call_42.108
  ROOT tuple.11 = (s32[], bf16[150,150,64]{2,1,0}, bf16[150,150,64]{2,1,0}, pred[150,1,1,150]{3,2,1,0}, bf16[4,16,64]{2,1,0}, /*index=5*/bf16[4,16,64]{2,1,0}, bf16[64,4,16]{2,1,0}, bf16[4,150,150]{2,1,0}, bf16[64,64]{1,0}, bf16[64,64]{1,0}) tuple(add.346, closed_call.23, get-tuple-element.512, get-tuple-element.513, get-tuple-element.514, get-tuple-element.515, get-tuple-element.516, get-tuple-element.517, get-tuple-element.518, get-tuple-element.519)
}

region_59.110 {
  arg_tuple.18 = (s32[], bf16[150,150,64]{2,1,0}, bf16[150,150,64]{2,1,0}, pred[150,1,1,150]{3,2,1,0}, bf16[4,16,64]{2,1,0}, /*index=5*/bf16[4,16,64]{2,1,0}, bf16[64,4,16]{2,1,0}, bf16[4,150,150]{2,1,0}, bf16[64,64]{1,0}, bf16[64,64]{1,0}) parameter(0)
  get-tuple-element.531 = bf16[150,150,64]{2,1,0} get-tuple-element(arg_tuple.18), index=1
  get-tuple-element.532 = bf16[150,150,64]{2,1,0} get-tuple-element(arg_tuple.18), index=2
  get-tuple-element.533 = pred[150,1,1,150]{3,2,1,0} get-tuple-element(arg_tuple.18), index=3
  get-tuple-element.534 = bf16[4,16,64]{2,1,0} get-tuple-element(arg_tuple.18), index=4
  get-tuple-element.535 = bf16[4,16,64]{2,1,0} get-tuple-element(arg_tuple.18), index=5
  get-tuple-element.536 = bf16[64,4,16]{2,1,0} get-tuple-element(arg_tuple.18), index=6
  get-tuple-element.537 = bf16[4,150,150]{2,1,0} get-tuple-element(arg_tuple.18), index=7
  get-tuple-element.538 = bf16[64,64]{1,0} get-tuple-element(arg_tuple.18), index=8
  get-tuple-element.539 = bf16[64,64]{1,0} get-tuple-element(arg_tuple.18), index=9
  get-tuple-element.530 = s32[] get-tuple-element(arg_tuple.18), index=0
  constant.307 = s32[] constant(1)
  ROOT lt.69 = pred[] compare(get-tuple-element.530, constant.307), direction=LT
}

region_60.111 {
  reduce_max.34 = f32[] parameter(0)
  reduce_max.35 = f32[] parameter(1)
  ROOT reduce_max.36 = f32[] maximum(reduce_max.34, reduce_max.35)
}

region_61.112 {
  reduce_sum.277 = f32[] parameter(0)
  reduce_sum.278 = f32[] parameter(1)
  ROOT reduce_sum.279 = f32[] add(reduce_sum.277, reduce_sum.278)
}

region_62.113 {
  reduce_sum.284 = f32[] parameter(0)
  reduce_sum.285 = f32[] parameter(1)
  ROOT reduce_sum.286 = f32[] add(reduce_sum.284, reduce_sum.285)
}

region_63.114 {
  reduce_sum.291 = f32[] parameter(0)
  reduce_sum.292 = f32[] parameter(1)
  ROOT reduce_sum.293 = f32[] add(reduce_sum.291, reduce_sum.292)
}

silu_43.115 {
  Arg_0.108 = f32[150,150,128]{2,1,0} parameter(0)
  constant.309 = f32[] constant(1)
  broadcast.57 = f32[150,150,128]{2,1,0} broadcast(constant.309), dimensions={}
  neg.28 = f32[150,150,128]{2,1,0} negate(Arg_0.108)
  exp.33 = f32[150,150,128]{2,1,0} exponential(neg.28)
  add.359 = f32[150,150,128]{2,1,0} add(exp.33, broadcast.57)
  div.133 = f32[150,150,128]{2,1,0} divide(broadcast.57, add.359)
  ROOT mul.458 = f32[150,150,128]{2,1,0} multiply(Arg_0.108, div.133)
}

closed_call_37.116 {
  constant.322 = s32[] constant(0)
  constant.312 = bf16[] constant(0)
  broadcast.60 = bf16[150,150,64]{2,1,0} broadcast(constant.312), dimensions={}
  Arg_3.11 = f32[64]{0} parameter(3)
  reshape.82 = f32[1,1,64]{2,1,0} reshape(Arg_3.11)
  mul.504 = f32[1,1,64]{2,1,0} broadcast(reshape.82), dimensions={0,1,2}
  mul.505 = f32[64]{0} reshape(mul.504)
  mul.506 = f32[150,150,64]{2,1,0} broadcast(mul.505), dimensions={2}
  Arg_1.83 = bf16[150,150,64]{2,1,0} parameter(1)
  Arg_31.5 = f32[64]{0} parameter(31)
  reshape.74 = f32[64,1,1]{2,1,0} reshape(Arg_31.5)
  mul.473 = f32[64,1,1]{2,1,0} broadcast(reshape.74), dimensions={0,1,2}
  mul.474 = f32[64]{0} reshape(mul.473)
  mul.475 = f32[64,150,150]{2,1,0} broadcast(mul.474), dimensions={0}
  constant.317 = f32[] constant(1)
  broadcast.65 = f32[150,150,128]{2,1,0} broadcast(constant.317), dimensions={}
  Arg_35.3 = f32[64]{0} parameter(35)
  reshape.70 = f32[1,1,64]{2,1,0} reshape(Arg_35.3)
  mul.460 = f32[1,1,64]{2,1,0} broadcast(reshape.70), dimensions={0,1,2}
  mul.461 = f32[64]{0} reshape(mul.460)
  mul.462 = f32[150,150,64]{2,1,0} broadcast(mul.461), dimensions={2}
  convert_element_type.104 = f32[150,150,64]{2,1,0} convert(Arg_1.83)
  square.27 = f32[150,150,64]{2,1,0} multiply(convert_element_type.104, convert_element_type.104)
  constant.324 = f32[] constant(0)
  reduce_sum.296 = f32[150,150]{1,0} reduce(square.27, constant.324), dimensions={2}, to_apply=region_39.85
  broadcast_in_dim.236 = f32[150,150,1]{2,1,0} reshape(reduce_sum.296)
  constant.319 = f32[] constant(64)
  broadcast.67 = f32[150,150,1]{2,1,0} broadcast(constant.319), dimensions={}
  div.135 = f32[150,150,1]{2,1,0} divide(broadcast_in_dim.236, broadcast.67)
  reduce_sum.295 = f32[150,150]{1,0} reduce(convert_element_type.104, constant.324), dimensions={2}, to_apply=region_38.84
  broadcast_in_dim.235 = f32[150,150,1]{2,1,0} reshape(reduce_sum.295)
  div.134 = f32[150,150,1]{2,1,0} divide(broadcast_in_dim.235, broadcast.67)
  square.28 = f32[150,150,1]{2,1,0} multiply(div.134, div.134)
  sub.227 = f32[150,150,1]{2,1,0} subtract(div.135, square.28)
  constant.318 = f32[] constant(1e-05)
  broadcast.66 = f32[150,150,1]{2,1,0} broadcast(constant.318), dimensions={}
  add.361 = f32[150,150,1]{2,1,0} add(sub.227, broadcast.66)
  rsqrt.22 = f32[150,150,1]{2,1,0} rsqrt(add.361)
  mul.463 = f32[150,150,1]{2,1,0} broadcast(rsqrt.22), dimensions={0,1,2}
  mul.464 = f32[150,150]{1,0} reshape(mul.463)
  mul.465 = f32[150,150,64]{2,1,0} broadcast(mul.464), dimensions={0,1}
  mul.466 = f32[150,150,64]{2,1,0} multiply(mul.462, mul.465)
  sub.228 = f32[150,150,1]{2,1,0} broadcast(div.134), dimensions={0,1,2}
  sub.229 = f32[150,150]{1,0} reshape(sub.228)
  sub.230 = f32[150,150,64]{2,1,0} broadcast(sub.229), dimensions={0,1}
  sub.231 = f32[150,150,64]{2,1,0} subtract(convert_element_type.104, sub.230)
  mul.467 = f32[150,150,64]{2,1,0} multiply(mul.466, sub.231)
  Arg_34.3 = f32[64]{0} parameter(34)
  reshape.71 = f32[1,1,64]{2,1,0} reshape(Arg_34.3)
  add.362 = f32[1,1,64]{2,1,0} broadcast(reshape.71), dimensions={0,1,2}
  add.363 = f32[64]{0} reshape(add.362)
  add.364 = f32[150,150,64]{2,1,0} broadcast(add.363), dimensions={2}
  add.365 = f32[150,150,64]{2,1,0} add(mul.467, add.364)
  convert_element_type.105 = bf16[150,150,64]{2,1,0} convert(add.365)
  Arg_32.3 = bf16[64,128]{1,0} parameter(32)
  stack.12 = bf16[64,1,128]{2,1,0} reshape(Arg_32.3)
  Arg_37.3 = bf16[64,128]{1,0} parameter(37)
  stack.13 = bf16[64,1,128]{2,1,0} reshape(Arg_37.3)
  stack.14 = bf16[64,2,128]{2,1,0} concatenate(stack.12, stack.13), dimensions={1}
  dot_general.112 = bf16[150,150,2,128]{3,2,1,0} dot(convert_element_type.105, stack.14), lhs_contracting_dims={2}, rhs_contracting_dims={0}
  reshape.72 = bf16[150,150,256]{2,1,0} reshape(dot_general.112)
  convert_element_type.106 = f32[150,150,256]{2,1,0} convert(reshape.72)
  split.17 = f32[150,150,128]{2,1,0} slice(convert_element_type.106), slice={[0:150], [0:150], [0:128]}
  neg.29 = f32[150,150,128]{2,1,0} negate(split.17)
  exp.34 = f32[150,150,128]{2,1,0} exponential(neg.29)
  add.366 = f32[150,150,128]{2,1,0} add(exp.34, broadcast.65)
  div.136 = f32[150,150,128]{2,1,0} divide(broadcast.65, add.366)
  split.18 = f32[150,150,128]{2,1,0} slice(convert_element_type.106), slice={[0:150], [0:150], [128:256]}
  mul.468 = f32[150,150,128]{2,1,0} multiply(div.136, split.18)
  convert_element_type.107 = bf16[150,150,128]{2,1,0} convert(mul.468)
  transpose.19 = bf16[128,150,150]{0,2,1} transpose(convert_element_type.107), dimensions={2,0,1}
  Arg_0.109 = bf16[150,150]{1,0} parameter(0)
  broadcast_in_dim.234 = bf16[1,150,150]{2,1,0} reshape(Arg_0.109)
  mul.469 = bf16[1,150,150]{2,1,0} broadcast(broadcast_in_dim.234), dimensions={0,1,2}
  mul.470 = bf16[150,150]{1,0} reshape(mul.469)
  mul.471 = bf16[128,150,150]{2,1,0} broadcast(mul.470), dimensions={1,2}
  mul.472 = bf16[128,150,150]{0,2,1} multiply(transpose.19, mul.471)
  reshape.73 = bf16[64,2,150,150]{3,2,1,0} reshape(mul.472)
  split.19 = bf16[64,1,150,150]{3,2,1,0} slice(reshape.73), slice={[0:64], [0:1], [0:150], [0:150]}
  squeeze.96 = bf16[64,150,150]{2,1,0} reshape(split.19)
  split.20 = bf16[64,1,150,150]{3,2,1,0} slice(reshape.73), slice={[0:64], [1:2], [0:150], [0:150]}
  squeeze.97 = bf16[64,150,150]{2,1,0} reshape(split.20)
  dot_general.113 = bf16[64,150,150]{2,1,0} dot(squeeze.96, squeeze.97), lhs_batch_dims={0}, lhs_contracting_dims={2}, rhs_batch_dims={0}, rhs_contracting_dims={2}
  convert_element_type.108 = f32[64,150,150]{2,1,0} convert(dot_general.113)
  square.29 = f32[64,150,150]{2,1,0} multiply(convert_element_type.108, convert_element_type.108)
  reduce_sum.298 = f32[150,150]{1,0} reduce(square.29, constant.324), dimensions={0}, to_apply=region_41.87
  broadcast_in_dim.238 = f32[1,150,150]{2,1,0} reshape(reduce_sum.298)
  constant.316 = f32[] constant(64)
  broadcast.64 = f32[1,150,150]{2,1,0} broadcast(constant.316), dimensions={}
  div.138 = f32[1,150,150]{2,1,0} divide(broadcast_in_dim.238, broadcast.64)
  reduce_sum.297 = f32[150,150]{1,0} reduce(convert_element_type.108, constant.324), dimensions={0}, to_apply=region_40.86
  broadcast_in_dim.237 = f32[1,150,150]{2,1,0} reshape(reduce_sum.297)
  div.137 = f32[1,150,150]{2,1,0} divide(broadcast_in_dim.237, broadcast.64)
  square.30 = f32[1,150,150]{2,1,0} multiply(div.137, div.137)
  sub.232 = f32[1,150,150]{2,1,0} subtract(div.138, square.30)
  constant.315 = f32[] constant(1e-05)
  broadcast.63 = f32[1,150,150]{2,1,0} broadcast(constant.315), dimensions={}
  add.367 = f32[1,150,150]{2,1,0} add(sub.232, broadcast.63)
  rsqrt.23 = f32[1,150,150]{2,1,0} rsqrt(add.367)
  mul.476 = f32[1,150,150]{2,1,0} broadcast(rsqrt.23), dimensions={0,1,2}
  mul.477 = f32[150,150]{1,0} reshape(mul.476)
  mul.478 = f32[64,150,150]{2,1,0} broadcast(mul.477), dimensions={1,2}
  mul.479 = f32[64,150,150]{2,1,0} multiply(mul.475, mul.478)
  sub.233 = f32[1,150,150]{2,1,0} broadcast(div.137), dimensions={0,1,2}
  sub.234 = f32[150,150]{1,0} reshape(sub.233)
  sub.235 = f32[64,150,150]{2,1,0} broadcast(sub.234), dimensions={1,2}
  sub.236 = f32[64,150,150]{2,1,0} subtract(convert_element_type.108, sub.235)
  mul.480 = f32[64,150,150]{2,1,0} multiply(mul.479, sub.236)
  Arg_30.5 = f32[64]{0} parameter(30)
  reshape.75 = f32[64,1,1]{2,1,0} reshape(Arg_30.5)
  add.368 = f32[64,1,1]{2,1,0} broadcast(reshape.75), dimensions={0,1,2}
  add.369 = f32[64]{0} reshape(add.368)
  add.370 = f32[64,150,150]{2,1,0} broadcast(add.369), dimensions={0}
  add.371 = f32[64,150,150]{2,1,0} add(mul.480, add.370)
  convert_element_type.109 = bf16[64,150,150]{2,1,0} convert(add.371)
  transpose.20 = bf16[150,150,64]{1,0,2} transpose(convert_element_type.109), dimensions={1,2,0}
  Arg_36.3 = bf16[64,64]{1,0} parameter(36)
  dot_general.114 = bf16[150,150,64]{2,1,0} dot(transpose.20, Arg_36.3), lhs_contracting_dims={2}, rhs_contracting_dims={0}
  constant.314 = bf16[] constant(1)
  broadcast.62 = bf16[150,150,64]{2,1,0} broadcast(constant.314), dimensions={}
  Arg_33.3 = bf16[64,64]{1,0} parameter(33)
  dot_general.115 = bf16[150,150,64]{2,1,0} dot(convert_element_type.105, Arg_33.3), lhs_contracting_dims={2}, rhs_contracting_dims={0}
  neg.30 = bf16[150,150,64]{2,1,0} negate(dot_general.115)
  exp.35 = bf16[150,150,64]{2,1,0} exponential(neg.30)
  add.372 = bf16[150,150,64]{2,1,0} add(exp.35, broadcast.62)
  div.139 = bf16[150,150,64]{2,1,0} divide(broadcast.62, add.372)
  mul.481 = bf16[150,150,64]{2,1,0} multiply(dot_general.114, div.139)
  add.373 = bf16[150,150,64]{2,1,0} add(Arg_1.83, mul.481)
  Arg_23.5 = f32[64]{0} parameter(23)
  reshape.80 = f32[64,1,1]{2,1,0} reshape(Arg_23.5)
  mul.495 = f32[64,1,1]{2,1,0} broadcast(reshape.80), dimensions={0,1,2}
  mul.496 = f32[64]{0} reshape(mul.495)
  mul.497 = f32[64,150,150]{2,1,0} broadcast(mul.496), dimensions={0}
  Arg_27.5 = f32[64]{0} parameter(27)
  reshape.76 = f32[1,1,64]{2,1,0} reshape(Arg_27.5)
  mul.482 = f32[1,1,64]{2,1,0} broadcast(reshape.76), dimensions={0,1,2}
  mul.483 = f32[64]{0} reshape(mul.482)
  mul.484 = f32[150,150,64]{2,1,0} broadcast(mul.483), dimensions={2}
  convert_element_type.110 = f32[150,150,64]{2,1,0} convert(add.373)
  square.31 = f32[150,150,64]{2,1,0} multiply(convert_element_type.110, convert_element_type.110)
  reduce_sum.300 = f32[150,150]{1,0} reduce(square.31, constant.324), dimensions={2}, to_apply=region_43.89
  broadcast_in_dim.241 = f32[150,150,1]{2,1,0} reshape(reduce_sum.300)
  div.141 = f32[150,150,1]{2,1,0} divide(broadcast_in_dim.241, broadcast.67)
  reduce_sum.299 = f32[150,150]{1,0} reduce(convert_element_type.110, constant.324), dimensions={2}, to_apply=region_42.88
  broadcast_in_dim.240 = f32[150,150,1]{2,1,0} reshape(reduce_sum.299)
  div.140 = f32[150,150,1]{2,1,0} divide(broadcast_in_dim.240, broadcast.67)
  square.32 = f32[150,150,1]{2,1,0} multiply(div.140, div.140)
  sub.237 = f32[150,150,1]{2,1,0} subtract(div.141, square.32)
  add.374 = f32[150,150,1]{2,1,0} add(sub.237, broadcast.66)
  rsqrt.24 = f32[150,150,1]{2,1,0} rsqrt(add.374)
  mul.485 = f32[150,150,1]{2,1,0} broadcast(rsqrt.24), dimensions={0,1,2}
  mul.486 = f32[150,150]{1,0} reshape(mul.485)
  mul.487 = f32[150,150,64]{2,1,0} broadcast(mul.486), dimensions={0,1}
  mul.488 = f32[150,150,64]{2,1,0} multiply(mul.484, mul.487)
  sub.238 = f32[150,150,1]{2,1,0} broadcast(div.140), dimensions={0,1,2}
  sub.239 = f32[150,150]{1,0} reshape(sub.238)
  sub.240 = f32[150,150,64]{2,1,0} broadcast(sub.239), dimensions={0,1}
  sub.241 = f32[150,150,64]{2,1,0} subtract(convert_element_type.110, sub.240)
  mul.489 = f32[150,150,64]{2,1,0} multiply(mul.488, sub.241)
  Arg_26.5 = f32[64]{0} parameter(26)
  reshape.77 = f32[1,1,64]{2,1,0} reshape(Arg_26.5)
  add.375 = f32[1,1,64]{2,1,0} broadcast(reshape.77), dimensions={0,1,2}
  add.376 = f32[64]{0} reshape(add.375)
  add.377 = f32[150,150,64]{2,1,0} broadcast(add.376), dimensions={2}
  add.378 = f32[150,150,64]{2,1,0} add(mul.489, add.377)
  convert_element_type.111 = bf16[150,150,64]{2,1,0} convert(add.378)
  Arg_24.5 = bf16[64,128]{1,0} parameter(24)
  stack.15 = bf16[64,1,128]{2,1,0} reshape(Arg_24.5)
  Arg_29.5 = bf16[64,128]{1,0} parameter(29)
  stack.16 = bf16[64,1,128]{2,1,0} reshape(Arg_29.5)
  stack.17 = bf16[64,2,128]{2,1,0} concatenate(stack.15, stack.16), dimensions={1}
  dot_general.116 = bf16[150,150,2,128]{3,2,1,0} dot(convert_element_type.111, stack.17), lhs_contracting_dims={2}, rhs_contracting_dims={0}
  reshape.78 = bf16[150,150,256]{2,1,0} reshape(dot_general.116)
  convert_element_type.112 = f32[150,150,256]{2,1,0} convert(reshape.78)
  split.21 = f32[150,150,128]{2,1,0} slice(convert_element_type.112), slice={[0:150], [0:150], [0:128]}
  neg.31 = f32[150,150,128]{2,1,0} negate(split.21)
  exp.36 = f32[150,150,128]{2,1,0} exponential(neg.31)
  add.379 = f32[150,150,128]{2,1,0} add(exp.36, broadcast.65)
  div.142 = f32[150,150,128]{2,1,0} divide(broadcast.65, add.379)
  split.22 = f32[150,150,128]{2,1,0} slice(convert_element_type.112), slice={[0:150], [0:150], [128:256]}
  mul.490 = f32[150,150,128]{2,1,0} multiply(div.142, split.22)
  convert_element_type.113 = bf16[150,150,128]{2,1,0} convert(mul.490)
  transpose.21 = bf16[128,150,150]{0,2,1} transpose(convert_element_type.113), dimensions={2,0,1}
  broadcast_in_dim.239 = bf16[1,150,150]{2,1,0} reshape(Arg_0.109)
  mul.491 = bf16[1,150,150]{2,1,0} broadcast(broadcast_in_dim.239), dimensions={0,1,2}
  mul.492 = bf16[150,150]{1,0} reshape(mul.491)
  mul.493 = bf16[128,150,150]{2,1,0} broadcast(mul.492), dimensions={1,2}
  mul.494 = bf16[128,150,150]{0,2,1} multiply(transpose.21, mul.493)
  reshape.79 = bf16[64,2,150,150]{3,2,1,0} reshape(mul.494)
  split.24 = bf16[64,1,150,150]{3,2,1,0} slice(reshape.79), slice={[0:64], [1:2], [0:150], [0:150]}
  squeeze.99 = bf16[64,150,150]{2,1,0} reshape(split.24)
  split.23 = bf16[64,1,150,150]{3,2,1,0} slice(reshape.79), slice={[0:64], [0:1], [0:150], [0:150]}
  squeeze.98 = bf16[64,150,150]{2,1,0} reshape(split.23)
  dot_general.117 = bf16[64,150,150]{2,1,0} dot(squeeze.99, squeeze.98), lhs_batch_dims={0}, lhs_contracting_dims={1}, rhs_batch_dims={0}, rhs_contracting_dims={1}
  convert_element_type.114 = f32[64,150,150]{2,1,0} convert(dot_general.117)
  square.33 = f32[64,150,150]{2,1,0} multiply(convert_element_type.114, convert_element_type.114)
  reduce_sum.302 = f32[150,150]{1,0} reduce(square.33, constant.324), dimensions={0}, to_apply=region_45.91
  broadcast_in_dim.243 = f32[1,150,150]{2,1,0} reshape(reduce_sum.302)
  div.144 = f32[1,150,150]{2,1,0} divide(broadcast_in_dim.243, broadcast.64)
  reduce_sum.301 = f32[150,150]{1,0} reduce(convert_element_type.114, constant.324), dimensions={0}, to_apply=region_44.90
  broadcast_in_dim.242 = f32[1,150,150]{2,1,0} reshape(reduce_sum.301)
  div.143 = f32[1,150,150]{2,1,0} divide(broadcast_in_dim.242, broadcast.64)
  square.34 = f32[1,150,150]{2,1,0} multiply(div.143, div.143)
  sub.242 = f32[1,150,150]{2,1,0} subtract(div.144, square.34)
  add.380 = f32[1,150,150]{2,1,0} add(sub.242, broadcast.63)
  rsqrt.25 = f32[1,150,150]{2,1,0} rsqrt(add.380)
  mul.498 = f32[1,150,150]{2,1,0} broadcast(rsqrt.25), dimensions={0,1,2}
  mul.499 = f32[150,150]{1,0} reshape(mul.498)
  mul.500 = f32[64,150,150]{2,1,0} broadcast(mul.499), dimensions={1,2}
  mul.501 = f32[64,150,150]{2,1,0} multiply(mul.497, mul.500)
  sub.243 = f32[1,150,150]{2,1,0} broadcast(div.143), dimensions={0,1,2}
  sub.244 = f32[150,150]{1,0} reshape(sub.243)
  sub.245 = f32[64,150,150]{2,1,0} broadcast(sub.244), dimensions={1,2}
  sub.246 = f32[64,150,150]{2,1,0} subtract(convert_element_type.114, sub.245)
  mul.502 = f32[64,150,150]{2,1,0} multiply(mul.501, sub.246)
  Arg_22.5 = f32[64]{0} parameter(22)
  reshape.81 = f32[64,1,1]{2,1,0} reshape(Arg_22.5)
  add.381 = f32[64,1,1]{2,1,0} broadcast(reshape.81), dimensions={0,1,2}
  add.382 = f32[64]{0} reshape(add.381)
  add.383 = f32[64,150,150]{2,1,0} broadcast(add.382), dimensions={0}
  add.384 = f32[64,150,150]{2,1,0} add(mul.502, add.383)
  convert_element_type.115 = bf16[64,150,150]{2,1,0} convert(add.384)
  transpose.22 = bf16[150,150,64]{1,0,2} transpose(convert_element_type.115), dimensions={1,2,0}
  Arg_28.5 = bf16[64,64]{1,0} parameter(28)
  dot_general.118 = bf16[150,150,64]{2,1,0} dot(transpose.22, Arg_28.5), lhs_contracting_dims={2}, rhs_contracting_dims={0}
  Arg_25.5 = bf16[64,64]{1,0} parameter(25)
  dot_general.119 = bf16[150,150,64]{2,1,0} dot(convert_element_type.111, Arg_25.5), lhs_contracting_dims={2}, rhs_contracting_dims={0}
  neg.32 = bf16[150,150,64]{2,1,0} negate(dot_general.119)
  exp.37 = bf16[150,150,64]{2,1,0} exponential(neg.32)
  add.385 = bf16[150,150,64]{2,1,0} add(exp.37, broadcast.62)
  div.145 = bf16[150,150,64]{2,1,0} divide(broadcast.62, add.385)
  mul.503 = bf16[150,150,64]{2,1,0} multiply(dot_general.118, div.145)
  add.386 = bf16[150,150,64]{2,1,0} add(add.373, mul.503)
  convert_element_type.116 = f32[150,150,64]{2,1,0} convert(add.386)
  square.35 = f32[150,150,64]{2,1,0} multiply(convert_element_type.116, convert_element_type.116)
  reduce_sum.304 = f32[150,150]{1,0} reduce(square.35, constant.324), dimensions={2}, to_apply=region_47.93
  broadcast_in_dim.245 = f32[150,150,1]{2,1,0} reshape(reduce_sum.304)
  div.147 = f32[150,150,1]{2,1,0} divide(broadcast_in_dim.245, broadcast.67)
  reduce_sum.303 = f32[150,150]{1,0} reduce(convert_element_type.116, constant.324), dimensions={2}, to_apply=region_46.92
  broadcast_in_dim.244 = f32[150,150,1]{2,1,0} reshape(reduce_sum.303)
  div.146 = f32[150,150,1]{2,1,0} divide(broadcast_in_dim.244, broadcast.67)
  square.36 = f32[150,150,1]{2,1,0} multiply(div.146, div.146)
  sub.247 = f32[150,150,1]{2,1,0} subtract(div.147, square.36)
  add.387 = f32[150,150,1]{2,1,0} add(sub.247, broadcast.66)
  rsqrt.26 = f32[150,150,1]{2,1,0} rsqrt(add.387)
  mul.507 = f32[150,150,1]{2,1,0} broadcast(rsqrt.26), dimensions={0,1,2}
  mul.508 = f32[150,150]{1,0} reshape(mul.507)
  mul.509 = f32[150,150,64]{2,1,0} broadcast(mul.508), dimensions={0,1}
  mul.510 = f32[150,150,64]{2,1,0} multiply(mul.506, mul.509)
  sub.248 = f32[150,150,1]{2,1,0} broadcast(div.146), dimensions={0,1,2}
  sub.249 = f32[150,150]{1,0} reshape(sub.248)
  sub.250 = f32[150,150,64]{2,1,0} broadcast(sub.249), dimensions={0,1}
  sub.251 = f32[150,150,64]{2,1,0} subtract(convert_element_type.116, sub.250)
  mul.511 = f32[150,150,64]{2,1,0} multiply(mul.510, sub.251)
  Arg_2.29 = f32[64]{0} parameter(2)
  reshape.83 = f32[1,1,64]{2,1,0} reshape(Arg_2.29)
  add.388 = f32[1,1,64]{2,1,0} broadcast(reshape.83), dimensions={0,1,2}
  add.389 = f32[64]{0} reshape(add.388)
  add.390 = f32[150,150,64]{2,1,0} broadcast(add.389), dimensions={2}
  add.391 = f32[150,150,64]{2,1,0} add(mul.511, add.390)
  convert_element_type.117 = bf16[150,150,64]{2,1,0} convert(add.391)
  transpose.23 = bf16[150,150]{0,1} transpose(Arg_0.109), dimensions={1,0}
  broadcast_in_dim.246 = bf16[150,1,1,150]{3,2,1,0} reshape(transpose.23)
  constant.313 = bf16[] constant(0)
  broadcast.61 = bf16[150,1,1,150]{3,2,1,0} broadcast(constant.313), dimensions={}
  convert_element_type.118 = pred[150,1,1,150]{3,2,1,0} compare(broadcast_in_dim.246, broadcast.61), direction=NE
  Arg_8.9 = bf16[4,16,64]{2,1,0} parameter(8)
  Arg_5.11 = bf16[4,16,64]{2,1,0} parameter(5)
  Arg_9.9 = bf16[64,4,16]{2,1,0} parameter(9)
  Arg_7.11 = bf16[64,4]{1,0} parameter(7)
  dot_general.120 = bf16[150,150,4]{2,1,0} dot(convert_element_type.117, Arg_7.11), lhs_contracting_dims={2}, rhs_contracting_dims={0}
  transpose.24 = bf16[4,150,150]{0,2,1} transpose(dot_general.120), dimensions={2,0,1}
  Arg_4.11 = bf16[64,64]{1,0} parameter(4)
  Arg_6.11 = bf16[64,64]{1,0} parameter(6)
  while.34 = (s32[], bf16[150,150,64]{2,1,0}, bf16[150,150,64]{2,1,0}, pred[150,1,1,150]{3,2,1,0}, bf16[4,16,64]{2,1,0}, /*index=5*/bf16[4,16,64]{2,1,0}, bf16[64,4,16]{2,1,0}, bf16[4,150,150]{0,2,1}, bf16[64,64]{1,0}, bf16[64,64]{1,0}) tuple(constant.322, broadcast.60, convert_element_type.117, convert_element_type.118, Arg_8.9, Arg_5.11, Arg_9.9, transpose.24, Arg_4.11, Arg_6.11)
  while.35 = (s32[], bf16[150,150,64]{2,1,0}, bf16[150,150,64]{2,1,0}, pred[150,1,1,150]{3,2,1,0}, bf16[4,16,64]{2,1,0}, /*index=5*/bf16[4,16,64]{2,1,0}, bf16[64,4,16]{2,1,0}, bf16[4,150,150]{0,2,1}, bf16[64,64]{1,0}, bf16[64,64]{1,0}) while(while.34), condition=region_51.100, body=region_48.99
  while.36 = s32[] get-tuple-element(while.35), index=0
  Arg_11.5 = f32[64]{0} parameter(11)
  reshape.85 = f32[1,1,64]{2,1,0} reshape(Arg_11.5)
  mul.514 = f32[1,1,64]{2,1,0} broadcast(reshape.85), dimensions={0,1,2}
  mul.515 = f32[64]{0} reshape(mul.514)
  mul.516 = f32[150,150,64]{2,1,0} broadcast(mul.515), dimensions={2}
  while.37 = bf16[150,150,64]{2,1,0} get-tuple-element(while.35), index=1
  dynamic_slice.50 = bf16[22,150,64]{2,1,0} slice(convert_element_type.117), slice={[128:150], [0:150], [0:64]}
  dot_general.123 = bf16[22,150,4,16]{3,2,1,0} dot(dynamic_slice.50, Arg_9.9), lhs_contracting_dims={2}, rhs_contracting_dims={0}
  dynamic_slice.51 = pred[22,1,1,150]{3,2,1,0} slice(convert_element_type.118), slice={[128:150], [0:1], [0:1], [0:150]}
  dot_general.121 = bf16[22,150,4,16]{3,2,1,0} dot(dynamic_slice.50, Arg_8.9), lhs_contracting_dims={2}, rhs_contracting_dims={2}
  dot_general.122 = bf16[22,150,4,16]{3,2,1,0} dot(dynamic_slice.50, Arg_5.11), lhs_contracting_dims={2}, rhs_contracting_dims={2}
  dot_general.124 = f32[22,4,150,150]{3,2,1,0} dot(dot_general.121, dot_general.122), lhs_batch_dims={0,2}, lhs_contracting_dims={3}, rhs_batch_dims={0,2}, rhs_contracting_dims={3}, algorithm=dot_bf16_bf16_f32
  constant.311 = f32[] constant(0.25)
  broadcast.59 = f32[22,4,150,150]{3,2,1,0} broadcast(constant.311), dimensions={}
  mul.512 = f32[22,4,150,150]{3,2,1,0} multiply(dot_general.124, broadcast.59)
  broadcast_in_dim.247 = bf16[1,4,150,150]{3,2,1,0} reshape(transpose.24)
  convert_element_type.119 = f32[1,4,150,150]{3,2,1,0} convert(broadcast_in_dim.247)
  add.392 = f32[1,4,150,150]{3,2,1,0} broadcast(convert_element_type.119), dimensions={0,1,2,3}
  add.393 = f32[4,150,150]{2,1,0} reshape(add.392)
  add.394 = f32[22,4,150,150]{3,2,1,0} broadcast(add.393), dimensions={1,2,3}
  add.395 = f32[22,4,150,150]{3,2,1,0} add(mul.512, add.394)
  constant.321 = f32[] constant(-3.40282347e+38)
  jit__where_.20 = f32[22,4,150,150]{3,2,1,0} call(dynamic_slice.51, add.395, constant.321), to_apply=_where_41.101
  constant.320 = f32[] constant(-inf)
  reduce_max.38 = f32[22,4,150]{2,1,0} reduce(jit__where_.20, constant.320), dimensions={3}, to_apply=region_52.102
  broadcast_in_dim.248 = f32[22,4,150,1]{3,2,1,0} reshape(reduce_max.38)
  sub.252 = f32[22,4,150,1]{3,2,1,0} broadcast(broadcast_in_dim.248), dimensions={0,1,2,3}
  sub.253 = f32[22,4,150]{2,1,0} reshape(sub.252)
  sub.254 = f32[22,4,150,150]{3,2,1,0} broadcast(sub.253), dimensions={0,1,2}
  sub.255 = f32[22,4,150,150]{3,2,1,0} subtract(jit__where_.20, sub.254)
  exp.38 = f32[22,4,150,150]{3,2,1,0} exponential(sub.255)
  reduce_sum.305 = f32[22,4,150]{2,1,0} reduce(exp.38, constant.324), dimensions={3}, to_apply=region_53.103
  broadcast_in_dim.249 = f32[22,4,150,1]{3,2,1,0} reshape(reduce_sum.305)
  div.148 = f32[22,4,150,1]{3,2,1,0} broadcast(broadcast_in_dim.249), dimensions={0,1,2,3}
  div.149 = f32[22,4,150]{2,1,0} reshape(div.148)
  div.150 = f32[22,4,150,150]{3,2,1,0} broadcast(div.149), dimensions={0,1,2}
  div.151 = f32[22,4,150,150]{3,2,1,0} divide(exp.38, div.150)
  dot_general.125 = f32[22,4,16,150]{3,2,1,0} dot(dot_general.123, div.151), lhs_batch_dims={0,2}, lhs_contracting_dims={1}, rhs_batch_dims={0,1}, rhs_contracting_dims={3}, algorithm=dot_bf16_bf16_f32
  transpose.25 = f32[22,150,4,16]{1,3,2,0} transpose(dot_general.125), dimensions={0,3,1,2}
  convert_element_type.120 = bf16[22,150,4,16]{1,3,2,0} convert(transpose.25)
  reshape.84 = bf16[22,150,64]{2,1,0} reshape(convert_element_type.120)
  constant.310 = bf16[] constant(1)
  broadcast.58 = bf16[22,150,64]{2,1,0} broadcast(constant.310), dimensions={}
  dot_general.126 = bf16[22,150,64]{2,1,0} dot(dynamic_slice.50, Arg_4.11), lhs_contracting_dims={2}, rhs_contracting_dims={1}
  neg.33 = bf16[22,150,64]{2,1,0} negate(dot_general.126)
  exp.39 = bf16[22,150,64]{2,1,0} exponential(neg.33)
  add.396 = bf16[22,150,64]{2,1,0} add(exp.39, broadcast.58)
  div.152 = bf16[22,150,64]{2,1,0} divide(broadcast.58, add.396)
  mul.513 = bf16[22,150,64]{2,1,0} multiply(reshape.84, div.152)
  dot_general.127 = bf16[22,150,64]{2,1,0} dot(mul.513, Arg_6.11), lhs_contracting_dims={2}, rhs_contracting_dims={0}
  constant.323 = s32[] constant(128)
  dynamic_update_slice.6 = bf16[150,150,64]{2,1,0} dynamic-update-slice(while.37, dot_general.127, constant.323, constant.322, constant.322)
  add.397 = bf16[150,150,64]{2,1,0} add(add.386, dynamic_update_slice.6)
  convert_element_type.121 = f32[150,150,64]{2,1,0} convert(add.397)
  square.37 = f32[150,150,64]{2,1,0} multiply(convert_element_type.121, convert_element_type.121)
  reduce_sum.307 = f32[150,150]{1,0} reduce(square.37, constant.324), dimensions={2}, to_apply=region_55.105
  broadcast_in_dim.251 = f32[150,150,1]{2,1,0} reshape(reduce_sum.307)
  div.154 = f32[150,150,1]{2,1,0} divide(broadcast_in_dim.251, broadcast.67)
  reduce_sum.306 = f32[150,150]{1,0} reduce(convert_element_type.121, constant.324), dimensions={2}, to_apply=region_54.104
  broadcast_in_dim.250 = f32[150,150,1]{2,1,0} reshape(reduce_sum.306)
  div.153 = f32[150,150,1]{2,1,0} divide(broadcast_in_dim.250, broadcast.67)
  square.38 = f32[150,150,1]{2,1,0} multiply(div.153, div.153)
  sub.256 = f32[150,150,1]{2,1,0} subtract(div.154, square.38)
  add.398 = f32[150,150,1]{2,1,0} add(sub.256, broadcast.66)
  rsqrt.27 = f32[150,150,1]{2,1,0} rsqrt(add.398)
  mul.517 = f32[150,150,1]{2,1,0} broadcast(rsqrt.27), dimensions={0,1,2}
  mul.518 = f32[150,150]{1,0} reshape(mul.517)
  mul.519 = f32[150,150,64]{2,1,0} broadcast(mul.518), dimensions={0,1}
  mul.520 = f32[150,150,64]{2,1,0} multiply(mul.516, mul.519)
  sub.257 = f32[150,150,1]{2,1,0} broadcast(div.153), dimensions={0,1,2}
  sub.258 = f32[150,150]{1,0} reshape(sub.257)
  sub.259 = f32[150,150,64]{2,1,0} broadcast(sub.258), dimensions={0,1}
  sub.260 = f32[150,150,64]{2,1,0} subtract(convert_element_type.121, sub.259)
  mul.521 = f32[150,150,64]{2,1,0} multiply(mul.520, sub.260)
  Arg_10.5 = f32[64]{0} parameter(10)
  reshape.86 = f32[1,1,64]{2,1,0} reshape(Arg_10.5)
  add.399 = f32[1,1,64]{2,1,0} broadcast(reshape.86), dimensions={0,1,2}
  add.400 = f32[64]{0} reshape(add.399)
  add.401 = f32[150,150,64]{2,1,0} broadcast(add.400), dimensions={2}
  add.402 = f32[150,150,64]{2,1,0} add(mul.521, add.401)
  convert_element_type.122 = bf16[150,150,64]{2,1,0} convert(add.402)
  transpose.28 = bf16[150,150,64]{2,0,1} transpose(convert_element_type.122), dimensions={1,0,2}
  transpose.26 = bf16[150,150]{0,1} transpose(Arg_0.109), dimensions={1,0}
  broadcast_in_dim.252 = bf16[150,1,1,150]{3,2,1,0} reshape(transpose.26)
  convert_element_type.123 = pred[150,1,1,150]{3,2,1,0} compare(broadcast_in_dim.252, broadcast.61), direction=NE
  Arg_16.5 = bf16[4,16,64]{2,1,0} parameter(16)
  Arg_13.5 = bf16[4,16,64]{2,1,0} parameter(13)
  Arg_17.5 = bf16[64,4,16]{2,1,0} parameter(17)
  Arg_15.5 = bf16[64,4]{1,0} parameter(15)
  dot_general.128 = bf16[150,150,4]{2,1,0} dot(convert_element_type.122, Arg_15.5), lhs_contracting_dims={2}, rhs_contracting_dims={0}
  transpose.27 = bf16[4,150,150]{0,2,1} transpose(dot_general.128), dimensions={2,0,1}
  Arg_12.5 = bf16[64,64]{1,0} parameter(12)
  Arg_14.5 = bf16[64,64]{1,0} parameter(14)
  while.38 = (s32[], bf16[150,150,64]{2,1,0}, bf16[150,150,64]{2,0,1}, pred[150,1,1,150]{3,2,1,0}, bf16[4,16,64]{2,1,0}, /*index=5*/bf16[4,16,64]{2,1,0}, bf16[64,4,16]{2,1,0}, bf16[4,150,150]{0,2,1}, bf16[64,64]{1,0}, bf16[64,64]{1,0}) tuple(constant.322, broadcast.60, transpose.28, convert_element_type.123, Arg_16.5, Arg_13.5, Arg_17.5, transpose.27, Arg_12.5, Arg_14.5)
  while.39 = (s32[], bf16[150,150,64]{2,1,0}, bf16[150,150,64]{2,0,1}, pred[150,1,1,150]{3,2,1,0}, bf16[4,16,64]{2,1,0}, /*index=5*/bf16[4,16,64]{2,1,0}, bf16[64,4,16]{2,1,0}, bf16[4,150,150]{0,2,1}, bf16[64,64]{1,0}, bf16[64,64]{1,0}) while(while.38), condition=region_59.110, body=region_56.109
  while.40 = s32[] get-tuple-element(while.39), index=0
  while.41 = bf16[150,150,64]{2,1,0} get-tuple-element(while.39), index=1
  dynamic_slice.52 = bf16[22,150,64]{2,1,0} slice(transpose.28), slice={[128:150], [0:150], [0:64]}
  dot_general.131 = bf16[22,150,4,16]{3,2,1,0} dot(dynamic_slice.52, Arg_17.5), lhs_contracting_dims={2}, rhs_contracting_dims={0}
  dynamic_slice.53 = pred[22,1,1,150]{3,2,1,0} slice(convert_element_type.123), slice={[128:150], [0:1], [0:1], [0:150]}
  dot_general.129 = bf16[22,150,4,16]{3,2,1,0} dot(dynamic_slice.52, Arg_16.5), lhs_contracting_dims={2}, rhs_contracting_dims={2}
  dot_general.130 = bf16[22,150,4,16]{3,2,1,0} dot(dynamic_slice.52, Arg_13.5), lhs_contracting_dims={2}, rhs_contracting_dims={2}
  dot_general.132 = f32[22,4,150,150]{3,2,1,0} dot(dot_general.129, dot_general.130), lhs_batch_dims={0,2}, lhs_contracting_dims={3}, rhs_batch_dims={0,2}, rhs_contracting_dims={3}, algorithm=dot_bf16_bf16_f32
  mul.522 = f32[22,4,150,150]{3,2,1,0} multiply(dot_general.132, broadcast.59)
  broadcast_in_dim.253 = bf16[1,4,150,150]{3,2,1,0} reshape(transpose.27)
  convert_element_type.124 = f32[1,4,150,150]{3,2,1,0} convert(broadcast_in_dim.253)
  add.403 = f32[1,4,150,150]{3,2,1,0} broadcast(convert_element_type.124), dimensions={0,1,2,3}
  add.404 = f32[4,150,150]{2,1,0} reshape(add.403)
  add.405 = f32[22,4,150,150]{3,2,1,0} broadcast(add.404), dimensions={1,2,3}
  add.406 = f32[22,4,150,150]{3,2,1,0} add(mul.522, add.405)
  jit__where_.21 = f32[22,4,150,150]{3,2,1,0} call(dynamic_slice.53, add.406, constant.321), to_apply=_where_41.101
  reduce_max.39 = f32[22,4,150]{2,1,0} reduce(jit__where_.21, constant.320), dimensions={3}, to_apply=region_60.111
  broadcast_in_dim.254 = f32[22,4,150,1]{3,2,1,0} reshape(reduce_max.39)
  sub.261 = f32[22,4,150,1]{3,2,1,0} broadcast(broadcast_in_dim.254), dimensions={0,1,2,3}
  sub.262 = f32[22,4,150]{2,1,0} reshape(sub.261)
  sub.263 = f32[22,4,150,150]{3,2,1,0} broadcast(sub.262), dimensions={0,1,2}
  sub.264 = f32[22,4,150,150]{3,2,1,0} subtract(jit__where_.21, sub.263)
  exp.40 = f32[22,4,150,150]{3,2,1,0} exponential(sub.264)
  reduce_sum.308 = f32[22,4,150]{2,1,0} reduce(exp.40, constant.324), dimensions={3}, to_apply=region_61.112
  broadcast_in_dim.255 = f32[22,4,150,1]{3,2,1,0} reshape(reduce_sum.308)
  div.155 = f32[22,4,150,1]{3,2,1,0} broadcast(broadcast_in_dim.255), dimensions={0,1,2,3}
  div.156 = f32[22,4,150]{2,1,0} reshape(div.155)
  div.157 = f32[22,4,150,150]{3,2,1,0} broadcast(div.156), dimensions={0,1,2}
  div.158 = f32[22,4,150,150]{3,2,1,0} divide(exp.40, div.157)
  dot_general.133 = f32[22,4,16,150]{3,2,1,0} dot(dot_general.131, div.158), lhs_batch_dims={0,2}, lhs_contracting_dims={1}, rhs_batch_dims={0,1}, rhs_contracting_dims={3}, algorithm=dot_bf16_bf16_f32
  transpose.29 = f32[22,150,4,16]{1,3,2,0} transpose(dot_general.133), dimensions={0,3,1,2}
  convert_element_type.125 = bf16[22,150,4,16]{1,3,2,0} convert(transpose.29)
  reshape.87 = bf16[22,150,64]{2,1,0} reshape(convert_element_type.125)
  dot_general.134 = bf16[22,150,64]{2,1,0} dot(dynamic_slice.52, Arg_12.5), lhs_contracting_dims={2}, rhs_contracting_dims={1}
  neg.34 = bf16[22,150,64]{2,1,0} negate(dot_general.134)
  exp.41 = bf16[22,150,64]{2,1,0} exponential(neg.34)
  add.407 = bf16[22,150,64]{2,1,0} add(exp.41, broadcast.58)
  div.159 = bf16[22,150,64]{2,1,0} divide(broadcast.58, add.407)
  mul.523 = bf16[22,150,64]{2,1,0} multiply(reshape.87, div.159)
  dot_general.135 = bf16[22,150,64]{2,1,0} dot(mul.523, Arg_14.5), lhs_contracting_dims={2}, rhs_contracting_dims={0}
  dynamic_update_slice.7 = bf16[150,150,64]{2,1,0} dynamic-update-slice(while.41, dot_general.135, constant.323, constant.322, constant.322)
  transpose.30 = bf16[150,150,64]{2,0,1} transpose(dynamic_update_slice.7), dimensions={1,0,2}
  add.408 = bf16[150,150,64]{2,1,0} add(add.397, transpose.30)
  Arg_19.5 = f32[64]{0} parameter(19)
  reshape.88 = f32[1,1,64]{2,1,0} reshape(Arg_19.5)
  mul.524 = f32[1,1,64]{2,1,0} broadcast(reshape.88), dimensions={0,1,2}
  mul.525 = f32[64]{0} reshape(mul.524)
  mul.526 = f32[150,150,64]{2,1,0} broadcast(mul.525), dimensions={2}
  convert_element_type.126 = f32[150,150,64]{2,1,0} convert(add.408)
  square.39 = f32[150,150,64]{2,1,0} multiply(convert_element_type.126, convert_element_type.126)
  reduce_sum.310 = f32[150,150]{1,0} reduce(square.39, constant.324), dimensions={2}, to_apply=region_63.114
  broadcast_in_dim.257 = f32[150,150,1]{2,1,0} reshape(reduce_sum.310)
  div.161 = f32[150,150,1]{2,1,0} divide(broadcast_in_dim.257, broadcast.67)
  reduce_sum.309 = f32[150,150]{1,0} reduce(convert_element_type.126, constant.324), dimensions={2}, to_apply=region_62.113
  broadcast_in_dim.256 = f32[150,150,1]{2,1,0} reshape(reduce_sum.309)
  div.160 = f32[150,150,1]{2,1,0} divide(broadcast_in_dim.256, broadcast.67)
  square.40 = f32[150,150,1]{2,1,0} multiply(div.160, div.160)
  sub.265 = f32[150,150,1]{2,1,0} subtract(div.161, square.40)
  add.409 = f32[150,150,1]{2,1,0} add(sub.265, broadcast.66)
  rsqrt.28 = f32[150,150,1]{2,1,0} rsqrt(add.409)
  mul.527 = f32[150,150,1]{2,1,0} broadcast(rsqrt.28), dimensions={0,1,2}
  mul.528 = f32[150,150]{1,0} reshape(mul.527)
  mul.529 = f32[150,150,64]{2,1,0} broadcast(mul.528), dimensions={0,1}
  mul.530 = f32[150,150,64]{2,1,0} multiply(mul.526, mul.529)
  sub.266 = f32[150,150,1]{2,1,0} broadcast(div.160), dimensions={0,1,2}
  sub.267 = f32[150,150]{1,0} reshape(sub.266)
  sub.268 = f32[150,150,64]{2,1,0} broadcast(sub.267), dimensions={0,1}
  sub.269 = f32[150,150,64]{2,1,0} subtract(convert_element_type.126, sub.268)
  mul.531 = f32[150,150,64]{2,1,0} multiply(mul.530, sub.269)
  Arg_18.5 = f32[64]{0} parameter(18)
  reshape.89 = f32[1,1,64]{2,1,0} reshape(Arg_18.5)
  add.410 = f32[1,1,64]{2,1,0} broadcast(reshape.89), dimensions={0,1,2}
  add.411 = f32[64]{0} reshape(add.410)
  add.412 = f32[150,150,64]{2,1,0} broadcast(add.411), dimensions={2}
  add.413 = f32[150,150,64]{2,1,0} add(mul.531, add.412)
  convert_element_type.127 = bf16[150,150,64]{2,1,0} convert(add.413)
  Arg_20.5 = bf16[64,256]{1,0} parameter(20)
  reshape.90 = bf16[64,2,128]{2,1,0} reshape(Arg_20.5)
  dot_general.136 = bf16[150,150,2,128]{3,2,1,0} dot(convert_element_type.127, reshape.90), lhs_contracting_dims={2}, rhs_contracting_dims={0}
  reshape.91 = bf16[150,150,256]{2,1,0} reshape(dot_general.136)
  convert_element_type.128 = f32[150,150,256]{2,1,0} convert(reshape.91)
  split.25 = f32[150,150,128]{2,1,0} slice(convert_element_type.128), slice={[0:150], [0:150], [0:128]}
  jit_silu_.3 = f32[150,150,128]{2,1,0} call(split.25), to_apply=silu_43.115
  split.26 = f32[150,150,128]{2,1,0} slice(convert_element_type.128), slice={[0:150], [0:150], [128:256]}
  mul.532 = f32[150,150,128]{2,1,0} multiply(jit_silu_.3, split.26)
  convert_element_type.129 = bf16[150,150,128]{2,1,0} convert(mul.532)
  Arg_21.5 = bf16[128,64]{1,0} parameter(21)
  dot_general.137 = bf16[150,150,64]{2,1,0} dot(convert_element_type.129, Arg_21.5), lhs_contracting_dims={2}, rhs_contracting_dims={0}
  ROOT add.414 = bf16[150,150,64]{2,1,0} add(add.408, dot_general.137)
}

region_37.117 {
  arg_tuple.19 = (s32[], bf16[150,150,64]{2,1,0}, f32[2,64]{1,0}, f32[2,64]{1,0}, bf16[2,64,64]{2,1,0}, /*index=5*/bf16[2,4,16,64]{3,2,1,0}, bf16[2,64,64]{2,1,0}, bf16[2,64,4]{2,1,0}, bf16[2,4,16,64]{3,2,1,0}, bf16[2,64,4,16]{3,2,1,0}, /*index=10*/f32[2,64]{1,0}, f32[2,64]{1,0}, bf16[2,64,64]{2,1,0}, bf16[2,4,16,64]{3,2,1,0}, bf16[2,64,64]{2,1,0}, /*index=15*/bf16[2,64,4]{2,1,0}, bf16[2,4,16,64]{3,2,1,0}, bf16[2,64,4,16]{3,2,1,0}, f32[2,64]{1,0}, f32[2,64]{1,0}, /*index=20*/bf16[2,64,256]{2,1,0}, bf16[2,128,64]{2,1,0}, f32[2,64]{1,0}, f32[2,64]{1,0}, bf16[2,64,128]{2,1,0}, /*index=25*/bf16[2,64,64]{2,1,0}, f32[2,64]{1,0}, f32[2,64]{1,0}, bf16[2,64,64]{2,1,0}, bf16[2,64,128]{2,1,0}, /*index=30*/f32[2,64]{1,0}, f32[2,64]{1,0}, bf16[2,64,128]{2,1,0}, bf16[2,64,64]{2,1,0}, f32[2,64]{1,0}, /*index=35*/f32[2,64]{1,0}, bf16[2,64,64]{2,1,0}, bf16[2,64,128]{2,1,0}, bf16[150,150]{1,0}) parameter(0)
  get-tuple-element.540 = s32[] get-tuple-element(arg_tuple.19), index=0
  constant.325 = s32[] constant(1)
  add.416 = s32[] add(get-tuple-element.540, constant.325)
  get-tuple-element.578 = bf16[150,150]{1,0} get-tuple-element(arg_tuple.19), index=38
  get-tuple-element.541 = bf16[150,150,64]{2,1,0} get-tuple-element(arg_tuple.19), index=1
  get-tuple-element.542 = f32[2,64]{1,0} get-tuple-element(arg_tuple.19), index=2
  jit_dynamic_index_in_dim_.93 = f32[64]{0} call(get-tuple-element.542, get-tuple-element.540), to_apply=dynamic_index_in_dim_29.76
  get-tuple-element.543 = f32[2,64]{1,0} get-tuple-element(arg_tuple.19), index=3
  jit_dynamic_index_in_dim_.94 = f32[64]{0} call(get-tuple-element.543, get-tuple-element.540), to_apply=dynamic_index_in_dim_29.76
  get-tuple-element.544 = bf16[2,64,64]{2,1,0} get-tuple-element(arg_tuple.19), index=4
  jit_dynamic_index_in_dim_.95 = bf16[64,64]{1,0} call(get-tuple-element.544, get-tuple-element.540), to_apply=dynamic_index_in_dim_30.77
  get-tuple-element.545 = bf16[2,4,16,64]{3,2,1,0} get-tuple-element(arg_tuple.19), index=5
  jit_dynamic_index_in_dim_.96 = bf16[4,16,64]{2,1,0} call(get-tuple-element.545, get-tuple-element.540), to_apply=dynamic_index_in_dim_31.78
  get-tuple-element.546 = bf16[2,64,64]{2,1,0} get-tuple-element(arg_tuple.19), index=6
  jit_dynamic_index_in_dim_.97 = bf16[64,64]{1,0} call(get-tuple-element.546, get-tuple-element.540), to_apply=dynamic_index_in_dim_30.77
  get-tuple-element.547 = bf16[2,64,4]{2,1,0} get-tuple-element(arg_tuple.19), index=7
  jit_dynamic_index_in_dim_.98 = bf16[64,4]{1,0} call(get-tuple-element.547, get-tuple-element.540), to_apply=dynamic_index_in_dim_32.79
  get-tuple-element.548 = bf16[2,4,16,64]{3,2,1,0} get-tuple-element(arg_tuple.19), index=8
  jit_dynamic_index_in_dim_.99 = bf16[4,16,64]{2,1,0} call(get-tuple-element.548, get-tuple-element.540), to_apply=dynamic_index_in_dim_31.78
  get-tuple-element.549 = bf16[2,64,4,16]{3,2,1,0} get-tuple-element(arg_tuple.19), index=9
  jit_dynamic_index_in_dim_.100 = bf16[64,4,16]{2,1,0} call(get-tuple-element.549, get-tuple-element.540), to_apply=dynamic_index_in_dim_33.80
  get-tuple-element.550 = f32[2,64]{1,0} get-tuple-element(arg_tuple.19), index=10
  jit_dynamic_index_in_dim_.101 = f32[64]{0} call(get-tuple-element.550, get-tuple-element.540), to_apply=dynamic_index_in_dim_29.76
  get-tuple-element.551 = f32[2,64]{1,0} get-tuple-element(arg_tuple.19), index=11
  jit_dynamic_index_in_dim_.102 = f32[64]{0} call(get-tuple-element.551, get-tuple-element.540), to_apply=dynamic_index_in_dim_29.76
  get-tuple-element.552 = bf16[2,64,64]{2,1,0} get-tuple-element(arg_tuple.19), index=12
  jit_dynamic_index_in_dim_.103 = bf16[64,64]{1,0} call(get-tuple-element.552, get-tuple-element.540), to_apply=dynamic_index_in_dim_30.77
  get-tuple-element.553 = bf16[2,4,16,64]{3,2,1,0} get-tuple-element(arg_tuple.19), index=13
  jit_dynamic_index_in_dim_.104 = bf16[4,16,64]{2,1,0} call(get-tuple-element.553, get-tuple-element.540), to_apply=dynamic_index_in_dim_31.78
  get-tuple-element.554 = bf16[2,64,64]{2,1,0} get-tuple-element(arg_tuple.19), index=14
  jit_dynamic_index_in_dim_.105 = bf16[64,64]{1,0} call(get-tuple-element.554, get-tuple-element.540), to_apply=dynamic_index_in_dim_30.77
  get-tuple-element.555 = bf16[2,64,4]{2,1,0} get-tuple-element(arg_tuple.19), index=15
  jit_dynamic_index_in_dim_.106 = bf16[64,4]{1,0} call(get-tuple-element.555, get-tuple-element.540), to_apply=dynamic_index_in_dim_32.79
  get-tuple-element.556 = bf16[2,4,16,64]{3,2,1,0} get-tuple-element(arg_tuple.19), index=16
  jit_dynamic_index_in_dim_.107 = bf16[4,16,64]{2,1,0} call(get-tuple-element.556, get-tuple-element.540), to_apply=dynamic_index_in_dim_31.78
  get-tuple-element.557 = bf16[2,64,4,16]{3,2,1,0} get-tuple-element(arg_tuple.19), index=17
  jit_dynamic_index_in_dim_.108 = bf16[64,4,16]{2,1,0} call(get-tuple-element.557, get-tuple-element.540), to_apply=dynamic_index_in_dim_33.80
  get-tuple-element.558 = f32[2,64]{1,0} get-tuple-element(arg_tuple.19), index=18
  jit_dynamic_index_in_dim_.109 = f32[64]{0} call(get-tuple-element.558, get-tuple-element.540), to_apply=dynamic_index_in_dim_29.76
  get-tuple-element.559 = f32[2,64]{1,0} get-tuple-element(arg_tuple.19), index=19
  jit_dynamic_index_in_dim_.110 = f32[64]{0} call(get-tuple-element.559, get-tuple-element.540), to_apply=dynamic_index_in_dim_29.76
  get-tuple-element.560 = bf16[2,64,256]{2,1,0} get-tuple-element(arg_tuple.19), index=20
  jit_dynamic_index_in_dim_.111 = bf16[64,256]{1,0} call(get-tuple-element.560, get-tuple-element.540), to_apply=dynamic_index_in_dim_34.81
  get-tuple-element.561 = bf16[2,128,64]{2,1,0} get-tuple-element(arg_tuple.19), index=21
  jit_dynamic_index_in_dim_.112 = bf16[128,64]{1,0} call(get-tuple-element.561, get-tuple-element.540), to_apply=dynamic_index_in_dim_35.82
  get-tuple-element.562 = f32[2,64]{1,0} get-tuple-element(arg_tuple.19), index=22
  jit_dynamic_index_in_dim_.113 = f32[64]{0} call(get-tuple-element.562, get-tuple-element.540), to_apply=dynamic_index_in_dim_29.76
  get-tuple-element.563 = f32[2,64]{1,0} get-tuple-element(arg_tuple.19), index=23
  jit_dynamic_index_in_dim_.114 = f32[64]{0} call(get-tuple-element.563, get-tuple-element.540), to_apply=dynamic_index_in_dim_29.76
  get-tuple-element.564 = bf16[2,64,128]{2,1,0} get-tuple-element(arg_tuple.19), index=24
  jit_dynamic_index_in_dim_.115 = bf16[64,128]{1,0} call(get-tuple-element.564, get-tuple-element.540), to_apply=dynamic_index_in_dim_36.83
  get-tuple-element.565 = bf16[2,64,64]{2,1,0} get-tuple-element(arg_tuple.19), index=25
  jit_dynamic_index_in_dim_.116 = bf16[64,64]{1,0} call(get-tuple-element.565, get-tuple-element.540), to_apply=dynamic_index_in_dim_30.77
  get-tuple-element.566 = f32[2,64]{1,0} get-tuple-element(arg_tuple.19), index=26
  jit_dynamic_index_in_dim_.117 = f32[64]{0} call(get-tuple-element.566, get-tuple-element.540), to_apply=dynamic_index_in_dim_29.76
  get-tuple-element.567 = f32[2,64]{1,0} get-tuple-element(arg_tuple.19), index=27
  jit_dynamic_index_in_dim_.118 = f32[64]{0} call(get-tuple-element.567, get-tuple-element.540), to_apply=dynamic_index_in_dim_29.76
  get-tuple-element.568 = bf16[2,64,64]{2,1,0} get-tuple-element(arg_tuple.19), index=28
  jit_dynamic_index_in_dim_.119 = bf16[64,64]{1,0} call(get-tuple-element.568, get-tuple-element.540), to_apply=dynamic_index_in_dim_30.77
  get-tuple-element.569 = bf16[2,64,128]{2,1,0} get-tuple-element(arg_tuple.19), index=29
  jit_dynamic_index_in_dim_.120 = bf16[64,128]{1,0} call(get-tuple-element.569, get-tuple-element.540), to_apply=dynamic_index_in_dim_36.83
  get-tuple-element.570 = f32[2,64]{1,0} get-tuple-element(arg_tuple.19), index=30
  jit_dynamic_index_in_dim_.121 = f32[64]{0} call(get-tuple-element.570, get-tuple-element.540), to_apply=dynamic_index_in_dim_29.76
  get-tuple-element.571 = f32[2,64]{1,0} get-tuple-element(arg_tuple.19), index=31
  jit_dynamic_index_in_dim_.122 = f32[64]{0} call(get-tuple-element.571, get-tuple-element.540), to_apply=dynamic_index_in_dim_29.76
  get-tuple-element.572 = bf16[2,64,128]{2,1,0} get-tuple-element(arg_tuple.19), index=32
  jit_dynamic_index_in_dim_.123 = bf16[64,128]{1,0} call(get-tuple-element.572, get-tuple-element.540), to_apply=dynamic_index_in_dim_36.83
  get-tuple-element.573 = bf16[2,64,64]{2,1,0} get-tuple-element(arg_tuple.19), index=33
  jit_dynamic_index_in_dim_.124 = bf16[64,64]{1,0} call(get-tuple-element.573, get-tuple-element.540), to_apply=dynamic_index_in_dim_30.77
  get-tuple-element.574 = f32[2,64]{1,0} get-tuple-element(arg_tuple.19), index=34
  jit_dynamic_index_in_dim_.125 = f32[64]{0} call(get-tuple-element.574, get-tuple-element.540), to_apply=dynamic_index_in_dim_29.76
  get-tuple-element.575 = f32[2,64]{1,0} get-tuple-element(arg_tuple.19), index=35
  jit_dynamic_index_in_dim_.126 = f32[64]{0} call(get-tuple-element.575, get-tuple-element.540), to_apply=dynamic_index_in_dim_29.76
  get-tuple-element.576 = bf16[2,64,64]{2,1,0} get-tuple-element(arg_tuple.19), index=36
  jit_dynamic_index_in_dim_.127 = bf16[64,64]{1,0} call(get-tuple-element.576, get-tuple-element.540), to_apply=dynamic_index_in_dim_30.77
  get-tuple-element.577 = bf16[2,64,128]{2,1,0} get-tuple-element(arg_tuple.19), index=37
  jit_dynamic_index_in_dim_.128 = bf16[64,128]{1,0} call(get-tuple-element.577, get-tuple-element.540), to_apply=dynamic_index_in_dim_36.83
  closed_call.25 = bf16[150,150,64]{2,1,0} call(get-tuple-element.578, get-tuple-element.541, jit_dynamic_index_in_dim_.93, jit_dynamic_index_in_dim_.94, jit_dynamic_index_in_dim_.95, jit_dynamic_index_in_dim_.96, jit_dynamic_index_in_dim_.97, jit_dynamic_index_in_dim_.98, jit_dynamic_index_in_dim_.99, jit_dynamic_index_in_dim_.100, jit_dynamic_index_in_dim_.101, jit_dynamic_index_in_dim_.102, jit_dynamic_index_in_dim_.103, jit_dynamic_index_in_dim_.104, jit_dynamic_index_in_dim_.105, jit_dynamic_index_in_dim_.106, jit_dynamic_index_in_dim_.107, jit_dynamic_index_in_dim_.108, jit_dynamic_index_in_dim_.109, jit_dynamic_index_in_dim_.110, jit_dynamic_index_in_dim_.111, jit_dynamic_index_in_dim_.112, jit_dynamic_index_in_dim_.113, jit_dynamic_index_in_dim_.114, jit_dynamic_index_in_dim_.115, jit_dynamic_index_in_dim_.116, jit_dynamic_index_in_dim_.117, jit_dynamic_index_in_dim_.118, jit_dynamic_index_in_dim_.119, jit_dynamic_index_in_dim_.120, jit_dynamic_index_in_dim_.121, jit_dynamic_index_in_dim_.122, jit_dynamic_index_in_dim_.123, jit_dynamic_index_in_dim_.124, jit_dynamic_inde…
ut_linear____weights__.1, act_norm____offset__.16, act_norm____scale__.16, gating_query____weights__.16, k_projection____weights__.14, output_projection____weights__.30, pair_bias_projection____weights__.14, q_projection____weights__.14, v_projection____weights__.16, act_norm____offset__.17, act_norm____scale__.17, gating_query____weights__.17, k_projection____weights__.15, output_projection____weights__.31, pair_bias_projection____weights__.15, q_projection____weights__.15, v_projection____weights__.17, input_layer_norm____offset__.13, input_layer_norm____scale__.13, transition1____weights__.13, transition2____weights__.13, center_norm____offset__.14, center_norm____scale__.14, gate____weights__.14, gating_linear____weights__.14, left_norm_input____offset__.14, left_norm_input____scale__.14, output_projection____weights__.32, projection____weights__.14, center_norm____offset__.15, center_norm____scale__.15, gate____weights__.15, gating_linear____weights__.15, left_norm_input____offset__.15, left_norm_input____scale__.15, output_projection____weights__.33, projection____weights__.15, output_layer_norm____offset__.1, output_layer_norm____scale__.1, query_embedding_norm____offset__.1, query_embedding_norm____scale__.1, template_pair_embedding_0____weights__.1, template_pair_embedding_1____weights__.1, template_pair_embedding_2____weights__.1, template_pair_embedding_3____weights__.1, template_pair_embedding_4____weights__.1, template_pair_embedding_5____weights__.1, template_pair_embedding_6____weights__.1, template_pair_embedding_7____weights__.1, template_pair_embedding_8____weights__.1, position_activations____weights__.1, convert_element_type.647, b__seq_mask__.1, b__asym_id__.1, b__residue_index__.1, b__token_index__.1, b__entity_id__.1, b__sym_id__.1, b__tokens_to_polymer_ligand_bonds_gather_mask__.1, b__tokens_to_polymer_ligand_bonds_gather_idxs__.1, b__tokens_to_ligand_ligand_bonds_gather_mask__.1, b__tokens_to_ligand_ligand_bonds_gather_idxs__.1, b__template_aatype__.1, b__template_atom_positions__.1, b__template_atom_mask__.1, b__msa_mask__.1, b__msa__.1, b__deletion_matrix__.1)
  while.384 = (s32[], u32[2]{0}, u32[2]{0}, f32[150,150,128]{2,1,0}, f32[150,384]{1,0}, /*index=5*/bf16[150,447]{1,0}, u32[2]{0}, f32[4,64]{1,0}, f32[4,64]{1,0}, bf16[4,64,64]{2,1,0}, /*index=10*/bf16[4,64,64]{2,1,0}, bf16[4,128,8]{2,1,0}, f32[4,128]{1,0}, f32[4,128]{1,0}, bf16[4,64,8,8]{3,2,1,0}, /*index=15*/f32[4,64]{1,0}, f32[4,64]{1,0}, bf16[4,64,512]{2,1,0}, bf16[4,256,64]{2,1,0}, bf16[4,128]{1,0}, /*index=20*/bf16[4,32,32,128]{3,2,1,0}, f32[4,64]{1,0}, f32[4,64]{1,0}, bf16[4,64,32]{2,1,0}, bf16[4,64,32]{2,1,0}, /*index=25*/f32[4,128]{1,0}, f32[4,128]{1,0}, bf16[4,128,128]{2,1,0}, bf16[4,4,32,128]{3,2,1,0}, bf16[4,128,128]{2,1,0}, /*index=30*/bf16[4,128,4]{2,1,0}, bf16[4,4,32,128]{3,2,1,0}, bf16[4,128,4,32]{3,2,1,0}, f32[4,128]{1,0}, f32[4,128]{1,0}, /*index=35*/bf16[4,128,128]{2,1,0}, bf16[4,4,32,128]{3,2,1,0}, bf16[4,128,128]{2,1,0}, bf16[4,128,4]{2,1,0}, bf16[4,4,32,128]{3,2,1,0}, /*index=40*/bf16[4,128,4,32]{3,2,1,0}, f32[4,128]{1,0}, f32[4,128]{1,0}, bf16[4,128,1024]{2,1,0}, bf16[4,512,128]{2,1,0}, /*index=45*/f32[4,128]{1,0}, f32[4,128]{1,0}, bf16[4,128,256]{2,1,0}, bf16[4,128,128]{2,1,0}, f32[4,128]{1,0}, /*index=50*/f32[4,128]{1,0}, bf16[4,128,128]{2,1,0}, bf16[4,128,256]{2,1,0}, f32[4,128]{1,0}, f32[4,128]{1,0}, /*index=55*/bf16[4,128,256]{2,1,0}, bf16[4,128,128]{2,1,0}, f32[4,128]{1,0}, f32[4,128]{1,0}, bf16[4,128,128]{2,1,0}, /*index=60*/bf16[4,128,256]{2,1,0}, f32[48,128]{1,0}, f32[48,128]{1,0}, bf16[48,128,128]{2,1,0}, bf16[48,4,32,128]{3,2,1,0}, /*index=65*/bf16[48,128,128]{2,1,0}, bf16[48,128,4]{2,1,0}, bf16[48,4,32,128]{3,2,1,0}, bf16[48,128,4,32]{3,2,1,0}, f32[48,128]{1,0}, /*index=70*/f32[48,128]{1,0}, bf16[48,128,128]{2,1,0}, bf16[48,4,32,128]{3,2,1,0}, bf16[48,128,128]{2,1,0}, bf16[48,128,4]{2,1,0}, /*index=75*/bf16[48,4,32,128]{3,2,1,0}, bf16[48,128,4,32]{3,2,1,0}, f32[48,128]{1,0}, f32[48,128]{1,0}, bf16[48,128,1024]{2,1,0}, /*index=80*/bf16[48,512,128]{2,1,0}, bf16[48,384,384]{2,1,0}, bf16[48,384,16,24]{3,2,1,0}, f32[48,384]{1,0}, f32[48,384]{1,0}, /*index=85*/bf16[48,16,24]{2,1,0}, bf16[48,384,16,24]{3,2,1,0}, bf16[48,384,384]{2,1,0}, bf16[48,384,16,24]{3,2,1,0}, f32[48,128]{1,0}, /*index=90*/f32[48,128]{1,0}, bf16[48,128,16]{2,1,0}, f32[48,384]{1,0}, f32[48,384]{1,0}, bf16[48,384,3072]{2,1,0}, /*index=95*/bf16[48,1536,384]{2,1,0}, f32[48,128]{1,0}, f32[48,128]{1,0}, bf16[48,128,256]{2,1,0}, bf16[48,128,128]{2,1,0}, /*index=100*/f32[48,128]{1,0}, f32[48,128]{1,0}, bf16[48,128,128]{2,1,0}, bf16[48,128,256]{2,1,0}, f32[48,128]{1,0}, /*index=105*/f32[48,128]{1,0}, bf16[48,128,256]{2,1,0}, bf16[48,128,128]{2,1,0}, f32[48,128]{1,0}, f32[48,128]{1,0}, /*index=110*/bf16[48,128,128]{2,1,0}, bf16[48,128,256]{2,1,0}, bf16[1,128]{1,0}, bf16[447,64]{1,0}, bf16[447,128]{1,0}, /*index=115*/bf16[34,64]{1,0}, bf16[128,128]{1,0}, f32[128]{0}, f32[128]{0}, bf16[384,384]{1,0}, /*index=120*/f32[384]{0}, f32[384]{0}, bf16[447,128]{1,0}, bf16[447,384]{1,0}, bf16[64,128]{1,0}, /*index=125*/f32[2,64]{1,0}, f32[2,64]{1,0}, bf16[2,64,64]{2,1,0}, bf16[2,4,16,64]{3,2,1,0}, bf16[2,64,64]{2,1,0}, /*index=130*/bf16[2,64,4]{2,1,0}, bf16[2,4,16,64]{3,2,1,0}, bf16[2,64,4,16]{3,2,1,0}, f32[2,64]{1,0}, f32[2,64]{1,0}, /*index=135*/bf16[2,64,64]{2,1,0}, bf16[2,4,16,64]{3,2,1,0}, bf16[2,64,64]{2,1,0}, bf16[2,64,4]{2,1,0}, bf16[2,4,16,64]{3,2,1,0}, /*index=140*/bf16[2,64,4,16]{3,2,1,0}, f32[2,64]{1,0}, f32[2,64]{1,0}, bf16[2,64,256]{2,1,0}, bf16[2,128,64]{2,1,0}, /*index=145*/f32[2,64]{1,0}, f32[2,64]{1,0}, bf16[2,64,128]{2,1,0}, bf16[2,64,64]{2,1,0}, f32[2,64]{1,0}, /*index=150*/f32[2,64]{1,0}, bf16[2,64,64]{2,1,0}, bf16[2,64,128]{2,1,0}, f32[2,64]{1,0}, f32[2,64]{1,0}, /*index=155*/bf16[2,64,128]{2,1,0}, bf16[2,64,64]{2,1,0}, f32[2,64]{1,0}, f32[2,64]{1,0}, bf16[2,64,64]{2,1,0}, /*index=160*/bf16[2,64,128]{2,1,0}, f32[64]{0}, f32[64]{0}, f32[128]{0}, f32[128]{0}, /*index=165*/bf16[39,64]{1,0}, bf16[64]{0}, bf16[31,64]{1,0}, bf16[31,64]{1,0}, bf16[64]{0}, /*index=170*/bf16[64]{0}, bf16[64]{0}, bf16[64]{0}, bf16[128,64]{1,0}, bf16[139,128]{1,0}, /*index=175*/bf16[150,447]{1,0}, pred[150]{0}, s32[150]{0}, s32[150]{0}, s32[150]{0}, /*index=180*/s32[150]{0}, s32[150]{0}, pred[150,2]{1,0}, s32[150,2]{1,0}, pred[1500,2]{1,0}, /*index=185*/s32[1500,2]{1,0}, s32[4,150]{1,0}, f32[4,150,24,3]{3,2,1,0}, pred[4,150,24]{2,1,0}, pred[16384,150]{1,0}, /*index=190*/s8[16384,150]{1,0}, s8[16384,150]{1,0}) while(while.383), condition=region_154.267, body=region_22.266
  while.385 = s32[] get-tuple-element(while.384), index=0
  while.386 = u32[2]{0} get-tuple-element(while.384), index=1
  while.391 = u32[2]{0} get-tuple-element(while.384), index=6
  while.387 = u32[2]{0} get-tuple-element(while.384), index=2
  jit__threefry_split_.28 = u32[2,2]{1,0} call(while.387), to_apply=_threefry_split.5
  slice.218 = u32[1,2]{1,0} slice(jit__threefry_split_.28), slice={[0:1], [0:2]}
  squeeze.432 = u32[2]{0} reshape(slice.218)
  jit__threefry_split_.29 = u32[1,2]{1,0} call(squeeze.432), to_apply=_threefry_split_100.280
  slice.219 = u32[1,2]{1,0} slice(jit__threefry_split_.28), slice={[1:2], [0:2]}
  squeeze.433 = u32[2]{0} reshape(slice.219)
  jit__normal_.1 = f32[1,150,24,3]{3,2,1,0} call(squeeze.433), to_apply=_normal.275
  constant.1679 = s32[] constant(1)
  jit__linspace_.10 = f32[201]{0} call(constant.1681, constant.1679), to_apply=_linspace_96.268
  constant.1659 = f32[] constant(-1.73775804)
  mul.2532 = f32[201]{0} broadcast(constant.1659), dimensions={}
  mul.2587 = f32[201]{0} multiply(jit__linspace_.10, mul.2532)
  constant.1658 = f32[] constant(2.06478238)
  add.2188 = f32[201]{0} broadcast(constant.1658), dimensions={}
  add.2219 = f32[201]{0} add(mul.2587, add.2188)
  mul.2588 = f32[201]{0} multiply(add.2219, add.2219)
  mul.2589 = f32[201]{0} multiply(add.2219, mul.2588)
  mul.2590 = f32[201]{0} multiply(mul.2588, mul.2588)
  mul.2591 = f32[201]{0} multiply(mul.2589, mul.2590)
  constant.1657 = f32[] constant(16)
  mul.2531 = f32[201]{0} broadcast(constant.1657), dimensions={}
  mul.2592 = f32[201]{0} multiply(mul.2591, mul.2531)
  slice.220 = f32[1]{0} slice(mul.2592), slice={[0:1]}
  squeeze.434 = f32[] reshape(slice.220)
  mul.2593 = f32[1,150,24,3]{3,2,1,0} broadcast(squeeze.434), dimensions={}
  mul.2594 = f32[1,150,24,3]{3,2,1,0} multiply(jit__normal_.1, mul.2593)
  slice.221 = f32[1]{0} slice(mul.2592), slice={[0:1]}
  slice.222 = f32[200]{0} slice(mul.2592), slice={[1:201]}
  reshape.509 = f32[50,4]{1,0} reshape(slice.222)
  while.389 = f32[150,384]{1,0} get-tuple-element(while.384), index=4
  while.388 = f32[150,150,128]{2,1,0} get-tuple-element(while.384), index=3
  pair_cond_initial_norm____scale__.1 = f32[267]{0} parameter(352)
  pair_cond_initial_projection____weights__.1 = f32[267,128]{1,0} parameter(353)
  pair_transition_0ffw_layer_norm____scale__.1 = f32[128]{0} parameter(355)
  pair_transition_0ffw_layer_norm____offset__.1 = f32[128]{0} parameter(354)
  pair_transition_0ffw_transition1____weights__.1 = f32[128,512]{1,0} parameter(356)
  pair_transition_0ffw_transition2____weights__.1 = f32[256,128]{1,0} parameter(357)
  pair_transition_1ffw_layer_norm____scale__.1 = f32[128]{0} parameter(359)
  pair_transition_1ffw_layer_norm____offset__.1 = f32[128]{0} parameter(358)
  pair_transition_1ffw_transition1____weights__.1 = f32[128,512]{1,0} parameter(360)
  pair_transition_1ffw_transition2____weights__.1 = f32[256,128]{1,0} parameter(361)
  while.390 = bf16[150,447]{1,0} get-tuple-element(while.384), index=5
  single_cond_initial_norm____scale__.1 = f32[831]{0} parameter(364)
  single_cond_initial_projection____weights__.1 = f32[831,384]{1,0} parameter(365)
  noise_embedding_initial_norm____scale__.1 = f32[256]{0} parameter(349)
  noise_embedding_initial_projection____weights__.1 = f32[256,384]{1,0} parameter(350)
  single_transition_0ffw_layer_norm____scale__.1 = f32[384]{0} parameter(367)
  single_transition_0ffw_layer_norm____offset__.1 = f32[384]{0} parameter(366)
  single_transition_0ffw_transition1____weights__.1 = f32[384,1536]{1,0} parameter(368)
  single_transition_0ffw_transition2____weights__.1 = f32[768,384]{1,0} parameter(369)
  single_transition_1ffw_layer_norm____scale__.1 = f32[384]{0} parameter(371)
  single_transition_1ffw_layer_norm____offset__.1 = f32[384]{0} parameter(370)
  single_transition_1ffw_transition1____weights__.1 = f32[384,1536]{1,0} parameter(372)
  single_transition_1ffw_transition2____weights__.1 = f32[768,384]{1,0} parameter(373)
  diffusion_embed_ref_pos____weights__.1 = f32[3,128]{1,0} parameter(337)
  diffusion_embed_ref_mask____weights__.1 = f32[1,128]{1,0} parameter(336)
  diffusion_embed_ref_element____weights__.1 = f32[128,128]{1,0} parameter(335)
  diffusion_embed_ref_charge____weights__.1 = f32[1,128]{1,0} parameter(334)
  diffusion_embed_ref_atom_name____weights__.1 = f32[256,128]{1,0} parameter(333)
  diffusion_lnorm_trunk_single_cond____scale__.1 = f32[384]{0} parameter(341)
  diffusion_embed_trunk_single_cond____weights__.1 = f32[384,128]{1,0} parameter(339)
  b__tokens_to_queries_gather_idxs__.1 = s32[113,32]{1,0} parameter(433)
  b__tokens_to_queries_gather_mask__.1 = pred[113,32]{1,0} parameter(434)
  diffusion_atom_positions_to_features____weights__.1 = f32[3,128]{1,0} parameter(277)
  diffusion_single_to_pair_cond_row_1____weights__.1 = f32[128,16]{1,0} parameter(348)
  diffusion_single_to_pair_cond_col_1____weights__.1 = f32[128,16]{1,0} parameter(347)
  diffusion_lnorm_trunk_pair_cond____scale__.1 = f32[128]{0} parameter(340)
  diffusion_embed_trunk_pair_cond____weights__.1 = f32[128,16]{1,0} parameter(338)
  b__tokens_to_keys_gather_idxs__.1 = s32[113,128]{1,0} parameter(427)
  b__tokens_to_keys_gather_mask__.1 = pred[113,128]{1,0} parameter(428)
  diffusion_embed_pair_offsets_1____weights__.1 = f32[3,16]{1,0} parameter(331)
  diffusion_embed_pair_distances_1____weights__.1 = f32[1,16]{1,0} parameter(330)
  diffusion_embed_pair_offsets_valid____weights__.1 = f32[1,16]{1,0} parameter(332)
  diffusion_pair_mlp_1____weights__.1 = f32[16,16]{1,0} parameter(342)
  diffusion_pair_mlp_2____weights__.1 = f32[16,16]{1,0} parameter(343)
  diffusion_pair_mlp_3____weights__.1 = f32[16,16]{1,0} parameter(344)
  pair_input_layer_norm____scale__.6 = f32[16]{0} parameter(328)
  pair_logits_projection____weights__.6 = f32[16,3,4]{2,1,0} parameter(329)
  diffusion_atom_transformer_encoderadaptive_zero_cond____bias__.1 = f32[3,128]{1,0} parameter(304)
  diffusion_atom_transformer_encoderadaptive_zero_cond____weights__.1 = f32[3,128,128]{2,1,0} parameter(305)
  diffusion_atom_transformer_encoderffw_adaptive_zero_cond____bias__.1 = f32[3,128]{1,0} parameter(306)
  diffusion_atom_transformer_encoderffw_adaptive_zero_cond____weights__.1 = f32[3,128,128]{2,1,0} parameter(307)
  diffusion_atom_transformer_encoderffw_single_cond_bias____weights__.1 = f32[3,128,128]{2,1,0} parameter(308)
  diffusion_atom_transformer_encoderffw_single_cond_layer_norm____scale__.1 = f32[3,128]{1,0} parameter(309)
  diffusion_atom_transformer_encoderffw_single_cond_scale____bias__.1 = f32[3,128]{1,0} parameter(310)
  diffusion_atom_transformer_encoderffw_single_cond_scale____weights__.1 = f32[3,128,128]{2,1,0} parameter(311)
  diffusion_atom_transformer_encoderffw_transition1____weights__.1 = f32[3,128,512]{2,1,0} parameter(312)
  diffusion_atom_transformer_encoderffw_transition2____weights__.1 = f32[3,256,128]{2,1,0} parameter(313)
  diffusion_atom_transformer_encodergating_query____weights__.1 = f32[3,128,128]{2,1,0} parameter(314)
  diffusion_atom_transformer_encoderk_projection____weights__.1 = f32[3,128,4,32]{3,2,1,0} parameter(315)
  diffusion_atom_transformer_encoderksingle_cond_bias____weights__.1 = f32[3,128,128]{2,1,0} parameter(316)
  diffusion_atom_transformer_encoderksingle_cond_layer_norm____scale__.1 = f32[3,128]{1,0} parameter(317)
  diffusion_atom_transformer_encoderksingle_cond_scale____bias__.1 = f32[3,128]{1,0} parameter(318)
  diffusion_atom_transformer_encoderksingle_cond_scale____weights__.1 = f32[3,128,128]{2,1,0} parameter(319)
  diffusion_atom_transformer_encoderq_projection____bias__.1 = f32[3,4,32]{2,1,0} parameter(320)
  diffusion_atom_transformer_encoderq_projection____weights__.1 = f32[3,128,4,32]{3,2,1,0} parameter(321)
  diffusion_atom_transformer_encoderqsingle_cond_bias____weights__.1 = f32[3,128,128]{2,1,0} parameter(322)
  diffusion_atom_transformer_encoderqsingle_cond_layer_norm____scale__.1 = f32[3,128]{1,0} parameter(323)
  diffusion_atom_transformer_encoderqsingle_cond_scale____bias__.1 = f32[3,128]{1,0} parameter(324)
  diffusion_atom_transformer_encoderqsingle_cond_scale____weights__.1 = f32[3,128,128]{2,1,0} parameter(325)
  diffusion_atom_transformer_encodertransition2____weights__.1 = f32[3,128,128]{2,1,0} parameter(326)
  diffusion_atom_transformer_encoderv_projection____weights__.1 = f32[3,128,4,32]{3,2,1,0} parameter(327)
  diffusion_project_atom_features_for_aggr____weights__.1 = f32[128,768]{1,0} parameter(345)
  single_cond_embedding_norm____scale__.1 = f32[384]{0} parameter(362)
  single_cond_embedding_projection____weights__.1 = f32[384,768]{1,0} parameter(363)
  pair_input_layer_norm____scale__.7 = f32[128]{0} parameter(395)
  transformeradaptive_zero_cond____bias__.1 = f32[6,4,768]{2,1,0} parameter(374)
  transformeradaptive_zero_cond____weights__.1 = f32[6,4,384,768]{3,2,1,0} parameter(375)
  transformerffw_adaptive_zero_cond____bias__.1 = f32[6,4,768]{2,1,0} parameter(376)
  transformerffw_adaptive_zero_cond____weights__.1 = f32[6,4,384,768]{3,2,1,0} parameter(377)
  transformerffw_single_cond_bias____weights__.1 = f32[6,4,384,768]{3,2,1,0} parameter(378)
  transformerffw_single_cond_layer_norm____scale__.1 = f32[6,4,384]{2,1,0} parameter(379)
  transformerffw_single_cond_scale____bias__.1 = f32[6,4,768]{2,1,0} parameter(380)
  transformerffw_single_cond_scale____weights__.1 = f32[6,4,384,768]{3,2,1,0} parameter(381)
  transformerffw_transition1____weights__.1 = f32[6,4,768,3072]{3,2,1,0} parameter(382)
  transformerffw_transition2____weights__.1 = f32[6,4,1536,768]{3,2,1,0} parameter(383)
  transformergating_query____weights__.1 = f32[6,4,768,768]{3,2,1,0} parameter(384)
  transformerk_projection____weights__.1 = f32[6,4,768,16,48]{4,3,2,1,0} parameter(385)
  transformerq_projection____bias__.1 = f32[6,4,16,48]{3,2,1,0} parameter(386)
  transformerq_projection____weights__.1 = f32[6,4,768,16,48]{4,3,2,1,0} parameter(387)
  transformersingle_cond_bias____weights__.1 = f32[6,4,384,768]{3,2,1,0} parameter(388)
  transformersingle_cond_layer_norm____scale__.1 = f32[6,4,384]{2,1,0} parameter(389)
  transformersingle_cond_scale____bias__.1 = f32[6,4,768]{2,1,0} parameter(390)
  transformersingle_cond_scale____weights__.1 = f32[6,4,384,768]{3,2,1,0} parameter(391)
  transformertransition2____weights__.1 = f32[6,4,768,768]{3,2,1,0} parameter(392)
  transformerv_projection____weights__.1 = f32[6,4,768,16,48]{4,3,2,1,0} parameter(393)
  pair_logits_projection____weights__.7 = f32[6,128,4,16]{3,2,1,0} parameter(394)
  output_norm____scale__.1 = f32[768]{0} parameter(351)
  diffusion_project_token_features_for_broadcast____weights__.1 = f32[768,128]{1,0} parameter(346)
  pair_input_layer_norm____scale__.5 = f32[16]{0} parameter(302)
  pair_logits_projection____weights__.5 = f32[16,3,4]{2,1,0} parameter(303)
  diffusion_atom_transformer_decoderadaptive_zero_cond____bias__.1 = f32[3,128]{1,0} parameter(278)
  diffusion_atom_transformer_decoderadaptive_zero_cond____weights__.1 = f32[3,128,128]{2,1,0} parameter(279)
  diffusion_atom_transformer_decoderffw_adaptive_zero_cond____bias__.1 = f32[3,128]{1,0} parameter(280)
  diffusion_atom_transformer_decoderffw_adaptive_zero_cond____weights__.1 = f32[3,128,128]{2,1,0} parameter(281)
  diffusion_atom_transformer_decoderffw_single_cond_bias____weights__.1 = f32[3,128,128]{2,1,0} parameter(282)
  diffusion_atom_transformer_decoderffw_single_cond_layer_norm____scale__.1 = f32[3,128]{1,0} parameter(283)
  diffusion_atom_transformer_decoderffw_single_cond_scale____bias__.1 = f32[3,128]{1,0} parameter(284)
  diffusion_atom_transformer_decoderffw_single_cond_scale____weights__.1 = f32[3,128,128]{2,1,0} parameter(285)
  diffusion_atom_transformer_decoderffw_transition1____weights__.1 = f32[3,128,512]{2,1,0} parameter(286)
  diffusion_atom_transformer_decoderffw_transition2____weights__.1 = f32[3,256,128]{2,1,0} parameter(287)
  diffusion_atom_transformer_decodergating_query____weights__.1 = f32[3,128,128]{2,1,0} parameter(288)
  diffusion_atom_transformer_decoderk_projection____weights__.1 = f32[3,128,4,32]{3,2,1,0} parameter(289)
  diffusion_atom_transformer_decoderksingle_cond_bias____weights__.1 = f32[3,128,128]{2,1,0} parameter(290)
  diffusion_atom_transformer_decoderksingle_cond_layer_norm____scale__.1 = f32[3,128]{1,0} parameter(291)
  diffusion_atom_transformer_decoderksingle_cond_scale____bias__.1 = f32[3,128]{1,0} parameter(292)
  diffusion_atom_transformer_decoderksingle_cond_scale____weights__.1 = f32[3,128,128]{2,1,0} parameter(293)
  diffusion_atom_transformer_decoderq_projection____bias__.1 = f32[3,4,32]{2,1,0} parameter(294)
  diffusion_atom_transformer_decoderq_projection____weights__.1 = f32[3,128,4,32]{3,2,1,0} parameter(295)
  diffusion_atom_transformer_decoderqsingle_cond_bias____weights__.1 = f32[3,128,128]{2,1,0} parameter(296)
  diffusion_atom_transformer_decoderqsingle_cond_layer_norm____scale__.1 = f32[3,128]{1,0} parameter(297)
  diffusion_atom_transformer_decoderqsingle_cond_scale____bias__.1 = f32[3,128]{1,0} parameter(298)
  diffusion_atom_transformer_decoderqsingle_cond_scale____weights__.1 = f32[3,128,128]{2,1,0} parameter(299)
  diffusion_atom_transformer_decodertransition2____weights__.1 = f32[3,128,128]{2,1,0} parameter(300)
  diffusion_atom_transformer_decoderv_projection____weights__.1 = f32[3,128,4,32]{3,2,1,0} parameter(301)
  diffusion_atom_features_layer_norm____scale__.1 = f32[128]{0} parameter(275)
  diffusion_atom_features_to_position_update____weights__.1 = f32[128,3]{1,0} parameter(276)
  while.392 = (s32[], u32[1,2]{1,0}, f32[1,150,24,3]{3,2,1,0}, f32[1]{0}, f32[50,4]{1,0}, /*index=5*/pred[150,24]{1,0}, f32[150,384]{1,0}, f32[150,150,128]{2,1,0}, s32[150]{0}, s32[150]{0}, /*index=10*/s32[150]{0}, s32[150]{0}, s32[150]{0}, f32[267]{0}, f32[267,128]{1,0}, /*index=15*/f32[128]{0}, f32[128]{0}, f32[128,512]{1,0}, f32[256,128]{1,0}, f32[128]{0}, /*index=20*/f32[128]{0}, f32[128,512]{1,0}, f32[256,128]{1,0}, bf16[150,447]{1,0}, f32[831]{0}, /*index=25*/f32[831,384]{1,0}, f32[256]{0}, f32[256,384]{1,0}, f32[384]{0}, f32[384]{0}, /*index=30*/f32[384,1536]{1,0}, f32[768,384]{1,0}, f32[384]{0}, f32[384]{0}, f32[384,1536]{1,0}, /*index=35*/f32[768,384]{1,0}, f32[150,24,3]{2,1,0}, f32[3,128]{1,0}, pred[150,24]{1,0}, f32[1,128]{1,0}, /*index=40*/s32[150,24]{1,0}, f32[128,128]{1,0}, f32[150,24]{1,0}, f32[1,128]{1,0}, s32[150,24,4]{2,1,0}, /*index=45*/f32[256,128]{1,0}, s32[113,32]{1,0}, pred[113,32]{1,0}, f32[384]{0}, f32[384,128]{1,0}, /*index=50*/s32[113,32]{1,0}, pred[113,32]{1,0}, f32[3,128]{1,0}, s32[113,128]{1,0}, pred[113,128]{1,0}, /*index=55*/f32[128,16]{1,0}, f32[128,16]{1,0}, f32[128]{0}, f32[128,16]{1,0}, s32[113,128]{1,0}, /*index=60*/pred[113,128]{1,0}, s32[150,24]{1,0}, f32[3,16]{1,0}, f32[1,16]{1,0}, f32[1,16]{1,0}, /*index=65*/f32[16,16]{1,0}, f32[16,16]{1,0}, f32[16,16]{1,0}, f32[16]{0}, f32[16,3,4]{2,1,0}, /*index=70*/f32[3,128]{1,0}, f32[3,128,128]{2,1,0}, f32[3,128]{1,0}, f32[3,128,128]{2,1,0}, f32[3,128,128]{2,1,0}, /*index=75*/f32[3,128]{1,0}, f32[3,128]{1,0}, f32[3,128,128]{2,1,0}, f32[3,128,512]{2,1,0}, f32[3,256,128]{2,1,0}, /*index=80*/f32[3,128,128]{2,1,0}, f32[3,128,4,32]{3,2,1,0}, f32[3,128,128]{2,1,0}, f32[3,128]{1,0}, f32[3,128]{1,0}, /*index=85*/f32[3,128,128]{2,1,0}, f32[3,4,32]{2,1,0}, f32[3,128,4,32]{3,2,1,0}, f32[3,128,128]{2,1,0}, f32[3,128]{1,0}, /*index=90*/f32[3,128]{1,0}, f32[3,128,128]{2,1,0}, f32[3,128,128]{2,1,0}, f32[3,128,4,32]{3,2,1,0}, f32[128,768]{1,0}, /*index=95*/s32[150,24]{1,0}, pred[150,24]{1,0}, f32[384]{0}, f32[384,768]{1,0}, pred[150]{0}, /*index=100*/f32[128]{0}, f32[6,4,768]{2,1,0}, f32[6,4,384,768]{3,2,1,0}, f32[6,4,768]{2,1,0}, f32[6,4,384,768]{3,2,1,0}, /*index=105*/f32[6,4,384,768]{3,2,1,0}, f32[6,4,384]{2,1,0}, f32[6,4,768]{2,1,0}, f32[6,4,384,768]{3,2,1,0}, f32[6,4,768,3072]{3,2,1,0}, /*index=110*/f32[6,4,1536,768]{3,2,1,0}, f32[6,4,768,768]{3,2,1,0}, f32[6,4,768,16,48]{4,3,2,1,0}, f32[6,4,16,48]{3,2,1,0}, f32[6,4,768,16,48]{4,3,2,1,0}, /*index=115*/f32[6,4,384,768]{3,2,1,0}, f32[6,4,384]{2,1,0}, f32[6,4,768]{2,1,0}, f32[6,4,384,768]{3,2,1,0}, f32[6,4,768,768]{3,2,1,0}, /*index=120*/f32[6,4,768,16,48]{4,3,2,1,0}, f32[6,128,4,16]{3,2,1,0}, f32[768]{0}, f32[768,128]{1,0}, f32[16]{0}, /*index=125*/f32[16,3,4]{2,1,0}, f32[3,128]{1,0}, f32[3,128,128]{2,1,0}, f32[3,128]{1,0}, f32[3,128,128]{2,1,0}, /*index=130*/f32[3,128,128]{2,1,0}, f32[3,128]{1,0}, f32[3,128]{1,0}, f32[3,128,128]{2,1,0}, f32[3,128,512]{2,1,0}, /*index=135*/f32[3,256,128]{2,1,0}, f32[3,128,128]{2,1,0}, f32[3,128,4,32]{3,2,1,0}, f32[3,128,128]{2,1,0}, f32[3,128]{1,0}, /*index=140*/f32[3,128]{1,0}, f32[3,128,128]{2,1,0}, f32[3,4,32]{2,1,0}, f32[3,128,4,32]{3,2,1,0}, f32[3,128,128]{2,1,0}, /*index=145*/f32[3,128]{1,0}, f32[3,128]{1,0}, f32[3,128,128]{2,1,0}, f32[3,128,128]{2,1,0}, f32[3,128,4,32]{3,2,1,0}, /*index=150*/f32[128]{0}, f32[128,3]{1,0}) tuple(constant.1681, jit__threefry_split_.29, mul.2594, slice.221, reshape.509, b__pred_dense_atom_mask__.1, while.389, while.388, b__asym_id__.1, b__residue_index__.1, b__token_index__.1, b__entity_id__.1, b__sym_id__.1, pair_cond_initial_norm____scale__.1, pair_cond_initial_projection____weights__.1, pair_transition_0ffw_layer_norm____scale__.1, pair_transition_0ffw_layer_norm____offset__.1, pair_transition_0ffw_transition1____weights__.1, pair_transition_0ffw_transition2____weights__.1, pair_transition_1ffw_layer_norm____scale__.1, pair_transition_1ffw_layer_norm____offset__.1, pair_transition_1ffw_transition1____weights__.1, pair_transition_1ffw_transition2____weights__.1, while.390, single_cond_initial_norm____scale__.1, single_cond_initial_projection____weights__.1, noise_embedding_initial_norm____scale__.1, noise_embedding_initial_projection____weights__.1, single_transition_0ffw_layer_norm____scale__.1, single_transition_0ffw_layer_norm____offset__.1, single_transition_0ffw_transition1____weights__.1, single_transition_0ffw_transition2____weights__.1, single_transition_1ffw_layer_norm____scale__.1, single_transition_1ffw_layer_norm____offset__.1, single_transition_1ffw_transition1____weights__.1, single_transition_1ffw_transition2____weights__.1, b__ref_pos__.1, diffusion_embed_ref_pos____weights__.1, b__ref_mask__.1, diffusion_embed_ref_mask____weights__.1, b__ref_element__.1, diffusion_embed_ref_element____weights__.1, b__ref_charge__.1, diffusion_embed_ref_charge____weights__.1, b__ref_atom_name_chars__.1, diffusion_embed_ref_atom_name____weights__.1, b__token_atoms_to_queries_gather_idxs__.1, b__token_atoms_to_queries_gather_mask__.1, diffusion_lnorm_trunk_single_cond____scale__.1, diffusion_embed_trunk_single_cond____weights__.1, b__tokens_to_queries_gather_idxs__.1, b__tokens_to_queries_gather_mask__.1, diffusion_atom_positions_to_features____weights__.1, b__queries_to_keys_gather_idxs__.1, b__queries_to_keys_gather_mask__.1, diffusion_single_to_pair_cond_row_1____weights__.1, diffusion_single_to_pair_cond_col_1____weights__.1, diffusion_lnorm_trunk_pair_cond____scale__.1, diffusion_embed_trunk_pair_cond____weights__.1, b__tokens_to_keys_gather_idxs__.1, b__tokens_to_keys_gather_mask__.1, b__ref_space_uid__.1, diffusion_embed_pair_offsets_1____weights__.1, diffusion_embed_pair_distances_1____weights__.1, diffusion_embed_pair_offsets_valid____weights__.1, diffusion_pair_mlp_1____weights__.1, diffusion_pair_mlp_2____weights__.1, diffusion_pair_mlp_3____weights__.1, pair_input_layer_norm____scale__.6, pair_logits_projection____weights__.6, diffusion_atom_transformer_encoderadaptive_zero_cond____bias__.1, diffusion_atom_transformer_encoderadaptive_zero_cond____weights__.1, diffusion_atom_transformer_encoderffw_adaptive_zero_cond____bias__.1, diffusion_atom_transformer_encoderffw_adaptive_zero_cond____weights__.1, diffusion_atom_transformer_encoderffw_single_cond_bias____weights__.1, diffusion_atom_transformer_encoderffw_single_cond_layer_norm____scale__.1, diffusion_atom_transformer_encoderffw_single_cond_scale____bias__.1, diffusion_atom_transformer_encoderffw_single_cond_scale____weights__.1, diffusion_atom_transformer_encoderffw_transition1____weights__.1, diffusion_atom_transformer_encoderffw_transition2____weights__.1, diffusion_atom_transformer_encodergating_query____weights__.1, diffusion_atom_transformer_encoderk_projection____weights__.1, diffusion_atom_transformer_encoderksingle_cond_bias____weights__.1, diffusion_atom_transformer_encoderksingle_cond_layer_norm____scale__.1, diffusion_atom_transformer_encoderksingle_cond_scale____bias__.1, diffusion_atom_transformer_encoderksingle_cond_scale____weights__.1, diffusion_atom_transformer_encoderq_projection____bias__.1, diffusion_atom_transformer_encoderq_projection____weights__.1, diffusion_atom_transformer_encoderqsingle_cond_bias____weights__.1, diffusion_atom_transformer_encoderqsingle_cond_layer_norm____scale__.1, diffusion_atom_transformer_encoderqsingle_cond_scale____bias__.1, diffusion_atom_transformer_encoderqsingle_cond_scale____weights__.1, diffusion_atom_transformer_encodertransition2____weights__.1, diffusion_atom_transformer_encoderv_projection____weights__.1, diffusion_project_atom_features_for_aggr____weights__.1, b__queries_to_token_atoms_gather_idxs__.1, b__queries_to_token_atoms_gather_mask__.1, single_cond_embedding_norm____scale__.1, single_cond_embedding_projection____weights__.1, b__seq_mask__.1, pair_input_layer_norm____scale__.7, transformeradaptive_zero_cond____bias__.1, transformeradaptive_zero_cond____weights__.1, transformerffw_adaptive_zero_cond____bias__.1, transformerffw_adaptive_zero_cond____weights__.1, transformerffw_single_cond_bias____weights__.1, transformerffw_single_cond_layer_norm____scale__.1, transformerffw_single_cond_scale____bias__.1, transformerffw_single_cond_scale____weights__.1, transformerffw_transition1____weights__.1, transformerffw_transition2____weights__.1, transformergating_query____weights__.1, transformerk_projection____weights__.1, transformerq_projection____bias__.1, transformerq_projection____weights__.1, transformersingle_cond_bias____weights__.1, transformersingle_cond_layer_norm____scale__.1, transformersingle_cond_scale____bias__.1, transformersingle_cond_scale____weights__.1, transformertransition2____weights__.1, transformerv_projection____weights__.1, pair_logits_projection____weights__.7, output_norm____scale__.1, diffusion_project_token_features_for_broadcast____weights__.1, pair_input_layer_norm____scale__.5, pair_logits_projection____weights__.5, diffusion_atom_transformer_decoderadaptive_zero_cond____bias__.1, diffusion_atom_transformer_decoderadaptive_zero_cond____weights__.1, diffusion_atom_transformer_decoderffw_adaptive_zero_cond____bias__.1, diffusion_atom_transformer_decoderffw_adaptive_zero_cond____weights__.1, diffusion_atom_transformer_decoderffw_single_cond_bias____weights__.1, diffusion_atom_transformer_decoderffw_single_cond_layer_norm____scale__.1, diffusion_atom_transformer_decoderffw_single_cond_scale____bias__.1, diffusion_atom_transformer_decoderffw_single_cond_scale____weights__.1, diffusion_atom_transformer_decoderffw_transition1____weights__.1, diffusion_atom_transformer_decoderffw_transition2____weights__.1, diffusion_atom_transformer_decodergating_query____weights__.1, diffusion_atom_transformer_decoderk_projection____weights__.1, diffusion_atom_transformer_decoderksingle_cond_bias____weights__.1, diffusion_atom_transformer_decoderksingle_cond_layer_norm____scale__.1, diffusion_atom_transformer_decoderksingle_cond_scale____bias__.1, diffusion_atom_transformer_decoderksingle_cond_scale____weights__.1, diffusion_atom_transformer_decoderq_projection____bias__.1, diffusion_atom_transformer_decoderq_projection____weights__.1, diffusion_atom_transformer_decoderqsingle_cond_bias____weights__.1, diffusion_atom_transformer_decoderqsingle_cond_layer_norm____scale__.1, diffusion_atom_transformer_decoderqsingle_cond_scale____bias__.1, diffusion_atom_transformer_decoderqsingle_cond_scale____weights__.1, diffusion_atom_transformer_decodertransition2____weights__.1, diffusion_atom_transformer_decoderv_projection____weights__.1, diffusion_atom_features_layer_norm____scale__.1, diffusion_atom_features_to_position_update____weights__.1)
  while.393 = (s32[], u32[1,2]{1,0}, f32[1,150,24,3]{3,2,1,0}, f32[1]{0}, f32[50,4]{1,0}, /*index=5*/pred[150,24]{1,0}, f32[150,384]{1,0}, f32[150,150,128]{2,1,0}, s32[150]{0}, s32[150]{0}, /*index=10*/s32[150]{0}, s32[150]{0}, s32[150]{0}, f32[267]{0}, f32[267,128]{1,0}, /*index=15*/f32[128]{0}, f32[128]{0}, f32[128,512]{1,0}, f32[256,128]{1,0}, f32[128]{0}, /*index=20*/f32[128]{0}, f32[128,512]{1,0}, f32[256,128]{1,0}, bf16[150,447]{1,0}, f32[831]{0}, /*index=25*/f32[831,384]{1,0}, f32[256]{0}, f32[256,384]{1,0}, f32[384]{0}, f32[384]{0}, /*index=30*/f32[384,1536]{1,0}, f32[768,384]{1,0}, f32[384]{0}, f32[384]{0}, f32[384,1536]{1,0}, /*index=35*/f32[768,384]{1,0}, f32[150,24,3]{2,1,0}, f32[3,128]{1,0}, pred[150,24]{1,0}, f32[1,128]{1,0}, /*index=40*/s32[150,24]{1,0}, f32[128,128]{1,0}, f32[150,24]{1,0}, f32[1,128]{1,0}, s32[150,24,4]{2,1,0}, /*index=45*/f32[256,128]{1,0}, s32[113,32]{1,0}, pred[113,32]{1,0}, f32[384]{0}, f32[384,128]{1,0}, /*index=50*/s32[113,32]{1,0}, pred[113,32]{1,0}, f32[3,128]{1,0}, s32[113,128]{1,0}, pred[113,128]{1,0}, /*index=55*/f32[128,16]{1,0}, f32[128,16]{1,0}, f32[128]{0}, f32[128,16]{1,0}, s32[113,128]{1,0}, /*index=60*/pred[113,128]{1,0}, s32[150,24]{1,0}, f32[3,16]{1,0}, f32[1,16]{1,0}, f32[1,16]{1,0}, /*index=65*/f32[16,16]{1,0}, f32[16,16]{1,0}, f32[16,16]{1,0}, f32[16]{0}, f32[16,3,4]{2,1,0}, /*index=70*/f32[3,128]{1,0}, f32[3,128,128]{2,1,0}, f32[3,128]{1,0}, f32[3,128,128]{2,1,0}, f32[3,128,128]{2,1,0}, /*index=75*/f32[3,128]{1,0}, f32[3,128]{1,0}, f32[3,128,128]{2,1,0}, f32[3,128,512]{2,1,0}, f32[3,256,128]{2,1,0}, /*index=80*/f32[3,128,128]{2,1,0}, f32[3,128,4,32]{3,2,1,0}, f32[3,128,128]{2,1,0}, f32[3,128]{1,0}, f32[3,128]{1,0}, /*index=85*/f32[3,128,128]{2,1,0}, f32[3,4,32]{2,1,0}, f32[3,128,4,32]{3,2,1,0}, f32[3,128,128]{2,1,0}, f32[3,128]{1,0}, /*index=90*/f32[3,128]{1,0}, f32[3,128,128]{2,1,0}, f32[3,128,128]{2,1,0}, f32[3,128,4,32]{3,2,1,0}, f32[128,768]{1,0}, /*index=95*/s32[150,24]{1,0}, pred[150,24]{1,0}, f32[384]{0}, f32[384,768]{1,0}, pred[150]{0}, /*index=100*/f32[128]{0}, f32[6,4,768]{2,1,0}, f32[6,4,384,768]{3,2,1,0}, f32[6,4,768]{2,1,0}, f32[6,4,384,768]{3,2,1,0}, /*index=105*/f32[6,4,384,768]{3,2,1,0}, f32[6,4,384]{2,1,0}, f32[6,4,768]{2,1,0}, f32[6,4,384,768]{3,2,1,0}, f32[6,4,768,3072]{3,2,1,0}, /*index=110*/f32[6,4,1536,768]{3,2,1,0}, f32[6,4,768,768]{3,2,1,0}, f32[6,4,768,16,48]{4,3,2,1,0}, f32[6,4,16,48]{3,2,1,0}, f32[6,4,768,16,48]{4,3,2,1,0}, /*index=115*/f32[6,4,384,768]{3,2,1,0}, f32[6,4,384]{2,1,0}, f32[6,4,768]{2,1,0}, f32[6,4,384,768]{3,2,1,0}, f32[6,4,768,768]{3,2,1,0}, /*index=120*/f32[6,4,768,16,48]{4,3,2,1,0}, f32[6,128,4,16]{3,2,1,0}, f32[768]{0}, f32[768,128]{1,0}, f32[16]{0}, /*index=125*/f32[16,3,4]{2,1,0}, f32[3,128]{1,0}, f32[3,128,128]{2,1,0}, f32[3,128]{1,0}, f32[3,128,128]{2,1,0}, /*index=130*/f32[3,128,128]{2,1,0}, f32[3,128]{1,0}, f32[3,128]{1,0}, f32[3,128,128]{2,1,0}, f32[3,128,512]{2,1,0}, /*index=135*/f32[3,256,128]{2,1,0}, f32[3,128,128]{2,1,0}, f32[3,128,4,32]{3,2,1,0}, f32[3,128,128]{2,1,0}, f32[3,128]{1,0}, /*index=140*/f32[3,128]{1,0}, f32[3,128,128]{2,1,0}, f32[3,4,32]{2,1,0}, f32[3,128,4,32]{3,2,1,0}, f32[3,128,128]{2,1,0}, /*index=145*/f32[3,128]{1,0}, f32[3,128]{1,0}, f32[3,128,128]{2,1,0}, f32[3,128,128]{2,1,0}, f32[3,128,4,32]{3,2,1,0}, /*index=150*/f32[128]{0}, f32[128,3]{1,0}) while(while.392), condition=region_249.454, body=region_159.453
  while.394 = s32[] get-tuple-element(while.393), index=0
  while.395 = u32[1,2]{1,0} get-tuple-element(while.393), index=1
  while.397 = f32[1]{0} get-tuple-element(while.393), index=3
  constant.1656 = f32[1]{0} constant({0})
  constant.1655 = f32[] constant(0)
  broadcast.410 = f32[1,150,150]{2,1,0} broadcast(constant.1655), dimensions={}
  constant.1654 = f32[] constant(0)
  broadcast.409 = f32[1,150,24]{2,1,0} broadcast(constant.1654), dimensions={}
  while.396 = f32[1,150,24,3]{3,2,1,0} get-tuple-element(while.393), index=2
  left_target_feat_project____weights__.1 = bf16[447,128]{1,0} parameter(64)
  right_target_feat_project____weights__.1 = bf16[447,128]{1,0} parameter(65)
  b__token_atoms_to_pseudo_beta_gather_idxs__.1 = s32[150]{0} parameter(422)
  b__token_atoms_to_pseudo_beta_gather_mask__.1 = pred[150]{0} parameter(423)
  distogram_feat_project____weights__.1 = bf16[39,128]{1,0} parameter(63)
  act_norm____offset__.9 = f32[4,128]{1,0} parameter(0)
  act_norm____scale__.9 = f32[4,128]{1,0} parameter(1)
  gating_query____weights__.9 = bf16[4,128,128]{2,1,0} parameter(2)
  k_projection____weights__.8 = bf16[4,4,32,128]{3,2,1,0} parameter(3)
  output_projection____weights__.17 = bf16[4,128,128]{2,1,0} parameter(4)
  pair_bias_projection____weights__.8 = bf16[4,128,4]{2,1,0} parameter(5)
  q_projection____weights__.8 = bf16[4,4,32,128]{3,2,1,0} parameter(6)
  v_projection____weights__.9 = bf16[4,128,4,32]{3,2,1,0} parameter(7)
  act_norm____offset__.10 = f32[4,128]{1,0} parameter(8)
  act_norm____scale__.10 = f32[4,128]{1,0} parameter(9)
  gating_query____weights__.10 = bf16[4,128,128]{2,1,0} parameter(10)
  k_projection____weights__.9 = bf16[4,4,32,128]{3,2,1,0} parameter(11)
  output_projection____weights__.18 = bf16[4,128,128]{2,1,0} parameter(12)
  pair_bias_projection____weights__.9 = bf16[4,128,4]{2,1,0} parameter(13)
  q_projection____weights__.9 = bf16[4,4,32,128]{3,2,1,0} parameter(14)
  v_projection____weights__.10 = bf16[4,128,4,32]{3,2,1,0} parameter(15)
  input_layer_norm____offset__.7 = f32[4,128]{1,0} parameter(16)
  input_layer_norm____scale__.7 = f32[4,128]{1,0} parameter(17)
  transition1____weights__.7 = bf16[4,128,1024]{2,1,0} parameter(18)
  transition2____weights__.7 = bf16[4,512,128]{2,1,0} parameter(19)
  single_attention_gating_query____weights__.2 = bf16[4,384,384]{2,1,0} parameter(20)
  single_attention_k_projection____weights__.2 = bf16[4,384,16,24]{3,2,1,0} parameter(21)
  single_attention_layer_norm____offset__.2 = f32[4,384]{1,0} parameter(22)
  single_attention_layer_norm____scale__.2 = f32[4,384]{1,0} parameter(23)
  single_attention_q_projection____bias__.2 = bf16[4,16,24]{2,1,0} parameter(24)
  single_attention_q_projection____weights__.2 = bf16[4,384,16,24]{3,2,1,0} parameter(25)
  single_attention_transition2____weights__.2 = bf16[4,384,384]{2,1,0} parameter(26)
  single_attention_v_projection____weights__.2 = bf16[4,384,16,24]{3,2,1,0} parameter(27)
  single_pair_logits_norm____offset__.2 = f32[4,128]{1,0} parameter(28)
  single_pair_logits_norm____scale__.2 = f32[4,128]{1,0} parameter(29)
  single_pair_logits_projection____weights__.2 = bf16[4,128,16]{2,1,0} parameter(30)
  input_layer_norm____offset__.8 = f32[4,384]{1,0} parameter(31)
  input_layer_norm____scale__.8 = f32[4,384]{1,0} parameter(32)
  transition1____weights__.8 = bf16[4,384,3072]{2,1,0} parameter(33)
  transition2____weights__.8 = bf16[4,1536,384]{2,1,0} parameter(34)
  center_norm____offset__.8 = f32[4,128]{1,0} parameter(35)
  center_norm____scale__.8 = f32[4,128]{1,0} parameter(36)
  gate____weights__.8 = bf16[4,128,256]{2,1,0} parameter(37)
  gating_linear____weights__.8 = bf16[4,128,128]{2,1,0} parameter(38)
  left_norm_input____offset__.8 = f32[4,128]{1,0} parameter(39)
  left_norm_input____scale__.8 = f32[4,128]{1,0} parameter(40)
  output_projection____weights__.19 = bf16[4,128,128]{2,1,0} parameter(41)
  projection____weights__.8 = bf16[4,128,256]{2,1,0} parameter(42)
  center_norm____offset__.9 = f32[4,128]{1,0} parameter(43)
  center_norm____scale__.9 = f32[4,128]{1,0} parameter(44)
  gate____weights__.9 = bf16[4,128,256]{2,1,0} parameter(45)
  gating_linear____weights__.9 = bf16[4,128,128]{2,1,0} parameter(46)
  left_norm_input____offset__.9 = f32[4,128]{1,0} parameter(47)
  left_norm_input____scale__.9 = f32[4,128]{1,0} parameter(48)
  output_projection____weights__.20 = bf16[4,128,128]{2,1,0} parameter(49)
  projection____weights__.9 = bf16[4,128,256]{2,1,0} parameter(50)
  logits_ln____scale__.1 = f32[128]{0} parameter(56)
  logits_ln____offset__.1 = f32[128]{0} parameter(55)
  left_half_distance_logits____weights__.1 = f32[128,64]{1,0} parameter(54)
  pae_logits_ln____scale__.1 = f32[128]{0} parameter(59)
  pae_logits_ln____offset__.1 = f32[128]{0} parameter(58)
  pae_logits____weights__.1 = f32[128,64]{1,0} parameter(57)
  plddt_logits_ln____scale__.1 = f32[384]{0} parameter(62)
  plddt_logits_ln____offset__.1 = f32[384]{0} parameter(61)
  plddt_logits____weights__.1 = f32[384,24,50]{2,1,0} parameter(60)
  experimentally_resolved_ln____scale__.1 = f32[384]{0} parameter(52)
  experimentally_resolved_ln____offset__.1 = f32[384]{0} parameter(51)
  experimentally_resolved_logits____weights__.1 = f32[384,24,2]{2,1,0} parameter(53)
  while.398 = (s32[], f32[1]{0}, f32[1,150,150]{2,1,0}, f32[1,150,150]{2,1,0}, f32[1,150,24]{2,1,0}, /*index=5*/f32[1,150,24]{2,1,0}, f32[1,150,150]{2,1,0}, f32[1,150,150]{2,1,0}, f32[1,150,24,3]{3,2,1,0}, pred[150]{0}, /*index=10*/f32[150,150,128]{2,1,0}, f32[150,384]{1,0}, bf16[150,447]{1,0}, bf16[447,128]{1,0}, bf16[447,128]{1,0}, /*index=15*/s32[150]{0}, pred[150]{0}, bf16[39,128]{1,0}, f32[4,128]{1,0}, f32[4,128]{1,0}, /*index=20*/bf16[4,128,128]{2,1,0}, bf16[4,4,32,128]{3,2,1,0}, bf16[4,128,128]{2,1,0}, bf16[4,128,4]{2,1,0}, bf16[4,4,32,128]{3,2,1,0}, /*index=25*/bf16[4,128,4,32]{3,2,1,0}, f32[4,128]{1,0}, f32[4,128]{1,0}, bf16[4,128,128]{2,1,0}, bf16[4,4,32,128]{3,2,1,0}, /*index=30*/bf16[4,128,128]{2,1,0}, bf16[4,128,4]{2,1,0}, bf16[4,4,32,128]{3,2,1,0}, bf16[4,128,4,32]{3,2,1,0}, f32[4,128]{1,0}, /*index=35*/f32[4,128]{1,0}, bf16[4,128,1024]{2,1,0}, bf16[4,512,128]{2,1,0}, bf16[4,384,384]{2,1,0}, bf16[4,384,16,24]{3,2,1,0}, /*index=40*/f32[4,384]{1,0}, f32[4,384]{1,0}, bf16[4,16,24]{2,1,0}, bf16[4,384,16,24]{3,2,1,0}, bf16[4,384,384]{2,1,0}, /*index=45*/bf16[4,384,16,24]{3,2,1,0}, f32[4,128]{1,0}, f32[4,128]{1,0}, bf16[4,128,16]{2,1,0}, f32[4,384]{1,0}, /*index=50*/f32[4,384]{1,0}, bf16[4,384,3072]{2,1,0}, bf16[4,1536,384]{2,1,0}, f32[4,128]{1,0}, f32[4,128]{1,0}, /*index=55*/bf16[4,128,256]{2,1,0}, bf16[4,128,128]{2,1,0}, f32[4,128]{1,0}, f32[4,128]{1,0}, bf16[4,128,128]{2,1,0}, /*index=60*/bf16[4,128,256]{2,1,0}, f32[4,128]{1,0}, f32[4,128]{1,0}, bf16[4,128,256]{2,1,0}, bf16[4,128,128]{2,1,0}, /*index=65*/f32[4,128]{1,0}, f32[4,128]{1,0}, bf16[4,128,128]{2,1,0}, bf16[4,128,256]{2,1,0}, f32[128]{0}, /*index=70*/f32[128]{0}, f32[128,64]{1,0}, f32[128]{0}, f32[128]{0}, f32[128,64]{1,0}, /*index=75*/s32[150]{0}, f32[384]{0}, f32[384]{0}, f32[384,24,50]{2,1,0}, f32[384]{0}, /*index=80*/f32[384]{0}, f32[384,24,2]{2,1,0}) tuple(constant.1681, constant.1656, broadcast.410, broadcast.410, broadcast.409, broadcast.409, broadcast.410, broadcast.410, while.396, b__seq_mask__.1, while.388, while.389, while.390, left_target_feat_project____weights__.1, right_target_feat_project____weights__.1, b__token_atoms_to_pseudo_beta_gather_idxs__.1, b__token_atoms_to_pseudo_beta_gather_mask__.1, distogram_feat_project____weights__.1, act_norm____offset__.9, act_norm____scale__.9, gating_query____weights__.9, k_projection____weights__.8, output_projection____weights__.17, pair_bias_projection____weights__.8, q_projection____weights__.8, v_projection____weights__.9, act_norm____offset__.10, act_norm____scale__.10, gating_query____weights__.10, k_projection____weights__.9, output_projection____weights__.18, pair_bias_projection____weights__.9, q_projection____weights__.9, v_projection____weights__.10, input_layer_norm____offset__.7, input_layer_norm____scale__.7, transition1____weights__.7, transition2____weights__.7, single_attention_gating_query____weights__.2, single_attention_k_projection____weights__.2, single_attention_layer_norm____offset__.2, single_attention_layer_norm____scale__.2, single_attention_q_projection____bias__.2, single_attention_q_projection____weights__.2, single_attention_transition2____weights__.2, single_attention_v_projection____weights__.2, single_pair_logits_norm____offset__.2, single_pair_logits_norm____scale__.2, single_pair_logits_projection____weights__.2, input_layer_norm____offset__.8, input_layer_norm____scale__.8, transition1____weights__.8, transition2____weights__.8, center_norm____offset__.8, center_norm____scale__.8, gate____weights__.8, gating_linear____weights__.8, left_norm_input____offset__.8, left_norm_input____scale__.8, output_projection____weights__.19, projection____weights__.8, center_norm____offset__.9, center_norm____scale__.9, gate____weights__.9, gating_linear____weights__.9, left_norm_input____offset__.9, left_norm_input____scale__.9, output_projection____weights__.20, projection____weights__.9, logits_ln____scale__.1, logits_ln____offset__.1, left_half_distance_logits____weights__.1, pae_logits_ln____scale__.1, pae_logits_ln____offset__.1, pae_logits____weights__.1, b__asym_id__.1, plddt_logits_ln____scale__.1, plddt_logits_ln____offset__.1, plddt_logits____weights__.1, experimentally_resolved_ln____scale__.1, experimentally_resolved_ln____offset__.1, experimentally_resolved_logits____weights__.1)
  while.399 = (s32[], f32[1]{0}, f32[1,150,150]{2,1,0}, f32[1,150,150]{2,1,0}, f32[1,150,24]{2,1,0}, /*index=5*/f32[1,150,24]{2,1,0}, f32[1,150,150]{2,1,0}, f32[1,150,150]{2,1,0}, f32[1,150,24,3]{3,2,1,0}, pred[150]{0}, /*index=10*/f32[150,150,128]{2,1,0}, f32[150,384]{1,0}, bf16[150,447]{1,0}, bf16[447,128]{1,0}, bf16[447,128]{1,0}, /*index=15*/s32[150]{0}, pred[150]{0}, bf16[39,128]{1,0}, f32[4,128]{1,0}, f32[4,128]{1,0}, /*index=20*/bf16[4,128,128]{2,1,0}, bf16[4,4,32,128]{3,2,1,0}, bf16[4,128,128]{2,1,0}, bf16[4,128,4]{2,1,0}, bf16[4,4,32,128]{3,2,1,0}, /*index=25*/bf16[4,128,4,32]{3,2,1,0}, f32[4,128]{1,0}, f32[4,128]{1,0}, bf16[4,128,128]{2,1,0}, bf16[4,4,32,128]{3,2,1,0}, /*index=30*/bf16[4,128,128]{2,1,0}, bf16[4,128,4]{2,1,0}, bf16[4,4,32,128]{3,2,1,0}, bf16[4,128,4,32]{3,2,1,0}, f32[4,128]{1,0}, /*index=35*/f32[4,128]{1,0}, bf16[4,128,1024]{2,1,0}, bf16[4,512,128]{2,1,0}, bf16[4,384,384]{2,1,0}, bf16[4,384,16,24]{3,2,1,0}, /*index=40*/f32[4,384]{1,0}, f32[4,384]{1,0}, bf16[4,16,24]{2,1,0}, bf16[4,384,16,24]{3,2,1,0}, bf16[4,384,384]{2,1,0}, /*index=45*/bf16[4,384,16,24]{3,2,1,0}, f32[4,128]{1,0}, f32[4,128]{1,0}, bf16[4,128,16]{2,1,0}, f32[4,384]{1,0}, /*index=50*/f32[4,384]{1,0}, bf16[4,384,3072]{2,1,0}, bf16[4,1536,384]{2,1,0}, f32[4,128]{1,0}, f32[4,128]{1,0}, /*index=55*/bf16[4,128,256]{2,1,0}, bf16[4,128,128]{2,1,0}, f32[4,128]{1,0}, f32[4,128]{1,0}, bf16[4,128,128]{2,1,0}, /*index=60*/bf16[4,128,256]{2,1,0}, f32[4,128]{1,0}, f32[4,128]{1,0}, bf16[4,128,256]{2,1,0}, bf16[4,128,128]{2,1,0}, /*index=65*/f32[4,128]{1,0}, f32[4,128]{1,0}, bf16[4,128,128]{2,1,0}, bf16[4,128,256]{2,1,0}, f32[128]{0}, /*index=70*/f32[128]{0}, f32[128,64]{1,0}, f32[128]{0}, f32[128]{0}, f32[128,64]{1,0}, /*index=75*/s32[150]{0}, f32[384]{0}, f32[384]{0}, f32[384,24,50]{2,1,0}, f32[384]{0}, /*index=80*/f32[384]{0}, f32[384,24,2]{2,1,0}) while(while.398), condition=region_316.538, body=region_250.537
  while.400 = s32[] get-tuple-element(while.399), index=0
  while.401 = f32[1]{0} get-tuple-element(while.399), index=1
  broadcast_in_dim.1271 = pred[1,150,24]{2,1,0} reshape(b__pred_dense_atom_mask__.1)
  constant.1677 = f32[] constant(2.3125)
  constant.1676 = f32[] constant(21.6875)
  jit__linspace_.11 = f32[63]{0} call(constant.1677, constant.1676), to_apply=_linspace_200.541
  broadcast_in_dim.1272 = pred[150,1]{1,0} reshape(b__seq_mask__.1)
  and.77 = pred[150,1]{1,0} broadcast(broadcast_in_dim.1272), dimensions={0,1}
  and.78 = pred[150]{0} reshape(and.77)
  and.79 = pred[150,150]{1,0} broadcast(and.78), dimensions={0}
  broadcast_in_dim.1273 = pred[1,150]{1,0} reshape(b__seq_mask__.1)
  and.80 = pred[1,150]{1,0} broadcast(broadcast_in_dim.1273), dimensions={0,1}
  and.81 = pred[150]{0} reshape(and.80)
  and.82 = pred[150,150]{1,0} broadcast(and.81), dimensions={1}
  and.83 = pred[150,150]{1,0} and(and.79, and.82)
  convert_element_type.649 = f32[150,150]{1,0} convert(and.83)
  half_logits____weights__.1 = f32[128,64]{1,0} parameter(66)
  dot_general.666 = f32[150,150,64]{2,1,0} dot(while.388, half_logits____weights__.1), lhs_contracting_dims={2}, rhs_contracting_dims={0}
  transpose.149 = f32[150,150,64]{2,0,1} transpose(dot_general.666), dimensions={1,0,2}
  add.2220 = f32[150,150,64]{2,1,0} add(dot_general.666, transpose.149)
  constant.1678 = f32[] constant(-inf)
  reduce_max.231 = f32[150,150]{1,0} reduce(add.2220, constant.1678), dimensions={2}, to_apply=region_317.539
  constant.1653 = f32[] constant(-inf)
  max.150 = f32[150,150]{1,0} broadcast(constant.1653), dimensions={}
  max.153 = f32[150,150]{1,0} maximum(reduce_max.231, max.150)
  broadcast_in_dim.1274 = f32[150,150,1]{2,1,0} reshape(max.153)
  sub.1539 = f32[150,150,1]{2,1,0} broadcast(broadcast_in_dim.1274), dimensions={0,1,2}
  sub.1540 = f32[150,150]{1,0} reshape(sub.1539)
  sub.1541 = f32[150,150,64]{2,1,0} broadcast(sub.1540), dimensions={0,1}
  sub.1542 = f32[150,150,64]{2,1,0} subtract(add.2220, sub.1541)
  exp.191 = f32[150,150,64]{2,1,0} exponential(sub.1542)
  reduce_sum.1719 = f32[150,150]{1,0} reduce(exp.191, constant.1680), dimensions={2}, to_apply=region_318.540
  broadcast_in_dim.1275 = f32[150,150,1]{2,1,0} reshape(reduce_sum.1719)
  div.946 = f32[150,150,1]{2,1,0} broadcast(broadcast_in_dim.1275), dimensions={0,1,2}
  div.947 = f32[150,150]{1,0} reshape(div.946)
  div.948 = f32[150,150,64]{2,1,0} broadcast(div.947), dimensions={0,1}
  div.949 = f32[150,150,64]{2,1,0} divide(exp.191, div.948)
  slice.223 = f32[1]{0} slice(jit__linspace_.11), slice={[62:63]}
  squeeze.435 = f32[] reshape(slice.223)
  slice.224 = f32[1]{0} slice(jit__linspace_.11), slice={[62:63]}
  squeeze.436 = f32[] reshape(slice.224)
  slice.225 = f32[1]{0} slice(jit__linspace_.11), slice={[61:62]}
  squeeze.437 = f32[] reshape(slice.225)
  sub.1543 = f32[] subtract(squeeze.436, squeeze.437)
  add.2221 = f32[] add(squeeze.435, sub.1543)
  jit_append_.1 = f32[64]{0} call(jit__linspace_.11, add.2221), to_apply=append.542
  constant.1652 = f32[] constant(8.001)
  le.18 = f32[64]{0} broadcast(constant.1652), dimensions={}
  le.19 = pred[64]{0} compare(jit_append_.1, le.18), direction=LE
  convert_element_type.648 = f32[64]{0} convert(le.19)
  dot_general.667 = f32[150,150]{1,0} dot(div.949, convert_element_type.648), lhs_contracting_dims={2}, rhs_contracting_dims={0}, operand_precision={highest,highest}
  mul.2595 = f32[150,150]{1,0} multiply(convert_element_type.649, dot_general.667)
  while.402 = f32[1,150,150]{2,1,0} get-tuple-element(while.399), index=2
  while.403 = f32[1,150,150]{2,1,0} get-tuple-element(while.399), index=3
  while.404 = f32[1,150,24]{2,1,0} get-tuple-element(while.399), index=4
  while.405 = f32[1,150,24]{2,1,0} get-tuple-element(while.399), index=5
  while.406 = f32[1,150,150]{2,1,0} get-tuple-element(while.399), index=6
  while.407 = f32[1,150,150]{2,1,0} get-tuple-element(while.399), index=7
  ROOT tuple.113 = (f32[1]{0}, f32[1,150,24,3]{3,2,1,0}, pred[1,150,24]{2,1,0}, f32[63]{0}, f32[150,150]{1,0}, /*index=5*/f32[1,150,150]{2,1,0}, f32[1,150,150]{2,1,0}, f32[1,150,24]{2,1,0}, f32[1,150,24]{2,1,0}, f32[1,150,150]{2,1,0}, /*index=10*/f32[1,150,150]{2,1,0}) tuple(while.401, while.396, broadcast_in_dim.1271, jit__linspace_.11, mul.2595, while.402, while.403, while.404, while.405, while.406, while.407)
}

