HloModule jit_predict_step, entry_computation_layout={(f32[10]{0}, f32[512,10]{1,0}, f32[64]{0}, f32[64]{0}, f32[64]{0}, /*index=5*/f32[64]{0}, f32[3,3,64,64]{3,2,1,0}, f32[3,3,64,64]{3,2,1,0}, f32[64]{0}, f32[64]{0}, /*index=10*/f32[64]{0}, f32[64]{0}, f32[3,3,64,64]{3,2,1,0}, f32[3,3,64,64]{3,2,1,0}, f32[128]{0}, /*index=15*/f32[128]{0}, f32[128]{0}, f32[128]{0}, f32[3,3,64,128]{3,2,1,0}, f32[3,3,128,128]{3,2,1,0}, /*index=20*/f32[1,1,64,128]{3,2,1,0}, f32[128]{0}, f32[128]{0}, f32[128]{0}, f32[128]{0}, /*index=25*/f32[128]{0}, f32[128]{0}, f32[3,3,128,128]{3,2,1,0}, f32[3,3,128,128]{3,2,1,0}, f32[256]{0}, /*index=30*/f32[256]{0}, f32[256]{0}, f32[256]{0}, f32[3,3,128,256]{3,2,1,0}, f32[3,3,256,256]{3,2,1,0}, /*index=35*/f32[1,1,128,256]{3,2,1,0}, f32[256]{0}, f32[256]{0}, f32[256]{0}, f32[256]{0}, /*index=40*/f32[256]{0}, f32[256]{0}, f32[3,3,256,256]{3,2,1,0}, f32[3,3,256,256]{3,2,1,0}, f32[512]{0}, /*index=45*/f32[512]{0}, f32[512]{0}, f32[512]{0}, f32[3,3,256,512]{3,2,1,0}, f32[3,3,512,512]{3,2,1,0}, /*index=50*/f32[1,1,256,512]{3,2,1,0}, f32[512]{0}, f32[512]{0}, f32[512]{0}, f32[512]{0}, /*index=55*/f32[512]{0}, f32[512]{0}, f32[3,3,512,512]{3,2,1,0}, f32[3,3,512,512]{3,2,1,0}, f32[64]{0}, /*index=60*/f32[64]{0}, f32[7,7,3,64]{3,2,1,0}, f32[64]{0}, f32[64]{0}, f32[64]{0}, /*index=65*/f32[64]{0}, f32[64]{0}, f32[64]{0}, f32[64]{0}, f32[64]{0}, /*index=70*/f32[128]{0}, f32[128]{0}, f32[128]{0}, f32[128]{0}, f32[128]{0}, /*index=75*/f32[128]{0}, f32[128]{0}, f32[128]{0}, f32[128]{0}, f32[128]{0}, /*index=80*/f32[256]{0}, f32[256]{0}, f32[256]{0}, f32[256]{0}, f32[256]{0}, /*index=85*/f32[256]{0}, f32[256]{0}, f32[256]{0}, f32[256]{0}, f32[256]{0}, /*index=90*/f32[512]{0}, f32[512]{0}, f32[512]{0}, f32[512]{0}, f32[512]{0}, /*index=95*/f32[512]{0}, f32[512]{0}, f32[512]{0}, f32[512]{0}, f32[512]{0}, /*index=100*/f32[64]{0}, f32[64]{0}, f32[32,224,224,3]{3,2,1,0})->f32[32,10]{1,0}}, allow_spmd_sharding_propagation_to_parameters={true,true,true,true,true,true,true,true,true,true,true,true,true,true,true,true,true,true,true,true,true,true,true,true,true,true,true,true,true,true,true,true,true,true,true,true,true,true,true,true,true,true,true,true,true,true,true,true,true,true,true,true,true,true,true,true,true,true,true,true,true,true,true,true,true,true,true,true,true,true,true,true,true,true,true,true,true,true,true,true,true,true,true,true,true,true,true,true,true,true,true,true,true,true,true,true,true,true,true,true,true,true,true}, allow_spmd_sharding_propagation_to_output={true}

FileNames
1 "/root/hlo_dump/imagenette_infer.py"
2 "/root/hlo_dump/resnet_model.py"
3 "/usr/local/lib/python3.12/dist-packages/flax/linen/pooling.py"
4 "/usr/local/lib/python3.12/dist-packages/flax/linen/linear.py"
5 "/usr/local/lib/python3.12/dist-packages/flax/linen/normalization.py"

FunctionNames
1 "<module>"
2 "main"
3 "main.<locals>.predict_step"
4 "ResNet.__call__"
5 "max_pool"
6 "pool"
7 "_Conv.__call__"
8 "BatchNorm.__call__"
9 "_normalize"
10 "ResNetBlock.__call__"
11 "Dense.__call__"

FileLocations
1 {file_name_id=1 function_name_id=1 line=51 end_line=51 column=4 end_column=10}
2 {file_name_id=1 function_name_id=2 line=45 end_line=45 column=13 end_column=54}
3 {file_name_id=1 function_name_id=3 line=37 end_line=42 column=17 end_column=9}
4 {file_name_id=2 function_name_id=4 line=72 end_line=72 column=12 end_column=66}
5 {file_name_id=3 function_name_id=5 line=124 end_line=124 column=6 end_column=69}
6 {file_name_id=3 function_name_id=6 line=73 end_line=73 column=6 end_column=72}
7 {file_name_id=2 function_name_id=4 line=85 end_line=85 column=12 end_column=36}
8 {file_name_id=2 function_name_id=4 line=63 end_line=69 column=12 end_column=12}
9 {file_name_id=4 function_name_id=7 line=700 end_line=710 column=10 end_column=7}
10 {file_name_id=2 function_name_id=4 line=70 end_line=70 column=12 end_column=35}
11 {file_name_id=5 function_name_id=8 line=406 end_line=421 column=11 end_column=5}
12 {file_name_id=5 function_name_id=9 line=203 end_line=203 column=9 end_column=46}
13 {file_name_id=5 function_name_id=9 line=205 end_line=205 column=6 end_column=14}
14 {file_name_id=5 function_name_id=9 line=204 end_line=204 column=8 end_column=44}
15 {file_name_id=5 function_name_id=9 line=206 end_line=206 column=18 end_column=31}
16 {file_name_id=5 function_name_id=9 line=206 end_line=206 column=8 end_column=32}
17 {file_name_id=5 function_name_id=9 line=211 end_line=211 column=6 end_column=28}
18 {file_name_id=5 function_name_id=9 line=214 end_line=214 column=4 end_column=16}
19 {file_name_id=5 function_name_id=9 line=216 end_line=216 column=2 end_column=10}
20 {file_name_id=5 function_name_id=9 line=220 end_line=220 column=6 end_column=28}
21 {file_name_id=5 function_name_id=9 line=223 end_line=223 column=4 end_column=13}
22 {file_name_id=2 function_name_id=4 line=71 end_line=71 column=12 end_column=22}
23 {file_name_id=2 function_name_id=4 line=77 end_line=83 column=20 end_column=20}
24 {file_name_id=2 function_name_id=10 line=29 end_line=29 column=12 end_column=60}
25 {file_name_id=2 function_name_id=10 line=30 end_line=30 column=12 end_column=26}
26 {file_name_id=2 function_name_id=10 line=31 end_line=31 column=12 end_column=23}
27 {file_name_id=2 function_name_id=10 line=32 end_line=32 column=12 end_column=46}
28 {file_name_id=2 function_name_id=10 line=33 end_line=33 column=12 end_column=65}
29 {file_name_id=2 function_name_id=10 line=41 end_line=41 column=24 end_column=36}
30 {file_name_id=2 function_name_id=10 line=41 end_line=41 column=15 end_column=37}
31 {file_name_id=2 function_name_id=10 line=36 end_line=38 column=23 end_column=23}
32 {file_name_id=2 function_name_id=10 line=39 end_line=39 column=23 end_column=60}
33 {file_name_id=2 function_name_id=4 line=86 end_line=86 column=12 end_column=59}
34 {file_name_id=4 function_name_id=11 line=287 end_line=292 column=8 end_column=5}
35 {file_name_id=4 function_name_id=11 line=294 end_line=294 column=11 end_column=57}
36 {file_name_id=4 function_name_id=11 line=294 end_line=294 column=6 end_column=57}

StackFrames
1 {file_location_id=1 parent_frame_id=1}
2 {file_location_id=2 parent_frame_id=2}
3 {file_location_id=3 parent_frame_id=3}
4 {file_location_id=4 parent_frame_id=4}
5 {file_location_id=5 parent_frame_id=5}
6 {file_location_id=6 parent_frame_id=6}
7 {file_location_id=7 parent_frame_id=4}
8 {file_location_id=8 parent_frame_id=4}
9 {file_location_id=9 parent_frame_id=9}
10 {file_location_id=10 parent_frame_id=4}
11 {file_location_id=11 parent_frame_id=11}
12 {file_location_id=12 parent_frame_id=12}
13 {file_location_id=13 parent_frame_id=12}
14 {file_location_id=14 parent_frame_id=12}
15 {file_location_id=15 parent_frame_id=12}
16 {file_location_id=16 parent_frame_id=12}
17 {file_location_id=17 parent_frame_id=12}
18 {file_location_id=18 parent_frame_id=12}
19 {file_location_id=19 parent_frame_id=12}
20 {file_location_id=20 parent_frame_id=12}
21 {file_location_id=21 parent_frame_id=12}
22 {file_location_id=22 parent_frame_id=4}
23 {file_location_id=23 parent_frame_id=4}
24 {file_location_id=24 parent_frame_id=24}
25 {file_location_id=9 parent_frame_id=25}
26 {file_location_id=25 parent_frame_id=24}
27 {file_location_id=11 parent_frame_id=27}
28 {file_location_id=12 parent_frame_id=28}
29 {file_location_id=13 parent_frame_id=28}
30 {file_location_id=14 parent_frame_id=28}
31 {file_location_id=15 parent_frame_id=28}
32 {file_location_id=16 parent_frame_id=28}
33 {file_location_id=17 parent_frame_id=28}
34 {file_location_id=18 parent_frame_id=28}
35 {file_location_id=19 parent_frame_id=28}
36 {file_location_id=20 parent_frame_id=28}
37 {file_location_id=21 parent_frame_id=28}
38 {file_location_id=26 parent_frame_id=24}
39 {file_location_id=27 parent_frame_id=24}
40 {file_location_id=9 parent_frame_id=40}
41 {file_location_id=28 parent_frame_id=24}
42 {file_location_id=11 parent_frame_id=42}
43 {file_location_id=12 parent_frame_id=43}
44 {file_location_id=13 parent_frame_id=43}
45 {file_location_id=14 parent_frame_id=43}
46 {file_location_id=15 parent_frame_id=43}
47 {file_location_id=16 parent_frame_id=43}
48 {file_location_id=17 parent_frame_id=43}
49 {file_location_id=18 parent_frame_id=43}
50 {file_location_id=19 parent_frame_id=43}
51 {file_location_id=20 parent_frame_id=43}
52 {file_location_id=21 parent_frame_id=43}
53 {file_location_id=29 parent_frame_id=24}
54 {file_location_id=30 parent_frame_id=24}
55 {file_location_id=31 parent_frame_id=24}
56 {file_location_id=9 parent_frame_id=56}
57 {file_location_id=32 parent_frame_id=24}
58 {file_location_id=11 parent_frame_id=58}
59 {file_location_id=12 parent_frame_id=59}
60 {file_location_id=13 parent_frame_id=59}
61 {file_location_id=14 parent_frame_id=59}
62 {file_location_id=15 parent_frame_id=59}
63 {file_location_id=16 parent_frame_id=59}
64 {file_location_id=17 parent_frame_id=59}
65 {file_location_id=18 parent_frame_id=59}
66 {file_location_id=19 parent_frame_id=59}
67 {file_location_id=20 parent_frame_id=59}
68 {file_location_id=21 parent_frame_id=59}
69 {file_location_id=33 parent_frame_id=4}
70 {file_location_id=34 parent_frame_id=70}
71 {file_location_id=35 parent_frame_id=70}
72 {file_location_id=36 parent_frame_id=70}


%relu.1 (Arg_0.1: f32[32,112,112,64]) -> f32[32,112,112,64] {
  %Arg_0.1 = f32[32,112,112,64]{3,2,1,0} parameter(0)
  %constant.8 = f32[] constant(0)
  %max.2 = f32[32,112,112,64]{3,2,1,0} broadcast(%constant.8), dimensions={}, metadata={op_name="max"}
  ROOT %max.3 = f32[32,112,112,64]{3,2,1,0} maximum(%Arg_0.1, %max.2), metadata={op_name="max"}
}

%region_0.2 (reduce_window_max.3: f32[], reduce_window_max.4: f32[]) -> f32[] {
  %reduce_window_max.3 = f32[] parameter(0), metadata={op_name="reduce_window_max"}
  %reduce_window_max.4 = f32[] parameter(1), metadata={op_name="reduce_window_max"}
  ROOT %reduce_window_max.5 = f32[] maximum(%reduce_window_max.3, %reduce_window_max.4), metadata={op_name="jit(predict_step)/ResNet/reduce_window_max" stack_frame_id=6}
}

%relu_0.3 (Arg_0.3: f32[32,56,56,64]) -> f32[32,56,56,64] {
  %Arg_0.3 = f32[32,56,56,64]{3,2,1,0} parameter(0)
  %constant.10 = f32[] constant(0)
  %max.6 = f32[32,56,56,64]{3,2,1,0} broadcast(%constant.10), dimensions={}, metadata={op_name="max"}
  ROOT %max.7 = f32[32,56,56,64]{3,2,1,0} maximum(%Arg_0.3, %max.6), metadata={op_name="max"}
}

%relu_1.4 (Arg_0.5: f32[32,28,28,128]) -> f32[32,28,28,128] {
  %Arg_0.5 = f32[32,28,28,128]{3,2,1,0} parameter(0)
  %constant.12 = f32[] constant(0)
  %max.10 = f32[32,28,28,128]{3,2,1,0} broadcast(%constant.12), dimensions={}, metadata={op_name="max"}
  ROOT %max.11 = f32[32,28,28,128]{3,2,1,0} maximum(%Arg_0.5, %max.10), metadata={op_name="max"}
}

%relu_2.5 (Arg_0.7: f32[32,14,14,256]) -> f32[32,14,14,256] {
  %Arg_0.7 = f32[32,14,14,256]{3,2,1,0} parameter(0)
  %constant.14 = f32[] constant(0)
  %max.14 = f32[32,14,14,256]{3,2,1,0} broadcast(%constant.14), dimensions={}, metadata={op_name="max"}
  ROOT %max.15 = f32[32,14,14,256]{3,2,1,0} maximum(%Arg_0.7, %max.14), metadata={op_name="max"}
}

%relu_3.6 (Arg_0.9: f32[32,7,7,512]) -> f32[32,7,7,512] {
  %Arg_0.9 = f32[32,7,7,512]{3,2,1,0} parameter(0)
  %constant.16 = f32[] constant(0)
  %max.18 = f32[32,7,7,512]{3,2,1,0} broadcast(%constant.16), dimensions={}, metadata={op_name="max"}
  ROOT %max.19 = f32[32,7,7,512]{3,2,1,0} maximum(%Arg_0.9, %max.18), metadata={op_name="max"}
}

%region_1.7 (reduce_sum.3: f32[], reduce_sum.4: f32[]) -> f32[] {
  %reduce_sum.3 = f32[] parameter(0), metadata={op_name="reduce_sum"}
  %reduce_sum.4 = f32[] parameter(1), metadata={op_name="reduce_sum"}
  ROOT %reduce_sum.5 = f32[] add(%reduce_sum.3, %reduce_sum.4), metadata={op_name="jit(predict_step)/ResNet/reduce_sum" stack_frame_id=7}
}

ENTRY %main.8 (params__Dense_0____bias__.1: f32[10], params__Dense_0____kernel__.1: f32[512,10], params__ResNetBlock_0____BatchNorm_0____bias__.1: f32[64], params__ResNetBlock_0____BatchNorm_0____scale__.1: f32[64], params__ResNetBlock_0____BatchNorm_1____bias__.1: f32[64], params__ResNetBlock_0____BatchNorm_1____scale__.1: f32[64], params__ResNetBlock_0____Conv_0____kernel__.1: f32[3,3,64,64], params__ResNetBlock_0____Conv_1____kernel__.1: f32[3,3,64,64], params__ResNetBlock_1____BatchNorm_0____bias__.1: f32[64], params__ResNetBlock_1____BatchNorm_0____scale__.1: f32[64], params__ResNetBlock_1____BatchNorm_1____bias__.1: f32[64], params__ResNetBlock_1____BatchNorm_1____scale__.1: f32[64], params__ResNetBlock_1____Conv_0____kernel__.1: f32[3,3,64,64], params__ResNetBlock_1____Conv_1____kernel__.1: f32[3,3,64,64], params__ResNetBlock_2____BatchNorm_0____bias__.1: f32[128], params__ResNetBlock_2____BatchNorm_0____scale__.1: f32[128], params__ResNetBlock_2____BatchNorm_1____bias__.1: f32[128], params__ResNetBlock_2____BatchNorm_1____scale__.1: f32[128], params__ResNetBlock_2____Conv_0____kernel__.1: f32[3,3,64,128], params__ResNetBlock_2____Conv_1____kernel__.1: f32[3,3,128,128], params__ResNetBlock_2____conv_proj____kernel__.1: f32[1,1,64,128], params__ResNetBlock_2____norm_proj____bias__.1: f32[128], params__ResNetBlock_2____norm_proj____scale__.1: f32[128], params__ResNetBlock_3____BatchNorm_0____bias__.1: f32[128], params__ResNetBlock_3____BatchNorm_0____scale__.1: f32[128], params__ResNetBlock_3____BatchNorm_1____bias__.1: f32[128], params__ResNetBlock_3____BatchNorm_1____scale__.1: f32[128], params__ResNetBlock_3____Conv_0____kernel__.1: f32[3,3,128,128], params__ResNetBlock_3____Conv_1____kernel__.1: f32[3,3,128,128], params__ResNetBlock_4____BatchNorm_0____bias__.1: f32[256], params__ResNetBlock_4____BatchNorm_0____scale__.1: f32[256], params__ResNetBlock_4____BatchNorm_1____bias__.1: f32[256], params__ResNetBlock_4____BatchNorm_1____scale__.1: f32[256], params__ResNetBlock_4____Conv_0____kernel__.1: f32[3,3,128,256], params__ResNetBlock_4____Conv_1____kernel__.1: f32[3,3,256,256], params__ResNetBlock_4____conv_proj____kernel__.1: f32[1,1,128,256], params__ResNetBlock_4____norm_proj____bias__.1: f32[256], params__ResNetBlock_4____norm_proj____scale__.1: f32[256], params__ResNetBlock_5____BatchNorm_0____bias__.1: f32[256], params__ResNetBlock_5____BatchNorm_0____scale__.1: f32[256], params__ResNetBlock_5____BatchNorm_1____bias__.1: f32[256], params__ResNetBlock_5____BatchNorm_1____scale__.1: f32[256], params__ResNetBlock_5____Conv_0____kernel__.1: f32[3,3,256,256], params__ResNetBlock_5____Conv_1____kernel__.1: f32[3,3,256,256], params__ResNetBlock_6____BatchNorm_0____bias__.1: f32[512], params__ResNetBlock_6____BatchNorm_0____scale__.1: f32[512], params__ResNetBlock_6____BatchNorm_1____bias__.1: f32[512], params__ResNetBlock_6____BatchNorm_1____scale__.1: f32[512], params__ResNetBlock_6____Conv_0____kernel__.1: f32[3,3,256,512], params__ResNetBlock_6____Conv_1____kernel__.1: f32[3,3,512,512], params__ResNetBlock_6____conv_proj____kernel__.1: f32[1,1,256,512], params__ResNetBlock_6____norm_proj____bias__.1: f32[512], params__ResNetBlock_6____norm_proj____scale__.1: f32[512], params__ResNetBlock_7____BatchNorm_0____bias__.1: f32[512], params__ResNetBlock_7____BatchNorm_0____scale__.1: f32[512], params__ResNetBlock_7____BatchNorm_1____bias__.1: f32[512], params__ResNetBlock_7____BatchNorm_1____scale__.1: f32[512], params__ResNetBlock_7____Conv_0____kernel__.1: f32[3,3,512,512], params__ResNetBlock_7____Conv_1____kernel__.1: f32[3,3,512,512], params__bn_init____bias__.1: f32[64], params__bn_init____scale__.1: f32[64], params__conv_init____kernel__.1: f32[7,7,3,64], batch_stats__ResNetBlock_0____BatchNorm_0____mean__.1: f32[64], batch_stats__ResNetBlock_0____BatchNorm_0____var__.1: f32[64], batch_stats__ResNetBlock_0____BatchNorm_1____mean__.1: f32[64], batch_stats__ResNetBlock_0____BatchNorm_1____var__.1: f32[64], batch_stats__ResNetBlock_1____BatchNorm_0____mean__.1: f32[64], batch_stats__ResNetBlock_1____BatchNorm_0____var__.1: f32[64], batch_stats__ResNetBlock_1____BatchNorm_1____mean__.1: f32[64], batch_stats__ResNetBlock_1____BatchNorm_1____var__.1: f32[64], batch_stats__ResNetBlock_2____BatchNorm_0____mean__.1: f32[128], batch_stats__ResNetBlock_2____BatchNorm_0____var__.1: f32[128], batch_stats__ResNetBlock_2____BatchNorm_1____mean__.1: f32[128], batch_stats__ResNetBlock_2____BatchNorm_1____var__.1: f32[128], batch_stats__ResNetBlock_2____norm_proj____mean__.1: f32[128], batch_stats__ResNetBlock_2____norm_proj____var__.1: f32[128], batch_stats__ResNetBlock_3____BatchNorm_0____mean__.1: f32[128], batch_stats__ResNetBlock_3____BatchNorm_0____var__.1: f32[128], batch_stats__ResNetBlock_3____BatchNorm_1____mean__.1: f32[128], batch_stats__ResNetBlock_3____BatchNorm_1____var__.1: f32[128], batch_stats__ResNetBlock_4____BatchNorm_0____mean__.1: f32[256], batch_stats__ResNetBlock_4____BatchNorm_0____var__.1: f32[256], batch_stats__ResNetBlock_4____BatchNorm_1____mean__.1: f32[256], batch_stats__ResNetBlock_4____BatchNorm_1____var__.1: f32[256], batch_stats__ResNetBlock_4____norm_proj____mean__.1: f32[256], batch_stats__ResNetBlock_4____norm_proj____var__.1: f32[256], batch_stats__ResNetBlock_5____BatchNorm_0____mean__.1: f32[256], batch_stats__ResNetBlock_5____BatchNorm_0____var__.1: f32[256], batch_stats__ResNetBlock_5____BatchNorm_1____mean__.1: f32[256], batch_stats__ResNetBlock_5____BatchNorm_1____var__.1: f32[256], batch_stats__ResNetBlock_6____BatchNorm_0____mean__.1: f32[512], batch_stats__ResNetBlock_6____BatchNorm_0____var__.1: f32[512], batch_stats__ResNetBlock_6____BatchNorm_1____mean__.1: f32[512], batch_stats__ResNetBlock_6____BatchNorm_1____var__.1: f32[512], batch_stats__ResNetBlock_6____norm_proj____mean__.1: f32[512], batch_stats__ResNetBlock_6____norm_proj____var__.1: f32[512], batch_stats__ResNetBlock_7____BatchNorm_0____mean__.1: f32[512], batch_stats__ResNetBlock_7____BatchNorm_0____var__.1: f32[512], batch_stats__ResNetBlock_7____BatchNorm_1____mean__.1: f32[512], batch_stats__ResNetBlock_7____BatchNorm_1____var__.1: f32[512], batch_stats__bn_init____mean__.1: f32[64], batch_stats__bn_init____var__.1: f32[64], images.1: f32[32,224,224,3]) -> f32[32,10] {
  %images.1 = f32[32,224,224,3]{3,2,1,0} parameter(102), metadata={op_name="images"}
  %params__conv_init____kernel__.1 = f32[7,7,3,64]{3,2,1,0} parameter(61), metadata={op_name="params[\'conv_init\'][\'kernel\']"}
  %conv_general_dilated.20 = f32[32,112,112,64]{3,2,1,0} convolution(%images.1, %params__conv_init____kernel__.1), window={size=7x7 stride=2x2 pad=3_3x3_3}, dim_labels=b01f_01io->b01f, metadata={op_name="jit(predict_step)/ResNet/conv_init/conv_general_dilated" stack_frame_id=9}
  %batch_stats__bn_init____mean__.1 = f32[64]{0} parameter(100), metadata={op_name="batch_stats[\'bn_init\'][\'mean\']"}
  %broadcast_in_dim.40 = f32[1,1,1,64]{3,2,1,0} reshape(%batch_stats__bn_init____mean__.1), metadata={op_name="jit(predict_step)/ResNet/bn_init/broadcast_in_dim" stack_frame_id=12}
  %sub.80 = f32[1,1,1,64]{3,2,1,0} broadcast(%broadcast_in_dim.40), dimensions={0,1,2,3}, metadata={op_name="jit(predict_step)/ResNet/bn_init/sub" stack_frame_id=13}
  %sub.81 = f32[64]{0} reshape(%sub.80), metadata={op_name="jit(predict_step)/ResNet/bn_init/sub" stack_frame_id=13}
  %sub.82 = f32[32,112,112,64]{3,2,1,0} broadcast(%sub.81), dimensions={3}, metadata={op_name="jit(predict_step)/ResNet/bn_init/sub" stack_frame_id=13}
  %sub.83 = f32[32,112,112,64]{3,2,1,0} subtract(%conv_general_dilated.20, %sub.82), metadata={op_name="jit(predict_step)/ResNet/bn_init/sub" stack_frame_id=13}
  %batch_stats__bn_init____var__.1 = f32[64]{0} parameter(101), metadata={op_name="batch_stats[\'bn_init\'][\'var\']"}
  %broadcast_in_dim.41 = f32[1,1,1,64]{3,2,1,0} reshape(%batch_stats__bn_init____var__.1), metadata={op_name="jit(predict_step)/ResNet/bn_init/broadcast_in_dim" stack_frame_id=14}
  %constant.22 = f32[] constant(1e-05)
  %broadcast.7 = f32[1,1,1,64]{3,2,1,0} broadcast(%constant.22), dimensions={}
  %add.112 = f32[1,1,1,64]{3,2,1,0} add(%broadcast_in_dim.41, %broadcast.7), metadata={op_name="jit(predict_step)/ResNet/bn_init/add" stack_frame_id=15}
  %rsqrt.20 = f32[1,1,1,64]{3,2,1,0} rsqrt(%add.112), metadata={op_name="jit(predict_step)/ResNet/bn_init/rsqrt" stack_frame_id=16}
  %params__bn_init____scale__.1 = f32[64]{0} parameter(60), metadata={op_name="params[\'bn_init\'][\'scale\']"}
  %reshape.41 = f32[1,1,1,64]{3,2,1,0} reshape(%params__bn_init____scale__.1), metadata={op_name="jit(predict_step)/ResNet/bn_init/reshape" stack_frame_id=17}
  %mul.100 = f32[1,1,1,64]{3,2,1,0} multiply(%rsqrt.20, %reshape.41), metadata={op_name="jit(predict_step)/ResNet/bn_init/mul" stack_frame_id=18}
  %mul.101 = f32[1,1,1,64]{3,2,1,0} broadcast(%mul.100), dimensions={0,1,2,3}, metadata={op_name="jit(predict_step)/ResNet/bn_init/mul" stack_frame_id=19}
  %mul.102 = f32[64]{0} reshape(%mul.101), metadata={op_name="jit(predict_step)/ResNet/bn_init/mul" stack_frame_id=19}
  %mul.103 = f32[32,112,112,64]{3,2,1,0} broadcast(%mul.102), dimensions={3}, metadata={op_name="jit(predict_step)/ResNet/bn_init/mul" stack_frame_id=19}
  %mul.104 = f32[32,112,112,64]{3,2,1,0} multiply(%sub.83, %mul.103), metadata={op_name="jit(predict_step)/ResNet/bn_init/mul" stack_frame_id=19}
  %params__bn_init____bias__.1 = f32[64]{0} parameter(59), metadata={op_name="params[\'bn_init\'][\'bias\']"}
  %reshape.42 = f32[1,1,1,64]{3,2,1,0} reshape(%params__bn_init____bias__.1), metadata={op_name="jit(predict_step)/ResNet/bn_init/reshape" stack_frame_id=20}
  %add.113 = f32[1,1,1,64]{3,2,1,0} broadcast(%reshape.42), dimensions={0,1,2,3}, metadata={op_name="jit(predict_step)/ResNet/bn_init/add" stack_frame_id=21}
  %add.114 = f32[64]{0} reshape(%add.113), metadata={op_name="jit(predict_step)/ResNet/bn_init/add" stack_frame_id=21}
  %add.115 = f32[32,112,112,64]{3,2,1,0} broadcast(%add.114), dimensions={3}, metadata={op_name="jit(predict_step)/ResNet/bn_init/add" stack_frame_id=21}
  %add.116 = f32[32,112,112,64]{3,2,1,0} add(%mul.104, %add.115), metadata={op_name="jit(predict_step)/ResNet/bn_init/add" stack_frame_id=21}
  %jit_relu_.17 = f32[32,112,112,64]{3,2,1,0} call(%add.116), to_apply=%relu.1, metadata={op_name="jit(predict_step)/ResNet/jit(relu)" stack_frame_id=22}
  %constant.21 = f32[] constant(-inf)
  %reduce_window_max.7 = f32[32,56,56,64]{3,2,1,0} reduce-window(%jit_relu_.17, %constant.21), window={size=1x3x3x1 stride=1x2x2x1 pad=0_0x0_1x0_1x0_0}, to_apply=%region_0.2, metadata={op_name="jit(predict_step)/ResNet/reduce_window_max" stack_frame_id=6}
  %params__ResNetBlock_0____Conv_0____kernel__.1 = f32[3,3,64,64]{3,2,1,0} parameter(6), metadata={op_name="params[\'ResNetBlock_0\'][\'Conv_0\'][\'kernel\']"}
  %conv_general_dilated.21 = f32[32,56,56,64]{3,2,1,0} convolution(%reduce_window_max.7, %params__ResNetBlock_0____Conv_0____kernel__.1), window={size=3x3 pad=1_1x1_1}, dim_labels=b01f_01io->b01f, metadata={op_name="jit(predict_step)/ResNet/ResNetBlock_0/Conv_0/conv_general_dilated" stack_frame_id=25}
  %batch_stats__ResNetBlock_0____BatchNorm_0____mean__.1 = f32[64]{0} parameter(62), metadata={op_name="batch_stats[\'ResNetBlock_0\'][\'BatchNorm_0\'][\'mean\']"}
  %broadcast_in_dim.42 = f32[1,1,1,64]{3,2,1,0} reshape(%batch_stats__ResNetBlock_0____BatchNorm_0____mean__.1), metadata={op_name="jit(predict_step)/ResNet/ResNetBlock_0/BatchNorm_0/broadcast_in_dim" stack_frame_id=28}
  %sub.84 = f32[1,1,1,64]{3,2,1,0} broadcast(%broadcast_in_dim.42), dimensions={0,1,2,3}, metadata={op_name="jit(predict_step)/ResNet/ResNetBlock_0/BatchNorm_0/sub" stack_frame_id=29}
  %sub.85 = f32[64]{0} reshape(%sub.84), metadata={op_name="jit(predict_step)/ResNet/ResNetBlock_0/BatchNorm_0/sub" stack_frame_id=29}
  %sub.86 = f32[32,56,56,64]{3,2,1,0} broadcast(%sub.85), dimensions={3}, metadata={op_name="jit(predict_step)/ResNet/ResNetBlock_0/BatchNorm_0/sub" stack_frame_id=29}
  %sub.87 = f32[32,56,56,64]{3,2,1,0} subtract(%conv_general_dilated.21, %sub.86), metadata={op_name="jit(predict_step)/ResNet/ResNetBlock_0/BatchNorm_0/sub" stack_frame_id=29}
  %batch_stats__ResNetBlock_0____BatchNorm_0____var__.1 = f32[64]{0} parameter(63), metadata={op_name="batch_stats[\'ResNetBlock_0\'][\'BatchNorm_0\'][\'var\']"}
  %broadcast_in_dim.43 = f32[1,1,1,64]{3,2,1,0} reshape(%batch_stats__ResNetBlock_0____BatchNorm_0____var__.1), metadata={op_name="jit(predict_step)/ResNet/ResNetBlock_0/BatchNorm_0/broadcast_in_dim" stack_frame_id=30}
  %add.117 = f32[1,1,1,64]{3,2,1,0} add(%broadcast_in_dim.43, %broadcast.7), metadata={op_name="jit(predict_step)/ResNet/ResNetBlock_0/BatchNorm_0/add" stack_frame_id=31}
  %rsqrt.21 = f32[1,1,1,64]{3,2,1,0} rsqrt(%add.117), metadata={op_name="jit(predict_step)/ResNet/ResNetBlock_0/BatchNorm_0/rsqrt" stack_frame_id=32}
  %params__ResNetBlock_0____BatchNorm_0____scale__.1 = f32[64]{0} parameter(3), metadata={op_name="params[\'ResNetBlock_0\'][\'BatchNorm_0\'][\'scale\']"}
  %reshape.43 = f32[1,1,1,64]{3,2,1,0} reshape(%params__ResNetBlock_0____BatchNorm_0____scale__.1), metadata={op_name="jit(predict_step)/ResNet/ResNetBlock_0/BatchNorm_0/reshape" stack_frame_id=33}
  %mul.105 = f32[1,1,1,64]{3,2,1,0} multiply(%rsqrt.21, %reshape.43), metadata={op_name="jit(predict_step)/ResNet/ResNetBlock_0/BatchNorm_0/mul" stack_frame_id=34}
  %mul.106 = f32[1,1,1,64]{3,2,1,0} broadcast(%mul.105), dimensions={0,1,2,3}, metadata={op_name="jit(predict_step)/ResNet/ResNetBlock_0/BatchNorm_0/mul" stack_frame_id=35}
  %mul.107 = f32[64]{0} reshape(%mul.106), metadata={op_name="jit(predict_step)/ResNet/ResNetBlock_0/BatchNorm_0/mul" stack_frame_id=35}
  %mul.108 = f32[32,56,56,64]{3,2,1,0} broadcast(%mul.107), dimensions={3}, metadata={op_name="jit(predict_step)/ResNet/ResNetBlock_0/BatchNorm_0/mul" stack_frame_id=35}
  %mul.109 = f32[32,56,56,64]{3,2,1,0} multiply(%sub.87, %mul.108), metadata={op_name="jit(predict_step)/ResNet/ResNetBlock_0/BatchNorm_0/mul" stack_frame_id=35}
  %params__ResNetBlock_0____BatchNorm_0____bias__.1 = f32[64]{0} parameter(2), metadata={op_name="params[\'ResNetBlock_0\'][\'BatchNorm_0\'][\'bias\']"}
  %reshape.44 = f32[1,1,1,64]{3,2,1,0} reshape(%params__ResNetBlock_0____BatchNorm_0____bias__.1), metadata={op_name="jit(predict_step)/ResNet/ResNetBlock_0/BatchNorm_0/reshape" stack_frame_id=36}
  %add.118 = f32[1,1,1,64]{3,2,1,0} broadcast(%reshape.44), dimensions={0,1,2,3}, metadata={op_name="jit(predict_step)/ResNet/ResNetBlock_0/BatchNorm_0/add" stack_frame_id=37}
  %add.119 = f32[64]{0} reshape(%add.118), metadata={op_name="jit(predict_step)/ResNet/ResNetBlock_0/BatchNorm_0/add" stack_frame_id=37}
  %add.120 = f32[32,56,56,64]{3,2,1,0} broadcast(%add.119), dimensions={3}, metadata={op_name="jit(predict_step)/ResNet/ResNetBlock_0/BatchNorm_0/add" stack_frame_id=37}
  %add.121 = f32[32,56,56,64]{3,2,1,0} add(%mul.109, %add.120), metadata={op_name="jit(predict_step)/ResNet/ResNetBlock_0/BatchNorm_0/add" stack_frame_id=37}
  %jit_relu_.18 = f32[32,56,56,64]{3,2,1,0} call(%add.121), to_apply=%relu_0.3, metadata={op_name="jit(predict_step)/ResNet/ResNetBlock_0/jit(relu)" stack_frame_id=38}
  %params__ResNetBlock_0____Conv_1____kernel__.1 = f32[3,3,64,64]{3,2,1,0} parameter(7), metadata={op_name="params[\'ResNetBlock_0\'][\'Conv_1\'][\'kernel\']"}
  %conv_general_dilated.22 = f32[32,56,56,64]{3,2,1,0} convolution(%jit_relu_.18, %params__ResNetBlock_0____Conv_1____kernel__.1), window={size=3x3 pad=1_1x1_1}, dim_labels=b01f_01io->b01f, metadata={op_name="jit(predict_step)/ResNet/ResNetBlock_0/Conv_1/conv_general_dilated" stack_frame_id=40}
  %batch_stats__ResNetBlock_0____BatchNorm_1____mean__.1 = f32[64]{0} parameter(64), metadata={op_name="batch_stats[\'ResNetBlock_0\'][\'BatchNorm_1\'][\'mean\']"}
  %broadcast_in_dim.44 = f32[1,1,1,64]{3,2,1,0} reshape(%batch_stats__ResNetBlock_0____BatchNorm_1____mean__.1), metadata={op_name="jit(predict_step)/ResNet/ResNetBlock_0/BatchNorm_1/broadcast_in_dim" stack_frame_id=43}
  %sub.88 = f32[1,1,1,64]{3,2,1,0} broadcast(%broadcast_in_dim.44), dimensions={0,1,2,3}, metadata={op_name="jit(predict_step)/ResNet/ResNetBlock_0/BatchNorm_1/sub" stack_frame_id=44}
  %sub.89 = f32[64]{0} reshape(%sub.88), metadata={op_name="jit(predict_step)/ResNet/ResNetBlock_0/BatchNorm_1/sub" stack_frame_id=44}
  %sub.90 = f32[32,56,56,64]{3,2,1,0} broadcast(%sub.89), dimensions={3}, metadata={op_name="jit(predict_step)/ResNet/ResNetBlock_0/BatchNorm_1/sub" stack_frame_id=44}
  %sub.91 = f32[32,56,56,64]{3,2,1,0} subtract(%conv_general_dilated.22, %sub.90), metadata={op_name="jit(predict_step)/ResNet/ResNetBlock_0/BatchNorm_1/sub" stack_frame_id=44}
  %batch_stats__ResNetBlock_0____BatchNorm_1____var__.1 = f32[64]{0} parameter(65), metadata={op_name="batch_stats[\'ResNetBlock_0\'][\'BatchNorm_1\'][\'var\']"}
  %broadcast_in_dim.45 = f32[1,1,1,64]{3,2,1,0} reshape(%batch_stats__ResNetBlock_0____BatchNorm_1____var__.1), metadata={op_name="jit(predict_step)/ResNet/ResNetBlock_0/BatchNorm_1/broadcast_in_dim" stack_frame_id=45}
  %add.122 = f32[1,1,1,64]{3,2,1,0} add(%broadcast_in_dim.45, %broadcast.7), metadata={op_name="jit(predict_step)/ResNet/ResNetBlock_0/BatchNorm_1/add" stack_frame_id=46}
  %rsqrt.22 = f32[1,1,1,64]{3,2,1,0} rsqrt(%add.122), metadata={op_name="jit(predict_step)/ResNet/ResNetBlock_0/BatchNorm_1/rsqrt" stack_frame_id=47}
  %params__ResNetBlock_0____BatchNorm_1____scale__.1 = f32[64]{0} parameter(5), metadata={op_name="params[\'ResNetBlock_0\'][\'BatchNorm_1\'][\'scale\']"}
  %reshape.45 = f32[1,1,1,64]{3,2,1,0} reshape(%params__ResNetBlock_0____BatchNorm_1____scale__.1), metadata={op_name="jit(predict_step)/ResNet/ResNetBlock_0/BatchNorm_1/reshape" stack_frame_id=48}
  %mul.110 = f32[1,1,1,64]{3,2,1,0} multiply(%rsqrt.22, %reshape.45), metadata={op_name="jit(predict_step)/ResNet/ResNetBlock_0/BatchNorm_1/mul" stack_frame_id=49}
  %mul.111 = f32[1,1,1,64]{3,2,1,0} broadcast(%mul.110), dimensions={0,1,2,3}, metadata={op_name="jit(predict_step)/ResNet/ResNetBlock_0/BatchNorm_1/mul" stack_frame_id=50}
  %mul.112 = f32[64]{0} reshape(%mul.111), metadata={op_name="jit(predict_step)/ResNet/ResNetBlock_0/BatchNorm_1/mul" stack_frame_id=50}
  %mul.113 = f32[32,56,56,64]{3,2,1,0} broadcast(%mul.112), dimensions={3}, metadata={op_name="jit(predict_step)/ResNet/ResNetBlock_0/BatchNorm_1/mul" stack_frame_id=50}
  %mul.114 = f32[32,56,56,64]{3,2,1,0} multiply(%sub.91, %mul.113), metadata={op_name="jit(predict_step)/ResNet/ResNetBlock_0/BatchNorm_1/mul" stack_frame_id=50}
  %params__ResNetBlock_0____BatchNorm_1____bias__.1 = f32[64]{0} parameter(4), metadata={op_name="params[\'ResNetBlock_0\'][\'BatchNorm_1\'][\'bias\']"}
  %reshape.46 = f32[1,1,1,64]{3,2,1,0} reshape(%params__ResNetBlock_0____BatchNorm_1____bias__.1), metadata={op_name="jit(predict_step)/ResNet/ResNetBlock_0/BatchNorm_1/reshape" stack_frame_id=51}
  %add.123 = f32[1,1,1,64]{3,2,1,0} broadcast(%reshape.46), dimensions={0,1,2,3}, metadata={op_name="jit(predict_step)/ResNet/ResNetBlock_0/BatchNorm_1/add" stack_frame_id=52}
  %add.124 = f32[64]{0} reshape(%add.123), metadata={op_name="jit(predict_step)/ResNet/ResNetBlock_0/BatchNorm_1/add" stack_frame_id=52}
  %add.125 = f32[32,56,56,64]{3,2,1,0} broadcast(%add.124), dimensions={3}, metadata={op_name="jit(predict_step)/ResNet/ResNetBlock_0/BatchNorm_1/add" stack_frame_id=52}
  %add.126 = f32[32,56,56,64]{3,2,1,0} add(%mul.114, %add.125), metadata={op_name="jit(predict_step)/ResNet/ResNetBlock_0/BatchNorm_1/add" stack_frame_id=52}
  %add.127 = f32[32,56,56,64]{3,2,1,0} add(%reduce_window_max.7, %add.126), metadata={op_name="jit(predict_step)/ResNet/ResNetBlock_0/add" stack_frame_id=53}
  %jit_relu_.19 = f32[32,56,56,64]{3,2,1,0} call(%add.127), to_apply=%relu_0.3, metadata={op_name="jit(predict_step)/ResNet/ResNetBlock_0/jit(relu)" stack_frame_id=54}
  %params__ResNetBlock_1____Conv_0____kernel__.1 = f32[3,3,64,64]{3,2,1,0} parameter(12), metadata={op_name="params[\'ResNetBlock_1\'][\'Conv_0\'][\'kernel\']"}
  %conv_general_dilated.23 = f32[32,56,56,64]{3,2,1,0} convolution(%jit_relu_.19, %params__ResNetBlock_1____Conv_0____kernel__.1), window={size=3x3 pad=1_1x1_1}, dim_labels=b01f_01io->b01f, metadata={op_name="jit(predict_step)/ResNet/ResNetBlock_1/Conv_0/conv_general_dilated" stack_frame_id=25}
  %batch_stats__ResNetBlock_1____BatchNorm_0____mean__.1 = f32[64]{0} parameter(66), metadata={op_name="batch_stats[\'ResNetBlock_1\'][\'BatchNorm_0\'][\'mean\']"}
  %broadcast_in_dim.46 = f32[1,1,1,64]{3,2,1,0} reshape(%batch_stats__ResNetBlock_1____BatchNorm_0____mean__.1), metadata={op_name="jit(predict_step)/ResNet/ResNetBlock_1/BatchNorm_0/broadcast_in_dim" stack_frame_id=28}
  %sub.92 = f32[1,1,1,64]{3,2,1,0} broadcast(%broadcast_in_dim.46), dimensions={0,1,2,3}, metadata={op_name="jit(predict_step)/ResNet/ResNetBlock_1/BatchNorm_0/sub" stack_frame_id=29}
  %sub.93 = f32[64]{0} reshape(%sub.92), metadata={op_name="jit(predict_step)/ResNet/ResNetBlock_1/BatchNorm_0/sub" stack_frame_id=29}
  %sub.94 = f32[32,56,56,64]{3,2,1,0} broadcast(%sub.93), dimensions={3}, metadata={op_name="jit(predict_step)/ResNet/ResNetBlock_1/BatchNorm_0/sub" stack_frame_id=29}
  %sub.95 = f32[32,56,56,64]{3,2,1,0} subtract(%conv_general_dilated.23, %sub.94), metadata={op_name="jit(predict_step)/ResNet/ResNetBlock_1/BatchNorm_0/sub" stack_frame_id=29}
  %batch_stats__ResNetBlock_1____BatchNorm_0____var__.1 = f32[64]{0} parameter(67), metadata={op_name="batch_stats[\'ResNetBlock_1\'][\'BatchNorm_0\'][\'var\']"}
  %broadcast_in_dim.47 = f32[1,1,1,64]{3,2,1,0} reshape(%batch_stats__ResNetBlock_1____BatchNorm_0____var__.1), metadata={op_name="jit(predict_step)/ResNet/ResNetBlock_1/BatchNorm_0/broadcast_in_dim" stack_frame_id=30}
  %add.128 = f32[1,1,1,64]{3,2,1,0} add(%broadcast_in_dim.47, %broadcast.7), metadata={op_name="jit(predict_step)/ResNet/ResNetBlock_1/BatchNorm_0/add" stack_frame_id=31}
  %rsqrt.23 = f32[1,1,1,64]{3,2,1,0} rsqrt(%add.128), metadata={op_name="jit(predict_step)/ResNet/ResNetBlock_1/BatchNorm_0/rsqrt" stack_frame_id=32}
  %params__ResNetBlock_1____BatchNorm_0____scale__.1 = f32[64]{0} parameter(9), metadata={op_name="params[\'ResNetBlock_1\'][\'BatchNorm_0\'][\'scale\']"}
  %reshape.47 = f32[1,1,1,64]{3,2,1,0} reshape(%params__ResNetBlock_1____BatchNorm_0____scale__.1), metadata={op_name="jit(predict_step)/ResNet/ResNetBlock_1/BatchNorm_0/reshape" stack_frame_id=33}
  %mul.115 = f32[1,1,1,64]{3,2,1,0} multiply(%rsqrt.23, %reshape.47), metadata={op_name="jit(predict_step)/ResNet/ResNetBlock_1/BatchNorm_0/mul" stack_frame_id=34}
  %mul.116 = f32[1,1,1,64]{3,2,1,0} broadcast(%mul.115), dimensions={0,1,2,3}, metadata={op_name="jit(predict_step)/ResNet/ResNetBlock_1/BatchNorm_0/mul" stack_frame_id=35}
  %mul.117 = f32[64]{0} reshape(%mul.116), metadata={op_name="jit(predict_step)/ResNet/ResNetBlock_1/BatchNorm_0/mul" stack_frame_id=35}
  %mul.118 = f32[32,56,56,64]{3,2,1,0} broadcast(%mul.117), dimensions={3}, metadata={op_name="jit(predict_step)/ResNet/ResNetBlock_1/BatchNorm_0/mul" stack_frame_id=35}
  %mul.119 = f32[32,56,56,64]{3,2,1,0} multiply(%sub.95, %mul.118), metadata={op_name="jit(predict_step)/ResNet/ResNetBlock_1/BatchNorm_0/mul" stack_frame_id=35}
  %params__ResNetBlock_1____BatchNorm_0____bias__.1 = f32[64]{0} parameter(8), metadata={op_name="params[\'ResNetBlock_1\'][\'BatchNorm_0\'][\'bias\']"}
  %reshape.48 = f32[1,1,1,64]{3,2,1,0} reshape(%params__ResNetBlock_1____BatchNorm_0____bias__.1), metadata={op_name="jit(predict_step)/ResNet/ResNetBlock_1/BatchNorm_0/reshape" stack_frame_id=36}
  %add.129 = f32[1,1,1,64]{3,2,1,0} broadcast(%reshape.48), dimensions={0,1,2,3}, metadata={op_name="jit(predict_step)/ResNet/ResNetBlock_1/BatchNorm_0/add" stack_frame_id=37}
  %add.130 = f32[64]{0} reshape(%add.129), metadata={op_name="jit(predict_step)/ResNet/ResNetBlock_1/BatchNorm_0/add" stack_frame_id=37}
  %add.131 = f32[32,56,56,64]{3,2,1,0} broadcast(%add.130), dimensions={3}, metadata={op_name="jit(predict_step)/ResNet/ResNetBlock_1/BatchNorm_0/add" stack_frame_id=37}
  %add.132 = f32[32,56,56,64]{3,2,1,0} add(%mul.119, %add.131), metadata={op_name="jit(predict_step)/ResNet/ResNetBlock_1/BatchNorm_0/add" stack_frame_id=37}
  %jit_relu_.20 = f32[32,56,56,64]{3,2,1,0} call(%add.132), to_apply=%relu_0.3, metadata={op_name="jit(predict_step)/ResNet/ResNetBlock_1/jit(relu)" stack_frame_id=38}
  %params__ResNetBlock_1____Conv_1____kernel__.1 = f32[3,3,64,64]{3,2,1,0} parameter(13), metadata={op_name="params[\'ResNetBlock_1\'][\'Conv_1\'][\'kernel\']"}
  %conv_general_dilated.24 = f32[32,56,56,64]{3,2,1,0} convolution(%jit_relu_.20, %params__ResNetBlock_1____Conv_1____kernel__.1), window={size=3x3 pad=1_1x1_1}, dim_labels=b01f_01io->b01f, metadata={op_name="jit(predict_step)/ResNet/ResNetBlock_1/Conv_1/conv_general_dilated" stack_frame_id=40}
  %batch_stats__ResNetBlock_1____BatchNorm_1____mean__.1 = f32[64]{0} parameter(68), metadata={op_name="batch_stats[\'ResNetBlock_1\'][\'BatchNorm_1\'][\'mean\']"}
  %broadcast_in_dim.48 = f32[1,1,1,64]{3,2,1,0} reshape(%batch_stats__ResNetBlock_1____BatchNorm_1____mean__.1), metadata={op_name="jit(predict_step)/ResNet/ResNetBlock_1/BatchNorm_1/broadcast_in_dim" stack_frame_id=43}
  %sub.96 = f32[1,1,1,64]{3,2,1,0} broadcast(%broadcast_in_dim.48), dimensions={0,1,2,3}, metadata={op_name="jit(predict_step)/ResNet/ResNetBlock_1/BatchNorm_1/sub" stack_frame_id=44}
  %sub.97 = f32[64]{0} reshape(%sub.96), metadata={op_name="jit(predict_step)/ResNet/ResNetBlock_1/BatchNorm_1/sub" stack_frame_id=44}
  %sub.98 = f32[32,56,56,64]{3,2,1,0} broadcast(%sub.97), dimensions={3}, metadata={op_name="jit(predict_step)/ResNet/ResNetBlock_1/BatchNorm_1/sub" stack_frame_id=44}
  %sub.99 = f32[32,56,56,64]{3,2,1,0} subtract(%conv_general_dilated.24, %sub.98), metadata={op_name="jit(predict_step)/ResNet/ResNetBlock_1/BatchNorm_1/sub" stack_frame_id=44}
  %batch_stats__ResNetBlock_1____BatchNorm_1____var__.1 = f32[64]{0} parameter(69), metadata={op_name="batch_stats[\'ResNetBlock_1\'][\'BatchNorm_1\'][\'var\']"}
  %broadcast_in_dim.49 = f32[1,1,1,64]{3,2,1,0} reshape(%batch_stats__ResNetBlock_1____BatchNorm_1____var__.1), metadata={op_name="jit(predict_step)/ResNet/ResNetBlock_1/BatchNorm_1/broadcast_in_dim" stack_frame_id=45}
  %add.133 = f32[1,1,1,64]{3,2,1,0} add(%broadcast_in_dim.49, %broadcast.7), metadata={op_name="jit(predict_step)/ResNet/ResNetBlock_1/BatchNorm_1/add" stack_frame_id=46}
  %rsqrt.24 = f32[1,1,1,64]{3,2,1,0} rsqrt(%add.133), metadata={op_name="jit(predict_step)/ResNet/ResNetBlock_1/BatchNorm_1/rsqrt" stack_frame_id=47}
  %params__ResNetBlock_1____BatchNorm_1____scale__.1 = f32[64]{0} parameter(11), metadata={op_name="params[\'ResNetBlock_1\'][\'BatchNorm_1\'][\'scale\']"}
  %reshape.49 = f32[1,1,1,64]{3,2,1,0} reshape(%params__ResNetBlock_1____BatchNorm_1____scale__.1), metadata={op_name="jit(predict_step)/ResNet/ResNetBlock_1/BatchNorm_1/reshape" stack_frame_id=48}
  %mul.120 = f32[1,1,1,64]{3,2,1,0} multiply(%rsqrt.24, %reshape.49), metadata={op_name="jit(predict_step)/ResNet/ResNetBlock_1/BatchNorm_1/mul" stack_frame_id=49}
  %mul.121 = f32[1,1,1,64]{3,2,1,0} broadcast(%mul.120), dimensions={0,1,2,3}, metadata={op_name="jit(predict_step)/ResNet/ResNetBlock_1/BatchNorm_1/mul" stack_frame_id=50}
  %mul.122 = f32[64]{0} reshape(%mul.121), metadata={op_name="jit(predict_step)/ResNet/ResNetBlock_1/BatchNorm_1/mul" stack_frame_id=50}
  %mul.123 = f32[32,56,56,64]{3,2,1,0} broadcast(%mul.122), dimensions={3}, metadata={op_name="jit(predict_step)/ResNet/ResNetBlock_1/BatchNorm_1/mul" stack_frame_id=50}
  %mul.124 = f32[32,56,56,64]{3,2,1,0} multiply(%sub.99, %mul.123), metadata={op_name="jit(predict_step)/ResNet/ResNetBlock_1/BatchNorm_1/mul" stack_frame_id=50}
  %params__ResNetBlock_1____BatchNorm_1____bias__.1 = f32[64]{0} parameter(10), metadata={op_name="params[\'ResNetBlock_1\'][\'BatchNorm_1\'][\'bias\']"}
  %reshape.50 = f32[1,1,1,64]{3,2,1,0} reshape(%params__ResNetBlock_1____BatchNorm_1____bias__.1), metadata={op_name="jit(predict_step)/ResNet/ResNetBlock_1/BatchNorm_1/reshape" stack_frame_id=51}
  %add.134 = f32[1,1,1,64]{3,2,1,0} broadcast(%reshape.50), dimensions={0,1,2,3}, metadata={op_name="jit(predict_step)/ResNet/ResNetBlock_1/BatchNorm_1/add" stack_frame_id=52}
  %add.135 = f32[64]{0} reshape(%add.134), metadata={op_name="jit(predict_step)/ResNet/ResNetBlock_1/BatchNorm_1/add" stack_frame_id=52}
  %add.136 = f32[32,56,56,64]{3,2,1,0} broadcast(%add.135), dimensions={3}, metadata={op_name="jit(predict_step)/ResNet/ResNetBlock_1/BatchNorm_1/add" stack_frame_id=52}
  %add.137 = f32[32,56,56,64]{3,2,1,0} add(%mul.124, %add.136), metadata={op_name="jit(predict_step)/ResNet/ResNetBlock_1/BatchNorm_1/add" stack_frame_id=52}
  %add.138 = f32[32,56,56,64]{3,2,1,0} add(%jit_relu_.19, %add.137), metadata={op_name="jit(predict_step)/ResNet/ResNetBlock_1/add" stack_frame_id=53}
  %jit_relu_.21 = f32[32,56,56,64]{3,2,1,0} call(%add.138), to_apply=%relu_0.3, metadata={op_name="jit(predict_step)/ResNet/ResNetBlock_1/jit(relu)" stack_frame_id=54}
  %params__ResNetBlock_2____conv_proj____kernel__.1 = f32[1,1,64,128]{3,2,1,0} parameter(20), metadata={op_name="params[\'ResNetBlock_2\'][\'conv_proj\'][\'kernel\']"}
  %conv_general_dilated.27 = f32[32,28,28,128]{3,2,1,0} convolution(%jit_relu_.21, %params__ResNetBlock_2____conv_proj____kernel__.1), window={size=1x1 stride=2x2}, dim_labels=b01f_01io->b01f, metadata={op_name="jit(predict_step)/ResNet/ResNetBlock_2/conv_proj/conv_general_dilated" stack_frame_id=56}
  %batch_stats__ResNetBlock_2____norm_proj____mean__.1 = f32[128]{0} parameter(74), metadata={op_name="batch_stats[\'ResNetBlock_2\'][\'norm_proj\'][\'mean\']"}
  %broadcast_in_dim.54 = f32[1,1,1,128]{3,2,1,0} reshape(%batch_stats__ResNetBlock_2____norm_proj____mean__.1), metadata={op_name="jit(predict_step)/ResNet/ResNetBlock_2/norm_proj/broadcast_in_dim" stack_frame_id=59}
  %sub.108 = f32[1,1,1,128]{3,2,1,0} broadcast(%broadcast_in_dim.54), dimensions={0,1,2,3}, metadata={op_name="jit(predict_step)/ResNet/ResNetBlock_2/norm_proj/sub" stack_frame_id=60}
  %sub.109 = f32[128]{0} reshape(%sub.108), metadata={op_name="jit(predict_step)/ResNet/ResNetBlock_2/norm_proj/sub" stack_frame_id=60}
  %sub.110 = f32[32,28,28,128]{3,2,1,0} broadcast(%sub.109), dimensions={3}, metadata={op_name="jit(predict_step)/ResNet/ResNetBlock_2/norm_proj/sub" stack_frame_id=60}
  %sub.111 = f32[32,28,28,128]{3,2,1,0} subtract(%conv_general_dilated.27, %sub.110), metadata={op_name="jit(predict_step)/ResNet/ResNetBlock_2/norm_proj/sub" stack_frame_id=60}
  %batch_stats__ResNetBlock_2____norm_proj____var__.1 = f32[128]{0} parameter(75), metadata={op_name="batch_stats[\'ResNetBlock_2\'][\'norm_proj\'][\'var\']"}
  %broadcast_in_dim.55 = f32[1,1,1,128]{3,2,1,0} reshape(%batch_stats__ResNetBlock_2____norm_proj____var__.1), metadata={op_name="jit(predict_step)/ResNet/ResNetBlock_2/norm_proj/broadcast_in_dim" stack_frame_id=61}
  %constant.20 = f32[] constant(1e-05)
  %broadcast.6 = f32[1,1,1,128]{3,2,1,0} broadcast(%constant.20), dimensions={}
  %add.149 = f32[1,1,1,128]{3,2,1,0} add(%broadcast_in_dim.55, %broadcast.6), metadata={op_name="jit(predict_step)/ResNet/ResNetBlock_2/norm_proj/add" stack_frame_id=62}
  %rsqrt.27 = f32[1,1,1,128]{3,2,1,0} rsqrt(%add.149), metadata={op_name="jit(predict_step)/ResNet/ResNetBlock_2/norm_proj/rsqrt" stack_frame_id=63}
  %params__ResNetBlock_2____norm_proj____scale__.1 = f32[128]{0} parameter(22), metadata={op_name="params[\'ResNetBlock_2\'][\'norm_proj\'][\'scale\']"}
  %reshape.55 = f32[1,1,1,128]{3,2,1,0} reshape(%params__ResNetBlock_2____norm_proj____scale__.1), metadata={op_name="jit(predict_step)/ResNet/ResNetBlock_2/norm_proj/reshape" stack_frame_id=64}
  %mul.135 = f32[1,1,1,128]{3,2,1,0} multiply(%rsqrt.27, %reshape.55), metadata={op_name="jit(predict_step)/ResNet/ResNetBlock_2/norm_proj/mul" stack_frame_id=65}
  %mul.136 = f32[1,1,1,128]{3,2,1,0} broadcast(%mul.135), dimensions={0,1,2,3}, metadata={op_name="jit(predict_step)/ResNet/ResNetBlock_2/norm_proj/mul" stack_frame_id=66}
  %mul.137 = f32[128]{0} reshape(%mul.136), metadata={op_name="jit(predict_step)/ResNet/ResNetBlock_2/norm_proj/mul" stack_frame_id=66}
  %mul.138 = f32[32,28,28,128]{3,2,1,0} broadcast(%mul.137), dimensions={3}, metadata={op_name="jit(predict_step)/ResNet/ResNetBlock_2/norm_proj/mul" stack_frame_id=66}
  %mul.139 = f32[32,28,28,128]{3,2,1,0} multiply(%sub.111, %mul.138), metadata={op_name="jit(predict_step)/ResNet/ResNetBlock_2/norm_proj/mul" stack_frame_id=66}
  %params__ResNetBlock_2____norm_proj____bias__.1 = f32[128]{0} parameter(21), metadata={op_name="params[\'ResNetBlock_2\'][\'norm_proj\'][\'bias\']"}
  %reshape.56 = f32[1,1,1,128]{3,2,1,0} reshape(%params__ResNetBlock_2____norm_proj____bias__.1), metadata={op_name="jit(predict_step)/ResNet/ResNetBlock_2/norm_proj/reshape" stack_frame_id=67}
  %add.150 = f32[1,1,1,128]{3,2,1,0} broadcast(%reshape.56), dimensions={0,1,2,3}, metadata={op_name="jit(predict_step)/ResNet/ResNetBlock_2/norm_proj/add" stack_frame_id=68}
  %add.151 = f32[128]{0} reshape(%add.150), metadata={op_name="jit(predict_step)/ResNet/ResNetBlock_2/norm_proj/add" stack_frame_id=68}
  %add.152 = f32[32,28,28,128]{3,2,1,0} broadcast(%add.151), dimensions={3}, metadata={op_name="jit(predict_step)/ResNet/ResNetBlock_2/norm_proj/add" stack_frame_id=68}
  %add.153 = f32[32,28,28,128]{3,2,1,0} add(%mul.139, %add.152), metadata={op_name="jit(predict_step)/ResNet/ResNetBlock_2/norm_proj/add" stack_frame_id=68}
  %params__ResNetBlock_2____Conv_0____kernel__.1 = f32[3,3,64,128]{3,2,1,0} parameter(18), metadata={op_name="params[\'ResNetBlock_2\'][\'Conv_0\'][\'kernel\']"}
  %conv_general_dilated.25 = f32[32,28,28,128]{3,2,1,0} convolution(%jit_relu_.21, %params__ResNetBlock_2____Conv_0____kernel__.1), window={size=3x3 stride=2x2 pad=0_1x0_1}, dim_labels=b01f_01io->b01f, metadata={op_name="jit(predict_step)/ResNet/ResNetBlock_2/Conv_0/conv_general_dilated" stack_frame_id=25}
  %batch_stats__ResNetBlock_2____BatchNorm_0____mean__.1 = f32[128]{0} parameter(70), metadata={op_name="batch_stats[\'ResNetBlock_2\'][\'BatchNorm_0\'][\'mean\']"}
  %broadcast_in_dim.50 = f32[1,1,1,128]{3,2,1,0} reshape(%batch_stats__ResNetBlock_2____BatchNorm_0____mean__.1), metadata={op_name="jit(predict_step)/ResNet/ResNetBlock_2/BatchNorm_0/broadcast_in_dim" stack_frame_id=28}
  %sub.100 = f32[1,1,1,128]{3,2,1,0} broadcast(%broadcast_in_dim.50), dimensions={0,1,2,3}, metadata={op_name="jit(predict_step)/ResNet/ResNetBlock_2/BatchNorm_0/sub" stack_frame_id=29}
  %sub.101 = f32[128]{0} reshape(%sub.100), metadata={op_name="jit(predict_step)/ResNet/ResNetBlock_2/BatchNorm_0/sub" stack_frame_id=29}
  %sub.102 = f32[32,28,28,128]{3,2,1,0} broadcast(%sub.101), dimensions={3}, metadata={op_name="jit(predict_step)/ResNet/ResNetBlock_2/BatchNorm_0/sub" stack_frame_id=29}
  %sub.103 = f32[32,28,28,128]{3,2,1,0} subtract(%conv_general_dilated.25, %sub.102), metadata={op_name="jit(predict_step)/ResNet/ResNetBlock_2/BatchNorm_0/sub" stack_frame_id=29}
  %batch_stats__ResNetBlock_2____BatchNorm_0____var__.1 = f32[128]{0} parameter(71), metadata={op_name="batch_stats[\'ResNetBlock_2\'][\'BatchNorm_0\'][\'var\']"}
  %broadcast_in_dim.51 = f32[1,1,1,128]{3,2,1,0} reshape(%batch_stats__ResNetBlock_2____BatchNorm_0____var__.1), metadata={op_name="jit(predict_step)/ResNet/ResNetBlock_2/BatchNorm_0/broadcast_in_dim" stack_frame_id=30}
  %add.139 = f32[1,1,1,128]{3,2,1,0} add(%broadcast_in_dim.51, %broadcast.6), metadata={op_name="jit(predict_step)/ResNet/ResNetBlock_2/BatchNorm_0/add" stack_frame_id=31}
  %rsqrt.25 = f32[1,1,1,128]{3,2,1,0} rsqrt(%add.139), metadata={op_name="jit(predict_step)/ResNet/ResNetBlock_2/BatchNorm_0/rsqrt" stack_frame_id=32}
  %params__ResNetBlock_2____BatchNorm_0____scale__.1 = f32[128]{0} parameter(15), metadata={op_name="params[\'ResNetBlock_2\'][\'BatchNorm_0\'][\'scale\']"}
  %reshape.51 = f32[1,1,1,128]{3,2,1,0} reshape(%params__ResNetBlock_2____BatchNorm_0____scale__.1), metadata={op_name="jit(predict_step)/ResNet/ResNetBlock_2/BatchNorm_0/reshape" stack_frame_id=33}
  %mul.125 = f32[1,1,1,128]{3,2,1,0} multiply(%rsqrt.25, %reshape.51), metadata={op_name="jit(predict_step)/ResNet/ResNetBlock_2/BatchNorm_0/mul" stack_frame_id=34}
  %mul.126 = f32[1,1,1,128]{3,2,1,0} broadcast(%mul.125), dimensions={0,1,2,3}, metadata={op_name="jit(predict_step)/ResNet/ResNetBlock_2/BatchNorm_0/mul" stack_frame_id=35}
  %mul.127 = f32[128]{0} reshape(%mul.126), metadata={op_name="jit(predict_step)/ResNet/ResNetBlock_2/BatchNorm_0/mul" stack_frame_id=35}
  %mul.128 = f32[32,28,28,128]{3,2,1,0} broadcast(%mul.127), dimensions={3}, metadata={op_name="jit(predict_step)/ResNet/ResNetBlock_2/BatchNorm_0/mul" stack_frame_id=35}
  %mul.129 = f32[32,28,28,128]{3,2,1,0} multiply(%sub.103, %mul.128), metadata={op_name="jit(predict_step)/ResNet/ResNetBlock_2/BatchNorm_0/mul" stack_frame_id=35}
  %params__ResNetBlock_2____BatchNorm_0____bias__.1 = f32[128]{0} parameter(14), metadata={op_name="params[\'ResNetBlock_2\'][\'BatchNorm_0\'][\'bias\']"}
  %reshape.52 = f32[1,1,1,128]{3,2,1,0} reshape(%params__ResNetBlock_2____BatchNorm_0____bias__.1), metadata={op_name="jit(predict_step)/ResNet/ResNetBlock_2/BatchNorm_0/reshape" stack_frame_id=36}
  %add.140 = f32[1,1,1,128]{3,2,1,0} broadcast(%reshape.52), dimensions={0,1,2,3}, metadata={op_name="jit(predict_step)/ResNet/ResNetBlock_2/BatchNorm_0/add" stack_frame_id=37}
  %add.141 = f32[128]{0} reshape(%add.140), metadata={op_name="jit(predict_step)/ResNet/ResNetBlock_2/BatchNorm_0/add" stack_frame_id=37}
  %add.142 = f32[32,28,28,128]{3,2,1,0} broadcast(%add.141), dimensions={3}, metadata={op_name="jit(predict_step)/ResNet/ResNetBlock_2/BatchNorm_0/add" stack_frame_id=37}
  %add.143 = f32[32,28,28,128]{3,2,1,0} add(%mul.129, %add.142), metadata={op_name="jit(predict_step)/ResNet/ResNetBlock_2/BatchNorm_0/add" stack_frame_id=37}
  %jit_relu_.22 = f32[32,28,28,128]{3,2,1,0} call(%add.143), to_apply=%relu_1.4, metadata={op_name="jit(predict_step)/ResNet/ResNetBlock_2/jit(relu)" stack_frame_id=38}
  %params__ResNetBlock_2____Conv_1____kernel__.1 = f32[3,3,128,128]{3,2,1,0} parameter(19), metadata={op_name="params[\'ResNetBlock_2\'][\'Conv_1\'][\'kernel\']"}
  %conv_general_dilated.26 = f32[32,28,28,128]{3,2,1,0} convolution(%jit_relu_.22, %params__ResNetBlock_2____Conv_1____kernel__.1), window={size=3x3 pad=1_1x1_1}, dim_labels=b01f_01io->b01f, metadata={op_name="jit(predict_step)/ResNet/ResNetBlock_2/Conv_1/conv_general_dilated" stack_frame_id=40}
  %batch_stats__ResNetBlock_2____BatchNorm_1____mean__.1 = f32[128]{0} parameter(72), metadata={op_name="batch_stats[\'ResNetBlock_2\'][\'BatchNorm_1\'][\'mean\']"}
  %broadcast_in_dim.52 = f32[1,1,1,128]{3,2,1,0} reshape(%batch_stats__ResNetBlock_2____BatchNorm_1____mean__.1), metadata={op_name="jit(predict_step)/ResNet/ResNetBlock_2/BatchNorm_1/broadcast_in_dim" stack_frame_id=43}
  %sub.104 = f32[1,1,1,128]{3,2,1,0} broadcast(%broadcast_in_dim.52), dimensions={0,1,2,3}, metadata={op_name="jit(predict_step)/ResNet/ResNetBlock_2/BatchNorm_1/sub" stack_frame_id=44}
  %sub.105 = f32[128]{0} reshape(%sub.104), metadata={op_name="jit(predict_step)/ResNet/ResNetBlock_2/BatchNorm_1/sub" stack_frame_id=44}
  %sub.106 = f32[32,28,28,128]{3,2,1,0} broadcast(%sub.105), dimensions={3}, metadata={op_name="jit(predict_step)/ResNet/ResNetBlock_2/BatchNorm_1/sub" stack_frame_id=44}
  %sub.107 = f32[32,28,28,128]{3,2,1,0} subtract(%conv_general_dilated.26, %sub.106), metadata={op_name="jit(predict_step)/ResNet/ResNetBlock_2/BatchNorm_1/sub" stack_frame_id=44}
  %batch_stats__ResNetBlock_2____BatchNorm_1____var__.1 = f32[128]{0} parameter(73), metadata={op_name="batch_stats[\'ResNetBlock_2\'][\'BatchNorm_1\'][\'var\']"}
  %broadcast_in_dim.53 = f32[1,1,1,128]{3,2,1,0} reshape(%batch_stats__ResNetBlock_2____BatchNorm_1____var__.1), metadata={op_name="jit(predict_step)/ResNet/ResNetBlock_2/BatchNorm_1/broadcast_in_dim" stack_frame_id=45}
  %add.144 = f32[1,1,1,128]{3,2,1,0} add(%broadcast_in_dim.53, %broadcast.6), metadata={op_name="jit(predict_step)/ResNet/ResNetBlock_2/BatchNorm_1/add" stack_frame_id=46}
  %rsqrt.26 = f32[1,1,1,128]{3,2,1,0} rsqrt(%add.144), metadata={op_name="jit(predict_step)/ResNet/ResNetBlock_2/BatchNorm_1/rsqrt" stack_frame_id=47}
  %params__ResNetBlock_2____BatchNorm_1____scale__.1 = f32[128]{0} parameter(17), metadata={op_name="params[\'ResNetBlock_2\'][\'BatchNorm_1\'][\'scale\']"}
  %reshape.53 = f32[1,1,1,128]{3,2,1,0} reshape(%params__ResNetBlock_2____BatchNorm_1____scale__.1), metadata={op_name="jit(predict_step)/ResNet/ResNetBlock_2/BatchNorm_1/reshape" stack_frame_id=48}
  %mul.130 = f32[1,1,1,128]{3,2,1,0} multiply(%rsqrt.26, %reshape.53), metadata={op_name="jit(predict_step)/ResNet/ResNetBlock_2/BatchNorm_1/mul" stack_frame_id=49}
  %mul.131 = f32[1,1,1,128]{3,2,1,0} broadcast(%mul.130), dimensions={0,1,2,3}, metadata={op_name="jit(predict_step)/ResNet/ResNetBlock_2/BatchNorm_1/mul" stack_frame_id=50}
  %mul.132 = f32[128]{0} reshape(%mul.131), metadata={op_name="jit(predict_step)/ResNet/ResNetBlock_2/BatchNorm_1/mul" stack_frame_id=50}
  %mul.133 = f32[32,28,28,128]{3,2,1,0} broadcast(%mul.132), dimensions={3}, metadata={op_name="jit(predict_step)/ResNet/ResNetBlock_2/BatchNorm_1/mul" stack_frame_id=50}
  %mul.134 = f32[32,28,28,128]{3,2,1,0} multiply(%sub.107, %mul.133), metadata={op_name="jit(predict_step)/ResNet/ResNetBlock_2/BatchNorm_1/mul" stack_frame_id=50}
  %params__ResNetBlock_2____BatchNorm_1____bias__.1 = f32[128]{0} parameter(16), metadata={op_name="params[\'ResNetBlock_2\'][\'BatchNorm_1\'][\'bias\']"}
  %reshape.54 = f32[1,1,1,128]{3,2,1,0} reshape(%params__ResNetBlock_2____BatchNorm_1____bias__.1), metadata={op_name="jit(predict_step)/ResNet/ResNetBlock_2/BatchNorm_1/reshape" stack_frame_id=51}
  %add.145 = f32[1,1,1,128]{3,2,1,0} broadcast(%reshape.54), dimensions={0,1,2,3}, metadata={op_name="jit(predict_step)/ResNet/ResNetBlock_2/BatchNorm_1/add" stack_frame_id=52}
  %add.146 = f32[128]{0} reshape(%add.145), metadata={op_name="jit(predict_step)/ResNet/ResNetBlock_2/BatchNorm_1/add" stack_frame_id=52}
  %add.147 = f32[32,28,28,128]{3,2,1,0} broadcast(%add.146), dimensions={3}, metadata={op_name="jit(predict_step)/ResNet/ResNetBlock_2/BatchNorm_1/add" stack_frame_id=52}
  %add.148 = f32[32,28,28,128]{3,2,1,0} add(%mul.134, %add.147), metadata={op_name="jit(predict_step)/ResNet/ResNetBlock_2/BatchNorm_1/add" stack_frame_id=52}
  %add.154 = f32[32,28,28,128]{3,2,1,0} add(%add.153, %add.148), metadata={op_name="jit(predict_step)/ResNet/ResNetBlock_2/add" stack_frame_id=53}
  %jit_relu_.23 = f32[32,28,28,128]{3,2,1,0} call(%add.154), to_apply=%relu_1.4, metadata={op_name="jit(predict_step)/ResNet/ResNetBlock_2/jit(relu)" stack_frame_id=54}
  %params__ResNetBlock_3____Conv_0____kernel__.1 = f32[3,3,128,128]{3,2,1,0} parameter(27), metadata={op_name="params[\'ResNetBlock_3\'][\'Conv_0\'][\'kernel\']"}
  %conv_general_dilated.28 = f32[32,28,28,128]{3,2,1,0} convolution(%jit_relu_.23, %params__ResNetBlock_3____Conv_0____kernel__.1), window={size=3x3 pad=1_1x1_1}, dim_labels=b01f_01io->b01f, metadata={op_name="jit(predict_step)/ResNet/ResNetBlock_3/Conv_0/conv_general_dilated" stack_frame_id=25}
  %batch_stats__ResNetBlock_3____BatchNorm_0____mean__.1 = f32[128]{0} parameter(76), metadata={op_name="batch_stats[\'ResNetBlock_3\'][\'BatchNorm_0\'][\'mean\']"}
  %broadcast_in_dim.56 = f32[1,1,1,128]{3,2,1,0} reshape(%batch_stats__ResNetBlock_3____BatchNorm_0____mean__.1), metadata={op_name="jit(predict_step)/ResNet/ResNetBlock_3/BatchNorm_0/broadcast_in_dim" stack_frame_id=28}
  %sub.112 = f32[1,1,1,128]{3,2,1,0} broadcast(%broadcast_in_dim.56), dimensions={0,1,2,3}, metadata={op_name="jit(predict_step)/ResNet/ResNetBlock_3/BatchNorm_0/sub" stack_frame_id=29}
  %sub.113 = f32[128]{0} reshape(%sub.112), metadata={op_name="jit(predict_step)/ResNet/ResNetBlock_3/BatchNorm_0/sub" stack_frame_id=29}
  %sub.114 = f32[32,28,28,128]{3,2,1,0} broadcast(%sub.113), dimensions={3}, metadata={op_name="jit(predict_step)/ResNet/ResNetBlock_3/BatchNorm_0/sub" stack_frame_id=29}
  %sub.115 = f32[32,28,28,128]{3,2,1,0} subtract(%conv_general_dilated.28, %sub.114), metadata={op_name="jit(predict_step)/ResNet/ResNetBlock_3/BatchNorm_0/sub" stack_frame_id=29}
  %batch_stats__ResNetBlock_3____BatchNorm_0____var__.1 = f32[128]{0} parameter(77), metadata={op_name="batch_stats[\'ResNetBlock_3\'][\'BatchNorm_0\'][\'var\']"}
  %broadcast_in_dim.57 = f32[1,1,1,128]{3,2,1,0} reshape(%batch_stats__ResNetBlock_3____BatchNorm_0____var__.1), metadata={op_name="jit(predict_step)/ResNet/ResNetBlock_3/BatchNorm_0/broadcast_in_dim" stack_frame_id=30}
  %add.155 = f32[1,1,1,128]{3,2,1,0} add(%broadcast_in_dim.57, %broadcast.6), metadata={op_name="jit(predict_step)/ResNet/ResNetBlock_3/BatchNorm_0/add" stack_frame_id=31}
  %rsqrt.28 = f32[1,1,1,128]{3,2,1,0} rsqrt(%add.155), metadata={op_name="jit(predict_step)/ResNet/ResNetBlock_3/BatchNorm_0/rsqrt" stack_frame_id=32}
  %params__ResNetBlock_3____BatchNorm_0____scale__.1 = f32[128]{0} parameter(24), metadata={op_name="params[\'ResNetBlock_3\'][\'BatchNorm_0\'][\'scale\']"}
  %reshape.57 = f32[1,1,1,128]{3,2,1,0} reshape(%params__ResNetBlock_3____BatchNorm_0____scale__.1), metadata={op_name="jit(predict_step)/ResNet/ResNetBlock_3/BatchNorm_0/reshape" stack_frame_id=33}
  %mul.140 = f32[1,1,1,128]{3,2,1,0} multiply(%rsqrt.28, %reshape.57), metadata={op_name="jit(predict_step)/ResNet/ResNetBlock_3/BatchNorm_0/mul" stack_frame_id=34}
  %mul.141 = f32[1,1,1,128]{3,2,1,0} broadcast(%mul.140), dimensions={0,1,2,3}, metadata={op_name="jit(predict_step)/ResNet/ResNetBlock_3/BatchNorm_0/mul" stack_frame_id=35}
  %mul.142 = f32[128]{0} reshape(%mul.141), metadata={op_name="jit(predict_step)/ResNet/ResNetBlock_3/BatchNorm_0/mul" stack_frame_id=35}
  %mul.143 = f32[32,28,28,128]{3,2,1,0} broadcast(%mul.142), dimensions={3}, metadata={op_name="jit(predict_step)/ResNet/ResNetBlock_3/BatchNorm_0/mul" stack_frame_id=35}
  %mul.144 = f32[32,28,28,128]{3,2,1,0} multiply(%sub.115, %mul.143), metadata={op_name="jit(predict_step)/ResNet/ResNetBlock_3/BatchNorm_0/mul" stack_frame_id=35}
  %params__ResNetBlock_3____BatchNorm_0____bias__.1 = f32[128]{0} parameter(23), metadata={op_name="params[\'ResNetBlock_3\'][\'BatchNorm_0\'][\'bias\']"}
  %reshape.58 = f32[1,1,1,128]{3,2,1,0} reshape(%params__ResNetBlock_3____BatchNorm_0____bias__.1), metadata={op_name="jit(predict_step)/ResNet/ResNetBlock_3/BatchNorm_0/reshape" stack_frame_id=36}
  %add.156 = f32[1,1,1,128]{3,2,1,0} broadcast(%reshape.58), dimensions={0,1,2,3}, metadata={op_name="jit(predict_step)/ResNet/ResNetBlock_3/BatchNorm_0/add" stack_frame_id=37}
  %add.157 = f32[128]{0} reshape(%add.156), metadata={op_name="jit(predict_step)/ResNet/ResNetBlock_3/BatchNorm_0/add" stack_frame_id=37}
  %add.158 = f32[32,28,28,128]{3,2,1,0} broadcast(%add.157), dimensions={3}, metadata={op_name="jit(predict_step)/ResNet/ResNetBlock_3/BatchNorm_0/add" stack_frame_id=37}
  %add.159 = f32[32,28,28,128]{3,2,1,0} add(%mul.144, %add.158), metadata={op_name="jit(predict_step)/ResNet/ResNetBlock_3/BatchNorm_0/add" stack_frame_id=37}
  %jit_relu_.24 = f32[32,28,28,128]{3,2,1,0} call(%add.159), to_apply=%relu_1.4, metadata={op_name="jit(predict_step)/ResNet/ResNetBlock_3/jit(relu)" stack_frame_id=38}
  %params__ResNetBlock_3____Conv_1____kernel__.1 = f32[3,3,128,128]{3,2,1,0} parameter(28), metadata={op_name="params[\'ResNetBlock_3\'][\'Conv_1\'][\'kernel\']"}
  %conv_general_dilated.29 = f32[32,28,28,128]{3,2,1,0} convolution(%jit_relu_.24, %params__ResNetBlock_3____Conv_1____kernel__.1), window={size=3x3 pad=1_1x1_1}, dim_labels=b01f_01io->b01f, metadata={op_name="jit(predict_step)/ResNet/ResNetBlock_3/Conv_1/conv_general_dilated" stack_frame_id=40}
  %batch_stats__ResNetBlock_3____BatchNorm_1____mean__.1 = f32[128]{0} parameter(78), metadata={op_name="batch_stats[\'ResNetBlock_3\'][\'BatchNorm_1\'][\'mean\']"}
  %broadcast_in_dim.58 = f32[1,1,1,128]{3,2,1,0} reshape(%batch_stats__ResNetBlock_3____BatchNorm_1____mean__.1), metadata={op_name="jit(predict_step)/ResNet/ResNetBlock_3/BatchNorm_1/broadcast_in_dim" stack_frame_id=43}
  %sub.116 = f32[1,1,1,128]{3,2,1,0} broadcast(%broadcast_in_dim.58), dimensions={0,1,2,3}, metadata={op_name="jit(predict_step)/ResNet/ResNetBlock_3/BatchNorm_1/sub" stack_frame_id=44}
  %sub.117 = f32[128]{0} reshape(%sub.116), metadata={op_name="jit(predict_step)/ResNet/ResNetBlock_3/BatchNorm_1/sub" stack_frame_id=44}
  %sub.118 = f32[32,28,28,128]{3,2,1,0} broadcast(%sub.117), dimensions={3}, metadata={op_name="jit(predict_step)/ResNet/ResNetBlock_3/BatchNorm_1/sub" stack_frame_id=44}
  %sub.119 = f32[32,28,28,128]{3,2,1,0} subtract(%conv_general_dilated.29, %sub.118), metadata={op_name="jit(predict_step)/ResNet/ResNetBlock_3/BatchNorm_1/sub" stack_frame_id=44}
  %batch_stats__ResNetBlock_3____BatchNorm_1____var__.1 = f32[128]{0} parameter(79), metadata={op_name="batch_stats[\'ResNetBlock_3\'][\'BatchNorm_1\'][\'var\']"}
  %broadcast_in_dim.59 = f32[1,1,1,128]{3,2,1,0} reshape(%batch_stats__ResNetBlock_3____BatchNorm_1____var__.1), metadata={op_name="jit(predict_step)/ResNet/ResNetBlock_3/BatchNorm_1/broadcast_in_dim" stack_frame_id=45}
  %add.160 = f32[1,1,1,128]{3,2,1,0} add(%broadcast_in_dim.59, %broadcast.6), metadata={op_name="jit(predict_step)/ResNet/ResNetBlock_3/BatchNorm_1/add" stack_frame_id=46}
  %rsqrt.29 = f32[1,1,1,128]{3,2,1,0} rsqrt(%add.160), metadata={op_name="jit(predict_step)/ResNet/ResNetBlock_3/BatchNorm_1/rsqrt" stack_frame_id=47}
  %params__ResNetBlock_3____BatchNorm_1____scale__.1 = f32[128]{0} parameter(26), metadata={op_name="params[\'ResNetBlock_3\'][\'BatchNorm_1\'][\'scale\']"}
  %reshape.59 = f32[1,1,1,128]{3,2,1,0} reshape(%params__ResNetBlock_3____BatchNorm_1____scale__.1), metadata={op_name="jit(predict_step)/ResNet/ResNetBlock_3/BatchNorm_1/reshape" stack_frame_id=48}
  %mul.145 = f32[1,1,1,128]{3,2,1,0} multiply(%rsqrt.29, %reshape.59), metadata={op_name="jit(predict_step)/ResNet/ResNetBlock_3/BatchNorm_1/mul" stack_frame_id=49}
  %mul.146 = f32[1,1,1,128]{3,2,1,0} broadcast(%mul.145), dimensions={0,1,2,3}, metadata={op_name="jit(predict_step)/ResNet/ResNetBlock_3/BatchNorm_1/mul" stack_frame_id=50}
  %mul.147 = f32[128]{0} reshape(%mul.146), metadata={op_name="jit(predict_step)/ResNet/ResNetBlock_3/BatchNorm_1/mul" stack_frame_id=50}
  %mul.148 = f32[32,28,28,128]{3,2,1,0} broadcast(%mul.147), dimensions={3}, metadata={op_name="jit(predict_step)/ResNet/ResNetBlock_3/BatchNorm_1/mul" stack_frame_id=50}
  %mul.149 = f32[32,28,28,128]{3,2,1,0} multiply(%sub.119, %mul.148), metadata={op_name="jit(predict_step)/ResNet/ResNetBlock_3/BatchNorm_1/mul" stack_frame_id=50}
  %params__ResNetBlock_3____BatchNorm_1____bias__.1 = f32[128]{0} parameter(25), metadata={op_name="params[\'ResNetBlock_3\'][\'BatchNorm_1\'][\'bias\']"}
  %reshape.60 = f32[1,1,1,128]{3,2,1,0} reshape(%params__ResNetBlock_3____BatchNorm_1____bias__.1), metadata={op_name="jit(predict_step)/ResNet/ResNetBlock_3/BatchNorm_1/reshape" stack_frame_id=51}
  %add.161 = f32[1,1,1,128]{3,2,1,0} broadcast(%reshape.60), dimensions={0,1,2,3}, metadata={op_name="jit(predict_step)/ResNet/ResNetBlock_3/BatchNorm_1/add" stack_frame_id=52}
  %add.162 = f32[128]{0} reshape(%add.161), metadata={op_name="jit(predict_step)/ResNet/ResNetBlock_3/BatchNorm_1/add" stack_frame_id=52}
  %add.163 = f32[32,28,28,128]{3,2,1,0} broadcast(%add.162), dimensions={3}, metadata={op_name="jit(predict_step)/ResNet/ResNetBlock_3/BatchNorm_1/add" stack_frame_id=52}
  %add.164 = f32[32,28,28,128]{3,2,1,0} add(%mul.149, %add.163), metadata={op_name="jit(predict_step)/ResNet/ResNetBlock_3/BatchNorm_1/add" stack_frame_id=52}
  %add.165 = f32[32,28,28,128]{3,2,1,0} add(%jit_relu_.23, %add.164), metadata={op_name="jit(predict_step)/ResNet/ResNetBlock_3/add" stack_frame_id=53}
  %jit_relu_.25 = f32[32,28,28,128]{3,2,1,0} call(%add.165), to_apply=%relu_1.4, metadata={op_name="jit(predict_step)/ResNet/ResNetBlock_3/jit(relu)" stack_frame_id=54}
  %params__ResNetBlock_4____conv_proj____kernel__.1 = f32[1,1,128,256]{3,2,1,0} parameter(35), metadata={op_name="params[\'ResNetBlock_4\'][\'conv_proj\'][\'kernel\']"}
  %conv_general_dilated.32 = f32[32,14,14,256]{3,2,1,0} convolution(%jit_relu_.25, %params__ResNetBlock_4____conv_proj____kernel__.1), window={size=1x1 stride=2x2}, dim_labels=b01f_01io->b01f, metadata={op_name="jit(predict_step)/ResNet/ResNetBlock_4/conv_proj/conv_general_dilated" stack_frame_id=56}
  %batch_stats__ResNetBlock_4____norm_proj____mean__.1 = f32[256]{0} parameter(84), metadata={op_name="batch_stats[\'ResNetBlock_4\'][\'norm_proj\'][\'mean\']"}
  %broadcast_in_dim.64 = f32[1,1,1,256]{3,2,1,0} reshape(%batch_stats__ResNetBlock_4____norm_proj____mean__.1), metadata={op_name="jit(predict_step)/ResNet/ResNetBlock_4/norm_proj/broadcast_in_dim" stack_frame_id=59}
  %sub.128 = f32[1,1,1,256]{3,2,1,0} broadcast(%broadcast_in_dim.64), dimensions={0,1,2,3}, metadata={op_name="jit(predict_step)/ResNet/ResNetBlock_4/norm_proj/sub" stack_frame_id=60}
  %sub.129 = f32[256]{0} reshape(%sub.128), metadata={op_name="jit(predict_step)/ResNet/ResNetBlock_4/norm_proj/sub" stack_frame_id=60}
  %sub.130 = f32[32,14,14,256]{3,2,1,0} broadcast(%sub.129), dimensions={3}, metadata={op_name="jit(predict_step)/ResNet/ResNetBlock_4/norm_proj/sub" stack_frame_id=60}
  %sub.131 = f32[32,14,14,256]{3,2,1,0} subtract(%conv_general_dilated.32, %sub.130), metadata={op_name="jit(predict_step)/ResNet/ResNetBlock_4/norm_proj/sub" stack_frame_id=60}
  %batch_stats__ResNetBlock_4____norm_proj____var__.1 = f32[256]{0} parameter(85), metadata={op_name="batch_stats[\'ResNetBlock_4\'][\'norm_proj\'][\'var\']"}
  %broadcast_in_dim.65 = f32[1,1,1,256]{3,2,1,0} reshape(%batch_stats__ResNetBlock_4____norm_proj____var__.1), metadata={op_name="jit(predict_step)/ResNet/ResNetBlock_4/norm_proj/broadcast_in_dim" stack_frame_id=61}
  %constant.19 = f32[] constant(1e-05)
  %broadcast.5 = f32[1,1,1,256]{3,2,1,0} broadcast(%constant.19), dimensions={}
  %add.176 = f32[1,1,1,256]{3,2,1,0} add(%broadcast_in_dim.65, %broadcast.5), metadata={op_name="jit(predict_step)/ResNet/ResNetBlock_4/norm_proj/add" stack_frame_id=62}
  %rsqrt.32 = f32[1,1,1,256]{3,2,1,0} rsqrt(%add.176), metadata={op_name="jit(predict_step)/ResNet/ResNetBlock_4/norm_proj/rsqrt" stack_frame_id=63}
  %params__ResNetBlock_4____norm_proj____scale__.1 = f32[256]{0} parameter(37), metadata={op_name="params[\'ResNetBlock_4\'][\'norm_proj\'][\'scale\']"}
  %reshape.65 = f32[1,1,1,256]{3,2,1,0} reshape(%params__ResNetBlock_4____norm_proj____scale__.1), metadata={op_name="jit(predict_step)/ResNet/ResNetBlock_4/norm_proj/reshape" stack_frame_id=64}
  %mul.160 = f32[1,1,1,256]{3,2,1,0} multiply(%rsqrt.32, %reshape.65), metadata={op_name="jit(predict_step)/ResNet/ResNetBlock_4/norm_proj/mul" stack_frame_id=65}
  %mul.161 = f32[1,1,1,256]{3,2,1,0} broadcast(%mul.160), dimensions={0,1,2,3}, metadata={op_name="jit(predict_step)/ResNet/ResNetBlock_4/norm_proj/mul" stack_frame_id=66}
  %mul.162 = f32[256]{0} reshape(%mul.161), metadata={op_name="jit(predict_step)/ResNet/ResNetBlock_4/norm_proj/mul" stack_frame_id=66}
  %mul.163 = f32[32,14,14,256]{3,2,1,0} broadcast(%mul.162), dimensions={3}, metadata={op_name="jit(predict_step)/ResNet/ResNetBlock_4/norm_proj/mul" stack_frame_id=66}
  %mul.164 = f32[32,14,14,256]{3,2,1,0} multiply(%sub.131, %mul.163), metadata={op_name="jit(predict_step)/ResNet/ResNetBlock_4/norm_proj/mul" stack_frame_id=66}
  %params__ResNetBlock_4____norm_proj____bias__.1 = f32[256]{0} parameter(36), metadata={op_name="params[\'ResNetBlock_4\'][\'norm_proj\'][\'bias\']"}
  %reshape.66 = f32[1,1,1,256]{3,2,1,0} reshape(%params__ResNetBlock_4____norm_proj____bias__.1), metadata={op_name="jit(predict_step)/ResNet/ResNetBlock_4/norm_proj/reshape" stack_frame_id=67}
  %add.177 = f32[1,1,1,256]{3,2,1,0} broadcast(%reshape.66), dimensions={0,1,2,3}, metadata={op_name="jit(predict_step)/ResNet/ResNetBlock_4/norm_proj/add" stack_frame_id=68}
  %add.178 = f32[256]{0} reshape(%add.177), metadata={op_name="jit(predict_step)/ResNet/ResNetBlock_4/norm_proj/add" stack_frame_id=68}
  %add.179 = f32[32,14,14,256]{3,2,1,0} broadcast(%add.178), dimensions={3}, metadata={op_name="jit(predict_step)/ResNet/ResNetBlock_4/norm_proj/add" stack_frame_id=68}
  %add.180 = f32[32,14,14,256]{3,2,1,0} add(%mul.164, %add.179), metadata={op_name="jit(predict_step)/ResNet/ResNetBlock_4/norm_proj/add" stack_frame_id=68}
  %params__ResNetBlock_4____Conv_0____kernel__.1 = f32[3,3,128,256]{3,2,1,0} parameter(33), metadata={op_name="params[\'ResNetBlock_4\'][\'Conv_0\'][\'kernel\']"}
  %conv_general_dilated.30 = f32[32,14,14,256]{3,2,1,0} convolution(%jit_relu_.25, %params__ResNetBlock_4____Conv_0____kernel__.1), window={size=3x3 stride=2x2 pad=0_1x0_1}, dim_labels=b01f_01io->b01f, metadata={op_name="jit(predict_step)/ResNet/ResNetBlock_4/Conv_0/conv_general_dilated" stack_frame_id=25}
  %batch_stats__ResNetBlock_4____BatchNorm_0____mean__.1 = f32[256]{0} parameter(80), metadata={op_name="batch_stats[\'ResNetBlock_4\'][\'BatchNorm_0\'][\'mean\']"}
  %broadcast_in_dim.60 = f32[1,1,1,256]{3,2,1,0} reshape(%batch_stats__ResNetBlock_4____BatchNorm_0____mean__.1), metadata={op_name="jit(predict_step)/ResNet/ResNetBlock_4/BatchNorm_0/broadcast_in_dim" stack_frame_id=28}
  %sub.120 = f32[1,1,1,256]{3,2,1,0} broadcast(%broadcast_in_dim.60), dimensions={0,1,2,3}, metadata={op_name="jit(predict_step)/ResNet/ResNetBlock_4/BatchNorm_0/sub" stack_frame_id=29}
  %sub.121 = f32[256]{0} reshape(%sub.120), metadata={op_name="jit(predict_step)/ResNet/ResNetBlock_4/BatchNorm_0/sub" stack_frame_id=29}
  %sub.122 = f32[32,14,14,256]{3,2,1,0} broadcast(%sub.121), dimensions={3}, metadata={op_name="jit(predict_step)/ResNet/ResNetBlock_4/BatchNorm_0/sub" stack_frame_id=29}
  %sub.123 = f32[32,14,14,256]{3,2,1,0} subtract(%conv_general_dilated.30, %sub.122), metadata={op_name="jit(predict_step)/ResNet/ResNetBlock_4/BatchNorm_0/sub" stack_frame_id=29}
  %batch_stats__ResNetBlock_4____BatchNorm_0____var__.1 = f32[256]{0} parameter(81), metadata={op_name="batch_stats[\'ResNetBlock_4\'][\'BatchNorm_0\'][\'var\']"}
  %broadcast_in_dim.61 = f32[1,1,1,256]{3,2,1,0} reshape(%batch_stats__ResNetBlock_4____BatchNorm_0____var__.1), metadata={op_name="jit(predict_step)/ResNet/ResNetBlock_4/BatchNorm_0/broadcast_in_dim" stack_frame_id=30}
  %add.166 = f32[1,1,1,256]{3,2,1,0} add(%broadcast_in_dim.61, %broadcast.5), metadata={op_name="jit(predict_step)/ResNet/ResNetBlock_4/BatchNorm_0/add" stack_frame_id=31}
  %rsqrt.30 = f32[1,1,1,256]{3,2,1,0} rsqrt(%add.166), metadata={op_name="jit(predict_step)/ResNet/ResNetBlock_4/BatchNorm_0/rsqrt" stack_frame_id=32}
  %params__ResNetBlock_4____BatchNorm_0____scale__.1 = f32[256]{0} parameter(30), metadata={op_name="params[\'ResNetBlock_4\'][\'BatchNorm_0\'][\'scale\']"}
  %reshape.61 = f32[1,1,1,256]{3,2,1,0} reshape(%params__ResNetBlock_4____BatchNorm_0____scale__.1), metadata={op_name="jit(predict_step)/ResNet/ResNetBlock_4/BatchNorm_0/reshape" stack_frame_id=33}
  %mul.150 = f32[1,1,1,256]{3,2,1,0} multiply(%rsqrt.30, %reshape.61), metadata={op_name="jit(predict_step)/ResNet/ResNetBlock_4/BatchNorm_0/mul" stack_frame_id=34}
  %mul.151 = f32[1,1,1,256]{3,2,1,0} broadcast(%mul.150), dimensions={0,1,2,3}, metadata={op_name="jit(predict_step)/ResNet/ResNetBlock_4/BatchNorm_0/mul" stack_frame_id=35}
  %mul.152 = f32[256]{0} reshape(%mul.151), metadata={op_name="jit(predict_step)/ResNet/ResNetBlock_4/BatchNorm_0/mul" stack_frame_id=35}
  %mul.153 = f32[32,14,14,256]{3,2,1,0} broadcast(%mul.152), dimensions={3}, metadata={op_name="jit(predict_step)/ResNet/ResNetBlock_4/BatchNorm_0/mul" stack_frame_id=35}
  %mul.154 = f32[32,14,14,256]{3,2,1,0} multiply(%sub.123, %mul.153), metadata={op_name="jit(predict_step)/ResNet/ResNetBlock_4/BatchNorm_0/mul" stack_frame_id=35}
  %params__ResNetBlock_4____BatchNorm_0____bias__.1 = f32[256]{0} parameter(29), metadata={op_name="params[\'ResNetBlock_4\'][\'BatchNorm_0\'][\'bias\']"}
  %reshape.62 = f32[1,1,1,256]{3,2,1,0} reshape(%params__ResNetBlock_4____BatchNorm_0____bias__.1), metadata={op_name="jit(predict_step)/ResNet/ResNetBlock_4/BatchNorm_0/reshape" stack_frame_id=36}
  %add.167 = f32[1,1,1,256]{3,2,1,0} broadcast(%reshape.62), dimensions={0,1,2,3}, metadata={op_name="jit(predict_step)/ResNet/ResNetBlock_4/BatchNorm_0/add" stack_frame_id=37}
  %add.168 = f32[256]{0} reshape(%add.167), metadata={op_name="jit(predict_step)/ResNet/ResNetBlock_4/BatchNorm_0/add" stack_frame_id=37}
  %add.169 = f32[32,14,14,256]{3,2,1,0} broadcast(%add.168), dimensions={3}, metadata={op_name="jit(predict_step)/ResNet/ResNetBlock_4/BatchNorm_0/add" stack_frame_id=37}
  %add.170 = f32[32,14,14,256]{3,2,1,0} add(%mul.154, %add.169), metadata={op_name="jit(predict_step)/ResNet/ResNetBlock_4/BatchNorm_0/add" stack_frame_id=37}
  %jit_relu_.26 = f32[32,14,14,256]{3,2,1,0} call(%add.170), to_apply=%relu_2.5, metadata={op_name="jit(predict_step)/ResNet/ResNetBlock_4/jit(relu)" stack_frame_id=38}
  %params__ResNetBlock_4____Conv_1____kernel__.1 = f32[3,3,256,256]{3,2,1,0} parameter(34), metadata={op_name="params[\'ResNetBlock_4\'][\'Conv_1\'][\'kernel\']"}
  %conv_general_dilated.31 = f32[32,14,14,256]{3,2,1,0} convolution(%jit_relu_.26, %params__ResNetBlock_4____Conv_1____kernel__.1), window={size=3x3 pad=1_1x1_1}, dim_labels=b01f_01io->b01f, metadata={op_name="jit(predict_step)/ResNet/ResNetBlock_4/Conv_1/conv_general_dilated" stack_frame_id=40}
  %batch_stats__ResNetBlock_4____BatchNorm_1____mean__.1 = f32[256]{0} parameter(82), metadata={op_name="batch_stats[\'ResNetBlock_4\'][\'BatchNorm_1\'][\'mean\']"}
  %broadcast_in_dim.62 = f32[1,1,1,256]{3,2,1,0} reshape(%batch_stats__ResNetBlock_4____BatchNorm_1____mean__.1), metadata={op_name="jit(predict_step)/ResNet/ResNetBlock_4/BatchNorm_1/broadcast_in_dim" stack_frame_id=43}
  %sub.124 = f32[1,1,1,256]{3,2,1,0} broadcast(%broadcast_in_dim.62), dimensions={0,1,2,3}, metadata={op_name="jit(predict_step)/ResNet/ResNetBlock_4/BatchNorm_1/sub" stack_frame_id=44}
  %sub.125 = f32[256]{0} reshape(%sub.124), metadata={op_name="jit(predict_step)/ResNet/ResNetBlock_4/BatchNorm_1/sub" stack_frame_id=44}
  %sub.126 = f32[32,14,14,256]{3,2,1,0} broadcast(%sub.125), dimensions={3}, metadata={op_name="jit(predict_step)/ResNet/ResNetBlock_4/BatchNorm_1/sub" stack_frame_id=44}
  %sub.127 = f32[32,14,14,256]{3,2,1,0} subtract(%conv_general_dilated.31, %sub.126), metadata={op_name="jit(predict_step)/ResNet/ResNetBlock_4/BatchNorm_1/sub" stack_frame_id=44}
  %batch_stats__ResNetBlock_4____BatchNorm_1____var__.1 = f32[256]{0} parameter(83), metadata={op_name="batch_stats[\'ResNetBlock_4\'][\'BatchNorm_1\'][\'var\']"}
  %broadcast_in_dim.63 = f32[1,1,1,256]{3,2,1,0} reshape(%batch_stats__ResNetBlock_4____BatchNorm_1____var__.1), metadata={op_name="jit(predict_step)/ResNet/ResNetBlock_4/BatchNorm_1/broadcast_in_dim" stack_frame_id=45}
  %add.171 = f32[1,1,1,256]{3,2,1,0} add(%broadcast_in_dim.63, %broadcast.5), metadata={op_name="jit(predict_step)/ResNet/ResNetBlock_4/BatchNorm_1/add" stack_frame_id=46}
  %rsqrt.31 = f32[1,1,1,256]{3,2,1,0} rsqrt(%add.171), metadata={op_name="jit(predict_step)/ResNet/ResNetBlock_4/BatchNorm_1/rsqrt" stack_frame_id=47}
  %params__ResNetBlock_4____BatchNorm_1____scale__.1 = f32[256]{0} parameter(32), metadata={op_name="params[\'ResNetBlock_4\'][\'BatchNorm_1\'][\'scale\']"}
  %reshape.63 = f32[1,1,1,256]{3,2,1,0} reshape(%params__ResNetBlock_4____BatchNorm_1____scale__.1), metadata={op_name="jit(predict_step)/ResNet/ResNetBlock_4/BatchNorm_1/reshape" stack_frame_id=48}
  %mul.155 = f32[1,1,1,256]{3,2,1,0} multiply(%rsqrt.31, %reshape.63), metadata={op_name="jit(predict_step)/ResNet/ResNetBlock_4/BatchNorm_1/mul" stack_frame_id=49}
  %mul.156 = f32[1,1,1,256]{3,2,1,0} broadcast(%mul.155), dimensions={0,1,2,3}, metadata={op_name="jit(predict_step)/ResNet/ResNetBlock_4/BatchNorm_1/mul" stack_frame_id=50}
  %mul.157 = f32[256]{0} reshape(%mul.156), metadata={op_name="jit(predict_step)/ResNet/ResNetBlock_4/BatchNorm_1/mul" stack_frame_id=50}
  %mul.158 = f32[32,14,14,256]{3,2,1,0} broadcast(%mul.157), dimensions={3}, metadata={op_name="jit(predict_step)/ResNet/ResNetBlock_4/BatchNorm_1/mul" stack_frame_id=50}
  %mul.159 = f32[32,14,14,256]{3,2,1,0} multiply(%sub.127, %mul.158), metadata={op_name="jit(predict_step)/ResNet/ResNetBlock_4/BatchNorm_1/mul" stack_frame_id=50}
  %params__ResNetBlock_4____BatchNorm_1____bias__.1 = f32[256]{0} parameter(31), metadata={op_name="params[\'ResNetBlock_4\'][\'BatchNorm_1\'][\'bias\']"}
  %reshape.64 = f32[1,1,1,256]{3,2,1,0} reshape(%params__ResNetBlock_4____BatchNorm_1____bias__.1), metadata={op_name="jit(predict_step)/ResNet/ResNetBlock_4/BatchNorm_1/reshape" stack_frame_id=51}
  %add.172 = f32[1,1,1,256]{3,2,1,0} broadcast(%reshape.64), dimensions={0,1,2,3}, metadata={op_name="jit(predict_step)/ResNet/ResNetBlock_4/BatchNorm_1/add" stack_frame_id=52}
  %add.173 = f32[256]{0} reshape(%add.172), metadata={op_name="jit(predict_step)/ResNet/ResNetBlock_4/BatchNorm_1/add" stack_frame_id=52}
  %add.174 = f32[32,14,14,256]{3,2,1,0} broadcast(%add.173), dimensions={3}, metadata={op_name="jit(predict_step)/ResNet/ResNetBlock_4/BatchNorm_1/add" stack_frame_id=52}
  %add.175 = f32[32,14,14,256]{3,2,1,0} add(%mul.159, %add.174), metadata={op_name="jit(predict_step)/ResNet/ResNetBlock_4/BatchNorm_1/add" stack_frame_id=52}
  %add.181 = f32[32,14,14,256]{3,2,1,0} add(%add.180, %add.175), metadata={op_name="jit(predict_step)/ResNet/ResNetBlock_4/add" stack_frame_id=53}
  %jit_relu_.27 = f32[32,14,14,256]{3,2,1,0} call(%add.181), to_apply=%relu_2.5, metadata={op_name="jit(predict_step)/ResNet/ResNetBlock_4/jit(relu)" stack_frame_id=54}
  %params__ResNetBlock_5____Conv_0____kernel__.1 = f32[3,3,256,256]{3,2,1,0} parameter(42), metadata={op_name="params[\'ResNetBlock_5\'][\'Conv_0\'][\'kernel\']"}
  %conv_general_dilated.33 = f32[32,14,14,256]{3,2,1,0} convolution(%jit_relu_.27, %params__ResNetBlock_5____Conv_0____kernel__.1), window={size=3x3 pad=1_1x1_1}, dim_labels=b01f_01io->b01f, metadata={op_name="jit(predict_step)/ResNet/ResNetBlock_5/Conv_0/conv_general_dilated" stack_frame_id=25}
  %batch_stats__ResNetBlock_5____BatchNorm_0____mean__.1 = f32[256]{0} parameter(86), metadata={op_name="batch_stats[\'ResNetBlock_5\'][\'BatchNorm_0\'][\'mean\']"}
  %broadcast_in_dim.66 = f32[1,1,1,256]{3,2,1,0} reshape(%batch_stats__ResNetBlock_5____BatchNorm_0____mean__.1), metadata={op_name="jit(predict_step)/ResNet/ResNetBlock_5/BatchNorm_0/broadcast_in_dim" stack_frame_id=28}
  %sub.132 = f32[1,1,1,256]{3,2,1,0} broadcast(%broadcast_in_dim.66), dimensions={0,1,2,3}, metadata={op_name="jit(predict_step)/ResNet/ResNetBlock_5/BatchNorm_0/sub" stack_frame_id=29}
  %sub.133 = f32[256]{0} reshape(%sub.132), metadata={op_name="jit(predict_step)/ResNet/ResNetBlock_5/BatchNorm_0/sub" stack_frame_id=29}
  %sub.134 = f32[32,14,14,256]{3,2,1,0} broadcast(%sub.133), dimensions={3}, metadata={op_name="jit(predict_step)/ResNet/ResNetBlock_5/BatchNorm_0/sub" stack_frame_id=29}
  %sub.135 = f32[32,14,14,256]{3,2,1,0} subtract(%conv_general_dilated.33, %sub.134), metadata={op_name="jit(predict_step)/ResNet/ResNetBlock_5/BatchNorm_0/sub" stack_frame_id=29}
  %batch_stats__ResNetBlock_5____BatchNorm_0____var__.1 = f32[256]{0} parameter(87), metadata={op_name="batch_stats[\'ResNetBlock_5\'][\'BatchNorm_0\'][\'var\']"}
  %broadcast_in_dim.67 = f32[1,1,1,256]{3,2,1,0} reshape(%batch_stats__ResNetBlock_5____BatchNorm_0____var__.1), metadata={op_name="jit(predict_step)/ResNet/ResNetBlock_5/BatchNorm_0/broadcast_in_dim" stack_frame_id=30}
  %add.182 = f32[1,1,1,256]{3,2,1,0} add(%broadcast_in_dim.67, %broadcast.5), metadata={op_name="jit(predict_step)/ResNet/ResNetBlock_5/BatchNorm_0/add" stack_frame_id=31}
  %rsqrt.33 = f32[1,1,1,256]{3,2,1,0} rsqrt(%add.182), metadata={op_name="jit(predict_step)/ResNet/ResNetBlock_5/BatchNorm_0/rsqrt" stack_frame_id=32}
  %params__ResNetBlock_5____BatchNorm_0____scale__.1 = f32[256]{0} parameter(39), metadata={op_name="params[\'ResNetBlock_5\'][\'BatchNorm_0\'][\'scale\']"}
  %reshape.67 = f32[1,1,1,256]{3,2,1,0} reshape(%params__ResNetBlock_5____BatchNorm_0____scale__.1), metadata={op_name="jit(predict_step)/ResNet/ResNetBlock_5/BatchNorm_0/reshape" stack_frame_id=33}
  %mul.165 = f32[1,1,1,256]{3,2,1,0} multiply(%rsqrt.33, %reshape.67), metadata={op_name="jit(predict_step)/ResNet/ResNetBlock_5/BatchNorm_0/mul" stack_frame_id=34}
  %mul.166 = f32[1,1,1,256]{3,2,1,0} broadcast(%mul.165), dimensions={0,1,2,3}, metadata={op_name="jit(predict_step)/ResNet/ResNetBlock_5/BatchNorm_0/mul" stack_frame_id=35}
  %mul.167 = f32[256]{0} reshape(%mul.166), metadata={op_name="jit(predict_step)/ResNet/ResNetBlock_5/BatchNorm_0/mul" stack_frame_id=35}
  %mul.168 = f32[32,14,14,256]{3,2,1,0} broadcast(%mul.167), dimensions={3}, metadata={op_name="jit(predict_step)/ResNet/ResNetBlock_5/BatchNorm_0/mul" stack_frame_id=35}
  %mul.169 = f32[32,14,14,256]{3,2,1,0} multiply(%sub.135, %mul.168), metadata={op_name="jit(predict_step)/ResNet/ResNetBlock_5/BatchNorm_0/mul" stack_frame_id=35}
  %params__ResNetBlock_5____BatchNorm_0____bias__.1 = f32[256]{0} parameter(38), metadata={op_name="params[\'ResNetBlock_5\'][\'BatchNorm_0\'][\'bias\']"}
  %reshape.68 = f32[1,1,1,256]{3,2,1,0} reshape(%params__ResNetBlock_5____BatchNorm_0____bias__.1), metadata={op_name="jit(predict_step)/ResNet/ResNetBlock_5/BatchNorm_0/reshape" stack_frame_id=36}
  %add.183 = f32[1,1,1,256]{3,2,1,0} broadcast(%reshape.68), dimensions={0,1,2,3}, metadata={op_name="jit(predict_step)/ResNet/ResNetBlock_5/BatchNorm_0/add" stack_frame_id=37}
  %add.184 = f32[256]{0} reshape(%add.183), metadata={op_name="jit(predict_step)/ResNet/ResNetBlock_5/BatchNorm_0/add" stack_frame_id=37}
  %add.185 = f32[32,14,14,256]{3,2,1,0} broadcast(%add.184), dimensions={3}, metadata={op_name="jit(predict_step)/ResNet/ResNetBlock_5/BatchNorm_0/add" stack_frame_id=37}
  %add.186 = f32[32,14,14,256]{3,2,1,0} add(%mul.169, %add.185), metadata={op_name="jit(predict_step)/ResNet/ResNetBlock_5/BatchNorm_0/add" stack_frame_id=37}
  %jit_relu_.28 = f32[32,14,14,256]{3,2,1,0} call(%add.186), to_apply=%relu_2.5, metadata={op_name="jit(predict_step)/ResNet/ResNetBlock_5/jit(relu)" stack_frame_id=38}
  %params__ResNetBlock_5____Conv_1____kernel__.1 = f32[3,3,256,256]{3,2,1,0} parameter(43), metadata={op_name="params[\'ResNetBlock_5\'][\'Conv_1\'][\'kernel\']"}
  %conv_general_dilated.34 = f32[32,14,14,256]{3,2,1,0} convolution(%jit_relu_.28, %params__ResNetBlock_5____Conv_1____kernel__.1), window={size=3x3 pad=1_1x1_1}, dim_labels=b01f_01io->b01f, metadata={op_name="jit(predict_step)/ResNet/ResNetBlock_5/Conv_1/conv_general_dilated" stack_frame_id=40}
  %batch_stats__ResNetBlock_5____BatchNorm_1____mean__.1 = f32[256]{0} parameter(88), metadata={op_name="batch_stats[\'ResNetBlock_5\'][\'BatchNorm_1\'][\'mean\']"}
  %broadcast_in_dim.68 = f32[1,1,1,256]{3,2,1,0} reshape(%batch_stats__ResNetBlock_5____BatchNorm_1____mean__.1), metadata={op_name="jit(predict_step)/ResNet/ResNetBlock_5/BatchNorm_1/broadcast_in_dim" stack_frame_id=43}
  %sub.136 = f32[1,1,1,256]{3,2,1,0} broadcast(%broadcast_in_dim.68), dimensions={0,1,2,3}, metadata={op_name="jit(predict_step)/ResNet/ResNetBlock_5/BatchNorm_1/sub" stack_frame_id=44}
  %sub.137 = f32[256]{0} reshape(%sub.136), metadata={op_name="jit(predict_step)/ResNet/ResNetBlock_5/BatchNorm_1/sub" stack_frame_id=44}
  %sub.138 = f32[32,14,14,256]{3,2,1,0} broadcast(%sub.137), dimensions={3}, metadata={op_name="jit(predict_step)/ResNet/ResNetBlock_5/BatchNorm_1/sub" stack_frame_id=44}
  %sub.139 = f32[32,14,14,256]{3,2,1,0} subtract(%conv_general_dilated.34, %sub.138), metadata={op_name="jit(predict_step)/ResNet/ResNetBlock_5/BatchNorm_1/sub" stack_frame_id=44}
  %batch_stats__ResNetBlock_5____BatchNorm_1____var__.1 = f32[256]{0} parameter(89), metadata={op_name="batch_stats[\'ResNetBlock_5\'][\'BatchNorm_1\'][\'var\']"}
  %broadcast_in_dim.69 = f32[1,1,1,256]{3,2,1,0} reshape(%batch_stats__ResNetBlock_5____BatchNorm_1____var__.1), metadata={op_name="jit(predict_step)/ResNet/ResNetBlock_5/BatchNorm_1/broadcast_in_dim" stack_frame_id=45}
  %add.187 = f32[1,1,1,256]{3,2,1,0} add(%broadcast_in_dim.69, %broadcast.5), metadata={op_name="jit(predict_step)/ResNet/ResNetBlock_5/BatchNorm_1/add" stack_frame_id=46}
  %rsqrt.34 = f32[1,1,1,256]{3,2,1,0} rsqrt(%add.187), metadata={op_name="jit(predict_step)/ResNet/ResNetBlock_5/BatchNorm_1/rsqrt" stack_frame_id=47}
  %params__ResNetBlock_5____BatchNorm_1____scale__.1 = f32[256]{0} parameter(41), metadata={op_name="params[\'ResNetBlock_5\'][\'BatchNorm_1\'][\'scale\']"}
  %reshape.69 = f32[1,1,1,256]{3,2,1,0} reshape(%params__ResNetBlock_5____BatchNorm_1____scale__.1), metadata={op_name="jit(predict_step)/ResNet/ResNetBlock_5/BatchNorm_1/reshape" stack_frame_id=48}
  %mul.170 = f32[1,1,1,256]{3,2,1,0} multiply(%rsqrt.34, %reshape.69), metadata={op_name="jit(predict_step)/ResNet/ResNetBlock_5/BatchNorm_1/mul" stack_frame_id=49}
  %mul.171 = f32[1,1,1,256]{3,2,1,0} broadcast(%mul.170), dimensions={0,1,2,3}, metadata={op_name="jit(predict_step)/ResNet/ResNetBlock_5/BatchNorm_1/mul" stack_frame_id=50}
  %mul.172 = f32[256]{0} reshape(%mul.171), metadata={op_name="jit(predict_step)/ResNet/ResNetBlock_5/BatchNorm_1/mul" stack_frame_id=50}
  %mul.173 = f32[32,14,14,256]{3,2,1,0} broadcast(%mul.172), dimensions={3}, metadata={op_name="jit(predict_step)/ResNet/ResNetBlock_5/BatchNorm_1/mul" stack_frame_id=50}
  %mul.174 = f32[32,14,14,256]{3,2,1,0} multiply(%sub.139, %mul.173), metadata={op_name="jit(predict_step)/ResNet/ResNetBlock_5/BatchNorm_1/mul" stack_frame_id=50}
  %params__ResNetBlock_5____BatchNorm_1____bias__.1 = f32[256]{0} parameter(40), metadata={op_name="params[\'ResNetBlock_5\'][\'BatchNorm_1\'][\'bias\']"}
  %reshape.70 = f32[1,1,1,256]{3,2,1,0} reshape(%params__ResNetBlock_5____BatchNorm_1____bias__.1), metadata={op_name="jit(predict_step)/ResNet/ResNetBlock_5/BatchNorm_1/reshape" stack_frame_id=51}
  %add.188 = f32[1,1,1,256]{3,2,1,0} broadcast(%reshape.70), dimensions={0,1,2,3}, metadata={op_name="jit(predict_step)/ResNet/ResNetBlock_5/BatchNorm_1/add" stack_frame_id=52}
  %add.189 = f32[256]{0} reshape(%add.188), metadata={op_name="jit(predict_step)/ResNet/ResNetBlock_5/BatchNorm_1/add" stack_frame_id=52}
  %add.190 = f32[32,14,14,256]{3,2,1,0} broadcast(%add.189), dimensions={3}, metadata={op_name="jit(predict_step)/ResNet/ResNetBlock_5/BatchNorm_1/add" stack_frame_id=52}
  %add.191 = f32[32,14,14,256]{3,2,1,0} add(%mul.174, %add.190), metadata={op_name="jit(predict_step)/ResNet/ResNetBlock_5/BatchNorm_1/add" stack_frame_id=52}
  %add.192 = f32[32,14,14,256]{3,2,1,0} add(%jit_relu_.27, %add.191), metadata={op_name="jit(predict_step)/ResNet/ResNetBlock_5/add" stack_frame_id=53}
  %jit_relu_.29 = f32[32,14,14,256]{3,2,1,0} call(%add.192), to_apply=%relu_2.5, metadata={op_name="jit(predict_step)/ResNet/ResNetBlock_5/jit(relu)" stack_frame_id=54}
  %params__ResNetBlock_6____conv_proj____kernel__.1 = f32[1,1,256,512]{3,2,1,0} parameter(50), metadata={op_name="params[\'ResNetBlock_6\'][\'conv_proj\'][\'kernel\']"}
  %conv_general_dilated.37 = f32[32,7,7,512]{3,2,1,0} convolution(%jit_relu_.29, %params__ResNetBlock_6____conv_proj____kernel__.1), window={size=1x1 stride=2x2}, dim_labels=b01f_01io->b01f, metadata={op_name="jit(predict_step)/ResNet/ResNetBlock_6/conv_proj/conv_general_dilated" stack_frame_id=56}
  %batch_stats__ResNetBlock_6____norm_proj____mean__.1 = f32[512]{0} parameter(94), metadata={op_name="batch_stats[\'ResNetBlock_6\'][\'norm_proj\'][\'mean\']"}
  %broadcast_in_dim.74 = f32[1,1,1,512]{3,2,1,0} reshape(%batch_stats__ResNetBlock_6____norm_proj____mean__.1), metadata={op_name="jit(predict_step)/ResNet/ResNetBlock_6/norm_proj/broadcast_in_dim" stack_frame_id=59}
  %sub.148 = f32[1,1,1,512]{3,2,1,0} broadcast(%broadcast_in_dim.74), dimensions={0,1,2,3}, metadata={op_name="jit(predict_step)/ResNet/ResNetBlock_6/norm_proj/sub" stack_frame_id=60}
  %sub.149 = f32[512]{0} reshape(%sub.148), metadata={op_name="jit(predict_step)/ResNet/ResNetBlock_6/norm_proj/sub" stack_frame_id=60}
  %sub.150 = f32[32,7,7,512]{3,2,1,0} broadcast(%sub.149), dimensions={3}, metadata={op_name="jit(predict_step)/ResNet/ResNetBlock_6/norm_proj/sub" stack_frame_id=60}
  %sub.151 = f32[32,7,7,512]{3,2,1,0} subtract(%conv_general_dilated.37, %sub.150), metadata={op_name="jit(predict_step)/ResNet/ResNetBlock_6/norm_proj/sub" stack_frame_id=60}
  %batch_stats__ResNetBlock_6____norm_proj____var__.1 = f32[512]{0} parameter(95), metadata={op_name="batch_stats[\'ResNetBlock_6\'][\'norm_proj\'][\'var\']"}
  %broadcast_in_dim.75 = f32[1,1,1,512]{3,2,1,0} reshape(%batch_stats__ResNetBlock_6____norm_proj____var__.1), metadata={op_name="jit(predict_step)/ResNet/ResNetBlock_6/norm_proj/broadcast_in_dim" stack_frame_id=61}
  %constant.18 = f32[] constant(1e-05)
  %broadcast.4 = f32[1,1,1,512]{3,2,1,0} broadcast(%constant.18), dimensions={}
  %add.203 = f32[1,1,1,512]{3,2,1,0} add(%broadcast_in_dim.75, %broadcast.4), metadata={op_name="jit(predict_step)/ResNet/ResNetBlock_6/norm_proj/add" stack_frame_id=62}
  %rsqrt.37 = f32[1,1,1,512]{3,2,1,0} rsqrt(%add.203), metadata={op_name="jit(predict_step)/ResNet/ResNetBlock_6/norm_proj/rsqrt" stack_frame_id=63}
  %params__ResNetBlock_6____norm_proj____scale__.1 = f32[512]{0} parameter(52), metadata={op_name="params[\'ResNetBlock_6\'][\'norm_proj\'][\'scale\']"}
  %reshape.75 = f32[1,1,1,512]{3,2,1,0} reshape(%params__ResNetBlock_6____norm_proj____scale__.1), metadata={op_name="jit(predict_step)/ResNet/ResNetBlock_6/norm_proj/reshape" stack_frame_id=64}
  %mul.185 = f32[1,1,1,512]{3,2,1,0} multiply(%rsqrt.37, %reshape.75), metadata={op_name="jit(predict_step)/ResNet/ResNetBlock_6/norm_proj/mul" stack_frame_id=65}
  %mul.186 = f32[1,1,1,512]{3,2,1,0} broadcast(%mul.185), dimensions={0,1,2,3}, metadata={op_name="jit(predict_step)/ResNet/ResNetBlock_6/norm_proj/mul" stack_frame_id=66}
  %mul.187 = f32[512]{0} reshape(%mul.186), metadata={op_name="jit(predict_step)/ResNet/ResNetBlock_6/norm_proj/mul" stack_frame_id=66}
  %mul.188 = f32[32,7,7,512]{3,2,1,0} broadcast(%mul.187), dimensions={3}, metadata={op_name="jit(predict_step)/ResNet/ResNetBlock_6/norm_proj/mul" stack_frame_id=66}
  %mul.189 = f32[32,7,7,512]{3,2,1,0} multiply(%sub.151, %mul.188), metadata={op_name="jit(predict_step)/ResNet/ResNetBlock_6/norm_proj/mul" stack_frame_id=66}
  %params__ResNetBlock_6____norm_proj____bias__.1 = f32[512]{0} parameter(51), metadata={op_name="params[\'ResNetBlock_6\'][\'norm_proj\'][\'bias\']"}
  %reshape.76 = f32[1,1,1,512]{3,2,1,0} reshape(%params__ResNetBlock_6____norm_proj____bias__.1), metadata={op_name="jit(predict_step)/ResNet/ResNetBlock_6/norm_proj/reshape" stack_frame_id=67}
  %add.204 = f32[1,1,1,512]{3,2,1,0} broadcast(%reshape.76), dimensions={0,1,2,3}, metadata={op_name="jit(predict_step)/ResNet/ResNetBlock_6/norm_proj/add" stack_frame_id=68}
  %add.205 = f32[512]{0} reshape(%add.204), metadata={op_name="jit(predict_step)/ResNet/ResNetBlock_6/norm_proj/add" stack_frame_id=68}
  %add.206 = f32[32,7,7,512]{3,2,1,0} broadcast(%add.205), dimensions={3}, metadata={op_name="jit(predict_step)/ResNet/ResNetBlock_6/norm_proj/add" stack_frame_id=68}
  %add.207 = f32[32,7,7,512]{3,2,1,0} add(%mul.189, %add.206), metadata={op_name="jit(predict_step)/ResNet/ResNetBlock_6/norm_proj/add" stack_frame_id=68}
  %params__ResNetBlock_6____Conv_0____kernel__.1 = f32[3,3,256,512]{3,2,1,0} parameter(48), metadata={op_name="params[\'ResNetBlock_6\'][\'Conv_0\'][\'kernel\']"}
  %conv_general_dilated.35 = f32[32,7,7,512]{3,2,1,0} convolution(%jit_relu_.29, %params__ResNetBlock_6____Conv_0____kernel__.1), window={size=3x3 stride=2x2 pad=0_1x0_1}, dim_labels=b01f_01io->b01f, metadata={op_name="jit(predict_step)/ResNet/ResNetBlock_6/Conv_0/conv_general_dilated" stack_frame_id=25}
  %batch_stats__ResNetBlock_6____BatchNorm_0____mean__.1 = f32[512]{0} parameter(90), metadata={op_name="batch_stats[\'ResNetBlock_6\'][\'BatchNorm_0\'][\'mean\']"}
  %broadcast_in_dim.70 = f32[1,1,1,512]{3,2,1,0} reshape(%batch_stats__ResNetBlock_6____BatchNorm_0____mean__.1), metadata={op_name="jit(predict_step)/ResNet/ResNetBlock_6/BatchNorm_0/broadcast_in_dim" stack_frame_id=28}
  %sub.140 = f32[1,1,1,512]{3,2,1,0} broadcast(%broadcast_in_dim.70), dimensions={0,1,2,3}, metadata={op_name="jit(predict_step)/ResNet/ResNetBlock_6/BatchNorm_0/sub" stack_frame_id=29}
  %sub.141 = f32[512]{0} reshape(%sub.140), metadata={op_name="jit(predict_step)/ResNet/ResNetBlock_6/BatchNorm_0/sub" stack_frame_id=29}
  %sub.142 = f32[32,7,7,512]{3,2,1,0} broadcast(%sub.141), dimensions={3}, metadata={op_name="jit(predict_step)/ResNet/ResNetBlock_6/BatchNorm_0/sub" stack_frame_id=29}
  %sub.143 = f32[32,7,7,512]{3,2,1,0} subtract(%conv_general_dilated.35, %sub.142), metadata={op_name="jit(predict_step)/ResNet/ResNetBlock_6/BatchNorm_0/sub" stack_frame_id=29}
  %batch_stats__ResNetBlock_6____BatchNorm_0____var__.1 = f32[512]{0} parameter(91), metadata={op_name="batch_stats[\'ResNetBlock_6\'][\'BatchNorm_0\'][\'var\']"}
  %broadcast_in_dim.71 = f32[1,1,1,512]{3,2,1,0} reshape(%batch_stats__ResNetBlock_6____BatchNorm_0____var__.1), metadata={op_name="jit(predict_step)/ResNet/ResNetBlock_6/BatchNorm_0/broadcast_in_dim" stack_frame_id=30}
  %add.193 = f32[1,1,1,512]{3,2,1,0} add(%broadcast_in_dim.71, %broadcast.4), metadata={op_name="jit(predict_step)/ResNet/ResNetBlock_6/BatchNorm_0/add" stack_frame_id=31}
  %rsqrt.35 = f32[1,1,1,512]{3,2,1,0} rsqrt(%add.193), metadata={op_name="jit(predict_step)/ResNet/ResNetBlock_6/BatchNorm_0/rsqrt" stack_frame_id=32}
  %params__ResNetBlock_6____BatchNorm_0____scale__.1 = f32[512]{0} parameter(45), metadata={op_name="params[\'ResNetBlock_6\'][\'BatchNorm_0\'][\'scale\']"}
  %reshape.71 = f32[1,1,1,512]{3,2,1,0} reshape(%params__ResNetBlock_6____BatchNorm_0____scale__.1), metadata={op_name="jit(predict_step)/ResNet/ResNetBlock_6/BatchNorm_0/reshape" stack_frame_id=33}
  %mul.175 = f32[1,1,1,512]{3,2,1,0} multiply(%rsqrt.35, %reshape.71), metadata={op_name="jit(predict_step)/ResNet/ResNetBlock_6/BatchNorm_0/mul" stack_frame_id=34}
  %mul.176 = f32[1,1,1,512]{3,2,1,0} broadcast(%mul.175), dimensions={0,1,2,3}, metadata={op_name="jit(predict_step)/ResNet/ResNetBlock_6/BatchNorm_0/mul" stack_frame_id=35}
  %mul.177 = f32[512]{0} reshape(%mul.176), metadata={op_name="jit(predict_step)/ResNet/ResNetBlock_6/BatchNorm_0/mul" stack_frame_id=35}
  %mul.178 = f32[32,7,7,512]{3,2,1,0} broadcast(%mul.177), dimensions={3}, metadata={op_name="jit(predict_step)/ResNet/ResNetBlock_6/BatchNorm_0/mul" stack_frame_id=35}
  %mul.179 = f32[32,7,7,512]{3,2,1,0} multiply(%sub.143, %mul.178), metadata={op_name="jit(predict_step)/ResNet/ResNetBlock_6/BatchNorm_0/mul" stack_frame_id=35}
  %params__ResNetBlock_6____BatchNorm_0____bias__.1 = f32[512]{0} parameter(44), metadata={op_name="params[\'ResNetBlock_6\'][\'BatchNorm_0\'][\'bias\']"}
  %reshape.72 = f32[1,1,1,512]{3,2,1,0} reshape(%params__ResNetBlock_6____BatchNorm_0____bias__.1), metadata={op_name="jit(predict_step)/ResNet/ResNetBlock_6/BatchNorm_0/reshape" stack_frame_id=36}
  %add.194 = f32[1,1,1,512]{3,2,1,0} broadcast(%reshape.72), dimensions={0,1,2,3}, metadata={op_name="jit(predict_step)/ResNet/ResNetBlock_6/BatchNorm_0/add" stack_frame_id=37}
  %add.195 = f32[512]{0} reshape(%add.194), metadata={op_name="jit(predict_step)/ResNet/ResNetBlock_6/BatchNorm_0/add" stack_frame_id=37}
  %add.196 = f32[32,7,7,512]{3,2,1,0} broadcast(%add.195), dimensions={3}, metadata={op_name="jit(predict_step)/ResNet/ResNetBlock_6/BatchNorm_0/add" stack_frame_id=37}
  %add.197 = f32[32,7,7,512]{3,2,1,0} add(%mul.179, %add.196), metadata={op_name="jit(predict_step)/ResNet/ResNetBlock_6/BatchNorm_0/add" stack_frame_id=37}
  %jit_relu_.30 = f32[32,7,7,512]{3,2,1,0} call(%add.197), to_apply=%relu_3.6, metadata={op_name="jit(predict_step)/ResNet/ResNetBlock_6/jit(relu)" stack_frame_id=38}
  %params__ResNetBlock_6____Conv_1____kernel__.1 = f32[3,3,512,512]{3,2,1,0} parameter(49), metadata={op_name="params[\'ResNetBlock_6\'][\'Conv_1\'][\'kernel\']"}
  %conv_general_dilated.36 = f32[32,7,7,512]{3,2,1,0} convolution(%jit_relu_.30, %params__ResNetBlock_6____Conv_1____kernel__.1), window={size=3x3 pad=1_1x1_1}, dim_labels=b01f_01io->b01f, metadata={op_name="jit(predict_step)/ResNet/ResNetBlock_6/Conv_1/conv_general_dilated" stack_frame_id=40}
  %batch_stats__ResNetBlock_6____BatchNorm_1____mean__.1 = f32[512]{0} parameter(92), metadata={op_name="batch_stats[\'ResNetBlock_6\'][\'BatchNorm_1\'][\'mean\']"}
  %broadcast_in_dim.72 = f32[1,1,1,512]{3,2,1,0} reshape(%batch_stats__ResNetBlock_6____BatchNorm_1____mean__.1), metadata={op_name="jit(predict_step)/ResNet/ResNetBlock_6/BatchNorm_1/broadcast_in_dim" stack_frame_id=43}
  %sub.144 = f32[1,1,1,512]{3,2,1,0} broadcast(%broadcast_in_dim.72), dimensions={0,1,2,3}, metadata={op_name="jit(predict_step)/ResNet/ResNetBlock_6/BatchNorm_1/sub" stack_frame_id=44}
  %sub.145 = f32[512]{0} reshape(%sub.144), metadata={op_name="jit(predict_step)/ResNet/ResNetBlock_6/BatchNorm_1/sub" stack_frame_id=44}
  %sub.146 = f32[32,7,7,512]{3,2,1,0} broadcast(%sub.145), dimensions={3}, metadata={op_name="jit(predict_step)/ResNet/ResNetBlock_6/BatchNorm_1/sub" stack_frame_id=44}
  %sub.147 = f32[32,7,7,512]{3,2,1,0} subtract(%conv_general_dilated.36, %sub.146), metadata={op_name="jit(predict_step)/ResNet/ResNetBlock_6/BatchNorm_1/sub" stack_frame_id=44}
  %batch_stats__ResNetBlock_6____BatchNorm_1____var__.1 = f32[512]{0} parameter(93), metadata={op_name="batch_stats[\'ResNetBlock_6\'][\'BatchNorm_1\'][\'var\']"}
  %broadcast_in_dim.73 = f32[1,1,1,512]{3,2,1,0} reshape(%batch_stats__ResNetBlock_6____BatchNorm_1____var__.1), metadata={op_name="jit(predict_step)/ResNet/ResNetBlock_6/BatchNorm_1/broadcast_in_dim" stack_frame_id=45}
  %add.198 = f32[1,1,1,512]{3,2,1,0} add(%broadcast_in_dim.73, %broadcast.4), metadata={op_name="jit(predict_step)/ResNet/ResNetBlock_6/BatchNorm_1/add" stack_frame_id=46}
  %rsqrt.36 = f32[1,1,1,512]{3,2,1,0} rsqrt(%add.198), metadata={op_name="jit(predict_step)/ResNet/ResNetBlock_6/BatchNorm_1/rsqrt" stack_frame_id=47}
  %params__ResNetBlock_6____BatchNorm_1____scale__.1 = f32[512]{0} parameter(47), metadata={op_name="params[\'ResNetBlock_6\'][\'BatchNorm_1\'][\'scale\']"}
  %reshape.73 = f32[1,1,1,512]{3,2,1,0} reshape(%params__ResNetBlock_6____BatchNorm_1____scale__.1), metadata={op_name="jit(predict_step)/ResNet/ResNetBlock_6/BatchNorm_1/reshape" stack_frame_id=48}
  %mul.180 = f32[1,1,1,512]{3,2,1,0} multiply(%rsqrt.36, %reshape.73), metadata={op_name="jit(predict_step)/ResNet/ResNetBlock_6/BatchNorm_1/mul" stack_frame_id=49}
  %mul.181 = f32[1,1,1,512]{3,2,1,0} broadcast(%mul.180), dimensions={0,1,2,3}, metadata={op_name="jit(predict_step)/ResNet/ResNetBlock_6/BatchNorm_1/mul" stack_frame_id=50}
  %mul.182 = f32[512]{0} reshape(%mul.181), metadata={op_name="jit(predict_step)/ResNet/ResNetBlock_6/BatchNorm_1/mul" stack_frame_id=50}
  %mul.183 = f32[32,7,7,512]{3,2,1,0} broadcast(%mul.182), dimensions={3}, metadata={op_name="jit(predict_step)/ResNet/ResNetBlock_6/BatchNorm_1/mul" stack_frame_id=50}
  %mul.184 = f32[32,7,7,512]{3,2,1,0} multiply(%sub.147, %mul.183), metadata={op_name="jit(predict_step)/ResNet/ResNetBlock_6/BatchNorm_1/mul" stack_frame_id=50}
  %params__ResNetBlock_6____BatchNorm_1____bias__.1 = f32[512]{0} parameter(46), metadata={op_name="params[\'ResNetBlock_6\'][\'BatchNorm_1\'][\'bias\']"}
  %reshape.74 = f32[1,1,1,512]{3,2,1,0} reshape(%params__ResNetBlock_6____BatchNorm_1____bias__.1), metadata={op_name="jit(predict_step)/ResNet/ResNetBlock_6/BatchNorm_1/reshape" stack_frame_id=51}
  %add.199 = f32[1,1,1,512]{3,2,1,0} broadcast(%reshape.74), dimensions={0,1,2,3}, metadata={op_name="jit(predict_step)/ResNet/ResNetBlock_6/BatchNorm_1/add" stack_frame_id=52}
  %add.200 = f32[512]{0} reshape(%add.199), metadata={op_name="jit(predict_step)/ResNet/ResNetBlock_6/BatchNorm_1/add" stack_frame_id=52}
  %add.201 = f32[32,7,7,512]{3,2,1,0} broadcast(%add.200), dimensions={3}, metadata={op_name="jit(predict_step)/ResNet/ResNetBlock_6/BatchNorm_1/add" stack_frame_id=52}
  %add.202 = f32[32,7,7,512]{3,2,1,0} add(%mul.184, %add.201), metadata={op_name="jit(predict_step)/ResNet/ResNetBlock_6/BatchNorm_1/add" stack_frame_id=52}
  %add.208 = f32[32,7,7,512]{3,2,1,0} add(%add.207, %add.202), metadata={op_name="jit(predict_step)/ResNet/ResNetBlock_6/add" stack_frame_id=53}
  %jit_relu_.31 = f32[32,7,7,512]{3,2,1,0} call(%add.208), to_apply=%relu_3.6, metadata={op_name="jit(predict_step)/ResNet/ResNetBlock_6/jit(relu)" stack_frame_id=54}
  %params__ResNetBlock_7____Conv_0____kernel__.1 = f32[3,3,512,512]{3,2,1,0} parameter(57), metadata={op_name="params[\'ResNetBlock_7\'][\'Conv_0\'][\'kernel\']"}
  %conv_general_dilated.38 = f32[32,7,7,512]{3,2,1,0} convolution(%jit_relu_.31, %params__ResNetBlock_7____Conv_0____kernel__.1), window={size=3x3 pad=1_1x1_1}, dim_labels=b01f_01io->b01f, metadata={op_name="jit(predict_step)/ResNet/ResNetBlock_7/Conv_0/conv_general_dilated" stack_frame_id=25}
  %batch_stats__ResNetBlock_7____BatchNorm_0____mean__.1 = f32[512]{0} parameter(96), metadata={op_name="batch_stats[\'ResNetBlock_7\'][\'BatchNorm_0\'][\'mean\']"}
  %broadcast_in_dim.76 = f32[1,1,1,512]{3,2,1,0} reshape(%batch_stats__ResNetBlock_7____BatchNorm_0____mean__.1), metadata={op_name="jit(predict_step)/ResNet/ResNetBlock_7/BatchNorm_0/broadcast_in_dim" stack_frame_id=28}
  %sub.152 = f32[1,1,1,512]{3,2,1,0} broadcast(%broadcast_in_dim.76), dimensions={0,1,2,3}, metadata={op_name="jit(predict_step)/ResNet/ResNetBlock_7/BatchNorm_0/sub" stack_frame_id=29}
  %sub.153 = f32[512]{0} reshape(%sub.152), metadata={op_name="jit(predict_step)/ResNet/ResNetBlock_7/BatchNorm_0/sub" stack_frame_id=29}
  %sub.154 = f32[32,7,7,512]{3,2,1,0} broadcast(%sub.153), dimensions={3}, metadata={op_name="jit(predict_step)/ResNet/ResNetBlock_7/BatchNorm_0/sub" stack_frame_id=29}
  %sub.155 = f32[32,7,7,512]{3,2,1,0} subtract(%conv_general_dilated.38, %sub.154), metadata={op_name="jit(predict_step)/ResNet/ResNetBlock_7/BatchNorm_0/sub" stack_frame_id=29}
  %batch_stats__ResNetBlock_7____BatchNorm_0____var__.1 = f32[512]{0} parameter(97), metadata={op_name="batch_stats[\'ResNetBlock_7\'][\'BatchNorm_0\'][\'var\']"}
  %broadcast_in_dim.77 = f32[1,1,1,512]{3,2,1,0} reshape(%batch_stats__ResNetBlock_7____BatchNorm_0____var__.1), metadata={op_name="jit(predict_step)/ResNet/ResNetBlock_7/BatchNorm_0/broadcast_in_dim" stack_frame_id=30}
  %add.209 = f32[1,1,1,512]{3,2,1,0} add(%broadcast_in_dim.77, %broadcast.4), metadata={op_name="jit(predict_step)/ResNet/ResNetBlock_7/BatchNorm_0/add" stack_frame_id=31}
  %rsqrt.38 = f32[1,1,1,512]{3,2,1,0} rsqrt(%add.209), metadata={op_name="jit(predict_step)/ResNet/ResNetBlock_7/BatchNorm_0/rsqrt" stack_frame_id=32}
  %params__ResNetBlock_7____BatchNorm_0____scale__.1 = f32[512]{0} parameter(54), metadata={op_name="params[\'ResNetBlock_7\'][\'BatchNorm_0\'][\'scale\']"}
  %reshape.77 = f32[1,1,1,512]{3,2,1,0} reshape(%params__ResNetBlock_7____BatchNorm_0____scale__.1), metadata={op_name="jit(predict_step)/ResNet/ResNetBlock_7/BatchNorm_0/reshape" stack_frame_id=33}
  %mul.190 = f32[1,1,1,512]{3,2,1,0} multiply(%rsqrt.38, %reshape.77), metadata={op_name="jit(predict_step)/ResNet/ResNetBlock_7/BatchNorm_0/mul" stack_frame_id=34}
  %mul.191 = f32[1,1,1,512]{3,2,1,0} broadcast(%mul.190), dimensions={0,1,2,3}, metadata={op_name="jit(predict_step)/ResNet/ResNetBlock_7/BatchNorm_0/mul" stack_frame_id=35}
  %mul.192 = f32[512]{0} reshape(%mul.191), metadata={op_name="jit(predict_step)/ResNet/ResNetBlock_7/BatchNorm_0/mul" stack_frame_id=35}
  %mul.193 = f32[32,7,7,512]{3,2,1,0} broadcast(%mul.192), dimensions={3}, metadata={op_name="jit(predict_step)/ResNet/ResNetBlock_7/BatchNorm_0/mul" stack_frame_id=35}
  %mul.194 = f32[32,7,7,512]{3,2,1,0} multiply(%sub.155, %mul.193), metadata={op_name="jit(predict_step)/ResNet/ResNetBlock_7/BatchNorm_0/mul" stack_frame_id=35}
  %params__ResNetBlock_7____BatchNorm_0____bias__.1 = f32[512]{0} parameter(53), metadata={op_name="params[\'ResNetBlock_7\'][\'BatchNorm_0\'][\'bias\']"}
  %reshape.78 = f32[1,1,1,512]{3,2,1,0} reshape(%params__ResNetBlock_7____BatchNorm_0____bias__.1), metadata={op_name="jit(predict_step)/ResNet/ResNetBlock_7/BatchNorm_0/reshape" stack_frame_id=36}
  %add.210 = f32[1,1,1,512]{3,2,1,0} broadcast(%reshape.78), dimensions={0,1,2,3}, metadata={op_name="jit(predict_step)/ResNet/ResNetBlock_7/BatchNorm_0/add" stack_frame_id=37}
  %add.211 = f32[512]{0} reshape(%add.210), metadata={op_name="jit(predict_step)/ResNet/ResNetBlock_7/BatchNorm_0/add" stack_frame_id=37}
  %add.212 = f32[32,7,7,512]{3,2,1,0} broadcast(%add.211), dimensions={3}, metadata={op_name="jit(predict_step)/ResNet/ResNetBlock_7/BatchNorm_0/add" stack_frame_id=37}
  %add.213 = f32[32,7,7,512]{3,2,1,0} add(%mul.194, %add.212), metadata={op_name="jit(predict_step)/ResNet/ResNetBlock_7/BatchNorm_0/add" stack_frame_id=37}
  %jit_relu_.32 = f32[32,7,7,512]{3,2,1,0} call(%add.213), to_apply=%relu_3.6, metadata={op_name="jit(predict_step)/ResNet/ResNetBlock_7/jit(relu)" stack_frame_id=38}
  %params__ResNetBlock_7____Conv_1____kernel__.1 = f32[3,3,512,512]{3,2,1,0} parameter(58), metadata={op_name="params[\'ResNetBlock_7\'][\'Conv_1\'][\'kernel\']"}
  %conv_general_dilated.39 = f32[32,7,7,512]{3,2,1,0} convolution(%jit_relu_.32, %params__ResNetBlock_7____Conv_1____kernel__.1), window={size=3x3 pad=1_1x1_1}, dim_labels=b01f_01io->b01f, metadata={op_name="jit(predict_step)/ResNet/ResNetBlock_7/Conv_1/conv_general_dilated" stack_frame_id=40}
  %batch_stats__ResNetBlock_7____BatchNorm_1____mean__.1 = f32[512]{0} parameter(98), metadata={op_name="batch_stats[\'ResNetBlock_7\'][\'BatchNorm_1\'][\'mean\']"}
  %broadcast_in_dim.78 = f32[1,1,1,512]{3,2,1,0} reshape(%batch_stats__ResNetBlock_7____BatchNorm_1____mean__.1), metadata={op_name="jit(predict_step)/ResNet/ResNetBlock_7/BatchNorm_1/broadcast_in_dim" stack_frame_id=43}
  %sub.156 = f32[1,1,1,512]{3,2,1,0} broadcast(%broadcast_in_dim.78), dimensions={0,1,2,3}, metadata={op_name="jit(predict_step)/ResNet/ResNetBlock_7/BatchNorm_1/sub" stack_frame_id=44}
  %sub.157 = f32[512]{0} reshape(%sub.156), metadata={op_name="jit(predict_step)/ResNet/ResNetBlock_7/BatchNorm_1/sub" stack_frame_id=44}
  %sub.158 = f32[32,7,7,512]{3,2,1,0} broadcast(%sub.157), dimensions={3}, metadata={op_name="jit(predict_step)/ResNet/ResNetBlock_7/BatchNorm_1/sub" stack_frame_id=44}
  %sub.159 = f32[32,7,7,512]{3,2,1,0} subtract(%conv_general_dilated.39, %sub.158), metadata={op_name="jit(predict_step)/ResNet/ResNetBlock_7/BatchNorm_1/sub" stack_frame_id=44}
  %batch_stats__ResNetBlock_7____BatchNorm_1____var__.1 = f32[512]{0} parameter(99), metadata={op_name="batch_stats[\'ResNetBlock_7\'][\'BatchNorm_1\'][\'var\']"}
  %broadcast_in_dim.79 = f32[1,1,1,512]{3,2,1,0} reshape(%batch_stats__ResNetBlock_7____BatchNorm_1____var__.1), metadata={op_name="jit(predict_step)/ResNet/ResNetBlock_7/BatchNorm_1/broadcast_in_dim" stack_frame_id=45}
  %add.214 = f32[1,1,1,512]{3,2,1,0} add(%broadcast_in_dim.79, %broadcast.4), metadata={op_name="jit(predict_step)/ResNet/ResNetBlock_7/BatchNorm_1/add" stack_frame_id=46}
  %rsqrt.39 = f32[1,1,1,512]{3,2,1,0} rsqrt(%add.214), metadata={op_name="jit(predict_step)/ResNet/ResNetBlock_7/BatchNorm_1/rsqrt" stack_frame_id=47}
  %params__ResNetBlock_7____BatchNorm_1____scale__.1 = f32[512]{0} parameter(56), metadata={op_name="params[\'ResNetBlock_7\'][\'BatchNorm_1\'][\'scale\']"}
  %reshape.79 = f32[1,1,1,512]{3,2,1,0} reshape(%params__ResNetBlock_7____BatchNorm_1____scale__.1), metadata={op_name="jit(predict_step)/ResNet/ResNetBlock_7/BatchNorm_1/reshape" stack_frame_id=48}
  %mul.195 = f32[1,1,1,512]{3,2,1,0} multiply(%rsqrt.39, %reshape.79), metadata={op_name="jit(predict_step)/ResNet/ResNetBlock_7/BatchNorm_1/mul" stack_frame_id=49}
  %mul.196 = f32[1,1,1,512]{3,2,1,0} broadcast(%mul.195), dimensions={0,1,2,3}, metadata={op_name="jit(predict_step)/ResNet/ResNetBlock_7/BatchNorm_1/mul" stack_frame_id=50}
  %mul.197 = f32[512]{0} reshape(%mul.196), metadata={op_name="jit(predict_step)/ResNet/ResNetBlock_7/BatchNorm_1/mul" stack_frame_id=50}
  %mul.198 = f32[32,7,7,512]{3,2,1,0} broadcast(%mul.197), dimensions={3}, metadata={op_name="jit(predict_step)/ResNet/ResNetBlock_7/BatchNorm_1/mul" stack_frame_id=50}
  %mul.199 = f32[32,7,7,512]{3,2,1,0} multiply(%sub.159, %mul.198), metadata={op_name="jit(predict_step)/ResNet/ResNetBlock_7/BatchNorm_1/mul" stack_frame_id=50}
  %params__ResNetBlock_7____BatchNorm_1____bias__.1 = f32[512]{0} parameter(55), metadata={op_name="params[\'ResNetBlock_7\'][\'BatchNorm_1\'][\'bias\']"}
  %reshape.80 = f32[1,1,1,512]{3,2,1,0} reshape(%params__ResNetBlock_7____BatchNorm_1____bias__.1), metadata={op_name="jit(predict_step)/ResNet/ResNetBlock_7/BatchNorm_1/reshape" stack_frame_id=51}
  %add.215 = f32[1,1,1,512]{3,2,1,0} broadcast(%reshape.80), dimensions={0,1,2,3}, metadata={op_name="jit(predict_step)/ResNet/ResNetBlock_7/BatchNorm_1/add" stack_frame_id=52}
  %add.216 = f32[512]{0} reshape(%add.215), metadata={op_name="jit(predict_step)/ResNet/ResNetBlock_7/BatchNorm_1/add" stack_frame_id=52}
  %add.217 = f32[32,7,7,512]{3,2,1,0} broadcast(%add.216), dimensions={3}, metadata={op_name="jit(predict_step)/ResNet/ResNetBlock_7/BatchNorm_1/add" stack_frame_id=52}
  %add.218 = f32[32,7,7,512]{3,2,1,0} add(%mul.199, %add.217), metadata={op_name="jit(predict_step)/ResNet/ResNetBlock_7/BatchNorm_1/add" stack_frame_id=52}
  %add.219 = f32[32,7,7,512]{3,2,1,0} add(%jit_relu_.31, %add.218), metadata={op_name="jit(predict_step)/ResNet/ResNetBlock_7/add" stack_frame_id=53}
  %jit_relu_.33 = f32[32,7,7,512]{3,2,1,0} call(%add.219), to_apply=%relu_3.6, metadata={op_name="jit(predict_step)/ResNet/ResNetBlock_7/jit(relu)" stack_frame_id=54}
  %constant.23 = f32[] constant(0)
  %reduce_sum.7 = f32[32,512]{1,0} reduce(%jit_relu_.33, %constant.23), dimensions={1,2}, to_apply=%region_1.7, metadata={op_name="jit(predict_step)/ResNet/reduce_sum" stack_frame_id=7}
  %constant.17 = f32[] constant(49)
  %div.2 = f32[32,512]{1,0} broadcast(%constant.17), dimensions={}, metadata={op_name="jit(predict_step)/ResNet/div" stack_frame_id=7}
  %div.3 = f32[32,512]{1,0} divide(%reduce_sum.7, %div.2), metadata={op_name="jit(predict_step)/ResNet/div" stack_frame_id=7}
  %params__Dense_0____kernel__.1 = f32[512,10]{1,0} parameter(1), metadata={op_name="params[\'Dense_0\'][\'kernel\']"}
  %dot_general.1 = f32[32,10]{1,0} dot(%div.3, %params__Dense_0____kernel__.1), lhs_contracting_dims={1}, rhs_contracting_dims={0}, metadata={op_name="jit(predict_step)/ResNet/Dense_0/dot_general" stack_frame_id=70}
  %params__Dense_0____bias__.1 = f32[10]{0} parameter(0), metadata={op_name="params[\'Dense_0\'][\'bias\']"}
  %reshape.81 = f32[1,10]{1,0} reshape(%params__Dense_0____bias__.1), metadata={op_name="jit(predict_step)/ResNet/Dense_0/reshape" stack_frame_id=71}
  %add.220 = f32[1,10]{1,0} broadcast(%reshape.81), dimensions={0,1}, metadata={op_name="jit(predict_step)/ResNet/Dense_0/add" stack_frame_id=72}
  %add.221 = f32[10]{0} reshape(%add.220), metadata={op_name="jit(predict_step)/ResNet/Dense_0/add" stack_frame_id=72}
  %add.222 = f32[32,10]{1,0} broadcast(%add.221), dimensions={1}, metadata={op_name="jit(predict_step)/ResNet/Dense_0/add" stack_frame_id=72}
  ROOT %add.223 = f32[32,10]{1,0} add(%dot_general.1, %add.222), metadata={op_name="jit(predict_step)/ResNet/Dense_0/add" stack_frame_id=72}
}

