HloModule jit_train_step, entry_computation_layout={(f32[768]{0}, f32[768]{0}, f32[768]{0}, f32[768]{0}, f32[768]{0}, /*index=5*/f32[768]{0}, f32[3072]{0}, f32[768,3072]{1,0}, f32[768]{0}, f32[3072,768]{1,0}, /*index=10*/f32[12,64]{1,0}, f32[768,12,64]{2,1,0}, f32[768]{0}, f32[12,64,768]{2,1,0}, f32[12,64]{1,0}, /*index=15*/f32[768,12,64]{2,1,0}, f32[12,64]{1,0}, f32[768,12,64]{2,1,0}, f32[768]{0}, f32[768]{0}, /*index=20*/f32[768]{0}, f32[768]{0}, f32[3072]{0}, f32[768,3072]{1,0}, f32[768]{0}, /*index=25*/f32[3072,768]{1,0}, f32[12,64]{1,0}, f32[768,12,64]{2,1,0}, f32[768]{0}, f32[12,64,768]{2,1,0}, /*index=30*/f32[12,64]{1,0}, f32[768,12,64]{2,1,0}, f32[12,64]{1,0}, f32[768,12,64]{2,1,0}, f32[768]{0}, /*index=35*/f32[768]{0}, f32[768]{0}, f32[768]{0}, f32[3072]{0}, f32[768,3072]{1,0}, /*index=40*/f32[768]{0}, f32[3072,768]{1,0}, f32[12,64]{1,0}, f32[768,12,64]{2,1,0}, f32[768]{0}, /*index=45*/f32[12,64,768]{2,1,0}, f32[12,64]{1,0}, f32[768,12,64]{2,1,0}, f32[12,64]{1,0}, f32[768,12,64]{2,1,0}, /*index=50*/f32[768]{0}, f32[768]{0}, f32[768]{0}, f32[768]{0}, f32[3072]{0}, /*index=55*/f32[768,3072]{1,0}, f32[768]{0}, f32[3072,768]{1,0}, f32[12,64]{1,0}, f32[768,12,64]{2,1,0}, /*index=60*/f32[768]{0}, f32[12,64,768]{2,1,0}, f32[12,64]{1,0}, f32[768,12,64]{2,1,0}, f32[12,64]{1,0}, /*index=65*/f32[768,12,64]{2,1,0}, f32[768]{0}, f32[768]{0}, f32[768]{0}, f32[768]{0}, /*index=70*/f32[3072]{0}, f32[768,3072]{1,0}, f32[768]{0}, f32[3072,768]{1,0}, f32[12,64]{1,0}, /*index=75*/f32[768,12,64]{2,1,0}, f32[768]{0}, f32[12,64,768]{2,1,0}, f32[12,64]{1,0}, f32[768,12,64]{2,1,0}, /*index=80*/f32[12,64]{1,0}, f32[768,12,64]{2,1,0}, f32[768]{0}, f32[768]{0}, f32[768]{0}, /*index=85*/f32[768]{0}, f32[3072]{0}, f32[768,3072]{1,0}, f32[768]{0}, f32[3072,768]{1,0}, /*index=90*/f32[12,64]{1,0}, f32[768,12,64]{2,1,0}, f32[768]{0}, f32[12,64,768]{2,1,0}, f32[12,64]{1,0}, /*index=95*/f32[768,12,64]{2,1,0}, f32[12,64]{1,0}, f32[768,12,64]{2,1,0}, f32[768]{0}, f32[768]{0}, /*index=100*/f32[768]{0}, f32[768]{0}, f32[3072]{0}, f32[768,3072]{1,0}, f32[768]{0}, /*index=105*/f32[3072,768]{1,0}, f32[12,64]{1,0}, f32[768,12,64]{2,1,0}, f32[768]{0}, f32[12,64,768]{2,1,0}, /*index=110*/f32[12,64]{1,0}, f32[768,12,64]{2,1,0}, f32[12,64]{1,0}, f32[768,12,64]{2,1,0}, f32[768]{0}, /*index=115*/f32[768]{0}, f32[768]{0}, f32[768]{0}, f32[3072]{0}, f32[768,3072]{1,0}, /*index=120*/f32[768]{0}, f32[3072,768]{1,0}, f32[12,64]{1,0}, f32[768,12,64]{2,1,0}, f32[768]{0}, /*index=125*/f32[12,64,768]{2,1,0}, f32[12,64]{1,0}, f32[768,12,64]{2,1,0}, f32[12,64]{1,0}, f32[768,12,64]{2,1,0}, /*index=130*/f32[768]{0}, f32[768]{0}, f32[768]{0}, f32[768]{0}, f32[3072]{0}, /*index=135*/f32[768,3072]{1,0}, f32[768]{0}, f32[3072,768]{1,0}, f32[12,64]{1,0}, f32[768,12,64]{2,1,0}, /*index=140*/f32[768]{0}, f32[12,64,768]{2,1,0}, f32[12,64]{1,0}, f32[768,12,64]{2,1,0}, f32[12,64]{1,0}, /*index=145*/f32[768,12,64]{2,1,0}, f32[768]{0}, f32[768]{0}, f32[768]{0}, f32[768]{0}, /*index=150*/f32[3072]{0}, f32[768,3072]{1,0}, f32[768]{0}, f32[3072,768]{1,0}, f32[12,64]{1,0}, /*index=155*/f32[768,12,64]{2,1,0}, f32[768]{0}, f32[12,64,768]{2,1,0}, f32[12,64]{1,0}, f32[768,12,64]{2,1,0}, /*index=160*/f32[12,64]{1,0}, f32[768,12,64]{2,1,0}, f32[768]{0}, f32[768]{0}, f32[768]{0}, /*index=165*/f32[768]{0}, f32[3072]{0}, f32[768,3072]{1,0}, f32[768]{0}, f32[3072,768]{1,0}, /*index=170*/f32[12,64]{1,0}, f32[768,12,64]{2,1,0}, f32[768]{0}, f32[12,64,768]{2,1,0}, f32[12,64]{1,0}, /*index=175*/f32[768,12,64]{2,1,0}, f32[12,64]{1,0}, f32[768,12,64]{2,1,0}, f32[768]{0}, f32[768]{0}, /*index=180*/f32[768]{0}, f32[768]{0}, f32[3072]{0}, f32[768,3072]{1,0}, f32[768]{0}, /*index=185*/f32[3072,768]{1,0}, f32[12,64]{1,0}, f32[768,12,64]{2,1,0}, f32[768]{0}, f32[12,64,768]{2,1,0}, /*index=190*/f32[12,64]{1,0}, f32[768,12,64]{2,1,0}, f32[12,64]{1,0}, f32[768,12,64]{2,1,0}, f32[768]{0}, /*index=195*/f32[16,16,3,768]{3,2,1,0}, f32[1000]{0}, f32[768,1000]{1,0}, f32[1,196,768]{2,1,0}, s32[], /*index=200*/f32[768]{0}, f32[768]{0}, f32[768]{0}, f32[768]{0}, f32[768]{0}, /*index=205*/f32[768]{0}, f32[3072]{0}, f32[768,3072]{1,0}, f32[768]{0}, f32[3072,768]{1,0}, /*index=210*/f32[12,64]{1,0}, f32[768,12,64]{2,1,0}, f32[768]{0}, f32[12,64,768]{2,1,0}, f32[12,64]{1,0}, /*index=215*/f32[768,12,64]{2,1,0}, f32[12,64]{1,0}, f32[768,12,64]{2,1,0}, f32[768]{0}, f32[768]{0}, /*index=220*/f32[768]{0}, f32[768]{0}, f32[3072]{0}, f32[768,3072]{1,0}, f32[768]{0}, /*index=225*/f32[3072,768]{1,0}, f32[12,64]{1,0}, f32[768,12,64]{2,1,0}, f32[768]{0}, f32[12,64,768]{2,1,0}, /*index=230*/f32[12,64]{1,0}, f32[768,12,64]{2,1,0}, f32[12,64]{1,0}, f32[768,12,64]{2,1,0}, f32[768]{0}, /*index=235*/f32[768]{0}, f32[768]{0}, f32[768]{0}, f32[3072]{0}, f32[768,3072]{1,0}, /*index=240*/f32[768]{0}, f32[3072,768]{1,0}, f32[12,64]{1,0}, f32[768,12,64]{2,1,0}, f32[768]{0}, /*index=245*/f32[12,64,768]{2,1,0}, f32[12,64]{1,0}, f32[768,12,64]{2,1,0}, f32[12,64]{1,0}, f32[768,12,64]{2,1,0}, /*index=250*/f32[768]{0}, f32[768]{0}, f32[768]{0}, f32[768]{0}, f32[3072]{0}, /*index=255*/f32[768,3072]{1,0}, f32[768]{0}, f32[3072,768]{1,0}, f32[12,64]{1,0}, f32[768,12,64]{2,1,0}, /*index=260*/f32[768]{0}, f32[12,64,768]{2,1,0}, f32[12,64]{1,0}, f32[768,12,64]{2,1,0}, f32[12,64]{1,0}, /*index=265*/f32[768,12,64]{2,1,0}, f32[768]{0}, f32[768]{0}, f32[768]{0}, f32[768]{0}, /*index=270*/f32[3072]{0}, f32[768,3072]{1,0}, f32[768]{0}, f32[3072,768]{1,0}, f32[12,64]{1,0}, /*index=275*/f32[768,12,64]{2,1,0}, f32[768]{0}, f32[12,64,768]{2,1,0}, f32[12,64]{1,0}, f32[768,12,64]{2,1,0}, /*index=280*/f32[12,64]{1,0}, f32[768,12,64]{2,1,0}, f32[768]{0}, f32[768]{0}, f32[768]{0}, /*index=285*/f32[768]{0}, f32[3072]{0}, f32[768,3072]{1,0}, f32[768]{0}, f32[3072,768]{1,0}, /*index=290*/f32[12,64]{1,0}, f32[768,12,64]{2,1,0}, f32[768]{0}, f32[12,64,768]{2,1,0}, f32[12,64]{1,0}, /*index=295*/f32[768,12,64]{2,1,0}, f32[12,64]{1,0}, f32[768,12,64]{2,1,0}, f32[768]{0}, f32[768]{0}, /*index=300*/f32[768]{0}, f32[768]{0}, f32[3072]{0}, f32[768,3072]{1,0}, f32[768]{0}, /*index=305*/f32[3072,768]{1,0}, f32[12,64]{1,0}, f32[768,12,64]{2,1,0}, f32[768]{0}, f32[12,64,768]{2,1,0}, /*index=310*/f32[12,64]{1,0}, f32[768,12,64]{2,1,0}, f32[12,64]{1,0}, f32[768,12,64]{2,1,0}, f32[768]{0}, /*index=315*/f32[768]{0}, f32[768]{0}, f32[768]{0}, f32[3072]{0}, f32[768,3072]{1,0}, /*index=320*/f32[768]{0}, f32[3072,768]{1,0}, f32[12,64]{1,0}, f32[768,12,64]{2,1,0}, f32[768]{0}, /*index=325*/f32[12,64,768]{2,1,0}, f32[12,64]{1,0}, f32[768,12,64]{2,1,0}, f32[12,64]{1,0}, f32[768,12,64]{2,1,0}, /*index=330*/f32[768]{0}, f32[768]{0}, f32[768]{0}, f32[768]{0}, f32[3072]{0}, /*index=335*/f32[768,3072]{1,0}, f32[768]{0}, f32[3072,768]{1,0}, f32[12,64]{1,0}, f32[768,12,64]{2,1,0}, /*index=340*/f32[768]{0}, f32[12,64,768]{2,1,0}, f32[12,64]{1,0}, f32[768,12,64]{2,1,0}, f32[12,64]{1,0}, /*index=345*/f32[768,12,64]{2,1,0}, f32[768]{0}, f32[768]{0}, f32[768]{0}, f32[768]{0}, /*index=350*/f32[3072]{0}, f32[768,3072]{1,0}, f32[768]{0}, f32[3072,768]{1,0}, f32[12,64]{1,0}, /*index=355*/f32[768,12,64]{2,1,0}, f32[768]{0}, f32[12,64,768]{2,1,0}, f32[12,64]{1,0}, f32[768,12,64]{2,1,0}, /*index=360*/f32[12,64]{1,0}, f32[768,12,64]{2,1,0}, f32[768]{0}, f32[768]{0}, f32[768]{0}, /*index=365*/f32[768]{0}, f32[3072]{0}, f32[768,3072]{1,0}, f32[768]{0}, f32[3072,768]{1,0}, /*index=370*/f32[12,64]{1,0}, f32[768,12,64]{2,1,0}, f32[768]{0}, f32[12,64,768]{2,1,0}, f32[12,64]{1,0}, /*index=375*/f32[768,12,64]{2,1,0}, f32[12,64]{1,0}, f32[768,12,64]{2,1,0}, f32[768]{0}, f32[768]{0}, /*index=380*/f32[768]{0}, f32[768]{0}, f32[3072]{0}, f32[768,3072]{1,0}, f32[768]{0}, /*index=385*/f32[3072,768]{1,0}, f32[12,64]{1,0}, f32[768,12,64]{2,1,0}, f32[768]{0}, f32[12,64,768]{2,1,0}, /*index=390*/f32[12,64]{1,0}, f32[768,12,64]{2,1,0}, f32[12,64]{1,0}, f32[768,12,64]{2,1,0}, f32[768]{0}, /*index=395*/f32[16,16,3,768]{3,2,1,0}, f32[1000]{0}, f32[768,1000]{1,0}, f32[1,196,768]{2,1,0}, f32[768]{0}, /*index=400*/f32[768]{0}, f32[768]{0}, f32[768]{0}, f32[768]{0}, f32[768]{0}, /*index=405*/f32[3072]{0}, f32[768,3072]{1,0}, f32[768]{0}, f32[3072,768]{1,0}, f32[12,64]{1,0}, /*index=410*/f32[768,12,64]{2,1,0}, f32[768]{0}, f32[12,64,768]{2,1,0}, f32[12,64]{1,0}, f32[768,12,64]{2,1,0}, /*index=415*/f32[12,64]{1,0}, f32[768,12,64]{2,1,0}, f32[768]{0}, f32[768]{0}, f32[768]{0}, /*index=420*/f32[768]{0}, f32[3072]{0}, f32[768,3072]{1,0}, f32[768]{0}, f32[3072,768]{1,0}, /*index=425*/f32[12,64]{1,0}, f32[768,12,64]{2,1,0}, f32[768]{0}, f32[12,64,768]{2,1,0}, f32[12,64]{1,0}, /*index=430*/f32[768,12,64]{2,1,0}, f32[12,64]{1,0}, f32[768,12,64]{2,1,0}, f32[768]{0}, f32[768]{0}, /*index=435*/f32[768]{0}, f32[768]{0}, f32[3072]{0}, f32[768,3072]{1,0}, f32[768]{0}, /*index=440*/f32[3072,768]{1,0}, f32[12,64]{1,0}, f32[768,12,64]{2,1,0}, f32[768]{0}, f32[12,64,768]{2,1,0}, /*index=445*/f32[12,64]{1,0}, f32[768,12,64]{2,1,0}, f32[12,64]{1,0}, f32[768,12,64]{2,1,0}, f32[768]{0}, /*index=450*/f32[768]{0}, f32[768]{0}, f32[768]{0}, f32[3072]{0}, f32[768,3072]{1,0}, /*index=455*/f32[768]{0}, f32[3072,768]{1,0}, f32[12,64]{1,0}, f32[768,12,64]{2,1,0}, f32[768]{0}, /*index=460*/f32[12,64,768]{2,1,0}, f32[12,64]{1,0}, f32[768,12,64]{2,1,0}, f32[12,64]{1,0}, f32[768,12,64]{2,1,0}, /*index=465*/f32[768]{0}, f32[768]{0}, f32[768]{0}, f32[768]{0}, f32[3072]{0}, /*index=470*/f32[768,3072]{1,0}, f32[768]{0}, f32[3072,768]{1,0}, f32[12,64]{1,0}, f32[768,12,64]{2,1,0}, /*index=475*/f32[768]{0}, f32[12,64,768]{2,1,0}, f32[12,64]{1,0}, f32[768,12,64]{2,1,0}, f32[12,64]{1,0}, /*index=480*/f32[768,12,64]{2,1,0}, f32[768]{0}, f32[768]{0}, f32[768]{0}, f32[768]{0}, /*index=485*/f32[3072]{0}, f32[768,3072]{1,0}, f32[768]{0}, f32[3072,768]{1,0}, f32[12,64]{1,0}, /*index=490*/f32[768,12,64]{2,1,0}, f32[768]{0}, f32[12,64,768]{2,1,0}, f32[12,64]{1,0}, f32[768,12,64]{2,1,0}, /*index=495*/f32[12,64]{1,0}, f32[768,12,64]{2,1,0}, f32[768]{0}, f32[768]{0}, f32[768]{0}, /*index=500*/f32[768]{0}, f32[3072]{0}, f32[768,3072]{1,0}, f32[768]{0}, f32[3072,768]{1,0}, /*index=505*/f32[12,64]{1,0}, f32[768,12,64]{2,1,0}, f32[768]{0}, f32[12,64,768]{2,1,0}, f32[12,64]{1,0}, /*index=510*/f32[768,12,64]{2,1,0}, f32[12,64]{1,0}, f32[768,12,64]{2,1,0}, f32[768]{0}, f32[768]{0}, /*index=515*/f32[768]{0}, f32[768]{0}, f32[3072]{0}, f32[768,3072]{1,0}, f32[768]{0}, /*index=520*/f32[3072,768]{1,0}, f32[12,64]{1,0}, f32[768,12,64]{2,1,0}, f32[768]{0}, f32[12,64,768]{2,1,0}, /*index=525*/f32[12,64]{1,0}, f32[768,12,64]{2,1,0}, f32[12,64]{1,0}, f32[768,12,64]{2,1,0}, f32[768]{0}, /*index=530*/f32[768]{0}, f32[768]{0}, f32[768]{0}, f32[3072]{0}, f32[768,3072]{1,0}, /*index=535*/f32[768]{0}, f32[3072,768]{1,0}, f32[12,64]{1,0}, f32[768,12,64]{2,1,0}, f32[768]{0}, /*index=540*/f32[12,64,768]{2,1,0}, f32[12,64]{1,0}, f32[768,12,64]{2,1,0}, f32[12,64]{1,0}, f32[768,12,64]{2,1,0}, /*index=545*/f32[768]{0}, f32[768]{0}, f32[768]{0}, f32[768]{0}, f32[3072]{0}, /*index=550*/f32[768,3072]{1,0}, f32[768]{0}, f32[3072,768]{1,0}, f32[12,64]{1,0}, f32[768,12,64]{2,1,0}, /*index=555*/f32[768]{0}, f32[12,64,768]{2,1,0}, f32[12,64]{1,0}, f32[768,12,64]{2,1,0}, f32[12,64]{1,0}, /*index=560*/f32[768,12,64]{2,1,0}, f32[768]{0}, f32[768]{0}, f32[768]{0}, f32[768]{0}, /*index=565*/f32[3072]{0}, f32[768,3072]{1,0}, f32[768]{0}, f32[3072,768]{1,0}, f32[12,64]{1,0}, /*index=570*/f32[768,12,64]{2,1,0}, f32[768]{0}, f32[12,64,768]{2,1,0}, f32[12,64]{1,0}, f32[768,12,64]{2,1,0}, /*index=575*/f32[12,64]{1,0}, f32[768,12,64]{2,1,0}, f32[768]{0}, f32[768]{0}, f32[768]{0}, /*index=580*/f32[768]{0}, f32[3072]{0}, f32[768,3072]{1,0}, f32[768]{0}, f32[3072,768]{1,0}, /*index=585*/f32[12,64]{1,0}, f32[768,12,64]{2,1,0}, f32[768]{0}, f32[12,64,768]{2,1,0}, f32[12,64]{1,0}, /*index=590*/f32[768,12,64]{2,1,0}, f32[12,64]{1,0}, f32[768,12,64]{2,1,0}, f32[768]{0}, f32[16,16,3,768]{3,2,1,0}, /*index=595*/f32[1000]{0}, f32[768,1000]{1,0}, f32[1,196,768]{2,1,0}, f32[32,224,224,3]{3,2,1,0}, s32[32]{0})->(f32[768]{0}, f32[768]{0}, f32[768]{0}, f32[768]{0}, f32[768]{0}, /*index=5*/f32[768]{0}, f32[3072]{0}, f32[768,3072]{1,0}, f32[768]{0}, f32[3072,768]{1,0}, /*index=10*/f32[12,64]{1,0}, f32[768,12,64]{2,1,0}, f32[768]{0}, f32[12,64,768]{2,1,0}, f32[12,64]{1,0}, /*index=15*/f32[768,12,64]{2,1,0}, f32[12,64]{1,0}, f32[768,12,64]{2,1,0}, f32[768]{0}, f32[768]{0}, /*index=20*/f32[768]{0}, f32[768]{0}, f32[3072]{0}, f32[768,3072]{1,0}, f32[768]{0}, /*index=25*/f32[3072,768]{1,0}, f32[12,64]{1,0}, f32[768,12,64]{2,1,0}, f32[768]{0}, f32[12,64,768]{2,1,0}, /*index=30*/f32[12,64]{1,0}, f32[768,12,64]{2,1,0}, f32[12,64]{1,0}, f32[768,12,64]{2,1,0}, f32[768]{0}, /*index=35*/f32[768]{0}, f32[768]{0}, f32[768]{0}, f32[3072]{0}, f32[768,3072]{1,0}, /*index=40*/f32[768]{0}, f32[3072,768]{1,0}, f32[12,64]{1,0}, f32[768,12,64]{2,1,0}, f32[768]{0}, /*index=45*/f32[12,64,768]{2,1,0}, f32[12,64]{1,0}, f32[768,12,64]{2,1,0}, f32[12,64]{1,0}, f32[768,12,64]{2,1,0}, /*index=50*/f32[768]{0}, f32[768]{0}, f32[768]{0}, f32[768]{0}, f32[3072]{0}, /*index=55*/f32[768,3072]{1,0}, f32[768]{0}, f32[3072,768]{1,0}, f32[12,64]{1,0}, f32[768,12,64]{2,1,0}, /*index=60*/f32[768]{0}, f32[12,64,768]{2,1,0}, f32[12,64]{1,0}, f32[768,12,64]{2,1,0}, f32[12,64]{1,0}, /*index=65*/f32[768,12,64]{2,1,0}, f32[768]{0}, f32[768]{0}, f32[768]{0}, f32[768]{0}, /*index=70*/f32[3072]{0}, f32[768,3072]{1,0}, f32[768]{0}, f32[3072,768]{1,0}, f32[12,64]{1,0}, /*index=75*/f32[768,12,64]{2,1,0}, f32[768]{0}, f32[12,64,768]{2,1,0}, f32[12,64]{1,0}, f32[768,12,64]{2,1,0}, /*index=80*/f32[12,64]{1,0}, f32[768,12,64]{2,1,0}, f32[768]{0}, f32[768]{0}, f32[768]{0}, /*index=85*/f32[768]{0}, f32[3072]{0}, f32[768,3072]{1,0}, f32[768]{0}, f32[3072,768]{1,0}, /*index=90*/f32[12,64]{1,0}, f32[768,12,64]{2,1,0}, f32[768]{0}, f32[12,64,768]{2,1,0}, f32[12,64]{1,0}, /*index=95*/f32[768,12,64]{2,1,0}, f32[12,64]{1,0}, f32[768,12,64]{2,1,0}, f32[768]{0}, f32[768]{0}, /*index=100*/f32[768]{0}, f32[768]{0}, f32[3072]{0}, f32[768,3072]{1,0}, f32[768]{0}, /*index=105*/f32[3072,768]{1,0}, f32[12,64]{1,0}, f32[768,12,64]{2,1,0}, f32[768]{0}, f32[12,64,768]{2,1,0}, /*index=110*/f32[12,64]{1,0}, f32[768,12,64]{2,1,0}, f32[12,64]{1,0}, f32[768,12,64]{2,1,0}, f32[768]{0}, /*index=115*/f32[768]{0}, f32[768]{0}, f32[768]{0}, f32[3072]{0}, f32[768,3072]{1,0}, /*index=120*/f32[768]{0}, f32[3072,768]{1,0}, f32[12,64]{1,0}, f32[768,12,64]{2,1,0}, f32[768]{0}, /*index=125*/f32[12,64,768]{2,1,0}, f32[12,64]{1,0}, f32[768,12,64]{2,1,0}, f32[12,64]{1,0}, f32[768,12,64]{2,1,0}, /*index=130*/f32[768]{0}, f32[768]{0}, f32[768]{0}, f32[768]{0}, f32[3072]{0}, /*index=135*/f32[768,3072]{1,0}, f32[768]{0}, f32[3072,768]{1,0}, f32[12,64]{1,0}, f32[768,12,64]{2,1,0}, /*index=140*/f32[768]{0}, f32[12,64,768]{2,1,0}, f32[12,64]{1,0}, f32[768,12,64]{2,1,0}, f32[12,64]{1,0}, /*index=145*/f32[768,12,64]{2,1,0}, f32[768]{0}, f32[768]{0}, f32[768]{0}, f32[768]{0}, /*index=150*/f32[3072]{0}, f32[768,3072]{1,0}, f32[768]{0}, f32[3072,768]{1,0}, f32[12,64]{1,0}, /*index=155*/f32[768,12,64]{2,1,0}, f32[768]{0}, f32[12,64,768]{2,1,0}, f32[12,64]{1,0}, f32[768,12,64]{2,1,0}, /*index=160*/f32[12,64]{1,0}, f32[768,12,64]{2,1,0}, f32[768]{0}, f32[768]{0}, f32[768]{0}, /*index=165*/f32[768]{0}, f32[3072]{0}, f32[768,3072]{1,0}, f32[768]{0}, f32[3072,768]{1,0}, /*index=170*/f32[12,64]{1,0}, f32[768,12,64]{2,1,0}, f32[768]{0}, f32[12,64,768]{2,1,0}, f32[12,64]{1,0}, /*index=175*/f32[768,12,64]{2,1,0}, f32[12,64]{1,0}, f32[768,12,64]{2,1,0}, f32[768]{0}, f32[768]{0}, /*index=180*/f32[768]{0}, f32[768]{0}, f32[3072]{0}, f32[768,3072]{1,0}, f32[768]{0}, /*index=185*/f32[3072,768]{1,0}, f32[12,64]{1,0}, f32[768,12,64]{2,1,0}, f32[768]{0}, f32[12,64,768]{2,1,0}, /*index=190*/f32[12,64]{1,0}, f32[768,12,64]{2,1,0}, f32[12,64]{1,0}, f32[768,12,64]{2,1,0}, f32[768]{0}, /*index=195*/f32[16,16,3,768]{3,2,1,0}, f32[1000]{0}, f32[768,1000]{1,0}, f32[1,196,768]{2,1,0}, s32[], /*index=200*/f32[768]{0}, f32[768]{0}, f32[768]{0}, f32[768]{0}, f32[768]{0}, /*index=205*/f32[768]{0}, f32[3072]{0}, f32[768,3072]{1,0}, f32[768]{0}, f32[3072,768]{1,0}, /*index=210*/f32[12,64]{1,0}, f32[768,12,64]{2,1,0}, f32[768]{0}, f32[12,64,768]{2,1,0}, f32[12,64]{1,0}, /*index=215*/f32[768,12,64]{2,1,0}, f32[12,64]{1,0}, f32[768,12,64]{2,1,0}, f32[768]{0}, f32[768]{0}, /*index=220*/f32[768]{0}, f32[768]{0}, f32[3072]{0}, f32[768,3072]{1,0}, f32[768]{0}, /*index=225*/f32[3072,768]{1,0}, f32[12,64]{1,0}, f32[768,12,64]{2,1,0}, f32[768]{0}, f32[12,64,768]{2,1,0}, /*index=230*/f32[12,64]{1,0}, f32[768,12,64]{2,1,0}, f32[12,64]{1,0}, f32[768,12,64]{2,1,0}, f32[768]{0}, /*index=235*/f32[768]{0}, f32[768]{0}, f32[768]{0}, f32[3072]{0}, f32[768,3072]{1,0}, /*index=240*/f32[768]{0}, f32[3072,768]{1,0}, f32[12,64]{1,0}, f32[768,12,64]{2,1,0}, f32[768]{0}, /*index=245*/f32[12,64,768]{2,1,0}, f32[12,64]{1,0}, f32[768,12,64]{2,1,0}, f32[12,64]{1,0}, f32[768,12,64]{2,1,0}, /*index=250*/f32[768]{0}, f32[768]{0}, f32[768]{0}, f32[768]{0}, f32[3072]{0}, /*index=255*/f32[768,3072]{1,0}, f32[768]{0}, f32[3072,768]{1,0}, f32[12,64]{1,0}, f32[768,12,64]{2,1,0}, /*index=260*/f32[768]{0}, f32[12,64,768]{2,1,0}, f32[12,64]{1,0}, f32[768,12,64]{2,1,0}, f32[12,64]{1,0}, /*index=265*/f32[768,12,64]{2,1,0}, f32[768]{0}, f32[768]{0}, f32[768]{0}, f32[768]{0}, /*index=270*/f32[3072]{0}, f32[768,3072]{1,0}, f32[768]{0}, f32[3072,768]{1,0}, f32[12,64]{1,0}, /*index=275*/f32[768,12,64]{2,1,0}, f32[768]{0}, f32[12,64,768]{2,1,0}, f32[12,64]{1,0}, f32[768,12,64]{2,1,0}, /*index=280*/f32[12,64]{1,0}, f32[768,12,64]{2,1,0}, f32[768]{0}, f32[768]{0}, f32[768]{0}, /*index=285*/f32[768]{0}, f32[3072]{0}, f32[768,3072]{1,0}, f32[768]{0}, f32[3072,768]{1,0}, /*index=290*/f32[12,64]{1,0}, f32[768,12,64]{2,1,0}, f32[768]{0}, f32[12,64,768]{2,1,0}, f32[12,64]{1,0}, /*index=295*/f32[768,12,64]{2,1,0}, f32[12,64]{1,0}, f32[768,12,64]{2,1,0}, f32[768]{0}, f32[768]{0}, /*index=300*/f32[768]{0}, f32[768]{0}, f32[3072]{0}, f32[768,3072]{1,0}, f32[768]{0}, /*index=305*/f32[3072,768]{1,0}, f32[12,64]{1,0}, f32[768,12,64]{2,1,0}, f32[768]{0}, f32[12,64,768]{2,1,0}, /*index=310*/f32[12,64]{1,0}, f32[768,12,64]{2,1,0}, f32[12,64]{1,0}, f32[768,12,64]{2,1,0}, f32[768]{0}, /*index=315*/f32[768]{0}, f32[768]{0}, f32[768]{0}, f32[3072]{0}, f32[768,3072]{1,0}, /*index=320*/f32[768]{0}, f32[3072,768]{1,0}, f32[12,64]{1,0}, f32[768,12,64]{2,1,0}, f32[768]{0}, /*index=325*/f32[12,64,768]{2,1,0}, f32[12,64]{1,0}, f32[768,12,64]{2,1,0}, f32[12,64]{1,0}, f32[768,12,64]{2,1,0}, /*index=330*/f32[768]{0}, f32[768]{0}, f32[768]{0}, f32[768]{0}, f32[3072]{0}, /*index=335*/f32[768,3072]{1,0}, f32[768]{0}, f32[3072,768]{1,0}, f32[12,64]{1,0}, f32[768,12,64]{2,1,0}, /*index=340*/f32[768]{0}, f32[12,64,768]{2,1,0}, f32[12,64]{1,0}, f32[768,12,64]{2,1,0}, f32[12,64]{1,0}, /*index=345*/f32[768,12,64]{2,1,0}, f32[768]{0}, f32[768]{0}, f32[768]{0}, f32[768]{0}, /*index=350*/f32[3072]{0}, f32[768,3072]{1,0}, f32[768]{0}, f32[3072,768]{1,0}, f32[12,64]{1,0}, /*index=355*/f32[768,12,64]{2,1,0}, f32[768]{0}, f32[12,64,768]{2,1,0}, f32[12,64]{1,0}, f32[768,12,64]{2,1,0}, /*index=360*/f32[12,64]{1,0}, f32[768,12,64]{2,1,0}, f32[768]{0}, f32[768]{0}, f32[768]{0}, /*index=365*/f32[768]{0}, f32[3072]{0}, f32[768,3072]{1,0}, f32[768]{0}, f32[3072,768]{1,0}, /*index=370*/f32[12,64]{1,0}, f32[768,12,64]{2,1,0}, f32[768]{0}, f32[12,64,768]{2,1,0}, f32[12,64]{1,0}, /*index=375*/f32[768,12,64]{2,1,0}, f32[12,64]{1,0}, f32[768,12,64]{2,1,0}, f32[768]{0}, f32[768]{0}, /*index=380*/f32[768]{0}, f32[768]{0}, f32[3072]{0}, f32[768,3072]{1,0}, f32[768]{0}, /*index=385*/f32[3072,768]{1,0}, f32[12,64]{1,0}, f32[768,12,64]{2,1,0}, f32[768]{0}, f32[12,64,768]{2,1,0}, /*index=390*/f32[12,64]{1,0}, f32[768,12,64]{2,1,0}, f32[12,64]{1,0}, f32[768,12,64]{2,1,0}, f32[768]{0}, /*index=395*/f32[16,16,3,768]{3,2,1,0}, f32[1000]{0}, f32[768,1000]{1,0}, f32[1,196,768]{2,1,0}, f32[768]{0}, /*index=400*/f32[768]{0}, f32[768]{0}, f32[768]{0}, f32[768]{0}, f32[768]{0}, /*index=405*/f32[3072]{0}, f32[768,3072]{1,0}, f32[768]{0}, f32[3072,768]{1,0}, f32[12,64]{1,0}, /*index=410*/f32[768,12,64]{2,1,0}, f32[768]{0}, f32[12,64,768]{2,1,0}, f32[12,64]{1,0}, f32[768,12,64]{2,1,0}, /*index=415*/f32[12,64]{1,0}, f32[768,12,64]{2,1,0}, f32[768]{0}, f32[768]{0}, f32[768]{0}, /*index=420*/f32[768]{0}, f32[3072]{0}, f32[768,3072]{1,0}, f32[768]{0}, f32[3072,768]{1,0}, /*index=425*/f32[12,64]{1,0}, f32[768,12,64]{2,1,0}, f32[768]{0}, f32[12,64,768]{2,1,0}, f32[12,64]{1,0}, /*index=430*/f32[768,12,64]{2,1,0}, f32[12,64]{1,0}, f32[768,12,64]{2,1,0}, f32[768]{0}, f32[768]{0}, /*index=435*/f32[768]{0}, f32[768]{0}, f32[3072]{0}, f32[768,3072]{1,0}, f32[768]{0}, /*index=440*/f32[3072,768]{1,0}, f32[12,64]{1,0}, f32[768,12,64]{2,1,0}, f32[768]{0}, f32[12,64,768]{2,1,0}, /*index=445*/f32[12,64]{1,0}, f32[768,12,64]{2,1,0}, f32[12,64]{1,0}, f32[768,12,64]{2,1,0}, f32[768]{0}, /*index=450*/f32[768]{0}, f32[768]{0}, f32[768]{0}, f32[3072]{0}, f32[768,3072]{1,0}, /*index=455*/f32[768]{0}, f32[3072,768]{1,0}, f32[12,64]{1,0}, f32[768,12,64]{2,1,0}, f32[768]{0}, /*index=460*/f32[12,64,768]{2,1,0}, f32[12,64]{1,0}, f32[768,12,64]{2,1,0}, f32[12,64]{1,0}, f32[768,12,64]{2,1,0}, /*index=465*/f32[768]{0}, f32[768]{0}, f32[768]{0}, f32[768]{0}, f32[3072]{0}, /*index=470*/f32[768,3072]{1,0}, f32[768]{0}, f32[3072,768]{1,0}, f32[12,64]{1,0}, f32[768,12,64]{2,1,0}, /*index=475*/f32[768]{0}, f32[12,64,768]{2,1,0}, f32[12,64]{1,0}, f32[768,12,64]{2,1,0}, f32[12,64]{1,0}, /*index=480*/f32[768,12,64]{2,1,0}, f32[768]{0}, f32[768]{0}, f32[768]{0}, f32[768]{0}, /*index=485*/f32[3072]{0}, f32[768,3072]{1,0}, f32[768]{0}, f32[3072,768]{1,0}, f32[12,64]{1,0}, /*index=490*/f32[768,12,64]{2,1,0}, f32[768]{0}, f32[12,64,768]{2,1,0}, f32[12,64]{1,0}, f32[768,12,64]{2,1,0}, /*index=495*/f32[12,64]{1,0}, f32[768,12,64]{2,1,0}, f32[768]{0}, f32[768]{0}, f32[768]{0}, /*index=500*/f32[768]{0}, f32[3072]{0}, f32[768,3072]{1,0}, f32[768]{0}, f32[3072,768]{1,0}, /*index=505*/f32[12,64]{1,0}, f32[768,12,64]{2,1,0}, f32[768]{0}, f32[12,64,768]{2,1,0}, f32[12,64]{1,0}, /*index=510*/f32[768,12,64]{2,1,0}, f32[12,64]{1,0}, f32[768,12,64]{2,1,0}, f32[768]{0}, f32[768]{0}, /*index=515*/f32[768]{0}, f32[768]{0}, f32[3072]{0}, f32[768,3072]{1,0}, f32[768]{0}, /*index=520*/f32[3072,768]{1,0}, f32[12,64]{1,0}, f32[768,12,64]{2,1,0}, f32[768]{0}, f32[12,64,768]{2,1,0}, /*index=525*/f32[12,64]{1,0}, f32[768,12,64]{2,1,0}, f32[12,64]{1,0}, f32[768,12,64]{2,1,0}, f32[768]{0}, /*index=530*/f32[768]{0}, f32[768]{0}, f32[768]{0}, f32[3072]{0}, f32[768,3072]{1,0}, /*index=535*/f32[768]{0}, f32[3072,768]{1,0}, f32[12,64]{1,0}, f32[768,12,64]{2,1,0}, f32[768]{0}, /*index=540*/f32[12,64,768]{2,1,0}, f32[12,64]{1,0}, f32[768,12,64]{2,1,0}, f32[12,64]{1,0}, f32[768,12,64]{2,1,0}, /*index=545*/f32[768]{0}, f32[768]{0}, f32[768]{0}, f32[768]{0}, f32[3072]{0}, /*index=550*/f32[768,3072]{1,0}, f32[768]{0}, f32[3072,768]{1,0}, f32[12,64]{1,0}, f32[768,12,64]{2,1,0}, /*index=555*/f32[768]{0}, f32[12,64,768]{2,1,0}, f32[12,64]{1,0}, f32[768,12,64]{2,1,0}, f32[12,64]{1,0}, /*index=560*/f32[768,12,64]{2,1,0}, f32[768]{0}, f32[768]{0}, f32[768]{0}, f32[768]{0}, /*index=565*/f32[3072]{0}, f32[768,3072]{1,0}, f32[768]{0}, f32[3072,768]{1,0}, f32[12,64]{1,0}, /*index=570*/f32[768,12,64]{2,1,0}, f32[768]{0}, f32[12,64,768]{2,1,0}, f32[12,64]{1,0}, f32[768,12,64]{2,1,0}, /*index=575*/f32[12,64]{1,0}, f32[768,12,64]{2,1,0}, f32[768]{0}, f32[768]{0}, f32[768]{0}, /*index=580*/f32[768]{0}, f32[3072]{0}, f32[768,3072]{1,0}, f32[768]{0}, f32[3072,768]{1,0}, /*index=585*/f32[12,64]{1,0}, f32[768,12,64]{2,1,0}, f32[768]{0}, f32[12,64,768]{2,1,0}, f32[12,64]{1,0}, /*index=590*/f32[768,12,64]{2,1,0}, f32[12,64]{1,0}, f32[768,12,64]{2,1,0}, f32[768]{0}, f32[16,16,3,768]{3,2,1,0}, /*index=595*/f32[1000]{0}, f32[768,1000]{1,0}, f32[1,196,768]{2,1,0}, f32[])}, allow_spmd_sharding_propagation_to_parameters={true,true,true,true,true,true,true,true,true,true,true,true,true,true,true,true,true,true,true,true,true,true,true,true,true,true,true,true,true,true,true,true,true,true,true,true,true,true,true,true,true,true,true,true,true,true,true,true,true,true,true,true,true,true,true,true,true,true,true,true,true,true,true,true,true,true,true,true,true,true,true,true,true,true,true,true,true,true,true,true,true,true,true,true,true,true,true,true,true,true,true,true,true,true,true,true,true,true,true,true,true,true,true,true,true,true,true,true,true,true,true,true,true,true,true,true,true,true,true,true,true,true,true,true,true,true,true,true,true,true,true,true,true,true,true,true,true,true,true,true,true,true,true,true,true,true,true,true,true,true,true,true,true,true,true,true,true,true,true,true,true,true,true,true,true,true,true,true,true,true,true,true,true,true,true,true,true,true,true,true,true,true,true,true,true,true,true,true,true,true,true,true,true,true,true,true,true,true,true,true,true,true,true,true,true,true,true,true,true,true,true,true,true,true,true,true,true,true,true,true,true,true,true,true,true,true,true,true,true,true,true,true,true,true,true,true,true,true,true,true,true,true,true,true,true,true,true,true,true,true,true,true,true,true,true,true,true,true,true,true,true,true,true,true,true,true,true,true,true,true,true,true,true,true,true,true,true,true,true,true,true,true,true,true,true,true,true,true,true,true,true,true,true,true,true,true,true,true,true,true,true,true,true,true,true,true,true,true,true,true,true,true,true,true,true,true,true,true,true,true,true,true,true,true,true,true,true,true,true,true,true,true,true,true,true,true,true,true,true,true,true,true,true,true,true,true,true,true,true,true,true,true,true,true,true,true,true,true,true,true,true,true,true,true,true,true,true,true,true,true,true,true,true,true,true,true,true,true,true,true,true,true,true,true,true,true,true,true,true,true,true,true,true,true,true,true,true,true,true,true,true,true,true,true,true,true,true,true,true,true,true,true,true,true,true,true,true,true,true,true,true,true,true,true,true,true,true,true,true,true,true,true,true,true,true,true,true,true,true,true,true,true,true,true,true,true,true,true,true,true,true,true,true,true,true,true,true,true,true,true,true,true,true,true,true,true,true,true,true,true,true,true,true,true,true,true,true,true,true,true,true,true,true,true,true,true,true,true,true,true,true,true,true,true,true,true,true,true,true,true,true,true,true,true,true,true,true,true,true,true,true,true,true,true,true,true,true,true,true,true,true,true,true,true,true,true,true,true,true,true,true,true,true,true,true,true,true,true,true,true,true,true,true,true,true,true,true,true,true,true,true,true,true,true,true,true,true,true,true,true,true,true,true,true,true,true,true,true,true,true,true,true,true,true,true,true,true,true,true,true,true,true,true,true,true,true,true,true,true,true,true,true,true,true,true,true,true,true,true,true}, allow_spmd_sharding_propagation_to_output={true,true,true,true,true,true,true,true,true,true,true,true,true,true,true,true,true,true,true,true,true,true,true,true,true,true,true,true,true,true,true,true,true,true,true,true,true,true,true,true,true,true,true,true,true,true,true,true,true,true,true,true,true,true,true,true,true,true,true,true,true,true,true,true,true,true,true,true,true,true,true,true,true,true,true,true,true,true,true,true,true,true,true,true,true,true,true,true,true,true,true,true,true,true,true,true,true,true,true,true,true,true,true,true,true,true,true,true,true,true,true,true,true,true,true,true,true,true,true,true,true,true,true,true,true,true,true,true,true,true,true,true,true,true,true,true,true,true,true,true,true,true,true,true,true,true,true,true,true,true,true,true,true,true,true,true,true,true,true,true,true,true,true,true,true,true,true,true,true,true,true,true,true,true,true,true,true,true,true,true,true,true,true,true,true,true,true,true,true,true,true,true,true,true,true,true,true,true,true,true,true,true,true,true,true,true,true,true,true,true,true,true,true,true,true,true,true,true,true,true,true,true,true,true,true,true,true,true,true,true,true,true,true,true,true,true,true,true,true,true,true,true,true,true,true,true,true,true,true,true,true,true,true,true,true,true,true,true,true,true,true,true,true,true,true,true,true,true,true,true,true,true,true,true,true,true,true,true,true,true,true,true,true,true,true,true,true,true,true,true,true,true,true,true,true,true,true,true,true,true,true,true,true,true,true,true,true,true,true,true,true,true,true,true,true,true,true,true,true,true,true,true,true,true,true,true,true,true,true,true,true,true,true,true,true,true,true,true,true,true,true,true,true,true,true,true,true,true,true,true,true,true,true,true,true,true,true,true,true,true,true,true,true,true,true,true,true,true,true,true,true,true,true,true,true,true,true,true,true,true,true,true,true,true,true,true,true,true,true,true,true,true,true,true,true,true,true,true,true,true,true,true,true,true,true,true,true,true,true,true,true,true,true,true,true,true,true,true,true,true,true,true,true,true,true,true,true,true,true,true,true,true,true,true,true,true,true,true,true,true,true,true,true,true,true,true,true,true,true,true,true,true,true,true,true,true,true,true,true,true,true,true,true,true,true,true,true,true,true,true,true,true,true,true,true,true,true,true,true,true,true,true,true,true,true,true,true,true,true,true,true,true,true,true,true,true,true,true,true,true,true,true,true,true,true,true,true,true,true,true,true,true,true,true,true,true,true,true,true,true,true,true,true,true,true,true,true,true,true,true,true,true,true,true,true,true,true,true,true,true,true,true,true,true,true,true,true,true,true,true,true,true,true,true,true,true,true,true,true,true,true,true,true,true,true,true,true,true,true,true,true,true,true,true,true,true,true,true,true,true,true,true,true,true,true,true,true,true,true,true,true,true,true,true,true,true,true,true,true}

FileNames
1 "/root/hlo_dump/bv_image_dump.py"
2 "/root/big_vision/big_vision/models/vit.py"
3 "/usr/local/lib/python3.12/dist-packages/flax/linen/normalization.py"
4 "/usr/local/lib/python3.12/dist-packages/flax/linen/attention.py"
5 "/usr/local/lib/python3.12/dist-packages/optax/losses/_classification.py"
6 "/usr/local/lib/python3.12/dist-packages/flax/linen/linear.py"
7 "/usr/local/lib/python3.12/dist-packages/optax/transforms/_combining.py"
8 "/usr/local/lib/python3.12/dist-packages/optax/_src/base.py"
9 "/usr/local/lib/python3.12/dist-packages/optax/_src/transform.py"
10 "/usr/local/lib/python3.12/dist-packages/optax/tree_utils/_tree_math.py"
11 "/usr/local/lib/python3.12/dist-packages/optax/_src/numerics.py"
12 "/usr/local/lib/python3.12/dist-packages/optax/transforms/_adding.py"
13 "/usr/local/lib/python3.12/dist-packages/optax/_src/update.py"

FunctionNames
1 "<module>"
2 "train_step"
3 "train_step.<locals>.loss_fn"
4 "_Model.__call__"
5 "Encoder.__call__"
6 "Encoder1DBlock.__call__"
7 "LayerNorm.__call__"
8 "_compute_stats"
9 "_compute_stats.<locals>.maybe_distributed_mean"
10 "_compute_stats.<locals>.maybe_distributed_mean.<locals>.<genexpr>"
11 "MultiHeadDotProductAttention.__call__"
12 "dot_product_attention"
13 "dot_product_attention_weights"
14 "softmax_cross_entropy_with_integer_labels"
15 "Dense.__call__"
16 "_normalize"
17 "MlpBlock.__call__"
18 "DenseGeneral.__call__"
19 "_Conv.__call__"
20 "_abs_sq"
21 "chain.<locals>.update_fn"
22 "with_extra_args_support.<locals>.update"
23 "scale_by_adam.<locals>.update_fn"
24 "tree_update_moment"
25 "tree_update_moment.<locals>.<lambda>"
26 "safe_increment"
27 "tree_update_moment_per_elem_norm"
28 "tree_update_moment_per_elem_norm.<locals>.<lambda>"
29 "tree_update_moment_per_elem_norm.<locals>.orderth_norm"
30 "scale_by_adam.<locals>.update_fn.<locals>.<lambda>"
31 "add_decayed_weights.<locals>.update_fn"
32 "add_decayed_weights.<locals>.update_fn.<locals>.<lambda>"
33 "scale.<locals>.update_fn"
34 "scale.<locals>.update_fn.<locals>.<lambda>"
35 "apply_updates"
36 "apply_updates.<locals>.<lambda>"

FileLocations
1 {file_name_id=1 function_name_id=1 line=51 end_line=51 column=17 end_column=64}
2 {file_name_id=1 function_name_id=2 line=47 end_line=47 column=22 end_column=57}
3 {file_name_id=1 function_name_id=3 line=43 end_line=44 column=24 end_column=59}
4 {file_name_id=2 function_name_id=4 line=230 end_line=239 column=24 end_column=39}
5 {file_name_id=2 function_name_id=5 line=157 end_line=157 column=36 end_column=63}
6 {file_name_id=2 function_name_id=6 line=92 end_line=92 column=8 end_column=25}
7 {file_name_id=3 function_name_id=7 line=512 end_line=521 column=16 end_column=5}
8 {file_name_id=3 function_name_id=8 line=139 end_line=139 column=16 end_column=64}
9 {file_name_id=3 function_name_id=9 line=122 end_line=122 column=10 end_column=53}
10 {file_name_id=3 function_name_id=10 line=122 end_line=122 column=16 end_column=40}
11 {file_name_id=2 function_name_id=6 line=93 end_line=98 column=20 end_column=11}
12 {file_name_id=4 function_name_id=11 line=674 end_line=674 column=10 end_column=54}
13 {file_name_id=4 function_name_id=12 line=266 end_line=281 column=17 end_column=3}
14 {file_name_id=4 function_name_id=13 line=146 end_line=146 column=19 end_column=47}
15 {file_name_id=2 function_name_id=6 line=103 end_line=103 column=8 end_column=25}
16 {file_name_id=2 function_name_id=5 line=160 end_line=160 column=11 end_column=47}
17 {file_name_id=2 function_name_id=4 line=246 end_line=246 column=30 end_column=49}
18 {file_name_id=1 function_name_id=3 line=45 end_line=46 column=19 end_column=31}
19 {file_name_id=5 function_name_id=14 line=403 end_line=403 column=20 end_column=68}
20 {file_name_id=1 function_name_id=3 line=46 end_line=46 column=32 end_column=38}
21 {file_name_id=2 function_name_id=4 line=274 end_line=274 column=26 end_column=33}
22 {file_name_id=6 function_name_id=15 line=294 end_line=294 column=6 end_column=57}
23 {file_name_id=3 function_name_id=7 line=523 end_line=538 column=11 end_column=5}
24 {file_name_id=3 function_name_id=16 line=223 end_line=223 column=4 end_column=13}
25 {file_name_id=3 function_name_id=16 line=214 end_line=214 column=4 end_column=16}
26 {file_name_id=3 function_name_id=16 line=205 end_line=205 column=6 end_column=14}
27 {file_name_id=3 function_name_id=16 line=204 end_line=204 column=8 end_column=44}
28 {file_name_id=3 function_name_id=16 line=203 end_line=203 column=9 end_column=46}
29 {file_name_id=2 function_name_id=6 line=104 end_line=107 column=21 end_column=23}
30 {file_name_id=2 function_name_id=17 line=77 end_line=77 column=8 end_column=52}
31 {file_name_id=2 function_name_id=17 line=72 end_line=72 column=8 end_column=72}
32 {file_name_id=4 function_name_id=11 line=676 end_line=688 column=10 end_column=8}
33 {file_name_id=6 function_name_id=18 line=210 end_line=210 column=6 end_column=17}
34 {file_name_id=4 function_name_id=11 line=551 end_line=551 column=6 end_column=35}
35 {file_name_id=4 function_name_id=11 line=550 end_line=550 column=6 end_column=33}
36 {file_name_id=4 function_name_id=11 line=549 end_line=549 column=6 end_column=35}
37 {file_name_id=2 function_name_id=4 line=220 end_line=221 column=29 end_column=63}
38 {file_name_id=2 function_name_id=4 line=212 end_line=214 column=22 end_column=70}
39 {file_name_id=6 function_name_id=19 line=726 end_line=726 column=6 end_column=15}
40 {file_name_id=6 function_name_id=19 line=700 end_line=710 column=10 end_column=7}
41 {file_name_id=6 function_name_id=19 line=725 end_line=725 column=13 end_column=67}
42 {file_name_id=2 function_name_id=4 line=217 end_line=217 column=8 end_column=37}
43 {file_name_id=3 function_name_id=8 line=139 end_line=139 column=42 end_column=52}
44 {file_name_id=3 function_name_id=20 line=57 end_line=57 column=11 end_column=24}
45 {file_name_id=3 function_name_id=8 line=142 end_line=142 column=35 end_column=46}
46 {file_name_id=3 function_name_id=8 line=142 end_line=142 column=29 end_column=46}
47 {file_name_id=3 function_name_id=8 line=142 end_line=142 column=12 end_column=47}
48 {file_name_id=3 function_name_id=16 line=206 end_line=206 column=18 end_column=31}
49 {file_name_id=3 function_name_id=16 line=206 end_line=206 column=8 end_column=32}
50 {file_name_id=3 function_name_id=16 line=211 end_line=211 column=6 end_column=28}
51 {file_name_id=3 function_name_id=16 line=216 end_line=216 column=2 end_column=10}
52 {file_name_id=3 function_name_id=16 line=220 end_line=220 column=6 end_column=28}
53 {file_name_id=6 function_name_id=18 line=199 end_line=204 column=10 end_column=5}
54 {file_name_id=6 function_name_id=18 line=209 end_line=209 column=13 end_column=63}
55 {file_name_id=4 function_name_id=13 line=130 end_line=130 column=10 end_column=47}
56 {file_name_id=4 function_name_id=13 line=132 end_line=132 column=17 end_column=60}
57 {file_name_id=4 function_name_id=12 line=291 end_line=295 column=9 end_column=3}
58 {file_name_id=2 function_name_id=6 line=101 end_line=101 column=21 end_column=26}
59 {file_name_id=6 function_name_id=15 line=287 end_line=292 column=8 end_column=5}
60 {file_name_id=6 function_name_id=15 line=294 end_line=294 column=11 end_column=57}
61 {file_name_id=2 function_name_id=17 line=75 end_line=75 column=8 end_column=18}
62 {file_name_id=2 function_name_id=6 line=110 end_line=110 column=22 end_column=27}
63 {file_name_id=5 function_name_id=14 line=401 end_line=401 column=14 end_column=43}
64 {file_name_id=5 function_name_id=14 line=400 end_line=402 column=17 end_column=3}
65 {file_name_id=5 function_name_id=14 line=402 end_line=402 column=4 end_column=22}
66 {file_name_id=5 function_name_id=14 line=404 end_line=404 column=8 end_column=38}
67 {file_name_id=1 function_name_id=2 line=48 end_line=48 column=29 end_column=64}
68 {file_name_id=7 function_name_id=21 line=90 end_line=90 column=23 end_column=59}
69 {file_name_id=8 function_name_id=22 line=339 end_line=339 column=11 end_column=44}
70 {file_name_id=9 function_name_id=23 line=283 end_line=283 column=9 end_column=59}
71 {file_name_id=10 function_name_id=24 line=396 end_line=403 column=9 end_column=3}
72 {file_name_id=10 function_name_id=25 line=398 end_line=398 column=10 end_column=34}
73 {file_name_id=10 function_name_id=25 line=398 end_line=398 column=37 end_column=46}
74 {file_name_id=9 function_name_id=23 line=285 end_line=285 column=16 end_column=52}
75 {file_name_id=11 function_name_id=26 line=143 end_line=143 column=19 end_column=36}
76 {file_name_id=11 function_name_id=26 line=143 end_line=143 column=38 end_column=49}
77 {file_name_id=11 function_name_id=26 line=143 end_line=143 column=9 end_column=61}
78 {file_name_id=9 function_name_id=23 line=294 end_line=294 column=15 end_column=60}
79 {file_name_id=9 function_name_id=23 line=284 end_line=284 column=9 end_column=73}
80 {file_name_id=10 function_name_id=27 line=431 end_line=438 column=9 end_column=3}
81 {file_name_id=10 function_name_id=28 line=433 end_line=433 column=24 end_column=39}
82 {file_name_id=10 function_name_id=29 line=423 end_line=423 column=13 end_column=23}
83 {file_name_id=10 function_name_id=28 line=433 end_line=433 column=10 end_column=39}
84 {file_name_id=10 function_name_id=28 line=433 end_line=433 column=42 end_column=51}
85 {file_name_id=9 function_name_id=23 line=298 end_line=298 column=13 end_column=58}
86 {file_name_id=9 function_name_id=23 line=299 end_line=304 column=14 end_column=5}
87 {file_name_id=9 function_name_id=30 line=300 end_line=300 column=49 end_column=77}
88 {file_name_id=9 function_name_id=30 line=300 end_line=300 column=44 end_column=78}
89 {file_name_id=12 function_name_id=31 line=72 end_line=77 column=14 end_column=5}
90 {file_name_id=12 function_name_id=32 line=73 end_line=73 column=48 end_column=53}
91 {file_name_id=12 function_name_id=32 line=73 end_line=73 column=44 end_column=53}
92 {file_name_id=9 function_name_id=33 line=507 end_line=507 column=14 end_column=60}
93 {file_name_id=9 function_name_id=34 line=507 end_line=507 column=37 end_column=50}
94 {file_name_id=1 function_name_id=2 line=49 end_line=49 column=17 end_column=53}
95 {file_name_id=13 function_name_id=35 line=40 end_line=47 column=9 end_column=3}
96 {file_name_id=13 function_name_id=36 line=42 end_line=42 column=45 end_column=50}

StackFrames
1 {file_location_id=1 parent_frame_id=1}
2 {file_location_id=2 parent_frame_id=2}
3 {file_location_id=3 parent_frame_id=3}
4 {file_location_id=4 parent_frame_id=4}
5 {file_location_id=5 parent_frame_id=5}
6 {file_location_id=6 parent_frame_id=6}
7 {file_location_id=7 parent_frame_id=7}
8 {file_location_id=8 parent_frame_id=8}
9 {file_location_id=9 parent_frame_id=9}
10 {file_location_id=10 parent_frame_id=10}
11 {file_location_id=11 parent_frame_id=6}
12 {file_location_id=12 parent_frame_id=12}
13 {file_location_id=13 parent_frame_id=13}
14 {file_location_id=14 parent_frame_id=14}
15 {file_location_id=15 parent_frame_id=6}
16 {file_location_id=7 parent_frame_id=16}
17 {file_location_id=8 parent_frame_id=17}
18 {file_location_id=9 parent_frame_id=18}
19 {file_location_id=10 parent_frame_id=19}
20 {file_location_id=16 parent_frame_id=5}
21 {file_location_id=7 parent_frame_id=21}
22 {file_location_id=8 parent_frame_id=22}
23 {file_location_id=9 parent_frame_id=23}
24 {file_location_id=10 parent_frame_id=24}
25 {file_location_id=17 parent_frame_id=4}
26 {file_location_id=18 parent_frame_id=3}
27 {file_location_id=19 parent_frame_id=27}
28 {file_location_id=20 parent_frame_id=3}
29 {file_location_id=21 parent_frame_id=4}
30 {file_location_id=22 parent_frame_id=30}
31 {file_location_id=23 parent_frame_id=21}
32 {file_location_id=24 parent_frame_id=32}
33 {file_location_id=25 parent_frame_id=32}
34 {file_location_id=26 parent_frame_id=32}
35 {file_location_id=27 parent_frame_id=32}
36 {file_location_id=28 parent_frame_id=32}
37 {file_location_id=29 parent_frame_id=6}
38 {file_location_id=30 parent_frame_id=38}
39 {file_location_id=22 parent_frame_id=39}
40 {file_location_id=31 parent_frame_id=38}
41 {file_location_id=22 parent_frame_id=41}
42 {file_location_id=23 parent_frame_id=16}
43 {file_location_id=24 parent_frame_id=43}
44 {file_location_id=25 parent_frame_id=43}
45 {file_location_id=26 parent_frame_id=43}
46 {file_location_id=27 parent_frame_id=43}
47 {file_location_id=28 parent_frame_id=43}
48 {file_location_id=32 parent_frame_id=12}
49 {file_location_id=33 parent_frame_id=49}
50 {file_location_id=34 parent_frame_id=12}
51 {file_location_id=33 parent_frame_id=51}
52 {file_location_id=35 parent_frame_id=12}
53 {file_location_id=33 parent_frame_id=53}
54 {file_location_id=36 parent_frame_id=12}
55 {file_location_id=33 parent_frame_id=55}
56 {file_location_id=23 parent_frame_id=7}
57 {file_location_id=24 parent_frame_id=57}
58 {file_location_id=25 parent_frame_id=57}
59 {file_location_id=26 parent_frame_id=57}
60 {file_location_id=27 parent_frame_id=57}
61 {file_location_id=28 parent_frame_id=57}
62 {file_location_id=37 parent_frame_id=4}
63 {file_location_id=38 parent_frame_id=4}
64 {file_location_id=39 parent_frame_id=64}
65 {file_location_id=40 parent_frame_id=64}
66 {file_location_id=41 parent_frame_id=64}
67 {file_location_id=42 parent_frame_id=4}
68 {file_location_id=43 parent_frame_id=8}
69 {file_location_id=44 parent_frame_id=69}
70 {file_location_id=45 parent_frame_id=8}
71 {file_location_id=44 parent_frame_id=71}
72 {file_location_id=46 parent_frame_id=8}
73 {file_location_id=47 parent_frame_id=8}
74 {file_location_id=48 parent_frame_id=57}
75 {file_location_id=49 parent_frame_id=57}
76 {file_location_id=50 parent_frame_id=57}
77 {file_location_id=51 parent_frame_id=57}
78 {file_location_id=52 parent_frame_id=57}
79 {file_location_id=53 parent_frame_id=51}
80 {file_location_id=54 parent_frame_id=51}
81 {file_location_id=53 parent_frame_id=55}
82 {file_location_id=54 parent_frame_id=55}
83 {file_location_id=55 parent_frame_id=14}
84 {file_location_id=53 parent_frame_id=53}
85 {file_location_id=54 parent_frame_id=53}
86 {file_location_id=56 parent_frame_id=14}
87 {file_location_id=57 parent_frame_id=13}
88 {file_location_id=53 parent_frame_id=49}
89 {file_location_id=54 parent_frame_id=49}
90 {file_location_id=58 parent_frame_id=6}
91 {file_location_id=43 parent_frame_id=17}
92 {file_location_id=44 parent_frame_id=92}
93 {file_location_id=45 parent_frame_id=17}
94 {file_location_id=44 parent_frame_id=94}
95 {file_location_id=46 parent_frame_id=17}
96 {file_location_id=47 parent_frame_id=17}
97 {file_location_id=48 parent_frame_id=43}
98 {file_location_id=49 parent_frame_id=43}
99 {file_location_id=50 parent_frame_id=43}
100 {file_location_id=51 parent_frame_id=43}
101 {file_location_id=52 parent_frame_id=43}
102 {file_location_id=59 parent_frame_id=41}
103 {file_location_id=60 parent_frame_id=41}
104 {file_location_id=61 parent_frame_id=38}
105 {file_location_id=59 parent_frame_id=39}
106 {file_location_id=60 parent_frame_id=39}
107 {file_location_id=62 parent_frame_id=6}
108 {file_location_id=43 parent_frame_id=22}
109 {file_location_id=44 parent_frame_id=109}
110 {file_location_id=45 parent_frame_id=22}
111 {file_location_id=44 parent_frame_id=111}
112 {file_location_id=46 parent_frame_id=22}
113 {file_location_id=47 parent_frame_id=22}
114 {file_location_id=48 parent_frame_id=32}
115 {file_location_id=49 parent_frame_id=32}
116 {file_location_id=50 parent_frame_id=32}
117 {file_location_id=51 parent_frame_id=32}
118 {file_location_id=52 parent_frame_id=32}
119 {file_location_id=59 parent_frame_id=30}
120 {file_location_id=60 parent_frame_id=30}
121 {file_location_id=63 parent_frame_id=27}
122 {file_location_id=64 parent_frame_id=27}
123 {file_location_id=65 parent_frame_id=27}
124 {file_location_id=66 parent_frame_id=27}
125 {file_location_id=67 parent_frame_id=2}
126 {file_location_id=68 parent_frame_id=126}
127 {file_location_id=69 parent_frame_id=127}
128 {file_location_id=70 parent_frame_id=128}
129 {file_location_id=71 parent_frame_id=129}
130 {file_location_id=72 parent_frame_id=130}
131 {file_location_id=73 parent_frame_id=130}
132 {file_location_id=74 parent_frame_id=128}
133 {file_location_id=75 parent_frame_id=133}
134 {file_location_id=76 parent_frame_id=133}
135 {file_location_id=77 parent_frame_id=133}
136 {file_location_id=78 parent_frame_id=128}
137 {file_location_id=79 parent_frame_id=128}
138 {file_location_id=80 parent_frame_id=138}
139 {file_location_id=81 parent_frame_id=139}
140 {file_location_id=82 parent_frame_id=140}
141 {file_location_id=83 parent_frame_id=139}
142 {file_location_id=84 parent_frame_id=139}
143 {file_location_id=85 parent_frame_id=128}
144 {file_location_id=86 parent_frame_id=128}
145 {file_location_id=87 parent_frame_id=145}
146 {file_location_id=88 parent_frame_id=145}
147 {file_location_id=89 parent_frame_id=128}
148 {file_location_id=90 parent_frame_id=148}
149 {file_location_id=91 parent_frame_id=148}
150 {file_location_id=92 parent_frame_id=128}
151 {file_location_id=93 parent_frame_id=151}
152 {file_location_id=94 parent_frame_id=2}
153 {file_location_id=95 parent_frame_id=153}
154 {file_location_id=96 parent_frame_id=154}
155 {file_location_id=2 parent_frame_id=15}
156 {file_location_id=3 parent_frame_id=156}
157 {file_location_id=4 parent_frame_id=157}
158 {file_location_id=5 parent_frame_id=158}
159 {file_location_id=11 parent_frame_id=159}
160 {file_location_id=12 parent_frame_id=160}
161 {file_location_id=13 parent_frame_id=161}
162 {file_location_id=14 parent_frame_id=162}


%region_0.1 (reduce_sum.3: f32[], reduce_sum.4: f32[]) -> f32[] {
  %reduce_sum.3 = f32[] parameter(0), metadata={op_name="reduce_sum"}
  %reduce_sum.4 = f32[] parameter(1), metadata={op_name="reduce_sum"}
  ROOT %reduce_sum.5 = f32[] add(%reduce_sum.3, %reduce_sum.4), metadata={op_name="jit(train_step)/jvp(_Model)/Transformer/encoderblock_0/LayerNorm_0/reduce_sum" stack_frame_id=10}
}

%region_1.2 (reduce_sum.10: f32[], reduce_sum.11: f32[]) -> f32[] {
  %reduce_sum.10 = f32[] parameter(0), metadata={op_name="reduce_sum"}
  %reduce_sum.11 = f32[] parameter(1), metadata={op_name="reduce_sum"}
  ROOT %reduce_sum.12 = f32[] add(%reduce_sum.10, %reduce_sum.11), metadata={op_name="jit(train_step)/jvp(_Model)/Transformer/encoderblock_0/LayerNorm_0/reduce_sum" stack_frame_id=10}
}

%region_2.3 (reduce_max.3: f32[], reduce_max.4: f32[]) -> f32[] {
  %reduce_max.3 = f32[] parameter(0), metadata={op_name="reduce_max"}
  %reduce_max.4 = f32[] parameter(1), metadata={op_name="reduce_max"}
  ROOT %reduce_max.5 = f32[] maximum(%reduce_max.3, %reduce_max.4), metadata={op_name="jit(train_step)/jvp(_Model)/Transformer/encoderblock_0/MultiHeadDotProductAttention_0/reduce_max" stack_frame_id=14}
}

%region_3.4 (reduce_sum.17: f32[], reduce_sum.18: f32[]) -> f32[] {
  %reduce_sum.17 = f32[] parameter(0), metadata={op_name="reduce_sum"}
  %reduce_sum.18 = f32[] parameter(1), metadata={op_name="reduce_sum"}
  ROOT %reduce_sum.19 = f32[] add(%reduce_sum.17, %reduce_sum.18), metadata={op_name="jit(train_step)/jvp(_Model)/Transformer/encoderblock_0/MultiHeadDotProductAttention_0/reduce_sum" stack_frame_id=14}
}

%region_4.5 (reduce_sum.24: f32[], reduce_sum.25: f32[]) -> f32[] {
  %reduce_sum.24 = f32[] parameter(0), metadata={op_name="reduce_sum"}
  %reduce_sum.25 = f32[] parameter(1), metadata={op_name="reduce_sum"}
  ROOT %reduce_sum.26 = f32[] add(%reduce_sum.24, %reduce_sum.25), metadata={op_name="jit(train_step)/jvp(_Model)/Transformer/encoderblock_0/LayerNorm_1/reduce_sum" stack_frame_id=19}
}

%region_5.6 (reduce_sum.31: f32[], reduce_sum.32: f32[]) -> f32[] {
  %reduce_sum.31 = f32[] parameter(0), metadata={op_name="reduce_sum"}
  %reduce_sum.32 = f32[] parameter(1), metadata={op_name="reduce_sum"}
  ROOT %reduce_sum.33 = f32[] add(%reduce_sum.31, %reduce_sum.32), metadata={op_name="jit(train_step)/jvp(_Model)/Transformer/encoderblock_0/LayerNorm_1/reduce_sum" stack_frame_id=19}
}

%region_6.7 (reduce_sum.38: f32[], reduce_sum.39: f32[]) -> f32[] {
  %reduce_sum.38 = f32[] parameter(0), metadata={op_name="reduce_sum"}
  %reduce_sum.39 = f32[] parameter(1), metadata={op_name="reduce_sum"}
  ROOT %reduce_sum.40 = f32[] add(%reduce_sum.38, %reduce_sum.39), metadata={op_name="jit(train_step)/jvp(_Model)/Transformer/encoderblock_1/LayerNorm_0/reduce_sum" stack_frame_id=10}
}

%region_7.8 (reduce_sum.45: f32[], reduce_sum.46: f32[]) -> f32[] {
  %reduce_sum.45 = f32[] parameter(0), metadata={op_name="reduce_sum"}
  %reduce_sum.46 = f32[] parameter(1), metadata={op_name="reduce_sum"}
  ROOT %reduce_sum.47 = f32[] add(%reduce_sum.45, %reduce_sum.46), metadata={op_name="jit(train_step)/jvp(_Model)/Transformer/encoderblock_1/LayerNorm_0/reduce_sum" stack_frame_id=10}
}

%region_8.9 (reduce_max.10: f32[], reduce_max.11: f32[]) -> f32[] {
  %reduce_max.10 = f32[] parameter(0), metadata={op_name="reduce_max"}
  %reduce_max.11 = f32[] parameter(1), metadata={op_name="reduce_max"}
  ROOT %reduce_max.12 = f32[] maximum(%reduce_max.10, %reduce_max.11), metadata={op_name="jit(train_step)/jvp(_Model)/Transformer/encoderblock_1/MultiHeadDotProductAttention_0/reduce_max" stack_frame_id=14}
}

%region_9.10 (reduce_sum.52: f32[], reduce_sum.53: f32[]) -> f32[] {
  %reduce_sum.52 = f32[] parameter(0), metadata={op_name="reduce_sum"}
  %reduce_sum.53 = f32[] parameter(1), metadata={op_name="reduce_sum"}
  ROOT %reduce_sum.54 = f32[] add(%reduce_sum.52, %reduce_sum.53), metadata={op_name="jit(train_step)/jvp(_Model)/Transformer/encoderblock_1/MultiHeadDotProductAttention_0/reduce_sum" stack_frame_id=14}
}

%region_10.11 (reduce_sum.59: f32[], reduce_sum.60: f32[]) -> f32[] {
  %reduce_sum.59 = f32[] parameter(0), metadata={op_name="reduce_sum"}
  %reduce_sum.60 = f32[] parameter(1), metadata={op_name="reduce_sum"}
  ROOT %reduce_sum.61 = f32[] add(%reduce_sum.59, %reduce_sum.60), metadata={op_name="jit(train_step)/jvp(_Model)/Transformer/encoderblock_1/LayerNorm_1/reduce_sum" stack_frame_id=19}
}

%region_11.12 (reduce_sum.66: f32[], reduce_sum.67: f32[]) -> f32[] {
  %reduce_sum.66 = f32[] parameter(0), metadata={op_name="reduce_sum"}
  %reduce_sum.67 = f32[] parameter(1), metadata={op_name="reduce_sum"}
  ROOT %reduce_sum.68 = f32[] add(%reduce_sum.66, %reduce_sum.67), metadata={op_name="jit(train_step)/jvp(_Model)/Transformer/encoderblock_1/LayerNorm_1/reduce_sum" stack_frame_id=19}
}

%region_12.13 (reduce_sum.73: f32[], reduce_sum.74: f32[]) -> f32[] {
  %reduce_sum.73 = f32[] parameter(0), metadata={op_name="reduce_sum"}
  %reduce_sum.74 = f32[] parameter(1), metadata={op_name="reduce_sum"}
  ROOT %reduce_sum.75 = f32[] add(%reduce_sum.73, %reduce_sum.74), metadata={op_name="jit(train_step)/jvp(_Model)/Transformer/encoderblock_2/LayerNorm_0/reduce_sum" stack_frame_id=10}
}

%region_13.14 (reduce_sum.80: f32[], reduce_sum.81: f32[]) -> f32[] {
  %reduce_sum.80 = f32[] parameter(0), metadata={op_name="reduce_sum"}
  %reduce_sum.81 = f32[] parameter(1), metadata={op_name="reduce_sum"}
  ROOT %reduce_sum.82 = f32[] add(%reduce_sum.80, %reduce_sum.81), metadata={op_name="jit(train_step)/jvp(_Model)/Transformer/encoderblock_2/LayerNorm_0/reduce_sum" stack_frame_id=10}
}

%region_14.15 (reduce_max.17: f32[], reduce_max.18: f32[]) -> f32[] {
  %reduce_max.17 = f32[] parameter(0), metadata={op_name="reduce_max"}
  %reduce_max.18 = f32[] parameter(1), metadata={op_name="reduce_max"}
  ROOT %reduce_max.19 = f32[] maximum(%reduce_max.17, %reduce_max.18), metadata={op_name="jit(train_step)/jvp(_Model)/Transformer/encoderblock_2/MultiHeadDotProductAttention_0/reduce_max" stack_frame_id=14}
}

%region_15.16 (reduce_sum.87: f32[], reduce_sum.88: f32[]) -> f32[] {
  %reduce_sum.87 = f32[] parameter(0), metadata={op_name="reduce_sum"}
  %reduce_sum.88 = f32[] parameter(1), metadata={op_name="reduce_sum"}
  ROOT %reduce_sum.89 = f32[] add(%reduce_sum.87, %reduce_sum.88), metadata={op_name="jit(train_step)/jvp(_Model)/Transformer/encoderblock_2/MultiHeadDotProductAttention_0/reduce_sum" stack_frame_id=14}
}

%region_16.17 (reduce_sum.94: f32[], reduce_sum.95: f32[]) -> f32[] {
  %reduce_sum.94 = f32[] parameter(0), metadata={op_name="reduce_sum"}
  %reduce_sum.95 = f32[] parameter(1), metadata={op_name="reduce_sum"}
  ROOT %reduce_sum.96 = f32[] add(%reduce_sum.94, %reduce_sum.95), metadata={op_name="jit(train_step)/jvp(_Model)/Transformer/encoderblock_2/LayerNorm_1/reduce_sum" stack_frame_id=19}
}

%region_17.18 (reduce_sum.101: f32[], reduce_sum.102: f32[]) -> f32[] {
  %reduce_sum.101 = f32[] parameter(0), metadata={op_name="reduce_sum"}
  %reduce_sum.102 = f32[] parameter(1), metadata={op_name="reduce_sum"}
  ROOT %reduce_sum.103 = f32[] add(%reduce_sum.101, %reduce_sum.102), metadata={op_name="jit(train_step)/jvp(_Model)/Transformer/encoderblock_2/LayerNorm_1/reduce_sum" stack_frame_id=19}
}

%region_18.19 (reduce_sum.108: f32[], reduce_sum.109: f32[]) -> f32[] {
  %reduce_sum.108 = f32[] parameter(0), metadata={op_name="reduce_sum"}
  %reduce_sum.109 = f32[] parameter(1), metadata={op_name="reduce_sum"}
  ROOT %reduce_sum.110 = f32[] add(%reduce_sum.108, %reduce_sum.109), metadata={op_name="jit(train_step)/jvp(_Model)/Transformer/encoderblock_3/LayerNorm_0/reduce_sum" stack_frame_id=10}
}

%region_19.20 (reduce_sum.115: f32[], reduce_sum.116: f32[]) -> f32[] {
  %reduce_sum.115 = f32[] parameter(0), metadata={op_name="reduce_sum"}
  %reduce_sum.116 = f32[] parameter(1), metadata={op_name="reduce_sum"}
  ROOT %reduce_sum.117 = f32[] add(%reduce_sum.115, %reduce_sum.116), metadata={op_name="jit(train_step)/jvp(_Model)/Transformer/encoderblock_3/LayerNorm_0/reduce_sum" stack_frame_id=10}
}

%region_20.21 (reduce_max.24: f32[], reduce_max.25: f32[]) -> f32[] {
  %reduce_max.24 = f32[] parameter(0), metadata={op_name="reduce_max"}
  %reduce_max.25 = f32[] parameter(1), metadata={op_name="reduce_max"}
  ROOT %reduce_max.26 = f32[] maximum(%reduce_max.24, %reduce_max.25), metadata={op_name="jit(train_step)/jvp(_Model)/Transformer/encoderblock_3/MultiHeadDotProductAttention_0/reduce_max" stack_frame_id=14}
}

%region_21.22 (reduce_sum.122: f32[], reduce_sum.123: f32[]) -> f32[] {
  %reduce_sum.122 = f32[] parameter(0), metadata={op_name="reduce_sum"}
  %reduce_sum.123 = f32[] parameter(1), metadata={op_name="reduce_sum"}
  ROOT %reduce_sum.124 = f32[] add(%reduce_sum.122, %reduce_sum.123), metadata={op_name="jit(train_step)/jvp(_Model)/Transformer/encoderblock_3/MultiHeadDotProductAttention_0/reduce_sum" stack_frame_id=14}
}

%region_22.23 (reduce_sum.129: f32[], reduce_sum.130: f32[]) -> f32[] {
  %reduce_sum.129 = f32[] parameter(0), metadata={op_name="reduce_sum"}
  %reduce_sum.130 = f32[] parameter(1), metadata={op_name="reduce_sum"}
  ROOT %reduce_sum.131 = f32[] add(%reduce_sum.129, %reduce_sum.130), metadata={op_name="jit(train_step)/jvp(_Model)/Transformer/encoderblock_3/LayerNorm_1/reduce_sum" stack_frame_id=19}
}

%region_23.24 (reduce_sum.136: f32[], reduce_sum.137: f32[]) -> f32[] {
  %reduce_sum.136 = f32[] parameter(0), metadata={op_name="reduce_sum"}
  %reduce_sum.137 = f32[] parameter(1), metadata={op_name="reduce_sum"}
  ROOT %reduce_sum.138 = f32[] add(%reduce_sum.136, %reduce_sum.137), metadata={op_name="jit(train_step)/jvp(_Model)/Transformer/encoderblock_3/LayerNorm_1/reduce_sum" stack_frame_id=19}
}

%region_24.25 (reduce_sum.143: f32[], reduce_sum.144: f32[]) -> f32[] {
  %reduce_sum.143 = f32[] parameter(0), metadata={op_name="reduce_sum"}
  %reduce_sum.144 = f32[] parameter(1), metadata={op_name="reduce_sum"}
  ROOT %reduce_sum.145 = f32[] add(%reduce_sum.143, %reduce_sum.144), metadata={op_name="jit(train_step)/jvp(_Model)/Transformer/encoderblock_4/LayerNorm_0/reduce_sum" stack_frame_id=10}
}

%region_25.26 (reduce_sum.150: f32[], reduce_sum.151: f32[]) -> f32[] {
  %reduce_sum.150 = f32[] parameter(0), metadata={op_name="reduce_sum"}
  %reduce_sum.151 = f32[] parameter(1), metadata={op_name="reduce_sum"}
  ROOT %reduce_sum.152 = f32[] add(%reduce_sum.150, %reduce_sum.151), metadata={op_name="jit(train_step)/jvp(_Model)/Transformer/encoderblock_4/LayerNorm_0/reduce_sum" stack_frame_id=10}
}

%region_26.27 (reduce_max.31: f32[], reduce_max.32: f32[]) -> f32[] {
  %reduce_max.31 = f32[] parameter(0), metadata={op_name="reduce_max"}
  %reduce_max.32 = f32[] parameter(1), metadata={op_name="reduce_max"}
  ROOT %reduce_max.33 = f32[] maximum(%reduce_max.31, %reduce_max.32), metadata={op_name="jit(train_step)/jvp(_Model)/Transformer/encoderblock_4/MultiHeadDotProductAttention_0/reduce_max" stack_frame_id=14}
}

%region_27.28 (reduce_sum.157: f32[], reduce_sum.158: f32[]) -> f32[] {
  %reduce_sum.157 = f32[] parameter(0), metadata={op_name="reduce_sum"}
  %reduce_sum.158 = f32[] parameter(1), metadata={op_name="reduce_sum"}
  ROOT %reduce_sum.159 = f32[] add(%reduce_sum.157, %reduce_sum.158), metadata={op_name="jit(train_step)/jvp(_Model)/Transformer/encoderblock_4/MultiHeadDotProductAttention_0/reduce_sum" stack_frame_id=14}
}

%region_28.29 (reduce_sum.164: f32[], reduce_sum.165: f32[]) -> f32[] {
  %reduce_sum.164 = f32[] parameter(0), metadata={op_name="reduce_sum"}
  %reduce_sum.165 = f32[] parameter(1), metadata={op_name="reduce_sum"}
  ROOT %reduce_sum.166 = f32[] add(%reduce_sum.164, %reduce_sum.165), metadata={op_name="jit(train_step)/jvp(_Model)/Transformer/encoderblock_4/LayerNorm_1/reduce_sum" stack_frame_id=19}
}

%region_29.30 (reduce_sum.171: f32[], reduce_sum.172: f32[]) -> f32[] {
  %reduce_sum.171 = f32[] parameter(0), metadata={op_name="reduce_sum"}
  %reduce_sum.172 = f32[] parameter(1), metadata={op_name="reduce_sum"}
  ROOT %reduce_sum.173 = f32[] add(%reduce_sum.171, %reduce_sum.172), metadata={op_name="jit(train_step)/jvp(_Model)/Transformer/encoderblock_4/LayerNorm_1/reduce_sum" stack_frame_id=19}
}

%region_30.31 (reduce_sum.178: f32[], reduce_sum.179: f32[]) -> f32[] {
  %reduce_sum.178 = f32[] parameter(0), metadata={op_name="reduce_sum"}
  %reduce_sum.179 = f32[] parameter(1), metadata={op_name="reduce_sum"}
  ROOT %reduce_sum.180 = f32[] add(%reduce_sum.178, %reduce_sum.179), metadata={op_name="jit(train_step)/jvp(_Model)/Transformer/encoderblock_5/LayerNorm_0/reduce_sum" stack_frame_id=10}
}

%region_31.32 (reduce_sum.185: f32[], reduce_sum.186: f32[]) -> f32[] {
  %reduce_sum.185 = f32[] parameter(0), metadata={op_name="reduce_sum"}
  %reduce_sum.186 = f32[] parameter(1), metadata={op_name="reduce_sum"}
  ROOT %reduce_sum.187 = f32[] add(%reduce_sum.185, %reduce_sum.186), metadata={op_name="jit(train_step)/jvp(_Model)/Transformer/encoderblock_5/LayerNorm_0/reduce_sum" stack_frame_id=10}
}

%region_32.33 (reduce_max.38: f32[], reduce_max.39: f32[]) -> f32[] {
  %reduce_max.38 = f32[] parameter(0), metadata={op_name="reduce_max"}
  %reduce_max.39 = f32[] parameter(1), metadata={op_name="reduce_max"}
  ROOT %reduce_max.40 = f32[] maximum(%reduce_max.38, %reduce_max.39), metadata={op_name="jit(train_step)/jvp(_Model)/Transformer/encoderblock_5/MultiHeadDotProductAttention_0/reduce_max" stack_frame_id=14}
}

%region_33.34 (reduce_sum.192: f32[], reduce_sum.193: f32[]) -> f32[] {
  %reduce_sum.192 = f32[] parameter(0), metadata={op_name="reduce_sum"}
  %reduce_sum.193 = f32[] parameter(1), metadata={op_name="reduce_sum"}
  ROOT %reduce_sum.194 = f32[] add(%reduce_sum.192, %reduce_sum.193), metadata={op_name="jit(train_step)/jvp(_Model)/Transformer/encoderblock_5/MultiHeadDotProductAttention_0/reduce_sum" stack_frame_id=14}
}

%region_34.35 (reduce_sum.199: f32[], reduce_sum.200: f32[]) -> f32[] {
  %reduce_sum.199 = f32[] parameter(0), metadata={op_name="reduce_sum"}
  %reduce_sum.200 = f32[] parameter(1), metadata={op_name="reduce_sum"}
  ROOT %reduce_sum.201 = f32[] add(%reduce_sum.199, %reduce_sum.200), metadata={op_name="jit(train_step)/jvp(_Model)/Transformer/encoderblock_5/LayerNorm_1/reduce_sum" stack_frame_id=19}
}

%region_35.36 (reduce_sum.206: f32[], reduce_sum.207: f32[]) -> f32[] {
  %reduce_sum.206 = f32[] parameter(0), metadata={op_name="reduce_sum"}
  %reduce_sum.207 = f32[] parameter(1), metadata={op_name="reduce_sum"}
  ROOT %reduce_sum.208 = f32[] add(%reduce_sum.206, %reduce_sum.207), metadata={op_name="jit(train_step)/jvp(_Model)/Transformer/encoderblock_5/LayerNorm_1/reduce_sum" stack_frame_id=19}
}

%region_36.37 (reduce_sum.213: f32[], reduce_sum.214: f32[]) -> f32[] {
  %reduce_sum.213 = f32[] parameter(0), metadata={op_name="reduce_sum"}
  %reduce_sum.214 = f32[] parameter(1), metadata={op_name="reduce_sum"}
  ROOT %reduce_sum.215 = f32[] add(%reduce_sum.213, %reduce_sum.214), metadata={op_name="jit(train_step)/jvp(_Model)/Transformer/encoderblock_6/LayerNorm_0/reduce_sum" stack_frame_id=10}
}

%region_37.38 (reduce_sum.220: f32[], reduce_sum.221: f32[]) -> f32[] {
  %reduce_sum.220 = f32[] parameter(0), metadata={op_name="reduce_sum"}
  %reduce_sum.221 = f32[] parameter(1), metadata={op_name="reduce_sum"}
  ROOT %reduce_sum.222 = f32[] add(%reduce_sum.220, %reduce_sum.221), metadata={op_name="jit(train_step)/jvp(_Model)/Transformer/encoderblock_6/LayerNorm_0/reduce_sum" stack_frame_id=10}
}

%region_38.39 (reduce_max.45: f32[], reduce_max.46: f32[]) -> f32[] {
  %reduce_max.45 = f32[] parameter(0), metadata={op_name="reduce_max"}
  %reduce_max.46 = f32[] parameter(1), metadata={op_name="reduce_max"}
  ROOT %reduce_max.47 = f32[] maximum(%reduce_max.45, %reduce_max.46), metadata={op_name="jit(train_step)/jvp(_Model)/Transformer/encoderblock_6/MultiHeadDotProductAttention_0/reduce_max" stack_frame_id=14}
}

%region_39.40 (reduce_sum.227: f32[], reduce_sum.228: f32[]) -> f32[] {
  %reduce_sum.227 = f32[] parameter(0), metadata={op_name="reduce_sum"}
  %reduce_sum.228 = f32[] parameter(1), metadata={op_name="reduce_sum"}
  ROOT %reduce_sum.229 = f32[] add(%reduce_sum.227, %reduce_sum.228), metadata={op_name="jit(train_step)/jvp(_Model)/Transformer/encoderblock_6/MultiHeadDotProductAttention_0/reduce_sum" stack_frame_id=14}
}

%region_40.41 (reduce_sum.234: f32[], reduce_sum.235: f32[]) -> f32[] {
  %reduce_sum.234 = f32[] parameter(0), metadata={op_name="reduce_sum"}
  %reduce_sum.235 = f32[] parameter(1), metadata={op_name="reduce_sum"}
  ROOT %reduce_sum.236 = f32[] add(%reduce_sum.234, %reduce_sum.235), metadata={op_name="jit(train_step)/jvp(_Model)/Transformer/encoderblock_6/LayerNorm_1/reduce_sum" stack_frame_id=19}
}

%region_41.42 (reduce_sum.241: f32[], reduce_sum.242: f32[]) -> f32[] {
  %reduce_sum.241 = f32[] parameter(0), metadata={op_name="reduce_sum"}
  %reduce_sum.242 = f32[] parameter(1), metadata={op_name="reduce_sum"}
  ROOT %reduce_sum.243 = f32[] add(%reduce_sum.241, %reduce_sum.242), metadata={op_name="jit(train_step)/jvp(_Model)/Transformer/encoderblock_6/LayerNorm_1/reduce_sum" stack_frame_id=19}
}

%region_42.43 (reduce_sum.248: f32[], reduce_sum.249: f32[]) -> f32[] {
  %reduce_sum.248 = f32[] parameter(0), metadata={op_name="reduce_sum"}
  %reduce_sum.249 = f32[] parameter(1), metadata={op_name="reduce_sum"}
  ROOT %reduce_sum.250 = f32[] add(%reduce_sum.248, %reduce_sum.249), metadata={op_name="jit(train_step)/jvp(_Model)/Transformer/encoderblock_7/LayerNorm_0/reduce_sum" stack_frame_id=10}
}

%region_43.44 (reduce_sum.255: f32[], reduce_sum.256: f32[]) -> f32[] {
  %reduce_sum.255 = f32[] parameter(0), metadata={op_name="reduce_sum"}
  %reduce_sum.256 = f32[] parameter(1), metadata={op_name="reduce_sum"}
  ROOT %reduce_sum.257 = f32[] add(%reduce_sum.255, %reduce_sum.256), metadata={op_name="jit(train_step)/jvp(_Model)/Transformer/encoderblock_7/LayerNorm_0/reduce_sum" stack_frame_id=10}
}

%region_44.45 (reduce_max.52: f32[], reduce_max.53: f32[]) -> f32[] {
  %reduce_max.52 = f32[] parameter(0), metadata={op_name="reduce_max"}
  %reduce_max.53 = f32[] parameter(1), metadata={op_name="reduce_max"}
  ROOT %reduce_max.54 = f32[] maximum(%reduce_max.52, %reduce_max.53), metadata={op_name="jit(train_step)/jvp(_Model)/Transformer/encoderblock_7/MultiHeadDotProductAttention_0/reduce_max" stack_frame_id=14}
}

%region_45.46 (reduce_sum.262: f32[], reduce_sum.263: f32[]) -> f32[] {
  %reduce_sum.262 = f32[] parameter(0), metadata={op_name="reduce_sum"}
  %reduce_sum.263 = f32[] parameter(1), metadata={op_name="reduce_sum"}
  ROOT %reduce_sum.264 = f32[] add(%reduce_sum.262, %reduce_sum.263), metadata={op_name="jit(train_step)/jvp(_Model)/Transformer/encoderblock_7/MultiHeadDotProductAttention_0/reduce_sum" stack_frame_id=14}
}

%region_46.47 (reduce_sum.269: f32[], reduce_sum.270: f32[]) -> f32[] {
  %reduce_sum.269 = f32[] parameter(0), metadata={op_name="reduce_sum"}
  %reduce_sum.270 = f32[] parameter(1), metadata={op_name="reduce_sum"}
  ROOT %reduce_sum.271 = f32[] add(%reduce_sum.269, %reduce_sum.270), metadata={op_name="jit(train_step)/jvp(_Model)/Transformer/encoderblock_7/LayerNorm_1/reduce_sum" stack_frame_id=19}
}

%region_47.48 (reduce_sum.276: f32[], reduce_sum.277: f32[]) -> f32[] {
  %reduce_sum.276 = f32[] parameter(0), metadata={op_name="reduce_sum"}
  %reduce_sum.277 = f32[] parameter(1), metadata={op_name="reduce_sum"}
  ROOT %reduce_sum.278 = f32[] add(%reduce_sum.276, %reduce_sum.277), metadata={op_name="jit(train_step)/jvp(_Model)/Transformer/encoderblock_7/LayerNorm_1/reduce_sum" stack_frame_id=19}
}

%region_48.49 (reduce_sum.283: f32[], reduce_sum.284: f32[]) -> f32[] {
  %reduce_sum.283 = f32[] parameter(0), metadata={op_name="reduce_sum"}
  %reduce_sum.284 = f32[] parameter(1), metadata={op_name="reduce_sum"}
  ROOT %reduce_sum.285 = f32[] add(%reduce_sum.283, %reduce_sum.284), metadata={op_name="jit(train_step)/jvp(_Model)/Transformer/encoderblock_8/LayerNorm_0/reduce_sum" stack_frame_id=10}
}

%region_49.50 (reduce_sum.290: f32[], reduce_sum.291: f32[]) -> f32[] {
  %reduce_sum.290 = f32[] parameter(0), metadata={op_name="reduce_sum"}
  %reduce_sum.291 = f32[] parameter(1), metadata={op_name="reduce_sum"}
  ROOT %reduce_sum.292 = f32[] add(%reduce_sum.290, %reduce_sum.291), metadata={op_name="jit(train_step)/jvp(_Model)/Transformer/encoderblock_8/LayerNorm_0/reduce_sum" stack_frame_id=10}
}

%region_50.51 (reduce_max.59: f32[], reduce_max.60: f32[]) -> f32[] {
  %reduce_max.59 = f32[] parameter(0), metadata={op_name="reduce_max"}
  %reduce_max.60 = f32[] parameter(1), metadata={op_name="reduce_max"}
  ROOT %reduce_max.61 = f32[] maximum(%reduce_max.59, %reduce_max.60), metadata={op_name="jit(train_step)/jvp(_Model)/Transformer/encoderblock_8/MultiHeadDotProductAttention_0/reduce_max" stack_frame_id=14}
}

%region_51.52 (reduce_sum.297: f32[], reduce_sum.298: f32[]) -> f32[] {
  %reduce_sum.297 = f32[] parameter(0), metadata={op_name="reduce_sum"}
  %reduce_sum.298 = f32[] parameter(1), metadata={op_name="reduce_sum"}
  ROOT %reduce_sum.299 = f32[] add(%reduce_sum.297, %reduce_sum.298), metadata={op_name="jit(train_step)/jvp(_Model)/Transformer/encoderblock_8/MultiHeadDotProductAttention_0/reduce_sum" stack_frame_id=14}
}

%region_52.53 (reduce_sum.304: f32[], reduce_sum.305: f32[]) -> f32[] {
  %reduce_sum.304 = f32[] parameter(0), metadata={op_name="reduce_sum"}
  %reduce_sum.305 = f32[] parameter(1), metadata={op_name="reduce_sum"}
  ROOT %reduce_sum.306 = f32[] add(%reduce_sum.304, %reduce_sum.305), metadata={op_name="jit(train_step)/jvp(_Model)/Transformer/encoderblock_8/LayerNorm_1/reduce_sum" stack_frame_id=19}
}

%region_53.54 (reduce_sum.311: f32[], reduce_sum.312: f32[]) -> f32[] {
  %reduce_sum.311 = f32[] parameter(0), metadata={op_name="reduce_sum"}
  %reduce_sum.312 = f32[] parameter(1), metadata={op_name="reduce_sum"}
  ROOT %reduce_sum.313 = f32[] add(%reduce_sum.311, %reduce_sum.312), metadata={op_name="jit(train_step)/jvp(_Model)/Transformer/encoderblock_8/LayerNorm_1/reduce_sum" stack_frame_id=19}
}

%region_54.55 (reduce_sum.318: f32[], reduce_sum.319: f32[]) -> f32[] {
  %reduce_sum.318 = f32[] parameter(0), metadata={op_name="reduce_sum"}
  %reduce_sum.319 = f32[] parameter(1), metadata={op_name="reduce_sum"}
  ROOT %reduce_sum.320 = f32[] add(%reduce_sum.318, %reduce_sum.319), metadata={op_name="jit(train_step)/jvp(_Model)/Transformer/encoderblock_9/LayerNorm_0/reduce_sum" stack_frame_id=10}
}

%region_55.56 (reduce_sum.325: f32[], reduce_sum.326: f32[]) -> f32[] {
  %reduce_sum.325 = f32[] parameter(0), metadata={op_name="reduce_sum"}
  %reduce_sum.326 = f32[] parameter(1), metadata={op_name="reduce_sum"}
  ROOT %reduce_sum.327 = f32[] add(%reduce_sum.325, %reduce_sum.326), metadata={op_name="jit(train_step)/jvp(_Model)/Transformer/encoderblock_9/LayerNorm_0/reduce_sum" stack_frame_id=10}
}

%region_56.57 (reduce_max.66: f32[], reduce_max.67: f32[]) -> f32[] {
  %reduce_max.66 = f32[] parameter(0), metadata={op_name="reduce_max"}
  %reduce_max.67 = f32[] parameter(1), metadata={op_name="reduce_max"}
  ROOT %reduce_max.68 = f32[] maximum(%reduce_max.66, %reduce_max.67), metadata={op_name="jit(train_step)/jvp(_Model)/Transformer/encoderblock_9/MultiHeadDotProductAttention_0/reduce_max" stack_frame_id=14}
}

%region_57.58 (reduce_sum.332: f32[], reduce_sum.333: f32[]) -> f32[] {
  %reduce_sum.332 = f32[] parameter(0), metadata={op_name="reduce_sum"}
  %reduce_sum.333 = f32[] parameter(1), metadata={op_name="reduce_sum"}
  ROOT %reduce_sum.334 = f32[] add(%reduce_sum.332, %reduce_sum.333), metadata={op_name="jit(train_step)/jvp(_Model)/Transformer/encoderblock_9/MultiHeadDotProductAttention_0/reduce_sum" stack_frame_id=14}
}

%region_58.59 (reduce_sum.339: f32[], reduce_sum.340: f32[]) -> f32[] {
  %reduce_sum.339 = f32[] parameter(0), metadata={op_name="reduce_sum"}
  %reduce_sum.340 = f32[] parameter(1), metadata={op_name="reduce_sum"}
  ROOT %reduce_sum.341 = f32[] add(%reduce_sum.339, %reduce_sum.340), metadata={op_name="jit(train_step)/jvp(_Model)/Transformer/encoderblock_9/LayerNorm_1/reduce_sum" stack_frame_id=19}
}

%region_59.60 (reduce_sum.346: f32[], reduce_sum.347: f32[]) -> f32[] {
  %reduce_sum.346 = f32[] parameter(0), metadata={op_name="reduce_sum"}
  %reduce_sum.347 = f32[] parameter(1), metadata={op_name="reduce_sum"}
  ROOT %reduce_sum.348 = f32[] add(%reduce_sum.346, %reduce_sum.347), metadata={op_name="jit(train_step)/jvp(_Model)/Transformer/encoderblock_9/LayerNorm_1/reduce_sum" stack_frame_id=19}
}

%region_60.61 (reduce_sum.353: f32[], reduce_sum.354: f32[]) -> f32[] {
  %reduce_sum.353 = f32[] parameter(0), metadata={op_name="reduce_sum"}
  %reduce_sum.354 = f32[] parameter(1), metadata={op_name="reduce_sum"}
  ROOT %reduce_sum.355 = f32[] add(%reduce_sum.353, %reduce_sum.354), metadata={op_name="jit(train_step)/jvp(_Model)/Transformer/encoderblock_10/LayerNorm_0/reduce_sum" stack_frame_id=10}
}

%region_61.62 (reduce_sum.360: f32[], reduce_sum.361: f32[]) -> f32[] {
  %reduce_sum.360 = f32[] parameter(0), metadata={op_name="reduce_sum"}
  %reduce_sum.361 = f32[] parameter(1), metadata={op_name="reduce_sum"}
  ROOT %reduce_sum.362 = f32[] add(%reduce_sum.360, %reduce_sum.361), metadata={op_name="jit(train_step)/jvp(_Model)/Transformer/encoderblock_10/LayerNorm_0/reduce_sum" stack_frame_id=10}
}

%region_62.63 (reduce_max.73: f32[], reduce_max.74: f32[]) -> f32[] {
  %reduce_max.73 = f32[] parameter(0), metadata={op_name="reduce_max"}
  %reduce_max.74 = f32[] parameter(1), metadata={op_name="reduce_max"}
  ROOT %reduce_max.75 = f32[] maximum(%reduce_max.73, %reduce_max.74), metadata={op_name="jit(train_step)/jvp(_Model)/Transformer/encoderblock_10/MultiHeadDotProductAttention_0/reduce_max" stack_frame_id=14}
}

%region_63.64 (reduce_sum.367: f32[], reduce_sum.368: f32[]) -> f32[] {
  %reduce_sum.367 = f32[] parameter(0), metadata={op_name="reduce_sum"}
  %reduce_sum.368 = f32[] parameter(1), metadata={op_name="reduce_sum"}
  ROOT %reduce_sum.369 = f32[] add(%reduce_sum.367, %reduce_sum.368), metadata={op_name="jit(train_step)/jvp(_Model)/Transformer/encoderblock_10/MultiHeadDotProductAttention_0/reduce_sum" stack_frame_id=14}
}

%region_64.65 (reduce_sum.374: f32[], reduce_sum.375: f32[]) -> f32[] {
  %reduce_sum.374 = f32[] parameter(0), metadata={op_name="reduce_sum"}
  %reduce_sum.375 = f32[] parameter(1), metadata={op_name="reduce_sum"}
  ROOT %reduce_sum.376 = f32[] add(%reduce_sum.374, %reduce_sum.375), metadata={op_name="jit(train_step)/jvp(_Model)/Transformer/encoderblock_10/LayerNorm_1/reduce_sum" stack_frame_id=19}
}

%region_65.66 (reduce_sum.381: f32[], reduce_sum.382: f32[]) -> f32[] {
  %reduce_sum.381 = f32[] parameter(0), metadata={op_name="reduce_sum"}
  %reduce_sum.382 = f32[] parameter(1), metadata={op_name="reduce_sum"}
  ROOT %reduce_sum.383 = f32[] add(%reduce_sum.381, %reduce_sum.382), metadata={op_name="jit(train_step)/jvp(_Model)/Transformer/encoderblock_10/LayerNorm_1/reduce_sum" stack_frame_id=19}
}

%region_66.67 (reduce_sum.388: f32[], reduce_sum.389: f32[]) -> f32[] {
  %reduce_sum.388 = f32[] parameter(0), metadata={op_name="reduce_sum"}
  %reduce_sum.389 = f32[] parameter(1), metadata={op_name="reduce_sum"}
  ROOT %reduce_sum.390 = f32[] add(%reduce_sum.388, %reduce_sum.389), metadata={op_name="jit(train_step)/jvp(_Model)/Transformer/encoderblock_11/LayerNorm_0/reduce_sum" stack_frame_id=10}
}

%region_67.68 (reduce_sum.395: f32[], reduce_sum.396: f32[]) -> f32[] {
  %reduce_sum.395 = f32[] parameter(0), metadata={op_name="reduce_sum"}
  %reduce_sum.396 = f32[] parameter(1), metadata={op_name="reduce_sum"}
  ROOT %reduce_sum.397 = f32[] add(%reduce_sum.395, %reduce_sum.396), metadata={op_name="jit(train_step)/jvp(_Model)/Transformer/encoderblock_11/LayerNorm_0/reduce_sum" stack_frame_id=10}
}

%region_68.69 (reduce_max.80: f32[], reduce_max.81: f32[]) -> f32[] {
  %reduce_max.80 = f32[] parameter(0), metadata={op_name="reduce_max"}
  %reduce_max.81 = f32[] parameter(1), metadata={op_name="reduce_max"}
  ROOT %reduce_max.82 = f32[] maximum(%reduce_max.80, %reduce_max.81), metadata={op_name="jit(train_step)/jvp(_Model)/Transformer/encoderblock_11/MultiHeadDotProductAttention_0/reduce_max" stack_frame_id=14}
}

%region_69.70 (reduce_sum.402: f32[], reduce_sum.403: f32[]) -> f32[] {
  %reduce_sum.402 = f32[] parameter(0), metadata={op_name="reduce_sum"}
  %reduce_sum.403 = f32[] parameter(1), metadata={op_name="reduce_sum"}
  ROOT %reduce_sum.404 = f32[] add(%reduce_sum.402, %reduce_sum.403), metadata={op_name="jit(train_step)/jvp(_Model)/Transformer/encoderblock_11/MultiHeadDotProductAttention_0/reduce_sum" stack_frame_id=14}
}

%region_70.71 (reduce_sum.409: f32[], reduce_sum.410: f32[]) -> f32[] {
  %reduce_sum.409 = f32[] parameter(0), metadata={op_name="reduce_sum"}
  %reduce_sum.410 = f32[] parameter(1), metadata={op_name="reduce_sum"}
  ROOT %reduce_sum.411 = f32[] add(%reduce_sum.409, %reduce_sum.410), metadata={op_name="jit(train_step)/jvp(_Model)/Transformer/encoderblock_11/LayerNorm_1/reduce_sum" stack_frame_id=19}
}

%region_71.72 (reduce_sum.416: f32[], reduce_sum.417: f32[]) -> f32[] {
  %reduce_sum.416 = f32[] parameter(0), metadata={op_name="reduce_sum"}
  %reduce_sum.417 = f32[] parameter(1), metadata={op_name="reduce_sum"}
  ROOT %reduce_sum.418 = f32[] add(%reduce_sum.416, %reduce_sum.417), metadata={op_name="jit(train_step)/jvp(_Model)/Transformer/encoderblock_11/LayerNorm_1/reduce_sum" stack_frame_id=19}
}

%region_72.73 (reduce_sum.423: f32[], reduce_sum.424: f32[]) -> f32[] {
  %reduce_sum.423 = f32[] parameter(0), metadata={op_name="reduce_sum"}
  %reduce_sum.424 = f32[] parameter(1), metadata={op_name="reduce_sum"}
  ROOT %reduce_sum.425 = f32[] add(%reduce_sum.423, %reduce_sum.424), metadata={op_name="jit(train_step)/jvp(_Model)/Transformer/encoder_norm/reduce_sum" stack_frame_id=24}
}

%region_73.74 (reduce_sum.430: f32[], reduce_sum.431: f32[]) -> f32[] {
  %reduce_sum.430 = f32[] parameter(0), metadata={op_name="reduce_sum"}
  %reduce_sum.431 = f32[] parameter(1), metadata={op_name="reduce_sum"}
  ROOT %reduce_sum.432 = f32[] add(%reduce_sum.430, %reduce_sum.431), metadata={op_name="jit(train_step)/jvp(_Model)/Transformer/encoder_norm/reduce_sum" stack_frame_id=24}
}

%region_74.75 (reduce_sum.437: f32[], reduce_sum.438: f32[]) -> f32[] {
  %reduce_sum.437 = f32[] parameter(0), metadata={op_name="reduce_sum"}
  %reduce_sum.438 = f32[] parameter(1), metadata={op_name="reduce_sum"}
  ROOT %reduce_sum.439 = f32[] add(%reduce_sum.437, %reduce_sum.438), metadata={op_name="jit(train_step)/jvp(_Model)/reduce_sum" stack_frame_id=25}
}

%region_77.81 (reduce_max.87: f32[], reduce_max.88: f32[]) -> f32[] {
  %reduce_max.87 = f32[] parameter(0), metadata={op_name="reduce_max"}
  %reduce_max.88 = f32[] parameter(1), metadata={op_name="reduce_max"}
  ROOT %reduce_max.89 = f32[] maximum(%reduce_max.87, %reduce_max.88), metadata={op_name="jit(train_step)/jvp()/reduce_max" stack_frame_id=27}
}

%region_78.82 (reduce_sum.444: f32[], reduce_sum.445: f32[]) -> f32[] {
  %reduce_sum.444 = f32[] parameter(0), metadata={op_name="reduce_sum"}
  %reduce_sum.445 = f32[] parameter(1), metadata={op_name="reduce_sum"}
  ROOT %reduce_sum.446 = f32[] add(%reduce_sum.444, %reduce_sum.445), metadata={op_name="jit(train_step)/jvp()/reduce_sum" stack_frame_id=27}
}

%region_75.76 (reduce_and.3: pred[], reduce_and.4: pred[]) -> pred[] {
  %reduce_and.3 = pred[] parameter(0), metadata={op_name="reduce_and"}
  %reduce_and.4 = pred[] parameter(1), metadata={op_name="reduce_and"}
  ROOT %reduce_and.5 = pred[] and(%reduce_and.3, %reduce_and.4), metadata={op_name="reduce_and"}
}

%take_along_axis.77 (Arg_0.1: f32[32,1000], Arg_1.1: s32[32,1]) -> (f32[32,1], s32[32,1,1]) {
  %Arg_1.1 = s32[32,1]{1,0} parameter(1)
  %constant.117 = s32[] constant(0)
  %lt.2 = s32[32,1]{1,0} broadcast(%constant.117), dimensions={}, metadata={op_name="lt"}
  %lt.3 = pred[32,1]{1,0} compare(%Arg_1.1, %lt.2), direction=LT, metadata={op_name="lt"}
  %constant.115 = s32[] constant(1000)
  %add.479 = s32[32,1]{1,0} broadcast(%constant.115), dimensions={}, metadata={op_name="add"}
  %add.480 = s32[32,1]{1,0} add(%Arg_1.1, %add.479), metadata={op_name="add"}
  %select_n.52 = s32[32,1]{1,0} select(%lt.3, %add.480, %Arg_1.1), metadata={op_name="select_n"}
  %reshape.126 = s32[32,1,1]{2,1,0} reshape(%select_n.52), metadata={op_name="reshape"}
  %constant.114 = s32[] constant(0)
  %ge.2 = s32[32,1,1]{2,1,0} broadcast(%constant.114), dimensions={}, metadata={op_name="ge"}
  %ge.3 = pred[32,1,1]{2,1,0} compare(%reshape.126, %ge.2), direction=GE, metadata={op_name="ge"}
  %constant.113 = s32[] constant(999)
  %le.2 = s32[32,1,1]{2,1,0} broadcast(%constant.113), dimensions={}, metadata={op_name="le"}
  %le.3 = pred[32,1,1]{2,1,0} compare(%reshape.126, %le.2), direction=LE, metadata={op_name="le"}
  %and.1 = pred[32,1,1]{2,1,0} and(%ge.3, %le.3), metadata={op_name="and"}
  %constant.116 = pred[] constant(true)
  %reduce_and.7 = pred[32,1]{1,0} reduce(%and.1, %constant.116), dimensions={2}, to_apply=%region_75.76, metadata={op_name="reduce_and"}
  %Arg_0.1 = f32[32,1000]{1,0} parameter(0)
  %gather.1 = f32[32,1]{1,0} gather(%Arg_0.1, %reshape.126), offset_dims={}, collapsed_slice_dims={1}, start_index_map={1}, operand_batching_dims={0}, start_indices_batching_dims={0}, index_vector_dim=2, slice_sizes={1,1}, metadata={op_name="gather"}
  %constant.112 = f32[] constant(nan)
  %broadcast_in_dim.77 = f32[32,1]{1,0} broadcast(%constant.112), dimensions={}, metadata={op_name="broadcast_in_dim"}
  %select_n.53 = f32[32,1]{1,0} select(%reduce_and.7, %gather.1, %broadcast_in_dim.77), metadata={op_name="select_n"}
  ROOT %tuple.1 = (f32[32,1]{1,0}, s32[32,1,1]{2,1,0}) tuple(%select_n.53, %reshape.126)
}

%_where.78 (Arg_0.4: pred[], Arg_1.4: s32[], Arg_2.1: s32[]) -> s32[] {
  %Arg_0.4 = pred[] parameter(0)
  %Arg_1.4 = s32[] parameter(1)
  %Arg_2.1 = s32[] parameter(2)
  ROOT %select_n.55 = s32[] select(%Arg_0.4, %Arg_1.4, %Arg_2.1), metadata={op_name="select_n"}
}

%region_76.79 (reduce_and.11: pred[], reduce_and.12: pred[]) -> pred[] {
  %reduce_and.11 = pred[] parameter(0), metadata={op_name="reduce_and"}
  %reduce_and.12 = pred[] parameter(1), metadata={op_name="reduce_and"}
  ROOT %reduce_and.13 = pred[] and(%reduce_and.11, %reduce_and.12), metadata={op_name="reduce_and"}
}

%_take.80 (Arg_0.5: f32[32,1], Arg_1.5: s32[]) -> (f32[32], s32[1]) {
  %Arg_1.5 = s32[] parameter(1)
  %constant.127 = s32[] constant(0)
  %lt.5 = pred[] compare(%Arg_1.5, %constant.127), direction=LT, metadata={op_name="lt"}
  %constant.126 = s32[] constant(1)
  %add.482 = s32[] add(%Arg_1.5, %constant.126), metadata={op_name="add"}
  %jit__where_.1 = s32[] call(%lt.5, %add.482, %Arg_1.5), to_apply=%_where.78, metadata={op_name="jit(_where)"}
  %broadcast_in_dim.82 = s32[1]{0} reshape(%jit__where_.1), metadata={op_name="broadcast_in_dim"}
  %constant.125 = s32[1]{0} constant({0})
  %ge.5 = pred[1]{0} compare(%broadcast_in_dim.82, %constant.125), direction=GE, metadata={op_name="ge"}
  %le.5 = pred[1]{0} compare(%broadcast_in_dim.82, %constant.125), direction=LE, metadata={op_name="le"}
  %and.3 = pred[1]{0} and(%ge.5, %le.5), metadata={op_name="and"}
  %constant.124 = pred[] constant(true)
  %reduce_and.15 = pred[] reduce(%and.3, %constant.124), dimensions={0}, to_apply=%region_76.79, metadata={op_name="reduce_and"}
  %broadcast_in_dim.83 = pred[32]{0} broadcast(%reduce_and.15), dimensions={}, metadata={op_name="broadcast_in_dim"}
  %Arg_0.5 = f32[32,1]{1,0} parameter(0)
  %gather.3 = f32[32]{0} gather(%Arg_0.5, %broadcast_in_dim.82), offset_dims={0}, collapsed_slice_dims={1}, start_index_map={1}, index_vector_dim=0, slice_sizes={32,1}, metadata={op_name="gather"}
  %constant.123 = f32[] constant(nan)
  %broadcast_in_dim.81 = f32[32]{0} broadcast(%constant.123), dimensions={}, metadata={op_name="broadcast_in_dim"}
  %select_n.57 = f32[32]{0} select(%broadcast_in_dim.83, %gather.3, %broadcast_in_dim.81), metadata={op_name="select_n"}
  ROOT %tuple.3 = (f32[32]{0}, s32[1]{0}) tuple(%select_n.57, %broadcast_in_dim.82)
}

%region_80.84 (scatter-add.2: f32[], scatter-add.3: f32[]) -> f32[] {
  %scatter-add.2 = f32[] parameter(0), metadata={op_name="scatter-add"}
  %scatter-add.3 = f32[] parameter(1), metadata={op_name="scatter-add"}
  ROOT %add.485 = f32[] add(%scatter-add.2, %scatter-add.3), metadata={op_name="add"}
}

%_take_0.85 (Arg_0.7: s32[1], Arg_1.7: f32[32]) -> f32[32,1] {
  %constant.129 = f32[] constant(0)
  %broadcast_in_dim.87 = f32[32,1]{1,0} broadcast(%constant.129), dimensions={}, metadata={op_name="broadcast_in_dim"}
  %Arg_0.7 = s32[1]{0} parameter(0)
  %Arg_1.7 = f32[32]{0} parameter(1)
  ROOT %scatter-add.5 = f32[32,1]{1,0} scatter(%broadcast_in_dim.87, %Arg_0.7, %Arg_1.7), update_window_dims={0}, inserted_window_dims={1}, scatter_dims_to_operand_dims={1}, index_vector_dim=0, to_apply=%region_80.84, metadata={op_name="scatter-add"}
}

%region_81.86 (scatter-add.8: f32[], scatter-add.9: f32[]) -> f32[] {
  %scatter-add.8 = f32[] parameter(0), metadata={op_name="scatter-add"}
  %scatter-add.9 = f32[] parameter(1), metadata={op_name="scatter-add"}
  ROOT %add.487 = f32[] add(%scatter-add.8, %scatter-add.9), metadata={op_name="add"}
}

%take_along_axis_1.87 (Arg_0.9: s32[32,1,1], Arg_1.9: f32[32,1]) -> f32[32,1000] {
  %constant.131 = f32[] constant(0)
  %broadcast_in_dim.89 = f32[32,1000]{1,0} broadcast(%constant.131), dimensions={}, metadata={op_name="broadcast_in_dim"}
  %Arg_0.9 = s32[32,1,1]{2,1,0} parameter(0)
  %Arg_1.9 = f32[32,1]{1,0} parameter(1)
  ROOT %scatter-add.11 = f32[32,1000]{1,0} scatter(%broadcast_in_dim.89, %Arg_0.9, %Arg_1.9), update_window_dims={}, inserted_window_dims={1}, scatter_dims_to_operand_dims={1}, input_batching_dims={0}, scatter_indices_batching_dims={0}, index_vector_dim=2, to_apply=%region_81.86, metadata={op_name="scatter-add"}
}

%region_83.89 (reduce_sum.465: f32[], reduce_sum.466: f32[]) -> f32[] {
  %reduce_sum.465 = f32[] parameter(0), metadata={op_name="reduce_sum"}
  %reduce_sum.466 = f32[] parameter(1), metadata={op_name="reduce_sum"}
  ROOT %reduce_sum.467 = f32[] add(%reduce_sum.465, %reduce_sum.466), metadata={op_name="jit(train_step)/transpose(jvp(_Model))/Transformer/encoder_norm/reduce_sum" stack_frame_id=32}
}

%_where_2.337 (Arg_0.11: pred[], Arg_1.11: s32[], Arg_2.3: s32[]) -> s32[] {
  %Arg_0.11 = pred[] parameter(0)
  %Arg_1.11 = s32[] parameter(1)
  %Arg_2.3 = s32[] parameter(2)
  ROOT %select_n.62 = s32[] select(%Arg_0.11, %Arg_1.11, %Arg_2.3), metadata={op_name="select_n"}
}

%region_84.90 (reduce_sum.472: f32[], reduce_sum.473: f32[]) -> f32[] {
  %reduce_sum.472 = f32[] parameter(0), metadata={op_name="reduce_sum"}
  %reduce_sum.473 = f32[] parameter(1), metadata={op_name="reduce_sum"}
  ROOT %reduce_sum.474 = f32[] add(%reduce_sum.472, %reduce_sum.473), metadata={op_name="jit(train_step)/transpose(jvp(_Model))/Transformer/encoder_norm/reduce_sum" stack_frame_id=33}
}

%region_86.92 (reduce_sum.486: f32[], reduce_sum.487: f32[]) -> f32[] {
  %reduce_sum.486 = f32[] parameter(0), metadata={op_name="reduce_sum"}
  %reduce_sum.487 = f32[] parameter(1), metadata={op_name="reduce_sum"}
  ROOT %reduce_sum.488 = f32[] add(%reduce_sum.486, %reduce_sum.487), metadata={op_name="jit(train_step)/transpose(jvp(_Model))/Transformer/encoder_norm/reduce_sum" stack_frame_id=34}
}

%region_88.94 (reduce_sum.500: f32[], reduce_sum.501: f32[]) -> f32[] {
  %reduce_sum.500 = f32[] parameter(0), metadata={op_name="reduce_sum"}
  %reduce_sum.501 = f32[] parameter(1), metadata={op_name="reduce_sum"}
  ROOT %reduce_sum.502 = f32[] add(%reduce_sum.500, %reduce_sum.501), metadata={op_name="jit(train_step)/transpose(jvp(_Model))/Transformer/encoder_norm/reduce_sum" stack_frame_id=36}
}

%region_85.91 (reduce_sum.479: f32[], reduce_sum.480: f32[]) -> f32[] {
  %reduce_sum.479 = f32[] parameter(0), metadata={op_name="reduce_sum"}
  %reduce_sum.480 = f32[] parameter(1), metadata={op_name="reduce_sum"}
  ROOT %reduce_sum.481 = f32[] add(%reduce_sum.479, %reduce_sum.480), metadata={op_name="jit(train_step)/transpose(jvp(_Model))/Transformer/encoder_norm/reduce_sum" stack_frame_id=33}
}

%region_87.93 (reduce_sum.493: f32[], reduce_sum.494: f32[]) -> f32[] {
  %reduce_sum.493 = f32[] parameter(0), metadata={op_name="reduce_sum"}
  %reduce_sum.494 = f32[] parameter(1), metadata={op_name="reduce_sum"}
  ROOT %reduce_sum.495 = f32[] add(%reduce_sum.493, %reduce_sum.494), metadata={op_name="jit(train_step)/transpose(jvp(_Model))/Transformer/encoder_norm/reduce_sum" stack_frame_id=35}
}

%region_94.100 (reduce_sum.542: f32[], reduce_sum.543: f32[]) -> f32[] {
  %reduce_sum.542 = f32[] parameter(0), metadata={op_name="reduce_sum"}
  %reduce_sum.543 = f32[] parameter(1), metadata={op_name="reduce_sum"}
  ROOT %reduce_sum.544 = f32[] add(%reduce_sum.542, %reduce_sum.543), metadata={op_name="jit(train_step)/transpose(jvp(_Model))/Transformer/encoderblock_11/LayerNorm_1/reduce_sum" stack_frame_id=45}
}

%region_96.102 (reduce_sum.556: f32[], reduce_sum.557: f32[]) -> f32[] {
  %reduce_sum.556 = f32[] parameter(0), metadata={op_name="reduce_sum"}
  %reduce_sum.557 = f32[] parameter(1), metadata={op_name="reduce_sum"}
  ROOT %reduce_sum.558 = f32[] add(%reduce_sum.556, %reduce_sum.557), metadata={op_name="jit(train_step)/transpose(jvp(_Model))/Transformer/encoderblock_11/LayerNorm_1/reduce_sum" stack_frame_id=47}
}

%region_93.99 (reduce_sum.535: f32[], reduce_sum.536: f32[]) -> f32[] {
  %reduce_sum.535 = f32[] parameter(0), metadata={op_name="reduce_sum"}
  %reduce_sum.536 = f32[] parameter(1), metadata={op_name="reduce_sum"}
  ROOT %reduce_sum.537 = f32[] add(%reduce_sum.535, %reduce_sum.536), metadata={op_name="jit(train_step)/transpose(jvp(_Model))/Transformer/encoderblock_11/LayerNorm_1/reduce_sum" stack_frame_id=44}
}

%region_95.101 (reduce_sum.549: f32[], reduce_sum.550: f32[]) -> f32[] {
  %reduce_sum.549 = f32[] parameter(0), metadata={op_name="reduce_sum"}
  %reduce_sum.550 = f32[] parameter(1), metadata={op_name="reduce_sum"}
  ROOT %reduce_sum.551 = f32[] add(%reduce_sum.549, %reduce_sum.550), metadata={op_name="jit(train_step)/transpose(jvp(_Model))/Transformer/encoderblock_11/LayerNorm_1/reduce_sum" stack_frame_id=46}
}

%region_98.104 (reduce_sum.570: f32[], reduce_sum.571: f32[]) -> f32[] {
  %reduce_sum.570 = f32[] parameter(0), metadata={op_name="reduce_sum"}
  %reduce_sum.571 = f32[] parameter(1), metadata={op_name="reduce_sum"}
  ROOT %reduce_sum.572 = f32[] add(%reduce_sum.570, %reduce_sum.571), metadata={op_name="jit(train_step)/transpose(jvp(_Model))/Transformer/encoderblock_11/MultiHeadDotProductAttention_0/reduce_sum" stack_frame_id=14}
}

%region_99.105 (reduce_sum.577: f32[], reduce_sum.578: f32[]) -> f32[] {
  %reduce_sum.577 = f32[] parameter(0), metadata={op_name="reduce_sum"}
  %reduce_sum.578 = f32[] parameter(1), metadata={op_name="reduce_sum"}
  ROOT %reduce_sum.579 = f32[] add(%reduce_sum.577, %reduce_sum.578), metadata={op_name="jit(train_step)/transpose(jvp(_Model))/Transformer/encoderblock_11/MultiHeadDotProductAttention_0/reduce_sum" stack_frame_id=14}
}

%region_106.112 (reduce_sum.626: f32[], reduce_sum.627: f32[]) -> f32[] {
  %reduce_sum.626 = f32[] parameter(0), metadata={op_name="reduce_sum"}
  %reduce_sum.627 = f32[] parameter(1), metadata={op_name="reduce_sum"}
  ROOT %reduce_sum.628 = f32[] add(%reduce_sum.626, %reduce_sum.627), metadata={op_name="jit(train_step)/transpose(jvp(_Model))/Transformer/encoderblock_11/LayerNorm_0/reduce_sum" stack_frame_id=59}
}

%region_108.114 (reduce_sum.640: f32[], reduce_sum.641: f32[]) -> f32[] {
  %reduce_sum.640 = f32[] parameter(0), metadata={op_name="reduce_sum"}
  %reduce_sum.641 = f32[] parameter(1), metadata={op_name="reduce_sum"}
  ROOT %reduce_sum.642 = f32[] add(%reduce_sum.640, %reduce_sum.641), metadata={op_name="jit(train_step)/transpose(jvp(_Model))/Transformer/encoderblock_11/LayerNorm_0/reduce_sum" stack_frame_id=61}
}

%region_105.111 (reduce_sum.619: f32[], reduce_sum.620: f32[]) -> f32[] {
  %reduce_sum.619 = f32[] parameter(0), metadata={op_name="reduce_sum"}
  %reduce_sum.620 = f32[] parameter(1), metadata={op_name="reduce_sum"}
  ROOT %reduce_sum.621 = f32[] add(%reduce_sum.619, %reduce_sum.620), metadata={op_name="jit(train_step)/transpose(jvp(_Model))/Transformer/encoderblock_11/LayerNorm_0/reduce_sum" stack_frame_id=58}
}

%region_107.113 (reduce_sum.633: f32[], reduce_sum.634: f32[]) -> f32[] {
  %reduce_sum.633 = f32[] parameter(0), metadata={op_name="reduce_sum"}
  %reduce_sum.634 = f32[] parameter(1), metadata={op_name="reduce_sum"}
  ROOT %reduce_sum.635 = f32[] add(%reduce_sum.633, %reduce_sum.634), metadata={op_name="jit(train_step)/transpose(jvp(_Model))/Transformer/encoderblock_11/LayerNorm_0/reduce_sum" stack_frame_id=60}
}

%region_114.120 (reduce_sum.682: f32[], reduce_sum.683: f32[]) -> f32[] {
  %reduce_sum.682 = f32[] parameter(0), metadata={op_name="reduce_sum"}
  %reduce_sum.683 = f32[] parameter(1), metadata={op_name="reduce_sum"}
  ROOT %reduce_sum.684 = f32[] add(%reduce_sum.682, %reduce_sum.683), metadata={op_name="jit(train_step)/transpose(jvp(_Model))/Transformer/encoderblock_10/LayerNorm_1/reduce_sum" stack_frame_id=45}
}

%region_116.122 (reduce_sum.696: f32[], reduce_sum.697: f32[]) -> f32[] {
  %reduce_sum.696 = f32[] parameter(0), metadata={op_name="reduce_sum"}
  %reduce_sum.697 = f32[] parameter(1), metadata={op_name="reduce_sum"}
  ROOT %reduce_sum.698 = f32[] add(%reduce_sum.696, %reduce_sum.697), metadata={op_name="jit(train_step)/transpose(jvp(_Model))/Transformer/encoderblock_10/LayerNorm_1/reduce_sum" stack_frame_id=47}
}

%region_113.119 (reduce_sum.675: f32[], reduce_sum.676: f32[]) -> f32[] {
  %reduce_sum.675 = f32[] parameter(0), metadata={op_name="reduce_sum"}
  %reduce_sum.676 = f32[] parameter(1), metadata={op_name="reduce_sum"}
  ROOT %reduce_sum.677 = f32[] add(%reduce_sum.675, %reduce_sum.676), metadata={op_name="jit(train_step)/transpose(jvp(_Model))/Transformer/encoderblock_10/LayerNorm_1/reduce_sum" stack_frame_id=44}
}

%region_115.121 (reduce_sum.689: f32[], reduce_sum.690: f32[]) -> f32[] {
  %reduce_sum.689 = f32[] parameter(0), metadata={op_name="reduce_sum"}
  %reduce_sum.690 = f32[] parameter(1), metadata={op_name="reduce_sum"}
  ROOT %reduce_sum.691 = f32[] add(%reduce_sum.689, %reduce_sum.690), metadata={op_name="jit(train_step)/transpose(jvp(_Model))/Transformer/encoderblock_10/LayerNorm_1/reduce_sum" stack_frame_id=46}
}

%region_118.124 (reduce_sum.710: f32[], reduce_sum.711: f32[]) -> f32[] {
  %reduce_sum.710 = f32[] parameter(0), metadata={op_name="reduce_sum"}
  %reduce_sum.711 = f32[] parameter(1), metadata={op_name="reduce_sum"}
  ROOT %reduce_sum.712 = f32[] add(%reduce_sum.710, %reduce_sum.711), metadata={op_name="jit(train_step)/transpose(jvp(_Model))/Transformer/encoderblock_10/MultiHeadDotProductAttention_0/reduce_sum" stack_frame_id=14}
}

%region_119.125 (reduce_sum.717: f32[], reduce_sum.718: f32[]) -> f32[] {
  %reduce_sum.717 = f32[] parameter(0), metadata={op_name="reduce_sum"}
  %reduce_sum.718 = f32[] parameter(1), metadata={op_name="reduce_sum"}
  ROOT %reduce_sum.719 = f32[] add(%reduce_sum.717, %reduce_sum.718), metadata={op_name="jit(train_step)/transpose(jvp(_Model))/Transformer/encoderblock_10/MultiHeadDotProductAttention_0/reduce_sum" stack_frame_id=14}
}

%region_126.132 (reduce_sum.766: f32[], reduce_sum.767: f32[]) -> f32[] {
  %reduce_sum.766 = f32[] parameter(0), metadata={op_name="reduce_sum"}
  %reduce_sum.767 = f32[] parameter(1), metadata={op_name="reduce_sum"}
  ROOT %reduce_sum.768 = f32[] add(%reduce_sum.766, %reduce_sum.767), metadata={op_name="jit(train_step)/transpose(jvp(_Model))/Transformer/encoderblock_10/LayerNorm_0/reduce_sum" stack_frame_id=59}
}

%region_128.134 (reduce_sum.780: f32[], reduce_sum.781: f32[]) -> f32[] {
  %reduce_sum.780 = f32[] parameter(0), metadata={op_name="reduce_sum"}
  %reduce_sum.781 = f32[] parameter(1), metadata={op_name="reduce_sum"}
  ROOT %reduce_sum.782 = f32[] add(%reduce_sum.780, %reduce_sum.781), metadata={op_name="jit(train_step)/transpose(jvp(_Model))/Transformer/encoderblock_10/LayerNorm_0/reduce_sum" stack_frame_id=61}
}

%region_125.131 (reduce_sum.759: f32[], reduce_sum.760: f32[]) -> f32[] {
  %reduce_sum.759 = f32[] parameter(0), metadata={op_name="reduce_sum"}
  %reduce_sum.760 = f32[] parameter(1), metadata={op_name="reduce_sum"}
  ROOT %reduce_sum.761 = f32[] add(%reduce_sum.759, %reduce_sum.760), metadata={op_name="jit(train_step)/transpose(jvp(_Model))/Transformer/encoderblock_10/LayerNorm_0/reduce_sum" stack_frame_id=58}
}

%region_127.133 (reduce_sum.773: f32[], reduce_sum.774: f32[]) -> f32[] {
  %reduce_sum.773 = f32[] parameter(0), metadata={op_name="reduce_sum"}
  %reduce_sum.774 = f32[] parameter(1), metadata={op_name="reduce_sum"}
  ROOT %reduce_sum.775 = f32[] add(%reduce_sum.773, %reduce_sum.774), metadata={op_name="jit(train_step)/transpose(jvp(_Model))/Transformer/encoderblock_10/LayerNorm_0/reduce_sum" stack_frame_id=60}
}

%region_134.140 (reduce_sum.822: f32[], reduce_sum.823: f32[]) -> f32[] {
  %reduce_sum.822 = f32[] parameter(0), metadata={op_name="reduce_sum"}
  %reduce_sum.823 = f32[] parameter(1), metadata={op_name="reduce_sum"}
  ROOT %reduce_sum.824 = f32[] add(%reduce_sum.822, %reduce_sum.823), metadata={op_name="jit(train_step)/transpose(jvp(_Model))/Transformer/encoderblock_9/LayerNorm_1/reduce_sum" stack_frame_id=45}
}

%region_136.142 (reduce_sum.836: f32[], reduce_sum.837: f32[]) -> f32[] {
  %reduce_sum.836 = f32[] parameter(0), metadata={op_name="reduce_sum"}
  %reduce_sum.837 = f32[] parameter(1), metadata={op_name="reduce_sum"}
  ROOT %reduce_sum.838 = f32[] add(%reduce_sum.836, %reduce_sum.837), metadata={op_name="jit(train_step)/transpose(jvp(_Model))/Transformer/encoderblock_9/LayerNorm_1/reduce_sum" stack_frame_id=47}
}

%region_133.139 (reduce_sum.815: f32[], reduce_sum.816: f32[]) -> f32[] {
  %reduce_sum.815 = f32[] parameter(0), metadata={op_name="reduce_sum"}
  %reduce_sum.816 = f32[] parameter(1), metadata={op_name="reduce_sum"}
  ROOT %reduce_sum.817 = f32[] add(%reduce_sum.815, %reduce_sum.816), metadata={op_name="jit(train_step)/transpose(jvp(_Model))/Transformer/encoderblock_9/LayerNorm_1/reduce_sum" stack_frame_id=44}
}

%region_135.141 (reduce_sum.829: f32[], reduce_sum.830: f32[]) -> f32[] {
  %reduce_sum.829 = f32[] parameter(0), metadata={op_name="reduce_sum"}
  %reduce_sum.830 = f32[] parameter(1), metadata={op_name="reduce_sum"}
  ROOT %reduce_sum.831 = f32[] add(%reduce_sum.829, %reduce_sum.830), metadata={op_name="jit(train_step)/transpose(jvp(_Model))/Transformer/encoderblock_9/LayerNorm_1/reduce_sum" stack_frame_id=46}
}

%region_138.144 (reduce_sum.850: f32[], reduce_sum.851: f32[]) -> f32[] {
  %reduce_sum.850 = f32[] parameter(0), metadata={op_name="reduce_sum"}
  %reduce_sum.851 = f32[] parameter(1), metadata={op_name="reduce_sum"}
  ROOT %reduce_sum.852 = f32[] add(%reduce_sum.850, %reduce_sum.851), metadata={op_name="jit(train_step)/transpose(jvp(_Model))/Transformer/encoderblock_9/MultiHeadDotProductAttention_0/reduce_sum" stack_frame_id=14}
}

%region_139.145 (reduce_sum.857: f32[], reduce_sum.858: f32[]) -> f32[] {
  %reduce_sum.857 = f32[] parameter(0), metadata={op_name="reduce_sum"}
  %reduce_sum.858 = f32[] parameter(1), metadata={op_name="reduce_sum"}
  ROOT %reduce_sum.859 = f32[] add(%reduce_sum.857, %reduce_sum.858), metadata={op_name="jit(train_step)/transpose(jvp(_Model))/Transformer/encoderblock_9/MultiHeadDotProductAttention_0/reduce_sum" stack_frame_id=14}
}

%region_146.152 (reduce_sum.906: f32[], reduce_sum.907: f32[]) -> f32[] {
  %reduce_sum.906 = f32[] parameter(0), metadata={op_name="reduce_sum"}
  %reduce_sum.907 = f32[] parameter(1), metadata={op_name="reduce_sum"}
  ROOT %reduce_sum.908 = f32[] add(%reduce_sum.906, %reduce_sum.907), metadata={op_name="jit(train_step)/transpose(jvp(_Model))/Transformer/encoderblock_9/LayerNorm_0/reduce_sum" stack_frame_id=59}
}

%region_148.154 (reduce_sum.920: f32[], reduce_sum.921: f32[]) -> f32[] {
  %reduce_sum.920 = f32[] parameter(0), metadata={op_name="reduce_sum"}
  %reduce_sum.921 = f32[] parameter(1), metadata={op_name="reduce_sum"}
  ROOT %reduce_sum.922 = f32[] add(%reduce_sum.920, %reduce_sum.921), metadata={op_name="jit(train_step)/transpose(jvp(_Model))/Transformer/encoderblock_9/LayerNorm_0/reduce_sum" stack_frame_id=61}
}

%region_145.151 (reduce_sum.899: f32[], reduce_sum.900: f32[]) -> f32[] {
  %reduce_sum.899 = f32[] parameter(0), metadata={op_name="reduce_sum"}
  %reduce_sum.900 = f32[] parameter(1), metadata={op_name="reduce_sum"}
  ROOT %reduce_sum.901 = f32[] add(%reduce_sum.899, %reduce_sum.900), metadata={op_name="jit(train_step)/transpose(jvp(_Model))/Transformer/encoderblock_9/LayerNorm_0/reduce_sum" stack_frame_id=58}
}

%region_147.153 (reduce_sum.913: f32[], reduce_sum.914: f32[]) -> f32[] {
  %reduce_sum.913 = f32[] parameter(0), metadata={op_name="reduce_sum"}
  %reduce_sum.914 = f32[] parameter(1), metadata={op_name="reduce_sum"}
  ROOT %reduce_sum.915 = f32[] add(%reduce_sum.913, %reduce_sum.914), metadata={op_name="jit(train_step)/transpose(jvp(_Model))/Transformer/encoderblock_9/LayerNorm_0/reduce_sum" stack_frame_id=60}
}

%region_154.160 (reduce_sum.962: f32[], reduce_sum.963: f32[]) -> f32[] {
  %reduce_sum.962 = f32[] parameter(0), metadata={op_name="reduce_sum"}
  %reduce_sum.963 = f32[] parameter(1), metadata={op_name="reduce_sum"}
  ROOT %reduce_sum.964 = f32[] add(%reduce_sum.962, %reduce_sum.963), metadata={op_name="jit(train_step)/transpose(jvp(_Model))/Transformer/encoderblock_8/LayerNorm_1/reduce_sum" stack_frame_id=45}
}

%region_156.162 (reduce_sum.976: f32[], reduce_sum.977: f32[]) -> f32[] {
  %reduce_sum.976 = f32[] parameter(0), metadata={op_name="reduce_sum"}
  %reduce_sum.977 = f32[] parameter(1), metadata={op_name="reduce_sum"}
  ROOT %reduce_sum.978 = f32[] add(%reduce_sum.976, %reduce_sum.977), metadata={op_name="jit(train_step)/transpose(jvp(_Model))/Transformer/encoderblock_8/LayerNorm_1/reduce_sum" stack_frame_id=47}
}

%region_153.159 (reduce_sum.955: f32[], reduce_sum.956: f32[]) -> f32[] {
  %reduce_sum.955 = f32[] parameter(0), metadata={op_name="reduce_sum"}
  %reduce_sum.956 = f32[] parameter(1), metadata={op_name="reduce_sum"}
  ROOT %reduce_sum.957 = f32[] add(%reduce_sum.955, %reduce_sum.956), metadata={op_name="jit(train_step)/transpose(jvp(_Model))/Transformer/encoderblock_8/LayerNorm_1/reduce_sum" stack_frame_id=44}
}

%region_155.161 (reduce_sum.969: f32[], reduce_sum.970: f32[]) -> f32[] {
  %reduce_sum.969 = f32[] parameter(0), metadata={op_name="reduce_sum"}
  %reduce_sum.970 = f32[] parameter(1), metadata={op_name="reduce_sum"}
  ROOT %reduce_sum.971 = f32[] add(%reduce_sum.969, %reduce_sum.970), metadata={op_name="jit(train_step)/transpose(jvp(_Model))/Transformer/encoderblock_8/LayerNorm_1/reduce_sum" stack_frame_id=46}
}

%region_158.164 (reduce_sum.990: f32[], reduce_sum.991: f32[]) -> f32[] {
  %reduce_sum.990 = f32[] parameter(0), metadata={op_name="reduce_sum"}
  %reduce_sum.991 = f32[] parameter(1), metadata={op_name="reduce_sum"}
  ROOT %reduce_sum.992 = f32[] add(%reduce_sum.990, %reduce_sum.991), metadata={op_name="jit(train_step)/transpose(jvp(_Model))/Transformer/encoderblock_8/MultiHeadDotProductAttention_0/reduce_sum" stack_frame_id=14}
}

%region_159.165 (reduce_sum.997: f32[], reduce_sum.998: f32[]) -> f32[] {
  %reduce_sum.997 = f32[] parameter(0), metadata={op_name="reduce_sum"}
  %reduce_sum.998 = f32[] parameter(1), metadata={op_name="reduce_sum"}
  ROOT %reduce_sum.999 = f32[] add(%reduce_sum.997, %reduce_sum.998), metadata={op_name="jit(train_step)/transpose(jvp(_Model))/Transformer/encoderblock_8/MultiHeadDotProductAttention_0/reduce_sum" stack_frame_id=14}
}

%region_166.172 (reduce_sum.1046: f32[], reduce_sum.1047: f32[]) -> f32[] {
  %reduce_sum.1046 = f32[] parameter(0), metadata={op_name="reduce_sum"}
  %reduce_sum.1047 = f32[] parameter(1), metadata={op_name="reduce_sum"}
  ROOT %reduce_sum.1048 = f32[] add(%reduce_sum.1046, %reduce_sum.1047), metadata={op_name="jit(train_step)/transpose(jvp(_Model))/Transformer/encoderblock_8/LayerNorm_0/reduce_sum" stack_frame_id=59}
}

%region_168.174 (reduce_sum.1060: f32[], reduce_sum.1061: f32[]) -> f32[] {
  %reduce_sum.1060 = f32[] parameter(0), metadata={op_name="reduce_sum"}
  %reduce_sum.1061 = f32[] parameter(1), metadata={op_name="reduce_sum"}
  ROOT %reduce_sum.1062 = f32[] add(%reduce_sum.1060, %reduce_sum.1061), metadata={op_name="jit(train_step)/transpose(jvp(_Model))/Transformer/encoderblock_8/LayerNorm_0/reduce_sum" stack_frame_id=61}
}

%region_165.171 (reduce_sum.1039: f32[], reduce_sum.1040: f32[]) -> f32[] {
  %reduce_sum.1039 = f32[] parameter(0), metadata={op_name="reduce_sum"}
  %reduce_sum.1040 = f32[] parameter(1), metadata={op_name="reduce_sum"}
  ROOT %reduce_sum.1041 = f32[] add(%reduce_sum.1039, %reduce_sum.1040), metadata={op_name="jit(train_step)/transpose(jvp(_Model))/Transformer/encoderblock_8/LayerNorm_0/reduce_sum" stack_frame_id=58}
}

%region_167.173 (reduce_sum.1053: f32[], reduce_sum.1054: f32[]) -> f32[] {
  %reduce_sum.1053 = f32[] parameter(0), metadata={op_name="reduce_sum"}
  %reduce_sum.1054 = f32[] parameter(1), metadata={op_name="reduce_sum"}
  ROOT %reduce_sum.1055 = f32[] add(%reduce_sum.1053, %reduce_sum.1054), metadata={op_name="jit(train_step)/transpose(jvp(_Model))/Transformer/encoderblock_8/LayerNorm_0/reduce_sum" stack_frame_id=60}
}

%region_174.180 (reduce_sum.1102: f32[], reduce_sum.1103: f32[]) -> f32[] {
  %reduce_sum.1102 = f32[] parameter(0), metadata={op_name="reduce_sum"}
  %reduce_sum.1103 = f32[] parameter(1), metadata={op_name="reduce_sum"}
  ROOT %reduce_sum.1104 = f32[] add(%reduce_sum.1102, %reduce_sum.1103), metadata={op_name="jit(train_step)/transpose(jvp(_Model))/Transformer/encoderblock_7/LayerNorm_1/reduce_sum" stack_frame_id=45}
}

%region_176.182 (reduce_sum.1116: f32[], reduce_sum.1117: f32[]) -> f32[] {
  %reduce_sum.1116 = f32[] parameter(0), metadata={op_name="reduce_sum"}
  %reduce_sum.1117 = f32[] parameter(1), metadata={op_name="reduce_sum"}
  ROOT %reduce_sum.1118 = f32[] add(%reduce_sum.1116, %reduce_sum.1117), metadata={op_name="jit(train_step)/transpose(jvp(_Model))/Transformer/encoderblock_7/LayerNorm_1/reduce_sum" stack_frame_id=47}
}

%region_173.179 (reduce_sum.1095: f32[], reduce_sum.1096: f32[]) -> f32[] {
  %reduce_sum.1095 = f32[] parameter(0), metadata={op_name="reduce_sum"}
  %reduce_sum.1096 = f32[] parameter(1), metadata={op_name="reduce_sum"}
  ROOT %reduce_sum.1097 = f32[] add(%reduce_sum.1095, %reduce_sum.1096), metadata={op_name="jit(train_step)/transpose(jvp(_Model))/Transformer/encoderblock_7/LayerNorm_1/reduce_sum" stack_frame_id=44}
}

%region_175.181 (reduce_sum.1109: f32[], reduce_sum.1110: f32[]) -> f32[] {
  %reduce_sum.1109 = f32[] parameter(0), metadata={op_name="reduce_sum"}
  %reduce_sum.1110 = f32[] parameter(1), metadata={op_name="reduce_sum"}
  ROOT %reduce_sum.1111 = f32[] add(%reduce_sum.1109, %reduce_sum.1110), metadata={op_name="jit(train_step)/transpose(jvp(_Model))/Transformer/encoderblock_7/LayerNorm_1/reduce_sum" stack_frame_id=46}
}

%region_178.184 (reduce_sum.1130: f32[], reduce_sum.1131: f32[]) -> f32[] {
  %reduce_sum.1130 = f32[] parameter(0), metadata={op_name="reduce_sum"}
  %reduce_sum.1131 = f32[] parameter(1), metadata={op_name="reduce_sum"}
  ROOT %reduce_sum.1132 = f32[] add(%reduce_sum.1130, %reduce_sum.1131), metadata={op_name="jit(train_step)/transpose(jvp(_Model))/Transformer/encoderblock_7/MultiHeadDotProductAttention_0/reduce_sum" stack_frame_id=14}
}

%region_179.185 (reduce_sum.1137: f32[], reduce_sum.1138: f32[]) -> f32[] {
  %reduce_sum.1137 = f32[] parameter(0), metadata={op_name="reduce_sum"}
  %reduce_sum.1138 = f32[] parameter(1), metadata={op_name="reduce_sum"}
  ROOT %reduce_sum.1139 = f32[] add(%reduce_sum.1137, %reduce_sum.1138), metadata={op_name="jit(train_step)/transpose(jvp(_Model))/Transformer/encoderblock_7/MultiHeadDotProductAttention_0/reduce_sum" stack_frame_id=14}
}

%region_186.192 (reduce_sum.1186: f32[], reduce_sum.1187: f32[]) -> f32[] {
  %reduce_sum.1186 = f32[] parameter(0), metadata={op_name="reduce_sum"}
  %reduce_sum.1187 = f32[] parameter(1), metadata={op_name="reduce_sum"}
  ROOT %reduce_sum.1188 = f32[] add(%reduce_sum.1186, %reduce_sum.1187), metadata={op_name="jit(train_step)/transpose(jvp(_Model))/Transformer/encoderblock_7/LayerNorm_0/reduce_sum" stack_frame_id=59}
}

%region_188.194 (reduce_sum.1200: f32[], reduce_sum.1201: f32[]) -> f32[] {
  %reduce_sum.1200 = f32[] parameter(0), metadata={op_name="reduce_sum"}
  %reduce_sum.1201 = f32[] parameter(1), metadata={op_name="reduce_sum"}
  ROOT %reduce_sum.1202 = f32[] add(%reduce_sum.1200, %reduce_sum.1201), metadata={op_name="jit(train_step)/transpose(jvp(_Model))/Transformer/encoderblock_7/LayerNorm_0/reduce_sum" stack_frame_id=61}
}

%region_185.191 (reduce_sum.1179: f32[], reduce_sum.1180: f32[]) -> f32[] {
  %reduce_sum.1179 = f32[] parameter(0), metadata={op_name="reduce_sum"}
  %reduce_sum.1180 = f32[] parameter(1), metadata={op_name="reduce_sum"}
  ROOT %reduce_sum.1181 = f32[] add(%reduce_sum.1179, %reduce_sum.1180), metadata={op_name="jit(train_step)/transpose(jvp(_Model))/Transformer/encoderblock_7/LayerNorm_0/reduce_sum" stack_frame_id=58}
}

%region_187.193 (reduce_sum.1193: f32[], reduce_sum.1194: f32[]) -> f32[] {
  %reduce_sum.1193 = f32[] parameter(0), metadata={op_name="reduce_sum"}
  %reduce_sum.1194 = f32[] parameter(1), metadata={op_name="reduce_sum"}
  ROOT %reduce_sum.1195 = f32[] add(%reduce_sum.1193, %reduce_sum.1194), metadata={op_name="jit(train_step)/transpose(jvp(_Model))/Transformer/encoderblock_7/LayerNorm_0/reduce_sum" stack_frame_id=60}
}

%region_194.200 (reduce_sum.1242: f32[], reduce_sum.1243: f32[]) -> f32[] {
  %reduce_sum.1242 = f32[] parameter(0), metadata={op_name="reduce_sum"}
  %reduce_sum.1243 = f32[] parameter(1), metadata={op_name="reduce_sum"}
  ROOT %reduce_sum.1244 = f32[] add(%reduce_sum.1242, %reduce_sum.1243), metadata={op_name="jit(train_step)/transpose(jvp(_Model))/Transformer/encoderblock_6/LayerNorm_1/reduce_sum" stack_frame_id=45}
}

%region_196.202 (reduce_sum.1256: f32[], reduce_sum.1257: f32[]) -> f32[] {
  %reduce_sum.1256 = f32[] parameter(0), metadata={op_name="reduce_sum"}
  %reduce_sum.1257 = f32[] parameter(1), metadata={op_name="reduce_sum"}
  ROOT %reduce_sum.1258 = f32[] add(%reduce_sum.1256, %reduce_sum.1257), metadata={op_name="jit(train_step)/transpose(jvp(_Model))/Transformer/encoderblock_6/LayerNorm_1/reduce_sum" stack_frame_id=47}
}

%region_193.199 (reduce_sum.1235: f32[], reduce_sum.1236: f32[]) -> f32[] {
  %reduce_sum.1235 = f32[] parameter(0), metadata={op_name="reduce_sum"}
  %reduce_sum.1236 = f32[] parameter(1), metadata={op_name="reduce_sum"}
  ROOT %reduce_sum.1237 = f32[] add(%reduce_sum.1235, %reduce_sum.1236), metadata={op_name="jit(train_step)/transpose(jvp(_Model))/Transformer/encoderblock_6/LayerNorm_1/reduce_sum" stack_frame_id=44}
}

%region_195.201 (reduce_sum.1249: f32[], reduce_sum.1250: f32[]) -> f32[] {
  %reduce_sum.1249 = f32[] parameter(0), metadata={op_name="reduce_sum"}
  %reduce_sum.1250 = f32[] parameter(1), metadata={op_name="reduce_sum"}
  ROOT %reduce_sum.1251 = f32[] add(%reduce_sum.1249, %reduce_sum.1250), metadata={op_name="jit(train_step)/transpose(jvp(_Model))/Transformer/encoderblock_6/LayerNorm_1/reduce_sum" stack_frame_id=46}
}

%region_198.204 (reduce_sum.1270: f32[], reduce_sum.1271: f32[]) -> f32[] {
  %reduce_sum.1270 = f32[] parameter(0), metadata={op_name="reduce_sum"}
  %reduce_sum.1271 = f32[] parameter(1), metadata={op_name="reduce_sum"}
  ROOT %reduce_sum.1272 = f32[] add(%reduce_sum.1270, %reduce_sum.1271), metadata={op_name="jit(train_step)/transpose(jvp(_Model))/Transformer/encoderblock_6/MultiHeadDotProductAttention_0/reduce_sum" stack_frame_id=14}
}

%region_199.205 (reduce_sum.1277: f32[], reduce_sum.1278: f32[]) -> f32[] {
  %reduce_sum.1277 = f32[] parameter(0), metadata={op_name="reduce_sum"}
  %reduce_sum.1278 = f32[] parameter(1), metadata={op_name="reduce_sum"}
  ROOT %reduce_sum.1279 = f32[] add(%reduce_sum.1277, %reduce_sum.1278), metadata={op_name="jit(train_step)/transpose(jvp(_Model))/Transformer/encoderblock_6/MultiHeadDotProductAttention_0/reduce_sum" stack_frame_id=14}
}

%region_206.212 (reduce_sum.1326: f32[], reduce_sum.1327: f32[]) -> f32[] {
  %reduce_sum.1326 = f32[] parameter(0), metadata={op_name="reduce_sum"}
  %reduce_sum.1327 = f32[] parameter(1), metadata={op_name="reduce_sum"}
  ROOT %reduce_sum.1328 = f32[] add(%reduce_sum.1326, %reduce_sum.1327), metadata={op_name="jit(train_step)/transpose(jvp(_Model))/Transformer/encoderblock_6/LayerNorm_0/reduce_sum" stack_frame_id=59}
}

%region_208.214 (reduce_sum.1340: f32[], reduce_sum.1341: f32[]) -> f32[] {
  %reduce_sum.1340 = f32[] parameter(0), metadata={op_name="reduce_sum"}
  %reduce_sum.1341 = f32[] parameter(1), metadata={op_name="reduce_sum"}
  ROOT %reduce_sum.1342 = f32[] add(%reduce_sum.1340, %reduce_sum.1341), metadata={op_name="jit(train_step)/transpose(jvp(_Model))/Transformer/encoderblock_6/LayerNorm_0/reduce_sum" stack_frame_id=61}
}

%region_205.211 (reduce_sum.1319: f32[], reduce_sum.1320: f32[]) -> f32[] {
  %reduce_sum.1319 = f32[] parameter(0), metadata={op_name="reduce_sum"}
  %reduce_sum.1320 = f32[] parameter(1), metadata={op_name="reduce_sum"}
  ROOT %reduce_sum.1321 = f32[] add(%reduce_sum.1319, %reduce_sum.1320), metadata={op_name="jit(train_step)/transpose(jvp(_Model))/Transformer/encoderblock_6/LayerNorm_0/reduce_sum" stack_frame_id=58}
}

%region_207.213 (reduce_sum.1333: f32[], reduce_sum.1334: f32[]) -> f32[] {
  %reduce_sum.1333 = f32[] parameter(0), metadata={op_name="reduce_sum"}
  %reduce_sum.1334 = f32[] parameter(1), metadata={op_name="reduce_sum"}
  ROOT %reduce_sum.1335 = f32[] add(%reduce_sum.1333, %reduce_sum.1334), metadata={op_name="jit(train_step)/transpose(jvp(_Model))/Transformer/encoderblock_6/LayerNorm_0/reduce_sum" stack_frame_id=60}
}

%region_214.220 (reduce_sum.1382: f32[], reduce_sum.1383: f32[]) -> f32[] {
  %reduce_sum.1382 = f32[] parameter(0), metadata={op_name="reduce_sum"}
  %reduce_sum.1383 = f32[] parameter(1), metadata={op_name="reduce_sum"}
  ROOT %reduce_sum.1384 = f32[] add(%reduce_sum.1382, %reduce_sum.1383), metadata={op_name="jit(train_step)/transpose(jvp(_Model))/Transformer/encoderblock_5/LayerNorm_1/reduce_sum" stack_frame_id=45}
}

%region_216.222 (reduce_sum.1396: f32[], reduce_sum.1397: f32[]) -> f32[] {
  %reduce_sum.1396 = f32[] parameter(0), metadata={op_name="reduce_sum"}
  %reduce_sum.1397 = f32[] parameter(1), metadata={op_name="reduce_sum"}
  ROOT %reduce_sum.1398 = f32[] add(%reduce_sum.1396, %reduce_sum.1397), metadata={op_name="jit(train_step)/transpose(jvp(_Model))/Transformer/encoderblock_5/LayerNorm_1/reduce_sum" stack_frame_id=47}
}

%region_213.219 (reduce_sum.1375: f32[], reduce_sum.1376: f32[]) -> f32[] {
  %reduce_sum.1375 = f32[] parameter(0), metadata={op_name="reduce_sum"}
  %reduce_sum.1376 = f32[] parameter(1), metadata={op_name="reduce_sum"}
  ROOT %reduce_sum.1377 = f32[] add(%reduce_sum.1375, %reduce_sum.1376), metadata={op_name="jit(train_step)/transpose(jvp(_Model))/Transformer/encoderblock_5/LayerNorm_1/reduce_sum" stack_frame_id=44}
}

%region_215.221 (reduce_sum.1389: f32[], reduce_sum.1390: f32[]) -> f32[] {
  %reduce_sum.1389 = f32[] parameter(0), metadata={op_name="reduce_sum"}
  %reduce_sum.1390 = f32[] parameter(1), metadata={op_name="reduce_sum"}
  ROOT %reduce_sum.1391 = f32[] add(%reduce_sum.1389, %reduce_sum.1390), metadata={op_name="jit(train_step)/transpose(jvp(_Model))/Transformer/encoderblock_5/LayerNorm_1/reduce_sum" stack_frame_id=46}
}

%region_218.224 (reduce_sum.1410: f32[], reduce_sum.1411: f32[]) -> f32[] {
  %reduce_sum.1410 = f32[] parameter(0), metadata={op_name="reduce_sum"}
  %reduce_sum.1411 = f32[] parameter(1), metadata={op_name="reduce_sum"}
  ROOT %reduce_sum.1412 = f32[] add(%reduce_sum.1410, %reduce_sum.1411), metadata={op_name="jit(train_step)/transpose(jvp(_Model))/Transformer/encoderblock_5/MultiHeadDotProductAttention_0/reduce_sum" stack_frame_id=14}
}

%region_219.225 (reduce_sum.1417: f32[], reduce_sum.1418: f32[]) -> f32[] {
  %reduce_sum.1417 = f32[] parameter(0), metadata={op_name="reduce_sum"}
  %reduce_sum.1418 = f32[] parameter(1), metadata={op_name="reduce_sum"}
  ROOT %reduce_sum.1419 = f32[] add(%reduce_sum.1417, %reduce_sum.1418), metadata={op_name="jit(train_step)/transpose(jvp(_Model))/Transformer/encoderblock_5/MultiHeadDotProductAttention_0/reduce_sum" stack_frame_id=14}
}

%region_226.232 (reduce_sum.1466: f32[], reduce_sum.1467: f32[]) -> f32[] {
  %reduce_sum.1466 = f32[] parameter(0), metadata={op_name="reduce_sum"}
  %reduce_sum.1467 = f32[] parameter(1), metadata={op_name="reduce_sum"}
  ROOT %reduce_sum.1468 = f32[] add(%reduce_sum.1466, %reduce_sum.1467), metadata={op_name="jit(train_step)/transpose(jvp(_Model))/Transformer/encoderblock_5/LayerNorm_0/reduce_sum" stack_frame_id=59}
}

%region_228.234 (reduce_sum.1480: f32[], reduce_sum.1481: f32[]) -> f32[] {
  %reduce_sum.1480 = f32[] parameter(0), metadata={op_name="reduce_sum"}
  %reduce_sum.1481 = f32[] parameter(1), metadata={op_name="reduce_sum"}
  ROOT %reduce_sum.1482 = f32[] add(%reduce_sum.1480, %reduce_sum.1481), metadata={op_name="jit(train_step)/transpose(jvp(_Model))/Transformer/encoderblock_5/LayerNorm_0/reduce_sum" stack_frame_id=61}
}

%region_225.231 (reduce_sum.1459: f32[], reduce_sum.1460: f32[]) -> f32[] {
  %reduce_sum.1459 = f32[] parameter(0), metadata={op_name="reduce_sum"}
  %reduce_sum.1460 = f32[] parameter(1), metadata={op_name="reduce_sum"}
  ROOT %reduce_sum.1461 = f32[] add(%reduce_sum.1459, %reduce_sum.1460), metadata={op_name="jit(train_step)/transpose(jvp(_Model))/Transformer/encoderblock_5/LayerNorm_0/reduce_sum" stack_frame_id=58}
}

%region_227.233 (reduce_sum.1473: f32[], reduce_sum.1474: f32[]) -> f32[] {
  %reduce_sum.1473 = f32[] parameter(0), metadata={op_name="reduce_sum"}
  %reduce_sum.1474 = f32[] parameter(1), metadata={op_name="reduce_sum"}
  ROOT %reduce_sum.1475 = f32[] add(%reduce_sum.1473, %reduce_sum.1474), metadata={op_name="jit(train_step)/transpose(jvp(_Model))/Transformer/encoderblock_5/LayerNorm_0/reduce_sum" stack_frame_id=60}
}

%region_234.240 (reduce_sum.1522: f32[], reduce_sum.1523: f32[]) -> f32[] {
  %reduce_sum.1522 = f32[] parameter(0), metadata={op_name="reduce_sum"}
  %reduce_sum.1523 = f32[] parameter(1), metadata={op_name="reduce_sum"}
  ROOT %reduce_sum.1524 = f32[] add(%reduce_sum.1522, %reduce_sum.1523), metadata={op_name="jit(train_step)/transpose(jvp(_Model))/Transformer/encoderblock_4/LayerNorm_1/reduce_sum" stack_frame_id=45}
}

%region_236.242 (reduce_sum.1536: f32[], reduce_sum.1537: f32[]) -> f32[] {
  %reduce_sum.1536 = f32[] parameter(0), metadata={op_name="reduce_sum"}
  %reduce_sum.1537 = f32[] parameter(1), metadata={op_name="reduce_sum"}
  ROOT %reduce_sum.1538 = f32[] add(%reduce_sum.1536, %reduce_sum.1537), metadata={op_name="jit(train_step)/transpose(jvp(_Model))/Transformer/encoderblock_4/LayerNorm_1/reduce_sum" stack_frame_id=47}
}

%region_233.239 (reduce_sum.1515: f32[], reduce_sum.1516: f32[]) -> f32[] {
  %reduce_sum.1515 = f32[] parameter(0), metadata={op_name="reduce_sum"}
  %reduce_sum.1516 = f32[] parameter(1), metadata={op_name="reduce_sum"}
  ROOT %reduce_sum.1517 = f32[] add(%reduce_sum.1515, %reduce_sum.1516), metadata={op_name="jit(train_step)/transpose(jvp(_Model))/Transformer/encoderblock_4/LayerNorm_1/reduce_sum" stack_frame_id=44}
}

%region_235.241 (reduce_sum.1529: f32[], reduce_sum.1530: f32[]) -> f32[] {
  %reduce_sum.1529 = f32[] parameter(0), metadata={op_name="reduce_sum"}
  %reduce_sum.1530 = f32[] parameter(1), metadata={op_name="reduce_sum"}
  ROOT %reduce_sum.1531 = f32[] add(%reduce_sum.1529, %reduce_sum.1530), metadata={op_name="jit(train_step)/transpose(jvp(_Model))/Transformer/encoderblock_4/LayerNorm_1/reduce_sum" stack_frame_id=46}
}

%region_238.244 (reduce_sum.1550: f32[], reduce_sum.1551: f32[]) -> f32[] {
  %reduce_sum.1550 = f32[] parameter(0), metadata={op_name="reduce_sum"}
  %reduce_sum.1551 = f32[] parameter(1), metadata={op_name="reduce_sum"}
  ROOT %reduce_sum.1552 = f32[] add(%reduce_sum.1550, %reduce_sum.1551), metadata={op_name="jit(train_step)/transpose(jvp(_Model))/Transformer/encoderblock_4/MultiHeadDotProductAttention_0/reduce_sum" stack_frame_id=14}
}

%region_239.245 (reduce_sum.1557: f32[], reduce_sum.1558: f32[]) -> f32[] {
  %reduce_sum.1557 = f32[] parameter(0), metadata={op_name="reduce_sum"}
  %reduce_sum.1558 = f32[] parameter(1), metadata={op_name="reduce_sum"}
  ROOT %reduce_sum.1559 = f32[] add(%reduce_sum.1557, %reduce_sum.1558), metadata={op_name="jit(train_step)/transpose(jvp(_Model))/Transformer/encoderblock_4/MultiHeadDotProductAttention_0/reduce_sum" stack_frame_id=14}
}

%region_246.252 (reduce_sum.1606: f32[], reduce_sum.1607: f32[]) -> f32[] {
  %reduce_sum.1606 = f32[] parameter(0), metadata={op_name="reduce_sum"}
  %reduce_sum.1607 = f32[] parameter(1), metadata={op_name="reduce_sum"}
  ROOT %reduce_sum.1608 = f32[] add(%reduce_sum.1606, %reduce_sum.1607), metadata={op_name="jit(train_step)/transpose(jvp(_Model))/Transformer/encoderblock_4/LayerNorm_0/reduce_sum" stack_frame_id=59}
}

%region_248.254 (reduce_sum.1620: f32[], reduce_sum.1621: f32[]) -> f32[] {
  %reduce_sum.1620 = f32[] parameter(0), metadata={op_name="reduce_sum"}
  %reduce_sum.1621 = f32[] parameter(1), metadata={op_name="reduce_sum"}
  ROOT %reduce_sum.1622 = f32[] add(%reduce_sum.1620, %reduce_sum.1621), metadata={op_name="jit(train_step)/transpose(jvp(_Model))/Transformer/encoderblock_4/LayerNorm_0/reduce_sum" stack_frame_id=61}
}

%region_245.251 (reduce_sum.1599: f32[], reduce_sum.1600: f32[]) -> f32[] {
  %reduce_sum.1599 = f32[] parameter(0), metadata={op_name="reduce_sum"}
  %reduce_sum.1600 = f32[] parameter(1), metadata={op_name="reduce_sum"}
  ROOT %reduce_sum.1601 = f32[] add(%reduce_sum.1599, %reduce_sum.1600), metadata={op_name="jit(train_step)/transpose(jvp(_Model))/Transformer/encoderblock_4/LayerNorm_0/reduce_sum" stack_frame_id=58}
}

%region_247.253 (reduce_sum.1613: f32[], reduce_sum.1614: f32[]) -> f32[] {
  %reduce_sum.1613 = f32[] parameter(0), metadata={op_name="reduce_sum"}
  %reduce_sum.1614 = f32[] parameter(1), metadata={op_name="reduce_sum"}
  ROOT %reduce_sum.1615 = f32[] add(%reduce_sum.1613, %reduce_sum.1614), metadata={op_name="jit(train_step)/transpose(jvp(_Model))/Transformer/encoderblock_4/LayerNorm_0/reduce_sum" stack_frame_id=60}
}

%region_254.260 (reduce_sum.1662: f32[], reduce_sum.1663: f32[]) -> f32[] {
  %reduce_sum.1662 = f32[] parameter(0), metadata={op_name="reduce_sum"}
  %reduce_sum.1663 = f32[] parameter(1), metadata={op_name="reduce_sum"}
  ROOT %reduce_sum.1664 = f32[] add(%reduce_sum.1662, %reduce_sum.1663), metadata={op_name="jit(train_step)/transpose(jvp(_Model))/Transformer/encoderblock_3/LayerNorm_1/reduce_sum" stack_frame_id=45}
}

%region_256.262 (reduce_sum.1676: f32[], reduce_sum.1677: f32[]) -> f32[] {
  %reduce_sum.1676 = f32[] parameter(0), metadata={op_name="reduce_sum"}
  %reduce_sum.1677 = f32[] parameter(1), metadata={op_name="reduce_sum"}
  ROOT %reduce_sum.1678 = f32[] add(%reduce_sum.1676, %reduce_sum.1677), metadata={op_name="jit(train_step)/transpose(jvp(_Model))/Transformer/encoderblock_3/LayerNorm_1/reduce_sum" stack_frame_id=47}
}

%region_253.259 (reduce_sum.1655: f32[], reduce_sum.1656: f32[]) -> f32[] {
  %reduce_sum.1655 = f32[] parameter(0), metadata={op_name="reduce_sum"}
  %reduce_sum.1656 = f32[] parameter(1), metadata={op_name="reduce_sum"}
  ROOT %reduce_sum.1657 = f32[] add(%reduce_sum.1655, %reduce_sum.1656), metadata={op_name="jit(train_step)/transpose(jvp(_Model))/Transformer/encoderblock_3/LayerNorm_1/reduce_sum" stack_frame_id=44}
}

%region_255.261 (reduce_sum.1669: f32[], reduce_sum.1670: f32[]) -> f32[] {
  %reduce_sum.1669 = f32[] parameter(0), metadata={op_name="reduce_sum"}
  %reduce_sum.1670 = f32[] parameter(1), metadata={op_name="reduce_sum"}
  ROOT %reduce_sum.1671 = f32[] add(%reduce_sum.1669, %reduce_sum.1670), metadata={op_name="jit(train_step)/transpose(jvp(_Model))/Transformer/encoderblock_3/LayerNorm_1/reduce_sum" stack_frame_id=46}
}

%region_258.264 (reduce_sum.1690: f32[], reduce_sum.1691: f32[]) -> f32[] {
  %reduce_sum.1690 = f32[] parameter(0), metadata={op_name="reduce_sum"}
  %reduce_sum.1691 = f32[] parameter(1), metadata={op_name="reduce_sum"}
  ROOT %reduce_sum.1692 = f32[] add(%reduce_sum.1690, %reduce_sum.1691), metadata={op_name="jit(train_step)/transpose(jvp(_Model))/Transformer/encoderblock_3/MultiHeadDotProductAttention_0/reduce_sum" stack_frame_id=14}
}

%region_259.265 (reduce_sum.1697: f32[], reduce_sum.1698: f32[]) -> f32[] {
  %reduce_sum.1697 = f32[] parameter(0), metadata={op_name="reduce_sum"}
  %reduce_sum.1698 = f32[] parameter(1), metadata={op_name="reduce_sum"}
  ROOT %reduce_sum.1699 = f32[] add(%reduce_sum.1697, %reduce_sum.1698), metadata={op_name="jit(train_step)/transpose(jvp(_Model))/Transformer/encoderblock_3/MultiHeadDotProductAttention_0/reduce_sum" stack_frame_id=14}
}

%region_266.272 (reduce_sum.1746: f32[], reduce_sum.1747: f32[]) -> f32[] {
  %reduce_sum.1746 = f32[] parameter(0), metadata={op_name="reduce_sum"}
  %reduce_sum.1747 = f32[] parameter(1), metadata={op_name="reduce_sum"}
  ROOT %reduce_sum.1748 = f32[] add(%reduce_sum.1746, %reduce_sum.1747), metadata={op_name="jit(train_step)/transpose(jvp(_Model))/Transformer/encoderblock_3/LayerNorm_0/reduce_sum" stack_frame_id=59}
}

%region_268.274 (reduce_sum.1760: f32[], reduce_sum.1761: f32[]) -> f32[] {
  %reduce_sum.1760 = f32[] parameter(0), metadata={op_name="reduce_sum"}
  %reduce_sum.1761 = f32[] parameter(1), metadata={op_name="reduce_sum"}
  ROOT %reduce_sum.1762 = f32[] add(%reduce_sum.1760, %reduce_sum.1761), metadata={op_name="jit(train_step)/transpose(jvp(_Model))/Transformer/encoderblock_3/LayerNorm_0/reduce_sum" stack_frame_id=61}
}

%region_265.271 (reduce_sum.1739: f32[], reduce_sum.1740: f32[]) -> f32[] {
  %reduce_sum.1739 = f32[] parameter(0), metadata={op_name="reduce_sum"}
  %reduce_sum.1740 = f32[] parameter(1), metadata={op_name="reduce_sum"}
  ROOT %reduce_sum.1741 = f32[] add(%reduce_sum.1739, %reduce_sum.1740), metadata={op_name="jit(train_step)/transpose(jvp(_Model))/Transformer/encoderblock_3/LayerNorm_0/reduce_sum" stack_frame_id=58}
}

%region_267.273 (reduce_sum.1753: f32[], reduce_sum.1754: f32[]) -> f32[] {
  %reduce_sum.1753 = f32[] parameter(0), metadata={op_name="reduce_sum"}
  %reduce_sum.1754 = f32[] parameter(1), metadata={op_name="reduce_sum"}
  ROOT %reduce_sum.1755 = f32[] add(%reduce_sum.1753, %reduce_sum.1754), metadata={op_name="jit(train_step)/transpose(jvp(_Model))/Transformer/encoderblock_3/LayerNorm_0/reduce_sum" stack_frame_id=60}
}

%region_274.280 (reduce_sum.1802: f32[], reduce_sum.1803: f32[]) -> f32[] {
  %reduce_sum.1802 = f32[] parameter(0), metadata={op_name="reduce_sum"}
  %reduce_sum.1803 = f32[] parameter(1), metadata={op_name="reduce_sum"}
  ROOT %reduce_sum.1804 = f32[] add(%reduce_sum.1802, %reduce_sum.1803), metadata={op_name="jit(train_step)/transpose(jvp(_Model))/Transformer/encoderblock_2/LayerNorm_1/reduce_sum" stack_frame_id=45}
}

%region_276.282 (reduce_sum.1816: f32[], reduce_sum.1817: f32[]) -> f32[] {
  %reduce_sum.1816 = f32[] parameter(0), metadata={op_name="reduce_sum"}
  %reduce_sum.1817 = f32[] parameter(1), metadata={op_name="reduce_sum"}
  ROOT %reduce_sum.1818 = f32[] add(%reduce_sum.1816, %reduce_sum.1817), metadata={op_name="jit(train_step)/transpose(jvp(_Model))/Transformer/encoderblock_2/LayerNorm_1/reduce_sum" stack_frame_id=47}
}

%region_273.279 (reduce_sum.1795: f32[], reduce_sum.1796: f32[]) -> f32[] {
  %reduce_sum.1795 = f32[] parameter(0), metadata={op_name="reduce_sum"}
  %reduce_sum.1796 = f32[] parameter(1), metadata={op_name="reduce_sum"}
  ROOT %reduce_sum.1797 = f32[] add(%reduce_sum.1795, %reduce_sum.1796), metadata={op_name="jit(train_step)/transpose(jvp(_Model))/Transformer/encoderblock_2/LayerNorm_1/reduce_sum" stack_frame_id=44}
}

%region_275.281 (reduce_sum.1809: f32[], reduce_sum.1810: f32[]) -> f32[] {
  %reduce_sum.1809 = f32[] parameter(0), metadata={op_name="reduce_sum"}
  %reduce_sum.1810 = f32[] parameter(1), metadata={op_name="reduce_sum"}
  ROOT %reduce_sum.1811 = f32[] add(%reduce_sum.1809, %reduce_sum.1810), metadata={op_name="jit(train_step)/transpose(jvp(_Model))/Transformer/encoderblock_2/LayerNorm_1/reduce_sum" stack_frame_id=46}
}

%region_278.284 (reduce_sum.1830: f32[], reduce_sum.1831: f32[]) -> f32[] {
  %reduce_sum.1830 = f32[] parameter(0), metadata={op_name="reduce_sum"}
  %reduce_sum.1831 = f32[] parameter(1), metadata={op_name="reduce_sum"}
  ROOT %reduce_sum.1832 = f32[] add(%reduce_sum.1830, %reduce_sum.1831), metadata={op_name="jit(train_step)/transpose(jvp(_Model))/Transformer/encoderblock_2/MultiHeadDotProductAttention_0/reduce_sum" stack_frame_id=14}
}

%region_279.285 (reduce_sum.1837: f32[], reduce_sum.1838: f32[]) -> f32[] {
  %reduce_sum.1837 = f32[] parameter(0), metadata={op_name="reduce_sum"}
  %reduce_sum.1838 = f32[] parameter(1), metadata={op_name="reduce_sum"}
  ROOT %reduce_sum.1839 = f32[] add(%reduce_sum.1837, %reduce_sum.1838), metadata={op_name="jit(train_step)/transpose(jvp(_Model))/Transformer/encoderblock_2/MultiHeadDotProductAttention_0/reduce_sum" stack_frame_id=14}
}

%region_286.292 (reduce_sum.1886: f32[], reduce_sum.1887: f32[]) -> f32[] {
  %reduce_sum.1886 = f32[] parameter(0), metadata={op_name="reduce_sum"}
  %reduce_sum.1887 = f32[] parameter(1), metadata={op_name="reduce_sum"}
  ROOT %reduce_sum.1888 = f32[] add(%reduce_sum.1886, %reduce_sum.1887), metadata={op_name="jit(train_step)/transpose(jvp(_Model))/Transformer/encoderblock_2/LayerNorm_0/reduce_sum" stack_frame_id=59}
}

%region_288.294 (reduce_sum.1900: f32[], reduce_sum.1901: f32[]) -> f32[] {
  %reduce_sum.1900 = f32[] parameter(0), metadata={op_name="reduce_sum"}
  %reduce_sum.1901 = f32[] parameter(1), metadata={op_name="reduce_sum"}
  ROOT %reduce_sum.1902 = f32[] add(%reduce_sum.1900, %reduce_sum.1901), metadata={op_name="jit(train_step)/transpose(jvp(_Model))/Transformer/encoderblock_2/LayerNorm_0/reduce_sum" stack_frame_id=61}
}

%region_285.291 (reduce_sum.1879: f32[], reduce_sum.1880: f32[]) -> f32[] {
  %reduce_sum.1879 = f32[] parameter(0), metadata={op_name="reduce_sum"}
  %reduce_sum.1880 = f32[] parameter(1), metadata={op_name="reduce_sum"}
  ROOT %reduce_sum.1881 = f32[] add(%reduce_sum.1879, %reduce_sum.1880), metadata={op_name="jit(train_step)/transpose(jvp(_Model))/Transformer/encoderblock_2/LayerNorm_0/reduce_sum" stack_frame_id=58}
}

%region_287.293 (reduce_sum.1893: f32[], reduce_sum.1894: f32[]) -> f32[] {
  %reduce_sum.1893 = f32[] parameter(0), metadata={op_name="reduce_sum"}
  %reduce_sum.1894 = f32[] parameter(1), metadata={op_name="reduce_sum"}
  ROOT %reduce_sum.1895 = f32[] add(%reduce_sum.1893, %reduce_sum.1894), metadata={op_name="jit(train_step)/transpose(jvp(_Model))/Transformer/encoderblock_2/LayerNorm_0/reduce_sum" stack_frame_id=60}
}

%region_294.300 (reduce_sum.1942: f32[], reduce_sum.1943: f32[]) -> f32[] {
  %reduce_sum.1942 = f32[] parameter(0), metadata={op_name="reduce_sum"}
  %reduce_sum.1943 = f32[] parameter(1), metadata={op_name="reduce_sum"}
  ROOT %reduce_sum.1944 = f32[] add(%reduce_sum.1942, %reduce_sum.1943), metadata={op_name="jit(train_step)/transpose(jvp(_Model))/Transformer/encoderblock_1/LayerNorm_1/reduce_sum" stack_frame_id=45}
}

%region_296.302 (reduce_sum.1956: f32[], reduce_sum.1957: f32[]) -> f32[] {
  %reduce_sum.1956 = f32[] parameter(0), metadata={op_name="reduce_sum"}
  %reduce_sum.1957 = f32[] parameter(1), metadata={op_name="reduce_sum"}
  ROOT %reduce_sum.1958 = f32[] add(%reduce_sum.1956, %reduce_sum.1957), metadata={op_name="jit(train_step)/transpose(jvp(_Model))/Transformer/encoderblock_1/LayerNorm_1/reduce_sum" stack_frame_id=47}
}

%region_293.299 (reduce_sum.1935: f32[], reduce_sum.1936: f32[]) -> f32[] {
  %reduce_sum.1935 = f32[] parameter(0), metadata={op_name="reduce_sum"}
  %reduce_sum.1936 = f32[] parameter(1), metadata={op_name="reduce_sum"}
  ROOT %reduce_sum.1937 = f32[] add(%reduce_sum.1935, %reduce_sum.1936), metadata={op_name="jit(train_step)/transpose(jvp(_Model))/Transformer/encoderblock_1/LayerNorm_1/reduce_sum" stack_frame_id=44}
}

%region_295.301 (reduce_sum.1949: f32[], reduce_sum.1950: f32[]) -> f32[] {
  %reduce_sum.1949 = f32[] parameter(0), metadata={op_name="reduce_sum"}
  %reduce_sum.1950 = f32[] parameter(1), metadata={op_name="reduce_sum"}
  ROOT %reduce_sum.1951 = f32[] add(%reduce_sum.1949, %reduce_sum.1950), metadata={op_name="jit(train_step)/transpose(jvp(_Model))/Transformer/encoderblock_1/LayerNorm_1/reduce_sum" stack_frame_id=46}
}

%region_298.304 (reduce_sum.1970: f32[], reduce_sum.1971: f32[]) -> f32[] {
  %reduce_sum.1970 = f32[] parameter(0), metadata={op_name="reduce_sum"}
  %reduce_sum.1971 = f32[] parameter(1), metadata={op_name="reduce_sum"}
  ROOT %reduce_sum.1972 = f32[] add(%reduce_sum.1970, %reduce_sum.1971), metadata={op_name="jit(train_step)/transpose(jvp(_Model))/Transformer/encoderblock_1/MultiHeadDotProductAttention_0/reduce_sum" stack_frame_id=14}
}

%region_299.305 (reduce_sum.1977: f32[], reduce_sum.1978: f32[]) -> f32[] {
  %reduce_sum.1977 = f32[] parameter(0), metadata={op_name="reduce_sum"}
  %reduce_sum.1978 = f32[] parameter(1), metadata={op_name="reduce_sum"}
  ROOT %reduce_sum.1979 = f32[] add(%reduce_sum.1977, %reduce_sum.1978), metadata={op_name="jit(train_step)/transpose(jvp(_Model))/Transformer/encoderblock_1/MultiHeadDotProductAttention_0/reduce_sum" stack_frame_id=14}
}

%region_306.312 (reduce_sum.2026: f32[], reduce_sum.2027: f32[]) -> f32[] {
  %reduce_sum.2026 = f32[] parameter(0), metadata={op_name="reduce_sum"}
  %reduce_sum.2027 = f32[] parameter(1), metadata={op_name="reduce_sum"}
  ROOT %reduce_sum.2028 = f32[] add(%reduce_sum.2026, %reduce_sum.2027), metadata={op_name="jit(train_step)/transpose(jvp(_Model))/Transformer/encoderblock_1/LayerNorm_0/reduce_sum" stack_frame_id=59}
}

%region_308.314 (reduce_sum.2040: f32[], reduce_sum.2041: f32[]) -> f32[] {
  %reduce_sum.2040 = f32[] parameter(0), metadata={op_name="reduce_sum"}
  %reduce_sum.2041 = f32[] parameter(1), metadata={op_name="reduce_sum"}
  ROOT %reduce_sum.2042 = f32[] add(%reduce_sum.2040, %reduce_sum.2041), metadata={op_name="jit(train_step)/transpose(jvp(_Model))/Transformer/encoderblock_1/LayerNorm_0/reduce_sum" stack_frame_id=61}
}

%region_305.311 (reduce_sum.2019: f32[], reduce_sum.2020: f32[]) -> f32[] {
  %reduce_sum.2019 = f32[] parameter(0), metadata={op_name="reduce_sum"}
  %reduce_sum.2020 = f32[] parameter(1), metadata={op_name="reduce_sum"}
  ROOT %reduce_sum.2021 = f32[] add(%reduce_sum.2019, %reduce_sum.2020), metadata={op_name="jit(train_step)/transpose(jvp(_Model))/Transformer/encoderblock_1/LayerNorm_0/reduce_sum" stack_frame_id=58}
}

%region_307.313 (reduce_sum.2033: f32[], reduce_sum.2034: f32[]) -> f32[] {
  %reduce_sum.2033 = f32[] parameter(0), metadata={op_name="reduce_sum"}
  %reduce_sum.2034 = f32[] parameter(1), metadata={op_name="reduce_sum"}
  ROOT %reduce_sum.2035 = f32[] add(%reduce_sum.2033, %reduce_sum.2034), metadata={op_name="jit(train_step)/transpose(jvp(_Model))/Transformer/encoderblock_1/LayerNorm_0/reduce_sum" stack_frame_id=60}
}

%region_314.320 (reduce_sum.2082: f32[], reduce_sum.2083: f32[]) -> f32[] {
  %reduce_sum.2082 = f32[] parameter(0), metadata={op_name="reduce_sum"}
  %reduce_sum.2083 = f32[] parameter(1), metadata={op_name="reduce_sum"}
  ROOT %reduce_sum.2084 = f32[] add(%reduce_sum.2082, %reduce_sum.2083), metadata={op_name="jit(train_step)/transpose(jvp(_Model))/Transformer/encoderblock_0/LayerNorm_1/reduce_sum" stack_frame_id=45}
}

%region_316.322 (reduce_sum.2096: f32[], reduce_sum.2097: f32[]) -> f32[] {
  %reduce_sum.2096 = f32[] parameter(0), metadata={op_name="reduce_sum"}
  %reduce_sum.2097 = f32[] parameter(1), metadata={op_name="reduce_sum"}
  ROOT %reduce_sum.2098 = f32[] add(%reduce_sum.2096, %reduce_sum.2097), metadata={op_name="jit(train_step)/transpose(jvp(_Model))/Transformer/encoderblock_0/LayerNorm_1/reduce_sum" stack_frame_id=47}
}

%region_313.319 (reduce_sum.2075: f32[], reduce_sum.2076: f32[]) -> f32[] {
  %reduce_sum.2075 = f32[] parameter(0), metadata={op_name="reduce_sum"}
  %reduce_sum.2076 = f32[] parameter(1), metadata={op_name="reduce_sum"}
  ROOT %reduce_sum.2077 = f32[] add(%reduce_sum.2075, %reduce_sum.2076), metadata={op_name="jit(train_step)/transpose(jvp(_Model))/Transformer/encoderblock_0/LayerNorm_1/reduce_sum" stack_frame_id=44}
}

%region_315.321 (reduce_sum.2089: f32[], reduce_sum.2090: f32[]) -> f32[] {
  %reduce_sum.2089 = f32[] parameter(0), metadata={op_name="reduce_sum"}
  %reduce_sum.2090 = f32[] parameter(1), metadata={op_name="reduce_sum"}
  ROOT %reduce_sum.2091 = f32[] add(%reduce_sum.2089, %reduce_sum.2090), metadata={op_name="jit(train_step)/transpose(jvp(_Model))/Transformer/encoderblock_0/LayerNorm_1/reduce_sum" stack_frame_id=46}
}

%region_318.324 (reduce_sum.2110: f32[], reduce_sum.2111: f32[]) -> f32[] {
  %reduce_sum.2110 = f32[] parameter(0), metadata={op_name="reduce_sum"}
  %reduce_sum.2111 = f32[] parameter(1), metadata={op_name="reduce_sum"}
  ROOT %reduce_sum.2112 = f32[] add(%reduce_sum.2110, %reduce_sum.2111), metadata={op_name="jit(train_step)/transpose(jvp(_Model))/Transformer/encoderblock_0/MultiHeadDotProductAttention_0/reduce_sum" stack_frame_id=14}
}

%region_319.325 (reduce_sum.2117: f32[], reduce_sum.2118: f32[]) -> f32[] {
  %reduce_sum.2117 = f32[] parameter(0), metadata={op_name="reduce_sum"}
  %reduce_sum.2118 = f32[] parameter(1), metadata={op_name="reduce_sum"}
  ROOT %reduce_sum.2119 = f32[] add(%reduce_sum.2117, %reduce_sum.2118), metadata={op_name="jit(train_step)/transpose(jvp(_Model))/Transformer/encoderblock_0/MultiHeadDotProductAttention_0/reduce_sum" stack_frame_id=14}
}

%region_323.329 (reduce_sum.2145: f32[], reduce_sum.2146: f32[]) -> f32[] {
  %reduce_sum.2145 = f32[] parameter(0), metadata={op_name="reduce_sum"}
  %reduce_sum.2146 = f32[] parameter(1), metadata={op_name="reduce_sum"}
  ROOT %reduce_sum.2147 = f32[] add(%reduce_sum.2145, %reduce_sum.2146), metadata={op_name="jit(train_step)/transpose(jvp(_Model))/Transformer/encoderblock_0/LayerNorm_0/reduce_sum" stack_frame_id=57}
}

%region_324.330 (reduce_sum.2152: f32[], reduce_sum.2153: f32[]) -> f32[] {
  %reduce_sum.2152 = f32[] parameter(0), metadata={op_name="reduce_sum"}
  %reduce_sum.2153 = f32[] parameter(1), metadata={op_name="reduce_sum"}
  ROOT %reduce_sum.2154 = f32[] add(%reduce_sum.2152, %reduce_sum.2153), metadata={op_name="jit(train_step)/transpose(jvp(_Model))/Transformer/encoderblock_0/LayerNorm_0/reduce_sum" stack_frame_id=58}
}

%region_311.317 (reduce_sum.2061: f32[], reduce_sum.2062: f32[]) -> f32[] {
  %reduce_sum.2061 = f32[] parameter(0), metadata={op_name="reduce_sum"}
  %reduce_sum.2062 = f32[] parameter(1), metadata={op_name="reduce_sum"}
  ROOT %reduce_sum.2063 = f32[] add(%reduce_sum.2061, %reduce_sum.2062), metadata={op_name="jit(train_step)/transpose(jvp(_Model))/Transformer/encoderblock_0/LayerNorm_1/reduce_sum" stack_frame_id=43}
}

%region_312.318 (reduce_sum.2068: f32[], reduce_sum.2069: f32[]) -> f32[] {
  %reduce_sum.2068 = f32[] parameter(0), metadata={op_name="reduce_sum"}
  %reduce_sum.2069 = f32[] parameter(1), metadata={op_name="reduce_sum"}
  ROOT %reduce_sum.2070 = f32[] add(%reduce_sum.2068, %reduce_sum.2069), metadata={op_name="jit(train_step)/transpose(jvp(_Model))/Transformer/encoderblock_0/LayerNorm_1/reduce_sum" stack_frame_id=44}
}

%region_310.316 (reduce_sum.2054: f32[], reduce_sum.2055: f32[]) -> f32[] {
  %reduce_sum.2054 = f32[] parameter(0), metadata={op_name="reduce_sum"}
  %reduce_sum.2055 = f32[] parameter(1), metadata={op_name="reduce_sum"}
  ROOT %reduce_sum.2056 = f32[] add(%reduce_sum.2054, %reduce_sum.2055), metadata={op_name="jit(train_step)/transpose(jvp(_Model))/Transformer/encoderblock_0/MlpBlock_0/Dense_0/reduce_sum" stack_frame_id=41}
}

%region_309.315 (reduce_sum.2047: f32[], reduce_sum.2048: f32[]) -> f32[] {
  %reduce_sum.2047 = f32[] parameter(0), metadata={op_name="reduce_sum"}
  %reduce_sum.2048 = f32[] parameter(1), metadata={op_name="reduce_sum"}
  ROOT %reduce_sum.2049 = f32[] add(%reduce_sum.2047, %reduce_sum.2048), metadata={op_name="jit(train_step)/transpose(jvp(_Model))/Transformer/encoderblock_0/MlpBlock_0/Dense_1/reduce_sum" stack_frame_id=39}
}

%region_321.327 (reduce_sum.2131: f32[], reduce_sum.2132: f32[]) -> f32[] {
  %reduce_sum.2131 = f32[] parameter(0), metadata={op_name="reduce_sum"}
  %reduce_sum.2132 = f32[] parameter(1), metadata={op_name="reduce_sum"}
  ROOT %reduce_sum.2133 = f32[] add(%reduce_sum.2131, %reduce_sum.2132), metadata={op_name="jit(train_step)/transpose(jvp(_Model))/Transformer/encoderblock_0/MultiHeadDotProductAttention_0/key/reduce_sum" stack_frame_id=53}
}

%region_317.323 (reduce_sum.2103: f32[], reduce_sum.2104: f32[]) -> f32[] {
  %reduce_sum.2103 = f32[] parameter(0), metadata={op_name="reduce_sum"}
  %reduce_sum.2104 = f32[] parameter(1), metadata={op_name="reduce_sum"}
  ROOT %reduce_sum.2105 = f32[] add(%reduce_sum.2103, %reduce_sum.2104), metadata={op_name="jit(train_step)/transpose(jvp(_Model))/Transformer/encoderblock_0/MultiHeadDotProductAttention_0/out/reduce_sum" stack_frame_id=49}
}

%region_322.328 (reduce_sum.2138: f32[], reduce_sum.2139: f32[]) -> f32[] {
  %reduce_sum.2138 = f32[] parameter(0), metadata={op_name="reduce_sum"}
  %reduce_sum.2139 = f32[] parameter(1), metadata={op_name="reduce_sum"}
  ROOT %reduce_sum.2140 = f32[] add(%reduce_sum.2138, %reduce_sum.2139), metadata={op_name="jit(train_step)/transpose(jvp(_Model))/Transformer/encoderblock_0/MultiHeadDotProductAttention_0/query/reduce_sum" stack_frame_id=55}
}

%region_320.326 (reduce_sum.2124: f32[], reduce_sum.2125: f32[]) -> f32[] {
  %reduce_sum.2124 = f32[] parameter(0), metadata={op_name="reduce_sum"}
  %reduce_sum.2125 = f32[] parameter(1), metadata={op_name="reduce_sum"}
  ROOT %reduce_sum.2126 = f32[] add(%reduce_sum.2124, %reduce_sum.2125), metadata={op_name="jit(train_step)/transpose(jvp(_Model))/Transformer/encoderblock_0/MultiHeadDotProductAttention_0/value/reduce_sum" stack_frame_id=51}
}

%region_303.309 (reduce_sum.2005: f32[], reduce_sum.2006: f32[]) -> f32[] {
  %reduce_sum.2005 = f32[] parameter(0), metadata={op_name="reduce_sum"}
  %reduce_sum.2006 = f32[] parameter(1), metadata={op_name="reduce_sum"}
  ROOT %reduce_sum.2007 = f32[] add(%reduce_sum.2005, %reduce_sum.2006), metadata={op_name="jit(train_step)/transpose(jvp(_Model))/Transformer/encoderblock_1/LayerNorm_0/reduce_sum" stack_frame_id=57}
}

%region_304.310 (reduce_sum.2012: f32[], reduce_sum.2013: f32[]) -> f32[] {
  %reduce_sum.2012 = f32[] parameter(0), metadata={op_name="reduce_sum"}
  %reduce_sum.2013 = f32[] parameter(1), metadata={op_name="reduce_sum"}
  ROOT %reduce_sum.2014 = f32[] add(%reduce_sum.2012, %reduce_sum.2013), metadata={op_name="jit(train_step)/transpose(jvp(_Model))/Transformer/encoderblock_1/LayerNorm_0/reduce_sum" stack_frame_id=58}
}

%region_291.297 (reduce_sum.1921: f32[], reduce_sum.1922: f32[]) -> f32[] {
  %reduce_sum.1921 = f32[] parameter(0), metadata={op_name="reduce_sum"}
  %reduce_sum.1922 = f32[] parameter(1), metadata={op_name="reduce_sum"}
  ROOT %reduce_sum.1923 = f32[] add(%reduce_sum.1921, %reduce_sum.1922), metadata={op_name="jit(train_step)/transpose(jvp(_Model))/Transformer/encoderblock_1/LayerNorm_1/reduce_sum" stack_frame_id=43}
}

%region_292.298 (reduce_sum.1928: f32[], reduce_sum.1929: f32[]) -> f32[] {
  %reduce_sum.1928 = f32[] parameter(0), metadata={op_name="reduce_sum"}
  %reduce_sum.1929 = f32[] parameter(1), metadata={op_name="reduce_sum"}
  ROOT %reduce_sum.1930 = f32[] add(%reduce_sum.1928, %reduce_sum.1929), metadata={op_name="jit(train_step)/transpose(jvp(_Model))/Transformer/encoderblock_1/LayerNorm_1/reduce_sum" stack_frame_id=44}
}

%region_290.296 (reduce_sum.1914: f32[], reduce_sum.1915: f32[]) -> f32[] {
  %reduce_sum.1914 = f32[] parameter(0), metadata={op_name="reduce_sum"}
  %reduce_sum.1915 = f32[] parameter(1), metadata={op_name="reduce_sum"}
  ROOT %reduce_sum.1916 = f32[] add(%reduce_sum.1914, %reduce_sum.1915), metadata={op_name="jit(train_step)/transpose(jvp(_Model))/Transformer/encoderblock_1/MlpBlock_0/Dense_0/reduce_sum" stack_frame_id=41}
}

%region_289.295 (reduce_sum.1907: f32[], reduce_sum.1908: f32[]) -> f32[] {
  %reduce_sum.1907 = f32[] parameter(0), metadata={op_name="reduce_sum"}
  %reduce_sum.1908 = f32[] parameter(1), metadata={op_name="reduce_sum"}
  ROOT %reduce_sum.1909 = f32[] add(%reduce_sum.1907, %reduce_sum.1908), metadata={op_name="jit(train_step)/transpose(jvp(_Model))/Transformer/encoderblock_1/MlpBlock_0/Dense_1/reduce_sum" stack_frame_id=39}
}

%region_301.307 (reduce_sum.1991: f32[], reduce_sum.1992: f32[]) -> f32[] {
  %reduce_sum.1991 = f32[] parameter(0), metadata={op_name="reduce_sum"}
  %reduce_sum.1992 = f32[] parameter(1), metadata={op_name="reduce_sum"}
  ROOT %reduce_sum.1993 = f32[] add(%reduce_sum.1991, %reduce_sum.1992), metadata={op_name="jit(train_step)/transpose(jvp(_Model))/Transformer/encoderblock_1/MultiHeadDotProductAttention_0/key/reduce_sum" stack_frame_id=53}
}

%region_297.303 (reduce_sum.1963: f32[], reduce_sum.1964: f32[]) -> f32[] {
  %reduce_sum.1963 = f32[] parameter(0), metadata={op_name="reduce_sum"}
  %reduce_sum.1964 = f32[] parameter(1), metadata={op_name="reduce_sum"}
  ROOT %reduce_sum.1965 = f32[] add(%reduce_sum.1963, %reduce_sum.1964), metadata={op_name="jit(train_step)/transpose(jvp(_Model))/Transformer/encoderblock_1/MultiHeadDotProductAttention_0/out/reduce_sum" stack_frame_id=49}
}

%region_302.308 (reduce_sum.1998: f32[], reduce_sum.1999: f32[]) -> f32[] {
  %reduce_sum.1998 = f32[] parameter(0), metadata={op_name="reduce_sum"}
  %reduce_sum.1999 = f32[] parameter(1), metadata={op_name="reduce_sum"}
  ROOT %reduce_sum.2000 = f32[] add(%reduce_sum.1998, %reduce_sum.1999), metadata={op_name="jit(train_step)/transpose(jvp(_Model))/Transformer/encoderblock_1/MultiHeadDotProductAttention_0/query/reduce_sum" stack_frame_id=55}
}

%region_300.306 (reduce_sum.1984: f32[], reduce_sum.1985: f32[]) -> f32[] {
  %reduce_sum.1984 = f32[] parameter(0), metadata={op_name="reduce_sum"}
  %reduce_sum.1985 = f32[] parameter(1), metadata={op_name="reduce_sum"}
  ROOT %reduce_sum.1986 = f32[] add(%reduce_sum.1984, %reduce_sum.1985), metadata={op_name="jit(train_step)/transpose(jvp(_Model))/Transformer/encoderblock_1/MultiHeadDotProductAttention_0/value/reduce_sum" stack_frame_id=51}
}

%region_123.129 (reduce_sum.745: f32[], reduce_sum.746: f32[]) -> f32[] {
  %reduce_sum.745 = f32[] parameter(0), metadata={op_name="reduce_sum"}
  %reduce_sum.746 = f32[] parameter(1), metadata={op_name="reduce_sum"}
  ROOT %reduce_sum.747 = f32[] add(%reduce_sum.745, %reduce_sum.746), metadata={op_name="jit(train_step)/transpose(jvp(_Model))/Transformer/encoderblock_10/LayerNorm_0/reduce_sum" stack_frame_id=57}
}

%region_124.130 (reduce_sum.752: f32[], reduce_sum.753: f32[]) -> f32[] {
  %reduce_sum.752 = f32[] parameter(0), metadata={op_name="reduce_sum"}
  %reduce_sum.753 = f32[] parameter(1), metadata={op_name="reduce_sum"}
  ROOT %reduce_sum.754 = f32[] add(%reduce_sum.752, %reduce_sum.753), metadata={op_name="jit(train_step)/transpose(jvp(_Model))/Transformer/encoderblock_10/LayerNorm_0/reduce_sum" stack_frame_id=58}
}

%region_111.117 (reduce_sum.661: f32[], reduce_sum.662: f32[]) -> f32[] {
  %reduce_sum.661 = f32[] parameter(0), metadata={op_name="reduce_sum"}
  %reduce_sum.662 = f32[] parameter(1), metadata={op_name="reduce_sum"}
  ROOT %reduce_sum.663 = f32[] add(%reduce_sum.661, %reduce_sum.662), metadata={op_name="jit(train_step)/transpose(jvp(_Model))/Transformer/encoderblock_10/LayerNorm_1/reduce_sum" stack_frame_id=43}
}

%region_112.118 (reduce_sum.668: f32[], reduce_sum.669: f32[]) -> f32[] {
  %reduce_sum.668 = f32[] parameter(0), metadata={op_name="reduce_sum"}
  %reduce_sum.669 = f32[] parameter(1), metadata={op_name="reduce_sum"}
  ROOT %reduce_sum.670 = f32[] add(%reduce_sum.668, %reduce_sum.669), metadata={op_name="jit(train_step)/transpose(jvp(_Model))/Transformer/encoderblock_10/LayerNorm_1/reduce_sum" stack_frame_id=44}
}

%region_110.116 (reduce_sum.654: f32[], reduce_sum.655: f32[]) -> f32[] {
  %reduce_sum.654 = f32[] parameter(0), metadata={op_name="reduce_sum"}
  %reduce_sum.655 = f32[] parameter(1), metadata={op_name="reduce_sum"}
  ROOT %reduce_sum.656 = f32[] add(%reduce_sum.654, %reduce_sum.655), metadata={op_name="jit(train_step)/transpose(jvp(_Model))/Transformer/encoderblock_10/MlpBlock_0/Dense_0/reduce_sum" stack_frame_id=41}
}

%region_109.115 (reduce_sum.647: f32[], reduce_sum.648: f32[]) -> f32[] {
  %reduce_sum.647 = f32[] parameter(0), metadata={op_name="reduce_sum"}
  %reduce_sum.648 = f32[] parameter(1), metadata={op_name="reduce_sum"}
  ROOT %reduce_sum.649 = f32[] add(%reduce_sum.647, %reduce_sum.648), metadata={op_name="jit(train_step)/transpose(jvp(_Model))/Transformer/encoderblock_10/MlpBlock_0/Dense_1/reduce_sum" stack_frame_id=39}
}

%region_121.127 (reduce_sum.731: f32[], reduce_sum.732: f32[]) -> f32[] {
  %reduce_sum.731 = f32[] parameter(0), metadata={op_name="reduce_sum"}
  %reduce_sum.732 = f32[] parameter(1), metadata={op_name="reduce_sum"}
  ROOT %reduce_sum.733 = f32[] add(%reduce_sum.731, %reduce_sum.732), metadata={op_name="jit(train_step)/transpose(jvp(_Model))/Transformer/encoderblock_10/MultiHeadDotProductAttention_0/key/reduce_sum" stack_frame_id=53}
}

%region_117.123 (reduce_sum.703: f32[], reduce_sum.704: f32[]) -> f32[] {
  %reduce_sum.703 = f32[] parameter(0), metadata={op_name="reduce_sum"}
  %reduce_sum.704 = f32[] parameter(1), metadata={op_name="reduce_sum"}
  ROOT %reduce_sum.705 = f32[] add(%reduce_sum.703, %reduce_sum.704), metadata={op_name="jit(train_step)/transpose(jvp(_Model))/Transformer/encoderblock_10/MultiHeadDotProductAttention_0/out/reduce_sum" stack_frame_id=49}
}

%region_122.128 (reduce_sum.738: f32[], reduce_sum.739: f32[]) -> f32[] {
  %reduce_sum.738 = f32[] parameter(0), metadata={op_name="reduce_sum"}
  %reduce_sum.739 = f32[] parameter(1), metadata={op_name="reduce_sum"}
…
  %opt_state_0__mu__Transformer____encoderblock_9____MultiHeadDotProductAttention_0____value____kernel__.1 = f32[768,12,64]{2,1,0} parameter(393), metadata={op_name="opt_state[0].mu[\'Transformer\'][\'encoderblock_9\'][\'MultiHeadDotProductAttention_0\'][\'value\'][\'kernel\']"}
  %mul.3361 = f32[768,12,64]{2,1,0} multiply(%opt_state_0__mu__Transformer____encoderblock_9____MultiHeadDotProductAttention_0____value____kernel__.1, %broadcast.103), metadata={op_name="jit(train_step)/mul" stack_frame_id=131}
  %add.2155 = f32[768,12,64]{0,2,1} add(%mul.3360, %mul.3361), metadata={op_name="jit(train_step)/add" stack_frame_id=130}
  %div.1953 = f32[768,12,64]{2,1,0} broadcast(%sub.382), dimensions={}, metadata={op_name="jit(train_step)/div" stack_frame_id=136}
  %div.1954 = f32[768,12,64]{0,2,1} divide(%add.2155, %div.1953), metadata={op_name="jit(train_step)/div" stack_frame_id=136}
  %integer_pow.464 = f32[768,12,64]{0,2,1} multiply(%transpose.173, %transpose.173), metadata={op_name="jit(train_step)/integer_pow" stack_frame_id=140}
  %mul.3758 = f32[768,12,64]{0,2,1} multiply(%integer_pow.464, %broadcast.90), metadata={op_name="jit(train_step)/mul" stack_frame_id=141}
  %opt_state_0__nu__Transformer____encoderblock_9____MultiHeadDotProductAttention_0____value____kernel__.1 = f32[768,12,64]{2,1,0} parameter(592), metadata={op_name="opt_state[0].nu[\'Transformer\'][\'encoderblock_9\'][\'MultiHeadDotProductAttention_0\'][\'value\'][\'kernel\']"}
  %mul.3759 = f32[768,12,64]{2,1,0} multiply(%opt_state_0__nu__Transformer____encoderblock_9____MultiHeadDotProductAttention_0____value____kernel__.1, %broadcast.89), metadata={op_name="jit(train_step)/mul" stack_frame_id=142}
  %add.2354 = f32[768,12,64]{0,2,1} add(%mul.3758, %mul.3759), metadata={op_name="jit(train_step)/add" stack_frame_id=141}
  %div.2351 = f32[768,12,64]{2,1,0} broadcast(%sub.383), dimensions={}, metadata={op_name="jit(train_step)/div" stack_frame_id=143}
  %div.2352 = f32[768,12,64]{0,2,1} divide(%add.2354, %div.2351), metadata={op_name="jit(train_step)/div" stack_frame_id=143}
  %sqrt.392 = f32[768,12,64]{0,2,1} sqrt(%div.2352), metadata={op_name="jit(train_step)/sqrt" stack_frame_id=145}
  %add.2554 = f32[768,12,64]{0,2,1} add(%sqrt.392, %broadcast.81), metadata={op_name="jit(train_step)/add" stack_frame_id=145}
  %div.2556 = f32[768,12,64]{0,2,1} divide(%div.1954, %add.2554), metadata={op_name="jit(train_step)/div" stack_frame_id=146}
  %mul.3963 = f32[768,12,64]{2,1,0} multiply(%params__Transformer____encoderblock_9____MultiHeadDotProductAttention_0____value____kernel__.1, %broadcast.74), metadata={op_name="jit(train_step)/mul" stack_frame_id=148}
  %add.2753 = f32[768,12,64]{0,2,1} add(%div.2556, %mul.3963), metadata={op_name="jit(train_step)/add" stack_frame_id=149}
  %mul.4162 = f32[768,12,64]{0,2,1} multiply(%add.2753, %broadcast.67), metadata={op_name="jit(train_step)/mul" stack_frame_id=151}
  %add.2952 = f32[768,12,64]{2,1,0} add(%params__Transformer____encoderblock_9____MultiHeadDotProductAttention_0____value____kernel__.1, %mul.4162), metadata={op_name="jit(train_step)/add" stack_frame_id=154}
  %mul.2961 = f32[32,196,768]{2,1,0} multiply(%add_any.341, %mul.2117), metadata={op_name="jit(train_step)/transpose(jvp(_Model))/Transformer/encoderblock_0/LayerNorm_0/mul" stack_frame_id=77}
  %add_any.342 = f32[32,196,768]{2,1,0} add(%add_any.338, %mul.2961), metadata={op_name="jit(train_step)/transpose(jvp(_Model))/Transformer/encoderblock_0/LayerNorm_0/add_any" stack_frame_id=59}
  %neg.126 = f32[32,196,768]{2,1,0} negate(%mul.2961), metadata={op_name="jit(train_step)/transpose(jvp(_Model))/Transformer/encoderblock_0/LayerNorm_0/neg" stack_frame_id=59}
  %reduce_sum.2507 = f32[32,196]{1,0} reduce(%neg.126, %constant.237), dimensions={2}, to_apply=%region_326.332, metadata={op_name="jit(train_step)/transpose(jvp(_Model))/Transformer/encoderblock_0/LayerNorm_0/reduce_sum" stack_frame_id=59}
  %reshape.377 = f32[32,196,1]{2,1,0} reshape(%reduce_sum.2507), metadata={op_name="jit(train_step)/transpose(jvp(_Model))/Transformer/encoderblock_0/LayerNorm_0/reshape" stack_frame_id=59}
  %reduce_sum.2509 = f32[32,196]{1,0} reduce(%reshape.377, %constant.237), dimensions={2}, to_apply=%region_328.334, metadata={op_name="jit(train_step)/transpose(jvp(_Model))/Transformer/encoderblock_0/LayerNorm_0/reduce_sum" stack_frame_id=61}
  %mul.2966 = f32[1,1,768]{2,1,0} broadcast(%reshape.193), dimensions={0,1,2}, metadata={op_name="jit(train_step)/transpose(jvp(_Model))/Transformer/encoderblock_0/LayerNorm_0/mul" stack_frame_id=58}
  %mul.2967 = f32[768]{0} reshape(%mul.2966), metadata={op_name="jit(train_step)/transpose(jvp(_Model))/Transformer/encoderblock_0/LayerNorm_0/mul" stack_frame_id=58}
  %mul.2968 = f32[32,196,768]{2,1,0} broadcast(%mul.2967), dimensions={2}, metadata={op_name="jit(train_step)/transpose(jvp(_Model))/Transformer/encoderblock_0/LayerNorm_0/mul" stack_frame_id=58}
  %mul.2969 = f32[32,196,768]{2,1,0} multiply(%mul.2960, %mul.2968), metadata={op_name="jit(train_step)/transpose(jvp(_Model))/Transformer/encoderblock_0/LayerNorm_0/mul" stack_frame_id=58}
  %reduce_sum.2506 = f32[32,196]{1,0} reduce(%mul.2969, %constant.237), dimensions={2}, to_apply=%region_325.331, metadata={op_name="jit(train_step)/transpose(jvp(_Model))/Transformer/encoderblock_0/LayerNorm_0/reduce_sum" stack_frame_id=58}
  %reshape.376 = f32[32,196,1]{2,1,0} reshape(%reduce_sum.2506), metadata={op_name="jit(train_step)/transpose(jvp(_Model))/Transformer/encoderblock_0/LayerNorm_0/reshape" stack_frame_id=58}
  %div.1284 = f32[32,196,1]{2,1,0} divide(%rsqrt.25, %add.1496), metadata={op_name="jit(train_step)/jvp(_Model)/Transformer/encoderblock_0/LayerNorm_0/div" stack_frame_id=75}
  %mul.2110 = f32[32,196,1]{2,1,0} multiply(%div.1284, %broadcast.125), metadata={op_name="jit(train_step)/jvp(_Model)/Transformer/encoderblock_0/LayerNorm_0/mul" stack_frame_id=75}
  %mul.2970 = f32[32,196,1]{2,1,0} multiply(%reshape.376, %mul.2110), metadata={op_name="jit(train_step)/transpose(jvp(_Model))/Transformer/encoderblock_0/LayerNorm_0/mul" stack_frame_id=75}
  %reduce_sum.2508 = f32[32,196]{1,0} reduce(%mul.2970, %constant.237), dimensions={2}, to_apply=%region_327.333, metadata={op_name="jit(train_step)/transpose(jvp(_Model))/Transformer/encoderblock_0/LayerNorm_0/reduce_sum" stack_frame_id=60}
  %eq.50 = pred[32,196]{1,0} compare(%sub.192, %max.40), direction=EQ, metadata={op_name="jit(train_step)/jvp(_Model)/Transformer/encoderblock_0/LayerNorm_0/eq" stack_frame_id=73}
  %select_n.63 = f32[32,196]{1,0} select(%eq.50, %broadcast.127, %broadcast.128), metadata={op_name="jit(train_step)/jvp(_Model)/Transformer/encoderblock_0/LayerNorm_0/select_n" stack_frame_id=73}
  %eq.51 = pred[32,196]{1,0} compare(%broadcast.128, %max.40), direction=EQ, metadata={op_name="jit(train_step)/jvp(_Model)/Transformer/encoderblock_0/LayerNorm_0/eq" stack_frame_id=73}
  %select_n.64 = f32[32,196]{1,0} select(%eq.51, %broadcast.129, %broadcast.127), metadata={op_name="jit(train_step)/jvp(_Model)/Transformer/encoderblock_0/LayerNorm_0/select_n" stack_frame_id=73}
  %div.1283 = f32[32,196]{1,0} divide(%select_n.63, %select_n.64), metadata={op_name="jit(train_step)/jvp(_Model)/Transformer/encoderblock_0/LayerNorm_0/div" stack_frame_id=73}
  %mul.2971 = f32[32,196]{1,0} multiply(%reduce_sum.2508, %div.1283), metadata={op_name="jit(train_step)/transpose(jvp(_Model))/Transformer/encoderblock_0/LayerNorm_0/mul" stack_frame_id=73}
  %neg.127 = f32[32,196]{1,0} negate(%mul.2971), metadata={op_name="jit(train_step)/transpose(jvp(_Model))/Transformer/encoderblock_0/LayerNorm_0/neg" stack_frame_id=72}
  %mul.2109 = f32[32,196]{1,0} multiply(%div.1281, %broadcast.129), metadata={op_name="jit(train_step)/jvp(_Model)/Transformer/encoderblock_0/LayerNorm_0/mul" stack_frame_id=71}
  %mul.2972 = f32[32,196]{1,0} multiply(%neg.127, %mul.2109), metadata={op_name="jit(train_step)/transpose(jvp(_Model))/Transformer/encoderblock_0/LayerNorm_0/mul" stack_frame_id=71}
  %add_any.343 = f32[32,196]{1,0} add(%reduce_sum.2509, %mul.2972), metadata={op_name="jit(train_step)/transpose(jvp(_Model))/Transformer/encoderblock_0/LayerNorm_0/add_any" stack_frame_id=71}
  %div.1566 = f32[32,196]{1,0} divide(%add_any.343, %broadcast.130), metadata={op_name="jit(train_step)/transpose(jvp(_Model))/Transformer/encoderblock_0/LayerNorm_0/div" stack_frame_id=10}
  %broadcast_in_dim.293 = f32[32,196,768]{2,1,0} broadcast(%div.1566), dimensions={0,1}, metadata={op_name="jit(train_step)/transpose(jvp(_Model))/Transformer/encoderblock_0/LayerNorm_0/broadcast_in_dim" stack_frame_id=10}
  %add_any.344 = f32[32,196,768]{2,1,0} add(%add_any.342, %broadcast_in_dim.293), metadata={op_name="jit(train_step)/transpose(jvp(_Model))/Transformer/encoderblock_0/LayerNorm_0/add_any" stack_frame_id=10}
  %div.1565 = f32[32,196]{1,0} divide(%mul.2971, %broadcast.130), metadata={op_name="jit(train_step)/transpose(jvp(_Model))/Transformer/encoderblock_0/LayerNorm_0/div" stack_frame_id=10}
  %broadcast_in_dim.292 = f32[32,196,768]{2,1,0} broadcast(%div.1565), dimensions={0,1}, metadata={op_name="jit(train_step)/transpose(jvp(_Model))/Transformer/encoderblock_0/LayerNorm_0/broadcast_in_dim" stack_frame_id=10}
  %mul.2108 = f32[32,196,768]{2,1,0} multiply(%add.1495, %broadcast.131), metadata={op_name="jit(train_step)/jvp(_Model)/Transformer/encoderblock_0/LayerNorm_0/mul" stack_frame_id=69}
  %mul.2973 = f32[32,196,768]{2,1,0} multiply(%broadcast_in_dim.292, %mul.2108), metadata={op_name="jit(train_step)/transpose(jvp(_Model))/Transformer/encoderblock_0/LayerNorm_0/mul" stack_frame_id=69}
  %add_any.345 = f32[32,196,768]{2,1,0} add(%add_any.344, %mul.2973), metadata={op_name="jit(train_step)/transpose(jvp(_Model))/Transformer/encoderblock_0/LayerNorm_0/add_any" stack_frame_id=69}
  %reshape.379 = f32[32,14,14,768]{3,2,1,0} reshape(%add_any.345), metadata={op_name="jit(train_step)/transpose(jvp(_Model))/reshape" stack_frame_id=67}
  %reduce_sum.2511 = f32[768]{0} reduce(%reshape.379, %constant.237), dimensions={0,1,2}, to_apply=%region_330.336, metadata={op_name="jit(train_step)/transpose(jvp(_Model))/embedding/reduce_sum" stack_frame_id=64}
  %mul.3362 = f32[768]{0} multiply(%reduce_sum.2511, %broadcast.114), metadata={op_name="jit(train_step)/mul" stack_frame_id=130}
  %opt_state_0__mu__embedding____bias__.1 = f32[768]{0} parameter(394), metadata={op_name="opt_state[0].mu[\'embedding\'][\'bias\']"}
  %mul.3363 = f32[768]{0} multiply(%opt_state_0__mu__embedding____bias__.1, %broadcast.113), metadata={op_name="jit(train_step)/mul" stack_frame_id=131}
  %add.2156 = f32[768]{0} add(%mul.3362, %mul.3363), metadata={op_name="jit(train_step)/add" stack_frame_id=130}
  %div.1955 = f32[768]{0} broadcast(%sub.382), dimensions={}, metadata={op_name="jit(train_step)/div" stack_frame_id=136}
  %div.1956 = f32[768]{0} divide(%add.2156, %div.1955), metadata={op_name="jit(train_step)/div" stack_frame_id=136}
  %integer_pow.465 = f32[768]{0} multiply(%reduce_sum.2511, %reduce_sum.2511), metadata={op_name="jit(train_step)/integer_pow" stack_frame_id=140}
  %mul.3760 = f32[768]{0} multiply(%integer_pow.465, %broadcast.100), metadata={op_name="jit(train_step)/mul" stack_frame_id=141}
  %opt_state_0__nu__embedding____bias__.1 = f32[768]{0} parameter(593), metadata={op_name="opt_state[0].nu[\'embedding\'][\'bias\']"}
  %mul.3761 = f32[768]{0} multiply(%opt_state_0__nu__embedding____bias__.1, %broadcast.99), metadata={op_name="jit(train_step)/mul" stack_frame_id=142}
  %add.2355 = f32[768]{0} add(%mul.3760, %mul.3761), metadata={op_name="jit(train_step)/add" stack_frame_id=141}
  %div.2353 = f32[768]{0} broadcast(%sub.383), dimensions={}, metadata={op_name="jit(train_step)/div" stack_frame_id=143}
  %div.2354 = f32[768]{0} divide(%add.2355, %div.2353), metadata={op_name="jit(train_step)/div" stack_frame_id=143}
  %sqrt.393 = f32[768]{0} sqrt(%div.2354), metadata={op_name="jit(train_step)/sqrt" stack_frame_id=145}
  %add.2555 = f32[768]{0} add(%sqrt.393, %broadcast.86), metadata={op_name="jit(train_step)/add" stack_frame_id=145}
  %div.2557 = f32[768]{0} divide(%div.1956, %add.2555), metadata={op_name="jit(train_step)/div" stack_frame_id=146}
  %mul.3964 = f32[768]{0} multiply(%params__embedding____bias__.1, %broadcast.79), metadata={op_name="jit(train_step)/mul" stack_frame_id=148}
  %add.2754 = f32[768]{0} add(%div.2557, %mul.3964), metadata={op_name="jit(train_step)/add" stack_frame_id=149}
  %mul.4163 = f32[768]{0} multiply(%add.2754, %broadcast.72), metadata={op_name="jit(train_step)/mul" stack_frame_id=151}
  %add.2953 = f32[768]{0} add(%params__embedding____bias__.1, %mul.4163), metadata={op_name="jit(train_step)/add" stack_frame_id=154}
  %conv_general_dilated.3 = f32[16,16,3,768]{3,2,1,0} convolution(%img.1, %reshape.379), window={size=14x14 rhs_dilate=16x16}, dim_labels=f01b_i01o->01bf, metadata={op_name="jit(train_step)/transpose(jvp(_Model))/embedding/conv_general_dilated" stack_frame_id=65}
  %constant.194 = f32[] constant(0.1)
  %mul.2107 = f32[16,16,3,768]{3,2,1,0} broadcast(%constant.194), dimensions={}, metadata={op_name="jit(train_step)/mul" stack_frame_id=130}
  %mul.3364 = f32[16,16,3,768]{3,2,1,0} multiply(%conv_general_dilated.3, %mul.2107), metadata={op_name="jit(train_step)/mul" stack_frame_id=130}
  %opt_state_0__mu__embedding____kernel__.1 = f32[16,16,3,768]{3,2,1,0} parameter(395), metadata={op_name="opt_state[0].mu[\'embedding\'][\'kernel\']"}
  %constant.193 = f32[] constant(0.9)
  %mul.2106 = f32[16,16,3,768]{3,2,1,0} broadcast(%constant.193), dimensions={}, metadata={op_name="jit(train_step)/mul" stack_frame_id=131}
  %mul.3365 = f32[16,16,3,768]{3,2,1,0} multiply(%opt_state_0__mu__embedding____kernel__.1, %mul.2106), metadata={op_name="jit(train_step)/mul" stack_frame_id=131}
  %add.2157 = f32[16,16,3,768]{3,2,1,0} add(%mul.3364, %mul.3365), metadata={op_name="jit(train_step)/add" stack_frame_id=130}
  %div.1957 = f32[16,16,3,768]{3,2,1,0} broadcast(%sub.382), dimensions={}, metadata={op_name="jit(train_step)/div" stack_frame_id=136}
  %div.1958 = f32[16,16,3,768]{3,2,1,0} divide(%add.2157, %div.1957), metadata={op_name="jit(train_step)/div" stack_frame_id=136}
  %integer_pow.466 = f32[16,16,3,768]{3,2,1,0} multiply(%conv_general_dilated.3, %conv_general_dilated.3), metadata={op_name="jit(train_step)/integer_pow" stack_frame_id=140}
  %constant.172 = f32[] constant(0.001)
  %mul.2099 = f32[16,16,3,768]{3,2,1,0} broadcast(%constant.172), dimensions={}, metadata={op_name="jit(train_step)/mul" stack_frame_id=141}
  %mul.3762 = f32[16,16,3,768]{3,2,1,0} multiply(%integer_pow.466, %mul.2099), metadata={op_name="jit(train_step)/mul" stack_frame_id=141}
  %opt_state_0__nu__embedding____kernel__.1 = f32[16,16,3,768]{3,2,1,0} parameter(594), metadata={op_name="opt_state[0].nu[\'embedding\'][\'kernel\']"}
  %constant.171 = f32[] constant(0.999)
  %mul.2098 = f32[16,16,3,768]{3,2,1,0} broadcast(%constant.171), dimensions={}, metadata={op_name="jit(train_step)/mul" stack_frame_id=142}
  %mul.3763 = f32[16,16,3,768]{3,2,1,0} multiply(%opt_state_0__nu__embedding____kernel__.1, %mul.2098), metadata={op_name="jit(train_step)/mul" stack_frame_id=142}
  %add.2356 = f32[16,16,3,768]{3,2,1,0} add(%mul.3762, %mul.3763), metadata={op_name="jit(train_step)/add" stack_frame_id=141}
  %div.2355 = f32[16,16,3,768]{3,2,1,0} broadcast(%sub.383), dimensions={}, metadata={op_name="jit(train_step)/div" stack_frame_id=143}
  %div.2356 = f32[16,16,3,768]{3,2,1,0} divide(%add.2356, %div.2355), metadata={op_name="jit(train_step)/div" stack_frame_id=143}
  %sqrt.394 = f32[16,16,3,768]{3,2,1,0} sqrt(%div.2356), metadata={op_name="jit(train_step)/sqrt" stack_frame_id=145}
  %constant.157 = f32[] constant(1e-08)
  %add.1487 = f32[16,16,3,768]{3,2,1,0} broadcast(%constant.157), dimensions={}, metadata={op_name="jit(train_step)/add" stack_frame_id=145}
  %add.2556 = f32[16,16,3,768]{3,2,1,0} add(%sqrt.394, %add.1487), metadata={op_name="jit(train_step)/add" stack_frame_id=145}
  %div.2558 = f32[16,16,3,768]{3,2,1,0} divide(%div.1958, %add.2556), metadata={op_name="jit(train_step)/div" stack_frame_id=146}
  %constant.146 = f32[] constant(0.0001)
  %mul.2091 = f32[16,16,3,768]{3,2,1,0} broadcast(%constant.146), dimensions={}, metadata={op_name="jit(train_step)/mul" stack_frame_id=148}
  %mul.3965 = f32[16,16,3,768]{3,2,1,0} multiply(%params__embedding____kernel__.1, %mul.2091), metadata={op_name="jit(train_step)/mul" stack_frame_id=148}
  %add.2755 = f32[16,16,3,768]{3,2,1,0} add(%div.2558, %mul.3965), metadata={op_name="jit(train_step)/add" stack_frame_id=149}
  %constant.135 = f32[] constant(-0.001)
  %mul.2087 = f32[16,16,3,768]{3,2,1,0} broadcast(%constant.135), dimensions={}, metadata={op_name="jit(train_step)/mul" stack_frame_id=151}
  %mul.4164 = f32[16,16,3,768]{3,2,1,0} multiply(%add.2755, %mul.2087), metadata={op_name="jit(train_step)/mul" stack_frame_id=151}
  %add.2954 = f32[16,16,3,768]{3,2,1,0} add(%params__embedding____kernel__.1, %mul.4164), metadata={op_name="jit(train_step)/add" stack_frame_id=154}
  %reduce_sum.2263 = f32[1000]{0} reduce(%add_any.174, %constant.237), dimensions={0}, to_apply=%region_82.88, metadata={op_name="jit(train_step)/transpose(jvp(_Model))/head/reduce_sum" stack_frame_id=30}
  %constant.192 = f32[] constant(0.1)
  %mul.2105 = f32[1000]{0} broadcast(%constant.192), dimensions={}, metadata={op_name="jit(train_step)/mul" stack_frame_id=130}
  %mul.3366 = f32[1000]{0} multiply(%reduce_sum.2263, %mul.2105), metadata={op_name="jit(train_step)/mul" stack_frame_id=130}
  %opt_state_0__mu__head____bias__.1 = f32[1000]{0} parameter(396), metadata={op_name="opt_state[0].mu[\'head\'][\'bias\']"}
  %constant.191 = f32[] constant(0.9)
  %mul.2104 = f32[1000]{0} broadcast(%constant.191), dimensions={}, metadata={op_name="jit(train_step)/mul" stack_frame_id=131}
  %mul.3367 = f32[1000]{0} multiply(%opt_state_0__mu__head____bias__.1, %mul.2104), metadata={op_name="jit(train_step)/mul" stack_frame_id=131}
  %add.2158 = f32[1000]{0} add(%mul.3366, %mul.3367), metadata={op_name="jit(train_step)/add" stack_frame_id=130}
  %div.1959 = f32[1000]{0} broadcast(%sub.382), dimensions={}, metadata={op_name="jit(train_step)/div" stack_frame_id=136}
  %div.1960 = f32[1000]{0} divide(%add.2158, %div.1959), metadata={op_name="jit(train_step)/div" stack_frame_id=136}
  %integer_pow.467 = f32[1000]{0} multiply(%reduce_sum.2263, %reduce_sum.2263), metadata={op_name="jit(train_step)/integer_pow" stack_frame_id=140}
  %constant.170 = f32[] constant(0.001)
  %mul.2097 = f32[1000]{0} broadcast(%constant.170), dimensions={}, metadata={op_name="jit(train_step)/mul" stack_frame_id=141}
  %mul.3764 = f32[1000]{0} multiply(%integer_pow.467, %mul.2097), metadata={op_name="jit(train_step)/mul" stack_frame_id=141}
  %opt_state_0__nu__head____bias__.1 = f32[1000]{0} parameter(595), metadata={op_name="opt_state[0].nu[\'head\'][\'bias\']"}
  %constant.169 = f32[] constant(0.999)
  %mul.2096 = f32[1000]{0} broadcast(%constant.169), dimensions={}, metadata={op_name="jit(train_step)/mul" stack_frame_id=142}
  %mul.3765 = f32[1000]{0} multiply(%opt_state_0__nu__head____bias__.1, %mul.2096), metadata={op_name="jit(train_step)/mul" stack_frame_id=142}
  %add.2357 = f32[1000]{0} add(%mul.3764, %mul.3765), metadata={op_name="jit(train_step)/add" stack_frame_id=141}
  %div.2357 = f32[1000]{0} broadcast(%sub.383), dimensions={}, metadata={op_name="jit(train_step)/div" stack_frame_id=143}
  %div.2358 = f32[1000]{0} divide(%add.2357, %div.2357), metadata={op_name="jit(train_step)/div" stack_frame_id=143}
  %sqrt.395 = f32[1000]{0} sqrt(%div.2358), metadata={op_name="jit(train_step)/sqrt" stack_frame_id=145}
  %constant.156 = f32[] constant(1e-08)
  %add.1486 = f32[1000]{0} broadcast(%constant.156), dimensions={}, metadata={op_name="jit(train_step)/add" stack_frame_id=145}
  %add.2557 = f32[1000]{0} add(%sqrt.395, %add.1486), metadata={op_name="jit(train_step)/add" stack_frame_id=145}
  %div.2559 = f32[1000]{0} divide(%div.1960, %add.2557), metadata={op_name="jit(train_step)/div" stack_frame_id=146}
  %constant.145 = f32[] constant(0.0001)
  %mul.2090 = f32[1000]{0} broadcast(%constant.145), dimensions={}, metadata={op_name="jit(train_step)/mul" stack_frame_id=148}
  %mul.3966 = f32[1000]{0} multiply(%params__head____bias__.1, %mul.2090), metadata={op_name="jit(train_step)/mul" stack_frame_id=148}
  %add.2756 = f32[1000]{0} add(%div.2559, %mul.3966), metadata={op_name="jit(train_step)/add" stack_frame_id=149}
  %constant.134 = f32[] constant(-0.001)
  %mul.2086 = f32[1000]{0} broadcast(%constant.134), dimensions={}, metadata={op_name="jit(train_step)/mul" stack_frame_id=151}
  %mul.4165 = f32[1000]{0} multiply(%add.2756, %mul.2086), metadata={op_name="jit(train_step)/mul" stack_frame_id=151}
  %add.2955 = f32[1000]{0} add(%params__head____bias__.1, %mul.4165), metadata={op_name="jit(train_step)/add" stack_frame_id=154}
  %dot_general.388 = f32[1000,768]{1,0} dot(%add_any.174, %div.1453), lhs_contracting_dims={0}, rhs_contracting_dims={0}, metadata={op_name="jit(train_step)/transpose(jvp(_Model))/head/dot_general" stack_frame_id=119}
  %transpose.145 = f32[768,1000]{0,1} transpose(%dot_general.388), dimensions={1,0}, metadata={op_name="jit(train_step)/transpose(jvp(_Model))/head/transpose" stack_frame_id=119}
  %constant.190 = f32[] constant(0.1)
  %mul.2103 = f32[768,1000]{1,0} broadcast(%constant.190), dimensions={}, metadata={op_name="jit(train_step)/mul" stack_frame_id=130}
  %mul.3368 = f32[768,1000]{0,1} multiply(%transpose.145, %mul.2103), metadata={op_name="jit(train_step)/mul" stack_frame_id=130}
  %opt_state_0__mu__head____kernel__.1 = f32[768,1000]{1,0} parameter(397), metadata={op_name="opt_state[0].mu[\'head\'][\'kernel\']"}
  %constant.189 = f32[] constant(0.9)
  %mul.2102 = f32[768,1000]{1,0} broadcast(%constant.189), dimensions={}, metadata={op_name="jit(train_step)/mul" stack_frame_id=131}
  %mul.3369 = f32[768,1000]{1,0} multiply(%opt_state_0__mu__head____kernel__.1, %mul.2102), metadata={op_name="jit(train_step)/mul" stack_frame_id=131}
  %add.2159 = f32[768,1000]{0,1} add(%mul.3368, %mul.3369), metadata={op_name="jit(train_step)/add" stack_frame_id=130}
  %div.1961 = f32[768,1000]{1,0} broadcast(%sub.382), dimensions={}, metadata={op_name="jit(train_step)/div" stack_frame_id=136}
  %div.1962 = f32[768,1000]{0,1} divide(%add.2159, %div.1961), metadata={op_name="jit(train_step)/div" stack_frame_id=136}
  %integer_pow.468 = f32[768,1000]{0,1} multiply(%transpose.145, %transpose.145), metadata={op_name="jit(train_step)/integer_pow" stack_frame_id=140}
  %constant.168 = f32[] constant(0.001)
  %mul.2095 = f32[768,1000]{1,0} broadcast(%constant.168), dimensions={}, metadata={op_name="jit(train_step)/mul" stack_frame_id=141}
  %mul.3766 = f32[768,1000]{0,1} multiply(%integer_pow.468, %mul.2095), metadata={op_name="jit(train_step)/mul" stack_frame_id=141}
  %opt_state_0__nu__head____kernel__.1 = f32[768,1000]{1,0} parameter(596), metadata={op_name="opt_state[0].nu[\'head\'][\'kernel\']"}
  %constant.167 = f32[] constant(0.999)
  %mul.2094 = f32[768,1000]{1,0} broadcast(%constant.167), dimensions={}, metadata={op_name="jit(train_step)/mul" stack_frame_id=142}
  %mul.3767 = f32[768,1000]{1,0} multiply(%opt_state_0__nu__head____kernel__.1, %mul.2094), metadata={op_name="jit(train_step)/mul" stack_frame_id=142}
  %add.2358 = f32[768,1000]{0,1} add(%mul.3766, %mul.3767), metadata={op_name="jit(train_step)/add" stack_frame_id=141}
  %div.2359 = f32[768,1000]{1,0} broadcast(%sub.383), dimensions={}, metadata={op_name="jit(train_step)/div" stack_frame_id=143}
  %div.2360 = f32[768,1000]{0,1} divide(%add.2358, %div.2359), metadata={op_name="jit(train_step)/div" stack_frame_id=143}
  %sqrt.396 = f32[768,1000]{0,1} sqrt(%div.2360), metadata={op_name="jit(train_step)/sqrt" stack_frame_id=145}
  %constant.155 = f32[] constant(1e-08)
  %add.1485 = f32[768,1000]{1,0} broadcast(%constant.155), dimensions={}, metadata={op_name="jit(train_step)/add" stack_frame_id=145}
  %add.2558 = f32[768,1000]{0,1} add(%sqrt.396, %add.1485), metadata={op_name="jit(train_step)/add" stack_frame_id=145}
  %div.2560 = f32[768,1000]{0,1} divide(%div.1962, %add.2558), metadata={op_name="jit(train_step)/div" stack_frame_id=146}
  %constant.144 = f32[] constant(0.0001)
  %mul.2089 = f32[768,1000]{1,0} broadcast(%constant.144), dimensions={}, metadata={op_name="jit(train_step)/mul" stack_frame_id=148}
  %mul.3967 = f32[768,1000]{1,0} multiply(%params__head____kernel__.1, %mul.2089), metadata={op_name="jit(train_step)/mul" stack_frame_id=148}
  %add.2757 = f32[768,1000]{0,1} add(%div.2560, %mul.3967), metadata={op_name="jit(train_step)/add" stack_frame_id=149}
  %constant.133 = f32[] constant(-0.001)
  %mul.2085 = f32[768,1000]{1,0} broadcast(%constant.133), dimensions={}, metadata={op_name="jit(train_step)/mul" stack_frame_id=151}
  %mul.4166 = f32[768,1000]{0,1} multiply(%add.2757, %mul.2085), metadata={op_name="jit(train_step)/mul" stack_frame_id=151}
  %add.2956 = f32[768,1000]{1,0} add(%params__head____kernel__.1, %mul.4166), metadata={op_name="jit(train_step)/add" stack_frame_id=154}
  %reduce_sum.2510 = f32[196,768]{1,0} reduce(%add_any.345, %constant.237), dimensions={0}, to_apply=%region_329.335, metadata={op_name="jit(train_step)/transpose(jvp(_Model))/reduce_sum" stack_frame_id=62}
  %reshape.378 = f32[1,196,768]{2,1,0} reshape(%reduce_sum.2510), metadata={op_name="jit(train_step)/transpose(jvp(_Model))/reshape" stack_frame_id=62}
  %constant.188 = f32[] constant(0.1)
  %mul.2101 = f32[1,196,768]{2,1,0} broadcast(%constant.188), dimensions={}, metadata={op_name="jit(train_step)/mul" stack_frame_id=130}
  %mul.3370 = f32[1,196,768]{2,1,0} multiply(%reshape.378, %mul.2101), metadata={op_name="jit(train_step)/mul" stack_frame_id=130}
  %opt_state_0__mu__pos_embedding__.1 = f32[1,196,768]{2,1,0} parameter(398), metadata={op_name="opt_state[0].mu[\'pos_embedding\']"}
  %constant.187 = f32[] constant(0.9)
  %mul.2100 = f32[1,196,768]{2,1,0} broadcast(%constant.187), dimensions={}, metadata={op_name="jit(train_step)/mul" stack_frame_id=131}
  %mul.3371 = f32[1,196,768]{2,1,0} multiply(%opt_state_0__mu__pos_embedding__.1, %mul.2100), metadata={op_name="jit(train_step)/mul" stack_frame_id=131}
  %add.2160 = f32[1,196,768]{2,1,0} add(%mul.3370, %mul.3371), metadata={op_name="jit(train_step)/add" stack_frame_id=130}
  %div.1963 = f32[1,196,768]{2,1,0} broadcast(%sub.382), dimensions={}, metadata={op_name="jit(train_step)/div" stack_frame_id=136}
  %div.1964 = f32[1,196,768]{2,1,0} divide(%add.2160, %div.1963), metadata={op_name="jit(train_step)/div" stack_frame_id=136}
  %integer_pow.469 = f32[1,196,768]{2,1,0} multiply(%reshape.378, %reshape.378), metadata={op_name="jit(train_step)/integer_pow" stack_frame_id=140}
  %constant.166 = f32[] constant(0.001)
  %mul.2093 = f32[1,196,768]{2,1,0} broadcast(%constant.166), dimensions={}, metadata={op_name="jit(train_step)/mul" stack_frame_id=141}
  %mul.3768 = f32[1,196,768]{2,1,0} multiply(%integer_pow.469, %mul.2093), metadata={op_name="jit(train_step)/mul" stack_frame_id=141}
  %opt_state_0__nu__pos_embedding__.1 = f32[1,196,768]{2,1,0} parameter(597), metadata={op_name="opt_state[0].nu[\'pos_embedding\']"}
  %constant.165 = f32[] constant(0.999)
  %mul.2092 = f32[1,196,768]{2,1,0} broadcast(%constant.165), dimensions={}, metadata={op_name="jit(train_step)/mul" stack_frame_id=142}
  %mul.3769 = f32[1,196,768]{2,1,0} multiply(%opt_state_0__nu__pos_embedding__.1, %mul.2092), metadata={op_name="jit(train_step)/mul" stack_frame_id=142}
  %add.2359 = f32[1,196,768]{2,1,0} add(%mul.3768, %mul.3769), metadata={op_name="jit(train_step)/add" stack_frame_id=141}
  %div.2361 = f32[1,196,768]{2,1,0} broadcast(%sub.383), dimensions={}, metadata={op_name="jit(train_step)/div" stack_frame_id=143}
  %div.2362 = f32[1,196,768]{2,1,0} divide(%add.2359, %div.2361), metadata={op_name="jit(train_step)/div" stack_frame_id=143}
  %sqrt.397 = f32[1,196,768]{2,1,0} sqrt(%div.2362), metadata={op_name="jit(train_step)/sqrt" stack_frame_id=145}
  %constant.154 = f32[] constant(1e-08)
  %add.1484 = f32[1,196,768]{2,1,0} broadcast(%constant.154), dimensions={}, metadata={op_name="jit(train_step)/add" stack_frame_id=145}
  %add.2559 = f32[1,196,768]{2,1,0} add(%sqrt.397, %add.1484), metadata={op_name="jit(train_step)/add" stack_frame_id=145}
  %div.2561 = f32[1,196,768]{2,1,0} divide(%div.1964, %add.2559), metadata={op_name="jit(train_step)/div" stack_frame_id=146}
  %constant.143 = f32[] constant(0.0001)
  %mul.2088 = f32[1,196,768]{2,1,0} broadcast(%constant.143), dimensions={}, metadata={op_name="jit(train_step)/mul" stack_frame_id=148}
  %mul.3968 = f32[1,196,768]{2,1,0} multiply(%params__pos_embedding__.1, %mul.2088), metadata={op_name="jit(train_step)/mul" stack_frame_id=148}
  %add.2758 = f32[1,196,768]{2,1,0} add(%div.2561, %mul.3968), metadata={op_name="jit(train_step)/add" stack_frame_id=149}
  %constant.132 = f32[] constant(-0.001)
  %mul.2084 = f32[1,196,768]{2,1,0} broadcast(%constant.132), dimensions={}, metadata={op_name="jit(train_step)/mul" stack_frame_id=151}
  %mul.4167 = f32[1,196,768]{2,1,0} multiply(%add.2758, %mul.2084), metadata={op_name="jit(train_step)/mul" stack_frame_id=151}
  %add.2957 = f32[1,196,768]{2,1,0} add(%params__pos_embedding__.1, %mul.4167), metadata={op_name="jit(train_step)/add" stack_frame_id=154}
  %log.1 = f32[32]{0} log(%abs.1), metadata={op_name="jit(train_step)/jvp()/log" stack_frame_id=27}
  %add.1961 = f32[32]{0} add(%log.1, %select_n.113), metadata={op_name="jit(train_step)/jvp()/add" stack_frame_id=27}
  %jvp_jit__take__.4 = f32[32]{0} get-tuple-element(%jvp_jit__take__.3), index=0, metadata={op_name="jit(train_step)/jvp(jit(_take))" stack_frame_id=123}
  %sub.381 = f32[32]{0} subtract(%add.1961, %jvp_jit__take__.4), metadata={op_name="jit(train_step)/jvp()/sub" stack_frame_id=124}
  %reduce_sum.2262 = f32[] reduce(%sub.381, %constant.237), dimensions={0}, to_apply=%region_79.83, metadata={op_name="jit(train_step)/jvp()/reduce_sum" stack_frame_id=28}
  %constant.233 = f32[] constant(32)
  %div.1454 = f32[] divide(%reduce_sum.2262, %constant.233), metadata={op_name="jit(train_step)/jvp()/div" stack_frame_id=28}
  ROOT %tuple.5 = (f32[768]{0}, f32[768]{0}, f32[768]{0}, f32[768]{0}, f32[768]{0}, /*index=5*/f32[768]{0}, f32[3072]{0}, f32[768,3072]{1,0}, f32[768]{0}, f32[3072,768]{1,0}, /*index=10*/f32[12,64]{1,0}, f32[768,12,64]{2,1,0}, f32[768]{0}, f32[12,64,768]{2,1,0}, f32[12,64]{1,0}, /*index=15*/f32[768,12,64]{2,1,0}, f32[12,64]{1,0}, f32[768,12,64]{2,1,0}, f32[768]{0}, f32[768]{0}, /*index=20*/f32[768]{0}, f32[768]{0}, f32[3072]{0}, f32[768,3072]{1,0}, f32[768]{0}, /*index=25*/f32[3072,768]{1,0}, f32[12,64]{1,0}, f32[768,12,64]{2,1,0}, f32[768]{0}, f32[12,64,768]{2,1,0}, /*index=30*/f32[12,64]{1,0}, f32[768,12,64]{2,1,0}, f32[12,64]{1,0}, f32[768,12,64]{2,1,0}, f32[768]{0}, /*index=35*/f32[768]{0}, f32[768]{0}, f32[768]{0}, f32[3072]{0}, f32[768,3072]{1,0}, /*index=40*/f32[768]{0}, f32[3072,768]{1,0}, f32[12,64]{1,0}, f32[768,12,64]{2,1,0}, f32[768]{0}, /*index=45*/f32[12,64,768]{2,1,0}, f32[12,64]{1,0}, f32[768,12,64]{2,1,0}, f32[12,64]{1,0}, f32[768,12,64]{2,1,0}, /*index=50*/f32[768]{0}, f32[768]{0}, f32[768]{0}, f32[768]{0}, f32[3072]{0}, /*index=55*/f32[768,3072]{1,0}, f32[768]{0}, f32[3072,768]{1,0}, f32[12,64]{1,0}, f32[768,12,64]{2,1,0}, /*index=60*/f32[768]{0}, f32[12,64,768]{2,1,0}, f32[12,64]{1,0}, f32[768,12,64]{2,1,0}, f32[12,64]{1,0}, /*index=65*/f32[768,12,64]{2,1,0}, f32[768]{0}, f32[768]{0}, f32[768]{0}, f32[768]{0}, /*index=70*/f32[3072]{0}, f32[768,3072]{1,0}, f32[768]{0}, f32[3072,768]{1,0}, f32[12,64]{1,0}, /*index=75*/f32[768,12,64]{2,1,0}, f32[768]{0}, f32[12,64,768]{2,1,0}, f32[12,64]{1,0}, f32[768,12,64]{2,1,0}, /*index=80*/f32[12,64]{1,0}, f32[768,12,64]{2,1,0}, f32[768]{0}, f32[768]{0}, f32[768]{0}, /*index=85*/f32[768]{0}, f32[3072]{0}, f32[768,3072]{1,0}, f32[768]{0}, f32[3072,768]{1,0}, /*index=90*/f32[12,64]{1,0}, f32[768,12,64]{2,1,0}, f32[768]{0}, f32[12,64,768]{2,1,0}, f32[12,64]{1,0}, /*index=95*/f32[768,12,64]{2,1,0}, f32[12,64]{1,0}, f32[768,12,64]{2,1,0}, f32[768]{0}, f32[768]{0}, /*index=100*/f32[768]{0}, f32[768]{0}, f32[3072]{0}, f32[768,3072]{1,0}, f32[768]{0}, /*index=105*/f32[3072,768]{1,0}, f32[12,64]{1,0}, f32[768,12,64]{2,1,0}, f32[768]{0}, f32[12,64,768]{2,1,0}, /*index=110*/f32[12,64]{1,0}, f32[768,12,64]{2,1,0}, f32[12,64]{1,0}, f32[768,12,64]{2,1,0}, f32[768]{0}, /*index=115*/f32[768]{0}, f32[768]{0}, f32[768]{0}, f32[3072]{0}, f32[768,3072]{1,0}, /*index=120*/f32[768]{0}, f32[3072,768]{1,0}, f32[12,64]{1,0}, f32[768,12,64]{2,1,0}, f32[768]{0}, /*index=125*/f32[12,64,768]{2,1,0}, f32[12,64]{1,0}, f32[768,12,64]{2,1,0}, f32[12,64]{1,0}, f32[768,12,64]{2,1,0}, /*index=130*/f32[768]{0}, f32[768]{0}, f32[768]{0}, f32[768]{0}, f32[3072]{0}, /*index=135*/f32[768,3072]{1,0}, f32[768]{0}, f32[3072,768]{1,0}, f32[12,64]{1,0}, f32[768,12,64]{2,1,0}, /*index=140*/f32[768]{0}, f32[12,64,768]{2,1,0}, f32[12,64]{1,0}, f32[768,12,64]{2,1,0}, f32[12,64]{1,0}, /*index=145*/f32[768,12,64]{2,1,0}, f32[768]{0}, f32[768]{0}, f32[768]{0}, f32[768]{0}, /*index=150*/f32[3072]{0}, f32[768,3072]{1,0}, f32[768]{0}, f32[3072,768]{1,0}, f32[12,64]{1,0}, /*index=155*/f32[768,12,64]{2,1,0}, f32[768]{0}, f32[12,64,768]{2,1,0}, f32[12,64]{1,0}, f32[768,12,64]{2,1,0}, /*index=160*/f32[12,64]{1,0}, f32[768,12,64]{2,1,0}, f32[768]{0}, f32[768]{0}, f32[768]{0}, /*index=165*/f32[768]{0}, f32[3072]{0}, f32[768,3072]{1,0}, f32[768]{0}, f32[3072,768]{1,0}, /*index=170*/f32[12,64]{1,0}, f32[768,12,64]{2,1,0}, f32[768]{0}, f32[12,64,768]{2,1,0}, f32[12,64]{1,0}, /*index=175*/f32[768,12,64]{2,1,0}, f32[12,64]{1,0}, f32[768,12,64]{2,1,0}, f32[768]{0}, f32[768]{0}, /*index=180*/f32[768]{0}, f32[768]{0}, f32[3072]{0}, f32[768,3072]{1,0}, f32[768]{0}, /*index=185*/f32[3072,768]{1,0}, f32[12,64]{1,0}, f32[768,12,64]{2,1,0}, f32[768]{0}, f32[12,64,768]{2,1,0}, /*index=190*/f32[12,64]{1,0}, f32[768,12,64]{2,1,0}, f32[12,64]{1,0}, f32[768,12,64]{2,1,0}, f32[768]{0}, /*index=195*/f32[16,16,3,768]{3,2,1,0}, f32[1000]{0}, f32[768,1000]{1,0}, f32[1,196,768]{2,1,0}, s32[], /*index=200*/f32[768]{0}, f32[768]{0}, f32[768]{0}, f32[768]{0}, f32[768]{0}, /*index=205*/f32[768]{0}, f32[3072]{0}, f32[768,3072]{0,1}, f32[768]{0}, f32[3072,768]{0,1}, /*index=210*/f32[12,64]{1,0}, f32[768,12,64]{0,2,1}, f32[768]{0}, f32[12,64,768]{1,0,2}, f32[12,64]{1,0}, /*index=215*/f32[768,12,64]{0,2,1}, f32[12,64]{1,0}, f32[768,12,64]{0,2,1}, f32[768]{0}, f32[768]{0}, /*index=220*/f32[768]{0}, f32[768]{0}, f32[3072]{0}, f32[768,3072]{0,1}, f32[768]{0}, /*index=225*/f32[3072,768]{0,1}, f32[12,64]{1,0}, f32[768,12,64]{0,2,1}, f32[768]{0}, f32[12,64,768]{1,0,2}, /*index=230*/f32[12,64]{1,0}, f32[768,12,64]{0,2,1}, f32[12,64]{1,0}, f32[768,12,64]{0,2,1}, f32[768]{0}, /*index=235*/f32[768]{0}, f32[768]{0}, f32[768]{0}, f32[3072]{0}, f32[768,3072]{0,1}, /*index=240*/f32[768]{0}, f32[3072,768]{0,1}, f32[12,64]{1,0}, f32[768,12,64]{0,2,1}, f32[768]{0}, /*index=245*/f32[12,64,768]{1,0,2}, f32[12,64]{1,0}, f32[768,12,64]{0,2,1}, f32[12,64]{1,0}, f32[768,12,64]{0,2,1}, /*index=250*/f32[768]{0}, f32[768]{0}, f32[768]{0}, f32[768]{0}, f32[3072]{0}, /*index=255*/f32[768,3072]{0,1}, f32[768]{0}, f32[3072,768]{0,1}, f32[12,64]{1,0}, f32[768,12,64]{0,2,1}, /*index=260*/f32[768]{0}, f32[12,64,768]{1,0,2}, f32[12,64]{1,0}, f32[768,12,64]{0,2,1}, f32[12,64]{1,0}, /*index=265*/f32[768,12,64]{0,2,1}, f32[768]{0}, f32[768]{0}, f32[768]{0}, f32[768]{0}, /*index=270*/f32[3072]{0}, f32[768,3072]{0,1}, f32[768]{0}, f32[3072,768]{0,1}, f32[12,64]{1,0}, /*index=275*/f32[768,12,64]{0,2,1}, f32[768]{0}, f32[12,64,768]{1,0,2}, f32[12,64]{1,0}, f32[768,12,64]{0,2,1}, /*index=280*/f32[12,64]{1,0}, f32[768,12,64]{0,2,1}, f32[768]{0}, f32[768]{0}, f32[768]{0}, /*index=285*/f32[768]{0}, f32[3072]{0}, f32[768,3072]{0,1}, f32[768]{0}, f32[3072,768]{0,1}, /*index=290*/f32[12,64]{1,0}, f32[768,12,64]{0,2,1}, f32[768]{0}, f32[12,64,768]{1,0,2}, f32[12,64]{1,0}, /*index=295*/f32[768,12,64]{0,2,1}, f32[12,64]{1,0}, f32[768,12,64]{0,2,1}, f32[768]{0}, f32[768]{0}, /*index=300*/f32[768]{0}, f32[768]{0}, f32[3072]{0}, f32[768,3072]{0,1}, f32[768]{0}, /*index=305*/f32[3072,768]{0,1}, f32[12,64]{1,0}, f32[768,12,64]{0,2,1}, f32[768]{0}, f32[12,64,768]{1,0,2}, /*index=310*/f32[12,64]{1,0}, f32[768,12,64]{0,2,1}, f32[12,64]{1,0}, f32[768,12,64]{0,2,1}, f32[768]{0}, /*index=315*/f32[768]{0}, f32[768]{0}, f32[768]{0}, f32[3072]{0}, f32[768,3072]{0,1}, /*index=320*/f32[768]{0}, f32[3072,768]{0,1}, f32[12,64]{1,0}, f32[768,12,64]{0,2,1}, f32[768]{0}, /*index=325*/f32[12,64,768]{1,0,2}, f32[12,64]{1,0}, f32[768,12,64]{0,2,1}, f32[12,64]{1,0}, f32[768,12,64]{0,2,1}, /*index=330*/f32[768]{0}, f32[768]{0}, f32[768]{0}, f32[768]{0}, f32[3072]{0}, /*index=335*/f32[768,3072]{0,1}, f32[768]{0}, f32[3072,768]{0,1}, f32[12,64]{1,0}, f32[768,12,64]{0,2,1}, /*index=340*/f32[768]{0}, f32[12,64,768]{1,0,2}, f32[12,64]{1,0}, f32[768,12,64]{0,2,1}, f32[12,64]{1,0}, /*index=345*/f32[768,12,64]{0,2,1}, f32[768]{0}, f32[768]{0}, f32[768]{0}, f32[768]{0}, /*index=350*/f32[3072]{0}, f32[768,3072]{0,1}, f32[768]{0}, f32[3072,768]{0,1}, f32[12,64]{1,0}, /*index=355*/f32[768,12,64]{0,2,1}, f32[768]{0}, f32[12,64,768]{1,0,2}, f32[12,64]{1,0}, f32[768,12,64]{0,2,1}, /*index=360*/f32[12,64]{1,0}, f32[768,12,64]{0,2,1}, f32[768]{0}, f32[768]{0}, f32[768]{0}, /*index=365*/f32[768]{0}, f32[3072]{0}, f32[768,3072]{0,1}, f32[768]{0}, f32[3072,768]{0,1}, /*index=370*/f32[12,64]{1,0}, f32[768,12,64]{0,2,1}, f32[768]{0}, f32[12,64,768]{1,0,2}, f32[12,64]{1,0}, /*index=375*/f32[768,12,64]{0,2,1}, f32[12,64]{1,0}, f32[768,12,64]{0,2,1}, f32[768]{0}, f32[768]{0}, /*index=380*/f32[768]{0}, f32[768]{0}, f32[3072]{0}, f32[768,3072]{0,1}, f32[768]{0}, /*index=385*/f32[3072,768]{0,1}, f32[12,64]{1,0}, f32[768,12,64]{0,2,1}, f32[768]{0}, f32[12,64,768]{1,0,2}, /*index=390*/f32[12,64]{1,0}, f32[768,12,64]{0,2,1}, f32[12,64]{1,0}, f32[768,12,64]{0,2,1}, f32[768]{0}, /*index=395*/f32[16,16,3,768]{3,2,1,0}, f32[1000]{0}, f32[768,1000]{0,1}, f32[1,196,768]{2,1,0}, f32[768]{0}, /*index=400*/f32[768]{0}, f32[768]{0}, f32[768]{0}, f32[768]{0}, f32[768]{0}, /*index=405*/f32[3072]{0}, f32[768,3072]{0,1}, f32[768]{0}, f32[3072,768]{0,1}, f32[12,64]{1,0}, /*index=410*/f32[768,12,64]{0,2,1}, f32[768]{0}, f32[12,64,768]{1,0,2}, f32[12,64]{1,0}, f32[768,12,64]{0,2,1}, /*index=415*/f32[12,64]{1,0}, f32[768,12,64]{0,2,1}, f32[768]{0}, f32[768]{0}, f32[768]{0}, /*index=420*/f32[768]{0}, f32[3072]{0}, f32[768,3072]{0,1}, f32[768]{0}, f32[3072,768]{0,1}, /*index=425*/f32[12,64]{1,0}, f32[768,12,64]{0,2,1}, f32[768]{0}, f32[12,64,768]{1,0,2}, f32[12,64]{1,0}, /*index=430*/f32[768,12,64]{0,2,1}, f32[12,64]{1,0}, f32[768,12,64]{0,2,1}, f32[768]{0}, f32[768]{0}, /*index=435*/f32[768]{0}, f32[768]{0}, f32[3072]{0}, f32[768,3072]{0,1}, f32[768]{0}, /*index=440*/f32[3072,768]{0,1}, f32[12,64]{1,0}, f32[768,12,64]{0,2,1}, f32[768]{0}, f32[12,64,768]{1,0,2}, /*index=445*/f32[12,64]{1,0}, f32[768,12,64]{0,2,1}, f32[12,64]{1,0}, f32[768,12,64]{0,2,1}, f32[768]{0}, /*index=450*/f32[768]{0}, f32[768]{0}, f32[768]{0}, f32[3072]{0}, f32[768,3072]{0,1}, /*index=455*/f32[768]{0}, f32[3072,768]{0,1}, f32[12,64]{1,0}, f32[768,12,64]{0,2,1}, f32[768]{0}, /*index=460*/f32[12,64,768]{1,0,2}, f32[12,64]{1,0}, f32[768,12,64]{0,2,1}, f32[12,64]{1,0}, f32[768,12,64]{0,2,1}, /*index=465*/f32[768]{0}, f32[768]{0}, f32[768]{0}, f32[768]{0}, f32[3072]{0}, /*index=470*/f32[768,3072]{0,1}, f32[768]{0}, f32[3072,768]{0,1}, f32[12,64]{1,0}, f32[768,12,64]{0,2,1}, /*index=475*/f32[768]{0}, f32[12,64,768]{1,0,2}, f32[12,64]{1,0}, f32[768,12,64]{0,2,1}, f32[12,64]{1,0}, /*index=480*/f32[768,12,64]{0,2,1}, f32[768]{0}, f32[768]{0}, f32[768]{0}, f32[768]{0}, /*index=485*/f32[3072]{0}, f32[768,3072]{0,1}, f32[768]{0}, f32[3072,768]{0,1}, f32[12,64]{1,0}, /*index=490*/f32[768,12,64]{0,2,1}, f32[768]{0}, f32[12,64,768]{1,0,2}, f32[12,64]{1,0}, f32[768,12,64]{0,2,1}, /*index=495*/f32[12,64]{1,0}, f32[768,12,64]{0,2,1}, f32[768]{0}, f32[768]{0}, f32[768]{0}, /*index=500*/f32[768]{0}, f32[3072]{0}, f32[768,3072]{0,1}, f32[768]{0}, f32[3072,768]{0,1}, /*index=505*/f32[12,64]{1,0}, f32[768,12,64]{0,2,1}, f32[768]{0}, f32[12,64,768]{1,0,2}, f32[12,64]{1,0}, /*index=510*/f32[768,12,64]{0,2,1}, f32[12,64]{1,0}, f32[768,12,64]{0,2,1}, f32[768]{0}, f32[768]{0}, /*index=515*/f32[768]{0}, f32[768]{0}, f32[3072]{0}, f32[768,3072]{0,1}, f32[768]{0}, /*index=520*/f32[3072,768]{0,1}, f32[12,64]{1,0}, f32[768,12,64]{0,2,1}, f32[768]{0}, f32[12,64,768]{1,0,2}, /*index=525*/f32[12,64]{1,0}, f32[768,12,64]{0,2,1}, f32[12,64]{1,0}, f32[768,12,64]{0,2,1}, f32[768]{0}, /*index=530*/f32[768]{0}, f32[768]{0}, f32[768]{0}, f32[3072]{0}, f32[768,3072]{0,1}, /*index=535*/f32[768]{0}, f32[3072,768]{0,1}, f32[12,64]{1,0}, f32[768,12,64]{0,2,1}, f32[768]{0}, /*index=540*/f32[12,64,768]{1,0,2}, f32[12,64]{1,0}, f32[768,12,64]{0,2,1}, f32[12,64]{1,0}, f32[768,12,64]{0,2,1}, /*index=545*/f32[768]{0}, f32[768]{0}, f32[768]{0}, f32[768]{0}, f32[3072]{0}, /*index=550*/f32[768,3072]{0,1}, f32[768]{0}, f32[3072,768]{0,1}, f32[12,64]{1,0}, f32[768,12,64]{0,2,1}, /*index=555*/f32[768]{0}, f32[12,64,768]{1,0,2}, f32[12,64]{1,0}, f32[768,12,64]{0,2,1}, f32[12,64]{1,0}, /*index=560*/f32[768,12,64]{0,2,1}, f32[768]{0}, f32[768]{0}, f32[768]{0}, f32[768]{0}, /*index=565*/f32[3072]{0}, f32[768,3072]{0,1}, f32[768]{0}, f32[3072,768]{0,1}, f32[12,64]{1,0}, /*index=570*/f32[768,12,64]{0,2,1}, f32[768]{0}, f32[12,64,768]{1,0,2}, f32[12,64]{1,0}, f32[768,12,64]{0,2,1}, /*index=575*/f32[12,64]{1,0}, f32[768,12,64]{0,2,1}, f32[768]{0}, f32[768]{0}, f32[768]{0}, /*index=580*/f32[768]{0}, f32[3072]{0}, f32[768,3072]{0,1}, f32[768]{0}, f32[3072,768]{0,1}, /*index=585*/f32[12,64]{1,0}, f32[768,12,64]{0,2,1}, f32[768]{0}, f32[12,64,768]{1,0,2}, f32[12,64]{1,0}, /*index=590*/f32[768,12,64]{0,2,1}, f32[12,64]{1,0}, f32[768,12,64]{0,2,1}, f32[768]{0}, f32[16,16,3,768]{3,2,1,0}, /*index=595*/f32[1000]{0}, f32[768,1000]{0,1}, f32[1,196,768]{2,1,0}, f32[]) tuple(%add.2759, %add.2760, %add.2761, %add.2762, %add.2763, /*index=5*/%add.2764, %add.2765, %add.2766, %add.2767, %add.2768, /*index=10*/%add.2769, %add.2770, %add.2771, %add.2772, %add.2773, /*index=15*/%add.2774, %add.2775, %add.2776, %add.2777, %add.2778, /*index=20*/%add.2779, %add.2780, %add.2781, %add.2782, %add.2783, /*index=25*/%add.2784, %add.2785, %add.2786, %add.2787, %add.2788, /*index=30*/%add.2789, %add.2790, %add.2791, %add.2792, %add.2793, /*index=35*/%add.2794, %add.2795, %add.2796, %add.2797, %add.2798, /*index=40*/%add.2799, %add.2800, %add.2801, %add.2802, %add.2803, /*index=45*/%add.2804, %add.2805, %add.2806, %add.2807, %add.2808, /*index=50*/%add.2809, %add.2810, %add.2811, %add.2812, %add.2813, /*index=55*/%add.2814, %add.2815, %add.2816, %add.2817, %add.2818, /*index=60*/%add.2819, %add.2820, %add.2821, %add.2822, %add.2823, /*index=65*/%add.2824, %add.2825, %add.2826, %add.2827, %add.2828, /*index=70*/%add.2829, %add.2830, %add.2831, %add.2832, %add.2833, /*index=75*/%add.2834, %add.2835, %add.2836, %add.2837, %add.2838, /*index=80*/%add.2839, %add.2840, %add.2841, %add.2842, %add.2843, /*index=85*/%add.2844, %add.2845, %add.2846, %add.2847, %add.2848, /*index=90*/%add.2849, %add.2850, %add.2851, %add.2852, %add.2853, /*index=95*/%add.2854, %add.2855, %add.2856, %add.2857, %add.2858, /*index=100*/%add.2859, %add.2860, %add.2861, %add.2862, %add.2863, /*index=105*/%add.2864, %add.2865, %add.2866, %add.2867, %add.2868, /*index=110*/%add.2869, %add.2870, %add.2871, %add.2872, %add.2873, /*index=115*/%add.2874, %add.2875, %add.2876, %add.2877, %add.2878, /*index=120*/%add.2879, %add.2880, %add.2881, %add.2882, %add.2883, /*index=125*/%add.2884, %add.2885, %add.2886, %add.2887, %add.2888, /*index=130*/%add.2889, %add.2890, %add.2891, %add.2892, %add.2893, /*index=135*/%add.2894, %add.2895, %add.2896, %add.2897, %add.2898, /*index=140*/%add.2899, %add.2900, %add.2901, %add.2902, %add.2903, /*index=145*/%add.2904, %add.2905, %add.2906, %add.2907, %add.2908, /*index=150*/%add.2909, %add.2910, %add.2911, %add.2912, %add.2913, /*index=155*/%add.2914, %add.2915, %add.2916, %add.2917, %add.2918, /*index=160*/%add.2919, %add.2920, %add.2921, %add.2922, %add.2923, /*index=165*/%add.2924, %add.2925, %add.2926, %add.2927, %add.2928, /*index=170*/%add.2929, %add.2930, %add.2931, %add.2932, %add.2933, /*index=175*/%add.2934, %add.2935, %add.2936, %add.2937, %add.2938, /*index=180*/%add.2939, %add.2940, %add.2941, %add.2942, %add.2943, /*index=185*/%add.2944, %add.2945, %add.2946, %add.2947, %add.2948, /*index=190*/%add.2949, %add.2950, %add.2951, %add.2952, %add.2953, /*index=195*/%add.2954, %add.2955, %add.2956, %add.2957, %jit__where_.3, /*index=200*/%add.1962, %add.1963, %add.1964, %add.1965, %add.1966, /*index=205*/%add.1967, %add.1968, %add.1969, %add.1970, %add.1971, /*index=210*/%add.1972, %add.1973, %add.1974, %add.1975, %add.1976, /*index=215*/%add.1977, %add.1978, %add.1979, %add.1980, %add.1981, /*index=220*/%add.1982, %add.1983, %add.1984, %add.1985, %add.1986, /*index=225*/%add.1987, %add.1988, %add.1989, %add.1990, %add.1991, /*index=230*/%add.1992, %add.1993, %add.1994, %add.1995, %add.1996, /*index=235*/%add.1997, %add.1998, %add.1999, %add.2000, %add.2001, /*index=240*/%add.2002, %add.2003, %add.2004, %add.2005, %add.2006, /*index=245*/%add.2007, %add.2008, %add.2009, %add.2010, %add.2011, /*index=250*/%add.2012, %add.2013, %add.2014, %add.2015, %add.2016, /*index=255*/%add.2017, %add.2018, %add.2019, %add.2020, %add.2021, /*index=260*/%add.2022, %add.2023, %add.2024, %add.2025, %add.2026, /*index=265*/%add.2027, %add.2028, %add.2029, %add.2030, %add.2031, /*index=270*/%add.2032, %add.2033, %add.2034, %add.2035, %add.2036, /*index=275*/%add.2037, %add.2038, %add.2039, %add.2040, %add.2041, /*index=280*/%add.2042, %add.2043, %add.2044, %add.2045, %add.2046, /*index=285*/%add.2047, %add.2048, %add.2049, %add.2050, %add.2051, /*index=290*/%add.2052, %add.2053, %add.2054, %add.2055, %add.2056, /*index=295*/%add.2057, %add.2058, %add.2059, %add.2060, %add.2061, /*index=300*/%add.2062, %add.2063, %add.2064, %add.2065, %add.2066, /*index=305*/%add.2067, %add.2068, %add.2069, %add.2070, %add.2071, /*index=310*/%add.2072, %add.2073, %add.2074, %add.2075, %add.2076, /*index=315*/%add.2077, %add.2078, %add.2079, %add.2080, %add.2081, /*index=320*/%add.2082, %add.2083, %add.2084, %add.2085, %add.2086, /*index=325*/%add.2087, %add.2088, %add.2089, %add.2090, %add.2091, /*index=330*/%add.2092, %add.2093, %add.2094, %add.2095, %add.2096, /*index=335*/%add.2097, %add.2098, %add.2099, %add.2100, %add.2101, /*index=340*/%add.2102, %add.2103, %add.2104, %add.2105, %add.2106, /*index=345*/%add.2107, %add.2108, %add.2109, %add.2110, %add.2111, /*index=350*/%add.2112, %add.2113, %add.2114, %add.2115, %add.2116, /*index=355*/%add.2117, %add.2118, %add.2119, %add.2120, %add.2121, /*index=360*/%add.2122, %add.2123, %add.2124, %add.2125, %add.2126, /*index=365*/%add.2127, %add.2128, %add.2129, %add.2130, %add.2131, /*index=370*/%add.2132, %add.2133, %add.2134, %add.2135, %add.2136, /*index=375*/%add.2137, %add.2138, %add.2139, %add.2140, %add.2141, /*index=380*/%add.2142, %add.2143, %add.2144, %add.2145, %add.2146, /*index=385*/%add.2147, %add.2148, %add.2149, %add.2150, %add.2151, /*index=390*/%add.2152, %add.2153, %add.2154, %add.2155, %add.2156, /*index=395*/%add.2157, %add.2158, %add.2159, %add.2160, %add.2161, /*index=400*/%add.2162, %add.2163, %add.2164, %add.2165, %add.2166, /*index=405*/%add.2167, %add.2168, %add.2169, %add.2170, %add.2171, /*index=410*/%add.2172, %add.2173, %add.2174, %add.2175, %add.2176, /*index=415*/%add.2177, %add.2178, %add.2179, %add.2180, %add.2181, /*index=420*/%add.2182, %add.2183, %add.2184, %add.2185, %add.2186, /*index=425*/%add.2187, %add.2188, %add.2189, %add.2190, %add.2191, /*index=430*/%add.2192, %add.2193, %add.2194, %add.2195, %add.2196, /*index=435*/%add.2197, %add.2198, %add.2199, %add.2200, %add.2201, /*index=440*/%add.2202, %add.2203, %add.2204, %add.2205, %add.2206, /*index=445*/%add.2207, %add.2208, %add.2209, %add.2210, %add.2211, /*index=450*/%add.2212, %add.2213, %add.2214, %add.2215, %add.2216, /*index=455*/%add.2217, %add.2218, %add.2219, %add.2220, %add.2221, /*index=460*/%add.2222, %add.2223, %add.2224, %add.2225, %add.2226, /*index=465*/%add.2227, %add.2228, %add.2229, %add.2230, %add.2231, /*index=470*/%add.2232, %add.2233, %add.2234, %add.2235, %add.2236, /*index=475*/%add.2237, %add.2238, %add.2239, %add.2240, %add.2241, /*index=480*/%add.2242, %add.2243, %add.2244, %add.2245, %add.2246, /*index=485*/%add.2247, %add.2248, %add.2249, %add.2250, %add.2251, /*index=490*/%add.2252, %add.2253, %add.2254, %add.2255, %add.2256, /*index=495*/%add.2257, %add.2258, %add.2259, %add.2260, %add.2261, /*index=500*/%add.2262, %add.2263, %add.2264, %add.2265, %add.2266, /*index=505*/%add.2267, %add.2268, %add.2269, %add.2270, %add.2271, /*index=510*/%add.2272, %add.2273, %add.2274, %add.2275, %add.2276, /*index=515*/%add.2277, %add.2278, %add.2279, %add.2280, %add.2281, /*index=520*/%add.2282, %add.2283, %add.2284, %add.2285, %add.2286, /*index=525*/%add.2287, %add.2288, %add.2289, %add.2290, %add.2291, /*index=530*/%add.2292, %add.2293, %add.2294, %add.2295, %add.2296, /*index=535*/%add.2297, %add.2298, %add.2299, %add.2300, %add.2301, /*index=540*/%add.2302, %add.2303, %add.2304, %add.2305, %add.2306, /*index=545*/%add.2307, %add.2308, %add.2309, %add.2310, %add.2311, /*index=550*/%add.2312, %add.2313, %add.2314, %add.2315, %add.2316, /*index=555*/%add.2317, %add.2318, %add.2319, %add.2320, %add.2321, /*index=560*/%add.2322, %add.2323, %add.2324, %add.2325, %add.2326, /*index=565*/%add.2327, %add.2328, %add.2329, %add.2330, %add.2331, /*index=570*/%add.2332, %add.2333, %add.2334, %add.2335, %add.2336, /*index=575*/%add.2337, %add.2338, %add.2339, %add.2340, %add.2341, /*index=580*/%add.2342, %add.2343, %add.2344, %add.2345, %add.2346, /*index=585*/%add.2347, %add.2348, %add.2349, %add.2350, %add.2351, /*index=590*/%add.2352, %add.2353, %add.2354, %add.2355, %add.2356, /*index=595*/%add.2357, %add.2358, %add.2359, %div.1454)
}

