HloModule jit__generate_jit, buffer_donor={ (0, {}), (1, {}), (2, {}), (3, {}), (4, {}), (5, {}), (6, {}), (7, {}), (8, {}), (9, {}), (10, {}), (11, {}), (12, {}), (13, {}), (14, {}), (15, {}), (16, {}), (17, {}), (18, {}), (19, {}), (20, {}), (21, {}), (22, {}), (23, {}), (24, {}), (25, {}), (26, {}), (27, {}), (28, {}), (29, {}), (30, {}), (31, {}), (32, {}), (33, {}), (34, {}), (35, {}), (36, {}), (37, {}), (38, {}), (39, {}), (40, {}), (41, {}), (42, {}), (43, {}), (44, {}), (45, {}), (46, {}), (47, {}), (48, {}), (49, {}), (50, {}), (51, {}), (52, {}), (53, {}), (54, {}), (55, {}), (56, {}), (57, {}), (58, {}), (59, {}), (60, {}), (61, {}), (62, {}), (63, {}), (64, {}), (65, {}), (66, {}), (67, {}), (68, {}), (69, {}), (70, {}), (71, {}), (72, {}), (73, {}), (74, {}), (75, {}), (76, {}), (77, {}), (78, {}), (79, {}), (80, {}), (81, {}), (82, {}) }, entry_computation_layout={(s32[5,1]{1,0}, s32[5,4,1984]{2,1,0}, s32[5,4,64]{2,1,0}, bf16[5,1984,4,4,256]{4,3,2,1,0}, s32[5,4]{1,0}, /*index=5*/bf16[5,1984,4,4,256]{4,3,2,1,0}, bf16[5,64,4,4,256]{4,3,2,1,0}, bf16[5,64,4,4,256]{4,3,2,1,0}, s32[5,1]{1,0}, s32[5,4,1984]{2,1,0}, /*index=10*/s32[5,4,64]{2,1,0}, bf16[5,1984,4,4,256]{4,3,2,1,0}, s32[5,4]{1,0}, bf16[5,1984,4,4,256]{4,3,2,1,0}, bf16[5,64,4,4,256]{4,3,2,1,0}, /*index=15*/bf16[5,64,4,4,256]{4,3,2,1,0}, s32[5,1]{1,0}, s32[5,4,1984]{2,1,0}, s32[5,4,64]{2,1,0}, bf16[5,1984,4,4,256]{4,3,2,1,0}, /*index=20*/s32[5,4]{1,0}, bf16[5,1984,4,4,256]{4,3,2,1,0}, bf16[5,64,4,4,256]{4,3,2,1,0}, bf16[5,64,4,4,256]{4,3,2,1,0}, s32[5,1]{1,0}, /*index=25*/s32[5,4,1984]{2,1,0}, s32[5,4,64]{2,1,0}, bf16[5,1984,4,4,256]{4,3,2,1,0}, s32[5,4]{1,0}, bf16[5,1984,4,4,256]{4,3,2,1,0}, /*index=30*/bf16[5,64,4,4,256]{4,3,2,1,0}, bf16[5,64,4,4,256]{4,3,2,1,0}, s32[5,1]{1,0}, s32[5,4,1984]{2,1,0}, s32[5,4,64]{2,1,0}, /*index=35*/bf16[5,1984,4,4,256]{4,3,2,1,0}, s32[5,4]{1,0}, bf16[5,1984,4,4,256]{4,3,2,1,0}, bf16[5,64,4,4,256]{4,3,2,1,0}, bf16[5,64,4,4,256]{4,3,2,1,0}, /*index=40*/s32[5,1]{1,0}, s32[5,4,1984]{2,1,0}, s32[5,4,64]{2,1,0}, bf16[5,1984,4,4,256]{4,3,2,1,0}, s32[5,4]{1,0}, /*index=45*/bf16[5,1984,4,4,256]{4,3,2,1,0}, bf16[5,64,4,4,256]{4,3,2,1,0}, bf16[5,64,4,4,256]{4,3,2,1,0}, s32[1]{0}, s32[4,1984]{1,0}, /*index=50*/s32[4,64]{1,0}, bf16[1984,4,4,256]{3,2,1,0}, s32[4]{0}, bf16[1984,4,4,256]{3,2,1,0}, bf16[64,4,4,256]{3,2,1,0}, /*index=55*/bf16[64,4,4,256]{3,2,1,0}, s32[1]{0}, s32[4,1984]{1,0}, s32[4,64]{1,0}, bf16[1984,4,4,256]{3,2,1,0}, /*index=60*/s32[4]{0}, bf16[1984,4,4,256]{3,2,1,0}, bf16[64,4,4,256]{3,2,1,0}, bf16[64,4,4,256]{3,2,1,0}, s32[1]{0}, /*index=65*/s32[4,1984]{1,0}, s32[4,64]{1,0}, bf16[1984,4,4,256]{3,2,1,0}, s32[4]{0}, bf16[1984,4,4,256]{3,2,1,0}, /*index=70*/bf16[64,4,4,256]{3,2,1,0}, bf16[64,4,4,256]{3,2,1,0}, s32[1]{0}, s32[4,1984]{1,0}, s32[4,64]{1,0}, /*index=75*/bf16[1984,4,4,256]{3,2,1,0}, s32[4]{0}, bf16[1984,4,4,256]{3,2,1,0}, bf16[64,4,4,256]{3,2,1,0}, bf16[64,4,4,256]{3,2,1,0}, /*index=80*/s32[4,1]{1,0}, s32[4,1]{1,0}, s32[4,1]{1,0}, f32[2560]{0}, f32[2560,5,10240]{2,1,0}, /*index=85*/f32[2560,5,10240]{2,1,0}, f32[10240,5,2560]{2,1,0}, f32[2560,5]{1,0}, f32[2560,5]{1,0}, f32[2560,5]{1,0}, /*index=90*/f32[2560,5]{1,0}, f32[2560,5,4,256]{3,2,1,0}, f32[256,5]{1,0}, f32[8,5,256,2560]{3,2,1,0}, f32[2560,5,8,256]{3,2,1,0}, /*index=95*/f32[256,5]{1,0}, f32[2560,5,4,256]{3,2,1,0}, f32[2560,5,10240]{2,1,0}, f32[2560,5,10240]{2,1,0}, f32[10240,5,2560]{2,1,0}, /*index=100*/f32[2560,5]{1,0}, f32[2560,5]{1,0}, f32[2560,5]{1,0}, f32[2560,5]{1,0}, f32[2560,5,4,256]{3,2,1,0}, /*index=105*/f32[256,5]{1,0}, f32[8,5,256,2560]{3,2,1,0}, f32[2560,5,8,256]{3,2,1,0}, f32[256,5]{1,0}, f32[2560,5,4,256]{3,2,1,0}, /*index=110*/f32[2560,5,10240]{2,1,0}, f32[2560,5,10240]{2,1,0}, f32[10240,5,2560]{2,1,0}, f32[2560,5]{1,0}, f32[2560,5]{1,0}, /*index=115*/f32[2560,5]{1,0}, f32[2560,5]{1,0}, f32[2560,5,4,256]{3,2,1,0}, f32[256,5]{1,0}, f32[8,5,256,2560]{3,2,1,0}, /*index=120*/f32[2560,5,8,256]{3,2,1,0}, f32[256,5]{1,0}, f32[2560,5,4,256]{3,2,1,0}, f32[2560,5,10240]{2,1,0}, f32[2560,5,10240]{2,1,0}, /*index=125*/f32[10240,5,2560]{2,1,0}, f32[2560,5]{1,0}, f32[2560,5]{1,0}, f32[2560,5]{1,0}, f32[2560,5]{1,0}, /*index=130*/f32[2560,5,4,256]{3,2,1,0}, f32[256,5]{1,0}, f32[8,5,256,2560]{3,2,1,0}, f32[2560,5,8,256]{3,2,1,0}, f32[256,5]{1,0}, /*index=135*/f32[2560,5,4,256]{3,2,1,0}, f32[2560,5,10240]{2,1,0}, f32[2560,5,10240]{2,1,0}, f32[10240,5,2560]{2,1,0}, f32[2560,5]{1,0}, /*index=140*/f32[2560,5]{1,0}, f32[2560,5]{1,0}, f32[2560,5]{1,0}, f32[2560,5,4,256]{3,2,1,0}, f32[256,5]{1,0}, /*index=145*/f32[8,5,256,2560]{3,2,1,0}, f32[2560,5,8,256]{3,2,1,0}, f32[256,5]{1,0}, f32[2560,5,4,256]{3,2,1,0}, f32[2560,5,10240]{2,1,0}, /*index=150*/f32[2560,5,10240]{2,1,0}, f32[10240,5,2560]{2,1,0}, f32[2560,5]{1,0}, f32[2560,5]{1,0}, f32[2560,5]{1,0}, /*index=155*/f32[2560,5]{1,0}, f32[2560,5,4,256]{3,2,1,0}, f32[256,5]{1,0}, f32[8,5,256,2560]{3,2,1,0}, f32[2560,5,8,256]{3,2,1,0}, /*index=160*/f32[256,5]{1,0}, f32[2560,5,4,256]{3,2,1,0}, f32[2560,10240]{1,0}, f32[2560,10240]{1,0}, f32[10240,2560]{1,0}, /*index=165*/f32[2560]{0}, f32[2560]{0}, f32[2560]{0}, f32[2560]{0}, f32[2560,4,256]{2,1,0}, /*index=170*/f32[256]{0}, f32[8,256,2560]{2,1,0}, f32[2560,8,256]{2,1,0}, f32[256]{0}, f32[2560,4,256]{2,1,0}, /*index=175*/f32[2560,10240]{1,0}, f32[2560,10240]{1,0}, f32[10240,2560]{1,0}, f32[2560]{0}, f32[2560]{0}, /*index=180*/f32[2560]{0}, f32[2560]{0}, f32[2560,4,256]{2,1,0}, f32[256]{0}, f32[8,256,2560]{2,1,0}, /*index=185*/f32[2560,8,256]{2,1,0}, f32[256]{0}, f32[2560,4,256]{2,1,0}, f32[2560,10240]{1,0}, f32[2560,10240]{1,0}, /*index=190*/f32[10240,2560]{1,0}, f32[2560]{0}, f32[2560]{0}, f32[2560]{0}, f32[2560]{0}, /*index=195*/f32[2560,4,256]{2,1,0}, f32[256]{0}, f32[8,256,2560]{2,1,0}, f32[2560,8,256]{2,1,0}, f32[256]{0}, /*index=200*/f32[2560,4,256]{2,1,0}, f32[2560,10240]{1,0}, f32[2560,10240]{1,0}, f32[10240,2560]{1,0}, f32[2560]{0}, /*index=205*/f32[2560]{0}, f32[2560]{0}, f32[2560]{0}, f32[2560,4,256]{2,1,0}, f32[256]{0}, /*index=210*/f32[8,256,2560]{2,1,0}, f32[2560,8,256]{2,1,0}, f32[256]{0}, f32[2560,4,256]{2,1,0}, f32[262144,2560]{1,0})->(s32[5,1]{1,0}, s32[5,4,1984]{2,1,0}, s32[5,4,64]{2,1,0}, bf16[5,1984,4,4,256]{4,3,2,1,0}, s32[5,4]{1,0}, /*index=5*/bf16[5,1984,4,4,256]{4,3,2,1,0}, bf16[5,64,4,4,256]{4,3,2,1,0}, bf16[5,64,4,4,256]{4,3,2,1,0}, s32[5,1]{1,0}, s32[5,4,1984]{2,1,0}, /*index=10*/s32[5,4,64]{2,1,0}, bf16[5,1984,4,4,256]{4,3,2,1,0}, s32[5,4]{1,0}, bf16[5,1984,4,4,256]{4,3,2,1,0}, bf16[5,64,4,4,256]{4,3,2,1,0}, /*index=15*/bf16[5,64,4,4,256]{4,3,2,1,0}, s32[5,1]{1,0}, s32[5,4,1984]{2,1,0}, s32[5,4,64]{2,1,0}, bf16[5,1984,4,4,256]{4,3,2,1,0}, /*index=20*/s32[5,4]{1,0}, bf16[5,1984,4,4,256]{4,3,2,1,0}, bf16[5,64,4,4,256]{4,3,2,1,0}, bf16[5,64,4,4,256]{4,3,2,1,0}, s32[5,1]{1,0}, /*index=25*/s32[5,4,1984]{2,1,0}, s32[5,4,64]{2,1,0}, bf16[5,1984,4,4,256]{4,3,2,1,0}, s32[5,4]{1,0}, bf16[5,1984,4,4,256]{4,3,2,1,0}, /*index=30*/bf16[5,64,4,4,256]{4,3,2,1,0}, bf16[5,64,4,4,256]{4,3,2,1,0}, s32[5,1]{1,0}, s32[5,4,1984]{2,1,0}, s32[5,4,64]{2,1,0}, /*index=35*/bf16[5,1984,4,4,256]{4,3,2,1,0}, s32[5,4]{1,0}, bf16[5,1984,4,4,256]{4,3,2,1,0}, bf16[5,64,4,4,256]{4,3,2,1,0}, bf16[5,64,4,4,256]{4,3,2,1,0}, /*index=40*/s32[5,1]{1,0}, s32[5,4,1984]{2,1,0}, s32[5,4,64]{2,1,0}, bf16[5,1984,4,4,256]{4,3,2,1,0}, s32[5,4]{1,0}, /*index=45*/bf16[5,1984,4,4,256]{4,3,2,1,0}, bf16[5,64,4,4,256]{4,3,2,1,0}, bf16[5,64,4,4,256]{4,3,2,1,0}, s32[1]{0}, s32[4,1984]{1,0}, /*index=50*/s32[4,64]{1,0}, bf16[1984,4,4,256]{3,2,1,0}, s32[4]{0}, bf16[1984,4,4,256]{3,2,1,0}, bf16[64,4,4,256]{3,2,1,0}, /*index=55*/bf16[64,4,4,256]{3,2,1,0}, s32[1]{0}, s32[4,1984]{1,0}, s32[4,64]{1,0}, bf16[1984,4,4,256]{3,2,1,0}, /*index=60*/s32[4]{0}, bf16[1984,4,4,256]{3,2,1,0}, bf16[64,4,4,256]{3,2,1,0}, bf16[64,4,4,256]{3,2,1,0}, s32[1]{0}, /*index=65*/s32[4,1984]{1,0}, s32[4,64]{1,0}, bf16[1984,4,4,256]{3,2,1,0}, s32[4]{0}, bf16[1984,4,4,256]{3,2,1,0}, /*index=70*/bf16[64,4,4,256]{3,2,1,0}, bf16[64,4,4,256]{3,2,1,0}, s32[1]{0}, s32[4,1984]{1,0}, s32[4,64]{1,0}, /*index=75*/bf16[1984,4,4,256]{3,2,1,0}, s32[4]{0}, bf16[1984,4,4,256]{3,2,1,0}, bf16[64,4,4,256]{3,2,1,0}, bf16[64,4,4,256]{3,2,1,0}, /*index=80*/s32[4,1]{1,0}, f32[4,1,262144]{2,1,0}, s32[4,1]{1,0}, f32[4,1]{1,0}, s32[4,1]{1,0}, /*index=85*/s32[4,3]{1,0}, f32[4,1]{1,0})}, allow_spmd_sharding_propagation_to_parameters={false,false,false,false,false,false,false,false,false,false,false,false,false,false,false,false,false,false,false,false,false,false,false,false,false,false,false,false,false,false,false,false,false,false,false,false,false,false,false,false,false,false,false,false,false,false,false,false,false,false,false,false,false,false,false,false,false,false,false,false,false,false,false,false,false,false,false,false,false,false,false,false,false,false,false,false,false,false,false,false,false,false,false,false,false,false,false,false,false,false,false,false,false,false,false,false,false,false,false,false,false,false,false,false,false,false,false,false,false,false,false,false,false,false,false,false,false,false,false,false,false,false,false,false,false,false,false,false,false,false,false,false,false,false,false,false,false,false,false,false,false,false,false,false,false,false,false,false,false,false,false,false,false,false,false,false,false,false,false,false,false,false,false,false,false,false,false,false,false,false,false,false,false,false,false,false,false,false,false,false,false,false,false,false,false,false,false,false,false,false,false,false,false,false,false,false,false,false,false,false,false,false,false,false,false,false,false,false,false,false,false,false,false,false,false}, allow_spmd_sharding_propagation_to_output={true,true,true,true,true,true,true,true,true,true,true,true,true,true,true,true,true,true,true,true,true,true,true,true,true,true,true,true,true,true,true,true,true,true,true,true,true,true,true,true,true,true,true,true,true,true,true,true,true,true,true,true,true,true,true,true,true,true,true,true,true,true,true,true,true,true,true,true,true,true,true,true,true,true,true,true,true,true,true,true,true,true,true,true,true,true,true}, num_partitions=4, frontend_attributes={xla.sdy.meshes={mesh = #sdy.mesh<["diloco"=1, "data"=1, "stage"=1, "fsdp"=1, "fsdp_transpose"=1, "context"=1, "context_autoregressive"=1, "tensor"=4, "tensor_transpose"=1, "tensor_sequence"=1, "expert"=1, "autoregressive"=1]>}}

FileNames
1 "/tf/jax-lab/targets/maxtext_release/maxtext/src/maxtext/inference/maxengine/maxengine.py"
2 "/tf/jax-lab/targets/maxtext_release/maxtext/src/maxtext/models/models.py"
3 "/tf/jax-lab/targets/maxtext_release/maxtext/src/maxtext/layers/decoders.py"
4 "/usr/local/lib/python3.12/dist-packages/flax/core/axes_scan.py"
5 "/tf/jax-lab/targets/maxtext_release/maxtext/src/maxtext/layers/nnx_wrappers.py"
6 "/tf/jax-lab/targets/maxtext_release/maxtext/src/maxtext/models/gemma3.py"
7 "/tf/jax-lab/targets/maxtext_release/maxtext/src/maxtext/layers/normalizations.py"
8 "/tf/jax-lab/targets/maxtext_release/maxtext/src/maxtext/layers/attentions.py"
9 "/tf/jax-lab/targets/maxtext_release/maxtext/src/maxtext/inference/kvcache.py"
10 "/tf/jax-lab/targets/maxtext_release/maxtext/src/maxtext/layers/attention_op.py"
11 "/tf/jax-lab/targets/maxtext_release/maxtext/src/maxtext/utils/sharding.py"
12 "/tf/jax-lab/targets/maxtext_release/maxtext/src/maxtext/layers/linears.py"
13 "/tf/jax-lab/targets/maxtext_release/maxtext/src/maxtext/layers/embeddings.py"
14 "<frozen runpy>"
15 "/tf/jax-lab/targets/maxtext_release/maxtext/src/maxtext/inference/decode.py"
16 "/usr/local/lib/python3.12/dist-packages/absl/app.py"
17 "/tf/jax-lab/targets/maxtext_release/maxtext/src/maxtext/inference/inference_utils.py"

FunctionNames
1 "MaxEngine._prefill_jit"
2 "TransformerLinenPure.apply"
3 "TransformerLinenPure.__call__"
4 "Decoder.__call__"
5 "Decoder._apply_gemma3_scanned_blocks"
6 "scan.<locals>.scan_fn"
7 "MaxEngine._generate_jit"
8 "scan.<locals>.scan_fn.<locals>.body_fn"
9 "ToLinen.__call__"
10 "Gemma3ScannableBlock.__call__"
11 "_fix_for_qwix_quantization.<locals>.wrap.<locals>.wrapped"
12 "Gemma3DecoderLayer.__call__"
13 "RMSNorm.__call__"
14 "Attention.__call__"
15 "Attention.update_kv_caches"
16 "KVCache.__call__"
17 "KVCache.kv_cache_autoregressive"
18 "AttentionOp.__call__"
19 "AttentionOp.apply_attention"
20 "AttentionOp.apply_attention_dot"
21 "AttentionOp.compute_local_attention"
22 "AttentionOp.generate_attention_mask"
23 "apply_mask_to_logits"
24 "KVCache.get_cached_values"
25 "KVCache.get_cached_values.<locals>.<lambda>"
26 "reverse_transpose"
27 "maybe_shard_with_logical"
28 "maybe_shard_with_name"
29 "Attention.query_projection"
30 "DenseGeneral.__call__"
31 "_compute_dot_general_nnx"
32 "Attention.apply_rotary_embedding"
33 "RotaryEmbedding.__call__"
34 "RotaryEmbedding.timescale"
35 "RotaryEmbedding.apply_rotary"
36 "RotaryEmbedding._rotate_half"
37 "AttentionOp.qk_product"
38 "Attention.kv_projection"
39 "KVCache.update_ar_key_value"
40 "AttentionOp.normalize_attention"
41 "AttentionOp.normalize_attention.<locals>.<genexpr>"
42 "AttentionOp.wv_product"
43 "Attention.out_projection"
44 "MlpBlock.__call__"
45 "_run_module_as_main"
46 "_run_code"
47 "<module>"
48 "run"
49 "_run_main"
50 "main"
51 "MaxEngine.generate"
52 "Decoder.apply_output_head"
53 "sampling"
54 "Decoder._apply_embedding"
55 "Embed.__call__"
56 "scan.<locals>.transpose_to_front"
57 "scan.<locals>.transpose_to_front.<locals>.trans"
58 "attend_on_embedding"

FileLocations
1 {file_name_id=1 function_name_id=1 line=798 end_line=815 column=32 end_column=9}
2 {file_name_id=2 function_name_id=2 line=71 end_line=71 column=11 end_column=51}
3 {file_name_id=2 function_name_id=3 line=202 end_line=215 column=38 end_column=5}
4 {file_name_id=3 function_name_id=4 line=1049 end_line=1058 column=14 end_column=11}
5 {file_name_id=3 function_name_id=5 line=1329 end_line=1338 column=13 end_column=48}
6 {file_name_id=4 function_name_id=6 line=200 end_line=203 column=14 end_column=7}
7 {file_name_id=1 function_name_id=7 line=1353 end_line=1361 column=31 end_column=9}
8 {file_name_id=4 function_name_id=8 line=157 end_line=157 column=29 end_column=53}
9 {file_name_id=5 function_name_id=9 line=549 end_line=549 column=10 end_column=44}
10 {file_name_id=6 function_name_id=10 line=335 end_line=344 column=10 end_column=7}
11 {file_name_id=5 function_name_id=11 line=383 end_line=383 column=15 end_column=39}
12 {file_name_id=6 function_name_id=12 line=208 end_line=208 column=10 end_column=46}
13 {file_name_id=7 function_name_id=13 line=72 end_line=72 column=12 end_column=59}
14 {file_name_id=6 function_name_id=12 line=212 end_line=222 column=30 end_column=5}
15 {file_name_id=8 function_name_id=14 line=1160 end_line=1160 column=14 end_column=36}
16 {file_name_id=8 function_name_id=14 line=1162 end_line=1162 column=14 end_column=32}
17 {file_name_id=8 function_name_id=14 line=1224 end_line=1224 column=24 end_column=106}
18 {file_name_id=8 function_name_id=15 line=994 end_line=1001 column=36 end_column=5}
19 {file_name_id=9 function_name_id=16 line=959 end_line=959 column=13 end_column=75}
20 {file_name_id=9 function_name_id=17 line=907 end_line=907 column=35 end_column=80}
21 {file_name_id=8 function_name_id=14 line=1225 end_line=1236 column=12 end_column=7}
22 {file_name_id=10 function_name_id=18 line=2106 end_line=2123 column=86 end_column=5}
23 {file_name_id=10 function_name_id=19 line=972 end_line=986 column=13 end_column=7}
24 {file_name_id=10 function_name_id=20 line=1919 end_line=1919 column=11 end_column=109}
25 {file_name_id=10 function_name_id=21 line=1770 end_line=1770 column=16 end_column=55}
26 {file_name_id=10 function_name_id=21 line=1772 end_line=1772 column=16 end_column=68}
27 {file_name_id=10 function_name_id=18 line=2133 end_line=2146 column=71 end_column=5}
28 {file_name_id=6 function_name_id=12 line=224 end_line=224 column=22 end_column=66}
29 {file_name_id=6 function_name_id=12 line=230 end_line=230 column=18 end_column=50}
30 {file_name_id=6 function_name_id=12 line=235 end_line=235 column=16 end_column=43}
31 {file_name_id=7 function_name_id=13 line=90 end_line=90 column=12 end_column=42}
32 {file_name_id=10 function_name_id=20 line=1866 end_line=1874 column=16 end_column=5}
33 {file_name_id=10 function_name_id=22 line=698 end_line=698 column=13 end_column=56}
34 {file_name_id=10 function_name_id=22 line=787 end_line=787 column=11 end_column=58}
35 {file_name_id=10 function_name_id=20 line=1906 end_line=1906 column=21 end_column=66}
36 {file_name_id=10 function_name_id=23 line=121 end_line=121 column=20 end_column=52}
37 {file_name_id=9 function_name_id=17 line=914 end_line=914 column=8 end_column=97}
38 {file_name_id=9 function_name_id=24 line=848 end_line=848 column=35 end_column=110}
39 {file_name_id=9 function_name_id=25 line=848 end_line=848 column=58 end_column=96}
40 {file_name_id=9 function_name_id=26 line=42 end_line=42 column=9 end_column=81}
41 {file_name_id=10 function_name_id=22 line=741 end_line=741 column=24 end_column=79}
42 {file_name_id=10 function_name_id=22 line=742 end_line=742 column=22 end_column=84}
43 {file_name_id=10 function_name_id=22 line=743 end_line=743 column=10 end_column=44}
44 {file_name_id=10 function_name_id=22 line=742 end_line=744 column=21 end_column=7}
45 {file_name_id=10 function_name_id=22 line=745 end_line=745 column=20 end_column=46}
46 {file_name_id=7 function_name_id=13 line=71 end_line=71 column=8 end_column=35}
47 {file_name_id=7 function_name_id=13 line=72 end_line=72 column=21 end_column=34}
48 {file_name_id=7 function_name_id=13 line=73 end_line=73 column=34 end_column=54}
49 {file_name_id=7 function_name_id=13 line=73 end_line=73 column=24 end_column=55}
50 {file_name_id=7 function_name_id=13 line=73 end_line=73 column=20 end_column=55}
51 {file_name_id=7 function_name_id=13 line=73 end_line=73 column=8 end_column=68}
52 {file_name_id=7 function_name_id=13 line=92 end_line=92 column=11 end_column=84}
53 {file_name_id=8 function_name_id=14 line=1124 end_line=1124 column=15 end_column=73}
54 {file_name_id=11 function_name_id=27 line=147 end_line=155 column=9 end_column=3}
55 {file_name_id=11 function_name_id=28 line=113 end_line=113 column=11 end_column=67}
56 {file_name_id=8 function_name_id=14 line=1142 end_line=1142 column=14 end_column=72}
57 {file_name_id=8 function_name_id=29 line=614 end_line=614 column=11 end_column=58}
58 {file_name_id=12 function_name_id=30 line=231 end_line=231 column=15 end_column=46}
59 {file_name_id=12 function_name_id=30 line=238 end_line=247 column=13 end_column=5}
60 {file_name_id=12 function_name_id=31 line=102 end_line=104 column=9 end_column=3}
61 {file_name_id=8 function_name_id=14 line=1172 end_line=1172 column=14 end_column=108}
62 {file_name_id=8 function_name_id=32 line=935 end_line=935 column=13 end_column=60}
63 {file_name_id=13 function_name_id=33 line=359 end_line=359 column=15 end_column=55}
64 {file_name_id=13 function_name_id=33 line=360 end_line=360 column=19 end_column=44}
65 {file_name_id=13 function_name_id=33 line=360 end_line=360 column=30 end_column=44}
66 {file_name_id=13 function_name_id=34 line=317 end_line=317 column=19 end_column=52}
67 {file_name_id=13 function_name_id=34 line=317 end_line=317 column=15 end_column=52}
68 {file_name_id=13 function_name_id=34 line=318 end_line=318 column=37 end_column=90}
69 {file_name_id=13 function_name_id=33 line=362 end_line=362 column=15 end_column=36}
70 {file_name_id=13 function_name_id=33 line=365 end_line=365 column=10 end_column=56}
71 {file_name_id=13 function_name_id=33 line=367 end_line=367 column=12 end_column=47}
72 {file_name_id=13 function_name_id=35 line=330 end_line=330 column=12 end_column=24}
73 {file_name_id=13 function_name_id=35 line=330 end_line=330 column=29 end_column=54}
74 {file_name_id=13 function_name_id=36 line=325 end_line=325 column=13 end_column=37}
75 {file_name_id=13 function_name_id=36 line=326 end_line=326 column=28 end_column=31}
76 {file_name_id=13 function_name_id=36 line=326 end_line=326 column=11 end_column=46}
77 {file_name_id=13 function_name_id=33 line=361 end_line=361 column=15 end_column=36}
78 {file_name_id=13 function_name_id=33 line=364 end_line=364 column=10 end_column=56}
79 {file_name_id=13 function_name_id=35 line=330 end_line=330 column=11 end_column=61}
80 {file_name_id=8 function_name_id=14 line=1184 end_line=1184 column=14 end_column=48}
81 {file_name_id=8 function_name_id=14 line=1199 end_line=1199 column=14 end_column=94}
82 {file_name_id=10 function_name_id=20 line=1850 end_line=1850 column=19 end_column=88}
83 {file_name_id=10 function_name_id=37 line=1957 end_line=1957 column=14 end_column=60}
84 {file_name_id=10 function_name_id=37 line=1960 end_line=1960 column=15 end_column=74}
85 {file_name_id=10 function_name_id=23 line=121 end_line=121 column=9 end_column=82}
86 {file_name_id=10 function_name_id=21 line=1761 end_line=1761 column=13 end_column=54}
87 {file_name_id=9 function_name_id=17 line=901 end_line=901 column=68 end_column=111}
88 {file_name_id=9 function_name_id=17 line=900 end_line=902 column=8 end_column=9}
89 {file_name_id=8 function_name_id=14 line=1125 end_line=1125 column=16 end_column=75}
90 {file_name_id=8 function_name_id=14 line=1143 end_line=1143 column=12 end_column=85}
91 {file_name_id=8 function_name_id=38 line=668 end_line=668 column=13 end_column=59}
92 {file_name_id=8 function_name_id=14 line=1174 end_line=1174 column=14 end_column=106}
93 {file_name_id=8 function_name_id=14 line=1200 end_line=1200 column=12 end_column=93}
94 {file_name_id=9 function_name_id=17 line=882 end_line=890 column=4 end_column=5}
95 {file_name_id=9 function_name_id=39 line=751 end_line=751 column=37 end_column=91}
96 {file_name_id=9 function_name_id=39 line=763 end_line=763 column=26 end_column=54}
97 {file_name_id=9 function_name_id=39 line=798 end_line=800 column=10 end_column=11}
98 {file_name_id=9 function_name_id=17 line=920 end_line=920 column=8 end_column=87}
99 {file_name_id=10 function_name_id=18 line=2161 end_line=2161 column=15 end_column=100}
100 {file_name_id=10 function_name_id=40 line=2062 end_line=2062 column=17 end_column=59}
101 {file_name_id=10 function_name_id=40 line=2069 end_line=2069 column=33 end_column=55}
102 {file_name_id=10 function_name_id=40 line=2069 end_line=2069 column=25 end_column=56}
103 {file_name_id=10 function_name_id=40 line=2063 end_line=2065 column=17 end_column=5}
104 {file_name_id=10 function_name_id=41 line=2064 end_line=2064 column=17 end_column=39}
105 {file_name_id=10 function_name_id=41 line=2064 end_line=2064 column=9 end_column=40}
106 {file_name_id=10 function_name_id=21 line=1771 end_line=1771 column=34 end_column=52}
107 {file_name_id=10 function_name_id=21 line=1771 end_line=1771 column=26 end_column=53}
108 {file_name_id=10 function_name_id=21 line=1778 end_line=1778 column=16 end_column=54}
109 {file_name_id=10 function_name_id=40 line=2070 end_line=2070 column=18 end_column=46}
110 {file_name_id=9 function_name_id=17 line=915 end_line=915 column=8 end_column=101}
111 {file_name_id=10 function_name_id=21 line=1776 end_line=1776 column=17 end_column=60}
112 {file_name_id=10 function_name_id=21 line=1780 end_line=1780 column=16 end_column=81}
113 {file_name_id=10 function_name_id=42 line=2010 end_line=2010 column=12 end_column=80}
114 {file_name_id=10 function_name_id=42 line=2012 end_line=2012 column=15 end_column=52}
115 {file_name_id=8 function_name_id=14 line=1147 end_line=1147 column=16 end_column=91}
116 {file_name_id=8 function_name_id=38 line=670 end_line=670 column=13 end_column=61}
117 {file_name_id=8 function_name_id=14 line=1201 end_line=1201 column=14 end_column=97}
118 {file_name_id=9 function_name_id=39 line=752 end_line=752 column=39 end_column=95}
119 {file_name_id=9 function_name_id=39 line=803 end_line=805 column=10 end_column=11}
120 {file_name_id=9 function_name_id=17 line=921 end_line=921 column=8 end_column=91}
121 {file_name_id=10 function_name_id=40 line=2070 end_line=2070 column=6 end_column=46}
122 {file_name_id=8 function_name_id=14 line=1243 end_line=1243 column=12 end_column=75}
123 {file_name_id=8 function_name_id=14 line=1247 end_line=1247 column=10 end_column=61}
124 {file_name_id=8 function_name_id=43 line=733 end_line=733 column=11 end_column=51}
125 {file_name_id=6 function_name_id=12 line=227 end_line=227 column=4 end_column=27}
126 {file_name_id=6 function_name_id=12 line=233 end_line=233 column=14 end_column=64}
127 {file_name_id=12 function_name_id=44 line=517 end_line=517 column=12 end_column=62}
128 {file_name_id=12 function_name_id=44 line=521 end_line=521 column=12 end_column=54}
129 {file_name_id=12 function_name_id=44 line=525 end_line=525 column=8 end_column=51}
130 {file_name_id=12 function_name_id=44 line=528 end_line=528 column=8 end_column=68}
131 {file_name_id=12 function_name_id=44 line=529 end_line=529 column=13 end_column=50}
132 {file_name_id=6 function_name_id=12 line=238 end_line=238 column=26 end_column=44}
133 {file_name_id=13 function_name_id=34 line=320 end_line=320 column=18 end_column=61}
134 {file_name_id=9 function_name_id=17 line=905 end_line=905 column=16 end_column=50}
135 {file_name_id=9 function_name_id=17 line=905 end_line=905 column=8 end_column=101}
136 {file_name_id=14 function_name_id=45 line=198 end_line=199 column=11 end_column=42}
137 {file_name_id=14 function_name_id=46 line=88 end_line=88 column=4 end_column=27}
138 {file_name_id=15 function_name_id=47 line=245 end_line=245 column=2 end_column=15}
139 {file_name_id=16 function_name_id=48 line=410 end_line=410 column=6 end_column=27}
140 {file_name_id=16 function_name_id=49 line=355 end_line=355 column=13 end_column=23}
141 {file_name_id=15 function_name_id=50 line=211 end_line=211 column=37 end_column=92}
142 {file_name_id=1 function_name_id=51 line=1280 end_line=1289 column=24 end_column=5}
143 {file_name_id=3 function_name_id=5 line=1348 end_line=1357 column=13 end_column=7}
144 {file_name_id=3 function_name_id=4 line=1289 end_line=1289 column=15 end_column=96}
145 {file_name_id=3 function_name_id=52 line=795 end_line=802 column=8 end_column=40}
146 {file_name_id=1 function_name_id=7 line=1366 end_line=1373 column=16 end_column=5}
147 {file_name_id=17 function_name_id=53 line=135 end_line=135 column=11 end_column=38}
148 {file_name_id=3 function_name_id=4 line=872 end_line=879 column=8 end_column=5}
149 {file_name_id=3 function_name_id=54 line=706 end_line=706 column=8 end_column=85}
150 {file_name_id=13 function_name_id=55 line=155 end_line=158 column=16 end_column=5}
151 {file_name_id=13 function_name_id=55 line=182 end_line=182 column=15 end_column=66}
152 {file_name_id=4 function_name_id=6 line=150 end_line=150 column=9 end_column=66}
153 {file_name_id=4 function_name_id=56 line=126 end_line=126 column=11 end_column=44}
154 {file_name_id=4 function_name_id=57 line=124 end_line=124 column=13 end_column=35}
155 {file_name_id=1 function_name_id=7 line=1363 end_line=1363 column=16 end_column=92}
156 {file_name_id=1 function_name_id=7 line=1382 end_line=1382 column=23 end_column=59}
157 {file_name_id=3 function_name_id=52 line=822 end_line=822 column=15 end_column=95}
158 {file_name_id=13 function_name_id=58 line=233 end_line=233 column=6 end_column=48}
159 {file_name_id=13 function_name_id=58 line=231 end_line=236 column=9 end_column=3}
160 {file_name_id=3 function_name_id=52 line=826 end_line=826 column=17 end_column=47}
161 {file_name_id=3 function_name_id=52 line=847 end_line=847 column=15 end_column=41}
162 {file_name_id=1 function_name_id=7 line=1362 end_line=1362 column=17 end_column=87}
163 {file_name_id=1 function_name_id=7 line=1381 end_line=1381 column=15 end_column=43}
164 {file_name_id=1 function_name_id=7 line=1385 end_line=1385 column=13 end_column=78}

StackFrames
1 {file_location_id=1 parent_frame_id=1}
2 {file_location_id=2 parent_frame_id=2}
3 {file_location_id=3 parent_frame_id=3}
4 {file_location_id=4 parent_frame_id=4}
5 {file_location_id=5 parent_frame_id=5}
6 {file_location_id=6 parent_frame_id=6}
7 {file_location_id=7 parent_frame_id=1}
8 {file_location_id=2 parent_frame_id=8}
9 {file_location_id=3 parent_frame_id=9}
10 {file_location_id=4 parent_frame_id=10}
11 {file_location_id=5 parent_frame_id=11}
12 {file_location_id=6 parent_frame_id=12}
13 {file_location_id=8 parent_frame_id=1}
14 {file_location_id=9 parent_frame_id=14}
15 {file_location_id=10 parent_frame_id=15}
16 {file_location_id=11 parent_frame_id=16}
17 {file_location_id=12 parent_frame_id=17}
18 {file_location_id=11 parent_frame_id=18}
19 {file_location_id=13 parent_frame_id=19}
20 {file_location_id=14 parent_frame_id=17}
21 {file_location_id=11 parent_frame_id=21}
22 {file_location_id=15 parent_frame_id=22}
23 {file_location_id=11 parent_frame_id=23}
24 {file_location_id=13 parent_frame_id=24}
25 {file_location_id=16 parent_frame_id=22}
26 {file_location_id=11 parent_frame_id=26}
27 {file_location_id=13 parent_frame_id=27}
28 {file_location_id=17 parent_frame_id=22}
29 {file_location_id=18 parent_frame_id=29}
30 {file_location_id=11 parent_frame_id=30}
31 {file_location_id=19 parent_frame_id=31}
32 {file_location_id=20 parent_frame_id=32}
33 {file_location_id=21 parent_frame_id=22}
34 {file_location_id=11 parent_frame_id=34}
35 {file_location_id=22 parent_frame_id=35}
36 {file_location_id=23 parent_frame_id=36}
37 {file_location_id=24 parent_frame_id=37}
38 {file_location_id=25 parent_frame_id=38}
39 {file_location_id=26 parent_frame_id=38}
40 {file_location_id=27 parent_frame_id=35}
41 {file_location_id=23 parent_frame_id=41}
42 {file_location_id=24 parent_frame_id=42}
43 {file_location_id=25 parent_frame_id=43}
44 {file_location_id=26 parent_frame_id=43}
45 {file_location_id=28 parent_frame_id=17}
46 {file_location_id=11 parent_frame_id=46}
47 {file_location_id=13 parent_frame_id=47}
48 {file_location_id=29 parent_frame_id=17}
49 {file_location_id=11 parent_frame_id=49}
50 {file_location_id=13 parent_frame_id=50}
51 {file_location_id=30 parent_frame_id=17}
52 {file_location_id=11 parent_frame_id=52}
53 {file_location_id=13 parent_frame_id=53}
54 {file_location_id=31 parent_frame_id=53}
55 {file_location_id=31 parent_frame_id=50}
56 {file_location_id=31 parent_frame_id=47}
57 {file_location_id=32 parent_frame_id=37}
58 {file_location_id=33 parent_frame_id=58}
59 {file_location_id=34 parent_frame_id=58}
60 {file_location_id=35 parent_frame_id=37}
61 {file_location_id=36 parent_frame_id=61}
62 {file_location_id=37 parent_frame_id=32}
63 {file_location_id=38 parent_frame_id=63}
64 {file_location_id=39 parent_frame_id=64}
65 {file_location_id=40 parent_frame_id=65}
66 {file_location_id=31 parent_frame_id=24}
67 {file_location_id=31 parent_frame_id=19}
68 {file_location_id=41 parent_frame_id=58}
69 {file_location_id=42 parent_frame_id=58}
70 {file_location_id=43 parent_frame_id=58}
71 {file_location_id=44 parent_frame_id=58}
72 {file_location_id=45 parent_frame_id=58}
73 {file_location_id=46 parent_frame_id=19}
74 {file_location_id=47 parent_frame_id=19}
75 {file_location_id=48 parent_frame_id=19}
76 {file_location_id=49 parent_frame_id=19}
77 {file_location_id=50 parent_frame_id=19}
78 {file_location_id=51 parent_frame_id=19}
79 {file_location_id=52 parent_frame_id=19}
80 {file_location_id=53 parent_frame_id=22}
81 {file_location_id=54 parent_frame_id=81}
82 {file_location_id=55 parent_frame_id=82}
83 {file_location_id=56 parent_frame_id=22}
84 {file_location_id=57 parent_frame_id=84}
85 {file_location_id=11 parent_frame_id=85}
86 {file_location_id=58 parent_frame_id=86}
87 {file_location_id=59 parent_frame_id=86}
88 {file_location_id=60 parent_frame_id=88}
89 {file_location_id=46 parent_frame_id=24}
90 {file_location_id=47 parent_frame_id=24}
91 {file_location_id=48 parent_frame_id=24}
92 {file_location_id=49 parent_frame_id=24}
93 {file_location_id=50 parent_frame_id=24}
94 {file_location_id=51 parent_frame_id=24}
95 {file_location_id=52 parent_frame_id=24}
96 {file_location_id=61 parent_frame_id=22}
97 {file_location_id=62 parent_frame_id=97}
98 {file_location_id=11 parent_frame_id=98}
99 {file_location_id=63 parent_frame_id=99}
100 {file_location_id=64 parent_frame_id=99}
101 {file_location_id=65 parent_frame_id=99}
102 {file_location_id=66 parent_frame_id=102}
103 {file_location_id=67 parent_frame_id=102}
104 {file_location_id=68 parent_frame_id=102}
105 {file_location_id=69 parent_frame_id=99}
106 {file_location_id=70 parent_frame_id=99}
107 {file_location_id=71 parent_frame_id=99}
108 {file_location_id=72 parent_frame_id=108}
109 {file_location_id=73 parent_frame_id=108}
110 {file_location_id=74 parent_frame_id=110}
111 {file_location_id=75 parent_frame_id=110}
112 {file_location_id=76 parent_frame_id=110}
113 {file_location_id=77 parent_frame_id=99}
114 {file_location_id=78 parent_frame_id=99}
115 {file_location_id=79 parent_frame_id=108}
116 {file_location_id=80 parent_frame_id=22}
117 {file_location_id=81 parent_frame_id=22}
118 {file_location_id=54 parent_frame_id=118}
119 {file_location_id=55 parent_frame_id=119}
120 {file_location_id=82 parent_frame_id=37}
121 {file_location_id=83 parent_frame_id=121}
122 {file_location_id=84 parent_frame_id=121}
123 {file_location_id=85 parent_frame_id=61}
124 {file_location_id=86 parent_frame_id=38}
125 {file_location_id=32 parent_frame_id=42}
126 {file_location_id=41 parent_frame_id=126}
127 {file_location_id=42 parent_frame_id=126}
128 {file_location_id=43 parent_frame_id=126}
129 {file_location_id=44 parent_frame_id=126}
130 {file_location_id=45 parent_frame_id=126}
131 {file_location_id=87 parent_frame_id=32}
132 {file_location_id=88 parent_frame_id=32}
133 {file_location_id=33 parent_frame_id=126}
134 {file_location_id=34 parent_frame_id=126}
135 {file_location_id=35 parent_frame_id=42}
136 {file_location_id=36 parent_frame_id=136}
137 {file_location_id=31 parent_frame_id=27}
138 {file_location_id=89 parent_frame_id=22}
139 {file_location_id=54 parent_frame_id=139}
140 {file_location_id=55 parent_frame_id=140}
141 {file_location_id=90 parent_frame_id=22}
142 {file_location_id=91 parent_frame_id=142}
143 {file_location_id=11 parent_frame_id=143}
144 {file_location_id=58 parent_frame_id=144}
145 {file_location_id=59 parent_frame_id=144}
146 {file_location_id=60 parent_frame_id=146}
147 {file_location_id=46 parent_frame_id=27}
148 {file_location_id=47 parent_frame_id=27}
149 {file_location_id=48 parent_frame_id=27}
150 {file_location_id=49 parent_frame_id=27}
151 {file_location_id=50 parent_frame_id=27}
152 {file_location_id=51 parent_frame_id=27}
153 {file_location_id=52 parent_frame_id=27}
154 {file_location_id=92 parent_frame_id=22}
155 {file_location_id=62 parent_frame_id=155}
156 {file_location_id=11 parent_frame_id=156}
157 {file_location_id=63 parent_frame_id=157}
158 {file_location_id=64 parent_frame_id=157}
159 {file_location_id=65 parent_frame_id=157}
160 {file_location_id=66 parent_frame_id=160}
161 {file_location_id=67 parent_frame_id=160}
162 {file_location_id=68 parent_frame_id=160}
163 {file_location_id=69 parent_frame_id=157}
164 {file_location_id=70 parent_frame_id=157}
165 {file_location_id=71 parent_frame_id=157}
166 {file_location_id=72 parent_frame_id=166}
167 {file_location_id=73 parent_frame_id=166}
168 {file_location_id=74 parent_frame_id=168}
169 {file_location_id=75 parent_frame_id=168}
170 {file_location_id=76 parent_frame_id=168}
171 {file_location_id=77 parent_frame_id=157}
172 {file_location_id=78 parent_frame_id=157}
173 {file_location_id=79 parent_frame_id=166}
174 {file_location_id=93 parent_frame_id=22}
175 {file_location_id=54 parent_frame_id=175}
176 {file_location_id=55 parent_frame_id=176}
177 {file_location_id=94 parent_frame_id=32}
178 {file_location_id=95 parent_frame_id=178}
179 {file_location_id=96 parent_frame_id=178}
180 {file_location_id=97 parent_frame_id=178}
181 {file_location_id=98 parent_frame_id=32}
182 {file_location_id=38 parent_frame_id=182}
183 {file_location_id=39 parent_frame_id=183}
184 {file_location_id=40 parent_frame_id=184}
185 {file_location_id=82 parent_frame_id=42}
186 {file_location_id=83 parent_frame_id=186}
187 {file_location_id=84 parent_frame_id=186}
188 {file_location_id=85 parent_frame_id=136}
189 {file_location_id=86 parent_frame_id=43}
190 {file_location_id=99 parent_frame_id=35}
191 {file_location_id=100 parent_frame_id=191}
192 {file_location_id=101 parent_frame_id=191}
193 {file_location_id=102 parent_frame_id=191}
194 {file_location_id=103 parent_frame_id=191}
195 {file_location_id=104 parent_frame_id=195}
196 {file_location_id=105 parent_frame_id=195}
197 {file_location_id=106 parent_frame_id=38}
198 {file_location_id=107 parent_frame_id=38}
199 {file_location_id=108 parent_frame_id=38}
200 {file_location_id=106 parent_frame_id=43}
201 {file_location_id=107 parent_frame_id=43}
202 {file_location_id=108 parent_frame_id=43}
203 {file_location_id=109 parent_frame_id=191}
204 {file_location_id=110 parent_frame_id=32}
205 {file_location_id=38 parent_frame_id=205}
206 {file_location_id=39 parent_frame_id=206}
207 {file_location_id=40 parent_frame_id=207}
208 {file_location_id=111 parent_frame_id=38}
209 {file_location_id=112 parent_frame_id=38}
210 {file_location_id=113 parent_frame_id=210}
211 {file_location_id=114 parent_frame_id=210}
212 {file_location_id=115 parent_frame_id=22}
213 {file_location_id=116 parent_frame_id=213}
214 {file_location_id=11 parent_frame_id=214}
215 {file_location_id=58 parent_frame_id=215}
216 {file_location_id=59 parent_frame_id=215}
217 {file_location_id=60 parent_frame_id=217}
218 {file_location_id=117 parent_frame_id=22}
219 {file_location_id=54 parent_frame_id=219}
220 {file_location_id=55 parent_frame_id=220}
221 {file_location_id=118 parent_frame_id=178}
222 {file_location_id=119 parent_frame_id=178}
223 {file_location_id=120 parent_frame_id=32}
224 {file_location_id=38 parent_frame_id=224}
225 {file_location_id=39 parent_frame_id=225}
226 {file_location_id=40 parent_frame_id=226}
227 {file_location_id=111 parent_frame_id=43}
228 {file_location_id=112 parent_frame_id=43}
229 {file_location_id=113 parent_frame_id=229}
230 {file_location_id=114 parent_frame_id=229}
231 {file_location_id=121 parent_frame_id=191}
232 {file_location_id=122 parent_frame_id=22}
233 {file_location_id=54 parent_frame_id=233}
234 {file_location_id=55 parent_frame_id=234}
235 {file_location_id=123 parent_frame_id=22}
236 {file_location_id=124 parent_frame_id=236}
237 {file_location_id=11 parent_frame_id=237}
238 {file_location_id=58 parent_frame_id=238}
239 {file_location_id=59 parent_frame_id=238}
240 {file_location_id=60 parent_frame_id=240}
241 {file_location_id=46 parent_frame_id=47}
242 {file_location_id=47 parent_frame_id=47}
243 {file_location_id=48 parent_frame_id=47}
244 {file_location_id=49 parent_frame_id=47}
245 {file_location_id=50 parent_frame_id=47}
246 {file_location_id=51 parent_frame_id=47}
247 {file_location_id=52 parent_frame_id=47}
248 {file_location_id=125 parent_frame_id=17}
249 {file_location_id=46 parent_frame_id=50}
250 {file_location_id=47 parent_frame_id=50}
251 {file_location_id=48 parent_frame_id=50}
252 {file_location_id=49 parent_frame_id=50}
253 {file_location_id=50 parent_frame_id=50}
254 {file_location_id=51 parent_frame_id=50}
255 {file_location_id=52 parent_frame_id=50}
256 {file_location_id=126 parent_frame_id=17}
257 {file_location_id=11 parent_frame_id=257}
258 {file_location_id=127 parent_frame_id=258}
259 {file_location_id=11 parent_frame_id=259}
260 {file_location_id=58 parent_frame_id=260}
261 {file_location_id=59 parent_frame_id=260}
262 {file_location_id=60 parent_frame_id=262}
263 {file_location_id=128 parent_frame_id=258}
264 {file_location_id=129 parent_frame_id=258}
265 {file_location_id=130 parent_frame_id=258}
266 {file_location_id=54 parent_frame_id=266}
267 {file_location_id=55 parent_frame_id=267}
268 {file_location_id=131 parent_frame_id=258}
269 {file_location_id=11 parent_frame_id=269}
270 {file_location_id=58 parent_frame_id=270}
271 {file_location_id=59 parent_frame_id=270}
272 {file_location_id=60 parent_frame_id=272}
273 {file_location_id=46 parent_frame_id=53}
274 {file_location_id=47 parent_frame_id=53}
275 {file_location_id=48 parent_frame_id=53}
276 {file_location_id=49 parent_frame_id=53}
277 {file_location_id=50 parent_frame_id=53}
278 {file_location_id=51 parent_frame_id=53}
279 {file_location_id=52 parent_frame_id=53}
280 {file_location_id=132 parent_frame_id=17}
281 {file_location_id=133 parent_frame_id=102}
282 {file_location_id=133 parent_frame_id=160}
283 {file_location_id=134 parent_frame_id=32}
284 {file_location_id=135 parent_frame_id=32}
285 {file_location_id=136 parent_frame_id=1}
286 {file_location_id=137 parent_frame_id=286}
287 {file_location_id=138 parent_frame_id=287}
288 {file_location_id=139 parent_frame_id=288}
289 {file_location_id=140 parent_frame_id=289}
290 {file_location_id=141 parent_frame_id=290}
291 {file_location_id=142 parent_frame_id=291}
292 {file_location_id=7 parent_frame_id=292}
293 {file_location_id=2 parent_frame_id=293}
294 {file_location_id=3 parent_frame_id=294}
295 {file_location_id=4 parent_frame_id=295}
296 {file_location_id=5 parent_frame_id=296}
297 {file_location_id=6 parent_frame_id=297}
298 {file_location_id=7 parent_frame_id=298}
299 {file_location_id=2 parent_frame_id=299}
300 {file_location_id=3 parent_frame_id=300}
301 {file_location_id=4 parent_frame_id=301}
302 {file_location_id=5 parent_frame_id=302}
303 {file_location_id=6 parent_frame_id=303}
304 {file_location_id=7 parent_frame_id=304}
305 {file_location_id=2 parent_frame_id=305}
306 {file_location_id=3 parent_frame_id=306}
307 {file_location_id=4 parent_frame_id=307}
308 {file_location_id=5 parent_frame_id=308}
309 {file_location_id=6 parent_frame_id=309}
310 {file_location_id=143 parent_frame_id=296}
311 {file_location_id=9 parent_frame_id=311}
312 {file_location_id=10 parent_frame_id=312}
313 {file_location_id=11 parent_frame_id=313}
314 {file_location_id=12 parent_frame_id=314}
315 {file_location_id=11 parent_frame_id=315}
316 {file_location_id=13 parent_frame_id=316}
317 {file_location_id=14 parent_frame_id=314}
318 {file_location_id=11 parent_frame_id=318}
319 {file_location_id=15 parent_frame_id=319}
320 {file_location_id=11 parent_frame_id=320}
321 {file_location_id=13 parent_frame_id=321}
322 {file_location_id=16 parent_frame_id=319}
323 {file_location_id=11 parent_frame_id=323}
324 {file_location_id=13 parent_frame_id=324}
325 {file_location_id=17 parent_frame_id=319}
326 {file_location_id=18 parent_frame_id=326}
327 {file_location_id=11 parent_frame_id=327}
328 {file_location_id=19 parent_frame_id=328}
329 {file_location_id=20 parent_frame_id=329}
330 {file_location_id=21 parent_frame_id=319}
331 {file_location_id=11 parent_frame_id=331}
332 {file_location_id=22 parent_frame_id=332}
333 {file_location_id=23 parent_frame_id=333}
334 {file_location_id=24 parent_frame_id=334}
335 {file_location_id=25 parent_frame_id=335}
336 {file_location_id=26 parent_frame_id=335}
337 {file_location_id=27 parent_frame_id=332}
338 {file_location_id=23 parent_frame_id=338}
339 {file_location_id=24 parent_frame_id=339}
340 {file_location_id=25 parent_frame_id=340}
341 {file_location_id=26 parent_frame_id=340}
342 {file_location_id=28 parent_frame_id=314}
343 {file_location_id=11 parent_frame_id=343}
344 {file_location_id=13 parent_frame_id=344}
345 {file_location_id=29 parent_frame_id=314}
346 {file_location_id=11 parent_frame_id=346}
347 {file_location_id=13 parent_frame_id=347}
348 {file_location_id=30 parent_frame_id=314}
349 {file_location_id=11 parent_frame_id=349}
350 {file_location_id=13 parent_frame_id=350}
351 {file_location_id=144 parent_frame_id=295}
352 {file_location_id=145 parent_frame_id=352}
353 {file_location_id=9 parent_frame_id=353}
354 {file_location_id=13 parent_frame_id=354}
355 {file_location_id=146 parent_frame_id=1}
356 {file_location_id=147 parent_frame_id=356}
357 {file_location_id=146 parent_frame_id=357}
358 {file_location_id=147 parent_frame_id=358}
359 {file_location_id=148 parent_frame_id=295}
360 {file_location_id=149 parent_frame_id=360}
361 {file_location_id=9 parent_frame_id=361}
362 {file_location_id=150 parent_frame_id=362}
363 {file_location_id=151 parent_frame_id=362}
364 {file_location_id=152 parent_frame_id=297}
365 {file_location_id=153 parent_frame_id=365}
366 {file_location_id=154 parent_frame_id=366}
367 {file_location_id=155 parent_frame_id=292}
368 {file_location_id=134 parent_frame_id=329}
369 {file_location_id=135 parent_frame_id=329}
370 {file_location_id=87 parent_frame_id=329}
371 {file_location_id=88 parent_frame_id=329}
372 {file_location_id=31 parent_frame_id=324}
373 {file_location_id=31 parent_frame_id=316}
374 {file_location_id=46 parent_frame_id=316}
375 {file_location_id=47 parent_frame_id=316}
376 {file_location_id=48 parent_frame_id=316}
377 {file_location_id=49 parent_frame_id=316}
378 {file_location_id=50 parent_frame_id=316}
379 {file_location_id=51 parent_frame_id=316}
380 {file_location_id=52 parent_frame_id=316}
381 {file_location_id=89 parent_frame_id=319}
382 {file_location_id=54 parent_frame_id=382}
383 {file_location_id=55 parent_frame_id=383}
384 {file_location_id=90 parent_frame_id=319}
385 {file_location_id=91 parent_frame_id=385}
386 {file_location_id=11 parent_frame_id=386}
387 {file_location_id=58 parent_frame_id=387}
388 {file_location_id=59 parent_frame_id=387}
389 {file_location_id=60 parent_frame_id=389}
390 {file_location_id=46 parent_frame_id=324}
391 {file_location_id=47 parent_frame_id=324}
392 {file_location_id=48 parent_frame_id=324}
393 {file_location_id=49 parent_frame_id=324}
394 {file_location_id=50 parent_frame_id=324}
395 {file_location_id=51 parent_frame_id=324}
396 {file_location_id=52 parent_frame_id=324}
397 {file_location_id=92 parent_frame_id=319}
398 {file_location_id=62 parent_frame_id=398}
399 {file_location_id=11 parent_frame_id=399}
400 {file_location_id=63 parent_frame_id=400}
401 {file_location_id=64 parent_frame_id=400}
402 {file_location_id=65 parent_frame_id=400}
403 {file_location_id=66 parent_frame_id=403}
404 {file_location_id=67 parent_frame_id=403}
405 {file_location_id=68 parent_frame_id=403}
406 {file_location_id=69 parent_frame_id=400}
407 {file_location_id=70 parent_frame_id=400}
408 {file_location_id=71 parent_frame_id=400}
409 {file_location_id=72 parent_frame_id=409}
410 {file_location_id=73 parent_frame_id=409}
411 {file_location_id=74 parent_frame_id=411}
412 {file_location_id=75 parent_frame_id=411}
413 {file_location_id=76 parent_frame_id=411}
414 {file_location_id=77 parent_frame_id=400}
415 {file_location_id=78 parent_frame_id=400}
416 {file_location_id=79 parent_frame_id=409}
417 {file_location_id=93 parent_frame_id=319}
418 {file_location_id=54 parent_frame_id=418}
419 {file_location_id=55 parent_frame_id=419}
420 {file_location_id=94 parent_frame_id=329}
421 {file_location_id=95 parent_frame_id=421}
422 {file_location_id=96 parent_frame_id=421}
423 {file_location_id=97 parent_frame_id=421}
424 {file_location_id=115 parent_frame_id=319}
425 {file_location_id=116 parent_frame_id=425}
426 {file_location_id=11 parent_frame_id=426}
427 {file_location_id=58 parent_frame_id=427}
428 {file_location_id=59 parent_frame_id=427}
429 {file_location_id=60 parent_frame_id=429}
430 {file_location_id=117 parent_frame_id=319}
431 {file_location_id=54 parent_frame_id=431}
432 {file_location_id=55 parent_frame_id=432}
433 {file_location_id=118 parent_frame_id=421}
434 {file_location_id=119 parent_frame_id=421}
435 {file_location_id=31 parent_frame_id=350}
436 {file_location_id=31 parent_frame_id=347}
437 {file_location_id=31 parent_frame_id=344}
438 {file_location_id=32 parent_frame_id=334}
439 {file_location_id=41 parent_frame_id=439}
440 {file_location_id=42 parent_frame_id=439}
441 {file_location_id=43 parent_frame_id=439}
442 {file_location_id=44 parent_frame_id=439}
443 {file_location_id=45 parent_frame_id=439}
444 {file_location_id=33 parent_frame_id=439}
445 {file_location_id=34 parent_frame_id=439}
446 {file_location_id=35 parent_frame_id=334}
447 {file_location_id=36 parent_frame_id=447}
448 {file_location_id=37 parent_frame_id=329}
449 {file_location_id=38 parent_frame_id=449}
450 {file_location_id=39 parent_frame_id=450}
451 {file_location_id=40 parent_frame_id=451}
452 {file_location_id=31 parent_frame_id=321}
453 {file_location_id=53 parent_frame_id=319}
454 {file_location_id=54 parent_frame_id=454}
455 {file_location_id=55 parent_frame_id=455}
456 {file_location_id=56 parent_frame_id=319}
457 {file_location_id=57 parent_frame_id=457}
458 {file_location_id=11 parent_frame_id=458}
459 {file_location_id=58 parent_frame_id=459}
460 {file_location_id=59 parent_frame_id=459}
461 {file_location_id=60 parent_frame_id=461}
462 {file_location_id=46 parent_frame_id=321}
463 {file_location_id=47 parent_frame_id=321}
464 {file_location_id=48 parent_frame_id=321}
465 {file_location_id=49 parent_frame_id=321}
466 {file_location_id=50 parent_frame_id=321}
467 {file_location_id=51 parent_frame_id=321}
468 {file_location_id=52 parent_frame_id=321}
469 {file_location_id=61 parent_frame_id=319}
470 {file_location_id=62 parent_frame_id=470}
471 {file_location_id=11 parent_frame_id=471}
472 {file_location_id=63 parent_frame_id=472}
473 {file_location_id=64 parent_frame_id=472}
474 {file_location_id=65 parent_frame_id=472}
475 {file_location_id=66 parent_frame_id=475}
476 {file_location_id=67 parent_frame_id=475}
477 {file_location_id=68 parent_frame_id=475}
478 {file_location_id=69 parent_frame_id=472}
479 {file_location_id=70 parent_frame_id=472}
480 {file_location_id=71 parent_frame_id=472}
481 {file_location_id=72 parent_frame_id=481}
482 {file_location_id=73 parent_frame_id=481}
483 {file_location_id=74 parent_frame_id=483}
484 {file_location_id=75 parent_frame_id=483}
485 {file_location_id=76 parent_frame_id=483}
486 {file_location_id=77 parent_frame_id=472}
487 {file_location_id=78 parent_frame_id=472}
488 {file_location_id=79 parent_frame_id=481}
489 {file_location_id=80 parent_frame_id=319}
490 {file_location_id=81 parent_frame_id=319}
491 {file_location_id=54 parent_frame_id=491}
492 {file_location_id=55 parent_frame_id=492}
493 {file_location_id=82 parent_frame_id=334}
494 {file_location_id=83 parent_frame_id=494}
495 {file_location_id=84 parent_frame_id=494}
496 {file_location_id=85 parent_frame_id=447}
497 {file_location_id=86 parent_frame_id=335}
498 {file_location_id=32 parent_frame_id=339}
499 {file_location_id=41 parent_frame_id=499}
500 {file_location_id=42 parent_frame_id=499}
501 {file_location_id=43 parent_frame_id=499}
502 {file_location_id=44 parent_frame_id=499}
503 {file_location_id=45 parent_frame_id=499}
504 {file_location_id=33 parent_frame_id=499}
505 {file_location_id=34 parent_frame_id=499}
506 {file_location_id=35 parent_frame_id=339}
507 {file_location_id=36 parent_frame_id=507}
508 {file_location_id=98 parent_frame_id=329}
509 {file_location_id=38 parent_frame_id=509}
510 {file_location_id=39 parent_frame_id=510}
511 {file_location_id=40 parent_frame_id=511}
512 {file_location_id=82 parent_frame_id=339}
513 {file_location_id=83 parent_frame_id=513}
514 {file_location_id=84 parent_frame_id=513}
515 {file_location_id=85 parent_frame_id=507}
516 {file_location_id=86 parent_frame_id=340}
517 {file_location_id=99 parent_frame_id=332}
518 {file_location_id=100 parent_frame_id=518}
519 {file_location_id=101 parent_frame_id=518}
520 {file_location_id=102 parent_frame_id=518}
521 {file_location_id=103 parent_frame_id=518}
522 {file_location_id=104 parent_frame_id=522}
523 {file_location_id=105 parent_frame_id=522}
524 {file_location_id=106 parent_frame_id=335}
525 {file_location_id=107 parent_frame_id=335}
526 {file_location_id=108 parent_frame_id=335}
527 {file_location_id=106 parent_frame_id=340}
528 {file_location_id=107 parent_frame_id=340}
529 {file_location_id=108 parent_frame_id=340}
530 {file_location_id=109 parent_frame_id=518}
531 {file_location_id=110 parent_frame_id=329}
532 {file_location_id=38 parent_frame_id=532}
533 {file_location_id=39 parent_frame_id=533}
534 {file_location_id=40 parent_frame_id=534}
535 {file_location_id=111 parent_frame_id=335}
536 {file_location_id=112 parent_frame_id=335}
537 {file_location_id=113 parent_frame_id=537}
538 {file_location_id=114 parent_frame_id=537}
539 {file_location_id=120 parent_frame_id=329}
540 {file_location_id=38 parent_frame_id=540}
541 {file_location_id=39 parent_frame_id=541}
542 {file_location_id=40 parent_frame_id=542}
543 {file_location_id=111 parent_frame_id=340}
544 {file_location_id=112 parent_frame_id=340}
545 {file_location_id=113 parent_frame_id=545}
546 {file_location_id=114 parent_frame_id=545}
547 {file_location_id=121 parent_frame_id=518}
548 {file_location_id=122 parent_frame_id=319}
549 {file_location_id=54 parent_frame_id=549}
550 {file_location_id=55 parent_frame_id=550}
551 {file_location_id=123 parent_frame_id=319}
552 {file_location_id=124 parent_frame_id=552}
553 {file_location_id=11 parent_frame_id=553}
554 {file_location_id=58 parent_frame_id=554}
555 {file_location_id=59 parent_frame_id=554}
556 {file_location_id=60 parent_frame_id=556}
557 {file_location_id=46 parent_frame_id=344}
558 {file_location_id=47 parent_frame_id=344}
559 {file_location_id=48 parent_frame_id=344}
560 {file_location_id=49 parent_frame_id=344}
561 {file_location_id=50 parent_frame_id=344}
562 {file_location_id=51 parent_frame_id=344}
563 {file_location_id=52 parent_frame_id=344}
564 {file_location_id=125 parent_frame_id=314}
565 {file_location_id=46 parent_frame_id=347}
566 {file_location_id=47 parent_frame_id=347}
567 {file_location_id=48 parent_frame_id=347}
568 {file_location_id=49 parent_frame_id=347}
569 {file_location_id=50 parent_frame_id=347}
570 {file_location_id=51 parent_frame_id=347}
571 {file_location_id=52 parent_frame_id=347}
572 {file_location_id=126 parent_frame_id=314}
573 {file_location_id=11 parent_frame_id=573}
574 {file_location_id=127 parent_frame_id=574}
575 {file_location_id=11 parent_frame_id=575}
576 {file_location_id=58 parent_frame_id=576}
577 {file_location_id=59 parent_frame_id=576}
578 {file_location_id=60 parent_frame_id=578}
579 {file_location_id=128 parent_frame_id=574}
580 {file_location_id=129 parent_frame_id=574}
581 {file_location_id=130 parent_frame_id=574}
582 {file_location_id=54 parent_frame_id=582}
583 {file_location_id=55 parent_frame_id=583}
584 {file_location_id=131 parent_frame_id=574}
585 {file_location_id=11 parent_frame_id=585}
586 {file_location_id=58 parent_frame_id=586}
587 {file_location_id=59 parent_frame_id=586}
588 {file_location_id=60 parent_frame_id=588}
589 {file_location_id=46 parent_frame_id=350}
590 {file_location_id=47 parent_frame_id=350}
591 {file_location_id=48 parent_frame_id=350}
592 {file_location_id=49 parent_frame_id=350}
593 {file_location_id=50 parent_frame_id=350}
594 {file_location_id=51 parent_frame_id=350}
595 {file_location_id=52 parent_frame_id=350}
596 {file_location_id=132 parent_frame_id=314}
597 {file_location_id=156 parent_frame_id=292}
598 {file_location_id=31 parent_frame_id=354}
599 {file_location_id=46 parent_frame_id=354}
600 {file_location_id=47 parent_frame_id=354}
601 {file_location_id=48 parent_frame_id=354}
602 {file_location_id=49 parent_frame_id=354}
603 {file_location_id=50 parent_frame_id=354}
604 {file_location_id=51 parent_frame_id=354}
605 {file_location_id=52 parent_frame_id=354}
606 {file_location_id=157 parent_frame_id=352}
607 {file_location_id=158 parent_frame_id=607}
608 {file_location_id=159 parent_frame_id=607}
609 {file_location_id=160 parent_frame_id=352}
610 {file_location_id=161 parent_frame_id=352}
611 {file_location_id=162 parent_frame_id=292}
612 {file_location_id=163 parent_frame_id=292}
613 {file_location_id=146 parent_frame_id=292}
614 {file_location_id=147 parent_frame_id=614}
615 {file_location_id=164 parent_frame_id=292}


%dynamic_index_in_dim.1 (Arg_0.1: f32[5,2560,10240], Arg_1.1: s32[]) -> f32[2560,10240] {
  %Arg_0.1 = f32[5,2560,10240]{2,1,0} parameter(0)
  %Arg_1.1 = s32[] parameter(1)
  %constant.44 = s32[] constant(0)
  %dynamic_slice.1 = f32[1,2560,10240]{2,1,0} dynamic-slice(%Arg_0.1, %Arg_1.1, %constant.44, %constant.44), dynamic_slice_sizes={1,2560,10240}, metadata={op_name="dynamic_slice" stack_frame_id=6}
  ROOT %squeeze.1 = f32[2560,10240]{1,0} reshape(%dynamic_slice.1), metadata={op_name="squeeze" stack_frame_id=6}
}

%dynamic_index_in_dim_0.2 (Arg_0.3: f32[5,10240,2560], Arg_1.3: s32[]) -> f32[10240,2560] {
  %Arg_0.3 = f32[5,10240,2560]{2,1,0} parameter(0)
  %Arg_1.3 = s32[] parameter(1)
  %constant.46 = s32[] constant(0)
  %dynamic_slice.3 = f32[1,10240,2560]{2,1,0} dynamic-slice(%Arg_0.3, %Arg_1.3, %constant.46, %constant.46), dynamic_slice_sizes={1,10240,2560}, metadata={op_name="dynamic_slice" stack_frame_id=6}
  ROOT %squeeze.3 = f32[10240,2560]{1,0} reshape(%dynamic_slice.3), metadata={op_name="squeeze" stack_frame_id=6}
}

%dynamic_index_in_dim_1.3 (Arg_0.5: f32[5,2560], Arg_1.5: s32[]) -> f32[2560] {
  %Arg_0.5 = f32[5,2560]{1,0} parameter(0)
  %Arg_1.5 = s32[] parameter(1)
  %constant.48 = s32[] constant(0)
  %dynamic_slice.5 = f32[1,2560]{1,0} dynamic-slice(%Arg_0.5, %Arg_1.5, %constant.48), dynamic_slice_sizes={1,2560}, metadata={op_name="dynamic_slice" stack_frame_id=6}
  ROOT %squeeze.5 = f32[2560]{0} reshape(%dynamic_slice.5), metadata={op_name="squeeze" stack_frame_id=6}
}

%dynamic_index_in_dim_2.4 (Arg_0.7: f32[5,2560,4,256], Arg_1.7: s32[]) -> f32[2560,4,256] {
  %Arg_0.7 = f32[5,2560,4,256]{3,2,1,0} parameter(0)
  %Arg_1.7 = s32[] parameter(1)
  %constant.50 = s32[] constant(0)
  %dynamic_slice.7 = f32[1,2560,4,256]{3,2,1,0} dynamic-slice(%Arg_0.7, %Arg_1.7, %constant.50, %constant.50, %constant.50), dynamic_slice_sizes={1,2560,4,256}, metadata={op_name="dynamic_slice" stack_frame_id=6}
  ROOT %squeeze.7 = f32[2560,4,256]{2,1,0} reshape(%dynamic_slice.7), metadata={op_name="squeeze" stack_frame_id=6}
}

%dynamic_index_in_dim_3.5 (Arg_0.9: f32[5,256], Arg_1.9: s32[]) -> f32[256] {
  %Arg_0.9 = f32[5,256]{1,0} parameter(0)
  %Arg_1.9 = s32[] parameter(1)
  %constant.52 = s32[] constant(0)
  %dynamic_slice.9 = f32[1,256]{1,0} dynamic-slice(%Arg_0.9, %Arg_1.9, %constant.52), dynamic_slice_sizes={1,256}, metadata={op_name="dynamic_slice" stack_frame_id=6}
  ROOT %squeeze.9 = f32[256]{0} reshape(%dynamic_slice.9), metadata={op_name="squeeze" stack_frame_id=6}
}

%dynamic_index_in_dim_4.6 (Arg_0.11: f32[5,8,256,2560], Arg_1.11: s32[]) -> f32[8,256,2560] {
  %Arg_0.11 = f32[5,8,256,2560]{3,2,1,0} parameter(0)
  %Arg_1.11 = s32[] parameter(1)
  %constant.54 = s32[] constant(0)
  %dynamic_slice.11 = f32[1,8,256,2560]{3,2,1,0} dynamic-slice(%Arg_0.11, %Arg_1.11, %constant.54, %constant.54, %constant.54), dynamic_slice_sizes={1,8,256,2560}, metadata={op_name="dynamic_slice" stack_frame_id=6}
  ROOT %squeeze.11 = f32[8,256,2560]{2,1,0} reshape(%dynamic_slice.11), metadata={op_name="squeeze" stack_frame_id=6}
}

%dynamic_index_in_dim_5.7 (Arg_0.13: f32[5,2560,8,256], Arg_1.13: s32[]) -> f32[2560,8,256] {
  %Arg_0.13 = f32[5,2560,8,256]{3,2,1,0} parameter(0)
  %Arg_1.13 = s32[] parameter(1)
  %constant.56 = s32[] constant(0)
  %dynamic_slice.13 = f32[1,2560,8,256]{3,2,1,0} dynamic-slice(%Arg_0.13, %Arg_1.13, %constant.56, %constant.56, %constant.56), dynamic_slice_sizes={1,2560,8,256}, metadata={op_name="dynamic_slice" stack_frame_id=6}
  ROOT %squeeze.13 = f32[2560,8,256]{2,1,0} reshape(%dynamic_slice.13), metadata={op_name="squeeze" stack_frame_id=6}
}

%dynamic_index_in_dim_6.8 (Arg_0.15: s32[5,1], Arg_1.15: s32[]) -> s32[1] {
  %Arg_0.15 = s32[5,1]{1,0} parameter(0)
  %Arg_1.15 = s32[] parameter(1)
  %constant.58 = s32[] constant(0)
  %dynamic_slice.15 = s32[1,1]{1,0} dynamic-slice(%Arg_0.15, %Arg_1.15, %constant.58), dynamic_slice_sizes={1,1}, metadata={op_name="dynamic_slice" stack_frame_id=12}
  ROOT %squeeze.15 = s32[1]{0} reshape(%dynamic_slice.15), metadata={op_name="squeeze" stack_frame_id=12}
}

%dynamic_index_in_dim_7.9 (Arg_0.17: s32[5,4,1984], Arg_1.17: s32[]) -> s32[4,1984] {
  %Arg_0.17 = s32[5,4,1984]{2,1,0} parameter(0)
  %Arg_1.17 = s32[] parameter(1)
  %constant.60 = s32[] constant(0)
  %dynamic_slice.17 = s32[1,4,1984]{2,1,0} dynamic-slice(%Arg_0.17, %Arg_1.17, %constant.60, %constant.60), dynamic_slice_sizes={1,4,1984}, metadata={op_name="dynamic_slice" stack_frame_id=12}
  ROOT %squeeze.17 = s32[4,1984]{1,0} reshape(%dynamic_slice.17), metadata={op_name="squeeze" stack_frame_id=12}
}

%dynamic_index_in_dim_8.10 (Arg_0.19: s32[5,4,64], Arg_1.19: s32[]) -> s32[4,64] {
  %Arg_0.19 = s32[5,4,64]{2,1,0} parameter(0)
  %Arg_1.19 = s32[] parameter(1)
  %constant.62 = s32[] constant(0)
  %dynamic_slice.19 = s32[1,4,64]{2,1,0} dynamic-slice(%Arg_0.19, %Arg_1.19, %constant.62, %constant.62), dynamic_slice_sizes={1,4,64}, metadata={op_name="dynamic_slice" stack_frame_id=12}
  ROOT %squeeze.19 = s32[4,64]{1,0} reshape(%dynamic_slice.19), metadata={op_name="squeeze" stack_frame_id=12}
}

%dynamic_index_in_dim_9.11 (Arg_0.21: bf16[5,1984,4,4,256], Arg_1.21: s32[]) -> bf16[1984,4,4,256] {
  %Arg_0.21 = bf16[5,1984,4,4,256]{4,3,2,1,0} parameter(0)
  %Arg_1.21 = s32[] parameter(1)
  %constant.64 = s32[] constant(0)
  %dynamic_slice.21 = bf16[1,1984,4,4,256]{4,3,2,1,0} dynamic-slice(%Arg_0.21, %Arg_1.21, %constant.64, %constant.64, %constant.64, /*index=5*/%constant.64), dynamic_slice_sizes={1,1984,4,4,256}, metadata={op_name="dynamic_slice" stack_frame_id=12}
  ROOT %squeeze.21 = bf16[1984,4,4,256]{3,2,1,0} reshape(%dynamic_slice.21), metadata={op_name="squeeze" stack_frame_id=12}
}

%dynamic_index_in_dim_10.12 (Arg_0.23: s32[5,4], Arg_1.23: s32[]) -> s32[4] {
  %Arg_0.23 = s32[5,4]{1,0} parameter(0)
  %Arg_1.23 = s32[] parameter(1)
  %constant.66 = s32[] constant(0)
  %dynamic_slice.23 = s32[1,4]{1,0} dynamic-slice(%Arg_0.23, %Arg_1.23, %constant.66), dynamic_slice_sizes={1,4}, metadata={op_name="dynamic_slice" stack_frame_id=12}
  ROOT %squeeze.23 = s32[4]{0} reshape(%dynamic_slice.23), metadata={op_name="squeeze" stack_frame_id=12}
}

%dynamic_index_in_dim_11.13 (Arg_0.25: bf16[5,64,4,4,256], Arg_1.25: s32[]) -> bf16[64,4,4,256] {
  %Arg_0.25 = bf16[5,64,4,4,256]{4,3,2,1,0} parameter(0)
  %Arg_1.25 = s32[] parameter(1)
  %constant.68 = s32[] constant(0)
  %dynamic_slice.25 = bf16[1,64,4,4,256]{4,3,2,1,0} dynamic-slice(%Arg_0.25, %Arg_1.25, %constant.68, %constant.68, %constant.68, /*index=5*/%constant.68), dynamic_slice_sizes={1,64,4,4,256}, metadata={op_name="dynamic_slice" stack_frame_id=12}
  ROOT %squeeze.25 = bf16[64,4,4,256]{3,2,1,0} reshape(%dynamic_slice.25), metadata={op_name="squeeze" stack_frame_id=12}
}

%_where_13.22 (Arg_0.36: pred[4,1,1,1,64], Arg_1.36: f32[], Arg_2.8: f32[]) -> f32[4,1,1,1,64] {
  %Arg_0.36 = pred[4,1,1,1,64]{4,3,2,1,0} parameter(0)
  %Arg_1.36 = f32[] parameter(1)
  %broadcast_in_dim.12 = f32[4,1,1,1,64]{4,3,2,1,0} broadcast(%Arg_1.36), dimensions={}, metadata={op_name="broadcast_in_dim"}
  %Arg_2.8 = f32[] parameter(2)
  %broadcast_in_dim.13 = f32[4,1,1,1,64]{4,3,2,1,0} broadcast(%Arg_2.8), dimensions={}, metadata={op_name="broadcast_in_dim"}
  ROOT %select_n.10 = f32[4,1,1,1,64]{4,3,2,1,0} select(%Arg_0.36, %broadcast_in_dim.12, %broadcast_in_dim.13), metadata={op_name="select_n"}
}

%region_1.14 (reduce_sum.3: f32[], reduce_sum.4: f32[]) -> f32[] {
  %reduce_sum.3 = f32[] parameter(0), metadata={op_name="reduce_sum"}
  %reduce_sum.4 = f32[] parameter(1), metadata={op_name="reduce_sum"}
  ROOT %reduce_sum.5 = f32[] add(%reduce_sum.3, %reduce_sum.4), metadata={op_name="checkpoint/layers/reduce_sum" stack_frame_id=19}
}

%region_2.15 (reduce_sum.10: f32[], reduce_sum.11: f32[]) -> f32[] {
  %reduce_sum.10 = f32[] parameter(0), metadata={op_name="reduce_sum"}
  %reduce_sum.11 = f32[] parameter(1), metadata={op_name="reduce_sum"}
  ROOT %reduce_sum.12 = f32[] add(%reduce_sum.10, %reduce_sum.11), metadata={op_name="checkpoint/layers/reduce_sum" stack_frame_id=24}
}

%_where_14.23 (Arg_0.38: pred[4,1,1,1,64], Arg_1.38: bf16[4,4,2,1,64], Arg_2.10: f32[]) -> bf16[4,4,2,1,64] {
  %Arg_0.38 = pred[4,1,1,1,64]{4,3,2,1,0} parameter(0)
  %broadcast_in_dim.18 = pred[4,1,1,1,64]{4,3,2,1,0} broadcast(%Arg_0.38), dimensions={0,1,2,3,4}, metadata={op_name="broadcast_in_dim"}
  %broadcast_in_dim.19 = pred[4,1,64]{2,1,0} reshape(%broadcast_in_dim.18), metadata={op_name="broadcast_in_dim"}
  %broadcast_in_dim.20 = pred[4,4,2,1,64]{4,3,2,1,0} broadcast(%broadcast_in_dim.19), dimensions={0,3,4}, metadata={op_name="broadcast_in_dim"}
  %Arg_1.38 = bf16[4,4,2,1,64]{4,3,2,1,0} parameter(1)
  %Arg_2.10 = f32[] parameter(2)
  %convert_element_type.22 = bf16[] convert(%Arg_2.10), metadata={op_name="convert_element_type"}
  %broadcast_in_dim.21 = bf16[4,4,2,1,64]{4,3,2,1,0} broadcast(%convert_element_type.22), dimensions={}, metadata={op_name="broadcast_in_dim"}
  ROOT %select_n.12 = bf16[4,4,2,1,64]{4,3,2,1,0} select(%broadcast_in_dim.20, %Arg_1.38, %broadcast_in_dim.21), metadata={op_name="select_n"}
}

%region_5.24 (reduce_max.3: bf16[], reduce_max.4: bf16[]) -> bf16[] {
  %reduce_max.3 = bf16[] parameter(0), metadata={op_name="reduce_max"}
  %reduce_max.4 = bf16[] parameter(1), metadata={op_name="reduce_max"}
  ROOT %reduce_max.5 = bf16[] maximum(%reduce_max.3, %reduce_max.4), metadata={op_name="checkpoint/layers/reduce_max" stack_frame_id=38}
}

%dynamic_update_index_in_dim_12.18 (Arg_0.30: s32[4,1984], Arg_1.30: s32[4,1], Arg_2.4: s32[]) -> s32[4,1984] {
  %Arg_0.30 = s32[4,1984]{1,0} parameter(0)
  %Arg_1.30 = s32[4,1]{1,0} parameter(1)
  %constant.108 = s32[] constant(0)
  %Arg_2.4 = s32[] parameter(2)
  %lt.4 = pred[] compare(%Arg_2.4, %constant.108), direction=LT, metadata={op_name="lt"}
  %constant.107 = s32[] constant(1984)
  %add.9 = s32[] add(%Arg_2.4, %constant.107), metadata={op_name="add"}
  %select_n.4 = s32[] select(%lt.4, %add.9, %Arg_2.4), metadata={op_name="select_n"}
  ROOT %dynamic_update_slice.3 = s32[4,1984]{1,0} dynamic-update-slice(%Arg_0.30, %Arg_1.30, %constant.108, %select_n.4), metadata={op_name="dynamic_update_slice"}
}

%_where_15.26 (Arg_0.40: pred[4,1,1,1,1984], Arg_1.40: f32[], Arg_2.12: f32[]) -> f32[4,1,1,1,1984] {
  %Arg_0.40 = pred[4,1,1,1,1984]{4,3,2,1,0} parameter(0)
  %Arg_1.40 = f32[] parameter(1)
  %broadcast_in_dim.29 = f32[4,1,1,1,1984]{4,3,2,1,0} broadcast(%Arg_1.40), dimensions={}, metadata={op_name="broadcast_in_dim"}
  %Arg_2.12 = f32[] parameter(2)
  %broadcast_in_dim.30 = f32[4,1,1,1,1984]{4,3,2,1,0} broadcast(%Arg_2.12), dimensions={}, metadata={op_name="broadcast_in_dim"}
  ROOT %select_n.14 = f32[4,1,1,1,1984]{4,3,2,1,0} select(%Arg_0.40, %broadcast_in_dim.29, %broadcast_in_dim.30), metadata={op_name="select_n"}
}

%region_3.16 (reduce_sum.17: f32[], reduce_sum.18: f32[]) -> f32[] {
  %reduce_sum.17 = f32[] parameter(0), metadata={op_name="reduce_sum"}
  %reduce_sum.18 = f32[] parameter(1), metadata={op_name="reduce_sum"}
  ROOT %reduce_sum.19 = f32[] add(%reduce_sum.17, %reduce_sum.18), metadata={op_name="checkpoint/layers/reduce_sum" stack_frame_id=27}
}

%dynamic_update_index_in_dim.17 (Arg_0.28: bf16[1984,4,4,256], Arg_1.28: bf16[1,4,4,256], Arg_2.2: s32[]) -> bf16[1984,4,4,256] {
  %Arg_0.28 = bf16[1984,4,4,256]{3,2,1,0} parameter(0)
  %Arg_1.28 = bf16[1,4,4,256]{3,2,1,0} parameter(1)
  %Arg_2.2 = s32[] parameter(2)
  %constant.104 = s32[] constant(0)
  %lt.2 = pred[] compare(%Arg_2.2, %constant.104), direction=LT, metadata={op_name="lt"}
  %constant.103 = s32[] constant(1984)
  %add.7 = s32[] add(%Arg_2.2, %constant.103), metadata={op_name="add"}
  %select_n.2 = s32[] select(%lt.2, %add.7, %Arg_2.2), metadata={op_name="select_n"}
  ROOT %dynamic_update_slice.1 = bf16[1984,4,4,256]{3,2,1,0} dynamic-update-slice(%Arg_0.28, %Arg_1.28, %select_n.2, %constant.104, %constant.104, /*index=5*/%constant.104), metadata={op_name="dynamic_update_slice"}
}

%_where_16.27 (Arg_0.42: pred[4,1,1,1,1984], Arg_1.42: bf16[4,4,2,1,1984], Arg_2.14: f32[]) -> bf16[4,4,2,1,1984] {
  %Arg_0.42 = pred[4,1,1,1,1984]{4,3,2,1,0} parameter(0)
  %broadcast_in_dim.35 = pred[4,1,1,1,1984]{4,3,2,1,0} broadcast(%Arg_0.42), dimensions={0,1,2,3,4}, metadata={op_name="broadcast_in_dim"}
  %broadcast_in_dim.36 = pred[4,1,1984]{2,1,0} reshape(%broadcast_in_dim.35), metadata={op_name="broadcast_in_dim"}
  %broadcast_in_dim.37 = pred[4,4,2,1,1984]{4,3,2,1,0} broadcast(%broadcast_in_dim.36), dimensions={0,3,4}, metadata={op_name="broadcast_in_dim"}
  %Arg_1.42 = bf16[4,4,2,1,1984]{4,3,2,1,0} parameter(1)
  %Arg_2.14 = f32[] parameter(2)
  %convert_element_type.26 = bf16[] convert(%Arg_2.14), metadata={op_name="convert_element_type"}
  %broadcast_in_dim.38 = bf16[4,4,2,1,1984]{4,3,2,1,0} broadcast(%convert_element_type.26), dimensions={}, metadata={op_name="broadcast_in_dim"}
  ROOT %select_n.16 = bf16[4,4,2,1,1984]{4,3,2,1,0} select(%broadcast_in_dim.37, %Arg_1.42, %broadcast_in_dim.38), metadata={op_name="select_n"}
}

%region_7.28 (reduce_max.10: bf16[], reduce_max.11: bf16[]) -> bf16[] {
  %reduce_max.10 = bf16[] parameter(0), metadata={op_name="reduce_max"}
  %reduce_max.11 = bf16[] parameter(1), metadata={op_name="reduce_max"}
  ROOT %reduce_max.12 = bf16[] maximum(%reduce_max.10, %reduce_max.11), metadata={op_name="checkpoint/layers/reduce_max" stack_frame_id=43}
}

%region_6.25 (reduce_sum.24: f32[], reduce_sum.25: f32[]) -> f32[] {
  %reduce_sum.24 = f32[] parameter(0), metadata={op_name="reduce_sum"}
  %reduce_sum.25 = f32[] parameter(1), metadata={op_name="reduce_sum"}
  ROOT %reduce_sum.26 = f32[] add(%reduce_sum.24, %reduce_sum.25), metadata={op_name="checkpoint/layers/reduce_sum" stack_frame_id=39}
}

%region_8.29 (reduce_sum.31: f32[], reduce_sum.32: f32[]) -> f32[] {
  %reduce_sum.31 = f32[] parameter(0), metadata={op_name="reduce_sum"}
  %reduce_sum.32 = f32[] parameter(1), metadata={op_name="reduce_sum"}
  ROOT %reduce_sum.33 = f32[] add(%reduce_sum.31, %reduce_sum.32), metadata={op_name="checkpoint/layers/reduce_sum" stack_frame_id=44}
}

%region_9.30 (reduce_sum.38: f32[], reduce_sum.39: f32[]) -> f32[] {
  %reduce_sum.38 = f32[] parameter(0), metadata={op_name="reduce_sum"}
  %reduce_sum.39 = f32[] parameter(1), metadata={op_name="reduce_sum"}
  ROOT %reduce_sum.40 = f32[] add(%reduce_sum.38, %reduce_sum.39), metadata={op_name="checkpoint/layers/reduce_sum" stack_frame_id=47}
}

%region_10.31 (reduce_sum.45: f32[], reduce_sum.46: f32[]) -> f32[] {
  %reduce_sum.45 = f32[] parameter(0), metadata={op_name="reduce_sum"}
  %reduce_sum.46 = f32[] parameter(1), metadata={op_name="reduce_sum"}
  ROOT %reduce_sum.47 = f32[] add(%reduce_sum.45, %reduce_sum.46), metadata={op_name="checkpoint/layers/reduce_sum" stack_frame_id=50}
}

%region_11.32 (reduce_sum.52: f32[], reduce_sum.53: f32[]) -> f32[] {
  %reduce_sum.52 = f32[] parameter(0), metadata={op_name="reduce_sum"}
  %reduce_sum.53 = f32[] parameter(1), metadata={op_name="reduce_sum"}
  ROOT %reduce_sum.54 = f32[] add(%reduce_sum.52, %reduce_sum.53), metadata={op_name="checkpoint/layers/reduce_sum" stack_frame_id=53}
}

%region_12.33 (reduce_sum.59: f32[], reduce_sum.60: f32[]) -> f32[] {
  %reduce_sum.59 = f32[] parameter(0), metadata={op_name="reduce_sum"}
  %reduce_sum.60 = f32[] parameter(1), metadata={op_name="reduce_sum"}
  ROOT %reduce_sum.61 = f32[] add(%reduce_sum.59, %reduce_sum.60), metadata={op_name="checkpoint/layers/reduce_sum" stack_frame_id=19}
}

%region_13.34 (reduce_sum.66: f32[], reduce_sum.67: f32[]) -> f32[] {
  %reduce_sum.66 = f32[] parameter(0), metadata={op_name="reduce_sum"}
  %reduce_sum.67 = f32[] parameter(1), metadata={op_name="reduce_sum"}
  ROOT %reduce_sum.68 = f32[] add(%reduce_sum.66, %reduce_sum.67), metadata={op_name="checkpoint/layers/reduce_sum" stack_frame_id=24}
}

%region_16.37 (reduce_max.17: bf16[], reduce_max.18: bf16[]) -> bf16[] {
  %reduce_max.17 = bf16[] parameter(0), metadata={op_name="reduce_max"}
  %reduce_max.18 = bf16[] parameter(1), metadata={op_name="reduce_max"}
  ROOT %reduce_max.19 = bf16[] maximum(%reduce_max.17, %reduce_max.18), metadata={op_name="checkpoint/layers/reduce_max" stack_frame_id=38}
}

%region_14.35 (reduce_sum.73: f32[], reduce_sum.74: f32[]) -> f32[] {
  %reduce_sum.73 = f32[] parameter(0), metadata={op_name="reduce_sum"}
  %reduce_sum.74 = f32[] parameter(1), metadata={op_name="reduce_sum"}
  ROOT %reduce_sum.75 = f32[] add(%reduce_sum.73, %reduce_sum.74), metadata={op_name="checkpoint/layers/reduce_sum" stack_frame_id=27}
}

%region_18.39 (reduce_max.24: bf16[], reduce_max.25: bf16[]) -> bf16[] {
  %reduce_max.24 = bf16[] parameter(0), metadata={op_name="reduce_max"}
  %reduce_max.25 = bf16[] parameter(1), metadata={op_name="reduce_max"}
  ROOT %reduce_max.26 = bf16[] maximum(%reduce_max.24, %reduce_max.25), metadata={op_name="checkpoint/layers/reduce_max" stack_frame_id=43}
}

%region_17.38 (reduce_sum.80: f32[], reduce_sum.81: f32[]) -> f32[] {
  %reduce_sum.80 = f32[] parameter(0), metadata={op_name="reduce_sum"}
  %reduce_sum.81 = f32[] parameter(1), metadata={op_name="reduce_sum"}
  ROOT %reduce_sum.82 = f32[] add(%reduce_sum.80, %reduce_sum.81), metadata={op_name="checkpoint/layers/reduce_sum" stack_frame_id=39}
}

%region_19.40 (reduce_sum.87: f32[], reduce_sum.88: f32[]) -> f32[] {
  %reduce_sum.87 = f32[] parameter(0), metadata={op_name="reduce_sum"}
  %reduce_sum.88 = f32[] parameter(1), metadata={op_name="reduce_sum"}
  ROOT %reduce_sum.89 = f32[] add(%reduce_sum.87, %reduce_sum.88), metadata={op_name="checkpoint/layers/reduce_sum" stack_frame_id=44}
}

%region_20.41 (reduce_sum.94: f32[], reduce_sum.95: f32[]) -> f32[] {
  %reduce_sum.94 = f32[] parameter(0), metadata={op_name="reduce_sum"}
  %reduce_sum.95 = f32[] parameter(1), metadata={op_name="reduce_sum"}
  ROOT %reduce_sum.96 = f32[] add(%reduce_sum.94, %reduce_sum.95), metadata={op_name="checkpoint/layers/reduce_sum" stack_frame_id=47}
}

%region_21.42 (reduce_sum.101: f32[], reduce_sum.102: f32[]) -> f32[] {
  %reduce_sum.101 = f32[] parameter(0), metadata={op_name="reduce_sum"}
  %reduce_sum.102 = f32[] parameter(1), metadata={op_name="reduce_sum"}
  ROOT %reduce_sum.103 = f32[] add(%reduce_sum.101, %reduce_sum.102), metadata={op_name="checkpoint/layers/reduce_sum" stack_frame_id=50}
}

%region_22.43 (reduce_sum.108: f32[], reduce_sum.109: f32[]) -> f32[] {
  %reduce_sum.108 = f32[] parameter(0), metadata={op_name="reduce_sum"}
  %reduce_sum.109 = f32[] parameter(1), metadata={op_name="reduce_sum"}
  ROOT %reduce_sum.110 = f32[] add(%reduce_sum.108, %reduce_sum.109), metadata={op_name="checkpoint/layers/reduce_sum" stack_frame_id=53}
}

%region_23.44 (reduce_sum.115: f32[], reduce_sum.116: f32[]) -> f32[] {
  %reduce_sum.115 = f32[] parameter(0), metadata={op_name="reduce_sum"}
  %reduce_sum.116 = f32[] parameter(1), metadata={op_name="reduce_sum"}
  ROOT %reduce_sum.117 = f32[] add(%reduce_sum.115, %reduce_sum.116), metadata={op_name="checkpoint/layers/reduce_sum" stack_frame_id=19}
}

%region_24.45 (reduce_sum.122: f32[], reduce_sum.123: f32[]) -> f32[] {
  %reduce_sum.122 = f32[] parameter(0), metadata={op_name="reduce_sum"}
  %reduce_sum.123 = f32[] parameter(1), metadata={op_name="reduce_sum"}
  ROOT %reduce_sum.124 = f32[] add(%reduce_sum.122, %reduce_sum.123), metadata={op_name="checkpoint/layers/reduce_sum" stack_frame_id=24}
}

%region_27.48 (reduce_max.31: bf16[], reduce_max.32: bf16[]) -> bf16[] {
  %reduce_max.31 = bf16[] parameter(0), metadata={op_name="reduce_max"}
  %reduce_max.32 = bf16[] parameter(1), metadata={op_name="reduce_max"}
  ROOT %reduce_max.33 = bf16[] maximum(%reduce_max.31, %reduce_max.32), metadata={op_name="checkpoint/layers/reduce_max" stack_frame_id=38}
}

%region_25.46 (reduce_sum.129: f32[], reduce_sum.130: f32[]) -> f32[] {
  %reduce_sum.129 = f32[] parameter(0), metadata={op_name="reduce_sum"}
  %reduce_sum.130 = f32[] parameter(1), metadata={op_name="reduce_sum"}
  ROOT %reduce_sum.131 = f32[] add(%reduce_sum.129, %reduce_sum.130), metadata={op_name="checkpoint/layers/reduce_sum" stack_frame_id=27}
}

%region_29.50 (reduce_max.38: bf16[], reduce_max.39: bf16[]) -> bf16[] {
  %reduce_max.38 = bf16[] parameter(0), metadata={op_name="reduce_max"}
  %reduce_max.39 = bf16[] parameter(1), metadata={op_name="reduce_max"}
  ROOT %reduce_max.40 = bf16[] maximum(%reduce_max.38, %reduce_max.39), metadata={op_name="checkpoint/layers/reduce_max" stack_frame_id=43}
}

%region_28.49 (reduce_sum.136: f32[], reduce_sum.137: f32[]) -> f32[] {
  %reduce_sum.136 = f32[] parameter(0), metadata={op_name="reduce_sum"}
  %reduce_sum.137 = f32[] parameter(1), metadata={op_name="reduce_sum"}
  ROOT %reduce_sum.138 = f32[] add(%reduce_sum.136, %reduce_sum.137), metadata={op_name="checkpoint/layers/reduce_sum" stack_frame_id=39}
}

%region_30.51 (reduce_sum.143: f32[], reduce_sum.144: f32[]) -> f32[] {
  %reduce_sum.143 = f32[] parameter(0), metadata={op_name="reduce_sum"}
  %reduce_sum.144 = f32[] parameter(1), metadata={op_name="reduce_sum"}
  ROOT %reduce_sum.145 = f32[] add(%reduce_sum.143, %reduce_sum.144), metadata={op_name="checkpoint/layers/reduce_sum" stack_frame_id=44}
}

%region_31.52 (reduce_sum.150: f32[], reduce_sum.151: f32[]) -> f32[] {
  %reduce_sum.150 = f32[] parameter(0), metadata={op_name="reduce_sum"}
  %reduce_sum.151 = f32[] parameter(1), metadata={op_name="reduce_sum"}
  ROOT %reduce_sum.152 = f32[] add(%reduce_sum.150, %reduce_sum.151), metadata={op_name="checkpoint/layers/reduce_sum" stack_frame_id=47}
}

%region_32.53 (reduce_sum.157: f32[], reduce_sum.158: f32[]) -> f32[] {
  %reduce_sum.157 = f32[] parameter(0), metadata={op_name="reduce_sum"}
  %reduce_sum.158 = f32[] parameter(1), metadata={op_name="reduce_sum"}
  ROOT %reduce_sum.159 = f32[] add(%reduce_sum.157, %reduce_sum.158), metadata={op_name="checkpoint/layers/reduce_sum" stack_frame_id=50}
}

%region_33.54 (reduce_sum.164: f32[], reduce_sum.165: f32[]) -> f32[] {
  %reduce_sum.164 = f32[] parameter(0), metadata={op_name="reduce_sum"}
  %reduce_sum.165 = f32[] parameter(1), metadata={op_name="reduce_sum"}
  ROOT %reduce_sum.166 = f32[] add(%reduce_sum.164, %reduce_sum.165), metadata={op_name="checkpoint/layers/reduce_sum" stack_frame_id=53}
}

%region_34.55 (reduce_sum.171: f32[], reduce_sum.172: f32[]) -> f32[] {
  %reduce_sum.171 = f32[] parameter(0), metadata={op_name="reduce_sum"}
  %reduce_sum.172 = f32[] parameter(1), metadata={op_name="reduce_sum"}
  ROOT %reduce_sum.173 = f32[] add(%reduce_sum.171, %reduce_sum.172), metadata={op_name="checkpoint/layers/reduce_sum" stack_frame_id=19}
}

%region_35.56 (reduce_sum.178: f32[], reduce_sum.179: f32[]) -> f32[] {
  %reduce_sum.178 = f32[] parameter(0), metadata={op_name="reduce_sum"}
  %reduce_sum.179 = f32[] parameter(1), metadata={op_name="reduce_sum"}
  ROOT %reduce_sum.180 = f32[] add(%reduce_sum.178, %reduce_sum.179), metadata={op_name="checkpoint/layers/reduce_sum" stack_frame_id=24}
}

%region_38.59 (reduce_max.45: bf16[], reduce_max.46: bf16[]) -> bf16[] {
  %reduce_max.45 = bf16[] parameter(0), metadata={op_name="reduce_max"}
  %reduce_max.46 = bf16[] parameter(1), metadata={op_name="reduce_max"}
  ROOT %reduce_max.47 = bf16[] maximum(%reduce_max.45, %reduce_max.46), metadata={op_name="checkpoint/layers/reduce_max" stack_frame_id=38}
}

%region_36.57 (reduce_sum.185: f32[], reduce_sum.186: f32[]) -> f32[] {
  %reduce_sum.185 = f32[] parameter(0), metadata={op_name="reduce_sum"}
  %reduce_sum.186 = f32[] parameter(1), metadata={op_name="reduce_sum"}
  ROOT %reduce_sum.187 = f32[] add(%reduce_sum.185, %reduce_sum.186), metadata={op_name="checkpoint/layers/reduce_sum" stack_frame_id=27}
}

%region_40.61 (reduce_max.52: bf16[], reduce_max.53: bf16[]) -> bf16[] {
  %reduce_max.52 = bf16[] parameter(0), metadata={op_name="reduce_max"}
  %reduce_max.53 = bf16[] parameter(1), metadata={op_name="reduce_max"}
  ROOT %reduce_max.54 = bf16[] maximum(%reduce_max.52, %reduce_max.53), metadata={op_name="checkpoint/layers/reduce_max" stack_frame_id=43}
}

%region_39.60 (reduce_sum.192: f32[], reduce_sum.193: f32[]) -> f32[] {
  %reduce_sum.192 = f32[] parameter(0), metadata={op_name="reduce_sum"}
  %reduce_sum.193 = f32[] parameter(1), metadata={op_name="reduce_sum"}
  ROOT %reduce_sum.194 = f32[] add(%reduce_sum.192, %reduce_sum.193), metadata={op_name="checkpoint/layers/reduce_sum" stack_frame_id=39}
}

%region_41.62 (reduce_sum.199: f32[], reduce_sum.200: f32[]) -> f32[] {
  %reduce_sum.199 = f32[] parameter(0), metadata={op_name="reduce_sum"}
  %reduce_sum.200 = f32[] parameter(1), metadata={op_name="reduce_sum"}
  ROOT %reduce_sum.201 = f32[] add(%reduce_sum.199, %reduce_sum.200), metadata={op_name="checkpoint/layers/reduce_sum" stack_frame_id=44}
}

%region_42.63 (reduce_sum.206: f32[], reduce_sum.207: f32[]) -> f32[] {
  %reduce_sum.206 = f32[] parameter(0), metadata={op_name="reduce_sum"}
  %reduce_sum.207 = f32[] parameter(1), metadata={op_name="reduce_sum"}
  ROOT %reduce_sum.208 = f32[] add(%reduce_sum.206, %reduce_sum.207), metadata={op_name="checkpoint/layers/reduce_sum" stack_frame_id=47}
}

%region_43.64 (reduce_sum.213: f32[], reduce_sum.214: f32[]) -> f32[] {
  %reduce_sum.213 = f32[] parameter(0), metadata={op_name="reduce_sum"}
  %reduce_sum.214 = f32[] parameter(1), metadata={op_name="reduce_sum"}
  ROOT %reduce_sum.215 = f32[] add(%reduce_sum.213, %reduce_sum.214), metadata={op_name="checkpoint/layers/reduce_sum" stack_frame_id=50}
}

%region_44.65 (reduce_sum.220: f32[], reduce_sum.221: f32[]) -> f32[] {
  %reduce_sum.220 = f32[] parameter(0), metadata={op_name="reduce_sum"}
  %reduce_sum.221 = f32[] parameter(1), metadata={op_name="reduce_sum"}
  ROOT %reduce_sum.222 = f32[] add(%reduce_sum.220, %reduce_sum.221), metadata={op_name="checkpoint/layers/reduce_sum" stack_frame_id=53}
}

%region_45.66 (reduce_sum.227: f32[], reduce_sum.228: f32[]) -> f32[] {
  %reduce_sum.227 = f32[] parameter(0), metadata={op_name="reduce_sum"}
  %reduce_sum.228 = f32[] parameter(1), metadata={op_name="reduce_sum"}
  ROOT %reduce_sum.229 = f32[] add(%reduce_sum.227, %reduce_sum.228), metadata={op_name="checkpoint/layers/reduce_sum" stack_frame_id=19}
}

%region_46.67 (reduce_sum.234: f32[], reduce_sum.235: f32[]) -> f32[] {
  %reduce_sum.234 = f32[] parameter(0), metadata={op_name="reduce_sum"}
  %reduce_sum.235 = f32[] parameter(1), metadata={op_name="reduce_sum"}
  ROOT %reduce_sum.236 = f32[] add(%reduce_sum.234, %reduce_sum.235), metadata={op_name="checkpoint/layers/reduce_sum" stack_frame_id=24}
}

%region_49.70 (reduce_max.59: bf16[], reduce_max.60: bf16[]) -> bf16[] {
  %reduce_max.59 = bf16[] parameter(0), metadata={op_name="reduce_max"}
  %reduce_max.60 = bf16[] parameter(1), metadata={op_name="reduce_max"}
  ROOT %reduce_max.61 = bf16[] maximum(%reduce_max.59, %reduce_max.60), metadata={op_name="checkpoint/layers/reduce_max" stack_frame_id=38}
}

%region_47.68 (reduce_sum.241: f32[], reduce_sum.242: f32[]) -> f32[] {
  %reduce_sum.241 = f32[] parameter(0), metadata={op_name="reduce_sum"}
  %reduce_sum.242 = f32[] parameter(1), metadata={op_name="reduce_sum"}
  ROOT %reduce_sum.243 = f32[] add(%reduce_sum.241, %reduce_sum.242), metadata={op_name="checkpoint/layers/reduce_sum" stack_frame_id=27}
}

%region_51.72 (reduce_max.66: bf16[], reduce_max.67: bf16[]) -> bf16[] {
  %reduce_max.66 = bf16[] parameter(0), metadata={op_name="reduce_max"}
  %reduce_max.67 = bf16[] parameter(1), metadata={op_name="reduce_max"}
  ROOT %reduce_max.68 = bf16[] maximum(%reduce_max.66, %reduce_max.67), metadata={op_name="checkpoint/layers/reduce_max" stack_frame_id=43}
}

%region_50.71 (reduce_sum.248: f32[], reduce_sum.249: f32[]) -> f32[] {
  %reduce_sum.248 = f32[] parameter(0), metadata={op_name="reduce_sum"}
  %reduce_sum.249 = f32[] parameter(1), metadata={op_name="reduce_sum"}
  ROOT %reduce_sum.250 = f32[] add(%reduce_sum.248, %reduce_sum.249), metadata={op_name="checkpoint/layers/reduce_sum" stack_frame_id=39}
}

%region_52.73 (reduce_sum.255: f32[], reduce_sum.256: f32[]) -> f32[] {
  %reduce_sum.255 = f32[] parameter(0), metadata={op_name="reduce_sum"}
  %reduce_sum.256 = f32[] parameter(1), metadata={op_name="reduce_sum"}
  ROOT %reduce_sum.257 = f32[] add(%reduce_sum.255, %reduce_sum.256), metadata={op_name="checkpoint/layers/reduce_sum" stack_frame_id=44}
}

%region_53.74 (reduce_sum.262: f32[], reduce_sum.263: f32[]) -> f32[] {
  %reduce_sum.262 = f32[] parameter(0), metadata={op_name="reduce_sum"}
  %reduce_sum.263 = f32[] parameter(1), metadata={op_name="reduce_sum"}
  ROOT %reduce_sum.264 = f32[] add(%reduce_sum.262, %reduce_sum.263), metadata={op_name="checkpoint/layers/reduce_sum" stack_frame_id=47}
}

%region_54.75 (reduce_sum.269: f32[], reduce_sum.270: f32[]) -> f32[] {
  %reduce_sum.269 = f32[] parameter(0), metadata={op_name="reduce_sum"}
  %reduce_sum.270 = f32[] parameter(1), metadata={op_name="reduce_sum"}
  ROOT %reduce_sum.271 = f32[] add(%reduce_sum.269, %reduce_sum.270), metadata={op_name="checkpoint/layers/reduce_sum" stack_frame_id=50}
}

%region_55.76 (reduce_sum.276: f32[], reduce_sum.277: f32[]) -> f32[] {
  %reduce_sum.276 = f32[] parameter(0), metadata={op_name="reduce_sum"}
  %reduce_sum.277 = f32[] parameter(1), metadata={op_name="reduce_sum"}
  ROOT %reduce_sum.278 = f32[] add(%reduce_sum.276, %reduce_sum.277), metadata={op_name="checkpoint/layers/reduce_sum" stack_frame_id=53}
}

%region_56.77 (reduce_sum.283: f32[], reduce_sum.284: f32[]) -> f32[] {
  %reduce_sum.283 = f32[] parameter(0), metadata={op_name="reduce_sum"}
  %reduce_sum.284 = f32[] parameter(1), metadata={op_name="reduce_sum"}
  ROOT %reduce_sum.285 = f32[] add(%reduce_sum.283, %reduce_sum.284), metadata={op_name="checkpoint/layers/reduce_sum" stack_frame_id=19}
}

%region_57.78 (reduce_sum.290: f32[], reduce_sum.291: f32[]) -> f32[] {
  %reduce_sum.290 = f32[] parameter(0), metadata={op_name="reduce_sum"}
  %reduce_sum.291 = f32[] parameter(1), metadata={op_name="reduce_sum"}
  ROOT %reduce_sum.292 = f32[] add(%reduce_sum.290, %reduce_sum.291), metadata={op_name="checkpoint/layers/reduce_sum" stack_frame_id=24}
}

%region_60.81 (reduce_max.73: bf16[], reduce_max.74: bf16[]) -> bf16[] {
  %reduce_max.73 = bf16[] parameter(0), metadata={op_name="reduce_max"}
  %reduce_max.74 = bf16[] parameter(1), metadata={op_name="reduce_max"}
  ROOT %reduce_max.75 = bf16[] maximum(%reduce_max.73, %reduce_max.74), metadata={op_name="checkpoint/layers/reduce_max" stack_frame_id=38}
}

%region_58.79 (reduce_sum.297: f32[], reduce_sum.298: f32[]) -> f32[] {
  %reduce_sum.297 = f32[] parameter(0), metadata={op_name="reduce_sum"}
  %reduce_sum.298 = f32[] parameter(1), metadata={op_name="reduce_sum"}
  ROOT %reduce_sum.299 = f32[] add(%reduce_sum.297, %reduce_sum.298), metadata={op_name="checkpoint/layers/reduce_sum" stack_frame_id=27}
}

%region_62.83 (reduce_max.80: bf16[], reduce_max.81: bf16[]) -> bf16[] {
  %reduce_max.80 = bf16[] parameter(0), metadata={op_name="reduce_max"}
  %reduce_max.81 = bf16[] parameter(1), metadata={op_name="reduce_max"}
  ROOT %reduce_max.82 = bf16[] maximum(%reduce_max.80, %reduce_max.81), metadata={op_name="checkpoint/layers/reduce_max" stack_frame_id=43}
}

%region_61.82 (reduce_sum.304: f32[], reduce_sum.305: f32[]) -> f32[] {
  %reduce_sum.304 = f32[] parameter(0), metadata={op_name="reduce_sum"}
  %reduce_sum.305 = f32[] parameter(1), metadata={op_name="reduce_sum"}
  ROOT %reduce_sum.306 = f32[] add(%reduce_sum.304, %reduce_sum.305), metadata={op_name="checkpoint/layers/reduce_sum" stack_frame_id=39}
}

%region_63.84 (reduce_sum.311: f32[], reduce_sum.312: f32[]) -> f32[] {
  %reduce_sum.311 = f32[] parameter(0), metadata={op_name="reduce_sum"}
  %reduce_sum.312 = f32[] parameter(1), metadata={op_name="reduce_sum"}
  ROOT %reduce_sum.313 = f32[] add(%reduce_sum.311, %reduce_sum.312), metadata={op_name="checkpoint/layers/reduce_sum" stack_frame_id=44}
}

%region_64.85 (reduce_sum.318: f32[], reduce_sum.319: f32[]) -> f32[] {
  %reduce_sum.318 = f32[] parameter(0), metadata={op_name="reduce_sum"}
  %reduce_sum.319 = f32[] parameter(1), metadata={op_name="reduce_sum"}
  ROOT %reduce_sum.320 = f32[] add(%reduce_sum.318, %reduce_sum.319), metadata={op_name="checkpoint/layers/reduce_sum" stack_frame_id=47}
}

%region_65.86 (reduce_sum.325: f32[], reduce_sum.326: f32[]) -> f32[] {
  %reduce_sum.325 = f32[] parameter(0), metadata={op_name="reduce_sum"}
  %reduce_sum.326 = f32[] parameter(1), metadata={op_name="reduce_sum"}
  ROOT %reduce_sum.327 = f32[] add(%reduce_sum.325, %reduce_sum.326), metadata={op_name="checkpoint/layers/reduce_sum" stack_frame_id=50}
}

%region_66.87 (reduce_sum.332: f32[], reduce_sum.333: f32[]) -> f32[] {
  %reduce_sum.332 = f32[] parameter(0), metadata={op_name="reduce_sum"}
  %reduce_sum.333 = f32[] parameter(1), metadata={op_name="reduce_sum"}
  ROOT %reduce_sum.334 = f32[] add(%reduce_sum.332, %reduce_sum.333), metadata={op_name="checkpoint/layers/reduce_sum" stack_frame_id=53}
}

%_where.19 (Arg_0.33: pred[], Arg_1.33: s32[], Arg_2.6: s32[]) -> s32[] {
  %Arg_0.33 = pred[] parameter(0)
  %Arg_1.33 = s32[] parameter(1)
  %Arg_2.6 = s32[] parameter(2)
  ROOT %select_n.6 = s32[] select(%Arg_0.33, %Arg_1.33, %Arg_2.6), metadata={op_name="select_n"}
}

%remainder.20 (Arg_0.34: s32[1], Arg_1.34: s32[]) -> s32[1] {
  %Arg_0.34 = s32[1]{0} parameter(0)
  %Arg_1.34 = s32[] parameter(1)
  %constant.114 = s32[] constant(0)
  %eq.1 = pred[] compare(%Arg_1.34, %constant.114), direction=EQ, metadata={op_name="eq"}
  %constant.113 = s32[] constant(1)
  %jit__where_.1 = s32[] call(%eq.1, %constant.113, %Arg_1.34), to_apply=%_where.19, metadata={op_name="jit(_where)"}
  %rem.2 = s32[1]{0} reshape(%jit__where_.1), metadata={op_name="rem"}
  %rem.3 = s32[1]{0} remainder(%Arg_0.34, %rem.2), metadata={op_name="rem"}
  %constant.112 = s32[1]{0} constant({0})
  %lt.7 = pred[1]{0} compare(%rem.3, %constant.112), direction=LT, metadata={op_name="lt"}
  %lt.8 = pred[] compare(%jit__where_.1, %constant.114), direction=LT, metadata={op_name="lt"}
  %ne.4 = pred[1]{0} reshape(%lt.8), metadata={op_name="ne"}
  %ne.5 = pred[1]{0} compare(%lt.7, %ne.4), direction=NE, metadata={op_name="ne"}
  %ne.3 = pred[1]{0} compare(%rem.3, %constant.112), direction=NE, metadata={op_name="ne"}
  %and.1 = pred[1]{0} and(%ne.5, %ne.3), metadata={op_name="and"}
  %add.13 = s32[1]{0} reshape(%jit__where_.1), metadata={op_name="add"}
  %add.14 = s32[1]{0} add(%rem.3, %add.13), metadata={op_name="add"}
  ROOT %select_n.8 = s32[1]{0} select(%and.1, %add.14, %rem.3), metadata={op_name="select_n"}
}

%region_4.21 (scatter-add.2: s32[], scatter-add.3: s32[]) -> s32[] {
  %scatter-add.2 = s32[] parameter(0), metadata={op_name="scatter-add"}
  %scatter-add.3 = s32[] parameter(1), metadata={op_name="scatter-add"}
  ROOT %add.16 = s32[] add(%scatter-add.2, %scatter-add.3), metadata={op_name="checkpoint/layers/add" stack_frame_id=32}
}

%region_15.36 (scatter-add.7: s32[], scatter-add.8: s32[]) -> s32[] {
  %scatter-add.7 = s32[] parameter(0), metadata={op_name="scatter-add"}
  %scatter-add.8 = s32[] parameter(1), metadata={op_name="scatter-add"}
  ROOT %add.33 = s32[] add(%scatter-add.7, %scatter-add.8), metadata={op_name="checkpoint/layers/add" stack_frame_id=32}
}

%region_26.47 (scatter-add.12: s32[], scatter-add.13: s32[]) -> s32[] {
  %scatter-add.12 = s32[] parameter(0), metadata={op_name="scatter-add"}
  %scatter-add.13 = s32[] parameter(1), metadata={op_name="scatter-add"}
  ROOT %add.50 = s32[] add(%scatter-add.12, %scatter-add.13), metadata={op_name="checkpoint/layers/add" stack_frame_id=32}
}

%region_37.58 (scatter-add.17: s32[], scatter-add.18: s32[]) -> s32[] {
  %scatter-add.17 = s32[] parameter(0), metadata={op_name="scatter-add"}
  %scatter-add.18 = s32[] parameter(1), metadata={op_name="scatter-add"}
  ROOT %add.67 = s32[] add(%scatter-add.17, %scatter-add.18), metadata={op_name="checkpoint/layers/add" stack_frame_id=32}
}

%region_48.69 (scatter-add.22: s32[], scatter-add.23: s32[]) -> s32[] {
  %scatter-add.22 = s32[] parameter(0), metadata={op_name="scatter-add"}
  %scatter-add.23 = s32[] parameter(1), metadata={op_name="scatter-add"}
  ROOT %add.84 = s32[] add(%scatter-add.22, %scatter-add.23), metadata={op_name="checkpoint/layers/add" stack_frame_id=32}
}

%region_59.80 (scatter-add.27: s32[], scatter-add.28: s32[]) -> s32[] {
  %scatter-add.27 = s32[] parameter(0), metadata={op_name="scatter-add"}
  %scatter-add.28 = s32[] parameter(1), metadata={op_name="scatter-add"}
  ROOT %add.101 = s32[] add(%scatter-add.27, %scatter-add.28), metadata={op_name="checkpoint/layers/add" stack_frame_id=32}
}

%closed_call.88 (Arg_0.43: s32[0], Arg_1.43: s32[0], Arg_2.15: s32[0], Arg_3.1: s32[0], Arg_4.1: s32[0], Arg_5.1: s32[0], Arg_6.1: s32[4,1], Arg_7.1: bf16[4,1,2560], Arg_8.1: f32[2560,10240], Arg_9.1: f32[2560,10240], Arg_10.1: f32[10240,2560], Arg_11.1: f32[2560], Arg_12.1: f32[2560], Arg_13.1: f32[2560], Arg_14.1: f32[2560], Arg_15.1: f32[2560,4,256], Arg_16.1: f32[256], Arg_17.1: f32[8,256,2560], Arg_18.1: f32[2560,8,256], Arg_19.1: f32[256], Arg_20.1: f32[2560,4,256], Arg_21.1: f32[2560,10240], Arg_22.1: f32[2560,10240], Arg_23.1: f32[10240,2560], Arg_24.1: f32[2560], Arg_25.1: f32[2560], Arg_26.1: f32[2560], Arg_27.1: f32[2560], Arg_28.1: f32[2560,4,256], Arg_29.1: f32[256], Arg_30.1: f32[8,256,2560], Arg_31.1: f32[2560,8,256], Arg_32.1: f32[256], Arg_33.1: f32[2560,4,256], Arg_34.1: f32[2560,10240], Arg_35.1: f32[2560,10240], Arg_36.1: f32[10240,2560], Arg_37.1: f32[2560], Arg_38.1: f32[2560], Arg_39.1: f32[2560], Arg_40.1: f32[2560], Arg_41.1: f32[2560,4,256], Arg_42.1: f32[256], Arg_43.1: f32[8,256,2560], Arg_44.1: f32[2560,8,256], Arg_45.1: f32[256], Arg_46.1: f32[2560,4,256], Arg_47.1: f32[2560,10240], Arg_48.1: f32[2560,10240], Arg_49.1: f32[10240,2560], Arg_50.1: f32[2560], Arg_51.1: f32[2560], Arg_52.1: f32[2560], Arg_53.1: f32[2560], Arg_54.1: f32[2560,4,256], Arg_55.1: f32[256], Arg_56.1: f32[8,256,2560], Arg_57.1: f32[2560,8,256], Arg_58.1: f32[256], Arg_59.1: f32[2560,4,256], Arg_60.1: f32[2560,10240], Arg_61.1: f32[2560,10240], Arg_62.1: f32[10240,2560], Arg_63.1: f32[2560], Arg_64.1: f32[2560], Arg_65.1: f32[2560], Arg_66.1: f32[2560], Arg_67.1: f32[2560,4,256], Arg_68.1: f32[256], Arg_69.1: f32[8,256,2560], Arg_70.1: f32[2560,8,256], Arg_71.1: f32[256], Arg_72.1: f32[2560,4,256], Arg_73.1: f32[2560,10240], Arg_74.1: f32[2560,10240], Arg_75.1: f32[10240,2560], Arg_76.1: f32[2560], Arg_77.1: f32[2560], Arg_78.1: f32[2560], Arg_79.1: f32[2560], Arg_80.1: f32[2560,4,256], Arg_81.1: f32[256], Arg_82.1: f32[8,256,2560], Arg_83.1: f32[2560,8,256], Arg_84.1: f32[256], Arg_85.1: f32[2560,4,256], Arg_86.1: s32[1], Arg_87.1: s32[4,1984], Arg_88.1: s32[4,64], Arg_89.1: bf16[1984,4,4,256], Arg_90.1: s32[4], Arg_91.1: bf16[1984,4,4,256], Arg_92.1: bf16[64,4,4,256], Arg_93.1: bf16[64,4,4,256], Arg_94.1: s32[1], Arg_95.1: s32[4,1984], Arg_96.1: s32[4,64], Arg_97.1: bf16[1984,4,4,256], Arg_98.1: s32[4], Arg_99.1: bf16[1984,4,4,256], Arg_100.1: bf16[64,4,4,256], Arg_101.1: bf16[64,4,4,256], Arg_102.1: s32[1], Arg_103.1: s32[4,1984], Arg_104.1: s32[4,64], Arg_105.1: bf16[1984,4,4,256], Arg_106.1: s32[4], Arg_107.1: bf16[1984,4,4,256], Arg_108.1: bf16[64,4,4,256], Arg_109.1: bf16[64,4,4,256], Arg_110.1: s32[1], Arg_111.1: s32[4,1984], Arg_112.1: s32[4,64], Arg_113.1: bf16[1984,4,4,256], Arg_114.1: s32[4], Arg_115.1: bf16[1984,4,4,256], Arg_116.1: bf16[64,4,4,256], Arg_117.1: bf16[64,4,4,256], Arg_118.1: s32[1], Arg_119.1: s32[4,1984], Arg_120.1: s32[4,64], Arg_121.1: bf16[1984,4,4,256], Arg_122.1: s32[4], Arg_123.1: bf16[1984,4,4,256], Arg_124.1: bf16[64,4,4,256], Arg_125.1: bf16[64,4,4,256], Arg_126.1: s32[1], Arg_127.1: s32[4,1984], Arg_128.1: s32[4,64], Arg_129.1: bf16[1984,4,4,256], Arg_130.1: s32[4], Arg_131.1: bf16[1984,4,4,256], Arg_132.1: bf16[64,4,4,256], Arg_133.1: bf16[64,4,4,256]) -> (bf16[4,1,2560], s32[1], s32[4,1984], s32[4,64], bf16[1984,4,4,256], /*index=5*/s32[4], bf16[1984,4,4,256], bf16[64,4,4,256], bf16[64,4,4,256], s32[1], /*index=10*/s32[4,1984], s32[4,64], bf16[1984,4,4,256], s32[4], bf16[1984,4,4,256], /*index=15*/bf16[64,4,4,256], bf16[64,4,4,256], s32[1], s32[4,1984], s32[4,64], /*index=20*/bf16[1984,4,4,256], s32[4], bf16[1984,4,4,256], bf16[64,4,4,256], bf16[64,4,4,256], /*index=25*/s32[1], s32[4,1984], s32[4,64], bf16[1984,4,4,256], s32[4], /*index=30*/bf16[1984,4,4,256], bf16[64,4,4,256], bf16[64,4,4,256], s32[1], s32[4,1984], /*index=35*/s32[4,64], bf16[1984,4,4,256], s32[4], bf16[1984,4,4,256], bf16[64,4,4,256], /*index=40*/bf16[64,4,4,256], s32[1], s32[4,1984], s32[4,64], bf16[1984,4,4,256], /*index=45*/s32[4], bf16[1984,4,4,256], bf16[64,4,4,256], bf16[64,4,4,256]) {
  %Arg_0.43 = s32[0]{0} parameter(0)
  %Arg_1.43 = s32[0]{0} parameter(1)
  %Arg_2.15 = s32[0]{0} parameter(2)
  %Arg_3.1 = s32[0]{0} parameter(3)
  %Arg_4.1 = s32[0]{0} parameter(4)
  %Arg_5.1 = s32[0]{0} parameter(5)
  %Arg_76.1 = f32[2560]{0} parameter(76)
  %convert_element_type.448 = bf16[2560]{0} convert(%Arg_76.1), metadata={op_name="checkpoint/layers/convert_element_type" stack_frame_id=54}
  %Arg_78.1 = f32[2560]{0} parameter(78)
  %convert_element_type.442 = bf16[2560]{0} convert(%Arg_78.1), metadata={op_name="checkpoint/layers/convert_element_type" stack_frame_id=55}
  %Arg_77.1 = f32[2560]{0} parameter(77)
  %convert_element_type.439 = bf16[2560]{0} convert(%Arg_77.1), metadata={op_name="checkpoint/layers/convert_element_type" stack_frame_id=56}
  %Arg_128.1 = s32[4,64]{1,0} parameter(128)
  %broadcast_in_dim.250 = s32[4,1,1,1,64]{4,3,2,1,0} reshape(%Arg_128.1), metadata={op_name="checkpoint/layers/broadcast_in_dim" stack_frame_id=58}
  %constant.128 = s32[] constant(1)
  %broadcast.72 = s32[4,1,1,1,64]{4,3,2,1,0} broadcast(%constant.128), dimensions={}
  %eq.24 = pred[4,1,1,1,64]{4,3,2,1,0} compare(%broadcast_in_dim.250, %broadcast.72), direction=EQ, metadata={op_name="checkpoint/layers/eq" stack_frame_id=58}
  %constant.146 = f32[] constant(0)
  %constant.144 = f32[] constant(-2.38197633e+38)
  %jit__where_.46 = f32[4,1,1,1,64]{4,3,2,1,0} call(%eq.24, %constant.146, %constant.144), to_apply=%_where_13.22, metadata={op_name="checkpoint/layers/jit(_where)" stack_frame_id=59}
  %constant.125 = f32[] constant(-1.19098816e+38)
  %broadcast.69 = f32[4,1,1,1,64]{4,3,2,1,0} broadcast(%constant.125), dimensions={}
  %ge.22 = pred[4,1,1,1,64]{4,3,2,1,0} compare(%jit__where_.46, %broadcast.69), direction=GE, metadata={op_name="checkpoint/layers/ge" stack_frame_id=61}
  %Arg_132.1 = bf16[64,4,4,256]{3,2,1,0} parameter(132)
  %transpose.281 = bf16[4,64,4,256]{3,0,2,1} transpose(%Arg_132.1), dimensions={2,0,1,3}, metadata={op_name="checkpoint/layers/transpose" stack_frame_id=65}
  %Arg_84.1 = f32[256]{0} parameter(84)
  %convert_element_type.420 = bf16[256]{0} convert(%Arg_84.1), metadata={op_name="checkpoint/layers/convert_element_type" stack_frame_id=66}
  %Arg_79.1 = f32[2560]{0} parameter(79)
  %convert_element_type.414 = bf16[2560]{0} convert(%Arg_79.1), metadata={op_name="checkpoint/layers/convert_element_type" stack_frame_id=67}
  %Arg_63.1 = f32[2560]{0} parameter(63)
  %convert_element_type.411 = bf16[2560]{0} convert(%Arg_63.1), metadata={op_name="checkpoint/layers/convert_element_type" stack_frame_id=54}
  %Arg_65.1 = f32[2560]{0} parameter(65)
  %convert_element_type.405 = bf16[2560]{0} convert(%Arg_65.1), metadata={op_name="checkpoint/layers/convert_element_type" stack_frame_id=55}
  %Arg_64.1 = f32[2560]{0} parameter(64)
  %convert_element_type.402 = bf16[2560]{0} convert(%Arg_64.1), metadata={op_name="checkpoint/layers/convert_element_type" stack_frame_id=56}
  %iota.58 = s32[64]{0} iota(), iota_dimension=0, metadata={op_name="checkpoint/layers/iota" stack_frame_id=68}
  %iota.59 = s32[1,64]{1,0} reshape(%iota.58), metadata={op_name="checkpoint/layers/iota" stack_frame_id=68}
  %constant.127 = s32[] constant(-961)
  %broadcast.71 = s32[1,64]{1,0} broadcast(%constant.127), dimensions={}
  %gt.18 = pred[1,64]{1,0} compare(%iota.59, %broadcast.71), direction=GT, metadata={op_name="checkpoint/layers/gt" stack_frame_id=69}
  %constant.126 = s32[] constant(63)
  %broadcast.70 = s32[1,64]{1,0} broadcast(%constant.126), dimensions={}
  %le.18 = pred[1,64]{1,0} compare(%iota.59, %broadcast.70), direction=LE, metadata={op_name="checkpoint/layers/le" stack_frame_id=70}
  %and.92 = pred[1,64]{1,0} and(%gt.18, %le.18), metadata={op_name="checkpoint/layers/and" stack_frame_id=71}
  %broadcast_in_dim.231 = pred[1,1,1,1,64]{4,3,2,1,0} reshape(%and.92), metadata={op_name="checkpoint/layers/broadcast_in_dim" stack_frame_id=72}
  %and.93 = pred[1,1,1,1,64]{4,3,2,1,0} broadcast(%broadcast_in_dim.231), dimensions={0,1,2,3,4}, metadata={op_name="checkpoint/layers/and" stack_frame_id=72}
  %and.94 = pred[1,1,1,64]{3,2,1,0} reshape(%and.93), metadata={op_name="checkpoint/layers/and" stack_frame_id=72}
  %and.95 = pred[4,1,1,1,64]{4,3,2,1,0} broadcast(%and.94), dimensions={1,2,3,4}, metadata={op_name="checkpoint/layers/and" stack_frame_id=72}
  %Arg_120.1 = s32[4,64]{1,0} parameter(120)
  %broadcast_in_dim.230 = s32[4,1,1,1,64]{4,3,2,1,0} reshape(%Arg_120.1), metadata={op_name="checkpoint/layers/broadcast_in_dim" stack_frame_id=58}
  %eq.22 = pred[4,1,1,1,64]{4,3,2,1,0} compare(%broadcast_in_dim.230, %broadcast.72), direction=EQ, metadata={op_name="checkpoint/layers/eq" stack_frame_id=58}
  %and.96 = pred[4,1,1,1,64]{4,3,2,1,0} and(%and.95, %eq.22), metadata={op_name="checkpoint/layers/and" stack_frame_id=72}
  %jit__where_.42 = f32[4,1,1,1,64]{4,3,2,1,0} call(%and.96, %constant.146, %constant.144), to_apply=%_where_13.22, metadata={op_name="checkpoint/layers/jit(_where)" stack_frame_id=59}
  %ge.20 = pred[4,1,1,1,64]{4,3,2,1,0} compare(%jit__where_.42, %broadcast.69), direction=GE, metadata={op_name="checkpoint/layers/ge" stack_frame_id=61}
  %Arg_124.1 = bf16[64,4,4,256]{3,2,1,0} parameter(124)
  %transpose.263 = bf16[4,64,4,256]{3,0,2,1} transpose(%Arg_124.1), dimensions={2,0,1,3}, metadata={op_name="checkpoint/layers/transpose" stack_frame_id=65}
  %Arg_71.1 = f32[256]{0} parameter(71)
  %convert_element_type.383 = bf16[256]{0} convert(%Arg_71.1), metadata={op_name="checkpoint/layers/convert_element_type" stack_frame_id=66}
  %Arg_66.1 = f32[2560]{0} parameter(66)
  %convert_element_type.377 = bf16[2560]{0} convert(%Arg_66.1), metadata={op_name="checkpoint/layers/convert_element_type" stack_frame_id=67}
  %Arg_50.1 = f32[2560]{0} parameter(50)
  %convert_element_type.374 = bf16[2560]{0} convert(%Arg_50.1), metadata={op_name="checkpoint/layers/convert_element_type" stack_frame_id=54}
  %Arg_52.1 = f32[2560]{0} parameter(52)
  %convert_element_type.368 = bf16[2560]{0} convert(%Arg_52.1), metadata={op_name="checkpoint/layers/convert_element_type" stack_frame_id=55}
  %Arg_51.1 = f32[2560]{0} parameter(51)
  %convert_element_type.365 = bf16[2560]{0} convert(%Arg_51.1), metadata={op_name="checkpoint/layers/convert_element_type" stack_frame_id=56}
  %iota.52 = s32[64]{0} iota(), iota_dimension=0, metadata={op_name="checkpoint/layers/iota" stack_frame_id=68}
  %iota.53 = s32[1,64]{1,0} reshape(%iota.52), metadata={op_name="checkpoint/layers/iota" stack_frame_id=68}
  %gt.16 = pred[1,64]{1,0} compare(%iota.53, %broadcast.71), direction=GT, metadata={op_name="checkpoint/layers/gt" stack_frame_id=69}
  %le.16 = pred[1,64]{1,0} compare(%iota.53, %broadcast.70), direction=LE, metadata={op_name="checkpoint/layers/le" stack_frame_id=70}
  %and.82 = pred[1,64]{1,0} and(%gt.16, %le.16), metadata={op_name="checkpoint/layers/and" stack_frame_id=71}
  %broadcast_in_dim.211 = pred[1,1,1,1,64]{4,3,2,1,0} reshape(%and.82), metadata={op_name="checkpoint/layers/broadcast_in_dim" stack_frame_id=72}
  %and.83 = pred[1,1,1,1,64]{4,3,2,1,0} broadcast(%broadcast_in_dim.211), dimensions={0,1,2,3,4}, metadata={op_name="checkpoint/layers/and" stack_frame_id=72}
  %and.84 = pred[1,1,1,64]{3,2,1,0} reshape(%and.83), metadata={op_name="checkpoint/layers/and" stack_frame_id=72}
  %and.85 = pred[4,1,1,1,64]{4,3,2,1,0} broadcast(%and.84), dimensions={1,2,3,4}, metadata={op_name="checkpoint/layers/and" stack_frame_id=72}
  %Arg_112.1 = s32[4,64]{1,0} parameter(112)
  %broadcast_in_dim.210 = s32[4,1,1,1,64]{4,3,2,1,0} reshape(%Arg_112.1), metadata={op_name="checkpoint/layers/broadcast_in_dim" stack_frame_id=58}
  %eq.20 = pred[4,1,1,1,64]{4,3,2,1,0} compare(%broadcast_in_dim.210, %broadcast.72), direction=EQ, metadata={op_name="checkpoint/layers/eq" stack_frame_id=58}
  %and.86 = pred[4,1,1,1,64]{4,3,2,1,0} and(%and.85, %eq.20), metadata={op_name="checkpoint/layers/and" stack_frame_id=72}
  %jit__where_.38 = f32[4,1,1,1,64]{4,3,2,1,0} call(%and.86, %constant.146, %constant.144), to_apply=%_where_13.22, metadata={op_name="checkpoint/layers/jit(_where)" stack_frame_id=59}
  %ge.18 = pred[4,1,1,1,64]{4,3,2,1,0} compare(%jit__where_.38, %broadcast.69), direction=GE, metadata={op_name="checkpoint/layers/ge" stack_frame_id=61}
  %Arg_116.1 = bf16[64,4,4,256]{3,2,1,0} parameter(116)
  %transpose.245 = bf16[4,64,4,256]{3,0,2,1} transpose(%Arg_116.1), dimensions={2,0,1,3}, metadata={op_name="checkpoint/layers/transpose" stack_frame_id=65}
  %Arg_58.1 = f32[256]{0} parameter(58)
  %convert_element_type.346 = bf16[256]{0} convert(%Arg_58.1), metadata={op_name="checkpoint/layers/convert_element_type" stack_frame_id=66}
  %Arg_53.1 = f32[2560]{0} parameter(53)
  %convert_element_type.340 = bf16[2560]{0} convert(%Arg_53.1), metadata={op_name="checkpoint/layers/convert_element_type" stack_frame_id=67}
  %Arg_37.1 = f32[2560]{0} parameter(37)
  %convert_element_type.337 = bf16[2560]{0} convert(%Arg_37.1), metadata={op_name="checkpoint/layers/convert_element_type" stack_frame_id=54}
  %Arg_39.1 = f32[2560]{0} parameter(39)
  %convert_element_type.331 = bf16[2560]{0} convert(%Arg_39.1), metadata={op_name="checkpoint/layers/convert_element_type" stack_frame_id=55}
  %Arg_38.1 = f32[2560]{0} parameter(38)
  %convert_element_type.328 = bf16[2560]{0} convert(%Arg_38.1), metadata={op_name="checkpoint/layers/convert_element_type" stack_frame_id=56}
  %iota.46 = s32[64]{0} iota(), iota_dimension=0, metadata={op_name="checkpoint/layers/iota" stack_frame_id=68}
  %iota.47 = s32[1,64]{1,0} reshape(%iota.46), metadata={op_name="checkpoint/layers/iota" stack_frame_id=68}
  %gt.14 = pred[1,64]{1,0} compare(%iota.47, %broadcast.71), direction=GT, metadata={op_name="checkpoint/layers/gt" stack_frame_id=69}
  %le.14 = pred[1,64]{1,0} compare(%iota.47, %broadcast.70), direction=LE, metadata={op_name="checkpoint/layers/le" stack_frame_id=70}
  %and.72 = pred[1,64]{1,0} and(%gt.14, %le.14), metadata={op_name="checkpoint/layers/and" stack_frame_id=71}
  %broadcast_in_dim.191 = pred[1,1,1,1,64]{4,3,2,1,0} reshape(%and.72), metadata={op_name="checkpoint/layers/broadcast_in_dim" stack_frame_id=72}
  %and.73 = pred[1,1,1,1,64]{4,3,2,1,0} broadcast(%broadcast_in_dim.191), dimensions={0,1,2,3,4}, metadata={op_name="checkpoint/layers/and" stack_frame_id=72}
  %and.74 = pred[1,1,1,64]{3,2,1,0} reshape(%and.73), metadata={op_name="checkpoint/layers/and" stack_frame_id=72}
  %and.75 = pred[4,1,1,1,64]{4,3,2,1,0} broadcast(%and.74), dimensions={1,2,3,4}, metadata={op_name="checkpoint/layers/and" stack_frame_id=72}
  %Arg_104.1 = s32[4,64]{1,0} parameter(104)
  %broadcast_in_dim.190 = s32[4,1,1,1,64]{4,3,2,1,0} reshape(%Arg_104.1), metadata={op_name="checkpoint/layers/broadcast_in_dim" stack_frame_id=58}
  %eq.18 = pred[4,1,1,1,64]{4,3,2,1,0} compare(%broadcast_in_dim.190, %broadcast.72), direction=EQ, metadata={op_name="checkpoint/layers/eq" stack_frame_id=58}
  %and.76 = pred[4,1,1,1,64]{4,3,2,1,0} and(%and.75, %eq.18), metadata={op_name="checkpoint/layers/and" stack_frame_id=72}
  %jit__where_.34 = f32[4,1,1,1,64]{4,3,2,1,0} call(%and.76, %constant.146, %constant.144), to_apply=%_where_13.22, metadata={op_name="checkpoint/layers/jit(_where)" stack_frame_id=59}
  %ge.16 = pred[4,1,1,1,64]{4,3,2,1,0} compare(%jit__where_.34, %broadcast.69), direction=GE, metadata={op_name="checkpoint/layers/ge" stack_frame_id=61}
  %Arg_108.1 = bf16[64,4,4,256]{3,2,1,0} parameter(108)
  %transpose.227 = bf16[4,64,4,256]{3,0,2,1} transpose(%Arg_108.1), dimensions={2,0,1,3}, metadata={op_name="checkpoint/layers/transpose" stack_frame_id=65}
  %Arg_45.1 = f32[256]{0} parameter(45)
  %convert_element_type.309 = bf16[256]{0} convert(%Arg_45.1), metadata={op_name="checkpoint/layers/convert_element_type" stack_frame_id=66}
  %Arg_40.1 = f32[2560]{0} parameter(40)
  %convert_element_type.303 = bf16[2560]{0} convert(%Arg_40.1), metadata={op_name="checkpoint/layers/convert_element_type" stack_frame_id=67}
  %Arg_24.1 = f32[2560]{0} parameter(24)
  %convert_element_type.300 = bf16[2560]{0} convert(%Arg_24.1), metadata={op_name="checkpoint/layers/convert_element_type" stack_frame_id=54}
  %Arg_26.1 = f32[2560]{0} parameter(26)
  %convert_element_type.294 = bf16[2560]{0} convert(%Arg_26.1), metadata={op_name="checkpoint/layers/convert_element_type" stack_frame_id=55}
  %Arg_25.1 = f32[2560]{0} parameter(25)
  %convert_element_type.291 = bf16[2560]{0} convert(%Arg_25.1), metadata={op_name="checkpoint/layers/convert_element_type" stack_frame_id=56}
  %iota.40 = s32[64]{0} iota(), iota_dimension=0, metadata={op_name="checkpoint/layers/iota" stack_frame_id=68}
  %iota.41 = s32[1,64]{1,0} reshape(%iota.40), metadata={op_name="checkpoint/layers/iota" stack_frame_id=68}
  %gt.12 = pred[1,64]{1,0} compare(%iota.41, %broadcast.71), direction=GT, metadata={op_name="checkpoint/layers/gt" stack_frame_id=69}
  %le.12 = pred[1,64]{1,0} compare(%iota.41, %broadcast.70), direction=LE, metadata={op_name="checkpoint/layers/le" stack_frame_id=70}
  %and.62 = pred[1,64]{1,0} and(%gt.12, %le.12), metadata={op_name="checkpoint/layers/and" stack_frame_id=71}
  %broadcast_in_dim.171 = pred[1,1,1,1,64]{4,3,2,1,0} reshape(%and.62), metadata={op_name="checkpoint/layers/broadcast_in_dim" stack_frame_id=72}
  %and.63 = pred[1,1,1,1,64]{4,3,2,1,0} broadcast(%broadcast_in_dim.171), dimensions={0,1,2,3,4}, metadata={op_name="checkpoint/layers/and" stack_frame_id=72}
  %and.64 = pred[1,1,1,64]{3,2,1,0} reshape(%and.63), metadata={op_name="checkpoint/layers/and" stack_frame_id=72}
  %and.65 = pred[4,1,1,1,64]{4,3,2,1,0} broadcast(%and.64), dimensions={1,2,3,4}, metadata={op_name="checkpoint/layers/and" stack_frame_id=72}
  %Arg_96.1 = s32[4,64]{1,0} parameter(96)
  %broadcast_in_dim.170 = s32[4,1,1,1,64]{4,3,2,1,0} reshape(%Arg_96.1), metadata={op_name="checkpoint/layers/broadcast_in_dim" stack_frame_id=58}
  %eq.16 = pred[4,1,1,1,64]{4,3,2,1,0} compare(%broadcast_in_dim.170, %broadcast.72), direction=EQ, metadata={op_name="checkpoint/layers/eq" stack_frame_id=58}
  %and.66 = pred[4,1,1,1,64]{4,3,2,1,0} and(%and.65, %eq.16), metadata={op_name="checkpoint/layers/and" stack_frame_id=72}
  %jit__where_.30 = f32[4,1,1,1,64]{4,3,2,1,0} call(%and.66, %constant.146, %constant.144), to_apply=%_where_13.22, metadata={op_name="checkpoint/layers/jit(_where)" stack_frame_id=59}
  %ge.14 = pred[4,1,1,1,64]{4,3,2,1,0} compare(%jit__where_.30, %broadcast.69), direction=GE, metadata={op_name="checkpoint/layers/ge" stack_frame_id=61}
  %Arg_100.1 = bf16[64,4,4,256]{3,2,1,0} parameter(100)
  %transpose.209 = bf16[4,64,4,256]{3,0,2,1} transpose(%Arg_100.1), dimensions={2,0,1,3}, metadata={op_name="checkpoint/layers/transpose" stack_frame_id=65}
  %Arg_32.1 = f32[256]{0} parameter(32)
  %convert_element_type.272 = bf16[256]{0} convert(%Arg_32.1), metadata={op_name="checkpoint/layers/convert_element_type" stack_frame_id=66}
  %Arg_27.1 = f32[2560]{0} parameter(27)
  %convert_element_type.266 = bf16[2560]{0} convert(%Arg_27.1), metadata={op_name="checkpoint/layers/convert_element_type" stack_frame_id=67}
  %Arg_11.1 = f32[2560]{0} parameter(11)
  %convert_element_type.263 = bf16[2560]{0} convert(%Arg_11.1), metadata={op_name="checkpoint/layers/convert_element_type" stack_frame_id=54}
  %Arg_13.1 = f32[2560]{0} parameter(13)
  %convert_element_type.257 = bf16[2560]{0} convert(%Arg_13.1), metadata={op_name="checkpoint/layers/convert_element_type" stack_frame_id=55}
  %Arg_12.1 = f32[2560]{0} parameter(12)
  %convert_element_type.254 = bf16[2560]{0} convert(%Arg_12.1), metadata={op_name="checkpoint/layers/convert_element_type" stack_frame_id=56}
  %iota.34 = s32[64]{0} iota(), iota_dimension=0, metadata={op_name="checkpoint/layers/iota" stack_frame_id=68}
  %iota.35 = s32[1,64]{1,0} reshape(%iota.34), metadata={op_name="checkpoint/layers/iota" stack_frame_id=68}
  %gt.10 = pred[1,64]{1,0} compare(%iota.35, %broadcast.71), direction=GT, metadata={op_name="checkpoint/layers/gt" stack_frame_id=69}
  %le.10 = pred[1,64]{1,0} compare(%iota.35, %broadcast.70), direction=LE, metadata={op_name="checkpoint/layers/le" stack_frame_id=70}
  %and.52 = pred[1,64]{1,0} and(%gt.10, %le.10), metadata={op_name="checkpoint/layers/and" stack_frame_id=71}
  %broadcast_in_dim.151 = pred[1,1,1,1,64]{4,3,2,1,0} reshape(%and.52), metadata={op_name="checkpoint/layers/broadcast_in_dim" stack_frame_id=72}
  %and.53 = pred[1,1,1,1,64]{4,3,2,1,0} broadcast(%broadcast_in_dim.151), dimensions={0,1,2,3,4}, metadata={op_name="checkpoint/layers/and" stack_frame_id=72}
  %and.54 = pred[1,1,1,64]{3,2,1,0} reshape(%and.53), metadata={op_name="checkpoint/layers/and" stack_frame_id=72}
  %and.55 = pred[4,1,1,1,64]{4,3,2,1,0} broadcast(%and.54), dimensions={1,2,3,4}, metadata={op_name="checkpoint/layers/and" stack_frame_id=72}
  %Arg_88.1 = s32[4,64]{1,0} parameter(88)
  %broadcast_in_dim.150 = s32[4,1,1,1,64]{4,3,2,1,0} reshape(%Arg_88.1), metadata={op_name="checkpoint/layers/broadcast_in_dim" stack_frame_id=58}
  %eq.14 = pred[4,1,1,1,64]{4,3,2,1,0} compare(%broadcast_in_dim.150, %broadcast.72), direction=EQ, metadata={op_name="checkpoint/layers/eq" stack_frame_id=58}
  %and.56 = pred[4,1,1,1,64]{4,3,2,1,0} and(%and.55, %eq.14), metadata={op_name="checkpoint/layers/and" stack_frame_id=72}
  %jit__where_.26 = f32[4,1,1,1,64]{4,3,2,1,0} call(%and.56, %constant.146, %constant.144), to_apply=%_where_13.22, metadata={op_name="checkpoint/layers/jit(_where)" stack_frame_id=59}
  %ge.12 = pred[4,1,1,1,64]{4,3,2,1,0} compare(%jit__where_.26, %broadcast.69), direction=GE, metadata={op_name="checkpoint/layers/ge" stack_frame_id=61}
  %Arg_92.1 = bf16[64,4,4,256]{3,2,1,0} parameter(92)
  %transpose.191 = bf16[4,64,4,256]{3,0,2,1} transpose(%Arg_92.1), dimensions={2,0,1,3}, metadata={op_name="checkpoint/layers/transpose" stack_frame_id=65}
  %Arg_19.1 = f32[256]{0} parameter(19)
  %convert_element_type.235 = bf16[256]{0} convert(%Arg_19.1), metadata={op_name="checkpoint/layers/convert_element_type" stack_frame_id=66}
  %Arg_14.1 = f32[2560]{0} parameter(14)
  %convert_element_type.229 = bf16[2560]{0} convert(%Arg_14.1), metadata={op_name="checkpoint/layers/convert_element_type" stack_frame_id=67}
  %Arg_7.1 = bf16[4,1,2560]{2,1,0} parameter(7)
  %convert_element_type.227 = f32[4,1,2560]{2,1,0} convert(%Arg_7.1), metadata={op_name="checkpoint/layers/convert_element_type" stack_frame_id=73}
  %square.36 = f32[4,1,2560]{2,1,0} multiply(%convert_element_type.227, %convert_element_type.227), metadata={op_name="checkpoint/layers/square" stack_frame_id=74}
  %reduce_sum.336 = f32[4,1]{1,0} reduce(%square.36, %constant.146), dimensions={2}, to_apply=%region_1.14, metadata={op_name="checkpoint/layers/reduce_sum" stack_frame_id=19}
  %broadcast_in_dim.143 = f32[4,1,1]{2,1,0} reshape(%reduce_sum.336), metadata={op_name="checkpoint/layers/broadcast_in_dim" stack_frame_id=19}
  %constant.142 = f32[] constant(2560)
  %broadcast.84 = f32[4,1,1]{2,1,0} broadcast(%constant.142), dimensions={}
  %div.145 = f32[4,1,1]{2,1,0} divide(%broadcast_in_dim.143, %broadcast.84), metadata={op_name="checkpoint/layers/div" stack_frame_id=19}
  %constant.141 = f32[] constant(1e-06)
  %broadcast.83 = f32[4,1,1]{2,1,0} broadcast(%constant.141), dimensions={}
  %add.111 = f32[4,1,1]{2,1,0} add(%div.145, %broadcast.83), metadata={op_name="checkpoint/layers/add" stack_frame_id=75}
  %rsqrt.36 = f32[4,1,1]{2,1,0} rsqrt(%add.111), metadata={op_name="checkpoint/layers/rsqrt" stack_frame_id=76}
  %mul.350 = f32[4,1,1]{2,1,0} broadcast(%rsqrt.36), dimensions={0,1,2}, metadata={op_name="checkpoint/layers/mul" stack_frame_id=77}
  %mul.351 = f32[4,1]{1,0} reshape(%mul.350), metadata={op_name="checkpoint/layers/mul" stack_frame_id=77}
  %mul.352 = f32[4,1,2560]{2,1,0} broadcast(%mul.351), dimensions={0,1}, metadata={op_name="checkpoint/layers/mul" stack_frame_id=77}
  %mul.353 = f32[4,1,2560]{2,1,0} multiply(%convert_element_type.227, %mul.352), metadata={op_name="checkpoint/layers/mul" stack_frame_id=77}
  %convert_element_type.228 = bf16[4,1,2560]{2,1,0} convert(%mul.353), metadata={op_name="checkpoint/layers/convert_element_type" stack_frame_id=78}
  %dot_general.102 = bf16[2560,4,1]{2,1,0} dot(%convert_element_type.229, %convert_element_type.228), lhs_batch_dims={0}, lhs_contracting_dims={}, rhs_batch_dims={2}, rhs_contracting_dims={}, metadata={op_name="checkpoint/layers/...k,k->...k/dot_general" stack_frame_id=79}
  %transpose.186 = bf16[4,1,2560]{1,0,2} transpose(%dot_general.102), dimensions={1,2,0}, metadata={op_name="checkpoint/layers/...k,k->...k/transpose" stack_frame_id=79}
  %sharding_constraint.42 = bf16[4,1,2560]{2,1,0} custom-call(%transpose.186), custom_call_target="Sharding", sharding={devices=[1,1,4]<=[4]}, frontend_attributes={xla.sdy.sharding="#sdy.sharding_per_value<[<@mesh, [{}, {}, {\"tensor\"}]>]>"}, metadata={op_name="checkpoint/layers/sharding_constraint" stack_frame_id=82}
  %Arg_18.1 = f32[2560,8,256]{2,1,0} parameter(18)
  %convert_element_type.230 = bf16[2560,8,256]{2,1,0} convert(%Arg_18.1), metadata={op_name="checkpoint/layers/convert_element_type" stack_frame_id=86}
  %dot_general.103 = bf16[4,1,8,256]{3,2,1,0} dot(%sharding_constraint.42, %convert_element_type.230), lhs_contracting_dims={2}, rhs_contracting_dims={0}, metadata={op_name="checkpoint/layers/dot_general" stack_frame_id=88}
  %convert_element_type.233 = f32[4,1,8,256]{3,2,1,0} convert(%dot_general.103), metadata={op_name="checkpoint/layers/convert_element_type" stack_frame_id=89}
  %square.37 = f32[4,1,8,256]{3,2,1,0} multiply(%convert_element_type.233, %convert_element_type.233), metadata={op_name="checkpoint/layers/square" stack_frame_id=90}
  %reduce_sum.337 = f32[4,1,8]{2,1,0} reduce(%square.37, %constant.146), dimensions={3}, to_apply=%region_2.15, metadata={op_name="checkpoint/layers/reduce_sum" stack_frame_id=24}
  %broadcast_in_dim.144 = f32[4,1,8,1]{3,2,1,0} reshape(%reduce_sum.337), metadata={op_name="checkpoint/layers/broadcast_in_dim" stack_frame_id=24}
  %constant.140 = f32[] constant(256)
  %broadcast.82 = f32[4,1,8,1]{3,2,1,0} broadcast(%constant.140), dimensions={}
  %div.146 = f32[4,1,8,1]{3,2,1,0} divide(%broadcast_in_dim.144, %broadcast.82), metadata={op_name="checkpoint/layers/div" stack_frame_id=24}
  %constant.139 = f32[] constant(1e-06)
  %broadcast.81 = f32[4,1,8,1]{3,2,1,0} broadcast(%constant.139), dimensions={}
  %add.112 = f32[4,1,8,1]{3,2,1,0} add(%div.146, %broadcast.81), metadata={op_name="checkpoint/layers/add" stack_frame_id=91}
  %rsqrt.37 = f32[4,1,8,1]{3,2,1,0} rsqrt(%add.112), metadata={op_name="checkpoint/layers/rsqrt" stack_frame_id=92}
  %mul.354 = f32[4,1,8,1]{3,2,1,0} broadcast(%rsqrt.37), dimensions={0,1,2,3}, metadata={op_name="checkpoint/layers/mul" stack_frame_id=93}
  %mul.355 = f32[4,1,8]{2,1,0} reshape(%mul.354), metadata={op_name="checkpoint/layers/mul" stack_frame_id=93}
  %mul.356 = f32[4,1,8,256]{3,2,1,0} broadcast(%mul.355), dimensions={0,1,2}, metadata={op_name="checkpoint/layers/mul" stack_frame_id=93}
  %mul.357 = f32[4,1,8,256]{3,2,1,0} multiply(%convert_element_type.233, %mul.356), metadata={op_name="checkpoint/layers/mul" stack_frame_id=93}
  %convert_element_type.234 = bf16[4,1,8,256]{3,2,1,0} convert(%mul.357), metadata={op_name="checkpoint/layers/convert_element_type" stack_frame_id=94}
  %dot_general.106 = bf16[256,4,1,8]{3,2,1,0} dot(%convert_element_type.235, %convert_element_type.234), lhs_batch_dims={0}, lhs_contracting_dims={}, rhs_batch_dims={3}, rhs_contracting_dims={}, metadata={op_name="checkpoint/layers/...k,k->...k/dot_general" stack_frame_id=95}
  %transpose.187 = bf16[4,1,8,256]{2,1,0,3} transpose(%dot_general.106), dimensions={1,2,3,0}, metadata={op_name="checkpoint/layers/...k,k->...k/transpose" stack_frame_id=95}
  %Arg_6.1 = s32[4,1]{1,0} parameter(6)
  %broadcast_in_dim.146 = s32[4,1,1,1]{3,2,1,0} reshape(%Arg_6.1), metadata={op_name="checkpoint/layers/broadcast_in_dim" stack_frame_id=99}
  %convert_element_type.240 = f32[4,1,1,1]{3,2,1,0} convert(%broadcast_in_dim.146), metadata={op_name="checkpoint/layers/convert_element_type" stack_frame_id=100}
  %div.149 = f32[4,1,1,1]{3,2,1,0} broadcast(%convert_element_type.240), dimensions={0,1,2,3}, metadata={op_name="checkpoint/layers/div" stack_frame_id=100}
  %div.150 = f32[4,1,1]{2,1,0} reshape(%div.149), metadata={op_name="checkpoint/layers/div" stack_frame_id=100}
  %div.151 = f32[4,1,1,128]{3,2,1,0} broadcast(%div.150), dimensions={0,1,2}, metadata={op_name="checkpoint/layers/div" stack_frame_id=100}
  %constant.134 = f32[] constant(10000)
  %broadcast.76 = f32[128]{0} broadcast(%constant.134), dimensions={}
  %iota.32 = s32[128]{0} iota(), iota_dimension=0, metadata={op_name="checkpoint/layers/iota" stack_frame_id=102}
  %constant.136 = s32[] constant(2)
  %broadcast.78 = s32[128]{0} broadcast(%constant.136), dimensions={}
  %mul.362 = s32[128]{0} multiply(%iota.32, %broadcast.78), metadata={op_name="checkpoint/layers/mul" stack_frame_id=103}
  %convert_element_type.239 = f32[128]{0} convert(%mul.362), metadata={op_name="checkpoint/layers/convert_element_type" stack_frame_id=103}
  %constant.135 = f32[] constant(256)
  %broadcast.77 = f32[128]{0} broadcast(%constant.135), dimensions={}
  %div.148 = f32[128]{0} divide(%convert_element_type.239, %broadcast.77), metadata={op_name="checkpoint/layers/div" stack_frame_id=103}
  %pow.12 = f32[128]{0} power(%broadcast.76, %div.148), metadata={op_name="checkpoint/layers/pow" stack_frame_id=104}
  %broadcast_in_dim.147 = f32[1,1,1,128]{3,2,1,0} reshape(%pow.12), metadata={op_name="checkpoint/layers/broadcast_in_dim" stack_frame_id=100}
  %div.152 = f32[1,1,1,128]{3,2,1,0} broadcast(%broadcast_in_dim.147), dimensions={0,1,2,3}, metadata={op_name="checkpoint/layers/div" stack_frame_id=100}
  %div.153 = f32[1,1,128]{2,1,0} reshape(%div.152), metadata={op_name="checkpoint/layers/div" stack_frame_id=100}
  %div.154 = f32[4,1,1,128]{3,2,1,0} broadcast(%div.153), dimensions={1,2,3}, metadata={op_name="checkpoint/layers/div" stack_frame_id=100}
  %div.155 = f32[4,1,1,128]{3,2,1,0} divide(%div.151, %div.154), metadata={op_name="checkpoint/layers/div" stack_frame_id=100}
  %cos.12 = f32[4,1,1,128]{3,2,1,0} cosine(%div.155), metadata={op_name="checkpoint/layers/cos" stack_frame_id=105}
  %convert_element_type.242 = bf16[4,1,1,128]{3,2,1,0} convert(%cos.12), metadata={op_name="checkpoint/layers/convert_element_type" stack_frame_id=105}
  %concatenate.37 = bf16[4,1,1,256]{3,2,1,0} concatenate(%convert_element_type.242, %convert_element_type.242), dimensions={3}, metadata={op_name="checkpoint/layers/concatenate" stack_frame_id=106}
  %mul.363 = bf16[4,1,1,256]{3,2,1,0} broadcast(%concatenate.37), dimensions={0,1,2,3}, metadata={op_name="checkpoint/layers/mul" stack_frame_id=108}
  %mul.364 = bf16[4,1,256]{2,1,0} reshape(%mul.363), metadata={op_name="checkpoint/layers/mul" stack_frame_id=108}
  %mul.365 = bf16[4,1,8,256]{3,2,1,0} broadcast(%mul.364), dimensions={0,1,3}, metadata={op_name="checkpoint/layers/mul" stack_frame_id=108}
  %mul.366 = bf16[4,1,8,256]{2,1,0,3} multiply(%transpose.187, %mul.365), metadata={op_name="checkpoint/layers/mul" stack_frame_id=108}
  %split.25 = bf16[4,1,8,128]{3,2,1,0} slice(%transpose.187), slice={[0:4], [0:1], [0:8], [128:256]}, metadata={op_name="checkpoint/layers/split" stack_frame_id=110}
  %neg.12 = bf16[4,1,8,128]{3,2,1,0} negate(%split.25), metadata={op_name="checkpoint/layers/neg" stack_frame_id=111}
  %split.24 = bf16[4,1,8,128]{3,2,1,0} slice(%transpose.187), slice={[0:4], [0:1], [0:8], [0:128]}, metadata={op_name="checkpoint/layers/split" stack_frame_id=110}
  %concatenate.38 = bf16[4,1,8,256]{3,2,1,0} concatenate(%neg.12, %split.24), dimensions={3}, metadata={op_name="checkpoint/layers/concatenate" stack_frame_id=112}
  %sin.12 = f32[4,1,1,128]{3,2,1,0} sine(%div.155), metadata={op_name="checkpoint/layers/sin" stack_frame_id=113}
  %convert_element_type.241 = bf16[4,1,1,128]{3,2,1,0} convert(%sin.12), metadata={op_name="checkpoint/layers/convert_element_type" stack_frame_id=113}
  %concatenate.36 = bf16[4,1,1,256]{3,2,1,0} concatenate(%convert_element_type.241, %convert_element_type.241), dimensions={3}, metadata={op_name="checkpoint/layers/concatenate" stack_frame_id=114}
  %mul.367 = bf16[4,1,1,256]{3,2,1,0} broadcast(%concatenate.36), dimensions={0,1,2,3}, metadata={op_name="checkpoint/layers/mul" stack_frame_id=109}
  %mul.368 = bf16[4,1,256]{2,1,0} reshape(%mul.367), metadata={op_name="checkpoint/layers/mul" stack_frame_id=109}
  %mul.369 = bf16[4,1,8,256]{3,2,1,0} broadcast(%mul.368), dimensions={0,1,3}, metadata={op_name="checkpoint/layers/mul" stack_frame_id=109}
  %mul.370 = bf16[4,1,8,256]{3,2,1,0} multiply(%concatenate.38, %mul.369), metadata={op_name="checkpoint/layers/mul" stack_frame_id=109}
  %add.114 = bf16[4,1,8,256]{2,1,0,3} add(%mul.366, %mul.370), metadata={op_name="checkpoint/layers/add" stack_frame_id=115}
  %constant.133 = bf16[] constant(0.0625)
  %broadcast.75 = bf16[4,1,8,256]{3,2,1,0} broadcast(%constant.133), dimensions={}
  %mul.380 = bf16[4,1,8,256]{2,1,0,3} multiply(%add.114, %broadcast.75), metadata={op_name="checkpoint/layers/mul" stack_frame_id=116}
  %sharding_constraint.44 = bf16[4,1,8,256]{3,2,1,0} custom-call(%mul.380), custom_call_target="Sharding", sharding={devices=[1,1,4,1]<=[4]}, frontend_attributes={xla.sdy.sharding="#sdy.sharding_per_value<[<@mesh, [{}, {}, {\"tensor\"}, {}]>]>"}, metadata={op_name="checkpoint/layers/sharding_constraint" stack_frame_id=119}
  %reshape.48 = bf16[4,1,4,2,256]{4,3,2,1,0} reshape(%sharding_constraint.44), metadata={op_name="checkpoint/layers/reshape" stack_frame_id=121}
  %dot_general.108 = bf16[4,4,64,1,2]{4,3,2,1,0} dot(%transpose.191, %reshape.48), lhs_batch_dims={0,2}, lhs_contracting_dims={3}, rhs_batch_dims={0,2}, rhs_contracting_dims={4}, metadata={op_name="checkpoint/layers/btkgd,bskd->bkgts/dot_general" stack_frame_id=122}
  %transpose.195 = bf16[4,4,2,1,64]{2,3,4,1,0} transpose(%dot_general.108), dimensions={0,1,4,3,2}, metadata={op_name="checkpoint/layers/btkgd,bskd->bkgts/transpose" stack_frame_id=122}
  %jit__where_.27 = bf16[4,4,2,1,64]{4,3,2,1,0} call(%ge.12, %transpose.195, %constant.144), to_apply=%_where_14.23, metadata={op_name="checkpoint/layers/jit(_where)" stack_frame_id=123}
  %reshape.49 = bf16[4,8,1,64]{3,2,1,0} reshape(%jit__where_.27), metadata={op_name="checkpoint/layers/reshape" stack_frame_id=124}
  %constant.143 = bf16[] constant(-inf)
  %reduce_max.84 = bf16[4,8,1]{2,1,0} reduce(%reshape.49, %constant.143), dimensions={3}, to_apply=%region_5.24, metadata={op_name="checkpoint/layers/reduce_max" stack_frame_id=38}
  %broadcast_in_dim.154 = bf16[4,1,8,1]{3,2,1,0} reshape(%reduce_max.84), metadata={op_name="checkpoint/layers/transpose;checkpoint/layers/broadcast_in_dim"}
  %iota.36 = s32[1984]{0} iota(), iota_dimension=0, metadata={op_name="checkpoint/layers/iota" stack_frame_id=126}
  %iota.37 = s32[1,1984]{1,0} reshape(%iota.36), metadata={op_name="checkpoint/layers/iota" stack_frame_id=126}
  %constant.123 = s32[] constant(959)
  %broadcast.67 = s32[1,1984]{1,0} broadcast(%constant.123), dimensions={}
  %gt.11 = pred[1,1984]{1,0} compare(%iota.37, %broadcast.67), direction=GT, metadata={op_name="checkpoint/layers/gt" stack_frame_id=127}
  %constant.122 = s32[] constant(1983)
  %broadcast.66 = s32[1,1984]{1,0} broadcast(%constant.122), dimensions={}
  %le.11 = pred[1,1984]{1,0} compare(%iota.37, %broadcast.66), direction=LE, metadata={op_name="checkpoint/layers/le" stack_frame_id=128}
  %and.57 = pred[1,1984]{1,0} and(%gt.11, %le.11), metadata={op_name="checkpoint/layers/and" stack_frame_id=129}
  %broadcast_in_dim.156 = pred[1,1,1,1,1984]{4,3,2,1,0} reshape(%and.57), metadata={op_name="checkpoint/layers/broadcast_in_dim" stack_frame_id=130}
  %and.58 = pred[1,1,1,1,1984]{4,3,2,1,0} broadcast(%broadcast_in_dim.156), dimensions={0,1,2,3,4}, metadata={op_name="checkpoint/layers/and" stack_frame_id=130}
  %and.59 = pred[1,1,1,1984]{3,2,1,0} reshape(%and.58), metadata={op_name="checkpoint/layers/and" stack_frame_id=130}
  %and.60 = pred[4,1,1,1,1984]{4,3,2,1,0} broadcast(%and.59), dimensions={1,2,3,4}, metadata={op_name="checkpoint/layers/and" stack_frame_id=130}
  %Arg_87.1 = s32[4,1984]{1,0} parameter(87)
  %constant.132 = s32[] constant(1)
  %broadcast.74 = s32[4,1]{1,0} broadcast(%constant.132), dimensions={}
  %Arg_86.1 = s32[1]{0} parameter(86)
  %squeeze.39 = s32[] reshape(%Arg_86.1), metadata={op_name="checkpoint/layers/squeeze" stack_frame_id=131}
  %jit_dynamic_update_index_in_dim_.20 = s32[4,1984]{1,0} call(%Arg_87.1, %broadcast.74, %squeeze.39), to_apply=%dynamic_update_index_in_dim_12.18, metadata={op_name="checkpoint/layers/jit(dynamic_update_index_in_dim)" stack_frame_id=132}
  %broadcast_in_dim.155 = s32[4,1,1,1,1984]{4,3,2,1,0} reshape(%jit_dynamic_update_index_in_dim_.20), metadata={op_name="checkpoint/layers/broadcast_in_dim" stack_frame_id=133}
  %constant.124 = s32[] constant(1)
  %broadcast.68 = s32[4,1,1,1,1984]{4,3,2,1,0} broadcast(%constant.124), dimensions={}
  %eq.15 = pred[4,1,1,1,1984]{4,3,2,1,0} compare(%broadcast_in_dim.155, %broadcast.68), direction=EQ, metadata={op_name="checkpoint/layers/eq" stack_frame_id=133}
  %and.61 = pred[4,1,1,1,1984]{4,3,2,1,0} and(%and.60, %eq.15), metadata={op_name="checkpoint/layers/and" stack_frame_id=130}
  %jit__where_.28 = f32[4,1,1,1,1984]{4,3,2,1,0} call(%and.61, %constant.146, %constant.144), to_apply=%_where_15.26, metadata={op_name="checkpoint/layers/jit(_where)" stack_frame_id=134}
  %constant.121 = f32[] constant(-1.19098816e+38)
  %broadcast.65 = f32[4,1,1,1,1984]{4,3,2,1,0} broadcast(%constant.121), dimensions={}
  %ge.13 = pred[4,1,1,1,1984]{4,3,2,1,0} compare(%jit__where_.28, %broadcast.65), direction=GE, metadata={op_name="checkpoint/layers/ge" stack_frame_id=136}
  %Arg_89.1 = bf16[1984,4,4,256]{3,2,1,0} parameter(89)
  %Arg_16.1 = f32[256]{0} parameter(16)
  %convert_element_type.238 = bf16[256]{0} convert(%Arg_16.1), metadata={op_name="checkpoint/layers/convert_element_type" stack_frame_id=137}
  %sharding_constraint.43 = bf16[4,1,2560]{2,1,0} custom-call(%transpose.186), custom_call_target="Sharding", sharding={devices=[1,1,4]<=[4]}, frontend_attributes={xla.sdy.sharding="#sdy.sharding_per_value<[<@mesh, [{}, {}, {\"tensor\"}]>]>"}, metadata={op_name="checkpoint/layers/sharding_constraint" stack_frame_id=140}
  %Arg_15.1 = f32[2560,4,256]{2,1,0} parameter(15)
  %convert_element_type.231 = bf16[2560,4,256]{2,1,0} convert(%Arg_15.1), metadata={op_name="checkpoint/layers/convert_element_type" stack_frame_id=144}
  %dot_general.104 = bf16[4,1,4,256]{3,2,1,0} dot(%sharding_constraint.43, %convert_element_type.231), lhs_contracting_dims={2}, rhs_contracting_dims={0}, metadata={op_name="checkpoint/layers/dot_general" stack_frame_id=146}
  %convert_element_type.236 = f32[4,1,4,256]{3,2,1,0} convert(%dot_general.104), metadata={op_name="checkpoint/layers/convert_element_type" stack_frame_id=147}
  %square.38 = f32[4,1,4,256]{3,2,1,0} multiply(%convert_element_type.236, %convert_element_type.236), metadata={op_name="checkpoint/layers/square" stack_frame_id=148}
  %reduce_sum.338 = f32[4,1,4]{2,1,0} reduce(%square.38, %constant.146), dimensions={3}, to_apply=%region_3.16, metadata={op_name="checkpoint/layers/reduce_sum" stack_frame_id=27}
  %broadcast_in_dim.145 = f32[4,1,4,1]{3,2,1,0} reshape(%reduce_sum.338), metadata={op_name="checkpoint/layers/broadcast_in_dim" stack_frame_id=27}
  %constant.138 = f32[] constant(256)
  %broadcast.80 = f32[4,1,4,1]{3,2,1,0} broadcast(%constant.138), dimensions={}
  %div.147 = f32[4,1,4,1]{3,2,1,0} divide(%broadcast_in_dim.145, %broadcast.80), metadata={op_name="checkpoint/layers/div" stack_frame_id=27}
  %constant.137 = f32[] constant(1e-06)
  %broadcast.79 = f32[4,1,4,1]{3,2,1,0} broadcast(%constant.137), dimensions={}
  %add.113 = f32[4,1,4,1]{3,2,1,0} add(%div.147, %broadcast.79), metadata={op_name="checkpoint/layers/add" stack_frame_id=149}
  %rsqrt.38 = f32[4,1,4,1]{3,2,1,0} rsqrt(%add.113), metadata={op_name="checkpoint/layers/rsqrt" stack_frame_id=150}
  %mul.358 = f32[4,1,4,1]{3,2,1,0} broadcast(%rsqrt.38), dimensions={0,1,2,3}, metadata={op_name="checkpoint/layers/mul" stack_frame_id=151}
  %mul.359 = f32[4,1,4]{2,1,0} reshape(%mul.358), metadata={op_name="checkpoint/layers/mul" stack_frame_id=151}
  %mul.360 = f32[4,1,4,256]{3,2,1,0} broadcast(%mul.359), dimensions={0,1,2}, metadata={op_name="checkpoint/layers/mul" stack_frame_id=151}
  %mul.361 = f32[4,1,4,256]{3,2,1,0} multiply(%convert_element_type.236, %mul.360), metadata={op_name="checkpoint/layers/mul" stack_frame_id=151}
  %convert_element_type.237 = bf16[4,1,4,256]{3,2,1,0} convert(%mul.361), metadata={op_name="checkpoint/layers/convert_element_type" stack_frame_id=152}
  %dot_general.107 = bf16[256,4,1,4]{3,2,1,0} dot(%convert_element_type.238, %convert_element_type.237), lhs_batch_dims={0}, lhs_contracting_dims={}, rhs_batch_dims={3}, rhs_contracting_dims={}, metadata={op_name="checkpoint/layers/...k,k->...k/dot_general" stack_frame_id=153}
  %transpose.188 = bf16[4,1,4,256]{2,1,0,3} transpose(%dot_general.107), dimensions={1,2,3,0}, metadata={op_name="checkpoint/layers/...k,k->...k/transpose" stack_frame_id=153}
  %broadcast_in_dim.148 = s32[4,1,1,1]{3,2,1,0} reshape(%Arg_6.1), metadata={op_name="checkpoint/layers/broadcast_in_dim" stack_frame_id=157}
  %convert_element_type.244 = f32[4,1,1,1]{3,2,1,0} convert(%broadcast_in_dim.148), metadata={op_name="checkpoint/layers/convert_element_type" stack_frame_id=158}
  %div.157 = f32[4,1,1,1]{3,2,1,0} broadcast(%convert_element_type.244), dimensions={0,1,2,3}, metadata={op_name="checkpoint/layers/div" stack_frame_id=158}
  %div.158 = f32[4,1,1]{2,1,0} reshape(%div.157), metadata={op_name="checkpoint/layers/div" stack_frame_id=158}
  %div.159 = f32[4,1,1,128]{3,2,1,0} broadcast(%div.158), dimensions={0,1,2}, metadata={op_name="checkpoint/layers/div" stack_frame_id=158}
  %iota.33 = s32[128]{0} iota(), iota_dimension=0, metadata={op_name="checkpoint/layers/iota" stack_frame_id=160}
  %mul.371 = s32[128]{0} multiply(%iota.33, %broadcast.78), metadata={op_name="checkpoint/layers/mul" stack_frame_id=161}
  %convert_element_type.243 = f32[128]{0} convert(%mul.371), metadata={op_name="checkpoint/layers/convert_element_type" stack_frame_id=161}
  %div.156 = f32[128]{0} divide(%convert_element_type.243, %broadcast.77), metadata={op_name="checkpoint/layers/div" stack_frame_id=161}
  %pow.13 = f32[128]{0} power(%broadcast.76, %div.156), metadata={op_name="checkpoint/layers/pow" stack_frame_id=162}
  %broadcast_in_dim.149 = f32[1,1,1,128]{3,2,1,0} reshape(%pow.13), metadata={op_name="checkpoint/layers/broadcast_in_dim" stack_frame_id=158}
  %div.160 = f32[1,1,1,128]{3,2,1,0} broadcast(%broadcast_in_dim.149), dimensions={0,1,2,3}, metadata={op_name="checkpoint/layers/div" stack_frame_id=158}
  %div.161 = f32[1,1,128]{2,1,0} reshape(%div.160), metadata={op_name="checkpoint/layers/div" stack_frame_id=158}
  %div.162 = f32[4,1,1,128]{3,2,1,0} broadcast(%div.161), dimensions={1,2,3}, metadata={op_name="checkpoint/layers/div" stack_frame_id=158}
  %div.163 = f32[4,1,1,128]{3,2,1,0} divide(%div.159, %div.162), metadata={op_name="checkpoint/layers/div" stack_frame_id=158}
  %cos.13 = f32[4,1,1,128]{3,2,1,0} cosine(%div.163), metadata={op_name="checkpoint/layers/cos" stack_frame_id=163}
  %convert_element_type.246 = bf16[4,1,1,128]{3,2,1,0} convert(%cos.13), metadata={op_name="checkpoint/layers/convert_element_type" stack_frame_id=163}
  %concatenate.40 = bf16[4,1,1,256]{3,2,1,0} concatenate(%convert_element_type.246, %convert_element_type.246), dimensions={3}, metadata={op_name="checkpoint/layers/concatenate" stack_frame_id=164}
  %mul.372 = bf16[4,1,1,256]{3,2,1,0} broadcast(%concatenate.40), dimensions={0,1,2,3}, metadata={op_name="checkpoint/layers/mul" stack_frame_id=166}
  %mul.373 = bf16[4,1,256]{2,1,0} reshape(%mul.372), metadata={op_name="checkpoint/layers/mul" stack_frame_id=166}
  %mul.374 = bf16[4,1,4,256]{3,2,1,0} broadcast(%mul.373), dimensions={0,1,3}, metadata={op_name="checkpoint/layers/mul" stack_frame_id=166}
  %mul.375 = bf16[4,1,4,256]{2,1,0,3} multiply(%transpose.188, %mul.374), metadata={op_name="checkpoint/layers/mul" stack_frame_id=166}
  %split.27 = bf16[4,1,4,128]{3,2,1,0} slice(%transpose.188), slice={[0:4], [0:1], [0:4], [128:256]}, metadata={op_name="checkpoint/layers/split" stack_frame_id=168}
  %neg.13 = bf16[4,1,4,128]{3,2,1,0} negate(%split.27), metadata={op_name="checkpoint/layers/neg" stack_frame_id=169}
  %split.26 = bf16[4,1,4,128]{3,2,1,0} slice(%transpose.188), slice={[0:4], [0:1], [0:4], [0:128]}, metadata={op_name="checkpoint/layers/split" stack_frame_id=168}
  %concatenate.41 = bf16[4,1,4,256]{3,2,1,0} concatenate(%neg.13, %split.26), dimensions={3}, metadata={op_name="checkpoint/layers/concatenate" stack_frame_id=170}
  %sin.13 = f32[4,1,1,128]{3,2,1,0} sine(%div.163), metadata={op_name="checkpoint/layers/sin" stack_frame_id=171}
  %convert_element_type.245 = bf16[4,1,1,128]{3,2,1,0} convert(%sin.13), metadata={op_name="checkpoint/layers/convert_element_type" stack_frame_id=171}
  %concatenate.39 = bf16[4,1,1,256]{3,2,1,0} concatenate(%convert_element_type.245, %convert_element_type.245), dimensions={3}, metadata={op_name="checkpoint/layers/concatenate" stack_frame_id=172}
  %mul.376 = bf16[4,1,1,256]{3,2,1,0} broadcast(%concatenate.39), dimensions={0,1,2,3}, metadata={op_name="checkpoint/layers/mul" stack_frame_id=167}
  %mul.377 = bf16[4,1,256]{2,1,0} reshape(%mul.376), metadata={op_name="checkpoint/layers/mul" stack_frame_id=167}
  %mul.378 = bf16[4,1,4,256]{3,2,1,0} broadcast(%mul.377), dimensions={0,1,3}, metadata={op_name="checkpoint/layers/mul" stack_frame_id=167}
  %mul.379 = bf16[4,1,4,256]{3,2,1,0} multiply(%concatenate.41, %mul.378), metadata={op_name="checkpoint/layers/mul" stack_frame_id=167}
  %add.115 = bf16[4,1,4,256]{2,1,0,3} add(%mul.375, %mul.379), metadata={op_name="checkpoint/layers/add" stack_frame_id=173}
  %sharding_constraint.45 = bf16[4,1,4,256]{3,2,1,0} custom-call(%add.115), custom_call_target="Sharding", sharding={devices=[1,1,4,1]<=[4]}, frontend_attributes={xla.sdy.sharding="#sdy.sharding_per_value<[<@mesh, [{}, {}, {\"tensor\"}, {}]>]>"}, metadata={op_name="checkpoint/layers/sharding_constraint" stack_frame_id=176}
  %transpose.189 = bf16[1,4,4,256]{3,1,0,2} transpose(%sharding_constraint.45), dimensions={1,2,0,3}, metadata={op_name="checkpoint/layers/transpose" stack_frame_id=178}
  %squeeze.38 = s32[] reshape(%Arg_86.1), metadata={op_name="checkpoint/layers/squeeze" stack_frame_id=179}
  %jit_dynamic_update_index_in_dim_.18 = bf16[1984,4,4,256]{3,2,1,0} call(%Arg_89.1, %transpose.189, %squeeze.38), to_apply=%dynamic_update_index_in_dim.17, metadata={op_name="checkpoint/layers/jit(dynamic_update_index_in_dim)" stack_frame_id=180}
  %transpose.193 = bf16[4,1984,4,256]{3,0,2,1} transpose(%jit_dynamic_update_index_in_dim_.18), dimensions={2,0,1,3}, metadata={op_name="checkpoint/layers/transpose" stack_frame_id=184}
  %reshape.52 = bf16[4,1,4,2,256]{4,3,2,1,0} reshape(%sharding_constraint.44), metadata={op_name="checkpoint/layers/reshape" stack_frame_id=186}
  %dot_general.110 = bf16[4,4,1984,1,2]{4,3,2,1,0} dot(%transpose.193, %reshape.52), lhs_batch_dims={0,2}, lhs_contracting_dims={3}, rhs_batch_dims={0,2}, rhs_contracting_dims={4}, metadata={op_name="checkpoint/layers/btkgd,bskd->bkgts/dot_general" stack_frame_id=187}
  %transpose.198 = bf16[4,4,2,1,1984]{2,3,4,1,0} transpose(%dot_general.110), dimensions={0,1,4,3,2}, metadata={op_name="checkpoint/layers/btkgd,bskd->bkgts/transpose" stack_frame_id=187}
  %jit__where_.29 = bf16[4,4,2,1,1984]{4,3,2,1,0} call(%ge.13, %transpose.198, %constant.144), to_apply=%_where_16.27, metadata={op_name="checkpoint/layers/jit(_where)" stack_frame_id=188}
  %reshape.53 = bf16[4,8,1,1984]{3,2,1,0} reshape(%jit__where_.29), metadata={op_name="checkpoint/layers/reshape" stack_frame_id=189}
  %reduce_max.85 = bf16[4,8,1]{2,1,0} reduce(%reshape.53, %constant.143), dimensions={3}, to_apply=%region_7.28, metadata={op_name="checkpoint/layers/reduce_max" stack_frame_id=43}
  %broadcast_in_dim.159 = bf16[4,1,8,1]{3,2,1,0} reshape(%reduce_max.85), metadata={op_name="checkpoint/layers/transpose;checkpoint/layers/broadcast_in_dim"}
  %max.6 = bf16[4,1,8,1]{3,2,1,0} maximum(%broadcast_in_dim.154, %broadcast_in_dim.159), metadata={op_name="checkpoint/layers/max" stack_frame_id=191}
  %sub.82 = bf16[4,1,8,1]{3,2,1,0} subtract(%broadcast_in_dim.154, %max.6), metadata={op_name="checkpoint/layers/sub" stack_frame_id=192}
  %exp.40 = bf16[4,1,8,1]{3,2,1,0} exponential(%sub.82), metadata={op_name="checkpoint/layers/exp" stack_frame_id=193}
  %sub.80 = bf16[4,1,8,1]{3,2,1,0} subtract(%broadcast_in_dim.154, %max.6), metadata={op_name="checkpoint/layers/sub" stack_frame_id=195}
  %exp.38 = bf16[4,1,8,1]{3,2,1,0} exponential(%sub.80), metadata={op_name="checkpoint/layers/exp" stack_frame_id=196}
  %broadcast_in_dim.152 = bf16[4,8,1,1]{3,2,1,0} reshape(%reduce_max.84), metadata={op_name="checkpoint/layers/broadcast_in_dim" stack_frame_id=38}
  %sub.72 = bf16[4,8,1,1]{3,2,1,0} broadcast(%broadcast_in_dim.152), dimensions={0,1,2,3}, metadata={op_name="checkpoint/layers/sub" stack_frame_id=197}
  %sub.73 = bf16[4,8,1]{2,1,0} reshape(%sub.72), metadata={op_name="checkpoint/layers/sub" stack_frame_id=197}
  %sub.74 = bf16[4,8,1,64]{3,2,1,0} broadcast(%sub.73), dimensions={0,1,2}, metadata={op_name="checkpoint/layers/sub" stack_frame_id=197}
  %sub.75 = bf16[4,8,1,64]{3,2,1,0} subtract(%reshape.49, %sub.74), metadata={op_name="checkpoint/layers/sub" stack_frame_id=197}
  %exp.36 = bf16[4,8,1,64]{3,2,1,0} exponential(%sub.75), metadata={op_name="checkpoint/layers/exp" stack_frame_id=198}
  %convert_element_type.247 = f32[4,8,1,64]{3,2,1,0} convert(%exp.36), metadata={op_name="checkpoint/layers/convert_element_type" stack_frame_id=39}
  %reduce_sum.339 = f32[4,8,1]{2,1,0} reduce(%convert_element_type.247, %constant.146), dimensions={3}, to_apply=%region_6.25, metadata={op_name="checkpoint/layers/reduce_sum" stack_frame_id=39}
  %broadcast_in_dim.153 = f32[4,8,1,1]{3,2,1,0} reshape(%reduce_sum.339), metadata={op_name="checkpoint/layers/broadcast_in_dim" stack_frame_id=39}
  %convert_element_type.248 = bf16[4,8,1,1]{3,2,1,0} convert(%broadcast_in_dim.153), metadata={op_name="checkpoint/layers/convert_element_type" stack_frame_id=39}
  %transpose.196 = bf16[4,1,8,1]{3,2,1,0} reshape(%convert_element_type.248), metadata={op_name="checkpoint/layers/transpose" stack_frame_id=199}
  %mul.381 = bf16[4,1,8,1]{3,2,1,0} multiply(%exp.38, %transpose.196), metadata={op_name="checkpoint/layers/mul" stack_frame_id=196}
  %sub.81 = bf16[4,1,8,1]{3,2,1,0} subtract(%broadcast_in_dim.159, %max.6), metadata={op_name="checkpoint/layers/sub" stack_frame_id=195}
  %exp.39 = bf16[4,1,8,1]{3,2,1,0} exponential(%sub.81), metadata={op_name="checkpoint/layers/exp" stack_frame_id=196}
  %broadcast_in_dim.157 = bf16[4,8,1,1]{3,2,1,0} reshape(%reduce_max.85), metadata={op_name="checkpoint/layers/broadcast_in_dim" stack_frame_id=43}
  %sub.76 = bf16[4,8,1,1]{3,2,1,0} broadcast(%broadcast_in_dim.157), dimensions={0,1,2,3}, metadata={op_name="checkpoint/layers/sub" stack_frame_id=200}
  %sub.77 = bf16[4,8,1]{2,1,0} reshape(%sub.76), metadata={op_name="checkpoint/layers/sub" stack_frame_id=200}
  %sub.78 = bf16[4,8,1,1984]{3,2,1,0} broadcast(%sub.77), dimensions={0,1,2}, metadata={op_name="checkpoint/layers/sub" stack_frame_id=200}
  %sub.79 = bf16[4,8,1,1984]{3,2,1,0} subtract(%reshape.53, %sub.78), metadata={op_name="checkpoint/layers/sub" stack_frame_id=200}
  %exp.37 = bf16[4,8,1,1984]{3,2,1,0} exponential(%sub.79), metadata={op_name="checkpoint/layers/exp" stack_frame_id=201}
  %convert_element_type.249 = f32[4,8,1,1984]{3,2,1,0} convert(%exp.37), metadata={op_name="checkpoint/layers/convert_element_type" stack_frame_id=44}
  %reduce_sum.340 = f32[4,8,1]{2,1,0} reduce(%convert_element_type.249, %constant.146), dimensions={3}, to_apply=%region_8.29, metadata={op_name="checkpoint/layers/reduce_sum" stack_frame_id=44}
  %broadcast_in_dim.158 = f32[4,8,1,1]{3,2,1,0} reshape(%reduce_sum.340), metadata={op_name="checkpoint/layers/broadcast_in_dim" stack_frame_id=44}
  %convert_element_type.250 = bf16[4,8,1,1]{3,2,1,0} convert(%broadcast_in_dim.158), metadata={op_name="checkpoint/layers/convert_element_type" stack_frame_id=44}
  %transpose.199 = bf16[4,1,8,1]{3,2,1,0} reshape(%convert_element_type.250), metadata={op_name="checkpoint/layers/transpose" stack_frame_id=202}
  %mul.382 = bf16[4,1,8,1]{3,2,1,0} multiply(%exp.39, %transpose.199), metadata={op_name="checkpoint/layers/mul" stack_frame_id=196}
  %add.117 = bf16[4,1,8,1]{3,2,1,0} add(%mul.381, %mul.382), metadata={op_name="checkpoint/layers/add" stack_frame_id=194}
  %div.164 = bf16[4,1,8,1]{3,2,1,0} divide(%exp.40, %add.117), metadata={op_name="checkpoint/layers/div" stack_frame_id=193}
  %mul.383 = bf16[4,1,8,1]{3,2,1,0} broadcast(%div.164), dimensions={0,1,2,3}, metadata={op_name="checkpoint/layers/mul" stack_frame_id=203}
  %mul.384 = bf16[4,1,8]{2,1,0} reshape(%mul.383), metadata={op_name="checkpoint/layers/mul" stack_frame_id=203}
  %mul.385 = bf16[4,1,8,256]{3,2,1,0} broadcast(%mul.384), dimensions={0,1,2}, metadata={op_name="checkpoint/layers/mul" stack_frame_id=203}
  %Arg_93.1 = bf16[64,4,4,256]{3,2,1,0} parameter(93)
  %transpose.192 = bf16[4,64,4,256]{3,0,2,1} transpose(%Arg_93.1), dimensions={2,0,1,3}, metadata={op_name="checkpoint/layers/transpose" stack_frame_id=207}
  %reshape.50 = bf16[4,4,2,1,64]{4,3,2,1,0} reshape(%exp.36), metadata={op_name="checkpoint/layers/reshape" stack_frame_id=208}
  %dot_general.109 = bf16[4,4,256,2,1]{4,3,2,1,0} dot(%transpose.192, %reshape.50), lhs_batch_dims={0,2}, lhs_contracting_dims={1}, rhs_batch_dims={0,1}, rhs_contracting_dims={4}, metadata={op_name="checkpoint/layers/bkgts,bskd->btkgd/dot_general" stack_frame_id=210}
  %transpose.197 = bf16[4,1,4,2,256]{1,3,4,2,0} transpose(%dot_general.109), dimensions={0,4,1,3,2}, metadata={op_name="checkpoint/layers/bkgts,bskd->btkgd/transpose" stack_frame_id=210}
  %reshape.51 = bf16[4,1,8,256]{3,2,1,0} reshape(%transpose.197), metadata={op_name="checkpoint/layers/reshape" stack_frame_id=211}
  %mul.386 = bf16[4,1,8,256]{3,2,1,0} multiply(%mul.385, %reshape.51), metadata={op_name="checkpoint/layers/mul" stack_frame_id=203}
  %sub.83 = bf16[4,1,8,1]{3,2,1,0} subtract(%broadcast_in_dim.159, %max.6), metadata={op_name="checkpoint/layers/sub" stack_frame_id=192}
  %exp.41 = bf16[4,1,8,1]{3,2,1,0} exponential(%sub.83), metadata={op_name="checkpoint/layers/exp" stack_frame_id=193}
  %div.165 = bf16[4,1,8,1]{3,2,1,0} divide(%exp.41, %add.117), metadata={op_name="checkpoint/layers/div" stack_frame_id=193}
  %mul.387 = bf16[4,1,8,1]{3,2,1,0} broadcast(%div.165), dimensions={0,1,2,3}, metadata={op_name="checkpoint/layers/mul" stack_frame_id=203}
  %mul.388 = bf16[4,1,8]{2,1,0} reshape(%mul.387), metadata={op_name="checkpoint/layers/mul" stack_frame_id=203}
  %mul.389 = bf16[4,1,8,256]{3,2,1,0} broadcast(%mul.388), dimensions={0,1,2}, metadata={op_name="checkpoint/layers/mul" stack_frame_id=203}
  %Arg_91.1 = bf16[1984,4,4,256]{3,2,1,0} parameter(91)
  %Arg_20.1 = f32[2560,4,256]{2,1,0} parameter(20)
  %convert_element_type.232 = bf16[2560,4,256]{2,1,0} convert(%Arg_20.1), metadata={op_name="checkpoint/layers/convert_element_type" stack_frame_id=215}
  %dot_general.105 = bf16[4,1,4,256]{3,2,1,0} dot(%sharding_constraint.43, %convert_element_type.232), lhs_contracting_dims={2}, rhs_contracting_dims={0}, metadata={op_name="checkpoint/layers/dot_general" stack_frame_id=217}
  %sharding_constraint.46 = bf16[4,1,4,256]{3,2,1,0} custom-call(%dot_general.105), custom_call_target="Sharding", sharding={devices=[1,1,4,1]<=[4]}, frontend_attributes={xla.sdy.sharding="#sdy.sharding_per_value<[<@mesh, [{}, {}, {\"tensor\"}, {}]>]>"}, metadata={op_name="checkpoint/layers/sharding_constraint" stack_frame_id=220}
  %transpose.190 = bf16[1,4,4,256]{3,1,0,2} transpose(%sharding_constraint.46), dimensions={1,2,0,3}, metadata={op_name="checkpoint/layers/transpose" stack_frame_id=221}
  %jit_dynamic_update_index_in_dim_.19 = bf16[1984,4,4,256]{3,2,1,0} call(%Arg_91.1, %transpose.190, %squeeze.38), to_apply=%dynamic_update_index_in_dim.17, metadata={op_name="checkpoint/layers/jit(dynamic_update_index_in_dim)" stack_frame_id=222}
  %transpose.194 = bf16[4,1984,4,256]{3,0,2,1} transpose(%jit_dynamic_update_index_in_dim_.19), dimensions={2,0,1,3}, metadata={op_name="checkpoint/layers/transpose" stack_frame_id=226}
  %reshape.54 = bf16[4,4,2,1,1984]{4,3,2,1,0} reshape(%exp.37), metadata={op_name="checkpoint/layers/reshape" stack_frame_id=227}
  %dot_general.111 = bf16[4,4,256,2,1]{4,3,2,1,0} dot(%transpose.194, %reshape.54), lhs_batch_dims={0,2}, lhs_contracting_dims={1}, rhs_batch_dims={0,1}, rhs_contracting_dims={4}, metadata={op_name="checkpoint/layers/bkgts,bskd->btkgd/dot_general" stack_frame_id=229}
  %transpose.200 = bf16[4,1,4,2,256]{1,3,4,2,0} transpose(%dot_general.111), dimensions={0,4,1,3,2}, metadata={op_name="checkpoint/layers/bkgts,bskd->btkgd/transpose" stack_frame_id=229}
  %reshape.55 = bf16[4,1,8,256]{3,2,1,0} reshape(%transpose.200), metadata={op_name="checkpoint/layers/reshape" stack_frame_id=230}
  %mul.390 = bf16[4,1,8,256]{3,2,1,0} multiply(%mul.389, %reshape.55), metadata={op_name="checkpoint/layers/mul" stack_frame_id=203}
…
  %and.181 = pred[1,1,1,1984]{3,2,1,0} reshape(%and.180), metadata={op_name="jit(_generate_jit)/TransformerLinenPure.apply/TransformerLinenPure/decoder/decoder._apply_gemma3_scanned_blocks/checkpoint/layers_remainder/and" stack_frame_id=503}
  %and.182 = pred[4,1,1,1,1984]{4,3,2,1,0} broadcast(%and.181), dimensions={1,2,3,4}, metadata={op_name="jit(_generate_jit)/TransformerLinenPure.apply/TransformerLinenPure/decoder/decoder._apply_gemma3_scanned_blocks/checkpoint/layers_remainder/and" stack_frame_id=503}
  %broadcast_in_dim.427 = s32[4,1,1,1,1984]{4,3,2,1,0} reshape(%jit_dynamic_update_index_in_dim_.155), metadata={op_name="jit(_generate_jit)/TransformerLinenPure.apply/TransformerLinenPure/decoder/decoder._apply_gemma3_scanned_blocks/checkpoint/layers_remainder/broadcast_in_dim" stack_frame_id=504}
  %eq.43 = pred[4,1,1,1,1984]{4,3,2,1,0} compare(%broadcast_in_dim.427, %broadcast.93), direction=EQ, metadata={op_name="jit(_generate_jit)/TransformerLinenPure.apply/TransformerLinenPure/decoder/decoder._apply_gemma3_scanned_blocks/checkpoint/layers_remainder/eq" stack_frame_id=504}
  %and.183 = pred[4,1,1,1,1984]{4,3,2,1,0} and(%and.182, %eq.43), metadata={op_name="jit(_generate_jit)/TransformerLinenPure.apply/TransformerLinenPure/decoder/decoder._apply_gemma3_scanned_blocks/checkpoint/layers_remainder/and" stack_frame_id=503}
  %jit__where_.80 = f32[4,1,1,1,1984]{4,3,2,1,0} call(%and.183, %constant.205, %constant.203), to_apply=%_where_15.26, metadata={op_name="jit(_generate_jit)/TransformerLinenPure.apply/TransformerLinenPure/decoder/decoder._apply_gemma3_scanned_blocks/checkpoint/layers_remainder/jit(_where)" stack_frame_id=505}
  %ge.39 = pred[4,1,1,1,1984]{4,3,2,1,0} compare(%jit__where_.80, %broadcast.90), direction=GE, metadata={op_name="jit(_generate_jit)/TransformerLinenPure.apply/TransformerLinenPure/decoder/decoder._apply_gemma3_scanned_blocks/checkpoint/layers_remainder/ge" stack_frame_id=507}
  %transpose.507 = bf16[4,1984,4,256]{3,0,2,1} transpose(%jit_dynamic_update_index_in_dim_.153), dimensions={2,0,1,3}, metadata={op_name="jit(_generate_jit)/TransformerLinenPure.apply/TransformerLinenPure/decoder/decoder._apply_gemma3_scanned_blocks/checkpoint/layers_remainder/transpose" stack_frame_id=511}
  %reshape.156 = bf16[4,1,4,2,256]{4,3,2,1,0} reshape(%sharding_constraint.216), metadata={op_name="jit(_generate_jit)/TransformerLinenPure.apply/TransformerLinenPure/decoder/decoder._apply_gemma3_scanned_blocks/checkpoint/layers_remainder/reshape" stack_frame_id=513}
  %dot_general.333 = bf16[4,4,1984,1,2]{4,3,2,1,0} dot(%transpose.507, %reshape.156), lhs_batch_dims={0,2}, lhs_contracting_dims={3}, rhs_batch_dims={0,2}, rhs_contracting_dims={4}, metadata={op_name="jit(_generate_jit)/TransformerLinenPure.apply/TransformerLinenPure/decoder/decoder._apply_gemma3_scanned_blocks/checkpoint/layers_remainder/btkgd,bskd->bkgts/dot_general" stack_frame_id=514}
  %transpose.512 = bf16[4,4,2,1,1984]{2,3,4,1,0} transpose(%dot_general.333), dimensions={0,1,4,3,2}, metadata={op_name="jit(_generate_jit)/TransformerLinenPure.apply/TransformerLinenPure/decoder/decoder._apply_gemma3_scanned_blocks/checkpoint/layers_remainder/btkgd,bskd->bkgts/transpose" stack_frame_id=514}
  %jit__where_.81 = bf16[4,4,2,1,1984]{4,3,2,1,0} call(%ge.39, %transpose.512, %constant.203), to_apply=%_where_16.27, metadata={op_name="jit(_generate_jit)/TransformerLinenPure.apply/TransformerLinenPure/decoder/decoder._apply_gemma3_scanned_blocks/checkpoint/layers_remainder/jit(_where)" stack_frame_id=515}
  %reshape.157 = bf16[4,8,1,1984]{3,2,1,0} reshape(%jit__where_.81), metadata={op_name="jit(_generate_jit)/TransformerLinenPure.apply/TransformerLinenPure/decoder/decoder._apply_gemma3_scanned_blocks/checkpoint/layers_remainder/reshape" stack_frame_id=516}
  %reduce_max.159 = bf16[4,8,1]{2,1,0} reduce(%reshape.157, %constant.202), dimensions={3}, to_apply=%region_107.136, metadata={op_name="jit(_generate_jit)/TransformerLinenPure.apply/TransformerLinenPure/decoder/decoder._apply_gemma3_scanned_blocks/checkpoint/layers_remainder/reduce_max" stack_frame_id=340}
  %broadcast_in_dim.431 = bf16[4,1,8,1]{3,2,1,0} reshape(%reduce_max.159), metadata={op_name="jit(_generate_jit)/TransformerLinenPure.apply/TransformerLinenPure/decoder/decoder._apply_gemma3_scanned_blocks/checkpoint/layers_remainder/transpose;jit(_generate_jit)/TransformerLinenPure.apply/TransformerLinenPure/decoder/decoder._apply_gemma3_scanned_blocks/checkpoint/layers_remainder/broadcast_in_dim"}
  %max.19 = bf16[4,1,8,1]{3,2,1,0} maximum(%broadcast_in_dim.426, %broadcast_in_dim.431), metadata={op_name="jit(_generate_jit)/TransformerLinenPure.apply/TransformerLinenPure/decoder/decoder._apply_gemma3_scanned_blocks/checkpoint/layers_remainder/max" stack_frame_id=518}
  %sub.238 = bf16[4,1,8,1]{3,2,1,0} subtract(%broadcast_in_dim.426, %max.19), metadata={op_name="jit(_generate_jit)/TransformerLinenPure.apply/TransformerLinenPure/decoder/decoder._apply_gemma3_scanned_blocks/checkpoint/layers_remainder/sub" stack_frame_id=519}
  %exp.118 = bf16[4,1,8,1]{3,2,1,0} exponential(%sub.238), metadata={op_name="jit(_generate_jit)/TransformerLinenPure.apply/TransformerLinenPure/decoder/decoder._apply_gemma3_scanned_blocks/checkpoint/layers_remainder/exp" stack_frame_id=520}
  %sub.236 = bf16[4,1,8,1]{3,2,1,0} subtract(%broadcast_in_dim.426, %max.19), metadata={op_name="jit(_generate_jit)/TransformerLinenPure.apply/TransformerLinenPure/decoder/decoder._apply_gemma3_scanned_blocks/checkpoint/layers_remainder/sub" stack_frame_id=522}
  %exp.116 = bf16[4,1,8,1]{3,2,1,0} exponential(%sub.236), metadata={op_name="jit(_generate_jit)/TransformerLinenPure.apply/TransformerLinenPure/decoder/decoder._apply_gemma3_scanned_blocks/checkpoint/layers_remainder/exp" stack_frame_id=523}
  %broadcast_in_dim.424 = bf16[4,8,1,1]{3,2,1,0} reshape(%reduce_max.158), metadata={op_name="jit(_generate_jit)/TransformerLinenPure.apply/TransformerLinenPure/decoder/decoder._apply_gemma3_scanned_blocks/checkpoint/layers_remainder/broadcast_in_dim" stack_frame_id=335}
  %sub.228 = bf16[4,8,1,1]{3,2,1,0} broadcast(%broadcast_in_dim.424), dimensions={0,1,2,3}, metadata={op_name="jit(_generate_jit)/TransformerLinenPure.apply/TransformerLinenPure/decoder/decoder._apply_gemma3_scanned_blocks/checkpoint/layers_remainder/sub" stack_frame_id=524}
  %sub.229 = bf16[4,8,1]{2,1,0} reshape(%sub.228), metadata={op_name="jit(_generate_jit)/TransformerLinenPure.apply/TransformerLinenPure/decoder/decoder._apply_gemma3_scanned_blocks/checkpoint/layers_remainder/sub" stack_frame_id=524}
  %sub.230 = bf16[4,8,1,64]{3,2,1,0} broadcast(%sub.229), dimensions={0,1,2}, metadata={op_name="jit(_generate_jit)/TransformerLinenPure.apply/TransformerLinenPure/decoder/decoder._apply_gemma3_scanned_blocks/checkpoint/layers_remainder/sub" stack_frame_id=524}
  %sub.231 = bf16[4,8,1,64]{3,2,1,0} subtract(%reshape.153, %sub.230), metadata={op_name="jit(_generate_jit)/TransformerLinenPure.apply/TransformerLinenPure/decoder/decoder._apply_gemma3_scanned_blocks/checkpoint/layers_remainder/sub" stack_frame_id=524}
  %exp.114 = bf16[4,8,1,64]{3,2,1,0} exponential(%sub.231), metadata={op_name="jit(_generate_jit)/TransformerLinenPure.apply/TransformerLinenPure/decoder/decoder._apply_gemma3_scanned_blocks/checkpoint/layers_remainder/exp" stack_frame_id=525}
  %convert_element_type.734 = f32[4,8,1,64]{3,2,1,0} convert(%exp.114), metadata={op_name="jit(_generate_jit)/TransformerLinenPure.apply/TransformerLinenPure/decoder/decoder._apply_gemma3_scanned_blocks/checkpoint/layers_remainder/convert_element_type" stack_frame_id=336}
  %reduce_sum.642 = f32[4,8,1]{2,1,0} reduce(%convert_element_type.734, %constant.205), dimensions={3}, to_apply=%region_106.135, metadata={op_name="jit(_generate_jit)/TransformerLinenPure.apply/TransformerLinenPure/decoder/decoder._apply_gemma3_scanned_blocks/checkpoint/layers_remainder/reduce_sum" stack_frame_id=336}
  %broadcast_in_dim.425 = f32[4,8,1,1]{3,2,1,0} reshape(%reduce_sum.642), metadata={op_name="jit(_generate_jit)/TransformerLinenPure.apply/TransformerLinenPure/decoder/decoder._apply_gemma3_scanned_blocks/checkpoint/layers_remainder/broadcast_in_dim" stack_frame_id=336}
  %convert_element_type.735 = bf16[4,8,1,1]{3,2,1,0} convert(%broadcast_in_dim.425), metadata={op_name="jit(_generate_jit)/TransformerLinenPure.apply/TransformerLinenPure/decoder/decoder._apply_gemma3_scanned_blocks/checkpoint/layers_remainder/convert_element_type" stack_frame_id=336}
  %transpose.510 = bf16[4,1,8,1]{3,2,1,0} reshape(%convert_element_type.735), metadata={op_name="jit(_generate_jit)/TransformerLinenPure.apply/TransformerLinenPure/decoder/decoder._apply_gemma3_scanned_blocks/checkpoint/layers_remainder/transpose" stack_frame_id=526}
  %mul.1141 = bf16[4,1,8,1]{3,2,1,0} multiply(%exp.116, %transpose.510), metadata={op_name="jit(_generate_jit)/TransformerLinenPure.apply/TransformerLinenPure/decoder/decoder._apply_gemma3_scanned_blocks/checkpoint/layers_remainder/mul" stack_frame_id=523}
  %sub.237 = bf16[4,1,8,1]{3,2,1,0} subtract(%broadcast_in_dim.431, %max.19), metadata={op_name="jit(_generate_jit)/TransformerLinenPure.apply/TransformerLinenPure/decoder/decoder._apply_gemma3_scanned_blocks/checkpoint/layers_remainder/sub" stack_frame_id=522}
  %exp.117 = bf16[4,1,8,1]{3,2,1,0} exponential(%sub.237), metadata={op_name="jit(_generate_jit)/TransformerLinenPure.apply/TransformerLinenPure/decoder/decoder._apply_gemma3_scanned_blocks/checkpoint/layers_remainder/exp" stack_frame_id=523}
  %broadcast_in_dim.429 = bf16[4,8,1,1]{3,2,1,0} reshape(%reduce_max.159), metadata={op_name="jit(_generate_jit)/TransformerLinenPure.apply/TransformerLinenPure/decoder/decoder._apply_gemma3_scanned_blocks/checkpoint/layers_remainder/broadcast_in_dim" stack_frame_id=340}
  %sub.232 = bf16[4,8,1,1]{3,2,1,0} broadcast(%broadcast_in_dim.429), dimensions={0,1,2,3}, metadata={op_name="jit(_generate_jit)/TransformerLinenPure.apply/TransformerLinenPure/decoder/decoder._apply_gemma3_scanned_blocks/checkpoint/layers_remainder/sub" stack_frame_id=527}
  %sub.233 = bf16[4,8,1]{2,1,0} reshape(%sub.232), metadata={op_name="jit(_generate_jit)/TransformerLinenPure.apply/TransformerLinenPure/decoder/decoder._apply_gemma3_scanned_blocks/checkpoint/layers_remainder/sub" stack_frame_id=527}
  %sub.234 = bf16[4,8,1,1984]{3,2,1,0} broadcast(%sub.233), dimensions={0,1,2}, metadata={op_name="jit(_generate_jit)/TransformerLinenPure.apply/TransformerLinenPure/decoder/decoder._apply_gemma3_scanned_blocks/checkpoint/layers_remainder/sub" stack_frame_id=527}
  %sub.235 = bf16[4,8,1,1984]{3,2,1,0} subtract(%reshape.157, %sub.234), metadata={op_name="jit(_generate_jit)/TransformerLinenPure.apply/TransformerLinenPure/decoder/decoder._apply_gemma3_scanned_blocks/checkpoint/layers_remainder/sub" stack_frame_id=527}
  %exp.115 = bf16[4,8,1,1984]{3,2,1,0} exponential(%sub.235), metadata={op_name="jit(_generate_jit)/TransformerLinenPure.apply/TransformerLinenPure/decoder/decoder._apply_gemma3_scanned_blocks/checkpoint/layers_remainder/exp" stack_frame_id=528}
  %convert_element_type.736 = f32[4,8,1,1984]{3,2,1,0} convert(%exp.115), metadata={op_name="jit(_generate_jit)/TransformerLinenPure.apply/TransformerLinenPure/decoder/decoder._apply_gemma3_scanned_blocks/checkpoint/layers_remainder/convert_element_type" stack_frame_id=341}
  %reduce_sum.643 = f32[4,8,1]{2,1,0} reduce(%convert_element_type.736, %constant.205), dimensions={3}, to_apply=%region_108.137, metadata={op_name="jit(_generate_jit)/TransformerLinenPure.apply/TransformerLinenPure/decoder/decoder._apply_gemma3_scanned_blocks/checkpoint/layers_remainder/reduce_sum" stack_frame_id=341}
  %broadcast_in_dim.430 = f32[4,8,1,1]{3,2,1,0} reshape(%reduce_sum.643), metadata={op_name="jit(_generate_jit)/TransformerLinenPure.apply/TransformerLinenPure/decoder/decoder._apply_gemma3_scanned_blocks/checkpoint/layers_remainder/broadcast_in_dim" stack_frame_id=341}
  %convert_element_type.737 = bf16[4,8,1,1]{3,2,1,0} convert(%broadcast_in_dim.430), metadata={op_name="jit(_generate_jit)/TransformerLinenPure.apply/TransformerLinenPure/decoder/decoder._apply_gemma3_scanned_blocks/checkpoint/layers_remainder/convert_element_type" stack_frame_id=341}
  %transpose.513 = bf16[4,1,8,1]{3,2,1,0} reshape(%convert_element_type.737), metadata={op_name="jit(_generate_jit)/TransformerLinenPure.apply/TransformerLinenPure/decoder/decoder._apply_gemma3_scanned_blocks/checkpoint/layers_remainder/transpose" stack_frame_id=529}
  %mul.1142 = bf16[4,1,8,1]{3,2,1,0} multiply(%exp.117, %transpose.513), metadata={op_name="jit(_generate_jit)/TransformerLinenPure.apply/TransformerLinenPure/decoder/decoder._apply_gemma3_scanned_blocks/checkpoint/layers_remainder/mul" stack_frame_id=523}
  %add.326 = bf16[4,1,8,1]{3,2,1,0} add(%mul.1141, %mul.1142), metadata={op_name="jit(_generate_jit)/TransformerLinenPure.apply/TransformerLinenPure/decoder/decoder._apply_gemma3_scanned_blocks/checkpoint/layers_remainder/add" stack_frame_id=521}
  %div.479 = bf16[4,1,8,1]{3,2,1,0} divide(%exp.118, %add.326), metadata={op_name="jit(_generate_jit)/TransformerLinenPure.apply/TransformerLinenPure/decoder/decoder._apply_gemma3_scanned_blocks/checkpoint/layers_remainder/div" stack_frame_id=520}
  %mul.1143 = bf16[4,1,8,1]{3,2,1,0} broadcast(%div.479), dimensions={0,1,2,3}, metadata={op_name="jit(_generate_jit)/TransformerLinenPure.apply/TransformerLinenPure/decoder/decoder._apply_gemma3_scanned_blocks/checkpoint/layers_remainder/mul" stack_frame_id=530}
  %mul.1144 = bf16[4,1,8]{2,1,0} reshape(%mul.1143), metadata={op_name="jit(_generate_jit)/TransformerLinenPure.apply/TransformerLinenPure/decoder/decoder._apply_gemma3_scanned_blocks/checkpoint/layers_remainder/mul" stack_frame_id=530}
  %mul.1145 = bf16[4,1,8,256]{3,2,1,0} broadcast(%mul.1144), dimensions={0,1,2}, metadata={op_name="jit(_generate_jit)/TransformerLinenPure.apply/TransformerLinenPure/decoder/decoder._apply_gemma3_scanned_blocks/checkpoint/layers_remainder/mul" stack_frame_id=530}
  %transpose.506 = bf16[4,64,4,256]{3,0,2,1} transpose(%decode_state__cache____decoder____layers_remainder____layers_3____self_attention____KVCache_0____cached_prefill_value__.1), dimensions={2,0,1,3}, metadata={op_name="jit(_generate_jit)/TransformerLinenPure.apply/TransformerLinenPure/decoder/decoder._apply_gemma3_scanned_blocks/checkpoint/layers_remainder/transpose" stack_frame_id=534}
  %reshape.154 = bf16[4,4,2,1,64]{4,3,2,1,0} reshape(%exp.114), metadata={op_name="jit(_generate_jit)/TransformerLinenPure.apply/TransformerLinenPure/decoder/decoder._apply_gemma3_scanned_blocks/checkpoint/layers_remainder/reshape" stack_frame_id=535}
  %dot_general.332 = bf16[4,4,256,2,1]{4,3,2,1,0} dot(%transpose.506, %reshape.154), lhs_batch_dims={0,2}, lhs_contracting_dims={1}, rhs_batch_dims={0,1}, rhs_contracting_dims={4}, metadata={op_name="jit(_generate_jit)/TransformerLinenPure.apply/TransformerLinenPure/decoder/decoder._apply_gemma3_scanned_blocks/checkpoint/layers_remainder/bkgts,bskd->btkgd/dot_general" stack_frame_id=537}
  %transpose.511 = bf16[4,1,4,2,256]{1,3,4,2,0} transpose(%dot_general.332), dimensions={0,4,1,3,2}, metadata={op_name="jit(_generate_jit)/TransformerLinenPure.apply/TransformerLinenPure/decoder/decoder._apply_gemma3_scanned_blocks/checkpoint/layers_remainder/bkgts,bskd->btkgd/transpose" stack_frame_id=537}
  %reshape.155 = bf16[4,1,8,256]{3,2,1,0} reshape(%transpose.511), metadata={op_name="jit(_generate_jit)/TransformerLinenPure.apply/TransformerLinenPure/decoder/decoder._apply_gemma3_scanned_blocks/checkpoint/layers_remainder/reshape" stack_frame_id=538}
  %mul.1146 = bf16[4,1,8,256]{3,2,1,0} multiply(%mul.1145, %reshape.155), metadata={op_name="jit(_generate_jit)/TransformerLinenPure.apply/TransformerLinenPure/decoder/decoder._apply_gemma3_scanned_blocks/checkpoint/layers_remainder/mul" stack_frame_id=530}
  %sub.239 = bf16[4,1,8,1]{3,2,1,0} subtract(%broadcast_in_dim.431, %max.19), metadata={op_name="jit(_generate_jit)/TransformerLinenPure.apply/TransformerLinenPure/decoder/decoder._apply_gemma3_scanned_blocks/checkpoint/layers_remainder/sub" stack_frame_id=519}
  %exp.119 = bf16[4,1,8,1]{3,2,1,0} exponential(%sub.239), metadata={op_name="jit(_generate_jit)/TransformerLinenPure.apply/TransformerLinenPure/decoder/decoder._apply_gemma3_scanned_blocks/checkpoint/layers_remainder/exp" stack_frame_id=520}
  %div.480 = bf16[4,1,8,1]{3,2,1,0} divide(%exp.119, %add.326), metadata={op_name="jit(_generate_jit)/TransformerLinenPure.apply/TransformerLinenPure/decoder/decoder._apply_gemma3_scanned_blocks/checkpoint/layers_remainder/div" stack_frame_id=520}
  %mul.1147 = bf16[4,1,8,1]{3,2,1,0} broadcast(%div.480), dimensions={0,1,2,3}, metadata={op_name="jit(_generate_jit)/TransformerLinenPure.apply/TransformerLinenPure/decoder/decoder._apply_gemma3_scanned_blocks/checkpoint/layers_remainder/mul" stack_frame_id=530}
  %mul.1148 = bf16[4,1,8]{2,1,0} reshape(%mul.1147), metadata={op_name="jit(_generate_jit)/TransformerLinenPure.apply/TransformerLinenPure/decoder/decoder._apply_gemma3_scanned_blocks/checkpoint/layers_remainder/mul" stack_frame_id=530}
  %mul.1149 = bf16[4,1,8,256]{3,2,1,0} broadcast(%mul.1148), dimensions={0,1,2}, metadata={op_name="jit(_generate_jit)/TransformerLinenPure.apply/TransformerLinenPure/decoder/decoder._apply_gemma3_scanned_blocks/checkpoint/layers_remainder/mul" stack_frame_id=530}
  %transpose.508 = bf16[4,1984,4,256]{3,0,2,1} transpose(%jit_dynamic_update_index_in_dim_.154), dimensions={2,0,1,3}, metadata={op_name="jit(_generate_jit)/TransformerLinenPure.apply/TransformerLinenPure/decoder/decoder._apply_gemma3_scanned_blocks/checkpoint/layers_remainder/transpose" stack_frame_id=542}
  %reshape.158 = bf16[4,4,2,1,1984]{4,3,2,1,0} reshape(%exp.115), metadata={op_name="jit(_generate_jit)/TransformerLinenPure.apply/TransformerLinenPure/decoder/decoder._apply_gemma3_scanned_blocks/checkpoint/layers_remainder/reshape" stack_frame_id=543}
  %dot_general.334 = bf16[4,4,256,2,1]{4,3,2,1,0} dot(%transpose.508, %reshape.158), lhs_batch_dims={0,2}, lhs_contracting_dims={1}, rhs_batch_dims={0,1}, rhs_contracting_dims={4}, metadata={op_name="jit(_generate_jit)/TransformerLinenPure.apply/TransformerLinenPure/decoder/decoder._apply_gemma3_scanned_blocks/checkpoint/layers_remainder/bkgts,bskd->btkgd/dot_general" stack_frame_id=545}
  %transpose.514 = bf16[4,1,4,2,256]{1,3,4,2,0} transpose(%dot_general.334), dimensions={0,4,1,3,2}, metadata={op_name="jit(_generate_jit)/TransformerLinenPure.apply/TransformerLinenPure/decoder/decoder._apply_gemma3_scanned_blocks/checkpoint/layers_remainder/bkgts,bskd->btkgd/transpose" stack_frame_id=545}
  %reshape.159 = bf16[4,1,8,256]{3,2,1,0} reshape(%transpose.514), metadata={op_name="jit(_generate_jit)/TransformerLinenPure.apply/TransformerLinenPure/decoder/decoder._apply_gemma3_scanned_blocks/checkpoint/layers_remainder/reshape" stack_frame_id=546}
  %mul.1150 = bf16[4,1,8,256]{3,2,1,0} multiply(%mul.1149, %reshape.159), metadata={op_name="jit(_generate_jit)/TransformerLinenPure.apply/TransformerLinenPure/decoder/decoder._apply_gemma3_scanned_blocks/checkpoint/layers_remainder/mul" stack_frame_id=530}
  %add.327 = bf16[4,1,8,256]{3,2,1,0} add(%mul.1146, %mul.1150), metadata={op_name="jit(_generate_jit)/TransformerLinenPure.apply/TransformerLinenPure/decoder/decoder._apply_gemma3_scanned_blocks/checkpoint/layers_remainder/add" stack_frame_id=547}
  %sharding_constraint.219 = bf16[4,1,8,256]{3,2,1,0} custom-call(%add.327), custom_call_target="Sharding", sharding={devices=[1,1,4,1]<=[4]}, frontend_attributes={xla.sdy.sharding="#sdy.sharding_per_value<[<@mesh, [{}, {}, {\"tensor\"}, {}]>]>"}, metadata={op_name="jit(_generate_jit)/TransformerLinenPure.apply/TransformerLinenPure/decoder/decoder._apply_gemma3_scanned_blocks/checkpoint/layers_remainder/sharding_constraint" stack_frame_id=550}
  %params__params____decoder____layers_remainder____layers_3____self_attention____out____kernel__.1 = f32[8,256,2560]{2,1,0} parameter(210), sharding={devices=[4,1,1]<=[4]}, frontend_attributes={xla.sdy.sharding="#sdy.sharding<@mesh, [{\"tensor\", \"tensor_transpose\", \"tensor_sequence\", \"autoregressive\"}, {}, {\"fsdp\", \"fsdp_transpose\", \"context\", \"expert\"}]>"}, metadata={op_name="params[\'params\'][\'decoder\'][\'layers_remainder\'][\'layers_3\'][\'self_attention\'][\'out\'][\'kernel\']"}
  %convert_element_type.738 = bf16[8,256,2560]{2,1,0} convert(%params__params____decoder____layers_remainder____layers_3____self_attention____out____kernel__.1), metadata={op_name="jit(_generate_jit)/TransformerLinenPure.apply/TransformerLinenPure/decoder/decoder._apply_gemma3_scanned_blocks/checkpoint/layers_remainder/convert_element_type" stack_frame_id=554}
  %dot_general.335 = bf16[4,1,2560]{2,1,0} dot(%sharding_constraint.219, %convert_element_type.738), lhs_contracting_dims={2,3}, rhs_contracting_dims={0,1}, metadata={op_name="jit(_generate_jit)/TransformerLinenPure.apply/TransformerLinenPure/decoder/decoder._apply_gemma3_scanned_blocks/checkpoint/layers_remainder/dot_general" stack_frame_id=556}
  %convert_element_type.739 = f32[4,1,2560]{2,1,0} convert(%dot_general.335), metadata={op_name="jit(_generate_jit)/TransformerLinenPure.apply/TransformerLinenPure/decoder/decoder._apply_gemma3_scanned_blocks/checkpoint/layers_remainder/convert_element_type" stack_frame_id=557}
  %square.118 = f32[4,1,2560]{2,1,0} multiply(%convert_element_type.739, %convert_element_type.739), metadata={op_name="jit(_generate_jit)/TransformerLinenPure.apply/TransformerLinenPure/decoder/decoder._apply_gemma3_scanned_blocks/checkpoint/layers_remainder/square" stack_frame_id=558}
  %reduce_sum.644 = f32[4,1]{1,0} reduce(%square.118, %constant.205), dimensions={2}, to_apply=%region_109.138, metadata={op_name="jit(_generate_jit)/TransformerLinenPure.apply/TransformerLinenPure/decoder/decoder._apply_gemma3_scanned_blocks/checkpoint/layers_remainder/reduce_sum" stack_frame_id=344}
  %broadcast_in_dim.432 = f32[4,1,1]{2,1,0} reshape(%reduce_sum.644), metadata={op_name="jit(_generate_jit)/TransformerLinenPure.apply/TransformerLinenPure/decoder/decoder._apply_gemma3_scanned_blocks/checkpoint/layers_remainder/broadcast_in_dim" stack_frame_id=344}
  %div.481 = f32[4,1,1]{2,1,0} divide(%broadcast_in_dim.432, %broadcast.109), metadata={op_name="jit(_generate_jit)/TransformerLinenPure.apply/TransformerLinenPure/decoder/decoder._apply_gemma3_scanned_blocks/checkpoint/layers_remainder/div" stack_frame_id=344}
  %add.328 = f32[4,1,1]{2,1,0} add(%div.481, %broadcast.108), metadata={op_name="jit(_generate_jit)/TransformerLinenPure.apply/TransformerLinenPure/decoder/decoder._apply_gemma3_scanned_blocks/checkpoint/layers_remainder/add" stack_frame_id=559}
  %rsqrt.118 = f32[4,1,1]{2,1,0} rsqrt(%add.328), metadata={op_name="jit(_generate_jit)/TransformerLinenPure.apply/TransformerLinenPure/decoder/decoder._apply_gemma3_scanned_blocks/checkpoint/layers_remainder/rsqrt" stack_frame_id=560}
  %mul.1151 = f32[4,1,1]{2,1,0} broadcast(%rsqrt.118), dimensions={0,1,2}, metadata={op_name="jit(_generate_jit)/TransformerLinenPure.apply/TransformerLinenPure/decoder/decoder._apply_gemma3_scanned_blocks/checkpoint/layers_remainder/mul" stack_frame_id=561}
  %mul.1152 = f32[4,1]{1,0} reshape(%mul.1151), metadata={op_name="jit(_generate_jit)/TransformerLinenPure.apply/TransformerLinenPure/decoder/decoder._apply_gemma3_scanned_blocks/checkpoint/layers_remainder/mul" stack_frame_id=561}
  %mul.1153 = f32[4,1,2560]{2,1,0} broadcast(%mul.1152), dimensions={0,1}, metadata={op_name="jit(_generate_jit)/TransformerLinenPure.apply/TransformerLinenPure/decoder/decoder._apply_gemma3_scanned_blocks/checkpoint/layers_remainder/mul" stack_frame_id=561}
  %mul.1154 = f32[4,1,2560]{2,1,0} multiply(%convert_element_type.739, %mul.1153), metadata={op_name="jit(_generate_jit)/TransformerLinenPure.apply/TransformerLinenPure/decoder/decoder._apply_gemma3_scanned_blocks/checkpoint/layers_remainder/mul" stack_frame_id=561}
  %convert_element_type.740 = bf16[4,1,2560]{2,1,0} convert(%mul.1154), metadata={op_name="jit(_generate_jit)/TransformerLinenPure.apply/TransformerLinenPure/decoder/decoder._apply_gemma3_scanned_blocks/checkpoint/layers_remainder/convert_element_type" stack_frame_id=562}
  %dot_general.336 = bf16[2560,4,1]{2,1,0} dot(%convert_element_type.741, %convert_element_type.740), lhs_batch_dims={0}, lhs_contracting_dims={}, rhs_batch_dims={2}, rhs_contracting_dims={}, metadata={op_name="jit(_generate_jit)/TransformerLinenPure.apply/TransformerLinenPure/decoder/decoder._apply_gemma3_scanned_blocks/checkpoint/layers_remainder/...k,k->...k/dot_general" stack_frame_id=563}
  %transpose.515 = bf16[4,1,2560]{1,0,2} transpose(%dot_general.336), dimensions={1,2,0}, metadata={op_name="jit(_generate_jit)/TransformerLinenPure.apply/TransformerLinenPure/decoder/decoder._apply_gemma3_scanned_blocks/checkpoint/layers_remainder/...k,k->...k/transpose" stack_frame_id=563}
  %add.329 = bf16[4,1,2560]{1,0,2} add(%transpose.515, %add.319), metadata={op_name="jit(_generate_jit)/TransformerLinenPure.apply/TransformerLinenPure/decoder/decoder._apply_gemma3_scanned_blocks/checkpoint/layers_remainder/add" stack_frame_id=564}
  %convert_element_type.742 = f32[4,1,2560]{1,0,2} convert(%add.329), metadata={op_name="jit(_generate_jit)/TransformerLinenPure.apply/TransformerLinenPure/decoder/decoder._apply_gemma3_scanned_blocks/checkpoint/layers_remainder/convert_element_type" stack_frame_id=565}
  %square.119 = f32[4,1,2560]{1,0,2} multiply(%convert_element_type.742, %convert_element_type.742), metadata={op_name="jit(_generate_jit)/TransformerLinenPure.apply/TransformerLinenPure/decoder/decoder._apply_gemma3_scanned_blocks/checkpoint/layers_remainder/square" stack_frame_id=566}
  %reduce_sum.645 = f32[4,1]{1,0} reduce(%square.119, %constant.205), dimensions={2}, to_apply=%region_110.139, metadata={op_name="jit(_generate_jit)/TransformerLinenPure.apply/TransformerLinenPure/decoder/decoder._apply_gemma3_scanned_blocks/checkpoint/layers_remainder/reduce_sum" stack_frame_id=347}
  %broadcast_in_dim.433 = f32[4,1,1]{2,1,0} reshape(%reduce_sum.645), metadata={op_name="jit(_generate_jit)/TransformerLinenPure.apply/TransformerLinenPure/decoder/decoder._apply_gemma3_scanned_blocks/checkpoint/layers_remainder/broadcast_in_dim" stack_frame_id=347}
  %div.482 = f32[4,1,1]{2,1,0} divide(%broadcast_in_dim.433, %broadcast.109), metadata={op_name="jit(_generate_jit)/TransformerLinenPure.apply/TransformerLinenPure/decoder/decoder._apply_gemma3_scanned_blocks/checkpoint/layers_remainder/div" stack_frame_id=347}
  %add.330 = f32[4,1,1]{2,1,0} add(%div.482, %broadcast.108), metadata={op_name="jit(_generate_jit)/TransformerLinenPure.apply/TransformerLinenPure/decoder/decoder._apply_gemma3_scanned_blocks/checkpoint/layers_remainder/add" stack_frame_id=567}
  %rsqrt.119 = f32[4,1,1]{2,1,0} rsqrt(%add.330), metadata={op_name="jit(_generate_jit)/TransformerLinenPure.apply/TransformerLinenPure/decoder/decoder._apply_gemma3_scanned_blocks/checkpoint/layers_remainder/rsqrt" stack_frame_id=568}
  %mul.1155 = f32[4,1,1]{2,1,0} broadcast(%rsqrt.119), dimensions={0,1,2}, metadata={op_name="jit(_generate_jit)/TransformerLinenPure.apply/TransformerLinenPure/decoder/decoder._apply_gemma3_scanned_blocks/checkpoint/layers_remainder/mul" stack_frame_id=569}
  %mul.1156 = f32[4,1]{1,0} reshape(%mul.1155), metadata={op_name="jit(_generate_jit)/TransformerLinenPure.apply/TransformerLinenPure/decoder/decoder._apply_gemma3_scanned_blocks/checkpoint/layers_remainder/mul" stack_frame_id=569}
  %mul.1157 = f32[4,1,2560]{2,1,0} broadcast(%mul.1156), dimensions={0,1}, metadata={op_name="jit(_generate_jit)/TransformerLinenPure.apply/TransformerLinenPure/decoder/decoder._apply_gemma3_scanned_blocks/checkpoint/layers_remainder/mul" stack_frame_id=569}
  %mul.1158 = f32[4,1,2560]{1,0,2} multiply(%convert_element_type.742, %mul.1157), metadata={op_name="jit(_generate_jit)/TransformerLinenPure.apply/TransformerLinenPure/decoder/decoder._apply_gemma3_scanned_blocks/checkpoint/layers_remainder/mul" stack_frame_id=569}
  %convert_element_type.743 = bf16[4,1,2560]{1,0,2} convert(%mul.1158), metadata={op_name="jit(_generate_jit)/TransformerLinenPure.apply/TransformerLinenPure/decoder/decoder._apply_gemma3_scanned_blocks/checkpoint/layers_remainder/convert_element_type" stack_frame_id=570}
  %dot_general.337 = bf16[2560,4,1]{2,1,0} dot(%convert_element_type.744, %convert_element_type.743), lhs_batch_dims={0}, lhs_contracting_dims={}, rhs_batch_dims={2}, rhs_contracting_dims={}, metadata={op_name="jit(_generate_jit)/TransformerLinenPure.apply/TransformerLinenPure/decoder/decoder._apply_gemma3_scanned_blocks/checkpoint/layers_remainder/...k,k->...k/dot_general" stack_frame_id=571}
  %transpose.516 = bf16[4,1,2560]{1,0,2} transpose(%dot_general.337), dimensions={1,2,0}, metadata={op_name="jit(_generate_jit)/TransformerLinenPure.apply/TransformerLinenPure/decoder/decoder._apply_gemma3_scanned_blocks/checkpoint/layers_remainder/...k,k->...k/transpose" stack_frame_id=571}
  %params__params____decoder____layers_remainder____layers_3____mlp____wi_0____kernel__.1 = f32[2560,10240]{1,0} parameter(201), sharding={devices=[1,4]<=[4]}, frontend_attributes={xla.sdy.sharding="#sdy.sharding<@mesh, [{\"fsdp\", \"tensor_transpose\", \"context\", \"expert\"}, {\"fsdp_transpose\", \"tensor\", \"tensor_sequence\", \"autoregressive\"}]>"}, metadata={op_name="params[\'params\'][\'decoder\'][\'layers_remainder\'][\'layers_3\'][\'mlp\'][\'wi_0\'][\'kernel\']"}
  %convert_element_type.745 = bf16[2560,10240]{1,0} convert(%params__params____decoder____layers_remainder____layers_3____mlp____wi_0____kernel__.1), metadata={op_name="jit(_generate_jit)/TransformerLinenPure.apply/TransformerLinenPure/decoder/decoder._apply_gemma3_scanned_blocks/checkpoint/layers_remainder/convert_element_type" stack_frame_id=576}
  %dot_general.338 = bf16[4,1,10240]{2,1,0} dot(%transpose.516, %convert_element_type.745), lhs_contracting_dims={2}, rhs_contracting_dims={0}, metadata={op_name="jit(_generate_jit)/TransformerLinenPure.apply/TransformerLinenPure/decoder/decoder._apply_gemma3_scanned_blocks/checkpoint/layers_remainder/dot_general" stack_frame_id=578}
  %integer_pow.38 = bf16[4,1,10240]{2,1,0} multiply(%dot_general.338, %dot_general.338), metadata={op_name="jit(_generate_jit)/TransformerLinenPure.apply/TransformerLinenPure/decoder/decoder._apply_gemma3_scanned_blocks/checkpoint/layers_remainder/integer_pow" stack_frame_id=579}
  %integer_pow.39 = bf16[4,1,10240]{2,1,0} multiply(%integer_pow.38, %dot_general.338), metadata={op_name="jit(_generate_jit)/TransformerLinenPure.apply/TransformerLinenPure/decoder/decoder._apply_gemma3_scanned_blocks/checkpoint/layers_remainder/integer_pow" stack_frame_id=579}
  %mul.1159 = bf16[4,1,10240]{2,1,0} multiply(%integer_pow.39, %broadcast.89), metadata={op_name="jit(_generate_jit)/TransformerLinenPure.apply/TransformerLinenPure/decoder/decoder._apply_gemma3_scanned_blocks/checkpoint/layers_remainder/mul" stack_frame_id=579}
  %add.331 = bf16[4,1,10240]{2,1,0} add(%dot_general.338, %mul.1159), metadata={op_name="jit(_generate_jit)/TransformerLinenPure.apply/TransformerLinenPure/decoder/decoder._apply_gemma3_scanned_blocks/checkpoint/layers_remainder/add" stack_frame_id=579}
  %mul.1160 = bf16[4,1,10240]{2,1,0} multiply(%add.331, %broadcast.88), metadata={op_name="jit(_generate_jit)/TransformerLinenPure.apply/TransformerLinenPure/decoder/decoder._apply_gemma3_scanned_blocks/checkpoint/layers_remainder/mul" stack_frame_id=579}
  %tanh.19 = bf16[4,1,10240]{2,1,0} tanh(%mul.1160), metadata={op_name="jit(_generate_jit)/TransformerLinenPure.apply/TransformerLinenPure/decoder/decoder._apply_gemma3_scanned_blocks/checkpoint/layers_remainder/tanh" stack_frame_id=579}
  %add.332 = bf16[4,1,10240]{2,1,0} add(%tanh.19, %broadcast.87), metadata={op_name="jit(_generate_jit)/TransformerLinenPure.apply/TransformerLinenPure/decoder/decoder._apply_gemma3_scanned_blocks/checkpoint/layers_remainder/add" stack_frame_id=579}
  %mul.1161 = bf16[4,1,10240]{2,1,0} multiply(%add.332, %broadcast.86), metadata={op_name="jit(_generate_jit)/TransformerLinenPure.apply/TransformerLinenPure/decoder/decoder._apply_gemma3_scanned_blocks/checkpoint/layers_remainder/mul" stack_frame_id=579}
  %mul.1162 = bf16[4,1,10240]{2,1,0} multiply(%dot_general.338, %mul.1161), metadata={op_name="jit(_generate_jit)/TransformerLinenPure.apply/TransformerLinenPure/decoder/decoder._apply_gemma3_scanned_blocks/checkpoint/layers_remainder/mul" stack_frame_id=579}
  %params__params____decoder____layers_remainder____layers_3____mlp____wi_1____kernel__.1 = f32[2560,10240]{1,0} parameter(202), sharding={devices=[1,4]<=[4]}, frontend_attributes={xla.sdy.sharding="#sdy.sharding<@mesh, [{\"fsdp\", \"tensor_transpose\", \"context\", \"expert\"}, {\"fsdp_transpose\", \"tensor\", \"tensor_sequence\", \"autoregressive\"}]>"}, metadata={op_name="params[\'params\'][\'decoder\'][\'layers_remainder\'][\'layers_3\'][\'mlp\'][\'wi_1\'][\'kernel\']"}
  %convert_element_type.746 = bf16[2560,10240]{1,0} convert(%params__params____decoder____layers_remainder____layers_3____mlp____wi_1____kernel__.1), metadata={op_name="jit(_generate_jit)/TransformerLinenPure.apply/TransformerLinenPure/decoder/decoder._apply_gemma3_scanned_blocks/checkpoint/layers_remainder/convert_element_type" stack_frame_id=576}
  %dot_general.339 = bf16[4,1,10240]{2,1,0} dot(%transpose.516, %convert_element_type.746), lhs_contracting_dims={2}, rhs_contracting_dims={0}, metadata={op_name="jit(_generate_jit)/TransformerLinenPure.apply/TransformerLinenPure/decoder/decoder._apply_gemma3_scanned_blocks/checkpoint/layers_remainder/dot_general" stack_frame_id=578}
  %mul.1163 = bf16[4,1,10240]{2,1,0} multiply(%mul.1162, %dot_general.339), metadata={op_name="jit(_generate_jit)/TransformerLinenPure.apply/TransformerLinenPure/decoder/decoder._apply_gemma3_scanned_blocks/checkpoint/layers_remainder/mul" stack_frame_id=580}
  %sharding_constraint.220 = bf16[4,1,10240]{2,1,0} custom-call(%mul.1163), custom_call_target="Sharding", sharding={devices=[1,1,4]<=[4]}, frontend_attributes={xla.sdy.sharding="#sdy.sharding_per_value<[<@mesh, [{}, {}, {\"tensor\"}]>]>"}, metadata={op_name="jit(_generate_jit)/TransformerLinenPure.apply/TransformerLinenPure/decoder/decoder._apply_gemma3_scanned_blocks/checkpoint/layers_remainder/sharding_constraint" stack_frame_id=583}
  %params__params____decoder____layers_remainder____layers_3____mlp____wo____kernel__.1 = f32[10240,2560]{1,0} parameter(203), sharding={devices=[4,1]<=[4]}, frontend_attributes={xla.sdy.sharding="#sdy.sharding<@mesh, [{\"fsdp_transpose\", \"tensor\", \"tensor_sequence\", \"autoregressive\"}, {\"fsdp\", \"tensor_transpose\", \"context\", \"expert\"}]>"}, metadata={op_name="params[\'params\'][\'decoder\'][\'layers_remainder\'][\'layers_3\'][\'mlp\'][\'wo\'][\'kernel\']"}
  %convert_element_type.747 = bf16[10240,2560]{1,0} convert(%params__params____decoder____layers_remainder____layers_3____mlp____wo____kernel__.1), metadata={op_name="jit(_generate_jit)/TransformerLinenPure.apply/TransformerLinenPure/decoder/decoder._apply_gemma3_scanned_blocks/checkpoint/layers_remainder/convert_element_type" stack_frame_id=586}
  %dot_general.340 = bf16[4,1,2560]{2,1,0} dot(%sharding_constraint.220, %convert_element_type.747), lhs_contracting_dims={2}, rhs_contracting_dims={0}, metadata={op_name="jit(_generate_jit)/TransformerLinenPure.apply/TransformerLinenPure/decoder/decoder._apply_gemma3_scanned_blocks/checkpoint/layers_remainder/dot_general" stack_frame_id=588}
  %convert_element_type.748 = f32[4,1,2560]{2,1,0} convert(%dot_general.340), metadata={op_name="jit(_generate_jit)/TransformerLinenPure.apply/TransformerLinenPure/decoder/decoder._apply_gemma3_scanned_blocks/checkpoint/layers_remainder/convert_element_type" stack_frame_id=589}
  %square.120 = f32[4,1,2560]{2,1,0} multiply(%convert_element_type.748, %convert_element_type.748), metadata={op_name="jit(_generate_jit)/TransformerLinenPure.apply/TransformerLinenPure/decoder/decoder._apply_gemma3_scanned_blocks/checkpoint/layers_remainder/square" stack_frame_id=590}
  %reduce_sum.646 = f32[4,1]{1,0} reduce(%square.120, %constant.205), dimensions={2}, to_apply=%region_111.140, metadata={op_name="jit(_generate_jit)/TransformerLinenPure.apply/TransformerLinenPure/decoder/decoder._apply_gemma3_scanned_blocks/checkpoint/layers_remainder/reduce_sum" stack_frame_id=350}
  %broadcast_in_dim.434 = f32[4,1,1]{2,1,0} reshape(%reduce_sum.646), metadata={op_name="jit(_generate_jit)/TransformerLinenPure.apply/TransformerLinenPure/decoder/decoder._apply_gemma3_scanned_blocks/checkpoint/layers_remainder/broadcast_in_dim" stack_frame_id=350}
  %div.483 = f32[4,1,1]{2,1,0} divide(%broadcast_in_dim.434, %broadcast.109), metadata={op_name="jit(_generate_jit)/TransformerLinenPure.apply/TransformerLinenPure/decoder/decoder._apply_gemma3_scanned_blocks/checkpoint/layers_remainder/div" stack_frame_id=350}
  %add.333 = f32[4,1,1]{2,1,0} add(%div.483, %broadcast.108), metadata={op_name="jit(_generate_jit)/TransformerLinenPure.apply/TransformerLinenPure/decoder/decoder._apply_gemma3_scanned_blocks/checkpoint/layers_remainder/add" stack_frame_id=591}
  %rsqrt.120 = f32[4,1,1]{2,1,0} rsqrt(%add.333), metadata={op_name="jit(_generate_jit)/TransformerLinenPure.apply/TransformerLinenPure/decoder/decoder._apply_gemma3_scanned_blocks/checkpoint/layers_remainder/rsqrt" stack_frame_id=592}
  %mul.1164 = f32[4,1,1]{2,1,0} broadcast(%rsqrt.120), dimensions={0,1,2}, metadata={op_name="jit(_generate_jit)/TransformerLinenPure.apply/TransformerLinenPure/decoder/decoder._apply_gemma3_scanned_blocks/checkpoint/layers_remainder/mul" stack_frame_id=593}
  %mul.1165 = f32[4,1]{1,0} reshape(%mul.1164), metadata={op_name="jit(_generate_jit)/TransformerLinenPure.apply/TransformerLinenPure/decoder/decoder._apply_gemma3_scanned_blocks/checkpoint/layers_remainder/mul" stack_frame_id=593}
  %mul.1166 = f32[4,1,2560]{2,1,0} broadcast(%mul.1165), dimensions={0,1}, metadata={op_name="jit(_generate_jit)/TransformerLinenPure.apply/TransformerLinenPure/decoder/decoder._apply_gemma3_scanned_blocks/checkpoint/layers_remainder/mul" stack_frame_id=593}
  %mul.1167 = f32[4,1,2560]{2,1,0} multiply(%convert_element_type.748, %mul.1166), metadata={op_name="jit(_generate_jit)/TransformerLinenPure.apply/TransformerLinenPure/decoder/decoder._apply_gemma3_scanned_blocks/checkpoint/layers_remainder/mul" stack_frame_id=593}
  %convert_element_type.749 = bf16[4,1,2560]{2,1,0} convert(%mul.1167), metadata={op_name="jit(_generate_jit)/TransformerLinenPure.apply/TransformerLinenPure/decoder/decoder._apply_gemma3_scanned_blocks/checkpoint/layers_remainder/convert_element_type" stack_frame_id=594}
  %dot_general.341 = bf16[2560,4,1]{2,1,0} dot(%convert_element_type.750, %convert_element_type.749), lhs_batch_dims={0}, lhs_contracting_dims={}, rhs_batch_dims={2}, rhs_contracting_dims={}, metadata={op_name="jit(_generate_jit)/TransformerLinenPure.apply/TransformerLinenPure/decoder/decoder._apply_gemma3_scanned_blocks/checkpoint/layers_remainder/...k,k->...k/dot_general" stack_frame_id=595}
  %transpose.517 = bf16[4,1,2560]{1,0,2} transpose(%dot_general.341), dimensions={1,2,0}, metadata={op_name="jit(_generate_jit)/TransformerLinenPure.apply/TransformerLinenPure/decoder/decoder._apply_gemma3_scanned_blocks/checkpoint/layers_remainder/...k,k->...k/transpose" stack_frame_id=595}
  %add.334 = bf16[4,1,2560]{1,0,2} add(%transpose.517, %add.329), metadata={op_name="jit(_generate_jit)/TransformerLinenPure.apply/TransformerLinenPure/decoder/decoder._apply_gemma3_scanned_blocks/checkpoint/layers_remainder/add" stack_frame_id=596}
  %convert_element_type.751 = f32[4,1,2560]{1,0,2} convert(%add.334), metadata={op_name="jit(_generate_jit)/TransformerLinenPure.apply/TransformerLinenPure/decoder/decoder.apply_output_head/decoder_norm/convert_element_type" stack_frame_id=599}
  %square.121 = f32[4,1,2560]{1,0,2} multiply(%convert_element_type.751, %convert_element_type.751), metadata={op_name="jit(_generate_jit)/TransformerLinenPure.apply/TransformerLinenPure/decoder/decoder.apply_output_head/decoder_norm/square" stack_frame_id=600}
  %reduce_sum.647 = f32[4,1]{1,0} reduce(%square.121, %constant.205), dimensions={2}, to_apply=%region_112.141, metadata={op_name="jit(_generate_jit)/TransformerLinenPure.apply/TransformerLinenPure/decoder/decoder.apply_output_head/decoder_norm/reduce_sum" stack_frame_id=354}
  %broadcast_in_dim.435 = f32[4,1,1]{2,1,0} reshape(%reduce_sum.647), metadata={op_name="jit(_generate_jit)/TransformerLinenPure.apply/TransformerLinenPure/decoder/decoder.apply_output_head/decoder_norm/broadcast_in_dim" stack_frame_id=354}
  %div.484 = f32[4,1,1]{2,1,0} divide(%broadcast_in_dim.435, %broadcast.109), metadata={op_name="jit(_generate_jit)/TransformerLinenPure.apply/TransformerLinenPure/decoder/decoder.apply_output_head/decoder_norm/div" stack_frame_id=354}
  %add.335 = f32[4,1,1]{2,1,0} add(%div.484, %broadcast.108), metadata={op_name="jit(_generate_jit)/TransformerLinenPure.apply/TransformerLinenPure/decoder/decoder.apply_output_head/decoder_norm/add" stack_frame_id=601}
  %rsqrt.121 = f32[4,1,1]{2,1,0} rsqrt(%add.335), metadata={op_name="jit(_generate_jit)/TransformerLinenPure.apply/TransformerLinenPure/decoder/decoder.apply_output_head/decoder_norm/rsqrt" stack_frame_id=602}
  %mul.1168 = f32[4,1,1]{2,1,0} broadcast(%rsqrt.121), dimensions={0,1,2}, metadata={op_name="jit(_generate_jit)/TransformerLinenPure.apply/TransformerLinenPure/decoder/decoder.apply_output_head/decoder_norm/mul" stack_frame_id=603}
  %mul.1169 = f32[4,1]{1,0} reshape(%mul.1168), metadata={op_name="jit(_generate_jit)/TransformerLinenPure.apply/TransformerLinenPure/decoder/decoder.apply_output_head/decoder_norm/mul" stack_frame_id=603}
  %mul.1170 = f32[4,1,2560]{2,1,0} broadcast(%mul.1169), dimensions={0,1}, metadata={op_name="jit(_generate_jit)/TransformerLinenPure.apply/TransformerLinenPure/decoder/decoder.apply_output_head/decoder_norm/mul" stack_frame_id=603}
  %mul.1171 = f32[4,1,2560]{1,0,2} multiply(%convert_element_type.751, %mul.1170), metadata={op_name="jit(_generate_jit)/TransformerLinenPure.apply/TransformerLinenPure/decoder/decoder.apply_output_head/decoder_norm/mul" stack_frame_id=603}
  %convert_element_type.752 = bf16[4,1,2560]{1,0,2} convert(%mul.1171), metadata={op_name="jit(_generate_jit)/TransformerLinenPure.apply/TransformerLinenPure/decoder/decoder.apply_output_head/decoder_norm/convert_element_type" stack_frame_id=604}
  %dot_general.342 = bf16[2560,4,1]{2,1,0} dot(%convert_element_type.753, %convert_element_type.752), lhs_batch_dims={0}, lhs_contracting_dims={}, rhs_batch_dims={2}, rhs_contracting_dims={}, metadata={op_name="jit(_generate_jit)/TransformerLinenPure.apply/TransformerLinenPure/decoder/decoder.apply_output_head/decoder_norm/...k,k->...k/dot_general" stack_frame_id=605}
  %transpose.518 = bf16[4,1,2560]{1,0,2} transpose(%dot_general.342), dimensions={1,2,0}, metadata={op_name="jit(_generate_jit)/TransformerLinenPure.apply/TransformerLinenPure/decoder/decoder.apply_output_head/decoder_norm/...k,k->...k/transpose" stack_frame_id=605}
  %convert_element_type.754 = bf16[262144,2560]{1,0} convert(%params__params____token_embedder____embedding__.1), metadata={op_name="jit(_generate_jit)/TransformerLinenPure.apply/TransformerLinenPure/decoder/decoder.apply_output_head/convert_element_type" stack_frame_id=607}
  %transpose.519 = bf16[2560,262144]{0,1} transpose(%convert_element_type.754), dimensions={1,0}, metadata={op_name="jit(_generate_jit)/TransformerLinenPure.apply/TransformerLinenPure/decoder/decoder.apply_output_head/transpose" stack_frame_id=607}
  %dot_general.343 = bf16[4,1,262144]{2,1,0} dot(%transpose.518, %transpose.519), lhs_contracting_dims={2}, rhs_contracting_dims={0}, metadata={op_name="jit(_generate_jit)/TransformerLinenPure.apply/TransformerLinenPure/decoder/decoder.apply_output_head/dot_general" stack_frame_id=608}
  %constant.168 = bf16[] constant(50.5)
  %div.387 = bf16[4,1,262144]{2,1,0} broadcast(%constant.168), dimensions={}, metadata={op_name="jit(_generate_jit)/TransformerLinenPure.apply/TransformerLinenPure/decoder/decoder.apply_output_head/div" stack_frame_id=609}
  %div.485 = bf16[4,1,262144]{2,1,0} divide(%dot_general.343, %div.387), metadata={op_name="jit(_generate_jit)/TransformerLinenPure.apply/TransformerLinenPure/decoder/decoder.apply_output_head/div" stack_frame_id=609}
  %convert_element_type.755 = f32[4,1,262144]{2,1,0} convert(%div.485), metadata={op_name="jit(_generate_jit)/TransformerLinenPure.apply/TransformerLinenPure/decoder/decoder.apply_output_head/convert_element_type" stack_frame_id=610}
  %sharding_constraint.221 = f32[4,1,262144]{2,1,0} custom-call(%convert_element_type.755), custom_call_target="Sharding", sharding={replicated}, frontend_attributes={xla.sdy.sharding="#sdy.sharding_per_value<[<@mesh, [{}, {}, {}]>]>"}, metadata={op_name="jit(_generate_jit)/sharding_constraint" stack_frame_id=611}
  %add.336 = s32[4,1]{1,0} add(%decode_state__next_pos__.1, %broadcast.99), metadata={op_name="jit(_generate_jit)/add" stack_frame_id=612}
  %constant.167 = f32[] constant(0)
  %broadcast.85 = f32[4,1]{1,0} broadcast(%constant.167), dimensions={}
  %jit__generate_jit_.3 = s32[4,1]{1,0} call(%sharding_constraint.221), to_apply=%argmax.143, metadata={op_name="jit(_generate_jit)" stack_frame_id=614}
  %concatenate.121 = s32[4,3]{1,0} concatenate(%jit__generate_jit_.3, %broadcast.99, %add.337), dimensions={1}, metadata={op_name="jit(_generate_jit)/concatenate" stack_frame_id=615}
  ROOT %tuple.7 = (s32[5,1]{1,0}, s32[5,4,1984]{2,1,0}, s32[5,4,64]{2,1,0}, bf16[5,1984,4,4,256]{4,3,2,1,0}, s32[5,4]{1,0}, /*index=5*/bf16[5,1984,4,4,256]{4,3,2,1,0}, bf16[5,64,4,4,256]{4,3,2,1,0}, bf16[5,64,4,4,256]{4,3,2,1,0}, s32[5,1]{1,0}, s32[5,4,1984]{2,1,0}, /*index=10*/s32[5,4,64]{2,1,0}, bf16[5,1984,4,4,256]{4,3,2,1,0}, s32[5,4]{1,0}, bf16[5,1984,4,4,256]{4,3,2,1,0}, bf16[5,64,4,4,256]{4,3,2,1,0}, /*index=15*/bf16[5,64,4,4,256]{4,3,2,1,0}, s32[5,1]{1,0}, s32[5,4,1984]{2,1,0}, s32[5,4,64]{2,1,0}, bf16[5,1984,4,4,256]{4,3,2,1,0}, /*index=20*/s32[5,4]{1,0}, bf16[5,1984,4,4,256]{4,3,2,1,0}, bf16[5,64,4,4,256]{4,3,2,1,0}, bf16[5,64,4,4,256]{4,3,2,1,0}, s32[5,1]{1,0}, /*index=25*/s32[5,4,1984]{2,1,0}, s32[5,4,64]{2,1,0}, bf16[5,1984,4,4,256]{4,3,2,1,0}, s32[5,4]{1,0}, bf16[5,1984,4,4,256]{4,3,2,1,0}, /*index=30*/bf16[5,64,4,4,256]{4,3,2,1,0}, bf16[5,64,4,4,256]{4,3,2,1,0}, s32[5,1]{1,0}, s32[5,4,1984]{2,1,0}, s32[5,4,64]{2,1,0}, /*index=35*/bf16[5,1984,4,4,256]{4,3,2,1,0}, s32[5,4]{1,0}, bf16[5,1984,4,4,256]{4,3,2,1,0}, bf16[5,64,4,4,256]{4,3,2,1,0}, bf16[5,64,4,4,256]{4,3,2,1,0}, /*index=40*/s32[5,1]{1,0}, s32[5,4,1984]{2,1,0}, s32[5,4,64]{2,1,0}, bf16[5,1984,4,4,256]{4,3,2,1,0}, s32[5,4]{1,0}, /*index=45*/bf16[5,1984,4,4,256]{4,3,2,1,0}, bf16[5,64,4,4,256]{4,3,2,1,0}, bf16[5,64,4,4,256]{4,3,2,1,0}, s32[1]{0}, s32[4,1984]{1,0}, /*index=50*/s32[4,64]{1,0}, bf16[1984,4,4,256]{3,2,1,0}, s32[4]{0}, bf16[1984,4,4,256]{3,2,1,0}, bf16[64,4,4,256]{3,2,1,0}, /*index=55*/bf16[64,4,4,256]{3,2,1,0}, s32[1]{0}, s32[4,1984]{1,0}, s32[4,64]{1,0}, bf16[1984,4,4,256]{3,2,1,0}, /*index=60*/s32[4]{0}, bf16[1984,4,4,256]{3,2,1,0}, bf16[64,4,4,256]{3,2,1,0}, bf16[64,4,4,256]{3,2,1,0}, s32[1]{0}, /*index=65*/s32[4,1984]{1,0}, s32[4,64]{1,0}, bf16[1984,4,4,256]{3,2,1,0}, s32[4]{0}, bf16[1984,4,4,256]{3,2,1,0}, /*index=70*/bf16[64,4,4,256]{3,2,1,0}, bf16[64,4,4,256]{3,2,1,0}, s32[1]{0}, s32[4,1984]{1,0}, s32[4,64]{1,0}, /*index=75*/bf16[1984,4,4,256]{3,2,1,0}, s32[4]{0}, bf16[1984,4,4,256]{3,2,1,0}, bf16[64,4,4,256]{3,2,1,0}, bf16[64,4,4,256]{3,2,1,0}, /*index=80*/s32[4,1]{1,0}, f32[4,1,262144]{2,1,0}, s32[4,1]{1,0}, f32[4,1]{1,0}, s32[4,1]{1,0}, /*index=85*/s32[4,3]{1,0}, f32[4,1]{1,0}) tuple(%sharding_constraint.222, %sharding_constraint.223, %sharding_constraint.224, %sharding_constraint.225, %sharding_constraint.226, /*index=5*/%sharding_constraint.227, %sharding_constraint.228, %sharding_constraint.229, %sharding_constraint.230, %sharding_constraint.231, /*index=10*/%sharding_constraint.232, %sharding_constraint.233, %sharding_constraint.234, %sharding_constraint.235, %sharding_constraint.236, /*index=15*/%sharding_constraint.237, %sharding_constraint.238, %sharding_constraint.239, %sharding_constraint.240, %sharding_constraint.241, /*index=20*/%sharding_constraint.242, %sharding_constraint.243, %sharding_constraint.244, %sharding_constraint.245, %sharding_constraint.246, /*index=25*/%sharding_constraint.247, %sharding_constraint.248, %sharding_constraint.249, %sharding_constraint.250, %sharding_constraint.251, /*index=30*/%sharding_constraint.252, %sharding_constraint.253, %sharding_constraint.254, %sharding_constraint.255, %sharding_constraint.256, /*index=35*/%sharding_constraint.257, %sharding_constraint.258, %sharding_constraint.259, %sharding_constraint.260, %sharding_constraint.261, /*index=40*/%sharding_constraint.262, %sharding_constraint.263, %sharding_constraint.264, %sharding_constraint.265, %sharding_constraint.266, /*index=45*/%sharding_constraint.267, %sharding_constraint.268, %sharding_constraint.269, %sharding_constraint.270, %sharding_constraint.271, /*index=50*/%sharding_constraint.272, %sharding_constraint.273, %sharding_constraint.274, %sharding_constraint.275, %sharding_constraint.276, /*index=55*/%sharding_constraint.277, %sharding_constraint.278, %sharding_constraint.279, %sharding_constraint.280, %sharding_constraint.281, /*index=60*/%sharding_constraint.282, %sharding_constraint.283, %sharding_constraint.284, %sharding_constraint.285, %sharding_constraint.286, /*index=65*/%sharding_constraint.287, %sharding_constraint.288, %sharding_constraint.289, %sharding_constraint.290, %sharding_constraint.291, /*index=70*/%sharding_constraint.292, %sharding_constraint.293, %sharding_constraint.294, %sharding_constraint.295, %sharding_constraint.296, /*index=75*/%sharding_constraint.297, %sharding_constraint.298, %sharding_constraint.299, %sharding_constraint.300, %sharding_constraint.301, /*index=80*/%add.337, %sharding_constraint.221, %add.336, %broadcast.85, %jit__generate_jit_.3, /*index=85*/%concatenate.121, %broadcast.85)
}

