HloModule jit_apply_fn, entry_computation_layout={(f32[4,128]{1,0}, f32[4,128]{1,0}, bf16[4,128,128]{2,1,0}, bf16[4,4,32,128]{3,2,1,0}, bf16[4,128,128]{2,1,0}, /*index=5*/bf16[4,128,4]{2,1,0}, bf16[4,4,32,128]{3,2,1,0}, bf16[4,128,4,32]{3,2,1,0}, f32[4,128]{1,0}, f32[4,128]{1,0}, /*index=10*/bf16[4,128,128]{2,1,0}, bf16[4,4,32,128]{3,2,1,0}, bf16[4,128,128]{2,1,0}, bf16[4,128,4]{2,1,0}, bf16[4,4,32,128]{3,2,1,0}, /*index=15*/bf16[4,128,4,32]{3,2,1,0}, f32[4,128]{1,0}, f32[4,128]{1,0}, bf16[4,128,1024]{2,1,0}, bf16[4,512,128]{2,1,0}, /*index=20*/bf16[4,384,384]{2,1,0}, bf16[4,384,16,24]{3,2,1,0}, f32[4,384]{1,0}, f32[4,384]{1,0}, bf16[4,16,24]{2,1,0}, /*index=25*/bf16[4,384,16,24]{3,2,1,0}, bf16[4,384,384]{2,1,0}, bf16[4,384,16,24]{3,2,1,0}, f32[4,128]{1,0}, f32[4,128]{1,0}, /*index=30*/bf16[4,128,16]{2,1,0}, f32[4,384]{1,0}, f32[4,384]{1,0}, bf16[4,384,3072]{2,1,0}, bf16[4,1536,384]{2,1,0}, /*index=35*/f32[4,128]{1,0}, f32[4,128]{1,0}, bf16[4,128,256]{2,1,0}, bf16[4,128,128]{2,1,0}, f32[4,128]{1,0}, /*index=40*/f32[4,128]{1,0}, bf16[4,128,128]{2,1,0}, bf16[4,128,256]{2,1,0}, f32[4,128]{1,0}, f32[4,128]{1,0}, /*index=45*/bf16[4,128,256]{2,1,0}, bf16[4,128,128]{2,1,0}, f32[4,128]{1,0}, f32[4,128]{1,0}, bf16[4,128,128]{2,1,0}, /*index=50*/bf16[4,128,256]{2,1,0}, f32[384]{0}, f32[384]{0}, f32[384,24,2]{2,1,0}, f32[128,64]{1,0}, /*index=55*/f32[128]{0}, f32[128]{0}, f32[128,64]{1,0}, f32[128]{0}, f32[128]{0}, /*index=60*/f32[384,24,50]{2,1,0}, f32[384]{0}, f32[384]{0}, bf16[39,128]{1,0}, bf16[447,128]{1,0}, /*index=65*/bf16[447,128]{1,0}, f32[128,64]{1,0}, f32[4,64]{1,0}, f32[4,64]{1,0}, bf16[4,64,64]{2,1,0}, /*index=70*/bf16[4,64,64]{2,1,0}, bf16[4,128,8]{2,1,0}, f32[4,128]{1,0}, f32[4,128]{1,0}, bf16[4,64,8,8]{3,2,1,0}, /*index=75*/f32[4,64]{1,0}, f32[4,64]{1,0}, bf16[4,64,512]{2,1,0}, bf16[4,256,64]{2,1,0}, bf16[4,128]{1,0}, /*index=80*/bf16[4,32,32,128]{3,2,1,0}, f32[4,64]{1,0}, f32[4,64]{1,0}, bf16[4,64,32]{2,1,0}, bf16[4,64,32]{2,1,0}, /*index=85*/f32[4,128]{1,0}, f32[4,128]{1,0}, bf16[4,128,128]{2,1,0}, bf16[4,4,32,128]{3,2,1,0}, bf16[4,128,128]{2,1,0}, /*index=90*/bf16[4,128,4]{2,1,0}, bf16[4,4,32,128]{3,2,1,0}, bf16[4,128,4,32]{3,2,1,0}, f32[4,128]{1,0}, f32[4,128]{1,0}, /*index=95*/bf16[4,128,128]{2,1,0}, bf16[4,4,32,128]{3,2,1,0}, bf16[4,128,128]{2,1,0}, bf16[4,128,4]{2,1,0}, bf16[4,4,32,128]{3,2,1,0}, /*index=100*/bf16[4,128,4,32]{3,2,1,0}, f32[4,128]{1,0}, f32[4,128]{1,0}, bf16[4,128,1024]{2,1,0}, bf16[4,512,128]{2,1,0}, /*index=105*/f32[4,128]{1,0}, f32[4,128]{1,0}, bf16[4,128,256]{2,1,0}, bf16[4,128,128]{2,1,0}, f32[4,128]{1,0}, /*index=110*/f32[4,128]{1,0}, bf16[4,128,128]{2,1,0}, bf16[4,128,256]{2,1,0}, f32[4,128]{1,0}, f32[4,128]{1,0}, /*index=115*/bf16[4,128,256]{2,1,0}, bf16[4,128,128]{2,1,0}, f32[4,128]{1,0}, f32[4,128]{1,0}, bf16[4,128,128]{2,1,0}, /*index=120*/bf16[4,128,256]{2,1,0}, f32[48,128]{1,0}, f32[48,128]{1,0}, bf16[48,128,128]{2,1,0}, bf16[48,4,32,128]{3,2,1,0}, /*index=125*/bf16[48,128,128]{2,1,0}, bf16[48,128,4]{2,1,0}, bf16[48,4,32,128]{3,2,1,0}, bf16[48,128,4,32]{3,2,1,0}, f32[48,128]{1,0}, /*index=130*/f32[48,128]{1,0}, bf16[48,128,128]{2,1,0}, bf16[48,4,32,128]{3,2,1,0}, bf16[48,128,128]{2,1,0}, bf16[48,128,4]{2,1,0}, /*index=135*/bf16[48,4,32,128]{3,2,1,0}, bf16[48,128,4,32]{3,2,1,0}, f32[48,128]{1,0}, f32[48,128]{1,0}, bf16[48,128,1024]{2,1,0}, /*index=140*/bf16[48,512,128]{2,1,0}, bf16[48,384,384]{2,1,0}, bf16[48,384,16,24]{3,2,1,0}, f32[48,384]{1,0}, f32[48,384]{1,0}, /*index=145*/bf16[48,16,24]{2,1,0}, bf16[48,384,16,24]{3,2,1,0}, bf16[48,384,384]{2,1,0}, bf16[48,384,16,24]{3,2,1,0}, f32[48,128]{1,0}, /*index=150*/f32[48,128]{1,0}, bf16[48,128,16]{2,1,0}, f32[48,384]{1,0}, f32[48,384]{1,0}, bf16[48,384,3072]{2,1,0}, /*index=155*/bf16[48,1536,384]{2,1,0}, f32[48,128]{1,0}, f32[48,128]{1,0}, bf16[48,128,256]{2,1,0}, bf16[48,128,128]{2,1,0}, /*index=160*/f32[48,128]{1,0}, f32[48,128]{1,0}, bf16[48,128,128]{2,1,0}, bf16[48,128,256]{2,1,0}, f32[48,128]{1,0}, /*index=165*/f32[48,128]{1,0}, bf16[48,128,256]{2,1,0}, bf16[48,128,128]{2,1,0}, f32[48,128]{1,0}, f32[48,128]{1,0}, /*index=170*/bf16[48,128,128]{2,1,0}, bf16[48,128,256]{2,1,0}, bf16[1,128]{1,0}, bf16[447,64]{1,0}, bf16[447,128]{1,0}, /*index=175*/bf16[34,64]{1,0}, bf16[128,128]{1,0}, f32[128]{0}, f32[128]{0}, bf16[384,384]{1,0}, /*index=180*/f32[384]{0}, f32[384]{0}, bf16[447,128]{1,0}, bf16[447,384]{1,0}, bf16[64,128]{1,0}, /*index=185*/f32[2,64]{1,0}, f32[2,64]{1,0}, bf16[2,64,64]{2,1,0}, bf16[2,4,16,64]{3,2,1,0}, bf16[2,64,64]{2,1,0}, /*index=190*/bf16[2,64,4]{2,1,0}, bf16[2,4,16,64]{3,2,1,0}, bf16[2,64,4,16]{3,2,1,0}, f32[2,64]{1,0}, f32[2,64]{1,0}, /*index=195*/bf16[2,64,64]{2,1,0}, bf16[2,4,16,64]{3,2,1,0}, bf16[2,64,64]{2,1,0}, bf16[2,64,4]{2,1,0}, bf16[2,4,16,64]{3,2,1,0}, /*index=200*/bf16[2,64,4,16]{3,2,1,0}, f32[2,64]{1,0}, f32[2,64]{1,0}, bf16[2,64,256]{2,1,0}, bf16[2,128,64]{2,1,0}, /*index=205*/f32[2,64]{1,0}, f32[2,64]{1,0}, bf16[2,64,128]{2,1,0}, bf16[2,64,64]{2,1,0}, f32[2,64]{1,0}, /*index=210*/f32[2,64]{1,0}, bf16[2,64,64]{2,1,0}, bf16[2,64,128]{2,1,0}, f32[2,64]{1,0}, f32[2,64]{1,0}, /*index=215*/bf16[2,64,128]{2,1,0}, bf16[2,64,64]{2,1,0}, f32[2,64]{1,0}, f32[2,64]{1,0}, bf16[2,64,64]{2,1,0}, /*index=220*/bf16[2,64,128]{2,1,0}, f32[64]{0}, f32[64]{0}, f32[128]{0}, f32[128]{0}, /*index=225*/bf16[39,64]{1,0}, bf16[64]{0}, bf16[31,64]{1,0}, bf16[31,64]{1,0}, bf16[64]{0}, /*index=230*/bf16[64]{0}, bf16[64]{0}, bf16[64]{0}, bf16[128,64]{1,0}, bf16[139,128]{1,0}, /*index=235*/f32[3,128]{1,0}, f32[3,128,128]{2,1,0}, f32[3,128]{1,0}, f32[3,128,128]{2,1,0}, f32[3,128,128]{2,1,0}, /*index=240*/f32[3,128]{1,0}, f32[3,128]{1,0}, f32[3,128,128]{2,1,0}, f32[3,128,512]{2,1,0}, f32[3,256,128]{2,1,0}, /*index=245*/f32[3,128,128]{2,1,0}, f32[3,128,4,32]{3,2,1,0}, f32[3,128,128]{2,1,0}, f32[3,128]{1,0}, f32[3,128]{1,0}, /*index=250*/f32[3,128,128]{2,1,0}, f32[3,4,32]{2,1,0}, f32[3,128,4,32]{3,2,1,0}, f32[3,128,128]{2,1,0}, f32[3,128]{1,0}, /*index=255*/f32[3,128]{1,0}, f32[3,128,128]{2,1,0}, f32[3,128,128]{2,1,0}, f32[3,128,4,32]{3,2,1,0}, f32[16]{0}, /*index=260*/f32[16,3,4]{2,1,0}, f32[1,16]{1,0}, f32[3,16]{1,0}, f32[1,16]{1,0}, f32[256,128]{1,0}, /*index=265*/f32[1,128]{1,0}, f32[128,128]{1,0}, f32[1,128]{1,0}, f32[3,128]{1,0}, f32[16,16]{1,0}, /*index=270*/f32[16,16]{1,0}, f32[16,16]{1,0}, f32[128,384]{1,0}, f32[128,16]{1,0}, f32[128,16]{1,0}, /*index=275*/f32[128]{0}, f32[128,3]{1,0}, f32[3,128]{1,0}, f32[3,128]{1,0}, f32[3,128,128]{2,1,0}, /*index=280*/f32[3,128]{1,0}, f32[3,128,128]{2,1,0}, f32[3,128,128]{2,1,0}, f32[3,128]{1,0}, f32[3,128]{1,0}, /*index=285*/f32[3,128,128]{2,1,0}, f32[3,128,512]{2,1,0}, f32[3,256,128]{2,1,0}, f32[3,128,128]{2,1,0}, f32[3,128,4,32]{3,2,1,0}, /*index=290*/f32[3,128,128]{2,1,0}, f32[3,128]{1,0}, f32[3,128]{1,0}, f32[3,128,128]{2,1,0}, f32[3,4,32]{2,1,0}, /*index=295*/f32[3,128,4,32]{3,2,1,0}, f32[3,128,128]{2,1,0}, f32[3,128]{1,0}, f32[3,128]{1,0}, f32[3,128,128]{2,1,0}, /*index=300*/f32[3,128,128]{2,1,0}, f32[3,128,4,32]{3,2,1,0}, f32[16]{0}, f32[16,3,4]{2,1,0}, f32[3,128]{1,0}, /*index=305*/f32[3,128,128]{2,1,0}, f32[3,128]{1,0}, f32[3,128,128]{2,1,0}, f32[3,128,128]{2,1,0}, f32[3,128]{1,0}, /*index=310*/f32[3,128]{1,0}, f32[3,128,128]{2,1,0}, f32[3,128,512]{2,1,0}, f32[3,256,128]{2,1,0}, f32[3,128,128]{2,1,0}, /*index=315*/f32[3,128,4,32]{3,2,1,0}, f32[3,128,128]{2,1,0}, f32[3,128]{1,0}, f32[3,128]{1,0}, f32[3,128,128]{2,1,0}, /*index=320*/f32[3,4,32]{2,1,0}, f32[3,128,4,32]{3,2,1,0}, f32[3,128,128]{2,1,0}, f32[3,128]{1,0}, f32[3,128]{1,0}, /*index=325*/f32[3,128,128]{2,1,0}, f32[3,128,128]{2,1,0}, f32[3,128,4,32]{3,2,1,0}, f32[16]{0}, f32[16,3,4]{2,1,0}, /*index=330*/f32[1,16]{1,0}, f32[3,16]{1,0}, f32[1,16]{1,0}, f32[256,128]{1,0}, f32[1,128]{1,0}, /*index=335*/f32[128,128]{1,0}, f32[1,128]{1,0}, f32[3,128]{1,0}, f32[128,16]{1,0}, f32[384,128]{1,0}, /*index=340*/f32[128]{0}, f32[384]{0}, f32[16,16]{1,0}, f32[16,16]{1,0}, f32[16,16]{1,0}, /*index=345*/f32[128,768]{1,0}, f32[768,128]{1,0}, f32[128,16]{1,0}, f32[128,16]{1,0}, f32[256]{0}, /*index=350*/f32[256,384]{1,0}, f32[768]{0}, f32[267]{0}, f32[267,128]{1,0}, f32[128]{0}, /*index=355*/f32[128]{0}, f32[128,512]{1,0}, f32[256,128]{1,0}, f32[128]{0}, f32[128]{0}, /*index=360*/f32[128,512]{1,0}, f32[256,128]{1,0}, f32[384]{0}, f32[384,768]{1,0}, f32[831]{0}, /*index=365*/f32[831,384]{1,0}, f32[384]{0}, f32[384]{0}, f32[384,1536]{1,0}, f32[768,384]{1,0}, /*index=370*/f32[384]{0}, f32[384]{0}, f32[384,1536]{1,0}, f32[768,384]{1,0}, f32[6,4,768]{2,1,0}, /*index=375*/f32[6,4,384,768]{3,2,1,0}, f32[6,4,768]{2,1,0}, f32[6,4,384,768]{3,2,1,0}, f32[6,4,384,768]{3,2,1,0}, f32[6,4,384]{2,1,0}, /*index=380*/f32[6,4,768]{2,1,0}, f32[6,4,384,768]{3,2,1,0}, f32[6,4,768,3072]{3,2,1,0}, f32[6,4,1536,768]{3,2,1,0}, f32[6,4,768,768]{3,2,1,0}, /*index=385*/f32[6,4,768,16,48]{4,3,2,1,0}, f32[6,4,16,48]{3,2,1,0}, f32[6,4,768,16,48]{4,3,2,1,0}, f32[6,4,384,768]{3,2,1,0}, f32[6,4,384]{2,1,0}, /*index=390*/f32[6,4,768]{2,1,0}, f32[6,4,384,768]{3,2,1,0}, f32[6,4,768,768]{3,2,1,0}, f32[6,4,768,16,48]{4,3,2,1,0}, f32[6,128,4,16]{3,2,1,0}, /*index=395*/f32[128]{0}, u32[2]{0}, s32[150]{0}, s32[150]{0}, s8[16384,150]{1,0}, /*index=400*/f32[150]{0}, s32[150]{0}, s8[16384,150]{1,0}, pred[16384,150]{1,0}, pred[150,24]{1,0}, /*index=405*/f32[150,31]{1,0}, s32[113,128]{1,0}, pred[113,128]{1,0}, s32[150,24]{1,0}, pred[150,24]{1,0}, /*index=410*/s32[150,24,4]{2,1,0}, f32[150,24]{1,0}, s32[150,24]{1,0}, pred[150,24]{1,0}, f32[150,24,3]{2,1,0}, /*index=415*/s32[150,24]{1,0}, s32[150]{0}, pred[150]{0}, s32[150]{0}, s32[4,150]{1,0}, /*index=420*/pred[4,150,24]{2,1,0}, f32[4,150,24,3]{3,2,1,0}, s32[150]{0}, pred[150]{0}, s32[113,32]{1,0}, /*index=425*/pred[113,32]{1,0}, s32[150]{0}, s32[113,128]{1,0}, pred[113,128]{1,0}, s32[1500,2]{1,0}, /*index=430*/pred[1500,2]{1,0}, s32[150,2]{1,0}, pred[150,2]{1,0}, s32[113,32]{1,0}, pred[113,32]{1,0})->(f32[1]{0}, f32[1,150,24,3]{3,2,1,0}, pred[1,150,24]{2,1,0}, f32[63]{0}, f32[150,150]{1,0}, /*index=5*/f32[1,150,150]{2,1,0}, f32[1,150,150]{2,1,0}, f32[1,150,24]{2,1,0}, f32[1,150,24]{2,1,0}, f32[1,150,150]{2,1,0}, /*index=10*/f32[1,150,150]{2,1,0})}, allow_spmd_sharding_propagation_to_parameters={false,false,false,false,false,false,false,false,false,false,false,false,false,false,false,false,false,false,false,false,false,false,false,false,false,false,false,false,false,false,false,false,false,false,false,false,false,false,false,false,false,false,false,false,false,false,false,false,false,false,false,false,false,false,false,false,false,false,false,false,false,false,false,false,false,false,false,false,false,false,false,false,false,false,false,false,false,false,false,false,false,false,false,false,false,false,false,false,false,false,false,false,false,false,false,false,false,false,false,false,false,false,false,false,false,false,false,false,false,false,false,false,false,false,false,false,false,false,false,false,false,false,false,false,false,false,false,false,false,false,false,false,false,false,false,false,false,false,false,false,false,false,false,false,false,false,false,false,false,false,false,false,false,false,false,false,false,false,false,false,false,false,false,false,false,false,false,false,false,false,false,false,false,false,false,false,false,false,false,false,false,false,false,false,false,false,false,false,false,false,false,false,false,false,false,false,false,false,false,false,false,false,false,false,false,false,false,false,false,false,false,false,false,false,false,false,false,false,false,false,false,false,false,false,false,false,false,false,false,false,false,false,false,false,false,false,false,false,false,false,false,false,false,false,false,false,false,false,false,false,false,false,false,false,false,false,false,false,false,false,false,false,false,false,false,false,false,false,false,false,false,false,false,false,false,false,false,false,false,false,false,false,false,false,false,false,false,false,false,false,false,false,false,false,false,false,false,false,false,false,false,false,false,false,false,false,false,false,false,false,false,false,false,false,false,false,false,false,false,false,false,false,false,false,false,false,false,false,false,false,false,false,false,false,false,false,false,false,false,false,false,false,false,false,false,false,false,false,false,false,false,false,false,false,false,false,false,false,false,false,false,false,false,false,false,false,false,false,false,false,false,false,false,false,false,false,false,false,false,false,false,false,false,false,false,false,false,false,false,false,false,false,false,false,false,false,false,false,false,false,false,false,false,false,false,false,false,false,false,false,false,false,false,false,false,false,false,false,false,false,false,false,false,false,false,false,false,false,false,false,false,false,false,false,false}, allow_spmd_sharding_propagation_to_output={false,false,false,false,false,false,false,false,false,false,false}, num_partitions=2, frontend_attributes={xla.sdy.meshes={mesh = #sdy.mesh<["fsdp"=2]>}}

FileNames
1 "/usr/local/lib/python3.12/dist-packages/haiku/_src/transform.py"
2 "/root/hlo_dump/af3_mgpu.py"
3 "/usr/local/lib/python3.12/dist-packages/haiku/_src/module.py"
4 "/usr/local/lib/python3.12/dist-packages/alphafold3/model/model.py"
5 "/usr/local/lib/python3.12/dist-packages/haiku/_src/base.py"
6 "/usr/local/lib/python3.12/dist-packages/alphafold3/model/network/atom_cross_attention.py"
7 "/usr/local/lib/python3.12/dist-packages/alphafold3/model/network/diffusion_transformer.py"
8 "/usr/local/lib/python3.12/dist-packages/alphafold3/model/components/haiku_modules.py"
9 "/usr/local/lib/python3.12/dist-packages/haiku/_src/layer_norm.py"
10 "/usr/local/lib/python3.12/dist-packages/haiku/_src/layer_stack.py"
11 "/usr/local/lib/python3.12/dist-packages/alphafold3/model/atom_layout/atom_layout.py"
12 "/usr/local/lib/python3.12/dist-packages/tokamax/_src/ops/gated_linear_unit/api.py"
13 "/usr/local/lib/python3.12/dist-packages/tokamax/_src/ops/op.py"
14 "/usr/local/lib/python3.12/dist-packages/tokamax/_src/batching.py"
15 "/usr/local/lib/python3.12/dist-packages/jaxtyping/_decorator.py"
16 "/usr/local/lib/python3.12/dist-packages/tokamax/_src/ops/gated_linear_unit/base.py"
17 "/usr/local/lib/python3.12/dist-packages/alphafold3/model/components/utils.py"
18 "/usr/local/lib/python3.12/dist-packages/haiku/_src/stateful.py"
19 "/usr/local/lib/python3.12/dist-packages/alphafold3/model/network/evoformer.py"
20 "/usr/local/lib/python3.12/dist-packages/alphafold3/model/network/template_modules.py"
21 "/usr/local/lib/python3.12/dist-packages/alphafold3/model/network/modules.py"
22 "/usr/local/lib/python3.12/dist-packages/alphafold3/model/components/mapping.py"
23 "/usr/local/lib/python3.12/dist-packages/tokamax/_src/ops/attention/api.py"
24 "/usr/local/lib/python3.12/dist-packages/tokamax/_src/ops/attention/base.py"
25 "/usr/local/lib/python3.12/dist-packages/alphafold3/jax/geometry/vector.py"
26 "/usr/local/lib/python3.12/dist-packages/alphafold3/model/scoring/scoring.py"
27 "/usr/local/lib/python3.12/dist-packages/alphafold3/jax/geometry/utils.py"
28 "/usr/local/lib/python3.12/dist-packages/alphafold3/jax/geometry/rotation_matrix.py"
29 "/usr/local/lib/python3.12/dist-packages/alphafold3/jax/geometry/struct_of_array.py"
30 "/usr/local/lib/python3.12/dist-packages/alphafold3/jax/geometry/rigid_matrix_vector.py"
31 "/usr/local/lib/python3.12/dist-packages/alphafold3/model/network/featurization.py"
32 "/usr/local/lib/python3.12/dist-packages/alphafold3/model/features.py"
33 "/usr/local/lib/python3.12/dist-packages/alphafold3/model/network/diffusion_head.py"
34 "/usr/local/lib/python3.12/dist-packages/alphafold3/model/network/noise_level_embeddings.py"
35 "/usr/local/lib/python3.12/dist-packages/alphafold3/model/network/confidence_head.py"
36 "/usr/local/lib/python3.12/dist-packages/alphafold3/model/network/distogram_head.py"

FunctionNames
1 "without_state.<locals>.apply_fn"
2 "transform_with_state.<locals>.apply_fn"
3 "forward_fn"
4 "wrap_method.<locals>.wrapped"
5 "run_interceptors"
6 "Model.__call__"
7 "next_rng_key"
8 "next_rng_key_internal"
9 "PRNGSequence.__next__"
10 "PRNGSequence.reserve"
11 "<module>"
12 "create_target_feat_embedding"
13 "atom_cross_att_encoder"
14 "CrossAttTransformer.__call__"
15 "LayerNorm.__call__"
16 "layer_stack.<locals>.iterate.<locals>.wrapped"
17 "_LayerStack.__call__"
18 "_LayerStack.__call__.<locals>.layer"
19 "_LayerStackWithPerLayer._call_wrapped"
20 "CrossAttTransformer.__call__.<locals>.block"
21 "cross_attention"
22 "adaptive_layernorm"
23 "transition_block"
24 "convert"
25 "Linear.__call__"
26 "adaptive_zero_init"
27 "gated_linear_unit"
28 "Op.__call__"
29 "Op.__call__.<locals>.f"
30 "capture_batched_args.<locals>.wrapped"
31 "capture_batched_args.<locals>.wrapped.<locals>.fn_flat"
32 "Op.__call__.<locals>.fwd"
33 "jaxtyped.<locals>.wrapped_fn"
34 "jaxtyped.<locals>.wrapped_fn_impl"
35 "GatedLinearUnit._fwd"
36 "mask_mean"
37 "fori_loop.<locals>.pure_body_fun"
38 "Model.__call__.<locals>.recycle_body"
39 "Evoformer.__call__"
40 "Evoformer._embed_bonds"
41 "Evoformer._embed_template_pair"
42 "TemplateEmbedding.__call__"
43 "scan"
44 "scan.<locals>.stateful_fun"
45 "TemplateEmbedding.__call__.<locals>.scan_fn"
46 "SingleTemplateEmbedding.__call__"
47 "SingleTemplateEmbedding.__call__.<locals>.construct_input"
48 "dgram_from_positions"
49 "_LayerStackNoPerLayer._call_wrapped"
50 "SingleTemplateEmbedding.__call__.<locals>.template_iteration_fn"
51 "PairFormerIteration.__call__"
52 "TriangleMultiplication.__call__"
53 "GridSelfAttention.__call__"
54 "inference_subbatch"
55 "sharded_apply.<locals>.mapped_fn"
56 "sharded_apply.<locals>.mapped_fn.<locals>.scan_iteration"
57 "sharded_apply.<locals>.mapped_fn.<locals>.compute_shard"
58 "sharded_apply.<locals>.mapped_fn.<locals>.apply_fun_to_slice"
59 "inference_subbatch.<locals>.run_module"
60 "GridSelfAttention._attention"
61 "dot_product_attention"
62 "DotProductAttention.__call__"
63 "DotProductAttention.__call__.<locals>.fwd_closed"
64 "_softmax"
65 "DotProductAttention._fwd"
66 "sharded_apply.<locals>.mapped_fn.<locals>.apply_fun_to_slice.<locals>.<lambda>"
67 "_maybe_slice"
68 "sharded_apply.<locals>.mapped_fn.<locals>.dynamic_update_slice_in_dim"
69 "TransitionBlock.__call__"
70 "Vec3Array.normalized"
71 "Vec3Array.norm"
72 "pseudo_beta_fn"
73 "Vec3Array.from_array"
74 "unstack"
75 "make_backbone_rigid"
76 "make_backbone_rigid.<locals>.<lambda>"
77 "Vec3Array.__sub__"
78 "Vec3Array.__sub__.<locals>.<lambda>"
79 "Rot3Array.from_two_vectors"
80 "Vec3Array.dot"
81 "Vec3Array.__truediv__"
82 "Vec3Array.__truediv__.<locals>.<lambda>"
83 "Vec3Array.__rmul__"
84 "Vec3Array.__mul__"
85 "Vec3Array.__mul__.<locals>.<lambda>"
86 "Vec3Array.cross"
87 "get_item"
88 "get_item.<locals>.<lambda>"
89 "Rigid3Array.inverse"
90 "Vec3Array.__neg__"
91 "Vec3Array.__neg__.<locals>.<lambda>"
92 "Rot3Array.apply_to_point"
93 "Rigid3Array.apply_to_point"
94 "Vec3Array.__add__"
95 "Vec3Array.__add__.<locals>.<lambda>"
96 "_get_rng_stack"
97 "maybe_next_rng_key"
98 "reserve_up_to_full_rng_block"
99 "PRNGSequence.reserve_up_to_full"
100 "Evoformer._embed_process_msa"
101 "shuffle_msa"
102 "gumbel_argsort_sample_idx"
103 "_padding_consistent_rng.<locals>.inner"
104 "_grid_keys"
105 "Evoformer._embed_process_msa.<locals>.evoformer_fn"
106 "EvoformerIteration.__call__"
107 "OuterProductMean.__call__"
108 "OuterProductMean.__call__.<locals>.compute_chunk"
109 "MSAAttention.__call__"
110 "Evoformer.__call__.<locals>.pairformer_fn"
111 "self_attention"
112 "create_msa_feat"
113 "Evoformer._relative_encoding"
114 "create_relative_encoding"
115 "Evoformer._seq_pair_embedding"
116 "MSA.index_msa_rows"
117 "truncate_msa_batch"
118 "fori_loop"
119 "Model._sample_diffusion"
120 "sample"
121 "vmap.<locals>.mapped_fun"
122 "vmap.<locals>.pure_fun"
123 "sample.<locals>.apply_denoising_step"
124 "random_augmentation"
125 "DiffusionHead.__call__"
126 "DiffusionHead._conditioning"
127 "Transformer.__call__"
128 "Transformer.__call__.<locals>.super_block"
129 "Transformer.__call__.<locals>.block"
130 "atom_cross_att_decoder"
131 "_per_atom_conditioning"
132 "noise_embeddings"
133 "random_rotation"
134 "capture_batched_args.<locals>.wrapped.<locals>.vmap_rule"
135 "capture_batched_args.<locals>.wrapped.<locals>.vmap_rule.<locals>.vmap_fn_flat"
136 "Model.__call__.<locals>.<lambda>"
137 "ConfidenceHead.__call__"
138 "ConfidenceHead._embed_features"
139 "ConfidenceHead.__call__.<locals>.pairformer_fn"
140 "ConfidenceHead._get_tmscore_adjusted_pae"
141 "ConfidenceHead._get_tmscore_adjusted_pae.<locals>.get_tmscore_adjusted_pae"
142 "DistogramHead.__call__"
143 "noise_schedule"
144 "create_target_feat"

FileLocations
1 {file_name_id=1 function_name_id=1 line=183 end_line=183 column=17 end_column=55}
2 {file_name_id=1 function_name_id=2 line=458 end_line=458 column=14 end_column=32}
3 {file_name_id=2 function_name_id=3 line=36 end_line=36 column=11 end_column=34}
4 {file_name_id=3 function_name_id=4 line=464 end_line=464 column=12 end_column=30}
5 {file_name_id=3 function_name_id=5 line=305 end_line=305 column=11 end_column=40}
6 {file_name_id=4 function_name_id=6 line=276 end_line=276 column=12 end_column=29}
7 {file_name_id=5 function_name_id=7 line=1152 end_line=1152 column=9 end_column=32}
8 {file_name_id=5 function_name_id=8 line=1191 end_line=1191 column=9 end_column=22}
9 {file_name_id=5 function_name_id=9 line=1094 end_line=1094 column=6 end_column=56}
10 {file_name_id=5 function_name_id=10 line=1067 end_line=1067 column=23 end_column=59}
11 {file_name_id=2 function_name_id=11 line=45 end_line=45 column=58 end_column=92}
12 {file_name_id=4 function_name_id=6 line=283 end_line=287 column=18 end_column=5}
13 {file_name_id=4 function_name_id=12 line=167 end_line=175 column=10 end_column=5}
14 {file_name_id=6 function_name_id=13 line=299 end_line=299 column=13 end_column=50}
15 {file_name_id=6 function_name_id=13 line=325 end_line=335 column=16 end_column=3}
16 {file_name_id=7 function_name_id=14 line=396 end_line=400 column=15 end_column=16}
17 {file_name_id=8 function_name_id=15 line=116 end_line=116 column=10 end_column=57}
18 {file_name_id=9 function_name_id=15 line=160 end_line=160 column=11 end_column=53}
19 {file_name_id=7 function_name_id=14 line=409 end_line=411 column=11 end_column=38}
20 {file_name_id=10 function_name_id=16 line=391 end_line=391 column=15 end_column=38}
21 {file_name_id=10 function_name_id=17 line=212 end_line=214 column=26 end_column=24}
22 {file_name_id=10 function_name_id=18 line=196 end_line=197 column=26 end_column=66}
23 {file_name_id=10 function_name_id=19 line=281 end_line=281 column=11 end_column=38}
24 {file_name_id=7 function_name_id=20 line=374 end_line=385 column=21 end_column=7}
25 {file_name_id=7 function_name_id=21 line=294 end_line=294 column=8 end_column=63}
26 {file_name_id=7 function_name_id=22 line=39 end_line=44 column=8 end_column=8}
27 {file_name_id=7 function_name_id=22 line=45 end_line=49 column=18 end_column=18}
28 {file_name_id=7 function_name_id=21 line=295 end_line=295 column=8 end_column=63}
29 {file_name_id=7 function_name_id=21 line=317 end_line=317 column=12 end_column=43}
30 {file_name_id=7 function_name_id=20 line=386 end_line=392 column=21 end_column=7}
31 {file_name_id=7 function_name_id=23 line=99 end_line=99 column=6 end_column=60}
32 {file_name_id=7 function_name_id=21 line=314 end_line=314 column=47 end_column=68}
33 {file_name_id=7 function_name_id=21 line=291 end_line=291 column=9 end_column=21}
34 {file_name_id=7 function_name_id=21 line=289 end_line=290 column=6 end_column=42}
35 {file_name_id=7 function_name_id=21 line=290 end_line=290 column=9 end_column=21}
36 {file_name_id=7 function_name_id=20 line=370 end_line=372 column=17 end_column=7}
37 {file_name_id=11 function_name_id=24 line=978 end_line=978 column=14 end_column=57}
38 {file_name_id=11 function_name_id=24 line=976 end_line=976 column=18 end_column=50}
39 {file_name_id=11 function_name_id=24 line=999 end_line=999 column=13 end_column=68}
40 {file_name_id=11 function_name_id=24 line=999 end_line=999 column=2 end_column=68}
41 {file_name_id=7 function_name_id=21 line=290 end_line=290 column=8 end_column=42}
42 {file_name_id=7 function_name_id=21 line=291 end_line=291 column=8 end_column=42}
43 {file_name_id=9 function_name_id=15 line=165 end_line=165 column=17 end_column=58}
44 {file_name_id=9 function_name_id=15 line=206 end_line=206 column=32 end_column=46}
45 {file_name_id=9 function_name_id=15 line=206 end_line=206 column=18 end_column=47}
46 {file_name_id=9 function_name_id=15 line=207 end_line=207 column=18 end_column=31}
47 {file_name_id=9 function_name_id=15 line=207 end_line=207 column=11 end_column=32}
48 {file_name_id=8 function_name_id=15 line=108 end_line=108 column=14 end_column=50}
49 {file_name_id=9 function_name_id=15 line=206 end_line=206 column=10 end_column=47}
50 {file_name_id=7 function_name_id=22 line=50 end_line=55 column=19 end_column=18}
51 {file_name_id=8 function_name_id=25 line=313 end_line=313 column=15 end_column=78}
52 {file_name_id=8 function_name_id=25 line=322 end_line=322 column=6 end_column=20}
53 {file_name_id=7 function_name_id=22 line=56 end_line=58 column=18 end_column=18}
54 {file_name_id=7 function_name_id=22 line=59 end_line=59 column=8 end_column=36}
55 {file_name_id=7 function_name_id=21 line=302 end_line=304 column=6 end_column=8}
56 {file_name_id=7 function_name_id=21 line=305 end_line=307 column=6 end_column=8}
57 {file_name_id=7 function_name_id=21 line=314 end_line=314 column=11 end_column=72}
58 {file_name_id=7 function_name_id=21 line=316 end_line=316 column=4 end_column=25}
59 {file_name_id=7 function_name_id=21 line=320 end_line=322 column=6 end_column=8}
60 {file_name_id=7 function_name_id=21 line=323 end_line=323 column=17 end_column=64}
61 {file_name_id=7 function_name_id=21 line=324 end_line=324 column=17 end_column=75}
62 {file_name_id=7 function_name_id=21 line=326 end_line=331 column=16 end_column=8}
63 {file_name_id=7 function_name_id=21 line=332 end_line=332 column=18 end_column=45}
64 {file_name_id=7 function_name_id=21 line=332 end_line=332 column=2 end_column=45}
65 {file_name_id=7 function_name_id=21 line=334 end_line=336 column=11 end_column=3}
66 {file_name_id=7 function_name_id=26 line=74 end_line=74 column=13 end_column=66}
67 {file_name_id=7 function_name_id=26 line=76 end_line=82 column=11 end_column=18}
68 {file_name_id=7 function_name_id=26 line=83 end_line=83 column=13 end_column=33}
69 {file_name_id=7 function_name_id=20 line=374 end_line=385 column=6 end_column=7}
70 {file_name_id=7 function_name_id=23 line=108 end_line=108 column=14 end_column=72}
71 {file_name_id=7 function_name_id=23 line=109 end_line=109 column=8 end_column=80}
72 {file_name_id=12 function_name_id=27 line=108 end_line=108 column=13 end_column=71}
73 {file_name_id=13 function_name_id=28 line=293 end_line=293 column=11 end_column=21}
74 {file_name_id=13 function_name_id=29 line=250 end_line=250 column=13 end_column=40}
75 {file_name_id=14 function_name_id=30 line=213 end_line=213 column=11 end_column=27}
76 {file_name_id=14 function_name_id=31 line=191 end_line=191 column=13 end_column=70}
77 {file_name_id=13 function_name_id=32 line=243 end_line=243 column=25 end_column=66}
78 {file_name_id=15 function_name_id=33 line=541 end_line=541 column=27 end_column=70}
79 {file_name_id=15 function_name_id=34 line=465 end_line=465 column=22 end_column=41}
80 {file_name_id=16 function_name_id=35 line=114 end_line=114 column=8 end_column=70}
81 {file_name_id=16 function_name_id=35 line=118 end_line=118 column=8 end_column=31}
82 {file_name_id=16 function_name_id=35 line=117 end_line=121 column=23 end_column=5}
83 {file_name_id=16 function_name_id=35 line=123 end_line=123 column=13 end_column=29}
84 {file_name_id=16 function_name_id=35 line=124 end_line=124 column=11 end_column=28}
85 {file_name_id=7 function_name_id=23 line=117 end_line=119 column=11 end_column=3}
86 {file_name_id=7 function_name_id=20 line=386 end_line=392 column=6 end_column=7}
87 {file_name_id=6 function_name_id=13 line=348 end_line=350 column=14 end_column=3}
88 {file_name_id=17 function_name_id=36 line=91 end_line=91 column=9 end_column=60}
89 {file_name_id=17 function_name_id=36 line=93 end_line=93 column=10 end_column=53}
90 {file_name_id=18 function_name_id=37 line=676 end_line=676 column=12 end_column=28}
91 {file_name_id=4 function_name_id=38 line=292 end_line=297 column=19 end_column=7}
92 {file_name_id=19 function_name_id=39 line=279 end_line=281 column=10 end_column=11}
93 {file_name_id=9 function_name_id=15 line=162 end_line=162 column=24 end_column=78}
94 {file_name_id=19 function_name_id=39 line=286 end_line=288 column=25 end_column=7}
95 {file_name_id=19 function_name_id=40 line=144 end_line=144 column=8 end_column=63}
96 {file_name_id=19 function_name_id=40 line=157 end_line=159 column=32 end_column=5}
97 {file_name_id=19 function_name_id=39 line=290 end_line=295 column=30 end_column=7}
98 {file_name_id=19 function_name_id=41 line=200 end_line=205 column=19 end_column=5}
99 {file_name_id=20 function_name_id=42 line=203 end_line=205 column=36 end_column=5}
100 {file_name_id=18 function_name_id=43 line=644 end_line=645 column=23 end_column=61}
101 {file_name_id=18 function_name_id=44 line=627 end_line=627 column=21 end_column=32}
102 {file_name_id=20 function_name_id=45 line=191 end_line=197 column=18 end_column=7}
103 {file_name_id=20 function_name_id=46 line=345 end_line=345 column=10 end_column=73}
104 {file_name_id=20 function_name_id=47 line=278 end_line=280 column=14 end_column=7}
105 {file_name_id=20 function_name_id=48 line=61 end_line=68 column=10 end_column=3}
106 {file_name_id=20 function_name_id=47 line=326 end_line=328 column=24 end_column=7}
107 {file_name_id=20 function_name_id=46 line=357 end_line=357 column=12 end_column=31}
108 {file_name_id=10 function_name_id=16 line=404 end_line=404 column=14 end_column=35}
109 {file_name_id=10 function_name_id=49 line=250 end_line=250 column=10 end_column=31}
110 {file_name_id=20 function_name_id=50 line=350 end_line=352 column=15 end_column=43}
111 {file_name_id=21 function_name_id=51 line=475 end_line=479 column=11 end_column=21}
112 {file_name_id=21 function_name_id=52 line=285 end_line=285 column=10 end_column=51}
113 {file_name_id=21 function_name_id=52 line=323 end_line=323 column=10 end_column=69}
114 {file_name_id=21 function_name_id=51 line=481 end_line=485 column=11 end_column=21}
115 {file_name_id=21 function_name_id=51 line=487 end_line=492 column=11 end_column=21}
116 {file_name_id=21 function_name_id=53 line=223 end_line=223 column=10 end_column=44}
117 {file_name_id=21 function_name_id=53 line=241 end_line=246 column=10 end_column=5}
118 {file_name_id=22 function_name_id=54 line=255 end_line=255 column=11 end_column=40}
119 {file_name_id=22 function_name_id=55 line=215 end_line=215 column=19 end_column=65}
120 {file_name_id=22 function_name_id=56 line=204 end_line=204 column=20 end_column=57}
121 {file_name_id=22 function_name_id=57 line=199 end_line=199 column=18 end_column=61}
122 {file_name_id=22 function_name_id=58 line=167 end_line=167 column=13 end_column=40}
123 {file_name_id=22 function_name_id=59 line=246 end_line=246 column=10 end_column=23}
124 {file_name_id=21 function_name_id=60 line=183 end_line=190 column=19 end_column=5}
125 {file_name_id=23 function_name_id=61 line=179 end_line=189 column=13 end_column=7}
126 {file_name_id=24 function_name_id=62 line=400 end_line=402 column=13 end_column=7}
127 {file_name_id=24 function_name_id=63 line=379 end_line=397 column=13 end_column=7}
128 {file_name_id=24 function_name_id=64 line=666 end_line=666 column=10 end_column=58}
129 {file_name_id=24 function_name_id=64 line=668 end_line=668 column=10 end_column=55}
130 {file_name_id=24 function_name_id=65 line=609 end_line=609 column=4 end_column=26}
131 {file_name_id=22 function_name_id=58 line=160 end_line=166 column=20 end_column=7}
132 {file_name_id=22 function_name_id=66 line=161 end_line=163 column=30 end_column=11}
133 {file_name_id=22 function_name_id=67 line=44 end_line=46 column=11 end_column=5}
134 {file_name_id=21 function_name_id=60 line=172 end_line=174 column=8 end_column=10}
135 {file_name_id=21 function_name_id=60 line=175 end_line=177 column=8 end_column=10}
136 {file_name_id=21 function_name_id=60 line=178 end_line=178 column=8 end_column=70}
137 {file_name_id=21 function_name_id=60 line=181 end_line=181 column=11 end_column=35}
138 {file_name_id=24 function_name_id=65 line=601 end_line=607 column=13 end_column=5}
139 {file_name_id=24 function_name_id=65 line=612 end_line=612 column=16 end_column=29}
140 {file_name_id=24 function_name_id=65 line=626 end_line=626 column=15 end_column=63}
141 {file_name_id=24 function_name_id=64 line=667 end_line=667 column=25 end_column=34}
142 {file_name_id=24 function_name_id=64 line=667 end_line=667 column=17 end_column=35}
143 {file_name_id=24 function_name_id=64 line=669 end_line=669 column=9 end_column=29}
144 {file_name_id=24 function_name_id=65 line=633 end_line=639 column=10 end_column=5}
145 {file_name_id=24 function_name_id=65 line=639 end_line=639 column=6 end_column=21}
146 {file_name_id=21 function_name_id=60 line=191 end_line=191 column=19 end_column=77}
147 {file_name_id=21 function_name_id=60 line=193 end_line=199 column=18 end_column=10}
148 {file_name_id=21 function_name_id=60 line=200 end_line=200 column=20 end_column=47}
149 {file_name_id=21 function_name_id=60 line=200 end_line=200 column=4 end_column=47}
150 {file_name_id=21 function_name_id=60 line=202 end_line=206 column=11 end_column=19}
151 {file_name_id=22 function_name_id=57 line=201 end_line=201 column=13 end_column=70}
152 {file_name_id=22 function_name_id=68 line=196 end_line=196 column=13 end_column=77}
153 {file_name_id=22 function_name_id=55 line=219 end_line=219 column=16 end_column=72}
154 {file_name_id=21 function_name_id=51 line=494 end_line=499 column=11 end_column=21}
155 {file_name_id=21 function_name_id=51 line=511 end_line=511 column=11 end_column=32}
156 {file_name_id=21 function_name_id=69 line=69 end_line=69 column=10 end_column=52}
157 {file_name_id=21 function_name_id=52 line=278 end_line=278 column=11 end_column=26}
158 {file_name_id=8 function_name_id=15 line=95 end_line=95 column=10 end_column=31}
159 {file_name_id=8 function_name_id=15 line=114 end_line=114 column=15 end_column=52}
160 {file_name_id=9 function_name_id=15 line=162 end_line=162 column=33 end_column=51}
161 {file_name_id=9 function_name_id=15 line=163 end_line=163 column=35 end_column=51}
162 {file_name_id=9 function_name_id=15 line=163 end_line=163 column=17 end_column=51}
163 {file_name_id=8 function_name_id=15 line=119 end_line=119 column=12 end_column=29}
164 {file_name_id=21 function_name_id=52 line=298 end_line=298 column=20 end_column=73}
165 {file_name_id=21 function_name_id=52 line=300 end_line=302 column=19 end_column=7}
166 {file_name_id=16 function_name_id=35 line=124 end_line=124 column=10 end_column=45}
167 {file_name_id=21 function_name_id=52 line=303 end_line=303 column=19 end_column=55}
168 {file_name_id=21 function_name_id=52 line=304 end_line=304 column=6 end_column=24}
169 {file_name_id=21 function_name_id=52 line=319 end_line=319 column=17 end_column=75}
170 {file_name_id=21 function_name_id=52 line=320 end_line=320 column=11 end_column=43}
171 {file_name_id=21 function_name_id=52 line=321 end_line=321 column=11 end_column=33}
172 {file_name_id=21 function_name_id=52 line=321 end_line=321 column=35 end_column=57}
173 {file_name_id=21 function_name_id=52 line=322 end_line=322 column=10 end_column=36}
174 {file_name_id=21 function_name_id=52 line=325 end_line=325 column=10 end_column=39}
175 {file_name_id=21 function_name_id=52 line=326 end_line=330 column=10 end_column=10}
176 {file_name_id=21 function_name_id=52 line=332 end_line=337 column=15 end_column=16}
177 {file_name_id=21 function_name_id=52 line=338 end_line=338 column=11 end_column=35}
178 {file_name_id=21 function_name_id=52 line=338 end_line=338 column=4 end_column=35}
179 {file_name_id=21 function_name_id=51 line=475 end_line=479 column=4 end_column=21}
180 {file_name_id=21 function_name_id=51 line=481 end_line=485 column=4 end_column=21}
181 {file_name_id=21 function_name_id=53 line=222 end_line=222 column=16 end_column=47}
182 {file_name_id=21 function_name_id=53 line=225 end_line=227 column=22 end_column=10}
183 {file_name_id=21 function_name_id=53 line=228 end_line=228 column=22 end_column=63}
184 {file_name_id=21 function_name_id=53 line=239 end_line=239 column=16 end_column=43}
185 {file_name_id=21 function_name_id=51 line=487 end_line=492 column=4 end_column=21}
186 {file_name_id=21 function_name_id=53 line=237 end_line=237 column=12 end_column=37}
187 {file_name_id=21 function_name_id=53 line=249 end_line=249 column=12 end_column=37}
188 {file_name_id=21 function_name_id=51 line=494 end_line=499 column=4 end_column=21}
189 {file_name_id=21 function_name_id=69 line=78 end_line=78 column=16 end_column=73}
190 {file_name_id=21 function_name_id=69 line=79 end_line=81 column=10 end_column=7}
191 {file_name_id=21 function_name_id=69 line=89 end_line=93 column=11 end_column=8}
192 {file_name_id=21 function_name_id=51 line=511 end_line=511 column=4 end_column=32}
193 {file_name_id=20 function_name_id=46 line=359 end_line=359 column=10 end_column=53}
194 {file_name_id=20 function_name_id=47 line=311 end_line=311 column=20 end_column=42}
195 {file_name_id=25 function_name_id=70 line=111 end_line=111 column=18 end_column=36}
196 {file_name_id=25 function_name_id=71 line=103 end_line=103 column=14 end_column=44}
197 {file_name_id=20 function_name_id=47 line=269 end_line=269 column=30 end_column=56}
198 {file_name_id=20 function_name_id=47 line=269 end_line=269 column=6 end_column=56}
199 {file_name_id=20 function_name_id=47 line=271 end_line=273 column=48 end_column=7}
200 {file_name_id=26 function_name_id=72 line=57 end_line=59 column=29 end_column=3}
201 {file_name_id=26 function_name_id=72 line=61 end_line=65 column=21 end_column=3}
202 {file_name_id=26 function_name_id=72 line=68 end_line=68 column=28 end_column=61}
203 {file_name_id=26 function_name_id=72 line=67 end_line=69 column=16 end_column=3}
204 {file_name_id=26 function_name_id=72 line=73 end_line=73 column=24 end_column=51}
205 {file_name_id=26 function_name_id=72 line=72 end_line=74 column=21 end_column=3}
206 {file_name_id=26 function_name_id=72 line=74 end_line=74 column=4 end_column=23}
207 {file_name_id=20 function_name_id=47 line=275 end_line=275 column=10 end_column=63}
208 {file_name_id=20 function_name_id=47 line=277 end_line=277 column=6 end_column=47}
209 {file_name_id=20 function_name_id=48 line=56 end_line=56 column=17 end_column=78}
210 {file_name_id=20 function_name_id=48 line=57 end_line=57 column=17 end_column=41}
211 {file_name_id=20 function_name_id=48 line=59 end_line=59 column=7 end_column=23}
212 {file_name_id=20 function_name_id=48 line=58 end_line=60 column=17 end_column=3}
213 {file_name_id=20 function_name_id=48 line=63 end_line=64 column=10 end_column=47}
214 {file_name_id=20 function_name_id=48 line=62 end_line=65 column=6 end_column=7}
215 {file_name_id=20 function_name_id=48 line=70 end_line=70 column=11 end_column=31}
216 {file_name_id=20 function_name_id=48 line=70 end_line=70 column=10 end_column=52}
217 {file_name_id=20 function_name_id=48 line=71 end_line=71 column=6 end_column=26}
218 {file_name_id=20 function_name_id=48 line=72 end_line=72 column=4 end_column=23}
219 {file_name_id=20 function_name_id=47 line=281 end_line=281 column=15 end_column=45}
220 {file_name_id=20 function_name_id=47 line=281 end_line=281 column=6 end_column=45}
221 {file_name_id=20 function_name_id=47 line=282 end_line=282 column=14 end_column=33}
222 {file_name_id=20 function_name_id=47 line=283 end_line=283 column=28 end_column=61}
223 {file_name_id=20 function_name_id=47 line=286 end_line=291 column=15 end_column=7}
224 {file_name_id=20 function_name_id=47 line=292 end_line=292 column=24 end_column=42}
225 {file_name_id=20 function_name_id=47 line=293 end_line=293 column=24 end_column=42}
226 {file_name_id=20 function_name_id=47 line=299 end_line=303 column=31 end_column=7}
227 {file_name_id=20 function_name_id=47 line=305 end_line=305 column=10 end_column=61}
228 {file_name_id=25 function_name_id=73 line=127 end_line=127 column=16 end_column=36}
229 {file_name_id=27 function_name_id=74 line=31 end_line=31 column=15 end_column=61}
230 {file_name_id=27 function_name_id=74 line=30 end_line=30 column=6 end_column=31}
231 {file_name_id=20 function_name_id=47 line=304 end_line=308 column=29 end_column=7}
232 {file_name_id=20 function_name_id=75 line=91 end_line=91 column=21 end_column=40}
233 {file_name_id=20 function_name_id=75 line=96 end_line=96 column=13 end_column=37}
234 {file_name_id=20 function_name_id=75 line=100 end_line=100 column=6 end_column=26}
235 {file_name_id=20 function_name_id=76 line=98 end_line=98 column=38 end_column=42}
236 {file_name_id=20 function_name_id=75 line=100 end_line=100 column=29 end_column=49}
237 {file_name_id=20 function_name_id=75 line=100 end_line=100 column=52 end_column=72}
238 {file_name_id=20 function_name_id=75 line=101 end_line=101 column=4 end_column=23}
239 {file_name_id=20 function_name_id=75 line=106 end_line=106 column=8 end_column=75}
240 {file_name_id=20 function_name_id=76 line=106 end_line=106 column=44 end_column=63}
241 {file_name_id=20 function_name_id=75 line=110 end_line=110 column=6 end_column=45}
242 {file_name_id=25 function_name_id=77 line=70 end_line=70 column=11 end_column=56}
243 {file_name_id=25 function_name_id=78 line=70 end_line=70 column=37 end_column=42}
244 {file_name_id=20 function_name_id=75 line=111 end_line=111 column=6 end_column=45}
245 {file_name_id=20 function_name_id=75 line=109 end_line=112 column=13 end_column=3}
246 {file_name_id=28 function_name_id=79 line=182 end_line=182 column=9 end_column=24}
247 {file_name_id=25 function_name_id=71 line=101 end_line=101 column=12 end_column=26}
248 {file_name_id=25 function_name_id=80 line=96 end_line=96 column=11 end_column=27}
249 {file_name_id=25 function_name_id=80 line=96 end_line=96 column=30 end_column=46}
250 {file_name_id=25 function_name_id=80 line=96 end_line=96 column=49 end_column=65}
251 {file_name_id=25 function_name_id=71 line=104 end_line=104 column=11 end_column=26}
252 {file_name_id=25 function_name_id=70 line=111 end_line=111 column=11 end_column=36}
253 {file_name_id=25 function_name_id=81 line=79 end_line=79 column=11 end_column=50}
254 {file_name_id=25 function_name_id=82 line=79 end_line=79 column=34 end_column=43}
255 {file_name_id=28 function_name_id=79 line=184 end_line=184 column=8 end_column=18}
256 {file_name_id=28 function_name_id=79 line=185 end_line=185 column=15 end_column=21}
257 {file_name_id=25 function_name_id=83 line=76 end_line=76 column=11 end_column=23}
258 {file_name_id=25 function_name_id=84 line=73 end_line=73 column=11 end_column=50}
259 {file_name_id=25 function_name_id=85 line=73 end_line=73 column=34 end_column=43}
260 {file_name_id=28 function_name_id=79 line=185 end_line=185 column=10 end_column=21}
261 {file_name_id=28 function_name_id=79 line=185 end_line=185 column=9 end_column=35}
262 {file_name_id=28 function_name_id=79 line=187 end_line=187 column=9 end_column=21}
263 {file_name_id=25 function_name_id=86 line=89 end_line=89 column=12 end_column=28}
264 {file_name_id=25 function_name_id=86 line=89 end_line=89 column=31 end_column=47}
265 {file_name_id=25 function_name_id=86 line=90 end_line=90 column=12 end_column=28}
266 {file_name_id=25 function_name_id=86 line=90 end_line=90 column=31 end_column=47}
267 {file_name_id=25 function_name_id=86 line=91 end_line=91 column=12 end_column=28}
268 {file_name_id=25 function_name_id=86 line=91 end_line=91 column=31 end_column=47}
269 {file_name_id=20 function_name_id=47 line=310 end_line=310 column=18 end_column=32}
270 {file_name_id=29 function_name_id=87 line=34 end_line=37 column=25 end_column=5}
271 {file_name_id=29 function_name_id=88 line=35 end_line=35 column=18 end_column=29}
272 {file_name_id=30 function_name_id=89 line=123 end_line=123 column=50 end_column=67}
273 {file_name_id=25 function_name_id=90 line=82 end_line=82 column=11 end_column=43}
274 {file_name_id=25 function_name_id=91 line=82 end_line=82 column=34 end_column=36}
275 {file_name_id=30 function_name_id=89 line=123 end_line=123 column=22 end_column=68}
276 {file_name_id=28 function_name_id=92 line=144 end_line=144 column=8 end_column=25}
277 {file_name_id=28 function_name_id=92 line=144 end_line=144 column=28 end_column=45}
278 {file_name_id=28 function_name_id=92 line=144 end_line=144 column=48 end_column=65}
279 {file_name_id=28 function_name_id=92 line=145 end_line=145 column=8 end_column=25}
280 {file_name_id=28 function_name_id=92 line=145 end_line=145 column=28 end_column=45}
281 {file_name_id=28 function_name_id=92 line=145 end_line=145 column=48 end_column=65}
282 {file_name_id=28 function_name_id=92 line=146 end_line=146 column=8 end_column=25}
283 {file_name_id=28 function_name_id=92 line=146 end_line=146 column=28 end_column=45}
284 {file_name_id=28 function_name_id=92 line=146 end_line=146 column=48 end_column=65}
285 {file_name_id=30 function_name_id=93 line=128 end_line=128 column=11 end_column=46}
286 {file_name_id=25 function_name_id=94 line=67 end_line=67 column=11 end_column=56}
287 {file_name_id=25 function_name_id=95 line=67 end_line=67 column=37 end_column=42}
288 {file_name_id=20 function_name_id=47 line=314 end_line=314 column=21 end_column=36}
289 {file_name_id=20 function_name_id=47 line=315 end_line=315 column=22 end_column=49}
290 {file_name_id=20 function_name_id=47 line=317 end_line=317 column=25 end_column=47}
291 {file_name_id=20 function_name_id=47 line=317 end_line=317 column=50 end_column=72}
292 {file_name_id=20 function_name_id=47 line=318 end_line=318 column=6 end_column=44}
293 {file_name_id=20 function_name_id=47 line=319 end_line=319 column=21 end_column=41}
294 {file_name_id=20 function_name_id=47 line=337 end_line=342 column=15 end_column=12}
295 {file_name_id=8 function_name_id=25 line=280 end_line=282 column=15 end_column=7}
296 {file_name_id=8 function_name_id=25 line=283 end_line=283 column=15 end_column=31}
297 {file_name_id=20 function_name_id=47 line=337 end_line=342 column=8 end_column=12}
298 {file_name_id=10 function_name_id=17 line=200 end_line=200 column=10 end_column=31}
299 {file_name_id=10 function_name_id=96 line=52 end_line=52 column=8 end_column=33}
300 {file_name_id=5 function_name_id=97 line=1222 end_line=1222 column=11 end_column=24}
301 {file_name_id=5 function_name_id=10 line=1067 end_line=1067 column=17 end_column=60}
302 {file_name_id=20 function_name_id=45 line=198 end_line=198 column=13 end_column=30}
303 {file_name_id=18 function_name_id=44 line=628 end_line=628 column=6 end_column=36}
304 {file_name_id=18 function_name_id=98 line=96 end_line=96 column=4 end_column=32}
305 {file_name_id=5 function_name_id=99 line=1075 end_line=1075 column=6 end_column=27}
306 {file_name_id=19 function_name_id=39 line=296 end_line=302 column=30 end_column=7}
307 {file_name_id=19 function_name_id=100 line=219 end_line=219 column=21 end_column=62}
308 {file_name_id=31 function_name_id=101 line=274 end_line=274 column=21 end_column=47}
309 {file_name_id=31 function_name_id=101 line=275 end_line=275 column=16 end_column=61}
310 {file_name_id=31 function_name_id=102 line=109 end_line=109 column=6 end_column=31}
311 {file_name_id=31 function_name_id=103 line=77 end_line=77 column=11 end_column=33}
312 {file_name_id=31 function_name_id=104 line=47 end_line=49 column=13 end_column=3}
313 {file_name_id=31 function_name_id=102 line=114 end_line=116 column=12 end_column=3}
314 {file_name_id=19 function_name_id=100 line=248 end_line=248 column=23 end_column=55}
315 {file_name_id=19 function_name_id=105 line=237 end_line=242 column=13 end_column=7}
316 {file_name_id=21 function_name_id=106 line=580 end_line=585 column=16 end_column=24}
317 {file_name_id=21 function_name_id=107 line=365 end_line=365 column=10 end_column=52}
318 {file_name_id=21 function_name_id=108 line=405 end_line=405 column=12 end_column=73}
319 {file_name_id=21 function_name_id=108 line=406 end_line=406 column=13 end_column=27}
320 {file_name_id=21 function_name_id=107 line=408 end_line=415 column=10 end_column=5}
321 {file_name_id=21 function_name_id=106 line=587 end_line=589 column=15 end_column=43}
322 {file_name_id=21 function_name_id=109 line=110 end_line=110 column=10 end_column=44}
323 {file_name_id=21 function_name_id=109 line=111 end_line=111 column=15 end_column=55}
324 {file_name_id=21 function_name_id=109 line=116 end_line=116 column=21 end_column=48}
325 {file_name_id=21 function_name_id=109 line=117 end_line=117 column=14 end_column=45}
326 {file_name_id=21 function_name_id=106 line=591 end_line=593 column=15 end_column=14}
327 {file_name_id=21 function_name_id=106 line=595 end_line=599 column=16 end_column=26}
328 {file_name_id=21 function_name_id=106 line=601 end_line=605 column=16 end_column=26}
329 {file_name_id=21 function_name_id=106 line=607 end_line=612 column=16 end_column=26}
330 {file_name_id=21 function_name_id=106 line=614 end_line=619 column=16 end_column=26}
331 {file_name_id=21 function_name_id=106 line=631 end_line=631 column=16 end_column=42}
332 {file_name_id=21 function_name_id=109 line=116 end_line=116 column=14 end_column=49}
333 {file_name_id=21 function_name_id=107 line=419 end_line=419 column=18 end_column=32}
334 {file_name_id=21 function_name_id=107 line=364 end_line=364 column=11 end_column=26}
335 {file_name_id=21 function_name_id=107 line=367 end_line=371 column=22 end_column=10}
336 {file_name_id=21 function_name_id=107 line=367 end_line=371 column=15 end_column=10}
337 {file_name_id=21 function_name_id=107 line=373 end_line=377 column=23 end_column=10}
338 {file_name_id=21 function_name_id=107 line=373 end_line=377 column=16 end_column=10}
339 {file_name_id=21 function_name_id=107 line=418 end_line=418 column=11 end_column=49}
340 {file_name_id=21 function_name_id=107 line=419 end_line=419 column=11 end_column=33}
341 {file_name_id=21 function_name_id=106 line=580 end_line=585 column=4 end_column=24}
342 {file_name_id=21 function_name_id=109 line=112 end_line=114 column=13 end_column=15}
343 {file_name_id=21 function_name_id=109 line=115 end_line=115 column=13 end_column=45}
344 {file_name_id=21 function_name_id=109 line=116 end_line=116 column=4 end_column=49}
345 {file_name_id=21 function_name_id=109 line=120 end_line=122 column=8 end_column=10}
346 {file_name_id=21 function_name_id=109 line=123 end_line=123 column=12 end_column=55}
347 {file_name_id=21 function_name_id=109 line=124 end_line=124 column=12 end_column=56}
348 {file_name_id=21 function_name_id=109 line=125 end_line=130 column=18 end_column=10}
349 {file_name_id=21 function_name_id=109 line=131 end_line=131 column=13 end_column=40}
350 {file_name_id=21 function_name_id=109 line=131 end_line=131 column=4 end_column=40}
351 {file_name_id=21 function_name_id=109 line=133 end_line=137 column=11 end_column=12}
352 {file_name_id=21 function_name_id=106 line=587 end_line=589 column=4 end_column=43}
353 {file_name_id=21 function_name_id=106 line=591 end_line=593 column=4 end_column=14}
354 {file_name_id=21 function_name_id=106 line=595 end_line=599 column=4 end_column=26}
355 {file_name_id=21 function_name_id=106 line=601 end_line=605 column=4 end_column=26}
356 {file_name_id=21 function_name_id=106 line=607 end_line=612 column=4 end_column=26}
357 {file_name_id=21 function_name_id=106 line=614 end_line=619 column=4 end_column=26}
358 {file_name_id=21 function_name_id=106 line=631 end_line=631 column=4 end_column=42}
359 {file_name_id=19 function_name_id=39 line=314 end_line=316 column=10 end_column=11}
360 {file_name_id=19 function_name_id=39 line=338 end_line=340 column=45 end_column=7}
361 {file_name_id=19 function_name_id=110 line=327 end_line=332 column=15 end_column=9}
362 {file_name_id=21 function_name_id=51 line=518 end_line=518 column=8 end_column=57}
363 {file_name_id=21 function_name_id=51 line=522 end_line=529 column=20 end_column=7}
364 {file_name_id=7 function_name_id=111 line=143 end_line=143 column=6 end_column=51}
365 {file_name_id=7 function_name_id=22 line=37 end_line=37 column=8 end_column=74}
366 {file_name_id=7 function_name_id=111 line=167 end_line=167 column=12 end_column=43}
367 {file_name_id=21 function_name_id=51 line=531 end_line=535 column=20 end_column=39}
368 {file_name_id=7 function_name_id=111 line=164 end_line=164 column=47 end_column=68}
369 {file_name_id=7 function_name_id=111 line=141 end_line=141 column=10 end_column=28}
370 {file_name_id=7 function_name_id=111 line=141 end_line=141 column=17 end_column=27}
371 {file_name_id=19 function_name_id=110 line=331 end_line=331 column=21 end_column=60}
372 {file_name_id=21 function_name_id=51 line=515 end_line=518 column=20 end_column=58}
373 {file_name_id=21 function_name_id=51 line=520 end_line=520 column=20 end_column=57}
374 {file_name_id=7 function_name_id=111 line=141 end_line=141 column=9 end_column=49}
375 {file_name_id=7 function_name_id=111 line=156 end_line=156 column=6 end_column=71}
376 {file_name_id=7 function_name_id=111 line=157 end_line=157 column=6 end_column=72}
377 {file_name_id=7 function_name_id=111 line=161 end_line=161 column=6 end_column=27}
378 {file_name_id=7 function_name_id=111 line=162 end_line=162 column=6 end_column=27}
379 {file_name_id=7 function_name_id=111 line=163 end_line=163 column=9 end_column=33}
380 {file_name_id=7 function_name_id=111 line=164 end_line=164 column=11 end_column=72}
381 {file_name_id=7 function_name_id=111 line=166 end_line=166 column=4 end_column=25}
382 {file_name_id=7 function_name_id=111 line=168 end_line=168 column=12 end_column=47}
383 {file_name_id=7 function_name_id=111 line=171 end_line=171 column=6 end_column=71}
384 {file_name_id=7 function_name_id=111 line=172 end_line=172 column=17 end_column=64}
385 {file_name_id=7 function_name_id=111 line=173 end_line=173 column=17 end_column=75}
386 {file_name_id=7 function_name_id=111 line=175 end_line=180 column=16 end_column=6}
387 {file_name_id=7 function_name_id=111 line=181 end_line=181 column=18 end_column=45}
388 {file_name_id=7 function_name_id=111 line=181 end_line=181 column=2 end_column=45}
389 {file_name_id=7 function_name_id=111 line=183 end_line=185 column=11 end_column=3}
390 {file_name_id=7 function_name_id=26 line=68 end_line=72 column=13 end_column=8}
391 {file_name_id=21 function_name_id=51 line=522 end_line=529 column=6 end_column=7}
392 {file_name_id=21 function_name_id=51 line=531 end_line=535 column=6 end_column=39}
393 {file_name_id=19 function_name_id=100 line=221 end_line=221 column=15 end_column=55}
394 {file_name_id=31 function_name_id=112 line=127 end_line=127 column=20 end_column=70}
395 {file_name_id=31 function_name_id=112 line=127 end_line=127 column=31 end_column=52}
396 {file_name_id=31 function_name_id=101 line=274 end_line=274 column=11 end_column=71}
397 {file_name_id=31 function_name_id=101 line=274 end_line=274 column=12 end_column=64}
398 {file_name_id=20 function_name_id=42 line=207 end_line=207 column=16 end_column=67}
399 {file_name_id=20 function_name_id=42 line=200 end_line=202 column=16 end_column=5}
400 {file_name_id=19 function_name_id=40 line=169 end_line=169 column=6 end_column=14}
401 {file_name_id=19 function_name_id=40 line=137 end_line=137 column=21 end_column=56}
402 {file_name_id=19 function_name_id=39 line=284 end_line=284 column=25 end_column=73}
403 {file_name_id=19 function_name_id=113 line=90 end_line=94 column=15 end_column=5}
404 {file_name_id=31 function_name_id=114 line=251 end_line=251 column=6 end_column=64}
405 {file_name_id=31 function_name_id=114 line=245 end_line=245 column=6 end_column=32}
406 {file_name_id=4 function_name_id=38 line=291 end_line=291 column=20 end_column=41}
407 {file_name_id=4 function_name_id=38 line=291 end_line=291 column=6 end_column=17}
408 {file_name_id=19 function_name_id=39 line=270 end_line=272 column=36 end_column=7}
409 {file_name_id=19 function_name_id=115 line=109 end_line=111 column=18 end_column=5}
410 {file_name_id=19 function_name_id=115 line=112 end_line=114 column=19 end_column=5}
411 {file_name_id=19 function_name_id=115 line=116 end_line=116 column=23 end_column=49}
412 {file_name_id=19 function_name_id=115 line=124 end_line=124 column=17 end_column=30}
413 {file_name_id=19 function_name_id=115 line=124 end_line=124 column=33 end_column=46}
414 {file_name_id=19 function_name_id=115 line=124 end_line=124 column=16 end_column=61}
415 {file_name_id=19 function_name_id=39 line=280 end_line=280 column=14 end_column=57}
416 {file_name_id=19 function_name_id=39 line=274 end_line=282 column=26 end_column=7}
417 {file_name_id=19 function_name_id=39 line=274 end_line=282 column=6 end_column=7}
418 {file_name_id=31 function_name_id=114 line=190 end_line=190 column=17 end_column=33}
419 {file_name_id=31 function_name_id=114 line=191 end_line=191 column=18 end_column=34}
420 {file_name_id=31 function_name_id=114 line=193 end_line=193 column=23 end_column=45}
421 {file_name_id=31 function_name_id=114 line=194 end_line=194 column=24 end_column=46}
422 {file_name_id=31 function_name_id=114 line=196 end_line=196 column=21 end_column=41}
423 {file_name_id=31 function_name_id=114 line=197 end_line=197 column=22 end_column=42}
424 {file_name_id=31 function_name_id=114 line=199 end_line=199 column=19 end_column=37}
425 {file_name_id=31 function_name_id=114 line=200 end_line=200 column=20 end_column=38}
426 {file_name_id=31 function_name_id=114 line=202 end_line=202 column=16 end_column=31}
427 {file_name_id=31 function_name_id=114 line=203 end_line=203 column=17 end_column=32}
428 {file_name_id=31 function_name_id=114 line=206 end_line=206 column=11 end_column=51}
429 {file_name_id=31 function_name_id=114 line=208 end_line=208 column=6 end_column=31}
430 {file_name_id=31 function_name_id=114 line=207 end_line=209 column=19 end_column=3}
431 {file_name_id=31 function_name_id=114 line=210 end_line=210 column=17 end_column=46}
432 {file_name_id=31 function_name_id=114 line=211 end_line=215 column=17 end_column=3}
433 {file_name_id=31 function_name_id=114 line=216 end_line=216 column=12 end_column=66}
434 {file_name_id=31 function_name_id=114 line=220 end_line=220 column=17 end_column=53}
435 {file_name_id=31 function_name_id=114 line=222 end_line=222 column=6 end_column=37}
436 {file_name_id=31 function_name_id=114 line=221 end_line=223 column=25 end_column=3}
437 {file_name_id=31 function_name_id=114 line=224 end_line=224 column=18 end_column=47}
438 {file_name_id=31 function_name_id=114 line=225 end_line=225 column=6 end_column=47}
439 {file_name_id=31 function_name_id=114 line=224 end_line=226 column=17 end_column=3}
440 {file_name_id=31 function_name_id=114 line=227 end_line=231 column=23 end_column=3}
441 {file_name_id=31 function_name_id=114 line=232 end_line=232 column=14 end_column=74}
442 {file_name_id=31 function_name_id=114 line=236 end_line=236 column=19 end_column=52}
443 {file_name_id=31 function_name_id=114 line=237 end_line=237 column=19 end_column=55}
444 {file_name_id=31 function_name_id=114 line=240 end_line=240 column=15 end_column=41}
445 {file_name_id=31 function_name_id=114 line=244 end_line=246 column=22 end_column=3}
446 {file_name_id=31 function_name_id=114 line=248 end_line=252 column=20 end_column=3}
447 {file_name_id=31 function_name_id=114 line=253 end_line=253 column=14 end_column=73}
448 {file_name_id=31 function_name_id=114 line=257 end_line=257 column=9 end_column=44}
449 {file_name_id=19 function_name_id=113 line=95 end_line=95 column=15 end_column=54}
450 {file_name_id=19 function_name_id=113 line=97 end_line=99 column=24 end_column=15}
451 {file_name_id=19 function_name_id=113 line=97 end_line=99 column=4 end_column=15}
452 {file_name_id=19 function_name_id=40 line=150 end_line=150 column=8 end_column=63}
453 {file_name_id=19 function_name_id=40 line=161 end_line=161 column=8 end_column=61}
454 {file_name_id=19 function_name_id=40 line=164 end_line=166 column=18 end_column=5}
455 {file_name_id=19 function_name_id=40 line=168 end_line=168 column=8 end_column=25}
456 {file_name_id=19 function_name_id=40 line=168 end_line=168 column=27 end_column=44}
457 {file_name_id=19 function_name_id=40 line=172 end_line=172 column=21 end_column=53}
458 {file_name_id=19 function_name_id=40 line=175 end_line=175 column=8 end_column=34}
459 {file_name_id=19 function_name_id=40 line=174 end_line=176 column=16 end_column=5}
460 {file_name_id=19 function_name_id=40 line=177 end_line=177 column=11 end_column=39}
461 {file_name_id=19 function_name_id=41 line=189 end_line=189 column=18 end_column=39}
462 {file_name_id=19 function_name_id=41 line=189 end_line=189 column=4 end_column=15}
463 {file_name_id=19 function_name_id=41 line=197 end_line=197 column=23 end_column=39}
464 {file_name_id=19 function_name_id=41 line=197 end_line=197 column=43 end_column=59}
465 {file_name_id=19 function_name_id=41 line=197 end_line=197 column=22 end_column=74}
466 {file_name_id=20 function_name_id=42 line=208 end_line=208 column=16 end_column=38}
467 {file_name_id=20 function_name_id=42 line=209 end_line=211 column=16 end_column=16}
468 {file_name_id=19 function_name_id=41 line=206 end_line=206 column=11 end_column=42}
469 {file_name_id=31 function_name_id=101 line=272 end_line=272 column=20 end_column=41}
470 {file_name_id=31 function_name_id=101 line=272 end_line=272 column=2 end_column=17}
471 {file_name_id=31 function_name_id=104 line=48 end_line=48 column=6 end_column=26}
472 {file_name_id=31 function_name_id=103 line=83 end_line=85 column=11 end_column=11}
473 {file_name_id=31 function_name_id=102 line=113 end_line=113 column=9 end_column=64}
474 {file_name_id=31 function_name_id=102 line=115 end_line=115 column=6 end_column=16}
475 {file_name_id=31 function_name_id=102 line=117 end_line=117 column=9 end_column=19}
476 {file_name_id=31 function_name_id=101 line=277 end_line=277 column=9 end_column=40}
477 {file_name_id=32 function_name_id=116 line=680 end_line=680 column=13 end_column=34}
478 {file_name_id=32 function_name_id=116 line=681 end_line=681 column=13 end_column=34}
479 {file_name_id=32 function_name_id=116 line=682 end_line=682 column=24 end_column=56}
480 {file_name_id=19 function_name_id=100 line=220 end_line=220 column=16 end_column=80}
481 {file_name_id=31 function_name_id=117 line=141 end_line=141 column=12 end_column=31}
482 {file_name_id=31 function_name_id=117 line=142 end_line=142 column=9 end_column=36}
483 {file_name_id=31 function_name_id=112 line=122 end_line=124 column=13 end_column=3}
484 {file_name_id=31 function_name_id=112 line=126 end_line=126 column=17 end_column=52}
485 {file_name_id=31 function_name_id=112 line=127 end_line=129 column=19 end_column=3}
486 {file_name_id=31 function_name_id=112 line=137 end_line=137 column=9 end_column=43}
487 {file_name_id=19 function_name_id=100 line=223 end_line=225 column=22 end_column=15}
488 {file_name_id=19 function_name_id=100 line=227 end_line=229 column=23 end_column=18}
489 {file_name_id=19 function_name_id=100 line=227 end_line=229 column=4 end_column=24}
490 {file_name_id=19 function_name_id=100 line=230 end_line=230 column=15 end_column=43}
491 {file_name_id=19 function_name_id=39 line=305 end_line=307 column=27 end_column=20}
492 {file_name_id=19 function_name_id=39 line=315 end_line=315 column=14 end_column=61}
493 {file_name_id=19 function_name_id=39 line=309 end_line=317 column=28 end_column=7}
494 {file_name_id=19 function_name_id=39 line=309 end_line=317 column=6 end_column=7}
495 {file_name_id=10 function_name_id=17 line=172 end_line=172 column=10 end_column=35}
496 {file_name_id=4 function_name_id=38 line=298 end_line=298 column=27 end_column=65}
497 {file_name_id=4 function_name_id=38 line=299 end_line=299 column=29 end_column=69}
498 {file_name_id=18 function_name_id=37 line=677 end_line=677 column=6 end_column=36}
499 {file_name_id=4 function_name_id=6 line=319 end_line=319 column=22 end_column=80}
500 {file_name_id=18 function_name_id=118 line=696 end_line=696 column=15 end_column=71}
501 {file_name_id=4 function_name_id=6 line=321 end_line=325 column=14 end_column=5}
502 {file_name_id=4 function_name_id=119 line=264 end_line=269 column=13 end_column=5}
503 {file_name_id=33 function_name_id=120 line=365 end_line=365 column=6 end_column=40}
504 {file_name_id=33 function_name_id=120 line=373 end_line=373 column=14 end_column=77}
505 {file_name_id=18 function_name_id=121 line=851 end_line=851 column=19 end_column=47}
506 {file_name_id=18 function_name_id=122 line=830 end_line=830 column=12 end_column=22}
507 {file_name_id=33 function_name_id=123 line=335 end_line=335 column=30 end_column=54}
508 {file_name_id=33 function_name_id=123 line=337 end_line=339 column=16 end_column=5}
509 {file_name_id=33 function_name_id=124 line=70 end_line=72 column=11 end_column=3}
510 {file_name_id=33 function_name_id=123 line=348 end_line=348 column=25 end_column=63}
511 {file_name_id=33 function_name_id=125 line=223 end_line=228 column=43 end_column=7}
512 {file_name_id=33 function_name_id=126 line=164 end_line=168 column=8 end_column=22}
513 {file_name_id=33 function_name_id=126 line=172 end_line=174 column=19 end_column=7}
514 {file_name_id=33 function_name_id=126 line=178 end_line=182 column=18 end_column=18}
515 {file_name_id=33 function_name_id=126 line=197 end_line=201 column=8 end_column=26}
516 {file_name_id=33 function_name_id=126 line=205 end_line=207 column=21 end_column=7}
517 {file_name_id=33 function_name_id=125 line=238 end_line=246 column=12 end_column=7}
518 {file_name_id=6 function_name_id=13 line=162 end_line=166 column=8 end_column=28}
519 {file_name_id=6 function_name_id=13 line=232 end_line=236 column=8 end_column=26}
520 {file_name_id=33 function_name_id=125 line=258 end_line=262 column=10 end_column=30}
521 {file_name_id=33 function_name_id=125 line=273 end_line=278 column=12 end_column=7}
522 {file_name_id=7 function_name_id=127 line=239 end_line=243 column=17 end_column=18}
523 {file_name_id=7 function_name_id=127 line=261 end_line=263 column=11 end_column=23}
524 {file_name_id=7 function_name_id=128 line=257 end_line=259 column=13 end_column=32}
525 {file_name_id=7 function_name_id=129 line=217 end_line=225 column=13 end_column=7}
526 {file_name_id=7 function_name_id=129 line=226 end_line=232 column=13 end_column=7}
527 {file_name_id=7 function_name_id=129 line=217 end_line=225 column=6 end_column=7}
528 {file_name_id=7 function_name_id=129 line=226 end_line=232 column=6 end_column=7}
529 {file_name_id=7 function_name_id=128 line=252 end_line=255 column=22 end_column=19}
530 {file_name_id=7 function_name_id=128 line=256 end_line=256 column=22 end_column=62}
531 {file_name_id=33 function_name_id=125 line=279 end_line=281 column=12 end_column=12}
532 {file_name_id=33 function_name_id=125 line=286 end_line=293 column=24 end_column=7}
533 {file_name_id=6 function_name_id=130 line=401 end_line=411 column=16 end_column=3}
534 {file_name_id=6 function_name_id=130 line=413 end_line=417 column=16 end_column=16}
535 {file_name_id=17 function_name_id=36 line=92 end_line=94 column=6 end_column=7}
536 {file_name_id=6 function_name_id=13 line=279 end_line=283 column=23 end_column=3}
537 {file_name_id=6 function_name_id=13 line=259 end_line=261 column=16 end_column=5}
538 {file_name_id=6 function_name_id=13 line=249 end_line=249 column=12 end_column=66}
539 {file_name_id=6 function_name_id=13 line=168 end_line=172 column=27 end_column=5}
540 {file_name_id=6 function_name_id=13 line=141 end_line=141 column=31 end_column=74}
541 {file_name_id=6 function_name_id=131 line=63 end_line=63 column=6 end_column=45}
542 {file_name_id=33 function_name_id=126 line=189 end_line=191 column=22 end_column=5}
543 {file_name_id=34 function_name_id=132 line=150 end_line=150 column=17 end_column=40}
544 {file_name_id=33 function_name_id=126 line=153 end_line=157 column=19 end_column=5}
545 {file_name_id=33 function_name_id=123 line=335 end_line=335 column=4 end_column=27}
546 {file_name_id=33 function_name_id=124 line=68 end_line=68 column=34 end_column=59}
547 {file_name_id=33 function_name_id=124 line=68 end_line=68 column=2 end_column=31}
548 {file_name_id=33 function_name_id=124 line=71 end_line=71 column=6 end_column=21}
549 {file_name_id=17 function_name_id=36 line=91 end_line=91 column=17 end_column=29}
550 {file_name_id=33 function_name_id=124 line=73 end_line=73 column=8 end_column=37}
551 {file_name_id=33 function_name_id=133 line=45 end_line=45 column=11 end_column=47}
552 {file_name_id=33 function_name_id=133 line=45 end_line=45 column=2 end_column=8}
553 {file_name_id=33 function_name_id=133 line=46 end_line=46 column=31 end_column=50}
554 {file_name_id=33 function_name_id=133 line=46 end_line=46 column=12 end_column=51}
555 {file_name_id=33 function_name_id=133 line=46 end_line=46 column=7 end_column=51}
556 {file_name_id=33 function_name_id=133 line=47 end_line=47 column=17 end_column=69}
557 {file_name_id=33 function_name_id=133 line=47 end_line=47 column=12 end_column=69}
558 {file_name_id=33 function_name_id=133 line=47 end_line=47 column=7 end_column=69}
559 {file_name_id=33 function_name_id=133 line=48 end_line=48 column=31 end_column=50}
560 {file_name_id=33 function_name_id=133 line=48 end_line=48 column=12 end_column=51}
561 {file_name_id=33 function_name_id=133 line=48 end_line=48 column=7 end_column=51}
562 {file_name_id=33 function_name_id=133 line=49 end_line=49 column=7 end_column=24}
563 {file_name_id=33 function_name_id=133 line=50 end_line=50 column=9 end_column=32}
564 {file_name_id=33 function_name_id=124 line=74 end_line=74 column=16 end_column=62}
565 {file_name_id=33 function_name_id=124 line=79 end_line=79 column=10 end_column=28}
566 {file_name_id=33 function_name_id=124 line=77 end_line=82 column=6 end_column=7}
567 {file_name_id=33 function_name_id=124 line=85 end_line=85 column=31 end_column=46}
568 {file_name_id=33 function_name_id=124 line=85 end_line=85 column=9 end_column=46}
569 {file_name_id=33 function_name_id=123 line=341 end_line=341 column=30 end_column=60}
570 {file_name_id=33 function_name_id=123 line=341 end_line=341 column=12 end_column=61}
571 {file_name_id=33 function_name_id=123 line=342 end_line=342 column=32 end_column=41}
572 {file_name_id=33 function_name_id=123 line=342 end_line=342 column=12 end_column=42}
573 {file_name_id=33 function_name_id=123 line=344 end_line=344 column=48 end_column=56}
574 {file_name_id=33 function_name_id=123 line=344 end_line=344 column=59 end_column=78}
575 {file_name_id=33 function_name_id=123 line=344 end_line=344 column=39 end_column=79}
576 {file_name_id=33 function_name_id=123 line=344 end_line=344 column=18 end_column=79}
577 {file_name_id=33 function_name_id=123 line=345 end_line=345 column=26 end_column=71}
578 {file_name_id=33 function_name_id=123 line=345 end_line=345 column=12 end_column=71}
579 {file_name_id=33 function_name_id=123 line=346 end_line=346 column=22 end_column=39}
580 {file_name_id=33 function_name_id=126 line=158 end_line=158 column=18 end_column=74}
581 {file_name_id=33 function_name_id=126 line=159 end_line=169 column=16 end_column=5}
582 {file_name_id=33 function_name_id=126 line=172 end_line=174 column=6 end_column=7}
583 {file_name_id=33 function_name_id=126 line=177 end_line=177 column=18 end_column=75}
584 {file_name_id=33 function_name_id=126 line=183 end_line=187 column=18 end_column=18}
585 {file_name_id=33 function_name_id=126 line=190 end_line=190 column=33 end_column=57}
586 {file_name_id=34 function_name_id=132 line=146 end_line=146 column=38 end_column=71}
587 {file_name_id=34 function_name_id=132 line=146 end_line=146 column=28 end_column=71}
588 {file_name_id=34 function_name_id=132 line=149 end_line=149 column=15 end_column=49}
589 {file_name_id=34 function_name_id=132 line=150 end_line=150 column=9 end_column=41}
590 {file_name_id=33 function_name_id=126 line=192 end_line=202 column=19 end_column=5}
591 {file_name_id=33 function_name_id=126 line=192 end_line=202 column=4 end_column=5}
592 {file_name_id=14 function_name_id=134 line=208 end_line=208 column=12 end_column=75}
593 {file_name_id=14 function_name_id=135 line=206 end_line=206 column=15 end_column=65}
594 {file_name_id=33 function_name_id=126 line=205 end_line=207 column=6 end_column=7}
595 {file_name_id=33 function_name_id=125 line=235 end_line=235 column=30 end_column=50}
596 {file_name_id=33 function_name_id=125 line=235 end_line=235 column=12 end_column=50}
597 {file_name_id=33 function_name_id=125 line=236 end_line=236 column=27 end_column=41}
598 {file_name_id=33 function_name_id=125 line=236 end_line=236 column=18 end_column=58}
599 {file_name_id=33 function_name_id=125 line=236 end_line=236 column=12 end_column=58}
600 {file_name_id=6 function_name_id=131 line=51 end_line=53 column=8 end_column=34}
601 {file_name_id=6 function_name_id=131 line=55 end_line=55 column=6 end_column=50}
602 {file_name_id=6 function_name_id=131 line=54 end_line=56 column=9 end_column=3}
603 {file_name_id=6 function_name_id=131 line=54 end_line=56 column=2 end_column=3}
604 {file_name_id=6 function_name_id=131 line=60 end_line=60 column=6 end_column=54}
605 {file_name_id=6 function_name_id=131 line=59 end_line=61 column=9 end_column=3}
606 {file_name_id=6 function_name_id=131 line=59 end_line=61 column=2 end_column=3}
607 {file_name_id=6 function_name_id=131 line=62 end_line=64 column=9 end_column=3}
608 {file_name_id=6 function_name_id=131 line=62 end_line=64 column=2 end_column=3}
609 {file_name_id=6 function_name_id=131 line=67 end_line=67 column=25 end_column=80}
610 {file_name_id=6 function_name_id=131 line=70 end_line=70 column=6 end_column=60}
611 {file_name_id=6 function_name_id=131 line=69 end_line=71 column=9 end_column=3}
612 {file_name_id=6 function_name_id=131 line=69 end_line=71 column=2 end_column=3}
613 {file_name_id=6 function_name_id=131 line=72 end_line=72 column=9 end_column=53}
614 {file_name_id=6 function_name_id=131 line=72 end_line=72 column=2 end_column=65}
615 {file_name_id=6 function_name_id=13 line=143 end_line=147 column=24 end_column=3}
616 {file_name_id=6 function_name_id=13 line=148 end_line=152 column=17 end_column=3}
617 {file_name_id=6 function_name_id=13 line=156 end_line=167 column=24 end_column=5}
618 {file_name_id=6 function_name_id=13 line=168 end_line=172 column=4 end_column=5}
619 {file_name_id=6 function_name_id=13 line=181 end_line=185 column=18 end_column=5}
620 {file_name_id=6 function_name_id=13 line=186 end_line=190 column=18 end_column=18}
621 {file_name_id=6 function_name_id=13 line=191 end_line=191 column=19 end_column=42}
622 {file_name_id=6 function_name_id=13 line=191 end_line=191 column=4 end_column=42}
623 {file_name_id=6 function_name_id=13 line=192 end_line=192 column=4 end_column=38}
624 {file_name_id=6 function_name_id=13 line=195 end_line=199 column=21 end_column=3}
625 {file_name_id=6 function_name_id=13 line=200 end_line=202 column=14 end_column=3}
626 {file_name_id=6 function_name_id=13 line=208 end_line=208 column=4 end_column=36}
627 {file_name_id=6 function_name_id=13 line=206 end_line=208 column=12 end_column=37}
628 {file_name_id=6 function_name_id=13 line=209 end_line=213 column=25 end_column=3}
629 {file_name_id=6 function_name_id=13 line=216 end_line=216 column=4 end_column=37}
630 {file_name_id=6 function_name_id=13 line=214 end_line=216 column=12 end_column=38}
631 {file_name_id=6 function_name_id=13 line=217 end_line=217 column=13 end_column=35}
632 {file_name_id=6 function_name_id=13 line=217 end_line=217 column=38 end_column=60}
633 {file_name_id=6 function_name_id=13 line=226 end_line=237 column=22 end_column=5}
634 {file_name_id=6 function_name_id=13 line=249 end_line=249 column=25 end_column=66}
635 {file_name_id=6 function_name_id=13 line=250 end_line=250 column=14 end_column=52}
636 {file_name_id=6 function_name_id=13 line=253 end_line=253 column=12 end_column=53}
637 {file_name_id=6 function_name_id=13 line=254 end_line=254 column=14 end_column=52}
638 {file_name_id=6 function_name_id=13 line=259 end_line=261 column=4 end_column=5}
639 {file_name_id=6 function_name_id=13 line=264 end_line=268 column=20 end_column=3}
640 {file_name_id=6 function_name_id=13 line=269 end_line=273 column=26 end_column=3}
641 {file_name_id=6 function_name_id=13 line=274 end_line=278 column=17 end_column=3}
642 {file_name_id=6 function_name_id=13 line=286 end_line=286 column=6 end_column=39}
643 {file_name_id=6 function_name_id=13 line=286 end_line=286 column=43 end_column=73}
644 {file_name_id=6 function_name_id=13 line=288 end_line=288 column=12 end_column=42}
645 {file_name_id=6 function_name_id=13 line=288 end_line=288 column=45 end_column=72}
646 {file_name_id=6 function_name_id=13 line=290 end_line=294 column=6 end_column=16}
647 {file_name_id=6 function_name_id=13 line=295 end_line=295 column=8 end_column=36}
648 {file_name_id=6 function_name_id=13 line=289 end_line=296 column=2 end_column=3}
649 {file_name_id=6 function_name_id=13 line=299 end_line=299 column=21 end_column=40}
650 {file_name_id=6 function_name_id=13 line=302 end_line=302 column=21 end_column=44}
651 {file_name_id=6 function_name_id=13 line=302 end_line=302 column=17 end_column=44}
652 {file_name_id=6 function_name_id=13 line=302 end_line=302 column=10 end_column=45}
653 {file_name_id=6 function_name_id=13 line=301 end_line=303 column=6 end_column=7}
654 {file_name_id=6 function_name_id=13 line=304 end_line=304 column=8 end_column=36}
655 {file_name_id=6 function_name_id=13 line=300 end_line=305 column=2 end_column=3}
656 {file_name_id=6 function_name_id=13 line=309 end_line=309 column=4 end_column=32}
657 {file_name_id=6 function_name_id=13 line=307 end_line=309 column=14 end_column=53}
658 {file_name_id=6 function_name_id=13 line=307 end_line=309 column=2 end_column=53}
659 {file_name_id=6 function_name_id=13 line=314 end_line=314 column=4 end_column=25}
660 {file_name_id=6 function_name_id=13 line=312 end_line=314 column=14 end_column=26}
661 {file_name_id=6 function_name_id=13 line=317 end_line=317 column=4 end_column=26}
662 {file_name_id=6 function_name_id=13 line=315 end_line=317 column=14 end_column=27}
663 {file_name_id=6 function_name_id=13 line=322 end_line=322 column=4 end_column=26}
664 {file_name_id=6 function_name_id=13 line=318 end_line=322 column=14 end_column=27}
665 {file_name_id=6 function_name_id=13 line=318 end_line=322 column=2 end_column=27}
666 {file_name_id=7 function_name_id=14 line=402 end_line=405 column=18 end_column=15}
667 {file_name_id=7 function_name_id=14 line=407 end_line=407 column=18 end_column=61}
668 {file_name_id=6 function_name_id=13 line=336 end_line=336 column=17 end_column=40}
669 {file_name_id=6 function_name_id=13 line=336 end_line=336 column=2 end_column=40}
670 {file_name_id=6 function_name_id=13 line=340 end_line=342 column=16 end_column=16}
671 {file_name_id=6 function_name_id=13 line=343 end_line=347 column=20 end_column=3}
672 {file_name_id=6 function_name_id=13 line=349 end_line=349 column=6 end_column=33}
673 {file_name_id=6 function_name_id=13 line=349 end_line=349 column=35 end_column=63}
674 {file_name_id=33 function_name_id=125 line=252 end_line=263 column=13 end_column=7}
675 {file_name_id=33 function_name_id=125 line=252 end_line=263 column=6 end_column=7}
676 {file_name_id=33 function_name_id=125 line=268 end_line=268 column=22 end_column=67}
677 {file_name_id=6 function_name_id=130 line=381 end_line=383 column=14 end_column=14}
678 {file_name_id=6 function_name_id=130 line=389 end_line=389 column=6 end_column=27}
679 {file_name_id=6 function_name_id=130 line=388 end_line=391 column=19 end_column=3}
680 {file_name_id=6 function_name_id=130 line=392 end_line=396 column=16 end_column=3}
681 {file_name_id=6 function_name_id=130 line=397 end_line=397 column=2 end_column=36}
682 {file_name_id=6 function_name_id=130 line=398 end_line=398 column=17 end_column=44}
683 {file_name_id=6 function_name_id=130 line=398 end_line=398 column=2 end_column=44}
684 {file_name_id=6 function_name_id=130 line=412 end_line=412 column=17 end_column=44}
685 {file_name_id=6 function_name_id=130 line=412 end_line=412 column=2 end_column=44}
686 {file_name_id=6 function_name_id=130 line=418 end_line=423 column=28 end_column=16}
687 {file_name_id=6 function_name_id=130 line=424 end_line=428 column=20 end_column=3}
688 {file_name_id=33 function_name_id=125 line=295 end_line=295 column=38 end_column=52}
689 {file_name_id=33 function_name_id=125 line=295 end_line=295 column=21 end_column=69}
690 {file_name_id=33 function_name_id=125 line=297 end_line=297 column=10 end_column=34}
691 {file_name_id=33 function_name_id=125 line=297 end_line=297 column=46 end_column=60}
692 {file_name_id=33 function_name_id=125 line=297 end_line=297 column=37 end_column=77}
693 {file_name_id=33 function_name_id=125 line=302 end_line=302 column=8 end_column=38}
694 {file_name_id=33 function_name_id=125 line=302 end_line=302 column=41 end_column=70}
695 {file_name_id=33 function_name_id=125 line=303 end_line=303 column=8 end_column=28}
696 {file_name_id=33 function_name_id=125 line=301 end_line=303 column=11 end_column=28}
697 {file_name_id=33 function_name_id=123 line=349 end_line=349 column=12 end_column=48}
698 {file_name_id=33 function_name_id=123 line=349 end_line=349 column=11 end_column=57}
699 {file_name_id=33 function_name_id=123 line=351 end_line=351 column=10 end_column=29}
700 {file_name_id=33 function_name_id=123 line=352 end_line=352 column=38 end_column=61}
701 {file_name_id=33 function_name_id=123 line=352 end_line=352 column=20 end_column=68}
702 {file_name_id=4 function_name_id=136 line=329 end_line=337 column=37 end_column=9}
703 {file_name_id=35 function_name_id=137 line=136 end_line=142 column=18 end_column=7}
704 {file_name_id=35 function_name_id=138 line=91 end_line=93 column=12 end_column=5}
705 {file_name_id=35 function_name_id=137 line=162 end_line=162 column=29 end_column=69}
706 {file_name_id=35 function_name_id=139 line=146 end_line=156 column=15 end_column=9}
707 {file_name_id=35 function_name_id=137 line=174 end_line=174 column=8 end_column=48}
708 {file_name_id=35 function_name_id=137 line=193 end_line=193 column=23 end_column=63}
709 {file_name_id=35 function_name_id=137 line=196 end_line=196 column=10 end_column=56}
710 {file_name_id=35 function_name_id=137 line=198 end_line=200 column=36 end_column=7}
711 {file_name_id=35 function_name_id=137 line=200 end_line=200 column=10 end_column=43}
712 {file_name_id=35 function_name_id=137 line=209 end_line=209 column=8 end_column=52}
713 {file_name_id=35 function_name_id=137 line=221 end_line=221 column=18 end_column=53}
714 {file_name_id=35 function_name_id=137 line=225 end_line=225 column=12 end_column=53}
715 {file_name_id=35 function_name_id=137 line=232 end_line=238 column=8 end_column=9}
716 {file_name_id=35 function_name_id=140 line=311 end_line=311 column=23 end_column=54}
717 {file_name_id=35 function_name_id=140 line=318 end_line=318 column=42 end_column=56}
718 {file_name_id=35 function_name_id=140 line=323 end_line=325 column=18 end_column=5}
719 {file_name_id=35 function_name_id=141 line=306 end_line=306 column=26 end_column=66}
720 {file_name_id=35 function_name_id=140 line=326 end_line=328 column=21 end_column=5}
721 {file_name_id=35 function_name_id=137 line=252 end_line=252 column=6 end_column=54}
722 {file_name_id=35 function_name_id=137 line=257 end_line=257 column=8 end_column=45}
723 {file_name_id=35 function_name_id=137 line=256 end_line=258 column=21 end_column=5}
724 {file_name_id=35 function_name_id=137 line=267 end_line=267 column=6 end_column=65}
725 {file_name_id=35 function_name_id=137 line=269 end_line=271 column=40 end_column=5}
726 {file_name_id=35 function_name_id=137 line=259 end_line=259 column=21 end_column=43}
727 {file_name_id=35 function_name_id=137 line=255 end_line=255 column=18 end_column=61}
728 {file_name_id=35 function_name_id=138 line=86 end_line=90 column=16 end_column=5}
729 {file_name_id=35 function_name_id=137 line=125 end_line=125 column=22 end_column=44}
730 {file_name_id=35 function_name_id=137 line=126 end_line=126 column=18 end_column=40}
731 {file_name_id=35 function_name_id=137 line=126 end_line=126 column=43 end_column=65}
732 {file_name_id=35 function_name_id=137 line=129 end_line=129 column=17 end_column=49}
733 {file_name_id=35 function_name_id=137 line=130 end_line=130 column=19 end_column=53}
734 {file_name_id=35 function_name_id=138 line=80 end_line=82 column=10 end_column=5}
735 {file_name_id=35 function_name_id=138 line=83 end_line=85 column=11 end_column=5}
736 {file_name_id=35 function_name_id=138 line=83 end_line=85 column=4 end_column=37}
737 {file_name_id=20 function_name_id=48 line=64 end_line=64 column=12 end_column=47}
738 {file_name_id=35 function_name_id=138 line=94 end_line=94 column=13 end_column=33}
739 {file_name_id=35 function_name_id=138 line=94 end_line=94 column=4 end_column=33}
740 {file_name_id=35 function_name_id=138 line=97 end_line=97 column=8 end_column=36}
741 {file_name_id=35 function_name_id=138 line=96 end_line=98 column=11 end_column=5}
742 {file_name_id=35 function_name_id=138 line=96 end_line=98 column=4 end_column=5}
743 {file_name_id=35 function_name_id=137 line=136 end_line=142 column=6 end_column=7}
744 {file_name_id=35 function_name_id=137 line=163 end_line=163 column=17 end_column=45}
745 {file_name_id=35 function_name_id=137 line=170 end_line=174 column=29 end_column=49}
746 {file_name_id=35 function_name_id=137 line=176 end_line=178 column=47 end_column=7}
747 {file_name_id=35 function_name_id=137 line=176 end_line=178 column=24 end_column=7}
748 {file_name_id=35 function_name_id=137 line=180 end_line=182 column=24 end_column=7}
749 {file_name_id=35 function_name_id=137 line=184 end_line=184 column=13 end_column=31}
750 {file_name_id=35 function_name_id=137 line=184 end_line=184 column=34 end_column=52}
751 {file_name_id=35 function_name_id=137 line=187 end_line=187 column=38 end_column=46}
752 {file_name_id=35 function_name_id=137 line=187 end_line=187 column=20 end_column=46}
753 {file_name_id=35 function_name_id=137 line=190 end_line=190 column=24 end_column=40}
754 {file_name_id=35 function_name_id=137 line=189 end_line=191 column=20 end_column=7}
755 {file_name_id=35 function_name_id=137 line=196 end_line=196 column=18 end_column=46}
756 {file_name_id=35 function_name_id=137 line=205 end_line=209 column=19 end_column=53}
757 {file_name_id=35 function_name_id=137 line=211 end_line=213 column=19 end_column=7}
758 {file_name_id=35 function_name_id=137 line=214 end_line=214 column=13 end_column=26}
759 {file_name_id=35 function_name_id=137 line=214 end_line=214 column=29 end_column=42}
760 {file_name_id=35 function_name_id=137 line=216 end_line=216 column=33 end_column=41}
761 {file_name_id=35 function_name_id=137 line=216 end_line=216 column=20 end_column=41}
762 {file_name_id=35 function_name_id=137 line=219 end_line=219 column=24 end_column=40}
763 {file_name_id=35 function_name_id=137 line=218 end_line=220 column=20 end_column=7}
764 {file_name_id=35 function_name_id=137 line=224 end_line=224 column=23 end_column=45}
765 {file_name_id=35 function_name_id=137 line=224 end_line=224 column=48 end_column=70}
766 {file_name_id=35 function_name_id=137 line=225 end_line=225 column=20 end_column=43}
767 {file_name_id=35 function_name_id=140 line=310 end_line=310 column=8 end_column=24}
768 {file_name_id=35 function_name_id=140 line=310 end_line=310 column=28 end_column=44}
769 {file_name_id=35 function_name_id=140 line=311 end_line=311 column=31 end_column=44}
770 {file_name_id=35 function_name_id=140 line=312 end_line=312 column=27 end_column=52}
771 {file_name_id=35 function_name_id=140 line=312 end_line=312 column=55 end_column=80}
772 {file_name_id=35 function_name_id=140 line=314 end_line=314 column=33 end_column=58}
773 {file_name_id=35 function_name_id=140 line=314 end_line=314 column=28 end_column=59}
774 {file_name_id=35 function_name_id=140 line=314 end_line=314 column=4 end_column=59}
775 {file_name_id=35 function_name_id=140 line=315 end_line=315 column=27 end_column=59}
776 {file_name_id=35 function_name_id=140 line=317 end_line=319 column=24 end_column=5}
777 {file_name_id=35 function_name_id=141 line=291 end_line=291 column=24 end_column=61}
778 {file_name_id=35 function_name_id=141 line=297 end_line=297 column=19 end_column=39}
779 {file_name_id=35 function_name_id=141 line=297 end_line=297 column=18 end_column=53}
780 {file_name_id=35 function_name_id=141 line=297 end_line=297 column=11 end_column=53}
781 {file_name_id=35 function_name_id=141 line=300 end_line=300 column=11 end_column=25}
782 {file_name_id=35 function_name_id=141 line=301 end_line=301 column=20 end_column=46}
783 {file_name_id=35 function_name_id=141 line=304 end_line=304 column=30 end_column=53}
784 {file_name_id=35 function_name_id=141 line=304 end_line=304 column=56 end_column=70}
785 {file_name_id=35 function_name_id=141 line=304 end_line=304 column=26 end_column=70}
786 {file_name_id=35 function_name_id=141 line=304 end_line=304 column=19 end_column=71}
787 {file_name_id=35 function_name_id=141 line=306 end_line=306 column=34 end_column=56}
788 {file_name_id=35 function_name_id=137 line=244 end_line=244 column=17 end_column=45}
789 {file_name_id=35 function_name_id=137 line=248 end_line=252 column=19 end_column=55}
790 {file_name_id=35 function_name_id=137 line=263 end_line=267 column=37 end_column=66}
791 {file_name_id=4 function_name_id=6 line=328 end_line=339 column=24 end_column=32}
792 {file_name_id=4 function_name_id=6 line=341 end_line=343 column=16 end_column=71}
793 {file_name_id=36 function_name_id=142 line=73 end_line=73 column=12 end_column=43}
794 {file_name_id=36 function_name_id=142 line=82 end_line=82 column=28 end_column=49}
795 {file_name_id=33 function_name_id=120 line=358 end_line=358 column=17 end_column=69}
796 {file_name_id=33 function_name_id=143 line=90 end_line=91 column=6 end_column=72}
797 {file_name_id=33 function_name_id=143 line=91 end_line=91 column=9 end_column=66}
798 {file_name_id=33 function_name_id=143 line=91 end_line=91 column=27 end_column=66}
799 {file_name_id=4 function_name_id=6 line=309 end_line=311 column=18 end_column=9}
800 {file_name_id=4 function_name_id=6 line=305 end_line=308 column=16 end_column=9}
801 {file_name_id=4 function_name_id=12 line=162 end_line=165 column=18 end_column=5}
802 {file_name_id=31 function_name_id=144 line=153 end_line=156 column=6 end_column=7}
803 {file_name_id=31 function_name_id=144 line=159 end_line=159 column=25 end_column=59}
804 {file_name_id=31 function_name_id=144 line=174 end_line=174 column=9 end_column=50}
805 {file_name_id=4 function_name_id=12 line=165 end_line=165 column=6 end_column=19}
806 {file_name_id=4 function_name_id=12 line=176 end_line=176 column=18 end_column=72}
807 {file_name_id=18 function_name_id=118 line=693 end_line=693 column=2 end_column=32}
808 {file_name_id=33 function_name_id=120 line=358 end_line=358 column=32 end_column=68}
809 {file_name_id=33 function_name_id=143 line=91 end_line=91 column=8 end_column=72}
810 {file_name_id=33 function_name_id=120 line=360 end_line=360 column=19 end_column=40}
811 {file_name_id=33 function_name_id=120 line=360 end_line=360 column=2 end_column=16}
812 {file_name_id=33 function_name_id=120 line=361 end_line=361 column=14 end_column=78}
813 {file_name_id=33 function_name_id=120 line=362 end_line=362 column=15 end_column=30}
814 {file_name_id=33 function_name_id=120 line=362 end_line=362 column=2 end_column=30}
815 {file_name_id=33 function_name_id=120 line=367 end_line=367 column=15 end_column=36}
816 {file_name_id=33 function_name_id=120 line=373 end_line=373 column=50 end_column=66}
817 {file_name_id=33 function_name_id=120 line=376 end_line=376 column=35 end_column=45}
818 {file_name_id=36 function_name_id=142 line=63 end_line=63 column=16 end_column=33}
819 {file_name_id=36 function_name_id=142 line=63 end_line=63 column=36 end_column=53}
820 {file_name_id=36 function_name_id=142 line=65 end_line=69 column=23 end_column=15}
821 {file_name_id=36 function_name_id=142 line=72 end_line=72 column=32 end_column=71}
822 {file_name_id=36 function_name_id=142 line=72 end_line=72 column=13 end_column=71}
823 {file_name_id=36 function_name_id=142 line=74 end_line=78 column=13 end_column=5}
824 {file_name_id=36 function_name_id=142 line=80 end_line=80 column=34 end_column=44}
825 {file_name_id=36 function_name_id=142 line=80 end_line=80 column=48 end_column=58}
826 {file_name_id=36 function_name_id=142 line=80 end_line=80 column=61 end_column=71}
827 {file_name_id=36 function_name_id=142 line=80 end_line=80 column=15 end_column=73}
828 {file_name_id=36 function_name_id=142 line=82 end_line=82 column=21 end_column=50}
829 {file_name_id=36 function_name_id=142 line=83 end_line=85 column=20 end_column=5}
830 {file_name_id=36 function_name_id=142 line=86 end_line=86 column=20 end_column=45}
831 {file_name_id=33 function_name_id=120 line=376 end_line=376 column=26 end_column=67}

StackFrames
1 {file_location_id=1 parent_frame_id=1}
2 {file_location_id=2 parent_frame_id=2}
3 {file_location_id=3 parent_frame_id=3}
4 {file_location_id=4 parent_frame_id=4}
5 {file_location_id=5 parent_frame_id=5}
6 {file_location_id=6 parent_frame_id=6}
7 {file_location_id=7 parent_frame_id=7}
8 {file_location_id=8 parent_frame_id=8}
9 {file_location_id=9 parent_frame_id=9}
10 {file_location_id=10 parent_frame_id=10}
11 {file_location_id=1 parent_frame_id=11}
12 {file_location_id=2 parent_frame_id=12}
13 {file_location_id=3 parent_frame_id=13}
14 {file_location_id=4 parent_frame_id=14}
15 {file_location_id=5 parent_frame_id=15}
16 {file_location_id=6 parent_frame_id=16}
17 {file_location_id=7 parent_frame_id=17}
18 {file_location_id=8 parent_frame_id=18}
19 {file_location_id=9 parent_frame_id=19}
20 {file_location_id=10 parent_frame_id=20}
21 {file_location_id=1 parent_frame_id=21}
22 {file_location_id=2 parent_frame_id=22}
23 {file_location_id=3 parent_frame_id=23}
24 {file_location_id=4 parent_frame_id=24}
25 {file_location_id=5 parent_frame_id=25}
26 {file_location_id=6 parent_frame_id=26}
27 {file_location_id=7 parent_frame_id=27}
28 {file_location_id=8 parent_frame_id=28}
29 {file_location_id=9 parent_frame_id=29}
30 {file_location_id=10 parent_frame_id=30}
31 {file_location_id=11 parent_frame_id=1}
32 {file_location_id=1 parent_frame_id=32}
33 {file_location_id=2 parent_frame_id=33}
34 {file_location_id=3 parent_frame_id=34}
35 {file_location_id=4 parent_frame_id=35}
36 {file_location_id=5 parent_frame_id=36}
37 {file_location_id=12 parent_frame_id=37}
38 {file_location_id=13 parent_frame_id=38}
39 {file_location_id=14 parent_frame_id=39}
40 {file_location_id=15 parent_frame_id=39}
41 {file_location_id=4 parent_frame_id=41}
42 {file_location_id=5 parent_frame_id=42}
43 {file_location_id=16 parent_frame_id=43}
44 {file_location_id=4 parent_frame_id=44}
45 {file_location_id=5 parent_frame_id=45}
46 {file_location_id=17 parent_frame_id=46}
47 {file_location_id=4 parent_frame_id=47}
48 {file_location_id=5 parent_frame_id=48}
49 {file_location_id=18 parent_frame_id=49}
50 {file_location_id=12 parent_frame_id=6}
51 {file_location_id=13 parent_frame_id=51}
52 {file_location_id=15 parent_frame_id=52}
53 {file_location_id=4 parent_frame_id=53}
54 {file_location_id=5 parent_frame_id=54}
55 {file_location_id=19 parent_frame_id=55}
56 {file_location_id=20 parent_frame_id=56}
57 {file_location_id=21 parent_frame_id=57}
58 {file_location_id=22 parent_frame_id=1}
59 {file_location_id=2 parent_frame_id=59}
60 {file_location_id=23 parent_frame_id=60}
61 {file_location_id=24 parent_frame_id=61}
62 {file_location_id=25 parent_frame_id=62}
63 {file_location_id=26 parent_frame_id=63}
64 {file_location_id=4 parent_frame_id=64}
65 {file_location_id=5 parent_frame_id=65}
66 {file_location_id=17 parent_frame_id=66}
67 {file_location_id=4 parent_frame_id=67}
68 {file_location_id=5 parent_frame_id=68}
69 {file_location_id=18 parent_frame_id=69}
70 {file_location_id=27 parent_frame_id=63}
71 {file_location_id=4 parent_frame_id=71}
72 {file_location_id=5 parent_frame_id=72}
73 {file_location_id=17 parent_frame_id=73}
74 {file_location_id=4 parent_frame_id=74}
75 {file_location_id=5 parent_frame_id=75}
76 {file_location_id=18 parent_frame_id=76}
77 {file_location_id=28 parent_frame_id=62}
78 {file_location_id=26 parent_frame_id=78}
79 {file_location_id=4 parent_frame_id=79}
80 {file_location_id=5 parent_frame_id=80}
81 {file_location_id=17 parent_frame_id=81}
82 {file_location_id=4 parent_frame_id=82}
83 {file_location_id=5 parent_frame_id=83}
84 {file_location_id=18 parent_frame_id=84}
85 {file_location_id=27 parent_frame_id=78}
86 {file_location_id=4 parent_frame_id=86}
87 {file_location_id=5 parent_frame_id=87}
88 {file_location_id=17 parent_frame_id=88}
89 {file_location_id=4 parent_frame_id=89}
90 {file_location_id=5 parent_frame_id=90}
91 {file_location_id=18 parent_frame_id=91}
92 {file_location_id=29 parent_frame_id=62}
93 {file_location_id=30 parent_frame_id=61}
94 {file_location_id=31 parent_frame_id=94}
95 {file_location_id=26 parent_frame_id=95}
96 {file_location_id=4 parent_frame_id=96}
97 {file_location_id=5 parent_frame_id=97}
98 {file_location_id=17 parent_frame_id=98}
99 {file_location_id=4 parent_frame_id=99}
100 {file_location_id=5 parent_frame_id=100}
101 {file_location_id=18 parent_frame_id=101}
102 {file_location_id=27 parent_frame_id=95}
103 {file_location_id=4 parent_frame_id=103}
104 {file_location_id=5 parent_frame_id=104}
105 {file_location_id=17 parent_frame_id=105}
106 {file_location_id=4 parent_frame_id=106}
107 {file_location_id=5 parent_frame_id=107}
108 {file_location_id=18 parent_frame_id=108}
109 {file_location_id=32 parent_frame_id=62}
110 {file_location_id=33 parent_frame_id=62}
111 {file_location_id=34 parent_frame_id=62}
112 {file_location_id=35 parent_frame_id=62}
113 {file_location_id=36 parent_frame_id=61}
114 {file_location_id=37 parent_frame_id=114}
115 {file_location_id=38 parent_frame_id=114}
116 {file_location_id=39 parent_frame_id=114}
117 {file_location_id=40 parent_frame_id=114}
118 {file_location_id=41 parent_frame_id=62}
119 {file_location_id=42 parent_frame_id=62}
120 {file_location_id=43 parent_frame_id=69}
121 {file_location_id=44 parent_frame_id=69}
122 {file_location_id=45 parent_frame_id=69}
123 {file_location_id=46 parent_frame_id=69}
124 {file_location_id=47 parent_frame_id=69}
125 {file_location_id=48 parent_frame_id=73}
126 {file_location_id=43 parent_frame_id=76}
127 {file_location_id=44 parent_frame_id=76}
128 {file_location_id=45 parent_frame_id=76}
129 {file_location_id=49 parent_frame_id=76}
130 {file_location_id=46 parent_frame_id=76}
131 {file_location_id=47 parent_frame_id=76}
132 {file_location_id=50 parent_frame_id=63}
133 {file_location_id=4 parent_frame_id=133}
134 {file_location_id=5 parent_frame_id=134}
135 {file_location_id=51 parent_frame_id=135}
136 {file_location_id=52 parent_frame_id=135}
137 {file_location_id=53 parent_frame_id=63}
138 {file_location_id=4 parent_frame_id=138}
139 {file_location_id=5 parent_frame_id=139}
140 {file_location_id=51 parent_frame_id=140}
141 {file_location_id=54 parent_frame_id=63}
142 {file_location_id=22 parent_frame_id=142}
143 {file_location_id=2 parent_frame_id=143}
144 {file_location_id=23 parent_frame_id=144}
145 {file_location_id=24 parent_frame_id=145}
146 {file_location_id=25 parent_frame_id=146}
147 {file_location_id=54 parent_frame_id=147}
148 {file_location_id=43 parent_frame_id=84}
149 {file_location_id=44 parent_frame_id=84}
150 {file_location_id=45 parent_frame_id=84}
151 {file_location_id=46 parent_frame_id=84}
152 {file_location_id=47 parent_frame_id=84}
153 {file_location_id=48 parent_frame_id=88}
154 {file_location_id=43 parent_frame_id=91}
155 {file_location_id=44 parent_frame_id=91}
156 {file_location_id=45 parent_frame_id=91}
157 {file_location_id=49 parent_frame_id=91}
158 {file_location_id=46 parent_frame_id=91}
159 {file_location_id=47 parent_frame_id=91}
160 {file_location_id=50 parent_frame_id=78}
161 {file_location_id=4 parent_frame_id=161}
162 {file_location_id=5 parent_frame_id=162}
163 {file_location_id=51 parent_frame_id=163}
164 {file_location_id=52 parent_frame_id=163}
165 {file_location_id=53 parent_frame_id=78}
166 {file_location_id=4 parent_frame_id=166}
167 {file_location_id=5 parent_frame_id=167}
168 {file_location_id=51 parent_frame_id=168}
169 {file_location_id=54 parent_frame_id=78}
170 {file_location_id=22 parent_frame_id=170}
171 {file_location_id=2 parent_frame_id=171}
172 {file_location_id=23 parent_frame_id=172}
173 {file_location_id=24 parent_frame_id=173}
174 {file_location_id=28 parent_frame_id=174}
175 {file_location_id=54 parent_frame_id=175}
176 {file_location_id=55 parent_frame_id=62}
177 {file_location_id=4 parent_frame_id=177}
178 {file_location_id=5 parent_frame_id=178}
179 {file_location_id=51 parent_frame_id=179}
180 {file_location_id=52 parent_frame_id=179}
181 {file_location_id=56 parent_frame_id=62}
182 {file_location_id=4 parent_frame_id=182}
183 {file_location_id=5 parent_frame_id=183}
184 {file_location_id=51 parent_frame_id=184}
185 {file_location_id=57 parent_frame_id=62}
186 {file_location_id=58 parent_frame_id=62}
187 {file_location_id=59 parent_frame_id=62}
188 {file_location_id=4 parent_frame_id=188}
189 {file_location_id=5 parent_frame_id=189}
190 {file_location_id=51 parent_frame_id=190}
191 {file_location_id=60 parent_frame_id=62}
192 {file_location_id=61 parent_frame_id=62}
193 {file_location_id=62 parent_frame_id=62}
194 {file_location_id=4 parent_frame_id=194}
195 {file_location_id=5 parent_frame_id=195}
196 {file_location_id=51 parent_frame_id=196}
197 {file_location_id=63 parent_frame_id=62}
198 {file_location_id=22 parent_frame_id=198}
199 {file_location_id=2 parent_frame_id=199}
200 {file_location_id=23 parent_frame_id=200}
201 {file_location_id=24 parent_frame_id=201}
202 {file_location_id=25 parent_frame_id=202}
203 {file_location_id=54 parent_frame_id=203}
204 {file_location_id=64 parent_frame_id=62}
205 {file_location_id=65 parent_frame_id=62}
206 {file_location_id=66 parent_frame_id=206}
207 {file_location_id=4 parent_frame_id=207}
208 {file_location_id=5 parent_frame_id=208}
209 {file_location_id=51 parent_frame_id=209}
210 {file_location_id=67 parent_frame_id=206}
211 {file_location_id=4 parent_frame_id=211}
212 {file_location_id=5 parent_frame_id=212}
213 {file_location_id=51 parent_frame_id=213}
214 {file_location_id=52 parent_frame_id=213}
215 {file_location_id=68 parent_frame_id=206}
216 {file_location_id=22 parent_frame_id=216}
217 {file_location_id=2 parent_frame_id=217}
218 {file_location_id=23 parent_frame_id=218}
219 {file_location_id=24 parent_frame_id=219}
220 {file_location_id=25 parent_frame_id=220}
221 {file_location_id=54 parent_frame_id=221}
222 {file_location_id=69 parent_frame_id=61}
223 {file_location_id=43 parent_frame_id=101}
224 {file_location_id=44 parent_frame_id=101}
225 {file_location_id=45 parent_frame_id=101}
226 {file_location_id=46 parent_frame_id=101}
227 {file_location_id=47 parent_frame_id=101}
228 {file_location_id=48 parent_frame_id=105}
229 {file_location_id=43 parent_frame_id=108}
230 {file_location_id=44 parent_frame_id=108}
231 {file_location_id=45 parent_frame_id=108}
232 {file_location_id=49 parent_frame_id=108}
233 {file_location_id=46 parent_frame_id=108}
234 {file_location_id=47 parent_frame_id=108}
235 {file_location_id=50 parent_frame_id=95}
236 {file_location_id=4 parent_frame_id=236}
237 {file_location_id=5 parent_frame_id=237}
238 {file_location_id=51 parent_frame_id=238}
239 {file_location_id=52 parent_frame_id=238}
240 {file_location_id=53 parent_frame_id=95}
241 {file_location_id=4 parent_frame_id=241}
242 {file_location_id=5 parent_frame_id=242}
243 {file_location_id=51 parent_frame_id=243}
244 {file_location_id=54 parent_frame_id=95}
245 {file_location_id=22 parent_frame_id=245}
246 {file_location_id=2 parent_frame_id=246}
247 {file_location_id=23 parent_frame_id=247}
248 {file_location_id=24 parent_frame_id=248}
249 {file_location_id=25 parent_frame_id=249}
250 {file_location_id=54 parent_frame_id=250}
251 {file_location_id=70 parent_frame_id=94}
252 {file_location_id=71 parent_frame_id=94}
253 {file_location_id=72 parent_frame_id=253}
254 {file_location_id=73 parent_frame_id=254}
255 {file_location_id=74 parent_frame_id=255}
256 {file_location_id=75 parent_frame_id=256}
257 {file_location_id=76 parent_frame_id=257}
258 {file_location_id=77 parent_frame_id=258}
259 {file_location_id=78 parent_frame_id=259}
260 {file_location_id=79 parent_frame_id=260}
261 {file_location_id=80 parent_frame_id=261}
262 {file_location_id=81 parent_frame_id=261}
263 {file_location_id=82 parent_frame_id=261}
264 {file_location_id=83 parent_frame_id=261}
265 {file_location_id=84 parent_frame_id=261}
266 {file_location_id=85 parent_frame_id=94}
267 {file_location_id=66 parent_frame_id=267}
268 {file_location_id=4 parent_frame_id=268}
269 {file_location_id=5 parent_frame_id=269}
270 {file_location_id=51 parent_frame_id=270}
271 {file_location_id=67 parent_frame_id=267}
272 {file_location_id=4 parent_frame_id=272}
273 {file_location_id=5 parent_frame_id=273}
274 {file_location_id=51 parent_frame_id=274}
275 {file_location_id=52 parent_frame_id=274}
276 {file_location_id=68 parent_frame_id=267}
277 {file_location_id=22 parent_frame_id=277}
278 {file_location_id=2 parent_frame_id=278}
279 {file_location_id=23 parent_frame_id=279}
280 {file_location_id=24 parent_frame_id=280}
281 {file_location_id=25 parent_frame_id=281}
282 {file_location_id=54 parent_frame_id=282}
283 {file_location_id=86 parent_frame_id=61}
284 {file_location_id=19 parent_frame_id=43}
285 {file_location_id=20 parent_frame_id=285}
286 {file_location_id=21 parent_frame_id=286}
287 {file_location_id=1 parent_frame_id=287}
288 {file_location_id=2 parent_frame_id=288}
289 {file_location_id=3 parent_frame_id=289}
290 {file_location_id=4 parent_frame_id=290}
291 {file_location_id=5 parent_frame_id=291}
292 {file_location_id=12 parent_frame_id=292}
293 {file_location_id=13 parent_frame_id=293}
294 {file_location_id=15 parent_frame_id=294}
295 {file_location_id=4 parent_frame_id=295}
296 {file_location_id=5 parent_frame_id=296}
297 {file_location_id=19 parent_frame_id=297}
298 {file_location_id=20 parent_frame_id=298}
299 {file_location_id=21 parent_frame_id=299}
300 {file_location_id=1 parent_frame_id=300}
301 {file_location_id=2 parent_frame_id=301}
302 {file_location_id=3 parent_frame_id=302}
303 {file_location_id=4 parent_frame_id=303}
304 {file_location_id=5 parent_frame_id=304}
305 {file_location_id=12 parent_frame_id=305}
306 {file_location_id=13 parent_frame_id=306}
307 {file_location_id=15 parent_frame_id=307}
308 {file_location_id=4 parent_frame_id=308}
309 {file_location_id=5 parent_frame_id=309}
310 {file_location_id=19 parent_frame_id=310}
311 {file_location_id=20 parent_frame_id=311}
312 {file_location_id=21 parent_frame_id=312}
313 {file_location_id=87 parent_frame_id=39}
314 {file_location_id=88 parent_frame_id=314}
315 {file_location_id=89 parent_frame_id=314}
316 {file_location_id=90 parent_frame_id=1}
317 {file_location_id=91 parent_frame_id=317}
318 {file_location_id=4 parent_frame_id=318}
319 {file_location_id=5 parent_frame_id=319}
320 {file_location_id=92 parent_frame_id=320}
321 {file_location_id=4 parent_frame_id=321}
322 {file_location_id=5 parent_frame_id=322}
323 {file_location_id=17 parent_frame_id=323}
324 {file_location_id=4 parent_frame_id=324}
325 {file_location_id=5 parent_frame_id=325}
326 {file_location_id=18 parent_frame_id=326}
327 {file_location_id=93 parent_frame_id=326}
328 {file_location_id=94 parent_frame_id=320}
329 {file_location_id=95 parent_frame_id=329}
330 {file_location_id=96 parent_frame_id=329}
331 {file_location_id=97 parent_frame_id=320}
332 {file_location_id=98 parent_frame_id=332}
333 {file_location_id=4 parent_frame_id=333}
334 {file_location_id=5 parent_frame_id=334}
335 {file_location_id=99 parent_frame_id=335}
336 {file_location_id=100 parent_frame_id=336}
337 {file_location_id=101 parent_frame_id=1}
338 {file_location_id=102 parent_frame_id=338}
339 {file_location_id=4 parent_frame_id=339}
340 {file_location_id=5 parent_frame_id=340}
341 {file_location_id=103 parent_frame_id=341}
342 {file_location_id=104 parent_frame_id=342}
343 {file_location_id=105 parent_frame_id=343}
344 {file_location_id=106 parent_frame_id=342}
345 {file_location_id=4 parent_frame_id=345}
346 {file_location_id=5 parent_frame_id=346}
347 {file_location_id=17 parent_frame_id=347}
348 {file_location_id=4 parent_frame_id=348}
349 {file_location_id=5 parent_frame_id=349}
350 {file_location_id=18 parent_frame_id=350}
351 {file_location_id=93 parent_frame_id=350}
352 {file_location_id=107 parent_frame_id=341}
353 {file_location_id=108 parent_frame_id=353}
354 {file_location_id=21 parent_frame_id=354}
355 {file_location_id=109 parent_frame_id=60}
356 {file_location_id=110 parent_frame_id=356}
357 {file_location_id=4 parent_frame_id=357}
358 {file_location_id=5 parent_frame_id=358}
359 {file_location_id=111 parent_frame_id=359}
360 {file_location_id=4 parent_frame_id=360}
361 {file_location_id=5 parent_frame_id=361}
362 {file_location_id=112 parent_frame_id=362}
363 {file_location_id=4 parent_frame_id=363}
364 {file_location_id=5 parent_frame_id=364}
365 {file_location_id=17 parent_frame_id=365}
366 {file_location_id=4 parent_frame_id=366}
367 {file_location_id=5 parent_frame_id=367}
368 {file_location_id=18 parent_frame_id=368}
369 {file_location_id=93 parent_frame_id=368}
370 {file_location_id=113 parent_frame_id=362}
371 {file_location_id=4 parent_frame_id=371}
372 {file_location_id=5 parent_frame_id=372}
373 {file_location_id=17 parent_frame_id=373}
374 {file_location_id=4 parent_frame_id=374}
375 {file_location_id=5 parent_frame_id=375}
376 {file_location_id=18 parent_frame_id=376}
377 {file_location_id=93 parent_frame_id=376}
378 {file_location_id=114 parent_frame_id=359}
379 {file_location_id=4 parent_frame_id=379}
380 {file_location_id=5 parent_frame_id=380}
381 {file_location_id=112 parent_frame_id=381}
382 {file_location_id=4 parent_frame_id=382}
383 {file_location_id=5 parent_frame_id=383}
384 {file_location_id=17 parent_frame_id=384}
385 {file_location_id=4 parent_frame_id=385}
386 {file_location_id=5 parent_frame_id=386}
387 {file_location_id=18 parent_frame_id=387}
388 {file_location_id=93 parent_frame_id=387}
389 {file_location_id=113 parent_frame_id=381}
390 {file_location_id=4 parent_frame_id=390}
391 {file_location_id=5 parent_frame_id=391}
392 {file_location_id=17 parent_frame_id=392}
393 {file_location_id=4 parent_frame_id=393}
394 {file_location_id=5 parent_frame_id=394}
395 {file_location_id=18 parent_frame_id=395}
396 {file_location_id=93 parent_frame_id=395}
397 {file_location_id=115 parent_frame_id=359}
398 {file_location_id=4 parent_frame_id=398}
399 {file_location_id=5 parent_frame_id=399}
400 {file_location_id=116 parent_frame_id=400}
401 {file_location_id=4 parent_frame_id=401}
402 {file_location_id=5 parent_frame_id=402}
403 {file_location_id=17 parent_frame_id=403}
404 {file_location_id=4 parent_frame_id=404}
405 {file_location_id=5 parent_frame_id=405}
406 {file_location_id=18 parent_frame_id=406}
407 {file_location_id=93 parent_frame_id=406}
408 {file_location_id=117 parent_frame_id=400}
409 {file_location_id=118 parent_frame_id=409}
410 {file_location_id=119 parent_frame_id=410}
411 {file_location_id=100 parent_frame_id=411}
412 {file_location_id=120 parent_frame_id=338}
413 {file_location_id=121 parent_frame_id=413}
414 {file_location_id=122 parent_frame_id=414}
415 {file_location_id=123 parent_frame_id=415}
416 {file_location_id=124 parent_frame_id=416}
417 {file_location_id=125 parent_frame_id=417}
418 {file_location_id=78 parent_frame_id=418}
419 {file_location_id=79 parent_frame_id=419}
420 {file_location_id=126 parent_frame_id=420}
421 {file_location_id=127 parent_frame_id=421}
422 {file_location_id=73 parent_frame_id=422}
423 {file_location_id=74 parent_frame_id=423}
424 {file_location_id=75 parent_frame_id=424}
425 {file_location_id=128 parent_frame_id=425}
426 {file_location_id=129 parent_frame_id=425}
427 {file_location_id=76 parent_frame_id=425}
428 {file_location_id=77 parent_frame_id=428}
429 {file_location_id=78 parent_frame_id=429}
430 {file_location_id=79 parent_frame_id=430}
431 {file_location_id=130 parent_frame_id=431}
432 {file_location_id=131 parent_frame_id=414}
433 {file_location_id=132 parent_frame_id=433}
434 {file_location_id=133 parent_frame_id=434}
435 {file_location_id=134 parent_frame_id=416}
436 {file_location_id=4 parent_frame_id=436}
437 {file_location_id=5 parent_frame_id=437}
438 {file_location_id=51 parent_frame_id=438}
439 {file_location_id=135 parent_frame_id=416}
440 {file_location_id=4 parent_frame_id=440}
441 {file_location_id=5 parent_frame_id=441}
442 {file_location_id=51 parent_frame_id=442}
443 {file_location_id=136 parent_frame_id=416}
444 {file_location_id=4 parent_frame_id=444}
445 {file_location_id=5 parent_frame_id=445}
446 {file_location_id=51 parent_frame_id=446}
447 {file_location_id=137 parent_frame_id=416}
448 {file_location_id=138 parent_frame_id=431}
449 {file_location_id=139 parent_frame_id=431}
450 {file_location_id=140 parent_frame_id=431}
451 {file_location_id=141 parent_frame_id=425}
452 {file_location_id=142 parent_frame_id=425}
453 {file_location_id=143 parent_frame_id=425}
454 {file_location_id=144 parent_frame_id=431}
455 {file_location_id=145 parent_frame_id=431}
456 {file_location_id=146 parent_frame_id=416}
457 {file_location_id=147 parent_frame_id=416}
458 {file_location_id=4 parent_frame_id=458}
459 {file_location_id=5 parent_frame_id=459}
460 {file_location_id=51 parent_frame_id=460}
461 {file_location_id=148 parent_frame_id=416}
462 {file_location_id=101 parent_frame_id=462}
463 {file_location_id=120 parent_frame_id=463}
464 {file_location_id=121 parent_frame_id=464}
465 {file_location_id=122 parent_frame_id=465}
466 {file_location_id=123 parent_frame_id=466}
467 {file_location_id=148 parent_frame_id=467}
468 {file_location_id=149 parent_frame_id=416}
469 {file_location_id=150 parent_frame_id=416}
470 {file_location_id=4 parent_frame_id=470}
471 {file_location_id=5 parent_frame_id=471}
472 {file_location_id=51 parent_frame_id=472}
473 {file_location_id=151 parent_frame_id=413}
474 {file_location_id=152 parent_frame_id=474}
475 {file_location_id=22 parent_frame_id=412}
476 {file_location_id=2 parent_frame_id=476}
477 {file_location_id=109 parent_frame_id=477}
478 {file_location_id=110 parent_frame_id=478}
479 {file_location_id=4 parent_frame_id=479}
480 {file_location_id=5 parent_frame_id=480}
481 {file_location_id=115 parent_frame_id=481}
482 {file_location_id=4 parent_frame_id=482}
483 {file_location_id=5 parent_frame_id=483}
484 {file_location_id=117 parent_frame_id=484}
485 {file_location_id=118 parent_frame_id=485}
486 {file_location_id=119 parent_frame_id=486}
487 {file_location_id=100 parent_frame_id=487}
488 {file_location_id=22 parent_frame_id=488}
489 {file_location_id=2 parent_frame_id=489}
490 {file_location_id=109 parent_frame_id=490}
491 {file_location_id=110 parent_frame_id=491}
492 {file_location_id=4 parent_frame_id=492}
493 {file_location_id=5 parent_frame_id=493}
494 {file_location_id=115 parent_frame_id=494}
495 {file_location_id=4 parent_frame_id=495}
496 {file_location_id=5 parent_frame_id=496}
497 {file_location_id=117 parent_frame_id=497}
498 {file_location_id=118 parent_frame_id=498}
499 {file_location_id=119 parent_frame_id=499}
500 {file_location_id=100 parent_frame_id=500}
501 {file_location_id=153 parent_frame_id=410}
502 {file_location_id=121 parent_frame_id=502}
503 {file_location_id=122 parent_frame_id=503}
504 {file_location_id=123 parent_frame_id=504}
505 {file_location_id=124 parent_frame_id=505}
506 {file_location_id=125 parent_frame_id=506}
507 {file_location_id=78 parent_frame_id=507}
508 {file_location_id=79 parent_frame_id=508}
509 {file_location_id=126 parent_frame_id=509}
510 {file_location_id=127 parent_frame_id=510}
511 {file_location_id=73 parent_frame_id=511}
512 {file_location_id=74 parent_frame_id=512}
513 {file_location_id=75 parent_frame_id=513}
514 {file_location_id=128 parent_frame_id=514}
515 {file_location_id=129 parent_frame_id=514}
516 {file_location_id=154 parent_frame_id=359}
517 {file_location_id=4 parent_frame_id=517}
518 {file_location_id=5 parent_frame_id=518}
519 {file_location_id=116 parent_frame_id=519}
520 {file_location_id=4 parent_frame_id=520}
521 {file_location_id=5 parent_frame_id=521}
522 {file_location_id=17 parent_frame_id=522}
523 {file_location_id=4 parent_frame_id=523}
524 {file_location_id=5 parent_frame_id=524}
525 {file_location_id=18 parent_frame_id=525}
526 {file_location_id=93 parent_frame_id=525}
527 {file_location_id=117 parent_frame_id=519}
528 {file_location_id=118 parent_frame_id=528}
529 {file_location_id=119 parent_frame_id=529}
530 {file_location_id=100 parent_frame_id=530}
531 {file_location_id=22 parent_frame_id=531}
532 {file_location_id=2 parent_frame_id=532}
533 {file_location_id=109 parent_frame_id=533}
534 {file_location_id=110 parent_frame_id=534}
535 {file_location_id=4 parent_frame_id=535}
536 {file_location_id=5 parent_frame_id=536}
537 {file_location_id=154 parent_frame_id=537}
538 {file_location_id=4 parent_frame_id=538}
539 {file_location_id=5 parent_frame_id=539}
540 {file_location_id=117 parent_frame_id=540}
541 {file_location_id=118 parent_frame_id=541}
542 {file_location_id=119 parent_frame_id=542}
543 {file_location_id=100 parent_frame_id=543}
544 {file_location_id=22 parent_frame_id=544}
545 {file_location_id=2 parent_frame_id=545}
546 {file_location_id=109 parent_frame_id=546}
547 {file_location_id=110 parent_frame_id=547}
548 {file_location_id=4 parent_frame_id=548}
549 {file_location_id=5 parent_frame_id=549}
550 {file_location_id=154 parent_frame_id=550}
551 {file_location_id=4 parent_frame_id=551}
552 {file_location_id=5 parent_frame_id=552}
553 {file_location_id=117 parent_frame_id=553}
554 {file_location_id=118 parent_frame_id=554}
555 {file_location_id=119 parent_frame_id=555}
556 {file_location_id=100 parent_frame_id=556}
557 {file_location_id=153 parent_frame_id=529}
558 {file_location_id=121 parent_frame_id=558}
559 {file_location_id=122 parent_frame_id=559}
560 {file_location_id=123 parent_frame_id=560}
561 {file_location_id=124 parent_frame_id=561}
562 {file_location_id=125 parent_frame_id=562}
563 {file_location_id=78 parent_frame_id=563}
564 {file_location_id=79 parent_frame_id=564}
565 {file_location_id=126 parent_frame_id=565}
566 {file_location_id=127 parent_frame_id=566}
567 {file_location_id=73 parent_frame_id=567}
568 {file_location_id=74 parent_frame_id=568}
569 {file_location_id=75 parent_frame_id=569}
570 {file_location_id=128 parent_frame_id=570}
571 {file_location_id=129 parent_frame_id=570}
572 {file_location_id=155 parent_frame_id=359}
573 {file_location_id=4 parent_frame_id=573}
574 {file_location_id=5 parent_frame_id=574}
575 {file_location_id=156 parent_frame_id=575}
576 {file_location_id=4 parent_frame_id=576}
577 {file_location_id=5 parent_frame_id=577}
578 {file_location_id=17 parent_frame_id=578}
579 {file_location_id=4 parent_frame_id=579}
580 {file_location_id=5 parent_frame_id=580}
581 {file_location_id=18 parent_frame_id=581}
582 {file_location_id=93 parent_frame_id=581}
583 {file_location_id=76 parent_frame_id=1}
584 {file_location_id=77 parent_frame_id=584}
585 {file_location_id=78 parent_frame_id=585}
586 {file_location_id=79 parent_frame_id=586}
587 {file_location_id=83 parent_frame_id=587}
588 {file_location_id=157 parent_frame_id=362}
589 {file_location_id=158 parent_frame_id=365}
590 {file_location_id=48 parent_frame_id=365}
591 {file_location_id=159 parent_frame_id=365}
592 {file_location_id=160 parent_frame_id=368}
593 {file_location_id=161 parent_frame_id=368}
594 {file_location_id=162 parent_frame_id=368}
595 {file_location_id=44 parent_frame_id=368}
596 {file_location_id=45 parent_frame_id=368}
597 {file_location_id=49 parent_frame_id=368}
598 {file_location_id=46 parent_frame_id=368}
599 {file_location_id=47 parent_frame_id=368}
600 {file_location_id=163 parent_frame_id=365}
601 {file_location_id=164 parent_frame_id=362}
602 {file_location_id=165 parent_frame_id=362}
603 {file_location_id=72 parent_frame_id=603}
604 {file_location_id=73 parent_frame_id=604}
605 {file_location_id=74 parent_frame_id=605}
606 {file_location_id=75 parent_frame_id=606}
607 {file_location_id=76 parent_frame_id=607}
608 {file_location_id=77 parent_frame_id=608}
609 {file_location_id=78 parent_frame_id=609}
610 {file_location_id=79 parent_frame_id=610}
611 {file_location_id=80 parent_frame_id=611}
612 {file_location_id=81 parent_frame_id=611}
613 {file_location_id=82 parent_frame_id=611}
614 {file_location_id=83 parent_frame_id=611}
615 {file_location_id=76 parent_frame_id=615}
616 {file_location_id=77 parent_frame_id=616}
617 {file_location_id=78 parent_frame_id=617}
618 {file_location_id=79 parent_frame_id=618}
619 {file_location_id=83 parent_frame_id=619}
620 {file_location_id=84 parent_frame_id=611}
621 {file_location_id=166 parent_frame_id=611}
622 {file_location_id=167 parent_frame_id=362}
623 {file_location_id=168 parent_frame_id=362}
624 {file_location_id=169 parent_frame_id=362}
625 {file_location_id=170 parent_frame_id=362}
626 {file_location_id=171 parent_frame_id=362}
627 {file_location_id=172 parent_frame_id=362}
628 {file_location_id=173 parent_frame_id=362}
629 {file_location_id=158 parent_frame_id=373}
630 {file_location_id=48 parent_frame_id=373}
631 {file_location_id=159 parent_frame_id=373}
632 {file_location_id=160 parent_frame_id=376}
633 {file_location_id=161 parent_frame_id=376}
634 {file_location_id=162 parent_frame_id=376}
635 {file_location_id=44 parent_frame_id=376}
636 {file_location_id=45 parent_frame_id=376}
637 {file_location_id=49 parent_frame_id=376}
638 {file_location_id=46 parent_frame_id=376}
639 {file_location_id=47 parent_frame_id=376}
640 {file_location_id=163 parent_frame_id=373}
641 {file_location_id=174 parent_frame_id=362}
642 {file_location_id=175 parent_frame_id=362}
643 {file_location_id=4 parent_frame_id=643}
644 {file_location_id=5 parent_frame_id=644}
645 {file_location_id=51 parent_frame_id=645}
646 {file_location_id=176 parent_frame_id=362}
647 {file_location_id=4 parent_frame_id=647}
648 {file_location_id=5 parent_frame_id=648}
649 {file_location_id=51 parent_frame_id=649}
650 {file_location_id=177 parent_frame_id=362}
651 {file_location_id=22 parent_frame_id=651}
652 {file_location_id=2 parent_frame_id=652}
653 {file_location_id=109 parent_frame_id=653}
654 {file_location_id=110 parent_frame_id=654}
655 {file_location_id=4 parent_frame_id=655}
656 {file_location_id=5 parent_frame_id=656}
657 {file_location_id=111 parent_frame_id=657}
658 {file_location_id=4 parent_frame_id=658}
659 {file_location_id=5 parent_frame_id=659}
660 {file_location_id=177 parent_frame_id=660}
661 {file_location_id=178 parent_frame_id=362}
662 {file_location_id=179 parent_frame_id=359}
663 {file_location_id=157 parent_frame_id=381}
664 {file_location_id=158 parent_frame_id=384}
665 {file_location_id=48 parent_frame_id=384}
666 {file_location_id=159 parent_frame_id=384}
667 {file_location_id=160 parent_frame_id=387}
668 {file_location_id=161 parent_frame_id=387}
669 {file_location_id=162 parent_frame_id=387}
670 {file_location_id=44 parent_frame_id=387}
671 {file_location_id=45 parent_frame_id=387}
672 {file_location_id=49 parent_frame_id=387}
673 {file_location_id=46 parent_frame_id=387}
674 {file_location_id=47 parent_frame_id=387}
675 {file_location_id=163 parent_frame_id=384}
676 {file_location_id=164 parent_frame_id=381}
677 {file_location_id=165 parent_frame_id=381}
678 {file_location_id=72 parent_frame_id=678}
679 {file_location_id=73 parent_frame_id=679}
680 {file_location_id=74 parent_frame_id=680}
681 {file_location_id=75 parent_frame_id=681}
682 {file_location_id=76 parent_frame_id=682}
683 {file_location_id=77 parent_frame_id=683}
684 {file_location_id=78 parent_frame_id=684}
685 {file_location_id=79 parent_frame_id=685}
686 {file_location_id=80 parent_frame_id=686}
687 {file_location_id=81 parent_frame_id=686}
688 {file_location_id=82 parent_frame_id=686}
689 {file_location_id=83 parent_frame_id=686}
690 {file_location_id=76 parent_frame_id=690}
691 {file_location_id=77 parent_frame_id=691}
692 {file_location_id=78 parent_frame_id=692}
693 {file_location_id=79 parent_frame_id=693}
694 {file_location_id=83 parent_frame_id=694}
695 {file_location_id=84 parent_frame_id=686}
696 {file_location_id=166 parent_frame_id=686}
697 {file_location_id=167 parent_frame_id=381}
698 {file_location_id=168 parent_frame_id=381}
699 {file_location_id=169 parent_frame_id=381}
700 {file_location_id=170 parent_frame_id=381}
701 {file_location_id=171 parent_frame_id=381}
702 {file_location_id=172 parent_frame_id=381}
703 {file_location_id=173 parent_frame_id=381}
704 {file_location_id=158 parent_frame_id=392}
705 {file_location_id=48 parent_frame_id=392}
706 {file_location_id=159 parent_frame_id=392}
707 {file_location_id=160 parent_frame_id=395}
708 {file_location_id=161 parent_frame_id=395}
709 {file_location_id=162 parent_frame_id=395}
710 {file_location_id=44 parent_frame_id=395}
711 {file_location_id=45 parent_frame_id=395}
712 {file_location_id=49 parent_frame_id=395}
713 {file_location_id=46 parent_frame_id=395}
714 {file_location_id=47 parent_frame_id=395}
715 {file_location_id=163 parent_frame_id=392}
716 {file_location_id=174 parent_frame_id=381}
717 {file_location_id=175 parent_frame_id=381}
718 {file_location_id=4 parent_frame_id=718}
719 {file_location_id=5 parent_frame_id=719}
720 {file_location_id=51 parent_frame_id=720}
721 {file_location_id=176 parent_frame_id=381}
722 {file_location_id=4 parent_frame_id=722}
723 {file_location_id=5 parent_frame_id=723}
724 {file_location_id=51 parent_frame_id=724}
725 {file_location_id=177 parent_frame_id=381}
726 {file_location_id=22 parent_frame_id=726}
727 {file_location_id=2 parent_frame_id=727}
728 {file_location_id=109 parent_frame_id=728}
729 {file_location_id=110 parent_frame_id=729}
730 {file_location_id=4 parent_frame_id=730}
731 {file_location_id=5 parent_frame_id=731}
732 {file_location_id=111 parent_frame_id=732}
733 {file_location_id=4 parent_frame_id=733}
734 {file_location_id=5 parent_frame_id=734}
735 {file_location_id=177 parent_frame_id=735}
736 {file_location_id=178 parent_frame_id=381}
737 {file_location_id=180 parent_frame_id=359}
738 {file_location_id=181 parent_frame_id=400}
739 {file_location_id=158 parent_frame_id=403}
740 {file_location_id=48 parent_frame_id=403}
741 {file_location_id=159 parent_frame_id=403}
742 {file_location_id=160 parent_frame_id=406}
743 {file_location_id=161 parent_frame_id=406}
744 {file_location_id=162 parent_frame_id=406}
745 {file_location_id=44 parent_frame_id=406}
746 {file_location_id=45 parent_frame_id=406}
747 {file_location_id=49 parent_frame_id=406}
748 {file_location_id=46 parent_frame_id=406}
749 {file_location_id=47 parent_frame_id=406}
750 {file_location_id=163 parent_frame_id=403}
751 {file_location_id=182 parent_frame_id=400}
752 {file_location_id=4 parent_frame_id=752}
753 {file_location_id=5 parent_frame_id=753}
754 {file_location_id=51 parent_frame_id=754}
755 {file_location_id=183 parent_frame_id=400}
756 {file_location_id=184 parent_frame_id=400}
757 {file_location_id=131 parent_frame_id=503}
758 {file_location_id=132 parent_frame_id=758}
759 {file_location_id=133 parent_frame_id=759}
760 {file_location_id=134 parent_frame_id=505}
761 {file_location_id=4 parent_frame_id=761}
762 {file_location_id=5 parent_frame_id=762}
763 {file_location_id=51 parent_frame_id=763}
764 {file_location_id=135 parent_frame_id=505}
765 {file_location_id=4 parent_frame_id=765}
766 {file_location_id=5 parent_frame_id=766}
767 {file_location_id=51 parent_frame_id=767}
768 {file_location_id=136 parent_frame_id=505}
769 {file_location_id=4 parent_frame_id=769}
770 {file_location_id=5 parent_frame_id=770}
771 {file_location_id=51 parent_frame_id=771}
772 {file_location_id=137 parent_frame_id=505}
773 {file_location_id=76 parent_frame_id=514}
774 {file_location_id=77 parent_frame_id=774}
775 {file_location_id=78 parent_frame_id=775}
776 {file_location_id=79 parent_frame_id=776}
777 {file_location_id=138 parent_frame_id=777}
778 {file_location_id=130 parent_frame_id=777}
779 {file_location_id=139 parent_frame_id=777}
780 {file_location_id=140 parent_frame_id=777}
781 {file_location_id=141 parent_frame_id=514}
782 {file_location_id=142 parent_frame_id=514}
783 {file_location_id=143 parent_frame_id=514}
784 {file_location_id=144 parent_frame_id=777}
785 {file_location_id=145 parent_frame_id=777}
786 {file_location_id=146 parent_frame_id=505}
787 {file_location_id=147 parent_frame_id=505}
788 {file_location_id=4 parent_frame_id=788}
789 {file_location_id=5 parent_frame_id=789}
790 {file_location_id=51 parent_frame_id=790}
791 {file_location_id=148 parent_frame_id=505}
792 {file_location_id=22 parent_frame_id=792}
793 {file_location_id=2 parent_frame_id=793}
794 {file_location_id=109 parent_frame_id=794}
795 {file_location_id=110 parent_frame_id=795}
796 {file_location_id=4 parent_frame_id=796}
797 {file_location_id=5 parent_frame_id=797}
798 {file_location_id=115 parent_frame_id=798}
799 {file_location_id=4 parent_frame_id=799}
800 {file_location_id=5 parent_frame_id=800}
801 {file_location_id=117 parent_frame_id=801}
802 {file_location_id=118 parent_frame_id=802}
803 {file_location_id=153 parent_frame_id=803}
804 {file_location_id=121 parent_frame_id=804}
805 {file_location_id=122 parent_frame_id=805}
806 {file_location_id=123 parent_frame_id=806}
807 {file_location_id=148 parent_frame_id=807}
808 {file_location_id=149 parent_frame_id=505}
809 {file_location_id=150 parent_frame_id=505}
810 {file_location_id=4 parent_frame_id=810}
811 {file_location_id=5 parent_frame_id=811}
812 {file_location_id=51 parent_frame_id=812}
813 {file_location_id=151 parent_frame_id=502}
814 {file_location_id=152 parent_frame_id=814}
815 {file_location_id=185 parent_frame_id=359}
816 {file_location_id=181 parent_frame_id=519}
817 {file_location_id=158 parent_frame_id=522}
818 {file_location_id=48 parent_frame_id=522}
819 {file_location_id=159 parent_frame_id=522}
820 {file_location_id=160 parent_frame_id=525}
821 {file_location_id=161 parent_frame_id=525}
822 {file_location_id=162 parent_frame_id=525}
823 {file_location_id=44 parent_frame_id=525}
824 {file_location_id=45 parent_frame_id=525}
825 {file_location_id=49 parent_frame_id=525}
826 {file_location_id=46 parent_frame_id=525}
827 {file_location_id=47 parent_frame_id=525}
828 {file_location_id=163 parent_frame_id=522}
829 {file_location_id=182 parent_frame_id=519}
830 {file_location_id=4 parent_frame_id=830}
831 {file_location_id=5 parent_frame_id=831}
832 {file_location_id=51 parent_frame_id=832}
833 {file_location_id=183 parent_frame_id=519}
834 {file_location_id=186 parent_frame_id=519}
835 {file_location_id=184 parent_frame_id=519}
836 {file_location_id=131 parent_frame_id=559}
837 {file_location_id=132 parent_frame_id=837}
838 {file_location_id=133 parent_frame_id=838}
839 {file_location_id=134 parent_frame_id=561}
840 {file_location_id=4 parent_frame_id=840}
841 {file_location_id=5 parent_frame_id=841}
842 {file_location_id=51 parent_frame_id=842}
843 {file_location_id=135 parent_frame_id=561}
844 {file_location_id=4 parent_frame_id=844}
845 {file_location_id=5 parent_frame_id=845}
846 {file_location_id=51 parent_frame_id=846}
847 {file_location_id=136 parent_frame_id=561}
848 {file_location_id=4 parent_frame_id=848}
849 {file_location_id=5 parent_frame_id=849}
850 {file_location_id=51 parent_frame_id=850}
851 {file_location_id=137 parent_frame_id=561}
852 {file_location_id=76 parent_frame_id=570}
853 {file_location_id=77 parent_frame_id=853}
854 {file_location_id=78 parent_frame_id=854}
855 {file_location_id=79 parent_frame_id=855}
856 {file_location_id=138 parent_frame_id=856}
857 {file_location_id=130 parent_frame_id=856}
858 {file_location_id=139 parent_frame_id=856}
859 {file_location_id=140 parent_frame_id=856}
860 {file_location_id=141 parent_frame_id=570}
861 {file_location_id=142 parent_frame_id=570}
862 {file_location_id=143 parent_frame_id=570}
863 {file_location_id=144 parent_frame_id=856}
864 {file_location_id=145 parent_frame_id=856}
865 {file_location_id=146 parent_frame_id=561}
866 {file_location_id=147 parent_frame_id=561}
867 {file_location_id=4 parent_frame_id=867}
868 {file_location_id=5 parent_frame_id=868}
869 {file_location_id=51 parent_frame_id=869}
870 {file_location_id=148 parent_frame_id=561}
871 {file_location_id=22 parent_frame_id=871}
872 {file_location_id=2 parent_frame_id=872}
873 {file_location_id=109 parent_frame_id=873}
874 {file_location_id=110 parent_frame_id=874}
875 {file_location_id=4 parent_frame_id=875}
876 {file_location_id=5 parent_frame_id=876}
877 {file_location_id=115 parent_frame_id=877}
878 {file_location_id=4 parent_frame_id=878}
879 {file_location_id=5 parent_frame_id=879}
880 {file_location_id=117 parent_frame_id=880}
881 {file_location_id=118 parent_frame_id=881}
882 {file_location_id=153 parent_frame_id=882}
883 {file_location_id=121 parent_frame_id=883}
884 {file_location_id=122 parent_frame_id=884}
885 {file_location_id=123 parent_frame_id=885}
886 {file_location_id=148 parent_frame_id=886}
887 {file_location_id=149 parent_frame_id=561}
888 {file_location_id=150 parent_frame_id=561}
889 {file_location_id=4 parent_frame_id=889}
890 {file_location_id=5 parent_frame_id=890}
891 {file_location_id=51 parent_frame_id=891}
892 {file_location_id=151 parent_frame_id=558}
893 {file_location_id=152 parent_frame_id=893}
894 {file_location_id=187 parent_frame_id=519}
895 {file_location_id=188 parent_frame_id=359}
896 {file_location_id=158 parent_frame_id=578}
897 {file_location_id=48 parent_frame_id=578}
898 {file_location_id=159 parent_frame_id=578}
899 {file_location_id=160 parent_frame_id=581}
900 {file_location_id=161 parent_frame_id=581}
901 {file_location_id=162 parent_frame_id=581}
902 {file_location_id=44 parent_frame_id=581}
903 {file_location_id=45 parent_frame_id=581}
904 {file_location_id=49 parent_frame_id=581}
905 {file_location_id=46 parent_frame_id=581}
906 {file_location_id=47 parent_frame_id=581}
907 {file_location_id=163 parent_frame_id=578}
908 {file_location_id=189 parent_frame_id=575}
909 {file_location_id=190 parent_frame_id=575}
910 {file_location_id=72 parent_frame_id=910}
911 {file_location_id=73 parent_frame_id=911}
912 {file_location_id=74 parent_frame_id=912}
913 {file_location_id=75 parent_frame_id=913}
914 {file_location_id=76 parent_frame_id=914}
915 {file_location_id=77 parent_frame_id=915}
916 {file_location_id=78 parent_frame_id=916}
917 {file_location_id=79 parent_frame_id=917}
918 {file_location_id=80 parent_frame_id=918}
919 {file_location_id=81 parent_frame_id=918}
920 {file_location_id=82 parent_frame_id=918}
921 {file_location_id=83 parent_frame_id=918}
922 {file_location_id=84 parent_frame_id=918}
923 {file_location_id=166 parent_frame_id=918}
924 {file_location_id=191 parent_frame_id=575}
925 {file_location_id=4 parent_frame_id=925}
926 {file_location_id=5 parent_frame_id=926}
927 {file_location_id=51 parent_frame_id=927}
928 {file_location_id=192 parent_frame_id=359}
929 {file_location_id=101 parent_frame_id=355}
930 {file_location_id=102 parent_frame_id=930}
931 {file_location_id=4 parent_frame_id=931}
932 {file_location_id=5 parent_frame_id=932}
933 {file_location_id=107 parent_frame_id=933}
934 {file_location_id=108 parent_frame_id=934}
935 {file_location_id=21 parent_frame_id=935}
936 {file_location_id=101 parent_frame_id=936}
937 {file_location_id=102 parent_frame_id=937}
938 {file_location_id=4 parent_frame_id=938}
939 {file_location_id=5 parent_frame_id=939}
940 {file_location_id=107 parent_frame_id=940}
941 {file_location_id=108 parent_frame_id=941}
942 {file_location_id=21 parent_frame_id=942}
943 {file_location_id=193 parent_frame_id=341}
944 {file_location_id=4 parent_frame_id=944}
945 {file_location_id=5 parent_frame_id=945}
946 {file_location_id=17 parent_frame_id=946}
947 {file_location_id=4 parent_frame_id=947}
948 {file_location_id=5 parent_frame_id=948}
949 {file_location_id=18 parent_frame_id=949}
950 {file_location_id=93 parent_frame_id=949}
951 {file_location_id=194 parent_frame_id=342}
952 {file_location_id=195 parent_frame_id=952}
953 {file_location_id=196 parent_frame_id=953}
954 {file_location_id=197 parent_frame_id=342}
955 {file_location_id=198 parent_frame_id=342}
956 {file_location_id=199 parent_frame_id=342}
957 {file_location_id=200 parent_frame_id=957}
958 {file_location_id=201 parent_frame_id=957}
959 {file_location_id=202 parent_frame_id=957}
960 {file_location_id=203 parent_frame_id=957}
961 {file_location_id=204 parent_frame_id=957}
962 {file_location_id=205 parent_frame_id=957}
963 {file_location_id=206 parent_frame_id=957}
964 {file_location_id=207 parent_frame_id=342}
965 {file_location_id=208 parent_frame_id=342}
966 {file_location_id=209 parent_frame_id=343}
967 {file_location_id=210 parent_frame_id=343}
968 {file_location_id=211 parent_frame_id=343}
969 {file_location_id=212 parent_frame_id=343}
970 {file_location_id=213 parent_frame_id=343}
971 {file_location_id=214 parent_frame_id=343}
972 {file_location_id=215 parent_frame_id=343}
973 {file_location_id=216 parent_frame_id=343}
974 {file_location_id=217 parent_frame_id=343}
975 {file_location_id=218 parent_frame_id=343}
976 {file_location_id=219 parent_frame_id=342}
977 {file_location_id=220 parent_frame_id=342}
978 {file_location_id=221 parent_frame_id=342}
979 {file_location_id=222 parent_frame_id=342}
980 {file_location_id=223 parent_frame_id=342}
981 {file_location_id=224 parent_frame_id=342}
982 {file_location_id=225 parent_frame_id=342}
983 {file_location_id=226 parent_frame_id=342}
984 {file_location_id=227 parent_frame_id=342}
985 {file_location_id=228 parent_frame_id=985}
986 {file_location_id=229 parent_frame_id=986}
987 {file_location_id=230 parent_frame_id=986}
988 {file_location_id=231 parent_frame_id=342}
989 {file_location_id=232 parent_frame_id=989}
990 {file_location_id=233 parent_frame_id=989}
991 {file_location_id=234 parent_frame_id=989}
992 {file_location_id=235 parent_frame_id=992}
993 {file_location_id=236 parent_frame_id=989}
994 {file_location_id=235 parent_frame_id=994}
995 {file_location_id=237 parent_frame_id=989}
996 {file_location_id=235 parent_frame_id=996}
997 {file_location_id=238 parent_frame_id=989}
998 {file_location_id=239 parent_frame_id=989}
999 {file_location_id=240 parent_frame_id=999}
1000 {file_location_id=235 parent_frame_id=1000}
1001 {file_location_id=241 parent_frame_id=989}
1002 {file_location_id=242 parent_frame_id=1002}
1003 {file_location_id=243 parent_frame_id=1003}
1004 {file_location_id=244 parent_frame_id=989}
1005 {file_location_id=242 parent_frame_id=1005}
1006 {file_location_id=243 parent_frame_id=1006}
1007 {file_location_id=245 parent_frame_id=989}
1008 {file_location_id=246 parent_frame_id=1008}
1009 {file_location_id=195 parent_frame_id=1009}
1010 {file_location_id=247 parent_frame_id=1010}
1011 {file_location_id=248 parent_frame_id=1011}
1012 {file_location_id=249 parent_frame_id=1011}
1013 {file_location_id=250 parent_frame_id=1011}
1014 {file_location_id=196 parent_frame_id=1010}
1015 {file_location_id=251 parent_frame_id=1010}
1016 {file_location_id=252 parent_frame_id=1009}
1017 {file_location_id=253 parent_frame_id=1017}
1018 {file_location_id=254 parent_frame_id=1018}
1019 {file_location_id=255 parent_frame_id=1008}
1020 {file_location_id=248 parent_frame_id=1020}
1021 {file_location_id=249 parent_frame_id=1020}
1022 {file_location_id=250 parent_frame_id=1020}
1023 {file_location_id=256 parent_frame_id=1008}
1024 {file_location_id=257 parent_frame_id=1024}
1025 {file_location_id=258 parent_frame_id=1025}
1026 {file_location_id=259 parent_frame_id=1026}
1027 {file_location_id=260 parent_frame_id=1008}
1028 {file_location_id=242 parent_frame_id=1028}
1029 {file_location_id=243 parent_frame_id=1029}
1030 {file_location_id=261 parent_frame_id=1008}
1031 {file_location_id=195 parent_frame_id=1031}
1032 {file_location_id=247 parent_frame_id=1032}
1033 {file_location_id=248 parent_frame_id=1033}
1034 {file_location_id=249 parent_frame_id=1033}
1035 {file_location_id=250 parent_frame_id=1033}
1036 {file_location_id=196 parent_frame_id=1032}
1037 {file_location_id=251 parent_frame_id=1032}
1038 {file_location_id=252 parent_frame_id=1031}
1039 {file_location_id=253 parent_frame_id=1039}
1040 {file_location_id=254 parent_frame_id=1040}
1041 {file_location_id=262 parent_frame_id=1008}
1042 {file_location_id=263 parent_frame_id=1042}
1043 {file_location_id=264 parent_frame_id=1042}
1044 {file_location_id=265 parent_frame_id=1042}
1045 {file_location_id=266 parent_frame_id=1042}
1046 {file_location_id=267 parent_frame_id=1042}
1047 {file_location_id=268 parent_frame_id=1042}
1048 {file_location_id=269 parent_frame_id=342}
1049 {file_location_id=270 parent_frame_id=1049}
1050 {file_location_id=271 parent_frame_id=1050}
1051 {file_location_id=272 parent_frame_id=1049}
1052 {file_location_id=273 parent_frame_id=1052}
1053 {file_location_id=274 parent_frame_id=1053}
1054 {file_location_id=275 parent_frame_id=1049}
1055 {file_location_id=276 parent_frame_id=1055}
1056 {file_location_id=277 parent_frame_id=1055}
1057 {file_location_id=278 parent_frame_id=1055}
1058 {file_location_id=279 parent_frame_id=1055}
1059 {file_location_id=280 parent_frame_id=1055}
1060 {file_location_id=281 parent_frame_id=1055}
1061 {file_location_id=282 parent_frame_id=1055}
1062 {file_location_id=283 parent_frame_id=1055}
1063 {file_location_id=284 parent_frame_id=1055}
1064 {file_location_id=285 parent_frame_id=1049}
1065 {file_location_id=276 parent_frame_id=1065}
1066 {file_location_id=277 parent_frame_id=1065}
1067 {file_location_id=278 parent_frame_id=1065}
1068 {file_location_id=279 parent_frame_id=1065}
1069 {file_location_id=280 parent_frame_id=1065}
1070 {file_location_id=281 parent_frame_id=1065}
1071 {file_location_id=282 parent_frame_id=1065}
1072 {file_location_id=283 parent_frame_id=1065}
1073 {file_location_id=284 parent_frame_id=1065}
1074 {file_location_id=286 parent_frame_id=1065}
1075 {file_location_id=287 parent_frame_id=1075}
1076 {file_location_id=247 parent_frame_id=953}
1077 {file_location_id=248 parent_frame_id=1077}
1078 {file_location_id=249 parent_frame_id=1077}
1079 {file_location_id=250 parent_frame_id=1077}
1080 {file_location_id=251 parent_frame_id=953}
1081 {file_location_id=252 parent_frame_id=952}
1082 {file_location_id=253 parent_frame_id=1082}
1083 {file_location_id=254 parent_frame_id=1083}
1084 {file_location_id=288 parent_frame_id=342}
1085 {file_location_id=289 parent_frame_id=342}
1086 {file_location_id=290 parent_frame_id=342}
1087 {file_location_id=291 parent_frame_id=342}
1088 {file_location_id=292 parent_frame_id=342}
1089 {file_location_id=293 parent_frame_id=342}
1090 {file_location_id=158 parent_frame_id=347}
1091 {file_location_id=48 parent_frame_id=347}
1092 {file_location_id=159 parent_frame_id=347}
1093 {file_location_id=160 parent_frame_id=350}
1094 {file_location_id=161 parent_frame_id=350}
1095 {file_location_id=162 parent_frame_id=350}
1096 {file_location_id=44 parent_frame_id=350}
1097 {file_location_id=45 parent_frame_id=350}
1098 {file_location_id=49 parent_frame_id=350}
1099 {file_location_id=46 parent_frame_id=350}
1100 {file_location_id=47 parent_frame_id=350}
1101 {file_location_id=163 parent_frame_id=347}
1102 {file_location_id=294 parent_frame_id=342}
1103 {file_location_id=4 parent_frame_id=1103}
1104 {file_location_id=5 parent_frame_id=1104}
1105 {file_location_id=51 parent_frame_id=1105}
1106 {file_location_id=295 parent_frame_id=1105}
1107 {file_location_id=296 parent_frame_id=1105}
1108 {file_location_id=297 parent_frame_id=342}
1109 {file_location_id=298 parent_frame_id=354}
1110 {file_location_id=299 parent_frame_id=1110}
1111 {file_location_id=300 parent_frame_id=1111}
1112 {file_location_id=9 parent_frame_id=1112}
1113 {file_location_id=10 parent_frame_id=1113}
1114 {file_location_id=1 parent_frame_id=1114}
1115 {file_location_id=2 parent_frame_id=1115}
1116 {file_location_id=3 parent_frame_id=1116}
1117 {file_location_id=4 parent_frame_id=1117}
1118 {file_location_id=5 parent_frame_id=1118}
1119 {file_location_id=6 parent_frame_id=1119}
1120 {file_location_id=7 parent_frame_id=1120}
1121 {file_location_id=8 parent_frame_id=1121}
1122 {file_location_id=9 parent_frame_id=1122}
1123 {file_location_id=10 parent_frame_id=1123}
1124 {file_location_id=301 parent_frame_id=1113}
1125 {file_location_id=158 parent_frame_id=946}
1126 {file_location_id=48 parent_frame_id=946}
1127 {file_location_id=159 parent_frame_id=946}
1128 {file_location_id=160 parent_frame_id=949}
1129 {file_location_id=161 parent_frame_id=949}
1130 {file_location_id=162 parent_frame_id=949}
1131 {file_location_id=44 parent_frame_id=949}
1132 {file_location_id=45 parent_frame_id=949}
1133 {file_location_id=49 parent_frame_id=949}
1134 {file_location_id=46 parent_frame_id=949}
1135 {file_location_id=47 parent_frame_id=949}
1136 {file_location_id=163 parent_frame_id=946}
1137 {file_location_id=302 parent_frame_id=338}
1138 {file_location_id=303 parent_frame_id=1}
1139 {file_location_id=304 parent_frame_id=1139}
1140 {file_location_id=305 parent_frame_id=1140}
1141 {file_location_id=10 parent_frame_id=1141}
1142 {file_location_id=1 parent_frame_id=1142}
1143 {file_location_id=2 parent_frame_id=1143}
1144 {file_location_id=3 parent_frame_id=1144}
1145 {file_location_id=4 parent_frame_id=1145}
1146 {file_location_id=5 parent_frame_id=1146}
1147 {file_location_id=6 parent_frame_id=1147}
1148 {file_location_id=7 parent_frame_id=1148}
1149 {file_location_id=8 parent_frame_id=1149}
1150 {file_location_id=9 parent_frame_id=1150}
1151 {file_location_id=10 parent_frame_id=1151}
1152 {file_location_id=301 parent_frame_id=1141}
1153 {file_location_id=90 parent_frame_id=337}
1154 {file_location_id=91 parent_frame_id=1154}
1155 {file_location_id=4 parent_frame_id=1155}
1156 {file_location_id=5 parent_frame_id=1156}
1157 {file_location_id=97 parent_frame_id=1157}
1158 {file_location_id=98 parent_frame_id=1158}
1159 {file_location_id=4 parent_frame_id=1159}
1160 {file_location_id=5 parent_frame_id=1160}
1161 {file_location_id=99 parent_frame_id=1161}
1162 {file_location_id=100 parent_frame_id=1162}
1163 {file_location_id=90 parent_frame_id=1163}
1164 {file_location_id=91 parent_frame_id=1164}
1165 {file_location_id=4 parent_frame_id=1165}
1166 {file_location_id=5 parent_frame_id=1166}
1167 {file_location_id=97 parent_frame_id=1167}
1168 {file_location_id=98 parent_frame_id=1168}
1169 {file_location_id=4 parent_frame_id=1169}
1170 {file_location_id=5 parent_frame_id=1170}
1171 {file_location_id=99 parent_frame_id=1171}
1172 {file_location_id=100 parent_frame_id=1172}
1173 {file_location_id=306 parent_frame_id=320}
1174 {file_location_id=307 parent_frame_id=1174}
1175 {file_location_id=308 parent_frame_id=1175}
1176 {file_location_id=309 parent_frame_id=1175}
1177 {file_location_id=310 parent_frame_id=1177}
1178 {file_location_id=311 parent_frame_id=1178}
1179 {file_location_id=312 parent_frame_id=1179}
1180 {file_location_id=90 parent_frame_id=1180}
1181 {file_location_id=91 parent_frame_id=1181}
1182 {file_location_id=4 parent_frame_id=1182}
1183 {file_location_id=5 parent_frame_id=1183}
1184 {file_location_id=306 parent_frame_id=1184}
1185 {file_location_id=307 parent_frame_id=1185}
1186 {file_location_id=309 parent_frame_id=1186}
1187 {file_location_id=310 parent_frame_id=1187}
1188 {file_location_id=311 parent_frame_id=1188}
1189 {file_location_id=312 parent_frame_id=1189}
1190 {file_location_id=90 parent_frame_id=1190}
1191 {file_location_id=91 parent_frame_id=1191}
1192 {file_location_id=4 parent_frame_id=1192}
1193 {file_location_id=5 parent_frame_id=1193}
1194 {file_location_id=306 parent_frame_id=1194}
1195 {file_location_id=307 parent_frame_id=1195}
1196 {file_location_id=309 parent_frame_id=1196}
1197 {file_location_id=310 parent_frame_id=1197}
1198 {file_location_id=311 parent_frame_id=1198}
1199 {file_location_id=312 parent_frame_id=1199}
1200 {file_location_id=313 parent_frame_id=1177}
1201 {file_location_id=90 parent_frame_id=1201}
1202 {file_location_id=91 parent_frame_id=1202}
1203 {file_location_id=4 parent_frame_id=1203}
1204 {file_location_id=5 parent_frame_id=1204}
1205 {file_location_id=306 parent_frame_id=1205}
1206 {file_location_id=307 parent_frame_id=1206}
1207 {file_location_id=309 parent_frame_id=1207}
1208 {file_location_id=313 parent_frame_id=1208}
1209 {file_location_id=314 parent_frame_id=1174}
1210 {file_location_id=108 parent_frame_id=1210}
1211 {file_location_id=21 parent_frame_id=1211}
1212 {file_location_id=315 parent_frame_id=356}
1213 {file_location_id=4 parent_frame_id=1213}
1214 {file_location_id=5 parent_frame_id=1214}
1215 {file_location_id=316 parent_frame_id=1215}
1216 {file_location_id=4 parent_frame_id=1216}
1217 {file_location_id=5 parent_frame_id=1217}
1218 {file_location_id=317 parent_frame_id=1218}
1219 {file_location_id=4 parent_frame_id=1219}
1220 {file_location_id=5 parent_frame_id=1220}
1221 {file_location_id=17 parent_frame_id=1221}
1222 {file_location_id=4 parent_frame_id=1222}
1223 {file_location_id=5 parent_frame_id=1223}
1224 {file_location_id=18 parent_frame_id=1224}
1225 {file_location_id=93 parent_frame_id=1224}
1226 {file_location_id=318 parent_frame_id=416}
1227 {file_location_id=319 parent_frame_id=416}
…
__.1, %diffusion_project_atom_features_for_aggr____weights__.1, /*index=95*/%b__queries_to_token_atoms_gather_idxs__.1, %b__queries_to_token_atoms_gather_mask__.1, %single_cond_embedding_norm____scale__.1, %single_cond_embedding_projection____weights__.1, %b__seq_mask__.1, /*index=100*/%pair_input_layer_norm____scale__.7, %transformeradaptive_zero_cond____bias__.1, %transformeradaptive_zero_cond____weights__.1, %transformerffw_adaptive_zero_cond____bias__.1, %transformerffw_adaptive_zero_cond____weights__.1, /*index=105*/%transformerffw_single_cond_bias____weights__.1, %transformerffw_single_cond_layer_norm____scale__.1, %transformerffw_single_cond_scale____bias__.1, %transformerffw_single_cond_scale____weights__.1, %transformerffw_transition1____weights__.1, /*index=110*/%transformerffw_transition2____weights__.1, %transformergating_query____weights__.1, %transformerk_projection____weights__.1, %transformerq_projection____bias__.1, %transformerq_projection____weights__.1, /*index=115*/%transformersingle_cond_bias____weights__.1, %transformersingle_cond_layer_norm____scale__.1, %transformersingle_cond_scale____bias__.1, %transformersingle_cond_scale____weights__.1, %transformertransition2____weights__.1, /*index=120*/%transformerv_projection____weights__.1, %pair_logits_projection____weights__.7, %output_norm____scale__.1, %diffusion_project_token_features_for_broadcast____weights__.1, %pair_input_layer_norm____scale__.5, /*index=125*/%pair_logits_projection____weights__.5, %diffusion_atom_transformer_decoderadaptive_zero_cond____bias__.1, %diffusion_atom_transformer_decoderadaptive_zero_cond____weights__.1, %diffusion_atom_transformer_decoderffw_adaptive_zero_cond____bias__.1, %diffusion_atom_transformer_decoderffw_adaptive_zero_cond____weights__.1, /*index=130*/%diffusion_atom_transformer_decoderffw_single_cond_bias____weights__.1, %diffusion_atom_transformer_decoderffw_single_cond_layer_norm____scale__.1, %diffusion_atom_transformer_decoderffw_single_cond_scale____bias__.1, %diffusion_atom_transformer_decoderffw_single_cond_scale____weights__.1, %diffusion_atom_transformer_decoderffw_transition1____weights__.1, /*index=135*/%diffusion_atom_transformer_decoderffw_transition2____weights__.1, %diffusion_atom_transformer_decodergating_query____weights__.1, %diffusion_atom_transformer_decoderk_projection____weights__.1, %diffusion_atom_transformer_decoderksingle_cond_bias____weights__.1, %diffusion_atom_transformer_decoderksingle_cond_layer_norm____scale__.1, /*index=140*/%diffusion_atom_transformer_decoderksingle_cond_scale____bias__.1, %diffusion_atom_transformer_decoderksingle_cond_scale____weights__.1, %diffusion_atom_transformer_decoderq_projection____bias__.1, %diffusion_atom_transformer_decoderq_projection____weights__.1, %diffusion_atom_transformer_decoderqsingle_cond_bias____weights__.1, /*index=145*/%diffusion_atom_transformer_decoderqsingle_cond_layer_norm____scale__.1, %diffusion_atom_transformer_decoderqsingle_cond_scale____bias__.1, %diffusion_atom_transformer_decoderqsingle_cond_scale____weights__.1, %diffusion_atom_transformer_decodertransition2____weights__.1, %diffusion_atom_transformer_decoderv_projection____weights__.1, /*index=150*/%diffusion_atom_features_layer_norm____scale__.1, %diffusion_atom_features_to_position_update____weights__.1), metadata={op_name="jit(apply_fn)/diffuser/while" stack_frame_id=3747}
  %while.401 = (s32[], u32[1,2]{1,0}, f32[1,150,24,3]{3,2,1,0}, f32[1]{0}, f32[50,4]{1,0}, /*index=5*/pred[150,24]{1,0}, f32[150,384]{1,0}, f32[150,150,128]{2,1,0}, s32[150]{0}, s32[150]{0}, /*index=10*/s32[150]{0}, s32[150]{0}, s32[150]{0}, f32[267]{0}, f32[267,128]{1,0}, /*index=15*/f32[128]{0}, f32[128]{0}, f32[128,512]{1,0}, f32[256,128]{1,0}, f32[128]{0}, /*index=20*/f32[128]{0}, f32[128,512]{1,0}, f32[256,128]{1,0}, bf16[150,447]{1,0}, f32[831]{0}, /*index=25*/f32[831,384]{1,0}, f32[256]{0}, f32[256,384]{1,0}, f32[384]{0}, f32[384]{0}, /*index=30*/f32[384,1536]{1,0}, f32[768,384]{1,0}, f32[384]{0}, f32[384]{0}, f32[384,1536]{1,0}, /*index=35*/f32[768,384]{1,0}, f32[150,24,3]{2,1,0}, f32[3,128]{1,0}, pred[150,24]{1,0}, f32[1,128]{1,0}, /*index=40*/s32[150,24]{1,0}, f32[128,128]{1,0}, f32[150,24]{1,0}, f32[1,128]{1,0}, s32[150,24,4]{2,1,0}, /*index=45*/f32[256,128]{1,0}, s32[113,32]{1,0}, pred[113,32]{1,0}, f32[384]{0}, f32[384,128]{1,0}, /*index=50*/s32[113,32]{1,0}, pred[113,32]{1,0}, f32[3,128]{1,0}, s32[113,128]{1,0}, pred[113,128]{1,0}, /*index=55*/f32[128,16]{1,0}, f32[128,16]{1,0}, f32[128]{0}, f32[128,16]{1,0}, s32[113,128]{1,0}, /*index=60*/pred[113,128]{1,0}, s32[150,24]{1,0}, f32[3,16]{1,0}, f32[1,16]{1,0}, f32[1,16]{1,0}, /*index=65*/f32[16,16]{1,0}, f32[16,16]{1,0}, f32[16,16]{1,0}, f32[16]{0}, f32[16,3,4]{2,1,0}, /*index=70*/f32[3,128]{1,0}, f32[3,128,128]{2,1,0}, f32[3,128]{1,0}, f32[3,128,128]{2,1,0}, f32[3,128,128]{2,1,0}, /*index=75*/f32[3,128]{1,0}, f32[3,128]{1,0}, f32[3,128,128]{2,1,0}, f32[3,128,512]{2,1,0}, f32[3,256,128]{2,1,0}, /*index=80*/f32[3,128,128]{2,1,0}, f32[3,128,4,32]{3,2,1,0}, f32[3,128,128]{2,1,0}, f32[3,128]{1,0}, f32[3,128]{1,0}, /*index=85*/f32[3,128,128]{2,1,0}, f32[3,4,32]{2,1,0}, f32[3,128,4,32]{3,2,1,0}, f32[3,128,128]{2,1,0}, f32[3,128]{1,0}, /*index=90*/f32[3,128]{1,0}, f32[3,128,128]{2,1,0}, f32[3,128,128]{2,1,0}, f32[3,128,4,32]{3,2,1,0}, f32[128,768]{1,0}, /*index=95*/s32[150,24]{1,0}, pred[150,24]{1,0}, f32[384]{0}, f32[384,768]{1,0}, pred[150]{0}, /*index=100*/f32[128]{0}, f32[6,4,768]{2,1,0}, f32[6,4,384,768]{3,2,1,0}, f32[6,4,768]{2,1,0}, f32[6,4,384,768]{3,2,1,0}, /*index=105*/f32[6,4,384,768]{3,2,1,0}, f32[6,4,384]{2,1,0}, f32[6,4,768]{2,1,0}, f32[6,4,384,768]{3,2,1,0}, f32[6,4,768,3072]{3,2,1,0}, /*index=110*/f32[6,4,1536,768]{3,2,1,0}, f32[6,4,768,768]{3,2,1,0}, f32[6,4,768,16,48]{4,3,2,1,0}, f32[6,4,16,48]{3,2,1,0}, f32[6,4,768,16,48]{4,3,2,1,0}, /*index=115*/f32[6,4,384,768]{3,2,1,0}, f32[6,4,384]{2,1,0}, f32[6,4,768]{2,1,0}, f32[6,4,384,768]{3,2,1,0}, f32[6,4,768,768]{3,2,1,0}, /*index=120*/f32[6,4,768,16,48]{4,3,2,1,0}, f32[6,128,4,16]{3,2,1,0}, f32[768]{0}, f32[768,128]{1,0}, f32[16]{0}, /*index=125*/f32[16,3,4]{2,1,0}, f32[3,128]{1,0}, f32[3,128,128]{2,1,0}, f32[3,128]{1,0}, f32[3,128,128]{2,1,0}, /*index=130*/f32[3,128,128]{2,1,0}, f32[3,128]{1,0}, f32[3,128]{1,0}, f32[3,128,128]{2,1,0}, f32[3,128,512]{2,1,0}, /*index=135*/f32[3,256,128]{2,1,0}, f32[3,128,128]{2,1,0}, f32[3,128,4,32]{3,2,1,0}, f32[3,128,128]{2,1,0}, f32[3,128]{1,0}, /*index=140*/f32[3,128]{1,0}, f32[3,128,128]{2,1,0}, f32[3,4,32]{2,1,0}, f32[3,128,4,32]{3,2,1,0}, f32[3,128,128]{2,1,0}, /*index=145*/f32[3,128]{1,0}, f32[3,128]{1,0}, f32[3,128,128]{2,1,0}, f32[3,128,128]{2,1,0}, f32[3,128,4,32]{3,2,1,0}, /*index=150*/f32[128]{0}, f32[128,3]{1,0}) while(%while.400), condition=%region_249.454, body=%region_159.453, metadata={op_name="jit(apply_fn)/diffuser/while" stack_frame_id=3747}
  %while.402 = s32[] get-tuple-element(%while.401), index=0, metadata={op_name="jit(apply_fn)/diffuser/while" stack_frame_id=3747}
  %while.403 = u32[1,2]{1,0} get-tuple-element(%while.401), index=1, metadata={op_name="jit(apply_fn)/diffuser/while" stack_frame_id=3747}
  %while.405 = f32[1]{0} get-tuple-element(%while.401), index=3, metadata={op_name="jit(apply_fn)/diffuser/while" stack_frame_id=3747}
  %constant.1656 = f32[1]{0} constant({0})
  %constant.1655 = f32[] constant(0)
  %broadcast.410 = f32[1,150,150]{2,1,0} broadcast(%constant.1655), dimensions={}
  %constant.1654 = f32[] constant(0)
  %broadcast.409 = f32[1,150,24]{2,1,0} broadcast(%constant.1654), dimensions={}
  %while.404 = f32[1,150,24,3]{3,2,1,0} get-tuple-element(%while.401), index=2, metadata={op_name="jit(apply_fn)/diffuser/while" stack_frame_id=3747}
  %left_target_feat_project____weights__.1 = bf16[447,128]{1,0} parameter(64), sharding={devices=[1,2]<=[2]}, frontend_attributes={xla.sdy.sharding="#sdy.sharding<@mesh, [{}, {\"fsdp\"}]>"}, metadata={op_name="params[\'diffuser/confidence_head/~_embed_features/left_target_feat_project\'][\'weights\']"}
  %right_target_feat_project____weights__.1 = bf16[447,128]{1,0} parameter(65), sharding={devices=[1,2]<=[2]}, frontend_attributes={xla.sdy.sharding="#sdy.sharding<@mesh, [{}, {\"fsdp\"}]>"}, metadata={op_name="params[\'diffuser/confidence_head/~_embed_features/right_target_feat_project\'][\'weights\']"}
  %b__token_atoms_to_pseudo_beta_gather_idxs__.1 = s32[150]{0} parameter(422), sharding={replicated}, frontend_attributes={xla.sdy.sharding="#sdy.sharding<@mesh, [{}]>"}, metadata={op_name="b[\'token_atoms_to_pseudo_beta:gather_idxs\']"}
  %b__token_atoms_to_pseudo_beta_gather_mask__.1 = pred[150]{0} parameter(423), sharding={replicated}, frontend_attributes={xla.sdy.sharding="#sdy.sharding<@mesh, [{}]>"}, metadata={op_name="b[\'token_atoms_to_pseudo_beta:gather_mask\']"}
  %distogram_feat_project____weights__.1 = bf16[39,128]{1,0} parameter(63), sharding={devices=[1,2]<=[2]}, frontend_attributes={xla.sdy.sharding="#sdy.sharding<@mesh, [{}, {\"fsdp\"}]>"}, metadata={op_name="params[\'diffuser/confidence_head/~_embed_features/distogram_feat_project\'][\'weights\']"}
  %act_norm____offset__.9 = f32[4,128]{1,0} parameter(0), sharding={devices=[2,1]<=[2]}, frontend_attributes={xla.sdy.sharding="#sdy.sharding<@mesh, [{\"fsdp\"}, {}]>"}, metadata={op_name="params[\'diffuser/confidence_head/__layer_stack_no_per_layer/confidence_pairformer/pair_attention1/act_norm\'][\'offset\']"}
  %act_norm____scale__.9 = f32[4,128]{1,0} parameter(1), sharding={devices=[2,1]<=[2]}, frontend_attributes={xla.sdy.sharding="#sdy.sharding<@mesh, [{\"fsdp\"}, {}]>"}, metadata={op_name="params[\'diffuser/confidence_head/__layer_stack_no_per_layer/confidence_pairformer/pair_attention1/act_norm\'][\'scale\']"}
  %gating_query____weights__.9 = bf16[4,128,128]{2,1,0} parameter(2), sharding={devices=[2,1,1]<=[2]}, frontend_attributes={xla.sdy.sharding="#sdy.sharding<@mesh, [{\"fsdp\"}, {}, {}]>"}, metadata={op_name="params[\'diffuser/confidence_head/__layer_stack_no_per_layer/confidence_pairformer/pair_attention1/gating_query\'][\'weights\']"}
  %k_projection____weights__.8 = bf16[4,4,32,128]{3,2,1,0} parameter(3), sharding={devices=[2,1,1,1]<=[2]}, frontend_attributes={xla.sdy.sharding="#sdy.sharding<@mesh, [{\"fsdp\"}, {}, {}, {}]>"}, metadata={op_name="params[\'diffuser/confidence_head/__layer_stack_no_per_layer/confidence_pairformer/pair_attention1/k_projection\'][\'weights\']"}
  %output_projection____weights__.17 = bf16[4,128,128]{2,1,0} parameter(4), sharding={devices=[2,1,1]<=[2]}, frontend_attributes={xla.sdy.sharding="#sdy.sharding<@mesh, [{\"fsdp\"}, {}, {}]>"}, metadata={op_name="params[\'diffuser/confidence_head/__layer_stack_no_per_layer/confidence_pairformer/pair_attention1/output_projection\'][\'weights\']"}
  %pair_bias_projection____weights__.8 = bf16[4,128,4]{2,1,0} parameter(5), sharding={devices=[2,1,1]<=[2]}, frontend_attributes={xla.sdy.sharding="#sdy.sharding<@mesh, [{\"fsdp\"}, {}, {}]>"}, metadata={op_name="params[\'diffuser/confidence_head/__layer_stack_no_per_layer/confidence_pairformer/pair_attention1/pair_bias_projection\'][\'weights\']"}
  %q_projection____weights__.8 = bf16[4,4,32,128]{3,2,1,0} parameter(6), sharding={devices=[2,1,1,1]<=[2]}, frontend_attributes={xla.sdy.sharding="#sdy.sharding<@mesh, [{\"fsdp\"}, {}, {}, {}]>"}, metadata={op_name="params[\'diffuser/confidence_head/__layer_stack_no_per_layer/confidence_pairformer/pair_attention1/q_projection\'][\'weights\']"}
  %v_projection____weights__.9 = bf16[4,128,4,32]{3,2,1,0} parameter(7), sharding={devices=[2,1,1,1]<=[2]}, frontend_attributes={xla.sdy.sharding="#sdy.sharding<@mesh, [{\"fsdp\"}, {}, {}, {}]>"}, metadata={op_name="params[\'diffuser/confidence_head/__layer_stack_no_per_layer/confidence_pairformer/pair_attention1/v_projection\'][\'weights\']"}
  %act_norm____offset__.10 = f32[4,128]{1,0} parameter(8), sharding={devices=[2,1]<=[2]}, frontend_attributes={xla.sdy.sharding="#sdy.sharding<@mesh, [{\"fsdp\"}, {}]>"}, metadata={op_name="params[\'diffuser/confidence_head/__layer_stack_no_per_layer/confidence_pairformer/pair_attention2/act_norm\'][\'offset\']"}
  %act_norm____scale__.10 = f32[4,128]{1,0} parameter(9), sharding={devices=[2,1]<=[2]}, frontend_attributes={xla.sdy.sharding="#sdy.sharding<@mesh, [{\"fsdp\"}, {}]>"}, metadata={op_name="params[\'diffuser/confidence_head/__layer_stack_no_per_layer/confidence_pairformer/pair_attention2/act_norm\'][\'scale\']"}
  %gating_query____weights__.10 = bf16[4,128,128]{2,1,0} parameter(10), sharding={devices=[2,1,1]<=[2]}, frontend_attributes={xla.sdy.sharding="#sdy.sharding<@mesh, [{\"fsdp\"}, {}, {}]>"}, metadata={op_name="params[\'diffuser/confidence_head/__layer_stack_no_per_layer/confidence_pairformer/pair_attention2/gating_query\'][\'weights\']"}
  %k_projection____weights__.9 = bf16[4,4,32,128]{3,2,1,0} parameter(11), sharding={devices=[2,1,1,1]<=[2]}, frontend_attributes={xla.sdy.sharding="#sdy.sharding<@mesh, [{\"fsdp\"}, {}, {}, {}]>"}, metadata={op_name="params[\'diffuser/confidence_head/__layer_stack_no_per_layer/confidence_pairformer/pair_attention2/k_projection\'][\'weights\']"}
  %output_projection____weights__.18 = bf16[4,128,128]{2,1,0} parameter(12), sharding={devices=[2,1,1]<=[2]}, frontend_attributes={xla.sdy.sharding="#sdy.sharding<@mesh, [{\"fsdp\"}, {}, {}]>"}, metadata={op_name="params[\'diffuser/confidence_head/__layer_stack_no_per_layer/confidence_pairformer/pair_attention2/output_projection\'][\'weights\']"}
  %pair_bias_projection____weights__.9 = bf16[4,128,4]{2,1,0} parameter(13), sharding={devices=[2,1,1]<=[2]}, frontend_attributes={xla.sdy.sharding="#sdy.sharding<@mesh, [{\"fsdp\"}, {}, {}]>"}, metadata={op_name="params[\'diffuser/confidence_head/__layer_stack_no_per_layer/confidence_pairformer/pair_attention2/pair_bias_projection\'][\'weights\']"}
  %q_projection____weights__.9 = bf16[4,4,32,128]{3,2,1,0} parameter(14), sharding={devices=[2,1,1,1]<=[2]}, frontend_attributes={xla.sdy.sharding="#sdy.sharding<@mesh, [{\"fsdp\"}, {}, {}, {}]>"}, metadata={op_name="params[\'diffuser/confidence_head/__layer_stack_no_per_layer/confidence_pairformer/pair_attention2/q_projection\'][\'weights\']"}
  %v_projection____weights__.10 = bf16[4,128,4,32]{3,2,1,0} parameter(15), sharding={devices=[2,1,1,1]<=[2]}, frontend_attributes={xla.sdy.sharding="#sdy.sharding<@mesh, [{\"fsdp\"}, {}, {}, {}]>"}, metadata={op_name="params[\'diffuser/confidence_head/__layer_stack_no_per_layer/confidence_pairformer/pair_attention2/v_projection\'][\'weights\']"}
  %input_layer_norm____offset__.7 = f32[4,128]{1,0} parameter(16), sharding={devices=[2,1]<=[2]}, frontend_attributes={xla.sdy.sharding="#sdy.sharding<@mesh, [{\"fsdp\"}, {}]>"}, metadata={op_name="params[\'diffuser/confidence_head/__layer_stack_no_per_layer/confidence_pairformer/pair_transition/input_layer_norm\'][\'offset\']"}
  %input_layer_norm____scale__.7 = f32[4,128]{1,0} parameter(17), sharding={devices=[2,1]<=[2]}, frontend_attributes={xla.sdy.sharding="#sdy.sharding<@mesh, [{\"fsdp\"}, {}]>"}, metadata={op_name="params[\'diffuser/confidence_head/__layer_stack_no_per_layer/confidence_pairformer/pair_transition/input_layer_norm\'][\'scale\']"}
  %transition1____weights__.7 = bf16[4,128,1024]{2,1,0} parameter(18), sharding={devices=[2,1,1]<=[2]}, frontend_attributes={xla.sdy.sharding="#sdy.sharding<@mesh, [{\"fsdp\"}, {}, {}]>"}, metadata={op_name="params[\'diffuser/confidence_head/__layer_stack_no_per_layer/confidence_pairformer/pair_transition/transition1\'][\'weights\']"}
  %transition2____weights__.7 = bf16[4,512,128]{2,1,0} parameter(19), sharding={devices=[2,1,1]<=[2]}, frontend_attributes={xla.sdy.sharding="#sdy.sharding<@mesh, [{\"fsdp\"}, {}, {}]>"}, metadata={op_name="params[\'diffuser/confidence_head/__layer_stack_no_per_layer/confidence_pairformer/pair_transition/transition2\'][\'weights\']"}
  %single_attention_gating_query____weights__.2 = bf16[4,384,384]{2,1,0} parameter(20), sharding={devices=[2,1,1]<=[2]}, frontend_attributes={xla.sdy.sharding="#sdy.sharding<@mesh, [{\"fsdp\"}, {}, {}]>"}, metadata={op_name="params[\'diffuser/confidence_head/__layer_stack_no_per_layer/confidence_pairformer/single_attention_gating_query\'][\'weights\']"}
  %single_attention_k_projection____weights__.2 = bf16[4,384,16,24]{3,2,1,0} parameter(21), sharding={devices=[2,1,1,1]<=[2]}, frontend_attributes={xla.sdy.sharding="#sdy.sharding<@mesh, [{\"fsdp\"}, {}, {}, {}]>"}, metadata={op_name="params[\'diffuser/confidence_head/__layer_stack_no_per_layer/confidence_pairformer/single_attention_k_projection\'][\'weights\']"}
  %single_attention_layer_norm____offset__.2 = f32[4,384]{1,0} parameter(22), sharding={devices=[2,1]<=[2]}, frontend_attributes={xla.sdy.sharding="#sdy.sharding<@mesh, [{\"fsdp\"}, {}]>"}, metadata={op_name="params[\'diffuser/confidence_head/__layer_stack_no_per_layer/confidence_pairformer/single_attention_layer_norm\'][\'offset\']"}
  %single_attention_layer_norm____scale__.2 = f32[4,384]{1,0} parameter(23), sharding={devices=[2,1]<=[2]}, frontend_attributes={xla.sdy.sharding="#sdy.sharding<@mesh, [{\"fsdp\"}, {}]>"}, metadata={op_name="params[\'diffuser/confidence_head/__layer_stack_no_per_layer/confidence_pairformer/single_attention_layer_norm\'][\'scale\']"}
  %single_attention_q_projection____bias__.2 = bf16[4,16,24]{2,1,0} parameter(24), sharding={devices=[2,1,1]<=[2]}, frontend_attributes={xla.sdy.sharding="#sdy.sharding<@mesh, [{\"fsdp\"}, {}, {}]>"}, metadata={op_name="params[\'diffuser/confidence_head/__layer_stack_no_per_layer/confidence_pairformer/single_attention_q_projection\'][\'bias\']"}
  %single_attention_q_projection____weights__.2 = bf16[4,384,16,24]{3,2,1,0} parameter(25), sharding={devices=[2,1,1,1]<=[2]}, frontend_attributes={xla.sdy.sharding="#sdy.sharding<@mesh, [{\"fsdp\"}, {}, {}, {}]>"}, metadata={op_name="params[\'diffuser/confidence_head/__layer_stack_no_per_layer/confidence_pairformer/single_attention_q_projection\'][\'weights\']"}
  %single_attention_transition2____weights__.2 = bf16[4,384,384]{2,1,0} parameter(26), sharding={devices=[2,1,1]<=[2]}, frontend_attributes={xla.sdy.sharding="#sdy.sharding<@mesh, [{\"fsdp\"}, {}, {}]>"}, metadata={op_name="params[\'diffuser/confidence_head/__layer_stack_no_per_layer/confidence_pairformer/single_attention_transition2\'][\'weights\']"}
  %single_attention_v_projection____weights__.2 = bf16[4,384,16,24]{3,2,1,0} parameter(27), sharding={devices=[2,1,1,1]<=[2]}, frontend_attributes={xla.sdy.sharding="#sdy.sharding<@mesh, [{\"fsdp\"}, {}, {}, {}]>"}, metadata={op_name="params[\'diffuser/confidence_head/__layer_stack_no_per_layer/confidence_pairformer/single_attention_v_projection\'][\'weights\']"}
  %single_pair_logits_norm____offset__.2 = f32[4,128]{1,0} parameter(28), sharding={devices=[2,1]<=[2]}, frontend_attributes={xla.sdy.sharding="#sdy.sharding<@mesh, [{\"fsdp\"}, {}]>"}, metadata={op_name="params[\'diffuser/confidence_head/__layer_stack_no_per_layer/confidence_pairformer/single_pair_logits_norm\'][\'offset\']"}
  %single_pair_logits_norm____scale__.2 = f32[4,128]{1,0} parameter(29), sharding={devices=[2,1]<=[2]}, frontend_attributes={xla.sdy.sharding="#sdy.sharding<@mesh, [{\"fsdp\"}, {}]>"}, metadata={op_name="params[\'diffuser/confidence_head/__layer_stack_no_per_layer/confidence_pairformer/single_pair_logits_norm\'][\'scale\']"}
  %single_pair_logits_projection____weights__.2 = bf16[4,128,16]{2,1,0} parameter(30), sharding={devices=[2,1,1]<=[2]}, frontend_attributes={xla.sdy.sharding="#sdy.sharding<@mesh, [{\"fsdp\"}, {}, {}]>"}, metadata={op_name="params[\'diffuser/confidence_head/__layer_stack_no_per_layer/confidence_pairformer/single_pair_logits_projection\'][\'weights\']"}
  %input_layer_norm____offset__.8 = f32[4,384]{1,0} parameter(31), sharding={devices=[2,1]<=[2]}, frontend_attributes={xla.sdy.sharding="#sdy.sharding<@mesh, [{\"fsdp\"}, {}]>"}, metadata={op_name="params[\'diffuser/confidence_head/__layer_stack_no_per_layer/confidence_pairformer/single_transition/input_layer_norm\'][\'offset\']"}
  %input_layer_norm____scale__.8 = f32[4,384]{1,0} parameter(32), sharding={devices=[2,1]<=[2]}, frontend_attributes={xla.sdy.sharding="#sdy.sharding<@mesh, [{\"fsdp\"}, {}]>"}, metadata={op_name="params[\'diffuser/confidence_head/__layer_stack_no_per_layer/confidence_pairformer/single_transition/input_layer_norm\'][\'scale\']"}
  %transition1____weights__.8 = bf16[4,384,3072]{2,1,0} parameter(33), sharding={devices=[2,1,1]<=[2]}, frontend_attributes={xla.sdy.sharding="#sdy.sharding<@mesh, [{\"fsdp\"}, {}, {}]>"}, metadata={op_name="params[\'diffuser/confidence_head/__layer_stack_no_per_layer/confidence_pairformer/single_transition/transition1\'][\'weights\']"}
  %transition2____weights__.8 = bf16[4,1536,384]{2,1,0} parameter(34), sharding={devices=[2,1,1]<=[2]}, frontend_attributes={xla.sdy.sharding="#sdy.sharding<@mesh, [{\"fsdp\"}, {}, {}]>"}, metadata={op_name="params[\'diffuser/confidence_head/__layer_stack_no_per_layer/confidence_pairformer/single_transition/transition2\'][\'weights\']"}
  %center_norm____offset__.8 = f32[4,128]{1,0} parameter(35), sharding={devices=[2,1]<=[2]}, frontend_attributes={xla.sdy.sharding="#sdy.sharding<@mesh, [{\"fsdp\"}, {}]>"}, metadata={op_name="params[\'diffuser/confidence_head/__layer_stack_no_per_layer/confidence_pairformer/triangle_multiplication_incoming/center_norm\'][\'offset\']"}
  %center_norm____scale__.8 = f32[4,128]{1,0} parameter(36), sharding={devices=[2,1]<=[2]}, frontend_attributes={xla.sdy.sharding="#sdy.sharding<@mesh, [{\"fsdp\"}, {}]>"}, metadata={op_name="params[\'diffuser/confidence_head/__layer_stack_no_per_layer/confidence_pairformer/triangle_multiplication_incoming/center_norm\'][\'scale\']"}
  %gate____weights__.8 = bf16[4,128,256]{2,1,0} parameter(37), sharding={devices=[2,1,1]<=[2]}, frontend_attributes={xla.sdy.sharding="#sdy.sharding<@mesh, [{\"fsdp\"}, {}, {}]>"}, metadata={op_name="params[\'diffuser/confidence_head/__layer_stack_no_per_layer/confidence_pairformer/triangle_multiplication_incoming/gate\'][\'weights\']"}
  %gating_linear____weights__.8 = bf16[4,128,128]{2,1,0} parameter(38), sharding={devices=[2,1,1]<=[2]}, frontend_attributes={xla.sdy.sharding="#sdy.sharding<@mesh, [{\"fsdp\"}, {}, {}]>"}, metadata={op_name="params[\'diffuser/confidence_head/__layer_stack_no_per_layer/confidence_pairformer/triangle_multiplication_incoming/gating_linear\'][\'weights\']"}
  %left_norm_input____offset__.8 = f32[4,128]{1,0} parameter(39), sharding={devices=[2,1]<=[2]}, frontend_attributes={xla.sdy.sharding="#sdy.sharding<@mesh, [{\"fsdp\"}, {}]>"}, metadata={op_name="params[\'diffuser/confidence_head/__layer_stack_no_per_layer/confidence_pairformer/triangle_multiplication_incoming/left_norm_input\'][\'offset\']"}
  %left_norm_input____scale__.8 = f32[4,128]{1,0} parameter(40), sharding={devices=[2,1]<=[2]}, frontend_attributes={xla.sdy.sharding="#sdy.sharding<@mesh, [{\"fsdp\"}, {}]>"}, metadata={op_name="params[\'diffuser/confidence_head/__layer_stack_no_per_layer/confidence_pairformer/triangle_multiplication_incoming/left_norm_input\'][\'scale\']"}
  %output_projection____weights__.19 = bf16[4,128,128]{2,1,0} parameter(41), sharding={devices=[2,1,1]<=[2]}, frontend_attributes={xla.sdy.sharding="#sdy.sharding<@mesh, [{\"fsdp\"}, {}, {}]>"}, metadata={op_name="params[\'diffuser/confidence_head/__layer_stack_no_per_layer/confidence_pairformer/triangle_multiplication_incoming/output_projection\'][\'weights\']"}
  %projection____weights__.8 = bf16[4,128,256]{2,1,0} parameter(42), sharding={devices=[2,1,1]<=[2]}, frontend_attributes={xla.sdy.sharding="#sdy.sharding<@mesh, [{\"fsdp\"}, {}, {}]>"}, metadata={op_name="params[\'diffuser/confidence_head/__layer_stack_no_per_layer/confidence_pairformer/triangle_multiplication_incoming/projection\'][\'weights\']"}
  %center_norm____offset__.9 = f32[4,128]{1,0} parameter(43), sharding={devices=[2,1]<=[2]}, frontend_attributes={xla.sdy.sharding="#sdy.sharding<@mesh, [{\"fsdp\"}, {}]>"}, metadata={op_name="params[\'diffuser/confidence_head/__layer_stack_no_per_layer/confidence_pairformer/triangle_multiplication_outgoing/center_norm\'][\'offset\']"}
  %center_norm____scale__.9 = f32[4,128]{1,0} parameter(44), sharding={devices=[2,1]<=[2]}, frontend_attributes={xla.sdy.sharding="#sdy.sharding<@mesh, [{\"fsdp\"}, {}]>"}, metadata={op_name="params[\'diffuser/confidence_head/__layer_stack_no_per_layer/confidence_pairformer/triangle_multiplication_outgoing/center_norm\'][\'scale\']"}
  %gate____weights__.9 = bf16[4,128,256]{2,1,0} parameter(45), sharding={devices=[2,1,1]<=[2]}, frontend_attributes={xla.sdy.sharding="#sdy.sharding<@mesh, [{\"fsdp\"}, {}, {}]>"}, metadata={op_name="params[\'diffuser/confidence_head/__layer_stack_no_per_layer/confidence_pairformer/triangle_multiplication_outgoing/gate\'][\'weights\']"}
  %gating_linear____weights__.9 = bf16[4,128,128]{2,1,0} parameter(46), sharding={devices=[2,1,1]<=[2]}, frontend_attributes={xla.sdy.sharding="#sdy.sharding<@mesh, [{\"fsdp\"}, {}, {}]>"}, metadata={op_name="params[\'diffuser/confidence_head/__layer_stack_no_per_layer/confidence_pairformer/triangle_multiplication_outgoing/gating_linear\'][\'weights\']"}
  %left_norm_input____offset__.9 = f32[4,128]{1,0} parameter(47), sharding={devices=[2,1]<=[2]}, frontend_attributes={xla.sdy.sharding="#sdy.sharding<@mesh, [{\"fsdp\"}, {}]>"}, metadata={op_name="params[\'diffuser/confidence_head/__layer_stack_no_per_layer/confidence_pairformer/triangle_multiplication_outgoing/left_norm_input\'][\'offset\']"}
  %left_norm_input____scale__.9 = f32[4,128]{1,0} parameter(48), sharding={devices=[2,1]<=[2]}, frontend_attributes={xla.sdy.sharding="#sdy.sharding<@mesh, [{\"fsdp\"}, {}]>"}, metadata={op_name="params[\'diffuser/confidence_head/__layer_stack_no_per_layer/confidence_pairformer/triangle_multiplication_outgoing/left_norm_input\'][\'scale\']"}
  %output_projection____weights__.20 = bf16[4,128,128]{2,1,0} parameter(49), sharding={devices=[2,1,1]<=[2]}, frontend_attributes={xla.sdy.sharding="#sdy.sharding<@mesh, [{\"fsdp\"}, {}, {}]>"}, metadata={op_name="params[\'diffuser/confidence_head/__layer_stack_no_per_layer/confidence_pairformer/triangle_multiplication_outgoing/output_projection\'][\'weights\']"}
  %projection____weights__.9 = bf16[4,128,256]{2,1,0} parameter(50), sharding={devices=[2,1,1]<=[2]}, frontend_attributes={xla.sdy.sharding="#sdy.sharding<@mesh, [{\"fsdp\"}, {}, {}]>"}, metadata={op_name="params[\'diffuser/confidence_head/__layer_stack_no_per_layer/confidence_pairformer/triangle_multiplication_outgoing/projection\'][\'weights\']"}
  %logits_ln____scale__.1 = f32[128]{0} parameter(56), sharding={devices=[2]<=[2]}, frontend_attributes={xla.sdy.sharding="#sdy.sharding<@mesh, [{\"fsdp\"}]>"}, metadata={op_name="params[\'diffuser/confidence_head/logits_ln\'][\'scale\']"}
  %logits_ln____offset__.1 = f32[128]{0} parameter(55), sharding={devices=[2]<=[2]}, frontend_attributes={xla.sdy.sharding="#sdy.sharding<@mesh, [{\"fsdp\"}]>"}, metadata={op_name="params[\'diffuser/confidence_head/logits_ln\'][\'offset\']"}
  %left_half_distance_logits____weights__.1 = f32[128,64]{1,0} parameter(54), sharding={devices=[2,1]<=[2]}, frontend_attributes={xla.sdy.sharding="#sdy.sharding<@mesh, [{\"fsdp\"}, {}]>"}, metadata={op_name="params[\'diffuser/confidence_head/left_half_distance_logits\'][\'weights\']"}
  %pae_logits_ln____scale__.1 = f32[128]{0} parameter(59), sharding={devices=[2]<=[2]}, frontend_attributes={xla.sdy.sharding="#sdy.sharding<@mesh, [{\"fsdp\"}]>"}, metadata={op_name="params[\'diffuser/confidence_head/pae_logits_ln\'][\'scale\']"}
  %pae_logits_ln____offset__.1 = f32[128]{0} parameter(58), sharding={devices=[2]<=[2]}, frontend_attributes={xla.sdy.sharding="#sdy.sharding<@mesh, [{\"fsdp\"}]>"}, metadata={op_name="params[\'diffuser/confidence_head/pae_logits_ln\'][\'offset\']"}
  %pae_logits____weights__.1 = f32[128,64]{1,0} parameter(57), sharding={devices=[2,1]<=[2]}, frontend_attributes={xla.sdy.sharding="#sdy.sharding<@mesh, [{\"fsdp\"}, {}]>"}, metadata={op_name="params[\'diffuser/confidence_head/pae_logits\'][\'weights\']"}
  %plddt_logits_ln____scale__.1 = f32[384]{0} parameter(62), sharding={devices=[2]<=[2]}, frontend_attributes={xla.sdy.sharding="#sdy.sharding<@mesh, [{\"fsdp\"}]>"}, metadata={op_name="params[\'diffuser/confidence_head/plddt_logits_ln\'][\'scale\']"}
  %plddt_logits_ln____offset__.1 = f32[384]{0} parameter(61), sharding={devices=[2]<=[2]}, frontend_attributes={xla.sdy.sharding="#sdy.sharding<@mesh, [{\"fsdp\"}]>"}, metadata={op_name="params[\'diffuser/confidence_head/plddt_logits_ln\'][\'offset\']"}
  %plddt_logits____weights__.1 = f32[384,24,50]{2,1,0} parameter(60), sharding={devices=[2,1,1]<=[2]}, frontend_attributes={xla.sdy.sharding="#sdy.sharding<@mesh, [{\"fsdp\"}, {}, {}]>"}, metadata={op_name="params[\'diffuser/confidence_head/plddt_logits\'][\'weights\']"}
  %experimentally_resolved_ln____scale__.1 = f32[384]{0} parameter(52), sharding={devices=[2]<=[2]}, frontend_attributes={xla.sdy.sharding="#sdy.sharding<@mesh, [{\"fsdp\"}]>"}, metadata={op_name="params[\'diffuser/confidence_head/experimentally_resolved_ln\'][\'scale\']"}
  %experimentally_resolved_ln____offset__.1 = f32[384]{0} parameter(51), sharding={devices=[2]<=[2]}, frontend_attributes={xla.sdy.sharding="#sdy.sharding<@mesh, [{\"fsdp\"}]>"}, metadata={op_name="params[\'diffuser/confidence_head/experimentally_resolved_ln\'][\'offset\']"}
  %experimentally_resolved_logits____weights__.1 = f32[384,24,2]{2,1,0} parameter(53), sharding={devices=[2,1,1]<=[2]}, frontend_attributes={xla.sdy.sharding="#sdy.sharding<@mesh, [{\"fsdp\"}, {}, {}]>"}, metadata={op_name="params[\'diffuser/confidence_head/experimentally_resolved_logits\'][\'weights\']"}
  %while.406 = (s32[], f32[1]{0}, f32[1,150,150]{2,1,0}, f32[1,150,150]{2,1,0}, f32[1,150,24]{2,1,0}, /*index=5*/f32[1,150,24]{2,1,0}, f32[1,150,150]{2,1,0}, f32[1,150,150]{2,1,0}, f32[1,150,24,3]{3,2,1,0}, pred[150]{0}, /*index=10*/f32[150,150,128]{2,1,0}, f32[150,384]{1,0}, bf16[150,447]{1,0}, bf16[447,128]{1,0}, bf16[447,128]{1,0}, /*index=15*/s32[150]{0}, pred[150]{0}, bf16[39,128]{1,0}, f32[4,128]{1,0}, f32[4,128]{1,0}, /*index=20*/bf16[4,128,128]{2,1,0}, bf16[4,4,32,128]{3,2,1,0}, bf16[4,128,128]{2,1,0}, bf16[4,128,4]{2,1,0}, bf16[4,4,32,128]{3,2,1,0}, /*index=25*/bf16[4,128,4,32]{3,2,1,0}, f32[4,128]{1,0}, f32[4,128]{1,0}, bf16[4,128,128]{2,1,0}, bf16[4,4,32,128]{3,2,1,0}, /*index=30*/bf16[4,128,128]{2,1,0}, bf16[4,128,4]{2,1,0}, bf16[4,4,32,128]{3,2,1,0}, bf16[4,128,4,32]{3,2,1,0}, f32[4,128]{1,0}, /*index=35*/f32[4,128]{1,0}, bf16[4,128,1024]{2,1,0}, bf16[4,512,128]{2,1,0}, bf16[4,384,384]{2,1,0}, bf16[4,384,16,24]{3,2,1,0}, /*index=40*/f32[4,384]{1,0}, f32[4,384]{1,0}, bf16[4,16,24]{2,1,0}, bf16[4,384,16,24]{3,2,1,0}, bf16[4,384,384]{2,1,0}, /*index=45*/bf16[4,384,16,24]{3,2,1,0}, f32[4,128]{1,0}, f32[4,128]{1,0}, bf16[4,128,16]{2,1,0}, f32[4,384]{1,0}, /*index=50*/f32[4,384]{1,0}, bf16[4,384,3072]{2,1,0}, bf16[4,1536,384]{2,1,0}, f32[4,128]{1,0}, f32[4,128]{1,0}, /*index=55*/bf16[4,128,256]{2,1,0}, bf16[4,128,128]{2,1,0}, f32[4,128]{1,0}, f32[4,128]{1,0}, bf16[4,128,128]{2,1,0}, /*index=60*/bf16[4,128,256]{2,1,0}, f32[4,128]{1,0}, f32[4,128]{1,0}, bf16[4,128,256]{2,1,0}, bf16[4,128,128]{2,1,0}, /*index=65*/f32[4,128]{1,0}, f32[4,128]{1,0}, bf16[4,128,128]{2,1,0}, bf16[4,128,256]{2,1,0}, f32[128]{0}, /*index=70*/f32[128]{0}, f32[128,64]{1,0}, f32[128]{0}, f32[128]{0}, f32[128,64]{1,0}, /*index=75*/s32[150]{0}, f32[384]{0}, f32[384]{0}, f32[384,24,50]{2,1,0}, f32[384]{0}, /*index=80*/f32[384]{0}, f32[384,24,2]{2,1,0}) tuple(%constant.1681, %constant.1656, %broadcast.410, %broadcast.410, %broadcast.409, /*index=5*/%broadcast.409, %broadcast.410, %broadcast.410, %while.404, %b__seq_mask__.1, /*index=10*/%while.396, %while.397, %while.398, %left_target_feat_project____weights__.1, %right_target_feat_project____weights__.1, /*index=15*/%b__token_atoms_to_pseudo_beta_gather_idxs__.1, %b__token_atoms_to_pseudo_beta_gather_mask__.1, %distogram_feat_project____weights__.1, %act_norm____offset__.9, %act_norm____scale__.9, /*index=20*/%gating_query____weights__.9, %k_projection____weights__.8, %output_projection____weights__.17, %pair_bias_projection____weights__.8, %q_projection____weights__.8, /*index=25*/%v_projection____weights__.9, %act_norm____offset__.10, %act_norm____scale__.10, %gating_query____weights__.10, %k_projection____weights__.9, /*index=30*/%output_projection____weights__.18, %pair_bias_projection____weights__.9, %q_projection____weights__.9, %v_projection____weights__.10, %input_layer_norm____offset__.7, /*index=35*/%input_layer_norm____scale__.7, %transition1____weights__.7, %transition2____weights__.7, %single_attention_gating_query____weights__.2, %single_attention_k_projection____weights__.2, /*index=40*/%single_attention_layer_norm____offset__.2, %single_attention_layer_norm____scale__.2, %single_attention_q_projection____bias__.2, %single_attention_q_projection____weights__.2, %single_attention_transition2____weights__.2, /*index=45*/%single_attention_v_projection____weights__.2, %single_pair_logits_norm____offset__.2, %single_pair_logits_norm____scale__.2, %single_pair_logits_projection____weights__.2, %input_layer_norm____offset__.8, /*index=50*/%input_layer_norm____scale__.8, %transition1____weights__.8, %transition2____weights__.8, %center_norm____offset__.8, %center_norm____scale__.8, /*index=55*/%gate____weights__.8, %gating_linear____weights__.8, %left_norm_input____offset__.8, %left_norm_input____scale__.8, %output_projection____weights__.19, /*index=60*/%projection____weights__.8, %center_norm____offset__.9, %center_norm____scale__.9, %gate____weights__.9, %gating_linear____weights__.9, /*index=65*/%left_norm_input____offset__.9, %left_norm_input____scale__.9, %output_projection____weights__.20, %projection____weights__.9, %logits_ln____scale__.1, /*index=70*/%logits_ln____offset__.1, %left_half_distance_logits____weights__.1, %pae_logits_ln____scale__.1, %pae_logits_ln____offset__.1, %pae_logits____weights__.1, /*index=75*/%b__asym_id__.1, %plddt_logits_ln____scale__.1, %plddt_logits_ln____offset__.1, %plddt_logits____weights__.1, %experimentally_resolved_ln____scale__.1, /*index=80*/%experimentally_resolved_ln____offset__.1, %experimentally_resolved_logits____weights__.1), metadata={op_name="jit(apply_fn)/diffuser/while" stack_frame_id=4554}
  %while.407 = (s32[], f32[1]{0}, f32[1,150,150]{2,1,0}, f32[1,150,150]{2,1,0}, f32[1,150,24]{2,1,0}, /*index=5*/f32[1,150,24]{2,1,0}, f32[1,150,150]{2,1,0}, f32[1,150,150]{2,1,0}, f32[1,150,24,3]{3,2,1,0}, pred[150]{0}, /*index=10*/f32[150,150,128]{2,1,0}, f32[150,384]{1,0}, bf16[150,447]{1,0}, bf16[447,128]{1,0}, bf16[447,128]{1,0}, /*index=15*/s32[150]{0}, pred[150]{0}, bf16[39,128]{1,0}, f32[4,128]{1,0}, f32[4,128]{1,0}, /*index=20*/bf16[4,128,128]{2,1,0}, bf16[4,4,32,128]{3,2,1,0}, bf16[4,128,128]{2,1,0}, bf16[4,128,4]{2,1,0}, bf16[4,4,32,128]{3,2,1,0}, /*index=25*/bf16[4,128,4,32]{3,2,1,0}, f32[4,128]{1,0}, f32[4,128]{1,0}, bf16[4,128,128]{2,1,0}, bf16[4,4,32,128]{3,2,1,0}, /*index=30*/bf16[4,128,128]{2,1,0}, bf16[4,128,4]{2,1,0}, bf16[4,4,32,128]{3,2,1,0}, bf16[4,128,4,32]{3,2,1,0}, f32[4,128]{1,0}, /*index=35*/f32[4,128]{1,0}, bf16[4,128,1024]{2,1,0}, bf16[4,512,128]{2,1,0}, bf16[4,384,384]{2,1,0}, bf16[4,384,16,24]{3,2,1,0}, /*index=40*/f32[4,384]{1,0}, f32[4,384]{1,0}, bf16[4,16,24]{2,1,0}, bf16[4,384,16,24]{3,2,1,0}, bf16[4,384,384]{2,1,0}, /*index=45*/bf16[4,384,16,24]{3,2,1,0}, f32[4,128]{1,0}, f32[4,128]{1,0}, bf16[4,128,16]{2,1,0}, f32[4,384]{1,0}, /*index=50*/f32[4,384]{1,0}, bf16[4,384,3072]{2,1,0}, bf16[4,1536,384]{2,1,0}, f32[4,128]{1,0}, f32[4,128]{1,0}, /*index=55*/bf16[4,128,256]{2,1,0}, bf16[4,128,128]{2,1,0}, f32[4,128]{1,0}, f32[4,128]{1,0}, bf16[4,128,128]{2,1,0}, /*index=60*/bf16[4,128,256]{2,1,0}, f32[4,128]{1,0}, f32[4,128]{1,0}, bf16[4,128,256]{2,1,0}, bf16[4,128,128]{2,1,0}, /*index=65*/f32[4,128]{1,0}, f32[4,128]{1,0}, bf16[4,128,128]{2,1,0}, bf16[4,128,256]{2,1,0}, f32[128]{0}, /*index=70*/f32[128]{0}, f32[128,64]{1,0}, f32[128]{0}, f32[128]{0}, f32[128,64]{1,0}, /*index=75*/s32[150]{0}, f32[384]{0}, f32[384]{0}, f32[384,24,50]{2,1,0}, f32[384]{0}, /*index=80*/f32[384]{0}, f32[384,24,2]{2,1,0}) while(%while.406), condition=%region_316.538, body=%region_250.537, metadata={op_name="jit(apply_fn)/diffuser/while" stack_frame_id=4554}
  %while.408 = s32[] get-tuple-element(%while.407), index=0, metadata={op_name="jit(apply_fn)/diffuser/while" stack_frame_id=4554}
  %while.409 = f32[1]{0} get-tuple-element(%while.407), index=1, metadata={op_name="jit(apply_fn)/diffuser/while" stack_frame_id=4554}
  %while.416 = f32[1]{0} custom-call(%while.409), custom_call_target="xla.sdy.FuncResultSharding", custom_call_has_side_effect=true, frontend_attributes={xla.sdy.sharding="#sdy.sharding_per_value<[<@mesh, [{}]>]>"}, metadata={op_name="jit(apply_fn)/diffuser/while" stack_frame_id=4554}
  %reshape.521 = f32[1]{0} reshape(%while.416), sharding={replicated}
  %while.417 = f32[1,150,24,3]{3,2,1,0} custom-call(%while.404), custom_call_target="xla.sdy.FuncResultSharding", custom_call_has_side_effect=true, frontend_attributes={xla.sdy.sharding="#sdy.sharding_per_value<[<@mesh, [{}, {}, {}, {}]>]>"}, metadata={op_name="jit(apply_fn)/diffuser/while" stack_frame_id=3747}
  %reshape.522 = f32[1,150,24,3]{3,2,1,0} reshape(%while.417), sharding={replicated}
  %broadcast_in_dim.1271 = pred[1,150,24]{2,1,0} reshape(%b__pred_dense_atom_mask__.1), metadata={op_name="jit(apply_fn)/diffuser/broadcast_in_dim" stack_frame_id=4833}
  %tile.1 = pred[1,150,24]{2,1,0} custom-call(%broadcast_in_dim.1271), custom_call_target="xla.sdy.FuncResultSharding", custom_call_has_side_effect=true, frontend_attributes={xla.sdy.sharding="#sdy.sharding_per_value<[<@mesh, [{}, {}, {}]>]>"}, metadata={op_name="jit(apply_fn)/diffuser/tile" stack_frame_id=4850}
  %reshape.523 = pred[1,150,24]{2,1,0} reshape(%tile.1), sharding={replicated}
  %constant.1677 = f32[] constant(2.3125)
  %constant.1676 = f32[] constant(21.6875)
  %jit__linspace_.12 = f32[63]{0} call(%constant.1677, %constant.1676), to_apply=%_linspace_200.541, metadata={op_name="jit(apply_fn)/diffuser/distogram_head/jit(_linspace)" stack_frame_id=4842}
  %jit__linspace_.13 = f32[63]{0} custom-call(%jit__linspace_.12), custom_call_target="xla.sdy.FuncResultSharding", custom_call_has_side_effect=true, frontend_attributes={xla.sdy.sharding="#sdy.sharding_per_value<[<@mesh, [{}]>]>"}, metadata={op_name="jit(apply_fn)/diffuser/distogram_head/jit(_linspace)" stack_frame_id=4842}
  %reshape.524 = f32[63]{0} reshape(%jit__linspace_.13), sharding={replicated}
  %broadcast_in_dim.1272 = pred[150,1]{1,0} reshape(%b__seq_mask__.1), metadata={op_name="jit(apply_fn)/diffuser/distogram_head/broadcast_in_dim" stack_frame_id=4834}
  %and.77 = pred[150,1]{1,0} broadcast(%broadcast_in_dim.1272), dimensions={0,1}, metadata={op_name="jit(apply_fn)/diffuser/distogram_head/and" stack_frame_id=4834}
  %and.78 = pred[150]{0} reshape(%and.77), metadata={op_name="jit(apply_fn)/diffuser/distogram_head/and" stack_frame_id=4834}
  %and.79 = pred[150,150]{1,0} broadcast(%and.78), dimensions={0}, metadata={op_name="jit(apply_fn)/diffuser/distogram_head/and" stack_frame_id=4834}
  %broadcast_in_dim.1273 = pred[1,150]{1,0} reshape(%b__seq_mask__.1), metadata={op_name="jit(apply_fn)/diffuser/distogram_head/broadcast_in_dim" stack_frame_id=4835}
  %and.80 = pred[1,150]{1,0} broadcast(%broadcast_in_dim.1273), dimensions={0,1}, metadata={op_name="jit(apply_fn)/diffuser/distogram_head/and" stack_frame_id=4834}
  %and.81 = pred[150]{0} reshape(%and.80), metadata={op_name="jit(apply_fn)/diffuser/distogram_head/and" stack_frame_id=4834}
  %and.82 = pred[150,150]{1,0} broadcast(%and.81), dimensions={1}, metadata={op_name="jit(apply_fn)/diffuser/distogram_head/and" stack_frame_id=4834}
  %and.83 = pred[150,150]{1,0} and(%and.79, %and.82), metadata={op_name="jit(apply_fn)/diffuser/distogram_head/and" stack_frame_id=4834}
  %convert_element_type.649 = f32[150,150]{1,0} convert(%and.83), metadata={op_name="jit(apply_fn)/diffuser/distogram_head/convert_element_type" stack_frame_id=4849}
  %half_logits____weights__.1 = f32[128,64]{1,0} parameter(66), sharding={devices=[2,1]<=[2]}, frontend_attributes={xla.sdy.sharding="#sdy.sharding<@mesh, [{\"fsdp\"}, {}]>"}, metadata={op_name="params[\'diffuser/distogram_head/half_logits\'][\'weights\']"}
  %dot_general.666 = f32[150,150,64]{2,1,0} dot(%while.396, %half_logits____weights__.1), lhs_contracting_dims={2}, rhs_contracting_dims={0}, metadata={op_name="jit(apply_fn)/diffuser/distogram_head/half_logits/...a, ah->...h/dot_general" stack_frame_id=4839}
  %transpose.149 = f32[150,150,64]{2,0,1} transpose(%dot_general.666), dimensions={1,0,2}, metadata={op_name="jit(apply_fn)/diffuser/distogram_head/transpose" stack_frame_id=4840}
  %add.2220 = f32[150,150,64]{2,1,0} add(%dot_general.666, %transpose.149), metadata={op_name="jit(apply_fn)/diffuser/distogram_head/add" stack_frame_id=4841}
  %constant.1678 = f32[] constant(-inf)
  %reduce_max.231 = f32[150,150]{1,0} reduce(%add.2220, %constant.1678), dimensions={2}, to_apply=%region_317.539, metadata={op_name="jit(apply_fn)/diffuser/distogram_head/reduce_max" stack_frame_id=4566}
  %constant.1653 = f32[] constant(-inf)
  %max.150 = f32[150,150]{1,0} broadcast(%constant.1653), dimensions={}, metadata={op_name="jit(apply_fn)/diffuser/distogram_head/max" stack_frame_id=4566}
  %max.153 = f32[150,150]{1,0} maximum(%reduce_max.231, %max.150), metadata={op_name="jit(apply_fn)/diffuser/distogram_head/max" stack_frame_id=4566}
  %broadcast_in_dim.1274 = f32[150,150,1]{2,1,0} reshape(%max.153), metadata={op_name="jit(apply_fn)/diffuser/distogram_head/broadcast_in_dim" stack_frame_id=4566}
  %sub.1539 = f32[150,150,1]{2,1,0} broadcast(%broadcast_in_dim.1274), dimensions={0,1,2}, metadata={op_name="jit(apply_fn)/diffuser/distogram_head/sub" stack_frame_id=4566}
  %sub.1540 = f32[150,150]{1,0} reshape(%sub.1539), metadata={op_name="jit(apply_fn)/diffuser/distogram_head/sub" stack_frame_id=4566}
  %sub.1541 = f32[150,150,64]{2,1,0} broadcast(%sub.1540), dimensions={0,1}, metadata={op_name="jit(apply_fn)/diffuser/distogram_head/sub" stack_frame_id=4566}
  %sub.1542 = f32[150,150,64]{2,1,0} subtract(%add.2220, %sub.1541), metadata={op_name="jit(apply_fn)/diffuser/distogram_head/sub" stack_frame_id=4566}
  %exp.191 = f32[150,150,64]{2,1,0} exponential(%sub.1542), metadata={op_name="jit(apply_fn)/diffuser/distogram_head/exp" stack_frame_id=4566}
  %reduce_sum.1719 = f32[150,150]{1,0} reduce(%exp.191, %constant.1680), dimensions={2}, to_apply=%region_318.540, metadata={op_name="jit(apply_fn)/diffuser/distogram_head/reduce_sum" stack_frame_id=4566}
  %broadcast_in_dim.1275 = f32[150,150,1]{2,1,0} reshape(%reduce_sum.1719), metadata={op_name="jit(apply_fn)/diffuser/distogram_head/broadcast_in_dim" stack_frame_id=4566}
  %div.946 = f32[150,150,1]{2,1,0} broadcast(%broadcast_in_dim.1275), dimensions={0,1,2}, metadata={op_name="jit(apply_fn)/diffuser/distogram_head/div" stack_frame_id=4566}
  %div.947 = f32[150,150]{1,0} reshape(%div.946), metadata={op_name="jit(apply_fn)/diffuser/distogram_head/div" stack_frame_id=4566}
  %div.948 = f32[150,150,64]{2,1,0} broadcast(%div.947), dimensions={0,1}, metadata={op_name="jit(apply_fn)/diffuser/distogram_head/div" stack_frame_id=4566}
  %div.949 = f32[150,150,64]{2,1,0} divide(%exp.191, %div.948), metadata={op_name="jit(apply_fn)/diffuser/distogram_head/div" stack_frame_id=4566}
  %slice.223 = f32[1]{0} slice(%jit__linspace_.12), slice={[62:63]}, metadata={op_name="jit(apply_fn)/diffuser/distogram_head/slice" stack_frame_id=4843}
  %squeeze.435 = f32[] reshape(%slice.223), metadata={op_name="jit(apply_fn)/diffuser/distogram_head/squeeze" stack_frame_id=4843}
  %slice.224 = f32[1]{0} slice(%jit__linspace_.12), slice={[62:63]}, metadata={op_name="jit(apply_fn)/diffuser/distogram_head/slice" stack_frame_id=4844}
  %squeeze.436 = f32[] reshape(%slice.224), metadata={op_name="jit(apply_fn)/diffuser/distogram_head/squeeze" stack_frame_id=4844}
  %slice.225 = f32[1]{0} slice(%jit__linspace_.12), slice={[61:62]}, metadata={op_name="jit(apply_fn)/diffuser/distogram_head/slice" stack_frame_id=4845}
  %squeeze.437 = f32[] reshape(%slice.225), metadata={op_name="jit(apply_fn)/diffuser/distogram_head/squeeze" stack_frame_id=4845}
  %sub.1543 = f32[] subtract(%squeeze.436, %squeeze.437), metadata={op_name="jit(apply_fn)/diffuser/distogram_head/sub" stack_frame_id=4844}
  %add.2221 = f32[] add(%squeeze.435, %sub.1543), metadata={op_name="jit(apply_fn)/diffuser/distogram_head/add" stack_frame_id=4843}
  %jit_append_.1 = f32[64]{0} call(%jit__linspace_.12, %add.2221), to_apply=%append.542, metadata={op_name="jit(apply_fn)/diffuser/distogram_head/jit(append)" stack_frame_id=4846}
  %constant.1652 = f32[] constant(8.001)
  %le.18 = f32[64]{0} broadcast(%constant.1652), dimensions={}, metadata={op_name="jit(apply_fn)/diffuser/distogram_head/le" stack_frame_id=4567}
  %le.19 = pred[64]{0} compare(%jit_append_.1, %le.18), direction=LE, metadata={op_name="jit(apply_fn)/diffuser/distogram_head/le" stack_frame_id=4567}
  %convert_element_type.648 = f32[64]{0} convert(%le.19), metadata={op_name="jit(apply_fn)/diffuser/distogram_head/convert_element_type" stack_frame_id=4847}
  %dot_general.667 = f32[150,150]{1,0} dot(%div.949, %convert_element_type.648), lhs_contracting_dims={2}, rhs_contracting_dims={0}, operand_precision={highest,highest}, metadata={op_name="jit(apply_fn)/diffuser/distogram_head/ijk,k->ij/dot_general" stack_frame_id=4848}
  %mul.2596 = f32[150,150]{1,0} multiply(%convert_element_type.649, %dot_general.667), metadata={op_name="jit(apply_fn)/diffuser/distogram_head/mul" stack_frame_id=4849}
  %mul.2597 = f32[150,150]{1,0} custom-call(%mul.2596), custom_call_target="xla.sdy.FuncResultSharding", custom_call_has_side_effect=true, frontend_attributes={xla.sdy.sharding="#sdy.sharding_per_value<[<@mesh, [{}, {}]>]>"}, metadata={op_name="jit(apply_fn)/diffuser/distogram_head/mul" stack_frame_id=4849}
  %reshape.525 = f32[150,150]{1,0} reshape(%mul.2597), sharding={replicated}
  %while.410 = f32[1,150,150]{2,1,0} get-tuple-element(%while.407), index=2, metadata={op_name="jit(apply_fn)/diffuser/while" stack_frame_id=4554}
  %while.418 = f32[1,150,150]{2,1,0} custom-call(%while.410), custom_call_target="xla.sdy.FuncResultSharding", custom_call_has_side_effect=true, frontend_attributes={xla.sdy.sharding="#sdy.sharding_per_value<[<@mesh, [{}, {}, {}]>]>"}, metadata={op_name="jit(apply_fn)/diffuser/while" stack_frame_id=4554}
  %reshape.526 = f32[1,150,150]{2,1,0} reshape(%while.418), sharding={replicated}
  %while.411 = f32[1,150,150]{2,1,0} get-tuple-element(%while.407), index=3, metadata={op_name="jit(apply_fn)/diffuser/while" stack_frame_id=4554}
  %while.419 = f32[1,150,150]{2,1,0} custom-call(%while.411), custom_call_target="xla.sdy.FuncResultSharding", custom_call_has_side_effect=true, frontend_attributes={xla.sdy.sharding="#sdy.sharding_per_value<[<@mesh, [{}, {}, {}]>]>"}, metadata={op_name="jit(apply_fn)/diffuser/while" stack_frame_id=4554}
  %reshape.527 = f32[1,150,150]{2,1,0} reshape(%while.419), sharding={replicated}
  %while.412 = f32[1,150,24]{2,1,0} get-tuple-element(%while.407), index=4, metadata={op_name="jit(apply_fn)/diffuser/while" stack_frame_id=4554}
  %while.420 = f32[1,150,24]{2,1,0} custom-call(%while.412), custom_call_target="xla.sdy.FuncResultSharding", custom_call_has_side_effect=true, frontend_attributes={xla.sdy.sharding="#sdy.sharding_per_value<[<@mesh, [{}, {}, {}]>]>"}, metadata={op_name="jit(apply_fn)/diffuser/while" stack_frame_id=4554}
  %reshape.528 = f32[1,150,24]{2,1,0} reshape(%while.420), sharding={replicated}
  %while.413 = f32[1,150,24]{2,1,0} get-tuple-element(%while.407), index=5, metadata={op_name="jit(apply_fn)/diffuser/while" stack_frame_id=4554}
  %while.421 = f32[1,150,24]{2,1,0} custom-call(%while.413), custom_call_target="xla.sdy.FuncResultSharding", custom_call_has_side_effect=true, frontend_attributes={xla.sdy.sharding="#sdy.sharding_per_value<[<@mesh, [{}, {}, {}]>]>"}, metadata={op_name="jit(apply_fn)/diffuser/while" stack_frame_id=4554}
  %reshape.529 = f32[1,150,24]{2,1,0} reshape(%while.421), sharding={replicated}
  %while.414 = f32[1,150,150]{2,1,0} get-tuple-element(%while.407), index=6, metadata={op_name="jit(apply_fn)/diffuser/while" stack_frame_id=4554}
  %while.422 = f32[1,150,150]{2,1,0} custom-call(%while.414), custom_call_target="xla.sdy.FuncResultSharding", custom_call_has_side_effect=true, frontend_attributes={xla.sdy.sharding="#sdy.sharding_per_value<[<@mesh, [{}, {}, {}]>]>"}, metadata={op_name="jit(apply_fn)/diffuser/while" stack_frame_id=4554}
  %reshape.530 = f32[1,150,150]{2,1,0} reshape(%while.422), sharding={replicated}
  %while.415 = f32[1,150,150]{2,1,0} get-tuple-element(%while.407), index=7, metadata={op_name="jit(apply_fn)/diffuser/while" stack_frame_id=4554}
  %while.423 = f32[1,150,150]{2,1,0} custom-call(%while.415), custom_call_target="xla.sdy.FuncResultSharding", custom_call_has_side_effect=true, frontend_attributes={xla.sdy.sharding="#sdy.sharding_per_value<[<@mesh, [{}, {}, {}]>]>"}, metadata={op_name="jit(apply_fn)/diffuser/while" stack_frame_id=4554}
  %reshape.531 = f32[1,150,150]{2,1,0} reshape(%while.423), sharding={replicated}
  ROOT %tuple.113 = (f32[1]{0}, f32[1,150,24,3]{3,2,1,0}, pred[1,150,24]{2,1,0}, f32[63]{0}, f32[150,150]{1,0}, /*index=5*/f32[1,150,150]{2,1,0}, f32[1,150,150]{2,1,0}, f32[1,150,24]{2,1,0}, f32[1,150,24]{2,1,0}, f32[1,150,150]{2,1,0}, /*index=10*/f32[1,150,150]{2,1,0}) tuple(%while.416, %while.417, %tile.1, %jit__linspace_.13, %mul.2597, /*index=5*/%while.418, %while.419, %while.420, %while.421, %while.422, /*index=10*/%while.423), sharding={{replicated}, {replicated}, {replicated}, {replicated}, {replicated}, /*index=5*/{replicated}, {replicated}, {replicated}, {replicated}, {replicated}, /*index=10*/{replicated}}
}

