HloModule jit_predict_step, entry_computation_layout={(f32[768]{0}, f32[768]{0}, f32[768]{0}, f32[768]{0}, f32[768]{0}, /*index=5*/f32[768]{0}, f32[3072]{0}, f32[768,3072]{1,0}, f32[768]{0}, f32[3072,768]{1,0}, /*index=10*/f32[12,64]{1,0}, f32[768,12,64]{2,1,0}, f32[768]{0}, f32[12,64,768]{2,1,0}, f32[12,64]{1,0}, /*index=15*/f32[768,12,64]{2,1,0}, f32[12,64]{1,0}, f32[768,12,64]{2,1,0}, f32[768]{0}, f32[768]{0}, /*index=20*/f32[768]{0}, f32[768]{0}, f32[3072]{0}, f32[768,3072]{1,0}, f32[768]{0}, /*index=25*/f32[3072,768]{1,0}, f32[12,64]{1,0}, f32[768,12,64]{2,1,0}, f32[768]{0}, f32[12,64,768]{2,1,0}, /*index=30*/f32[12,64]{1,0}, f32[768,12,64]{2,1,0}, f32[12,64]{1,0}, f32[768,12,64]{2,1,0}, f32[768]{0}, /*index=35*/f32[768]{0}, f32[768]{0}, f32[768]{0}, f32[3072]{0}, f32[768,3072]{1,0}, /*index=40*/f32[768]{0}, f32[3072,768]{1,0}, f32[12,64]{1,0}, f32[768,12,64]{2,1,0}, f32[768]{0}, /*index=45*/f32[12,64,768]{2,1,0}, f32[12,64]{1,0}, f32[768,12,64]{2,1,0}, f32[12,64]{1,0}, f32[768,12,64]{2,1,0}, /*index=50*/f32[768]{0}, f32[768]{0}, f32[768]{0}, f32[768]{0}, f32[3072]{0}, /*index=55*/f32[768,3072]{1,0}, f32[768]{0}, f32[3072,768]{1,0}, f32[12,64]{1,0}, f32[768,12,64]{2,1,0}, /*index=60*/f32[768]{0}, f32[12,64,768]{2,1,0}, f32[12,64]{1,0}, f32[768,12,64]{2,1,0}, f32[12,64]{1,0}, /*index=65*/f32[768,12,64]{2,1,0}, f32[768]{0}, f32[768]{0}, f32[768]{0}, f32[768]{0}, /*index=70*/f32[3072]{0}, f32[768,3072]{1,0}, f32[768]{0}, f32[3072,768]{1,0}, f32[12,64]{1,0}, /*index=75*/f32[768,12,64]{2,1,0}, f32[768]{0}, f32[12,64,768]{2,1,0}, f32[12,64]{1,0}, f32[768,12,64]{2,1,0}, /*index=80*/f32[12,64]{1,0}, f32[768,12,64]{2,1,0}, f32[768]{0}, f32[768]{0}, f32[768]{0}, /*index=85*/f32[768]{0}, f32[3072]{0}, f32[768,3072]{1,0}, f32[768]{0}, f32[3072,768]{1,0}, /*index=90*/f32[12,64]{1,0}, f32[768,12,64]{2,1,0}, f32[768]{0}, f32[12,64,768]{2,1,0}, f32[12,64]{1,0}, /*index=95*/f32[768,12,64]{2,1,0}, f32[12,64]{1,0}, f32[768,12,64]{2,1,0}, f32[768]{0}, f32[768]{0}, /*index=100*/f32[768]{0}, f32[768]{0}, f32[3072]{0}, f32[768,3072]{1,0}, f32[768]{0}, /*index=105*/f32[3072,768]{1,0}, f32[12,64]{1,0}, f32[768,12,64]{2,1,0}, f32[768]{0}, f32[12,64,768]{2,1,0}, /*index=110*/f32[12,64]{1,0}, f32[768,12,64]{2,1,0}, f32[12,64]{1,0}, f32[768,12,64]{2,1,0}, f32[768]{0}, /*index=115*/f32[768]{0}, f32[768]{0}, f32[768]{0}, f32[3072]{0}, f32[768,3072]{1,0}, /*index=120*/f32[768]{0}, f32[3072,768]{1,0}, f32[12,64]{1,0}, f32[768,12,64]{2,1,0}, f32[768]{0}, /*index=125*/f32[12,64,768]{2,1,0}, f32[12,64]{1,0}, f32[768,12,64]{2,1,0}, f32[12,64]{1,0}, f32[768,12,64]{2,1,0}, /*index=130*/f32[768]{0}, f32[768]{0}, f32[768]{0}, f32[768]{0}, f32[3072]{0}, /*index=135*/f32[768,3072]{1,0}, f32[768]{0}, f32[3072,768]{1,0}, f32[12,64]{1,0}, f32[768,12,64]{2,1,0}, /*index=140*/f32[768]{0}, f32[12,64,768]{2,1,0}, f32[12,64]{1,0}, f32[768,12,64]{2,1,0}, f32[12,64]{1,0}, /*index=145*/f32[768,12,64]{2,1,0}, f32[768]{0}, f32[768]{0}, f32[768]{0}, f32[768]{0}, /*index=150*/f32[3072]{0}, f32[768,3072]{1,0}, f32[768]{0}, f32[3072,768]{1,0}, f32[12,64]{1,0}, /*index=155*/f32[768,12,64]{2,1,0}, f32[768]{0}, f32[12,64,768]{2,1,0}, f32[12,64]{1,0}, f32[768,12,64]{2,1,0}, /*index=160*/f32[12,64]{1,0}, f32[768,12,64]{2,1,0}, f32[768]{0}, f32[768]{0}, f32[768]{0}, /*index=165*/f32[768]{0}, f32[3072]{0}, f32[768,3072]{1,0}, f32[768]{0}, f32[3072,768]{1,0}, /*index=170*/f32[12,64]{1,0}, f32[768,12,64]{2,1,0}, f32[768]{0}, f32[12,64,768]{2,1,0}, f32[12,64]{1,0}, /*index=175*/f32[768,12,64]{2,1,0}, f32[12,64]{1,0}, f32[768,12,64]{2,1,0}, f32[768]{0}, f32[768]{0}, /*index=180*/f32[768]{0}, f32[768]{0}, f32[3072]{0}, f32[768,3072]{1,0}, f32[768]{0}, /*index=185*/f32[3072,768]{1,0}, f32[12,64]{1,0}, f32[768,12,64]{2,1,0}, f32[768]{0}, f32[12,64,768]{2,1,0}, /*index=190*/f32[12,64]{1,0}, f32[768,12,64]{2,1,0}, f32[12,64]{1,0}, f32[768,12,64]{2,1,0}, f32[768]{0}, /*index=195*/f32[16,16,3,768]{3,2,1,0}, f32[1000]{0}, f32[768,1000]{1,0}, f32[1,196,768]{2,1,0}, f32[8,224,224,3]{3,2,1,0})->f32[8,1000]{1,0}}, allow_spmd_sharding_propagation_to_parameters={false,false,false,false,false,false,false,false,false,false,false,false,false,false,false,false,false,false,false,false,false,false,false,false,false,false,false,false,false,false,false,false,false,false,false,false,false,false,false,false,false,false,false,false,false,false,false,false,false,false,false,false,false,false,false,false,false,false,false,false,false,false,false,false,false,false,false,false,false,false,false,false,false,false,false,false,false,false,false,false,false,false,false,false,false,false,false,false,false,false,false,false,false,false,false,false,false,false,false,false,false,false,false,false,false,false,false,false,false,false,false,false,false,false,false,false,false,false,false,false,false,false,false,false,false,false,false,false,false,false,false,false,false,false,false,false,false,false,false,false,false,false,false,false,false,false,false,false,false,false,false,false,false,false,false,false,false,false,false,false,false,false,false,false,false,false,false,false,false,false,false,false,false,false,false,false,false,false,false,false,false,false,false,false,false,false,false,false,false,false,false,false,false,false,false,false,false,false,false,false}, num_partitions=2, frontend_attributes={xla.sdy.meshes={mesh = #sdy.mesh<["fsdp"=2]>}}

FileNames
1 "/root/hlo_dump/mgpu_infer.py"
2 "/root/big_vision/big_vision/models/vit.py"
3 "/usr/local/lib/python3.12/dist-packages/flax/linen/normalization.py"
4 "/usr/local/lib/python3.12/dist-packages/flax/linen/attention.py"
5 "/usr/local/lib/python3.12/dist-packages/flax/linen/linear.py"

FunctionNames
1 "<module>"
2 "main"
3 "main.<locals>.predict_step"
4 "build_vit.<locals>.fn"
5 "_Model.__call__"
6 "Encoder.__call__"
7 "Encoder1DBlock.__call__"
8 "LayerNorm.__call__"
9 "_compute_stats"
10 "_compute_stats.<locals>.maybe_distributed_mean"
11 "_compute_stats.<locals>.maybe_distributed_mean.<locals>.<genexpr>"
12 "MultiHeadDotProductAttention.__call__"
13 "dot_product_attention"
14 "dot_product_attention_weights"
15 "_Conv.__call__"
16 "_normalize"
17 "_abs_sq"
18 "DenseGeneral.__call__"
19 "MlpBlock.__call__"
20 "Dense.__call__"

FileLocations
1 {file_name_id=1 function_name_id=1 line=195 end_line=195 column=4 end_column=10}
2 {file_name_id=1 function_name_id=2 line=189 end_line=189 column=14 end_column=36}
3 {file_name_id=1 function_name_id=3 line=185 end_line=185 column=15 end_column=36}
4 {file_name_id=1 function_name_id=4 line=33 end_line=33 column=26 end_column=68}
5 {file_name_id=2 function_name_id=5 line=230 end_line=239 column=24 end_column=39}
6 {file_name_id=2 function_name_id=6 line=157 end_line=157 column=36 end_column=63}
7 {file_name_id=2 function_name_id=7 line=92 end_line=92 column=8 end_column=25}
8 {file_name_id=3 function_name_id=8 line=512 end_line=521 column=16 end_column=5}
9 {file_name_id=3 function_name_id=9 line=139 end_line=139 column=16 end_column=64}
10 {file_name_id=3 function_name_id=10 line=122 end_line=122 column=10 end_column=53}
11 {file_name_id=3 function_name_id=11 line=122 end_line=122 column=16 end_column=40}
12 {file_name_id=2 function_name_id=7 line=93 end_line=98 column=20 end_column=11}
13 {file_name_id=4 function_name_id=12 line=674 end_line=674 column=10 end_column=54}
14 {file_name_id=4 function_name_id=13 line=266 end_line=281 column=17 end_column=3}
15 {file_name_id=4 function_name_id=14 line=146 end_line=146 column=19 end_column=47}
16 {file_name_id=2 function_name_id=7 line=103 end_line=103 column=8 end_column=25}
17 {file_name_id=2 function_name_id=6 line=160 end_line=160 column=11 end_column=47}
18 {file_name_id=2 function_name_id=5 line=246 end_line=246 column=30 end_column=49}
19 {file_name_id=2 function_name_id=5 line=212 end_line=214 column=22 end_column=70}
20 {file_name_id=5 function_name_id=15 line=700 end_line=710 column=10 end_column=7}
21 {file_name_id=5 function_name_id=15 line=725 end_line=725 column=13 end_column=67}
22 {file_name_id=5 function_name_id=15 line=726 end_line=726 column=6 end_column=15}
23 {file_name_id=2 function_name_id=5 line=217 end_line=217 column=8 end_column=37}
24 {file_name_id=2 function_name_id=5 line=220 end_line=221 column=29 end_column=63}
25 {file_name_id=3 function_name_id=8 line=523 end_line=538 column=11 end_column=5}
26 {file_name_id=3 function_name_id=16 line=203 end_line=203 column=9 end_column=46}
27 {file_name_id=3 function_name_id=16 line=205 end_line=205 column=6 end_column=14}
28 {file_name_id=3 function_name_id=9 line=139 end_line=139 column=42 end_column=52}
29 {file_name_id=3 function_name_id=17 line=57 end_line=57 column=11 end_column=24}
30 {file_name_id=3 function_name_id=9 line=142 end_line=142 column=35 end_column=46}
31 {file_name_id=3 function_name_id=9 line=142 end_line=142 column=29 end_column=46}
32 {file_name_id=3 function_name_id=9 line=142 end_line=142 column=12 end_column=47}
33 {file_name_id=3 function_name_id=16 line=204 end_line=204 column=8 end_column=44}
34 {file_name_id=3 function_name_id=16 line=206 end_line=206 column=18 end_column=31}
35 {file_name_id=3 function_name_id=16 line=206 end_line=206 column=8 end_column=32}
36 {file_name_id=3 function_name_id=16 line=214 end_line=214 column=4 end_column=16}
37 {file_name_id=3 function_name_id=16 line=211 end_line=211 column=6 end_column=28}
38 {file_name_id=3 function_name_id=16 line=216 end_line=216 column=2 end_column=10}
39 {file_name_id=3 function_name_id=16 line=220 end_line=220 column=6 end_column=28}
40 {file_name_id=3 function_name_id=16 line=223 end_line=223 column=4 end_column=13}
41 {file_name_id=4 function_name_id=12 line=551 end_line=551 column=6 end_column=35}
42 {file_name_id=5 function_name_id=18 line=199 end_line=204 column=10 end_column=5}
43 {file_name_id=5 function_name_id=18 line=209 end_line=209 column=13 end_column=63}
44 {file_name_id=5 function_name_id=18 line=210 end_line=210 column=6 end_column=17}
45 {file_name_id=4 function_name_id=12 line=549 end_line=549 column=6 end_column=35}
46 {file_name_id=4 function_name_id=14 line=130 end_line=130 column=10 end_column=47}
47 {file_name_id=4 function_name_id=12 line=550 end_line=550 column=6 end_column=33}
48 {file_name_id=4 function_name_id=14 line=132 end_line=132 column=17 end_column=60}
49 {file_name_id=4 function_name_id=13 line=291 end_line=295 column=9 end_column=3}
50 {file_name_id=4 function_name_id=12 line=676 end_line=688 column=10 end_column=8}
51 {file_name_id=2 function_name_id=7 line=101 end_line=101 column=21 end_column=26}
52 {file_name_id=2 function_name_id=7 line=104 end_line=107 column=21 end_column=23}
53 {file_name_id=2 function_name_id=19 line=72 end_line=72 column=8 end_column=72}
54 {file_name_id=5 function_name_id=20 line=287 end_line=292 column=8 end_column=5}
55 {file_name_id=5 function_name_id=20 line=294 end_line=294 column=11 end_column=57}
56 {file_name_id=5 function_name_id=20 line=294 end_line=294 column=6 end_column=57}
57 {file_name_id=2 function_name_id=19 line=75 end_line=75 column=8 end_column=18}
58 {file_name_id=2 function_name_id=19 line=77 end_line=77 column=8 end_column=52}
59 {file_name_id=2 function_name_id=7 line=110 end_line=110 column=22 end_column=27}
60 {file_name_id=2 function_name_id=5 line=274 end_line=274 column=26 end_column=33}

StackFrames
1 {file_location_id=1 parent_frame_id=1}
2 {file_location_id=2 parent_frame_id=2}
3 {file_location_id=3 parent_frame_id=3}
4 {file_location_id=4 parent_frame_id=4}
5 {file_location_id=5 parent_frame_id=5}
6 {file_location_id=6 parent_frame_id=6}
7 {file_location_id=7 parent_frame_id=7}
8 {file_location_id=8 parent_frame_id=8}
9 {file_location_id=9 parent_frame_id=9}
10 {file_location_id=10 parent_frame_id=10}
11 {file_location_id=11 parent_frame_id=11}
12 {file_location_id=12 parent_frame_id=7}
13 {file_location_id=13 parent_frame_id=13}
14 {file_location_id=14 parent_frame_id=14}
15 {file_location_id=15 parent_frame_id=15}
16 {file_location_id=16 parent_frame_id=7}
17 {file_location_id=8 parent_frame_id=17}
18 {file_location_id=9 parent_frame_id=18}
19 {file_location_id=10 parent_frame_id=19}
20 {file_location_id=11 parent_frame_id=20}
21 {file_location_id=17 parent_frame_id=6}
22 {file_location_id=8 parent_frame_id=22}
23 {file_location_id=9 parent_frame_id=23}
24 {file_location_id=10 parent_frame_id=24}
25 {file_location_id=11 parent_frame_id=25}
26 {file_location_id=18 parent_frame_id=5}
27 {file_location_id=19 parent_frame_id=5}
28 {file_location_id=20 parent_frame_id=28}
29 {file_location_id=21 parent_frame_id=28}
30 {file_location_id=22 parent_frame_id=28}
31 {file_location_id=23 parent_frame_id=5}
32 {file_location_id=24 parent_frame_id=5}
33 {file_location_id=25 parent_frame_id=8}
34 {file_location_id=26 parent_frame_id=34}
35 {file_location_id=27 parent_frame_id=34}
36 {file_location_id=28 parent_frame_id=9}
37 {file_location_id=29 parent_frame_id=37}
38 {file_location_id=30 parent_frame_id=9}
39 {file_location_id=29 parent_frame_id=39}
40 {file_location_id=31 parent_frame_id=9}
41 {file_location_id=32 parent_frame_id=9}
42 {file_location_id=33 parent_frame_id=34}
43 {file_location_id=34 parent_frame_id=34}
44 {file_location_id=35 parent_frame_id=34}
45 {file_location_id=36 parent_frame_id=34}
46 {file_location_id=37 parent_frame_id=34}
47 {file_location_id=38 parent_frame_id=34}
48 {file_location_id=39 parent_frame_id=34}
49 {file_location_id=40 parent_frame_id=34}
50 {file_location_id=41 parent_frame_id=13}
51 {file_location_id=42 parent_frame_id=51}
52 {file_location_id=43 parent_frame_id=51}
53 {file_location_id=44 parent_frame_id=51}
54 {file_location_id=45 parent_frame_id=13}
55 {file_location_id=42 parent_frame_id=55}
56 {file_location_id=43 parent_frame_id=55}
57 {file_location_id=44 parent_frame_id=55}
58 {file_location_id=46 parent_frame_id=15}
59 {file_location_id=47 parent_frame_id=13}
60 {file_location_id=42 parent_frame_id=60}
61 {file_location_id=43 parent_frame_id=60}
62 {file_location_id=44 parent_frame_id=60}
63 {file_location_id=48 parent_frame_id=15}
64 {file_location_id=49 parent_frame_id=14}
65 {file_location_id=50 parent_frame_id=13}
66 {file_location_id=42 parent_frame_id=66}
67 {file_location_id=43 parent_frame_id=66}
68 {file_location_id=44 parent_frame_id=66}
69 {file_location_id=51 parent_frame_id=7}
70 {file_location_id=25 parent_frame_id=17}
71 {file_location_id=26 parent_frame_id=71}
72 {file_location_id=27 parent_frame_id=71}
73 {file_location_id=28 parent_frame_id=18}
74 {file_location_id=29 parent_frame_id=74}
75 {file_location_id=30 parent_frame_id=18}
76 {file_location_id=29 parent_frame_id=76}
77 {file_location_id=31 parent_frame_id=18}
78 {file_location_id=32 parent_frame_id=18}
79 {file_location_id=33 parent_frame_id=71}
80 {file_location_id=34 parent_frame_id=71}
81 {file_location_id=35 parent_frame_id=71}
82 {file_location_id=36 parent_frame_id=71}
83 {file_location_id=37 parent_frame_id=71}
84 {file_location_id=38 parent_frame_id=71}
85 {file_location_id=39 parent_frame_id=71}
86 {file_location_id=40 parent_frame_id=71}
87 {file_location_id=52 parent_frame_id=7}
88 {file_location_id=53 parent_frame_id=88}
89 {file_location_id=54 parent_frame_id=89}
90 {file_location_id=55 parent_frame_id=89}
91 {file_location_id=56 parent_frame_id=89}
92 {file_location_id=57 parent_frame_id=88}
93 {file_location_id=58 parent_frame_id=88}
94 {file_location_id=54 parent_frame_id=94}
95 {file_location_id=55 parent_frame_id=94}
96 {file_location_id=56 parent_frame_id=94}
97 {file_location_id=59 parent_frame_id=7}
98 {file_location_id=25 parent_frame_id=22}
99 {file_location_id=26 parent_frame_id=99}
100 {file_location_id=27 parent_frame_id=99}
101 {file_location_id=28 parent_frame_id=23}
102 {file_location_id=29 parent_frame_id=102}
103 {file_location_id=30 parent_frame_id=23}
104 {file_location_id=29 parent_frame_id=104}
105 {file_location_id=31 parent_frame_id=23}
106 {file_location_id=32 parent_frame_id=23}
107 {file_location_id=33 parent_frame_id=99}
108 {file_location_id=34 parent_frame_id=99}
109 {file_location_id=35 parent_frame_id=99}
110 {file_location_id=36 parent_frame_id=99}
111 {file_location_id=37 parent_frame_id=99}
112 {file_location_id=38 parent_frame_id=99}
113 {file_location_id=39 parent_frame_id=99}
114 {file_location_id=40 parent_frame_id=99}
115 {file_location_id=60 parent_frame_id=5}
116 {file_location_id=54 parent_frame_id=116}
117 {file_location_id=55 parent_frame_id=116}
118 {file_location_id=56 parent_frame_id=116}


%region_0.1 (reduce_sum.3: f32[], reduce_sum.4: f32[]) -> f32[] {
  %reduce_sum.3 = f32[] parameter(0), metadata={op_name="reduce_sum"}
  %reduce_sum.4 = f32[] parameter(1), metadata={op_name="reduce_sum"}
  ROOT %reduce_sum.5 = f32[] add(%reduce_sum.3, %reduce_sum.4), metadata={op_name="jit(predict_step)/_Model/Transformer/encoderblock_0/LayerNorm_0/reduce_sum" stack_frame_id=11}
}

%region_1.2 (reduce_sum.10: f32[], reduce_sum.11: f32[]) -> f32[] {
  %reduce_sum.10 = f32[] parameter(0), metadata={op_name="reduce_sum"}
  %reduce_sum.11 = f32[] parameter(1), metadata={op_name="reduce_sum"}
  ROOT %reduce_sum.12 = f32[] add(%reduce_sum.10, %reduce_sum.11), metadata={op_name="jit(predict_step)/_Model/Transformer/encoderblock_0/LayerNorm_0/reduce_sum" stack_frame_id=11}
}

%region_2.3 (reduce_max.3: f32[], reduce_max.4: f32[]) -> f32[] {
  %reduce_max.3 = f32[] parameter(0), metadata={op_name="reduce_max"}
  %reduce_max.4 = f32[] parameter(1), metadata={op_name="reduce_max"}
  ROOT %reduce_max.5 = f32[] maximum(%reduce_max.3, %reduce_max.4), metadata={op_name="jit(predict_step)/_Model/Transformer/encoderblock_0/MultiHeadDotProductAttention_0/reduce_max" stack_frame_id=15}
}

%region_3.4 (reduce_sum.17: f32[], reduce_sum.18: f32[]) -> f32[] {
  %reduce_sum.17 = f32[] parameter(0), metadata={op_name="reduce_sum"}
  %reduce_sum.18 = f32[] parameter(1), metadata={op_name="reduce_sum"}
  ROOT %reduce_sum.19 = f32[] add(%reduce_sum.17, %reduce_sum.18), metadata={op_name="jit(predict_step)/_Model/Transformer/encoderblock_0/MultiHeadDotProductAttention_0/reduce_sum" stack_frame_id=15}
}

%region_4.5 (reduce_sum.24: f32[], reduce_sum.25: f32[]) -> f32[] {
  %reduce_sum.24 = f32[] parameter(0), metadata={op_name="reduce_sum"}
  %reduce_sum.25 = f32[] parameter(1), metadata={op_name="reduce_sum"}
  ROOT %reduce_sum.26 = f32[] add(%reduce_sum.24, %reduce_sum.25), metadata={op_name="jit(predict_step)/_Model/Transformer/encoderblock_0/LayerNorm_1/reduce_sum" stack_frame_id=20}
}

%region_5.6 (reduce_sum.31: f32[], reduce_sum.32: f32[]) -> f32[] {
  %reduce_sum.31 = f32[] parameter(0), metadata={op_name="reduce_sum"}
  %reduce_sum.32 = f32[] parameter(1), metadata={op_name="reduce_sum"}
  ROOT %reduce_sum.33 = f32[] add(%reduce_sum.31, %reduce_sum.32), metadata={op_name="jit(predict_step)/_Model/Transformer/encoderblock_0/LayerNorm_1/reduce_sum" stack_frame_id=20}
}

%region_6.7 (reduce_sum.38: f32[], reduce_sum.39: f32[]) -> f32[] {
  %reduce_sum.38 = f32[] parameter(0), metadata={op_name="reduce_sum"}
  %reduce_sum.39 = f32[] parameter(1), metadata={op_name="reduce_sum"}
  ROOT %reduce_sum.40 = f32[] add(%reduce_sum.38, %reduce_sum.39), metadata={op_name="jit(predict_step)/_Model/Transformer/encoderblock_1/LayerNorm_0/reduce_sum" stack_frame_id=11}
}

%region_7.8 (reduce_sum.45: f32[], reduce_sum.46: f32[]) -> f32[] {
  %reduce_sum.45 = f32[] parameter(0), metadata={op_name="reduce_sum"}
  %reduce_sum.46 = f32[] parameter(1), metadata={op_name="reduce_sum"}
  ROOT %reduce_sum.47 = f32[] add(%reduce_sum.45, %reduce_sum.46), metadata={op_name="jit(predict_step)/_Model/Transformer/encoderblock_1/LayerNorm_0/reduce_sum" stack_frame_id=11}
}

%region_8.9 (reduce_max.10: f32[], reduce_max.11: f32[]) -> f32[] {
  %reduce_max.10 = f32[] parameter(0), metadata={op_name="reduce_max"}
  %reduce_max.11 = f32[] parameter(1), metadata={op_name="reduce_max"}
  ROOT %reduce_max.12 = f32[] maximum(%reduce_max.10, %reduce_max.11), metadata={op_name="jit(predict_step)/_Model/Transformer/encoderblock_1/MultiHeadDotProductAttention_0/reduce_max" stack_frame_id=15}
}

%region_9.10 (reduce_sum.52: f32[], reduce_sum.53: f32[]) -> f32[] {
  %reduce_sum.52 = f32[] parameter(0), metadata={op_name="reduce_sum"}
  %reduce_sum.53 = f32[] parameter(1), metadata={op_name="reduce_sum"}
  ROOT %reduce_sum.54 = f32[] add(%reduce_sum.52, %reduce_sum.53), metadata={op_name="jit(predict_step)/_Model/Transformer/encoderblock_1/MultiHeadDotProductAttention_0/reduce_sum" stack_frame_id=15}
}

%region_10.11 (reduce_sum.59: f32[], reduce_sum.60: f32[]) -> f32[] {
  %reduce_sum.59 = f32[] parameter(0), metadata={op_name="reduce_sum"}
  %reduce_sum.60 = f32[] parameter(1), metadata={op_name="reduce_sum"}
  ROOT %reduce_sum.61 = f32[] add(%reduce_sum.59, %reduce_sum.60), metadata={op_name="jit(predict_step)/_Model/Transformer/encoderblock_1/LayerNorm_1/reduce_sum" stack_frame_id=20}
}

%region_11.12 (reduce_sum.66: f32[], reduce_sum.67: f32[]) -> f32[] {
  %reduce_sum.66 = f32[] parameter(0), metadata={op_name="reduce_sum"}
  %reduce_sum.67 = f32[] parameter(1), metadata={op_name="reduce_sum"}
  ROOT %reduce_sum.68 = f32[] add(%reduce_sum.66, %reduce_sum.67), metadata={op_name="jit(predict_step)/_Model/Transformer/encoderblock_1/LayerNorm_1/reduce_sum" stack_frame_id=20}
}

%region_12.13 (reduce_sum.73: f32[], reduce_sum.74: f32[]) -> f32[] {
  %reduce_sum.73 = f32[] parameter(0), metadata={op_name="reduce_sum"}
  %reduce_sum.74 = f32[] parameter(1), metadata={op_name="reduce_sum"}
  ROOT %reduce_sum.75 = f32[] add(%reduce_sum.73, %reduce_sum.74), metadata={op_name="jit(predict_step)/_Model/Transformer/encoderblock_2/LayerNorm_0/reduce_sum" stack_frame_id=11}
}

%region_13.14 (reduce_sum.80: f32[], reduce_sum.81: f32[]) -> f32[] {
  %reduce_sum.80 = f32[] parameter(0), metadata={op_name="reduce_sum"}
  %reduce_sum.81 = f32[] parameter(1), metadata={op_name="reduce_sum"}
  ROOT %reduce_sum.82 = f32[] add(%reduce_sum.80, %reduce_sum.81), metadata={op_name="jit(predict_step)/_Model/Transformer/encoderblock_2/LayerNorm_0/reduce_sum" stack_frame_id=11}
}

%region_14.15 (reduce_max.17: f32[], reduce_max.18: f32[]) -> f32[] {
  %reduce_max.17 = f32[] parameter(0), metadata={op_name="reduce_max"}
  %reduce_max.18 = f32[] parameter(1), metadata={op_name="reduce_max"}
  ROOT %reduce_max.19 = f32[] maximum(%reduce_max.17, %reduce_max.18), metadata={op_name="jit(predict_step)/_Model/Transformer/encoderblock_2/MultiHeadDotProductAttention_0/reduce_max" stack_frame_id=15}
}

%region_15.16 (reduce_sum.87: f32[], reduce_sum.88: f32[]) -> f32[] {
  %reduce_sum.87 = f32[] parameter(0), metadata={op_name="reduce_sum"}
  %reduce_sum.88 = f32[] parameter(1), metadata={op_name="reduce_sum"}
  ROOT %reduce_sum.89 = f32[] add(%reduce_sum.87, %reduce_sum.88), metadata={op_name="jit(predict_step)/_Model/Transformer/encoderblock_2/MultiHeadDotProductAttention_0/reduce_sum" stack_frame_id=15}
}

%region_16.17 (reduce_sum.94: f32[], reduce_sum.95: f32[]) -> f32[] {
  %reduce_sum.94 = f32[] parameter(0), metadata={op_name="reduce_sum"}
  %reduce_sum.95 = f32[] parameter(1), metadata={op_name="reduce_sum"}
  ROOT %reduce_sum.96 = f32[] add(%reduce_sum.94, %reduce_sum.95), metadata={op_name="jit(predict_step)/_Model/Transformer/encoderblock_2/LayerNorm_1/reduce_sum" stack_frame_id=20}
}

%region_17.18 (reduce_sum.101: f32[], reduce_sum.102: f32[]) -> f32[] {
  %reduce_sum.101 = f32[] parameter(0), metadata={op_name="reduce_sum"}
  %reduce_sum.102 = f32[] parameter(1), metadata={op_name="reduce_sum"}
  ROOT %reduce_sum.103 = f32[] add(%reduce_sum.101, %reduce_sum.102), metadata={op_name="jit(predict_step)/_Model/Transformer/encoderblock_2/LayerNorm_1/reduce_sum" stack_frame_id=20}
}

%region_18.19 (reduce_sum.108: f32[], reduce_sum.109: f32[]) -> f32[] {
  %reduce_sum.108 = f32[] parameter(0), metadata={op_name="reduce_sum"}
  %reduce_sum.109 = f32[] parameter(1), metadata={op_name="reduce_sum"}
  ROOT %reduce_sum.110 = f32[] add(%reduce_sum.108, %reduce_sum.109), metadata={op_name="jit(predict_step)/_Model/Transformer/encoderblock_3/LayerNorm_0/reduce_sum" stack_frame_id=11}
}

%region_19.20 (reduce_sum.115: f32[], reduce_sum.116: f32[]) -> f32[] {
  %reduce_sum.115 = f32[] parameter(0), metadata={op_name="reduce_sum"}
  %reduce_sum.116 = f32[] parameter(1), metadata={op_name="reduce_sum"}
  ROOT %reduce_sum.117 = f32[] add(%reduce_sum.115, %reduce_sum.116), metadata={op_name="jit(predict_step)/_Model/Transformer/encoderblock_3/LayerNorm_0/reduce_sum" stack_frame_id=11}
}

%region_20.21 (reduce_max.24: f32[], reduce_max.25: f32[]) -> f32[] {
  %reduce_max.24 = f32[] parameter(0), metadata={op_name="reduce_max"}
  %reduce_max.25 = f32[] parameter(1), metadata={op_name="reduce_max"}
  ROOT %reduce_max.26 = f32[] maximum(%reduce_max.24, %reduce_max.25), metadata={op_name="jit(predict_step)/_Model/Transformer/encoderblock_3/MultiHeadDotProductAttention_0/reduce_max" stack_frame_id=15}
}

%region_21.22 (reduce_sum.122: f32[], reduce_sum.123: f32[]) -> f32[] {
  %reduce_sum.122 = f32[] parameter(0), metadata={op_name="reduce_sum"}
  %reduce_sum.123 = f32[] parameter(1), metadata={op_name="reduce_sum"}
  ROOT %reduce_sum.124 = f32[] add(%reduce_sum.122, %reduce_sum.123), metadata={op_name="jit(predict_step)/_Model/Transformer/encoderblock_3/MultiHeadDotProductAttention_0/reduce_sum" stack_frame_id=15}
}

%region_22.23 (reduce_sum.129: f32[], reduce_sum.130: f32[]) -> f32[] {
  %reduce_sum.129 = f32[] parameter(0), metadata={op_name="reduce_sum"}
  %reduce_sum.130 = f32[] parameter(1), metadata={op_name="reduce_sum"}
  ROOT %reduce_sum.131 = f32[] add(%reduce_sum.129, %reduce_sum.130), metadata={op_name="jit(predict_step)/_Model/Transformer/encoderblock_3/LayerNorm_1/reduce_sum" stack_frame_id=20}
}

%region_23.24 (reduce_sum.136: f32[], reduce_sum.137: f32[]) -> f32[] {
  %reduce_sum.136 = f32[] parameter(0), metadata={op_name="reduce_sum"}
  %reduce_sum.137 = f32[] parameter(1), metadata={op_name="reduce_sum"}
  ROOT %reduce_sum.138 = f32[] add(%reduce_sum.136, %reduce_sum.137), metadata={op_name="jit(predict_step)/_Model/Transformer/encoderblock_3/LayerNorm_1/reduce_sum" stack_frame_id=20}
}

%region_24.25 (reduce_sum.143: f32[], reduce_sum.144: f32[]) -> f32[] {
  %reduce_sum.143 = f32[] parameter(0), metadata={op_name="reduce_sum"}
  %reduce_sum.144 = f32[] parameter(1), metadata={op_name="reduce_sum"}
  ROOT %reduce_sum.145 = f32[] add(%reduce_sum.143, %reduce_sum.144), metadata={op_name="jit(predict_step)/_Model/Transformer/encoderblock_4/LayerNorm_0/reduce_sum" stack_frame_id=11}
}

%region_25.26 (reduce_sum.150: f32[], reduce_sum.151: f32[]) -> f32[] {
  %reduce_sum.150 = f32[] parameter(0), metadata={op_name="reduce_sum"}
  %reduce_sum.151 = f32[] parameter(1), metadata={op_name="reduce_sum"}
  ROOT %reduce_sum.152 = f32[] add(%reduce_sum.150, %reduce_sum.151), metadata={op_name="jit(predict_step)/_Model/Transformer/encoderblock_4/LayerNorm_0/reduce_sum" stack_frame_id=11}
}

%region_26.27 (reduce_max.31: f32[], reduce_max.32: f32[]) -> f32[] {
  %reduce_max.31 = f32[] parameter(0), metadata={op_name="reduce_max"}
  %reduce_max.32 = f32[] parameter(1), metadata={op_name="reduce_max"}
  ROOT %reduce_max.33 = f32[] maximum(%reduce_max.31, %reduce_max.32), metadata={op_name="jit(predict_step)/_Model/Transformer/encoderblock_4/MultiHeadDotProductAttention_0/reduce_max" stack_frame_id=15}
}

%region_27.28 (reduce_sum.157: f32[], reduce_sum.158: f32[]) -> f32[] {
  %reduce_sum.157 = f32[] parameter(0), metadata={op_name="reduce_sum"}
  %reduce_sum.158 = f32[] parameter(1), metadata={op_name="reduce_sum"}
  ROOT %reduce_sum.159 = f32[] add(%reduce_sum.157, %reduce_sum.158), metadata={op_name="jit(predict_step)/_Model/Transformer/encoderblock_4/MultiHeadDotProductAttention_0/reduce_sum" stack_frame_id=15}
}

%region_28.29 (reduce_sum.164: f32[], reduce_sum.165: f32[]) -> f32[] {
  %reduce_sum.164 = f32[] parameter(0), metadata={op_name="reduce_sum"}
  %reduce_sum.165 = f32[] parameter(1), metadata={op_name="reduce_sum"}
  ROOT %reduce_sum.166 = f32[] add(%reduce_sum.164, %reduce_sum.165), metadata={op_name="jit(predict_step)/_Model/Transformer/encoderblock_4/LayerNorm_1/reduce_sum" stack_frame_id=20}
}

%region_29.30 (reduce_sum.171: f32[], reduce_sum.172: f32[]) -> f32[] {
  %reduce_sum.171 = f32[] parameter(0), metadata={op_name="reduce_sum"}
  %reduce_sum.172 = f32[] parameter(1), metadata={op_name="reduce_sum"}
  ROOT %reduce_sum.173 = f32[] add(%reduce_sum.171, %reduce_sum.172), metadata={op_name="jit(predict_step)/_Model/Transformer/encoderblock_4/LayerNorm_1/reduce_sum" stack_frame_id=20}
}

%region_30.31 (reduce_sum.178: f32[], reduce_sum.179: f32[]) -> f32[] {
  %reduce_sum.178 = f32[] parameter(0), metadata={op_name="reduce_sum"}
  %reduce_sum.179 = f32[] parameter(1), metadata={op_name="reduce_sum"}
  ROOT %reduce_sum.180 = f32[] add(%reduce_sum.178, %reduce_sum.179), metadata={op_name="jit(predict_step)/_Model/Transformer/encoderblock_5/LayerNorm_0/reduce_sum" stack_frame_id=11}
}

%region_31.32 (reduce_sum.185: f32[], reduce_sum.186: f32[]) -> f32[] {
  %reduce_sum.185 = f32[] parameter(0), metadata={op_name="reduce_sum"}
  %reduce_sum.186 = f32[] parameter(1), metadata={op_name="reduce_sum"}
  ROOT %reduce_sum.187 = f32[] add(%reduce_sum.185, %reduce_sum.186), metadata={op_name="jit(predict_step)/_Model/Transformer/encoderblock_5/LayerNorm_0/reduce_sum" stack_frame_id=11}
}

%region_32.33 (reduce_max.38: f32[], reduce_max.39: f32[]) -> f32[] {
  %reduce_max.38 = f32[] parameter(0), metadata={op_name="reduce_max"}
  %reduce_max.39 = f32[] parameter(1), metadata={op_name="reduce_max"}
  ROOT %reduce_max.40 = f32[] maximum(%reduce_max.38, %reduce_max.39), metadata={op_name="jit(predict_step)/_Model/Transformer/encoderblock_5/MultiHeadDotProductAttention_0/reduce_max" stack_frame_id=15}
}

%region_33.34 (reduce_sum.192: f32[], reduce_sum.193: f32[]) -> f32[] {
  %reduce_sum.192 = f32[] parameter(0), metadata={op_name="reduce_sum"}
  %reduce_sum.193 = f32[] parameter(1), metadata={op_name="reduce_sum"}
  ROOT %reduce_sum.194 = f32[] add(%reduce_sum.192, %reduce_sum.193), metadata={op_name="jit(predict_step)/_Model/Transformer/encoderblock_5/MultiHeadDotProductAttention_0/reduce_sum" stack_frame_id=15}
}

%region_34.35 (reduce_sum.199: f32[], reduce_sum.200: f32[]) -> f32[] {
  %reduce_sum.199 = f32[] parameter(0), metadata={op_name="reduce_sum"}
  %reduce_sum.200 = f32[] parameter(1), metadata={op_name="reduce_sum"}
  ROOT %reduce_sum.201 = f32[] add(%reduce_sum.199, %reduce_sum.200), metadata={op_name="jit(predict_step)/_Model/Transformer/encoderblock_5/LayerNorm_1/reduce_sum" stack_frame_id=20}
}

%region_35.36 (reduce_sum.206: f32[], reduce_sum.207: f32[]) -> f32[] {
  %reduce_sum.206 = f32[] parameter(0), metadata={op_name="reduce_sum"}
  %reduce_sum.207 = f32[] parameter(1), metadata={op_name="reduce_sum"}
  ROOT %reduce_sum.208 = f32[] add(%reduce_sum.206, %reduce_sum.207), metadata={op_name="jit(predict_step)/_Model/Transformer/encoderblock_5/LayerNorm_1/reduce_sum" stack_frame_id=20}
}

%region_36.37 (reduce_sum.213: f32[], reduce_sum.214: f32[]) -> f32[] {
  %reduce_sum.213 = f32[] parameter(0), metadata={op_name="reduce_sum"}
  %reduce_sum.214 = f32[] parameter(1), metadata={op_name="reduce_sum"}
  ROOT %reduce_sum.215 = f32[] add(%reduce_sum.213, %reduce_sum.214), metadata={op_name="jit(predict_step)/_Model/Transformer/encoderblock_6/LayerNorm_0/reduce_sum" stack_frame_id=11}
}

%region_37.38 (reduce_sum.220: f32[], reduce_sum.221: f32[]) -> f32[] {
  %reduce_sum.220 = f32[] parameter(0), metadata={op_name="reduce_sum"}
  %reduce_sum.221 = f32[] parameter(1), metadata={op_name="reduce_sum"}
  ROOT %reduce_sum.222 = f32[] add(%reduce_sum.220, %reduce_sum.221), metadata={op_name="jit(predict_step)/_Model/Transformer/encoderblock_6/LayerNorm_0/reduce_sum" stack_frame_id=11}
}

%region_38.39 (reduce_max.45: f32[], reduce_max.46: f32[]) -> f32[] {
  %reduce_max.45 = f32[] parameter(0), metadata={op_name="reduce_max"}
  %reduce_max.46 = f32[] parameter(1), metadata={op_name="reduce_max"}
  ROOT %reduce_max.47 = f32[] maximum(%reduce_max.45, %reduce_max.46), metadata={op_name="jit(predict_step)/_Model/Transformer/encoderblock_6/MultiHeadDotProductAttention_0/reduce_max" stack_frame_id=15}
}

%region_39.40 (reduce_sum.227: f32[], reduce_sum.228: f32[]) -> f32[] {
  %reduce_sum.227 = f32[] parameter(0), metadata={op_name="reduce_sum"}
  %reduce_sum.228 = f32[] parameter(1), metadata={op_name="reduce_sum"}
  ROOT %reduce_sum.229 = f32[] add(%reduce_sum.227, %reduce_sum.228), metadata={op_name="jit(predict_step)/_Model/Transformer/encoderblock_6/MultiHeadDotProductAttention_0/reduce_sum" stack_frame_id=15}
}

%region_40.41 (reduce_sum.234: f32[], reduce_sum.235: f32[]) -> f32[] {
  %reduce_sum.234 = f32[] parameter(0), metadata={op_name="reduce_sum"}
  %reduce_sum.235 = f32[] parameter(1), metadata={op_name="reduce_sum"}
  ROOT %reduce_sum.236 = f32[] add(%reduce_sum.234, %reduce_sum.235), metadata={op_name="jit(predict_step)/_Model/Transformer/encoderblock_6/LayerNorm_1/reduce_sum" stack_frame_id=20}
}

%region_41.42 (reduce_sum.241: f32[], reduce_sum.242: f32[]) -> f32[] {
  %reduce_sum.241 = f32[] parameter(0), metadata={op_name="reduce_sum"}
  %reduce_sum.242 = f32[] parameter(1), metadata={op_name="reduce_sum"}
  ROOT %reduce_sum.243 = f32[] add(%reduce_sum.241, %reduce_sum.242), metadata={op_name="jit(predict_step)/_Model/Transformer/encoderblock_6/LayerNorm_1/reduce_sum" stack_frame_id=20}
}

%region_42.43 (reduce_sum.248: f32[], reduce_sum.249: f32[]) -> f32[] {
  %reduce_sum.248 = f32[] parameter(0), metadata={op_name="reduce_sum"}
  %reduce_sum.249 = f32[] parameter(1), metadata={op_name="reduce_sum"}
  ROOT %reduce_sum.250 = f32[] add(%reduce_sum.248, %reduce_sum.249), metadata={op_name="jit(predict_step)/_Model/Transformer/encoderblock_7/LayerNorm_0/reduce_sum" stack_frame_id=11}
}

%region_43.44 (reduce_sum.255: f32[], reduce_sum.256: f32[]) -> f32[] {
  %reduce_sum.255 = f32[] parameter(0), metadata={op_name="reduce_sum"}
  %reduce_sum.256 = f32[] parameter(1), metadata={op_name="reduce_sum"}
  ROOT %reduce_sum.257 = f32[] add(%reduce_sum.255, %reduce_sum.256), metadata={op_name="jit(predict_step)/_Model/Transformer/encoderblock_7/LayerNorm_0/reduce_sum" stack_frame_id=11}
}

%region_44.45 (reduce_max.52: f32[], reduce_max.53: f32[]) -> f32[] {
  %reduce_max.52 = f32[] parameter(0), metadata={op_name="reduce_max"}
  %reduce_max.53 = f32[] parameter(1), metadata={op_name="reduce_max"}
  ROOT %reduce_max.54 = f32[] maximum(%reduce_max.52, %reduce_max.53), metadata={op_name="jit(predict_step)/_Model/Transformer/encoderblock_7/MultiHeadDotProductAttention_0/reduce_max" stack_frame_id=15}
}

%region_45.46 (reduce_sum.262: f32[], reduce_sum.263: f32[]) -> f32[] {
  %reduce_sum.262 = f32[] parameter(0), metadata={op_name="reduce_sum"}
  %reduce_sum.263 = f32[] parameter(1), metadata={op_name="reduce_sum"}
  ROOT %reduce_sum.264 = f32[] add(%reduce_sum.262, %reduce_sum.263), metadata={op_name="jit(predict_step)/_Model/Transformer/encoderblock_7/MultiHeadDotProductAttention_0/reduce_sum" stack_frame_id=15}
}

%region_46.47 (reduce_sum.269: f32[], reduce_sum.270: f32[]) -> f32[] {
  %reduce_sum.269 = f32[] parameter(0), metadata={op_name="reduce_sum"}
  %reduce_sum.270 = f32[] parameter(1), metadata={op_name="reduce_sum"}
  ROOT %reduce_sum.271 = f32[] add(%reduce_sum.269, %reduce_sum.270), metadata={op_name="jit(predict_step)/_Model/Transformer/encoderblock_7/LayerNorm_1/reduce_sum" stack_frame_id=20}
}

%region_47.48 (reduce_sum.276: f32[], reduce_sum.277: f32[]) -> f32[] {
  %reduce_sum.276 = f32[] parameter(0), metadata={op_name="reduce_sum"}
  %reduce_sum.277 = f32[] parameter(1), metadata={op_name="reduce_sum"}
  ROOT %reduce_sum.278 = f32[] add(%reduce_sum.276, %reduce_sum.277), metadata={op_name="jit(predict_step)/_Model/Transformer/encoderblock_7/LayerNorm_1/reduce_sum" stack_frame_id=20}
}

%region_48.49 (reduce_sum.283: f32[], reduce_sum.284: f32[]) -> f32[] {
  %reduce_sum.283 = f32[] parameter(0), metadata={op_name="reduce_sum"}
  %reduce_sum.284 = f32[] parameter(1), metadata={op_name="reduce_sum"}
  ROOT %reduce_sum.285 = f32[] add(%reduce_sum.283, %reduce_sum.284), metadata={op_name="jit(predict_step)/_Model/Transformer/encoderblock_8/LayerNorm_0/reduce_sum" stack_frame_id=11}
}

%region_49.50 (reduce_sum.290: f32[], reduce_sum.291: f32[]) -> f32[] {
  %reduce_sum.290 = f32[] parameter(0), metadata={op_name="reduce_sum"}
  %reduce_sum.291 = f32[] parameter(1), metadata={op_name="reduce_sum"}
  ROOT %reduce_sum.292 = f32[] add(%reduce_sum.290, %reduce_sum.291), metadata={op_name="jit(predict_step)/_Model/Transformer/encoderblock_8/LayerNorm_0/reduce_sum" stack_frame_id=11}
}

%region_50.51 (reduce_max.59: f32[], reduce_max.60: f32[]) -> f32[] {
  %reduce_max.59 = f32[] parameter(0), metadata={op_name="reduce_max"}
  %reduce_max.60 = f32[] parameter(1), metadata={op_name="reduce_max"}
  ROOT %reduce_max.61 = f32[] maximum(%reduce_max.59, %reduce_max.60), metadata={op_name="jit(predict_step)/_Model/Transformer/encoderblock_8/MultiHeadDotProductAttention_0/reduce_max" stack_frame_id=15}
}

%region_51.52 (reduce_sum.297: f32[], reduce_sum.298: f32[]) -> f32[] {
  %reduce_sum.297 = f32[] parameter(0), metadata={op_name="reduce_sum"}
  %reduce_sum.298 = f32[] parameter(1), metadata={op_name="reduce_sum"}
  ROOT %reduce_sum.299 = f32[] add(%reduce_sum.297, %reduce_sum.298), metadata={op_name="jit(predict_step)/_Model/Transformer/encoderblock_8/MultiHeadDotProductAttention_0/reduce_sum" stack_frame_id=15}
}

%region_52.53 (reduce_sum.304: f32[], reduce_sum.305: f32[]) -> f32[] {
  %reduce_sum.304 = f32[] parameter(0), metadata={op_name="reduce_sum"}
  %reduce_sum.305 = f32[] parameter(1), metadata={op_name="reduce_sum"}
  ROOT %reduce_sum.306 = f32[] add(%reduce_sum.304, %reduce_sum.305), metadata={op_name="jit(predict_step)/_Model/Transformer/encoderblock_8/LayerNorm_1/reduce_sum" stack_frame_id=20}
}

%region_53.54 (reduce_sum.311: f32[], reduce_sum.312: f32[]) -> f32[] {
  %reduce_sum.311 = f32[] parameter(0), metadata={op_name="reduce_sum"}
  %reduce_sum.312 = f32[] parameter(1), metadata={op_name="reduce_sum"}
  ROOT %reduce_sum.313 = f32[] add(%reduce_sum.311, %reduce_sum.312), metadata={op_name="jit(predict_step)/_Model/Transformer/encoderblock_8/LayerNorm_1/reduce_sum" stack_frame_id=20}
}

%region_54.55 (reduce_sum.318: f32[], reduce_sum.319: f32[]) -> f32[] {
  %reduce_sum.318 = f32[] parameter(0), metadata={op_name="reduce_sum"}
  %reduce_sum.319 = f32[] parameter(1), metadata={op_name="reduce_sum"}
  ROOT %reduce_sum.320 = f32[] add(%reduce_sum.318, %reduce_sum.319), metadata={op_name="jit(predict_step)/_Model/Transformer/encoderblock_9/LayerNorm_0/reduce_sum" stack_frame_id=11}
}

%region_55.56 (reduce_sum.325: f32[], reduce_sum.326: f32[]) -> f32[] {
  %reduce_sum.325 = f32[] parameter(0), metadata={op_name="reduce_sum"}
  %reduce_sum.326 = f32[] parameter(1), metadata={op_name="reduce_sum"}
  ROOT %reduce_sum.327 = f32[] add(%reduce_sum.325, %reduce_sum.326), metadata={op_name="jit(predict_step)/_Model/Transformer/encoderblock_9/LayerNorm_0/reduce_sum" stack_frame_id=11}
}

%region_56.57 (reduce_max.66: f32[], reduce_max.67: f32[]) -> f32[] {
  %reduce_max.66 = f32[] parameter(0), metadata={op_name="reduce_max"}
  %reduce_max.67 = f32[] parameter(1), metadata={op_name="reduce_max"}
  ROOT %reduce_max.68 = f32[] maximum(%reduce_max.66, %reduce_max.67), metadata={op_name="jit(predict_step)/_Model/Transformer/encoderblock_9/MultiHeadDotProductAttention_0/reduce_max" stack_frame_id=15}
}

%region_57.58 (reduce_sum.332: f32[], reduce_sum.333: f32[]) -> f32[] {
  %reduce_sum.332 = f32[] parameter(0), metadata={op_name="reduce_sum"}
  %reduce_sum.333 = f32[] parameter(1), metadata={op_name="reduce_sum"}
  ROOT %reduce_sum.334 = f32[] add(%reduce_sum.332, %reduce_sum.333), metadata={op_name="jit(predict_step)/_Model/Transformer/encoderblock_9/MultiHeadDotProductAttention_0/reduce_sum" stack_frame_id=15}
}

%region_58.59 (reduce_sum.339: f32[], reduce_sum.340: f32[]) -> f32[] {
  %reduce_sum.339 = f32[] parameter(0), metadata={op_name="reduce_sum"}
  %reduce_sum.340 = f32[] parameter(1), metadata={op_name="reduce_sum"}
  ROOT %reduce_sum.341 = f32[] add(%reduce_sum.339, %reduce_sum.340), metadata={op_name="jit(predict_step)/_Model/Transformer/encoderblock_9/LayerNorm_1/reduce_sum" stack_frame_id=20}
}

%region_59.60 (reduce_sum.346: f32[], reduce_sum.347: f32[]) -> f32[] {
  %reduce_sum.346 = f32[] parameter(0), metadata={op_name="reduce_sum"}
  %reduce_sum.347 = f32[] parameter(1), metadata={op_name="reduce_sum"}
  ROOT %reduce_sum.348 = f32[] add(%reduce_sum.346, %reduce_sum.347), metadata={op_name="jit(predict_step)/_Model/Transformer/encoderblock_9/LayerNorm_1/reduce_sum" stack_frame_id=20}
}

%region_60.61 (reduce_sum.353: f32[], reduce_sum.354: f32[]) -> f32[] {
  %reduce_sum.353 = f32[] parameter(0), metadata={op_name="reduce_sum"}
  %reduce_sum.354 = f32[] parameter(1), metadata={op_name="reduce_sum"}
  ROOT %reduce_sum.355 = f32[] add(%reduce_sum.353, %reduce_sum.354), metadata={op_name="jit(predict_step)/_Model/Transformer/encoderblock_10/LayerNorm_0/reduce_sum" stack_frame_id=11}
}

%region_61.62 (reduce_sum.360: f32[], reduce_sum.361: f32[]) -> f32[] {
  %reduce_sum.360 = f32[] parameter(0), metadata={op_name="reduce_sum"}
  %reduce_sum.361 = f32[] parameter(1), metadata={op_name="reduce_sum"}
  ROOT %reduce_sum.362 = f32[] add(%reduce_sum.360, %reduce_sum.361), metadata={op_name="jit(predict_step)/_Model/Transformer/encoderblock_10/LayerNorm_0/reduce_sum" stack_frame_id=11}
}

%region_62.63 (reduce_max.73: f32[], reduce_max.74: f32[]) -> f32[] {
  %reduce_max.73 = f32[] parameter(0), metadata={op_name="reduce_max"}
  %reduce_max.74 = f32[] parameter(1), metadata={op_name="reduce_max"}
  ROOT %reduce_max.75 = f32[] maximum(%reduce_max.73, %reduce_max.74), metadata={op_name="jit(predict_step)/_Model/Transformer/encoderblock_10/MultiHeadDotProductAttention_0/reduce_max" stack_frame_id=15}
}

%region_63.64 (reduce_sum.367: f32[], reduce_sum.368: f32[]) -> f32[] {
  %reduce_sum.367 = f32[] parameter(0), metadata={op_name="reduce_sum"}
  %reduce_sum.368 = f32[] parameter(1), metadata={op_name="reduce_sum"}
  ROOT %reduce_sum.369 = f32[] add(%reduce_sum.367, %reduce_sum.368), metadata={op_name="jit(predict_step)/_Model/Transformer/encoderblock_10/MultiHeadDotProductAttention_0/reduce_sum" stack_frame_id=15}
}

%region_64.65 (reduce_sum.374: f32[], reduce_sum.375: f32[]) -> f32[] {
  %reduce_sum.374 = f32[] parameter(0), metadata={op_name="reduce_sum"}
  %reduce_sum.375 = f32[] parameter(1), metadata={op_name="reduce_sum"}
  ROOT %reduce_sum.376 = f32[] add(%reduce_sum.374, %reduce_sum.375), metadata={op_name="jit(predict_step)/_Model/Transformer/encoderblock_10/LayerNorm_1/reduce_sum" stack_frame_id=20}
}

%region_65.66 (reduce_sum.381: f32[], reduce_sum.382: f32[]) -> f32[] {
  %reduce_sum.381 = f32[] parameter(0), metadata={op_name="reduce_sum"}
  %reduce_sum.382 = f32[] parameter(1), metadata={op_name="reduce_sum"}
  ROOT %reduce_sum.383 = f32[] add(%reduce_sum.381, %reduce_sum.382), metadata={op_name="jit(predict_step)/_Model/Transformer/encoderblock_10/LayerNorm_1/reduce_sum" stack_frame_id=20}
}

%region_66.67 (reduce_sum.388: f32[], reduce_sum.389: f32[]) -> f32[] {
  %reduce_sum.388 = f32[] parameter(0), metadata={op_name="reduce_sum"}
  %reduce_sum.389 = f32[] parameter(1), metadata={op_name="reduce_sum"}
  ROOT %reduce_sum.390 = f32[] add(%reduce_sum.388, %reduce_sum.389), metadata={op_name="jit(predict_step)/_Model/Transformer/encoderblock_11/LayerNorm_0/reduce_sum" stack_frame_id=11}
}

%region_67.68 (reduce_sum.395: f32[], reduce_sum.396: f32[]) -> f32[] {
  %reduce_sum.395 = f32[] parameter(0), metadata={op_name="reduce_sum"}
  %reduce_sum.396 = f32[] parameter(1), metadata={op_name="reduce_sum"}
  ROOT %reduce_sum.397 = f32[] add(%reduce_sum.395, %reduce_sum.396), metadata={op_name="jit(predict_step)/_Model/Transformer/encoderblock_11/LayerNorm_0/reduce_sum" stack_frame_id=11}
}

%region_68.69 (reduce_max.80: f32[], reduce_max.81: f32[]) -> f32[] {
  %reduce_max.80 = f32[] parameter(0), metadata={op_name="reduce_max"}
  %reduce_max.81 = f32[] parameter(1), metadata={op_name="reduce_max"}
  ROOT %reduce_max.82 = f32[] maximum(%reduce_max.80, %reduce_max.81), metadata={op_name="jit(predict_step)/_Model/Transformer/encoderblock_11/MultiHeadDotProductAttention_0/reduce_max" stack_frame_id=15}
}

%region_69.70 (reduce_sum.402: f32[], reduce_sum.403: f32[]) -> f32[] {
  %reduce_sum.402 = f32[] parameter(0), metadata={op_name="reduce_sum"}
  %reduce_sum.403 = f32[] parameter(1), metadata={op_name="reduce_sum"}
  ROOT %reduce_sum.404 = f32[] add(%reduce_sum.402, %reduce_sum.403), metadata={op_name="jit(predict_step)/_Model/Transformer/encoderblock_11/MultiHeadDotProductAttention_0/reduce_sum" stack_frame_id=15}
}

%region_70.71 (reduce_sum.409: f32[], reduce_sum.410: f32[]) -> f32[] {
  %reduce_sum.409 = f32[] parameter(0), metadata={op_name="reduce_sum"}
  %reduce_sum.410 = f32[] parameter(1), metadata={op_name="reduce_sum"}
  ROOT %reduce_sum.411 = f32[] add(%reduce_sum.409, %reduce_sum.410), metadata={op_name="jit(predict_step)/_Model/Transformer/encoderblock_11/LayerNorm_1/reduce_sum" stack_frame_id=20}
}

%region_71.72 (reduce_sum.416: f32[], reduce_sum.417: f32[]) -> f32[] {
  %reduce_sum.416 = f32[] parameter(0), metadata={op_name="reduce_sum"}
  %reduce_sum.417 = f32[] parameter(1), metadata={op_name="reduce_sum"}
  ROOT %reduce_sum.418 = f32[] add(%reduce_sum.416, %reduce_sum.417), metadata={op_name="jit(predict_step)/_Model/Transformer/encoderblock_11/LayerNorm_1/reduce_sum" stack_frame_id=20}
}

%region_72.73 (reduce_sum.423: f32[], reduce_sum.424: f32[]) -> f32[] {
  %reduce_sum.423 = f32[] parameter(0), metadata={op_name="reduce_sum"}
  %reduce_sum.424 = f32[] parameter(1), metadata={op_name="reduce_sum"}
  ROOT %reduce_sum.425 = f32[] add(%reduce_sum.423, %reduce_sum.424), metadata={op_name="jit(predict_step)/_Model/Transformer/encoder_norm/reduce_sum" stack_frame_id=25}
}

%region_73.74 (reduce_sum.430: f32[], reduce_sum.431: f32[]) -> f32[] {
  %reduce_sum.430 = f32[] parameter(0), metadata={op_name="reduce_sum"}
  %reduce_sum.431 = f32[] parameter(1), metadata={op_name="reduce_sum"}
  ROOT %reduce_sum.432 = f32[] add(%reduce_sum.430, %reduce_sum.431), metadata={op_name="jit(predict_step)/_Model/Transformer/encoder_norm/reduce_sum" stack_frame_id=25}
}

%region_74.75 (reduce_sum.437: f32[], reduce_sum.438: f32[]) -> f32[] {
  %reduce_sum.437 = f32[] parameter(0), metadata={op_name="reduce_sum"}
  %reduce_sum.438 = f32[] parameter(1), metadata={op_name="reduce_sum"}
  ROOT %reduce_sum.439 = f32[] add(%reduce_sum.437, %reduce_sum.438), metadata={op_name="jit(predict_step)/_Model/reduce_sum" stack_frame_id=26}
}

ENTRY %main.76 (variables__Transformer____encoder_norm____bias__.1: f32[768], variables__Transformer____encoder_norm____scale__.1: f32[768], variables__Transformer____encoderblock_0____LayerNorm_0____bias__.1: f32[768], variables__Transformer____encoderblock_0____LayerNorm_0____scale__.1: f32[768], variables__Transformer____encoderblock_0____LayerNorm_1____bias__.1: f32[768], variables__Transformer____encoderblock_0____LayerNorm_1____scale__.1: f32[768], variables__Transformer____encoderblock_0____MlpBlock_0____Dense_0____bias__.1: f32[3072], variables__Transformer____encoderblock_0____MlpBlock_0____Dense_0____kernel__.1: f32[768,3072], variables__Transformer____encoderblock_0____MlpBlock_0____Dense_1____bias__.1: f32[768], variables__Transformer____encoderblock_0____MlpBlock_0____Dense_1____kernel__.1: f32[3072,768], variables__Transformer____encoderblock_0____MultiHeadDotProductAttention_0____key____bias__.1: f32[12,64], variables__Transformer____encoderblock_0____MultiHeadDotProductAttention_0____key____kernel__.1: f32[768,12,64], variables__Transformer____encoderblock_0____MultiHeadDotProductAttention_0____out____bias__.1: f32[768], variables__Transformer____encoderblock_0____MultiHeadDotProductAttention_0____out____kernel__.1: f32[12,64,768], variables__Transformer____encoderblock_0____MultiHeadDotProductAttention_0____query____bias__.1: f32[12,64], variables__Transformer____encoderblock_0____MultiHeadDotProductAttention_0____query____kernel__.1: f32[768,12,64], variables__Transformer____encoderblock_0____MultiHeadDotProductAttention_0____value____bias__.1: f32[12,64], variables__Transformer____encoderblock_0____MultiHeadDotProductAttention_0____value____kernel__.1: f32[768,12,64], variables__Transformer____encoderblock_1____LayerNorm_0____bias__.1: f32[768], variables__Transformer____encoderblock_1____LayerNorm_0____scale__.1: f32[768], variables__Transformer____encoderblock_1____LayerNorm_1____bias__.1: f32[768], variables__Transformer____encoderblock_1____LayerNorm_1____scale__.1: f32[768], variables__Transformer____encoderblock_1____MlpBlock_0____Dense_0____bias__.1: f32[3072], variables__Transformer____encoderblock_1____MlpBlock_0____Dense_0____kernel__.1: f32[768,3072], variables__Transformer____encoderblock_1____MlpBlock_0____Dense_1____bias__.1: f32[768], variables__Transformer____encoderblock_1____MlpBlock_0____Dense_1____kernel__.1: f32[3072,768], variables__Transformer____encoderblock_1____MultiHeadDotProductAttention_0____key____bias__.1: f32[12,64], variables__Transformer____encoderblock_1____MultiHeadDotProductAttention_0____key____kernel__.1: f32[768,12,64], variables__Transformer____encoderblock_1____MultiHeadDotProductAttention_0____out____bias__.1: f32[768], variables__Transformer____encoderblock_1____MultiHeadDotProductAttention_0____out____kernel__.1: f32[12,64,768], variables__Transformer____encoderblock_1____MultiHeadDotProductAttention_0____query____bias__.1: f32[12,64], variables__Transformer____encoderblock_1____MultiHeadDotProductAttention_0____query____kernel__.1: f32[768,12,64], variables__Transformer____encoderblock_1____MultiHeadDotProductAttention_0____value____bias__.1: f32[12,64], variables__Transformer____encoderblock_1____MultiHeadDotProductAttention_0____value____kernel__.1: f32[768,12,64], variables__Transformer____encoderblock_10____LayerNorm_0____bias__.1: f32[768], variables__Transformer____encoderblock_10____LayerNorm_0____scale__.1: f32[768], variables__Transformer____encoderblock_10____LayerNorm_1____bias__.1: f32[768], variables__Transformer____encoderblock_10____LayerNorm_1____scale__.1: f32[768], variables__Transformer____encoderblock_10____MlpBlock_0____Dense_0____bias__.1: f32[3072], variables__Transformer____encoderblock_10____MlpBlock_0____Dense_0____kernel__.1: f32[768,3072], variables__Transformer____encoderblock_10____MlpBlock_0____Dense_1____bias__.1: f32[768], variables__Transformer____encoderblock_10____MlpBlock_0____Dense_1____kernel__.1: f32[3072,768], variables__Transformer____encoderblock_10____MultiHeadDotProductAttention_0____key____bias__.1: f32[12,64], variables__Transformer____encoderblock_10____MultiHeadDotProductAttention_0____key____kernel__.1: f32[768,12,64], variables__Transformer____encoderblock_10____MultiHeadDotProductAttention_0____out____bias__.1: f32[768], variables__Transformer____encoderblock_10____MultiHeadDotProductAttention_0____out____kernel__.1: f32[12,64,768], variables__Transformer____encoderblock_10____MultiHeadDotProductAttention_0____query____bias__.1: f32[12,64], variables__Transformer____encoderblock_10____MultiHeadDotProductAttention_0____query____kernel__.1: f32[768,12,64], variables__Transformer____encoderblock_10____MultiHeadDotProductAttention_0____value____bias__.1: f32[12,64], variables__Transformer____encoderblock_10____MultiHeadDotProductAttention_0____value____kernel__.1: f32[768,12,64], variables__Transformer____encoderblock_11____LayerNorm_0____bias__.1: f32[768], variables__Transformer____encoderblock_11____LayerNorm_0____scale__.1: f32[768], variables__Transformer____encoderblock_11____LayerNorm_1____bias__.1: f32[768], variables__Transformer____encoderblock_11____LayerNorm_1____scale__.1: f32[768], variables__Transformer____encoderblock_11____MlpBlock_0____Dense_0____bias__.1: f32[3072], variables__Transformer____encoderblock_11____MlpBlock_0____Dense_0____kernel__.1: f32[768,3072], variables__Transformer____encoderblock_11____MlpBlock_0____Dense_1____bias__.1: f32[768], variables__Transformer____encoderblock_11____MlpBlock_0____Dense_1____kernel__.1: f32[3072,768], variables__Transformer____encoderblock_11____MultiHeadDotProductAttention_0____key____bias__.1: f32[12,64], variables__Transformer____encoderblock_11____MultiHeadDotProductAttention_0____key____kernel__.1: f32[768,12,64], variables__Transformer____encoderblock_11____MultiHeadDotProductAttention_0____out____bias__.1: f32[768], variables__Transformer____encoderblock_11____MultiHeadDotProductAttention_0____out____kernel__.1: f32[12,64,768], variables__Transformer____encoderblock_11____MultiHeadDotProductAttention_0____query____bias__.1: f32[12,64], variables__Transformer____encoderblock_11____MultiHeadDotProductAttention_0____query____kernel__.1: f32[768,12,64], variables__Transformer____encoderblock_11____MultiHeadDotProductAttention_0____value____bias__.1: f32[12,64], variables__Transformer____encoderblock_11____MultiHeadDotProductAttention_0____value____kernel__.1: f32[768,12,64], variables__Transformer____encoderblock_2____LayerNorm_0____bias__.1: f32[768], variables__Transformer____encoderblock_2____LayerNorm_0____scale__.1: f32[768], variables__Transformer____encoderblock_2____LayerNorm_1____bias__.1: f32[768], variables__Transformer____encoderblock_2____LayerNorm_1____scale__.1: f32[768], variables__Transformer____encoderblock_2____MlpBlock_0____Dense_0____bias__.1: f32[3072], variables__Transformer____encoderblock_2____MlpBlock_0____Dense_0____kernel__.1: f32[768,3072], variables__Transformer____encoderblock_2____MlpBlock_0____Dense_1____bias__.1: f32[768], variables__Transformer____encoderblock_2____MlpBlock_0____Dense_1____kernel__.1: f32[3072,768], variables__Transformer____encoderblock_2____MultiHeadDotProductAttention_0____key____bias__.1: f32[12,64], variables__Transformer____encoderblock_2____MultiHeadDotProductAttention_0____key____kernel__.1: f32[768,12,64], variables__Transformer____encoderblock_2____MultiHeadDotProductAttention_0____out____bias__.1: f32[768], variables__Transformer____encoderblock_2____MultiHeadDotProductAttention_0____out____kernel__.1: f32[12,64,768], variables__Transformer____encoderblock_2____MultiHeadDotProductAttention_0____query____bias__.1: f32[12,64], variables__Transformer____encoderblock_2____MultiHeadDotProductAttention_0____query____kernel__.1: f32[768,12,64], variables__Transformer____encoderblock_2____MultiHeadDotProductAttention_0____value____bias__.1: f32[12,64], variables__Transformer____encoderblock_2____MultiHeadDotProductAttention_0____value____kernel__.1: f32[768,12,64], variables__Transformer____encoderblock_3____LayerNorm_0____bias__.1: f32[768], variables__Transformer____encoderblock_3____LayerNorm_0____scale__.1: f32[768], variables__Transformer____encoderblock_3____LayerNorm_1____bias__.1: f32[768], variables__Transformer____encoderblock_3____LayerNorm_1____scale__.1: f32[768], variables__Transformer____encoderblock_3____MlpBlock_0____Dense_0____bias__.1: f32[3072], variables__Transformer____encoderblock_3____MlpBlock_0____Dense_0____kernel__.1: f32[768,3072], variables__Transformer____encoderblock_3____MlpBlock_0____Dense_1____bias__.1: f32[768], variables__Transformer____encoderblock_3____MlpBlock_0____Dense_1____kernel__.1: f32[3072,768], variables__Transformer____encoderblock_3____MultiHeadDotProductAttention_0____key____bias__.1: f32[12,64], variables__Transformer____encoderblock_3____MultiHeadDotProductAttention_0____key____kernel__.1: f32[768,12,64], variables__Transformer____encoderblock_3____MultiHeadDotProductAttention_0____out____bias__.1: f32[768], variables__Transformer____encoderblock_3____MultiHeadDotProductAttention_0____out____kernel__.1: f32[12,64,768], variables__Transformer____encoderblock_3____MultiHeadDotProductAttention_0____query____bias__.1: f32[12,64], variables__Transformer____encoderblock_3____MultiHeadDotProductAttention_0____query____kernel__.1: f32[768,12,64], variables__Transformer____encoderblock_3____MultiHeadDotProductAttention_0____value____bias__.1: f32[12,64], variables__Transformer____encoderblock_3____MultiHeadDotProductAttention_0____value____kernel__.1: f32[768,12,64], variables__Transformer____encoderblock_4____LayerNorm_0____bias__.1: f32[768], variables__Transformer____encoderblock_4____LayerNorm_0____scale__.1: f32[768], variables__Transformer____encoderblock_4____LayerNorm_1____bias__.1: f32[768], variables__Transformer____encoderblock_4____LayerNorm_1____scale__.1: f32[768], variables__Transformer____encoderblock_4____MlpBlock_0____Dense_0____bias__.1: f32[3072], variables__Transformer____encoderblock_4____MlpBlock_0____Dense_0____kernel__.1: f32[768,3072], variables__Transformer____encoderblock_4____MlpBlock_0____Dense_1____bias__.1: f32[768], variables__Transformer____encoderblock_4____MlpBlock_0____Dense_1____kernel__.1: f32[3072,768], variables__Transformer____encoderblock_4____MultiHeadDotProductAttention_0____key____bias__.1: f32[12,64], variables__Transformer____encoderblock_4____MultiHeadDotProductAttention_0____key____kernel__.1: f32[768,12,64], variables__Transformer____encoderblock_4____MultiHeadDotProductAttention_0____out____bias__.1: f32[768], variables__Transformer____encoderblock_4____MultiHeadDotProductAttention_0____out____kernel__.1: f32[12,64,768], variables__Transformer____encoderblock_4____MultiHeadDotProductAttention_0____query____bias__.1: f32[12,64], variables__Transformer____encoderblock_4____MultiHeadDotProductAttention_0____query____kernel__.1: f32[768,12,64], variables__Transformer____encoderblock_4____MultiHeadDotProductAttention_0____value____bias__.1: f32[12,64], variables__Transformer____encoderblock_4____MultiHeadDotProductAttention_0____value____kernel__.1: f32[768,12,64], variables__Transformer____encoderblock_5____LayerNorm_0____bias__.1: f32[768], variables__Transformer____encoderblock_5____LayerNorm_0____scale__.1: f32[768], variables__Transformer____encoderblock_5____LayerNorm_1____bias__.1: f32[768], variables__Transformer____encoderblock_5____LayerNorm_1____scale__.1: f32[768], variables__Transformer____encoderblock_5____MlpBlock_0____Dense_0____bias__.1: f32[3072], variables__Transformer____encoderblock_5____MlpBlock_0____Dense_0____kernel__.1: f32[768,3072], variables__Transformer____encoderblock_5____MlpBlock_0____Dense_1____bias__.1: f32[768], variables__Transformer____encoderblock_5____MlpBlock_0____Dense_1____kernel__.1: f32[3072,768], variables__Transformer____encoderblock_5____MultiHeadDotProductAttention_0____key____bias__.1: f32[12,64], variables__Transformer____encoderblock_5____MultiHeadDotProductAttention_0____key____kernel__.1: f32[768,12,64], variables__Transformer____encoderblock_5____MultiHeadDotProductAttention_0____out____bias__.1: f32[768], variables__Transformer____encoderblock_5____MultiHeadDotProductAttention_0____out____kernel__.1: f32[12,64,768], variables__Transformer____encoderblock_5____MultiHeadDotProductAttention_0____query____bias__.1: f32[12,64], variables__Transformer____encoderblock_5____MultiHeadDotProductAttention_0____query____kernel__.1: f32[768,12,64], variables__Transformer____encoderblock_5____MultiHeadDotProductAttention_0____value____bias__.1: f32[12,64], variables__Transformer____encoderblock_5____MultiHeadDotProductAttention_0____value____kernel__.1: f32[768,12,64], variables__Transformer____encoderblock_6____LayerNorm_0____bias__.1: f32[768], variables__Transformer____encoderblock_6____LayerNorm_0____scale__.1: f32[768], variables__Transformer____encoderblock_6____LayerNorm_1____bias__.1: f32[768], variables__Transformer____encoderblock_6____LayerNorm_1____scale__.1: f32[768], variables__Transformer____encoderblock_6____MlpBlock_0____Dense_0____bias__.1: f32[3072], variables__Transformer____encoderblock_6____MlpBlock_0____Dense_0____kernel__.1: f32[768,3072], variables__Transformer____encoderblock_6____MlpBlock_0____Dense_1____bias__.1: f32[768], variables__Transformer____encoderblock_6____MlpBlock_0____Dense_1____kernel__.1: f32[3072,768], variables__Transformer____encoderblock_6____MultiHeadDotProductAttention_0____key____bias__.1: f32[12,64], variables__Transformer____encoderblock_6____MultiHeadDotProductAttention_0____key____kernel__.1: f32[768,12,64], variables__Transformer____encoderblock_6____MultiHeadDotProductAttention_0____out____bias__.1: f32[768], variables__Transformer____encoderblock_6____MultiHeadDotProductAttention_0____out____kernel__.1: f32[12,64,768], variables__Transformer____encoderblock_6____MultiHeadDotProductAttention_0____query____bias__.1: f32[12,64], variables__Transformer____encoderblock_6____MultiHeadDotProductAttention_0____query____kernel__.1: f32[768,12,64], variables__Transformer____encoderblock_6____MultiHeadDotProductAttention_0____value____bias__.1: f32[12,64], variables__Transformer____encoderblock_6____MultiHeadDotProductAttention_0____value____kernel__.1: f32[768,12,64], variables__Transformer____encoderblock_7____LayerNorm_0____bias__.1: f32[768], variables__Transformer____encoderblock_7____LayerNorm_0____scale__.1: f32[768], variables__Transformer____encoderblock_7____LayerNorm_1____bias__.1: f32[768], variables__Transformer____encoderblock_7____LayerNorm_1____scale__.1: f32[768], variables__Transformer____encoderblock_7____MlpBlock_0____Dense_0____bias__.1: f32[3072], variables__Transformer____encoderblock_7____MlpBlock_0____Dense_0____kernel__.1: f32[768,3072], variables__Transformer____encoderblock_7____MlpBlock_0____Dense_1____bias__.1: f32[768], variables__Transformer____encoderblock_7____MlpBlock_0____Dense_1____kernel__.1: f32[3072,768], variables__Transformer____encoderblock_7____MultiHeadDotProductAttention_0____key____bias__.1: f32[12,64], variables__Transformer____encoderblock_7____MultiHeadDotProductAttention_0____key____kernel__.1: f32[768,12,64], variables__Transformer____encoderblock_7____MultiHeadDotProductAttention_0____out____bias__.1: f32[768], variables__Transformer____encoderblock_7____MultiHeadDotProductAttention_0____out____kernel__.1: f32[12,64,768], variables__Transformer____encoderblock_7____MultiHeadDotProductAttention_0____query____bias__.1: f32[12,64], variables__Transformer____encoderblock_7____MultiHeadDotProductAttention_0____query____kernel__.1: f32[768,12,64], variables__Transformer____encoderblock_7____MultiHeadDotProductAttention_0____value____bias__.1: f32[12,64], variables__Transformer____encoderblock_7____MultiHeadDotProductAttention_0____value____kernel__.1: f32[768,12,64], variables__Transformer____encoderblock_8____LayerNorm_0____bias__.1: f32[768], variables__Transformer____encoderblock_8____LayerNorm_0____scale__.1: f32[768], variables__Transformer____encoderblock_8____LayerNorm_1____bias__.1: f32[768], variables__Transformer____encoderblock_8____LayerNorm_1____scale__.1: f32[768], variables__Transformer____encoderblock_8____MlpBlock_0____Dense_0____bias__.1: f32[3072], variables__Transformer____encoderblock_8____MlpBlock_0____Dense_0____kernel__.1: f32[768,3072], variables__Transformer____encoderblock_8____MlpBlock_0____Dense_1____bias__.1: f32[768], variables__Transformer____encoderblock_8____MlpBlock_0____Dense_1____kernel__.1: f32[3072,768], variables__Transformer____encoderblock_8____MultiHeadDotProductAttention_0____key____bias__.1: f32[12,64], variables__Transformer____encoderblock_8____MultiHeadDotProductAttention_0____key____kernel__.1: f32[768,12,64], variables__Transformer____encoderblock_8____MultiHeadDotProductAttention_0____out____bias__.1: f32[768], variables__Transformer____encoderblock_8____MultiHeadDotProductAttention_0____out____kernel__.1: f32[12,64,768], variables__Transformer____encoderblock_8____MultiHeadDotProductAttention_0____query____bias__.1: f32[12,64], variables__Transformer____encoderblock_8____MultiHeadDotProductAttention_0____query____kernel__.1: f32[768,12,64], variables__Transformer____encoderblock_8____MultiHeadDotProductAttention_0____value____bias__.1: f32[12,64], variables__Transformer____encoderblock_8____MultiHeadDotProductAttention_0____value____kernel__.1: f32[768,12,64], variables__Transformer____encoderblock_9____LayerNorm_0____bias__.1: f32[768], variables__Transformer____encoderblock_9____LayerNorm_0____scale__.1: f32[768], variables__Transformer____encoderblock_9____LayerNorm_1____bias__.1: f32[768], variables__Transformer____encoderblock_9____LayerNorm_1____scale__.1: f32[768], variables__Transformer____encoderblock_9____MlpBlock_0____Dense_0____bias__.1: f32[3072], variables__Transformer____encoderblock_9____MlpBlock_0____Dense_0____kernel__.1: f32[768,3072], variables__Transformer____encoderblock_9____MlpBlock_0____Dense_1____bias__.1: f32[768], variables__Transformer____encoderblock_9____MlpBlock_0____Dense_1____kernel__.1: f32[3072,768], variables__Transformer____encoderblock_9____MultiHeadDotProductAttention_0____key____bias__.1: f32[12,64], variables__Transformer____encoderblock_9____MultiHeadDotProductAttention_0____key____kernel__.1: f32[768,12,64], variables__Transformer____encoderblock_9____MultiHeadDotProductAttention_0____out____bias__.1: f32[768], variables__Transformer____encoderblock_9____MultiHeadDotProductAttention_0____out____kernel__.1: f32[12,64,768], variables__Transformer____encoderblock_9____MultiHeadDotProductAttention_0____query____bias__.1: f32[12,64], variables__Transformer____encoderblock_9____MultiHeadDotProductAttention_0____query____kernel__.1: f32[768,12,64], variables__Transformer____encoderblock_9____MultiHeadDotProductAttention_0____value____bias__.1: f32[12,64], variables__Transformer____encoderblock_9____MultiHeadDotProductAttention_0____value____kernel__.1: f32[768,12,64], variables__embedding____bias__.1: f32[768], variables__embedding____kernel__.1: f32[16,16,3,768], variables__head____bias__.1: f32[1000], variables__head____kernel__.1: f32[768,1000], variables__pos_embedding__.1: f32[1,196,768], inputs_0_.1: f32[8,224,224,3]) -> f32[8,1000] {
  %inputs_0_.1 = f32[8,224,224,3]{3,2,1,0} parameter(199), sharding={replicated}, frontend_attributes={xla.sdy.sharding="#sdy.sharding<@mesh, [{}, {}, {}, {}]>"}, metadata={op_name="inputs[0]"}
  %variables__embedding____kernel__.1 = f32[16,16,3,768]{3,2,1,0} parameter(195), sharding={devices=[2,1,1,1]<=[2]}, frontend_attributes={xla.sdy.sharding="#sdy.sharding<@mesh, [{\"fsdp\"}, {}, {}, {}]>"}, metadata={op_name="variables[\'embedding\'][\'kernel\']"}
  %conv_general_dilated.1 = f32[8,14,14,768]{3,2,1,0} convolution(%inputs_0_.1, %variables__embedding____kernel__.1), window={size=16x16 stride=16x16}, dim_labels=b01f_01io->b01f, metadata={op_name="jit(predict_step)/_Model/embedding/conv_general_dilated" stack_frame_id=28}
  %variables__embedding____bias__.1 = f32[768]{0} parameter(194), sharding={devices=[2]<=[2]}, frontend_attributes={xla.sdy.sharding="#sdy.sharding<@mesh, [{\"fsdp\"}]>"}, metadata={op_name="variables[\'embedding\'][\'bias\']"}
  %reshape.125 = f32[1,1,1,768]{3,2,1,0} reshape(%variables__embedding____bias__.1), metadata={op_name="jit(predict_step)/_Model/embedding/reshape" stack_frame_id=29}
  %add.474 = f32[1,1,1,768]{3,2,1,0} broadcast(%reshape.125), dimensions={0,1,2,3}, metadata={op_name="jit(predict_step)/_Model/embedding/add" stack_frame_id=30}
  %add.475 = f32[768]{0} reshape(%add.474), metadata={op_name="jit(predict_step)/_Model/embedding/add" stack_frame_id=30}
  %add.476 = f32[8,14,14,768]{3,2,1,0} broadcast(%add.475), dimensions={3}, metadata={op_name="jit(predict_step)/_Model/embedding/add" stack_frame_id=30}
  %add.477 = f32[8,14,14,768]{3,2,1,0} add(%conv_general_dilated.1, %add.476), metadata={op_name="jit(predict_step)/_Model/embedding/add" stack_frame_id=30}
  %reshape.126 = f32[8,196,768]{2,1,0} reshape(%add.477), metadata={op_name="jit(predict_step)/_Model/reshape" stack_frame_id=31}
  %variables__pos_embedding__.1 = f32[1,196,768]{2,1,0} parameter(198), sharding={devices=[1,2,1]<=[2]}, frontend_attributes={xla.sdy.sharding="#sdy.sharding<@mesh, [{}, {\"fsdp\"}, {}]>"}, metadata={op_name="variables[\'pos_embedding\']"}
  %add.478 = f32[1,196,768]{2,1,0} broadcast(%variables__pos_embedding__.1), dimensions={0,1,2}, metadata={op_name="jit(predict_step)/_Model/add" stack_frame_id=32}
  %add.479 = f32[196,768]{1,0} reshape(%add.478), metadata={op_name="jit(predict_step)/_Model/add" stack_frame_id=32}
  %add.480 = f32[8,196,768]{2,1,0} broadcast(%add.479), dimensions={1,2}, metadata={op_name="jit(predict_step)/_Model/add" stack_frame_id=32}
  %add.481 = f32[8,196,768]{2,1,0} add(%reshape.126, %add.480), metadata={op_name="jit(predict_step)/_Model/add" stack_frame_id=32}
  %constant.23 = f32[] constant(0)
  %reduce_sum.441 = f32[8,196]{1,0} reduce(%add.481, %constant.23), dimensions={2}, to_apply=%region_0.1, metadata={op_name="jit(predict_step)/_Model/Transformer/encoderblock_0/LayerNorm_0/reduce_sum" stack_frame_id=11}
  %constant.21 = f32[] constant(768)
  %broadcast.17 = f32[8,196]{1,0} broadcast(%constant.21), dimensions={}
  %div.113 = f32[8,196]{1,0} divide(%reduce_sum.441, %broadcast.17), metadata={op_name="jit(predict_step)/_Model/Transformer/encoderblock_0/LayerNorm_0/div" stack_frame_id=11}
  %broadcast_in_dim.74 = f32[8,196,1]{2,1,0} reshape(%div.113), metadata={op_name="jit(predict_step)/_Model/Transformer/encoderblock_0/LayerNorm_0/broadcast_in_dim" stack_frame_id=34}
  %sub.174 = f32[8,196,1]{2,1,0} broadcast(%broadcast_in_dim.74), dimensions={0,1,2}, metadata={op_name="jit(predict_step)/_Model/Transformer/encoderblock_0/LayerNorm_0/sub" stack_frame_id=35}
  %sub.175 = f32[8,196]{1,0} reshape(%sub.174), metadata={op_name="jit(predict_step)/_Model/Transformer/encoderblock_0/LayerNorm_0/sub" stack_frame_id=35}
  %sub.176 = f32[8,196,768]{2,1,0} broadcast(%sub.175), dimensions={0,1}, metadata={op_name="jit(predict_step)/_Model/Transformer/encoderblock_0/LayerNorm_0/sub" stack_frame_id=35}
  %sub.177 = f32[8,196,768]{2,1,0} subtract(%add.481, %sub.176), metadata={op_name="jit(predict_step)/_Model/Transformer/encoderblock_0/LayerNorm_0/sub" stack_frame_id=35}
  %square.50 = f32[8,196,768]{2,1,0} multiply(%add.481, %add.481), metadata={op_name="jit(predict_step)/_Model/Transformer/encoderblock_0/LayerNorm_0/square" stack_frame_id=37}
  %reduce_sum.442 = f32[8,196]{1,0} reduce(%square.50, %constant.23), dimensions={2}, to_apply=%region_1.2, metadata={op_name="jit(predict_step)/_Model/Transformer/encoderblock_0/LayerNorm_0/reduce_sum" stack_frame_id=11}
  %div.114 = f32[8,196]{1,0} divide(%reduce_sum.442, %broadcast.17), metadata={op_name="jit(predict_step)/_Model/Transformer/encoderblock_0/LayerNorm_0/div" stack_frame_id=11}
  %square.51 = f32[8,196]{1,0} multiply(%div.113, %div.113), metadata={op_name="jit(predict_step)/_Model/Transformer/encoderblock_0/LayerNorm_0/square" stack_frame_id=39}
  %sub.173 = f32[8,196]{1,0} subtract(%div.114, %square.51), metadata={op_name="jit(predict_step)/_Model/Transformer/encoderblock_0/LayerNorm_0/sub" stack_frame_id=40}
  %constant.20 = f32[] constant(0)
  %broadcast.16 = f32[8,196]{1,0} broadcast(%constant.20), dimensions={}
  %max.37 = f32[8,196]{1,0} maximum(%sub.173, %broadcast.16), metadata={op_name="jit(predict_step)/_Model/Transformer/encoderblock_0/LayerNorm_0/max" stack_frame_id=41}
  %broadcast_in_dim.75 = f32[8,196,1]{2,1,0} reshape(%max.37), metadata={op_name="jit(predict_step)/_Model/Transformer/encoderblock_0/LayerNorm_0/broadcast_in_dim" stack_frame_id=42}
  %constant.19 = f32[] constant(1e-06)
  %broadcast.15 = f32[8,196,1]{2,1,0} broadcast(%constant.19), dimensions={}
  %add.482 = f32[8,196,1]{2,1,0} add(%broadcast_in_dim.75, %broadcast.15), metadata={op_name="jit(predict_step)/_Model/Transformer/encoderblock_0/LayerNorm_0/add" stack_frame_id=43}
  %rsqrt.25 = f32[8,196,1]{2,1,0} rsqrt(%add.482), metadata={op_name="jit(predict_step)/_Model/Transformer/encoderblock_0/LayerNorm_0/rsqrt" stack_frame_id=44}
  %mul.248 = f32[8,196,1]{2,1,0} broadcast(%rsqrt.25), dimensions={0,1,2}, metadata={op_name="jit(predict_step)/_Model/Transformer/encoderblock_0/LayerNorm_0/mul" stack_frame_id=45}
  %mul.249 = f32[8,196]{1,0} reshape(%mul.248), metadata={op_name="jit(predict_step)/_Model/Transformer/encoderblock_0/LayerNorm_0/mul" stack_frame_id=45}
  %mul.250 = f32[8,196,768]{2,1,0} broadcast(%mul.249), dimensions={0,1}, metadata={op_name="jit(predict_step)/_Model/Transformer/encoderblock_0/LayerNorm_0/mul" stack_frame_id=45}
  %variables__Transformer____encoderblock_0____LayerNorm_0____scale__.1 = f32[768]{0} parameter(3), sharding={devices=[2]<=[2]}, frontend_attributes={xla.sdy.sharding="#sdy.sharding<@mesh, [{\"fsdp\"}]>"}, metadata={op_name="variables[\'Transformer\'][\'encoderblock_0\'][\'LayerNorm_0\'][\'scale\']"}
  %reshape.127 = f32[1,1,768]{2,1,0} reshape(%variables__Transformer____encoderblock_0____LayerNorm_0____scale__.1), metadata={op_name="jit(predict_step)/_Model/Transformer/encoderblock_0/LayerNorm_0/reshape" stack_frame_id=46}
  %mul.251 = f32[1,1,768]{2,1,0} broadcast(%reshape.127), dimensions={0,1,2}, metadata={op_name="jit(predict_step)/_Model/Transformer/encoderblock_0/LayerNorm_0/mul" stack_frame_id=45}
  %mul.252 = f32[768]{0} reshape(%mul.251), metadata={op_name="jit(predict_step)/_Model/Transformer/encoderblock_0/LayerNorm_0/mul" stack_frame_id=45}
  %mul.253 = f32[8,196,768]{2,1,0} broadcast(%mul.252), dimensions={2}, metadata={op_name="jit(predict_step)/_Model/Transformer/encoderblock_0/LayerNorm_0/mul" stack_frame_id=45}
  %mul.254 = f32[8,196,768]{2,1,0} multiply(%mul.250, %mul.253), metadata={op_name="jit(predict_step)/_Model/Transformer/encoderblock_0/LayerNorm_0/mul" stack_frame_id=45}
  %mul.255 = f32[8,196,768]{2,1,0} multiply(%sub.177, %mul.254), metadata={op_name="jit(predict_step)/_Model/Transformer/encoderblock_0/LayerNorm_0/mul" stack_frame_id=47}
  %variables__Transformer____encoderblock_0____LayerNorm_0____bias__.1 = f32[768]{0} parameter(2), sharding={devices=[2]<=[2]}, frontend_attributes={xla.sdy.sharding="#sdy.sharding<@mesh, [{\"fsdp\"}]>"}, metadata={op_name="variables[\'Transformer\'][\'encoderblock_0\'][\'LayerNorm_0\'][\'bias\']"}
  %reshape.128 = f32[1,1,768]{2,1,0} reshape(%variables__Transformer____encoderblock_0____LayerNorm_0____bias__.1), metadata={op_name="jit(predict_step)/_Model/Transformer/encoderblock_0/LayerNorm_0/reshape" stack_frame_id=48}
  %add.483 = f32[1,1,768]{2,1,0} broadcast(%reshape.128), dimensions={0,1,2}, metadata={op_name="jit(predict_step)/_Model/Transformer/encoderblock_0/LayerNorm_0/add" stack_frame_id=49}
  %add.484 = f32[768]{0} reshape(%add.483), metadata={op_name="jit(predict_step)/_Model/Transformer/encoderblock_0/LayerNorm_0/add" stack_frame_id=49}
  %add.485 = f32[8,196,768]{2,1,0} broadcast(%add.484), dimensions={2}, metadata={op_name="jit(predict_step)/_Model/Transformer/encoderblock_0/LayerNorm_0/add" stack_frame_id=49}
  %add.486 = f32[8,196,768]{2,1,0} add(%mul.255, %add.485), metadata={op_name="jit(predict_step)/_Model/Transformer/encoderblock_0/LayerNorm_0/add" stack_frame_id=49}
  %variables__Transformer____encoderblock_0____MultiHeadDotProductAttention_0____value____kernel__.1 = f32[768,12,64]{2,1,0} parameter(17), sharding={devices=[2,1,1]<=[2]}, frontend_attributes={xla.sdy.sharding="#sdy.sharding<@mesh, [{\"fsdp\"}, {}, {}]>"}, metadata={op_name="variables[\'Transformer\'][\'encoderblock_0\'][\'MultiHeadDotProductAttention_0\'][\'value\'][\'kernel\']"}
  %dot_general.99 = f32[8,196,12,64]{3,2,1,0} dot(%add.486, %variables__Transformer____encoderblock_0____MultiHeadDotProductAttention_0____value____kernel__.1), lhs_contracting_dims={2}, rhs_contracting_dims={0}, metadata={op_name="jit(predict_step)/_Model/Transformer/encoderblock_0/MultiHeadDotProductAttention_0/value/dot_general" stack_frame_id=51}
  %variables__Transformer____encoderblock_0____MultiHeadDotProductAttention_0____value____bias__.1 = f32[12,64]{1,0} parameter(16), sharding={devices=[2,1]<=[2]}, frontend_attributes={xla.sdy.sharding="#sdy.sharding<@mesh, [{\"fsdp\"}, {}]>"}, metadata={op_name="variables[\'Transformer\'][\'encoderblock_0\'][\'MultiHeadDotProductAttention_0\'][\'value\'][\'bias\']"}
  %reshape.131 = f32[1,1,12,64]{3,2,1,0} reshape(%variables__Transformer____encoderblock_0____MultiHeadDotProductAttention_0____value____bias__.1), metadata={op_name="jit(predict_step)/_Model/Transformer/encoderblock_0/MultiHeadDotProductAttention_0/value/reshape" stack_frame_id=52}
  %add.495 = f32[1,1,12,64]{3,2,1,0} broadcast(%reshape.131), dimensions={0,1,2,3}, metadata={op_name="jit(predict_step)/_Model/Transformer/encoderblock_0/MultiHeadDotProductAttention_0/value/add" stack_frame_id=53}
  %add.496 = f32[12,64]{1,0} reshape(%add.495), metadata={op_name="jit(predict_step)/_Model/Transformer/encoderblock_0/MultiHeadDotProductAttention_0/value/add" stack_frame_id=53}
  %add.497 = f32[8,196,12,64]{3,2,1,0} broadcast(%add.496), dimensions={2,3}, metadata={op_name="jit(predict_step)/_Model/Transformer/encoderblock_0/MultiHeadDotProductAttention_0/value/add" stack_frame_id=53}
  %add.498 = f32[8,196,12,64]{3,2,1,0} add(%dot_general.99, %add.497), metadata={op_name="jit(predict_step)/_Model/Transformer/encoderblock_0/MultiHeadDotProductAttention_0/value/add" stack_frame_id=53}
  %variables__Transformer____encoderblock_0____MultiHeadDotProductAttention_0____query____kernel__.1 = f32[768,12,64]{2,1,0} parameter(15), sharding={devices=[2,1,1]<=[2]}, frontend_attributes={xla.sdy.sharding="#sdy.sharding<@mesh, [{\"fsdp\"}, {}, {}]>"}, metadata={op_name="variables[\'Transformer\'][\'encoderblock_0\'][\'MultiHeadDotProductAttention_0\'][\'query\'][\'kernel\']"}
  %dot_general.97 = f32[8,196,12,64]{3,2,1,0} dot(%add.486, %variables__Transformer____encoderblock_0____MultiHeadDotProductAttention_0____query____kernel__.1), lhs_contracting_dims={2}, rhs_contracting_dims={0}, metadata={op_name="jit(predict_step)/_Model/Transformer/encoderblock_0/MultiHeadDotProductAttention_0/query/dot_general" stack_frame_id=55}
  %variables__Transformer____encoderblock_0____MultiHeadDotProductAttention_0____query____bias__.1 = f32[12,64]{1,0} parameter(14), sharding={devices=[2,1]<=[2]}, frontend_attributes={xla.sdy.sharding="#sdy.sharding<@mesh, [{\"fsdp\"}, {}]>"}, metadata={op_name="variables[\'Transformer\'][\'encoderblock_0\'][\'MultiHeadDotProductAttention_0\'][\'query\'][\'bias\']"}
  %reshape.129 = f32[1,1,12,64]{3,2,1,0} reshape(%variables__Transformer____encoderblock_0____MultiHeadDotProductAttention_0____query____bias__.1), metadata={op_name="jit(predict_step)/_Model/Transformer/encoderblock_0/MultiHeadDotProductAttention_0/query/reshape" stack_frame_id=56}
  %add.487 = f32[1,1,12,64]{3,2,1,0} broadcast(%reshape.129), dimensions={0,1,2,3}, metadata={op_name="jit(predict_step)/_Model/Transformer/encoderblock_0/MultiHeadDotProductAttention_0/query/add" stack_frame_id=57}
  %add.488 = f32[12,64]{1,0} reshape(%add.487), metadata={op_name="jit(predict_step)/_Model/Transformer/encoderblock_0/MultiHeadDotProductAttention_0/query/add" stack_frame_id=57}
  %add.489 = f32[8,196,12,64]{3,2,1,0} broadcast(%add.488), dimensions={2,3}, metadata={op_name="jit(predict_step)/_Model/Transformer/encoderblock_0/MultiHeadDotProductAttention_0/query/add" stack_frame_id=57}
  %add.490 = f32[8,196,12,64]{3,2,1,0} add(%dot_general.97, %add.489), metadata={op_name="jit(predict_step)/_Model/Transformer/encoderblock_0/MultiHeadDotProductAttention_0/query/add" stack_frame_id=57}
  %constant.18 = f32[] constant(8)
  %broadcast.14 = f32[8,196,12,64]{3,2,1,0} broadcast(%constant.18), dimensions={}
  %div.115 = f32[8,196,12,64]{3,2,1,0} divide(%add.490, %broadcast.14), metadata={op_name="jit(predict_step)/_Model/Transformer/encoderblock_0/MultiHeadDotProductAttention_0/div" stack_frame_id=58}
  %variables__Transformer____encoderblock_0____MultiHeadDotProductAttention_0____key____kernel__.1 = f32[768,12,64]{2,1,0} parameter(11), sharding={devices=[2,1,1]<=[2]}, frontend_attributes={xla.sdy.sharding="#sdy.sharding<@mesh, [{\"fsdp\"}, {}, {}]>"}, metadata={op_name="variables[\'Transformer\'][\'encoderblock_0\'][\'MultiHeadDotProductAttention_0\'][\'key\'][\'kernel\']"}
  %dot_general.98 = f32[8,196,12,64]{3,2,1,0} dot(%add.486, %variables__Transformer____encoderblock_0____MultiHeadDotProductAttention_0____key____kernel__.1), lhs_contracting_dims={2}, rhs_contracting_dims={0}, metadata={op_name="jit(predict_step)/_Model/Transformer/encoderblock_0/MultiHeadDotProductAttention_0/key/dot_general" stack_frame_id=60}
  %variables__Transformer____encoderblock_0____MultiHeadDotProductAttention_0____key____bias__.1 = f32[12,64]{1,0} parameter(10), sharding={devices=[2,1]<=[2]}, frontend_attributes={xla.sdy.sharding="#sdy.sharding<@mesh, [{\"fsdp\"}, {}]>"}, metadata={op_name="variables[\'Transformer\'][\'encoderblock_0\'][\'MultiHeadDotProductAttention_0\'][\'key\'][\'bias\']"}
  %reshape.130 = f32[1,1,12,64]{3,2,1,0} reshape(%variables__Transformer____encoderblock_0____MultiHeadDotProductAttention_0____key____bias__.1), metadata={op_name="jit(predict_step)/_Model/Transformer/encoderblock_0/MultiHeadDotProductAttention_0/key/reshape" stack_frame_id=61}
  %add.491 = f32[1,1,12,64]{3,2,1,0} broadcast(%reshape.130), dimensions={0,1,2,3}, metadata={op_name="jit(predict_step)/_Model/Transformer/encoderblock_0/MultiHeadDotProductAttention_0/key/add" stack_frame_id=62}
  %add.492 = f32[12,64]{1,0} reshape(%add.491), metadata={op_name="jit(predict_step)/_Model/Transformer/encoderblock_0/MultiHeadDotProductAttention_0/key/add" stack_frame_id=62}
  %add.493 = f32[8,196,12,64]{3,2,1,0} broadcast(%add.492), dimensions={2,3}, metadata={op_name="jit(predict_step)/_Model/Transformer/encoderblock_0/MultiHeadDotProductAttention_0/key/add" stack_frame_id=62}
  %add.494 = f32[8,196,12,64]{3,2,1,0} add(%dot_general.98, %add.493), metadata={op_name="jit(predict_step)/_Model/Transformer/encoderblock_0/MultiHeadDotProductAttention_0/key/add" stack_frame_id=62}
  %dot_general.100 = f32[8,12,196,196]{3,2,1,0} dot(%div.115, %add.494), lhs_batch_dims={0,2}, lhs_contracting_dims={3}, rhs_batch_dims={0,2}, rhs_contracting_dims={3}, metadata={op_name="jit(predict_step)/_Model/Transformer/encoderblock_0/MultiHeadDotProductAttention_0/...qhd,...khd->...hqk/dot_general" stack_frame_id=63}
  %constant.22 = f32[] constant(-inf)
  %reduce_max.84 = f32[8,12,196]{2,1,0} reduce(%dot_general.100, %constant.22), dimensions={3}, to_apply=%region_2.3, metadata={op_name="jit(predict_step)/_Model/Transformer/encoderblock_0/MultiHeadDotProductAttention_0/reduce_max" stack_frame_id=15}
  %constant.17 = f32[] constant(-inf)
  %broadcast.13 = f32[8,12,196]{2,1,0} broadcast(%constant.17), dimensions={}
  %max.38 = f32[8,12,196]{2,1,0} maximum(%reduce_max.84, %broadcast.13), metadata={op_name="jit(predict_step)/_Model/Transformer/encoderblock_0/MultiHeadDotProductAttention_0/max" stack_frame_id=15}
  %broadcast_in_dim.76 = f32[8,12,196,1]{3,2,1,0} reshape(%max.38), metadata={op_name="jit(predict_step)/_Model/Transformer/encoderblock_0/MultiHeadDotProductAttention_0/broadcast_in_dim" stack_frame_id=15}
  %sub.178 = f32[8,12,196,1]{3,2,1,0} broadcast(%broadcast_in_dim.76), dimensions={0,1,2,3}, metadata={op_name="jit(predict_step)/_Model/Transformer/encoderblock_0/MultiHeadDotProductAttention_0/sub" stack_frame_id=15}
  %sub.179 = f32[8,12,196]{2,1,0} reshape(%sub.178), metadata={op_name="jit(predict_step)/_Model/Transformer/encoderblock_0/MultiHeadDotProductAttention_0/sub" stack_frame_id=15}
  %sub.180 = f32[8,12,196,196]{3,2,1,0} broadcast(%sub.179), dimensions={0,1,2}, metadata={op_name="jit(predict_step)/_Model/Transformer/encoderblock_0/MultiHeadDotProductAttention_0/sub" stack_frame_id=15}
  %sub.181 = f32[8,12,196,196]{3,2,1,0} subtract(%dot_general.100, %sub.180), metadata={op_name="jit(predict_step)/_Model/Transformer/encoderblock_0/MultiHeadDotProductAttention_0/sub" stack_frame_id=15}
  %exp.12 = f32[8,12,196,196]{3,2,1,0} exponential(%sub.181), metadata={op_name="jit(predict_step)/_Model/Transformer/encoderblock_0/MultiHeadDotProductAttention_0/exp" stack_frame_id=15}
  %reduce_sum.443 = f32[8,12,196]{2,1,0} reduce(%exp.12, %constant.23), dimensions={3}, to_apply=%region_3.4, metadata={op_name="jit(predict_step)/_Model/Transformer/encoderblock_0/MultiHeadDotProductAttention_0/reduce_sum" stack_frame_id=15}
  %broadcast_in_dim.77 = f32[8,12,196,1]{3,2,1,0} reshape(%reduce_sum.443), metadata={op_name="jit(predict_step)/_Model/Transformer/encoderblock_0/MultiHeadDotProductAttention_0/broadcast_in_dim" stack_frame_id=15}
  %div.116 = f32[8,12,196,1]{3,2,1,0} broadcast(%broadcast_in_dim.77), dimensions={0,1,2,3}, metadata={op_name="jit(predict_step)/_Model/Transformer/encoderblock_0/MultiHeadDotProductAttention_0/div" stack_frame_id=15}
  %div.117 = f32[8,12,196]{2,1,0} reshape(%div.116), metadata={op_name="jit(predict_step)/_Model/Transformer/encoderblock_0/MultiHeadDotProductAttention_0/div" stack_frame_id=15}
  %div.118 = f32[8,12,196,196]{3,2,1,0} broadcast(%div.117), dimensions={0,1,2}, metadata={op_name="jit(predict_step)/_Model/Transformer/encoderblock_0/MultiHeadDotProductAttention_0/div" stack_frame_id=15}
  %div.119 = f32[8,12,196,196]{3,2,1,0} divide(%exp.12, %div.118), metadata={op_name="jit(predict_step)/_Model/Transformer/encoderblock_0/MultiHeadDotProductAttention_0/div" stack_frame_id=15}
  %dot_general.101 = f32[8,12,64,196]{3,2,1,0} dot(%add.498, %div.119), lhs_batch_dims={0,2}, lhs_contracting_dims={1}, rhs_batch_dims={0,1}, rhs_contracting_dims={3}, metadata={op_name="jit(predict_step)/_Model/Transformer/encoderblock_0/MultiHeadDotProductAttention_0/...hqk,...khd->...qhd/dot_general" stack_frame_id=64}
  %transpose.12 = f32[8,196,12,64]{1,3,2,0} transpose(%dot_general.101), dimensions={0,3,1,2}, metadata={op_name="jit(predict_step)/_Model/Transformer/encoderblock_0/MultiHeadDotProductAttention_0/...hqk,...khd->...qhd/transpose" stack_frame_id=64}
  %variables__Transformer____encoderblock_0____MultiHeadDotProductAttention_0____out____kernel__.1 = f32[12,64,768]{2,1,0} parameter(13), sharding={devices=[2,1,1]<=[2]}, frontend_attributes={xla.sdy.sharding="#sdy.sharding<@mesh, [{\"fsdp\"}, {}, {}]>"}, metadata={op_name="variables[\'Transformer\'][\'encoderblock_0\'][\'MultiHeadDotProductAttention_0\'][\'out\'][\'kernel\']"}
  %dot_general.102 = f32[8,196,768]{2,1,0} dot(%transpose.12, %variables__Transformer____encoderblock_0____MultiHeadDotProductAttention_0____out____kernel__.1), lhs_contracting_dims={2,3}, rhs_contracting_dims={0,1}, metadata={op_name="jit(predict_step)/_Model/Transformer/encoderblock_0/MultiHeadDotProductAttention_0/out/dot_general" stack_frame_id=66}
  %variables__Transformer____encoderblock_0____MultiHeadDotProductAttention_0____out____bias__.1 = f32[768]{0} parameter(12), sharding={devices=[2]<=[2]}, frontend_attributes={xla.sdy.sharding="#sdy.sharding<@mesh, [{\"fsdp\"}]>"}, metadata={op_name="variables[\'Transformer\'][\'encoderblock_0\'][\'MultiHeadDotProductAttention_0\'][\'out\'][\'bias\']"}
  %reshape.132 = f32[1,1,768]{2,1,0} reshape(%variables__Transformer____encoderblock_0____MultiHeadDotProductAttention_0____out____bias__.1), metadata={op_name="jit(predict_step)/_Model/Transformer/encoderblock_0/MultiHeadDotProductAttention_0/out/reshape" stack_frame_id=67}
  %add.499 = f32[1,1,768]{2,1,0} broadcast(%reshape.132), dimensions={0,1,2}, metadata={op_name="jit(predict_step)/_Model/Transformer/encoderblock_0/MultiHeadDotProductAttention_0/out/add" stack_frame_id=68}
  %add.500 = f32[768]{0} reshape(%add.499), metadata={op_name="jit(predict_step)/_Model/Transformer/encoderblock_0/MultiHeadDotProductAttention_0/out/add" stack_frame_id=68}
  %add.501 = f32[8,196,768]{2,1,0} broadcast(%add.500), dimensions={2}, metadata={op_name="jit(predict_step)/_Model/Transformer/encoderblock_0/MultiHeadDotProductAttention_0/out/add" stack_frame_id=68}
  %add.502 = f32[8,196,768]{2,1,0} add(%dot_general.102, %add.501), metadata={op_name="jit(predict_step)/_Model/Transformer/encoderblock_0/MultiHeadDotProductAttention_0/out/add" stack_frame_id=68}
  %add.503 = f32[8,196,768]{2,1,0} add(%add.481, %add.502), metadata={op_name="jit(predict_step)/_Model/Transformer/encoderblock_0/add" stack_frame_id=69}
  %reduce_sum.444 = f32[8,196]{1,0} reduce(%add.503, %constant.23), dimensions={2}, to_apply=%region_4.5, metadata={op_name="jit(predict_step)/_Model/Transformer/encoderblock_0/LayerNorm_1/reduce_sum" stack_frame_id=20}
  %div.120 = f32[8,196]{1,0} divide(%reduce_sum.444, %broadcast.17), metadata={op_name="jit(predict_step)/_Model/Transformer/encoderblock_0/LayerNorm_1/div" stack_frame_id=20}
  %broadcast_in_dim.78 = f32[8,196,1]{2,1,0} reshape(%div.120), metadata={op_name="jit(predict_step)/_Model/Transformer/encoderblock_0/LayerNorm_1/broadcast_in_dim" stack_frame_id=71}
  %sub.183 = f32[8,196,1]{2,1,0} broadcast(%broadcast_in_dim.78), dimensions={0,1,2}, metadata={op_name="jit(predict_step)/_Model/Transformer/encoderblock_0/LayerNorm_1/sub" stack_frame_id=72}
  %sub.184 = f32[8,196]{1,0} reshape(%sub.183), metadata={op_name="jit(predict_step)/_Model/Transformer/encoderblock_0/LayerNorm_1/sub" stack_frame_id=72}
  %sub.185 = f32[8,196,768]{2,1,0} broadcast(%sub.184), dimensions={0,1}, metadata={op_name="jit(predict_step)/_Model/Transformer/encoderblock_0/LayerNorm_1/sub" stack_frame_id=72}
  %sub.186 = f32[8,196,768]{2,1,0} subtract(%add.503, %sub.185), metadata={op_name="jit(predict_step)/_Model/Transformer/encoderblock_0/LayerNorm_1/sub" stack_frame_id=72}
  %square.52 = f32[8,196,768]{2,1,0} multiply(%add.503, %add.503), metadata={op_name="jit(predict_step)/_Model/Transformer/encoderblock_0/LayerNorm_1/square" stack_frame_id=74}
  %reduce_sum.445 = f32[8,196]{1,0} reduce(%square.52, %constant.23), dimensions={2}, to_apply=%region_5.6, metadata={op_name="jit(predict_step)/_Model/Transformer/encoderblock_0/LayerNorm_1/reduce_sum" stack_frame_id=20}
  %div.121 = f32[8,196]{1,0} divide(%reduce_sum.445, %broadcast.17), metadata={op_name="jit(predict_step)/_Model/Transformer/encoderblock_0/LayerNorm_1/div" stack_frame_id=20}
  %square.53 = f32[8,196]{1,0} multiply(%div.120, %div.120), metadata={op_name="jit(predict_step)/_Model/Transformer/encoderblock_0/LayerNorm_1/square" stack_frame_id=76}
  %sub.182 = f32[8,196]{1,0} subtract(%div.121, %square.53), metadata={op_name="jit(predict_step)/_Model/Transformer/encoderblock_0/LayerNorm_1/sub" stack_frame_id=77}
  %max.39 = f32[8,196]{1,0} maximum(%sub.182, %broadcast.16), metadata={op_name="jit(predict_step)/_Model/Transformer/encoderblock_0/LayerNorm_1/max" stack_frame_id=78}
  %broadcast_in_dim.79 = f32[8,196,1]{2,1,0} reshape(%max.39), metadata={op_name="jit(predict_step)/_Model/Transformer/encoderblock_0/LayerNorm_1/broadcast_in_dim" stack_frame_id=79}
  %add.504 = f32[8,196,1]{2,1,0} add(%broadcast_in_dim.79, %broadcast.15), metadata={op_name="jit(predict_step)/_Model/Transformer/encoderblock_0/LayerNorm_1/add" stack_frame_id=80}
  %rsqrt.26 = f32[8,196,1]{2,1,0} rsqrt(%add.504), metadata={op_name="jit(predict_step)/_Model/Transformer/encoderblock_0/LayerNorm_1/rsqrt" stack_frame_id=81}
  %mul.256 = f32[8,196,1]{2,1,0} broadcast(%rsqrt.26), dimensions={0,1,2}, metadata={op_name="jit(predict_step)/_Model/Transformer/encoderblock_0/LayerNorm_1/mul" stack_frame_id=82}
  %mul.257 = f32[8,196]{1,0} reshape(%mul.256), metadata={op_name="jit(predict_step)/_Model/Transformer/encoderblock_0/LayerNorm_1/mul" stack_frame_id=82}
  %mul.258 = f32[8,196,768]{2,1,0} broadcast(%mul.257), dimensions={0,1}, metadata={op_name="jit(predict_step)/_Model/Transformer/encoderblock_0/LayerNorm_1/mul" stack_frame_id=82}
  %variables__Transformer____encoderblock_0____LayerNorm_1____scale__.1 = f32[768]{0} parameter(5), sharding={devices=[2]<=[2]}, frontend_attributes={xla.sdy.sharding="#sdy.sharding<@mesh, [{\"fsdp\"}]>"}, metadata={op_name="variables[\'Transformer\'][\'encoderblock_0\'][\'LayerNorm_1\'][\'scale\']"}
  %reshape.133 = f32[1,1,768]{2,1,0} reshape(%variables__Transformer____encoderblock_0____LayerNorm_1____scale__.1), metadata={op_name="jit(predict_step)/_Model/Transformer/encoderblock_0/LayerNorm_1/reshape" stack_frame_id=83}
  %mul.259 = f32[1,1,768]{2,1,0} broadcast(%reshape.133), dimensions={0,1,2}, metadata={op_name="jit(predict_step)/_Model/Transformer/encoderblock_0/LayerNorm_1/mul" stack_frame_id=82}
  %mul.260 = f32[768]{0} reshape(%mul.259), metadata={op_name="jit(predict_step)/_Model/Transformer/encoderblock_0/LayerNorm_1/mul" stack_frame_id=82}
  %mul.261 = f32[8,196,768]{2,1,0} broadcast(%mul.260), dimensions={2}, metadata={op_name="jit(predict_step)/_Model/Transformer/encoderblock_0/LayerNorm_1/mul" stack_frame_id=82}
  %mul.262 = f32[8,196,768]{2,1,0} multiply(%mul.258, %mul.261), metadata={op_name="jit(predict_step)/_Model/Transformer/encoderblock_0/LayerNorm_1/mul" stack_frame_id=82}
  %mul.263 = f32[8,196,768]{2,1,0} multiply(%sub.186, %mul.262), metadata={op_name="jit(predict_step)/_Model/Transformer/encoderblock_0/LayerNorm_1/mul" stack_frame_id=84}
  %variables__Transformer____encoderblock_0____LayerNorm_1____bias__.1 = f32[768]{0} parameter(4), sharding={devices=[2]<=[2]}, frontend_attributes={xla.sdy.sharding="#sdy.sharding<@mesh, [{\"fsdp\"}]>"}, metadata={op_name="variables[\'Transformer\'][\'encoderblock_0\'][\'LayerNorm_1\'][\'bias\']"}
  %reshape.134 = f32[1,1,768]{2,1,0} reshape(%variables__Transformer____encoderblock_0____LayerNorm_1____bias__.1), metadata={op_name="jit(predict_step)/_Model/Transformer/encoderblock_0/LayerNorm_1/reshape" stack_frame_id=85}
  %add.505 = f32[1,1,768]{2,1,0} broadcast(%reshape.134), dimensions={0,1,2}, metadata={op_name="jit(predict_step)/_Model/Transformer/encoderblock_0/LayerNorm_1/add" stack_frame_id=86}
  %add.506 = f32[768]{0} reshape(%add.505), metadata={op_name="jit(predict_step)/_Model/Transformer/encoderblock_0/LayerNorm_1/add" stack_frame_id=86}
  %add.507 = f32[8,196,768]{2,1,0} broadcast(%add.506), dimensions={2}, metadata={op_name="jit(predict_step)/_Model/Transformer/encoderblock_0/LayerNorm_1/add" stack_frame_id=86}
  %add.508 = f32[8,196,768]{2,1,0} add(%mul.263, %add.507), metadata={op_name="jit(predict_step)/_Model/Transformer/encoderblock_0/LayerNorm_1/add" stack_frame_id=86}
  %variables__Transformer____encoderblock_0____MlpBlock_0____Dense_0____kernel__.1 = f32[768,3072]{1,0} parameter(7), sharding={devices=[2,1]<=[2]}, frontend_attributes={xla.sdy.sharding="#sdy.sharding<@mesh, [{\"fsdp\"}, {}]>"}, metadata={op_name="variables[\'Transformer\'][\'encoderblock_0\'][\'MlpBlock_0\'][\'Dense_0\'][\'kernel\']"}
  %dot_general.103 = f32[8,196,3072]{2,1,0} dot(%add.508, %variables__Transformer____encoderblock_0____MlpBlock_0____Dense_0____kernel__.1), lhs_contracting_dims={2}, rhs_contracting_dims={0}, metadata={op_name="jit(predict_step)/_Model/Transformer/encoderblock_0/MlpBlock_0/Dense_0/dot_general" stack_frame_id=89}
  %variables__Transformer____encoderblock_0____MlpBlock_0____Dense_0____bias__.1 = f32[3072]{0} parameter(6), sharding={devices=[2]<=[2]}, frontend_attributes={xla.sdy.sharding="#sdy.sharding<@mesh, [{\"fsdp\"}]>"}, metadata={op_name="variables[\'Transformer\'][\'encoderblock_0\'][\'MlpBlock_0\'][\'Dense_0\'][\'bias\']"}
  %reshape.135 = f32[1,1,3072]{2,1,0} reshape(%variables__Transformer____encoderblock_0____MlpBlock_0____Dense_0____bias__.1), metadata={op_name="jit(predict_step)/_Model/Transformer/encoderblock_0/MlpBlock_0/Dense_0/reshape" stack_frame_id=90}
  %add.509 = f32[1,1,3072]{2,1,0} broadcast(%reshape.135), dimensions={0,1,2}, metadata={op_name="jit(predict_step)/_Model/Transformer/encoderblock_0/MlpBlock_0/Dense_0/add" stack_frame_id=91}
  %add.510 = f32[3072]{0} reshape(%add.509), metadata={op_name="jit(predict_step)/_Model/Transformer/encoderblock_0/MlpBlock_0/Dense_0/add" stack_frame_id=91}
  %add.511 = f32[8,196,3072]{2,1,0} broadcast(%add.510), dimensions={2}, metadata={op_name="jit(predict_step)/_Model/Transformer/encoderblock_0/MlpBlock_0/Dense_0/add" stack_frame_id=91}
  %add.512 = f32[8,196,3072]{2,1,0} add(%dot_general.103, %add.511), metadata={op_name="jit(predict_step)/_Model/Transformer/encoderblock_0/MlpBlock_0/Dense_0/add" stack_frame_id=91}
  %integer_pow.24 = f32[8,196,3072]{2,1,0} multiply(%add.512, %add.512), metadata={op_name="jit(predict_step)/_Model/Transformer/encoderblock_0/MlpBlock_0/integer_pow" stack_frame_id=92}
  %integer_pow.25 = f32[8,196,3072]{2,1,0} multiply(%integer_pow.24, %add.512), metadata={op_name="jit(predict_step)/_Model/Transformer/encoderblock_0/MlpBlock_0/integer_pow" stack_frame_id=92}
  %constant.16 = f32[] constant(0.044715)
  %broadcast.12 = f32[8,196,3072]{2,1,0} broadcast(%constant.16), dimensions={}
  %mul.264 = f32[8,196,3072]{2,1,0} multiply(%integer_pow.25, %broadcast.12), metadata={op_name="jit(predict_step)/_Model/Transformer/encoderblock_0/MlpBlock_0/mul" stack_frame_id=92}
  %add.513 = f32[8,196,3072]{2,1,0} add(%add.512, %mul.264), metadata={op_name="jit(predict_step)/_Model/Transformer/encoderblock_0/MlpBlock_0/add" stack_frame_id=92}
  %constant.15 = f32[] constant(0.797884583)
  %broadcast.11 = f32[8,196,3072]{2,1,0} broadcast(%constant.15), dimensions={}
  %mul.265 = f32[8,196,3072]{2,1,0} multiply(%add.513, %broadcast.11), metadata={op_name="jit(predict_step)/_Model/Transformer/encoderblock_0/MlpBlock_0/mul" stack_frame_id=92}
  %tanh.12 = f32[8,196,3072]{2,1,0} tanh(%mul.265), metadata={op_name="jit(predict_step)/_Model/Transformer/encoderblock_0/MlpBlock_0/tanh" stack_frame_id=92}
  %constant.14 = f32[] constant(1)
  %broadcast.10 = f32[8,196,3072]{2,1,0} broadcast(%constant.14), dimensions={}
  %add.514 = f32[8,196,3072]{2,1,0} add(%tanh.12, %broadcast.10), metadata={op_name="jit(predict_step)/_Model/Transformer/encoderblock_0/MlpBlock_0/add" stack_frame_id=92}
  %constant.13 = f32[] constant(0.5)
  %broadcast.9 = f32[8,196,3072]{2,1,0} broadcast(%constant.13), dimensions={}
  %mul.266 = f32[8,196,3072]{2,1,0} multiply(%add.514, %broadcast.9), metadata={op_name="jit(predict_step)/_Model/Transformer/encoderblock_0/MlpBlock_0/mul" stack_frame_id=92}
  %mul.267 = f32[8,196,3072]{2,1,0} multiply(%add.512, %mul.266), metadata={op_name="jit(predict_step)/_Model/Transformer/encoderblock_0/MlpBlock_0/mul" stack_frame_id=92}
  %variables__Transformer____encoderblock_0____MlpBlock_0____Dense_1____kernel__.1 = f32[3072,768]{1,0} parameter(9), sharding={devices=[2,1]<=[2]}, frontend_attributes={xla.sdy.sharding="#sdy.sharding<@mesh, [{\"fsdp\"}, {}]>"}, metadata={op_name="variables[\'Transformer\'][\'encoderblock_0\'][\'MlpBlock_0\'][\'Dense_1\'][\'kernel\']"}
  %dot_general.104 = f32[8,196,768]{2,1,0} dot(%mul.267, %variables__Transformer____encoderblock_0____MlpBlock_0____Dense_1____kernel__.1), lhs_contracting_dims={2}, rhs_contracting_dims={0}, metadata={op_name="jit(predict_step)/_Model/Transformer/encoderblock_0/MlpBlock_0/Dense_1/dot_general" stack_frame_id=94}
  %variables__Transformer____encoderblock_0____MlpBlock_0____Dense_1____bias__.1 = f32[768]{0} parameter(8), sharding={devices=[2]<=[2]}, frontend_attributes={xla.sdy.sharding="#sdy.sharding<@mesh, [{\"fsdp\"}]>"}, metadata={op_name="variables[\'Transformer\'][\'encoderblock_0\'][\'MlpBlock_0\'][\'Dense_1\'][\'bias\']"}
  %reshape.136 = f32[1,1,768]{2,1,0} reshape(%variables__Transformer____encoderblock_0____MlpBlock_0____Dense_1____bias__.1), metadata={op_name="jit(predict_step)/_Model/Transformer/encoderblock_0/MlpBlock_0/Dense_1/reshape" stack_frame_id=95}
  %add.515 = f32[1,1,768]{2,1,0} broadcast(%reshape.136), dimensions={0,1,2}, metadata={op_name="jit(predict_step)/_Model/Transformer/encoderblock_0/MlpBlock_0/Dense_1/add" stack_frame_id=96}
  %add.516 = f32[768]{0} reshape(%add.515), metadata={op_name="jit(predict_step)/_Model/Transformer/encoderblock_0/MlpBlock_0/Dense_1/add" stack_frame_id=96}
  %add.517 = f32[8,196,768]{2,1,0} broadcast(%add.516), dimensions={2}, metadata={op_name="jit(predict_step)/_Model/Transformer/encoderblock_0/MlpBlock_0/Dense_1/add" stack_frame_id=96}
  %add.518 = f32[8,196,768]{2,1,0} add(%dot_general.104, %add.517), metadata={op_name="jit(predict_step)/_Model/Transformer/encoderblock_0/MlpBlock_0/Dense_1/add" stack_frame_id=96}
  %add.519 = f32[8,196,768]{2,1,0} add(%add.503, %add.518), metadata={op_name="jit(predict_step)/_Model/Transformer/encoderblock_0/add" stack_frame_id=97}
  %reduce_sum.446 = f32[8,196]{1,0} reduce(%add.519, %constant.23), dimensions={2}, to_apply=%region_6.7, metadata={op_name="jit(predict_step)/_Model/Transformer/encoderblock_1/LayerNorm_0/reduce_sum" stack_frame_id=11}
  %div.122 = f32[8,196]{1,0} divide(%reduce_sum.446, %broadcast.17), metadata={op_name="jit(predict_step)/_Model/Transformer/encoderblock_1/LayerNorm_0/div" stack_frame_id=11}
  %broadcast_in_dim.80 = f32[8,196,1]{2,1,0} reshape(%div.122), metadata={op_name="jit(predict_step)/_Model/Transformer/encoderblock_1/LayerNorm_0/broadcast_in_dim" stack_frame_id=34}
  %sub.188 = f32[8,196,1]{2,1,0} broadcast(%broadcast_in_dim.80), dimensions={0,1,2}, metadata={op_name="jit(predict_step)/_Model/Transformer/encoderblock_1/LayerNorm_0/sub" stack_frame_id=35}
  %sub.189 = f32[8,196]{1,0} reshape(%sub.188), metadata={op_name="jit(predict_step)/_Model/Transformer/encoderblock_1/LayerNorm_0/sub" stack_frame_id=35}
  %sub.190 = f32[8,196,768]{2,1,0} broadcast(%sub.189), dimensions={0,1}, metadata={op_name="jit(predict_step)/_Model/Transformer/encoderblock_1/LayerNorm_0/sub" stack_frame_id=35}
  %sub.191 = f32[8,196,768]{2,1,0} subtract(%add.519, %sub.190), metadata={op_name="jit(predict_step)/_Model/Transformer/encoderblock_1/LayerNorm_0/sub" stack_frame_id=35}
  %square.54 = f32[8,196,768]{2,1,0} multiply(%add.519, %add.519), metadata={op_name="jit(predict_step)/_Model/Transformer/encoderblock_1/LayerNorm_0/square" stack_frame_id=37}
  %reduce_sum.447 = f32[8,196]{1,0} reduce(%square.54, %constant.23), dimensions={2}, to_apply=%region_7.8, metadata={op_name="jit(predict_step)/_Model/Transformer/encoderblock_1/LayerNorm_0/reduce_sum" stack_frame_id=11}
  %div.123 = f32[8,196]{1,0} divide(%reduce_sum.447, %broadcast.17), metadata={op_name="jit(predict_step)/_Model/Transformer/encoderblock_1/LayerNorm_0/div" stack_frame_id=11}
  %square.55 = f32[8,196]{1,0} multiply(%div.122, %div.122), metadata={op_name="jit(predict_step)/_Model/Transformer/encoderblock_1/LayerNorm_0/square" stack_frame_id=39}
  %sub.187 = f32[8,196]{1,0} subtract(%div.123, %square.55), metadata={op_name="jit(predict_step)/_Model/Transformer/encoderblock_1/LayerNorm_0/sub" stack_frame_id=40}
  %max.40 = f32[8,196]{1,0} maximum(%sub.187, %broadcast.16), metadata={op_name="jit(predict_step)/_Model/Transformer/encoderblock_1/LayerNorm_0/max" stack_frame_id=41}
  %broadcast_in_dim.81 = f32[8,196,1]{2,1,0} reshape(%max.40), metadata={op_name="jit(predict_step)/_Model/Transformer/encoderblock_1/LayerNorm_0/broadcast_in_dim" stack_frame_id=42}
  %add.520 = f32[8,196,1]{2,1,0} add(%broadcast_in_dim.81, %broadcast.15), metadata={op_name="jit(predict_step)/_Model/Transformer/encoderblock_1/LayerNorm_0/add" stack_frame_id=43}
  %rsqrt.27 = f32[8,196,1]{2,1,0} rsqrt(%add.520), metadata={op_name="jit(predict_step)/_Model/Transformer/encoderblock_1/LayerNorm_0/rsqrt" stack_frame_id=44}
  %mul.268 = f32[8,196,1]{2,1,0} broadcast(%rsqrt.27), dimensions={0,1,2}, metadata={op_name="jit(predict_step)/_Model/Transformer/encoderblock_1/LayerNorm_0/mul" stack_frame_id=45}
  %mul.269 = f32[8,196]{1,0} reshape(%mul.268), metadata={op_name="jit(predict_step)/_Model/Transformer/encoderblock_1/LayerNorm_0/mul" stack_frame_id=45}
  %mul.270 = f32[8,196,768]{2,1,0} broadcast(%mul.269), dimensions={0,1}, metadata={op_name="jit(predict_step)/_Model/Transformer/encoderblock_1/LayerNorm_0/mul" stack_frame_id=45}
  %variables__Transformer____encoderblock_1____LayerNorm_0____scale__.1 = f32[768]{0} parameter(19), sharding={devices=[2]<=[2]}, frontend_attributes={xla.sdy.sharding="#sdy.sharding<@mesh, [{\"fsdp\"}]>"}, metadata={op_name="variables[\'Transformer\'][\'encoderblock_1\'][\'LayerNorm_0\'][\'scale\']"}
  %reshape.137 = f32[1,1,768]{2,1,0} reshape(%variables__Transformer____encoderblock_1____LayerNorm_0____scale__.1), metadata={op_name="jit(predict_step)/_Model/Transformer/encoderblock_1/LayerNorm_0/reshape" stack_frame_id=46}
  %mul.271 = f32[1,1,768]{2,1,0} broadcast(%reshape.137), dimensions={0,1,2}, metadata={op_name="jit(predict_step)/_Model/Transformer/encoderblock_1/LayerNorm_0/mul" stack_frame_id=45}
  %mul.272 = f32[768]{0} reshape(%mul.271), metadata={op_name="jit(predict_step)/_Model/Transformer/encoderblock_1/LayerNorm_0/mul" stack_frame_id=45}
  %mul.273 = f32[8,196,768]{2,1,0} broadcast(%mul.272), dimensions={2}, metadata={op_name="jit(predict_step)/_Model/Transformer/encoderblock_1/LayerNorm_0/mul" stack_frame_id=45}
  %mul.274 = f32[8,196,768]{2,1,0} multiply(%mul.270, %mul.273), metadata={op_name="jit(predict_step)/_Model/Transformer/encoderblock_1/LayerNorm_0/mul" stack_frame_id=45}
  %mul.275 = f32[8,196,768]{2,1,0} multiply(%sub.191, %mul.274), metadata={op_name="jit(predict_step)/_Model/Transformer/encoderblock_1/LayerNorm_0/mul" stack_frame_id=47}
  %variables__Transformer____encoderblock_1____LayerNorm_0____bias__.1 = f32[768]{0} parameter(18), sharding={devices=[2]<=[2]}, frontend_attributes={xla.sdy.sharding="#sdy.sharding<@mesh, [{\"fsdp\"}]>"}, metadata={op_name="variables[\'Transformer\'][\'encoderblock_1\'][\'LayerNorm_0\'][\'bias\']"}
  %reshape.138 = f32[1,1,768]{2,1,0} reshape(%variables__Transformer____encoderblock_1____LayerNorm_0____bias__.1), metadata={op_name="jit(predict_step)/_Model/Transformer/encoderblock_1/LayerNorm_0/reshape" stack_frame_id=48}
  %add.521 = f32[1,1,768]{2,1,0} broadcast(%reshape.138), dimensions={0,1,2}, metadata={op_name="jit(predict_step)/_Model/Transformer/encoderblock_1/LayerNorm_0/add" stack_frame_id=49}
  %add.522 = f32[768]{0} reshape(%add.521), metadata={op_name="jit(predict_step)/_Model/Transformer/encoderblock_1/LayerNorm_0/add" stack_frame_id=49}
  %add.523 = f32[8,196,768]{2,1,0} broadcast(%add.522), dimensions={2}, metadata={op_name="jit(predict_step)/_Model/Transformer/encoderblock_1/LayerNorm_0/add" stack_frame_id=49}
  %add.524 = f32[8,196,768]{2,1,0} add(%mul.275, %add.523), metadata={op_name="jit(predict_step)/_Model/Transformer/encoderblock_1/LayerNorm_0/add" stack_frame_id=49}
  %variables__Transformer____encoderblock_1____MultiHeadDotProductAttention_0____value____kernel__.1 = f32[768,12,64]{2,1,0} parameter(33), sharding={devices=[2,1,1]<=[2]}, frontend_attributes={xla.sdy.sharding="#sdy.sharding<@mesh, [{\"fsdp\"}, {}, {}]>"}, metadata={op_name="variables[\'Transformer\'][\'encoderblock_1\'][\'MultiHeadDotProductAttention_0\'][\'value\'][\'kernel\']"}
  %dot_general.107 = f32[8,196,12,64]{3,2,1,0} dot(%add.524, %variables__Transformer____encoderblock_1____MultiHeadDotProductAttention_0____value____kernel__.1), lhs_contracting_dims={2}, rhs_contracting_dims={0}, metadata={op_name="jit(predict_step)/_Model/Transformer/encoderblock_1/MultiHeadDotProductAttention_0/value/dot_general" stack_frame_id=51}
  %variables__Transformer____encoderblock_1____MultiHeadDotProductAttention_0____value____bias__.1 = f32[12,64]{1,0} parameter(32), sharding={devices=[2,1]<=[2]}, frontend_attributes={xla.sdy.sharding="#sdy.sharding<@mesh, [{\"fsdp\"}, {}]>"}, metadata={op_name="variables[\'Transformer\'][\'encoderblock_1\'][\'MultiHeadDotProductAttention_0\'][\'value\'][\'bias\']"}
  %reshape.141 = f32[1,1,12,64]{3,2,1,0} reshape(%variables__Transformer____encoderblock_1____MultiHeadDotProductAttention_0____value____bias__.1), metadata={op_name="jit(predict_step)/_Model/Transformer/encoderblock_1/MultiHeadDotProductAttention_0/value/reshape" stack_frame_id=52}
  %add.533 = f32[1,1,12,64]{3,2,1,0} broadcast(%reshape.141), dimensions={0,1,2,3}, metadata={op_name="jit(predict_step)/_Model/Transformer/encoderblock_1/MultiHeadDotProductAttention_0/value/add" stack_frame_id=53}
  %add.534 = f32[12,64]{1,0} reshape(%add.533), metadata={op_name="jit(predict_step)/_Model/Transformer/encoderblock_1/MultiHeadDotProductAttention_0/value/add" stack_frame_id=53}
  %add.535 = f32[8,196,12,64]{3,2,1,0} broadcast(%add.534), dimensions={2,3}, metadata={op_name="jit(predict_step)/_Model/Transformer/encoderblock_1/MultiHeadDotProductAttention_0/value/add" stack_frame_id=53}
  %add.536 = f32[8,196,12,64]{3,2,1,0} add(%dot_general.107, %add.535), metadata={op_name="jit(predict_step)/_Model/Transformer/encoderblock_1/MultiHeadDotProductAttention_0/value/add" stack_frame_id=53}
  %variables__Transformer____encoderblock_1____MultiHeadDotProductAttention_0____query____kernel__.1 = f32[768,12,64]{2,1,0} parameter(31), sharding={devices=[2,1,1]<=[2]}, frontend_attributes={xla.sdy.sharding="#sdy.sharding<@mesh, [{\"fsdp\"}, {}, {}]>"}, metadata={op_name="variables[\'Transformer\'][\'encoderblock_1\'][\'MultiHeadDotProductAttention_0\'][\'query\'][\'kernel\']"}
  %dot_general.105 = f32[8,196,12,64]{3,2,1,0} dot(%add.524, %variables__Transformer____encoderblock_1____MultiHeadDotProductAttention_0____query____kernel__.1), lhs_contracting_dims={2}, rhs_contracting_dims={0}, metadata={op_name="jit(predict_step)/_Model/Transformer/encoderblock_1/MultiHeadDotProductAttention_0/query/dot_general" stack_frame_id=55}
  %variables__Transformer____encoderblock_1____MultiHeadDotProductAttention_0____query____bias__.1 = f32[12,64]{1,0} parameter(30), sharding={devices=[2,1]<=[2]}, frontend_attributes={xla.sdy.sharding="#sdy.sharding<@mesh, [{\"fsdp\"}, {}]>"}, metadata={op_name="variables[\'Transformer\'][\'encoderblock_1\'][\'MultiHeadDotProductAttention_0\'][\'query\'][\'bias\']"}
  %reshape.139 = f32[1,1,12,64]{3,2,1,0} reshape(%variables__Transformer____encoderblock_1____MultiHeadDotProductAttention_0____query____bias__.1), metadata={op_name="jit(predict_step)/_Model/Transformer/encoderblock_1/MultiHeadDotProductAttention_0/query/reshape" stack_frame_id=56}
  %add.525 = f32[1,1,12,64]{3,2,1,0} broadcast(%reshape.139), dimensions={0,1,2,3}, metadata={op_name="jit(predict_step)/_Model/Transformer/encoderblock_1/MultiHeadDotProductAttention_0/query/add" stack_frame_id=57}
  %add.526 = f32[12,64]{1,0} reshape(%add.525), metadata={op_name="jit(predict_step)/_Model/Transformer/encoderblock_1/MultiHeadDotProductAttention_0/query/add" stack_frame_id=57}
  %add.527 = f32[8,196,12,64]{3,2,1,0} broadcast(%add.526), dimensions={2,3}, metadata={op_name="jit(predict_step)/_Model/Transformer/encoderblock_1/MultiHeadDotProductAttention_0/query/add" stack_frame_id=57}
  %add.528 = f32[8,196,12,64]{3,2,1,0} add(%dot_general.105, %add.527), metadata={op_name="jit(predict_step)/_Model/Transformer/encoderblock_1/MultiHeadDotProductAttention_0/query/add" stack_frame_id=57}
  %div.124 = f32[8,196,12,64]{3,2,1,0} divide(%add.528, %broadcast.14), metadata={op_name="jit(predict_step)/_Model/Transformer/encoderblock_1/MultiHeadDotProductAttention_0/div" stack_frame_id=58}
  %variables__Transformer____encoderblock_1____MultiHeadDotProductAttention_0____key____kernel__.1 = f32[768,12,64]{2,1,0} parameter(27), sharding={devices=[2,1,1]<=[2]}, frontend_attributes={xla.sdy.sharding="#sdy.sharding<@mesh, [{\"fsdp\"}, {}, {}]>"}, metadata={op_name="variables[\'Transformer\'][\'encoderblock_1\'][\'MultiHeadDotProductAttention_0\'][\'key\'][\'kernel\']"}
  %dot_general.106 = f32[8,196,12,64]{3,2,1,0} dot(%add.524, %variables__Transformer____encoderblock_1____MultiHeadDotProductAttention_0____key____kernel__.1), lhs_contracting_dims={2}, rhs_contracting_dims={0}, metadata={op_name="jit(predict_step)/_Model/Transformer/encoderblock_1/MultiHeadDotProductAttention_0/key/dot_general" stack_frame_id=60}
  %variables__Transformer____encoderblock_1____MultiHeadDotProductAttention_0____key____bias__.1 = f32[12,64]{1,0} parameter(26), sharding={devices=[2,1]<=[2]}, frontend_attributes={xla.sdy.sharding="#sdy.sharding<@mesh, [{\"fsdp\"}, {}]>"}, metadata={op_name="variables[\'Transformer\'][\'encoderblock_1\'][\'MultiHeadDotProductAttention_0\'][\'key\'][\'bias\']"}
  %reshape.140 = f32[1,1,12,64]{3,2,1,0} reshape(%variables__Transformer____encoderblock_1____MultiHeadDotProductAttention_0____key____bias__.1), metadata={op_name="jit(predict_step)/_Model/Transformer/encoderblock_1/MultiHeadDotProductAttention_0/key/reshape" stack_frame_id=61}
  %add.529 = f32[1,1,12,64]{3,2,1,0} broadcast(%reshape.140), dimensions={0,1,2,3}, metadata={op_name="jit(predict_step)/_Model/Transformer/encoderblock_1/MultiHeadDotProductAttention_0/key/add" stack_frame_id=62}
  %add.530 = f32[12,64]{1,0} reshape(%add.529), metadata={op_name="jit(predict_step)/_Model/Transformer/encoderblock_1/MultiHeadDotProductAttention_0/key/add" stack_frame_id=62}
  %add.531 = f32[8,196,12,64]{3,2,1,0} broadcast(%add.530), dimensions={2,3}, metadata={op_name="jit(predict_step)/_Model/Transformer/encoderblock_1/MultiHeadDotProductAttention_0/key/add" stack_frame_id=62}
  %add.532 = f32[8,196,12,64]{3,2,1,0} add(%dot_general.106, %add.531), metadata={op_name="jit(predict_step)/_Model/Transformer/encoderblock_1/MultiHeadDotProductAttention_0/key/add" stack_frame_id=62}
  %dot_general.108 = f32[8,12,196,196]{3,2,1,0} dot(%div.124, %add.532), lhs_batch_dims={0,2}, lhs_contracting_dims={3}, rhs_batch_dims={0,2}, rhs_contracting_dims={3}, metadata={op_name="jit(predict_step)/_Model/Transformer/encoderblock_1/MultiHeadDotProductAttention_0/...qhd,...khd->...hqk/dot_general" stack_frame_id=63}
  %reduce_max.85 = f32[8,12,196]{2,1,0} reduce(%dot_general.108, %constant.22), dimensions={3}, to_apply=%region_8.9, metadata={op_name="jit(predict_step)/_Model/Transformer/encoderblock_1/MultiHeadDotProductAttention_0/reduce_max" stack_frame_id=15}
  %max.41 = f32[8,12,196]{2,1,0} maximum(%reduce_max.85, %broadcast.13), metadata={op_name="jit(predict_step)/_Model/Transformer/encoderblock_1/MultiHeadDotProductAttention_0/max" stack_frame_id=15}
  %broadcast_in_dim.82 = f32[8,12,196,1]{3,2,1,0} reshape(%max.41), metadata={op_name="jit(predict_step)/_Model/Transformer/encoderblock_1/MultiHeadDotProductAttention_0/broadcast_in_dim" stack_frame_id=15}
  %sub.192 = f32[8,12,196,1]{3,2,1,0} broadcast(%broadcast_in_dim.82), dimensions={0,1,2,3}, metadata={op_name="jit(predict_step)/_Model/Transformer/encoderblock_1/MultiHeadDotProductAttention_0/sub" stack_frame_id=15}
  %sub.193 = f32[8,12,196]{2,1,0} reshape(%sub.192), metadata={op_name="jit(predict_step)/_Model/Transformer/encoderblock_1/MultiHeadDotProductAttention_0/sub" stack_frame_id=15}
  %sub.194 = f32[8,12,196,196]{3,2,1,0} broadcast(%sub.193), dimensions={0,1,2}, metadata={op_name="jit(predict_step)/_Model/Transformer/encoderblock_1/MultiHeadDotProductAttention_0/sub" stack_frame_id=15}
  %sub.195 = f32[8,12,196,196]{3,2,1,0} subtract(%dot_general.108, %sub.194), metadata={op_name="jit(predict_step)/_Model/Transformer/encoderblock_1/MultiHeadDotProductAttention_0/sub" stack_frame_id=15}
  %exp.13 = f32[8,12,196,196]{3,2,1,0} exponential(%sub.195), metadata={op_name="jit(predict_step)/_Model/Transformer/encoderblock_1/MultiHeadDotProductAttention_0/exp" stack_frame_id=15}
  %reduce_sum.448 = f32[8,12,196]{2,1,0} reduce(%exp.13, %constant.23), dimensions={3}, to_apply=%region_9.10, metadata={op_name="jit(predict_step)/_Model/Transformer/encoderblock_1/MultiHeadDotProductAttention_0/reduce_sum" stack_frame_id=15}
  %broadcast_in_dim.83 = f32[8,12,196,1]{3,2,1,0} reshape(%reduce_sum.448), metadata={op_name="jit(predict_step)/_Model/Transformer/encoderblock_1/MultiHeadDotProductAttention_0/broadcast_in_dim" stack_frame_id=15}
  %div.125 = f32[8,12,196,1]{3,2,1,0} broadcast(%broadcast_in_dim.83), dimensions={0,1,2,3}, metadata={op_name="jit(predict_step)/_Model/Transformer/encoderblock_1/MultiHeadDotProductAttention_0/div" stack_frame_id=15}
  %div.126 = f32[8,12,196]{2,1,0} reshape(%div.125), metadata={op_name="jit(predict_step)/_Model/Transformer/encoderblock_1/MultiHeadDotProductAttention_0/div" stack_frame_id=15}
  %div.127 = f32[8,12,196,196]{3,2,1,0} broadcast(%div.126), dimensions={0,1,2}, metadata={op_name="jit(predict_step)/_Model/Transformer/encoderblock_1/MultiHeadDotProductAttention_0/div" stack_frame_id=15}
  %div.128 = f32[8,12,196,196]{3,2,1,0} divide(%exp.13, %div.127), metadata={op_name="jit(predict_step)/_Model/Transformer/encoderblock_1/MultiHeadDotProductAttention_0/div" stack_frame_id=15}
  %dot_general.109 = f32[8,12,64,196]{3,2,1,0} dot(%add.536, %div.128), lhs_batch_dims={0,2}, lhs_contracting_dims={1}, rhs_batch_dims={0,1}, rhs_contracting_dims={3}, metadata={op_name="jit(predict_step)/_Model/Transformer/encoderblock_1/MultiHeadDotProductAttention_0/...hqk,...khd->...qhd/dot_general" stack_frame_id=64}
  %transpose.13 = f32[8,196,12,64]{1,3,2,0} transpose(%dot_general.109), dimensions={0,3,1,2}, metadata={op_name="jit(predict_step)/_Model/Transformer/encoderblock_1/MultiHeadDotProductAttention_0/...hqk,...khd->...qhd/transpose" stack_frame_id=64}
  %variables__Transformer____encoderblock_1____MultiHeadDotProductAttention_0____out____kernel__.1 = f32[12,64,768]{2,1,0} parameter(29), sharding={devices=[2,1,1]<=[2]}, frontend_attributes={xla.sdy.sharding="#sdy.sharding<@mesh, [{\"fsdp\"}, {}, {}]>"}, metadata={op_name="variables[\'Transformer\'][\'encoderblock_1\'][\'MultiHeadDotProductAttention_0\'][\'out\'][\'kernel\']"}
  %dot_general.110 = f32[8,196,768]{2,1,0} dot(%transpose.13, %variables__Transformer____encoderblock_1____MultiHeadDotProductAttention_0____out____kernel__.1), lhs_contracting_dims={2,3}, rhs_contracting_dims={0,1}, metadata={op_name="jit(predict_step)/_Model/Transformer/encoderblock_1/MultiHeadDotProductAttention_0/out/dot_general" stack_frame_id=66}
  %variables__Transformer____encoderblock_1____MultiHeadDotProductAttention_0____out____bias__.1 = f32[768]{0} parameter(28), sharding={devices=[2]<=[2]}, frontend_attributes={xla.sdy.sharding="#sdy.sharding<@mesh, [{\"fsdp\"}]>"}, metadata={op_name="variables[\'Transformer\'][\'encoderblock_1\'][\'MultiHeadDotProductAttention_0\'][\'out\'][\'bias\']"}
  %reshape.142 = f32[1,1,768]{2,1,0} reshape(%variables__Transformer____encoderblock_1____MultiHeadDotProductAttention_0____out____bias__.1), metadata={op_name="jit(predict_step)/_Model/Transformer/encoderblock_1/MultiHeadDotProductAttention_0/out/reshape" stack_frame_id=67}
  %add.537 = f32[1,1,768]{2,1,0} broadcast(%reshape.142), dimensions={0,1,2}, metadata={op_name="jit(predict_step)/_Model/Transformer/encoderblock_1/MultiHeadDotProductAttention_0/out/add" stack_frame_id=68}
  %add.538 = f32[768]{0} reshape(%add.537), metadata={op_name="jit(predict_step)/_Model/Transformer/encoderblock_1/MultiHeadDotProductAttention_0/out/add" stack_frame_id=68}
  %add.539 = f32[8,196,768]{2,1,0} broadcast(%add.538), dimensions={2}, metadata={op_name="jit(predict_step)/_Model/Transformer/encoderblock_1/MultiHeadDotProductAttention_0/out/add" stack_frame_id=68}
  %add.540 = f32[8,196,768]{2,1,0} add(%dot_general.110, %add.539), metadata={op_name="jit(predict_step)/_Model/Transformer/encoderblock_1/MultiHeadDotProductAttention_0/out/add" stack_frame_id=68}
  %add.541 = f32[8,196,768]{2,1,0} add(%add.519, %add.540), metadata={op_name="jit(predict_step)/_Model/Transformer/encoderblock_1/add" stack_frame_id=69}
  %reduce_sum.449 = f32[8,196]{1,0} reduce(%add.541, %constant.23), dimensions={2}, to_apply=%region_10.11, metadata={op_name="jit(predict_step)/_Model/Transformer/encoderblock_1/LayerNorm_1/reduce_sum" stack_frame_id=20}
  %div.129 = f32[8,196]{1,0} divide(%reduce_sum.449, %broadcast.17), metadata={op_name="jit(predict_step)/_Model/Transformer/encoderblock_1/LayerNorm_1/div" stack_frame_id=20}
  %broadcast_in_dim.84 = f32[8,196,1]{2,1,0} reshape(%div.129), metadata={op_name="jit(predict_step)/_Model/Transformer/encoderblock_1/LayerNorm_1/broadcast_in_dim" stack_frame_id=71}
  %sub.197 = f32[8,196,1]{2,1,0} broadcast(%broadcast_in_dim.84), dimensions={0,1,2}, metadata={op_name="jit(predict_step)/_Model/Transformer/encoderblock_1/LayerNorm_1/sub" stack_frame_id=72}
  %sub.198 = f32[8,196]{1,0} reshape(%sub.197), metadata={op_name="jit(predict_step)/_Model/Transformer/encoderblock_1/LayerNorm_1/sub" stack_frame_id=72}
  %sub.199 = f32[8,196,768]{2,1,0} broadcast(%sub.198), dimensions={0,1}, metadata={op_name="jit(predict_step)/_Model/Transformer/encoderblock_1/LayerNorm_1/sub" stack_frame_id=72}
  %sub.200 = f32[8,196,768]{2,1,0} subtract(%add.541, %sub.199), metadata={op_name="jit(predict_step)/_Model/Transformer/encoderblock_1/LayerNorm_1/sub" stack_frame_id=72}
  %square.56 = f32[8,196,768]{2,1,0} multiply(%add.541, %add.541), metadata={op_name="jit(predict_step)/_Model/Transformer/encoderblock_1/LayerNorm_1/square" stack_frame_id=74}
  %reduce_sum.450 = f32[8,196]{1,0} reduce(%square.56, %constant.23), dimensions={2}, to_apply=%region_11.12, metadata={op_name="jit(predict_step)/_Model/Transformer/encoderblock_1/LayerNorm_1/reduce_sum" stack_frame_id=20}
  %div.130 = f32[8,196]{1,0} divide(%reduce_sum.450, %broadcast.17), metadata={op_name="jit(predict_step)/_Model/Transformer/encoderblock_1/LayerNorm_1/div" stack_frame_id=20}
  %square.57 = f32[8,196]{1,0} multiply(%div.129, %div.129), metadata={op_name="jit(predict_step)/_Model/Transformer/encoderblock_1/LayerNorm_1/square" stack_frame_id=76}
  %sub.196 = f32[8,196]{1,0} subtract(%div.130, %square.57), metadata={op_name="jit(predict_step)/_Model/Transformer/encoderblock_1/LayerNorm_1/sub" stack_frame_id=77}
  %max.42 = f32[8,196]{1,0} maximum(%sub.196, %broadcast.16), metadata={op_name="jit(predict_step)/_Model/Transformer/encoderblock_1/LayerNorm_1/max" stack_frame_id=78}
  %broadcast_in_dim.85 = f32[8,196,1]{2,1,0} reshape(%max.42), metadata={op_name="jit(predict_step)/_Model/Transformer/encoderblock_1/LayerNorm_1/broadcast_in_dim" stack_frame_id=79}
  %add.542 = f32[8,196,1]{2,1,0} add(%broadcast_in_dim.85, %broadcast.15), metadata={op_name="jit(predict_step)/_Model/Transformer/encoderblock_1/LayerNorm_1/add" stack_frame_id=80}
  %rsqrt.28 = f32[8,196,1]{2,1,0} rsqrt(%add.542), metadata={op_name="jit(predict_step)/_Model/Transformer/encoderblock_1/LayerNorm_1/rsqrt" stack_frame_id=81}
  %mul.276 = f32[8,196,1]{2,1,0} broadcast(%rsqrt.28), dimensions={0,1,2}, metadata={op_name="jit(predict_step)/_Model/Transformer/encoderblock_1/LayerNorm_1/mul" stack_frame_id=82}
  %mul.277 = f32[8,196]{1,0} reshape(%mul.276), metadata={op_name="jit(predict_step)/_Model/Transformer/encoderblock_1/LayerNorm_1/mul" stack_frame_id=82}
  %mul.278 = f32[8,196,768]{2,1,0} broadcast(%mul.277), dimensions={0,1}, metadata={op_name="jit(predict_step)/_Model/Transformer/encoderblock_1/LayerNorm_1/mul" stack_frame_id=82}
  %variables__Transformer____encoderblock_1____LayerNorm_1____scale__.1 = f32[768]{0} parameter(21), sharding={devices=[2]<=[2]}, frontend_attributes={xla.sdy.sharding="#sdy.sharding<@mesh, [{\"fsdp\"}]>"}, metadata={op_name="variables[\'Transformer\'][\'encoderblock_1\'][\'LayerNorm_1\'][\'scale\']"}
  %reshape.143 = f32[1,1,768]{2,1,0} reshape(%variables__Transformer____encoderblock_1____LayerNorm_1____scale__.1), metadata={op_name="jit(predict_step)/_Model/Transformer/encoderblock_1/LayerNorm_1/reshape" stack_frame_id=83}
  %mul.279 = f32[1,1,768]{2,1,0} broadcast(%reshape.143), dimensions={0,1,2}, metadata={op_name="jit(predict_step)/_Model/Transformer/encoderblock_1/LayerNorm_1/mul" stack_frame_id=82}
  %mul.280 = f32[768]{0} reshape(%mul.279), metadata={op_name="jit(predict_step)/_Model/Transformer/encoderblock_1/LayerNorm_1/mul" stack_frame_id=82}
  %mul.281 = f32[8,196,768]{2,1,0} broadcast(%mul.280), dimensions={2}, metadata={op_name="jit(predict_step)/_Model/Transformer/encoderblock_1/LayerNorm_1/mul" stack_frame_id=82}
  %mul.282 = f32[8,196,768]{2,1,0} multiply(%mul.278, %mul.281), metadata={op_name="jit(predict_step)/_Model/Transformer/encoderblock_1/LayerNorm_1/mul" stack_frame_id=82}
  %mul.283 = f32[8,196,768]{2,1,0} multiply(%sub.200, %mul.282), metadata={op_name="jit(predict_step)/_Model/Transformer/encoderblock_1/LayerNorm_1/mul" stack_frame_id=84}
  %variables__Transformer____encoderblock_1____LayerNorm_1____bias__.1 = f32[768]{0} parameter(20), sharding={devices=[2]<=[2]}, frontend_attributes={xla.sdy.sharding="#sdy.sharding<@mesh, [{\"fsdp\"}]>"}, metadata={op_name="variables[\'Transformer\'][\'encoderblock_1\'][\'LayerNorm_1\'][\'bias\']"}
  %reshape.144 = f32[1,1,768]{2,1,0} reshape(%variables__Transformer____encoderblock_1____LayerNorm_1____bias__.1), metadata={op_name="jit(predict_step)/_Model/Transformer/encoderblock_1/LayerNorm_1/reshape" stack_frame_id=85}
  %add.543 = f32[1,1,768]{2,1,0} broadcast(%reshape.144), dimensions={0,1,2}, metadata={op_name="jit(predict_step)/_Model/Transformer/encoderblock_1/LayerNorm_1/add" stack_frame_id=86}
  %add.544 = f32[768]{0} reshape(%add.543), metadata={op_name="jit(predict_step)/_Model/Transformer/encoderblock_1/LayerNorm_1/add" stack_frame_id=86}
  %add.545 = f32[8,196,768]{2,1,0} broadcast(%add.544), dimensions={2}, metadata={op_name="jit(predict_step)/_Model/Transformer/encoderblock_1/LayerNorm_1/add" stack_frame_id=86}
  %add.546 = f32[8,196,768]{2,1,0} add(%mul.283, %add.545), metadata={op_name="jit(predict_step)/_Model/Transformer/encoderblock_1/LayerNorm_1/add" stack_frame_id=86}
  %variables__Transformer____encoderblock_1____MlpBlock_0____Dense_0____kernel__.1 = f32[768,3072]{1,0} parameter(23), sharding={devices=[2,1]<=[2]}, frontend_attributes={xla.sdy.sharding="#sdy.sharding<@mesh, [{\"fsdp\"}, {}]>"}, metadata={op_name="variables[\'Transformer\'][\'encoderblock_1\'][\'MlpBlock_0\'][\'Dense_0\'][\'kernel\']"}
  %dot_general.111 = f32[8,196,3072]{2,1,0} dot(%add.546, %variables__Transformer____encoderblock_1____MlpBlock_0____Dense_0____kernel__.1), lhs_contracting_dims={2}, rhs_contracting_dims={0}, metadata={op_name="jit(predict_step)/_Model/Transformer/encoderblock_1/MlpBlock_0/Dense_0/dot_general" stack_frame_id=89}
  %variables__Transformer____encoderblock_1____MlpBlock_0____Dense_0____bias__.1 = f32[3072]{0} parameter(22), sharding={devices=[2]<=[2]}, frontend_attributes={xla.sdy.sharding="#sdy.sharding<@mesh, [{\"fsdp\"}]>"}, metadata={op_name="variables[\'Transformer\'][\'encoderblock_1\'][\'MlpBlock_0\'][\'Dense_0\'][\'bias\']"}
  %reshape.145 = f32[1,1,3072]{2,1,0} reshape(%variables__Transformer____encoderblock_1____MlpBlock_0____Dense_0____bias__.1), metadata={op_name="jit(predict_step)/_Model/Transformer/encoderblock_1/MlpBlock_0/Dense_0/reshape" stack_frame_id=90}
  %add.547 = f32[1,1,3072]{2,1,0} broadcast(%reshape.145), dimensions={0,1,2}, metadata={op_name="jit(predict_step)/_Model/Transformer/encoderblock_1/MlpBlock_0/Dense_0/add" stack_frame_id=91}
  %add.548 = f32[3072]{0} reshape(%add.547), metadata={op_name="jit(predict_step)/_Model/Transformer/encoderblock_1/MlpBlock_0/Dense_0/add" stack_frame_id=91}
  %add.549 = f32[8,196,3072]{2,1,0} broadcast(%add.548), dimensions={2}, metadata={op_name="jit(predict_step)/_Model/Transformer/encoderblock_1/MlpBlock_0/Dense_0/add" stack_frame_id=91}
  %add.550 = f32[8,196,3072]{2,1,0} add(%dot_general.111, %add.549), metadata={op_name="jit(predict_step)/_Model/Transformer/encoderblock_1/MlpBlock_0/Dense_0/add" stack_frame_id=91}
  %integer_pow.26 = f32[8,196,3072]{2,1,0} multiply(%add.550, %add.550), metadata={op_name="jit(predict_step)/_Model/Transformer/encoderblock_1/MlpBlock_0/integer_pow" stack_frame_id=92}
  %integer_pow.27 = f32[8,196,3072]{2,1,0} multiply(%integer_pow.26, %add.550), metadata={op_name="jit(predict_step)/_Model/Transformer/encoderblock_1/MlpBlock_0/integer_pow" stack_frame_id=92}
  %mul.284 = f32[8,196,3072]{2,1,0} multiply(%integer_pow.27, %broadcast.12), metadata={op_name="jit(predict_step)/_Model/Transformer/encoderblock_1/MlpBlock_0/mul" stack_frame_id=92}
  %add.551 = f32[8,196,3072]{2,1,0} add(%add.550, %mul.284), metadata={op_name="jit(predict_step)/_Model/Transformer/encoderblock_1/MlpBlock_0/add" stack_frame_id=92}
  %mul.285 = f32[8,196,3072]{2,1,0} multiply(%add.551, %broadcast.11), metadata={op_name="jit(predict_step)/_Model/Transformer/encoderblock_1/MlpBlock_0/mul" stack_frame_id=92}
  %tanh.13 = f32[8,196,3072]{2,1,0} tanh(%mul.285), metadata={op_name="jit(predict_step)/_Model/Transformer/encoderblock_1/MlpBlock_0/tanh" stack_frame_id=92}
  %add.552 = f32[8,196,3072]{2,1,0} add(%tanh.13, %broadcast.10), metadata={op_name="jit(predict_step)/_Model/Transformer/encoderblock_1/MlpBlock_0/add" stack_frame_id=92}
  %mul.286 = f32[8,196,3072]{2,1,0} multiply(%add.552, %broadcast.9), metadata={op_name="jit(predict_step)/_Model/Transformer/encoderblock_1/MlpBlock_0/mul" stack_frame_id=92}
  %mul.287 = f32[8,196,3072]{2,1,0} multiply(%add.550, %mul.286), metadata={op_name="jit(predict_step)/_Model/Transformer/encoderblock_1/MlpBlock_0/mul" stack_frame_id=92}
  %variables__Transformer____encoderblock_1____MlpBlock_0____Dense_1____kernel__.1 = f32[3072,768]{1,0} parameter(25), sharding={devices=[2,1]<=[2]}, frontend_attributes={xla.sdy.sharding="#sdy.sharding<@mesh, [{\"fsdp\"}, {}]>"}, metadata={op_name="variables[\'Transformer\'][\'encoderblock_1\'][\'MlpBlock_0\'][\'Dense_1\'][\'kernel\']"}
  %dot_general.112 = f32[8,196,768]{2,1,0} dot(%mul.287, %variables__Transformer____encoderblock_1____MlpBlock_0____Dense_1____kernel__.1), lhs_contracting_dims={2}, rhs_contracting_dims={0}, metadata={op_name="jit(predict_step)/_Model/Transformer/encoderblock_1/MlpBlock_0/Dense_1/dot_general" stack_frame_id=94}
  %variables__Transformer____encoderblock_1____MlpBlock_0____Dense_1____bias__.1 = f32[768]{0} parameter(24), sharding={devices=[2]<=[2]}, frontend_attributes={xla.sdy.sharding="#sdy.sharding<@mesh, [{\"fsdp\"}]>"}, metadata={op_name="variables[\'Transformer\'][\'encoderblock_1\'][\'MlpBlock_0\'][\'Dense_1\'][\'bias\']"}
  %reshape.146 = f32[1,1,768]{2,1,0} reshape(%variables__Transformer____encoderblock_1____MlpBlock_0____Dense_1____bias__.1), metadata={op_name="jit(predict_step)/_Model/Transformer/encoderblock_1/MlpBlock_0/Dense_1/reshape" stack_frame_id=95}
  %add.553 = f32[1,1,768]{2,1,0} broadcast(%reshape.146), dimensions={0,1,2}, metadata={op_name="jit(predict_step)/_Model/Transformer/encoderblock_1/MlpBlock_0/Dense_1/add" stack_frame_id=96}
  %add.554 = f32[768]{0} reshape(%add.553), metadata={op_name="jit(predict_step)/_Model/Transformer/encoderblock_1/MlpBlock_0/Dense_1/add" stack_frame_id=96}
  %add.555 = f32[8,196,768]{2,1,0} broadcast(%add.554), dimensions={2}, metadata={op_name="jit(predict_step)/_Model/Transformer/encoderblock_1/MlpBlock_0/Dense_1/add" stack_frame_id=96}
  %add.556 = f32[8,196,768]{2,1,0} add(%dot_general.112, %add.555), metadata={op_name="jit(predict_step)/_Model/Transformer/encoderblock_1/MlpBlock_0/Dense_1/add" stack_frame_id=96}
  %add.557 = f32[8,196,768]{2,1,0} add(%add.541, %add.556), metadata={op_name="jit(predict_step)/_Model/Transformer/encoderblock_1/add" stack_frame_id=97}
  %reduce_sum.451 = f32[8,196]{1,0} reduce(%add.557, %constant.23), dimensions={2}, to_apply=%region_12.13, metadata={op_name="jit(predict_step)/_Model/Transformer/encoderblock_2/LayerNorm_0/reduce_sum" stack_frame_id=11}
  %div.131 = f32[8,196]{1,0} divide(%reduce_sum.451, %broadcast.17), metadata={op_name="jit(predict_step)/_Model/Transformer/encoderblock_2/LayerNorm_0/div" stack_frame_id=11}
  %broadcast_in_dim.86 = f32[8,196,1]{2,1,0} reshape(%div.131), metadata={op_name="jit(predict_step)/_Model/Transformer/encoderblock_2/LayerNorm_0/broadcast_in_dim" stack_frame_id=34}
  %sub.202 = f32[8,196,1]{2,1,0} broadcast(%broadcast_in_dim.86), dimensions={0,1,2}, metadata={op_name="jit(predict_step)/_Model/Transformer/encoderblock_2/LayerNorm_0/sub" stack_frame_id=35}
  %sub.203 = f32[8,196]{1,0} reshape(%sub.202), metadata={op_name="jit(predict_step)/_Model/Transformer/encoderblock_2/LayerNorm_0/sub" stack_frame_id=35}
  %sub.204 = f32[8,196,768]{2,1,0} broadcast(%sub.203), dimensions={0,1}, metadata={op_name="jit(predict_step)/_Model/Transformer/encoderblock_2/LayerNorm_0/sub" stack_frame_id=35}
  %sub.205 = f32[8,196,768]{2,1,0} subtract(%add.557, %sub.204), metadata={op_name="jit(predict_step)/_Model/Transformer/encoderblock_2/LayerNorm_0/sub" stack_frame_id=35}
  %square.58 = f32[8,196,768]{2,1,0} multiply(%add.557, %add.557), metadata={op_name="jit(predict_step)/_Model/Transformer/encoderblock_2/LayerNorm_0/square" stack_frame_id=37}
  %reduce_sum.452 = f32[8,196]{1,0} reduce(%square.58, %constant.23), dimensions={2}, to_apply=%region_13.14, metadata={op_name="jit(predict_step)/_Model/Transformer/encoderblock_2/LayerNorm_0/reduce_sum" stack_frame_id=11}
  %div.132 = f32[8,196]{1,0} divide(%reduce_sum.452, %broadcast.17), metadata={op_name="jit(predict_step)/_Model/Transformer/encoderblock_2/LayerNorm_0/div" stack_frame_id=11}
  %square.59 = f32[8,196]{1,0} multiply(%div.131, %div.131), metadata={op_name="jit(predict_step)/_Model/Transformer/encoderblock_2/LayerNorm_0/square" stack_frame_id=39}
  %sub.201 = f32[8,196]{1,0} subtract(%div.132, %square.59), metadata={op_name="jit(predict_step)/_Model/Transformer/encoderblock_2/LayerNorm_0/sub" stack_frame_id=40}
  %max.43 = f32[8,196]{1,0} maximum(%sub.201, %broadcast.16), metadata={op_name="jit(predict_step)/_Model/Transformer/encoderblock_2/LayerNorm_0/max" stack_frame_id=41}
  %broadcast_in_dim.87 = f32[8,196,1]{2,1,0} reshape(%max.43), metadata={op_name="jit(predict_step)/_Model/Transformer/encoderblock_2/LayerNorm_0/broadcast_in_dim" stack_frame_id=42}
  %add.558 = f32[8,196,1]{2,1,0} add(%broadcast_in_dim.87, %broadcast.15), metadata={op_name="jit(predict_step)/_Model/Transformer/encoderblock_2/LayerNorm_0/add" stack_frame_id=43}
  %rsqrt.29 = f32[8,196,1]{2,1,0} rsqrt(%add.558), metadata={op_name="jit(predict_step)/_Model/Transformer/encoderblock_2/LayerNorm_0/rsqrt" stack_frame_id=44}
  %mul.288 = f32[8,196,1]{2,1,0} broadcast(%rsqrt.29), dimensions={0,1,2}, metadata={op_name="jit(predict_step)/_Model/Transformer/encoderblock_2/LayerNorm_0/mul" stack_frame_id=45}
  %mul.289 = f32[8,196]{1,0} reshape(%mul.288), metadata={op_name="jit(predict_step)/_Model/Transformer/encoderblock_2/LayerNorm_0/mul" stack_frame_id=45}
  %mul.290 = f32[8,196,768]{2,1,0} broadcast(%mul.289), dimensions={0,1}, metadata={op_name="jit(predict_step)/_Model/Transformer/encoderblock_2/LayerNorm_0/mul" stack_frame_id=45}
  %variables__Transformer____encoderblock_2____LayerNorm_0____scale__.1 = f32[768]{0} parameter(67), sharding={devices=[2]<=[2]}, frontend_attributes={xla.sdy.sharding="#sdy.sharding<@mesh, [{\"fsdp\"}]>"}, metadata={op_name="variables[\'Transformer\'][\'encoderblock_2\'][\'LayerNorm_0\'][\'scale\']"}
  %reshape.147 = f32[1,1,768]{2,1,0} reshape(%variables__Transformer____encoderblock_2____LayerNorm_0____scale__.1), metadata={op_name="jit(predict_step)/_Model/Transformer/encoderblock_2/LayerNorm_0/reshape" stack_frame_id=46}
  %mul.291 = f32[1,1,768]{2,1,0} broadcast(%reshape.147), dimensions={0,1,2}, metadata={op_name="jit(predict_step)/_Model/Transformer/encoderblock_2/LayerNorm_0/mul" stack_frame_id=45}
  %mul.292 = f32[768]{0} reshape(%mul.291), metadata={op_name="jit(predict_step)/_Model/Transformer/encoderblock_2/LayerNorm_0/mul" stack_frame_id=45}
  %mul.293 = f32[8,196,768]{2,1,0} broadcast(%mul.292), dimensions={2}, metadata={op_name="jit(predict_step)/_Model/Transformer/encoderblock_2/LayerNorm_0/mul" stack_frame_id=45}
  %mul.294 = f32[8,196,768]{2,1,0} multiply(%mul.290, %mul.293), metadata={op_name="jit(predict_step)/_Model/Transformer/encoderblock_2/LayerNorm_0/mul" stack_frame_id=45}
  %mul.295 = f32[8,196,768]{2,1,0} multiply(%sub.205, %mul.294), metadata={op_name="jit(predict_step)/_Model/Transformer/encoderblock_2/LayerNorm_0/mul" stack_frame_id=47}
  %variables__Transformer____encoderblock_2____LayerNorm_0____bias__.1 = f32[768]{0} parameter(66), sharding={devices=[2]<=[2]}, frontend_attributes={xla.sdy.sharding="#sdy.sharding<@mesh, [{\"fsdp\"}]>"}, metadata={op_name="variables[\'Transformer\'][\'encoderblock_2\'][\'LayerNorm_0\'][\'bias\']"}
  %reshape.148 = f32[1,1,768]{2,1,0} reshape(%variables__Transformer____encoderblock_2____LayerNorm_0____bias__.1), metadata={op_name="jit(predict_step)/_Model/Transformer/encoderblock_2/LayerNorm_0/reshape" stack_frame_id=48}
  %add.559 = f32[1,1,768]{2,1,0} broadcast(%reshape.148), dimensions={0,1,2}, metadata={op_name="jit(predict_step)/_Model/Transformer/encoderblock_2/LayerNorm_0/add" stack_frame_id=49}
  %add.560 = f32[768]{0} reshape(%add.559), metadata={op_name="jit(predict_step)/_Model/Transformer/encoderblock_2/LayerNorm_0/add" stack_frame_id=49}
  %add.561 = f32[8,196,768]{2,1,0} broadcast(%add.560), dimensions={2}, metadata={op_name="jit(predict_step)/_Model/Transformer/encoderblock_2/LayerNorm_0/add" stack_frame_id=49}
  %add.562 = f32[8,196,768]{2,1,0} add(%mul.295, %add.561), metadata={op_name="jit(predict_step)/_Model/Transformer/encoderblock_2/LayerNorm_0/add" stack_frame_id=49}
  %variables__Transformer____encoderblock_2____MultiHeadDotProductAttention_0____value____kernel__.1 = f32[768,12,64]{2,1,0} parameter(81), sharding={devices=[2,1,1]<=[2]}, frontend_attributes={xla.sdy.sharding="#sdy.sharding<@mesh, [{\"fsdp\"}, {}, {}]>"}, metadata={op_name="variables[\'Transformer\'][\'encoderblock_2\'][\'MultiHeadDotProductAttention_0\'][\'value\'][\'kernel\']"}
  %dot_general.115 = f32[8,196,12,64]{3,2,1,0} dot(%add.562, %variables__Transformer____encoderblock_2____MultiHeadDotProductAttention_0____value____kernel__.1), lhs_contracting_dims={2}, rhs_contracting_dims={0}, metadata={op_name="jit(predict_step)/_Model/Transformer/encoderblock_2/MultiHeadDotProductAttention_0/value/dot_general" stack_frame_id=51}
  %variables__Transformer____encoderblock_2____MultiHeadDotProductAttention_0____value____bias__.1 = f32[12,64]{1,0} parameter(80), sharding={devices=[2,1]<=[2]}, frontend_attributes={xla.sdy.sharding="#sdy.sharding<@mesh, [{\"fsdp\"}, {}]>"}, metadata={op_name="variables[\'Transformer\'][\'encoderblock_2\'][\'MultiHeadDotProductAttention_0\'][\'value\'][\'bias\']"}
  %reshape.151 = f32[1,1,12,64]{3,2,1,0} reshape(%variables__Transformer____encoderblock_2____MultiHeadDotProductAttention_0____value____bias__.1), metadata={op_name="jit(predict_step)/_Model/Transformer/encoderblock_2/MultiHeadDotProductAttention_0/value/reshape" stack_frame_id=52}
  %add.571 = f32[1,1,12,64]{3,2,1,0} broadcast(%reshape.151), dimensions={0,1,2,3}, metadata={op_name="jit(predict_step)/_Model/Transformer/encoderblock_2/MultiHeadDotProductAttention_0/value/add" stack_frame_id=53}
  %add.572 = f32[12,64]{1,0} reshape(%add.571), metadata={op_name="jit(predict_step)/_Model/Transformer/encoderblock_2/MultiHeadDotProductAttention_0/value/add" stack_frame_id=53}
  %add.573 = f32[8,196,12,64]{3,2,1,0} broadcast(%add.572), dimensions={2,3}, metadata={op_name="jit(predict_step)/_Model/Transformer/encoderblock_2/MultiHeadDotProductAttention_0/value/add" stack_frame_id=53}
  %add.574 = f32[8,196,12,64]{3,2,1,0} add(%dot_general.115, %add.573), metadata={op_name="jit(predict_step)/_Model/Transformer/encoderblock_2/MultiHeadDotProductAttention_0/value/add" stack_frame_id=53}
  %variables__Transformer____encoderblock_2____MultiHeadDotProductAttention_0____query____kernel__.1 = f32[768,12,64]{2,1,0} parameter(79), sharding={devices=[2,1,1]<=[2]}, frontend_attributes={xla.sdy.sharding="#sdy.sharding<@mesh, [{\"fsdp\"}, {}, {}]>"}, metadata={op_name="variables[\'Transformer\'][\'encoderblock_2\'][\'MultiHeadDotProductAttention_0\'][\'query\'][\'kernel\']"}
  %dot_general.113 = f32[8,196,12,64]{3,2,1,0} dot(%add.562, %variables__Transformer____encoderblock_2____MultiHeadDotProductAttention_0____query____kernel__.1), lhs_contracting_dims={2}, rhs_contracting_dims={0}, metadata={op_name="jit(predict_step)/_Model/Transformer/encoderblock_2/MultiHeadDotProductAttention_0/query/dot_general" stack_frame_id=55}
  %variables__Transformer____encoderblock_2____MultiHeadDotProductAttention_0____query____bias__.1 = f32[12,64]{1,0} parameter(78), sharding={devices=[2,1]<=[2]}, frontend_attributes={xla.sdy.sharding="#sdy.sharding<@mesh, [{\"fsdp\"}, {}]>"}, metadata={op_name="variables[\'Transformer\'][\'encoderblock_2\'][\'MultiHeadDotProductAttention_0\'][\'query\'][\'bias\']"}
  %reshape.149 = f32[1,1,12,64]{3,2,1,0} reshape(%variables__Transformer____encoderblock_2____MultiHeadDotProductAttention_0____query____bias__.1), metadata={op_name="jit(predict_step)/_Model/Transformer/encoderblock_2/MultiHeadDotProductAttention_0/query/reshape" stack_frame_id=56}
  %add.563 = f32[1,1,12,64]{3,2,1,0} broadcast(%reshape.149), dimensions={0,1,2,3}, metadata={op_name="jit(predict_step)/_Model/Transformer/encoderblock_2/MultiHeadDotProductAttention_0/query/add" stack_frame_id=57}
  %add.564 = f32[12,64]{1,0} reshape(%add.563), metadata={op_name="jit(predict_step)/_Model/Transformer/encoderblock_2/MultiHeadDotProductAttention_0/query/add" stack_frame_id=57}
  %add.565 = f32[8,196,12,64]{3,2,1,0} broadcast(%add.564), dimensions={2,3}, metadata={op_name="jit(predict_step)/_Model/Transformer/encoderblock_2/MultiHeadDotProductAttention_0/query/add" stack_frame_id=57}
  %add.566 = f32[8,196,12,64]{3,2,1,0} add(%dot_general.113, %add.565), metadata={op_name="jit(predict_step)/_Model/Transformer/encoderblock_2/MultiHeadDotProductAttention_0/query/add" stack_frame_id=57}
  %div.133 = f32[8,196,12,64]{3,2,1,0} divide(%add.566, %broadcast.14), metadata={op_name="jit(predict_step)/_Model/Transformer/encoderblock_2/MultiHeadDotProductAttention_0/div" stack_frame_id=58}
  %variables__Transformer____encoderblock_2____MultiHeadDotProductAttention_0____key____kernel__.1 = f32[768,12,64]{2,1,0} parameter(75), sharding={devices=[2,1,1]<=[2]}, frontend_attributes={xla.sdy.sharding="#sdy.sharding<@mesh, [{\"fsdp\"}, {}, {}]>"}, metadata={op_name="variables[\'Transformer\'][\'encoderblock_2\'][\'MultiHeadDotProductAttention_0\'][\'key\'][\'kernel\']"}
  %dot_general.114 = f32[8,196,12,64]{3,2,1,0} dot(%add.562, %variables__Transformer____encoderblock_2____MultiHeadDotProductAttention_0____key____kernel__.1), lhs_contracting_dims={2}, rhs_contracting_dims={0}, metadata={op_name="jit(predict_step)/_Model/Transformer/encoderblock_2/MultiHeadDotProductAttention_0/key/dot_general" stack_frame_id=60}
  %variables__Transformer____encoderblock_2____MultiHeadDotProductAttention_0____key____bias__.1 = f32[12,64]{1,0} parameter(74), sharding={devices=[2,1]<=[2]}, frontend_attributes={xla.sdy.sharding="#sdy.sharding<@mesh, [{\"fsdp\"}, {}]>"}, metadata={op_name="variables[\'Transformer\'][\'encoderblock_2\'][\'MultiHeadDotProductAttention_0\'][\'key\'][\'bias\']"}
  %reshape.150 = f32[1,1,12,64]{3,2,1,0} reshape(%variables__Transformer____encoderblock_2____MultiHeadDotProductAttention_0____key____bias__.1), metadata={op_name="jit(predict_step)/_Model/Transformer/encoderblock_2/MultiHeadDotProductAttention_0/key/reshape" stack_frame_id=61}
  %add.567 = f32[1,1,12,64]{3,2,1,0} broadcast(%reshape.150), dimensions={0,1,2,3}, metadata={op_name="jit(predict_step)/_Model/Transformer/encoderblock_2/MultiHeadDotProductAttention_0/key/add" stack_frame_id=62}
  %add.568 = f32[12,64]{1,0} reshape(%add.567), metadata={op_name="jit(predict_step)/_Model/Transformer/encoderblock_2/MultiHeadDotProductAttention_0/key/add" stack_frame_id=62}
  %add.569 = f32[8,196,12,64]{3,2,1,0} broadcast(%add.568), dimensions={2,3}, metadata={op_name="jit(predict_step)/_Model/Transformer/encoderblock_2/MultiHeadDotProductAttention_0/key/add" stack_frame_id=62}
  %add.570 = f32[8,196,12,64]{3,2,1,0} add(%dot_general.114, %add.569), metadata={op_name="jit(predict_step)/_Model/Transformer/encoderblock_2/MultiHeadDotProductAttention_0/key/add" stack_frame_id=62}
  %dot_general.116 = f32[8,12,196,196]{3,2,1,0} dot(%div.133, %add.570), lhs_batch_dims={0,2}, lhs_contracting_dims={3}, rhs_batch_dims={0,2}, rhs_contracting_dims={3}, metadata={op_name="jit(predict_step)/_Model/Transformer/encoderblock_2/MultiHeadDotProductAttention_0/...qhd,...khd->...hqk/dot_general" stack_frame_id=63}
  %reduce_max.86 = f32[8,12,196]{2,1,0} reduce(%dot_general.116, %constant.22), dimensions={3}, to_apply=%region_14.15, metadata={op_name="jit(predict_step)/_Model/Transformer/encoderblock_2/MultiHeadDotProductAttention_0/reduce_max" stack_frame_id=15}
  %max.44 = f32[8,12,196]{2,1,0} maximum(%reduce_max.86, %broadcast.13), metadata={op_name="jit(predict_step)/_Model/Transformer/encoderblock_2/MultiHeadDotProductAttention_0/max" stack_frame_id=15}
  %broadcast_in_dim.88 = f32[8,12,196,1]{3,2,1,0} reshape(%max.44), metadata={op_name="jit(predict_step)/_Model/Transformer/encoderblock_2/MultiHeadDotProductAttention_0/broadcast_in_dim" stack_frame_id=15}
  %sub.206 = f32[8,12,196,1]{3,2,1,0} broadcast(%broadcast_in_dim.88), dimensions={0,1,2,3}, metadata={op_name="jit(predict_step)/_Model/Transformer/encoderblock_2/MultiHeadDotProductAttention_0/sub" stack_frame_id=15}
  %sub.207 = f32[8,12,196]{2,1,0} reshape(%sub.206), metadata={op_name="jit(predict_step)/_Model/Transformer/encoderblock_2/MultiHeadDotProductAttention_0/sub" stack_frame_id=15}
  %sub.208 = f32[8,12,196,196]{3,2,1,0} broadcast(%sub.207), dimensions={0,1,2}, metadata={op_name="jit(predict_step)/_Model/Transformer/encoderblock_2/MultiHeadDotProductAttention_0/sub" stack_frame_id=15}
  %sub.209 = f32[8,12,196,196]{3,2,1,0} subtract(%dot_general.116, %sub.208), metadata={op_name="jit(predict_step)/_Model/Transformer/encoderblock_2/MultiHeadDotProductAttention_0/sub" stack_frame_id=15}
  %exp.14 = f32[8,12,196,196]{3,2,1,0} exponential(%sub.209), metadata={op_name="jit(predict_step)/_Model/Transformer/encoderblock_2/MultiHeadDotProductAttention_0/exp" stack_frame_id=15}
  %reduce_sum.453 = f32[8,12,196]{2,1,0} reduce(%exp.14, %constant.23), dimensions={3}, to_apply=%region_15.16, metadata={op_name="jit(predict_step)/_Model/Transformer/encoderblock_2/MultiHeadDotProductAttention_0/reduce_sum" stack_frame_id=15}
  %broadcast_in_dim.89 = f32[8,12,196,1]{3,2,1,0} reshape(%reduce_sum.453), metadata={op_name="jit(predict_step)/_Model/Transformer/encoderblock_2/MultiHeadDotProductAttention_0/broadcast_in_dim" stack_frame_id=15}
  %div.134 = f32[8,12,196,1]{3,2,1,0} broadcast(%broadcast_in_dim.89), dimensions={0,1,2,3}, metadata={op_name="jit(predict_step)/_Model/Transformer/encoderblock_2/MultiHeadDotProductAttention_0/div" stack_frame_id=15}
  %div.135 = f32[8,12,196]{2,1,0} reshape(%div.134), metadata={op_name="jit(predict_step)/_Model/Transformer/encoderblock_2/MultiHeadDotProductAttention_0/div" stack_frame_id=15}
  %div.136 = f32[8,12,196,196]{3,2,1,0} broadcast(%div.135), dimensions={0,1,2}, metadata={op_name="jit(predict_step)/_Model/Transformer/encoderblock_2/MultiHeadDotProductAttention_0/div" stack_frame_id=15}
  %div.137 = f32[8,12,196,196]{3,2,1,0} divide(%exp.14, %div.136), metadata={op_name="jit(predict_step)/_Model/Transformer/encoderblock_2/MultiHeadDotProductAttention_0/div" stack_frame_id=15}
  %dot_general.117 = f32[8,12,64,196]{3,2,1,0} dot(%add.574, %div.137), lhs_batch_dims={0,2}, lhs_contracting_dims={1}, rhs_batch_dims={0,1}, rhs_contracting_dims={3}, metadata={op_name="jit(predict_step)/_Model/Transformer/encoderblock_2/MultiHeadDotProductAttention_0/...hqk,...khd->...qhd/dot_general" stack_frame_id=64}
  %transpose.14 = f32[8,196,12,64]{1,3,2,0} transpose(%dot_general.117), dimensions={0,3,1,2}, metadata={op_name="jit(predict_step)/_Model/Transformer/encoderblock_2/MultiHeadDotProductAttention_0/...hqk,...khd->...qhd/transpose" stack_frame_id=64}
  %variables__Transformer____encoderblock_2____MultiHeadDotProductAttention_0____out____kernel__.1 = f32[12,64,768]{2,1,0} parameter(77), sharding={devices=[2,1,1]<=[2]}, frontend_attributes={xla.sdy.sharding="#sdy.sharding<@mesh, [{\"fsdp\"}, {}, {}]>"}, metadata={op_name="variables[\'Transformer\'][\'encoderblock_2\'][\'MultiHeadDotProductAttention_0\'][\'out\'][\'kernel\']"}
  %dot_general.118 = f32[8,196,768]{2,1,0} dot(%transpose.14, %variables__Transformer____encoderblock_2____MultiHeadDotProductAttention_0____out____kernel__.1), lhs_contracting_dims={2,3}, rhs_contracting_dims={0,1}, metadata={op_name="jit(predict_step)/_Model/Transformer/encoderblock_2/MultiHeadDotProductAttention_0/out/dot_general" stack_frame_id=66}
  %variables__Transformer____encoderblock_2____MultiHeadDotProductAttention_0____out____bias__.1 = f32[768]{0} parameter(76), sharding={devices=[2]<=[2]}, frontend_attributes={xla.sdy.sharding="#sdy.sharding<@mesh, [{\"fsdp\"}]>"}, metadata={op_name="variables[\'Transformer\'][\'encoderblock_2\'][\'MultiHeadDotProductAttention_0\'][\'out\'][\'bias\']"}
  %reshape.152 = f32[1,1,768]{2,1,0} reshape(%variables__Transformer____encoderblock_2____MultiHeadDotProductAttention_0____out____bias__.1), metadata={op_name="jit(predict_step)/_Model/Transformer/encoderblock_2/MultiHeadDotProductAttention_0/out/reshape" stack_frame_id=67}
  %add.575 = f32[1,1,768]{2,1,0} broadcast(%reshape.152), dimensions={0,1,2}, metadata={op_name="jit(predict_step)/_Model/Transformer/encoderblock_2/MultiHeadDotProductAttention_0/out/add" stack_frame_id=68}
  %add.576 = f32[768]{0} reshape(%add.575), metadata={op_name="jit(predict_step)/_Model/Transformer/encoderblock_2/MultiHeadDotProductAttention_0/out/add" stack_frame_id=68}
  %add.577 = f32[8,196,768]{2,1,0} broadcast(%add.576), dimensions={2}, metadata={op_name="jit(predict_step)/_Model/Transformer/encoderblock_2/MultiHeadDotProductAttention_0/out/add" stack_frame_id=68}
  %add.578 = f32[8,196,768]{2,1,0} add(%dot_general.118, %add.577), metadata={op_name="jit(predict_step)/_Model/Transformer/encoderblock_2/MultiHeadDotProductAttention_0/out/add" stack_frame_id=68}
…
  %div.210 = f32[8,196]{1,0} divide(%reduce_sum.494, %broadcast.17), metadata={op_name="jit(predict_step)/_Model/Transformer/encoderblock_10/LayerNorm_1/div" stack_frame_id=20}
  %broadcast_in_dim.138 = f32[8,196,1]{2,1,0} reshape(%div.210), metadata={op_name="jit(predict_step)/_Model/Transformer/encoderblock_10/LayerNorm_1/broadcast_in_dim" stack_frame_id=71}
  %sub.323 = f32[8,196,1]{2,1,0} broadcast(%broadcast_in_dim.138), dimensions={0,1,2}, metadata={op_name="jit(predict_step)/_Model/Transformer/encoderblock_10/LayerNorm_1/sub" stack_frame_id=72}
  %sub.324 = f32[8,196]{1,0} reshape(%sub.323), metadata={op_name="jit(predict_step)/_Model/Transformer/encoderblock_10/LayerNorm_1/sub" stack_frame_id=72}
  %sub.325 = f32[8,196,768]{2,1,0} broadcast(%sub.324), dimensions={0,1}, metadata={op_name="jit(predict_step)/_Model/Transformer/encoderblock_10/LayerNorm_1/sub" stack_frame_id=72}
  %sub.326 = f32[8,196,768]{2,1,0} subtract(%add.883, %sub.325), metadata={op_name="jit(predict_step)/_Model/Transformer/encoderblock_10/LayerNorm_1/sub" stack_frame_id=72}
  %square.92 = f32[8,196,768]{2,1,0} multiply(%add.883, %add.883), metadata={op_name="jit(predict_step)/_Model/Transformer/encoderblock_10/LayerNorm_1/square" stack_frame_id=74}
  %reduce_sum.495 = f32[8,196]{1,0} reduce(%square.92, %constant.23), dimensions={2}, to_apply=%region_65.66, metadata={op_name="jit(predict_step)/_Model/Transformer/encoderblock_10/LayerNorm_1/reduce_sum" stack_frame_id=20}
  %div.211 = f32[8,196]{1,0} divide(%reduce_sum.495, %broadcast.17), metadata={op_name="jit(predict_step)/_Model/Transformer/encoderblock_10/LayerNorm_1/div" stack_frame_id=20}
  %square.93 = f32[8,196]{1,0} multiply(%div.210, %div.210), metadata={op_name="jit(predict_step)/_Model/Transformer/encoderblock_10/LayerNorm_1/square" stack_frame_id=76}
  %sub.322 = f32[8,196]{1,0} subtract(%div.211, %square.93), metadata={op_name="jit(predict_step)/_Model/Transformer/encoderblock_10/LayerNorm_1/sub" stack_frame_id=77}
  %max.69 = f32[8,196]{1,0} maximum(%sub.322, %broadcast.16), metadata={op_name="jit(predict_step)/_Model/Transformer/encoderblock_10/LayerNorm_1/max" stack_frame_id=78}
  %broadcast_in_dim.139 = f32[8,196,1]{2,1,0} reshape(%max.69), metadata={op_name="jit(predict_step)/_Model/Transformer/encoderblock_10/LayerNorm_1/broadcast_in_dim" stack_frame_id=79}
  %add.884 = f32[8,196,1]{2,1,0} add(%broadcast_in_dim.139, %broadcast.15), metadata={op_name="jit(predict_step)/_Model/Transformer/encoderblock_10/LayerNorm_1/add" stack_frame_id=80}
  %rsqrt.46 = f32[8,196,1]{2,1,0} rsqrt(%add.884), metadata={op_name="jit(predict_step)/_Model/Transformer/encoderblock_10/LayerNorm_1/rsqrt" stack_frame_id=81}
  %mul.456 = f32[8,196,1]{2,1,0} broadcast(%rsqrt.46), dimensions={0,1,2}, metadata={op_name="jit(predict_step)/_Model/Transformer/encoderblock_10/LayerNorm_1/mul" stack_frame_id=82}
  %mul.457 = f32[8,196]{1,0} reshape(%mul.456), metadata={op_name="jit(predict_step)/_Model/Transformer/encoderblock_10/LayerNorm_1/mul" stack_frame_id=82}
  %mul.458 = f32[8,196,768]{2,1,0} broadcast(%mul.457), dimensions={0,1}, metadata={op_name="jit(predict_step)/_Model/Transformer/encoderblock_10/LayerNorm_1/mul" stack_frame_id=82}
  %variables__Transformer____encoderblock_10____LayerNorm_1____scale__.1 = f32[768]{0} parameter(37), sharding={devices=[2]<=[2]}, frontend_attributes={xla.sdy.sharding="#sdy.sharding<@mesh, [{\"fsdp\"}]>"}, metadata={op_name="variables[\'Transformer\'][\'encoderblock_10\'][\'LayerNorm_1\'][\'scale\']"}
  %reshape.233 = f32[1,1,768]{2,1,0} reshape(%variables__Transformer____encoderblock_10____LayerNorm_1____scale__.1), metadata={op_name="jit(predict_step)/_Model/Transformer/encoderblock_10/LayerNorm_1/reshape" stack_frame_id=83}
  %mul.459 = f32[1,1,768]{2,1,0} broadcast(%reshape.233), dimensions={0,1,2}, metadata={op_name="jit(predict_step)/_Model/Transformer/encoderblock_10/LayerNorm_1/mul" stack_frame_id=82}
  %mul.460 = f32[768]{0} reshape(%mul.459), metadata={op_name="jit(predict_step)/_Model/Transformer/encoderblock_10/LayerNorm_1/mul" stack_frame_id=82}
  %mul.461 = f32[8,196,768]{2,1,0} broadcast(%mul.460), dimensions={2}, metadata={op_name="jit(predict_step)/_Model/Transformer/encoderblock_10/LayerNorm_1/mul" stack_frame_id=82}
  %mul.462 = f32[8,196,768]{2,1,0} multiply(%mul.458, %mul.461), metadata={op_name="jit(predict_step)/_Model/Transformer/encoderblock_10/LayerNorm_1/mul" stack_frame_id=82}
  %mul.463 = f32[8,196,768]{2,1,0} multiply(%sub.326, %mul.462), metadata={op_name="jit(predict_step)/_Model/Transformer/encoderblock_10/LayerNorm_1/mul" stack_frame_id=84}
  %variables__Transformer____encoderblock_10____LayerNorm_1____bias__.1 = f32[768]{0} parameter(36), sharding={devices=[2]<=[2]}, frontend_attributes={xla.sdy.sharding="#sdy.sharding<@mesh, [{\"fsdp\"}]>"}, metadata={op_name="variables[\'Transformer\'][\'encoderblock_10\'][\'LayerNorm_1\'][\'bias\']"}
  %reshape.234 = f32[1,1,768]{2,1,0} reshape(%variables__Transformer____encoderblock_10____LayerNorm_1____bias__.1), metadata={op_name="jit(predict_step)/_Model/Transformer/encoderblock_10/LayerNorm_1/reshape" stack_frame_id=85}
  %add.885 = f32[1,1,768]{2,1,0} broadcast(%reshape.234), dimensions={0,1,2}, metadata={op_name="jit(predict_step)/_Model/Transformer/encoderblock_10/LayerNorm_1/add" stack_frame_id=86}
  %add.886 = f32[768]{0} reshape(%add.885), metadata={op_name="jit(predict_step)/_Model/Transformer/encoderblock_10/LayerNorm_1/add" stack_frame_id=86}
  %add.887 = f32[8,196,768]{2,1,0} broadcast(%add.886), dimensions={2}, metadata={op_name="jit(predict_step)/_Model/Transformer/encoderblock_10/LayerNorm_1/add" stack_frame_id=86}
  %add.888 = f32[8,196,768]{2,1,0} add(%mul.463, %add.887), metadata={op_name="jit(predict_step)/_Model/Transformer/encoderblock_10/LayerNorm_1/add" stack_frame_id=86}
  %variables__Transformer____encoderblock_10____MlpBlock_0____Dense_0____kernel__.1 = f32[768,3072]{1,0} parameter(39), sharding={devices=[2,1]<=[2]}, frontend_attributes={xla.sdy.sharding="#sdy.sharding<@mesh, [{\"fsdp\"}, {}]>"}, metadata={op_name="variables[\'Transformer\'][\'encoderblock_10\'][\'MlpBlock_0\'][\'Dense_0\'][\'kernel\']"}
  %dot_general.183 = f32[8,196,3072]{2,1,0} dot(%add.888, %variables__Transformer____encoderblock_10____MlpBlock_0____Dense_0____kernel__.1), lhs_contracting_dims={2}, rhs_contracting_dims={0}, metadata={op_name="jit(predict_step)/_Model/Transformer/encoderblock_10/MlpBlock_0/Dense_0/dot_general" stack_frame_id=89}
  %variables__Transformer____encoderblock_10____MlpBlock_0____Dense_0____bias__.1 = f32[3072]{0} parameter(38), sharding={devices=[2]<=[2]}, frontend_attributes={xla.sdy.sharding="#sdy.sharding<@mesh, [{\"fsdp\"}]>"}, metadata={op_name="variables[\'Transformer\'][\'encoderblock_10\'][\'MlpBlock_0\'][\'Dense_0\'][\'bias\']"}
  %reshape.235 = f32[1,1,3072]{2,1,0} reshape(%variables__Transformer____encoderblock_10____MlpBlock_0____Dense_0____bias__.1), metadata={op_name="jit(predict_step)/_Model/Transformer/encoderblock_10/MlpBlock_0/Dense_0/reshape" stack_frame_id=90}
  %add.889 = f32[1,1,3072]{2,1,0} broadcast(%reshape.235), dimensions={0,1,2}, metadata={op_name="jit(predict_step)/_Model/Transformer/encoderblock_10/MlpBlock_0/Dense_0/add" stack_frame_id=91}
  %add.890 = f32[3072]{0} reshape(%add.889), metadata={op_name="jit(predict_step)/_Model/Transformer/encoderblock_10/MlpBlock_0/Dense_0/add" stack_frame_id=91}
  %add.891 = f32[8,196,3072]{2,1,0} broadcast(%add.890), dimensions={2}, metadata={op_name="jit(predict_step)/_Model/Transformer/encoderblock_10/MlpBlock_0/Dense_0/add" stack_frame_id=91}
  %add.892 = f32[8,196,3072]{2,1,0} add(%dot_general.183, %add.891), metadata={op_name="jit(predict_step)/_Model/Transformer/encoderblock_10/MlpBlock_0/Dense_0/add" stack_frame_id=91}
  %integer_pow.44 = f32[8,196,3072]{2,1,0} multiply(%add.892, %add.892), metadata={op_name="jit(predict_step)/_Model/Transformer/encoderblock_10/MlpBlock_0/integer_pow" stack_frame_id=92}
  %integer_pow.45 = f32[8,196,3072]{2,1,0} multiply(%integer_pow.44, %add.892), metadata={op_name="jit(predict_step)/_Model/Transformer/encoderblock_10/MlpBlock_0/integer_pow" stack_frame_id=92}
  %mul.464 = f32[8,196,3072]{2,1,0} multiply(%integer_pow.45, %broadcast.12), metadata={op_name="jit(predict_step)/_Model/Transformer/encoderblock_10/MlpBlock_0/mul" stack_frame_id=92}
  %add.893 = f32[8,196,3072]{2,1,0} add(%add.892, %mul.464), metadata={op_name="jit(predict_step)/_Model/Transformer/encoderblock_10/MlpBlock_0/add" stack_frame_id=92}
  %mul.465 = f32[8,196,3072]{2,1,0} multiply(%add.893, %broadcast.11), metadata={op_name="jit(predict_step)/_Model/Transformer/encoderblock_10/MlpBlock_0/mul" stack_frame_id=92}
  %tanh.22 = f32[8,196,3072]{2,1,0} tanh(%mul.465), metadata={op_name="jit(predict_step)/_Model/Transformer/encoderblock_10/MlpBlock_0/tanh" stack_frame_id=92}
  %add.894 = f32[8,196,3072]{2,1,0} add(%tanh.22, %broadcast.10), metadata={op_name="jit(predict_step)/_Model/Transformer/encoderblock_10/MlpBlock_0/add" stack_frame_id=92}
  %mul.466 = f32[8,196,3072]{2,1,0} multiply(%add.894, %broadcast.9), metadata={op_name="jit(predict_step)/_Model/Transformer/encoderblock_10/MlpBlock_0/mul" stack_frame_id=92}
  %mul.467 = f32[8,196,3072]{2,1,0} multiply(%add.892, %mul.466), metadata={op_name="jit(predict_step)/_Model/Transformer/encoderblock_10/MlpBlock_0/mul" stack_frame_id=92}
  %variables__Transformer____encoderblock_10____MlpBlock_0____Dense_1____kernel__.1 = f32[3072,768]{1,0} parameter(41), sharding={devices=[2,1]<=[2]}, frontend_attributes={xla.sdy.sharding="#sdy.sharding<@mesh, [{\"fsdp\"}, {}]>"}, metadata={op_name="variables[\'Transformer\'][\'encoderblock_10\'][\'MlpBlock_0\'][\'Dense_1\'][\'kernel\']"}
  %dot_general.184 = f32[8,196,768]{2,1,0} dot(%mul.467, %variables__Transformer____encoderblock_10____MlpBlock_0____Dense_1____kernel__.1), lhs_contracting_dims={2}, rhs_contracting_dims={0}, metadata={op_name="jit(predict_step)/_Model/Transformer/encoderblock_10/MlpBlock_0/Dense_1/dot_general" stack_frame_id=94}
  %variables__Transformer____encoderblock_10____MlpBlock_0____Dense_1____bias__.1 = f32[768]{0} parameter(40), sharding={devices=[2]<=[2]}, frontend_attributes={xla.sdy.sharding="#sdy.sharding<@mesh, [{\"fsdp\"}]>"}, metadata={op_name="variables[\'Transformer\'][\'encoderblock_10\'][\'MlpBlock_0\'][\'Dense_1\'][\'bias\']"}
  %reshape.236 = f32[1,1,768]{2,1,0} reshape(%variables__Transformer____encoderblock_10____MlpBlock_0____Dense_1____bias__.1), metadata={op_name="jit(predict_step)/_Model/Transformer/encoderblock_10/MlpBlock_0/Dense_1/reshape" stack_frame_id=95}
  %add.895 = f32[1,1,768]{2,1,0} broadcast(%reshape.236), dimensions={0,1,2}, metadata={op_name="jit(predict_step)/_Model/Transformer/encoderblock_10/MlpBlock_0/Dense_1/add" stack_frame_id=96}
  %add.896 = f32[768]{0} reshape(%add.895), metadata={op_name="jit(predict_step)/_Model/Transformer/encoderblock_10/MlpBlock_0/Dense_1/add" stack_frame_id=96}
  %add.897 = f32[8,196,768]{2,1,0} broadcast(%add.896), dimensions={2}, metadata={op_name="jit(predict_step)/_Model/Transformer/encoderblock_10/MlpBlock_0/Dense_1/add" stack_frame_id=96}
  %add.898 = f32[8,196,768]{2,1,0} add(%dot_general.184, %add.897), metadata={op_name="jit(predict_step)/_Model/Transformer/encoderblock_10/MlpBlock_0/Dense_1/add" stack_frame_id=96}
  %add.899 = f32[8,196,768]{2,1,0} add(%add.883, %add.898), metadata={op_name="jit(predict_step)/_Model/Transformer/encoderblock_10/add" stack_frame_id=97}
  %reduce_sum.496 = f32[8,196]{1,0} reduce(%add.899, %constant.23), dimensions={2}, to_apply=%region_66.67, metadata={op_name="jit(predict_step)/_Model/Transformer/encoderblock_11/LayerNorm_0/reduce_sum" stack_frame_id=11}
  %div.212 = f32[8,196]{1,0} divide(%reduce_sum.496, %broadcast.17), metadata={op_name="jit(predict_step)/_Model/Transformer/encoderblock_11/LayerNorm_0/div" stack_frame_id=11}
  %broadcast_in_dim.140 = f32[8,196,1]{2,1,0} reshape(%div.212), metadata={op_name="jit(predict_step)/_Model/Transformer/encoderblock_11/LayerNorm_0/broadcast_in_dim" stack_frame_id=34}
  %sub.328 = f32[8,196,1]{2,1,0} broadcast(%broadcast_in_dim.140), dimensions={0,1,2}, metadata={op_name="jit(predict_step)/_Model/Transformer/encoderblock_11/LayerNorm_0/sub" stack_frame_id=35}
  %sub.329 = f32[8,196]{1,0} reshape(%sub.328), metadata={op_name="jit(predict_step)/_Model/Transformer/encoderblock_11/LayerNorm_0/sub" stack_frame_id=35}
  %sub.330 = f32[8,196,768]{2,1,0} broadcast(%sub.329), dimensions={0,1}, metadata={op_name="jit(predict_step)/_Model/Transformer/encoderblock_11/LayerNorm_0/sub" stack_frame_id=35}
  %sub.331 = f32[8,196,768]{2,1,0} subtract(%add.899, %sub.330), metadata={op_name="jit(predict_step)/_Model/Transformer/encoderblock_11/LayerNorm_0/sub" stack_frame_id=35}
  %square.94 = f32[8,196,768]{2,1,0} multiply(%add.899, %add.899), metadata={op_name="jit(predict_step)/_Model/Transformer/encoderblock_11/LayerNorm_0/square" stack_frame_id=37}
  %reduce_sum.497 = f32[8,196]{1,0} reduce(%square.94, %constant.23), dimensions={2}, to_apply=%region_67.68, metadata={op_name="jit(predict_step)/_Model/Transformer/encoderblock_11/LayerNorm_0/reduce_sum" stack_frame_id=11}
  %div.213 = f32[8,196]{1,0} divide(%reduce_sum.497, %broadcast.17), metadata={op_name="jit(predict_step)/_Model/Transformer/encoderblock_11/LayerNorm_0/div" stack_frame_id=11}
  %square.95 = f32[8,196]{1,0} multiply(%div.212, %div.212), metadata={op_name="jit(predict_step)/_Model/Transformer/encoderblock_11/LayerNorm_0/square" stack_frame_id=39}
  %sub.327 = f32[8,196]{1,0} subtract(%div.213, %square.95), metadata={op_name="jit(predict_step)/_Model/Transformer/encoderblock_11/LayerNorm_0/sub" stack_frame_id=40}
  %max.70 = f32[8,196]{1,0} maximum(%sub.327, %broadcast.16), metadata={op_name="jit(predict_step)/_Model/Transformer/encoderblock_11/LayerNorm_0/max" stack_frame_id=41}
  %broadcast_in_dim.141 = f32[8,196,1]{2,1,0} reshape(%max.70), metadata={op_name="jit(predict_step)/_Model/Transformer/encoderblock_11/LayerNorm_0/broadcast_in_dim" stack_frame_id=42}
  %add.900 = f32[8,196,1]{2,1,0} add(%broadcast_in_dim.141, %broadcast.15), metadata={op_name="jit(predict_step)/_Model/Transformer/encoderblock_11/LayerNorm_0/add" stack_frame_id=43}
  %rsqrt.47 = f32[8,196,1]{2,1,0} rsqrt(%add.900), metadata={op_name="jit(predict_step)/_Model/Transformer/encoderblock_11/LayerNorm_0/rsqrt" stack_frame_id=44}
  %mul.468 = f32[8,196,1]{2,1,0} broadcast(%rsqrt.47), dimensions={0,1,2}, metadata={op_name="jit(predict_step)/_Model/Transformer/encoderblock_11/LayerNorm_0/mul" stack_frame_id=45}
  %mul.469 = f32[8,196]{1,0} reshape(%mul.468), metadata={op_name="jit(predict_step)/_Model/Transformer/encoderblock_11/LayerNorm_0/mul" stack_frame_id=45}
  %mul.470 = f32[8,196,768]{2,1,0} broadcast(%mul.469), dimensions={0,1}, metadata={op_name="jit(predict_step)/_Model/Transformer/encoderblock_11/LayerNorm_0/mul" stack_frame_id=45}
  %variables__Transformer____encoderblock_11____LayerNorm_0____scale__.1 = f32[768]{0} parameter(51), sharding={devices=[2]<=[2]}, frontend_attributes={xla.sdy.sharding="#sdy.sharding<@mesh, [{\"fsdp\"}]>"}, metadata={op_name="variables[\'Transformer\'][\'encoderblock_11\'][\'LayerNorm_0\'][\'scale\']"}
  %reshape.237 = f32[1,1,768]{2,1,0} reshape(%variables__Transformer____encoderblock_11____LayerNorm_0____scale__.1), metadata={op_name="jit(predict_step)/_Model/Transformer/encoderblock_11/LayerNorm_0/reshape" stack_frame_id=46}
  %mul.471 = f32[1,1,768]{2,1,0} broadcast(%reshape.237), dimensions={0,1,2}, metadata={op_name="jit(predict_step)/_Model/Transformer/encoderblock_11/LayerNorm_0/mul" stack_frame_id=45}
  %mul.472 = f32[768]{0} reshape(%mul.471), metadata={op_name="jit(predict_step)/_Model/Transformer/encoderblock_11/LayerNorm_0/mul" stack_frame_id=45}
  %mul.473 = f32[8,196,768]{2,1,0} broadcast(%mul.472), dimensions={2}, metadata={op_name="jit(predict_step)/_Model/Transformer/encoderblock_11/LayerNorm_0/mul" stack_frame_id=45}
  %mul.474 = f32[8,196,768]{2,1,0} multiply(%mul.470, %mul.473), metadata={op_name="jit(predict_step)/_Model/Transformer/encoderblock_11/LayerNorm_0/mul" stack_frame_id=45}
  %mul.475 = f32[8,196,768]{2,1,0} multiply(%sub.331, %mul.474), metadata={op_name="jit(predict_step)/_Model/Transformer/encoderblock_11/LayerNorm_0/mul" stack_frame_id=47}
  %variables__Transformer____encoderblock_11____LayerNorm_0____bias__.1 = f32[768]{0} parameter(50), sharding={devices=[2]<=[2]}, frontend_attributes={xla.sdy.sharding="#sdy.sharding<@mesh, [{\"fsdp\"}]>"}, metadata={op_name="variables[\'Transformer\'][\'encoderblock_11\'][\'LayerNorm_0\'][\'bias\']"}
  %reshape.238 = f32[1,1,768]{2,1,0} reshape(%variables__Transformer____encoderblock_11____LayerNorm_0____bias__.1), metadata={op_name="jit(predict_step)/_Model/Transformer/encoderblock_11/LayerNorm_0/reshape" stack_frame_id=48}
  %add.901 = f32[1,1,768]{2,1,0} broadcast(%reshape.238), dimensions={0,1,2}, metadata={op_name="jit(predict_step)/_Model/Transformer/encoderblock_11/LayerNorm_0/add" stack_frame_id=49}
  %add.902 = f32[768]{0} reshape(%add.901), metadata={op_name="jit(predict_step)/_Model/Transformer/encoderblock_11/LayerNorm_0/add" stack_frame_id=49}
  %add.903 = f32[8,196,768]{2,1,0} broadcast(%add.902), dimensions={2}, metadata={op_name="jit(predict_step)/_Model/Transformer/encoderblock_11/LayerNorm_0/add" stack_frame_id=49}
  %add.904 = f32[8,196,768]{2,1,0} add(%mul.475, %add.903), metadata={op_name="jit(predict_step)/_Model/Transformer/encoderblock_11/LayerNorm_0/add" stack_frame_id=49}
  %variables__Transformer____encoderblock_11____MultiHeadDotProductAttention_0____value____kernel__.1 = f32[768,12,64]{2,1,0} parameter(65), sharding={devices=[2,1,1]<=[2]}, frontend_attributes={xla.sdy.sharding="#sdy.sharding<@mesh, [{\"fsdp\"}, {}, {}]>"}, metadata={op_name="variables[\'Transformer\'][\'encoderblock_11\'][\'MultiHeadDotProductAttention_0\'][\'value\'][\'kernel\']"}
  %dot_general.187 = f32[8,196,12,64]{3,2,1,0} dot(%add.904, %variables__Transformer____encoderblock_11____MultiHeadDotProductAttention_0____value____kernel__.1), lhs_contracting_dims={2}, rhs_contracting_dims={0}, metadata={op_name="jit(predict_step)/_Model/Transformer/encoderblock_11/MultiHeadDotProductAttention_0/value/dot_general" stack_frame_id=51}
  %variables__Transformer____encoderblock_11____MultiHeadDotProductAttention_0____value____bias__.1 = f32[12,64]{1,0} parameter(64), sharding={devices=[2,1]<=[2]}, frontend_attributes={xla.sdy.sharding="#sdy.sharding<@mesh, [{\"fsdp\"}, {}]>"}, metadata={op_name="variables[\'Transformer\'][\'encoderblock_11\'][\'MultiHeadDotProductAttention_0\'][\'value\'][\'bias\']"}
  %reshape.241 = f32[1,1,12,64]{3,2,1,0} reshape(%variables__Transformer____encoderblock_11____MultiHeadDotProductAttention_0____value____bias__.1), metadata={op_name="jit(predict_step)/_Model/Transformer/encoderblock_11/MultiHeadDotProductAttention_0/value/reshape" stack_frame_id=52}
  %add.913 = f32[1,1,12,64]{3,2,1,0} broadcast(%reshape.241), dimensions={0,1,2,3}, metadata={op_name="jit(predict_step)/_Model/Transformer/encoderblock_11/MultiHeadDotProductAttention_0/value/add" stack_frame_id=53}
  %add.914 = f32[12,64]{1,0} reshape(%add.913), metadata={op_name="jit(predict_step)/_Model/Transformer/encoderblock_11/MultiHeadDotProductAttention_0/value/add" stack_frame_id=53}
  %add.915 = f32[8,196,12,64]{3,2,1,0} broadcast(%add.914), dimensions={2,3}, metadata={op_name="jit(predict_step)/_Model/Transformer/encoderblock_11/MultiHeadDotProductAttention_0/value/add" stack_frame_id=53}
  %add.916 = f32[8,196,12,64]{3,2,1,0} add(%dot_general.187, %add.915), metadata={op_name="jit(predict_step)/_Model/Transformer/encoderblock_11/MultiHeadDotProductAttention_0/value/add" stack_frame_id=53}
  %variables__Transformer____encoderblock_11____MultiHeadDotProductAttention_0____query____kernel__.1 = f32[768,12,64]{2,1,0} parameter(63), sharding={devices=[2,1,1]<=[2]}, frontend_attributes={xla.sdy.sharding="#sdy.sharding<@mesh, [{\"fsdp\"}, {}, {}]>"}, metadata={op_name="variables[\'Transformer\'][\'encoderblock_11\'][\'MultiHeadDotProductAttention_0\'][\'query\'][\'kernel\']"}
  %dot_general.185 = f32[8,196,12,64]{3,2,1,0} dot(%add.904, %variables__Transformer____encoderblock_11____MultiHeadDotProductAttention_0____query____kernel__.1), lhs_contracting_dims={2}, rhs_contracting_dims={0}, metadata={op_name="jit(predict_step)/_Model/Transformer/encoderblock_11/MultiHeadDotProductAttention_0/query/dot_general" stack_frame_id=55}
  %variables__Transformer____encoderblock_11____MultiHeadDotProductAttention_0____query____bias__.1 = f32[12,64]{1,0} parameter(62), sharding={devices=[2,1]<=[2]}, frontend_attributes={xla.sdy.sharding="#sdy.sharding<@mesh, [{\"fsdp\"}, {}]>"}, metadata={op_name="variables[\'Transformer\'][\'encoderblock_11\'][\'MultiHeadDotProductAttention_0\'][\'query\'][\'bias\']"}
  %reshape.239 = f32[1,1,12,64]{3,2,1,0} reshape(%variables__Transformer____encoderblock_11____MultiHeadDotProductAttention_0____query____bias__.1), metadata={op_name="jit(predict_step)/_Model/Transformer/encoderblock_11/MultiHeadDotProductAttention_0/query/reshape" stack_frame_id=56}
  %add.905 = f32[1,1,12,64]{3,2,1,0} broadcast(%reshape.239), dimensions={0,1,2,3}, metadata={op_name="jit(predict_step)/_Model/Transformer/encoderblock_11/MultiHeadDotProductAttention_0/query/add" stack_frame_id=57}
  %add.906 = f32[12,64]{1,0} reshape(%add.905), metadata={op_name="jit(predict_step)/_Model/Transformer/encoderblock_11/MultiHeadDotProductAttention_0/query/add" stack_frame_id=57}
  %add.907 = f32[8,196,12,64]{3,2,1,0} broadcast(%add.906), dimensions={2,3}, metadata={op_name="jit(predict_step)/_Model/Transformer/encoderblock_11/MultiHeadDotProductAttention_0/query/add" stack_frame_id=57}
  %add.908 = f32[8,196,12,64]{3,2,1,0} add(%dot_general.185, %add.907), metadata={op_name="jit(predict_step)/_Model/Transformer/encoderblock_11/MultiHeadDotProductAttention_0/query/add" stack_frame_id=57}
  %div.214 = f32[8,196,12,64]{3,2,1,0} divide(%add.908, %broadcast.14), metadata={op_name="jit(predict_step)/_Model/Transformer/encoderblock_11/MultiHeadDotProductAttention_0/div" stack_frame_id=58}
  %variables__Transformer____encoderblock_11____MultiHeadDotProductAttention_0____key____kernel__.1 = f32[768,12,64]{2,1,0} parameter(59), sharding={devices=[2,1,1]<=[2]}, frontend_attributes={xla.sdy.sharding="#sdy.sharding<@mesh, [{\"fsdp\"}, {}, {}]>"}, metadata={op_name="variables[\'Transformer\'][\'encoderblock_11\'][\'MultiHeadDotProductAttention_0\'][\'key\'][\'kernel\']"}
  %dot_general.186 = f32[8,196,12,64]{3,2,1,0} dot(%add.904, %variables__Transformer____encoderblock_11____MultiHeadDotProductAttention_0____key____kernel__.1), lhs_contracting_dims={2}, rhs_contracting_dims={0}, metadata={op_name="jit(predict_step)/_Model/Transformer/encoderblock_11/MultiHeadDotProductAttention_0/key/dot_general" stack_frame_id=60}
  %variables__Transformer____encoderblock_11____MultiHeadDotProductAttention_0____key____bias__.1 = f32[12,64]{1,0} parameter(58), sharding={devices=[2,1]<=[2]}, frontend_attributes={xla.sdy.sharding="#sdy.sharding<@mesh, [{\"fsdp\"}, {}]>"}, metadata={op_name="variables[\'Transformer\'][\'encoderblock_11\'][\'MultiHeadDotProductAttention_0\'][\'key\'][\'bias\']"}
  %reshape.240 = f32[1,1,12,64]{3,2,1,0} reshape(%variables__Transformer____encoderblock_11____MultiHeadDotProductAttention_0____key____bias__.1), metadata={op_name="jit(predict_step)/_Model/Transformer/encoderblock_11/MultiHeadDotProductAttention_0/key/reshape" stack_frame_id=61}
  %add.909 = f32[1,1,12,64]{3,2,1,0} broadcast(%reshape.240), dimensions={0,1,2,3}, metadata={op_name="jit(predict_step)/_Model/Transformer/encoderblock_11/MultiHeadDotProductAttention_0/key/add" stack_frame_id=62}
  %add.910 = f32[12,64]{1,0} reshape(%add.909), metadata={op_name="jit(predict_step)/_Model/Transformer/encoderblock_11/MultiHeadDotProductAttention_0/key/add" stack_frame_id=62}
  %add.911 = f32[8,196,12,64]{3,2,1,0} broadcast(%add.910), dimensions={2,3}, metadata={op_name="jit(predict_step)/_Model/Transformer/encoderblock_11/MultiHeadDotProductAttention_0/key/add" stack_frame_id=62}
  %add.912 = f32[8,196,12,64]{3,2,1,0} add(%dot_general.186, %add.911), metadata={op_name="jit(predict_step)/_Model/Transformer/encoderblock_11/MultiHeadDotProductAttention_0/key/add" stack_frame_id=62}
  %dot_general.188 = f32[8,12,196,196]{3,2,1,0} dot(%div.214, %add.912), lhs_batch_dims={0,2}, lhs_contracting_dims={3}, rhs_batch_dims={0,2}, rhs_contracting_dims={3}, metadata={op_name="jit(predict_step)/_Model/Transformer/encoderblock_11/MultiHeadDotProductAttention_0/...qhd,...khd->...hqk/dot_general" stack_frame_id=63}
  %reduce_max.95 = f32[8,12,196]{2,1,0} reduce(%dot_general.188, %constant.22), dimensions={3}, to_apply=%region_68.69, metadata={op_name="jit(predict_step)/_Model/Transformer/encoderblock_11/MultiHeadDotProductAttention_0/reduce_max" stack_frame_id=15}
  %max.71 = f32[8,12,196]{2,1,0} maximum(%reduce_max.95, %broadcast.13), metadata={op_name="jit(predict_step)/_Model/Transformer/encoderblock_11/MultiHeadDotProductAttention_0/max" stack_frame_id=15}
  %broadcast_in_dim.142 = f32[8,12,196,1]{3,2,1,0} reshape(%max.71), metadata={op_name="jit(predict_step)/_Model/Transformer/encoderblock_11/MultiHeadDotProductAttention_0/broadcast_in_dim" stack_frame_id=15}
  %sub.332 = f32[8,12,196,1]{3,2,1,0} broadcast(%broadcast_in_dim.142), dimensions={0,1,2,3}, metadata={op_name="jit(predict_step)/_Model/Transformer/encoderblock_11/MultiHeadDotProductAttention_0/sub" stack_frame_id=15}
  %sub.333 = f32[8,12,196]{2,1,0} reshape(%sub.332), metadata={op_name="jit(predict_step)/_Model/Transformer/encoderblock_11/MultiHeadDotProductAttention_0/sub" stack_frame_id=15}
  %sub.334 = f32[8,12,196,196]{3,2,1,0} broadcast(%sub.333), dimensions={0,1,2}, metadata={op_name="jit(predict_step)/_Model/Transformer/encoderblock_11/MultiHeadDotProductAttention_0/sub" stack_frame_id=15}
  %sub.335 = f32[8,12,196,196]{3,2,1,0} subtract(%dot_general.188, %sub.334), metadata={op_name="jit(predict_step)/_Model/Transformer/encoderblock_11/MultiHeadDotProductAttention_0/sub" stack_frame_id=15}
  %exp.23 = f32[8,12,196,196]{3,2,1,0} exponential(%sub.335), metadata={op_name="jit(predict_step)/_Model/Transformer/encoderblock_11/MultiHeadDotProductAttention_0/exp" stack_frame_id=15}
  %reduce_sum.498 = f32[8,12,196]{2,1,0} reduce(%exp.23, %constant.23), dimensions={3}, to_apply=%region_69.70, metadata={op_name="jit(predict_step)/_Model/Transformer/encoderblock_11/MultiHeadDotProductAttention_0/reduce_sum" stack_frame_id=15}
  %broadcast_in_dim.143 = f32[8,12,196,1]{3,2,1,0} reshape(%reduce_sum.498), metadata={op_name="jit(predict_step)/_Model/Transformer/encoderblock_11/MultiHeadDotProductAttention_0/broadcast_in_dim" stack_frame_id=15}
  %div.215 = f32[8,12,196,1]{3,2,1,0} broadcast(%broadcast_in_dim.143), dimensions={0,1,2,3}, metadata={op_name="jit(predict_step)/_Model/Transformer/encoderblock_11/MultiHeadDotProductAttention_0/div" stack_frame_id=15}
  %div.216 = f32[8,12,196]{2,1,0} reshape(%div.215), metadata={op_name="jit(predict_step)/_Model/Transformer/encoderblock_11/MultiHeadDotProductAttention_0/div" stack_frame_id=15}
  %div.217 = f32[8,12,196,196]{3,2,1,0} broadcast(%div.216), dimensions={0,1,2}, metadata={op_name="jit(predict_step)/_Model/Transformer/encoderblock_11/MultiHeadDotProductAttention_0/div" stack_frame_id=15}
  %div.218 = f32[8,12,196,196]{3,2,1,0} divide(%exp.23, %div.217), metadata={op_name="jit(predict_step)/_Model/Transformer/encoderblock_11/MultiHeadDotProductAttention_0/div" stack_frame_id=15}
  %dot_general.189 = f32[8,12,64,196]{3,2,1,0} dot(%add.916, %div.218), lhs_batch_dims={0,2}, lhs_contracting_dims={1}, rhs_batch_dims={0,1}, rhs_contracting_dims={3}, metadata={op_name="jit(predict_step)/_Model/Transformer/encoderblock_11/MultiHeadDotProductAttention_0/...hqk,...khd->...qhd/dot_general" stack_frame_id=64}
  %transpose.23 = f32[8,196,12,64]{1,3,2,0} transpose(%dot_general.189), dimensions={0,3,1,2}, metadata={op_name="jit(predict_step)/_Model/Transformer/encoderblock_11/MultiHeadDotProductAttention_0/...hqk,...khd->...qhd/transpose" stack_frame_id=64}
  %variables__Transformer____encoderblock_11____MultiHeadDotProductAttention_0____out____kernel__.1 = f32[12,64,768]{2,1,0} parameter(61), sharding={devices=[2,1,1]<=[2]}, frontend_attributes={xla.sdy.sharding="#sdy.sharding<@mesh, [{\"fsdp\"}, {}, {}]>"}, metadata={op_name="variables[\'Transformer\'][\'encoderblock_11\'][\'MultiHeadDotProductAttention_0\'][\'out\'][\'kernel\']"}
  %dot_general.190 = f32[8,196,768]{2,1,0} dot(%transpose.23, %variables__Transformer____encoderblock_11____MultiHeadDotProductAttention_0____out____kernel__.1), lhs_contracting_dims={2,3}, rhs_contracting_dims={0,1}, metadata={op_name="jit(predict_step)/_Model/Transformer/encoderblock_11/MultiHeadDotProductAttention_0/out/dot_general" stack_frame_id=66}
  %variables__Transformer____encoderblock_11____MultiHeadDotProductAttention_0____out____bias__.1 = f32[768]{0} parameter(60), sharding={devices=[2]<=[2]}, frontend_attributes={xla.sdy.sharding="#sdy.sharding<@mesh, [{\"fsdp\"}]>"}, metadata={op_name="variables[\'Transformer\'][\'encoderblock_11\'][\'MultiHeadDotProductAttention_0\'][\'out\'][\'bias\']"}
  %reshape.242 = f32[1,1,768]{2,1,0} reshape(%variables__Transformer____encoderblock_11____MultiHeadDotProductAttention_0____out____bias__.1), metadata={op_name="jit(predict_step)/_Model/Transformer/encoderblock_11/MultiHeadDotProductAttention_0/out/reshape" stack_frame_id=67}
  %add.917 = f32[1,1,768]{2,1,0} broadcast(%reshape.242), dimensions={0,1,2}, metadata={op_name="jit(predict_step)/_Model/Transformer/encoderblock_11/MultiHeadDotProductAttention_0/out/add" stack_frame_id=68}
  %add.918 = f32[768]{0} reshape(%add.917), metadata={op_name="jit(predict_step)/_Model/Transformer/encoderblock_11/MultiHeadDotProductAttention_0/out/add" stack_frame_id=68}
  %add.919 = f32[8,196,768]{2,1,0} broadcast(%add.918), dimensions={2}, metadata={op_name="jit(predict_step)/_Model/Transformer/encoderblock_11/MultiHeadDotProductAttention_0/out/add" stack_frame_id=68}
  %add.920 = f32[8,196,768]{2,1,0} add(%dot_general.190, %add.919), metadata={op_name="jit(predict_step)/_Model/Transformer/encoderblock_11/MultiHeadDotProductAttention_0/out/add" stack_frame_id=68}
  %add.921 = f32[8,196,768]{2,1,0} add(%add.899, %add.920), metadata={op_name="jit(predict_step)/_Model/Transformer/encoderblock_11/add" stack_frame_id=69}
  %reduce_sum.499 = f32[8,196]{1,0} reduce(%add.921, %constant.23), dimensions={2}, to_apply=%region_70.71, metadata={op_name="jit(predict_step)/_Model/Transformer/encoderblock_11/LayerNorm_1/reduce_sum" stack_frame_id=20}
  %div.219 = f32[8,196]{1,0} divide(%reduce_sum.499, %broadcast.17), metadata={op_name="jit(predict_step)/_Model/Transformer/encoderblock_11/LayerNorm_1/div" stack_frame_id=20}
  %broadcast_in_dim.144 = f32[8,196,1]{2,1,0} reshape(%div.219), metadata={op_name="jit(predict_step)/_Model/Transformer/encoderblock_11/LayerNorm_1/broadcast_in_dim" stack_frame_id=71}
  %sub.337 = f32[8,196,1]{2,1,0} broadcast(%broadcast_in_dim.144), dimensions={0,1,2}, metadata={op_name="jit(predict_step)/_Model/Transformer/encoderblock_11/LayerNorm_1/sub" stack_frame_id=72}
  %sub.338 = f32[8,196]{1,0} reshape(%sub.337), metadata={op_name="jit(predict_step)/_Model/Transformer/encoderblock_11/LayerNorm_1/sub" stack_frame_id=72}
  %sub.339 = f32[8,196,768]{2,1,0} broadcast(%sub.338), dimensions={0,1}, metadata={op_name="jit(predict_step)/_Model/Transformer/encoderblock_11/LayerNorm_1/sub" stack_frame_id=72}
  %sub.340 = f32[8,196,768]{2,1,0} subtract(%add.921, %sub.339), metadata={op_name="jit(predict_step)/_Model/Transformer/encoderblock_11/LayerNorm_1/sub" stack_frame_id=72}
  %square.96 = f32[8,196,768]{2,1,0} multiply(%add.921, %add.921), metadata={op_name="jit(predict_step)/_Model/Transformer/encoderblock_11/LayerNorm_1/square" stack_frame_id=74}
  %reduce_sum.500 = f32[8,196]{1,0} reduce(%square.96, %constant.23), dimensions={2}, to_apply=%region_71.72, metadata={op_name="jit(predict_step)/_Model/Transformer/encoderblock_11/LayerNorm_1/reduce_sum" stack_frame_id=20}
  %div.220 = f32[8,196]{1,0} divide(%reduce_sum.500, %broadcast.17), metadata={op_name="jit(predict_step)/_Model/Transformer/encoderblock_11/LayerNorm_1/div" stack_frame_id=20}
  %square.97 = f32[8,196]{1,0} multiply(%div.219, %div.219), metadata={op_name="jit(predict_step)/_Model/Transformer/encoderblock_11/LayerNorm_1/square" stack_frame_id=76}
  %sub.336 = f32[8,196]{1,0} subtract(%div.220, %square.97), metadata={op_name="jit(predict_step)/_Model/Transformer/encoderblock_11/LayerNorm_1/sub" stack_frame_id=77}
  %max.72 = f32[8,196]{1,0} maximum(%sub.336, %broadcast.16), metadata={op_name="jit(predict_step)/_Model/Transformer/encoderblock_11/LayerNorm_1/max" stack_frame_id=78}
  %broadcast_in_dim.145 = f32[8,196,1]{2,1,0} reshape(%max.72), metadata={op_name="jit(predict_step)/_Model/Transformer/encoderblock_11/LayerNorm_1/broadcast_in_dim" stack_frame_id=79}
  %add.922 = f32[8,196,1]{2,1,0} add(%broadcast_in_dim.145, %broadcast.15), metadata={op_name="jit(predict_step)/_Model/Transformer/encoderblock_11/LayerNorm_1/add" stack_frame_id=80}
  %rsqrt.48 = f32[8,196,1]{2,1,0} rsqrt(%add.922), metadata={op_name="jit(predict_step)/_Model/Transformer/encoderblock_11/LayerNorm_1/rsqrt" stack_frame_id=81}
  %mul.476 = f32[8,196,1]{2,1,0} broadcast(%rsqrt.48), dimensions={0,1,2}, metadata={op_name="jit(predict_step)/_Model/Transformer/encoderblock_11/LayerNorm_1/mul" stack_frame_id=82}
  %mul.477 = f32[8,196]{1,0} reshape(%mul.476), metadata={op_name="jit(predict_step)/_Model/Transformer/encoderblock_11/LayerNorm_1/mul" stack_frame_id=82}
  %mul.478 = f32[8,196,768]{2,1,0} broadcast(%mul.477), dimensions={0,1}, metadata={op_name="jit(predict_step)/_Model/Transformer/encoderblock_11/LayerNorm_1/mul" stack_frame_id=82}
  %variables__Transformer____encoderblock_11____LayerNorm_1____scale__.1 = f32[768]{0} parameter(53), sharding={devices=[2]<=[2]}, frontend_attributes={xla.sdy.sharding="#sdy.sharding<@mesh, [{\"fsdp\"}]>"}, metadata={op_name="variables[\'Transformer\'][\'encoderblock_11\'][\'LayerNorm_1\'][\'scale\']"}
  %reshape.243 = f32[1,1,768]{2,1,0} reshape(%variables__Transformer____encoderblock_11____LayerNorm_1____scale__.1), metadata={op_name="jit(predict_step)/_Model/Transformer/encoderblock_11/LayerNorm_1/reshape" stack_frame_id=83}
  %mul.479 = f32[1,1,768]{2,1,0} broadcast(%reshape.243), dimensions={0,1,2}, metadata={op_name="jit(predict_step)/_Model/Transformer/encoderblock_11/LayerNorm_1/mul" stack_frame_id=82}
  %mul.480 = f32[768]{0} reshape(%mul.479), metadata={op_name="jit(predict_step)/_Model/Transformer/encoderblock_11/LayerNorm_1/mul" stack_frame_id=82}
  %mul.481 = f32[8,196,768]{2,1,0} broadcast(%mul.480), dimensions={2}, metadata={op_name="jit(predict_step)/_Model/Transformer/encoderblock_11/LayerNorm_1/mul" stack_frame_id=82}
  %mul.482 = f32[8,196,768]{2,1,0} multiply(%mul.478, %mul.481), metadata={op_name="jit(predict_step)/_Model/Transformer/encoderblock_11/LayerNorm_1/mul" stack_frame_id=82}
  %mul.483 = f32[8,196,768]{2,1,0} multiply(%sub.340, %mul.482), metadata={op_name="jit(predict_step)/_Model/Transformer/encoderblock_11/LayerNorm_1/mul" stack_frame_id=84}
  %variables__Transformer____encoderblock_11____LayerNorm_1____bias__.1 = f32[768]{0} parameter(52), sharding={devices=[2]<=[2]}, frontend_attributes={xla.sdy.sharding="#sdy.sharding<@mesh, [{\"fsdp\"}]>"}, metadata={op_name="variables[\'Transformer\'][\'encoderblock_11\'][\'LayerNorm_1\'][\'bias\']"}
  %reshape.244 = f32[1,1,768]{2,1,0} reshape(%variables__Transformer____encoderblock_11____LayerNorm_1____bias__.1), metadata={op_name="jit(predict_step)/_Model/Transformer/encoderblock_11/LayerNorm_1/reshape" stack_frame_id=85}
  %add.923 = f32[1,1,768]{2,1,0} broadcast(%reshape.244), dimensions={0,1,2}, metadata={op_name="jit(predict_step)/_Model/Transformer/encoderblock_11/LayerNorm_1/add" stack_frame_id=86}
  %add.924 = f32[768]{0} reshape(%add.923), metadata={op_name="jit(predict_step)/_Model/Transformer/encoderblock_11/LayerNorm_1/add" stack_frame_id=86}
  %add.925 = f32[8,196,768]{2,1,0} broadcast(%add.924), dimensions={2}, metadata={op_name="jit(predict_step)/_Model/Transformer/encoderblock_11/LayerNorm_1/add" stack_frame_id=86}
  %add.926 = f32[8,196,768]{2,1,0} add(%mul.483, %add.925), metadata={op_name="jit(predict_step)/_Model/Transformer/encoderblock_11/LayerNorm_1/add" stack_frame_id=86}
  %variables__Transformer____encoderblock_11____MlpBlock_0____Dense_0____kernel__.1 = f32[768,3072]{1,0} parameter(55), sharding={devices=[2,1]<=[2]}, frontend_attributes={xla.sdy.sharding="#sdy.sharding<@mesh, [{\"fsdp\"}, {}]>"}, metadata={op_name="variables[\'Transformer\'][\'encoderblock_11\'][\'MlpBlock_0\'][\'Dense_0\'][\'kernel\']"}
  %dot_general.191 = f32[8,196,3072]{2,1,0} dot(%add.926, %variables__Transformer____encoderblock_11____MlpBlock_0____Dense_0____kernel__.1), lhs_contracting_dims={2}, rhs_contracting_dims={0}, metadata={op_name="jit(predict_step)/_Model/Transformer/encoderblock_11/MlpBlock_0/Dense_0/dot_general" stack_frame_id=89}
  %variables__Transformer____encoderblock_11____MlpBlock_0____Dense_0____bias__.1 = f32[3072]{0} parameter(54), sharding={devices=[2]<=[2]}, frontend_attributes={xla.sdy.sharding="#sdy.sharding<@mesh, [{\"fsdp\"}]>"}, metadata={op_name="variables[\'Transformer\'][\'encoderblock_11\'][\'MlpBlock_0\'][\'Dense_0\'][\'bias\']"}
  %reshape.245 = f32[1,1,3072]{2,1,0} reshape(%variables__Transformer____encoderblock_11____MlpBlock_0____Dense_0____bias__.1), metadata={op_name="jit(predict_step)/_Model/Transformer/encoderblock_11/MlpBlock_0/Dense_0/reshape" stack_frame_id=90}
  %add.927 = f32[1,1,3072]{2,1,0} broadcast(%reshape.245), dimensions={0,1,2}, metadata={op_name="jit(predict_step)/_Model/Transformer/encoderblock_11/MlpBlock_0/Dense_0/add" stack_frame_id=91}
  %add.928 = f32[3072]{0} reshape(%add.927), metadata={op_name="jit(predict_step)/_Model/Transformer/encoderblock_11/MlpBlock_0/Dense_0/add" stack_frame_id=91}
  %add.929 = f32[8,196,3072]{2,1,0} broadcast(%add.928), dimensions={2}, metadata={op_name="jit(predict_step)/_Model/Transformer/encoderblock_11/MlpBlock_0/Dense_0/add" stack_frame_id=91}
  %add.930 = f32[8,196,3072]{2,1,0} add(%dot_general.191, %add.929), metadata={op_name="jit(predict_step)/_Model/Transformer/encoderblock_11/MlpBlock_0/Dense_0/add" stack_frame_id=91}
  %integer_pow.46 = f32[8,196,3072]{2,1,0} multiply(%add.930, %add.930), metadata={op_name="jit(predict_step)/_Model/Transformer/encoderblock_11/MlpBlock_0/integer_pow" stack_frame_id=92}
  %integer_pow.47 = f32[8,196,3072]{2,1,0} multiply(%integer_pow.46, %add.930), metadata={op_name="jit(predict_step)/_Model/Transformer/encoderblock_11/MlpBlock_0/integer_pow" stack_frame_id=92}
  %mul.484 = f32[8,196,3072]{2,1,0} multiply(%integer_pow.47, %broadcast.12), metadata={op_name="jit(predict_step)/_Model/Transformer/encoderblock_11/MlpBlock_0/mul" stack_frame_id=92}
  %add.931 = f32[8,196,3072]{2,1,0} add(%add.930, %mul.484), metadata={op_name="jit(predict_step)/_Model/Transformer/encoderblock_11/MlpBlock_0/add" stack_frame_id=92}
  %mul.485 = f32[8,196,3072]{2,1,0} multiply(%add.931, %broadcast.11), metadata={op_name="jit(predict_step)/_Model/Transformer/encoderblock_11/MlpBlock_0/mul" stack_frame_id=92}
  %tanh.23 = f32[8,196,3072]{2,1,0} tanh(%mul.485), metadata={op_name="jit(predict_step)/_Model/Transformer/encoderblock_11/MlpBlock_0/tanh" stack_frame_id=92}
  %add.932 = f32[8,196,3072]{2,1,0} add(%tanh.23, %broadcast.10), metadata={op_name="jit(predict_step)/_Model/Transformer/encoderblock_11/MlpBlock_0/add" stack_frame_id=92}
  %mul.486 = f32[8,196,3072]{2,1,0} multiply(%add.932, %broadcast.9), metadata={op_name="jit(predict_step)/_Model/Transformer/encoderblock_11/MlpBlock_0/mul" stack_frame_id=92}
  %mul.487 = f32[8,196,3072]{2,1,0} multiply(%add.930, %mul.486), metadata={op_name="jit(predict_step)/_Model/Transformer/encoderblock_11/MlpBlock_0/mul" stack_frame_id=92}
  %variables__Transformer____encoderblock_11____MlpBlock_0____Dense_1____kernel__.1 = f32[3072,768]{1,0} parameter(57), sharding={devices=[2,1]<=[2]}, frontend_attributes={xla.sdy.sharding="#sdy.sharding<@mesh, [{\"fsdp\"}, {}]>"}, metadata={op_name="variables[\'Transformer\'][\'encoderblock_11\'][\'MlpBlock_0\'][\'Dense_1\'][\'kernel\']"}
  %dot_general.192 = f32[8,196,768]{2,1,0} dot(%mul.487, %variables__Transformer____encoderblock_11____MlpBlock_0____Dense_1____kernel__.1), lhs_contracting_dims={2}, rhs_contracting_dims={0}, metadata={op_name="jit(predict_step)/_Model/Transformer/encoderblock_11/MlpBlock_0/Dense_1/dot_general" stack_frame_id=94}
  %variables__Transformer____encoderblock_11____MlpBlock_0____Dense_1____bias__.1 = f32[768]{0} parameter(56), sharding={devices=[2]<=[2]}, frontend_attributes={xla.sdy.sharding="#sdy.sharding<@mesh, [{\"fsdp\"}]>"}, metadata={op_name="variables[\'Transformer\'][\'encoderblock_11\'][\'MlpBlock_0\'][\'Dense_1\'][\'bias\']"}
  %reshape.246 = f32[1,1,768]{2,1,0} reshape(%variables__Transformer____encoderblock_11____MlpBlock_0____Dense_1____bias__.1), metadata={op_name="jit(predict_step)/_Model/Transformer/encoderblock_11/MlpBlock_0/Dense_1/reshape" stack_frame_id=95}
  %add.933 = f32[1,1,768]{2,1,0} broadcast(%reshape.246), dimensions={0,1,2}, metadata={op_name="jit(predict_step)/_Model/Transformer/encoderblock_11/MlpBlock_0/Dense_1/add" stack_frame_id=96}
  %add.934 = f32[768]{0} reshape(%add.933), metadata={op_name="jit(predict_step)/_Model/Transformer/encoderblock_11/MlpBlock_0/Dense_1/add" stack_frame_id=96}
  %add.935 = f32[8,196,768]{2,1,0} broadcast(%add.934), dimensions={2}, metadata={op_name="jit(predict_step)/_Model/Transformer/encoderblock_11/MlpBlock_0/Dense_1/add" stack_frame_id=96}
  %add.936 = f32[8,196,768]{2,1,0} add(%dot_general.192, %add.935), metadata={op_name="jit(predict_step)/_Model/Transformer/encoderblock_11/MlpBlock_0/Dense_1/add" stack_frame_id=96}
  %add.937 = f32[8,196,768]{2,1,0} add(%add.921, %add.936), metadata={op_name="jit(predict_step)/_Model/Transformer/encoderblock_11/add" stack_frame_id=97}
  %reduce_sum.501 = f32[8,196]{1,0} reduce(%add.937, %constant.23), dimensions={2}, to_apply=%region_72.73, metadata={op_name="jit(predict_step)/_Model/Transformer/encoder_norm/reduce_sum" stack_frame_id=25}
  %div.221 = f32[8,196]{1,0} divide(%reduce_sum.501, %broadcast.17), metadata={op_name="jit(predict_step)/_Model/Transformer/encoder_norm/div" stack_frame_id=25}
  %broadcast_in_dim.146 = f32[8,196,1]{2,1,0} reshape(%div.221), metadata={op_name="jit(predict_step)/_Model/Transformer/encoder_norm/broadcast_in_dim" stack_frame_id=99}
  %sub.342 = f32[8,196,1]{2,1,0} broadcast(%broadcast_in_dim.146), dimensions={0,1,2}, metadata={op_name="jit(predict_step)/_Model/Transformer/encoder_norm/sub" stack_frame_id=100}
  %sub.343 = f32[8,196]{1,0} reshape(%sub.342), metadata={op_name="jit(predict_step)/_Model/Transformer/encoder_norm/sub" stack_frame_id=100}
  %sub.344 = f32[8,196,768]{2,1,0} broadcast(%sub.343), dimensions={0,1}, metadata={op_name="jit(predict_step)/_Model/Transformer/encoder_norm/sub" stack_frame_id=100}
  %sub.345 = f32[8,196,768]{2,1,0} subtract(%add.937, %sub.344), metadata={op_name="jit(predict_step)/_Model/Transformer/encoder_norm/sub" stack_frame_id=100}
  %square.98 = f32[8,196,768]{2,1,0} multiply(%add.937, %add.937), metadata={op_name="jit(predict_step)/_Model/Transformer/encoder_norm/square" stack_frame_id=102}
  %reduce_sum.502 = f32[8,196]{1,0} reduce(%square.98, %constant.23), dimensions={2}, to_apply=%region_73.74, metadata={op_name="jit(predict_step)/_Model/Transformer/encoder_norm/reduce_sum" stack_frame_id=25}
  %div.222 = f32[8,196]{1,0} divide(%reduce_sum.502, %broadcast.17), metadata={op_name="jit(predict_step)/_Model/Transformer/encoder_norm/div" stack_frame_id=25}
  %square.99 = f32[8,196]{1,0} multiply(%div.221, %div.221), metadata={op_name="jit(predict_step)/_Model/Transformer/encoder_norm/square" stack_frame_id=104}
  %sub.341 = f32[8,196]{1,0} subtract(%div.222, %square.99), metadata={op_name="jit(predict_step)/_Model/Transformer/encoder_norm/sub" stack_frame_id=105}
  %max.73 = f32[8,196]{1,0} maximum(%sub.341, %broadcast.16), metadata={op_name="jit(predict_step)/_Model/Transformer/encoder_norm/max" stack_frame_id=106}
  %broadcast_in_dim.147 = f32[8,196,1]{2,1,0} reshape(%max.73), metadata={op_name="jit(predict_step)/_Model/Transformer/encoder_norm/broadcast_in_dim" stack_frame_id=107}
  %add.938 = f32[8,196,1]{2,1,0} add(%broadcast_in_dim.147, %broadcast.15), metadata={op_name="jit(predict_step)/_Model/Transformer/encoder_norm/add" stack_frame_id=108}
  %rsqrt.49 = f32[8,196,1]{2,1,0} rsqrt(%add.938), metadata={op_name="jit(predict_step)/_Model/Transformer/encoder_norm/rsqrt" stack_frame_id=109}
  %mul.488 = f32[8,196,1]{2,1,0} broadcast(%rsqrt.49), dimensions={0,1,2}, metadata={op_name="jit(predict_step)/_Model/Transformer/encoder_norm/mul" stack_frame_id=110}
  %mul.489 = f32[8,196]{1,0} reshape(%mul.488), metadata={op_name="jit(predict_step)/_Model/Transformer/encoder_norm/mul" stack_frame_id=110}
  %mul.490 = f32[8,196,768]{2,1,0} broadcast(%mul.489), dimensions={0,1}, metadata={op_name="jit(predict_step)/_Model/Transformer/encoder_norm/mul" stack_frame_id=110}
  %variables__Transformer____encoder_norm____scale__.1 = f32[768]{0} parameter(1), sharding={devices=[2]<=[2]}, frontend_attributes={xla.sdy.sharding="#sdy.sharding<@mesh, [{\"fsdp\"}]>"}, metadata={op_name="variables[\'Transformer\'][\'encoder_norm\'][\'scale\']"}
  %reshape.247 = f32[1,1,768]{2,1,0} reshape(%variables__Transformer____encoder_norm____scale__.1), metadata={op_name="jit(predict_step)/_Model/Transformer/encoder_norm/reshape" stack_frame_id=111}
  %mul.491 = f32[1,1,768]{2,1,0} broadcast(%reshape.247), dimensions={0,1,2}, metadata={op_name="jit(predict_step)/_Model/Transformer/encoder_norm/mul" stack_frame_id=110}
  %mul.492 = f32[768]{0} reshape(%mul.491), metadata={op_name="jit(predict_step)/_Model/Transformer/encoder_norm/mul" stack_frame_id=110}
  %mul.493 = f32[8,196,768]{2,1,0} broadcast(%mul.492), dimensions={2}, metadata={op_name="jit(predict_step)/_Model/Transformer/encoder_norm/mul" stack_frame_id=110}
  %mul.494 = f32[8,196,768]{2,1,0} multiply(%mul.490, %mul.493), metadata={op_name="jit(predict_step)/_Model/Transformer/encoder_norm/mul" stack_frame_id=110}
  %mul.495 = f32[8,196,768]{2,1,0} multiply(%sub.345, %mul.494), metadata={op_name="jit(predict_step)/_Model/Transformer/encoder_norm/mul" stack_frame_id=112}
  %variables__Transformer____encoder_norm____bias__.1 = f32[768]{0} parameter(0), sharding={devices=[2]<=[2]}, frontend_attributes={xla.sdy.sharding="#sdy.sharding<@mesh, [{\"fsdp\"}]>"}, metadata={op_name="variables[\'Transformer\'][\'encoder_norm\'][\'bias\']"}
  %reshape.248 = f32[1,1,768]{2,1,0} reshape(%variables__Transformer____encoder_norm____bias__.1), metadata={op_name="jit(predict_step)/_Model/Transformer/encoder_norm/reshape" stack_frame_id=113}
  %add.939 = f32[1,1,768]{2,1,0} broadcast(%reshape.248), dimensions={0,1,2}, metadata={op_name="jit(predict_step)/_Model/Transformer/encoder_norm/add" stack_frame_id=114}
  %add.940 = f32[768]{0} reshape(%add.939), metadata={op_name="jit(predict_step)/_Model/Transformer/encoder_norm/add" stack_frame_id=114}
  %add.941 = f32[8,196,768]{2,1,0} broadcast(%add.940), dimensions={2}, metadata={op_name="jit(predict_step)/_Model/Transformer/encoder_norm/add" stack_frame_id=114}
  %add.942 = f32[8,196,768]{2,1,0} add(%mul.495, %add.941), metadata={op_name="jit(predict_step)/_Model/Transformer/encoder_norm/add" stack_frame_id=114}
  %reduce_sum.503 = f32[8,768]{1,0} reduce(%add.942, %constant.23), dimensions={1}, to_apply=%region_74.75, metadata={op_name="jit(predict_step)/_Model/reduce_sum" stack_frame_id=26}
  %constant.12 = f32[] constant(196)
  %div.112 = f32[8,768]{1,0} broadcast(%constant.12), dimensions={}, metadata={op_name="jit(predict_step)/_Model/div" stack_frame_id=26}
  %div.223 = f32[8,768]{1,0} divide(%reduce_sum.503, %div.112), metadata={op_name="jit(predict_step)/_Model/div" stack_frame_id=26}
  %variables__head____kernel__.1 = f32[768,1000]{1,0} parameter(197), sharding={devices=[2,1]<=[2]}, frontend_attributes={xla.sdy.sharding="#sdy.sharding<@mesh, [{\"fsdp\"}, {}]>"}, metadata={op_name="variables[\'head\'][\'kernel\']"}
  %dot_general.193 = f32[8,1000]{1,0} dot(%div.223, %variables__head____kernel__.1), lhs_contracting_dims={1}, rhs_contracting_dims={0}, metadata={op_name="jit(predict_step)/_Model/head/dot_general" stack_frame_id=116}
  %variables__head____bias__.1 = f32[1000]{0} parameter(196), sharding={devices=[2]<=[2]}, frontend_attributes={xla.sdy.sharding="#sdy.sharding<@mesh, [{\"fsdp\"}]>"}, metadata={op_name="variables[\'head\'][\'bias\']"}
  %reshape.249 = f32[1,1000]{1,0} reshape(%variables__head____bias__.1), metadata={op_name="jit(predict_step)/_Model/head/reshape" stack_frame_id=117}
  %add.943 = f32[1,1000]{1,0} broadcast(%reshape.249), dimensions={0,1}, metadata={op_name="jit(predict_step)/_Model/head/add" stack_frame_id=118}
  %add.944 = f32[1000]{0} reshape(%add.943), metadata={op_name="jit(predict_step)/_Model/head/add" stack_frame_id=118}
  %add.945 = f32[8,1000]{1,0} broadcast(%add.944), dimensions={1}, metadata={op_name="jit(predict_step)/_Model/head/add" stack_frame_id=118}
  %add.946 = f32[8,1000]{1,0} add(%dot_general.193, %add.945), metadata={op_name="jit(predict_step)/_Model/head/add" stack_frame_id=118}
  %add.947 = f32[8,1000]{1,0} custom-call(%add.946), custom_call_target="xla.sdy.FuncResultSharding", custom_call_has_side_effect=true, frontend_attributes={xla.sdy.sharding="#sdy.sharding_per_value<[<@mesh, [{}, {}]>]>"}, metadata={op_name="jit(predict_step)/_Model/head/add" stack_frame_id=118}
  %tuple.1 = (f32[8,1000]{1,0}) tuple(%add.947)
  ROOT %get-tuple-element.1 = f32[8,1000]{1,0} get-tuple-element(%tuple.1), index=0, sharding={replicated}
}

