HloModule jit_predict_step, entry_computation_layout={(f32[768]{0}, f32[768]{0}, f32[768]{0}, f32[768]{0}, f32[768]{0}, /*index=5*/f32[768]{0}, f32[3072]{0}, f32[768,3072]{1,0}, f32[768]{0}, f32[3072,768]{1,0}, /*index=10*/f32[12,64]{1,0}, f32[768,12,64]{2,1,0}, f32[768]{0}, f32[12,64,768]{2,1,0}, f32[12,64]{1,0}, /*index=15*/f32[768,12,64]{2,1,0}, f32[12,64]{1,0}, f32[768,12,64]{2,1,0}, f32[768]{0}, f32[768]{0}, /*index=20*/f32[768]{0}, f32[768]{0}, f32[3072]{0}, f32[768,3072]{1,0}, f32[768]{0}, /*index=25*/f32[3072,768]{1,0}, f32[12,64]{1,0}, f32[768,12,64]{2,1,0}, f32[768]{0}, f32[12,64,768]{2,1,0}, /*index=30*/f32[12,64]{1,0}, f32[768,12,64]{2,1,0}, f32[12,64]{1,0}, f32[768,12,64]{2,1,0}, f32[768]{0}, /*index=35*/f32[768]{0}, f32[768]{0}, f32[768]{0}, f32[3072]{0}, f32[768,3072]{1,0}, /*index=40*/f32[768]{0}, f32[3072,768]{1,0}, f32[12,64]{1,0}, f32[768,12,64]{2,1,0}, f32[768]{0}, /*index=45*/f32[12,64,768]{2,1,0}, f32[12,64]{1,0}, f32[768,12,64]{2,1,0}, f32[12,64]{1,0}, f32[768,12,64]{2,1,0}, /*index=50*/f32[768]{0}, f32[768]{0}, f32[768]{0}, f32[768]{0}, f32[3072]{0}, /*index=55*/f32[768,3072]{1,0}, f32[768]{0}, f32[3072,768]{1,0}, f32[12,64]{1,0}, f32[768,12,64]{2,1,0}, /*index=60*/f32[768]{0}, f32[12,64,768]{2,1,0}, f32[12,64]{1,0}, f32[768,12,64]{2,1,0}, f32[12,64]{1,0}, /*index=65*/f32[768,12,64]{2,1,0}, f32[768]{0}, f32[768]{0}, f32[768]{0}, f32[768]{0}, /*index=70*/f32[3072]{0}, f32[768,3072]{1,0}, f32[768]{0}, f32[3072,768]{1,0}, f32[12,64]{1,0}, /*index=75*/f32[768,12,64]{2,1,0}, f32[768]{0}, f32[12,64,768]{2,1,0}, f32[12,64]{1,0}, f32[768,12,64]{2,1,0}, /*index=80*/f32[12,64]{1,0}, f32[768,12,64]{2,1,0}, f32[768]{0}, f32[768]{0}, f32[768]{0}, /*index=85*/f32[768]{0}, f32[3072]{0}, f32[768,3072]{1,0}, f32[768]{0}, f32[3072,768]{1,0}, /*index=90*/f32[12,64]{1,0}, f32[768,12,64]{2,1,0}, f32[768]{0}, f32[12,64,768]{2,1,0}, f32[12,64]{1,0}, /*index=95*/f32[768,12,64]{2,1,0}, f32[12,64]{1,0}, f32[768,12,64]{2,1,0}, f32[768]{0}, f32[768]{0}, /*index=100*/f32[768]{0}, f32[768]{0}, f32[3072]{0}, f32[768,3072]{1,0}, f32[768]{0}, /*index=105*/f32[3072,768]{1,0}, f32[12,64]{1,0}, f32[768,12,64]{2,1,0}, f32[768]{0}, f32[12,64,768]{2,1,0}, /*index=110*/f32[12,64]{1,0}, f32[768,12,64]{2,1,0}, f32[12,64]{1,0}, f32[768,12,64]{2,1,0}, f32[768]{0}, /*index=115*/f32[768]{0}, f32[768]{0}, f32[768]{0}, f32[3072]{0}, f32[768,3072]{1,0}, /*index=120*/f32[768]{0}, f32[3072,768]{1,0}, f32[12,64]{1,0}, f32[768,12,64]{2,1,0}, f32[768]{0}, /*index=125*/f32[12,64,768]{2,1,0}, f32[12,64]{1,0}, f32[768,12,64]{2,1,0}, f32[12,64]{1,0}, f32[768,12,64]{2,1,0}, /*index=130*/f32[768]{0}, f32[768]{0}, f32[768]{0}, f32[768]{0}, f32[3072]{0}, /*index=135*/f32[768,3072]{1,0}, f32[768]{0}, f32[3072,768]{1,0}, f32[12,64]{1,0}, f32[768,12,64]{2,1,0}, /*index=140*/f32[768]{0}, f32[12,64,768]{2,1,0}, f32[12,64]{1,0}, f32[768,12,64]{2,1,0}, f32[12,64]{1,0}, /*index=145*/f32[768,12,64]{2,1,0}, f32[768]{0}, f32[768]{0}, f32[768]{0}, f32[768]{0}, /*index=150*/f32[3072]{0}, f32[768,3072]{1,0}, f32[768]{0}, f32[3072,768]{1,0}, f32[12,64]{1,0}, /*index=155*/f32[768,12,64]{2,1,0}, f32[768]{0}, f32[12,64,768]{2,1,0}, f32[12,64]{1,0}, f32[768,12,64]{2,1,0}, /*index=160*/f32[12,64]{1,0}, f32[768,12,64]{2,1,0}, f32[768]{0}, f32[768]{0}, f32[768]{0}, /*index=165*/f32[768]{0}, f32[3072]{0}, f32[768,3072]{1,0}, f32[768]{0}, f32[3072,768]{1,0}, /*index=170*/f32[12,64]{1,0}, f32[768,12,64]{2,1,0}, f32[768]{0}, f32[12,64,768]{2,1,0}, f32[12,64]{1,0}, /*index=175*/f32[768,12,64]{2,1,0}, f32[12,64]{1,0}, f32[768,12,64]{2,1,0}, f32[768]{0}, f32[768]{0}, /*index=180*/f32[768]{0}, f32[768]{0}, f32[3072]{0}, f32[768,3072]{1,0}, f32[768]{0}, /*index=185*/f32[3072,768]{1,0}, f32[12,64]{1,0}, f32[768,12,64]{2,1,0}, f32[768]{0}, f32[12,64,768]{2,1,0}, /*index=190*/f32[12,64]{1,0}, f32[768,12,64]{2,1,0}, f32[12,64]{1,0}, f32[768,12,64]{2,1,0}, f32[768]{0}, /*index=195*/f32[16,16,3,768]{3,2,1,0}, f32[768]{0}, f32[768,768]{1,0}, f32[1,196,768]{2,1,0}, f32[32000,768]{1,0}, /*index=200*/f32[768]{0}, f32[768]{0}, f32[768]{0}, f32[768]{0}, f32[768]{0}, /*index=205*/f32[768]{0}, f32[3072]{0}, f32[768,3072]{1,0}, f32[768]{0}, f32[3072,768]{1,0}, /*index=210*/f32[12,64]{1,0}, f32[768,12,64]{2,1,0}, f32[768]{0}, f32[12,64,768]{2,1,0}, f32[12,64]{1,0}, /*index=215*/f32[768,12,64]{2,1,0}, f32[12,64]{1,0}, f32[768,12,64]{2,1,0}, f32[768]{0}, f32[768]{0}, /*index=220*/f32[768]{0}, f32[768]{0}, f32[3072]{0}, f32[768,3072]{1,0}, f32[768]{0}, /*index=225*/f32[3072,768]{1,0}, f32[12,64]{1,0}, f32[768,12,64]{2,1,0}, f32[768]{0}, f32[12,64,768]{2,1,0}, /*index=230*/f32[12,64]{1,0}, f32[768,12,64]{2,1,0}, f32[12,64]{1,0}, f32[768,12,64]{2,1,0}, f32[768]{0}, /*index=235*/f32[768]{0}, f32[768]{0}, f32[768]{0}, f32[3072]{0}, f32[768,3072]{1,0}, /*index=240*/f32[768]{0}, f32[3072,768]{1,0}, f32[12,64]{1,0}, f32[768,12,64]{2,1,0}, f32[768]{0}, /*index=245*/f32[12,64,768]{2,1,0}, f32[12,64]{1,0}, f32[768,12,64]{2,1,0}, f32[12,64]{1,0}, f32[768,12,64]{2,1,0}, /*index=250*/f32[768]{0}, f32[768]{0}, f32[768]{0}, f32[768]{0}, f32[3072]{0}, /*index=255*/f32[768,3072]{1,0}, f32[768]{0}, f32[3072,768]{1,0}, f32[12,64]{1,0}, f32[768,12,64]{2,1,0}, /*index=260*/f32[768]{0}, f32[12,64,768]{2,1,0}, f32[12,64]{1,0}, f32[768,12,64]{2,1,0}, f32[12,64]{1,0}, /*index=265*/f32[768,12,64]{2,1,0}, f32[768]{0}, f32[768]{0}, f32[768]{0}, f32[768]{0}, /*index=270*/f32[3072]{0}, f32[768,3072]{1,0}, f32[768]{0}, f32[3072,768]{1,0}, f32[12,64]{1,0}, /*index=275*/f32[768,12,64]{2,1,0}, f32[768]{0}, f32[12,64,768]{2,1,0}, f32[12,64]{1,0}, f32[768,12,64]{2,1,0}, /*index=280*/f32[12,64]{1,0}, f32[768,12,64]{2,1,0}, f32[768]{0}, f32[768]{0}, f32[768]{0}, /*index=285*/f32[768]{0}, f32[3072]{0}, f32[768,3072]{1,0}, f32[768]{0}, f32[3072,768]{1,0}, /*index=290*/f32[12,64]{1,0}, f32[768,12,64]{2,1,0}, f32[768]{0}, f32[12,64,768]{2,1,0}, f32[12,64]{1,0}, /*index=295*/f32[768,12,64]{2,1,0}, f32[12,64]{1,0}, f32[768,12,64]{2,1,0}, f32[768]{0}, f32[768]{0}, /*index=300*/f32[768]{0}, f32[768]{0}, f32[3072]{0}, f32[768,3072]{1,0}, f32[768]{0}, /*index=305*/f32[3072,768]{1,0}, f32[12,64]{1,0}, f32[768,12,64]{2,1,0}, f32[768]{0}, f32[12,64,768]{2,1,0}, /*index=310*/f32[12,64]{1,0}, f32[768,12,64]{2,1,0}, f32[12,64]{1,0}, f32[768,12,64]{2,1,0}, f32[768]{0}, /*index=315*/f32[768]{0}, f32[768]{0}, f32[768]{0}, f32[3072]{0}, f32[768,3072]{1,0}, /*index=320*/f32[768]{0}, f32[3072,768]{1,0}, f32[12,64]{1,0}, f32[768,12,64]{2,1,0}, f32[768]{0}, /*index=325*/f32[12,64,768]{2,1,0}, f32[12,64]{1,0}, f32[768,12,64]{2,1,0}, f32[12,64]{1,0}, f32[768,12,64]{2,1,0}, /*index=330*/f32[768]{0}, f32[768]{0}, f32[768]{0}, f32[768]{0}, f32[3072]{0}, /*index=335*/f32[768,3072]{1,0}, f32[768]{0}, f32[3072,768]{1,0}, f32[12,64]{1,0}, f32[768,12,64]{2,1,0}, /*index=340*/f32[768]{0}, f32[12,64,768]{2,1,0}, f32[12,64]{1,0}, f32[768,12,64]{2,1,0}, f32[12,64]{1,0}, /*index=345*/f32[768,12,64]{2,1,0}, f32[768]{0}, f32[768]{0}, f32[768]{0}, f32[768]{0}, /*index=350*/f32[3072]{0}, f32[768,3072]{1,0}, f32[768]{0}, f32[3072,768]{1,0}, f32[12,64]{1,0}, /*index=355*/f32[768,12,64]{2,1,0}, f32[768]{0}, f32[12,64,768]{2,1,0}, f32[12,64]{1,0}, f32[768,12,64]{2,1,0}, /*index=360*/f32[12,64]{1,0}, f32[768,12,64]{2,1,0}, f32[768]{0}, f32[768]{0}, f32[768]{0}, /*index=365*/f32[768]{0}, f32[3072]{0}, f32[768,3072]{1,0}, f32[768]{0}, f32[3072,768]{1,0}, /*index=370*/f32[12,64]{1,0}, f32[768,12,64]{2,1,0}, f32[768]{0}, f32[12,64,768]{2,1,0}, f32[12,64]{1,0}, /*index=375*/f32[768,12,64]{2,1,0}, f32[12,64]{1,0}, f32[768,12,64]{2,1,0}, f32[768]{0}, f32[768]{0}, /*index=380*/f32[768]{0}, f32[768]{0}, f32[3072]{0}, f32[768,3072]{1,0}, f32[768]{0}, /*index=385*/f32[3072,768]{1,0}, f32[12,64]{1,0}, f32[768,12,64]{2,1,0}, f32[768]{0}, f32[12,64,768]{2,1,0}, /*index=390*/f32[12,64]{1,0}, f32[768,12,64]{2,1,0}, f32[12,64]{1,0}, f32[768,12,64]{2,1,0}, f32[768]{0}, /*index=395*/f32[768,768]{1,0}, f32[1,64,768]{2,1,0}, f32[16,224,224,3]{3,2,1,0}, s32[16,64]{1,0})->(f32[16,768]{1,0}, f32[16,768]{1,0})}, allow_spmd_sharding_propagation_to_parameters={false,false,false,false,false,false,false,false,false,false,false,false,false,false,false,false,false,false,false,false,false,false,false,false,false,false,false,false,false,false,false,false,false,false,false,false,false,false,false,false,false,false,false,false,false,false,false,false,false,false,false,false,false,false,false,false,false,false,false,false,false,false,false,false,false,false,false,false,false,false,false,false,false,false,false,false,false,false,false,false,false,false,false,false,false,false,false,false,false,false,false,false,false,false,false,false,false,false,false,false,false,false,false,false,false,false,false,false,false,false,false,false,false,false,false,false,false,false,false,false,false,false,false,false,false,false,false,false,false,false,false,false,false,false,false,false,false,false,false,false,false,false,false,false,false,false,false,false,false,false,false,false,false,false,false,false,false,false,false,false,false,false,false,false,false,false,false,false,false,false,false,false,false,false,false,false,false,false,false,false,false,false,false,false,false,false,false,false,false,false,false,false,false,false,false,false,false,false,false,false,false,false,false,false,false,false,false,false,false,false,false,false,false,false,false,false,false,false,false,false,false,false,false,false,false,false,false,false,false,false,false,false,false,false,false,false,false,false,false,false,false,false,false,false,false,false,false,false,false,false,false,false,false,false,false,false,false,false,false,false,false,false,false,false,false,false,false,false,false,false,false,false,false,false,false,false,false,false,false,false,false,false,false,false,false,false,false,false,false,false,false,false,false,false,false,false,false,false,false,false,false,false,false,false,false,false,false,false,false,false,false,false,false,false,false,false,false,false,false,false,false,false,false,false,false,false,false,false,false,false,false,false,false,false,false,false,false,false,false,false,false,false,false,false,false,false,false,false,false,false,false,false,false,false,false,false,false,false,false,false,false,false,false,false,false,false,false,false,false,false,false,false,false,false,false,false,false,false,false,false,false,false,false,false,false,false,false,false,false,false,false,false,false,false,false,false,false,false,false}, allow_spmd_sharding_propagation_to_output={false,false}, num_partitions=4, frontend_attributes={xla.sdy.meshes={mesh = #sdy.mesh<["fsdp"=4]>}}

FileNames
1 "/root/hlo_dump/mgpu_infer.py"
2 "/root/big_vision/big_vision/models/proj/image_text/two_towers.py"
3 "/root/big_vision/big_vision/models/proj/image_text/text_transformer.py"
4 "/root/big_vision/big_vision/models/vit.py"
5 "/usr/local/lib/python3.12/dist-packages/flax/linen/normalization.py"
6 "/usr/local/lib/python3.12/dist-packages/flax/linen/attention.py"
7 "/usr/local/lib/python3.12/dist-packages/flax/linen/linear.py"

FunctionNames
1 "<module>"
2 "main"
3 "main.<locals>.predict_step"
4 "_two_tower.<locals>.fn"
5 "Model.__call__"
6 "_Model.__call__"
7 "Encoder.__call__"
8 "Encoder1DBlock.__call__"
9 "LayerNorm.__call__"
10 "_compute_stats"
11 "_compute_stats.<locals>.maybe_distributed_mean"
12 "_compute_stats.<locals>.maybe_distributed_mean.<locals>.<genexpr>"
13 "MultiHeadDotProductAttention.__call__"
14 "dot_product_attention"
15 "dot_product_attention_weights"
16 "_Conv.__call__"
17 "_normalize"
18 "_abs_sq"
19 "DenseGeneral.__call__"
20 "MlpBlock.__call__"
21 "Dense.__call__"
22 "Embed.__call__"

FileLocations
1 {file_name_id=1 function_name_id=1 line=195 end_line=195 column=4 end_column=10}
2 {file_name_id=1 function_name_id=2 line=189 end_line=189 column=14 end_column=36}
3 {file_name_id=1 function_name_id=3 line=185 end_line=185 column=15 end_column=36}
4 {file_name_id=1 function_name_id=4 line=91 end_line=91 column=24 end_column=73}
5 {file_name_id=2 function_name_id=5 line=55 end_line=55 column=22 end_column=44}
6 {file_name_id=3 function_name_id=6 line=72 end_line=75 column=21 end_column=39}
7 {file_name_id=4 function_name_id=7 line=157 end_line=157 column=36 end_column=63}
8 {file_name_id=4 function_name_id=8 line=92 end_line=92 column=8 end_column=25}
9 {file_name_id=5 function_name_id=9 line=512 end_line=521 column=16 end_column=5}
10 {file_name_id=5 function_name_id=10 line=139 end_line=139 column=16 end_column=64}
11 {file_name_id=5 function_name_id=11 line=122 end_line=122 column=10 end_column=53}
12 {file_name_id=5 function_name_id=12 line=122 end_line=122 column=16 end_column=40}
13 {file_name_id=4 function_name_id=8 line=93 end_line=98 column=20 end_column=11}
14 {file_name_id=6 function_name_id=13 line=674 end_line=674 column=10 end_column=54}
15 {file_name_id=6 function_name_id=14 line=266 end_line=281 column=17 end_column=3}
16 {file_name_id=6 function_name_id=15 line=146 end_line=146 column=19 end_column=47}
17 {file_name_id=4 function_name_id=8 line=103 end_line=103 column=8 end_column=25}
18 {file_name_id=4 function_name_id=7 line=160 end_line=160 column=11 end_column=47}
19 {file_name_id=2 function_name_id=5 line=68 end_line=68 column=22 end_column=46}
20 {file_name_id=4 function_name_id=6 line=230 end_line=239 column=24 end_column=39}
21 {file_name_id=4 function_name_id=6 line=246 end_line=246 column=30 end_column=49}
22 {file_name_id=4 function_name_id=6 line=212 end_line=214 column=22 end_column=70}
23 {file_name_id=7 function_name_id=16 line=700 end_line=710 column=10 end_column=7}
24 {file_name_id=7 function_name_id=16 line=725 end_line=725 column=13 end_column=67}
25 {file_name_id=7 function_name_id=16 line=726 end_line=726 column=6 end_column=15}
26 {file_name_id=4 function_name_id=6 line=217 end_line=217 column=8 end_column=37}
27 {file_name_id=4 function_name_id=6 line=220 end_line=221 column=29 end_column=63}
28 {file_name_id=5 function_name_id=9 line=523 end_line=538 column=11 end_column=5}
29 {file_name_id=5 function_name_id=17 line=203 end_line=203 column=9 end_column=46}
30 {file_name_id=5 function_name_id=17 line=205 end_line=205 column=6 end_column=14}
31 {file_name_id=5 function_name_id=10 line=139 end_line=139 column=42 end_column=52}
32 {file_name_id=5 function_name_id=18 line=57 end_line=57 column=11 end_column=24}
33 {file_name_id=5 function_name_id=10 line=142 end_line=142 column=35 end_column=46}
34 {file_name_id=5 function_name_id=10 line=142 end_line=142 column=29 end_column=46}
35 {file_name_id=5 function_name_id=10 line=142 end_line=142 column=12 end_column=47}
36 {file_name_id=5 function_name_id=17 line=204 end_line=204 column=8 end_column=44}
37 {file_name_id=5 function_name_id=17 line=206 end_line=206 column=18 end_column=31}
38 {file_name_id=5 function_name_id=17 line=206 end_line=206 column=8 end_column=32}
39 {file_name_id=5 function_name_id=17 line=214 end_line=214 column=4 end_column=16}
40 {file_name_id=5 function_name_id=17 line=211 end_line=211 column=6 end_column=28}
41 {file_name_id=5 function_name_id=17 line=216 end_line=216 column=2 end_column=10}
42 {file_name_id=5 function_name_id=17 line=220 end_line=220 column=6 end_column=28}
43 {file_name_id=5 function_name_id=17 line=223 end_line=223 column=4 end_column=13}
44 {file_name_id=6 function_name_id=13 line=551 end_line=551 column=6 end_column=35}
45 {file_name_id=7 function_name_id=19 line=199 end_line=204 column=10 end_column=5}
46 {file_name_id=7 function_name_id=19 line=209 end_line=209 column=13 end_column=63}
47 {file_name_id=7 function_name_id=19 line=210 end_line=210 column=6 end_column=17}
48 {file_name_id=6 function_name_id=13 line=549 end_line=549 column=6 end_column=35}
49 {file_name_id=6 function_name_id=15 line=130 end_line=130 column=10 end_column=47}
50 {file_name_id=6 function_name_id=13 line=550 end_line=550 column=6 end_column=33}
51 {file_name_id=6 function_name_id=15 line=132 end_line=132 column=17 end_column=60}
52 {file_name_id=6 function_name_id=14 line=291 end_line=295 column=9 end_column=3}
53 {file_name_id=6 function_name_id=13 line=676 end_line=688 column=10 end_column=8}
54 {file_name_id=4 function_name_id=8 line=101 end_line=101 column=21 end_column=26}
55 {file_name_id=4 function_name_id=8 line=104 end_line=107 column=21 end_column=23}
56 {file_name_id=4 function_name_id=20 line=72 end_line=72 column=8 end_column=72}
57 {file_name_id=7 function_name_id=21 line=287 end_line=292 column=8 end_column=5}
58 {file_name_id=7 function_name_id=21 line=294 end_line=294 column=11 end_column=57}
59 {file_name_id=7 function_name_id=21 line=294 end_line=294 column=6 end_column=57}
60 {file_name_id=4 function_name_id=20 line=75 end_line=75 column=8 end_column=18}
61 {file_name_id=4 function_name_id=20 line=77 end_line=77 column=8 end_column=52}
62 {file_name_id=4 function_name_id=8 line=110 end_line=110 column=22 end_column=27}
63 {file_name_id=4 function_name_id=6 line=274 end_line=274 column=26 end_column=33}
64 {file_name_id=2 function_name_id=5 line=73 end_line=73 column=24 end_column=68}
65 {file_name_id=2 function_name_id=5 line=74 end_line=74 column=45 end_column=67}
66 {file_name_id=2 function_name_id=5 line=74 end_line=74 column=37 end_column=68}
67 {file_name_id=3 function_name_id=6 line=64 end_line=64 column=26 end_column=41}
68 {file_name_id=7 function_name_id=22 line=1194 end_line=1194 column=11 end_column=46}
69 {file_name_id=3 function_name_id=6 line=68 end_line=70 column=8 end_column=42}
70 {file_name_id=3 function_name_id=6 line=84 end_line=84 column=30 end_column=41}
71 {file_name_id=3 function_name_id=6 line=98 end_line=98 column=26 end_column=68}
72 {file_name_id=2 function_name_id=5 line=60 end_line=60 column=24 end_column=68}
73 {file_name_id=2 function_name_id=5 line=61 end_line=61 column=45 end_column=67}
74 {file_name_id=2 function_name_id=5 line=61 end_line=61 column=37 end_column=68}

StackFrames
1 {file_location_id=1 parent_frame_id=1}
2 {file_location_id=2 parent_frame_id=2}
3 {file_location_id=3 parent_frame_id=3}
4 {file_location_id=4 parent_frame_id=4}
5 {file_location_id=5 parent_frame_id=5}
6 {file_location_id=6 parent_frame_id=6}
7 {file_location_id=7 parent_frame_id=7}
8 {file_location_id=8 parent_frame_id=8}
9 {file_location_id=9 parent_frame_id=9}
10 {file_location_id=10 parent_frame_id=10}
11 {file_location_id=11 parent_frame_id=11}
12 {file_location_id=12 parent_frame_id=12}
13 {file_location_id=13 parent_frame_id=8}
14 {file_location_id=14 parent_frame_id=14}
15 {file_location_id=15 parent_frame_id=15}
16 {file_location_id=16 parent_frame_id=16}
17 {file_location_id=17 parent_frame_id=8}
18 {file_location_id=9 parent_frame_id=18}
19 {file_location_id=10 parent_frame_id=19}
20 {file_location_id=11 parent_frame_id=20}
21 {file_location_id=12 parent_frame_id=21}
22 {file_location_id=18 parent_frame_id=7}
23 {file_location_id=9 parent_frame_id=23}
24 {file_location_id=10 parent_frame_id=24}
25 {file_location_id=11 parent_frame_id=25}
26 {file_location_id=12 parent_frame_id=26}
27 {file_location_id=19 parent_frame_id=5}
28 {file_location_id=20 parent_frame_id=28}
29 {file_location_id=7 parent_frame_id=29}
30 {file_location_id=8 parent_frame_id=30}
31 {file_location_id=9 parent_frame_id=31}
32 {file_location_id=10 parent_frame_id=32}
33 {file_location_id=11 parent_frame_id=33}
34 {file_location_id=12 parent_frame_id=34}
35 {file_location_id=13 parent_frame_id=30}
36 {file_location_id=14 parent_frame_id=36}
37 {file_location_id=15 parent_frame_id=37}
38 {file_location_id=16 parent_frame_id=38}
39 {file_location_id=17 parent_frame_id=30}
40 {file_location_id=9 parent_frame_id=40}
41 {file_location_id=10 parent_frame_id=41}
42 {file_location_id=11 parent_frame_id=42}
43 {file_location_id=12 parent_frame_id=43}
44 {file_location_id=18 parent_frame_id=29}
45 {file_location_id=9 parent_frame_id=45}
46 {file_location_id=10 parent_frame_id=46}
47 {file_location_id=11 parent_frame_id=47}
48 {file_location_id=12 parent_frame_id=48}
49 {file_location_id=21 parent_frame_id=28}
50 {file_location_id=22 parent_frame_id=28}
51 {file_location_id=23 parent_frame_id=51}
52 {file_location_id=24 parent_frame_id=51}
53 {file_location_id=25 parent_frame_id=51}
54 {file_location_id=26 parent_frame_id=28}
55 {file_location_id=27 parent_frame_id=28}
56 {file_location_id=28 parent_frame_id=31}
57 {file_location_id=29 parent_frame_id=57}
58 {file_location_id=30 parent_frame_id=57}
59 {file_location_id=31 parent_frame_id=32}
60 {file_location_id=32 parent_frame_id=60}
61 {file_location_id=33 parent_frame_id=32}
62 {file_location_id=32 parent_frame_id=62}
63 {file_location_id=34 parent_frame_id=32}
64 {file_location_id=35 parent_frame_id=32}
65 {file_location_id=36 parent_frame_id=57}
66 {file_location_id=37 parent_frame_id=57}
67 {file_location_id=38 parent_frame_id=57}
68 {file_location_id=39 parent_frame_id=57}
69 {file_location_id=40 parent_frame_id=57}
70 {file_location_id=41 parent_frame_id=57}
71 {file_location_id=42 parent_frame_id=57}
72 {file_location_id=43 parent_frame_id=57}
73 {file_location_id=44 parent_frame_id=36}
74 {file_location_id=45 parent_frame_id=74}
75 {file_location_id=46 parent_frame_id=74}
76 {file_location_id=47 parent_frame_id=74}
77 {file_location_id=48 parent_frame_id=36}
78 {file_location_id=45 parent_frame_id=78}
79 {file_location_id=46 parent_frame_id=78}
80 {file_location_id=47 parent_frame_id=78}
81 {file_location_id=49 parent_frame_id=38}
82 {file_location_id=50 parent_frame_id=36}
83 {file_location_id=45 parent_frame_id=83}
84 {file_location_id=46 parent_frame_id=83}
85 {file_location_id=47 parent_frame_id=83}
86 {file_location_id=51 parent_frame_id=38}
87 {file_location_id=52 parent_frame_id=37}
88 {file_location_id=53 parent_frame_id=36}
89 {file_location_id=45 parent_frame_id=89}
90 {file_location_id=46 parent_frame_id=89}
91 {file_location_id=47 parent_frame_id=89}
92 {file_location_id=54 parent_frame_id=30}
93 {file_location_id=28 parent_frame_id=40}
94 {file_location_id=29 parent_frame_id=94}
95 {file_location_id=30 parent_frame_id=94}
96 {file_location_id=31 parent_frame_id=41}
97 {file_location_id=32 parent_frame_id=97}
98 {file_location_id=33 parent_frame_id=41}
99 {file_location_id=32 parent_frame_id=99}
100 {file_location_id=34 parent_frame_id=41}
101 {file_location_id=35 parent_frame_id=41}
102 {file_location_id=36 parent_frame_id=94}
103 {file_location_id=37 parent_frame_id=94}
104 {file_location_id=38 parent_frame_id=94}
105 {file_location_id=39 parent_frame_id=94}
106 {file_location_id=40 parent_frame_id=94}
107 {file_location_id=41 parent_frame_id=94}
108 {file_location_id=42 parent_frame_id=94}
109 {file_location_id=43 parent_frame_id=94}
110 {file_location_id=55 parent_frame_id=30}
111 {file_location_id=56 parent_frame_id=111}
112 {file_location_id=57 parent_frame_id=112}
113 {file_location_id=58 parent_frame_id=112}
114 {file_location_id=59 parent_frame_id=112}
115 {file_location_id=60 parent_frame_id=111}
116 {file_location_id=61 parent_frame_id=111}
117 {file_location_id=57 parent_frame_id=117}
118 {file_location_id=58 parent_frame_id=117}
119 {file_location_id=59 parent_frame_id=117}
120 {file_location_id=62 parent_frame_id=30}
121 {file_location_id=28 parent_frame_id=45}
122 {file_location_id=29 parent_frame_id=122}
123 {file_location_id=30 parent_frame_id=122}
124 {file_location_id=31 parent_frame_id=46}
125 {file_location_id=32 parent_frame_id=125}
126 {file_location_id=33 parent_frame_id=46}
127 {file_location_id=32 parent_frame_id=127}
128 {file_location_id=34 parent_frame_id=46}
129 {file_location_id=35 parent_frame_id=46}
130 {file_location_id=36 parent_frame_id=122}
131 {file_location_id=37 parent_frame_id=122}
132 {file_location_id=38 parent_frame_id=122}
133 {file_location_id=39 parent_frame_id=122}
134 {file_location_id=40 parent_frame_id=122}
135 {file_location_id=41 parent_frame_id=122}
136 {file_location_id=42 parent_frame_id=122}
137 {file_location_id=43 parent_frame_id=122}
138 {file_location_id=63 parent_frame_id=28}
139 {file_location_id=57 parent_frame_id=139}
140 {file_location_id=58 parent_frame_id=139}
141 {file_location_id=59 parent_frame_id=139}
142 {file_location_id=64 parent_frame_id=5}
143 {file_location_id=65 parent_frame_id=5}
144 {file_location_id=66 parent_frame_id=5}
145 {file_location_id=67 parent_frame_id=6}
146 {file_location_id=68 parent_frame_id=146}
147 {file_location_id=69 parent_frame_id=6}
148 {file_location_id=28 parent_frame_id=9}
149 {file_location_id=29 parent_frame_id=149}
150 {file_location_id=30 parent_frame_id=149}
151 {file_location_id=31 parent_frame_id=10}
152 {file_location_id=32 parent_frame_id=152}
153 {file_location_id=33 parent_frame_id=10}
154 {file_location_id=32 parent_frame_id=154}
155 {file_location_id=34 parent_frame_id=10}
156 {file_location_id=35 parent_frame_id=10}
157 {file_location_id=36 parent_frame_id=149}
158 {file_location_id=37 parent_frame_id=149}
159 {file_location_id=38 parent_frame_id=149}
160 {file_location_id=39 parent_frame_id=149}
161 {file_location_id=40 parent_frame_id=149}
162 {file_location_id=41 parent_frame_id=149}
163 {file_location_id=42 parent_frame_id=149}
164 {file_location_id=43 parent_frame_id=149}
165 {file_location_id=44 parent_frame_id=14}
166 {file_location_id=45 parent_frame_id=166}
167 {file_location_id=46 parent_frame_id=166}
168 {file_location_id=47 parent_frame_id=166}
169 {file_location_id=48 parent_frame_id=14}
170 {file_location_id=45 parent_frame_id=170}
171 {file_location_id=46 parent_frame_id=170}
172 {file_location_id=47 parent_frame_id=170}
173 {file_location_id=49 parent_frame_id=16}
174 {file_location_id=50 parent_frame_id=14}
175 {file_location_id=45 parent_frame_id=175}
176 {file_location_id=46 parent_frame_id=175}
177 {file_location_id=47 parent_frame_id=175}
178 {file_location_id=51 parent_frame_id=16}
179 {file_location_id=52 parent_frame_id=15}
180 {file_location_id=53 parent_frame_id=14}
181 {file_location_id=45 parent_frame_id=181}
182 {file_location_id=46 parent_frame_id=181}
183 {file_location_id=47 parent_frame_id=181}
184 {file_location_id=54 parent_frame_id=8}
185 {file_location_id=28 parent_frame_id=18}
186 {file_location_id=29 parent_frame_id=186}
187 {file_location_id=30 parent_frame_id=186}
188 {file_location_id=31 parent_frame_id=19}
189 {file_location_id=32 parent_frame_id=189}
190 {file_location_id=33 parent_frame_id=19}
191 {file_location_id=32 parent_frame_id=191}
192 {file_location_id=34 parent_frame_id=19}
193 {file_location_id=35 parent_frame_id=19}
194 {file_location_id=36 parent_frame_id=186}
195 {file_location_id=37 parent_frame_id=186}
196 {file_location_id=38 parent_frame_id=186}
197 {file_location_id=39 parent_frame_id=186}
198 {file_location_id=40 parent_frame_id=186}
199 {file_location_id=41 parent_frame_id=186}
200 {file_location_id=42 parent_frame_id=186}
201 {file_location_id=43 parent_frame_id=186}
202 {file_location_id=55 parent_frame_id=8}
203 {file_location_id=56 parent_frame_id=203}
204 {file_location_id=57 parent_frame_id=204}
205 {file_location_id=58 parent_frame_id=204}
206 {file_location_id=59 parent_frame_id=204}
207 {file_location_id=60 parent_frame_id=203}
208 {file_location_id=61 parent_frame_id=203}
209 {file_location_id=57 parent_frame_id=209}
210 {file_location_id=58 parent_frame_id=209}
211 {file_location_id=59 parent_frame_id=209}
212 {file_location_id=62 parent_frame_id=8}
213 {file_location_id=28 parent_frame_id=23}
214 {file_location_id=29 parent_frame_id=214}
215 {file_location_id=30 parent_frame_id=214}
216 {file_location_id=31 parent_frame_id=24}
217 {file_location_id=32 parent_frame_id=217}
218 {file_location_id=33 parent_frame_id=24}
219 {file_location_id=32 parent_frame_id=219}
220 {file_location_id=34 parent_frame_id=24}
221 {file_location_id=35 parent_frame_id=24}
222 {file_location_id=36 parent_frame_id=214}
223 {file_location_id=37 parent_frame_id=214}
224 {file_location_id=38 parent_frame_id=214}
225 {file_location_id=39 parent_frame_id=214}
226 {file_location_id=40 parent_frame_id=214}
227 {file_location_id=41 parent_frame_id=214}
228 {file_location_id=42 parent_frame_id=214}
229 {file_location_id=43 parent_frame_id=214}
230 {file_location_id=70 parent_frame_id=6}
231 {file_location_id=71 parent_frame_id=6}
232 {file_location_id=57 parent_frame_id=232}
233 {file_location_id=58 parent_frame_id=232}
234 {file_location_id=59 parent_frame_id=232}
235 {file_location_id=72 parent_frame_id=5}
236 {file_location_id=73 parent_frame_id=5}
237 {file_location_id=74 parent_frame_id=5}


%region_76.80 (reduce_sum.445: f32[], reduce_sum.446: f32[]) -> f32[] {
  %reduce_sum.445 = f32[] parameter(0), metadata={op_name="reduce_sum"}
  %reduce_sum.446 = f32[] parameter(1), metadata={op_name="reduce_sum"}
  ROOT %reduce_sum.447 = f32[] add(%reduce_sum.445, %reduce_sum.446), metadata={op_name="jit(predict_step)/Model/img/Transformer/encoderblock_0/LayerNorm_0/reduce_sum" stack_frame_id=34}
}

%region_77.81 (reduce_sum.452: f32[], reduce_sum.453: f32[]) -> f32[] {
  %reduce_sum.452 = f32[] parameter(0), metadata={op_name="reduce_sum"}
  %reduce_sum.453 = f32[] parameter(1), metadata={op_name="reduce_sum"}
  ROOT %reduce_sum.454 = f32[] add(%reduce_sum.452, %reduce_sum.453), metadata={op_name="jit(predict_step)/Model/img/Transformer/encoderblock_0/LayerNorm_0/reduce_sum" stack_frame_id=34}
}

%region_78.82 (reduce_max.87: f32[], reduce_max.88: f32[]) -> f32[] {
  %reduce_max.87 = f32[] parameter(0), metadata={op_name="reduce_max"}
  %reduce_max.88 = f32[] parameter(1), metadata={op_name="reduce_max"}
  ROOT %reduce_max.89 = f32[] maximum(%reduce_max.87, %reduce_max.88), metadata={op_name="jit(predict_step)/Model/img/Transformer/encoderblock_0/MultiHeadDotProductAttention_0/reduce_max" stack_frame_id=38}
}

%region_79.83 (reduce_sum.459: f32[], reduce_sum.460: f32[]) -> f32[] {
  %reduce_sum.459 = f32[] parameter(0), metadata={op_name="reduce_sum"}
  %reduce_sum.460 = f32[] parameter(1), metadata={op_name="reduce_sum"}
  ROOT %reduce_sum.461 = f32[] add(%reduce_sum.459, %reduce_sum.460), metadata={op_name="jit(predict_step)/Model/img/Transformer/encoderblock_0/MultiHeadDotProductAttention_0/reduce_sum" stack_frame_id=38}
}

%region_80.84 (reduce_sum.466: f32[], reduce_sum.467: f32[]) -> f32[] {
  %reduce_sum.466 = f32[] parameter(0), metadata={op_name="reduce_sum"}
  %reduce_sum.467 = f32[] parameter(1), metadata={op_name="reduce_sum"}
  ROOT %reduce_sum.468 = f32[] add(%reduce_sum.466, %reduce_sum.467), metadata={op_name="jit(predict_step)/Model/img/Transformer/encoderblock_0/LayerNorm_1/reduce_sum" stack_frame_id=43}
}

%region_81.85 (reduce_sum.473: f32[], reduce_sum.474: f32[]) -> f32[] {
  %reduce_sum.473 = f32[] parameter(0), metadata={op_name="reduce_sum"}
  %reduce_sum.474 = f32[] parameter(1), metadata={op_name="reduce_sum"}
  ROOT %reduce_sum.475 = f32[] add(%reduce_sum.473, %reduce_sum.474), metadata={op_name="jit(predict_step)/Model/img/Transformer/encoderblock_0/LayerNorm_1/reduce_sum" stack_frame_id=43}
}

%region_82.86 (reduce_sum.480: f32[], reduce_sum.481: f32[]) -> f32[] {
  %reduce_sum.480 = f32[] parameter(0), metadata={op_name="reduce_sum"}
  %reduce_sum.481 = f32[] parameter(1), metadata={op_name="reduce_sum"}
  ROOT %reduce_sum.482 = f32[] add(%reduce_sum.480, %reduce_sum.481), metadata={op_name="jit(predict_step)/Model/img/Transformer/encoderblock_1/LayerNorm_0/reduce_sum" stack_frame_id=34}
}

%region_83.87 (reduce_sum.487: f32[], reduce_sum.488: f32[]) -> f32[] {
  %reduce_sum.487 = f32[] parameter(0), metadata={op_name="reduce_sum"}
  %reduce_sum.488 = f32[] parameter(1), metadata={op_name="reduce_sum"}
  ROOT %reduce_sum.489 = f32[] add(%reduce_sum.487, %reduce_sum.488), metadata={op_name="jit(predict_step)/Model/img/Transformer/encoderblock_1/LayerNorm_0/reduce_sum" stack_frame_id=34}
}

%region_84.88 (reduce_max.94: f32[], reduce_max.95: f32[]) -> f32[] {
  %reduce_max.94 = f32[] parameter(0), metadata={op_name="reduce_max"}
  %reduce_max.95 = f32[] parameter(1), metadata={op_name="reduce_max"}
  ROOT %reduce_max.96 = f32[] maximum(%reduce_max.94, %reduce_max.95), metadata={op_name="jit(predict_step)/Model/img/Transformer/encoderblock_1/MultiHeadDotProductAttention_0/reduce_max" stack_frame_id=38}
}

%region_85.89 (reduce_sum.494: f32[], reduce_sum.495: f32[]) -> f32[] {
  %reduce_sum.494 = f32[] parameter(0), metadata={op_name="reduce_sum"}
  %reduce_sum.495 = f32[] parameter(1), metadata={op_name="reduce_sum"}
  ROOT %reduce_sum.496 = f32[] add(%reduce_sum.494, %reduce_sum.495), metadata={op_name="jit(predict_step)/Model/img/Transformer/encoderblock_1/MultiHeadDotProductAttention_0/reduce_sum" stack_frame_id=38}
}

%region_86.90 (reduce_sum.501: f32[], reduce_sum.502: f32[]) -> f32[] {
  %reduce_sum.501 = f32[] parameter(0), metadata={op_name="reduce_sum"}
  %reduce_sum.502 = f32[] parameter(1), metadata={op_name="reduce_sum"}
  ROOT %reduce_sum.503 = f32[] add(%reduce_sum.501, %reduce_sum.502), metadata={op_name="jit(predict_step)/Model/img/Transformer/encoderblock_1/LayerNorm_1/reduce_sum" stack_frame_id=43}
}

%region_87.91 (reduce_sum.508: f32[], reduce_sum.509: f32[]) -> f32[] {
  %reduce_sum.508 = f32[] parameter(0), metadata={op_name="reduce_sum"}
  %reduce_sum.509 = f32[] parameter(1), metadata={op_name="reduce_sum"}
  ROOT %reduce_sum.510 = f32[] add(%reduce_sum.508, %reduce_sum.509), metadata={op_name="jit(predict_step)/Model/img/Transformer/encoderblock_1/LayerNorm_1/reduce_sum" stack_frame_id=43}
}

%region_88.92 (reduce_sum.515: f32[], reduce_sum.516: f32[]) -> f32[] {
  %reduce_sum.515 = f32[] parameter(0), metadata={op_name="reduce_sum"}
  %reduce_sum.516 = f32[] parameter(1), metadata={op_name="reduce_sum"}
  ROOT %reduce_sum.517 = f32[] add(%reduce_sum.515, %reduce_sum.516), metadata={op_name="jit(predict_step)/Model/img/Transformer/encoderblock_2/LayerNorm_0/reduce_sum" stack_frame_id=34}
}

%region_89.93 (reduce_sum.522: f32[], reduce_sum.523: f32[]) -> f32[] {
  %reduce_sum.522 = f32[] parameter(0), metadata={op_name="reduce_sum"}
  %reduce_sum.523 = f32[] parameter(1), metadata={op_name="reduce_sum"}
  ROOT %reduce_sum.524 = f32[] add(%reduce_sum.522, %reduce_sum.523), metadata={op_name="jit(predict_step)/Model/img/Transformer/encoderblock_2/LayerNorm_0/reduce_sum" stack_frame_id=34}
}

%region_90.94 (reduce_max.101: f32[], reduce_max.102: f32[]) -> f32[] {
  %reduce_max.101 = f32[] parameter(0), metadata={op_name="reduce_max"}
  %reduce_max.102 = f32[] parameter(1), metadata={op_name="reduce_max"}
  ROOT %reduce_max.103 = f32[] maximum(%reduce_max.101, %reduce_max.102), metadata={op_name="jit(predict_step)/Model/img/Transformer/encoderblock_2/MultiHeadDotProductAttention_0/reduce_max" stack_frame_id=38}
}

%region_91.95 (reduce_sum.529: f32[], reduce_sum.530: f32[]) -> f32[] {
  %reduce_sum.529 = f32[] parameter(0), metadata={op_name="reduce_sum"}
  %reduce_sum.530 = f32[] parameter(1), metadata={op_name="reduce_sum"}
  ROOT %reduce_sum.531 = f32[] add(%reduce_sum.529, %reduce_sum.530), metadata={op_name="jit(predict_step)/Model/img/Transformer/encoderblock_2/MultiHeadDotProductAttention_0/reduce_sum" stack_frame_id=38}
}

%region_92.96 (reduce_sum.536: f32[], reduce_sum.537: f32[]) -> f32[] {
  %reduce_sum.536 = f32[] parameter(0), metadata={op_name="reduce_sum"}
  %reduce_sum.537 = f32[] parameter(1), metadata={op_name="reduce_sum"}
  ROOT %reduce_sum.538 = f32[] add(%reduce_sum.536, %reduce_sum.537), metadata={op_name="jit(predict_step)/Model/img/Transformer/encoderblock_2/LayerNorm_1/reduce_sum" stack_frame_id=43}
}

%region_93.97 (reduce_sum.543: f32[], reduce_sum.544: f32[]) -> f32[] {
  %reduce_sum.543 = f32[] parameter(0), metadata={op_name="reduce_sum"}
  %reduce_sum.544 = f32[] parameter(1), metadata={op_name="reduce_sum"}
  ROOT %reduce_sum.545 = f32[] add(%reduce_sum.543, %reduce_sum.544), metadata={op_name="jit(predict_step)/Model/img/Transformer/encoderblock_2/LayerNorm_1/reduce_sum" stack_frame_id=43}
}

%region_94.98 (reduce_sum.550: f32[], reduce_sum.551: f32[]) -> f32[] {
  %reduce_sum.550 = f32[] parameter(0), metadata={op_name="reduce_sum"}
  %reduce_sum.551 = f32[] parameter(1), metadata={op_name="reduce_sum"}
  ROOT %reduce_sum.552 = f32[] add(%reduce_sum.550, %reduce_sum.551), metadata={op_name="jit(predict_step)/Model/img/Transformer/encoderblock_3/LayerNorm_0/reduce_sum" stack_frame_id=34}
}

%region_95.99 (reduce_sum.557: f32[], reduce_sum.558: f32[]) -> f32[] {
  %reduce_sum.557 = f32[] parameter(0), metadata={op_name="reduce_sum"}
  %reduce_sum.558 = f32[] parameter(1), metadata={op_name="reduce_sum"}
  ROOT %reduce_sum.559 = f32[] add(%reduce_sum.557, %reduce_sum.558), metadata={op_name="jit(predict_step)/Model/img/Transformer/encoderblock_3/LayerNorm_0/reduce_sum" stack_frame_id=34}
}

%region_96.100 (reduce_max.108: f32[], reduce_max.109: f32[]) -> f32[] {
  %reduce_max.108 = f32[] parameter(0), metadata={op_name="reduce_max"}
  %reduce_max.109 = f32[] parameter(1), metadata={op_name="reduce_max"}
  ROOT %reduce_max.110 = f32[] maximum(%reduce_max.108, %reduce_max.109), metadata={op_name="jit(predict_step)/Model/img/Transformer/encoderblock_3/MultiHeadDotProductAttention_0/reduce_max" stack_frame_id=38}
}

%region_97.101 (reduce_sum.564: f32[], reduce_sum.565: f32[]) -> f32[] {
  %reduce_sum.564 = f32[] parameter(0), metadata={op_name="reduce_sum"}
  %reduce_sum.565 = f32[] parameter(1), metadata={op_name="reduce_sum"}
  ROOT %reduce_sum.566 = f32[] add(%reduce_sum.564, %reduce_sum.565), metadata={op_name="jit(predict_step)/Model/img/Transformer/encoderblock_3/MultiHeadDotProductAttention_0/reduce_sum" stack_frame_id=38}
}

%region_98.102 (reduce_sum.571: f32[], reduce_sum.572: f32[]) -> f32[] {
  %reduce_sum.571 = f32[] parameter(0), metadata={op_name="reduce_sum"}
  %reduce_sum.572 = f32[] parameter(1), metadata={op_name="reduce_sum"}
  ROOT %reduce_sum.573 = f32[] add(%reduce_sum.571, %reduce_sum.572), metadata={op_name="jit(predict_step)/Model/img/Transformer/encoderblock_3/LayerNorm_1/reduce_sum" stack_frame_id=43}
}

%region_99.103 (reduce_sum.578: f32[], reduce_sum.579: f32[]) -> f32[] {
  %reduce_sum.578 = f32[] parameter(0), metadata={op_name="reduce_sum"}
  %reduce_sum.579 = f32[] parameter(1), metadata={op_name="reduce_sum"}
  ROOT %reduce_sum.580 = f32[] add(%reduce_sum.578, %reduce_sum.579), metadata={op_name="jit(predict_step)/Model/img/Transformer/encoderblock_3/LayerNorm_1/reduce_sum" stack_frame_id=43}
}

%region_100.104 (reduce_sum.585: f32[], reduce_sum.586: f32[]) -> f32[] {
  %reduce_sum.585 = f32[] parameter(0), metadata={op_name="reduce_sum"}
  %reduce_sum.586 = f32[] parameter(1), metadata={op_name="reduce_sum"}
  ROOT %reduce_sum.587 = f32[] add(%reduce_sum.585, %reduce_sum.586), metadata={op_name="jit(predict_step)/Model/img/Transformer/encoderblock_4/LayerNorm_0/reduce_sum" stack_frame_id=34}
}

%region_101.105 (reduce_sum.592: f32[], reduce_sum.593: f32[]) -> f32[] {
  %reduce_sum.592 = f32[] parameter(0), metadata={op_name="reduce_sum"}
  %reduce_sum.593 = f32[] parameter(1), metadata={op_name="reduce_sum"}
  ROOT %reduce_sum.594 = f32[] add(%reduce_sum.592, %reduce_sum.593), metadata={op_name="jit(predict_step)/Model/img/Transformer/encoderblock_4/LayerNorm_0/reduce_sum" stack_frame_id=34}
}

%region_102.106 (reduce_max.115: f32[], reduce_max.116: f32[]) -> f32[] {
  %reduce_max.115 = f32[] parameter(0), metadata={op_name="reduce_max"}
  %reduce_max.116 = f32[] parameter(1), metadata={op_name="reduce_max"}
  ROOT %reduce_max.117 = f32[] maximum(%reduce_max.115, %reduce_max.116), metadata={op_name="jit(predict_step)/Model/img/Transformer/encoderblock_4/MultiHeadDotProductAttention_0/reduce_max" stack_frame_id=38}
}

%region_103.107 (reduce_sum.599: f32[], reduce_sum.600: f32[]) -> f32[] {
  %reduce_sum.599 = f32[] parameter(0), metadata={op_name="reduce_sum"}
  %reduce_sum.600 = f32[] parameter(1), metadata={op_name="reduce_sum"}
  ROOT %reduce_sum.601 = f32[] add(%reduce_sum.599, %reduce_sum.600), metadata={op_name="jit(predict_step)/Model/img/Transformer/encoderblock_4/MultiHeadDotProductAttention_0/reduce_sum" stack_frame_id=38}
}

%region_104.108 (reduce_sum.606: f32[], reduce_sum.607: f32[]) -> f32[] {
  %reduce_sum.606 = f32[] parameter(0), metadata={op_name="reduce_sum"}
  %reduce_sum.607 = f32[] parameter(1), metadata={op_name="reduce_sum"}
  ROOT %reduce_sum.608 = f32[] add(%reduce_sum.606, %reduce_sum.607), metadata={op_name="jit(predict_step)/Model/img/Transformer/encoderblock_4/LayerNorm_1/reduce_sum" stack_frame_id=43}
}

%region_105.109 (reduce_sum.613: f32[], reduce_sum.614: f32[]) -> f32[] {
  %reduce_sum.613 = f32[] parameter(0), metadata={op_name="reduce_sum"}
  %reduce_sum.614 = f32[] parameter(1), metadata={op_name="reduce_sum"}
  ROOT %reduce_sum.615 = f32[] add(%reduce_sum.613, %reduce_sum.614), metadata={op_name="jit(predict_step)/Model/img/Transformer/encoderblock_4/LayerNorm_1/reduce_sum" stack_frame_id=43}
}

%region_106.110 (reduce_sum.620: f32[], reduce_sum.621: f32[]) -> f32[] {
  %reduce_sum.620 = f32[] parameter(0), metadata={op_name="reduce_sum"}
  %reduce_sum.621 = f32[] parameter(1), metadata={op_name="reduce_sum"}
  ROOT %reduce_sum.622 = f32[] add(%reduce_sum.620, %reduce_sum.621), metadata={op_name="jit(predict_step)/Model/img/Transformer/encoderblock_5/LayerNorm_0/reduce_sum" stack_frame_id=34}
}

%region_107.111 (reduce_sum.627: f32[], reduce_sum.628: f32[]) -> f32[] {
  %reduce_sum.627 = f32[] parameter(0), metadata={op_name="reduce_sum"}
  %reduce_sum.628 = f32[] parameter(1), metadata={op_name="reduce_sum"}
  ROOT %reduce_sum.629 = f32[] add(%reduce_sum.627, %reduce_sum.628), metadata={op_name="jit(predict_step)/Model/img/Transformer/encoderblock_5/LayerNorm_0/reduce_sum" stack_frame_id=34}
}

%region_108.112 (reduce_max.122: f32[], reduce_max.123: f32[]) -> f32[] {
  %reduce_max.122 = f32[] parameter(0), metadata={op_name="reduce_max"}
  %reduce_max.123 = f32[] parameter(1), metadata={op_name="reduce_max"}
  ROOT %reduce_max.124 = f32[] maximum(%reduce_max.122, %reduce_max.123), metadata={op_name="jit(predict_step)/Model/img/Transformer/encoderblock_5/MultiHeadDotProductAttention_0/reduce_max" stack_frame_id=38}
}

%region_109.113 (reduce_sum.634: f32[], reduce_sum.635: f32[]) -> f32[] {
  %reduce_sum.634 = f32[] parameter(0), metadata={op_name="reduce_sum"}
  %reduce_sum.635 = f32[] parameter(1), metadata={op_name="reduce_sum"}
  ROOT %reduce_sum.636 = f32[] add(%reduce_sum.634, %reduce_sum.635), metadata={op_name="jit(predict_step)/Model/img/Transformer/encoderblock_5/MultiHeadDotProductAttention_0/reduce_sum" stack_frame_id=38}
}

%region_110.114 (reduce_sum.641: f32[], reduce_sum.642: f32[]) -> f32[] {
  %reduce_sum.641 = f32[] parameter(0), metadata={op_name="reduce_sum"}
  %reduce_sum.642 = f32[] parameter(1), metadata={op_name="reduce_sum"}
  ROOT %reduce_sum.643 = f32[] add(%reduce_sum.641, %reduce_sum.642), metadata={op_name="jit(predict_step)/Model/img/Transformer/encoderblock_5/LayerNorm_1/reduce_sum" stack_frame_id=43}
}

%region_111.115 (reduce_sum.648: f32[], reduce_sum.649: f32[]) -> f32[] {
  %reduce_sum.648 = f32[] parameter(0), metadata={op_name="reduce_sum"}
  %reduce_sum.649 = f32[] parameter(1), metadata={op_name="reduce_sum"}
  ROOT %reduce_sum.650 = f32[] add(%reduce_sum.648, %reduce_sum.649), metadata={op_name="jit(predict_step)/Model/img/Transformer/encoderblock_5/LayerNorm_1/reduce_sum" stack_frame_id=43}
}

%region_112.116 (reduce_sum.655: f32[], reduce_sum.656: f32[]) -> f32[] {
  %reduce_sum.655 = f32[] parameter(0), metadata={op_name="reduce_sum"}
  %reduce_sum.656 = f32[] parameter(1), metadata={op_name="reduce_sum"}
  ROOT %reduce_sum.657 = f32[] add(%reduce_sum.655, %reduce_sum.656), metadata={op_name="jit(predict_step)/Model/img/Transformer/encoderblock_6/LayerNorm_0/reduce_sum" stack_frame_id=34}
}

%region_113.117 (reduce_sum.662: f32[], reduce_sum.663: f32[]) -> f32[] {
  %reduce_sum.662 = f32[] parameter(0), metadata={op_name="reduce_sum"}
  %reduce_sum.663 = f32[] parameter(1), metadata={op_name="reduce_sum"}
  ROOT %reduce_sum.664 = f32[] add(%reduce_sum.662, %reduce_sum.663), metadata={op_name="jit(predict_step)/Model/img/Transformer/encoderblock_6/LayerNorm_0/reduce_sum" stack_frame_id=34}
}

%region_114.118 (reduce_max.129: f32[], reduce_max.130: f32[]) -> f32[] {
  %reduce_max.129 = f32[] parameter(0), metadata={op_name="reduce_max"}
  %reduce_max.130 = f32[] parameter(1), metadata={op_name="reduce_max"}
  ROOT %reduce_max.131 = f32[] maximum(%reduce_max.129, %reduce_max.130), metadata={op_name="jit(predict_step)/Model/img/Transformer/encoderblock_6/MultiHeadDotProductAttention_0/reduce_max" stack_frame_id=38}
}

%region_115.119 (reduce_sum.669: f32[], reduce_sum.670: f32[]) -> f32[] {
  %reduce_sum.669 = f32[] parameter(0), metadata={op_name="reduce_sum"}
  %reduce_sum.670 = f32[] parameter(1), metadata={op_name="reduce_sum"}
  ROOT %reduce_sum.671 = f32[] add(%reduce_sum.669, %reduce_sum.670), metadata={op_name="jit(predict_step)/Model/img/Transformer/encoderblock_6/MultiHeadDotProductAttention_0/reduce_sum" stack_frame_id=38}
}

%region_116.120 (reduce_sum.676: f32[], reduce_sum.677: f32[]) -> f32[] {
  %reduce_sum.676 = f32[] parameter(0), metadata={op_name="reduce_sum"}
  %reduce_sum.677 = f32[] parameter(1), metadata={op_name="reduce_sum"}
  ROOT %reduce_sum.678 = f32[] add(%reduce_sum.676, %reduce_sum.677), metadata={op_name="jit(predict_step)/Model/img/Transformer/encoderblock_6/LayerNorm_1/reduce_sum" stack_frame_id=43}
}

%region_117.121 (reduce_sum.683: f32[], reduce_sum.684: f32[]) -> f32[] {
  %reduce_sum.683 = f32[] parameter(0), metadata={op_name="reduce_sum"}
  %reduce_sum.684 = f32[] parameter(1), metadata={op_name="reduce_sum"}
  ROOT %reduce_sum.685 = f32[] add(%reduce_sum.683, %reduce_sum.684), metadata={op_name="jit(predict_step)/Model/img/Transformer/encoderblock_6/LayerNorm_1/reduce_sum" stack_frame_id=43}
}

%region_118.122 (reduce_sum.690: f32[], reduce_sum.691: f32[]) -> f32[] {
  %reduce_sum.690 = f32[] parameter(0), metadata={op_name="reduce_sum"}
  %reduce_sum.691 = f32[] parameter(1), metadata={op_name="reduce_sum"}
  ROOT %reduce_sum.692 = f32[] add(%reduce_sum.690, %reduce_sum.691), metadata={op_name="jit(predict_step)/Model/img/Transformer/encoderblock_7/LayerNorm_0/reduce_sum" stack_frame_id=34}
}

%region_119.123 (reduce_sum.697: f32[], reduce_sum.698: f32[]) -> f32[] {
  %reduce_sum.697 = f32[] parameter(0), metadata={op_name="reduce_sum"}
  %reduce_sum.698 = f32[] parameter(1), metadata={op_name="reduce_sum"}
  ROOT %reduce_sum.699 = f32[] add(%reduce_sum.697, %reduce_sum.698), metadata={op_name="jit(predict_step)/Model/img/Transformer/encoderblock_7/LayerNorm_0/reduce_sum" stack_frame_id=34}
}

%region_120.124 (reduce_max.136: f32[], reduce_max.137: f32[]) -> f32[] {
  %reduce_max.136 = f32[] parameter(0), metadata={op_name="reduce_max"}
  %reduce_max.137 = f32[] parameter(1), metadata={op_name="reduce_max"}
  ROOT %reduce_max.138 = f32[] maximum(%reduce_max.136, %reduce_max.137), metadata={op_name="jit(predict_step)/Model/img/Transformer/encoderblock_7/MultiHeadDotProductAttention_0/reduce_max" stack_frame_id=38}
}

%region_121.125 (reduce_sum.704: f32[], reduce_sum.705: f32[]) -> f32[] {
  %reduce_sum.704 = f32[] parameter(0), metadata={op_name="reduce_sum"}
  %reduce_sum.705 = f32[] parameter(1), metadata={op_name="reduce_sum"}
  ROOT %reduce_sum.706 = f32[] add(%reduce_sum.704, %reduce_sum.705), metadata={op_name="jit(predict_step)/Model/img/Transformer/encoderblock_7/MultiHeadDotProductAttention_0/reduce_sum" stack_frame_id=38}
}

%region_122.126 (reduce_sum.711: f32[], reduce_sum.712: f32[]) -> f32[] {
  %reduce_sum.711 = f32[] parameter(0), metadata={op_name="reduce_sum"}
  %reduce_sum.712 = f32[] parameter(1), metadata={op_name="reduce_sum"}
  ROOT %reduce_sum.713 = f32[] add(%reduce_sum.711, %reduce_sum.712), metadata={op_name="jit(predict_step)/Model/img/Transformer/encoderblock_7/LayerNorm_1/reduce_sum" stack_frame_id=43}
}

%region_123.127 (reduce_sum.718: f32[], reduce_sum.719: f32[]) -> f32[] {
  %reduce_sum.718 = f32[] parameter(0), metadata={op_name="reduce_sum"}
  %reduce_sum.719 = f32[] parameter(1), metadata={op_name="reduce_sum"}
  ROOT %reduce_sum.720 = f32[] add(%reduce_sum.718, %reduce_sum.719), metadata={op_name="jit(predict_step)/Model/img/Transformer/encoderblock_7/LayerNorm_1/reduce_sum" stack_frame_id=43}
}

%region_124.128 (reduce_sum.725: f32[], reduce_sum.726: f32[]) -> f32[] {
  %reduce_sum.725 = f32[] parameter(0), metadata={op_name="reduce_sum"}
  %reduce_sum.726 = f32[] parameter(1), metadata={op_name="reduce_sum"}
  ROOT %reduce_sum.727 = f32[] add(%reduce_sum.725, %reduce_sum.726), metadata={op_name="jit(predict_step)/Model/img/Transformer/encoderblock_8/LayerNorm_0/reduce_sum" stack_frame_id=34}
}

%region_125.129 (reduce_sum.732: f32[], reduce_sum.733: f32[]) -> f32[] {
  %reduce_sum.732 = f32[] parameter(0), metadata={op_name="reduce_sum"}
  %reduce_sum.733 = f32[] parameter(1), metadata={op_name="reduce_sum"}
  ROOT %reduce_sum.734 = f32[] add(%reduce_sum.732, %reduce_sum.733), metadata={op_name="jit(predict_step)/Model/img/Transformer/encoderblock_8/LayerNorm_0/reduce_sum" stack_frame_id=34}
}

%region_126.130 (reduce_max.143: f32[], reduce_max.144: f32[]) -> f32[] {
  %reduce_max.143 = f32[] parameter(0), metadata={op_name="reduce_max"}
  %reduce_max.144 = f32[] parameter(1), metadata={op_name="reduce_max"}
  ROOT %reduce_max.145 = f32[] maximum(%reduce_max.143, %reduce_max.144), metadata={op_name="jit(predict_step)/Model/img/Transformer/encoderblock_8/MultiHeadDotProductAttention_0/reduce_max" stack_frame_id=38}
}

%region_127.131 (reduce_sum.739: f32[], reduce_sum.740: f32[]) -> f32[] {
  %reduce_sum.739 = f32[] parameter(0), metadata={op_name="reduce_sum"}
  %reduce_sum.740 = f32[] parameter(1), metadata={op_name="reduce_sum"}
  ROOT %reduce_sum.741 = f32[] add(%reduce_sum.739, %reduce_sum.740), metadata={op_name="jit(predict_step)/Model/img/Transformer/encoderblock_8/MultiHeadDotProductAttention_0/reduce_sum" stack_frame_id=38}
}

%region_128.132 (reduce_sum.746: f32[], reduce_sum.747: f32[]) -> f32[] {
  %reduce_sum.746 = f32[] parameter(0), metadata={op_name="reduce_sum"}
  %reduce_sum.747 = f32[] parameter(1), metadata={op_name="reduce_sum"}
  ROOT %reduce_sum.748 = f32[] add(%reduce_sum.746, %reduce_sum.747), metadata={op_name="jit(predict_step)/Model/img/Transformer/encoderblock_8/LayerNorm_1/reduce_sum" stack_frame_id=43}
}

%region_129.133 (reduce_sum.753: f32[], reduce_sum.754: f32[]) -> f32[] {
  %reduce_sum.753 = f32[] parameter(0), metadata={op_name="reduce_sum"}
  %reduce_sum.754 = f32[] parameter(1), metadata={op_name="reduce_sum"}
  ROOT %reduce_sum.755 = f32[] add(%reduce_sum.753, %reduce_sum.754), metadata={op_name="jit(predict_step)/Model/img/Transformer/encoderblock_8/LayerNorm_1/reduce_sum" stack_frame_id=43}
}

%region_130.134 (reduce_sum.760: f32[], reduce_sum.761: f32[]) -> f32[] {
  %reduce_sum.760 = f32[] parameter(0), metadata={op_name="reduce_sum"}
  %reduce_sum.761 = f32[] parameter(1), metadata={op_name="reduce_sum"}
  ROOT %reduce_sum.762 = f32[] add(%reduce_sum.760, %reduce_sum.761), metadata={op_name="jit(predict_step)/Model/img/Transformer/encoderblock_9/LayerNorm_0/reduce_sum" stack_frame_id=34}
}

%region_131.135 (reduce_sum.767: f32[], reduce_sum.768: f32[]) -> f32[] {
  %reduce_sum.767 = f32[] parameter(0), metadata={op_name="reduce_sum"}
  %reduce_sum.768 = f32[] parameter(1), metadata={op_name="reduce_sum"}
  ROOT %reduce_sum.769 = f32[] add(%reduce_sum.767, %reduce_sum.768), metadata={op_name="jit(predict_step)/Model/img/Transformer/encoderblock_9/LayerNorm_0/reduce_sum" stack_frame_id=34}
}

%region_132.136 (reduce_max.150: f32[], reduce_max.151: f32[]) -> f32[] {
  %reduce_max.150 = f32[] parameter(0), metadata={op_name="reduce_max"}
  %reduce_max.151 = f32[] parameter(1), metadata={op_name="reduce_max"}
  ROOT %reduce_max.152 = f32[] maximum(%reduce_max.150, %reduce_max.151), metadata={op_name="jit(predict_step)/Model/img/Transformer/encoderblock_9/MultiHeadDotProductAttention_0/reduce_max" stack_frame_id=38}
}

%region_133.137 (reduce_sum.774: f32[], reduce_sum.775: f32[]) -> f32[] {
  %reduce_sum.774 = f32[] parameter(0), metadata={op_name="reduce_sum"}
  %reduce_sum.775 = f32[] parameter(1), metadata={op_name="reduce_sum"}
  ROOT %reduce_sum.776 = f32[] add(%reduce_sum.774, %reduce_sum.775), metadata={op_name="jit(predict_step)/Model/img/Transformer/encoderblock_9/MultiHeadDotProductAttention_0/reduce_sum" stack_frame_id=38}
}

%region_134.138 (reduce_sum.781: f32[], reduce_sum.782: f32[]) -> f32[] {
  %reduce_sum.781 = f32[] parameter(0), metadata={op_name="reduce_sum"}
  %reduce_sum.782 = f32[] parameter(1), metadata={op_name="reduce_sum"}
  ROOT %reduce_sum.783 = f32[] add(%reduce_sum.781, %reduce_sum.782), metadata={op_name="jit(predict_step)/Model/img/Transformer/encoderblock_9/LayerNorm_1/reduce_sum" stack_frame_id=43}
}

%region_135.139 (reduce_sum.788: f32[], reduce_sum.789: f32[]) -> f32[] {
  %reduce_sum.788 = f32[] parameter(0), metadata={op_name="reduce_sum"}
  %reduce_sum.789 = f32[] parameter(1), metadata={op_name="reduce_sum"}
  ROOT %reduce_sum.790 = f32[] add(%reduce_sum.788, %reduce_sum.789), metadata={op_name="jit(predict_step)/Model/img/Transformer/encoderblock_9/LayerNorm_1/reduce_sum" stack_frame_id=43}
}

%region_136.140 (reduce_sum.795: f32[], reduce_sum.796: f32[]) -> f32[] {
  %reduce_sum.795 = f32[] parameter(0), metadata={op_name="reduce_sum"}
  %reduce_sum.796 = f32[] parameter(1), metadata={op_name="reduce_sum"}
  ROOT %reduce_sum.797 = f32[] add(%reduce_sum.795, %reduce_sum.796), metadata={op_name="jit(predict_step)/Model/img/Transformer/encoderblock_10/LayerNorm_0/reduce_sum" stack_frame_id=34}
}

%region_137.141 (reduce_sum.802: f32[], reduce_sum.803: f32[]) -> f32[] {
  %reduce_sum.802 = f32[] parameter(0), metadata={op_name="reduce_sum"}
  %reduce_sum.803 = f32[] parameter(1), metadata={op_name="reduce_sum"}
  ROOT %reduce_sum.804 = f32[] add(%reduce_sum.802, %reduce_sum.803), metadata={op_name="jit(predict_step)/Model/img/Transformer/encoderblock_10/LayerNorm_0/reduce_sum" stack_frame_id=34}
}

%region_138.142 (reduce_max.157: f32[], reduce_max.158: f32[]) -> f32[] {
  %reduce_max.157 = f32[] parameter(0), metadata={op_name="reduce_max"}
  %reduce_max.158 = f32[] parameter(1), metadata={op_name="reduce_max"}
  ROOT %reduce_max.159 = f32[] maximum(%reduce_max.157, %reduce_max.158), metadata={op_name="jit(predict_step)/Model/img/Transformer/encoderblock_10/MultiHeadDotProductAttention_0/reduce_max" stack_frame_id=38}
}

%region_139.143 (reduce_sum.809: f32[], reduce_sum.810: f32[]) -> f32[] {
  %reduce_sum.809 = f32[] parameter(0), metadata={op_name="reduce_sum"}
  %reduce_sum.810 = f32[] parameter(1), metadata={op_name="reduce_sum"}
  ROOT %reduce_sum.811 = f32[] add(%reduce_sum.809, %reduce_sum.810), metadata={op_name="jit(predict_step)/Model/img/Transformer/encoderblock_10/MultiHeadDotProductAttention_0/reduce_sum" stack_frame_id=38}
}

%region_140.144 (reduce_sum.816: f32[], reduce_sum.817: f32[]) -> f32[] {
  %reduce_sum.816 = f32[] parameter(0), metadata={op_name="reduce_sum"}
  %reduce_sum.817 = f32[] parameter(1), metadata={op_name="reduce_sum"}
  ROOT %reduce_sum.818 = f32[] add(%reduce_sum.816, %reduce_sum.817), metadata={op_name="jit(predict_step)/Model/img/Transformer/encoderblock_10/LayerNorm_1/reduce_sum" stack_frame_id=43}
}

%region_141.145 (reduce_sum.823: f32[], reduce_sum.824: f32[]) -> f32[] {
  %reduce_sum.823 = f32[] parameter(0), metadata={op_name="reduce_sum"}
  %reduce_sum.824 = f32[] parameter(1), metadata={op_name="reduce_sum"}
  ROOT %reduce_sum.825 = f32[] add(%reduce_sum.823, %reduce_sum.824), metadata={op_name="jit(predict_step)/Model/img/Transformer/encoderblock_10/LayerNorm_1/reduce_sum" stack_frame_id=43}
}

%region_142.146 (reduce_sum.830: f32[], reduce_sum.831: f32[]) -> f32[] {
  %reduce_sum.830 = f32[] parameter(0), metadata={op_name="reduce_sum"}
  %reduce_sum.831 = f32[] parameter(1), metadata={op_name="reduce_sum"}
  ROOT %reduce_sum.832 = f32[] add(%reduce_sum.830, %reduce_sum.831), metadata={op_name="jit(predict_step)/Model/img/Transformer/encoderblock_11/LayerNorm_0/reduce_sum" stack_frame_id=34}
}

%region_143.147 (reduce_sum.837: f32[], reduce_sum.838: f32[]) -> f32[] {
  %reduce_sum.837 = f32[] parameter(0), metadata={op_name="reduce_sum"}
  %reduce_sum.838 = f32[] parameter(1), metadata={op_name="reduce_sum"}
  ROOT %reduce_sum.839 = f32[] add(%reduce_sum.837, %reduce_sum.838), metadata={op_name="jit(predict_step)/Model/img/Transformer/encoderblock_11/LayerNorm_0/reduce_sum" stack_frame_id=34}
}

%region_144.148 (reduce_max.164: f32[], reduce_max.165: f32[]) -> f32[] {
  %reduce_max.164 = f32[] parameter(0), metadata={op_name="reduce_max"}
  %reduce_max.165 = f32[] parameter(1), metadata={op_name="reduce_max"}
  ROOT %reduce_max.166 = f32[] maximum(%reduce_max.164, %reduce_max.165), metadata={op_name="jit(predict_step)/Model/img/Transformer/encoderblock_11/MultiHeadDotProductAttention_0/reduce_max" stack_frame_id=38}
}

%region_145.149 (reduce_sum.844: f32[], reduce_sum.845: f32[]) -> f32[] {
  %reduce_sum.844 = f32[] parameter(0), metadata={op_name="reduce_sum"}
  %reduce_sum.845 = f32[] parameter(1), metadata={op_name="reduce_sum"}
  ROOT %reduce_sum.846 = f32[] add(%reduce_sum.844, %reduce_sum.845), metadata={op_name="jit(predict_step)/Model/img/Transformer/encoderblock_11/MultiHeadDotProductAttention_0/reduce_sum" stack_frame_id=38}
}

%region_146.150 (reduce_sum.851: f32[], reduce_sum.852: f32[]) -> f32[] {
  %reduce_sum.851 = f32[] parameter(0), metadata={op_name="reduce_sum"}
  %reduce_sum.852 = f32[] parameter(1), metadata={op_name="reduce_sum"}
  ROOT %reduce_sum.853 = f32[] add(%reduce_sum.851, %reduce_sum.852), metadata={op_name="jit(predict_step)/Model/img/Transformer/encoderblock_11/LayerNorm_1/reduce_sum" stack_frame_id=43}
}

%region_147.151 (reduce_sum.858: f32[], reduce_sum.859: f32[]) -> f32[] {
  %reduce_sum.858 = f32[] parameter(0), metadata={op_name="reduce_sum"}
  %reduce_sum.859 = f32[] parameter(1), metadata={op_name="reduce_sum"}
  ROOT %reduce_sum.860 = f32[] add(%reduce_sum.858, %reduce_sum.859), metadata={op_name="jit(predict_step)/Model/img/Transformer/encoderblock_11/LayerNorm_1/reduce_sum" stack_frame_id=43}
}

%region_148.152 (reduce_sum.865: f32[], reduce_sum.866: f32[]) -> f32[] {
  %reduce_sum.865 = f32[] parameter(0), metadata={op_name="reduce_sum"}
  %reduce_sum.866 = f32[] parameter(1), metadata={op_name="reduce_sum"}
  ROOT %reduce_sum.867 = f32[] add(%reduce_sum.865, %reduce_sum.866), metadata={op_name="jit(predict_step)/Model/img/Transformer/encoder_norm/reduce_sum" stack_frame_id=48}
}

%region_149.153 (reduce_sum.872: f32[], reduce_sum.873: f32[]) -> f32[] {
  %reduce_sum.872 = f32[] parameter(0), metadata={op_name="reduce_sum"}
  %reduce_sum.873 = f32[] parameter(1), metadata={op_name="reduce_sum"}
  ROOT %reduce_sum.874 = f32[] add(%reduce_sum.872, %reduce_sum.873), metadata={op_name="jit(predict_step)/Model/img/Transformer/encoder_norm/reduce_sum" stack_frame_id=48}
}

%region_150.154 (reduce_sum.879: f32[], reduce_sum.880: f32[]) -> f32[] {
  %reduce_sum.879 = f32[] parameter(0), metadata={op_name="reduce_sum"}
  %reduce_sum.880 = f32[] parameter(1), metadata={op_name="reduce_sum"}
  ROOT %reduce_sum.881 = f32[] add(%reduce_sum.879, %reduce_sum.880), metadata={op_name="jit(predict_step)/Model/img/reduce_sum" stack_frame_id=49}
}

%region_75.78 (reduce_sum.437: f32[], reduce_sum.438: f32[]) -> f32[] {
  %reduce_sum.437 = f32[] parameter(0), metadata={op_name="reduce_sum"}
  %reduce_sum.438 = f32[] parameter(1), metadata={op_name="reduce_sum"}
  ROOT %reduce_sum.439 = f32[] add(%reduce_sum.437, %reduce_sum.438), metadata={op_name="reduce_sum"}
}

%norm.79 (Arg_0.5: f32[16,768]) -> f32[16,1] {
  %Arg_0.5 = f32[16,768]{1,0} parameter(0)
  %mul.249 = f32[16,768]{1,0} multiply(%Arg_0.5, %Arg_0.5), metadata={op_name="mul"}
  %constant.35 = f32[] constant(0)
  %reduce_sum.441 = f32[16]{0} reduce(%mul.249, %constant.35), dimensions={1}, to_apply=%region_75.78, metadata={op_name="reduce_sum"}
  %broadcast_in_dim.81 = f32[16,1]{1,0} reshape(%reduce_sum.441), metadata={op_name="broadcast_in_dim"}
  ROOT %sqrt.1 = f32[16,1]{1,0} sqrt(%broadcast_in_dim.81), metadata={op_name="sqrt"}
}

%_where.1 (Arg_0.2: pred[16,64], Arg_1.2: s32[16,64], Arg_2.1: s32[16,64]) -> s32[16,64] {
  %Arg_0.2 = pred[16,64]{1,0} parameter(0)
  %Arg_1.2 = s32[16,64]{1,0} parameter(1)
  %Arg_2.1 = s32[16,64]{1,0} parameter(2)
  ROOT %select_n.1 = s32[16,64]{1,0} select(%Arg_0.2, %Arg_1.2, %Arg_2.1), metadata={op_name="select_n"}
}

%region_0.2 (reduce_and.3: pred[], reduce_and.4: pred[]) -> pred[] {
  %reduce_and.3 = pred[] parameter(0), metadata={op_name="reduce_and"}
  %reduce_and.4 = pred[] parameter(1), metadata={op_name="reduce_and"}
  ROOT %reduce_and.5 = pred[] and(%reduce_and.3, %reduce_and.4), metadata={op_name="reduce_and"}
}

%_take.3 (Arg_0.3: f32[32000,768], Arg_1.3: s32[16,64]) -> f32[16,64,768] {
  %Arg_1.3 = s32[16,64]{1,0} parameter(1)
  %constant.33 = s32[] constant(0)
  %lt.2 = s32[16,64]{1,0} broadcast(%constant.33), dimensions={}, metadata={op_name="lt"}
  %lt.3 = pred[16,64]{1,0} compare(%Arg_1.3, %lt.2), direction=LT, metadata={op_name="lt"}
  %constant.31 = s32[] constant(32000)
  %add.2 = s32[16,64]{1,0} broadcast(%constant.31), dimensions={}, metadata={op_name="add"}
  %add.3 = s32[16,64]{1,0} add(%Arg_1.3, %add.2), metadata={op_name="add"}
  %jit__where_.1 = s32[16,64]{1,0} call(%lt.3, %add.3, %Arg_1.3), to_apply=%_where.1, metadata={op_name="jit(_where)"}
  %broadcast_in_dim.4 = s32[16,64,1]{2,1,0} reshape(%jit__where_.1), metadata={op_name="broadcast_in_dim"}
  %constant.30 = s32[] constant(0)
  %ge.2 = s32[16,64,1]{2,1,0} broadcast(%constant.30), dimensions={}, metadata={op_name="ge"}
  %ge.3 = pred[16,64,1]{2,1,0} compare(%broadcast_in_dim.4, %ge.2), direction=GE, metadata={op_name="ge"}
  %constant.29 = s32[] constant(31999)
  %le.2 = s32[16,64,1]{2,1,0} broadcast(%constant.29), dimensions={}, metadata={op_name="le"}
  %le.3 = pred[16,64,1]{2,1,0} compare(%broadcast_in_dim.4, %le.2), direction=LE, metadata={op_name="le"}
  %and.1 = pred[16,64,1]{2,1,0} and(%ge.3, %le.3), metadata={op_name="and"}
  %constant.32 = pred[] constant(true)
  %reduce_and.7 = pred[16,64]{1,0} reduce(%and.1, %constant.32), dimensions={2}, to_apply=%region_0.2, metadata={op_name="reduce_and"}
  %broadcast_in_dim.5 = pred[16,64,768]{2,1,0} broadcast(%reduce_and.7), dimensions={0,1}, metadata={op_name="broadcast_in_dim"}
  %Arg_0.3 = f32[32000,768]{1,0} parameter(0)
  %gather.1 = f32[16,64,768]{2,1,0} gather(%Arg_0.3, %broadcast_in_dim.4), offset_dims={2}, collapsed_slice_dims={0}, start_index_map={0}, index_vector_dim=2, slice_sizes={1,768}, metadata={op_name="gather"}
  %constant.28 = f32[] constant(nan)
  %broadcast_in_dim.3 = f32[16,64,768]{2,1,0} broadcast(%constant.28), dimensions={}, metadata={op_name="broadcast_in_dim"}
  ROOT %select_n.3 = f32[16,64,768]{2,1,0} select(%broadcast_in_dim.5, %gather.1, %broadcast_in_dim.3), metadata={op_name="select_n"}
}

%region_1.4 (reduce_sum.3: f32[], reduce_sum.4: f32[]) -> f32[] {
  %reduce_sum.3 = f32[] parameter(0), metadata={op_name="reduce_sum"}
  %reduce_sum.4 = f32[] parameter(1), metadata={op_name="reduce_sum"}
  ROOT %reduce_sum.5 = f32[] add(%reduce_sum.3, %reduce_sum.4), metadata={op_name="jit(predict_step)/Model/txt/Encoder_0/encoderblock_0/LayerNorm_0/reduce_sum" stack_frame_id=12}
}

%region_2.5 (reduce_sum.10: f32[], reduce_sum.11: f32[]) -> f32[] {
  %reduce_sum.10 = f32[] parameter(0), metadata={op_name="reduce_sum"}
  %reduce_sum.11 = f32[] parameter(1), metadata={op_name="reduce_sum"}
  ROOT %reduce_sum.12 = f32[] add(%reduce_sum.10, %reduce_sum.11), metadata={op_name="jit(predict_step)/Model/txt/Encoder_0/encoderblock_0/LayerNorm_0/reduce_sum" stack_frame_id=12}
}

%region_3.6 (reduce_max.3: f32[], reduce_max.4: f32[]) -> f32[] {
  %reduce_max.3 = f32[] parameter(0), metadata={op_name="reduce_max"}
  %reduce_max.4 = f32[] parameter(1), metadata={op_name="reduce_max"}
  ROOT %reduce_max.5 = f32[] maximum(%reduce_max.3, %reduce_max.4), metadata={op_name="jit(predict_step)/Model/txt/Encoder_0/encoderblock_0/MultiHeadDotProductAttention_0/reduce_max" stack_frame_id=16}
}

%region_4.7 (reduce_sum.17: f32[], reduce_sum.18: f32[]) -> f32[] {
  %reduce_sum.17 = f32[] parameter(0), metadata={op_name="reduce_sum"}
  %reduce_sum.18 = f32[] parameter(1), metadata={op_name="reduce_sum"}
  ROOT %reduce_sum.19 = f32[] add(%reduce_sum.17, %reduce_sum.18), metadata={op_name="jit(predict_step)/Model/txt/Encoder_0/encoderblock_0/MultiHeadDotProductAttention_0/reduce_sum" stack_frame_id=16}
}

%region_5.8 (reduce_sum.24: f32[], reduce_sum.25: f32[]) -> f32[] {
  %reduce_sum.24 = f32[] parameter(0), metadata={op_name="reduce_sum"}
  %reduce_sum.25 = f32[] parameter(1), metadata={op_name="reduce_sum"}
  ROOT %reduce_sum.26 = f32[] add(%reduce_sum.24, %reduce_sum.25), metadata={op_name="jit(predict_step)/Model/txt/Encoder_0/encoderblock_0/LayerNorm_1/reduce_sum" stack_frame_id=21}
}

%region_6.9 (reduce_sum.31: f32[], reduce_sum.32: f32[]) -> f32[] {
  %reduce_sum.31 = f32[] parameter(0), metadata={op_name="reduce_sum"}
  %reduce_sum.32 = f32[] parameter(1), metadata={op_name="reduce_sum"}
  ROOT %reduce_sum.33 = f32[] add(%reduce_sum.31, %reduce_sum.32), metadata={op_name="jit(predict_step)/Model/txt/Encoder_0/encoderblock_0/LayerNorm_1/reduce_sum" stack_frame_id=21}
}

%region_7.10 (reduce_sum.38: f32[], reduce_sum.39: f32[]) -> f32[] {
  %reduce_sum.38 = f32[] parameter(0), metadata={op_name="reduce_sum"}
  %reduce_sum.39 = f32[] parameter(1), metadata={op_name="reduce_sum"}
  ROOT %reduce_sum.40 = f32[] add(%reduce_sum.38, %reduce_sum.39), metadata={op_name="jit(predict_step)/Model/txt/Encoder_0/encoderblock_1/LayerNorm_0/reduce_sum" stack_frame_id=12}
}

%region_8.11 (reduce_sum.45: f32[], reduce_sum.46: f32[]) -> f32[] {
  %reduce_sum.45 = f32[] parameter(0), metadata={op_name="reduce_sum"}
  %reduce_sum.46 = f32[] parameter(1), metadata={op_name="reduce_sum"}
  ROOT %reduce_sum.47 = f32[] add(%reduce_sum.45, %reduce_sum.46), metadata={op_name="jit(predict_step)/Model/txt/Encoder_0/encoderblock_1/LayerNorm_0/reduce_sum" stack_frame_id=12}
}

%region_9.12 (reduce_max.10: f32[], reduce_max.11: f32[]) -> f32[] {
  %reduce_max.10 = f32[] parameter(0), metadata={op_name="reduce_max"}
  %reduce_max.11 = f32[] parameter(1), metadata={op_name="reduce_max"}
  ROOT %reduce_max.12 = f32[] maximum(%reduce_max.10, %reduce_max.11), metadata={op_name="jit(predict_step)/Model/txt/Encoder_0/encoderblock_1/MultiHeadDotProductAttention_0/reduce_max" stack_frame_id=16}
}

%region_10.13 (reduce_sum.52: f32[], reduce_sum.53: f32[]) -> f32[] {
  %reduce_sum.52 = f32[] parameter(0), metadata={op_name="reduce_sum"}
  %reduce_sum.53 = f32[] parameter(1), metadata={op_name="reduce_sum"}
  ROOT %reduce_sum.54 = f32[] add(%reduce_sum.52, %reduce_sum.53), metadata={op_name="jit(predict_step)/Model/txt/Encoder_0/encoderblock_1/MultiHeadDotProductAttention_0/reduce_sum" stack_frame_id=16}
}

%region_11.14 (reduce_sum.59: f32[], reduce_sum.60: f32[]) -> f32[] {
  %reduce_sum.59 = f32[] parameter(0), metadata={op_name="reduce_sum"}
  %reduce_sum.60 = f32[] parameter(1), metadata={op_name="reduce_sum"}
  ROOT %reduce_sum.61 = f32[] add(%reduce_sum.59, %reduce_sum.60), metadata={op_name="jit(predict_step)/Model/txt/Encoder_0/encoderblock_1/LayerNorm_1/reduce_sum" stack_frame_id=21}
}

%region_12.15 (reduce_sum.66: f32[], reduce_sum.67: f32[]) -> f32[] {
  %reduce_sum.66 = f32[] parameter(0), metadata={op_name="reduce_sum"}
  %reduce_sum.67 = f32[] parameter(1), metadata={op_name="reduce_sum"}
  ROOT %reduce_sum.68 = f32[] add(%reduce_sum.66, %reduce_sum.67), metadata={op_name="jit(predict_step)/Model/txt/Encoder_0/encoderblock_1/LayerNorm_1/reduce_sum" stack_frame_id=21}
}

%region_13.16 (reduce_sum.73: f32[], reduce_sum.74: f32[]) -> f32[] {
  %reduce_sum.73 = f32[] parameter(0), metadata={op_name="reduce_sum"}
  %reduce_sum.74 = f32[] parameter(1), metadata={op_name="reduce_sum"}
  ROOT %reduce_sum.75 = f32[] add(%reduce_sum.73, %reduce_sum.74), metadata={op_name="jit(predict_step)/Model/txt/Encoder_0/encoderblock_2/LayerNorm_0/reduce_sum" stack_frame_id=12}
}

%region_14.17 (reduce_sum.80: f32[], reduce_sum.81: f32[]) -> f32[] {
  %reduce_sum.80 = f32[] parameter(0), metadata={op_name="reduce_sum"}
  %reduce_sum.81 = f32[] parameter(1), metadata={op_name="reduce_sum"}
  ROOT %reduce_sum.82 = f32[] add(%reduce_sum.80, %reduce_sum.81), metadata={op_name="jit(predict_step)/Model/txt/Encoder_0/encoderblock_2/LayerNorm_0/reduce_sum" stack_frame_id=12}
}

%region_15.18 (reduce_max.17: f32[], reduce_max.18: f32[]) -> f32[] {
  %reduce_max.17 = f32[] parameter(0), metadata={op_name="reduce_max"}
  %reduce_max.18 = f32[] parameter(1), metadata={op_name="reduce_max"}
  ROOT %reduce_max.19 = f32[] maximum(%reduce_max.17, %reduce_max.18), metadata={op_name="jit(predict_step)/Model/txt/Encoder_0/encoderblock_2/MultiHeadDotProductAttention_0/reduce_max" stack_frame_id=16}
}

%region_16.19 (reduce_sum.87: f32[], reduce_sum.88: f32[]) -> f32[] {
  %reduce_sum.87 = f32[] parameter(0), metadata={op_name="reduce_sum"}
  %reduce_sum.88 = f32[] parameter(1), metadata={op_name="reduce_sum"}
  ROOT %reduce_sum.89 = f32[] add(%reduce_sum.87, %reduce_sum.88), metadata={op_name="jit(predict_step)/Model/txt/Encoder_0/encoderblock_2/MultiHeadDotProductAttention_0/reduce_sum" stack_frame_id=16}
}

%region_17.20 (reduce_sum.94: f32[], reduce_sum.95: f32[]) -> f32[] {
  %reduce_sum.94 = f32[] parameter(0), metadata={op_name="reduce_sum"}
  %reduce_sum.95 = f32[] parameter(1), metadata={op_name="reduce_sum"}
  ROOT %reduce_sum.96 = f32[] add(%reduce_sum.94, %reduce_sum.95), metadata={op_name="jit(predict_step)/Model/txt/Encoder_0/encoderblock_2/LayerNorm_1/reduce_sum" stack_frame_id=21}
}

%region_18.21 (reduce_sum.101: f32[], reduce_sum.102: f32[]) -> f32[] {
  %reduce_sum.101 = f32[] parameter(0), metadata={op_name="reduce_sum"}
  %reduce_sum.102 = f32[] parameter(1), metadata={op_name="reduce_sum"}
  ROOT %reduce_sum.103 = f32[] add(%reduce_sum.101, %reduce_sum.102), metadata={op_name="jit(predict_step)/Model/txt/Encoder_0/encoderblock_2/LayerNorm_1/reduce_sum" stack_frame_id=21}
}

%region_19.22 (reduce_sum.108: f32[], reduce_sum.109: f32[]) -> f32[] {
  %reduce_sum.108 = f32[] parameter(0), metadata={op_name="reduce_sum"}
  %reduce_sum.109 = f32[] parameter(1), metadata={op_name="reduce_sum"}
  ROOT %reduce_sum.110 = f32[] add(%reduce_sum.108, %reduce_sum.109), metadata={op_name="jit(predict_step)/Model/txt/Encoder_0/encoderblock_3/LayerNorm_0/reduce_sum" stack_frame_id=12}
}

%region_20.23 (reduce_sum.115: f32[], reduce_sum.116: f32[]) -> f32[] {
  %reduce_sum.115 = f32[] parameter(0), metadata={op_name="reduce_sum"}
  %reduce_sum.116 = f32[] parameter(1), metadata={op_name="reduce_sum"}
  ROOT %reduce_sum.117 = f32[] add(%reduce_sum.115, %reduce_sum.116), metadata={op_name="jit(predict_step)/Model/txt/Encoder_0/encoderblock_3/LayerNorm_0/reduce_sum" stack_frame_id=12}
}

%region_21.24 (reduce_max.24: f32[], reduce_max.25: f32[]) -> f32[] {
  %reduce_max.24 = f32[] parameter(0), metadata={op_name="reduce_max"}
  %reduce_max.25 = f32[] parameter(1), metadata={op_name="reduce_max"}
  ROOT %reduce_max.26 = f32[] maximum(%reduce_max.24, %reduce_max.25), metadata={op_name="jit(predict_step)/Model/txt/Encoder_0/encoderblock_3/MultiHeadDotProductAttention_0/reduce_max" stack_frame_id=16}
}

%region_22.25 (reduce_sum.122: f32[], reduce_sum.123: f32[]) -> f32[] {
  %reduce_sum.122 = f32[] parameter(0), metadata={op_name="reduce_sum"}
  %reduce_sum.123 = f32[] parameter(1), metadata={op_name="reduce_sum"}
  ROOT %reduce_sum.124 = f32[] add(%reduce_sum.122, %reduce_sum.123), metadata={op_name="jit(predict_step)/Model/txt/Encoder_0/encoderblock_3/MultiHeadDotProductAttention_0/reduce_sum" stack_frame_id=16}
}

%region_23.26 (reduce_sum.129: f32[], reduce_sum.130: f32[]) -> f32[] {
  %reduce_sum.129 = f32[] parameter(0), metadata={op_name="reduce_sum"}
  %reduce_sum.130 = f32[] parameter(1), metadata={op_name="reduce_sum"}
  ROOT %reduce_sum.131 = f32[] add(%reduce_sum.129, %reduce_sum.130), metadata={op_name="jit(predict_step)/Model/txt/Encoder_0/encoderblock_3/LayerNorm_1/reduce_sum" stack_frame_id=21}
}

%region_24.27 (reduce_sum.136: f32[], reduce_sum.137: f32[]) -> f32[] {
  %reduce_sum.136 = f32[] parameter(0), metadata={op_name="reduce_sum"}
  %reduce_sum.137 = f32[] parameter(1), metadata={op_name="reduce_sum"}
  ROOT %reduce_sum.138 = f32[] add(%reduce_sum.136, %reduce_sum.137), metadata={op_name="jit(predict_step)/Model/txt/Encoder_0/encoderblock_3/LayerNorm_1/reduce_sum" stack_frame_id=21}
}

%region_25.28 (reduce_sum.143: f32[], reduce_sum.144: f32[]) -> f32[] {
  %reduce_sum.143 = f32[] parameter(0), metadata={op_name="reduce_sum"}
  %reduce_sum.144 = f32[] parameter(1), metadata={op_name="reduce_sum"}
  ROOT %reduce_sum.145 = f32[] add(%reduce_sum.143, %reduce_sum.144), metadata={op_name="jit(predict_step)/Model/txt/Encoder_0/encoderblock_4/LayerNorm_0/reduce_sum" stack_frame_id=12}
}

%region_26.29 (reduce_sum.150: f32[], reduce_sum.151: f32[]) -> f32[] {
  %reduce_sum.150 = f32[] parameter(0), metadata={op_name="reduce_sum"}
  %reduce_sum.151 = f32[] parameter(1), metadata={op_name="reduce_sum"}
  ROOT %reduce_sum.152 = f32[] add(%reduce_sum.150, %reduce_sum.151), metadata={op_name="jit(predict_step)/Model/txt/Encoder_0/encoderblock_4/LayerNorm_0/reduce_sum" stack_frame_id=12}
}

%region_27.30 (reduce_max.31: f32[], reduce_max.32: f32[]) -> f32[] {
  %reduce_max.31 = f32[] parameter(0), metadata={op_name="reduce_max"}
  %reduce_max.32 = f32[] parameter(1), metadata={op_name="reduce_max"}
  ROOT %reduce_max.33 = f32[] maximum(%reduce_max.31, %reduce_max.32), metadata={op_name="jit(predict_step)/Model/txt/Encoder_0/encoderblock_4/MultiHeadDotProductAttention_0/reduce_max" stack_frame_id=16}
}

%region_28.31 (reduce_sum.157: f32[], reduce_sum.158: f32[]) -> f32[] {
  %reduce_sum.157 = f32[] parameter(0), metadata={op_name="reduce_sum"}
  %reduce_sum.158 = f32[] parameter(1), metadata={op_name="reduce_sum"}
  ROOT %reduce_sum.159 = f32[] add(%reduce_sum.157, %reduce_sum.158), metadata={op_name="jit(predict_step)/Model/txt/Encoder_0/encoderblock_4/MultiHeadDotProductAttention_0/reduce_sum" stack_frame_id=16}
}

%region_29.32 (reduce_sum.164: f32[], reduce_sum.165: f32[]) -> f32[] {
  %reduce_sum.164 = f32[] parameter(0), metadata={op_name="reduce_sum"}
  %reduce_sum.165 = f32[] parameter(1), metadata={op_name="reduce_sum"}
  ROOT %reduce_sum.166 = f32[] add(%reduce_sum.164, %reduce_sum.165), metadata={op_name="jit(predict_step)/Model/txt/Encoder_0/encoderblock_4/LayerNorm_1/reduce_sum" stack_frame_id=21}
}

%region_30.33 (reduce_sum.171: f32[], reduce_sum.172: f32[]) -> f32[] {
  %reduce_sum.171 = f32[] parameter(0), metadata={op_name="reduce_sum"}
  %reduce_sum.172 = f32[] parameter(1), metadata={op_name="reduce_sum"}
  ROOT %reduce_sum.173 = f32[] add(%reduce_sum.171, %reduce_sum.172), metadata={op_name="jit(predict_step)/Model/txt/Encoder_0/encoderblock_4/LayerNorm_1/reduce_sum" stack_frame_id=21}
}

%region_31.34 (reduce_sum.178: f32[], reduce_sum.179: f32[]) -> f32[] {
  %reduce_sum.178 = f32[] parameter(0), metadata={op_name="reduce_sum"}
  %reduce_sum.179 = f32[] parameter(1), metadata={op_name="reduce_sum"}
  ROOT %reduce_sum.180 = f32[] add(%reduce_sum.178, %reduce_sum.179), metadata={op_name="jit(predict_step)/Model/txt/Encoder_0/encoderblock_5/LayerNorm_0/reduce_sum" stack_frame_id=12}
}

%region_32.35 (reduce_sum.185: f32[], reduce_sum.186: f32[]) -> f32[] {
  %reduce_sum.185 = f32[] parameter(0), metadata={op_name="reduce_sum"}
  %reduce_sum.186 = f32[] parameter(1), metadata={op_name="reduce_sum"}
  ROOT %reduce_sum.187 = f32[] add(%reduce_sum.185, %reduce_sum.186), metadata={op_name="jit(predict_step)/Model/txt/Encoder_0/encoderblock_5/LayerNorm_0/reduce_sum" stack_frame_id=12}
}

%region_33.36 (reduce_max.38: f32[], reduce_max.39: f32[]) -> f32[] {
  %reduce_max.38 = f32[] parameter(0), metadata={op_name="reduce_max"}
  %reduce_max.39 = f32[] parameter(1), metadata={op_name="reduce_max"}
  ROOT %reduce_max.40 = f32[] maximum(%reduce_max.38, %reduce_max.39), metadata={op_name="jit(predict_step)/Model/txt/Encoder_0/encoderblock_5/MultiHeadDotProductAttention_0/reduce_max" stack_frame_id=16}
}

%region_34.37 (reduce_sum.192: f32[], reduce_sum.193: f32[]) -> f32[] {
  %reduce_sum.192 = f32[] parameter(0), metadata={op_name="reduce_sum"}
  %reduce_sum.193 = f32[] parameter(1), metadata={op_name="reduce_sum"}
  ROOT %reduce_sum.194 = f32[] add(%reduce_sum.192, %reduce_sum.193), metadata={op_name="jit(predict_step)/Model/txt/Encoder_0/encoderblock_5/MultiHeadDotProductAttention_0/reduce_sum" stack_frame_id=16}
}

%region_35.38 (reduce_sum.199: f32[], reduce_sum.200: f32[]) -> f32[] {
  %reduce_sum.199 = f32[] parameter(0), metadata={op_name="reduce_sum"}
  %reduce_sum.200 = f32[] parameter(1), metadata={op_name="reduce_sum"}
  ROOT %reduce_sum.201 = f32[] add(%reduce_sum.199, %reduce_sum.200), metadata={op_name="jit(predict_step)/Model/txt/Encoder_0/encoderblock_5/LayerNorm_1/reduce_sum" stack_frame_id=21}
}

%region_36.39 (reduce_sum.206: f32[], reduce_sum.207: f32[]) -> f32[] {
  %reduce_sum.206 = f32[] parameter(0), metadata={op_name="reduce_sum"}
  %reduce_sum.207 = f32[] parameter(1), metadata={op_name="reduce_sum"}
  ROOT %reduce_sum.208 = f32[] add(%reduce_sum.206, %reduce_sum.207), metadata={op_name="jit(predict_step)/Model/txt/Encoder_0/encoderblock_5/LayerNorm_1/reduce_sum" stack_frame_id=21}
}

%region_37.40 (reduce_sum.213: f32[], reduce_sum.214: f32[]) -> f32[] {
  %reduce_sum.213 = f32[] parameter(0), metadata={op_name="reduce_sum"}
  %reduce_sum.214 = f32[] parameter(1), metadata={op_name="reduce_sum"}
  ROOT %reduce_sum.215 = f32[] add(%reduce_sum.213, %reduce_sum.214), metadata={op_name="jit(predict_step)/Model/txt/Encoder_0/encoderblock_6/LayerNorm_0/reduce_sum" stack_frame_id=12}
}

%region_38.41 (reduce_sum.220: f32[], reduce_sum.221: f32[]) -> f32[] {
  %reduce_sum.220 = f32[] parameter(0), metadata={op_name="reduce_sum"}
  %reduce_sum.221 = f32[] parameter(1), metadata={op_name="reduce_sum"}
  ROOT %reduce_sum.222 = f32[] add(%reduce_sum.220, %reduce_sum.221), metadata={op_name="jit(predict_step)/Model/txt/Encoder_0/encoderblock_6/LayerNorm_0/reduce_sum" stack_frame_id=12}
}

%region_39.42 (reduce_max.45: f32[], reduce_max.46: f32[]) -> f32[] {
  %reduce_max.45 = f32[] parameter(0), metadata={op_name="reduce_max"}
  %reduce_max.46 = f32[] parameter(1), metadata={op_name="reduce_max"}
  ROOT %reduce_max.47 = f32[] maximum(%reduce_max.45, %reduce_max.46), metadata={op_name="jit(predict_step)/Model/txt/Encoder_0/encoderblock_6/MultiHeadDotProductAttention_0/reduce_max" stack_frame_id=16}
}

%region_40.43 (reduce_sum.227: f32[], reduce_sum.228: f32[]) -> f32[] {
  %reduce_sum.227 = f32[] parameter(0), metadata={op_name="reduce_sum"}
  %reduce_sum.228 = f32[] parameter(1), metadata={op_name="reduce_sum"}
  ROOT %reduce_sum.229 = f32[] add(%reduce_sum.227, %reduce_sum.228), metadata={op_name="jit(predict_step)/Model/txt/Encoder_0/encoderblock_6/MultiHeadDotProductAttention_0/reduce_sum" stack_frame_id=16}
}

%region_41.44 (reduce_sum.234: f32[], reduce_sum.235: f32[]) -> f32[] {
  %reduce_sum.234 = f32[] parameter(0), metadata={op_name="reduce_sum"}
  %reduce_sum.235 = f32[] parameter(1), metadata={op_name="reduce_sum"}
  ROOT %reduce_sum.236 = f32[] add(%reduce_sum.234, %reduce_sum.235), metadata={op_name="jit(predict_step)/Model/txt/Encoder_0/encoderblock_6/LayerNorm_1/reduce_sum" stack_frame_id=21}
}

%region_42.45 (reduce_sum.241: f32[], reduce_sum.242: f32[]) -> f32[] {
  %reduce_sum.241 = f32[] parameter(0), metadata={op_name="reduce_sum"}
  %reduce_sum.242 = f32[] parameter(1), metadata={op_name="reduce_sum"}
  ROOT %reduce_sum.243 = f32[] add(%reduce_sum.241, %reduce_sum.242), metadata={op_name="jit(predict_step)/Model/txt/Encoder_0/encoderblock_6/LayerNorm_1/reduce_sum" stack_frame_id=21}
}

%region_43.46 (reduce_sum.248: f32[], reduce_sum.249: f32[]) -> f32[] {
  %reduce_sum.248 = f32[] parameter(0), metadata={op_name="reduce_sum"}
  %reduce_sum.249 = f32[] parameter(1), metadata={op_name="reduce_sum"}
  ROOT %reduce_sum.250 = f32[] add(%reduce_sum.248, %reduce_sum.249), metadata={op_name="jit(predict_step)/Model/txt/Encoder_0/encoderblock_7/LayerNorm_0/reduce_sum" stack_frame_id=12}
}

%region_44.47 (reduce_sum.255: f32[], reduce_sum.256: f32[]) -> f32[] {
  %reduce_sum.255 = f32[] parameter(0), metadata={op_name="reduce_sum"}
  %reduce_sum.256 = f32[] parameter(1), metadata={op_name="reduce_sum"}
  ROOT %reduce_sum.257 = f32[] add(%reduce_sum.255, %reduce_sum.256), metadata={op_name="jit(predict_step)/Model/txt/Encoder_0/encoderblock_7/LayerNorm_0/reduce_sum" stack_frame_id=12}
}

%region_45.48 (reduce_max.52: f32[], reduce_max.53: f32[]) -> f32[] {
  %reduce_max.52 = f32[] parameter(0), metadata={op_name="reduce_max"}
  %reduce_max.53 = f32[] parameter(1), metadata={op_name="reduce_max"}
  ROOT %reduce_max.54 = f32[] maximum(%reduce_max.52, %reduce_max.53), metadata={op_name="jit(predict_step)/Model/txt/Encoder_0/encoderblock_7/MultiHeadDotProductAttention_0/reduce_max" stack_frame_id=16}
}

%region_46.49 (reduce_sum.262: f32[], reduce_sum.263: f32[]) -> f32[] {
  %reduce_sum.262 = f32[] parameter(0), metadata={op_name="reduce_sum"}
  %reduce_sum.263 = f32[] parameter(1), metadata={op_name="reduce_sum"}
  ROOT %reduce_sum.264 = f32[] add(%reduce_sum.262, %reduce_sum.263), metadata={op_name="jit(predict_step)/Model/txt/Encoder_0/encoderblock_7/MultiHeadDotProductAttention_0/reduce_sum" stack_frame_id=16}
}

%region_47.50 (reduce_sum.269: f32[], reduce_sum.270: f32[]) -> f32[] {
  %reduce_sum.269 = f32[] parameter(0), metadata={op_name="reduce_sum"}
  %reduce_sum.270 = f32[] parameter(1), metadata={op_name="reduce_sum"}
  ROOT %reduce_sum.271 = f32[] add(%reduce_sum.269, %reduce_sum.270), metadata={op_name="jit(predict_step)/Model/txt/Encoder_0/encoderblock_7/LayerNorm_1/reduce_sum" stack_frame_id=21}
}

%region_48.51 (reduce_sum.276: f32[], reduce_sum.277: f32[]) -> f32[] {
  %reduce_sum.276 = f32[] parameter(0), metadata={op_name="reduce_sum"}
  %reduce_sum.277 = f32[] parameter(1), metadata={op_name="reduce_sum"}
  ROOT %reduce_sum.278 = f32[] add(%reduce_sum.276, %reduce_sum.277), metadata={op_name="jit(predict_step)/Model/txt/Encoder_0/encoderblock_7/LayerNorm_1/reduce_sum" stack_frame_id=21}
}

%region_49.52 (reduce_sum.283: f32[], reduce_sum.284: f32[]) -> f32[] {
  %reduce_sum.283 = f32[] parameter(0), metadata={op_name="reduce_sum"}
  %reduce_sum.284 = f32[] parameter(1), metadata={op_name="reduce_sum"}
  ROOT %reduce_sum.285 = f32[] add(%reduce_sum.283, %reduce_sum.284), metadata={op_name="jit(predict_step)/Model/txt/Encoder_0/encoderblock_8/LayerNorm_0/reduce_sum" stack_frame_id=12}
}

%region_50.53 (reduce_sum.290: f32[], reduce_sum.291: f32[]) -> f32[] {
  %reduce_sum.290 = f32[] parameter(0), metadata={op_name="reduce_sum"}
  %reduce_sum.291 = f32[] parameter(1), metadata={op_name="reduce_sum"}
  ROOT %reduce_sum.292 = f32[] add(%reduce_sum.290, %reduce_sum.291), metadata={op_name="jit(predict_step)/Model/txt/Encoder_0/encoderblock_8/LayerNorm_0/reduce_sum" stack_frame_id=12}
}

%region_51.54 (reduce_max.59: f32[], reduce_max.60: f32[]) -> f32[] {
  %reduce_max.59 = f32[] parameter(0), metadata={op_name="reduce_max"}
  %reduce_max.60 = f32[] parameter(1), metadata={op_name="reduce_max"}
  ROOT %reduce_max.61 = f32[] maximum(%reduce_max.59, %reduce_max.60), metadata={op_name="jit(predict_step)/Model/txt/Encoder_0/encoderblock_8/MultiHeadDotProductAttention_0/reduce_max" stack_frame_id=16}
}

%region_52.55 (reduce_sum.297: f32[], reduce_sum.298: f32[]) -> f32[] {
  %reduce_sum.297 = f32[] parameter(0), metadata={op_name="reduce_sum"}
  %reduce_sum.298 = f32[] parameter(1), metadata={op_name="reduce_sum"}
  ROOT %reduce_sum.299 = f32[] add(%reduce_sum.297, %reduce_sum.298), metadata={op_name="jit(predict_step)/Model/txt/Encoder_0/encoderblock_8/MultiHeadDotProductAttention_0/reduce_sum" stack_frame_id=16}
}

%region_53.56 (reduce_sum.304: f32[], reduce_sum.305: f32[]) -> f32[] {
  %reduce_sum.304 = f32[] parameter(0), metadata={op_name="reduce_sum"}
  %reduce_sum.305 = f32[] parameter(1), metadata={op_name="reduce_sum"}
  ROOT %reduce_sum.306 = f32[] add(%reduce_sum.304, %reduce_sum.305), metadata={op_name="jit(predict_step)/Model/txt/Encoder_0/encoderblock_8/LayerNorm_1/reduce_sum" stack_frame_id=21}
}

%region_54.57 (reduce_sum.311: f32[], reduce_sum.312: f32[]) -> f32[] {
  %reduce_sum.311 = f32[] parameter(0), metadata={op_name="reduce_sum"}
  %reduce_sum.312 = f32[] parameter(1), metadata={op_name="reduce_sum"}
  ROOT %reduce_sum.313 = f32[] add(%reduce_sum.311, %reduce_sum.312), metadata={op_name="jit(predict_step)/Model/txt/Encoder_0/encoderblock_8/LayerNorm_1/reduce_sum" stack_frame_id=21}
}

%region_55.58 (reduce_sum.318: f32[], reduce_sum.319: f32[]) -> f32[] {
  %reduce_sum.318 = f32[] parameter(0), metadata={op_name="reduce_sum"}
  %reduce_sum.319 = f32[] parameter(1), metadata={op_name="reduce_sum"}
  ROOT %reduce_sum.320 = f32[] add(%reduce_sum.318, %reduce_sum.319), metadata={op_name="jit(predict_step)/Model/txt/Encoder_0/encoderblock_9/LayerNorm_0/reduce_sum" stack_frame_id=12}
}

%region_56.59 (reduce_sum.325: f32[], reduce_sum.326: f32[]) -> f32[] {
  %reduce_sum.325 = f32[] parameter(0), metadata={op_name="reduce_sum"}
  %reduce_sum.326 = f32[] parameter(1), metadata={op_name="reduce_sum"}
  ROOT %reduce_sum.327 = f32[] add(%reduce_sum.325, %reduce_sum.326), metadata={op_name="jit(predict_step)/Model/txt/Encoder_0/encoderblock_9/LayerNorm_0/reduce_sum" stack_frame_id=12}
}

%region_57.60 (reduce_max.66: f32[], reduce_max.67: f32[]) -> f32[] {
  %reduce_max.66 = f32[] parameter(0), metadata={op_name="reduce_max"}
  %reduce_max.67 = f32[] parameter(1), metadata={op_name="reduce_max"}
  ROOT %reduce_max.68 = f32[] maximum(%reduce_max.66, %reduce_max.67), metadata={op_name="jit(predict_step)/Model/txt/Encoder_0/encoderblock_9/MultiHeadDotProductAttention_0/reduce_max" stack_frame_id=16}
}

%region_58.61 (reduce_sum.332: f32[], reduce_sum.333: f32[]) -> f32[] {
  %reduce_sum.332 = f32[] parameter(0), metadata={op_name="reduce_sum"}
  %reduce_sum.333 = f32[] parameter(1), metadata={op_name="reduce_sum"}
  ROOT %reduce_sum.334 = f32[] add(%reduce_sum.332, %reduce_sum.333), metadata={op_name="jit(predict_step)/Model/txt/Encoder_0/encoderblock_9/MultiHeadDotProductAttention_0/reduce_sum" stack_frame_id=16}
}

%region_59.62 (reduce_sum.339: f32[], reduce_sum.340: f32[]) -> f32[] {
  %reduce_sum.339 = f32[] parameter(0), metadata={op_name="reduce_sum"}
  %reduce_sum.340 = f32[] parameter(1), metadata={op_name="reduce_sum"}
  ROOT %reduce_sum.341 = f32[] add(%reduce_sum.339, %reduce_sum.340), metadata={op_name="jit(predict_step)/Model/txt/Encoder_0/encoderblock_9/LayerNorm_1/reduce_sum" stack_frame_id=21}
}

%region_60.63 (reduce_sum.346: f32[], reduce_sum.347: f32[]) -> f32[] {
  %reduce_sum.346 = f32[] parameter(0), metadata={op_name="reduce_sum"}
  %reduce_sum.347 = f32[] parameter(1), metadata={op_name="reduce_sum"}
  ROOT %reduce_sum.348 = f32[] add(%reduce_sum.346, %reduce_sum.347), metadata={op_name="jit(predict_step)/Model/txt/Encoder_0/encoderblock_9/LayerNorm_1/reduce_sum" stack_frame_id=21}
}

%region_61.64 (reduce_sum.353: f32[], reduce_sum.354: f32[]) -> f32[] {
  %reduce_sum.353 = f32[] parameter(0), metadata={op_name="reduce_sum"}
  %reduce_sum.354 = f32[] parameter(1), metadata={op_name="reduce_sum"}
  ROOT %reduce_sum.355 = f32[] add(%reduce_sum.353, %reduce_sum.354), metadata={op_name="jit(predict_step)/Model/txt/Encoder_0/encoderblock_10/LayerNorm_0/reduce_sum" stack_frame_id=12}
}

%region_62.65 (reduce_sum.360: f32[], reduce_sum.361: f32[]) -> f32[] {
  %reduce_sum.360 = f32[] parameter(0), metadata={op_name="reduce_sum"}
  %reduce_sum.361 = f32[] parameter(1), metadata={op_name="reduce_sum"}
  ROOT %reduce_sum.362 = f32[] add(%reduce_sum.360, %reduce_sum.361), metadata={op_name="jit(predict_step)/Model/txt/Encoder_0/encoderblock_10/LayerNorm_0/reduce_sum" stack_frame_id=12}
}

%region_63.66 (reduce_max.73: f32[], reduce_max.74: f32[]) -> f32[] {
  %reduce_max.73 = f32[] parameter(0), metadata={op_name="reduce_max"}
  %reduce_max.74 = f32[] parameter(1), metadata={op_name="reduce_max"}
  ROOT %reduce_max.75 = f32[] maximum(%reduce_max.73, %reduce_max.74), metadata={op_name="jit(predict_step)/Model/txt/Encoder_0/encoderblock_10/MultiHeadDotProductAttention_0/reduce_max" stack_frame_id=16}
}

%region_64.67 (reduce_sum.367: f32[], reduce_sum.368: f32[]) -> f32[] {
  %reduce_sum.367 = f32[] parameter(0), metadata={op_name="reduce_sum"}
  %reduce_sum.368 = f32[] parameter(1), metadata={op_name="reduce_sum"}
  ROOT %reduce_sum.369 = f32[] add(%reduce_sum.367, %reduce_sum.368), metadata={op_name="jit(predict_step)/Model/txt/Encoder_0/encoderblock_10/MultiHeadDotProductAttention_0/reduce_sum" stack_frame_id=16}
}

%region_65.68 (reduce_sum.374: f32[], reduce_sum.375: f32[]) -> f32[] {
  %reduce_sum.374 = f32[] parameter(0), metadata={op_name="reduce_sum"}
  %reduce_sum.375 = f32[] parameter(1), metadata={op_name="reduce_sum"}
  ROOT %reduce_sum.376 = f32[] add(%reduce_sum.374, %reduce_sum.375), metadata={op_name="jit(predict_step)/Model/txt/Encoder_0/encoderblock_10/LayerNorm_1/reduce_sum" stack_frame_id=21}
}

%region_66.69 (reduce_sum.381: f32[], reduce_sum.382: f32[]) -> f32[] {
  %reduce_sum.381 = f32[] parameter(0), metadata={op_name="reduce_sum"}
  %reduce_sum.382 = f32[] parameter(1), metadata={op_name="reduce_sum"}
  ROOT %reduce_sum.383 = f32[] add(%reduce_sum.381, %reduce_sum.382), metadata={op_name="jit(predict_step)/Model/txt/Encoder_0/encoderblock_10/LayerNorm_1/reduce_sum" stack_frame_id=21}
}

%region_67.70 (reduce_sum.388: f32[], reduce_sum.389: f32[]) -> f32[] {
  %reduce_sum.388 = f32[] parameter(0), metadata={op_name="reduce_sum"}
  %reduce_sum.389 = f32[] parameter(1), metadata={op_name="reduce_sum"}
  ROOT %reduce_sum.390 = f32[] add(%reduce_sum.388, %reduce_sum.389), metadata={op_name="jit(predict_step)/Model/txt/Encoder_0/encoderblock_11/LayerNorm_0/reduce_sum" stack_frame_id=12}
}

%region_68.71 (reduce_sum.395: f32[], reduce_sum.396: f32[]) -> f32[] {
  %reduce_sum.395 = f32[] parameter(0), metadata={op_name="reduce_sum"}
  %reduce_sum.396 = f32[] parameter(1), metadata={op_name="reduce_sum"}
  ROOT %reduce_sum.397 = f32[] add(%reduce_sum.395, %reduce_sum.396), metadata={op_name="jit(predict_step)/Model/txt/Encoder_0/encoderblock_11/LayerNorm_0/reduce_sum" stack_frame_id=12}
}

%region_69.72 (reduce_max.80: f32[], reduce_max.81: f32[]) -> f32[] {
  %reduce_max.80 = f32[] parameter(0), metadata={op_name="reduce_max"}
  %reduce_max.81 = f32[] parameter(1), metadata={op_name="reduce_max"}
  ROOT %reduce_max.82 = f32[] maximum(%reduce_max.80, %reduce_max.81), metadata={op_name="jit(predict_step)/Model/txt/Encoder_0/encoderblock_11/MultiHeadDotProductAttention_0/reduce_max" stack_frame_id=16}
}

%region_70.73 (reduce_sum.402: f32[], reduce_sum.403: f32[]) -> f32[] {
  %reduce_sum.402 = f32[] parameter(0), metadata={op_name="reduce_sum"}
  %reduce_sum.403 = f32[] parameter(1), metadata={op_name="reduce_sum"}
  ROOT %reduce_sum.404 = f32[] add(%reduce_sum.402, %reduce_sum.403), metadata={op_name="jit(predict_step)/Model/txt/Encoder_0/encoderblock_11/MultiHeadDotProductAttention_0/reduce_sum" stack_frame_id=16}
}

%region_71.74 (reduce_sum.409: f32[], reduce_sum.410: f32[]) -> f32[] {
  %reduce_sum.409 = f32[] parameter(0), metadata={op_name="reduce_sum"}
  %reduce_sum.410 = f32[] parameter(1), metadata={op_name="reduce_sum"}
  ROOT %reduce_sum.411 = f32[] add(%reduce_sum.409, %reduce_sum.410), metadata={op_name="jit(predict_step)/Model/txt/Encoder_0/encoderblock_11/LayerNorm_1/reduce_sum" stack_frame_id=21}
}

%region_72.75 (reduce_sum.416: f32[], reduce_sum.417: f32[]) -> f32[] {
  %reduce_sum.416 = f32[] parameter(0), metadata={op_name="reduce_sum"}
  %reduce_sum.417 = f32[] parameter(1), metadata={op_name="reduce_sum"}
  ROOT %reduce_sum.418 = f32[] add(%reduce_sum.416, %reduce_sum.417), metadata={op_name="jit(predict_step)/Model/txt/Encoder_0/encoderblock_11/LayerNorm_1/reduce_sum" stack_frame_id=21}
}

%region_73.76 (reduce_sum.423: f32[], reduce_sum.424: f32[]) -> f32[] {
  %reduce_sum.423 = f32[] parameter(0), metadata={op_name="reduce_sum"}
  %reduce_sum.424 = f32[] parameter(1), metadata={op_name="reduce_sum"}
  ROOT %reduce_sum.425 = f32[] add(%reduce_sum.423, %reduce_sum.424), metadata={op_name="jit(predict_step)/Model/txt/Encoder_0/encoder_norm/reduce_sum" stack_frame_id=26}
}

%region_74.77 (reduce_sum.430: f32[], reduce_sum.431: f32[]) -> f32[] {
  %reduce_sum.430 = f32[] parameter(0), metadata={op_name="reduce_sum"}
  %reduce_sum.431 = f32[] parameter(1), metadata={op_name="reduce_sum"}
  ROOT %reduce_sum.432 = f32[] add(%reduce_sum.430, %reduce_sum.431), metadata={op_name="jit(predict_step)/Model/txt/Encoder_0/encoder_norm/reduce_sum" stack_frame_id=26}
}

ENTRY %main.155 (variables__img____Transformer____encoder_norm____bias__.1: f32[768], variables__img____Transformer____encoder_norm____scale__.1: f32[768], variables__img____Transformer____encoderblock_0____LayerNorm_0____bias__.1: f32[768], variables__img____Transformer____encoderblock_0____LayerNorm_0____scale__.1: f32[768], variables__img____Transformer____encoderblock_0____LayerNorm_1____bias__.1: f32[768], variables__img____Transformer____encoderblock_0____LayerNorm_1____scale__.1: f32[768], variables__img____Transformer____encoderblock_0____MlpBlock_0____Dense_0____bias__.1: f32[3072], variables__img____Transformer____encoderblock_0____MlpBlock_0____Dense_0____kernel__.1: f32[768,3072], variables__img____Transformer____encoderblock_0____MlpBlock_0____Dense_1____bias__.1: f32[768], variables__img____Transformer____encoderblock_0____MlpBlock_0____Dense_1____kernel__.1: f32[3072,768], variables__img____Transformer____encoderblock_0____MultiHeadDotProductAttention_0____key____bias__.1: f32[12,64], variables__img____Transformer____encoderblock_0____MultiHeadDotProductAttention_0____key____kernel__.1: f32[768,12,64], variables__img____Transformer____encoderblock_0____MultiHeadDotProductAttention_0____out____bias__.1: f32[768], variables__img____Transformer____encoderblock_0____MultiHeadDotProductAttention_0____out____kernel__.1: f32[12,64,768], variables__img____Transformer____encoderblock_0____MultiHeadDotProductAttention_0____query____bias__.1: f32[12,64], variables__img____Transformer____encoderblock_0____MultiHeadDotProductAttention_0____query____kernel__.1: f32[768,12,64], variables__img____Transformer____encoderblock_0____MultiHeadDotProductAttention_0____value____bias__.1: f32[12,64], variables__img____Transformer____encoderblock_0____MultiHeadDotProductAttention_0____value____kernel__.1: f32[768,12,64], variables__img____Transformer____encoderblock_1____LayerNorm_0____bias__.1: f32[768], variables__img____Transformer____encoderblock_1____LayerNorm_0____scale__.1: f32[768], variables__img____Transformer____encoderblock_1____LayerNorm_1____bias__.1: f32[768], variables__img____Transformer____encoderblock_1____LayerNorm_1____scale__.1: f32[768], variables__img____Transformer____encoderblock_1____MlpBlock_0____Dense_0____bias__.1: f32[3072], variables__img____Transformer____encoderblock_1____MlpBlock_0____Dense_0____kernel__.1: f32[768,3072], variables__img____Transformer____encoderblock_1____MlpBlock_0____Dense_1____bias__.1: f32[768], variables__img____Transformer____encoderblock_1____MlpBlock_0____Dense_1____kernel__.1: f32[3072,768], variables__img____Transformer____encoderblock_1____MultiHeadDotProductAttention_0____key____bias__.1: f32[12,64], variables__img____Transformer____encoderblock_1____MultiHeadDotProductAttention_0____key____kernel__.1: f32[768,12,64], variables__img____Transformer____encoderblock_1____MultiHeadDotProductAttention_0____out____bias__.1: f32[768], variables__img____Transformer____encoderblock_1____MultiHeadDotProductAttention_0____out____kernel__.1: f32[12,64,768], variables__img____Transformer____encoderblock_1____MultiHeadDotProductAttention_0____query____bias__.1: f32[12,64], variables__img____Transformer____encoderblock_1____MultiHeadDotProductAttention_0____query____kernel__.1: f32[768,12,64], variables__img____Transformer____encoderblock_1____MultiHeadDotProductAttention_0____value____bias__.1: f32[12,64], variables__img____Transformer____encoderblock_1____MultiHeadDotProductAttention_0____value____kernel__.1: f32[768,12,64], variables__img____Transformer____encoderblock_10____LayerNorm_0____bias__.1: f32[768], variables__img____Transformer____encoderblock_10____LayerNorm_0____scale__.1: f32[768], variables__img____Transformer____encoderblock_10____LayerNorm_1____bias__.1: f32[768], variables__img____Transformer____encoderblock_10____LayerNorm_1____scale__.1: f32[768], variables__img____Transformer____encoderblock_10____MlpBlock_0____Dense_0____bias__.1: f32[3072], variables__img____Transformer____encoderblock_10____MlpBlock_0____Dense_0____kernel__.1: f32[768,3072], variables__img____Transformer____encoderblock_10____MlpBlock_0____Dense_1____bias__.1: f32[768], variables__img____Transformer____encoderblock_10____MlpBlock_0____Dense_1____kernel__.1: f32[3072,768], variables__img____Transformer____encoderblock_10____MultiHeadDotProductAttention_0____key____bias__.1: f32[12,64], variables__img____Transformer____encoderblock_10____MultiHeadDotProductAttention_0____key____kernel__.1: f32[768,12,64], variables__img____Transformer____encoderblock_10____MultiHeadDotProductAttention_0____out____bias__.1: f32[768], variables__img____Transformer____encoderblock_10____MultiHeadDotProductAttention_0____out____kernel__.1: f32[12,64,768], variables__img____Transformer____encoderblock_10____MultiHeadDotProductAttention_0____query____bias__.1: f32[12,64], variables__img____Transformer____encoderblock_10____MultiHeadDotProductAttention_0____query____kernel__.1: f32[768,12,64], variables__img____Transformer____encoderblock_10____MultiHeadDotProductAttention_0____value____bias__.1: f32[12,64], variables__img____Transformer____encoderblock_10____MultiHeadDotProductAttention_0____value____kernel__.1: f32[768,12,64], variables__img____Transformer____encoderblock_11____LayerNorm_0____bias__.1: f32[768], variables__img____Transformer____encoderblock_11____LayerNorm_0____scale__.1: f32[768], variables__img____Transformer____encoderblock_11____LayerNorm_1____bias__.1: f32[768], variables__img____Transformer____encoderblock_11____LayerNorm_1____scale__.1: f32[768], variables__img____Transformer____encoderblock_11____MlpBlock_0____Dense_0____bias__.1: f32[3072], variables__img____Transformer____encoderblock_11____MlpBlock_0____Dense_0____kernel__.1: f32[768,3072], variables__img____Transformer____encoderblock_11____MlpBlock_0____Dense_1____bias__.1: f32[768], variables__img____Transformer____encoderblock_11____MlpBlock_0____Dense_1____kernel__.1: f32[3072,768], variables__img____Transformer____encoderblock_11____MultiHeadDotProductAttention_0____key____bias__.1: f32[12,64], variables__img____Transformer____encoderblock_11____MultiHeadDotProductAttention_0____key____kernel__.1: f32[768,12,64], variables__img____Transformer____encoderblock_11____MultiHeadDotProductAttention_0____out____bias__.1: f32[768], variables__img____Transformer____encoderblock_11____MultiHeadDotProductAttention_0____out____kernel__.1: f32[12,64,768], variables__img____Transformer____encoderblock_11____MultiHeadDotProductAttention_0____query____bias__.1: f32[12,64], variables__img____Transformer____encoderblock_11____MultiHeadDotProductAttention_0____query____kernel__.1: f32[768,12,64], variables__img____Transformer____encoderblock_11____MultiHeadDotProductAttention_0____value____bias__.1: f32[12,64], variables__img____Transformer____encoderblock_11____MultiHeadDotProductAttention_0____value____kernel__.1: f32[768,12,64], variables__img____Transformer____encoderblock_2____LayerNorm_0____bias__.1: f32[768], variables__img____Transformer____encoderblock_2____LayerNorm_0____scale__.1: f32[768], variables__img____Transformer____encoderblock_2____LayerNorm_1____bias__.1: f32[768], variables__img____Transformer____encoderblock_2____LayerNorm_1____scale__.1: f32[768], variables__img____Transformer____encoderblock_2____MlpBlock_0____Dense_0____bias__.1: f32[3072], variables__img____Transformer____encoderblock_2____MlpBlock_0____Dense_0____kernel__.1: f32[768,3072], variables__img____Transformer____encoderblock_2____MlpBlock_0____Dense_1____bias__.1: f32[768], variables__img____Transformer____encoderblock_2____MlpBlock_0____Dense_1____kernel__.1: f32[3072,768], variables__img____Transformer____encoderblock_2____MultiHeadDotProductAttention_0____key____bias__.1: f32[12,64], variables__img____Transformer____encoderblock_2____MultiHeadDotProductAttention_0____key____kernel__.1: f32[768,12,64], variables__img____Transformer____encoderblock_2____MultiHeadDotProductAttention_0____out____bias__.1: f32[768], variables__img____Transformer____encoderblock_2____MultiHeadDotProductAttention_0____out____kernel__.1: f32[12,64,768], variables__img____Transformer____encoderblock_2____MultiHeadDotProductAttention_0____query____bias__.1: f32[12,64], variables__img____Transformer____encoderblock_2____MultiHeadDotProductAttention_0____query____kernel__.1: f32[768,12,64], variables__img____Transformer____encoderblock_2____MultiHeadDotProductAttention_0____value____bias__.1: f32[12,64], variables__img____Transformer____encoderblock_2____MultiHeadDotProductAttention_0____value____kernel__.1: f32[768,12,64], variables__img____Transformer____encoderblock_3____LayerNorm_0____bias__.1: f32[768], variables__img____Transformer____encoderblock_3____LayerNorm_0____scale__.1: f32[768], variables__img____Transformer____encoderblock_3____LayerNorm_1____bias__.1: f32[768], variables__img____Transformer____encoderblock_3____LayerNorm_1____scale__.1: f32[768], variables__img____Transformer____encoderblock_3____MlpBlock_0____Dense_0____bias__.1: f32[3072], variables__img____Transformer____encoderblock_3____MlpBlock_0____Dense_0____kernel__.1: f32[768,3072], variables__img____Transformer____encoderblock_3____MlpBlock_0____Dense_1____bias__.1: f32[768], variables__img____Transformer____encoderblock_3____MlpBlock_0____Dense_1____kernel__.1: f32[3072,768], variables__img____Transformer____encoderblock_3____MultiHeadDotProductAttention_0____key____bias__.1: f32[12,64], variables__img____Transformer____encoderblock_3____MultiHeadDotProductAttention_0____key____kernel__.1: f32[768,12,64], variables__img____Transformer____encoderblock_3____MultiHeadDotProductAttention_0____out____bias__.1: f32[768], variables__img____Transformer____encoderblock_3____MultiHeadDotProductAttention_0____out____kernel__.1: f32[12,64,768], variables__img____Transformer____encoderblock_3____MultiHeadDotProductAttention_0____query____bias__.1: f32[12,64], variables__img____Transformer____encoderblock_3____MultiHeadDotProductAttention_0____query____kernel__.1: f32[768,12,64], variables__img____Transformer____encoderblock_3____MultiHeadDotProductAttention_0____value____bias__.1: f32[12,64], variables__img____Transformer____encoderblock_3____MultiHeadDotProductAttention_0____value____kernel__.1: f32[768,12,64], variables__img____Transformer____encoderblock_4____LayerNorm_0____bias__.1: f32[768], variables__img____Transformer____encoderblock_4____LayerNorm_0____scale__.1: f32[768], variables__img____Transformer____encoderblock_4____LayerNorm_1____bias__.1: f32[768], variables__img____Transformer____encoderblock_4____LayerNorm_1____scale__.1: f32[768], variables__img____Transformer____encoderblock_4____MlpBlock_0____Dense_0____bias__.1: f32[3072], variables__img____Transformer____encoderblock_4____MlpBlock_0____Dense_0____kernel__.1: f32[768,3072], variables__img____Transformer____encoderblock_4____MlpBlock_0____Dense_1____bias__.1: f32[768], variables__img____Transformer____encoderblock_4____MlpBlock_0____Dense_1____kernel__.1: f32[3072,768], variables__img____Transformer____encoderblock_4____MultiHeadDotProductAttention_0____key____bias__.1: f32[12,64], variables__img____Transformer____encoderblock_4____MultiHeadDotProductAttention_0____key____kernel__.1: f32[768,12,64], variables__img____Transformer____encoderblock_4____MultiHeadDotProductAttention_0____out____bias__.1: f32[768], variables__img____Transformer____encoderblock_4____MultiHeadDotProductAttention_0____out____kernel__.1: f32[12,64,768], variables__img____Transformer____encoderblock_4____MultiHeadDotProductAttention_0____query____bias__.1: f32[12,64], variables__img____Transformer____encoderblock_4____MultiHeadDotProductAttention_0____query____kernel__.1: f32[768,12,64], variables__img____Transformer____encoderblock_4____MultiHeadDotProductAttention_0____value____bias__.1: f32[12,64], variables__img____Transformer____encoderblock_4____MultiHeadDotProductAttention_0____value____kernel__.1: f32[768,12,64], variables__img____Transformer____encoderblock_5____LayerNorm_0____bias__.1: f32[768], variables__img____Transformer____encoderblock_5____LayerNorm_0____scale__.1: f32[768], variables__img____Transformer____encoderblock_5____LayerNorm_1____bias__.1: f32[768], variables__img____Transformer____encoderblock_5____LayerNorm_1____scale__.1: f32[768], variables__img____Transformer____encoderblock_5____MlpBlock_0____Dense_0____bias__.1: f32[3072], variables__img____Transformer____encoderblock_5____MlpBlock_0____Dense_0____kernel__.1: f32[768,3072], variables__img____Transformer____encoderblock_5____MlpBlock_0____Dense_1____bias__.1: f32[768], variables__img____Transformer____encoderblock_5____MlpBlock_0____Dense_1____kernel__.1: f32[3072,768], variables__img____Transformer____encoderblock_5____MultiHeadDotProductAttention_0____key____bias__.1: f32[12,64], variables__img____Transformer____encoderblock_5____MultiHeadDotProductAttention_0____key____kernel__.1: f32[768,12,64], variables__img____Transformer____encoderblock_5____MultiHeadDotProductAttention_0____out____bias__.1: f32[768], variables__img____Transformer____encoderblock_5____MultiHeadDotProductAttention_0____out____kernel__.1: f32[12,64,768], variables__img____Transformer____encoderblock_5____MultiHeadDotProductAttention_0____query____bias__.1: f32[12,64], variables__img____Transformer____encoderblock_5____MultiHeadDotProductAttention_0____query____kernel__.1: f32[768,12,64], variables__img____Transformer____encoderblock_5____MultiHeadDotProductAttention_0____value____bias__.1: f32[12,64], variables__img____Transformer____encoderblock_5____MultiHeadDotProductAttention_0____value____kernel__.1: f32[768,12,64], variables__img____Transformer____encoderblock_6____LayerNorm_0____bias__.1: f32[768], variables__img____Transformer____encoderblock_6____LayerNorm_0____scale__.1: f32[768], variables__img____Transformer____encoderblock_6____LayerNorm_1____bias__.1: f32[768], variables__img____Transformer____encoderblock_6____LayerNorm_1____scale__.1: f32[768], variables__img____Transformer____encoderblock_6____MlpBlock_0____Dense_0____bias__.1: f32[3072], variables__img____Transformer____encoderblock_6____MlpBlock_0____Dense_0____kernel__.1: f32[768,3072], variables__img____Transformer____encoderblock_6____MlpBlock_0____Dense_1____bias__.1: f32[768], variables__img____Transformer____encoderblock_6____MlpBlock_0____Dense_1____kernel__.1: f32[3072,768], variables__img____Transformer____encoderblock_6____MultiHeadDotProductAttention_0____key____bias__.1: f32[12,64], variables__img____Transformer____encoderblock_6____MultiHeadDotProductAttention_0____key____kernel__.1: f32[768,12,64], variables__img____Transformer____encoderblock_6____MultiHeadDotProductAttention_0____out____bias__.1: f32[768], variables__img____Transformer____encoderblock_6____MultiHeadDotProductAttention_0____out____kernel__.1: f32[12,64,768], variables__img____Transformer____encoderblock_6____MultiHeadDotProductAttention_0____query____bias__.1: f32[12,64], variables__img____Transformer____encoderblock_6____MultiHeadDotProductAttention_0____query____kernel__.1: f32[768,12,64], variables__img____Transformer____encoderblock_6____MultiHeadDotProductAttention_0____value____bias__.1: f32[12,64], variables__img____Transformer____encoderblock_6____MultiHeadDotProductAttention_0____value____kernel__.1: f32[768,12,64], variables__img____Transformer____encoderblock_7____LayerNorm_0____bias__.1: f32[768], variables__img____Transformer____encoderblock_7____LayerNorm_0____scale__.1: f32[768], variables__img____Transformer____encoderblock_7____LayerNorm_1____bias__.1: f32[768], variables__img____Transformer____encoderblock_7____LayerNorm_1____scale__.1: f32[768], variables__img____Transformer____encoderblock_7____MlpBlock_0____Dense_0____bias__.1: f32[3072], variables__img____Transformer____encoderblock_7____MlpBlock_0____Dense_0____kernel__.1: f32[768,3072], variables__img____Transformer____encoderblock_7____MlpBlock_0____Dense_1____bias__.1: f32[768], variables__img____Transformer____encoderblock_7____MlpBlock_0____Dense_1____kernel__.1: f32[3072,768], variables__img____Transformer____encoderblock_7____MultiHeadDotProductAttention_0____key____bias__.1: f32[12,64], variables__img____Transformer____encoderblock_7____MultiHeadDotProductAttention_0____key____kernel__.1: f32[768,12,64], variables__img____Transformer____encoderblock_7____MultiHeadDotProductAttention_0____out____bias__.1: f32[768], variables__img____Transformer____encoderblock_7____MultiHeadDotProductAttention_0____out____kernel__.1: f32[12,64,768], variables__img____Transformer____encoderblock_7____MultiHeadDotProductAttention_0____query____bias__.1: f32[12,64], variables__img____Transformer____encoderblock_7____MultiHeadDotProductAttention_0____query____kernel__.1: f32[768,12,64], variables__img____Transformer____encoderblock_7____MultiHeadDotProductAttention_0____value____bias__.1: f32[12,64], variables__img____Transformer____encoderblock_7____MultiHeadDotProductAttention_0____value____kernel__.1: f32[768,12,64], variables__img____Transformer____encoderblock_8____LayerNorm_0____bias__.1: f32[768], variables__img____Transformer____encoderblock_8____LayerNorm_0____scale__.1: f32[768], variables__img____Transformer____encoderblock_8____LayerNorm_1____bias__.1: f32[768], variables__img____Transformer____encoderblock_8____LayerNorm_1____scale__.1: f32[768], variables__img____Transformer____encoderblock_8____MlpBlock_0____Dense_0____bias__.1: f32[3072], variables__img____Transformer____encoderblock_8____MlpBlock_0____Dense_0____kernel__.1: f32[768,3072], variables__img____Transformer____encoderblock_8____MlpBlock_0____Dense_1____bias__.1: f32[768], variables__img____Transformer____encoderblock_8____MlpBlock_0____Dense_1____kernel__.1: f32[3072,768], variables__img____Transformer____encoderblock_8____MultiHeadDotProductAttention_0____key____bias__.1: f32[12,64], variables__img____Transformer____encoderblock_8____MultiHeadDotProductAttention_0____key____kernel__.1: f32[768,12,64], variables__img____Transformer____encoderblock_8____MultiHeadDotProductAttention_0____out____bias__.1: f32[768], variables__img____Transformer____encoderblock_8____MultiHeadDotProductAttention_0____out____kernel__.1: f32[12,64,768], variables__img____Transformer____encoderblock_8____MultiHeadDotProductAttention_0____query____bias__.1: f32[12,64], variables__img____Transformer____encoderblock_8____MultiHeadDotProductAttention_0____query____kernel__.1: f32[768,12,64], variables__img____Transformer____encoderblock_8____MultiHeadDotProductAttention_0____value____bias__.1: f32[12,64], variables__img____Transformer____encoderblock_8____MultiHeadDotProductAttention_0____value____kernel__.1: f32[768,12,64], variables__img____Transformer____encoderblock_9____LayerNorm_0____bias__.1: f32[768], variables__img____Transformer____encoderblock_9____LayerNorm_0____scale__.1: f32[768], variables__img____Transformer____encoderblock_9____LayerNorm_1____bias__.1: f32[768], variables__img____Transformer____encoderblock_9____LayerNorm_1____scale__.1: f32[768], variables__img____Transformer____encoderblock_9____MlpBlock_0____Dense_0____bias__.1: f32[3072], variables__img____Transformer____encoderblock_9____MlpBlock_0____Dense_0____kernel__.1: f32[768,3072], variables__img____Transformer____encoderblock_9____MlpBlock_0____Dense_1____bias__.1: f32[768], variables__img____Transformer____encoderblock_9____MlpBlock_0____Dense_1____kernel__.1: f32[3072,768], variables__img____Transformer____encoderblock_9____MultiHeadDotProductAttention_0____key____bias__.1: f32[12,64], variables__img____Transformer____encoderblock_9____MultiHeadDotProductAttention_0____key____kernel__.1: f32[768,12,64], variables__img____Transformer____encoderblock_9____MultiHeadDotProductAttention_0____out____bias__.1: f32[768], variables__img____Transformer____encoderblock_9____MultiHeadDotProductAttention_0____out____kernel__.1: f32[12,64,768], variables__img____Transformer____encoderblock_9____MultiHeadDotProductAttention_0____query____bias__.1: f32[12,64], variables__img____Transformer____encoderblock_9____MultiHeadDotProductAttention_0____query____kernel__.1: f32[768,12,64], variables__img____Transformer____encoderblock_9____MultiHeadDotProductAttention_0____value____bias__.1: f32[12,64], variables__img____Transformer____encoderblock_9____MultiHeadDotProductAttention_0____value____kernel__.1: f32[768,12,64], variables__img____embedding____bias__.1: f32[768], variables__img____embedding____kernel__.1: f32[16,16,3,768], variables__img____head____bias__.1: f32[768], variables__img____head____kernel__.1: f32[768,768], variables__img____pos_embedding__.1: f32[1,196,768], variables__txt____Embed_0____embedding__.1: f32[32000,768], variables__txt____Encoder_0____encoder_norm____bias__.1: f32[768], variables__txt____Encoder_0____encoder_norm____scale__.1: f32[768], variables__txt____Encoder_0____encoderblock_0____LayerNorm_0____bias__.1: f32[768], variables__txt____Encoder_0____encoderblock_0____LayerNorm_0____scale__.1: f32[768], variables__txt____Encoder_0____encoderblock_0____LayerNorm_1____bias__.1: f32[768], variables__txt____Encoder_0____encoderblock_0____LayerNorm_1____scale__.1: f32[768], variables__txt____Encoder_0____encoderblock_0____MlpBlock_0____Dense_0____bias__.1: f32[3072], variables__txt____Encoder_0____encoderblock_0____MlpBlock_0____Dense_0____kernel__.1: f32[768,3072], variables__txt____Encoder_0____encoderblock_0____MlpBlock_0____Dense_1____bias__.1: f32[768], variables__txt____Encoder_0____encoderblock_0____MlpBlock_0____Dense_1____kernel__.1: f32[3072,768], variables__txt____Encoder_0____encoderblock_0____MultiHeadDotProductAttention_0____key____bias__.1: f32[12,64], variables__txt____Encoder_0____encoderblock_0____MultiHeadDotProductAttention_0____key____kernel__.1: f32[768,12,64], variables__txt____Encoder_0____encoderblock_0____MultiHeadDotProductAttention_0____out____bias__.1: f32[768], variables__txt____Encoder_0____encoderblock_0____MultiHeadDotProductAttention_0____out____kernel__.1: f32[12,64,768], variables__txt____Encoder_0____encoderblock_0____MultiHeadDotProductAttention_0____query____bias__.1: f32[12,64], variables__txt____Encoder_0____encoderblock_0____MultiHeadDotProductAttention_0____query____kernel__.1: f32[768,12,64], variables__txt____Encoder_0____encoderblock_0____MultiHeadDotProductAttention_0____value____bias__.1: f32[12,64], variables__txt____Encoder_0____encoderblock_0____MultiHeadDotProductAttention_0____value____kernel__.1: f32[768,12,64], variables__txt____Encoder_0____encoderblock_1____LayerNorm_0____bias__.1: f32[768], variables__txt____Encoder_0____encoderblock_1____LayerNorm_0____scale__.1: f32[768], variables__txt____Encoder_0____encoderblock_1____LayerNorm_1____bias__.1: f32[768], variables__txt____Encoder_0____encoderblock_1____LayerNorm_1____scale__.1: f32[768], variables__txt____Encoder_0____encoderblock_1____MlpBlock_0____Dense_0____bias__.1: f32[3072], variables__txt____Encoder_0____encoderblock_1____MlpBlock_0____Dense_0____kernel__.1: f32[768,3072], variables__txt____Encoder_0____encoderblock_1____MlpBlock_0____Dense_1____bias__.1: f32[768], variables__txt____Encoder_0____encoderblock_1____MlpBlock_0____Dense_1____kernel__.1: f32[3072,768], variables__txt____Encoder_0____encoderblock_1____MultiHeadDotProductAttention_0____key____bias__.1: f32[12,64], variables__txt____Encoder_0____encoderblock_1____MultiHeadDotProductAttention_0____key____kernel__.1: f32[768,12,64], variables__txt____Encoder_0____encoderblock_1____MultiHeadDotProductAttention_0____out____bias__.1: f32[768], variables__txt____Encoder_0____encoderblock_1____MultiHeadDotProductAttention_0____out____kernel__.1: f32[12,64,768], variables__txt____Encoder_0____encoderblock_1____MultiHeadDotProductAttention_0____query____bias__.1: f32[12,64], variables__txt____Encoder_0____encoderblock_1____MultiHeadDotProductAttention_0____query____kernel__.1: f32[768,12,64], variables__txt____Encoder_0____encoderblock_1____MultiHeadDotProductAttention_0____value____bias__.1: f32[12,64], variables__txt____Encoder_0____encoderblock_1____MultiHeadDotProductAttention_0____value____kernel__.1: f32[768,12,64], variables__txt____Encoder_0____encoderblock_10____LayerNorm_0____bias__.1: f32[768], variables__txt____Encoder_0____encoderblock_10____LayerNorm_0____scale__.1: f32[768], variables__txt____Encoder_0____encoderblock_10____LayerNorm_1____bias__.1: f32[768], variables__txt____Encoder_0____encoderblock_10____LayerNorm_1____scale__.1: f32[768], variables__txt____Encoder_0____encoderblock_10____MlpBlock_0____Dense_0____bias__.1: f32[3072], variables__txt____Encoder_0____encoderblock_10____MlpBlock_0____Dense_0____kernel__.1: f32[768,3072], variables__txt____Encoder_0____encoderblock_10____MlpBlock_0____Dense_1____bias__.1: f32[768], variables__txt____Encoder_0____encoderblock_10____MlpBlock_0____Dense_1____kernel__.1: f32[3072,768], variables__txt____Encoder_0____encoderblock_10____MultiHeadDotProductAttention_0____key____bias__.1: f32[12,64], variables__txt____Encoder_0____encoderblock_10____MultiHeadDotProductAttention_0____key____kernel__.1: f32[768,12,64], variables__txt____Encoder_0____encoderblock_10____MultiHeadDotProductAttention_0____out____bias__.1: f32[768], variables__txt____Encoder_0____encoderblock_10____MultiHeadDotProductAttention_0____out____kernel__.1: f32[12,64,768], variables__txt____Encoder_0____encoderblock_10____MultiHeadDotProductAttention_0____query____bias__.1: f32[12,64], variables__txt____Encoder_0____encoderblock_10____MultiHeadDotProductAttention_0____query____kernel__.1: f32[768,12,64], variables__txt____Encoder_0____encoderblock_10____MultiHeadDotProductAttention_0____value____bias__.1: f32[12,64], variables__txt____Encoder_0____encoderblock_10____MultiHeadDotProductAttention_0____value____kernel__.1: f32[768,12,64], variables__txt____Encoder_0____encoderblock_11____LayerNorm_0____bias__.1: f32[768], variables__txt____Encoder_0____encoderblock_11____LayerNorm_0____scale__.1: f32[768], variables__txt____Encoder_0____encoderblock_11____LayerNorm_1____bias__.1: f32[768], variables__txt____Encoder_0____encoderblock_11____LayerNorm_1____scale__.1: f32[768], variables__txt____Encoder_0____encoderblock_11____MlpBlock_0____Dense_0____bias__.1: f32[3072], variables__txt____Encoder_0____encoderblock_11____MlpBlock_0____Dense_0____kernel__.1: f32[768,3072], variables__txt____Encoder_0____encoderblock_11____MlpBlock_0____Dense_1____bias__.1: f32[768], variables__txt____Encoder_0____encoderblock_11____MlpBlock_0____Dense_1____kernel__.1: f32[3072,768], variables__txt____Encoder_0____encoderblock_11____MultiHeadDotProductAttention_0____key____bias__.1: f32[12,64], variables__txt____Encoder_0____encoderblock_11____MultiHeadDotProductAttention_0____key____kernel__.1: f32[768,12,64], variables__txt____Encoder_0____encoderblock_11____MultiHeadDotProductAttention_0____out____bias__.1: f32[768], variables__txt____Encoder_0____encoderblock_11____MultiHeadDotProductAttention_0____out____kernel__.1: f32[12,64,768], variables__txt____Encoder_0____encoderblock_11____MultiHeadDotProductAttention_0____query____bias__.1: f32[12,64], variables__txt____Encoder_0____encoderblock_11____MultiHeadDotProductAttention_0____query____kernel__.1: f32[768,12,64], variables__txt____Encoder_0____encoderblock_11____MultiHeadDotProductAttention_0____value____bias__.1: f32[12,64], variables__txt____Encoder_0____encoderblock_11____MultiHeadDotProductAttention_0____value____kernel__.1: f32[768,12,64], variables__txt____Encoder_0____encoderblock_2____LayerNorm_0____bias__.1: f32[768], variables__txt____Encoder_0____encoderblock_2____LayerNorm_0____scale__.1: f32[768], variables__txt____Encoder_0____encoderblock_2____LayerNorm_1____bias__.1: f32[768], variables__txt____Encoder_0____encoderblock_2____LayerNorm_1____scale__.1: f32[768], variables__txt____Encoder_0____encoderblock_2____MlpBlock_0____Dense_0____bias__.1: f32[3072], variables__txt____Encoder_0____encoderblock_2____MlpBlock_0____Dense_0____kernel__.1: f32[768,3072], variables__txt____Encoder_0____encoderblock_2____MlpBlock_0____Dense_1____bias__.1: f32[768], variables__txt____Encoder_0____encoderblock_2____MlpBlock_0____Dense_1____kernel__.1: f32[3072,768], variables__txt____Encoder_0____encoderblock_2____MultiHeadDotProductAttention_0____key____bias__.1: f32[12,64], variables__txt____Encoder_0____encoderblock_2____MultiHeadDotProductAttention_0____key____kernel__.1: f32[768,12,64], variables__txt____Encoder_0____encoderblock_2____MultiHeadDotProductAttention_0____out____bias__.1: f32[768], variables__txt____Encoder_0____encoderblock_2____MultiHeadDotProductAttention_0____out____kernel__.1: f32[12,64,768], variables__txt____Encoder_0____encoderblock_2____MultiHeadDotProductAttention_0____query____bias__.1: f32[12,64], variables__txt____Encoder_0____encoderblock_2____MultiHeadDotProductAttention_0____query____kernel__.1: f32[768,12,64], variables__txt____Encoder_0____encoderblock_2____MultiHeadDotProductAttention_0____value____bias__.1: f32[12,64], variables__txt____Encoder_0____encoderblock_2____MultiHeadDotProductAttention_0____value____kernel__.1: f32[768,12,64], variables__txt____Encoder_0____encoderblock_3____LayerNorm_0____bias__.1: f32[768], variables__txt____Encoder_0____encoderblock_3____LayerNorm_0____scale__.1: f32[768], variables__txt____Encoder_0____encoderblock_3____LayerNorm_1____bias__.1: f32[768], variables__txt____Encoder_0____encoderblock_3____LayerNorm_1____scale__.1: f32[768], variables__txt____Encoder_0____encoderblock_3____MlpBlock_0____Dense_0____bias__.1: f32[3072], variables__txt____Encoder_0____encoderblock_3____MlpBlock_0____Dense_0____kernel__.1: f32[768,3072], variables__txt____Encoder_0____encoderblock_3____MlpBlock_0____Dense_1____bias__.1: f32[768], variables__txt____Encoder_0____encoderblock_3____MlpBlock_0____Dense_1____kernel__.1: f32[3072,768], variables__txt____Encoder_0____encoderblock_3____MultiHeadDotProductAttention_0____key____bias__.1: f32[12,64], variables__txt____Encoder_0____encoderblock_3____MultiHeadDotProductAttention_0____key____kernel__.1: f32[768,12,64], variables__txt____Encoder_0____encoderblock_3____MultiHeadDotProductAttention_0____out____bias__.1: f32[768], variables__txt____Encoder_0____encoderblock_3____MultiHeadDotProductAttention_0____out____kernel__.1: f32[12,64,768], variables__txt____Encoder_0____encoderblock_3____MultiHeadDotProductAttention_0____query____bias__.1: f32[12,64], variables__txt____Encoder_0____encoderblock_3____MultiHeadDotProductAttention_0____query____kernel__.1: f32[768,12,64], variables__txt____Encoder_0____encoderblock_3____MultiHeadDotProductAttention_0____value____bias__.1: f32[12,64], variables__txt____Encoder_0____encoderblock_3____MultiHeadDotProductAttention_0____value____kernel__.1: f32[768,12,64], variables__txt____Encoder_0____encoderblock_4____LayerNorm_0____bias__.1: f32[768], variables__txt____Encoder_0____encoderblock_4____LayerNorm_0____scale__.1: f32[768], variables__txt____Encoder_0____encoderblock_4____LayerNorm_1____bias__.1: f32[768], variables__txt____Encoder_0____encoderblock_4____LayerNorm_1____scale__.1: f32[768], variables__txt____Encoder_0____encoderblock_4____MlpBlock_0____Dense_0____bias__.1: f32[3072], variables__txt____Encoder_0____encoderblock_4____MlpBlock_0____Dense_0____kernel__.1: f32[768,3072], variables__txt____Encoder_0____encoderblock_4____MlpBlock_0____Dense_1____bias__.1: f32[768], variables__txt____Encoder_0____encoderblock_4____MlpBlock_0____Dense_1____kernel__.1: f32[3072,768], variables__txt____Encoder_0____encoderblock_4____MultiHeadDotProductAttention_0____key____bias__.1: f32[12,64], variables__txt____Encoder_0____encoderblock_4____MultiHeadDotProductAttention_0____key____kernel__.1: f32[768,12,64], variables__txt____Encoder_0____encoderblock_4____MultiHeadDotProductAttention_0____out____bias__.1: f32[768], variables__txt____Encoder_0____encoderblock_4____MultiHeadDotProductAttention_0____out____kernel__.1: f32[12,64,768], variables__txt____Encoder_0____encoderblock_4____MultiHeadDotProductAttention_0____query____bias__.1: f32[12,64], variables__txt____Encoder_0____encoderblock_4____MultiHeadDotProductAttention_0____query____kernel__.1: f32[768,12,64], variables__txt____Encoder_0____encoderblock_4____MultiHeadDotProductAttention_0____value____bias__.1: f32[12,64], variables__txt____Encoder_0____encoderblock_4____MultiHeadDotProductAttention_0____value____kernel__.1: f32[768,12,64], variables__txt____Encoder_0____encoderblock_5____LayerNorm_0____bias__.1: f32[768], variables__txt____Encoder_0____encoderblock_5____LayerNorm_0____scale__.1: f32[768], variables__txt____Encoder_0____encoderblock_5____LayerNorm_1____bias__.1: f32[768], variables__txt____Encoder_0____encoderblock_5____LayerNorm_1____scale__.1: f32[768], variables__txt____Encoder_0____encoderblock_5____MlpBlock_0____Dense_0____bias__.1: f32[3072], variables__txt____Encoder_0____encoderblock_5____MlpBlock_0____Dense_0____kernel__.1: f32[768,3072], variables__txt____Encoder_0____encoderblock_5____MlpBlock_0____Dense_1____bias__.1: f32[768], variables__txt____Encoder_0____encoderblock_5____MlpBlock_0____Dense_1____kernel__.1: f32[3072,768], variables__txt____Encoder_0____encoderblock_5____MultiHeadDotProductAttention_0____key____bias__.1: f32[12,64], variables__txt____Encoder_0____encoderblock_5____MultiHeadDotProductAttention_0____key____kernel__.1: f32[768,12,64], variables__txt____Encoder_0____encoderblock_5____MultiHeadDotProductAttention_0____out____bias__.1: f32[768], variables__txt____Encoder_0____encoderblock_5____MultiHeadDotProductAttention_0____out____kernel__.1: f32[12,64,768], variables__txt____Encoder_0____encoderblock_5____MultiHeadDotProductAttention_0____query____bias__.1: f32[12,64], variables__txt____Encoder_0____encoderblock_5____MultiHeadDotProductAttention_0____query____kernel__.1: f32[768,12,64], variables__txt____Encoder_0____encoderblock_5____MultiHeadDotProductAttention_0____value____bias__.1: f32[12,64], variables__txt____Encoder_0____encoderblock_5____MultiHeadDotProductAttention_0____value____kernel__.1: f32[768,12,64], variables__txt____Encoder_0____encoderblock_6____LayerNorm_0____bias__.1: f32[768], variables__txt____Encoder_0____encoderblock_6____LayerNorm_0____scale__.1: f32[768], variables__txt____Encoder_0____encoderblock_6____LayerNorm_1____bias__.1: f32[768], variables__txt____Encoder_0____encoderblock_6____LayerNorm_1____scale__.1: f32[768], variables__txt____Encoder_0____encoderblock_6____MlpBlock_0____Dense_0____bias__.1: f32[3072], variables__txt____Encoder_0____encoderblock_6____MlpBlock_0____Dense_0____kernel__.1: f32[768,3072], variables__txt____Encoder_0____encoderblock_6____MlpBlock_0____Dense_1____bias__.1: f32[768], variables__txt____Encoder_0____encoderblock_6____MlpBlock_0____Dense_1____kernel__.1: f32[3072,768], variables__txt____Encoder_0____encoderblock_6____MultiHeadDotProductAttention_0____key____bias__.1: f32[12,64], variables__txt____Encoder_0____encoderblock_6____MultiHeadDotProductAttention_0____key____kernel__.1: f32[768,12,64], variables__txt____Encoder_0____encoderblock_6____MultiHeadDotProductAttention_0____out____bias__.1: f32[768], variables__txt____Encoder_0____encoderblock_6____MultiHeadDotProductAttention_0____out____kernel__.1: f32[12,64,768], variables__txt____Encoder_0____encoderblock_6____MultiHeadDotProductAttention_0____query____bias__.1: f32[12,64], variables__txt____Encoder_0____encoderblock_6____MultiHeadDotProductAttention_0____query____kernel__.1: f32[768,12,64], variables__txt____Encoder_0____encoderblock_6____MultiHeadDotProductAttention_0____value____bias__.1: f32[12,64], variables__txt____Encoder_0____encoderblock_6____MultiHeadDotProductAttention_0____value____kernel__.1: f32[768,12,64], variables__txt____Encoder_0____encoderblock_7____LayerNorm_0____bias__.1: f32[768], variables__txt____Encoder_0____encoderblock_7____LayerNorm_0____scale__.1: f32[768], variables__txt____Encoder_0____encoderblock_7____LayerNorm_1____bias__.1: f32[768], variables__txt____Encoder_0____encoderblock_7____LayerNorm_1____scale__.1: f32[768], variables__txt____Encoder_0____encoderblock_7____MlpBlock_0____Dense_0____bias__.1: f32[3072], variables__txt____Encoder_0____encoderblock_7____MlpBlock_0____Dense_0____kernel__.1: f32[768,3072], variables__txt____Encoder_0____encoderblock_7____MlpBlock_0____Dense_1____bias__.1: f32[768], variables__txt____Encoder_0____encoderblock_7____MlpBlock_0____Dense_1____kernel__.1: f32[3072,768], variables__txt____Encoder_0____encoderblock_7____MultiHeadDotProductAttention_0____key____bias__.1: f32[12,64], variables__txt____Encoder_0____encoderblock_7____MultiHeadDotProductAttention_0____key____kernel__.1: f32[768,12,64], variables__txt____Encoder_0____encoderblock_7____MultiHeadDotProductAttention_0____out____bias__.1: f32[768], variables__txt____Encoder_0____encoderblock_7____MultiHeadDotProductAttention_0____out____kernel__.1: f32[12,64,768], variables__txt____Encoder_0____encoderblock_7____MultiHeadDotProductAttention_0____query____bias__.1: f32[12,64], variables__txt____Encoder_0____encoderblock_7____MultiHeadDotProductAttention_0____query____kernel__.1: f32[768,12,64], variables__txt____Encoder_0____encoderblock_7____MultiHeadDotProductAttention_0____value____bias__.1: f32[12,64], variables__txt____Encoder_0____encoderblock_7____MultiHeadDotProductAttention_0____value____kernel__.1: f32[768,12,64], variables__txt____Encoder_0____encoderblock_8____LayerNorm_0____bias__.1: f32[768], variables__txt____Encoder_0____encoderblock_8____LayerNorm_0____scale__.1: f32[768], variables__txt____Encoder_0____encoderblock_8____LayerNorm_1____bias__.1: f32[768], variables__txt____Encoder_0____encoderblock_8____LayerNorm_1____scale__.1: f32[768], variables__txt____Encoder_0____encoderblock_8____MlpBlock_0____Dense_0____bias__.1: f32[3072], variables__txt____Encoder_0____encoderblock_8____MlpBlock_0____Dense_0____kernel__.1: f32[768,3072], variables__txt____Encoder_0____encoderblock_8____MlpBlock_0____Dense_1____bias__.1: f32[768], variables__txt____Encoder_0____encoderblock_8____MlpBlock_0____Dense_1____kernel__.1: f32[3072,768], variables__txt____Encoder_0____encoderblock_8____MultiHeadDotProductAttention_0____key____bias__.1: f32[12,64], variables__txt____Encoder_0____encoderblock_8____MultiHeadDotProductAttention_0____key____kernel__.1: f32[768,12,64], variables__txt____Encoder_0____encoderblock_8____MultiHeadDotProductAttention_0____out____bias__.1: f32[768], variables__txt____Encoder_0____encoderblock_8____MultiHeadDotProductAttention_0____out____kernel__.1: f32[12,64,768], variables__txt____Encoder_0____encoderblock_8____MultiHeadDotProductAttention_0____query____bias__.1: f32[12,64], variables__txt____Encoder_0____encoderblock_8____MultiHeadDotProductAttention_0____query____kernel__.1: f32[768,12,64], variables__txt____Encoder_0____encoderblock_8____MultiHeadDotProductAttention_0____value____bias__.1: f32[12,64], variables__txt____Encoder_0____encoderblock_8____MultiHeadDotProductAttention_0____value____kernel__.1: f32[768,12,64], variables__txt____Encoder_0____encoderblock_9____LayerNorm_0____bias__.1: f32[768], variables__txt____Encoder_0____encoderblock_9____LayerNorm_0____scale__.1: f32[768], variables__txt____Encoder_0____encoderblock_9____LayerNorm_1____bias__.1: f32[768], variables__txt____Encoder_0____encoderblock_9____LayerNorm_1____scale__.1: f32[768], variables__txt____Encoder_0____encoderblock_9____MlpBlock_0____Dense_0____bias__.1: f32[3072], variables__txt____Encoder_0____encoderblock_9____MlpBlock_0____Dense_0____kernel__.1: f32[768,3072], variables__txt____Encoder_0____encoderblock_9____MlpBlock_0____Dense_1____bias__.1: f32[768], variables__txt____Encoder_0____encoderblock_9____MlpBlock_0____Dense_1____kernel__.1: f32[3072,768], variables__txt____Encoder_0____encoderblock_9____MultiHeadDotProductAttention_0____key____bias__.1: f32[12,64], variables__txt____Encoder_0____encoderblock_9____MultiHeadDotProductAttention_0____key____kernel__.1: f32[768,12,64], variables__txt____Encoder_0____encoderblock_9____MultiHeadDotProductAttention_0____out____bias__.1: f32[768], variables__txt____Encoder_0____encoderblock_9____MultiHeadDotProductAttention_0____out____kernel__.1: f32[12,64,768], variables__txt____Encoder_0____encoderblock_9____MultiHeadDotProductAttention_0____query____bias__.1: f32[12,64], variables__txt____Encoder_0____encoderblock_9____MultiHeadDotProductAttention_0____query____kernel__.1: f32[768,12,64], variables__txt____Encoder_0____encoderblock_9____MultiHeadDotProductAttention_0____value____bias__.1: f32[12,64], variables__txt____Encoder_0____encoderblock_9____MultiHeadDotProductAttention_0____value____kernel__.1: f32[768,12,64], variables__txt____head____bias__.1: f32[768], variables__txt____head____kernel__.1: f32[768,768], variables__txt____pos_embedding__.1: f32[1,64,768], inputs_0_.1: f32[16,224,224,3], inputs_1_.1: s32[16,64]) -> (f32[16,768], f32[16,768]) {
  %inputs_0_.1 = f32[16,224,224,3]{3,2,1,0} parameter(397), sharding={replicated}, frontend_attributes={xla.sdy.sharding="#sdy.sharding<@mesh, [{}, {}, {}, {}]>"}, metadata={op_name="inputs[0]"}
  %variables__img____embedding____kernel__.1 = f32[16,16,3,768]{3,2,1,0} parameter(195), sharding={devices=[4,1,1,1]<=[4]}, frontend_attributes={xla.sdy.sharding="#sdy.sharding<@mesh, [{\"fsdp\"}, {}, {}, {}]>"}, metadata={op_name="variables[\'img\'][\'embedding\'][\'kernel\']"}
  %conv_general_dilated.1 = f32[16,14,14,768]{3,2,1,0} convolution(%inputs_0_.1, %variables__img____embedding____kernel__.1), window={size=16x16 stride=16x16}, dim_labels=b01f_01io->b01f, metadata={op_name="jit(predict_step)/Model/img/embedding/conv_general_dilated" stack_frame_id=51}
  %variables__img____embedding____bias__.1 = f32[768]{0} parameter(194), sharding={devices=[4]<=[4]}, frontend_attributes={xla.sdy.sharding="#sdy.sharding<@mesh, [{\"fsdp\"}]>"}, metadata={op_name="variables[\'img\'][\'embedding\'][\'bias\']"}
  %reshape.373 = f32[1,1,1,768]{3,2,1,0} reshape(%variables__img____embedding____bias__.1), metadata={op_name="jit(predict_step)/Model/img/embedding/reshape" stack_frame_id=52}
  %add.1418 = f32[1,1,1,768]{3,2,1,0} broadcast(%reshape.373), dimensions={0,1,2,3}, metadata={op_name="jit(predict_step)/Model/img/embedding/add" stack_frame_id=53}
  %add.1419 = f32[768]{0} reshape(%add.1418), metadata={op_name="jit(predict_step)/Model/img/embedding/add" stack_frame_id=53}
  %add.1420 = f32[16,14,14,768]{3,2,1,0} broadcast(%add.1419), dimensions={3}, metadata={op_name="jit(predict_step)/Model/img/embedding/add" stack_frame_id=53}
  %add.1421 = f32[16,14,14,768]{3,2,1,0} add(%conv_general_dilated.1, %add.1420), metadata={op_name="jit(predict_step)/Model/img/embedding/add" stack_frame_id=53}
  %reshape.374 = f32[16,196,768]{2,1,0} reshape(%add.1421), metadata={op_name="jit(predict_step)/Model/img/reshape" stack_frame_id=54}
  %variables__img____pos_embedding__.1 = f32[1,196,768]{2,1,0} parameter(198), sharding={devices=[1,4,1]<=[4]}, frontend_attributes={xla.sdy.sharding="#sdy.sharding<@mesh, [{}, {\"fsdp\"}, {}]>"}, metadata={op_name="variables[\'img\'][\'pos_embedding\']"}
  %add.1422 = f32[1,196,768]{2,1,0} broadcast(%variables__img____pos_embedding__.1), dimensions={0,1,2}, metadata={op_name="jit(predict_step)/Model/img/add" stack_frame_id=55}
  %add.1423 = f32[196,768]{1,0} reshape(%add.1422), metadata={op_name="jit(predict_step)/Model/img/add" stack_frame_id=55}
  %add.1424 = f32[16,196,768]{2,1,0} broadcast(%add.1423), dimensions={1,2}, metadata={op_name="jit(predict_step)/Model/img/add" stack_frame_id=55}
  %add.1425 = f32[16,196,768]{2,1,0} add(%reshape.374, %add.1424), metadata={op_name="jit(predict_step)/Model/img/add" stack_frame_id=55}
  %constant.57 = f32[] constant(0)
  %reduce_sum.945 = f32[16,196]{1,0} reduce(%add.1425, %constant.57), dimensions={2}, to_apply=%region_76.80, metadata={op_name="jit(predict_step)/Model/img/Transformer/encoderblock_0/LayerNorm_0/reduce_sum" stack_frame_id=34}
  %constant.45 = f32[] constant(768)
  %broadcast.27 = f32[16,196]{1,0} broadcast(%constant.45), dimensions={}
  %div.347 = f32[16,196]{1,0} divide(%reduce_sum.945, %broadcast.27), metadata={op_name="jit(predict_step)/Model/img/Transformer/encoderblock_0/LayerNorm_0/div" stack_frame_id=34}
  %broadcast_in_dim.230 = f32[16,196,1]{2,1,0} reshape(%div.347), metadata={op_name="jit(predict_step)/Model/img/Transformer/encoderblock_0/LayerNorm_0/broadcast_in_dim" stack_frame_id=57}
  %sub.520 = f32[16,196,1]{2,1,0} broadcast(%broadcast_in_dim.230), dimensions={0,1,2}, metadata={op_name="jit(predict_step)/Model/img/Transformer/encoderblock_0/LayerNorm_0/sub" stack_frame_id=58}
  %sub.521 = f32[16,196]{1,0} reshape(%sub.520), metadata={op_name="jit(predict_step)/Model/img/Transformer/encoderblock_0/LayerNorm_0/sub" stack_frame_id=58}
  %sub.522 = f32[16,196,768]{2,1,0} broadcast(%sub.521), dimensions={0,1}, metadata={op_name="jit(predict_step)/Model/img/Transformer/encoderblock_0/LayerNorm_0/sub" stack_frame_id=58}
  %sub.523 = f32[16,196,768]{2,1,0} subtract(%add.1425, %sub.522), metadata={op_name="jit(predict_step)/Model/img/Transformer/encoderblock_0/LayerNorm_0/sub" stack_frame_id=58}
  %square.150 = f32[16,196,768]{2,1,0} multiply(%add.1425, %add.1425), metadata={op_name="jit(predict_step)/Model/img/Transformer/encoderblock_0/LayerNorm_0/square" stack_frame_id=60}
  %reduce_sum.946 = f32[16,196]{1,0} reduce(%square.150, %constant.57), dimensions={2}, to_apply=%region_77.81, metadata={op_name="jit(predict_step)/Model/img/Transformer/encoderblock_0/LayerNorm_0/reduce_sum" stack_frame_id=34}
  %div.348 = f32[16,196]{1,0} divide(%reduce_sum.946, %broadcast.27), metadata={op_name="jit(predict_step)/Model/img/Transformer/encoderblock_0/LayerNorm_0/div" stack_frame_id=34}
  %square.151 = f32[16,196]{1,0} multiply(%div.347, %div.347), metadata={op_name="jit(predict_step)/Model/img/Transformer/encoderblock_0/LayerNorm_0/square" stack_frame_id=62}
  %sub.519 = f32[16,196]{1,0} subtract(%div.348, %square.151), metadata={op_name="jit(predict_step)/Model/img/Transformer/encoderblock_0/LayerNorm_0/sub" stack_frame_id=63}
  %constant.44 = f32[] constant(0)
  %broadcast.26 = f32[16,196]{1,0} broadcast(%constant.44), dimensions={}
  %max.111 = f32[16,196]{1,0} maximum(%sub.519, %broadcast.26), metadata={op_name="jit(predict_step)/Model/img/Transformer/encoderblock_0/LayerNorm_0/max" stack_frame_id=64}
  %broadcast_in_dim.231 = f32[16,196,1]{2,1,0} reshape(%max.111), metadata={op_name="jit(predict_step)/Model/img/Transformer/encoderblock_0/LayerNorm_0/broadcast_in_dim" stack_frame_id=65}
  %constant.43 = f32[] constant(1e-06)
  %broadcast.25 = f32[16,196,1]{2,1,0} broadcast(%constant.43), dimensions={}
  %add.1426 = f32[16,196,1]{2,1,0} add(%broadcast_in_dim.231, %broadcast.25), metadata={op_name="jit(predict_step)/Model/img/Transformer/encoderblock_0/LayerNorm_0/add" stack_frame_id=66}
  %rsqrt.75 = f32[16,196,1]{2,1,0} rsqrt(%add.1426), metadata={op_name="jit(predict_step)/Model/img/Transformer/encoderblock_0/LayerNorm_0/rsqrt" stack_frame_id=67}
  %mul.746 = f32[16,196,1]{2,1,0} broadcast(%rsqrt.75), dimensions={0,1,2}, metadata={op_name="jit(predict_step)/Model/img/Transformer/encoderblock_0/LayerNorm_0/mul" stack_frame_id=68}
  %mul.747 = f32[16,196]{1,0} reshape(%mul.746), metadata={op_name="jit(predict_step)/Model/img/Transformer/encoderblock_0/LayerNorm_0/mul" stack_frame_id=68}
  %mul.748 = f32[16,196,768]{2,1,0} broadcast(%mul.747), dimensions={0,1}, metadata={op_name="jit(predict_step)/Model/img/Transformer/encoderblock_0/LayerNorm_0/mul" stack_frame_id=68}
  %variables__img____Transformer____encoderblock_0____LayerNorm_0____scale__.1 = f32[768]{0} parameter(3), sharding={devices=[4]<=[4]}, frontend_attributes={xla.sdy.sharding="#sdy.sharding<@mesh, [{\"fsdp\"}]>"}, metadata={op_name="variables[\'img\'][\'Transformer\'][\'encoderblock_0\'][\'LayerNorm_0\'][\'scale\']"}
  %reshape.375 = f32[1,1,768]{2,1,0} reshape(%variables__img____Transformer____encoderblock_0____LayerNorm_0____scale__.1), metadata={op_name="jit(predict_step)/Model/img/Transformer/encoderblock_0/LayerNorm_0/reshape" stack_frame_id=69}
  %mul.749 = f32[1,1,768]{2,1,0} broadcast(%reshape.375), dimensions={0,1,2}, metadata={op_name="jit(predict_step)/Model/img/Transformer/encoderblock_0/LayerNorm_0/mul" stack_frame_id=68}
  %mul.750 = f32[768]{0} reshape(%mul.749), metadata={op_name="jit(predict_step)/Model/img/Transformer/encoderblock_0/LayerNorm_0/mul" stack_frame_id=68}
  %mul.751 = f32[16,196,768]{2,1,0} broadcast(%mul.750), dimensions={2}, metadata={op_name="jit(predict_step)/Model/img/Transformer/encoderblock_0/LayerNorm_0/mul" stack_frame_id=68}
  %mul.752 = f32[16,196,768]{2,1,0} multiply(%mul.748, %mul.751), metadata={op_name="jit(predict_step)/Model/img/Transformer/encoderblock_0/LayerNorm_0/mul" stack_frame_id=68}
  %mul.753 = f32[16,196,768]{2,1,0} multiply(%sub.523, %mul.752), metadata={op_name="jit(predict_step)/Model/img/Transformer/encoderblock_0/LayerNorm_0/mul" stack_frame_id=70}
  %variables__img____Transformer____encoderblock_0____LayerNorm_0____bias__.1 = f32[768]{0} parameter(2), sharding={devices=[4]<=[4]}, frontend_attributes={xla.sdy.sharding="#sdy.sharding<@mesh, [{\"fsdp\"}]>"}, metadata={op_name="variables[\'img\'][\'Transformer\'][\'encoderblock_0\'][\'LayerNorm_0\'][\'bias\']"}
  %reshape.376 = f32[1,1,768]{2,1,0} reshape(%variables__img____Transformer____encoderblock_0____LayerNorm_0____bias__.1), metadata={op_name="jit(predict_step)/Model/img/Transformer/encoderblock_0/LayerNorm_0/reshape" stack_frame_id=71}
  %add.1427 = f32[1,1,768]{2,1,0} broadcast(%reshape.376), dimensions={0,1,2}, metadata={op_name="jit(predict_step)/Model/img/Transformer/encoderblock_0/LayerNorm_0/add" stack_frame_id=72}
  %add.1428 = f32[768]{0} reshape(%add.1427), metadata={op_name="jit(predict_step)/Model/img/Transformer/encoderblock_0/LayerNorm_0/add" stack_frame_id=72}
  %add.1429 = f32[16,196,768]{2,1,0} broadcast(%add.1428), dimensions={2}, metadata={op_name="jit(predict_step)/Model/img/Transformer/encoderblock_0/LayerNorm_0/add" stack_frame_id=72}
  %add.1430 = f32[16,196,768]{2,1,0} add(%mul.753, %add.1429), metadata={op_name="jit(predict_step)/Model/img/Transformer/encoderblock_0/LayerNorm_0/add" stack_frame_id=72}
  %variables__img____Transformer____encoderblock_0____MultiHeadDotProductAttention_0____value____kernel__.1 = f32[768,12,64]{2,1,0} parameter(17), sharding={devices=[4,1,1]<=[4]}, frontend_attributes={xla.sdy.sharding="#sdy.sharding<@mesh, [{\"fsdp\"}, {}, {}]>"}, metadata={op_name="variables[\'img\'][\'Transformer\'][\'encoderblock_0\'][\'MultiHeadDotProductAttention_0\'][\'value\'][\'kernel\']"}
  %dot_general.293 = f32[16,196,12,64]{3,2,1,0} dot(%add.1430, %variables__img____Transformer____encoderblock_0____MultiHeadDotProductAttention_0____value____kernel__.1), lhs_contracting_dims={2}, rhs_contracting_dims={0}, metadata={op_name="jit(predict_step)/Model/img/Transformer/encoderblock_0/MultiHeadDotProductAttention_0/value/dot_general" stack_frame_id=74}
  %variables__img____Transformer____encoderblock_0____MultiHeadDotProductAttention_0____value____bias__.1 = f32[12,64]{1,0} parameter(16), sharding={devices=[4,1]<=[4]}, frontend_attributes={xla.sdy.sharding="#sdy.sharding<@mesh, [{\"fsdp\"}, {}]>"}, metadata={op_name="variables[\'img\'][\'Transformer\'][\'encoderblock_0\'][\'MultiHeadDotProductAttention_0\'][\'value\'][\'bias\']"}
  %reshape.379 = f32[1,1,12,64]{3,2,1,0} reshape(%variables__img____Transformer____encoderblock_0____MultiHeadDotProductAttention_0____value____bias__.1), metadata={op_name="jit(predict_step)/Model/img/Transformer/encoderblock_0/MultiHeadDotProductAttention_0/value/reshape" stack_frame_id=75}
  %add.1439 = f32[1,1,12,64]{3,2,1,0} broadcast(%reshape.379), dimensions={0,1,2,3}, metadata={op_name="jit(predict_step)/Model/img/Transformer/encoderblock_0/MultiHeadDotProductAttention_0/value/add" stack_frame_id=76}
  %add.1440 = f32[12,64]{1,0} reshape(%add.1439), metadata={op_name="jit(predict_step)/Model/img/Transformer/encoderblock_0/MultiHeadDotProductAttention_0/value/add" stack_frame_id=76}
  %add.1441 = f32[16,196,12,64]{3,2,1,0} broadcast(%add.1440), dimensions={2,3}, metadata={op_name="jit(predict_step)/Model/img/Transformer/encoderblock_0/MultiHeadDotProductAttention_0/value/add" stack_frame_id=76}
  %add.1442 = f32[16,196,12,64]{3,2,1,0} add(%dot_general.293, %add.1441), metadata={op_name="jit(predict_step)/Model/img/Transformer/encoderblock_0/MultiHeadDotProductAttention_0/value/add" stack_frame_id=76}
  %variables__img____Transformer____encoderblock_0____MultiHeadDotProductAttention_0____query____kernel__.1 = f32[768,12,64]{2,1,0} parameter(15), sharding={devices=[4,1,1]<=[4]}, frontend_attributes={xla.sdy.sharding="#sdy.sharding<@mesh, [{\"fsdp\"}, {}, {}]>"}, metadata={op_name="variables[\'img\'][\'Transformer\'][\'encoderblock_0\'][\'MultiHeadDotProductAttention_0\'][\'query\'][\'kernel\']"}
  %dot_general.291 = f32[16,196,12,64]{3,2,1,0} dot(%add.1430, %variables__img____Transformer____encoderblock_0____MultiHeadDotProductAttention_0____query____kernel__.1), lhs_contracting_dims={2}, rhs_contracting_dims={0}, metadata={op_name="jit(predict_step)/Model/img/Transformer/encoderblock_0/MultiHeadDotProductAttention_0/query/dot_general" stack_frame_id=78}
  %variables__img____Transformer____encoderblock_0____MultiHeadDotProductAttention_0____query____bias__.1 = f32[12,64]{1,0} parameter(14), sharding={devices=[4,1]<=[4]}, frontend_attributes={xla.sdy.sharding="#sdy.sharding<@mesh, [{\"fsdp\"}, {}]>"}, metadata={op_name="variables[\'img\'][\'Transformer\'][\'encoderblock_0\'][\'MultiHeadDotProductAttention_0\'][\'query\'][\'bias\']"}
  %reshape.377 = f32[1,1,12,64]{3,2,1,0} reshape(%variables__img____Transformer____encoderblock_0____MultiHeadDotProductAttention_0____query____bias__.1), metadata={op_name="jit(predict_step)/Model/img/Transformer/encoderblock_0/MultiHeadDotProductAttention_0/query/reshape" stack_frame_id=79}
  %add.1431 = f32[1,1,12,64]{3,2,1,0} broadcast(%reshape.377), dimensions={0,1,2,3}, metadata={op_name="jit(predict_step)/Model/img/Transformer/encoderblock_0/MultiHeadDotProductAttention_0/query/add" stack_frame_id=80}
  %add.1432 = f32[12,64]{1,0} reshape(%add.1431), metadata={op_name="jit(predict_step)/Model/img/Transformer/encoderblock_0/MultiHeadDotProductAttention_0/query/add" stack_frame_id=80}
  %add.1433 = f32[16,196,12,64]{3,2,1,0} broadcast(%add.1432), dimensions={2,3}, metadata={op_name="jit(predict_step)/Model/img/Transformer/encoderblock_0/MultiHeadDotProductAttention_0/query/add" stack_frame_id=80}
  %add.1434 = f32[16,196,12,64]{3,2,1,0} add(%dot_general.291, %add.1433), metadata={op_name="jit(predict_step)/Model/img/Transformer/encoderblock_0/MultiHeadDotProductAttention_0/query/add" stack_frame_id=80}
  %constant.42 = f32[] constant(8)
  %broadcast.24 = f32[16,196,12,64]{3,2,1,0} broadcast(%constant.42), dimensions={}
  %div.349 = f32[16,196,12,64]{3,2,1,0} divide(%add.1434, %broadcast.24), metadata={op_name="jit(predict_step)/Model/img/Transformer/encoderblock_0/MultiHeadDotProductAttention_0/div" stack_frame_id=81}
  %variables__img____Transformer____encoderblock_0____MultiHeadDotProductAttention_0____key____kernel__.1 = f32[768,12,64]{2,1,0} parameter(11), sharding={devices=[4,1,1]<=[4]}, frontend_attributes={xla.sdy.sharding="#sdy.sharding<@mesh, [{\"fsdp\"}, {}, {}]>"}, metadata={op_name="variables[\'img\'][\'Transformer\'][\'encoderblock_0\'][\'MultiHeadDotProductAttention_0\'][\'key\'][\'kernel\']"}
  %dot_general.292 = f32[16,196,12,64]{3,2,1,0} dot(%add.1430, %variables__img____Transformer____encoderblock_0____MultiHeadDotProductAttention_0____key____kernel__.1), lhs_contracting_dims={2}, rhs_contracting_dims={0}, metadata={op_name="jit(predict_step)/Model/img/Transformer/encoderblock_0/MultiHeadDotProductAttention_0/key/dot_general" stack_frame_id=83}
  %variables__img____Transformer____encoderblock_0____MultiHeadDotProductAttention_0____key____bias__.1 = f32[12,64]{1,0} parameter(10), sharding={devices=[4,1]<=[4]}, frontend_attributes={xla.sdy.sharding="#sdy.sharding<@mesh, [{\"fsdp\"}, {}]>"}, metadata={op_name="variables[\'img\'][\'Transformer\'][\'encoderblock_0\'][\'MultiHeadDotProductAttention_0\'][\'key\'][\'bias\']"}
  %reshape.378 = f32[1,1,12,64]{3,2,1,0} reshape(%variables__img____Transformer____encoderblock_0____MultiHeadDotProductAttention_0____key____bias__.1), metadata={op_name="jit(predict_step)/Model/img/Transformer/encoderblock_0/MultiHeadDotProductAttention_0/key/reshape" stack_frame_id=84}
…
  %square.143 = f32[16,64]{1,0} multiply(%div.330, %div.330), metadata={op_name="jit(predict_step)/Model/txt/Encoder_0/encoderblock_10/LayerNorm_1/square" stack_frame_id=191}
  %sub.495 = f32[16,64]{1,0} subtract(%div.331, %square.143), metadata={op_name="jit(predict_step)/Model/txt/Encoder_0/encoderblock_10/LayerNorm_1/sub" stack_frame_id=192}
  %max.106 = f32[16,64]{1,0} maximum(%sub.495, %broadcast.36), metadata={op_name="jit(predict_step)/Model/txt/Encoder_0/encoderblock_10/LayerNorm_1/max" stack_frame_id=193}
  %broadcast_in_dim.221 = f32[16,64,1]{2,1,0} reshape(%max.106), metadata={op_name="jit(predict_step)/Model/txt/Encoder_0/encoderblock_10/LayerNorm_1/broadcast_in_dim" stack_frame_id=194}
  %add.1354 = f32[16,64,1]{2,1,0} add(%broadcast_in_dim.221, %broadcast.35), metadata={op_name="jit(predict_step)/Model/txt/Encoder_0/encoderblock_10/LayerNorm_1/add" stack_frame_id=195}
  %rsqrt.71 = f32[16,64,1]{2,1,0} rsqrt(%add.1354), metadata={op_name="jit(predict_step)/Model/txt/Encoder_0/encoderblock_10/LayerNorm_1/rsqrt" stack_frame_id=196}
  %mul.706 = f32[16,64,1]{2,1,0} broadcast(%rsqrt.71), dimensions={0,1,2}, metadata={op_name="jit(predict_step)/Model/txt/Encoder_0/encoderblock_10/LayerNorm_1/mul" stack_frame_id=197}
  %mul.707 = f32[16,64]{1,0} reshape(%mul.706), metadata={op_name="jit(predict_step)/Model/txt/Encoder_0/encoderblock_10/LayerNorm_1/mul" stack_frame_id=197}
  %mul.708 = f32[16,64,768]{2,1,0} broadcast(%mul.707), dimensions={0,1}, metadata={op_name="jit(predict_step)/Model/txt/Encoder_0/encoderblock_10/LayerNorm_1/mul" stack_frame_id=197}
  %variables__txt____Encoder_0____encoderblock_10____LayerNorm_1____scale__.1 = f32[768]{0} parameter(237), sharding={devices=[4]<=[4]}, frontend_attributes={xla.sdy.sharding="#sdy.sharding<@mesh, [{\"fsdp\"}]>"}, metadata={op_name="variables[\'txt\'][\'Encoder_0\'][\'encoderblock_10\'][\'LayerNorm_1\'][\'scale\']"}
  %reshape.356 = f32[1,1,768]{2,1,0} reshape(%variables__txt____Encoder_0____encoderblock_10____LayerNorm_1____scale__.1), metadata={op_name="jit(predict_step)/Model/txt/Encoder_0/encoderblock_10/LayerNorm_1/reshape" stack_frame_id=198}
  %mul.709 = f32[1,1,768]{2,1,0} broadcast(%reshape.356), dimensions={0,1,2}, metadata={op_name="jit(predict_step)/Model/txt/Encoder_0/encoderblock_10/LayerNorm_1/mul" stack_frame_id=197}
  %mul.710 = f32[768]{0} reshape(%mul.709), metadata={op_name="jit(predict_step)/Model/txt/Encoder_0/encoderblock_10/LayerNorm_1/mul" stack_frame_id=197}
  %mul.711 = f32[16,64,768]{2,1,0} broadcast(%mul.710), dimensions={2}, metadata={op_name="jit(predict_step)/Model/txt/Encoder_0/encoderblock_10/LayerNorm_1/mul" stack_frame_id=197}
  %mul.712 = f32[16,64,768]{2,1,0} multiply(%mul.708, %mul.711), metadata={op_name="jit(predict_step)/Model/txt/Encoder_0/encoderblock_10/LayerNorm_1/mul" stack_frame_id=197}
  %mul.713 = f32[16,64,768]{2,1,0} multiply(%sub.499, %mul.712), metadata={op_name="jit(predict_step)/Model/txt/Encoder_0/encoderblock_10/LayerNorm_1/mul" stack_frame_id=199}
  %variables__txt____Encoder_0____encoderblock_10____LayerNorm_1____bias__.1 = f32[768]{0} parameter(236), sharding={devices=[4]<=[4]}, frontend_attributes={xla.sdy.sharding="#sdy.sharding<@mesh, [{\"fsdp\"}]>"}, metadata={op_name="variables[\'txt\'][\'Encoder_0\'][\'encoderblock_10\'][\'LayerNorm_1\'][\'bias\']"}
  %reshape.357 = f32[1,1,768]{2,1,0} reshape(%variables__txt____Encoder_0____encoderblock_10____LayerNorm_1____bias__.1), metadata={op_name="jit(predict_step)/Model/txt/Encoder_0/encoderblock_10/LayerNorm_1/reshape" stack_frame_id=200}
  %add.1355 = f32[1,1,768]{2,1,0} broadcast(%reshape.357), dimensions={0,1,2}, metadata={op_name="jit(predict_step)/Model/txt/Encoder_0/encoderblock_10/LayerNorm_1/add" stack_frame_id=201}
  %add.1356 = f32[768]{0} reshape(%add.1355), metadata={op_name="jit(predict_step)/Model/txt/Encoder_0/encoderblock_10/LayerNorm_1/add" stack_frame_id=201}
  %add.1357 = f32[16,64,768]{2,1,0} broadcast(%add.1356), dimensions={2}, metadata={op_name="jit(predict_step)/Model/txt/Encoder_0/encoderblock_10/LayerNorm_1/add" stack_frame_id=201}
  %add.1358 = f32[16,64,768]{2,1,0} add(%mul.713, %add.1357), metadata={op_name="jit(predict_step)/Model/txt/Encoder_0/encoderblock_10/LayerNorm_1/add" stack_frame_id=201}
  %variables__txt____Encoder_0____encoderblock_10____MlpBlock_0____Dense_0____kernel__.1 = f32[768,3072]{1,0} parameter(239), sharding={devices=[4,1]<=[4]}, frontend_attributes={xla.sdy.sharding="#sdy.sharding<@mesh, [{\"fsdp\"}, {}]>"}, metadata={op_name="variables[\'txt\'][\'Encoder_0\'][\'encoderblock_10\'][\'MlpBlock_0\'][\'Dense_0\'][\'kernel\']"}
  %dot_general.280 = f32[16,64,3072]{2,1,0} dot(%add.1358, %variables__txt____Encoder_0____encoderblock_10____MlpBlock_0____Dense_0____kernel__.1), lhs_contracting_dims={2}, rhs_contracting_dims={0}, metadata={op_name="jit(predict_step)/Model/txt/Encoder_0/encoderblock_10/MlpBlock_0/Dense_0/dot_general" stack_frame_id=204}
  %variables__txt____Encoder_0____encoderblock_10____MlpBlock_0____Dense_0____bias__.1 = f32[3072]{0} parameter(238), sharding={devices=[4]<=[4]}, frontend_attributes={xla.sdy.sharding="#sdy.sharding<@mesh, [{\"fsdp\"}]>"}, metadata={op_name="variables[\'txt\'][\'Encoder_0\'][\'encoderblock_10\'][\'MlpBlock_0\'][\'Dense_0\'][\'bias\']"}
  %reshape.358 = f32[1,1,3072]{2,1,0} reshape(%variables__txt____Encoder_0____encoderblock_10____MlpBlock_0____Dense_0____bias__.1), metadata={op_name="jit(predict_step)/Model/txt/Encoder_0/encoderblock_10/MlpBlock_0/Dense_0/reshape" stack_frame_id=205}
  %add.1359 = f32[1,1,3072]{2,1,0} broadcast(%reshape.358), dimensions={0,1,2}, metadata={op_name="jit(predict_step)/Model/txt/Encoder_0/encoderblock_10/MlpBlock_0/Dense_0/add" stack_frame_id=206}
  %add.1360 = f32[3072]{0} reshape(%add.1359), metadata={op_name="jit(predict_step)/Model/txt/Encoder_0/encoderblock_10/MlpBlock_0/Dense_0/add" stack_frame_id=206}
  %add.1361 = f32[16,64,3072]{2,1,0} broadcast(%add.1360), dimensions={2}, metadata={op_name="jit(predict_step)/Model/txt/Encoder_0/encoderblock_10/MlpBlock_0/Dense_0/add" stack_frame_id=206}
  %add.1362 = f32[16,64,3072]{2,1,0} add(%dot_general.280, %add.1361), metadata={op_name="jit(predict_step)/Model/txt/Encoder_0/encoderblock_10/MlpBlock_0/Dense_0/add" stack_frame_id=206}
  %integer_pow.68 = f32[16,64,3072]{2,1,0} multiply(%add.1362, %add.1362), metadata={op_name="jit(predict_step)/Model/txt/Encoder_0/encoderblock_10/MlpBlock_0/integer_pow" stack_frame_id=207}
  %integer_pow.69 = f32[16,64,3072]{2,1,0} multiply(%integer_pow.68, %add.1362), metadata={op_name="jit(predict_step)/Model/txt/Encoder_0/encoderblock_10/MlpBlock_0/integer_pow" stack_frame_id=207}
  %mul.714 = f32[16,64,3072]{2,1,0} multiply(%integer_pow.69, %broadcast.32), metadata={op_name="jit(predict_step)/Model/txt/Encoder_0/encoderblock_10/MlpBlock_0/mul" stack_frame_id=207}
  %add.1363 = f32[16,64,3072]{2,1,0} add(%add.1362, %mul.714), metadata={op_name="jit(predict_step)/Model/txt/Encoder_0/encoderblock_10/MlpBlock_0/add" stack_frame_id=207}
  %mul.715 = f32[16,64,3072]{2,1,0} multiply(%add.1363, %broadcast.31), metadata={op_name="jit(predict_step)/Model/txt/Encoder_0/encoderblock_10/MlpBlock_0/mul" stack_frame_id=207}
  %tanh.34 = f32[16,64,3072]{2,1,0} tanh(%mul.715), metadata={op_name="jit(predict_step)/Model/txt/Encoder_0/encoderblock_10/MlpBlock_0/tanh" stack_frame_id=207}
  %add.1364 = f32[16,64,3072]{2,1,0} add(%tanh.34, %broadcast.30), metadata={op_name="jit(predict_step)/Model/txt/Encoder_0/encoderblock_10/MlpBlock_0/add" stack_frame_id=207}
  %mul.716 = f32[16,64,3072]{2,1,0} multiply(%add.1364, %broadcast.29), metadata={op_name="jit(predict_step)/Model/txt/Encoder_0/encoderblock_10/MlpBlock_0/mul" stack_frame_id=207}
  %mul.717 = f32[16,64,3072]{2,1,0} multiply(%add.1362, %mul.716), metadata={op_name="jit(predict_step)/Model/txt/Encoder_0/encoderblock_10/MlpBlock_0/mul" stack_frame_id=207}
  %variables__txt____Encoder_0____encoderblock_10____MlpBlock_0____Dense_1____kernel__.1 = f32[3072,768]{1,0} parameter(241), sharding={devices=[4,1]<=[4]}, frontend_attributes={xla.sdy.sharding="#sdy.sharding<@mesh, [{\"fsdp\"}, {}]>"}, metadata={op_name="variables[\'txt\'][\'Encoder_0\'][\'encoderblock_10\'][\'MlpBlock_0\'][\'Dense_1\'][\'kernel\']"}
  %dot_general.281 = f32[16,64,768]{2,1,0} dot(%mul.717, %variables__txt____Encoder_0____encoderblock_10____MlpBlock_0____Dense_1____kernel__.1), lhs_contracting_dims={2}, rhs_contracting_dims={0}, metadata={op_name="jit(predict_step)/Model/txt/Encoder_0/encoderblock_10/MlpBlock_0/Dense_1/dot_general" stack_frame_id=209}
  %variables__txt____Encoder_0____encoderblock_10____MlpBlock_0____Dense_1____bias__.1 = f32[768]{0} parameter(240), sharding={devices=[4]<=[4]}, frontend_attributes={xla.sdy.sharding="#sdy.sharding<@mesh, [{\"fsdp\"}]>"}, metadata={op_name="variables[\'txt\'][\'Encoder_0\'][\'encoderblock_10\'][\'MlpBlock_0\'][\'Dense_1\'][\'bias\']"}
  %reshape.359 = f32[1,1,768]{2,1,0} reshape(%variables__txt____Encoder_0____encoderblock_10____MlpBlock_0____Dense_1____bias__.1), metadata={op_name="jit(predict_step)/Model/txt/Encoder_0/encoderblock_10/MlpBlock_0/Dense_1/reshape" stack_frame_id=210}
  %add.1365 = f32[1,1,768]{2,1,0} broadcast(%reshape.359), dimensions={0,1,2}, metadata={op_name="jit(predict_step)/Model/txt/Encoder_0/encoderblock_10/MlpBlock_0/Dense_1/add" stack_frame_id=211}
  %add.1366 = f32[768]{0} reshape(%add.1365), metadata={op_name="jit(predict_step)/Model/txt/Encoder_0/encoderblock_10/MlpBlock_0/Dense_1/add" stack_frame_id=211}
  %add.1367 = f32[16,64,768]{2,1,0} broadcast(%add.1366), dimensions={2}, metadata={op_name="jit(predict_step)/Model/txt/Encoder_0/encoderblock_10/MlpBlock_0/Dense_1/add" stack_frame_id=211}
  %add.1368 = f32[16,64,768]{2,1,0} add(%dot_general.281, %add.1367), metadata={op_name="jit(predict_step)/Model/txt/Encoder_0/encoderblock_10/MlpBlock_0/Dense_1/add" stack_frame_id=211}
  %add.1369 = f32[16,64,768]{2,1,0} add(%add.1353, %add.1368), metadata={op_name="jit(predict_step)/Model/txt/Encoder_0/encoderblock_10/add" stack_frame_id=212}
  %reduce_sum.938 = f32[16,64]{1,0} reduce(%add.1369, %constant.57), dimensions={2}, to_apply=%region_67.70, metadata={op_name="jit(predict_step)/Model/txt/Encoder_0/encoderblock_11/LayerNorm_0/reduce_sum" stack_frame_id=12}
  %div.332 = f32[16,64]{1,0} divide(%reduce_sum.938, %broadcast.37), metadata={op_name="jit(predict_step)/Model/txt/Encoder_0/encoderblock_11/LayerNorm_0/div" stack_frame_id=12}
  %broadcast_in_dim.222 = f32[16,64,1]{2,1,0} reshape(%div.332), metadata={op_name="jit(predict_step)/Model/txt/Encoder_0/encoderblock_11/LayerNorm_0/broadcast_in_dim" stack_frame_id=149}
  %sub.501 = f32[16,64,1]{2,1,0} broadcast(%broadcast_in_dim.222), dimensions={0,1,2}, metadata={op_name="jit(predict_step)/Model/txt/Encoder_0/encoderblock_11/LayerNorm_0/sub" stack_frame_id=150}
  %sub.502 = f32[16,64]{1,0} reshape(%sub.501), metadata={op_name="jit(predict_step)/Model/txt/Encoder_0/encoderblock_11/LayerNorm_0/sub" stack_frame_id=150}
  %sub.503 = f32[16,64,768]{2,1,0} broadcast(%sub.502), dimensions={0,1}, metadata={op_name="jit(predict_step)/Model/txt/Encoder_0/encoderblock_11/LayerNorm_0/sub" stack_frame_id=150}
  %sub.504 = f32[16,64,768]{2,1,0} subtract(%add.1369, %sub.503), metadata={op_name="jit(predict_step)/Model/txt/Encoder_0/encoderblock_11/LayerNorm_0/sub" stack_frame_id=150}
  %square.144 = f32[16,64,768]{2,1,0} multiply(%add.1369, %add.1369), metadata={op_name="jit(predict_step)/Model/txt/Encoder_0/encoderblock_11/LayerNorm_0/square" stack_frame_id=152}
  %reduce_sum.939 = f32[16,64]{1,0} reduce(%square.144, %constant.57), dimensions={2}, to_apply=%region_68.71, metadata={op_name="jit(predict_step)/Model/txt/Encoder_0/encoderblock_11/LayerNorm_0/reduce_sum" stack_frame_id=12}
  %div.333 = f32[16,64]{1,0} divide(%reduce_sum.939, %broadcast.37), metadata={op_name="jit(predict_step)/Model/txt/Encoder_0/encoderblock_11/LayerNorm_0/div" stack_frame_id=12}
  %square.145 = f32[16,64]{1,0} multiply(%div.332, %div.332), metadata={op_name="jit(predict_step)/Model/txt/Encoder_0/encoderblock_11/LayerNorm_0/square" stack_frame_id=154}
  %sub.500 = f32[16,64]{1,0} subtract(%div.333, %square.145), metadata={op_name="jit(predict_step)/Model/txt/Encoder_0/encoderblock_11/LayerNorm_0/sub" stack_frame_id=155}
  %max.107 = f32[16,64]{1,0} maximum(%sub.500, %broadcast.36), metadata={op_name="jit(predict_step)/Model/txt/Encoder_0/encoderblock_11/LayerNorm_0/max" stack_frame_id=156}
  %broadcast_in_dim.223 = f32[16,64,1]{2,1,0} reshape(%max.107), metadata={op_name="jit(predict_step)/Model/txt/Encoder_0/encoderblock_11/LayerNorm_0/broadcast_in_dim" stack_frame_id=157}
  %add.1370 = f32[16,64,1]{2,1,0} add(%broadcast_in_dim.223, %broadcast.35), metadata={op_name="jit(predict_step)/Model/txt/Encoder_0/encoderblock_11/LayerNorm_0/add" stack_frame_id=158}
  %rsqrt.72 = f32[16,64,1]{2,1,0} rsqrt(%add.1370), metadata={op_name="jit(predict_step)/Model/txt/Encoder_0/encoderblock_11/LayerNorm_0/rsqrt" stack_frame_id=159}
  %mul.718 = f32[16,64,1]{2,1,0} broadcast(%rsqrt.72), dimensions={0,1,2}, metadata={op_name="jit(predict_step)/Model/txt/Encoder_0/encoderblock_11/LayerNorm_0/mul" stack_frame_id=160}
  %mul.719 = f32[16,64]{1,0} reshape(%mul.718), metadata={op_name="jit(predict_step)/Model/txt/Encoder_0/encoderblock_11/LayerNorm_0/mul" stack_frame_id=160}
  %mul.720 = f32[16,64,768]{2,1,0} broadcast(%mul.719), dimensions={0,1}, metadata={op_name="jit(predict_step)/Model/txt/Encoder_0/encoderblock_11/LayerNorm_0/mul" stack_frame_id=160}
  %variables__txt____Encoder_0____encoderblock_11____LayerNorm_0____scale__.1 = f32[768]{0} parameter(251), sharding={devices=[4]<=[4]}, frontend_attributes={xla.sdy.sharding="#sdy.sharding<@mesh, [{\"fsdp\"}]>"}, metadata={op_name="variables[\'txt\'][\'Encoder_0\'][\'encoderblock_11\'][\'LayerNorm_0\'][\'scale\']"}
  %reshape.360 = f32[1,1,768]{2,1,0} reshape(%variables__txt____Encoder_0____encoderblock_11____LayerNorm_0____scale__.1), metadata={op_name="jit(predict_step)/Model/txt/Encoder_0/encoderblock_11/LayerNorm_0/reshape" stack_frame_id=161}
  %mul.721 = f32[1,1,768]{2,1,0} broadcast(%reshape.360), dimensions={0,1,2}, metadata={op_name="jit(predict_step)/Model/txt/Encoder_0/encoderblock_11/LayerNorm_0/mul" stack_frame_id=160}
  %mul.722 = f32[768]{0} reshape(%mul.721), metadata={op_name="jit(predict_step)/Model/txt/Encoder_0/encoderblock_11/LayerNorm_0/mul" stack_frame_id=160}
  %mul.723 = f32[16,64,768]{2,1,0} broadcast(%mul.722), dimensions={2}, metadata={op_name="jit(predict_step)/Model/txt/Encoder_0/encoderblock_11/LayerNorm_0/mul" stack_frame_id=160}
  %mul.724 = f32[16,64,768]{2,1,0} multiply(%mul.720, %mul.723), metadata={op_name="jit(predict_step)/Model/txt/Encoder_0/encoderblock_11/LayerNorm_0/mul" stack_frame_id=160}
  %mul.725 = f32[16,64,768]{2,1,0} multiply(%sub.504, %mul.724), metadata={op_name="jit(predict_step)/Model/txt/Encoder_0/encoderblock_11/LayerNorm_0/mul" stack_frame_id=162}
  %variables__txt____Encoder_0____encoderblock_11____LayerNorm_0____bias__.1 = f32[768]{0} parameter(250), sharding={devices=[4]<=[4]}, frontend_attributes={xla.sdy.sharding="#sdy.sharding<@mesh, [{\"fsdp\"}]>"}, metadata={op_name="variables[\'txt\'][\'Encoder_0\'][\'encoderblock_11\'][\'LayerNorm_0\'][\'bias\']"}
  %reshape.361 = f32[1,1,768]{2,1,0} reshape(%variables__txt____Encoder_0____encoderblock_11____LayerNorm_0____bias__.1), metadata={op_name="jit(predict_step)/Model/txt/Encoder_0/encoderblock_11/LayerNorm_0/reshape" stack_frame_id=163}
  %add.1371 = f32[1,1,768]{2,1,0} broadcast(%reshape.361), dimensions={0,1,2}, metadata={op_name="jit(predict_step)/Model/txt/Encoder_0/encoderblock_11/LayerNorm_0/add" stack_frame_id=164}
  %add.1372 = f32[768]{0} reshape(%add.1371), metadata={op_name="jit(predict_step)/Model/txt/Encoder_0/encoderblock_11/LayerNorm_0/add" stack_frame_id=164}
  %add.1373 = f32[16,64,768]{2,1,0} broadcast(%add.1372), dimensions={2}, metadata={op_name="jit(predict_step)/Model/txt/Encoder_0/encoderblock_11/LayerNorm_0/add" stack_frame_id=164}
  %add.1374 = f32[16,64,768]{2,1,0} add(%mul.725, %add.1373), metadata={op_name="jit(predict_step)/Model/txt/Encoder_0/encoderblock_11/LayerNorm_0/add" stack_frame_id=164}
  %variables__txt____Encoder_0____encoderblock_11____MultiHeadDotProductAttention_0____value____kernel__.1 = f32[768,12,64]{2,1,0} parameter(265), sharding={devices=[4,1,1]<=[4]}, frontend_attributes={xla.sdy.sharding="#sdy.sharding<@mesh, [{\"fsdp\"}, {}, {}]>"}, metadata={op_name="variables[\'txt\'][\'Encoder_0\'][\'encoderblock_11\'][\'MultiHeadDotProductAttention_0\'][\'value\'][\'kernel\']"}
  %dot_general.284 = f32[16,64,12,64]{3,2,1,0} dot(%add.1374, %variables__txt____Encoder_0____encoderblock_11____MultiHeadDotProductAttention_0____value____kernel__.1), lhs_contracting_dims={2}, rhs_contracting_dims={0}, metadata={op_name="jit(predict_step)/Model/txt/Encoder_0/encoderblock_11/MultiHeadDotProductAttention_0/value/dot_general" stack_frame_id=166}
  %variables__txt____Encoder_0____encoderblock_11____MultiHeadDotProductAttention_0____value____bias__.1 = f32[12,64]{1,0} parameter(264), sharding={devices=[4,1]<=[4]}, frontend_attributes={xla.sdy.sharding="#sdy.sharding<@mesh, [{\"fsdp\"}, {}]>"}, metadata={op_name="variables[\'txt\'][\'Encoder_0\'][\'encoderblock_11\'][\'MultiHeadDotProductAttention_0\'][\'value\'][\'bias\']"}
  %reshape.364 = f32[1,1,12,64]{3,2,1,0} reshape(%variables__txt____Encoder_0____encoderblock_11____MultiHeadDotProductAttention_0____value____bias__.1), metadata={op_name="jit(predict_step)/Model/txt/Encoder_0/encoderblock_11/MultiHeadDotProductAttention_0/value/reshape" stack_frame_id=167}
  %add.1383 = f32[1,1,12,64]{3,2,1,0} broadcast(%reshape.364), dimensions={0,1,2,3}, metadata={op_name="jit(predict_step)/Model/txt/Encoder_0/encoderblock_11/MultiHeadDotProductAttention_0/value/add" stack_frame_id=168}
  %add.1384 = f32[12,64]{1,0} reshape(%add.1383), metadata={op_name="jit(predict_step)/Model/txt/Encoder_0/encoderblock_11/MultiHeadDotProductAttention_0/value/add" stack_frame_id=168}
  %add.1385 = f32[16,64,12,64]{3,2,1,0} broadcast(%add.1384), dimensions={2,3}, metadata={op_name="jit(predict_step)/Model/txt/Encoder_0/encoderblock_11/MultiHeadDotProductAttention_0/value/add" stack_frame_id=168}
  %add.1386 = f32[16,64,12,64]{3,2,1,0} add(%dot_general.284, %add.1385), metadata={op_name="jit(predict_step)/Model/txt/Encoder_0/encoderblock_11/MultiHeadDotProductAttention_0/value/add" stack_frame_id=168}
  %variables__txt____Encoder_0____encoderblock_11____MultiHeadDotProductAttention_0____query____kernel__.1 = f32[768,12,64]{2,1,0} parameter(263), sharding={devices=[4,1,1]<=[4]}, frontend_attributes={xla.sdy.sharding="#sdy.sharding<@mesh, [{\"fsdp\"}, {}, {}]>"}, metadata={op_name="variables[\'txt\'][\'Encoder_0\'][\'encoderblock_11\'][\'MultiHeadDotProductAttention_0\'][\'query\'][\'kernel\']"}
  %dot_general.282 = f32[16,64,12,64]{3,2,1,0} dot(%add.1374, %variables__txt____Encoder_0____encoderblock_11____MultiHeadDotProductAttention_0____query____kernel__.1), lhs_contracting_dims={2}, rhs_contracting_dims={0}, metadata={op_name="jit(predict_step)/Model/txt/Encoder_0/encoderblock_11/MultiHeadDotProductAttention_0/query/dot_general" stack_frame_id=170}
  %variables__txt____Encoder_0____encoderblock_11____MultiHeadDotProductAttention_0____query____bias__.1 = f32[12,64]{1,0} parameter(262), sharding={devices=[4,1]<=[4]}, frontend_attributes={xla.sdy.sharding="#sdy.sharding<@mesh, [{\"fsdp\"}, {}]>"}, metadata={op_name="variables[\'txt\'][\'Encoder_0\'][\'encoderblock_11\'][\'MultiHeadDotProductAttention_0\'][\'query\'][\'bias\']"}
  %reshape.362 = f32[1,1,12,64]{3,2,1,0} reshape(%variables__txt____Encoder_0____encoderblock_11____MultiHeadDotProductAttention_0____query____bias__.1), metadata={op_name="jit(predict_step)/Model/txt/Encoder_0/encoderblock_11/MultiHeadDotProductAttention_0/query/reshape" stack_frame_id=171}
  %add.1375 = f32[1,1,12,64]{3,2,1,0} broadcast(%reshape.362), dimensions={0,1,2,3}, metadata={op_name="jit(predict_step)/Model/txt/Encoder_0/encoderblock_11/MultiHeadDotProductAttention_0/query/add" stack_frame_id=172}
  %add.1376 = f32[12,64]{1,0} reshape(%add.1375), metadata={op_name="jit(predict_step)/Model/txt/Encoder_0/encoderblock_11/MultiHeadDotProductAttention_0/query/add" stack_frame_id=172}
  %add.1377 = f32[16,64,12,64]{3,2,1,0} broadcast(%add.1376), dimensions={2,3}, metadata={op_name="jit(predict_step)/Model/txt/Encoder_0/encoderblock_11/MultiHeadDotProductAttention_0/query/add" stack_frame_id=172}
  %add.1378 = f32[16,64,12,64]{3,2,1,0} add(%dot_general.282, %add.1377), metadata={op_name="jit(predict_step)/Model/txt/Encoder_0/encoderblock_11/MultiHeadDotProductAttention_0/query/add" stack_frame_id=172}
  %div.334 = f32[16,64,12,64]{3,2,1,0} divide(%add.1378, %broadcast.34), metadata={op_name="jit(predict_step)/Model/txt/Encoder_0/encoderblock_11/MultiHeadDotProductAttention_0/div" stack_frame_id=173}
  %variables__txt____Encoder_0____encoderblock_11____MultiHeadDotProductAttention_0____key____kernel__.1 = f32[768,12,64]{2,1,0} parameter(259), sharding={devices=[4,1,1]<=[4]}, frontend_attributes={xla.sdy.sharding="#sdy.sharding<@mesh, [{\"fsdp\"}, {}, {}]>"}, metadata={op_name="variables[\'txt\'][\'Encoder_0\'][\'encoderblock_11\'][\'MultiHeadDotProductAttention_0\'][\'key\'][\'kernel\']"}
  %dot_general.283 = f32[16,64,12,64]{3,2,1,0} dot(%add.1374, %variables__txt____Encoder_0____encoderblock_11____MultiHeadDotProductAttention_0____key____kernel__.1), lhs_contracting_dims={2}, rhs_contracting_dims={0}, metadata={op_name="jit(predict_step)/Model/txt/Encoder_0/encoderblock_11/MultiHeadDotProductAttention_0/key/dot_general" stack_frame_id=175}
  %variables__txt____Encoder_0____encoderblock_11____MultiHeadDotProductAttention_0____key____bias__.1 = f32[12,64]{1,0} parameter(258), sharding={devices=[4,1]<=[4]}, frontend_attributes={xla.sdy.sharding="#sdy.sharding<@mesh, [{\"fsdp\"}, {}]>"}, metadata={op_name="variables[\'txt\'][\'Encoder_0\'][\'encoderblock_11\'][\'MultiHeadDotProductAttention_0\'][\'key\'][\'bias\']"}
  %reshape.363 = f32[1,1,12,64]{3,2,1,0} reshape(%variables__txt____Encoder_0____encoderblock_11____MultiHeadDotProductAttention_0____key____bias__.1), metadata={op_name="jit(predict_step)/Model/txt/Encoder_0/encoderblock_11/MultiHeadDotProductAttention_0/key/reshape" stack_frame_id=176}
  %add.1379 = f32[1,1,12,64]{3,2,1,0} broadcast(%reshape.363), dimensions={0,1,2,3}, metadata={op_name="jit(predict_step)/Model/txt/Encoder_0/encoderblock_11/MultiHeadDotProductAttention_0/key/add" stack_frame_id=177}
  %add.1380 = f32[12,64]{1,0} reshape(%add.1379), metadata={op_name="jit(predict_step)/Model/txt/Encoder_0/encoderblock_11/MultiHeadDotProductAttention_0/key/add" stack_frame_id=177}
  %add.1381 = f32[16,64,12,64]{3,2,1,0} broadcast(%add.1380), dimensions={2,3}, metadata={op_name="jit(predict_step)/Model/txt/Encoder_0/encoderblock_11/MultiHeadDotProductAttention_0/key/add" stack_frame_id=177}
  %add.1382 = f32[16,64,12,64]{3,2,1,0} add(%dot_general.283, %add.1381), metadata={op_name="jit(predict_step)/Model/txt/Encoder_0/encoderblock_11/MultiHeadDotProductAttention_0/key/add" stack_frame_id=177}
  %dot_general.285 = f32[16,12,64,64]{3,2,1,0} dot(%div.334, %add.1382), lhs_batch_dims={0,2}, lhs_contracting_dims={3}, rhs_batch_dims={0,2}, rhs_contracting_dims={3}, metadata={op_name="jit(predict_step)/Model/txt/Encoder_0/encoderblock_11/MultiHeadDotProductAttention_0/...qhd,...khd->...hqk/dot_general" stack_frame_id=178}
  %reduce_max.179 = f32[16,12,64]{2,1,0} reduce(%dot_general.285, %constant.56), dimensions={3}, to_apply=%region_69.72, metadata={op_name="jit(predict_step)/Model/txt/Encoder_0/encoderblock_11/MultiHeadDotProductAttention_0/reduce_max" stack_frame_id=16}
  %max.108 = f32[16,12,64]{2,1,0} maximum(%reduce_max.179, %broadcast.33), metadata={op_name="jit(predict_step)/Model/txt/Encoder_0/encoderblock_11/MultiHeadDotProductAttention_0/max" stack_frame_id=16}
  %broadcast_in_dim.224 = f32[16,12,64,1]{3,2,1,0} reshape(%max.108), metadata={op_name="jit(predict_step)/Model/txt/Encoder_0/encoderblock_11/MultiHeadDotProductAttention_0/broadcast_in_dim" stack_frame_id=16}
  %sub.505 = f32[16,12,64,1]{3,2,1,0} broadcast(%broadcast_in_dim.224), dimensions={0,1,2,3}, metadata={op_name="jit(predict_step)/Model/txt/Encoder_0/encoderblock_11/MultiHeadDotProductAttention_0/sub" stack_frame_id=16}
  %sub.506 = f32[16,12,64]{2,1,0} reshape(%sub.505), metadata={op_name="jit(predict_step)/Model/txt/Encoder_0/encoderblock_11/MultiHeadDotProductAttention_0/sub" stack_frame_id=16}
  %sub.507 = f32[16,12,64,64]{3,2,1,0} broadcast(%sub.506), dimensions={0,1,2}, metadata={op_name="jit(predict_step)/Model/txt/Encoder_0/encoderblock_11/MultiHeadDotProductAttention_0/sub" stack_frame_id=16}
  %sub.508 = f32[16,12,64,64]{3,2,1,0} subtract(%dot_general.285, %sub.507), metadata={op_name="jit(predict_step)/Model/txt/Encoder_0/encoderblock_11/MultiHeadDotProductAttention_0/sub" stack_frame_id=16}
  %exp.35 = f32[16,12,64,64]{3,2,1,0} exponential(%sub.508), metadata={op_name="jit(predict_step)/Model/txt/Encoder_0/encoderblock_11/MultiHeadDotProductAttention_0/exp" stack_frame_id=16}
  %reduce_sum.940 = f32[16,12,64]{2,1,0} reduce(%exp.35, %constant.57), dimensions={3}, to_apply=%region_70.73, metadata={op_name="jit(predict_step)/Model/txt/Encoder_0/encoderblock_11/MultiHeadDotProductAttention_0/reduce_sum" stack_frame_id=16}
  %broadcast_in_dim.225 = f32[16,12,64,1]{3,2,1,0} reshape(%reduce_sum.940), metadata={op_name="jit(predict_step)/Model/txt/Encoder_0/encoderblock_11/MultiHeadDotProductAttention_0/broadcast_in_dim" stack_frame_id=16}
  %div.335 = f32[16,12,64,1]{3,2,1,0} broadcast(%broadcast_in_dim.225), dimensions={0,1,2,3}, metadata={op_name="jit(predict_step)/Model/txt/Encoder_0/encoderblock_11/MultiHeadDotProductAttention_0/div" stack_frame_id=16}
  %div.336 = f32[16,12,64]{2,1,0} reshape(%div.335), metadata={op_name="jit(predict_step)/Model/txt/Encoder_0/encoderblock_11/MultiHeadDotProductAttention_0/div" stack_frame_id=16}
  %div.337 = f32[16,12,64,64]{3,2,1,0} broadcast(%div.336), dimensions={0,1,2}, metadata={op_name="jit(predict_step)/Model/txt/Encoder_0/encoderblock_11/MultiHeadDotProductAttention_0/div" stack_frame_id=16}
  %div.338 = f32[16,12,64,64]{3,2,1,0} divide(%exp.35, %div.337), metadata={op_name="jit(predict_step)/Model/txt/Encoder_0/encoderblock_11/MultiHeadDotProductAttention_0/div" stack_frame_id=16}
  %dot_general.286 = f32[16,12,64,64]{3,2,1,0} dot(%add.1386, %div.338), lhs_batch_dims={0,2}, lhs_contracting_dims={1}, rhs_batch_dims={0,1}, rhs_contracting_dims={3}, metadata={op_name="jit(predict_step)/Model/txt/Encoder_0/encoderblock_11/MultiHeadDotProductAttention_0/...hqk,...khd->...qhd/dot_general" stack_frame_id=179}
  %transpose.35 = f32[16,64,12,64]{1,3,2,0} transpose(%dot_general.286), dimensions={0,3,1,2}, metadata={op_name="jit(predict_step)/Model/txt/Encoder_0/encoderblock_11/MultiHeadDotProductAttention_0/...hqk,...khd->...qhd/transpose" stack_frame_id=179}
  %variables__txt____Encoder_0____encoderblock_11____MultiHeadDotProductAttention_0____out____kernel__.1 = f32[12,64,768]{2,1,0} parameter(261), sharding={devices=[4,1,1]<=[4]}, frontend_attributes={xla.sdy.sharding="#sdy.sharding<@mesh, [{\"fsdp\"}, {}, {}]>"}, metadata={op_name="variables[\'txt\'][\'Encoder_0\'][\'encoderblock_11\'][\'MultiHeadDotProductAttention_0\'][\'out\'][\'kernel\']"}
  %dot_general.287 = f32[16,64,768]{2,1,0} dot(%transpose.35, %variables__txt____Encoder_0____encoderblock_11____MultiHeadDotProductAttention_0____out____kernel__.1), lhs_contracting_dims={2,3}, rhs_contracting_dims={0,1}, metadata={op_name="jit(predict_step)/Model/txt/Encoder_0/encoderblock_11/MultiHeadDotProductAttention_0/out/dot_general" stack_frame_id=181}
  %variables__txt____Encoder_0____encoderblock_11____MultiHeadDotProductAttention_0____out____bias__.1 = f32[768]{0} parameter(260), sharding={devices=[4]<=[4]}, frontend_attributes={xla.sdy.sharding="#sdy.sharding<@mesh, [{\"fsdp\"}]>"}, metadata={op_name="variables[\'txt\'][\'Encoder_0\'][\'encoderblock_11\'][\'MultiHeadDotProductAttention_0\'][\'out\'][\'bias\']"}
  %reshape.365 = f32[1,1,768]{2,1,0} reshape(%variables__txt____Encoder_0____encoderblock_11____MultiHeadDotProductAttention_0____out____bias__.1), metadata={op_name="jit(predict_step)/Model/txt/Encoder_0/encoderblock_11/MultiHeadDotProductAttention_0/out/reshape" stack_frame_id=182}
  %add.1387 = f32[1,1,768]{2,1,0} broadcast(%reshape.365), dimensions={0,1,2}, metadata={op_name="jit(predict_step)/Model/txt/Encoder_0/encoderblock_11/MultiHeadDotProductAttention_0/out/add" stack_frame_id=183}
  %add.1388 = f32[768]{0} reshape(%add.1387), metadata={op_name="jit(predict_step)/Model/txt/Encoder_0/encoderblock_11/MultiHeadDotProductAttention_0/out/add" stack_frame_id=183}
  %add.1389 = f32[16,64,768]{2,1,0} broadcast(%add.1388), dimensions={2}, metadata={op_name="jit(predict_step)/Model/txt/Encoder_0/encoderblock_11/MultiHeadDotProductAttention_0/out/add" stack_frame_id=183}
  %add.1390 = f32[16,64,768]{2,1,0} add(%dot_general.287, %add.1389), metadata={op_name="jit(predict_step)/Model/txt/Encoder_0/encoderblock_11/MultiHeadDotProductAttention_0/out/add" stack_frame_id=183}
  %add.1391 = f32[16,64,768]{2,1,0} add(%add.1369, %add.1390), metadata={op_name="jit(predict_step)/Model/txt/Encoder_0/encoderblock_11/add" stack_frame_id=184}
  %reduce_sum.941 = f32[16,64]{1,0} reduce(%add.1391, %constant.57), dimensions={2}, to_apply=%region_71.74, metadata={op_name="jit(predict_step)/Model/txt/Encoder_0/encoderblock_11/LayerNorm_1/reduce_sum" stack_frame_id=21}
  %div.339 = f32[16,64]{1,0} divide(%reduce_sum.941, %broadcast.37), metadata={op_name="jit(predict_step)/Model/txt/Encoder_0/encoderblock_11/LayerNorm_1/div" stack_frame_id=21}
  %broadcast_in_dim.226 = f32[16,64,1]{2,1,0} reshape(%div.339), metadata={op_name="jit(predict_step)/Model/txt/Encoder_0/encoderblock_11/LayerNorm_1/broadcast_in_dim" stack_frame_id=186}
  %sub.510 = f32[16,64,1]{2,1,0} broadcast(%broadcast_in_dim.226), dimensions={0,1,2}, metadata={op_name="jit(predict_step)/Model/txt/Encoder_0/encoderblock_11/LayerNorm_1/sub" stack_frame_id=187}
  %sub.511 = f32[16,64]{1,0} reshape(%sub.510), metadata={op_name="jit(predict_step)/Model/txt/Encoder_0/encoderblock_11/LayerNorm_1/sub" stack_frame_id=187}
  %sub.512 = f32[16,64,768]{2,1,0} broadcast(%sub.511), dimensions={0,1}, metadata={op_name="jit(predict_step)/Model/txt/Encoder_0/encoderblock_11/LayerNorm_1/sub" stack_frame_id=187}
  %sub.513 = f32[16,64,768]{2,1,0} subtract(%add.1391, %sub.512), metadata={op_name="jit(predict_step)/Model/txt/Encoder_0/encoderblock_11/LayerNorm_1/sub" stack_frame_id=187}
  %square.146 = f32[16,64,768]{2,1,0} multiply(%add.1391, %add.1391), metadata={op_name="jit(predict_step)/Model/txt/Encoder_0/encoderblock_11/LayerNorm_1/square" stack_frame_id=189}
  %reduce_sum.942 = f32[16,64]{1,0} reduce(%square.146, %constant.57), dimensions={2}, to_apply=%region_72.75, metadata={op_name="jit(predict_step)/Model/txt/Encoder_0/encoderblock_11/LayerNorm_1/reduce_sum" stack_frame_id=21}
  %div.340 = f32[16,64]{1,0} divide(%reduce_sum.942, %broadcast.37), metadata={op_name="jit(predict_step)/Model/txt/Encoder_0/encoderblock_11/LayerNorm_1/div" stack_frame_id=21}
  %square.147 = f32[16,64]{1,0} multiply(%div.339, %div.339), metadata={op_name="jit(predict_step)/Model/txt/Encoder_0/encoderblock_11/LayerNorm_1/square" stack_frame_id=191}
  %sub.509 = f32[16,64]{1,0} subtract(%div.340, %square.147), metadata={op_name="jit(predict_step)/Model/txt/Encoder_0/encoderblock_11/LayerNorm_1/sub" stack_frame_id=192}
  %max.109 = f32[16,64]{1,0} maximum(%sub.509, %broadcast.36), metadata={op_name="jit(predict_step)/Model/txt/Encoder_0/encoderblock_11/LayerNorm_1/max" stack_frame_id=193}
  %broadcast_in_dim.227 = f32[16,64,1]{2,1,0} reshape(%max.109), metadata={op_name="jit(predict_step)/Model/txt/Encoder_0/encoderblock_11/LayerNorm_1/broadcast_in_dim" stack_frame_id=194}
  %add.1392 = f32[16,64,1]{2,1,0} add(%broadcast_in_dim.227, %broadcast.35), metadata={op_name="jit(predict_step)/Model/txt/Encoder_0/encoderblock_11/LayerNorm_1/add" stack_frame_id=195}
  %rsqrt.73 = f32[16,64,1]{2,1,0} rsqrt(%add.1392), metadata={op_name="jit(predict_step)/Model/txt/Encoder_0/encoderblock_11/LayerNorm_1/rsqrt" stack_frame_id=196}
  %mul.726 = f32[16,64,1]{2,1,0} broadcast(%rsqrt.73), dimensions={0,1,2}, metadata={op_name="jit(predict_step)/Model/txt/Encoder_0/encoderblock_11/LayerNorm_1/mul" stack_frame_id=197}
  %mul.727 = f32[16,64]{1,0} reshape(%mul.726), metadata={op_name="jit(predict_step)/Model/txt/Encoder_0/encoderblock_11/LayerNorm_1/mul" stack_frame_id=197}
  %mul.728 = f32[16,64,768]{2,1,0} broadcast(%mul.727), dimensions={0,1}, metadata={op_name="jit(predict_step)/Model/txt/Encoder_0/encoderblock_11/LayerNorm_1/mul" stack_frame_id=197}
  %variables__txt____Encoder_0____encoderblock_11____LayerNorm_1____scale__.1 = f32[768]{0} parameter(253), sharding={devices=[4]<=[4]}, frontend_attributes={xla.sdy.sharding="#sdy.sharding<@mesh, [{\"fsdp\"}]>"}, metadata={op_name="variables[\'txt\'][\'Encoder_0\'][\'encoderblock_11\'][\'LayerNorm_1\'][\'scale\']"}
  %reshape.366 = f32[1,1,768]{2,1,0} reshape(%variables__txt____Encoder_0____encoderblock_11____LayerNorm_1____scale__.1), metadata={op_name="jit(predict_step)/Model/txt/Encoder_0/encoderblock_11/LayerNorm_1/reshape" stack_frame_id=198}
  %mul.729 = f32[1,1,768]{2,1,0} broadcast(%reshape.366), dimensions={0,1,2}, metadata={op_name="jit(predict_step)/Model/txt/Encoder_0/encoderblock_11/LayerNorm_1/mul" stack_frame_id=197}
  %mul.730 = f32[768]{0} reshape(%mul.729), metadata={op_name="jit(predict_step)/Model/txt/Encoder_0/encoderblock_11/LayerNorm_1/mul" stack_frame_id=197}
  %mul.731 = f32[16,64,768]{2,1,0} broadcast(%mul.730), dimensions={2}, metadata={op_name="jit(predict_step)/Model/txt/Encoder_0/encoderblock_11/LayerNorm_1/mul" stack_frame_id=197}
  %mul.732 = f32[16,64,768]{2,1,0} multiply(%mul.728, %mul.731), metadata={op_name="jit(predict_step)/Model/txt/Encoder_0/encoderblock_11/LayerNorm_1/mul" stack_frame_id=197}
  %mul.733 = f32[16,64,768]{2,1,0} multiply(%sub.513, %mul.732), metadata={op_name="jit(predict_step)/Model/txt/Encoder_0/encoderblock_11/LayerNorm_1/mul" stack_frame_id=199}
  %variables__txt____Encoder_0____encoderblock_11____LayerNorm_1____bias__.1 = f32[768]{0} parameter(252), sharding={devices=[4]<=[4]}, frontend_attributes={xla.sdy.sharding="#sdy.sharding<@mesh, [{\"fsdp\"}]>"}, metadata={op_name="variables[\'txt\'][\'Encoder_0\'][\'encoderblock_11\'][\'LayerNorm_1\'][\'bias\']"}
  %reshape.367 = f32[1,1,768]{2,1,0} reshape(%variables__txt____Encoder_0____encoderblock_11____LayerNorm_1____bias__.1), metadata={op_name="jit(predict_step)/Model/txt/Encoder_0/encoderblock_11/LayerNorm_1/reshape" stack_frame_id=200}
  %add.1393 = f32[1,1,768]{2,1,0} broadcast(%reshape.367), dimensions={0,1,2}, metadata={op_name="jit(predict_step)/Model/txt/Encoder_0/encoderblock_11/LayerNorm_1/add" stack_frame_id=201}
  %add.1394 = f32[768]{0} reshape(%add.1393), metadata={op_name="jit(predict_step)/Model/txt/Encoder_0/encoderblock_11/LayerNorm_1/add" stack_frame_id=201}
  %add.1395 = f32[16,64,768]{2,1,0} broadcast(%add.1394), dimensions={2}, metadata={op_name="jit(predict_step)/Model/txt/Encoder_0/encoderblock_11/LayerNorm_1/add" stack_frame_id=201}
  %add.1396 = f32[16,64,768]{2,1,0} add(%mul.733, %add.1395), metadata={op_name="jit(predict_step)/Model/txt/Encoder_0/encoderblock_11/LayerNorm_1/add" stack_frame_id=201}
  %variables__txt____Encoder_0____encoderblock_11____MlpBlock_0____Dense_0____kernel__.1 = f32[768,3072]{1,0} parameter(255), sharding={devices=[4,1]<=[4]}, frontend_attributes={xla.sdy.sharding="#sdy.sharding<@mesh, [{\"fsdp\"}, {}]>"}, metadata={op_name="variables[\'txt\'][\'Encoder_0\'][\'encoderblock_11\'][\'MlpBlock_0\'][\'Dense_0\'][\'kernel\']"}
  %dot_general.288 = f32[16,64,3072]{2,1,0} dot(%add.1396, %variables__txt____Encoder_0____encoderblock_11____MlpBlock_0____Dense_0____kernel__.1), lhs_contracting_dims={2}, rhs_contracting_dims={0}, metadata={op_name="jit(predict_step)/Model/txt/Encoder_0/encoderblock_11/MlpBlock_0/Dense_0/dot_general" stack_frame_id=204}
  %variables__txt____Encoder_0____encoderblock_11____MlpBlock_0____Dense_0____bias__.1 = f32[3072]{0} parameter(254), sharding={devices=[4]<=[4]}, frontend_attributes={xla.sdy.sharding="#sdy.sharding<@mesh, [{\"fsdp\"}]>"}, metadata={op_name="variables[\'txt\'][\'Encoder_0\'][\'encoderblock_11\'][\'MlpBlock_0\'][\'Dense_0\'][\'bias\']"}
  %reshape.368 = f32[1,1,3072]{2,1,0} reshape(%variables__txt____Encoder_0____encoderblock_11____MlpBlock_0____Dense_0____bias__.1), metadata={op_name="jit(predict_step)/Model/txt/Encoder_0/encoderblock_11/MlpBlock_0/Dense_0/reshape" stack_frame_id=205}
  %add.1397 = f32[1,1,3072]{2,1,0} broadcast(%reshape.368), dimensions={0,1,2}, metadata={op_name="jit(predict_step)/Model/txt/Encoder_0/encoderblock_11/MlpBlock_0/Dense_0/add" stack_frame_id=206}
  %add.1398 = f32[3072]{0} reshape(%add.1397), metadata={op_name="jit(predict_step)/Model/txt/Encoder_0/encoderblock_11/MlpBlock_0/Dense_0/add" stack_frame_id=206}
  %add.1399 = f32[16,64,3072]{2,1,0} broadcast(%add.1398), dimensions={2}, metadata={op_name="jit(predict_step)/Model/txt/Encoder_0/encoderblock_11/MlpBlock_0/Dense_0/add" stack_frame_id=206}
  %add.1400 = f32[16,64,3072]{2,1,0} add(%dot_general.288, %add.1399), metadata={op_name="jit(predict_step)/Model/txt/Encoder_0/encoderblock_11/MlpBlock_0/Dense_0/add" stack_frame_id=206}
  %integer_pow.70 = f32[16,64,3072]{2,1,0} multiply(%add.1400, %add.1400), metadata={op_name="jit(predict_step)/Model/txt/Encoder_0/encoderblock_11/MlpBlock_0/integer_pow" stack_frame_id=207}
  %integer_pow.71 = f32[16,64,3072]{2,1,0} multiply(%integer_pow.70, %add.1400), metadata={op_name="jit(predict_step)/Model/txt/Encoder_0/encoderblock_11/MlpBlock_0/integer_pow" stack_frame_id=207}
  %mul.734 = f32[16,64,3072]{2,1,0} multiply(%integer_pow.71, %broadcast.32), metadata={op_name="jit(predict_step)/Model/txt/Encoder_0/encoderblock_11/MlpBlock_0/mul" stack_frame_id=207}
  %add.1401 = f32[16,64,3072]{2,1,0} add(%add.1400, %mul.734), metadata={op_name="jit(predict_step)/Model/txt/Encoder_0/encoderblock_11/MlpBlock_0/add" stack_frame_id=207}
  %mul.735 = f32[16,64,3072]{2,1,0} multiply(%add.1401, %broadcast.31), metadata={op_name="jit(predict_step)/Model/txt/Encoder_0/encoderblock_11/MlpBlock_0/mul" stack_frame_id=207}
  %tanh.35 = f32[16,64,3072]{2,1,0} tanh(%mul.735), metadata={op_name="jit(predict_step)/Model/txt/Encoder_0/encoderblock_11/MlpBlock_0/tanh" stack_frame_id=207}
  %add.1402 = f32[16,64,3072]{2,1,0} add(%tanh.35, %broadcast.30), metadata={op_name="jit(predict_step)/Model/txt/Encoder_0/encoderblock_11/MlpBlock_0/add" stack_frame_id=207}
  %mul.736 = f32[16,64,3072]{2,1,0} multiply(%add.1402, %broadcast.29), metadata={op_name="jit(predict_step)/Model/txt/Encoder_0/encoderblock_11/MlpBlock_0/mul" stack_frame_id=207}
  %mul.737 = f32[16,64,3072]{2,1,0} multiply(%add.1400, %mul.736), metadata={op_name="jit(predict_step)/Model/txt/Encoder_0/encoderblock_11/MlpBlock_0/mul" stack_frame_id=207}
  %variables__txt____Encoder_0____encoderblock_11____MlpBlock_0____Dense_1____kernel__.1 = f32[3072,768]{1,0} parameter(257), sharding={devices=[4,1]<=[4]}, frontend_attributes={xla.sdy.sharding="#sdy.sharding<@mesh, [{\"fsdp\"}, {}]>"}, metadata={op_name="variables[\'txt\'][\'Encoder_0\'][\'encoderblock_11\'][\'MlpBlock_0\'][\'Dense_1\'][\'kernel\']"}
  %dot_general.289 = f32[16,64,768]{2,1,0} dot(%mul.737, %variables__txt____Encoder_0____encoderblock_11____MlpBlock_0____Dense_1____kernel__.1), lhs_contracting_dims={2}, rhs_contracting_dims={0}, metadata={op_name="jit(predict_step)/Model/txt/Encoder_0/encoderblock_11/MlpBlock_0/Dense_1/dot_general" stack_frame_id=209}
  %variables__txt____Encoder_0____encoderblock_11____MlpBlock_0____Dense_1____bias__.1 = f32[768]{0} parameter(256), sharding={devices=[4]<=[4]}, frontend_attributes={xla.sdy.sharding="#sdy.sharding<@mesh, [{\"fsdp\"}]>"}, metadata={op_name="variables[\'txt\'][\'Encoder_0\'][\'encoderblock_11\'][\'MlpBlock_0\'][\'Dense_1\'][\'bias\']"}
  %reshape.369 = f32[1,1,768]{2,1,0} reshape(%variables__txt____Encoder_0____encoderblock_11____MlpBlock_0____Dense_1____bias__.1), metadata={op_name="jit(predict_step)/Model/txt/Encoder_0/encoderblock_11/MlpBlock_0/Dense_1/reshape" stack_frame_id=210}
  %add.1403 = f32[1,1,768]{2,1,0} broadcast(%reshape.369), dimensions={0,1,2}, metadata={op_name="jit(predict_step)/Model/txt/Encoder_0/encoderblock_11/MlpBlock_0/Dense_1/add" stack_frame_id=211}
  %add.1404 = f32[768]{0} reshape(%add.1403), metadata={op_name="jit(predict_step)/Model/txt/Encoder_0/encoderblock_11/MlpBlock_0/Dense_1/add" stack_frame_id=211}
  %add.1405 = f32[16,64,768]{2,1,0} broadcast(%add.1404), dimensions={2}, metadata={op_name="jit(predict_step)/Model/txt/Encoder_0/encoderblock_11/MlpBlock_0/Dense_1/add" stack_frame_id=211}
  %add.1406 = f32[16,64,768]{2,1,0} add(%dot_general.289, %add.1405), metadata={op_name="jit(predict_step)/Model/txt/Encoder_0/encoderblock_11/MlpBlock_0/Dense_1/add" stack_frame_id=211}
  %add.1407 = f32[16,64,768]{2,1,0} add(%add.1391, %add.1406), metadata={op_name="jit(predict_step)/Model/txt/Encoder_0/encoderblock_11/add" stack_frame_id=212}
  %reduce_sum.943 = f32[16,64]{1,0} reduce(%add.1407, %constant.57), dimensions={2}, to_apply=%region_73.76, metadata={op_name="jit(predict_step)/Model/txt/Encoder_0/encoder_norm/reduce_sum" stack_frame_id=26}
  %div.341 = f32[16,64]{1,0} divide(%reduce_sum.943, %broadcast.37), metadata={op_name="jit(predict_step)/Model/txt/Encoder_0/encoder_norm/div" stack_frame_id=26}
  %broadcast_in_dim.228 = f32[16,64,1]{2,1,0} reshape(%div.341), metadata={op_name="jit(predict_step)/Model/txt/Encoder_0/encoder_norm/broadcast_in_dim" stack_frame_id=214}
  %sub.515 = f32[16,64,1]{2,1,0} broadcast(%broadcast_in_dim.228), dimensions={0,1,2}, metadata={op_name="jit(predict_step)/Model/txt/Encoder_0/encoder_norm/sub" stack_frame_id=215}
  %sub.516 = f32[16,64]{1,0} reshape(%sub.515), metadata={op_name="jit(predict_step)/Model/txt/Encoder_0/encoder_norm/sub" stack_frame_id=215}
  %sub.517 = f32[16,64,768]{2,1,0} broadcast(%sub.516), dimensions={0,1}, metadata={op_name="jit(predict_step)/Model/txt/Encoder_0/encoder_norm/sub" stack_frame_id=215}
  %sub.518 = f32[16,64,768]{2,1,0} subtract(%add.1407, %sub.517), metadata={op_name="jit(predict_step)/Model/txt/Encoder_0/encoder_norm/sub" stack_frame_id=215}
  %square.148 = f32[16,64,768]{2,1,0} multiply(%add.1407, %add.1407), metadata={op_name="jit(predict_step)/Model/txt/Encoder_0/encoder_norm/square" stack_frame_id=217}
  %reduce_sum.944 = f32[16,64]{1,0} reduce(%square.148, %constant.57), dimensions={2}, to_apply=%region_74.77, metadata={op_name="jit(predict_step)/Model/txt/Encoder_0/encoder_norm/reduce_sum" stack_frame_id=26}
  %div.342 = f32[16,64]{1,0} divide(%reduce_sum.944, %broadcast.37), metadata={op_name="jit(predict_step)/Model/txt/Encoder_0/encoder_norm/div" stack_frame_id=26}
  %square.149 = f32[16,64]{1,0} multiply(%div.341, %div.341), metadata={op_name="jit(predict_step)/Model/txt/Encoder_0/encoder_norm/square" stack_frame_id=219}
  %sub.514 = f32[16,64]{1,0} subtract(%div.342, %square.149), metadata={op_name="jit(predict_step)/Model/txt/Encoder_0/encoder_norm/sub" stack_frame_id=220}
  %max.110 = f32[16,64]{1,0} maximum(%sub.514, %broadcast.36), metadata={op_name="jit(predict_step)/Model/txt/Encoder_0/encoder_norm/max" stack_frame_id=221}
  %broadcast_in_dim.229 = f32[16,64,1]{2,1,0} reshape(%max.110), metadata={op_name="jit(predict_step)/Model/txt/Encoder_0/encoder_norm/broadcast_in_dim" stack_frame_id=222}
  %add.1408 = f32[16,64,1]{2,1,0} add(%broadcast_in_dim.229, %broadcast.35), metadata={op_name="jit(predict_step)/Model/txt/Encoder_0/encoder_norm/add" stack_frame_id=223}
  %rsqrt.74 = f32[16,64,1]{2,1,0} rsqrt(%add.1408), metadata={op_name="jit(predict_step)/Model/txt/Encoder_0/encoder_norm/rsqrt" stack_frame_id=224}
  %mul.738 = f32[16,64,1]{2,1,0} broadcast(%rsqrt.74), dimensions={0,1,2}, metadata={op_name="jit(predict_step)/Model/txt/Encoder_0/encoder_norm/mul" stack_frame_id=225}
  %mul.739 = f32[16,64]{1,0} reshape(%mul.738), metadata={op_name="jit(predict_step)/Model/txt/Encoder_0/encoder_norm/mul" stack_frame_id=225}
  %mul.740 = f32[16,64,768]{2,1,0} broadcast(%mul.739), dimensions={0,1}, metadata={op_name="jit(predict_step)/Model/txt/Encoder_0/encoder_norm/mul" stack_frame_id=225}
  %variables__txt____Encoder_0____encoder_norm____scale__.1 = f32[768]{0} parameter(201), sharding={devices=[4]<=[4]}, frontend_attributes={xla.sdy.sharding="#sdy.sharding<@mesh, [{\"fsdp\"}]>"}, metadata={op_name="variables[\'txt\'][\'Encoder_0\'][\'encoder_norm\'][\'scale\']"}
  %reshape.370 = f32[1,1,768]{2,1,0} reshape(%variables__txt____Encoder_0____encoder_norm____scale__.1), metadata={op_name="jit(predict_step)/Model/txt/Encoder_0/encoder_norm/reshape" stack_frame_id=226}
  %mul.741 = f32[1,1,768]{2,1,0} broadcast(%reshape.370), dimensions={0,1,2}, metadata={op_name="jit(predict_step)/Model/txt/Encoder_0/encoder_norm/mul" stack_frame_id=225}
  %mul.742 = f32[768]{0} reshape(%mul.741), metadata={op_name="jit(predict_step)/Model/txt/Encoder_0/encoder_norm/mul" stack_frame_id=225}
  %mul.743 = f32[16,64,768]{2,1,0} broadcast(%mul.742), dimensions={2}, metadata={op_name="jit(predict_step)/Model/txt/Encoder_0/encoder_norm/mul" stack_frame_id=225}
  %mul.744 = f32[16,64,768]{2,1,0} multiply(%mul.740, %mul.743), metadata={op_name="jit(predict_step)/Model/txt/Encoder_0/encoder_norm/mul" stack_frame_id=225}
  %mul.745 = f32[16,64,768]{2,1,0} multiply(%sub.518, %mul.744), metadata={op_name="jit(predict_step)/Model/txt/Encoder_0/encoder_norm/mul" stack_frame_id=227}
  %variables__txt____Encoder_0____encoder_norm____bias__.1 = f32[768]{0} parameter(200), sharding={devices=[4]<=[4]}, frontend_attributes={xla.sdy.sharding="#sdy.sharding<@mesh, [{\"fsdp\"}]>"}, metadata={op_name="variables[\'txt\'][\'Encoder_0\'][\'encoder_norm\'][\'bias\']"}
  %reshape.371 = f32[1,1,768]{2,1,0} reshape(%variables__txt____Encoder_0____encoder_norm____bias__.1), metadata={op_name="jit(predict_step)/Model/txt/Encoder_0/encoder_norm/reshape" stack_frame_id=228}
  %add.1409 = f32[1,1,768]{2,1,0} broadcast(%reshape.371), dimensions={0,1,2}, metadata={op_name="jit(predict_step)/Model/txt/Encoder_0/encoder_norm/add" stack_frame_id=229}
  %add.1410 = f32[768]{0} reshape(%add.1409), metadata={op_name="jit(predict_step)/Model/txt/Encoder_0/encoder_norm/add" stack_frame_id=229}
  %add.1411 = f32[16,64,768]{2,1,0} broadcast(%add.1410), dimensions={2}, metadata={op_name="jit(predict_step)/Model/txt/Encoder_0/encoder_norm/add" stack_frame_id=229}
  %add.1412 = f32[16,64,768]{2,1,0} add(%mul.745, %add.1411), metadata={op_name="jit(predict_step)/Model/txt/Encoder_0/encoder_norm/add" stack_frame_id=229}
  %slice.1 = f32[16,1,768]{2,1,0} slice(%add.1412), slice={[0:16], [63:64], [0:768]}, metadata={op_name="jit(predict_step)/Model/txt/slice" stack_frame_id=230}
  %squeeze.1 = f32[16,768]{1,0} reshape(%slice.1), metadata={op_name="jit(predict_step)/Model/txt/squeeze" stack_frame_id=230}
  %variables__txt____head____kernel__.1 = f32[768,768]{1,0} parameter(395), sharding={devices=[4,1]<=[4]}, frontend_attributes={xla.sdy.sharding="#sdy.sharding<@mesh, [{\"fsdp\"}, {}]>"}, metadata={op_name="variables[\'txt\'][\'head\'][\'kernel\']"}
  %dot_general.290 = f32[16,768]{1,0} dot(%squeeze.1, %variables__txt____head____kernel__.1), lhs_contracting_dims={1}, rhs_contracting_dims={0}, metadata={op_name="jit(predict_step)/Model/txt/head/dot_general" stack_frame_id=232}
  %variables__txt____head____bias__.1 = f32[768]{0} parameter(394), sharding={devices=[4]<=[4]}, frontend_attributes={xla.sdy.sharding="#sdy.sharding<@mesh, [{\"fsdp\"}]>"}, metadata={op_name="variables[\'txt\'][\'head\'][\'bias\']"}
  %reshape.372 = f32[1,768]{1,0} reshape(%variables__txt____head____bias__.1), metadata={op_name="jit(predict_step)/Model/txt/head/reshape" stack_frame_id=233}
  %add.1413 = f32[1,768]{1,0} broadcast(%reshape.372), dimensions={0,1}, metadata={op_name="jit(predict_step)/Model/txt/head/add" stack_frame_id=234}
  %add.1414 = f32[768]{0} reshape(%add.1413), metadata={op_name="jit(predict_step)/Model/txt/head/add" stack_frame_id=234}
  %add.1415 = f32[16,768]{1,0} broadcast(%add.1414), dimensions={1}, metadata={op_name="jit(predict_step)/Model/txt/head/add" stack_frame_id=234}
  %add.1416 = f32[16,768]{1,0} add(%dot_general.290, %add.1415), metadata={op_name="jit(predict_step)/Model/txt/head/add" stack_frame_id=234}
  %jit_norm_.2 = f32[16,1]{1,0} call(%add.1416), to_apply=%norm.79, metadata={op_name="jit(predict_step)/Model/jit(norm)" stack_frame_id=235}
  %add.1417 = f32[16,1]{1,0} add(%jit_norm_.2, %broadcast.28), metadata={op_name="jit(predict_step)/Model/add" stack_frame_id=236}
  %div.343 = f32[16,1]{1,0} broadcast(%add.1417), dimensions={0,1}, metadata={op_name="jit(predict_step)/Model/div" stack_frame_id=237}
  %div.344 = f32[16]{0} reshape(%div.343), metadata={op_name="jit(predict_step)/Model/div" stack_frame_id=237}
  %div.345 = f32[16,768]{1,0} broadcast(%div.344), dimensions={0}, metadata={op_name="jit(predict_step)/Model/div" stack_frame_id=237}
  %div.346 = f32[16,768]{1,0} divide(%add.1416, %div.345), metadata={op_name="jit(predict_step)/Model/div" stack_frame_id=237}
  %div.463 = f32[16,768]{1,0} custom-call(%div.346), custom_call_target="xla.sdy.FuncResultSharding", custom_call_has_side_effect=true, frontend_attributes={xla.sdy.sharding="#sdy.sharding_per_value<[<@mesh, [{}, {}]>]>"}, metadata={op_name="jit(predict_step)/Model/div" stack_frame_id=237}
  %reshape.499 = f32[16,768]{1,0} reshape(%div.463), sharding={replicated}
  ROOT %tuple.1 = (f32[16,768]{1,0}, f32[16,768]{1,0}) tuple(%div.462, %div.463), sharding={{replicated}, {replicated}}
}

