HloModule jit__generate_jit, input_output_alias={ {0}: (0, {}, may-alias), {1}: (1, {}, may-alias), {2}: (2, {}, may-alias), {3}: (3, {}, may-alias), {4}: (4, {}, may-alias), {5}: (5, {}, may-alias), {6}: (6, {}, may-alias), {7}: (7, {}, may-alias), {8}: (8, {}, may-alias), {10}: (9, {}, may-alias), {12}: (10, {}, may-alias) }, entry_computation_layout={(s32[32,1]{1,0}, s32[32,1,1984]{2,1,0}, s32[32,1,64]{2,1,0}, bf16[32,1984,8,1,128]{4,3,2,1,0}, s32[32,1]{1,0}, /*index=5*/bf16[32,1984,8,1,128]{4,3,2,1,0}, bf16[32,64,8,1,128]{4,3,2,1,0}, bf16[32,64,8,1,128]{4,3,2,1,0}, s32[1,1]{1,0}, s32[1,1]{1,0}, /*index=10*/s32[1,1]{1,0}, f32[4096]{0}, f32[4096,32,8]{2,1,0}, f32[8,32,4096,14336]{3,2,1,0}, f32[8,32,4096,14336]{3,2,1,0}, /*index=15*/f32[8,32,14336,4096]{3,2,1,0}, f32[4096,32]{1,0}, f32[4096,32]{1,0}, f32[4096,32,8,128]{3,2,1,0}, f32[32,32,128,4096]{3,2,1,0}, /*index=20*/f32[4096,32,32,128]{3,2,1,0}, f32[4096,32,8,128]{3,2,1,0}, f32[4096,32000]{1,0}, f32[32000,4096]{1,0})->(s32[32,1]{1,0}, s32[32,1,1984]{2,1,0}, s32[32,1,64]{2,1,0}, bf16[32,1984,8,1,128]{4,3,2,1,0}, s32[32,1]{1,0}, /*index=5*/bf16[32,1984,8,1,128]{4,3,2,1,0}, bf16[32,64,8,1,128]{4,3,2,1,0}, bf16[32,64,8,1,128]{4,3,2,1,0}, s32[1,1]{1,0}, f32[1,1,32000]{2,1,0}, /*index=10*/s32[1,1]{1,0}, f32[1,1]{1,0}, s32[1,1]{1,0}, s32[1,3]{1,0}, f32[1,1]{1,0})}, allow_spmd_sharding_propagation_to_parameters={false,false,false,false,false,false,false,false,false,false,false,false,false,false,false,false,false,false,false,false,false,false,false,false}, allow_spmd_sharding_propagation_to_output={true,true,true,true,true,true,true,true,true,true,true,true,true,true,true}, frontend_attributes={xla.sdy.meshes={mesh = #sdy.mesh<["diloco"=1, "data"=1, "stage"=1, "fsdp"=1, "fsdp_transpose"=1, "context"=1, "context_autoregressive"=1, "tensor"=1, "tensor_transpose"=1, "tensor_sequence"=1, "expert"=1, "autoregressive"=1]>}}

FileNames
1 "/tf/jax-lab/targets/maxtext_release/maxtext/src/maxtext/inference/maxengine/maxengine.py"
2 "/tf/jax-lab/targets/maxtext_release/maxtext/src/maxtext/models/models.py"
3 "/tf/jax-lab/targets/maxtext_release/maxtext/src/maxtext/layers/decoders.py"
4 "/usr/local/lib/python3.12/dist-packages/flax/core/axes_scan.py"
5 "/tf/jax-lab/targets/maxtext_release/maxtext/src/maxtext/layers/nnx_wrappers.py"
6 "/tf/jax-lab/targets/maxtext_release/maxtext/src/maxtext/models/mixtral.py"
7 "/tf/jax-lab/targets/maxtext_release/maxtext/src/maxtext/layers/normalizations.py"
8 "/tf/jax-lab/targets/maxtext_release/maxtext/src/maxtext/layers/attentions.py"
9 "/tf/jax-lab/targets/maxtext_release/maxtext/src/maxtext/inference/kvcache.py"
10 "/tf/jax-lab/targets/maxtext_release/maxtext/src/maxtext/layers/attention_op.py"
11 "/tf/jax-lab/targets/maxtext_release/maxtext/src/maxtext/layers/moe.py"
12 "/tf/jax-lab/targets/maxtext_release/maxtext/src/maxtext/utils/sharding.py"
13 "/tf/jax-lab/targets/maxtext_release/maxtext/src/maxtext/layers/linears.py"
14 "/tf/jax-lab/targets/maxtext_release/maxtext/src/maxtext/layers/embeddings.py"
15 "<frozen runpy>"
16 "/tf/jax-lab/targets/maxtext_release/maxtext/src/maxtext/inference/decode.py"
17 "/usr/local/lib/python3.12/dist-packages/absl/app.py"
18 "/tf/jax-lab/targets/maxtext_release/maxtext/src/maxtext/inference/inference_utils.py"

FunctionNames
1 "MaxEngine._prefill_jit"
2 "TransformerLinenPure.apply"
3 "TransformerLinenPure.__call__"
4 "Decoder.__call__"
5 "scan.<locals>.scan_fn"
6 "MaxEngine._generate_jit"
7 "scan.<locals>.scan_fn.<locals>.body_fn"
8 "ToLinen.__call__"
9 "MixtralDecoderLayer.__call__"
10 "_fix_for_qwix_quantization.<locals>.wrap.<locals>.wrapped"
11 "RMSNorm.__call__"
12 "Attention.__call__"
13 "Attention.update_kv_caches"
14 "KVCache.__call__"
15 "KVCache.kv_cache_autoregressive"
16 "AttentionOp.__call__"
17 "AttentionOp.apply_attention"
18 "AttentionOp.apply_attention_dot"
19 "AttentionOp.compute_local_attention"
20 "RoutedMoE.__call__"
21 "RoutedMoE.dense_matmul"
22 "RoutedMoE.get_topk"
23 "AttentionOp.generate_attention_mask"
24 "apply_mask_to_logits"
25 "KVCache.get_cached_values"
26 "KVCache.get_cached_values.<locals>.<lambda>"
27 "reverse_transpose"
28 "maybe_shard_with_logical"
29 "maybe_shard_with_name"
30 "Attention.query_projection"
31 "DenseGeneral.__call__"
32 "_compute_dot_general_nnx"
33 "Attention.apply_rotary_embedding"
34 "RotaryEmbedding.__call__"
35 "RotaryEmbedding.timescale"
36 "RotaryEmbedding.apply_rotary"
37 "RotaryEmbedding._rotate_half"
38 "AttentionOp.qk_product"
39 "Attention.kv_projection"
40 "KVCache.update_ar_key_value"
41 "AttentionOp.normalize_attention"
42 "AttentionOp.normalize_attention.<locals>.<genexpr>"
43 "AttentionOp.wv_product"
44 "Attention.out_projection"
45 "RoutedMoE._maybe_shard_with_logical"
46 "RoutedMoE.apply_ffn_activation"
47 "RoutedMoE.reshape_and_update_weights"
48 "GateLogit.__call__"
49 "_run_module_as_main"
50 "_run_code"
51 "<module>"
52 "run"
53 "_run_main"
54 "main"
55 "MaxEngine.generate"
56 "Decoder.apply_output_head"
57 "sampling"
58 "Decoder._apply_embedding"
59 "Embed.__call__"
60 "scan.<locals>.transpose_to_front"
61 "scan.<locals>.transpose_to_front.<locals>.trans"

FileLocations
1 {file_name_id=1 function_name_id=1 line=798 end_line=815 column=32 end_column=9}
2 {file_name_id=2 function_name_id=2 line=71 end_line=71 column=11 end_column=51}
3 {file_name_id=2 function_name_id=3 line=202 end_line=215 column=38 end_column=5}
4 {file_name_id=3 function_name_id=4 line=1133 end_line=1142 column=19 end_column=41}
5 {file_name_id=4 function_name_id=5 line=200 end_line=203 column=14 end_column=7}
6 {file_name_id=1 function_name_id=6 line=1353 end_line=1361 column=31 end_column=9}
7 {file_name_id=4 function_name_id=7 line=157 end_line=157 column=29 end_column=53}
8 {file_name_id=5 function_name_id=8 line=549 end_line=549 column=10 end_column=44}
9 {file_name_id=6 function_name_id=9 line=145 end_line=145 column=10 end_column=52}
10 {file_name_id=5 function_name_id=10 line=383 end_line=383 column=15 end_column=39}
11 {file_name_id=7 function_name_id=11 line=72 end_line=72 column=12 end_column=59}
12 {file_name_id=6 function_name_id=9 line=148 end_line=158 column=30 end_column=5}
13 {file_name_id=8 function_name_id=12 line=1224 end_line=1224 column=24 end_column=106}
14 {file_name_id=8 function_name_id=13 line=994 end_line=1001 column=36 end_column=5}
15 {file_name_id=9 function_name_id=14 line=959 end_line=959 column=13 end_column=75}
16 {file_name_id=9 function_name_id=15 line=907 end_line=907 column=35 end_column=80}
17 {file_name_id=8 function_name_id=12 line=1225 end_line=1236 column=12 end_column=7}
18 {file_name_id=10 function_name_id=16 line=2106 end_line=2123 column=86 end_column=5}
19 {file_name_id=10 function_name_id=17 line=972 end_line=986 column=13 end_column=7}
20 {file_name_id=10 function_name_id=18 line=1919 end_line=1919 column=11 end_column=109}
21 {file_name_id=10 function_name_id=19 line=1770 end_line=1770 column=16 end_column=55}
22 {file_name_id=10 function_name_id=19 line=1772 end_line=1772 column=16 end_column=68}
23 {file_name_id=10 function_name_id=16 line=2133 end_line=2146 column=71 end_column=5}
24 {file_name_id=6 function_name_id=9 line=164 end_line=164 column=20 end_column=76}
25 {file_name_id=6 function_name_id=9 line=171 end_line=171 column=36 end_column=66}
26 {file_name_id=11 function_name_id=20 line=2639 end_line=2641 column=38 end_column=7}
27 {file_name_id=11 function_name_id=21 line=2193 end_line=2193 column=35 end_column=110}
28 {file_name_id=11 function_name_id=22 line=711 end_line=711 column=22 end_column=80}
29 {file_name_id=11 function_name_id=20 line=2588 end_line=2588 column=16 end_column=53}
30 {file_name_id=7 function_name_id=11 line=90 end_line=90 column=12 end_column=42}
31 {file_name_id=10 function_name_id=18 line=1866 end_line=1874 column=16 end_column=5}
32 {file_name_id=10 function_name_id=23 line=698 end_line=698 column=13 end_column=94}
33 {file_name_id=10 function_name_id=23 line=787 end_line=787 column=11 end_column=58}
34 {file_name_id=10 function_name_id=18 line=1906 end_line=1906 column=21 end_column=66}
35 {file_name_id=10 function_name_id=24 line=121 end_line=121 column=20 end_column=52}
36 {file_name_id=9 function_name_id=15 line=914 end_line=914 column=8 end_column=97}
37 {file_name_id=9 function_name_id=25 line=848 end_line=848 column=35 end_column=110}
38 {file_name_id=9 function_name_id=26 line=848 end_line=848 column=58 end_column=96}
39 {file_name_id=9 function_name_id=27 line=42 end_line=42 column=9 end_column=81}
40 {file_name_id=7 function_name_id=11 line=71 end_line=71 column=8 end_column=35}
41 {file_name_id=7 function_name_id=11 line=72 end_line=72 column=21 end_column=34}
42 {file_name_id=7 function_name_id=11 line=73 end_line=73 column=34 end_column=54}
43 {file_name_id=7 function_name_id=11 line=73 end_line=73 column=24 end_column=55}
44 {file_name_id=7 function_name_id=11 line=73 end_line=73 column=20 end_column=55}
45 {file_name_id=7 function_name_id=11 line=73 end_line=73 column=8 end_column=68}
46 {file_name_id=7 function_name_id=11 line=92 end_line=92 column=11 end_column=84}
47 {file_name_id=8 function_name_id=12 line=1124 end_line=1124 column=15 end_column=73}
48 {file_name_id=12 function_name_id=28 line=147 end_line=155 column=9 end_column=3}
49 {file_name_id=12 function_name_id=29 line=113 end_line=113 column=11 end_column=67}
50 {file_name_id=8 function_name_id=12 line=1142 end_line=1142 column=14 end_column=72}
51 {file_name_id=8 function_name_id=30 line=614 end_line=614 column=11 end_column=58}
52 {file_name_id=13 function_name_id=31 line=231 end_line=231 column=15 end_column=46}
53 {file_name_id=13 function_name_id=31 line=238 end_line=247 column=13 end_column=5}
54 {file_name_id=13 function_name_id=32 line=102 end_line=104 column=9 end_column=3}
55 {file_name_id=8 function_name_id=12 line=1172 end_line=1172 column=14 end_column=108}
56 {file_name_id=8 function_name_id=33 line=935 end_line=935 column=13 end_column=60}
57 {file_name_id=14 function_name_id=34 line=359 end_line=359 column=15 end_column=55}
58 {file_name_id=14 function_name_id=34 line=360 end_line=360 column=19 end_column=44}
59 {file_name_id=14 function_name_id=34 line=360 end_line=360 column=30 end_column=44}
60 {file_name_id=14 function_name_id=35 line=317 end_line=317 column=19 end_column=52}
61 {file_name_id=14 function_name_id=35 line=317 end_line=317 column=15 end_column=52}
62 {file_name_id=14 function_name_id=35 line=318 end_line=318 column=37 end_column=90}
63 {file_name_id=14 function_name_id=34 line=362 end_line=362 column=15 end_column=36}
64 {file_name_id=14 function_name_id=34 line=365 end_line=365 column=10 end_column=56}
65 {file_name_id=14 function_name_id=34 line=367 end_line=367 column=12 end_column=47}
66 {file_name_id=14 function_name_id=36 line=330 end_line=330 column=12 end_column=24}
67 {file_name_id=14 function_name_id=36 line=330 end_line=330 column=29 end_column=54}
68 {file_name_id=14 function_name_id=37 line=325 end_line=325 column=13 end_column=37}
69 {file_name_id=14 function_name_id=37 line=326 end_line=326 column=28 end_column=31}
70 {file_name_id=14 function_name_id=37 line=326 end_line=326 column=11 end_column=46}
71 {file_name_id=14 function_name_id=34 line=361 end_line=361 column=15 end_column=36}
72 {file_name_id=14 function_name_id=34 line=364 end_line=364 column=10 end_column=56}
73 {file_name_id=14 function_name_id=36 line=330 end_line=330 column=11 end_column=61}
74 {file_name_id=8 function_name_id=12 line=1199 end_line=1199 column=14 end_column=94}
75 {file_name_id=10 function_name_id=18 line=1850 end_line=1850 column=19 end_column=88}
76 {file_name_id=10 function_name_id=38 line=1957 end_line=1957 column=14 end_column=60}
77 {file_name_id=10 function_name_id=38 line=1960 end_line=1960 column=15 end_column=74}
78 {file_name_id=10 function_name_id=24 line=121 end_line=121 column=9 end_column=82}
79 {file_name_id=10 function_name_id=19 line=1761 end_line=1761 column=13 end_column=54}
80 {file_name_id=9 function_name_id=15 line=901 end_line=901 column=68 end_column=111}
81 {file_name_id=9 function_name_id=15 line=900 end_line=902 column=8 end_column=9}
82 {file_name_id=8 function_name_id=12 line=1125 end_line=1125 column=16 end_column=75}
83 {file_name_id=8 function_name_id=12 line=1143 end_line=1143 column=12 end_column=85}
84 {file_name_id=8 function_name_id=39 line=668 end_line=668 column=13 end_column=59}
85 {file_name_id=8 function_name_id=12 line=1174 end_line=1174 column=14 end_column=106}
86 {file_name_id=8 function_name_id=12 line=1200 end_line=1200 column=12 end_column=93}
87 {file_name_id=9 function_name_id=15 line=882 end_line=890 column=4 end_column=5}
88 {file_name_id=9 function_name_id=40 line=751 end_line=751 column=37 end_column=91}
89 {file_name_id=9 function_name_id=40 line=763 end_line=763 column=26 end_column=54}
90 {file_name_id=9 function_name_id=40 line=798 end_line=800 column=10 end_column=11}
91 {file_name_id=9 function_name_id=15 line=920 end_line=920 column=8 end_column=87}
92 {file_name_id=10 function_name_id=16 line=2161 end_line=2161 column=15 end_column=100}
93 {file_name_id=10 function_name_id=41 line=2062 end_line=2062 column=17 end_column=59}
94 {file_name_id=10 function_name_id=41 line=2069 end_line=2069 column=33 end_column=55}
95 {file_name_id=10 function_name_id=41 line=2069 end_line=2069 column=25 end_column=56}
96 {file_name_id=10 function_name_id=41 line=2063 end_line=2065 column=17 end_column=5}
97 {file_name_id=10 function_name_id=42 line=2064 end_line=2064 column=17 end_column=39}
98 {file_name_id=10 function_name_id=42 line=2064 end_line=2064 column=9 end_column=40}
99 {file_name_id=10 function_name_id=19 line=1771 end_line=1771 column=34 end_column=52}
100 {file_name_id=10 function_name_id=19 line=1771 end_line=1771 column=26 end_column=53}
101 {file_name_id=10 function_name_id=19 line=1778 end_line=1778 column=16 end_column=54}
102 {file_name_id=10 function_name_id=41 line=2070 end_line=2070 column=18 end_column=46}
103 {file_name_id=9 function_name_id=15 line=915 end_line=915 column=8 end_column=101}
104 {file_name_id=10 function_name_id=19 line=1776 end_line=1776 column=17 end_column=60}
105 {file_name_id=10 function_name_id=19 line=1780 end_line=1780 column=16 end_column=81}
106 {file_name_id=10 function_name_id=43 line=2010 end_line=2010 column=12 end_column=80}
107 {file_name_id=10 function_name_id=43 line=2012 end_line=2012 column=15 end_column=52}
108 {file_name_id=8 function_name_id=12 line=1147 end_line=1147 column=16 end_column=91}
109 {file_name_id=8 function_name_id=39 line=670 end_line=670 column=13 end_column=61}
110 {file_name_id=8 function_name_id=12 line=1201 end_line=1201 column=14 end_column=97}
111 {file_name_id=9 function_name_id=40 line=752 end_line=752 column=39 end_column=95}
112 {file_name_id=9 function_name_id=40 line=803 end_line=805 column=10 end_column=11}
113 {file_name_id=9 function_name_id=15 line=921 end_line=921 column=8 end_column=91}
114 {file_name_id=10 function_name_id=41 line=2070 end_line=2070 column=6 end_column=46}
115 {file_name_id=8 function_name_id=12 line=1243 end_line=1243 column=12 end_column=75}
116 {file_name_id=8 function_name_id=12 line=1247 end_line=1247 column=10 end_column=61}
117 {file_name_id=8 function_name_id=44 line=733 end_line=733 column=11 end_column=51}
118 {file_name_id=6 function_name_id=9 line=161 end_line=161 column=26 end_column=48}
119 {file_name_id=11 function_name_id=21 line=2419 end_line=2421 column=15 end_column=7}
120 {file_name_id=11 function_name_id=45 line=614 end_line=621 column=11 end_column=5}
121 {file_name_id=11 function_name_id=20 line=2596 end_line=2596 column=18 end_column=57}
122 {file_name_id=11 function_name_id=21 line=2423 end_line=2425 column=19 end_column=9}
123 {file_name_id=11 function_name_id=21 line=2440 end_line=2440 column=23 end_column=68}
124 {file_name_id=11 function_name_id=46 line=809 end_line=809 column=20 end_column=48}
125 {file_name_id=11 function_name_id=20 line=2597 end_line=2597 column=18 end_column=57}
126 {file_name_id=11 function_name_id=21 line=2432 end_line=2434 column=19 end_column=9}
127 {file_name_id=11 function_name_id=46 line=810 end_line=810 column=29 end_column=62}
128 {file_name_id=11 function_name_id=21 line=2443 end_line=2448 column=29 end_column=9}
129 {file_name_id=11 function_name_id=21 line=2458 end_line=2458 column=31 end_column=69}
130 {file_name_id=11 function_name_id=21 line=2199 end_line=2199 column=16 end_column=77}
131 {file_name_id=11 function_name_id=47 line=1931 end_line=1931 column=8 end_column=117}
132 {file_name_id=11 function_name_id=47 line=1940 end_line=1940 column=21 end_column=95}
133 {file_name_id=11 function_name_id=47 line=1932 end_line=1932 column=8 end_column=106}
134 {file_name_id=11 function_name_id=20 line=2586 end_line=2586 column=35 end_column=60}
135 {file_name_id=11 function_name_id=48 line=323 end_line=323 column=13 end_column=44}
136 {file_name_id=11 function_name_id=48 line=331 end_line=340 column=13 end_column=5}
137 {file_name_id=11 function_name_id=21 line=2186 end_line=2186 column=18 end_column=118}
138 {file_name_id=11 function_name_id=22 line=706 end_line=706 column=37 end_column=89}
139 {file_name_id=11 function_name_id=22 line=711 end_line=711 column=37 end_column=70}
140 {file_name_id=11 function_name_id=21 line=2459 end_line=2459 column=20 end_column=47}
141 {file_name_id=11 function_name_id=21 line=2461 end_line=2466 column=17 end_column=9}
142 {file_name_id=11 function_name_id=21 line=2466 end_line=2466 column=10 end_column=28}
143 {file_name_id=6 function_name_id=9 line=174 end_line=174 column=19 end_column=48}
144 {file_name_id=9 function_name_id=15 line=905 end_line=905 column=16 end_column=50}
145 {file_name_id=9 function_name_id=15 line=905 end_line=905 column=8 end_column=101}
146 {file_name_id=15 function_name_id=49 line=198 end_line=199 column=11 end_column=42}
147 {file_name_id=15 function_name_id=50 line=88 end_line=88 column=4 end_column=27}
148 {file_name_id=16 function_name_id=51 line=245 end_line=245 column=2 end_column=15}
149 {file_name_id=17 function_name_id=52 line=410 end_line=410 column=6 end_column=27}
150 {file_name_id=17 function_name_id=53 line=355 end_line=355 column=13 end_column=23}
151 {file_name_id=16 function_name_id=54 line=211 end_line=211 column=37 end_column=92}
152 {file_name_id=1 function_name_id=55 line=1280 end_line=1289 column=24 end_column=5}
153 {file_name_id=3 function_name_id=4 line=1289 end_line=1289 column=15 end_column=96}
154 {file_name_id=3 function_name_id=56 line=795 end_line=802 column=8 end_column=40}
155 {file_name_id=1 function_name_id=6 line=1366 end_line=1373 column=16 end_column=5}
156 {file_name_id=18 function_name_id=57 line=135 end_line=135 column=11 end_column=38}
157 {file_name_id=3 function_name_id=4 line=872 end_line=879 column=8 end_column=5}
158 {file_name_id=3 function_name_id=58 line=706 end_line=706 column=8 end_column=85}
159 {file_name_id=14 function_name_id=59 line=155 end_line=158 column=16 end_column=5}
160 {file_name_id=14 function_name_id=59 line=182 end_line=182 column=15 end_column=66}
161 {file_name_id=4 function_name_id=5 line=150 end_line=150 column=9 end_column=66}
162 {file_name_id=4 function_name_id=60 line=126 end_line=126 column=11 end_column=44}
163 {file_name_id=4 function_name_id=61 line=124 end_line=124 column=13 end_column=35}
164 {file_name_id=1 function_name_id=6 line=1363 end_line=1363 column=16 end_column=92}
165 {file_name_id=1 function_name_id=6 line=1382 end_line=1382 column=23 end_column=59}
166 {file_name_id=3 function_name_id=56 line=831 end_line=844 column=15 end_column=7}
167 {file_name_id=3 function_name_id=56 line=847 end_line=847 column=15 end_column=41}
168 {file_name_id=1 function_name_id=6 line=1362 end_line=1362 column=17 end_column=87}
169 {file_name_id=1 function_name_id=6 line=1381 end_line=1381 column=15 end_column=43}
170 {file_name_id=1 function_name_id=6 line=1385 end_line=1385 column=13 end_column=78}

StackFrames
1 {file_location_id=1 parent_frame_id=1}
2 {file_location_id=2 parent_frame_id=2}
3 {file_location_id=3 parent_frame_id=3}
4 {file_location_id=4 parent_frame_id=4}
5 {file_location_id=5 parent_frame_id=5}
6 {file_location_id=6 parent_frame_id=1}
7 {file_location_id=2 parent_frame_id=7}
8 {file_location_id=3 parent_frame_id=8}
9 {file_location_id=4 parent_frame_id=9}
10 {file_location_id=5 parent_frame_id=10}
11 {file_location_id=7 parent_frame_id=1}
12 {file_location_id=8 parent_frame_id=12}
13 {file_location_id=9 parent_frame_id=13}
14 {file_location_id=10 parent_frame_id=14}
15 {file_location_id=11 parent_frame_id=15}
16 {file_location_id=12 parent_frame_id=13}
17 {file_location_id=10 parent_frame_id=17}
18 {file_location_id=13 parent_frame_id=18}
19 {file_location_id=14 parent_frame_id=19}
20 {file_location_id=10 parent_frame_id=20}
21 {file_location_id=15 parent_frame_id=21}
22 {file_location_id=16 parent_frame_id=22}
23 {file_location_id=17 parent_frame_id=18}
24 {file_location_id=10 parent_frame_id=24}
25 {file_location_id=18 parent_frame_id=25}
26 {file_location_id=19 parent_frame_id=26}
27 {file_location_id=20 parent_frame_id=27}
28 {file_location_id=21 parent_frame_id=28}
29 {file_location_id=22 parent_frame_id=28}
30 {file_location_id=23 parent_frame_id=25}
31 {file_location_id=19 parent_frame_id=31}
32 {file_location_id=20 parent_frame_id=32}
33 {file_location_id=21 parent_frame_id=33}
34 {file_location_id=22 parent_frame_id=33}
35 {file_location_id=24 parent_frame_id=13}
36 {file_location_id=10 parent_frame_id=36}
37 {file_location_id=11 parent_frame_id=37}
38 {file_location_id=25 parent_frame_id=13}
39 {file_location_id=10 parent_frame_id=39}
40 {file_location_id=26 parent_frame_id=40}
41 {file_location_id=27 parent_frame_id=41}
42 {file_location_id=28 parent_frame_id=42}
43 {file_location_id=29 parent_frame_id=40}
44 {file_location_id=30 parent_frame_id=37}
45 {file_location_id=31 parent_frame_id=27}
46 {file_location_id=32 parent_frame_id=46}
47 {file_location_id=33 parent_frame_id=46}
48 {file_location_id=34 parent_frame_id=27}
49 {file_location_id=35 parent_frame_id=49}
50 {file_location_id=36 parent_frame_id=22}
51 {file_location_id=37 parent_frame_id=51}
52 {file_location_id=38 parent_frame_id=52}
53 {file_location_id=39 parent_frame_id=53}
54 {file_location_id=30 parent_frame_id=15}
55 {file_location_id=40 parent_frame_id=15}
56 {file_location_id=41 parent_frame_id=15}
57 {file_location_id=42 parent_frame_id=15}
58 {file_location_id=43 parent_frame_id=15}
59 {file_location_id=44 parent_frame_id=15}
60 {file_location_id=45 parent_frame_id=15}
61 {file_location_id=46 parent_frame_id=15}
62 {file_location_id=47 parent_frame_id=18}
63 {file_location_id=48 parent_frame_id=63}
64 {file_location_id=49 parent_frame_id=64}
65 {file_location_id=50 parent_frame_id=18}
66 {file_location_id=51 parent_frame_id=66}
67 {file_location_id=10 parent_frame_id=67}
68 {file_location_id=52 parent_frame_id=68}
69 {file_location_id=53 parent_frame_id=68}
70 {file_location_id=54 parent_frame_id=70}
71 {file_location_id=55 parent_frame_id=18}
72 {file_location_id=56 parent_frame_id=72}
73 {file_location_id=10 parent_frame_id=73}
74 {file_location_id=57 parent_frame_id=74}
75 {file_location_id=58 parent_frame_id=74}
76 {file_location_id=59 parent_frame_id=74}
77 {file_location_id=60 parent_frame_id=77}
78 {file_location_id=61 parent_frame_id=77}
79 {file_location_id=62 parent_frame_id=77}
80 {file_location_id=63 parent_frame_id=74}
81 {file_location_id=64 parent_frame_id=74}
82 {file_location_id=65 parent_frame_id=74}
83 {file_location_id=66 parent_frame_id=83}
84 {file_location_id=67 parent_frame_id=83}
85 {file_location_id=68 parent_frame_id=85}
86 {file_location_id=69 parent_frame_id=85}
87 {file_location_id=70 parent_frame_id=85}
88 {file_location_id=71 parent_frame_id=74}
89 {file_location_id=72 parent_frame_id=74}
90 {file_location_id=73 parent_frame_id=83}
91 {file_location_id=74 parent_frame_id=18}
92 {file_location_id=48 parent_frame_id=92}
93 {file_location_id=49 parent_frame_id=93}
94 {file_location_id=75 parent_frame_id=27}
95 {file_location_id=76 parent_frame_id=95}
96 {file_location_id=77 parent_frame_id=95}
97 {file_location_id=78 parent_frame_id=49}
98 {file_location_id=79 parent_frame_id=28}
99 {file_location_id=80 parent_frame_id=22}
100 {file_location_id=81 parent_frame_id=22}
101 {file_location_id=31 parent_frame_id=32}
102 {file_location_id=32 parent_frame_id=102}
103 {file_location_id=33 parent_frame_id=102}
104 {file_location_id=34 parent_frame_id=32}
105 {file_location_id=35 parent_frame_id=105}
106 {file_location_id=82 parent_frame_id=18}
107 {file_location_id=48 parent_frame_id=107}
108 {file_location_id=49 parent_frame_id=108}
109 {file_location_id=83 parent_frame_id=18}
110 {file_location_id=84 parent_frame_id=110}
111 {file_location_id=10 parent_frame_id=111}
112 {file_location_id=52 parent_frame_id=112}
113 {file_location_id=53 parent_frame_id=112}
114 {file_location_id=54 parent_frame_id=114}
115 {file_location_id=85 parent_frame_id=18}
116 {file_location_id=56 parent_frame_id=116}
117 {file_location_id=10 parent_frame_id=117}
118 {file_location_id=57 parent_frame_id=118}
119 {file_location_id=58 parent_frame_id=118}
120 {file_location_id=59 parent_frame_id=118}
121 {file_location_id=60 parent_frame_id=121}
122 {file_location_id=61 parent_frame_id=121}
123 {file_location_id=62 parent_frame_id=121}
124 {file_location_id=63 parent_frame_id=118}
125 {file_location_id=64 parent_frame_id=118}
126 {file_location_id=65 parent_frame_id=118}
127 {file_location_id=66 parent_frame_id=127}
128 {file_location_id=67 parent_frame_id=127}
129 {file_location_id=68 parent_frame_id=129}
130 {file_location_id=69 parent_frame_id=129}
131 {file_location_id=70 parent_frame_id=129}
132 {file_location_id=71 parent_frame_id=118}
133 {file_location_id=72 parent_frame_id=118}
134 {file_location_id=73 parent_frame_id=127}
135 {file_location_id=86 parent_frame_id=18}
136 {file_location_id=48 parent_frame_id=136}
137 {file_location_id=49 parent_frame_id=137}
138 {file_location_id=87 parent_frame_id=22}
139 {file_location_id=88 parent_frame_id=139}
140 {file_location_id=89 parent_frame_id=139}
141 {file_location_id=90 parent_frame_id=139}
142 {file_location_id=91 parent_frame_id=22}
143 {file_location_id=37 parent_frame_id=143}
144 {file_location_id=38 parent_frame_id=144}
145 {file_location_id=39 parent_frame_id=145}
146 {file_location_id=75 parent_frame_id=32}
147 {file_location_id=76 parent_frame_id=147}
148 {file_location_id=77 parent_frame_id=147}
149 {file_location_id=78 parent_frame_id=105}
150 {file_location_id=79 parent_frame_id=33}
151 {file_location_id=92 parent_frame_id=25}
152 {file_location_id=93 parent_frame_id=152}
153 {file_location_id=94 parent_frame_id=152}
154 {file_location_id=95 parent_frame_id=152}
155 {file_location_id=96 parent_frame_id=152}
156 {file_location_id=97 parent_frame_id=156}
157 {file_location_id=98 parent_frame_id=156}
158 {file_location_id=99 parent_frame_id=28}
159 {file_location_id=100 parent_frame_id=28}
160 {file_location_id=101 parent_frame_id=28}
161 {file_location_id=99 parent_frame_id=33}
162 {file_location_id=100 parent_frame_id=33}
163 {file_location_id=101 parent_frame_id=33}
164 {file_location_id=102 parent_frame_id=152}
165 {file_location_id=103 parent_frame_id=22}
166 {file_location_id=37 parent_frame_id=166}
167 {file_location_id=38 parent_frame_id=167}
168 {file_location_id=39 parent_frame_id=168}
169 {file_location_id=104 parent_frame_id=28}
170 {file_location_id=105 parent_frame_id=28}
171 {file_location_id=106 parent_frame_id=171}
172 {file_location_id=107 parent_frame_id=171}
173 {file_location_id=108 parent_frame_id=18}
174 {file_location_id=109 parent_frame_id=174}
175 {file_location_id=10 parent_frame_id=175}
176 {file_location_id=52 parent_frame_id=176}
177 {file_location_id=53 parent_frame_id=176}
178 {file_location_id=54 parent_frame_id=178}
179 {file_location_id=110 parent_frame_id=18}
180 {file_location_id=48 parent_frame_id=180}
181 {file_location_id=49 parent_frame_id=181}
182 {file_location_id=111 parent_frame_id=139}
183 {file_location_id=112 parent_frame_id=139}
184 {file_location_id=113 parent_frame_id=22}
185 {file_location_id=37 parent_frame_id=185}
186 {file_location_id=38 parent_frame_id=186}
187 {file_location_id=39 parent_frame_id=187}
188 {file_location_id=104 parent_frame_id=33}
189 {file_location_id=105 parent_frame_id=33}
190 {file_location_id=106 parent_frame_id=190}
191 {file_location_id=107 parent_frame_id=190}
192 {file_location_id=114 parent_frame_id=152}
193 {file_location_id=115 parent_frame_id=18}
194 {file_location_id=48 parent_frame_id=194}
195 {file_location_id=49 parent_frame_id=195}
196 {file_location_id=116 parent_frame_id=18}
197 {file_location_id=117 parent_frame_id=197}
198 {file_location_id=10 parent_frame_id=198}
199 {file_location_id=52 parent_frame_id=199}
200 {file_location_id=53 parent_frame_id=199}
201 {file_location_id=54 parent_frame_id=201}
202 {file_location_id=118 parent_frame_id=13}
203 {file_location_id=40 parent_frame_id=37}
204 {file_location_id=41 parent_frame_id=37}
205 {file_location_id=42 parent_frame_id=37}
206 {file_location_id=43 parent_frame_id=37}
207 {file_location_id=44 parent_frame_id=37}
208 {file_location_id=45 parent_frame_id=37}
209 {file_location_id=46 parent_frame_id=37}
210 {file_location_id=119 parent_frame_id=41}
211 {file_location_id=120 parent_frame_id=211}
212 {file_location_id=48 parent_frame_id=212}
213 {file_location_id=49 parent_frame_id=213}
214 {file_location_id=121 parent_frame_id=40}
215 {file_location_id=122 parent_frame_id=41}
216 {file_location_id=123 parent_frame_id=41}
217 {file_location_id=124 parent_frame_id=217}
218 {file_location_id=125 parent_frame_id=40}
219 {file_location_id=126 parent_frame_id=41}
220 {file_location_id=127 parent_frame_id=217}
221 {file_location_id=128 parent_frame_id=41}
222 {file_location_id=129 parent_frame_id=41}
223 {file_location_id=130 parent_frame_id=41}
224 {file_location_id=131 parent_frame_id=224}
225 {file_location_id=120 parent_frame_id=225}
226 {file_location_id=48 parent_frame_id=226}
227 {file_location_id=49 parent_frame_id=227}
228 {file_location_id=132 parent_frame_id=224}
229 {file_location_id=133 parent_frame_id=224}
230 {file_location_id=120 parent_frame_id=230}
231 {file_location_id=48 parent_frame_id=231}
232 {file_location_id=49 parent_frame_id=232}
233 {file_location_id=134 parent_frame_id=40}
234 {file_location_id=10 parent_frame_id=234}
235 {file_location_id=135 parent_frame_id=235}
236 {file_location_id=136 parent_frame_id=235}
237 {file_location_id=54 parent_frame_id=237}
238 {file_location_id=137 parent_frame_id=41}
239 {file_location_id=120 parent_frame_id=239}
240 {file_location_id=48 parent_frame_id=240}
241 {file_location_id=49 parent_frame_id=241}
242 {file_location_id=138 parent_frame_id=42}
243 {file_location_id=139 parent_frame_id=42}
244 {file_location_id=140 parent_frame_id=41}
245 {file_location_id=141 parent_frame_id=41}
246 {file_location_id=142 parent_frame_id=41}
247 {file_location_id=143 parent_frame_id=13}
248 {file_location_id=144 parent_frame_id=22}
249 {file_location_id=145 parent_frame_id=22}
250 {file_location_id=146 parent_frame_id=1}
251 {file_location_id=147 parent_frame_id=251}
252 {file_location_id=148 parent_frame_id=252}
253 {file_location_id=149 parent_frame_id=253}
254 {file_location_id=150 parent_frame_id=254}
255 {file_location_id=151 parent_frame_id=255}
256 {file_location_id=152 parent_frame_id=256}
257 {file_location_id=6 parent_frame_id=257}
258 {file_location_id=2 parent_frame_id=258}
259 {file_location_id=3 parent_frame_id=259}
260 {file_location_id=4 parent_frame_id=260}
261 {file_location_id=5 parent_frame_id=261}
262 {file_location_id=6 parent_frame_id=262}
263 {file_location_id=2 parent_frame_id=263}
264 {file_location_id=3 parent_frame_id=264}
265 {file_location_id=4 parent_frame_id=265}
266 {file_location_id=5 parent_frame_id=266}
267 {file_location_id=6 parent_frame_id=267}
268 {file_location_id=2 parent_frame_id=268}
269 {file_location_id=3 parent_frame_id=269}
270 {file_location_id=4 parent_frame_id=270}
271 {file_location_id=5 parent_frame_id=271}
272 {file_location_id=153 parent_frame_id=260}
273 {file_location_id=154 parent_frame_id=273}
274 {file_location_id=8 parent_frame_id=274}
275 {file_location_id=11 parent_frame_id=275}
276 {file_location_id=155 parent_frame_id=1}
277 {file_location_id=156 parent_frame_id=277}
278 {file_location_id=155 parent_frame_id=278}
279 {file_location_id=156 parent_frame_id=279}
280 {file_location_id=157 parent_frame_id=260}
281 {file_location_id=158 parent_frame_id=281}
282 {file_location_id=8 parent_frame_id=282}
283 {file_location_id=159 parent_frame_id=283}
284 {file_location_id=160 parent_frame_id=283}
285 {file_location_id=161 parent_frame_id=261}
286 {file_location_id=162 parent_frame_id=286}
287 {file_location_id=163 parent_frame_id=287}
288 {file_location_id=164 parent_frame_id=257}
289 {file_location_id=165 parent_frame_id=257}
290 {file_location_id=30 parent_frame_id=275}
291 {file_location_id=40 parent_frame_id=275}
292 {file_location_id=41 parent_frame_id=275}
293 {file_location_id=42 parent_frame_id=275}
294 {file_location_id=43 parent_frame_id=275}
295 {file_location_id=44 parent_frame_id=275}
296 {file_location_id=45 parent_frame_id=275}
297 {file_location_id=46 parent_frame_id=275}
298 {file_location_id=166 parent_frame_id=273}
299 {file_location_id=8 parent_frame_id=299}
300 {file_location_id=52 parent_frame_id=300}
301 {file_location_id=53 parent_frame_id=300}
302 {file_location_id=54 parent_frame_id=302}
303 {file_location_id=167 parent_frame_id=273}
304 {file_location_id=168 parent_frame_id=257}
305 {file_location_id=169 parent_frame_id=257}
306 {file_location_id=155 parent_frame_id=257}
307 {file_location_id=156 parent_frame_id=307}
308 {file_location_id=170 parent_frame_id=257}


%dynamic_index_in_dim.1 (Arg_0.1: f32[32,4096,8], Arg_1.1: s32[]) -> f32[4096,8] {
  %Arg_0.1 = f32[32,4096,8]{2,1,0} parameter(0)
  %Arg_1.1 = s32[] parameter(1)
  %constant.16 = s32[] constant(0)
  %dynamic_slice.1 = f32[1,4096,8]{2,1,0} dynamic-slice(%Arg_0.1, %Arg_1.1, %constant.16, %constant.16), dynamic_slice_sizes={1,4096,8}, metadata={op_name="dynamic_slice" stack_frame_id=5}
  ROOT %squeeze.1 = f32[4096,8]{1,0} reshape(%dynamic_slice.1), metadata={op_name="squeeze" stack_frame_id=5}
}

%dynamic_index_in_dim_0.2 (Arg_0.3: f32[32,8,4096,14336], Arg_1.3: s32[]) -> f32[8,4096,14336] {
  %Arg_0.3 = f32[32,8,4096,14336]{3,2,1,0} parameter(0)
  %Arg_1.3 = s32[] parameter(1)
  %constant.18 = s32[] constant(0)
  %dynamic_slice.3 = f32[1,8,4096,14336]{3,2,1,0} dynamic-slice(%Arg_0.3, %Arg_1.3, %constant.18, %constant.18, %constant.18), dynamic_slice_sizes={1,8,4096,14336}, metadata={op_name="dynamic_slice" stack_frame_id=5}
  ROOT %squeeze.3 = f32[8,4096,14336]{2,1,0} reshape(%dynamic_slice.3), metadata={op_name="squeeze" stack_frame_id=5}
}

%dynamic_index_in_dim_1.3 (Arg_0.5: f32[32,8,14336,4096], Arg_1.5: s32[]) -> f32[8,14336,4096] {
  %Arg_0.5 = f32[32,8,14336,4096]{3,2,1,0} parameter(0)
  %Arg_1.5 = s32[] parameter(1)
  %constant.20 = s32[] constant(0)
  %dynamic_slice.5 = f32[1,8,14336,4096]{3,2,1,0} dynamic-slice(%Arg_0.5, %Arg_1.5, %constant.20, %constant.20, %constant.20), dynamic_slice_sizes={1,8,14336,4096}, metadata={op_name="dynamic_slice" stack_frame_id=5}
  ROOT %squeeze.5 = f32[8,14336,4096]{2,1,0} reshape(%dynamic_slice.5), metadata={op_name="squeeze" stack_frame_id=5}
}

%dynamic_index_in_dim_2.4 (Arg_0.7: f32[32,4096], Arg_1.7: s32[]) -> f32[4096] {
  %Arg_0.7 = f32[32,4096]{1,0} parameter(0)
  %Arg_1.7 = s32[] parameter(1)
  %constant.22 = s32[] constant(0)
  %dynamic_slice.7 = f32[1,4096]{1,0} dynamic-slice(%Arg_0.7, %Arg_1.7, %constant.22), dynamic_slice_sizes={1,4096}, metadata={op_name="dynamic_slice" stack_frame_id=5}
  ROOT %squeeze.7 = f32[4096]{0} reshape(%dynamic_slice.7), metadata={op_name="squeeze" stack_frame_id=5}
}

%dynamic_index_in_dim_3.5 (Arg_0.9: f32[32,4096,8,128], Arg_1.9: s32[]) -> f32[4096,8,128] {
  %Arg_0.9 = f32[32,4096,8,128]{3,2,1,0} parameter(0)
  %Arg_1.9 = s32[] parameter(1)
  %constant.24 = s32[] constant(0)
  %dynamic_slice.9 = f32[1,4096,8,128]{3,2,1,0} dynamic-slice(%Arg_0.9, %Arg_1.9, %constant.24, %constant.24, %constant.24), dynamic_slice_sizes={1,4096,8,128}, metadata={op_name="dynamic_slice" stack_frame_id=5}
  ROOT %squeeze.9 = f32[4096,8,128]{2,1,0} reshape(%dynamic_slice.9), metadata={op_name="squeeze" stack_frame_id=5}
}

%dynamic_index_in_dim_4.6 (Arg_0.11: f32[32,32,128,4096], Arg_1.11: s32[]) -> f32[32,128,4096] {
  %Arg_0.11 = f32[32,32,128,4096]{3,2,1,0} parameter(0)
  %Arg_1.11 = s32[] parameter(1)
  %constant.26 = s32[] constant(0)
  %dynamic_slice.11 = f32[1,32,128,4096]{3,2,1,0} dynamic-slice(%Arg_0.11, %Arg_1.11, %constant.26, %constant.26, %constant.26), dynamic_slice_sizes={1,32,128,4096}, metadata={op_name="dynamic_slice" stack_frame_id=5}
  ROOT %squeeze.11 = f32[32,128,4096]{2,1,0} reshape(%dynamic_slice.11), metadata={op_name="squeeze" stack_frame_id=5}
}

%dynamic_index_in_dim_5.7 (Arg_0.13: f32[32,4096,32,128], Arg_1.13: s32[]) -> f32[4096,32,128] {
  %Arg_0.13 = f32[32,4096,32,128]{3,2,1,0} parameter(0)
  %Arg_1.13 = s32[] parameter(1)
  %constant.28 = s32[] constant(0)
  %dynamic_slice.13 = f32[1,4096,32,128]{3,2,1,0} dynamic-slice(%Arg_0.13, %Arg_1.13, %constant.28, %constant.28, %constant.28), dynamic_slice_sizes={1,4096,32,128}, metadata={op_name="dynamic_slice" stack_frame_id=5}
  ROOT %squeeze.13 = f32[4096,32,128]{2,1,0} reshape(%dynamic_slice.13), metadata={op_name="squeeze" stack_frame_id=5}
}

%dynamic_index_in_dim_6.8 (Arg_0.15: s32[32,1], Arg_1.15: s32[]) -> s32[1] {
  %Arg_0.15 = s32[32,1]{1,0} parameter(0)
  %Arg_1.15 = s32[] parameter(1)
  %constant.30 = s32[] constant(0)
  %dynamic_slice.15 = s32[1,1]{1,0} dynamic-slice(%Arg_0.15, %Arg_1.15, %constant.30), dynamic_slice_sizes={1,1}, metadata={op_name="dynamic_slice" stack_frame_id=10}
  ROOT %squeeze.15 = s32[1]{0} reshape(%dynamic_slice.15), metadata={op_name="squeeze" stack_frame_id=10}
}

%dynamic_index_in_dim_7.9 (Arg_0.17: s32[32,1,1984], Arg_1.17: s32[]) -> s32[1,1984] {
  %Arg_0.17 = s32[32,1,1984]{2,1,0} parameter(0)
  %Arg_1.17 = s32[] parameter(1)
  %constant.32 = s32[] constant(0)
  %dynamic_slice.17 = s32[1,1,1984]{2,1,0} dynamic-slice(%Arg_0.17, %Arg_1.17, %constant.32, %constant.32), dynamic_slice_sizes={1,1,1984}, metadata={op_name="dynamic_slice" stack_frame_id=10}
  ROOT %squeeze.17 = s32[1,1984]{1,0} reshape(%dynamic_slice.17), metadata={op_name="squeeze" stack_frame_id=10}
}

%dynamic_index_in_dim_8.10 (Arg_0.19: s32[32,1,64], Arg_1.19: s32[]) -> s32[1,64] {
  %Arg_0.19 = s32[32,1,64]{2,1,0} parameter(0)
  %Arg_1.19 = s32[] parameter(1)
  %constant.34 = s32[] constant(0)
  %dynamic_slice.19 = s32[1,1,64]{2,1,0} dynamic-slice(%Arg_0.19, %Arg_1.19, %constant.34, %constant.34), dynamic_slice_sizes={1,1,64}, metadata={op_name="dynamic_slice" stack_frame_id=10}
  ROOT %squeeze.19 = s32[1,64]{1,0} reshape(%dynamic_slice.19), metadata={op_name="squeeze" stack_frame_id=10}
}

%dynamic_index_in_dim_9.11 (Arg_0.21: bf16[32,1984,8,1,128], Arg_1.21: s32[]) -> bf16[1984,8,1,128] {
  %Arg_0.21 = bf16[32,1984,8,1,128]{4,3,2,1,0} parameter(0)
  %Arg_1.21 = s32[] parameter(1)
  %constant.36 = s32[] constant(0)
  %dynamic_slice.21 = bf16[1,1984,8,1,128]{4,3,2,1,0} dynamic-slice(%Arg_0.21, %Arg_1.21, %constant.36, %constant.36, %constant.36, /*index=5*/%constant.36), dynamic_slice_sizes={1,1984,8,1,128}, metadata={op_name="dynamic_slice" stack_frame_id=10}
  ROOT %squeeze.21 = bf16[1984,8,1,128]{3,2,1,0} reshape(%dynamic_slice.21), metadata={op_name="squeeze" stack_frame_id=10}
}

%dynamic_index_in_dim_10.12 (Arg_0.23: bf16[32,64,8,1,128], Arg_1.23: s32[]) -> bf16[64,8,1,128] {
  %Arg_0.23 = bf16[32,64,8,1,128]{4,3,2,1,0} parameter(0)
  %Arg_1.23 = s32[] parameter(1)
  %constant.38 = s32[] constant(0)
  %dynamic_slice.23 = bf16[1,64,8,1,128]{4,3,2,1,0} dynamic-slice(%Arg_0.23, %Arg_1.23, %constant.38, %constant.38, %constant.38, /*index=5*/%constant.38), dynamic_slice_sizes={1,64,8,1,128}, metadata={op_name="dynamic_slice" stack_frame_id=10}
  ROOT %squeeze.23 = bf16[64,8,1,128]{3,2,1,0} reshape(%dynamic_slice.23), metadata={op_name="squeeze" stack_frame_id=10}
}

%_where_12.19 (Arg_0.34: pred[1,1,1,1,64], Arg_1.34: f32[], Arg_2.8: f32[]) -> f32[1,1,1,1,64] {
  %Arg_0.34 = pred[1,1,1,1,64]{4,3,2,1,0} parameter(0)
  %Arg_1.34 = f32[] parameter(1)
  %broadcast_in_dim.11 = f32[1,1,1,1,64]{4,3,2,1,0} broadcast(%Arg_1.34), dimensions={}, metadata={op_name="broadcast_in_dim"}
  %Arg_2.8 = f32[] parameter(2)
  %broadcast_in_dim.12 = f32[1,1,1,1,64]{4,3,2,1,0} broadcast(%Arg_2.8), dimensions={}, metadata={op_name="broadcast_in_dim"}
  ROOT %select_n.10 = f32[1,1,1,1,64]{4,3,2,1,0} select(%Arg_0.34, %broadcast_in_dim.11, %broadcast_in_dim.12), metadata={op_name="select_n"}
}

%region_1.13 (reduce_sum.3: f32[], reduce_sum.4: f32[]) -> f32[] {
  %reduce_sum.3 = f32[] parameter(0), metadata={op_name="reduce_sum"}
  %reduce_sum.4 = f32[] parameter(1), metadata={op_name="reduce_sum"}
  ROOT %reduce_sum.5 = f32[] add(%reduce_sum.3, %reduce_sum.4), metadata={op_name="checkpoint/layers/reduce_sum" stack_frame_id=15}
}

%_where_13.20 (Arg_0.36: pred[1,1,1,1,64], Arg_1.36: bf16[1,8,4,1,64], Arg_2.10: f32[]) -> bf16[1,8,4,1,64] {
  %Arg_0.36 = pred[1,1,1,1,64]{4,3,2,1,0} parameter(0)
  %broadcast_in_dim.17 = pred[1,1,1,1,64]{4,3,2,1,0} broadcast(%Arg_0.36), dimensions={0,1,2,3,4}, metadata={op_name="broadcast_in_dim"}
  %broadcast_in_dim.18 = pred[1,1,64]{2,1,0} reshape(%broadcast_in_dim.17), metadata={op_name="broadcast_in_dim"}
  %broadcast_in_dim.19 = pred[1,8,4,1,64]{4,3,2,1,0} broadcast(%broadcast_in_dim.18), dimensions={0,3,4}, metadata={op_name="broadcast_in_dim"}
  %Arg_1.36 = bf16[1,8,4,1,64]{4,3,2,1,0} parameter(1)
  %Arg_2.10 = f32[] parameter(2)
  %convert_element_type.16 = bf16[] convert(%Arg_2.10), metadata={op_name="convert_element_type"}
  %broadcast_in_dim.20 = bf16[1,8,4,1,64]{4,3,2,1,0} broadcast(%convert_element_type.16), dimensions={}, metadata={op_name="broadcast_in_dim"}
  ROOT %select_n.12 = bf16[1,8,4,1,64]{4,3,2,1,0} select(%broadcast_in_dim.19, %Arg_1.36, %broadcast_in_dim.20), metadata={op_name="select_n"}
}

%region_3.21 (reduce_max.3: bf16[], reduce_max.4: bf16[]) -> bf16[] {
  %reduce_max.3 = bf16[] parameter(0), metadata={op_name="reduce_max"}
  %reduce_max.4 = bf16[] parameter(1), metadata={op_name="reduce_max"}
  ROOT %reduce_max.5 = bf16[] maximum(%reduce_max.3, %reduce_max.4), metadata={op_name="checkpoint/layers/reduce_max" stack_frame_id=28}
}

%dynamic_update_index_in_dim_11.15 (Arg_0.28: s32[1,1984], Arg_1.28: s32[1,1], Arg_2.4: s32[]) -> s32[1,1984] {
  %Arg_0.28 = s32[1,1984]{1,0} parameter(0)
  %Arg_1.28 = s32[1,1]{1,0} parameter(1)
  %constant.70 = s32[] constant(0)
  %Arg_2.4 = s32[] parameter(2)
  %lt.4 = pred[] compare(%Arg_2.4, %constant.70), direction=LT, metadata={op_name="lt"}
  %constant.69 = s32[] constant(1984)
  %add.7 = s32[] add(%Arg_2.4, %constant.69), metadata={op_name="add"}
  %select_n.4 = s32[] select(%lt.4, %add.7, %Arg_2.4), metadata={op_name="select_n"}
  ROOT %dynamic_update_slice.3 = s32[1,1984]{1,0} dynamic-update-slice(%Arg_0.28, %Arg_1.28, %constant.70, %select_n.4), metadata={op_name="dynamic_update_slice"}
}

%_where_14.23 (Arg_0.38: pred[1,1,1,1,1984], Arg_1.38: f32[], Arg_2.12: f32[]) -> f32[1,1,1,1,1984] {
  %Arg_0.38 = pred[1,1,1,1,1984]{4,3,2,1,0} parameter(0)
  %Arg_1.38 = f32[] parameter(1)
  %broadcast_in_dim.27 = f32[1,1,1,1,1984]{4,3,2,1,0} broadcast(%Arg_1.38), dimensions={}, metadata={op_name="broadcast_in_dim"}
  %Arg_2.12 = f32[] parameter(2)
  %broadcast_in_dim.28 = f32[1,1,1,1,1984]{4,3,2,1,0} broadcast(%Arg_2.12), dimensions={}, metadata={op_name="broadcast_in_dim"}
  ROOT %select_n.14 = f32[1,1,1,1,1984]{4,3,2,1,0} select(%Arg_0.38, %broadcast_in_dim.27, %broadcast_in_dim.28), metadata={op_name="select_n"}
}

%dynamic_update_index_in_dim.14 (Arg_0.26: bf16[1984,8,1,128], Arg_1.26: bf16[1,8,1,128], Arg_2.2: s32[]) -> bf16[1984,8,1,128] {
  %Arg_0.26 = bf16[1984,8,1,128]{3,2,1,0} parameter(0)
  %Arg_1.26 = bf16[1,8,1,128]{3,2,1,0} parameter(1)
  %Arg_2.2 = s32[] parameter(2)
  %constant.66 = s32[] constant(0)
  %lt.2 = pred[] compare(%Arg_2.2, %constant.66), direction=LT, metadata={op_name="lt"}
  %constant.65 = s32[] constant(1984)
  %add.5 = s32[] add(%Arg_2.2, %constant.65), metadata={op_name="add"}
  %select_n.2 = s32[] select(%lt.2, %add.5, %Arg_2.2), metadata={op_name="select_n"}
  ROOT %dynamic_update_slice.1 = bf16[1984,8,1,128]{3,2,1,0} dynamic-update-slice(%Arg_0.26, %Arg_1.26, %select_n.2, %constant.66, %constant.66, /*index=5*/%constant.66), metadata={op_name="dynamic_update_slice"}
}

%_where_15.24 (Arg_0.40: pred[1,1,1,1,1984], Arg_1.40: bf16[1,8,4,1,1984], Arg_2.14: f32[]) -> bf16[1,8,4,1,1984] {
  %Arg_0.40 = pred[1,1,1,1,1984]{4,3,2,1,0} parameter(0)
  %broadcast_in_dim.33 = pred[1,1,1,1,1984]{4,3,2,1,0} broadcast(%Arg_0.40), dimensions={0,1,2,3,4}, metadata={op_name="broadcast_in_dim"}
  %broadcast_in_dim.34 = pred[1,1,1984]{2,1,0} reshape(%broadcast_in_dim.33), metadata={op_name="broadcast_in_dim"}
  %broadcast_in_dim.35 = pred[1,8,4,1,1984]{4,3,2,1,0} broadcast(%broadcast_in_dim.34), dimensions={0,3,4}, metadata={op_name="broadcast_in_dim"}
  %Arg_1.40 = bf16[1,8,4,1,1984]{4,3,2,1,0} parameter(1)
  %Arg_2.14 = f32[] parameter(2)
  %convert_element_type.20 = bf16[] convert(%Arg_2.14), metadata={op_name="convert_element_type"}
  %broadcast_in_dim.36 = bf16[1,8,4,1,1984]{4,3,2,1,0} broadcast(%convert_element_type.20), dimensions={}, metadata={op_name="broadcast_in_dim"}
  ROOT %select_n.16 = bf16[1,8,4,1,1984]{4,3,2,1,0} select(%broadcast_in_dim.35, %Arg_1.40, %broadcast_in_dim.36), metadata={op_name="select_n"}
}

%region_5.25 (reduce_max.10: bf16[], reduce_max.11: bf16[]) -> bf16[] {
  %reduce_max.10 = bf16[] parameter(0), metadata={op_name="reduce_max"}
  %reduce_max.11 = bf16[] parameter(1), metadata={op_name="reduce_max"}
  ROOT %reduce_max.12 = bf16[] maximum(%reduce_max.10, %reduce_max.11), metadata={op_name="checkpoint/layers/reduce_max" stack_frame_id=33}
}

%region_4.22 (reduce_sum.10: f32[], reduce_sum.11: f32[]) -> f32[] {
  %reduce_sum.10 = f32[] parameter(0), metadata={op_name="reduce_sum"}
  %reduce_sum.11 = f32[] parameter(1), metadata={op_name="reduce_sum"}
  ROOT %reduce_sum.12 = f32[] add(%reduce_sum.10, %reduce_sum.11), metadata={op_name="checkpoint/layers/reduce_sum" stack_frame_id=29}
}

%region_6.26 (reduce_sum.17: f32[], reduce_sum.18: f32[]) -> f32[] {
  %reduce_sum.17 = f32[] parameter(0), metadata={op_name="reduce_sum"}
  %reduce_sum.18 = f32[] parameter(1), metadata={op_name="reduce_sum"}
  ROOT %reduce_sum.19 = f32[] add(%reduce_sum.17, %reduce_sum.18), metadata={op_name="checkpoint/layers/reduce_sum" stack_frame_id=34}
}

%region_7.27 (reduce_sum.24: f32[], reduce_sum.25: f32[]) -> f32[] {
  %reduce_sum.24 = f32[] parameter(0), metadata={op_name="reduce_sum"}
  %reduce_sum.25 = f32[] parameter(1), metadata={op_name="reduce_sum"}
  ROOT %reduce_sum.26 = f32[] add(%reduce_sum.24, %reduce_sum.25), metadata={op_name="checkpoint/layers/reduce_sum" stack_frame_id=37}
}

%silu.31 (Arg_0.42: bf16[1,1,8,14336]) -> bf16[1,1,8,14336] {
  %Arg_0.42 = bf16[1,1,8,14336]{3,2,1,0} parameter(0)
  %constant.78 = bf16[] constant(1)
  %broadcast.10 = bf16[1,1,8,14336]{3,2,1,0} broadcast(%constant.78), dimensions={}
  %neg.3 = bf16[1,1,8,14336]{3,2,1,0} negate(%Arg_0.42), metadata={op_name="neg"}
  %exp.8 = bf16[1,1,8,14336]{3,2,1,0} exponential(%neg.3), metadata={op_name="exp"}
  %add.23 = bf16[1,1,8,14336]{3,2,1,0} add(%exp.8, %broadcast.10), metadata={op_name="add"}
  %div.19 = bf16[1,1,8,14336]{3,2,1,0} divide(%broadcast.10, %add.23), metadata={op_name="div"}
  ROOT %mul.37 = bf16[1,1,8,14336]{3,2,1,0} multiply(%Arg_0.42, %div.19), metadata={op_name="mul"}
}

%region_8.28 (reduce_max.17: f32[], reduce_max.18: f32[]) -> f32[] {
  %reduce_max.17 = f32[] parameter(0), metadata={op_name="reduce_max"}
  %reduce_max.18 = f32[] parameter(1), metadata={op_name="reduce_max"}
  ROOT %reduce_max.19 = f32[] maximum(%reduce_max.17, %reduce_max.18), metadata={op_name="checkpoint/layers/reduce_max" stack_frame_id=42}
}

%region_9.29 (reduce_sum.31: f32[], reduce_sum.32: f32[]) -> f32[] {
  %reduce_sum.31 = f32[] parameter(0), metadata={op_name="reduce_sum"}
  %reduce_sum.32 = f32[] parameter(1), metadata={op_name="reduce_sum"}
  ROOT %reduce_sum.33 = f32[] add(%reduce_sum.31, %reduce_sum.32), metadata={op_name="checkpoint/layers/reduce_sum" stack_frame_id=42}
}

%region_10.30 (scatter.2: bf16[], scatter.3: bf16[]) -> bf16[] {
  %scatter.2 = bf16[] parameter(0), metadata={op_name="scatter"}
  ROOT %scatter.3 = bf16[] parameter(1), metadata={op_name="scatter"}
}

%_where.16 (Arg_0.31: pred[], Arg_1.31: s32[], Arg_2.6: s32[]) -> s32[] {
  %Arg_0.31 = pred[] parameter(0)
  %Arg_1.31 = s32[] parameter(1)
  %Arg_2.6 = s32[] parameter(2)
  ROOT %select_n.6 = s32[] select(%Arg_0.31, %Arg_1.31, %Arg_2.6), metadata={op_name="select_n"}
}

%remainder.17 (Arg_0.32: s32[1], Arg_1.32: s32[]) -> s32[1] {
  %Arg_0.32 = s32[1]{0} parameter(0)
  %Arg_1.32 = s32[] parameter(1)
  %constant.76 = s32[] constant(0)
  %eq.3 = pred[] compare(%Arg_1.32, %constant.76), direction=EQ, metadata={op_name="eq"}
  %constant.75 = s32[] constant(1)
  %jit__where_.1 = s32[] call(%eq.3, %constant.75, %Arg_1.32), to_apply=%_where.16, metadata={op_name="jit(_where)"}
  %rem.2 = s32[1]{0} reshape(%jit__where_.1), metadata={op_name="rem"}
  %rem.3 = s32[1]{0} remainder(%Arg_0.32, %rem.2), metadata={op_name="rem"}
  %constant.74 = s32[1]{0} constant({0})
  %lt.7 = pred[1]{0} compare(%rem.3, %constant.74), direction=LT, metadata={op_name="lt"}
  %lt.8 = pred[] compare(%jit__where_.1, %constant.76), direction=LT, metadata={op_name="lt"}
  %ne.4 = pred[1]{0} reshape(%lt.8), metadata={op_name="ne"}
  %ne.5 = pred[1]{0} compare(%lt.7, %ne.4), direction=NE, metadata={op_name="ne"}
  %ne.3 = pred[1]{0} compare(%rem.3, %constant.74), direction=NE, metadata={op_name="ne"}
  %and.1 = pred[1]{0} and(%ne.5, %ne.3), metadata={op_name="and"}
  %add.11 = s32[1]{0} reshape(%jit__where_.1), metadata={op_name="add"}
  %add.12 = s32[1]{0} add(%rem.3, %add.11), metadata={op_name="add"}
  ROOT %select_n.8 = s32[1]{0} select(%and.1, %add.12, %rem.3), metadata={op_name="select_n"}
}

%region_2.18 (scatter-add.2: s32[], scatter-add.3: s32[]) -> s32[] {
  %scatter-add.2 = s32[] parameter(0), metadata={op_name="scatter-add"}
  %scatter-add.3 = s32[] parameter(1), metadata={op_name="scatter-add"}
  ROOT %add.14 = s32[] add(%scatter-add.2, %scatter-add.3), metadata={op_name="checkpoint/layers/add" stack_frame_id=22}
}

%closed_call.32 (Arg_0.43: s32[0], Arg_1.41: s32[1,1], Arg_2.15: bf16[1,1,4096], Arg_3.1: f32[4096,8], Arg_4.1: f32[8,4096,14336], Arg_5.1: f32[8,4096,14336], Arg_6.1: f32[8,14336,4096], Arg_7.1: f32[4096], Arg_8.1: f32[4096], Arg_9.1: f32[4096,8,128], Arg_10.1: f32[32,128,4096], Arg_11.1: f32[4096,32,128], Arg_12.1: f32[4096,8,128], Arg_13.1: s32[1], Arg_14.1: s32[1,1984], Arg_15.1: s32[1,64], Arg_16.1: bf16[1984,8,1,128], Arg_17.1: s32[1], Arg_18.1: bf16[1984,8,1,128], Arg_19.1: bf16[64,8,1,128], Arg_20.1: bf16[64,8,1,128]) -> (bf16[1,1,4096], s32[1], s32[1,1984], s32[1,64], bf16[1984,8,1,128], /*index=5*/s32[1], bf16[1984,8,1,128], bf16[64,8,1,128], bf16[64,8,1,128]) {
  %Arg_0.43 = s32[0]{0} parameter(0)
  %Arg_6.1 = f32[8,14336,4096]{2,1,0} parameter(6)
  %convert_element_type.59 = bf16[8,14336,4096]{2,1,0} convert(%Arg_6.1), metadata={op_name="checkpoint/layers/convert_element_type" stack_frame_id=43}
  %Arg_7.1 = f32[4096]{0} parameter(7)
  %convert_element_type.57 = bf16[4096]{0} convert(%Arg_7.1), metadata={op_name="checkpoint/layers/convert_element_type" stack_frame_id=44}
  %Arg_2.15 = bf16[1,1,4096]{2,1,0} parameter(2)
  %Arg_15.1 = s32[1,64]{1,0} parameter(15)
  %broadcast_in_dim.55 = s32[1,1,1,1,64]{4,3,2,1,0} reshape(%Arg_15.1), metadata={op_name="checkpoint/layers/broadcast_in_dim" stack_frame_id=46}
  %constant.89 = s32[] constant(1)
  %eq.7 = s32[1,1,1,1,64]{4,3,2,1,0} broadcast(%constant.89), dimensions={}, metadata={op_name="checkpoint/layers/eq" stack_frame_id=46}
  %eq.8 = pred[1,1,1,1,64]{4,3,2,1,0} compare(%broadcast_in_dim.55, %eq.7), direction=EQ, metadata={op_name="checkpoint/layers/eq" stack_frame_id=46}
  %constant.102 = f32[] constant(0)
  %constant.100 = f32[] constant(-2.38197633e+38)
  %jit__where_.6 = f32[1,1,1,1,64]{4,3,2,1,0} call(%eq.8, %constant.102, %constant.100), to_apply=%_where_12.19, metadata={op_name="checkpoint/layers/jit(_where)" stack_frame_id=47}
  %constant.88 = f32[] constant(-1.19098816e+38)
  %ge.5 = f32[1,1,1,1,64]{4,3,2,1,0} broadcast(%constant.88), dimensions={}, metadata={op_name="checkpoint/layers/ge" stack_frame_id=49}
  %ge.6 = pred[1,1,1,1,64]{4,3,2,1,0} compare(%jit__where_.6, %ge.5), direction=GE, metadata={op_name="checkpoint/layers/ge" stack_frame_id=49}
  %Arg_19.1 = bf16[64,8,1,128]{3,2,1,0} parameter(19)
  %transpose.28 = bf16[1,64,8,128]{3,2,1,0} reshape(%Arg_19.1), metadata={op_name="checkpoint/layers/transpose" stack_frame_id=53}
  %Arg_8.1 = f32[4096]{0} parameter(8)
  %convert_element_type.38 = bf16[4096]{0} convert(%Arg_8.1), metadata={op_name="checkpoint/layers/convert_element_type" stack_frame_id=54}
  %convert_element_type.36 = f32[1,1,4096]{2,1,0} convert(%Arg_2.15), metadata={op_name="checkpoint/layers/convert_element_type" stack_frame_id=55}
  %square.2 = f32[1,1,4096]{2,1,0} multiply(%convert_element_type.36, %convert_element_type.36), metadata={op_name="checkpoint/layers/square" stack_frame_id=56}
  %reduce_sum.35 = f32[1,1]{1,0} reduce(%square.2, %constant.102), dimensions={2}, to_apply=%region_1.13, metadata={op_name="checkpoint/layers/reduce_sum" stack_frame_id=15}
  %broadcast_in_dim.50 = f32[1,1,1]{2,1,0} reshape(%reduce_sum.35), metadata={op_name="checkpoint/layers/broadcast_in_dim" stack_frame_id=15}
  %constant.97 = f32[1,1,1]{2,1,0} constant({ { {4096} } })
  %div.20 = f32[1,1,1]{2,1,0} divide(%broadcast_in_dim.50, %constant.97), metadata={op_name="checkpoint/layers/div" stack_frame_id=15}
  %constant.96 = f32[1,1,1]{2,1,0} constant({ { {1e-05} } })
  %add.25 = f32[1,1,1]{2,1,0} add(%div.20, %constant.96), metadata={op_name="checkpoint/layers/add" stack_frame_id=57}
  %rsqrt.2 = f32[1,1,1]{2,1,0} rsqrt(%add.25), metadata={op_name="checkpoint/layers/rsqrt" stack_frame_id=58}
  %mul.39 = f32[1,1,1]{2,1,0} broadcast(%rsqrt.2), dimensions={0,1,2}, metadata={op_name="checkpoint/layers/mul" stack_frame_id=59}
  %mul.40 = f32[1,1]{1,0} reshape(%mul.39), metadata={op_name="checkpoint/layers/mul" stack_frame_id=59}
  %mul.41 = f32[1,1,4096]{2,1,0} broadcast(%mul.40), dimensions={0,1}, metadata={op_name="checkpoint/layers/mul" stack_frame_id=59}
  %mul.42 = f32[1,1,4096]{2,1,0} multiply(%convert_element_type.36, %mul.41), metadata={op_name="checkpoint/layers/mul" stack_frame_id=59}
  %convert_element_type.37 = bf16[1,1,4096]{2,1,0} convert(%mul.42), metadata={op_name="checkpoint/layers/convert_element_type" stack_frame_id=60}
  %dot_general.15 = bf16[4096,1,1]{2,1,0} dot(%convert_element_type.38, %convert_element_type.37), lhs_batch_dims={0}, lhs_contracting_dims={}, rhs_batch_dims={2}, rhs_contracting_dims={}, metadata={op_name="checkpoint/layers/...k,k->...k/dot_general" stack_frame_id=61}
  %transpose.25 = bf16[1,1,4096]{2,1,0} reshape(%dot_general.15), metadata={op_name="checkpoint/layers/...k,k->...k/transpose" stack_frame_id=61}
  %sharding_constraint.10 = bf16[1,1,4096]{2,1,0} custom-call(%transpose.25), custom_call_target="Sharding", sharding={replicated}, frontend_attributes={xla.sdy.sharding="#sdy.sharding_per_value<[<@mesh, [{}, {}, {}]>]>"}, metadata={op_name="checkpoint/layers/sharding_constraint" stack_frame_id=64}
  %Arg_11.1 = f32[4096,32,128]{2,1,0} parameter(11)
  %convert_element_type.39 = bf16[4096,32,128]{2,1,0} convert(%Arg_11.1), metadata={op_name="checkpoint/layers/convert_element_type" stack_frame_id=68}
  %dot_general.16 = bf16[1,1,32,128]{3,2,1,0} dot(%sharding_constraint.10, %convert_element_type.39), lhs_contracting_dims={2}, rhs_contracting_dims={0}, metadata={op_name="checkpoint/layers/dot_general" stack_frame_id=70}
  %Arg_1.41 = s32[1,1]{1,0} parameter(1)
  %broadcast_in_dim.51 = s32[1,1,1,1]{3,2,1,0} reshape(%Arg_1.41), metadata={op_name="checkpoint/layers/broadcast_in_dim" stack_frame_id=74}
  %convert_element_type.43 = f32[1,1,1,1]{3,2,1,0} convert(%broadcast_in_dim.51), metadata={op_name="checkpoint/layers/convert_element_type" stack_frame_id=75}
  %div.22 = f32[1,1,1,1]{3,2,1,0} broadcast(%convert_element_type.43), dimensions={0,1,2,3}, metadata={op_name="checkpoint/layers/div" stack_frame_id=75}
  %div.23 = f32[1,1,1]{2,1,0} reshape(%div.22), metadata={op_name="checkpoint/layers/div" stack_frame_id=75}
  %div.24 = f32[1,1,1,64]{3,2,1,0} broadcast(%div.23), dimensions={0,1,2}, metadata={op_name="checkpoint/layers/div" stack_frame_id=75}
  %constant.93 = f32[] constant(1e+06)
  %broadcast.14 = f32[64]{0} broadcast(%constant.93), dimensions={}
  %iota.2 = s32[64]{0} iota(), iota_dimension=0, metadata={op_name="checkpoint/layers/iota" stack_frame_id=77}
  %constant.95 = s32[] constant(2)
  %broadcast.16 = s32[64]{0} broadcast(%constant.95), dimensions={}
  %mul.43 = s32[64]{0} multiply(%iota.2, %broadcast.16), metadata={op_name="checkpoint/layers/mul" stack_frame_id=78}
  %convert_element_type.42 = f32[64]{0} convert(%mul.43), metadata={op_name="checkpoint/layers/convert_element_type" stack_frame_id=78}
  %constant.94 = f32[] constant(128)
  %broadcast.15 = f32[64]{0} broadcast(%constant.94), dimensions={}
  %div.21 = f32[64]{0} divide(%convert_element_type.42, %broadcast.15), metadata={op_name="checkpoint/layers/div" stack_frame_id=78}
  %pow.2 = f32[64]{0} power(%broadcast.14, %div.21), metadata={op_name="checkpoint/layers/pow" stack_frame_id=79}
  %broadcast_in_dim.52 = f32[1,1,1,64]{3,2,1,0} reshape(%pow.2), metadata={op_name="checkpoint/layers/broadcast_in_dim" stack_frame_id=75}
  %div.25 = f32[1,1,1,64]{3,2,1,0} divide(%div.24, %broadcast_in_dim.52), metadata={op_name="checkpoint/layers/div" stack_frame_id=75}
  %cos.2 = f32[1,1,1,64]{3,2,1,0} cosine(%div.25), metadata={op_name="checkpoint/layers/cos" stack_frame_id=80}
  %convert_element_type.45 = bf16[1,1,1,64]{3,2,1,0} convert(%cos.2), metadata={op_name="checkpoint/layers/convert_element_type" stack_frame_id=80}
  %concatenate.8 = bf16[1,1,1,128]{3,2,1,0} concatenate(%convert_element_type.45, %convert_element_type.45), dimensions={3}, metadata={op_name="checkpoint/layers/concatenate" stack_frame_id=81}
  %mul.44 = bf16[1,1,1,128]{3,2,1,0} broadcast(%concatenate.8), dimensions={0,1,2,3}, metadata={op_name="checkpoint/layers/mul" stack_frame_id=83}
  %mul.45 = bf16[1,1,128]{2,1,0} reshape(%mul.44), metadata={op_name="checkpoint/layers/mul" stack_frame_id=83}
  %mul.46 = bf16[1,1,32,128]{3,2,1,0} broadcast(%mul.45), dimensions={0,1,3}, metadata={op_name="checkpoint/layers/mul" stack_frame_id=83}
  %mul.47 = bf16[1,1,32,128]{3,2,1,0} multiply(%dot_general.16, %mul.46), metadata={op_name="checkpoint/layers/mul" stack_frame_id=83}
  %split.5 = bf16[1,1,32,64]{3,2,1,0} slice(%dot_general.16), slice={[0:1], [0:1], [0:32], [64:128]}, metadata={op_name="checkpoint/layers/split" stack_frame_id=85}
  %neg.4 = bf16[1,1,32,64]{3,2,1,0} negate(%split.5), metadata={op_name="checkpoint/layers/neg" stack_frame_id=86}
  %split.4 = bf16[1,1,32,64]{3,2,1,0} slice(%dot_general.16), slice={[0:1], [0:1], [0:32], [0:64]}, metadata={op_name="checkpoint/layers/split" stack_frame_id=85}
  %concatenate.9 = bf16[1,1,32,128]{3,2,1,0} concatenate(%neg.4, %split.4), dimensions={3}, metadata={op_name="checkpoint/layers/concatenate" stack_frame_id=87}
  %sin.2 = f32[1,1,1,64]{3,2,1,0} sine(%div.25), metadata={op_name="checkpoint/layers/sin" stack_frame_id=88}
  %convert_element_type.44 = bf16[1,1,1,64]{3,2,1,0} convert(%sin.2), metadata={op_name="checkpoint/layers/convert_element_type" stack_frame_id=88}
  %concatenate.7 = bf16[1,1,1,128]{3,2,1,0} concatenate(%convert_element_type.44, %convert_element_type.44), dimensions={3}, metadata={op_name="checkpoint/layers/concatenate" stack_frame_id=89}
  %mul.48 = bf16[1,1,1,128]{3,2,1,0} broadcast(%concatenate.7), dimensions={0,1,2,3}, metadata={op_name="checkpoint/layers/mul" stack_frame_id=84}
  %mul.49 = bf16[1,1,128]{2,1,0} reshape(%mul.48), metadata={op_name="checkpoint/layers/mul" stack_frame_id=84}
  %mul.50 = bf16[1,1,32,128]{3,2,1,0} broadcast(%mul.49), dimensions={0,1,3}, metadata={op_name="checkpoint/layers/mul" stack_frame_id=84}
  %mul.51 = bf16[1,1,32,128]{3,2,1,0} multiply(%concatenate.9, %mul.50), metadata={op_name="checkpoint/layers/mul" stack_frame_id=84}
  %add.26 = bf16[1,1,32,128]{3,2,1,0} add(%mul.47, %mul.51), metadata={op_name="checkpoint/layers/add" stack_frame_id=90}
  %sharding_constraint.12 = bf16[1,1,32,128]{3,2,1,0} custom-call(%add.26), custom_call_target="Sharding", sharding={replicated}, frontend_attributes={xla.sdy.sharding="#sdy.sharding_per_value<[<@mesh, [{}, {}, {}, {}]>]>"}, metadata={op_name="checkpoint/layers/sharding_constraint" stack_frame_id=93}
  %reshape.8 = bf16[1,1,8,4,128]{4,3,2,1,0} reshape(%sharding_constraint.12), metadata={op_name="checkpoint/layers/reshape" stack_frame_id=95}
  %dot_general.19 = bf16[1,8,64,1,4]{4,3,2,1,0} dot(%transpose.28, %reshape.8), lhs_batch_dims={0,2}, lhs_contracting_dims={3}, rhs_batch_dims={0,2}, rhs_contracting_dims={4}, metadata={op_name="checkpoint/layers/btkgd,bskd->bkgts/dot_general" stack_frame_id=96}
  %transpose.32 = bf16[1,8,4,1,64]{2,3,4,1,0} transpose(%dot_general.19), dimensions={0,1,4,3,2}, metadata={op_name="checkpoint/layers/btkgd,bskd->bkgts/transpose" stack_frame_id=96}
  %jit__where_.7 = bf16[1,8,4,1,64]{4,3,2,1,0} call(%ge.6, %transpose.32, %constant.100), to_apply=%_where_13.20, metadata={op_name="checkpoint/layers/jit(_where)" stack_frame_id=97}
  %reshape.9 = bf16[1,32,1,64]{3,2,1,0} reshape(%jit__where_.7), metadata={op_name="checkpoint/layers/reshape" stack_frame_id=98}
  %constant.99 = bf16[] constant(-inf)
  %reduce_max.21 = bf16[1,32,1]{2,1,0} reduce(%reshape.9, %constant.99), dimensions={3}, to_apply=%region_3.21, metadata={op_name="checkpoint/layers/reduce_max" stack_frame_id=28}
  %broadcast_in_dim.58 = bf16[1,1,32,1]{3,2,1,0} reshape(%reduce_max.21), metadata={op_name="checkpoint/layers/transpose;checkpoint/layers/broadcast_in_dim"}
  %Arg_14.1 = s32[1,1984]{1,0} parameter(14)
  %constant.92 = s32[1,1]{1,0} constant({ {1} })
  %Arg_13.1 = s32[1]{0} parameter(13)
  %squeeze.27 = s32[] reshape(%Arg_13.1), metadata={op_name="checkpoint/layers/squeeze" stack_frame_id=99}
  %jit_dynamic_update_index_in_dim_.5 = s32[1,1984]{1,0} call(%Arg_14.1, %constant.92, %squeeze.27), to_apply=%dynamic_update_index_in_dim_11.15, metadata={op_name="checkpoint/layers/jit(dynamic_update_index_in_dim)" stack_frame_id=100}
  %broadcast_in_dim.59 = s32[1,1,1,1,1984]{4,3,2,1,0} reshape(%jit_dynamic_update_index_in_dim_.5), metadata={op_name="checkpoint/layers/broadcast_in_dim" stack_frame_id=102}
  %constant.87 = s32[] constant(1)
  %eq.6 = s32[1,1,1,1,1984]{4,3,2,1,0} broadcast(%constant.87), dimensions={}, metadata={op_name="checkpoint/layers/eq" stack_frame_id=102}
  %eq.9 = pred[1,1,1,1,1984]{4,3,2,1,0} compare(%broadcast_in_dim.59, %eq.6), direction=EQ, metadata={op_name="checkpoint/layers/eq" stack_frame_id=102}
  %jit__where_.8 = f32[1,1,1,1,1984]{4,3,2,1,0} call(%eq.9, %constant.102, %constant.100), to_apply=%_where_14.23, metadata={op_name="checkpoint/layers/jit(_where)" stack_frame_id=103}
  %constant.86 = f32[] constant(-1.19098816e+38)
  %ge.4 = f32[1,1,1,1,1984]{4,3,2,1,0} broadcast(%constant.86), dimensions={}, metadata={op_name="checkpoint/layers/ge" stack_frame_id=105}
  %ge.7 = pred[1,1,1,1,1984]{4,3,2,1,0} compare(%jit__where_.8, %ge.4), direction=GE, metadata={op_name="checkpoint/layers/ge" stack_frame_id=105}
  %Arg_16.1 = bf16[1984,8,1,128]{3,2,1,0} parameter(16)
  %sharding_constraint.11 = bf16[1,1,4096]{2,1,0} custom-call(%transpose.25), custom_call_target="Sharding", sharding={replicated}, frontend_attributes={xla.sdy.sharding="#sdy.sharding_per_value<[<@mesh, [{}, {}, {}]>]>"}, metadata={op_name="checkpoint/layers/sharding_constraint" stack_frame_id=108}
  %Arg_9.1 = f32[4096,8,128]{2,1,0} parameter(9)
  %convert_element_type.40 = bf16[4096,8,128]{2,1,0} convert(%Arg_9.1), metadata={op_name="checkpoint/layers/convert_element_type" stack_frame_id=112}
  %dot_general.17 = bf16[1,1,8,128]{3,2,1,0} dot(%sharding_constraint.11, %convert_element_type.40), lhs_contracting_dims={2}, rhs_contracting_dims={0}, metadata={op_name="checkpoint/layers/dot_general" stack_frame_id=114}
  %broadcast_in_dim.53 = s32[1,1,1,1]{3,2,1,0} reshape(%Arg_1.41), metadata={op_name="checkpoint/layers/broadcast_in_dim" stack_frame_id=118}
  %convert_element_type.47 = f32[1,1,1,1]{3,2,1,0} convert(%broadcast_in_dim.53), metadata={op_name="checkpoint/layers/convert_element_type" stack_frame_id=119}
  %div.27 = f32[1,1,1,1]{3,2,1,0} broadcast(%convert_element_type.47), dimensions={0,1,2,3}, metadata={op_name="checkpoint/layers/div" stack_frame_id=119}
  %div.28 = f32[1,1,1]{2,1,0} reshape(%div.27), metadata={op_name="checkpoint/layers/div" stack_frame_id=119}
  %div.29 = f32[1,1,1,64]{3,2,1,0} broadcast(%div.28), dimensions={0,1,2}, metadata={op_name="checkpoint/layers/div" stack_frame_id=119}
  %iota.3 = s32[64]{0} iota(), iota_dimension=0, metadata={op_name="checkpoint/layers/iota" stack_frame_id=121}
  %mul.52 = s32[64]{0} multiply(%iota.3, %broadcast.16), metadata={op_name="checkpoint/layers/mul" stack_frame_id=122}
  %convert_element_type.46 = f32[64]{0} convert(%mul.52), metadata={op_name="checkpoint/layers/convert_element_type" stack_frame_id=122}
  %div.26 = f32[64]{0} divide(%convert_element_type.46, %broadcast.15), metadata={op_name="checkpoint/layers/div" stack_frame_id=122}
  %pow.3 = f32[64]{0} power(%broadcast.14, %div.26), metadata={op_name="checkpoint/layers/pow" stack_frame_id=123}
  %broadcast_in_dim.54 = f32[1,1,1,64]{3,2,1,0} reshape(%pow.3), metadata={op_name="checkpoint/layers/broadcast_in_dim" stack_frame_id=119}
  %div.30 = f32[1,1,1,64]{3,2,1,0} divide(%div.29, %broadcast_in_dim.54), metadata={op_name="checkpoint/layers/div" stack_frame_id=119}
  %cos.3 = f32[1,1,1,64]{3,2,1,0} cosine(%div.30), metadata={op_name="checkpoint/layers/cos" stack_frame_id=124}
  %convert_element_type.49 = bf16[1,1,1,64]{3,2,1,0} convert(%cos.3), metadata={op_name="checkpoint/layers/convert_element_type" stack_frame_id=124}
  %concatenate.11 = bf16[1,1,1,128]{3,2,1,0} concatenate(%convert_element_type.49, %convert_element_type.49), dimensions={3}, metadata={op_name="checkpoint/layers/concatenate" stack_frame_id=125}
  %mul.53 = bf16[1,1,1,128]{3,2,1,0} broadcast(%concatenate.11), dimensions={0,1,2,3}, metadata={op_name="checkpoint/layers/mul" stack_frame_id=127}
  %mul.54 = bf16[1,1,128]{2,1,0} reshape(%mul.53), metadata={op_name="checkpoint/layers/mul" stack_frame_id=127}
  %mul.55 = bf16[1,1,8,128]{3,2,1,0} broadcast(%mul.54), dimensions={0,1,3}, metadata={op_name="checkpoint/layers/mul" stack_frame_id=127}
  %mul.56 = bf16[1,1,8,128]{3,2,1,0} multiply(%dot_general.17, %mul.55), metadata={op_name="checkpoint/layers/mul" stack_frame_id=127}
  %split.7 = bf16[1,1,8,64]{3,2,1,0} slice(%dot_general.17), slice={[0:1], [0:1], [0:8], [64:128]}, metadata={op_name="checkpoint/layers/split" stack_frame_id=129}
  %neg.5 = bf16[1,1,8,64]{3,2,1,0} negate(%split.7), metadata={op_name="checkpoint/layers/neg" stack_frame_id=130}
  %split.6 = bf16[1,1,8,64]{3,2,1,0} slice(%dot_general.17), slice={[0:1], [0:1], [0:8], [0:64]}, metadata={op_name="checkpoint/layers/split" stack_frame_id=129}
  %concatenate.12 = bf16[1,1,8,128]{3,2,1,0} concatenate(%neg.5, %split.6), dimensions={3}, metadata={op_name="checkpoint/layers/concatenate" stack_frame_id=131}
  %sin.3 = f32[1,1,1,64]{3,2,1,0} sine(%div.30), metadata={op_name="checkpoint/layers/sin" stack_frame_id=132}
  %convert_element_type.48 = bf16[1,1,1,64]{3,2,1,0} convert(%sin.3), metadata={op_name="checkpoint/layers/convert_element_type" stack_frame_id=132}
  %concatenate.10 = bf16[1,1,1,128]{3,2,1,0} concatenate(%convert_element_type.48, %convert_element_type.48), dimensions={3}, metadata={op_name="checkpoint/layers/concatenate" stack_frame_id=133}
  %mul.57 = bf16[1,1,1,128]{3,2,1,0} broadcast(%concatenate.10), dimensions={0,1,2,3}, metadata={op_name="checkpoint/layers/mul" stack_frame_id=128}
  %mul.58 = bf16[1,1,128]{2,1,0} reshape(%mul.57), metadata={op_name="checkpoint/layers/mul" stack_frame_id=128}
  %mul.59 = bf16[1,1,8,128]{3,2,1,0} broadcast(%mul.58), dimensions={0,1,3}, metadata={op_name="checkpoint/layers/mul" stack_frame_id=128}
  %mul.60 = bf16[1,1,8,128]{3,2,1,0} multiply(%concatenate.12, %mul.59), metadata={op_name="checkpoint/layers/mul" stack_frame_id=128}
  %add.27 = bf16[1,1,8,128]{3,2,1,0} add(%mul.56, %mul.60), metadata={op_name="checkpoint/layers/add" stack_frame_id=134}
  %sharding_constraint.13 = bf16[1,1,8,128]{3,2,1,0} custom-call(%add.27), custom_call_target="Sharding", sharding={replicated}, frontend_attributes={xla.sdy.sharding="#sdy.sharding_per_value<[<@mesh, [{}, {}, {}, {}]>]>"}, metadata={op_name="checkpoint/layers/sharding_constraint" stack_frame_id=137}
  %transpose.26 = bf16[1,8,1,128]{3,2,1,0} reshape(%sharding_constraint.13), metadata={op_name="checkpoint/layers/transpose" stack_frame_id=139}
  %squeeze.26 = s32[] reshape(%Arg_13.1), metadata={op_name="checkpoint/layers/squeeze" stack_frame_id=140}
  %jit_dynamic_update_index_in_dim_.3 = bf16[1984,8,1,128]{3,2,1,0} call(%Arg_16.1, %transpose.26, %squeeze.26), to_apply=%dynamic_update_index_in_dim.14, metadata={op_name="checkpoint/layers/jit(dynamic_update_index_in_dim)" stack_frame_id=141}
  %transpose.30 = bf16[1,1984,8,128]{3,2,1,0} reshape(%jit_dynamic_update_index_in_dim_.3), metadata={op_name="checkpoint/layers/transpose" stack_frame_id=145}
  %reshape.12 = bf16[1,1,8,4,128]{4,3,2,1,0} reshape(%sharding_constraint.12), metadata={op_name="checkpoint/layers/reshape" stack_frame_id=147}
  %dot_general.21 = bf16[1,8,1984,1,4]{4,3,2,1,0} dot(%transpose.30, %reshape.12), lhs_batch_dims={0,2}, lhs_contracting_dims={3}, rhs_batch_dims={0,2}, rhs_contracting_dims={4}, metadata={op_name="checkpoint/layers/btkgd,bskd->bkgts/dot_general" stack_frame_id=148}
  %transpose.35 = bf16[1,8,4,1,1984]{2,3,4,1,0} transpose(%dot_general.21), dimensions={0,1,4,3,2}, metadata={op_name="checkpoint/layers/btkgd,bskd->bkgts/transpose" stack_frame_id=148}
  %jit__where_.9 = bf16[1,8,4,1,1984]{4,3,2,1,0} call(%ge.7, %transpose.35, %constant.100), to_apply=%_where_15.24, metadata={op_name="checkpoint/layers/jit(_where)" stack_frame_id=149}
  %reshape.13 = bf16[1,32,1,1984]{3,2,1,0} reshape(%jit__where_.9), metadata={op_name="checkpoint/layers/reshape" stack_frame_id=150}
  %reduce_max.22 = bf16[1,32,1]{2,1,0} reduce(%reshape.13, %constant.99), dimensions={3}, to_apply=%region_5.25, metadata={op_name="checkpoint/layers/reduce_max" stack_frame_id=33}
  %broadcast_in_dim.62 = bf16[1,1,32,1]{3,2,1,0} reshape(%reduce_max.22), metadata={op_name="checkpoint/layers/transpose;checkpoint/layers/broadcast_in_dim"}
  %max.2 = bf16[1,1,32,1]{3,2,1,0} maximum(%broadcast_in_dim.58, %broadcast_in_dim.62), metadata={op_name="checkpoint/layers/max" stack_frame_id=152}
  %sub.26 = bf16[1,1,32,1]{3,2,1,0} subtract(%broadcast_in_dim.58, %max.2), metadata={op_name="checkpoint/layers/sub" stack_frame_id=153}
  %exp.13 = bf16[1,1,32,1]{3,2,1,0} exponential(%sub.26), metadata={op_name="checkpoint/layers/exp" stack_frame_id=154}
  %sub.24 = bf16[1,1,32,1]{3,2,1,0} subtract(%broadcast_in_dim.58, %max.2), metadata={op_name="checkpoint/layers/sub" stack_frame_id=156}
  %exp.11 = bf16[1,1,32,1]{3,2,1,0} exponential(%sub.24), metadata={op_name="checkpoint/layers/exp" stack_frame_id=157}
  %broadcast_in_dim.56 = bf16[1,32,1,1]{3,2,1,0} reshape(%reduce_max.21), metadata={op_name="checkpoint/layers/broadcast_in_dim" stack_frame_id=28}
  %sub.16 = bf16[1,32,1,1]{3,2,1,0} broadcast(%broadcast_in_dim.56), dimensions={0,1,2,3}, metadata={op_name="checkpoint/layers/sub" stack_frame_id=158}
  %sub.17 = bf16[1,32,1]{2,1,0} reshape(%sub.16), metadata={op_name="checkpoint/layers/sub" stack_frame_id=158}
  %sub.18 = bf16[1,32,1,64]{3,2,1,0} broadcast(%sub.17), dimensions={0,1,2}, metadata={op_name="checkpoint/layers/sub" stack_frame_id=158}
  %sub.19 = bf16[1,32,1,64]{3,2,1,0} subtract(%reshape.9, %sub.18), metadata={op_name="checkpoint/layers/sub" stack_frame_id=158}
  %exp.9 = bf16[1,32,1,64]{3,2,1,0} exponential(%sub.19), metadata={op_name="checkpoint/layers/exp" stack_frame_id=159}
  %convert_element_type.50 = f32[1,32,1,64]{3,2,1,0} convert(%exp.9), metadata={op_name="checkpoint/layers/convert_element_type" stack_frame_id=29}
  %reduce_sum.36 = f32[1,32,1]{2,1,0} reduce(%convert_element_type.50, %constant.102), dimensions={3}, to_apply=%region_4.22, metadata={op_name="checkpoint/layers/reduce_sum" stack_frame_id=29}
  %broadcast_in_dim.57 = f32[1,32,1,1]{3,2,1,0} reshape(%reduce_sum.36), metadata={op_name="checkpoint/layers/broadcast_in_dim" stack_frame_id=29}
  %convert_element_type.51 = bf16[1,32,1,1]{3,2,1,0} convert(%broadcast_in_dim.57), metadata={op_name="checkpoint/layers/convert_element_type" stack_frame_id=29}
  %transpose.33 = bf16[1,1,32,1]{3,2,1,0} reshape(%convert_element_type.51), metadata={op_name="checkpoint/layers/transpose" stack_frame_id=160}
  %mul.61 = bf16[1,1,32,1]{3,2,1,0} multiply(%exp.11, %transpose.33), metadata={op_name="checkpoint/layers/mul" stack_frame_id=157}
  %sub.25 = bf16[1,1,32,1]{3,2,1,0} subtract(%broadcast_in_dim.62, %max.2), metadata={op_name="checkpoint/layers/sub" stack_frame_id=156}
  %exp.12 = bf16[1,1,32,1]{3,2,1,0} exponential(%sub.25), metadata={op_name="checkpoint/layers/exp" stack_frame_id=157}
  %broadcast_in_dim.60 = bf16[1,32,1,1]{3,2,1,0} reshape(%reduce_max.22), metadata={op_name="checkpoint/layers/broadcast_in_dim" stack_frame_id=33}
  %sub.20 = bf16[1,32,1,1]{3,2,1,0} broadcast(%broadcast_in_dim.60), dimensions={0,1,2,3}, metadata={op_name="checkpoint/layers/sub" stack_frame_id=161}
  %sub.21 = bf16[1,32,1]{2,1,0} reshape(%sub.20), metadata={op_name="checkpoint/layers/sub" stack_frame_id=161}
  %sub.22 = bf16[1,32,1,1984]{3,2,1,0} broadcast(%sub.21), dimensions={0,1,2}, metadata={op_name="checkpoint/layers/sub" stack_frame_id=161}
  %sub.23 = bf16[1,32,1,1984]{3,2,1,0} subtract(%reshape.13, %sub.22), metadata={op_name="checkpoint/layers/sub" stack_frame_id=161}
  %exp.10 = bf16[1,32,1,1984]{3,2,1,0} exponential(%sub.23), metadata={op_name="checkpoint/layers/exp" stack_frame_id=162}
  %convert_element_type.52 = f32[1,32,1,1984]{3,2,1,0} convert(%exp.10), metadata={op_name="checkpoint/layers/convert_element_type" stack_frame_id=34}
  %reduce_sum.37 = f32[1,32,1]{2,1,0} reduce(%convert_element_type.52, %constant.102), dimensions={3}, to_apply=%region_6.26, metadata={op_name="checkpoint/layers/reduce_sum" stack_frame_id=34}
  %broadcast_in_dim.61 = f32[1,32,1,1]{3,2,1,0} reshape(%reduce_sum.37), metadata={op_name="checkpoint/layers/broadcast_in_dim" stack_frame_id=34}
  %convert_element_type.53 = bf16[1,32,1,1]{3,2,1,0} convert(%broadcast_in_dim.61), metadata={op_name="checkpoint/layers/convert_element_type" stack_frame_id=34}
  %transpose.36 = bf16[1,1,32,1]{3,2,1,0} reshape(%convert_element_type.53), metadata={op_name="checkpoint/layers/transpose" stack_frame_id=163}
  %mul.62 = bf16[1,1,32,1]{3,2,1,0} multiply(%exp.12, %transpose.36), metadata={op_name="checkpoint/layers/mul" stack_frame_id=157}
  %add.29 = bf16[1,1,32,1]{3,2,1,0} add(%mul.61, %mul.62), metadata={op_name="checkpoint/layers/add" stack_frame_id=155}
  %div.31 = bf16[1,1,32,1]{3,2,1,0} divide(%exp.13, %add.29), metadata={op_name="checkpoint/layers/div" stack_frame_id=154}
  %mul.63 = bf16[1,1,32,1]{3,2,1,0} broadcast(%div.31), dimensions={0,1,2,3}, metadata={op_name="checkpoint/layers/mul" stack_frame_id=164}
  %mul.64 = bf16[1,1,32]{2,1,0} reshape(%mul.63), metadata={op_name="checkpoint/layers/mul" stack_frame_id=164}
  %mul.65 = bf16[1,1,32,128]{3,2,1,0} broadcast(%mul.64), dimensions={0,1,2}, metadata={op_name="checkpoint/layers/mul" stack_frame_id=164}
  %Arg_20.1 = bf16[64,8,1,128]{3,2,1,0} parameter(20)
  %transpose.29 = bf16[1,64,8,128]{3,2,1,0} reshape(%Arg_20.1), metadata={op_name="checkpoint/layers/transpose" stack_frame_id=168}
  %reshape.10 = bf16[1,8,4,1,64]{4,3,2,1,0} reshape(%exp.9), metadata={op_name="checkpoint/layers/reshape" stack_frame_id=169}
  %dot_general.20 = bf16[1,8,128,4,1]{4,3,2,1,0} dot(%transpose.29, %reshape.10), lhs_batch_dims={0,2}, lhs_contracting_dims={1}, rhs_batch_dims={0,1}, rhs_contracting_dims={4}, metadata={op_name="checkpoint/layers/bkgts,bskd->btkgd/dot_general" stack_frame_id=171}
  %transpose.34 = bf16[1,1,8,4,128]{1,3,4,2,0} transpose(%dot_general.20), dimensions={0,4,1,3,2}, metadata={op_name="checkpoint/layers/bkgts,bskd->btkgd/transpose" stack_frame_id=171}
  %reshape.11 = bf16[1,1,32,128]{3,2,1,0} reshape(%transpose.34), metadata={op_name="checkpoint/layers/reshape" stack_frame_id=172}
  %mul.66 = bf16[1,1,32,128]{3,2,1,0} multiply(%mul.65, %reshape.11), metadata={op_name="checkpoint/layers/mul" stack_frame_id=164}
  %sub.27 = bf16[1,1,32,1]{3,2,1,0} subtract(%broadcast_in_dim.62, %max.2), metadata={op_name="checkpoint/layers/sub" stack_frame_id=153}
  %exp.14 = bf16[1,1,32,1]{3,2,1,0} exponential(%sub.27), metadata={op_name="checkpoint/layers/exp" stack_frame_id=154}
  %div.32 = bf16[1,1,32,1]{3,2,1,0} divide(%exp.14, %add.29), metadata={op_name="checkpoint/layers/div" stack_frame_id=154}
  %mul.67 = bf16[1,1,32,1]{3,2,1,0} broadcast(%div.32), dimensions={0,1,2,3}, metadata={op_name="checkpoint/layers/mul" stack_frame_id=164}
  %mul.68 = bf16[1,1,32]{2,1,0} reshape(%mul.67), metadata={op_name="checkpoint/layers/mul" stack_frame_id=164}
  %mul.69 = bf16[1,1,32,128]{3,2,1,0} broadcast(%mul.68), dimensions={0,1,2}, metadata={op_name="checkpoint/layers/mul" stack_frame_id=164}
  %Arg_18.1 = bf16[1984,8,1,128]{3,2,1,0} parameter(18)
  %Arg_12.1 = f32[4096,8,128]{2,1,0} parameter(12)
  %convert_element_type.41 = bf16[4096,8,128]{2,1,0} convert(%Arg_12.1), metadata={op_name="checkpoint/layers/convert_element_type" stack_frame_id=176}
  %dot_general.18 = bf16[1,1,8,128]{3,2,1,0} dot(%sharding_constraint.11, %convert_element_type.41), lhs_contracting_dims={2}, rhs_contracting_dims={0}, metadata={op_name="checkpoint/layers/dot_general" stack_frame_id=178}
  %sharding_constraint.14 = bf16[1,1,8,128]{3,2,1,0} custom-call(%dot_general.18), custom_call_target="Sharding", sharding={replicated}, frontend_attributes={xla.sdy.sharding="#sdy.sharding_per_value<[<@mesh, [{}, {}, {}, {}]>]>"}, metadata={op_name="checkpoint/layers/sharding_constraint" stack_frame_id=181}
  %transpose.27 = bf16[1,8,1,128]{3,2,1,0} reshape(%sharding_constraint.14), metadata={op_name="checkpoint/layers/transpose" stack_frame_id=182}
  %jit_dynamic_update_index_in_dim_.4 = bf16[1984,8,1,128]{3,2,1,0} call(%Arg_18.1, %transpose.27, %squeeze.26), to_apply=%dynamic_update_index_in_dim.14, metadata={op_name="checkpoint/layers/jit(dynamic_update_index_in_dim)" stack_frame_id=183}
  %transpose.31 = bf16[1,1984,8,128]{3,2,1,0} reshape(%jit_dynamic_update_index_in_dim_.4), metadata={op_name="checkpoint/layers/transpose" stack_frame_id=187}
  %reshape.14 = bf16[1,8,4,1,1984]{4,3,2,1,0} reshape(%exp.10), metadata={op_name="checkpoint/layers/reshape" stack_frame_id=188}
  %dot_general.22 = bf16[1,8,128,4,1]{4,3,2,1,0} dot(%transpose.31, %reshape.14), lhs_batch_dims={0,2}, lhs_contracting_dims={1}, rhs_batch_dims={0,1}, rhs_contracting_dims={4}, metadata={op_name="checkpoint/layers/bkgts,bskd->btkgd/dot_general" stack_frame_id=190}
  %transpose.37 = bf16[1,1,8,4,128]{1,3,4,2,0} transpose(%dot_general.22), dimensions={0,4,1,3,2}, metadata={op_name="checkpoint/layers/bkgts,bskd->btkgd/transpose" stack_frame_id=190}
  %reshape.15 = bf16[1,1,32,128]{3,2,1,0} reshape(%transpose.37), metadata={op_name="checkpoint/layers/reshape" stack_frame_id=191}
  %mul.70 = bf16[1,1,32,128]{3,2,1,0} multiply(%mul.69, %reshape.15), metadata={op_name="checkpoint/layers/mul" stack_frame_id=164}
  %add.30 = bf16[1,1,32,128]{3,2,1,0} add(%mul.66, %mul.70), metadata={op_name="checkpoint/layers/add" stack_frame_id=192}
  %sharding_constraint.15 = bf16[1,1,32,128]{3,2,1,0} custom-call(%add.30), custom_call_target="Sharding", sharding={replicated}, frontend_attributes={xla.sdy.sharding="#sdy.sharding_per_value<[<@mesh, [{}, {}, {}, {}]>]>"}, metadata={op_name="checkpoint/layers/sharding_constraint" stack_frame_id=195}
  %Arg_10.1 = f32[32,128,4096]{2,1,0} parameter(10)
  %convert_element_type.54 = bf16[32,128,4096]{2,1,0} convert(%Arg_10.1), metadata={op_name="checkpoint/layers/convert_element_type" stack_frame_id=199}
  %dot_general.23 = bf16[1,1,4096]{2,1,0} dot(%sharding_constraint.15, %convert_element_type.54), lhs_contracting_dims={2,3}, rhs_contracting_dims={0,1}, metadata={op_name="checkpoint/layers/dot_general" stack_frame_id=201}
  %add.31 = bf16[1,1,4096]{2,1,0} add(%Arg_2.15, %dot_general.23), metadata={op_name="checkpoint/layers/add" stack_frame_id=202}
  %convert_element_type.55 = f32[1,1,4096]{2,1,0} convert(%add.31), metadata={op_name="checkpoint/layers/convert_element_type" stack_frame_id=203}
  %square.3 = f32[1,1,4096]{2,1,0} multiply(%convert_element_type.55, %convert_element_type.55), metadata={op_name="checkpoint/layers/square" stack_frame_id=204}
  %reduce_sum.38 = f32[1,1]{1,0} reduce(%square.3, %constant.102), dimensions={2}, to_apply=%region_7.27, metadata={op_name="checkpoint/layers/reduce_sum" stack_frame_id=37}
  %broadcast_in_dim.63 = f32[1,1,1]{2,1,0} reshape(%reduce_sum.38), metadata={op_name="checkpoint/layers/broadcast_in_dim" stack_frame_id=37}
  %div.33 = f32[1,1,1]{2,1,0} divide(%broadcast_in_dim.63, %constant.97), metadata={op_name="checkpoint/layers/div" stack_frame_id=37}
  %add.32 = f32[1,1,1]{2,1,0} add(%div.33, %constant.96), metadata={op_name="checkpoint/layers/add" stack_frame_id=205}
  %rsqrt.3 = f32[1,1,1]{2,1,0} rsqrt(%add.32), metadata={op_name="checkpoint/layers/rsqrt" stack_frame_id=206}
  %mul.71 = f32[1,1,1]{2,1,0} broadcast(%rsqrt.3), dimensions={0,1,2}, metadata={op_name="checkpoint/layers/mul" stack_frame_id=207}
  %mul.72 = f32[1,1]{1,0} reshape(%mul.71), metadata={op_name="checkpoint/layers/mul" stack_frame_id=207}
  %mul.73 = f32[1,1,4096]{2,1,0} broadcast(%mul.72), dimensions={0,1}, metadata={op_name="checkpoint/layers/mul" stack_frame_id=207}
  %mul.74 = f32[1,1,4096]{2,1,0} multiply(%convert_element_type.55, %mul.73), metadata={op_name="checkpoint/layers/mul" stack_frame_id=207}
  %convert_element_type.56 = bf16[1,1,4096]{2,1,0} convert(%mul.74), metadata={op_name="checkpoint/layers/convert_element_type" stack_frame_id=208}
  %dot_general.24 = bf16[4096,1,1]{2,1,0} dot(%convert_element_type.57, %convert_element_type.56), lhs_batch_dims={0}, lhs_contracting_dims={}, rhs_batch_dims={2}, rhs_contracting_dims={}, metadata={op_name="checkpoint/layers/...k,k->...k/dot_general" stack_frame_id=209}
  %transpose.38 = bf16[1,1,4096]{2,1,0} reshape(%dot_general.24), metadata={op_name="checkpoint/layers/...k,k->...k/transpose" stack_frame_id=209}
  %sharding_constraint.19 = bf16[1,1,4096]{2,1,0} custom-call(%transpose.38), custom_call_target="Sharding", sharding={replicated}, frontend_attributes={xla.sdy.sharding="#sdy.sharding_per_value<[<@mesh, [{}, {}, {}]>]>"}, metadata={op_name="checkpoint/layers/sharding_constraint" stack_frame_id=213}
  %Arg_4.1 = f32[8,4096,14336]{2,1,0} parameter(4)
  %convert_element_type.60 = bf16[8,4096,14336]{2,1,0} convert(%Arg_4.1), metadata={op_name="checkpoint/layers/convert_element_type" stack_frame_id=214}
  %dot_general.26 = bf16[1,1,8,14336]{3,2,1,0} dot(%sharding_constraint.19, %convert_element_type.60), lhs_contracting_dims={2}, rhs_contracting_dims={1}, metadata={op_name="checkpoint/layers/wi_0/BSM,EMH -> BSEH/dot_general" stack_frame_id=215}
  %jit_silu_.1 = bf16[1,1,8,14336]{3,2,1,0} call(%dot_general.26), to_apply=%silu.31, metadata={op_name="checkpoint/layers/ffn_act/jit(silu)" stack_frame_id=217}
  %Arg_5.1 = f32[8,4096,14336]{2,1,0} parameter(5)
  %convert_element_type.61 = bf16[8,4096,14336]{2,1,0} convert(%Arg_5.1), metadata={op_name="checkpoint/layers/convert_element_type" stack_frame_id=218}
  %dot_general.27 = bf16[1,1,8,14336]{3,2,1,0} dot(%sharding_constraint.19, %convert_element_type.61), lhs_contracting_dims={2}, rhs_contracting_dims={1}, metadata={op_name="checkpoint/layers/wi_1/BSM,EMH -> BSEH/dot_general" stack_frame_id=219}
  %mul.75 = bf16[1,1,8,14336]{3,2,1,0} multiply(%jit_silu_.1, %dot_general.27), metadata={op_name="checkpoint/layers/ffn_act/mul" stack_frame_id=220}
  %dot_general.28 = bf16[8,4096,1,1]{3,2,1,0} dot(%convert_element_type.59, %mul.75), lhs_batch_dims={0}, lhs_contracting_dims={1}, rhs_batch_dims={2}, rhs_contracting_dims={3}, metadata={op_name="checkpoint/layers/wo/BSEH,EHM -> BSEM/dot_general" stack_frame_id=221}
  %transpose.39 = bf16[1,1,8,4096]{3,2,1,0} reshape(%dot_general.28), metadata={op_name="checkpoint/layers/wo/BSEH,EHM -> BSEM/transpose" stack_frame_id=221}
  %convert_element_type.64 = f32[1,1,8,4096]{3,2,1,0} convert(%transpose.39), metadata={op_name="checkpoint/layers/weight_sum/convert_element_type" stack_frame_id=222}
  %constant.84 = bf16[] constant(0)
  %broadcast.13 = bf16[1,1,8]{2,1,0} broadcast(%constant.84), dimensions={}
  %constant.83 = s32[1,1,1]{2,1,0} constant({ { {0} } })
  %sharding_constraint.17 = s32[1,1,1]{2,1,0} custom-call(%constant.83), custom_call_target="Sharding", sharding={replicated}, frontend_attributes={xla.sdy.sharding="#sdy.sharding_per_value<[<@mesh, [{}, {}, {}]>]>"}, metadata={op_name="checkpoint/layers/sharding_constraint" stack_frame_id=227}
  %lt.12 = pred[1,1,1]{2,1,0} compare(%sharding_constraint.17, %constant.83), direction=LT, metadata={op_name="checkpoint/layers/lt" stack_frame_id=228}
  %constant.81 = s32[1,1,1]{2,1,0} constant({ { {1} } })
  %add.33 = s32[1,1,1]{2,1,0} add(%sharding_constraint.17, %constant.81), metadata={op_name="checkpoint/layers/add" stack_frame_id=228}
  %select_n.20 = s32[1,1,1]{2,1,0} select(%lt.12, %add.33, %sharding_constraint.17), metadata={op_name="checkpoint/layers/select_n" stack_frame_id=228}
  %broadcast_in_dim.66 = s32[1,1,1,1]{3,2,1,0} broadcast(%select_n.20), dimensions={0,1,2}, metadata={op_name="checkpoint/layers/broadcast_in_dim" stack_frame_id=228}
  %broadcast_in_dim.67 = s32[1,1,1]{2,1,0} reshape(%broadcast_in_dim.66), metadata={op_name="checkpoint/layers/broadcast_in_dim" stack_frame_id=228}
  %broadcast_in_dim.68 = s32[1,1,2,1]{3,2,1,0} broadcast(%broadcast_in_dim.67), dimensions={0,1,3}, metadata={op_name="checkpoint/layers/broadcast_in_dim" stack_frame_id=228}
  %constant.82 = s32[1,1]{1,0} constant({ {0} })
  %sharding_constraint.18 = s32[1,1]{1,0} custom-call(%constant.82), custom_call_target="Sharding", sharding={replicated}, frontend_attributes={xla.sdy.sharding="#sdy.sharding_per_value<[<@mesh, [{}, {}]>]>"}, metadata={op_name="checkpoint/layers/sharding_constraint" stack_frame_id=232}
  %lt.13 = pred[1,1]{1,0} compare(%sharding_constraint.18, %constant.82), direction=LT, metadata={op_name="checkpoint/layers/lt" stack_frame_id=228}
  %add.34 = s32[1,1]{1,0} add(%sharding_constraint.18, %constant.92), metadata={op_name="checkpoint/layers/add" stack_frame_id=228}
  %select_n.21 = s32[1,1]{1,0} select(%lt.13, %add.34, %sharding_constraint.18), metadata={op_name="checkpoint/layers/select_n" stack_frame_id=228}
  %broadcast_in_dim.69 = s32[1,1,1,1]{3,2,1,0} broadcast(%select_n.21), dimensions={1,2}, metadata={op_name="checkpoint/layers/broadcast_in_dim" stack_frame_id=228}
  %broadcast_in_dim.70 = s32[1,1,1]{2,1,0} reshape(%broadcast_in_dim.69), metadata={op_name="checkpoint/layers/broadcast_in_dim" stack_frame_id=228}
  %broadcast_in_dim.71 = s32[1,1,2,1]{3,2,1,0} broadcast(%broadcast_in_dim.70), dimensions={0,1,3}, metadata={op_name="checkpoint/layers/broadcast_in_dim" stack_frame_id=228}
  %Arg_3.1 = f32[4096,8]{1,0} parameter(3)
  %convert_element_type.58 = bf16[4096,8]{1,0} convert(%Arg_3.1), metadata={op_name="checkpoint/layers/convert_element_type" stack_frame_id=235}
  %dot_general.25 = bf16[1,1,8]{2,1,0} dot(%transpose.38, %convert_element_type.58), lhs_contracting_dims={2}, rhs_contracting_dims={0}, metadata={op_name="checkpoint/layers/dot_general" stack_frame_id=237}
  %sharding_constraint.16 = bf16[1,1,8]{2,1,0} custom-call(%dot_general.25), custom_call_target="Sharding", sharding={replicated}, frontend_attributes={xla.sdy.sharding="#sdy.sharding_per_value<[<@mesh, [{}, {}, {}]>]>"}, metadata={op_name="checkpoint/layers/sharding_constraint" stack_frame_id=241}
  %top_k.3 = (bf16[1,1,2]{2,1,0}, s32[1,1,2]{2,1,0}) topk(%sharding_constraint.16), k=2, largest=true, metadata={op_name="checkpoint/layers/top_k" stack_frame_id=242}
  %top_k.5 = s32[1,1,2]{2,1,0} get-tuple-element(%top_k.3), index=1, metadata={op_name="checkpoint/layers/top_k" stack_frame_id=242}
  %constant.80 = s32[] constant(0)
  %broadcast.12 = s32[1,1,2]{2,1,0} broadcast(%constant.80), dimensions={}
  %lt.14 = pred[1,1,2]{2,1,0} compare(%top_k.5, %broadcast.12), direction=LT, metadata={op_name="checkpoint/layers/lt" stack_frame_id=228}
  %constant.79 = s32[] constant(8)
  %broadcast.11 = s32[1,1,2]{2,1,0} broadcast(%constant.79), dimensions={}
  %add.35 = s32[1,1,2]{2,1,0} add(%top_k.5, %broadcast.11), metadata={op_name="checkpoint/layers/add" stack_frame_id=228}
  %select_n.22 = s32[1,1,2]{2,1,0} select(%lt.14, %add.35, %top_k.5), metadata={op_name="checkpoint/layers/select_n" stack_frame_id=228}
  %broadcast_in_dim.72 = s32[1,1,2,1]{3,2,1,0} reshape(%select_n.22), metadata={op_name="checkpoint/layers/broadcast_in_dim" stack_frame_id=228}
  %concatenate.13 = s32[1,1,2,3]{3,2,1,0} concatenate(%broadcast_in_dim.68, %broadcast_in_dim.71, %broadcast_in_dim.72), dimensions={3}, metadata={op_name="checkpoint/layers/concatenate" stack_frame_id=228}
  %top_k.4 = bf16[1,1,2]{2,1,0} get-tuple-element(%top_k.3), index=0, metadata={op_name="checkpoint/layers/top_k" stack_frame_id=242}
  %convert_element_type.62 = f32[1,1,2]{2,1,0} convert(%top_k.4), metadata={op_name="checkpoint/layers/convert_element_type" stack_frame_id=243}
  %constant.98 = f32[] constant(-inf)
  %reduce_max.23 = f32[1,1]{1,0} reduce(%convert_element_type.62, %constant.98), dimensions={2}, to_apply=%region_8.28, metadata={op_name="checkpoint/layers/reduce_max" stack_frame_id=42}
  %constant.85 = f32[1,1]{1,0} constant({ {-inf} })
  %max.3 = f32[1,1]{1,0} maximum(%reduce_max.23, %constant.85), metadata={op_name="checkpoint/layers/max" stack_frame_id=42}
  %broadcast_in_dim.64 = f32[1,1,1]{2,1,0} reshape(%max.3), metadata={op_name="checkpoint/layers/broadcast_in_dim" stack_frame_id=42}
  %sub.28 = f32[1,1,1]{2,1,0} broadcast(%broadcast_in_dim.64), dimensions={0,1,2}, metadata={op_name="checkpoint/layers/sub" stack_frame_id=42}
  %sub.29 = f32[1,1]{1,0} reshape(%sub.28), metadata={op_name="checkpoint/layers/sub" stack_frame_id=42}
  %sub.30 = f32[1,1,2]{2,1,0} broadcast(%sub.29), dimensions={0,1}, metadata={op_name="checkpoint/layers/sub" stack_frame_id=42}
  %sub.31 = f32[1,1,2]{2,1,0} subtract(%convert_element_type.62, %sub.30), metadata={op_name="checkpoint/layers/sub" stack_frame_id=42}
  %exp.15 = f32[1,1,2]{2,1,0} exponential(%sub.31), metadata={op_name="checkpoint/layers/exp" stack_frame_id=42}
  %reduce_sum.39 = f32[1,1]{1,0} reduce(%exp.15, %constant.102), dimensions={2}, to_apply=%region_9.29, metadata={op_name="checkpoint/layers/reduce_sum" stack_frame_id=42}
  %broadcast_in_dim.65 = f32[1,1,1]{2,1,0} reshape(%reduce_sum.39), metadata={op_name="checkpoint/layers/broadcast_in_dim" stack_frame_id=42}
  %div.34 = f32[1,1,1]{2,1,0} broadcast(%broadcast_in_dim.65), dimensions={0,1,2}, metadata={op_name="checkpoint/layers/div" stack_frame_id=42}
  %div.35 = f32[1,1]{1,0} reshape(%div.34), metadata={op_name="checkpoint/layers/div" stack_frame_id=42}
  %div.36 = f32[1,1,2]{2,1,0} broadcast(%div.35), dimensions={0,1}, metadata={op_name="checkpoint/layers/div" stack_frame_id=42}
  %div.37 = f32[1,1,2]{2,1,0} divide(%exp.15, %div.36), metadata={op_name="checkpoint/layers/div" stack_frame_id=42}
  %convert_element_type.63 = bf16[1,1,2]{2,1,0} convert(%div.37), metadata={op_name="checkpoint/layers/convert_element_type" stack_frame_id=42}
  %scatter.5 = bf16[1,1,8]{2,1,0} scatter(%broadcast.13, %concatenate.13, %convert_element_type.63), update_window_dims={}, inserted_window_dims={0,1,2}, scatter_dims_to_operand_dims={0,1,2}, index_vector_dim=3, to_apply=%region_10.30, metadata={op_name="checkpoint/layers/scatter" stack_frame_id=228}
  %convert_element_type.65 = f32[1,1,8]{2,1,0} convert(%scatter.5), metadata={op_name="checkpoint/layers/weight_sum/convert_element_type" stack_frame_id=244}
  %dot_general.29 = f32[1,1,4096]{2,1,0} dot(%convert_element_type.64, %convert_element_type.65), lhs_batch_dims={0,1}, lhs_contracting_dims={2}, rhs_batch_dims={0,1}, rhs_contracting_dims={2}, metadata={op_name="checkpoint/layers/weight_sum/BSEM,BSE -> BSM/dot_general" stack_frame_id=245}
  %convert_element_type.66 = bf16[1,1,4096]{2,1,0} convert(%dot_general.29), metadata={op_name="checkpoint/layers/weight_sum/convert_element_type" stack_frame_id=246}
  %add.36 = bf16[1,1,4096]{2,1,0} add(%convert_element_type.66, %add.31), metadata={op_name="checkpoint/layers/add" stack_frame_id=247}
  %constant.91 = s32[1]{0} constant({1})
  %add.28 = s32[1]{0} add(%Arg_13.1, %constant.91), metadata={op_name="checkpoint/layers/add" stack_frame_id=248}
  %constant.101 = s32[] constant(1984)
  %jit_remainder_.1 = s32[1]{0} call(%add.28, %constant.101), to_apply=%remainder.17, metadata={op_name="checkpoint/layers/jit(remainder)" stack_frame_id=249}
  %Arg_17.1 = s32[1]{0} parameter(17)
  %constant.90 = s32[0]{0} constant({})
  %scatter-add.5 = s32[1]{0} scatter(%Arg_17.1, %constant.90, %constant.91), update_window_dims={0}, inserted_window_dims={}, scatter_dims_to_operand_dims={}, index_vector_dim=0, indices_are_sorted=true, unique_indices=true, to_apply=%region_2.18, metadata={op_name="checkpoint/layers/scatter-add" stack_frame_id=22}
  ROOT %tuple.1 = (bf16[1,1,4096]{2,1,0}, s32[1]{0}, s32[1,1984]{1,0}, s32[1,64]{1,0}, bf16[1984,8,1,128]{3,2,1,0}, /*index=5*/s32[1]{0}, bf16[1984,8,1,128]{3,2,1,0}, bf16[64,8,1,128]{3,2,1,0}, bf16[64,8,1,128]{3,2,1,0}) tuple(%add.36, %jit_remainder_.1, %jit_dynamic_update_index_in_dim_.5, %Arg_15.1, %jit_dynamic_update_index_in_dim_.3, /*index=5*/%scatter-add.5, %jit_dynamic_update_index_in_dim_.4, %Arg_19.1, %Arg_20.1)
}

%dynamic_update_index_in_dim_16.33 (Arg_0.45: s32[32,1], Arg_1.43: s32[1], Arg_2.17: s32[]) -> s32[32,1] {
  %Arg_0.45 = s32[32,1]{1,0} parameter(0)
  %Arg_1.43 = s32[1]{0} parameter(1)
  %broadcast_in_dim.74 = s32[1,1]{1,0} reshape(%Arg_1.43), metadata={op_name="broadcast_in_dim" stack_frame_id=10}
  %Arg_2.17 = s32[] parameter(2)
  %constant.104 = s32[] constant(0)
  ROOT %dynamic_update_slice.5 = s32[32,1]{1,0} dynamic-update-slice(%Arg_0.45, %broadcast_in_dim.74, %Arg_2.17, %constant.104), metadata={op_name="dynamic_update_slice" stack_frame_id=10}
}

%dynamic_update_index_in_dim_17.34 (Arg_0.47: s32[32,1,1984], Arg_1.45: s32[1,1984], Arg_2.19: s32[]) -> s32[32,1,1984] {
  %Arg_0.47 = s32[32,1,1984]{2,1,0} parameter(0)
  %Arg_1.45 = s32[1,1984]{1,0} parameter(1)
  %broadcast_in_dim.76 = s32[1,1,1984]{2,1,0} reshape(%Arg_1.45), metadata={op_name="broadcast_in_dim" stack_frame_id=10}
  %Arg_2.19 = s32[] parameter(2)
  %constant.106 = s32[] constant(0)
  ROOT %dynamic_update_slice.7 = s32[32,1,1984]{2,1,0} dynamic-update-slice(%Arg_0.47, %broadcast_in_dim.76, %Arg_2.19, %constant.106, %constant.106), metadata={op_name="dynamic_update_slice" stack_frame_id=10}
}

%dynamic_update_index_in_dim_18.35 (Arg_0.49: s32[32,1,64], Arg_1.47: s32[1,64], Arg_2.21: s32[]) -> s32[32,1,64] {
  %Arg_0.49 = s32[32,1,64]{2,1,0} parameter(0)
  %Arg_1.47 = s32[1,64]{1,0} parameter(1)
  %broadcast_in_dim.78 = s32[1,1,64]{2,1,0} reshape(%Arg_1.47), metadata={op_name="broadcast_in_dim" stack_frame_id=10}
  %Arg_2.21 = s32[] parameter(2)
  %constant.108 = s32[] constant(0)
  ROOT %dynamic_update_slice.9 = s32[32,1,64]{2,1,0} dynamic-update-slice(%Arg_0.49, %broadcast_in_dim.78, %Arg_2.21, %constant.108, %constant.108), metadata={op_name="dynamic_update_slice" stack_frame_id=10}
}

%dynamic_update_index_in_dim_19.36 (Arg_0.51: bf16[32,1984,8,1,128], Arg_1.49: bf16[1984,8,1,128], Arg_2.23: s32[]) -> bf16[32,1984,8,1,128] {
  %Arg_0.51 = bf16[32,1984,8,1,128]{4,3,2,1,0} parameter(0)
  %Arg_1.49 = bf16[1984,8,1,128]{3,2,1,0} parameter(1)
  %broadcast_in_dim.80 = bf16[1,1984,8,1,128]{4,3,2,1,0} reshape(%Arg_1.49), metadata={op_name="broadcast_in_dim" stack_frame_id=10}
  %Arg_2.23 = s32[] parameter(2)
  %constant.110 = s32[] constant(0)
  ROOT %dynamic_update_slice.11 = bf16[32,1984,8,1,128]{4,3,2,1,0} dynamic-update-slice(%Arg_0.51, %broadcast_in_dim.80, %Arg_2.23, %constant.110, %constant.110, /*index=5*/%constant.110, %constant.110), metadata={op_name="dynamic_update_slice" stack_frame_id=10}
}

%dynamic_update_index_in_dim_20.37 (Arg_0.53: bf16[32,64,8,1,128], Arg_1.51: bf16[64,8,1,128], Arg_2.25: s32[]) -> bf16[32,64,8,1,128] {
  %Arg_0.53 = bf16[32,64,8,1,128]{4,3,2,1,0} parameter(0)
  %Arg_1.51 = bf16[64,8,1,128]{3,2,1,0} parameter(1)
  %broadcast_in_dim.82 = bf16[1,64,8,1,128]{4,3,2,1,0} reshape(%Arg_1.51), metadata={op_name="broadcast_in_dim" stack_frame_id=5}
  %Arg_2.25 = s32[] parameter(2)
  %constant.112 = s32[] constant(0)
  ROOT %dynamic_update_slice.13 = bf16[32,64,8,1,128]{4,3,2,1,0} dynamic-update-slice(%Arg_0.53, %broadcast_in_dim.82, %Arg_2.25, %constant.112, %constant.112, /*index=5*/%constant.112, %constant.112), metadata={op_name="dynamic_update_slice" stack_frame_id=5}
}

%region_0.38 (arg_tuple.1: (s32[], bf16[1,1,4096], s32[32,1], s32[32,1,1984], s32[32,1,64], /*index=5*/bf16[32,1984,8,1,128], s32[32,1], bf16[32,1984,8,1,128], bf16[32,64,8,1,128], bf16[32,64,8,1,128], /*index=10*/f32[32,4096,8], f32[32,8,4096,14336], f32[32,8,4096,14336], f32[32,8,14336,4096], f32[32,4096], /*index=15*/f32[32,4096], f32[32,4096,8,128], f32[32,32,128,4096], f32[32,4096,32,128], f32[32,4096,8,128], /*index=20*/s32[32,1], s32[32,1,1984], s32[32,1,64], bf16[32,1984,8,1,128], s32[32,1], /*index=25*/bf16[32,1984,8,1,128], bf16[32,64,8,1,128], bf16[32,64,8,1,128], s32[1,1])) -> (s32[], bf16[1,1,4096], s32[32,1], s32[32,1,1984], s32[32,1,64], /*index=5*/bf16[32,1984,8,1,128], s32[32,1], bf16[32,1984,8,1,128], bf16[32,64,8,1,128], bf16[32,64,8,1,128], /*index=10*/f32[32,4096,8], f32[32,8,4096,14336], f32[32,8,4096,14336], f32[32,8,14336,4096], f32[32,4096], /*index=15*/f32[32,4096], f32[32,4096,8,128], f32[32,32,128,4096], f32[32,4096,32,128], f32[32,4096,8,128], /*index=20*/s32[32,1], s32[32,1,1984], s32[32,1,64], bf16[32,1984,8,1,128], s32[32,1], /*index=25*/bf16[32,1984,8,1,128], bf16[32,64,8,1,128], bf16[32,64,8,1,128], s32[1,1]) {
  %arg_tuple.1 = (s32[], bf16[1,1,4096]{2,1,0}, s32[32,1]{1,0}, s32[32,1,1984]{2,1,0}, s32[32,1,64]{2,1,0}, /*index=5*/bf16[32,1984,8,1,128]{4,3,2,1,0}, s32[32,1]{1,0}, bf16[32,1984,8,1,128]{4,3,2,1,0}, bf16[32,64,8,1,128]{4,3,2,1,0}, bf16[32,64,8,1,128]{4,3,2,1,0}, /*index=10*/f32[32,4096,8]{2,1,0}, f32[32,8,4096,14336]{3,2,1,0}, f32[32,8,4096,14336]{3,2,1,0}, f32[32,8,14336,4096]{3,2,1,0}, f32[32,4096]{1,0}, /*index=15*/f32[32,4096]{1,0}, f32[32,4096,8,128]{3,2,1,0}, f32[32,32,128,4096]{3,2,1,0}, f32[32,4096,32,128]{3,2,1,0}, f32[32,4096,8,128]{3,2,1,0}, /*index=20*/s32[32,1]{1,0}, s32[32,1,1984]{2,1,0}, s32[32,1,64]{2,1,0}, bf16[32,1984,8,1,128]{4,3,2,1,0}, s32[32,1]{1,0}, /*index=25*/bf16[32,1984,8,1,128]{4,3,2,1,0}, bf16[32,64,8,1,128]{4,3,2,1,0}, bf16[32,64,8,1,128]{4,3,2,1,0}, s32[1,1]{1,0}) parameter(0)
  %get-tuple-element.29 = s32[] get-tuple-element(%arg_tuple.1), index=0
  %constant.113 = s32[] constant(1)
  %add.38 = s32[] add(%get-tuple-element.29, %constant.113), metadata={op_name="jit(_generate_jit)/TransformerLinenPure.apply/TransformerLinenPure/decoder/while/body/add" stack_frame_id=271}
  %constant.114 = s32[0]{0} constant({})
  %get-tuple-element.57 = s32[1,1]{1,0} get-tuple-element(%arg_tuple.1), index=28
  %get-tuple-element.30 = bf16[1,1,4096]{2,1,0} get-tuple-element(%arg_tuple.1), index=1
  %get-tuple-element.39 = f32[32,4096,8]{2,1,0} get-tuple-element(%arg_tuple.1), index=10
  %jit_dynamic_index_in_dim_.18 = f32[4096,8]{1,0} call(%get-tuple-element.39, %get-tuple-element.29), to_apply=%dynamic_index_in_dim.1, metadata={op_name="jit(_generate_jit)/TransformerLinenPure.apply/TransformerLinenPure/decoder/while/body/jit(dynamic_index_in_dim)" stack_frame_id=271}
  %get-tuple-element.40 = f32[32,8,4096,14336]{3,2,1,0} get-tuple-element(%arg_tuple.1), index=11
  %jit_dynamic_index_in_dim_.19 = f32[8,4096,14336]{2,1,0} call(%get-tuple-element.40, %get-tuple-element.29), to_apply=%dynamic_index_in_dim_0.2, metadata={op_name="jit(_generate_jit)/TransformerLinenPure.apply/TransformerLinenPure/decoder/while/body/jit(dynamic_index_in_dim)" stack_frame_id=271}
  %get-tuple-element.41 = f32[32,8,4096,14336]{3,2,1,0} get-tuple-element(%arg_tuple.1), index=12
  %jit_dynamic_index_in_dim_.20 = f32[8,4096,14336]{2,1,0} call(%get-tuple-element.41, %get-tuple-element.29), to_apply=%dynamic_index_in_dim_0.2, metadata={op_name="jit(_generate_jit)/TransformerLinenPure.apply/TransformerLinenPure/decoder/while/body/jit(dynamic_index_in_dim)" stack_frame_id=271}
  %get-tuple-element.42 = f32[32,8,14336,4096]{3,2,1,0} get-tuple-element(%arg_tuple.1), index=13
  %jit_dynamic_index_in_dim_.21 = f32[8,14336,4096]{2,1,0} call(%get-tuple-element.42, %get-tuple-element.29), to_apply=%dynamic_index_in_dim_1.3, metadata={op_name="jit(_generate_jit)/TransformerLinenPure.apply/TransformerLinenPure/decoder/while/body/jit(dynamic_index_in_dim)" stack_frame_id=271}
  %get-tuple-element.43 = f32[32,4096]{1,0} get-tuple-element(%arg_tuple.1), index=14
  %jit_dynamic_index_in_dim_.22 = f32[4096]{0} call(%get-tuple-element.43, %get-tuple-element.29), to_apply=%dynamic_index_in_dim_2.4, metadata={op_name="jit(_generate_jit)/TransformerLinenPure.apply/TransformerLinenPure/decoder/while/body/jit(dynamic_index_in_dim)" stack_frame_id=271}
  %get-tuple-element.44 = f32[32,4096]{1,0} get-tuple-element(%arg_tuple.1), index=15
  %jit_dynamic_index_in_dim_.23 = f32[4096]{0} call(%get-tuple-element.44, %get-tuple-element.29), to_apply=%dynamic_index_in_dim_2.4, metadata={op_name="jit(_generate_jit)/TransformerLinenPure.apply/TransformerLinenPure/decoder/while/body/jit(dynamic_index_in_dim)" stack_frame_id=271}
  %get-tuple-element.45 = f32[32,4096,8,128]{3,2,1,0} get-tuple-element(%arg_tuple.1), index=16
  %jit_dynamic_index_in_dim_.24 = f32[4096,8,128]{2,1,0} call(%get-tuple-element.45, %get-tuple-element.29), to_apply=%dynamic_index_in_dim_3.5, metadata={op_name="jit(_generate_jit)/TransformerLinenPure.apply/TransformerLinenPure/decoder/while/body/jit(dynamic_index_in_dim)" stack_frame_id=271}
  %get-tuple-element.46 = f32[32,32,128,4096]{3,2,1,0} get-tuple-element(%arg_tuple.1), index=17
  %jit_dynamic_index_in_dim_.25 = f32[32,128,4096]{2,1,0} call(%get-tuple-element.46, %get-tuple-element.29), to_apply=%dynamic_index_in_dim_4.6, metadata={op_name="jit(_generate_jit)/TransformerLinenPure.apply/TransformerLinenPure/decoder/while/body/jit(dynamic_index_in_dim)" stack_frame_id=271}
  %get-tuple-element.47 = f32[32,4096,32,128]{3,2,1,0} get-tuple-element(%arg_tuple.1), index=18
  %jit_dynamic_index_in_dim_.26 = f32[4096,32,128]{2,1,0} call(%get-tuple-element.47, %get-tuple-element.29), to_apply=%dynamic_index_in_dim_5.7, metadata={op_name="jit(_generate_jit)/TransformerLinenPure.apply/TransformerLinenPure/decoder/while/body/jit(dynamic_index_in_dim)" stack_frame_id=271}
  %get-tuple-element.48 = f32[32,4096,8,128]{3,2,1,0} get-tuple-element(%arg_tuple.1), index=19
  %jit_dynamic_index_in_dim_.27 = f32[4096,8,128]{2,1,0} call(%get-tuple-element.48, %get-tuple-element.29), to_apply=%dynamic_index_in_dim_3.5, metadata={op_name="jit(_generate_jit)/TransformerLinenPure.apply/TransformerLinenPure/decoder/while/body/jit(dynamic_index_in_dim)" stack_frame_id=271}
  %get-tuple-element.49 = s32[32,1]{1,0} get-tuple-element(%arg_tuple.1), index=20
  %jit_dynamic_index_in_dim_.28 = s32[1]{0} call(%get-tuple-element.49, %get-tuple-element.29), to_apply=%dynamic_index_in_dim_6.8, metadata={op_name="jit(_generate_jit)/TransformerLinenPure.apply/TransformerLinenPure/decoder/while/body/jit(dynamic_index_in_dim)" stack_frame_id=271}
  %get-tuple-element.50 = s32[32,1,1984]{2,1,0} get-tuple-element(%arg_tuple.1), index=21
  %jit_dynamic_index_in_dim_.29 = s32[1,1984]{1,0} call(%get-tuple-element.50, %get-tuple-element.29), to_apply=%dynamic_index_in_dim_7.9, metadata={op_name="jit(_generate_jit)/TransformerLinenPure.apply/TransformerLinenPure/decoder/while/body/jit(dynamic_index_in_dim)" stack_frame_id=271}
  %get-tuple-element.51 = s32[32,1,64]{2,1,0} get-tuple-element(%arg_tuple.1), index=22
  %jit_dynamic_index_in_dim_.30 = s32[1,64]{1,0} call(%get-tuple-element.51, %get-tuple-element.29), to_apply=%dynamic_index_in_dim_8.10, metadata={op_name="jit(_generate_jit)/TransformerLinenPure.apply/TransformerLinenPure/decoder/while/body/jit(dynamic_index_in_dim)" stack_frame_id=271}
  %get-tuple-element.52 = bf16[32,1984,8,1,128]{4,3,2,1,0} get-tuple-element(%arg_tuple.1), index=23
  %jit_dynamic_index_in_dim_.31 = bf16[1984,8,1,128]{3,2,1,0} call(%get-tuple-element.52, %get-tuple-element.29), to_apply=%dynamic_index_in_dim_9.11, metadata={op_name="jit(_generate_jit)/TransformerLinenPure.apply/TransformerLinenPure/decoder/while/body/jit(dynamic_index_in_dim)" stack_frame_id=271}
  %get-tuple-element.53 = s32[32,1]{1,0} get-tuple-element(%arg_tuple.1), index=24
  %jit_dynamic_index_in_dim_.32 = s32[1]{0} call(%get-tuple-element.53, %get-tuple-element.29), to_apply=%dynamic_index_in_dim_6.8, metadata={op_name="jit(_generate_jit)/TransformerLinenPure.apply/TransformerLinenPure/decoder/while/body/jit(dynamic_index_in_dim)" stack_frame_id=271}
  %get-tuple-element.54 = bf16[32,1984,8,1,128]{4,3,2,1,0} get-tuple-element(%arg_tuple.1), index=25
  %jit_dynamic_index_in_dim_.33 = bf16[1984,8,1,128]{3,2,1,0} call(%get-tuple-element.54, %get-tuple-element.29), to_apply=%dynamic_index_in_dim_9.11, metadata={op_name="jit(_generate_jit)/TransformerLinenPure.apply/TransformerLinenPure/decoder/while/body/jit(dynamic_index_in_dim)" stack_frame_id=271}
  %get-tuple-element.55 = bf16[32,64,8,1,128]{4,3,2,1,0} get-tuple-element(%arg_tuple.1), index=26
  %jit_dynamic_index_in_dim_.34 = bf16[64,8,1,128]{3,2,1,0} call(%get-tuple-element.55, %get-tuple-element.29), to_apply=%dynamic_index_in_dim_10.12, metadata={op_name="jit(_generate_jit)/TransformerLinenPure.apply/TransformerLinenPure/decoder/while/body/jit(dynamic_index_in_dim)" stack_frame_id=271}
  %get-tuple-element.56 = bf16[32,64,8,1,128]{4,3,2,1,0} get-tuple-element(%arg_tuple.1), index=27
  %jit_dynamic_index_in_dim_.35 = bf16[64,8,1,128]{3,2,1,0} call(%get-tuple-element.56, %get-tuple-element.29), to_apply=%dynamic_index_in_dim_10.12, metadata={op_name="jit(_generate_jit)/TransformerLinenPure.apply/TransformerLinenPure/decoder/while/body/jit(dynamic_index_in_dim)" stack_frame_id=271}
  %closed_call.10 = (bf16[1,1,4096]{2,1,0}, s32[1]{0}, s32[1,1984]{1,0}, s32[1,64]{1,0}, bf16[1984,8,1,128]{3,2,1,0}, /*index=5*/s32[1]{0}, bf16[1984,8,1,128]{3,2,1,0}, bf16[64,8,1,128]{3,2,1,0}, bf16[64,8,1,128]{3,2,1,0}) call(%constant.114, %get-tuple-element.57, %get-tuple-element.30, %jit_dynamic_index_in_dim_.18, %jit_dynamic_index_in_dim_.19, /*index=5*/%jit_dynamic_index_in_dim_.20, %jit_dynamic_index_in_dim_.21, %jit_dynamic_index_in_dim_.22, %jit_dynamic_index_in_dim_.23, %jit_dynamic_index_in_dim_.24, /*index=10*/%jit_dynamic_index_in_dim_.25, %jit_dynamic_index_in_dim_.26, %jit_dynamic_index_in_dim_.27, %jit_dynamic_index_in_dim_.28, %jit_dynamic_index_in_dim_.29, /*index=15*/%jit_dynamic_index_in_dim_.30, %jit_dynamic_index_in_dim_.31, %jit_dynamic_index_in_dim_.32, %jit_dynamic_index_in_dim_.33, %jit_dynamic_index_in_dim_.34, /*index=20*/%jit_dynamic_index_in_dim_.35), to_apply=%closed_call.32, metadata={op_name="jit(_generate_jit)/TransformerLinenPure.apply/TransformerLinenPure/decoder/while/body/closed_call" stack_frame_id=271}
  %closed_call.11 = bf16[1,1,4096]{2,1,0} get-tuple-element(%closed_call.10), index=0, metadata={op_name="jit(_generate_jit)/TransformerLinenPure.apply/TransformerLinenPure/decoder/while/body/closed_call" stack_frame_id=271}
  %get-tuple-element.31 = s32[32,1]{1,0} get-tuple-element(%arg_tuple.1), index=2
  %closed_call.12 = s32[1]{0} get-tuple-element(%closed_call.10), index=1, metadata={op_name="jit(_generate_jit)/TransformerLinenPure.apply/TransformerLinenPure/decoder/while/body/closed_call" stack_frame_id=271}
  %jit_dynamic_update_index_in_dim_.14 = s32[32,1]{1,0} call(%get-tuple-element.31, %closed_call.12, %get-tuple-element.29), to_apply=%dynamic_update_index_in_dim_16.33, metadata={op_name="jit(_generate_jit)/TransformerLinenPure.apply/TransformerLinenPure/decoder/while/body/jit(dynamic_update_index_in_dim)" stack_frame_id=271}
  %get-tuple-element.32 = s32[32,1,1984]{2,1,0} get-tuple-element(%arg_tuple.1), index=3
  %closed_call.13 = s32[1,1984]{1,0} get-tuple-element(%closed_call.10), index=2, metadata={op_name="jit(_generate_jit)/TransformerLinenPure.apply/TransformerLinenPure/decoder/while/body/closed_call" stack_frame_id=271}
  %jit_dynamic_update_index_in_dim_.15 = s32[32,1,1984]{2,1,0} call(%get-tuple-element.32, %closed_call.13, %get-tuple-element.29), to_apply=%dynamic_update_index_in_dim_17.34, metadata={op_name="jit(_generate_jit)/TransformerLinenPure.apply/TransformerLinenPure/decoder/while/body/jit(dynamic_update_index_in_dim)" stack_frame_id=271}
  %get-tuple-element.33 = s32[32,1,64]{2,1,0} get-tuple-element(%arg_tuple.1), index=4
  %closed_call.14 = s32[1,64]{1,0} get-tuple-element(%closed_call.10), index=3, metadata={op_name="jit(_generate_jit)/TransformerLinenPure.apply/TransformerLinenPure/decoder/while/body/closed_call" stack_frame_id=271}
  %jit_dynamic_update_index_in_dim_.16 = s32[32,1,64]{2,1,0} call(%get-tuple-element.33, %closed_call.14, %get-tuple-element.29), to_apply=%dynamic_update_index_in_dim_18.35, metadata={op_name="jit(_generate_jit)/TransformerLinenPure.apply/TransformerLinenPure/decoder/while/body/jit(dynamic_update_index_in_dim)" stack_frame_id=271}
  %get-tuple-element.34 = bf16[32,1984,8,1,128]{4,3,2,1,0} get-tuple-element(%arg_tuple.1), index=5
  %closed_call.15 = bf16[1984,8,1,128]{3,2,1,0} get-tuple-element(%closed_call.10), index=4, metadata={op_name="jit(_generate_jit)/TransformerLinenPure.apply/TransformerLinenPure/decoder/while/body/closed_call" stack_frame_id=271}
  %jit_dynamic_update_index_in_dim_.17 = bf16[32,1984,8,1,128]{4,3,2,1,0} call(%get-tuple-element.34, %closed_call.15, %get-tuple-element.29), to_apply=%dynamic_update_index_in_dim_19.36, metadata={op_name="jit(_generate_jit)/TransformerLinenPure.apply/TransformerLinenPure/decoder/while/body/jit(dynamic_update_index_in_dim)" stack_frame_id=271}
  %get-tuple-element.35 = s32[32,1]{1,0} get-tuple-element(%arg_tuple.1), index=6
  %closed_call.16 = s32[1]{0} get-tuple-element(%closed_call.10), index=5, metadata={op_name="jit(_generate_jit)/TransformerLinenPure.apply/TransformerLinenPure/decoder/while/body/closed_call" stack_frame_id=271}
  %jit_dynamic_update_index_in_dim_.18 = s32[32,1]{1,0} call(%get-tuple-element.35, %closed_call.16, %get-tuple-element.29), to_apply=%dynamic_update_index_in_dim_16.33, metadata={op_name="jit(_generate_jit)/TransformerLinenPure.apply/TransformerLinenPure/decoder/while/body/jit(dynamic_update_index_in_dim)" stack_frame_id=271}
  %get-tuple-element.36 = bf16[32,1984,8,1,128]{4,3,2,1,0} get-tuple-element(%arg_tuple.1), index=7
  %closed_call.17 = bf16[1984,8,1,128]{3,2,1,0} get-tuple-element(%closed_call.10), index=6, metadata={op_name="jit(_generate_jit)/TransformerLinenPure.apply/TransformerLinenPure/decoder/while/body/closed_call" stack_frame_id=271}
  %jit_dynamic_update_index_in_dim_.19 = bf16[32,1984,8,1,128]{4,3,2,1,0} call(%get-tuple-element.36, %closed_call.17, %get-tuple-element.29), to_apply=%dynamic_update_index_in_dim_19.36, metadata={op_name="jit(_generate_jit)/TransformerLinenPure.apply/TransformerLinenPure/decoder/while/body/jit(dynamic_update_index_in_dim)" stack_frame_id=271}
  %get-tuple-element.37 = bf16[32,64,8,1,128]{4,3,2,1,0} get-tuple-element(%arg_tuple.1), index=8
  %closed_call.18 = bf16[64,8,1,128]{3,2,1,0} get-tuple-element(%closed_call.10), index=7, metadata={op_name="jit(_generate_jit)/TransformerLinenPure.apply/TransformerLinenPure/decoder/while/body/closed_call" stack_frame_id=271}
  %jit_dynamic_update_index_in_dim_.20 = bf16[32,64,8,1,128]{4,3,2,1,0} call(%get-tuple-element.37, %closed_call.18, %get-tuple-element.29), to_apply=%dynamic_update_index_in_dim_20.37, metadata={op_name="jit(_generate_jit)/TransformerLinenPure.apply/TransformerLinenPure/decoder/while/body/jit(dynamic_update_index_in_dim)" stack_frame_id=271}
  %get-tuple-element.38 = bf16[32,64,8,1,128]{4,3,2,1,0} get-tuple-element(%arg_tuple.1), index=9
  %closed_call.19 = bf16[64,8,1,128]{3,2,1,0} get-tuple-element(%closed_call.10), index=8, metadata={op_name="jit(_generate_jit)/TransformerLinenPure.apply/TransformerLinenPure/decoder/while/body/closed_call" stack_frame_id=271}
  %jit_dynamic_update_index_in_dim_.21 = bf16[32,64,8,1,128]{4,3,2,1,0} call(%get-tuple-element.38, %closed_call.19, %get-tuple-element.29), to_apply=%dynamic_update_index_in_dim_20.37, metadata={op_name="jit(_generate_jit)/TransformerLinenPure.apply/TransformerLinenPure/decoder/while/body/jit(dynamic_update_index_in_dim)" stack_frame_id=271}
  ROOT %tuple.3 = (s32[], bf16[1,1,4096]{2,1,0}, s32[32,1]{1,0}, s32[32,1,1984]{2,1,0}, s32[32,1,64]{2,1,0}, /*index=5*/bf16[32,1984,8,1,128]{4,3,2,1,0}, s32[32,1]{1,0}, bf16[32,1984,8,1,128]{4,3,2,1,0}, bf16[32,64,8,1,128]{4,3,2,1,0}, bf16[32,64,8,1,128]{4,3,2,1,0}, /*index=10*/f32[32,4096,8]{2,1,0}, f32[32,8,4096,14336]{3,2,1,0}, f32[32,8,4096,14336]{3,2,1,0}, f32[32,8,14336,4096]{3,2,1,0}, f32[32,4096]{1,0}, /*index=15*/f32[32,4096]{1,0}, f32[32,4096,8,128]{3,2,1,0}, f32[32,32,128,4096]{3,2,1,0}, f32[32,4096,32,128]{3,2,1,0}, f32[32,4096,8,128]{3,2,1,0}, /*index=20*/s32[32,1]{1,0}, s32[32,1,1984]{2,1,0}, s32[32,1,64]{2,1,0}, bf16[32,1984,8,1,128]{4,3,2,1,0}, s32[32,1]{1,0}, /*index=25*/bf16[32,1984,8,1,128]{4,3,2,1,0}, bf16[32,64,8,1,128]{4,3,2,1,0}, bf16[32,64,8,1,128]{4,3,2,1,0}, s32[1,1]{1,0}) tuple(%add.38, %closed_call.11, %jit_dynamic_update_index_in_dim_.14, %jit_dynamic_update_index_in_dim_.15, %jit_dynamic_update_index_in_dim_.16, /*index=5*/%jit_dynamic_update_index_in_dim_.17, %jit_dynamic_update_index_in_dim_.18, %jit_dynamic_update_index_in_dim_.19, %jit_dynamic_update_index_in_dim_.20, %jit_dynamic_update_index_in_dim_.21, /*index=10*/%get-tuple-element.39, %get-tuple-element.40, %get-tuple-element.41, %get-tuple-element.42, %get-tuple-element.43, /*index=15*/%get-tuple-element.44, %get-tuple-element.45, %get-tuple-element.46, %get-tuple-element.47, %get-tuple-element.48, /*index=20*/%get-tuple-element.49, %get-tuple-element.50, %get-tuple-element.51, %get-tuple-element.52, %get-tuple-element.53, /*index=25*/%get-tuple-element.54, %get-tuple-element.55, %get-tuple-element.56, %get-tuple-element.57)
}

%region_11.39 (arg_tuple.3: (s32[], bf16[1,1,4096], s32[32,1], s32[32,1,1984], s32[32,1,64], /*index=5*/bf16[32,1984,8,1,128], s32[32,1], bf16[32,1984,8,1,128], bf16[32,64,8,1,128], bf16[32,64,8,1,128], /*index=10*/f32[32,4096,8], f32[32,8,4096,14336], f32[32,8,4096,14336], f32[32,8,14336,4096], f32[32,4096], /*index=15*/f32[32,4096], f32[32,4096,8,128], f32[32,32,128,4096], f32[32,4096,32,128], f32[32,4096,8,128], /*index=20*/s32[32,1], s32[32,1,1984], s32[32,1,64], bf16[32,1984,8,1,128], s32[32,1], /*index=25*/bf16[32,1984,8,1,128], bf16[32,64,8,1,128], bf16[32,64,8,1,128], s32[1,1])) -> pred[] {
  %arg_tuple.3 = (s32[], bf16[1,1,4096]{2,1,0}, s32[32,1]{1,0}, s32[32,1,1984]{2,1,0}, s32[32,1,64]{2,1,0}, /*index=5*/bf16[32,1984,8,1,128]{4,3,2,1,0}, s32[32,1]{1,0}, bf16[32,1984,8,1,128]{4,3,2,1,0}, bf16[32,64,8,1,128]{4,3,2,1,0}, bf16[32,64,8,1,128]{4,3,2,1,0}, /*index=10*/f32[32,4096,8]{2,1,0}, f32[32,8,4096,14336]{3,2,1,0}, f32[32,8,4096,14336]{3,2,1,0}, f32[32,8,14336,4096]{3,2,1,0}, f32[32,4096]{1,0}, /*index=15*/f32[32,4096]{1,0}, f32[32,4096,8,128]{3,2,1,0}, f32[32,32,128,4096]{3,2,1,0}, f32[32,4096,32,128]{3,2,1,0}, f32[32,4096,8,128]{3,2,1,0}, /*index=20*/s32[32,1]{1,0}, s32[32,1,1984]{2,1,0}, s32[32,1,64]{2,1,0}, bf16[32,1984,8,1,128]{4,3,2,1,0}, s32[32,1]{1,0}, /*index=25*/bf16[32,1984,8,1,128]{4,3,2,1,0}, bf16[32,64,8,1,128]{4,3,2,1,0}, bf16[32,64,8,1,128]{4,3,2,1,0}, s32[1,1]{1,0}) parameter(0)
  %get-tuple-element.88 = bf16[1,1,4096]{2,1,0} get-tuple-element(%arg_tuple.3), index=1
  %get-tuple-element.89 = s32[32,1]{1,0} get-tuple-element(%arg_tuple.3), index=2
  %get-tuple-element.90 = s32[32,1,1984]{2,1,0} get-tuple-element(%arg_tuple.3), index=3
  %get-tuple-element.91 = s32[32,1,64]{2,1,0} get-tuple-element(%arg_tuple.3), index=4
  %get-tuple-element.92 = bf16[32,1984,8,1,128]{4,3,2,1,0} get-tuple-element(%arg_tuple.3), index=5
  %get-tuple-element.93 = s32[32,1]{1,0} get-tuple-element(%arg_tuple.3), index=6
  %get-tuple-element.94 = bf16[32,1984,8,1,128]{4,3,2,1,0} get-tuple-element(%arg_tuple.3), index=7
  %get-tuple-element.95 = bf16[32,64,8,1,128]{4,3,2,1,0} get-tuple-element(%arg_tuple.3), index=8
  %get-tuple-element.96 = bf16[32,64,8,1,128]{4,3,2,1,0} get-tuple-element(%arg_tuple.3), index=9
  %get-tuple-element.97 = f32[32,4096,8]{2,1,0} get-tuple-element(%arg_tuple.3), index=10
  %get-tuple-element.98 = f32[32,8,4096,14336]{3,2,1,0} get-tuple-element(%arg_tuple.3), index=11
  %get-tuple-element.99 = f32[32,8,4096,14336]{3,2,1,0} get-tuple-element(%arg_tuple.3), index=12
  %get-tuple-element.100 = f32[32,8,14336,4096]{3,2,1,0} get-tuple-element(%arg_tuple.3), index=13
  %get-tuple-element.101 = f32[32,4096]{1,0} get-tuple-element(%arg_tuple.3), index=14
  %get-tuple-element.102 = f32[32,4096]{1,0} get-tuple-element(%arg_tuple.3), index=15
  %get-tuple-element.103 = f32[32,4096,8,128]{3,2,1,0} get-tuple-element(%arg_tuple.3), index=16
  %get-tuple-element.104 = f32[32,32,128,4096]{3,2,1,0} get-tuple-element(%arg_tuple.3), index=17
  %get-tuple-element.105 = f32[32,4096,32,128]{3,2,1,0} get-tuple-element(%arg_tuple.3), index=18
  %get-tuple-element.106 = f32[32,4096,8,128]{3,2,1,0} get-tuple-element(%arg_tuple.3), index=19
  %get-tuple-element.107 = s32[32,1]{1,0} get-tuple-element(%arg_tuple.3), index=20
  %get-tuple-element.108 = s32[32,1,1984]{2,1,0} get-tuple-element(%arg_tuple.3), index=21
  %get-tuple-element.109 = s32[32,1,64]{2,1,0} get-tuple-element(%arg_tuple.3), index=22
  %get-tuple-element.110 = bf16[32,1984,8,1,128]{4,3,2,1,0} get-tuple-element(%arg_tuple.3), index=23
  %get-tuple-element.111 = s32[32,1]{1,0} get-tuple-element(%arg_tuple.3), index=24
  %get-tuple-element.112 = bf16[32,1984,8,1,128]{4,3,2,1,0} get-tuple-element(%arg_tuple.3), index=25
  %get-tuple-element.113 = bf16[32,64,8,1,128]{4,3,2,1,0} get-tuple-element(%arg_tuple.3), index=26
  %get-tuple-element.114 = bf16[32,64,8,1,128]{4,3,2,1,0} get-tuple-element(%arg_tuple.3), index=27
  %get-tuple-element.115 = s32[1,1]{1,0} get-tuple-element(%arg_tuple.3), index=28
  %get-tuple-element.87 = s32[] get-tuple-element(%arg_tuple.3), index=0
  %constant.116 = s32[] constant(32)
  ROOT %lt.16 = pred[] compare(%get-tuple-element.87, %constant.116), direction=LT, metadata={op_name="jit(_generate_jit)/TransformerLinenPure.apply/TransformerLinenPure/decoder/while/cond/lt" stack_frame_id=271}
}

%region_12.40 (reduce_sum.43: f32[], reduce_sum.44: f32[]) -> f32[] {
  %reduce_sum.43 = f32[] parameter(0), metadata={op_name="reduce_sum"}
  %reduce_sum.44 = f32[] parameter(1), metadata={op_name="reduce_sum"}
  ROOT %reduce_sum.45 = f32[] add(%reduce_sum.43, %reduce_sum.44), metadata={op_name="jit(_generate_jit)/TransformerLinenPure.apply/TransformerLinenPure/decoder/decoder.apply_output_head/decoder_norm/reduce_sum" stack_frame_id=275}
}

%region_13.41 (reduce.4: f32[], reduce.5: s32[], reduce.6: f32[], reduce.7: s32[]) -> (f32[], s32[]) {
  %reduce.4 = f32[] parameter(0), metadata={op_name="reduce"}
  %reduce.6 = f32[] parameter(2), metadata={op_name="reduce"}
  %gt.1 = pred[] compare(%reduce.4, %reduce.6), direction=GT, metadata={op_name="gt" stack_frame_id=279}
  %ne.7 = pred[] compare(%reduce.4, %reduce.4), direction=NE, metadata={op_name="ne" stack_frame_id=279}
  %or.2 = pred[] or(%gt.1, %ne.7), metadata={op_name="or" stack_frame_id=279}
  %select_n.25 = f32[] select(%or.2, %reduce.4, %reduce.6), metadata={op_name="select_n" stack_frame_id=279}
  %eq.11 = pred[] compare(%reduce.4, %reduce.6), direction=EQ, metadata={op_name="eq" stack_frame_id=279}
  %reduce.5 = s32[] parameter(1), metadata={op_name="reduce"}
  %reduce.7 = s32[] parameter(3), metadata={op_name="reduce"}
  %lt.18 = pred[] compare(%reduce.5, %reduce.7), direction=LT, metadata={op_name="lt" stack_frame_id=279}
  %and.3 = pred[] and(%eq.11, %lt.18), metadata={op_name="and" stack_frame_id=279}
  %or.3 = pred[] or(%or.2, %and.3), metadata={op_name="or" stack_frame_id=279}
  %select_n.26 = s32[] select(%or.3, %reduce.5, %reduce.7), metadata={op_name="select_n" stack_frame_id=279}
  ROOT %tuple.5 = (f32[], s32[]) tuple(%select_n.25, %select_n.26)
}

%argmax.42 (jit__generate_jit_.1: f32[1,1,32000]) -> s32[1,1] {
  %jit__generate_jit_.1 = f32[1,1,32000]{2,1,0} parameter(0), metadata={op_name="jit(_generate_jit)"}
  %iota.6 = s32[32000]{0} iota(), iota_dimension=0, metadata={op_name="iota" stack_frame_id=277}
  %iota.7 = s32[1,1,32000]{2,1,0} reshape(%iota.6), metadata={op_name="iota" stack_frame_id=277}
  %constant.120 = f32[] constant(-inf)
  %constant.119 = s32[] constant(0)
  %reduce.11 = (f32[1,1]{1,0}, s32[1,1]{1,0}) reduce(%jit__generate_jit_.1, %iota.7, %constant.120, %constant.119), dimensions={2}, to_apply=%region_13.41, metadata={op_name="reduce" stack_frame_id=277}
  %reduce.12 = f32[1,1]{1,0} get-tuple-element(%reduce.11), index=0, metadata={op_name="reduce" stack_frame_id=277}
  ROOT %reduce.13 = s32[1,1]{1,0} get-tuple-element(%reduce.11), index=1, metadata={op_name="reduce" stack_frame_id=277}
}

ENTRY %main.43 (decode_state__cache____decoder____layers____self_attention____KVCache_0____cache_ar_index__.1: s32[32,1], decode_state__cache____decoder____layers____self_attention____KVCache_0____cache_ar_segment_id__.1: s32[32,1,1984], decode_state__cache____decoder____layers____self_attention____KVCache_0____cache_prefill_segment_id__.1: s32[32,1,64], decode_state__cache____decoder____layers____self_attention____KVCache_0____cached_ar_key__.1: bf16[32,1984,8,1,128], decode_state__cache____decoder____layers____self_attention____KVCache_0____cached_ar_lengths__.1: s32[32,1], decode_state__cache____decoder____layers____self_attention____KVCache_0____cached_ar_value__.1: bf16[32,1984,8,1,128], decode_state__cache____decoder____layers____self_attention____KVCache_0____cached_prefill_key__.1: bf16[32,64,8,1,128], decode_state__cache____decoder____layers____self_attention____KVCache_0____cached_prefill_value__.1: bf16[32,64,8,1,128], decode_state__generated_tokens__.1: s32[1,1], decode_state__next_pos__.1: s32[1,1], decode_state__tokens__.1: s32[1,1], params__params____decoder____decoder_norm____scale__.1: f32[4096], params__params____decoder____layers____MoeBlock_0____gate____kernel__.1: f32[4096,32,8], params__params____decoder____layers____MoeBlock_0____wi_0__.1: f32[8,32,4096,14336], params__params____decoder____layers____MoeBlock_0____wi_1__.1: f32[8,32,4096,14336], params__params____decoder____layers____MoeBlock_0____wo__.1: f32[8,32,14336,4096], params__params____decoder____layers____post_self_attention_layer_norm____scale__.1: f32[4096,32], params__params____decoder____layers____pre_self_attention_layer_norm____scale__.1: f32[4096,32], params__params____decoder____layers____self_attention____key____kernel__.1: f32[4096,32,8,128], params__params____decoder____layers____self_attention____out____kernel__.1: f32[32,32,128,4096], params__params____decoder____layers____self_attention____query____kernel__.1: f32[4096,32,32,128], params__params____decoder____layers____self_attention____value____kernel__.1: f32[4096,32,8,128], params__params____decoder____logits_dense____kernel__.1: f32[4096,32000], params__params____token_embedder____embedding__.1: f32[32000,4096]) -> (s32[32,1], s32[32,1,1984], s32[32,1,64], bf16[32,1984,8,1,128], s32[32,1], /*index=5*/bf16[32,1984,8,1,128], bf16[32,64,8,1,128], bf16[32,64,8,1,128], s32[1,1], f32[1,1,32000], /*index=10*/s32[1,1], f32[1,1], s32[1,1], s32[1,3], f32[1,1]) {
  %constant.133 = s32[] constant(0)
  %params__params____token_embedder____embedding__.1 = f32[32000,4096]{1,0} parameter(23), sharding={replicated}, frontend_attributes={xla.sdy.sharding="#sdy.sharding<@mesh, [{\"tensor\", \"tensor_transpose\", \"tensor_sequence\", \"autoregressive\"}, {\"fsdp\", \"fsdp_transpose\", \"context\", \"expert\"}]>"}, metadata={op_name="params[\'params\'][\'token_embedder\'][\'embedding\']"}
  %convert_element_type.72 = bf16[32000,4096]{1,0} convert(%params__params____token_embedder____embedding__.1), metadata={op_name="jit(_generate_jit)/TransformerLinenPure.apply/TransformerLinenPure/decoder/decoder._apply_embedding/token_embedder/convert_element_type" stack_frame_id=283}
  %decode_state__tokens__.1 = s32[1,1]{1,0} parameter(10), sharding={replicated}, frontend_attributes={xla.sdy.sharding="#sdy.sharding<@mesh, [{\"stage\"}, {}]>"}, metadata={op_name="decode_state[\'tokens\']"}
  %constant.131 = s32[1,1]{1,0} constant({ {0} })
  %lt.19 = pred[1,1]{1,0} compare(%decode_state__tokens__.1, %constant.131), direction=LT, metadata={op_name="jit(_generate_jit)/TransformerLinenPure.apply/TransformerLinenPure/decoder/decoder._apply_embedding/token_embedder/lt" stack_frame_id=284}
  %constant.130 = s32[1,1]{1,0} constant({ {32000} })
  %add.42 = s32[1,1]{1,0} add(%decode_state__tokens__.1, %constant.130), metadata={op_name="jit(_generate_jit)/TransformerLinenPure.apply/TransformerLinenPure/decoder/decoder._apply_embedding/token_embedder/add" stack_frame_id=284}
  %select_n.27 = s32[1,1]{1,0} select(%lt.19, %add.42, %decode_state__tokens__.1), metadata={op_name="jit(_generate_jit)/TransformerLinenPure.apply/TransformerLinenPure/decoder/decoder._apply_embedding/token_embedder/select_n" stack_frame_id=284}
  %broadcast_in_dim.86 = s32[1,1,1]{2,1,0} reshape(%select_n.27), metadata={op_name="jit(_generate_jit)/TransformerLinenPure.apply/TransformerLinenPure/decoder/decoder._apply_embedding/token_embedder/broadcast_in_dim" stack_frame_id=284}
  %gather.1 = bf16[1,1,4096]{2,1,0} gather(%convert_element_type.72, %broadcast_in_dim.86), offset_dims={2}, collapsed_slice_dims={0}, start_index_map={0}, index_vector_dim=2, slice_sizes={1,4096}, metadata={op_name="jit(_generate_jit)/TransformerLinenPure.apply/TransformerLinenPure/decoder/decoder._apply_embedding/token_embedder/gather" stack_frame_id=284}
  %constant.129 = s32[] constant(0)
  %broadcast.19 = s32[32,1]{1,0} broadcast(%constant.129), dimensions={}
  %constant.128 = s32[] constant(0)
  %broadcast_in_dim.85 = s32[32,1,1984]{2,1,0} broadcast(%constant.128), dimensions={}, metadata={op_name="jit(_generate_jit)/TransformerLinenPure.apply/TransformerLinenPure/decoder/broadcast_in_dim" stack_frame_id=266}
  %constant.127 = s32[] constant(0)
  %broadcast_in_dim.84 = s32[32,1,64]{2,1,0} broadcast(%constant.127), dimensions={}, metadata={op_name="jit(_generate_jit)/TransformerLinenPure.apply/TransformerLinenPure/decoder/broadcast_in_dim" stack_frame_id=266}
  %constant.126 = bf16[] constant(0)
  %broadcast.18 = bf16[32,1984,8,1,128]{4,3,2,1,0} broadcast(%constant.126), dimensions={}
  %constant.125 = bf16[] constant(0)
  %broadcast.17 = bf16[32,64,8,1,128]{4,3,2,1,0} broadcast(%constant.125), dimensions={}
  %params__params____decoder____layers____MoeBlock_0____gate____kernel__.1 = f32[4096,32,8]{2,1,0} parameter(12), sharding={replicated}, frontend_attributes={xla.sdy.sharding="#sdy.sharding<@mesh, [{\"fsdp\", \"fsdp_transpose\", \"tensor_transpose\", \"context\", \"expert\"}, {\"stage\"}, {}]>"}, metadata={op_name="params[\'params\'][\'decoder\'][\'layers\'][\'MoeBlock_0\'][\'gate\'][\'kernel\']"}
  %transpose.41 = f32[32,4096,8]{2,0,1} transpose(%params__params____decoder____layers____MoeBlock_0____gate____kernel__.1), dimensions={1,0,2}, metadata={op_name="jit(_generate_jit)/TransformerLinenPure.apply/TransformerLinenPure/decoder/transpose" stack_frame_id=287}
  %params__params____decoder____layers____MoeBlock_0____wi_0__.1 = f32[8,32,4096,14336]{3,2,1,0} parameter(13), sharding={replicated}, frontend_attributes={xla.sdy.sharding="#sdy.sharding<@mesh, [{\"expert\"}, {\"stage\"}, {\"fsdp\", \"tensor_transpose\", \"context\"}, {\"fsdp_transpose\", \"tensor\", \"tensor_sequence\", \"autoregressive\"}]>"}, metadata={op_name="params[\'params\'][\'decoder\'][\'layers\'][\'MoeBlock_0\'][\'wi_0\']"}
  %transpose.42 = f32[32,8,4096,14336]{3,2,0,1} transpose(%params__params____decoder____layers____MoeBlock_0____wi_0__.1), dimensions={1,0,2,3}, metadata={op_name="jit(_generate_jit)/TransformerLinenPure.apply/TransformerLinenPure/decoder/transpose" stack_frame_id=287}
  %params__params____decoder____layers____MoeBlock_0____wi_1__.1 = f32[8,32,4096,14336]{3,2,1,0} parameter(14), sharding={replicated}, frontend_attributes={xla.sdy.sharding="#sdy.sharding<@mesh, [{\"expert\"}, {\"stage\"}, {\"fsdp\", \"tensor_transpose\", \"context\"}, {\"fsdp_transpose\", \"tensor\", \"tensor_sequence\", \"autoregressive\"}]>"}, metadata={op_name="params[\'params\'][\'decoder\'][\'layers\'][\'MoeBlock_0\'][\'wi_1\']"}
  %transpose.43 = f32[32,8,4096,14336]{3,2,0,1} transpose(%params__params____decoder____layers____MoeBlock_0____wi_1__.1), dimensions={1,0,2,3}, metadata={op_name="jit(_generate_jit)/TransformerLinenPure.apply/TransformerLinenPure/decoder/transpose" stack_frame_id=287}
  %params__params____decoder____layers____MoeBlock_0____wo__.1 = f32[8,32,14336,4096]{3,2,1,0} parameter(15), sharding={replicated}, frontend_attributes={xla.sdy.sharding="#sdy.sharding<@mesh, [{\"expert\"}, {\"stage\"}, {\"fsdp_transpose\", \"tensor\", \"tensor_sequence\", \"autoregressive\"}, {\"fsdp\", \"tensor_transpose\", \"context\"}]>"}, metadata={op_name="params[\'params\'][\'decoder\'][\'layers\'][\'MoeBlock_0\'][\'wo\']"}
  %transpose.44 = f32[32,8,14336,4096]{3,2,0,1} transpose(%params__params____decoder____layers____MoeBlock_0____wo__.1), dimensions={1,0,2,3}, metadata={op_name="jit(_generate_jit)/TransformerLinenPure.apply/TransformerLinenPure/decoder/transpose" stack_frame_id=287}
  %params__params____decoder____layers____post_self_attention_layer_norm____scale__.1 = f32[4096,32]{1,0} parameter(16), sharding={replicated}, frontend_attributes={xla.sdy.sharding="#sdy.sharding<@mesh, [{\"tensor\", \"tensor_transpose\"}, {\"stage\"}]>"}, metadata={op_name="params[\'params\'][\'decoder\'][\'layers\'][\'post_self_attention_layer_norm\'][\'scale\']"}
  %transpose.45 = f32[32,4096]{0,1} transpose(%params__params____decoder____layers____post_self_attention_layer_norm____scale__.1), dimensions={1,0}, metadata={op_name="jit(_generate_jit)/TransformerLinenPure.apply/TransformerLinenPure/decoder/transpose" stack_frame_id=287}
  %params__params____decoder____layers____pre_self_attention_layer_norm____scale__.1 = f32[4096,32]{1,0} parameter(17), sharding={replicated}, frontend_attributes={xla.sdy.sharding="#sdy.sharding<@mesh, [{\"tensor\", \"tensor_transpose\"}, {\"stage\"}]>"}, metadata={op_name="params[\'params\'][\'decoder\'][\'layers\'][\'pre_self_attention_layer_norm\'][\'scale\']"}
  %transpose.46 = f32[32,4096]{0,1} transpose(%params__params____decoder____layers____pre_self_attention_layer_norm____scale__.1), dimensions={1,0}, metadata={op_name="jit(_generate_jit)/TransformerLinenPure.apply/TransformerLinenPure/decoder/transpose" stack_frame_id=287}
  %params__params____decoder____layers____self_attention____key____kernel__.1 = f32[4096,32,8,128]{3,2,1,0} parameter(18), sharding={replicated}, frontend_attributes={xla.sdy.sharding="#sdy.sharding<@mesh, [{\"fsdp\", \"fsdp_transpose\", \"context\", \"expert\"}, {\"stage\"}, {\"tensor\", \"tensor_transpose\", \"tensor_sequence\", \"autoregressive\"}, {}]>"}, metadata={op_name="params[\'params\'][\'decoder\'][\'layers\'][\'self_attention\'][\'key\'][\'kernel\']"}
  %transpose.47 = f32[32,4096,8,128]{3,2,0,1} transpose(%params__params____decoder____layers____self_attention____key____kernel__.1), dimensions={1,0,2,3}, metadata={op_name="jit(_generate_jit)/TransformerLinenPure.apply/TransformerLinenPure/decoder/transpose" stack_frame_id=287}
  %params__params____decoder____layers____self_attention____out____kernel__.1 = f32[32,32,128,4096]{3,2,1,0} parameter(19), sharding={replicated}, frontend_attributes={xla.sdy.sharding="#sdy.sharding<@mesh, [{\"tensor\", \"tensor_transpose\", \"tensor_sequence\", \"autoregressive\"}, {\"stage\"}, {}, {\"fsdp\", \"fsdp_transpose\", \"context\", \"expert\"}]>"}, metadata={op_name="params[\'params\'][\'decoder\'][\'layers\'][\'self_attention\'][\'out\'][\'kernel\']"}
  %transpose.48 = f32[32,32,128,4096]{3,2,0,1} transpose(%params__params____decoder____layers____self_attention____out____kernel__.1), dimensions={1,0,2,3}, metadata={op_name="jit(_generate_jit)/TransformerLinenPure.apply/TransformerLinenPure/decoder/transpose" stack_frame_id=287}
  %params__params____decoder____layers____self_attention____query____kernel__.1 = f32[4096,32,32,128]{3,2,1,0} parameter(20), sharding={replicated}, frontend_attributes={xla.sdy.sharding="#sdy.sharding<@mesh, [{\"fsdp\", \"fsdp_transpose\", \"context\", \"expert\"}, {\"stage\"}, {\"tensor\", \"tensor_transpose\", \"tensor_sequence\", \"autoregressive\"}, {}]>"}, metadata={op_name="params[\'params\'][\'decoder\'][\'layers\'][\'self_attention\'][\'query\'][\'kernel\']"}
  %transpose.49 = f32[32,4096,32,128]{3,2,0,1} transpose(%params__params____decoder____layers____self_attention____query____kernel__.1), dimensions={1,0,2,3}, metadata={op_name="jit(_generate_jit)/TransformerLinenPure.apply/TransformerLinenPure/decoder/transpose" stack_frame_id=287}
  %params__params____decoder____layers____self_attention____value____kernel__.1 = f32[4096,32,8,128]{3,2,1,0} parameter(21), sharding={replicated}, frontend_attributes={xla.sdy.sharding="#sdy.sharding<@mesh, [{\"fsdp\", \"fsdp_transpose\", \"context\", \"expert\"}, {\"stage\"}, {\"tensor\", \"tensor_transpose\", \"tensor_sequence\", \"autoregressive\"}, {}]>"}, metadata={op_name="params[\'params\'][\'decoder\'][\'layers\'][\'self_attention\'][\'value\'][\'kernel\']"}
  %transpose.50 = f32[32,4096,8,128]{3,2,0,1} transpose(%params__params____decoder____layers____self_attention____value____kernel__.1), dimensions={1,0,2,3}, metadata={op_name="jit(_generate_jit)/TransformerLinenPure.apply/TransformerLinenPure/decoder/transpose" stack_frame_id=287}
  %decode_state__cache____decoder____layers____self_attention____KVCache_0____cache_ar_index__.1 = s32[32,1]{1,0} parameter(0), sharding={replicated}, frontend_attributes={xla.sdy.sharding="#sdy.sharding<@mesh, [{\"stage\"}, {}]>"}, metadata={op_name="decode_state[\'cache\'][\'decoder\'][\'layers\'][\'self_attention\'][\'KVCache_0\'][\'cache_ar_index\']"}
  %decode_state__cache____decoder____layers____self_attention____KVCache_0____cache_ar_segment_id__.1 = s32[32,1,1984]{2,1,0} parameter(1), sharding={replicated}, frontend_attributes={xla.sdy.sharding="#sdy.sharding<@mesh, [{}, {}, {}]>"}, metadata={op_name="decode_state[\'cache\'][\'decoder\'][\'layers\'][\'self_attention\'][\'KVCache_0\'][\'cache_ar_segment_id\']"}
  %decode_state__cache____decoder____layers____self_attention____KVCache_0____cache_prefill_segment_id__.1 = s32[32,1,64]{2,1,0} parameter(2), sharding={replicated}, frontend_attributes={xla.sdy.sharding="#sdy.sharding<@mesh, [{}, {}, {}]>"}, metadata={op_name="decode_state[\'cache\'][\'decoder\'][\'layers\'][\'self_attention\'][\'KVCache_0\'][\'cache_prefill_segment_id\']"}
  %decode_state__cache____decoder____layers____self_attention____KVCache_0____cached_ar_key__.1 = bf16[32,1984,8,1,128]{4,3,2,1,0} parameter(3), sharding={replicated}, frontend_attributes={xla.sdy.sharding="#sdy.sharding<@mesh, [{}, {}, {}, {}, {}]>"}, metadata={op_name="decode_state[\'cache\'][\'decoder\'][\'layers\'][\'self_attention\'][\'KVCache_0\'][\'cached_ar_key\']"}
  %decode_state__cache____decoder____layers____self_attention____KVCache_0____cached_ar_lengths__.1 = s32[32,1]{1,0} parameter(4), sharding={replicated}, frontend_attributes={xla.sdy.sharding="#sdy.sharding<@mesh, [{\"stage\"}, {}]>"}, metadata={op_name="decode_state[\'cache\'][\'decoder\'][\'layers\'][\'self_attention\'][\'KVCache_0\'][\'cached_ar_lengths\']"}
  %decode_state__cache____decoder____layers____self_attention____KVCache_0____cached_ar_value__.1 = bf16[32,1984,8,1,128]{4,3,2,1,0} parameter(5), sharding={replicated}, frontend_attributes={xla.sdy.sharding="#sdy.sharding<@mesh, [{}, {}, {}, {}, {}]>"}, metadata={op_name="decode_state[\'cache\'][\'decoder\'][\'layers\'][\'self_attention\'][\'KVCache_0\'][\'cached_ar_value\']"}
  %decode_state__cache____decoder____layers____self_attention____KVCache_0____cached_prefill_key__.1 = bf16[32,64,8,1,128]{4,3,2,1,0} parameter(6), sharding={replicated}, frontend_attributes={xla.sdy.sharding="#sdy.sharding<@mesh, [{}, {}, {}, {}, {}]>"}, metadata={op_name="decode_state[\'cache\'][\'decoder\'][\'layers\'][\'self_attention\'][\'KVCache_0\'][\'cached_prefill_key\']"}
  %decode_state__cache____decoder____layers____self_attention____KVCache_0____cached_prefill_value__.1 = bf16[32,64,8,1,128]{4,3,2,1,0} parameter(7), sharding={replicated}, frontend_attributes={xla.sdy.sharding="#sdy.sharding<@mesh, [{}, {}, {}, {}, {}]>"}, metadata={op_name="decode_state[\'cache\'][\'decoder\'][\'layers\'][\'self_attention\'][\'KVCache_0\'][\'cached_prefill_value\']"}
  %decode_state__next_pos__.1 = s32[1,1]{1,0} parameter(9), sharding={replicated}, frontend_attributes={xla.sdy.sharding="#sdy.sharding<@mesh, [{\"stage\"}, {}]>"}, metadata={op_name="decode_state[\'next_pos\']"}
  %while.12 = (s32[], bf16[1,1,4096]{2,1,0}, s32[32,1]{1,0}, s32[32,1,1984]{2,1,0}, s32[32,1,64]{2,1,0}, /*index=5*/bf16[32,1984,8,1,128]{4,3,2,1,0}, s32[32,1]{1,0}, bf16[32,1984,8,1,128]{4,3,2,1,0}, bf16[32,64,8,1,128]{4,3,2,1,0}, bf16[32,64,8,1,128]{4,3,2,1,0}, /*index=10*/f32[32,4096,8]{2,0,1}, f32[32,8,4096,14336]{3,2,0,1}, f32[32,8,4096,14336]{3,2,0,1}, f32[32,8,14336,4096]{3,2,0,1}, f32[32,4096]{0,1}, /*index=15*/f32[32,4096]{0,1}, f32[32,4096,8,128]{3,2,0,1}, f32[32,32,128,4096]{3,2,0,1}, f32[32,4096,32,128]{3,2,0,1}, f32[32,4096,8,128]{3,2,0,1}, /*index=20*/s32[32,1]{1,0}, s32[32,1,1984]{2,1,0}, s32[32,1,64]{2,1,0}, bf16[32,1984,8,1,128]{4,3,2,1,0}, s32[32,1]{1,0}, /*index=25*/bf16[32,1984,8,1,128]{4,3,2,1,0}, bf16[32,64,8,1,128]{4,3,2,1,0}, bf16[32,64,8,1,128]{4,3,2,1,0}, s32[1,1]{1,0}) tuple(%constant.133, %gather.1, %broadcast.19, %broadcast_in_dim.85, %broadcast_in_dim.84, /*index=5*/%broadcast.18, %broadcast.19, %broadcast.18, %broadcast.17, %broadcast.17, /*index=10*/%transpose.41, %transpose.42, %transpose.43, %transpose.44, %transpose.45, /*index=15*/%transpose.46, %transpose.47, %transpose.48, %transpose.49, %transpose.50, /*index=20*/%decode_state__cache____decoder____layers____self_attention____KVCache_0____cache_ar_index__.1, %decode_state__cache____decoder____layers____self_attention____KVCache_0____cache_ar_segment_id__.1, %decode_state__cache____decoder____layers____self_attention____KVCache_0____cache_prefill_segment_id__.1, %decode_state__cache____decoder____layers____self_attention____KVCache_0____cached_ar_key__.1, %decode_state__cache____decoder____layers____self_attention____KVCache_0____cached_ar_lengths__.1, /*index=25*/%decode_state__cache____decoder____layers____self_attention____KVCache_0____cached_ar_value__.1, %decode_state__cache____decoder____layers____self_attention____KVCache_0____cached_prefill_key__.1, %decode_state__cache____decoder____layers____self_attention____KVCache_0____cached_prefill_value__.1, %decode_state__next_pos__.1), metadata={op_name="jit(_generate_jit)/TransformerLinenPure.apply/TransformerLinenPure/decoder/while" stack_frame_id=266}
  %while.13 = (s32[], bf16[1,1,4096]{2,1,0}, s32[32,1]{1,0}, s32[32,1,1984]{2,1,0}, s32[32,1,64]{2,1,0}, /*index=5*/bf16[32,1984,8,1,128]{4,3,2,1,0}, s32[32,1]{1,0}, bf16[32,1984,8,1,128]{4,3,2,1,0}, bf16[32,64,8,1,128]{4,3,2,1,0}, bf16[32,64,8,1,128]{4,3,2,1,0}, /*index=10*/f32[32,4096,8]{2,0,1}, f32[32,8,4096,14336]{3,2,0,1}, f32[32,8,4096,14336]{3,2,0,1}, f32[32,8,14336,4096]{3,2,0,1}, f32[32,4096]{0,1}, /*index=15*/f32[32,4096]{0,1}, f32[32,4096,8,128]{3,2,0,1}, f32[32,32,128,4096]{3,2,0,1}, f32[32,4096,32,128]{3,2,0,1}, f32[32,4096,8,128]{3,2,0,1}, /*index=20*/s32[32,1]{1,0}, s32[32,1,1984]{2,1,0}, s32[32,1,64]{2,1,0}, bf16[32,1984,8,1,128]{4,3,2,1,0}, s32[32,1]{1,0}, /*index=25*/bf16[32,1984,8,1,128]{4,3,2,1,0}, bf16[32,64,8,1,128]{4,3,2,1,0}, bf16[32,64,8,1,128]{4,3,2,1,0}, s32[1,1]{1,0}) while(%while.12), condition=%region_11.39, body=%region_0.38, metadata={op_name="jit(_generate_jit)/TransformerLinenPure.apply/TransformerLinenPure/decoder/while" stack_frame_id=266}
  %while.14 = s32[] get-tuple-element(%while.13), index=0, metadata={op_name="jit(_generate_jit)/TransformerLinenPure.apply/TransformerLinenPure/decoder/while" stack_frame_id=266}
  %while.16 = s32[32,1]{1,0} get-tuple-element(%while.13), index=2, metadata={op_name="jit(_generate_jit)/TransformerLinenPure.apply/TransformerLinenPure/decoder/while" stack_frame_id=266}
  %sharding_constraint.30 = s32[32,1]{1,0} custom-call(%while.16), custom_call_target="Sharding", sharding={replicated}, frontend_attributes={xla.sdy.sharding="#sdy.sharding_per_value<[<@mesh, [{\"stage\"}, {}]>]>"}, metadata={op_name="jit(_generate_jit)/sharding_constraint" stack_frame_id=288}
  %while.17 = s32[32,1,1984]{2,1,0} get-tuple-element(%while.13), index=3, metadata={op_name="jit(_generate_jit)/TransformerLinenPure.apply/TransformerLinenPure/decoder/while" stack_frame_id=266}
  %sharding_constraint.31 = s32[32,1,1984]{2,1,0} custom-call(%while.17), custom_call_target="Sharding", sharding={replicated}, frontend_attributes={xla.sdy.sharding="#sdy.sharding_per_value<[<@mesh, [{\"stage\"}, {}, {}]>]>"}, metadata={op_name="jit(_generate_jit)/sharding_constraint" stack_frame_id=288}
  %while.18 = s32[32,1,64]{2,1,0} get-tuple-element(%while.13), index=4, metadata={op_name="jit(_generate_jit)/TransformerLinenPure.apply/TransformerLinenPure/decoder/while" stack_frame_id=266}
  %sharding_constraint.32 = s32[32,1,64]{2,1,0} custom-call(%while.18), custom_call_target="Sharding", sharding={replicated}, frontend_attributes={xla.sdy.sharding="#sdy.sharding_per_value<[<@mesh, [{\"stage\"}, {}, {}]>]>"}, metadata={op_name="jit(_generate_jit)/sharding_constraint" stack_frame_id=288}
  %while.19 = bf16[32,1984,8,1,128]{4,3,2,1,0} get-tuple-element(%while.13), index=5, metadata={op_name="jit(_generate_jit)/TransformerLinenPure.apply/TransformerLinenPure/decoder/while" stack_frame_id=266}
  %sharding_constraint.33 = bf16[32,1984,8,1,128]{4,3,2,1,0} custom-call(%while.19), custom_call_target="Sharding", sharding={replicated}, frontend_attributes={xla.sdy.sharding="#sdy.sharding_per_value<[<@mesh, [{\"stage\"}, {}, {\"autoregressive\", \"tensor\", \"tensor_transpose\", \"tensor_sequence\"}, {}, {}]>]>"}, metadata={op_name="jit(_generate_jit)/sharding_constraint" stack_frame_id=288}
  %while.20 = s32[32,1]{1,0} get-tuple-element(%while.13), index=6, metadata={op_name="jit(_generate_jit)/TransformerLinenPure.apply/TransformerLinenPure/decoder/while" stack_frame_id=266}
  %sharding_constraint.34 = s32[32,1]{1,0} custom-call(%while.20), custom_call_target="Sharding", sharding={replicated}, frontend_attributes={xla.sdy.sharding="#sdy.sharding_per_value<[<@mesh, [{\"stage\"}, {}]>]>"}, metadata={op_name="jit(_generate_jit)/sharding_constraint" stack_frame_id=288}
  %while.21 = bf16[32,1984,8,1,128]{4,3,2,1,0} get-tuple-element(%while.13), index=7, metadata={op_name="jit(_generate_jit)/TransformerLinenPure.apply/TransformerLinenPure/decoder/while" stack_frame_id=266}
  %sharding_constraint.35 = bf16[32,1984,8,1,128]{4,3,2,1,0} custom-call(%while.21), custom_call_target="Sharding", sharding={replicated}, frontend_attributes={xla.sdy.sharding="#sdy.sharding_per_value<[<@mesh, [{\"stage\"}, {}, {\"autoregressive\", \"tensor\", \"tensor_transpose\", \"tensor_sequence\"}, {}, {}]>]>"}, metadata={op_name="jit(_generate_jit)/sharding_constraint" stack_frame_id=288}
  %while.22 = bf16[32,64,8,1,128]{4,3,2,1,0} get-tuple-element(%while.13), index=8, metadata={op_name="jit(_generate_jit)/TransformerLinenPure.apply/TransformerLinenPure/decoder/while" stack_frame_id=266}
  %sharding_constraint.36 = bf16[32,64,8,1,128]{4,3,2,1,0} custom-call(%while.22), custom_call_target="Sharding", sharding={replicated}, frontend_attributes={xla.sdy.sharding="#sdy.sharding_per_value<[<@mesh, [{\"stage\"}, {}, {\"autoregressive\", \"tensor\", \"tensor_transpose\", \"tensor_sequence\"}, {}, {}]>]>"}, metadata={op_name="jit(_generate_jit)/sharding_constraint" stack_frame_id=288}
  %while.23 = bf16[32,64,8,1,128]{4,3,2,1,0} get-tuple-element(%while.13), index=9, metadata={op_name="jit(_generate_jit)/TransformerLinenPure.apply/TransformerLinenPure/decoder/while" stack_frame_id=266}
  %sharding_constraint.37 = bf16[32,64,8,1,128]{4,3,2,1,0} custom-call(%while.23), custom_call_target="Sharding", sharding={replicated}, frontend_attributes={xla.sdy.sharding="#sdy.sharding_per_value<[<@mesh, [{\"stage\"}, {}, {\"autoregressive\", \"tensor\", \"tensor_transpose\", \"tensor_sequence\"}, {}, {}]>]>"}, metadata={op_name="jit(_generate_jit)/sharding_constraint" stack_frame_id=288}
  %decode_state__generated_tokens__.1 = s32[1,1]{1,0} parameter(8), sharding={replicated}, frontend_attributes={xla.sdy.sharding="#sdy.sharding<@mesh, [{\"stage\"}, {}]>"}, metadata={op_name="decode_state[\'generated_tokens\']"}
  %constant.121 = s32[1,1]{1,0} constant({ {1} })
  %add.45 = s32[1,1]{1,0} add(%decode_state__generated_tokens__.1, %constant.121), metadata={op_name="jit(_generate_jit)/add" stack_frame_id=289}
  %params__params____decoder____decoder_norm____scale__.1 = f32[4096]{0} parameter(11), sharding={replicated}, frontend_attributes={xla.sdy.sharding="#sdy.sharding<@mesh, [{\"tensor\", \"tensor_transpose\"}]>"}, metadata={op_name="params[\'params\'][\'decoder\'][\'decoder_norm\'][\'scale\']"}
  %convert_element_type.75 = bf16[4096]{0} convert(%params__params____decoder____decoder_norm____scale__.1), metadata={op_name="jit(_generate_jit)/TransformerLinenPure.apply/TransformerLinenPure/decoder/decoder.apply_output_head/decoder_norm/convert_element_type" stack_frame_id=290}
  %while.15 = bf16[1,1,4096]{2,1,0} get-tuple-element(%while.13), index=1, metadata={op_name="jit(_generate_jit)/TransformerLinenPure.apply/TransformerLinenPure/decoder/while" stack_frame_id=266}
  %convert_element_type.73 = f32[1,1,4096]{2,1,0} convert(%while.15), metadata={op_name="jit(_generate_jit)/TransformerLinenPure.apply/TransformerLinenPure/decoder/decoder.apply_output_head/decoder_norm/convert_element_type" stack_frame_id=291}
  %square.5 = f32[1,1,4096]{2,1,0} multiply(%convert_element_type.73, %convert_element_type.73), metadata={op_name="jit(_generate_jit)/TransformerLinenPure.apply/TransformerLinenPure/decoder/decoder.apply_output_head/decoder_norm/square" stack_frame_id=292}
  %constant.132 = f32[] constant(0)
  %reduce_sum.47 = f32[1,1]{1,0} reduce(%square.5, %constant.132), dimensions={2}, to_apply=%region_12.40, metadata={op_name="jit(_generate_jit)/TransformerLinenPure.apply/TransformerLinenPure/decoder/decoder.apply_output_head/decoder_norm/reduce_sum" stack_frame_id=275}
  %broadcast_in_dim.87 = f32[1,1,1]{2,1,0} reshape(%reduce_sum.47), metadata={op_name="jit(_generate_jit)/TransformerLinenPure.apply/TransformerLinenPure/decoder/decoder.apply_output_head/decoder_norm/broadcast_in_dim" stack_frame_id=275}
  %constant.124 = f32[1,1,1]{2,1,0} constant({ { {4096} } })
  %div.39 = f32[1,1,1]{2,1,0} divide(%broadcast_in_dim.87, %constant.124), metadata={op_name="jit(_generate_jit)/TransformerLinenPure.apply/TransformerLinenPure/decoder/decoder.apply_output_head/decoder_norm/div" stack_frame_id=275}
  %constant.123 = f32[1,1,1]{2,1,0} constant({ { {1e-05} } })
  %add.43 = f32[1,1,1]{2,1,0} add(%div.39, %constant.123), metadata={op_name="jit(_generate_jit)/TransformerLinenPure.apply/TransformerLinenPure/decoder/decoder.apply_output_head/decoder_norm/add" stack_frame_id=293}
  %rsqrt.5 = f32[1,1,1]{2,1,0} rsqrt(%add.43), metadata={op_name="jit(_generate_jit)/TransformerLinenPure.apply/TransformerLinenPure/decoder/decoder.apply_output_head/decoder_norm/rsqrt" stack_frame_id=294}
  %mul.80 = f32[1,1,1]{2,1,0} broadcast(%rsqrt.5), dimensions={0,1,2}, metadata={op_name="jit(_generate_jit)/TransformerLinenPure.apply/TransformerLinenPure/decoder/decoder.apply_output_head/decoder_norm/mul" stack_frame_id=295}
  %mul.81 = f32[1,1]{1,0} reshape(%mul.80), metadata={op_name="jit(_generate_jit)/TransformerLinenPure.apply/TransformerLinenPure/decoder/decoder.apply_output_head/decoder_norm/mul" stack_frame_id=295}
  %mul.82 = f32[1,1,4096]{2,1,0} broadcast(%mul.81), dimensions={0,1}, metadata={op_name="jit(_generate_jit)/TransformerLinenPure.apply/TransformerLinenPure/decoder/decoder.apply_output_head/decoder_norm/mul" stack_frame_id=295}
  %mul.83 = f32[1,1,4096]{2,1,0} multiply(%convert_element_type.73, %mul.82), metadata={op_name="jit(_generate_jit)/TransformerLinenPure.apply/TransformerLinenPure/decoder/decoder.apply_output_head/decoder_norm/mul" stack_frame_id=295}
  %convert_element_type.74 = bf16[1,1,4096]{2,1,0} convert(%mul.83), metadata={op_name="jit(_generate_jit)/TransformerLinenPure.apply/TransformerLinenPure/decoder/decoder.apply_output_head/decoder_norm/convert_element_type" stack_frame_id=296}
  %dot_general.32 = bf16[4096,1,1]{2,1,0} dot(%convert_element_type.75, %convert_element_type.74), lhs_batch_dims={0}, lhs_contracting_dims={}, rhs_batch_dims={2}, rhs_contracting_dims={}, metadata={op_name="jit(_generate_jit)/TransformerLinenPure.apply/TransformerLinenPure/decoder/decoder.apply_output_head/decoder_norm/...k,k->...k/dot_general" stack_frame_id=297}
  %transpose.51 = bf16[1,1,4096]{2,1,0} reshape(%dot_general.32), metadata={op_name="jit(_generate_jit)/TransformerLinenPure.apply/TransformerLinenPure/decoder/decoder.apply_output_head/decoder_norm/...k,k->...k/transpose" stack_frame_id=297}
  %params__params____decoder____logits_dense____kernel__.1 = f32[4096,32000]{1,0} parameter(22), sharding={replicated}, frontend_attributes={xla.sdy.sharding="#sdy.sharding<@mesh, [{\"fsdp\", \"fsdp_transpose\", \"context\", \"expert\"}, {\"tensor\", \"tensor_transpose\", \"tensor_sequence\", \"autoregressive\"}]>"}, metadata={op_name="params[\'params\'][\'decoder\'][\'logits_dense\'][\'kernel\']"}
  %convert_element_type.76 = bf16[4096,32000]{1,0} convert(%params__params____decoder____logits_dense____kernel__.1), metadata={op_name="jit(_generate_jit)/TransformerLinenPure.apply/TransformerLinenPure/decoder/decoder.apply_output_head/logits_dense/convert_element_type" stack_frame_id=300}
  %dot_general.33 = bf16[1,1,32000]{2,1,0} dot(%transpose.51, %convert_element_type.76), lhs_contracting_dims={2}, rhs_contracting_dims={0}, metadata={op_name="jit(_generate_jit)/TransformerLinenPure.apply/TransformerLinenPure/decoder/decoder.apply_output_head/logits_dense/dot_general" stack_frame_id=302}
  %convert_element_type.77 = f32[1,1,32000]{2,1,0} convert(%dot_general.33), metadata={op_name="jit(_generate_jit)/TransformerLinenPure.apply/TransformerLinenPure/decoder/decoder.apply_output_head/convert_element_type" stack_frame_id=303}
  %sharding_constraint.29 = f32[1,1,32000]{2,1,0} custom-call(%convert_element_type.77), custom_call_target="Sharding", sharding={replicated}, frontend_attributes={xla.sdy.sharding="#sdy.sharding_per_value<[<@mesh, [{}, {}, {}]>]>"}, metadata={op_name="jit(_generate_jit)/sharding_constraint" stack_frame_id=304}
  %add.44 = s32[1,1]{1,0} add(%decode_state__next_pos__.1, %constant.121), metadata={op_name="jit(_generate_jit)/add" stack_frame_id=305}
  %constant.122 = f32[1,1]{1,0} constant({ {0} })
  %jit__generate_jit_.3 = s32[1,1]{1,0} call(%sharding_constraint.29), to_apply=%argmax.42, metadata={op_name="jit(_generate_jit)" stack_frame_id=307}
  %concatenate.15 = s32[1,3]{1,0} concatenate(%jit__generate_jit_.3, %constant.121, %add.45), dimensions={1}, metadata={op_name="jit(_generate_jit)/concatenate" stack_frame_id=308}
  ROOT %tuple.7 = (s32[32,1]{1,0}, s32[32,1,1984]{2,1,0}, s32[32,1,64]{2,1,0}, bf16[32,1984,8,1,128]{4,3,2,1,0}, s32[32,1]{1,0}, /*index=5*/bf16[32,1984,8,1,128]{4,3,2,1,0}, bf16[32,64,8,1,128]{4,3,2,1,0}, bf16[32,64,8,1,128]{4,3,2,1,0}, s32[1,1]{1,0}, f32[1,1,32000]{2,1,0}, /*index=10*/s32[1,1]{1,0}, f32[1,1]{1,0}, s32[1,1]{1,0}, s32[1,3]{1,0}, f32[1,1]{1,0}) tuple(%sharding_constraint.30, %sharding_constraint.31, %sharding_constraint.32, %sharding_constraint.33, %sharding_constraint.34, /*index=5*/%sharding_constraint.35, %sharding_constraint.36, %sharding_constraint.37, %add.45, %sharding_constraint.29, /*index=10*/%add.44, %constant.122, %jit__generate_jit_.3, %concatenate.15, %constant.122)
}

