HloModule jit_train_step, input_output_alias={ {0}: (0, {}, may-alias), {1}: (1, {}, may-alias), {2}: (2, {}, may-alias), {3}: (3, {}, may-alias), {4}: (4, {}, may-alias), {5}: (5, {}, may-alias), {6}: (6, {}, may-alias), {7}: (7, {}, may-alias), {8}: (8, {}, may-alias), {9}: (9, {}, may-alias), {10}: (10, {}, may-alias), {11}: (11, {}, may-alias), {12}: (12, {}, may-alias), {13}: (13, {}, may-alias), {14}: (14, {}, may-alias), {15}: (15, {}, may-alias), {16}: (16, {}, may-alias), {17}: (17, {}, may-alias), {18}: (18, {}, may-alias), {19}: (19, {}, may-alias), {20}: (20, {}, may-alias), {21}: (21, {}, may-alias), {22}: (22, {}, may-alias), {23}: (23, {}, may-alias), {24}: (24, {}, may-alias), {25}: (25, {}, may-alias), {26}: (26, {}, may-alias), {27}: (27, {}, may-alias), {28}: (28, {}, may-alias), {29}: (29, {}, may-alias), {30}: (30, {}, may-alias), {31}: (31, {}, may-alias), {32}: (32, {}, may-alias), {33}: (33, {}, may-alias), {34}: (34, {}, may-alias), {35}: (35, {}, may-alias), {36}: (36, {}, may-alias), {37}: (37, {}, may-alias), {38}: (38, {}, may-alias), {39}: (39, {}, may-alias), {40}: (40, {}, may-alias), {41}: (41, {}, may-alias), {42}: (42, {}, may-alias), {43}: (43, {}, may-alias), {44}: (44, {}, may-alias), {45}: (45, {}, may-alias), {46}: (46, {}, may-alias), {47}: (47, {}, may-alias), {48}: (48, {}, may-alias), {49}: (49, {}, may-alias), {50}: (50, {}, may-alias), {51}: (51, {}, may-alias), {52}: (52, {}, may-alias), {53}: (53, {}, may-alias), {54}: (54, {}, may-alias), {55}: (55, {}, may-alias), {56}: (56, {}, may-alias), {57}: (57, {}, may-alias), {58}: (58, {}, may-alias), {59}: (59, {}, may-alias), {60}: (60, {}, may-alias), {61}: (61, {}, may-alias), {62}: (62, {}, may-alias), {63}: (63, {}, may-alias), {64}: (64, {}, may-alias), {65}: (65, {}, may-alias), {66}: (66, {}, may-alias), {67}: (67, {}, may-alias), {68}: (68, {}, may-alias), {69}: (69, {}, may-alias), {70}: (70, {}, may-alias), {71}: (71, {}, may-alias), {72}: (72, {}, may-alias), {73}: (73, {}, may-alias), {74}: (74, {}, may-alias), {75}: (75, {}, may-alias), {76}: (76, {}, may-alias), {77}: (77, {}, may-alias), {78}: (78, {}, may-alias), {79}: (79, {}, may-alias), {80}: (80, {}, may-alias), {81}: (81, {}, may-alias), {82}: (82, {}, may-alias), {83}: (83, {}, may-alias), {84}: (84, {}, may-alias), {85}: (85, {}, may-alias), {86}: (86, {}, may-alias), {87}: (87, {}, may-alias), {88}: (88, {}, may-alias), {89}: (89, {}, may-alias), {90}: (90, {}, may-alias), {91}: (91, {}, may-alias), {92}: (92, {}, may-alias), {93}: (93, {}, may-alias), {94}: (94, {}, may-alias), {95}: (95, {}, may-alias), {96}: (96, {}, may-alias), {97}: (97, {}, may-alias), {98}: (98, {}, may-alias), {99}: (99, {}, may-alias), {100}: (100, {}, may-alias), {101}: (101, {}, may-alias), {102}: (102, {}, may-alias), {103}: (103, {}, may-alias), {104}: (104, {}, may-alias), {105}: (105, {}, may-alias), {106}: (106, {}, may-alias), {107}: (107, {}, may-alias), {108}: (108, {}, may-alias), {109}: (109, {}, may-alias), {110}: (110, {}, may-alias), {111}: (111, {}, may-alias), {112}: (112, {}, may-alias), {113}: (113, {}, may-alias), {114}: (114, {}, may-alias), {115}: (115, {}, may-alias), {116}: (116, {}, may-alias), {117}: (117, {}, may-alias), {118}: (118, {}, may-alias), {119}: (119, {}, may-alias), {120}: (120, {}, may-alias), {121}: (121, {}, may-alias), {122}: (122, {}, may-alias), {123}: (123, {}, may-alias), {124}: (124, {}, may-alias), {125}: (125, {}, may-alias), {126}: (126, {}, may-alias), {127}: (127, {}, may-alias), {128}: (128, {}, may-alias), {129}: (129, {}, may-alias), {130}: (130, {}, may-alias), {131}: (131, {}, may-alias), {132}: (132, {}, may-alias), {133}: (133, {}, may-alias), {134}: (134, {}, may-alias), {135}: (135, {}, may-alias), {136}: (136, {}, may-alias), {137}: (137, {}, may-alias), {138}: (138, {}, may-alias), {139}: (139, {}, may-alias), {140}: (140, {}, may-alias), {141}: (141, {}, may-alias), {142}: (142, {}, may-alias), {143}: (143, {}, may-alias), {144}: (144, {}, may-alias), {145}: (145, {}, may-alias), {146}: (146, {}, may-alias), {147}: (147, {}, may-alias), {148}: (148, {}, may-alias), {149}: (149, {}, may-alias), {150}: (150, {}, may-alias), {151}: (151, {}, may-alias), {152}: (152, {}, may-alias), {153}: (153, {}, may-alias), {154}: (154, {}, may-alias), {155}: (155, {}, may-alias), {156}: (156, {}, may-alias), {157}: (157, {}, may-alias), {158}: (158, {}, may-alias), {159}: (159, {}, may-alias), {160}: (160, {}, may-alias), {161}: (161, {}, may-alias), {162}: (162, {}, may-alias), {163}: (163, {}, may-alias), {164}: (164, {}, may-alias), {165}: (165, {}, may-alias), {166}: (166, {}, may-alias), {167}: (167, {}, may-alias), {168}: (168, {}, may-alias), {169}: (169, {}, may-alias), {170}: (170, {}, may-alias), {171}: (171, {}, may-alias), {172}: (172, {}, may-alias), {173}: (173, {}, may-alias), {174}: (174, {}, may-alias), {175}: (175, {}, may-alias), {176}: (176, {}, may-alias), {177}: (177, {}, may-alias), {178}: (178, {}, may-alias), {179}: (179, {}, may-alias), {180}: (180, {}, may-alias), {181}: (181, {}, may-alias), {182}: (182, {}, may-alias), {183}: (183, {}, may-alias), {184}: (184, {}, may-alias), {185}: (185, {}, may-alias), {186}: (186, {}, may-alias), {187}: (187, {}, may-alias), {188}: (188, {}, may-alias), {189}: (189, {}, may-alias), {190}: (190, {}, may-alias), {191}: (191, {}, may-alias), {192}: (192, {}, may-alias), {193}: (193, {}, may-alias), {194}: (194, {}, may-alias), {195}: (195, {}, may-alias), {196}: (196, {}, may-alias), {197}: (197, {}, may-alias), {198}: (198, {}, may-alias), {199}: (199, {}, may-alias), {200}: (200, {}, may-alias), {201}: (201, {}, may-alias), {202}: (202, {}, may-alias), {203}: (203, {}, may-alias), {204}: (204, {}, may-alias), {205}: (205, {}, may-alias), {206}: (206, {}, may-alias), {207}: (207, {}, may-alias), {208}: (208, {}, may-alias), {209}: (209, {}, may-alias), {210}: (210, {}, may-alias), {211}: (211, {}, may-alias), {212}: (212, {}, may-alias), {213}: (213, {}, may-alias), {214}: (214, {}, may-alias), {215}: (215, {}, may-alias), {216}: (216, {}, may-alias), {217}: (217, {}, may-alias), {218}: (218, {}, may-alias), {219}: (219, {}, may-alias), {220}: (220, {}, may-alias), {221}: (221, {}, may-alias), {222}: (222, {}, may-alias), {223}: (223, {}, may-alias), {224}: (224, {}, may-alias), {225}: (225, {}, may-alias), {226}: (226, {}, may-alias), {227}: (227, {}, may-alias), {228}: (228, {}, may-alias), {229}: (229, {}, may-alias), {230}: (230, {}, may-alias), {231}: (231, {}, may-alias), {232}: (232, {}, may-alias), {233}: (233, {}, may-alias), {234}: (234, {}, may-alias), {235}: (235, {}, may-alias), {236}: (236, {}, may-alias), {237}: (237, {}, may-alias), {238}: (238, {}, may-alias), {239}: (239, {}, may-alias), {240}: (240, {}, may-alias), {241}: (241, {}, may-alias), {242}: (242, {}, may-alias), {243}: (243, {}, may-alias), {244}: (244, {}, may-alias), {245}: (245, {}, may-alias), {246}: (246, {}, may-alias), {247}: (247, {}, may-alias), {248}: (248, {}, may-alias), {249}: (249, {}, may-alias), {250}: (250, {}, may-alias), {251}: (251, {}, may-alias), {252}: (252, {}, may-alias), {253}: (253, {}, may-alias), {254}: (254, {}, may-alias), {255}: (255, {}, may-alias), {256}: (256, {}, may-alias), {257}: (257, {}, may-alias), {258}: (258, {}, may-alias), {259}: (259, {}, may-alias), {260}: (260, {}, may-alias), {261}: (261, {}, may-alias), {262}: (262, {}, may-alias), {263}: (263, {}, may-alias), {264}: (264, {}, may-alias), {265}: (265, {}, may-alias), {266}: (266, {}, may-alias), {267}: (267, {}, may-alias), {268}: (268, {}, may-alias), {269}: (269, {}, may-alias), {270}: (270, {}, may-alias), {271}: (271, {}, may-alias), {272}: (272, {}, may-alias), {273}: (273, {}, may-alias), {274}: (274, {}, may-alias), {275}: (275, {}, may-alias), {276}: (276, {}, may-alias), {277}: (277, {}, may-alias), {278}: (278, {}, may-alias), {279}: (279, {}, may-alias), {280}: (280, {}, may-alias), {281}: (281, {}, may-alias), {282}: (282, {}, may-alias), {283}: (283, {}, may-alias), {284}: (284, {}, may-alias), {285}: (285, {}, may-alias), {286}: (286, {}, may-alias), {287}: (287, {}, may-alias), {288}: (288, {}, may-alias), {289}: (289, {}, may-alias), {290}: (290, {}, may-alias), {291}: (291, {}, may-alias), {292}: (292, {}, may-alias), {293}: (293, {}, may-alias), {294}: (294, {}, may-alias), {295}: (295, {}, may-alias), {296}: (296, {}, may-alias), {297}: (297, {}, may-alias), {298}: (298, {}, may-alias), {299}: (299, {}, may-alias), {300}: (300, {}, may-alias), {301}: (301, {}, may-alias), {302}: (302, {}, may-alias), {303}: (303, {}, may-alias), {304}: (304, {}, may-alias), {305}: (305, {}, may-alias), {306}: (306, {}, may-alias), {307}: (307, {}, may-alias), {308}: (308, {}, may-alias), {309}: (309, {}, may-alias), {310}: (310, {}, may-alias), {311}: (311, {}, may-alias), {312}: (312, {}, may-alias), {313}: (313, {}, may-alias), {314}: (314, {}, may-alias), {315}: (315, {}, may-alias), {316}: (316, {}, may-alias), {317}: (317, {}, may-alias), {318}: (318, {}, may-alias), {319}: (319, {}, may-alias), {320}: (320, {}, may-alias), {321}: (321, {}, may-alias), {322}: (322, {}, may-alias), {323}: (323, {}, may-alias), {324}: (324, {}, may-alias), {325}: (325, {}, may-alias), {326}: (326, {}, may-alias), {327}: (327, {}, may-alias), {328}: (328, {}, may-alias), {329}: (329, {}, may-alias), {330}: (330, {}, may-alias), {331}: (331, {}, may-alias), {332}: (332, {}, may-alias), {333}: (333, {}, may-alias), {334}: (334, {}, may-alias), {335}: (335, {}, may-alias), {336}: (336, {}, may-alias), {337}: (337, {}, may-alias), {338}: (338, {}, may-alias), {339}: (339, {}, may-alias), {340}: (340, {}, may-alias), {341}: (341, {}, may-alias), {342}: (342, {}, may-alias), {343}: (343, {}, may-alias), {344}: (344, {}, may-alias), {345}: (345, {}, may-alias), {346}: (346, {}, may-alias), {347}: (347, {}, may-alias), {348}: (348, {}, may-alias), {349}: (349, {}, may-alias), {350}: (350, {}, may-alias), {351}: (351, {}, may-alias), {352}: (352, {}, may-alias), {353}: (353, {}, may-alias), {354}: (354, {}, may-alias), {355}: (355, {}, may-alias), {356}: (356, {}, may-alias), {357}: (357, {}, may-alias), {358}: (358, {}, may-alias), {359}: (359, {}, may-alias), {360}: (360, {}, may-alias), {361}: (361, {}, may-alias), {362}: (362, {}, may-alias), {363}: (363, {}, may-alias), {364}: (364, {}, may-alias), {365}: (365, {}, may-alias), {366}: (366, {}, may-alias), {367}: (367, {}, may-alias), {368}: (368, {}, may-alias), {369}: (369, {}, may-alias), {370}: (370, {}, may-alias), {371}: (371, {}, may-alias), {372}: (372, {}, may-alias), {373}: (373, {}, may-alias), {374}: (374, {}, may-alias), {375}: (375, {}, may-alias), {376}: (376, {}, may-alias), {377}: (377, {}, may-alias), {378}: (378, {}, may-alias), {379}: (379, {}, may-alias), {380}: (380, {}, may-alias), {381}: (381, {}, may-alias), {382}: (382, {}, may-alias), {383}: (383, {}, may-alias), {384}: (384, {}, may-alias), {385}: (385, {}, may-alias), {386}: (386, {}, may-alias), {387}: (387, {}, may-alias), {388}: (388, {}, may-alias), {389}: (389, {}, may-alias), {390}: (390, {}, may-alias), {391}: (391, {}, may-alias), {392}: (392, {}, may-alias), {393}: (393, {}, may-alias), {394}: (394, {}, may-alias), {395}: (395, {}, may-alias), {396}: (396, {}, may-alias), {397}: (397, {}, may-alias), {398}: (398, {}, may-alias) }, entry_computation_layout={(s32[], f32[2560]{0}, f32[2560,5,10240]{2,1,0}, f32[2560,5,10240]{2,1,0}, f32[10240,5,2560]{2,1,0}, /*index=5*/f32[2560,5]{1,0}, f32[2560,5]{1,0}, f32[2560,5]{1,0}, f32[2560,5]{1,0}, f32[2560,5,4,256]{3,2,1,0}, /*index=10*/f32[256,5]{1,0}, f32[8,5,256,2560]{3,2,1,0}, f32[2560,5,8,256]{3,2,1,0}, f32[256,5]{1,0}, f32[2560,5,4,256]{3,2,1,0}, /*index=15*/f32[2560,5,10240]{2,1,0}, f32[2560,5,10240]{2,1,0}, f32[10240,5,2560]{2,1,0}, f32[2560,5]{1,0}, f32[2560,5]{1,0}, /*index=20*/f32[2560,5]{1,0}, f32[2560,5]{1,0}, f32[2560,5,4,256]{3,2,1,0}, f32[256,5]{1,0}, f32[8,5,256,2560]{3,2,1,0}, /*index=25*/f32[2560,5,8,256]{3,2,1,0}, f32[256,5]{1,0}, f32[2560,5,4,256]{3,2,1,0}, f32[2560,5,10240]{2,1,0}, f32[2560,5,10240]{2,1,0}, /*index=30*/f32[10240,5,2560]{2,1,0}, f32[2560,5]{1,0}, f32[2560,5]{1,0}, f32[2560,5]{1,0}, f32[2560,5]{1,0}, /*index=35*/f32[2560,5,4,256]{3,2,1,0}, f32[256,5]{1,0}, f32[8,5,256,2560]{3,2,1,0}, f32[2560,5,8,256]{3,2,1,0}, f32[256,5]{1,0}, /*index=40*/f32[2560,5,4,256]{3,2,1,0}, f32[2560,5,10240]{2,1,0}, f32[2560,5,10240]{2,1,0}, f32[10240,5,2560]{2,1,0}, f32[2560,5]{1,0}, /*index=45*/f32[2560,5]{1,0}, f32[2560,5]{1,0}, f32[2560,5]{1,0}, f32[2560,5,4,256]{3,2,1,0}, f32[256,5]{1,0}, /*index=50*/f32[8,5,256,2560]{3,2,1,0}, f32[2560,5,8,256]{3,2,1,0}, f32[256,5]{1,0}, f32[2560,5,4,256]{3,2,1,0}, f32[2560,5,10240]{2,1,0}, /*index=55*/f32[2560,5,10240]{2,1,0}, f32[10240,5,2560]{2,1,0}, f32[2560,5]{1,0}, f32[2560,5]{1,0}, f32[2560,5]{1,0}, /*index=60*/f32[2560,5]{1,0}, f32[2560,5,4,256]{3,2,1,0}, f32[256,5]{1,0}, f32[8,5,256,2560]{3,2,1,0}, f32[2560,5,8,256]{3,2,1,0}, /*index=65*/f32[256,5]{1,0}, f32[2560,5,4,256]{3,2,1,0}, f32[2560,5,10240]{2,1,0}, f32[2560,5,10240]{2,1,0}, f32[10240,5,2560]{2,1,0}, /*index=70*/f32[2560,5]{1,0}, f32[2560,5]{1,0}, f32[2560,5]{1,0}, f32[2560,5]{1,0}, f32[2560,5,4,256]{3,2,1,0}, /*index=75*/f32[256,5]{1,0}, f32[8,5,256,2560]{3,2,1,0}, f32[2560,5,8,256]{3,2,1,0}, f32[256,5]{1,0}, f32[2560,5,4,256]{3,2,1,0}, /*index=80*/f32[2560,10240]{1,0}, f32[2560,10240]{1,0}, f32[10240,2560]{1,0}, f32[2560]{0}, f32[2560]{0}, /*index=85*/f32[2560]{0}, f32[2560]{0}, f32[2560,4,256]{2,1,0}, f32[256]{0}, f32[8,256,2560]{2,1,0}, /*index=90*/f32[2560,8,256]{2,1,0}, f32[256]{0}, f32[2560,4,256]{2,1,0}, f32[2560,10240]{1,0}, f32[2560,10240]{1,0}, /*index=95*/f32[10240,2560]{1,0}, f32[2560]{0}, f32[2560]{0}, f32[2560]{0}, f32[2560]{0}, /*index=100*/f32[2560,4,256]{2,1,0}, f32[256]{0}, f32[8,256,2560]{2,1,0}, f32[2560,8,256]{2,1,0}, f32[256]{0}, /*index=105*/f32[2560,4,256]{2,1,0}, f32[2560,10240]{1,0}, f32[2560,10240]{1,0}, f32[10240,2560]{1,0}, f32[2560]{0}, /*index=110*/f32[2560]{0}, f32[2560]{0}, f32[2560]{0}, f32[2560,4,256]{2,1,0}, f32[256]{0}, /*index=115*/f32[8,256,2560]{2,1,0}, f32[2560,8,256]{2,1,0}, f32[256]{0}, f32[2560,4,256]{2,1,0}, f32[2560,10240]{1,0}, /*index=120*/f32[2560,10240]{1,0}, f32[10240,2560]{1,0}, f32[2560]{0}, f32[2560]{0}, f32[2560]{0}, /*index=125*/f32[2560]{0}, f32[2560,4,256]{2,1,0}, f32[256]{0}, f32[8,256,2560]{2,1,0}, f32[2560,8,256]{2,1,0}, /*index=130*/f32[256]{0}, f32[2560,4,256]{2,1,0}, f32[262144,2560]{1,0}, s32[], f32[2560]{0}, /*index=135*/f32[2560,5,10240]{2,1,0}, f32[2560,5,10240]{2,1,0}, f32[10240,5,2560]{2,1,0}, f32[2560,5]{1,0}, f32[2560,5]{1,0}, /*index=140*/f32[2560,5]{1,0}, f32[2560,5]{1,0}, f32[2560,5,4,256]{3,2,1,0}, f32[256,5]{1,0}, f32[8,5,256,2560]{3,2,1,0}, /*index=145*/f32[2560,5,8,256]{3,2,1,0}, f32[256,5]{1,0}, f32[2560,5,4,256]{3,2,1,0}, f32[2560,5,10240]{2,1,0}, f32[2560,5,10240]{2,1,0}, /*index=150*/f32[10240,5,2560]{2,1,0}, f32[2560,5]{1,0}, f32[2560,5]{1,0}, f32[2560,5]{1,0}, f32[2560,5]{1,0}, /*index=155*/f32[2560,5,4,256]{3,2,1,0}, f32[256,5]{1,0}, f32[8,5,256,2560]{3,2,1,0}, f32[2560,5,8,256]{3,2,1,0}, f32[256,5]{1,0}, /*index=160*/f32[2560,5,4,256]{3,2,1,0}, f32[2560,5,10240]{2,1,0}, f32[2560,5,10240]{2,1,0}, f32[10240,5,2560]{2,1,0}, f32[2560,5]{1,0}, /*index=165*/f32[2560,5]{1,0}, f32[2560,5]{1,0}, f32[2560,5]{1,0}, f32[2560,5,4,256]{3,2,1,0}, f32[256,5]{1,0}, /*index=170*/f32[8,5,256,2560]{3,2,1,0}, f32[2560,5,8,256]{3,2,1,0}, f32[256,5]{1,0}, f32[2560,5,4,256]{3,2,1,0}, f32[2560,5,10240]{2,1,0}, /*index=175*/f32[2560,5,10240]{2,1,0}, f32[10240,5,2560]{2,1,0}, f32[2560,5]{1,0}, f32[2560,5]{1,0}, f32[2560,5]{1,0}, /*index=180*/f32[2560,5]{1,0}, f32[2560,5,4,256]{3,2,1,0}, f32[256,5]{1,0}, f32[8,5,256,2560]{3,2,1,0}, f32[2560,5,8,256]{3,2,1,0}, /*index=185*/f32[256,5]{1,0}, f32[2560,5,4,256]{3,2,1,0}, f32[2560,5,10240]{2,1,0}, f32[2560,5,10240]{2,1,0}, f32[10240,5,2560]{2,1,0}, /*index=190*/f32[2560,5]{1,0}, f32[2560,5]{1,0}, f32[2560,5]{1,0}, f32[2560,5]{1,0}, f32[2560,5,4,256]{3,2,1,0}, /*index=195*/f32[256,5]{1,0}, f32[8,5,256,2560]{3,2,1,0}, f32[2560,5,8,256]{3,2,1,0}, f32[256,5]{1,0}, f32[2560,5,4,256]{3,2,1,0}, /*index=200*/f32[2560,5,10240]{2,1,0}, f32[2560,5,10240]{2,1,0}, f32[10240,5,2560]{2,1,0}, f32[2560,5]{1,0}, f32[2560,5]{1,0}, /*index=205*/f32[2560,5]{1,0}, f32[2560,5]{1,0}, f32[2560,5,4,256]{3,2,1,0}, f32[256,5]{1,0}, f32[8,5,256,2560]{3,2,1,0}, /*index=210*/f32[2560,5,8,256]{3,2,1,0}, f32[256,5]{1,0}, f32[2560,5,4,256]{3,2,1,0}, f32[2560,10240]{1,0}, f32[2560,10240]{1,0}, /*index=215*/f32[10240,2560]{1,0}, f32[2560]{0}, f32[2560]{0}, f32[2560]{0}, f32[2560]{0}, /*index=220*/f32[2560,4,256]{2,1,0}, f32[256]{0}, f32[8,256,2560]{2,1,0}, f32[2560,8,256]{2,1,0}, f32[256]{0}, /*index=225*/f32[2560,4,256]{2,1,0}, f32[2560,10240]{1,0}, f32[2560,10240]{1,0}, f32[10240,2560]{1,0}, f32[2560]{0}, /*index=230*/f32[2560]{0}, f32[2560]{0}, f32[2560]{0}, f32[2560,4,256]{2,1,0}, f32[256]{0}, /*index=235*/f32[8,256,2560]{2,1,0}, f32[2560,8,256]{2,1,0}, f32[256]{0}, f32[2560,4,256]{2,1,0}, f32[2560,10240]{1,0}, /*index=240*/f32[2560,10240]{1,0}, f32[10240,2560]{1,0}, f32[2560]{0}, f32[2560]{0}, f32[2560]{0}, /*index=245*/f32[2560]{0}, f32[2560,4,256]{2,1,0}, f32[256]{0}, f32[8,256,2560]{2,1,0}, f32[2560,8,256]{2,1,0}, /*index=250*/f32[256]{0}, f32[2560,4,256]{2,1,0}, f32[2560,10240]{1,0}, f32[2560,10240]{1,0}, f32[10240,2560]{1,0}, /*index=255*/f32[2560]{0}, f32[2560]{0}, f32[2560]{0}, f32[2560]{0}, f32[2560,4,256]{2,1,0}, /*index=260*/f32[256]{0}, f32[8,256,2560]{2,1,0}, f32[2560,8,256]{2,1,0}, f32[256]{0}, f32[2560,4,256]{2,1,0}, /*index=265*/f32[262144,2560]{1,0}, f32[2560]{0}, f32[2560,5,10240]{2,1,0}, f32[2560,5,10240]{2,1,0}, f32[10240,5,2560]{2,1,0}, /*index=270*/f32[2560,5]{1,0}, f32[2560,5]{1,0}, f32[2560,5]{1,0}, f32[2560,5]{1,0}, f32[2560,5,4,256]{3,2,1,0}, /*index=275*/f32[256,5]{1,0}, f32[8,5,256,2560]{3,2,1,0}, f32[2560,5,8,256]{3,2,1,0}, f32[256,5]{1,0}, f32[2560,5,4,256]{3,2,1,0}, /*index=280*/f32[2560,5,10240]{2,1,0}, f32[2560,5,10240]{2,1,0}, f32[10240,5,2560]{2,1,0}, f32[2560,5]{1,0}, f32[2560,5]{1,0}, /*index=285*/f32[2560,5]{1,0}, f32[2560,5]{1,0}, f32[2560,5,4,256]{3,2,1,0}, f32[256,5]{1,0}, f32[8,5,256,2560]{3,2,1,0}, /*index=290*/f32[2560,5,8,256]{3,2,1,0}, f32[256,5]{1,0}, f32[2560,5,4,256]{3,2,1,0}, f32[2560,5,10240]{2,1,0}, f32[2560,5,10240]{2,1,0}, /*index=295*/f32[10240,5,2560]{2,1,0}, f32[2560,5]{1,0}, f32[2560,5]{1,0}, f32[2560,5]{1,0}, f32[2560,5]{1,0}, /*index=300*/f32[2560,5,4,256]{3,2,1,0}, f32[256,5]{1,0}, f32[8,5,256,2560]{3,2,1,0}, f32[2560,5,8,256]{3,2,1,0}, f32[256,5]{1,0}, /*index=305*/f32[2560,5,4,256]{3,2,1,0}, f32[2560,5,10240]{2,1,0}, f32[2560,5,10240]{2,1,0}, f32[10240,5,2560]{2,1,0}, f32[2560,5]{1,0}, /*index=310*/f32[2560,5]{1,0}, f32[2560,5]{1,0}, f32[2560,5]{1,0}, f32[2560,5,4,256]{3,2,1,0}, f32[256,5]{1,0}, /*index=315*/f32[8,5,256,2560]{3,2,1,0}, f32[2560,5,8,256]{3,2,1,0}, f32[256,5]{1,0}, f32[2560,5,4,256]{3,2,1,0}, f32[2560,5,10240]{2,1,0}, /*index=320*/f32[2560,5,10240]{2,1,0}, f32[10240,5,2560]{2,1,0}, f32[2560,5]{1,0}, f32[2560,5]{1,0}, f32[2560,5]{1,0}, /*index=325*/f32[2560,5]{1,0}, f32[2560,5,4,256]{3,2,1,0}, f32[256,5]{1,0}, f32[8,5,256,2560]{3,2,1,0}, f32[2560,5,8,256]{3,2,1,0}, /*index=330*/f32[256,5]{1,0}, f32[2560,5,4,256]{3,2,1,0}, f32[2560,5,10240]{2,1,0}, f32[2560,5,10240]{2,1,0}, f32[10240,5,2560]{2,1,0}, /*index=335*/f32[2560,5]{1,0}, f32[2560,5]{1,0}, f32[2560,5]{1,0}, f32[2560,5]{1,0}, f32[2560,5,4,256]{3,2,1,0}, /*index=340*/f32[256,5]{1,0}, f32[8,5,256,2560]{3,2,1,0}, f32[2560,5,8,256]{3,2,1,0}, f32[256,5]{1,0}, f32[2560,5,4,256]{3,2,1,0}, /*index=345*/f32[2560,10240]{1,0}, f32[2560,10240]{1,0}, f32[10240,2560]{1,0}, f32[2560]{0}, f32[2560]{0}, /*index=350*/f32[2560]{0}, f32[2560]{0}, f32[2560,4,256]{2,1,0}, f32[256]{0}, f32[8,256,2560]{2,1,0}, /*index=355*/f32[2560,8,256]{2,1,0}, f32[256]{0}, f32[2560,4,256]{2,1,0}, f32[2560,10240]{1,0}, f32[2560,10240]{1,0}, /*index=360*/f32[10240,2560]{1,0}, f32[2560]{0}, f32[2560]{0}, f32[2560]{0}, f32[2560]{0}, /*index=365*/f32[2560,4,256]{2,1,0}, f32[256]{0}, f32[8,256,2560]{2,1,0}, f32[2560,8,256]{2,1,0}, f32[256]{0}, /*index=370*/f32[2560,4,256]{2,1,0}, f32[2560,10240]{1,0}, f32[2560,10240]{1,0}, f32[10240,2560]{1,0}, f32[2560]{0}, /*index=375*/f32[2560]{0}, f32[2560]{0}, f32[2560]{0}, f32[2560,4,256]{2,1,0}, f32[256]{0}, /*index=380*/f32[8,256,2560]{2,1,0}, f32[2560,8,256]{2,1,0}, f32[256]{0}, f32[2560,4,256]{2,1,0}, f32[2560,10240]{1,0}, /*index=385*/f32[2560,10240]{1,0}, f32[10240,2560]{1,0}, f32[2560]{0}, f32[2560]{0}, f32[2560]{0}, /*index=390*/f32[2560]{0}, f32[2560,4,256]{2,1,0}, f32[256]{0}, f32[8,256,2560]{2,1,0}, f32[2560,8,256]{2,1,0}, /*index=395*/f32[256]{0}, f32[2560,4,256]{2,1,0}, f32[262144,2560]{1,0}, s32[], s32[96,2048]{1,0}, /*index=400*/s32[96,2048]{1,0}, s32[96,2048]{1,0}, s32[96,2048]{1,0}, s32[96,2048]{1,0})->(s32[], f32[2560]{0}, f32[2560,5,10240]{2,1,0}, f32[2560,5,10240]{2,1,0}, f32[10240,5,2560]{2,1,0}, /*index=5*/f32[2560,5]{1,0}, f32[2560,5]{1,0}, f32[2560,5]{1,0}, f32[2560,5]{1,0}, f32[2560,5,4,256]{3,2,1,0}, /*index=10*/f32[256,5]{1,0}, f32[8,5,256,2560]{3,2,1,0}, f32[2560,5,8,256]{3,2,1,0}, f32[256,5]{1,0}, f32[2560,5,4,256]{3,2,1,0}, /*index=15*/f32[2560,5,10240]{2,1,0}, f32[2560,5,10240]{2,1,0}, f32[10240,5,2560]{2,1,0}, f32[2560,5]{1,0}, f32[2560,5]{1,0}, /*index=20*/f32[2560,5]{1,0}, f32[2560,5]{1,0}, f32[2560,5,4,256]{3,2,1,0}, f32[256,5]{1,0}, f32[8,5,256,2560]{3,2,1,0}, /*index=25*/f32[2560,5,8,256]{3,2,1,0}, f32[256,5]{1,0}, f32[2560,5,4,256]{3,2,1,0}, f32[2560,5,10240]{2,1,0}, f32[2560,5,10240]{2,1,0}, /*index=30*/f32[10240,5,2560]{2,1,0}, f32[2560,5]{1,0}, f32[2560,5]{1,0}, f32[2560,5]{1,0}, f32[2560,5]{1,0}, /*index=35*/f32[2560,5,4,256]{3,2,1,0}, f32[256,5]{1,0}, f32[8,5,256,2560]{3,2,1,0}, f32[2560,5,8,256]{3,2,1,0}, f32[256,5]{1,0}, /*index=40*/f32[2560,5,4,256]{3,2,1,0}, f32[2560,5,10240]{2,1,0}, f32[2560,5,10240]{2,1,0}, f32[10240,5,2560]{2,1,0}, f32[2560,5]{1,0}, /*index=45*/f32[2560,5]{1,0}, f32[2560,5]{1,0}, f32[2560,5]{1,0}, f32[2560,5,4,256]{3,2,1,0}, f32[256,5]{1,0}, /*index=50*/f32[8,5,256,2560]{3,2,1,0}, f32[2560,5,8,256]{3,2,1,0}, f32[256,5]{1,0}, f32[2560,5,4,256]{3,2,1,0}, f32[2560,5,10240]{2,1,0}, /*index=55*/f32[2560,5,10240]{2,1,0}, f32[10240,5,2560]{2,1,0}, f32[2560,5]{1,0}, f32[2560,5]{1,0}, f32[2560,5]{1,0}, /*index=60*/f32[2560,5]{1,0}, f32[2560,5,4,256]{3,2,1,0}, f32[256,5]{1,0}, f32[8,5,256,2560]{3,2,1,0}, f32[2560,5,8,256]{3,2,1,0}, /*index=65*/f32[256,5]{1,0}, f32[2560,5,4,256]{3,2,1,0}, f32[2560,5,10240]{2,1,0}, f32[2560,5,10240]{2,1,0}, f32[10240,5,2560]{2,1,0}, /*index=70*/f32[2560,5]{1,0}, f32[2560,5]{1,0}, f32[2560,5]{1,0}, f32[2560,5]{1,0}, f32[2560,5,4,256]{3,2,1,0}, /*index=75*/f32[256,5]{1,0}, f32[8,5,256,2560]{3,2,1,0}, f32[2560,5,8,256]{3,2,1,0}, f32[256,5]{1,0}, f32[2560,5,4,256]{3,2,1,0}, /*index=80*/f32[2560,10240]{1,0}, f32[2560,10240]{1,0}, f32[10240,2560]{1,0}, f32[2560]{0}, f32[2560]{0}, /*index=85*/f32[2560]{0}, f32[2560]{0}, f32[2560,4,256]{2,1,0}, f32[256]{0}, f32[8,256,2560]{2,1,0}, /*index=90*/f32[2560,8,256]{2,1,0}, f32[256]{0}, f32[2560,4,256]{2,1,0}, f32[2560,10240]{1,0}, f32[2560,10240]{1,0}, /*index=95*/f32[10240,2560]{1,0}, f32[2560]{0}, f32[2560]{0}, f32[2560]{0}, f32[2560]{0}, /*index=100*/f32[2560,4,256]{2,1,0}, f32[256]{0}, f32[8,256,2560]{2,1,0}, f32[2560,8,256]{2,1,0}, f32[256]{0}, /*index=105*/f32[2560,4,256]{2,1,0}, f32[2560,10240]{1,0}, f32[2560,10240]{1,0}, f32[10240,2560]{1,0}, f32[2560]{0}, /*index=110*/f32[2560]{0}, f32[2560]{0}, f32[2560]{0}, f32[2560,4,256]{2,1,0}, f32[256]{0}, /*index=115*/f32[8,256,2560]{2,1,0}, f32[2560,8,256]{2,1,0}, f32[256]{0}, f32[2560,4,256]{2,1,0}, f32[2560,10240]{1,0}, /*index=120*/f32[2560,10240]{1,0}, f32[10240,2560]{1,0}, f32[2560]{0}, f32[2560]{0}, f32[2560]{0}, /*index=125*/f32[2560]{0}, f32[2560,4,256]{2,1,0}, f32[256]{0}, f32[8,256,2560]{2,1,0}, f32[2560,8,256]{2,1,0}, /*index=130*/f32[256]{0}, f32[2560,4,256]{2,1,0}, f32[262144,2560]{1,0}, s32[], f32[2560]{0}, /*index=135*/f32[2560,5,10240]{2,1,0}, f32[2560,5,10240]{2,1,0}, f32[10240,5,2560]{2,1,0}, f32[2560,5]{1,0}, f32[2560,5]{1,0}, /*index=140*/f32[2560,5]{1,0}, f32[2560,5]{1,0}, f32[2560,5,4,256]{3,2,1,0}, f32[256,5]{1,0}, f32[8,5,256,2560]{3,2,1,0}, /*index=145*/f32[2560,5,8,256]{3,2,1,0}, f32[256,5]{1,0}, f32[2560,5,4,256]{3,2,1,0}, f32[2560,5,10240]{2,1,0}, f32[2560,5,10240]{2,1,0}, /*index=150*/f32[10240,5,2560]{2,1,0}, f32[2560,5]{1,0}, f32[2560,5]{1,0}, f32[2560,5]{1,0}, f32[2560,5]{1,0}, /*index=155*/f32[2560,5,4,256]{3,2,1,0}, f32[256,5]{1,0}, f32[8,5,256,2560]{3,2,1,0}, f32[2560,5,8,256]{3,2,1,0}, f32[256,5]{1,0}, /*index=160*/f32[2560,5,4,256]{3,2,1,0}, f32[2560,5,10240]{2,1,0}, f32[2560,5,10240]{2,1,0}, f32[10240,5,2560]{2,1,0}, f32[2560,5]{1,0}, /*index=165*/f32[2560,5]{1,0}, f32[2560,5]{1,0}, f32[2560,5]{1,0}, f32[2560,5,4,256]{3,2,1,0}, f32[256,5]{1,0}, /*index=170*/f32[8,5,256,2560]{3,2,1,0}, f32[2560,5,8,256]{3,2,1,0}, f32[256,5]{1,0}, f32[2560,5,4,256]{3,2,1,0}, f32[2560,5,10240]{2,1,0}, /*index=175*/f32[2560,5,10240]{2,1,0}, f32[10240,5,2560]{2,1,0}, f32[2560,5]{1,0}, f32[2560,5]{1,0}, f32[2560,5]{1,0}, /*index=180*/f32[2560,5]{1,0}, f32[2560,5,4,256]{3,2,1,0}, f32[256,5]{1,0}, f32[8,5,256,2560]{3,2,1,0}, f32[2560,5,8,256]{3,2,1,0}, /*index=185*/f32[256,5]{1,0}, f32[2560,5,4,256]{3,2,1,0}, f32[2560,5,10240]{2,1,0}, f32[2560,5,10240]{2,1,0}, f32[10240,5,2560]{2,1,0}, /*index=190*/f32[2560,5]{1,0}, f32[2560,5]{1,0}, f32[2560,5]{1,0}, f32[2560,5]{1,0}, f32[2560,5,4,256]{3,2,1,0}, /*index=195*/f32[256,5]{1,0}, f32[8,5,256,2560]{3,2,1,0}, f32[2560,5,8,256]{3,2,1,0}, f32[256,5]{1,0}, f32[2560,5,4,256]{3,2,1,0}, /*index=200*/f32[2560,5,10240]{2,1,0}, f32[2560,5,10240]{2,1,0}, f32[10240,5,2560]{2,1,0}, f32[2560,5]{1,0}, f32[2560,5]{1,0}, /*index=205*/f32[2560,5]{1,0}, f32[2560,5]{1,0}, f32[2560,5,4,256]{3,2,1,0}, f32[256,5]{1,0}, f32[8,5,256,2560]{3,2,1,0}, /*index=210*/f32[2560,5,8,256]{3,2,1,0}, f32[256,5]{1,0}, f32[2560,5,4,256]{3,2,1,0}, f32[2560,10240]{1,0}, f32[2560,10240]{1,0}, /*index=215*/f32[10240,2560]{1,0}, f32[2560]{0}, f32[2560]{0}, f32[2560]{0}, f32[2560]{0}, /*index=220*/f32[2560,4,256]{2,1,0}, f32[256]{0}, f32[8,256,2560]{2,1,0}, f32[2560,8,256]{2,1,0}, f32[256]{0}, /*index=225*/f32[2560,4,256]{2,1,0}, f32[2560,10240]{1,0}, f32[2560,10240]{1,0}, f32[10240,2560]{1,0}, f32[2560]{0}, /*index=230*/f32[2560]{0}, f32[2560]{0}, f32[2560]{0}, f32[2560,4,256]{2,1,0}, f32[256]{0}, /*index=235*/f32[8,256,2560]{2,1,0}, f32[2560,8,256]{2,1,0}, f32[256]{0}, f32[2560,4,256]{2,1,0}, f32[2560,10240]{1,0}, /*index=240*/f32[2560,10240]{1,0}, f32[10240,2560]{1,0}, f32[2560]{0}, f32[2560]{0}, f32[2560]{0}, /*index=245*/f32[2560]{0}, f32[2560,4,256]{2,1,0}, f32[256]{0}, f32[8,256,2560]{2,1,0}, f32[2560,8,256]{2,1,0}, /*index=250*/f32[256]{0}, f32[2560,4,256]{2,1,0}, f32[2560,10240]{1,0}, f32[2560,10240]{1,0}, f32[10240,2560]{1,0}, /*index=255*/f32[2560]{0}, f32[2560]{0}, f32[2560]{0}, f32[2560]{0}, f32[2560,4,256]{2,1,0}, /*index=260*/f32[256]{0}, f32[8,256,2560]{2,1,0}, f32[2560,8,256]{2,1,0}, f32[256]{0}, f32[2560,4,256]{2,1,0}, /*index=265*/f32[262144,2560]{1,0}, f32[2560]{0}, f32[2560,5,10240]{2,1,0}, f32[2560,5,10240]{2,1,0}, f32[10240,5,2560]{2,1,0}, /*index=270*/f32[2560,5]{1,0}, f32[2560,5]{1,0}, f32[2560,5]{1,0}, f32[2560,5]{1,0}, f32[2560,5,4,256]{3,2,1,0}, /*index=275*/f32[256,5]{1,0}, f32[8,5,256,2560]{3,2,1,0}, f32[2560,5,8,256]{3,2,1,0}, f32[256,5]{1,0}, f32[2560,5,4,256]{3,2,1,0}, /*index=280*/f32[2560,5,10240]{2,1,0}, f32[2560,5,10240]{2,1,0}, f32[10240,5,2560]{2,1,0}, f32[2560,5]{1,0}, f32[2560,5]{1,0}, /*index=285*/f32[2560,5]{1,0}, f32[2560,5]{1,0}, f32[2560,5,4,256]{3,2,1,0}, f32[256,5]{1,0}, f32[8,5,256,2560]{3,2,1,0}, /*index=290*/f32[2560,5,8,256]{3,2,1,0}, f32[256,5]{1,0}, f32[2560,5,4,256]{3,2,1,0}, f32[2560,5,10240]{2,1,0}, f32[2560,5,10240]{2,1,0}, /*index=295*/f32[10240,5,2560]{2,1,0}, f32[2560,5]{1,0}, f32[2560,5]{1,0}, f32[2560,5]{1,0}, f32[2560,5]{1,0}, /*index=300*/f32[2560,5,4,256]{3,2,1,0}, f32[256,5]{1,0}, f32[8,5,256,2560]{3,2,1,0}, f32[2560,5,8,256]{3,2,1,0}, f32[256,5]{1,0}, /*index=305*/f32[2560,5,4,256]{3,2,1,0}, f32[2560,5,10240]{2,1,0}, f32[2560,5,10240]{2,1,0}, f32[10240,5,2560]{2,1,0}, f32[2560,5]{1,0}, /*index=310*/f32[2560,5]{1,0}, f32[2560,5]{1,0}, f32[2560,5]{1,0}, f32[2560,5,4,256]{3,2,1,0}, f32[256,5]{1,0}, /*index=315*/f32[8,5,256,2560]{3,2,1,0}, f32[2560,5,8,256]{3,2,1,0}, f32[256,5]{1,0}, f32[2560,5,4,256]{3,2,1,0}, f32[2560,5,10240]{2,1,0}, /*index=320*/f32[2560,5,10240]{2,1,0}, f32[10240,5,2560]{2,1,0}, f32[2560,5]{1,0}, f32[2560,5]{1,0}, f32[2560,5]{1,0}, /*index=325*/f32[2560,5]{1,0}, f32[2560,5,4,256]{3,2,1,0}, f32[256,5]{1,0}, f32[8,5,256,2560]{3,2,1,0}, f32[2560,5,8,256]{3,2,1,0}, /*index=330*/f32[256,5]{1,0}, f32[2560,5,4,256]{3,2,1,0}, f32[2560,5,10240]{2,1,0}, f32[2560,5,10240]{2,1,0}, f32[10240,5,2560]{2,1,0}, /*index=335*/f32[2560,5]{1,0}, f32[2560,5]{1,0}, f32[2560,5]{1,0}, f32[2560,5]{1,0}, f32[2560,5,4,256]{3,2,1,0}, /*index=340*/f32[256,5]{1,0}, f32[8,5,256,2560]{3,2,1,0}, f32[2560,5,8,256]{3,2,1,0}, f32[256,5]{1,0}, f32[2560,5,4,256]{3,2,1,0}, /*index=345*/f32[2560,10240]{1,0}, f32[2560,10240]{1,0}, f32[10240,2560]{1,0}, f32[2560]{0}, f32[2560]{0}, /*index=350*/f32[2560]{0}, f32[2560]{0}, f32[2560,4,256]{2,1,0}, f32[256]{0}, f32[8,256,2560]{2,1,0}, /*index=355*/f32[2560,8,256]{2,1,0}, f32[256]{0}, f32[2560,4,256]{2,1,0}, f32[2560,10240]{1,0}, f32[2560,10240]{1,0}, /*index=360*/f32[10240,2560]{1,0}, f32[2560]{0}, f32[2560]{0}, f32[2560]{0}, f32[2560]{0}, /*index=365*/f32[2560,4,256]{2,1,0}, f32[256]{0}, f32[8,256,2560]{2,1,0}, f32[2560,8,256]{2,1,0}, f32[256]{0}, /*index=370*/f32[2560,4,256]{2,1,0}, f32[2560,10240]{1,0}, f32[2560,10240]{1,0}, f32[10240,2560]{1,0}, f32[2560]{0}, /*index=375*/f32[2560]{0}, f32[2560]{0}, f32[2560]{0}, f32[2560,4,256]{2,1,0}, f32[256]{0}, /*index=380*/f32[8,256,2560]{2,1,0}, f32[2560,8,256]{2,1,0}, f32[256]{0}, f32[2560,4,256]{2,1,0}, f32[2560,10240]{1,0}, /*index=385*/f32[2560,10240]{1,0}, f32[10240,2560]{1,0}, f32[2560]{0}, f32[2560]{0}, f32[2560]{0}, /*index=390*/f32[2560]{0}, f32[2560,4,256]{2,1,0}, f32[256]{0}, f32[8,256,2560]{2,1,0}, f32[2560,8,256]{2,1,0}, /*index=395*/f32[256]{0}, f32[2560,4,256]{2,1,0}, f32[262144,2560]{1,0}, s32[], f32[], /*index=400*/f32[], f32[], f32[], f32[], f32[], /*index=405*/f32[], f32[], f32[], s32[], f32[])}, allow_spmd_sharding_propagation_to_parameters={false,false,false,false,false,false,false,false,false,false,false,false,false,false,false,false,false,false,false,false,false,false,false,false,false,false,false,false,false,false,false,false,false,false,false,false,false,false,false,false,false,false,false,false,false,false,false,false,false,false,false,false,false,false,false,false,false,false,false,false,false,false,false,false,false,false,false,false,false,false,false,false,false,false,false,false,false,false,false,false,false,false,false,false,false,false,false,false,false,false,false,false,false,false,false,false,false,false,false,false,false,false,false,false,false,false,false,false,false,false,false,false,false,false,false,false,false,false,false,false,false,false,false,false,false,false,false,false,false,false,false,false,false,false,false,false,false,false,false,false,false,false,false,false,false,false,false,false,false,false,false,false,false,false,false,false,false,false,false,false,false,false,false,false,false,false,false,false,false,false,false,false,false,false,false,false,false,false,false,false,false,false,false,false,false,false,false,false,false,false,false,false,false,false,false,false,false,false,false,false,false,false,false,false,false,false,false,false,false,false,false,false,false,false,false,false,false,false,false,false,false,false,false,false,false,false,false,false,false,false,false,false,false,false,false,false,false,false,false,false,false,false,false,false,false,false,false,false,false,false,false,false,false,false,false,false,false,false,false,false,false,false,false,false,false,false,false,false,false,false,false,false,false,false,false,false,false,false,false,false,false,false,false,false,false,false,false,false,false,false,false,false,false,false,false,false,false,false,false,false,false,false,false,false,false,false,false,false,false,false,false,false,false,false,false,false,false,false,false,false,false,false,false,false,false,false,false,false,false,false,false,false,false,false,false,false,false,false,false,false,false,false,false,false,false,false,false,false,false,false,false,false,false,false,false,false,false,false,false,false,false,false,false,false,false,false,false,false,false,false,false,false,false,false,false,false,false,false,false,false,false,false,false,false,false,false,false,false,false,false,false,false,false,false,false,false,false,false,false,false,false,false,false,false}, allow_spmd_sharding_propagation_to_output={false,false,false,false,false,false,false,false,false,false,false,false,false,false,false,false,false,false,false,false,false,false,false,false,false,false,false,false,false,false,false,false,false,false,false,false,false,false,false,false,false,false,false,false,false,false,false,false,false,false,false,false,false,false,false,false,false,false,false,false,false,false,false,false,false,false,false,false,false,false,false,false,false,false,false,false,false,false,false,false,false,false,false,false,false,false,false,false,false,false,false,false,false,false,false,false,false,false,false,false,false,false,false,false,false,false,false,false,false,false,false,false,false,false,false,false,false,false,false,false,false,false,false,false,false,false,false,false,false,false,false,false,false,false,false,false,false,false,false,false,false,false,false,false,false,false,false,false,false,false,false,false,false,false,false,false,false,false,false,false,false,false,false,false,false,false,false,false,false,false,false,false,false,false,false,false,false,false,false,false,false,false,false,false,false,false,false,false,false,false,false,false,false,false,false,false,false,false,false,false,false,false,false,false,false,false,false,false,false,false,false,false,false,false,false,false,false,false,false,false,false,false,false,false,false,false,false,false,false,false,false,false,false,false,false,false,false,false,false,false,false,false,false,false,false,false,false,false,false,false,false,false,false,false,false,false,false,false,false,false,false,false,false,false,false,false,false,false,false,false,false,false,false,false,false,false,false,false,false,false,false,false,false,false,false,false,false,false,false,false,false,false,false,false,false,false,false,false,false,false,false,false,false,false,false,false,false,false,false,false,false,false,false,false,false,false,false,false,false,false,false,false,false,false,false,false,false,false,false,false,false,false,false,false,false,false,false,false,false,false,false,false,false,false,false,false,false,false,false,false,false,false,false,false,false,false,false,false,false,false,false,false,false,false,false,false,false,false,false,false,false,false,false,false,false,false,false,false,false,false,false,false,false,false,false,false,false,false,false,false,false,false,false,false,false,false,false,false,false,true,true,true,true,true,true,true,true,true,true,true}, num_partitions=8, frontend_attributes={xla.sdy.meshes={mesh = #sdy.mesh<["diloco"=1, "data"=1, "stage"=1, "fsdp"=8, "fsdp_transpose"=1, "context"=1, "context_autoregressive"=1, "tensor"=1, "tensor_transpose"=1, "tensor_sequence"=1, "expert"=1, "autoregressive"=1]>}}

FileNames
1 "/tf/jax-lab/targets/maxtext_release/maxtext/src/maxtext/trainers/pre_train/train.py"
2 "/tf/jax-lab/targets/maxtext_release/maxtext/src/maxtext/models/models.py"
3 "/tf/jax-lab/targets/maxtext_release/maxtext/src/maxtext/layers/decoders.py"
4 "/usr/local/lib/python3.12/dist-packages/flax/core/axes_scan.py"
5 "/tf/jax-lab/targets/maxtext_release/maxtext/src/maxtext/layers/nnx_wrappers.py"
6 "/tf/jax-lab/targets/maxtext_release/maxtext/src/maxtext/models/gemma3.py"
7 "/tf/jax-lab/targets/maxtext_release/maxtext/src/maxtext/layers/normalizations.py"
8 "/tf/jax-lab/targets/maxtext_release/maxtext/src/maxtext/layers/attentions.py"
9 "/tf/jax-lab/targets/maxtext_release/maxtext/src/maxtext/layers/attention_op.py"
10 "/usr/local/lib/python3.12/dist-packages/flax/linen/spmd.py"
11 "/tf/jax-lab/targets/maxtext_release/maxtext/src/maxtext/utils/sharding.py"
12 "/tf/jax-lab/targets/maxtext_release/maxtext/src/maxtext/layers/linears.py"
13 "/tf/jax-lab/targets/maxtext_release/maxtext/src/maxtext/layers/embeddings.py"
14 "<frozen runpy>"
15 "/usr/local/lib/python3.12/dist-packages/absl/app.py"
16 "/tf/jax-lab/targets/maxtext_release/maxtext/src/maxtext/utils/max_utils.py"
17 "/tf/jax-lab/targets/maxtext_release/maxtext/src/maxtext/utils/maxtext_utils.py"
18 "/usr/local/lib/python3.12/dist-packages/optax/transforms/_clipping.py"
19 "/usr/local/lib/python3.12/dist-packages/optax/tree_utils/_tree_math.py"
20 "/usr/local/lib/python3.12/dist-packages/flax/training/train_state.py"
21 "/usr/local/lib/python3.12/dist-packages/optax/transforms/_combining.py"
22 "/usr/local/lib/python3.12/dist-packages/optax/_src/base.py"
23 "/usr/local/lib/python3.12/dist-packages/optax/_src/transform.py"
24 "/usr/local/lib/python3.12/dist-packages/optax/_src/numerics.py"
25 "/usr/local/lib/python3.12/dist-packages/optax/transforms/_adding.py"
26 "/usr/local/lib/python3.12/dist-packages/optax/_src/update.py"

FunctionNames
1 "train_step"
2 "loss_fn"
3 "TransformerLinenPure.apply"
4 "TransformerLinenPure.__call__"
5 "Decoder.__call__"
6 "Decoder._apply_gemma3_scanned_blocks"
7 "scan.<locals>.scan_fn"
8 "ToLinen.__call__"
9 "Gemma3ScannableBlock.__call__"
10 "_fix_for_qwix_quantization.<locals>.wrap.<locals>.wrapped"
11 "Gemma3DecoderLayer.__call__"
12 "RMSNorm.__call__"
13 "Attention.__call__"
14 "AttentionOp.__call__"
15 "AttentionOp.apply_attention"
16 "AttentionOp.apply_attention_dot"
17 "AttentionOp.compute_local_attention"
18 "with_logical_constraint"
19 "_with_sharding_constraint_one_fallback"
20 "_with_sharding_constraint"
21 "maybe_shard_with_logical"
22 "maybe_shard_with_name"
23 "Attention.kv_projection"
24 "DenseGeneral.__call__"
25 "_compute_dot_general_nnx"
26 "Attention.apply_rotary_embedding"
27 "RotaryEmbedding.__call__"
28 "RotaryEmbedding.apply_rotary"
29 "RotaryEmbedding._rotate_half"
30 "Attention.query_projection"
31 "AttentionOp.qk_product"
32 "apply_mask_to_logits"
33 "AttentionOp.wv_product"
34 "Attention.out_projection"
35 "MlpBlock.__call__"
36 "_run_module_as_main"
37 "_run_code"
38 "<module>"
39 "run"
40 "_run_main"
41 "main"
42 "get_train_func.<locals>.train_func"
43 "train_loop"
44 "Decoder.apply_output_head"
45 "_cross_entropy_with_logits_fwd"
46 "scan.<locals>.scan_fn.<locals>.body_fn"
47 "AttentionOp.generate_attention_mask"
48 "RotaryEmbedding.timescale"
49 "Decoder._apply_embedding"
50 "Embed.__call__"
51 "apply_gradient_clipping"
52 "clip_by_global_norm.<locals>.update_fn"
53 "tree_norm"
54 "tree_sum"
55 "l2norm_pytree"
56 "l2norm_pytree.<locals>.<lambda>"
57 "scan.<locals>.transpose_to_front"
58 "scan.<locals>.transpose_to_front.<locals>.trans"
59 "attend_on_embedding"
60 "TrainState.apply_gradients"
61 "_square"
62 "clip_by_global_norm.<locals>.update_fn.<locals>.clip_fn"
63 "chain.<locals>.update_fn"
64 "with_extra_args_support.<locals>.update"
65 "scale_by_adam.<locals>.update_fn"
66 "tree_update_moment"
67 "tree_update_moment.<locals>.<lambda>"
68 "safe_increment"
69 "tree_update_moment_per_elem_norm"
70 "tree_update_moment_per_elem_norm.<locals>.<lambda>"
71 "tree_update_moment_per_elem_norm.<locals>.orderth_norm"
72 "scale_by_adam.<locals>.update_fn.<locals>.<lambda>"
73 "add_decayed_weights.<locals>.update_fn"
74 "add_decayed_weights.<locals>.update_fn.<locals>.<lambda>"
75 "scale_by_schedule.<locals>.update_fn"
76 "scale_by_schedule.<locals>.update_fn.<locals>.<lambda>"
77 "apply_updates"
78 "apply_updates.<locals>.<lambda>"

FileLocations
1 {file_name_id=1 function_name_id=1 line=382 end_line=390 column=31 end_column=7}
2 {file_name_id=1 function_name_id=2 line=138 end_line=150 column=35 end_column=5}
3 {file_name_id=2 function_name_id=3 line=71 end_line=71 column=11 end_column=51}
4 {file_name_id=2 function_name_id=4 line=202 end_line=215 column=38 end_column=5}
5 {file_name_id=3 function_name_id=5 line=1049 end_line=1058 column=14 end_column=11}
6 {file_name_id=3 function_name_id=6 line=1329 end_line=1338 column=13 end_column=48}
7 {file_name_id=4 function_name_id=7 line=200 end_line=203 column=14 end_column=7}
8 {file_name_id=5 function_name_id=8 line=549 end_line=549 column=10 end_column=44}
9 {file_name_id=6 function_name_id=9 line=335 end_line=344 column=10 end_column=7}
10 {file_name_id=5 function_name_id=10 line=383 end_line=383 column=15 end_column=39}
11 {file_name_id=6 function_name_id=11 line=208 end_line=208 column=10 end_column=46}
12 {file_name_id=7 function_name_id=12 line=72 end_line=72 column=12 end_column=59}
13 {file_name_id=6 function_name_id=11 line=212 end_line=222 column=30 end_column=5}
14 {file_name_id=8 function_name_id=13 line=1160 end_line=1160 column=14 end_column=36}
15 {file_name_id=8 function_name_id=13 line=1162 end_line=1162 column=14 end_column=32}
16 {file_name_id=8 function_name_id=13 line=1225 end_line=1236 column=12 end_column=7}
17 {file_name_id=9 function_name_id=14 line=2106 end_line=2123 column=86 end_column=5}
18 {file_name_id=9 function_name_id=15 line=972 end_line=986 column=13 end_column=7}
19 {file_name_id=9 function_name_id=16 line=1919 end_line=1919 column=11 end_column=109}
20 {file_name_id=9 function_name_id=17 line=1770 end_line=1770 column=16 end_column=55}
21 {file_name_id=9 function_name_id=17 line=1772 end_line=1772 column=16 end_column=68}
22 {file_name_id=6 function_name_id=11 line=224 end_line=224 column=22 end_column=66}
23 {file_name_id=6 function_name_id=11 line=230 end_line=230 column=18 end_column=50}
24 {file_name_id=6 function_name_id=11 line=235 end_line=235 column=16 end_column=43}
25 {file_name_id=7 function_name_id=12 line=90 end_line=90 column=12 end_column=42}
26 {file_name_id=6 function_name_id=9 line=330 end_line=330 column=13 end_column=115}
27 {file_name_id=10 function_name_id=18 line=259 end_line=269 column=9 end_column=3}
28 {file_name_id=10 function_name_id=19 line=226 end_line=228 column=9 end_column=3}
29 {file_name_id=10 function_name_id=20 line=203 end_line=203 column=11 end_column=58}
30 {file_name_id=6 function_name_id=11 line=205 end_line=205 column=13 end_column=75}
31 {file_name_id=7 function_name_id=12 line=71 end_line=71 column=8 end_column=35}
32 {file_name_id=7 function_name_id=12 line=72 end_line=72 column=21 end_column=34}
33 {file_name_id=7 function_name_id=12 line=73 end_line=73 column=34 end_column=54}
34 {file_name_id=7 function_name_id=12 line=73 end_line=73 column=24 end_column=55}
35 {file_name_id=7 function_name_id=12 line=73 end_line=73 column=20 end_column=55}
36 {file_name_id=7 function_name_id=12 line=73 end_line=73 column=8 end_column=68}
37 {file_name_id=7 function_name_id=12 line=92 end_line=92 column=11 end_column=84}
38 {file_name_id=6 function_name_id=11 line=209 end_line=209 column=10 end_column=69}
39 {file_name_id=8 function_name_id=13 line=1125 end_line=1125 column=16 end_column=75}
40 {file_name_id=11 function_name_id=21 line=147 end_line=155 column=9 end_column=3}
41 {file_name_id=11 function_name_id=22 line=113 end_line=113 column=11 end_column=67}
42 {file_name_id=8 function_name_id=13 line=1147 end_line=1147 column=16 end_column=91}
43 {file_name_id=8 function_name_id=23 line=670 end_line=670 column=13 end_column=61}
44 {file_name_id=12 function_name_id=24 line=231 end_line=231 column=15 end_column=46}
45 {file_name_id=12 function_name_id=24 line=238 end_line=247 column=13 end_column=5}
46 {file_name_id=12 function_name_id=25 line=102 end_line=104 column=9 end_column=3}
47 {file_name_id=8 function_name_id=13 line=1205 end_line=1205 column=14 end_column=74}
48 {file_name_id=8 function_name_id=13 line=1143 end_line=1143 column=12 end_column=85}
49 {file_name_id=8 function_name_id=23 line=668 end_line=668 column=13 end_column=59}
50 {file_name_id=8 function_name_id=13 line=1174 end_line=1174 column=14 end_column=106}
51 {file_name_id=8 function_name_id=26 line=935 end_line=935 column=13 end_column=60}
52 {file_name_id=13 function_name_id=27 line=367 end_line=367 column=12 end_column=47}
53 {file_name_id=13 function_name_id=28 line=330 end_line=330 column=12 end_column=24}
54 {file_name_id=13 function_name_id=28 line=330 end_line=330 column=29 end_column=54}
55 {file_name_id=13 function_name_id=29 line=325 end_line=325 column=13 end_column=37}
56 {file_name_id=13 function_name_id=29 line=326 end_line=326 column=28 end_column=31}
57 {file_name_id=13 function_name_id=29 line=326 end_line=326 column=11 end_column=46}
58 {file_name_id=13 function_name_id=28 line=330 end_line=330 column=11 end_column=61}
59 {file_name_id=8 function_name_id=13 line=1204 end_line=1204 column=12 end_column=68}
60 {file_name_id=8 function_name_id=13 line=1124 end_line=1124 column=15 end_column=73}
61 {file_name_id=8 function_name_id=13 line=1142 end_line=1142 column=14 end_column=72}
62 {file_name_id=8 function_name_id=30 line=614 end_line=614 column=11 end_column=58}
63 {file_name_id=8 function_name_id=13 line=1172 end_line=1172 column=14 end_column=108}
64 {file_name_id=8 function_name_id=13 line=1184 end_line=1184 column=14 end_column=48}
65 {file_name_id=8 function_name_id=13 line=1203 end_line=1203 column=14 end_column=74}
66 {file_name_id=9 function_name_id=16 line=1850 end_line=1850 column=19 end_column=88}
67 {file_name_id=9 function_name_id=31 line=1957 end_line=1957 column=14 end_column=60}
68 {file_name_id=9 function_name_id=31 line=1960 end_line=1960 column=15 end_column=74}
69 {file_name_id=9 function_name_id=16 line=1906 end_line=1906 column=21 end_column=66}
70 {file_name_id=9 function_name_id=32 line=121 end_line=121 column=9 end_column=82}
71 {file_name_id=9 function_name_id=17 line=1761 end_line=1761 column=13 end_column=54}
72 {file_name_id=9 function_name_id=17 line=1771 end_line=1771 column=34 end_column=52}
73 {file_name_id=9 function_name_id=17 line=1771 end_line=1771 column=26 end_column=53}
74 {file_name_id=9 function_name_id=17 line=1776 end_line=1776 column=17 end_column=60}
75 {file_name_id=9 function_name_id=17 line=1780 end_line=1780 column=16 end_column=81}
76 {file_name_id=9 function_name_id=33 line=2010 end_line=2010 column=12 end_column=80}
77 {file_name_id=9 function_name_id=33 line=2012 end_line=2012 column=15 end_column=52}
78 {file_name_id=9 function_name_id=17 line=1778 end_line=1778 column=16 end_column=54}
79 {file_name_id=9 function_name_id=14 line=2128 end_line=2128 column=15 end_column=69}
80 {file_name_id=8 function_name_id=13 line=1241 end_line=1241 column=12 end_column=68}
81 {file_name_id=8 function_name_id=13 line=1247 end_line=1247 column=10 end_column=61}
82 {file_name_id=8 function_name_id=34 line=733 end_line=733 column=11 end_column=51}
83 {file_name_id=6 function_name_id=11 line=225 end_line=225 column=20 end_column=89}
84 {file_name_id=6 function_name_id=11 line=227 end_line=227 column=4 end_column=27}
85 {file_name_id=6 function_name_id=11 line=233 end_line=233 column=14 end_column=64}
86 {file_name_id=12 function_name_id=35 line=517 end_line=517 column=12 end_column=62}
87 {file_name_id=12 function_name_id=35 line=521 end_line=521 column=12 end_column=54}
88 {file_name_id=12 function_name_id=35 line=525 end_line=525 column=8 end_column=51}
89 {file_name_id=12 function_name_id=35 line=528 end_line=528 column=8 end_column=68}
90 {file_name_id=12 function_name_id=35 line=529 end_line=529 column=13 end_column=50}
91 {file_name_id=6 function_name_id=11 line=236 end_line=236 column=14 end_column=77}
92 {file_name_id=6 function_name_id=11 line=238 end_line=238 column=26 end_column=44}
93 {file_name_id=6 function_name_id=11 line=242 end_line=242 column=19 end_column=87}
94 {file_name_id=14 function_name_id=36 line=198 end_line=199 column=11 end_column=42}
95 {file_name_id=14 function_name_id=37 line=88 end_line=88 column=4 end_column=27}
96 {file_name_id=1 function_name_id=38 line=868 end_line=868 column=2 end_column=15}
97 {file_name_id=15 function_name_id=39 line=410 end_line=410 column=6 end_column=27}
98 {file_name_id=15 function_name_id=40 line=355 end_line=355 column=13 end_column=23}
99 {file_name_id=1 function_name_id=41 line=864 end_line=864 column=4 end_column=16}
100 {file_name_id=1 function_name_id=42 line=854 end_line=854 column=6 end_column=27}
101 {file_name_id=1 function_name_id=39 line=824 end_line=824 column=4 end_column=32}
102 {file_name_id=1 function_name_id=43 line=692 end_line=692 column=17 end_column=48}
103 {file_name_id=3 function_name_id=5 line=1289 end_line=1289 column=15 end_column=96}
104 {file_name_id=3 function_name_id=44 line=795 end_line=802 column=8 end_column=40}
105 {file_name_id=1 function_name_id=2 line=163 end_line=163 column=21 end_column=114}
106 {file_name_id=16 function_name_id=45 line=669 end_line=669 column=14 end_column=48}
107 {file_name_id=16 function_name_id=45 line=672 end_line=672 column=12 end_column=56}
108 {file_name_id=16 function_name_id=45 line=674 end_line=674 column=10 end_column=49}
109 {file_name_id=1 function_name_id=2 line=184 end_line=184 column=17 end_column=30}
110 {file_name_id=1 function_name_id=2 line=185 end_line=185 column=21 end_column=36}
111 {file_name_id=1 function_name_id=2 line=246 end_line=246 column=18 end_column=60}
112 {file_name_id=3 function_name_id=6 line=1348 end_line=1357 column=13 end_column=7}
113 {file_name_id=4 function_name_id=46 line=157 end_line=157 column=29 end_column=53}
114 {file_name_id=9 function_name_id=16 line=1866 end_line=1874 column=16 end_column=5}
115 {file_name_id=9 function_name_id=47 line=741 end_line=741 column=24 end_column=79}
116 {file_name_id=9 function_name_id=47 line=742 end_line=742 column=22 end_column=84}
117 {file_name_id=9 function_name_id=47 line=740 end_line=740 column=24 end_column=78}
118 {file_name_id=9 function_name_id=47 line=742 end_line=742 column=41 end_column=83}
119 {file_name_id=9 function_name_id=47 line=743 end_line=743 column=10 end_column=44}
120 {file_name_id=9 function_name_id=47 line=742 end_line=744 column=21 end_column=7}
121 {file_name_id=9 function_name_id=47 line=745 end_line=745 column=20 end_column=46}
122 {file_name_id=9 function_name_id=47 line=700 end_line=700 column=13 end_column=44}
123 {file_name_id=9 function_name_id=47 line=700 end_line=700 column=48 end_column=79}
124 {file_name_id=9 function_name_id=47 line=701 end_line=701 column=13 end_column=38}
125 {file_name_id=9 function_name_id=47 line=723 end_line=723 column=16 end_column=66}
126 {file_name_id=9 function_name_id=47 line=722 end_line=722 column=16 end_column=66}
127 {file_name_id=9 function_name_id=47 line=726 end_line=726 column=21 end_column=50}
128 {file_name_id=9 function_name_id=47 line=726 end_line=726 column=20 end_column=75}
129 {file_name_id=9 function_name_id=47 line=730 end_line=730 column=20 end_column=54}
130 {file_name_id=9 function_name_id=47 line=787 end_line=787 column=11 end_column=58}
131 {file_name_id=9 function_name_id=32 line=121 end_line=121 column=20 end_column=52}
132 {file_name_id=13 function_name_id=27 line=359 end_line=359 column=15 end_column=55}
133 {file_name_id=13 function_name_id=27 line=360 end_line=360 column=19 end_column=44}
134 {file_name_id=13 function_name_id=27 line=360 end_line=360 column=30 end_column=44}
135 {file_name_id=13 function_name_id=48 line=317 end_line=317 column=19 end_column=52}
136 {file_name_id=13 function_name_id=48 line=317 end_line=317 column=15 end_column=52}
137 {file_name_id=13 function_name_id=48 line=318 end_line=318 column=37 end_column=90}
138 {file_name_id=13 function_name_id=27 line=362 end_line=362 column=15 end_column=36}
139 {file_name_id=13 function_name_id=27 line=365 end_line=365 column=10 end_column=56}
140 {file_name_id=13 function_name_id=27 line=361 end_line=361 column=15 end_column=36}
141 {file_name_id=13 function_name_id=27 line=364 end_line=364 column=10 end_column=56}
142 {file_name_id=13 function_name_id=48 line=320 end_line=320 column=18 end_column=61}
143 {file_name_id=3 function_name_id=5 line=872 end_line=879 column=8 end_column=5}
144 {file_name_id=3 function_name_id=49 line=706 end_line=706 column=8 end_column=85}
145 {file_name_id=13 function_name_id=50 line=182 end_line=182 column=15 end_column=66}
146 {file_name_id=1 function_name_id=1 line=449 end_line=449 column=14 end_column=105}
147 {file_name_id=17 function_name_id=51 line=1229 end_line=1229 column=15 end_column=74}
148 {file_name_id=18 function_name_id=52 line=96 end_line=96 column=13 end_column=37}
149 {file_name_id=19 function_name_id=53 line=293 end_line=293 column=13 end_column=35}
150 {file_name_id=19 function_name_id=54 line=187 end_line=187 column=9 end_column=36}
151 {file_name_id=1 function_name_id=1 line=561 end_line=561 column=43 end_column=73}
152 {file_name_id=16 function_name_id=55 line=114 end_line=114 column=18 end_column=104}
153 {file_name_id=16 function_name_id=56 line=114 end_line=114 column=61 end_column=83}
154 {file_name_id=1 function_name_id=1 line=562 end_line=562 column=47 end_column=81}
155 {file_name_id=1 function_name_id=1 line=564 end_line=564 column=46 end_column=87}
156 {file_name_id=13 function_name_id=50 line=155 end_line=158 column=16 end_column=5}
157 {file_name_id=4 function_name_id=7 line=150 end_line=150 column=9 end_column=66}
158 {file_name_id=4 function_name_id=57 line=126 end_line=126 column=11 end_column=44}
159 {file_name_id=4 function_name_id=58 line=124 end_line=124 column=13 end_column=35}
160 {file_name_id=1 function_name_id=2 line=246 end_line=246 column=26 end_column=59}
161 {file_name_id=1 function_name_id=2 line=262 end_line=262 column=23 end_column=42}
162 {file_name_id=1 function_name_id=2 line=262 end_line=262 column=11 end_column=43}
163 {file_name_id=1 function_name_id=2 line=181 end_line=181 column=21 end_column=54}
164 {file_name_id=1 function_name_id=2 line=181 end_line=181 column=13 end_column=55}
165 {file_name_id=1 function_name_id=2 line=165 end_line=171 column=13 end_column=7}
166 {file_name_id=3 function_name_id=44 line=822 end_line=822 column=15 end_column=95}
167 {file_name_id=13 function_name_id=59 line=233 end_line=233 column=6 end_column=48}
168 {file_name_id=13 function_name_id=59 line=231 end_line=236 column=9 end_column=3}
169 {file_name_id=3 function_name_id=44 line=826 end_line=826 column=17 end_column=47}
170 {file_name_id=3 function_name_id=44 line=847 end_line=847 column=15 end_column=41}
171 {file_name_id=16 function_name_id=45 line=670 end_line=670 column=12 end_column=30}
172 {file_name_id=16 function_name_id=45 line=671 end_line=671 column=16 end_column=32}
173 {file_name_id=16 function_name_id=45 line=676 end_line=676 column=22 end_column=38}
174 {file_name_id=16 function_name_id=45 line=676 end_line=676 column=10 end_column=60}
175 {file_name_id=1 function_name_id=2 line=162 end_line=162 column=24 end_column=74}
176 {file_name_id=1 function_name_id=1 line=500 end_line=500 column=18 end_column=57}
177 {file_name_id=20 function_name_id=60 line=118 end_line=118 column=11 end_column=24}
178 {file_name_id=19 function_name_id=53 line=292 end_line=292 column=19 end_column=46}
179 {file_name_id=19 function_name_id=61 line=275 end_line=275 column=9 end_column=30}
180 {file_name_id=19 function_name_id=54 line=199 end_line=199 column=11 end_column=61}
181 {file_name_id=19 function_name_id=53 line=294 end_line=294 column=44 end_column=60}
182 {file_name_id=18 function_name_id=52 line=101 end_line=101 column=26 end_column=43}
183 {file_name_id=18 function_name_id=52 line=107 end_line=107 column=14 end_column=44}
184 {file_name_id=18 function_name_id=62 line=105 end_line=105 column=13 end_column=80}
185 {file_name_id=18 function_name_id=62 line=105 end_line=105 column=41 end_column=67}
186 {file_name_id=20 function_name_id=60 line=103 end_line=105 column=29 end_column=5}
187 {file_name_id=21 function_name_id=63 line=90 end_line=90 column=23 end_column=59}
188 {file_name_id=22 function_name_id=64 line=339 end_line=339 column=11 end_column=44}
189 {file_name_id=23 function_name_id=65 line=283 end_line=283 column=9 end_column=59}
190 {file_name_id=19 function_name_id=66 line=396 end_line=403 column=9 end_column=3}
191 {file_name_id=19 function_name_id=67 line=398 end_line=398 column=10 end_column=34}
192 {file_name_id=19 function_name_id=67 line=398 end_line=398 column=37 end_column=46}
193 {file_name_id=23 function_name_id=65 line=285 end_line=285 column=16 end_column=52}
194 {file_name_id=24 function_name_id=68 line=143 end_line=143 column=19 end_column=36}
195 {file_name_id=24 function_name_id=68 line=143 end_line=143 column=38 end_column=49}
196 {file_name_id=24 function_name_id=68 line=143 end_line=143 column=9 end_column=61}
197 {file_name_id=23 function_name_id=65 line=294 end_line=294 column=15 end_column=60}
198 {file_name_id=23 function_name_id=65 line=284 end_line=284 column=9 end_column=73}
199 {file_name_id=19 function_name_id=69 line=431 end_line=438 column=9 end_column=3}
200 {file_name_id=19 function_name_id=70 line=433 end_line=433 column=24 end_column=39}
201 {file_name_id=19 function_name_id=71 line=423 end_line=423 column=13 end_column=23}
202 {file_name_id=19 function_name_id=70 line=433 end_line=433 column=10 end_column=39}
203 {file_name_id=19 function_name_id=70 line=433 end_line=433 column=42 end_column=51}
204 {file_name_id=23 function_name_id=65 line=298 end_line=298 column=13 end_column=58}
205 {file_name_id=23 function_name_id=65 line=299 end_line=304 column=14 end_column=5}
206 {file_name_id=23 function_name_id=72 line=300 end_line=300 column=49 end_column=77}
207 {file_name_id=23 function_name_id=72 line=300 end_line=300 column=44 end_column=78}
208 {file_name_id=25 function_name_id=73 line=72 end_line=77 column=14 end_column=5}
209 {file_name_id=25 function_name_id=74 line=73 end_line=73 column=48 end_column=53}
210 {file_name_id=25 function_name_id=74 line=73 end_line=73 column=44 end_column=53}
211 {file_name_id=23 function_name_id=75 line=1028 end_line=1030 column=14 end_column=5}
212 {file_name_id=23 function_name_id=76 line=1029 end_line=1029 column=18 end_column=57}
213 {file_name_id=20 function_name_id=60 line=106 end_line=106 column=26 end_column=71}
214 {file_name_id=26 function_name_id=77 line=40 end_line=47 column=9 end_column=3}
215 {file_name_id=26 function_name_id=78 line=42 end_line=42 column=45 end_column=50}
216 {file_name_id=23 function_name_id=75 line=1032 end_line=1032 column=14 end_column=50}
217 {file_name_id=16 function_name_id=56 line=114 end_line=114 column=69 end_column=82}
218 {file_name_id=16 function_name_id=56 line=114 end_line=114 column=57 end_column=83}
219 {file_name_id=16 function_name_id=55 line=114 end_line=114 column=9 end_column=105}
220 {file_name_id=16 function_name_id=45 line=673 end_line=673 column=26 end_column=42}
221 {file_name_id=16 function_name_id=45 line=673 end_line=673 column=16 end_column=42}
222 {file_name_id=16 function_name_id=45 line=674 end_line=674 column=18 end_column=39}
223 {file_name_id=16 function_name_id=45 line=674 end_line=674 column=9 end_column=49}
224 {file_name_id=16 function_name_id=45 line=677 end_line=677 column=26 end_column=47}
225 {file_name_id=16 function_name_id=45 line=677 end_line=677 column=17 end_column=47}
226 {file_name_id=16 function_name_id=45 line=678 end_line=678 column=2 end_column=22}
227 {file_name_id=1 function_name_id=1 line=539 end_line=539 column=24 end_column=43}
228 {file_name_id=1 function_name_id=1 line=539 end_line=539 column=12 end_column=44}
229 {file_name_id=1 function_name_id=1 line=543 end_line=543 column=29 end_column=45}
230 {file_name_id=1 function_name_id=2 line=172 end_line=178 column=15 end_column=7}
231 {file_name_id=1 function_name_id=2 line=182 end_line=182 column=25 end_column=58}
232 {file_name_id=1 function_name_id=2 line=182 end_line=182 column=15 end_column=59}
233 {file_name_id=1 function_name_id=2 line=265 end_line=265 column=33 end_column=52}
234 {file_name_id=1 function_name_id=2 line=265 end_line=265 column=17 end_column=53}

StackFrames
1 {file_location_id=1 parent_frame_id=1}
2 {file_location_id=2 parent_frame_id=2}
3 {file_location_id=3 parent_frame_id=3}
4 {file_location_id=4 parent_frame_id=4}
5 {file_location_id=5 parent_frame_id=5}
6 {file_location_id=6 parent_frame_id=6}
7 {file_location_id=7 parent_frame_id=7}
8 {file_location_id=8 parent_frame_id=1}
9 {file_location_id=9 parent_frame_id=9}
10 {file_location_id=10 parent_frame_id=10}
11 {file_location_id=11 parent_frame_id=11}
12 {file_location_id=10 parent_frame_id=12}
13 {file_location_id=12 parent_frame_id=13}
14 {file_location_id=13 parent_frame_id=11}
15 {file_location_id=10 parent_frame_id=15}
16 {file_location_id=14 parent_frame_id=16}
17 {file_location_id=10 parent_frame_id=17}
18 {file_location_id=12 parent_frame_id=18}
19 {file_location_id=15 parent_frame_id=16}
20 {file_location_id=10 parent_frame_id=20}
21 {file_location_id=12 parent_frame_id=21}
22 {file_location_id=16 parent_frame_id=16}
23 {file_location_id=10 parent_frame_id=23}
24 {file_location_id=17 parent_frame_id=24}
25 {file_location_id=18 parent_frame_id=25}
26 {file_location_id=19 parent_frame_id=26}
27 {file_location_id=20 parent_frame_id=27}
28 {file_location_id=21 parent_frame_id=27}
29 {file_location_id=22 parent_frame_id=11}
30 {file_location_id=10 parent_frame_id=30}
31 {file_location_id=12 parent_frame_id=31}
32 {file_location_id=23 parent_frame_id=11}
33 {file_location_id=10 parent_frame_id=33}
34 {file_location_id=12 parent_frame_id=34}
35 {file_location_id=24 parent_frame_id=11}
36 {file_location_id=10 parent_frame_id=36}
37 {file_location_id=12 parent_frame_id=37}
38 {file_location_id=25 parent_frame_id=37}
39 {file_location_id=25 parent_frame_id=34}
40 {file_location_id=25 parent_frame_id=31}
41 {file_location_id=25 parent_frame_id=13}
42 {file_location_id=26 parent_frame_id=9}
43 {file_location_id=27 parent_frame_id=43}
44 {file_location_id=28 parent_frame_id=44}
45 {file_location_id=29 parent_frame_id=45}
46 {file_location_id=30 parent_frame_id=11}
47 {file_location_id=27 parent_frame_id=47}
48 {file_location_id=28 parent_frame_id=48}
49 {file_location_id=29 parent_frame_id=49}
50 {file_location_id=31 parent_frame_id=13}
51 {file_location_id=32 parent_frame_id=13}
52 {file_location_id=33 parent_frame_id=13}
53 {file_location_id=34 parent_frame_id=13}
54 {file_location_id=35 parent_frame_id=13}
55 {file_location_id=36 parent_frame_id=13}
56 {file_location_id=37 parent_frame_id=13}
57 {file_location_id=38 parent_frame_id=11}
58 {file_location_id=27 parent_frame_id=58}
59 {file_location_id=28 parent_frame_id=59}
60 {file_location_id=29 parent_frame_id=60}
61 {file_location_id=39 parent_frame_id=16}
62 {file_location_id=40 parent_frame_id=62}
63 {file_location_id=41 parent_frame_id=63}
64 {file_location_id=42 parent_frame_id=16}
65 {file_location_id=43 parent_frame_id=65}
66 {file_location_id=10 parent_frame_id=66}
67 {file_location_id=44 parent_frame_id=67}
68 {file_location_id=45 parent_frame_id=67}
69 {file_location_id=46 parent_frame_id=69}
70 {file_location_id=47 parent_frame_id=16}
71 {file_location_id=40 parent_frame_id=71}
72 {file_location_id=41 parent_frame_id=72}
73 {file_location_id=25 parent_frame_id=21}
74 {file_location_id=48 parent_frame_id=16}
75 {file_location_id=49 parent_frame_id=75}
76 {file_location_id=10 parent_frame_id=76}
77 {file_location_id=44 parent_frame_id=77}
78 {file_location_id=45 parent_frame_id=77}
79 {file_location_id=46 parent_frame_id=79}
80 {file_location_id=31 parent_frame_id=21}
81 {file_location_id=32 parent_frame_id=21}
82 {file_location_id=33 parent_frame_id=21}
83 {file_location_id=34 parent_frame_id=21}
84 {file_location_id=35 parent_frame_id=21}
85 {file_location_id=36 parent_frame_id=21}
86 {file_location_id=37 parent_frame_id=21}
87 {file_location_id=50 parent_frame_id=16}
88 {file_location_id=51 parent_frame_id=88}
89 {file_location_id=10 parent_frame_id=89}
90 {file_location_id=52 parent_frame_id=90}
91 {file_location_id=53 parent_frame_id=91}
92 {file_location_id=54 parent_frame_id=91}
93 {file_location_id=55 parent_frame_id=93}
94 {file_location_id=56 parent_frame_id=93}
95 {file_location_id=57 parent_frame_id=93}
96 {file_location_id=58 parent_frame_id=91}
97 {file_location_id=59 parent_frame_id=16}
98 {file_location_id=40 parent_frame_id=98}
99 {file_location_id=41 parent_frame_id=99}
100 {file_location_id=25 parent_frame_id=18}
101 {file_location_id=60 parent_frame_id=16}
102 {file_location_id=40 parent_frame_id=102}
103 {file_location_id=41 parent_frame_id=103}
104 {file_location_id=61 parent_frame_id=16}
105 {file_location_id=62 parent_frame_id=105}
106 {file_location_id=10 parent_frame_id=106}
107 {file_location_id=44 parent_frame_id=107}
108 {file_location_id=45 parent_frame_id=107}
109 {file_location_id=46 parent_frame_id=109}
110 {file_location_id=31 parent_frame_id=18}
111 {file_location_id=32 parent_frame_id=18}
112 {file_location_id=33 parent_frame_id=18}
113 {file_location_id=34 parent_frame_id=18}
114 {file_location_id=35 parent_frame_id=18}
115 {file_location_id=36 parent_frame_id=18}
116 {file_location_id=37 parent_frame_id=18}
117 {file_location_id=63 parent_frame_id=16}
118 {file_location_id=51 parent_frame_id=118}
119 {file_location_id=10 parent_frame_id=119}
120 {file_location_id=52 parent_frame_id=120}
121 {file_location_id=53 parent_frame_id=121}
122 {file_location_id=54 parent_frame_id=121}
123 {file_location_id=55 parent_frame_id=123}
124 {file_location_id=56 parent_frame_id=123}
125 {file_location_id=57 parent_frame_id=123}
126 {file_location_id=58 parent_frame_id=121}
127 {file_location_id=64 parent_frame_id=16}
128 {file_location_id=65 parent_frame_id=16}
129 {file_location_id=40 parent_frame_id=129}
130 {file_location_id=41 parent_frame_id=130}
131 {file_location_id=66 parent_frame_id=26}
132 {file_location_id=67 parent_frame_id=132}
133 {file_location_id=68 parent_frame_id=132}
134 {file_location_id=69 parent_frame_id=26}
135 {file_location_id=70 parent_frame_id=135}
136 {file_location_id=71 parent_frame_id=27}
137 {file_location_id=72 parent_frame_id=27}
138 {file_location_id=73 parent_frame_id=27}
139 {file_location_id=74 parent_frame_id=27}
140 {file_location_id=75 parent_frame_id=27}
141 {file_location_id=76 parent_frame_id=141}
142 {file_location_id=77 parent_frame_id=141}
143 {file_location_id=78 parent_frame_id=27}
144 {file_location_id=79 parent_frame_id=24}
145 {file_location_id=80 parent_frame_id=16}
146 {file_location_id=40 parent_frame_id=146}
147 {file_location_id=41 parent_frame_id=147}
148 {file_location_id=81 parent_frame_id=16}
149 {file_location_id=82 parent_frame_id=149}
150 {file_location_id=10 parent_frame_id=150}
151 {file_location_id=44 parent_frame_id=151}
152 {file_location_id=45 parent_frame_id=151}
153 {file_location_id=46 parent_frame_id=153}
154 {file_location_id=31 parent_frame_id=31}
155 {file_location_id=32 parent_frame_id=31}
156 {file_location_id=33 parent_frame_id=31}
157 {file_location_id=34 parent_frame_id=31}
158 {file_location_id=35 parent_frame_id=31}
159 {file_location_id=36 parent_frame_id=31}
160 {file_location_id=37 parent_frame_id=31}
161 {file_location_id=83 parent_frame_id=11}
162 {file_location_id=27 parent_frame_id=162}
163 {file_location_id=28 parent_frame_id=163}
164 {file_location_id=29 parent_frame_id=164}
165 {file_location_id=84 parent_frame_id=11}
166 {file_location_id=31 parent_frame_id=34}
167 {file_location_id=32 parent_frame_id=34}
168 {file_location_id=33 parent_frame_id=34}
169 {file_location_id=34 parent_frame_id=34}
170 {file_location_id=35 parent_frame_id=34}
171 {file_location_id=36 parent_frame_id=34}
172 {file_location_id=37 parent_frame_id=34}
173 {file_location_id=85 parent_frame_id=11}
174 {file_location_id=10 parent_frame_id=174}
175 {file_location_id=86 parent_frame_id=175}
176 {file_location_id=10 parent_frame_id=176}
177 {file_location_id=44 parent_frame_id=177}
178 {file_location_id=45 parent_frame_id=177}
179 {file_location_id=46 parent_frame_id=179}
180 {file_location_id=87 parent_frame_id=175}
181 {file_location_id=88 parent_frame_id=175}
182 {file_location_id=89 parent_frame_id=175}
183 {file_location_id=40 parent_frame_id=183}
184 {file_location_id=41 parent_frame_id=184}
185 {file_location_id=90 parent_frame_id=175}
186 {file_location_id=10 parent_frame_id=186}
187 {file_location_id=44 parent_frame_id=187}
188 {file_location_id=45 parent_frame_id=187}
189 {file_location_id=46 parent_frame_id=189}
190 {file_location_id=31 parent_frame_id=37}
191 {file_location_id=32 parent_frame_id=37}
192 {file_location_id=33 parent_frame_id=37}
193 {file_location_id=34 parent_frame_id=37}
194 {file_location_id=35 parent_frame_id=37}
195 {file_location_id=36 parent_frame_id=37}
196 {file_location_id=37 parent_frame_id=37}
197 {file_location_id=91 parent_frame_id=11}
198 {file_location_id=27 parent_frame_id=198}
199 {file_location_id=28 parent_frame_id=199}
200 {file_location_id=29 parent_frame_id=200}
201 {file_location_id=92 parent_frame_id=11}
202 {file_location_id=93 parent_frame_id=11}
203 {file_location_id=27 parent_frame_id=203}
204 {file_location_id=28 parent_frame_id=204}
205 {file_location_id=29 parent_frame_id=205}
206 {file_location_id=94 parent_frame_id=1}
207 {file_location_id=95 parent_frame_id=207}
208 {file_location_id=96 parent_frame_id=208}
209 {file_location_id=97 parent_frame_id=209}
210 {file_location_id=98 parent_frame_id=210}
211 {file_location_id=99 parent_frame_id=211}
212 {file_location_id=100 parent_frame_id=212}
213 {file_location_id=101 parent_frame_id=213}
214 {file_location_id=102 parent_frame_id=214}
215 {file_location_id=1 parent_frame_id=215}
216 {file_location_id=2 parent_frame_id=216}
217 {file_location_id=3 parent_frame_id=217}
218 {file_location_id=4 parent_frame_id=218}
219 {file_location_id=5 parent_frame_id=219}
220 {file_location_id=6 parent_frame_id=220}
221 {file_location_id=7 parent_frame_id=221}
222 {file_location_id=1 parent_frame_id=222}
223 {file_location_id=2 parent_frame_id=223}
224 {file_location_id=3 parent_frame_id=224}
225 {file_location_id=4 parent_frame_id=225}
226 {file_location_id=5 parent_frame_id=226}
227 {file_location_id=6 parent_frame_id=227}
228 {file_location_id=7 parent_frame_id=228}
229 {file_location_id=1 parent_frame_id=229}
230 {file_location_id=2 parent_frame_id=230}
231 {file_location_id=3 parent_frame_id=231}
232 {file_location_id=4 parent_frame_id=232}
233 {file_location_id=5 parent_frame_id=233}
234 {file_location_id=6 parent_frame_id=234}
235 {file_location_id=7 parent_frame_id=235}
236 {file_location_id=8 parent_frame_id=215}
237 {file_location_id=9 parent_frame_id=237}
238 {file_location_id=10 parent_frame_id=238}
239 {file_location_id=11 parent_frame_id=239}
240 {file_location_id=10 parent_frame_id=240}
241 {file_location_id=12 parent_frame_id=241}
242 {file_location_id=13 parent_frame_id=239}
243 {file_location_id=10 parent_frame_id=243}
244 {file_location_id=14 parent_frame_id=244}
245 {file_location_id=10 parent_frame_id=245}
246 {file_location_id=12 parent_frame_id=246}
247 {file_location_id=15 parent_frame_id=244}
248 {file_location_id=10 parent_frame_id=248}
249 {file_location_id=12 parent_frame_id=249}
250 {file_location_id=16 parent_frame_id=244}
251 {file_location_id=10 parent_frame_id=251}
252 {file_location_id=17 parent_frame_id=252}
253 {file_location_id=18 parent_frame_id=253}
254 {file_location_id=19 parent_frame_id=254}
255 {file_location_id=20 parent_frame_id=255}
256 {file_location_id=21 parent_frame_id=255}
257 {file_location_id=22 parent_frame_id=239}
258 {file_location_id=10 parent_frame_id=258}
259 {file_location_id=12 parent_frame_id=259}
260 {file_location_id=23 parent_frame_id=239}
261 {file_location_id=10 parent_frame_id=261}
262 {file_location_id=12 parent_frame_id=262}
263 {file_location_id=24 parent_frame_id=239}
264 {file_location_id=10 parent_frame_id=264}
265 {file_location_id=12 parent_frame_id=265}
266 {file_location_id=103 parent_frame_id=219}
267 {file_location_id=104 parent_frame_id=267}
268 {file_location_id=8 parent_frame_id=268}
269 {file_location_id=12 parent_frame_id=269}
270 {file_location_id=105 parent_frame_id=216}
271 {file_location_id=106 parent_frame_id=271}
272 {file_location_id=107 parent_frame_id=271}
273 {file_location_id=108 parent_frame_id=271}
274 {file_location_id=109 parent_frame_id=216}
275 {file_location_id=110 parent_frame_id=216}
276 {file_location_id=111 parent_frame_id=216}
277 {file_location_id=35 parent_frame_id=269}
278 {file_location_id=112 parent_frame_id=220}
279 {file_location_id=8 parent_frame_id=279}
280 {file_location_id=9 parent_frame_id=280}
281 {file_location_id=10 parent_frame_id=281}
282 {file_location_id=11 parent_frame_id=282}
283 {file_location_id=10 parent_frame_id=283}
284 {file_location_id=12 parent_frame_id=284}
285 {file_location_id=13 parent_frame_id=282}
286 {file_location_id=10 parent_frame_id=286}
287 {file_location_id=14 parent_frame_id=287}
288 {file_location_id=10 parent_frame_id=288}
289 {file_location_id=12 parent_frame_id=289}
290 {file_location_id=15 parent_frame_id=287}
291 {file_location_id=10 parent_frame_id=291}
292 {file_location_id=12 parent_frame_id=292}
293 {file_location_id=16 parent_frame_id=287}
294 {file_location_id=10 parent_frame_id=294}
295 {file_location_id=17 parent_frame_id=295}
296 {file_location_id=18 parent_frame_id=296}
297 {file_location_id=19 parent_frame_id=297}
298 {file_location_id=20 parent_frame_id=298}
299 {file_location_id=21 parent_frame_id=298}
300 {file_location_id=22 parent_frame_id=282}
301 {file_location_id=10 parent_frame_id=301}
302 {file_location_id=12 parent_frame_id=302}
303 {file_location_id=23 parent_frame_id=282}
304 {file_location_id=10 parent_frame_id=304}
305 {file_location_id=12 parent_frame_id=305}
306 {file_location_id=24 parent_frame_id=282}
307 {file_location_id=10 parent_frame_id=307}
308 {file_location_id=12 parent_frame_id=308}
309 {file_location_id=35 parent_frame_id=308}
310 {file_location_id=35 parent_frame_id=305}
311 {file_location_id=35 parent_frame_id=302}
312 {file_location_id=79 parent_frame_id=295}
313 {file_location_id=72 parent_frame_id=298}
314 {file_location_id=35 parent_frame_id=292}
315 {file_location_id=35 parent_frame_id=289}
316 {file_location_id=35 parent_frame_id=284}
317 {file_location_id=113 parent_frame_id=1}
318 {file_location_id=8 parent_frame_id=318}
319 {file_location_id=9 parent_frame_id=319}
320 {file_location_id=10 parent_frame_id=320}
321 {file_location_id=11 parent_frame_id=321}
322 {file_location_id=10 parent_frame_id=322}
323 {file_location_id=12 parent_frame_id=323}
324 {file_location_id=13 parent_frame_id=321}
325 {file_location_id=10 parent_frame_id=325}
326 {file_location_id=14 parent_frame_id=326}
327 {file_location_id=10 parent_frame_id=327}
328 {file_location_id=12 parent_frame_id=328}
329 {file_location_id=15 parent_frame_id=326}
330 {file_location_id=10 parent_frame_id=330}
331 {file_location_id=12 parent_frame_id=331}
332 {file_location_id=16 parent_frame_id=326}
333 {file_location_id=10 parent_frame_id=333}
334 {file_location_id=17 parent_frame_id=334}
335 {file_location_id=18 parent_frame_id=335}
336 {file_location_id=19 parent_frame_id=336}
337 {file_location_id=20 parent_frame_id=337}
338 {file_location_id=21 parent_frame_id=337}
339 {file_location_id=22 parent_frame_id=321}
340 {file_location_id=10 parent_frame_id=340}
341 {file_location_id=12 parent_frame_id=341}
342 {file_location_id=23 parent_frame_id=321}
343 {file_location_id=10 parent_frame_id=343}
344 {file_location_id=12 parent_frame_id=344}
345 {file_location_id=24 parent_frame_id=321}
346 {file_location_id=10 parent_frame_id=346}
347 {file_location_id=12 parent_frame_id=347}
348 {file_location_id=35 parent_frame_id=347}
349 {file_location_id=35 parent_frame_id=344}
350 {file_location_id=35 parent_frame_id=341}
351 {file_location_id=79 parent_frame_id=334}
352 {file_location_id=72 parent_frame_id=337}
353 {file_location_id=35 parent_frame_id=331}
354 {file_location_id=35 parent_frame_id=328}
355 {file_location_id=35 parent_frame_id=323}
356 {file_location_id=93 parent_frame_id=321}
357 {file_location_id=27 parent_frame_id=357}
358 {file_location_id=28 parent_frame_id=358}
359 {file_location_id=29 parent_frame_id=359}
360 {file_location_id=25 parent_frame_id=344}
361 {file_location_id=25 parent_frame_id=341}
362 {file_location_id=25 parent_frame_id=323}
363 {file_location_id=25 parent_frame_id=347}
364 {file_location_id=26 parent_frame_id=319}
365 {file_location_id=27 parent_frame_id=365}
366 {file_location_id=28 parent_frame_id=366}
367 {file_location_id=29 parent_frame_id=367}
368 {file_location_id=30 parent_frame_id=321}
369 {file_location_id=27 parent_frame_id=369}
370 {file_location_id=28 parent_frame_id=370}
371 {file_location_id=29 parent_frame_id=371}
372 {file_location_id=31 parent_frame_id=323}
373 {file_location_id=32 parent_frame_id=323}
374 {file_location_id=33 parent_frame_id=323}
375 {file_location_id=34 parent_frame_id=323}
376 {file_location_id=36 parent_frame_id=323}
377 {file_location_id=37 parent_frame_id=323}
378 {file_location_id=38 parent_frame_id=321}
379 {file_location_id=27 parent_frame_id=379}
380 {file_location_id=28 parent_frame_id=380}
381 {file_location_id=29 parent_frame_id=381}
382 {file_location_id=39 parent_frame_id=326}
383 {file_location_id=40 parent_frame_id=383}
384 {file_location_id=41 parent_frame_id=384}
385 {file_location_id=42 parent_frame_id=326}
386 {file_location_id=43 parent_frame_id=386}
387 {file_location_id=10 parent_frame_id=387}
388 {file_location_id=44 parent_frame_id=388}
389 {file_location_id=45 parent_frame_id=388}
390 {file_location_id=46 parent_frame_id=390}
391 {file_location_id=47 parent_frame_id=326}
392 {file_location_id=40 parent_frame_id=392}
393 {file_location_id=41 parent_frame_id=393}
394 {file_location_id=114 parent_frame_id=336}
395 {file_location_id=115 parent_frame_id=395}
396 {file_location_id=116 parent_frame_id=395}
397 {file_location_id=117 parent_frame_id=395}
398 {file_location_id=118 parent_frame_id=395}
399 {file_location_id=119 parent_frame_id=395}
400 {file_location_id=120 parent_frame_id=395}
401 {file_location_id=121 parent_frame_id=395}
402 {file_location_id=122 parent_frame_id=395}
403 {file_location_id=123 parent_frame_id=395}
404 {file_location_id=124 parent_frame_id=395}
405 {file_location_id=125 parent_frame_id=395}
406 {file_location_id=126 parent_frame_id=395}
407 {file_location_id=127 parent_frame_id=395}
408 {file_location_id=128 parent_frame_id=395}
409 {file_location_id=129 parent_frame_id=395}
410 {file_location_id=130 parent_frame_id=395}
411 {file_location_id=69 parent_frame_id=336}
412 {file_location_id=131 parent_frame_id=412}
413 {file_location_id=25 parent_frame_id=331}
414 {file_location_id=48 parent_frame_id=326}
415 {file_location_id=49 parent_frame_id=415}
416 {file_location_id=10 parent_frame_id=416}
417 {file_location_id=44 parent_frame_id=417}
418 {file_location_id=45 parent_frame_id=417}
419 {file_location_id=46 parent_frame_id=419}
420 {file_location_id=31 parent_frame_id=331}
421 {file_location_id=32 parent_frame_id=331}
422 {file_location_id=33 parent_frame_id=331}
423 {file_location_id=34 parent_frame_id=331}
424 {file_location_id=36 parent_frame_id=331}
425 {file_location_id=37 parent_frame_id=331}
426 {file_location_id=50 parent_frame_id=326}
427 {file_location_id=51 parent_frame_id=427}
428 {file_location_id=10 parent_frame_id=428}
429 {file_location_id=132 parent_frame_id=429}
430 {file_location_id=133 parent_frame_id=429}
431 {file_location_id=134 parent_frame_id=429}
432 {file_location_id=135 parent_frame_id=432}
433 {file_location_id=136 parent_frame_id=432}
434 {file_location_id=137 parent_frame_id=432}
435 {file_location_id=138 parent_frame_id=429}
436 {file_location_id=139 parent_frame_id=429}
437 {file_location_id=52 parent_frame_id=429}
438 {file_location_id=53 parent_frame_id=438}
439 {file_location_id=54 parent_frame_id=438}
440 {file_location_id=55 parent_frame_id=440}
441 {file_location_id=56 parent_frame_id=440}
442 {file_location_id=57 parent_frame_id=440}
443 {file_location_id=140 parent_frame_id=429}
444 {file_location_id=141 parent_frame_id=429}
445 {file_location_id=58 parent_frame_id=438}
446 {file_location_id=59 parent_frame_id=326}
447 {file_location_id=40 parent_frame_id=447}
448 {file_location_id=41 parent_frame_id=448}
449 {file_location_id=25 parent_frame_id=328}
450 {file_location_id=60 parent_frame_id=326}
451 {file_location_id=40 parent_frame_id=451}
452 {file_location_id=41 parent_frame_id=452}
453 {file_location_id=61 parent_frame_id=326}
454 {file_location_id=62 parent_frame_id=454}
455 {file_location_id=10 parent_frame_id=455}
456 {file_location_id=44 parent_frame_id=456}
457 {file_location_id=45 parent_frame_id=456}
458 {file_location_id=46 parent_frame_id=458}
459 {file_location_id=31 parent_frame_id=328}
460 {file_location_id=32 parent_frame_id=328}
461 {file_location_id=33 parent_frame_id=328}
462 {file_location_id=34 parent_frame_id=328}
463 {file_location_id=36 parent_frame_id=328}
464 {file_location_id=37 parent_frame_id=328}
465 {file_location_id=63 parent_frame_id=326}
466 {file_location_id=51 parent_frame_id=466}
467 {file_location_id=10 parent_frame_id=467}
468 {file_location_id=132 parent_frame_id=468}
469 {file_location_id=133 parent_frame_id=468}
470 {file_location_id=134 parent_frame_id=468}
471 {file_location_id=135 parent_frame_id=471}
472 {file_location_id=136 parent_frame_id=471}
473 {file_location_id=137 parent_frame_id=471}
474 {file_location_id=138 parent_frame_id=468}
475 {file_location_id=139 parent_frame_id=468}
476 {file_location_id=52 parent_frame_id=468}
477 {file_location_id=53 parent_frame_id=477}
478 {file_location_id=54 parent_frame_id=477}
479 {file_location_id=55 parent_frame_id=479}
480 {file_location_id=56 parent_frame_id=479}
481 {file_location_id=57 parent_frame_id=479}
482 {file_location_id=140 parent_frame_id=468}
483 {file_location_id=141 parent_frame_id=468}
484 {file_location_id=58 parent_frame_id=477}
485 {file_location_id=64 parent_frame_id=326}
486 {file_location_id=65 parent_frame_id=326}
487 {file_location_id=40 parent_frame_id=487}
488 {file_location_id=41 parent_frame_id=488}
489 {file_location_id=66 parent_frame_id=336}
490 {file_location_id=67 parent_frame_id=490}
491 {file_location_id=68 parent_frame_id=490}
492 {file_location_id=70 parent_frame_id=412}
493 {file_location_id=71 parent_frame_id=337}
494 {file_location_id=73 parent_frame_id=337}
495 {file_location_id=74 parent_frame_id=337}
496 {file_location_id=75 parent_frame_id=337}
497 {file_location_id=76 parent_frame_id=497}
498 {file_location_id=77 parent_frame_id=497}
499 {file_location_id=78 parent_frame_id=337}
500 {file_location_id=80 parent_frame_id=326}
501 {file_location_id=40 parent_frame_id=501}
502 {file_location_id=41 parent_frame_id=502}
503 {file_location_id=81 parent_frame_id=326}
504 {file_location_id=82 parent_frame_id=504}
505 {file_location_id=10 parent_frame_id=505}
506 {file_location_id=44 parent_frame_id=506}
507 {file_location_id=45 parent_frame_id=506}
508 {file_location_id=46 parent_frame_id=508}
509 {file_location_id=31 parent_frame_id=341}
510 {file_location_id=32 parent_frame_id=341}
511 {file_location_id=33 parent_frame_id=341}
512 {file_location_id=34 parent_frame_id=341}
513 {file_location_id=36 parent_frame_id=341}
514 {file_location_id=37 parent_frame_id=341}
515 {file_location_id=83 parent_frame_id=321}
516 {file_location_id=27 parent_frame_id=516}
517 {file_location_id=28 parent_frame_id=517}
518 {file_location_id=29 parent_frame_id=518}
519 {file_location_id=84 parent_frame_id=321}
520 {file_location_id=31 parent_frame_id=344}
521 {file_location_id=32 parent_frame_id=344}
522 {file_location_id=33 parent_frame_id=344}
523 {file_location_id=34 parent_frame_id=344}
524 {file_location_id=36 parent_frame_id=344}
525 {file_location_id=37 parent_frame_id=344}
526 {file_location_id=85 parent_frame_id=321}
527 {file_location_id=10 parent_frame_id=527}
528 {file_location_id=86 parent_frame_id=528}
529 {file_location_id=10 parent_frame_id=529}
530 {file_location_id=44 parent_frame_id=530}
531 {file_location_id=45 parent_frame_id=530}
532 {file_location_id=46 parent_frame_id=532}
533 {file_location_id=87 parent_frame_id=528}
534 {file_location_id=88 parent_frame_id=528}
535 {file_location_id=89 parent_frame_id=528}
536 {file_location_id=40 parent_frame_id=536}
537 {file_location_id=41 parent_frame_id=537}
538 {file_location_id=90 parent_frame_id=528}
539 {file_location_id=10 parent_frame_id=539}
540 {file_location_id=44 parent_frame_id=540}
541 {file_location_id=45 parent_frame_id=540}
542 {file_location_id=46 parent_frame_id=542}
543 {file_location_id=31 parent_frame_id=347}
544 {file_location_id=32 parent_frame_id=347}
545 {file_location_id=33 parent_frame_id=347}
546 {file_location_id=34 parent_frame_id=347}
547 {file_location_id=36 parent_frame_id=347}
548 {file_location_id=37 parent_frame_id=347}
549 {file_location_id=91 parent_frame_id=321}
550 {file_location_id=27 parent_frame_id=550}
551 {file_location_id=28 parent_frame_id=551}
552 {file_location_id=29 parent_frame_id=552}
553 {file_location_id=92 parent_frame_id=321}
554 {file_location_id=142 parent_frame_id=432}
555 {file_location_id=142 parent_frame_id=471}
556 {file_location_id=8 parent_frame_id=352}
557 {file_location_id=9 parent_frame_id=557}
558 {file_location_id=10 parent_frame_id=558}
559 {file_location_id=13 parent_frame_id=559}
560 {file_location_id=10 parent_frame_id=560}
561 {file_location_id=16 parent_frame_id=561}
562 {file_location_id=10 parent_frame_id=562}
563 {file_location_id=79 parent_frame_id=563}
564 {file_location_id=143 parent_frame_id=219}
565 {file_location_id=144 parent_frame_id=565}
566 {file_location_id=8 parent_frame_id=566}
567 {file_location_id=145 parent_frame_id=567}
568 {file_location_id=1 parent_frame_id=568}
569 {file_location_id=2 parent_frame_id=569}
570 {file_location_id=3 parent_frame_id=570}
571 {file_location_id=4 parent_frame_id=571}
572 {file_location_id=143 parent_frame_id=572}
573 {file_location_id=144 parent_frame_id=573}
574 {file_location_id=8 parent_frame_id=574}
575 {file_location_id=145 parent_frame_id=575}
576 {file_location_id=146 parent_frame_id=215}
577 {file_location_id=147 parent_frame_id=577}
578 {file_location_id=148 parent_frame_id=578}
579 {file_location_id=149 parent_frame_id=579}
580 {file_location_id=150 parent_frame_id=580}
581 {file_location_id=151 parent_frame_id=215}
582 {file_location_id=152 parent_frame_id=582}
583 {file_location_id=153 parent_frame_id=583}
584 {file_location_id=154 parent_frame_id=215}
585 {file_location_id=152 parent_frame_id=585}
586 {file_location_id=153 parent_frame_id=586}
587 {file_location_id=155 parent_frame_id=215}
588 {file_location_id=152 parent_frame_id=588}
589 {file_location_id=153 parent_frame_id=589}
590 {file_location_id=156 parent_frame_id=567}
591 {file_location_id=157 parent_frame_id=221}
592 {file_location_id=158 parent_frame_id=592}
593 {file_location_id=159 parent_frame_id=593}
594 {file_location_id=50 parent_frame_id=244}
595 {file_location_id=51 parent_frame_id=595}
596 {file_location_id=10 parent_frame_id=596}
597 {file_location_id=132 parent_frame_id=597}
598 {file_location_id=133 parent_frame_id=597}
599 {file_location_id=134 parent_frame_id=597}
600 {file_location_id=135 parent_frame_id=600}
601 {file_location_id=136 parent_frame_id=600}
602 {file_location_id=137 parent_frame_id=600}
603 {file_location_id=138 parent_frame_id=597}
604 {file_location_id=139 parent_frame_id=597}
605 {file_location_id=140 parent_frame_id=597}
606 {file_location_id=141 parent_frame_id=597}
607 {file_location_id=63 parent_frame_id=244}
608 {file_location_id=51 parent_frame_id=608}
609 {file_location_id=10 parent_frame_id=609}
610 {file_location_id=132 parent_frame_id=610}
611 {file_location_id=133 parent_frame_id=610}
612 {file_location_id=134 parent_frame_id=610}
613 {file_location_id=135 parent_frame_id=613}
614 {file_location_id=136 parent_frame_id=613}
615 {file_location_id=137 parent_frame_id=613}
616 {file_location_id=138 parent_frame_id=610}
617 {file_location_id=139 parent_frame_id=610}
618 {file_location_id=140 parent_frame_id=610}
619 {file_location_id=141 parent_frame_id=610}
620 {file_location_id=114 parent_frame_id=254}
621 {file_location_id=115 parent_frame_id=621}
622 {file_location_id=116 parent_frame_id=621}
623 {file_location_id=117 parent_frame_id=621}
624 {file_location_id=118 parent_frame_id=621}
625 {file_location_id=119 parent_frame_id=621}
626 {file_location_id=120 parent_frame_id=621}
627 {file_location_id=121 parent_frame_id=621}
628 {file_location_id=122 parent_frame_id=621}
629 {file_location_id=123 parent_frame_id=621}
630 {file_location_id=124 parent_frame_id=621}
631 {file_location_id=125 parent_frame_id=621}
632 {file_location_id=126 parent_frame_id=621}
633 {file_location_id=127 parent_frame_id=621}
634 {file_location_id=128 parent_frame_id=621}
635 {file_location_id=129 parent_frame_id=621}
636 {file_location_id=130 parent_frame_id=621}
637 {file_location_id=69 parent_frame_id=254}
638 {file_location_id=131 parent_frame_id=638}
639 {file_location_id=70 parent_frame_id=638}
640 {file_location_id=142 parent_frame_id=600}
641 {file_location_id=142 parent_frame_id=613}
642 {file_location_id=160 parent_frame_id=216}
643 {file_location_id=161 parent_frame_id=216}
644 {file_location_id=162 parent_frame_id=216}
645 {file_location_id=163 parent_frame_id=216}
646 {file_location_id=164 parent_frame_id=216}
647 {file_location_id=165 parent_frame_id=216}
648 {file_location_id=40 parent_frame_id=648}
649 {file_location_id=41 parent_frame_id=649}
650 {file_location_id=25 parent_frame_id=269}
651 {file_location_id=25 parent_frame_id=265}
652 {file_location_id=25 parent_frame_id=262}
653 {file_location_id=25 parent_frame_id=259}
654 {file_location_id=25 parent_frame_id=241}
655 {file_location_id=26 parent_frame_id=237}
656 {file_location_id=27 parent_frame_id=656}
657 {file_location_id=28 parent_frame_id=657}
658 {file_location_id=29 parent_frame_id=658}
659 {file_location_id=30 parent_frame_id=239}
660 {file_location_id=27 parent_frame_id=660}
661 {file_location_id=28 parent_frame_id=661}
662 {file_location_id=29 parent_frame_id=662}
663 {file_location_id=31 parent_frame_id=241}
664 {file_location_id=32 parent_frame_id=241}
665 {file_location_id=33 parent_frame_id=241}
666 {file_location_id=34 parent_frame_id=241}
667 {file_location_id=35 parent_frame_id=241}
668 {file_location_id=36 parent_frame_id=241}
669 {file_location_id=37 parent_frame_id=241}
670 {file_location_id=38 parent_frame_id=239}
671 {file_location_id=27 parent_frame_id=671}
672 {file_location_id=28 parent_frame_id=672}
673 {file_location_id=29 parent_frame_id=673}
674 {file_location_id=39 parent_frame_id=244}
675 {file_location_id=40 parent_frame_id=675}
676 {file_location_id=41 parent_frame_id=676}
677 {file_location_id=42 parent_frame_id=244}
678 {file_location_id=43 parent_frame_id=678}
679 {file_location_id=10 parent_frame_id=679}
680 {file_location_id=44 parent_frame_id=680}
681 {file_location_id=45 parent_frame_id=680}
682 {file_location_id=46 parent_frame_id=682}
683 {file_location_id=47 parent_frame_id=244}
684 {file_location_id=40 parent_frame_id=684}
685 {file_location_id=41 parent_frame_id=685}
686 {file_location_id=25 parent_frame_id=249}
687 {file_location_id=48 parent_frame_id=244}
688 {file_location_id=49 parent_frame_id=688}
689 {file_location_id=10 parent_frame_id=689}
690 {file_location_id=44 parent_frame_id=690}
691 {file_location_id=45 parent_frame_id=690}
692 {file_location_id=46 parent_frame_id=692}
693 {file_location_id=31 parent_frame_id=249}
694 {file_location_id=32 parent_frame_id=249}
695 {file_location_id=33 parent_frame_id=249}
696 {file_location_id=34 parent_frame_id=249}
697 {file_location_id=35 parent_frame_id=249}
698 {file_location_id=36 parent_frame_id=249}
699 {file_location_id=37 parent_frame_id=249}
700 {file_location_id=52 parent_frame_id=597}
701 {file_location_id=53 parent_frame_id=701}
702 {file_location_id=54 parent_frame_id=701}
703 {file_location_id=55 parent_frame_id=703}
704 {file_location_id=56 parent_frame_id=703}
705 {file_location_id=57 parent_frame_id=703}
706 {file_location_id=58 parent_frame_id=701}
707 {file_location_id=59 parent_frame_id=244}
708 {file_location_id=40 parent_frame_id=708}
709 {file_location_id=41 parent_frame_id=709}
710 {file_location_id=25 parent_frame_id=246}
711 {file_location_id=60 parent_frame_id=244}
712 {file_location_id=40 parent_frame_id=712}
713 {file_location_id=41 parent_frame_id=713}
714 {file_location_id=61 parent_frame_id=244}
715 {file_location_id=62 parent_frame_id=715}
716 {file_location_id=10 parent_frame_id=716}
717 {file_location_id=44 parent_frame_id=717}
718 {file_location_id=45 parent_frame_id=717}
719 {file_location_id=46 parent_frame_id=719}
720 {file_location_id=31 parent_frame_id=246}
721 {file_location_id=32 parent_frame_id=246}
722 {file_location_id=33 parent_frame_id=246}
723 {file_location_id=34 parent_frame_id=246}
724 {file_location_id=35 parent_frame_id=246}
725 {file_location_id=36 parent_frame_id=246}
726 {file_location_id=37 parent_frame_id=246}
727 {file_location_id=52 parent_frame_id=610}
728 {file_location_id=53 parent_frame_id=728}
729 {file_location_id=54 parent_frame_id=728}
730 {file_location_id=55 parent_frame_id=730}
731 {file_location_id=56 parent_frame_id=730}
732 {file_location_id=57 parent_frame_id=730}
733 {file_location_id=58 parent_frame_id=728}
734 {file_location_id=64 parent_frame_id=244}
735 {file_location_id=65 parent_frame_id=244}
736 {file_location_id=40 parent_frame_id=736}
737 {file_location_id=41 parent_frame_id=737}
738 {file_location_id=66 parent_frame_id=254}
739 {file_location_id=67 parent_frame_id=739}
740 {file_location_id=68 parent_frame_id=739}
741 {file_location_id=71 parent_frame_id=255}
742 {file_location_id=72 parent_frame_id=255}
743 {file_location_id=73 parent_frame_id=255}
744 {file_location_id=74 parent_frame_id=255}
745 {file_location_id=75 parent_frame_id=255}
746 {file_location_id=76 parent_frame_id=746}
747 {file_location_id=77 parent_frame_id=746}
748 {file_location_id=78 parent_frame_id=255}
749 {file_location_id=79 parent_frame_id=252}
750 {file_location_id=80 parent_frame_id=244}
751 {file_location_id=40 parent_frame_id=751}
752 {file_location_id=41 parent_frame_id=752}
753 {file_location_id=81 parent_frame_id=244}
754 {file_location_id=82 parent_frame_id=754}
755 {file_location_id=10 parent_frame_id=755}
756 {file_location_id=44 parent_frame_id=756}
757 {file_location_id=45 parent_frame_id=756}
758 {file_location_id=46 parent_frame_id=758}
759 {file_location_id=31 parent_frame_id=259}
760 {file_location_id=32 parent_frame_id=259}
761 {file_location_id=33 parent_frame_id=259}
762 {file_location_id=34 parent_frame_id=259}
763 {file_location_id=35 parent_frame_id=259}
764 {file_location_id=36 parent_frame_id=259}
765 {file_location_id=37 parent_frame_id=259}
766 {file_location_id=83 parent_frame_id=239}
767 {file_location_id=27 parent_frame_id=767}
768 {file_location_id=28 parent_frame_id=768}
769 {file_location_id=29 parent_frame_id=769}
770 {file_location_id=84 parent_frame_id=239}
771 {file_location_id=31 parent_frame_id=262}
772 {file_location_id=32 parent_frame_id=262}
773 {file_location_id=33 parent_frame_id=262}
774 {file_location_id=34 parent_frame_id=262}
775 {file_location_id=35 parent_frame_id=262}
776 {file_location_id=36 parent_frame_id=262}
777 {file_location_id=37 parent_frame_id=262}
778 {file_location_id=85 parent_frame_id=239}
779 {file_location_id=10 parent_frame_id=779}
780 {file_location_id=86 parent_frame_id=780}
781 {file_location_id=10 parent_frame_id=781}
782 {file_location_id=44 parent_frame_id=782}
783 {file_location_id=45 parent_frame_id=782}
784 {file_location_id=46 parent_frame_id=784}
785 {file_location_id=87 parent_frame_id=780}
786 {file_location_id=88 parent_frame_id=780}
787 {file_location_id=89 parent_frame_id=780}
788 {file_location_id=40 parent_frame_id=788}
789 {file_location_id=41 parent_frame_id=789}
790 {file_location_id=90 parent_frame_id=780}
791 {file_location_id=10 parent_frame_id=791}
792 {file_location_id=44 parent_frame_id=792}
793 {file_location_id=45 parent_frame_id=792}
794 {file_location_id=46 parent_frame_id=794}
795 {file_location_id=31 parent_frame_id=265}
796 {file_location_id=32 parent_frame_id=265}
797 {file_location_id=33 parent_frame_id=265}
798 {file_location_id=34 parent_frame_id=265}
799 {file_location_id=35 parent_frame_id=265}
800 {file_location_id=36 parent_frame_id=265}
801 {file_location_id=37 parent_frame_id=265}
802 {file_location_id=91 parent_frame_id=239}
803 {file_location_id=27 parent_frame_id=803}
804 {file_location_id=28 parent_frame_id=804}
805 {file_location_id=29 parent_frame_id=805}
806 {file_location_id=92 parent_frame_id=239}
807 {file_location_id=93 parent_frame_id=239}
808 {file_location_id=27 parent_frame_id=808}
809 {file_location_id=28 parent_frame_id=809}
810 {file_location_id=29 parent_frame_id=810}
811 {file_location_id=31 parent_frame_id=269}
812 {file_location_id=32 parent_frame_id=269}
813 {file_location_id=33 parent_frame_id=269}
814 {file_location_id=34 parent_frame_id=269}
815 {file_location_id=36 parent_frame_id=269}
816 {file_location_id=37 parent_frame_id=269}
817 {file_location_id=166 parent_frame_id=267}
818 {file_location_id=167 parent_frame_id=818}
819 {file_location_id=168 parent_frame_id=818}
820 {file_location_id=169 parent_frame_id=267}
821 {file_location_id=170 parent_frame_id=267}
822 {file_location_id=171 parent_frame_id=271}
823 {file_location_id=172 parent_frame_id=271}
824 {file_location_id=173 parent_frame_id=271}
825 {file_location_id=174 parent_frame_id=271}
826 {file_location_id=175 parent_frame_id=216}
827 {file_location_id=93 parent_frame_id=282}
828 {file_location_id=27 parent_frame_id=828}
829 {file_location_id=28 parent_frame_id=829}
830 {file_location_id=29 parent_frame_id=830}
831 {file_location_id=25 parent_frame_id=305}
832 {file_location_id=25 parent_frame_id=302}
833 {file_location_id=25 parent_frame_id=284}
834 {file_location_id=25 parent_frame_id=308}
835 {file_location_id=26 parent_frame_id=280}
836 {file_location_id=27 parent_frame_id=836}
837 {file_location_id=28 parent_frame_id=837}
838 {file_location_id=29 parent_frame_id=838}
839 {file_location_id=30 parent_frame_id=282}
840 {file_location_id=27 parent_frame_id=840}
841 {file_location_id=28 parent_frame_id=841}
842 {file_location_id=29 parent_frame_id=842}
843 {file_location_id=31 parent_frame_id=284}
844 {file_location_id=32 parent_frame_id=284}
845 {file_location_id=33 parent_frame_id=284}
846 {file_location_id=34 parent_frame_id=284}
847 {file_location_id=36 parent_frame_id=284}
848 {file_location_id=37 parent_frame_id=284}
849 {file_location_id=38 parent_frame_id=282}
850 {file_location_id=27 parent_frame_id=850}
851 {file_location_id=28 parent_frame_id=851}
852 {file_location_id=29 parent_frame_id=852}
853 {file_location_id=39 parent_frame_id=287}
854 {file_location_id=40 parent_frame_id=854}
855 {file_location_id=41 parent_frame_id=855}
856 {file_location_id=42 parent_frame_id=287}
857 {file_location_id=43 parent_frame_id=857}
858 {file_location_id=10 parent_frame_id=858}
859 {file_location_id=44 parent_frame_id=859}
860 {file_location_id=45 parent_frame_id=859}
861 {file_location_id=46 parent_frame_id=861}
862 {file_location_id=47 parent_frame_id=287}
863 {file_location_id=40 parent_frame_id=863}
864 {file_location_id=41 parent_frame_id=864}
865 {file_location_id=114 parent_frame_id=297}
866 {file_location_id=115 parent_frame_id=866}
867 {file_location_id=116 parent_frame_id=866}
868 {file_location_id=117 parent_frame_id=866}
869 {file_location_id=118 parent_frame_id=866}
870 {file_location_id=119 parent_frame_id=866}
871 {file_location_id=120 parent_frame_id=866}
872 {file_location_id=121 parent_frame_id=866}
873 {file_location_id=122 parent_frame_id=866}
874 {file_location_id=123 parent_frame_id=866}
875 {file_location_id=124 parent_frame_id=866}
876 {file_location_id=125 parent_frame_id=866}
877 {file_location_id=126 parent_frame_id=866}
878 {file_location_id=127 parent_frame_id=866}
879 {file_location_id=128 parent_frame_id=866}
880 {file_location_id=129 parent_frame_id=866}
881 {file_location_id=130 parent_frame_id=866}
882 {file_location_id=69 parent_frame_id=297}
883 {file_location_id=131 parent_frame_id=883}
884 {file_location_id=25 parent_frame_id=292}
885 {file_location_id=48 parent_frame_id=287}
886 {file_location_id=49 parent_frame_id=886}
887 {file_location_id=10 parent_frame_id=887}
888 {file_location_id=44 parent_frame_id=888}
889 {file_location_id=45 parent_frame_id=888}
890 {file_location_id=46 parent_frame_id=890}
891 {file_location_id=31 parent_frame_id=292}
892 {file_location_id=32 parent_frame_id=292}
893 {file_location_id=33 parent_frame_id=292}
894 {file_location_id=34 parent_frame_id=292}
895 {file_location_id=36 parent_frame_id=292}
896 {file_location_id=37 parent_frame_id=292}
897 {file_location_id=50 parent_frame_id=287}
898 {file_location_id=51 parent_frame_id=898}
899 {file_location_id=10 parent_frame_id=899}
900 {file_location_id=132 parent_frame_id=900}
901 {file_location_id=133 parent_frame_id=900}
902 {file_location_id=134 parent_frame_id=900}
903 {file_location_id=135 parent_frame_id=903}
904 {file_location_id=136 parent_frame_id=903}
905 {file_location_id=137 parent_frame_id=903}
906 {file_location_id=138 parent_frame_id=900}
907 {file_location_id=139 parent_frame_id=900}
908 {file_location_id=52 parent_frame_id=900}
909 {file_location_id=53 parent_frame_id=909}
910 {file_location_id=54 parent_frame_id=909}
911 {file_location_id=55 parent_frame_id=911}
912 {file_location_id=56 parent_frame_id=911}
913 {file_location_id=57 parent_frame_id=911}
914 {file_location_id=140 parent_frame_id=900}
915 {file_location_id=141 parent_frame_id=900}
916 {file_location_id=58 parent_frame_id=909}
917 {file_location_id=59 parent_frame_id=287}
918 {file_location_id=40 parent_frame_id=918}
919 {file_location_id=41 parent_frame_id=919}
920 {file_location_id=25 parent_frame_id=289}
921 {file_location_id=60 parent_frame_id=287}
922 {file_location_id=40 parent_frame_id=922}
923 {file_location_id=41 parent_frame_id=923}
924 {file_location_id=61 parent_frame_id=287}
925 {file_location_id=62 parent_frame_id=925}
926 {file_location_id=10 parent_frame_id=926}
927 {file_location_id=44 parent_frame_id=927}
928 {file_location_id=45 parent_frame_id=927}
929 {file_location_id=46 parent_frame_id=929}
930 {file_location_id=31 parent_frame_id=289}
931 {file_location_id=32 parent_frame_id=289}
932 {file_location_id=33 parent_frame_id=289}
933 {file_location_id=34 parent_frame_id=289}
934 {file_location_id=36 parent_frame_id=289}
935 {file_location_id=37 parent_frame_id=289}
936 {file_location_id=63 parent_frame_id=287}
937 {file_location_id=51 parent_frame_id=937}
938 {file_location_id=10 parent_frame_id=938}
939 {file_location_id=132 parent_frame_id=939}
940 {file_location_id=133 parent_frame_id=939}
941 {file_location_id=134 parent_frame_id=939}
942 {file_location_id=135 parent_frame_id=942}
943 {file_location_id=136 parent_frame_id=942}
944 {file_location_id=137 parent_frame_id=942}
945 {file_location_id=138 parent_frame_id=939}
946 {file_location_id=139 parent_frame_id=939}
947 {file_location_id=52 parent_frame_id=939}
948 {file_location_id=53 parent_frame_id=948}
949 {file_location_id=54 parent_frame_id=948}
950 {file_location_id=55 parent_frame_id=950}
951 {file_location_id=56 parent_frame_id=950}
952 {file_location_id=57 parent_frame_id=950}
953 {file_location_id=140 parent_frame_id=939}
954 {file_location_id=141 parent_frame_id=939}
955 {file_location_id=58 parent_frame_id=948}
956 {file_location_id=64 parent_frame_id=287}
957 {file_location_id=65 parent_frame_id=287}
958 {file_location_id=40 parent_frame_id=958}
959 {file_location_id=41 parent_frame_id=959}
960 {file_location_id=66 parent_frame_id=297}
961 {file_location_id=67 parent_frame_id=961}
962 {file_location_id=68 parent_frame_id=961}
963 {file_location_id=70 parent_frame_id=883}
964 {file_location_id=71 parent_frame_id=298}
965 {file_location_id=73 parent_frame_id=298}
966 {file_location_id=74 parent_frame_id=298}
967 {file_location_id=75 parent_frame_id=298}
968 {file_location_id=76 parent_frame_id=968}
969 {file_location_id=77 parent_frame_id=968}
970 {file_location_id=78 parent_frame_id=298}
971 {file_location_id=80 parent_frame_id=287}
972 {file_location_id=40 parent_frame_id=972}
973 {file_location_id=41 parent_frame_id=973}
974 {file_location_id=81 parent_frame_id=287}
975 {file_location_id=82 parent_frame_id=975}
976 {file_location_id=10 parent_frame_id=976}
977 {file_location_id=44 parent_frame_id=977}
978 {file_location_id=45 parent_frame_id=977}
979 {file_location_id=46 parent_frame_id=979}
980 {file_location_id=31 parent_frame_id=302}
981 {file_location_id=32 parent_frame_id=302}
982 {file_location_id=33 parent_frame_id=302}
983 {file_location_id=34 parent_frame_id=302}
984 {file_location_id=36 parent_frame_id=302}
985 {file_location_id=37 parent_frame_id=302}
986 {file_location_id=83 parent_frame_id=282}
987 {file_location_id=27 parent_frame_id=987}
988 {file_location_id=28 parent_frame_id=988}
989 {file_location_id=29 parent_frame_id=989}
990 {file_location_id=84 parent_frame_id=282}
991 {file_location_id=31 parent_frame_id=305}
992 {file_location_id=32 parent_frame_id=305}
993 {file_location_id=33 parent_frame_id=305}
994 {file_location_id=34 parent_frame_id=305}
995 {file_location_id=36 parent_frame_id=305}
996 {file_location_id=37 parent_frame_id=305}
997 {file_location_id=85 parent_frame_id=282}
998 {file_location_id=10 parent_frame_id=998}
999 {file_location_id=86 parent_frame_id=999}
1000 {file_location_id=10 parent_frame_id=1000}
1001 {file_location_id=44 parent_frame_id=1001}
1002 {file_location_id=45 parent_frame_id=1001}
1003 {file_location_id=46 parent_frame_id=1003}
1004 {file_location_id=87 parent_frame_id=999}
1005 {file_location_id=88 parent_frame_id=999}
1006 {file_location_id=89 parent_frame_id=999}
1007 {file_location_id=40 parent_frame_id=1007}
1008 {file_location_id=41 parent_frame_id=1008}
1009 {file_location_id=90 parent_frame_id=999}
1010 {file_location_id=10 parent_frame_id=1010}
1011 {file_location_id=44 parent_frame_id=1011}
1012 {file_location_id=45 parent_frame_id=1011}
1013 {file_location_id=46 parent_frame_id=1013}
1014 {file_location_id=31 parent_frame_id=308}
1015 {file_location_id=32 parent_frame_id=308}
1016 {file_location_id=33 parent_frame_id=308}
1017 {file_location_id=34 parent_frame_id=308}
1018 {file_location_id=36 parent_frame_id=308}
1019 {file_location_id=37 parent_frame_id=308}
1020 {file_location_id=91 parent_frame_id=282}
1021 {file_location_id=27 parent_frame_id=1021}
1022 {file_location_id=28 parent_frame_id=1022}
1023 {file_location_id=29 parent_frame_id=1023}
1024 {file_location_id=92 parent_frame_id=282}
1025 {file_location_id=8 parent_frame_id=313}
1026 {file_location_id=9 parent_frame_id=1026}
1027 {file_location_id=10 parent_frame_id=1027}
1028 {file_location_id=13 parent_frame_id=1028}
1029 {file_location_id=10 parent_frame_id=1029}
1030 {file_location_id=16 parent_frame_id=1030}
1031 {file_location_id=10 parent_frame_id=1031}
1032 {file_location_id=79 parent_frame_id=1032}
1033 {file_location_id=176 parent_frame_id=215}
1034 {file_location_id=177 parent_frame_id=1034}
1035 {file_location_id=178 parent_frame_id=579}
1036 {file_location_id=179 parent_frame_id=1036}
1037 {file_location_id=180 parent_frame_id=580}
1038 {file_location_id=181 parent_frame_id=579}
1039 {file_location_id=182 parent_frame_id=578}
1040 {file_location_id=183 parent_frame_id=578}
1041 {file_location_id=184 parent_frame_id=1041}
1042 {file_location_id=185 parent_frame_id=1041}
1043 {file_location_id=186 parent_frame_id=1034}
1044 {file_location_id=187 parent_frame_id=1044}
1045 {file_location_id=188 parent_frame_id=1045}
1046 {file_location_id=189 parent_frame_id=1046}
1047 {file_location_id=190 parent_frame_id=1047}
1048 {file_location_id=191 parent_frame_id=1048}
1049 {file_location_id=192 parent_frame_id=1048}
1050 {file_location_id=193 parent_frame_id=1046}
1051 {file_location_id=194 parent_frame_id=1051}
1052 {file_location_id=195 parent_frame_id=1051}
1053 {file_location_id=196 parent_frame_id=1051}
1054 {file_location_id=197 parent_frame_id=1046}
1055 {file_location_id=198 parent_frame_id=1046}
1056 {file_location_id=199 parent_frame_id=1056}
1057 {file_location_id=200 parent_frame_id=1057}
1058 {file_location_id=201 parent_frame_id=1058}
1059 {file_location_id=202 parent_frame_id=1057}
1060 {file_location_id=203 parent_frame_id=1057}
1061 {file_location_id=204 parent_frame_id=1046}
1062 {file_location_id=205 parent_frame_id=1046}
1063 {file_location_id=206 parent_frame_id=1063}
1064 {file_location_id=207 parent_frame_id=1063}
1065 {file_location_id=208 parent_frame_id=1046}
1066 {file_location_id=209 parent_frame_id=1066}
1067 {file_location_id=210 parent_frame_id=1066}
1068 {file_location_id=211 parent_frame_id=1046}
1069 {file_location_id=212 parent_frame_id=1069}
1070 {file_location_id=213 parent_frame_id=1034}
1071 {file_location_id=214 parent_frame_id=1071}
1072 {file_location_id=215 parent_frame_id=1072}
1073 {file_location_id=216 parent_frame_id=1046}
1074 {file_location_id=194 parent_frame_id=1074}
1075 {file_location_id=195 parent_frame_id=1074}
1076 {file_location_id=196 parent_frame_id=1074}
1077 {file_location_id=217 parent_frame_id=583}
1078 {file_location_id=218 parent_frame_id=583}
1079 {file_location_id=219 parent_frame_id=582}
1080 {file_location_id=220 parent_frame_id=271}
1081 {file_location_id=221 parent_frame_id=271}
1082 {file_location_id=222 parent_frame_id=271}
1083 {file_location_id=223 parent_frame_id=271}
1084 {file_location_id=224 parent_frame_id=271}
1085 {file_location_id=225 parent_frame_id=271}
1086 {file_location_id=226 parent_frame_id=271}
1087 {file_location_id=227 parent_frame_id=215}
1088 {file_location_id=228 parent_frame_id=215}
1089 {file_location_id=217 parent_frame_id=589}
1090 {file_location_id=218 parent_frame_id=589}
1091 {file_location_id=219 parent_frame_id=588}
1092 {file_location_id=229 parent_frame_id=215}
1093 {file_location_id=217 parent_frame_id=586}
1094 {file_location_id=218 parent_frame_id=586}
1095 {file_location_id=219 parent_frame_id=585}
1096 {file_location_id=230 parent_frame_id=216}
1097 {file_location_id=40 parent_frame_id=1097}
1098 {file_location_id=41 parent_frame_id=1098}
1099 {file_location_id=231 parent_frame_id=216}
1100 {file_location_id=232 parent_frame_id=216}
1101 {file_location_id=233 parent_frame_id=216}
1102 {file_location_id=234 parent_frame_id=216}


%_where.1 (Arg_0.1: pred[96,1,1,2048,2048], Arg_1.1: f32[], Arg_2.1: f32[]) -> f32[96,1,1,2048,2048] {
  %Arg_0.1 = pred[96,1,1,2048,2048]{4,3,2,1,0} parameter(0)
  %Arg_1.1 = f32[] parameter(1)
  %broadcast_in_dim.14 = f32[96,1,1,2048,2048]{4,3,2,1,0} broadcast(%Arg_1.1), dimensions={}, metadata={op_name="broadcast_in_dim"}
  %Arg_2.1 = f32[] parameter(2)
  %broadcast_in_dim.15 = f32[96,1,1,2048,2048]{4,3,2,1,0} broadcast(%Arg_2.1), dimensions={}, metadata={op_name="broadcast_in_dim"}
  ROOT %select_n.2 = f32[96,1,1,2048,2048]{4,3,2,1,0} select(%Arg_0.1, %broadcast_in_dim.14, %broadcast_in_dim.15), metadata={op_name="select_n"}
}

%_where_0.2 (Arg_0.3: pred[96,1,1,2048,2048], Arg_1.3: f32[]) -> (pred[96,4,2,2048,2048], bf16[96,4,2,2048,2048]) {
  %Arg_0.3 = pred[96,1,1,2048,2048]{4,3,2,1,0} parameter(0)
  %broadcast_in_dim.20 = pred[96,1,1,2048,2048]{4,3,2,1,0} broadcast(%Arg_0.3), dimensions={0,1,2,3,4}, metadata={op_name="broadcast_in_dim"}
  %broadcast_in_dim.21 = pred[96,2048,2048]{2,1,0} reshape(%broadcast_in_dim.20), metadata={op_name="broadcast_in_dim"}
  %broadcast_in_dim.22 = pred[96,4,2,2048,2048]{4,3,2,1,0} broadcast(%broadcast_in_dim.21), dimensions={0,3,4}, metadata={op_name="broadcast_in_dim"}
  %Arg_1.3 = f32[] parameter(1)
  %convert_element_type.10 = bf16[] convert(%Arg_1.3), metadata={op_name="convert_element_type"}
  %broadcast_in_dim.23 = bf16[96,4,2,2048,2048]{4,3,2,1,0} broadcast(%convert_element_type.10), dimensions={}, metadata={op_name="broadcast_in_dim"}
  ROOT %tuple.1 = (pred[96,4,2,2048,2048]{4,3,2,1,0}, bf16[96,4,2,2048,2048]{4,3,2,1,0}) tuple(%broadcast_in_dim.22, %broadcast_in_dim.23)
}

%dynamic_index_in_dim.3 (Arg_0.5: f32[5,2560,10240], Arg_1.5: s32[]) -> f32[2560,10240] {
  %Arg_0.5 = f32[5,2560,10240]{2,1,0} parameter(0)
  %Arg_1.5 = s32[] parameter(1)
  %constant.144 = s32[] constant(0)
  %dynamic_slice.1 = f32[1,2560,10240]{2,1,0} dynamic-slice(%Arg_0.5, %Arg_1.5, %constant.144, %constant.144), dynamic_slice_sizes={1,2560,10240}, metadata={op_name="dynamic_slice" stack_frame_id=7}
  ROOT %squeeze.1 = f32[2560,10240]{1,0} reshape(%dynamic_slice.1), metadata={op_name="squeeze" stack_frame_id=7}
}

%dynamic_index_in_dim_1.4 (Arg_0.7: f32[5,10240,2560], Arg_1.7: s32[]) -> f32[10240,2560] {
  %Arg_0.7 = f32[5,10240,2560]{2,1,0} parameter(0)
  %Arg_1.7 = s32[] parameter(1)
  %constant.146 = s32[] constant(0)
  %dynamic_slice.3 = f32[1,10240,2560]{2,1,0} dynamic-slice(%Arg_0.7, %Arg_1.7, %constant.146, %constant.146), dynamic_slice_sizes={1,10240,2560}, metadata={op_name="dynamic_slice" stack_frame_id=7}
  ROOT %squeeze.3 = f32[10240,2560]{1,0} reshape(%dynamic_slice.3), metadata={op_name="squeeze" stack_frame_id=7}
}

%dynamic_index_in_dim_2.5 (Arg_0.9: f32[5,2560], Arg_1.9: s32[]) -> f32[2560] {
  %Arg_0.9 = f32[5,2560]{1,0} parameter(0)
  %Arg_1.9 = s32[] parameter(1)
  %constant.148 = s32[] constant(0)
  %dynamic_slice.5 = f32[1,2560]{1,0} dynamic-slice(%Arg_0.9, %Arg_1.9, %constant.148), dynamic_slice_sizes={1,2560}, metadata={op_name="dynamic_slice" stack_frame_id=7}
  ROOT %squeeze.5 = f32[2560]{0} reshape(%dynamic_slice.5), metadata={op_name="squeeze" stack_frame_id=7}
}

%dynamic_index_in_dim_3.6 (Arg_0.11: f32[5,2560,4,256], Arg_1.11: s32[]) -> f32[2560,4,256] {
  %Arg_0.11 = f32[5,2560,4,256]{3,2,1,0} parameter(0)
  %Arg_1.11 = s32[] parameter(1)
  %constant.150 = s32[] constant(0)
  %dynamic_slice.7 = f32[1,2560,4,256]{3,2,1,0} dynamic-slice(%Arg_0.11, %Arg_1.11, %constant.150, %constant.150, %constant.150), dynamic_slice_sizes={1,2560,4,256}, metadata={op_name="dynamic_slice" stack_frame_id=7}
  ROOT %squeeze.7 = f32[2560,4,256]{2,1,0} reshape(%dynamic_slice.7), metadata={op_name="squeeze" stack_frame_id=7}
}

%dynamic_index_in_dim_4.7 (Arg_0.13: f32[5,256], Arg_1.13: s32[]) -> f32[256] {
  %Arg_0.13 = f32[5,256]{1,0} parameter(0)
  %Arg_1.13 = s32[] parameter(1)
  %constant.152 = s32[] constant(0)
  %dynamic_slice.9 = f32[1,256]{1,0} dynamic-slice(%Arg_0.13, %Arg_1.13, %constant.152), dynamic_slice_sizes={1,256}, metadata={op_name="dynamic_slice" stack_frame_id=7}
  ROOT %squeeze.9 = f32[256]{0} reshape(%dynamic_slice.9), metadata={op_name="squeeze" stack_frame_id=7}
}

%dynamic_index_in_dim_5.8 (Arg_0.15: f32[5,8,256,2560], Arg_1.15: s32[]) -> f32[8,256,2560] {
  %Arg_0.15 = f32[5,8,256,2560]{3,2,1,0} parameter(0)
  %Arg_1.15 = s32[] parameter(1)
  %constant.154 = s32[] constant(0)
  %dynamic_slice.11 = f32[1,8,256,2560]{3,2,1,0} dynamic-slice(%Arg_0.15, %Arg_1.15, %constant.154, %constant.154, %constant.154), dynamic_slice_sizes={1,8,256,2560}, metadata={op_name="dynamic_slice" stack_frame_id=7}
  ROOT %squeeze.11 = f32[8,256,2560]{2,1,0} reshape(%dynamic_slice.11), metadata={op_name="squeeze" stack_frame_id=7}
}

%dynamic_index_in_dim_6.9 (Arg_0.17: f32[5,2560,8,256], Arg_1.17: s32[]) -> f32[2560,8,256] {
  %Arg_0.17 = f32[5,2560,8,256]{3,2,1,0} parameter(0)
  %Arg_1.17 = s32[] parameter(1)
  %constant.156 = s32[] constant(0)
  %dynamic_slice.13 = f32[1,2560,8,256]{3,2,1,0} dynamic-slice(%Arg_0.17, %Arg_1.17, %constant.156, %constant.156, %constant.156), dynamic_slice_sizes={1,2560,8,256}, metadata={op_name="dynamic_slice" stack_frame_id=7}
  ROOT %squeeze.13 = f32[2560,8,256]{2,1,0} reshape(%dynamic_slice.13), metadata={op_name="squeeze" stack_frame_id=7}
}

%region_1.10 (reduce_sum.3: f32[], reduce_sum.4: f32[]) -> f32[] {
  %reduce_sum.3 = f32[] parameter(0), metadata={op_name="reduce_sum"}
  %reduce_sum.4 = f32[] parameter(1), metadata={op_name="reduce_sum"}
  ROOT %reduce_sum.5 = f32[] add(%reduce_sum.3, %reduce_sum.4), metadata={op_name="layers/reduce_sum" stack_frame_id=13}
}

%region_3.12 (reduce_sum.17: f32[], reduce_sum.18: f32[]) -> f32[] {
  %reduce_sum.17 = f32[] parameter(0), metadata={op_name="reduce_sum"}
  %reduce_sum.18 = f32[] parameter(1), metadata={op_name="reduce_sum"}
  ROOT %reduce_sum.19 = f32[] add(%reduce_sum.17, %reduce_sum.18), metadata={op_name="layers/reduce_sum" stack_frame_id=21}
}

%region_2.11 (reduce_sum.10: f32[], reduce_sum.11: f32[]) -> f32[] {
  %reduce_sum.10 = f32[] parameter(0), metadata={op_name="reduce_sum"}
  %reduce_sum.11 = f32[] parameter(1), metadata={op_name="reduce_sum"}
  ROOT %reduce_sum.12 = f32[] add(%reduce_sum.10, %reduce_sum.11), metadata={op_name="layers/reduce_sum" stack_frame_id=18}
}

%_where_7.13 (Arg_0.20: bf16[96,4,2,2048,2048], Arg_1.20: pred[96,4,2,2048,2048], Arg_2.4: bf16[96,4,2,2048,2048]) -> bf16[96,4,2,2048,2048] {
  %Arg_1.20 = pred[96,4,2,2048,2048]{4,3,2,1,0} parameter(1)
  %Arg_0.20 = bf16[96,4,2,2048,2048]{4,3,2,1,0} parameter(0)
  %Arg_2.4 = bf16[96,4,2,2048,2048]{4,3,2,1,0} parameter(2)
  ROOT %select_n.4 = bf16[96,4,2,2048,2048]{4,3,2,1,0} select(%Arg_1.20, %Arg_0.20, %Arg_2.4), metadata={op_name="select_n"}
}

%region_4.14 (reduce_max.3: bf16[], reduce_max.4: bf16[]) -> bf16[] {
  %reduce_max.3 = bf16[] parameter(0), metadata={op_name="reduce_max"}
  %reduce_max.4 = bf16[] parameter(1), metadata={op_name="reduce_max"}
  ROOT %reduce_max.5 = bf16[] maximum(%reduce_max.3, %reduce_max.4), metadata={op_name="layers/reduce_max" stack_frame_id=27}
}

%region_5.15 (reduce_sum.24: f32[], reduce_sum.25: f32[]) -> f32[] {
  %reduce_sum.24 = f32[] parameter(0), metadata={op_name="reduce_sum"}
  %reduce_sum.25 = f32[] parameter(1), metadata={op_name="reduce_sum"}
  ROOT %reduce_sum.26 = f32[] add(%reduce_sum.24, %reduce_sum.25), metadata={op_name="layers/reduce_sum" stack_frame_id=28}
}

%region_6.16 (reduce_sum.31: f32[], reduce_sum.32: f32[]) -> f32[] {
  %reduce_sum.31 = f32[] parameter(0), metadata={op_name="reduce_sum"}
  %reduce_sum.32 = f32[] parameter(1), metadata={op_name="reduce_sum"}
  ROOT %reduce_sum.33 = f32[] add(%reduce_sum.31, %reduce_sum.32), metadata={op_name="layers/reduce_sum" stack_frame_id=31}
}

%region_7.17 (reduce_sum.38: f32[], reduce_sum.39: f32[]) -> f32[] {
  %reduce_sum.38 = f32[] parameter(0), metadata={op_name="reduce_sum"}
  %reduce_sum.39 = f32[] parameter(1), metadata={op_name="reduce_sum"}
  ROOT %reduce_sum.40 = f32[] add(%reduce_sum.38, %reduce_sum.39), metadata={op_name="layers/reduce_sum" stack_frame_id=34}
}

%region_8.18 (reduce_sum.45: f32[], reduce_sum.46: f32[]) -> f32[] {
  %reduce_sum.45 = f32[] parameter(0), metadata={op_name="reduce_sum"}
  %reduce_sum.46 = f32[] parameter(1), metadata={op_name="reduce_sum"}
  ROOT %reduce_sum.47 = f32[] add(%reduce_sum.45, %reduce_sum.46), metadata={op_name="layers/reduce_sum" stack_frame_id=37}
}

%region_9.19 (reduce_sum.52: f32[], reduce_sum.53: f32[]) -> f32[] {
  %reduce_sum.52 = f32[] parameter(0), metadata={op_name="reduce_sum"}
  %reduce_sum.53 = f32[] parameter(1), metadata={op_name="reduce_sum"}
  ROOT %reduce_sum.54 = f32[] add(%reduce_sum.52, %reduce_sum.53), metadata={op_name="layers/reduce_sum" stack_frame_id=13}
}

%region_11.21 (reduce_sum.66: f32[], reduce_sum.67: f32[]) -> f32[] {
  %reduce_sum.66 = f32[] parameter(0), metadata={op_name="reduce_sum"}
  %reduce_sum.67 = f32[] parameter(1), metadata={op_name="reduce_sum"}
  ROOT %reduce_sum.68 = f32[] add(%reduce_sum.66, %reduce_sum.67), metadata={op_name="layers/reduce_sum" stack_frame_id=21}
}

%region_10.20 (reduce_sum.59: f32[], reduce_sum.60: f32[]) -> f32[] {
  %reduce_sum.59 = f32[] parameter(0), metadata={op_name="reduce_sum"}
  %reduce_sum.60 = f32[] parameter(1), metadata={op_name="reduce_sum"}
  ROOT %reduce_sum.61 = f32[] add(%reduce_sum.59, %reduce_sum.60), metadata={op_name="layers/reduce_sum" stack_frame_id=18}
}

%region_12.22 (reduce_max.10: bf16[], reduce_max.11: bf16[]) -> bf16[] {
  %reduce_max.10 = bf16[] parameter(0), metadata={op_name="reduce_max"}
  %reduce_max.11 = bf16[] parameter(1), metadata={op_name="reduce_max"}
  ROOT %reduce_max.12 = bf16[] maximum(%reduce_max.10, %reduce_max.11), metadata={op_name="layers/reduce_max" stack_frame_id=27}
}

%region_13.23 (reduce_sum.73: f32[], reduce_sum.74: f32[]) -> f32[] {
  %reduce_sum.73 = f32[] parameter(0), metadata={op_name="reduce_sum"}
  %reduce_sum.74 = f32[] parameter(1), metadata={op_name="reduce_sum"}
  ROOT %reduce_sum.75 = f32[] add(%reduce_sum.73, %reduce_sum.74), metadata={op_name="layers/reduce_sum" stack_frame_id=28}
}

%region_14.24 (reduce_sum.80: f32[], reduce_sum.81: f32[]) -> f32[] {
  %reduce_sum.80 = f32[] parameter(0), metadata={op_name="reduce_sum"}
  %reduce_sum.81 = f32[] parameter(1), metadata={op_name="reduce_sum"}
  ROOT %reduce_sum.82 = f32[] add(%reduce_sum.80, %reduce_sum.81), metadata={op_name="layers/reduce_sum" stack_frame_id=31}
}

%region_15.25 (reduce_sum.87: f32[], reduce_sum.88: f32[]) -> f32[] {
  %reduce_sum.87 = f32[] parameter(0), metadata={op_name="reduce_sum"}
  %reduce_sum.88 = f32[] parameter(1), metadata={op_name="reduce_sum"}
  ROOT %reduce_sum.89 = f32[] add(%reduce_sum.87, %reduce_sum.88), metadata={op_name="layers/reduce_sum" stack_frame_id=34}
}

%region_16.26 (reduce_sum.94: f32[], reduce_sum.95: f32[]) -> f32[] {
  %reduce_sum.94 = f32[] parameter(0), metadata={op_name="reduce_sum"}
  %reduce_sum.95 = f32[] parameter(1), metadata={op_name="reduce_sum"}
  ROOT %reduce_sum.96 = f32[] add(%reduce_sum.94, %reduce_sum.95), metadata={op_name="layers/reduce_sum" stack_frame_id=37}
}

%region_17.27 (reduce_sum.101: f32[], reduce_sum.102: f32[]) -> f32[] {
  %reduce_sum.101 = f32[] parameter(0), metadata={op_name="reduce_sum"}
  %reduce_sum.102 = f32[] parameter(1), metadata={op_name="reduce_sum"}
  ROOT %reduce_sum.103 = f32[] add(%reduce_sum.101, %reduce_sum.102), metadata={op_name="layers/reduce_sum" stack_frame_id=13}
}

%region_19.29 (reduce_sum.115: f32[], reduce_sum.116: f32[]) -> f32[] {
  %reduce_sum.115 = f32[] parameter(0), metadata={op_name="reduce_sum"}
  %reduce_sum.116 = f32[] parameter(1), metadata={op_name="reduce_sum"}
  ROOT %reduce_sum.117 = f32[] add(%reduce_sum.115, %reduce_sum.116), metadata={op_name="layers/reduce_sum" stack_frame_id=21}
}

%region_18.28 (reduce_sum.108: f32[], reduce_sum.109: f32[]) -> f32[] {
  %reduce_sum.108 = f32[] parameter(0), metadata={op_name="reduce_sum"}
  %reduce_sum.109 = f32[] parameter(1), metadata={op_name="reduce_sum"}
  ROOT %reduce_sum.110 = f32[] add(%reduce_sum.108, %reduce_sum.109), metadata={op_name="layers/reduce_sum" stack_frame_id=18}
}

%region_20.30 (reduce_max.17: bf16[], reduce_max.18: bf16[]) -> bf16[] {
  %reduce_max.17 = bf16[] parameter(0), metadata={op_name="reduce_max"}
  %reduce_max.18 = bf16[] parameter(1), metadata={op_name="reduce_max"}
  ROOT %reduce_max.19 = bf16[] maximum(%reduce_max.17, %reduce_max.18), metadata={op_name="layers/reduce_max" stack_frame_id=27}
}

%region_21.31 (reduce_sum.122: f32[], reduce_sum.123: f32[]) -> f32[] {
  %reduce_sum.122 = f32[] parameter(0), metadata={op_name="reduce_sum"}
  %reduce_sum.123 = f32[] parameter(1), metadata={op_name="reduce_sum"}
  ROOT %reduce_sum.124 = f32[] add(%reduce_sum.122, %reduce_sum.123), metadata={op_name="layers/reduce_sum" stack_frame_id=28}
}

%region_22.32 (reduce_sum.129: f32[], reduce_sum.130: f32[]) -> f32[] {
  %reduce_sum.129 = f32[] parameter(0), metadata={op_name="reduce_sum"}
  %reduce_sum.130 = f32[] parameter(1), metadata={op_name="reduce_sum"}
  ROOT %reduce_sum.131 = f32[] add(%reduce_sum.129, %reduce_sum.130), metadata={op_name="layers/reduce_sum" stack_frame_id=31}
}

%region_23.33 (reduce_sum.136: f32[], reduce_sum.137: f32[]) -> f32[] {
  %reduce_sum.136 = f32[] parameter(0), metadata={op_name="reduce_sum"}
  %reduce_sum.137 = f32[] parameter(1), metadata={op_name="reduce_sum"}
  ROOT %reduce_sum.138 = f32[] add(%reduce_sum.136, %reduce_sum.137), metadata={op_name="layers/reduce_sum" stack_frame_id=34}
}

%region_24.34 (reduce_sum.143: f32[], reduce_sum.144: f32[]) -> f32[] {
  %reduce_sum.143 = f32[] parameter(0), metadata={op_name="reduce_sum"}
  %reduce_sum.144 = f32[] parameter(1), metadata={op_name="reduce_sum"}
  ROOT %reduce_sum.145 = f32[] add(%reduce_sum.143, %reduce_sum.144), metadata={op_name="layers/reduce_sum" stack_frame_id=37}
}

%region_25.35 (reduce_sum.150: f32[], reduce_sum.151: f32[]) -> f32[] {
  %reduce_sum.150 = f32[] parameter(0), metadata={op_name="reduce_sum"}
  %reduce_sum.151 = f32[] parameter(1), metadata={op_name="reduce_sum"}
  ROOT %reduce_sum.152 = f32[] add(%reduce_sum.150, %reduce_sum.151), metadata={op_name="layers/reduce_sum" stack_frame_id=13}
}

%region_27.37 (reduce_sum.164: f32[], reduce_sum.165: f32[]) -> f32[] {
  %reduce_sum.164 = f32[] parameter(0), metadata={op_name="reduce_sum"}
  %reduce_sum.165 = f32[] parameter(1), metadata={op_name="reduce_sum"}
  ROOT %reduce_sum.166 = f32[] add(%reduce_sum.164, %reduce_sum.165), metadata={op_name="layers/reduce_sum" stack_frame_id=21}
}

%region_26.36 (reduce_sum.157: f32[], reduce_sum.158: f32[]) -> f32[] {
  %reduce_sum.157 = f32[] parameter(0), metadata={op_name="reduce_sum"}
  %reduce_sum.158 = f32[] parameter(1), metadata={op_name="reduce_sum"}
  ROOT %reduce_sum.159 = f32[] add(%reduce_sum.157, %reduce_sum.158), metadata={op_name="layers/reduce_sum" stack_frame_id=18}
}

%region_28.38 (reduce_max.24: bf16[], reduce_max.25: bf16[]) -> bf16[] {
  %reduce_max.24 = bf16[] parameter(0), metadata={op_name="reduce_max"}
  %reduce_max.25 = bf16[] parameter(1), metadata={op_name="reduce_max"}
  ROOT %reduce_max.26 = bf16[] maximum(%reduce_max.24, %reduce_max.25), metadata={op_name="layers/reduce_max" stack_frame_id=27}
}

%region_29.39 (reduce_sum.171: f32[], reduce_sum.172: f32[]) -> f32[] {
  %reduce_sum.171 = f32[] parameter(0), metadata={op_name="reduce_sum"}
  %reduce_sum.172 = f32[] parameter(1), metadata={op_name="reduce_sum"}
  ROOT %reduce_sum.173 = f32[] add(%reduce_sum.171, %reduce_sum.172), metadata={op_name="layers/reduce_sum" stack_frame_id=28}
}

%region_30.40 (reduce_sum.178: f32[], reduce_sum.179: f32[]) -> f32[] {
  %reduce_sum.178 = f32[] parameter(0), metadata={op_name="reduce_sum"}
  %reduce_sum.179 = f32[] parameter(1), metadata={op_name="reduce_sum"}
  ROOT %reduce_sum.180 = f32[] add(%reduce_sum.178, %reduce_sum.179), metadata={op_name="layers/reduce_sum" stack_frame_id=31}
}

%region_31.41 (reduce_sum.185: f32[], reduce_sum.186: f32[]) -> f32[] {
  %reduce_sum.185 = f32[] parameter(0), metadata={op_name="reduce_sum"}
  %reduce_sum.186 = f32[] parameter(1), metadata={op_name="reduce_sum"}
  ROOT %reduce_sum.187 = f32[] add(%reduce_sum.185, %reduce_sum.186), metadata={op_name="layers/reduce_sum" stack_frame_id=34}
}

%region_32.42 (reduce_sum.192: f32[], reduce_sum.193: f32[]) -> f32[] {
  %reduce_sum.192 = f32[] parameter(0), metadata={op_name="reduce_sum"}
  %reduce_sum.193 = f32[] parameter(1), metadata={op_name="reduce_sum"}
  ROOT %reduce_sum.194 = f32[] add(%reduce_sum.192, %reduce_sum.193), metadata={op_name="layers/reduce_sum" stack_frame_id=37}
}

%region_33.43 (reduce_sum.199: f32[], reduce_sum.200: f32[]) -> f32[] {
  %reduce_sum.199 = f32[] parameter(0), metadata={op_name="reduce_sum"}
  %reduce_sum.200 = f32[] parameter(1), metadata={op_name="reduce_sum"}
  ROOT %reduce_sum.201 = f32[] add(%reduce_sum.199, %reduce_sum.200), metadata={op_name="layers/reduce_sum" stack_frame_id=13}
}

%region_35.45 (reduce_sum.213: f32[], reduce_sum.214: f32[]) -> f32[] {
  %reduce_sum.213 = f32[] parameter(0), metadata={op_name="reduce_sum"}
  %reduce_sum.214 = f32[] parameter(1), metadata={op_name="reduce_sum"}
  ROOT %reduce_sum.215 = f32[] add(%reduce_sum.213, %reduce_sum.214), metadata={op_name="layers/reduce_sum" stack_frame_id=21}
}

%region_34.44 (reduce_sum.206: f32[], reduce_sum.207: f32[]) -> f32[] {
  %reduce_sum.206 = f32[] parameter(0), metadata={op_name="reduce_sum"}
  %reduce_sum.207 = f32[] parameter(1), metadata={op_name="reduce_sum"}
  ROOT %reduce_sum.208 = f32[] add(%reduce_sum.206, %reduce_sum.207), metadata={op_name="layers/reduce_sum" stack_frame_id=18}
}

%region_36.46 (reduce_max.31: bf16[], reduce_max.32: bf16[]) -> bf16[] {
  %reduce_max.31 = bf16[] parameter(0), metadata={op_name="reduce_max"}
  %reduce_max.32 = bf16[] parameter(1), metadata={op_name="reduce_max"}
  ROOT %reduce_max.33 = bf16[] maximum(%reduce_max.31, %reduce_max.32), metadata={op_name="layers/reduce_max" stack_frame_id=27}
}

%region_37.47 (reduce_sum.220: f32[], reduce_sum.221: f32[]) -> f32[] {
  %reduce_sum.220 = f32[] parameter(0), metadata={op_name="reduce_sum"}
  %reduce_sum.221 = f32[] parameter(1), metadata={op_name="reduce_sum"}
  ROOT %reduce_sum.222 = f32[] add(%reduce_sum.220, %reduce_sum.221), metadata={op_name="layers/reduce_sum" stack_frame_id=28}
}

%region_38.48 (reduce_sum.227: f32[], reduce_sum.228: f32[]) -> f32[] {
  %reduce_sum.227 = f32[] parameter(0), metadata={op_name="reduce_sum"}
  %reduce_sum.228 = f32[] parameter(1), metadata={op_name="reduce_sum"}
  ROOT %reduce_sum.229 = f32[] add(%reduce_sum.227, %reduce_sum.228), metadata={op_name="layers/reduce_sum" stack_frame_id=31}
}

%region_39.49 (reduce_sum.234: f32[], reduce_sum.235: f32[]) -> f32[] {
  %reduce_sum.234 = f32[] parameter(0), metadata={op_name="reduce_sum"}
  %reduce_sum.235 = f32[] parameter(1), metadata={op_name="reduce_sum"}
  ROOT %reduce_sum.236 = f32[] add(%reduce_sum.234, %reduce_sum.235), metadata={op_name="layers/reduce_sum" stack_frame_id=34}
}

%region_40.50 (reduce_sum.241: f32[], reduce_sum.242: f32[]) -> f32[] {
  %reduce_sum.241 = f32[] parameter(0), metadata={op_name="reduce_sum"}
  %reduce_sum.242 = f32[] parameter(1), metadata={op_name="reduce_sum"}
  ROOT %reduce_sum.243 = f32[] add(%reduce_sum.241, %reduce_sum.242), metadata={op_name="layers/reduce_sum" stack_frame_id=37}
}

%region_41.51 (reduce_sum.248: f32[], reduce_sum.249: f32[]) -> f32[] {
  %reduce_sum.248 = f32[] parameter(0), metadata={op_name="reduce_sum"}
  %reduce_sum.249 = f32[] parameter(1), metadata={op_name="reduce_sum"}
  ROOT %reduce_sum.250 = f32[] add(%reduce_sum.248, %reduce_sum.249), metadata={op_name="layers/reduce_sum" stack_frame_id=13}
}

%region_43.53 (reduce_sum.262: f32[], reduce_sum.263: f32[]) -> f32[] {
  %reduce_sum.262 = f32[] parameter(0), metadata={op_name="reduce_sum"}
  %reduce_sum.263 = f32[] parameter(1), metadata={op_name="reduce_sum"}
  ROOT %reduce_sum.264 = f32[] add(%reduce_sum.262, %reduce_sum.263), metadata={op_name="layers/reduce_sum" stack_frame_id=21}
}

%region_42.52 (reduce_sum.255: f32[], reduce_sum.256: f32[]) -> f32[] {
  %reduce_sum.255 = f32[] parameter(0), metadata={op_name="reduce_sum"}
  %reduce_sum.256 = f32[] parameter(1), metadata={op_name="reduce_sum"}
  ROOT %reduce_sum.257 = f32[] add(%reduce_sum.255, %reduce_sum.256), metadata={op_name="layers/reduce_sum" stack_frame_id=18}
}

%region_44.54 (reduce_max.38: bf16[], reduce_max.39: bf16[]) -> bf16[] {
  %reduce_max.38 = bf16[] parameter(0), metadata={op_name="reduce_max"}
  %reduce_max.39 = bf16[] parameter(1), metadata={op_name="reduce_max"}
  ROOT %reduce_max.40 = bf16[] maximum(%reduce_max.38, %reduce_max.39), metadata={op_name="layers/reduce_max" stack_frame_id=27}
}

%region_45.55 (reduce_sum.269: f32[], reduce_sum.270: f32[]) -> f32[] {
  %reduce_sum.269 = f32[] parameter(0), metadata={op_name="reduce_sum"}
  %reduce_sum.270 = f32[] parameter(1), metadata={op_name="reduce_sum"}
  ROOT %reduce_sum.271 = f32[] add(%reduce_sum.269, %reduce_sum.270), metadata={op_name="layers/reduce_sum" stack_frame_id=28}
}

%region_46.56 (reduce_sum.276: f32[], reduce_sum.277: f32[]) -> f32[] {
  %reduce_sum.276 = f32[] parameter(0), metadata={op_name="reduce_sum"}
  %reduce_sum.277 = f32[] parameter(1), metadata={op_name="reduce_sum"}
  ROOT %reduce_sum.278 = f32[] add(%reduce_sum.276, %reduce_sum.277), metadata={op_name="layers/reduce_sum" stack_frame_id=31}
}

%region_47.57 (reduce_sum.283: f32[], reduce_sum.284: f32[]) -> f32[] {
  %reduce_sum.283 = f32[] parameter(0), metadata={op_name="reduce_sum"}
  %reduce_sum.284 = f32[] parameter(1), metadata={op_name="reduce_sum"}
  ROOT %reduce_sum.285 = f32[] add(%reduce_sum.283, %reduce_sum.284), metadata={op_name="layers/reduce_sum" stack_frame_id=34}
}

%region_48.58 (reduce_sum.290: f32[], reduce_sum.291: f32[]) -> f32[] {
  %reduce_sum.290 = f32[] parameter(0), metadata={op_name="reduce_sum"}
  %reduce_sum.291 = f32[] parameter(1), metadata={op_name="reduce_sum"}
  ROOT %reduce_sum.292 = f32[] add(%reduce_sum.290, %reduce_sum.291), metadata={op_name="layers/reduce_sum" stack_frame_id=37}
}

%closed_call.59 (Arg_0.21: bf16[96,2048,1,256], Arg_1.21: bf16[96,2048,1,256], Arg_2.5: bf16[96,2048,1,256], Arg_3.1: bf16[96,2048,1,256], Arg_4.1: pred[96,4,2,2048,2048], Arg_5.1: bf16[96,4,2,2048,2048], Arg_6.1: bf16[96,2048,1,256], Arg_7.1: bf16[96,2048,1,256], Arg_8.1: bf16[96,2048,1,256], Arg_9.1: bf16[96,2048,1,256], Arg_10.1: pred[96,4,2,2048,2048], Arg_11.1: bf16[96,4,2,2048,2048], Arg_12.1: bf16[96,2048,1,256], Arg_13.1: bf16[96,2048,1,256], Arg_14.1: bf16[96,2048,1,256], Arg_15.1: bf16[96,2048,1,256], Arg_16.1: pred[96,4,2,2048,2048], Arg_17.1: bf16[96,4,2,2048,2048], Arg_18.1: bf16[96,2048,1,256], Arg_19.1: bf16[96,2048,1,256], Arg_20.1: bf16[96,2048,1,256], Arg_21.1: bf16[96,2048,1,256], Arg_22.1: pred[96,4,2,2048,2048], Arg_23.1: bf16[96,4,2,2048,2048], Arg_24.1: bf16[96,2048,1,256], Arg_25.1: bf16[96,2048,1,256], Arg_26.1: bf16[96,2048,1,256], Arg_27.1: bf16[96,2048,1,256], Arg_28.1: pred[96,4,2,2048,2048], Arg_29.1: bf16[96,4,2,2048,2048], Arg_30.1: bf16[96,2048,1,256], Arg_31.1: bf16[96,2048,1,256], Arg_32.1: bf16[96,2048,1,256], Arg_33.1: bf16[96,2048,1,256], Arg_34.1: pred[96,4,2,2048,2048], Arg_35.1: bf16[96,4,2,2048,2048], Arg_36.1: bf16[96,2048,2560], Arg_37.1: f32[2560,10240], Arg_38.1: f32[2560,10240], Arg_39.1: f32[10240,2560], Arg_40.1: f32[2560], Arg_41.1: f32[2560], Arg_42.1: f32[2560], Arg_43.1: f32[2560], Arg_44.1: f32[2560,4,256], Arg_45.1: f32[256], Arg_46.1: f32[8,256,2560], Arg_47.1: f32[2560,8,256], Arg_48.1: f32[256], Arg_49.1: f32[2560,4,256], Arg_50.1: f32[2560,10240], Arg_51.1: f32[2560,10240], Arg_52.1: f32[10240,2560], Arg_53.1: f32[2560], Arg_54.1: f32[2560], Arg_55.1: f32[2560], Arg_56.1: f32[2560], Arg_57.1: f32[2560,4,256], Arg_58.1: f32[256], Arg_59.1: f32[8,256,2560], Arg_60.1: f32[2560,8,256], Arg_61.1: f32[256], Arg_62.1: f32[2560,4,256], Arg_63.1: f32[2560,10240], Arg_64.1: f32[2560,10240], Arg_65.1: f32[10240,2560], Arg_66.1: f32[2560], Arg_67.1: f32[2560], Arg_68.1: f32[2560], Arg_69.1: f32[2560], Arg_70.1: f32[2560,4,256], Arg_71.1: f32[256], Arg_72.1: f32[8,256,2560], Arg_73.1: f32[2560,8,256], Arg_74.1: f32[256], Arg_75.1: f32[2560,4,256], Arg_76.1: f32[2560,10240], Arg_77.1: f32[2560,10240], Arg_78.1: f32[10240,2560], Arg_79.1: f32[2560], Arg_80.1: f32[2560], Arg_81.1: f32[2560], Arg_82.1: f32[2560], Arg_83.1: f32[2560,4,256], Arg_84.1: f32[256], Arg_85.1: f32[8,256,2560], Arg_86.1: f32[2560,8,256], Arg_87.1: f32[256], Arg_88.1: f32[2560,4,256], Arg_89.1: f32[2560,10240], Arg_90.1: f32[2560,10240], Arg_91.1: f32[10240,2560], Arg_92.1: f32[2560], Arg_93.1: f32[2560], Arg_94.1: f32[2560], Arg_95.1: f32[2560], Arg_96.1: f32[2560,4,256], Arg_97.1: f32[256], Arg_98.1: f32[8,256,2560], Arg_99.1: f32[2560,8,256], Arg_100.1: f32[256], Arg_101.1: f32[2560,4,256], Arg_102.1: f32[2560,10240], Arg_103.1: f32[2560,10240], Arg_104.1: f32[10240,2560], Arg_105.1: f32[2560], Arg_106.1: f32[2560], Arg_107.1: f32[2560], Arg_108.1: f32[2560], Arg_109.1: f32[2560,4,256], Arg_110.1: f32[256], Arg_111.1: f32[8,256,2560], Arg_112.1: f32[2560,8,256], Arg_113.1: f32[256], Arg_114.1: f32[2560,4,256]) -> (bf16[96,2048,2560], bf16[96,2048,2560]) {
  %Arg_105.1 = f32[2560]{0} parameter(105)
  %convert_element_type.374 = bf16[2560]{0} convert(%Arg_105.1), metadata={op_name="layers/convert_element_type" stack_frame_id=38}
  %Arg_107.1 = f32[2560]{0} parameter(107)
  %convert_element_type.368 = bf16[2560]{0} convert(%Arg_107.1), metadata={op_name="layers/convert_element_type" stack_frame_id=39}
  %Arg_106.1 = f32[2560]{0} parameter(106)
  %convert_element_type.365 = bf16[2560]{0} convert(%Arg_106.1), metadata={op_name="layers/convert_element_type" stack_frame_id=40}
  %Arg_108.1 = f32[2560]{0} parameter(108)
  %convert_element_type.350 = bf16[2560]{0} convert(%Arg_108.1), metadata={op_name="layers/convert_element_type" stack_frame_id=41}
  %Arg_92.1 = f32[2560]{0} parameter(92)
  %convert_element_type.347 = bf16[2560]{0} convert(%Arg_92.1), metadata={op_name="layers/convert_element_type" stack_frame_id=38}
  %Arg_94.1 = f32[2560]{0} parameter(94)
  %convert_element_type.341 = bf16[2560]{0} convert(%Arg_94.1), metadata={op_name="layers/convert_element_type" stack_frame_id=39}
  %Arg_93.1 = f32[2560]{0} parameter(93)
  %convert_element_type.338 = bf16[2560]{0} convert(%Arg_93.1), metadata={op_name="layers/convert_element_type" stack_frame_id=40}
  %Arg_95.1 = f32[2560]{0} parameter(95)
  %convert_element_type.323 = bf16[2560]{0} convert(%Arg_95.1), metadata={op_name="layers/convert_element_type" stack_frame_id=41}
  %Arg_79.1 = f32[2560]{0} parameter(79)
  %convert_element_type.320 = bf16[2560]{0} convert(%Arg_79.1), metadata={op_name="layers/convert_element_type" stack_frame_id=38}
  %Arg_81.1 = f32[2560]{0} parameter(81)
  %convert_element_type.314 = bf16[2560]{0} convert(%Arg_81.1), metadata={op_name="layers/convert_element_type" stack_frame_id=39}
  %Arg_80.1 = f32[2560]{0} parameter(80)
  %convert_element_type.311 = bf16[2560]{0} convert(%Arg_80.1), metadata={op_name="layers/convert_element_type" stack_frame_id=40}
  %Arg_82.1 = f32[2560]{0} parameter(82)
  %convert_element_type.296 = bf16[2560]{0} convert(%Arg_82.1), metadata={op_name="layers/convert_element_type" stack_frame_id=41}
  %Arg_66.1 = f32[2560]{0} parameter(66)
  %convert_element_type.293 = bf16[2560]{0} convert(%Arg_66.1), metadata={op_name="layers/convert_element_type" stack_frame_id=38}
  %Arg_68.1 = f32[2560]{0} parameter(68)
  %convert_element_type.287 = bf16[2560]{0} convert(%Arg_68.1), metadata={op_name="layers/convert_element_type" stack_frame_id=39}
  %Arg_67.1 = f32[2560]{0} parameter(67)
  %convert_element_type.284 = bf16[2560]{0} convert(%Arg_67.1), metadata={op_name="layers/convert_element_type" stack_frame_id=40}
  %Arg_69.1 = f32[2560]{0} parameter(69)
  %convert_element_type.269 = bf16[2560]{0} convert(%Arg_69.1), metadata={op_name="layers/convert_element_type" stack_frame_id=41}
  %Arg_53.1 = f32[2560]{0} parameter(53)
  %convert_element_type.266 = bf16[2560]{0} convert(%Arg_53.1), metadata={op_name="layers/convert_element_type" stack_frame_id=38}
  %Arg_55.1 = f32[2560]{0} parameter(55)
  %convert_element_type.260 = bf16[2560]{0} convert(%Arg_55.1), metadata={op_name="layers/convert_element_type" stack_frame_id=39}
  %Arg_54.1 = f32[2560]{0} parameter(54)
  %convert_element_type.257 = bf16[2560]{0} convert(%Arg_54.1), metadata={op_name="layers/convert_element_type" stack_frame_id=40}
  %Arg_56.1 = f32[2560]{0} parameter(56)
  %convert_element_type.242 = bf16[2560]{0} convert(%Arg_56.1), metadata={op_name="layers/convert_element_type" stack_frame_id=41}
  %Arg_40.1 = f32[2560]{0} parameter(40)
  %convert_element_type.239 = bf16[2560]{0} convert(%Arg_40.1), metadata={op_name="layers/convert_element_type" stack_frame_id=38}
  %Arg_42.1 = f32[2560]{0} parameter(42)
  %convert_element_type.233 = bf16[2560]{0} convert(%Arg_42.1), metadata={op_name="layers/convert_element_type" stack_frame_id=39}
  %Arg_41.1 = f32[2560]{0} parameter(41)
  %convert_element_type.230 = bf16[2560]{0} convert(%Arg_41.1), metadata={op_name="layers/convert_element_type" stack_frame_id=40}
  %Arg_43.1 = f32[2560]{0} parameter(43)
  %convert_element_type.215 = bf16[2560]{0} convert(%Arg_43.1), metadata={op_name="layers/convert_element_type" stack_frame_id=41}
  %Arg_36.1 = bf16[96,2048,2560]{2,1,0} parameter(36)
  %sharding_constraint.73 = bf16[96,2048,2560]{2,1,0} custom-call(%Arg_36.1), custom_call_target="Sharding", sharding={devices=[8,1,1]<=[8]}, frontend_attributes={xla.sdy.sharding="#sdy.sharding_per_value<[<@mesh, [{\"data\", \"fsdp\", \"fsdp_transpose\", \"expert\"}, {\"tensor_sequence\", \"context\"}, {\"tensor\", \"tensor_transpose\"}]>]>"}, metadata={op_name="layers/sharding_constraint" stack_frame_id=45}
  %sharding_constraint.74 = bf16[96,2048,2560]{2,1,0} custom-call(%sharding_constraint.73), custom_call_target="Sharding", sharding={devices=[8,1,1]<=[8]}, frontend_attributes={xla.sdy.sharding="#sdy.sharding_per_value<[<@mesh, [{\"data\", \"fsdp\", \"fsdp_transpose\", \"expert\"}, {\"tensor_sequence\", \"context\"}, {\"tensor\", \"tensor_transpose\"}]>]>"}, metadata={op_name="layers/sharding_constraint" stack_frame_id=49}
  %convert_element_type.213 = f32[96,2048,2560]{2,1,0} convert(%sharding_constraint.74), metadata={op_name="layers/convert_element_type" stack_frame_id=50}
  %square.36 = f32[96,2048,2560]{2,1,0} multiply(%convert_element_type.213, %convert_element_type.213), metadata={op_name="layers/square" stack_frame_id=51}
  %constant.182 = f32[] constant(0)
  %reduce_sum.294 = f32[96,2048]{1,0} reduce(%square.36, %constant.182), dimensions={2}, to_apply=%region_1.10, metadata={op_name="layers/reduce_sum" stack_frame_id=13}
  %broadcast_in_dim.116 = f32[96,2048,1]{2,1,0} reshape(%reduce_sum.294), metadata={op_name="layers/broadcast_in_dim" stack_frame_id=13}
  %constant.180 = f32[] constant(2560)
  %broadcast.142 = f32[96,2048,1]{2,1,0} broadcast(%constant.180), dimensions={}
  %div.156 = f32[96,2048,1]{2,1,0} divide(%broadcast_in_dim.116, %broadcast.142), metadata={op_name="layers/div" stack_frame_id=13}
  %constant.179 = f32[] constant(1e-06)
  %broadcast.141 = f32[96,2048,1]{2,1,0} broadcast(%constant.179), dimensions={}
  %add.76 = f32[96,2048,1]{2,1,0} add(%div.156, %broadcast.141), metadata={op_name="layers/add" stack_frame_id=52}
  %rsqrt.36 = f32[96,2048,1]{2,1,0} rsqrt(%add.76), metadata={op_name="layers/rsqrt" stack_frame_id=53}
  %mul.294 = f32[96,2048,1]{2,1,0} broadcast(%rsqrt.36), dimensions={0,1,2}, metadata={op_name="layers/mul" stack_frame_id=54}
  %mul.295 = f32[96,2048]{1,0} reshape(%mul.294), metadata={op_name="layers/mul" stack_frame_id=54}
  %mul.296 = f32[96,2048,2560]{2,1,0} broadcast(%mul.295), dimensions={0,1}, metadata={op_name="layers/mul" stack_frame_id=54}
  %mul.297 = f32[96,2048,2560]{2,1,0} multiply(%convert_element_type.213, %mul.296), metadata={op_name="layers/mul" stack_frame_id=54}
  %convert_element_type.214 = bf16[96,2048,2560]{2,1,0} convert(%mul.297), metadata={op_name="layers/convert_element_type" stack_frame_id=55}
  %dot_general.90 = bf16[2560,96,2048]{2,1,0} dot(%convert_element_type.215, %convert_element_type.214), lhs_batch_dims={0}, lhs_contracting_dims={}, rhs_batch_dims={2}, rhs_contracting_dims={}, metadata={op_name="layers/...k,k->...k/dot_general" stack_frame_id=56}
  %transpose.132 = bf16[96,2048,2560]{1,0,2} transpose(%dot_general.90), dimensions={1,2,0}, metadata={op_name="layers/...k,k->...k/transpose" stack_frame_id=56}
  %sharding_constraint.75 = bf16[96,2048,2560]{2,1,0} custom-call(%transpose.132), custom_call_target="Sharding", sharding={devices=[8,1,1]<=[8]}, frontend_attributes={xla.sdy.sharding="#sdy.sharding_per_value<[<@mesh, [{\"data\", \"fsdp\", \"fsdp_transpose\", \"expert\"}, {\"tensor_sequence\", \"context\"}, {\"tensor\", \"tensor_transpose\"}]>]>"}, metadata={op_name="layers/sharding_constraint" stack_frame_id=60}
  %sharding_constraint.77 = bf16[96,2048,2560]{2,1,0} custom-call(%sharding_constraint.75), custom_call_target="Sharding", sharding={devices=[8,1,1]<=[8]}, frontend_attributes={xla.sdy.sharding="#sdy.sharding_per_value<[<@mesh, [{\"fsdp\"}, {}, {}]>]>"}, metadata={op_name="layers/sharding_constraint" stack_frame_id=63}
  %Arg_49.1 = f32[2560,4,256]{2,1,0} parameter(49)
  %convert_element_type.218 = bf16[2560,4,256]{2,1,0} convert(%Arg_49.1), metadata={op_name="layers/convert_element_type" stack_frame_id=67}
  %dot_general.93 = bf16[96,2048,4,256]{3,2,1,0} dot(%sharding_constraint.77, %convert_element_type.218), lhs_contracting_dims={2}, rhs_contracting_dims={0}, metadata={op_name="layers/dot_general" stack_frame_id=69}
  %sharding_constraint.80 = bf16[96,2048,4,256]{3,2,1,0} custom-call(%dot_general.93), custom_call_target="Sharding", sharding={devices=[8,1,1,1]<=[8]}, frontend_attributes={xla.sdy.sharding="#sdy.sharding_per_value<[<@mesh, [{\"fsdp\"}, {}, {}, {}]>]>"}, metadata={op_name="layers/sharding_constraint" stack_frame_id=72}
  %Arg_45.1 = f32[256]{0} parameter(45)
  %convert_element_type.224 = bf16[256]{0} convert(%Arg_45.1), metadata={op_name="layers/convert_element_type" stack_frame_id=73}
  %Arg_44.1 = f32[2560,4,256]{2,1,0} parameter(44)
  %convert_element_type.217 = bf16[2560,4,256]{2,1,0} convert(%Arg_44.1), metadata={op_name="layers/convert_element_type" stack_frame_id=77}
  %dot_general.92 = bf16[96,2048,4,256]{3,2,1,0} dot(%sharding_constraint.77, %convert_element_type.217), lhs_contracting_dims={2}, rhs_contracting_dims={0}, metadata={op_name="layers/dot_general" stack_frame_id=79}
  %convert_element_type.222 = f32[96,2048,4,256]{3,2,1,0} convert(%dot_general.92), metadata={op_name="layers/convert_element_type" stack_frame_id=80}
  %square.38 = f32[96,2048,4,256]{3,2,1,0} multiply(%convert_element_type.222, %convert_element_type.222), metadata={op_name="layers/square" stack_frame_id=81}
  %reduce_sum.296 = f32[96,2048,4]{2,1,0} reduce(%square.38, %constant.182), dimensions={3}, to_apply=%region_3.12, metadata={op_name="layers/reduce_sum" stack_frame_id=21}
  %broadcast_in_dim.118 = f32[96,2048,4,1]{3,2,1,0} reshape(%reduce_sum.296), metadata={op_name="layers/broadcast_in_dim" stack_frame_id=21}
  %constant.176 = f32[] constant(256)
  %broadcast.138 = f32[96,2048,4,1]{3,2,1,0} broadcast(%constant.176), dimensions={}
  %div.158 = f32[96,2048,4,1]{3,2,1,0} divide(%broadcast_in_dim.118, %broadcast.138), metadata={op_name="layers/div" stack_frame_id=21}
  %constant.175 = f32[] constant(1e-06)
  %broadcast.137 = f32[96,2048,4,1]{3,2,1,0} broadcast(%constant.175), dimensions={}
  %add.78 = f32[96,2048,4,1]{3,2,1,0} add(%div.158, %broadcast.137), metadata={op_name="layers/add" stack_frame_id=82}
  %rsqrt.38 = f32[96,2048,4,1]{3,2,1,0} rsqrt(%add.78), metadata={op_name="layers/rsqrt" stack_frame_id=83}
  %mul.302 = f32[96,2048,4,1]{3,2,1,0} broadcast(%rsqrt.38), dimensions={0,1,2,3}, metadata={op_name="layers/mul" stack_frame_id=84}
  %mul.303 = f32[96,2048,4]{2,1,0} reshape(%mul.302), metadata={op_name="layers/mul" stack_frame_id=84}
  %mul.304 = f32[96,2048,4,256]{3,2,1,0} broadcast(%mul.303), dimensions={0,1,2}, metadata={op_name="layers/mul" stack_frame_id=84}
  %mul.305 = f32[96,2048,4,256]{3,2,1,0} multiply(%convert_element_type.222, %mul.304), metadata={op_name="layers/mul" stack_frame_id=84}
  %convert_element_type.223 = bf16[96,2048,4,256]{3,2,1,0} convert(%mul.305), metadata={op_name="layers/convert_element_type" stack_frame_id=85}
  %dot_general.95 = bf16[256,96,2048,4]{3,2,1,0} dot(%convert_element_type.224, %convert_element_type.223), lhs_batch_dims={0}, lhs_contracting_dims={}, rhs_batch_dims={3}, rhs_contracting_dims={}, metadata={op_name="layers/...k,k->...k/dot_general" stack_frame_id=86}
  %transpose.134 = bf16[96,2048,4,256]{2,1,0,3} transpose(%dot_general.95), dimensions={1,2,3,0}, metadata={op_name="layers/...k,k->...k/transpose" stack_frame_id=86}
  %Arg_0.21 = bf16[96,2048,1,256]{3,2,1,0} parameter(0)
  %mul.314 = bf16[96,2048,1,256]{3,2,1,0} broadcast(%Arg_0.21), dimensions={0,1,2,3}, metadata={op_name="layers/mul" stack_frame_id=91}
  %mul.315 = bf16[96,2048,256]{2,1,0} reshape(%mul.314), metadata={op_name="layers/mul" stack_frame_id=91}
  %mul.316 = bf16[96,2048,4,256]{3,2,1,0} broadcast(%mul.315), dimensions={0,1,3}, metadata={op_name="layers/mul" stack_frame_id=91}
  %mul.317 = bf16[96,2048,4,256]{2,1,0,3} multiply(%transpose.134, %mul.316), metadata={op_name="layers/mul" stack_frame_id=91}
  %split.27 = bf16[96,2048,4,128]{3,2,1,0} slice(%transpose.134), slice={[0:96], [0:2048], [0:4], [128:256]}, metadata={op_name="layers/split" stack_frame_id=93}
  %neg.13 = bf16[96,2048,4,128]{3,2,1,0} negate(%split.27), metadata={op_name="layers/neg" stack_frame_id=94}
  %split.26 = bf16[96,2048,4,128]{3,2,1,0} slice(%transpose.134), slice={[0:96], [0:2048], [0:4], [0:128]}, metadata={op_name="layers/split" stack_frame_id=93}
  %concatenate.37 = bf16[96,2048,4,256]{3,2,1,0} concatenate(%neg.13, %split.26), dimensions={3}, metadata={op_name="layers/concatenate" stack_frame_id=95}
  %Arg_1.21 = bf16[96,2048,1,256]{3,2,1,0} parameter(1)
  %mul.318 = bf16[96,2048,1,256]{3,2,1,0} broadcast(%Arg_1.21), dimensions={0,1,2,3}, metadata={op_name="layers/mul" stack_frame_id=92}
  %mul.319 = bf16[96,2048,256]{2,1,0} reshape(%mul.318), metadata={op_name="layers/mul" stack_frame_id=92}
  %mul.320 = bf16[96,2048,4,256]{3,2,1,0} broadcast(%mul.319), dimensions={0,1,3}, metadata={op_name="layers/mul" stack_frame_id=92}
…
  %reduce_sum.6582 = f32[] reduce(%square.1114, %constant.413), dimensions={0,1,2,3}, to_apply=%region_686.718, metadata={op_name="jit(train_step)/reduce_sum" stack_frame_id=586}
  %add.3090 = f32[] add(%add.3089, %reduce_sum.6582), metadata={op_name="jit(train_step)/add" stack_frame_id=1094}
  %square.1115 = f32[2560,10240]{0,1} multiply(%convert_element_type.1982, %convert_element_type.1982), metadata={op_name="jit(train_step)/square" stack_frame_id=1093}
  %reduce_sum.6583 = f32[] reduce(%square.1115, %constant.413), dimensions={0,1}, to_apply=%region_687.719, metadata={op_name="jit(train_step)/reduce_sum" stack_frame_id=586}
  %add.3091 = f32[] add(%add.3090, %reduce_sum.6583), metadata={op_name="jit(train_step)/add" stack_frame_id=1094}
  %square.1116 = f32[2560,10240]{0,1} multiply(%convert_element_type.1981, %convert_element_type.1981), metadata={op_name="jit(train_step)/square" stack_frame_id=1093}
  %reduce_sum.6584 = f32[] reduce(%square.1116, %constant.413), dimensions={0,1}, to_apply=%region_688.720, metadata={op_name="jit(train_step)/reduce_sum" stack_frame_id=586}
  %add.3092 = f32[] add(%add.3091, %reduce_sum.6584), metadata={op_name="jit(train_step)/add" stack_frame_id=1094}
  %square.1117 = f32[10240,2560]{0,1} multiply(%convert_element_type.1980, %convert_element_type.1980), metadata={op_name="jit(train_step)/square" stack_frame_id=1093}
  %reduce_sum.6585 = f32[] reduce(%square.1117, %constant.413), dimensions={0,1}, to_apply=%region_689.721, metadata={op_name="jit(train_step)/reduce_sum" stack_frame_id=586}
  %add.3093 = f32[] add(%add.3092, %reduce_sum.6585), metadata={op_name="jit(train_step)/add" stack_frame_id=1094}
  %square.1118 = f32[2560]{0} multiply(%convert_element_type.1977, %convert_element_type.1977), metadata={op_name="jit(train_step)/square" stack_frame_id=1093}
  %reduce_sum.6586 = f32[] reduce(%square.1118, %constant.413), dimensions={0}, to_apply=%region_690.722, metadata={op_name="jit(train_step)/reduce_sum" stack_frame_id=586}
  %add.3094 = f32[] add(%add.3093, %reduce_sum.6586), metadata={op_name="jit(train_step)/add" stack_frame_id=1094}
  %square.1119 = f32[2560]{0} multiply(%convert_element_type.1986, %convert_element_type.1986), metadata={op_name="jit(train_step)/square" stack_frame_id=1093}
  %reduce_sum.6587 = f32[] reduce(%square.1119, %constant.413), dimensions={0}, to_apply=%region_691.723, metadata={op_name="jit(train_step)/reduce_sum" stack_frame_id=586}
  %add.3095 = f32[] add(%add.3094, %reduce_sum.6587), metadata={op_name="jit(train_step)/add" stack_frame_id=1094}
  %square.1120 = f32[2560]{0} multiply(%convert_element_type.1983, %convert_element_type.1983), metadata={op_name="jit(train_step)/square" stack_frame_id=1093}
  %reduce_sum.6588 = f32[] reduce(%square.1120, %constant.413), dimensions={0}, to_apply=%region_692.724, metadata={op_name="jit(train_step)/reduce_sum" stack_frame_id=586}
  %add.3096 = f32[] add(%add.3095, %reduce_sum.6588), metadata={op_name="jit(train_step)/add" stack_frame_id=1094}
  %square.1121 = f32[2560]{0} multiply(%convert_element_type.2001, %convert_element_type.2001), metadata={op_name="jit(train_step)/square" stack_frame_id=1093}
  %reduce_sum.6589 = f32[] reduce(%square.1121, %constant.413), dimensions={0}, to_apply=%region_693.725, metadata={op_name="jit(train_step)/reduce_sum" stack_frame_id=586}
  %add.3097 = f32[] add(%add.3096, %reduce_sum.6589), metadata={op_name="jit(train_step)/add" stack_frame_id=1094}
  %square.1122 = f32[2560,4,256]{0,2,1} multiply(%convert_element_type.1999, %convert_element_type.1999), metadata={op_name="jit(train_step)/square" stack_frame_id=1093}
  %reduce_sum.6590 = f32[] reduce(%square.1122, %constant.413), dimensions={0,1,2}, to_apply=%region_694.726, metadata={op_name="jit(train_step)/reduce_sum" stack_frame_id=586}
  %add.3098 = f32[] add(%add.3097, %reduce_sum.6590), metadata={op_name="jit(train_step)/add" stack_frame_id=1094}
  %square.1123 = f32[256]{0} multiply(%convert_element_type.1992, %convert_element_type.1992), metadata={op_name="jit(train_step)/square" stack_frame_id=1093}
  %reduce_sum.6591 = f32[] reduce(%square.1123, %constant.413), dimensions={0}, to_apply=%region_695.727, metadata={op_name="jit(train_step)/reduce_sum" stack_frame_id=586}
  %add.3099 = f32[] add(%add.3098, %reduce_sum.6591), metadata={op_name="jit(train_step)/add" stack_frame_id=1094}
  %square.1124 = f32[8,256,2560]{1,0,2} multiply(%convert_element_type.1989, %convert_element_type.1989), metadata={op_name="jit(train_step)/square" stack_frame_id=1093}
  %reduce_sum.6592 = f32[] reduce(%square.1124, %constant.413), dimensions={0,1,2}, to_apply=%region_696.728, metadata={op_name="jit(train_step)/reduce_sum" stack_frame_id=586}
  %add.3100 = f32[] add(%add.3099, %reduce_sum.6592), metadata={op_name="jit(train_step)/add" stack_frame_id=1094}
  %square.1125 = f32[2560,8,256]{0,2,1} multiply(%convert_element_type.2000, %convert_element_type.2000), metadata={op_name="jit(train_step)/square" stack_frame_id=1093}
  %reduce_sum.6593 = f32[] reduce(%square.1125, %constant.413), dimensions={0,1,2}, to_apply=%region_697.729, metadata={op_name="jit(train_step)/reduce_sum" stack_frame_id=586}
  %add.3101 = f32[] add(%add.3100, %reduce_sum.6593), metadata={op_name="jit(train_step)/add" stack_frame_id=1094}
  %square.1126 = f32[256]{0} multiply(%convert_element_type.1995, %convert_element_type.1995), metadata={op_name="jit(train_step)/square" stack_frame_id=1093}
  %reduce_sum.6594 = f32[] reduce(%square.1126, %constant.413), dimensions={0}, to_apply=%region_698.730, metadata={op_name="jit(train_step)/reduce_sum" stack_frame_id=586}
  %add.3102 = f32[] add(%add.3101, %reduce_sum.6594), metadata={op_name="jit(train_step)/add" stack_frame_id=1094}
  %square.1127 = f32[2560,4,256]{0,2,1} multiply(%convert_element_type.1998, %convert_element_type.1998), metadata={op_name="jit(train_step)/square" stack_frame_id=1093}
  %reduce_sum.6595 = f32[] reduce(%square.1127, %constant.413), dimensions={0,1,2}, to_apply=%region_699.731, metadata={op_name="jit(train_step)/reduce_sum" stack_frame_id=586}
  %add.3103 = f32[] add(%add.3102, %reduce_sum.6595), metadata={op_name="jit(train_step)/add" stack_frame_id=1094}
  %square.1128 = f32[2560,10240]{0,1} multiply(%convert_element_type.1955, %convert_element_type.1955), metadata={op_name="jit(train_step)/square" stack_frame_id=1093}
  %reduce_sum.6596 = f32[] reduce(%square.1128, %constant.413), dimensions={0,1}, to_apply=%region_700.732, metadata={op_name="jit(train_step)/reduce_sum" stack_frame_id=586}
  %add.3104 = f32[] add(%add.3103, %reduce_sum.6596), metadata={op_name="jit(train_step)/add" stack_frame_id=1094}
  %square.1129 = f32[2560,10240]{0,1} multiply(%convert_element_type.1954, %convert_element_type.1954), metadata={op_name="jit(train_step)/square" stack_frame_id=1093}
  %reduce_sum.6597 = f32[] reduce(%square.1129, %constant.413), dimensions={0,1}, to_apply=%region_701.733, metadata={op_name="jit(train_step)/reduce_sum" stack_frame_id=586}
  %add.3105 = f32[] add(%add.3104, %reduce_sum.6597), metadata={op_name="jit(train_step)/add" stack_frame_id=1094}
  %square.1130 = f32[10240,2560]{0,1} multiply(%convert_element_type.1953, %convert_element_type.1953), metadata={op_name="jit(train_step)/square" stack_frame_id=1093}
  %reduce_sum.6598 = f32[] reduce(%square.1130, %constant.413), dimensions={0,1}, to_apply=%region_702.734, metadata={op_name="jit(train_step)/reduce_sum" stack_frame_id=586}
  %add.3106 = f32[] add(%add.3105, %reduce_sum.6598), metadata={op_name="jit(train_step)/add" stack_frame_id=1094}
  %square.1131 = f32[2560]{0} multiply(%convert_element_type.1950, %convert_element_type.1950), metadata={op_name="jit(train_step)/square" stack_frame_id=1093}
  %reduce_sum.6599 = f32[] reduce(%square.1131, %constant.413), dimensions={0}, to_apply=%region_703.735, metadata={op_name="jit(train_step)/reduce_sum" stack_frame_id=586}
  %add.3107 = f32[] add(%add.3106, %reduce_sum.6599), metadata={op_name="jit(train_step)/add" stack_frame_id=1094}
  %square.1132 = f32[2560]{0} multiply(%convert_element_type.1959, %convert_element_type.1959), metadata={op_name="jit(train_step)/square" stack_frame_id=1093}
  %reduce_sum.6600 = f32[] reduce(%square.1132, %constant.413), dimensions={0}, to_apply=%region_704.736, metadata={op_name="jit(train_step)/reduce_sum" stack_frame_id=586}
  %add.3108 = f32[] add(%add.3107, %reduce_sum.6600), metadata={op_name="jit(train_step)/add" stack_frame_id=1094}
  %square.1133 = f32[2560]{0} multiply(%convert_element_type.1956, %convert_element_type.1956), metadata={op_name="jit(train_step)/square" stack_frame_id=1093}
  %reduce_sum.6601 = f32[] reduce(%square.1133, %constant.413), dimensions={0}, to_apply=%region_705.737, metadata={op_name="jit(train_step)/reduce_sum" stack_frame_id=586}
  %add.3109 = f32[] add(%add.3108, %reduce_sum.6601), metadata={op_name="jit(train_step)/add" stack_frame_id=1094}
  %square.1134 = f32[2560]{0} multiply(%convert_element_type.1974, %convert_element_type.1974), metadata={op_name="jit(train_step)/square" stack_frame_id=1093}
  %reduce_sum.6602 = f32[] reduce(%square.1134, %constant.413), dimensions={0}, to_apply=%region_706.738, metadata={op_name="jit(train_step)/reduce_sum" stack_frame_id=586}
  %add.3110 = f32[] add(%add.3109, %reduce_sum.6602), metadata={op_name="jit(train_step)/add" stack_frame_id=1094}
  %square.1135 = f32[2560,4,256]{0,2,1} multiply(%convert_element_type.1972, %convert_element_type.1972), metadata={op_name="jit(train_step)/square" stack_frame_id=1093}
  %reduce_sum.6603 = f32[] reduce(%square.1135, %constant.413), dimensions={0,1,2}, to_apply=%region_707.739, metadata={op_name="jit(train_step)/reduce_sum" stack_frame_id=586}
  %add.3111 = f32[] add(%add.3110, %reduce_sum.6603), metadata={op_name="jit(train_step)/add" stack_frame_id=1094}
  %square.1136 = f32[256]{0} multiply(%convert_element_type.1965, %convert_element_type.1965), metadata={op_name="jit(train_step)/square" stack_frame_id=1093}
  %reduce_sum.6604 = f32[] reduce(%square.1136, %constant.413), dimensions={0}, to_apply=%region_708.740, metadata={op_name="jit(train_step)/reduce_sum" stack_frame_id=586}
  %add.3112 = f32[] add(%add.3111, %reduce_sum.6604), metadata={op_name="jit(train_step)/add" stack_frame_id=1094}
  %square.1137 = f32[8,256,2560]{1,0,2} multiply(%convert_element_type.1962, %convert_element_type.1962), metadata={op_name="jit(train_step)/square" stack_frame_id=1093}
  %reduce_sum.6605 = f32[] reduce(%square.1137, %constant.413), dimensions={0,1,2}, to_apply=%region_709.741, metadata={op_name="jit(train_step)/reduce_sum" stack_frame_id=586}
  %add.3113 = f32[] add(%add.3112, %reduce_sum.6605), metadata={op_name="jit(train_step)/add" stack_frame_id=1094}
  %square.1138 = f32[2560,8,256]{0,2,1} multiply(%convert_element_type.1973, %convert_element_type.1973), metadata={op_name="jit(train_step)/square" stack_frame_id=1093}
  %reduce_sum.6606 = f32[] reduce(%square.1138, %constant.413), dimensions={0,1,2}, to_apply=%region_710.742, metadata={op_name="jit(train_step)/reduce_sum" stack_frame_id=586}
  %add.3114 = f32[] add(%add.3113, %reduce_sum.6606), metadata={op_name="jit(train_step)/add" stack_frame_id=1094}
  %square.1139 = f32[256]{0} multiply(%convert_element_type.1968, %convert_element_type.1968), metadata={op_name="jit(train_step)/square" stack_frame_id=1093}
  %reduce_sum.6607 = f32[] reduce(%square.1139, %constant.413), dimensions={0}, to_apply=%region_711.743, metadata={op_name="jit(train_step)/reduce_sum" stack_frame_id=586}
  %add.3115 = f32[] add(%add.3114, %reduce_sum.6607), metadata={op_name="jit(train_step)/add" stack_frame_id=1094}
  %square.1140 = f32[2560,4,256]{0,2,1} multiply(%convert_element_type.1971, %convert_element_type.1971), metadata={op_name="jit(train_step)/square" stack_frame_id=1093}
  %reduce_sum.6608 = f32[] reduce(%square.1140, %constant.413), dimensions={0,1,2}, to_apply=%region_712.744, metadata={op_name="jit(train_step)/reduce_sum" stack_frame_id=586}
  %add.3116 = f32[] add(%add.3115, %reduce_sum.6608), metadata={op_name="jit(train_step)/add" stack_frame_id=1094}
  %square.1141 = f32[2560,10240]{0,1} multiply(%convert_element_type.1928, %convert_element_type.1928), metadata={op_name="jit(train_step)/square" stack_frame_id=1093}
  %reduce_sum.6609 = f32[] reduce(%square.1141, %constant.413), dimensions={0,1}, to_apply=%region_713.745, metadata={op_name="jit(train_step)/reduce_sum" stack_frame_id=586}
  %add.3117 = f32[] add(%add.3116, %reduce_sum.6609), metadata={op_name="jit(train_step)/add" stack_frame_id=1094}
  %square.1142 = f32[2560,10240]{0,1} multiply(%convert_element_type.1927, %convert_element_type.1927), metadata={op_name="jit(train_step)/square" stack_frame_id=1093}
  %reduce_sum.6610 = f32[] reduce(%square.1142, %constant.413), dimensions={0,1}, to_apply=%region_714.746, metadata={op_name="jit(train_step)/reduce_sum" stack_frame_id=586}
  %add.3118 = f32[] add(%add.3117, %reduce_sum.6610), metadata={op_name="jit(train_step)/add" stack_frame_id=1094}
  %square.1143 = f32[10240,2560]{0,1} multiply(%convert_element_type.1926, %convert_element_type.1926), metadata={op_name="jit(train_step)/square" stack_frame_id=1093}
  %reduce_sum.6611 = f32[] reduce(%square.1143, %constant.413), dimensions={0,1}, to_apply=%region_715.747, metadata={op_name="jit(train_step)/reduce_sum" stack_frame_id=586}
  %add.3119 = f32[] add(%add.3118, %reduce_sum.6611), metadata={op_name="jit(train_step)/add" stack_frame_id=1094}
  %square.1144 = f32[2560]{0} multiply(%convert_element_type.1923, %convert_element_type.1923), metadata={op_name="jit(train_step)/square" stack_frame_id=1093}
  %reduce_sum.6612 = f32[] reduce(%square.1144, %constant.413), dimensions={0}, to_apply=%region_716.748, metadata={op_name="jit(train_step)/reduce_sum" stack_frame_id=586}
  %add.3120 = f32[] add(%add.3119, %reduce_sum.6612), metadata={op_name="jit(train_step)/add" stack_frame_id=1094}
  %square.1145 = f32[2560]{0} multiply(%convert_element_type.1932, %convert_element_type.1932), metadata={op_name="jit(train_step)/square" stack_frame_id=1093}
  %reduce_sum.6613 = f32[] reduce(%square.1145, %constant.413), dimensions={0}, to_apply=%region_717.749, metadata={op_name="jit(train_step)/reduce_sum" stack_frame_id=586}
  %add.3121 = f32[] add(%add.3120, %reduce_sum.6613), metadata={op_name="jit(train_step)/add" stack_frame_id=1094}
  %square.1146 = f32[2560]{0} multiply(%convert_element_type.1929, %convert_element_type.1929), metadata={op_name="jit(train_step)/square" stack_frame_id=1093}
  %reduce_sum.6614 = f32[] reduce(%square.1146, %constant.413), dimensions={0}, to_apply=%region_718.750, metadata={op_name="jit(train_step)/reduce_sum" stack_frame_id=586}
  %add.3122 = f32[] add(%add.3121, %reduce_sum.6614), metadata={op_name="jit(train_step)/add" stack_frame_id=1094}
  %square.1147 = f32[2560]{0} multiply(%convert_element_type.1947, %convert_element_type.1947), metadata={op_name="jit(train_step)/square" stack_frame_id=1093}
  %reduce_sum.6615 = f32[] reduce(%square.1147, %constant.413), dimensions={0}, to_apply=%region_719.751, metadata={op_name="jit(train_step)/reduce_sum" stack_frame_id=586}
  %add.3123 = f32[] add(%add.3122, %reduce_sum.6615), metadata={op_name="jit(train_step)/add" stack_frame_id=1094}
  %square.1148 = f32[2560,4,256]{0,2,1} multiply(%convert_element_type.1945, %convert_element_type.1945), metadata={op_name="jit(train_step)/square" stack_frame_id=1093}
  %reduce_sum.6616 = f32[] reduce(%square.1148, %constant.413), dimensions={0,1,2}, to_apply=%region_720.752, metadata={op_name="jit(train_step)/reduce_sum" stack_frame_id=586}
  %add.3124 = f32[] add(%add.3123, %reduce_sum.6616), metadata={op_name="jit(train_step)/add" stack_frame_id=1094}
  %square.1149 = f32[256]{0} multiply(%convert_element_type.1938, %convert_element_type.1938), metadata={op_name="jit(train_step)/square" stack_frame_id=1093}
  %reduce_sum.6617 = f32[] reduce(%square.1149, %constant.413), dimensions={0}, to_apply=%region_721.753, metadata={op_name="jit(train_step)/reduce_sum" stack_frame_id=586}
  %add.3125 = f32[] add(%add.3124, %reduce_sum.6617), metadata={op_name="jit(train_step)/add" stack_frame_id=1094}
  %square.1150 = f32[8,256,2560]{1,0,2} multiply(%convert_element_type.1935, %convert_element_type.1935), metadata={op_name="jit(train_step)/square" stack_frame_id=1093}
  %reduce_sum.6618 = f32[] reduce(%square.1150, %constant.413), dimensions={0,1,2}, to_apply=%region_722.754, metadata={op_name="jit(train_step)/reduce_sum" stack_frame_id=586}
  %add.3126 = f32[] add(%add.3125, %reduce_sum.6618), metadata={op_name="jit(train_step)/add" stack_frame_id=1094}
  %square.1151 = f32[2560,8,256]{0,2,1} multiply(%convert_element_type.1946, %convert_element_type.1946), metadata={op_name="jit(train_step)/square" stack_frame_id=1093}
  %reduce_sum.6619 = f32[] reduce(%square.1151, %constant.413), dimensions={0,1,2}, to_apply=%region_723.755, metadata={op_name="jit(train_step)/reduce_sum" stack_frame_id=586}
  %add.3127 = f32[] add(%add.3126, %reduce_sum.6619), metadata={op_name="jit(train_step)/add" stack_frame_id=1094}
  %square.1152 = f32[256]{0} multiply(%convert_element_type.1941, %convert_element_type.1941), metadata={op_name="jit(train_step)/square" stack_frame_id=1093}
  %reduce_sum.6620 = f32[] reduce(%square.1152, %constant.413), dimensions={0}, to_apply=%region_724.756, metadata={op_name="jit(train_step)/reduce_sum" stack_frame_id=586}
  %add.3128 = f32[] add(%add.3127, %reduce_sum.6620), metadata={op_name="jit(train_step)/add" stack_frame_id=1094}
  %square.1153 = f32[2560,4,256]{0,2,1} multiply(%convert_element_type.1944, %convert_element_type.1944), metadata={op_name="jit(train_step)/square" stack_frame_id=1093}
  %reduce_sum.6621 = f32[] reduce(%square.1153, %constant.413), dimensions={0,1,2}, to_apply=%region_725.757, metadata={op_name="jit(train_step)/reduce_sum" stack_frame_id=586}
  %add.3129 = f32[] add(%add.3128, %reduce_sum.6621), metadata={op_name="jit(train_step)/add" stack_frame_id=1094}
  %square.1154 = f32[2560,10240]{0,1} multiply(%convert_element_type.1901, %convert_element_type.1901), metadata={op_name="jit(train_step)/square" stack_frame_id=1093}
  %reduce_sum.6622 = f32[] reduce(%square.1154, %constant.413), dimensions={0,1}, to_apply=%region_726.758, metadata={op_name="jit(train_step)/reduce_sum" stack_frame_id=586}
  %add.3130 = f32[] add(%add.3129, %reduce_sum.6622), metadata={op_name="jit(train_step)/add" stack_frame_id=1094}
  %square.1155 = f32[2560,10240]{0,1} multiply(%convert_element_type.1900, %convert_element_type.1900), metadata={op_name="jit(train_step)/square" stack_frame_id=1093}
  %reduce_sum.6623 = f32[] reduce(%square.1155, %constant.413), dimensions={0,1}, to_apply=%region_727.759, metadata={op_name="jit(train_step)/reduce_sum" stack_frame_id=586}
  %add.3131 = f32[] add(%add.3130, %reduce_sum.6623), metadata={op_name="jit(train_step)/add" stack_frame_id=1094}
  %square.1156 = f32[10240,2560]{0,1} multiply(%convert_element_type.1899, %convert_element_type.1899), metadata={op_name="jit(train_step)/square" stack_frame_id=1093}
  %reduce_sum.6624 = f32[] reduce(%square.1156, %constant.413), dimensions={0,1}, to_apply=%region_728.760, metadata={op_name="jit(train_step)/reduce_sum" stack_frame_id=586}
  %add.3132 = f32[] add(%add.3131, %reduce_sum.6624), metadata={op_name="jit(train_step)/add" stack_frame_id=1094}
  %square.1157 = f32[2560]{0} multiply(%convert_element_type.1896, %convert_element_type.1896), metadata={op_name="jit(train_step)/square" stack_frame_id=1093}
  %reduce_sum.6625 = f32[] reduce(%square.1157, %constant.413), dimensions={0}, to_apply=%region_729.761, metadata={op_name="jit(train_step)/reduce_sum" stack_frame_id=586}
  %add.3133 = f32[] add(%add.3132, %reduce_sum.6625), metadata={op_name="jit(train_step)/add" stack_frame_id=1094}
  %square.1158 = f32[2560]{0} multiply(%convert_element_type.1905, %convert_element_type.1905), metadata={op_name="jit(train_step)/square" stack_frame_id=1093}
  %reduce_sum.6626 = f32[] reduce(%square.1158, %constant.413), dimensions={0}, to_apply=%region_730.762, metadata={op_name="jit(train_step)/reduce_sum" stack_frame_id=586}
  %add.3134 = f32[] add(%add.3133, %reduce_sum.6626), metadata={op_name="jit(train_step)/add" stack_frame_id=1094}
  %square.1159 = f32[2560]{0} multiply(%convert_element_type.1902, %convert_element_type.1902), metadata={op_name="jit(train_step)/square" stack_frame_id=1093}
  %reduce_sum.6627 = f32[] reduce(%square.1159, %constant.413), dimensions={0}, to_apply=%region_731.763, metadata={op_name="jit(train_step)/reduce_sum" stack_frame_id=586}
  %add.3135 = f32[] add(%add.3134, %reduce_sum.6627), metadata={op_name="jit(train_step)/add" stack_frame_id=1094}
  %square.1160 = f32[2560]{0} multiply(%convert_element_type.1920, %convert_element_type.1920), metadata={op_name="jit(train_step)/square" stack_frame_id=1093}
  %reduce_sum.6628 = f32[] reduce(%square.1160, %constant.413), dimensions={0}, to_apply=%region_732.764, metadata={op_name="jit(train_step)/reduce_sum" stack_frame_id=586}
  %add.3136 = f32[] add(%add.3135, %reduce_sum.6628), metadata={op_name="jit(train_step)/add" stack_frame_id=1094}
  %square.1161 = f32[2560,4,256]{0,2,1} multiply(%convert_element_type.1918, %convert_element_type.1918), metadata={op_name="jit(train_step)/square" stack_frame_id=1093}
  %reduce_sum.6629 = f32[] reduce(%square.1161, %constant.413), dimensions={0,1,2}, to_apply=%region_733.765, metadata={op_name="jit(train_step)/reduce_sum" stack_frame_id=586}
  %add.3137 = f32[] add(%add.3136, %reduce_sum.6629), metadata={op_name="jit(train_step)/add" stack_frame_id=1094}
  %square.1162 = f32[256]{0} multiply(%convert_element_type.1911, %convert_element_type.1911), metadata={op_name="jit(train_step)/square" stack_frame_id=1093}
  %reduce_sum.6630 = f32[] reduce(%square.1162, %constant.413), dimensions={0}, to_apply=%region_734.766, metadata={op_name="jit(train_step)/reduce_sum" stack_frame_id=586}
  %add.3138 = f32[] add(%add.3137, %reduce_sum.6630), metadata={op_name="jit(train_step)/add" stack_frame_id=1094}
  %square.1163 = f32[8,256,2560]{1,0,2} multiply(%convert_element_type.1908, %convert_element_type.1908), metadata={op_name="jit(train_step)/square" stack_frame_id=1093}
  %reduce_sum.6631 = f32[] reduce(%square.1163, %constant.413), dimensions={0,1,2}, to_apply=%region_735.767, metadata={op_name="jit(train_step)/reduce_sum" stack_frame_id=586}
  %add.3139 = f32[] add(%add.3138, %reduce_sum.6631), metadata={op_name="jit(train_step)/add" stack_frame_id=1094}
  %square.1164 = f32[2560,8,256]{0,2,1} multiply(%convert_element_type.1919, %convert_element_type.1919), metadata={op_name="jit(train_step)/square" stack_frame_id=1093}
  %reduce_sum.6632 = f32[] reduce(%square.1164, %constant.413), dimensions={0,1,2}, to_apply=%region_736.768, metadata={op_name="jit(train_step)/reduce_sum" stack_frame_id=586}
  %add.3140 = f32[] add(%add.3139, %reduce_sum.6632), metadata={op_name="jit(train_step)/add" stack_frame_id=1094}
  %square.1165 = f32[256]{0} multiply(%convert_element_type.1914, %convert_element_type.1914), metadata={op_name="jit(train_step)/square" stack_frame_id=1093}
  %reduce_sum.6633 = f32[] reduce(%square.1165, %constant.413), dimensions={0}, to_apply=%region_737.769, metadata={op_name="jit(train_step)/reduce_sum" stack_frame_id=586}
  %add.3141 = f32[] add(%add.3140, %reduce_sum.6633), metadata={op_name="jit(train_step)/add" stack_frame_id=1094}
  %square.1166 = f32[2560,4,256]{0,2,1} multiply(%convert_element_type.1917, %convert_element_type.1917), metadata={op_name="jit(train_step)/square" stack_frame_id=1093}
  %reduce_sum.6634 = f32[] reduce(%square.1166, %constant.413), dimensions={0,1,2}, to_apply=%region_738.770, metadata={op_name="jit(train_step)/reduce_sum" stack_frame_id=586}
  %add.3142 = f32[] add(%add.3141, %reduce_sum.6634), metadata={op_name="jit(train_step)/add" stack_frame_id=1094}
  %square.1167 = f32[262144,2560]{1,0} multiply(%add_any.363, %add_any.363), metadata={op_name="jit(train_step)/square" stack_frame_id=1093}
  %reduce_sum.6635 = f32[] reduce(%square.1167, %constant.413), dimensions={0,1}, to_apply=%region_739.771, metadata={op_name="jit(train_step)/reduce_sum" stack_frame_id=586}
  %add.3143 = f32[] add(%add.3142, %reduce_sum.6635), metadata={op_name="jit(train_step)/add" stack_frame_id=1094}
  %sqrt.270 = f32[] sqrt(%add.3143), metadata={op_name="jit(train_step)/sqrt" stack_frame_id=1095}
  %reshape.1239 = f32[] reshape(%sqrt.270)
  %reshape.1240 = s32[] reshape(%reduce_sum.6141)
  %sharding_constraint.632 = f32[96,2048]{1,0} custom-call(%mul.4010), custom_call_target="Sharding", sharding={devices=[8,1]<=[8]}, frontend_attributes={xla.sdy.sharding="#sdy.sharding_per_value<[<@mesh, [{\"fsdp\"}, {}]>]>"}, metadata={op_name="jit(train_step)/jvp()/sharding_constraint" stack_frame_id=1098}
  %ne.4 = pred[96,2048]{1,0} compare(%data__targets_segmentation__.1, %broadcast.315), direction=NE, metadata={op_name="jit(train_step)/jvp()/ne" stack_frame_id=1099}
  %convert_element_type.1743 = f32[96,2048]{1,0} convert(%ne.4), metadata={op_name="jit(train_step)/jvp()/convert_element_type" stack_frame_id=1100}
  %mul.4012 = f32[96,2048]{1,0} multiply(%sharding_constraint.632, %convert_element_type.1743), metadata={op_name="jit(train_step)/jvp()/mul" stack_frame_id=1100}
  %reduce_sum.6140 = f32[] reduce(%mul.4012, %constant.413), dimensions={0,1}, to_apply=%region_87.103, metadata={op_name="jit(train_step)/jvp()/reduce_sum" stack_frame_id=275}
  %convert_element_type.1746 = f32[] convert(%reduce_sum.6141), metadata={op_name="jit(train_step)/jvp()/convert_element_type" stack_frame_id=1101}
  %add.2038 = f32[] add(%convert_element_type.1746, %constant.407), metadata={op_name="jit(train_step)/jvp()/add" stack_frame_id=1101}
  %div.2165 = f32[] divide(%reduce_sum.6140, %add.2038), metadata={op_name="jit(train_step)/jvp()/div" stack_frame_id=1102}
  %reshape.1241 = f32[] reshape(%div.2165)
  ROOT %tuple.15 = (s32[], f32[2560]{0}, f32[2560,5,10240]{2,1,0}, f32[2560,5,10240]{2,1,0}, f32[10240,5,2560]{2,1,0}, /*index=5*/f32[2560,5]{1,0}, f32[2560,5]{1,0}, f32[2560,5]{1,0}, f32[2560,5]{1,0}, f32[2560,5,4,256]{3,2,1,0}, /*index=10*/f32[256,5]{1,0}, f32[8,5,256,2560]{3,2,1,0}, f32[2560,5,8,256]{3,2,1,0}, f32[256,5]{1,0}, f32[2560,5,4,256]{3,2,1,0}, /*index=15*/f32[2560,5,10240]{2,1,0}, f32[2560,5,10240]{2,1,0}, f32[10240,5,2560]{2,1,0}, f32[2560,5]{1,0}, f32[2560,5]{1,0}, /*index=20*/f32[2560,5]{1,0}, f32[2560,5]{1,0}, f32[2560,5,4,256]{3,2,1,0}, f32[256,5]{1,0}, f32[8,5,256,2560]{3,2,1,0}, /*index=25*/f32[2560,5,8,256]{3,2,1,0}, f32[256,5]{1,0}, f32[2560,5,4,256]{3,2,1,0}, f32[2560,5,10240]{2,1,0}, f32[2560,5,10240]{2,1,0}, /*index=30*/f32[10240,5,2560]{2,1,0}, f32[2560,5]{1,0}, f32[2560,5]{1,0}, f32[2560,5]{1,0}, f32[2560,5]{1,0}, /*index=35*/f32[2560,5,4,256]{3,2,1,0}, f32[256,5]{1,0}, f32[8,5,256,2560]{3,2,1,0}, f32[2560,5,8,256]{3,2,1,0}, f32[256,5]{1,0}, /*index=40*/f32[2560,5,4,256]{3,2,1,0}, f32[2560,5,10240]{2,1,0}, f32[2560,5,10240]{2,1,0}, f32[10240,5,2560]{2,1,0}, f32[2560,5]{1,0}, /*index=45*/f32[2560,5]{1,0}, f32[2560,5]{1,0}, f32[2560,5]{1,0}, f32[2560,5,4,256]{3,2,1,0}, f32[256,5]{1,0}, /*index=50*/f32[8,5,256,2560]{3,2,1,0}, f32[2560,5,8,256]{3,2,1,0}, f32[256,5]{1,0}, f32[2560,5,4,256]{3,2,1,0}, f32[2560,5,10240]{2,1,0}, /*index=55*/f32[2560,5,10240]{2,1,0}, f32[10240,5,2560]{2,1,0}, f32[2560,5]{1,0}, f32[2560,5]{1,0}, f32[2560,5]{1,0}, /*index=60*/f32[2560,5]{1,0}, f32[2560,5,4,256]{3,2,1,0}, f32[256,5]{1,0}, f32[8,5,256,2560]{3,2,1,0}, f32[2560,5,8,256]{3,2,1,0}, /*index=65*/f32[256,5]{1,0}, f32[2560,5,4,256]{3,2,1,0}, f32[2560,5,10240]{2,1,0}, f32[2560,5,10240]{2,1,0}, f32[10240,5,2560]{2,1,0}, /*index=70*/f32[2560,5]{1,0}, f32[2560,5]{1,0}, f32[2560,5]{1,0}, f32[2560,5]{1,0}, f32[2560,5,4,256]{3,2,1,0}, /*index=75*/f32[256,5]{1,0}, f32[8,5,256,2560]{3,2,1,0}, f32[2560,5,8,256]{3,2,1,0}, f32[256,5]{1,0}, f32[2560,5,4,256]{3,2,1,0}, /*index=80*/f32[2560,10240]{1,0}, f32[2560,10240]{1,0}, f32[10240,2560]{1,0}, f32[2560]{0}, f32[2560]{0}, /*index=85*/f32[2560]{0}, f32[2560]{0}, f32[2560,4,256]{2,1,0}, f32[256]{0}, f32[8,256,2560]{2,1,0}, /*index=90*/f32[2560,8,256]{2,1,0}, f32[256]{0}, f32[2560,4,256]{2,1,0}, f32[2560,10240]{1,0}, f32[2560,10240]{1,0}, /*index=95*/f32[10240,2560]{1,0}, f32[2560]{0}, f32[2560]{0}, f32[2560]{0}, f32[2560]{0}, /*index=100*/f32[2560,4,256]{2,1,0}, f32[256]{0}, f32[8,256,2560]{2,1,0}, f32[2560,8,256]{2,1,0}, f32[256]{0}, /*index=105*/f32[2560,4,256]{2,1,0}, f32[2560,10240]{1,0}, f32[2560,10240]{1,0}, f32[10240,2560]{1,0}, f32[2560]{0}, /*index=110*/f32[2560]{0}, f32[2560]{0}, f32[2560]{0}, f32[2560,4,256]{2,1,0}, f32[256]{0}, /*index=115*/f32[8,256,2560]{2,1,0}, f32[2560,8,256]{2,1,0}, f32[256]{0}, f32[2560,4,256]{2,1,0}, f32[2560,10240]{1,0}, /*index=120*/f32[2560,10240]{1,0}, f32[10240,2560]{1,0}, f32[2560]{0}, f32[2560]{0}, f32[2560]{0}, /*index=125*/f32[2560]{0}, f32[2560,4,256]{2,1,0}, f32[256]{0}, f32[8,256,2560]{2,1,0}, f32[2560,8,256]{2,1,0}, /*index=130*/f32[256]{0}, f32[2560,4,256]{2,1,0}, f32[262144,2560]{1,0}, s32[], f32[2560]{0}, /*index=135*/f32[2560,5,10240]{2,1,0}, f32[2560,5,10240]{2,1,0}, f32[10240,5,2560]{2,1,0}, f32[2560,5]{1,0}, f32[2560,5]{1,0}, /*index=140*/f32[2560,5]{1,0}, f32[2560,5]{1,0}, f32[2560,5,4,256]{3,2,1,0}, f32[256,5]{1,0}, f32[8,5,256,2560]{3,2,1,0}, /*index=145*/f32[2560,5,8,256]{3,2,1,0}, f32[256,5]{1,0}, f32[2560,5,4,256]{3,2,1,0}, f32[2560,5,10240]{2,1,0}, f32[2560,5,10240]{2,1,0}, /*index=150*/f32[10240,5,2560]{2,1,0}, f32[2560,5]{1,0}, f32[2560,5]{1,0}, f32[2560,5]{1,0}, f32[2560,5]{1,0}, /*index=155*/f32[2560,5,4,256]{3,2,1,0}, f32[256,5]{1,0}, f32[8,5,256,2560]{3,2,1,0}, f32[2560,5,8,256]{3,2,1,0}, f32[256,5]{1,0}, /*index=160*/f32[2560,5,4,256]{3,2,1,0}, f32[2560,5,10240]{2,1,0}, f32[2560,5,10240]{2,1,0}, f32[10240,5,2560]{2,1,0}, f32[2560,5]{1,0}, /*index=165*/f32[2560,5]{1,0}, f32[2560,5]{1,0}, f32[2560,5]{1,0}, f32[2560,5,4,256]{3,2,1,0}, f32[256,5]{1,0}, /*index=170*/f32[8,5,256,2560]{3,2,1,0}, f32[2560,5,8,256]{3,2,1,0}, f32[256,5]{1,0}, f32[2560,5,4,256]{3,2,1,0}, f32[2560,5,10240]{2,1,0}, /*index=175*/f32[2560,5,10240]{2,1,0}, f32[10240,5,2560]{2,1,0}, f32[2560,5]{1,0}, f32[2560,5]{1,0}, f32[2560,5]{1,0}, /*index=180*/f32[2560,5]{1,0}, f32[2560,5,4,256]{3,2,1,0}, f32[256,5]{1,0}, f32[8,5,256,2560]{3,2,1,0}, f32[2560,5,8,256]{3,2,1,0}, /*index=185*/f32[256,5]{1,0}, f32[2560,5,4,256]{3,2,1,0}, f32[2560,5,10240]{2,1,0}, f32[2560,5,10240]{2,1,0}, f32[10240,5,2560]{2,1,0}, /*index=190*/f32[2560,5]{1,0}, f32[2560,5]{1,0}, f32[2560,5]{1,0}, f32[2560,5]{1,0}, f32[2560,5,4,256]{3,2,1,0}, /*index=195*/f32[256,5]{1,0}, f32[8,5,256,2560]{3,2,1,0}, f32[2560,5,8,256]{3,2,1,0}, f32[256,5]{1,0}, f32[2560,5,4,256]{3,2,1,0}, /*index=200*/f32[2560,5,10240]{2,1,0}, f32[2560,5,10240]{2,1,0}, f32[10240,5,2560]{2,1,0}, f32[2560,5]{1,0}, f32[2560,5]{1,0}, /*index=205*/f32[2560,5]{1,0}, f32[2560,5]{1,0}, f32[2560,5,4,256]{3,2,1,0}, f32[256,5]{1,0}, f32[8,5,256,2560]{3,2,1,0}, /*index=210*/f32[2560,5,8,256]{3,2,1,0}, f32[256,5]{1,0}, f32[2560,5,4,256]{3,2,1,0}, f32[2560,10240]{1,0}, f32[2560,10240]{1,0}, /*index=215*/f32[10240,2560]{1,0}, f32[2560]{0}, f32[2560]{0}, f32[2560]{0}, f32[2560]{0}, /*index=220*/f32[2560,4,256]{2,1,0}, f32[256]{0}, f32[8,256,2560]{2,1,0}, f32[2560,8,256]{2,1,0}, f32[256]{0}, /*index=225*/f32[2560,4,256]{2,1,0}, f32[2560,10240]{1,0}, f32[2560,10240]{1,0}, f32[10240,2560]{1,0}, f32[2560]{0}, /*index=230*/f32[2560]{0}, f32[2560]{0}, f32[2560]{0}, f32[2560,4,256]{2,1,0}, f32[256]{0}, /*index=235*/f32[8,256,2560]{2,1,0}, f32[2560,8,256]{2,1,0}, f32[256]{0}, f32[2560,4,256]{2,1,0}, f32[2560,10240]{1,0}, /*index=240*/f32[2560,10240]{1,0}, f32[10240,2560]{1,0}, f32[2560]{0}, f32[2560]{0}, f32[2560]{0}, /*index=245*/f32[2560]{0}, f32[2560,4,256]{2,1,0}, f32[256]{0}, f32[8,256,2560]{2,1,0}, f32[2560,8,256]{2,1,0}, /*index=250*/f32[256]{0}, f32[2560,4,256]{2,1,0}, f32[2560,10240]{1,0}, f32[2560,10240]{1,0}, f32[10240,2560]{1,0}, /*index=255*/f32[2560]{0}, f32[2560]{0}, f32[2560]{0}, f32[2560]{0}, f32[2560,4,256]{2,1,0}, /*index=260*/f32[256]{0}, f32[8,256,2560]{2,1,0}, f32[2560,8,256]{2,1,0}, f32[256]{0}, f32[2560,4,256]{2,1,0}, /*index=265*/f32[262144,2560]{1,0}, f32[2560]{0}, f32[2560,5,10240]{2,1,0}, f32[2560,5,10240]{2,1,0}, f32[10240,5,2560]{2,1,0}, /*index=270*/f32[2560,5]{1,0}, f32[2560,5]{1,0}, f32[2560,5]{1,0}, f32[2560,5]{1,0}, f32[2560,5,4,256]{3,2,1,0}, /*index=275*/f32[256,5]{1,0}, f32[8,5,256,2560]{3,2,1,0}, f32[2560,5,8,256]{3,2,1,0}, f32[256,5]{1,0}, f32[2560,5,4,256]{3,2,1,0}, /*index=280*/f32[2560,5,10240]{2,1,0}, f32[2560,5,10240]{2,1,0}, f32[10240,5,2560]{2,1,0}, f32[2560,5]{1,0}, f32[2560,5]{1,0}, /*index=285*/f32[2560,5]{1,0}, f32[2560,5]{1,0}, f32[2560,5,4,256]{3,2,1,0}, f32[256,5]{1,0}, f32[8,5,256,2560]{3,2,1,0}, /*index=290*/f32[2560,5,8,256]{3,2,1,0}, f32[256,5]{1,0}, f32[2560,5,4,256]{3,2,1,0}, f32[2560,5,10240]{2,1,0}, f32[2560,5,10240]{2,1,0}, /*index=295*/f32[10240,5,2560]{2,1,0}, f32[2560,5]{1,0}, f32[2560,5]{1,0}, f32[2560,5]{1,0}, f32[2560,5]{1,0}, /*index=300*/f32[2560,5,4,256]{3,2,1,0}, f32[256,5]{1,0}, f32[8,5,256,2560]{3,2,1,0}, f32[2560,5,8,256]{3,2,1,0}, f32[256,5]{1,0}, /*index=305*/f32[2560,5,4,256]{3,2,1,0}, f32[2560,5,10240]{2,1,0}, f32[2560,5,10240]{2,1,0}, f32[10240,5,2560]{2,1,0}, f32[2560,5]{1,0}, /*index=310*/f32[2560,5]{1,0}, f32[2560,5]{1,0}, f32[2560,5]{1,0}, f32[2560,5,4,256]{3,2,1,0}, f32[256,5]{1,0}, /*index=315*/f32[8,5,256,2560]{3,2,1,0}, f32[2560,5,8,256]{3,2,1,0}, f32[256,5]{1,0}, f32[2560,5,4,256]{3,2,1,0}, f32[2560,5,10240]{2,1,0}, /*index=320*/f32[2560,5,10240]{2,1,0}, f32[10240,5,2560]{2,1,0}, f32[2560,5]{1,0}, f32[2560,5]{1,0}, f32[2560,5]{1,0}, /*index=325*/f32[2560,5]{1,0}, f32[2560,5,4,256]{3,2,1,0}, f32[256,5]{1,0}, f32[8,5,256,2560]{3,2,1,0}, f32[2560,5,8,256]{3,2,1,0}, /*index=330*/f32[256,5]{1,0}, f32[2560,5,4,256]{3,2,1,0}, f32[2560,5,10240]{2,1,0}, f32[2560,5,10240]{2,1,0}, f32[10240,5,2560]{2,1,0}, /*index=335*/f32[2560,5]{1,0}, f32[2560,5]{1,0}, f32[2560,5]{1,0}, f32[2560,5]{1,0}, f32[2560,5,4,256]{3,2,1,0}, /*index=340*/f32[256,5]{1,0}, f32[8,5,256,2560]{3,2,1,0}, f32[2560,5,8,256]{3,2,1,0}, f32[256,5]{1,0}, f32[2560,5,4,256]{3,2,1,0}, /*index=345*/f32[2560,10240]{1,0}, f32[2560,10240]{1,0}, f32[10240,2560]{1,0}, f32[2560]{0}, f32[2560]{0}, /*index=350*/f32[2560]{0}, f32[2560]{0}, f32[2560,4,256]{2,1,0}, f32[256]{0}, f32[8,256,2560]{2,1,0}, /*index=355*/f32[2560,8,256]{2,1,0}, f32[256]{0}, f32[2560,4,256]{2,1,0}, f32[2560,10240]{1,0}, f32[2560,10240]{1,0}, /*index=360*/f32[10240,2560]{1,0}, f32[2560]{0}, f32[2560]{0}, f32[2560]{0}, f32[2560]{0}, /*index=365*/f32[2560,4,256]{2,1,0}, f32[256]{0}, f32[8,256,2560]{2,1,0}, f32[2560,8,256]{2,1,0}, f32[256]{0}, /*index=370*/f32[2560,4,256]{2,1,0}, f32[2560,10240]{1,0}, f32[2560,10240]{1,0}, f32[10240,2560]{1,0}, f32[2560]{0}, /*index=375*/f32[2560]{0}, f32[2560]{0}, f32[2560]{0}, f32[2560,4,256]{2,1,0}, f32[256]{0}, /*index=380*/f32[8,256,2560]{2,1,0}, f32[2560,8,256]{2,1,0}, f32[256]{0}, f32[2560,4,256]{2,1,0}, f32[2560,10240]{1,0}, /*index=385*/f32[2560,10240]{1,0}, f32[10240,2560]{1,0}, f32[2560]{0}, f32[2560]{0}, f32[2560]{0}, /*index=390*/f32[2560]{0}, f32[2560,4,256]{2,1,0}, f32[256]{0}, f32[8,256,2560]{2,1,0}, f32[2560,8,256]{2,1,0}, /*index=395*/f32[256]{0}, f32[2560,4,256]{2,1,0}, f32[262144,2560]{1,0}, s32[], f32[], /*index=400*/f32[], f32[], f32[], f32[], f32[], /*index=405*/f32[], f32[], f32[], s32[], f32[]) tuple(%add.3275, %add.3276, %add.3277, %add.3278, %add.3279, /*index=5*/%add.3280, %add.3281, %add.3282, %add.3283, %add.3284, /*index=10*/%add.3285, %add.3286, %add.3287, %add.3288, %add.3289, /*index=15*/%add.3290, %add.3291, %add.3292, %add.3293, %add.3294, /*index=20*/%add.3295, %add.3296, %add.3297, %add.3298, %add.3299, /*index=25*/%add.3300, %add.3301, %add.3302, %add.3303, %add.3304, /*index=30*/%add.3305, %add.3306, %add.3307, %add.3308, %add.3309, /*index=35*/%add.3310, %add.3311, %add.3312, %add.3313, %add.3314, /*index=40*/%add.3315, %add.3316, %add.3317, %add.3318, %add.3319, /*index=45*/%add.3320, %add.3321, %add.3322, %add.3323, %add.3324, /*index=50*/%add.3325, %add.3326, %add.3327, %add.3328, %add.3329, /*index=55*/%add.3330, %add.3331, %add.3332, %add.3333, %add.3334, /*index=60*/%add.3335, %add.3336, %add.3337, %add.3338, %add.3339, /*index=65*/%add.3340, %add.3341, %add.3342, %add.3343, %add.3344, /*index=70*/%add.3345, %add.3346, %add.3347, %add.3348, %add.3349, /*index=75*/%add.3350, %add.3351, %add.3352, %add.3353, %add.3354, /*index=80*/%add.3355, %add.3356, %add.3357, %add.3358, %add.3359, /*index=85*/%add.3360, %add.3361, %add.3362, %add.3363, %add.3364, /*index=90*/%add.3365, %add.3366, %add.3367, %add.3368, %add.3369, /*index=95*/%add.3370, %add.3371, %add.3372, %add.3373, %add.3374, /*index=100*/%add.3375, %add.3376, %add.3377, %add.3378, %add.3379, /*index=105*/%add.3380, %add.3381, %add.3382, %add.3383, %add.3384, /*index=110*/%add.3385, %add.3386, %add.3387, %add.3388, %add.3389, /*index=115*/%add.3390, %add.3391, %add.3392, %add.3393, %add.3394, /*index=120*/%add.3395, %add.3396, %add.3397, %add.3398, %add.3399, /*index=125*/%add.3400, %add.3401, %add.3402, %add.3403, %add.3404, /*index=130*/%add.3405, %add.3406, %add.3407, %jit__where_.182, %add.3408, /*index=135*/%add.3409, %add.3410, %add.3411, %add.3412, %add.3413, /*index=140*/%add.3414, %add.3415, %add.3416, %add.3417, %add.3418, /*index=145*/%add.3419, %add.3420, %add.3421, %add.3422, %add.3423, /*index=150*/%add.3424, %add.3425, %add.3426, %add.3427, %add.3428, /*index=155*/%add.3429, %add.3430, %add.3431, %add.3432, %add.3433, /*index=160*/%add.3434, %add.3435, %add.3436, %add.3437, %add.3438, /*index=165*/%add.3439, %add.3440, %add.3441, %add.3442, %add.3443, /*index=170*/%add.3444, %add.3445, %add.3446, %add.3447, %add.3448, /*index=175*/%add.3449, %add.3450, %add.3451, %add.3452, %add.3453, /*index=180*/%add.3454, %add.3455, %add.3456, %add.3457, %add.3458, /*index=185*/%add.3459, %add.3460, %add.3461, %add.3462, %add.3463, /*index=190*/%add.3464, %add.3465, %add.3466, %add.3467, %add.3468, /*index=195*/%add.3469, %add.3470, %add.3471, %add.3472, %add.3473, /*index=200*/%add.3474, %add.3475, %add.3476, %add.3477, %add.3478, /*index=205*/%add.3479, %add.3480, %add.3481, %add.3482, %add.3483, /*index=210*/%add.3484, %add.3485, %add.3486, %add.3487, %add.3488, /*index=215*/%add.3489, %add.3490, %add.3491, %add.3492, %add.3493, /*index=220*/%add.3494, %add.3495, %add.3496, %add.3497, %add.3498, /*index=225*/%add.3499, %add.3500, %add.3501, %add.3502, %add.3503, /*index=230*/%add.3504, %add.3505, %add.3506, %add.3507, %add.3508, /*index=235*/%add.3509, %add.3510, %add.3511, %add.3512, %add.3513, /*index=240*/%add.3514, %add.3515, %add.3516, %add.3517, %add.3518, /*index=245*/%add.3519, %add.3520, %add.3521, %add.3522, %add.3523, /*index=250*/%add.3524, %add.3525, %add.3526, %add.3527, %add.3528, /*index=255*/%add.3529, %add.3530, %add.3531, %add.3532, %add.3533, /*index=260*/%add.3534, %add.3535, %add.3536, %add.3537, %add.3538, /*index=265*/%add.3539, %add.3540, %add.3541, %add.3542, %add.3543, /*index=270*/%add.3544, %add.3545, %add.3546, %add.3547, %add.3548, /*index=275*/%add.3549, %add.3550, %add.3551, %add.3552, %add.3553, /*index=280*/%add.3554, %add.3555, %add.3556, %add.3557, %add.3558, /*index=285*/%add.3559, %add.3560, %add.3561, %add.3562, %add.3563, /*index=290*/%add.3564, %add.3565, %add.3566, %add.3567, %add.3568, /*index=295*/%add.3569, %add.3570, %add.3571, %add.3572, %add.3573, /*index=300*/%add.3574, %add.3575, %add.3576, %add.3577, %add.3578, /*index=305*/%add.3579, %add.3580, %add.3581, %add.3582, %add.3583, /*index=310*/%add.3584, %add.3585, %add.3586, %add.3587, %add.3588, /*index=315*/%add.3589, %add.3590, %add.3591, %add.3592, %add.3593, /*index=320*/%add.3594, %add.3595, %add.3596, %add.3597, %add.3598, /*index=325*/%add.3599, %add.3600, %add.3601, %add.3602, %add.3603, /*index=330*/%add.3604, %add.3605, %add.3606, %add.3607, %add.3608, /*index=335*/%add.3609, %add.3610, %add.3611, %add.3612, %add.3613, /*index=340*/%add.3614, %add.3615, %add.3616, %add.3617, %add.3618, /*index=345*/%add.3619, %add.3620, %add.3621, %add.3622, %add.3623, /*index=350*/%add.3624, %add.3625, %add.3626, %add.3627, %add.3628, /*index=355*/%add.3629, %add.3630, %add.3631, %add.3632, %add.3633, /*index=360*/%add.3634, %add.3635, %add.3636, %add.3637, %add.3638, /*index=365*/%add.3639, %add.3640, %add.3641, %add.3642, %add.3643, /*index=370*/%add.3644, %add.3645, %add.3646, %add.3647, %add.3648, /*index=375*/%add.3649, %add.3650, %add.3651, %add.3652, %add.3653, /*index=380*/%add.3654, %add.3655, %add.3656, %add.3657, %add.3658, /*index=385*/%add.3659, %add.3660, %add.3661, %add.3662, %add.3663, /*index=390*/%add.3664, %add.3665, %add.3666, %add.3667, %add.3668, /*index=395*/%add.3669, %add.3670, %add.3671, %jit__where_.183, %sqrt.269, /*index=400*/%constant.413, %div.3273, %div.2164, %constant.413, %constant.413, /*index=405*/%sqrt.271, %exp.43, %sqrt.270, %reduce_sum.6141, %div.2165), sharding={{replicated}, {replicated}, {devices=[8,1,1]<=[8]}, {devices=[8,1,1]<=[8]}, {devices=[1,1,8]<=[8]}, /*index=5*/{replicated}, {replicated}, {replicated}, {replicated}, {devices=[8,1,1,1]<=[8]}, /*index=10*/{replicated}, {devices=[1,1,1,8]<=[8]}, {devices=[8,1,1,1]<=[8]}, {replicated}, {devices=[8,1,1,1]<=[8]}, /*index=15*/{devices=[8,1,1]<=[8]}, {devices=[8,1,1]<=[8]}, {devices=[1,1,8]<=[8]}, {replicated}, {replicated}, /*index=20*/{replicated}, {replicated}, {devices=[8,1,1,1]<=[8]}, {replicated}, {devices=[1,1,1,8]<=[8]}, /*index=25*/{devices=[8,1,1,1]<=[8]}, {replicated}, {devices=[8,1,1,1]<=[8]}, {devices=[8,1,1]<=[8]}, {devices=[8,1,1]<=[8]}, /*index=30*/{devices=[1,1,8]<=[8]}, {replicated}, {replicated}, {replicated}, {replicated}, /*index=35*/{devices=[8,1,1,1]<=[8]}, {replicated}, {devices=[1,1,1,8]<=[8]}, {devices=[8,1,1,1]<=[8]}, {replicated}, /*index=40*/{devices=[8,1,1,1]<=[8]}, {devices=[8,1,1]<=[8]}, {devices=[8,1,1]<=[8]}, {devices=[1,1,8]<=[8]}, {replicated}, /*index=45*/{replicated}, {replicated}, {replicated}, {devices=[8,1,1,1]<=[8]}, {replicated}, /*index=50*/{devices=[1,1,1,8]<=[8]}, {devices=[8,1,1,1]<=[8]}, {replicated}, {devices=[8,1,1,1]<=[8]}, {devices=[8,1,1]<=[8]}, /*index=55*/{devices=[8,1,1]<=[8]}, {devices=[1,1,8]<=[8]}, {replicated}, {replicated}, {replicated}, /*index=60*/{replicated}, {devices=[8,1,1,1]<=[8]}, {replicated}, {devices=[1,1,1,8]<=[8]}, {devices=[8,1,1,1]<=[8]}, /*index=65*/{replicated}, {devices=[8,1,1,1]<=[8]}, {devices=[8,1,1]<=[8]}, {devices=[8,1,1]<=[8]}, {devices=[1,1,8]<=[8]}, /*index=70*/{replicated}, {replicated}, {replicated}, {replicated}, {devices=[8,1,1,1]<=[8]}, /*index=75*/{replicated}, {devices=[1,1,1,8]<=[8]}, {devices=[8,1,1,1]<=[8]}, {replicated}, {devices=[8,1,1,1]<=[8]}, /*index=80*/{devices=[8,1]<=[8]}, {devices=[8,1]<=[8]}, {devices=[1,8]<=[8]}, {replicated}, {replicated}, /*index=85*/{replicated}, {replicated}, {devices=[8,1,1]<=[8]}, {replicated}, {devices=[1,1,8]<=[8]}, /*index=90*/{devices=[8,1,1]<=[8]}, {replicated}, {devices=[8,1,1]<=[8]}, {devices=[8,1]<=[8]}, {devices=[8,1]<=[8]}, /*index=95*/{devices=[1,8]<=[8]}, {replicated}, {replicated}, {replicated}, {replicated}, /*index=100*/{devices=[8,1,1]<=[8]}, {replicated}, {devices=[1,1,8]<=[8]}, {devices=[8,1,1]<=[8]}, {replicated}, /*index=105*/{devices=[8,1,1]<=[8]}, {devices=[8,1]<=[8]}, {devices=[8,1]<=[8]}, {devices=[1,8]<=[8]}, {replicated}, /*index=110*/{replicated}, {replicated}, {replicated}, {devices=[8,1,1]<=[8]}, {replicated}, /*index=115*/{devices=[1,1,8]<=[8]}, {devices=[8,1,1]<=[8]}, {replicated}, {devices=[8,1,1]<=[8]}, {devices=[8,1]<=[8]}, /*index=120*/{devices=[8,1]<=[8]}, {devices=[1,8]<=[8]}, {replicated}, {replicated}, {replicated}, /*index=125*/{replicated}, {devices=[8,1,1]<=[8]}, {replicated}, {devices=[1,1,8]<=[8]}, {devices=[8,1,1]<=[8]}, /*index=130*/{replicated}, {devices=[8,1,1]<=[8]}, {devices=[1,8]<=[8]}, {replicated}, {replicated}, /*index=135*/{devices=[8,1,1]<=[8]}, {devices=[8,1,1]<=[8]}, {devices=[1,1,8]<=[8]}, {replicated}, {replicated}, /*index=140*/{replicated}, {replicated}, {devices=[8,1,1,1]<=[8]}, {replicated}, {devices=[1,1,1,8]<=[8]}, /*index=145*/{devices=[8,1,1,1]<=[8]}, {replicated}, {devices=[8,1,1,1]<=[8]}, {devices=[8,1,1]<=[8]}, {devices=[8,1,1]<=[8]}, /*index=150*/{devices=[1,1,8]<=[8]}, {replicated}, {replicated}, {replicated}, {replicated}, /*index=155*/{devices=[8,1,1,1]<=[8]}, {replicated}, {devices=[1,1,1,8]<=[8]}, {devices=[8,1,1,1]<=[8]}, {replicated}, /*index=160*/{devices=[8,1,1,1]<=[8]}, {devices=[8,1,1]<=[8]}, {devices=[8,1,1]<=[8]}, {devices=[1,1,8]<=[8]}, {replicated}, /*index=165*/{replicated}, {replicated}, {replicated}, {devices=[8,1,1,1]<=[8]}, {replicated}, /*index=170*/{devices=[1,1,1,8]<=[8]}, {devices=[8,1,1,1]<=[8]}, {replicated}, {devices=[8,1,1,1]<=[8]}, {devices=[8,1,1]<=[8]}, /*index=175*/{devices=[8,1,1]<=[8]}, {devices=[1,1,8]<=[8]}, {replicated}, {replicated}, {replicated}, /*index=180*/{replicated}, {devices=[8,1,1,1]<=[8]}, {replicated}, {devices=[1,1,1,8]<=[8]}, {devices=[8,1,1,1]<=[8]}, /*index=185*/{replicated}, {devices=[8,1,1,1]<=[8]}, {devices=[8,1,1]<=[8]}, {devices=[8,1,1]<=[8]}, {devices=[1,1,8]<=[8]}, /*index=190*/{replicated}, {replicated}, {replicated}, {replicated}, {devices=[8,1,1,1]<=[8]}, /*index=195*/{replicated}, {devices=[1,1,1,8]<=[8]}, {devices=[8,1,1,1]<=[8]}, {replicated}, {devices=[8,1,1,1]<=[8]}, /*index=200*/{devices=[8,1,1]<=[8]}, {devices=[8,1,1]<=[8]}, {devices=[1,1,8]<=[8]}, {replicated}, {replicated}, /*index=205*/{replicated}, {replicated}, {devices=[8,1,1,1]<=[8]}, {replicated}, {devices=[1,1,1,8]<=[8]}, /*index=210*/{devices=[8,1,1,1]<=[8]}, {replicated}, {devices=[8,1,1,1]<=[8]}, {devices=[8,1]<=[8]}, {devices=[8,1]<=[8]}, /*index=215*/{devices=[1,8]<=[8]}, {replicated}, {replicated}, {replicated}, {replicated}, /*index=220*/{devices=[8,1,1]<=[8]}, {replicated}, {devices=[1,1,8]<=[8]}, {devices=[8,1,1]<=[8]}, {replicated}, /*index=225*/{devices=[8,1,1]<=[8]}, {devices=[8,1]<=[8]}, {devices=[8,1]<=[8]}, {devices=[1,8]<=[8]}, {replicated}, /*index=230*/{replicated}, {replicated}, {replicated}, {devices=[8,1,1]<=[8]}, {replicated}, /*index=235*/{devices=[1,1,8]<=[8]}, {devices=[8,1,1]<=[8]}, {replicated}, {devices=[8,1,1]<=[8]}, {devices=[8,1]<=[8]}, /*index=240*/{devices=[8,1]<=[8]}, {devices=[1,8]<=[8]}, {replicated}, {replicated}, {replicated}, /*index=245*/{replicated}, {devices=[8,1,1]<=[8]}, {replicated}, {devices=[1,1,8]<=[8]}, {devices=[8,1,1]<=[8]}, /*index=250*/{replicated}, {devices=[8,1,1]<=[8]}, {devices=[8,1]<=[8]}, {devices=[8,1]<=[8]}, {devices=[1,8]<=[8]}, /*index=255*/{replicated}, {replicated}, {replicated}, {replicated}, {devices=[8,1,1]<=[8]}, /*index=260*/{replicated}, {devices=[1,1,8]<=[8]}, {devices=[8,1,1]<=[8]}, {replicated}, {devices=[8,1,1]<=[8]}, /*index=265*/{devices=[1,8]<=[8]}, {replicated}, {devices=[8,1,1]<=[8]}, {devices=[8,1,1]<=[8]}, {devices=[1,1,8]<=[8]}, /*index=270*/{replicated}, {replicated}, {replicated}, {replicated}, {devices=[8,1,1,1]<=[8]}, /*index=275*/{replicated}, {devices=[1,1,1,8]<=[8]}, {devices=[8,1,1,1]<=[8]}, {replicated}, {devices=[8,1,1,1]<=[8]}, /*index=280*/{devices=[8,1,1]<=[8]}, {devices=[8,1,1]<=[8]}, {devices=[1,1,8]<=[8]}, {replicated}, {replicated}, /*index=285*/{replicated}, {replicated}, {devices=[8,1,1,1]<=[8]}, {replicated}, {devices=[1,1,1,8]<=[8]}, /*index=290*/{devices=[8,1,1,1]<=[8]}, {replicated}, {devices=[8,1,1,1]<=[8]}, {devices=[8,1,1]<=[8]}, {devices=[8,1,1]<=[8]}, /*index=295*/{devices=[1,1,8]<=[8]}, {replicated}, {replicated}, {replicated}, {replicated}, /*index=300*/{devices=[8,1,1,1]<=[8]}, {replicated}, {devices=[1,1,1,8]<=[8]}, {devices=[8,1,1,1]<=[8]}, {replicated}, /*index=305*/{devices=[8,1,1,1]<=[8]}, {devices=[8,1,1]<=[8]}, {devices=[8,1,1]<=[8]}, {devices=[1,1,8]<=[8]}, {replicated}, /*index=310*/{replicated}, {replicated}, {replicated}, {devices=[8,1,1,1]<=[8]}, {replicated}, /*index=315*/{devices=[1,1,1,8]<=[8]}, {devices=[8,1,1,1]<=[8]}, {replicated}, {devices=[8,1,1,1]<=[8]}, {devices=[8,1,1]<=[8]}, /*index=320*/{devices=[8,1,1]<=[8]}, {devices=[1,1,8]<=[8]}, {replicated}, {replicated}, {replicated}, /*index=325*/{replicated}, {devices=[8,1,1,1]<=[8]}, {replicated}, {devices=[1,1,1,8]<=[8]}, {devices=[8,1,1,1]<=[8]}, /*index=330*/{replicated}, {devices=[8,1,1,1]<=[8]}, {devices=[8,1,1]<=[8]}, {devices=[8,1,1]<=[8]}, {devices=[1,1,8]<=[8]}, /*index=335*/{replicated}, {replicated}, {replicated}, {replicated}, {devices=[8,1,1,1]<=[8]}, /*index=340*/{replicated}, {devices=[1,1,1,8]<=[8]}, {devices=[8,1,1,1]<=[8]}, {replicated}, {devices=[8,1,1,1]<=[8]}, /*index=345*/{devices=[8,1]<=[8]}, {devices=[8,1]<=[8]}, {devices=[1,8]<=[8]}, {replicated}, {replicated}, /*index=350*/{replicated}, {replicated}, {devices=[8,1,1]<=[8]}, {replicated}, {devices=[1,1,8]<=[8]}, /*index=355*/{devices=[8,1,1]<=[8]}, {replicated}, {devices=[8,1,1]<=[8]}, {devices=[8,1]<=[8]}, {devices=[8,1]<=[8]}, /*index=360*/{devices=[1,8]<=[8]}, {replicated}, {replicated}, {replicated}, {replicated}, /*index=365*/{devices=[8,1,1]<=[8]}, {replicated}, {devices=[1,1,8]<=[8]}, {devices=[8,1,1]<=[8]}, {replicated}, /*index=370*/{devices=[8,1,1]<=[8]}, {devices=[8,1]<=[8]}, {devices=[8,1]<=[8]}, {devices=[1,8]<=[8]}, {replicated}, /*index=375*/{replicated}, {replicated}, {replicated}, {devices=[8,1,1]<=[8]}, {replicated}, /*index=380*/{devices=[1,1,8]<=[8]}, {devices=[8,1,1]<=[8]}, {replicated}, {devices=[8,1,1]<=[8]}, {devices=[8,1]<=[8]}, /*index=385*/{devices=[8,1]<=[8]}, {devices=[1,8]<=[8]}, {replicated}, {replicated}, {replicated}, /*index=390*/{replicated}, {devices=[8,1,1]<=[8]}, {replicated}, {devices=[1,1,8]<=[8]}, {devices=[8,1,1]<=[8]}, /*index=395*/{replicated}, {devices=[8,1,1]<=[8]}, {devices=[1,8]<=[8]}, {replicated}, {replicated}, /*index=400*/{replicated}, {replicated}, {replicated}, {replicated}, {replicated}, /*index=405*/{replicated}, {replicated}, {replicated}, {replicated}, {replicated}}
}

