HloModule jit_predict_step, entry_computation_layout={(bf16[320]{0}, bf16[3,3,4,320]{3,2,1,0}, bf16[320]{0}, bf16[320]{0}, bf16[4]{0}, /*index=5*/bf16[3,3,320,4]{3,2,1,0}, bf16[320]{0}, bf16[320]{0}, bf16[320]{0}, bf16[1,1,320,320]{3,2,1,0}, /*index=10*/bf16[320]{0}, bf16[1,1,320,320]{3,2,1,0}, bf16[320,320]{1,0}, bf16[320]{0}, bf16[320,320]{1,0}, /*index=15*/bf16[320,320]{1,0}, bf16[320,320]{1,0}, bf16[768,320]{1,0}, bf16[320]{0}, bf16[320,320]{1,0}, /*index=20*/bf16[320,320]{1,0}, bf16[768,320]{1,0}, bf16[2560]{0}, bf16[320,2560]{1,0}, bf16[320]{0}, /*index=25*/bf16[1280,320]{1,0}, bf16[320]{0}, bf16[320]{0}, bf16[320]{0}, bf16[320]{0}, /*index=30*/bf16[320]{0}, bf16[320]{0}, bf16[320]{0}, bf16[320]{0}, bf16[320]{0}, /*index=35*/bf16[1,1,320,320]{3,2,1,0}, bf16[320]{0}, bf16[1,1,320,320]{3,2,1,0}, bf16[320,320]{1,0}, bf16[320]{0}, /*index=40*/bf16[320,320]{1,0}, bf16[320,320]{1,0}, bf16[320,320]{1,0}, bf16[768,320]{1,0}, bf16[320]{0}, /*index=45*/bf16[320,320]{1,0}, bf16[320,320]{1,0}, bf16[768,320]{1,0}, bf16[2560]{0}, bf16[320,2560]{1,0}, /*index=50*/bf16[320]{0}, bf16[1280,320]{1,0}, bf16[320]{0}, bf16[320]{0}, bf16[320]{0}, /*index=55*/bf16[320]{0}, bf16[320]{0}, bf16[320]{0}, bf16[320]{0}, bf16[3,3,320,320]{3,2,1,0}, /*index=60*/bf16[320]{0}, bf16[3,3,320,320]{3,2,1,0}, bf16[320]{0}, bf16[3,3,320,320]{3,2,1,0}, bf16[320]{0}, /*index=65*/bf16[320]{0}, bf16[320]{0}, bf16[320]{0}, bf16[320]{0}, bf16[1280,320]{1,0}, /*index=70*/bf16[320]{0}, bf16[3,3,320,320]{3,2,1,0}, bf16[320]{0}, bf16[3,3,320,320]{3,2,1,0}, bf16[320]{0}, /*index=75*/bf16[320]{0}, bf16[320]{0}, bf16[320]{0}, bf16[320]{0}, bf16[1280,320]{1,0}, /*index=80*/bf16[640]{0}, bf16[640]{0}, bf16[640]{0}, bf16[1,1,640,640]{3,2,1,0}, bf16[640]{0}, /*index=85*/bf16[1,1,640,640]{3,2,1,0}, bf16[640,640]{1,0}, bf16[640]{0}, bf16[640,640]{1,0}, bf16[640,640]{1,0}, /*index=90*/bf16[640,640]{1,0}, bf16[768,640]{1,0}, bf16[640]{0}, bf16[640,640]{1,0}, bf16[640,640]{1,0}, /*index=95*/bf16[768,640]{1,0}, bf16[5120]{0}, bf16[640,5120]{1,0}, bf16[640]{0}, bf16[2560,640]{1,0}, /*index=100*/bf16[640]{0}, bf16[640]{0}, bf16[640]{0}, bf16[640]{0}, bf16[640]{0}, /*index=105*/bf16[640]{0}, bf16[640]{0}, bf16[640]{0}, bf16[640]{0}, bf16[1,1,640,640]{3,2,1,0}, /*index=110*/bf16[640]{0}, bf16[1,1,640,640]{3,2,1,0}, bf16[640,640]{1,0}, bf16[640]{0}, bf16[640,640]{1,0}, /*index=115*/bf16[640,640]{1,0}, bf16[640,640]{1,0}, bf16[768,640]{1,0}, bf16[640]{0}, bf16[640,640]{1,0}, /*index=120*/bf16[640,640]{1,0}, bf16[768,640]{1,0}, bf16[5120]{0}, bf16[640,5120]{1,0}, bf16[640]{0}, /*index=125*/bf16[2560,640]{1,0}, bf16[640]{0}, bf16[640]{0}, bf16[640]{0}, bf16[640]{0}, /*index=130*/bf16[640]{0}, bf16[640]{0}, bf16[640]{0}, bf16[3,3,640,640]{3,2,1,0}, bf16[640]{0}, /*index=135*/bf16[3,3,320,640]{3,2,1,0}, bf16[640]{0}, bf16[3,3,640,640]{3,2,1,0}, bf16[640]{0}, bf16[1,1,320,640]{3,2,1,0}, /*index=140*/bf16[320]{0}, bf16[320]{0}, bf16[640]{0}, bf16[640]{0}, bf16[640]{0}, /*index=145*/bf16[1280,640]{1,0}, bf16[640]{0}, bf16[3,3,640,640]{3,2,1,0}, bf16[640]{0}, bf16[3,3,640,640]{3,2,1,0}, /*index=150*/bf16[640]{0}, bf16[640]{0}, bf16[640]{0}, bf16[640]{0}, bf16[640]{0}, /*index=155*/bf16[1280,640]{1,0}, bf16[1280]{0}, bf16[1280]{0}, bf16[1280]{0}, bf16[1,1,1280,1280]{3,2,1,0}, /*index=160*/bf16[1280]{0}, bf16[1,1,1280,1280]{3,2,1,0}, bf16[1280,1280]{1,0}, bf16[1280]{0}, bf16[1280,1280]{1,0}, /*index=165*/bf16[1280,1280]{1,0}, bf16[1280,1280]{1,0}, bf16[768,1280]{1,0}, bf16[1280]{0}, bf16[1280,1280]{1,0}, /*index=170*/bf16[1280,1280]{1,0}, bf16[768,1280]{1,0}, bf16[10240]{0}, bf16[1280,10240]{1,0}, bf16[1280]{0}, /*index=175*/bf16[5120,1280]{1,0}, bf16[1280]{0}, bf16[1280]{0}, bf16[1280]{0}, bf16[1280]{0}, /*index=180*/bf16[1280]{0}, bf16[1280]{0}, bf16[1280]{0}, bf16[1280]{0}, bf16[1280]{0}, /*index=185*/bf16[1,1,1280,1280]{3,2,1,0}, bf16[1280]{0}, bf16[1,1,1280,1280]{3,2,1,0}, bf16[1280,1280]{1,0}, bf16[1280]{0}, /*index=190*/bf16[1280,1280]{1,0}, bf16[1280,1280]{1,0}, bf16[1280,1280]{1,0}, bf16[768,1280]{1,0}, bf16[1280]{0}, /*index=195*/bf16[1280,1280]{1,0}, bf16[1280,1280]{1,0}, bf16[768,1280]{1,0}, bf16[10240]{0}, bf16[1280,10240]{1,0}, /*index=200*/bf16[1280]{0}, bf16[5120,1280]{1,0}, bf16[1280]{0}, bf16[1280]{0}, bf16[1280]{0}, /*index=205*/bf16[1280]{0}, bf16[1280]{0}, bf16[1280]{0}, bf16[1280]{0}, bf16[3,3,1280,1280]{3,2,1,0}, /*index=210*/bf16[1280]{0}, bf16[3,3,640,1280]{3,2,1,0}, bf16[1280]{0}, bf16[3,3,1280,1280]{3,2,1,0}, bf16[1280]{0}, /*index=215*/bf16[1,1,640,1280]{3,2,1,0}, bf16[640]{0}, bf16[640]{0}, bf16[1280]{0}, bf16[1280]{0}, /*index=220*/bf16[1280]{0}, bf16[1280,1280]{1,0}, bf16[1280]{0}, bf16[3,3,1280,1280]{3,2,1,0}, bf16[1280]{0}, /*index=225*/bf16[3,3,1280,1280]{3,2,1,0}, bf16[1280]{0}, bf16[1280]{0}, bf16[1280]{0}, bf16[1280]{0}, /*index=230*/bf16[1280]{0}, bf16[1280,1280]{1,0}, bf16[1280]{0}, bf16[3,3,1280,1280]{3,2,1,0}, bf16[1280]{0}, /*index=235*/bf16[3,3,1280,1280]{3,2,1,0}, bf16[1280]{0}, bf16[1280]{0}, bf16[1280]{0}, bf16[1280]{0}, /*index=240*/bf16[1280]{0}, bf16[1280,1280]{1,0}, bf16[1280]{0}, bf16[3,3,1280,1280]{3,2,1,0}, bf16[1280]{0}, /*index=245*/bf16[3,3,1280,1280]{3,2,1,0}, bf16[1280]{0}, bf16[1280]{0}, bf16[1280]{0}, bf16[1280]{0}, /*index=250*/bf16[1280]{0}, bf16[1280,1280]{1,0}, bf16[1280]{0}, bf16[1280]{0}, bf16[1280]{0}, /*index=255*/bf16[1,1,1280,1280]{3,2,1,0}, bf16[1280]{0}, bf16[1,1,1280,1280]{3,2,1,0}, bf16[1280,1280]{1,0}, bf16[1280]{0}, /*index=260*/bf16[1280,1280]{1,0}, bf16[1280,1280]{1,0}, bf16[1280,1280]{1,0}, bf16[768,1280]{1,0}, bf16[1280]{0}, /*index=265*/bf16[1280,1280]{1,0}, bf16[1280,1280]{1,0}, bf16[768,1280]{1,0}, bf16[10240]{0}, bf16[1280,10240]{1,0}, /*index=270*/bf16[1280]{0}, bf16[5120,1280]{1,0}, bf16[1280]{0}, bf16[1280]{0}, bf16[1280]{0}, /*index=275*/bf16[1280]{0}, bf16[1280]{0}, bf16[1280]{0}, bf16[1280]{0}, bf16[3,3,1280,1280]{3,2,1,0}, /*index=280*/bf16[1280]{0}, bf16[3,3,1280,1280]{3,2,1,0}, bf16[1280]{0}, bf16[1280]{0}, bf16[1280]{0}, /*index=285*/bf16[1280]{0}, bf16[1280]{0}, bf16[1280,1280]{1,0}, bf16[1280]{0}, bf16[3,3,1280,1280]{3,2,1,0}, /*index=290*/bf16[1280]{0}, bf16[3,3,1280,1280]{3,2,1,0}, bf16[1280]{0}, bf16[1280]{0}, bf16[1280]{0}, /*index=295*/bf16[1280]{0}, bf16[1280]{0}, bf16[1280,1280]{1,0}, bf16[1280]{0}, bf16[320,1280]{1,0}, /*index=300*/bf16[1280]{0}, bf16[1280,1280]{1,0}, bf16[1280]{0}, bf16[3,3,2560,1280]{3,2,1,0}, bf16[1280]{0}, /*index=305*/bf16[3,3,1280,1280]{3,2,1,0}, bf16[1280]{0}, bf16[1,1,2560,1280]{3,2,1,0}, bf16[2560]{0}, bf16[2560]{0}, /*index=310*/bf16[1280]{0}, bf16[1280]{0}, bf16[1280]{0}, bf16[1280,1280]{1,0}, bf16[1280]{0}, /*index=315*/bf16[3,3,2560,1280]{3,2,1,0}, bf16[1280]{0}, bf16[3,3,1280,1280]{3,2,1,0}, bf16[1280]{0}, bf16[1,1,2560,1280]{3,2,1,0}, /*index=320*/bf16[2560]{0}, bf16[2560]{0}, bf16[1280]{0}, bf16[1280]{0}, bf16[1280]{0}, /*index=325*/bf16[1280,1280]{1,0}, bf16[1280]{0}, bf16[3,3,2560,1280]{3,2,1,0}, bf16[1280]{0}, bf16[3,3,1280,1280]{3,2,1,0}, /*index=330*/bf16[1280]{0}, bf16[1,1,2560,1280]{3,2,1,0}, bf16[2560]{0}, bf16[2560]{0}, bf16[1280]{0}, /*index=335*/bf16[1280]{0}, bf16[1280]{0}, bf16[1280,1280]{1,0}, bf16[1280]{0}, bf16[3,3,1280,1280]{3,2,1,0}, /*index=340*/bf16[1280]{0}, bf16[1280]{0}, bf16[1280]{0}, bf16[1,1,1280,1280]{3,2,1,0}, bf16[1280]{0}, /*index=345*/bf16[1,1,1280,1280]{3,2,1,0}, bf16[1280,1280]{1,0}, bf16[1280]{0}, bf16[1280,1280]{1,0}, bf16[1280,1280]{1,0}, /*index=350*/bf16[1280,1280]{1,0}, bf16[768,1280]{1,0}, bf16[1280]{0}, bf16[1280,1280]{1,0}, bf16[1280,1280]{1,0}, /*index=355*/bf16[768,1280]{1,0}, bf16[10240]{0}, bf16[1280,10240]{1,0}, bf16[1280]{0}, bf16[5120,1280]{1,0}, /*index=360*/bf16[1280]{0}, bf16[1280]{0}, bf16[1280]{0}, bf16[1280]{0}, bf16[1280]{0}, /*index=365*/bf16[1280]{0}, bf16[1280]{0}, bf16[1280]{0}, bf16[1280]{0}, bf16[1,1,1280,1280]{3,2,1,0}, /*index=370*/bf16[1280]{0}, bf16[1,1,1280,1280]{3,2,1,0}, bf16[1280,1280]{1,0}, bf16[1280]{0}, bf16[1280,1280]{1,0}, /*index=375*/bf16[1280,1280]{1,0}, bf16[1280,1280]{1,0}, bf16[768,1280]{1,0}, bf16[1280]{0}, bf16[1280,1280]{1,0}, /*index=380*/bf16[1280,1280]{1,0}, bf16[768,1280]{1,0}, bf16[10240]{0}, bf16[1280,10240]{1,0}, bf16[1280]{0}, /*index=385*/bf16[5120,1280]{1,0}, bf16[1280]{0}, bf16[1280]{0}, bf16[1280]{0}, bf16[1280]{0}, /*index=390*/bf16[1280]{0}, bf16[1280]{0}, bf16[1280]{0}, bf16[1280]{0}, bf16[1280]{0}, /*index=395*/bf16[1,1,1280,1280]{3,2,1,0}, bf16[1280]{0}, bf16[1,1,1280,1280]{3,2,1,0}, bf16[1280,1280]{1,0}, bf16[1280]{0}, /*index=400*/bf16[1280,1280]{1,0}, bf16[1280,1280]{1,0}, bf16[1280,1280]{1,0}, bf16[768,1280]{1,0}, bf16[1280]{0}, /*index=405*/bf16[1280,1280]{1,0}, bf16[1280,1280]{1,0}, bf16[768,1280]{1,0}, bf16[10240]{0}, bf16[1280,10240]{1,0}, /*index=410*/bf16[1280]{0}, bf16[5120,1280]{1,0}, bf16[1280]{0}, bf16[1280]{0}, bf16[1280]{0}, /*index=415*/bf16[1280]{0}, bf16[1280]{0}, bf16[1280]{0}, bf16[1280]{0}, bf16[3,3,2560,1280]{3,2,1,0}, /*index=420*/bf16[1280]{0}, bf16[3,3,1280,1280]{3,2,1,0}, bf16[1280]{0}, bf16[1,1,2560,1280]{3,2,1,0}, bf16[2560]{0}, /*index=425*/bf16[2560]{0}, bf16[1280]{0}, bf16[1280]{0}, bf16[1280]{0}, bf16[1280,1280]{1,0}, /*index=430*/bf16[1280]{0}, bf16[3,3,2560,1280]{3,2,1,0}, bf16[1280]{0}, bf16[3,3,1280,1280]{3,2,1,0}, bf16[1280]{0}, /*index=435*/bf16[1,1,2560,1280]{3,2,1,0}, bf16[2560]{0}, bf16[2560]{0}, bf16[1280]{0}, bf16[1280]{0}, /*index=440*/bf16[1280]{0}, bf16[1280,1280]{1,0}, bf16[1280]{0}, bf16[3,3,1920,1280]{3,2,1,0}, bf16[1280]{0}, /*index=445*/bf16[3,3,1280,1280]{3,2,1,0}, bf16[1280]{0}, bf16[1,1,1920,1280]{3,2,1,0}, bf16[1920]{0}, bf16[1920]{0}, /*index=450*/bf16[1280]{0}, bf16[1280]{0}, bf16[1280]{0}, bf16[1280,1280]{1,0}, bf16[1280]{0}, /*index=455*/bf16[3,3,1280,1280]{3,2,1,0}, bf16[640]{0}, bf16[640]{0}, bf16[640]{0}, bf16[1,1,640,640]{3,2,1,0}, /*index=460*/bf16[640]{0}, bf16[1,1,640,640]{3,2,1,0}, bf16[640,640]{1,0}, bf16[640]{0}, bf16[640,640]{1,0}, /*index=465*/bf16[640,640]{1,0}, bf16[640,640]{1,0}, bf16[768,640]{1,0}, bf16[640]{0}, bf16[640,640]{1,0}, /*index=470*/bf16[640,640]{1,0}, bf16[768,640]{1,0}, bf16[5120]{0}, bf16[640,5120]{1,0}, bf16[640]{0}, /*index=475*/bf16[2560,640]{1,0}, bf16[640]{0}, bf16[640]{0}, bf16[640]{0}, bf16[640]{0}, /*index=480*/bf16[640]{0}, bf16[640]{0}, bf16[640]{0}, bf16[640]{0}, bf16[640]{0}, /*index=485*/bf16[1,1,640,640]{3,2,1,0}, bf16[640]{0}, bf16[1,1,640,640]{3,2,1,0}, bf16[640,640]{1,0}, bf16[640]{0}, /*index=490*/bf16[640,640]{1,0}, bf16[640,640]{1,0}, bf16[640,640]{1,0}, bf16[768,640]{1,0}, bf16[640]{0}, /*index=495*/bf16[640,640]{1,0}, bf16[640,640]{1,0}, bf16[768,640]{1,0}, bf16[5120]{0}, bf16[640,5120]{1,0}, /*index=500*/bf16[640]{0}, bf16[2560,640]{1,0}, bf16[640]{0}, bf16[640]{0}, bf16[640]{0}, /*index=505*/bf16[640]{0}, bf16[640]{0}, bf16[640]{0}, bf16[640]{0}, bf16[640]{0}, /*index=510*/bf16[640]{0}, bf16[1,1,640,640]{3,2,1,0}, bf16[640]{0}, bf16[1,1,640,640]{3,2,1,0}, bf16[640,640]{1,0}, /*index=515*/bf16[640]{0}, bf16[640,640]{1,0}, bf16[640,640]{1,0}, bf16[640,640]{1,0}, bf16[768,640]{1,0}, /*index=520*/bf16[640]{0}, bf16[640,640]{1,0}, bf16[640,640]{1,0}, bf16[768,640]{1,0}, bf16[5120]{0}, /*index=525*/bf16[640,5120]{1,0}, bf16[640]{0}, bf16[2560,640]{1,0}, bf16[640]{0}, bf16[640]{0}, /*index=530*/bf16[640]{0}, bf16[640]{0}, bf16[640]{0}, bf16[640]{0}, bf16[640]{0}, /*index=535*/bf16[3,3,1920,640]{3,2,1,0}, bf16[640]{0}, bf16[3,3,640,640]{3,2,1,0}, bf16[640]{0}, bf16[1,1,1920,640]{3,2,1,0}, /*index=540*/bf16[1920]{0}, bf16[1920]{0}, bf16[640]{0}, bf16[640]{0}, bf16[640]{0}, /*index=545*/bf16[1280,640]{1,0}, bf16[640]{0}, bf16[3,3,1280,640]{3,2,1,0}, bf16[640]{0}, bf16[3,3,640,640]{3,2,1,0}, /*index=550*/bf16[640]{0}, bf16[1,1,1280,640]{3,2,1,0}, bf16[1280]{0}, bf16[1280]{0}, bf16[640]{0}, /*index=555*/bf16[640]{0}, bf16[640]{0}, bf16[1280,640]{1,0}, bf16[640]{0}, bf16[3,3,960,640]{3,2,1,0}, /*index=560*/bf16[640]{0}, bf16[3,3,640,640]{3,2,1,0}, bf16[640]{0}, bf16[1,1,960,640]{3,2,1,0}, bf16[960]{0}, /*index=565*/bf16[960]{0}, bf16[640]{0}, bf16[640]{0}, bf16[640]{0}, bf16[1280,640]{1,0}, /*index=570*/bf16[640]{0}, bf16[3,3,640,640]{3,2,1,0}, bf16[320]{0}, bf16[320]{0}, bf16[320]{0}, /*index=575*/bf16[1,1,320,320]{3,2,1,0}, bf16[320]{0}, bf16[1,1,320,320]{3,2,1,0}, bf16[320,320]{1,0}, bf16[320]{0}, /*index=580*/bf16[320,320]{1,0}, bf16[320,320]{1,0}, bf16[320,320]{1,0}, bf16[768,320]{1,0}, bf16[320]{0}, /*index=585*/bf16[320,320]{1,0}, bf16[320,320]{1,0}, bf16[768,320]{1,0}, bf16[2560]{0}, bf16[320,2560]{1,0}, /*index=590*/bf16[320]{0}, bf16[1280,320]{1,0}, bf16[320]{0}, bf16[320]{0}, bf16[320]{0}, /*index=595*/bf16[320]{0}, bf16[320]{0}, bf16[320]{0}, bf16[320]{0}, bf16[320]{0}, /*index=600*/bf16[320]{0}, bf16[1,1,320,320]{3,2,1,0}, bf16[320]{0}, bf16[1,1,320,320]{3,2,1,0}, bf16[320,320]{1,0}, /*index=605*/bf16[320]{0}, bf16[320,320]{1,0}, bf16[320,320]{1,0}, bf16[320,320]{1,0}, bf16[768,320]{1,0}, /*index=610*/bf16[320]{0}, bf16[320,320]{1,0}, bf16[320,320]{1,0}, bf16[768,320]{1,0}, bf16[2560]{0}, /*index=615*/bf16[320,2560]{1,0}, bf16[320]{0}, bf16[1280,320]{1,0}, bf16[320]{0}, bf16[320]{0}, /*index=620*/bf16[320]{0}, bf16[320]{0}, bf16[320]{0}, bf16[320]{0}, bf16[320]{0}, /*index=625*/bf16[320]{0}, bf16[320]{0}, bf16[1,1,320,320]{3,2,1,0}, bf16[320]{0}, bf16[1,1,320,320]{3,2,1,0}, /*index=630*/bf16[320,320]{1,0}, bf16[320]{0}, bf16[320,320]{1,0}, bf16[320,320]{1,0}, bf16[320,320]{1,0}, /*index=635*/bf16[768,320]{1,0}, bf16[320]{0}, bf16[320,320]{1,0}, bf16[320,320]{1,0}, bf16[768,320]{1,0}, /*index=640*/bf16[2560]{0}, bf16[320,2560]{1,0}, bf16[320]{0}, bf16[1280,320]{1,0}, bf16[320]{0}, /*index=645*/bf16[320]{0}, bf16[320]{0}, bf16[320]{0}, bf16[320]{0}, bf16[320]{0}, /*index=650*/bf16[320]{0}, bf16[3,3,960,320]{3,2,1,0}, bf16[320]{0}, bf16[3,3,320,320]{3,2,1,0}, bf16[320]{0}, /*index=655*/bf16[1,1,960,320]{3,2,1,0}, bf16[960]{0}, bf16[960]{0}, bf16[320]{0}, bf16[320]{0}, /*index=660*/bf16[320]{0}, bf16[1280,320]{1,0}, bf16[320]{0}, bf16[3,3,640,320]{3,2,1,0}, bf16[320]{0}, /*index=665*/bf16[3,3,320,320]{3,2,1,0}, bf16[320]{0}, bf16[1,1,640,320]{3,2,1,0}, bf16[640]{0}, bf16[640]{0}, /*index=670*/bf16[320]{0}, bf16[320]{0}, bf16[320]{0}, bf16[1280,320]{1,0}, bf16[320]{0}, /*index=675*/bf16[3,3,640,320]{3,2,1,0}, bf16[320]{0}, bf16[3,3,320,320]{3,2,1,0}, bf16[320]{0}, bf16[1,1,640,320]{3,2,1,0}, /*index=680*/bf16[640]{0}, bf16[640]{0}, bf16[320]{0}, bf16[320]{0}, bf16[320]{0}, /*index=685*/bf16[1280,320]{1,0}, f32[2,4,64,64]{3,2,1,0}, s32[2]{0}, f32[2,77,768]{2,1,0})->f32[2,4,64,64]{3,2,1,0}}, allow_spmd_sharding_propagation_to_parameters={false,false,false,false,false,false,false,false,false,false,false,false,false,false,false,false,false,false,false,false,false,false,false,false,false,false,false,false,false,false,false,false,false,false,false,false,false,false,false,false,false,false,false,false,false,false,false,false,false,false,false,false,false,false,false,false,false,false,false,false,false,false,false,false,false,false,false,false,false,false,false,false,false,false,false,false,false,false,false,false,false,false,false,false,false,false,false,false,false,false,false,false,false,false,false,false,false,false,false,false,false,false,false,false,false,false,false,false,false,false,false,false,false,false,false,false,false,false,false,false,false,false,false,false,false,false,false,false,false,false,false,false,false,false,false,false,false,false,false,false,false,false,false,false,false,false,false,false,false,false,false,false,false,false,false,false,false,false,false,false,false,false,false,false,false,false,false,false,false,false,false,false,false,false,false,false,false,false,false,false,false,false,false,false,false,false,false,false,false,false,false,false,false,false,false,false,false,false,false,false,false,false,false,false,false,false,false,false,false,false,false,false,false,false,false,false,false,false,false,false,false,false,false,false,false,false,false,false,false,false,false,false,false,false,false,false,false,false,false,false,false,false,false,false,false,false,false,false,false,false,false,false,false,false,false,false,false,false,false,false,false,false,false,false,false,false,false,false,false,false,false,false,false,false,false,false,false,false,false,false,false,false,false,false,false,false,false,false,false,false,false,false,false,false,false,false,false,false,false,false,false,false,false,false,false,false,false,false,false,false,false,false,false,false,false,false,false,false,false,false,false,false,false,false,false,false,false,false,false,false,false,false,false,false,false,false,false,false,false,false,false,false,false,false,false,false,false,false,false,false,false,false,false,false,false,false,false,false,false,false,false,false,false,false,false,false,false,false,false,false,false,false,false,false,false,false,false,false,false,false,false,false,false,false,false,false,false,false,false,false,false,false,false,false,false,false,false,false,false,false,false,false,false,false,false,false,false,false,false,false,false,false,false,false,false,false,false,false,false,false,false,false,false,false,false,false,false,false,false,false,false,false,false,false,false,false,false,false,false,false,false,false,false,false,false,false,false,false,false,false,false,false,false,false,false,false,false,false,false,false,false,false,false,false,false,false,false,false,false,false,false,false,false,false,false,false,false,false,false,false,false,false,false,false,false,false,false,false,false,false,false,false,false,false,false,false,false,false,false,false,false,false,false,false,false,false,false,false,false,false,false,false,false,false,false,false,false,false,false,false,false,false,false,false,false,false,false,false,false,false,false,false,false,false,false,false,false,false,false,false,false,false,false,false,false,false,false,false,false,false,false,false,false,false,false,false,false,false,false,false,false,false,false,false,false,false,false,false,false,false,false,false,false,false,false,false,false,false,false,false,false,false,false,false,false,false,false,false,false,false,false,false,false,false,false,false,false,false,false,false,false,false,false,false,false,false,false,false,false,false,false,false,false,false,false,false,false,false,false,false,false,false,false,false,false,false,false,false,false,false,false,false,false,false,false,false,false,false,false,false,false,false,false,false,false,false,false,false,false,false,false,false,false,false,false,false,false,false,false,false,false,false,false,false,false,false,false,false,false,false,false,false,false,false,false,false,false,false,false,false,false,false,false,false,false,false,false,false,false}, num_partitions=2, frontend_attributes={xla.sdy.meshes={mesh = #sdy.mesh<["fsdp"=2]>}}

FileNames
1 "/root/hlo_dump/mgpu_infer.py"
2 "/usr/local/lib/python3.12/dist-packages/diffusers/models/unets/unet_2d_condition_flax.py"
3 "/usr/local/lib/python3.12/dist-packages/diffusers/models/unets/unet_2d_blocks_flax.py"
4 "/usr/local/lib/python3.12/dist-packages/diffusers/models/resnet_flax.py"
5 "/usr/local/lib/python3.12/dist-packages/flax/linen/normalization.py"
6 "/usr/local/lib/python3.12/dist-packages/diffusers/models/attention_flax.py"
7 "/usr/local/lib/python3.12/dist-packages/flax/linen/linear.py"
8 "/usr/local/lib/python3.12/dist-packages/flax/linen/dtypes.py"
9 "/usr/local/lib/python3.12/dist-packages/diffusers/models/embeddings_flax.py"

FunctionNames
1 "<module>"
2 "main"
3 "main.<locals>.predict_step"
4 "build_stable_diffusion_1_5.<locals>.fn"
5 "FlaxUNet2DConditionModel.__call__"
6 "FlaxCrossAttnDownBlock2D.__call__"
7 "FlaxResnetBlock2D.__call__"
8 "GroupNorm.__call__"
9 "_compute_stats"
10 "_compute_stats.<locals>.maybe_distributed_mean"
11 "_compute_stats.<locals>.maybe_distributed_mean.<locals>.<genexpr>"
12 "FlaxTransformer2DModel.__call__"
13 "FlaxBasicTransformerBlock.__call__"
14 "LayerNorm.__call__"
15 "FlaxAttention.__call__"
16 "FlaxDownBlock2D.__call__"
17 "FlaxUNetMidBlock2DCrossAttn.__call__"
18 "FlaxUpBlock2D.__call__"
19 "FlaxCrossAttnUpBlock2D.__call__"
20 "_Conv.__call__"
21 "promote_dtype"
22 "_normalize"
23 "_abs_sq"
24 "FlaxTimesteps.__call__"
25 "get_sinusoidal_embeddings"
26 "FlaxTimestepEmbedding.__call__"
27 "Dense.__call__"
28 "FlaxAttention.reshape_heads_to_batch_dim"
29 "FlaxAttention.reshape_batch_dim_to_heads"
30 "FlaxFeedForward.__call__"
31 "FlaxGEGLU.__call__"
32 "FlaxDownsample2D.__call__"
33 "FlaxUpsample2D.__call__"

FileLocations
1 {file_name_id=1 function_name_id=1 line=195 end_line=195 column=4 end_column=10}
2 {file_name_id=1 function_name_id=2 line=189 end_line=189 column=14 end_column=36}
3 {file_name_id=1 function_name_id=3 line=185 end_line=185 column=15 end_column=36}
4 {file_name_id=1 function_name_id=4 line=140 end_line=140 column=26 end_column=72}
5 {file_name_id=2 function_name_id=5 line=414 end_line=414 column=38 end_column=111}
6 {file_name_id=3 function_name_id=6 line=109 end_line=109 column=28 end_column=84}
7 {file_name_id=4 function_name_id=7 line=128 end_line=128 column=24 end_column=49}
8 {file_name_id=5 function_name_id=8 line=791 end_line=800 column=16 end_column=5}
9 {file_name_id=5 function_name_id=9 line=139 end_line=139 column=16 end_column=64}
10 {file_name_id=5 function_name_id=10 line=122 end_line=122 column=10 end_column=53}
11 {file_name_id=5 function_name_id=11 line=122 end_line=122 column=16 end_column=40}
12 {file_name_id=4 function_name_id=7 line=136 end_line=136 column=24 end_column=49}
13 {file_name_id=3 function_name_id=6 line=110 end_line=110 column=28 end_column=99}
14 {file_name_id=6 function_name_id=12 line=432 end_line=432 column=24 end_column=48}
15 {file_name_id=6 function_name_id=12 line=441 end_line=441 column=28 end_column=98}
16 {file_name_id=6 function_name_id=13 line=327 end_line=327 column=39 end_column=64}
17 {file_name_id=5 function_name_id=14 line=512 end_line=521 column=16 end_column=5}
18 {file_name_id=6 function_name_id=13 line=327 end_line=327 column=28 end_column=94}
19 {file_name_id=6 function_name_id=15 line=239 end_line=239 column=30 end_column=97}
20 {file_name_id=6 function_name_id=13 line=332 end_line=332 column=35 end_column=60}
21 {file_name_id=6 function_name_id=13 line=332 end_line=332 column=24 end_column=99}
22 {file_name_id=6 function_name_id=13 line=337 end_line=337 column=32 end_column=57}
23 {file_name_id=2 function_name_id=5 line=416 end_line=416 column=38 end_column=88}
24 {file_name_id=3 function_name_id=16 line=173 end_line=173 column=28 end_column=84}
25 {file_name_id=2 function_name_id=5 line=432 end_line=432 column=21 end_column=98}
26 {file_name_id=3 function_name_id=17 line=425 end_line=425 column=24 end_column=60}
27 {file_name_id=3 function_name_id=17 line=427 end_line=427 column=28 end_column=99}
28 {file_name_id=3 function_name_id=17 line=428 end_line=428 column=28 end_column=84}
29 {file_name_id=2 function_name_id=5 line=450 end_line=450 column=25 end_column=115}
30 {file_name_id=3 function_name_id=18 line=341 end_line=341 column=28 end_column=84}
31 {file_name_id=2 function_name_id=5 line=442 end_line=448 column=25 end_column=17}
32 {file_name_id=3 function_name_id=19 line=271 end_line=271 column=28 end_column=84}
33 {file_name_id=3 function_name_id=19 line=272 end_line=272 column=28 end_column=99}
34 {file_name_id=2 function_name_id=5 line=453 end_line=453 column=17 end_column=43}
35 {file_name_id=2 function_name_id=5 line=407 end_line=407 column=17 end_column=52}
36 {file_name_id=2 function_name_id=5 line=408 end_line=408 column=17 end_column=37}
37 {file_name_id=7 function_name_id=20 line=687 end_line=689 column=27 end_column=5}
38 {file_name_id=8 function_name_id=21 line=79 end_line=79 column=10 end_column=31}
39 {file_name_id=7 function_name_id=20 line=700 end_line=710 column=10 end_column=7}
40 {file_name_id=7 function_name_id=20 line=725 end_line=725 column=13 end_column=67}
41 {file_name_id=7 function_name_id=20 line=726 end_line=726 column=6 end_column=15}
42 {file_name_id=5 function_name_id=8 line=792 end_line=792 column=8 end_column=30}
43 {file_name_id=5 function_name_id=8 line=801 end_line=801 column=11 end_column=48}
44 {file_name_id=5 function_name_id=8 line=804 end_line=819 column=11 end_column=5}
45 {file_name_id=5 function_name_id=22 line=205 end_line=205 column=6 end_column=14}
46 {file_name_id=5 function_name_id=9 line=139 end_line=139 column=42 end_column=52}
47 {file_name_id=5 function_name_id=23 line=57 end_line=57 column=11 end_column=24}
48 {file_name_id=5 function_name_id=9 line=142 end_line=142 column=35 end_column=46}
49 {file_name_id=5 function_name_id=9 line=142 end_line=142 column=29 end_column=46}
50 {file_name_id=5 function_name_id=9 line=142 end_line=142 column=12 end_column=47}
51 {file_name_id=5 function_name_id=8 line=802 end_line=802 column=10 end_column=46}
52 {file_name_id=5 function_name_id=22 line=206 end_line=206 column=18 end_column=31}
53 {file_name_id=5 function_name_id=22 line=206 end_line=206 column=8 end_column=32}
54 {file_name_id=5 function_name_id=22 line=211 end_line=211 column=6 end_column=28}
55 {file_name_id=5 function_name_id=22 line=214 end_line=214 column=4 end_column=16}
56 {file_name_id=5 function_name_id=22 line=216 end_line=216 column=2 end_column=10}
57 {file_name_id=5 function_name_id=22 line=220 end_line=220 column=6 end_column=28}
58 {file_name_id=5 function_name_id=22 line=223 end_line=223 column=4 end_column=13}
59 {file_name_id=4 function_name_id=7 line=129 end_line=129 column=24 end_column=47}
60 {file_name_id=4 function_name_id=7 line=130 end_line=130 column=24 end_column=49}
61 {file_name_id=2 function_name_id=5 line=378 end_line=378 column=16 end_column=41}
62 {file_name_id=9 function_name_id=24 line=124 end_line=126 column=15 end_column=9}
63 {file_name_id=9 function_name_id=25 line=60 end_line=60 column=10 end_column=39}
64 {file_name_id=9 function_name_id=25 line=59 end_line=59 column=45 end_column=117}
65 {file_name_id=9 function_name_id=25 line=59 end_line=59 column=37 end_column=118}
66 {file_name_id=9 function_name_id=25 line=60 end_line=60 column=42 end_column=76}
67 {file_name_id=9 function_name_id=25 line=66 end_line=66 column=34 end_column=54}
68 {file_name_id=9 function_name_id=25 line=66 end_line=66 column=56 end_column=76}
69 {file_name_id=9 function_name_id=25 line=66 end_line=66 column=17 end_column=86}
70 {file_name_id=2 function_name_id=5 line=379 end_line=379 column=16 end_column=42}
71 {file_name_id=9 function_name_id=26 line=94 end_line=94 column=15 end_column=85}
72 {file_name_id=7 function_name_id=27 line=275 end_line=277 column=27 end_column=5}
73 {file_name_id=7 function_name_id=27 line=287 end_line=292 column=8 end_column=5}
74 {file_name_id=7 function_name_id=27 line=294 end_line=294 column=11 end_column=57}
75 {file_name_id=7 function_name_id=27 line=294 end_line=294 column=6 end_column=57}
76 {file_name_id=9 function_name_id=26 line=95 end_line=95 column=15 end_column=28}
77 {file_name_id=9 function_name_id=26 line=96 end_line=96 column=15 end_column=85}
78 {file_name_id=4 function_name_id=7 line=132 end_line=132 column=34 end_column=48}
79 {file_name_id=4 function_name_id=7 line=132 end_line=132 column=15 end_column=49}
80 {file_name_id=4 function_name_id=7 line=134 end_line=134 column=24 end_column=44}
81 {file_name_id=4 function_name_id=7 line=137 end_line=137 column=24 end_column=47}
82 {file_name_id=4 function_name_id=7 line=139 end_line=139 column=24 end_column=49}
83 {file_name_id=4 function_name_id=7 line=144 end_line=144 column=15 end_column=39}
84 {file_name_id=6 function_name_id=12 line=437 end_line=437 column=28 end_column=55}
85 {file_name_id=6 function_name_id=12 line=438 end_line=438 column=28 end_column=82}
86 {file_name_id=5 function_name_id=14 line=523 end_line=538 column=11 end_column=5}
87 {file_name_id=5 function_name_id=22 line=203 end_line=203 column=9 end_column=46}
88 {file_name_id=5 function_name_id=22 line=204 end_line=204 column=8 end_column=44}
89 {file_name_id=6 function_name_id=15 line=194 end_line=194 column=21 end_column=46}
90 {file_name_id=6 function_name_id=15 line=204 end_line=204 column=27 end_column=70}
91 {file_name_id=6 function_name_id=28 line=178 end_line=178 column=17 end_column=81}
92 {file_name_id=6 function_name_id=28 line=179 end_line=179 column=17 end_column=52}
93 {file_name_id=6 function_name_id=28 line=180 end_line=180 column=17 end_column=82}
94 {file_name_id=6 function_name_id=15 line=195 end_line=195 column=19 end_column=36}
95 {file_name_id=6 function_name_id=15 line=205 end_line=205 column=25 end_column=66}
96 {file_name_id=6 function_name_id=15 line=236 end_line=236 column=35 end_column=94}
97 {file_name_id=6 function_name_id=15 line=238 end_line=238 column=31 end_column=60}
98 {file_name_id=6 function_name_id=15 line=196 end_line=196 column=21 end_column=40}
99 {file_name_id=6 function_name_id=15 line=206 end_line=206 column=27 end_column=70}
100 {file_name_id=6 function_name_id=15 line=247 end_line=247 column=32 end_column=98}
101 {file_name_id=6 function_name_id=15 line=248 end_line=248 column=32 end_column=78}
102 {file_name_id=6 function_name_id=29 line=186 end_line=186 column=17 end_column=81}
103 {file_name_id=6 function_name_id=29 line=187 end_line=187 column=17 end_column=52}
104 {file_name_id=6 function_name_id=29 line=188 end_line=188 column=17 end_column=82}
105 {file_name_id=6 function_name_id=15 line=250 end_line=250 column=24 end_column=53}
106 {file_name_id=6 function_name_id=13 line=328 end_line=328 column=24 end_column=48}
107 {file_name_id=6 function_name_id=13 line=333 end_line=333 column=24 end_column=48}
108 {file_name_id=6 function_name_id=13 line=337 end_line=337 column=24 end_column=87}
109 {file_name_id=6 function_name_id=30 line=488 end_line=488 column=24 end_column=78}
110 {file_name_id=6 function_name_id=31 line=522 end_line=522 column=24 end_column=48}
111 {file_name_id=6 function_name_id=31 line=523 end_line=523 column=37 end_column=72}
112 {file_name_id=6 function_name_id=31 line=524 end_line=524 column=50 end_column=70}
113 {file_name_id=6 function_name_id=31 line=524 end_line=524 column=34 end_column=70}
114 {file_name_id=6 function_name_id=30 line=489 end_line=489 column=24 end_column=49}
115 {file_name_id=6 function_name_id=13 line=338 end_line=338 column=24 end_column=48}
116 {file_name_id=6 function_name_id=12 line=447 end_line=447 column=28 end_column=81}
117 {file_name_id=6 function_name_id=12 line=448 end_line=448 column=28 end_column=56}
118 {file_name_id=6 function_name_id=12 line=450 end_line=450 column=24 end_column=48}
119 {file_name_id=3 function_name_id=6 line=114 end_line=114 column=28 end_column=62}
120 {file_name_id=4 function_name_id=32 line=74 end_line=74 column=24 end_column=48}
121 {file_name_id=4 function_name_id=7 line=142 end_line=142 column=23 end_column=51}
122 {file_name_id=3 function_name_id=18 line=339 end_line=339 column=28 end_column=88}
123 {file_name_id=3 function_name_id=18 line=344 end_line=344 column=28 end_column=60}
124 {file_name_id=4 function_name_id=33 line=44 end_line=48 column=24 end_column=9}
125 {file_name_id=4 function_name_id=33 line=49 end_line=49 column=24 end_column=48}
126 {file_name_id=3 function_name_id=19 line=269 end_line=269 column=28 end_column=88}
127 {file_name_id=3 function_name_id=19 line=275 end_line=275 column=28 end_column=60}
128 {file_name_id=2 function_name_id=5 line=454 end_line=454 column=17 end_column=32}
129 {file_name_id=2 function_name_id=5 line=455 end_line=455 column=17 end_column=38}
130 {file_name_id=2 function_name_id=5 line=456 end_line=456 column=17 end_column=52}

StackFrames
1 {file_location_id=1 parent_frame_id=1}
2 {file_location_id=2 parent_frame_id=2}
3 {file_location_id=3 parent_frame_id=3}
4 {file_location_id=4 parent_frame_id=4}
5 {file_location_id=5 parent_frame_id=5}
6 {file_location_id=6 parent_frame_id=6}
7 {file_location_id=7 parent_frame_id=7}
8 {file_location_id=8 parent_frame_id=8}
9 {file_location_id=9 parent_frame_id=9}
10 {file_location_id=10 parent_frame_id=10}
11 {file_location_id=11 parent_frame_id=11}
12 {file_location_id=12 parent_frame_id=7}
13 {file_location_id=8 parent_frame_id=13}
14 {file_location_id=9 parent_frame_id=14}
15 {file_location_id=10 parent_frame_id=15}
16 {file_location_id=11 parent_frame_id=16}
17 {file_location_id=13 parent_frame_id=6}
18 {file_location_id=14 parent_frame_id=18}
19 {file_location_id=8 parent_frame_id=19}
20 {file_location_id=9 parent_frame_id=20}
21 {file_location_id=10 parent_frame_id=21}
22 {file_location_id=11 parent_frame_id=22}
23 {file_location_id=15 parent_frame_id=18}
24 {file_location_id=16 parent_frame_id=24}
25 {file_location_id=17 parent_frame_id=25}
26 {file_location_id=9 parent_frame_id=26}
27 {file_location_id=10 parent_frame_id=27}
28 {file_location_id=11 parent_frame_id=28}
29 {file_location_id=18 parent_frame_id=24}
30 {file_location_id=19 parent_frame_id=30}
31 {file_location_id=20 parent_frame_id=24}
32 {file_location_id=17 parent_frame_id=32}
33 {file_location_id=9 parent_frame_id=33}
34 {file_location_id=10 parent_frame_id=34}
35 {file_location_id=11 parent_frame_id=35}
36 {file_location_id=21 parent_frame_id=24}
37 {file_location_id=19 parent_frame_id=37}
38 {file_location_id=22 parent_frame_id=24}
39 {file_location_id=17 parent_frame_id=39}
40 {file_location_id=9 parent_frame_id=40}
41 {file_location_id=10 parent_frame_id=41}
42 {file_location_id=11 parent_frame_id=42}
43 {file_location_id=23 parent_frame_id=5}
44 {file_location_id=24 parent_frame_id=44}
45 {file_location_id=7 parent_frame_id=45}
46 {file_location_id=8 parent_frame_id=46}
47 {file_location_id=9 parent_frame_id=47}
48 {file_location_id=10 parent_frame_id=48}
49 {file_location_id=11 parent_frame_id=49}
50 {file_location_id=12 parent_frame_id=45}
51 {file_location_id=8 parent_frame_id=51}
52 {file_location_id=9 parent_frame_id=52}
53 {file_location_id=10 parent_frame_id=53}
54 {file_location_id=11 parent_frame_id=54}
55 {file_location_id=25 parent_frame_id=5}
56 {file_location_id=26 parent_frame_id=56}
57 {file_location_id=7 parent_frame_id=57}
58 {file_location_id=8 parent_frame_id=58}
59 {file_location_id=9 parent_frame_id=59}
60 {file_location_id=10 parent_frame_id=60}
61 {file_location_id=11 parent_frame_id=61}
62 {file_location_id=12 parent_frame_id=57}
63 {file_location_id=8 parent_frame_id=63}
64 {file_location_id=9 parent_frame_id=64}
65 {file_location_id=10 parent_frame_id=65}
66 {file_location_id=11 parent_frame_id=66}
67 {file_location_id=27 parent_frame_id=56}
68 {file_location_id=14 parent_frame_id=68}
69 {file_location_id=8 parent_frame_id=69}
70 {file_location_id=9 parent_frame_id=70}
71 {file_location_id=10 parent_frame_id=71}
72 {file_location_id=11 parent_frame_id=72}
73 {file_location_id=15 parent_frame_id=68}
74 {file_location_id=16 parent_frame_id=74}
75 {file_location_id=17 parent_frame_id=75}
76 {file_location_id=9 parent_frame_id=76}
77 {file_location_id=10 parent_frame_id=77}
78 {file_location_id=11 parent_frame_id=78}
79 {file_location_id=18 parent_frame_id=74}
80 {file_location_id=19 parent_frame_id=80}
81 {file_location_id=20 parent_frame_id=74}
82 {file_location_id=17 parent_frame_id=82}
83 {file_location_id=9 parent_frame_id=83}
84 {file_location_id=10 parent_frame_id=84}
85 {file_location_id=11 parent_frame_id=85}
86 {file_location_id=21 parent_frame_id=74}
87 {file_location_id=19 parent_frame_id=87}
88 {file_location_id=22 parent_frame_id=74}
89 {file_location_id=17 parent_frame_id=89}
90 {file_location_id=9 parent_frame_id=90}
91 {file_location_id=10 parent_frame_id=91}
92 {file_location_id=11 parent_frame_id=92}
93 {file_location_id=28 parent_frame_id=56}
94 {file_location_id=7 parent_frame_id=94}
95 {file_location_id=8 parent_frame_id=95}
96 {file_location_id=9 parent_frame_id=96}
97 {file_location_id=10 parent_frame_id=97}
98 {file_location_id=11 parent_frame_id=98}
99 {file_location_id=12 parent_frame_id=94}
100 {file_location_id=8 parent_frame_id=100}
101 {file_location_id=9 parent_frame_id=101}
102 {file_location_id=10 parent_frame_id=102}
103 {file_location_id=11 parent_frame_id=103}
104 {file_location_id=29 parent_frame_id=5}
105 {file_location_id=30 parent_frame_id=105}
106 {file_location_id=7 parent_frame_id=106}
107 {file_location_id=8 parent_frame_id=107}
108 {file_location_id=9 parent_frame_id=108}
109 {file_location_id=10 parent_frame_id=109}
110 {file_location_id=11 parent_frame_id=110}
111 {file_location_id=12 parent_frame_id=106}
112 {file_location_id=8 parent_frame_id=112}
113 {file_location_id=9 parent_frame_id=113}
114 {file_location_id=10 parent_frame_id=114}
115 {file_location_id=11 parent_frame_id=115}
116 {file_location_id=31 parent_frame_id=5}
117 {file_location_id=32 parent_frame_id=117}
118 {file_location_id=7 parent_frame_id=118}
119 {file_location_id=8 parent_frame_id=119}
120 {file_location_id=9 parent_frame_id=120}
121 {file_location_id=10 parent_frame_id=121}
122 {file_location_id=11 parent_frame_id=122}
123 {file_location_id=12 parent_frame_id=118}
124 {file_location_id=8 parent_frame_id=124}
125 {file_location_id=9 parent_frame_id=125}
126 {file_location_id=10 parent_frame_id=126}
127 {file_location_id=11 parent_frame_id=127}
128 {file_location_id=33 parent_frame_id=117}
129 {file_location_id=14 parent_frame_id=129}
130 {file_location_id=8 parent_frame_id=130}
131 {file_location_id=9 parent_frame_id=131}
132 {file_location_id=10 parent_frame_id=132}
133 {file_location_id=11 parent_frame_id=133}
134 {file_location_id=15 parent_frame_id=129}
135 {file_location_id=16 parent_frame_id=135}
136 {file_location_id=17 parent_frame_id=136}
137 {file_location_id=9 parent_frame_id=137}
138 {file_location_id=10 parent_frame_id=138}
139 {file_location_id=11 parent_frame_id=139}
140 {file_location_id=18 parent_frame_id=135}
141 {file_location_id=19 parent_frame_id=141}
142 {file_location_id=20 parent_frame_id=135}
143 {file_location_id=17 parent_frame_id=143}
144 {file_location_id=9 parent_frame_id=144}
145 {file_location_id=10 parent_frame_id=145}
146 {file_location_id=11 parent_frame_id=146}
147 {file_location_id=21 parent_frame_id=135}
148 {file_location_id=19 parent_frame_id=148}
149 {file_location_id=22 parent_frame_id=135}
150 {file_location_id=17 parent_frame_id=150}
151 {file_location_id=9 parent_frame_id=151}
152 {file_location_id=10 parent_frame_id=152}
153 {file_location_id=11 parent_frame_id=153}
154 {file_location_id=34 parent_frame_id=5}
155 {file_location_id=8 parent_frame_id=155}
156 {file_location_id=9 parent_frame_id=156}
157 {file_location_id=10 parent_frame_id=157}
158 {file_location_id=11 parent_frame_id=158}
159 {file_location_id=35 parent_frame_id=5}
160 {file_location_id=36 parent_frame_id=5}
161 {file_location_id=37 parent_frame_id=161}
162 {file_location_id=38 parent_frame_id=162}
163 {file_location_id=39 parent_frame_id=161}
164 {file_location_id=40 parent_frame_id=161}
165 {file_location_id=41 parent_frame_id=161}
166 {file_location_id=42 parent_frame_id=8}
167 {file_location_id=43 parent_frame_id=8}
168 {file_location_id=44 parent_frame_id=8}
169 {file_location_id=45 parent_frame_id=169}
170 {file_location_id=46 parent_frame_id=9}
171 {file_location_id=47 parent_frame_id=171}
172 {file_location_id=48 parent_frame_id=9}
173 {file_location_id=47 parent_frame_id=173}
174 {file_location_id=49 parent_frame_id=9}
175 {file_location_id=50 parent_frame_id=9}
176 {file_location_id=51 parent_frame_id=8}
177 {file_location_id=52 parent_frame_id=169}
178 {file_location_id=53 parent_frame_id=169}
179 {file_location_id=54 parent_frame_id=169}
180 {file_location_id=55 parent_frame_id=169}
181 {file_location_id=56 parent_frame_id=169}
182 {file_location_id=57 parent_frame_id=169}
183 {file_location_id=58 parent_frame_id=169}
184 {file_location_id=59 parent_frame_id=7}
185 {file_location_id=60 parent_frame_id=7}
186 {file_location_id=37 parent_frame_id=186}
187 {file_location_id=38 parent_frame_id=187}
188 {file_location_id=39 parent_frame_id=186}
189 {file_location_id=40 parent_frame_id=186}
190 {file_location_id=41 parent_frame_id=186}
191 {file_location_id=61 parent_frame_id=5}
192 {file_location_id=62 parent_frame_id=192}
193 {file_location_id=63 parent_frame_id=193}
194 {file_location_id=64 parent_frame_id=193}
195 {file_location_id=65 parent_frame_id=193}
196 {file_location_id=66 parent_frame_id=193}
197 {file_location_id=67 parent_frame_id=193}
198 {file_location_id=68 parent_frame_id=193}
199 {file_location_id=69 parent_frame_id=193}
200 {file_location_id=70 parent_frame_id=5}
201 {file_location_id=71 parent_frame_id=201}
202 {file_location_id=72 parent_frame_id=202}
203 {file_location_id=38 parent_frame_id=203}
204 {file_location_id=73 parent_frame_id=202}
205 {file_location_id=74 parent_frame_id=202}
206 {file_location_id=75 parent_frame_id=202}
207 {file_location_id=76 parent_frame_id=201}
208 {file_location_id=77 parent_frame_id=201}
209 {file_location_id=72 parent_frame_id=209}
210 {file_location_id=38 parent_frame_id=210}
211 {file_location_id=73 parent_frame_id=209}
212 {file_location_id=74 parent_frame_id=209}
213 {file_location_id=75 parent_frame_id=209}
214 {file_location_id=78 parent_frame_id=7}
215 {file_location_id=79 parent_frame_id=7}
216 {file_location_id=72 parent_frame_id=216}
217 {file_location_id=38 parent_frame_id=217}
218 {file_location_id=73 parent_frame_id=216}
219 {file_location_id=74 parent_frame_id=216}
220 {file_location_id=75 parent_frame_id=216}
221 {file_location_id=80 parent_frame_id=7}
222 {file_location_id=42 parent_frame_id=13}
223 {file_location_id=43 parent_frame_id=13}
224 {file_location_id=44 parent_frame_id=13}
225 {file_location_id=45 parent_frame_id=225}
226 {file_location_id=46 parent_frame_id=14}
227 {file_location_id=47 parent_frame_id=227}
228 {file_location_id=48 parent_frame_id=14}
229 {file_location_id=47 parent_frame_id=229}
230 {file_location_id=49 parent_frame_id=14}
231 {file_location_id=50 parent_frame_id=14}
232 {file_location_id=51 parent_frame_id=13}
233 {file_location_id=52 parent_frame_id=225}
234 {file_location_id=53 parent_frame_id=225}
235 {file_location_id=54 parent_frame_id=225}
236 {file_location_id=55 parent_frame_id=225}
237 {file_location_id=56 parent_frame_id=225}
238 {file_location_id=57 parent_frame_id=225}
239 {file_location_id=58 parent_frame_id=225}
240 {file_location_id=81 parent_frame_id=7}
241 {file_location_id=82 parent_frame_id=7}
242 {file_location_id=37 parent_frame_id=242}
243 {file_location_id=38 parent_frame_id=243}
244 {file_location_id=39 parent_frame_id=242}
245 {file_location_id=40 parent_frame_id=242}
246 {file_location_id=41 parent_frame_id=242}
247 {file_location_id=83 parent_frame_id=7}
248 {file_location_id=42 parent_frame_id=19}
249 {file_location_id=43 parent_frame_id=19}
250 {file_location_id=44 parent_frame_id=19}
251 {file_location_id=45 parent_frame_id=251}
252 {file_location_id=46 parent_frame_id=20}
253 {file_location_id=47 parent_frame_id=253}
254 {file_location_id=48 parent_frame_id=20}
255 {file_location_id=47 parent_frame_id=255}
256 {file_location_id=49 parent_frame_id=20}
257 {file_location_id=50 parent_frame_id=20}
258 {file_location_id=51 parent_frame_id=19}
259 {file_location_id=52 parent_frame_id=251}
260 {file_location_id=53 parent_frame_id=251}
261 {file_location_id=54 parent_frame_id=251}
262 {file_location_id=55 parent_frame_id=251}
263 {file_location_id=56 parent_frame_id=251}
264 {file_location_id=57 parent_frame_id=251}
265 {file_location_id=58 parent_frame_id=251}
266 {file_location_id=84 parent_frame_id=18}
267 {file_location_id=37 parent_frame_id=267}
268 {file_location_id=38 parent_frame_id=268}
269 {file_location_id=39 parent_frame_id=267}
270 {file_location_id=40 parent_frame_id=267}
271 {file_location_id=41 parent_frame_id=267}
272 {file_location_id=85 parent_frame_id=18}
273 {file_location_id=86 parent_frame_id=25}
274 {file_location_id=87 parent_frame_id=274}
275 {file_location_id=45 parent_frame_id=274}
276 {file_location_id=46 parent_frame_id=26}
277 {file_location_id=47 parent_frame_id=277}
278 {file_location_id=48 parent_frame_id=26}
279 {file_location_id=47 parent_frame_id=279}
280 {file_location_id=49 parent_frame_id=26}
281 {file_location_id=50 parent_frame_id=26}
282 {file_location_id=88 parent_frame_id=274}
283 {file_location_id=52 parent_frame_id=274}
284 {file_location_id=53 parent_frame_id=274}
285 {file_location_id=55 parent_frame_id=274}
286 {file_location_id=54 parent_frame_id=274}
287 {file_location_id=56 parent_frame_id=274}
288 {file_location_id=57 parent_frame_id=274}
289 {file_location_id=58 parent_frame_id=274}
290 {file_location_id=89 parent_frame_id=30}
291 {file_location_id=72 parent_frame_id=291}
292 {file_location_id=38 parent_frame_id=292}
293 {file_location_id=73 parent_frame_id=291}
294 {file_location_id=90 parent_frame_id=30}
295 {file_location_id=91 parent_frame_id=295}
296 {file_location_id=92 parent_frame_id=295}
297 {file_location_id=93 parent_frame_id=295}
298 {file_location_id=94 parent_frame_id=30}
299 {file_location_id=72 parent_frame_id=299}
300 {file_location_id=38 parent_frame_id=300}
301 {file_location_id=73 parent_frame_id=299}
302 {file_location_id=95 parent_frame_id=30}
303 {file_location_id=91 parent_frame_id=303}
304 {file_location_id=92 parent_frame_id=303}
305 {file_location_id=93 parent_frame_id=303}
306 {file_location_id=96 parent_frame_id=30}
307 {file_location_id=97 parent_frame_id=30}
308 {file_location_id=98 parent_frame_id=30}
309 {file_location_id=72 parent_frame_id=309}
310 {file_location_id=38 parent_frame_id=310}
311 {file_location_id=73 parent_frame_id=309}
312 {file_location_id=99 parent_frame_id=30}
313 {file_location_id=91 parent_frame_id=313}
314 {file_location_id=92 parent_frame_id=313}
315 {file_location_id=93 parent_frame_id=313}
316 {file_location_id=100 parent_frame_id=30}
317 {file_location_id=101 parent_frame_id=30}
318 {file_location_id=102 parent_frame_id=318}
319 {file_location_id=103 parent_frame_id=318}
320 {file_location_id=104 parent_frame_id=318}
321 {file_location_id=105 parent_frame_id=30}
322 {file_location_id=72 parent_frame_id=322}
323 {file_location_id=38 parent_frame_id=323}
324 {file_location_id=73 parent_frame_id=322}
325 {file_location_id=74 parent_frame_id=322}
326 {file_location_id=75 parent_frame_id=322}
327 {file_location_id=106 parent_frame_id=24}
328 {file_location_id=86 parent_frame_id=32}
329 {file_location_id=87 parent_frame_id=329}
330 {file_location_id=45 parent_frame_id=329}
331 {file_location_id=46 parent_frame_id=33}
332 {file_location_id=47 parent_frame_id=332}
333 {file_location_id=48 parent_frame_id=33}
334 {file_location_id=47 parent_frame_id=334}
335 {file_location_id=49 parent_frame_id=33}
336 {file_location_id=50 parent_frame_id=33}
337 {file_location_id=88 parent_frame_id=329}
338 {file_location_id=52 parent_frame_id=329}
339 {file_location_id=53 parent_frame_id=329}
340 {file_location_id=55 parent_frame_id=329}
341 {file_location_id=54 parent_frame_id=329}
342 {file_location_id=56 parent_frame_id=329}
343 {file_location_id=57 parent_frame_id=329}
344 {file_location_id=58 parent_frame_id=329}
345 {file_location_id=89 parent_frame_id=37}
346 {file_location_id=72 parent_frame_id=346}
347 {file_location_id=38 parent_frame_id=347}
348 {file_location_id=73 parent_frame_id=346}
349 {file_location_id=90 parent_frame_id=37}
350 {file_location_id=91 parent_frame_id=350}
351 {file_location_id=92 parent_frame_id=350}
352 {file_location_id=93 parent_frame_id=350}
353 {file_location_id=94 parent_frame_id=37}
354 {file_location_id=72 parent_frame_id=354}
355 {file_location_id=38 parent_frame_id=355}
356 {file_location_id=73 parent_frame_id=354}
357 {file_location_id=95 parent_frame_id=37}
358 {file_location_id=91 parent_frame_id=358}
359 {file_location_id=92 parent_frame_id=358}
360 {file_location_id=93 parent_frame_id=358}
361 {file_location_id=96 parent_frame_id=37}
362 {file_location_id=97 parent_frame_id=37}
363 {file_location_id=98 parent_frame_id=37}
364 {file_location_id=72 parent_frame_id=364}
365 {file_location_id=38 parent_frame_id=365}
366 {file_location_id=73 parent_frame_id=364}
367 {file_location_id=99 parent_frame_id=37}
368 {file_location_id=91 parent_frame_id=368}
369 {file_location_id=92 parent_frame_id=368}
370 {file_location_id=93 parent_frame_id=368}
371 {file_location_id=100 parent_frame_id=37}
372 {file_location_id=101 parent_frame_id=37}
373 {file_location_id=102 parent_frame_id=373}
374 {file_location_id=103 parent_frame_id=373}
375 {file_location_id=104 parent_frame_id=373}
376 {file_location_id=105 parent_frame_id=37}
377 {file_location_id=72 parent_frame_id=377}
378 {file_location_id=38 parent_frame_id=378}
379 {file_location_id=73 parent_frame_id=377}
380 {file_location_id=74 parent_frame_id=377}
381 {file_location_id=75 parent_frame_id=377}
382 {file_location_id=107 parent_frame_id=24}
383 {file_location_id=86 parent_frame_id=39}
384 {file_location_id=87 parent_frame_id=384}
385 {file_location_id=45 parent_frame_id=384}
386 {file_location_id=46 parent_frame_id=40}
387 {file_location_id=47 parent_frame_id=387}
388 {file_location_id=48 parent_frame_id=40}
389 {file_location_id=47 parent_frame_id=389}
390 {file_location_id=49 parent_frame_id=40}
391 {file_location_id=50 parent_frame_id=40}
392 {file_location_id=88 parent_frame_id=384}
393 {file_location_id=52 parent_frame_id=384}
394 {file_location_id=53 parent_frame_id=384}
395 {file_location_id=55 parent_frame_id=384}
396 {file_location_id=54 parent_frame_id=384}
397 {file_location_id=56 parent_frame_id=384}
398 {file_location_id=57 parent_frame_id=384}
399 {file_location_id=58 parent_frame_id=384}
400 {file_location_id=108 parent_frame_id=24}
401 {file_location_id=109 parent_frame_id=401}
402 {file_location_id=110 parent_frame_id=402}
403 {file_location_id=72 parent_frame_id=403}
404 {file_location_id=38 parent_frame_id=404}
405 {file_location_id=73 parent_frame_id=403}
406 {file_location_id=74 parent_frame_id=403}
407 {file_location_id=75 parent_frame_id=403}
408 {file_location_id=111 parent_frame_id=402}
409 {file_location_id=112 parent_frame_id=402}
410 {file_location_id=113 parent_frame_id=402}
411 {file_location_id=114 parent_frame_id=401}
412 {file_location_id=72 parent_frame_id=412}
413 {file_location_id=38 parent_frame_id=413}
414 {file_location_id=73 parent_frame_id=412}
415 {file_location_id=74 parent_frame_id=412}
416 {file_location_id=75 parent_frame_id=412}
417 {file_location_id=115 parent_frame_id=24}
418 {file_location_id=116 parent_frame_id=18}
419 {file_location_id=117 parent_frame_id=18}
420 {file_location_id=37 parent_frame_id=420}
421 {file_location_id=38 parent_frame_id=421}
422 {file_location_id=39 parent_frame_id=420}
423 {file_location_id=40 parent_frame_id=420}
424 {file_location_id=41 parent_frame_id=420}
425 {file_location_id=118 parent_frame_id=18}
426 {file_location_id=119 parent_frame_id=6}
427 {file_location_id=120 parent_frame_id=427}
428 {file_location_id=37 parent_frame_id=428}
429 {file_location_id=38 parent_frame_id=429}
430 {file_location_id=39 parent_frame_id=428}
431 {file_location_id=40 parent_frame_id=428}
432 {file_location_id=41 parent_frame_id=428}
433 {file_location_id=121 parent_frame_id=7}
434 {file_location_id=37 parent_frame_id=434}
435 {file_location_id=38 parent_frame_id=435}
436 {file_location_id=39 parent_frame_id=434}
437 {file_location_id=40 parent_frame_id=434}
438 {file_location_id=41 parent_frame_id=434}
439 {file_location_id=42 parent_frame_id=46}
440 {file_location_id=43 parent_frame_id=46}
441 {file_location_id=44 parent_frame_id=46}
442 {file_location_id=45 parent_frame_id=442}
443 {file_location_id=46 parent_frame_id=47}
444 {file_location_id=47 parent_frame_id=444}
445 {file_location_id=48 parent_frame_id=47}
446 {file_location_id=47 parent_frame_id=446}
447 {file_location_id=49 parent_frame_id=47}
448 {file_location_id=50 parent_frame_id=47}
449 {file_location_id=51 parent_frame_id=46}
450 {file_location_id=52 parent_frame_id=442}
451 {file_location_id=53 parent_frame_id=442}
452 {file_location_id=54 parent_frame_id=442}
453 {file_location_id=55 parent_frame_id=442}
454 {file_location_id=56 parent_frame_id=442}
455 {file_location_id=57 parent_frame_id=442}
456 {file_location_id=58 parent_frame_id=442}
457 {file_location_id=59 parent_frame_id=45}
458 {file_location_id=60 parent_frame_id=45}
459 {file_location_id=37 parent_frame_id=459}
460 {file_location_id=38 parent_frame_id=460}
461 {file_location_id=39 parent_frame_id=459}
462 {file_location_id=40 parent_frame_id=459}
463 {file_location_id=41 parent_frame_id=459}
464 {file_location_id=78 parent_frame_id=45}
465 {file_location_id=79 parent_frame_id=45}
466 {file_location_id=72 parent_frame_id=466}
467 {file_location_id=38 parent_frame_id=467}
468 {file_location_id=73 parent_frame_id=466}
469 {file_location_id=74 parent_frame_id=466}
470 {file_location_id=75 parent_frame_id=466}
471 {file_location_id=80 parent_frame_id=45}
472 {file_location_id=42 parent_frame_id=51}
473 {file_location_id=43 parent_frame_id=51}
474 {file_location_id=44 parent_frame_id=51}
475 {file_location_id=45 parent_frame_id=475}
476 {file_location_id=46 parent_frame_id=52}
477 {file_location_id=47 parent_frame_id=477}
478 {file_location_id=48 parent_frame_id=52}
479 {file_location_id=47 parent_frame_id=479}
480 {file_location_id=49 parent_frame_id=52}
481 {file_location_id=50 parent_frame_id=52}
482 {file_location_id=51 parent_frame_id=51}
483 {file_location_id=52 parent_frame_id=475}
484 {file_location_id=53 parent_frame_id=475}
485 {file_location_id=54 parent_frame_id=475}
486 {file_location_id=55 parent_frame_id=475}
487 {file_location_id=56 parent_frame_id=475}
488 {file_location_id=57 parent_frame_id=475}
489 {file_location_id=58 parent_frame_id=475}
490 {file_location_id=81 parent_frame_id=45}
491 {file_location_id=82 parent_frame_id=45}
492 {file_location_id=37 parent_frame_id=492}
493 {file_location_id=38 parent_frame_id=493}
494 {file_location_id=39 parent_frame_id=492}
495 {file_location_id=40 parent_frame_id=492}
496 {file_location_id=41 parent_frame_id=492}
497 {file_location_id=83 parent_frame_id=45}
498 {file_location_id=42 parent_frame_id=58}
499 {file_location_id=43 parent_frame_id=58}
500 {file_location_id=44 parent_frame_id=58}
501 {file_location_id=45 parent_frame_id=501}
502 {file_location_id=46 parent_frame_id=59}
503 {file_location_id=47 parent_frame_id=503}
504 {file_location_id=48 parent_frame_id=59}
505 {file_location_id=47 parent_frame_id=505}
506 {file_location_id=49 parent_frame_id=59}
507 {file_location_id=50 parent_frame_id=59}
508 {file_location_id=51 parent_frame_id=58}
509 {file_location_id=52 parent_frame_id=501}
510 {file_location_id=53 parent_frame_id=501}
511 {file_location_id=54 parent_frame_id=501}
512 {file_location_id=55 parent_frame_id=501}
513 {file_location_id=56 parent_frame_id=501}
514 {file_location_id=57 parent_frame_id=501}
515 {file_location_id=58 parent_frame_id=501}
516 {file_location_id=59 parent_frame_id=57}
517 {file_location_id=60 parent_frame_id=57}
518 {file_location_id=37 parent_frame_id=518}
519 {file_location_id=38 parent_frame_id=519}
520 {file_location_id=39 parent_frame_id=518}
521 {file_location_id=40 parent_frame_id=518}
522 {file_location_id=41 parent_frame_id=518}
523 {file_location_id=78 parent_frame_id=57}
524 {file_location_id=79 parent_frame_id=57}
525 {file_location_id=72 parent_frame_id=525}
526 {file_location_id=38 parent_frame_id=526}
527 {file_location_id=73 parent_frame_id=525}
528 {file_location_id=74 parent_frame_id=525}
529 {file_location_id=75 parent_frame_id=525}
530 {file_location_id=80 parent_frame_id=57}
531 {file_location_id=42 parent_frame_id=63}
532 {file_location_id=43 parent_frame_id=63}
533 {file_location_id=44 parent_frame_id=63}
534 {file_location_id=45 parent_frame_id=534}
535 {file_location_id=46 parent_frame_id=64}
536 {file_location_id=47 parent_frame_id=536}
537 {file_location_id=48 parent_frame_id=64}
538 {file_location_id=47 parent_frame_id=538}
539 {file_location_id=49 parent_frame_id=64}
540 {file_location_id=50 parent_frame_id=64}
541 {file_location_id=51 parent_frame_id=63}
542 {file_location_id=52 parent_frame_id=534}
543 {file_location_id=53 parent_frame_id=534}
544 {file_location_id=54 parent_frame_id=534}
545 {file_location_id=55 parent_frame_id=534}
546 {file_location_id=56 parent_frame_id=534}
547 {file_location_id=57 parent_frame_id=534}
548 {file_location_id=58 parent_frame_id=534}
549 {file_location_id=81 parent_frame_id=57}
550 {file_location_id=82 parent_frame_id=57}
551 {file_location_id=37 parent_frame_id=551}
552 {file_location_id=38 parent_frame_id=552}
553 {file_location_id=39 parent_frame_id=551}
554 {file_location_id=40 parent_frame_id=551}
555 {file_location_id=41 parent_frame_id=551}
556 {file_location_id=83 parent_frame_id=57}
557 {file_location_id=42 parent_frame_id=69}
558 {file_location_id=43 parent_frame_id=69}
559 {file_location_id=44 parent_frame_id=69}
560 {file_location_id=45 parent_frame_id=560}
561 {file_location_id=46 parent_frame_id=70}
562 {file_location_id=47 parent_frame_id=562}
563 {file_location_id=48 parent_frame_id=70}
564 {file_location_id=47 parent_frame_id=564}
565 {file_location_id=49 parent_frame_id=70}
566 {file_location_id=50 parent_frame_id=70}
567 {file_location_id=51 parent_frame_id=69}
568 {file_location_id=52 parent_frame_id=560}
569 {file_location_id=53 parent_frame_id=560}
570 {file_location_id=54 parent_frame_id=560}
571 {file_location_id=55 parent_frame_id=560}
572 {file_location_id=56 parent_frame_id=560}
573 {file_location_id=57 parent_frame_id=560}
574 {file_location_id=58 parent_frame_id=560}
575 {file_location_id=84 parent_frame_id=68}
576 {file_location_id=37 parent_frame_id=576}
577 {file_location_id=38 parent_frame_id=577}
578 {file_location_id=39 parent_frame_id=576}
579 {file_location_id=40 parent_frame_id=576}
580 {file_location_id=41 parent_frame_id=576}
581 {file_location_id=85 parent_frame_id=68}
582 {file_location_id=86 parent_frame_id=75}
583 {file_location_id=87 parent_frame_id=583}
584 {file_location_id=45 parent_frame_id=583}
585 {file_location_id=46 parent_frame_id=76}
586 {file_location_id=47 parent_frame_id=586}
587 {file_location_id=48 parent_frame_id=76}
588 {file_location_id=47 parent_frame_id=588}
589 {file_location_id=49 parent_frame_id=76}
590 {file_location_id=50 parent_frame_id=76}
591 {file_location_id=88 parent_frame_id=583}
592 {file_location_id=52 parent_frame_id=583}
593 {file_location_id=53 parent_frame_id=583}
594 {file_location_id=55 parent_frame_id=583}
595 {file_location_id=54 parent_frame_id=583}
596 {file_location_id=56 parent_frame_id=583}
597 {file_location_id=57 parent_frame_id=583}
598 {file_location_id=58 parent_frame_id=583}
599 {file_location_id=89 parent_frame_id=80}
600 {file_location_id=72 parent_frame_id=600}
601 {file_location_id=38 parent_frame_id=601}
602 {file_location_id=73 parent_frame_id=600}
603 {file_location_id=90 parent_frame_id=80}
604 {file_location_id=91 parent_frame_id=604}
605 {file_location_id=92 parent_frame_id=604}
606 {file_location_id=93 parent_frame_id=604}
607 {file_location_id=94 parent_frame_id=80}
608 {file_location_id=72 parent_frame_id=608}
609 {file_location_id=38 parent_frame_id=609}
610 {file_location_id=73 parent_frame_id=608}
611 {file_location_id=95 parent_frame_id=80}
612 {file_location_id=91 parent_frame_id=612}
613 {file_location_id=92 parent_frame_id=612}
614 {file_location_id=93 parent_frame_id=612}
615 {file_location_id=96 parent_frame_id=80}
616 {file_location_id=97 parent_frame_id=80}
617 {file_location_id=98 parent_frame_id=80}
618 {file_location_id=72 parent_frame_id=618}
619 {file_location_id=38 parent_frame_id=619}
620 {file_location_id=73 parent_frame_id=618}
621 {file_location_id=99 parent_frame_id=80}
622 {file_location_id=91 parent_frame_id=622}
623 {file_location_id=92 parent_frame_id=622}
624 {file_location_id=93 parent_frame_id=622}
625 {file_location_id=100 parent_frame_id=80}
626 {file_location_id=101 parent_frame_id=80}
627 {file_location_id=102 parent_frame_id=627}
628 {file_location_id=103 parent_frame_id=627}
629 {file_location_id=104 parent_frame_id=627}
630 {file_location_id=105 parent_frame_id=80}
631 {file_location_id=72 parent_frame_id=631}
632 {file_location_id=38 parent_frame_id=632}
633 {file_location_id=73 parent_frame_id=631}
634 {file_location_id=74 parent_frame_id=631}
635 {file_location_id=75 parent_frame_id=631}
636 {file_location_id=106 parent_frame_id=74}
637 {file_location_id=86 parent_frame_id=82}
638 {file_location_id=87 parent_frame_id=638}
639 {file_location_id=45 parent_frame_id=638}
640 {file_location_id=46 parent_frame_id=83}
641 {file_location_id=47 parent_frame_id=641}
642 {file_location_id=48 parent_frame_id=83}
643 {file_location_id=47 parent_frame_id=643}
644 {file_location_id=49 parent_frame_id=83}
645 {file_location_id=50 parent_frame_id=83}
646 {file_location_id=88 parent_frame_id=638}
647 {file_location_id=52 parent_frame_id=638}
648 {file_location_id=53 parent_frame_id=638}
649 {file_location_id=55 parent_frame_id=638}
650 {file_location_id=54 parent_frame_id=638}
651 {file_location_id=56 parent_frame_id=638}
652 {file_location_id=57 parent_frame_id=638}
653 {file_location_id=58 parent_frame_id=638}
654 {file_location_id=89 parent_frame_id=87}
655 {file_location_id=72 parent_frame_id=655}
656 {file_location_id=38 parent_frame_id=656}
657 {file_location_id=73 parent_frame_id=655}
658 {file_location_id=90 parent_frame_id=87}
659 {file_location_id=91 parent_frame_id=659}
660 {file_location_id=92 parent_frame_id=659}
661 {file_location_id=93 parent_frame_id=659}
662 {file_location_id=94 parent_frame_id=87}
663 {file_location_id=72 parent_frame_id=663}
664 {file_location_id=38 parent_frame_id=664}
665 {file_location_id=73 parent_frame_id=663}
666 {file_location_id=95 parent_frame_id=87}
667 {file_location_id=91 parent_frame_id=667}
668 {file_location_id=92 parent_frame_id=667}
669 {file_location_id=93 parent_frame_id=667}
670 {file_location_id=96 parent_frame_id=87}
671 {file_location_id=97 parent_frame_id=87}
672 {file_location_id=98 parent_frame_id=87}
673 {file_location_id=72 parent_frame_id=673}
674 {file_location_id=38 parent_frame_id=674}
675 {file_location_id=73 parent_frame_id=673}
676 {file_location_id=99 parent_frame_id=87}
677 {file_location_id=91 parent_frame_id=677}
678 {file_location_id=92 parent_frame_id=677}
679 {file_location_id=93 parent_frame_id=677}
680 {file_location_id=100 parent_frame_id=87}
681 {file_location_id=101 parent_frame_id=87}
682 {file_location_id=102 parent_frame_id=682}
683 {file_location_id=103 parent_frame_id=682}
684 {file_location_id=104 parent_frame_id=682}
685 {file_location_id=105 parent_frame_id=87}
686 {file_location_id=72 parent_frame_id=686}
687 {file_location_id=38 parent_frame_id=687}
688 {file_location_id=73 parent_frame_id=686}
689 {file_location_id=74 parent_frame_id=686}
690 {file_location_id=75 parent_frame_id=686}
691 {file_location_id=107 parent_frame_id=74}
692 {file_location_id=86 parent_frame_id=89}
693 {file_location_id=87 parent_frame_id=693}
694 {file_location_id=45 parent_frame_id=693}
695 {file_location_id=46 parent_frame_id=90}
696 {file_location_id=47 parent_frame_id=696}
697 {file_location_id=48 parent_frame_id=90}
698 {file_location_id=47 parent_frame_id=698}
699 {file_location_id=49 parent_frame_id=90}
700 {file_location_id=50 parent_frame_id=90}
701 {file_location_id=88 parent_frame_id=693}
702 {file_location_id=52 parent_frame_id=693}
703 {file_location_id=53 parent_frame_id=693}
704 {file_location_id=55 parent_frame_id=693}
705 {file_location_id=54 parent_frame_id=693}
706 {file_location_id=56 parent_frame_id=693}
707 {file_location_id=57 parent_frame_id=693}
708 {file_location_id=58 parent_frame_id=693}
709 {file_location_id=108 parent_frame_id=74}
710 {file_location_id=109 parent_frame_id=710}
711 {file_location_id=110 parent_frame_id=711}
712 {file_location_id=72 parent_frame_id=712}
713 {file_location_id=38 parent_frame_id=713}
714 {file_location_id=73 parent_frame_id=712}
715 {file_location_id=74 parent_frame_id=712}
716 {file_location_id=75 parent_frame_id=712}
717 {file_location_id=111 parent_frame_id=711}
718 {file_location_id=112 parent_frame_id=711}
719 {file_location_id=113 parent_frame_id=711}
720 {file_location_id=114 parent_frame_id=710}
721 {file_location_id=72 parent_frame_id=721}
722 {file_location_id=38 parent_frame_id=722}
723 {file_location_id=73 parent_frame_id=721}
724 {file_location_id=74 parent_frame_id=721}
725 {file_location_id=75 parent_frame_id=721}
726 {file_location_id=115 parent_frame_id=74}
727 {file_location_id=116 parent_frame_id=68}
728 {file_location_id=117 parent_frame_id=68}
729 {file_location_id=37 parent_frame_id=729}
730 {file_location_id=38 parent_frame_id=730}
731 {file_location_id=39 parent_frame_id=729}
732 {file_location_id=40 parent_frame_id=729}
733 {file_location_id=41 parent_frame_id=729}
734 {file_location_id=118 parent_frame_id=68}
735 {file_location_id=42 parent_frame_id=95}
736 {file_location_id=43 parent_frame_id=95}
737 {file_location_id=44 parent_frame_id=95}
738 {file_location_id=45 parent_frame_id=738}
739 {file_location_id=46 parent_frame_id=96}
740 {file_location_id=47 parent_frame_id=740}
741 {file_location_id=48 parent_frame_id=96}
742 {file_location_id=47 parent_frame_id=742}
743 {file_location_id=49 parent_frame_id=96}
744 {file_location_id=50 parent_frame_id=96}
745 {file_location_id=51 parent_frame_id=95}
746 {file_location_id=52 parent_frame_id=738}
747 {file_location_id=53 parent_frame_id=738}
748 {file_location_id=54 parent_frame_id=738}
749 {file_location_id=55 parent_frame_id=738}
750 {file_location_id=56 parent_frame_id=738}
751 {file_location_id=57 parent_frame_id=738}
752 {file_location_id=58 parent_frame_id=738}
753 {file_location_id=59 parent_frame_id=94}
754 {file_location_id=60 parent_frame_id=94}
755 {file_location_id=37 parent_frame_id=755}
756 {file_location_id=38 parent_frame_id=756}
757 {file_location_id=39 parent_frame_id=755}
758 {file_location_id=40 parent_frame_id=755}
759 {file_location_id=41 parent_frame_id=755}
760 {file_location_id=78 parent_frame_id=94}
761 {file_location_id=79 parent_frame_id=94}
762 {file_location_id=72 parent_frame_id=762}
763 {file_location_id=38 parent_frame_id=763}
764 {file_location_id=73 parent_frame_id=762}
765 {file_location_id=74 parent_frame_id=762}
766 {file_location_id=75 parent_frame_id=762}
767 {file_location_id=80 parent_frame_id=94}
768 {file_location_id=42 parent_frame_id=100}
769 {file_location_id=43 parent_frame_id=100}
770 {file_location_id=44 parent_frame_id=100}
771 {file_location_id=45 parent_frame_id=771}
772 {file_location_id=46 parent_frame_id=101}
773 {file_location_id=47 parent_frame_id=773}
774 {file_location_id=48 parent_frame_id=101}
775 {file_location_id=47 parent_frame_id=775}
776 {file_location_id=49 parent_frame_id=101}
777 {file_location_id=50 parent_frame_id=101}
778 {file_location_id=51 parent_frame_id=100}
779 {file_location_id=52 parent_frame_id=771}
780 {file_location_id=53 parent_frame_id=771}
781 {file_location_id=54 parent_frame_id=771}
782 {file_location_id=55 parent_frame_id=771}
783 {file_location_id=56 parent_frame_id=771}
784 {file_location_id=57 parent_frame_id=771}
785 {file_location_id=58 parent_frame_id=771}
786 {file_location_id=81 parent_frame_id=94}
787 {file_location_id=82 parent_frame_id=94}
788 {file_location_id=37 parent_frame_id=788}
789 {file_location_id=38 parent_frame_id=789}
790 {file_location_id=39 parent_frame_id=788}
791 {file_location_id=40 parent_frame_id=788}
792 {file_location_id=41 parent_frame_id=788}
793 {file_location_id=83 parent_frame_id=94}
794 {file_location_id=122 parent_frame_id=105}
795 {file_location_id=42 parent_frame_id=107}
796 {file_location_id=43 parent_frame_id=107}
797 {file_location_id=44 parent_frame_id=107}
798 {file_location_id=45 parent_frame_id=798}
799 {file_location_id=46 parent_frame_id=108}
800 {file_location_id=47 parent_frame_id=800}
801 {file_location_id=48 parent_frame_id=108}
802 {file_location_id=47 parent_frame_id=802}
803 {file_location_id=49 parent_frame_id=108}
804 {file_location_id=50 parent_frame_id=108}
805 {file_location_id=51 parent_frame_id=107}
806 {file_location_id=52 parent_frame_id=798}
807 {file_location_id=53 parent_frame_id=798}
808 {file_location_id=54 parent_frame_id=798}
809 {file_location_id=55 parent_frame_id=798}
810 {file_location_id=56 parent_frame_id=798}
811 {file_location_id=57 parent_frame_id=798}
812 {file_location_id=58 parent_frame_id=798}
813 {file_location_id=59 parent_frame_id=106}
814 {file_location_id=60 parent_frame_id=106}
815 {file_location_id=37 parent_frame_id=815}
816 {file_location_id=38 parent_frame_id=816}
817 {file_location_id=39 parent_frame_id=815}
818 {file_location_id=40 parent_frame_id=815}
819 {file_location_id=41 parent_frame_id=815}
820 {file_location_id=78 parent_frame_id=106}
821 {file_location_id=79 parent_frame_id=106}
822 {file_location_id=72 parent_frame_id=822}
823 {file_location_id=38 parent_frame_id=823}
824 {file_location_id=73 parent_frame_id=822}
825 {file_location_id=74 parent_frame_id=822}
826 {file_location_id=75 parent_frame_id=822}
827 {file_location_id=80 parent_frame_id=106}
828 {file_location_id=42 parent_frame_id=112}
829 {file_location_id=43 parent_frame_id=112}
830 {file_location_id=44 parent_frame_id=112}
831 {file_location_id=45 parent_frame_id=831}
832 {file_location_id=46 parent_frame_id=113}
833 {file_location_id=47 parent_frame_id=833}
834 {file_location_id=48 parent_frame_id=113}
835 {file_location_id=47 parent_frame_id=835}
836 {file_location_id=49 parent_frame_id=113}
837 {file_location_id=50 parent_frame_id=113}
838 {file_location_id=51 parent_frame_id=112}
839 {file_location_id=52 parent_frame_id=831}
840 {file_location_id=53 parent_frame_id=831}
841 {file_location_id=54 parent_frame_id=831}
842 {file_location_id=55 parent_frame_id=831}
843 {file_location_id=56 parent_frame_id=831}
844 {file_location_id=57 parent_frame_id=831}
845 {file_location_id=58 parent_frame_id=831}
846 {file_location_id=81 parent_frame_id=106}
847 {file_location_id=82 parent_frame_id=106}
848 {file_location_id=37 parent_frame_id=848}
849 {file_location_id=38 parent_frame_id=849}
850 {file_location_id=39 parent_frame_id=848}
851 {file_location_id=40 parent_frame_id=848}
852 {file_location_id=41 parent_frame_id=848}
853 {file_location_id=121 parent_frame_id=106}
854 {file_location_id=37 parent_frame_id=854}
855 {file_location_id=38 parent_frame_id=855}
856 {file_location_id=39 parent_frame_id=854}
857 {file_location_id=40 parent_frame_id=854}
858 {file_location_id=41 parent_frame_id=854}
859 {file_location_id=83 parent_frame_id=106}
860 {file_location_id=123 parent_frame_id=105}
861 {file_location_id=124 parent_frame_id=861}
862 {file_location_id=125 parent_frame_id=861}
863 {file_location_id=37 parent_frame_id=863}
864 {file_location_id=38 parent_frame_id=864}
865 {file_location_id=39 parent_frame_id=863}
866 {file_location_id=40 parent_frame_id=863}
867 {file_location_id=41 parent_frame_id=863}
868 {file_location_id=126 parent_frame_id=117}
869 {file_location_id=42 parent_frame_id=119}
870 {file_location_id=43 parent_frame_id=119}
871 {file_location_id=44 parent_frame_id=119}
872 {file_location_id=45 parent_frame_id=872}
873 {file_location_id=46 parent_frame_id=120}
874 {file_location_id=47 parent_frame_id=874}
875 {file_location_id=48 parent_frame_id=120}
876 {file_location_id=47 parent_frame_id=876}
877 {file_location_id=49 parent_frame_id=120}
878 {file_location_id=50 parent_frame_id=120}
879 {file_location_id=51 parent_frame_id=119}
880 {file_location_id=52 parent_frame_id=872}
881 {file_location_id=53 parent_frame_id=872}
882 {file_location_id=54 parent_frame_id=872}
883 {file_location_id=55 parent_frame_id=872}
884 {file_location_id=56 parent_frame_id=872}
885 {file_location_id=57 parent_frame_id=872}
886 {file_location_id=58 parent_frame_id=872}
887 {file_location_id=59 parent_frame_id=118}
888 {file_location_id=60 parent_frame_id=118}
889 {file_location_id=37 parent_frame_id=889}
890 {file_location_id=38 parent_frame_id=890}
891 {file_location_id=39 parent_frame_id=889}
892 {file_location_id=40 parent_frame_id=889}
893 {file_location_id=41 parent_frame_id=889}
894 {file_location_id=78 parent_frame_id=118}
895 {file_location_id=79 parent_frame_id=118}
896 {file_location_id=72 parent_frame_id=896}
897 {file_location_id=38 parent_frame_id=897}
898 {file_location_id=73 parent_frame_id=896}
899 {file_location_id=74 parent_frame_id=896}
900 {file_location_id=75 parent_frame_id=896}
901 {file_location_id=80 parent_frame_id=118}
902 {file_location_id=42 parent_frame_id=124}
903 {file_location_id=43 parent_frame_id=124}
904 {file_location_id=44 parent_frame_id=124}
905 {file_location_id=45 parent_frame_id=905}
906 {file_location_id=46 parent_frame_id=125}
907 {file_location_id=47 parent_frame_id=907}
908 {file_location_id=48 parent_frame_id=125}
909 {file_location_id=47 parent_frame_id=909}
910 {file_location_id=49 parent_frame_id=125}
911 {file_location_id=50 parent_frame_id=125}
912 {file_location_id=51 parent_frame_id=124}
913 {file_location_id=52 parent_frame_id=905}
914 {file_location_id=53 parent_frame_id=905}
915 {file_location_id=54 parent_frame_id=905}
916 {file_location_id=55 parent_frame_id=905}
917 {file_location_id=56 parent_frame_id=905}
918 {file_location_id=57 parent_frame_id=905}
919 {file_location_id=58 parent_frame_id=905}
920 {file_location_id=81 parent_frame_id=118}
921 {file_location_id=82 parent_frame_id=118}
922 {file_location_id=37 parent_frame_id=922}
923 {file_location_id=38 parent_frame_id=923}
924 {file_location_id=39 parent_frame_id=922}
925 {file_location_id=40 parent_frame_id=922}
926 {file_location_id=41 parent_frame_id=922}
927 {file_location_id=121 parent_frame_id=118}
928 {file_location_id=37 parent_frame_id=928}
929 {file_location_id=38 parent_frame_id=929}
930 {file_location_id=39 parent_frame_id=928}
931 {file_location_id=40 parent_frame_id=928}
932 {file_location_id=41 parent_frame_id=928}
933 {file_location_id=83 parent_frame_id=118}
934 {file_location_id=42 parent_frame_id=130}
935 {file_location_id=43 parent_frame_id=130}
936 {file_location_id=44 parent_frame_id=130}
937 {file_location_id=45 parent_frame_id=937}
938 {file_location_id=46 parent_frame_id=131}
939 {file_location_id=47 parent_frame_id=939}
940 {file_location_id=48 parent_frame_id=131}
941 {file_location_id=47 parent_frame_id=941}
942 {file_location_id=49 parent_frame_id=131}
943 {file_location_id=50 parent_frame_id=131}
944 {file_location_id=51 parent_frame_id=130}
945 {file_location_id=52 parent_frame_id=937}
946 {file_location_id=53 parent_frame_id=937}
947 {file_location_id=54 parent_frame_id=937}
948 {file_location_id=55 parent_frame_id=937}
949 {file_location_id=56 parent_frame_id=937}
950 {file_location_id=57 parent_frame_id=937}
951 {file_location_id=58 parent_frame_id=937}
952 {file_location_id=84 parent_frame_id=129}
953 {file_location_id=37 parent_frame_id=953}
954 {file_location_id=38 parent_frame_id=954}
955 {file_location_id=39 parent_frame_id=953}
956 {file_location_id=40 parent_frame_id=953}
957 {file_location_id=41 parent_frame_id=953}
958 {file_location_id=85 parent_frame_id=129}
959 {file_location_id=86 parent_frame_id=136}
960 {file_location_id=87 parent_frame_id=960}
961 {file_location_id=45 parent_frame_id=960}
962 {file_location_id=46 parent_frame_id=137}
963 {file_location_id=47 parent_frame_id=963}
964 {file_location_id=48 parent_frame_id=137}
965 {file_location_id=47 parent_frame_id=965}
966 {file_location_id=49 parent_frame_id=137}
967 {file_location_id=50 parent_frame_id=137}
968 {file_location_id=88 parent_frame_id=960}
969 {file_location_id=52 parent_frame_id=960}
970 {file_location_id=53 parent_frame_id=960}
971 {file_location_id=55 parent_frame_id=960}
972 {file_location_id=54 parent_frame_id=960}
973 {file_location_id=56 parent_frame_id=960}
974 {file_location_id=57 parent_frame_id=960}
975 {file_location_id=58 parent_frame_id=960}
976 {file_location_id=89 parent_frame_id=141}
977 {file_location_id=72 parent_frame_id=977}
978 {file_location_id=38 parent_frame_id=978}
979 {file_location_id=73 parent_frame_id=977}
980 {file_location_id=90 parent_frame_id=141}
981 {file_location_id=91 parent_frame_id=981}
982 {file_location_id=92 parent_frame_id=981}
983 {file_location_id=93 parent_frame_id=981}
984 {file_location_id=94 parent_frame_id=141}
985 {file_location_id=72 parent_frame_id=985}
986 {file_location_id=38 parent_frame_id=986}
987 {file_location_id=73 parent_frame_id=985}
988 {file_location_id=95 parent_frame_id=141}
989 {file_location_id=91 parent_frame_id=989}
990 {file_location_id=92 parent_frame_id=989}
991 {file_location_id=93 parent_frame_id=989}
992 {file_location_id=96 parent_frame_id=141}
993 {file_location_id=97 parent_frame_id=141}
994 {file_location_id=98 parent_frame_id=141}
995 {file_location_id=72 parent_frame_id=995}
996 {file_location_id=38 parent_frame_id=996}
997 {file_location_id=73 parent_frame_id=995}
998 {file_location_id=99 parent_frame_id=141}
999 {file_location_id=91 parent_frame_id=999}
1000 {file_location_id=92 parent_frame_id=999}
1001 {file_location_id=93 parent_frame_id=999}
1002 {file_location_id=100 parent_frame_id=141}
1003 {file_location_id=101 parent_frame_id=141}
1004 {file_location_id=102 parent_frame_id=1004}
1005 {file_location_id=103 parent_frame_id=1004}
1006 {file_location_id=104 parent_frame_id=1004}
1007 {file_location_id=105 parent_frame_id=141}
1008 {file_location_id=72 parent_frame_id=1008}
1009 {file_location_id=38 parent_frame_id=1009}
1010 {file_location_id=73 parent_frame_id=1008}
1011 {file_location_id=74 parent_frame_id=1008}
1012 {file_location_id=75 parent_frame_id=1008}
1013 {file_location_id=106 parent_frame_id=135}
1014 {file_location_id=86 parent_frame_id=143}
1015 {file_location_id=87 parent_frame_id=1015}
1016 {file_location_id=45 parent_frame_id=1015}
1017 {file_location_id=46 parent_frame_id=144}
1018 {file_location_id=47 parent_frame_id=1018}
1019 {file_location_id=48 parent_frame_id=144}
1020 {file_location_id=47 parent_frame_id=1020}
1021 {file_location_id=49 parent_frame_id=144}
1022 {file_location_id=50 parent_frame_id=144}
1023 {file_location_id=88 parent_frame_id=1015}
1024 {file_location_id=52 parent_frame_id=1015}
1025 {file_location_id=53 parent_frame_id=1015}
1026 {file_location_id=55 parent_frame_id=1015}
1027 {file_location_id=54 parent_frame_id=1015}
1028 {file_location_id=56 parent_frame_id=1015}
1029 {file_location_id=57 parent_frame_id=1015}
1030 {file_location_id=58 parent_frame_id=1015}
1031 {file_location_id=89 parent_frame_id=148}
1032 {file_location_id=72 parent_frame_id=1032}
1033 {file_location_id=38 parent_frame_id=1033}
1034 {file_location_id=73 parent_frame_id=1032}
1035 {file_location_id=90 parent_frame_id=148}
1036 {file_location_id=91 parent_frame_id=1036}
1037 {file_location_id=92 parent_frame_id=1036}
1038 {file_location_id=93 parent_frame_id=1036}
1039 {file_location_id=94 parent_frame_id=148}
1040 {file_location_id=72 parent_frame_id=1040}
1041 {file_location_id=38 parent_frame_id=1041}
1042 {file_location_id=73 parent_frame_id=1040}
1043 {file_location_id=95 parent_frame_id=148}
1044 {file_location_id=91 parent_frame_id=1044}
1045 {file_location_id=92 parent_frame_id=1044}
1046 {file_location_id=93 parent_frame_id=1044}
1047 {file_location_id=96 parent_frame_id=148}
1048 {file_location_id=97 parent_frame_id=148}
1049 {file_location_id=98 parent_frame_id=148}
1050 {file_location_id=72 parent_frame_id=1050}
1051 {file_location_id=38 parent_frame_id=1051}
1052 {file_location_id=73 parent_frame_id=1050}
1053 {file_location_id=99 parent_frame_id=148}
1054 {file_location_id=91 parent_frame_id=1054}
1055 {file_location_id=92 parent_frame_id=1054}
1056 {file_location_id=93 parent_frame_id=1054}
1057 {file_location_id=100 parent_frame_id=148}
1058 {file_location_id=101 parent_frame_id=148}
1059 {file_location_id=102 parent_frame_id=1059}
1060 {file_location_id=103 parent_frame_id=1059}
1061 {file_location_id=104 parent_frame_id=1059}
1062 {file_location_id=105 parent_frame_id=148}
1063 {file_location_id=72 parent_frame_id=1063}
1064 {file_location_id=38 parent_frame_id=1064}
1065 {file_location_id=73 parent_frame_id=1063}
1066 {file_location_id=74 parent_frame_id=1063}
1067 {file_location_id=75 parent_frame_id=1063}
1068 {file_location_id=107 parent_frame_id=135}
1069 {file_location_id=86 parent_frame_id=150}
1070 {file_location_id=87 parent_frame_id=1070}
1071 {file_location_id=45 parent_frame_id=1070}
1072 {file_location_id=46 parent_frame_id=151}
1073 {file_location_id=47 parent_frame_id=1073}
1074 {file_location_id=48 parent_frame_id=151}
1075 {file_location_id=47 parent_frame_id=1075}
1076 {file_location_id=49 parent_frame_id=151}
1077 {file_location_id=50 parent_frame_id=151}
1078 {file_location_id=88 parent_frame_id=1070}
1079 {file_location_id=52 parent_frame_id=1070}
1080 {file_location_id=53 parent_frame_id=1070}
1081 {file_location_id=55 parent_frame_id=1070}
1082 {file_location_id=54 parent_frame_id=1070}
1083 {file_location_id=56 parent_frame_id=1070}
1084 {file_location_id=57 parent_frame_id=1070}
1085 {file_location_id=58 parent_frame_id=1070}
1086 {file_location_id=108 parent_frame_id=135}
1087 {file_location_id=109 parent_frame_id=1087}
1088 {file_location_id=110 parent_frame_id=1088}
1089 {file_location_id=72 parent_frame_id=1089}
1090 {file_location_id=38 parent_frame_id=1090}
1091 {file_location_id=73 parent_frame_id=1089}
1092 {file_location_id=74 parent_frame_id=1089}
1093 {file_location_id=75 parent_frame_id=1089}
1094 {file_location_id=111 parent_frame_id=1088}
1095 {file_location_id=112 parent_frame_id=1088}
1096 {file_location_id=113 parent_frame_id=1088}
1097 {file_location_id=114 parent_frame_id=1087}
1098 {file_location_id=72 parent_frame_id=1098}
1099 {file_location_id=38 parent_frame_id=1099}
1100 {file_location_id=73 parent_frame_id=1098}
1101 {file_location_id=74 parent_frame_id=1098}
1102 {file_location_id=75 parent_frame_id=1098}
1103 {file_location_id=115 parent_frame_id=135}
1104 {file_location_id=116 parent_frame_id=129}
1105 {file_location_id=117 parent_frame_id=129}
1106 {file_location_id=37 parent_frame_id=1106}
1107 {file_location_id=38 parent_frame_id=1107}
1108 {file_location_id=39 parent_frame_id=1106}
1109 {file_location_id=40 parent_frame_id=1106}
1110 {file_location_id=41 parent_frame_id=1106}
1111 {file_location_id=118 parent_frame_id=129}
1112 {file_location_id=127 parent_frame_id=117}
1113 {file_location_id=124 parent_frame_id=1113}
1114 {file_location_id=125 parent_frame_id=1113}
1115 {file_location_id=37 parent_frame_id=1115}
1116 {file_location_id=38 parent_frame_id=1116}
1117 {file_location_id=39 parent_frame_id=1115}
1118 {file_location_id=40 parent_frame_id=1115}
1119 {file_location_id=41 parent_frame_id=1115}
1120 {file_location_id=42 parent_frame_id=155}
1121 {file_location_id=43 parent_frame_id=155}
1122 {file_location_id=44 parent_frame_id=155}
1123 {file_location_id=45 parent_frame_id=1123}
1124 {file_location_id=46 parent_frame_id=156}
1125 {file_location_id=47 parent_frame_id=1125}
1126 {file_location_id=48 parent_frame_id=156}
1127 {file_location_id=47 parent_frame_id=1127}
1128 {file_location_id=49 parent_frame_id=156}
1129 {file_location_id=50 parent_frame_id=156}
1130 {file_location_id=51 parent_frame_id=155}
1131 {file_location_id=52 parent_frame_id=1123}
1132 {file_location_id=53 parent_frame_id=1123}
1133 {file_location_id=54 parent_frame_id=1123}
1134 {file_location_id=55 parent_frame_id=1123}
1135 {file_location_id=56 parent_frame_id=1123}
1136 {file_location_id=57 parent_frame_id=1123}
1137 {file_location_id=58 parent_frame_id=1123}
1138 {file_location_id=128 parent_frame_id=5}
1139 {file_location_id=129 parent_frame_id=5}
1140 {file_location_id=37 parent_frame_id=1140}
1141 {file_location_id=38 parent_frame_id=1141}
1142 {file_location_id=39 parent_frame_id=1140}
1143 {file_location_id=40 parent_frame_id=1140}
1144 {file_location_id=41 parent_frame_id=1140}
1145 {file_location_id=130 parent_frame_id=5}


%region_0.2 (reduce_sum.3: f32[], reduce_sum.4: f32[]) -> f32[] {
  %reduce_sum.3 = f32[] parameter(0), metadata={op_name="reduce_sum"}
  %reduce_sum.4 = f32[] parameter(1), metadata={op_name="reduce_sum"}
  ROOT %reduce_sum.5 = f32[] add(%reduce_sum.3, %reduce_sum.4), metadata={op_name="jit(predict_step)/FlaxUNet2DConditionModel/down_blocks_0/resnets_0/norm1/reduce_sum" stack_frame_id=11}
}

%region_1.3 (reduce_sum.10: f32[], reduce_sum.11: f32[]) -> f32[] {
  %reduce_sum.10 = f32[] parameter(0), metadata={op_name="reduce_sum"}
  %reduce_sum.11 = f32[] parameter(1), metadata={op_name="reduce_sum"}
  ROOT %reduce_sum.12 = f32[] add(%reduce_sum.10, %reduce_sum.11), metadata={op_name="jit(predict_step)/FlaxUNet2DConditionModel/down_blocks_0/resnets_0/norm1/reduce_sum" stack_frame_id=11}
}

%silu_0.4 (Arg_0.3: f32[2,64,64,320]) -> f32[2,64,64,320] {
  %Arg_0.3 = f32[2,64,64,320]{3,2,1,0} parameter(0)
  %constant.63 = f32[] constant(1)
  %broadcast.54 = f32[2,64,64,320]{3,2,1,0} broadcast(%constant.63), dimensions={}
  %neg.3 = f32[2,64,64,320]{3,2,1,0} negate(%Arg_0.3), metadata={op_name="neg"}
  %exp.4 = f32[2,64,64,320]{3,2,1,0} exponential(%neg.3), metadata={op_name="exp"}
  %add.21 = f32[2,64,64,320]{3,2,1,0} add(%exp.4, %broadcast.54), metadata={op_name="add"}
  %div.5 = f32[2,64,64,320]{3,2,1,0} divide(%broadcast.54, %add.21), metadata={op_name="div"}
  ROOT %mul.25 = f32[2,64,64,320]{3,2,1,0} multiply(%Arg_0.3, %div.5), metadata={op_name="mul"}
}

%silu.1 (Arg_0.1: f32[2,1280]) -> f32[2,1280] {
  %Arg_0.1 = f32[2,1280]{1,0} parameter(0)
  %constant.61 = f32[] constant(1)
  %broadcast.52 = f32[2,1280]{1,0} broadcast(%constant.61), dimensions={}
  %neg.1 = f32[2,1280]{1,0} negate(%Arg_0.1), metadata={op_name="neg"}
  %exp.2 = f32[2,1280]{1,0} exponential(%neg.1), metadata={op_name="exp"}
  %add.6 = f32[2,1280]{1,0} add(%exp.2, %broadcast.52), metadata={op_name="add"}
  %div.1 = f32[2,1280]{1,0} divide(%broadcast.52, %add.6), metadata={op_name="div"}
  ROOT %mul.15 = f32[2,1280]{1,0} multiply(%Arg_0.1, %div.1), metadata={op_name="mul"}
}

%region_2.5 (reduce_sum.17: f32[], reduce_sum.18: f32[]) -> f32[] {
  %reduce_sum.17 = f32[] parameter(0), metadata={op_name="reduce_sum"}
  %reduce_sum.18 = f32[] parameter(1), metadata={op_name="reduce_sum"}
  ROOT %reduce_sum.19 = f32[] add(%reduce_sum.17, %reduce_sum.18), metadata={op_name="jit(predict_step)/FlaxUNet2DConditionModel/down_blocks_0/resnets_0/norm2/reduce_sum" stack_frame_id=16}
}

%region_3.6 (reduce_sum.24: f32[], reduce_sum.25: f32[]) -> f32[] {
  %reduce_sum.24 = f32[] parameter(0), metadata={op_name="reduce_sum"}
  %reduce_sum.25 = f32[] parameter(1), metadata={op_name="reduce_sum"}
  ROOT %reduce_sum.26 = f32[] add(%reduce_sum.24, %reduce_sum.25), metadata={op_name="jit(predict_step)/FlaxUNet2DConditionModel/down_blocks_0/resnets_0/norm2/reduce_sum" stack_frame_id=16}
}

%region_4.7 (reduce_sum.31: f32[], reduce_sum.32: f32[]) -> f32[] {
  %reduce_sum.31 = f32[] parameter(0), metadata={op_name="reduce_sum"}
  %reduce_sum.32 = f32[] parameter(1), metadata={op_name="reduce_sum"}
  ROOT %reduce_sum.33 = f32[] add(%reduce_sum.31, %reduce_sum.32), metadata={op_name="jit(predict_step)/FlaxUNet2DConditionModel/down_blocks_0/attentions_0/norm/reduce_sum" stack_frame_id=22}
}

%region_5.8 (reduce_sum.38: f32[], reduce_sum.39: f32[]) -> f32[] {
  %reduce_sum.38 = f32[] parameter(0), metadata={op_name="reduce_sum"}
  %reduce_sum.39 = f32[] parameter(1), metadata={op_name="reduce_sum"}
  ROOT %reduce_sum.40 = f32[] add(%reduce_sum.38, %reduce_sum.39), metadata={op_name="jit(predict_step)/FlaxUNet2DConditionModel/down_blocks_0/attentions_0/norm/reduce_sum" stack_frame_id=22}
}

%region_6.9 (reduce_sum.45: f32[], reduce_sum.46: f32[]) -> f32[] {
  %reduce_sum.45 = f32[] parameter(0), metadata={op_name="reduce_sum"}
  %reduce_sum.46 = f32[] parameter(1), metadata={op_name="reduce_sum"}
  ROOT %reduce_sum.47 = f32[] add(%reduce_sum.45, %reduce_sum.46), metadata={op_name="jit(predict_step)/FlaxUNet2DConditionModel/down_blocks_0/attentions_0/transformer_blocks_0/norm1/reduce_sum" stack_frame_id=28}
}

%region_7.10 (reduce_sum.52: f32[], reduce_sum.53: f32[]) -> f32[] {
  %reduce_sum.52 = f32[] parameter(0), metadata={op_name="reduce_sum"}
  %reduce_sum.53 = f32[] parameter(1), metadata={op_name="reduce_sum"}
  ROOT %reduce_sum.54 = f32[] add(%reduce_sum.52, %reduce_sum.53), metadata={op_name="jit(predict_step)/FlaxUNet2DConditionModel/down_blocks_0/attentions_0/transformer_blocks_0/norm1/reduce_sum" stack_frame_id=28}
}

%region_8.11 (reduce_max.3: f32[], reduce_max.4: f32[]) -> f32[] {
  %reduce_max.3 = f32[] parameter(0), metadata={op_name="reduce_max"}
  %reduce_max.4 = f32[] parameter(1), metadata={op_name="reduce_max"}
  ROOT %reduce_max.5 = f32[] maximum(%reduce_max.3, %reduce_max.4), metadata={op_name="jit(predict_step)/FlaxUNet2DConditionModel/down_blocks_0/attentions_0/transformer_blocks_0/attn1/reduce_max" stack_frame_id=30}
}

%region_9.12 (reduce_sum.59: f32[], reduce_sum.60: f32[]) -> f32[] {
  %reduce_sum.59 = f32[] parameter(0), metadata={op_name="reduce_sum"}
  %reduce_sum.60 = f32[] parameter(1), metadata={op_name="reduce_sum"}
  ROOT %reduce_sum.61 = f32[] add(%reduce_sum.59, %reduce_sum.60), metadata={op_name="jit(predict_step)/FlaxUNet2DConditionModel/down_blocks_0/attentions_0/transformer_blocks_0/attn1/reduce_sum" stack_frame_id=30}
}

%region_10.13 (reduce_sum.66: f32[], reduce_sum.67: f32[]) -> f32[] {
  %reduce_sum.66 = f32[] parameter(0), metadata={op_name="reduce_sum"}
  %reduce_sum.67 = f32[] parameter(1), metadata={op_name="reduce_sum"}
  ROOT %reduce_sum.68 = f32[] add(%reduce_sum.66, %reduce_sum.67), metadata={op_name="jit(predict_step)/FlaxUNet2DConditionModel/down_blocks_0/attentions_0/transformer_blocks_0/norm2/reduce_sum" stack_frame_id=35}
}

%region_11.14 (reduce_sum.73: f32[], reduce_sum.74: f32[]) -> f32[] {
  %reduce_sum.73 = f32[] parameter(0), metadata={op_name="reduce_sum"}
  %reduce_sum.74 = f32[] parameter(1), metadata={op_name="reduce_sum"}
  ROOT %reduce_sum.75 = f32[] add(%reduce_sum.73, %reduce_sum.74), metadata={op_name="jit(predict_step)/FlaxUNet2DConditionModel/down_blocks_0/attentions_0/transformer_blocks_0/norm2/reduce_sum" stack_frame_id=35}
}

%region_12.15 (reduce_max.10: f32[], reduce_max.11: f32[]) -> f32[] {
  %reduce_max.10 = f32[] parameter(0), metadata={op_name="reduce_max"}
  %reduce_max.11 = f32[] parameter(1), metadata={op_name="reduce_max"}
  ROOT %reduce_max.12 = f32[] maximum(%reduce_max.10, %reduce_max.11), metadata={op_name="jit(predict_step)/FlaxUNet2DConditionModel/down_blocks_0/attentions_0/transformer_blocks_0/attn2/reduce_max" stack_frame_id=37}
}

%region_13.16 (reduce_sum.80: f32[], reduce_sum.81: f32[]) -> f32[] {
  %reduce_sum.80 = f32[] parameter(0), metadata={op_name="reduce_sum"}
  %reduce_sum.81 = f32[] parameter(1), metadata={op_name="reduce_sum"}
  ROOT %reduce_sum.82 = f32[] add(%reduce_sum.80, %reduce_sum.81), metadata={op_name="jit(predict_step)/FlaxUNet2DConditionModel/down_blocks_0/attentions_0/transformer_blocks_0/attn2/reduce_sum" stack_frame_id=37}
}

%region_14.17 (reduce_sum.87: f32[], reduce_sum.88: f32[]) -> f32[] {
  %reduce_sum.87 = f32[] parameter(0), metadata={op_name="reduce_sum"}
  %reduce_sum.88 = f32[] parameter(1), metadata={op_name="reduce_sum"}
  ROOT %reduce_sum.89 = f32[] add(%reduce_sum.87, %reduce_sum.88), metadata={op_name="jit(predict_step)/FlaxUNet2DConditionModel/down_blocks_0/attentions_0/transformer_blocks_0/norm3/reduce_sum" stack_frame_id=42}
}

%region_15.18 (reduce_sum.94: f32[], reduce_sum.95: f32[]) -> f32[] {
  %reduce_sum.94 = f32[] parameter(0), metadata={op_name="reduce_sum"}
  %reduce_sum.95 = f32[] parameter(1), metadata={op_name="reduce_sum"}
  ROOT %reduce_sum.96 = f32[] add(%reduce_sum.94, %reduce_sum.95), metadata={op_name="jit(predict_step)/FlaxUNet2DConditionModel/down_blocks_0/attentions_0/transformer_blocks_0/norm3/reduce_sum" stack_frame_id=42}
}

%region_16.19 (reduce_sum.101: f32[], reduce_sum.102: f32[]) -> f32[] {
  %reduce_sum.101 = f32[] parameter(0), metadata={op_name="reduce_sum"}
  %reduce_sum.102 = f32[] parameter(1), metadata={op_name="reduce_sum"}
  ROOT %reduce_sum.103 = f32[] add(%reduce_sum.101, %reduce_sum.102), metadata={op_name="jit(predict_step)/FlaxUNet2DConditionModel/down_blocks_0/resnets_1/norm1/reduce_sum" stack_frame_id=11}
}

%region_17.20 (reduce_sum.108: f32[], reduce_sum.109: f32[]) -> f32[] {
  %reduce_sum.108 = f32[] parameter(0), metadata={op_name="reduce_sum"}
  %reduce_sum.109 = f32[] parameter(1), metadata={op_name="reduce_sum"}
  ROOT %reduce_sum.110 = f32[] add(%reduce_sum.108, %reduce_sum.109), metadata={op_name="jit(predict_step)/FlaxUNet2DConditionModel/down_blocks_0/resnets_1/norm1/reduce_sum" stack_frame_id=11}
}

%region_18.21 (reduce_sum.115: f32[], reduce_sum.116: f32[]) -> f32[] {
  %reduce_sum.115 = f32[] parameter(0), metadata={op_name="reduce_sum"}
  %reduce_sum.116 = f32[] parameter(1), metadata={op_name="reduce_sum"}
  ROOT %reduce_sum.117 = f32[] add(%reduce_sum.115, %reduce_sum.116), metadata={op_name="jit(predict_step)/FlaxUNet2DConditionModel/down_blocks_0/resnets_1/norm2/reduce_sum" stack_frame_id=16}
}

%region_19.22 (reduce_sum.122: f32[], reduce_sum.123: f32[]) -> f32[] {
  %reduce_sum.122 = f32[] parameter(0), metadata={op_name="reduce_sum"}
  %reduce_sum.123 = f32[] parameter(1), metadata={op_name="reduce_sum"}
  ROOT %reduce_sum.124 = f32[] add(%reduce_sum.122, %reduce_sum.123), metadata={op_name="jit(predict_step)/FlaxUNet2DConditionModel/down_blocks_0/resnets_1/norm2/reduce_sum" stack_frame_id=16}
}

%region_20.23 (reduce_sum.129: f32[], reduce_sum.130: f32[]) -> f32[] {
  %reduce_sum.129 = f32[] parameter(0), metadata={op_name="reduce_sum"}
  %reduce_sum.130 = f32[] parameter(1), metadata={op_name="reduce_sum"}
  ROOT %reduce_sum.131 = f32[] add(%reduce_sum.129, %reduce_sum.130), metadata={op_name="jit(predict_step)/FlaxUNet2DConditionModel/down_blocks_0/attentions_1/norm/reduce_sum" stack_frame_id=22}
}

%region_21.24 (reduce_sum.136: f32[], reduce_sum.137: f32[]) -> f32[] {
  %reduce_sum.136 = f32[] parameter(0), metadata={op_name="reduce_sum"}
  %reduce_sum.137 = f32[] parameter(1), metadata={op_name="reduce_sum"}
  ROOT %reduce_sum.138 = f32[] add(%reduce_sum.136, %reduce_sum.137), metadata={op_name="jit(predict_step)/FlaxUNet2DConditionModel/down_blocks_0/attentions_1/norm/reduce_sum" stack_frame_id=22}
}

%region_22.25 (reduce_sum.143: f32[], reduce_sum.144: f32[]) -> f32[] {
  %reduce_sum.143 = f32[] parameter(0), metadata={op_name="reduce_sum"}
  %reduce_sum.144 = f32[] parameter(1), metadata={op_name="reduce_sum"}
  ROOT %reduce_sum.145 = f32[] add(%reduce_sum.143, %reduce_sum.144), metadata={op_name="jit(predict_step)/FlaxUNet2DConditionModel/down_blocks_0/attentions_1/transformer_blocks_0/norm1/reduce_sum" stack_frame_id=28}
}

%region_23.26 (reduce_sum.150: f32[], reduce_sum.151: f32[]) -> f32[] {
  %reduce_sum.150 = f32[] parameter(0), metadata={op_name="reduce_sum"}
  %reduce_sum.151 = f32[] parameter(1), metadata={op_name="reduce_sum"}
  ROOT %reduce_sum.152 = f32[] add(%reduce_sum.150, %reduce_sum.151), metadata={op_name="jit(predict_step)/FlaxUNet2DConditionModel/down_blocks_0/attentions_1/transformer_blocks_0/norm1/reduce_sum" stack_frame_id=28}
}

%region_24.27 (reduce_max.17: f32[], reduce_max.18: f32[]) -> f32[] {
  %reduce_max.17 = f32[] parameter(0), metadata={op_name="reduce_max"}
  %reduce_max.18 = f32[] parameter(1), metadata={op_name="reduce_max"}
  ROOT %reduce_max.19 = f32[] maximum(%reduce_max.17, %reduce_max.18), metadata={op_name="jit(predict_step)/FlaxUNet2DConditionModel/down_blocks_0/attentions_1/transformer_blocks_0/attn1/reduce_max" stack_frame_id=30}
}

%region_25.28 (reduce_sum.157: f32[], reduce_sum.158: f32[]) -> f32[] {
  %reduce_sum.157 = f32[] parameter(0), metadata={op_name="reduce_sum"}
  %reduce_sum.158 = f32[] parameter(1), metadata={op_name="reduce_sum"}
  ROOT %reduce_sum.159 = f32[] add(%reduce_sum.157, %reduce_sum.158), metadata={op_name="jit(predict_step)/FlaxUNet2DConditionModel/down_blocks_0/attentions_1/transformer_blocks_0/attn1/reduce_sum" stack_frame_id=30}
}

%region_26.29 (reduce_sum.164: f32[], reduce_sum.165: f32[]) -> f32[] {
  %reduce_sum.164 = f32[] parameter(0), metadata={op_name="reduce_sum"}
  %reduce_sum.165 = f32[] parameter(1), metadata={op_name="reduce_sum"}
  ROOT %reduce_sum.166 = f32[] add(%reduce_sum.164, %reduce_sum.165), metadata={op_name="jit(predict_step)/FlaxUNet2DConditionModel/down_blocks_0/attentions_1/transformer_blocks_0/norm2/reduce_sum" stack_frame_id=35}
}

%region_27.30 (reduce_sum.171: f32[], reduce_sum.172: f32[]) -> f32[] {
  %reduce_sum.171 = f32[] parameter(0), metadata={op_name="reduce_sum"}
  %reduce_sum.172 = f32[] parameter(1), metadata={op_name="reduce_sum"}
  ROOT %reduce_sum.173 = f32[] add(%reduce_sum.171, %reduce_sum.172), metadata={op_name="jit(predict_step)/FlaxUNet2DConditionModel/down_blocks_0/attentions_1/transformer_blocks_0/norm2/reduce_sum" stack_frame_id=35}
}

%region_28.31 (reduce_max.24: f32[], reduce_max.25: f32[]) -> f32[] {
  %reduce_max.24 = f32[] parameter(0), metadata={op_name="reduce_max"}
  %reduce_max.25 = f32[] parameter(1), metadata={op_name="reduce_max"}
  ROOT %reduce_max.26 = f32[] maximum(%reduce_max.24, %reduce_max.25), metadata={op_name="jit(predict_step)/FlaxUNet2DConditionModel/down_blocks_0/attentions_1/transformer_blocks_0/attn2/reduce_max" stack_frame_id=37}
}

%region_29.32 (reduce_sum.178: f32[], reduce_sum.179: f32[]) -> f32[] {
  %reduce_sum.178 = f32[] parameter(0), metadata={op_name="reduce_sum"}
  %reduce_sum.179 = f32[] parameter(1), metadata={op_name="reduce_sum"}
  ROOT %reduce_sum.180 = f32[] add(%reduce_sum.178, %reduce_sum.179), metadata={op_name="jit(predict_step)/FlaxUNet2DConditionModel/down_blocks_0/attentions_1/transformer_blocks_0/attn2/reduce_sum" stack_frame_id=37}
}

%region_30.33 (reduce_sum.185: f32[], reduce_sum.186: f32[]) -> f32[] {
  %reduce_sum.185 = f32[] parameter(0), metadata={op_name="reduce_sum"}
  %reduce_sum.186 = f32[] parameter(1), metadata={op_name="reduce_sum"}
  ROOT %reduce_sum.187 = f32[] add(%reduce_sum.185, %reduce_sum.186), metadata={op_name="jit(predict_step)/FlaxUNet2DConditionModel/down_blocks_0/attentions_1/transformer_blocks_0/norm3/reduce_sum" stack_frame_id=42}
}

%region_31.34 (reduce_sum.192: f32[], reduce_sum.193: f32[]) -> f32[] {
  %reduce_sum.192 = f32[] parameter(0), metadata={op_name="reduce_sum"}
  %reduce_sum.193 = f32[] parameter(1), metadata={op_name="reduce_sum"}
  ROOT %reduce_sum.194 = f32[] add(%reduce_sum.192, %reduce_sum.193), metadata={op_name="jit(predict_step)/FlaxUNet2DConditionModel/down_blocks_0/attentions_1/transformer_blocks_0/norm3/reduce_sum" stack_frame_id=42}
}

%region_32.35 (reduce_sum.199: f32[], reduce_sum.200: f32[]) -> f32[] {
  %reduce_sum.199 = f32[] parameter(0), metadata={op_name="reduce_sum"}
  %reduce_sum.200 = f32[] parameter(1), metadata={op_name="reduce_sum"}
  ROOT %reduce_sum.201 = f32[] add(%reduce_sum.199, %reduce_sum.200), metadata={op_name="jit(predict_step)/FlaxUNet2DConditionModel/down_blocks_1/resnets_0/norm1/reduce_sum" stack_frame_id=11}
}

%region_33.36 (reduce_sum.206: f32[], reduce_sum.207: f32[]) -> f32[] {
  %reduce_sum.206 = f32[] parameter(0), metadata={op_name="reduce_sum"}
  %reduce_sum.207 = f32[] parameter(1), metadata={op_name="reduce_sum"}
  ROOT %reduce_sum.208 = f32[] add(%reduce_sum.206, %reduce_sum.207), metadata={op_name="jit(predict_step)/FlaxUNet2DConditionModel/down_blocks_1/resnets_0/norm1/reduce_sum" stack_frame_id=11}
}

%silu_1.37 (Arg_0.5: f32[2,32,32,320]) -> f32[2,32,32,320] {
  %Arg_0.5 = f32[2,32,32,320]{3,2,1,0} parameter(0)
  %constant.65 = f32[] constant(1)
  %broadcast.56 = f32[2,32,32,320]{3,2,1,0} broadcast(%constant.65), dimensions={}
  %neg.5 = f32[2,32,32,320]{3,2,1,0} negate(%Arg_0.5), metadata={op_name="neg"}
  %exp.10 = f32[2,32,32,320]{3,2,1,0} exponential(%neg.5), metadata={op_name="exp"}
  %add.181 = f32[2,32,32,320]{3,2,1,0} add(%exp.10, %broadcast.56), metadata={op_name="add"}
  %div.47 = f32[2,32,32,320]{3,2,1,0} divide(%broadcast.56, %add.181), metadata={op_name="div"}
  ROOT %mul.137 = f32[2,32,32,320]{3,2,1,0} multiply(%Arg_0.5, %div.47), metadata={op_name="mul"}
}

%region_34.38 (reduce_sum.213: f32[], reduce_sum.214: f32[]) -> f32[] {
  %reduce_sum.213 = f32[] parameter(0), metadata={op_name="reduce_sum"}
  %reduce_sum.214 = f32[] parameter(1), metadata={op_name="reduce_sum"}
  ROOT %reduce_sum.215 = f32[] add(%reduce_sum.213, %reduce_sum.214), metadata={op_name="jit(predict_step)/FlaxUNet2DConditionModel/down_blocks_1/resnets_0/norm2/reduce_sum" stack_frame_id=16}
}

%region_35.39 (reduce_sum.220: f32[], reduce_sum.221: f32[]) -> f32[] {
  %reduce_sum.220 = f32[] parameter(0), metadata={op_name="reduce_sum"}
  %reduce_sum.221 = f32[] parameter(1), metadata={op_name="reduce_sum"}
  ROOT %reduce_sum.222 = f32[] add(%reduce_sum.220, %reduce_sum.221), metadata={op_name="jit(predict_step)/FlaxUNet2DConditionModel/down_blocks_1/resnets_0/norm2/reduce_sum" stack_frame_id=16}
}

%silu_2.40 (Arg_0.7: f32[2,32,32,640]) -> f32[2,32,32,640] {
  %Arg_0.7 = f32[2,32,32,640]{3,2,1,0} parameter(0)
  %constant.67 = f32[] constant(1)
  %broadcast.58 = f32[2,32,32,640]{3,2,1,0} broadcast(%constant.67), dimensions={}
  %neg.7 = f32[2,32,32,640]{3,2,1,0} negate(%Arg_0.7), metadata={op_name="neg"}
  %exp.12 = f32[2,32,32,640]{3,2,1,0} exponential(%neg.7), metadata={op_name="exp"}
  %add.200 = f32[2,32,32,640]{3,2,1,0} add(%exp.12, %broadcast.58), metadata={op_name="add"}
  %div.51 = f32[2,32,32,640]{3,2,1,0} divide(%broadcast.58, %add.200), metadata={op_name="div"}
  ROOT %mul.147 = f32[2,32,32,640]{3,2,1,0} multiply(%Arg_0.7, %div.51), metadata={op_name="mul"}
}

%region_36.41 (reduce_sum.227: f32[], reduce_sum.228: f32[]) -> f32[] {
  %reduce_sum.227 = f32[] parameter(0), metadata={op_name="reduce_sum"}
  %reduce_sum.228 = f32[] parameter(1), metadata={op_name="reduce_sum"}
  ROOT %reduce_sum.229 = f32[] add(%reduce_sum.227, %reduce_sum.228), metadata={op_name="jit(predict_step)/FlaxUNet2DConditionModel/down_blocks_1/attentions_0/norm/reduce_sum" stack_frame_id=22}
}

%region_37.42 (reduce_sum.234: f32[], reduce_sum.235: f32[]) -> f32[] {
  %reduce_sum.234 = f32[] parameter(0), metadata={op_name="reduce_sum"}
  %reduce_sum.235 = f32[] parameter(1), metadata={op_name="reduce_sum"}
  ROOT %reduce_sum.236 = f32[] add(%reduce_sum.234, %reduce_sum.235), metadata={op_name="jit(predict_step)/FlaxUNet2DConditionModel/down_blocks_1/attentions_0/norm/reduce_sum" stack_frame_id=22}
}

%region_38.43 (reduce_sum.241: f32[], reduce_sum.242: f32[]) -> f32[] {
  %reduce_sum.241 = f32[] parameter(0), metadata={op_name="reduce_sum"}
  %reduce_sum.242 = f32[] parameter(1), metadata={op_name="reduce_sum"}
  ROOT %reduce_sum.243 = f32[] add(%reduce_sum.241, %reduce_sum.242), metadata={op_name="jit(predict_step)/FlaxUNet2DConditionModel/down_blocks_1/attentions_0/transformer_blocks_0/norm1/reduce_sum" stack_frame_id=28}
}

%region_39.44 (reduce_sum.248: f32[], reduce_sum.249: f32[]) -> f32[] {
  %reduce_sum.248 = f32[] parameter(0), metadata={op_name="reduce_sum"}
  %reduce_sum.249 = f32[] parameter(1), metadata={op_name="reduce_sum"}
  ROOT %reduce_sum.250 = f32[] add(%reduce_sum.248, %reduce_sum.249), metadata={op_name="jit(predict_step)/FlaxUNet2DConditionModel/down_blocks_1/attentions_0/transformer_blocks_0/norm1/reduce_sum" stack_frame_id=28}
}

%region_40.45 (reduce_max.31: f32[], reduce_max.32: f32[]) -> f32[] {
  %reduce_max.31 = f32[] parameter(0), metadata={op_name="reduce_max"}
  %reduce_max.32 = f32[] parameter(1), metadata={op_name="reduce_max"}
  ROOT %reduce_max.33 = f32[] maximum(%reduce_max.31, %reduce_max.32), metadata={op_name="jit(predict_step)/FlaxUNet2DConditionModel/down_blocks_1/attentions_0/transformer_blocks_0/attn1/reduce_max" stack_frame_id=30}
}

%region_41.46 (reduce_sum.255: f32[], reduce_sum.256: f32[]) -> f32[] {
  %reduce_sum.255 = f32[] parameter(0), metadata={op_name="reduce_sum"}
  %reduce_sum.256 = f32[] parameter(1), metadata={op_name="reduce_sum"}
  ROOT %reduce_sum.257 = f32[] add(%reduce_sum.255, %reduce_sum.256), metadata={op_name="jit(predict_step)/FlaxUNet2DConditionModel/down_blocks_1/attentions_0/transformer_blocks_0/attn1/reduce_sum" stack_frame_id=30}
}

%region_42.47 (reduce_sum.262: f32[], reduce_sum.263: f32[]) -> f32[] {
  %reduce_sum.262 = f32[] parameter(0), metadata={op_name="reduce_sum"}
  %reduce_sum.263 = f32[] parameter(1), metadata={op_name="reduce_sum"}
  ROOT %reduce_sum.264 = f32[] add(%reduce_sum.262, %reduce_sum.263), metadata={op_name="jit(predict_step)/FlaxUNet2DConditionModel/down_blocks_1/attentions_0/transformer_blocks_0/norm2/reduce_sum" stack_frame_id=35}
}

%region_43.48 (reduce_sum.269: f32[], reduce_sum.270: f32[]) -> f32[] {
  %reduce_sum.269 = f32[] parameter(0), metadata={op_name="reduce_sum"}
  %reduce_sum.270 = f32[] parameter(1), metadata={op_name="reduce_sum"}
  ROOT %reduce_sum.271 = f32[] add(%reduce_sum.269, %reduce_sum.270), metadata={op_name="jit(predict_step)/FlaxUNet2DConditionModel/down_blocks_1/attentions_0/transformer_blocks_0/norm2/reduce_sum" stack_frame_id=35}
}

%region_44.49 (reduce_max.38: f32[], reduce_max.39: f32[]) -> f32[] {
  %reduce_max.38 = f32[] parameter(0), metadata={op_name="reduce_max"}
  %reduce_max.39 = f32[] parameter(1), metadata={op_name="reduce_max"}
  ROOT %reduce_max.40 = f32[] maximum(%reduce_max.38, %reduce_max.39), metadata={op_name="jit(predict_step)/FlaxUNet2DConditionModel/down_blocks_1/attentions_0/transformer_blocks_0/attn2/reduce_max" stack_frame_id=37}
}

%region_45.50 (reduce_sum.276: f32[], reduce_sum.277: f32[]) -> f32[] {
  %reduce_sum.276 = f32[] parameter(0), metadata={op_name="reduce_sum"}
  %reduce_sum.277 = f32[] parameter(1), metadata={op_name="reduce_sum"}
  ROOT %reduce_sum.278 = f32[] add(%reduce_sum.276, %reduce_sum.277), metadata={op_name="jit(predict_step)/FlaxUNet2DConditionModel/down_blocks_1/attentions_0/transformer_blocks_0/attn2/reduce_sum" stack_frame_id=37}
}

%region_46.51 (reduce_sum.283: f32[], reduce_sum.284: f32[]) -> f32[] {
  %reduce_sum.283 = f32[] parameter(0), metadata={op_name="reduce_sum"}
  %reduce_sum.284 = f32[] parameter(1), metadata={op_name="reduce_sum"}
  ROOT %reduce_sum.285 = f32[] add(%reduce_sum.283, %reduce_sum.284), metadata={op_name="jit(predict_step)/FlaxUNet2DConditionModel/down_blocks_1/attentions_0/transformer_blocks_0/norm3/reduce_sum" stack_frame_id=42}
}

%region_47.52 (reduce_sum.290: f32[], reduce_sum.291: f32[]) -> f32[] {
  %reduce_sum.290 = f32[] parameter(0), metadata={op_name="reduce_sum"}
  %reduce_sum.291 = f32[] parameter(1), metadata={op_name="reduce_sum"}
  ROOT %reduce_sum.292 = f32[] add(%reduce_sum.290, %reduce_sum.291), metadata={op_name="jit(predict_step)/FlaxUNet2DConditionModel/down_blocks_1/attentions_0/transformer_blocks_0/norm3/reduce_sum" stack_frame_id=42}
}

%region_48.53 (reduce_sum.297: f32[], reduce_sum.298: f32[]) -> f32[] {
  %reduce_sum.297 = f32[] parameter(0), metadata={op_name="reduce_sum"}
  %reduce_sum.298 = f32[] parameter(1), metadata={op_name="reduce_sum"}
  ROOT %reduce_sum.299 = f32[] add(%reduce_sum.297, %reduce_sum.298), metadata={op_name="jit(predict_step)/FlaxUNet2DConditionModel/down_blocks_1/resnets_1/norm1/reduce_sum" stack_frame_id=11}
}

%region_49.54 (reduce_sum.304: f32[], reduce_sum.305: f32[]) -> f32[] {
  %reduce_sum.304 = f32[] parameter(0), metadata={op_name="reduce_sum"}
  %reduce_sum.305 = f32[] parameter(1), metadata={op_name="reduce_sum"}
  ROOT %reduce_sum.306 = f32[] add(%reduce_sum.304, %reduce_sum.305), metadata={op_name="jit(predict_step)/FlaxUNet2DConditionModel/down_blocks_1/resnets_1/norm1/reduce_sum" stack_frame_id=11}
}

%region_50.55 (reduce_sum.311: f32[], reduce_sum.312: f32[]) -> f32[] {
  %reduce_sum.311 = f32[] parameter(0), metadata={op_name="reduce_sum"}
  %reduce_sum.312 = f32[] parameter(1), metadata={op_name="reduce_sum"}
  ROOT %reduce_sum.313 = f32[] add(%reduce_sum.311, %reduce_sum.312), metadata={op_name="jit(predict_step)/FlaxUNet2DConditionModel/down_blocks_1/resnets_1/norm2/reduce_sum" stack_frame_id=16}
}

%region_51.56 (reduce_sum.318: f32[], reduce_sum.319: f32[]) -> f32[] {
  %reduce_sum.318 = f32[] parameter(0), metadata={op_name="reduce_sum"}
  %reduce_sum.319 = f32[] parameter(1), metadata={op_name="reduce_sum"}
  ROOT %reduce_sum.320 = f32[] add(%reduce_sum.318, %reduce_sum.319), metadata={op_name="jit(predict_step)/FlaxUNet2DConditionModel/down_blocks_1/resnets_1/norm2/reduce_sum" stack_frame_id=16}
}

%region_52.57 (reduce_sum.325: f32[], reduce_sum.326: f32[]) -> f32[] {
  %reduce_sum.325 = f32[] parameter(0), metadata={op_name="reduce_sum"}
  %reduce_sum.326 = f32[] parameter(1), metadata={op_name="reduce_sum"}
  ROOT %reduce_sum.327 = f32[] add(%reduce_sum.325, %reduce_sum.326), metadata={op_name="jit(predict_step)/FlaxUNet2DConditionModel/down_blocks_1/attentions_1/norm/reduce_sum" stack_frame_id=22}
}

%region_53.58 (reduce_sum.332: f32[], reduce_sum.333: f32[]) -> f32[] {
  %reduce_sum.332 = f32[] parameter(0), metadata={op_name="reduce_sum"}
  %reduce_sum.333 = f32[] parameter(1), metadata={op_name="reduce_sum"}
  ROOT %reduce_sum.334 = f32[] add(%reduce_sum.332, %reduce_sum.333), metadata={op_name="jit(predict_step)/FlaxUNet2DConditionModel/down_blocks_1/attentions_1/norm/reduce_sum" stack_frame_id=22}
}

%region_54.59 (reduce_sum.339: f32[], reduce_sum.340: f32[]) -> f32[] {
  %reduce_sum.339 = f32[] parameter(0), metadata={op_name="reduce_sum"}
  %reduce_sum.340 = f32[] parameter(1), metadata={op_name="reduce_sum"}
  ROOT %reduce_sum.341 = f32[] add(%reduce_sum.339, %reduce_sum.340), metadata={op_name="jit(predict_step)/FlaxUNet2DConditionModel/down_blocks_1/attentions_1/transformer_blocks_0/norm1/reduce_sum" stack_frame_id=28}
}

%region_55.60 (reduce_sum.346: f32[], reduce_sum.347: f32[]) -> f32[] {
  %reduce_sum.346 = f32[] parameter(0), metadata={op_name="reduce_sum"}
  %reduce_sum.347 = f32[] parameter(1), metadata={op_name="reduce_sum"}
  ROOT %reduce_sum.348 = f32[] add(%reduce_sum.346, %reduce_sum.347), metadata={op_name="jit(predict_step)/FlaxUNet2DConditionModel/down_blocks_1/attentions_1/transformer_blocks_0/norm1/reduce_sum" stack_frame_id=28}
}

%region_56.61 (reduce_max.45: f32[], reduce_max.46: f32[]) -> f32[] {
  %reduce_max.45 = f32[] parameter(0), metadata={op_name="reduce_max"}
  %reduce_max.46 = f32[] parameter(1), metadata={op_name="reduce_max"}
  ROOT %reduce_max.47 = f32[] maximum(%reduce_max.45, %reduce_max.46), metadata={op_name="jit(predict_step)/FlaxUNet2DConditionModel/down_blocks_1/attentions_1/transformer_blocks_0/attn1/reduce_max" stack_frame_id=30}
}

%region_57.62 (reduce_sum.353: f32[], reduce_sum.354: f32[]) -> f32[] {
  %reduce_sum.353 = f32[] parameter(0), metadata={op_name="reduce_sum"}
  %reduce_sum.354 = f32[] parameter(1), metadata={op_name="reduce_sum"}
  ROOT %reduce_sum.355 = f32[] add(%reduce_sum.353, %reduce_sum.354), metadata={op_name="jit(predict_step)/FlaxUNet2DConditionModel/down_blocks_1/attentions_1/transformer_blocks_0/attn1/reduce_sum" stack_frame_id=30}
}

%region_58.63 (reduce_sum.360: f32[], reduce_sum.361: f32[]) -> f32[] {
  %reduce_sum.360 = f32[] parameter(0), metadata={op_name="reduce_sum"}
  %reduce_sum.361 = f32[] parameter(1), metadata={op_name="reduce_sum"}
  ROOT %reduce_sum.362 = f32[] add(%reduce_sum.360, %reduce_sum.361), metadata={op_name="jit(predict_step)/FlaxUNet2DConditionModel/down_blocks_1/attentions_1/transformer_blocks_0/norm2/reduce_sum" stack_frame_id=35}
}

%region_59.64 (reduce_sum.367: f32[], reduce_sum.368: f32[]) -> f32[] {
  %reduce_sum.367 = f32[] parameter(0), metadata={op_name="reduce_sum"}
  %reduce_sum.368 = f32[] parameter(1), metadata={op_name="reduce_sum"}
  ROOT %reduce_sum.369 = f32[] add(%reduce_sum.367, %reduce_sum.368), metadata={op_name="jit(predict_step)/FlaxUNet2DConditionModel/down_blocks_1/attentions_1/transformer_blocks_0/norm2/reduce_sum" stack_frame_id=35}
}

%region_60.65 (reduce_max.52: f32[], reduce_max.53: f32[]) -> f32[] {
  %reduce_max.52 = f32[] parameter(0), metadata={op_name="reduce_max"}
  %reduce_max.53 = f32[] parameter(1), metadata={op_name="reduce_max"}
  ROOT %reduce_max.54 = f32[] maximum(%reduce_max.52, %reduce_max.53), metadata={op_name="jit(predict_step)/FlaxUNet2DConditionModel/down_blocks_1/attentions_1/transformer_blocks_0/attn2/reduce_max" stack_frame_id=37}
}

%region_61.66 (reduce_sum.374: f32[], reduce_sum.375: f32[]) -> f32[] {
  %reduce_sum.374 = f32[] parameter(0), metadata={op_name="reduce_sum"}
  %reduce_sum.375 = f32[] parameter(1), metadata={op_name="reduce_sum"}
  ROOT %reduce_sum.376 = f32[] add(%reduce_sum.374, %reduce_sum.375), metadata={op_name="jit(predict_step)/FlaxUNet2DConditionModel/down_blocks_1/attentions_1/transformer_blocks_0/attn2/reduce_sum" stack_frame_id=37}
}

%region_62.67 (reduce_sum.381: f32[], reduce_sum.382: f32[]) -> f32[] {
  %reduce_sum.381 = f32[] parameter(0), metadata={op_name="reduce_sum"}
  %reduce_sum.382 = f32[] parameter(1), metadata={op_name="reduce_sum"}
  ROOT %reduce_sum.383 = f32[] add(%reduce_sum.381, %reduce_sum.382), metadata={op_name="jit(predict_step)/FlaxUNet2DConditionModel/down_blocks_1/attentions_1/transformer_blocks_0/norm3/reduce_sum" stack_frame_id=42}
}

%region_63.68 (reduce_sum.388: f32[], reduce_sum.389: f32[]) -> f32[] {
  %reduce_sum.388 = f32[] parameter(0), metadata={op_name="reduce_sum"}
  %reduce_sum.389 = f32[] parameter(1), metadata={op_name="reduce_sum"}
  ROOT %reduce_sum.390 = f32[] add(%reduce_sum.388, %reduce_sum.389), metadata={op_name="jit(predict_step)/FlaxUNet2DConditionModel/down_blocks_1/attentions_1/transformer_blocks_0/norm3/reduce_sum" stack_frame_id=42}
}

%region_64.69 (reduce_sum.395: f32[], reduce_sum.396: f32[]) -> f32[] {
  %reduce_sum.395 = f32[] parameter(0), metadata={op_name="reduce_sum"}
  %reduce_sum.396 = f32[] parameter(1), metadata={op_name="reduce_sum"}
  ROOT %reduce_sum.397 = f32[] add(%reduce_sum.395, %reduce_sum.396), metadata={op_name="jit(predict_step)/FlaxUNet2DConditionModel/down_blocks_2/resnets_0/norm1/reduce_sum" stack_frame_id=11}
}

%region_65.70 (reduce_sum.402: f32[], reduce_sum.403: f32[]) -> f32[] {
  %reduce_sum.402 = f32[] parameter(0), metadata={op_name="reduce_sum"}
  %reduce_sum.403 = f32[] parameter(1), metadata={op_name="reduce_sum"}
  ROOT %reduce_sum.404 = f32[] add(%reduce_sum.402, %reduce_sum.403), metadata={op_name="jit(predict_step)/FlaxUNet2DConditionModel/down_blocks_2/resnets_0/norm1/reduce_sum" stack_frame_id=11}
}

%silu_3.71 (Arg_0.9: f32[2,16,16,640]) -> f32[2,16,16,640] {
  %Arg_0.9 = f32[2,16,16,640]{3,2,1,0} parameter(0)
  %constant.69 = f32[] constant(1)
  %broadcast.60 = f32[2,16,16,640]{3,2,1,0} broadcast(%constant.69), dimensions={}
  %neg.9 = f32[2,16,16,640]{3,2,1,0} negate(%Arg_0.9), metadata={op_name="neg"}
  %exp.18 = f32[2,16,16,640]{3,2,1,0} exponential(%neg.9), metadata={op_name="exp"}
  %add.347 = f32[2,16,16,640]{3,2,1,0} add(%exp.18, %broadcast.60), metadata={op_name="add"}
  %div.91 = f32[2,16,16,640]{3,2,1,0} divide(%broadcast.60, %add.347), metadata={op_name="div"}
  ROOT %mul.251 = f32[2,16,16,640]{3,2,1,0} multiply(%Arg_0.9, %div.91), metadata={op_name="mul"}
}

%region_66.72 (reduce_sum.409: f32[], reduce_sum.410: f32[]) -> f32[] {
  %reduce_sum.409 = f32[] parameter(0), metadata={op_name="reduce_sum"}
  %reduce_sum.410 = f32[] parameter(1), metadata={op_name="reduce_sum"}
  ROOT %reduce_sum.411 = f32[] add(%reduce_sum.409, %reduce_sum.410), metadata={op_name="jit(predict_step)/FlaxUNet2DConditionModel/down_blocks_2/resnets_0/norm2/reduce_sum" stack_frame_id=16}
}

%region_67.73 (reduce_sum.416: f32[], reduce_sum.417: f32[]) -> f32[] {
  %reduce_sum.416 = f32[] parameter(0), metadata={op_name="reduce_sum"}
  %reduce_sum.417 = f32[] parameter(1), metadata={op_name="reduce_sum"}
  ROOT %reduce_sum.418 = f32[] add(%reduce_sum.416, %reduce_sum.417), metadata={op_name="jit(predict_step)/FlaxUNet2DConditionModel/down_blocks_2/resnets_0/norm2/reduce_sum" stack_frame_id=16}
}

%silu_4.74 (Arg_0.11: f32[2,16,16,1280]) -> f32[2,16,16,1280] {
  %Arg_0.11 = f32[2,16,16,1280]{3,2,1,0} parameter(0)
  %constant.71 = f32[] constant(1)
  %broadcast.62 = f32[2,16,16,1280]{3,2,1,0} broadcast(%constant.71), dimensions={}
  %neg.11 = f32[2,16,16,1280]{3,2,1,0} negate(%Arg_0.11), metadata={op_name="neg"}
  %exp.20 = f32[2,16,16,1280]{3,2,1,0} exponential(%neg.11), metadata={op_name="exp"}
  %add.366 = f32[2,16,16,1280]{3,2,1,0} add(%exp.20, %broadcast.62), metadata={op_name="add"}
  %div.95 = f32[2,16,16,1280]{3,2,1,0} divide(%broadcast.62, %add.366), metadata={op_name="div"}
  ROOT %mul.261 = f32[2,16,16,1280]{3,2,1,0} multiply(%Arg_0.11, %div.95), metadata={op_name="mul"}
}

%region_68.75 (reduce_sum.423: f32[], reduce_sum.424: f32[]) -> f32[] {
  %reduce_sum.423 = f32[] parameter(0), metadata={op_name="reduce_sum"}
  %reduce_sum.424 = f32[] parameter(1), metadata={op_name="reduce_sum"}
  ROOT %reduce_sum.425 = f32[] add(%reduce_sum.423, %reduce_sum.424), metadata={op_name="jit(predict_step)/FlaxUNet2DConditionModel/down_blocks_2/attentions_0/norm/reduce_sum" stack_frame_id=22}
}

%region_69.76 (reduce_sum.430: f32[], reduce_sum.431: f32[]) -> f32[] {
  %reduce_sum.430 = f32[] parameter(0), metadata={op_name="reduce_sum"}
  %reduce_sum.431 = f32[] parameter(1), metadata={op_name="reduce_sum"}
  ROOT %reduce_sum.432 = f32[] add(%reduce_sum.430, %reduce_sum.431), metadata={op_name="jit(predict_step)/FlaxUNet2DConditionModel/down_blocks_2/attentions_0/norm/reduce_sum" stack_frame_id=22}
}

%region_70.77 (reduce_sum.437: f32[], reduce_sum.438: f32[]) -> f32[] {
  %reduce_sum.437 = f32[] parameter(0), metadata={op_name="reduce_sum"}
  %reduce_sum.438 = f32[] parameter(1), metadata={op_name="reduce_sum"}
  ROOT %reduce_sum.439 = f32[] add(%reduce_sum.437, %reduce_sum.438), metadata={op_name="jit(predict_step)/FlaxUNet2DConditionModel/down_blocks_2/attentions_0/transformer_blocks_0/norm1/reduce_sum" stack_frame_id=28}
}

%region_71.78 (reduce_sum.444: f32[], reduce_sum.445: f32[]) -> f32[] {
  %reduce_sum.444 = f32[] parameter(0), metadata={op_name="reduce_sum"}
  %reduce_sum.445 = f32[] parameter(1), metadata={op_name="reduce_sum"}
  ROOT %reduce_sum.446 = f32[] add(%reduce_sum.444, %reduce_sum.445), metadata={op_name="jit(predict_step)/FlaxUNet2DConditionModel/down_blocks_2/attentions_0/transformer_blocks_0/norm1/reduce_sum" stack_frame_id=28}
}

%region_72.79 (reduce_max.59: f32[], reduce_max.60: f32[]) -> f32[] {
  %reduce_max.59 = f32[] parameter(0), metadata={op_name="reduce_max"}
  %reduce_max.60 = f32[] parameter(1), metadata={op_name="reduce_max"}
  ROOT %reduce_max.61 = f32[] maximum(%reduce_max.59, %reduce_max.60), metadata={op_name="jit(predict_step)/FlaxUNet2DConditionModel/down_blocks_2/attentions_0/transformer_blocks_0/attn1/reduce_max" stack_frame_id=30}
}

%region_73.80 (reduce_sum.451: f32[], reduce_sum.452: f32[]) -> f32[] {
  %reduce_sum.451 = f32[] parameter(0), metadata={op_name="reduce_sum"}
  %reduce_sum.452 = f32[] parameter(1), metadata={op_name="reduce_sum"}
  ROOT %reduce_sum.453 = f32[] add(%reduce_sum.451, %reduce_sum.452), metadata={op_name="jit(predict_step)/FlaxUNet2DConditionModel/down_blocks_2/attentions_0/transformer_blocks_0/attn1/reduce_sum" stack_frame_id=30}
}

%region_74.81 (reduce_sum.458: f32[], reduce_sum.459: f32[]) -> f32[] {
  %reduce_sum.458 = f32[] parameter(0), metadata={op_name="reduce_sum"}
  %reduce_sum.459 = f32[] parameter(1), metadata={op_name="reduce_sum"}
  ROOT %reduce_sum.460 = f32[] add(%reduce_sum.458, %reduce_sum.459), metadata={op_name="jit(predict_step)/FlaxUNet2DConditionModel/down_blocks_2/attentions_0/transformer_blocks_0/norm2/reduce_sum" stack_frame_id=35}
}

%region_75.82 (reduce_sum.465: f32[], reduce_sum.466: f32[]) -> f32[] {
  %reduce_sum.465 = f32[] parameter(0), metadata={op_name="reduce_sum"}
  %reduce_sum.466 = f32[] parameter(1), metadata={op_name="reduce_sum"}
  ROOT %reduce_sum.467 = f32[] add(%reduce_sum.465, %reduce_sum.466), metadata={op_name="jit(predict_step)/FlaxUNet2DConditionModel/down_blocks_2/attentions_0/transformer_blocks_0/norm2/reduce_sum" stack_frame_id=35}
}

%region_76.83 (reduce_max.66: f32[], reduce_max.67: f32[]) -> f32[] {
  %reduce_max.66 = f32[] parameter(0), metadata={op_name="reduce_max"}
  %reduce_max.67 = f32[] parameter(1), metadata={op_name="reduce_max"}
  ROOT %reduce_max.68 = f32[] maximum(%reduce_max.66, %reduce_max.67), metadata={op_name="jit(predict_step)/FlaxUNet2DConditionModel/down_blocks_2/attentions_0/transformer_blocks_0/attn2/reduce_max" stack_frame_id=37}
}

%region_77.84 (reduce_sum.472: f32[], reduce_sum.473: f32[]) -> f32[] {
  %reduce_sum.472 = f32[] parameter(0), metadata={op_name="reduce_sum"}
  %reduce_sum.473 = f32[] parameter(1), metadata={op_name="reduce_sum"}
  ROOT %reduce_sum.474 = f32[] add(%reduce_sum.472, %reduce_sum.473), metadata={op_name="jit(predict_step)/FlaxUNet2DConditionModel/down_blocks_2/attentions_0/transformer_blocks_0/attn2/reduce_sum" stack_frame_id=37}
}

%region_78.85 (reduce_sum.479: f32[], reduce_sum.480: f32[]) -> f32[] {
  %reduce_sum.479 = f32[] parameter(0), metadata={op_name="reduce_sum"}
  %reduce_sum.480 = f32[] parameter(1), metadata={op_name="reduce_sum"}
  ROOT %reduce_sum.481 = f32[] add(%reduce_sum.479, %reduce_sum.480), metadata={op_name="jit(predict_step)/FlaxUNet2DConditionModel/down_blocks_2/attentions_0/transformer_blocks_0/norm3/reduce_sum" stack_frame_id=42}
}

%region_79.86 (reduce_sum.486: f32[], reduce_sum.487: f32[]) -> f32[] {
  %reduce_sum.486 = f32[] parameter(0), metadata={op_name="reduce_sum"}
  %reduce_sum.487 = f32[] parameter(1), metadata={op_name="reduce_sum"}
  ROOT %reduce_sum.488 = f32[] add(%reduce_sum.486, %reduce_sum.487), metadata={op_name="jit(predict_step)/FlaxUNet2DConditionModel/down_blocks_2/attentions_0/transformer_blocks_0/norm3/reduce_sum" stack_frame_id=42}
}

%region_80.87 (reduce_sum.493: f32[], reduce_sum.494: f32[]) -> f32[] {
  %reduce_sum.493 = f32[] parameter(0), metadata={op_name="reduce_sum"}
  %reduce_sum.494 = f32[] parameter(1), metadata={op_name="reduce_sum"}
  ROOT %reduce_sum.495 = f32[] add(%reduce_sum.493, %reduce_sum.494), metadata={op_name="jit(predict_step)/FlaxUNet2DConditionModel/down_blocks_2/resnets_1/norm1/reduce_sum" stack_frame_id=11}
}

%region_81.88 (reduce_sum.500: f32[], reduce_sum.501: f32[]) -> f32[] {
  %reduce_sum.500 = f32[] parameter(0), metadata={op_name="reduce_sum"}
  %reduce_sum.501 = f32[] parameter(1), metadata={op_name="reduce_sum"}
  ROOT %reduce_sum.502 = f32[] add(%reduce_sum.500, %reduce_sum.501), metadata={op_name="jit(predict_step)/FlaxUNet2DConditionModel/down_blocks_2/resnets_1/norm1/reduce_sum" stack_frame_id=11}
}

%region_82.89 (reduce_sum.507: f32[], reduce_sum.508: f32[]) -> f32[] {
  %reduce_sum.507 = f32[] parameter(0), metadata={op_name="reduce_sum"}
  %reduce_sum.508 = f32[] parameter(1), metadata={op_name="reduce_sum"}
  ROOT %reduce_sum.509 = f32[] add(%reduce_sum.507, %reduce_sum.508), metadata={op_name="jit(predict_step)/FlaxUNet2DConditionModel/down_blocks_2/resnets_1/norm2/reduce_sum" stack_frame_id=16}
}

%region_83.90 (reduce_sum.514: f32[], reduce_sum.515: f32[]) -> f32[] {
  %reduce_sum.514 = f32[] parameter(0), metadata={op_name="reduce_sum"}
  %reduce_sum.515 = f32[] parameter(1), metadata={op_name="reduce_sum"}
  ROOT %reduce_sum.516 = f32[] add(%reduce_sum.514, %reduce_sum.515), metadata={op_name="jit(predict_step)/FlaxUNet2DConditionModel/down_blocks_2/resnets_1/norm2/reduce_sum" stack_frame_id=16}
}

%region_84.91 (reduce_sum.521: f32[], reduce_sum.522: f32[]) -> f32[] {
  %reduce_sum.521 = f32[] parameter(0), metadata={op_name="reduce_sum"}
  %reduce_sum.522 = f32[] parameter(1), metadata={op_name="reduce_sum"}
  ROOT %reduce_sum.523 = f32[] add(%reduce_sum.521, %reduce_sum.522), metadata={op_name="jit(predict_step)/FlaxUNet2DConditionModel/down_blocks_2/attentions_1/norm/reduce_sum" stack_frame_id=22}
}

%region_85.92 (reduce_sum.528: f32[], reduce_sum.529: f32[]) -> f32[] {
  %reduce_sum.528 = f32[] parameter(0), metadata={op_name="reduce_sum"}
  %reduce_sum.529 = f32[] parameter(1), metadata={op_name="reduce_sum"}
  ROOT %reduce_sum.530 = f32[] add(%reduce_sum.528, %reduce_sum.529), metadata={op_name="jit(predict_step)/FlaxUNet2DConditionModel/down_blocks_2/attentions_1/norm/reduce_sum" stack_frame_id=22}
}

%region_86.93 (reduce_sum.535: f32[], reduce_sum.536: f32[]) -> f32[] {
  %reduce_sum.535 = f32[] parameter(0), metadata={op_name="reduce_sum"}
  %reduce_sum.536 = f32[] parameter(1), metadata={op_name="reduce_sum"}
  ROOT %reduce_sum.537 = f32[] add(%reduce_sum.535, %reduce_sum.536), metadata={op_name="jit(predict_step)/FlaxUNet2DConditionModel/down_blocks_2/attentions_1/transformer_blocks_0/norm1/reduce_sum" stack_frame_id=28}
}

%region_87.94 (reduce_sum.542: f32[], reduce_sum.543: f32[]) -> f32[] {
  %reduce_sum.542 = f32[] parameter(0), metadata={op_name="reduce_sum"}
  %reduce_sum.543 = f32[] parameter(1), metadata={op_name="reduce_sum"}
  ROOT %reduce_sum.544 = f32[] add(%reduce_sum.542, %reduce_sum.543), metadata={op_name="jit(predict_step)/FlaxUNet2DConditionModel/down_blocks_2/attentions_1/transformer_blocks_0/norm1/reduce_sum" stack_frame_id=28}
}

%region_88.95 (reduce_max.73: f32[], reduce_max.74: f32[]) -> f32[] {
  %reduce_max.73 = f32[] parameter(0), metadata={op_name="reduce_max"}
  %reduce_max.74 = f32[] parameter(1), metadata={op_name="reduce_max"}
  ROOT %reduce_max.75 = f32[] maximum(%reduce_max.73, %reduce_max.74), metadata={op_name="jit(predict_step)/FlaxUNet2DConditionModel/down_blocks_2/attentions_1/transformer_blocks_0/attn1/reduce_max" stack_frame_id=30}
}

%region_89.96 (reduce_sum.549: f32[], reduce_sum.550: f32[]) -> f32[] {
  %reduce_sum.549 = f32[] parameter(0), metadata={op_name="reduce_sum"}
  %reduce_sum.550 = f32[] parameter(1), metadata={op_name="reduce_sum"}
  ROOT %reduce_sum.551 = f32[] add(%reduce_sum.549, %reduce_sum.550), metadata={op_name="jit(predict_step)/FlaxUNet2DConditionModel/down_blocks_2/attentions_1/transformer_blocks_0/attn1/reduce_sum" stack_frame_id=30}
}

%region_90.97 (reduce_sum.556: f32[], reduce_sum.557: f32[]) -> f32[] {
  %reduce_sum.556 = f32[] parameter(0), metadata={op_name="reduce_sum"}
  %reduce_sum.557 = f32[] parameter(1), metadata={op_name="reduce_sum"}
  ROOT %reduce_sum.558 = f32[] add(%reduce_sum.556, %reduce_sum.557), metadata={op_name="jit(predict_step)/FlaxUNet2DConditionModel/down_blocks_2/attentions_1/transformer_blocks_0/norm2/reduce_sum" stack_frame_id=35}
}

%region_91.98 (reduce_sum.563: f32[], reduce_sum.564: f32[]) -> f32[] {
  %reduce_sum.563 = f32[] parameter(0), metadata={op_name="reduce_sum"}
  %reduce_sum.564 = f32[] parameter(1), metadata={op_name="reduce_sum"}
  ROOT %reduce_sum.565 = f32[] add(%reduce_sum.563, %reduce_sum.564), metadata={op_name="jit(predict_step)/FlaxUNet2DConditionModel/down_blocks_2/attentions_1/transformer_blocks_0/norm2/reduce_sum" stack_frame_id=35}
}

%region_92.99 (reduce_max.80: f32[], reduce_max.81: f32[]) -> f32[] {
  %reduce_max.80 = f32[] parameter(0), metadata={op_name="reduce_max"}
  %reduce_max.81 = f32[] parameter(1), metadata={op_name="reduce_max"}
  ROOT %reduce_max.82 = f32[] maximum(%reduce_max.80, %reduce_max.81), metadata={op_name="jit(predict_step)/FlaxUNet2DConditionModel/down_blocks_2/attentions_1/transformer_blocks_0/attn2/reduce_max" stack_frame_id=37}
}

%region_93.100 (reduce_sum.570: f32[], reduce_sum.571: f32[]) -> f32[] {
  %reduce_sum.570 = f32[] parameter(0), metadata={op_name="reduce_sum"}
  %reduce_sum.571 = f32[] parameter(1), metadata={op_name="reduce_sum"}
  ROOT %reduce_sum.572 = f32[] add(%reduce_sum.570, %reduce_sum.571), metadata={op_name="jit(predict_step)/FlaxUNet2DConditionModel/down_blocks_2/attentions_1/transformer_blocks_0/attn2/reduce_sum" stack_frame_id=37}
}

%region_94.101 (reduce_sum.577: f32[], reduce_sum.578: f32[]) -> f32[] {
  %reduce_sum.577 = f32[] parameter(0), metadata={op_name="reduce_sum"}
  %reduce_sum.578 = f32[] parameter(1), metadata={op_name="reduce_sum"}
  ROOT %reduce_sum.579 = f32[] add(%reduce_sum.577, %reduce_sum.578), metadata={op_name="jit(predict_step)/FlaxUNet2DConditionModel/down_blocks_2/attentions_1/transformer_blocks_0/norm3/reduce_sum" stack_frame_id=42}
}

%region_95.102 (reduce_sum.584: f32[], reduce_sum.585: f32[]) -> f32[] {
  %reduce_sum.584 = f32[] parameter(0), metadata={op_name="reduce_sum"}
  %reduce_sum.585 = f32[] parameter(1), metadata={op_name="reduce_sum"}
  ROOT %reduce_sum.586 = f32[] add(%reduce_sum.584, %reduce_sum.585), metadata={op_name="jit(predict_step)/FlaxUNet2DConditionModel/down_blocks_2/attentions_1/transformer_blocks_0/norm3/reduce_sum" stack_frame_id=42}
}

%region_96.103 (reduce_sum.591: f32[], reduce_sum.592: f32[]) -> f32[] {
  %reduce_sum.591 = f32[] parameter(0), metadata={op_name="reduce_sum"}
  %reduce_sum.592 = f32[] parameter(1), metadata={op_name="reduce_sum"}
  ROOT %reduce_sum.593 = f32[] add(%reduce_sum.591, %reduce_sum.592), metadata={op_name="jit(predict_step)/FlaxUNet2DConditionModel/down_blocks_3/resnets_0/norm1/reduce_sum" stack_frame_id=49}
}

%region_97.104 (reduce_sum.598: f32[], reduce_sum.599: f32[]) -> f32[] {
  %reduce_sum.598 = f32[] parameter(0), metadata={op_name="reduce_sum"}
  %reduce_sum.599 = f32[] parameter(1), metadata={op_name="reduce_sum"}
  ROOT %reduce_sum.600 = f32[] add(%reduce_sum.598, %reduce_sum.599), metadata={op_name="jit(predict_step)/FlaxUNet2DConditionModel/down_blocks_3/resnets_0/norm1/reduce_sum" stack_frame_id=49}
}

%silu_5.105 (Arg_0.13: f32[2,8,8,1280]) -> f32[2,8,8,1280] {
  %Arg_0.13 = f32[2,8,8,1280]{3,2,1,0} parameter(0)
  %constant.73 = f32[] constant(1)
  %broadcast.64 = f32[2,8,8,1280]{3,2,1,0} broadcast(%constant.73), dimensions={}
  %neg.13 = f32[2,8,8,1280]{3,2,1,0} negate(%Arg_0.13), metadata={op_name="neg"}
  %exp.26 = f32[2,8,8,1280]{3,2,1,0} exponential(%neg.13), metadata={op_name="exp"}
  %add.513 = f32[2,8,8,1280]{3,2,1,0} add(%exp.26, %broadcast.64), metadata={op_name="add"}
  %div.135 = f32[2,8,8,1280]{3,2,1,0} divide(%broadcast.64, %add.513), metadata={op_name="div"}
  ROOT %mul.365 = f32[2,8,8,1280]{3,2,1,0} multiply(%Arg_0.13, %div.135), metadata={op_name="mul"}
}

%region_98.106 (reduce_sum.605: f32[], reduce_sum.606: f32[]) -> f32[] {
  %reduce_sum.605 = f32[] parameter(0), metadata={op_name="reduce_sum"}
  %reduce_sum.606 = f32[] parameter(1), metadata={op_name="reduce_sum"}
  ROOT %reduce_sum.607 = f32[] add(%reduce_sum.605, %reduce_sum.606), metadata={op_name="jit(predict_step)/FlaxUNet2DConditionModel/down_blocks_3/resnets_0/norm2/reduce_sum" stack_frame_id=54}
}

%region_99.107 (reduce_sum.612: f32[], reduce_sum.613: f32[]) -> f32[] {
  %reduce_sum.612 = f32[] parameter(0), metadata={op_name="reduce_sum"}
  %reduce_sum.613 = f32[] parameter(1), metadata={op_name="reduce_sum"}
  ROOT %reduce_sum.614 = f32[] add(%reduce_sum.612, %reduce_sum.613), metadata={op_name="jit(predict_step)/FlaxUNet2DConditionModel/down_blocks_3/resnets_0/norm2/reduce_sum" stack_frame_id=54}
}

%region_100.108 (reduce_sum.619: f32[], reduce_sum.620: f32[]) -> f32[] {
  %reduce_sum.619 = f32[] parameter(0), metadata={op_name="reduce_sum"}
  %reduce_sum.620 = f32[] parameter(1), metadata={op_name="reduce_sum"}
  ROOT %reduce_sum.621 = f32[] add(%reduce_sum.619, %reduce_sum.620), metadata={op_name="jit(predict_step)/FlaxUNet2DConditionModel/down_blocks_3/resnets_1/norm1/reduce_sum" stack_frame_id=49}
}

%region_101.109 (reduce_sum.626: f32[], reduce_sum.627: f32[]) -> f32[] {
  %reduce_sum.626 = f32[] parameter(0), metadata={op_name="reduce_sum"}
  %reduce_sum.627 = f32[] parameter(1), metadata={op_name="reduce_sum"}
  ROOT %reduce_sum.628 = f32[] add(%reduce_sum.626, %reduce_sum.627), metadata={op_name="jit(predict_step)/FlaxUNet2DConditionModel/down_blocks_3/resnets_1/norm1/reduce_sum" stack_frame_id=49}
}

%region_102.110 (reduce_sum.633: f32[], reduce_sum.634: f32[]) -> f32[] {
  %reduce_sum.633 = f32[] parameter(0), metadata={op_name="reduce_sum"}
  %reduce_sum.634 = f32[] parameter(1), metadata={op_name="reduce_sum"}
  ROOT %reduce_sum.635 = f32[] add(%reduce_sum.633, %reduce_sum.634), metadata={op_name="jit(predict_step)/FlaxUNet2DConditionModel/down_blocks_3/resnets_1/norm2/reduce_sum" stack_frame_id=54}
}

%region_103.111 (reduce_sum.640: f32[], reduce_sum.641: f32[]) -> f32[] {
  %reduce_sum.640 = f32[] parameter(0), metadata={op_name="reduce_sum"}
  %reduce_sum.641 = f32[] parameter(1), metadata={op_name="reduce_sum"}
  ROOT %reduce_sum.642 = f32[] add(%reduce_sum.640, %reduce_sum.641), metadata={op_name="jit(predict_step)/FlaxUNet2DConditionModel/down_blocks_3/resnets_1/norm2/reduce_sum" stack_frame_id=54}
}

%region_104.112 (reduce_sum.647: f32[], reduce_sum.648: f32[]) -> f32[] {
  %reduce_sum.647 = f32[] parameter(0), metadata={op_name="reduce_sum"}
  %reduce_sum.648 = f32[] parameter(1), metadata={op_name="reduce_sum"}
  ROOT %reduce_sum.649 = f32[] add(%reduce_sum.647, %reduce_sum.648), metadata={op_name="jit(predict_step)/FlaxUNet2DConditionModel/mid_block/resnets_0/norm1/reduce_sum" stack_frame_id=61}
}

%region_105.113 (reduce_sum.654: f32[], reduce_sum.655: f32[]) -> f32[] {
  %reduce_sum.654 = f32[] parameter(0), metadata={op_name="reduce_sum"}
  %reduce_sum.655 = f32[] parameter(1), metadata={op_name="reduce_sum"}
  ROOT %reduce_sum.656 = f32[] add(%reduce_sum.654, %reduce_sum.655), metadata={op_name="jit(predict_step)/FlaxUNet2DConditionModel/mid_block/resnets_0/norm1/reduce_sum" stack_frame_id=61}
}

%region_106.114 (reduce_sum.661: f32[], reduce_sum.662: f32[]) -> f32[] {
  %reduce_sum.661 = f32[] parameter(0), metadata={op_name="reduce_sum"}
  %reduce_sum.662 = f32[] parameter(1), metadata={op_name="reduce_sum"}
  ROOT %reduce_sum.663 = f32[] add(%reduce_sum.661, %reduce_sum.662), metadata={op_name="jit(predict_step)/FlaxUNet2DConditionModel/mid_block/resnets_0/norm2/reduce_sum" stack_frame_id=66}
}

%region_107.115 (reduce_sum.668: f32[], reduce_sum.669: f32[]) -> f32[] {
  %reduce_sum.668 = f32[] parameter(0), metadata={op_name="reduce_sum"}
  %reduce_sum.669 = f32[] parameter(1), metadata={op_name="reduce_sum"}
  ROOT %reduce_sum.670 = f32[] add(%reduce_sum.668, %reduce_sum.669), metadata={op_name="jit(predict_step)/FlaxUNet2DConditionModel/mid_block/resnets_0/norm2/reduce_sum" stack_frame_id=66}
}

%region_108.116 (reduce_sum.675: f32[], reduce_sum.676: f32[]) -> f32[] {
  %reduce_sum.675 = f32[] parameter(0), metadata={op_name="reduce_sum"}
  %reduce_sum.676 = f32[] parameter(1), metadata={op_name="reduce_sum"}
  ROOT %reduce_sum.677 = f32[] add(%reduce_sum.675, %reduce_sum.676), metadata={op_name="jit(predict_step)/FlaxUNet2DConditionModel/mid_block/attentions_0/norm/reduce_sum" stack_frame_id=72}
}

%region_109.117 (reduce_sum.682: f32[], reduce_sum.683: f32[]) -> f32[] {
  %reduce_sum.682 = f32[] parameter(0), metadata={op_name="reduce_sum"}
  %reduce_sum.683 = f32[] parameter(1), metadata={op_name="reduce_sum"}
  ROOT %reduce_sum.684 = f32[] add(%reduce_sum.682, %reduce_sum.683), metadata={op_name="jit(predict_step)/FlaxUNet2DConditionModel/mid_block/attentions_0/norm/reduce_sum" stack_frame_id=72}
}

%region_110.118 (reduce_sum.689: f32[], reduce_sum.690: f32[]) -> f32[] {
  %reduce_sum.689 = f32[] parameter(0), metadata={op_name="reduce_sum"}
  %reduce_sum.690 = f32[] parameter(1), metadata={op_name="reduce_sum"}
  ROOT %reduce_sum.691 = f32[] add(%reduce_sum.689, %reduce_sum.690), metadata={op_name="jit(predict_step)/FlaxUNet2DConditionModel/mid_block/attentions_0/transformer_blocks_0/norm1/reduce_sum" stack_frame_id=78}
}

%region_111.119 (reduce_sum.696: f32[], reduce_sum.697: f32[]) -> f32[] {
  %reduce_sum.696 = f32[] parameter(0), metadata={op_name="reduce_sum"}
  %reduce_sum.697 = f32[] parameter(1), metadata={op_name="reduce_sum"}
  ROOT %reduce_sum.698 = f32[] add(%reduce_sum.696, %reduce_sum.697), metadata={op_name="jit(predict_step)/FlaxUNet2DConditionModel/mid_block/attentions_0/transformer_blocks_0/norm1/reduce_sum" stack_frame_id=78}
}

%region_112.120 (reduce_max.87: f32[], reduce_max.88: f32[]) -> f32[] {
  %reduce_max.87 = f32[] parameter(0), metadata={op_name="reduce_max"}
  %reduce_max.88 = f32[] parameter(1), metadata={op_name="reduce_max"}
  ROOT %reduce_max.89 = f32[] maximum(%reduce_max.87, %reduce_max.88), metadata={op_name="jit(predict_step)/FlaxUNet2DConditionModel/mid_block/attentions_0/transformer_blocks_0/attn1/reduce_max" stack_frame_id=80}
}

%region_113.121 (reduce_sum.703: f32[], reduce_sum.704: f32[]) -> f32[] {
  %reduce_sum.703 = f32[] parameter(0), metadata={op_name="reduce_sum"}
  %reduce_sum.704 = f32[] parameter(1), metadata={op_name="reduce_sum"}
  ROOT %reduce_sum.705 = f32[] add(%reduce_sum.703, %reduce_sum.704), metadata={op_name="jit(predict_step)/FlaxUNet2DConditionModel/mid_block/attentions_0/transformer_blocks_0/attn1/reduce_sum" stack_frame_id=80}
}

%region_114.122 (reduce_sum.710: f32[], reduce_sum.711: f32[]) -> f32[] {
  %reduce_sum.710 = f32[] parameter(0), metadata={op_name="reduce_sum"}
  %reduce_sum.711 = f32[] parameter(1), metadata={op_name="reduce_sum"}
  ROOT %reduce_sum.712 = f32[] add(%reduce_sum.710, %reduce_sum.711), metadata={op_name="jit(predict_step)/FlaxUNet2DConditionModel/mid_block/attentions_0/transformer_blocks_0/norm2/reduce_sum" stack_frame_id=85}
}

%region_115.123 (reduce_sum.717: f32[], reduce_sum.718: f32[]) -> f32[] {
  %reduce_sum.717 = f32[] parameter(0), metadata={op_name="reduce_sum"}
  %reduce_sum.718 = f32[] parameter(1), metadata={op_name="reduce_sum"}
  ROOT %reduce_sum.719 = f32[] add(%reduce_sum.717, %reduce_sum.718), metadata={op_name="jit(predict_step)/FlaxUNet2DConditionModel/mid_block/attentions_0/transformer_blocks_0/norm2/reduce_sum" stack_frame_id=85}
}

%region_116.124 (reduce_max.94: f32[], reduce_max.95: f32[]) -> f32[] {
  %reduce_max.94 = f32[] parameter(0), metadata={op_name="reduce_max"}
  %reduce_max.95 = f32[] parameter(1), metadata={op_name="reduce_max"}
  ROOT %reduce_max.96 = f32[] maximum(%reduce_max.94, %reduce_max.95), metadata={op_name="jit(predict_step)/FlaxUNet2DConditionModel/mid_block/attentions_0/transformer_blocks_0/attn2/reduce_max" stack_frame_id=87}
}

%region_117.125 (reduce_sum.724: f32[], reduce_sum.725: f32[]) -> f32[] {
  %reduce_sum.724 = f32[] parameter(0), metadata={op_name="reduce_sum"}
  %reduce_sum.725 = f32[] parameter(1), metadata={op_name="reduce_sum"}
  ROOT %reduce_sum.726 = f32[] add(%reduce_sum.724, %reduce_sum.725), metadata={op_name="jit(predict_step)/FlaxUNet2DConditionModel/mid_block/attentions_0/transformer_blocks_0/attn2/reduce_sum" stack_frame_id=87}
}

%region_118.126 (reduce_sum.731: f32[], reduce_sum.732: f32[]) -> f32[] {
  %reduce_sum.731 = f32[] parameter(0), metadata={op_name="reduce_sum"}
  %reduce_sum.732 = f32[] parameter(1), metadata={op_name="reduce_sum"}
  ROOT %reduce_sum.733 = f32[] add(%reduce_sum.731, %reduce_sum.732), metadata={op_name="jit(predict_step)/FlaxUNet2DConditionModel/mid_block/attentions_0/transformer_blocks_0/norm3/reduce_sum" stack_frame_id=92}
}

%region_119.127 (reduce_sum.738: f32[], reduce_sum.739: f32[]) -> f32[] {
  %reduce_sum.738 = f32[] parameter(0), metadata={op_name="reduce_sum"}
  %reduce_sum.739 = f32[] parameter(1), metadata={op_name="reduce_sum"}
  ROOT %reduce_sum.740 = f32[] add(%reduce_sum.738, %reduce_sum.739), metadata={op_name="jit(predict_step)/FlaxUNet2DConditionModel/mid_block/attentions_0/transformer_blocks_0/norm3/reduce_sum" stack_frame_id=92}
}

%region_120.128 (reduce_sum.745: f32[], reduce_sum.746: f32[]) -> f32[] {
  %reduce_sum.745 = f32[] parameter(0), metadata={op_name="reduce_sum"}
  %reduce_sum.746 = f32[] parameter(1), metadata={op_name="reduce_sum"}
  ROOT %reduce_sum.747 = f32[] add(%reduce_sum.745, %reduce_sum.746), metadata={op_name="jit(predict_step)/FlaxUNet2DConditionModel/mid_block/resnets_1/norm1/reduce_sum" stack_frame_id=98}
}

%region_121.129 (reduce_sum.752: f32[], reduce_sum.753: f32[]) -> f32[] {
  %reduce_sum.752 = f32[] parameter(0), metadata={op_name="reduce_sum"}
  %reduce_sum.753 = f32[] parameter(1), metadata={op_name="reduce_sum"}
  ROOT %reduce_sum.754 = f32[] add(%reduce_sum.752, %reduce_sum.753), metadata={op_name="jit(predict_step)/FlaxUNet2DConditionModel/mid_block/resnets_1/norm1/reduce_sum" stack_frame_id=98}
}

%region_122.130 (reduce_sum.759: f32[], reduce_sum.760: f32[]) -> f32[] {
  %reduce_sum.759 = f32[] parameter(0), metadata={op_name="reduce_sum"}
  %reduce_sum.760 = f32[] parameter(1), metadata={op_name="reduce_sum"}
  ROOT %reduce_sum.761 = f32[] add(%reduce_sum.759, %reduce_sum.760), metadata={op_name="jit(predict_step)/FlaxUNet2DConditionModel/mid_block/resnets_1/norm2/reduce_sum" stack_frame_id=103}
}

%region_123.131 (reduce_sum.766: f32[], reduce_sum.767: f32[]) -> f32[] {
  %reduce_sum.766 = f32[] parameter(0), metadata={op_name="reduce_sum"}
  %reduce_sum.767 = f32[] parameter(1), metadata={op_name="reduce_sum"}
  ROOT %reduce_sum.768 = f32[] add(%reduce_sum.766, %reduce_sum.767), metadata={op_name="jit(predict_step)/FlaxUNet2DConditionModel/mid_block/resnets_1/norm2/reduce_sum" stack_frame_id=103}
}

%region_124.132 (reduce_sum.773: f32[], reduce_sum.774: f32[]) -> f32[] {
  %reduce_sum.773 = f32[] parameter(0), metadata={op_name="reduce_sum"}
  %reduce_sum.774 = f32[] parameter(1), metadata={op_name="reduce_sum"}
  ROOT %reduce_sum.775 = f32[] add(%reduce_sum.773, %reduce_sum.774), metadata={op_name="jit(predict_step)/FlaxUNet2DConditionModel/up_blocks_0/resnets_0/norm1/reduce_sum" stack_frame_id=110}
}

%region_125.133 (reduce_sum.780: f32[], reduce_sum.781: f32[]) -> f32[] {
  %reduce_sum.780 = f32[] parameter(0), metadata={op_name="reduce_sum"}
  %reduce_sum.781 = f32[] parameter(1), metadata={op_name="reduce_sum"}
  ROOT %reduce_sum.782 = f32[] add(%reduce_sum.780, %reduce_sum.781), metadata={op_name="jit(predict_step)/FlaxUNet2DConditionModel/up_blocks_0/resnets_0/norm1/reduce_sum" stack_frame_id=110}
}

%silu_6.134 (Arg_0.15: f32[2,8,8,2560]) -> f32[2,8,8,2560] {
  %Arg_0.15 = f32[2,8,8,2560]{3,2,1,0} parameter(0)
  %constant.75 = f32[] constant(1)
  %broadcast.66 = f32[2,8,8,2560]{3,2,1,0} broadcast(%constant.75), dimensions={}
  %neg.15 = f32[2,8,8,2560]{3,2,1,0} negate(%Arg_0.15), metadata={op_name="neg"}
  %exp.30 = f32[2,8,8,2560]{3,2,1,0} exponential(%neg.15), metadata={op_name="exp"}
  %add.673 = f32[2,8,8,2560]{3,2,1,0} add(%exp.30, %broadcast.66), metadata={op_name="add"}
  %div.169 = f32[2,8,8,2560]{3,2,1,0} divide(%broadcast.66, %add.673), metadata={op_name="div"}
  ROOT %mul.470 = f32[2,8,8,2560]{3,2,1,0} multiply(%Arg_0.15, %div.169), metadata={op_name="mul"}
}

%region_126.135 (reduce_sum.787: f32[], reduce_sum.788: f32[]) -> f32[] {
  %reduce_sum.787 = f32[] parameter(0), metadata={op_name="reduce_sum"}
  %reduce_sum.788 = f32[] parameter(1), metadata={op_name="reduce_sum"}
  ROOT %reduce_sum.789 = f32[] add(%reduce_sum.787, %reduce_sum.788), metadata={op_name="jit(predict_step)/FlaxUNet2DConditionModel/up_blocks_0/resnets_0/norm2/reduce_sum" stack_frame_id=115}
}

%region_127.136 (reduce_sum.794: f32[], reduce_sum.795: f32[]) -> f32[] {
  %reduce_sum.794 = f32[] parameter(0), metadata={op_name="reduce_sum"}
  %reduce_sum.795 = f32[] parameter(1), metadata={op_name="reduce_sum"}
  ROOT %reduce_sum.796 = f32[] add(%reduce_sum.794, %reduce_sum.795), metadata={op_name="jit(predict_step)/FlaxUNet2DConditionModel/up_blocks_0/resnets_0/norm2/reduce_sum" stack_frame_id=115}
}

%region_128.137 (reduce_sum.801: f32[], reduce_sum.802: f32[]) -> f32[] {
  %reduce_sum.801 = f32[] parameter(0), metadata={op_name="reduce_sum"}
  %reduce_sum.802 = f32[] parameter(1), metadata={op_name="reduce_sum"}
  ROOT %reduce_sum.803 = f32[] add(%reduce_sum.801, %reduce_sum.802), metadata={op_name="jit(predict_step)/FlaxUNet2DConditionModel/up_blocks_0/resnets_1/norm1/reduce_sum" stack_frame_id=110}
}

%region_129.138 (reduce_sum.808: f32[], reduce_sum.809: f32[]) -> f32[] {
  %reduce_sum.808 = f32[] parameter(0), metadata={op_name="reduce_sum"}
  %reduce_sum.809 = f32[] parameter(1), metadata={op_name="reduce_sum"}
  ROOT %reduce_sum.810 = f32[] add(%reduce_sum.808, %reduce_sum.809), metadata={op_name="jit(predict_step)/FlaxUNet2DConditionModel/up_blocks_0/resnets_1/norm1/reduce_sum" stack_frame_id=110}
}

%region_130.139 (reduce_sum.815: f32[], reduce_sum.816: f32[]) -> f32[] {
  %reduce_sum.815 = f32[] parameter(0), metadata={op_name="reduce_sum"}
  %reduce_sum.816 = f32[] parameter(1), metadata={op_name="reduce_sum"}
  ROOT %reduce_sum.817 = f32[] add(%reduce_sum.815, %reduce_sum.816), metadata={op_name="jit(predict_step)/FlaxUNet2DConditionModel/up_blocks_0/resnets_1/norm2/reduce_sum" stack_frame_id=115}
}

%region_131.140 (reduce_sum.822: f32[], reduce_sum.823: f32[]) -> f32[] {
  %reduce_sum.822 = f32[] parameter(0), metadata={op_name="reduce_sum"}
  %reduce_sum.823 = f32[] parameter(1), metadata={op_name="reduce_sum"}
  ROOT %reduce_sum.824 = f32[] add(%reduce_sum.822, %reduce_sum.823), metadata={op_name="jit(predict_step)/FlaxUNet2DConditionModel/up_blocks_0/resnets_1/norm2/reduce_sum" stack_frame_id=115}
}

%region_132.141 (reduce_sum.829: f32[], reduce_sum.830: f32[]) -> f32[] {
  %reduce_sum.829 = f32[] parameter(0), metadata={op_name="reduce_sum"}
  %reduce_sum.830 = f32[] parameter(1), metadata={op_name="reduce_sum"}
  ROOT %reduce_sum.831 = f32[] add(%reduce_sum.829, %reduce_sum.830), metadata={op_name="jit(predict_step)/FlaxUNet2DConditionModel/up_blocks_0/resnets_2/norm1/reduce_sum" stack_frame_id=110}
}

%region_133.142 (reduce_sum.836: f32[], reduce_sum.837: f32[]) -> f32[] {
  %reduce_sum.836 = f32[] parameter(0), metadata={op_name="reduce_sum"}
  %reduce_sum.837 = f32[] parameter(1), metadata={op_name="reduce_sum"}
  ROOT %reduce_sum.838 = f32[] add(%reduce_sum.836, %reduce_sum.837), metadata={op_name="jit(predict_step)/FlaxUNet2DConditionModel/up_blocks_0/resnets_2/norm1/reduce_sum" stack_frame_id=110}
}

%region_134.143 (reduce_sum.843: f32[], reduce_sum.844: f32[]) -> f32[] {
  %reduce_sum.843 = f32[] parameter(0), metadata={op_name="reduce_sum"}
  %reduce_sum.844 = f32[] parameter(1), metadata={op_name="reduce_sum"}
  ROOT %reduce_sum.845 = f32[] add(%reduce_sum.843, %reduce_sum.844), metadata={op_name="jit(predict_step)/FlaxUNet2DConditionModel/up_blocks_0/resnets_2/norm2/reduce_sum" stack_frame_id=115}
}

%region_135.144 (reduce_sum.850: f32[], reduce_sum.851: f32[]) -> f32[] {
  %reduce_sum.850 = f32[] parameter(0), metadata={op_name="reduce_sum"}
  %reduce_sum.851 = f32[] parameter(1), metadata={op_name="reduce_sum"}
  ROOT %reduce_sum.852 = f32[] add(%reduce_sum.850, %reduce_sum.851), metadata={op_name="jit(predict_step)/FlaxUNet2DConditionModel/up_blocks_0/resnets_2/norm2/reduce_sum" stack_frame_id=115}
}

%_resize.145 (Arg_0.17: f32[2,8,8,1280]) -> f32[2,16,16,1280] {
  %Arg_0.17 = f32[2,8,8,1280]{3,2,1,0} parameter(0)
  %iota.3 = f32[16]{0} iota(), iota_dimension=0, metadata={op_name="iota"}
  %constant.85 = f32[] constant(0.5)
  %broadcast.76 = f32[16]{0} broadcast(%constant.85), dimensions={}
  %add.766 = f32[16]{0} add(%iota.3, %broadcast.76), metadata={op_name="add"}
  %constant.84 = f32[] constant(8)
  %broadcast.75 = f32[16]{0} broadcast(%constant.84), dimensions={}
  %mul.513 = f32[16]{0} multiply(%add.766, %broadcast.75), metadata={op_name="mul"}
  %constant.83 = f32[] constant(16)
  %broadcast.74 = f32[16]{0} broadcast(%constant.83), dimensions={}
  %div.182 = f32[16]{0} divide(%mul.513, %broadcast.74), metadata={op_name="div"}
  %floor.2 = f32[16]{0} floor(%div.182), metadata={op_name="floor"}
  %convert_element_type.337 = s32[16]{0} convert(%floor.2), metadata={op_name="convert_element_type"}
  %constant.82 = s32[] constant(0)
  %broadcast.73 = s32[16]{0} broadcast(%constant.82), dimensions={}
  %lt.2 = pred[16]{0} compare(%convert_element_type.337, %broadcast.73), direction=LT, metadata={op_name="lt"}
  %constant.81 = s32[] constant(8)
  %broadcast.72 = s32[16]{0} broadcast(%constant.81), dimensions={}
  %add.767 = s32[16]{0} add(%convert_element_type.337, %broadcast.72), metadata={op_name="add"}
  %select_n.2 = s32[16]{0} select(%lt.2, %add.767, %convert_element_type.337), metadata={op_name="select_n"}
  %broadcast_in_dim.153 = s32[16,1]{1,0} reshape(%select_n.2), metadata={op_name="broadcast_in_dim"}
  %gather.2 = f32[2,16,8,1280]{3,2,1,0} gather(%Arg_0.17, %broadcast_in_dim.153), offset_dims={0,2,3}, collapsed_slice_dims={1}, start_index_map={1}, index_vector_dim=1, slice_sizes={2,1,8,1280}, metadata={op_name="gather"}
  %iota.4 = f32[16]{0} iota(), iota_dimension=0, metadata={op_name="iota"}
  %add.768 = f32[16]{0} add(%iota.4, %broadcast.76), metadata={op_name="add"}
  %mul.514 = f32[16]{0} multiply(%add.768, %broadcast.75), metadata={op_name="mul"}
  %div.183 = f32[16]{0} divide(%mul.514, %broadcast.74), metadata={op_name="div"}
  %floor.3 = f32[16]{0} floor(%div.183), metadata={op_name="floor"}
  %convert_element_type.338 = s32[16]{0} convert(%floor.3), metadata={op_name="convert_element_type"}
  %lt.3 = pred[16]{0} compare(%convert_element_type.338, %broadcast.73), direction=LT, metadata={op_name="lt"}
  %add.769 = s32[16]{0} add(%convert_element_type.338, %broadcast.72), metadata={op_name="add"}
  %select_n.3 = s32[16]{0} select(%lt.3, %add.769, %convert_element_type.338), metadata={op_name="select_n"}
  %broadcast_in_dim.154 = s32[16,1]{1,0} reshape(%select_n.3), metadata={op_name="broadcast_in_dim"}
  ROOT %gather.3 = f32[2,16,16,1280]{3,2,1,0} gather(%gather.2, %broadcast_in_dim.154), offset_dims={0,1,3}, collapsed_slice_dims={2}, start_index_map={2}, index_vector_dim=1, slice_sizes={2,16,1,1280}, metadata={op_name="gather"}
}

%region_136.146 (reduce_sum.857: f32[], reduce_sum.858: f32[]) -> f32[] {
…
  %add.3002 = f32[320]{0} reshape(%add.3001), metadata={op_name="jit(predict_step)/FlaxUNet2DConditionModel/up_blocks_3/attentions_2/transformer_blocks_0/attn1/to_out_0/add" stack_frame_id=1012}
  %add.3003 = f32[2,4096,320]{2,1,0} broadcast(%add.3002), dimensions={2}, metadata={op_name="jit(predict_step)/FlaxUNet2DConditionModel/up_blocks_3/attentions_2/transformer_blocks_0/attn1/to_out_0/add" stack_frame_id=1012}
  %add.3004 = f32[2,4096,320]{2,1,0} add(%dot_general.487, %add.3003), metadata={op_name="jit(predict_step)/FlaxUNet2DConditionModel/up_blocks_3/attentions_2/transformer_blocks_0/attn1/to_out_0/add" stack_frame_id=1012}
  %add.3005 = f32[2,4096,320]{2,1,0} add(%add.3004, %reshape.1715), metadata={op_name="jit(predict_step)/FlaxUNet2DConditionModel/up_blocks_3/attentions_2/transformer_blocks_0/add" stack_frame_id=1013}
  %reduce_sum.1993 = f32[2,4096]{1,0} reduce(%add.3005, %constant.179), dimensions={2}, to_apply=%region_274.293, metadata={op_name="jit(predict_step)/FlaxUNet2DConditionModel/up_blocks_3/attentions_2/transformer_blocks_0/norm2/reduce_sum" stack_frame_id=146}
  %div.724 = f32[2,4096]{1,0} divide(%reduce_sum.1993, %broadcast.158), metadata={op_name="jit(predict_step)/FlaxUNet2DConditionModel/up_blocks_3/attentions_2/transformer_blocks_0/norm2/div" stack_frame_id=146}
  %broadcast_in_dim.616 = f32[2,4096,1]{2,1,0} reshape(%div.724), metadata={op_name="jit(predict_step)/FlaxUNet2DConditionModel/up_blocks_3/attentions_2/transformer_blocks_0/norm2/broadcast_in_dim" stack_frame_id=1015}
  %sub.1328 = f32[2,4096,1]{2,1,0} broadcast(%broadcast_in_dim.616), dimensions={0,1,2}, metadata={op_name="jit(predict_step)/FlaxUNet2DConditionModel/up_blocks_3/attentions_2/transformer_blocks_0/norm2/sub" stack_frame_id=1016}
  %sub.1329 = f32[2,4096]{1,0} reshape(%sub.1328), metadata={op_name="jit(predict_step)/FlaxUNet2DConditionModel/up_blocks_3/attentions_2/transformer_blocks_0/norm2/sub" stack_frame_id=1016}
  %sub.1330 = f32[2,4096,320]{2,1,0} broadcast(%sub.1329), dimensions={0,1}, metadata={op_name="jit(predict_step)/FlaxUNet2DConditionModel/up_blocks_3/attentions_2/transformer_blocks_0/norm2/sub" stack_frame_id=1016}
  %sub.1331 = f32[2,4096,320]{2,1,0} subtract(%add.3005, %sub.1330), metadata={op_name="jit(predict_step)/FlaxUNet2DConditionModel/up_blocks_3/attentions_2/transformer_blocks_0/norm2/sub" stack_frame_id=1016}
  %square.430 = f32[2,4096,320]{2,1,0} multiply(%add.3005, %add.3005), metadata={op_name="jit(predict_step)/FlaxUNet2DConditionModel/up_blocks_3/attentions_2/transformer_blocks_0/norm2/square" stack_frame_id=1018}
  %reduce_sum.1994 = f32[2,4096]{1,0} reduce(%square.430, %constant.179), dimensions={2}, to_apply=%region_275.294, metadata={op_name="jit(predict_step)/FlaxUNet2DConditionModel/up_blocks_3/attentions_2/transformer_blocks_0/norm2/reduce_sum" stack_frame_id=146}
  %div.725 = f32[2,4096]{1,0} divide(%reduce_sum.1994, %broadcast.158), metadata={op_name="jit(predict_step)/FlaxUNet2DConditionModel/up_blocks_3/attentions_2/transformer_blocks_0/norm2/div" stack_frame_id=146}
  %square.431 = f32[2,4096]{1,0} multiply(%div.724, %div.724), metadata={op_name="jit(predict_step)/FlaxUNet2DConditionModel/up_blocks_3/attentions_2/transformer_blocks_0/norm2/square" stack_frame_id=1020}
  %sub.1327 = f32[2,4096]{1,0} subtract(%div.725, %square.431), metadata={op_name="jit(predict_step)/FlaxUNet2DConditionModel/up_blocks_3/attentions_2/transformer_blocks_0/norm2/sub" stack_frame_id=1021}
  %max.278 = f32[2,4096]{1,0} maximum(%sub.1327, %broadcast.157), metadata={op_name="jit(predict_step)/FlaxUNet2DConditionModel/up_blocks_3/attentions_2/transformer_blocks_0/norm2/max" stack_frame_id=1022}
  %broadcast_in_dim.617 = f32[2,4096,1]{2,1,0} reshape(%max.278), metadata={op_name="jit(predict_step)/FlaxUNet2DConditionModel/up_blocks_3/attentions_2/transformer_blocks_0/norm2/broadcast_in_dim" stack_frame_id=1023}
  %add.3006 = f32[2,4096,1]{2,1,0} add(%broadcast_in_dim.617, %broadcast.156), metadata={op_name="jit(predict_step)/FlaxUNet2DConditionModel/up_blocks_3/attentions_2/transformer_blocks_0/norm2/add" stack_frame_id=1024}
  %rsqrt.215 = f32[2,4096,1]{2,1,0} rsqrt(%add.3006), metadata={op_name="jit(predict_step)/FlaxUNet2DConditionModel/up_blocks_3/attentions_2/transformer_blocks_0/norm2/rsqrt" stack_frame_id=1025}
  %mul.2008 = f32[2,4096,1]{2,1,0} broadcast(%rsqrt.215), dimensions={0,1,2}, metadata={op_name="jit(predict_step)/FlaxUNet2DConditionModel/up_blocks_3/attentions_2/transformer_blocks_0/norm2/mul" stack_frame_id=1026}
  %mul.2009 = f32[2,4096]{1,0} reshape(%mul.2008), metadata={op_name="jit(predict_step)/FlaxUNet2DConditionModel/up_blocks_3/attentions_2/transformer_blocks_0/norm2/mul" stack_frame_id=1026}
  %mul.2010 = f32[2,4096,320]{2,1,0} broadcast(%mul.2009), dimensions={0,1}, metadata={op_name="jit(predict_step)/FlaxUNet2DConditionModel/up_blocks_3/attentions_2/transformer_blocks_0/norm2/mul" stack_frame_id=1026}
  %variables__up_blocks_3____attentions_2____transformer_blocks_0____norm2____scale__.1 = bf16[320]{0} parameter(647), sharding={devices=[2]<=[2]}, frontend_attributes={xla.sdy.sharding="#sdy.sharding<@mesh, [{\"fsdp\"}]>"}, metadata={op_name="variables[\'up_blocks_3\'][\'attentions_2\'][\'transformer_blocks_0\'][\'norm2\'][\'scale\']"}
  %reshape.1727 = bf16[1,1,320]{2,1,0} reshape(%variables__up_blocks_3____attentions_2____transformer_blocks_0____norm2____scale__.1), metadata={op_name="jit(predict_step)/FlaxUNet2DConditionModel/up_blocks_3/attentions_2/transformer_blocks_0/norm2/reshape" stack_frame_id=1027}
  %convert_element_type.1367 = f32[1,1,320]{2,1,0} convert(%reshape.1727), metadata={op_name="jit(predict_step)/FlaxUNet2DConditionModel/up_blocks_3/attentions_2/transformer_blocks_0/norm2/convert_element_type" stack_frame_id=1026}
  %mul.2011 = f32[1,1,320]{2,1,0} broadcast(%convert_element_type.1367), dimensions={0,1,2}, metadata={op_name="jit(predict_step)/FlaxUNet2DConditionModel/up_blocks_3/attentions_2/transformer_blocks_0/norm2/mul" stack_frame_id=1026}
  %mul.2012 = f32[320]{0} reshape(%mul.2011), metadata={op_name="jit(predict_step)/FlaxUNet2DConditionModel/up_blocks_3/attentions_2/transformer_blocks_0/norm2/mul" stack_frame_id=1026}
  %mul.2013 = f32[2,4096,320]{2,1,0} broadcast(%mul.2012), dimensions={2}, metadata={op_name="jit(predict_step)/FlaxUNet2DConditionModel/up_blocks_3/attentions_2/transformer_blocks_0/norm2/mul" stack_frame_id=1026}
  %mul.2014 = f32[2,4096,320]{2,1,0} multiply(%mul.2010, %mul.2013), metadata={op_name="jit(predict_step)/FlaxUNet2DConditionModel/up_blocks_3/attentions_2/transformer_blocks_0/norm2/mul" stack_frame_id=1026}
  %mul.2015 = f32[2,4096,320]{2,1,0} multiply(%sub.1331, %mul.2014), metadata={op_name="jit(predict_step)/FlaxUNet2DConditionModel/up_blocks_3/attentions_2/transformer_blocks_0/norm2/mul" stack_frame_id=1028}
  %variables__up_blocks_3____attentions_2____transformer_blocks_0____norm2____bias__.1 = bf16[320]{0} parameter(646), sharding={devices=[2]<=[2]}, frontend_attributes={xla.sdy.sharding="#sdy.sharding<@mesh, [{\"fsdp\"}]>"}, metadata={op_name="variables[\'up_blocks_3\'][\'attentions_2\'][\'transformer_blocks_0\'][\'norm2\'][\'bias\']"}
  %reshape.1728 = bf16[1,1,320]{2,1,0} reshape(%variables__up_blocks_3____attentions_2____transformer_blocks_0____norm2____bias__.1), metadata={op_name="jit(predict_step)/FlaxUNet2DConditionModel/up_blocks_3/attentions_2/transformer_blocks_0/norm2/reshape" stack_frame_id=1029}
  %convert_element_type.1368 = f32[1,1,320]{2,1,0} convert(%reshape.1728), metadata={op_name="jit(predict_step)/FlaxUNet2DConditionModel/up_blocks_3/attentions_2/transformer_blocks_0/norm2/convert_element_type" stack_frame_id=1030}
  %add.3007 = f32[1,1,320]{2,1,0} broadcast(%convert_element_type.1368), dimensions={0,1,2}, metadata={op_name="jit(predict_step)/FlaxUNet2DConditionModel/up_blocks_3/attentions_2/transformer_blocks_0/norm2/add" stack_frame_id=1030}
  %add.3008 = f32[320]{0} reshape(%add.3007), metadata={op_name="jit(predict_step)/FlaxUNet2DConditionModel/up_blocks_3/attentions_2/transformer_blocks_0/norm2/add" stack_frame_id=1030}
  %add.3009 = f32[2,4096,320]{2,1,0} broadcast(%add.3008), dimensions={2}, metadata={op_name="jit(predict_step)/FlaxUNet2DConditionModel/up_blocks_3/attentions_2/transformer_blocks_0/norm2/add" stack_frame_id=1030}
  %add.3010 = f32[2,4096,320]{2,1,0} add(%mul.2015, %add.3009), metadata={op_name="jit(predict_step)/FlaxUNet2DConditionModel/up_blocks_3/attentions_2/transformer_blocks_0/norm2/add" stack_frame_id=1030}
  %variables__up_blocks_3____attentions_2____transformer_blocks_0____attn2____to_q____kernel__.1 = bf16[320,320]{1,0} parameter(638), sharding={devices=[2,1]<=[2]}, frontend_attributes={xla.sdy.sharding="#sdy.sharding<@mesh, [{\"fsdp\"}, {}]>"}, metadata={op_name="variables[\'up_blocks_3\'][\'attentions_2\'][\'transformer_blocks_0\'][\'attn2\'][\'to_q\'][\'kernel\']"}
  %convert_element_type.1369 = f32[320,320]{1,0} convert(%variables__up_blocks_3____attentions_2____transformer_blocks_0____attn2____to_q____kernel__.1), metadata={op_name="jit(predict_step)/FlaxUNet2DConditionModel/up_blocks_3/attentions_2/transformer_blocks_0/attn2/to_q/convert_element_type" stack_frame_id=1033}
  %dot_general.488 = f32[2,4096,320]{2,1,0} dot(%add.3010, %convert_element_type.1369), lhs_contracting_dims={2}, rhs_contracting_dims={0}, metadata={op_name="jit(predict_step)/FlaxUNet2DConditionModel/up_blocks_3/attentions_2/transformer_blocks_0/attn2/to_q/dot_general" stack_frame_id=1034}
  %reshape.1729 = f32[2,4096,8,40]{3,2,1,0} reshape(%dot_general.488), metadata={op_name="jit(predict_step)/FlaxUNet2DConditionModel/up_blocks_3/attentions_2/transformer_blocks_0/attn2/attn2.reshape_heads_to_batch_dim/reshape" stack_frame_id=1036}
  %transpose.256 = f32[2,8,4096,40]{3,1,2,0} transpose(%reshape.1729), dimensions={0,2,1,3}, metadata={op_name="jit(predict_step)/FlaxUNet2DConditionModel/up_blocks_3/attentions_2/transformer_blocks_0/attn2/attn2.reshape_heads_to_batch_dim/transpose" stack_frame_id=1037}
  %reshape.1730 = f32[16,4096,40]{2,1,0} reshape(%transpose.256), metadata={op_name="jit(predict_step)/FlaxUNet2DConditionModel/up_blocks_3/attentions_2/transformer_blocks_0/attn2/attn2.reshape_heads_to_batch_dim/reshape" stack_frame_id=1038}
  %variables__up_blocks_3____attentions_2____transformer_blocks_0____attn2____to_k____kernel__.1 = bf16[768,320]{1,0} parameter(635), sharding={devices=[2,1]<=[2]}, frontend_attributes={xla.sdy.sharding="#sdy.sharding<@mesh, [{\"fsdp\"}, {}]>"}, metadata={op_name="variables[\'up_blocks_3\'][\'attentions_2\'][\'transformer_blocks_0\'][\'attn2\'][\'to_k\'][\'kernel\']"}
  %convert_element_type.1370 = f32[768,320]{1,0} convert(%variables__up_blocks_3____attentions_2____transformer_blocks_0____attn2____to_k____kernel__.1), metadata={op_name="jit(predict_step)/FlaxUNet2DConditionModel/up_blocks_3/attentions_2/transformer_blocks_0/attn2/to_k/convert_element_type" stack_frame_id=1041}
  %dot_general.489 = f32[2,77,320]{2,1,0} dot(%inputs_2_.1, %convert_element_type.1370), lhs_contracting_dims={2}, rhs_contracting_dims={0}, metadata={op_name="jit(predict_step)/FlaxUNet2DConditionModel/up_blocks_3/attentions_2/transformer_blocks_0/attn2/to_k/dot_general" stack_frame_id=1042}
  %reshape.1731 = f32[2,77,8,40]{3,2,1,0} reshape(%dot_general.489), metadata={op_name="jit(predict_step)/FlaxUNet2DConditionModel/up_blocks_3/attentions_2/transformer_blocks_0/attn2/attn2.reshape_heads_to_batch_dim/reshape" stack_frame_id=1044}
  %transpose.257 = f32[2,8,77,40]{3,1,2,0} transpose(%reshape.1731), dimensions={0,2,1,3}, metadata={op_name="jit(predict_step)/FlaxUNet2DConditionModel/up_blocks_3/attentions_2/transformer_blocks_0/attn2/attn2.reshape_heads_to_batch_dim/transpose" stack_frame_id=1045}
  %reshape.1732 = f32[16,77,40]{2,1,0} reshape(%transpose.257), metadata={op_name="jit(predict_step)/FlaxUNet2DConditionModel/up_blocks_3/attentions_2/transformer_blocks_0/attn2/attn2.reshape_heads_to_batch_dim/reshape" stack_frame_id=1046}
  %dot_general.491 = f32[16,4096,77]{2,1,0} dot(%reshape.1730, %reshape.1732), lhs_batch_dims={0}, lhs_contracting_dims={2}, rhs_batch_dims={0}, rhs_contracting_dims={2}, metadata={op_name="jit(predict_step)/FlaxUNet2DConditionModel/up_blocks_3/attentions_2/transformer_blocks_0/attn2/b i d, b j d->b i j/dot_general" stack_frame_id=1047}
  %mul.2016 = f32[16,4096,77]{2,1,0} multiply(%dot_general.491, %broadcast.153), metadata={op_name="jit(predict_step)/FlaxUNet2DConditionModel/up_blocks_3/attentions_2/transformer_blocks_0/attn2/mul" stack_frame_id=1048}
  %reduce_max.255 = f32[16,4096]{1,0} reduce(%mul.2016, %constant.178), dimensions={2}, to_apply=%region_276.295, metadata={op_name="jit(predict_step)/FlaxUNet2DConditionModel/up_blocks_3/attentions_2/transformer_blocks_0/attn2/reduce_max" stack_frame_id=148}
  %max.279 = f32[16,4096]{1,0} maximum(%reduce_max.255, %broadcast.154), metadata={op_name="jit(predict_step)/FlaxUNet2DConditionModel/up_blocks_3/attentions_2/transformer_blocks_0/attn2/max" stack_frame_id=148}
  %broadcast_in_dim.618 = f32[16,4096,1]{2,1,0} reshape(%max.279), metadata={op_name="jit(predict_step)/FlaxUNet2DConditionModel/up_blocks_3/attentions_2/transformer_blocks_0/attn2/broadcast_in_dim" stack_frame_id=148}
  %sub.1332 = f32[16,4096,1]{2,1,0} broadcast(%broadcast_in_dim.618), dimensions={0,1,2}, metadata={op_name="jit(predict_step)/FlaxUNet2DConditionModel/up_blocks_3/attentions_2/transformer_blocks_0/attn2/sub" stack_frame_id=148}
  %sub.1333 = f32[16,4096]{1,0} reshape(%sub.1332), metadata={op_name="jit(predict_step)/FlaxUNet2DConditionModel/up_blocks_3/attentions_2/transformer_blocks_0/attn2/sub" stack_frame_id=148}
  %sub.1334 = f32[16,4096,77]{2,1,0} broadcast(%sub.1333), dimensions={0,1}, metadata={op_name="jit(predict_step)/FlaxUNet2DConditionModel/up_blocks_3/attentions_2/transformer_blocks_0/attn2/sub" stack_frame_id=148}
  %sub.1335 = f32[16,4096,77]{2,1,0} subtract(%mul.2016, %sub.1334), metadata={op_name="jit(predict_step)/FlaxUNet2DConditionModel/up_blocks_3/attentions_2/transformer_blocks_0/attn2/sub" stack_frame_id=148}
  %exp.95 = f32[16,4096,77]{2,1,0} exponential(%sub.1335), metadata={op_name="jit(predict_step)/FlaxUNet2DConditionModel/up_blocks_3/attentions_2/transformer_blocks_0/attn2/exp" stack_frame_id=148}
  %reduce_sum.1995 = f32[16,4096]{1,0} reduce(%exp.95, %constant.179), dimensions={2}, to_apply=%region_277.296, metadata={op_name="jit(predict_step)/FlaxUNet2DConditionModel/up_blocks_3/attentions_2/transformer_blocks_0/attn2/reduce_sum" stack_frame_id=148}
  %broadcast_in_dim.619 = f32[16,4096,1]{2,1,0} reshape(%reduce_sum.1995), metadata={op_name="jit(predict_step)/FlaxUNet2DConditionModel/up_blocks_3/attentions_2/transformer_blocks_0/attn2/broadcast_in_dim" stack_frame_id=148}
  %div.726 = f32[16,4096,1]{2,1,0} broadcast(%broadcast_in_dim.619), dimensions={0,1,2}, metadata={op_name="jit(predict_step)/FlaxUNet2DConditionModel/up_blocks_3/attentions_2/transformer_blocks_0/attn2/div" stack_frame_id=148}
  %div.727 = f32[16,4096]{1,0} reshape(%div.726), metadata={op_name="jit(predict_step)/FlaxUNet2DConditionModel/up_blocks_3/attentions_2/transformer_blocks_0/attn2/div" stack_frame_id=148}
  %div.728 = f32[16,4096,77]{2,1,0} broadcast(%div.727), dimensions={0,1}, metadata={op_name="jit(predict_step)/FlaxUNet2DConditionModel/up_blocks_3/attentions_2/transformer_blocks_0/attn2/div" stack_frame_id=148}
  %div.729 = f32[16,4096,77]{2,1,0} divide(%exp.95, %div.728), metadata={op_name="jit(predict_step)/FlaxUNet2DConditionModel/up_blocks_3/attentions_2/transformer_blocks_0/attn2/div" stack_frame_id=148}
  %variables__up_blocks_3____attentions_2____transformer_blocks_0____attn2____to_v____kernel__.1 = bf16[768,320]{1,0} parameter(639), sharding={devices=[2,1]<=[2]}, frontend_attributes={xla.sdy.sharding="#sdy.sharding<@mesh, [{\"fsdp\"}, {}]>"}, metadata={op_name="variables[\'up_blocks_3\'][\'attentions_2\'][\'transformer_blocks_0\'][\'attn2\'][\'to_v\'][\'kernel\']"}
  %convert_element_type.1371 = f32[768,320]{1,0} convert(%variables__up_blocks_3____attentions_2____transformer_blocks_0____attn2____to_v____kernel__.1), metadata={op_name="jit(predict_step)/FlaxUNet2DConditionModel/up_blocks_3/attentions_2/transformer_blocks_0/attn2/to_v/convert_element_type" stack_frame_id=1051}
  %dot_general.490 = f32[2,77,320]{2,1,0} dot(%inputs_2_.1, %convert_element_type.1371), lhs_contracting_dims={2}, rhs_contracting_dims={0}, metadata={op_name="jit(predict_step)/FlaxUNet2DConditionModel/up_blocks_3/attentions_2/transformer_blocks_0/attn2/to_v/dot_general" stack_frame_id=1052}
  %reshape.1733 = f32[2,77,8,40]{3,2,1,0} reshape(%dot_general.490), metadata={op_name="jit(predict_step)/FlaxUNet2DConditionModel/up_blocks_3/attentions_2/transformer_blocks_0/attn2/attn2.reshape_heads_to_batch_dim/reshape" stack_frame_id=1054}
  %transpose.258 = f32[2,8,77,40]{3,1,2,0} transpose(%reshape.1733), dimensions={0,2,1,3}, metadata={op_name="jit(predict_step)/FlaxUNet2DConditionModel/up_blocks_3/attentions_2/transformer_blocks_0/attn2/attn2.reshape_heads_to_batch_dim/transpose" stack_frame_id=1055}
  %reshape.1734 = f32[16,77,40]{2,1,0} reshape(%transpose.258), metadata={op_name="jit(predict_step)/FlaxUNet2DConditionModel/up_blocks_3/attentions_2/transformer_blocks_0/attn2/attn2.reshape_heads_to_batch_dim/reshape" stack_frame_id=1056}
  %dot_general.492 = f32[16,4096,40]{2,1,0} dot(%div.729, %reshape.1734), lhs_batch_dims={0}, lhs_contracting_dims={2}, rhs_batch_dims={0}, rhs_contracting_dims={1}, metadata={op_name="jit(predict_step)/FlaxUNet2DConditionModel/up_blocks_3/attentions_2/transformer_blocks_0/attn2/b i j, b j d -> b i d/dot_general" stack_frame_id=1057}
  %reshape.1735 = f32[2,8,4096,40]{3,2,1,0} reshape(%dot_general.492), metadata={op_name="jit(predict_step)/FlaxUNet2DConditionModel/up_blocks_3/attentions_2/transformer_blocks_0/attn2/attn2.reshape_batch_dim_to_heads/reshape" stack_frame_id=1059}
  %transpose.259 = f32[2,4096,8,40]{3,1,2,0} transpose(%reshape.1735), dimensions={0,2,1,3}, metadata={op_name="jit(predict_step)/FlaxUNet2DConditionModel/up_blocks_3/attentions_2/transformer_blocks_0/attn2/attn2.reshape_batch_dim_to_heads/transpose" stack_frame_id=1060}
  %reshape.1736 = f32[2,4096,320]{2,1,0} reshape(%transpose.259), metadata={op_name="jit(predict_step)/FlaxUNet2DConditionModel/up_blocks_3/attentions_2/transformer_blocks_0/attn2/attn2.reshape_batch_dim_to_heads/reshape" stack_frame_id=1061}
  %variables__up_blocks_3____attentions_2____transformer_blocks_0____attn2____to_out_0____kernel__.1 = bf16[320,320]{1,0} parameter(637), sharding={devices=[2,1]<=[2]}, frontend_attributes={xla.sdy.sharding="#sdy.sharding<@mesh, [{\"fsdp\"}, {}]>"}, metadata={op_name="variables[\'up_blocks_3\'][\'attentions_2\'][\'transformer_blocks_0\'][\'attn2\'][\'to_out_0\'][\'kernel\']"}
  %convert_element_type.1372 = f32[320,320]{1,0} convert(%variables__up_blocks_3____attentions_2____transformer_blocks_0____attn2____to_out_0____kernel__.1), metadata={op_name="jit(predict_step)/FlaxUNet2DConditionModel/up_blocks_3/attentions_2/transformer_blocks_0/attn2/to_out_0/convert_element_type" stack_frame_id=1064}
  %dot_general.493 = f32[2,4096,320]{2,1,0} dot(%reshape.1736, %convert_element_type.1372), lhs_contracting_dims={2}, rhs_contracting_dims={0}, metadata={op_name="jit(predict_step)/FlaxUNet2DConditionModel/up_blocks_3/attentions_2/transformer_blocks_0/attn2/to_out_0/dot_general" stack_frame_id=1065}
  %variables__up_blocks_3____attentions_2____transformer_blocks_0____attn2____to_out_0____bias__.1 = bf16[320]{0} parameter(636), sharding={devices=[2]<=[2]}, frontend_attributes={xla.sdy.sharding="#sdy.sharding<@mesh, [{\"fsdp\"}]>"}, metadata={op_name="variables[\'up_blocks_3\'][\'attentions_2\'][\'transformer_blocks_0\'][\'attn2\'][\'to_out_0\'][\'bias\']"}
  %convert_element_type.1373 = f32[320]{0} convert(%variables__up_blocks_3____attentions_2____transformer_blocks_0____attn2____to_out_0____bias__.1), metadata={op_name="jit(predict_step)/FlaxUNet2DConditionModel/up_blocks_3/attentions_2/transformer_blocks_0/attn2/to_out_0/convert_element_type" stack_frame_id=1064}
  %reshape.1737 = f32[1,1,320]{2,1,0} reshape(%convert_element_type.1373), metadata={op_name="jit(predict_step)/FlaxUNet2DConditionModel/up_blocks_3/attentions_2/transformer_blocks_0/attn2/to_out_0/reshape" stack_frame_id=1066}
  %add.3011 = f32[1,1,320]{2,1,0} broadcast(%reshape.1737), dimensions={0,1,2}, metadata={op_name="jit(predict_step)/FlaxUNet2DConditionModel/up_blocks_3/attentions_2/transformer_blocks_0/attn2/to_out_0/add" stack_frame_id=1067}
  %add.3012 = f32[320]{0} reshape(%add.3011), metadata={op_name="jit(predict_step)/FlaxUNet2DConditionModel/up_blocks_3/attentions_2/transformer_blocks_0/attn2/to_out_0/add" stack_frame_id=1067}
  %add.3013 = f32[2,4096,320]{2,1,0} broadcast(%add.3012), dimensions={2}, metadata={op_name="jit(predict_step)/FlaxUNet2DConditionModel/up_blocks_3/attentions_2/transformer_blocks_0/attn2/to_out_0/add" stack_frame_id=1067}
  %add.3014 = f32[2,4096,320]{2,1,0} add(%dot_general.493, %add.3013), metadata={op_name="jit(predict_step)/FlaxUNet2DConditionModel/up_blocks_3/attentions_2/transformer_blocks_0/attn2/to_out_0/add" stack_frame_id=1067}
  %add.3015 = f32[2,4096,320]{2,1,0} add(%add.3014, %add.3005), metadata={op_name="jit(predict_step)/FlaxUNet2DConditionModel/up_blocks_3/attentions_2/transformer_blocks_0/add" stack_frame_id=1068}
  %reduce_sum.1996 = f32[2,4096]{1,0} reduce(%add.3015, %constant.179), dimensions={2}, to_apply=%region_278.297, metadata={op_name="jit(predict_step)/FlaxUNet2DConditionModel/up_blocks_3/attentions_2/transformer_blocks_0/norm3/reduce_sum" stack_frame_id=153}
  %div.730 = f32[2,4096]{1,0} divide(%reduce_sum.1996, %broadcast.158), metadata={op_name="jit(predict_step)/FlaxUNet2DConditionModel/up_blocks_3/attentions_2/transformer_blocks_0/norm3/div" stack_frame_id=153}
  %broadcast_in_dim.620 = f32[2,4096,1]{2,1,0} reshape(%div.730), metadata={op_name="jit(predict_step)/FlaxUNet2DConditionModel/up_blocks_3/attentions_2/transformer_blocks_0/norm3/broadcast_in_dim" stack_frame_id=1070}
  %sub.1337 = f32[2,4096,1]{2,1,0} broadcast(%broadcast_in_dim.620), dimensions={0,1,2}, metadata={op_name="jit(predict_step)/FlaxUNet2DConditionModel/up_blocks_3/attentions_2/transformer_blocks_0/norm3/sub" stack_frame_id=1071}
  %sub.1338 = f32[2,4096]{1,0} reshape(%sub.1337), metadata={op_name="jit(predict_step)/FlaxUNet2DConditionModel/up_blocks_3/attentions_2/transformer_blocks_0/norm3/sub" stack_frame_id=1071}
  %sub.1339 = f32[2,4096,320]{2,1,0} broadcast(%sub.1338), dimensions={0,1}, metadata={op_name="jit(predict_step)/FlaxUNet2DConditionModel/up_blocks_3/attentions_2/transformer_blocks_0/norm3/sub" stack_frame_id=1071}
  %sub.1340 = f32[2,4096,320]{2,1,0} subtract(%add.3015, %sub.1339), metadata={op_name="jit(predict_step)/FlaxUNet2DConditionModel/up_blocks_3/attentions_2/transformer_blocks_0/norm3/sub" stack_frame_id=1071}
  %square.432 = f32[2,4096,320]{2,1,0} multiply(%add.3015, %add.3015), metadata={op_name="jit(predict_step)/FlaxUNet2DConditionModel/up_blocks_3/attentions_2/transformer_blocks_0/norm3/square" stack_frame_id=1073}
  %reduce_sum.1997 = f32[2,4096]{1,0} reduce(%square.432, %constant.179), dimensions={2}, to_apply=%region_279.298, metadata={op_name="jit(predict_step)/FlaxUNet2DConditionModel/up_blocks_3/attentions_2/transformer_blocks_0/norm3/reduce_sum" stack_frame_id=153}
  %div.731 = f32[2,4096]{1,0} divide(%reduce_sum.1997, %broadcast.158), metadata={op_name="jit(predict_step)/FlaxUNet2DConditionModel/up_blocks_3/attentions_2/transformer_blocks_0/norm3/div" stack_frame_id=153}
  %square.433 = f32[2,4096]{1,0} multiply(%div.730, %div.730), metadata={op_name="jit(predict_step)/FlaxUNet2DConditionModel/up_blocks_3/attentions_2/transformer_blocks_0/norm3/square" stack_frame_id=1075}
  %sub.1336 = f32[2,4096]{1,0} subtract(%div.731, %square.433), metadata={op_name="jit(predict_step)/FlaxUNet2DConditionModel/up_blocks_3/attentions_2/transformer_blocks_0/norm3/sub" stack_frame_id=1076}
  %max.280 = f32[2,4096]{1,0} maximum(%sub.1336, %broadcast.157), metadata={op_name="jit(predict_step)/FlaxUNet2DConditionModel/up_blocks_3/attentions_2/transformer_blocks_0/norm3/max" stack_frame_id=1077}
  %broadcast_in_dim.621 = f32[2,4096,1]{2,1,0} reshape(%max.280), metadata={op_name="jit(predict_step)/FlaxUNet2DConditionModel/up_blocks_3/attentions_2/transformer_blocks_0/norm3/broadcast_in_dim" stack_frame_id=1078}
  %add.3016 = f32[2,4096,1]{2,1,0} add(%broadcast_in_dim.621, %broadcast.156), metadata={op_name="jit(predict_step)/FlaxUNet2DConditionModel/up_blocks_3/attentions_2/transformer_blocks_0/norm3/add" stack_frame_id=1079}
  %rsqrt.216 = f32[2,4096,1]{2,1,0} rsqrt(%add.3016), metadata={op_name="jit(predict_step)/FlaxUNet2DConditionModel/up_blocks_3/attentions_2/transformer_blocks_0/norm3/rsqrt" stack_frame_id=1080}
  %mul.2017 = f32[2,4096,1]{2,1,0} broadcast(%rsqrt.216), dimensions={0,1,2}, metadata={op_name="jit(predict_step)/FlaxUNet2DConditionModel/up_blocks_3/attentions_2/transformer_blocks_0/norm3/mul" stack_frame_id=1081}
  %mul.2018 = f32[2,4096]{1,0} reshape(%mul.2017), metadata={op_name="jit(predict_step)/FlaxUNet2DConditionModel/up_blocks_3/attentions_2/transformer_blocks_0/norm3/mul" stack_frame_id=1081}
  %mul.2019 = f32[2,4096,320]{2,1,0} broadcast(%mul.2018), dimensions={0,1}, metadata={op_name="jit(predict_step)/FlaxUNet2DConditionModel/up_blocks_3/attentions_2/transformer_blocks_0/norm3/mul" stack_frame_id=1081}
  %variables__up_blocks_3____attentions_2____transformer_blocks_0____norm3____scale__.1 = bf16[320]{0} parameter(649), sharding={devices=[2]<=[2]}, frontend_attributes={xla.sdy.sharding="#sdy.sharding<@mesh, [{\"fsdp\"}]>"}, metadata={op_name="variables[\'up_blocks_3\'][\'attentions_2\'][\'transformer_blocks_0\'][\'norm3\'][\'scale\']"}
  %reshape.1738 = bf16[1,1,320]{2,1,0} reshape(%variables__up_blocks_3____attentions_2____transformer_blocks_0____norm3____scale__.1), metadata={op_name="jit(predict_step)/FlaxUNet2DConditionModel/up_blocks_3/attentions_2/transformer_blocks_0/norm3/reshape" stack_frame_id=1082}
  %convert_element_type.1374 = f32[1,1,320]{2,1,0} convert(%reshape.1738), metadata={op_name="jit(predict_step)/FlaxUNet2DConditionModel/up_blocks_3/attentions_2/transformer_blocks_0/norm3/convert_element_type" stack_frame_id=1081}
  %mul.2020 = f32[1,1,320]{2,1,0} broadcast(%convert_element_type.1374), dimensions={0,1,2}, metadata={op_name="jit(predict_step)/FlaxUNet2DConditionModel/up_blocks_3/attentions_2/transformer_blocks_0/norm3/mul" stack_frame_id=1081}
  %mul.2021 = f32[320]{0} reshape(%mul.2020), metadata={op_name="jit(predict_step)/FlaxUNet2DConditionModel/up_blocks_3/attentions_2/transformer_blocks_0/norm3/mul" stack_frame_id=1081}
  %mul.2022 = f32[2,4096,320]{2,1,0} broadcast(%mul.2021), dimensions={2}, metadata={op_name="jit(predict_step)/FlaxUNet2DConditionModel/up_blocks_3/attentions_2/transformer_blocks_0/norm3/mul" stack_frame_id=1081}
  %mul.2023 = f32[2,4096,320]{2,1,0} multiply(%mul.2019, %mul.2022), metadata={op_name="jit(predict_step)/FlaxUNet2DConditionModel/up_blocks_3/attentions_2/transformer_blocks_0/norm3/mul" stack_frame_id=1081}
  %mul.2024 = f32[2,4096,320]{2,1,0} multiply(%sub.1340, %mul.2023), metadata={op_name="jit(predict_step)/FlaxUNet2DConditionModel/up_blocks_3/attentions_2/transformer_blocks_0/norm3/mul" stack_frame_id=1083}
  %variables__up_blocks_3____attentions_2____transformer_blocks_0____norm3____bias__.1 = bf16[320]{0} parameter(648), sharding={devices=[2]<=[2]}, frontend_attributes={xla.sdy.sharding="#sdy.sharding<@mesh, [{\"fsdp\"}]>"}, metadata={op_name="variables[\'up_blocks_3\'][\'attentions_2\'][\'transformer_blocks_0\'][\'norm3\'][\'bias\']"}
  %reshape.1739 = bf16[1,1,320]{2,1,0} reshape(%variables__up_blocks_3____attentions_2____transformer_blocks_0____norm3____bias__.1), metadata={op_name="jit(predict_step)/FlaxUNet2DConditionModel/up_blocks_3/attentions_2/transformer_blocks_0/norm3/reshape" stack_frame_id=1084}
  %convert_element_type.1375 = f32[1,1,320]{2,1,0} convert(%reshape.1739), metadata={op_name="jit(predict_step)/FlaxUNet2DConditionModel/up_blocks_3/attentions_2/transformer_blocks_0/norm3/convert_element_type" stack_frame_id=1085}
  %add.3017 = f32[1,1,320]{2,1,0} broadcast(%convert_element_type.1375), dimensions={0,1,2}, metadata={op_name="jit(predict_step)/FlaxUNet2DConditionModel/up_blocks_3/attentions_2/transformer_blocks_0/norm3/add" stack_frame_id=1085}
  %add.3018 = f32[320]{0} reshape(%add.3017), metadata={op_name="jit(predict_step)/FlaxUNet2DConditionModel/up_blocks_3/attentions_2/transformer_blocks_0/norm3/add" stack_frame_id=1085}
  %add.3019 = f32[2,4096,320]{2,1,0} broadcast(%add.3018), dimensions={2}, metadata={op_name="jit(predict_step)/FlaxUNet2DConditionModel/up_blocks_3/attentions_2/transformer_blocks_0/norm3/add" stack_frame_id=1085}
  %add.3020 = f32[2,4096,320]{2,1,0} add(%mul.2024, %add.3019), metadata={op_name="jit(predict_step)/FlaxUNet2DConditionModel/up_blocks_3/attentions_2/transformer_blocks_0/norm3/add" stack_frame_id=1085}
  %variables__up_blocks_3____attentions_2____transformer_blocks_0____ff____net_0____proj____kernel__.1 = bf16[320,2560]{1,0} parameter(641), sharding={devices=[2,1]<=[2]}, frontend_attributes={xla.sdy.sharding="#sdy.sharding<@mesh, [{\"fsdp\"}, {}]>"}, metadata={op_name="variables[\'up_blocks_3\'][\'attentions_2\'][\'transformer_blocks_0\'][\'ff\'][\'net_0\'][\'proj\'][\'kernel\']"}
  %convert_element_type.1376 = f32[320,2560]{1,0} convert(%variables__up_blocks_3____attentions_2____transformer_blocks_0____ff____net_0____proj____kernel__.1), metadata={op_name="jit(predict_step)/FlaxUNet2DConditionModel/up_blocks_3/attentions_2/transformer_blocks_0/ff/net_0/proj/convert_element_type" stack_frame_id=1090}
  %dot_general.494 = f32[2,4096,2560]{2,1,0} dot(%add.3020, %convert_element_type.1376), lhs_contracting_dims={2}, rhs_contracting_dims={0}, metadata={op_name="jit(predict_step)/FlaxUNet2DConditionModel/up_blocks_3/attentions_2/transformer_blocks_0/ff/net_0/proj/dot_general" stack_frame_id=1091}
  %variables__up_blocks_3____attentions_2____transformer_blocks_0____ff____net_0____proj____bias__.1 = bf16[2560]{0} parameter(640), sharding={devices=[2]<=[2]}, frontend_attributes={xla.sdy.sharding="#sdy.sharding<@mesh, [{\"fsdp\"}]>"}, metadata={op_name="variables[\'up_blocks_3\'][\'attentions_2\'][\'transformer_blocks_0\'][\'ff\'][\'net_0\'][\'proj\'][\'bias\']"}
  %convert_element_type.1377 = f32[2560]{0} convert(%variables__up_blocks_3____attentions_2____transformer_blocks_0____ff____net_0____proj____bias__.1), metadata={op_name="jit(predict_step)/FlaxUNet2DConditionModel/up_blocks_3/attentions_2/transformer_blocks_0/ff/net_0/proj/convert_element_type" stack_frame_id=1090}
  %reshape.1740 = f32[1,1,2560]{2,1,0} reshape(%convert_element_type.1377), metadata={op_name="jit(predict_step)/FlaxUNet2DConditionModel/up_blocks_3/attentions_2/transformer_blocks_0/ff/net_0/proj/reshape" stack_frame_id=1092}
  %add.3021 = f32[1,1,2560]{2,1,0} broadcast(%reshape.1740), dimensions={0,1,2}, metadata={op_name="jit(predict_step)/FlaxUNet2DConditionModel/up_blocks_3/attentions_2/transformer_blocks_0/ff/net_0/proj/add" stack_frame_id=1093}
  %add.3022 = f32[2560]{0} reshape(%add.3021), metadata={op_name="jit(predict_step)/FlaxUNet2DConditionModel/up_blocks_3/attentions_2/transformer_blocks_0/ff/net_0/proj/add" stack_frame_id=1093}
  %add.3023 = f32[2,4096,2560]{2,1,0} broadcast(%add.3022), dimensions={2}, metadata={op_name="jit(predict_step)/FlaxUNet2DConditionModel/up_blocks_3/attentions_2/transformer_blocks_0/ff/net_0/proj/add" stack_frame_id=1093}
  %add.3024 = f32[2,4096,2560]{2,1,0} add(%dot_general.494, %add.3023), metadata={op_name="jit(predict_step)/FlaxUNet2DConditionModel/up_blocks_3/attentions_2/transformer_blocks_0/ff/net_0/proj/add" stack_frame_id=1093}
  %split.62 = f32[2,4096,1280]{2,1,0} slice(%add.3024), slice={[0:2], [0:4096], [0:1280]}, metadata={op_name="jit(predict_step)/FlaxUNet2DConditionModel/up_blocks_3/attentions_2/transformer_blocks_0/ff/net_0/split" stack_frame_id=1094}
  %split.63 = f32[2,4096,1280]{2,1,0} slice(%add.3024), slice={[0:2], [0:4096], [1280:2560]}, metadata={op_name="jit(predict_step)/FlaxUNet2DConditionModel/up_blocks_3/attentions_2/transformer_blocks_0/ff/net_0/split" stack_frame_id=1094}
  %integer_pow.62 = f32[2,4096,1280]{2,1,0} multiply(%split.63, %split.63), metadata={op_name="jit(predict_step)/FlaxUNet2DConditionModel/up_blocks_3/attentions_2/transformer_blocks_0/ff/net_0/integer_pow" stack_frame_id=1095}
  %integer_pow.63 = f32[2,4096,1280]{2,1,0} multiply(%integer_pow.62, %split.63), metadata={op_name="jit(predict_step)/FlaxUNet2DConditionModel/up_blocks_3/attentions_2/transformer_blocks_0/ff/net_0/integer_pow" stack_frame_id=1095}
  %mul.2025 = f32[2,4096,1280]{2,1,0} multiply(%integer_pow.63, %broadcast.152), metadata={op_name="jit(predict_step)/FlaxUNet2DConditionModel/up_blocks_3/attentions_2/transformer_blocks_0/ff/net_0/mul" stack_frame_id=1095}
  %add.3025 = f32[2,4096,1280]{2,1,0} add(%split.63, %mul.2025), metadata={op_name="jit(predict_step)/FlaxUNet2DConditionModel/up_blocks_3/attentions_2/transformer_blocks_0/ff/net_0/add" stack_frame_id=1095}
  %mul.2026 = f32[2,4096,1280]{2,1,0} multiply(%add.3025, %broadcast.151), metadata={op_name="jit(predict_step)/FlaxUNet2DConditionModel/up_blocks_3/attentions_2/transformer_blocks_0/ff/net_0/mul" stack_frame_id=1095}
  %tanh.31 = f32[2,4096,1280]{2,1,0} tanh(%mul.2026), metadata={op_name="jit(predict_step)/FlaxUNet2DConditionModel/up_blocks_3/attentions_2/transformer_blocks_0/ff/net_0/tanh" stack_frame_id=1095}
  %add.3026 = f32[2,4096,1280]{2,1,0} add(%tanh.31, %broadcast.150), metadata={op_name="jit(predict_step)/FlaxUNet2DConditionModel/up_blocks_3/attentions_2/transformer_blocks_0/ff/net_0/add" stack_frame_id=1095}
  %mul.2027 = f32[2,4096,1280]{2,1,0} multiply(%add.3026, %broadcast.149), metadata={op_name="jit(predict_step)/FlaxUNet2DConditionModel/up_blocks_3/attentions_2/transformer_blocks_0/ff/net_0/mul" stack_frame_id=1095}
  %mul.2028 = f32[2,4096,1280]{2,1,0} multiply(%split.63, %mul.2027), metadata={op_name="jit(predict_step)/FlaxUNet2DConditionModel/up_blocks_3/attentions_2/transformer_blocks_0/ff/net_0/mul" stack_frame_id=1095}
  %mul.2029 = f32[2,4096,1280]{2,1,0} multiply(%split.62, %mul.2028), metadata={op_name="jit(predict_step)/FlaxUNet2DConditionModel/up_blocks_3/attentions_2/transformer_blocks_0/ff/net_0/mul" stack_frame_id=1096}
  %variables__up_blocks_3____attentions_2____transformer_blocks_0____ff____net_2____kernel__.1 = bf16[1280,320]{1,0} parameter(643), sharding={devices=[2,1]<=[2]}, frontend_attributes={xla.sdy.sharding="#sdy.sharding<@mesh, [{\"fsdp\"}, {}]>"}, metadata={op_name="variables[\'up_blocks_3\'][\'attentions_2\'][\'transformer_blocks_0\'][\'ff\'][\'net_2\'][\'kernel\']"}
  %convert_element_type.1378 = f32[1280,320]{1,0} convert(%variables__up_blocks_3____attentions_2____transformer_blocks_0____ff____net_2____kernel__.1), metadata={op_name="jit(predict_step)/FlaxUNet2DConditionModel/up_blocks_3/attentions_2/transformer_blocks_0/ff/net_2/convert_element_type" stack_frame_id=1099}
  %dot_general.495 = f32[2,4096,320]{2,1,0} dot(%mul.2029, %convert_element_type.1378), lhs_contracting_dims={2}, rhs_contracting_dims={0}, metadata={op_name="jit(predict_step)/FlaxUNet2DConditionModel/up_blocks_3/attentions_2/transformer_blocks_0/ff/net_2/dot_general" stack_frame_id=1100}
  %variables__up_blocks_3____attentions_2____transformer_blocks_0____ff____net_2____bias__.1 = bf16[320]{0} parameter(642), sharding={devices=[2]<=[2]}, frontend_attributes={xla.sdy.sharding="#sdy.sharding<@mesh, [{\"fsdp\"}]>"}, metadata={op_name="variables[\'up_blocks_3\'][\'attentions_2\'][\'transformer_blocks_0\'][\'ff\'][\'net_2\'][\'bias\']"}
  %convert_element_type.1379 = f32[320]{0} convert(%variables__up_blocks_3____attentions_2____transformer_blocks_0____ff____net_2____bias__.1), metadata={op_name="jit(predict_step)/FlaxUNet2DConditionModel/up_blocks_3/attentions_2/transformer_blocks_0/ff/net_2/convert_element_type" stack_frame_id=1099}
  %reshape.1741 = f32[1,1,320]{2,1,0} reshape(%convert_element_type.1379), metadata={op_name="jit(predict_step)/FlaxUNet2DConditionModel/up_blocks_3/attentions_2/transformer_blocks_0/ff/net_2/reshape" stack_frame_id=1101}
  %add.3027 = f32[1,1,320]{2,1,0} broadcast(%reshape.1741), dimensions={0,1,2}, metadata={op_name="jit(predict_step)/FlaxUNet2DConditionModel/up_blocks_3/attentions_2/transformer_blocks_0/ff/net_2/add" stack_frame_id=1102}
  %add.3028 = f32[320]{0} reshape(%add.3027), metadata={op_name="jit(predict_step)/FlaxUNet2DConditionModel/up_blocks_3/attentions_2/transformer_blocks_0/ff/net_2/add" stack_frame_id=1102}
  %add.3029 = f32[2,4096,320]{2,1,0} broadcast(%add.3028), dimensions={2}, metadata={op_name="jit(predict_step)/FlaxUNet2DConditionModel/up_blocks_3/attentions_2/transformer_blocks_0/ff/net_2/add" stack_frame_id=1102}
  %add.3030 = f32[2,4096,320]{2,1,0} add(%dot_general.495, %add.3029), metadata={op_name="jit(predict_step)/FlaxUNet2DConditionModel/up_blocks_3/attentions_2/transformer_blocks_0/ff/net_2/add" stack_frame_id=1102}
  %add.3031 = f32[2,4096,320]{2,1,0} add(%add.3030, %add.3015), metadata={op_name="jit(predict_step)/FlaxUNet2DConditionModel/up_blocks_3/attentions_2/transformer_blocks_0/add" stack_frame_id=1103}
  %reshape.1742 = f32[2,64,64,320]{3,2,1,0} reshape(%add.3031), metadata={op_name="jit(predict_step)/FlaxUNet2DConditionModel/up_blocks_3/attentions_2/reshape" stack_frame_id=1104}
  %variables__up_blocks_3____attentions_2____proj_out____kernel__.1 = bf16[1,1,320,320]{3,2,1,0} parameter(629), sharding={devices=[1,1,2,1]<=[2]}, frontend_attributes={xla.sdy.sharding="#sdy.sharding<@mesh, [{}, {}, {\"fsdp\"}, {}]>"}, metadata={op_name="variables[\'up_blocks_3\'][\'attentions_2\'][\'proj_out\'][\'kernel\']"}
  %convert_element_type.1380 = f32[1,1,320,320]{3,2,1,0} convert(%variables__up_blocks_3____attentions_2____proj_out____kernel__.1), metadata={op_name="jit(predict_step)/FlaxUNet2DConditionModel/up_blocks_3/attentions_2/proj_out/convert_element_type" stack_frame_id=1107}
  %conv_general_dilated.194 = f32[2,64,64,320]{3,2,1,0} convolution(%reshape.1742, %convert_element_type.1380), window={size=1x1}, dim_labels=b01f_01io->b01f, metadata={op_name="jit(predict_step)/FlaxUNet2DConditionModel/up_blocks_3/attentions_2/proj_out/conv_general_dilated" stack_frame_id=1108}
  %variables__up_blocks_3____attentions_2____proj_out____bias__.1 = bf16[320]{0} parameter(628), sharding={devices=[2]<=[2]}, frontend_attributes={xla.sdy.sharding="#sdy.sharding<@mesh, [{\"fsdp\"}]>"}, metadata={op_name="variables[\'up_blocks_3\'][\'attentions_2\'][\'proj_out\'][\'bias\']"}
  %convert_element_type.1381 = f32[320]{0} convert(%variables__up_blocks_3____attentions_2____proj_out____bias__.1), metadata={op_name="jit(predict_step)/FlaxUNet2DConditionModel/up_blocks_3/attentions_2/proj_out/convert_element_type" stack_frame_id=1107}
  %reshape.1743 = f32[1,1,1,320]{3,2,1,0} reshape(%convert_element_type.1381), metadata={op_name="jit(predict_step)/FlaxUNet2DConditionModel/up_blocks_3/attentions_2/proj_out/reshape" stack_frame_id=1109}
  %add.3032 = f32[1,1,1,320]{3,2,1,0} broadcast(%reshape.1743), dimensions={0,1,2,3}, metadata={op_name="jit(predict_step)/FlaxUNet2DConditionModel/up_blocks_3/attentions_2/proj_out/add" stack_frame_id=1110}
  %add.3033 = f32[320]{0} reshape(%add.3032), metadata={op_name="jit(predict_step)/FlaxUNet2DConditionModel/up_blocks_3/attentions_2/proj_out/add" stack_frame_id=1110}
  %add.3034 = f32[2,64,64,320]{3,2,1,0} broadcast(%add.3033), dimensions={3}, metadata={op_name="jit(predict_step)/FlaxUNet2DConditionModel/up_blocks_3/attentions_2/proj_out/add" stack_frame_id=1110}
  %add.3035 = f32[2,64,64,320]{3,2,1,0} add(%conv_general_dilated.194, %add.3034), metadata={op_name="jit(predict_step)/FlaxUNet2DConditionModel/up_blocks_3/attentions_2/proj_out/add" stack_frame_id=1110}
  %add.3036 = f32[2,64,64,320]{3,2,1,0} add(%add.3035, %add.2986), metadata={op_name="jit(predict_step)/FlaxUNet2DConditionModel/up_blocks_3/attentions_2/add" stack_frame_id=1111}
  %reshape.1744 = f32[2,64,64,32,10]{4,3,2,1,0} reshape(%add.3036), metadata={op_name="jit(predict_step)/FlaxUNet2DConditionModel/conv_norm_out/reshape" stack_frame_id=1120}
  %reduce_sum.1998 = f32[2,32]{1,0} reduce(%reshape.1744, %constant.179), dimensions={1,2,4}, to_apply=%region_280.299, metadata={op_name="jit(predict_step)/FlaxUNet2DConditionModel/conv_norm_out/reduce_sum" stack_frame_id=158}
  %div.732 = f32[2,32]{1,0} divide(%reduce_sum.1998, %broadcast.161), metadata={op_name="jit(predict_step)/FlaxUNet2DConditionModel/conv_norm_out/div" stack_frame_id=158}
  %broadcast_in_dim.622 = f32[2,32,10]{2,1,0} broadcast(%div.732), dimensions={0,1}, metadata={op_name="jit(predict_step)/FlaxUNet2DConditionModel/conv_norm_out/broadcast_in_dim" stack_frame_id=1121}
  %reshape.1745 = f32[2,1,1,320]{3,2,1,0} reshape(%broadcast_in_dim.622), metadata={op_name="jit(predict_step)/FlaxUNet2DConditionModel/conv_norm_out/broadcast_in_dim;jit(predict_step)/FlaxUNet2DConditionModel/conv_norm_out/reshape"}
  %sub.1342 = f32[2,1,1,320]{3,2,1,0} broadcast(%reshape.1745), dimensions={0,1,2,3}, metadata={op_name="jit(predict_step)/FlaxUNet2DConditionModel/conv_norm_out/sub" stack_frame_id=1123}
  %sub.1343 = f32[2,320]{1,0} reshape(%sub.1342), metadata={op_name="jit(predict_step)/FlaxUNet2DConditionModel/conv_norm_out/sub" stack_frame_id=1123}
  %sub.1344 = f32[2,64,64,320]{3,2,1,0} broadcast(%sub.1343), dimensions={0,3}, metadata={op_name="jit(predict_step)/FlaxUNet2DConditionModel/conv_norm_out/sub" stack_frame_id=1123}
  %sub.1345 = f32[2,64,64,320]{3,2,1,0} subtract(%add.3036, %sub.1344), metadata={op_name="jit(predict_step)/FlaxUNet2DConditionModel/conv_norm_out/sub" stack_frame_id=1123}
  %square.434 = f32[2,64,64,32,10]{4,3,2,1,0} multiply(%reshape.1744, %reshape.1744), metadata={op_name="jit(predict_step)/FlaxUNet2DConditionModel/conv_norm_out/square" stack_frame_id=1125}
  %reduce_sum.1999 = f32[2,32]{1,0} reduce(%square.434, %constant.179), dimensions={1,2,4}, to_apply=%region_281.300, metadata={op_name="jit(predict_step)/FlaxUNet2DConditionModel/conv_norm_out/reduce_sum" stack_frame_id=158}
  %div.733 = f32[2,32]{1,0} divide(%reduce_sum.1999, %broadcast.161), metadata={op_name="jit(predict_step)/FlaxUNet2DConditionModel/conv_norm_out/div" stack_frame_id=158}
  %square.435 = f32[2,32]{1,0} multiply(%div.732, %div.732), metadata={op_name="jit(predict_step)/FlaxUNet2DConditionModel/conv_norm_out/square" stack_frame_id=1127}
  %sub.1341 = f32[2,32]{1,0} subtract(%div.733, %square.435), metadata={op_name="jit(predict_step)/FlaxUNet2DConditionModel/conv_norm_out/sub" stack_frame_id=1128}
  %max.281 = f32[2,32]{1,0} maximum(%sub.1341, %broadcast.160), metadata={op_name="jit(predict_step)/FlaxUNet2DConditionModel/conv_norm_out/max" stack_frame_id=1129}
  %broadcast_in_dim.623 = f32[2,32,10]{2,1,0} broadcast(%max.281), dimensions={0,1}, metadata={op_name="jit(predict_step)/FlaxUNet2DConditionModel/conv_norm_out/broadcast_in_dim" stack_frame_id=1130}
  %reshape.1746 = f32[2,1,1,320]{3,2,1,0} reshape(%broadcast_in_dim.623), metadata={op_name="jit(predict_step)/FlaxUNet2DConditionModel/conv_norm_out/broadcast_in_dim;jit(predict_step)/FlaxUNet2DConditionModel/conv_norm_out/reshape"}
  %add.3037 = f32[2,1,1,320]{3,2,1,0} add(%reshape.1746, %broadcast.159), metadata={op_name="jit(predict_step)/FlaxUNet2DConditionModel/conv_norm_out/add" stack_frame_id=1131}
  %rsqrt.217 = f32[2,1,1,320]{3,2,1,0} rsqrt(%add.3037), metadata={op_name="jit(predict_step)/FlaxUNet2DConditionModel/conv_norm_out/rsqrt" stack_frame_id=1132}
  %variables__conv_norm_out____scale__.1 = bf16[320]{0} parameter(3), sharding={devices=[2]<=[2]}, frontend_attributes={xla.sdy.sharding="#sdy.sharding<@mesh, [{\"fsdp\"}]>"}, metadata={op_name="variables[\'conv_norm_out\'][\'scale\']"}
  %reshape.1747 = bf16[1,1,1,320]{3,2,1,0} reshape(%variables__conv_norm_out____scale__.1), metadata={op_name="jit(predict_step)/FlaxUNet2DConditionModel/conv_norm_out/reshape" stack_frame_id=1133}
  %convert_element_type.1382 = f32[1,1,1,320]{3,2,1,0} convert(%reshape.1747), metadata={op_name="jit(predict_step)/FlaxUNet2DConditionModel/conv_norm_out/convert_element_type" stack_frame_id=1134}
  %mul.2030 = f32[1,1,1,320]{3,2,1,0} broadcast(%convert_element_type.1382), dimensions={0,1,2,3}, metadata={op_name="jit(predict_step)/FlaxUNet2DConditionModel/conv_norm_out/mul" stack_frame_id=1134}
  %mul.2031 = f32[1,1,320]{2,1,0} reshape(%mul.2030), metadata={op_name="jit(predict_step)/FlaxUNet2DConditionModel/conv_norm_out/mul" stack_frame_id=1134}
  %mul.2032 = f32[2,1,1,320]{3,2,1,0} broadcast(%mul.2031), dimensions={1,2,3}, metadata={op_name="jit(predict_step)/FlaxUNet2DConditionModel/conv_norm_out/mul" stack_frame_id=1134}
  %mul.2033 = f32[2,1,1,320]{3,2,1,0} multiply(%rsqrt.217, %mul.2032), metadata={op_name="jit(predict_step)/FlaxUNet2DConditionModel/conv_norm_out/mul" stack_frame_id=1134}
  %mul.2034 = f32[2,1,1,320]{3,2,1,0} broadcast(%mul.2033), dimensions={0,1,2,3}, metadata={op_name="jit(predict_step)/FlaxUNet2DConditionModel/conv_norm_out/mul" stack_frame_id=1135}
  %mul.2035 = f32[2,320]{1,0} reshape(%mul.2034), metadata={op_name="jit(predict_step)/FlaxUNet2DConditionModel/conv_norm_out/mul" stack_frame_id=1135}
  %mul.2036 = f32[2,64,64,320]{3,2,1,0} broadcast(%mul.2035), dimensions={0,3}, metadata={op_name="jit(predict_step)/FlaxUNet2DConditionModel/conv_norm_out/mul" stack_frame_id=1135}
  %mul.2037 = f32[2,64,64,320]{3,2,1,0} multiply(%sub.1345, %mul.2036), metadata={op_name="jit(predict_step)/FlaxUNet2DConditionModel/conv_norm_out/mul" stack_frame_id=1135}
  %variables__conv_norm_out____bias__.1 = bf16[320]{0} parameter(2), sharding={devices=[2]<=[2]}, frontend_attributes={xla.sdy.sharding="#sdy.sharding<@mesh, [{\"fsdp\"}]>"}, metadata={op_name="variables[\'conv_norm_out\'][\'bias\']"}
  %reshape.1748 = bf16[1,1,1,320]{3,2,1,0} reshape(%variables__conv_norm_out____bias__.1), metadata={op_name="jit(predict_step)/FlaxUNet2DConditionModel/conv_norm_out/reshape" stack_frame_id=1136}
  %convert_element_type.1383 = f32[1,1,1,320]{3,2,1,0} convert(%reshape.1748), metadata={op_name="jit(predict_step)/FlaxUNet2DConditionModel/conv_norm_out/convert_element_type" stack_frame_id=1137}
  %add.3038 = f32[1,1,1,320]{3,2,1,0} broadcast(%convert_element_type.1383), dimensions={0,1,2,3}, metadata={op_name="jit(predict_step)/FlaxUNet2DConditionModel/conv_norm_out/add" stack_frame_id=1137}
  %add.3039 = f32[320]{0} reshape(%add.3038), metadata={op_name="jit(predict_step)/FlaxUNet2DConditionModel/conv_norm_out/add" stack_frame_id=1137}
  %add.3040 = f32[2,64,64,320]{3,2,1,0} broadcast(%add.3039), dimensions={3}, metadata={op_name="jit(predict_step)/FlaxUNet2DConditionModel/conv_norm_out/add" stack_frame_id=1137}
  %add.3041 = f32[2,64,64,320]{3,2,1,0} add(%mul.2037, %add.3040), metadata={op_name="jit(predict_step)/FlaxUNet2DConditionModel/conv_norm_out/add" stack_frame_id=1137}
  %jit_silu_.135 = f32[2,64,64,320]{3,2,1,0} call(%add.3041), to_apply=%silu_0.4, metadata={op_name="jit(predict_step)/FlaxUNet2DConditionModel/jit(silu)" stack_frame_id=1138}
  %variables__conv_out____kernel__.1 = bf16[3,3,320,4]{3,2,1,0} parameter(5), sharding={devices=[1,1,2,1]<=[2]}, frontend_attributes={xla.sdy.sharding="#sdy.sharding<@mesh, [{}, {}, {\"fsdp\"}, {}]>"}, metadata={op_name="variables[\'conv_out\'][\'kernel\']"}
  %convert_element_type.1384 = f32[3,3,320,4]{3,2,1,0} convert(%variables__conv_out____kernel__.1), metadata={op_name="jit(predict_step)/FlaxUNet2DConditionModel/conv_out/convert_element_type" stack_frame_id=1141}
  %conv_general_dilated.195 = f32[2,64,64,4]{3,2,1,0} convolution(%jit_silu_.135, %convert_element_type.1384), window={size=3x3 pad=1_1x1_1}, dim_labels=b01f_01io->b01f, metadata={op_name="jit(predict_step)/FlaxUNet2DConditionModel/conv_out/conv_general_dilated" stack_frame_id=1142}
  %variables__conv_out____bias__.1 = bf16[4]{0} parameter(4), sharding={devices=[2]<=[2]}, frontend_attributes={xla.sdy.sharding="#sdy.sharding<@mesh, [{\"fsdp\"}]>"}, metadata={op_name="variables[\'conv_out\'][\'bias\']"}
  %convert_element_type.1385 = f32[4]{0} convert(%variables__conv_out____bias__.1), metadata={op_name="jit(predict_step)/FlaxUNet2DConditionModel/conv_out/convert_element_type" stack_frame_id=1141}
  %reshape.1749 = f32[1,1,1,4]{3,2,1,0} reshape(%convert_element_type.1385), metadata={op_name="jit(predict_step)/FlaxUNet2DConditionModel/conv_out/reshape" stack_frame_id=1143}
  %add.3042 = f32[1,1,1,4]{3,2,1,0} broadcast(%reshape.1749), dimensions={0,1,2,3}, metadata={op_name="jit(predict_step)/FlaxUNet2DConditionModel/conv_out/add" stack_frame_id=1144}
  %add.3043 = f32[4]{0} reshape(%add.3042), metadata={op_name="jit(predict_step)/FlaxUNet2DConditionModel/conv_out/add" stack_frame_id=1144}
  %add.3044 = f32[2,64,64,4]{3,2,1,0} broadcast(%add.3043), dimensions={3}, metadata={op_name="jit(predict_step)/FlaxUNet2DConditionModel/conv_out/add" stack_frame_id=1144}
  %add.3045 = f32[2,64,64,4]{3,2,1,0} add(%conv_general_dilated.195, %add.3044), metadata={op_name="jit(predict_step)/FlaxUNet2DConditionModel/conv_out/add" stack_frame_id=1144}
  %transpose.260 = f32[2,4,64,64]{1,3,2,0} transpose(%add.3045), dimensions={0,3,1,2}, metadata={op_name="jit(predict_step)/FlaxUNet2DConditionModel/transpose" stack_frame_id=1145}
  %transpose.261 = f32[2,4,64,64]{3,2,1,0} custom-call(%transpose.260), custom_call_target="xla.sdy.FuncResultSharding", custom_call_has_side_effect=true, frontend_attributes={xla.sdy.sharding="#sdy.sharding_per_value<[<@mesh, [{}, {}, {}, {}]>]>"}, metadata={op_name="jit(predict_step)/FlaxUNet2DConditionModel/transpose" stack_frame_id=1145}
  %tuple.1 = (f32[2,4,64,64]{3,2,1,0}) tuple(%transpose.261)
  ROOT %get-tuple-element.1 = f32[2,4,64,64]{3,2,1,0} get-tuple-element(%tuple.1), index=0, sharding={replicated}
}

