HloModule jit_predict_step, entry_computation_layout={(f32[1536]{0}, f32[768,1536]{1,0}, f32[16]{0}, f32[768,16]{1,0}, f32[1001,768]{1,0}, /*index=5*/f32[768]{0}, f32[768,768]{1,0}, f32[768]{0}, f32[768,768]{1,0}, f32[4608]{0}, /*index=10*/f32[768,4608]{1,0}, f32[3072]{0}, f32[768,3072]{1,0}, f32[768]{0}, f32[3072,768]{1,0}, /*index=15*/f32[12,64]{1,0}, f32[768,12,64]{2,1,0}, f32[768]{0}, f32[12,64,768]{2,1,0}, f32[12,64]{1,0}, /*index=20*/f32[768,12,64]{2,1,0}, f32[12,64]{1,0}, f32[768,12,64]{2,1,0}, f32[4608]{0}, f32[768,4608]{1,0}, /*index=25*/f32[3072]{0}, f32[768,3072]{1,0}, f32[768]{0}, f32[3072,768]{1,0}, f32[12,64]{1,0}, /*index=30*/f32[768,12,64]{2,1,0}, f32[768]{0}, f32[12,64,768]{2,1,0}, f32[12,64]{1,0}, f32[768,12,64]{2,1,0}, /*index=35*/f32[12,64]{1,0}, f32[768,12,64]{2,1,0}, f32[4608]{0}, f32[768,4608]{1,0}, f32[3072]{0}, /*index=40*/f32[768,3072]{1,0}, f32[768]{0}, f32[3072,768]{1,0}, f32[12,64]{1,0}, f32[768,12,64]{2,1,0}, /*index=45*/f32[768]{0}, f32[12,64,768]{2,1,0}, f32[12,64]{1,0}, f32[768,12,64]{2,1,0}, f32[12,64]{1,0}, /*index=50*/f32[768,12,64]{2,1,0}, f32[4608]{0}, f32[768,4608]{1,0}, f32[3072]{0}, f32[768,3072]{1,0}, /*index=55*/f32[768]{0}, f32[3072,768]{1,0}, f32[12,64]{1,0}, f32[768,12,64]{2,1,0}, f32[768]{0}, /*index=60*/f32[12,64,768]{2,1,0}, f32[12,64]{1,0}, f32[768,12,64]{2,1,0}, f32[12,64]{1,0}, f32[768,12,64]{2,1,0}, /*index=65*/f32[4608]{0}, f32[768,4608]{1,0}, f32[3072]{0}, f32[768,3072]{1,0}, f32[768]{0}, /*index=70*/f32[3072,768]{1,0}, f32[12,64]{1,0}, f32[768,12,64]{2,1,0}, f32[768]{0}, f32[12,64,768]{2,1,0}, /*index=75*/f32[12,64]{1,0}, f32[768,12,64]{2,1,0}, f32[12,64]{1,0}, f32[768,12,64]{2,1,0}, f32[4608]{0}, /*index=80*/f32[768,4608]{1,0}, f32[3072]{0}, f32[768,3072]{1,0}, f32[768]{0}, f32[3072,768]{1,0}, /*index=85*/f32[12,64]{1,0}, f32[768,12,64]{2,1,0}, f32[768]{0}, f32[12,64,768]{2,1,0}, f32[12,64]{1,0}, /*index=90*/f32[768,12,64]{2,1,0}, f32[12,64]{1,0}, f32[768,12,64]{2,1,0}, f32[4608]{0}, f32[768,4608]{1,0}, /*index=95*/f32[3072]{0}, f32[768,3072]{1,0}, f32[768]{0}, f32[3072,768]{1,0}, f32[12,64]{1,0}, /*index=100*/f32[768,12,64]{2,1,0}, f32[768]{0}, f32[12,64,768]{2,1,0}, f32[12,64]{1,0}, f32[768,12,64]{2,1,0}, /*index=105*/f32[12,64]{1,0}, f32[768,12,64]{2,1,0}, f32[4608]{0}, f32[768,4608]{1,0}, f32[3072]{0}, /*index=110*/f32[768,3072]{1,0}, f32[768]{0}, f32[3072,768]{1,0}, f32[12,64]{1,0}, f32[768,12,64]{2,1,0}, /*index=115*/f32[768]{0}, f32[12,64,768]{2,1,0}, f32[12,64]{1,0}, f32[768,12,64]{2,1,0}, f32[12,64]{1,0}, /*index=120*/f32[768,12,64]{2,1,0}, f32[4608]{0}, f32[768,4608]{1,0}, f32[3072]{0}, f32[768,3072]{1,0}, /*index=125*/f32[768]{0}, f32[3072,768]{1,0}, f32[12,64]{1,0}, f32[768,12,64]{2,1,0}, f32[768]{0}, /*index=130*/f32[12,64,768]{2,1,0}, f32[12,64]{1,0}, f32[768,12,64]{2,1,0}, f32[12,64]{1,0}, f32[768,12,64]{2,1,0}, /*index=135*/f32[4608]{0}, f32[768,4608]{1,0}, f32[3072]{0}, f32[768,3072]{1,0}, f32[768]{0}, /*index=140*/f32[3072,768]{1,0}, f32[12,64]{1,0}, f32[768,12,64]{2,1,0}, f32[768]{0}, f32[12,64,768]{2,1,0}, /*index=145*/f32[12,64]{1,0}, f32[768,12,64]{2,1,0}, f32[12,64]{1,0}, f32[768,12,64]{2,1,0}, f32[4608]{0}, /*index=150*/f32[768,4608]{1,0}, f32[3072]{0}, f32[768,3072]{1,0}, f32[768]{0}, f32[3072,768]{1,0}, /*index=155*/f32[12,64]{1,0}, f32[768,12,64]{2,1,0}, f32[768]{0}, f32[12,64,768]{2,1,0}, f32[12,64]{1,0}, /*index=160*/f32[768,12,64]{2,1,0}, f32[12,64]{1,0}, f32[768,12,64]{2,1,0}, f32[4608]{0}, f32[768,4608]{1,0}, /*index=165*/f32[3072]{0}, f32[768,3072]{1,0}, f32[768]{0}, f32[3072,768]{1,0}, f32[12,64]{1,0}, /*index=170*/f32[768,12,64]{2,1,0}, f32[768]{0}, f32[12,64,768]{2,1,0}, f32[12,64]{1,0}, f32[768,12,64]{2,1,0}, /*index=175*/f32[12,64]{1,0}, f32[768,12,64]{2,1,0}, f32[768]{0}, f32[2,2,4,768]{3,2,1,0}, f32[1,256,768]{2,1,0}, /*index=180*/f32[8,4,32,32]{3,2,1,0}, f32[8]{0}, s32[8]{0})->f32[8,4,32,32]{3,2,1,0}}, allow_spmd_sharding_propagation_to_parameters={true,true,true,true,true,true,true,true,true,true,true,true,true,true,true,true,true,true,true,true,true,true,true,true,true,true,true,true,true,true,true,true,true,true,true,true,true,true,true,true,true,true,true,true,true,true,true,true,true,true,true,true,true,true,true,true,true,true,true,true,true,true,true,true,true,true,true,true,true,true,true,true,true,true,true,true,true,true,true,true,true,true,true,true,true,true,true,true,true,true,true,true,true,true,true,true,true,true,true,true,true,true,true,true,true,true,true,true,true,true,true,true,true,true,true,true,true,true,true,true,true,true,true,true,true,true,true,true,true,true,true,true,true,true,true,true,true,true,true,true,true,true,true,true,true,true,true,true,true,true,true,true,true,true,true,true,true,true,true,true,true,true,true,true,true,true,true,true,true,true,true,true,true,true,true,true,true,true,true,true,true,true,true}, allow_spmd_sharding_propagation_to_output={true}

FileNames
1 "/root/hlo_dump/dit_dump.py"
2 "/root/hlo_dump/dit_model.py"
3 "/usr/local/lib/python3.12/dist-packages/flax/linen/normalization.py"
4 "/usr/local/lib/python3.12/dist-packages/flax/linen/attention.py"
5 "/usr/local/lib/python3.12/dist-packages/flax/linen/linear.py"

FunctionNames
1 "<module>"
2 "predict_step"
3 "DiT.__call__"
4 "DiTBlock.__call__"
5 "LayerNorm.__call__"
6 "_compute_stats"
7 "_compute_stats.<locals>.maybe_distributed_mean"
8 "_compute_stats.<locals>.maybe_distributed_mean.<locals>.<genexpr>"
9 "MultiHeadDotProductAttention.__call__"
10 "dot_product_attention"
11 "dot_product_attention_weights"
12 "_Conv.__call__"
13 "TimestepEmbedder.__call__"
14 "timestep_embedding"
15 "Dense.__call__"
16 "Embed.__call__"
17 "_normalize"
18 "_abs_sq"
19 "modulate"
20 "DenseGeneral.__call__"

FileLocations
1 {file_name_id=1 function_name_id=1 line=24 end_line=24 column=10 end_column=39}
2 {file_name_id=1 function_name_id=2 line=23 end_line=23 column=15 end_column=55}
3 {file_name_id=2 function_name_id=3 line=71 end_line=71 column=16 end_column=73}
4 {file_name_id=2 function_name_id=4 line=41 end_line=41 column=21 end_column=69}
5 {file_name_id=3 function_name_id=5 line=512 end_line=521 column=16 end_column=5}
6 {file_name_id=3 function_name_id=6 line=139 end_line=139 column=16 end_column=64}
7 {file_name_id=3 function_name_id=7 line=122 end_line=122 column=10 end_column=53}
8 {file_name_id=3 function_name_id=8 line=122 end_line=122 column=16 end_column=40}
9 {file_name_id=2 function_name_id=4 line=42 end_line=42 column=12 end_column=97}
10 {file_name_id=4 function_name_id=9 line=674 end_line=674 column=10 end_column=54}
11 {file_name_id=4 function_name_id=10 line=266 end_line=281 column=17 end_column=3}
12 {file_name_id=4 function_name_id=11 line=146 end_line=146 column=19 end_column=47}
13 {file_name_id=2 function_name_id=4 line=44 end_line=44 column=21 end_column=69}
14 {file_name_id=2 function_name_id=3 line=74 end_line=74 column=21 end_column=69}
15 {file_name_id=2 function_name_id=3 line=62 end_line=62 column=12 end_column=42}
16 {file_name_id=2 function_name_id=3 line=63 end_line=64 column=12 end_column=84}
17 {file_name_id=5 function_name_id=12 line=700 end_line=710 column=10 end_column=7}
18 {file_name_id=5 function_name_id=12 line=725 end_line=725 column=13 end_column=67}
19 {file_name_id=5 function_name_id=12 line=726 end_line=726 column=6 end_column=15}
20 {file_name_id=2 function_name_id=3 line=66 end_line=66 column=12 end_column=53}
21 {file_name_id=2 function_name_id=3 line=68 end_line=68 column=12 end_column=19}
22 {file_name_id=2 function_name_id=3 line=69 end_line=69 column=12 end_column=44}
23 {file_name_id=2 function_name_id=13 line=28 end_line=28 column=12 end_column=46}
24 {file_name_id=2 function_name_id=14 line=20 end_line=20 column=11 end_column=21}
25 {file_name_id=2 function_name_id=14 line=19 end_line=19 column=44 end_column=60}
26 {file_name_id=2 function_name_id=14 line=19 end_line=19 column=20 end_column=67}
27 {file_name_id=2 function_name_id=14 line=19 end_line=19 column=12 end_column=68}
28 {file_name_id=2 function_name_id=14 line=20 end_line=20 column=44 end_column=55}
29 {file_name_id=2 function_name_id=14 line=21 end_line=21 column=28 end_column=41}
30 {file_name_id=2 function_name_id=14 line=21 end_line=21 column=43 end_column=56}
31 {file_name_id=2 function_name_id=14 line=21 end_line=21 column=11 end_column=67}
32 {file_name_id=2 function_name_id=13 line=29 end_line=29 column=12 end_column=36}
33 {file_name_id=5 function_name_id=15 line=287 end_line=292 column=8 end_column=5}
34 {file_name_id=5 function_name_id=15 line=294 end_line=294 column=11 end_column=57}
35 {file_name_id=5 function_name_id=15 line=294 end_line=294 column=6 end_column=57}
36 {file_name_id=2 function_name_id=13 line=29 end_line=29 column=42 end_column=52}
37 {file_name_id=2 function_name_id=13 line=29 end_line=29 column=58 end_column=82}
38 {file_name_id=2 function_name_id=3 line=69 end_line=69 column=47 end_column=93}
39 {file_name_id=5 function_name_id=16 line=1194 end_line=1194 column=11 end_column=46}
40 {file_name_id=2 function_name_id=4 line=39 end_line=39 column=75 end_column=85}
41 {file_name_id=2 function_name_id=4 line=39 end_line=39 column=14 end_column=86}
42 {file_name_id=2 function_name_id=4 line=40 end_line=40 column=33 end_column=59}
43 {file_name_id=2 function_name_id=4 line=43 end_line=43 column=16 end_column=27}
44 {file_name_id=3 function_name_id=5 line=523 end_line=538 column=11 end_column=5}
45 {file_name_id=3 function_name_id=17 line=203 end_line=203 column=9 end_column=46}
46 {file_name_id=3 function_name_id=17 line=205 end_line=205 column=6 end_column=14}
47 {file_name_id=3 function_name_id=6 line=139 end_line=139 column=42 end_column=52}
48 {file_name_id=3 function_name_id=18 line=57 end_line=57 column=11 end_column=24}
49 {file_name_id=3 function_name_id=6 line=142 end_line=142 column=35 end_column=46}
50 {file_name_id=3 function_name_id=6 line=142 end_line=142 column=29 end_column=46}
51 {file_name_id=3 function_name_id=6 line=142 end_line=142 column=12 end_column=47}
52 {file_name_id=3 function_name_id=17 line=204 end_line=204 column=8 end_column=44}
53 {file_name_id=3 function_name_id=17 line=206 end_line=206 column=18 end_column=31}
54 {file_name_id=3 function_name_id=17 line=206 end_line=206 column=8 end_column=32}
55 {file_name_id=3 function_name_id=17 line=216 end_line=216 column=2 end_column=10}
56 {file_name_id=2 function_name_id=4 line=41 end_line=41 column=12 end_column=78}
57 {file_name_id=2 function_name_id=19 line=14 end_line=14 column=20 end_column=34}
58 {file_name_id=2 function_name_id=19 line=14 end_line=14 column=16 end_column=34}
59 {file_name_id=2 function_name_id=19 line=14 end_line=14 column=11 end_column=35}
60 {file_name_id=2 function_name_id=19 line=14 end_line=14 column=38 end_column=52}
61 {file_name_id=4 function_name_id=9 line=551 end_line=551 column=6 end_column=35}
62 {file_name_id=5 function_name_id=20 line=199 end_line=204 column=10 end_column=5}
63 {file_name_id=5 function_name_id=20 line=209 end_line=209 column=13 end_column=63}
64 {file_name_id=5 function_name_id=20 line=210 end_line=210 column=6 end_column=17}
65 {file_name_id=4 function_name_id=9 line=549 end_line=549 column=6 end_column=35}
66 {file_name_id=4 function_name_id=11 line=130 end_line=130 column=10 end_column=47}
67 {file_name_id=4 function_name_id=9 line=550 end_line=550 column=6 end_column=33}
68 {file_name_id=4 function_name_id=11 line=132 end_line=132 column=17 end_column=60}
69 {file_name_id=4 function_name_id=10 line=291 end_line=295 column=9 end_column=3}
70 {file_name_id=4 function_name_id=9 line=676 end_line=688 column=10 end_column=8}
71 {file_name_id=2 function_name_id=4 line=43 end_line=43 column=12 end_column=31}
72 {file_name_id=2 function_name_id=4 line=47 end_line=47 column=16 end_column=27}
73 {file_name_id=2 function_name_id=4 line=44 end_line=44 column=12 end_column=78}
74 {file_name_id=2 function_name_id=4 line=45 end_line=45 column=12 end_column=58}
75 {file_name_id=2 function_name_id=4 line=45 end_line=45 column=64 end_column=74}
76 {file_name_id=2 function_name_id=4 line=46 end_line=46 column=12 end_column=36}
77 {file_name_id=2 function_name_id=4 line=47 end_line=47 column=12 end_column=31}
78 {file_name_id=2 function_name_id=3 line=72 end_line=72 column=75 end_column=85}
79 {file_name_id=2 function_name_id=3 line=72 end_line=72 column=14 end_column=86}
80 {file_name_id=2 function_name_id=3 line=73 end_line=73 column=23 end_column=49}
81 {file_name_id=2 function_name_id=3 line=74 end_line=74 column=12 end_column=84}
82 {file_name_id=2 function_name_id=3 line=75 end_line=76 column=12 end_column=58}
83 {file_name_id=2 function_name_id=3 line=78 end_line=78 column=12 end_column=91}
84 {file_name_id=2 function_name_id=3 line=79 end_line=79 column=12 end_column=43}
85 {file_name_id=2 function_name_id=3 line=80 end_line=80 column=12 end_column=93}

StackFrames
1 {file_location_id=1 parent_frame_id=1}
2 {file_location_id=2 parent_frame_id=2}
3 {file_location_id=3 parent_frame_id=3}
4 {file_location_id=4 parent_frame_id=4}
5 {file_location_id=5 parent_frame_id=5}
6 {file_location_id=6 parent_frame_id=6}
7 {file_location_id=7 parent_frame_id=7}
8 {file_location_id=8 parent_frame_id=8}
9 {file_location_id=9 parent_frame_id=4}
10 {file_location_id=10 parent_frame_id=10}
11 {file_location_id=11 parent_frame_id=11}
12 {file_location_id=12 parent_frame_id=12}
13 {file_location_id=13 parent_frame_id=4}
14 {file_location_id=5 parent_frame_id=14}
15 {file_location_id=6 parent_frame_id=15}
16 {file_location_id=7 parent_frame_id=16}
17 {file_location_id=8 parent_frame_id=17}
18 {file_location_id=14 parent_frame_id=3}
19 {file_location_id=5 parent_frame_id=19}
20 {file_location_id=6 parent_frame_id=20}
21 {file_location_id=7 parent_frame_id=21}
22 {file_location_id=8 parent_frame_id=22}
23 {file_location_id=15 parent_frame_id=3}
24 {file_location_id=16 parent_frame_id=3}
25 {file_location_id=17 parent_frame_id=25}
26 {file_location_id=18 parent_frame_id=25}
27 {file_location_id=19 parent_frame_id=25}
28 {file_location_id=20 parent_frame_id=3}
29 {file_location_id=21 parent_frame_id=3}
30 {file_location_id=22 parent_frame_id=3}
31 {file_location_id=23 parent_frame_id=31}
32 {file_location_id=24 parent_frame_id=32}
33 {file_location_id=25 parent_frame_id=32}
34 {file_location_id=26 parent_frame_id=32}
35 {file_location_id=27 parent_frame_id=32}
36 {file_location_id=28 parent_frame_id=32}
37 {file_location_id=29 parent_frame_id=32}
38 {file_location_id=30 parent_frame_id=32}
39 {file_location_id=31 parent_frame_id=32}
40 {file_location_id=32 parent_frame_id=31}
41 {file_location_id=33 parent_frame_id=41}
42 {file_location_id=34 parent_frame_id=41}
43 {file_location_id=35 parent_frame_id=41}
44 {file_location_id=36 parent_frame_id=31}
45 {file_location_id=37 parent_frame_id=31}
46 {file_location_id=33 parent_frame_id=46}
47 {file_location_id=34 parent_frame_id=46}
48 {file_location_id=35 parent_frame_id=46}
49 {file_location_id=38 parent_frame_id=3}
50 {file_location_id=39 parent_frame_id=50}
51 {file_location_id=40 parent_frame_id=4}
52 {file_location_id=41 parent_frame_id=4}
53 {file_location_id=33 parent_frame_id=53}
54 {file_location_id=34 parent_frame_id=53}
55 {file_location_id=35 parent_frame_id=53}
56 {file_location_id=42 parent_frame_id=4}
57 {file_location_id=43 parent_frame_id=4}
58 {file_location_id=44 parent_frame_id=5}
59 {file_location_id=45 parent_frame_id=59}
60 {file_location_id=46 parent_frame_id=59}
61 {file_location_id=47 parent_frame_id=6}
62 {file_location_id=48 parent_frame_id=62}
63 {file_location_id=49 parent_frame_id=6}
64 {file_location_id=48 parent_frame_id=64}
65 {file_location_id=50 parent_frame_id=6}
66 {file_location_id=51 parent_frame_id=6}
67 {file_location_id=52 parent_frame_id=59}
68 {file_location_id=53 parent_frame_id=59}
69 {file_location_id=54 parent_frame_id=59}
70 {file_location_id=55 parent_frame_id=59}
71 {file_location_id=56 parent_frame_id=4}
72 {file_location_id=57 parent_frame_id=72}
73 {file_location_id=58 parent_frame_id=72}
74 {file_location_id=59 parent_frame_id=72}
75 {file_location_id=60 parent_frame_id=72}
76 {file_location_id=61 parent_frame_id=10}
77 {file_location_id=62 parent_frame_id=77}
78 {file_location_id=63 parent_frame_id=77}
79 {file_location_id=64 parent_frame_id=77}
80 {file_location_id=65 parent_frame_id=10}
81 {file_location_id=62 parent_frame_id=81}
82 {file_location_id=63 parent_frame_id=81}
83 {file_location_id=64 parent_frame_id=81}
84 {file_location_id=66 parent_frame_id=12}
85 {file_location_id=67 parent_frame_id=10}
86 {file_location_id=62 parent_frame_id=86}
87 {file_location_id=63 parent_frame_id=86}
88 {file_location_id=64 parent_frame_id=86}
89 {file_location_id=68 parent_frame_id=12}
90 {file_location_id=69 parent_frame_id=11}
91 {file_location_id=70 parent_frame_id=10}
92 {file_location_id=62 parent_frame_id=92}
93 {file_location_id=63 parent_frame_id=92}
94 {file_location_id=64 parent_frame_id=92}
95 {file_location_id=71 parent_frame_id=4}
96 {file_location_id=72 parent_frame_id=4}
97 {file_location_id=44 parent_frame_id=14}
98 {file_location_id=45 parent_frame_id=98}
99 {file_location_id=46 parent_frame_id=98}
100 {file_location_id=47 parent_frame_id=15}
101 {file_location_id=48 parent_frame_id=101}
102 {file_location_id=49 parent_frame_id=15}
103 {file_location_id=48 parent_frame_id=103}
104 {file_location_id=50 parent_frame_id=15}
105 {file_location_id=51 parent_frame_id=15}
106 {file_location_id=52 parent_frame_id=98}
107 {file_location_id=53 parent_frame_id=98}
108 {file_location_id=54 parent_frame_id=98}
109 {file_location_id=55 parent_frame_id=98}
110 {file_location_id=73 parent_frame_id=4}
111 {file_location_id=57 parent_frame_id=111}
112 {file_location_id=58 parent_frame_id=111}
113 {file_location_id=59 parent_frame_id=111}
114 {file_location_id=60 parent_frame_id=111}
115 {file_location_id=74 parent_frame_id=4}
116 {file_location_id=33 parent_frame_id=116}
117 {file_location_id=34 parent_frame_id=116}
118 {file_location_id=35 parent_frame_id=116}
119 {file_location_id=75 parent_frame_id=4}
120 {file_location_id=76 parent_frame_id=4}
121 {file_location_id=33 parent_frame_id=121}
122 {file_location_id=34 parent_frame_id=121}
123 {file_location_id=35 parent_frame_id=121}
124 {file_location_id=77 parent_frame_id=4}
125 {file_location_id=44 parent_frame_id=19}
126 {file_location_id=45 parent_frame_id=126}
127 {file_location_id=46 parent_frame_id=126}
128 {file_location_id=47 parent_frame_id=20}
129 {file_location_id=48 parent_frame_id=129}
130 {file_location_id=49 parent_frame_id=20}
131 {file_location_id=48 parent_frame_id=131}
132 {file_location_id=50 parent_frame_id=20}
133 {file_location_id=51 parent_frame_id=20}
134 {file_location_id=52 parent_frame_id=126}
135 {file_location_id=53 parent_frame_id=126}
136 {file_location_id=54 parent_frame_id=126}
137 {file_location_id=55 parent_frame_id=126}
138 {file_location_id=78 parent_frame_id=3}
139 {file_location_id=79 parent_frame_id=3}
140 {file_location_id=33 parent_frame_id=140}
141 {file_location_id=34 parent_frame_id=140}
142 {file_location_id=35 parent_frame_id=140}
143 {file_location_id=80 parent_frame_id=3}
144 {file_location_id=81 parent_frame_id=3}
145 {file_location_id=57 parent_frame_id=145}
146 {file_location_id=58 parent_frame_id=145}
147 {file_location_id=59 parent_frame_id=145}
148 {file_location_id=60 parent_frame_id=145}
149 {file_location_id=82 parent_frame_id=3}
150 {file_location_id=33 parent_frame_id=150}
151 {file_location_id=34 parent_frame_id=150}
152 {file_location_id=35 parent_frame_id=150}
153 {file_location_id=83 parent_frame_id=3}
154 {file_location_id=84 parent_frame_id=3}
155 {file_location_id=85 parent_frame_id=3}


%silu.1 (Arg_0.1: f32[8,768]) -> f32[8,768] {
  %Arg_0.1 = f32[8,768]{1,0} parameter(0)
  %constant.15 = f32[] constant(1)
  %broadcast.11 = f32[8,768]{1,0} broadcast(%constant.15), dimensions={}
  %neg.1 = f32[8,768]{1,0} negate(%Arg_0.1), metadata={op_name="neg"}
  %exp.2 = f32[8,768]{1,0} exponential(%neg.1), metadata={op_name="exp"}
  %add.13 = f32[8,768]{1,0} add(%exp.2, %broadcast.11), metadata={op_name="add"}
  %div.3 = f32[8,768]{1,0} divide(%broadcast.11, %add.13), metadata={op_name="div"}
  ROOT %mul.10 = f32[8,768]{1,0} multiply(%Arg_0.1, %div.3), metadata={op_name="mul"}
}

%_where.2 (Arg_0.4: pred[8], Arg_1.2: s32[8], Arg_2.1: s32[8]) -> s32[8] {
  %Arg_0.4 = pred[8]{0} parameter(0)
  %Arg_1.2 = s32[8]{0} parameter(1)
  %Arg_2.1 = s32[8]{0} parameter(2)
  ROOT %select_n.1 = s32[8]{0} select(%Arg_0.4, %Arg_1.2, %Arg_2.1), metadata={op_name="select_n"}
}

%region_0.3 (reduce_and.3: pred[], reduce_and.4: pred[]) -> pred[] {
  %reduce_and.3 = pred[] parameter(0), metadata={op_name="reduce_and"}
  %reduce_and.4 = pred[] parameter(1), metadata={op_name="reduce_and"}
  ROOT %reduce_and.5 = pred[] and(%reduce_and.3, %reduce_and.4), metadata={op_name="reduce_and"}
}

%_take.4 (Arg_0.5: f32[1001,768], Arg_1.3: s32[8]) -> f32[8,768] {
  %Arg_1.3 = s32[8]{0} parameter(1)
  %constant.27 = s32[] constant(0)
  %broadcast.19 = s32[8]{0} broadcast(%constant.27), dimensions={}
  %lt.1 = pred[8]{0} compare(%Arg_1.3, %broadcast.19), direction=LT, metadata={op_name="lt"}
  %constant.25 = s32[] constant(1001)
  %broadcast.18 = s32[8]{0} broadcast(%constant.25), dimensions={}
  %add.19 = s32[8]{0} add(%Arg_1.3, %broadcast.18), metadata={op_name="add"}
  %jit__where_.1 = s32[8]{0} call(%lt.1, %add.19, %Arg_1.3), to_apply=%_where.2, metadata={op_name="jit(_where)"}
  %broadcast_in_dim.6 = s32[8,1]{1,0} reshape(%jit__where_.1), metadata={op_name="broadcast_in_dim"}
  %constant.24 = s32[] constant(0)
  %broadcast.17 = s32[8,1]{1,0} broadcast(%constant.24), dimensions={}
  %ge.1 = pred[8,1]{1,0} compare(%broadcast_in_dim.6, %broadcast.17), direction=GE, metadata={op_name="ge"}
  %constant.23 = s32[] constant(1000)
  %broadcast.16 = s32[8,1]{1,0} broadcast(%constant.23), dimensions={}
  %le.1 = pred[8,1]{1,0} compare(%broadcast_in_dim.6, %broadcast.16), direction=LE, metadata={op_name="le"}
  %and.1 = pred[8,1]{1,0} and(%ge.1, %le.1), metadata={op_name="and"}
  %constant.26 = pred[] constant(true)
  %reduce_and.7 = pred[8]{0} reduce(%and.1, %constant.26), dimensions={1}, to_apply=%region_0.3, metadata={op_name="reduce_and"}
  %broadcast_in_dim.7 = pred[8,768]{1,0} broadcast(%reduce_and.7), dimensions={0}, metadata={op_name="broadcast_in_dim"}
  %Arg_0.5 = f32[1001,768]{1,0} parameter(0)
  %gather.1 = f32[8,768]{1,0} gather(%Arg_0.5, %broadcast_in_dim.6), offset_dims={1}, collapsed_slice_dims={0}, start_index_map={0}, index_vector_dim=1, slice_sizes={1,768}, metadata={op_name="gather"}
  %constant.22 = f32[] constant(nan)
  %broadcast_in_dim.5 = f32[8,768]{1,0} broadcast(%constant.22), dimensions={}, metadata={op_name="broadcast_in_dim"}
  ROOT %select_n.3 = f32[8,768]{1,0} select(%broadcast_in_dim.7, %gather.1, %broadcast_in_dim.5), metadata={op_name="select_n"}
}

%region_1.5 (reduce_sum.3: f32[], reduce_sum.4: f32[]) -> f32[] {
  %reduce_sum.3 = f32[] parameter(0), metadata={op_name="reduce_sum"}
  %reduce_sum.4 = f32[] parameter(1), metadata={op_name="reduce_sum"}
  ROOT %reduce_sum.5 = f32[] add(%reduce_sum.3, %reduce_sum.4), metadata={op_name="jit(predict_step)/DiT/block0/LayerNorm_0/reduce_sum" stack_frame_id=8}
}

%region_2.6 (reduce_sum.10: f32[], reduce_sum.11: f32[]) -> f32[] {
  %reduce_sum.10 = f32[] parameter(0), metadata={op_name="reduce_sum"}
  %reduce_sum.11 = f32[] parameter(1), metadata={op_name="reduce_sum"}
  ROOT %reduce_sum.12 = f32[] add(%reduce_sum.10, %reduce_sum.11), metadata={op_name="jit(predict_step)/DiT/block0/LayerNorm_0/reduce_sum" stack_frame_id=8}
}

%region_3.7 (reduce_max.3: f32[], reduce_max.4: f32[]) -> f32[] {
  %reduce_max.3 = f32[] parameter(0), metadata={op_name="reduce_max"}
  %reduce_max.4 = f32[] parameter(1), metadata={op_name="reduce_max"}
  ROOT %reduce_max.5 = f32[] maximum(%reduce_max.3, %reduce_max.4), metadata={op_name="jit(predict_step)/DiT/block0/MultiHeadDotProductAttention_0/reduce_max" stack_frame_id=12}
}

%region_4.8 (reduce_sum.17: f32[], reduce_sum.18: f32[]) -> f32[] {
  %reduce_sum.17 = f32[] parameter(0), metadata={op_name="reduce_sum"}
  %reduce_sum.18 = f32[] parameter(1), metadata={op_name="reduce_sum"}
  ROOT %reduce_sum.19 = f32[] add(%reduce_sum.17, %reduce_sum.18), metadata={op_name="jit(predict_step)/DiT/block0/MultiHeadDotProductAttention_0/reduce_sum" stack_frame_id=12}
}

%region_5.9 (reduce_sum.24: f32[], reduce_sum.25: f32[]) -> f32[] {
  %reduce_sum.24 = f32[] parameter(0), metadata={op_name="reduce_sum"}
  %reduce_sum.25 = f32[] parameter(1), metadata={op_name="reduce_sum"}
  ROOT %reduce_sum.26 = f32[] add(%reduce_sum.24, %reduce_sum.25), metadata={op_name="jit(predict_step)/DiT/block0/LayerNorm_1/reduce_sum" stack_frame_id=17}
}

%region_6.10 (reduce_sum.31: f32[], reduce_sum.32: f32[]) -> f32[] {
  %reduce_sum.31 = f32[] parameter(0), metadata={op_name="reduce_sum"}
  %reduce_sum.32 = f32[] parameter(1), metadata={op_name="reduce_sum"}
  ROOT %reduce_sum.33 = f32[] add(%reduce_sum.31, %reduce_sum.32), metadata={op_name="jit(predict_step)/DiT/block0/LayerNorm_1/reduce_sum" stack_frame_id=17}
}

%region_7.11 (reduce_sum.38: f32[], reduce_sum.39: f32[]) -> f32[] {
  %reduce_sum.38 = f32[] parameter(0), metadata={op_name="reduce_sum"}
  %reduce_sum.39 = f32[] parameter(1), metadata={op_name="reduce_sum"}
  ROOT %reduce_sum.40 = f32[] add(%reduce_sum.38, %reduce_sum.39), metadata={op_name="jit(predict_step)/DiT/block1/LayerNorm_0/reduce_sum" stack_frame_id=8}
}

%region_8.12 (reduce_sum.45: f32[], reduce_sum.46: f32[]) -> f32[] {
  %reduce_sum.45 = f32[] parameter(0), metadata={op_name="reduce_sum"}
  %reduce_sum.46 = f32[] parameter(1), metadata={op_name="reduce_sum"}
  ROOT %reduce_sum.47 = f32[] add(%reduce_sum.45, %reduce_sum.46), metadata={op_name="jit(predict_step)/DiT/block1/LayerNorm_0/reduce_sum" stack_frame_id=8}
}

%region_9.13 (reduce_max.10: f32[], reduce_max.11: f32[]) -> f32[] {
  %reduce_max.10 = f32[] parameter(0), metadata={op_name="reduce_max"}
  %reduce_max.11 = f32[] parameter(1), metadata={op_name="reduce_max"}
  ROOT %reduce_max.12 = f32[] maximum(%reduce_max.10, %reduce_max.11), metadata={op_name="jit(predict_step)/DiT/block1/MultiHeadDotProductAttention_0/reduce_max" stack_frame_id=12}
}

%region_10.14 (reduce_sum.52: f32[], reduce_sum.53: f32[]) -> f32[] {
  %reduce_sum.52 = f32[] parameter(0), metadata={op_name="reduce_sum"}
  %reduce_sum.53 = f32[] parameter(1), metadata={op_name="reduce_sum"}
  ROOT %reduce_sum.54 = f32[] add(%reduce_sum.52, %reduce_sum.53), metadata={op_name="jit(predict_step)/DiT/block1/MultiHeadDotProductAttention_0/reduce_sum" stack_frame_id=12}
}

%region_11.15 (reduce_sum.59: f32[], reduce_sum.60: f32[]) -> f32[] {
  %reduce_sum.59 = f32[] parameter(0), metadata={op_name="reduce_sum"}
  %reduce_sum.60 = f32[] parameter(1), metadata={op_name="reduce_sum"}
  ROOT %reduce_sum.61 = f32[] add(%reduce_sum.59, %reduce_sum.60), metadata={op_name="jit(predict_step)/DiT/block1/LayerNorm_1/reduce_sum" stack_frame_id=17}
}

%region_12.16 (reduce_sum.66: f32[], reduce_sum.67: f32[]) -> f32[] {
  %reduce_sum.66 = f32[] parameter(0), metadata={op_name="reduce_sum"}
  %reduce_sum.67 = f32[] parameter(1), metadata={op_name="reduce_sum"}
  ROOT %reduce_sum.68 = f32[] add(%reduce_sum.66, %reduce_sum.67), metadata={op_name="jit(predict_step)/DiT/block1/LayerNorm_1/reduce_sum" stack_frame_id=17}
}

%region_13.17 (reduce_sum.73: f32[], reduce_sum.74: f32[]) -> f32[] {
  %reduce_sum.73 = f32[] parameter(0), metadata={op_name="reduce_sum"}
  %reduce_sum.74 = f32[] parameter(1), metadata={op_name="reduce_sum"}
  ROOT %reduce_sum.75 = f32[] add(%reduce_sum.73, %reduce_sum.74), metadata={op_name="jit(predict_step)/DiT/block2/LayerNorm_0/reduce_sum" stack_frame_id=8}
}

%region_14.18 (reduce_sum.80: f32[], reduce_sum.81: f32[]) -> f32[] {
  %reduce_sum.80 = f32[] parameter(0), metadata={op_name="reduce_sum"}
  %reduce_sum.81 = f32[] parameter(1), metadata={op_name="reduce_sum"}
  ROOT %reduce_sum.82 = f32[] add(%reduce_sum.80, %reduce_sum.81), metadata={op_name="jit(predict_step)/DiT/block2/LayerNorm_0/reduce_sum" stack_frame_id=8}
}

%region_15.19 (reduce_max.17: f32[], reduce_max.18: f32[]) -> f32[] {
  %reduce_max.17 = f32[] parameter(0), metadata={op_name="reduce_max"}
  %reduce_max.18 = f32[] parameter(1), metadata={op_name="reduce_max"}
  ROOT %reduce_max.19 = f32[] maximum(%reduce_max.17, %reduce_max.18), metadata={op_name="jit(predict_step)/DiT/block2/MultiHeadDotProductAttention_0/reduce_max" stack_frame_id=12}
}

%region_16.20 (reduce_sum.87: f32[], reduce_sum.88: f32[]) -> f32[] {
  %reduce_sum.87 = f32[] parameter(0), metadata={op_name="reduce_sum"}
  %reduce_sum.88 = f32[] parameter(1), metadata={op_name="reduce_sum"}
  ROOT %reduce_sum.89 = f32[] add(%reduce_sum.87, %reduce_sum.88), metadata={op_name="jit(predict_step)/DiT/block2/MultiHeadDotProductAttention_0/reduce_sum" stack_frame_id=12}
}

%region_17.21 (reduce_sum.94: f32[], reduce_sum.95: f32[]) -> f32[] {
  %reduce_sum.94 = f32[] parameter(0), metadata={op_name="reduce_sum"}
  %reduce_sum.95 = f32[] parameter(1), metadata={op_name="reduce_sum"}
  ROOT %reduce_sum.96 = f32[] add(%reduce_sum.94, %reduce_sum.95), metadata={op_name="jit(predict_step)/DiT/block2/LayerNorm_1/reduce_sum" stack_frame_id=17}
}

%region_18.22 (reduce_sum.101: f32[], reduce_sum.102: f32[]) -> f32[] {
  %reduce_sum.101 = f32[] parameter(0), metadata={op_name="reduce_sum"}
  %reduce_sum.102 = f32[] parameter(1), metadata={op_name="reduce_sum"}
  ROOT %reduce_sum.103 = f32[] add(%reduce_sum.101, %reduce_sum.102), metadata={op_name="jit(predict_step)/DiT/block2/LayerNorm_1/reduce_sum" stack_frame_id=17}
}

%region_19.23 (reduce_sum.108: f32[], reduce_sum.109: f32[]) -> f32[] {
  %reduce_sum.108 = f32[] parameter(0), metadata={op_name="reduce_sum"}
  %reduce_sum.109 = f32[] parameter(1), metadata={op_name="reduce_sum"}
  ROOT %reduce_sum.110 = f32[] add(%reduce_sum.108, %reduce_sum.109), metadata={op_name="jit(predict_step)/DiT/block3/LayerNorm_0/reduce_sum" stack_frame_id=8}
}

%region_20.24 (reduce_sum.115: f32[], reduce_sum.116: f32[]) -> f32[] {
  %reduce_sum.115 = f32[] parameter(0), metadata={op_name="reduce_sum"}
  %reduce_sum.116 = f32[] parameter(1), metadata={op_name="reduce_sum"}
  ROOT %reduce_sum.117 = f32[] add(%reduce_sum.115, %reduce_sum.116), metadata={op_name="jit(predict_step)/DiT/block3/LayerNorm_0/reduce_sum" stack_frame_id=8}
}

%region_21.25 (reduce_max.24: f32[], reduce_max.25: f32[]) -> f32[] {
  %reduce_max.24 = f32[] parameter(0), metadata={op_name="reduce_max"}
  %reduce_max.25 = f32[] parameter(1), metadata={op_name="reduce_max"}
  ROOT %reduce_max.26 = f32[] maximum(%reduce_max.24, %reduce_max.25), metadata={op_name="jit(predict_step)/DiT/block3/MultiHeadDotProductAttention_0/reduce_max" stack_frame_id=12}
}

%region_22.26 (reduce_sum.122: f32[], reduce_sum.123: f32[]) -> f32[] {
  %reduce_sum.122 = f32[] parameter(0), metadata={op_name="reduce_sum"}
  %reduce_sum.123 = f32[] parameter(1), metadata={op_name="reduce_sum"}
  ROOT %reduce_sum.124 = f32[] add(%reduce_sum.122, %reduce_sum.123), metadata={op_name="jit(predict_step)/DiT/block3/MultiHeadDotProductAttention_0/reduce_sum" stack_frame_id=12}
}

%region_23.27 (reduce_sum.129: f32[], reduce_sum.130: f32[]) -> f32[] {
  %reduce_sum.129 = f32[] parameter(0), metadata={op_name="reduce_sum"}
  %reduce_sum.130 = f32[] parameter(1), metadata={op_name="reduce_sum"}
  ROOT %reduce_sum.131 = f32[] add(%reduce_sum.129, %reduce_sum.130), metadata={op_name="jit(predict_step)/DiT/block3/LayerNorm_1/reduce_sum" stack_frame_id=17}
}

%region_24.28 (reduce_sum.136: f32[], reduce_sum.137: f32[]) -> f32[] {
  %reduce_sum.136 = f32[] parameter(0), metadata={op_name="reduce_sum"}
  %reduce_sum.137 = f32[] parameter(1), metadata={op_name="reduce_sum"}
  ROOT %reduce_sum.138 = f32[] add(%reduce_sum.136, %reduce_sum.137), metadata={op_name="jit(predict_step)/DiT/block3/LayerNorm_1/reduce_sum" stack_frame_id=17}
}

%region_25.29 (reduce_sum.143: f32[], reduce_sum.144: f32[]) -> f32[] {
  %reduce_sum.143 = f32[] parameter(0), metadata={op_name="reduce_sum"}
  %reduce_sum.144 = f32[] parameter(1), metadata={op_name="reduce_sum"}
  ROOT %reduce_sum.145 = f32[] add(%reduce_sum.143, %reduce_sum.144), metadata={op_name="jit(predict_step)/DiT/block4/LayerNorm_0/reduce_sum" stack_frame_id=8}
}

%region_26.30 (reduce_sum.150: f32[], reduce_sum.151: f32[]) -> f32[] {
  %reduce_sum.150 = f32[] parameter(0), metadata={op_name="reduce_sum"}
  %reduce_sum.151 = f32[] parameter(1), metadata={op_name="reduce_sum"}
  ROOT %reduce_sum.152 = f32[] add(%reduce_sum.150, %reduce_sum.151), metadata={op_name="jit(predict_step)/DiT/block4/LayerNorm_0/reduce_sum" stack_frame_id=8}
}

%region_27.31 (reduce_max.31: f32[], reduce_max.32: f32[]) -> f32[] {
  %reduce_max.31 = f32[] parameter(0), metadata={op_name="reduce_max"}
  %reduce_max.32 = f32[] parameter(1), metadata={op_name="reduce_max"}
  ROOT %reduce_max.33 = f32[] maximum(%reduce_max.31, %reduce_max.32), metadata={op_name="jit(predict_step)/DiT/block4/MultiHeadDotProductAttention_0/reduce_max" stack_frame_id=12}
}

%region_28.32 (reduce_sum.157: f32[], reduce_sum.158: f32[]) -> f32[] {
  %reduce_sum.157 = f32[] parameter(0), metadata={op_name="reduce_sum"}
  %reduce_sum.158 = f32[] parameter(1), metadata={op_name="reduce_sum"}
  ROOT %reduce_sum.159 = f32[] add(%reduce_sum.157, %reduce_sum.158), metadata={op_name="jit(predict_step)/DiT/block4/MultiHeadDotProductAttention_0/reduce_sum" stack_frame_id=12}
}

%region_29.33 (reduce_sum.164: f32[], reduce_sum.165: f32[]) -> f32[] {
  %reduce_sum.164 = f32[] parameter(0), metadata={op_name="reduce_sum"}
  %reduce_sum.165 = f32[] parameter(1), metadata={op_name="reduce_sum"}
  ROOT %reduce_sum.166 = f32[] add(%reduce_sum.164, %reduce_sum.165), metadata={op_name="jit(predict_step)/DiT/block4/LayerNorm_1/reduce_sum" stack_frame_id=17}
}

%region_30.34 (reduce_sum.171: f32[], reduce_sum.172: f32[]) -> f32[] {
  %reduce_sum.171 = f32[] parameter(0), metadata={op_name="reduce_sum"}
  %reduce_sum.172 = f32[] parameter(1), metadata={op_name="reduce_sum"}
  ROOT %reduce_sum.173 = f32[] add(%reduce_sum.171, %reduce_sum.172), metadata={op_name="jit(predict_step)/DiT/block4/LayerNorm_1/reduce_sum" stack_frame_id=17}
}

%region_31.35 (reduce_sum.178: f32[], reduce_sum.179: f32[]) -> f32[] {
  %reduce_sum.178 = f32[] parameter(0), metadata={op_name="reduce_sum"}
  %reduce_sum.179 = f32[] parameter(1), metadata={op_name="reduce_sum"}
  ROOT %reduce_sum.180 = f32[] add(%reduce_sum.178, %reduce_sum.179), metadata={op_name="jit(predict_step)/DiT/block5/LayerNorm_0/reduce_sum" stack_frame_id=8}
}

%region_32.36 (reduce_sum.185: f32[], reduce_sum.186: f32[]) -> f32[] {
  %reduce_sum.185 = f32[] parameter(0), metadata={op_name="reduce_sum"}
  %reduce_sum.186 = f32[] parameter(1), metadata={op_name="reduce_sum"}
  ROOT %reduce_sum.187 = f32[] add(%reduce_sum.185, %reduce_sum.186), metadata={op_name="jit(predict_step)/DiT/block5/LayerNorm_0/reduce_sum" stack_frame_id=8}
}

%region_33.37 (reduce_max.38: f32[], reduce_max.39: f32[]) -> f32[] {
  %reduce_max.38 = f32[] parameter(0), metadata={op_name="reduce_max"}
  %reduce_max.39 = f32[] parameter(1), metadata={op_name="reduce_max"}
  ROOT %reduce_max.40 = f32[] maximum(%reduce_max.38, %reduce_max.39), metadata={op_name="jit(predict_step)/DiT/block5/MultiHeadDotProductAttention_0/reduce_max" stack_frame_id=12}
}

%region_34.38 (reduce_sum.192: f32[], reduce_sum.193: f32[]) -> f32[] {
  %reduce_sum.192 = f32[] parameter(0), metadata={op_name="reduce_sum"}
  %reduce_sum.193 = f32[] parameter(1), metadata={op_name="reduce_sum"}
  ROOT %reduce_sum.194 = f32[] add(%reduce_sum.192, %reduce_sum.193), metadata={op_name="jit(predict_step)/DiT/block5/MultiHeadDotProductAttention_0/reduce_sum" stack_frame_id=12}
}

%region_35.39 (reduce_sum.199: f32[], reduce_sum.200: f32[]) -> f32[] {
  %reduce_sum.199 = f32[] parameter(0), metadata={op_name="reduce_sum"}
  %reduce_sum.200 = f32[] parameter(1), metadata={op_name="reduce_sum"}
  ROOT %reduce_sum.201 = f32[] add(%reduce_sum.199, %reduce_sum.200), metadata={op_name="jit(predict_step)/DiT/block5/LayerNorm_1/reduce_sum" stack_frame_id=17}
}

%region_36.40 (reduce_sum.206: f32[], reduce_sum.207: f32[]) -> f32[] {
  %reduce_sum.206 = f32[] parameter(0), metadata={op_name="reduce_sum"}
  %reduce_sum.207 = f32[] parameter(1), metadata={op_name="reduce_sum"}
  ROOT %reduce_sum.208 = f32[] add(%reduce_sum.206, %reduce_sum.207), metadata={op_name="jit(predict_step)/DiT/block5/LayerNorm_1/reduce_sum" stack_frame_id=17}
}

%region_37.41 (reduce_sum.213: f32[], reduce_sum.214: f32[]) -> f32[] {
  %reduce_sum.213 = f32[] parameter(0), metadata={op_name="reduce_sum"}
  %reduce_sum.214 = f32[] parameter(1), metadata={op_name="reduce_sum"}
  ROOT %reduce_sum.215 = f32[] add(%reduce_sum.213, %reduce_sum.214), metadata={op_name="jit(predict_step)/DiT/block6/LayerNorm_0/reduce_sum" stack_frame_id=8}
}

%region_38.42 (reduce_sum.220: f32[], reduce_sum.221: f32[]) -> f32[] {
  %reduce_sum.220 = f32[] parameter(0), metadata={op_name="reduce_sum"}
  %reduce_sum.221 = f32[] parameter(1), metadata={op_name="reduce_sum"}
  ROOT %reduce_sum.222 = f32[] add(%reduce_sum.220, %reduce_sum.221), metadata={op_name="jit(predict_step)/DiT/block6/LayerNorm_0/reduce_sum" stack_frame_id=8}
}

%region_39.43 (reduce_max.45: f32[], reduce_max.46: f32[]) -> f32[] {
  %reduce_max.45 = f32[] parameter(0), metadata={op_name="reduce_max"}
  %reduce_max.46 = f32[] parameter(1), metadata={op_name="reduce_max"}
  ROOT %reduce_max.47 = f32[] maximum(%reduce_max.45, %reduce_max.46), metadata={op_name="jit(predict_step)/DiT/block6/MultiHeadDotProductAttention_0/reduce_max" stack_frame_id=12}
}

%region_40.44 (reduce_sum.227: f32[], reduce_sum.228: f32[]) -> f32[] {
  %reduce_sum.227 = f32[] parameter(0), metadata={op_name="reduce_sum"}
  %reduce_sum.228 = f32[] parameter(1), metadata={op_name="reduce_sum"}
  ROOT %reduce_sum.229 = f32[] add(%reduce_sum.227, %reduce_sum.228), metadata={op_name="jit(predict_step)/DiT/block6/MultiHeadDotProductAttention_0/reduce_sum" stack_frame_id=12}
}

%region_41.45 (reduce_sum.234: f32[], reduce_sum.235: f32[]) -> f32[] {
  %reduce_sum.234 = f32[] parameter(0), metadata={op_name="reduce_sum"}
  %reduce_sum.235 = f32[] parameter(1), metadata={op_name="reduce_sum"}
  ROOT %reduce_sum.236 = f32[] add(%reduce_sum.234, %reduce_sum.235), metadata={op_name="jit(predict_step)/DiT/block6/LayerNorm_1/reduce_sum" stack_frame_id=17}
}

%region_42.46 (reduce_sum.241: f32[], reduce_sum.242: f32[]) -> f32[] {
  %reduce_sum.241 = f32[] parameter(0), metadata={op_name="reduce_sum"}
  %reduce_sum.242 = f32[] parameter(1), metadata={op_name="reduce_sum"}
  ROOT %reduce_sum.243 = f32[] add(%reduce_sum.241, %reduce_sum.242), metadata={op_name="jit(predict_step)/DiT/block6/LayerNorm_1/reduce_sum" stack_frame_id=17}
}

%region_43.47 (reduce_sum.248: f32[], reduce_sum.249: f32[]) -> f32[] {
  %reduce_sum.248 = f32[] parameter(0), metadata={op_name="reduce_sum"}
  %reduce_sum.249 = f32[] parameter(1), metadata={op_name="reduce_sum"}
  ROOT %reduce_sum.250 = f32[] add(%reduce_sum.248, %reduce_sum.249), metadata={op_name="jit(predict_step)/DiT/block7/LayerNorm_0/reduce_sum" stack_frame_id=8}
}

%region_44.48 (reduce_sum.255: f32[], reduce_sum.256: f32[]) -> f32[] {
  %reduce_sum.255 = f32[] parameter(0), metadata={op_name="reduce_sum"}
  %reduce_sum.256 = f32[] parameter(1), metadata={op_name="reduce_sum"}
  ROOT %reduce_sum.257 = f32[] add(%reduce_sum.255, %reduce_sum.256), metadata={op_name="jit(predict_step)/DiT/block7/LayerNorm_0/reduce_sum" stack_frame_id=8}
}

%region_45.49 (reduce_max.52: f32[], reduce_max.53: f32[]) -> f32[] {
  %reduce_max.52 = f32[] parameter(0), metadata={op_name="reduce_max"}
  %reduce_max.53 = f32[] parameter(1), metadata={op_name="reduce_max"}
  ROOT %reduce_max.54 = f32[] maximum(%reduce_max.52, %reduce_max.53), metadata={op_name="jit(predict_step)/DiT/block7/MultiHeadDotProductAttention_0/reduce_max" stack_frame_id=12}
}

%region_46.50 (reduce_sum.262: f32[], reduce_sum.263: f32[]) -> f32[] {
  %reduce_sum.262 = f32[] parameter(0), metadata={op_name="reduce_sum"}
  %reduce_sum.263 = f32[] parameter(1), metadata={op_name="reduce_sum"}
  ROOT %reduce_sum.264 = f32[] add(%reduce_sum.262, %reduce_sum.263), metadata={op_name="jit(predict_step)/DiT/block7/MultiHeadDotProductAttention_0/reduce_sum" stack_frame_id=12}
}

%region_47.51 (reduce_sum.269: f32[], reduce_sum.270: f32[]) -> f32[] {
  %reduce_sum.269 = f32[] parameter(0), metadata={op_name="reduce_sum"}
  %reduce_sum.270 = f32[] parameter(1), metadata={op_name="reduce_sum"}
  ROOT %reduce_sum.271 = f32[] add(%reduce_sum.269, %reduce_sum.270), metadata={op_name="jit(predict_step)/DiT/block7/LayerNorm_1/reduce_sum" stack_frame_id=17}
}

%region_48.52 (reduce_sum.276: f32[], reduce_sum.277: f32[]) -> f32[] {
  %reduce_sum.276 = f32[] parameter(0), metadata={op_name="reduce_sum"}
  %reduce_sum.277 = f32[] parameter(1), metadata={op_name="reduce_sum"}
  ROOT %reduce_sum.278 = f32[] add(%reduce_sum.276, %reduce_sum.277), metadata={op_name="jit(predict_step)/DiT/block7/LayerNorm_1/reduce_sum" stack_frame_id=17}
}

%region_49.53 (reduce_sum.283: f32[], reduce_sum.284: f32[]) -> f32[] {
  %reduce_sum.283 = f32[] parameter(0), metadata={op_name="reduce_sum"}
  %reduce_sum.284 = f32[] parameter(1), metadata={op_name="reduce_sum"}
  ROOT %reduce_sum.285 = f32[] add(%reduce_sum.283, %reduce_sum.284), metadata={op_name="jit(predict_step)/DiT/block8/LayerNorm_0/reduce_sum" stack_frame_id=8}
}

%region_50.54 (reduce_sum.290: f32[], reduce_sum.291: f32[]) -> f32[] {
  %reduce_sum.290 = f32[] parameter(0), metadata={op_name="reduce_sum"}
  %reduce_sum.291 = f32[] parameter(1), metadata={op_name="reduce_sum"}
  ROOT %reduce_sum.292 = f32[] add(%reduce_sum.290, %reduce_sum.291), metadata={op_name="jit(predict_step)/DiT/block8/LayerNorm_0/reduce_sum" stack_frame_id=8}
}

%region_51.55 (reduce_max.59: f32[], reduce_max.60: f32[]) -> f32[] {
  %reduce_max.59 = f32[] parameter(0), metadata={op_name="reduce_max"}
  %reduce_max.60 = f32[] parameter(1), metadata={op_name="reduce_max"}
  ROOT %reduce_max.61 = f32[] maximum(%reduce_max.59, %reduce_max.60), metadata={op_name="jit(predict_step)/DiT/block8/MultiHeadDotProductAttention_0/reduce_max" stack_frame_id=12}
}

%region_52.56 (reduce_sum.297: f32[], reduce_sum.298: f32[]) -> f32[] {
  %reduce_sum.297 = f32[] parameter(0), metadata={op_name="reduce_sum"}
  %reduce_sum.298 = f32[] parameter(1), metadata={op_name="reduce_sum"}
  ROOT %reduce_sum.299 = f32[] add(%reduce_sum.297, %reduce_sum.298), metadata={op_name="jit(predict_step)/DiT/block8/MultiHeadDotProductAttention_0/reduce_sum" stack_frame_id=12}
}

%region_53.57 (reduce_sum.304: f32[], reduce_sum.305: f32[]) -> f32[] {
  %reduce_sum.304 = f32[] parameter(0), metadata={op_name="reduce_sum"}
  %reduce_sum.305 = f32[] parameter(1), metadata={op_name="reduce_sum"}
  ROOT %reduce_sum.306 = f32[] add(%reduce_sum.304, %reduce_sum.305), metadata={op_name="jit(predict_step)/DiT/block8/LayerNorm_1/reduce_sum" stack_frame_id=17}
}

%region_54.58 (reduce_sum.311: f32[], reduce_sum.312: f32[]) -> f32[] {
  %reduce_sum.311 = f32[] parameter(0), metadata={op_name="reduce_sum"}
  %reduce_sum.312 = f32[] parameter(1), metadata={op_name="reduce_sum"}
  ROOT %reduce_sum.313 = f32[] add(%reduce_sum.311, %reduce_sum.312), metadata={op_name="jit(predict_step)/DiT/block8/LayerNorm_1/reduce_sum" stack_frame_id=17}
}

%region_55.59 (reduce_sum.318: f32[], reduce_sum.319: f32[]) -> f32[] {
  %reduce_sum.318 = f32[] parameter(0), metadata={op_name="reduce_sum"}
  %reduce_sum.319 = f32[] parameter(1), metadata={op_name="reduce_sum"}
  ROOT %reduce_sum.320 = f32[] add(%reduce_sum.318, %reduce_sum.319), metadata={op_name="jit(predict_step)/DiT/block9/LayerNorm_0/reduce_sum" stack_frame_id=8}
}

%region_56.60 (reduce_sum.325: f32[], reduce_sum.326: f32[]) -> f32[] {
  %reduce_sum.325 = f32[] parameter(0), metadata={op_name="reduce_sum"}
  %reduce_sum.326 = f32[] parameter(1), metadata={op_name="reduce_sum"}
  ROOT %reduce_sum.327 = f32[] add(%reduce_sum.325, %reduce_sum.326), metadata={op_name="jit(predict_step)/DiT/block9/LayerNorm_0/reduce_sum" stack_frame_id=8}
}

%region_57.61 (reduce_max.66: f32[], reduce_max.67: f32[]) -> f32[] {
  %reduce_max.66 = f32[] parameter(0), metadata={op_name="reduce_max"}
  %reduce_max.67 = f32[] parameter(1), metadata={op_name="reduce_max"}
  ROOT %reduce_max.68 = f32[] maximum(%reduce_max.66, %reduce_max.67), metadata={op_name="jit(predict_step)/DiT/block9/MultiHeadDotProductAttention_0/reduce_max" stack_frame_id=12}
}

%region_58.62 (reduce_sum.332: f32[], reduce_sum.333: f32[]) -> f32[] {
  %reduce_sum.332 = f32[] parameter(0), metadata={op_name="reduce_sum"}
  %reduce_sum.333 = f32[] parameter(1), metadata={op_name="reduce_sum"}
  ROOT %reduce_sum.334 = f32[] add(%reduce_sum.332, %reduce_sum.333), metadata={op_name="jit(predict_step)/DiT/block9/MultiHeadDotProductAttention_0/reduce_sum" stack_frame_id=12}
}

%region_59.63 (reduce_sum.339: f32[], reduce_sum.340: f32[]) -> f32[] {
  %reduce_sum.339 = f32[] parameter(0), metadata={op_name="reduce_sum"}
  %reduce_sum.340 = f32[] parameter(1), metadata={op_name="reduce_sum"}
  ROOT %reduce_sum.341 = f32[] add(%reduce_sum.339, %reduce_sum.340), metadata={op_name="jit(predict_step)/DiT/block9/LayerNorm_1/reduce_sum" stack_frame_id=17}
}

%region_60.64 (reduce_sum.346: f32[], reduce_sum.347: f32[]) -> f32[] {
  %reduce_sum.346 = f32[] parameter(0), metadata={op_name="reduce_sum"}
  %reduce_sum.347 = f32[] parameter(1), metadata={op_name="reduce_sum"}
  ROOT %reduce_sum.348 = f32[] add(%reduce_sum.346, %reduce_sum.347), metadata={op_name="jit(predict_step)/DiT/block9/LayerNorm_1/reduce_sum" stack_frame_id=17}
}

%region_61.65 (reduce_sum.353: f32[], reduce_sum.354: f32[]) -> f32[] {
  %reduce_sum.353 = f32[] parameter(0), metadata={op_name="reduce_sum"}
  %reduce_sum.354 = f32[] parameter(1), metadata={op_name="reduce_sum"}
  ROOT %reduce_sum.355 = f32[] add(%reduce_sum.353, %reduce_sum.354), metadata={op_name="jit(predict_step)/DiT/block10/LayerNorm_0/reduce_sum" stack_frame_id=8}
}

%region_62.66 (reduce_sum.360: f32[], reduce_sum.361: f32[]) -> f32[] {
  %reduce_sum.360 = f32[] parameter(0), metadata={op_name="reduce_sum"}
  %reduce_sum.361 = f32[] parameter(1), metadata={op_name="reduce_sum"}
  ROOT %reduce_sum.362 = f32[] add(%reduce_sum.360, %reduce_sum.361), metadata={op_name="jit(predict_step)/DiT/block10/LayerNorm_0/reduce_sum" stack_frame_id=8}
}

%region_63.67 (reduce_max.73: f32[], reduce_max.74: f32[]) -> f32[] {
  %reduce_max.73 = f32[] parameter(0), metadata={op_name="reduce_max"}
  %reduce_max.74 = f32[] parameter(1), metadata={op_name="reduce_max"}
  ROOT %reduce_max.75 = f32[] maximum(%reduce_max.73, %reduce_max.74), metadata={op_name="jit(predict_step)/DiT/block10/MultiHeadDotProductAttention_0/reduce_max" stack_frame_id=12}
}

%region_64.68 (reduce_sum.367: f32[], reduce_sum.368: f32[]) -> f32[] {
  %reduce_sum.367 = f32[] parameter(0), metadata={op_name="reduce_sum"}
  %reduce_sum.368 = f32[] parameter(1), metadata={op_name="reduce_sum"}
  ROOT %reduce_sum.369 = f32[] add(%reduce_sum.367, %reduce_sum.368), metadata={op_name="jit(predict_step)/DiT/block10/MultiHeadDotProductAttention_0/reduce_sum" stack_frame_id=12}
}

%region_65.69 (reduce_sum.374: f32[], reduce_sum.375: f32[]) -> f32[] {
  %reduce_sum.374 = f32[] parameter(0), metadata={op_name="reduce_sum"}
  %reduce_sum.375 = f32[] parameter(1), metadata={op_name="reduce_sum"}
  ROOT %reduce_sum.376 = f32[] add(%reduce_sum.374, %reduce_sum.375), metadata={op_name="jit(predict_step)/DiT/block10/LayerNorm_1/reduce_sum" stack_frame_id=17}
}

%region_66.70 (reduce_sum.381: f32[], reduce_sum.382: f32[]) -> f32[] {
  %reduce_sum.381 = f32[] parameter(0), metadata={op_name="reduce_sum"}
  %reduce_sum.382 = f32[] parameter(1), metadata={op_name="reduce_sum"}
  ROOT %reduce_sum.383 = f32[] add(%reduce_sum.381, %reduce_sum.382), metadata={op_name="jit(predict_step)/DiT/block10/LayerNorm_1/reduce_sum" stack_frame_id=17}
}

%region_67.71 (reduce_sum.388: f32[], reduce_sum.389: f32[]) -> f32[] {
  %reduce_sum.388 = f32[] parameter(0), metadata={op_name="reduce_sum"}
  %reduce_sum.389 = f32[] parameter(1), metadata={op_name="reduce_sum"}
  ROOT %reduce_sum.390 = f32[] add(%reduce_sum.388, %reduce_sum.389), metadata={op_name="jit(predict_step)/DiT/block11/LayerNorm_0/reduce_sum" stack_frame_id=8}
}

%region_68.72 (reduce_sum.395: f32[], reduce_sum.396: f32[]) -> f32[] {
  %reduce_sum.395 = f32[] parameter(0), metadata={op_name="reduce_sum"}
  %reduce_sum.396 = f32[] parameter(1), metadata={op_name="reduce_sum"}
  ROOT %reduce_sum.397 = f32[] add(%reduce_sum.395, %reduce_sum.396), metadata={op_name="jit(predict_step)/DiT/block11/LayerNorm_0/reduce_sum" stack_frame_id=8}
}

%region_69.73 (reduce_max.80: f32[], reduce_max.81: f32[]) -> f32[] {
  %reduce_max.80 = f32[] parameter(0), metadata={op_name="reduce_max"}
  %reduce_max.81 = f32[] parameter(1), metadata={op_name="reduce_max"}
  ROOT %reduce_max.82 = f32[] maximum(%reduce_max.80, %reduce_max.81), metadata={op_name="jit(predict_step)/DiT/block11/MultiHeadDotProductAttention_0/reduce_max" stack_frame_id=12}
}

%region_70.74 (reduce_sum.402: f32[], reduce_sum.403: f32[]) -> f32[] {
  %reduce_sum.402 = f32[] parameter(0), metadata={op_name="reduce_sum"}
  %reduce_sum.403 = f32[] parameter(1), metadata={op_name="reduce_sum"}
  ROOT %reduce_sum.404 = f32[] add(%reduce_sum.402, %reduce_sum.403), metadata={op_name="jit(predict_step)/DiT/block11/MultiHeadDotProductAttention_0/reduce_sum" stack_frame_id=12}
}

%region_71.75 (reduce_sum.409: f32[], reduce_sum.410: f32[]) -> f32[] {
  %reduce_sum.409 = f32[] parameter(0), metadata={op_name="reduce_sum"}
  %reduce_sum.410 = f32[] parameter(1), metadata={op_name="reduce_sum"}
  ROOT %reduce_sum.411 = f32[] add(%reduce_sum.409, %reduce_sum.410), metadata={op_name="jit(predict_step)/DiT/block11/LayerNorm_1/reduce_sum" stack_frame_id=17}
}

%region_72.76 (reduce_sum.416: f32[], reduce_sum.417: f32[]) -> f32[] {
  %reduce_sum.416 = f32[] parameter(0), metadata={op_name="reduce_sum"}
  %reduce_sum.417 = f32[] parameter(1), metadata={op_name="reduce_sum"}
  ROOT %reduce_sum.418 = f32[] add(%reduce_sum.416, %reduce_sum.417), metadata={op_name="jit(predict_step)/DiT/block11/LayerNorm_1/reduce_sum" stack_frame_id=17}
}

%region_73.77 (reduce_sum.423: f32[], reduce_sum.424: f32[]) -> f32[] {
  %reduce_sum.423 = f32[] parameter(0), metadata={op_name="reduce_sum"}
  %reduce_sum.424 = f32[] parameter(1), metadata={op_name="reduce_sum"}
  ROOT %reduce_sum.425 = f32[] add(%reduce_sum.423, %reduce_sum.424), metadata={op_name="jit(predict_step)/DiT/LayerNorm_0/reduce_sum" stack_frame_id=22}
}

%region_74.78 (reduce_sum.430: f32[], reduce_sum.431: f32[]) -> f32[] {
  %reduce_sum.430 = f32[] parameter(0), metadata={op_name="reduce_sum"}
  %reduce_sum.431 = f32[] parameter(1), metadata={op_name="reduce_sum"}
  ROOT %reduce_sum.432 = f32[] add(%reduce_sum.430, %reduce_sum.431), metadata={op_name="jit(predict_step)/DiT/LayerNorm_0/reduce_sum" stack_frame_id=22}
}

ENTRY %main.79 (params__Dense_0____bias__.1: f32[1536], params__Dense_0____kernel__.1: f32[768,1536], params__Dense_1____bias__.1: f32[16], params__Dense_1____kernel__.1: f32[768,16], params__Embed_0____embedding__.1: f32[1001,768], params__TimestepEmbedder_0____Dense_0____bias__.1: f32[768], params__TimestepEmbedder_0____Dense_0____kernel__.1: f32[768,768], params__TimestepEmbedder_0____Dense_1____bias__.1: f32[768], params__TimestepEmbedder_0____Dense_1____kernel__.1: f32[768,768], params__block0____Dense_0____bias__.1: f32[4608], params__block0____Dense_0____kernel__.1: f32[768,4608], params__block0____Dense_1____bias__.1: f32[3072], params__block0____Dense_1____kernel__.1: f32[768,3072], params__block0____Dense_2____bias__.1: f32[768], params__block0____Dense_2____kernel__.1: f32[3072,768], params__block0____MultiHeadDotProductAttention_0____key____bias__.1: f32[12,64], params__block0____MultiHeadDotProductAttention_0____key____kernel__.1: f32[768,12,64], params__block0____MultiHeadDotProductAttention_0____out____bias__.1: f32[768], params__block0____MultiHeadDotProductAttention_0____out____kernel__.1: f32[12,64,768], params__block0____MultiHeadDotProductAttention_0____query____bias__.1: f32[12,64], params__block0____MultiHeadDotProductAttention_0____query____kernel__.1: f32[768,12,64], params__block0____MultiHeadDotProductAttention_0____value____bias__.1: f32[12,64], params__block0____MultiHeadDotProductAttention_0____value____kernel__.1: f32[768,12,64], params__block1____Dense_0____bias__.1: f32[4608], params__block1____Dense_0____kernel__.1: f32[768,4608], params__block1____Dense_1____bias__.1: f32[3072], params__block1____Dense_1____kernel__.1: f32[768,3072], params__block1____Dense_2____bias__.1: f32[768], params__block1____Dense_2____kernel__.1: f32[3072,768], params__block1____MultiHeadDotProductAttention_0____key____bias__.1: f32[12,64], params__block1____MultiHeadDotProductAttention_0____key____kernel__.1: f32[768,12,64], params__block1____MultiHeadDotProductAttention_0____out____bias__.1: f32[768], params__block1____MultiHeadDotProductAttention_0____out____kernel__.1: f32[12,64,768], params__block1____MultiHeadDotProductAttention_0____query____bias__.1: f32[12,64], params__block1____MultiHeadDotProductAttention_0____query____kernel__.1: f32[768,12,64], params__block1____MultiHeadDotProductAttention_0____value____bias__.1: f32[12,64], params__block1____MultiHeadDotProductAttention_0____value____kernel__.1: f32[768,12,64], params__block10____Dense_0____bias__.1: f32[4608], params__block10____Dense_0____kernel__.1: f32[768,4608], params__block10____Dense_1____bias__.1: f32[3072], params__block10____Dense_1____kernel__.1: f32[768,3072], params__block10____Dense_2____bias__.1: f32[768], params__block10____Dense_2____kernel__.1: f32[3072,768], params__block10____MultiHeadDotProductAttention_0____key____bias__.1: f32[12,64], params__block10____MultiHeadDotProductAttention_0____key____kernel__.1: f32[768,12,64], params__block10____MultiHeadDotProductAttention_0____out____bias__.1: f32[768], params__block10____MultiHeadDotProductAttention_0____out____kernel__.1: f32[12,64,768], params__block10____MultiHeadDotProductAttention_0____query____bias__.1: f32[12,64], params__block10____MultiHeadDotProductAttention_0____query____kernel__.1: f32[768,12,64], params__block10____MultiHeadDotProductAttention_0____value____bias__.1: f32[12,64], params__block10____MultiHeadDotProductAttention_0____value____kernel__.1: f32[768,12,64], params__block11____Dense_0____bias__.1: f32[4608], params__block11____Dense_0____kernel__.1: f32[768,4608], params__block11____Dense_1____bias__.1: f32[3072], params__block11____Dense_1____kernel__.1: f32[768,3072], params__block11____Dense_2____bias__.1: f32[768], params__block11____Dense_2____kernel__.1: f32[3072,768], params__block11____MultiHeadDotProductAttention_0____key____bias__.1: f32[12,64], params__block11____MultiHeadDotProductAttention_0____key____kernel__.1: f32[768,12,64], params__block11____MultiHeadDotProductAttention_0____out____bias__.1: f32[768], params__block11____MultiHeadDotProductAttention_0____out____kernel__.1: f32[12,64,768], params__block11____MultiHeadDotProductAttention_0____query____bias__.1: f32[12,64], params__block11____MultiHeadDotProductAttention_0____query____kernel__.1: f32[768,12,64], params__block11____MultiHeadDotProductAttention_0____value____bias__.1: f32[12,64], params__block11____MultiHeadDotProductAttention_0____value____kernel__.1: f32[768,12,64], params__block2____Dense_0____bias__.1: f32[4608], params__block2____Dense_0____kernel__.1: f32[768,4608], params__block2____Dense_1____bias__.1: f32[3072], params__block2____Dense_1____kernel__.1: f32[768,3072], params__block2____Dense_2____bias__.1: f32[768], params__block2____Dense_2____kernel__.1: f32[3072,768], params__block2____MultiHeadDotProductAttention_0____key____bias__.1: f32[12,64], params__block2____MultiHeadDotProductAttention_0____key____kernel__.1: f32[768,12,64], params__block2____MultiHeadDotProductAttention_0____out____bias__.1: f32[768], params__block2____MultiHeadDotProductAttention_0____out____kernel__.1: f32[12,64,768], params__block2____MultiHeadDotProductAttention_0____query____bias__.1: f32[12,64], params__block2____MultiHeadDotProductAttention_0____query____kernel__.1: f32[768,12,64], params__block2____MultiHeadDotProductAttention_0____value____bias__.1: f32[12,64], params__block2____MultiHeadDotProductAttention_0____value____kernel__.1: f32[768,12,64], params__block3____Dense_0____bias__.1: f32[4608], params__block3____Dense_0____kernel__.1: f32[768,4608], params__block3____Dense_1____bias__.1: f32[3072], params__block3____Dense_1____kernel__.1: f32[768,3072], params__block3____Dense_2____bias__.1: f32[768], params__block3____Dense_2____kernel__.1: f32[3072,768], params__block3____MultiHeadDotProductAttention_0____key____bias__.1: f32[12,64], params__block3____MultiHeadDotProductAttention_0____key____kernel__.1: f32[768,12,64], params__block3____MultiHeadDotProductAttention_0____out____bias__.1: f32[768], params__block3____MultiHeadDotProductAttention_0____out____kernel__.1: f32[12,64,768], params__block3____MultiHeadDotProductAttention_0____query____bias__.1: f32[12,64], params__block3____MultiHeadDotProductAttention_0____query____kernel__.1: f32[768,12,64], params__block3____MultiHeadDotProductAttention_0____value____bias__.1: f32[12,64], params__block3____MultiHeadDotProductAttention_0____value____kernel__.1: f32[768,12,64], params__block4____Dense_0____bias__.1: f32[4608], params__block4____Dense_0____kernel__.1: f32[768,4608], params__block4____Dense_1____bias__.1: f32[3072], params__block4____Dense_1____kernel__.1: f32[768,3072], params__block4____Dense_2____bias__.1: f32[768], params__block4____Dense_2____kernel__.1: f32[3072,768], params__block4____MultiHeadDotProductAttention_0____key____bias__.1: f32[12,64], params__block4____MultiHeadDotProductAttention_0____key____kernel__.1: f32[768,12,64], params__block4____MultiHeadDotProductAttention_0____out____bias__.1: f32[768], params__block4____MultiHeadDotProductAttention_0____out____kernel__.1: f32[12,64,768], params__block4____MultiHeadDotProductAttention_0____query____bias__.1: f32[12,64], params__block4____MultiHeadDotProductAttention_0____query____kernel__.1: f32[768,12,64], params__block4____MultiHeadDotProductAttention_0____value____bias__.1: f32[12,64], params__block4____MultiHeadDotProductAttention_0____value____kernel__.1: f32[768,12,64], params__block5____Dense_0____bias__.1: f32[4608], params__block5____Dense_0____kernel__.1: f32[768,4608], params__block5____Dense_1____bias__.1: f32[3072], params__block5____Dense_1____kernel__.1: f32[768,3072], params__block5____Dense_2____bias__.1: f32[768], params__block5____Dense_2____kernel__.1: f32[3072,768], params__block5____MultiHeadDotProductAttention_0____key____bias__.1: f32[12,64], params__block5____MultiHeadDotProductAttention_0____key____kernel__.1: f32[768,12,64], params__block5____MultiHeadDotProductAttention_0____out____bias__.1: f32[768], params__block5____MultiHeadDotProductAttention_0____out____kernel__.1: f32[12,64,768], params__block5____MultiHeadDotProductAttention_0____query____bias__.1: f32[12,64], params__block5____MultiHeadDotProductAttention_0____query____kernel__.1: f32[768,12,64], params__block5____MultiHeadDotProductAttention_0____value____bias__.1: f32[12,64], params__block5____MultiHeadDotProductAttention_0____value____kernel__.1: f32[768,12,64], params__block6____Dense_0____bias__.1: f32[4608], params__block6____Dense_0____kernel__.1: f32[768,4608], params__block6____Dense_1____bias__.1: f32[3072], params__block6____Dense_1____kernel__.1: f32[768,3072], params__block6____Dense_2____bias__.1: f32[768], params__block6____Dense_2____kernel__.1: f32[3072,768], params__block6____MultiHeadDotProductAttention_0____key____bias__.1: f32[12,64], params__block6____MultiHeadDotProductAttention_0____key____kernel__.1: f32[768,12,64], params__block6____MultiHeadDotProductAttention_0____out____bias__.1: f32[768], params__block6____MultiHeadDotProductAttention_0____out____kernel__.1: f32[12,64,768], params__block6____MultiHeadDotProductAttention_0____query____bias__.1: f32[12,64], params__block6____MultiHeadDotProductAttention_0____query____kernel__.1: f32[768,12,64], params__block6____MultiHeadDotProductAttention_0____value____bias__.1: f32[12,64], params__block6____MultiHeadDotProductAttention_0____value____kernel__.1: f32[768,12,64], params__block7____Dense_0____bias__.1: f32[4608], params__block7____Dense_0____kernel__.1: f32[768,4608], params__block7____Dense_1____bias__.1: f32[3072], params__block7____Dense_1____kernel__.1: f32[768,3072], params__block7____Dense_2____bias__.1: f32[768], params__block7____Dense_2____kernel__.1: f32[3072,768], params__block7____MultiHeadDotProductAttention_0____key____bias__.1: f32[12,64], params__block7____MultiHeadDotProductAttention_0____key____kernel__.1: f32[768,12,64], params__block7____MultiHeadDotProductAttention_0____out____bias__.1: f32[768], params__block7____MultiHeadDotProductAttention_0____out____kernel__.1: f32[12,64,768], params__block7____MultiHeadDotProductAttention_0____query____bias__.1: f32[12,64], params__block7____MultiHeadDotProductAttention_0____query____kernel__.1: f32[768,12,64], params__block7____MultiHeadDotProductAttention_0____value____bias__.1: f32[12,64], params__block7____MultiHeadDotProductAttention_0____value____kernel__.1: f32[768,12,64], params__block8____Dense_0____bias__.1: f32[4608], params__block8____Dense_0____kernel__.1: f32[768,4608], params__block8____Dense_1____bias__.1: f32[3072], params__block8____Dense_1____kernel__.1: f32[768,3072], params__block8____Dense_2____bias__.1: f32[768], params__block8____Dense_2____kernel__.1: f32[3072,768], params__block8____MultiHeadDotProductAttention_0____key____bias__.1: f32[12,64], params__block8____MultiHeadDotProductAttention_0____key____kernel__.1: f32[768,12,64], params__block8____MultiHeadDotProductAttention_0____out____bias__.1: f32[768], params__block8____MultiHeadDotProductAttention_0____out____kernel__.1: f32[12,64,768], params__block8____MultiHeadDotProductAttention_0____query____bias__.1: f32[12,64], params__block8____MultiHeadDotProductAttention_0____query____kernel__.1: f32[768,12,64], params__block8____MultiHeadDotProductAttention_0____value____bias__.1: f32[12,64], params__block8____MultiHeadDotProductAttention_0____value____kernel__.1: f32[768,12,64], params__block9____Dense_0____bias__.1: f32[4608], params__block9____Dense_0____kernel__.1: f32[768,4608], params__block9____Dense_1____bias__.1: f32[3072], params__block9____Dense_1____kernel__.1: f32[768,3072], params__block9____Dense_2____bias__.1: f32[768], params__block9____Dense_2____kernel__.1: f32[3072,768], params__block9____MultiHeadDotProductAttention_0____key____bias__.1: f32[12,64], params__block9____MultiHeadDotProductAttention_0____key____kernel__.1: f32[768,12,64], params__block9____MultiHeadDotProductAttention_0____out____bias__.1: f32[768], params__block9____MultiHeadDotProductAttention_0____out____kernel__.1: f32[12,64,768], params__block9____MultiHeadDotProductAttention_0____query____bias__.1: f32[12,64], params__block9____MultiHeadDotProductAttention_0____query____kernel__.1: f32[768,12,64], params__block9____MultiHeadDotProductAttention_0____value____bias__.1: f32[12,64], params__block9____MultiHeadDotProductAttention_0____value____kernel__.1: f32[768,12,64], params__patch_embed____bias__.1: f32[768], params__patch_embed____kernel__.1: f32[2,2,4,768], params__pos_embed__.1: f32[1,256,768], x.1: f32[8,4,32,32], t.1: f32[8], y.1: s32[8]) -> f32[8,4,32,32] {
  %x.1 = f32[8,4,32,32]{3,2,1,0} parameter(180), metadata={op_name="x"}
  %transpose.14 = f32[8,32,32,4]{2,1,3,0} transpose(%x.1), dimensions={0,2,3,1}, metadata={op_name="jit(predict_step)/DiT/transpose" stack_frame_id=23}
  %params__patch_embed____kernel__.1 = f32[2,2,4,768]{3,2,1,0} parameter(178), metadata={op_name="params[\'patch_embed\'][\'kernel\']"}
  %conv_general_dilated.1 = f32[8,16,16,768]{3,2,1,0} convolution(%transpose.14, %params__patch_embed____kernel__.1), window={size=2x2 stride=2x2}, dim_labels=b01f_01io->b01f, metadata={op_name="jit(predict_step)/DiT/patch_embed/conv_general_dilated" stack_frame_id=25}
  %params__patch_embed____bias__.1 = f32[768]{0} parameter(177), metadata={op_name="params[\'patch_embed\'][\'bias\']"}
  %reshape.92 = f32[1,1,1,768]{3,2,1,0} reshape(%params__patch_embed____bias__.1), metadata={op_name="jit(predict_step)/DiT/patch_embed/reshape" stack_frame_id=26}
  %add.563 = f32[1,1,1,768]{3,2,1,0} broadcast(%reshape.92), dimensions={0,1,2,3}, metadata={op_name="jit(predict_step)/DiT/patch_embed/add" stack_frame_id=27}
  %add.564 = f32[768]{0} reshape(%add.563), metadata={op_name="jit(predict_step)/DiT/patch_embed/add" stack_frame_id=27}
  %add.565 = f32[8,16,16,768]{3,2,1,0} broadcast(%add.564), dimensions={3}, metadata={op_name="jit(predict_step)/DiT/patch_embed/add" stack_frame_id=27}
  %add.566 = f32[8,16,16,768]{3,2,1,0} add(%conv_general_dilated.1, %add.565), metadata={op_name="jit(predict_step)/DiT/patch_embed/add" stack_frame_id=27}
  %reshape.93 = f32[8,256,768]{2,1,0} reshape(%add.566), metadata={op_name="jit(predict_step)/DiT/reshape" stack_frame_id=28}
  %params__pos_embed__.1 = f32[1,256,768]{2,1,0} parameter(179), metadata={op_name="params[\'pos_embed\']"}
  %add.567 = f32[1,256,768]{2,1,0} broadcast(%params__pos_embed__.1), dimensions={0,1,2}, metadata={op_name="jit(predict_step)/DiT/add" stack_frame_id=29}
  %add.568 = f32[256,768]{1,0} reshape(%add.567), metadata={op_name="jit(predict_step)/DiT/add" stack_frame_id=29}
  %add.569 = f32[8,256,768]{2,1,0} broadcast(%add.568), dimensions={1,2}, metadata={op_name="jit(predict_step)/DiT/add" stack_frame_id=29}
  %add.570 = f32[8,256,768]{2,1,0} add(%reshape.93, %add.569), metadata={op_name="jit(predict_step)/DiT/add" stack_frame_id=29}
  %t.1 = f32[8]{0} parameter(181), metadata={op_name="t"}
  %broadcast_in_dim.156 = f32[8,1]{1,0} reshape(%t.1), metadata={op_name="jit(predict_step)/DiT/TimestepEmbedder_0/broadcast_in_dim" stack_frame_id=32}
  %mul.357 = f32[8,1]{1,0} broadcast(%broadcast_in_dim.156), dimensions={0,1}, metadata={op_name="jit(predict_step)/DiT/TimestepEmbedder_0/mul" stack_frame_id=32}
  %mul.358 = f32[8]{0} reshape(%mul.357), metadata={op_name="jit(predict_step)/DiT/TimestepEmbedder_0/mul" stack_frame_id=32}
  %mul.359 = f32[8,384]{1,0} broadcast(%mul.358), dimensions={0}, metadata={op_name="jit(predict_step)/DiT/TimestepEmbedder_0/mul" stack_frame_id=32}
  %iota.1 = s32[384]{0} iota(), iota_dimension=0, metadata={op_name="jit(predict_step)/DiT/TimestepEmbedder_0/iota" stack_frame_id=33}
  %convert_element_type.1 = f32[384]{0} convert(%iota.1), metadata={op_name="jit(predict_step)/DiT/TimestepEmbedder_0/convert_element_type" stack_frame_id=34}
  %constant.39 = f32[] constant(-9.2103405)
  %mul.355 = f32[384]{0} broadcast(%constant.39), dimensions={}, metadata={op_name="jit(predict_step)/DiT/TimestepEmbedder_0/mul" stack_frame_id=34}
  %mul.356 = f32[384]{0} multiply(%convert_element_type.1, %mul.355), metadata={op_name="jit(predict_step)/DiT/TimestepEmbedder_0/mul" stack_frame_id=34}
  %constant.38 = f32[] constant(384)
  %div.114 = f32[384]{0} broadcast(%constant.38), dimensions={}, metadata={op_name="jit(predict_step)/DiT/TimestepEmbedder_0/div" stack_frame_id=34}
  %div.115 = f32[384]{0} divide(%mul.356, %div.114), metadata={op_name="jit(predict_step)/DiT/TimestepEmbedder_0/div" stack_frame_id=34}
  %exp.15 = f32[384]{0} exponential(%div.115), metadata={op_name="jit(predict_step)/DiT/TimestepEmbedder_0/exp" stack_frame_id=35}
  %broadcast_in_dim.157 = f32[1,384]{1,0} reshape(%exp.15), metadata={op_name="jit(predict_step)/DiT/TimestepEmbedder_0/broadcast_in_dim" stack_frame_id=36}
  %mul.360 = f32[1,384]{1,0} broadcast(%broadcast_in_dim.157), dimensions={0,1}, metadata={op_name="jit(predict_step)/DiT/TimestepEmbedder_0/mul" stack_frame_id=32}
  %mul.361 = f32[384]{0} reshape(%mul.360), metadata={op_name="jit(predict_step)/DiT/TimestepEmbedder_0/mul" stack_frame_id=32}
  %mul.362 = f32[8,384]{1,0} broadcast(%mul.361), dimensions={1}, metadata={op_name="jit(predict_step)/DiT/TimestepEmbedder_0/mul" stack_frame_id=32}
  %mul.363 = f32[8,384]{1,0} multiply(%mul.359, %mul.362), metadata={op_name="jit(predict_step)/DiT/TimestepEmbedder_0/mul" stack_frame_id=32}
  %cos.1 = f32[8,384]{1,0} cosine(%mul.363), metadata={op_name="jit(predict_step)/DiT/TimestepEmbedder_0/cos" stack_frame_id=37}
  %sin.1 = f32[8,384]{1,0} sine(%mul.363), metadata={op_name="jit(predict_step)/DiT/TimestepEmbedder_0/sin" stack_frame_id=38}
  %concatenate.1 = f32[8,768]{1,0} concatenate(%cos.1, %sin.1), dimensions={1}, metadata={op_name="jit(predict_step)/DiT/TimestepEmbedder_0/concatenate" stack_frame_id=39}
  %params__TimestepEmbedder_0____Dense_0____kernel__.1 = f32[768,768]{1,0} parameter(6), metadata={op_name="params[\'TimestepEmbedder_0\'][\'Dense_0\'][\'kernel\']"}
  %dot_general.112 = f32[8,768]{1,0} dot(%concatenate.1, %params__TimestepEmbedder_0____Dense_0____kernel__.1), lhs_contracting_dims={1}, rhs_contracting_dims={0}, metadata={op_name="jit(predict_step)/DiT/TimestepEmbedder_0/Dense_0/dot_general" stack_frame_id=41}
  %params__TimestepEmbedder_0____Dense_0____bias__.1 = f32[768]{0} parameter(5), metadata={op_name="params[\'TimestepEmbedder_0\'][\'Dense_0\'][\'bias\']"}
  %reshape.94 = f32[1,768]{1,0} reshape(%params__TimestepEmbedder_0____Dense_0____bias__.1), metadata={op_name="jit(predict_step)/DiT/TimestepEmbedder_0/Dense_0/reshape" stack_frame_id=42}
  %add.571 = f32[1,768]{1,0} broadcast(%reshape.94), dimensions={0,1}, metadata={op_name="jit(predict_step)/DiT/TimestepEmbedder_0/Dense_0/add" stack_frame_id=43}
  %add.572 = f32[768]{0} reshape(%add.571), metadata={op_name="jit(predict_step)/DiT/TimestepEmbedder_0/Dense_0/add" stack_frame_id=43}
  %add.573 = f32[8,768]{1,0} broadcast(%add.572), dimensions={1}, metadata={op_name="jit(predict_step)/DiT/TimestepEmbedder_0/Dense_0/add" stack_frame_id=43}
  %add.574 = f32[8,768]{1,0} add(%dot_general.112, %add.573), metadata={op_name="jit(predict_step)/DiT/TimestepEmbedder_0/Dense_0/add" stack_frame_id=43}
  %jit_silu_.14 = f32[8,768]{1,0} call(%add.574), to_apply=%silu.1, metadata={op_name="jit(predict_step)/DiT/TimestepEmbedder_0/jit(silu)" stack_frame_id=44}
  %params__TimestepEmbedder_0____Dense_1____kernel__.1 = f32[768,768]{1,0} parameter(8), metadata={op_name="params[\'TimestepEmbedder_0\'][\'Dense_1\'][\'kernel\']"}
  %dot_general.113 = f32[8,768]{1,0} dot(%jit_silu_.14, %params__TimestepEmbedder_0____Dense_1____kernel__.1), lhs_contracting_dims={1}, rhs_contracting_dims={0}, metadata={op_name="jit(predict_step)/DiT/TimestepEmbedder_0/Dense_1/dot_general" stack_frame_id=46}
  %params__TimestepEmbedder_0____Dense_1____bias__.1 = f32[768]{0} parameter(7), metadata={op_name="params[\'TimestepEmbedder_0\'][\'Dense_1\'][\'bias\']"}
  %reshape.95 = f32[1,768]{1,0} reshape(%params__TimestepEmbedder_0____Dense_1____bias__.1), metadata={op_name="jit(predict_step)/DiT/TimestepEmbedder_0/Dense_1/reshape" stack_frame_id=47}
  %add.575 = f32[1,768]{1,0} broadcast(%reshape.95), dimensions={0,1}, metadata={op_name="jit(predict_step)/DiT/TimestepEmbedder_0/Dense_1/add" stack_frame_id=48}
  %add.576 = f32[768]{0} reshape(%add.575), metadata={op_name="jit(predict_step)/DiT/TimestepEmbedder_0/Dense_1/add" stack_frame_id=48}
  %add.577 = f32[8,768]{1,0} broadcast(%add.576), dimensions={1}, metadata={op_name="jit(predict_step)/DiT/TimestepEmbedder_0/Dense_1/add" stack_frame_id=48}
  %add.578 = f32[8,768]{1,0} add(%dot_general.113, %add.577), metadata={op_name="jit(predict_step)/DiT/TimestepEmbedder_0/Dense_1/add" stack_frame_id=48}
  %params__Embed_0____embedding__.1 = f32[1001,768]{1,0} parameter(4), metadata={op_name="params[\'Embed_0\'][\'embedding\']"}
  %y.1 = s32[8]{0} parameter(182), metadata={op_name="y"}
  %jit__take_.1 = f32[8,768]{1,0} call(%params__Embed_0____embedding__.1, %y.1), to_apply=%_take.4, metadata={op_name="jit(predict_step)/DiT/Embed_0/jit(_take)" stack_frame_id=50}
  %add.579 = f32[8,768]{1,0} add(%add.578, %jit__take_.1), metadata={op_name="jit(predict_step)/DiT/add" stack_frame_id=30}
  %jit_silu_.15 = f32[8,768]{1,0} call(%add.579), to_apply=%silu.1, metadata={op_name="jit(predict_step)/DiT/block0/jit(silu)" stack_frame_id=51}
  %params__block0____Dense_0____kernel__.1 = f32[768,4608]{1,0} parameter(10), metadata={op_name="params[\'block0\'][\'Dense_0\'][\'kernel\']"}
  %dot_general.114 = f32[8,4608]{1,0} dot(%jit_silu_.15, %params__block0____Dense_0____kernel__.1), lhs_contracting_dims={1}, rhs_contracting_dims={0}, metadata={op_name="jit(predict_step)/DiT/block0/Dense_0/dot_general" stack_frame_id=53}
  %params__block0____Dense_0____bias__.1 = f32[4608]{0} parameter(9), metadata={op_name="params[\'block0\'][\'Dense_0\'][\'bias\']"}
  %reshape.96 = f32[1,4608]{1,0} reshape(%params__block0____Dense_0____bias__.1), metadata={op_name="jit(predict_step)/DiT/block0/Dense_0/reshape" stack_frame_id=54}
  %add.580 = f32[1,4608]{1,0} broadcast(%reshape.96), dimensions={0,1}, metadata={op_name="jit(predict_step)/DiT/block0/Dense_0/add" stack_frame_id=55}
  %add.581 = f32[4608]{0} reshape(%add.580), metadata={op_name="jit(predict_step)/DiT/block0/Dense_0/add" stack_frame_id=55}
  %add.582 = f32[8,4608]{1,0} broadcast(%add.581), dimensions={1}, metadata={op_name="jit(predict_step)/DiT/block0/Dense_0/add" stack_frame_id=55}
  %add.583 = f32[8,4608]{1,0} add(%dot_general.114, %add.582), metadata={op_name="jit(predict_step)/DiT/block0/Dense_0/add" stack_frame_id=55}
  %split.76 = f32[8,768]{1,0} slice(%add.583), slice={[0:8], [1536:2304]}, metadata={op_name="jit(predict_step)/DiT/block0/split" stack_frame_id=56}
  %broadcast_in_dim.164 = f32[8,1,768]{2,1,0} reshape(%split.76), metadata={op_name="jit(predict_step)/DiT/block0/broadcast_in_dim" stack_frame_id=57}
  %mul.372 = f32[8,1,768]{2,1,0} broadcast(%broadcast_in_dim.164), dimensions={0,1,2}, metadata={op_name="jit(predict_step)/DiT/block0/mul" stack_frame_id=57}
  %mul.373 = f32[8,768]{1,0} reshape(%mul.372), metadata={op_name="jit(predict_step)/DiT/block0/mul" stack_frame_id=57}
  %mul.374 = f32[8,256,768]{2,1,0} broadcast(%mul.373), dimensions={0,2}, metadata={op_name="jit(predict_step)/DiT/block0/mul" stack_frame_id=57}
  %constant.41 = f32[] constant(0)
  %reduce_sum.434 = f32[8,256]{1,0} reduce(%add.570, %constant.41), dimensions={2}, to_apply=%region_1.5, metadata={op_name="jit(predict_step)/DiT/block0/LayerNorm_0/reduce_sum" stack_frame_id=8}
  %constant.37 = f32[] constant(768)
  %broadcast.29 = f32[8,256]{1,0} broadcast(%constant.37), dimensions={}
  %div.116 = f32[8,256]{1,0} divide(%reduce_sum.434, %broadcast.29), metadata={op_name="jit(predict_step)/DiT/block0/LayerNorm_0/div" stack_frame_id=8}
  %broadcast_in_dim.158 = f32[8,256,1]{2,1,0} reshape(%div.116), metadata={op_name="jit(predict_step)/DiT/block0/LayerNorm_0/broadcast_in_dim" stack_frame_id=59}
  %sub.174 = f32[8,256,1]{2,1,0} broadcast(%broadcast_in_dim.158), dimensions={0,1,2}, metadata={op_name="jit(predict_step)/DiT/block0/LayerNorm_0/sub" stack_frame_id=60}
  %sub.175 = f32[8,256]{1,0} reshape(%sub.174), metadata={op_name="jit(predict_step)/DiT/block0/LayerNorm_0/sub" stack_frame_id=60}
  %sub.176 = f32[8,256,768]{2,1,0} broadcast(%sub.175), dimensions={0,1}, metadata={op_name="jit(predict_step)/DiT/block0/LayerNorm_0/sub" stack_frame_id=60}
  %sub.177 = f32[8,256,768]{2,1,0} subtract(%add.570, %sub.176), metadata={op_name="jit(predict_step)/DiT/block0/LayerNorm_0/sub" stack_frame_id=60}
  %square.50 = f32[8,256,768]{2,1,0} multiply(%add.570, %add.570), metadata={op_name="jit(predict_step)/DiT/block0/LayerNorm_0/square" stack_frame_id=62}
  %reduce_sum.435 = f32[8,256]{1,0} reduce(%square.50, %constant.41), dimensions={2}, to_apply=%region_2.6, metadata={op_name="jit(predict_step)/DiT/block0/LayerNorm_0/reduce_sum" stack_frame_id=8}
  %div.117 = f32[8,256]{1,0} divide(%reduce_sum.435, %broadcast.29), metadata={op_name="jit(predict_step)/DiT/block0/LayerNorm_0/div" stack_frame_id=8}
  %square.51 = f32[8,256]{1,0} multiply(%div.116, %div.116), metadata={op_name="jit(predict_step)/DiT/block0/LayerNorm_0/square" stack_frame_id=64}
  %sub.173 = f32[8,256]{1,0} subtract(%div.117, %square.51), metadata={op_name="jit(predict_step)/DiT/block0/LayerNorm_0/sub" stack_frame_id=65}
  %constant.36 = f32[] constant(0)
  %broadcast.28 = f32[8,256]{1,0} broadcast(%constant.36), dimensions={}
  %max.37 = f32[8,256]{1,0} maximum(%sub.173, %broadcast.28), metadata={op_name="jit(predict_step)/DiT/block0/LayerNorm_0/max" stack_frame_id=66}
  %broadcast_in_dim.159 = f32[8,256,1]{2,1,0} reshape(%max.37), metadata={op_name="jit(predict_step)/DiT/block0/LayerNorm_0/broadcast_in_dim" stack_frame_id=67}
  %constant.35 = f32[] constant(1e-06)
  %broadcast.27 = f32[8,256,1]{2,1,0} broadcast(%constant.35), dimensions={}
  %add.584 = f32[8,256,1]{2,1,0} add(%broadcast_in_dim.159, %broadcast.27), metadata={op_name="jit(predict_step)/DiT/block0/LayerNorm_0/add" stack_frame_id=68}
  %rsqrt.25 = f32[8,256,1]{2,1,0} rsqrt(%add.584), metadata={op_name="jit(predict_step)/DiT/block0/LayerNorm_0/rsqrt" stack_frame_id=69}
  %mul.364 = f32[8,256,1]{2,1,0} broadcast(%rsqrt.25), dimensions={0,1,2}, metadata={op_name="jit(predict_step)/DiT/block0/LayerNorm_0/mul" stack_frame_id=70}
  %mul.365 = f32[8,256]{1,0} reshape(%mul.364), metadata={op_name="jit(predict_step)/DiT/block0/LayerNorm_0/mul" stack_frame_id=70}
  %mul.366 = f32[8,256,768]{2,1,0} broadcast(%mul.365), dimensions={0,1}, metadata={op_name="jit(predict_step)/DiT/block0/LayerNorm_0/mul" stack_frame_id=70}
  %mul.367 = f32[8,256,768]{2,1,0} multiply(%sub.177, %mul.366), metadata={op_name="jit(predict_step)/DiT/block0/LayerNorm_0/mul" stack_frame_id=70}
  %split.74 = f32[8,768]{1,0} slice(%add.583), slice={[0:8], [0:768]}, metadata={op_name="jit(predict_step)/DiT/block0/split" stack_frame_id=56}
  %broadcast_in_dim.160 = f32[8,1,768]{2,1,0} reshape(%split.74), metadata={op_name="jit(predict_step)/DiT/block0/broadcast_in_dim" stack_frame_id=72}
  %constant.34 = f32[] constant(1)
  %broadcast.26 = f32[8,1,768]{2,1,0} broadcast(%constant.34), dimensions={}
  %add.585 = f32[8,1,768]{2,1,0} add(%broadcast_in_dim.160, %broadcast.26), metadata={op_name="jit(predict_step)/DiT/block0/add" stack_frame_id=73}
  %mul.368 = f32[8,1,768]{2,1,0} broadcast(%add.585), dimensions={0,1,2}, metadata={op_name="jit(predict_step)/DiT/block0/mul" stack_frame_id=74}
  %mul.369 = f32[8,768]{1,0} reshape(%mul.368), metadata={op_name="jit(predict_step)/DiT/block0/mul" stack_frame_id=74}
  %mul.370 = f32[8,256,768]{2,1,0} broadcast(%mul.369), dimensions={0,2}, metadata={op_name="jit(predict_step)/DiT/block0/mul" stack_frame_id=74}
  %mul.371 = f32[8,256,768]{2,1,0} multiply(%mul.367, %mul.370), metadata={op_name="jit(predict_step)/DiT/block0/mul" stack_frame_id=74}
  %split.75 = f32[8,768]{1,0} slice(%add.583), slice={[0:8], [768:1536]}, metadata={op_name="jit(predict_step)/DiT/block0/split" stack_frame_id=56}
  %broadcast_in_dim.161 = f32[8,1,768]{2,1,0} reshape(%split.75), metadata={op_name="jit(predict_step)/DiT/block0/broadcast_in_dim" stack_frame_id=75}
  %add.586 = f32[8,1,768]{2,1,0} broadcast(%broadcast_in_dim.161), dimensions={0,1,2}, metadata={op_name="jit(predict_step)/DiT/block0/add" stack_frame_id=74}
  %add.587 = f32[8,768]{1,0} reshape(%add.586), metadata={op_name="jit(predict_step)/DiT/block0/add" stack_frame_id=74}
  %add.588 = f32[8,256,768]{2,1,0} broadcast(%add.587), dimensions={0,2}, metadata={op_name="jit(predict_step)/DiT/block0/add" stack_frame_id=74}
  %add.589 = f32[8,256,768]{2,1,0} add(%mul.371, %add.588), metadata={op_name="jit(predict_step)/DiT/block0/add" stack_frame_id=74}
  %params__block0____MultiHeadDotProductAttention_0____value____kernel__.1 = f32[768,12,64]{2,1,0} parameter(22), metadata={op_name="params[\'block0\'][\'MultiHeadDotProductAttention_0\'][\'value\'][\'kernel\']"}
  %dot_general.117 = f32[8,256,12,64]{3,2,1,0} dot(%add.589, %params__block0____MultiHeadDotProductAttention_0____value____kernel__.1), lhs_contracting_dims={2}, rhs_contracting_dims={0}, metadata={op_name="jit(predict_step)/DiT/block0/MultiHeadDotProductAttention_0/value/dot_general" stack_frame_id=77}
  %params__block0____MultiHeadDotProductAttention_0____value____bias__.1 = f32[12,64]{1,0} parameter(21), metadata={op_name="params[\'block0\'][\'MultiHeadDotProductAttention_0\'][\'value\'][\'bias\']"}
  %reshape.99 = f32[1,1,12,64]{3,2,1,0} reshape(%params__block0____MultiHeadDotProductAttention_0____value____bias__.1), metadata={op_name="jit(predict_step)/DiT/block0/MultiHeadDotProductAttention_0/value/reshape" stack_frame_id=78}
  %add.598 = f32[1,1,12,64]{3,2,1,0} broadcast(%reshape.99), dimensions={0,1,2,3}, metadata={op_name="jit(predict_step)/DiT/block0/MultiHeadDotProductAttention_0/value/add" stack_frame_id=79}
  %add.599 = f32[12,64]{1,0} reshape(%add.598), metadata={op_name="jit(predict_step)/DiT/block0/MultiHeadDotProductAttention_0/value/add" stack_frame_id=79}
  %add.600 = f32[8,256,12,64]{3,2,1,0} broadcast(%add.599), dimensions={2,3}, metadata={op_name="jit(predict_step)/DiT/block0/MultiHeadDotProductAttention_0/value/add" stack_frame_id=79}
  %add.601 = f32[8,256,12,64]{3,2,1,0} add(%dot_general.117, %add.600), metadata={op_name="jit(predict_step)/DiT/block0/MultiHeadDotProductAttention_0/value/add" stack_frame_id=79}
  %params__block0____MultiHeadDotProductAttention_0____query____kernel__.1 = f32[768,12,64]{2,1,0} parameter(20), metadata={op_name="params[\'block0\'][\'MultiHeadDotProductAttention_0\'][\'query\'][\'kernel\']"}
  %dot_general.115 = f32[8,256,12,64]{3,2,1,0} dot(%add.589, %params__block0____MultiHeadDotProductAttention_0____query____kernel__.1), lhs_contracting_dims={2}, rhs_contracting_dims={0}, metadata={op_name="jit(predict_step)/DiT/block0/MultiHeadDotProductAttention_0/query/dot_general" stack_frame_id=81}
  %params__block0____MultiHeadDotProductAttention_0____query____bias__.1 = f32[12,64]{1,0} parameter(19), metadata={op_name="params[\'block0\'][\'MultiHeadDotProductAttention_0\'][\'query\'][\'bias\']"}
  %reshape.97 = f32[1,1,12,64]{3,2,1,0} reshape(%params__block0____MultiHeadDotProductAttention_0____query____bias__.1), metadata={op_name="jit(predict_step)/DiT/block0/MultiHeadDotProductAttention_0/query/reshape" stack_frame_id=82}
  %add.590 = f32[1,1,12,64]{3,2,1,0} broadcast(%reshape.97), dimensions={0,1,2,3}, metadata={op_name="jit(predict_step)/DiT/block0/MultiHeadDotProductAttention_0/query/add" stack_frame_id=83}
  %add.591 = f32[12,64]{1,0} reshape(%add.590), metadata={op_name="jit(predict_step)/DiT/block0/MultiHeadDotProductAttention_0/query/add" stack_frame_id=83}
  %add.592 = f32[8,256,12,64]{3,2,1,0} broadcast(%add.591), dimensions={2,3}, metadata={op_name="jit(predict_step)/DiT/block0/MultiHeadDotProductAttention_0/query/add" stack_frame_id=83}
  %add.593 = f32[8,256,12,64]{3,2,1,0} add(%dot_general.115, %add.592), metadata={op_name="jit(predict_step)/DiT/block0/MultiHeadDotProductAttention_0/query/add" stack_frame_id=83}
  %constant.33 = f32[] constant(8)
  %broadcast.25 = f32[8,256,12,64]{3,2,1,0} broadcast(%constant.33), dimensions={}
  %div.118 = f32[8,256,12,64]{3,2,1,0} divide(%add.593, %broadcast.25), metadata={op_name="jit(predict_step)/DiT/block0/MultiHeadDotProductAttention_0/div" stack_frame_id=84}
  %params__block0____MultiHeadDotProductAttention_0____key____kernel__.1 = f32[768,12,64]{2,1,0} parameter(16), metadata={op_name="params[\'block0\'][\'MultiHeadDotProductAttention_0\'][\'key\'][\'kernel\']"}
  %dot_general.116 = f32[8,256,12,64]{3,2,1,0} dot(%add.589, %params__block0____MultiHeadDotProductAttention_0____key____kernel__.1), lhs_contracting_dims={2}, rhs_contracting_dims={0}, metadata={op_name="jit(predict_step)/DiT/block0/MultiHeadDotProductAttention_0/key/dot_general" stack_frame_id=86}
  %params__block0____MultiHeadDotProductAttention_0____key____bias__.1 = f32[12,64]{1,0} parameter(15), metadata={op_name="params[\'block0\'][\'MultiHeadDotProductAttention_0\'][\'key\'][\'bias\']"}
  %reshape.98 = f32[1,1,12,64]{3,2,1,0} reshape(%params__block0____MultiHeadDotProductAttention_0____key____bias__.1), metadata={op_name="jit(predict_step)/DiT/block0/MultiHeadDotProductAttention_0/key/reshape" stack_frame_id=87}
  %add.594 = f32[1,1,12,64]{3,2,1,0} broadcast(%reshape.98), dimensions={0,1,2,3}, metadata={op_name="jit(predict_step)/DiT/block0/MultiHeadDotProductAttention_0/key/add" stack_frame_id=88}
  %add.595 = f32[12,64]{1,0} reshape(%add.594), metadata={op_name="jit(predict_step)/DiT/block0/MultiHeadDotProductAttention_0/key/add" stack_frame_id=88}
  %add.596 = f32[8,256,12,64]{3,2,1,0} broadcast(%add.595), dimensions={2,3}, metadata={op_name="jit(predict_step)/DiT/block0/MultiHeadDotProductAttention_0/key/add" stack_frame_id=88}
  %add.597 = f32[8,256,12,64]{3,2,1,0} add(%dot_general.116, %add.596), metadata={op_name="jit(predict_step)/DiT/block0/MultiHeadDotProductAttention_0/key/add" stack_frame_id=88}
  %dot_general.118 = f32[8,12,256,256]{3,2,1,0} dot(%div.118, %add.597), lhs_batch_dims={0,2}, lhs_contracting_dims={3}, rhs_batch_dims={0,2}, rhs_contracting_dims={3}, metadata={op_name="jit(predict_step)/DiT/block0/MultiHeadDotProductAttention_0/...qhd,...khd->...hqk/dot_general" stack_frame_id=89}
  %constant.40 = f32[] constant(-inf)
  %reduce_max.84 = f32[8,12,256]{2,1,0} reduce(%dot_general.118, %constant.40), dimensions={3}, to_apply=%region_3.7, metadata={op_name="jit(predict_step)/DiT/block0/MultiHeadDotProductAttention_0/reduce_max" stack_frame_id=12}
  %constant.32 = f32[] constant(-inf)
  %broadcast.24 = f32[8,12,256]{2,1,0} broadcast(%constant.32), dimensions={}
  %max.38 = f32[8,12,256]{2,1,0} maximum(%reduce_max.84, %broadcast.24), metadata={op_name="jit(predict_step)/DiT/block0/MultiHeadDotProductAttention_0/max" stack_frame_id=12}
  %broadcast_in_dim.162 = f32[8,12,256,1]{3,2,1,0} reshape(%max.38), metadata={op_name="jit(predict_step)/DiT/block0/MultiHeadDotProductAttention_0/broadcast_in_dim" stack_frame_id=12}
  %sub.178 = f32[8,12,256,1]{3,2,1,0} broadcast(%broadcast_in_dim.162), dimensions={0,1,2,3}, metadata={op_name="jit(predict_step)/DiT/block0/MultiHeadDotProductAttention_0/sub" stack_frame_id=12}
  %sub.179 = f32[8,12,256]{2,1,0} reshape(%sub.178), metadata={op_name="jit(predict_step)/DiT/block0/MultiHeadDotProductAttention_0/sub" stack_frame_id=12}
  %sub.180 = f32[8,12,256,256]{3,2,1,0} broadcast(%sub.179), dimensions={0,1,2}, metadata={op_name="jit(predict_step)/DiT/block0/MultiHeadDotProductAttention_0/sub" stack_frame_id=12}
  %sub.181 = f32[8,12,256,256]{3,2,1,0} subtract(%dot_general.118, %sub.180), metadata={op_name="jit(predict_step)/DiT/block0/MultiHeadDotProductAttention_0/sub" stack_frame_id=12}
  %exp.16 = f32[8,12,256,256]{3,2,1,0} exponential(%sub.181), metadata={op_name="jit(predict_step)/DiT/block0/MultiHeadDotProductAttention_0/exp" stack_frame_id=12}
  %reduce_sum.436 = f32[8,12,256]{2,1,0} reduce(%exp.16, %constant.41), dimensions={3}, to_apply=%region_4.8, metadata={op_name="jit(predict_step)/DiT/block0/MultiHeadDotProductAttention_0/reduce_sum" stack_frame_id=12}
  %broadcast_in_dim.163 = f32[8,12,256,1]{3,2,1,0} reshape(%reduce_sum.436), metadata={op_name="jit(predict_step)/DiT/block0/MultiHeadDotProductAttention_0/broadcast_in_dim" stack_frame_id=12}
  %div.119 = f32[8,12,256,1]{3,2,1,0} broadcast(%broadcast_in_dim.163), dimensions={0,1,2,3}, metadata={op_name="jit(predict_step)/DiT/block0/MultiHeadDotProductAttention_0/div" stack_frame_id=12}
  %div.120 = f32[8,12,256]{2,1,0} reshape(%div.119), metadata={op_name="jit(predict_step)/DiT/block0/MultiHeadDotProductAttention_0/div" stack_frame_id=12}
  %div.121 = f32[8,12,256,256]{3,2,1,0} broadcast(%div.120), dimensions={0,1,2}, metadata={op_name="jit(predict_step)/DiT/block0/MultiHeadDotProductAttention_0/div" stack_frame_id=12}
  %div.122 = f32[8,12,256,256]{3,2,1,0} divide(%exp.16, %div.121), metadata={op_name="jit(predict_step)/DiT/block0/MultiHeadDotProductAttention_0/div" stack_frame_id=12}
  %dot_general.119 = f32[8,12,64,256]{3,2,1,0} dot(%add.601, %div.122), lhs_batch_dims={0,2}, lhs_contracting_dims={1}, rhs_batch_dims={0,1}, rhs_contracting_dims={3}, metadata={op_name="jit(predict_step)/DiT/block0/MultiHeadDotProductAttention_0/...hqk,...khd->...qhd/dot_general" stack_frame_id=90}
  %transpose.15 = f32[8,256,12,64]{1,3,2,0} transpose(%dot_general.119), dimensions={0,3,1,2}, metadata={op_name="jit(predict_step)/DiT/block0/MultiHeadDotProductAttention_0/...hqk,...khd->...qhd/transpose" stack_frame_id=90}
  %params__block0____MultiHeadDotProductAttention_0____out____kernel__.1 = f32[12,64,768]{2,1,0} parameter(18), metadata={op_name="params[\'block0\'][\'MultiHeadDotProductAttention_0\'][\'out\'][\'kernel\']"}
  %dot_general.120 = f32[8,256,768]{2,1,0} dot(%transpose.15, %params__block0____MultiHeadDotProductAttention_0____out____kernel__.1), lhs_contracting_dims={2,3}, rhs_contracting_dims={0,1}, metadata={op_name="jit(predict_step)/DiT/block0/MultiHeadDotProductAttention_0/out/dot_general" stack_frame_id=92}
  %params__block0____MultiHeadDotProductAttention_0____out____bias__.1 = f32[768]{0} parameter(17), metadata={op_name="params[\'block0\'][\'MultiHeadDotProductAttention_0\'][\'out\'][\'bias\']"}
  %reshape.100 = f32[1,1,768]{2,1,0} reshape(%params__block0____MultiHeadDotProductAttention_0____out____bias__.1), metadata={op_name="jit(predict_step)/DiT/block0/MultiHeadDotProductAttention_0/out/reshape" stack_frame_id=93}
  %add.602 = f32[1,1,768]{2,1,0} broadcast(%reshape.100), dimensions={0,1,2}, metadata={op_name="jit(predict_step)/DiT/block0/MultiHeadDotProductAttention_0/out/add" stack_frame_id=94}
  %add.603 = f32[768]{0} reshape(%add.602), metadata={op_name="jit(predict_step)/DiT/block0/MultiHeadDotProductAttention_0/out/add" stack_frame_id=94}
  %add.604 = f32[8,256,768]{2,1,0} broadcast(%add.603), dimensions={2}, metadata={op_name="jit(predict_step)/DiT/block0/MultiHeadDotProductAttention_0/out/add" stack_frame_id=94}
  %add.605 = f32[8,256,768]{2,1,0} add(%dot_general.120, %add.604), metadata={op_name="jit(predict_step)/DiT/block0/MultiHeadDotProductAttention_0/out/add" stack_frame_id=94}
  %mul.375 = f32[8,256,768]{2,1,0} multiply(%mul.374, %add.605), metadata={op_name="jit(predict_step)/DiT/block0/mul" stack_frame_id=57}
  %add.606 = f32[8,256,768]{2,1,0} add(%add.570, %mul.375), metadata={op_name="jit(predict_step)/DiT/block0/add" stack_frame_id=95}
  %split.79 = f32[8,768]{1,0} slice(%add.583), slice={[0:8], [3840:4608]}, metadata={op_name="jit(predict_step)/DiT/block0/split" stack_frame_id=56}
  %broadcast_in_dim.169 = f32[8,1,768]{2,1,0} reshape(%split.79), metadata={op_name="jit(predict_step)/DiT/block0/broadcast_in_dim" stack_frame_id=96}
  %mul.388 = f32[8,1,768]{2,1,0} broadcast(%broadcast_in_dim.169), dimensions={0,1,2}, metadata={op_name="jit(predict_step)/DiT/block0/mul" stack_frame_id=96}
  %mul.389 = f32[8,768]{1,0} reshape(%mul.388), metadata={op_name="jit(predict_step)/DiT/block0/mul" stack_frame_id=96}
  %mul.390 = f32[8,256,768]{2,1,0} broadcast(%mul.389), dimensions={0,2}, metadata={op_name="jit(predict_step)/DiT/block0/mul" stack_frame_id=96}
  %reduce_sum.437 = f32[8,256]{1,0} reduce(%add.606, %constant.41), dimensions={2}, to_apply=%region_5.9, metadata={op_name="jit(predict_step)/DiT/block0/LayerNorm_1/reduce_sum" stack_frame_id=17}
  %div.123 = f32[8,256]{1,0} divide(%reduce_sum.437, %broadcast.29), metadata={op_name="jit(predict_step)/DiT/block0/LayerNorm_1/div" stack_frame_id=17}
  %broadcast_in_dim.165 = f32[8,256,1]{2,1,0} reshape(%div.123), metadata={op_name="jit(predict_step)/DiT/block0/LayerNorm_1/broadcast_in_dim" stack_frame_id=98}
  %sub.183 = f32[8,256,1]{2,1,0} broadcast(%broadcast_in_dim.165), dimensions={0,1,2}, metadata={op_name="jit(predict_step)/DiT/block0/LayerNorm_1/sub" stack_frame_id=99}
  %sub.184 = f32[8,256]{1,0} reshape(%sub.183), metadata={op_name="jit(predict_step)/DiT/block0/LayerNorm_1/sub" stack_frame_id=99}
  %sub.185 = f32[8,256,768]{2,1,0} broadcast(%sub.184), dimensions={0,1}, metadata={op_name="jit(predict_step)/DiT/block0/LayerNorm_1/sub" stack_frame_id=99}
  %sub.186 = f32[8,256,768]{2,1,0} subtract(%add.606, %sub.185), metadata={op_name="jit(predict_step)/DiT/block0/LayerNorm_1/sub" stack_frame_id=99}
  %square.52 = f32[8,256,768]{2,1,0} multiply(%add.606, %add.606), metadata={op_name="jit(predict_step)/DiT/block0/LayerNorm_1/square" stack_frame_id=101}
  %reduce_sum.438 = f32[8,256]{1,0} reduce(%square.52, %constant.41), dimensions={2}, to_apply=%region_6.10, metadata={op_name="jit(predict_step)/DiT/block0/LayerNorm_1/reduce_sum" stack_frame_id=17}
  %div.124 = f32[8,256]{1,0} divide(%reduce_sum.438, %broadcast.29), metadata={op_name="jit(predict_step)/DiT/block0/LayerNorm_1/div" stack_frame_id=17}
  %square.53 = f32[8,256]{1,0} multiply(%div.123, %div.123), metadata={op_name="jit(predict_step)/DiT/block0/LayerNorm_1/square" stack_frame_id=103}
  %sub.182 = f32[8,256]{1,0} subtract(%div.124, %square.53), metadata={op_name="jit(predict_step)/DiT/block0/LayerNorm_1/sub" stack_frame_id=104}
  %max.39 = f32[8,256]{1,0} maximum(%sub.182, %broadcast.28), metadata={op_name="jit(predict_step)/DiT/block0/LayerNorm_1/max" stack_frame_id=105}
  %broadcast_in_dim.166 = f32[8,256,1]{2,1,0} reshape(%max.39), metadata={op_name="jit(predict_step)/DiT/block0/LayerNorm_1/broadcast_in_dim" stack_frame_id=106}
  %add.607 = f32[8,256,1]{2,1,0} add(%broadcast_in_dim.166, %broadcast.27), metadata={op_name="jit(predict_step)/DiT/block0/LayerNorm_1/add" stack_frame_id=107}
  %rsqrt.26 = f32[8,256,1]{2,1,0} rsqrt(%add.607), metadata={op_name="jit(predict_step)/DiT/block0/LayerNorm_1/rsqrt" stack_frame_id=108}
  %mul.376 = f32[8,256,1]{2,1,0} broadcast(%rsqrt.26), dimensions={0,1,2}, metadata={op_name="jit(predict_step)/DiT/block0/LayerNorm_1/mul" stack_frame_id=109}
  %mul.377 = f32[8,256]{1,0} reshape(%mul.376), metadata={op_name="jit(predict_step)/DiT/block0/LayerNorm_1/mul" stack_frame_id=109}
  %mul.378 = f32[8,256,768]{2,1,0} broadcast(%mul.377), dimensions={0,1}, metadata={op_name="jit(predict_step)/DiT/block0/LayerNorm_1/mul" stack_frame_id=109}
  %mul.379 = f32[8,256,768]{2,1,0} multiply(%sub.186, %mul.378), metadata={op_name="jit(predict_step)/DiT/block0/LayerNorm_1/mul" stack_frame_id=109}
  %split.77 = f32[8,768]{1,0} slice(%add.583), slice={[0:8], [2304:3072]}, metadata={op_name="jit(predict_step)/DiT/block0/split" stack_frame_id=56}
  %broadcast_in_dim.167 = f32[8,1,768]{2,1,0} reshape(%split.77), metadata={op_name="jit(predict_step)/DiT/block0/broadcast_in_dim" stack_frame_id=111}
  %add.608 = f32[8,1,768]{2,1,0} add(%broadcast_in_dim.167, %broadcast.26), metadata={op_name="jit(predict_step)/DiT/block0/add" stack_frame_id=112}
  %mul.380 = f32[8,1,768]{2,1,0} broadcast(%add.608), dimensions={0,1,2}, metadata={op_name="jit(predict_step)/DiT/block0/mul" stack_frame_id=113}
  %mul.381 = f32[8,768]{1,0} reshape(%mul.380), metadata={op_name="jit(predict_step)/DiT/block0/mul" stack_frame_id=113}
  %mul.382 = f32[8,256,768]{2,1,0} broadcast(%mul.381), dimensions={0,2}, metadata={op_name="jit(predict_step)/DiT/block0/mul" stack_frame_id=113}
  %mul.383 = f32[8,256,768]{2,1,0} multiply(%mul.379, %mul.382), metadata={op_name="jit(predict_step)/DiT/block0/mul" stack_frame_id=113}
  %split.78 = f32[8,768]{1,0} slice(%add.583), slice={[0:8], [3072:3840]}, metadata={op_name="jit(predict_step)/DiT/block0/split" stack_frame_id=56}
  %broadcast_in_dim.168 = f32[8,1,768]{2,1,0} reshape(%split.78), metadata={op_name="jit(predict_step)/DiT/block0/broadcast_in_dim" stack_frame_id=114}
  %add.609 = f32[8,1,768]{2,1,0} broadcast(%broadcast_in_dim.168), dimensions={0,1,2}, metadata={op_name="jit(predict_step)/DiT/block0/add" stack_frame_id=113}
  %add.610 = f32[8,768]{1,0} reshape(%add.609), metadata={op_name="jit(predict_step)/DiT/block0/add" stack_frame_id=113}
  %add.611 = f32[8,256,768]{2,1,0} broadcast(%add.610), dimensions={0,2}, metadata={op_name="jit(predict_step)/DiT/block0/add" stack_frame_id=113}
  %add.612 = f32[8,256,768]{2,1,0} add(%mul.383, %add.611), metadata={op_name="jit(predict_step)/DiT/block0/add" stack_frame_id=113}
  %params__block0____Dense_1____kernel__.1 = f32[768,3072]{1,0} parameter(12), metadata={op_name="params[\'block0\'][\'Dense_1\'][\'kernel\']"}
  %dot_general.121 = f32[8,256,3072]{2,1,0} dot(%add.612, %params__block0____Dense_1____kernel__.1), lhs_contracting_dims={2}, rhs_contracting_dims={0}, metadata={op_name="jit(predict_step)/DiT/block0/Dense_1/dot_general" stack_frame_id=116}
  %params__block0____Dense_1____bias__.1 = f32[3072]{0} parameter(11), metadata={op_name="params[\'block0\'][\'Dense_1\'][\'bias\']"}
  %reshape.101 = f32[1,1,3072]{2,1,0} reshape(%params__block0____Dense_1____bias__.1), metadata={op_name="jit(predict_step)/DiT/block0/Dense_1/reshape" stack_frame_id=117}
  %add.613 = f32[1,1,3072]{2,1,0} broadcast(%reshape.101), dimensions={0,1,2}, metadata={op_name="jit(predict_step)/DiT/block0/Dense_1/add" stack_frame_id=118}
  %add.614 = f32[3072]{0} reshape(%add.613), metadata={op_name="jit(predict_step)/DiT/block0/Dense_1/add" stack_frame_id=118}
  %add.615 = f32[8,256,3072]{2,1,0} broadcast(%add.614), dimensions={2}, metadata={op_name="jit(predict_step)/DiT/block0/Dense_1/add" stack_frame_id=118}
  %add.616 = f32[8,256,3072]{2,1,0} add(%dot_general.121, %add.615), metadata={op_name="jit(predict_step)/DiT/block0/Dense_1/add" stack_frame_id=118}
  %integer_pow.24 = f32[8,256,3072]{2,1,0} multiply(%add.616, %add.616), metadata={op_name="jit(predict_step)/DiT/block0/integer_pow" stack_frame_id=119}
  %integer_pow.25 = f32[8,256,3072]{2,1,0} multiply(%integer_pow.24, %add.616), metadata={op_name="jit(predict_step)/DiT/block0/integer_pow" stack_frame_id=119}
  %constant.31 = f32[] constant(0.044715)
  %broadcast.23 = f32[8,256,3072]{2,1,0} broadcast(%constant.31), dimensions={}
  %mul.384 = f32[8,256,3072]{2,1,0} multiply(%integer_pow.25, %broadcast.23), metadata={op_name="jit(predict_step)/DiT/block0/mul" stack_frame_id=119}
  %add.617 = f32[8,256,3072]{2,1,0} add(%add.616, %mul.384), metadata={op_name="jit(predict_step)/DiT/block0/add" stack_frame_id=119}
  %constant.30 = f32[] constant(0.797884583)
  %broadcast.22 = f32[8,256,3072]{2,1,0} broadcast(%constant.30), dimensions={}
  %mul.385 = f32[8,256,3072]{2,1,0} multiply(%add.617, %broadcast.22), metadata={op_name="jit(predict_step)/DiT/block0/mul" stack_frame_id=119}
  %tanh.12 = f32[8,256,3072]{2,1,0} tanh(%mul.385), metadata={op_name="jit(predict_step)/DiT/block0/tanh" stack_frame_id=119}
  %constant.29 = f32[] constant(1)
  %broadcast.21 = f32[8,256,3072]{2,1,0} broadcast(%constant.29), dimensions={}
  %add.618 = f32[8,256,3072]{2,1,0} add(%tanh.12, %broadcast.21), metadata={op_name="jit(predict_step)/DiT/block0/add" stack_frame_id=119}
  %constant.28 = f32[] constant(0.5)
  %broadcast.20 = f32[8,256,3072]{2,1,0} broadcast(%constant.28), dimensions={}
  %mul.386 = f32[8,256,3072]{2,1,0} multiply(%add.618, %broadcast.20), metadata={op_name="jit(predict_step)/DiT/block0/mul" stack_frame_id=119}
  %mul.387 = f32[8,256,3072]{2,1,0} multiply(%add.616, %mul.386), metadata={op_name="jit(predict_step)/DiT/block0/mul" stack_frame_id=119}
  %params__block0____Dense_2____kernel__.1 = f32[3072,768]{1,0} parameter(14), metadata={op_name="params[\'block0\'][\'Dense_2\'][\'kernel\']"}
  %dot_general.122 = f32[8,256,768]{2,1,0} dot(%mul.387, %params__block0____Dense_2____kernel__.1), lhs_contracting_dims={2}, rhs_contracting_dims={0}, metadata={op_name="jit(predict_step)/DiT/block0/Dense_2/dot_general" stack_frame_id=121}
  %params__block0____Dense_2____bias__.1 = f32[768]{0} parameter(13), metadata={op_name="params[\'block0\'][\'Dense_2\'][\'bias\']"}
  %reshape.102 = f32[1,1,768]{2,1,0} reshape(%params__block0____Dense_2____bias__.1), metadata={op_name="jit(predict_step)/DiT/block0/Dense_2/reshape" stack_frame_id=122}
  %add.619 = f32[1,1,768]{2,1,0} broadcast(%reshape.102), dimensions={0,1,2}, metadata={op_name="jit(predict_step)/DiT/block0/Dense_2/add" stack_frame_id=123}
  %add.620 = f32[768]{0} reshape(%add.619), metadata={op_name="jit(predict_step)/DiT/block0/Dense_2/add" stack_frame_id=123}
  %add.621 = f32[8,256,768]{2,1,0} broadcast(%add.620), dimensions={2}, metadata={op_name="jit(predict_step)/DiT/block0/Dense_2/add" stack_frame_id=123}
  %add.622 = f32[8,256,768]{2,1,0} add(%dot_general.122, %add.621), metadata={op_name="jit(predict_step)/DiT/block0/Dense_2/add" stack_frame_id=123}
  %mul.391 = f32[8,256,768]{2,1,0} multiply(%mul.390, %add.622), metadata={op_name="jit(predict_step)/DiT/block0/mul" stack_frame_id=96}
  %add.623 = f32[8,256,768]{2,1,0} add(%add.606, %mul.391), metadata={op_name="jit(predict_step)/DiT/block0/add" stack_frame_id=124}
  %jit_silu_.16 = f32[8,768]{1,0} call(%add.579), to_apply=%silu.1, metadata={op_name="jit(predict_step)/DiT/block1/jit(silu)" stack_frame_id=51}
  %params__block1____Dense_0____kernel__.1 = f32[768,4608]{1,0} parameter(24), metadata={op_name="params[\'block1\'][\'Dense_0\'][\'kernel\']"}
  %dot_general.123 = f32[8,4608]{1,0} dot(%jit_silu_.16, %params__block1____Dense_0____kernel__.1), lhs_contracting_dims={1}, rhs_contracting_dims={0}, metadata={op_name="jit(predict_step)/DiT/block1/Dense_0/dot_general" stack_frame_id=53}
  %params__block1____Dense_0____bias__.1 = f32[4608]{0} parameter(23), metadata={op_name="params[\'block1\'][\'Dense_0\'][\'bias\']"}
  %reshape.103 = f32[1,4608]{1,0} reshape(%params__block1____Dense_0____bias__.1), metadata={op_name="jit(predict_step)/DiT/block1/Dense_0/reshape" stack_frame_id=54}
  %add.624 = f32[1,4608]{1,0} broadcast(%reshape.103), dimensions={0,1}, metadata={op_name="jit(predict_step)/DiT/block1/Dense_0/add" stack_frame_id=55}
  %add.625 = f32[4608]{0} reshape(%add.624), metadata={op_name="jit(predict_step)/DiT/block1/Dense_0/add" stack_frame_id=55}
  %add.626 = f32[8,4608]{1,0} broadcast(%add.625), dimensions={1}, metadata={op_name="jit(predict_step)/DiT/block1/Dense_0/add" stack_frame_id=55}
  %add.627 = f32[8,4608]{1,0} add(%dot_general.123, %add.626), metadata={op_name="jit(predict_step)/DiT/block1/Dense_0/add" stack_frame_id=55}
  %split.82 = f32[8,768]{1,0} slice(%add.627), slice={[0:8], [1536:2304]}, metadata={op_name="jit(predict_step)/DiT/block1/split" stack_frame_id=56}
  %broadcast_in_dim.176 = f32[8,1,768]{2,1,0} reshape(%split.82), metadata={op_name="jit(predict_step)/DiT/block1/broadcast_in_dim" stack_frame_id=57}
  %mul.400 = f32[8,1,768]{2,1,0} broadcast(%broadcast_in_dim.176), dimensions={0,1,2}, metadata={op_name="jit(predict_step)/DiT/block1/mul" stack_frame_id=57}
  %mul.401 = f32[8,768]{1,0} reshape(%mul.400), metadata={op_name="jit(predict_step)/DiT/block1/mul" stack_frame_id=57}
  %mul.402 = f32[8,256,768]{2,1,0} broadcast(%mul.401), dimensions={0,2}, metadata={op_name="jit(predict_step)/DiT/block1/mul" stack_frame_id=57}
  %reduce_sum.439 = f32[8,256]{1,0} reduce(%add.623, %constant.41), dimensions={2}, to_apply=%region_7.11, metadata={op_name="jit(predict_step)/DiT/block1/LayerNorm_0/reduce_sum" stack_frame_id=8}
  %div.125 = f32[8,256]{1,0} divide(%reduce_sum.439, %broadcast.29), metadata={op_name="jit(predict_step)/DiT/block1/LayerNorm_0/div" stack_frame_id=8}
  %broadcast_in_dim.170 = f32[8,256,1]{2,1,0} reshape(%div.125), metadata={op_name="jit(predict_step)/DiT/block1/LayerNorm_0/broadcast_in_dim" stack_frame_id=59}
  %sub.188 = f32[8,256,1]{2,1,0} broadcast(%broadcast_in_dim.170), dimensions={0,1,2}, metadata={op_name="jit(predict_step)/DiT/block1/LayerNorm_0/sub" stack_frame_id=60}
  %sub.189 = f32[8,256]{1,0} reshape(%sub.188), metadata={op_name="jit(predict_step)/DiT/block1/LayerNorm_0/sub" stack_frame_id=60}
  %sub.190 = f32[8,256,768]{2,1,0} broadcast(%sub.189), dimensions={0,1}, metadata={op_name="jit(predict_step)/DiT/block1/LayerNorm_0/sub" stack_frame_id=60}
  %sub.191 = f32[8,256,768]{2,1,0} subtract(%add.623, %sub.190), metadata={op_name="jit(predict_step)/DiT/block1/LayerNorm_0/sub" stack_frame_id=60}
  %square.54 = f32[8,256,768]{2,1,0} multiply(%add.623, %add.623), metadata={op_name="jit(predict_step)/DiT/block1/LayerNorm_0/square" stack_frame_id=62}
  %reduce_sum.440 = f32[8,256]{1,0} reduce(%square.54, %constant.41), dimensions={2}, to_apply=%region_8.12, metadata={op_name="jit(predict_step)/DiT/block1/LayerNorm_0/reduce_sum" stack_frame_id=8}
  %div.126 = f32[8,256]{1,0} divide(%reduce_sum.440, %broadcast.29), metadata={op_name="jit(predict_step)/DiT/block1/LayerNorm_0/div" stack_frame_id=8}
  %square.55 = f32[8,256]{1,0} multiply(%div.125, %div.125), metadata={op_name="jit(predict_step)/DiT/block1/LayerNorm_0/square" stack_frame_id=64}
  %sub.187 = f32[8,256]{1,0} subtract(%div.126, %square.55), metadata={op_name="jit(predict_step)/DiT/block1/LayerNorm_0/sub" stack_frame_id=65}
  %max.40 = f32[8,256]{1,0} maximum(%sub.187, %broadcast.28), metadata={op_name="jit(predict_step)/DiT/block1/LayerNorm_0/max" stack_frame_id=66}
  %broadcast_in_dim.171 = f32[8,256,1]{2,1,0} reshape(%max.40), metadata={op_name="jit(predict_step)/DiT/block1/LayerNorm_0/broadcast_in_dim" stack_frame_id=67}
  %add.628 = f32[8,256,1]{2,1,0} add(%broadcast_in_dim.171, %broadcast.27), metadata={op_name="jit(predict_step)/DiT/block1/LayerNorm_0/add" stack_frame_id=68}
  %rsqrt.27 = f32[8,256,1]{2,1,0} rsqrt(%add.628), metadata={op_name="jit(predict_step)/DiT/block1/LayerNorm_0/rsqrt" stack_frame_id=69}
  %mul.392 = f32[8,256,1]{2,1,0} broadcast(%rsqrt.27), dimensions={0,1,2}, metadata={op_name="jit(predict_step)/DiT/block1/LayerNorm_0/mul" stack_frame_id=70}
  %mul.393 = f32[8,256]{1,0} reshape(%mul.392), metadata={op_name="jit(predict_step)/DiT/block1/LayerNorm_0/mul" stack_frame_id=70}
  %mul.394 = f32[8,256,768]{2,1,0} broadcast(%mul.393), dimensions={0,1}, metadata={op_name="jit(predict_step)/DiT/block1/LayerNorm_0/mul" stack_frame_id=70}
  %mul.395 = f32[8,256,768]{2,1,0} multiply(%sub.191, %mul.394), metadata={op_name="jit(predict_step)/DiT/block1/LayerNorm_0/mul" stack_frame_id=70}
  %split.80 = f32[8,768]{1,0} slice(%add.627), slice={[0:8], [0:768]}, metadata={op_name="jit(predict_step)/DiT/block1/split" stack_frame_id=56}
  %broadcast_in_dim.172 = f32[8,1,768]{2,1,0} reshape(%split.80), metadata={op_name="jit(predict_step)/DiT/block1/broadcast_in_dim" stack_frame_id=72}
  %add.629 = f32[8,1,768]{2,1,0} add(%broadcast_in_dim.172, %broadcast.26), metadata={op_name="jit(predict_step)/DiT/block1/add" stack_frame_id=73}
  %mul.396 = f32[8,1,768]{2,1,0} broadcast(%add.629), dimensions={0,1,2}, metadata={op_name="jit(predict_step)/DiT/block1/mul" stack_frame_id=74}
  %mul.397 = f32[8,768]{1,0} reshape(%mul.396), metadata={op_name="jit(predict_step)/DiT/block1/mul" stack_frame_id=74}
  %mul.398 = f32[8,256,768]{2,1,0} broadcast(%mul.397), dimensions={0,2}, metadata={op_name="jit(predict_step)/DiT/block1/mul" stack_frame_id=74}
  %mul.399 = f32[8,256,768]{2,1,0} multiply(%mul.395, %mul.398), metadata={op_name="jit(predict_step)/DiT/block1/mul" stack_frame_id=74}
  %split.81 = f32[8,768]{1,0} slice(%add.627), slice={[0:8], [768:1536]}, metadata={op_name="jit(predict_step)/DiT/block1/split" stack_frame_id=56}
  %broadcast_in_dim.173 = f32[8,1,768]{2,1,0} reshape(%split.81), metadata={op_name="jit(predict_step)/DiT/block1/broadcast_in_dim" stack_frame_id=75}
  %add.630 = f32[8,1,768]{2,1,0} broadcast(%broadcast_in_dim.173), dimensions={0,1,2}, metadata={op_name="jit(predict_step)/DiT/block1/add" stack_frame_id=74}
  %add.631 = f32[8,768]{1,0} reshape(%add.630), metadata={op_name="jit(predict_step)/DiT/block1/add" stack_frame_id=74}
  %add.632 = f32[8,256,768]{2,1,0} broadcast(%add.631), dimensions={0,2}, metadata={op_name="jit(predict_step)/DiT/block1/add" stack_frame_id=74}
  %add.633 = f32[8,256,768]{2,1,0} add(%mul.399, %add.632), metadata={op_name="jit(predict_step)/DiT/block1/add" stack_frame_id=74}
  %params__block1____MultiHeadDotProductAttention_0____value____kernel__.1 = f32[768,12,64]{2,1,0} parameter(36), metadata={op_name="params[\'block1\'][\'MultiHeadDotProductAttention_0\'][\'value\'][\'kernel\']"}
  %dot_general.126 = f32[8,256,12,64]{3,2,1,0} dot(%add.633, %params__block1____MultiHeadDotProductAttention_0____value____kernel__.1), lhs_contracting_dims={2}, rhs_contracting_dims={0}, metadata={op_name="jit(predict_step)/DiT/block1/MultiHeadDotProductAttention_0/value/dot_general" stack_frame_id=77}
  %params__block1____MultiHeadDotProductAttention_0____value____bias__.1 = f32[12,64]{1,0} parameter(35), metadata={op_name="params[\'block1\'][\'MultiHeadDotProductAttention_0\'][\'value\'][\'bias\']"}
  %reshape.106 = f32[1,1,12,64]{3,2,1,0} reshape(%params__block1____MultiHeadDotProductAttention_0____value____bias__.1), metadata={op_name="jit(predict_step)/DiT/block1/MultiHeadDotProductAttention_0/value/reshape" stack_frame_id=78}
  %add.642 = f32[1,1,12,64]{3,2,1,0} broadcast(%reshape.106), dimensions={0,1,2,3}, metadata={op_name="jit(predict_step)/DiT/block1/MultiHeadDotProductAttention_0/value/add" stack_frame_id=79}
  %add.643 = f32[12,64]{1,0} reshape(%add.642), metadata={op_name="jit(predict_step)/DiT/block1/MultiHeadDotProductAttention_0/value/add" stack_frame_id=79}
  %add.644 = f32[8,256,12,64]{3,2,1,0} broadcast(%add.643), dimensions={2,3}, metadata={op_name="jit(predict_step)/DiT/block1/MultiHeadDotProductAttention_0/value/add" stack_frame_id=79}
  %add.645 = f32[8,256,12,64]{3,2,1,0} add(%dot_general.126, %add.644), metadata={op_name="jit(predict_step)/DiT/block1/MultiHeadDotProductAttention_0/value/add" stack_frame_id=79}
  %params__block1____MultiHeadDotProductAttention_0____query____kernel__.1 = f32[768,12,64]{2,1,0} parameter(34), metadata={op_name="params[\'block1\'][\'MultiHeadDotProductAttention_0\'][\'query\'][\'kernel\']"}
  %dot_general.124 = f32[8,256,12,64]{3,2,1,0} dot(%add.633, %params__block1____MultiHeadDotProductAttention_0____query____kernel__.1), lhs_contracting_dims={2}, rhs_contracting_dims={0}, metadata={op_name="jit(predict_step)/DiT/block1/MultiHeadDotProductAttention_0/query/dot_general" stack_frame_id=81}
  %params__block1____MultiHeadDotProductAttention_0____query____bias__.1 = f32[12,64]{1,0} parameter(33), metadata={op_name="params[\'block1\'][\'MultiHeadDotProductAttention_0\'][\'query\'][\'bias\']"}
  %reshape.104 = f32[1,1,12,64]{3,2,1,0} reshape(%params__block1____MultiHeadDotProductAttention_0____query____bias__.1), metadata={op_name="jit(predict_step)/DiT/block1/MultiHeadDotProductAttention_0/query/reshape" stack_frame_id=82}
  %add.634 = f32[1,1,12,64]{3,2,1,0} broadcast(%reshape.104), dimensions={0,1,2,3}, metadata={op_name="jit(predict_step)/DiT/block1/MultiHeadDotProductAttention_0/query/add" stack_frame_id=83}
  %add.635 = f32[12,64]{1,0} reshape(%add.634), metadata={op_name="jit(predict_step)/DiT/block1/MultiHeadDotProductAttention_0/query/add" stack_frame_id=83}
  %add.636 = f32[8,256,12,64]{3,2,1,0} broadcast(%add.635), dimensions={2,3}, metadata={op_name="jit(predict_step)/DiT/block1/MultiHeadDotProductAttention_0/query/add" stack_frame_id=83}
  %add.637 = f32[8,256,12,64]{3,2,1,0} add(%dot_general.124, %add.636), metadata={op_name="jit(predict_step)/DiT/block1/MultiHeadDotProductAttention_0/query/add" stack_frame_id=83}
  %div.127 = f32[8,256,12,64]{3,2,1,0} divide(%add.637, %broadcast.25), metadata={op_name="jit(predict_step)/DiT/block1/MultiHeadDotProductAttention_0/div" stack_frame_id=84}
  %params__block1____MultiHeadDotProductAttention_0____key____kernel__.1 = f32[768,12,64]{2,1,0} parameter(30), metadata={op_name="params[\'block1\'][\'MultiHeadDotProductAttention_0\'][\'key\'][\'kernel\']"}
  %dot_general.125 = f32[8,256,12,64]{3,2,1,0} dot(%add.633, %params__block1____MultiHeadDotProductAttention_0____key____kernel__.1), lhs_contracting_dims={2}, rhs_contracting_dims={0}, metadata={op_name="jit(predict_step)/DiT/block1/MultiHeadDotProductAttention_0/key/dot_general" stack_frame_id=86}
  %params__block1____MultiHeadDotProductAttention_0____key____bias__.1 = f32[12,64]{1,0} parameter(29), metadata={op_name="params[\'block1\'][\'MultiHeadDotProductAttention_0\'][\'key\'][\'bias\']"}
  %reshape.105 = f32[1,1,12,64]{3,2,1,0} reshape(%params__block1____MultiHeadDotProductAttention_0____key____bias__.1), metadata={op_name="jit(predict_step)/DiT/block1/MultiHeadDotProductAttention_0/key/reshape" stack_frame_id=87}
  %add.638 = f32[1,1,12,64]{3,2,1,0} broadcast(%reshape.105), dimensions={0,1,2,3}, metadata={op_name="jit(predict_step)/DiT/block1/MultiHeadDotProductAttention_0/key/add" stack_frame_id=88}
  %add.639 = f32[12,64]{1,0} reshape(%add.638), metadata={op_name="jit(predict_step)/DiT/block1/MultiHeadDotProductAttention_0/key/add" stack_frame_id=88}
  %add.640 = f32[8,256,12,64]{3,2,1,0} broadcast(%add.639), dimensions={2,3}, metadata={op_name="jit(predict_step)/DiT/block1/MultiHeadDotProductAttention_0/key/add" stack_frame_id=88}
  %add.641 = f32[8,256,12,64]{3,2,1,0} add(%dot_general.125, %add.640), metadata={op_name="jit(predict_step)/DiT/block1/MultiHeadDotProductAttention_0/key/add" stack_frame_id=88}
  %dot_general.127 = f32[8,12,256,256]{3,2,1,0} dot(%div.127, %add.641), lhs_batch_dims={0,2}, lhs_contracting_dims={3}, rhs_batch_dims={0,2}, rhs_contracting_dims={3}, metadata={op_name="jit(predict_step)/DiT/block1/MultiHeadDotProductAttention_0/...qhd,...khd->...hqk/dot_general" stack_frame_id=89}
  %reduce_max.85 = f32[8,12,256]{2,1,0} reduce(%dot_general.127, %constant.40), dimensions={3}, to_apply=%region_9.13, metadata={op_name="jit(predict_step)/DiT/block1/MultiHeadDotProductAttention_0/reduce_max" stack_frame_id=12}
  %max.41 = f32[8,12,256]{2,1,0} maximum(%reduce_max.85, %broadcast.24), metadata={op_name="jit(predict_step)/DiT/block1/MultiHeadDotProductAttention_0/max" stack_frame_id=12}
  %broadcast_in_dim.174 = f32[8,12,256,1]{3,2,1,0} reshape(%max.41), metadata={op_name="jit(predict_step)/DiT/block1/MultiHeadDotProductAttention_0/broadcast_in_dim" stack_frame_id=12}
  %sub.192 = f32[8,12,256,1]{3,2,1,0} broadcast(%broadcast_in_dim.174), dimensions={0,1,2,3}, metadata={op_name="jit(predict_step)/DiT/block1/MultiHeadDotProductAttention_0/sub" stack_frame_id=12}
  %sub.193 = f32[8,12,256]{2,1,0} reshape(%sub.192), metadata={op_name="jit(predict_step)/DiT/block1/MultiHeadDotProductAttention_0/sub" stack_frame_id=12}
  %sub.194 = f32[8,12,256,256]{3,2,1,0} broadcast(%sub.193), dimensions={0,1,2}, metadata={op_name="jit(predict_step)/DiT/block1/MultiHeadDotProductAttention_0/sub" stack_frame_id=12}
  %sub.195 = f32[8,12,256,256]{3,2,1,0} subtract(%dot_general.127, %sub.194), metadata={op_name="jit(predict_step)/DiT/block1/MultiHeadDotProductAttention_0/sub" stack_frame_id=12}
  %exp.17 = f32[8,12,256,256]{3,2,1,0} exponential(%sub.195), metadata={op_name="jit(predict_step)/DiT/block1/MultiHeadDotProductAttention_0/exp" stack_frame_id=12}
  %reduce_sum.441 = f32[8,12,256]{2,1,0} reduce(%exp.17, %constant.41), dimensions={3}, to_apply=%region_10.14, metadata={op_name="jit(predict_step)/DiT/block1/MultiHeadDotProductAttention_0/reduce_sum" stack_frame_id=12}
  %broadcast_in_dim.175 = f32[8,12,256,1]{3,2,1,0} reshape(%reduce_sum.441), metadata={op_name="jit(predict_step)/DiT/block1/MultiHeadDotProductAttention_0/broadcast_in_dim" stack_frame_id=12}
  %div.128 = f32[8,12,256,1]{3,2,1,0} broadcast(%broadcast_in_dim.175), dimensions={0,1,2,3}, metadata={op_name="jit(predict_step)/DiT/block1/MultiHeadDotProductAttention_0/div" stack_frame_id=12}
  %div.129 = f32[8,12,256]{2,1,0} reshape(%div.128), metadata={op_name="jit(predict_step)/DiT/block1/MultiHeadDotProductAttention_0/div" stack_frame_id=12}
  %div.130 = f32[8,12,256,256]{3,2,1,0} broadcast(%div.129), dimensions={0,1,2}, metadata={op_name="jit(predict_step)/DiT/block1/MultiHeadDotProductAttention_0/div" stack_frame_id=12}
  %div.131 = f32[8,12,256,256]{3,2,1,0} divide(%exp.17, %div.130), metadata={op_name="jit(predict_step)/DiT/block1/MultiHeadDotProductAttention_0/div" stack_frame_id=12}
  %dot_general.128 = f32[8,12,64,256]{3,2,1,0} dot(%add.645, %div.131), lhs_batch_dims={0,2}, lhs_contracting_dims={1}, rhs_batch_dims={0,1}, rhs_contracting_dims={3}, metadata={op_name="jit(predict_step)/DiT/block1/MultiHeadDotProductAttention_0/...hqk,...khd->...qhd/dot_general" stack_frame_id=90}
  %transpose.16 = f32[8,256,12,64]{1,3,2,0} transpose(%dot_general.128), dimensions={0,3,1,2}, metadata={op_name="jit(predict_step)/DiT/block1/MultiHeadDotProductAttention_0/...hqk,...khd->...qhd/transpose" stack_frame_id=90}
  %params__block1____MultiHeadDotProductAttention_0____out____kernel__.1 = f32[12,64,768]{2,1,0} parameter(32), metadata={op_name="params[\'block1\'][\'MultiHeadDotProductAttention_0\'][\'out\'][\'kernel\']"}
  %dot_general.129 = f32[8,256,768]{2,1,0} dot(%transpose.16, %params__block1____MultiHeadDotProductAttention_0____out____kernel__.1), lhs_contracting_dims={2,3}, rhs_contracting_dims={0,1}, metadata={op_name="jit(predict_step)/DiT/block1/MultiHeadDotProductAttention_0/out/dot_general" stack_frame_id=92}
  %params__block1____MultiHeadDotProductAttention_0____out____bias__.1 = f32[768]{0} parameter(31), metadata={op_name="params[\'block1\'][\'MultiHeadDotProductAttention_0\'][\'out\'][\'bias\']"}
  %reshape.107 = f32[1,1,768]{2,1,0} reshape(%params__block1____MultiHeadDotProductAttention_0____out____bias__.1), metadata={op_name="jit(predict_step)/DiT/block1/MultiHeadDotProductAttention_0/out/reshape" stack_frame_id=93}
  %add.646 = f32[1,1,768]{2,1,0} broadcast(%reshape.107), dimensions={0,1,2}, metadata={op_name="jit(predict_step)/DiT/block1/MultiHeadDotProductAttention_0/out/add" stack_frame_id=94}
  %add.647 = f32[768]{0} reshape(%add.646), metadata={op_name="jit(predict_step)/DiT/block1/MultiHeadDotProductAttention_0/out/add" stack_frame_id=94}
  %add.648 = f32[8,256,768]{2,1,0} broadcast(%add.647), dimensions={2}, metadata={op_name="jit(predict_step)/DiT/block1/MultiHeadDotProductAttention_0/out/add" stack_frame_id=94}
  %add.649 = f32[8,256,768]{2,1,0} add(%dot_general.129, %add.648), metadata={op_name="jit(predict_step)/DiT/block1/MultiHeadDotProductAttention_0/out/add" stack_frame_id=94}
  %mul.403 = f32[8,256,768]{2,1,0} multiply(%mul.402, %add.649), metadata={op_name="jit(predict_step)/DiT/block1/mul" stack_frame_id=57}
  %add.650 = f32[8,256,768]{2,1,0} add(%add.623, %mul.403), metadata={op_name="jit(predict_step)/DiT/block1/add" stack_frame_id=95}
  %split.85 = f32[8,768]{1,0} slice(%add.627), slice={[0:8], [3840:4608]}, metadata={op_name="jit(predict_step)/DiT/block1/split" stack_frame_id=56}
  %broadcast_in_dim.181 = f32[8,1,768]{2,1,0} reshape(%split.85), metadata={op_name="jit(predict_step)/DiT/block1/broadcast_in_dim" stack_frame_id=96}
  %mul.416 = f32[8,1,768]{2,1,0} broadcast(%broadcast_in_dim.181), dimensions={0,1,2}, metadata={op_name="jit(predict_step)/DiT/block1/mul" stack_frame_id=96}
  %mul.417 = f32[8,768]{1,0} reshape(%mul.416), metadata={op_name="jit(predict_step)/DiT/block1/mul" stack_frame_id=96}
  %mul.418 = f32[8,256,768]{2,1,0} broadcast(%mul.417), dimensions={0,2}, metadata={op_name="jit(predict_step)/DiT/block1/mul" stack_frame_id=96}
  %reduce_sum.442 = f32[8,256]{1,0} reduce(%add.650, %constant.41), dimensions={2}, to_apply=%region_11.15, metadata={op_name="jit(predict_step)/DiT/block1/LayerNorm_1/reduce_sum" stack_frame_id=17}
  %div.132 = f32[8,256]{1,0} divide(%reduce_sum.442, %broadcast.29), metadata={op_name="jit(predict_step)/DiT/block1/LayerNorm_1/div" stack_frame_id=17}
  %broadcast_in_dim.177 = f32[8,256,1]{2,1,0} reshape(%div.132), metadata={op_name="jit(predict_step)/DiT/block1/LayerNorm_1/broadcast_in_dim" stack_frame_id=98}
  %sub.197 = f32[8,256,1]{2,1,0} broadcast(%broadcast_in_dim.177), dimensions={0,1,2}, metadata={op_name="jit(predict_step)/DiT/block1/LayerNorm_1/sub" stack_frame_id=99}
  %sub.198 = f32[8,256]{1,0} reshape(%sub.197), metadata={op_name="jit(predict_step)/DiT/block1/LayerNorm_1/sub" stack_frame_id=99}
  %sub.199 = f32[8,256,768]{2,1,0} broadcast(%sub.198), dimensions={0,1}, metadata={op_name="jit(predict_step)/DiT/block1/LayerNorm_1/sub" stack_frame_id=99}
  %sub.200 = f32[8,256,768]{2,1,0} subtract(%add.650, %sub.199), metadata={op_name="jit(predict_step)/DiT/block1/LayerNorm_1/sub" stack_frame_id=99}
  %square.56 = f32[8,256,768]{2,1,0} multiply(%add.650, %add.650), metadata={op_name="jit(predict_step)/DiT/block1/LayerNorm_1/square" stack_frame_id=101}
  %reduce_sum.443 = f32[8,256]{1,0} reduce(%square.56, %constant.41), dimensions={2}, to_apply=%region_12.16, metadata={op_name="jit(predict_step)/DiT/block1/LayerNorm_1/reduce_sum" stack_frame_id=17}
  %div.133 = f32[8,256]{1,0} divide(%reduce_sum.443, %broadcast.29), metadata={op_name="jit(predict_step)/DiT/block1/LayerNorm_1/div" stack_frame_id=17}
  %square.57 = f32[8,256]{1,0} multiply(%div.132, %div.132), metadata={op_name="jit(predict_step)/DiT/block1/LayerNorm_1/square" stack_frame_id=103}
  %sub.196 = f32[8,256]{1,0} subtract(%div.133, %square.57), metadata={op_name="jit(predict_step)/DiT/block1/LayerNorm_1/sub" stack_frame_id=104}
  %max.42 = f32[8,256]{1,0} maximum(%sub.196, %broadcast.28), metadata={op_name="jit(predict_step)/DiT/block1/LayerNorm_1/max" stack_frame_id=105}
  %broadcast_in_dim.178 = f32[8,256,1]{2,1,0} reshape(%max.42), metadata={op_name="jit(predict_step)/DiT/block1/LayerNorm_1/broadcast_in_dim" stack_frame_id=106}
  %add.651 = f32[8,256,1]{2,1,0} add(%broadcast_in_dim.178, %broadcast.27), metadata={op_name="jit(predict_step)/DiT/block1/LayerNorm_1/add" stack_frame_id=107}
  %rsqrt.28 = f32[8,256,1]{2,1,0} rsqrt(%add.651), metadata={op_name="jit(predict_step)/DiT/block1/LayerNorm_1/rsqrt" stack_frame_id=108}
  %mul.404 = f32[8,256,1]{2,1,0} broadcast(%rsqrt.28), dimensions={0,1,2}, metadata={op_name="jit(predict_step)/DiT/block1/LayerNorm_1/mul" stack_frame_id=109}
  %mul.405 = f32[8,256]{1,0} reshape(%mul.404), metadata={op_name="jit(predict_step)/DiT/block1/LayerNorm_1/mul" stack_frame_id=109}
  %mul.406 = f32[8,256,768]{2,1,0} broadcast(%mul.405), dimensions={0,1}, metadata={op_name="jit(predict_step)/DiT/block1/LayerNorm_1/mul" stack_frame_id=109}
  %mul.407 = f32[8,256,768]{2,1,0} multiply(%sub.200, %mul.406), metadata={op_name="jit(predict_step)/DiT/block1/LayerNorm_1/mul" stack_frame_id=109}
  %split.83 = f32[8,768]{1,0} slice(%add.627), slice={[0:8], [2304:3072]}, metadata={op_name="jit(predict_step)/DiT/block1/split" stack_frame_id=56}
  %broadcast_in_dim.179 = f32[8,1,768]{2,1,0} reshape(%split.83), metadata={op_name="jit(predict_step)/DiT/block1/broadcast_in_dim" stack_frame_id=111}
  %add.652 = f32[8,1,768]{2,1,0} add(%broadcast_in_dim.179, %broadcast.26), metadata={op_name="jit(predict_step)/DiT/block1/add" stack_frame_id=112}
  %mul.408 = f32[8,1,768]{2,1,0} broadcast(%add.652), dimensions={0,1,2}, metadata={op_name="jit(predict_step)/DiT/block1/mul" stack_frame_id=113}
  %mul.409 = f32[8,768]{1,0} reshape(%mul.408), metadata={op_name="jit(predict_step)/DiT/block1/mul" stack_frame_id=113}
  %mul.410 = f32[8,256,768]{2,1,0} broadcast(%mul.409), dimensions={0,2}, metadata={op_name="jit(predict_step)/DiT/block1/mul" stack_frame_id=113}
  %mul.411 = f32[8,256,768]{2,1,0} multiply(%mul.407, %mul.410), metadata={op_name="jit(predict_step)/DiT/block1/mul" stack_frame_id=113}
  %split.84 = f32[8,768]{1,0} slice(%add.627), slice={[0:8], [3072:3840]}, metadata={op_name="jit(predict_step)/DiT/block1/split" stack_frame_id=56}
  %broadcast_in_dim.180 = f32[8,1,768]{2,1,0} reshape(%split.84), metadata={op_name="jit(predict_step)/DiT/block1/broadcast_in_dim" stack_frame_id=114}
  %add.653 = f32[8,1,768]{2,1,0} broadcast(%broadcast_in_dim.180), dimensions={0,1,2}, metadata={op_name="jit(predict_step)/DiT/block1/add" stack_frame_id=113}
  %add.654 = f32[8,768]{1,0} reshape(%add.653), metadata={op_name="jit(predict_step)/DiT/block1/add" stack_frame_id=113}
  %add.655 = f32[8,256,768]{2,1,0} broadcast(%add.654), dimensions={0,2}, metadata={op_name="jit(predict_step)/DiT/block1/add" stack_frame_id=113}
  %add.656 = f32[8,256,768]{2,1,0} add(%mul.411, %add.655), metadata={op_name="jit(predict_step)/DiT/block1/add" stack_frame_id=113}
  %params__block1____Dense_1____kernel__.1 = f32[768,3072]{1,0} parameter(26), metadata={op_name="params[\'block1\'][\'Dense_1\'][\'kernel\']"}
  %dot_general.130 = f32[8,256,3072]{2,1,0} dot(%add.656, %params__block1____Dense_1____kernel__.1), lhs_contracting_dims={2}, rhs_contracting_dims={0}, metadata={op_name="jit(predict_step)/DiT/block1/Dense_1/dot_general" stack_frame_id=116}
  %params__block1____Dense_1____bias__.1 = f32[3072]{0} parameter(25), metadata={op_name="params[\'block1\'][\'Dense_1\'][\'bias\']"}
  %reshape.108 = f32[1,1,3072]{2,1,0} reshape(%params__block1____Dense_1____bias__.1), metadata={op_name="jit(predict_step)/DiT/block1/Dense_1/reshape" stack_frame_id=117}
  %add.657 = f32[1,1,3072]{2,1,0} broadcast(%reshape.108), dimensions={0,1,2}, metadata={op_name="jit(predict_step)/DiT/block1/Dense_1/add" stack_frame_id=118}
  %add.658 = f32[3072]{0} reshape(%add.657), metadata={op_name="jit(predict_step)/DiT/block1/Dense_1/add" stack_frame_id=118}
  %add.659 = f32[8,256,3072]{2,1,0} broadcast(%add.658), dimensions={2}, metadata={op_name="jit(predict_step)/DiT/block1/Dense_1/add" stack_frame_id=118}
  %add.660 = f32[8,256,3072]{2,1,0} add(%dot_general.130, %add.659), metadata={op_name="jit(predict_step)/DiT/block1/Dense_1/add" stack_frame_id=118}
  %integer_pow.26 = f32[8,256,3072]{2,1,0} multiply(%add.660, %add.660), metadata={op_name="jit(predict_step)/DiT/block1/integer_pow" stack_frame_id=119}
  %integer_pow.27 = f32[8,256,3072]{2,1,0} multiply(%integer_pow.26, %add.660), metadata={op_name="jit(predict_step)/DiT/block1/integer_pow" stack_frame_id=119}
  %mul.412 = f32[8,256,3072]{2,1,0} multiply(%integer_pow.27, %broadcast.23), metadata={op_name="jit(predict_step)/DiT/block1/mul" stack_frame_id=119}
  %add.661 = f32[8,256,3072]{2,1,0} add(%add.660, %mul.412), metadata={op_name="jit(predict_step)/DiT/block1/add" stack_frame_id=119}
  %mul.413 = f32[8,256,3072]{2,1,0} multiply(%add.661, %broadcast.22), metadata={op_name="jit(predict_step)/DiT/block1/mul" stack_frame_id=119}
  %tanh.13 = f32[8,256,3072]{2,1,0} tanh(%mul.413), metadata={op_name="jit(predict_step)/DiT/block1/tanh" stack_frame_id=119}
  %add.662 = f32[8,256,3072]{2,1,0} add(%tanh.13, %broadcast.21), metadata={op_name="jit(predict_step)/DiT/block1/add" stack_frame_id=119}
  %mul.414 = f32[8,256,3072]{2,1,0} multiply(%add.662, %broadcast.20), metadata={op_name="jit(predict_step)/DiT/block1/mul" stack_frame_id=119}
  %mul.415 = f32[8,256,3072]{2,1,0} multiply(%add.660, %mul.414), metadata={op_name="jit(predict_step)/DiT/block1/mul" stack_frame_id=119}
  %params__block1____Dense_2____kernel__.1 = f32[3072,768]{1,0} parameter(28), metadata={op_name="params[\'block1\'][\'Dense_2\'][\'kernel\']"}
  %dot_general.131 = f32[8,256,768]{2,1,0} dot(%mul.415, %params__block1____Dense_2____kernel__.1), lhs_contracting_dims={2}, rhs_contracting_dims={0}, metadata={op_name="jit(predict_step)/DiT/block1/Dense_2/dot_general" stack_frame_id=121}
  %params__block1____Dense_2____bias__.1 = f32[768]{0} parameter(27), metadata={op_name="params[\'block1\'][\'Dense_2\'][\'bias\']"}
  %reshape.109 = f32[1,1,768]{2,1,0} reshape(%params__block1____Dense_2____bias__.1), metadata={op_name="jit(predict_step)/DiT/block1/Dense_2/reshape" stack_frame_id=122}
  %add.663 = f32[1,1,768]{2,1,0} broadcast(%reshape.109), dimensions={0,1,2}, metadata={op_name="jit(predict_step)/DiT/block1/Dense_2/add" stack_frame_id=123}
  %add.664 = f32[768]{0} reshape(%add.663), metadata={op_name="jit(predict_step)/DiT/block1/Dense_2/add" stack_frame_id=123}
  %add.665 = f32[8,256,768]{2,1,0} broadcast(%add.664), dimensions={2}, metadata={op_name="jit(predict_step)/DiT/block1/Dense_2/add" stack_frame_id=123}
  %add.666 = f32[8,256,768]{2,1,0} add(%dot_general.131, %add.665), metadata={op_name="jit(predict_step)/DiT/block1/Dense_2/add" stack_frame_id=123}
  %mul.419 = f32[8,256,768]{2,1,0} multiply(%mul.418, %add.666), metadata={op_name="jit(predict_step)/DiT/block1/mul" stack_frame_id=96}
  %add.667 = f32[8,256,768]{2,1,0} add(%add.650, %mul.419), metadata={op_name="jit(predict_step)/DiT/block1/add" stack_frame_id=124}
  %jit_silu_.17 = f32[8,768]{1,0} call(%add.579), to_apply=%silu.1, metadata={op_name="jit(predict_step)/DiT/block2/jit(silu)" stack_frame_id=51}
  %params__block2____Dense_0____kernel__.1 = f32[768,4608]{1,0} parameter(66), metadata={op_name="params[\'block2\'][\'Dense_0\'][\'kernel\']"}
  %dot_general.132 = f32[8,4608]{1,0} dot(%jit_silu_.17, %params__block2____Dense_0____kernel__.1), lhs_contracting_dims={1}, rhs_contracting_dims={0}, metadata={op_name="jit(predict_step)/DiT/block2/Dense_0/dot_general" stack_frame_id=53}
  %params__block2____Dense_0____bias__.1 = f32[4608]{0} parameter(65), metadata={op_name="params[\'block2\'][\'Dense_0\'][\'bias\']"}
  %reshape.110 = f32[1,4608]{1,0} reshape(%params__block2____Dense_0____bias__.1), metadata={op_name="jit(predict_step)/DiT/block2/Dense_0/reshape" stack_frame_id=54}
  %add.668 = f32[1,4608]{1,0} broadcast(%reshape.110), dimensions={0,1}, metadata={op_name="jit(predict_step)/DiT/block2/Dense_0/add" stack_frame_id=55}
  %add.669 = f32[4608]{0} reshape(%add.668), metadata={op_name="jit(predict_step)/DiT/block2/Dense_0/add" stack_frame_id=55}
  %add.670 = f32[8,4608]{1,0} broadcast(%add.669), dimensions={1}, metadata={op_name="jit(predict_step)/DiT/block2/Dense_0/add" stack_frame_id=55}
  %add.671 = f32[8,4608]{1,0} add(%dot_general.132, %add.670), metadata={op_name="jit(predict_step)/DiT/block2/Dense_0/add" stack_frame_id=55}
  %split.88 = f32[8,768]{1,0} slice(%add.671), slice={[0:8], [1536:2304]}, metadata={op_name="jit(predict_step)/DiT/block2/split" stack_frame_id=56}
  %broadcast_in_dim.188 = f32[8,1,768]{2,1,0} reshape(%split.88), metadata={op_name="jit(predict_step)/DiT/block2/broadcast_in_dim" stack_frame_id=57}
  %mul.428 = f32[8,1,768]{2,1,0} broadcast(%broadcast_in_dim.188), dimensions={0,1,2}, metadata={op_name="jit(predict_step)/DiT/block2/mul" stack_frame_id=57}
  %mul.429 = f32[8,768]{1,0} reshape(%mul.428), metadata={op_name="jit(predict_step)/DiT/block2/mul" stack_frame_id=57}
  %mul.430 = f32[8,256,768]{2,1,0} broadcast(%mul.429), dimensions={0,2}, metadata={op_name="jit(predict_step)/DiT/block2/mul" stack_frame_id=57}
  %reduce_sum.444 = f32[8,256]{1,0} reduce(%add.667, %constant.41), dimensions={2}, to_apply=%region_13.17, metadata={op_name="jit(predict_step)/DiT/block2/LayerNorm_0/reduce_sum" stack_frame_id=8}
  %div.134 = f32[8,256]{1,0} divide(%reduce_sum.444, %broadcast.29), metadata={op_name="jit(predict_step)/DiT/block2/LayerNorm_0/div" stack_frame_id=8}
  %broadcast_in_dim.182 = f32[8,256,1]{2,1,0} reshape(%div.134), metadata={op_name="jit(predict_step)/DiT/block2/LayerNorm_0/broadcast_in_dim" stack_frame_id=59}
  %sub.202 = f32[8,256,1]{2,1,0} broadcast(%broadcast_in_dim.182), dimensions={0,1,2}, metadata={op_name="jit(predict_step)/DiT/block2/LayerNorm_0/sub" stack_frame_id=60}
  %sub.203 = f32[8,256]{1,0} reshape(%sub.202), metadata={op_name="jit(predict_step)/DiT/block2/LayerNorm_0/sub" stack_frame_id=60}
  %sub.204 = f32[8,256,768]{2,1,0} broadcast(%sub.203), dimensions={0,1}, metadata={op_name="jit(predict_step)/DiT/block2/LayerNorm_0/sub" stack_frame_id=60}
  %sub.205 = f32[8,256,768]{2,1,0} subtract(%add.667, %sub.204), metadata={op_name="jit(predict_step)/DiT/block2/LayerNorm_0/sub" stack_frame_id=60}
  %square.58 = f32[8,256,768]{2,1,0} multiply(%add.667, %add.667), metadata={op_name="jit(predict_step)/DiT/block2/LayerNorm_0/square" stack_frame_id=62}
  %reduce_sum.445 = f32[8,256]{1,0} reduce(%square.58, %constant.41), dimensions={2}, to_apply=%region_14.18, metadata={op_name="jit(predict_step)/DiT/block2/LayerNorm_0/reduce_sum" stack_frame_id=8}
  %div.135 = f32[8,256]{1,0} divide(%reduce_sum.445, %broadcast.29), metadata={op_name="jit(predict_step)/DiT/block2/LayerNorm_0/div" stack_frame_id=8}
  %square.59 = f32[8,256]{1,0} multiply(%div.134, %div.134), metadata={op_name="jit(predict_step)/DiT/block2/LayerNorm_0/square" stack_frame_id=64}
  %sub.201 = f32[8,256]{1,0} subtract(%div.135, %square.59), metadata={op_name="jit(predict_step)/DiT/block2/LayerNorm_0/sub" stack_frame_id=65}
  %max.43 = f32[8,256]{1,0} maximum(%sub.201, %broadcast.28), metadata={op_name="jit(predict_step)/DiT/block2/LayerNorm_0/max" stack_frame_id=66}
  %broadcast_in_dim.183 = f32[8,256,1]{2,1,0} reshape(%max.43), metadata={op_name="jit(predict_step)/DiT/block2/LayerNorm_0/broadcast_in_dim" stack_frame_id=67}
  %add.672 = f32[8,256,1]{2,1,0} add(%broadcast_in_dim.183, %broadcast.27), metadata={op_name="jit(predict_step)/DiT/block2/LayerNorm_0/add" stack_frame_id=68}
  %rsqrt.29 = f32[8,256,1]{2,1,0} rsqrt(%add.672), metadata={op_name="jit(predict_step)/DiT/block2/LayerNorm_0/rsqrt" stack_frame_id=69}
  %mul.420 = f32[8,256,1]{2,1,0} broadcast(%rsqrt.29), dimensions={0,1,2}, metadata={op_name="jit(predict_step)/DiT/block2/LayerNorm_0/mul" stack_frame_id=70}
  %mul.421 = f32[8,256]{1,0} reshape(%mul.420), metadata={op_name="jit(predict_step)/DiT/block2/LayerNorm_0/mul" stack_frame_id=70}
  %mul.422 = f32[8,256,768]{2,1,0} broadcast(%mul.421), dimensions={0,1}, metadata={op_name="jit(predict_step)/DiT/block2/LayerNorm_0/mul" stack_frame_id=70}
  %mul.423 = f32[8,256,768]{2,1,0} multiply(%sub.205, %mul.422), metadata={op_name="jit(predict_step)/DiT/block2/LayerNorm_0/mul" stack_frame_id=70}
  %split.86 = f32[8,768]{1,0} slice(%add.671), slice={[0:8], [0:768]}, metadata={op_name="jit(predict_step)/DiT/block2/split" stack_frame_id=56}
  %broadcast_in_dim.184 = f32[8,1,768]{2,1,0} reshape(%split.86), metadata={op_name="jit(predict_step)/DiT/block2/broadcast_in_dim" stack_frame_id=72}
  %add.673 = f32[8,1,768]{2,1,0} add(%broadcast_in_dim.184, %broadcast.26), metadata={op_name="jit(predict_step)/DiT/block2/add" stack_frame_id=73}
  %mul.424 = f32[8,1,768]{2,1,0} broadcast(%add.673), dimensions={0,1,2}, metadata={op_name="jit(predict_step)/DiT/block2/mul" stack_frame_id=74}
  %mul.425 = f32[8,768]{1,0} reshape(%mul.424), metadata={op_name="jit(predict_step)/DiT/block2/mul" stack_frame_id=74}
  %mul.426 = f32[8,256,768]{2,1,0} broadcast(%mul.425), dimensions={0,2}, metadata={op_name="jit(predict_step)/DiT/block2/mul" stack_frame_id=74}
  %mul.427 = f32[8,256,768]{2,1,0} multiply(%mul.423, %mul.426), metadata={op_name="jit(predict_step)/DiT/block2/mul" stack_frame_id=74}
  %split.87 = f32[8,768]{1,0} slice(%add.671), slice={[0:8], [768:1536]}, metadata={op_name="jit(predict_step)/DiT/block2/split" stack_frame_id=56}
  %broadcast_in_dim.185 = f32[8,1,768]{2,1,0} reshape(%split.87), metadata={op_name="jit(predict_step)/DiT/block2/broadcast_in_dim" stack_frame_id=75}
  %add.674 = f32[8,1,768]{2,1,0} broadcast(%broadcast_in_dim.185), dimensions={0,1,2}, metadata={op_name="jit(predict_step)/DiT/block2/add" stack_frame_id=74}
  %add.675 = f32[8,768]{1,0} reshape(%add.674), metadata={op_name="jit(predict_step)/DiT/block2/add" stack_frame_id=74}
  %add.676 = f32[8,256,768]{2,1,0} broadcast(%add.675), dimensions={0,2}, metadata={op_name="jit(predict_step)/DiT/block2/add" stack_frame_id=74}
  %add.677 = f32[8,256,768]{2,1,0} add(%mul.427, %add.676), metadata={op_name="jit(predict_step)/DiT/block2/add" stack_frame_id=74}
  %params__block2____MultiHeadDotProductAttention_0____value____kernel__.1 = f32[768,12,64]{2,1,0} parameter(78), metadata={op_name="params[\'block2\'][\'MultiHeadDotProductAttention_0\'][\'value\'][\'kernel\']"}
  %dot_general.135 = f32[8,256,12,64]{3,2,1,0} dot(%add.677, %params__block2____MultiHeadDotProductAttention_0____value____kernel__.1), lhs_contracting_dims={2}, rhs_contracting_dims={0}, metadata={op_name="jit(predict_step)/DiT/block2/MultiHeadDotProductAttention_0/value/dot_general" stack_frame_id=77}
  %params__block2____MultiHeadDotProductAttention_0____value____bias__.1 = f32[12,64]{1,0} parameter(77), metadata={op_name="params[\'block2\'][\'MultiHeadDotProductAttention_0\'][\'value\'][\'bias\']"}
  %reshape.113 = f32[1,1,12,64]{3,2,1,0} reshape(%params__block2____MultiHeadDotProductAttention_0____value____bias__.1), metadata={op_name="jit(predict_step)/DiT/block2/MultiHeadDotProductAttention_0/value/reshape" stack_frame_id=78}
  %add.686 = f32[1,1,12,64]{3,2,1,0} broadcast(%reshape.113), dimensions={0,1,2,3}, metadata={op_name="jit(predict_step)/DiT/block2/MultiHeadDotProductAttention_0/value/add" stack_frame_id=79}
  %add.687 = f32[12,64]{1,0} reshape(%add.686), metadata={op_name="jit(predict_step)/DiT/block2/MultiHeadDotProductAttention_0/value/add" stack_frame_id=79}
  %add.688 = f32[8,256,12,64]{3,2,1,0} broadcast(%add.687), dimensions={2,3}, metadata={op_name="jit(predict_step)/DiT/block2/MultiHeadDotProductAttention_0/value/add" stack_frame_id=79}
  %add.689 = f32[8,256,12,64]{3,2,1,0} add(%dot_general.135, %add.688), metadata={op_name="jit(predict_step)/DiT/block2/MultiHeadDotProductAttention_0/value/add" stack_frame_id=79}
  %params__block2____MultiHeadDotProductAttention_0____query____kernel__.1 = f32[768,12,64]{2,1,0} parameter(76), metadata={op_name="params[\'block2\'][\'MultiHeadDotProductAttention_0\'][\'query\'][\'kernel\']"}
  %dot_general.133 = f32[8,256,12,64]{3,2,1,0} dot(%add.677, %params__block2____MultiHeadDotProductAttention_0____query____kernel__.1), lhs_contracting_dims={2}, rhs_contracting_dims={0}, metadata={op_name="jit(predict_step)/DiT/block2/MultiHeadDotProductAttention_0/query/dot_general" stack_frame_id=81}
  %params__block2____MultiHeadDotProductAttention_0____query____bias__.1 = f32[12,64]{1,0} parameter(75), metadata={op_name="params[\'block2\'][\'MultiHeadDotProductAttention_0\'][\'query\'][\'bias\']"}
  %reshape.111 = f32[1,1,12,64]{3,2,1,0} reshape(%params__block2____MultiHeadDotProductAttention_0____query____bias__.1), metadata={op_name="jit(predict_step)/DiT/block2/MultiHeadDotProductAttention_0/query/reshape" stack_frame_id=82}
  %add.678 = f32[1,1,12,64]{3,2,1,0} broadcast(%reshape.111), dimensions={0,1,2,3}, metadata={op_name="jit(predict_step)/DiT/block2/MultiHeadDotProductAttention_0/query/add" stack_frame_id=83}
  %add.679 = f32[12,64]{1,0} reshape(%add.678), metadata={op_name="jit(predict_step)/DiT/block2/MultiHeadDotProductAttention_0/query/add" stack_frame_id=83}
  %add.680 = f32[8,256,12,64]{3,2,1,0} broadcast(%add.679), dimensions={2,3}, metadata={op_name="jit(predict_step)/DiT/block2/MultiHeadDotProductAttention_0/query/add" stack_frame_id=83}
  %add.681 = f32[8,256,12,64]{3,2,1,0} add(%dot_general.133, %add.680), metadata={op_name="jit(predict_step)/DiT/block2/MultiHeadDotProductAttention_0/query/add" stack_frame_id=83}
  %div.136 = f32[8,256,12,64]{3,2,1,0} divide(%add.681, %broadcast.25), metadata={op_name="jit(predict_step)/DiT/block2/MultiHeadDotProductAttention_0/div" stack_frame_id=84}
  %params__block2____MultiHeadDotProductAttention_0____key____kernel__.1 = f32[768,12,64]{2,1,0} parameter(72), metadata={op_name="params[\'block2\'][\'MultiHeadDotProductAttention_0\'][\'key\'][\'kernel\']"}
  %dot_general.134 = f32[8,256,12,64]{3,2,1,0} dot(%add.677, %params__block2____MultiHeadDotProductAttention_0____key____kernel__.1), lhs_contracting_dims={2}, rhs_contracting_dims={0}, metadata={op_name="jit(predict_step)/DiT/block2/MultiHeadDotProductAttention_0/key/dot_general" stack_frame_id=86}
  %params__block2____MultiHeadDotProductAttention_0____key____bias__.1 = f32[12,64]{1,0} parameter(71), metadata={op_name="params[\'block2\'][\'MultiHeadDotProductAttention_0\'][\'key\'][\'bias\']"}
  %reshape.112 = f32[1,1,12,64]{3,2,1,0} reshape(%params__block2____MultiHeadDotProductAttention_0____key____bias__.1), metadata={op_name="jit(predict_step)/DiT/block2/MultiHeadDotProductAttention_0/key/reshape" stack_frame_id=87}
  %add.682 = f32[1,1,12,64]{3,2,1,0} broadcast(%reshape.112), dimensions={0,1,2,3}, metadata={op_name="jit(predict_step)/DiT/block2/MultiHeadDotProductAttention_0/key/add" stack_frame_id=88}
  %add.683 = f32[12,64]{1,0} reshape(%add.682), metadata={op_name="jit(predict_step)/DiT/block2/MultiHeadDotProductAttention_0/key/add" stack_frame_id=88}
  %add.684 = f32[8,256,12,64]{3,2,1,0} broadcast(%add.683), dimensions={2,3}, metadata={op_name="jit(predict_step)/DiT/block2/MultiHeadDotProductAttention_0/key/add" stack_frame_id=88}
  %add.685 = f32[8,256,12,64]{3,2,1,0} add(%dot_general.134, %add.684), metadata={op_name="jit(predict_step)/DiT/block2/MultiHeadDotProductAttention_0/key/add" stack_frame_id=88}
  %dot_general.136 = f32[8,12,256,256]{3,2,1,0} dot(%div.136, %add.685), lhs_batch_dims={0,2}, lhs_contracting_dims={3}, rhs_batch_dims={0,2}, rhs_contracting_dims={3}, metadata={op_name="jit(predict_step)/DiT/block2/MultiHeadDotProductAttention_0/...qhd,...khd->...hqk/dot_general" stack_frame_id=89}
  %reduce_max.86 = f32[8,12,256]{2,1,0} reduce(%dot_general.136, %constant.40), dimensions={3}, to_apply=%region_15.19, metadata={op_name="jit(predict_step)/DiT/block2/MultiHeadDotProductAttention_0/reduce_max" stack_frame_id=12}
  %max.44 = f32[8,12,256]{2,1,0} maximum(%reduce_max.86, %broadcast.24), metadata={op_name="jit(predict_step)/DiT/block2/MultiHeadDotProductAttention_0/max" stack_frame_id=12}
  %broadcast_in_dim.186 = f32[8,12,256,1]{3,2,1,0} reshape(%max.44), metadata={op_name="jit(predict_step)/DiT/block2/MultiHeadDotProductAttention_0/broadcast_in_dim" stack_frame_id=12}
  %sub.206 = f32[8,12,256,1]{3,2,1,0} broadcast(%broadcast_in_dim.186), dimensions={0,1,2,3}, metadata={op_name="jit(predict_step)/DiT/block2/MultiHeadDotProductAttention_0/sub" stack_frame_id=12}
  %sub.207 = f32[8,12,256]{2,1,0} reshape(%sub.206), metadata={op_name="jit(predict_step)/DiT/block2/MultiHeadDotProductAttention_0/sub" stack_frame_id=12}
  %sub.208 = f32[8,12,256,256]{3,2,1,0} broadcast(%sub.207), dimensions={0,1,2}, metadata={op_name="jit(predict_step)/DiT/block2/MultiHeadDotProductAttention_0/sub" stack_frame_id=12}
  %sub.209 = f32[8,12,256,256]{3,2,1,0} subtract(%dot_general.136, %sub.208), metadata={op_name="jit(predict_step)/DiT/block2/MultiHeadDotProductAttention_0/sub" stack_frame_id=12}
  %exp.18 = f32[8,12,256,256]{3,2,1,0} exponential(%sub.209), metadata={op_name="jit(predict_step)/DiT/block2/MultiHeadDotProductAttention_0/exp" stack_frame_id=12}
  %reduce_sum.446 = f32[8,12,256]{2,1,0} reduce(%exp.18, %constant.41), dimensions={3}, to_apply=%region_16.20, metadata={op_name="jit(predict_step)/DiT/block2/MultiHeadDotProductAttention_0/reduce_sum" stack_frame_id=12}
  %broadcast_in_dim.187 = f32[8,12,256,1]{3,2,1,0} reshape(%reduce_sum.446), metadata={op_name="jit(predict_step)/DiT/block2/MultiHeadDotProductAttention_0/broadcast_in_dim" stack_frame_id=12}
  %div.137 = f32[8,12,256,1]{3,2,1,0} broadcast(%broadcast_in_dim.187), dimensions={0,1,2,3}, metadata={op_name="jit(predict_step)/DiT/block2/MultiHeadDotProductAttention_0/div" stack_frame_id=12}
  %div.138 = f32[8,12,256]{2,1,0} reshape(%div.137), metadata={op_name="jit(predict_step)/DiT/block2/MultiHeadDotProductAttention_0/div" stack_frame_id=12}
  %div.139 = f32[8,12,256,256]{3,2,1,0} broadcast(%div.138), dimensions={0,1,2}, metadata={op_name="jit(predict_step)/DiT/block2/MultiHeadDotProductAttention_0/div" stack_frame_id=12}
  %div.140 = f32[8,12,256,256]{3,2,1,0} divide(%exp.18, %div.139), metadata={op_name="jit(predict_step)/DiT/block2/MultiHeadDotProductAttention_0/div" stack_frame_id=12}
  %dot_general.137 = f32[8,12,64,256]{3,2,1,0} dot(%add.689, %div.140), lhs_batch_dims={0,2}, lhs_contracting_dims={1}, rhs_batch_dims={0,1}, rhs_contracting_dims={3}, metadata={op_name="jit(predict_step)/DiT/block2/MultiHeadDotProductAttention_0/...hqk,...khd->...qhd/dot_general" stack_frame_id=90}
  %transpose.17 = f32[8,256,12,64]{1,3,2,0} transpose(%dot_general.137), dimensions={0,3,1,2}, metadata={op_name="jit(predict_step)/DiT/block2/MultiHeadDotProductAttention_0/...hqk,...khd->...qhd/transpose" stack_frame_id=90}
  %params__block2____MultiHeadDotProductAttention_0____out____kernel__.1 = f32[12,64,768]{2,1,0} parameter(74), metadata={op_name="params[\'block2\'][\'MultiHeadDotProductAttention_0\'][\'out\'][\'kernel\']"}
  %dot_general.138 = f32[8,256,768]{2,1,0} dot(%transpose.17, %params__block2____MultiHeadDotProductAttention_0____out____kernel__.1), lhs_contracting_dims={2,3}, rhs_contracting_dims={0,1}, metadata={op_name="jit(predict_step)/DiT/block2/MultiHeadDotProductAttention_0/out/dot_general" stack_frame_id=92}
  %params__block2____MultiHeadDotProductAttention_0____out____bias__.1 = f32[768]{0} parameter(73), metadata={op_name="params[\'block2\'][\'MultiHeadDotProductAttention_0\'][\'out\'][\'bias\']"}
  %reshape.114 = f32[1,1,768]{2,1,0} reshape(%params__block2____MultiHeadDotProductAttention_0____out____bias__.1), metadata={op_name="jit(predict_step)/DiT/block2/MultiHeadDotProductAttention_0/out/reshape" stack_frame_id=93}
  %add.690 = f32[1,1,768]{2,1,0} broadcast(%reshape.114), dimensions={0,1,2}, metadata={op_name="jit(predict_step)/DiT/block2/MultiHeadDotProductAttention_0/out/add" stack_frame_id=94}
  %add.691 = f32[768]{0} reshape(%add.690), metadata={op_name="jit(predict_step)/DiT/block2/MultiHeadDotProductAttention_0/out/add" stack_frame_id=94}
  %add.692 = f32[8,256,768]{2,1,0} broadcast(%add.691), dimensions={2}, metadata={op_name="jit(predict_step)/DiT/block2/MultiHeadDotProductAttention_0/out/add" stack_frame_id=94}
  %add.693 = f32[8,256,768]{2,1,0} add(%dot_general.138, %add.692), metadata={op_name="jit(predict_step)/DiT/block2/MultiHeadDotProductAttention_0/out/add" stack_frame_id=94}
  %mul.431 = f32[8,256,768]{2,1,0} multiply(%mul.430, %add.693), metadata={op_name="jit(predict_step)/DiT/block2/mul" stack_frame_id=57}
  %add.694 = f32[8,256,768]{2,1,0} add(%add.667, %mul.431), metadata={op_name="jit(predict_step)/DiT/block2/add" stack_frame_id=95}
  %split.91 = f32[8,768]{1,0} slice(%add.671), slice={[0:8], [3840:4608]}, metadata={op_name="jit(predict_step)/DiT/block2/split" stack_frame_id=56}
  %broadcast_in_dim.193 = f32[8,1,768]{2,1,0} reshape(%split.91), metadata={op_name="jit(predict_step)/DiT/block2/broadcast_in_dim" stack_frame_id=96}
  %mul.444 = f32[8,1,768]{2,1,0} broadcast(%broadcast_in_dim.193), dimensions={0,1,2}, metadata={op_name="jit(predict_step)/DiT/block2/mul" stack_frame_id=96}
  %mul.445 = f32[8,768]{1,0} reshape(%mul.444), metadata={op_name="jit(predict_step)/DiT/block2/mul" stack_frame_id=96}
  %mul.446 = f32[8,256,768]{2,1,0} broadcast(%mul.445), dimensions={0,2}, metadata={op_name="jit(predict_step)/DiT/block2/mul" stack_frame_id=96}
  %reduce_sum.447 = f32[8,256]{1,0} reduce(%add.694, %constant.41), dimensions={2}, to_apply=%region_17.21, metadata={op_name="jit(predict_step)/DiT/block2/LayerNorm_1/reduce_sum" stack_frame_id=17}
  %div.141 = f32[8,256]{1,0} divide(%reduce_sum.447, %broadcast.29), metadata={op_name="jit(predict_step)/DiT/block2/LayerNorm_1/div" stack_frame_id=17}
  %broadcast_in_dim.189 = f32[8,256,1]{2,1,0} reshape(%div.141), metadata={op_name="jit(predict_step)/DiT/block2/LayerNorm_1/broadcast_in_dim" stack_frame_id=98}
  %sub.211 = f32[8,256,1]{2,1,0} broadcast(%broadcast_in_dim.189), dimensions={0,1,2}, metadata={op_name="jit(predict_step)/DiT/block2/LayerNorm_1/sub" stack_frame_id=99}
  %sub.212 = f32[8,256]{1,0} reshape(%sub.211), metadata={op_name="jit(predict_step)/DiT/block2/LayerNorm_1/sub" stack_frame_id=99}
  %sub.213 = f32[8,256,768]{2,1,0} broadcast(%sub.212), dimensions={0,1}, metadata={op_name="jit(predict_step)/DiT/block2/LayerNorm_1/sub" stack_frame_id=99}
  %sub.214 = f32[8,256,768]{2,1,0} subtract(%add.694, %sub.213), metadata={op_name="jit(predict_step)/DiT/block2/LayerNorm_1/sub" stack_frame_id=99}
  %square.60 = f32[8,256,768]{2,1,0} multiply(%add.694, %add.694), metadata={op_name="jit(predict_step)/DiT/block2/LayerNorm_1/square" stack_frame_id=101}
  %reduce_sum.448 = f32[8,256]{1,0} reduce(%square.60, %constant.41), dimensions={2}, to_apply=%region_18.22, metadata={op_name="jit(predict_step)/DiT/block2/LayerNorm_1/reduce_sum" stack_frame_id=17}
  %div.142 = f32[8,256]{1,0} divide(%reduce_sum.448, %broadcast.29), metadata={op_name="jit(predict_step)/DiT/block2/LayerNorm_1/div" stack_frame_id=17}
  %square.61 = f32[8,256]{1,0} multiply(%div.141, %div.141), metadata={op_name="jit(predict_step)/DiT/block2/LayerNorm_1/square" stack_frame_id=103}
  %sub.210 = f32[8,256]{1,0} subtract(%div.142, %square.61), metadata={op_name="jit(predict_step)/DiT/block2/LayerNorm_1/sub" stack_frame_id=104}
  %max.45 = f32[8,256]{1,0} maximum(%sub.210, %broadcast.28), metadata={op_name="jit(predict_step)/DiT/block2/LayerNorm_1/max" stack_frame_id=105}
  %broadcast_in_dim.190 = f32[8,256,1]{2,1,0} reshape(%max.45), metadata={op_name="jit(predict_step)/DiT/block2/LayerNorm_1/broadcast_in_dim" stack_frame_id=106}
  %add.695 = f32[8,256,1]{2,1,0} add(%broadcast_in_dim.190, %broadcast.27), metadata={op_name="jit(predict_step)/DiT/block2/LayerNorm_1/add" stack_frame_id=107}
  %rsqrt.30 = f32[8,256,1]{2,1,0} rsqrt(%add.695), metadata={op_name="jit(predict_step)/DiT/block2/LayerNorm_1/rsqrt" stack_frame_id=108}
  %mul.432 = f32[8,256,1]{2,1,0} broadcast(%rsqrt.30), dimensions={0,1,2}, metadata={op_name="jit(predict_step)/DiT/block2/LayerNorm_1/mul" stack_frame_id=109}
  %mul.433 = f32[8,256]{1,0} reshape(%mul.432), metadata={op_name="jit(predict_step)/DiT/block2/LayerNorm_1/mul" stack_frame_id=109}
  %mul.434 = f32[8,256,768]{2,1,0} broadcast(%mul.433), dimensions={0,1}, metadata={op_name="jit(predict_step)/DiT/block2/LayerNorm_1/mul" stack_frame_id=109}
…
  %broadcast_in_dim.282 = f32[8,12,256,1]{3,2,1,0} reshape(%max.68), metadata={op_name="jit(predict_step)/DiT/block10/MultiHeadDotProductAttention_0/broadcast_in_dim" stack_frame_id=12}
  %sub.318 = f32[8,12,256,1]{3,2,1,0} broadcast(%broadcast_in_dim.282), dimensions={0,1,2,3}, metadata={op_name="jit(predict_step)/DiT/block10/MultiHeadDotProductAttention_0/sub" stack_frame_id=12}
  %sub.319 = f32[8,12,256]{2,1,0} reshape(%sub.318), metadata={op_name="jit(predict_step)/DiT/block10/MultiHeadDotProductAttention_0/sub" stack_frame_id=12}
  %sub.320 = f32[8,12,256,256]{3,2,1,0} broadcast(%sub.319), dimensions={0,1,2}, metadata={op_name="jit(predict_step)/DiT/block10/MultiHeadDotProductAttention_0/sub" stack_frame_id=12}
  %sub.321 = f32[8,12,256,256]{3,2,1,0} subtract(%dot_general.208, %sub.320), metadata={op_name="jit(predict_step)/DiT/block10/MultiHeadDotProductAttention_0/sub" stack_frame_id=12}
  %exp.26 = f32[8,12,256,256]{3,2,1,0} exponential(%sub.321), metadata={op_name="jit(predict_step)/DiT/block10/MultiHeadDotProductAttention_0/exp" stack_frame_id=12}
  %reduce_sum.486 = f32[8,12,256]{2,1,0} reduce(%exp.26, %constant.41), dimensions={3}, to_apply=%region_64.68, metadata={op_name="jit(predict_step)/DiT/block10/MultiHeadDotProductAttention_0/reduce_sum" stack_frame_id=12}
  %broadcast_in_dim.283 = f32[8,12,256,1]{3,2,1,0} reshape(%reduce_sum.486), metadata={op_name="jit(predict_step)/DiT/block10/MultiHeadDotProductAttention_0/broadcast_in_dim" stack_frame_id=12}
  %div.209 = f32[8,12,256,1]{3,2,1,0} broadcast(%broadcast_in_dim.283), dimensions={0,1,2,3}, metadata={op_name="jit(predict_step)/DiT/block10/MultiHeadDotProductAttention_0/div" stack_frame_id=12}
  %div.210 = f32[8,12,256]{2,1,0} reshape(%div.209), metadata={op_name="jit(predict_step)/DiT/block10/MultiHeadDotProductAttention_0/div" stack_frame_id=12}
  %div.211 = f32[8,12,256,256]{3,2,1,0} broadcast(%div.210), dimensions={0,1,2}, metadata={op_name="jit(predict_step)/DiT/block10/MultiHeadDotProductAttention_0/div" stack_frame_id=12}
  %div.212 = f32[8,12,256,256]{3,2,1,0} divide(%exp.26, %div.211), metadata={op_name="jit(predict_step)/DiT/block10/MultiHeadDotProductAttention_0/div" stack_frame_id=12}
  %dot_general.209 = f32[8,12,64,256]{3,2,1,0} dot(%add.1041, %div.212), lhs_batch_dims={0,2}, lhs_contracting_dims={1}, rhs_batch_dims={0,1}, rhs_contracting_dims={3}, metadata={op_name="jit(predict_step)/DiT/block10/MultiHeadDotProductAttention_0/...hqk,...khd->...qhd/dot_general" stack_frame_id=90}
  %transpose.25 = f32[8,256,12,64]{1,3,2,0} transpose(%dot_general.209), dimensions={0,3,1,2}, metadata={op_name="jit(predict_step)/DiT/block10/MultiHeadDotProductAttention_0/...hqk,...khd->...qhd/transpose" stack_frame_id=90}
  %params__block10____MultiHeadDotProductAttention_0____out____kernel__.1 = f32[12,64,768]{2,1,0} parameter(46), metadata={op_name="params[\'block10\'][\'MultiHeadDotProductAttention_0\'][\'out\'][\'kernel\']"}
  %dot_general.210 = f32[8,256,768]{2,1,0} dot(%transpose.25, %params__block10____MultiHeadDotProductAttention_0____out____kernel__.1), lhs_contracting_dims={2,3}, rhs_contracting_dims={0,1}, metadata={op_name="jit(predict_step)/DiT/block10/MultiHeadDotProductAttention_0/out/dot_general" stack_frame_id=92}
  %params__block10____MultiHeadDotProductAttention_0____out____bias__.1 = f32[768]{0} parameter(45), metadata={op_name="params[\'block10\'][\'MultiHeadDotProductAttention_0\'][\'out\'][\'bias\']"}
  %reshape.170 = f32[1,1,768]{2,1,0} reshape(%params__block10____MultiHeadDotProductAttention_0____out____bias__.1), metadata={op_name="jit(predict_step)/DiT/block10/MultiHeadDotProductAttention_0/out/reshape" stack_frame_id=93}
  %add.1042 = f32[1,1,768]{2,1,0} broadcast(%reshape.170), dimensions={0,1,2}, metadata={op_name="jit(predict_step)/DiT/block10/MultiHeadDotProductAttention_0/out/add" stack_frame_id=94}
  %add.1043 = f32[768]{0} reshape(%add.1042), metadata={op_name="jit(predict_step)/DiT/block10/MultiHeadDotProductAttention_0/out/add" stack_frame_id=94}
  %add.1044 = f32[8,256,768]{2,1,0} broadcast(%add.1043), dimensions={2}, metadata={op_name="jit(predict_step)/DiT/block10/MultiHeadDotProductAttention_0/out/add" stack_frame_id=94}
  %add.1045 = f32[8,256,768]{2,1,0} add(%dot_general.210, %add.1044), metadata={op_name="jit(predict_step)/DiT/block10/MultiHeadDotProductAttention_0/out/add" stack_frame_id=94}
  %mul.655 = f32[8,256,768]{2,1,0} multiply(%mul.654, %add.1045), metadata={op_name="jit(predict_step)/DiT/block10/mul" stack_frame_id=57}
  %add.1046 = f32[8,256,768]{2,1,0} add(%add.1019, %mul.655), metadata={op_name="jit(predict_step)/DiT/block10/add" stack_frame_id=95}
  %split.139 = f32[8,768]{1,0} slice(%add.1023), slice={[0:8], [3840:4608]}, metadata={op_name="jit(predict_step)/DiT/block10/split" stack_frame_id=56}
  %broadcast_in_dim.289 = f32[8,1,768]{2,1,0} reshape(%split.139), metadata={op_name="jit(predict_step)/DiT/block10/broadcast_in_dim" stack_frame_id=96}
  %mul.668 = f32[8,1,768]{2,1,0} broadcast(%broadcast_in_dim.289), dimensions={0,1,2}, metadata={op_name="jit(predict_step)/DiT/block10/mul" stack_frame_id=96}
  %mul.669 = f32[8,768]{1,0} reshape(%mul.668), metadata={op_name="jit(predict_step)/DiT/block10/mul" stack_frame_id=96}
  %mul.670 = f32[8,256,768]{2,1,0} broadcast(%mul.669), dimensions={0,2}, metadata={op_name="jit(predict_step)/DiT/block10/mul" stack_frame_id=96}
  %reduce_sum.487 = f32[8,256]{1,0} reduce(%add.1046, %constant.41), dimensions={2}, to_apply=%region_65.69, metadata={op_name="jit(predict_step)/DiT/block10/LayerNorm_1/reduce_sum" stack_frame_id=17}
  %div.213 = f32[8,256]{1,0} divide(%reduce_sum.487, %broadcast.29), metadata={op_name="jit(predict_step)/DiT/block10/LayerNorm_1/div" stack_frame_id=17}
  %broadcast_in_dim.285 = f32[8,256,1]{2,1,0} reshape(%div.213), metadata={op_name="jit(predict_step)/DiT/block10/LayerNorm_1/broadcast_in_dim" stack_frame_id=98}
  %sub.323 = f32[8,256,1]{2,1,0} broadcast(%broadcast_in_dim.285), dimensions={0,1,2}, metadata={op_name="jit(predict_step)/DiT/block10/LayerNorm_1/sub" stack_frame_id=99}
  %sub.324 = f32[8,256]{1,0} reshape(%sub.323), metadata={op_name="jit(predict_step)/DiT/block10/LayerNorm_1/sub" stack_frame_id=99}
  %sub.325 = f32[8,256,768]{2,1,0} broadcast(%sub.324), dimensions={0,1}, metadata={op_name="jit(predict_step)/DiT/block10/LayerNorm_1/sub" stack_frame_id=99}
  %sub.326 = f32[8,256,768]{2,1,0} subtract(%add.1046, %sub.325), metadata={op_name="jit(predict_step)/DiT/block10/LayerNorm_1/sub" stack_frame_id=99}
  %square.92 = f32[8,256,768]{2,1,0} multiply(%add.1046, %add.1046), metadata={op_name="jit(predict_step)/DiT/block10/LayerNorm_1/square" stack_frame_id=101}
  %reduce_sum.488 = f32[8,256]{1,0} reduce(%square.92, %constant.41), dimensions={2}, to_apply=%region_66.70, metadata={op_name="jit(predict_step)/DiT/block10/LayerNorm_1/reduce_sum" stack_frame_id=17}
  %div.214 = f32[8,256]{1,0} divide(%reduce_sum.488, %broadcast.29), metadata={op_name="jit(predict_step)/DiT/block10/LayerNorm_1/div" stack_frame_id=17}
  %square.93 = f32[8,256]{1,0} multiply(%div.213, %div.213), metadata={op_name="jit(predict_step)/DiT/block10/LayerNorm_1/square" stack_frame_id=103}
  %sub.322 = f32[8,256]{1,0} subtract(%div.214, %square.93), metadata={op_name="jit(predict_step)/DiT/block10/LayerNorm_1/sub" stack_frame_id=104}
  %max.69 = f32[8,256]{1,0} maximum(%sub.322, %broadcast.28), metadata={op_name="jit(predict_step)/DiT/block10/LayerNorm_1/max" stack_frame_id=105}
  %broadcast_in_dim.286 = f32[8,256,1]{2,1,0} reshape(%max.69), metadata={op_name="jit(predict_step)/DiT/block10/LayerNorm_1/broadcast_in_dim" stack_frame_id=106}
  %add.1047 = f32[8,256,1]{2,1,0} add(%broadcast_in_dim.286, %broadcast.27), metadata={op_name="jit(predict_step)/DiT/block10/LayerNorm_1/add" stack_frame_id=107}
  %rsqrt.46 = f32[8,256,1]{2,1,0} rsqrt(%add.1047), metadata={op_name="jit(predict_step)/DiT/block10/LayerNorm_1/rsqrt" stack_frame_id=108}
  %mul.656 = f32[8,256,1]{2,1,0} broadcast(%rsqrt.46), dimensions={0,1,2}, metadata={op_name="jit(predict_step)/DiT/block10/LayerNorm_1/mul" stack_frame_id=109}
  %mul.657 = f32[8,256]{1,0} reshape(%mul.656), metadata={op_name="jit(predict_step)/DiT/block10/LayerNorm_1/mul" stack_frame_id=109}
  %mul.658 = f32[8,256,768]{2,1,0} broadcast(%mul.657), dimensions={0,1}, metadata={op_name="jit(predict_step)/DiT/block10/LayerNorm_1/mul" stack_frame_id=109}
  %mul.659 = f32[8,256,768]{2,1,0} multiply(%sub.326, %mul.658), metadata={op_name="jit(predict_step)/DiT/block10/LayerNorm_1/mul" stack_frame_id=109}
  %split.137 = f32[8,768]{1,0} slice(%add.1023), slice={[0:8], [2304:3072]}, metadata={op_name="jit(predict_step)/DiT/block10/split" stack_frame_id=56}
  %broadcast_in_dim.287 = f32[8,1,768]{2,1,0} reshape(%split.137), metadata={op_name="jit(predict_step)/DiT/block10/broadcast_in_dim" stack_frame_id=111}
  %add.1048 = f32[8,1,768]{2,1,0} add(%broadcast_in_dim.287, %broadcast.26), metadata={op_name="jit(predict_step)/DiT/block10/add" stack_frame_id=112}
  %mul.660 = f32[8,1,768]{2,1,0} broadcast(%add.1048), dimensions={0,1,2}, metadata={op_name="jit(predict_step)/DiT/block10/mul" stack_frame_id=113}
  %mul.661 = f32[8,768]{1,0} reshape(%mul.660), metadata={op_name="jit(predict_step)/DiT/block10/mul" stack_frame_id=113}
  %mul.662 = f32[8,256,768]{2,1,0} broadcast(%mul.661), dimensions={0,2}, metadata={op_name="jit(predict_step)/DiT/block10/mul" stack_frame_id=113}
  %mul.663 = f32[8,256,768]{2,1,0} multiply(%mul.659, %mul.662), metadata={op_name="jit(predict_step)/DiT/block10/mul" stack_frame_id=113}
  %split.138 = f32[8,768]{1,0} slice(%add.1023), slice={[0:8], [3072:3840]}, metadata={op_name="jit(predict_step)/DiT/block10/split" stack_frame_id=56}
  %broadcast_in_dim.288 = f32[8,1,768]{2,1,0} reshape(%split.138), metadata={op_name="jit(predict_step)/DiT/block10/broadcast_in_dim" stack_frame_id=114}
  %add.1049 = f32[8,1,768]{2,1,0} broadcast(%broadcast_in_dim.288), dimensions={0,1,2}, metadata={op_name="jit(predict_step)/DiT/block10/add" stack_frame_id=113}
  %add.1050 = f32[8,768]{1,0} reshape(%add.1049), metadata={op_name="jit(predict_step)/DiT/block10/add" stack_frame_id=113}
  %add.1051 = f32[8,256,768]{2,1,0} broadcast(%add.1050), dimensions={0,2}, metadata={op_name="jit(predict_step)/DiT/block10/add" stack_frame_id=113}
  %add.1052 = f32[8,256,768]{2,1,0} add(%mul.663, %add.1051), metadata={op_name="jit(predict_step)/DiT/block10/add" stack_frame_id=113}
  %params__block10____Dense_1____kernel__.1 = f32[768,3072]{1,0} parameter(40), metadata={op_name="params[\'block10\'][\'Dense_1\'][\'kernel\']"}
  %dot_general.211 = f32[8,256,3072]{2,1,0} dot(%add.1052, %params__block10____Dense_1____kernel__.1), lhs_contracting_dims={2}, rhs_contracting_dims={0}, metadata={op_name="jit(predict_step)/DiT/block10/Dense_1/dot_general" stack_frame_id=116}
  %params__block10____Dense_1____bias__.1 = f32[3072]{0} parameter(39), metadata={op_name="params[\'block10\'][\'Dense_1\'][\'bias\']"}
  %reshape.171 = f32[1,1,3072]{2,1,0} reshape(%params__block10____Dense_1____bias__.1), metadata={op_name="jit(predict_step)/DiT/block10/Dense_1/reshape" stack_frame_id=117}
  %add.1053 = f32[1,1,3072]{2,1,0} broadcast(%reshape.171), dimensions={0,1,2}, metadata={op_name="jit(predict_step)/DiT/block10/Dense_1/add" stack_frame_id=118}
  %add.1054 = f32[3072]{0} reshape(%add.1053), metadata={op_name="jit(predict_step)/DiT/block10/Dense_1/add" stack_frame_id=118}
  %add.1055 = f32[8,256,3072]{2,1,0} broadcast(%add.1054), dimensions={2}, metadata={op_name="jit(predict_step)/DiT/block10/Dense_1/add" stack_frame_id=118}
  %add.1056 = f32[8,256,3072]{2,1,0} add(%dot_general.211, %add.1055), metadata={op_name="jit(predict_step)/DiT/block10/Dense_1/add" stack_frame_id=118}
  %integer_pow.44 = f32[8,256,3072]{2,1,0} multiply(%add.1056, %add.1056), metadata={op_name="jit(predict_step)/DiT/block10/integer_pow" stack_frame_id=119}
  %integer_pow.45 = f32[8,256,3072]{2,1,0} multiply(%integer_pow.44, %add.1056), metadata={op_name="jit(predict_step)/DiT/block10/integer_pow" stack_frame_id=119}
  %mul.664 = f32[8,256,3072]{2,1,0} multiply(%integer_pow.45, %broadcast.23), metadata={op_name="jit(predict_step)/DiT/block10/mul" stack_frame_id=119}
  %add.1057 = f32[8,256,3072]{2,1,0} add(%add.1056, %mul.664), metadata={op_name="jit(predict_step)/DiT/block10/add" stack_frame_id=119}
  %mul.665 = f32[8,256,3072]{2,1,0} multiply(%add.1057, %broadcast.22), metadata={op_name="jit(predict_step)/DiT/block10/mul" stack_frame_id=119}
  %tanh.22 = f32[8,256,3072]{2,1,0} tanh(%mul.665), metadata={op_name="jit(predict_step)/DiT/block10/tanh" stack_frame_id=119}
  %add.1058 = f32[8,256,3072]{2,1,0} add(%tanh.22, %broadcast.21), metadata={op_name="jit(predict_step)/DiT/block10/add" stack_frame_id=119}
  %mul.666 = f32[8,256,3072]{2,1,0} multiply(%add.1058, %broadcast.20), metadata={op_name="jit(predict_step)/DiT/block10/mul" stack_frame_id=119}
  %mul.667 = f32[8,256,3072]{2,1,0} multiply(%add.1056, %mul.666), metadata={op_name="jit(predict_step)/DiT/block10/mul" stack_frame_id=119}
  %params__block10____Dense_2____kernel__.1 = f32[3072,768]{1,0} parameter(42), metadata={op_name="params[\'block10\'][\'Dense_2\'][\'kernel\']"}
  %dot_general.212 = f32[8,256,768]{2,1,0} dot(%mul.667, %params__block10____Dense_2____kernel__.1), lhs_contracting_dims={2}, rhs_contracting_dims={0}, metadata={op_name="jit(predict_step)/DiT/block10/Dense_2/dot_general" stack_frame_id=121}
  %params__block10____Dense_2____bias__.1 = f32[768]{0} parameter(41), metadata={op_name="params[\'block10\'][\'Dense_2\'][\'bias\']"}
  %reshape.172 = f32[1,1,768]{2,1,0} reshape(%params__block10____Dense_2____bias__.1), metadata={op_name="jit(predict_step)/DiT/block10/Dense_2/reshape" stack_frame_id=122}
  %add.1059 = f32[1,1,768]{2,1,0} broadcast(%reshape.172), dimensions={0,1,2}, metadata={op_name="jit(predict_step)/DiT/block10/Dense_2/add" stack_frame_id=123}
  %add.1060 = f32[768]{0} reshape(%add.1059), metadata={op_name="jit(predict_step)/DiT/block10/Dense_2/add" stack_frame_id=123}
  %add.1061 = f32[8,256,768]{2,1,0} broadcast(%add.1060), dimensions={2}, metadata={op_name="jit(predict_step)/DiT/block10/Dense_2/add" stack_frame_id=123}
  %add.1062 = f32[8,256,768]{2,1,0} add(%dot_general.212, %add.1061), metadata={op_name="jit(predict_step)/DiT/block10/Dense_2/add" stack_frame_id=123}
  %mul.671 = f32[8,256,768]{2,1,0} multiply(%mul.670, %add.1062), metadata={op_name="jit(predict_step)/DiT/block10/mul" stack_frame_id=96}
  %add.1063 = f32[8,256,768]{2,1,0} add(%add.1046, %mul.671), metadata={op_name="jit(predict_step)/DiT/block10/add" stack_frame_id=124}
  %jit_silu_.26 = f32[8,768]{1,0} call(%add.579), to_apply=%silu.1, metadata={op_name="jit(predict_step)/DiT/block11/jit(silu)" stack_frame_id=51}
  %params__block11____Dense_0____kernel__.1 = f32[768,4608]{1,0} parameter(52), metadata={op_name="params[\'block11\'][\'Dense_0\'][\'kernel\']"}
  %dot_general.213 = f32[8,4608]{1,0} dot(%jit_silu_.26, %params__block11____Dense_0____kernel__.1), lhs_contracting_dims={1}, rhs_contracting_dims={0}, metadata={op_name="jit(predict_step)/DiT/block11/Dense_0/dot_general" stack_frame_id=53}
  %params__block11____Dense_0____bias__.1 = f32[4608]{0} parameter(51), metadata={op_name="params[\'block11\'][\'Dense_0\'][\'bias\']"}
  %reshape.173 = f32[1,4608]{1,0} reshape(%params__block11____Dense_0____bias__.1), metadata={op_name="jit(predict_step)/DiT/block11/Dense_0/reshape" stack_frame_id=54}
  %add.1064 = f32[1,4608]{1,0} broadcast(%reshape.173), dimensions={0,1}, metadata={op_name="jit(predict_step)/DiT/block11/Dense_0/add" stack_frame_id=55}
  %add.1065 = f32[4608]{0} reshape(%add.1064), metadata={op_name="jit(predict_step)/DiT/block11/Dense_0/add" stack_frame_id=55}
  %add.1066 = f32[8,4608]{1,0} broadcast(%add.1065), dimensions={1}, metadata={op_name="jit(predict_step)/DiT/block11/Dense_0/add" stack_frame_id=55}
  %add.1067 = f32[8,4608]{1,0} add(%dot_general.213, %add.1066), metadata={op_name="jit(predict_step)/DiT/block11/Dense_0/add" stack_frame_id=55}
  %split.142 = f32[8,768]{1,0} slice(%add.1067), slice={[0:8], [1536:2304]}, metadata={op_name="jit(predict_step)/DiT/block11/split" stack_frame_id=56}
  %broadcast_in_dim.296 = f32[8,1,768]{2,1,0} reshape(%split.142), metadata={op_name="jit(predict_step)/DiT/block11/broadcast_in_dim" stack_frame_id=57}
  %mul.680 = f32[8,1,768]{2,1,0} broadcast(%broadcast_in_dim.296), dimensions={0,1,2}, metadata={op_name="jit(predict_step)/DiT/block11/mul" stack_frame_id=57}
  %mul.681 = f32[8,768]{1,0} reshape(%mul.680), metadata={op_name="jit(predict_step)/DiT/block11/mul" stack_frame_id=57}
  %mul.682 = f32[8,256,768]{2,1,0} broadcast(%mul.681), dimensions={0,2}, metadata={op_name="jit(predict_step)/DiT/block11/mul" stack_frame_id=57}
  %reduce_sum.489 = f32[8,256]{1,0} reduce(%add.1063, %constant.41), dimensions={2}, to_apply=%region_67.71, metadata={op_name="jit(predict_step)/DiT/block11/LayerNorm_0/reduce_sum" stack_frame_id=8}
  %div.215 = f32[8,256]{1,0} divide(%reduce_sum.489, %broadcast.29), metadata={op_name="jit(predict_step)/DiT/block11/LayerNorm_0/div" stack_frame_id=8}
  %broadcast_in_dim.290 = f32[8,256,1]{2,1,0} reshape(%div.215), metadata={op_name="jit(predict_step)/DiT/block11/LayerNorm_0/broadcast_in_dim" stack_frame_id=59}
  %sub.328 = f32[8,256,1]{2,1,0} broadcast(%broadcast_in_dim.290), dimensions={0,1,2}, metadata={op_name="jit(predict_step)/DiT/block11/LayerNorm_0/sub" stack_frame_id=60}
  %sub.329 = f32[8,256]{1,0} reshape(%sub.328), metadata={op_name="jit(predict_step)/DiT/block11/LayerNorm_0/sub" stack_frame_id=60}
  %sub.330 = f32[8,256,768]{2,1,0} broadcast(%sub.329), dimensions={0,1}, metadata={op_name="jit(predict_step)/DiT/block11/LayerNorm_0/sub" stack_frame_id=60}
  %sub.331 = f32[8,256,768]{2,1,0} subtract(%add.1063, %sub.330), metadata={op_name="jit(predict_step)/DiT/block11/LayerNorm_0/sub" stack_frame_id=60}
  %square.94 = f32[8,256,768]{2,1,0} multiply(%add.1063, %add.1063), metadata={op_name="jit(predict_step)/DiT/block11/LayerNorm_0/square" stack_frame_id=62}
  %reduce_sum.490 = f32[8,256]{1,0} reduce(%square.94, %constant.41), dimensions={2}, to_apply=%region_68.72, metadata={op_name="jit(predict_step)/DiT/block11/LayerNorm_0/reduce_sum" stack_frame_id=8}
  %div.216 = f32[8,256]{1,0} divide(%reduce_sum.490, %broadcast.29), metadata={op_name="jit(predict_step)/DiT/block11/LayerNorm_0/div" stack_frame_id=8}
  %square.95 = f32[8,256]{1,0} multiply(%div.215, %div.215), metadata={op_name="jit(predict_step)/DiT/block11/LayerNorm_0/square" stack_frame_id=64}
  %sub.327 = f32[8,256]{1,0} subtract(%div.216, %square.95), metadata={op_name="jit(predict_step)/DiT/block11/LayerNorm_0/sub" stack_frame_id=65}
  %max.70 = f32[8,256]{1,0} maximum(%sub.327, %broadcast.28), metadata={op_name="jit(predict_step)/DiT/block11/LayerNorm_0/max" stack_frame_id=66}
  %broadcast_in_dim.291 = f32[8,256,1]{2,1,0} reshape(%max.70), metadata={op_name="jit(predict_step)/DiT/block11/LayerNorm_0/broadcast_in_dim" stack_frame_id=67}
  %add.1068 = f32[8,256,1]{2,1,0} add(%broadcast_in_dim.291, %broadcast.27), metadata={op_name="jit(predict_step)/DiT/block11/LayerNorm_0/add" stack_frame_id=68}
  %rsqrt.47 = f32[8,256,1]{2,1,0} rsqrt(%add.1068), metadata={op_name="jit(predict_step)/DiT/block11/LayerNorm_0/rsqrt" stack_frame_id=69}
  %mul.672 = f32[8,256,1]{2,1,0} broadcast(%rsqrt.47), dimensions={0,1,2}, metadata={op_name="jit(predict_step)/DiT/block11/LayerNorm_0/mul" stack_frame_id=70}
  %mul.673 = f32[8,256]{1,0} reshape(%mul.672), metadata={op_name="jit(predict_step)/DiT/block11/LayerNorm_0/mul" stack_frame_id=70}
  %mul.674 = f32[8,256,768]{2,1,0} broadcast(%mul.673), dimensions={0,1}, metadata={op_name="jit(predict_step)/DiT/block11/LayerNorm_0/mul" stack_frame_id=70}
  %mul.675 = f32[8,256,768]{2,1,0} multiply(%sub.331, %mul.674), metadata={op_name="jit(predict_step)/DiT/block11/LayerNorm_0/mul" stack_frame_id=70}
  %split.140 = f32[8,768]{1,0} slice(%add.1067), slice={[0:8], [0:768]}, metadata={op_name="jit(predict_step)/DiT/block11/split" stack_frame_id=56}
  %broadcast_in_dim.292 = f32[8,1,768]{2,1,0} reshape(%split.140), metadata={op_name="jit(predict_step)/DiT/block11/broadcast_in_dim" stack_frame_id=72}
  %add.1069 = f32[8,1,768]{2,1,0} add(%broadcast_in_dim.292, %broadcast.26), metadata={op_name="jit(predict_step)/DiT/block11/add" stack_frame_id=73}
  %mul.676 = f32[8,1,768]{2,1,0} broadcast(%add.1069), dimensions={0,1,2}, metadata={op_name="jit(predict_step)/DiT/block11/mul" stack_frame_id=74}
  %mul.677 = f32[8,768]{1,0} reshape(%mul.676), metadata={op_name="jit(predict_step)/DiT/block11/mul" stack_frame_id=74}
  %mul.678 = f32[8,256,768]{2,1,0} broadcast(%mul.677), dimensions={0,2}, metadata={op_name="jit(predict_step)/DiT/block11/mul" stack_frame_id=74}
  %mul.679 = f32[8,256,768]{2,1,0} multiply(%mul.675, %mul.678), metadata={op_name="jit(predict_step)/DiT/block11/mul" stack_frame_id=74}
  %split.141 = f32[8,768]{1,0} slice(%add.1067), slice={[0:8], [768:1536]}, metadata={op_name="jit(predict_step)/DiT/block11/split" stack_frame_id=56}
  %broadcast_in_dim.293 = f32[8,1,768]{2,1,0} reshape(%split.141), metadata={op_name="jit(predict_step)/DiT/block11/broadcast_in_dim" stack_frame_id=75}
  %add.1070 = f32[8,1,768]{2,1,0} broadcast(%broadcast_in_dim.293), dimensions={0,1,2}, metadata={op_name="jit(predict_step)/DiT/block11/add" stack_frame_id=74}
  %add.1071 = f32[8,768]{1,0} reshape(%add.1070), metadata={op_name="jit(predict_step)/DiT/block11/add" stack_frame_id=74}
  %add.1072 = f32[8,256,768]{2,1,0} broadcast(%add.1071), dimensions={0,2}, metadata={op_name="jit(predict_step)/DiT/block11/add" stack_frame_id=74}
  %add.1073 = f32[8,256,768]{2,1,0} add(%mul.679, %add.1072), metadata={op_name="jit(predict_step)/DiT/block11/add" stack_frame_id=74}
  %params__block11____MultiHeadDotProductAttention_0____value____kernel__.1 = f32[768,12,64]{2,1,0} parameter(64), metadata={op_name="params[\'block11\'][\'MultiHeadDotProductAttention_0\'][\'value\'][\'kernel\']"}
  %dot_general.216 = f32[8,256,12,64]{3,2,1,0} dot(%add.1073, %params__block11____MultiHeadDotProductAttention_0____value____kernel__.1), lhs_contracting_dims={2}, rhs_contracting_dims={0}, metadata={op_name="jit(predict_step)/DiT/block11/MultiHeadDotProductAttention_0/value/dot_general" stack_frame_id=77}
  %params__block11____MultiHeadDotProductAttention_0____value____bias__.1 = f32[12,64]{1,0} parameter(63), metadata={op_name="params[\'block11\'][\'MultiHeadDotProductAttention_0\'][\'value\'][\'bias\']"}
  %reshape.176 = f32[1,1,12,64]{3,2,1,0} reshape(%params__block11____MultiHeadDotProductAttention_0____value____bias__.1), metadata={op_name="jit(predict_step)/DiT/block11/MultiHeadDotProductAttention_0/value/reshape" stack_frame_id=78}
  %add.1082 = f32[1,1,12,64]{3,2,1,0} broadcast(%reshape.176), dimensions={0,1,2,3}, metadata={op_name="jit(predict_step)/DiT/block11/MultiHeadDotProductAttention_0/value/add" stack_frame_id=79}
  %add.1083 = f32[12,64]{1,0} reshape(%add.1082), metadata={op_name="jit(predict_step)/DiT/block11/MultiHeadDotProductAttention_0/value/add" stack_frame_id=79}
  %add.1084 = f32[8,256,12,64]{3,2,1,0} broadcast(%add.1083), dimensions={2,3}, metadata={op_name="jit(predict_step)/DiT/block11/MultiHeadDotProductAttention_0/value/add" stack_frame_id=79}
  %add.1085 = f32[8,256,12,64]{3,2,1,0} add(%dot_general.216, %add.1084), metadata={op_name="jit(predict_step)/DiT/block11/MultiHeadDotProductAttention_0/value/add" stack_frame_id=79}
  %params__block11____MultiHeadDotProductAttention_0____query____kernel__.1 = f32[768,12,64]{2,1,0} parameter(62), metadata={op_name="params[\'block11\'][\'MultiHeadDotProductAttention_0\'][\'query\'][\'kernel\']"}
  %dot_general.214 = f32[8,256,12,64]{3,2,1,0} dot(%add.1073, %params__block11____MultiHeadDotProductAttention_0____query____kernel__.1), lhs_contracting_dims={2}, rhs_contracting_dims={0}, metadata={op_name="jit(predict_step)/DiT/block11/MultiHeadDotProductAttention_0/query/dot_general" stack_frame_id=81}
  %params__block11____MultiHeadDotProductAttention_0____query____bias__.1 = f32[12,64]{1,0} parameter(61), metadata={op_name="params[\'block11\'][\'MultiHeadDotProductAttention_0\'][\'query\'][\'bias\']"}
  %reshape.174 = f32[1,1,12,64]{3,2,1,0} reshape(%params__block11____MultiHeadDotProductAttention_0____query____bias__.1), metadata={op_name="jit(predict_step)/DiT/block11/MultiHeadDotProductAttention_0/query/reshape" stack_frame_id=82}
  %add.1074 = f32[1,1,12,64]{3,2,1,0} broadcast(%reshape.174), dimensions={0,1,2,3}, metadata={op_name="jit(predict_step)/DiT/block11/MultiHeadDotProductAttention_0/query/add" stack_frame_id=83}
  %add.1075 = f32[12,64]{1,0} reshape(%add.1074), metadata={op_name="jit(predict_step)/DiT/block11/MultiHeadDotProductAttention_0/query/add" stack_frame_id=83}
  %add.1076 = f32[8,256,12,64]{3,2,1,0} broadcast(%add.1075), dimensions={2,3}, metadata={op_name="jit(predict_step)/DiT/block11/MultiHeadDotProductAttention_0/query/add" stack_frame_id=83}
  %add.1077 = f32[8,256,12,64]{3,2,1,0} add(%dot_general.214, %add.1076), metadata={op_name="jit(predict_step)/DiT/block11/MultiHeadDotProductAttention_0/query/add" stack_frame_id=83}
  %div.217 = f32[8,256,12,64]{3,2,1,0} divide(%add.1077, %broadcast.25), metadata={op_name="jit(predict_step)/DiT/block11/MultiHeadDotProductAttention_0/div" stack_frame_id=84}
  %params__block11____MultiHeadDotProductAttention_0____key____kernel__.1 = f32[768,12,64]{2,1,0} parameter(58), metadata={op_name="params[\'block11\'][\'MultiHeadDotProductAttention_0\'][\'key\'][\'kernel\']"}
  %dot_general.215 = f32[8,256,12,64]{3,2,1,0} dot(%add.1073, %params__block11____MultiHeadDotProductAttention_0____key____kernel__.1), lhs_contracting_dims={2}, rhs_contracting_dims={0}, metadata={op_name="jit(predict_step)/DiT/block11/MultiHeadDotProductAttention_0/key/dot_general" stack_frame_id=86}
  %params__block11____MultiHeadDotProductAttention_0____key____bias__.1 = f32[12,64]{1,0} parameter(57), metadata={op_name="params[\'block11\'][\'MultiHeadDotProductAttention_0\'][\'key\'][\'bias\']"}
  %reshape.175 = f32[1,1,12,64]{3,2,1,0} reshape(%params__block11____MultiHeadDotProductAttention_0____key____bias__.1), metadata={op_name="jit(predict_step)/DiT/block11/MultiHeadDotProductAttention_0/key/reshape" stack_frame_id=87}
  %add.1078 = f32[1,1,12,64]{3,2,1,0} broadcast(%reshape.175), dimensions={0,1,2,3}, metadata={op_name="jit(predict_step)/DiT/block11/MultiHeadDotProductAttention_0/key/add" stack_frame_id=88}
  %add.1079 = f32[12,64]{1,0} reshape(%add.1078), metadata={op_name="jit(predict_step)/DiT/block11/MultiHeadDotProductAttention_0/key/add" stack_frame_id=88}
  %add.1080 = f32[8,256,12,64]{3,2,1,0} broadcast(%add.1079), dimensions={2,3}, metadata={op_name="jit(predict_step)/DiT/block11/MultiHeadDotProductAttention_0/key/add" stack_frame_id=88}
  %add.1081 = f32[8,256,12,64]{3,2,1,0} add(%dot_general.215, %add.1080), metadata={op_name="jit(predict_step)/DiT/block11/MultiHeadDotProductAttention_0/key/add" stack_frame_id=88}
  %dot_general.217 = f32[8,12,256,256]{3,2,1,0} dot(%div.217, %add.1081), lhs_batch_dims={0,2}, lhs_contracting_dims={3}, rhs_batch_dims={0,2}, rhs_contracting_dims={3}, metadata={op_name="jit(predict_step)/DiT/block11/MultiHeadDotProductAttention_0/...qhd,...khd->...hqk/dot_general" stack_frame_id=89}
  %reduce_max.95 = f32[8,12,256]{2,1,0} reduce(%dot_general.217, %constant.40), dimensions={3}, to_apply=%region_69.73, metadata={op_name="jit(predict_step)/DiT/block11/MultiHeadDotProductAttention_0/reduce_max" stack_frame_id=12}
  %max.71 = f32[8,12,256]{2,1,0} maximum(%reduce_max.95, %broadcast.24), metadata={op_name="jit(predict_step)/DiT/block11/MultiHeadDotProductAttention_0/max" stack_frame_id=12}
  %broadcast_in_dim.294 = f32[8,12,256,1]{3,2,1,0} reshape(%max.71), metadata={op_name="jit(predict_step)/DiT/block11/MultiHeadDotProductAttention_0/broadcast_in_dim" stack_frame_id=12}
  %sub.332 = f32[8,12,256,1]{3,2,1,0} broadcast(%broadcast_in_dim.294), dimensions={0,1,2,3}, metadata={op_name="jit(predict_step)/DiT/block11/MultiHeadDotProductAttention_0/sub" stack_frame_id=12}
  %sub.333 = f32[8,12,256]{2,1,0} reshape(%sub.332), metadata={op_name="jit(predict_step)/DiT/block11/MultiHeadDotProductAttention_0/sub" stack_frame_id=12}
  %sub.334 = f32[8,12,256,256]{3,2,1,0} broadcast(%sub.333), dimensions={0,1,2}, metadata={op_name="jit(predict_step)/DiT/block11/MultiHeadDotProductAttention_0/sub" stack_frame_id=12}
  %sub.335 = f32[8,12,256,256]{3,2,1,0} subtract(%dot_general.217, %sub.334), metadata={op_name="jit(predict_step)/DiT/block11/MultiHeadDotProductAttention_0/sub" stack_frame_id=12}
  %exp.27 = f32[8,12,256,256]{3,2,1,0} exponential(%sub.335), metadata={op_name="jit(predict_step)/DiT/block11/MultiHeadDotProductAttention_0/exp" stack_frame_id=12}
  %reduce_sum.491 = f32[8,12,256]{2,1,0} reduce(%exp.27, %constant.41), dimensions={3}, to_apply=%region_70.74, metadata={op_name="jit(predict_step)/DiT/block11/MultiHeadDotProductAttention_0/reduce_sum" stack_frame_id=12}
  %broadcast_in_dim.295 = f32[8,12,256,1]{3,2,1,0} reshape(%reduce_sum.491), metadata={op_name="jit(predict_step)/DiT/block11/MultiHeadDotProductAttention_0/broadcast_in_dim" stack_frame_id=12}
  %div.218 = f32[8,12,256,1]{3,2,1,0} broadcast(%broadcast_in_dim.295), dimensions={0,1,2,3}, metadata={op_name="jit(predict_step)/DiT/block11/MultiHeadDotProductAttention_0/div" stack_frame_id=12}
  %div.219 = f32[8,12,256]{2,1,0} reshape(%div.218), metadata={op_name="jit(predict_step)/DiT/block11/MultiHeadDotProductAttention_0/div" stack_frame_id=12}
  %div.220 = f32[8,12,256,256]{3,2,1,0} broadcast(%div.219), dimensions={0,1,2}, metadata={op_name="jit(predict_step)/DiT/block11/MultiHeadDotProductAttention_0/div" stack_frame_id=12}
  %div.221 = f32[8,12,256,256]{3,2,1,0} divide(%exp.27, %div.220), metadata={op_name="jit(predict_step)/DiT/block11/MultiHeadDotProductAttention_0/div" stack_frame_id=12}
  %dot_general.218 = f32[8,12,64,256]{3,2,1,0} dot(%add.1085, %div.221), lhs_batch_dims={0,2}, lhs_contracting_dims={1}, rhs_batch_dims={0,1}, rhs_contracting_dims={3}, metadata={op_name="jit(predict_step)/DiT/block11/MultiHeadDotProductAttention_0/...hqk,...khd->...qhd/dot_general" stack_frame_id=90}
  %transpose.26 = f32[8,256,12,64]{1,3,2,0} transpose(%dot_general.218), dimensions={0,3,1,2}, metadata={op_name="jit(predict_step)/DiT/block11/MultiHeadDotProductAttention_0/...hqk,...khd->...qhd/transpose" stack_frame_id=90}
  %params__block11____MultiHeadDotProductAttention_0____out____kernel__.1 = f32[12,64,768]{2,1,0} parameter(60), metadata={op_name="params[\'block11\'][\'MultiHeadDotProductAttention_0\'][\'out\'][\'kernel\']"}
  %dot_general.219 = f32[8,256,768]{2,1,0} dot(%transpose.26, %params__block11____MultiHeadDotProductAttention_0____out____kernel__.1), lhs_contracting_dims={2,3}, rhs_contracting_dims={0,1}, metadata={op_name="jit(predict_step)/DiT/block11/MultiHeadDotProductAttention_0/out/dot_general" stack_frame_id=92}
  %params__block11____MultiHeadDotProductAttention_0____out____bias__.1 = f32[768]{0} parameter(59), metadata={op_name="params[\'block11\'][\'MultiHeadDotProductAttention_0\'][\'out\'][\'bias\']"}
  %reshape.177 = f32[1,1,768]{2,1,0} reshape(%params__block11____MultiHeadDotProductAttention_0____out____bias__.1), metadata={op_name="jit(predict_step)/DiT/block11/MultiHeadDotProductAttention_0/out/reshape" stack_frame_id=93}
  %add.1086 = f32[1,1,768]{2,1,0} broadcast(%reshape.177), dimensions={0,1,2}, metadata={op_name="jit(predict_step)/DiT/block11/MultiHeadDotProductAttention_0/out/add" stack_frame_id=94}
  %add.1087 = f32[768]{0} reshape(%add.1086), metadata={op_name="jit(predict_step)/DiT/block11/MultiHeadDotProductAttention_0/out/add" stack_frame_id=94}
  %add.1088 = f32[8,256,768]{2,1,0} broadcast(%add.1087), dimensions={2}, metadata={op_name="jit(predict_step)/DiT/block11/MultiHeadDotProductAttention_0/out/add" stack_frame_id=94}
  %add.1089 = f32[8,256,768]{2,1,0} add(%dot_general.219, %add.1088), metadata={op_name="jit(predict_step)/DiT/block11/MultiHeadDotProductAttention_0/out/add" stack_frame_id=94}
  %mul.683 = f32[8,256,768]{2,1,0} multiply(%mul.682, %add.1089), metadata={op_name="jit(predict_step)/DiT/block11/mul" stack_frame_id=57}
  %add.1090 = f32[8,256,768]{2,1,0} add(%add.1063, %mul.683), metadata={op_name="jit(predict_step)/DiT/block11/add" stack_frame_id=95}
  %split.145 = f32[8,768]{1,0} slice(%add.1067), slice={[0:8], [3840:4608]}, metadata={op_name="jit(predict_step)/DiT/block11/split" stack_frame_id=56}
  %broadcast_in_dim.301 = f32[8,1,768]{2,1,0} reshape(%split.145), metadata={op_name="jit(predict_step)/DiT/block11/broadcast_in_dim" stack_frame_id=96}
  %mul.696 = f32[8,1,768]{2,1,0} broadcast(%broadcast_in_dim.301), dimensions={0,1,2}, metadata={op_name="jit(predict_step)/DiT/block11/mul" stack_frame_id=96}
  %mul.697 = f32[8,768]{1,0} reshape(%mul.696), metadata={op_name="jit(predict_step)/DiT/block11/mul" stack_frame_id=96}
  %mul.698 = f32[8,256,768]{2,1,0} broadcast(%mul.697), dimensions={0,2}, metadata={op_name="jit(predict_step)/DiT/block11/mul" stack_frame_id=96}
  %reduce_sum.492 = f32[8,256]{1,0} reduce(%add.1090, %constant.41), dimensions={2}, to_apply=%region_71.75, metadata={op_name="jit(predict_step)/DiT/block11/LayerNorm_1/reduce_sum" stack_frame_id=17}
  %div.222 = f32[8,256]{1,0} divide(%reduce_sum.492, %broadcast.29), metadata={op_name="jit(predict_step)/DiT/block11/LayerNorm_1/div" stack_frame_id=17}
  %broadcast_in_dim.297 = f32[8,256,1]{2,1,0} reshape(%div.222), metadata={op_name="jit(predict_step)/DiT/block11/LayerNorm_1/broadcast_in_dim" stack_frame_id=98}
  %sub.337 = f32[8,256,1]{2,1,0} broadcast(%broadcast_in_dim.297), dimensions={0,1,2}, metadata={op_name="jit(predict_step)/DiT/block11/LayerNorm_1/sub" stack_frame_id=99}
  %sub.338 = f32[8,256]{1,0} reshape(%sub.337), metadata={op_name="jit(predict_step)/DiT/block11/LayerNorm_1/sub" stack_frame_id=99}
  %sub.339 = f32[8,256,768]{2,1,0} broadcast(%sub.338), dimensions={0,1}, metadata={op_name="jit(predict_step)/DiT/block11/LayerNorm_1/sub" stack_frame_id=99}
  %sub.340 = f32[8,256,768]{2,1,0} subtract(%add.1090, %sub.339), metadata={op_name="jit(predict_step)/DiT/block11/LayerNorm_1/sub" stack_frame_id=99}
  %square.96 = f32[8,256,768]{2,1,0} multiply(%add.1090, %add.1090), metadata={op_name="jit(predict_step)/DiT/block11/LayerNorm_1/square" stack_frame_id=101}
  %reduce_sum.493 = f32[8,256]{1,0} reduce(%square.96, %constant.41), dimensions={2}, to_apply=%region_72.76, metadata={op_name="jit(predict_step)/DiT/block11/LayerNorm_1/reduce_sum" stack_frame_id=17}
  %div.223 = f32[8,256]{1,0} divide(%reduce_sum.493, %broadcast.29), metadata={op_name="jit(predict_step)/DiT/block11/LayerNorm_1/div" stack_frame_id=17}
  %square.97 = f32[8,256]{1,0} multiply(%div.222, %div.222), metadata={op_name="jit(predict_step)/DiT/block11/LayerNorm_1/square" stack_frame_id=103}
  %sub.336 = f32[8,256]{1,0} subtract(%div.223, %square.97), metadata={op_name="jit(predict_step)/DiT/block11/LayerNorm_1/sub" stack_frame_id=104}
  %max.72 = f32[8,256]{1,0} maximum(%sub.336, %broadcast.28), metadata={op_name="jit(predict_step)/DiT/block11/LayerNorm_1/max" stack_frame_id=105}
  %broadcast_in_dim.298 = f32[8,256,1]{2,1,0} reshape(%max.72), metadata={op_name="jit(predict_step)/DiT/block11/LayerNorm_1/broadcast_in_dim" stack_frame_id=106}
  %add.1091 = f32[8,256,1]{2,1,0} add(%broadcast_in_dim.298, %broadcast.27), metadata={op_name="jit(predict_step)/DiT/block11/LayerNorm_1/add" stack_frame_id=107}
  %rsqrt.48 = f32[8,256,1]{2,1,0} rsqrt(%add.1091), metadata={op_name="jit(predict_step)/DiT/block11/LayerNorm_1/rsqrt" stack_frame_id=108}
  %mul.684 = f32[8,256,1]{2,1,0} broadcast(%rsqrt.48), dimensions={0,1,2}, metadata={op_name="jit(predict_step)/DiT/block11/LayerNorm_1/mul" stack_frame_id=109}
  %mul.685 = f32[8,256]{1,0} reshape(%mul.684), metadata={op_name="jit(predict_step)/DiT/block11/LayerNorm_1/mul" stack_frame_id=109}
  %mul.686 = f32[8,256,768]{2,1,0} broadcast(%mul.685), dimensions={0,1}, metadata={op_name="jit(predict_step)/DiT/block11/LayerNorm_1/mul" stack_frame_id=109}
  %mul.687 = f32[8,256,768]{2,1,0} multiply(%sub.340, %mul.686), metadata={op_name="jit(predict_step)/DiT/block11/LayerNorm_1/mul" stack_frame_id=109}
  %split.143 = f32[8,768]{1,0} slice(%add.1067), slice={[0:8], [2304:3072]}, metadata={op_name="jit(predict_step)/DiT/block11/split" stack_frame_id=56}
  %broadcast_in_dim.299 = f32[8,1,768]{2,1,0} reshape(%split.143), metadata={op_name="jit(predict_step)/DiT/block11/broadcast_in_dim" stack_frame_id=111}
  %add.1092 = f32[8,1,768]{2,1,0} add(%broadcast_in_dim.299, %broadcast.26), metadata={op_name="jit(predict_step)/DiT/block11/add" stack_frame_id=112}
  %mul.688 = f32[8,1,768]{2,1,0} broadcast(%add.1092), dimensions={0,1,2}, metadata={op_name="jit(predict_step)/DiT/block11/mul" stack_frame_id=113}
  %mul.689 = f32[8,768]{1,0} reshape(%mul.688), metadata={op_name="jit(predict_step)/DiT/block11/mul" stack_frame_id=113}
  %mul.690 = f32[8,256,768]{2,1,0} broadcast(%mul.689), dimensions={0,2}, metadata={op_name="jit(predict_step)/DiT/block11/mul" stack_frame_id=113}
  %mul.691 = f32[8,256,768]{2,1,0} multiply(%mul.687, %mul.690), metadata={op_name="jit(predict_step)/DiT/block11/mul" stack_frame_id=113}
  %split.144 = f32[8,768]{1,0} slice(%add.1067), slice={[0:8], [3072:3840]}, metadata={op_name="jit(predict_step)/DiT/block11/split" stack_frame_id=56}
  %broadcast_in_dim.300 = f32[8,1,768]{2,1,0} reshape(%split.144), metadata={op_name="jit(predict_step)/DiT/block11/broadcast_in_dim" stack_frame_id=114}
  %add.1093 = f32[8,1,768]{2,1,0} broadcast(%broadcast_in_dim.300), dimensions={0,1,2}, metadata={op_name="jit(predict_step)/DiT/block11/add" stack_frame_id=113}
  %add.1094 = f32[8,768]{1,0} reshape(%add.1093), metadata={op_name="jit(predict_step)/DiT/block11/add" stack_frame_id=113}
  %add.1095 = f32[8,256,768]{2,1,0} broadcast(%add.1094), dimensions={0,2}, metadata={op_name="jit(predict_step)/DiT/block11/add" stack_frame_id=113}
  %add.1096 = f32[8,256,768]{2,1,0} add(%mul.691, %add.1095), metadata={op_name="jit(predict_step)/DiT/block11/add" stack_frame_id=113}
  %params__block11____Dense_1____kernel__.1 = f32[768,3072]{1,0} parameter(54), metadata={op_name="params[\'block11\'][\'Dense_1\'][\'kernel\']"}
  %dot_general.220 = f32[8,256,3072]{2,1,0} dot(%add.1096, %params__block11____Dense_1____kernel__.1), lhs_contracting_dims={2}, rhs_contracting_dims={0}, metadata={op_name="jit(predict_step)/DiT/block11/Dense_1/dot_general" stack_frame_id=116}
  %params__block11____Dense_1____bias__.1 = f32[3072]{0} parameter(53), metadata={op_name="params[\'block11\'][\'Dense_1\'][\'bias\']"}
  %reshape.178 = f32[1,1,3072]{2,1,0} reshape(%params__block11____Dense_1____bias__.1), metadata={op_name="jit(predict_step)/DiT/block11/Dense_1/reshape" stack_frame_id=117}
  %add.1097 = f32[1,1,3072]{2,1,0} broadcast(%reshape.178), dimensions={0,1,2}, metadata={op_name="jit(predict_step)/DiT/block11/Dense_1/add" stack_frame_id=118}
  %add.1098 = f32[3072]{0} reshape(%add.1097), metadata={op_name="jit(predict_step)/DiT/block11/Dense_1/add" stack_frame_id=118}
  %add.1099 = f32[8,256,3072]{2,1,0} broadcast(%add.1098), dimensions={2}, metadata={op_name="jit(predict_step)/DiT/block11/Dense_1/add" stack_frame_id=118}
  %add.1100 = f32[8,256,3072]{2,1,0} add(%dot_general.220, %add.1099), metadata={op_name="jit(predict_step)/DiT/block11/Dense_1/add" stack_frame_id=118}
  %integer_pow.46 = f32[8,256,3072]{2,1,0} multiply(%add.1100, %add.1100), metadata={op_name="jit(predict_step)/DiT/block11/integer_pow" stack_frame_id=119}
  %integer_pow.47 = f32[8,256,3072]{2,1,0} multiply(%integer_pow.46, %add.1100), metadata={op_name="jit(predict_step)/DiT/block11/integer_pow" stack_frame_id=119}
  %mul.692 = f32[8,256,3072]{2,1,0} multiply(%integer_pow.47, %broadcast.23), metadata={op_name="jit(predict_step)/DiT/block11/mul" stack_frame_id=119}
  %add.1101 = f32[8,256,3072]{2,1,0} add(%add.1100, %mul.692), metadata={op_name="jit(predict_step)/DiT/block11/add" stack_frame_id=119}
  %mul.693 = f32[8,256,3072]{2,1,0} multiply(%add.1101, %broadcast.22), metadata={op_name="jit(predict_step)/DiT/block11/mul" stack_frame_id=119}
  %tanh.23 = f32[8,256,3072]{2,1,0} tanh(%mul.693), metadata={op_name="jit(predict_step)/DiT/block11/tanh" stack_frame_id=119}
  %add.1102 = f32[8,256,3072]{2,1,0} add(%tanh.23, %broadcast.21), metadata={op_name="jit(predict_step)/DiT/block11/add" stack_frame_id=119}
  %mul.694 = f32[8,256,3072]{2,1,0} multiply(%add.1102, %broadcast.20), metadata={op_name="jit(predict_step)/DiT/block11/mul" stack_frame_id=119}
  %mul.695 = f32[8,256,3072]{2,1,0} multiply(%add.1100, %mul.694), metadata={op_name="jit(predict_step)/DiT/block11/mul" stack_frame_id=119}
  %params__block11____Dense_2____kernel__.1 = f32[3072,768]{1,0} parameter(56), metadata={op_name="params[\'block11\'][\'Dense_2\'][\'kernel\']"}
  %dot_general.221 = f32[8,256,768]{2,1,0} dot(%mul.695, %params__block11____Dense_2____kernel__.1), lhs_contracting_dims={2}, rhs_contracting_dims={0}, metadata={op_name="jit(predict_step)/DiT/block11/Dense_2/dot_general" stack_frame_id=121}
  %params__block11____Dense_2____bias__.1 = f32[768]{0} parameter(55), metadata={op_name="params[\'block11\'][\'Dense_2\'][\'bias\']"}
  %reshape.179 = f32[1,1,768]{2,1,0} reshape(%params__block11____Dense_2____bias__.1), metadata={op_name="jit(predict_step)/DiT/block11/Dense_2/reshape" stack_frame_id=122}
  %add.1103 = f32[1,1,768]{2,1,0} broadcast(%reshape.179), dimensions={0,1,2}, metadata={op_name="jit(predict_step)/DiT/block11/Dense_2/add" stack_frame_id=123}
  %add.1104 = f32[768]{0} reshape(%add.1103), metadata={op_name="jit(predict_step)/DiT/block11/Dense_2/add" stack_frame_id=123}
  %add.1105 = f32[8,256,768]{2,1,0} broadcast(%add.1104), dimensions={2}, metadata={op_name="jit(predict_step)/DiT/block11/Dense_2/add" stack_frame_id=123}
  %add.1106 = f32[8,256,768]{2,1,0} add(%dot_general.221, %add.1105), metadata={op_name="jit(predict_step)/DiT/block11/Dense_2/add" stack_frame_id=123}
  %mul.699 = f32[8,256,768]{2,1,0} multiply(%mul.698, %add.1106), metadata={op_name="jit(predict_step)/DiT/block11/mul" stack_frame_id=96}
  %add.1107 = f32[8,256,768]{2,1,0} add(%add.1090, %mul.699), metadata={op_name="jit(predict_step)/DiT/block11/add" stack_frame_id=124}
  %reduce_sum.494 = f32[8,256]{1,0} reduce(%add.1107, %constant.41), dimensions={2}, to_apply=%region_73.77, metadata={op_name="jit(predict_step)/DiT/LayerNorm_0/reduce_sum" stack_frame_id=22}
  %div.224 = f32[8,256]{1,0} divide(%reduce_sum.494, %broadcast.29), metadata={op_name="jit(predict_step)/DiT/LayerNorm_0/div" stack_frame_id=22}
  %broadcast_in_dim.302 = f32[8,256,1]{2,1,0} reshape(%div.224), metadata={op_name="jit(predict_step)/DiT/LayerNorm_0/broadcast_in_dim" stack_frame_id=126}
  %sub.342 = f32[8,256,1]{2,1,0} broadcast(%broadcast_in_dim.302), dimensions={0,1,2}, metadata={op_name="jit(predict_step)/DiT/LayerNorm_0/sub" stack_frame_id=127}
  %sub.343 = f32[8,256]{1,0} reshape(%sub.342), metadata={op_name="jit(predict_step)/DiT/LayerNorm_0/sub" stack_frame_id=127}
  %sub.344 = f32[8,256,768]{2,1,0} broadcast(%sub.343), dimensions={0,1}, metadata={op_name="jit(predict_step)/DiT/LayerNorm_0/sub" stack_frame_id=127}
  %sub.345 = f32[8,256,768]{2,1,0} subtract(%add.1107, %sub.344), metadata={op_name="jit(predict_step)/DiT/LayerNorm_0/sub" stack_frame_id=127}
  %square.98 = f32[8,256,768]{2,1,0} multiply(%add.1107, %add.1107), metadata={op_name="jit(predict_step)/DiT/LayerNorm_0/square" stack_frame_id=129}
  %reduce_sum.495 = f32[8,256]{1,0} reduce(%square.98, %constant.41), dimensions={2}, to_apply=%region_74.78, metadata={op_name="jit(predict_step)/DiT/LayerNorm_0/reduce_sum" stack_frame_id=22}
  %div.225 = f32[8,256]{1,0} divide(%reduce_sum.495, %broadcast.29), metadata={op_name="jit(predict_step)/DiT/LayerNorm_0/div" stack_frame_id=22}
  %square.99 = f32[8,256]{1,0} multiply(%div.224, %div.224), metadata={op_name="jit(predict_step)/DiT/LayerNorm_0/square" stack_frame_id=131}
  %sub.341 = f32[8,256]{1,0} subtract(%div.225, %square.99), metadata={op_name="jit(predict_step)/DiT/LayerNorm_0/sub" stack_frame_id=132}
  %max.73 = f32[8,256]{1,0} maximum(%sub.341, %broadcast.28), metadata={op_name="jit(predict_step)/DiT/LayerNorm_0/max" stack_frame_id=133}
  %broadcast_in_dim.303 = f32[8,256,1]{2,1,0} reshape(%max.73), metadata={op_name="jit(predict_step)/DiT/LayerNorm_0/broadcast_in_dim" stack_frame_id=134}
  %add.1112 = f32[8,256,1]{2,1,0} add(%broadcast_in_dim.303, %broadcast.27), metadata={op_name="jit(predict_step)/DiT/LayerNorm_0/add" stack_frame_id=135}
  %rsqrt.49 = f32[8,256,1]{2,1,0} rsqrt(%add.1112), metadata={op_name="jit(predict_step)/DiT/LayerNorm_0/rsqrt" stack_frame_id=136}
  %mul.700 = f32[8,256,1]{2,1,0} broadcast(%rsqrt.49), dimensions={0,1,2}, metadata={op_name="jit(predict_step)/DiT/LayerNorm_0/mul" stack_frame_id=137}
  %mul.701 = f32[8,256]{1,0} reshape(%mul.700), metadata={op_name="jit(predict_step)/DiT/LayerNorm_0/mul" stack_frame_id=137}
  %mul.702 = f32[8,256,768]{2,1,0} broadcast(%mul.701), dimensions={0,1}, metadata={op_name="jit(predict_step)/DiT/LayerNorm_0/mul" stack_frame_id=137}
  %mul.703 = f32[8,256,768]{2,1,0} multiply(%sub.345, %mul.702), metadata={op_name="jit(predict_step)/DiT/LayerNorm_0/mul" stack_frame_id=137}
  %jit_silu_.27 = f32[8,768]{1,0} call(%add.579), to_apply=%silu.1, metadata={op_name="jit(predict_step)/DiT/jit(silu)" stack_frame_id=138}
  %params__Dense_0____kernel__.1 = f32[768,1536]{1,0} parameter(1), metadata={op_name="params[\'Dense_0\'][\'kernel\']"}
  %dot_general.222 = f32[8,1536]{1,0} dot(%jit_silu_.27, %params__Dense_0____kernel__.1), lhs_contracting_dims={1}, rhs_contracting_dims={0}, metadata={op_name="jit(predict_step)/DiT/Dense_0/dot_general" stack_frame_id=140}
  %params__Dense_0____bias__.1 = f32[1536]{0} parameter(0), metadata={op_name="params[\'Dense_0\'][\'bias\']"}
  %reshape.180 = f32[1,1536]{1,0} reshape(%params__Dense_0____bias__.1), metadata={op_name="jit(predict_step)/DiT/Dense_0/reshape" stack_frame_id=141}
  %add.1108 = f32[1,1536]{1,0} broadcast(%reshape.180), dimensions={0,1}, metadata={op_name="jit(predict_step)/DiT/Dense_0/add" stack_frame_id=142}
  %add.1109 = f32[1536]{0} reshape(%add.1108), metadata={op_name="jit(predict_step)/DiT/Dense_0/add" stack_frame_id=142}
  %add.1110 = f32[8,1536]{1,0} broadcast(%add.1109), dimensions={1}, metadata={op_name="jit(predict_step)/DiT/Dense_0/add" stack_frame_id=142}
  %add.1111 = f32[8,1536]{1,0} add(%dot_general.222, %add.1110), metadata={op_name="jit(predict_step)/DiT/Dense_0/add" stack_frame_id=142}
  %split.147 = f32[8,768]{1,0} slice(%add.1111), slice={[0:8], [768:1536]}, metadata={op_name="jit(predict_step)/DiT/split" stack_frame_id=143}
  %broadcast_in_dim.304 = f32[8,1,768]{2,1,0} reshape(%split.147), metadata={op_name="jit(predict_step)/DiT/broadcast_in_dim" stack_frame_id=145}
  %add.1113 = f32[8,1,768]{2,1,0} add(%broadcast_in_dim.304, %broadcast.26), metadata={op_name="jit(predict_step)/DiT/add" stack_frame_id=146}
  %mul.704 = f32[8,1,768]{2,1,0} broadcast(%add.1113), dimensions={0,1,2}, metadata={op_name="jit(predict_step)/DiT/mul" stack_frame_id=147}
  %mul.705 = f32[8,768]{1,0} reshape(%mul.704), metadata={op_name="jit(predict_step)/DiT/mul" stack_frame_id=147}
  %mul.706 = f32[8,256,768]{2,1,0} broadcast(%mul.705), dimensions={0,2}, metadata={op_name="jit(predict_step)/DiT/mul" stack_frame_id=147}
  %mul.707 = f32[8,256,768]{2,1,0} multiply(%mul.703, %mul.706), metadata={op_name="jit(predict_step)/DiT/mul" stack_frame_id=147}
  %split.146 = f32[8,768]{1,0} slice(%add.1111), slice={[0:8], [0:768]}, metadata={op_name="jit(predict_step)/DiT/split" stack_frame_id=143}
  %broadcast_in_dim.305 = f32[8,1,768]{2,1,0} reshape(%split.146), metadata={op_name="jit(predict_step)/DiT/broadcast_in_dim" stack_frame_id=148}
  %add.1114 = f32[8,1,768]{2,1,0} broadcast(%broadcast_in_dim.305), dimensions={0,1,2}, metadata={op_name="jit(predict_step)/DiT/add" stack_frame_id=147}
  %add.1115 = f32[8,768]{1,0} reshape(%add.1114), metadata={op_name="jit(predict_step)/DiT/add" stack_frame_id=147}
  %add.1116 = f32[8,256,768]{2,1,0} broadcast(%add.1115), dimensions={0,2}, metadata={op_name="jit(predict_step)/DiT/add" stack_frame_id=147}
  %add.1117 = f32[8,256,768]{2,1,0} add(%mul.707, %add.1116), metadata={op_name="jit(predict_step)/DiT/add" stack_frame_id=147}
  %params__Dense_1____kernel__.1 = f32[768,16]{1,0} parameter(3), metadata={op_name="params[\'Dense_1\'][\'kernel\']"}
  %dot_general.223 = f32[8,256,16]{2,1,0} dot(%add.1117, %params__Dense_1____kernel__.1), lhs_contracting_dims={2}, rhs_contracting_dims={0}, metadata={op_name="jit(predict_step)/DiT/Dense_1/dot_general" stack_frame_id=150}
  %params__Dense_1____bias__.1 = f32[16]{0} parameter(2), metadata={op_name="params[\'Dense_1\'][\'bias\']"}
  %reshape.181 = f32[1,1,16]{2,1,0} reshape(%params__Dense_1____bias__.1), metadata={op_name="jit(predict_step)/DiT/Dense_1/reshape" stack_frame_id=151}
  %add.1118 = f32[1,1,16]{2,1,0} broadcast(%reshape.181), dimensions={0,1,2}, metadata={op_name="jit(predict_step)/DiT/Dense_1/add" stack_frame_id=152}
  %add.1119 = f32[16]{0} reshape(%add.1118), metadata={op_name="jit(predict_step)/DiT/Dense_1/add" stack_frame_id=152}
  %add.1120 = f32[8,256,16]{2,1,0} broadcast(%add.1119), dimensions={2}, metadata={op_name="jit(predict_step)/DiT/Dense_1/add" stack_frame_id=152}
  %add.1121 = f32[8,256,16]{2,1,0} add(%dot_general.223, %add.1120), metadata={op_name="jit(predict_step)/DiT/Dense_1/add" stack_frame_id=152}
  %reshape.182 = f32[8,16,16,2,2,4]{5,4,3,2,1,0} reshape(%add.1121), metadata={op_name="jit(predict_step)/DiT/reshape" stack_frame_id=153}
  %transpose.27 = f32[8,4,16,2,16,2]{1,5,3,4,2,0} transpose(%reshape.182), dimensions={0,5,1,3,2,4}, metadata={op_name="jit(predict_step)/DiT/bhwpqc->bchpwq/transpose" stack_frame_id=154}
  ROOT %reshape.183 = f32[8,4,32,32]{3,2,1,0} reshape(%transpose.27), metadata={op_name="jit(predict_step)/DiT/reshape" stack_frame_id=155}
}

