HloModule jit__generate_jit, input_output_alias={ {0}: (0, {}, may-alias), {1}: (1, {}, may-alias), {2}: (2, {}, may-alias), {3}: (3, {}, may-alias), {4}: (4, {}, may-alias), {5}: (5, {}, may-alias), {6}: (6, {}, may-alias), {7}: (7, {}, may-alias), {8}: (8, {}, may-alias), {9}: (9, {}, may-alias), {10}: (10, {}, may-alias), {11}: (11, {}, may-alias), {12}: (12, {}, may-alias), {13}: (13, {}, may-alias), {14}: (14, {}, may-alias), {15}: (15, {}, may-alias), {16}: (16, {}, may-alias), {18}: (17, {}, may-alias), {20}: (18, {}, may-alias) }, entry_computation_layout={(s32[1,1]{1,0}, s32[1,1,1984]{2,1,0}, s32[1,1,64]{2,1,0}, bf16[1,1984,1,1,512]{4,3,2,1,0}, s32[1,1]{1,0}, /*index=5*/bf16[1,1984,1,1,64]{4,3,2,1,0}, bf16[1,64,1,1,512]{4,3,2,1,0}, bf16[1,64,1,1,64]{4,3,2,1,0}, s32[26,1]{1,0}, s32[26,1,1984]{2,1,0}, /*index=10*/s32[26,1,64]{2,1,0}, bf16[26,1984,1,1,512]{4,3,2,1,0}, s32[26,1]{1,0}, bf16[26,1984,1,1,64]{4,3,2,1,0}, bf16[26,64,1,1,512]{4,3,2,1,0}, /*index=15*/bf16[26,64,1,1,64]{4,3,2,1,0}, s32[1,1]{1,0}, s32[1,1]{1,0}, s32[1,1]{1,0}, f32[2048]{0}, /*index=20*/f32[2048,1,10944]{2,1,0}, f32[2048,1,10944]{2,1,0}, f32[10944,1,2048]{2,1,0}, f32[2048,1]{1,0}, f32[2048,1]{1,0}, /*index=25*/f32[512,1]{1,0}, f32[16,1,128,2048]{3,2,1,0}, f32[2048,1,16,192]{3,2,1,0}, f32[2048,1,576]{2,1,0}, f32[512,1,16,256]{3,2,1,0}, /*index=30*/f32[2048,102400]{1,0}, f32[2048,26,64]{2,1,0}, f32[64,26,2048,1408]{3,2,1,0}, f32[64,26,2048,1408]{3,2,1,0}, f32[64,26,1408,2048]{3,2,1,0}, /*index=35*/f32[2048,26,2816]{2,1,0}, f32[2048,26,2816]{2,1,0}, f32[2816,26,2048]{2,1,0}, f32[2048,26]{1,0}, f32[2048,26]{1,0}, /*index=40*/f32[512,26]{1,0}, f32[16,26,128,2048]{3,2,1,0}, f32[2048,26,16,192]{3,2,1,0}, f32[2048,26,576]{2,1,0}, f32[512,26,16,256]{3,2,1,0}, /*index=45*/f32[102400,2048]{1,0})->(s32[1,1]{1,0}, s32[1,1,1984]{2,1,0}, s32[1,1,64]{2,1,0}, bf16[1,1984,1,1,512]{4,3,2,1,0}, s32[1,1]{1,0}, /*index=5*/bf16[1,1984,1,1,64]{4,3,2,1,0}, bf16[1,64,1,1,512]{4,3,2,1,0}, bf16[1,64,1,1,64]{4,3,2,1,0}, s32[26,1]{1,0}, s32[26,1,1984]{2,1,0}, /*index=10*/s32[26,1,64]{2,1,0}, bf16[26,1984,1,1,512]{4,3,2,1,0}, s32[26,1]{1,0}, bf16[26,1984,1,1,64]{4,3,2,1,0}, bf16[26,64,1,1,512]{4,3,2,1,0}, /*index=15*/bf16[26,64,1,1,64]{4,3,2,1,0}, s32[1,1]{1,0}, f32[1,1,102400]{2,1,0}, s32[1,1]{1,0}, f32[1,1]{1,0}, /*index=20*/s32[1,1]{1,0}, s32[1,3]{1,0}, f32[1,1]{1,0})}, allow_spmd_sharding_propagation_to_parameters={false,false,false,false,false,false,false,false,false,false,false,false,false,false,false,false,false,false,false,false,false,false,false,false,false,false,false,false,false,false,false,false,false,false,false,false,false,false,false,false,false,false,false,false,false,false}, allow_spmd_sharding_propagation_to_output={true,true,true,true,true,true,true,true,true,true,true,true,true,true,true,true,true,true,true,true,true,true,true}, frontend_attributes={xla.sdy.meshes={mesh = #sdy.mesh<["diloco"=1, "data"=1, "stage"=1, "fsdp"=1, "fsdp_transpose"=1, "context"=1, "context_autoregressive"=1, "tensor"=1, "tensor_transpose"=1, "tensor_sequence"=1, "expert"=1, "autoregressive"=1]>}}

FileNames
1 "/tf/jax-lab/targets/maxtext_release/maxtext/src/maxtext/inference/maxengine/maxengine.py"
2 "/tf/jax-lab/targets/maxtext_release/maxtext/src/maxtext/models/models.py"
3 "/tf/jax-lab/targets/maxtext_release/maxtext/src/maxtext/layers/decoders.py"
4 "/usr/local/lib/python3.12/dist-packages/flax/core/axes_scan.py"
5 "/tf/jax-lab/targets/maxtext_release/maxtext/src/maxtext/layers/nnx_wrappers.py"
6 "/tf/jax-lab/targets/maxtext_release/maxtext/src/maxtext/models/deepseek.py"
7 "/tf/jax-lab/targets/maxtext_release/maxtext/src/maxtext/layers/normalizations.py"
8 "/tf/jax-lab/targets/maxtext_release/maxtext/src/maxtext/layers/attention_mla.py"
9 "/tf/jax-lab/targets/maxtext_release/maxtext/src/maxtext/inference/kvcache.py"
10 "/tf/jax-lab/targets/maxtext_release/maxtext/src/maxtext/layers/attention_op.py"
11 "/tf/jax-lab/targets/maxtext_release/maxtext/src/maxtext/utils/sharding.py"
12 "/tf/jax-lab/targets/maxtext_release/maxtext/src/maxtext/layers/linears.py"
13 "/tf/jax-lab/targets/maxtext_release/maxtext/src/maxtext/layers/attentions.py"
14 "/tf/jax-lab/targets/maxtext_release/maxtext/src/maxtext/layers/embeddings.py"
15 "<frozen runpy>"
16 "/tf/jax-lab/targets/maxtext_release/maxtext/src/maxtext/inference/decode.py"
17 "/usr/local/lib/python3.12/dist-packages/absl/app.py"
18 "/tf/jax-lab/targets/maxtext_release/maxtext/src/maxtext/layers/moe.py"
19 "/tf/jax-lab/targets/maxtext_release/maxtext/src/maxtext/inference/inference_utils.py"

FunctionNames
1 "MaxEngine._prefill_jit"
2 "TransformerLinenPure.apply"
3 "TransformerLinenPure.__call__"
4 "Decoder.__call__"
5 "scan.<locals>.scan_fn"
6 "MaxEngine._generate_jit"
7 "scan.<locals>.scan_fn.<locals>.body_fn"
8 "ToLinen.__call__"
9 "DeepSeekDenseLayer.__call__"
10 "DeepSeekGenericLayer.self_attention_with_norm_op"
11 "DeepSeekGenericLayer.pre_attention_norm_op"
12 "_fix_for_qwix_quantization.<locals>.wrap.<locals>.wrapped"
13 "RMSNorm.__call__"
14 "DeepSeekGenericLayer.attention_op"
15 "MLA.__call__"
16 "MLA.mla_kv_projection"
17 "MLA.update_mla_kv_caches"
18 "MlaKVCache.__call__"
19 "KVCache.__call__"
20 "KVCache.kv_cache_autoregressive"
21 "AttentionOp.__call__"
22 "AttentionOp.apply_attention"
23 "AttentionOp.apply_attention_dot"
24 "AttentionOp.compute_local_attention"
25 "DeepSeekGenericLayer.post_attention_norm_op"
26 "DeepSeekGenericLayer.with_logical_constraint"
27 "maybe_shard_with_logical"
28 "maybe_shard_with_name"
29 "AttentionOp.generate_attention_mask"
30 "apply_mask_to_logits"
31 "MLA.mla_get_key_value"
32 "DenseGeneral.__call__"
33 "_compute_dot_general_nnx"
34 "KVCache.get_cached_values"
35 "KVCache.get_cached_values.<locals>.<lambda>"
36 "reverse_transpose"
37 "MLA.mla_query_projection"
38 "Attention.apply_rotary_embedding"
39 "YarnRotaryEmbedding.__call__"
40 "YarnRotaryEmbedding.freqs_cis"
41 "YarnRotaryEmbedding._linear_ramp_factor"
42 "AttentionOp.qk_product"
43 "KVCache.update_ar_key_value"
44 "AttentionOp.normalize_attention"
45 "AttentionOp.normalize_attention.<locals>.<genexpr>"
46 "AttentionOp.wv_product"
47 "Attention.out_projection"
48 "DeepSeekDenseLayer.mlp_op"
49 "MlpBlock.__call__"
50 "DeepSeekGenericLayer.dropout_op"
51 "_run_module_as_main"
52 "_run_code"
53 "<module>"
54 "run"
55 "_run_main"
56 "main"
57 "MaxEngine.generate"
58 "DeepSeekMoELayer.__call__"
59 "DeepSeekMoELayer.mlp_op"
60 "RoutedAndSharedMoE.__call__"
61 "RoutedMoE.__call__"
62 "GateLogit.__call__"
63 "RoutedMoE.dense_matmul"
64 "RoutedMoE._maybe_shard_with_logical"
65 "RoutedMoE.apply_ffn_activation"
66 "RoutedMoE.reshape_and_update_weights"
67 "RoutedMoE.get_topk"
68 "Decoder.apply_output_head"
69 "sampling"
70 "Decoder._apply_embedding"
71 "Embed.__call__"
72 "scan.<locals>.transpose_to_front"
73 "scan.<locals>.transpose_to_front.<locals>.trans"

FileLocations
1 {file_name_id=1 function_name_id=1 line=798 end_line=815 column=32 end_column=9}
2 {file_name_id=2 function_name_id=2 line=71 end_line=71 column=11 end_column=51}
3 {file_name_id=2 function_name_id=3 line=202 end_line=215 column=38 end_column=5}
4 {file_name_id=3 function_name_id=4 line=996 end_line=1004 column=19 end_column=33}
5 {file_name_id=4 function_name_id=5 line=200 end_line=203 column=14 end_column=7}
6 {file_name_id=1 function_name_id=6 line=1353 end_line=1361 column=31 end_column=9}
7 {file_name_id=4 function_name_id=7 line=157 end_line=157 column=29 end_column=53}
8 {file_name_id=5 function_name_id=8 line=549 end_line=549 column=10 end_column=44}
9 {file_name_id=6 function_name_id=9 line=365 end_line=372 column=41 end_column=5}
10 {file_name_id=6 function_name_id=10 line=291 end_line=291 column=12 end_column=46}
11 {file_name_id=6 function_name_id=11 line=200 end_line=200 column=25 end_column=62}
12 {file_name_id=5 function_name_id=12 line=383 end_line=383 column=15 end_column=39}
13 {file_name_id=7 function_name_id=13 line=72 end_line=72 column=12 end_column=59}
14 {file_name_id=6 function_name_id=10 line=292 end_line=299 column=22 end_column=7}
15 {file_name_id=6 function_name_id=14 line=217 end_line=227 column=26 end_column=5}
16 {file_name_id=8 function_name_id=15 line=1142 end_line=1144 column=32 end_column=5}
17 {file_name_id=8 function_name_id=16 line=1001 end_line=1001 column=20 end_column=47}
18 {file_name_id=8 function_name_id=16 line=1013 end_line=1015 column=24 end_column=9}
19 {file_name_id=8 function_name_id=17 line=967 end_line=974 column=38 end_column=5}
20 {file_name_id=9 function_name_id=18 line=1138 end_line=1138 column=30 end_column=101}
21 {file_name_id=9 function_name_id=19 line=959 end_line=959 column=13 end_column=75}
22 {file_name_id=9 function_name_id=20 line=907 end_line=907 column=35 end_column=80}
23 {file_name_id=8 function_name_id=15 line=1186 end_line=1196 column=10 end_column=5}
24 {file_name_id=10 function_name_id=21 line=2106 end_line=2123 column=86 end_column=5}
25 {file_name_id=10 function_name_id=22 line=972 end_line=986 column=13 end_column=7}
26 {file_name_id=10 function_name_id=23 line=1919 end_line=1919 column=11 end_column=109}
27 {file_name_id=10 function_name_id=24 line=1770 end_line=1770 column=16 end_column=55}
28 {file_name_id=10 function_name_id=24 line=1772 end_line=1772 column=16 end_column=68}
29 {file_name_id=10 function_name_id=21 line=2133 end_line=2146 column=71 end_column=5}
30 {file_name_id=6 function_name_id=10 line=302 end_line=302 column=20 end_column=68}
31 {file_name_id=6 function_name_id=25 line=204 end_line=204 column=26 end_column=64}
32 {file_name_id=7 function_name_id=13 line=90 end_line=90 column=12 end_column=42}
33 {file_name_id=6 function_name_id=9 line=358 end_line=358 column=8 end_column=44}
34 {file_name_id=6 function_name_id=26 line=185 end_line=193 column=11 end_column=5}
35 {file_name_id=11 function_name_id=27 line=147 end_line=155 column=9 end_column=3}
36 {file_name_id=11 function_name_id=28 line=113 end_line=113 column=11 end_column=67}
37 {file_name_id=10 function_name_id=23 line=1866 end_line=1874 column=16 end_column=5}
38 {file_name_id=10 function_name_id=29 line=698 end_line=698 column=13 end_column=94}
39 {file_name_id=10 function_name_id=29 line=787 end_line=787 column=11 end_column=58}
40 {file_name_id=10 function_name_id=23 line=1906 end_line=1906 column=21 end_column=66}
41 {file_name_id=10 function_name_id=30 line=121 end_line=121 column=20 end_column=52}
42 {file_name_id=8 function_name_id=17 line=978 end_line=978 column=19 end_column=78}
43 {file_name_id=8 function_name_id=31 line=892 end_line=892 column=13 end_column=70}
44 {file_name_id=12 function_name_id=32 line=231 end_line=231 column=15 end_column=46}
45 {file_name_id=12 function_name_id=32 line=238 end_line=247 column=13 end_column=5}
46 {file_name_id=12 function_name_id=33 line=102 end_line=104 column=9 end_column=3}
47 {file_name_id=8 function_name_id=31 line=895 end_line=895 column=22 end_column=73}
48 {file_name_id=8 function_name_id=31 line=897 end_line=897 column=15 end_column=73}
49 {file_name_id=9 function_name_id=20 line=915 end_line=915 column=8 end_column=101}
50 {file_name_id=9 function_name_id=34 line=848 end_line=848 column=35 end_column=110}
51 {file_name_id=9 function_name_id=35 line=848 end_line=848 column=58 end_column=96}
52 {file_name_id=9 function_name_id=36 line=42 end_line=42 column=9 end_column=81}
53 {file_name_id=8 function_name_id=31 line=896 end_line=896 column=15 end_column=122}
54 {file_name_id=8 function_name_id=31 line=898 end_line=898 column=15 end_column=73}
55 {file_name_id=8 function_name_id=31 line=900 end_line=900 column=10 end_column=56}
56 {file_name_id=8 function_name_id=31 line=902 end_line=902 column=10 end_column=63}
57 {file_name_id=7 function_name_id=13 line=71 end_line=71 column=8 end_column=35}
58 {file_name_id=7 function_name_id=13 line=72 end_line=72 column=21 end_column=34}
59 {file_name_id=7 function_name_id=13 line=73 end_line=73 column=34 end_column=54}
60 {file_name_id=7 function_name_id=13 line=73 end_line=73 column=24 end_column=55}
61 {file_name_id=7 function_name_id=13 line=73 end_line=73 column=20 end_column=55}
62 {file_name_id=7 function_name_id=13 line=73 end_line=73 column=8 end_column=68}
63 {file_name_id=7 function_name_id=13 line=92 end_line=92 column=11 end_column=84}
64 {file_name_id=6 function_name_id=11 line=201 end_line=201 column=11 end_column=59}
65 {file_name_id=8 function_name_id=15 line=1132 end_line=1132 column=17 end_column=80}
66 {file_name_id=8 function_name_id=15 line=1139 end_line=1139 column=24 end_column=89}
67 {file_name_id=8 function_name_id=37 line=861 end_line=861 column=10 end_column=59}
68 {file_name_id=8 function_name_id=37 line=872 end_line=872 column=19 end_column=65}
69 {file_name_id=8 function_name_id=37 line=873 end_line=873 column=13 end_column=71}
70 {file_name_id=8 function_name_id=37 line=874 end_line=874 column=11 end_column=79}
71 {file_name_id=13 function_name_id=38 line=935 end_line=935 column=13 end_column=60}
72 {file_name_id=14 function_name_id=39 line=971 end_line=971 column=24 end_column=60}
73 {file_name_id=14 function_name_id=39 line=972 end_line=972 column=32 end_column=55}
74 {file_name_id=14 function_name_id=39 line=977 end_line=977 column=21 end_column=50}
75 {file_name_id=14 function_name_id=39 line=972 end_line=972 column=57 end_column=80}
76 {file_name_id=14 function_name_id=39 line=977 end_line=977 column=34 end_column=50}
77 {file_name_id=14 function_name_id=39 line=962 end_line=962 column=12 end_column=26}
78 {file_name_id=14 function_name_id=40 line=883 end_line=883 column=8 end_column=67}
79 {file_name_id=14 function_name_id=40 line=885 end_line=885 column=12 end_column=31}
80 {file_name_id=14 function_name_id=40 line=868 end_line=868 column=45 end_column=87}
81 {file_name_id=14 function_name_id=40 line=868 end_line=868 column=39 end_column=87}
82 {file_name_id=14 function_name_id=40 line=868 end_line=868 column=19 end_column=110}
83 {file_name_id=14 function_name_id=40 line=868 end_line=868 column=12 end_column=111}
84 {file_name_id=14 function_name_id=40 line=880 end_line=880 column=12 end_column=36}
85 {file_name_id=14 function_name_id=40 line=878 end_line=878 column=17 end_column=62}
86 {file_name_id=14 function_name_id=41 line=932 end_line=932 column=19 end_column=53}
87 {file_name_id=14 function_name_id=41 line=932 end_line=932 column=18 end_column=86}
88 {file_name_id=14 function_name_id=41 line=933 end_line=933 column=11 end_column=38}
89 {file_name_id=14 function_name_id=40 line=878 end_line=878 column=13 end_column=62}
90 {file_name_id=14 function_name_id=40 line=880 end_line=880 column=40 end_column=50}
91 {file_name_id=14 function_name_id=40 line=880 end_line=880 column=54 end_column=68}
92 {file_name_id=14 function_name_id=40 line=888 end_line=888 column=19 end_column=29}
93 {file_name_id=14 function_name_id=40 line=888 end_line=888 column=11 end_column=30}
94 {file_name_id=14 function_name_id=39 line=963 end_line=963 column=12 end_column=39}
95 {file_name_id=14 function_name_id=39 line=984 end_line=984 column=12 end_column=88}
96 {file_name_id=14 function_name_id=39 line=985 end_line=985 column=14 end_column=49}
97 {file_name_id=14 function_name_id=39 line=990 end_line=990 column=30 end_column=47}
98 {file_name_id=14 function_name_id=39 line=990 end_line=990 column=49 end_column=66}
99 {file_name_id=14 function_name_id=39 line=990 end_line=990 column=13 end_column=77}
100 {file_name_id=14 function_name_id=39 line=997 end_line=997 column=15 end_column=46}
101 {file_name_id=8 function_name_id=37 line=875 end_line=875 column=11 end_column=67}
102 {file_name_id=8 function_name_id=37 line=878 end_line=878 column=12 end_column=73}
103 {file_name_id=8 function_name_id=37 line=879 end_line=879 column=12 end_column=69}
104 {file_name_id=10 function_name_id=23 line=1850 end_line=1850 column=19 end_column=88}
105 {file_name_id=10 function_name_id=42 line=1957 end_line=1957 column=14 end_column=60}
106 {file_name_id=10 function_name_id=42 line=1960 end_line=1960 column=15 end_column=74}
107 {file_name_id=10 function_name_id=30 line=121 end_line=121 column=9 end_column=82}
108 {file_name_id=10 function_name_id=24 line=1761 end_line=1761 column=13 end_column=54}
109 {file_name_id=9 function_name_id=20 line=901 end_line=901 column=68 end_column=111}
110 {file_name_id=9 function_name_id=20 line=900 end_line=902 column=8 end_column=9}
111 {file_name_id=8 function_name_id=15 line=1133 end_line=1133 column=18 end_column=82}
112 {file_name_id=8 function_name_id=16 line=998 end_line=998 column=15 end_column=65}
113 {file_name_id=8 function_name_id=16 line=1000 end_line=1000 column=35 end_column=84}
114 {file_name_id=9 function_name_id=20 line=882 end_line=890 column=4 end_column=5}
115 {file_name_id=9 function_name_id=43 line=763 end_line=763 column=26 end_column=54}
116 {file_name_id=9 function_name_id=43 line=798 end_line=800 column=10 end_column=11}
117 {file_name_id=8 function_name_id=17 line=985 end_line=985 column=19 end_column=78}
118 {file_name_id=8 function_name_id=16 line=1005 end_line=1005 column=15 end_column=87}
119 {file_name_id=9 function_name_id=43 line=803 end_line=805 column=10 end_column=11}
120 {file_name_id=9 function_name_id=20 line=921 end_line=921 column=8 end_column=91}
121 {file_name_id=10 function_name_id=21 line=2161 end_line=2161 column=15 end_column=100}
122 {file_name_id=10 function_name_id=44 line=2062 end_line=2062 column=17 end_column=59}
123 {file_name_id=10 function_name_id=44 line=2069 end_line=2069 column=33 end_column=55}
124 {file_name_id=10 function_name_id=44 line=2069 end_line=2069 column=25 end_column=56}
125 {file_name_id=10 function_name_id=44 line=2063 end_line=2065 column=17 end_column=5}
126 {file_name_id=10 function_name_id=45 line=2064 end_line=2064 column=17 end_column=39}
127 {file_name_id=10 function_name_id=45 line=2064 end_line=2064 column=9 end_column=40}
128 {file_name_id=10 function_name_id=24 line=1771 end_line=1771 column=34 end_column=52}
129 {file_name_id=10 function_name_id=24 line=1771 end_line=1771 column=26 end_column=53}
130 {file_name_id=10 function_name_id=24 line=1778 end_line=1778 column=16 end_column=54}
131 {file_name_id=10 function_name_id=44 line=2070 end_line=2070 column=18 end_column=46}
132 {file_name_id=8 function_name_id=31 line=903 end_line=903 column=12 end_column=69}
133 {file_name_id=10 function_name_id=24 line=1776 end_line=1776 column=17 end_column=60}
134 {file_name_id=10 function_name_id=24 line=1780 end_line=1780 column=16 end_column=81}
135 {file_name_id=10 function_name_id=46 line=2010 end_line=2010 column=12 end_column=80}
136 {file_name_id=10 function_name_id=44 line=2070 end_line=2070 column=6 end_column=46}
137 {file_name_id=8 function_name_id=15 line=1198 end_line=1198 column=10 end_column=66}
138 {file_name_id=8 function_name_id=15 line=1202 end_line=1202 column=10 end_column=61}
139 {file_name_id=13 function_name_id=47 line=733 end_line=733 column=11 end_column=51}
140 {file_name_id=6 function_name_id=14 line=228 end_line=228 column=11 end_column=57}
141 {file_name_id=6 function_name_id=10 line=300 end_line=300 column=28 end_column=50}
142 {file_name_id=6 function_name_id=25 line=205 end_line=205 column=11 end_column=60}
143 {file_name_id=6 function_name_id=9 line=383 end_line=383 column=16 end_column=57}
144 {file_name_id=6 function_name_id=48 line=339 end_line=339 column=10 end_column=122}
145 {file_name_id=12 function_name_id=49 line=517 end_line=517 column=12 end_column=62}
146 {file_name_id=12 function_name_id=49 line=521 end_line=521 column=12 end_column=54}
147 {file_name_id=12 function_name_id=49 line=525 end_line=525 column=8 end_column=51}
148 {file_name_id=12 function_name_id=49 line=528 end_line=528 column=8 end_column=68}
149 {file_name_id=12 function_name_id=49 line=529 end_line=529 column=13 end_column=50}
150 {file_name_id=6 function_name_id=48 line=340 end_line=340 column=11 end_column=44}
151 {file_name_id=6 function_name_id=9 line=384 end_line=384 column=21 end_column=50}
152 {file_name_id=6 function_name_id=9 line=385 end_line=385 column=19 end_column=77}
153 {file_name_id=6 function_name_id=50 line=197 end_line=197 column=11 end_column=48}
154 {file_name_id=9 function_name_id=20 line=905 end_line=905 column=16 end_column=50}
155 {file_name_id=9 function_name_id=20 line=905 end_line=905 column=8 end_column=101}
156 {file_name_id=15 function_name_id=51 line=198 end_line=199 column=11 end_column=42}
157 {file_name_id=15 function_name_id=52 line=88 end_line=88 column=4 end_column=27}
158 {file_name_id=16 function_name_id=53 line=245 end_line=245 column=2 end_column=15}
159 {file_name_id=17 function_name_id=54 line=410 end_line=410 column=6 end_column=27}
160 {file_name_id=17 function_name_id=55 line=355 end_line=355 column=13 end_column=23}
161 {file_name_id=16 function_name_id=56 line=211 end_line=211 column=37 end_column=92}
162 {file_name_id=1 function_name_id=57 line=1280 end_line=1289 column=24 end_column=5}
163 {file_name_id=3 function_name_id=4 line=1038 end_line=1046 column=21 end_column=35}
164 {file_name_id=6 function_name_id=58 line=578 end_line=585 column=41 end_column=5}
165 {file_name_id=6 function_name_id=58 line=597 end_line=597 column=53 end_column=94}
166 {file_name_id=6 function_name_id=59 line=604 end_line=606 column=51 end_column=5}
167 {file_name_id=18 function_name_id=60 line=2746 end_line=2748 column=58 end_column=5}
168 {file_name_id=18 function_name_id=61 line=2586 end_line=2586 column=35 end_column=60}
169 {file_name_id=18 function_name_id=62 line=344 end_line=344 column=15 end_column=79}
170 {file_name_id=18 function_name_id=61 line=2588 end_line=2588 column=16 end_column=53}
171 {file_name_id=6 function_name_id=58 line=571 end_line=571 column=8 end_column=44}
172 {file_name_id=18 function_name_id=61 line=2639 end_line=2641 column=38 end_column=7}
173 {file_name_id=18 function_name_id=63 line=2419 end_line=2421 column=15 end_column=7}
174 {file_name_id=18 function_name_id=64 line=614 end_line=621 column=11 end_column=5}
175 {file_name_id=18 function_name_id=61 line=2596 end_line=2596 column=18 end_column=57}
176 {file_name_id=18 function_name_id=63 line=2423 end_line=2425 column=19 end_column=9}
177 {file_name_id=18 function_name_id=63 line=2440 end_line=2440 column=23 end_column=68}
178 {file_name_id=18 function_name_id=65 line=809 end_line=809 column=20 end_column=48}
179 {file_name_id=18 function_name_id=61 line=2597 end_line=2597 column=18 end_column=57}
180 {file_name_id=18 function_name_id=63 line=2432 end_line=2434 column=19 end_column=9}
181 {file_name_id=18 function_name_id=65 line=810 end_line=810 column=29 end_column=62}
182 {file_name_id=18 function_name_id=63 line=2443 end_line=2448 column=29 end_column=9}
183 {file_name_id=18 function_name_id=63 line=2458 end_line=2458 column=31 end_column=69}
184 {file_name_id=18 function_name_id=63 line=2199 end_line=2199 column=16 end_column=77}
185 {file_name_id=18 function_name_id=66 line=1929 end_line=1929 column=21 end_column=104}
186 {file_name_id=18 function_name_id=66 line=1931 end_line=1931 column=8 end_column=117}
187 {file_name_id=18 function_name_id=66 line=1940 end_line=1940 column=21 end_column=95}
188 {file_name_id=18 function_name_id=66 line=1932 end_line=1932 column=8 end_column=106}
189 {file_name_id=18 function_name_id=62 line=323 end_line=323 column=13 end_column=44}
190 {file_name_id=18 function_name_id=62 line=331 end_line=340 column=13 end_column=5}
191 {file_name_id=18 function_name_id=63 line=2186 end_line=2186 column=18 end_column=118}
192 {file_name_id=18 function_name_id=63 line=2193 end_line=2193 column=35 end_column=110}
193 {file_name_id=18 function_name_id=67 line=706 end_line=706 column=37 end_column=89}
194 {file_name_id=18 function_name_id=63 line=2459 end_line=2459 column=20 end_column=47}
195 {file_name_id=18 function_name_id=63 line=2461 end_line=2466 column=17 end_column=9}
196 {file_name_id=18 function_name_id=63 line=2466 end_line=2466 column=10 end_column=28}
197 {file_name_id=18 function_name_id=60 line=2749 end_line=2749 column=21 end_column=120}
198 {file_name_id=18 function_name_id=60 line=2750 end_line=2750 column=11 end_column=42}
199 {file_name_id=6 function_name_id=59 line=607 end_line=607 column=11 end_column=48}
200 {file_name_id=6 function_name_id=58 line=598 end_line=598 column=21 end_column=50}
201 {file_name_id=6 function_name_id=58 line=599 end_line=599 column=19 end_column=77}
202 {file_name_id=3 function_name_id=4 line=1289 end_line=1289 column=15 end_column=96}
203 {file_name_id=3 function_name_id=68 line=795 end_line=802 column=8 end_column=40}
204 {file_name_id=1 function_name_id=6 line=1366 end_line=1373 column=16 end_column=5}
205 {file_name_id=19 function_name_id=69 line=135 end_line=135 column=11 end_column=38}
206 {file_name_id=3 function_name_id=4 line=872 end_line=879 column=8 end_column=5}
207 {file_name_id=3 function_name_id=70 line=706 end_line=706 column=8 end_column=85}
208 {file_name_id=14 function_name_id=71 line=155 end_line=158 column=16 end_column=5}
209 {file_name_id=14 function_name_id=71 line=182 end_line=182 column=15 end_column=66}
210 {file_name_id=4 function_name_id=5 line=150 end_line=150 column=9 end_column=66}
211 {file_name_id=4 function_name_id=72 line=126 end_line=126 column=11 end_column=44}
212 {file_name_id=4 function_name_id=73 line=124 end_line=124 column=13 end_column=35}
213 {file_name_id=1 function_name_id=6 line=1363 end_line=1363 column=16 end_column=92}
214 {file_name_id=1 function_name_id=6 line=1382 end_line=1382 column=23 end_column=59}
215 {file_name_id=3 function_name_id=68 line=831 end_line=844 column=15 end_column=7}
216 {file_name_id=3 function_name_id=68 line=847 end_line=847 column=15 end_column=41}
217 {file_name_id=1 function_name_id=6 line=1362 end_line=1362 column=17 end_column=87}
218 {file_name_id=1 function_name_id=6 line=1381 end_line=1381 column=15 end_column=43}
219 {file_name_id=1 function_name_id=6 line=1385 end_line=1385 column=13 end_column=78}

StackFrames
1 {file_location_id=1 parent_frame_id=1}
2 {file_location_id=2 parent_frame_id=2}
3 {file_location_id=3 parent_frame_id=3}
4 {file_location_id=4 parent_frame_id=4}
5 {file_location_id=5 parent_frame_id=5}
6 {file_location_id=6 parent_frame_id=1}
7 {file_location_id=2 parent_frame_id=7}
8 {file_location_id=3 parent_frame_id=8}
9 {file_location_id=4 parent_frame_id=9}
10 {file_location_id=5 parent_frame_id=10}
11 {file_location_id=7 parent_frame_id=1}
12 {file_location_id=8 parent_frame_id=12}
13 {file_location_id=9 parent_frame_id=13}
14 {file_location_id=10 parent_frame_id=14}
15 {file_location_id=11 parent_frame_id=15}
16 {file_location_id=12 parent_frame_id=16}
17 {file_location_id=13 parent_frame_id=17}
18 {file_location_id=14 parent_frame_id=14}
19 {file_location_id=15 parent_frame_id=19}
20 {file_location_id=12 parent_frame_id=20}
21 {file_location_id=16 parent_frame_id=21}
22 {file_location_id=17 parent_frame_id=22}
23 {file_location_id=12 parent_frame_id=23}
24 {file_location_id=13 parent_frame_id=24}
25 {file_location_id=18 parent_frame_id=22}
26 {file_location_id=19 parent_frame_id=26}
27 {file_location_id=12 parent_frame_id=27}
28 {file_location_id=20 parent_frame_id=28}
29 {file_location_id=21 parent_frame_id=29}
30 {file_location_id=22 parent_frame_id=30}
31 {file_location_id=23 parent_frame_id=21}
32 {file_location_id=12 parent_frame_id=32}
33 {file_location_id=24 parent_frame_id=33}
34 {file_location_id=25 parent_frame_id=34}
35 {file_location_id=26 parent_frame_id=35}
36 {file_location_id=27 parent_frame_id=36}
37 {file_location_id=28 parent_frame_id=36}
38 {file_location_id=29 parent_frame_id=33}
39 {file_location_id=25 parent_frame_id=39}
40 {file_location_id=26 parent_frame_id=40}
41 {file_location_id=27 parent_frame_id=41}
42 {file_location_id=28 parent_frame_id=41}
43 {file_location_id=30 parent_frame_id=14}
44 {file_location_id=31 parent_frame_id=44}
45 {file_location_id=12 parent_frame_id=45}
46 {file_location_id=13 parent_frame_id=46}
47 {file_location_id=32 parent_frame_id=46}
48 {file_location_id=33 parent_frame_id=13}
49 {file_location_id=34 parent_frame_id=49}
50 {file_location_id=35 parent_frame_id=50}
51 {file_location_id=36 parent_frame_id=51}
52 {file_location_id=37 parent_frame_id=35}
53 {file_location_id=38 parent_frame_id=53}
54 {file_location_id=39 parent_frame_id=53}
55 {file_location_id=40 parent_frame_id=35}
56 {file_location_id=41 parent_frame_id=56}
57 {file_location_id=42 parent_frame_id=26}
58 {file_location_id=43 parent_frame_id=58}
59 {file_location_id=12 parent_frame_id=59}
60 {file_location_id=44 parent_frame_id=60}
61 {file_location_id=45 parent_frame_id=60}
62 {file_location_id=46 parent_frame_id=62}
63 {file_location_id=47 parent_frame_id=58}
64 {file_location_id=48 parent_frame_id=58}
65 {file_location_id=35 parent_frame_id=65}
66 {file_location_id=36 parent_frame_id=66}
67 {file_location_id=49 parent_frame_id=30}
68 {file_location_id=50 parent_frame_id=68}
69 {file_location_id=51 parent_frame_id=69}
70 {file_location_id=52 parent_frame_id=70}
71 {file_location_id=53 parent_frame_id=58}
72 {file_location_id=54 parent_frame_id=58}
73 {file_location_id=35 parent_frame_id=73}
74 {file_location_id=36 parent_frame_id=74}
75 {file_location_id=55 parent_frame_id=58}
76 {file_location_id=56 parent_frame_id=58}
77 {file_location_id=35 parent_frame_id=77}
78 {file_location_id=36 parent_frame_id=78}
79 {file_location_id=32 parent_frame_id=17}
80 {file_location_id=57 parent_frame_id=17}
81 {file_location_id=58 parent_frame_id=17}
82 {file_location_id=59 parent_frame_id=17}
83 {file_location_id=60 parent_frame_id=17}
84 {file_location_id=61 parent_frame_id=17}
85 {file_location_id=62 parent_frame_id=17}
86 {file_location_id=63 parent_frame_id=17}
87 {file_location_id=64 parent_frame_id=15}
88 {file_location_id=34 parent_frame_id=88}
89 {file_location_id=35 parent_frame_id=89}
90 {file_location_id=36 parent_frame_id=90}
91 {file_location_id=65 parent_frame_id=21}
92 {file_location_id=35 parent_frame_id=92}
93 {file_location_id=36 parent_frame_id=93}
94 {file_location_id=66 parent_frame_id=21}
95 {file_location_id=67 parent_frame_id=95}
96 {file_location_id=12 parent_frame_id=96}
97 {file_location_id=44 parent_frame_id=97}
98 {file_location_id=45 parent_frame_id=97}
99 {file_location_id=46 parent_frame_id=99}
100 {file_location_id=68 parent_frame_id=95}
101 {file_location_id=69 parent_frame_id=95}
102 {file_location_id=35 parent_frame_id=102}
103 {file_location_id=36 parent_frame_id=103}
104 {file_location_id=70 parent_frame_id=95}
105 {file_location_id=71 parent_frame_id=105}
106 {file_location_id=12 parent_frame_id=106}
107 {file_location_id=72 parent_frame_id=107}
108 {file_location_id=73 parent_frame_id=107}
109 {file_location_id=74 parent_frame_id=107}
110 {file_location_id=75 parent_frame_id=107}
111 {file_location_id=76 parent_frame_id=107}
112 {file_location_id=77 parent_frame_id=107}
113 {file_location_id=78 parent_frame_id=113}
114 {file_location_id=79 parent_frame_id=113}
115 {file_location_id=80 parent_frame_id=113}
116 {file_location_id=81 parent_frame_id=113}
117 {file_location_id=82 parent_frame_id=113}
118 {file_location_id=83 parent_frame_id=113}
119 {file_location_id=84 parent_frame_id=113}
120 {file_location_id=85 parent_frame_id=113}
121 {file_location_id=86 parent_frame_id=121}
122 {file_location_id=87 parent_frame_id=121}
123 {file_location_id=88 parent_frame_id=121}
124 {file_location_id=89 parent_frame_id=113}
125 {file_location_id=90 parent_frame_id=113}
126 {file_location_id=91 parent_frame_id=113}
127 {file_location_id=92 parent_frame_id=113}
128 {file_location_id=93 parent_frame_id=113}
129 {file_location_id=94 parent_frame_id=107}
130 {file_location_id=95 parent_frame_id=107}
131 {file_location_id=96 parent_frame_id=107}
132 {file_location_id=97 parent_frame_id=107}
133 {file_location_id=98 parent_frame_id=107}
134 {file_location_id=99 parent_frame_id=107}
135 {file_location_id=100 parent_frame_id=107}
136 {file_location_id=101 parent_frame_id=95}
137 {file_location_id=35 parent_frame_id=137}
138 {file_location_id=36 parent_frame_id=138}
139 {file_location_id=102 parent_frame_id=95}
140 {file_location_id=103 parent_frame_id=95}
141 {file_location_id=35 parent_frame_id=141}
142 {file_location_id=36 parent_frame_id=142}
143 {file_location_id=104 parent_frame_id=35}
144 {file_location_id=105 parent_frame_id=144}
145 {file_location_id=106 parent_frame_id=144}
146 {file_location_id=107 parent_frame_id=56}
147 {file_location_id=108 parent_frame_id=36}
148 {file_location_id=109 parent_frame_id=30}
149 {file_location_id=110 parent_frame_id=30}
150 {file_location_id=37 parent_frame_id=40}
151 {file_location_id=38 parent_frame_id=151}
152 {file_location_id=39 parent_frame_id=151}
153 {file_location_id=40 parent_frame_id=40}
154 {file_location_id=41 parent_frame_id=154}
155 {file_location_id=32 parent_frame_id=24}
156 {file_location_id=111 parent_frame_id=21}
157 {file_location_id=35 parent_frame_id=157}
158 {file_location_id=36 parent_frame_id=158}
159 {file_location_id=112 parent_frame_id=22}
160 {file_location_id=12 parent_frame_id=160}
161 {file_location_id=44 parent_frame_id=161}
162 {file_location_id=45 parent_frame_id=161}
163 {file_location_id=46 parent_frame_id=163}
164 {file_location_id=113 parent_frame_id=22}
165 {file_location_id=57 parent_frame_id=24}
166 {file_location_id=58 parent_frame_id=24}
167 {file_location_id=59 parent_frame_id=24}
168 {file_location_id=60 parent_frame_id=24}
169 {file_location_id=61 parent_frame_id=24}
170 {file_location_id=62 parent_frame_id=24}
171 {file_location_id=63 parent_frame_id=24}
172 {file_location_id=114 parent_frame_id=30}
173 {file_location_id=115 parent_frame_id=173}
174 {file_location_id=116 parent_frame_id=173}
175 {file_location_id=117 parent_frame_id=26}
176 {file_location_id=43 parent_frame_id=176}
177 {file_location_id=12 parent_frame_id=177}
178 {file_location_id=44 parent_frame_id=178}
179 {file_location_id=45 parent_frame_id=178}
180 {file_location_id=46 parent_frame_id=180}
181 {file_location_id=47 parent_frame_id=176}
182 {file_location_id=48 parent_frame_id=176}
183 {file_location_id=35 parent_frame_id=183}
184 {file_location_id=36 parent_frame_id=184}
185 {file_location_id=118 parent_frame_id=22}
186 {file_location_id=71 parent_frame_id=186}
187 {file_location_id=12 parent_frame_id=187}
188 {file_location_id=73 parent_frame_id=188}
189 {file_location_id=74 parent_frame_id=188}
190 {file_location_id=75 parent_frame_id=188}
191 {file_location_id=76 parent_frame_id=188}
192 {file_location_id=77 parent_frame_id=188}
193 {file_location_id=78 parent_frame_id=193}
194 {file_location_id=79 parent_frame_id=193}
195 {file_location_id=80 parent_frame_id=193}
196 {file_location_id=81 parent_frame_id=193}
197 {file_location_id=82 parent_frame_id=193}
198 {file_location_id=83 parent_frame_id=193}
199 {file_location_id=84 parent_frame_id=193}
200 {file_location_id=85 parent_frame_id=193}
201 {file_location_id=86 parent_frame_id=201}
202 {file_location_id=87 parent_frame_id=201}
203 {file_location_id=88 parent_frame_id=201}
204 {file_location_id=89 parent_frame_id=193}
205 {file_location_id=90 parent_frame_id=193}
206 {file_location_id=91 parent_frame_id=193}
207 {file_location_id=92 parent_frame_id=193}
208 {file_location_id=93 parent_frame_id=193}
209 {file_location_id=94 parent_frame_id=188}
210 {file_location_id=96 parent_frame_id=188}
211 {file_location_id=97 parent_frame_id=188}
212 {file_location_id=98 parent_frame_id=188}
213 {file_location_id=99 parent_frame_id=188}
214 {file_location_id=100 parent_frame_id=188}
215 {file_location_id=119 parent_frame_id=173}
216 {file_location_id=120 parent_frame_id=30}
217 {file_location_id=50 parent_frame_id=217}
218 {file_location_id=51 parent_frame_id=218}
219 {file_location_id=52 parent_frame_id=219}
220 {file_location_id=53 parent_frame_id=176}
221 {file_location_id=54 parent_frame_id=176}
222 {file_location_id=35 parent_frame_id=222}
223 {file_location_id=36 parent_frame_id=223}
224 {file_location_id=55 parent_frame_id=176}
225 {file_location_id=56 parent_frame_id=176}
226 {file_location_id=35 parent_frame_id=226}
227 {file_location_id=36 parent_frame_id=227}
228 {file_location_id=104 parent_frame_id=40}
229 {file_location_id=105 parent_frame_id=229}
230 {file_location_id=106 parent_frame_id=229}
231 {file_location_id=107 parent_frame_id=154}
232 {file_location_id=108 parent_frame_id=41}
233 {file_location_id=121 parent_frame_id=33}
234 {file_location_id=122 parent_frame_id=234}
235 {file_location_id=123 parent_frame_id=234}
236 {file_location_id=124 parent_frame_id=234}
237 {file_location_id=125 parent_frame_id=234}
238 {file_location_id=126 parent_frame_id=238}
239 {file_location_id=127 parent_frame_id=238}
240 {file_location_id=128 parent_frame_id=36}
241 {file_location_id=129 parent_frame_id=36}
242 {file_location_id=130 parent_frame_id=36}
243 {file_location_id=128 parent_frame_id=41}
244 {file_location_id=129 parent_frame_id=41}
245 {file_location_id=130 parent_frame_id=41}
246 {file_location_id=131 parent_frame_id=234}
247 {file_location_id=132 parent_frame_id=58}
248 {file_location_id=35 parent_frame_id=248}
249 {file_location_id=36 parent_frame_id=249}
250 {file_location_id=133 parent_frame_id=36}
251 {file_location_id=134 parent_frame_id=36}
252 {file_location_id=135 parent_frame_id=252}
253 {file_location_id=132 parent_frame_id=176}
254 {file_location_id=35 parent_frame_id=254}
255 {file_location_id=36 parent_frame_id=255}
256 {file_location_id=133 parent_frame_id=41}
257 {file_location_id=134 parent_frame_id=41}
258 {file_location_id=135 parent_frame_id=258}
259 {file_location_id=136 parent_frame_id=234}
260 {file_location_id=137 parent_frame_id=21}
261 {file_location_id=35 parent_frame_id=261}
262 {file_location_id=36 parent_frame_id=262}
263 {file_location_id=138 parent_frame_id=21}
264 {file_location_id=139 parent_frame_id=264}
265 {file_location_id=12 parent_frame_id=265}
266 {file_location_id=44 parent_frame_id=266}
267 {file_location_id=45 parent_frame_id=266}
268 {file_location_id=46 parent_frame_id=268}
269 {file_location_id=140 parent_frame_id=19}
270 {file_location_id=34 parent_frame_id=270}
271 {file_location_id=35 parent_frame_id=271}
272 {file_location_id=36 parent_frame_id=272}
273 {file_location_id=141 parent_frame_id=14}
274 {file_location_id=57 parent_frame_id=46}
275 {file_location_id=58 parent_frame_id=46}
276 {file_location_id=59 parent_frame_id=46}
277 {file_location_id=60 parent_frame_id=46}
278 {file_location_id=61 parent_frame_id=46}
279 {file_location_id=62 parent_frame_id=46}
280 {file_location_id=63 parent_frame_id=46}
281 {file_location_id=142 parent_frame_id=44}
282 {file_location_id=34 parent_frame_id=282}
283 {file_location_id=35 parent_frame_id=283}
284 {file_location_id=36 parent_frame_id=284}
285 {file_location_id=143 parent_frame_id=13}
286 {file_location_id=144 parent_frame_id=286}
287 {file_location_id=12 parent_frame_id=287}
288 {file_location_id=145 parent_frame_id=288}
289 {file_location_id=12 parent_frame_id=289}
290 {file_location_id=44 parent_frame_id=290}
291 {file_location_id=45 parent_frame_id=290}
292 {file_location_id=46 parent_frame_id=292}
293 {file_location_id=146 parent_frame_id=288}
294 {file_location_id=147 parent_frame_id=288}
295 {file_location_id=148 parent_frame_id=288}
296 {file_location_id=35 parent_frame_id=296}
297 {file_location_id=36 parent_frame_id=297}
298 {file_location_id=149 parent_frame_id=288}
299 {file_location_id=12 parent_frame_id=299}
300 {file_location_id=44 parent_frame_id=300}
301 {file_location_id=45 parent_frame_id=300}
302 {file_location_id=46 parent_frame_id=302}
303 {file_location_id=150 parent_frame_id=286}
304 {file_location_id=34 parent_frame_id=304}
305 {file_location_id=35 parent_frame_id=305}
306 {file_location_id=36 parent_frame_id=306}
307 {file_location_id=151 parent_frame_id=13}
308 {file_location_id=152 parent_frame_id=13}
309 {file_location_id=153 parent_frame_id=309}
310 {file_location_id=34 parent_frame_id=310}
311 {file_location_id=35 parent_frame_id=311}
312 {file_location_id=36 parent_frame_id=312}
313 {file_location_id=154 parent_frame_id=30}
314 {file_location_id=155 parent_frame_id=30}
315 {file_location_id=156 parent_frame_id=1}
316 {file_location_id=157 parent_frame_id=316}
317 {file_location_id=158 parent_frame_id=317}
318 {file_location_id=159 parent_frame_id=318}
319 {file_location_id=160 parent_frame_id=319}
320 {file_location_id=161 parent_frame_id=320}
321 {file_location_id=162 parent_frame_id=321}
322 {file_location_id=6 parent_frame_id=322}
323 {file_location_id=2 parent_frame_id=323}
324 {file_location_id=3 parent_frame_id=324}
325 {file_location_id=4 parent_frame_id=325}
326 {file_location_id=5 parent_frame_id=326}
327 {file_location_id=6 parent_frame_id=327}
328 {file_location_id=2 parent_frame_id=328}
329 {file_location_id=3 parent_frame_id=329}
330 {file_location_id=4 parent_frame_id=330}
331 {file_location_id=5 parent_frame_id=331}
332 {file_location_id=6 parent_frame_id=332}
333 {file_location_id=2 parent_frame_id=333}
334 {file_location_id=3 parent_frame_id=334}
335 {file_location_id=4 parent_frame_id=335}
336 {file_location_id=5 parent_frame_id=336}
337 {file_location_id=163 parent_frame_id=4}
338 {file_location_id=5 parent_frame_id=338}
339 {file_location_id=163 parent_frame_id=9}
340 {file_location_id=5 parent_frame_id=340}
341 {file_location_id=164 parent_frame_id=13}
342 {file_location_id=10 parent_frame_id=342}
343 {file_location_id=11 parent_frame_id=343}
344 {file_location_id=12 parent_frame_id=344}
345 {file_location_id=13 parent_frame_id=345}
346 {file_location_id=14 parent_frame_id=342}
347 {file_location_id=15 parent_frame_id=347}
348 {file_location_id=12 parent_frame_id=348}
349 {file_location_id=16 parent_frame_id=349}
350 {file_location_id=17 parent_frame_id=350}
351 {file_location_id=12 parent_frame_id=351}
352 {file_location_id=13 parent_frame_id=352}
353 {file_location_id=18 parent_frame_id=350}
354 {file_location_id=19 parent_frame_id=354}
355 {file_location_id=12 parent_frame_id=355}
356 {file_location_id=20 parent_frame_id=356}
357 {file_location_id=21 parent_frame_id=357}
358 {file_location_id=22 parent_frame_id=358}
359 {file_location_id=23 parent_frame_id=349}
360 {file_location_id=12 parent_frame_id=360}
361 {file_location_id=24 parent_frame_id=361}
362 {file_location_id=25 parent_frame_id=362}
363 {file_location_id=26 parent_frame_id=363}
364 {file_location_id=27 parent_frame_id=364}
365 {file_location_id=28 parent_frame_id=364}
366 {file_location_id=29 parent_frame_id=361}
367 {file_location_id=25 parent_frame_id=367}
368 {file_location_id=26 parent_frame_id=368}
369 {file_location_id=27 parent_frame_id=369}
370 {file_location_id=28 parent_frame_id=369}
371 {file_location_id=30 parent_frame_id=342}
372 {file_location_id=31 parent_frame_id=372}
373 {file_location_id=12 parent_frame_id=373}
374 {file_location_id=13 parent_frame_id=374}
375 {file_location_id=165 parent_frame_id=13}
376 {file_location_id=166 parent_frame_id=376}
377 {file_location_id=12 parent_frame_id=377}
378 {file_location_id=167 parent_frame_id=378}
379 {file_location_id=12 parent_frame_id=379}
380 {file_location_id=168 parent_frame_id=380}
381 {file_location_id=12 parent_frame_id=381}
382 {file_location_id=169 parent_frame_id=382}
383 {file_location_id=170 parent_frame_id=380}
384 {file_location_id=32 parent_frame_id=374}
385 {file_location_id=171 parent_frame_id=13}
386 {file_location_id=34 parent_frame_id=386}
387 {file_location_id=35 parent_frame_id=387}
388 {file_location_id=36 parent_frame_id=388}
389 {file_location_id=37 parent_frame_id=363}
390 {file_location_id=38 parent_frame_id=390}
391 {file_location_id=39 parent_frame_id=390}
392 {file_location_id=40 parent_frame_id=363}
393 {file_location_id=41 parent_frame_id=393}
394 {file_location_id=42 parent_frame_id=354}
395 {file_location_id=43 parent_frame_id=395}
396 {file_location_id=12 parent_frame_id=396}
397 {file_location_id=44 parent_frame_id=397}
398 {file_location_id=45 parent_frame_id=397}
399 {file_location_id=46 parent_frame_id=399}
400 {file_location_id=47 parent_frame_id=395}
401 {file_location_id=48 parent_frame_id=395}
402 {file_location_id=35 parent_frame_id=402}
403 {file_location_id=36 parent_frame_id=403}
404 {file_location_id=49 parent_frame_id=358}
405 {file_location_id=50 parent_frame_id=405}
406 {file_location_id=51 parent_frame_id=406}
407 {file_location_id=52 parent_frame_id=407}
408 {file_location_id=53 parent_frame_id=395}
409 {file_location_id=54 parent_frame_id=395}
410 {file_location_id=35 parent_frame_id=410}
411 {file_location_id=36 parent_frame_id=411}
412 {file_location_id=55 parent_frame_id=395}
413 {file_location_id=56 parent_frame_id=395}
414 {file_location_id=35 parent_frame_id=414}
415 {file_location_id=36 parent_frame_id=415}
416 {file_location_id=32 parent_frame_id=345}
417 {file_location_id=57 parent_frame_id=345}
418 {file_location_id=58 parent_frame_id=345}
419 {file_location_id=59 parent_frame_id=345}
420 {file_location_id=60 parent_frame_id=345}
421 {file_location_id=61 parent_frame_id=345}
422 {file_location_id=62 parent_frame_id=345}
423 {file_location_id=63 parent_frame_id=345}
424 {file_location_id=64 parent_frame_id=343}
425 {file_location_id=34 parent_frame_id=425}
426 {file_location_id=35 parent_frame_id=426}
427 {file_location_id=36 parent_frame_id=427}
428 {file_location_id=65 parent_frame_id=349}
429 {file_location_id=35 parent_frame_id=429}
430 {file_location_id=36 parent_frame_id=430}
431 {file_location_id=66 parent_frame_id=349}
432 {file_location_id=67 parent_frame_id=432}
433 {file_location_id=12 parent_frame_id=433}
434 {file_location_id=44 parent_frame_id=434}
435 {file_location_id=45 parent_frame_id=434}
436 {file_location_id=46 parent_frame_id=436}
437 {file_location_id=68 parent_frame_id=432}
438 {file_location_id=69 parent_frame_id=432}
439 {file_location_id=35 parent_frame_id=439}
440 {file_location_id=36 parent_frame_id=440}
441 {file_location_id=70 parent_frame_id=432}
442 {file_location_id=71 parent_frame_id=442}
443 {file_location_id=12 parent_frame_id=443}
444 {file_location_id=72 parent_frame_id=444}
445 {file_location_id=73 parent_frame_id=444}
446 {file_location_id=74 parent_frame_id=444}
447 {file_location_id=75 parent_frame_id=444}
448 {file_location_id=76 parent_frame_id=444}
449 {file_location_id=77 parent_frame_id=444}
450 {file_location_id=78 parent_frame_id=450}
451 {file_location_id=79 parent_frame_id=450}
452 {file_location_id=80 parent_frame_id=450}
453 {file_location_id=81 parent_frame_id=450}
454 {file_location_id=82 parent_frame_id=450}
455 {file_location_id=83 parent_frame_id=450}
456 {file_location_id=84 parent_frame_id=450}
457 {file_location_id=85 parent_frame_id=450}
458 {file_location_id=86 parent_frame_id=458}
459 {file_location_id=87 parent_frame_id=458}
460 {file_location_id=88 parent_frame_id=458}
461 {file_location_id=89 parent_frame_id=450}
462 {file_location_id=90 parent_frame_id=450}
463 {file_location_id=91 parent_frame_id=450}
464 {file_location_id=92 parent_frame_id=450}
465 {file_location_id=93 parent_frame_id=450}
466 {file_location_id=94 parent_frame_id=444}
467 {file_location_id=95 parent_frame_id=444}
468 {file_location_id=96 parent_frame_id=444}
469 {file_location_id=97 parent_frame_id=444}
470 {file_location_id=98 parent_frame_id=444}
471 {file_location_id=99 parent_frame_id=444}
472 {file_location_id=100 parent_frame_id=444}
473 {file_location_id=101 parent_frame_id=432}
474 {file_location_id=35 parent_frame_id=474}
475 {file_location_id=36 parent_frame_id=475}
476 {file_location_id=102 parent_frame_id=432}
477 {file_location_id=103 parent_frame_id=432}
478 {file_location_id=35 parent_frame_id=478}
479 {file_location_id=36 parent_frame_id=479}
480 {file_location_id=104 parent_frame_id=363}
481 {file_location_id=105 parent_frame_id=481}
482 {file_location_id=106 parent_frame_id=481}
483 {file_location_id=107 parent_frame_id=393}
484 {file_location_id=108 parent_frame_id=364}
485 {file_location_id=109 parent_frame_id=358}
486 {file_location_id=110 parent_frame_id=358}
487 {file_location_id=37 parent_frame_id=368}
488 {file_location_id=38 parent_frame_id=488}
489 {file_location_id=39 parent_frame_id=488}
490 {file_location_id=40 parent_frame_id=368}
491 {file_location_id=41 parent_frame_id=491}
492 {file_location_id=32 parent_frame_id=352}
493 {file_location_id=111 parent_frame_id=349}
494 {file_location_id=35 parent_frame_id=494}
495 {file_location_id=36 parent_frame_id=495}
496 {file_location_id=112 parent_frame_id=350}
497 {file_location_id=12 parent_frame_id=497}
498 {file_location_id=44 parent_frame_id=498}
499 {file_location_id=45 parent_frame_id=498}
500 {file_location_id=46 parent_frame_id=500}
501 {file_location_id=113 parent_frame_id=350}
502 {file_location_id=57 parent_frame_id=352}
503 {file_location_id=58 parent_frame_id=352}
504 {file_location_id=59 parent_frame_id=352}
505 {file_location_id=60 parent_frame_id=352}
506 {file_location_id=61 parent_frame_id=352}
507 {file_location_id=62 parent_frame_id=352}
508 {file_location_id=63 parent_frame_id=352}
509 {file_location_id=114 parent_frame_id=358}
510 {file_location_id=115 parent_frame_id=510}
511 {file_location_id=116 parent_frame_id=510}
512 {file_location_id=117 parent_frame_id=354}
513 {file_location_id=43 parent_frame_id=513}
514 {file_location_id=12 parent_frame_id=514}
515 {file_location_id=44 parent_frame_id=515}
516 {file_location_id=45 parent_frame_id=515}
517 {file_location_id=46 parent_frame_id=517}
518 {file_location_id=47 parent_frame_id=513}
519 {file_location_id=48 parent_frame_id=513}
520 {file_location_id=35 parent_frame_id=520}
521 {file_location_id=36 parent_frame_id=521}
522 {file_location_id=118 parent_frame_id=350}
523 {file_location_id=71 parent_frame_id=523}
524 {file_location_id=12 parent_frame_id=524}
525 {file_location_id=73 parent_frame_id=525}
526 {file_location_id=74 parent_frame_id=525}
527 {file_location_id=75 parent_frame_id=525}
528 {file_location_id=76 parent_frame_id=525}
529 {file_location_id=77 parent_frame_id=525}
530 {file_location_id=78 parent_frame_id=530}
531 {file_location_id=79 parent_frame_id=530}
532 {file_location_id=80 parent_frame_id=530}
533 {file_location_id=81 parent_frame_id=530}
534 {file_location_id=82 parent_frame_id=530}
535 {file_location_id=83 parent_frame_id=530}
536 {file_location_id=84 parent_frame_id=530}
537 {file_location_id=85 parent_frame_id=530}
538 {file_location_id=86 parent_frame_id=538}
539 {file_location_id=87 parent_frame_id=538}
540 {file_location_id=88 parent_frame_id=538}
541 {file_location_id=89 parent_frame_id=530}
542 {file_location_id=90 parent_frame_id=530}
543 {file_location_id=91 parent_frame_id=530}
544 {file_location_id=92 parent_frame_id=530}
545 {file_location_id=93 parent_frame_id=530}
546 {file_location_id=94 parent_frame_id=525}
547 {file_location_id=96 parent_frame_id=525}
548 {file_location_id=97 parent_frame_id=525}
549 {file_location_id=98 parent_frame_id=525}
550 {file_location_id=99 parent_frame_id=525}
551 {file_location_id=100 parent_frame_id=525}
552 {file_location_id=119 parent_frame_id=510}
553 {file_location_id=120 parent_frame_id=358}
554 {file_location_id=50 parent_frame_id=554}
555 {file_location_id=51 parent_frame_id=555}
556 {file_location_id=52 parent_frame_id=556}
557 {file_location_id=53 parent_frame_id=513}
558 {file_location_id=54 parent_frame_id=513}
559 {file_location_id=35 parent_frame_id=559}
560 {file_location_id=36 parent_frame_id=560}
561 {file_location_id=55 parent_frame_id=513}
562 {file_location_id=56 parent_frame_id=513}
563 {file_location_id=35 parent_frame_id=563}
564 {file_location_id=36 parent_frame_id=564}
565 {file_location_id=104 parent_frame_id=368}
566 {file_location_id=105 parent_frame_id=566}
567 {file_location_id=106 parent_frame_id=566}
568 {file_location_id=107 parent_frame_id=491}
569 {file_location_id=108 parent_frame_id=369}
570 {file_location_id=121 parent_frame_id=361}
571 {file_location_id=122 parent_frame_id=571}
572 {file_location_id=123 parent_frame_id=571}
573 {file_location_id=124 parent_frame_id=571}
574 {file_location_id=125 parent_frame_id=571}
575 {file_location_id=126 parent_frame_id=575}
576 {file_location_id=127 parent_frame_id=575}
577 {file_location_id=128 parent_frame_id=364}
578 {file_location_id=129 parent_frame_id=364}
579 {file_location_id=130 parent_frame_id=364}
580 {file_location_id=128 parent_frame_id=369}
581 {file_location_id=129 parent_frame_id=369}
582 {file_location_id=130 parent_frame_id=369}
583 {file_location_id=131 parent_frame_id=571}
584 {file_location_id=132 parent_frame_id=395}
585 {file_location_id=35 parent_frame_id=585}
586 {file_location_id=36 parent_frame_id=586}
587 {file_location_id=133 parent_frame_id=364}
588 {file_location_id=134 parent_frame_id=364}
589 {file_location_id=135 parent_frame_id=589}
590 {file_location_id=132 parent_frame_id=513}
591 {file_location_id=35 parent_frame_id=591}
592 {file_location_id=36 parent_frame_id=592}
593 {file_location_id=133 parent_frame_id=369}
594 {file_location_id=134 parent_frame_id=369}
595 {file_location_id=135 parent_frame_id=595}
596 {file_location_id=136 parent_frame_id=571}
597 {file_location_id=137 parent_frame_id=349}
598 {file_location_id=35 parent_frame_id=598}
599 {file_location_id=36 parent_frame_id=599}
600 {file_location_id=138 parent_frame_id=349}
601 {file_location_id=139 parent_frame_id=601}
602 {file_location_id=12 parent_frame_id=602}
603 {file_location_id=44 parent_frame_id=603}
604 {file_location_id=45 parent_frame_id=603}
605 {file_location_id=46 parent_frame_id=605}
606 {file_location_id=140 parent_frame_id=347}
607 {file_location_id=34 parent_frame_id=607}
608 {file_location_id=35 parent_frame_id=608}
609 {file_location_id=36 parent_frame_id=609}
610 {file_location_id=141 parent_frame_id=342}
611 {file_location_id=57 parent_frame_id=374}
612 {file_location_id=58 parent_frame_id=374}
613 {file_location_id=59 parent_frame_id=374}
614 {file_location_id=60 parent_frame_id=374}
615 {file_location_id=61 parent_frame_id=374}
616 {file_location_id=62 parent_frame_id=374}
617 {file_location_id=63 parent_frame_id=374}
618 {file_location_id=142 parent_frame_id=372}
619 {file_location_id=34 parent_frame_id=619}
620 {file_location_id=35 parent_frame_id=620}
621 {file_location_id=36 parent_frame_id=621}
622 {file_location_id=172 parent_frame_id=380}
623 {file_location_id=173 parent_frame_id=623}
624 {file_location_id=174 parent_frame_id=624}
625 {file_location_id=35 parent_frame_id=625}
626 {file_location_id=36 parent_frame_id=626}
627 {file_location_id=175 parent_frame_id=380}
628 {file_location_id=176 parent_frame_id=623}
629 {file_location_id=177 parent_frame_id=623}
630 {file_location_id=178 parent_frame_id=630}
631 {file_location_id=179 parent_frame_id=380}
632 {file_location_id=180 parent_frame_id=623}
633 {file_location_id=181 parent_frame_id=630}
634 {file_location_id=182 parent_frame_id=623}
635 {file_location_id=183 parent_frame_id=623}
636 {file_location_id=184 parent_frame_id=623}
637 {file_location_id=185 parent_frame_id=637}
638 {file_location_id=186 parent_frame_id=637}
639 {file_location_id=174 parent_frame_id=639}
640 {file_location_id=35 parent_frame_id=640}
641 {file_location_id=36 parent_frame_id=641}
642 {file_location_id=187 parent_frame_id=637}
643 {file_location_id=188 parent_frame_id=637}
644 {file_location_id=174 parent_frame_id=644}
645 {file_location_id=35 parent_frame_id=645}
646 {file_location_id=36 parent_frame_id=646}
647 {file_location_id=189 parent_frame_id=382}
648 {file_location_id=190 parent_frame_id=382}
649 {file_location_id=46 parent_frame_id=649}
650 {file_location_id=191 parent_frame_id=623}
651 {file_location_id=174 parent_frame_id=651}
652 {file_location_id=35 parent_frame_id=652}
653 {file_location_id=36 parent_frame_id=653}
654 {file_location_id=192 parent_frame_id=623}
655 {file_location_id=193 parent_frame_id=655}
656 {file_location_id=194 parent_frame_id=623}
657 {file_location_id=195 parent_frame_id=623}
658 {file_location_id=196 parent_frame_id=623}
659 {file_location_id=197 parent_frame_id=378}
660 {file_location_id=12 parent_frame_id=660}
661 {file_location_id=145 parent_frame_id=661}
662 {file_location_id=12 parent_frame_id=662}
663 {file_location_id=44 parent_frame_id=663}
664 {file_location_id=45 parent_frame_id=663}
665 {file_location_id=46 parent_frame_id=665}
666 {file_location_id=146 parent_frame_id=661}
667 {file_location_id=147 parent_frame_id=661}
668 {file_location_id=148 parent_frame_id=661}
669 {file_location_id=35 parent_frame_id=669}
670 {file_location_id=36 parent_frame_id=670}
671 {file_location_id=149 parent_frame_id=661}
672 {file_location_id=12 parent_frame_id=672}
673 {file_location_id=44 parent_frame_id=673}
674 {file_location_id=45 parent_frame_id=673}
675 {file_location_id=46 parent_frame_id=675}
676 {file_location_id=198 parent_frame_id=378}
677 {file_location_id=199 parent_frame_id=376}
678 {file_location_id=34 parent_frame_id=678}
679 {file_location_id=35 parent_frame_id=679}
680 {file_location_id=36 parent_frame_id=680}
681 {file_location_id=200 parent_frame_id=13}
682 {file_location_id=201 parent_frame_id=13}
683 {file_location_id=153 parent_frame_id=683}
684 {file_location_id=34 parent_frame_id=684}
685 {file_location_id=35 parent_frame_id=685}
686 {file_location_id=36 parent_frame_id=686}
687 {file_location_id=154 parent_frame_id=358}
688 {file_location_id=155 parent_frame_id=358}
689 {file_location_id=163 parent_frame_id=325}
690 {file_location_id=5 parent_frame_id=690}
691 {file_location_id=6 parent_frame_id=691}
692 {file_location_id=2 parent_frame_id=692}
693 {file_location_id=3 parent_frame_id=693}
694 {file_location_id=163 parent_frame_id=694}
695 {file_location_id=5 parent_frame_id=695}
696 {file_location_id=6 parent_frame_id=696}
697 {file_location_id=2 parent_frame_id=697}
698 {file_location_id=3 parent_frame_id=698}
699 {file_location_id=163 parent_frame_id=699}
700 {file_location_id=5 parent_frame_id=700}
701 {file_location_id=202 parent_frame_id=325}
702 {file_location_id=203 parent_frame_id=702}
703 {file_location_id=8 parent_frame_id=703}
704 {file_location_id=13 parent_frame_id=704}
705 {file_location_id=204 parent_frame_id=1}
706 {file_location_id=205 parent_frame_id=706}
707 {file_location_id=204 parent_frame_id=707}
708 {file_location_id=205 parent_frame_id=708}
709 {file_location_id=206 parent_frame_id=325}
710 {file_location_id=207 parent_frame_id=710}
711 {file_location_id=8 parent_frame_id=711}
712 {file_location_id=208 parent_frame_id=712}
713 {file_location_id=209 parent_frame_id=712}
714 {file_location_id=210 parent_frame_id=326}
715 {file_location_id=211 parent_frame_id=715}
716 {file_location_id=212 parent_frame_id=716}
717 {file_location_id=210 parent_frame_id=690}
718 {file_location_id=211 parent_frame_id=718}
719 {file_location_id=212 parent_frame_id=719}
720 {file_location_id=213 parent_frame_id=322}
721 {file_location_id=214 parent_frame_id=322}
722 {file_location_id=32 parent_frame_id=704}
723 {file_location_id=57 parent_frame_id=704}
724 {file_location_id=58 parent_frame_id=704}
725 {file_location_id=59 parent_frame_id=704}
726 {file_location_id=60 parent_frame_id=704}
727 {file_location_id=61 parent_frame_id=704}
728 {file_location_id=62 parent_frame_id=704}
729 {file_location_id=63 parent_frame_id=704}
730 {file_location_id=215 parent_frame_id=702}
731 {file_location_id=8 parent_frame_id=731}
732 {file_location_id=44 parent_frame_id=732}
733 {file_location_id=45 parent_frame_id=732}
734 {file_location_id=46 parent_frame_id=734}
735 {file_location_id=216 parent_frame_id=702}
736 {file_location_id=217 parent_frame_id=322}
737 {file_location_id=218 parent_frame_id=322}
738 {file_location_id=204 parent_frame_id=322}
739 {file_location_id=205 parent_frame_id=739}
740 {file_location_id=219 parent_frame_id=322}


%dynamic_index_in_dim.1 (Arg_0.1: f32[1,2048,10944], Arg_1.1: s32[]) -> f32[2048,10944] {
  %Arg_0.1 = f32[1,2048,10944]{2,1,0} parameter(0)
  %Arg_1.1 = s32[] parameter(1)
  %constant.24 = s32[] constant(0)
  %dynamic_slice.1 = f32[1,2048,10944]{2,1,0} dynamic-slice(%Arg_0.1, %Arg_1.1, %constant.24, %constant.24), dynamic_slice_sizes={1,2048,10944}, metadata={op_name="dynamic_slice" stack_frame_id=5}
  ROOT %squeeze.1 = f32[2048,10944]{1,0} reshape(%dynamic_slice.1), metadata={op_name="squeeze" stack_frame_id=5}
}

%dynamic_index_in_dim_0.2 (Arg_0.3: f32[1,10944,2048], Arg_1.3: s32[]) -> f32[10944,2048] {
  %Arg_0.3 = f32[1,10944,2048]{2,1,0} parameter(0)
  %Arg_1.3 = s32[] parameter(1)
  %constant.26 = s32[] constant(0)
  %dynamic_slice.3 = f32[1,10944,2048]{2,1,0} dynamic-slice(%Arg_0.3, %Arg_1.3, %constant.26, %constant.26), dynamic_slice_sizes={1,10944,2048}, metadata={op_name="dynamic_slice" stack_frame_id=5}
  ROOT %squeeze.3 = f32[10944,2048]{1,0} reshape(%dynamic_slice.3), metadata={op_name="squeeze" stack_frame_id=5}
}

%dynamic_index_in_dim_1.3 (Arg_0.5: f32[1,2048], Arg_1.5: s32[]) -> f32[2048] {
  %Arg_0.5 = f32[1,2048]{1,0} parameter(0)
  %Arg_1.5 = s32[] parameter(1)
  %constant.28 = s32[] constant(0)
  %dynamic_slice.5 = f32[1,2048]{1,0} dynamic-slice(%Arg_0.5, %Arg_1.5, %constant.28), dynamic_slice_sizes={1,2048}, metadata={op_name="dynamic_slice" stack_frame_id=5}
  ROOT %squeeze.5 = f32[2048]{0} reshape(%dynamic_slice.5), metadata={op_name="squeeze" stack_frame_id=5}
}

%dynamic_index_in_dim_2.4 (Arg_0.7: f32[1,512], Arg_1.7: s32[]) -> f32[512] {
  %Arg_0.7 = f32[1,512]{1,0} parameter(0)
  %Arg_1.7 = s32[] parameter(1)
  %constant.30 = s32[] constant(0)
  %dynamic_slice.7 = f32[1,512]{1,0} dynamic-slice(%Arg_0.7, %Arg_1.7, %constant.30), dynamic_slice_sizes={1,512}, metadata={op_name="dynamic_slice" stack_frame_id=5}
  ROOT %squeeze.7 = f32[512]{0} reshape(%dynamic_slice.7), metadata={op_name="squeeze" stack_frame_id=5}
}

%dynamic_index_in_dim_3.5 (Arg_0.9: f32[1,16,128,2048], Arg_1.9: s32[]) -> f32[16,128,2048] {
  %Arg_0.9 = f32[1,16,128,2048]{3,2,1,0} parameter(0)
  %Arg_1.9 = s32[] parameter(1)
  %constant.32 = s32[] constant(0)
  %dynamic_slice.9 = f32[1,16,128,2048]{3,2,1,0} dynamic-slice(%Arg_0.9, %Arg_1.9, %constant.32, %constant.32, %constant.32), dynamic_slice_sizes={1,16,128,2048}, metadata={op_name="dynamic_slice" stack_frame_id=5}
  ROOT %squeeze.9 = f32[16,128,2048]{2,1,0} reshape(%dynamic_slice.9), metadata={op_name="squeeze" stack_frame_id=5}
}

%dynamic_index_in_dim_4.6 (Arg_0.11: f32[1,2048,16,192], Arg_1.11: s32[]) -> f32[2048,16,192] {
  %Arg_0.11 = f32[1,2048,16,192]{3,2,1,0} parameter(0)
  %Arg_1.11 = s32[] parameter(1)
  %constant.34 = s32[] constant(0)
  %dynamic_slice.11 = f32[1,2048,16,192]{3,2,1,0} dynamic-slice(%Arg_0.11, %Arg_1.11, %constant.34, %constant.34, %constant.34), dynamic_slice_sizes={1,2048,16,192}, metadata={op_name="dynamic_slice" stack_frame_id=5}
  ROOT %squeeze.11 = f32[2048,16,192]{2,1,0} reshape(%dynamic_slice.11), metadata={op_name="squeeze" stack_frame_id=5}
}

%dynamic_index_in_dim_5.7 (Arg_0.13: f32[1,2048,576], Arg_1.13: s32[]) -> f32[2048,576] {
  %Arg_0.13 = f32[1,2048,576]{2,1,0} parameter(0)
  %Arg_1.13 = s32[] parameter(1)
  %constant.36 = s32[] constant(0)
  %dynamic_slice.13 = f32[1,2048,576]{2,1,0} dynamic-slice(%Arg_0.13, %Arg_1.13, %constant.36, %constant.36), dynamic_slice_sizes={1,2048,576}, metadata={op_name="dynamic_slice" stack_frame_id=5}
  ROOT %squeeze.13 = f32[2048,576]{1,0} reshape(%dynamic_slice.13), metadata={op_name="squeeze" stack_frame_id=5}
}

%dynamic_index_in_dim_6.8 (Arg_0.15: f32[1,512,16,256], Arg_1.15: s32[]) -> f32[512,16,256] {
  %Arg_0.15 = f32[1,512,16,256]{3,2,1,0} parameter(0)
  %Arg_1.15 = s32[] parameter(1)
  %constant.38 = s32[] constant(0)
  %dynamic_slice.15 = f32[1,512,16,256]{3,2,1,0} dynamic-slice(%Arg_0.15, %Arg_1.15, %constant.38, %constant.38, %constant.38), dynamic_slice_sizes={1,512,16,256}, metadata={op_name="dynamic_slice" stack_frame_id=5}
  ROOT %squeeze.15 = f32[512,16,256]{2,1,0} reshape(%dynamic_slice.15), metadata={op_name="squeeze" stack_frame_id=5}
}

%dynamic_index_in_dim_7.9 (Arg_0.17: s32[1,1], Arg_1.17: s32[]) -> s32[1] {
  %Arg_0.17 = s32[1,1]{1,0} parameter(0)
  %Arg_1.17 = s32[] parameter(1)
  %constant.40 = s32[] constant(0)
  %dynamic_slice.17 = s32[1,1]{1,0} dynamic-slice(%Arg_0.17, %Arg_1.17, %constant.40), dynamic_slice_sizes={1,1}, metadata={op_name="dynamic_slice" stack_frame_id=10}
  ROOT %squeeze.17 = s32[1]{0} reshape(%dynamic_slice.17), metadata={op_name="squeeze" stack_frame_id=10}
}

%dynamic_index_in_dim_8.10 (Arg_0.19: s32[1,1,1984], Arg_1.19: s32[]) -> s32[1,1984] {
  %Arg_0.19 = s32[1,1,1984]{2,1,0} parameter(0)
  %Arg_1.19 = s32[] parameter(1)
  %constant.42 = s32[] constant(0)
  %dynamic_slice.19 = s32[1,1,1984]{2,1,0} dynamic-slice(%Arg_0.19, %Arg_1.19, %constant.42, %constant.42), dynamic_slice_sizes={1,1,1984}, metadata={op_name="dynamic_slice" stack_frame_id=10}
  ROOT %squeeze.19 = s32[1,1984]{1,0} reshape(%dynamic_slice.19), metadata={op_name="squeeze" stack_frame_id=10}
}

%dynamic_index_in_dim_9.11 (Arg_0.21: s32[1,1,64], Arg_1.21: s32[]) -> s32[1,64] {
  %Arg_0.21 = s32[1,1,64]{2,1,0} parameter(0)
  %Arg_1.21 = s32[] parameter(1)
  %constant.44 = s32[] constant(0)
  %dynamic_slice.21 = s32[1,1,64]{2,1,0} dynamic-slice(%Arg_0.21, %Arg_1.21, %constant.44, %constant.44), dynamic_slice_sizes={1,1,64}, metadata={op_name="dynamic_slice" stack_frame_id=10}
  ROOT %squeeze.21 = s32[1,64]{1,0} reshape(%dynamic_slice.21), metadata={op_name="squeeze" stack_frame_id=10}
}

%dynamic_index_in_dim_10.12 (Arg_0.23: bf16[1,1984,1,1,512], Arg_1.23: s32[]) -> bf16[1984,1,1,512] {
  %Arg_0.23 = bf16[1,1984,1,1,512]{4,3,2,1,0} parameter(0)
  %Arg_1.23 = s32[] parameter(1)
  %constant.46 = s32[] constant(0)
  %dynamic_slice.23 = bf16[1,1984,1,1,512]{4,3,2,1,0} dynamic-slice(%Arg_0.23, %Arg_1.23, %constant.46, %constant.46, %constant.46, /*index=5*/%constant.46), dynamic_slice_sizes={1,1984,1,1,512}, metadata={op_name="dynamic_slice" stack_frame_id=10}
  ROOT %squeeze.23 = bf16[1984,1,1,512]{3,2,1,0} reshape(%dynamic_slice.23), metadata={op_name="squeeze" stack_frame_id=10}
}

%dynamic_index_in_dim_11.13 (Arg_0.25: bf16[1,1984,1,1,64], Arg_1.25: s32[]) -> bf16[1984,1,1,64] {
  %Arg_0.25 = bf16[1,1984,1,1,64]{4,3,2,1,0} parameter(0)
  %Arg_1.25 = s32[] parameter(1)
  %constant.48 = s32[] constant(0)
  %dynamic_slice.25 = bf16[1,1984,1,1,64]{4,3,2,1,0} dynamic-slice(%Arg_0.25, %Arg_1.25, %constant.48, %constant.48, %constant.48, /*index=5*/%constant.48), dynamic_slice_sizes={1,1984,1,1,64}, metadata={op_name="dynamic_slice" stack_frame_id=10}
  ROOT %squeeze.25 = bf16[1984,1,1,64]{3,2,1,0} reshape(%dynamic_slice.25), metadata={op_name="squeeze" stack_frame_id=10}
}

%dynamic_index_in_dim_12.14 (Arg_0.27: bf16[1,64,1,1,512], Arg_1.27: s32[]) -> bf16[64,1,1,512] {
  %Arg_0.27 = bf16[1,64,1,1,512]{4,3,2,1,0} parameter(0)
  %Arg_1.27 = s32[] parameter(1)
  %constant.50 = s32[] constant(0)
  %dynamic_slice.27 = bf16[1,64,1,1,512]{4,3,2,1,0} dynamic-slice(%Arg_0.27, %Arg_1.27, %constant.50, %constant.50, %constant.50, /*index=5*/%constant.50), dynamic_slice_sizes={1,64,1,1,512}, metadata={op_name="dynamic_slice" stack_frame_id=10}
  ROOT %squeeze.27 = bf16[64,1,1,512]{3,2,1,0} reshape(%dynamic_slice.27), metadata={op_name="squeeze" stack_frame_id=10}
}

%dynamic_index_in_dim_13.15 (Arg_0.29: bf16[1,64,1,1,64], Arg_1.29: s32[]) -> bf16[64,1,1,64] {
  %Arg_0.29 = bf16[1,64,1,1,64]{4,3,2,1,0} parameter(0)
  %Arg_1.29 = s32[] parameter(1)
  %constant.52 = s32[] constant(0)
  %dynamic_slice.29 = bf16[1,64,1,1,64]{4,3,2,1,0} dynamic-slice(%Arg_0.29, %Arg_1.29, %constant.52, %constant.52, %constant.52, /*index=5*/%constant.52), dynamic_slice_sizes={1,64,1,1,64}, metadata={op_name="dynamic_slice" stack_frame_id=10}
  ROOT %squeeze.29 = bf16[64,1,1,64]{3,2,1,0} reshape(%dynamic_slice.29), metadata={op_name="squeeze" stack_frame_id=10}
}

%_where_16.25 (Arg_0.44: pred[1,1,1,1,64], Arg_1.44: f32[], Arg_2.12: f32[]) -> f32[1,1,1,1,64] {
  %Arg_0.44 = pred[1,1,1,1,64]{4,3,2,1,0} parameter(0)
  %Arg_1.44 = f32[] parameter(1)
  %broadcast_in_dim.36 = f32[1,1,1,1,64]{4,3,2,1,0} broadcast(%Arg_1.44), dimensions={}, metadata={op_name="broadcast_in_dim"}
  %Arg_2.12 = f32[] parameter(2)
  %broadcast_in_dim.37 = f32[1,1,1,1,64]{4,3,2,1,0} broadcast(%Arg_2.12), dimensions={}, metadata={op_name="broadcast_in_dim"}
  ROOT %select_n.14 = f32[1,1,1,1,64]{4,3,2,1,0} select(%Arg_0.44, %broadcast_in_dim.36, %broadcast_in_dim.37), metadata={op_name="select_n"}
}

%region_1.16 (reduce_sum.3: f32[], reduce_sum.4: f32[]) -> f32[] {
  %reduce_sum.3 = f32[] parameter(0), metadata={op_name="reduce_sum"}
  %reduce_sum.4 = f32[] parameter(1), metadata={op_name="reduce_sum"}
  ROOT %reduce_sum.5 = f32[] add(%reduce_sum.3, %reduce_sum.4), metadata={op_name="checkpoint/dense_layers/reduce_sum" stack_frame_id=17}
}

%clip.17 (Arg_0.32: f32[32], Arg_1.32: s32[], Arg_2.2: s32[]) -> f32[32] {
  %Arg_2.2 = s32[] parameter(2)
  %convert_element_type.8 = f32[] convert(%Arg_2.2), metadata={op_name="convert_element_type"}
  %min.2 = f32[32]{0} broadcast(%convert_element_type.8), dimensions={}, metadata={op_name="min"}
  %Arg_1.32 = s32[] parameter(1)
  %convert_element_type.7 = f32[] convert(%Arg_1.32), metadata={op_name="convert_element_type"}
  %max.2 = f32[32]{0} broadcast(%convert_element_type.7), dimensions={}, metadata={op_name="max"}
  %Arg_0.32 = f32[32]{0} parameter(0)
  %max.3 = f32[32]{0} maximum(%max.2, %Arg_0.32), metadata={op_name="max"}
  ROOT %min.3 = f32[32]{0} minimum(%min.2, %max.3), metadata={op_name="min"}
}

%_where_17.26 (Arg_0.46: pred[1,1,1,1,64], Arg_1.46: bf16[1,16,1,1,64], Arg_2.14: f32[]) -> bf16[1,16,1,1,64] {
  %Arg_0.46 = pred[1,1,1,1,64]{4,3,2,1,0} parameter(0)
  %broadcast_in_dim.42 = pred[1,1,1,1,64]{4,3,2,1,0} broadcast(%Arg_0.46), dimensions={0,1,2,3,4}, metadata={op_name="broadcast_in_dim"}
  %broadcast_in_dim.43 = pred[1,1,1,64]{3,2,1,0} reshape(%broadcast_in_dim.42), metadata={op_name="broadcast_in_dim"}
  %broadcast_in_dim.44 = pred[1,16,1,1,64]{4,3,2,1,0} broadcast(%broadcast_in_dim.43), dimensions={0,2,3,4}, metadata={op_name="broadcast_in_dim"}
  %Arg_1.46 = bf16[1,16,1,1,64]{4,3,2,1,0} parameter(1)
  %Arg_2.14 = f32[] parameter(2)
  %convert_element_type.24 = bf16[] convert(%Arg_2.14), metadata={op_name="convert_element_type"}
  %broadcast_in_dim.45 = bf16[1,16,1,1,64]{4,3,2,1,0} broadcast(%convert_element_type.24), dimensions={}, metadata={op_name="broadcast_in_dim"}
  ROOT %select_n.16 = bf16[1,16,1,1,64]{4,3,2,1,0} select(%broadcast_in_dim.44, %Arg_1.46, %broadcast_in_dim.45), metadata={op_name="select_n"}
}

%region_4.27 (reduce_max.3: bf16[], reduce_max.4: bf16[]) -> bf16[] {
  %reduce_max.3 = bf16[] parameter(0), metadata={op_name="reduce_max"}
  %reduce_max.4 = bf16[] parameter(1), metadata={op_name="reduce_max"}
  ROOT %reduce_max.5 = bf16[] maximum(%reduce_max.3, %reduce_max.4), metadata={op_name="checkpoint/dense_layers/reduce_max" stack_frame_id=36}
}

%dynamic_update_index_in_dim_15.21 (Arg_0.38: s32[1,1984], Arg_1.38: s32[1,1], Arg_2.8: s32[]) -> s32[1,1984] {
  %Arg_0.38 = s32[1,1984]{1,0} parameter(0)
  %Arg_1.38 = s32[1,1]{1,0} parameter(1)
  %constant.96 = s32[] constant(0)
  %Arg_2.8 = s32[] parameter(2)
  %lt.8 = pred[] compare(%Arg_2.8, %constant.96), direction=LT, metadata={op_name="lt"}
  %constant.95 = s32[] constant(1984)
  %add.14 = s32[] add(%Arg_2.8, %constant.95), metadata={op_name="add"}
  %select_n.8 = s32[] select(%lt.8, %add.14, %Arg_2.8), metadata={op_name="select_n"}
  ROOT %dynamic_update_slice.5 = s32[1,1984]{1,0} dynamic-update-slice(%Arg_0.38, %Arg_1.38, %constant.96, %select_n.8), metadata={op_name="dynamic_update_slice"}
}

%_where_18.29 (Arg_0.48: pred[1,1,1,1,1984], Arg_1.48: f32[], Arg_2.16: f32[]) -> f32[1,1,1,1,1984] {
  %Arg_0.48 = pred[1,1,1,1,1984]{4,3,2,1,0} parameter(0)
  %Arg_1.48 = f32[] parameter(1)
  %broadcast_in_dim.52 = f32[1,1,1,1,1984]{4,3,2,1,0} broadcast(%Arg_1.48), dimensions={}, metadata={op_name="broadcast_in_dim"}
  %Arg_2.16 = f32[] parameter(2)
  %broadcast_in_dim.53 = f32[1,1,1,1,1984]{4,3,2,1,0} broadcast(%Arg_2.16), dimensions={}, metadata={op_name="broadcast_in_dim"}
  ROOT %select_n.18 = f32[1,1,1,1,1984]{4,3,2,1,0} select(%Arg_0.48, %broadcast_in_dim.52, %broadcast_in_dim.53), metadata={op_name="select_n"}
}

%region_2.18 (reduce_sum.10: f32[], reduce_sum.11: f32[]) -> f32[] {
  %reduce_sum.10 = f32[] parameter(0), metadata={op_name="reduce_sum"}
  %reduce_sum.11 = f32[] parameter(1), metadata={op_name="reduce_sum"}
  ROOT %reduce_sum.12 = f32[] add(%reduce_sum.10, %reduce_sum.11), metadata={op_name="checkpoint/dense_layers/reduce_sum" stack_frame_id=24}
}

%dynamic_update_index_in_dim.19 (Arg_0.34: bf16[1984,1,1,512], Arg_1.34: bf16[1,1,1,512], Arg_2.4: s32[]) -> bf16[1984,1,1,512] {
  %Arg_0.34 = bf16[1984,1,1,512]{3,2,1,0} parameter(0)
  %Arg_1.34 = bf16[1,1,1,512]{3,2,1,0} parameter(1)
  %Arg_2.4 = s32[] parameter(2)
  %constant.88 = s32[] constant(0)
  %lt.4 = pred[] compare(%Arg_2.4, %constant.88), direction=LT, metadata={op_name="lt"}
  %constant.87 = s32[] constant(1984)
  %add.10 = s32[] add(%Arg_2.4, %constant.87), metadata={op_name="add"}
  %select_n.4 = s32[] select(%lt.4, %add.10, %Arg_2.4), metadata={op_name="select_n"}
  ROOT %dynamic_update_slice.1 = bf16[1984,1,1,512]{3,2,1,0} dynamic-update-slice(%Arg_0.34, %Arg_1.34, %select_n.4, %constant.88, %constant.88, /*index=5*/%constant.88), metadata={op_name="dynamic_update_slice"}
}

%dynamic_update_index_in_dim_14.20 (Arg_0.36: bf16[1984,1,1,64], Arg_1.36: bf16[1,1,1,64], Arg_2.6: s32[]) -> bf16[1984,1,1,64] {
  %Arg_0.36 = bf16[1984,1,1,64]{3,2,1,0} parameter(0)
  %Arg_1.36 = bf16[1,1,1,64]{3,2,1,0} parameter(1)
  %Arg_2.6 = s32[] parameter(2)
  %constant.92 = s32[] constant(0)
  %lt.6 = pred[] compare(%Arg_2.6, %constant.92), direction=LT, metadata={op_name="lt"}
  %constant.91 = s32[] constant(1984)
  %add.12 = s32[] add(%Arg_2.6, %constant.91), metadata={op_name="add"}
  %select_n.6 = s32[] select(%lt.6, %add.12, %Arg_2.6), metadata={op_name="select_n"}
  ROOT %dynamic_update_slice.3 = bf16[1984,1,1,64]{3,2,1,0} dynamic-update-slice(%Arg_0.36, %Arg_1.36, %select_n.6, %constant.92, %constant.92, /*index=5*/%constant.92), metadata={op_name="dynamic_update_slice"}
}

%_where_19.30 (Arg_0.50: pred[1,1,1,1,1984], Arg_1.50: bf16[1,16,1,1,1984], Arg_2.18: f32[]) -> bf16[1,16,1,1,1984] {
  %Arg_0.50 = pred[1,1,1,1,1984]{4,3,2,1,0} parameter(0)
  %broadcast_in_dim.58 = pred[1,1,1,1,1984]{4,3,2,1,0} broadcast(%Arg_0.50), dimensions={0,1,2,3,4}, metadata={op_name="broadcast_in_dim"}
  %broadcast_in_dim.59 = pred[1,1,1,1984]{3,2,1,0} reshape(%broadcast_in_dim.58), metadata={op_name="broadcast_in_dim"}
  %broadcast_in_dim.60 = pred[1,16,1,1,1984]{4,3,2,1,0} broadcast(%broadcast_in_dim.59), dimensions={0,2,3,4}, metadata={op_name="broadcast_in_dim"}
  %Arg_1.50 = bf16[1,16,1,1,1984]{4,3,2,1,0} parameter(1)
  %Arg_2.18 = f32[] parameter(2)
  %convert_element_type.28 = bf16[] convert(%Arg_2.18), metadata={op_name="convert_element_type"}
  %broadcast_in_dim.61 = bf16[1,16,1,1,1984]{4,3,2,1,0} broadcast(%convert_element_type.28), dimensions={}, metadata={op_name="broadcast_in_dim"}
  ROOT %select_n.20 = bf16[1,16,1,1,1984]{4,3,2,1,0} select(%broadcast_in_dim.60, %Arg_1.50, %broadcast_in_dim.61), metadata={op_name="select_n"}
}

%region_6.31 (reduce_max.10: bf16[], reduce_max.11: bf16[]) -> bf16[] {
  %reduce_max.10 = bf16[] parameter(0), metadata={op_name="reduce_max"}
  %reduce_max.11 = bf16[] parameter(1), metadata={op_name="reduce_max"}
  ROOT %reduce_max.12 = bf16[] maximum(%reduce_max.10, %reduce_max.11), metadata={op_name="checkpoint/dense_layers/reduce_max" stack_frame_id=41}
}

%region_5.28 (reduce_sum.17: f32[], reduce_sum.18: f32[]) -> f32[] {
  %reduce_sum.17 = f32[] parameter(0), metadata={op_name="reduce_sum"}
  %reduce_sum.18 = f32[] parameter(1), metadata={op_name="reduce_sum"}
  ROOT %reduce_sum.19 = f32[] add(%reduce_sum.17, %reduce_sum.18), metadata={op_name="checkpoint/dense_layers/reduce_sum" stack_frame_id=37}
}

%region_7.32 (reduce_sum.24: f32[], reduce_sum.25: f32[]) -> f32[] {
  %reduce_sum.24 = f32[] parameter(0), metadata={op_name="reduce_sum"}
  %reduce_sum.25 = f32[] parameter(1), metadata={op_name="reduce_sum"}
  ROOT %reduce_sum.26 = f32[] add(%reduce_sum.24, %reduce_sum.25), metadata={op_name="checkpoint/dense_layers/reduce_sum" stack_frame_id=42}
}

%region_8.33 (reduce_sum.31: f32[], reduce_sum.32: f32[]) -> f32[] {
  %reduce_sum.31 = f32[] parameter(0), metadata={op_name="reduce_sum"}
  %reduce_sum.32 = f32[] parameter(1), metadata={op_name="reduce_sum"}
  ROOT %reduce_sum.33 = f32[] add(%reduce_sum.31, %reduce_sum.32), metadata={op_name="checkpoint/dense_layers/reduce_sum" stack_frame_id=46}
}

%silu.34 (Arg_0.52: bf16[1,1,10944]) -> bf16[1,1,10944] {
  %Arg_0.52 = bf16[1,1,10944]{2,1,0} parameter(0)
  %constant.104 = bf16[] constant(1)
  %broadcast.13 = bf16[1,1,10944]{2,1,0} broadcast(%constant.104), dimensions={}
  %neg.1 = bf16[1,1,10944]{2,1,0} negate(%Arg_0.52), metadata={op_name="neg"}
  %exp.45 = bf16[1,1,10944]{2,1,0} exponential(%neg.1), metadata={op_name="exp"}
  %add.27 = bf16[1,1,10944]{2,1,0} add(%exp.45, %broadcast.13), metadata={op_name="add"}
  %div.14 = bf16[1,1,10944]{2,1,0} divide(%broadcast.13, %add.27), metadata={op_name="div"}
  ROOT %mul.53 = bf16[1,1,10944]{2,1,0} multiply(%Arg_0.52, %div.14), metadata={op_name="mul"}
}

%_where.22 (Arg_0.41: pred[], Arg_1.41: s32[], Arg_2.10: s32[]) -> s32[] {
  %Arg_0.41 = pred[] parameter(0)
  %Arg_1.41 = s32[] parameter(1)
  %Arg_2.10 = s32[] parameter(2)
  ROOT %select_n.10 = s32[] select(%Arg_0.41, %Arg_1.41, %Arg_2.10), metadata={op_name="select_n"}
}

%remainder.23 (Arg_0.42: s32[1], Arg_1.42: s32[]) -> s32[1] {
  %Arg_0.42 = s32[1]{0} parameter(0)
  %Arg_1.42 = s32[] parameter(1)
  %constant.102 = s32[] constant(0)
  %eq.3 = pred[] compare(%Arg_1.42, %constant.102), direction=EQ, metadata={op_name="eq"}
  %constant.101 = s32[] constant(1)
  %jit__where_.1 = s32[] call(%eq.3, %constant.101, %Arg_1.42), to_apply=%_where.22, metadata={op_name="jit(_where)"}
  %rem.2 = s32[1]{0} reshape(%jit__where_.1), metadata={op_name="rem"}
  %rem.3 = s32[1]{0} remainder(%Arg_0.42, %rem.2), metadata={op_name="rem"}
  %constant.100 = s32[1]{0} constant({0})
  %lt.11 = pred[1]{0} compare(%rem.3, %constant.100), direction=LT, metadata={op_name="lt"}
  %lt.12 = pred[] compare(%jit__where_.1, %constant.102), direction=LT, metadata={op_name="lt"}
  %ne.4 = pred[1]{0} reshape(%lt.12), metadata={op_name="ne"}
  %ne.5 = pred[1]{0} compare(%lt.11, %ne.4), direction=NE, metadata={op_name="ne"}
  %ne.3 = pred[1]{0} compare(%rem.3, %constant.100), direction=NE, metadata={op_name="ne"}
  %and.1 = pred[1]{0} and(%ne.5, %ne.3), metadata={op_name="and"}
  %add.18 = s32[1]{0} reshape(%jit__where_.1), metadata={op_name="add"}
  %add.19 = s32[1]{0} add(%rem.3, %add.18), metadata={op_name="add"}
  ROOT %select_n.12 = s32[1]{0} select(%and.1, %add.19, %rem.3), metadata={op_name="select_n"}
}

%region_3.24 (scatter-add.2: s32[], scatter-add.3: s32[]) -> s32[] {
  %scatter-add.2 = s32[] parameter(0), metadata={op_name="scatter-add"}
  %scatter-add.3 = s32[] parameter(1), metadata={op_name="scatter-add"}
  ROOT %add.21 = s32[] add(%scatter-add.2, %scatter-add.3), metadata={op_name="checkpoint/dense_layers/add" stack_frame_id=30}
}

%closed_call.35 (Arg_0.53: s32[0], Arg_1.51: s32[1,1], Arg_2.19: bf16[1,1,2048], Arg_3.1: f32[2048,10944], Arg_4.1: f32[2048,10944], Arg_5.1: f32[10944,2048], Arg_6.1: f32[2048], Arg_7.1: f32[2048], Arg_8.1: f32[512], Arg_9.1: f32[16,128,2048], Arg_10.1: f32[2048,16,192], Arg_11.1: f32[2048,576], Arg_12.1: f32[512,16,256], Arg_13.1: s32[1], Arg_14.1: s32[1,1984], Arg_15.1: s32[1,64], Arg_16.1: bf16[1984,1,1,512], Arg_17.1: s32[1], Arg_18.1: bf16[1984,1,1,64], Arg_19.1: bf16[64,1,1,512], Arg_20.1: bf16[64,1,1,64]) -> (bf16[1,1,2048], s32[1], s32[1,1984], s32[1,64], bf16[1984,1,1,512], /*index=5*/s32[1], bf16[1984,1,1,64], bf16[64,1,1,512], bf16[64,1,1,64]) {
  %Arg_0.53 = s32[0]{0} parameter(0)
  %Arg_6.1 = f32[2048]{0} parameter(6)
  %convert_element_type.63 = bf16[2048]{0} convert(%Arg_6.1), metadata={op_name="checkpoint/dense_layers/convert_element_type" stack_frame_id=47}
  %Arg_2.19 = bf16[1,1,2048]{2,1,0} parameter(2)
  %sharding_constraint.21 = bf16[1,1,2048]{2,1,0} custom-call(%Arg_2.19), custom_call_target="Sharding", sharding={replicated}, frontend_attributes={xla.sdy.sharding="#sdy.sharding_per_value<[<@mesh, [{}, {}, {}]>]>"}, metadata={op_name="checkpoint/dense_layers/sharding_constraint" stack_frame_id=51}
  %Arg_15.1 = s32[1,64]{1,0} parameter(15)
  %broadcast_in_dim.86 = s32[1,1,1,1,64]{4,3,2,1,0} reshape(%Arg_15.1), metadata={op_name="checkpoint/dense_layers/broadcast_in_dim" stack_frame_id=53}
  %constant.108 = s32[] constant(1)
  %eq.7 = s32[1,1,1,1,64]{4,3,2,1,0} broadcast(%constant.108), dimensions={}, metadata={op_name="checkpoint/dense_layers/eq" stack_frame_id=53}
  %eq.8 = pred[1,1,1,1,64]{4,3,2,1,0} compare(%broadcast_in_dim.86, %eq.7), direction=EQ, metadata={op_name="checkpoint/dense_layers/eq" stack_frame_id=53}
  %constant.136 = f32[] constant(0)
  %constant.132 = f32[] constant(-2.38197633e+38)
  %jit__where_.6 = f32[1,1,1,1,64]{4,3,2,1,0} call(%eq.8, %constant.136, %constant.132), to_apply=%_where_16.25, metadata={op_name="checkpoint/dense_layers/jit(_where)" stack_frame_id=54}
  %constant.107 = f32[] constant(-1.19098816e+38)
  %ge.5 = f32[1,1,1,1,64]{4,3,2,1,0} broadcast(%constant.107), dimensions={}, metadata={op_name="checkpoint/dense_layers/ge" stack_frame_id=56}
  %ge.6 = pred[1,1,1,1,64]{4,3,2,1,0} compare(%jit__where_.6, %ge.5), direction=GE, metadata={op_name="checkpoint/dense_layers/ge" stack_frame_id=56}
  %Arg_19.1 = bf16[64,1,1,512]{3,2,1,0} parameter(19)
  %transpose.27 = bf16[1,64,512]{2,1,0} reshape(%Arg_19.1), metadata={op_name="checkpoint/dense_layers/reshape;checkpoint/dense_layers/transpose"}
  %Arg_12.1 = f32[512,16,256]{2,1,0} parameter(12)
  %convert_element_type.54 = bf16[512,16,256]{2,1,0} convert(%Arg_12.1), metadata={op_name="checkpoint/dense_layers/convert_element_type" stack_frame_id=60}
  %dot_general.19 = bf16[1,64,16,256]{3,2,1,0} dot(%transpose.27, %convert_element_type.54), lhs_contracting_dims={2}, rhs_contracting_dims={0}, metadata={op_name="checkpoint/dense_layers/dot_general" stack_frame_id=62}
  %split.12 = bf16[1,64,16,128]{3,2,1,0} slice(%dot_general.19), slice={[0:1], [0:64], [0:16], [0:128]}, metadata={op_name="checkpoint/dense_layers/split" stack_frame_id=63}
  %sharding_constraint.28 = bf16[1,64,16,128]{3,2,1,0} custom-call(%split.12), custom_call_target="Sharding", sharding={replicated}, frontend_attributes={xla.sdy.sharding="#sdy.sharding_per_value<[<@mesh, [{}, {}, {}, {}]>]>"}, metadata={op_name="checkpoint/dense_layers/sharding_constraint" stack_frame_id=66}
  %Arg_20.1 = bf16[64,1,1,64]{3,2,1,0} parameter(20)
  %transpose.25 = bf16[1,64,1,64]{3,2,1,0} reshape(%Arg_20.1), metadata={op_name="checkpoint/dense_layers/transpose" stack_frame_id=70}
  %broadcast_in_dim.80 = bf16[1,64,1,64]{3,2,1,0} broadcast(%transpose.25), dimensions={0,1,2,3}, metadata={op_name="checkpoint/dense_layers/broadcast_in_dim" stack_frame_id=71}
  %broadcast_in_dim.81 = bf16[1,64,64]{2,1,0} reshape(%broadcast_in_dim.80), metadata={op_name="checkpoint/dense_layers/broadcast_in_dim" stack_frame_id=71}
  %broadcast_in_dim.82 = bf16[1,64,16,64]{3,2,1,0} broadcast(%broadcast_in_dim.81), dimensions={0,1,3}, metadata={op_name="checkpoint/dense_layers/broadcast_in_dim" stack_frame_id=71}
  %sharding_constraint.29 = bf16[1,64,16,64]{3,2,1,0} custom-call(%broadcast_in_dim.82), custom_call_target="Sharding", sharding={replicated}, frontend_attributes={xla.sdy.sharding="#sdy.sharding_per_value<[<@mesh, [{}, {}, {}, {}]>]>"}, metadata={op_name="checkpoint/dense_layers/sharding_constraint" stack_frame_id=74}
  %concatenate.8 = bf16[1,64,16,192]{3,2,1,0} concatenate(%sharding_constraint.28, %sharding_constraint.29), dimensions={3}, metadata={op_name="checkpoint/dense_layers/concatenate" stack_frame_id=75}
  %sharding_constraint.30 = bf16[1,64,16,192]{3,2,1,0} custom-call(%concatenate.8), custom_call_target="Sharding", sharding={replicated}, frontend_attributes={xla.sdy.sharding="#sdy.sharding_per_value<[<@mesh, [{}, {}, {}, {}]>]>"}, metadata={op_name="checkpoint/dense_layers/sharding_constraint" stack_frame_id=78}
  %Arg_7.1 = f32[2048]{0} parameter(7)
  %convert_element_type.40 = bf16[2048]{0} convert(%Arg_7.1), metadata={op_name="checkpoint/dense_layers/convert_element_type" stack_frame_id=79}
  %convert_element_type.38 = f32[1,1,2048]{2,1,0} convert(%sharding_constraint.21), metadata={op_name="checkpoint/dense_layers/convert_element_type" stack_frame_id=80}
  %square.3 = f32[1,1,2048]{2,1,0} multiply(%convert_element_type.38, %convert_element_type.38), metadata={op_name="checkpoint/dense_layers/square" stack_frame_id=81}
  %reduce_sum.35 = f32[1,1]{1,0} reduce(%square.3, %constant.136), dimensions={2}, to_apply=%region_1.16, metadata={op_name="checkpoint/dense_layers/reduce_sum" stack_frame_id=17}
  %broadcast_in_dim.66 = f32[1,1,1]{2,1,0} reshape(%reduce_sum.35), metadata={op_name="checkpoint/dense_layers/broadcast_in_dim" stack_frame_id=17}
  %constant.127 = f32[1,1,1]{2,1,0} constant({ { {2048} } })
  %div.15 = f32[1,1,1]{2,1,0} divide(%broadcast_in_dim.66, %constant.127), metadata={op_name="checkpoint/dense_layers/div" stack_frame_id=17}
  %constant.126 = f32[1,1,1]{2,1,0} constant({ { {1e-06} } })
  %add.29 = f32[1,1,1]{2,1,0} add(%div.15, %constant.126), metadata={op_name="checkpoint/dense_layers/add" stack_frame_id=82}
  %rsqrt.3 = f32[1,1,1]{2,1,0} rsqrt(%add.29), metadata={op_name="checkpoint/dense_layers/rsqrt" stack_frame_id=83}
  %mul.58 = f32[1,1,1]{2,1,0} broadcast(%rsqrt.3), dimensions={0,1,2}, metadata={op_name="checkpoint/dense_layers/mul" stack_frame_id=84}
  %mul.59 = f32[1,1]{1,0} reshape(%mul.58), metadata={op_name="checkpoint/dense_layers/mul" stack_frame_id=84}
  %mul.60 = f32[1,1,2048]{2,1,0} broadcast(%mul.59), dimensions={0,1}, metadata={op_name="checkpoint/dense_layers/mul" stack_frame_id=84}
  %mul.61 = f32[1,1,2048]{2,1,0} multiply(%convert_element_type.38, %mul.60), metadata={op_name="checkpoint/dense_layers/mul" stack_frame_id=84}
  %convert_element_type.39 = bf16[1,1,2048]{2,1,0} convert(%mul.61), metadata={op_name="checkpoint/dense_layers/convert_element_type" stack_frame_id=85}
  %dot_general.15 = bf16[2048,1,1]{2,1,0} dot(%convert_element_type.40, %convert_element_type.39), lhs_batch_dims={0}, lhs_contracting_dims={}, rhs_batch_dims={2}, rhs_contracting_dims={}, metadata={op_name="checkpoint/dense_layers/...k,k->...k/dot_general" stack_frame_id=86}
  %transpose.23 = bf16[1,1,2048]{2,1,0} reshape(%dot_general.15), metadata={op_name="checkpoint/dense_layers/...k,k->...k/transpose" stack_frame_id=86}
  %sharding_constraint.22 = bf16[1,1,2048]{2,1,0} custom-call(%transpose.23), custom_call_target="Sharding", sharding={replicated}, frontend_attributes={xla.sdy.sharding="#sdy.sharding_per_value<[<@mesh, [{}, {}, {}]>]>"}, metadata={op_name="checkpoint/dense_layers/sharding_constraint" stack_frame_id=90}
  %sharding_constraint.23 = bf16[1,1,2048]{2,1,0} custom-call(%sharding_constraint.22), custom_call_target="Sharding", sharding={replicated}, frontend_attributes={xla.sdy.sharding="#sdy.sharding_per_value<[<@mesh, [{}, {}, {}]>]>"}, metadata={op_name="checkpoint/dense_layers/sharding_constraint" stack_frame_id=93}
  %Arg_10.1 = f32[2048,16,192]{2,1,0} parameter(10)
  %convert_element_type.41 = bf16[2048,16,192]{2,1,0} convert(%Arg_10.1), metadata={op_name="checkpoint/dense_layers/convert_element_type" stack_frame_id=97}
  %dot_general.16 = bf16[1,1,16,192]{3,2,1,0} dot(%sharding_constraint.23, %convert_element_type.41), lhs_contracting_dims={2}, rhs_contracting_dims={0}, metadata={op_name="checkpoint/dense_layers/dot_general" stack_frame_id=99}
  %split.8 = bf16[1,1,16,128]{3,2,1,0} slice(%dot_general.16), slice={[0:1], [0:1], [0:16], [0:128]}, metadata={op_name="checkpoint/dense_layers/split" stack_frame_id=100}
  %sharding_constraint.25 = bf16[1,1,16,128]{3,2,1,0} custom-call(%split.8), custom_call_target="Sharding", sharding={replicated}, frontend_attributes={xla.sdy.sharding="#sdy.sharding_per_value<[<@mesh, [{}, {}, {}, {}]>]>"}, metadata={op_name="checkpoint/dense_layers/sharding_constraint" stack_frame_id=103}
  %split.9 = bf16[1,1,16,64]{3,2,1,0} slice(%dot_general.16), slice={[0:1], [0:1], [0:16], [128:192]}, metadata={op_name="checkpoint/dense_layers/split" stack_frame_id=100}
  %reshape.7 = bf16[1,1,16,32,2]{4,3,2,1,0} reshape(%split.9), metadata={op_name="checkpoint/dense_layers/reshape" stack_frame_id=107}
  %slice.4 = bf16[1,1,16,32,1]{4,3,2,1,0} slice(%reshape.7), slice={[0:1], [0:1], [0:16], [0:32], [0:1]}, metadata={op_name="checkpoint/dense_layers/slice" stack_frame_id=108}
  %squeeze.36 = bf16[1,1,16,32]{3,2,1,0} reshape(%slice.4), metadata={op_name="checkpoint/dense_layers/squeeze" stack_frame_id=108}
  %convert_element_type.44 = c64[1,1,16,32]{3,2,1,0} convert(%squeeze.36), metadata={op_name="checkpoint/dense_layers/convert_element_type" stack_frame_id=109}
  %slice.5 = bf16[1,1,16,32,1]{4,3,2,1,0} slice(%reshape.7), slice={[0:1], [0:1], [0:16], [0:32], [1:2]}, metadata={op_name="checkpoint/dense_layers/slice" stack_frame_id=110}
  %squeeze.37 = bf16[1,1,16,32]{3,2,1,0} reshape(%slice.5), metadata={op_name="checkpoint/dense_layers/squeeze" stack_frame_id=110}
  %convert_element_type.43 = c64[1,1,16,32]{3,2,1,0} convert(%squeeze.37), metadata={op_name="checkpoint/dense_layers/convert_element_type" stack_frame_id=111}
  %constant.115 = c64[] constant((0, 1))
  %mul.57 = c64[1,1,16,32]{3,2,1,0} broadcast(%constant.115), dimensions={}, metadata={op_name="checkpoint/dense_layers/mul" stack_frame_id=111}
  %mul.73 = c64[1,1,16,32]{3,2,1,0} multiply(%convert_element_type.43, %mul.57), metadata={op_name="checkpoint/dense_layers/mul" stack_frame_id=111}
  %add.32 = c64[1,1,16,32]{3,2,1,0} add(%convert_element_type.44, %mul.73), metadata={op_name="checkpoint/dense_layers/add" stack_frame_id=109}
  %iota.8 = f32[163840]{0} iota(), iota_dimension=0, metadata={op_name="checkpoint/dense_layers/iota" stack_frame_id=113}
  %broadcast_in_dim.67 = f32[163840,1]{1,0} reshape(%iota.8), metadata={op_name="checkpoint/dense_layers/broadcast_in_dim" stack_frame_id=114}
  %mul.65 = f32[163840,1]{1,0} broadcast(%broadcast_in_dim.67), dimensions={0,1}, metadata={op_name="checkpoint/dense_layers/mul" stack_frame_id=114}
  %mul.66 = f32[163840]{0} reshape(%mul.65), metadata={op_name="checkpoint/dense_layers/mul" stack_frame_id=114}
  %mul.67 = f32[163840,32]{1,0} broadcast(%mul.66), dimensions={0}, metadata={op_name="checkpoint/dense_layers/mul" stack_frame_id=114}
  %constant.122 = f32[] constant(1)
  %broadcast.18 = f32[32]{0} broadcast(%constant.122), dimensions={}
  %constant.123 = f32[] constant(10000)
  %broadcast.19 = f32[32]{0} broadcast(%constant.123), dimensions={}
  %iota.6 = f32[32]{0} iota(), iota_dimension=0, metadata={op_name="checkpoint/dense_layers/iota" stack_frame_id=115}
  %constant.125 = f32[] constant(2)
  %broadcast.21 = f32[32]{0} broadcast(%constant.125), dimensions={}
  %mul.62 = f32[32]{0} multiply(%iota.6, %broadcast.21), metadata={op_name="checkpoint/dense_layers/mul" stack_frame_id=116}
  %constant.124 = f32[] constant(64)
  %broadcast.20 = f32[32]{0} broadcast(%constant.124), dimensions={}
  %div.16 = f32[32]{0} divide(%mul.62, %broadcast.20), metadata={op_name="checkpoint/dense_layers/div" stack_frame_id=116}
  %pow.2 = f32[32]{0} power(%broadcast.19, %div.16), metadata={op_name="checkpoint/dense_layers/pow" stack_frame_id=117}
  %div.17 = f32[32]{0} divide(%broadcast.18, %pow.2), metadata={op_name="checkpoint/dense_layers/div" stack_frame_id=118}
  %constant.119 = f32[] constant(40)
  %broadcast.15 = f32[32]{0} broadcast(%constant.119), dimensions={}
  %div.19 = f32[32]{0} divide(%div.17, %broadcast.15), metadata={op_name="checkpoint/dense_layers/div" stack_frame_id=119}
  %iota.7 = f32[32]{0} iota(), iota_dimension=0, metadata={op_name="checkpoint/dense_layers/iota" stack_frame_id=121}
  %constant.121 = f32[] constant(10)
  %broadcast.17 = f32[32]{0} broadcast(%constant.121), dimensions={}
  %sub.18 = f32[32]{0} subtract(%iota.7, %broadcast.17), metadata={op_name="checkpoint/dense_layers/sub" stack_frame_id=121}
  %constant.120 = f32[] constant(13)
  %broadcast.16 = f32[32]{0} broadcast(%constant.120), dimensions={}
  %div.18 = f32[32]{0} divide(%sub.18, %broadcast.16), metadata={op_name="checkpoint/dense_layers/div" stack_frame_id=122}
  %constant.135 = s32[] constant(0)
  %constant.134 = s32[] constant(1)
  %jit_clip_.2 = f32[32]{0} call(%div.18, %constant.135, %constant.134), to_apply=%clip.17, metadata={op_name="checkpoint/dense_layers/jit(clip)" stack_frame_id=123}
  %sub.19 = f32[32]{0} subtract(%broadcast.18, %jit_clip_.2), metadata={op_name="checkpoint/dense_layers/sub" stack_frame_id=124}
  %sub.20 = f32[32]{0} subtract(%broadcast.18, %sub.19), metadata={op_name="checkpoint/dense_layers/sub" stack_frame_id=125}
  %mul.63 = f32[32]{0} multiply(%div.19, %sub.20), metadata={op_name="checkpoint/dense_layers/mul" stack_frame_id=119}
  %mul.64 = f32[32]{0} multiply(%div.17, %sub.19), metadata={op_name="checkpoint/dense_layers/mul" stack_frame_id=126}
  %add.30 = f32[32]{0} add(%mul.63, %mul.64), metadata={op_name="checkpoint/dense_layers/add" stack_frame_id=119}
  %broadcast_in_dim.68 = f32[1,32]{1,0} reshape(%add.30), metadata={op_name="checkpoint/dense_layers/broadcast_in_dim" stack_frame_id=114}
  %mul.68 = f32[1,32]{1,0} broadcast(%broadcast_in_dim.68), dimensions={0,1}, metadata={op_name="checkpoint/dense_layers/mul" stack_frame_id=114}
  %mul.69 = f32[32]{0} reshape(%mul.68), metadata={op_name="checkpoint/dense_layers/mul" stack_frame_id=114}
  %mul.70 = f32[163840,32]{1,0} broadcast(%mul.69), dimensions={1}, metadata={op_name="checkpoint/dense_layers/mul" stack_frame_id=114}
  %mul.71 = f32[163840,32]{1,0} multiply(%mul.67, %mul.70), metadata={op_name="checkpoint/dense_layers/mul" stack_frame_id=114}
  %convert_element_type.42 = c64[163840,32]{1,0} convert(%mul.71), metadata={op_name="checkpoint/dense_layers/convert_element_type" stack_frame_id=127}
  %constant.118 = c64[] constant((0, 1))
  %broadcast.14 = c64[163840,32]{1,0} broadcast(%constant.118), dimensions={}
  %mul.72 = c64[163840,32]{1,0} multiply(%convert_element_type.42, %broadcast.14), metadata={op_name="checkpoint/dense_layers/mul" stack_frame_id=127}
  %exp.46 = f32[163840,32]{1,0} real(%mul.72), metadata={op_name="checkpoint/dense_layers/exp" stack_frame_id=128}
  %exp.47 = f32[163840,32]{1,0} exponential(%exp.46), metadata={op_name="checkpoint/dense_layers/exp" stack_frame_id=128}
  %constant.130 = f32[] constant(inf)
  %broadcast.24 = f32[163840,32]{1,0} broadcast(%constant.130), dimensions={}
  %exp.48 = pred[163840,32]{1,0} compare(%exp.47, %broadcast.24), direction=EQ, metadata={op_name="checkpoint/dense_layers/exp" stack_frame_id=128}
  %constant.129 = f32[] constant(0.5)
  %broadcast.23 = f32[163840,32]{1,0} broadcast(%constant.129), dimensions={}
  %exp.49 = f32[163840,32]{1,0} multiply(%exp.46, %broadcast.23), metadata={op_name="checkpoint/dense_layers/exp" stack_frame_id=128}
  %exp.50 = f32[163840,32]{1,0} exponential(%exp.49), metadata={op_name="checkpoint/dense_layers/exp" stack_frame_id=128}
  %exp.51 = f32[163840,32]{1,0} imag(%mul.72), metadata={op_name="checkpoint/dense_layers/exp" stack_frame_id=128}
  %exp.52 = f32[163840,32]{1,0} cosine(%exp.51), metadata={op_name="checkpoint/dense_layers/exp" stack_frame_id=128}
  %exp.53 = f32[163840,32]{1,0} multiply(%exp.50, %exp.52), metadata={op_name="checkpoint/dense_layers/exp" stack_frame_id=128}
  %exp.54 = f32[163840,32]{1,0} multiply(%exp.53, %exp.50), metadata={op_name="checkpoint/dense_layers/exp" stack_frame_id=128}
  %exp.55 = f32[163840,32]{1,0} multiply(%exp.47, %exp.52), metadata={op_name="checkpoint/dense_layers/exp" stack_frame_id=128}
  %exp.56 = f32[163840,32]{1,0} select(%exp.48, %exp.54, %exp.55), metadata={op_name="checkpoint/dense_layers/exp" stack_frame_id=128}
  %constant.128 = f32[] constant(0)
  %broadcast.22 = f32[163840,32]{1,0} broadcast(%constant.128), dimensions={}
  %exp.57 = pred[163840,32]{1,0} compare(%exp.51, %broadcast.22), direction=EQ, metadata={op_name="checkpoint/dense_layers/exp" stack_frame_id=128}
  %exp.58 = f32[163840,32]{1,0} sine(%exp.51), metadata={op_name="checkpoint/dense_layers/exp" stack_frame_id=128}
  %exp.59 = f32[163840,32]{1,0} multiply(%exp.50, %exp.58), metadata={op_name="checkpoint/dense_layers/exp" stack_frame_id=128}
  %exp.60 = f32[163840,32]{1,0} multiply(%exp.59, %exp.50), metadata={op_name="checkpoint/dense_layers/exp" stack_frame_id=128}
  %exp.61 = f32[163840,32]{1,0} multiply(%exp.47, %exp.58), metadata={op_name="checkpoint/dense_layers/exp" stack_frame_id=128}
  %exp.62 = f32[163840,32]{1,0} select(%exp.48, %exp.60, %exp.61), metadata={op_name="checkpoint/dense_layers/exp" stack_frame_id=128}
  %exp.63 = f32[163840,32]{1,0} select(%exp.57, %broadcast.22, %exp.62), metadata={op_name="checkpoint/dense_layers/exp" stack_frame_id=128}
  %exp.64 = c64[163840,32]{1,0} complex(%exp.56, %exp.63), metadata={op_name="checkpoint/dense_layers/exp" stack_frame_id=128}
  %Arg_1.51 = s32[1,1]{1,0} parameter(1)
  %constant.117 = s32[1,1]{1,0} constant({ {0} })
  %lt.13 = pred[1,1]{1,0} compare(%Arg_1.51, %constant.117), direction=LT, metadata={op_name="checkpoint/dense_layers/lt" stack_frame_id=112}
  %constant.116 = s32[1,1]{1,0} constant({ {163840} })
  %add.31 = s32[1,1]{1,0} add(%Arg_1.51, %constant.116), metadata={op_name="checkpoint/dense_layers/add" stack_frame_id=112}
  %select_n.21 = s32[1,1]{1,0} select(%lt.13, %add.31, %Arg_1.51), metadata={op_name="checkpoint/dense_layers/select_n" stack_frame_id=112}
  %broadcast_in_dim.69 = s32[1,1,1]{2,1,0} reshape(%select_n.21), metadata={op_name="checkpoint/dense_layers/broadcast_in_dim" stack_frame_id=112}
  %gather.3 = c64[1,1,32]{2,1,0} gather(%exp.64, %broadcast_in_dim.69), offset_dims={2}, collapsed_slice_dims={0}, start_index_map={0}, index_vector_dim=2, slice_sizes={1,32}, metadata={op_name="checkpoint/dense_layers/gather" stack_frame_id=112}
  %broadcast_in_dim.70 = c64[1,1,1,32]{3,2,1,0} reshape(%gather.3), metadata={op_name="checkpoint/dense_layers/broadcast_in_dim" stack_frame_id=129}
  %broadcast_in_dim.71 = c64[1,1,1,32]{3,2,1,0} broadcast(%broadcast_in_dim.70), dimensions={0,1,2,3}, metadata={op_name="checkpoint/dense_layers/broadcast_in_dim" stack_frame_id=130}
  %broadcast_in_dim.72 = c64[1,1,32]{2,1,0} reshape(%broadcast_in_dim.71), metadata={op_name="checkpoint/dense_layers/broadcast_in_dim" stack_frame_id=130}
  %broadcast_in_dim.73 = c64[1,1,16,32]{3,2,1,0} broadcast(%broadcast_in_dim.72), dimensions={0,1,3}, metadata={op_name="checkpoint/dense_layers/broadcast_in_dim" stack_frame_id=130}
  %mul.74 = c64[1,1,16,32]{3,2,1,0} multiply(%add.32, %broadcast_in_dim.73), metadata={op_name="checkpoint/dense_layers/mul" stack_frame_id=131}
  %real.2 = f32[1,1,16,32]{3,2,1,0} real(%mul.74), metadata={op_name="checkpoint/dense_layers/real" stack_frame_id=132}
  %imag.2 = f32[1,1,16,32]{3,2,1,0} imag(%mul.74), metadata={op_name="checkpoint/dense_layers/imag" stack_frame_id=133}
  %concatenate.5 = f32[1,1,16,64]{3,2,1,0} concatenate(%real.2, %imag.2), dimensions={3}, metadata={op_name="checkpoint/dense_layers/concatenate" stack_frame_id=134}
  %convert_element_type.45 = bf16[1,1,16,64]{3,2,1,0} convert(%concatenate.5), metadata={op_name="checkpoint/dense_layers/convert_element_type" stack_frame_id=135}
  %sharding_constraint.26 = bf16[1,1,16,64]{3,2,1,0} custom-call(%convert_element_type.45), custom_call_target="Sharding", sharding={replicated}, frontend_attributes={xla.sdy.sharding="#sdy.sharding_per_value<[<@mesh, [{}, {}, {}, {}]>]>"}, metadata={op_name="checkpoint/dense_layers/sharding_constraint" stack_frame_id=138}
  %concatenate.6 = bf16[1,1,16,192]{3,2,1,0} concatenate(%sharding_constraint.25, %sharding_constraint.26), dimensions={3}, metadata={op_name="checkpoint/dense_layers/concatenate" stack_frame_id=139}
  %constant.114 = bf16[] constant(0.1147)
  %mul.56 = bf16[1,1,16,192]{3,2,1,0} broadcast(%constant.114), dimensions={}, metadata={op_name="checkpoint/dense_layers/mul" stack_frame_id=139}
  %mul.75 = bf16[1,1,16,192]{3,2,1,0} multiply(%concatenate.6, %mul.56), metadata={op_name="checkpoint/dense_layers/mul" stack_frame_id=139}
  %sharding_constraint.27 = bf16[1,1,16,192]{3,2,1,0} custom-call(%mul.75), custom_call_target="Sharding", sharding={replicated}, frontend_attributes={xla.sdy.sharding="#sdy.sharding_per_value<[<@mesh, [{}, {}, {}, {}]>]>"}, metadata={op_name="checkpoint/dense_layers/sharding_constraint" stack_frame_id=142}
  %reshape.8 = bf16[1,1,16,1,192]{4,3,2,1,0} reshape(%sharding_constraint.27), metadata={op_name="checkpoint/dense_layers/reshape" stack_frame_id=144}
  %dot_general.21 = bf16[1,16,64,1,1]{4,3,2,1,0} dot(%sharding_constraint.30, %reshape.8), lhs_batch_dims={0,2}, lhs_contracting_dims={3}, rhs_batch_dims={0,2}, rhs_contracting_dims={4}, metadata={op_name="checkpoint/dense_layers/btkgd,bskd->bkgts/dot_general" stack_frame_id=145}
  %transpose.29 = bf16[1,16,1,1,64]{4,3,2,1,0} reshape(%dot_general.21), metadata={op_name="checkpoint/dense_layers/btkgd,bskd->bkgts/transpose" stack_frame_id=145}
  %jit__where_.7 = bf16[1,16,1,1,64]{4,3,2,1,0} call(%ge.6, %transpose.29, %constant.132), to_apply=%_where_17.26, metadata={op_name="checkpoint/dense_layers/jit(_where)" stack_frame_id=146}
  %reshape.9 = bf16[1,16,1,64]{3,2,1,0} reshape(%jit__where_.7), metadata={op_name="checkpoint/dense_layers/reshape" stack_frame_id=147}
  %constant.131 = bf16[] constant(-inf)
  %reduce_max.14 = bf16[1,16,1]{2,1,0} reduce(%reshape.9, %constant.131), dimensions={3}, to_apply=%region_4.27, metadata={op_name="checkpoint/dense_layers/reduce_max" stack_frame_id=36}
  %broadcast_in_dim.89 = bf16[1,1,16,1]{3,2,1,0} reshape(%reduce_max.14), metadata={op_name="checkpoint/dense_layers/transpose;checkpoint/dense_layers/broadcast_in_dim"}
  %Arg_14.1 = s32[1,1984]{1,0} parameter(14)
  %constant.111 = s32[1,1]{1,0} constant({ {1} })
  %Arg_13.1 = s32[1]{0} parameter(13)
  %squeeze.41 = s32[] reshape(%Arg_13.1), metadata={op_name="checkpoint/dense_layers/squeeze" stack_frame_id=148}
  %jit_dynamic_update_index_in_dim_.5 = s32[1,1984]{1,0} call(%Arg_14.1, %constant.111, %squeeze.41), to_apply=%dynamic_update_index_in_dim_15.21, metadata={op_name="checkpoint/dense_layers/jit(dynamic_update_index_in_dim)" stack_frame_id=149}
  %broadcast_in_dim.90 = s32[1,1,1,1,1984]{4,3,2,1,0} reshape(%jit_dynamic_update_index_in_dim_.5), metadata={op_name="checkpoint/dense_layers/broadcast_in_dim" stack_frame_id=151}
  %constant.106 = s32[] constant(1)
  %eq.6 = s32[1,1,1,1,1984]{4,3,2,1,0} broadcast(%constant.106), dimensions={}, metadata={op_name="checkpoint/dense_layers/eq" stack_frame_id=151}
  %eq.9 = pred[1,1,1,1,1984]{4,3,2,1,0} compare(%broadcast_in_dim.90, %eq.6), direction=EQ, metadata={op_name="checkpoint/dense_layers/eq" stack_frame_id=151}
  %jit__where_.8 = f32[1,1,1,1,1984]{4,3,2,1,0} call(%eq.9, %constant.136, %constant.132), to_apply=%_where_18.29, metadata={op_name="checkpoint/dense_layers/jit(_where)" stack_frame_id=152}
  %constant.105 = f32[] constant(-1.19098816e+38)
  %ge.4 = f32[1,1,1,1,1984]{4,3,2,1,0} broadcast(%constant.105), dimensions={}, metadata={op_name="checkpoint/dense_layers/ge" stack_frame_id=154}
  %ge.7 = pred[1,1,1,1,1984]{4,3,2,1,0} compare(%jit__where_.8, %ge.4), direction=GE, metadata={op_name="checkpoint/dense_layers/ge" stack_frame_id=154}
  %Arg_16.1 = bf16[1984,1,1,512]{3,2,1,0} parameter(16)
  %Arg_8.1 = f32[512]{0} parameter(8)
  %convert_element_type.49 = bf16[512]{0} convert(%Arg_8.1), metadata={op_name="checkpoint/dense_layers/convert_element_type" stack_frame_id=155}
  %sharding_constraint.24 = bf16[1,1,2048]{2,1,0} custom-call(%sharding_constraint.22), custom_call_target="Sharding", sharding={replicated}, frontend_attributes={xla.sdy.sharding="#sdy.sharding_per_value<[<@mesh, [{}, {}, {}]>]>"}, metadata={op_name="checkpoint/dense_layers/sharding_constraint" stack_frame_id=158}
  %Arg_11.1 = f32[2048,576]{1,0} parameter(11)
  %convert_element_type.46 = bf16[2048,576]{1,0} convert(%Arg_11.1), metadata={op_name="checkpoint/dense_layers/convert_element_type" stack_frame_id=161}
  %dot_general.17 = bf16[1,1,576]{2,1,0} dot(%sharding_constraint.24, %convert_element_type.46), lhs_contracting_dims={2}, rhs_contracting_dims={0}, metadata={op_name="checkpoint/dense_layers/dot_general" stack_frame_id=163}
  %split.10 = bf16[1,1,512]{2,1,0} slice(%dot_general.17), slice={[0:1], [0:1], [0:512]}, metadata={op_name="checkpoint/dense_layers/split" stack_frame_id=164}
  %convert_element_type.47 = f32[1,1,512]{2,1,0} convert(%split.10), metadata={op_name="checkpoint/dense_layers/convert_element_type" stack_frame_id=165}
  %square.4 = f32[1,1,512]{2,1,0} multiply(%convert_element_type.47, %convert_element_type.47), metadata={op_name="checkpoint/dense_layers/square" stack_frame_id=166}
  %reduce_sum.36 = f32[1,1]{1,0} reduce(%square.4, %constant.136), dimensions={2}, to_apply=%region_2.18, metadata={op_name="checkpoint/dense_layers/reduce_sum" stack_frame_id=24}
  %broadcast_in_dim.74 = f32[1,1,1]{2,1,0} reshape(%reduce_sum.36), metadata={op_name="checkpoint/dense_layers/broadcast_in_dim" stack_frame_id=24}
  %constant.113 = f32[1,1,1]{2,1,0} constant({ { {512} } })
  %div.20 = f32[1,1,1]{2,1,0} divide(%broadcast_in_dim.74, %constant.113), metadata={op_name="checkpoint/dense_layers/div" stack_frame_id=24}
  %add.33 = f32[1,1,1]{2,1,0} add(%div.20, %constant.126), metadata={op_name="checkpoint/dense_layers/add" stack_frame_id=167}
  %rsqrt.4 = f32[1,1,1]{2,1,0} rsqrt(%add.33), metadata={op_name="checkpoint/dense_layers/rsqrt" stack_frame_id=168}
  %mul.76 = f32[1,1,1]{2,1,0} broadcast(%rsqrt.4), dimensions={0,1,2}, metadata={op_name="checkpoint/dense_layers/mul" stack_frame_id=169}
  %mul.77 = f32[1,1]{1,0} reshape(%mul.76), metadata={op_name="checkpoint/dense_layers/mul" stack_frame_id=169}
  %mul.78 = f32[1,1,512]{2,1,0} broadcast(%mul.77), dimensions={0,1}, metadata={op_name="checkpoint/dense_layers/mul" stack_frame_id=169}
  %mul.79 = f32[1,1,512]{2,1,0} multiply(%convert_element_type.47, %mul.78), metadata={op_name="checkpoint/dense_layers/mul" stack_frame_id=169}
  %convert_element_type.48 = bf16[1,1,512]{2,1,0} convert(%mul.79), metadata={op_name="checkpoint/dense_layers/convert_element_type" stack_frame_id=170}
  %dot_general.18 = bf16[512,1,1]{2,1,0} dot(%convert_element_type.49, %convert_element_type.48), lhs_batch_dims={0}, lhs_contracting_dims={}, rhs_batch_dims={2}, rhs_contracting_dims={}, metadata={op_name="checkpoint/dense_layers/...k,k->...k/dot_general" stack_frame_id=171}
  %transpose.24 = bf16[1,1,1,512]{3,2,1,0} reshape(%dot_general.18), metadata={op_name="checkpoint/dense_layers/transpose;checkpoint/dense_layers/reshape;checkpoint/dense_layers/...k,k->...k/transpose"}
  %squeeze.40 = s32[] reshape(%Arg_13.1), metadata={op_name="checkpoint/dense_layers/squeeze" stack_frame_id=173}
  %jit_dynamic_update_index_in_dim_.3 = bf16[1984,1,1,512]{3,2,1,0} call(%Arg_16.1, %transpose.24, %squeeze.40), to_apply=%dynamic_update_index_in_dim.19, metadata={op_name="checkpoint/dense_layers/jit(dynamic_update_index_in_dim)" stack_frame_id=174}
  %transpose.28 = bf16[1,1984,512]{2,1,0} reshape(%jit_dynamic_update_index_in_dim_.3), metadata={op_name="checkpoint/dense_layers/reshape;checkpoint/dense_layers/transpose"}
  %convert_element_type.55 = bf16[512,16,256]{2,1,0} convert(%Arg_12.1), metadata={op_name="checkpoint/dense_layers/convert_element_type" stack_frame_id=178}
  %dot_general.20 = bf16[1,1984,16,256]{3,2,1,0} dot(%transpose.28, %convert_element_type.55), lhs_contracting_dims={2}, rhs_contracting_dims={0}, metadata={op_name="checkpoint/dense_layers/dot_general" stack_frame_id=180}
  %split.14 = bf16[1,1984,16,128]{3,2,1,0} slice(%dot_general.20), slice={[0:1], [0:1984], [0:16], [0:128]}, metadata={op_name="checkpoint/dense_layers/split" stack_frame_id=181}
  %sharding_constraint.32 = bf16[1,1984,16,128]{3,2,1,0} custom-call(%split.14), custom_call_target="Sharding", sharding={replicated}, frontend_attributes={xla.sdy.sharding="#sdy.sharding_per_value<[<@mesh, [{}, {}, {}, {}]>]>"}, metadata={op_name="checkpoint/dense_layers/sharding_constraint" stack_frame_id=184}
  %Arg_18.1 = bf16[1984,1,1,64]{3,2,1,0} parameter(18)
  %split.11 = bf16[1,1,64]{2,1,0} slice(%dot_general.17), slice={[0:1], [0:1], [512:576]}, metadata={op_name="checkpoint/dense_layers/split" stack_frame_id=164}
  %broadcast_in_dim.79 = bf16[1,1,1,32,2]{4,3,2,1,0} reshape(%split.11), metadata={op_name="checkpoint/dense_layers/reshape;checkpoint/dense_layers/broadcast_in_dim"}
  %slice.6 = bf16[1,1,1,32,1]{4,3,2,1,0} slice(%broadcast_in_dim.79), slice={[0:1], [0:1], [0:1], [0:32], [0:1]}, metadata={op_name="checkpoint/dense_layers/slice" stack_frame_id=188}
  %squeeze.38 = bf16[1,1,1,32]{3,2,1,0} reshape(%slice.6), metadata={op_name="checkpoint/dense_layers/squeeze" stack_frame_id=188}
  %convert_element_type.52 = c64[1,1,1,32]{3,2,1,0} convert(%squeeze.38), metadata={op_name="checkpoint/dense_layers/convert_element_type" stack_frame_id=189}
  %slice.7 = bf16[1,1,1,32,1]{4,3,2,1,0} slice(%broadcast_in_dim.79), slice={[0:1], [0:1], [0:1], [0:32], [1:2]}, metadata={op_name="checkpoint/dense_layers/slice" stack_frame_id=190}
  %squeeze.39 = bf16[1,1,1,32]{3,2,1,0} reshape(%slice.7), metadata={op_name="checkpoint/dense_layers/squeeze" stack_frame_id=190}
  %convert_element_type.51 = c64[1,1,1,32]{3,2,1,0} convert(%squeeze.39), metadata={op_name="checkpoint/dense_layers/convert_element_type" stack_frame_id=191}
  %constant.112 = c64[] constant((0, 1))
  %mul.55 = c64[1,1,1,32]{3,2,1,0} broadcast(%constant.112), dimensions={}, metadata={op_name="checkpoint/dense_layers/mul" stack_frame_id=191}
  %mul.91 = c64[1,1,1,32]{3,2,1,0} multiply(%convert_element_type.51, %mul.55), metadata={op_name="checkpoint/dense_layers/mul" stack_frame_id=191}
  %add.36 = c64[1,1,1,32]{3,2,1,0} add(%convert_element_type.52, %mul.91), metadata={op_name="checkpoint/dense_layers/add" stack_frame_id=189}
  %iota.11 = f32[163840]{0} iota(), iota_dimension=0, metadata={op_name="checkpoint/dense_layers/iota" stack_frame_id=193}
  %broadcast_in_dim.75 = f32[163840,1]{1,0} reshape(%iota.11), metadata={op_name="checkpoint/dense_layers/broadcast_in_dim" stack_frame_id=194}
  %mul.83 = f32[163840,1]{1,0} broadcast(%broadcast_in_dim.75), dimensions={0,1}, metadata={op_name="checkpoint/dense_layers/mul" stack_frame_id=194}
  %mul.84 = f32[163840]{0} reshape(%mul.83), metadata={op_name="checkpoint/dense_layers/mul" stack_frame_id=194}
  %mul.85 = f32[163840,32]{1,0} broadcast(%mul.84), dimensions={0}, metadata={op_name="checkpoint/dense_layers/mul" stack_frame_id=194}
  %iota.9 = f32[32]{0} iota(), iota_dimension=0, metadata={op_name="checkpoint/dense_layers/iota" stack_frame_id=195}
  %mul.80 = f32[32]{0} multiply(%iota.9, %broadcast.21), metadata={op_name="checkpoint/dense_layers/mul" stack_frame_id=196}
  %div.21 = f32[32]{0} divide(%mul.80, %broadcast.20), metadata={op_name="checkpoint/dense_layers/div" stack_frame_id=196}
  %pow.3 = f32[32]{0} power(%broadcast.19, %div.21), metadata={op_name="checkpoint/dense_layers/pow" stack_frame_id=197}
  %div.22 = f32[32]{0} divide(%broadcast.18, %pow.3), metadata={op_name="checkpoint/dense_layers/div" stack_frame_id=198}
  %div.24 = f32[32]{0} divide(%div.22, %broadcast.15), metadata={op_name="checkpoint/dense_layers/div" stack_frame_id=199}
  %iota.10 = f32[32]{0} iota(), iota_dimension=0, metadata={op_name="checkpoint/dense_layers/iota" stack_frame_id=201}
  %sub.21 = f32[32]{0} subtract(%iota.10, %broadcast.17), metadata={op_name="checkpoint/dense_layers/sub" stack_frame_id=201}
  %div.23 = f32[32]{0} divide(%sub.21, %broadcast.16), metadata={op_name="checkpoint/dense_layers/div" stack_frame_id=202}
  %jit_clip_.3 = f32[32]{0} call(%div.23, %constant.135, %constant.134), to_apply=%clip.17, metadata={op_name="checkpoint/dense_layers/jit(clip)" stack_frame_id=203}
  %sub.22 = f32[32]{0} subtract(%broadcast.18, %jit_clip_.3), metadata={op_name="checkpoint/dense_layers/sub" stack_frame_id=204}
  %sub.23 = f32[32]{0} subtract(%broadcast.18, %sub.22), metadata={op_name="checkpoint/dense_layers/sub" stack_frame_id=205}
  %mul.81 = f32[32]{0} multiply(%div.24, %sub.23), metadata={op_name="checkpoint/dense_layers/mul" stack_frame_id=199}
  %mul.82 = f32[32]{0} multiply(%div.22, %sub.22), metadata={op_name="checkpoint/dense_layers/mul" stack_frame_id=206}
  %add.34 = f32[32]{0} add(%mul.81, %mul.82), metadata={op_name="checkpoint/dense_layers/add" stack_frame_id=199}
  %broadcast_in_dim.76 = f32[1,32]{1,0} reshape(%add.34), metadata={op_name="checkpoint/dense_layers/broadcast_in_dim" stack_frame_id=194}
  %mul.86 = f32[1,32]{1,0} broadcast(%broadcast_in_dim.76), dimensions={0,1}, metadata={op_name="checkpoint/dense_layers/mul" stack_frame_id=194}
  %mul.87 = f32[32]{0} reshape(%mul.86), metadata={op_name="checkpoint/dense_layers/mul" stack_frame_id=194}
  %mul.88 = f32[163840,32]{1,0} broadcast(%mul.87), dimensions={1}, metadata={op_name="checkpoint/dense_layers/mul" stack_frame_id=194}
  %mul.89 = f32[163840,32]{1,0} multiply(%mul.85, %mul.88), metadata={op_name="checkpoint/dense_layers/mul" stack_frame_id=194}
  %convert_element_type.50 = c64[163840,32]{1,0} convert(%mul.89), metadata={op_name="checkpoint/dense_layers/convert_element_type" stack_frame_id=207}
  %mul.90 = c64[163840,32]{1,0} multiply(%convert_element_type.50, %broadcast.14), metadata={op_name="checkpoint/dense_layers/mul" stack_frame_id=207}
  %exp.65 = f32[163840,32]{1,0} real(%mul.90), metadata={op_name="checkpoint/dense_layers/exp" stack_frame_id=208}
  %exp.66 = f32[163840,32]{1,0} exponential(%exp.65), metadata={op_name="checkpoint/dense_layers/exp" stack_frame_id=208}
  %exp.67 = pred[163840,32]{1,0} compare(%exp.66, %broadcast.24), direction=EQ, metadata={op_name="checkpoint/dense_layers/exp" stack_frame_id=208}
  %exp.68 = f32[163840,32]{1,0} multiply(%exp.65, %broadcast.23), metadata={op_name="checkpoint/dense_layers/exp" stack_frame_id=208}
  %exp.69 = f32[163840,32]{1,0} exponential(%exp.68), metadata={op_name="checkpoint/dense_layers/exp" stack_frame_id=208}
  %exp.70 = f32[163840,32]{1,0} imag(%mul.90), metadata={op_name="checkpoint/dense_layers/exp" stack_frame_id=208}
  %exp.71 = f32[163840,32]{1,0} cosine(%exp.70), metadata={op_name="checkpoint/dense_layers/exp" stack_frame_id=208}
  %exp.72 = f32[163840,32]{1,0} multiply(%exp.69, %exp.71), metadata={op_name="checkpoint/dense_layers/exp" stack_frame_id=208}
  %exp.73 = f32[163840,32]{1,0} multiply(%exp.72, %exp.69), metadata={op_name="checkpoint/dense_layers/exp" stack_frame_id=208}
  %exp.74 = f32[163840,32]{1,0} multiply(%exp.66, %exp.71), metadata={op_name="checkpoint/dense_layers/exp" stack_frame_id=208}
  %exp.75 = f32[163840,32]{1,0} select(%exp.67, %exp.73, %exp.74), metadata={op_name="checkpoint/dense_layers/exp" stack_frame_id=208}
  %exp.76 = pred[163840,32]{1,0} compare(%exp.70, %broadcast.22), direction=EQ, metadata={op_name="checkpoint/dense_layers/exp" stack_frame_id=208}
  %exp.77 = f32[163840,32]{1,0} sine(%exp.70), metadata={op_name="checkpoint/dense_layers/exp" stack_frame_id=208}
  %exp.78 = f32[163840,32]{1,0} multiply(%exp.69, %exp.77), metadata={op_name="checkpoint/dense_layers/exp" stack_frame_id=208}
  %exp.79 = f32[163840,32]{1,0} multiply(%exp.78, %exp.69), metadata={op_name="checkpoint/dense_layers/exp" stack_frame_id=208}
  %exp.80 = f32[163840,32]{1,0} multiply(%exp.66, %exp.77), metadata={op_name="checkpoint/dense_layers/exp" stack_frame_id=208}
  %exp.81 = f32[163840,32]{1,0} select(%exp.67, %exp.79, %exp.80), metadata={op_name="checkpoint/dense_layers/exp" stack_frame_id=208}
  %exp.82 = f32[163840,32]{1,0} select(%exp.76, %broadcast.22, %exp.81), metadata={op_name="checkpoint/dense_layers/exp" stack_frame_id=208}
  %exp.83 = c64[163840,32]{1,0} complex(%exp.75, %exp.82), metadata={op_name="checkpoint/dense_layers/exp" stack_frame_id=208}
  %lt.14 = pred[1,1]{1,0} compare(%Arg_1.51, %constant.117), direction=LT, metadata={op_name="checkpoint/dense_layers/lt" stack_frame_id=192}
  %add.35 = s32[1,1]{1,0} add(%Arg_1.51, %constant.116), metadata={op_name="checkpoint/dense_layers/add" stack_frame_id=192}
  %select_n.22 = s32[1,1]{1,0} select(%lt.14, %add.35, %Arg_1.51), metadata={op_name="checkpoint/dense_layers/select_n" stack_frame_id=192}
  %broadcast_in_dim.77 = s32[1,1,1]{2,1,0} reshape(%select_n.22), metadata={op_name="checkpoint/dense_layers/broadcast_in_dim" stack_frame_id=192}
  %gather.4 = c64[1,1,32]{2,1,0} gather(%exp.83, %broadcast_in_dim.77), offset_dims={2}, collapsed_slice_dims={0}, start_index_map={0}, index_vector_dim=2, slice_sizes={1,32}, metadata={op_name="checkpoint/dense_layers/gather" stack_frame_id=192}
  %broadcast_in_dim.78 = c64[1,1,1,32]{3,2,1,0} reshape(%gather.4), metadata={op_name="checkpoint/dense_layers/broadcast_in_dim" stack_frame_id=209}
  %mul.92 = c64[1,1,1,32]{3,2,1,0} multiply(%add.36, %broadcast_in_dim.78), metadata={op_name="checkpoint/dense_layers/mul" stack_frame_id=210}
  %real.3 = f32[1,1,1,32]{3,2,1,0} real(%mul.92), metadata={op_name="checkpoint/dense_layers/real" stack_frame_id=211}
  %imag.3 = f32[1,1,1,32]{3,2,1,0} imag(%mul.92), metadata={op_name="checkpoint/dense_layers/imag" stack_frame_id=212}
  %concatenate.7 = f32[1,1,1,64]{3,2,1,0} concatenate(%real.3, %imag.3), dimensions={3}, metadata={op_name="checkpoint/dense_layers/concatenate" stack_frame_id=213}
  %convert_element_type.53 = bf16[1,1,1,64]{3,2,1,0} convert(%concatenate.7), metadata={op_name="checkpoint/dense_layers/convert_element_type" stack_frame_id=214}
  %jit_dynamic_update_index_in_dim_.4 = bf16[1984,1,1,64]{3,2,1,0} call(%Arg_18.1, %convert_element_type.53, %squeeze.40), to_apply=%dynamic_update_index_in_dim_14.20, metadata={op_name="checkpoint/dense_layers/jit(dynamic_update_index_in_dim)" stack_frame_id=215}
  %transpose.26 = bf16[1,1984,1,64]{3,2,1,0} reshape(%jit_dynamic_update_index_in_dim_.4), metadata={op_name="checkpoint/dense_layers/transpose" stack_frame_id=219}
  %broadcast_in_dim.83 = bf16[1,1984,1,64]{3,2,1,0} broadcast(%transpose.26), dimensions={0,1,2,3}, metadata={op_name="checkpoint/dense_layers/broadcast_in_dim" stack_frame_id=220}
  %broadcast_in_dim.84 = bf16[1,1984,64]{2,1,0} reshape(%broadcast_in_dim.83), metadata={op_name="checkpoint/dense_layers/broadcast_in_dim" stack_frame_id=220}
  %broadcast_in_dim.85 = bf16[1,1984,16,64]{3,2,1,0} broadcast(%broadcast_in_dim.84), dimensions={0,1,3}, metadata={op_name="checkpoint/dense_layers/broadcast_in_dim" stack_frame_id=220}
  %sharding_constraint.33 = bf16[1,1984,16,64]{3,2,1,0} custom-call(%broadcast_in_dim.85), custom_call_target="Sharding", sharding={replicated}, frontend_attributes={xla.sdy.sharding="#sdy.sharding_per_value<[<@mesh, [{}, {}, {}, {}]>]>"}, metadata={op_name="checkpoint/dense_layers/sharding_constraint" stack_frame_id=223}
  %concatenate.9 = bf16[1,1984,16,192]{3,2,1,0} concatenate(%sharding_constraint.32, %sharding_constraint.33), dimensions={3}, metadata={op_name="checkpoint/dense_layers/concatenate" stack_frame_id=224}
  %sharding_constraint.34 = bf16[1,1984,16,192]{3,2,1,0} custom-call(%concatenate.9), custom_call_target="Sharding", sharding={replicated}, frontend_attributes={xla.sdy.sharding="#sdy.sharding_per_value<[<@mesh, [{}, {}, {}, {}]>]>"}, metadata={op_name="checkpoint/dense_layers/sharding_constraint" stack_frame_id=227}
  %reshape.11 = bf16[1,1,16,1,192]{4,3,2,1,0} reshape(%sharding_constraint.27), metadata={op_name="checkpoint/dense_layers/reshape" stack_frame_id=229}
  %dot_general.23 = bf16[1,16,1984,1,1]{4,3,2,1,0} dot(%sharding_constraint.34, %reshape.11), lhs_batch_dims={0,2}, lhs_contracting_dims={3}, rhs_batch_dims={0,2}, rhs_contracting_dims={4}, metadata={op_name="checkpoint/dense_layers/btkgd,bskd->bkgts/dot_general" stack_frame_id=230}
  %transpose.32 = bf16[1,16,1,1,1984]{4,3,2,1,0} reshape(%dot_general.23), metadata={op_name="checkpoint/dense_layers/btkgd,bskd->bkgts/transpose" stack_frame_id=230}
  %jit__where_.9 = bf16[1,16,1,1,1984]{4,3,2,1,0} call(%ge.7, %transpose.32, %constant.132), to_apply=%_where_19.30, metadata={op_name="checkpoint/dense_layers/jit(_where)" stack_frame_id=231}
  %reshape.12 = bf16[1,16,1,1984]{3,2,1,0} reshape(%jit__where_.9), metadata={op_name="checkpoint/dense_layers/reshape" stack_frame_id=232}
  %reduce_max.15 = bf16[1,16,1]{2,1,0} reduce(%reshape.12, %constant.131), dimensions={3}, to_apply=%region_6.31, metadata={op_name="checkpoint/dense_layers/reduce_max" stack_frame_id=41}
  %broadcast_in_dim.93 = bf16[1,1,16,1]{3,2,1,0} reshape(%reduce_max.15), metadata={op_name="checkpoint/dense_layers/transpose;checkpoint/dense_layers/broadcast_in_dim"}
  %max.5 = bf16[1,1,16,1]{3,2,1,0} maximum(%broadcast_in_dim.89, %broadcast_in_dim.93), metadata={op_name="checkpoint/dense_layers/max" stack_frame_id=234}
  %sub.34 = bf16[1,1,16,1]{3,2,1,0} subtract(%broadcast_in_dim.89, %max.5), metadata={op_name="checkpoint/dense_layers/sub" stack_frame_id=235}
  %exp.88 = bf16[1,1,16,1]{3,2,1,0} exponential(%sub.34), metadata={op_name="checkpoint/dense_layers/exp" stack_frame_id=236}
  %sub.32 = bf16[1,1,16,1]{3,2,1,0} subtract(%broadcast_in_dim.89, %max.5), metadata={op_name="checkpoint/dense_layers/sub" stack_frame_id=238}
  %exp.86 = bf16[1,1,16,1]{3,2,1,0} exponential(%sub.32), metadata={op_name="checkpoint/dense_layers/exp" stack_frame_id=239}
  %broadcast_in_dim.87 = bf16[1,16,1,1]{3,2,1,0} reshape(%reduce_max.14), metadata={op_name="checkpoint/dense_layers/broadcast_in_dim" stack_frame_id=36}
  %sub.24 = bf16[1,16,1,1]{3,2,1,0} broadcast(%broadcast_in_dim.87), dimensions={0,1,2,3}, metadata={op_name="checkpoint/dense_layers/sub" stack_frame_id=240}
  %sub.25 = bf16[1,16,1]{2,1,0} reshape(%sub.24), metadata={op_name="checkpoint/dense_layers/sub" stack_frame_id=240}
  %sub.26 = bf16[1,16,1,64]{3,2,1,0} broadcast(%sub.25), dimensions={0,1,2}, metadata={op_name="checkpoint/dense_layers/sub" stack_frame_id=240}
  %sub.27 = bf16[1,16,1,64]{3,2,1,0} subtract(%reshape.9, %sub.26), metadata={op_name="checkpoint/dense_layers/sub" stack_frame_id=240}
  %exp.84 = bf16[1,16,1,64]{3,2,1,0} exponential(%sub.27), metadata={op_name="checkpoint/dense_layers/exp" stack_frame_id=241}
  %convert_element_type.56 = f32[1,16,1,64]{3,2,1,0} convert(%exp.84), metadata={op_name="checkpoint/dense_layers/convert_element_type" stack_frame_id=37}
  %reduce_sum.37 = f32[1,16,1]{2,1,0} reduce(%convert_element_type.56, %constant.136), dimensions={3}, to_apply=%region_5.28, metadata={op_name="checkpoint/dense_layers/reduce_sum" stack_frame_id=37}
  %broadcast_in_dim.88 = f32[1,16,1,1]{3,2,1,0} reshape(%reduce_sum.37), metadata={op_name="checkpoint/dense_layers/broadcast_in_dim" stack_frame_id=37}
  %convert_element_type.57 = bf16[1,16,1,1]{3,2,1,0} convert(%broadcast_in_dim.88), metadata={op_name="checkpoint/dense_layers/convert_element_type" stack_frame_id=37}
  %transpose.30 = bf16[1,1,16,1]{3,2,1,0} reshape(%convert_element_type.57), metadata={op_name="checkpoint/dense_layers/transpose" stack_frame_id=242}
  %mul.93 = bf16[1,1,16,1]{3,2,1,0} multiply(%exp.86, %transpose.30), metadata={op_name="checkpoint/dense_layers/mul" stack_frame_id=239}
  %sub.33 = bf16[1,1,16,1]{3,2,1,0} subtract(%broadcast_in_dim.93, %max.5), metadata={op_name="checkpoint/dense_layers/sub" stack_frame_id=238}
  %exp.87 = bf16[1,1,16,1]{3,2,1,0} exponential(%sub.33), metadata={op_name="checkpoint/dense_layers/exp" stack_frame_id=239}
  %broadcast_in_dim.91 = bf16[1,16,1,1]{3,2,1,0} reshape(%reduce_max.15), metadata={op_name="checkpoint/dense_layers/broadcast_in_dim" stack_frame_id=41}
  %sub.28 = bf16[1,16,1,1]{3,2,1,0} broadcast(%broadcast_in_dim.91), dimensions={0,1,2,3}, metadata={op_name="checkpoint/dense_layers/sub" stack_frame_id=243}
  %sub.29 = bf16[1,16,1]{2,1,0} reshape(%sub.28), metadata={op_name="checkpoint/dense_layers/sub" stack_frame_id=243}
  %sub.30 = bf16[1,16,1,1984]{3,2,1,0} broadcast(%sub.29), dimensions={0,1,2}, metadata={op_name="checkpoint/dense_layers/sub" stack_frame_id=243}
  %sub.31 = bf16[1,16,1,1984]{3,2,1,0} subtract(%reshape.12, %sub.30), metadata={op_name="checkpoint/dense_layers/sub" stack_frame_id=243}
  %exp.85 = bf16[1,16,1,1984]{3,2,1,0} exponential(%sub.31), metadata={op_name="checkpoint/dense_layers/exp" stack_frame_id=244}
  %convert_element_type.58 = f32[1,16,1,1984]{3,2,1,0} convert(%exp.85), metadata={op_name="checkpoint/dense_layers/convert_element_type" stack_frame_id=42}
  %reduce_sum.38 = f32[1,16,1]{2,1,0} reduce(%convert_element_type.58, %constant.136), dimensions={3}, to_apply=%region_7.32, metadata={op_name="checkpoint/dense_layers/reduce_sum" stack_frame_id=42}
  %broadcast_in_dim.92 = f32[1,16,1,1]{3,2,1,0} reshape(%reduce_sum.38), metadata={op_name="checkpoint/dense_layers/broadcast_in_dim" stack_frame_id=42}
  %convert_element_type.59 = bf16[1,16,1,1]{3,2,1,0} convert(%broadcast_in_dim.92), metadata={op_name="checkpoint/dense_layers/convert_element_type" stack_frame_id=42}
  %transpose.33 = bf16[1,1,16,1]{3,2,1,0} reshape(%convert_element_type.59), metadata={op_name="checkpoint/dense_layers/transpose" stack_frame_id=245}
  %mul.94 = bf16[1,1,16,1]{3,2,1,0} multiply(%exp.87, %transpose.33), metadata={op_name="checkpoint/dense_layers/mul" stack_frame_id=239}
  %add.38 = bf16[1,1,16,1]{3,2,1,0} add(%mul.93, %mul.94), metadata={op_name="checkpoint/dense_layers/add" stack_frame_id=237}
  %div.25 = bf16[1,1,16,1]{3,2,1,0} divide(%exp.88, %add.38), metadata={op_name="checkpoint/dense_layers/div" stack_frame_id=236}
  %mul.95 = bf16[1,1,16,1]{3,2,1,0} broadcast(%div.25), dimensions={0,1,2,3}, metadata={op_name="checkpoint/dense_layers/mul" stack_frame_id=246}
  %mul.96 = bf16[1,1,16]{2,1,0} reshape(%mul.95), metadata={op_name="checkpoint/dense_layers/mul" stack_frame_id=246}
  %mul.97 = bf16[1,1,16,128]{3,2,1,0} broadcast(%mul.96), dimensions={0,1,2}, metadata={op_name="checkpoint/dense_layers/mul" stack_frame_id=246}
  %split.13 = bf16[1,64,16,128]{3,2,1,0} slice(%dot_general.19), slice={[0:1], [0:64], [0:16], [128:256]}, metadata={op_name="checkpoint/dense_layers/split" stack_frame_id=63}
  %sharding_constraint.31 = bf16[1,64,16,128]{3,2,1,0} custom-call(%split.13), custom_call_target="Sharding", sharding={replicated}, frontend_attributes={xla.sdy.sharding="#sdy.sharding_per_value<[<@mesh, [{}, {}, {}, {}]>]>"}, metadata={op_name="checkpoint/dense_layers/sharding_constraint" stack_frame_id=249}
  %reshape.10 = bf16[1,16,1,1,64]{4,3,2,1,0} reshape(%exp.84), metadata={op_name="checkpoint/dense_layers/reshape" stack_frame_id=250}
  %dot_general.22 = bf16[1,16,128,1,1]{4,3,2,1,0} dot(%sharding_constraint.31, %reshape.10), lhs_batch_dims={0,2}, lhs_contracting_dims={1}, rhs_batch_dims={0,1}, rhs_contracting_dims={4}, metadata={op_name="checkpoint/dense_layers/bkgts,bskd->btkgd/dot_general" stack_frame_id=252}
  %transpose.31 = bf16[1,1,16,128]{3,2,1,0} reshape(%dot_general.22), metadata={op_name="checkpoint/dense_layers/reshape;checkpoint/dense_layers/bkgts,bskd->btkgd/transpose"}
  %mul.98 = bf16[1,1,16,128]{3,2,1,0} multiply(%mul.97, %transpose.31), metadata={op_name="checkpoint/dense_layers/mul" stack_frame_id=246}
  %sub.35 = bf16[1,1,16,1]{3,2,1,0} subtract(%broadcast_in_dim.93, %max.5), metadata={op_name="checkpoint/dense_layers/sub" stack_frame_id=235}
  %exp.89 = bf16[1,1,16,1]{3,2,1,0} exponential(%sub.35), metadata={op_name="checkpoint/dense_layers/exp" stack_frame_id=236}
  %div.26 = bf16[1,1,16,1]{3,2,1,0} divide(%exp.89, %add.38), metadata={op_name="checkpoint/dense_layers/div" stack_frame_id=236}
  %mul.99 = bf16[1,1,16,1]{3,2,1,0} broadcast(%div.26), dimensions={0,1,2,3}, metadata={op_name="checkpoint/dense_layers/mul" stack_frame_id=246}
  %mul.100 = bf16[1,1,16]{2,1,0} reshape(%mul.99), metadata={op_name="checkpoint/dense_layers/mul" stack_frame_id=246}
  %mul.101 = bf16[1,1,16,128]{3,2,1,0} broadcast(%mul.100), dimensions={0,1,2}, metadata={op_name="checkpoint/dense_layers/mul" stack_frame_id=246}
  %split.15 = bf16[1,1984,16,128]{3,2,1,0} slice(%dot_general.20), slice={[0:1], [0:1984], [0:16], [128:256]}, metadata={op_name="checkpoint/dense_layers/split" stack_frame_id=181}
  %sharding_constraint.35 = bf16[1,1984,16,128]{3,2,1,0} custom-call(%split.15), custom_call_target="Sharding", sharding={replicated}, frontend_attributes={xla.sdy.sharding="#sdy.sharding_per_value<[<@mesh, [{}, {}, {}, {}]>]>"}, metadata={op_name="checkpoint/dense_layers/sharding_constraint" stack_frame_id=255}
  %reshape.13 = bf16[1,16,1,1,1984]{4,3,2,1,0} reshape(%exp.85), metadata={op_name="checkpoint/dense_layers/reshape" stack_frame_id=256}
  %dot_general.24 = bf16[1,16,128,1,1]{4,3,2,1,0} dot(%sharding_constraint.35, %reshape.13), lhs_batch_dims={0,2}, lhs_contracting_dims={1}, rhs_batch_dims={0,1}, rhs_contracting_dims={4}, metadata={op_name="checkpoint/dense_layers/bkgts,bskd->btkgd/dot_general" stack_frame_id=258}
  %transpose.34 = bf16[1,1,16,128]{3,2,1,0} reshape(%dot_general.24), metadata={op_name="checkpoint/dense_layers/reshape;checkpoint/dense_layers/bkgts,bskd->btkgd/transpose"}
  %mul.102 = bf16[1,1,16,128]{3,2,1,0} multiply(%mul.101, %transpose.34), metadata={op_name="checkpoint/dense_layers/mul" stack_frame_id=246}
  %add.39 = bf16[1,1,16,128]{3,2,1,0} add(%mul.98, %mul.102), metadata={op_name="checkpoint/dense_layers/add" stack_frame_id=259}
  %sharding_constraint.36 = bf16[1,1,16,128]{3,2,1,0} custom-call(%add.39), custom_call_target="Sharding", sharding={replicated}, frontend_attributes={xla.sdy.sharding="#sdy.sharding_per_value<[<@mesh, [{}, {}, {}, {}]>]>"}, metadata={op_name="checkpoint/dense_layers/sharding_constraint" stack_frame_id=262}
  %Arg_9.1 = f32[16,128,2048]{2,1,0} parameter(9)
  %convert_element_type.60 = bf16[16,128,2048]{2,1,0} convert(%Arg_9.1), metadata={op_name="checkpoint/dense_layers/convert_element_type" stack_frame_id=266}
  %dot_general.25 = bf16[1,1,2048]{2,1,0} dot(%sharding_constraint.36, %convert_element_type.60), lhs_contracting_dims={2,3}, rhs_contracting_dims={0,1}, metadata={op_name="checkpoint/dense_layers/dot_general" stack_frame_id=268}
  %sharding_constraint.37 = bf16[1,1,2048]{2,1,0} custom-call(%dot_general.25), custom_call_target="Sharding", sharding={replicated}, frontend_attributes={xla.sdy.sharding="#sdy.sharding_per_value<[<@mesh, [{}, {}, {}]>]>"}, metadata={op_name="checkpoint/dense_layers/sharding_constraint" stack_frame_id=272}
  %add.40 = bf16[1,1,2048]{2,1,0} add(%sharding_constraint.21, %sharding_constraint.37), metadata={op_name="checkpoint/dense_layers/add" stack_frame_id=273}
  %convert_element_type.61 = f32[1,1,2048]{2,1,0} convert(%add.40), metadata={op_name="checkpoint/dense_layers/convert_element_type" stack_frame_id=274}
  %square.5 = f32[1,1,2048]{2,1,0} multiply(%convert_element_type.61, %convert_element_type.61), metadata={op_name="checkpoint/dense_layers/square" stack_frame_id=275}
  %reduce_sum.39 = f32[1,1]{1,0} reduce(%square.5, %constant.136), dimensions={2}, to_apply=%region_8.33, metadata={op_name="checkpoint/dense_layers/reduce_sum" stack_frame_id=46}
  %broadcast_in_dim.94 = f32[1,1,1]{2,1,0} reshape(%reduce_sum.39), metadata={op_name="checkpoint/dense_layers/broadcast_in_dim" stack_frame_id=46}
  %div.27 = f32[1,1,1]{2,1,0} divide(%broadcast_in_dim.94, %constant.127), metadata={op_name="checkpoint/dense_layers/div" stack_frame_id=46}
  %add.41 = f32[1,1,1]{2,1,0} add(%div.27, %constant.126), metadata={op_name="checkpoint/dense_layers/add" stack_frame_id=276}
  %rsqrt.5 = f32[1,1,1]{2,1,0} rsqrt(%add.41), metadata={op_name="checkpoint/dense_layers/rsqrt" stack_frame_id=277}
  %mul.103 = f32[1,1,1]{2,1,0} broadcast(%rsqrt.5), dimensions={0,1,2}, metadata={op_name="checkpoint/dense_layers/mul" stack_frame_id=278}
  %mul.104 = f32[1,1]{1,0} reshape(%mul.103), metadata={op_name="checkpoint/dense_layers/mul" stack_frame_id=278}
  %mul.105 = f32[1,1,2048]{2,1,0} broadcast(%mul.104), dimensions={0,1}, metadata={op_name="checkpoint/dense_layers/mul" stack_frame_id=278}
  %mul.106 = f32[1,1,2048]{2,1,0} multiply(%convert_element_type.61, %mul.105), metadata={op_name="checkpoint/dense_layers/mul" stack_frame_id=278}
  %convert_element_type.62 = bf16[1,1,2048]{2,1,0} convert(%mul.106), metadata={op_name="checkpoint/dense_layers/convert_element_type" stack_frame_id=279}
  %dot_general.26 = bf16[2048,1,1]{2,1,0} dot(%convert_element_type.63, %convert_element_type.62), lhs_batch_dims={0}, lhs_contracting_dims={}, rhs_batch_dims={2}, rhs_contracting_dims={}, metadata={op_name="checkpoint/dense_layers/...k,k->...k/dot_general" stack_frame_id=280}
  %transpose.35 = bf16[1,1,2048]{2,1,0} reshape(%dot_general.26), metadata={op_name="checkpoint/dense_layers/...k,k->...k/transpose" stack_frame_id=280}
  %sharding_constraint.38 = bf16[1,1,2048]{2,1,0} custom-call(%transpose.35), custom_call_target="Sharding", sharding={replicated}, frontend_attributes={xla.sdy.sharding="#sdy.sharding_per_value<[<@mesh, [{}, {}, {}]>]>"}, metadata={op_name="checkpoint/dense_layers/sharding_constraint" stack_frame_id=284}
  %Arg_3.1 = f32[2048,10944]{1,0} parameter(3)
  %convert_element_type.64 = bf16[2048,10944]{1,0} convert(%Arg_3.1), metadata={op_name="checkpoint/dense_layers/convert_element_type" stack_frame_id=290}
  %dot_general.27 = bf16[1,1,10944]{2,1,0} dot(%sharding_constraint.38, %convert_element_type.64), lhs_contracting_dims={2}, rhs_contracting_dims={0}, metadata={op_name="checkpoint/dense_layers/dot_general" stack_frame_id=292}
  %jit_silu_.1 = bf16[1,1,10944]{2,1,0} call(%dot_general.27), to_apply=%silu.34, metadata={op_name="checkpoint/dense_layers/jit(silu)" stack_frame_id=293}
  %Arg_4.1 = f32[2048,10944]{1,0} parameter(4)
  %convert_element_type.65 = bf16[2048,10944]{1,0} convert(%Arg_4.1), metadata={op_name="checkpoint/dense_layers/convert_element_type" stack_frame_id=290}
  %dot_general.28 = bf16[1,1,10944]{2,1,0} dot(%sharding_constraint.38, %convert_element_type.65), lhs_contracting_dims={2}, rhs_contracting_dims={0}, metadata={op_name="checkpoint/dense_layers/dot_general" stack_frame_id=292}
  %mul.107 = bf16[1,1,10944]{2,1,0} multiply(%jit_silu_.1, %dot_general.28), metadata={op_name="checkpoint/dense_layers/mul" stack_frame_id=294}
  %sharding_constraint.39 = bf16[1,1,10944]{2,1,0} custom-call(%mul.107), custom_call_target="Sharding", sharding={replicated}, frontend_attributes={xla.sdy.sharding="#sdy.sharding_per_value<[<@mesh, [{}, {}, {}]>]>"}, metadata={op_name="checkpoint/dense_layers/sharding_constraint" stack_frame_id=297}
  %Arg_5.1 = f32[10944,2048]{1,0} parameter(5)
  %convert_element_type.66 = bf16[10944,2048]{1,0} convert(%Arg_5.1), metadata={op_name="checkpoint/dense_layers/convert_element_type" stack_frame_id=300}
  %dot_general.29 = bf16[1,1,2048]{2,1,0} dot(%sharding_constraint.39, %convert_element_type.66), lhs_contracting_dims={2}, rhs_contracting_dims={0}, metadata={op_name="checkpoint/dense_layers/dot_general" stack_frame_id=302}
  %sharding_constraint.40 = bf16[1,1,2048]{2,1,0} custom-call(%dot_general.29), custom_call_target="Sharding", sharding={replicated}, frontend_attributes={xla.sdy.sharding="#sdy.sharding_per_value<[<@mesh, [{}, {}, {}]>]>"}, metadata={op_name="checkpoint/dense_layers/sharding_constraint" stack_frame_id=306}
  %add.42 = bf16[1,1,2048]{2,1,0} add(%sharding_constraint.40, %add.40), metadata={op_name="checkpoint/dense_layers/add" stack_frame_id=307}
  %sharding_constraint.41 = bf16[1,1,2048]{2,1,0} custom-call(%add.42), custom_call_target="Sharding", sharding={replicated}, frontend_attributes={xla.sdy.sharding="#sdy.sharding_per_value<[<@mesh, [{}, {}, {}]>]>"}, metadata={op_name="checkpoint/dense_layers/sharding_constraint" stack_frame_id=312}
  %constant.110 = s32[1]{0} constant({1})
  %add.37 = s32[1]{0} add(%Arg_13.1, %constant.110), metadata={op_name="checkpoint/dense_layers/add" stack_frame_id=313}
  %constant.133 = s32[] constant(1984)
  %jit_remainder_.1 = s32[1]{0} call(%add.37, %constant.133), to_apply=%remainder.23, metadata={op_name="checkpoint/dense_layers/jit(remainder)" stack_frame_id=314}
  %Arg_17.1 = s32[1]{0} parameter(17)
  %constant.109 = s32[0]{0} constant({})
  %scatter-add.5 = s32[1]{0} scatter(%Arg_17.1, %constant.109, %constant.110), update_window_dims={0}, inserted_window_dims={}, scatter_dims_to_operand_dims={}, index_vector_dim=0, indices_are_sorted=true, unique_indices=true, to_apply=%region_3.24, metadata={op_name="checkpoint/dense_layers/scatter-add" stack_frame_id=30}
  ROOT %tuple.1 = (bf16[1,1,2048]{2,1,0}, s32[1]{0}, s32[1,1984]{1,0}, s32[1,64]{1,0}, bf16[1984,1,1,512]{3,2,1,0}, /*index=5*/s32[1]{0}, bf16[1984,1,1,64]{3,2,1,0}, bf16[64,1,1,512]{3,2,1,0}, bf16[64,1,1,64]{3,2,1,0}) tuple(%sharding_constraint.41, %jit_remainder_.1, %jit_dynamic_update_index_in_dim_.5, %Arg_15.1, %jit_dynamic_update_index_in_dim_.3, /*index=5*/%scatter-add.5, %jit_dynamic_update_index_in_dim_.4, %Arg_19.1, %Arg_20.1)
}

%dynamic_update_index_in_dim_20.36 (Arg_0.55: s32[1,1], Arg_1.53: s32[1], Arg_2.21: s32[]) -> s32[1,1] {
  %Arg_0.55 = s32[1,1]{1,0} parameter(0)
  %Arg_1.53 = s32[1]{0} parameter(1)
  %broadcast_in_dim.96 = s32[1,1]{1,0} reshape(%Arg_1.53), metadata={op_name="broadcast_in_dim" stack_frame_id=10}
  %Arg_2.21 = s32[] parameter(2)
  %constant.138 = s32[] constant(0)
  ROOT %dynamic_update_slice.7 = s32[1,1]{1,0} dynamic-update-slice(%Arg_0.55, %broadcast_in_dim.96, %Arg_2.21, %constant.138), metadata={op_name="dynamic_update_slice" stack_frame_id=10}
}

%dynamic_update_index_in_dim_21.37 (Arg_0.57: s32[1,1,1984], Arg_1.55: s32[1,1984], Arg_2.23: s32[]) -> s32[1,1,1984] {
  %Arg_0.57 = s32[1,1,1984]{2,1,0} parameter(0)
  %Arg_1.55 = s32[1,1984]{1,0} parameter(1)
  %broadcast_in_dim.98 = s32[1,1,1984]{2,1,0} reshape(%Arg_1.55), metadata={op_name="broadcast_in_dim" stack_frame_id=10}
  %Arg_2.23 = s32[] parameter(2)
  %constant.140 = s32[] constant(0)
  ROOT %dynamic_update_slice.9 = s32[1,1,1984]{2,1,0} dynamic-update-slice(%Arg_0.57, %broadcast_in_dim.98, %Arg_2.23, %constant.140, %constant.140), metadata={op_name="dynamic_update_slice" stack_frame_id=10}
}

%dynamic_update_index_in_dim_22.38 (Arg_0.59: s32[1,1,64], Arg_1.57: s32[1,64], Arg_2.25: s32[]) -> s32[1,1,64] {
  %Arg_0.59 = s32[1,1,64]{2,1,0} parameter(0)
  %Arg_1.57 = s32[1,64]{1,0} parameter(1)
  %broadcast_in_dim.100 = s32[1,1,64]{2,1,0} reshape(%Arg_1.57), metadata={op_name="broadcast_in_dim" stack_frame_id=10}
  %Arg_2.25 = s32[] parameter(2)
  %constant.142 = s32[] constant(0)
  ROOT %dynamic_update_slice.11 = s32[1,1,64]{2,1,0} dynamic-update-slice(%Arg_0.59, %broadcast_in_dim.100, %Arg_2.25, %constant.142, %constant.142), metadata={op_name="dynamic_update_slice" stack_frame_id=10}
}

%dynamic_update_index_in_dim_23.39 (Arg_0.61: bf16[1,1984,1,1,512], Arg_1.59: bf16[1984,1,1,512], Arg_2.27: s32[]) -> bf16[1,1984,1,1,512] {
  %Arg_0.61 = bf16[1,1984,1,1,512]{4,3,2,1,0} parameter(0)
  %Arg_1.59 = bf16[1984,1,1,512]{3,2,1,0} parameter(1)
  %broadcast_in_dim.102 = bf16[1,1984,1,1,512]{4,3,2,1,0} reshape(%Arg_1.59), metadata={op_name="broadcast_in_dim" stack_frame_id=10}
  %Arg_2.27 = s32[] parameter(2)
  %constant.144 = s32[] constant(0)
  ROOT %dynamic_update_slice.13 = bf16[1,1984,1,1,512]{4,3,2,1,0} dynamic-update-slice(%Arg_0.61, %broadcast_in_dim.102, %Arg_2.27, %constant.144, %constant.144, /*index=5*/%constant.144, %constant.144), metadata={op_name="dynamic_update_slice" stack_frame_id=10}
}

%dynamic_update_index_in_dim_24.40 (Arg_0.63: bf16[1,1984,1,1,64], Arg_1.61: bf16[1984,1,1,64], Arg_2.29: s32[]) -> bf16[1,1984,1,1,64] {
  %Arg_0.63 = bf16[1,1984,1,1,64]{4,3,2,1,0} parameter(0)
  %Arg_1.61 = bf16[1984,1,1,64]{3,2,1,0} parameter(1)
  %broadcast_in_dim.104 = bf16[1,1984,1,1,64]{4,3,2,1,0} reshape(%Arg_1.61), metadata={op_name="broadcast_in_dim" stack_frame_id=10}
  %Arg_2.29 = s32[] parameter(2)
  %constant.146 = s32[] constant(0)
  ROOT %dynamic_update_slice.15 = bf16[1,1984,1,1,64]{4,3,2,1,0} dynamic-update-slice(%Arg_0.63, %broadcast_in_dim.104, %Arg_2.29, %constant.146, %constant.146, /*index=5*/%constant.146, %constant.146), metadata={op_name="dynamic_update_slice" stack_frame_id=10}
}

%dynamic_update_index_in_dim_25.41 (Arg_0.65: bf16[1,64,1,1,512], Arg_1.63: bf16[64,1,1,512], Arg_2.31: s32[]) -> bf16[1,64,1,1,512] {
  %Arg_0.65 = bf16[1,64,1,1,512]{4,3,2,1,0} parameter(0)
  %Arg_1.63 = bf16[64,1,1,512]{3,2,1,0} parameter(1)
  %broadcast_in_dim.106 = bf16[1,64,1,1,512]{4,3,2,1,0} reshape(%Arg_1.63), metadata={op_name="broadcast_in_dim" stack_frame_id=5}
  %Arg_2.31 = s32[] parameter(2)
  %constant.148 = s32[] constant(0)
  ROOT %dynamic_update_slice.17 = bf16[1,64,1,1,512]{4,3,2,1,0} dynamic-update-slice(%Arg_0.65, %broadcast_in_dim.106, %Arg_2.31, %constant.148, %constant.148, /*index=5*/%constant.148, %constant.148), metadata={op_name="dynamic_update_slice" stack_frame_id=5}
}

%dynamic_update_index_in_dim_26.42 (Arg_0.67: bf16[1,64,1,1,64], Arg_1.65: bf16[64,1,1,64], Arg_2.33: s32[]) -> bf16[1,64,1,1,64] {
  %Arg_0.67 = bf16[1,64,1,1,64]{4,3,2,1,0} parameter(0)
  %Arg_1.65 = bf16[64,1,1,64]{3,2,1,0} parameter(1)
  %broadcast_in_dim.108 = bf16[1,64,1,1,64]{4,3,2,1,0} reshape(%Arg_1.65), metadata={op_name="broadcast_in_dim" stack_frame_id=5}
  %Arg_2.33 = s32[] parameter(2)
  %constant.150 = s32[] constant(0)
  ROOT %dynamic_update_slice.19 = bf16[1,64,1,1,64]{4,3,2,1,0} dynamic-update-slice(%Arg_0.67, %broadcast_in_dim.108, %Arg_2.33, %constant.150, %constant.150, /*index=5*/%constant.150, %constant.150), metadata={op_name="dynamic_update_slice" stack_frame_id=5}
}

%region_0.43 (arg_tuple.1: (s32[], bf16[1,1,2048], s32[1,1], s32[1,1,1984], s32[1,1,64], /*index=5*/bf16[1,1984,1,1,512], s32[1,1], bf16[1,1984,1,1,64], bf16[1,64,1,1,512], bf16[1,64,1,1,64], /*index=10*/f32[1,2048,10944], f32[1,2048,10944], f32[1,10944,2048], f32[1,2048], f32[1,2048], /*index=15*/f32[1,512], f32[1,16,128,2048], f32[1,2048,16,192], f32[1,2048,576], f32[1,512,16,256], /*index=20*/s32[1,1], s32[1,1,1984], s32[1,1,64], bf16[1,1984,1,1,512], s32[1,1], /*index=25*/bf16[1,1984,1,1,64], bf16[1,64,1,1,512], bf16[1,64,1,1,64], s32[1,1])) -> (s32[], bf16[1,1,2048], s32[1,1], s32[1,1,1984], s32[1,1,64], /*index=5*/bf16[1,1984,1,1,512], s32[1,1], bf16[1,1984,1,1,64], bf16[1,64,1,1,512], bf16[1,64,1,1,64], /*index=10*/f32[1,2048,10944], f32[1,2048,10944], f32[1,10944,2048], f32[1,2048], f32[1,2048], /*index=15*/f32[1,512], f32[1,16,128,2048], f32[1,2048,16,192], f32[1,2048,576], f32[1,512,16,256], /*index=20*/s32[1,1], s32[1,1,1984], s32[1,1,64], bf16[1,1984,1,1,512], s32[1,1], /*index=25*/bf16[1,1984,1,1,64], bf16[1,64,1,1,512], bf16[1,64,1,1,64], s32[1,1]) {
  %arg_tuple.1 = (s32[], bf16[1,1,2048]{2,1,0}, s32[1,1]{1,0}, s32[1,1,1984]{2,1,0}, s32[1,1,64]{2,1,0}, /*index=5*/bf16[1,1984,1,1,512]{4,3,2,1,0}, s32[1,1]{1,0}, bf16[1,1984,1,1,64]{4,3,2,1,0}, bf16[1,64,1,1,512]{4,3,2,1,0}, bf16[1,64,1,1,64]{4,3,2,1,0}, /*index=10*/f32[1,2048,10944]{2,1,0}, f32[1,2048,10944]{2,1,0}, f32[1,10944,2048]{2,1,0}, f32[1,2048]{1,0}, f32[1,2048]{1,0}, /*index=15*/f32[1,512]{1,0}, f32[1,16,128,2048]{3,2,1,0}, f32[1,2048,16,192]{3,2,1,0}, f32[1,2048,576]{2,1,0}, f32[1,512,16,256]{3,2,1,0}, /*index=20*/s32[1,1]{1,0}, s32[1,1,1984]{2,1,0}, s32[1,1,64]{2,1,0}, bf16[1,1984,1,1,512]{4,3,2,1,0}, s32[1,1]{1,0}, /*index=25*/bf16[1,1984,1,1,64]{4,3,2,1,0}, bf16[1,64,1,1,512]{4,3,2,1,0}, bf16[1,64,1,1,64]{4,3,2,1,0}, s32[1,1]{1,0}) parameter(0)
  %get-tuple-element.29 = s32[] get-tuple-element(%arg_tuple.1), index=0
  %constant.151 = s32[] constant(1)
  %add.44 = s32[] add(%get-tuple-element.29, %constant.151), metadata={op_name="jit(_generate_jit)/TransformerLinenPure.apply/TransformerLinenPure/decoder/dense_layers.wrapped_fn/while/body/add" stack_frame_id=336}
  %constant.152 = s32[0]{0} constant({})
  %get-tuple-element.57 = s32[1,1]{1,0} get-tuple-element(%arg_tuple.1), index=28
  %get-tuple-element.30 = bf16[1,1,2048]{2,1,0} get-tuple-element(%arg_tuple.1), index=1
  %get-tuple-element.39 = f32[1,2048,10944]{2,1,0} get-tuple-element(%arg_tuple.1), index=10
  %jit_dynamic_index_in_dim_.18 = f32[2048,10944]{1,0} call(%get-tuple-element.39, %get-tuple-element.29), to_apply=%dynamic_index_in_dim.1, metadata={op_name="jit(_generate_jit)/TransformerLinenPure.apply/TransformerLinenPure/decoder/dense_layers.wrapped_fn/while/body/jit(dynamic_index_in_dim)" stack_frame_id=336}
  %get-tuple-element.40 = f32[1,2048,10944]{2,1,0} get-tuple-element(%arg_tuple.1), index=11
  %jit_dynamic_index_in_dim_.19 = f32[2048,10944]{1,0} call(%get-tuple-element.40, %get-tuple-element.29), to_apply=%dynamic_index_in_dim.1, metadata={op_name="jit(_generate_jit)/TransformerLinenPure.apply/TransformerLinenPure/decoder/dense_layers.wrapped_fn/while/body/jit(dynamic_index_in_dim)" stack_frame_id=336}
  %get-tuple-element.41 = f32[1,10944,2048]{2,1,0} get-tuple-element(%arg_tuple.1), index=12
  %jit_dynamic_index_in_dim_.20 = f32[10944,2048]{1,0} call(%get-tuple-element.41, %get-tuple-element.29), to_apply=%dynamic_index_in_dim_0.2, metadata={op_name="jit(_generate_jit)/TransformerLinenPure.apply/TransformerLinenPure/decoder/dense_layers.wrapped_fn/while/body/jit(dynamic_index_in_dim)" stack_frame_id=336}
  %get-tuple-element.42 = f32[1,2048]{1,0} get-tuple-element(%arg_tuple.1), index=13
  %jit_dynamic_index_in_dim_.21 = f32[2048]{0} call(%get-tuple-element.42, %get-tuple-element.29), to_apply=%dynamic_index_in_dim_1.3, metadata={op_name="jit(_generate_jit)/TransformerLinenPure.apply/TransformerLinenPure/decoder/dense_layers.wrapped_fn/while/body/jit(dynamic_index_in_dim)" stack_frame_id=336}
  %get-tuple-element.43 = f32[1,2048]{1,0} get-tuple-element(%arg_tuple.1), index=14
  %jit_dynamic_index_in_dim_.22 = f32[2048]{0} call(%get-tuple-element.43, %get-tuple-element.29), to_apply=%dynamic_index_in_dim_1.3, metadata={op_name="jit(_generate_jit)/TransformerLinenPure.apply/TransformerLinenPure/decoder/dense_layers.wrapped_fn/while/body/jit(dynamic_index_in_dim)" stack_frame_id=336}
  %get-tuple-element.44 = f32[1,512]{1,0} get-tuple-element(%arg_tuple.1), index=15
  %jit_dynamic_index_in_dim_.23 = f32[512]{0} call(%get-tuple-element.44, %get-tuple-element.29), to_apply=%dynamic_index_in_dim_2.4, metadata={op_name="jit(_generate_jit)/TransformerLinenPure.apply/TransformerLinenPure/decoder/dense_layers.wrapped_fn/while/body/jit(dynamic_index_in_dim)" stack_frame_id=336}
  %get-tuple-element.45 = f32[1,16,128,2048]{3,2,1,0} get-tuple-element(%arg_tuple.1), index=16
  %jit_dynamic_index_in_dim_.24 = f32[16,128,2048]{2,1,0} call(%get-tuple-element.45, %get-tuple-element.29), to_apply=%dynamic_index_in_dim_3.5, metadata={op_name="jit(_generate_jit)/TransformerLinenPure.apply/TransformerLinenPure/decoder/dense_layers.wrapped_fn/while/body/jit(dynamic_index_in_dim)" stack_frame_id=336}
  %get-tuple-element.46 = f32[1,2048,16,192]{3,2,1,0} get-tuple-element(%arg_tuple.1), index=17
  %jit_dynamic_index_in_dim_.25 = f32[2048,16,192]{2,1,0} call(%get-tuple-element.46, %get-tuple-element.29), to_apply=%dynamic_index_in_dim_4.6, metadata={op_name="jit(_generate_jit)/TransformerLinenPure.apply/TransformerLinenPure/decoder/dense_layers.wrapped_fn/while/body/jit(dynamic_index_in_dim)" stack_frame_id=336}
  %get-tuple-element.47 = f32[1,2048,576]{2,1,0} get-tuple-element(%arg_tuple.1), index=18
  %jit_dynamic_index_in_dim_.26 = f32[2048,576]{1,0} call(%get-tuple-element.47, %get-tuple-element.29), to_apply=%dynamic_index_in_dim_5.7, metadata={op_name="jit(_generate_jit)/TransformerLinenPure.apply/TransformerLinenPure/decoder/dense_layers.wrapped_fn/while/body/jit(dynamic_index_in_dim)" stack_frame_id=336}
  %get-tuple-element.48 = f32[1,512,16,256]{3,2,1,0} get-tuple-element(%arg_tuple.1), index=19
  %jit_dynamic_index_in_dim_.27 = f32[512,16,256]{2,1,0} call(%get-tuple-element.48, %get-tuple-element.29), to_apply=%dynamic_index_in_dim_6.8, metadata={op_name="jit(_generate_jit)/TransformerLinenPure.apply/TransformerLinenPure/decoder/dense_layers.wrapped_fn/while/body/jit(dynamic_index_in_dim)" stack_frame_id=336}
  %get-tuple-element.49 = s32[1,1]{1,0} get-tuple-element(%arg_tuple.1), index=20
  %jit_dynamic_index_in_dim_.28 = s32[1]{0} call(%get-tuple-element.49, %get-tuple-element.29), to_apply=%dynamic_index_in_dim_7.9, metadata={op_name="jit(_generate_jit)/TransformerLinenPure.apply/TransformerLinenPure/decoder/dense_layers.wrapped_fn/while/body/jit(dynamic_index_in_dim)" stack_frame_id=336}
  %get-tuple-element.50 = s32[1,1,1984]{2,1,0} get-tuple-element(%arg_tuple.1), index=21
  %jit_dynamic_index_in_dim_.29 = s32[1,1984]{1,0} call(%get-tuple-element.50, %get-tuple-element.29), to_apply=%dynamic_index_in_dim_8.10, metadata={op_name="jit(_generate_jit)/TransformerLinenPure.apply/TransformerLinenPure/decoder/dense_layers.wrapped_fn/while/body/jit(dynamic_index_in_dim)" stack_frame_id=336}
  %get-tuple-element.51 = s32[1,1,64]{2,1,0} get-tuple-element(%arg_tuple.1), index=22
  %jit_dynamic_index_in_dim_.30 = s32[1,64]{1,0} call(%get-tuple-element.51, %get-tuple-element.29), to_apply=%dynamic_index_in_dim_9.11, metadata={op_name="jit(_generate_jit)/TransformerLinenPure.apply/TransformerLinenPure/decoder/dense_layers.wrapped_fn/while/body/jit(dynamic_index_in_dim)" stack_frame_id=336}
  %get-tuple-element.52 = bf16[1,1984,1,1,512]{4,3,2,1,0} get-tuple-element(%arg_tuple.1), index=23
…
  %broadcast_in_dim.208 = bf16[1,64,1,1,64]{4,3,2,1,0} broadcast(%constant.306), dimensions={}, metadata={op_name="jit(_generate_jit)/TransformerLinenPure.apply/TransformerLinenPure/decoder/dense_layers.wrapped_fn/broadcast_in_dim" stack_frame_id=331}
  %params__params____decoder____dense_layers____mlp____wi_0____kernel__.1 = f32[2048,1,10944]{2,1,0} parameter(20), sharding={replicated}, frontend_attributes={xla.sdy.sharding="#sdy.sharding<@mesh, [{\"fsdp\", \"tensor_transpose\", \"context\", \"expert\"}, {}, {\"fsdp_transpose\", \"tensor\", \"tensor_sequence\", \"autoregressive\"}]>"}, metadata={op_name="params[\'params\'][\'decoder\'][\'dense_layers\'][\'mlp\'][\'wi_0\'][\'kernel\']"}
  %transpose.79 = f32[1,2048,10944]{2,1,0} reshape(%params__params____decoder____dense_layers____mlp____wi_0____kernel__.1), metadata={op_name="jit(_generate_jit)/TransformerLinenPure.apply/TransformerLinenPure/decoder/dense_layers.wrapped_fn/transpose" stack_frame_id=716}
  %params__params____decoder____dense_layers____mlp____wi_1____kernel__.1 = f32[2048,1,10944]{2,1,0} parameter(21), sharding={replicated}, frontend_attributes={xla.sdy.sharding="#sdy.sharding<@mesh, [{\"fsdp\", \"tensor_transpose\", \"context\", \"expert\"}, {}, {\"fsdp_transpose\", \"tensor\", \"tensor_sequence\", \"autoregressive\"}]>"}, metadata={op_name="params[\'params\'][\'decoder\'][\'dense_layers\'][\'mlp\'][\'wi_1\'][\'kernel\']"}
  %transpose.80 = f32[1,2048,10944]{2,1,0} reshape(%params__params____decoder____dense_layers____mlp____wi_1____kernel__.1), metadata={op_name="jit(_generate_jit)/TransformerLinenPure.apply/TransformerLinenPure/decoder/dense_layers.wrapped_fn/transpose" stack_frame_id=716}
  %params__params____decoder____dense_layers____mlp____wo____kernel__.1 = f32[10944,1,2048]{2,1,0} parameter(22), sharding={replicated}, frontend_attributes={xla.sdy.sharding="#sdy.sharding<@mesh, [{\"fsdp_transpose\", \"tensor\", \"tensor_sequence\", \"autoregressive\"}, {}, {\"fsdp\", \"tensor_transpose\", \"context\", \"expert\"}]>"}, metadata={op_name="params[\'params\'][\'decoder\'][\'dense_layers\'][\'mlp\'][\'wo\'][\'kernel\']"}
  %transpose.81 = f32[1,10944,2048]{2,1,0} reshape(%params__params____decoder____dense_layers____mlp____wo____kernel__.1), metadata={op_name="jit(_generate_jit)/TransformerLinenPure.apply/TransformerLinenPure/decoder/dense_layers.wrapped_fn/transpose" stack_frame_id=716}
  %params__params____decoder____dense_layers____post_self_attention_layer_norm____scale__.1 = f32[2048,1]{1,0} parameter(23), sharding={replicated}, frontend_attributes={xla.sdy.sharding="#sdy.sharding<@mesh, [{\"tensor\", \"tensor_transpose\"}, {}]>"}, metadata={op_name="params[\'params\'][\'decoder\'][\'dense_layers\'][\'post_self_attention_layer_norm\'][\'scale\']"}
  %transpose.82 = f32[1,2048]{1,0} reshape(%params__params____decoder____dense_layers____post_self_attention_layer_norm____scale__.1), metadata={op_name="jit(_generate_jit)/TransformerLinenPure.apply/TransformerLinenPure/decoder/dense_layers.wrapped_fn/transpose" stack_frame_id=716}
  %params__params____decoder____dense_layers____pre_self_attention_layer_norm____scale__.1 = f32[2048,1]{1,0} parameter(24), sharding={replicated}, frontend_attributes={xla.sdy.sharding="#sdy.sharding<@mesh, [{\"tensor\", \"tensor_transpose\"}, {}]>"}, metadata={op_name="params[\'params\'][\'decoder\'][\'dense_layers\'][\'pre_self_attention_layer_norm\'][\'scale\']"}
  %transpose.83 = f32[1,2048]{1,0} reshape(%params__params____decoder____dense_layers____pre_self_attention_layer_norm____scale__.1), metadata={op_name="jit(_generate_jit)/TransformerLinenPure.apply/TransformerLinenPure/decoder/dense_layers.wrapped_fn/transpose" stack_frame_id=716}
  %params__params____decoder____dense_layers____self_attention____kv_norm____scale__.1 = f32[512,1]{1,0} parameter(25), sharding={replicated}, frontend_attributes={xla.sdy.sharding="#sdy.sharding<@mesh, [{\"tensor\", \"tensor_transpose\"}, {}]>"}, metadata={op_name="params[\'params\'][\'decoder\'][\'dense_layers\'][\'self_attention\'][\'kv_norm\'][\'scale\']"}
  %transpose.84 = f32[1,512]{1,0} reshape(%params__params____decoder____dense_layers____self_attention____kv_norm____scale__.1), metadata={op_name="jit(_generate_jit)/TransformerLinenPure.apply/TransformerLinenPure/decoder/dense_layers.wrapped_fn/transpose" stack_frame_id=716}
  %params__params____decoder____dense_layers____self_attention____out____kernel__.1 = f32[16,1,128,2048]{3,2,1,0} parameter(26), sharding={replicated}, frontend_attributes={xla.sdy.sharding="#sdy.sharding<@mesh, [{\"tensor\", \"tensor_transpose\", \"tensor_sequence\", \"autoregressive\"}, {}, {}, {\"fsdp\", \"fsdp_transpose\", \"context\", \"expert\"}]>"}, metadata={op_name="params[\'params\'][\'decoder\'][\'dense_layers\'][\'self_attention\'][\'out\'][\'kernel\']"}
  %transpose.85 = f32[1,16,128,2048]{3,2,1,0} reshape(%params__params____decoder____dense_layers____self_attention____out____kernel__.1), metadata={op_name="jit(_generate_jit)/TransformerLinenPure.apply/TransformerLinenPure/decoder/dense_layers.wrapped_fn/transpose" stack_frame_id=716}
  %params__params____decoder____dense_layers____self_attention____query____kernel__.1 = f32[2048,1,16,192]{3,2,1,0} parameter(27), sharding={replicated}, frontend_attributes={xla.sdy.sharding="#sdy.sharding<@mesh, [{\"fsdp\", \"fsdp_transpose\", \"context\", \"expert\"}, {}, {\"tensor\", \"tensor_transpose\", \"tensor_sequence\", \"autoregressive\"}, {}]>"}, metadata={op_name="params[\'params\'][\'decoder\'][\'dense_layers\'][\'self_attention\'][\'query\'][\'kernel\']"}
  %transpose.86 = f32[1,2048,16,192]{3,2,1,0} reshape(%params__params____decoder____dense_layers____self_attention____query____kernel__.1), metadata={op_name="jit(_generate_jit)/TransformerLinenPure.apply/TransformerLinenPure/decoder/dense_layers.wrapped_fn/transpose" stack_frame_id=716}
  %params__params____decoder____dense_layers____self_attention____wkv_a____kernel__.1 = f32[2048,1,576]{2,1,0} parameter(28), sharding={replicated}, frontend_attributes={xla.sdy.sharding="#sdy.sharding<@mesh, [{\"fsdp\", \"fsdp_transpose\", \"tensor_transpose\", \"context\", \"expert\"}, {}, {}]>"}, metadata={op_name="params[\'params\'][\'decoder\'][\'dense_layers\'][\'self_attention\'][\'wkv_a\'][\'kernel\']"}
  %transpose.87 = f32[1,2048,576]{2,1,0} reshape(%params__params____decoder____dense_layers____self_attention____wkv_a____kernel__.1), metadata={op_name="jit(_generate_jit)/TransformerLinenPure.apply/TransformerLinenPure/decoder/dense_layers.wrapped_fn/transpose" stack_frame_id=716}
  %params__params____decoder____dense_layers____self_attention____wkv_b____kernel__.1 = f32[512,1,16,256]{3,2,1,0} parameter(29), sharding={replicated}, frontend_attributes={xla.sdy.sharding="#sdy.sharding<@mesh, [{\"fsdp\", \"fsdp_transpose\", \"context\", \"expert\"}, {}, {\"tensor\", \"tensor_transpose\", \"tensor_sequence\", \"autoregressive\"}, {}]>"}, metadata={op_name="params[\'params\'][\'decoder\'][\'dense_layers\'][\'self_attention\'][\'wkv_b\'][\'kernel\']"}
  %transpose.88 = f32[1,512,16,256]{3,2,1,0} reshape(%params__params____decoder____dense_layers____self_attention____wkv_b____kernel__.1), metadata={op_name="jit(_generate_jit)/TransformerLinenPure.apply/TransformerLinenPure/decoder/dense_layers.wrapped_fn/transpose" stack_frame_id=716}
  %decode_state__cache____decoder____dense_layers____self_attention____MlaKVCache_0____cache_ar_index__.1 = s32[1,1]{1,0} parameter(0), sharding={replicated}, frontend_attributes={xla.sdy.sharding="#sdy.sharding<@mesh, [{}, {}]>"}, metadata={op_name="decode_state[\'cache\'][\'decoder\'][\'dense_layers\'][\'self_attention\'][\'MlaKVCache_0\'][\'cache_ar_index\']"}
  %decode_state__cache____decoder____dense_layers____self_attention____MlaKVCache_0____cache_ar_segment_id__.1 = s32[1,1,1984]{2,1,0} parameter(1), sharding={replicated}, frontend_attributes={xla.sdy.sharding="#sdy.sharding<@mesh, [{}, {}, {}]>"}, metadata={op_name="decode_state[\'cache\'][\'decoder\'][\'dense_layers\'][\'self_attention\'][\'MlaKVCache_0\'][\'cache_ar_segment_id\']"}
  %decode_state__cache____decoder____dense_layers____self_attention____MlaKVCache_0____cache_prefill_segment_id__.1 = s32[1,1,64]{2,1,0} parameter(2), sharding={replicated}, frontend_attributes={xla.sdy.sharding="#sdy.sharding<@mesh, [{}, {}, {}]>"}, metadata={op_name="decode_state[\'cache\'][\'decoder\'][\'dense_layers\'][\'self_attention\'][\'MlaKVCache_0\'][\'cache_prefill_segment_id\']"}
  %decode_state__cache____decoder____dense_layers____self_attention____MlaKVCache_0____cached_ar_key__.1 = bf16[1,1984,1,1,512]{4,3,2,1,0} parameter(3), sharding={replicated}, frontend_attributes={xla.sdy.sharding="#sdy.sharding<@mesh, [{}, {}, {}, {}, {}]>"}, metadata={op_name="decode_state[\'cache\'][\'decoder\'][\'dense_layers\'][\'self_attention\'][\'MlaKVCache_0\'][\'cached_ar_key\']"}
  %decode_state__cache____decoder____dense_layers____self_attention____MlaKVCache_0____cached_ar_lengths__.1 = s32[1,1]{1,0} parameter(4), sharding={replicated}, frontend_attributes={xla.sdy.sharding="#sdy.sharding<@mesh, [{}, {}]>"}, metadata={op_name="decode_state[\'cache\'][\'decoder\'][\'dense_layers\'][\'self_attention\'][\'MlaKVCache_0\'][\'cached_ar_lengths\']"}
  %decode_state__cache____decoder____dense_layers____self_attention____MlaKVCache_0____cached_ar_value__.1 = bf16[1,1984,1,1,64]{4,3,2,1,0} parameter(5), sharding={replicated}, frontend_attributes={xla.sdy.sharding="#sdy.sharding<@mesh, [{}, {}, {}, {}, {}]>"}, metadata={op_name="decode_state[\'cache\'][\'decoder\'][\'dense_layers\'][\'self_attention\'][\'MlaKVCache_0\'][\'cached_ar_value\']"}
  %decode_state__cache____decoder____dense_layers____self_attention____MlaKVCache_0____cached_prefill_key__.1 = bf16[1,64,1,1,512]{4,3,2,1,0} parameter(6), sharding={replicated}, frontend_attributes={xla.sdy.sharding="#sdy.sharding<@mesh, [{}, {}, {}, {}, {}]>"}, metadata={op_name="decode_state[\'cache\'][\'decoder\'][\'dense_layers\'][\'self_attention\'][\'MlaKVCache_0\'][\'cached_prefill_key\']"}
  %decode_state__cache____decoder____dense_layers____self_attention____MlaKVCache_0____cached_prefill_value__.1 = bf16[1,64,1,1,64]{4,3,2,1,0} parameter(7), sharding={replicated}, frontend_attributes={xla.sdy.sharding="#sdy.sharding<@mesh, [{}, {}, {}, {}, {}]>"}, metadata={op_name="decode_state[\'cache\'][\'decoder\'][\'dense_layers\'][\'self_attention\'][\'MlaKVCache_0\'][\'cached_prefill_value\']"}
  %decode_state__next_pos__.1 = s32[1,1]{1,0} parameter(17), sharding={replicated}, frontend_attributes={xla.sdy.sharding="#sdy.sharding<@mesh, [{}, {}]>"}, metadata={op_name="decode_state[\'next_pos\']"}
  %while.24 = (s32[], bf16[1,1,2048]{2,1,0}, s32[1,1]{1,0}, s32[1,1,1984]{2,1,0}, s32[1,1,64]{2,1,0}, /*index=5*/bf16[1,1984,1,1,512]{4,3,2,1,0}, s32[1,1]{1,0}, bf16[1,1984,1,1,64]{4,3,2,1,0}, bf16[1,64,1,1,512]{4,3,2,1,0}, bf16[1,64,1,1,64]{4,3,2,1,0}, /*index=10*/f32[1,2048,10944]{2,1,0}, f32[1,2048,10944]{2,1,0}, f32[1,10944,2048]{2,1,0}, f32[1,2048]{1,0}, f32[1,2048]{1,0}, /*index=15*/f32[1,512]{1,0}, f32[1,16,128,2048]{3,2,1,0}, f32[1,2048,16,192]{3,2,1,0}, f32[1,2048,576]{2,1,0}, f32[1,512,16,256]{3,2,1,0}, /*index=20*/s32[1,1]{1,0}, s32[1,1,1984]{2,1,0}, s32[1,1,64]{2,1,0}, bf16[1,1984,1,1,512]{4,3,2,1,0}, s32[1,1]{1,0}, /*index=25*/bf16[1,1984,1,1,64]{4,3,2,1,0}, bf16[1,64,1,1,512]{4,3,2,1,0}, bf16[1,64,1,1,64]{4,3,2,1,0}, s32[1,1]{1,0}) tuple(%constant.315, %gather.9, %constant.313, %broadcast_in_dim.213, %broadcast_in_dim.212, /*index=5*/%broadcast_in_dim.211, %constant.313, %broadcast_in_dim.210, %broadcast_in_dim.209, %broadcast_in_dim.208, /*index=10*/%transpose.79, %transpose.80, %transpose.81, %transpose.82, %transpose.83, /*index=15*/%transpose.84, %transpose.85, %transpose.86, %transpose.87, %transpose.88, /*index=20*/%decode_state__cache____decoder____dense_layers____self_attention____MlaKVCache_0____cache_ar_index__.1, %decode_state__cache____decoder____dense_layers____self_attention____MlaKVCache_0____cache_ar_segment_id__.1, %decode_state__cache____decoder____dense_layers____self_attention____MlaKVCache_0____cache_prefill_segment_id__.1, %decode_state__cache____decoder____dense_layers____self_attention____MlaKVCache_0____cached_ar_key__.1, %decode_state__cache____decoder____dense_layers____self_attention____MlaKVCache_0____cached_ar_lengths__.1, /*index=25*/%decode_state__cache____decoder____dense_layers____self_attention____MlaKVCache_0____cached_ar_value__.1, %decode_state__cache____decoder____dense_layers____self_attention____MlaKVCache_0____cached_prefill_key__.1, %decode_state__cache____decoder____dense_layers____self_attention____MlaKVCache_0____cached_prefill_value__.1, %decode_state__next_pos__.1), metadata={op_name="jit(_generate_jit)/TransformerLinenPure.apply/TransformerLinenPure/decoder/dense_layers.wrapped_fn/while" stack_frame_id=331}
  %while.25 = (s32[], bf16[1,1,2048]{2,1,0}, s32[1,1]{1,0}, s32[1,1,1984]{2,1,0}, s32[1,1,64]{2,1,0}, /*index=5*/bf16[1,1984,1,1,512]{4,3,2,1,0}, s32[1,1]{1,0}, bf16[1,1984,1,1,64]{4,3,2,1,0}, bf16[1,64,1,1,512]{4,3,2,1,0}, bf16[1,64,1,1,64]{4,3,2,1,0}, /*index=10*/f32[1,2048,10944]{2,1,0}, f32[1,2048,10944]{2,1,0}, f32[1,10944,2048]{2,1,0}, f32[1,2048]{1,0}, f32[1,2048]{1,0}, /*index=15*/f32[1,512]{1,0}, f32[1,16,128,2048]{3,2,1,0}, f32[1,2048,16,192]{3,2,1,0}, f32[1,2048,576]{2,1,0}, f32[1,512,16,256]{3,2,1,0}, /*index=20*/s32[1,1]{1,0}, s32[1,1,1984]{2,1,0}, s32[1,1,64]{2,1,0}, bf16[1,1984,1,1,512]{4,3,2,1,0}, s32[1,1]{1,0}, /*index=25*/bf16[1,1984,1,1,64]{4,3,2,1,0}, bf16[1,64,1,1,512]{4,3,2,1,0}, bf16[1,64,1,1,64]{4,3,2,1,0}, s32[1,1]{1,0}) while(%while.24), condition=%region_9.44, body=%region_0.43, metadata={op_name="jit(_generate_jit)/TransformerLinenPure.apply/TransformerLinenPure/decoder/dense_layers.wrapped_fn/while" stack_frame_id=331}
  %while.26 = s32[] get-tuple-element(%while.25), index=0, metadata={op_name="jit(_generate_jit)/TransformerLinenPure.apply/TransformerLinenPure/decoder/dense_layers.wrapped_fn/while" stack_frame_id=331}
  %while.27 = bf16[1,1,2048]{2,1,0} get-tuple-element(%while.25), index=1, metadata={op_name="jit(_generate_jit)/TransformerLinenPure.apply/TransformerLinenPure/decoder/dense_layers.wrapped_fn/while" stack_frame_id=331}
  %constant.305 = s32[] constant(0)
  %broadcast.55 = s32[26,1]{1,0} broadcast(%constant.305), dimensions={}
  %constant.304 = s32[] constant(0)
  %broadcast_in_dim.207 = s32[26,1,1984]{2,1,0} broadcast(%constant.304), dimensions={}, metadata={op_name="jit(_generate_jit)/TransformerLinenPure.apply/TransformerLinenPure/decoder/moe_layers.wrapped_fn/broadcast_in_dim" stack_frame_id=695}
  %constant.303 = s32[] constant(0)
  %broadcast_in_dim.206 = s32[26,1,64]{2,1,0} broadcast(%constant.303), dimensions={}, metadata={op_name="jit(_generate_jit)/TransformerLinenPure.apply/TransformerLinenPure/decoder/moe_layers.wrapped_fn/broadcast_in_dim" stack_frame_id=695}
  %constant.302 = bf16[] constant(0)
  %broadcast_in_dim.205 = bf16[26,1984,1,1,512]{4,3,2,1,0} broadcast(%constant.302), dimensions={}, metadata={op_name="jit(_generate_jit)/TransformerLinenPure.apply/TransformerLinenPure/decoder/moe_layers.wrapped_fn/broadcast_in_dim" stack_frame_id=695}
  %constant.301 = bf16[] constant(0)
  %broadcast_in_dim.204 = bf16[26,1984,1,1,64]{4,3,2,1,0} broadcast(%constant.301), dimensions={}, metadata={op_name="jit(_generate_jit)/TransformerLinenPure.apply/TransformerLinenPure/decoder/moe_layers.wrapped_fn/broadcast_in_dim" stack_frame_id=695}
  %constant.300 = bf16[] constant(0)
  %broadcast_in_dim.203 = bf16[26,64,1,1,512]{4,3,2,1,0} broadcast(%constant.300), dimensions={}, metadata={op_name="jit(_generate_jit)/TransformerLinenPure.apply/TransformerLinenPure/decoder/moe_layers.wrapped_fn/broadcast_in_dim" stack_frame_id=695}
  %constant.299 = bf16[] constant(0)
  %broadcast_in_dim.202 = bf16[26,64,1,1,64]{4,3,2,1,0} broadcast(%constant.299), dimensions={}, metadata={op_name="jit(_generate_jit)/TransformerLinenPure.apply/TransformerLinenPure/decoder/moe_layers.wrapped_fn/broadcast_in_dim" stack_frame_id=695}
  %params__params____decoder____moe_layers____DeepSeekMoeBlock_0____MoeBlock_0____gate____kernel__.1 = f32[2048,26,64]{2,1,0} parameter(31), sharding={replicated}, frontend_attributes={xla.sdy.sharding="#sdy.sharding<@mesh, [{\"fsdp\", \"fsdp_transpose\", \"tensor_transpose\", \"context\"}, {}, {}]>"}, metadata={op_name="params[\'params\'][\'decoder\'][\'moe_layers\'][\'DeepSeekMoeBlock_0\'][\'MoeBlock_0\'][\'gate\'][\'kernel\']"}
  %transpose.89 = f32[26,2048,64]{2,0,1} transpose(%params__params____decoder____moe_layers____DeepSeekMoeBlock_0____MoeBlock_0____gate____kernel__.1), dimensions={1,0,2}, metadata={op_name="jit(_generate_jit)/TransformerLinenPure.apply/TransformerLinenPure/decoder/moe_layers.wrapped_fn/transpose" stack_frame_id=719}
  %params__params____decoder____moe_layers____DeepSeekMoeBlock_0____MoeBlock_0____wi_0__.1 = f32[64,26,2048,1408]{3,2,1,0} parameter(32), sharding={replicated}, frontend_attributes={xla.sdy.sharding="#sdy.sharding<@mesh, [{\"expert\"}, {}, {\"fsdp\", \"tensor_transpose\", \"context\"}, {\"fsdp_transpose\", \"tensor\", \"tensor_sequence\", \"autoregressive\"}]>"}, metadata={op_name="params[\'params\'][\'decoder\'][\'moe_layers\'][\'DeepSeekMoeBlock_0\'][\'MoeBlock_0\'][\'wi_0\']"}
  %transpose.90 = f32[26,64,2048,1408]{3,2,0,1} transpose(%params__params____decoder____moe_layers____DeepSeekMoeBlock_0____MoeBlock_0____wi_0__.1), dimensions={1,0,2,3}, metadata={op_name="jit(_generate_jit)/TransformerLinenPure.apply/TransformerLinenPure/decoder/moe_layers.wrapped_fn/transpose" stack_frame_id=719}
  %params__params____decoder____moe_layers____DeepSeekMoeBlock_0____MoeBlock_0____wi_1__.1 = f32[64,26,2048,1408]{3,2,1,0} parameter(33), sharding={replicated}, frontend_attributes={xla.sdy.sharding="#sdy.sharding<@mesh, [{\"expert\"}, {}, {\"fsdp\", \"tensor_transpose\", \"context\"}, {\"fsdp_transpose\", \"tensor\", \"tensor_sequence\", \"autoregressive\"}]>"}, metadata={op_name="params[\'params\'][\'decoder\'][\'moe_layers\'][\'DeepSeekMoeBlock_0\'][\'MoeBlock_0\'][\'wi_1\']"}
  %transpose.91 = f32[26,64,2048,1408]{3,2,0,1} transpose(%params__params____decoder____moe_layers____DeepSeekMoeBlock_0____MoeBlock_0____wi_1__.1), dimensions={1,0,2,3}, metadata={op_name="jit(_generate_jit)/TransformerLinenPure.apply/TransformerLinenPure/decoder/moe_layers.wrapped_fn/transpose" stack_frame_id=719}
  %params__params____decoder____moe_layers____DeepSeekMoeBlock_0____MoeBlock_0____wo__.1 = f32[64,26,1408,2048]{3,2,1,0} parameter(34), sharding={replicated}, frontend_attributes={xla.sdy.sharding="#sdy.sharding<@mesh, [{\"expert\"}, {}, {\"fsdp_transpose\", \"tensor\", \"tensor_sequence\", \"autoregressive\"}, {\"fsdp\", \"tensor_transpose\", \"context\"}]>"}, metadata={op_name="params[\'params\'][\'decoder\'][\'moe_layers\'][\'DeepSeekMoeBlock_0\'][\'MoeBlock_0\'][\'wo\']"}
  %transpose.92 = f32[26,64,1408,2048]{3,2,0,1} transpose(%params__params____decoder____moe_layers____DeepSeekMoeBlock_0____MoeBlock_0____wo__.1), dimensions={1,0,2,3}, metadata={op_name="jit(_generate_jit)/TransformerLinenPure.apply/TransformerLinenPure/decoder/moe_layers.wrapped_fn/transpose" stack_frame_id=719}
  %params__params____decoder____moe_layers____DeepSeekMoeBlock_0____shared_experts____wi_0____kernel__.1 = f32[2048,26,2816]{2,1,0} parameter(35), sharding={replicated}, frontend_attributes={xla.sdy.sharding="#sdy.sharding<@mesh, [{\"fsdp\", \"tensor_transpose\", \"context\", \"expert\"}, {}, {\"fsdp_transpose\", \"tensor\", \"tensor_sequence\", \"autoregressive\"}]>"}, metadata={op_name="params[\'params\'][\'decoder\'][\'moe_layers\'][\'DeepSeekMoeBlock_0\'][\'shared_experts\'][\'wi_0\'][\'kernel\']"}
  %transpose.93 = f32[26,2048,2816]{2,0,1} transpose(%params__params____decoder____moe_layers____DeepSeekMoeBlock_0____shared_experts____wi_0____kernel__.1), dimensions={1,0,2}, metadata={op_name="jit(_generate_jit)/TransformerLinenPure.apply/TransformerLinenPure/decoder/moe_layers.wrapped_fn/transpose" stack_frame_id=719}
  %params__params____decoder____moe_layers____DeepSeekMoeBlock_0____shared_experts____wi_1____kernel__.1 = f32[2048,26,2816]{2,1,0} parameter(36), sharding={replicated}, frontend_attributes={xla.sdy.sharding="#sdy.sharding<@mesh, [{\"fsdp\", \"tensor_transpose\", \"context\", \"expert\"}, {}, {\"fsdp_transpose\", \"tensor\", \"tensor_sequence\", \"autoregressive\"}]>"}, metadata={op_name="params[\'params\'][\'decoder\'][\'moe_layers\'][\'DeepSeekMoeBlock_0\'][\'shared_experts\'][\'wi_1\'][\'kernel\']"}
  %transpose.94 = f32[26,2048,2816]{2,0,1} transpose(%params__params____decoder____moe_layers____DeepSeekMoeBlock_0____shared_experts____wi_1____kernel__.1), dimensions={1,0,2}, metadata={op_name="jit(_generate_jit)/TransformerLinenPure.apply/TransformerLinenPure/decoder/moe_layers.wrapped_fn/transpose" stack_frame_id=719}
  %params__params____decoder____moe_layers____DeepSeekMoeBlock_0____shared_experts____wo____kernel__.1 = f32[2816,26,2048]{2,1,0} parameter(37), sharding={replicated}, frontend_attributes={xla.sdy.sharding="#sdy.sharding<@mesh, [{\"fsdp_transpose\", \"tensor\", \"tensor_sequence\", \"autoregressive\"}, {}, {\"fsdp\", \"tensor_transpose\", \"context\", \"expert\"}]>"}, metadata={op_name="params[\'params\'][\'decoder\'][\'moe_layers\'][\'DeepSeekMoeBlock_0\'][\'shared_experts\'][\'wo\'][\'kernel\']"}
  %transpose.95 = f32[26,2816,2048]{2,0,1} transpose(%params__params____decoder____moe_layers____DeepSeekMoeBlock_0____shared_experts____wo____kernel__.1), dimensions={1,0,2}, metadata={op_name="jit(_generate_jit)/TransformerLinenPure.apply/TransformerLinenPure/decoder/moe_layers.wrapped_fn/transpose" stack_frame_id=719}
  %params__params____decoder____moe_layers____post_self_attention_layer_norm____scale__.1 = f32[2048,26]{1,0} parameter(38), sharding={replicated}, frontend_attributes={xla.sdy.sharding="#sdy.sharding<@mesh, [{\"tensor\", \"tensor_transpose\"}, {}]>"}, metadata={op_name="params[\'params\'][\'decoder\'][\'moe_layers\'][\'post_self_attention_layer_norm\'][\'scale\']"}
  %transpose.96 = f32[26,2048]{0,1} transpose(%params__params____decoder____moe_layers____post_self_attention_layer_norm____scale__.1), dimensions={1,0}, metadata={op_name="jit(_generate_jit)/TransformerLinenPure.apply/TransformerLinenPure/decoder/moe_layers.wrapped_fn/transpose" stack_frame_id=719}
  %params__params____decoder____moe_layers____pre_self_attention_layer_norm____scale__.1 = f32[2048,26]{1,0} parameter(39), sharding={replicated}, frontend_attributes={xla.sdy.sharding="#sdy.sharding<@mesh, [{\"tensor\", \"tensor_transpose\"}, {}]>"}, metadata={op_name="params[\'params\'][\'decoder\'][\'moe_layers\'][\'pre_self_attention_layer_norm\'][\'scale\']"}
  %transpose.97 = f32[26,2048]{0,1} transpose(%params__params____decoder____moe_layers____pre_self_attention_layer_norm____scale__.1), dimensions={1,0}, metadata={op_name="jit(_generate_jit)/TransformerLinenPure.apply/TransformerLinenPure/decoder/moe_layers.wrapped_fn/transpose" stack_frame_id=719}
  %params__params____decoder____moe_layers____self_attention____kv_norm____scale__.1 = f32[512,26]{1,0} parameter(40), sharding={replicated}, frontend_attributes={xla.sdy.sharding="#sdy.sharding<@mesh, [{\"tensor\", \"tensor_transpose\"}, {}]>"}, metadata={op_name="params[\'params\'][\'decoder\'][\'moe_layers\'][\'self_attention\'][\'kv_norm\'][\'scale\']"}
  %transpose.98 = f32[26,512]{0,1} transpose(%params__params____decoder____moe_layers____self_attention____kv_norm____scale__.1), dimensions={1,0}, metadata={op_name="jit(_generate_jit)/TransformerLinenPure.apply/TransformerLinenPure/decoder/moe_layers.wrapped_fn/transpose" stack_frame_id=719}
  %params__params____decoder____moe_layers____self_attention____out____kernel__.1 = f32[16,26,128,2048]{3,2,1,0} parameter(41), sharding={replicated}, frontend_attributes={xla.sdy.sharding="#sdy.sharding<@mesh, [{\"tensor\", \"tensor_transpose\", \"tensor_sequence\", \"autoregressive\"}, {}, {}, {\"fsdp\", \"fsdp_transpose\", \"context\", \"expert\"}]>"}, metadata={op_name="params[\'params\'][\'decoder\'][\'moe_layers\'][\'self_attention\'][\'out\'][\'kernel\']"}
  %transpose.99 = f32[26,16,128,2048]{3,2,0,1} transpose(%params__params____decoder____moe_layers____self_attention____out____kernel__.1), dimensions={1,0,2,3}, metadata={op_name="jit(_generate_jit)/TransformerLinenPure.apply/TransformerLinenPure/decoder/moe_layers.wrapped_fn/transpose" stack_frame_id=719}
  %params__params____decoder____moe_layers____self_attention____query____kernel__.1 = f32[2048,26,16,192]{3,2,1,0} parameter(42), sharding={replicated}, frontend_attributes={xla.sdy.sharding="#sdy.sharding<@mesh, [{\"fsdp\", \"fsdp_transpose\", \"context\", \"expert\"}, {}, {\"tensor\", \"tensor_transpose\", \"tensor_sequence\", \"autoregressive\"}, {}]>"}, metadata={op_name="params[\'params\'][\'decoder\'][\'moe_layers\'][\'self_attention\'][\'query\'][\'kernel\']"}
  %transpose.100 = f32[26,2048,16,192]{3,2,0,1} transpose(%params__params____decoder____moe_layers____self_attention____query____kernel__.1), dimensions={1,0,2,3}, metadata={op_name="jit(_generate_jit)/TransformerLinenPure.apply/TransformerLinenPure/decoder/moe_layers.wrapped_fn/transpose" stack_frame_id=719}
  %params__params____decoder____moe_layers____self_attention____wkv_a____kernel__.1 = f32[2048,26,576]{2,1,0} parameter(43), sharding={replicated}, frontend_attributes={xla.sdy.sharding="#sdy.sharding<@mesh, [{\"fsdp\", \"fsdp_transpose\", \"tensor_transpose\", \"context\", \"expert\"}, {}, {}]>"}, metadata={op_name="params[\'params\'][\'decoder\'][\'moe_layers\'][\'self_attention\'][\'wkv_a\'][\'kernel\']"}
  %transpose.101 = f32[26,2048,576]{2,0,1} transpose(%params__params____decoder____moe_layers____self_attention____wkv_a____kernel__.1), dimensions={1,0,2}, metadata={op_name="jit(_generate_jit)/TransformerLinenPure.apply/TransformerLinenPure/decoder/moe_layers.wrapped_fn/transpose" stack_frame_id=719}
  %params__params____decoder____moe_layers____self_attention____wkv_b____kernel__.1 = f32[512,26,16,256]{3,2,1,0} parameter(44), sharding={replicated}, frontend_attributes={xla.sdy.sharding="#sdy.sharding<@mesh, [{\"fsdp\", \"fsdp_transpose\", \"context\", \"expert\"}, {}, {\"tensor\", \"tensor_transpose\", \"tensor_sequence\", \"autoregressive\"}, {}]>"}, metadata={op_name="params[\'params\'][\'decoder\'][\'moe_layers\'][\'self_attention\'][\'wkv_b\'][\'kernel\']"}
  %transpose.102 = f32[26,512,16,256]{3,2,0,1} transpose(%params__params____decoder____moe_layers____self_attention____wkv_b____kernel__.1), dimensions={1,0,2,3}, metadata={op_name="jit(_generate_jit)/TransformerLinenPure.apply/TransformerLinenPure/decoder/moe_layers.wrapped_fn/transpose" stack_frame_id=719}
  %decode_state__cache____decoder____moe_layers____self_attention____MlaKVCache_0____cache_ar_index__.1 = s32[26,1]{1,0} parameter(8), sharding={replicated}, frontend_attributes={xla.sdy.sharding="#sdy.sharding<@mesh, [{}, {}]>"}, metadata={op_name="decode_state[\'cache\'][\'decoder\'][\'moe_layers\'][\'self_attention\'][\'MlaKVCache_0\'][\'cache_ar_index\']"}
  %decode_state__cache____decoder____moe_layers____self_attention____MlaKVCache_0____cache_ar_segment_id__.1 = s32[26,1,1984]{2,1,0} parameter(9), sharding={replicated}, frontend_attributes={xla.sdy.sharding="#sdy.sharding<@mesh, [{}, {}, {}]>"}, metadata={op_name="decode_state[\'cache\'][\'decoder\'][\'moe_layers\'][\'self_attention\'][\'MlaKVCache_0\'][\'cache_ar_segment_id\']"}
  %decode_state__cache____decoder____moe_layers____self_attention____MlaKVCache_0____cache_prefill_segment_id__.1 = s32[26,1,64]{2,1,0} parameter(10), sharding={replicated}, frontend_attributes={xla.sdy.sharding="#sdy.sharding<@mesh, [{}, {}, {}]>"}, metadata={op_name="decode_state[\'cache\'][\'decoder\'][\'moe_layers\'][\'self_attention\'][\'MlaKVCache_0\'][\'cache_prefill_segment_id\']"}
  %decode_state__cache____decoder____moe_layers____self_attention____MlaKVCache_0____cached_ar_key__.1 = bf16[26,1984,1,1,512]{4,3,2,1,0} parameter(11), sharding={replicated}, frontend_attributes={xla.sdy.sharding="#sdy.sharding<@mesh, [{}, {}, {}, {}, {}]>"}, metadata={op_name="decode_state[\'cache\'][\'decoder\'][\'moe_layers\'][\'self_attention\'][\'MlaKVCache_0\'][\'cached_ar_key\']"}
  %decode_state__cache____decoder____moe_layers____self_attention____MlaKVCache_0____cached_ar_lengths__.1 = s32[26,1]{1,0} parameter(12), sharding={replicated}, frontend_attributes={xla.sdy.sharding="#sdy.sharding<@mesh, [{}, {}]>"}, metadata={op_name="decode_state[\'cache\'][\'decoder\'][\'moe_layers\'][\'self_attention\'][\'MlaKVCache_0\'][\'cached_ar_lengths\']"}
  %decode_state__cache____decoder____moe_layers____self_attention____MlaKVCache_0____cached_ar_value__.1 = bf16[26,1984,1,1,64]{4,3,2,1,0} parameter(13), sharding={replicated}, frontend_attributes={xla.sdy.sharding="#sdy.sharding<@mesh, [{}, {}, {}, {}, {}]>"}, metadata={op_name="decode_state[\'cache\'][\'decoder\'][\'moe_layers\'][\'self_attention\'][\'MlaKVCache_0\'][\'cached_ar_value\']"}
  %decode_state__cache____decoder____moe_layers____self_attention____MlaKVCache_0____cached_prefill_key__.1 = bf16[26,64,1,1,512]{4,3,2,1,0} parameter(14), sharding={replicated}, frontend_attributes={xla.sdy.sharding="#sdy.sharding<@mesh, [{}, {}, {}, {}, {}]>"}, metadata={op_name="decode_state[\'cache\'][\'decoder\'][\'moe_layers\'][\'self_attention\'][\'MlaKVCache_0\'][\'cached_prefill_key\']"}
  %decode_state__cache____decoder____moe_layers____self_attention____MlaKVCache_0____cached_prefill_value__.1 = bf16[26,64,1,1,64]{4,3,2,1,0} parameter(15), sharding={replicated}, frontend_attributes={xla.sdy.sharding="#sdy.sharding<@mesh, [{}, {}, {}, {}, {}]>"}, metadata={op_name="decode_state[\'cache\'][\'decoder\'][\'moe_layers\'][\'self_attention\'][\'MlaKVCache_0\'][\'cached_prefill_value\']"}
  %while.36 = (s32[], bf16[1,1,2048]{2,1,0}, s32[26,1]{1,0}, s32[26,1,1984]{2,1,0}, s32[26,1,64]{2,1,0}, /*index=5*/bf16[26,1984,1,1,512]{4,3,2,1,0}, s32[26,1]{1,0}, bf16[26,1984,1,1,64]{4,3,2,1,0}, bf16[26,64,1,1,512]{4,3,2,1,0}, bf16[26,64,1,1,64]{4,3,2,1,0}, /*index=10*/f32[26,2048,64]{2,0,1}, f32[26,64,2048,1408]{3,2,0,1}, f32[26,64,2048,1408]{3,2,0,1}, f32[26,64,1408,2048]{3,2,0,1}, f32[26,2048,2816]{2,0,1}, /*index=15*/f32[26,2048,2816]{2,0,1}, f32[26,2816,2048]{2,0,1}, f32[26,2048]{0,1}, f32[26,2048]{0,1}, f32[26,512]{0,1}, /*index=20*/f32[26,16,128,2048]{3,2,0,1}, f32[26,2048,16,192]{3,2,0,1}, f32[26,2048,576]{2,0,1}, f32[26,512,16,256]{3,2,0,1}, s32[26,1]{1,0}, /*index=25*/s32[26,1,1984]{2,1,0}, s32[26,1,64]{2,1,0}, bf16[26,1984,1,1,512]{4,3,2,1,0}, s32[26,1]{1,0}, bf16[26,1984,1,1,64]{4,3,2,1,0}, /*index=30*/bf16[26,64,1,1,512]{4,3,2,1,0}, bf16[26,64,1,1,64]{4,3,2,1,0}, s32[1,1]{1,0}) tuple(%constant.315, %while.27, %broadcast.55, %broadcast_in_dim.207, %broadcast_in_dim.206, /*index=5*/%broadcast_in_dim.205, %broadcast.55, %broadcast_in_dim.204, %broadcast_in_dim.203, %broadcast_in_dim.202, /*index=10*/%transpose.89, %transpose.90, %transpose.91, %transpose.92, %transpose.93, /*index=15*/%transpose.94, %transpose.95, %transpose.96, %transpose.97, %transpose.98, /*index=20*/%transpose.99, %transpose.100, %transpose.101, %transpose.102, %decode_state__cache____decoder____moe_layers____self_attention____MlaKVCache_0____cache_ar_index__.1, /*index=25*/%decode_state__cache____decoder____moe_layers____self_attention____MlaKVCache_0____cache_ar_segment_id__.1, %decode_state__cache____decoder____moe_layers____self_attention____MlaKVCache_0____cache_prefill_segment_id__.1, %decode_state__cache____decoder____moe_layers____self_attention____MlaKVCache_0____cached_ar_key__.1, %decode_state__cache____decoder____moe_layers____self_attention____MlaKVCache_0____cached_ar_lengths__.1, %decode_state__cache____decoder____moe_layers____self_attention____MlaKVCache_0____cached_ar_value__.1, /*index=30*/%decode_state__cache____decoder____moe_layers____self_attention____MlaKVCache_0____cached_prefill_key__.1, %decode_state__cache____decoder____moe_layers____self_attention____MlaKVCache_0____cached_prefill_value__.1, %decode_state__next_pos__.1), metadata={op_name="jit(_generate_jit)/TransformerLinenPure.apply/TransformerLinenPure/decoder/moe_layers.wrapped_fn/while" stack_frame_id=695}
  %while.37 = (s32[], bf16[1,1,2048]{2,1,0}, s32[26,1]{1,0}, s32[26,1,1984]{2,1,0}, s32[26,1,64]{2,1,0}, /*index=5*/bf16[26,1984,1,1,512]{4,3,2,1,0}, s32[26,1]{1,0}, bf16[26,1984,1,1,64]{4,3,2,1,0}, bf16[26,64,1,1,512]{4,3,2,1,0}, bf16[26,64,1,1,64]{4,3,2,1,0}, /*index=10*/f32[26,2048,64]{2,0,1}, f32[26,64,2048,1408]{3,2,0,1}, f32[26,64,2048,1408]{3,2,0,1}, f32[26,64,1408,2048]{3,2,0,1}, f32[26,2048,2816]{2,0,1}, /*index=15*/f32[26,2048,2816]{2,0,1}, f32[26,2816,2048]{2,0,1}, f32[26,2048]{0,1}, f32[26,2048]{0,1}, f32[26,512]{0,1}, /*index=20*/f32[26,16,128,2048]{3,2,0,1}, f32[26,2048,16,192]{3,2,0,1}, f32[26,2048,576]{2,0,1}, f32[26,512,16,256]{3,2,0,1}, s32[26,1]{1,0}, /*index=25*/s32[26,1,1984]{2,1,0}, s32[26,1,64]{2,1,0}, bf16[26,1984,1,1,512]{4,3,2,1,0}, s32[26,1]{1,0}, bf16[26,1984,1,1,64]{4,3,2,1,0}, /*index=30*/bf16[26,64,1,1,512]{4,3,2,1,0}, bf16[26,64,1,1,64]{4,3,2,1,0}, s32[1,1]{1,0}) while(%while.36), condition=%region_22.85, body=%region_10.84, metadata={op_name="jit(_generate_jit)/TransformerLinenPure.apply/TransformerLinenPure/decoder/moe_layers.wrapped_fn/while" stack_frame_id=695}
  %while.38 = s32[] get-tuple-element(%while.37), index=0, metadata={op_name="jit(_generate_jit)/TransformerLinenPure.apply/TransformerLinenPure/decoder/moe_layers.wrapped_fn/while" stack_frame_id=695}
  %while.28 = s32[1,1]{1,0} get-tuple-element(%while.25), index=2, metadata={op_name="jit(_generate_jit)/TransformerLinenPure.apply/TransformerLinenPure/decoder/dense_layers.wrapped_fn/while" stack_frame_id=331}
  %sharding_constraint.110 = s32[1,1]{1,0} custom-call(%while.28), custom_call_target="Sharding", sharding={replicated}, frontend_attributes={xla.sdy.sharding="#sdy.sharding_per_value<[<@mesh, [{}, {}]>]>"}, metadata={op_name="jit(_generate_jit)/sharding_constraint" stack_frame_id=720}
  %while.29 = s32[1,1,1984]{2,1,0} get-tuple-element(%while.25), index=3, metadata={op_name="jit(_generate_jit)/TransformerLinenPure.apply/TransformerLinenPure/decoder/dense_layers.wrapped_fn/while" stack_frame_id=331}
  %sharding_constraint.111 = s32[1,1,1984]{2,1,0} custom-call(%while.29), custom_call_target="Sharding", sharding={replicated}, frontend_attributes={xla.sdy.sharding="#sdy.sharding_per_value<[<@mesh, [{}, {}, {}]>]>"}, metadata={op_name="jit(_generate_jit)/sharding_constraint" stack_frame_id=720}
  %while.30 = s32[1,1,64]{2,1,0} get-tuple-element(%while.25), index=4, metadata={op_name="jit(_generate_jit)/TransformerLinenPure.apply/TransformerLinenPure/decoder/dense_layers.wrapped_fn/while" stack_frame_id=331}
  %sharding_constraint.112 = s32[1,1,64]{2,1,0} custom-call(%while.30), custom_call_target="Sharding", sharding={replicated}, frontend_attributes={xla.sdy.sharding="#sdy.sharding_per_value<[<@mesh, [{}, {}, {}]>]>"}, metadata={op_name="jit(_generate_jit)/sharding_constraint" stack_frame_id=720}
  %while.31 = bf16[1,1984,1,1,512]{4,3,2,1,0} get-tuple-element(%while.25), index=5, metadata={op_name="jit(_generate_jit)/TransformerLinenPure.apply/TransformerLinenPure/decoder/dense_layers.wrapped_fn/while" stack_frame_id=331}
  %sharding_constraint.113 = bf16[1,1984,1,1,512]{4,3,2,1,0} custom-call(%while.31), custom_call_target="Sharding", sharding={replicated}, frontend_attributes={xla.sdy.sharding="#sdy.sharding_per_value<[<@mesh, [{}, {}, {}, {}, {}]>]>"}, metadata={op_name="jit(_generate_jit)/sharding_constraint" stack_frame_id=720}
  %while.32 = s32[1,1]{1,0} get-tuple-element(%while.25), index=6, metadata={op_name="jit(_generate_jit)/TransformerLinenPure.apply/TransformerLinenPure/decoder/dense_layers.wrapped_fn/while" stack_frame_id=331}
  %sharding_constraint.114 = s32[1,1]{1,0} custom-call(%while.32), custom_call_target="Sharding", sharding={replicated}, frontend_attributes={xla.sdy.sharding="#sdy.sharding_per_value<[<@mesh, [{}, {}]>]>"}, metadata={op_name="jit(_generate_jit)/sharding_constraint" stack_frame_id=720}
  %while.33 = bf16[1,1984,1,1,64]{4,3,2,1,0} get-tuple-element(%while.25), index=7, metadata={op_name="jit(_generate_jit)/TransformerLinenPure.apply/TransformerLinenPure/decoder/dense_layers.wrapped_fn/while" stack_frame_id=331}
  %sharding_constraint.115 = bf16[1,1984,1,1,64]{4,3,2,1,0} custom-call(%while.33), custom_call_target="Sharding", sharding={replicated}, frontend_attributes={xla.sdy.sharding="#sdy.sharding_per_value<[<@mesh, [{}, {}, {}, {}, {}]>]>"}, metadata={op_name="jit(_generate_jit)/sharding_constraint" stack_frame_id=720}
  %while.34 = bf16[1,64,1,1,512]{4,3,2,1,0} get-tuple-element(%while.25), index=8, metadata={op_name="jit(_generate_jit)/TransformerLinenPure.apply/TransformerLinenPure/decoder/dense_layers.wrapped_fn/while" stack_frame_id=331}
  %sharding_constraint.116 = bf16[1,64,1,1,512]{4,3,2,1,0} custom-call(%while.34), custom_call_target="Sharding", sharding={replicated}, frontend_attributes={xla.sdy.sharding="#sdy.sharding_per_value<[<@mesh, [{}, {}, {}, {}, {}]>]>"}, metadata={op_name="jit(_generate_jit)/sharding_constraint" stack_frame_id=720}
  %while.35 = bf16[1,64,1,1,64]{4,3,2,1,0} get-tuple-element(%while.25), index=9, metadata={op_name="jit(_generate_jit)/TransformerLinenPure.apply/TransformerLinenPure/decoder/dense_layers.wrapped_fn/while" stack_frame_id=331}
  %sharding_constraint.117 = bf16[1,64,1,1,64]{4,3,2,1,0} custom-call(%while.35), custom_call_target="Sharding", sharding={replicated}, frontend_attributes={xla.sdy.sharding="#sdy.sharding_per_value<[<@mesh, [{}, {}, {}, {}, {}]>]>"}, metadata={op_name="jit(_generate_jit)/sharding_constraint" stack_frame_id=720}
  %while.40 = s32[26,1]{1,0} get-tuple-element(%while.37), index=2, metadata={op_name="jit(_generate_jit)/TransformerLinenPure.apply/TransformerLinenPure/decoder/moe_layers.wrapped_fn/while" stack_frame_id=695}
  %sharding_constraint.118 = s32[26,1]{1,0} custom-call(%while.40), custom_call_target="Sharding", sharding={replicated}, frontend_attributes={xla.sdy.sharding="#sdy.sharding_per_value<[<@mesh, [{}, {}]>]>"}, metadata={op_name="jit(_generate_jit)/sharding_constraint" stack_frame_id=720}
  %while.41 = s32[26,1,1984]{2,1,0} get-tuple-element(%while.37), index=3, metadata={op_name="jit(_generate_jit)/TransformerLinenPure.apply/TransformerLinenPure/decoder/moe_layers.wrapped_fn/while" stack_frame_id=695}
  %sharding_constraint.119 = s32[26,1,1984]{2,1,0} custom-call(%while.41), custom_call_target="Sharding", sharding={replicated}, frontend_attributes={xla.sdy.sharding="#sdy.sharding_per_value<[<@mesh, [{}, {}, {}]>]>"}, metadata={op_name="jit(_generate_jit)/sharding_constraint" stack_frame_id=720}
  %while.42 = s32[26,1,64]{2,1,0} get-tuple-element(%while.37), index=4, metadata={op_name="jit(_generate_jit)/TransformerLinenPure.apply/TransformerLinenPure/decoder/moe_layers.wrapped_fn/while" stack_frame_id=695}
  %sharding_constraint.120 = s32[26,1,64]{2,1,0} custom-call(%while.42), custom_call_target="Sharding", sharding={replicated}, frontend_attributes={xla.sdy.sharding="#sdy.sharding_per_value<[<@mesh, [{}, {}, {}]>]>"}, metadata={op_name="jit(_generate_jit)/sharding_constraint" stack_frame_id=720}
  %while.43 = bf16[26,1984,1,1,512]{4,3,2,1,0} get-tuple-element(%while.37), index=5, metadata={op_name="jit(_generate_jit)/TransformerLinenPure.apply/TransformerLinenPure/decoder/moe_layers.wrapped_fn/while" stack_frame_id=695}
  %sharding_constraint.121 = bf16[26,1984,1,1,512]{4,3,2,1,0} custom-call(%while.43), custom_call_target="Sharding", sharding={replicated}, frontend_attributes={xla.sdy.sharding="#sdy.sharding_per_value<[<@mesh, [{}, {}, {}, {}, {}]>]>"}, metadata={op_name="jit(_generate_jit)/sharding_constraint" stack_frame_id=720}
  %while.44 = s32[26,1]{1,0} get-tuple-element(%while.37), index=6, metadata={op_name="jit(_generate_jit)/TransformerLinenPure.apply/TransformerLinenPure/decoder/moe_layers.wrapped_fn/while" stack_frame_id=695}
  %sharding_constraint.122 = s32[26,1]{1,0} custom-call(%while.44), custom_call_target="Sharding", sharding={replicated}, frontend_attributes={xla.sdy.sharding="#sdy.sharding_per_value<[<@mesh, [{}, {}]>]>"}, metadata={op_name="jit(_generate_jit)/sharding_constraint" stack_frame_id=720}
  %while.45 = bf16[26,1984,1,1,64]{4,3,2,1,0} get-tuple-element(%while.37), index=7, metadata={op_name="jit(_generate_jit)/TransformerLinenPure.apply/TransformerLinenPure/decoder/moe_layers.wrapped_fn/while" stack_frame_id=695}
  %sharding_constraint.123 = bf16[26,1984,1,1,64]{4,3,2,1,0} custom-call(%while.45), custom_call_target="Sharding", sharding={replicated}, frontend_attributes={xla.sdy.sharding="#sdy.sharding_per_value<[<@mesh, [{}, {}, {}, {}, {}]>]>"}, metadata={op_name="jit(_generate_jit)/sharding_constraint" stack_frame_id=720}
  %while.46 = bf16[26,64,1,1,512]{4,3,2,1,0} get-tuple-element(%while.37), index=8, metadata={op_name="jit(_generate_jit)/TransformerLinenPure.apply/TransformerLinenPure/decoder/moe_layers.wrapped_fn/while" stack_frame_id=695}
  %sharding_constraint.124 = bf16[26,64,1,1,512]{4,3,2,1,0} custom-call(%while.46), custom_call_target="Sharding", sharding={replicated}, frontend_attributes={xla.sdy.sharding="#sdy.sharding_per_value<[<@mesh, [{}, {}, {}, {}, {}]>]>"}, metadata={op_name="jit(_generate_jit)/sharding_constraint" stack_frame_id=720}
  %while.47 = bf16[26,64,1,1,64]{4,3,2,1,0} get-tuple-element(%while.37), index=9, metadata={op_name="jit(_generate_jit)/TransformerLinenPure.apply/TransformerLinenPure/decoder/moe_layers.wrapped_fn/while" stack_frame_id=695}
  %sharding_constraint.125 = bf16[26,64,1,1,64]{4,3,2,1,0} custom-call(%while.47), custom_call_target="Sharding", sharding={replicated}, frontend_attributes={xla.sdy.sharding="#sdy.sharding_per_value<[<@mesh, [{}, {}, {}, {}, {}]>]>"}, metadata={op_name="jit(_generate_jit)/sharding_constraint" stack_frame_id=720}
  %decode_state__generated_tokens__.1 = s32[1,1]{1,0} parameter(16), sharding={replicated}, frontend_attributes={xla.sdy.sharding="#sdy.sharding<@mesh, [{}, {}]>"}, metadata={op_name="decode_state[\'generated_tokens\']"}
  %constant.295 = s32[1,1]{1,0} constant({ {1} })
  %add.95 = s32[1,1]{1,0} add(%decode_state__generated_tokens__.1, %constant.295), metadata={op_name="jit(_generate_jit)/add" stack_frame_id=721}
  %params__params____decoder____decoder_norm____scale__.1 = f32[2048]{0} parameter(19), sharding={replicated}, frontend_attributes={xla.sdy.sharding="#sdy.sharding<@mesh, [{\"tensor\", \"tensor_transpose\"}]>"}, metadata={op_name="params[\'params\'][\'decoder\'][\'decoder_norm\'][\'scale\']"}
  %convert_element_type.151 = bf16[2048]{0} convert(%params__params____decoder____decoder_norm____scale__.1), metadata={op_name="jit(_generate_jit)/TransformerLinenPure.apply/TransformerLinenPure/decoder/decoder.apply_output_head/decoder_norm/convert_element_type" stack_frame_id=722}
  %while.39 = bf16[1,1,2048]{2,1,0} get-tuple-element(%while.37), index=1, metadata={op_name="jit(_generate_jit)/TransformerLinenPure.apply/TransformerLinenPure/decoder/moe_layers.wrapped_fn/while" stack_frame_id=695}
  %convert_element_type.149 = f32[1,1,2048]{2,1,0} convert(%while.39), metadata={op_name="jit(_generate_jit)/TransformerLinenPure.apply/TransformerLinenPure/decoder/decoder.apply_output_head/decoder_norm/convert_element_type" stack_frame_id=723}
  %square.13 = f32[1,1,2048]{2,1,0} multiply(%convert_element_type.149, %convert_element_type.149), metadata={op_name="jit(_generate_jit)/TransformerLinenPure.apply/TransformerLinenPure/decoder/decoder.apply_output_head/decoder_norm/square" stack_frame_id=724}
  %constant.314 = f32[] constant(0)
  %reduce_sum.95 = f32[1,1]{1,0} reduce(%square.13, %constant.314), dimensions={2}, to_apply=%region_23.86, metadata={op_name="jit(_generate_jit)/TransformerLinenPure.apply/TransformerLinenPure/decoder/decoder.apply_output_head/decoder_norm/reduce_sum" stack_frame_id=704}
  %broadcast_in_dim.215 = f32[1,1,1]{2,1,0} reshape(%reduce_sum.95), metadata={op_name="jit(_generate_jit)/TransformerLinenPure.apply/TransformerLinenPure/decoder/decoder.apply_output_head/decoder_norm/broadcast_in_dim" stack_frame_id=704}
  %constant.298 = f32[1,1,1]{2,1,0} constant({ { {2048} } })
  %div.67 = f32[1,1,1]{2,1,0} divide(%broadcast_in_dim.215, %constant.298), metadata={op_name="jit(_generate_jit)/TransformerLinenPure.apply/TransformerLinenPure/decoder/decoder.apply_output_head/decoder_norm/div" stack_frame_id=704}
  %constant.297 = f32[1,1,1]{2,1,0} constant({ { {1e-06} } })
  %add.93 = f32[1,1,1]{2,1,0} add(%div.67, %constant.297), metadata={op_name="jit(_generate_jit)/TransformerLinenPure.apply/TransformerLinenPure/decoder/decoder.apply_output_head/decoder_norm/add" stack_frame_id=725}
  %rsqrt.13 = f32[1,1,1]{2,1,0} rsqrt(%add.93), metadata={op_name="jit(_generate_jit)/TransformerLinenPure.apply/TransformerLinenPure/decoder/decoder.apply_output_head/decoder_norm/rsqrt" stack_frame_id=726}
  %mul.224 = f32[1,1,1]{2,1,0} broadcast(%rsqrt.13), dimensions={0,1,2}, metadata={op_name="jit(_generate_jit)/TransformerLinenPure.apply/TransformerLinenPure/decoder/decoder.apply_output_head/decoder_norm/mul" stack_frame_id=727}
  %mul.225 = f32[1,1]{1,0} reshape(%mul.224), metadata={op_name="jit(_generate_jit)/TransformerLinenPure.apply/TransformerLinenPure/decoder/decoder.apply_output_head/decoder_norm/mul" stack_frame_id=727}
  %mul.226 = f32[1,1,2048]{2,1,0} broadcast(%mul.225), dimensions={0,1}, metadata={op_name="jit(_generate_jit)/TransformerLinenPure.apply/TransformerLinenPure/decoder/decoder.apply_output_head/decoder_norm/mul" stack_frame_id=727}
  %mul.227 = f32[1,1,2048]{2,1,0} multiply(%convert_element_type.149, %mul.226), metadata={op_name="jit(_generate_jit)/TransformerLinenPure.apply/TransformerLinenPure/decoder/decoder.apply_output_head/decoder_norm/mul" stack_frame_id=727}
  %convert_element_type.150 = bf16[1,1,2048]{2,1,0} convert(%mul.227), metadata={op_name="jit(_generate_jit)/TransformerLinenPure.apply/TransformerLinenPure/decoder/decoder.apply_output_head/decoder_norm/convert_element_type" stack_frame_id=728}
  %dot_general.72 = bf16[2048,1,1]{2,1,0} dot(%convert_element_type.151, %convert_element_type.150), lhs_batch_dims={0}, lhs_contracting_dims={}, rhs_batch_dims={2}, rhs_contracting_dims={}, metadata={op_name="jit(_generate_jit)/TransformerLinenPure.apply/TransformerLinenPure/decoder/decoder.apply_output_head/decoder_norm/...k,k->...k/dot_general" stack_frame_id=729}
  %transpose.103 = bf16[1,1,2048]{2,1,0} reshape(%dot_general.72), metadata={op_name="jit(_generate_jit)/TransformerLinenPure.apply/TransformerLinenPure/decoder/decoder.apply_output_head/decoder_norm/...k,k->...k/transpose" stack_frame_id=729}
  %params__params____decoder____logits_dense____kernel__.1 = f32[2048,102400]{1,0} parameter(30), sharding={replicated}, frontend_attributes={xla.sdy.sharding="#sdy.sharding<@mesh, [{\"fsdp\", \"fsdp_transpose\", \"context\", \"expert\"}, {\"tensor\", \"tensor_transpose\", \"tensor_sequence\", \"autoregressive\"}]>"}, metadata={op_name="params[\'params\'][\'decoder\'][\'logits_dense\'][\'kernel\']"}
  %convert_element_type.152 = bf16[2048,102400]{1,0} convert(%params__params____decoder____logits_dense____kernel__.1), metadata={op_name="jit(_generate_jit)/TransformerLinenPure.apply/TransformerLinenPure/decoder/decoder.apply_output_head/logits_dense/convert_element_type" stack_frame_id=732}
  %dot_general.73 = bf16[1,1,102400]{2,1,0} dot(%transpose.103, %convert_element_type.152), lhs_contracting_dims={2}, rhs_contracting_dims={0}, metadata={op_name="jit(_generate_jit)/TransformerLinenPure.apply/TransformerLinenPure/decoder/decoder.apply_output_head/logits_dense/dot_general" stack_frame_id=734}
  %convert_element_type.153 = f32[1,1,102400]{2,1,0} convert(%dot_general.73), metadata={op_name="jit(_generate_jit)/TransformerLinenPure.apply/TransformerLinenPure/decoder/decoder.apply_output_head/convert_element_type" stack_frame_id=735}
  %sharding_constraint.109 = f32[1,1,102400]{2,1,0} custom-call(%convert_element_type.153), custom_call_target="Sharding", sharding={replicated}, frontend_attributes={xla.sdy.sharding="#sdy.sharding_per_value<[<@mesh, [{}, {}, {}]>]>"}, metadata={op_name="jit(_generate_jit)/sharding_constraint" stack_frame_id=736}
  %add.94 = s32[1,1]{1,0} add(%decode_state__next_pos__.1, %constant.295), metadata={op_name="jit(_generate_jit)/add" stack_frame_id=737}
  %constant.296 = f32[1,1]{1,0} constant({ {0} })
  %jit__generate_jit_.3 = s32[1,1]{1,0} call(%sharding_constraint.109), to_apply=%argmax.88, metadata={op_name="jit(_generate_jit)" stack_frame_id=739}
  %concatenate.23 = s32[1,3]{1,0} concatenate(%jit__generate_jit_.3, %constant.295, %add.95), dimensions={1}, metadata={op_name="jit(_generate_jit)/concatenate" stack_frame_id=740}
  ROOT %tuple.11 = (s32[1,1]{1,0}, s32[1,1,1984]{2,1,0}, s32[1,1,64]{2,1,0}, bf16[1,1984,1,1,512]{4,3,2,1,0}, s32[1,1]{1,0}, /*index=5*/bf16[1,1984,1,1,64]{4,3,2,1,0}, bf16[1,64,1,1,512]{4,3,2,1,0}, bf16[1,64,1,1,64]{4,3,2,1,0}, s32[26,1]{1,0}, s32[26,1,1984]{2,1,0}, /*index=10*/s32[26,1,64]{2,1,0}, bf16[26,1984,1,1,512]{4,3,2,1,0}, s32[26,1]{1,0}, bf16[26,1984,1,1,64]{4,3,2,1,0}, bf16[26,64,1,1,512]{4,3,2,1,0}, /*index=15*/bf16[26,64,1,1,64]{4,3,2,1,0}, s32[1,1]{1,0}, f32[1,1,102400]{2,1,0}, s32[1,1]{1,0}, f32[1,1]{1,0}, /*index=20*/s32[1,1]{1,0}, s32[1,3]{1,0}, f32[1,1]{1,0}) tuple(%sharding_constraint.110, %sharding_constraint.111, %sharding_constraint.112, %sharding_constraint.113, %sharding_constraint.114, /*index=5*/%sharding_constraint.115, %sharding_constraint.116, %sharding_constraint.117, %sharding_constraint.118, %sharding_constraint.119, /*index=10*/%sharding_constraint.120, %sharding_constraint.121, %sharding_constraint.122, %sharding_constraint.123, %sharding_constraint.124, /*index=15*/%sharding_constraint.125, %add.95, %sharding_constraint.109, %add.94, %constant.296, /*index=20*/%jit__generate_jit_.3, %concatenate.23, %constant.296)
}

