HloModule jit_predict_step, entry_computation_layout={(f32[1024,1024]{1,0}, f32[1024,1024]{1,0}, f32[1024,1024]{1,0}, f32[32,16]{1,0}, f32[1024,1024]{1,0}, /*index=5*/f32[1024]{0}, f32[1024,1024]{1,0}, f32[1024,1024]{1,0}, f32[1024,1024]{1,0}, f32[1024,1024]{1,0}, /*index=10*/f32[1024]{0}, f32[1024,2816]{1,0}, f32[1024,2816]{1,0}, f32[2816,1024]{1,0}, f32[1024]{0}, /*index=15*/f32[1024,1024]{1,0}, f32[1024,1024]{1,0}, f32[1024,1024]{1,0}, f32[1024,1024]{1,0}, f32[1024]{0}, /*index=20*/f32[1024,1024]{1,0}, f32[1024,1024]{1,0}, f32[1024,1024]{1,0}, f32[1024,1024]{1,0}, f32[1024]{0}, /*index=25*/f32[1024,2816]{1,0}, f32[1024,2816]{1,0}, f32[2816,1024]{1,0}, f32[1024]{0}, f32[1024,1024]{1,0}, /*index=30*/f32[1024,1024]{1,0}, f32[1024,1024]{1,0}, f32[1024,1024]{1,0}, f32[1024]{0}, f32[1024,1024]{1,0}, /*index=35*/f32[1024,1024]{1,0}, f32[1024,1024]{1,0}, f32[1024,1024]{1,0}, f32[1024]{0}, f32[1024,2816]{1,0}, /*index=40*/f32[1024,2816]{1,0}, f32[2816,1024]{1,0}, f32[1024]{0}, f32[1024,1024]{1,0}, f32[1024,1024]{1,0}, /*index=45*/f32[1024,1024]{1,0}, f32[1024,1024]{1,0}, f32[1024]{0}, f32[1024,1024]{1,0}, f32[1024,1024]{1,0}, /*index=50*/f32[1024,1024]{1,0}, f32[1024,1024]{1,0}, f32[1024]{0}, f32[1024,2816]{1,0}, f32[1024,2816]{1,0}, /*index=55*/f32[2816,1024]{1,0}, f32[1024]{0}, f32[1024,1024]{1,0}, f32[1024,1024]{1,0}, f32[1024,1024]{1,0}, /*index=60*/f32[1024,1024]{1,0}, f32[1024]{0}, f32[1024,1024]{1,0}, f32[1024,1024]{1,0}, f32[1024,1024]{1,0}, /*index=65*/f32[1024,1024]{1,0}, f32[1024]{0}, f32[1024,2816]{1,0}, f32[1024,2816]{1,0}, f32[2816,1024]{1,0}, /*index=70*/f32[1024]{0}, f32[1024,1024]{1,0}, f32[1024,1024]{1,0}, f32[1024,1024]{1,0}, f32[1024,1024]{1,0}, /*index=75*/f32[1024]{0}, f32[1024,1024]{1,0}, f32[1024,1024]{1,0}, f32[1024,1024]{1,0}, f32[1024,1024]{1,0}, /*index=80*/f32[1024]{0}, f32[1024,2816]{1,0}, f32[1024,2816]{1,0}, f32[2816,1024]{1,0}, f32[1024]{0}, /*index=85*/f32[1024,1024]{1,0}, f32[1024,1024]{1,0}, f32[1024,1024]{1,0}, f32[1024,1024]{1,0}, f32[1024]{0}, /*index=90*/f32[1024,1024]{1,0}, f32[1024,1024]{1,0}, f32[1024,1024]{1,0}, f32[1024,1024]{1,0}, f32[1024]{0}, /*index=95*/f32[1024,2816]{1,0}, f32[1024,2816]{1,0}, f32[2816,1024]{1,0}, f32[1024]{0}, f32[1024,1024]{1,0}, /*index=100*/f32[1024,1024]{1,0}, f32[1024,1024]{1,0}, f32[1024,1024]{1,0}, f32[1024]{0}, f32[1024,1024]{1,0}, /*index=105*/f32[1024,1024]{1,0}, f32[1024,1024]{1,0}, f32[1024,1024]{1,0}, f32[1024]{0}, f32[1024,2816]{1,0}, /*index=110*/f32[1024,2816]{1,0}, f32[2816,1024]{1,0}, f32[1024]{0}, f32[1024,1024]{1,0}, f32[1024,1024]{1,0}, /*index=115*/f32[1024,1024]{1,0}, f32[1024,1024]{1,0}, f32[1024]{0}, f32[1024,1024]{1,0}, f32[1024,1024]{1,0}, /*index=120*/f32[1024,1024]{1,0}, f32[1024,1024]{1,0}, f32[1024]{0}, f32[1024,2816]{1,0}, f32[1024,2816]{1,0}, /*index=125*/f32[2816,1024]{1,0}, f32[1024]{0}, f32[1024,1024]{1,0}, f32[1024,1024]{1,0}, f32[1024,1024]{1,0}, /*index=130*/f32[1024,1024]{1,0}, f32[1024]{0}, f32[1024,1024]{1,0}, f32[1024,1024]{1,0}, f32[1024,1024]{1,0}, /*index=135*/f32[1024,1024]{1,0}, f32[1024]{0}, f32[1024,2816]{1,0}, f32[1024,2816]{1,0}, f32[2816,1024]{1,0}, /*index=140*/f32[1024]{0}, f32[1024,1024]{1,0}, f32[1024,1024]{1,0}, f32[1024,1024]{1,0}, f32[1024,1024]{1,0}, /*index=145*/f32[1024]{0}, f32[1024,1024]{1,0}, f32[1024,1024]{1,0}, f32[1024,1024]{1,0}, f32[1024,1024]{1,0}, /*index=150*/f32[1024]{0}, f32[1024,2816]{1,0}, f32[1024,2816]{1,0}, f32[2816,1024]{1,0}, f32[1024]{0}, /*index=155*/f32[1024,1024]{1,0}, f32[1024,1024]{1,0}, f32[1024,1024]{1,0}, f32[1024,1024]{1,0}, f32[1024]{0}, /*index=160*/f32[1024,1024]{1,0}, f32[1024,1024]{1,0}, f32[1024,1024]{1,0}, f32[1024,1024]{1,0}, f32[1024]{0}, /*index=165*/f32[1024,2816]{1,0}, f32[1024,2816]{1,0}, f32[2816,1024]{1,0}, f32[1024]{0}, f32[1024,1024]{1,0}, /*index=170*/f32[1024,1024]{1,0}, f32[1024,1024]{1,0}, f32[1024,1024]{1,0}, f32[1024]{0}, f32[1024,1024]{1,0}, /*index=175*/f32[1024,1024]{1,0}, f32[1024,1024]{1,0}, f32[1024,1024]{1,0}, f32[1024]{0}, f32[1024,2816]{1,0}, /*index=180*/f32[1024,2816]{1,0}, f32[2816,1024]{1,0}, f32[1024]{0}, f32[1024,1024]{1,0}, f32[1024,1024]{1,0}, /*index=185*/f32[1024,1024]{1,0}, f32[1024,1024]{1,0}, f32[1024]{0}, f32[1024,1024]{1,0}, f32[1024,1024]{1,0}, /*index=190*/f32[1024,1024]{1,0}, f32[1024,1024]{1,0}, f32[1024]{0}, f32[1024,2816]{1,0}, f32[1024,2816]{1,0}, /*index=195*/f32[2816,1024]{1,0}, f32[1024]{0}, f32[1024,1024]{1,0}, f32[1024,1024]{1,0}, f32[1024,1024]{1,0}, /*index=200*/f32[1024,1024]{1,0}, f32[1024]{0}, f32[1024,1024]{1,0}, f32[1024,1024]{1,0}, f32[1024,1024]{1,0}, /*index=205*/f32[1024,1024]{1,0}, f32[1024]{0}, f32[1024,2816]{1,0}, f32[1024,2816]{1,0}, f32[2816,1024]{1,0}, /*index=210*/f32[1024]{0}, f32[1024,1024]{1,0}, f32[1024,1024]{1,0}, f32[1024,1024]{1,0}, f32[1024,1024]{1,0}, /*index=215*/f32[1024]{0}, f32[1024,1024]{1,0}, f32[1024,1024]{1,0}, f32[1024,1024]{1,0}, f32[1024,1024]{1,0}, /*index=220*/f32[1024]{0}, f32[1024,2816]{1,0}, f32[1024,2816]{1,0}, f32[2816,1024]{1,0}, f32[1024]{0}, /*index=225*/f32[1024,1024]{1,0}, f32[1024,1024]{1,0}, f32[1024,1024]{1,0}, f32[1024,1024]{1,0}, f32[1024]{0}, /*index=230*/f32[1024,1024]{1,0}, f32[1024,1024]{1,0}, f32[1024,1024]{1,0}, f32[1024,1024]{1,0}, f32[1024]{0}, /*index=235*/f32[1024,2816]{1,0}, f32[1024,2816]{1,0}, f32[2816,1024]{1,0}, f32[1024]{0}, f32[1024,1024]{1,0}, /*index=240*/f32[1024,1024]{1,0}, f32[1024,1024]{1,0}, f32[1024,1024]{1,0}, f32[1024]{0}, f32[1024,1024]{1,0}, /*index=245*/f32[1024,1024]{1,0}, f32[1024,1024]{1,0}, f32[1024,1024]{1,0}, f32[1024]{0}, f32[1024,2816]{1,0}, /*index=250*/f32[1024,2816]{1,0}, f32[2816,1024]{1,0}, f32[1024]{0}, f32[1024,1024]{1,0}, f32[1024,1024]{1,0}, /*index=255*/f32[1024,1024]{1,0}, f32[1024,1024]{1,0}, f32[1024]{0}, f32[1024,1024]{1,0}, f32[1024,1024]{1,0}, /*index=260*/f32[1024,1024]{1,0}, f32[1024,1024]{1,0}, f32[1024]{0}, f32[1024,2816]{1,0}, f32[1024,2816]{1,0}, /*index=265*/f32[2816,1024]{1,0}, f32[1024]{0}, f32[1024,1024]{1,0}, f32[1024,1024]{1,0}, f32[1024,1024]{1,0}, /*index=270*/f32[1024,1024]{1,0}, f32[1024]{0}, f32[1024,1024]{1,0}, f32[1024,1024]{1,0}, f32[1024,1024]{1,0}, /*index=275*/f32[1024,1024]{1,0}, f32[1024]{0}, f32[1024,2816]{1,0}, f32[1024,2816]{1,0}, f32[2816,1024]{1,0}, /*index=280*/f32[1024]{0}, f32[1024,1024]{1,0}, f32[1024,1024]{1,0}, f32[1024,1024]{1,0}, f32[1024,1024]{1,0}, /*index=285*/f32[1024]{0}, f32[1024,1024]{1,0}, f32[1024,1024]{1,0}, f32[1024,1024]{1,0}, f32[1024,1024]{1,0}, /*index=290*/f32[1024]{0}, f32[1024,2816]{1,0}, f32[1024,2816]{1,0}, f32[2816,1024]{1,0}, f32[1024]{0}, /*index=295*/f32[1024,1024]{1,0}, f32[1024,1024]{1,0}, f32[1024,1024]{1,0}, f32[1024,1024]{1,0}, f32[1024]{0}, /*index=300*/f32[1024,1024]{1,0}, f32[1024,1024]{1,0}, f32[1024,1024]{1,0}, f32[1024,1024]{1,0}, f32[1024]{0}, /*index=305*/f32[1024,2816]{1,0}, f32[1024,2816]{1,0}, f32[2816,1024]{1,0}, f32[1024]{0}, f32[1024,1024]{1,0}, /*index=310*/f32[1024,1024]{1,0}, f32[1024,1024]{1,0}, f32[1024,1024]{1,0}, f32[1024]{0}, f32[1024,1024]{1,0}, /*index=315*/f32[1024,1024]{1,0}, f32[1024,1024]{1,0}, f32[1024,1024]{1,0}, f32[1024]{0}, f32[1024,2816]{1,0}, /*index=320*/f32[1024,2816]{1,0}, f32[2816,1024]{1,0}, f32[1024]{0}, f32[1024,1024]{1,0}, f32[1024,1024]{1,0}, /*index=325*/f32[1024,1024]{1,0}, f32[1024,1024]{1,0}, f32[1024]{0}, f32[1024,1024]{1,0}, f32[1024,1024]{1,0}, /*index=330*/f32[1024,1024]{1,0}, f32[1024,1024]{1,0}, f32[1024]{0}, f32[1024,2816]{1,0}, f32[1024,2816]{1,0}, /*index=335*/f32[2816,1024]{1,0}, f32[1024]{0}, f32[1024]{0}, f32[1024,1024]{1,0}, f32[1024,1024]{1,0}, /*index=340*/f32[1024,1024]{1,0}, f32[32,16]{1,0}, f32[1024,1024]{1,0}, f32[1024]{0}, f32[1024,2816]{1,0}, /*index=345*/f32[1024,2816]{1,0}, f32[2816,1024]{1,0}, f32[1024]{0}, f32[1024,1024]{1,0}, f32[1024,1024]{1,0}, /*index=350*/f32[1024,1024]{1,0}, f32[1024,1024]{1,0}, f32[1024]{0}, f32[1024,2816]{1,0}, f32[1024,2816]{1,0}, /*index=355*/f32[2816,1024]{1,0}, f32[1024]{0}, f32[1024,1024]{1,0}, f32[1024,1024]{1,0}, f32[1024,1024]{1,0}, /*index=360*/f32[1024,1024]{1,0}, f32[1024]{0}, f32[1024,2816]{1,0}, f32[1024,2816]{1,0}, f32[2816,1024]{1,0}, /*index=365*/f32[1024]{0}, f32[1024,1024]{1,0}, f32[1024,1024]{1,0}, f32[1024,1024]{1,0}, f32[1024,1024]{1,0}, /*index=370*/f32[1024]{0}, f32[1024,2816]{1,0}, f32[1024,2816]{1,0}, f32[2816,1024]{1,0}, f32[1024]{0}, /*index=375*/f32[1024,1024]{1,0}, f32[1024,1024]{1,0}, f32[1024,1024]{1,0}, f32[1024,1024]{1,0}, f32[1024]{0}, /*index=380*/f32[1024,2816]{1,0}, f32[1024,2816]{1,0}, f32[2816,1024]{1,0}, f32[1024]{0}, f32[1024,1024]{1,0}, /*index=385*/f32[1024,1024]{1,0}, f32[1024,1024]{1,0}, f32[1024,1024]{1,0}, f32[1024]{0}, f32[1024,2816]{1,0}, /*index=390*/f32[1024,2816]{1,0}, f32[2816,1024]{1,0}, f32[1024]{0}, f32[1024,1024]{1,0}, f32[1024,1024]{1,0}, /*index=395*/f32[1024,1024]{1,0}, f32[1024,1024]{1,0}, f32[1024]{0}, f32[1024,2816]{1,0}, f32[1024,2816]{1,0}, /*index=400*/f32[2816,1024]{1,0}, f32[1024]{0}, f32[1024,1024]{1,0}, f32[1024,1024]{1,0}, f32[1024,1024]{1,0}, /*index=405*/f32[1024,1024]{1,0}, f32[1024]{0}, f32[1024,2816]{1,0}, f32[1024,2816]{1,0}, f32[2816,1024]{1,0}, /*index=410*/f32[1024]{0}, f32[1024,1024]{1,0}, f32[1024,1024]{1,0}, f32[1024,1024]{1,0}, f32[1024,1024]{1,0}, /*index=415*/f32[1024]{0}, f32[1024,2816]{1,0}, f32[1024,2816]{1,0}, f32[2816,1024]{1,0}, f32[1024]{0}, /*index=420*/f32[1024,1024]{1,0}, f32[1024,1024]{1,0}, f32[1024,1024]{1,0}, f32[1024,1024]{1,0}, f32[1024]{0}, /*index=425*/f32[1024,2816]{1,0}, f32[1024,2816]{1,0}, f32[2816,1024]{1,0}, f32[1024]{0}, f32[1024,1024]{1,0}, /*index=430*/f32[1024,1024]{1,0}, f32[1024,1024]{1,0}, f32[1024,1024]{1,0}, f32[1024]{0}, f32[1024,2816]{1,0}, /*index=435*/f32[1024,2816]{1,0}, f32[2816,1024]{1,0}, f32[1024]{0}, f32[1024,1024]{1,0}, f32[1024,1024]{1,0}, /*index=440*/f32[1024,1024]{1,0}, f32[1024,1024]{1,0}, f32[1024]{0}, f32[1024,2816]{1,0}, f32[1024,2816]{1,0}, /*index=445*/f32[2816,1024]{1,0}, f32[1024]{0}, f32[1024,1024]{1,0}, f32[1024,1024]{1,0}, f32[1024,1024]{1,0}, /*index=450*/f32[1024,1024]{1,0}, f32[1024]{0}, f32[1024,2816]{1,0}, f32[1024,2816]{1,0}, f32[2816,1024]{1,0}, /*index=455*/f32[1024]{0}, f32[1024,1024]{1,0}, f32[1024,1024]{1,0}, f32[1024,1024]{1,0}, f32[1024,1024]{1,0}, /*index=460*/f32[1024]{0}, f32[1024,2816]{1,0}, f32[1024,2816]{1,0}, f32[2816,1024]{1,0}, f32[1024]{0}, /*index=465*/f32[1024,1024]{1,0}, f32[1024,1024]{1,0}, f32[1024,1024]{1,0}, f32[1024,1024]{1,0}, f32[1024]{0}, /*index=470*/f32[1024,2816]{1,0}, f32[1024,2816]{1,0}, f32[2816,1024]{1,0}, f32[1024]{0}, f32[1024,1024]{1,0}, /*index=475*/f32[1024,1024]{1,0}, f32[1024,1024]{1,0}, f32[1024,1024]{1,0}, f32[1024]{0}, f32[1024,2816]{1,0}, /*index=480*/f32[1024,2816]{1,0}, f32[2816,1024]{1,0}, f32[1024]{0}, f32[1024,1024]{1,0}, f32[1024,1024]{1,0}, /*index=485*/f32[1024,1024]{1,0}, f32[1024,1024]{1,0}, f32[1024]{0}, f32[1024,2816]{1,0}, f32[1024,2816]{1,0}, /*index=490*/f32[2816,1024]{1,0}, f32[1024]{0}, f32[1024,1024]{1,0}, f32[1024,1024]{1,0}, f32[1024,1024]{1,0}, /*index=495*/f32[1024,1024]{1,0}, f32[1024]{0}, f32[1024,2816]{1,0}, f32[1024,2816]{1,0}, f32[2816,1024]{1,0}, /*index=500*/f32[1024]{0}, f32[1024,1024]{1,0}, f32[1024,1024]{1,0}, f32[1024,1024]{1,0}, f32[1024,1024]{1,0}, /*index=505*/f32[1024]{0}, f32[1024,2816]{1,0}, f32[1024,2816]{1,0}, f32[2816,1024]{1,0}, f32[1024]{0}, /*index=510*/f32[1024,1024]{1,0}, f32[1024,1024]{1,0}, f32[1024,1024]{1,0}, f32[1024,1024]{1,0}, f32[1024]{0}, /*index=515*/f32[1024,2816]{1,0}, f32[1024,2816]{1,0}, f32[2816,1024]{1,0}, f32[1024]{0}, f32[1024,1024]{1,0}, /*index=520*/f32[1024,1024]{1,0}, f32[1024,1024]{1,0}, f32[1024,1024]{1,0}, f32[1024]{0}, f32[1024,2816]{1,0}, /*index=525*/f32[1024,2816]{1,0}, f32[2816,1024]{1,0}, f32[1024]{0}, f32[1024,1024]{1,0}, f32[1024,1024]{1,0}, /*index=530*/f32[1024,1024]{1,0}, f32[1024,1024]{1,0}, f32[1024]{0}, f32[1024,2816]{1,0}, f32[1024,2816]{1,0}, /*index=535*/f32[2816,1024]{1,0}, f32[1024]{0}, f32[1024,1024]{1,0}, f32[1024,1024]{1,0}, f32[1024,1024]{1,0}, /*index=540*/f32[1024,1024]{1,0}, f32[1024]{0}, f32[1024,2816]{1,0}, f32[1024,2816]{1,0}, f32[2816,1024]{1,0}, /*index=545*/f32[1024]{0}, f32[1024,1024]{1,0}, f32[1024,1024]{1,0}, f32[1024,1024]{1,0}, f32[1024,1024]{1,0}, /*index=550*/f32[1024]{0}, f32[1024,2816]{1,0}, f32[1024,2816]{1,0}, f32[2816,1024]{1,0}, f32[1024]{0}, /*index=555*/f32[1024]{0}, f32[1024,32128]{1,0}, f32[32128,1024]{1,0}, s32[4,128]{1,0}, s32[4,128]{1,0})->f32[4,128,32128]{2,1,0}}, allow_spmd_sharding_propagation_to_parameters={false,false,false,false,false,false,false,false,false,false,false,false,false,false,false,false,false,false,false,false,false,false,false,false,false,false,false,false,false,false,false,false,false,false,false,false,false,false,false,false,false,false,false,false,false,false,false,false,false,false,false,false,false,false,false,false,false,false,false,false,false,false,false,false,false,false,false,false,false,false,false,false,false,false,false,false,false,false,false,false,false,false,false,false,false,false,false,false,false,false,false,false,false,false,false,false,false,false,false,false,false,false,false,false,false,false,false,false,false,false,false,false,false,false,false,false,false,false,false,false,false,false,false,false,false,false,false,false,false,false,false,false,false,false,false,false,false,false,false,false,false,false,false,false,false,false,false,false,false,false,false,false,false,false,false,false,false,false,false,false,false,false,false,false,false,false,false,false,false,false,false,false,false,false,false,false,false,false,false,false,false,false,false,false,false,false,false,false,false,false,false,false,false,false,false,false,false,false,false,false,false,false,false,false,false,false,false,false,false,false,false,false,false,false,false,false,false,false,false,false,false,false,false,false,false,false,false,false,false,false,false,false,false,false,false,false,false,false,false,false,false,false,false,false,false,false,false,false,false,false,false,false,false,false,false,false,false,false,false,false,false,false,false,false,false,false,false,false,false,false,false,false,false,false,false,false,false,false,false,false,false,false,false,false,false,false,false,false,false,false,false,false,false,false,false,false,false,false,false,false,false,false,false,false,false,false,false,false,false,false,false,false,false,false,false,false,false,false,false,false,false,false,false,false,false,false,false,false,false,false,false,false,false,false,false,false,false,false,false,false,false,false,false,false,false,false,false,false,false,false,false,false,false,false,false,false,false,false,false,false,false,false,false,false,false,false,false,false,false,false,false,false,false,false,false,false,false,false,false,false,false,false,false,false,false,false,false,false,false,false,false,false,false,false,false,false,false,false,false,false,false,false,false,false,false,false,false,false,false,false,false,false,false,false,false,false,false,false,false,false,false,false,false,false,false,false,false,false,false,false,false,false,false,false,false,false,false,false,false,false,false,false,false,false,false,false,false,false,false,false,false,false,false,false,false,false,false,false,false,false,false,false,false,false,false,false,false,false,false,false,false,false,false,false,false,false,false,false,false,false,false,false,false,false,false,false,false,false,false,false,false,false,false,false,false,false,false,false,false,false,false,false,false,false,false,false,false,false,false,false,false,false,false,false,false,false,false,false,false,false,false,false,false,false,false,false,false,false,false,false,false,false,false,false,false,false,false,false,false,false,false,false,false,false,false,false,false,false,false,false,false,false,false,false,false,false,false,false,false,false}, num_partitions=2, frontend_attributes={xla.sdy.meshes={mesh = #sdy.mesh<["fsdp"=2]>}}

FileNames
1 "/root/hlo_dump/mgpu_infer.py"
2 "/usr/local/lib/python3.12/dist-packages/transformers/models/t5/modeling_flax_t5.py"
3 "/usr/local/lib/python3.12/dist-packages/flax/linen/attention.py"
4 "/usr/local/lib/python3.12/dist-packages/flax/linen/linear.py"

FunctionNames
1 "<module>"
2 "main"
3 "main.<locals>.predict_step"
4 "build_flan_t5_large.<locals>.fn"
5 "FlaxT5PreTrainedModel.__call__"
6 "FlaxT5ForConditionalGenerationModule.__call__"
7 "FlaxT5Stack.__call__"
8 "FlaxT5BlockCollection.__call__"
9 "FlaxT5LayerCollection.__call__"
10 "FlaxT5Block.__call__"
11 "FlaxT5LayerSelfAttention.__call__"
12 "FlaxT5LayerNorm.__call__"
13 "FlaxT5Attention.__call__"
14 "dot_product_attention_weights"
15 "FlaxT5LayerFF.__call__"
16 "FlaxT5LayerCrossAttention.__call__"
17 "Embed.__call__"
18 "Dense.__call__"
19 "FlaxT5Attention._split_heads"
20 "FlaxT5Attention._create_position_bias"
21 "FlaxT5Attention.compute_bias"
22 "FlaxT5Attention._relative_position_bucket"
23 "_compat_clip"
24 "make_causal_mask"
25 "make_attention_mask"
26 "combine_masks"
27 "FlaxT5Attention._merge_heads"
28 "FlaxT5DenseGatedActDense.__call__"

FileLocations
1 {file_name_id=1 function_name_id=1 line=195 end_line=195 column=4 end_column=10}
2 {file_name_id=1 function_name_id=2 line=189 end_line=189 column=14 end_column=36}
3 {file_name_id=1 function_name_id=3 line=185 end_line=185 column=15 end_column=36}
4 {file_name_id=1 function_name_id=4 line=157 end_line=157 column=26 end_column=96}
5 {file_name_id=2 function_name_id=5 line=1022 end_line=1033 column=15 end_column=9}
6 {file_name_id=2 function_name_id=6 line=1553 end_line=1560 column=26 end_column=9}
7 {file_name_id=2 function_name_id=7 line=760 end_line=769 column=18 end_column=9}
8 {file_name_id=2 function_name_id=8 line=693 end_line=703 column=28 end_column=13}
9 {file_name_id=2 function_name_id=9 line=629 end_line=639 column=15 end_column=9}
10 {file_name_id=2 function_name_id=10 line=569 end_line=576 column=33 end_column=9}
11 {file_name_id=2 function_name_id=11 line=487 end_line=487 column=31 end_column=61}
12 {file_name_id=2 function_name_id=12 line=84 end_line=84 column=19 end_column=59}
13 {file_name_id=2 function_name_id=11 line=488 end_line=495 column=27 end_column=9}
14 {file_name_id=2 function_name_id=13 line=435 end_line=444 column=23 end_column=9}
15 {file_name_id=3 function_name_id=14 line=146 end_line=146 column=19 end_column=47}
16 {file_name_id=2 function_name_id=10 line=596 end_line=596 column=24 end_column=82}
17 {file_name_id=2 function_name_id=15 line=173 end_line=173 column=27 end_column=57}
18 {file_name_id=2 function_name_id=7 line=773 end_line=773 column=24 end_column=60}
19 {file_name_id=2 function_name_id=6 line=1565 end_line=1574 column=26 end_column=9}
20 {file_name_id=2 function_name_id=10 line=582 end_line=589 column=38 end_column=13}
21 {file_name_id=2 function_name_id=16 line=521 end_line=521 column=31 end_column=61}
22 {file_name_id=2 function_name_id=16 line=522 end_line=528 column=27 end_column=9}
23 {file_name_id=2 function_name_id=12 line=87 end_line=87 column=15 end_column=42}
24 {file_name_id=2 function_name_id=7 line=757 end_line=757 column=24 end_column=52}
25 {file_name_id=4 function_name_id=17 line=1194 end_line=1194 column=11 end_column=46}
26 {file_name_id=2 function_name_id=12 line=85 end_line=85 column=49 end_column=68}
27 {file_name_id=2 function_name_id=12 line=85 end_line=85 column=40 end_column=69}
28 {file_name_id=2 function_name_id=12 line=85 end_line=85 column=24 end_column=69}
29 {file_name_id=2 function_name_id=13 line=366 end_line=366 column=23 end_column=44}
30 {file_name_id=4 function_name_id=18 line=287 end_line=292 column=8 end_column=5}
31 {file_name_id=2 function_name_id=13 line=371 end_line=371 column=23 end_column=54}
32 {file_name_id=2 function_name_id=19 line=285 end_line=285 column=15 end_column=103}
33 {file_name_id=2 function_name_id=13 line=364 end_line=364 column=23 end_column=44}
34 {file_name_id=2 function_name_id=13 line=369 end_line=369 column=23 end_column=54}
35 {file_name_id=2 function_name_id=13 line=374 end_line=374 column=8 end_column=56}
36 {file_name_id=3 function_name_id=14 line=130 end_line=130 column=10 end_column=47}
37 {file_name_id=2 function_name_id=13 line=365 end_line=365 column=21 end_column=42}
38 {file_name_id=2 function_name_id=13 line=370 end_line=370 column=21 end_column=50}
39 {file_name_id=3 function_name_id=14 line=132 end_line=132 column=17 end_column=60}
40 {file_name_id=2 function_name_id=13 line=422 end_line=424 column=28 end_column=13}
41 {file_name_id=2 function_name_id=20 line=331 end_line=331 column=28 end_column=71}
42 {file_name_id=2 function_name_id=21 line=270 end_line=270 column=26 end_column=60}
43 {file_name_id=2 function_name_id=21 line=272 end_line=272 column=28 end_column=62}
44 {file_name_id=2 function_name_id=21 line=269 end_line=269 column=27 end_column=63}
45 {file_name_id=2 function_name_id=21 line=273 end_line=278 column=35 end_column=9}
46 {file_name_id=2 function_name_id=22 line=250 end_line=250 column=33 end_column=69}
47 {file_name_id=1 function_name_id=23 line=20 end_line=21 column=11 end_column=58}
48 {file_name_id=2 function_name_id=22 line=250 end_line=250 column=32 end_column=69}
49 {file_name_id=2 function_name_id=22 line=255 end_line=255 column=19 end_column=48}
50 {file_name_id=2 function_name_id=22 line=259 end_line=259 column=20 end_column=49}
51 {file_name_id=2 function_name_id=22 line=259 end_line=259 column=12 end_column=86}
52 {file_name_id=2 function_name_id=22 line=258 end_line=260 column=37 end_column=9}
53 {file_name_id=2 function_name_id=22 line=261 end_line=261 column=37 end_column=96}
54 {file_name_id=2 function_name_id=22 line=263 end_line=263 column=28 end_column=94}
55 {file_name_id=2 function_name_id=22 line=265 end_line=265 column=15 end_column=44}
56 {file_name_id=2 function_name_id=21 line=280 end_line=280 column=17 end_column=71}
57 {file_name_id=2 function_name_id=21 line=281 end_line=281 column=17 end_column=44}
58 {file_name_id=2 function_name_id=13 line=427 end_line=427 column=32 end_column=62}
59 {file_name_id=2 function_name_id=13 line=382 end_line=382 column=36 end_column=82}
60 {file_name_id=3 function_name_id=24 line=880 end_line=880 column=26 end_column=66}
61 {file_name_id=3 function_name_id=24 line=881 end_line=887 column=9 end_column=3}
62 {file_name_id=3 function_name_id=25 line=854 end_line=856 column=9 end_column=3}
63 {file_name_id=3 function_name_id=25 line=857 end_line=857 column=9 end_column=39}
64 {file_name_id=2 function_name_id=13 line=400 end_line=400 column=29 end_column=81}
65 {file_name_id=3 function_name_id=26 line=910 end_line=910 column=11 end_column=44}
66 {file_name_id=3 function_name_id=26 line=911 end_line=911 column=9 end_column=27}
67 {file_name_id=2 function_name_id=13 line=415 end_line=415 column=16 end_column=34}
68 {file_name_id=2 function_name_id=13 line=417 end_line=417 column=16 end_column=58}
69 {file_name_id=2 function_name_id=13 line=414 end_line=418 column=29 end_column=13}
70 {file_name_id=3 function_name_id=14 line=136 end_line=136 column=19 end_column=38}
71 {file_name_id=2 function_name_id=13 line=447 end_line=447 column=22 end_column=85}
72 {file_name_id=2 function_name_id=13 line=450 end_line=450 column=22 end_column=52}
73 {file_name_id=2 function_name_id=27 line=288 end_line=288 column=15 end_column=81}
74 {file_name_id=2 function_name_id=13 line=453 end_line=453 column=22 end_column=41}
75 {file_name_id=2 function_name_id=11 line=496 end_line=496 column=24 end_column=102}
76 {file_name_id=2 function_name_id=22 line=247 end_line=247 column=33 end_column=54}
77 {file_name_id=2 function_name_id=22 line=247 end_line=247 column=32 end_column=69}
78 {file_name_id=2 function_name_id=22 line=263 end_line=263 column=8 end_column=94}
79 {file_name_id=2 function_name_id=22 line=248 end_line=248 column=32 end_column=58}
80 {file_name_id=2 function_name_id=15 line=174 end_line=174 column=27 end_column=93}
81 {file_name_id=2 function_name_id=28 line=151 end_line=151 column=31 end_column=55}
82 {file_name_id=2 function_name_id=28 line=151 end_line=151 column=22 end_column=56}
83 {file_name_id=2 function_name_id=28 line=152 end_line=152 column=24 end_column=48}
84 {file_name_id=2 function_name_id=28 line=153 end_line=153 column=24 end_column=51}
85 {file_name_id=2 function_name_id=28 line=155 end_line=155 column=24 end_column=46}
86 {file_name_id=2 function_name_id=15 line=175 end_line=175 column=24 end_column=99}
87 {file_name_id=2 function_name_id=13 line=366 end_line=366 column=78 end_column=102}
88 {file_name_id=2 function_name_id=13 line=365 end_line=365 column=76 end_column=100}
89 {file_name_id=2 function_name_id=16 line=529 end_line=529 column=24 end_column=102}
90 {file_name_id=2 function_name_id=6 line=1587 end_line=1587 column=24 end_column=53}

StackFrames
1 {file_location_id=1 parent_frame_id=1}
2 {file_location_id=2 parent_frame_id=2}
3 {file_location_id=3 parent_frame_id=3}
4 {file_location_id=4 parent_frame_id=4}
5 {file_location_id=5 parent_frame_id=5}
6 {file_location_id=6 parent_frame_id=6}
7 {file_location_id=7 parent_frame_id=7}
8 {file_location_id=8 parent_frame_id=8}
9 {file_location_id=9 parent_frame_id=9}
10 {file_location_id=10 parent_frame_id=10}
11 {file_location_id=11 parent_frame_id=11}
12 {file_location_id=12 parent_frame_id=12}
13 {file_location_id=13 parent_frame_id=11}
14 {file_location_id=14 parent_frame_id=14}
15 {file_location_id=15 parent_frame_id=15}
16 {file_location_id=16 parent_frame_id=10}
17 {file_location_id=17 parent_frame_id=17}
18 {file_location_id=12 parent_frame_id=18}
19 {file_location_id=18 parent_frame_id=7}
20 {file_location_id=12 parent_frame_id=20}
21 {file_location_id=19 parent_frame_id=6}
22 {file_location_id=7 parent_frame_id=22}
23 {file_location_id=8 parent_frame_id=23}
24 {file_location_id=9 parent_frame_id=24}
25 {file_location_id=10 parent_frame_id=25}
26 {file_location_id=11 parent_frame_id=26}
27 {file_location_id=12 parent_frame_id=27}
28 {file_location_id=13 parent_frame_id=26}
29 {file_location_id=14 parent_frame_id=29}
30 {file_location_id=15 parent_frame_id=30}
31 {file_location_id=20 parent_frame_id=25}
32 {file_location_id=21 parent_frame_id=32}
33 {file_location_id=12 parent_frame_id=33}
34 {file_location_id=22 parent_frame_id=32}
35 {file_location_id=14 parent_frame_id=35}
36 {file_location_id=15 parent_frame_id=36}
37 {file_location_id=16 parent_frame_id=25}
38 {file_location_id=17 parent_frame_id=38}
39 {file_location_id=12 parent_frame_id=39}
40 {file_location_id=18 parent_frame_id=22}
41 {file_location_id=12 parent_frame_id=41}
42 {file_location_id=23 parent_frame_id=41}
43 {file_location_id=24 parent_frame_id=22}
44 {file_location_id=25 parent_frame_id=44}
45 {file_location_id=23 parent_frame_id=27}
46 {file_location_id=26 parent_frame_id=27}
47 {file_location_id=27 parent_frame_id=27}
48 {file_location_id=28 parent_frame_id=27}
49 {file_location_id=29 parent_frame_id=29}
50 {file_location_id=30 parent_frame_id=50}
51 {file_location_id=31 parent_frame_id=29}
52 {file_location_id=32 parent_frame_id=52}
53 {file_location_id=33 parent_frame_id=29}
54 {file_location_id=30 parent_frame_id=54}
55 {file_location_id=34 parent_frame_id=29}
56 {file_location_id=32 parent_frame_id=56}
57 {file_location_id=35 parent_frame_id=29}
58 {file_location_id=36 parent_frame_id=30}
59 {file_location_id=37 parent_frame_id=29}
60 {file_location_id=30 parent_frame_id=60}
61 {file_location_id=38 parent_frame_id=29}
62 {file_location_id=32 parent_frame_id=62}
63 {file_location_id=39 parent_frame_id=30}
64 {file_location_id=40 parent_frame_id=29}
65 {file_location_id=41 parent_frame_id=65}
66 {file_location_id=42 parent_frame_id=66}
67 {file_location_id=43 parent_frame_id=66}
68 {file_location_id=44 parent_frame_id=66}
69 {file_location_id=45 parent_frame_id=66}
70 {file_location_id=46 parent_frame_id=70}
71 {file_location_id=47 parent_frame_id=71}
72 {file_location_id=48 parent_frame_id=70}
73 {file_location_id=49 parent_frame_id=70}
74 {file_location_id=50 parent_frame_id=70}
75 {file_location_id=51 parent_frame_id=70}
76 {file_location_id=52 parent_frame_id=70}
77 {file_location_id=53 parent_frame_id=70}
78 {file_location_id=47 parent_frame_id=78}
79 {file_location_id=54 parent_frame_id=70}
80 {file_location_id=55 parent_frame_id=70}
81 {file_location_id=56 parent_frame_id=66}
82 {file_location_id=25 parent_frame_id=82}
83 {file_location_id=57 parent_frame_id=66}
84 {file_location_id=58 parent_frame_id=29}
85 {file_location_id=59 parent_frame_id=29}
86 {file_location_id=60 parent_frame_id=86}
87 {file_location_id=61 parent_frame_id=86}
88 {file_location_id=62 parent_frame_id=88}
89 {file_location_id=63 parent_frame_id=88}
90 {file_location_id=64 parent_frame_id=29}
91 {file_location_id=65 parent_frame_id=91}
92 {file_location_id=66 parent_frame_id=91}
93 {file_location_id=67 parent_frame_id=29}
94 {file_location_id=68 parent_frame_id=29}
95 {file_location_id=69 parent_frame_id=29}
96 {file_location_id=70 parent_frame_id=30}
97 {file_location_id=71 parent_frame_id=29}
98 {file_location_id=72 parent_frame_id=29}
99 {file_location_id=73 parent_frame_id=99}
100 {file_location_id=74 parent_frame_id=29}
101 {file_location_id=30 parent_frame_id=101}
102 {file_location_id=75 parent_frame_id=26}
103 {file_location_id=23 parent_frame_id=20}
104 {file_location_id=24 parent_frame_id=7}
105 {file_location_id=25 parent_frame_id=105}
106 {file_location_id=23 parent_frame_id=12}
107 {file_location_id=26 parent_frame_id=12}
108 {file_location_id=27 parent_frame_id=12}
109 {file_location_id=28 parent_frame_id=12}
110 {file_location_id=29 parent_frame_id=14}
111 {file_location_id=30 parent_frame_id=111}
112 {file_location_id=31 parent_frame_id=14}
113 {file_location_id=32 parent_frame_id=113}
114 {file_location_id=33 parent_frame_id=14}
115 {file_location_id=30 parent_frame_id=115}
116 {file_location_id=34 parent_frame_id=14}
117 {file_location_id=32 parent_frame_id=117}
118 {file_location_id=35 parent_frame_id=14}
119 {file_location_id=36 parent_frame_id=15}
120 {file_location_id=37 parent_frame_id=14}
121 {file_location_id=30 parent_frame_id=121}
122 {file_location_id=38 parent_frame_id=14}
123 {file_location_id=32 parent_frame_id=123}
124 {file_location_id=39 parent_frame_id=15}
125 {file_location_id=40 parent_frame_id=14}
126 {file_location_id=41 parent_frame_id=126}
127 {file_location_id=42 parent_frame_id=127}
128 {file_location_id=43 parent_frame_id=127}
129 {file_location_id=44 parent_frame_id=127}
130 {file_location_id=45 parent_frame_id=127}
131 {file_location_id=76 parent_frame_id=131}
132 {file_location_id=77 parent_frame_id=131}
133 {file_location_id=78 parent_frame_id=131}
134 {file_location_id=79 parent_frame_id=131}
135 {file_location_id=49 parent_frame_id=131}
136 {file_location_id=50 parent_frame_id=131}
137 {file_location_id=51 parent_frame_id=131}
138 {file_location_id=52 parent_frame_id=131}
139 {file_location_id=53 parent_frame_id=131}
140 {file_location_id=47 parent_frame_id=140}
141 {file_location_id=54 parent_frame_id=131}
142 {file_location_id=55 parent_frame_id=131}
143 {file_location_id=56 parent_frame_id=127}
144 {file_location_id=25 parent_frame_id=144}
145 {file_location_id=57 parent_frame_id=127}
146 {file_location_id=58 parent_frame_id=14}
147 {file_location_id=70 parent_frame_id=15}
148 {file_location_id=71 parent_frame_id=14}
149 {file_location_id=72 parent_frame_id=14}
150 {file_location_id=73 parent_frame_id=150}
151 {file_location_id=74 parent_frame_id=14}
152 {file_location_id=30 parent_frame_id=152}
153 {file_location_id=75 parent_frame_id=11}
154 {file_location_id=23 parent_frame_id=18}
155 {file_location_id=26 parent_frame_id=18}
156 {file_location_id=27 parent_frame_id=18}
157 {file_location_id=28 parent_frame_id=18}
158 {file_location_id=80 parent_frame_id=17}
159 {file_location_id=81 parent_frame_id=159}
160 {file_location_id=30 parent_frame_id=160}
161 {file_location_id=82 parent_frame_id=159}
162 {file_location_id=83 parent_frame_id=159}
163 {file_location_id=30 parent_frame_id=163}
164 {file_location_id=84 parent_frame_id=159}
165 {file_location_id=85 parent_frame_id=159}
166 {file_location_id=30 parent_frame_id=166}
167 {file_location_id=86 parent_frame_id=17}
168 {file_location_id=26 parent_frame_id=20}
169 {file_location_id=27 parent_frame_id=20}
170 {file_location_id=28 parent_frame_id=20}
171 {file_location_id=87 parent_frame_id=35}
172 {file_location_id=30 parent_frame_id=172}
173 {file_location_id=31 parent_frame_id=35}
174 {file_location_id=32 parent_frame_id=174}
175 {file_location_id=23 parent_frame_id=33}
176 {file_location_id=26 parent_frame_id=33}
177 {file_location_id=27 parent_frame_id=33}
178 {file_location_id=28 parent_frame_id=33}
179 {file_location_id=33 parent_frame_id=35}
180 {file_location_id=30 parent_frame_id=180}
181 {file_location_id=34 parent_frame_id=35}
182 {file_location_id=32 parent_frame_id=182}
183 {file_location_id=35 parent_frame_id=35}
184 {file_location_id=36 parent_frame_id=36}
185 {file_location_id=88 parent_frame_id=35}
186 {file_location_id=30 parent_frame_id=186}
187 {file_location_id=38 parent_frame_id=35}
188 {file_location_id=32 parent_frame_id=188}
189 {file_location_id=39 parent_frame_id=36}
190 {file_location_id=71 parent_frame_id=35}
191 {file_location_id=72 parent_frame_id=35}
192 {file_location_id=73 parent_frame_id=192}
193 {file_location_id=74 parent_frame_id=35}
194 {file_location_id=30 parent_frame_id=194}
195 {file_location_id=89 parent_frame_id=32}
196 {file_location_id=23 parent_frame_id=39}
197 {file_location_id=26 parent_frame_id=39}
198 {file_location_id=27 parent_frame_id=39}
199 {file_location_id=28 parent_frame_id=39}
200 {file_location_id=80 parent_frame_id=38}
201 {file_location_id=81 parent_frame_id=201}
202 {file_location_id=30 parent_frame_id=202}
203 {file_location_id=82 parent_frame_id=201}
204 {file_location_id=83 parent_frame_id=201}
205 {file_location_id=30 parent_frame_id=205}
206 {file_location_id=84 parent_frame_id=201}
207 {file_location_id=85 parent_frame_id=201}
208 {file_location_id=30 parent_frame_id=208}
209 {file_location_id=86 parent_frame_id=38}
210 {file_location_id=26 parent_frame_id=41}
211 {file_location_id=27 parent_frame_id=41}
212 {file_location_id=28 parent_frame_id=41}
213 {file_location_id=90 parent_frame_id=6}
214 {file_location_id=30 parent_frame_id=214}


%_where.1 (Arg_0.2: pred[4,128], Arg_1.2: s32[4,128], Arg_2.1: s32[4,128]) -> s32[4,128] {
  %Arg_0.2 = pred[4,128]{1,0} parameter(0)
  %Arg_1.2 = s32[4,128]{1,0} parameter(1)
  %Arg_2.1 = s32[4,128]{1,0} parameter(2)
  ROOT %select_n.1 = s32[4,128]{1,0} select(%Arg_0.2, %Arg_1.2, %Arg_2.1), metadata={op_name="select_n"}
}

%region_0.2 (reduce_and.3: pred[], reduce_and.4: pred[]) -> pred[] {
  %reduce_and.3 = pred[] parameter(0), metadata={op_name="reduce_and"}
  %reduce_and.4 = pred[] parameter(1), metadata={op_name="reduce_and"}
  ROOT %reduce_and.5 = pred[] and(%reduce_and.3, %reduce_and.4), metadata={op_name="reduce_and"}
}

%_take.3 (Arg_0.3: f32[32128,1024], Arg_1.3: s32[4,128]) -> f32[4,128,1024] {
  %Arg_1.3 = s32[4,128]{1,0} parameter(1)
  %constant.34 = s32[] constant(0)
  %lt.3 = s32[4,128]{1,0} broadcast(%constant.34), dimensions={}, metadata={op_name="lt"}
  %lt.4 = pred[4,128]{1,0} compare(%Arg_1.3, %lt.3), direction=LT, metadata={op_name="lt"}
  %constant.32 = s32[] constant(32128)
  %add.2 = s32[4,128]{1,0} broadcast(%constant.32), dimensions={}, metadata={op_name="add"}
  %add.3 = s32[4,128]{1,0} add(%Arg_1.3, %add.2), metadata={op_name="add"}
  %jit__where_.1 = s32[4,128]{1,0} call(%lt.4, %add.3, %Arg_1.3), to_apply=%_where.1, metadata={op_name="jit(_where)"}
  %broadcast_in_dim.5 = s32[4,128,1]{2,1,0} reshape(%jit__where_.1), metadata={op_name="broadcast_in_dim"}
  %constant.31 = s32[] constant(0)
  %ge.2 = s32[4,128,1]{2,1,0} broadcast(%constant.31), dimensions={}, metadata={op_name="ge"}
  %ge.3 = pred[4,128,1]{2,1,0} compare(%broadcast_in_dim.5, %ge.2), direction=GE, metadata={op_name="ge"}
  %constant.30 = s32[] constant(32127)
  %le.2 = s32[4,128,1]{2,1,0} broadcast(%constant.30), dimensions={}, metadata={op_name="le"}
  %le.3 = pred[4,128,1]{2,1,0} compare(%broadcast_in_dim.5, %le.2), direction=LE, metadata={op_name="le"}
  %and.1 = pred[4,128,1]{2,1,0} and(%ge.3, %le.3), metadata={op_name="and"}
  %constant.33 = pred[] constant(true)
  %reduce_and.7 = pred[4,128]{1,0} reduce(%and.1, %constant.33), dimensions={2}, to_apply=%region_0.2, metadata={op_name="reduce_and"}
  %broadcast_in_dim.6 = pred[4,128,1024]{2,1,0} broadcast(%reduce_and.7), dimensions={0,1}, metadata={op_name="broadcast_in_dim"}
  %Arg_0.3 = f32[32128,1024]{1,0} parameter(0)
  %gather.1 = f32[4,128,1024]{2,1,0} gather(%Arg_0.3, %broadcast_in_dim.5), offset_dims={2}, collapsed_slice_dims={0}, start_index_map={0}, index_vector_dim=2, slice_sizes={1,1024}, metadata={op_name="gather"}
  %constant.29 = f32[] constant(nan)
  %broadcast_in_dim.4 = f32[4,128,1024]{2,1,0} broadcast(%constant.29), dimensions={}, metadata={op_name="broadcast_in_dim"}
  ROOT %select_n.3 = f32[4,128,1024]{2,1,0} select(%broadcast_in_dim.6, %gather.1, %broadcast_in_dim.4), metadata={op_name="select_n"}
}

%region_99.106 (reduce_sum.514: f32[], reduce_sum.515: f32[]) -> f32[] {
  %reduce_sum.514 = f32[] parameter(0), metadata={op_name="reduce_sum"}
  %reduce_sum.515 = f32[] parameter(1), metadata={op_name="reduce_sum"}
  ROOT %reduce_sum.516 = f32[] add(%reduce_sum.514, %reduce_sum.515), metadata={op_name="jit(predict_step)/FlaxT5ForConditionalGenerationModule/decoder/block/0/layer/0/layer_norm/reduce_sum" stack_frame_id=27}
}

%clip_3.107 (Arg_0.13: s32[128,128], Arg_1.13: s32[]) -> s32[128,128] {
  %Arg_1.13 = s32[] parameter(1)
  %min.6 = s32[128,128]{1,0} broadcast(%Arg_1.13), dimensions={}, metadata={op_name="min"}
  %Arg_0.13 = s32[128,128]{1,0} parameter(0)
  ROOT %min.7 = s32[128,128]{1,0} minimum(%min.6, %Arg_0.13), metadata={op_name="min"}
}

%clip.5 (Arg_0.5: f32[128,128], Arg_1.5: s32[]) -> f32[128,128] {
  %Arg_1.5 = s32[] parameter(1)
  %convert_element_type.3 = f32[] convert(%Arg_1.5), metadata={op_name="convert_element_type"}
  %min.2 = f32[128,128]{1,0} broadcast(%convert_element_type.3), dimensions={}, metadata={op_name="min"}
  %Arg_0.5 = f32[128,128]{1,0} parameter(0)
  ROOT %min.3 = f32[128,128]{1,0} minimum(%min.2, %Arg_0.5), metadata={op_name="min"}
}

%_where_0.6 (Arg_0.7: pred[128,128], Arg_1.7: s32[128,128], Arg_2.3: f32[128,128]) -> f32[128,128] {
  %Arg_0.7 = pred[128,128]{1,0} parameter(0)
  %Arg_1.7 = s32[128,128]{1,0} parameter(1)
  %convert_element_type.5 = f32[128,128]{1,0} convert(%Arg_1.7), metadata={op_name="convert_element_type"}
  %Arg_2.3 = f32[128,128]{1,0} parameter(2)
  ROOT %select_n.5 = f32[128,128]{1,0} select(%Arg_0.7, %convert_element_type.5, %Arg_2.3), metadata={op_name="select_n"}
}

%_where_2.7 (Arg_0.10: pred[128,128], Arg_1.10: s32[128,128], Arg_2.5: s32[128,128]) -> s32[128,128] {
  %Arg_0.10 = pred[128,128]{1,0} parameter(0)
  %Arg_1.10 = s32[128,128]{1,0} parameter(1)
  %Arg_2.5 = s32[128,128]{1,0} parameter(2)
  ROOT %select_n.7 = s32[128,128]{1,0} select(%Arg_0.10, %Arg_1.10, %Arg_2.5), metadata={op_name="select_n"}
}

%region_2.8 (reduce_and.11: pred[], reduce_and.12: pred[]) -> pred[] {
  %reduce_and.11 = pred[] parameter(0), metadata={op_name="reduce_and"}
  %reduce_and.12 = pred[] parameter(1), metadata={op_name="reduce_and"}
  ROOT %reduce_and.13 = pred[] and(%reduce_and.11, %reduce_and.12), metadata={op_name="reduce_and"}
}

%_take_1.9 (Arg_0.11: f32[32,16], Arg_1.11: s32[128,128]) -> f32[128,128,16] {
  %Arg_1.11 = s32[128,128]{1,0} parameter(1)
  %constant.46 = s32[] constant(0)
  %lt.8 = s32[128,128]{1,0} broadcast(%constant.46), dimensions={}, metadata={op_name="lt"}
  %lt.9 = pred[128,128]{1,0} compare(%Arg_1.11, %lt.8), direction=LT, metadata={op_name="lt"}
  %constant.44 = s32[] constant(32)
  %add.9 = s32[128,128]{1,0} broadcast(%constant.44), dimensions={}, metadata={op_name="add"}
  %add.10 = s32[128,128]{1,0} add(%Arg_1.11, %add.9), metadata={op_name="add"}
  %jit__where_.4 = s32[128,128]{1,0} call(%lt.9, %add.10, %Arg_1.11), to_apply=%_where_2.7, metadata={op_name="jit(_where)"}
  %broadcast_in_dim.15 = s32[128,128,1]{2,1,0} reshape(%jit__where_.4), metadata={op_name="broadcast_in_dim"}
  %constant.43 = s32[] constant(0)
  %ge.6 = s32[128,128,1]{2,1,0} broadcast(%constant.43), dimensions={}, metadata={op_name="ge"}
  %ge.7 = pred[128,128,1]{2,1,0} compare(%broadcast_in_dim.15, %ge.6), direction=GE, metadata={op_name="ge"}
  %constant.42 = s32[] constant(31)
  %le.6 = s32[128,128,1]{2,1,0} broadcast(%constant.42), dimensions={}, metadata={op_name="le"}
  %le.7 = pred[128,128,1]{2,1,0} compare(%broadcast_in_dim.15, %le.6), direction=LE, metadata={op_name="le"}
  %and.3 = pred[128,128,1]{2,1,0} and(%ge.7, %le.7), metadata={op_name="and"}
  %constant.45 = pred[] constant(true)
  %reduce_and.15 = pred[128,128]{1,0} reduce(%and.3, %constant.45), dimensions={2}, to_apply=%region_2.8, metadata={op_name="reduce_and"}
  %broadcast_in_dim.16 = pred[128,128,16]{2,1,0} broadcast(%reduce_and.15), dimensions={0,1}, metadata={op_name="broadcast_in_dim"}
  %Arg_0.11 = f32[32,16]{1,0} parameter(0)
  %gather.3 = f32[128,128,16]{2,1,0} gather(%Arg_0.11, %broadcast_in_dim.15), offset_dims={2}, collapsed_slice_dims={0}, start_index_map={0}, index_vector_dim=2, slice_sizes={1,16}, metadata={op_name="gather"}
  %constant.41 = f32[] constant(nan)
  %broadcast_in_dim.14 = f32[128,128,16]{2,1,0} broadcast(%constant.41), dimensions={}, metadata={op_name="broadcast_in_dim"}
  ROOT %select_n.9 = f32[128,128,16]{2,1,0} select(%broadcast_in_dim.16, %gather.3, %broadcast_in_dim.14), metadata={op_name="select_n"}
}

%region_100.108 (reduce_max.171: f32[], reduce_max.172: f32[]) -> f32[] {
  %reduce_max.171 = f32[] parameter(0), metadata={op_name="reduce_max"}
  %reduce_max.172 = f32[] parameter(1), metadata={op_name="reduce_max"}
  ROOT %reduce_max.173 = f32[] maximum(%reduce_max.171, %reduce_max.172), metadata={op_name="jit(predict_step)/FlaxT5ForConditionalGenerationModule/decoder/block/0/layer/0/SelfAttention/reduce_max" stack_frame_id=30}
}

%region_101.109 (reduce_sum.521: f32[], reduce_sum.522: f32[]) -> f32[] {
  %reduce_sum.521 = f32[] parameter(0), metadata={op_name="reduce_sum"}
  %reduce_sum.522 = f32[] parameter(1), metadata={op_name="reduce_sum"}
  ROOT %reduce_sum.523 = f32[] add(%reduce_sum.521, %reduce_sum.522), metadata={op_name="jit(predict_step)/FlaxT5ForConditionalGenerationModule/decoder/block/0/layer/0/SelfAttention/reduce_sum" stack_frame_id=30}
}

%region_1.4 (reduce_sum.3: f32[], reduce_sum.4: f32[]) -> f32[] {
  %reduce_sum.3 = f32[] parameter(0), metadata={op_name="reduce_sum"}
  %reduce_sum.4 = f32[] parameter(1), metadata={op_name="reduce_sum"}
  ROOT %reduce_sum.5 = f32[] add(%reduce_sum.3, %reduce_sum.4), metadata={op_name="jit(predict_step)/FlaxT5ForConditionalGenerationModule/encoder/block/0/layer/0/layer_norm/reduce_sum" stack_frame_id=12}
}

%region_3.10 (reduce_max.3: f32[], reduce_max.4: f32[]) -> f32[] {
  %reduce_max.3 = f32[] parameter(0), metadata={op_name="reduce_max"}
  %reduce_max.4 = f32[] parameter(1), metadata={op_name="reduce_max"}
  ROOT %reduce_max.5 = f32[] maximum(%reduce_max.3, %reduce_max.4), metadata={op_name="jit(predict_step)/FlaxT5ForConditionalGenerationModule/encoder/block/0/layer/0/SelfAttention/reduce_max" stack_frame_id=15}
}

%region_4.11 (reduce_sum.10: f32[], reduce_sum.11: f32[]) -> f32[] {
  %reduce_sum.10 = f32[] parameter(0), metadata={op_name="reduce_sum"}
  %reduce_sum.11 = f32[] parameter(1), metadata={op_name="reduce_sum"}
  ROOT %reduce_sum.12 = f32[] add(%reduce_sum.10, %reduce_sum.11), metadata={op_name="jit(predict_step)/FlaxT5ForConditionalGenerationModule/encoder/block/0/layer/0/SelfAttention/reduce_sum" stack_frame_id=15}
}

%region_5.12 (reduce_sum.17: f32[], reduce_sum.18: f32[]) -> f32[] {
  %reduce_sum.17 = f32[] parameter(0), metadata={op_name="reduce_sum"}
  %reduce_sum.18 = f32[] parameter(1), metadata={op_name="reduce_sum"}
  ROOT %reduce_sum.19 = f32[] add(%reduce_sum.17, %reduce_sum.18), metadata={op_name="jit(predict_step)/FlaxT5ForConditionalGenerationModule/encoder/block/0/layer/1/layer_norm/reduce_sum" stack_frame_id=18}
}

%region_6.13 (reduce_sum.24: f32[], reduce_sum.25: f32[]) -> f32[] {
  %reduce_sum.24 = f32[] parameter(0), metadata={op_name="reduce_sum"}
  %reduce_sum.25 = f32[] parameter(1), metadata={op_name="reduce_sum"}
  ROOT %reduce_sum.26 = f32[] add(%reduce_sum.24, %reduce_sum.25), metadata={op_name="jit(predict_step)/FlaxT5ForConditionalGenerationModule/encoder/block/1/layer/0/layer_norm/reduce_sum" stack_frame_id=12}
}

%region_7.14 (reduce_max.10: f32[], reduce_max.11: f32[]) -> f32[] {
  %reduce_max.10 = f32[] parameter(0), metadata={op_name="reduce_max"}
  %reduce_max.11 = f32[] parameter(1), metadata={op_name="reduce_max"}
  ROOT %reduce_max.12 = f32[] maximum(%reduce_max.10, %reduce_max.11), metadata={op_name="jit(predict_step)/FlaxT5ForConditionalGenerationModule/encoder/block/1/layer/0/SelfAttention/reduce_max" stack_frame_id=15}
}

%region_8.15 (reduce_sum.31: f32[], reduce_sum.32: f32[]) -> f32[] {
  %reduce_sum.31 = f32[] parameter(0), metadata={op_name="reduce_sum"}
  %reduce_sum.32 = f32[] parameter(1), metadata={op_name="reduce_sum"}
  ROOT %reduce_sum.33 = f32[] add(%reduce_sum.31, %reduce_sum.32), metadata={op_name="jit(predict_step)/FlaxT5ForConditionalGenerationModule/encoder/block/1/layer/0/SelfAttention/reduce_sum" stack_frame_id=15}
}

%region_9.16 (reduce_sum.38: f32[], reduce_sum.39: f32[]) -> f32[] {
  %reduce_sum.38 = f32[] parameter(0), metadata={op_name="reduce_sum"}
  %reduce_sum.39 = f32[] parameter(1), metadata={op_name="reduce_sum"}
  ROOT %reduce_sum.40 = f32[] add(%reduce_sum.38, %reduce_sum.39), metadata={op_name="jit(predict_step)/FlaxT5ForConditionalGenerationModule/encoder/block/1/layer/1/layer_norm/reduce_sum" stack_frame_id=18}
}

%region_10.17 (reduce_sum.45: f32[], reduce_sum.46: f32[]) -> f32[] {
  %reduce_sum.45 = f32[] parameter(0), metadata={op_name="reduce_sum"}
  %reduce_sum.46 = f32[] parameter(1), metadata={op_name="reduce_sum"}
  ROOT %reduce_sum.47 = f32[] add(%reduce_sum.45, %reduce_sum.46), metadata={op_name="jit(predict_step)/FlaxT5ForConditionalGenerationModule/encoder/block/2/layer/0/layer_norm/reduce_sum" stack_frame_id=12}
}

%region_11.18 (reduce_max.17: f32[], reduce_max.18: f32[]) -> f32[] {
  %reduce_max.17 = f32[] parameter(0), metadata={op_name="reduce_max"}
  %reduce_max.18 = f32[] parameter(1), metadata={op_name="reduce_max"}
  ROOT %reduce_max.19 = f32[] maximum(%reduce_max.17, %reduce_max.18), metadata={op_name="jit(predict_step)/FlaxT5ForConditionalGenerationModule/encoder/block/2/layer/0/SelfAttention/reduce_max" stack_frame_id=15}
}

%region_12.19 (reduce_sum.52: f32[], reduce_sum.53: f32[]) -> f32[] {
  %reduce_sum.52 = f32[] parameter(0), metadata={op_name="reduce_sum"}
  %reduce_sum.53 = f32[] parameter(1), metadata={op_name="reduce_sum"}
  ROOT %reduce_sum.54 = f32[] add(%reduce_sum.52, %reduce_sum.53), metadata={op_name="jit(predict_step)/FlaxT5ForConditionalGenerationModule/encoder/block/2/layer/0/SelfAttention/reduce_sum" stack_frame_id=15}
}

%region_13.20 (reduce_sum.59: f32[], reduce_sum.60: f32[]) -> f32[] {
  %reduce_sum.59 = f32[] parameter(0), metadata={op_name="reduce_sum"}
  %reduce_sum.60 = f32[] parameter(1), metadata={op_name="reduce_sum"}
  ROOT %reduce_sum.61 = f32[] add(%reduce_sum.59, %reduce_sum.60), metadata={op_name="jit(predict_step)/FlaxT5ForConditionalGenerationModule/encoder/block/2/layer/1/layer_norm/reduce_sum" stack_frame_id=18}
}

%region_14.21 (reduce_sum.66: f32[], reduce_sum.67: f32[]) -> f32[] {
  %reduce_sum.66 = f32[] parameter(0), metadata={op_name="reduce_sum"}
  %reduce_sum.67 = f32[] parameter(1), metadata={op_name="reduce_sum"}
  ROOT %reduce_sum.68 = f32[] add(%reduce_sum.66, %reduce_sum.67), metadata={op_name="jit(predict_step)/FlaxT5ForConditionalGenerationModule/encoder/block/3/layer/0/layer_norm/reduce_sum" stack_frame_id=12}
}

%region_15.22 (reduce_max.24: f32[], reduce_max.25: f32[]) -> f32[] {
  %reduce_max.24 = f32[] parameter(0), metadata={op_name="reduce_max"}
  %reduce_max.25 = f32[] parameter(1), metadata={op_name="reduce_max"}
  ROOT %reduce_max.26 = f32[] maximum(%reduce_max.24, %reduce_max.25), metadata={op_name="jit(predict_step)/FlaxT5ForConditionalGenerationModule/encoder/block/3/layer/0/SelfAttention/reduce_max" stack_frame_id=15}
}

%region_16.23 (reduce_sum.73: f32[], reduce_sum.74: f32[]) -> f32[] {
  %reduce_sum.73 = f32[] parameter(0), metadata={op_name="reduce_sum"}
  %reduce_sum.74 = f32[] parameter(1), metadata={op_name="reduce_sum"}
  ROOT %reduce_sum.75 = f32[] add(%reduce_sum.73, %reduce_sum.74), metadata={op_name="jit(predict_step)/FlaxT5ForConditionalGenerationModule/encoder/block/3/layer/0/SelfAttention/reduce_sum" stack_frame_id=15}
}

%region_17.24 (reduce_sum.80: f32[], reduce_sum.81: f32[]) -> f32[] {
  %reduce_sum.80 = f32[] parameter(0), metadata={op_name="reduce_sum"}
  %reduce_sum.81 = f32[] parameter(1), metadata={op_name="reduce_sum"}
  ROOT %reduce_sum.82 = f32[] add(%reduce_sum.80, %reduce_sum.81), metadata={op_name="jit(predict_step)/FlaxT5ForConditionalGenerationModule/encoder/block/3/layer/1/layer_norm/reduce_sum" stack_frame_id=18}
}

%region_18.25 (reduce_sum.87: f32[], reduce_sum.88: f32[]) -> f32[] {
  %reduce_sum.87 = f32[] parameter(0), metadata={op_name="reduce_sum"}
  %reduce_sum.88 = f32[] parameter(1), metadata={op_name="reduce_sum"}
  ROOT %reduce_sum.89 = f32[] add(%reduce_sum.87, %reduce_sum.88), metadata={op_name="jit(predict_step)/FlaxT5ForConditionalGenerationModule/encoder/block/4/layer/0/layer_norm/reduce_sum" stack_frame_id=12}
}

%region_19.26 (reduce_max.31: f32[], reduce_max.32: f32[]) -> f32[] {
  %reduce_max.31 = f32[] parameter(0), metadata={op_name="reduce_max"}
  %reduce_max.32 = f32[] parameter(1), metadata={op_name="reduce_max"}
  ROOT %reduce_max.33 = f32[] maximum(%reduce_max.31, %reduce_max.32), metadata={op_name="jit(predict_step)/FlaxT5ForConditionalGenerationModule/encoder/block/4/layer/0/SelfAttention/reduce_max" stack_frame_id=15}
}

%region_20.27 (reduce_sum.94: f32[], reduce_sum.95: f32[]) -> f32[] {
  %reduce_sum.94 = f32[] parameter(0), metadata={op_name="reduce_sum"}
  %reduce_sum.95 = f32[] parameter(1), metadata={op_name="reduce_sum"}
  ROOT %reduce_sum.96 = f32[] add(%reduce_sum.94, %reduce_sum.95), metadata={op_name="jit(predict_step)/FlaxT5ForConditionalGenerationModule/encoder/block/4/layer/0/SelfAttention/reduce_sum" stack_frame_id=15}
}

%region_21.28 (reduce_sum.101: f32[], reduce_sum.102: f32[]) -> f32[] {
  %reduce_sum.101 = f32[] parameter(0), metadata={op_name="reduce_sum"}
  %reduce_sum.102 = f32[] parameter(1), metadata={op_name="reduce_sum"}
  ROOT %reduce_sum.103 = f32[] add(%reduce_sum.101, %reduce_sum.102), metadata={op_name="jit(predict_step)/FlaxT5ForConditionalGenerationModule/encoder/block/4/layer/1/layer_norm/reduce_sum" stack_frame_id=18}
}

%region_22.29 (reduce_sum.108: f32[], reduce_sum.109: f32[]) -> f32[] {
  %reduce_sum.108 = f32[] parameter(0), metadata={op_name="reduce_sum"}
  %reduce_sum.109 = f32[] parameter(1), metadata={op_name="reduce_sum"}
  ROOT %reduce_sum.110 = f32[] add(%reduce_sum.108, %reduce_sum.109), metadata={op_name="jit(predict_step)/FlaxT5ForConditionalGenerationModule/encoder/block/5/layer/0/layer_norm/reduce_sum" stack_frame_id=12}
}

%region_23.30 (reduce_max.38: f32[], reduce_max.39: f32[]) -> f32[] {
  %reduce_max.38 = f32[] parameter(0), metadata={op_name="reduce_max"}
  %reduce_max.39 = f32[] parameter(1), metadata={op_name="reduce_max"}
  ROOT %reduce_max.40 = f32[] maximum(%reduce_max.38, %reduce_max.39), metadata={op_name="jit(predict_step)/FlaxT5ForConditionalGenerationModule/encoder/block/5/layer/0/SelfAttention/reduce_max" stack_frame_id=15}
}

%region_24.31 (reduce_sum.115: f32[], reduce_sum.116: f32[]) -> f32[] {
  %reduce_sum.115 = f32[] parameter(0), metadata={op_name="reduce_sum"}
  %reduce_sum.116 = f32[] parameter(1), metadata={op_name="reduce_sum"}
  ROOT %reduce_sum.117 = f32[] add(%reduce_sum.115, %reduce_sum.116), metadata={op_name="jit(predict_step)/FlaxT5ForConditionalGenerationModule/encoder/block/5/layer/0/SelfAttention/reduce_sum" stack_frame_id=15}
}

%region_25.32 (reduce_sum.122: f32[], reduce_sum.123: f32[]) -> f32[] {
  %reduce_sum.122 = f32[] parameter(0), metadata={op_name="reduce_sum"}
  %reduce_sum.123 = f32[] parameter(1), metadata={op_name="reduce_sum"}
  ROOT %reduce_sum.124 = f32[] add(%reduce_sum.122, %reduce_sum.123), metadata={op_name="jit(predict_step)/FlaxT5ForConditionalGenerationModule/encoder/block/5/layer/1/layer_norm/reduce_sum" stack_frame_id=18}
}

%region_26.33 (reduce_sum.129: f32[], reduce_sum.130: f32[]) -> f32[] {
  %reduce_sum.129 = f32[] parameter(0), metadata={op_name="reduce_sum"}
  %reduce_sum.130 = f32[] parameter(1), metadata={op_name="reduce_sum"}
  ROOT %reduce_sum.131 = f32[] add(%reduce_sum.129, %reduce_sum.130), metadata={op_name="jit(predict_step)/FlaxT5ForConditionalGenerationModule/encoder/block/6/layer/0/layer_norm/reduce_sum" stack_frame_id=12}
}

%region_27.34 (reduce_max.45: f32[], reduce_max.46: f32[]) -> f32[] {
  %reduce_max.45 = f32[] parameter(0), metadata={op_name="reduce_max"}
  %reduce_max.46 = f32[] parameter(1), metadata={op_name="reduce_max"}
  ROOT %reduce_max.47 = f32[] maximum(%reduce_max.45, %reduce_max.46), metadata={op_name="jit(predict_step)/FlaxT5ForConditionalGenerationModule/encoder/block/6/layer/0/SelfAttention/reduce_max" stack_frame_id=15}
}

%region_28.35 (reduce_sum.136: f32[], reduce_sum.137: f32[]) -> f32[] {
  %reduce_sum.136 = f32[] parameter(0), metadata={op_name="reduce_sum"}
  %reduce_sum.137 = f32[] parameter(1), metadata={op_name="reduce_sum"}
  ROOT %reduce_sum.138 = f32[] add(%reduce_sum.136, %reduce_sum.137), metadata={op_name="jit(predict_step)/FlaxT5ForConditionalGenerationModule/encoder/block/6/layer/0/SelfAttention/reduce_sum" stack_frame_id=15}
}

%region_29.36 (reduce_sum.143: f32[], reduce_sum.144: f32[]) -> f32[] {
  %reduce_sum.143 = f32[] parameter(0), metadata={op_name="reduce_sum"}
  %reduce_sum.144 = f32[] parameter(1), metadata={op_name="reduce_sum"}
  ROOT %reduce_sum.145 = f32[] add(%reduce_sum.143, %reduce_sum.144), metadata={op_name="jit(predict_step)/FlaxT5ForConditionalGenerationModule/encoder/block/6/layer/1/layer_norm/reduce_sum" stack_frame_id=18}
}

%region_30.37 (reduce_sum.150: f32[], reduce_sum.151: f32[]) -> f32[] {
  %reduce_sum.150 = f32[] parameter(0), metadata={op_name="reduce_sum"}
  %reduce_sum.151 = f32[] parameter(1), metadata={op_name="reduce_sum"}
  ROOT %reduce_sum.152 = f32[] add(%reduce_sum.150, %reduce_sum.151), metadata={op_name="jit(predict_step)/FlaxT5ForConditionalGenerationModule/encoder/block/7/layer/0/layer_norm/reduce_sum" stack_frame_id=12}
}

%region_31.38 (reduce_max.52: f32[], reduce_max.53: f32[]) -> f32[] {
  %reduce_max.52 = f32[] parameter(0), metadata={op_name="reduce_max"}
  %reduce_max.53 = f32[] parameter(1), metadata={op_name="reduce_max"}
  ROOT %reduce_max.54 = f32[] maximum(%reduce_max.52, %reduce_max.53), metadata={op_name="jit(predict_step)/FlaxT5ForConditionalGenerationModule/encoder/block/7/layer/0/SelfAttention/reduce_max" stack_frame_id=15}
}

%region_32.39 (reduce_sum.157: f32[], reduce_sum.158: f32[]) -> f32[] {
  %reduce_sum.157 = f32[] parameter(0), metadata={op_name="reduce_sum"}
  %reduce_sum.158 = f32[] parameter(1), metadata={op_name="reduce_sum"}
  ROOT %reduce_sum.159 = f32[] add(%reduce_sum.157, %reduce_sum.158), metadata={op_name="jit(predict_step)/FlaxT5ForConditionalGenerationModule/encoder/block/7/layer/0/SelfAttention/reduce_sum" stack_frame_id=15}
}

%region_33.40 (reduce_sum.164: f32[], reduce_sum.165: f32[]) -> f32[] {
  %reduce_sum.164 = f32[] parameter(0), metadata={op_name="reduce_sum"}
  %reduce_sum.165 = f32[] parameter(1), metadata={op_name="reduce_sum"}
  ROOT %reduce_sum.166 = f32[] add(%reduce_sum.164, %reduce_sum.165), metadata={op_name="jit(predict_step)/FlaxT5ForConditionalGenerationModule/encoder/block/7/layer/1/layer_norm/reduce_sum" stack_frame_id=18}
}

%region_34.41 (reduce_sum.171: f32[], reduce_sum.172: f32[]) -> f32[] {
  %reduce_sum.171 = f32[] parameter(0), metadata={op_name="reduce_sum"}
  %reduce_sum.172 = f32[] parameter(1), metadata={op_name="reduce_sum"}
  ROOT %reduce_sum.173 = f32[] add(%reduce_sum.171, %reduce_sum.172), metadata={op_name="jit(predict_step)/FlaxT5ForConditionalGenerationModule/encoder/block/8/layer/0/layer_norm/reduce_sum" stack_frame_id=12}
}

%region_35.42 (reduce_max.59: f32[], reduce_max.60: f32[]) -> f32[] {
  %reduce_max.59 = f32[] parameter(0), metadata={op_name="reduce_max"}
  %reduce_max.60 = f32[] parameter(1), metadata={op_name="reduce_max"}
  ROOT %reduce_max.61 = f32[] maximum(%reduce_max.59, %reduce_max.60), metadata={op_name="jit(predict_step)/FlaxT5ForConditionalGenerationModule/encoder/block/8/layer/0/SelfAttention/reduce_max" stack_frame_id=15}
}

%region_36.43 (reduce_sum.178: f32[], reduce_sum.179: f32[]) -> f32[] {
  %reduce_sum.178 = f32[] parameter(0), metadata={op_name="reduce_sum"}
  %reduce_sum.179 = f32[] parameter(1), metadata={op_name="reduce_sum"}
  ROOT %reduce_sum.180 = f32[] add(%reduce_sum.178, %reduce_sum.179), metadata={op_name="jit(predict_step)/FlaxT5ForConditionalGenerationModule/encoder/block/8/layer/0/SelfAttention/reduce_sum" stack_frame_id=15}
}

%region_37.44 (reduce_sum.185: f32[], reduce_sum.186: f32[]) -> f32[] {
  %reduce_sum.185 = f32[] parameter(0), metadata={op_name="reduce_sum"}
  %reduce_sum.186 = f32[] parameter(1), metadata={op_name="reduce_sum"}
  ROOT %reduce_sum.187 = f32[] add(%reduce_sum.185, %reduce_sum.186), metadata={op_name="jit(predict_step)/FlaxT5ForConditionalGenerationModule/encoder/block/8/layer/1/layer_norm/reduce_sum" stack_frame_id=18}
}

%region_38.45 (reduce_sum.192: f32[], reduce_sum.193: f32[]) -> f32[] {
  %reduce_sum.192 = f32[] parameter(0), metadata={op_name="reduce_sum"}
  %reduce_sum.193 = f32[] parameter(1), metadata={op_name="reduce_sum"}
  ROOT %reduce_sum.194 = f32[] add(%reduce_sum.192, %reduce_sum.193), metadata={op_name="jit(predict_step)/FlaxT5ForConditionalGenerationModule/encoder/block/9/layer/0/layer_norm/reduce_sum" stack_frame_id=12}
}

%region_39.46 (reduce_max.66: f32[], reduce_max.67: f32[]) -> f32[] {
  %reduce_max.66 = f32[] parameter(0), metadata={op_name="reduce_max"}
  %reduce_max.67 = f32[] parameter(1), metadata={op_name="reduce_max"}
  ROOT %reduce_max.68 = f32[] maximum(%reduce_max.66, %reduce_max.67), metadata={op_name="jit(predict_step)/FlaxT5ForConditionalGenerationModule/encoder/block/9/layer/0/SelfAttention/reduce_max" stack_frame_id=15}
}

%region_40.47 (reduce_sum.199: f32[], reduce_sum.200: f32[]) -> f32[] {
  %reduce_sum.199 = f32[] parameter(0), metadata={op_name="reduce_sum"}
  %reduce_sum.200 = f32[] parameter(1), metadata={op_name="reduce_sum"}
  ROOT %reduce_sum.201 = f32[] add(%reduce_sum.199, %reduce_sum.200), metadata={op_name="jit(predict_step)/FlaxT5ForConditionalGenerationModule/encoder/block/9/layer/0/SelfAttention/reduce_sum" stack_frame_id=15}
}

%region_41.48 (reduce_sum.206: f32[], reduce_sum.207: f32[]) -> f32[] {
  %reduce_sum.206 = f32[] parameter(0), metadata={op_name="reduce_sum"}
  %reduce_sum.207 = f32[] parameter(1), metadata={op_name="reduce_sum"}
  ROOT %reduce_sum.208 = f32[] add(%reduce_sum.206, %reduce_sum.207), metadata={op_name="jit(predict_step)/FlaxT5ForConditionalGenerationModule/encoder/block/9/layer/1/layer_norm/reduce_sum" stack_frame_id=18}
}

%region_42.49 (reduce_sum.213: f32[], reduce_sum.214: f32[]) -> f32[] {
  %reduce_sum.213 = f32[] parameter(0), metadata={op_name="reduce_sum"}
  %reduce_sum.214 = f32[] parameter(1), metadata={op_name="reduce_sum"}
  ROOT %reduce_sum.215 = f32[] add(%reduce_sum.213, %reduce_sum.214), metadata={op_name="jit(predict_step)/FlaxT5ForConditionalGenerationModule/encoder/block/10/layer/0/layer_norm/reduce_sum" stack_frame_id=12}
}

%region_43.50 (reduce_max.73: f32[], reduce_max.74: f32[]) -> f32[] {
  %reduce_max.73 = f32[] parameter(0), metadata={op_name="reduce_max"}
  %reduce_max.74 = f32[] parameter(1), metadata={op_name="reduce_max"}
  ROOT %reduce_max.75 = f32[] maximum(%reduce_max.73, %reduce_max.74), metadata={op_name="jit(predict_step)/FlaxT5ForConditionalGenerationModule/encoder/block/10/layer/0/SelfAttention/reduce_max" stack_frame_id=15}
}

%region_44.51 (reduce_sum.220: f32[], reduce_sum.221: f32[]) -> f32[] {
  %reduce_sum.220 = f32[] parameter(0), metadata={op_name="reduce_sum"}
  %reduce_sum.221 = f32[] parameter(1), metadata={op_name="reduce_sum"}
  ROOT %reduce_sum.222 = f32[] add(%reduce_sum.220, %reduce_sum.221), metadata={op_name="jit(predict_step)/FlaxT5ForConditionalGenerationModule/encoder/block/10/layer/0/SelfAttention/reduce_sum" stack_frame_id=15}
}

%region_45.52 (reduce_sum.227: f32[], reduce_sum.228: f32[]) -> f32[] {
  %reduce_sum.227 = f32[] parameter(0), metadata={op_name="reduce_sum"}
  %reduce_sum.228 = f32[] parameter(1), metadata={op_name="reduce_sum"}
  ROOT %reduce_sum.229 = f32[] add(%reduce_sum.227, %reduce_sum.228), metadata={op_name="jit(predict_step)/FlaxT5ForConditionalGenerationModule/encoder/block/10/layer/1/layer_norm/reduce_sum" stack_frame_id=18}
}

%region_46.53 (reduce_sum.234: f32[], reduce_sum.235: f32[]) -> f32[] {
  %reduce_sum.234 = f32[] parameter(0), metadata={op_name="reduce_sum"}
  %reduce_sum.235 = f32[] parameter(1), metadata={op_name="reduce_sum"}
  ROOT %reduce_sum.236 = f32[] add(%reduce_sum.234, %reduce_sum.235), metadata={op_name="jit(predict_step)/FlaxT5ForConditionalGenerationModule/encoder/block/11/layer/0/layer_norm/reduce_sum" stack_frame_id=12}
}

%region_47.54 (reduce_max.80: f32[], reduce_max.81: f32[]) -> f32[] {
  %reduce_max.80 = f32[] parameter(0), metadata={op_name="reduce_max"}
  %reduce_max.81 = f32[] parameter(1), metadata={op_name="reduce_max"}
  ROOT %reduce_max.82 = f32[] maximum(%reduce_max.80, %reduce_max.81), metadata={op_name="jit(predict_step)/FlaxT5ForConditionalGenerationModule/encoder/block/11/layer/0/SelfAttention/reduce_max" stack_frame_id=15}
}

%region_48.55 (reduce_sum.241: f32[], reduce_sum.242: f32[]) -> f32[] {
  %reduce_sum.241 = f32[] parameter(0), metadata={op_name="reduce_sum"}
  %reduce_sum.242 = f32[] parameter(1), metadata={op_name="reduce_sum"}
  ROOT %reduce_sum.243 = f32[] add(%reduce_sum.241, %reduce_sum.242), metadata={op_name="jit(predict_step)/FlaxT5ForConditionalGenerationModule/encoder/block/11/layer/0/SelfAttention/reduce_sum" stack_frame_id=15}
}

%region_49.56 (reduce_sum.248: f32[], reduce_sum.249: f32[]) -> f32[] {
  %reduce_sum.248 = f32[] parameter(0), metadata={op_name="reduce_sum"}
  %reduce_sum.249 = f32[] parameter(1), metadata={op_name="reduce_sum"}
  ROOT %reduce_sum.250 = f32[] add(%reduce_sum.248, %reduce_sum.249), metadata={op_name="jit(predict_step)/FlaxT5ForConditionalGenerationModule/encoder/block/11/layer/1/layer_norm/reduce_sum" stack_frame_id=18}
}

%region_50.57 (reduce_sum.255: f32[], reduce_sum.256: f32[]) -> f32[] {
  %reduce_sum.255 = f32[] parameter(0), metadata={op_name="reduce_sum"}
  %reduce_sum.256 = f32[] parameter(1), metadata={op_name="reduce_sum"}
  ROOT %reduce_sum.257 = f32[] add(%reduce_sum.255, %reduce_sum.256), metadata={op_name="jit(predict_step)/FlaxT5ForConditionalGenerationModule/encoder/block/12/layer/0/layer_norm/reduce_sum" stack_frame_id=12}
}

%region_51.58 (reduce_max.87: f32[], reduce_max.88: f32[]) -> f32[] {
  %reduce_max.87 = f32[] parameter(0), metadata={op_name="reduce_max"}
  %reduce_max.88 = f32[] parameter(1), metadata={op_name="reduce_max"}
  ROOT %reduce_max.89 = f32[] maximum(%reduce_max.87, %reduce_max.88), metadata={op_name="jit(predict_step)/FlaxT5ForConditionalGenerationModule/encoder/block/12/layer/0/SelfAttention/reduce_max" stack_frame_id=15}
}

%region_52.59 (reduce_sum.262: f32[], reduce_sum.263: f32[]) -> f32[] {
  %reduce_sum.262 = f32[] parameter(0), metadata={op_name="reduce_sum"}
  %reduce_sum.263 = f32[] parameter(1), metadata={op_name="reduce_sum"}
  ROOT %reduce_sum.264 = f32[] add(%reduce_sum.262, %reduce_sum.263), metadata={op_name="jit(predict_step)/FlaxT5ForConditionalGenerationModule/encoder/block/12/layer/0/SelfAttention/reduce_sum" stack_frame_id=15}
}

%region_53.60 (reduce_sum.269: f32[], reduce_sum.270: f32[]) -> f32[] {
  %reduce_sum.269 = f32[] parameter(0), metadata={op_name="reduce_sum"}
  %reduce_sum.270 = f32[] parameter(1), metadata={op_name="reduce_sum"}
  ROOT %reduce_sum.271 = f32[] add(%reduce_sum.269, %reduce_sum.270), metadata={op_name="jit(predict_step)/FlaxT5ForConditionalGenerationModule/encoder/block/12/layer/1/layer_norm/reduce_sum" stack_frame_id=18}
}

%region_54.61 (reduce_sum.276: f32[], reduce_sum.277: f32[]) -> f32[] {
  %reduce_sum.276 = f32[] parameter(0), metadata={op_name="reduce_sum"}
  %reduce_sum.277 = f32[] parameter(1), metadata={op_name="reduce_sum"}
  ROOT %reduce_sum.278 = f32[] add(%reduce_sum.276, %reduce_sum.277), metadata={op_name="jit(predict_step)/FlaxT5ForConditionalGenerationModule/encoder/block/13/layer/0/layer_norm/reduce_sum" stack_frame_id=12}
}

%region_55.62 (reduce_max.94: f32[], reduce_max.95: f32[]) -> f32[] {
  %reduce_max.94 = f32[] parameter(0), metadata={op_name="reduce_max"}
  %reduce_max.95 = f32[] parameter(1), metadata={op_name="reduce_max"}
  ROOT %reduce_max.96 = f32[] maximum(%reduce_max.94, %reduce_max.95), metadata={op_name="jit(predict_step)/FlaxT5ForConditionalGenerationModule/encoder/block/13/layer/0/SelfAttention/reduce_max" stack_frame_id=15}
}

%region_56.63 (reduce_sum.283: f32[], reduce_sum.284: f32[]) -> f32[] {
  %reduce_sum.283 = f32[] parameter(0), metadata={op_name="reduce_sum"}
  %reduce_sum.284 = f32[] parameter(1), metadata={op_name="reduce_sum"}
  ROOT %reduce_sum.285 = f32[] add(%reduce_sum.283, %reduce_sum.284), metadata={op_name="jit(predict_step)/FlaxT5ForConditionalGenerationModule/encoder/block/13/layer/0/SelfAttention/reduce_sum" stack_frame_id=15}
}

%region_57.64 (reduce_sum.290: f32[], reduce_sum.291: f32[]) -> f32[] {
  %reduce_sum.290 = f32[] parameter(0), metadata={op_name="reduce_sum"}
  %reduce_sum.291 = f32[] parameter(1), metadata={op_name="reduce_sum"}
  ROOT %reduce_sum.292 = f32[] add(%reduce_sum.290, %reduce_sum.291), metadata={op_name="jit(predict_step)/FlaxT5ForConditionalGenerationModule/encoder/block/13/layer/1/layer_norm/reduce_sum" stack_frame_id=18}
}

%region_58.65 (reduce_sum.297: f32[], reduce_sum.298: f32[]) -> f32[] {
  %reduce_sum.297 = f32[] parameter(0), metadata={op_name="reduce_sum"}
  %reduce_sum.298 = f32[] parameter(1), metadata={op_name="reduce_sum"}
  ROOT %reduce_sum.299 = f32[] add(%reduce_sum.297, %reduce_sum.298), metadata={op_name="jit(predict_step)/FlaxT5ForConditionalGenerationModule/encoder/block/14/layer/0/layer_norm/reduce_sum" stack_frame_id=12}
}

%region_59.66 (reduce_max.101: f32[], reduce_max.102: f32[]) -> f32[] {
  %reduce_max.101 = f32[] parameter(0), metadata={op_name="reduce_max"}
  %reduce_max.102 = f32[] parameter(1), metadata={op_name="reduce_max"}
  ROOT %reduce_max.103 = f32[] maximum(%reduce_max.101, %reduce_max.102), metadata={op_name="jit(predict_step)/FlaxT5ForConditionalGenerationModule/encoder/block/14/layer/0/SelfAttention/reduce_max" stack_frame_id=15}
}

%region_60.67 (reduce_sum.304: f32[], reduce_sum.305: f32[]) -> f32[] {
  %reduce_sum.304 = f32[] parameter(0), metadata={op_name="reduce_sum"}
  %reduce_sum.305 = f32[] parameter(1), metadata={op_name="reduce_sum"}
  ROOT %reduce_sum.306 = f32[] add(%reduce_sum.304, %reduce_sum.305), metadata={op_name="jit(predict_step)/FlaxT5ForConditionalGenerationModule/encoder/block/14/layer/0/SelfAttention/reduce_sum" stack_frame_id=15}
}

%region_61.68 (reduce_sum.311: f32[], reduce_sum.312: f32[]) -> f32[] {
  %reduce_sum.311 = f32[] parameter(0), metadata={op_name="reduce_sum"}
  %reduce_sum.312 = f32[] parameter(1), metadata={op_name="reduce_sum"}
  ROOT %reduce_sum.313 = f32[] add(%reduce_sum.311, %reduce_sum.312), metadata={op_name="jit(predict_step)/FlaxT5ForConditionalGenerationModule/encoder/block/14/layer/1/layer_norm/reduce_sum" stack_frame_id=18}
}

%region_62.69 (reduce_sum.318: f32[], reduce_sum.319: f32[]) -> f32[] {
  %reduce_sum.318 = f32[] parameter(0), metadata={op_name="reduce_sum"}
  %reduce_sum.319 = f32[] parameter(1), metadata={op_name="reduce_sum"}
  ROOT %reduce_sum.320 = f32[] add(%reduce_sum.318, %reduce_sum.319), metadata={op_name="jit(predict_step)/FlaxT5ForConditionalGenerationModule/encoder/block/15/layer/0/layer_norm/reduce_sum" stack_frame_id=12}
}

%region_63.70 (reduce_max.108: f32[], reduce_max.109: f32[]) -> f32[] {
  %reduce_max.108 = f32[] parameter(0), metadata={op_name="reduce_max"}
  %reduce_max.109 = f32[] parameter(1), metadata={op_name="reduce_max"}
  ROOT %reduce_max.110 = f32[] maximum(%reduce_max.108, %reduce_max.109), metadata={op_name="jit(predict_step)/FlaxT5ForConditionalGenerationModule/encoder/block/15/layer/0/SelfAttention/reduce_max" stack_frame_id=15}
}

%region_64.71 (reduce_sum.325: f32[], reduce_sum.326: f32[]) -> f32[] {
  %reduce_sum.325 = f32[] parameter(0), metadata={op_name="reduce_sum"}
  %reduce_sum.326 = f32[] parameter(1), metadata={op_name="reduce_sum"}
  ROOT %reduce_sum.327 = f32[] add(%reduce_sum.325, %reduce_sum.326), metadata={op_name="jit(predict_step)/FlaxT5ForConditionalGenerationModule/encoder/block/15/layer/0/SelfAttention/reduce_sum" stack_frame_id=15}
}

%region_65.72 (reduce_sum.332: f32[], reduce_sum.333: f32[]) -> f32[] {
  %reduce_sum.332 = f32[] parameter(0), metadata={op_name="reduce_sum"}
  %reduce_sum.333 = f32[] parameter(1), metadata={op_name="reduce_sum"}
  ROOT %reduce_sum.334 = f32[] add(%reduce_sum.332, %reduce_sum.333), metadata={op_name="jit(predict_step)/FlaxT5ForConditionalGenerationModule/encoder/block/15/layer/1/layer_norm/reduce_sum" stack_frame_id=18}
}

%region_66.73 (reduce_sum.339: f32[], reduce_sum.340: f32[]) -> f32[] {
  %reduce_sum.339 = f32[] parameter(0), metadata={op_name="reduce_sum"}
  %reduce_sum.340 = f32[] parameter(1), metadata={op_name="reduce_sum"}
  ROOT %reduce_sum.341 = f32[] add(%reduce_sum.339, %reduce_sum.340), metadata={op_name="jit(predict_step)/FlaxT5ForConditionalGenerationModule/encoder/block/16/layer/0/layer_norm/reduce_sum" stack_frame_id=12}
}

%region_67.74 (reduce_max.115: f32[], reduce_max.116: f32[]) -> f32[] {
  %reduce_max.115 = f32[] parameter(0), metadata={op_name="reduce_max"}
  %reduce_max.116 = f32[] parameter(1), metadata={op_name="reduce_max"}
  ROOT %reduce_max.117 = f32[] maximum(%reduce_max.115, %reduce_max.116), metadata={op_name="jit(predict_step)/FlaxT5ForConditionalGenerationModule/encoder/block/16/layer/0/SelfAttention/reduce_max" stack_frame_id=15}
}

%region_68.75 (reduce_sum.346: f32[], reduce_sum.347: f32[]) -> f32[] {
  %reduce_sum.346 = f32[] parameter(0), metadata={op_name="reduce_sum"}
  %reduce_sum.347 = f32[] parameter(1), metadata={op_name="reduce_sum"}
  ROOT %reduce_sum.348 = f32[] add(%reduce_sum.346, %reduce_sum.347), metadata={op_name="jit(predict_step)/FlaxT5ForConditionalGenerationModule/encoder/block/16/layer/0/SelfAttention/reduce_sum" stack_frame_id=15}
}

%region_69.76 (reduce_sum.353: f32[], reduce_sum.354: f32[]) -> f32[] {
  %reduce_sum.353 = f32[] parameter(0), metadata={op_name="reduce_sum"}
  %reduce_sum.354 = f32[] parameter(1), metadata={op_name="reduce_sum"}
  ROOT %reduce_sum.355 = f32[] add(%reduce_sum.353, %reduce_sum.354), metadata={op_name="jit(predict_step)/FlaxT5ForConditionalGenerationModule/encoder/block/16/layer/1/layer_norm/reduce_sum" stack_frame_id=18}
}

%region_70.77 (reduce_sum.360: f32[], reduce_sum.361: f32[]) -> f32[] {
  %reduce_sum.360 = f32[] parameter(0), metadata={op_name="reduce_sum"}
  %reduce_sum.361 = f32[] parameter(1), metadata={op_name="reduce_sum"}
  ROOT %reduce_sum.362 = f32[] add(%reduce_sum.360, %reduce_sum.361), metadata={op_name="jit(predict_step)/FlaxT5ForConditionalGenerationModule/encoder/block/17/layer/0/layer_norm/reduce_sum" stack_frame_id=12}
}

%region_71.78 (reduce_max.122: f32[], reduce_max.123: f32[]) -> f32[] {
  %reduce_max.122 = f32[] parameter(0), metadata={op_name="reduce_max"}
  %reduce_max.123 = f32[] parameter(1), metadata={op_name="reduce_max"}
  ROOT %reduce_max.124 = f32[] maximum(%reduce_max.122, %reduce_max.123), metadata={op_name="jit(predict_step)/FlaxT5ForConditionalGenerationModule/encoder/block/17/layer/0/SelfAttention/reduce_max" stack_frame_id=15}
}

%region_72.79 (reduce_sum.367: f32[], reduce_sum.368: f32[]) -> f32[] {
  %reduce_sum.367 = f32[] parameter(0), metadata={op_name="reduce_sum"}
  %reduce_sum.368 = f32[] parameter(1), metadata={op_name="reduce_sum"}
  ROOT %reduce_sum.369 = f32[] add(%reduce_sum.367, %reduce_sum.368), metadata={op_name="jit(predict_step)/FlaxT5ForConditionalGenerationModule/encoder/block/17/layer/0/SelfAttention/reduce_sum" stack_frame_id=15}
}

%region_73.80 (reduce_sum.374: f32[], reduce_sum.375: f32[]) -> f32[] {
  %reduce_sum.374 = f32[] parameter(0), metadata={op_name="reduce_sum"}
  %reduce_sum.375 = f32[] parameter(1), metadata={op_name="reduce_sum"}
  ROOT %reduce_sum.376 = f32[] add(%reduce_sum.374, %reduce_sum.375), metadata={op_name="jit(predict_step)/FlaxT5ForConditionalGenerationModule/encoder/block/17/layer/1/layer_norm/reduce_sum" stack_frame_id=18}
}

%region_74.81 (reduce_sum.381: f32[], reduce_sum.382: f32[]) -> f32[] {
  %reduce_sum.381 = f32[] parameter(0), metadata={op_name="reduce_sum"}
  %reduce_sum.382 = f32[] parameter(1), metadata={op_name="reduce_sum"}
  ROOT %reduce_sum.383 = f32[] add(%reduce_sum.381, %reduce_sum.382), metadata={op_name="jit(predict_step)/FlaxT5ForConditionalGenerationModule/encoder/block/18/layer/0/layer_norm/reduce_sum" stack_frame_id=12}
}

%region_75.82 (reduce_max.129: f32[], reduce_max.130: f32[]) -> f32[] {
  %reduce_max.129 = f32[] parameter(0), metadata={op_name="reduce_max"}
  %reduce_max.130 = f32[] parameter(1), metadata={op_name="reduce_max"}
  ROOT %reduce_max.131 = f32[] maximum(%reduce_max.129, %reduce_max.130), metadata={op_name="jit(predict_step)/FlaxT5ForConditionalGenerationModule/encoder/block/18/layer/0/SelfAttention/reduce_max" stack_frame_id=15}
}

%region_76.83 (reduce_sum.388: f32[], reduce_sum.389: f32[]) -> f32[] {
  %reduce_sum.388 = f32[] parameter(0), metadata={op_name="reduce_sum"}
  %reduce_sum.389 = f32[] parameter(1), metadata={op_name="reduce_sum"}
  ROOT %reduce_sum.390 = f32[] add(%reduce_sum.388, %reduce_sum.389), metadata={op_name="jit(predict_step)/FlaxT5ForConditionalGenerationModule/encoder/block/18/layer/0/SelfAttention/reduce_sum" stack_frame_id=15}
}

%region_77.84 (reduce_sum.395: f32[], reduce_sum.396: f32[]) -> f32[] {
  %reduce_sum.395 = f32[] parameter(0), metadata={op_name="reduce_sum"}
  %reduce_sum.396 = f32[] parameter(1), metadata={op_name="reduce_sum"}
  ROOT %reduce_sum.397 = f32[] add(%reduce_sum.395, %reduce_sum.396), metadata={op_name="jit(predict_step)/FlaxT5ForConditionalGenerationModule/encoder/block/18/layer/1/layer_norm/reduce_sum" stack_frame_id=18}
}

%region_78.85 (reduce_sum.402: f32[], reduce_sum.403: f32[]) -> f32[] {
  %reduce_sum.402 = f32[] parameter(0), metadata={op_name="reduce_sum"}
  %reduce_sum.403 = f32[] parameter(1), metadata={op_name="reduce_sum"}
  ROOT %reduce_sum.404 = f32[] add(%reduce_sum.402, %reduce_sum.403), metadata={op_name="jit(predict_step)/FlaxT5ForConditionalGenerationModule/encoder/block/19/layer/0/layer_norm/reduce_sum" stack_frame_id=12}
}

%region_79.86 (reduce_max.136: f32[], reduce_max.137: f32[]) -> f32[] {
  %reduce_max.136 = f32[] parameter(0), metadata={op_name="reduce_max"}
  %reduce_max.137 = f32[] parameter(1), metadata={op_name="reduce_max"}
  ROOT %reduce_max.138 = f32[] maximum(%reduce_max.136, %reduce_max.137), metadata={op_name="jit(predict_step)/FlaxT5ForConditionalGenerationModule/encoder/block/19/layer/0/SelfAttention/reduce_max" stack_frame_id=15}
}

%region_80.87 (reduce_sum.409: f32[], reduce_sum.410: f32[]) -> f32[] {
  %reduce_sum.409 = f32[] parameter(0), metadata={op_name="reduce_sum"}
  %reduce_sum.410 = f32[] parameter(1), metadata={op_name="reduce_sum"}
  ROOT %reduce_sum.411 = f32[] add(%reduce_sum.409, %reduce_sum.410), metadata={op_name="jit(predict_step)/FlaxT5ForConditionalGenerationModule/encoder/block/19/layer/0/SelfAttention/reduce_sum" stack_frame_id=15}
}

%region_81.88 (reduce_sum.416: f32[], reduce_sum.417: f32[]) -> f32[] {
  %reduce_sum.416 = f32[] parameter(0), metadata={op_name="reduce_sum"}
  %reduce_sum.417 = f32[] parameter(1), metadata={op_name="reduce_sum"}
  ROOT %reduce_sum.418 = f32[] add(%reduce_sum.416, %reduce_sum.417), metadata={op_name="jit(predict_step)/FlaxT5ForConditionalGenerationModule/encoder/block/19/layer/1/layer_norm/reduce_sum" stack_frame_id=18}
}

%region_82.89 (reduce_sum.423: f32[], reduce_sum.424: f32[]) -> f32[] {
  %reduce_sum.423 = f32[] parameter(0), metadata={op_name="reduce_sum"}
  %reduce_sum.424 = f32[] parameter(1), metadata={op_name="reduce_sum"}
  ROOT %reduce_sum.425 = f32[] add(%reduce_sum.423, %reduce_sum.424), metadata={op_name="jit(predict_step)/FlaxT5ForConditionalGenerationModule/encoder/block/20/layer/0/layer_norm/reduce_sum" stack_frame_id=12}
}

%region_83.90 (reduce_max.143: f32[], reduce_max.144: f32[]) -> f32[] {
  %reduce_max.143 = f32[] parameter(0), metadata={op_name="reduce_max"}
  %reduce_max.144 = f32[] parameter(1), metadata={op_name="reduce_max"}
  ROOT %reduce_max.145 = f32[] maximum(%reduce_max.143, %reduce_max.144), metadata={op_name="jit(predict_step)/FlaxT5ForConditionalGenerationModule/encoder/block/20/layer/0/SelfAttention/reduce_max" stack_frame_id=15}
}

%region_84.91 (reduce_sum.430: f32[], reduce_sum.431: f32[]) -> f32[] {
  %reduce_sum.430 = f32[] parameter(0), metadata={op_name="reduce_sum"}
  %reduce_sum.431 = f32[] parameter(1), metadata={op_name="reduce_sum"}
  ROOT %reduce_sum.432 = f32[] add(%reduce_sum.430, %reduce_sum.431), metadata={op_name="jit(predict_step)/FlaxT5ForConditionalGenerationModule/encoder/block/20/layer/0/SelfAttention/reduce_sum" stack_frame_id=15}
}

%region_85.92 (reduce_sum.437: f32[], reduce_sum.438: f32[]) -> f32[] {
  %reduce_sum.437 = f32[] parameter(0), metadata={op_name="reduce_sum"}
  %reduce_sum.438 = f32[] parameter(1), metadata={op_name="reduce_sum"}
  ROOT %reduce_sum.439 = f32[] add(%reduce_sum.437, %reduce_sum.438), metadata={op_name="jit(predict_step)/FlaxT5ForConditionalGenerationModule/encoder/block/20/layer/1/layer_norm/reduce_sum" stack_frame_id=18}
}

%region_86.93 (reduce_sum.444: f32[], reduce_sum.445: f32[]) -> f32[] {
  %reduce_sum.444 = f32[] parameter(0), metadata={op_name="reduce_sum"}
  %reduce_sum.445 = f32[] parameter(1), metadata={op_name="reduce_sum"}
  ROOT %reduce_sum.446 = f32[] add(%reduce_sum.444, %reduce_sum.445), metadata={op_name="jit(predict_step)/FlaxT5ForConditionalGenerationModule/encoder/block/21/layer/0/layer_norm/reduce_sum" stack_frame_id=12}
}

%region_87.94 (reduce_max.150: f32[], reduce_max.151: f32[]) -> f32[] {
  %reduce_max.150 = f32[] parameter(0), metadata={op_name="reduce_max"}
  %reduce_max.151 = f32[] parameter(1), metadata={op_name="reduce_max"}
  ROOT %reduce_max.152 = f32[] maximum(%reduce_max.150, %reduce_max.151), metadata={op_name="jit(predict_step)/FlaxT5ForConditionalGenerationModule/encoder/block/21/layer/0/SelfAttention/reduce_max" stack_frame_id=15}
}

%region_88.95 (reduce_sum.451: f32[], reduce_sum.452: f32[]) -> f32[] {
  %reduce_sum.451 = f32[] parameter(0), metadata={op_name="reduce_sum"}
  %reduce_sum.452 = f32[] parameter(1), metadata={op_name="reduce_sum"}
  ROOT %reduce_sum.453 = f32[] add(%reduce_sum.451, %reduce_sum.452), metadata={op_name="jit(predict_step)/FlaxT5ForConditionalGenerationModule/encoder/block/21/layer/0/SelfAttention/reduce_sum" stack_frame_id=15}
}

%region_89.96 (reduce_sum.458: f32[], reduce_sum.459: f32[]) -> f32[] {
  %reduce_sum.458 = f32[] parameter(0), metadata={op_name="reduce_sum"}
  %reduce_sum.459 = f32[] parameter(1), metadata={op_name="reduce_sum"}
  ROOT %reduce_sum.460 = f32[] add(%reduce_sum.458, %reduce_sum.459), metadata={op_name="jit(predict_step)/FlaxT5ForConditionalGenerationModule/encoder/block/21/layer/1/layer_norm/reduce_sum" stack_frame_id=18}
}

%region_90.97 (reduce_sum.465: f32[], reduce_sum.466: f32[]) -> f32[] {
  %reduce_sum.465 = f32[] parameter(0), metadata={op_name="reduce_sum"}
  %reduce_sum.466 = f32[] parameter(1), metadata={op_name="reduce_sum"}
  ROOT %reduce_sum.467 = f32[] add(%reduce_sum.465, %reduce_sum.466), metadata={op_name="jit(predict_step)/FlaxT5ForConditionalGenerationModule/encoder/block/22/layer/0/layer_norm/reduce_sum" stack_frame_id=12}
}

%region_91.98 (reduce_max.157: f32[], reduce_max.158: f32[]) -> f32[] {
  %reduce_max.157 = f32[] parameter(0), metadata={op_name="reduce_max"}
  %reduce_max.158 = f32[] parameter(1), metadata={op_name="reduce_max"}
  ROOT %reduce_max.159 = f32[] maximum(%reduce_max.157, %reduce_max.158), metadata={op_name="jit(predict_step)/FlaxT5ForConditionalGenerationModule/encoder/block/22/layer/0/SelfAttention/reduce_max" stack_frame_id=15}
}

%region_92.99 (reduce_sum.472: f32[], reduce_sum.473: f32[]) -> f32[] {
  %reduce_sum.472 = f32[] parameter(0), metadata={op_name="reduce_sum"}
  %reduce_sum.473 = f32[] parameter(1), metadata={op_name="reduce_sum"}
  ROOT %reduce_sum.474 = f32[] add(%reduce_sum.472, %reduce_sum.473), metadata={op_name="jit(predict_step)/FlaxT5ForConditionalGenerationModule/encoder/block/22/layer/0/SelfAttention/reduce_sum" stack_frame_id=15}
}

%region_93.100 (reduce_sum.479: f32[], reduce_sum.480: f32[]) -> f32[] {
  %reduce_sum.479 = f32[] parameter(0), metadata={op_name="reduce_sum"}
  %reduce_sum.480 = f32[] parameter(1), metadata={op_name="reduce_sum"}
  ROOT %reduce_sum.481 = f32[] add(%reduce_sum.479, %reduce_sum.480), metadata={op_name="jit(predict_step)/FlaxT5ForConditionalGenerationModule/encoder/block/22/layer/1/layer_norm/reduce_sum" stack_frame_id=18}
}

%region_94.101 (reduce_sum.486: f32[], reduce_sum.487: f32[]) -> f32[] {
  %reduce_sum.486 = f32[] parameter(0), metadata={op_name="reduce_sum"}
  %reduce_sum.487 = f32[] parameter(1), metadata={op_name="reduce_sum"}
  ROOT %reduce_sum.488 = f32[] add(%reduce_sum.486, %reduce_sum.487), metadata={op_name="jit(predict_step)/FlaxT5ForConditionalGenerationModule/encoder/block/23/layer/0/layer_norm/reduce_sum" stack_frame_id=12}
}

%region_95.102 (reduce_max.164: f32[], reduce_max.165: f32[]) -> f32[] {
  %reduce_max.164 = f32[] parameter(0), metadata={op_name="reduce_max"}
  %reduce_max.165 = f32[] parameter(1), metadata={op_name="reduce_max"}
  ROOT %reduce_max.166 = f32[] maximum(%reduce_max.164, %reduce_max.165), metadata={op_name="jit(predict_step)/FlaxT5ForConditionalGenerationModule/encoder/block/23/layer/0/SelfAttention/reduce_max" stack_frame_id=15}
}

%region_96.103 (reduce_sum.493: f32[], reduce_sum.494: f32[]) -> f32[] {
  %reduce_sum.493 = f32[] parameter(0), metadata={op_name="reduce_sum"}
  %reduce_sum.494 = f32[] parameter(1), metadata={op_name="reduce_sum"}
  ROOT %reduce_sum.495 = f32[] add(%reduce_sum.493, %reduce_sum.494), metadata={op_name="jit(predict_step)/FlaxT5ForConditionalGenerationModule/encoder/block/23/layer/0/SelfAttention/reduce_sum" stack_frame_id=15}
}

%region_97.104 (reduce_sum.500: f32[], reduce_sum.501: f32[]) -> f32[] {
  %reduce_sum.500 = f32[] parameter(0), metadata={op_name="reduce_sum"}
  %reduce_sum.501 = f32[] parameter(1), metadata={op_name="reduce_sum"}
  ROOT %reduce_sum.502 = f32[] add(%reduce_sum.500, %reduce_sum.501), metadata={op_name="jit(predict_step)/FlaxT5ForConditionalGenerationModule/encoder/block/23/layer/1/layer_norm/reduce_sum" stack_frame_id=18}
}

%region_98.105 (reduce_sum.507: f32[], reduce_sum.508: f32[]) -> f32[] {
  %reduce_sum.507 = f32[] parameter(0), metadata={op_name="reduce_sum"}
  %reduce_sum.508 = f32[] parameter(1), metadata={op_name="reduce_sum"}
  ROOT %reduce_sum.509 = f32[] add(%reduce_sum.507, %reduce_sum.508), metadata={op_name="jit(predict_step)/FlaxT5ForConditionalGenerationModule/encoder/final_layer_norm/reduce_sum" stack_frame_id=20}
}

%region_102.110 (reduce_sum.528: f32[], reduce_sum.529: f32[]) -> f32[] {
  %reduce_sum.528 = f32[] parameter(0), metadata={op_name="reduce_sum"}
  %reduce_sum.529 = f32[] parameter(1), metadata={op_name="reduce_sum"}
  ROOT %reduce_sum.530 = f32[] add(%reduce_sum.528, %reduce_sum.529), metadata={op_name="jit(predict_step)/FlaxT5ForConditionalGenerationModule/decoder/block/0/layer/1/layer_norm/reduce_sum" stack_frame_id=33}
}

%region_103.111 (reduce_max.178: f32[], reduce_max.179: f32[]) -> f32[] {
  %reduce_max.178 = f32[] parameter(0), metadata={op_name="reduce_max"}
  %reduce_max.179 = f32[] parameter(1), metadata={op_name="reduce_max"}
  ROOT %reduce_max.180 = f32[] maximum(%reduce_max.178, %reduce_max.179), metadata={op_name="jit(predict_step)/FlaxT5ForConditionalGenerationModule/decoder/block/0/layer/1/EncDecAttention/reduce_max" stack_frame_id=36}
}

%region_104.112 (reduce_sum.535: f32[], reduce_sum.536: f32[]) -> f32[] {
  %reduce_sum.535 = f32[] parameter(0), metadata={op_name="reduce_sum"}
  %reduce_sum.536 = f32[] parameter(1), metadata={op_name="reduce_sum"}
  ROOT %reduce_sum.537 = f32[] add(%reduce_sum.535, %reduce_sum.536), metadata={op_name="jit(predict_step)/FlaxT5ForConditionalGenerationModule/decoder/block/0/layer/1/EncDecAttention/reduce_sum" stack_frame_id=36}
}

%region_105.113 (reduce_sum.542: f32[], reduce_sum.543: f32[]) -> f32[] {
  %reduce_sum.542 = f32[] parameter(0), metadata={op_name="reduce_sum"}
  %reduce_sum.543 = f32[] parameter(1), metadata={op_name="reduce_sum"}
  ROOT %reduce_sum.544 = f32[] add(%reduce_sum.542, %reduce_sum.543), metadata={op_name="jit(predict_step)/FlaxT5ForConditionalGenerationModule/decoder/block/0/layer/2/layer_norm/reduce_sum" stack_frame_id=39}
}

%region_106.114 (reduce_sum.549: f32[], reduce_sum.550: f32[]) -> f32[] {
  %reduce_sum.549 = f32[] parameter(0), metadata={op_name="reduce_sum"}
  %reduce_sum.550 = f32[] parameter(1), metadata={op_name="reduce_sum"}
  ROOT %reduce_sum.551 = f32[] add(%reduce_sum.549, %reduce_sum.550), metadata={op_name="jit(predict_step)/FlaxT5ForConditionalGenerationModule/decoder/block/1/layer/0/layer_norm/reduce_sum" stack_frame_id=27}
}

%region_107.115 (reduce_max.185: f32[], reduce_max.186: f32[]) -> f32[] {
  %reduce_max.185 = f32[] parameter(0), metadata={op_name="reduce_max"}
  %reduce_max.186 = f32[] parameter(1), metadata={op_name="reduce_max"}
  ROOT %reduce_max.187 = f32[] maximum(%reduce_max.185, %reduce_max.186), metadata={op_name="jit(predict_step)/FlaxT5ForConditionalGenerationModule/decoder/block/1/layer/0/SelfAttention/reduce_max" stack_frame_id=30}
}

%region_108.116 (reduce_sum.556: f32[], reduce_sum.557: f32[]) -> f32[] {
  %reduce_sum.556 = f32[] parameter(0), metadata={op_name="reduce_sum"}
  %reduce_sum.557 = f32[] parameter(1), metadata={op_name="reduce_sum"}
  ROOT %reduce_sum.558 = f32[] add(%reduce_sum.556, %reduce_sum.557), metadata={op_name="jit(predict_step)/FlaxT5ForConditionalGenerationModule/decoder/block/1/layer/0/SelfAttention/reduce_sum" stack_frame_id=30}
}

%region_109.117 (reduce_sum.563: f32[], reduce_sum.564: f32[]) -> f32[] {
  %reduce_sum.563 = f32[] parameter(0), metadata={op_name="reduce_sum"}
  %reduce_sum.564 = f32[] parameter(1), metadata={op_name="reduce_sum"}
  ROOT %reduce_sum.565 = f32[] add(%reduce_sum.563, %reduce_sum.564), metadata={op_name="jit(predict_step)/FlaxT5ForConditionalGenerationModule/decoder/block/1/layer/1/layer_norm/reduce_sum" stack_frame_id=33}
}

%region_110.118 (reduce_max.192: f32[], reduce_max.193: f32[]) -> f32[] {
  %reduce_max.192 = f32[] parameter(0), metadata={op_name="reduce_max"}
  %reduce_max.193 = f32[] parameter(1), metadata={op_name="reduce_max"}
  ROOT %reduce_max.194 = f32[] maximum(%reduce_max.192, %reduce_max.193), metadata={op_name="jit(predict_step)/FlaxT5ForConditionalGenerationModule/decoder/block/1/layer/1/EncDecAttention/reduce_max" stack_frame_id=36}
}

%region_111.119 (reduce_sum.570: f32[], reduce_sum.571: f32[]) -> f32[] {
  %reduce_sum.570 = f32[] parameter(0), metadata={op_name="reduce_sum"}
  %reduce_sum.571 = f32[] parameter(1), metadata={op_name="reduce_sum"}
  ROOT %reduce_sum.572 = f32[] add(%reduce_sum.570, %reduce_sum.571), metadata={op_name="jit(predict_step)/FlaxT5ForConditionalGenerationModule/decoder/block/1/layer/1/EncDecAttention/reduce_sum" stack_frame_id=36}
}

%region_112.120 (reduce_sum.577: f32[], reduce_sum.578: f32[]) -> f32[] {
  %reduce_sum.577 = f32[] parameter(0), metadata={op_name="reduce_sum"}
  %reduce_sum.578 = f32[] parameter(1), metadata={op_name="reduce_sum"}
  ROOT %reduce_sum.579 = f32[] add(%reduce_sum.577, %reduce_sum.578), metadata={op_name="jit(predict_step)/FlaxT5ForConditionalGenerationModule/decoder/block/1/layer/2/layer_norm/reduce_sum" stack_frame_id=39}
}

%region_113.121 (reduce_sum.584: f32[], reduce_sum.585: f32[]) -> f32[] {
  %reduce_sum.584 = f32[] parameter(0), metadata={op_name="reduce_sum"}
  %reduce_sum.585 = f32[] parameter(1), metadata={op_name="reduce_sum"}
  ROOT %reduce_sum.586 = f32[] add(%reduce_sum.584, %reduce_sum.585), metadata={op_name="jit(predict_step)/FlaxT5ForConditionalGenerationModule/decoder/block/2/layer/0/layer_norm/reduce_sum" stack_frame_id=27}
}

%region_114.122 (reduce_max.199: f32[], reduce_max.200: f32[]) -> f32[] {
  %reduce_max.199 = f32[] parameter(0), metadata={op_name="reduce_max"}
  %reduce_max.200 = f32[] parameter(1), metadata={op_name="reduce_max"}
  ROOT %reduce_max.201 = f32[] maximum(%reduce_max.199, %reduce_max.200), metadata={op_name="jit(predict_step)/FlaxT5ForConditionalGenerationModule/decoder/block/2/layer/0/SelfAttention/reduce_max" stack_frame_id=30}
}

%region_115.123 (reduce_sum.591: f32[], reduce_sum.592: f32[]) -> f32[] {
  %reduce_sum.591 = f32[] parameter(0), metadata={op_name="reduce_sum"}
  %reduce_sum.592 = f32[] parameter(1), metadata={op_name="reduce_sum"}
  ROOT %reduce_sum.593 = f32[] add(%reduce_sum.591, %reduce_sum.592), metadata={op_name="jit(predict_step)/FlaxT5ForConditionalGenerationModule/decoder/block/2/layer/0/SelfAttention/reduce_sum" stack_frame_id=30}
}

%region_116.124 (reduce_sum.598: f32[], reduce_sum.599: f32[]) -> f32[] {
  %reduce_sum.598 = f32[] parameter(0), metadata={op_name="reduce_sum"}
  %reduce_sum.599 = f32[] parameter(1), metadata={op_name="reduce_sum"}
  ROOT %reduce_sum.600 = f32[] add(%reduce_sum.598, %reduce_sum.599), metadata={op_name="jit(predict_step)/FlaxT5ForConditionalGenerationModule/decoder/block/2/layer/1/layer_norm/reduce_sum" stack_frame_id=33}
}

%region_117.125 (reduce_max.206: f32[], reduce_max.207: f32[]) -> f32[] {
  %reduce_max.206 = f32[] parameter(0), metadata={op_name="reduce_max"}
  %reduce_max.207 = f32[] parameter(1), metadata={op_name="reduce_max"}
  ROOT %reduce_max.208 = f32[] maximum(%reduce_max.206, %reduce_max.207), metadata={op_name="jit(predict_step)/FlaxT5ForConditionalGenerationModule/decoder/block/2/layer/1/EncDecAttention/reduce_max" stack_frame_id=36}
}

%region_118.126 (reduce_sum.605: f32[], reduce_sum.606: f32[]) -> f32[] {
  %reduce_sum.605 = f32[] parameter(0), metadata={op_name="reduce_sum"}
  %reduce_sum.606 = f32[] parameter(1), metadata={op_name="reduce_sum"}
  ROOT %reduce_sum.607 = f32[] add(%reduce_sum.605, %reduce_sum.606), metadata={op_name="jit(predict_step)/FlaxT5ForConditionalGenerationModule/decoder/block/2/layer/1/EncDecAttention/reduce_sum" stack_frame_id=36}
}

%region_119.127 (reduce_sum.612: f32[], reduce_sum.613: f32[]) -> f32[] {
  %reduce_sum.612 = f32[] parameter(0), metadata={op_name="reduce_sum"}
  %reduce_sum.613 = f32[] parameter(1), metadata={op_name="reduce_sum"}
  ROOT %reduce_sum.614 = f32[] add(%reduce_sum.612, %reduce_sum.613), metadata={op_name="jit(predict_step)/FlaxT5ForConditionalGenerationModule/decoder/block/2/layer/2/layer_norm/reduce_sum" stack_frame_id=39}
}

%region_120.128 (reduce_sum.619: f32[], reduce_sum.620: f32[]) -> f32[] {
  %reduce_sum.619 = f32[] parameter(0), metadata={op_name="reduce_sum"}
  %reduce_sum.620 = f32[] parameter(1), metadata={op_name="reduce_sum"}
  ROOT %reduce_sum.621 = f32[] add(%reduce_sum.619, %reduce_sum.620), metadata={op_name="jit(predict_step)/FlaxT5ForConditionalGenerationModule/decoder/block/3/layer/0/layer_norm/reduce_sum" stack_frame_id=27}
}

%region_121.129 (reduce_max.213: f32[], reduce_max.214: f32[]) -> f32[] {
  %reduce_max.213 = f32[] parameter(0), metadata={op_name="reduce_max"}
  %reduce_max.214 = f32[] parameter(1), metadata={op_name="reduce_max"}
  ROOT %reduce_max.215 = f32[] maximum(%reduce_max.213, %reduce_max.214), metadata={op_name="jit(predict_step)/FlaxT5ForConditionalGenerationModule/decoder/block/3/layer/0/SelfAttention/reduce_max" stack_frame_id=30}
}

%region_122.130 (reduce_sum.626: f32[], reduce_sum.627: f32[]) -> f32[] {
  %reduce_sum.626 = f32[] parameter(0), metadata={op_name="reduce_sum"}
  %reduce_sum.627 = f32[] parameter(1), metadata={op_name="reduce_sum"}
  ROOT %reduce_sum.628 = f32[] add(%reduce_sum.626, %reduce_sum.627), metadata={op_name="jit(predict_step)/FlaxT5ForConditionalGenerationModule/decoder/block/3/layer/0/SelfAttention/reduce_sum" stack_frame_id=30}
}

%region_123.131 (reduce_sum.633: f32[], reduce_sum.634: f32[]) -> f32[] {
  %reduce_sum.633 = f32[] parameter(0), metadata={op_name="reduce_sum"}
  %reduce_sum.634 = f32[] parameter(1), metadata={op_name="reduce_sum"}
  ROOT %reduce_sum.635 = f32[] add(%reduce_sum.633, %reduce_sum.634), metadata={op_name="jit(predict_step)/FlaxT5ForConditionalGenerationModule/decoder/block/3/layer/1/layer_norm/reduce_sum" stack_frame_id=33}
}

%region_124.132 (reduce_max.220: f32[], reduce_max.221: f32[]) -> f32[] {
  %reduce_max.220 = f32[] parameter(0), metadata={op_name="reduce_max"}
  %reduce_max.221 = f32[] parameter(1), metadata={op_name="reduce_max"}
  ROOT %reduce_max.222 = f32[] maximum(%reduce_max.220, %reduce_max.221), metadata={op_name="jit(predict_step)/FlaxT5ForConditionalGenerationModule/decoder/block/3/layer/1/EncDecAttention/reduce_max" stack_frame_id=36}
}

%region_125.133 (reduce_sum.640: f32[], reduce_sum.641: f32[]) -> f32[] {
  %reduce_sum.640 = f32[] parameter(0), metadata={op_name="reduce_sum"}
  %reduce_sum.641 = f32[] parameter(1), metadata={op_name="reduce_sum"}
  ROOT %reduce_sum.642 = f32[] add(%reduce_sum.640, %reduce_sum.641), metadata={op_name="jit(predict_step)/FlaxT5ForConditionalGenerationModule/decoder/block/3/layer/1/EncDecAttention/reduce_sum" stack_frame_id=36}
}

%region_126.134 (reduce_sum.647: f32[], reduce_sum.648: f32[]) -> f32[] {
  %reduce_sum.647 = f32[] parameter(0), metadata={op_name="reduce_sum"}
  %reduce_sum.648 = f32[] parameter(1), metadata={op_name="reduce_sum"}
  ROOT %reduce_sum.649 = f32[] add(%reduce_sum.647, %reduce_sum.648), metadata={op_name="jit(predict_step)/FlaxT5ForConditionalGenerationModule/decoder/block/3/layer/2/layer_norm/reduce_sum" stack_frame_id=39}
}

%region_127.135 (reduce_sum.654: f32[], reduce_sum.655: f32[]) -> f32[] {
  %reduce_sum.654 = f32[] parameter(0), metadata={op_name="reduce_sum"}
  %reduce_sum.655 = f32[] parameter(1), metadata={op_name="reduce_sum"}
  ROOT %reduce_sum.656 = f32[] add(%reduce_sum.654, %reduce_sum.655), metadata={op_name="jit(predict_step)/FlaxT5ForConditionalGenerationModule/decoder/block/4/layer/0/layer_norm/reduce_sum" stack_frame_id=27}
}

%region_128.136 (reduce_max.227: f32[], reduce_max.228: f32[]) -> f32[] {
  %reduce_max.227 = f32[] parameter(0), metadata={op_name="reduce_max"}
  %reduce_max.228 = f32[] parameter(1), metadata={op_name="reduce_max"}
  ROOT %reduce_max.229 = f32[] maximum(%reduce_max.227, %reduce_max.228), metadata={op_name="jit(predict_step)/FlaxT5ForConditionalGenerationModule/decoder/block/4/layer/0/SelfAttention/reduce_max" stack_frame_id=30}
}

%region_129.137 (reduce_sum.661: f32[], reduce_sum.662: f32[]) -> f32[] {
  %reduce_sum.661 = f32[] parameter(0), metadata={op_name="reduce_sum"}
  %reduce_sum.662 = f32[] parameter(1), metadata={op_name="reduce_sum"}
  ROOT %reduce_sum.663 = f32[] add(%reduce_sum.661, %reduce_sum.662), metadata={op_name="jit(predict_step)/FlaxT5ForConditionalGenerationModule/decoder/block/4/layer/0/SelfAttention/reduce_sum" stack_frame_id=30}
}

%region_130.138 (reduce_sum.668: f32[], reduce_sum.669: f32[]) -> f32[] {
  %reduce_sum.668 = f32[] parameter(0), metadata={op_name="reduce_sum"}
  %reduce_sum.669 = f32[] parameter(1), metadata={op_name="reduce_sum"}
  ROOT %reduce_sum.670 = f32[] add(%reduce_sum.668, %reduce_sum.669), metadata={op_name="jit(predict_step)/FlaxT5ForConditionalGenerationModule/decoder/block/4/layer/1/layer_norm/reduce_sum" stack_frame_id=33}
}

%region_131.139 (reduce_max.234: f32[], reduce_max.235: f32[]) -> f32[] {
  %reduce_max.234 = f32[] parameter(0), metadata={op_name="reduce_max"}
  %reduce_max.235 = f32[] parameter(1), metadata={op_name="reduce_max"}
  ROOT %reduce_max.236 = f32[] maximum(%reduce_max.234, %reduce_max.235), metadata={op_name="jit(predict_step)/FlaxT5ForConditionalGenerationModule/decoder/block/4/layer/1/EncDecAttention/reduce_max" stack_frame_id=36}
}

%region_132.140 (reduce_sum.675: f32[], reduce_sum.676: f32[]) -> f32[] {
  %reduce_sum.675 = f32[] parameter(0), metadata={op_name="reduce_sum"}
  %reduce_sum.676 = f32[] parameter(1), metadata={op_name="reduce_sum"}
  ROOT %reduce_sum.677 = f32[] add(%reduce_sum.675, %reduce_sum.676), metadata={op_name="jit(predict_step)/FlaxT5ForConditionalGenerationModule/decoder/block/4/layer/1/EncDecAttention/reduce_sum" stack_frame_id=36}
}

%region_133.141 (reduce_sum.682: f32[], reduce_sum.683: f32[]) -> f32[] {
  %reduce_sum.682 = f32[] parameter(0), metadata={op_name="reduce_sum"}
  %reduce_sum.683 = f32[] parameter(1), metadata={op_name="reduce_sum"}
  ROOT %reduce_sum.684 = f32[] add(%reduce_sum.682, %reduce_sum.683), metadata={op_name="jit(predict_step)/FlaxT5ForConditionalGenerationModule/decoder/block/4/layer/2/layer_norm/reduce_sum" stack_frame_id=39}
}

%region_134.142 (reduce_sum.689: f32[], reduce_sum.690: f32[]) -> f32[] {
  %reduce_sum.689 = f32[] parameter(0), metadata={op_name="reduce_sum"}
  %reduce_sum.690 = f32[] parameter(1), metadata={op_name="reduce_sum"}
  ROOT %reduce_sum.691 = f32[] add(%reduce_sum.689, %reduce_sum.690), metadata={op_name="jit(predict_step)/FlaxT5ForConditionalGenerationModule/decoder/block/5/layer/0/layer_norm/reduce_sum" stack_frame_id=27}
}

%region_135.143 (reduce_max.241: f32[], reduce_max.242: f32[]) -> f32[] {
  %reduce_max.241 = f32[] parameter(0), metadata={op_name="reduce_max"}
  %reduce_max.242 = f32[] parameter(1), metadata={op_name="reduce_max"}
  ROOT %reduce_max.243 = f32[] maximum(%reduce_max.241, %reduce_max.242), metadata={op_name="jit(predict_step)/FlaxT5ForConditionalGenerationModule/decoder/block/5/layer/0/SelfAttention/reduce_max" stack_frame_id=30}
}

%region_136.144 (reduce_sum.696: f32[], reduce_sum.697: f32[]) -> f32[] {
  %reduce_sum.696 = f32[] parameter(0), metadata={op_name="reduce_sum"}
  %reduce_sum.697 = f32[] parameter(1), metadata={op_name="reduce_sum"}
  ROOT %reduce_sum.698 = f32[] add(%reduce_sum.696, %reduce_sum.697), metadata={op_name="jit(predict_step)/FlaxT5ForConditionalGenerationModule/decoder/block/5/layer/0/SelfAttention/reduce_sum" stack_frame_id=30}
}

%region_137.145 (reduce_sum.703: f32[], reduce_sum.704: f32[]) -> f32[] {
  %reduce_sum.703 = f32[] parameter(0), metadata={op_name="reduce_sum"}
  %reduce_sum.704 = f32[] parameter(1), metadata={op_name="reduce_sum"}
  ROOT %reduce_sum.705 = f32[] add(%reduce_sum.703, %reduce_sum.704), metadata={op_name="jit(predict_step)/FlaxT5ForConditionalGenerationModule/decoder/block/5/layer/1/layer_norm/reduce_sum" stack_frame_id=33}
}

%region_138.146 (reduce_max.248: f32[], reduce_max.249: f32[]) -> f32[] {
  %reduce_max.248 = f32[] parameter(0), metadata={op_name="reduce_max"}
  %reduce_max.249 = f32[] parameter(1), metadata={op_name="reduce_max"}
  ROOT %reduce_max.250 = f32[] maximum(%reduce_max.248, %reduce_max.249), metadata={op_name="jit(predict_step)/FlaxT5ForConditionalGenerationModule/decoder/block/5/layer/1/EncDecAttention/reduce_max" stack_frame_id=36}
}

%region_139.147 (reduce_sum.710: f32[], reduce_sum.711: f32[]) -> f32[] {
  %reduce_sum.710 = f32[] parameter(0), metadata={op_name="reduce_sum"}
  %reduce_sum.711 = f32[] parameter(1), metadata={op_name="reduce_sum"}
  ROOT %reduce_sum.712 = f32[] add(%reduce_sum.710, %reduce_sum.711), metadata={op_name="jit(predict_step)/FlaxT5ForConditionalGenerationModule/decoder/block/5/layer/1/EncDecAttention/reduce_sum" stack_frame_id=36}
}

%region_140.148 (reduce_sum.717: f32[], reduce_sum.718: f32[]) -> f32[] {
  %reduce_sum.717 = f32[] parameter(0), metadata={op_name="reduce_sum"}
  %reduce_sum.718 = f32[] parameter(1), metadata={op_name="reduce_sum"}
  ROOT %reduce_sum.719 = f32[] add(%reduce_sum.717, %reduce_sum.718), metadata={op_name="jit(predict_step)/FlaxT5ForConditionalGenerationModule/decoder/block/5/layer/2/layer_norm/reduce_sum" stack_frame_id=39}
}

%region_141.149 (reduce_sum.724: f32[], reduce_sum.725: f32[]) -> f32[] {
  %reduce_sum.724 = f32[] parameter(0), metadata={op_name="reduce_sum"}
  %reduce_sum.725 = f32[] parameter(1), metadata={op_name="reduce_sum"}
  ROOT %reduce_sum.726 = f32[] add(%reduce_sum.724, %reduce_sum.725), metadata={op_name="jit(predict_step)/FlaxT5ForConditionalGenerationModule/decoder/block/6/layer/0/layer_norm/reduce_sum" stack_frame_id=27}
}

%region_142.150 (reduce_max.255: f32[], reduce_max.256: f32[]) -> f32[] {
  %reduce_max.255 = f32[] parameter(0), metadata={op_name="reduce_max"}
  %reduce_max.256 = f32[] parameter(1), metadata={op_name="reduce_max"}
  ROOT %reduce_max.257 = f32[] maximum(%reduce_max.255, %reduce_max.256), metadata={op_name="jit(predict_step)/FlaxT5ForConditionalGenerationModule/decoder/block/6/layer/0/SelfAttention/reduce_max" stack_frame_id=30}
}

%region_143.151 (reduce_sum.731: f32[], reduce_sum.732: f32[]) -> f32[] {
  %reduce_sum.731 = f32[] parameter(0), metadata={op_name="reduce_sum"}
  %reduce_sum.732 = f32[] parameter(1), metadata={op_name="reduce_sum"}
  ROOT %reduce_sum.733 = f32[] add(%reduce_sum.731, %reduce_sum.732), metadata={op_name="jit(predict_step)/FlaxT5ForConditionalGenerationModule/decoder/block/6/layer/0/SelfAttention/reduce_sum" stack_frame_id=30}
}

%region_144.152 (reduce_sum.738: f32[], reduce_sum.739: f32[]) -> f32[] {
  %reduce_sum.738 = f32[] parameter(0), metadata={op_name="reduce_sum"}
  %reduce_sum.739 = f32[] parameter(1), metadata={op_name="reduce_sum"}
  ROOT %reduce_sum.740 = f32[] add(%reduce_sum.738, %reduce_sum.739), metadata={op_name="jit(predict_step)/FlaxT5ForConditionalGenerationModule/decoder/block/6/layer/1/layer_norm/reduce_sum" stack_frame_id=33}
}

%region_145.153 (reduce_max.262: f32[], reduce_max.263: f32[]) -> f32[] {
  %reduce_max.262 = f32[] parameter(0), metadata={op_name="reduce_max"}
  %reduce_max.263 = f32[] parameter(1), metadata={op_name="reduce_max"}
  ROOT %reduce_max.264 = f32[] maximum(%reduce_max.262, %reduce_max.263), metadata={op_name="jit(predict_step)/FlaxT5ForConditionalGenerationModule/decoder/block/6/layer/1/EncDecAttention/reduce_max" stack_frame_id=36}
}

%region_146.154 (reduce_sum.745: f32[], reduce_sum.746: f32[]) -> f32[] {
  %reduce_sum.745 = f32[] parameter(0), metadata={op_name="reduce_sum"}
  %reduce_sum.746 = f32[] parameter(1), metadata={op_name="reduce_sum"}
  ROOT %reduce_sum.747 = f32[] add(%reduce_sum.745, %reduce_sum.746), metadata={op_name="jit(predict_step)/FlaxT5ForConditionalGenerationModule/decoder/block/6/layer/1/EncDecAttention/reduce_sum" stack_frame_id=36}
}

%region_147.155 (reduce_sum.752: f32[], reduce_sum.753: f32[]) -> f32[] {
  %reduce_sum.752 = f32[] parameter(0), metadata={op_name="reduce_sum"}
  %reduce_sum.753 = f32[] parameter(1), metadata={op_name="reduce_sum"}
  ROOT %reduce_sum.754 = f32[] add(%reduce_sum.752, %reduce_sum.753), metadata={op_name="jit(predict_step)/FlaxT5ForConditionalGenerationModule/decoder/block/6/layer/2/layer_norm/reduce_sum" stack_frame_id=39}
}

%region_148.156 (reduce_sum.759: f32[], reduce_sum.760: f32[]) -> f32[] {
  %reduce_sum.759 = f32[] parameter(0), metadata={op_name="reduce_sum"}
  %reduce_sum.760 = f32[] parameter(1), metadata={op_name="reduce_sum"}
  ROOT %reduce_sum.761 = f32[] add(%reduce_sum.759, %reduce_sum.760), metadata={op_name="jit(predict_step)/FlaxT5ForConditionalGenerationModule/decoder/block/7/layer/0/layer_norm/reduce_sum" stack_frame_id=27}
}

%region_149.157 (reduce_max.269: f32[], reduce_max.270: f32[]) -> f32[] {
  %reduce_max.269 = f32[] parameter(0), metadata={op_name="reduce_max"}
  %reduce_max.270 = f32[] parameter(1), metadata={op_name="reduce_max"}
  ROOT %reduce_max.271 = f32[] maximum(%reduce_max.269, %reduce_max.270), metadata={op_name="jit(predict_step)/FlaxT5ForConditionalGenerationModule/decoder/block/7/layer/0/SelfAttention/reduce_max" stack_frame_id=30}
}

%region_150.158 (reduce_sum.766: f32[], reduce_sum.767: f32[]) -> f32[] {
  %reduce_sum.766 = f32[] parameter(0), metadata={op_name="reduce_sum"}
  %reduce_sum.767 = f32[] parameter(1), metadata={op_name="reduce_sum"}
  ROOT %reduce_sum.768 = f32[] add(%reduce_sum.766, %reduce_sum.767), metadata={op_name="jit(predict_step)/FlaxT5ForConditionalGenerationModule/decoder/block/7/layer/0/SelfAttention/reduce_sum" stack_frame_id=30}
}

%region_151.159 (reduce_sum.773: f32[], reduce_sum.774: f32[]) -> f32[] {
  %reduce_sum.773 = f32[] parameter(0), metadata={op_name="reduce_sum"}
  %reduce_sum.774 = f32[] parameter(1), metadata={op_name="reduce_sum"}
  ROOT %reduce_sum.775 = f32[] add(%reduce_sum.773, %reduce_sum.774), metadata={op_name="jit(predict_step)/FlaxT5ForConditionalGenerationModule/decoder/block/7/layer/1/layer_norm/reduce_sum" stack_frame_id=33}
}

%region_152.160 (reduce_max.276: f32[], reduce_max.277: f32[]) -> f32[] {
  %reduce_max.276 = f32[] parameter(0), metadata={op_name="reduce_max"}
  %reduce_max.277 = f32[] parameter(1), metadata={op_name="reduce_max"}
  ROOT %reduce_max.278 = f32[] maximum(%reduce_max.276, %reduce_max.277), metadata={op_name="jit(predict_step)/FlaxT5ForConditionalGenerationModule/decoder/block/7/layer/1/EncDecAttention/reduce_max" stack_frame_id=36}
}

%region_153.161 (reduce_sum.780: f32[], reduce_sum.781: f32[]) -> f32[] {
  %reduce_sum.780 = f32[] parameter(0), metadata={op_name="reduce_sum"}
  %reduce_sum.781 = f32[] parameter(1), metadata={op_name="reduce_sum"}
  ROOT %reduce_sum.782 = f32[] add(%reduce_sum.780, %reduce_sum.781), metadata={op_name="jit(predict_step)/FlaxT5ForConditionalGenerationModule/decoder/block/7/layer/1/EncDecAttention/reduce_sum" stack_frame_id=36}
}

%region_154.162 (reduce_sum.787: f32[], reduce_sum.788: f32[]) -> f32[] {
  %reduce_sum.787 = f32[] parameter(0), metadata={op_name="reduce_sum"}
  %reduce_sum.788 = f32[] parameter(1), metadata={op_name="reduce_sum"}
  ROOT %reduce_sum.789 = f32[] add(%reduce_sum.787, %reduce_sum.788), metadata={op_name="jit(predict_step)/FlaxT5ForConditionalGenerationModule/decoder/block/7/layer/2/layer_norm/reduce_sum" stack_frame_id=39}
}

%region_155.163 (reduce_sum.794: f32[], reduce_sum.795: f32[]) -> f32[] {
  %reduce_sum.794 = f32[] parameter(0), metadata={op_name="reduce_sum"}
  %reduce_sum.795 = f32[] parameter(1), metadata={op_name="reduce_sum"}
  ROOT %reduce_sum.796 = f32[] add(%reduce_sum.794, %reduce_sum.795), metadata={op_name="jit(predict_step)/FlaxT5ForConditionalGenerationModule/decoder/block/8/layer/0/layer_norm/reduce_sum" stack_frame_id=27}
}

%region_156.164 (reduce_max.283: f32[], reduce_max.284: f32[]) -> f32[] {
  %reduce_max.283 = f32[] parameter(0), metadata={op_name="reduce_max"}
  %reduce_max.284 = f32[] parameter(1), metadata={op_name="reduce_max"}
  ROOT %reduce_max.285 = f32[] maximum(%reduce_max.283, %reduce_max.284), metadata={op_name="jit(predict_step)/FlaxT5ForConditionalGenerationModule/decoder/block/8/layer/0/SelfAttention/reduce_max" stack_frame_id=30}
}

%region_157.165 (reduce_sum.801: f32[], reduce_sum.802: f32[]) -> f32[] {
  %reduce_sum.801 = f32[] parameter(0), metadata={op_name="reduce_sum"}
  %reduce_sum.802 = f32[] parameter(1), metadata={op_name="reduce_sum"}
  ROOT %reduce_sum.803 = f32[] add(%reduce_sum.801, %reduce_sum.802), metadata={op_name="jit(predict_step)/FlaxT5ForConditionalGenerationModule/decoder/block/8/layer/0/SelfAttention/reduce_sum" stack_frame_id=30}
}

%region_158.166 (reduce_sum.808: f32[], reduce_sum.809: f32[]) -> f32[] {
  %reduce_sum.808 = f32[] parameter(0), metadata={op_name="reduce_sum"}
  %reduce_sum.809 = f32[] parameter(1), metadata={op_name="reduce_sum"}
  ROOT %reduce_sum.810 = f32[] add(%reduce_sum.808, %reduce_sum.809), metadata={op_name="jit(predict_step)/FlaxT5ForConditionalGenerationModule/decoder/block/8/layer/1/layer_norm/reduce_sum" stack_frame_id=33}
}

%region_159.167 (reduce_max.290: f32[], reduce_max.291: f32[]) -> f32[] {
  %reduce_max.290 = f32[] parameter(0), metadata={op_name="reduce_max"}
  %reduce_max.291 = f32[] parameter(1), metadata={op_name="reduce_max"}
  ROOT %reduce_max.292 = f32[] maximum(%reduce_max.290, %reduce_max.291), metadata={op_name="jit(predict_step)/FlaxT5ForConditionalGenerationModule/decoder/block/8/layer/1/EncDecAttention/reduce_max" stack_frame_id=36}
}

%region_160.168 (reduce_sum.815: f32[], reduce_sum.816: f32[]) -> f32[] {
  %reduce_sum.815 = f32[] parameter(0), metadata={op_name="reduce_sum"}
  %reduce_sum.816 = f32[] parameter(1), metadata={op_name="reduce_sum"}
  ROOT %reduce_sum.817 = f32[] add(%reduce_sum.815, %reduce_sum.816), metadata={op_name="jit(predict_step)/FlaxT5ForConditionalGenerationModule/decoder/block/8/layer/1/EncDecAttention/reduce_sum" stack_frame_id=36}
}

%region_161.169 (reduce_sum.822: f32[], reduce_sum.823: f32[]) -> f32[] {
  %reduce_sum.822 = f32[] parameter(0), metadata={op_name="reduce_sum"}
  %reduce_sum.823 = f32[] parameter(1), metadata={op_name="reduce_sum"}
  ROOT %reduce_sum.824 = f32[] add(%reduce_sum.822, %reduce_sum.823), metadata={op_name="jit(predict_step)/FlaxT5ForConditionalGenerationModule/decoder/block/8/layer/2/layer_norm/reduce_sum" stack_frame_id=39}
}

%region_162.170 (reduce_sum.829: f32[], reduce_sum.830: f32[]) -> f32[] {
  %reduce_sum.829 = f32[] parameter(0), metadata={op_name="reduce_sum"}
  %reduce_sum.830 = f32[] parameter(1), metadata={op_name="reduce_sum"}
  ROOT %reduce_sum.831 = f32[] add(%reduce_sum.829, %reduce_sum.830), metadata={op_name="jit(predict_step)/FlaxT5ForConditionalGenerationModule/decoder/block/9/layer/0/layer_norm/reduce_sum" stack_frame_id=27}
}

%region_163.171 (reduce_max.297: f32[], reduce_max.298: f32[]) -> f32[] {
  %reduce_max.297 = f32[] parameter(0), metadata={op_name="reduce_max"}
  %reduce_max.298 = f32[] parameter(1), metadata={op_name="reduce_max"}
  ROOT %reduce_max.299 = f32[] maximum(%reduce_max.297, %reduce_max.298), metadata={op_name="jit(predict_step)/FlaxT5ForConditionalGenerationModule/decoder/block/9/layer/0/SelfAttention/reduce_max" stack_frame_id=30}
}

%region_164.172 (reduce_sum.836: f32[], reduce_sum.837: f32[]) -> f32[] {
  %reduce_sum.836 = f32[] parameter(0), metadata={op_name="reduce_sum"}
  %reduce_sum.837 = f32[] parameter(1), metadata={op_name="reduce_sum"}
  ROOT %reduce_sum.838 = f32[] add(%reduce_sum.836, %reduce_sum.837), metadata={op_name="jit(predict_step)/FlaxT5ForConditionalGenerationModule/decoder/block/9/layer/0/SelfAttention/reduce_sum" stack_frame_id=30}
}

%region_165.173 (reduce_sum.843: f32[], reduce_sum.844: f32[]) -> f32[] {
  %reduce_sum.843 = f32[] parameter(0), metadata={op_name="reduce_sum"}
  %reduce_sum.844 = f32[] parameter(1), metadata={op_name="reduce_sum"}
  ROOT %reduce_sum.845 = f32[] add(%reduce_sum.843, %reduce_sum.844), metadata={op_name="jit(predict_step)/FlaxT5ForConditionalGenerationModule/decoder/block/9/layer/1/layer_norm/reduce_sum" stack_frame_id=33}
}

%region_166.174 (reduce_max.304: f32[], reduce_max.305: f32[]) -> f32[] {
  %reduce_max.304 = f32[] parameter(0), metadata={op_name="reduce_max"}
  %reduce_max.305 = f32[] parameter(1), metadata={op_name="reduce_max"}
  ROOT %reduce_max.306 = f32[] maximum(%reduce_max.304, %reduce_max.305), metadata={op_name="jit(predict_step)/FlaxT5ForConditionalGenerationModule/decoder/block/9/layer/1/EncDecAttention/reduce_max" stack_frame_id=36}
}

%region_167.175 (reduce_sum.850: f32[], reduce_sum.851: f32[]) -> f32[] {
  %reduce_sum.850 = f32[] parameter(0), metadata={op_name="reduce_sum"}
  %reduce_sum.851 = f32[] parameter(1), metadata={op_name="reduce_sum"}
  ROOT %reduce_sum.852 = f32[] add(%reduce_sum.850, %reduce_sum.851), metadata={op_name="jit(predict_step)/FlaxT5ForConditionalGenerationModule/decoder/block/9/layer/1/EncDecAttention/reduce_sum" stack_frame_id=36}
}

%region_168.176 (reduce_sum.857: f32[], reduce_sum.858: f32[]) -> f32[] {
  %reduce_sum.857 = f32[] parameter(0), metadata={op_name="reduce_sum"}
  %reduce_sum.858 = f32[] parameter(1), metadata={op_name="reduce_sum"}
  ROOT %reduce_sum.859 = f32[] add(%reduce_sum.857, %reduce_sum.858), metadata={op_name="jit(predict_step)/FlaxT5ForConditionalGenerationModule/decoder/block/9/layer/2/layer_norm/reduce_sum" stack_frame_id=39}
}

%region_169.177 (reduce_sum.864: f32[], reduce_sum.865: f32[]) -> f32[] {
  %reduce_sum.864 = f32[] parameter(0), metadata={op_name="reduce_sum"}
  %reduce_sum.865 = f32[] parameter(1), metadata={op_name="reduce_sum"}
  ROOT %reduce_sum.866 = f32[] add(%reduce_sum.864, %reduce_sum.865), metadata={op_name="jit(predict_step)/FlaxT5ForConditionalGenerationModule/decoder/block/10/layer/0/layer_norm/reduce_sum" stack_frame_id=27}
}

%region_170.178 (reduce_max.311: f32[], reduce_max.312: f32[]) -> f32[] {
  %reduce_max.311 = f32[] parameter(0), metadata={op_name="reduce_max"}
  %reduce_max.312 = f32[] parameter(1), metadata={op_name="reduce_max"}
  ROOT %reduce_max.313 = f32[] maximum(%reduce_max.311, %reduce_max.312), metadata={op_name="jit(predict_step)/FlaxT5ForConditionalGenerationModule/decoder/block/10/layer/0/SelfAttention/reduce_max" stack_frame_id=30}
}

%region_171.179 (reduce_sum.871: f32[], reduce_sum.872: f32[]) -> f32[] {
  %reduce_sum.871 = f32[] parameter(0), metadata={op_name="reduce_sum"}
  %reduce_sum.872 = f32[] parameter(1), metadata={op_name="reduce_sum"}
  ROOT %reduce_sum.873 = f32[] add(%reduce_sum.871, %reduce_sum.872), metadata={op_name="jit(predict_step)/FlaxT5ForConditionalGenerationModule/decoder/block/10/layer/0/SelfAttention/reduce_sum" stack_frame_id=30}
}

%region_172.180 (reduce_sum.878: f32[], reduce_sum.879: f32[]) -> f32[] {
  %reduce_sum.878 = f32[] parameter(0), metadata={op_name="reduce_sum"}
  %reduce_sum.879 = f32[] parameter(1), metadata={op_name="reduce_sum"}
  ROOT %reduce_sum.880 = f32[] add(%reduce_sum.878, %reduce_sum.879), metadata={op_name="jit(predict_step)/FlaxT5ForConditionalGenerationModule/decoder/block/10/layer/1/layer_norm/reduce_sum" stack_frame_id=33}
}

%region_173.181 (reduce_max.318: f32[], reduce_max.319: f32[]) -> f32[] {
  %reduce_max.318 = f32[] parameter(0), metadata={op_name="reduce_max"}
  %reduce_max.319 = f32[] parameter(1), metadata={op_name="reduce_max"}
  ROOT %reduce_max.320 = f32[] maximum(%reduce_max.318, %reduce_max.319), metadata={op_name="jit(predict_step)/FlaxT5ForConditionalGenerationModule/decoder/block/10/layer/1/EncDecAttention/reduce_max" stack_frame_id=36}
}

%region_174.182 (reduce_sum.885: f32[], reduce_sum.886: f32[]) -> f32[] {
  %reduce_sum.885 = f32[] parameter(0), metadata={op_name="reduce_sum"}
  %reduce_sum.886 = f32[] parameter(1), metadata={op_name="reduce_sum"}
  ROOT %reduce_sum.887 = f32[] add(%reduce_sum.885, %reduce_sum.886), metadata={op_name="jit(predict_step)/FlaxT5ForConditionalGenerationModule/decoder/block/10/layer/1/EncDecAttention/reduce_sum" stack_frame_id=36}
}

%region_175.183 (reduce_sum.892: f32[], reduce_sum.893: f32[]) -> f32[] {
  %reduce_sum.892 = f32[] parameter(0), metadata={op_name="reduce_sum"}
  %reduce_sum.893 = f32[] parameter(1), metadata={op_name="reduce_sum"}
  ROOT %reduce_sum.894 = f32[] add(%reduce_sum.892, %reduce_sum.893), metadata={op_name="jit(predict_step)/FlaxT5ForConditionalGenerationModule/decoder/block/10/layer/2/layer_norm/reduce_sum" stack_frame_id=39}
}

%region_176.184 (reduce_sum.899: f32[], reduce_sum.900: f32[]) -> f32[] {
  %reduce_sum.899 = f32[] parameter(0), metadata={op_name="reduce_sum"}
  %reduce_sum.900 = f32[] parameter(1), metadata={op_name="reduce_sum"}
  ROOT %reduce_sum.901 = f32[] add(%reduce_sum.899, %reduce_sum.900), metadata={op_name="jit(predict_step)/FlaxT5ForConditionalGenerationModule/decoder/block/11/layer/0/layer_norm/reduce_sum" stack_frame_id=27}
}

%region_177.185 (reduce_max.325: f32[], reduce_max.326: f32[]) -> f32[] {
  %reduce_max.325 = f32[] parameter(0), metadata={op_name="reduce_max"}
  %reduce_max.326 = f32[] parameter(1), metadata={op_name="reduce_max"}
  ROOT %reduce_max.327 = f32[] maximum(%reduce_max.325, %reduce_max.326), metadata={op_name="jit(predict_step)/FlaxT5ForConditionalGenerationModule/decoder/block/11/layer/0/SelfAttention/reduce_max" stack_frame_id=30}
}

%region_178.186 (reduce_sum.906: f32[], reduce_sum.907: f32[]) -> f32[] {
  %reduce_sum.906 = f32[] parameter(0), metadata={op_name="reduce_sum"}
  %reduce_sum.907 = f32[] parameter(1), metadata={op_name="reduce_sum"}
  ROOT %reduce_sum.908 = f32[] add(%reduce_sum.906, %reduce_sum.907), metadata={op_name="jit(predict_step)/FlaxT5ForConditionalGenerationModule/decoder/block/11/layer/0/SelfAttention/reduce_sum" stack_frame_id=30}
}

%region_179.187 (reduce_sum.913: f32[], reduce_sum.914: f32[]) -> f32[] {
  %reduce_sum.913 = f32[] parameter(0), metadata={op_name="reduce_sum"}
  %reduce_sum.914 = f32[] parameter(1), metadata={op_name="reduce_sum"}
  ROOT %reduce_sum.915 = f32[] add(%reduce_sum.913, %reduce_sum.914), metadata={op_name="jit(predict_step)/FlaxT5ForConditionalGenerationModule/decoder/block/11/layer/1/layer_norm/reduce_sum" stack_frame_id=33}
}

%region_180.188 (reduce_max.332: f32[], reduce_max.333: f32[]) -> f32[] {
  %reduce_max.332 = f32[] parameter(0), metadata={op_name="reduce_max"}
  %reduce_max.333 = f32[] parameter(1), metadata={op_name="reduce_max"}
  ROOT %reduce_max.334 = f32[] maximum(%reduce_max.332, %reduce_max.333), metadata={op_name="jit(predict_step)/FlaxT5ForConditionalGenerationModule/decoder/block/11/layer/1/EncDecAttention/reduce_max" stack_frame_id=36}
}

%region_181.189 (reduce_sum.920: f32[], reduce_sum.921: f32[]) -> f32[] {
  %reduce_sum.920 = f32[] parameter(0), metadata={op_name="reduce_sum"}
  %reduce_sum.921 = f32[] parameter(1), metadata={op_name="reduce_sum"}
  ROOT %reduce_sum.922 = f32[] add(%reduce_sum.920, %reduce_sum.921), metadata={op_name="jit(predict_step)/FlaxT5ForConditionalGenerationModule/decoder/block/11/layer/1/EncDecAttention/reduce_sum" stack_frame_id=36}
}

%region_182.190 (reduce_sum.927: f32[], reduce_sum.928: f32[]) -> f32[] {
  %reduce_sum.927 = f32[] parameter(0), metadata={op_name="reduce_sum"}
  %reduce_sum.928 = f32[] parameter(1), metadata={op_name="reduce_sum"}
  ROOT %reduce_sum.929 = f32[] add(%reduce_sum.927, %reduce_sum.928), metadata={op_name="jit(predict_step)/FlaxT5ForConditionalGenerationModule/decoder/block/11/layer/2/layer_norm/reduce_sum" stack_frame_id=39}
}

%region_183.191 (reduce_sum.934: f32[], reduce_sum.935: f32[]) -> f32[] {
  %reduce_sum.934 = f32[] parameter(0), metadata={op_name="reduce_sum"}
  %reduce_sum.935 = f32[] parameter(1), metadata={op_name="reduce_sum"}
  ROOT %reduce_sum.936 = f32[] add(%reduce_sum.934, %reduce_sum.935), metadata={op_name="jit(predict_step)/FlaxT5ForConditionalGenerationModule/decoder/block/12/layer/0/layer_norm/reduce_sum" stack_frame_id=27}
}

%region_184.192 (reduce_max.339: f32[], reduce_max.340: f32[]) -> f32[] {
  %reduce_max.339 = f32[] parameter(0), metadata={op_name="reduce_max"}
  %reduce_max.340 = f32[] parameter(1), metadata={op_name="reduce_max"}
  ROOT %reduce_max.341 = f32[] maximum(%reduce_max.339, %reduce_max.340), metadata={op_name="jit(predict_step)/FlaxT5ForConditionalGenerationModule/decoder/block/12/layer/0/SelfAttention/reduce_max" stack_frame_id=30}
}

%region_185.193 (reduce_sum.941: f32[], reduce_sum.942: f32[]) -> f32[] {
  %reduce_sum.941 = f32[] parameter(0), metadata={op_name="reduce_sum"}
  %reduce_sum.942 = f32[] parameter(1), metadata={op_name="reduce_sum"}
  ROOT %reduce_sum.943 = f32[] add(%reduce_sum.941, %reduce_sum.942), metadata={op_name="jit(predict_step)/FlaxT5ForConditionalGenerationModule/decoder/block/12/layer/0/SelfAttention/reduce_sum" stack_frame_id=30}
}

%region_186.194 (reduce_sum.948: f32[], reduce_sum.949: f32[]) -> f32[] {
  %reduce_sum.948 = f32[] parameter(0), metadata={op_name="reduce_sum"}
  %reduce_sum.949 = f32[] parameter(1), metadata={op_name="reduce_sum"}
  ROOT %reduce_sum.950 = f32[] add(%reduce_sum.948, %reduce_sum.949), metadata={op_name="jit(predict_step)/FlaxT5ForConditionalGenerationModule/decoder/block/12/layer/1/layer_norm/reduce_sum" stack_frame_id=33}
}

%region_187.195 (reduce_max.346: f32[], reduce_max.347: f32[]) -> f32[] {
  %reduce_max.346 = f32[] parameter(0), metadata={op_name="reduce_max"}
  %reduce_max.347 = f32[] parameter(1), metadata={op_name="reduce_max"}
  ROOT %reduce_max.348 = f32[] maximum(%reduce_max.346, %reduce_max.347), metadata={op_name="jit(predict_step)/FlaxT5ForConditionalGenerationModule/decoder/block/12/layer/1/EncDecAttention/reduce_max" stack_frame_id=36}
}

%region_188.196 (reduce_sum.955: f32[], reduce_sum.956: f32[]) -> f32[] {
  %reduce_sum.955 = f32[] parameter(0), metadata={op_name="reduce_sum"}
  %reduce_sum.956 = f32[] parameter(1), metadata={op_name="reduce_sum"}
  ROOT %reduce_sum.957 = f32[] add(%reduce_sum.955, %reduce_sum.956), metadata={op_name="jit(predict_step)/FlaxT5ForConditionalGenerationModule/decoder/block/12/layer/1/EncDecAttention/reduce_sum" stack_frame_id=36}
}

%region_189.197 (reduce_sum.962: f32[], reduce_sum.963: f32[]) -> f32[] {
  %reduce_sum.962 = f32[] parameter(0), metadata={op_name="reduce_sum"}
  %reduce_sum.963 = f32[] parameter(1), metadata={op_name="reduce_sum"}
  ROOT %reduce_sum.964 = f32[] add(%reduce_sum.962, %reduce_sum.963), metadata={op_name="jit(predict_step)/FlaxT5ForConditionalGenerationModule/decoder/block/12/layer/2/layer_norm/reduce_sum" stack_frame_id=39}
}

%region_190.198 (reduce_sum.969: f32[], reduce_sum.970: f32[]) -> f32[] {
  %reduce_sum.969 = f32[] parameter(0), metadata={op_name="reduce_sum"}
  %reduce_sum.970 = f32[] parameter(1), metadata={op_name="reduce_sum"}
  ROOT %reduce_sum.971 = f32[] add(%reduce_sum.969, %reduce_sum.970), metadata={op_name="jit(predict_step)/FlaxT5ForConditionalGenerationModule/decoder/block/13/layer/0/layer_norm/reduce_sum" stack_frame_id=27}
}

%region_191.199 (reduce_max.353: f32[], reduce_max.354: f32[]) -> f32[] {
  %reduce_max.353 = f32[] parameter(0), metadata={op_name="reduce_max"}
  %reduce_max.354 = f32[] parameter(1), metadata={op_name="reduce_max"}
  ROOT %reduce_max.355 = f32[] maximum(%reduce_max.353, %reduce_max.354), metadata={op_name="jit(predict_step)/FlaxT5ForConditionalGenerationModule/decoder/block/13/layer/0/SelfAttention/reduce_max" stack_frame_id=30}
}

%region_192.200 (reduce_sum.976: f32[], reduce_sum.977: f32[]) -> f32[] {
  %reduce_sum.976 = f32[] parameter(0), metadata={op_name="reduce_sum"}
  %reduce_sum.977 = f32[] parameter(1), metadata={op_name="reduce_sum"}
  ROOT %reduce_sum.978 = f32[] add(%reduce_sum.976, %reduce_sum.977), metadata={op_name="jit(predict_step)/FlaxT5ForConditionalGenerationModule/decoder/block/13/layer/0/SelfAttention/reduce_sum" stack_frame_id=30}
}

%region_193.201 (reduce_sum.983: f32[], reduce_sum.984: f32[]) -> f32[] {
  %reduce_sum.983 = f32[] parameter(0), metadata={op_name="reduce_sum"}
  %reduce_sum.984 = f32[] parameter(1), metadata={op_name="reduce_sum"}
  ROOT %reduce_sum.985 = f32[] add(%reduce_sum.983, %reduce_sum.984), metadata={op_name="jit(predict_step)/FlaxT5ForConditionalGenerationModule/decoder/block/13/layer/1/layer_norm/reduce_sum" stack_frame_id=33}
}

%region_194.202 (reduce_max.360: f32[], reduce_max.361: f32[]) -> f32[] {
  %reduce_max.360 = f32[] parameter(0), metadata={op_name="reduce_max"}
  %reduce_max.361 = f32[] parameter(1), metadata={op_name="reduce_max"}
  ROOT %reduce_max.362 = f32[] maximum(%reduce_max.360, %reduce_max.361), metadata={op_name="jit(predict_step)/FlaxT5ForConditionalGenerationModule/decoder/block/13/layer/1/EncDecAttention/reduce_max" stack_frame_id=36}
}

%region_195.203 (reduce_sum.990: f32[], reduce_sum.991: f32[]) -> f32[] {
  %reduce_sum.990 = f32[] parameter(0), metadata={op_name="reduce_sum"}
  %reduce_sum.991 = f32[] parameter(1), metadata={op_name="reduce_sum"}
  ROOT %reduce_sum.992 = f32[] add(%reduce_sum.990, %reduce_sum.991), metadata={op_name="jit(predict_step)/FlaxT5ForConditionalGenerationModule/decoder/block/13/layer/1/EncDecAttention/reduce_sum" stack_frame_id=36}
}

%region_196.204 (reduce_sum.997: f32[], reduce_sum.998: f32[]) -> f32[] {
  %reduce_sum.997 = f32[] parameter(0), metadata={op_name="reduce_sum"}
  %reduce_sum.998 = f32[] parameter(1), metadata={op_name="reduce_sum"}
  ROOT %reduce_sum.999 = f32[] add(%reduce_sum.997, %reduce_sum.998), metadata={op_name="jit(predict_step)/FlaxT5ForConditionalGenerationModule/decoder/block/13/layer/2/layer_norm/reduce_sum" stack_frame_id=39}
}

%region_197.205 (reduce_sum.1004: f32[], reduce_sum.1005: f32[]) -> f32[] {
  %reduce_sum.1004 = f32[] parameter(0), metadata={op_name="reduce_sum"}
  %reduce_sum.1005 = f32[] parameter(1), metadata={op_name="reduce_sum"}
  ROOT %reduce_sum.1006 = f32[] add(%reduce_sum.1004, %reduce_sum.1005), metadata={op_name="jit(predict_step)/FlaxT5ForConditionalGenerationModule/decoder/block/14/layer/0/layer_norm/reduce_sum" stack_frame_id=27}
}

%region_198.206 (reduce_max.367: f32[], reduce_max.368: f32[]) -> f32[] {
  %reduce_max.367 = f32[] parameter(0), metadata={op_name="reduce_max"}
  %reduce_max.368 = f32[] parameter(1), metadata={op_name="reduce_max"}
  ROOT %reduce_max.369 = f32[] maximum(%reduce_max.367, %reduce_max.368), metadata={op_name="jit(predict_step)/FlaxT5ForConditionalGenerationModule/decoder/block/14/layer/0/SelfAttention/reduce_max" stack_frame_id=30}
}

%region_199.207 (reduce_sum.1011: f32[], reduce_sum.1012: f32[]) -> f32[] {
  %reduce_sum.1011 = f32[] parameter(0), metadata={op_name="reduce_sum"}
  %reduce_sum.1012 = f32[] parameter(1), metadata={op_name="reduce_sum"}
  ROOT %reduce_sum.1013 = f32[] add(%reduce_sum.1011, %reduce_sum.1012), metadata={op_name="jit(predict_step)/FlaxT5ForConditionalGenerationModule/decoder/block/14/layer/0/SelfAttention/reduce_sum" stack_frame_id=30}
}

%region_200.208 (reduce_sum.1018: f32[], reduce_sum.1019: f32[]) -> f32[] {
  %reduce_sum.1018 = f32[] parameter(0), metadata={op_name="reduce_sum"}
  %reduce_sum.1019 = f32[] parameter(1), metadata={op_name="reduce_sum"}
  ROOT %reduce_sum.1020 = f32[] add(%reduce_sum.1018, %reduce_sum.1019), metadata={op_name="jit(predict_step)/FlaxT5ForConditionalGenerationModule/decoder/block/14/layer/1/layer_norm/reduce_sum" stack_frame_id=33}
}

%region_201.209 (reduce_max.374: f32[], reduce_max.375: f32[]) -> f32[] {
  %reduce_max.374 = f32[] parameter(0), metadata={op_name="reduce_max"}
  %reduce_max.375 = f32[] parameter(1), metadata={op_name="reduce_max"}
  ROOT %reduce_max.376 = f32[] maximum(%reduce_max.374, %reduce_max.375), metadata={op_name="jit(predict_step)/FlaxT5ForConditionalGenerationModule/decoder/block/14/layer/1/EncDecAttention/reduce_max" stack_frame_id=36}
}

%region_202.210 (reduce_sum.1025: f32[], reduce_sum.1026: f32[]) -> f32[] {
  %reduce_sum.1025 = f32[] parameter(0), metadata={op_name="reduce_sum"}
  %reduce_sum.1026 = f32[] parameter(1), metadata={op_name="reduce_sum"}
  ROOT %reduce_sum.1027 = f32[] add(%reduce_sum.1025, %reduce_sum.1026), metadata={op_name="jit(predict_step)/FlaxT5ForConditionalGenerationModule/decoder/block/14/layer/1/EncDecAttention/reduce_sum" stack_frame_id=36}
}

%region_203.211 (reduce_sum.1032: f32[], reduce_sum.1033: f32[]) -> f32[] {
  %reduce_sum.1032 = f32[] parameter(0), metadata={op_name="reduce_sum"}
  %reduce_sum.1033 = f32[] parameter(1), metadata={op_name="reduce_sum"}
  ROOT %reduce_sum.1034 = f32[] add(%reduce_sum.1032, %reduce_sum.1033), metadata={op_name="jit(predict_step)/FlaxT5ForConditionalGenerationModule/decoder/block/14/layer/2/layer_norm/reduce_sum" stack_frame_id=39}
}

%region_204.212 (reduce_sum.1039: f32[], reduce_sum.1040: f32[]) -> f32[] {
  %reduce_sum.1039 = f32[] parameter(0), metadata={op_name="reduce_sum"}
  %reduce_sum.1040 = f32[] parameter(1), metadata={op_name="reduce_sum"}
  ROOT %reduce_sum.1041 = f32[] add(%reduce_sum.1039, %reduce_sum.1040), metadata={op_name="jit(predict_step)/FlaxT5ForConditionalGenerationModule/decoder/block/15/layer/0/layer_norm/reduce_sum" stack_frame_id=27}
}

%region_205.213 (reduce_max.381: f32[], reduce_max.382: f32[]) -> f32[] {
  %reduce_max.381 = f32[] parameter(0), metadata={op_name="reduce_max"}
  %reduce_max.382 = f32[] parameter(1), metadata={op_name="reduce_max"}
  ROOT %reduce_max.383 = f32[] maximum(%reduce_max.381, %reduce_max.382), metadata={op_name="jit(predict_step)/FlaxT5ForConditionalGenerationModule/decoder/block/15/layer/0/SelfAttention/reduce_max" stack_frame_id=30}
}

%region_206.214 (reduce_sum.1046: f32[], reduce_sum.1047: f32[]) -> f32[] {
  %reduce_sum.1046 = f32[] parameter(0), metadata={op_name="reduce_sum"}
  %reduce_sum.1047 = f32[] parameter(1), metadata={op_name="reduce_sum"}
  ROOT %reduce_sum.1048 = f32[] add(%reduce_sum.1046, %reduce_sum.1047), metadata={op_name="jit(predict_step)/FlaxT5ForConditionalGenerationModule/decoder/block/15/layer/0/SelfAttention/reduce_sum" stack_frame_id=30}
}

%region_207.215 (reduce_sum.1053: f32[], reduce_sum.1054: f32[]) -> f32[] {
  %reduce_sum.1053 = f32[] parameter(0), metadata={op_name="reduce_sum"}
  %reduce_sum.1054 = f32[] parameter(1), metadata={op_name="reduce_sum"}
  ROOT %reduce_sum.1055 = f32[] add(%reduce_sum.1053, %reduce_sum.1054), metadata={op_name="jit(predict_step)/FlaxT5ForConditionalGenerationModule/decoder/block/15/layer/1/layer_norm/reduce_sum" stack_frame_id=33}
}

%region_208.216 (reduce_max.388: f32[], reduce_max.389: f32[]) -> f32[] {
  %reduce_max.388 = f32[] parameter(0), metadata={op_name="reduce_max"}
  %reduce_max.389 = f32[] parameter(1), metadata={op_name="reduce_max"}
  ROOT %reduce_max.390 = f32[] maximum(%reduce_max.388, %reduce_max.389), metadata={op_name="jit(predict_step)/FlaxT5ForConditionalGenerationModule/decoder/block/15/layer/1/EncDecAttention/reduce_max" stack_frame_id=36}
}

%region_209.217 (reduce_sum.1060: f32[], reduce_sum.1061: f32[]) -> f32[] {
  %reduce_sum.1060 = f32[] parameter(0), metadata={op_name="reduce_sum"}
  %reduce_sum.1061 = f32[] parameter(1), metadata={op_name="reduce_sum"}
  ROOT %reduce_sum.1062 = f32[] add(%reduce_sum.1060, %reduce_sum.1061), metadata={op_name="jit(predict_step)/FlaxT5ForConditionalGenerationModule/decoder/block/15/layer/1/EncDecAttention/reduce_sum" stack_frame_id=36}
}

%region_210.218 (reduce_sum.1067: f32[], reduce_sum.1068: f32[]) -> f32[] {
  %reduce_sum.1067 = f32[] parameter(0), metadata={op_name="reduce_sum"}
  %reduce_sum.1068 = f32[] parameter(1), metadata={op_name="reduce_sum"}
  ROOT %reduce_sum.1069 = f32[] add(%reduce_sum.1067, %reduce_sum.1068), metadata={op_name="jit(predict_step)/FlaxT5ForConditionalGenerationModule/decoder/block/15/layer/2/layer_norm/reduce_sum" stack_frame_id=39}
}

%region_211.219 (reduce_sum.1074: f32[], reduce_sum.1075: f32[]) -> f32[] {
  %reduce_sum.1074 = f32[] parameter(0), metadata={op_name="reduce_sum"}
  %reduce_sum.1075 = f32[] parameter(1), metadata={op_name="reduce_sum"}
  ROOT %reduce_sum.1076 = f32[] add(%reduce_sum.1074, %reduce_sum.1075), metadata={op_name="jit(predict_step)/FlaxT5ForConditionalGenerationModule/decoder/block/16/layer/0/layer_norm/reduce_sum" stack_frame_id=27}
}

%region_212.220 (reduce_max.395: f32[], reduce_max.396: f32[]) -> f32[] {
  %reduce_max.395 = f32[] parameter(0), metadata={op_name="reduce_max"}
  %reduce_max.396 = f32[] parameter(1), metadata={op_name="reduce_max"}
  ROOT %reduce_max.397 = f32[] maximum(%reduce_max.395, %reduce_max.396), metadata={op_name="jit(predict_step)/FlaxT5ForConditionalGenerationModule/decoder/block/16/layer/0/SelfAttention/reduce_max" stack_frame_id=30}
}

%region_213.221 (reduce_sum.1081: f32[], reduce_sum.1082: f32[]) -> f32[] {
  %reduce_sum.1081 = f32[] parameter(0), metadata={op_name="reduce_sum"}
  %reduce_sum.1082 = f32[] parameter(1), metadata={op_name="reduce_sum"}
  ROOT %reduce_sum.1083 = f32[] add(%reduce_sum.1081, %reduce_sum.1082), metadata={op_name="jit(predict_step)/FlaxT5ForConditionalGenerationModule/decoder/block/16/layer/0/SelfAttention/reduce_sum" stack_frame_id=30}
}

%region_214.222 (reduce_sum.1088: f32[], reduce_sum.1089: f32[]) -> f32[] {
  %reduce_sum.1088 = f32[] parameter(0), metadata={op_name="reduce_sum"}
  %reduce_sum.1089 = f32[] parameter(1), metadata={op_name="reduce_sum"}
  ROOT %reduce_sum.1090 = f32[] add(%reduce_sum.1088, %reduce_sum.1089), metadata={op_name="jit(predict_step)/FlaxT5ForConditionalGenerationModule/decoder/block/16/layer/1/layer_norm/reduce_sum" stack_frame_id=33}
}

%region_215.223 (reduce_max.402: f32[], reduce_max.403: f32[]) -> f32[] {
  %reduce_max.402 = f32[] parameter(0), metadata={op_name="reduce_max"}
  %reduce_max.403 = f32[] parameter(1), metadata={op_name="reduce_max"}
  ROOT %reduce_max.404 = f32[] maximum(%reduce_max.402, %reduce_max.403), metadata={op_name="jit(predict_step)/FlaxT5ForConditionalGenerationModule/decoder/block/16/layer/1/EncDecAttention/reduce_max" stack_frame_id=36}
}

%region_216.224 (reduce_sum.1095: f32[], reduce_sum.1096: f32[]) -> f32[] {
  %reduce_sum.1095 = f32[] parameter(0), metadata={op_name="reduce_sum"}
  %reduce_sum.1096 = f32[] parameter(1), metadata={op_name="reduce_sum"}
  ROOT %reduce_sum.1097 = f32[] add(%reduce_sum.1095, %reduce_sum.1096), metadata={op_name="jit(predict_step)/FlaxT5ForConditionalGenerationModule/decoder/block/16/layer/1/EncDecAttention/reduce_sum" stack_frame_id=36}
}

%region_217.225 (reduce_sum.1102: f32[], reduce_sum.1103: f32[]) -> f32[] {
  %reduce_sum.1102 = f32[] parameter(0), metadata={op_name="reduce_sum"}
  %reduce_sum.1103 = f32[] parameter(1), metadata={op_name="reduce_sum"}
  ROOT %reduce_sum.1104 = f32[] add(%reduce_sum.1102, %reduce_sum.1103), metadata={op_name="jit(predict_step)/FlaxT5ForConditionalGenerationModule/decoder/block/16/layer/2/layer_norm/reduce_sum" stack_frame_id=39}
}

%region_218.226 (reduce_sum.1109: f32[], reduce_sum.1110: f32[]) -> f32[] {
  %reduce_sum.1109 = f32[] parameter(0), metadata={op_name="reduce_sum"}
  %reduce_sum.1110 = f32[] parameter(1), metadata={op_name="reduce_sum"}
  ROOT %reduce_sum.1111 = f32[] add(%reduce_sum.1109, %reduce_sum.1110), metadata={op_name="jit(predict_step)/FlaxT5ForConditionalGenerationModule/decoder/block/17/layer/0/layer_norm/reduce_sum" stack_frame_id=27}
}

%region_219.227 (reduce_max.409: f32[], reduce_max.410: f32[]) -> f32[] {
  %reduce_max.409 = f32[] parameter(0), metadata={op_name="reduce_max"}
  %reduce_max.410 = f32[] parameter(1), metadata={op_name="reduce_max"}
  ROOT %reduce_max.411 = f32[] maximum(%reduce_max.409, %reduce_max.410), metadata={op_name="jit(predict_step)/FlaxT5ForConditionalGenerationModule/decoder/block/17/layer/0/SelfAttention/reduce_max" stack_frame_id=30}
}

%region_220.228 (reduce_sum.1116: f32[], reduce_sum.1117: f32[]) -> f32[] {
  %reduce_sum.1116 = f32[] parameter(0), metadata={op_name="reduce_sum"}
  %reduce_sum.1117 = f32[] parameter(1), metadata={op_name="reduce_sum"}
  ROOT %reduce_sum.1118 = f32[] add(%reduce_sum.1116, %reduce_sum.1117), metadata={op_name="jit(predict_step)/FlaxT5ForConditionalGenerationModule/decoder/block/17/layer/0/SelfAttention/reduce_sum" stack_frame_id=30}
}

%region_221.229 (reduce_sum.1123: f32[], reduce_sum.1124: f32[]) -> f32[] {
  %reduce_sum.1123 = f32[] parameter(0), metadata={op_name="reduce_sum"}
  %reduce_sum.1124 = f32[] parameter(1), metadata={op_name="reduce_sum"}
  ROOT %reduce_sum.1125 = f32[] add(%reduce_sum.1123, %reduce_sum.1124), metadata={op_name="jit(predict_step)/FlaxT5ForConditionalGenerationModule/decoder/block/17/layer/1/layer_norm/reduce_sum" stack_frame_id=33}
}

%region_222.230 (reduce_max.416: f32[], reduce_max.417: f32[]) -> f32[] {
  %reduce_max.416 = f32[] parameter(0), metadata={op_name="reduce_max"}
  %reduce_max.417 = f32[] parameter(1), metadata={op_name="reduce_max"}
  ROOT %reduce_max.418 = f32[] maximum(%reduce_max.416, %reduce_max.417), metadata={op_name="jit(predict_step)/FlaxT5ForConditionalGenerationModule/decoder/block/17/layer/1/EncDecAttention/reduce_max" stack_frame_id=36}
}

%region_223.231 (reduce_sum.1130: f32[], reduce_sum.1131: f32[]) -> f32[] {
  %reduce_sum.1130 = f32[] parameter(0), metadata={op_name="reduce_sum"}
  %reduce_sum.1131 = f32[] parameter(1), metadata={op_name="reduce_sum"}
  ROOT %reduce_sum.1132 = f32[] add(%reduce_sum.1130, %reduce_sum.1131), metadata={op_name="jit(predict_step)/FlaxT5ForConditionalGenerationModule/decoder/block/17/layer/1/EncDecAttention/reduce_sum" stack_frame_id=36}
}

%region_224.232 (reduce_sum.1137: f32[], reduce_sum.1138: f32[]) -> f32[] {
  %reduce_sum.1137 = f32[] parameter(0), metadata={op_name="reduce_sum"}
  %reduce_sum.1138 = f32[] parameter(1), metadata={op_name="reduce_sum"}
  ROOT %reduce_sum.1139 = f32[] add(%reduce_sum.1137, %reduce_sum.1138), metadata={op_name="jit(predict_step)/FlaxT5ForConditionalGenerationModule/decoder/block/17/layer/2/layer_norm/reduce_sum" stack_frame_id=39}
}

%region_225.233 (reduce_sum.1144: f32[], reduce_sum.1145: f32[]) -> f32[] {
  %reduce_sum.1144 = f32[] parameter(0), metadata={op_name="reduce_sum"}
  %reduce_sum.1145 = f32[] parameter(1), metadata={op_name="reduce_sum"}
  ROOT %reduce_sum.1146 = f32[] add(%reduce_sum.1144, %reduce_sum.1145), metadata={op_name="jit(predict_step)/FlaxT5ForConditionalGenerationModule/decoder/block/18/layer/0/layer_norm/reduce_sum" stack_frame_id=27}
}

%region_226.234 (reduce_max.423: f32[], reduce_max.424: f32[]) -> f32[] {
  %reduce_max.423 = f32[] parameter(0), metadata={op_name="reduce_max"}
  %reduce_max.424 = f32[] parameter(1), metadata={op_name="reduce_max"}
  ROOT %reduce_max.425 = f32[] maximum(%reduce_max.423, %reduce_max.424), metadata={op_name="jit(predict_step)/FlaxT5ForConditionalGenerationModule/decoder/block/18/layer/0/SelfAttention/reduce_max" stack_frame_id=30}
}

%region_227.235 (reduce_sum.1151: f32[], reduce_sum.1152: f32[]) -> f32[] {
  %reduce_sum.1151 = f32[] parameter(0), metadata={op_name="reduce_sum"}
  %reduce_sum.1152 = f32[] parameter(1), metadata={op_name="reduce_sum"}
  ROOT %reduce_sum.1153 = f32[] add(%reduce_sum.1151, %reduce_sum.1152), metadata={op_name="jit(predict_step)/FlaxT5ForConditionalGenerationModule/decoder/block/18/layer/0/SelfAttention/reduce_sum" stack_frame_id=30}
}

%region_228.236 (reduce_sum.1158: f32[], reduce_sum.1159: f32[]) -> f32[] {
  %reduce_sum.1158 = f32[] parameter(0), metadata={op_name="reduce_sum"}
  %reduce_sum.1159 = f32[] parameter(1), metadata={op_name="reduce_sum"}
  ROOT %reduce_sum.1160 = f32[] add(%reduce_sum.1158, %reduce_sum.1159), metadata={op_name="jit(predict_step)/FlaxT5ForConditionalGenerationModule/decoder/block/18/layer/1/layer_norm/reduce_sum" stack_frame_id=33}
}

%region_229.237 (reduce_max.430: f32[], reduce_max.431: f32[]) -> f32[] {
  %reduce_max.430 = f32[] parameter(0), metadata={op_name="reduce_max"}
  %reduce_max.431 = f32[] parameter(1), metadata={op_name="reduce_max"}
  ROOT %reduce_max.432 = f32[] maximum(%reduce_max.430, %reduce_max.431), metadata={op_name="jit(predict_step)/FlaxT5ForConditionalGenerationModule/decoder/block/18/layer/1/EncDecAttention/reduce_max" stack_frame_id=36}
}

%region_230.238 (reduce_sum.1165: f32[], reduce_sum.1166: f32[]) -> f32[] {
  %reduce_sum.1165 = f32[] parameter(0), metadata={op_name="reduce_sum"}
  %reduce_sum.1166 = f32[] parameter(1), metadata={op_name="reduce_sum"}
  ROOT %reduce_sum.1167 = f32[] add(%reduce_sum.1165, %reduce_sum.1166), metadata={op_name="jit(predict_step)/FlaxT5ForConditionalGenerationModule/decoder/block/18/layer/1/EncDecAttention/reduce_sum" stack_frame_id=36}
}

%region_231.239 (reduce_sum.1172: f32[], reduce_sum.1173: f32[]) -> f32[] {
  %reduce_sum.1172 = f32[] parameter(0), metadata={op_name="reduce_sum"}
  %reduce_sum.1173 = f32[] parameter(1), metadata={op_name="reduce_sum"}
  ROOT %reduce_sum.1174 = f32[] add(%reduce_sum.1172, %reduce_sum.1173), metadata={op_name="jit(predict_step)/FlaxT5ForConditionalGenerationModule/decoder/block/18/layer/2/layer_norm/reduce_sum" stack_frame_id=39}
}

%region_232.240 (reduce_sum.1179: f32[], reduce_sum.1180: f32[]) -> f32[] {
  %reduce_sum.1179 = f32[] parameter(0), metadata={op_name="reduce_sum"}
  %reduce_sum.1180 = f32[] parameter(1), metadata={op_name="reduce_sum"}
  ROOT %reduce_sum.1181 = f32[] add(%reduce_sum.1179, %reduce_sum.1180), metadata={op_name="jit(predict_step)/FlaxT5ForConditionalGenerationModule/decoder/block/19/layer/0/layer_norm/reduce_sum" stack_frame_id=27}
}

%region_233.241 (reduce_max.437: f32[], reduce_max.438: f32[]) -> f32[] {
  %reduce_max.437 = f32[] parameter(0), metadata={op_name="reduce_max"}
  %reduce_max.438 = f32[] parameter(1), metadata={op_name="reduce_max"}
  ROOT %reduce_max.439 = f32[] maximum(%reduce_max.437, %reduce_max.438), metadata={op_name="jit(predict_step)/FlaxT5ForConditionalGenerationModule/decoder/block/19/layer/0/SelfAttention/reduce_max" stack_frame_id=30}
}

%region_234.242 (reduce_sum.1186: f32[], reduce_sum.1187: f32[]) -> f32[] {
  %reduce_sum.1186 = f32[] parameter(0), metadata={op_name="reduce_sum"}
  %reduce_sum.1187 = f32[] parameter(1), metadata={op_name="reduce_sum"}
  ROOT %reduce_sum.1188 = f32[] add(%reduce_sum.1186, %reduce_sum.1187), metadata={op_name="jit(predict_step)/FlaxT5ForConditionalGenerationModule/decoder/block/19/layer/0/SelfAttention/reduce_sum" stack_frame_id=30}
}

%region_235.243 (reduce_sum.1193: f32[], reduce_sum.1194: f32[]) -> f32[] {
  %reduce_sum.1193 = f32[] parameter(0), metadata={op_name="reduce_sum"}
  %reduce_sum.1194 = f32[] parameter(1), metadata={op_name="reduce_sum"}
  ROOT %reduce_sum.1195 = f32[] add(%reduce_sum.1193, %reduce_sum.1194), metadata={op_name="jit(predict_step)/FlaxT5ForConditionalGenerationModule/decoder/block/19/layer/1/layer_norm/reduce_sum" stack_frame_id=33}
}

%region_236.244 (reduce_max.444: f32[], reduce_max.445: f32[]) -> f32[] {
  %reduce_max.444 = f32[] parameter(0), metadata={op_name="reduce_max"}
  %reduce_max.445 = f32[] parameter(1), metadata={op_name="reduce_max"}
  ROOT %reduce_max.446 = f32[] maximum(%reduce_max.444, %reduce_max.445), metadata={op_name="jit(predict_step)/FlaxT5ForConditionalGenerationModule/decoder/block/19/layer/1/EncDecAttention/reduce_max" stack_frame_id=36}
}

%region_237.245 (reduce_sum.1200: f32[], reduce_sum.1201: f32[]) -> f32[] {
  %reduce_sum.1200 = f32[] parameter(0), metadata={op_name="reduce_sum"}
  %reduce_sum.1201 = f32[] parameter(1), metadata={op_name="reduce_sum"}
  ROOT %reduce_sum.1202 = f32[] add(%reduce_sum.1200, %reduce_sum.1201), metadata={op_name="jit(predict_step)/FlaxT5ForConditionalGenerationModule/decoder/block/19/layer/1/EncDecAttention/reduce_sum" stack_frame_id=36}
}

%region_238.246 (reduce_sum.1207: f32[], reduce_sum.1208: f32[]) -> f32[] {
  %reduce_sum.1207 = f32[] parameter(0), metadata={op_name="reduce_sum"}
  %reduce_sum.1208 = f32[] parameter(1), metadata={op_name="reduce_sum"}
  ROOT %reduce_sum.1209 = f32[] add(%reduce_sum.1207, %reduce_sum.1208), metadata={op_name="jit(predict_step)/FlaxT5ForConditionalGenerationModule/decoder/block/19/layer/2/layer_norm/reduce_sum" stack_frame_id=39}
}

%region_239.247 (reduce_sum.1214: f32[], reduce_sum.1215: f32[]) -> f32[] {
  %reduce_sum.1214 = f32[] parameter(0), metadata={op_name="reduce_sum"}
  %reduce_sum.1215 = f32[] parameter(1), metadata={op_name="reduce_sum"}
  ROOT %reduce_sum.1216 = f32[] add(%reduce_sum.1214, %reduce_sum.1215), metadata={op_name="jit(predict_step)/FlaxT5ForConditionalGenerationModule/decoder/block/20/layer/0/layer_norm/reduce_sum" stack_frame_id=27}
}

%region_240.248 (reduce_max.451: f32[], reduce_max.452: f32[]) -> f32[] {
  %reduce_max.451 = f32[] parameter(0), metadata={op_name="reduce_max"}
  %reduce_max.452 = f32[] parameter(1), metadata={op_name="reduce_max"}
  ROOT %reduce_max.453 = f32[] maximum(%reduce_max.451, %reduce_max.452), metadata={op_name="jit(predict_step)/FlaxT5ForConditionalGenerationModule/decoder/block/20/layer/0/SelfAttention/reduce_max" stack_frame_id=30}
}

%region_241.249 (reduce_sum.1221: f32[], reduce_sum.1222: f32[]) -> f32[] {
  %reduce_sum.1221 = f32[] parameter(0), metadata={op_name="reduce_sum"}
  %reduce_sum.1222 = f32[] parameter(1), metadata={op_name="reduce_sum"}
  ROOT %reduce_sum.1223 = f32[] add(%reduce_sum.1221, %reduce_sum.1222), metadata={op_name="jit(predict_step)/FlaxT5ForConditionalGenerationModule/decoder/block/20/layer/0/SelfAttention/reduce_sum" stack_frame_id=30}
}

%region_242.250 (reduce_sum.1228: f32[], reduce_sum.1229: f32[]) -> f32[] {
  %reduce_sum.1228 = f32[] parameter(0), metadata={op_name="reduce_sum"}
  %reduce_sum.1229 = f32[] parameter(1), metadata={op_name="reduce_sum"}
  ROOT %reduce_sum.1230 = f32[] add(%reduce_sum.1228, %reduce_sum.1229), metadata={op_name="jit(predict_step)/FlaxT5ForConditionalGenerationModule/decoder/block/20/layer/1/layer_norm/reduce_sum" stack_frame_id=33}
}

%region_243.251 (reduce_max.458: f32[], reduce_max.459: f32[]) -> f32[] {
  %reduce_max.458 = f32[] parameter(0), metadata={op_name="reduce_max"}
  %reduce_max.459 = f32[] parameter(1), metadata={op_name="reduce_max"}
  ROOT %reduce_max.460 = f32[] maximum(%reduce_max.458, %reduce_max.459), metadata={op_name="jit(predict_step)/FlaxT5ForConditionalGenerationModule/decoder/block/20/layer/1/EncDecAttention/reduce_max" stack_frame_id=36}
}

%region_244.252 (reduce_sum.1235: f32[], reduce_sum.1236: f32[]) -> f32[] {
  %reduce_sum.1235 = f32[] parameter(0), metadata={op_name="reduce_sum"}
  %reduce_sum.1236 = f32[] parameter(1), metadata={op_name="reduce_sum"}
  ROOT %reduce_sum.1237 = f32[] add(%reduce_sum.1235, %reduce_sum.1236), metadata={op_name="jit(predict_step)/FlaxT5ForConditionalGenerationModule/decoder/block/20/layer/1/EncDecAttention/reduce_sum" stack_frame_id=36}
}

%region_245.253 (reduce_sum.1242: f32[], reduce_sum.1243: f32[]) -> f32[] {
  %reduce_sum.1242 = f32[] parameter(0), metadata={op_name="reduce_sum"}
  %reduce_sum.1243 = f32[] parameter(1), metadata={op_name="reduce_sum"}
  ROOT %reduce_sum.1244 = f32[] add(%reduce_sum.1242, %reduce_sum.1243), metadata={op_name="jit(predict_step)/FlaxT5ForConditionalGenerationModule/decoder/block/20/layer/2/layer_norm/reduce_sum" stack_frame_id=39}
}

%region_246.254 (reduce_sum.1249: f32[], reduce_sum.1250: f32[]) -> f32[] {
  %reduce_sum.1249 = f32[] parameter(0), metadata={op_name="reduce_sum"}
  %reduce_sum.1250 = f32[] parameter(1), metadata={op_name="reduce_sum"}
  ROOT %reduce_sum.1251 = f32[] add(%reduce_sum.1249, %reduce_sum.1250), metadata={op_name="jit(predict_step)/FlaxT5ForConditionalGenerationModule/decoder/block/21/layer/0/layer_norm/reduce_sum" stack_frame_id=27}
}

%region_247.255 (reduce_max.465: f32[], reduce_max.466: f32[]) -> f32[] {
  %reduce_max.465 = f32[] parameter(0), metadata={op_name="reduce_max"}
  %reduce_max.466 = f32[] parameter(1), metadata={op_name="reduce_max"}
  ROOT %reduce_max.467 = f32[] maximum(%reduce_max.465, %reduce_max.466), metadata={op_name="jit(predict_step)/FlaxT5ForConditionalGenerationModule/decoder/block/21/layer/0/SelfAttention/reduce_max" stack_frame_id=30}
}

%region_248.256 (reduce_sum.1256: f32[], reduce_sum.1257: f32[]) -> f32[] {
  %reduce_sum.1256 = f32[] parameter(0), metadata={op_name="reduce_sum"}
  %reduce_sum.1257 = f32[] parameter(1), metadata={op_name="reduce_sum"}
  ROOT %reduce_sum.1258 = f32[] add(%reduce_sum.1256, %reduce_sum.1257), metadata={op_name="jit(predict_step)/FlaxT5ForConditionalGenerationModule/decoder/block/21/layer/0/SelfAttention/reduce_sum" stack_frame_id=30}
}

%region_249.257 (reduce_sum.1263: f32[], reduce_sum.1264: f32[]) -> f32[] {
  %reduce_sum.1263 = f32[] parameter(0), metadata={op_name="reduce_sum"}
  %reduce_sum.1264 = f32[] parameter(1), metadata={op_name="reduce_sum"}
  ROOT %reduce_sum.1265 = f32[] add(%reduce_sum.1263, %reduce_sum.1264), metadata={op_name="jit(predict_step)/FlaxT5ForConditionalGenerationModule/decoder/block/21/layer/1/layer_norm/reduce_sum" stack_frame_id=33}
}

%region_250.258 (reduce_max.472: f32[], reduce_max.473: f32[]) -> f32[] {
  %reduce_max.472 = f32[] parameter(0), metadata={op_name="reduce_max"}
  %reduce_max.473 = f32[] parameter(1), metadata={op_name="reduce_max"}
  ROOT %reduce_max.474 = f32[] maximum(%reduce_max.472, %reduce_max.473), metadata={op_name="jit(predict_step)/FlaxT5ForConditionalGenerationModule/decoder/block/21/layer/1/EncDecAttention/reduce_max" stack_frame_id=36}
}

%region_251.259 (reduce_sum.1270: f32[], reduce_sum.1271: f32[]) -> f32[] {
  %reduce_sum.1270 = f32[] parameter(0), metadata={op_name="reduce_sum"}
  %reduce_sum.1271 = f32[] parameter(1), metadata={op_name="reduce_sum"}
  ROOT %reduce_sum.1272 = f32[] add(%reduce_sum.1270, %reduce_sum.1271), metadata={op_name="jit(predict_step)/FlaxT5ForConditionalGenerationModule/decoder/block/21/layer/1/EncDecAttention/reduce_sum" stack_frame_id=36}
}

%region_252.260 (reduce_sum.1277: f32[], reduce_sum.1278: f32[]) -> f32[] {
  %reduce_sum.1277 = f32[] parameter(0), metadata={op_name="reduce_sum"}
  %reduce_sum.1278 = f32[] parameter(1), metadata={op_name="reduce_sum"}
…
  %mul.1573 = f32[4,128,16,64]{3,2,1,0} multiply(%reshape.564, %broadcast.21), metadata={op_name="jit(predict_step)/FlaxT5ForConditionalGenerationModule/decoder/block/22/layer/1/EncDecAttention/mul" stack_frame_id=183}
  %div.1912 = f32[4,128,16,64]{3,2,1,0} divide(%mul.1573, %broadcast.21), metadata={op_name="jit(predict_step)/FlaxT5ForConditionalGenerationModule/decoder/block/22/layer/1/EncDecAttention/div" stack_frame_id=184}
  %variables__decoder____block____22____layer____1____EncDecAttention____k____kernel__.1 = f32[1024,1024]{1,0} parameter(216), sharding={devices=[2,1]<=[2]}, frontend_attributes={xla.sdy.sharding="#sdy.sharding<@mesh, [{\"fsdp\"}, {}]>"}, metadata={op_name="variables[\'decoder\'][\'block\'][\'22\'][\'layer\'][\'1\'][\'EncDecAttention\'][\'k\'][\'kernel\']"}
  %dot_general.1131 = f32[4,128,1024]{2,1,0} dot(%mul.1144, %variables__decoder____block____22____layer____1____EncDecAttention____k____kernel__.1), lhs_contracting_dims={2}, rhs_contracting_dims={0}, metadata={op_name="jit(predict_step)/FlaxT5ForConditionalGenerationModule/decoder/block/22/layer/1/EncDecAttention/k/dot_general" stack_frame_id=186}
  %reshape.565 = f32[4,128,16,64]{3,2,1,0} reshape(%dot_general.1131), metadata={op_name="jit(predict_step)/FlaxT5ForConditionalGenerationModule/decoder/block/22/layer/1/EncDecAttention/EncDecAttention._split_heads/reshape" stack_frame_id=188}
  %dot_general.1133 = f32[4,16,128,128]{3,2,1,0} dot(%div.1912, %reshape.565), lhs_batch_dims={0,2}, lhs_contracting_dims={3}, rhs_batch_dims={0,2}, rhs_contracting_dims={3}, metadata={op_name="jit(predict_step)/FlaxT5ForConditionalGenerationModule/decoder/block/22/layer/1/EncDecAttention/...qhd,...khd->...hqk/dot_general" stack_frame_id=189}
  %reduce_max.573 = f32[4,16,128]{2,1,0} reduce(%dot_general.1133, %constant.66), dimensions={3}, to_apply=%region_257.265, metadata={op_name="jit(predict_step)/FlaxT5ForConditionalGenerationModule/decoder/block/22/layer/1/EncDecAttention/reduce_max" stack_frame_id=36}
  %max.141 = f32[4,16,128]{2,1,0} maximum(%reduce_max.573, %broadcast.18), metadata={op_name="jit(predict_step)/FlaxT5ForConditionalGenerationModule/decoder/block/22/layer/1/EncDecAttention/max" stack_frame_id=36}
  %broadcast_in_dim.792 = f32[4,16,128,1]{3,2,1,0} reshape(%max.141), metadata={op_name="jit(predict_step)/FlaxT5ForConditionalGenerationModule/decoder/block/22/layer/1/EncDecAttention/broadcast_in_dim" stack_frame_id=36}
  %sub.592 = f32[4,16,128,1]{3,2,1,0} broadcast(%broadcast_in_dim.792), dimensions={0,1,2,3}, metadata={op_name="jit(predict_step)/FlaxT5ForConditionalGenerationModule/decoder/block/22/layer/1/EncDecAttention/sub" stack_frame_id=36}
  %sub.593 = f32[4,16,128]{2,1,0} reshape(%sub.592), metadata={op_name="jit(predict_step)/FlaxT5ForConditionalGenerationModule/decoder/block/22/layer/1/EncDecAttention/sub" stack_frame_id=36}
  %sub.594 = f32[4,16,128,128]{3,2,1,0} broadcast(%sub.593), dimensions={0,1,2}, metadata={op_name="jit(predict_step)/FlaxT5ForConditionalGenerationModule/decoder/block/22/layer/1/EncDecAttention/sub" stack_frame_id=36}
  %sub.595 = f32[4,16,128,128]{3,2,1,0} subtract(%dot_general.1133, %sub.594), metadata={op_name="jit(predict_step)/FlaxT5ForConditionalGenerationModule/decoder/block/22/layer/1/EncDecAttention/sub" stack_frame_id=36}
  %exp.141 = f32[4,16,128,128]{3,2,1,0} exponential(%sub.595), metadata={op_name="jit(predict_step)/FlaxT5ForConditionalGenerationModule/decoder/block/22/layer/1/EncDecAttention/exp" stack_frame_id=36}
  %reduce_sum.1544 = f32[4,16,128]{2,1,0} reduce(%exp.141, %constant.69), dimensions={3}, to_apply=%region_258.266, metadata={op_name="jit(predict_step)/FlaxT5ForConditionalGenerationModule/decoder/block/22/layer/1/EncDecAttention/reduce_sum" stack_frame_id=36}
  %broadcast_in_dim.793 = f32[4,16,128,1]{3,2,1,0} reshape(%reduce_sum.1544), metadata={op_name="jit(predict_step)/FlaxT5ForConditionalGenerationModule/decoder/block/22/layer/1/EncDecAttention/broadcast_in_dim" stack_frame_id=36}
  %div.1913 = f32[4,16,128,1]{3,2,1,0} broadcast(%broadcast_in_dim.793), dimensions={0,1,2,3}, metadata={op_name="jit(predict_step)/FlaxT5ForConditionalGenerationModule/decoder/block/22/layer/1/EncDecAttention/div" stack_frame_id=36}
  %div.1914 = f32[4,16,128]{2,1,0} reshape(%div.1913), metadata={op_name="jit(predict_step)/FlaxT5ForConditionalGenerationModule/decoder/block/22/layer/1/EncDecAttention/div" stack_frame_id=36}
  %div.1915 = f32[4,16,128,128]{3,2,1,0} broadcast(%div.1914), dimensions={0,1,2}, metadata={op_name="jit(predict_step)/FlaxT5ForConditionalGenerationModule/decoder/block/22/layer/1/EncDecAttention/div" stack_frame_id=36}
  %div.1916 = f32[4,16,128,128]{3,2,1,0} divide(%exp.141, %div.1915), metadata={op_name="jit(predict_step)/FlaxT5ForConditionalGenerationModule/decoder/block/22/layer/1/EncDecAttention/div" stack_frame_id=36}
  %dot_general.1134 = f32[4,16,64,128]{3,2,1,0} dot(%reshape.566, %div.1916), lhs_batch_dims={0,2}, lhs_contracting_dims={1}, rhs_batch_dims={0,1}, rhs_contracting_dims={3}, metadata={op_name="jit(predict_step)/FlaxT5ForConditionalGenerationModule/decoder/block/22/layer/1/EncDecAttention/...hqk,...khd->...qhd/dot_general" stack_frame_id=190}
  %transpose.145 = f32[4,128,16,64]{1,3,2,0} transpose(%dot_general.1134), dimensions={0,3,1,2}, metadata={op_name="jit(predict_step)/FlaxT5ForConditionalGenerationModule/decoder/block/22/layer/1/EncDecAttention/...hqk,...khd->...qhd/transpose" stack_frame_id=190}
  %reshape.567 = f32[4,128,1024]{2,1,0} reshape(%transpose.145), metadata={op_name="jit(predict_step)/FlaxT5ForConditionalGenerationModule/decoder/block/22/layer/1/EncDecAttention/EncDecAttention._merge_heads/reshape" stack_frame_id=192}
  %variables__decoder____block____22____layer____1____EncDecAttention____o____kernel__.1 = f32[1024,1024]{1,0} parameter(217), sharding={devices=[2,1]<=[2]}, frontend_attributes={xla.sdy.sharding="#sdy.sharding<@mesh, [{\"fsdp\"}, {}]>"}, metadata={op_name="variables[\'decoder\'][\'block\'][\'22\'][\'layer\'][\'1\'][\'EncDecAttention\'][\'o\'][\'kernel\']"}
  %dot_general.1135 = f32[4,128,1024]{2,1,0} dot(%reshape.567, %variables__decoder____block____22____layer____1____EncDecAttention____o____kernel__.1), lhs_contracting_dims={2}, rhs_contracting_dims={0}, metadata={op_name="jit(predict_step)/FlaxT5ForConditionalGenerationModule/decoder/block/22/layer/1/EncDecAttention/o/dot_general" stack_frame_id=194}
  %add.791 = f32[4,128,1024]{2,1,0} add(%add.789, %dot_general.1135), metadata={op_name="jit(predict_step)/FlaxT5ForConditionalGenerationModule/decoder/block/22/layer/1/add" stack_frame_id=195}
  %variables__decoder____block____22____layer____2____layer_norm____weight__.1 = f32[1024]{0} parameter(224), sharding={devices=[2]<=[2]}, frontend_attributes={xla.sdy.sharding="#sdy.sharding<@mesh, [{\"fsdp\"}]>"}, metadata={op_name="variables[\'decoder\'][\'block\'][\'22\'][\'layer\'][\'2\'][\'layer_norm\'][\'weight\']"}
  %broadcast_in_dim.795 = f32[1,1,1024]{2,1,0} reshape(%variables__decoder____block____22____layer____2____layer_norm____weight__.1), metadata={op_name="jit(predict_step)/FlaxT5ForConditionalGenerationModule/decoder/block/22/layer/2/layer_norm/broadcast_in_dim" stack_frame_id=196}
  %mul.1574 = f32[1,1,1024]{2,1,0} broadcast(%broadcast_in_dim.795), dimensions={0,1,2}, metadata={op_name="jit(predict_step)/FlaxT5ForConditionalGenerationModule/decoder/block/22/layer/2/layer_norm/mul" stack_frame_id=196}
  %mul.1575 = f32[1024]{0} reshape(%mul.1574), metadata={op_name="jit(predict_step)/FlaxT5ForConditionalGenerationModule/decoder/block/22/layer/2/layer_norm/mul" stack_frame_id=196}
  %mul.1576 = f32[4,128,1024]{2,1,0} broadcast(%mul.1575), dimensions={2}, metadata={op_name="jit(predict_step)/FlaxT5ForConditionalGenerationModule/decoder/block/22/layer/2/layer_norm/mul" stack_frame_id=196}
  %integer_pow.427 = f32[4,128,1024]{2,1,0} multiply(%add.791, %add.791), metadata={op_name="jit(predict_step)/FlaxT5ForConditionalGenerationModule/decoder/block/22/layer/2/layer_norm/integer_pow" stack_frame_id=39}
  %reduce_sum.1545 = f32[4,128]{1,0} reduce(%integer_pow.427, %constant.69), dimensions={2}, to_apply=%region_259.267, metadata={op_name="jit(predict_step)/FlaxT5ForConditionalGenerationModule/decoder/block/22/layer/2/layer_norm/reduce_sum" stack_frame_id=39}
  %broadcast_in_dim.794 = f32[4,128,1]{2,1,0} reshape(%reduce_sum.1545), metadata={op_name="jit(predict_step)/FlaxT5ForConditionalGenerationModule/decoder/block/22/layer/2/layer_norm/broadcast_in_dim" stack_frame_id=39}
  %div.1917 = f32[4,128,1]{2,1,0} divide(%broadcast_in_dim.794, %broadcast.23), metadata={op_name="jit(predict_step)/FlaxT5ForConditionalGenerationModule/decoder/block/22/layer/2/layer_norm/div" stack_frame_id=39}
  %add.792 = f32[4,128,1]{2,1,0} add(%div.1917, %broadcast.22), metadata={op_name="jit(predict_step)/FlaxT5ForConditionalGenerationModule/decoder/block/22/layer/2/layer_norm/add" stack_frame_id=197}
  %sqrt.239 = f32[4,128,1]{2,1,0} sqrt(%add.792), metadata={op_name="jit(predict_step)/FlaxT5ForConditionalGenerationModule/decoder/block/22/layer/2/layer_norm/sqrt" stack_frame_id=198}
  %div.1918 = f32[4,128,1]{2,1,0} broadcast(%sqrt.239), dimensions={0,1,2}, metadata={op_name="jit(predict_step)/FlaxT5ForConditionalGenerationModule/decoder/block/22/layer/2/layer_norm/div" stack_frame_id=199}
  %div.1919 = f32[4,128]{1,0} reshape(%div.1918), metadata={op_name="jit(predict_step)/FlaxT5ForConditionalGenerationModule/decoder/block/22/layer/2/layer_norm/div" stack_frame_id=199}
  %div.1920 = f32[4,128,1024]{2,1,0} broadcast(%div.1919), dimensions={0,1}, metadata={op_name="jit(predict_step)/FlaxT5ForConditionalGenerationModule/decoder/block/22/layer/2/layer_norm/div" stack_frame_id=199}
  %div.1921 = f32[4,128,1024]{2,1,0} divide(%add.791, %div.1920), metadata={op_name="jit(predict_step)/FlaxT5ForConditionalGenerationModule/decoder/block/22/layer/2/layer_norm/div" stack_frame_id=199}
  %mul.1577 = f32[4,128,1024]{2,1,0} multiply(%mul.1576, %div.1921), metadata={op_name="jit(predict_step)/FlaxT5ForConditionalGenerationModule/decoder/block/22/layer/2/layer_norm/mul" stack_frame_id=196}
  %variables__decoder____block____22____layer____2____DenseReluDense____wi_0____kernel__.1 = f32[1024,2816]{1,0} parameter(221), sharding={devices=[2,1]<=[2]}, frontend_attributes={xla.sdy.sharding="#sdy.sharding<@mesh, [{\"fsdp\"}, {}]>"}, metadata={op_name="variables[\'decoder\'][\'block\'][\'22\'][\'layer\'][\'2\'][\'DenseReluDense\'][\'wi_0\'][\'kernel\']"}
  %dot_general.1136 = f32[4,128,2816]{2,1,0} dot(%mul.1577, %variables__decoder____block____22____layer____2____DenseReluDense____wi_0____kernel__.1), lhs_contracting_dims={2}, rhs_contracting_dims={0}, metadata={op_name="jit(predict_step)/FlaxT5ForConditionalGenerationModule/decoder/block/22/layer/2/DenseReluDense/wi_0/dot_general" stack_frame_id=202}
  %integer_pow.428 = f32[4,128,2816]{2,1,0} multiply(%dot_general.1136, %dot_general.1136), metadata={op_name="jit(predict_step)/FlaxT5ForConditionalGenerationModule/decoder/block/22/layer/2/DenseReluDense/integer_pow" stack_frame_id=203}
  %integer_pow.429 = f32[4,128,2816]{2,1,0} multiply(%integer_pow.428, %dot_general.1136), metadata={op_name="jit(predict_step)/FlaxT5ForConditionalGenerationModule/decoder/block/22/layer/2/DenseReluDense/integer_pow" stack_frame_id=203}
  %mul.1578 = f32[4,128,2816]{2,1,0} multiply(%integer_pow.429, %broadcast.17), metadata={op_name="jit(predict_step)/FlaxT5ForConditionalGenerationModule/decoder/block/22/layer/2/DenseReluDense/mul" stack_frame_id=203}
  %add.793 = f32[4,128,2816]{2,1,0} add(%dot_general.1136, %mul.1578), metadata={op_name="jit(predict_step)/FlaxT5ForConditionalGenerationModule/decoder/block/22/layer/2/DenseReluDense/add" stack_frame_id=203}
  %mul.1579 = f32[4,128,2816]{2,1,0} multiply(%add.793, %broadcast.16), metadata={op_name="jit(predict_step)/FlaxT5ForConditionalGenerationModule/decoder/block/22/layer/2/DenseReluDense/mul" stack_frame_id=203}
  %tanh.94 = f32[4,128,2816]{2,1,0} tanh(%mul.1579), metadata={op_name="jit(predict_step)/FlaxT5ForConditionalGenerationModule/decoder/block/22/layer/2/DenseReluDense/tanh" stack_frame_id=203}
  %add.794 = f32[4,128,2816]{2,1,0} add(%tanh.94, %broadcast.15), metadata={op_name="jit(predict_step)/FlaxT5ForConditionalGenerationModule/decoder/block/22/layer/2/DenseReluDense/add" stack_frame_id=203}
  %mul.1580 = f32[4,128,2816]{2,1,0} multiply(%add.794, %broadcast.14), metadata={op_name="jit(predict_step)/FlaxT5ForConditionalGenerationModule/decoder/block/22/layer/2/DenseReluDense/mul" stack_frame_id=203}
  %mul.1581 = f32[4,128,2816]{2,1,0} multiply(%dot_general.1136, %mul.1580), metadata={op_name="jit(predict_step)/FlaxT5ForConditionalGenerationModule/decoder/block/22/layer/2/DenseReluDense/mul" stack_frame_id=203}
  %variables__decoder____block____22____layer____2____DenseReluDense____wi_1____kernel__.1 = f32[1024,2816]{1,0} parameter(222), sharding={devices=[2,1]<=[2]}, frontend_attributes={xla.sdy.sharding="#sdy.sharding<@mesh, [{\"fsdp\"}, {}]>"}, metadata={op_name="variables[\'decoder\'][\'block\'][\'22\'][\'layer\'][\'2\'][\'DenseReluDense\'][\'wi_1\'][\'kernel\']"}
  %dot_general.1137 = f32[4,128,2816]{2,1,0} dot(%mul.1577, %variables__decoder____block____22____layer____2____DenseReluDense____wi_1____kernel__.1), lhs_contracting_dims={2}, rhs_contracting_dims={0}, metadata={op_name="jit(predict_step)/FlaxT5ForConditionalGenerationModule/decoder/block/22/layer/2/DenseReluDense/wi_1/dot_general" stack_frame_id=205}
  %mul.1582 = f32[4,128,2816]{2,1,0} multiply(%mul.1581, %dot_general.1137), metadata={op_name="jit(predict_step)/FlaxT5ForConditionalGenerationModule/decoder/block/22/layer/2/DenseReluDense/mul" stack_frame_id=206}
  %variables__decoder____block____22____layer____2____DenseReluDense____wo____kernel__.1 = f32[2816,1024]{1,0} parameter(223), sharding={devices=[2,1]<=[2]}, frontend_attributes={xla.sdy.sharding="#sdy.sharding<@mesh, [{\"fsdp\"}, {}]>"}, metadata={op_name="variables[\'decoder\'][\'block\'][\'22\'][\'layer\'][\'2\'][\'DenseReluDense\'][\'wo\'][\'kernel\']"}
  %dot_general.1138 = f32[4,128,1024]{2,1,0} dot(%mul.1582, %variables__decoder____block____22____layer____2____DenseReluDense____wo____kernel__.1), lhs_contracting_dims={2}, rhs_contracting_dims={0}, metadata={op_name="jit(predict_step)/FlaxT5ForConditionalGenerationModule/decoder/block/22/layer/2/DenseReluDense/wo/dot_general" stack_frame_id=208}
  %add.795 = f32[4,128,1024]{2,1,0} add(%add.791, %dot_general.1138), metadata={op_name="jit(predict_step)/FlaxT5ForConditionalGenerationModule/decoder/block/22/layer/2/add" stack_frame_id=209}
  %variables__decoder____block____23____layer____0____layer_norm____weight__.1 = f32[1024]{0} parameter(229), sharding={devices=[2]<=[2]}, frontend_attributes={xla.sdy.sharding="#sdy.sharding<@mesh, [{\"fsdp\"}]>"}, metadata={op_name="variables[\'decoder\'][\'block\'][\'23\'][\'layer\'][\'0\'][\'layer_norm\'][\'weight\']"}
  %broadcast_in_dim.797 = f32[1,1,1024]{2,1,0} reshape(%variables__decoder____block____23____layer____0____layer_norm____weight__.1), metadata={op_name="jit(predict_step)/FlaxT5ForConditionalGenerationModule/decoder/block/23/layer/0/layer_norm/broadcast_in_dim" stack_frame_id=45}
  %mul.1583 = f32[1,1,1024]{2,1,0} broadcast(%broadcast_in_dim.797), dimensions={0,1,2}, metadata={op_name="jit(predict_step)/FlaxT5ForConditionalGenerationModule/decoder/block/23/layer/0/layer_norm/mul" stack_frame_id=45}
  %mul.1584 = f32[1024]{0} reshape(%mul.1583), metadata={op_name="jit(predict_step)/FlaxT5ForConditionalGenerationModule/decoder/block/23/layer/0/layer_norm/mul" stack_frame_id=45}
  %mul.1585 = f32[4,128,1024]{2,1,0} broadcast(%mul.1584), dimensions={2}, metadata={op_name="jit(predict_step)/FlaxT5ForConditionalGenerationModule/decoder/block/23/layer/0/layer_norm/mul" stack_frame_id=45}
  %integer_pow.430 = f32[4,128,1024]{2,1,0} multiply(%add.795, %add.795), metadata={op_name="jit(predict_step)/FlaxT5ForConditionalGenerationModule/decoder/block/23/layer/0/layer_norm/integer_pow" stack_frame_id=27}
  %reduce_sum.1546 = f32[4,128]{1,0} reduce(%integer_pow.430, %constant.69), dimensions={2}, to_apply=%region_260.268, metadata={op_name="jit(predict_step)/FlaxT5ForConditionalGenerationModule/decoder/block/23/layer/0/layer_norm/reduce_sum" stack_frame_id=27}
  %broadcast_in_dim.796 = f32[4,128,1]{2,1,0} reshape(%reduce_sum.1546), metadata={op_name="jit(predict_step)/FlaxT5ForConditionalGenerationModule/decoder/block/23/layer/0/layer_norm/broadcast_in_dim" stack_frame_id=27}
  %div.1922 = f32[4,128,1]{2,1,0} divide(%broadcast_in_dim.796, %broadcast.23), metadata={op_name="jit(predict_step)/FlaxT5ForConditionalGenerationModule/decoder/block/23/layer/0/layer_norm/div" stack_frame_id=27}
  %add.796 = f32[4,128,1]{2,1,0} add(%div.1922, %broadcast.22), metadata={op_name="jit(predict_step)/FlaxT5ForConditionalGenerationModule/decoder/block/23/layer/0/layer_norm/add" stack_frame_id=46}
  %sqrt.240 = f32[4,128,1]{2,1,0} sqrt(%add.796), metadata={op_name="jit(predict_step)/FlaxT5ForConditionalGenerationModule/decoder/block/23/layer/0/layer_norm/sqrt" stack_frame_id=47}
  %div.1923 = f32[4,128,1]{2,1,0} broadcast(%sqrt.240), dimensions={0,1,2}, metadata={op_name="jit(predict_step)/FlaxT5ForConditionalGenerationModule/decoder/block/23/layer/0/layer_norm/div" stack_frame_id=48}
  %div.1924 = f32[4,128]{1,0} reshape(%div.1923), metadata={op_name="jit(predict_step)/FlaxT5ForConditionalGenerationModule/decoder/block/23/layer/0/layer_norm/div" stack_frame_id=48}
  %div.1925 = f32[4,128,1024]{2,1,0} broadcast(%div.1924), dimensions={0,1}, metadata={op_name="jit(predict_step)/FlaxT5ForConditionalGenerationModule/decoder/block/23/layer/0/layer_norm/div" stack_frame_id=48}
  %div.1926 = f32[4,128,1024]{2,1,0} divide(%add.795, %div.1925), metadata={op_name="jit(predict_step)/FlaxT5ForConditionalGenerationModule/decoder/block/23/layer/0/layer_norm/div" stack_frame_id=48}
  %mul.1586 = f32[4,128,1024]{2,1,0} multiply(%mul.1585, %div.1926), metadata={op_name="jit(predict_step)/FlaxT5ForConditionalGenerationModule/decoder/block/23/layer/0/layer_norm/mul" stack_frame_id=45}
  %variables__decoder____block____23____layer____0____SelfAttention____v____kernel__.1 = f32[1024,1024]{1,0} parameter(228), sharding={devices=[2,1]<=[2]}, frontend_attributes={xla.sdy.sharding="#sdy.sharding<@mesh, [{\"fsdp\"}, {}]>"}, metadata={op_name="variables[\'decoder\'][\'block\'][\'23\'][\'layer\'][\'0\'][\'SelfAttention\'][\'v\'][\'kernel\']"}
  %dot_general.1141 = f32[4,128,1024]{2,1,0} dot(%mul.1586, %variables__decoder____block____23____layer____0____SelfAttention____v____kernel__.1), lhs_contracting_dims={2}, rhs_contracting_dims={0}, metadata={op_name="jit(predict_step)/FlaxT5ForConditionalGenerationModule/decoder/block/23/layer/0/SelfAttention/v/dot_general" stack_frame_id=50}
  %reshape.570 = f32[4,128,16,64]{3,2,1,0} reshape(%dot_general.1141), metadata={op_name="jit(predict_step)/FlaxT5ForConditionalGenerationModule/decoder/block/23/layer/0/SelfAttention/SelfAttention._split_heads/reshape" stack_frame_id=52}
  %variables__decoder____block____23____layer____0____SelfAttention____q____kernel__.1 = f32[1024,1024]{1,0} parameter(227), sharding={devices=[2,1]<=[2]}, frontend_attributes={xla.sdy.sharding="#sdy.sharding<@mesh, [{\"fsdp\"}, {}]>"}, metadata={op_name="variables[\'decoder\'][\'block\'][\'23\'][\'layer\'][\'0\'][\'SelfAttention\'][\'q\'][\'kernel\']"}
  %dot_general.1139 = f32[4,128,1024]{2,1,0} dot(%mul.1586, %variables__decoder____block____23____layer____0____SelfAttention____q____kernel__.1), lhs_contracting_dims={2}, rhs_contracting_dims={0}, metadata={op_name="jit(predict_step)/FlaxT5ForConditionalGenerationModule/decoder/block/23/layer/0/SelfAttention/q/dot_general" stack_frame_id=54}
  %reshape.568 = f32[4,128,16,64]{3,2,1,0} reshape(%dot_general.1139), metadata={op_name="jit(predict_step)/FlaxT5ForConditionalGenerationModule/decoder/block/23/layer/0/SelfAttention/SelfAttention._split_heads/reshape" stack_frame_id=56}
  %mul.1587 = f32[4,128,16,64]{3,2,1,0} multiply(%reshape.568, %broadcast.21), metadata={op_name="jit(predict_step)/FlaxT5ForConditionalGenerationModule/decoder/block/23/layer/0/SelfAttention/mul" stack_frame_id=57}
  %div.1927 = f32[4,128,16,64]{3,2,1,0} divide(%mul.1587, %broadcast.21), metadata={op_name="jit(predict_step)/FlaxT5ForConditionalGenerationModule/decoder/block/23/layer/0/SelfAttention/div" stack_frame_id=58}
  %variables__decoder____block____23____layer____0____SelfAttention____k____kernel__.1 = f32[1024,1024]{1,0} parameter(225), sharding={devices=[2,1]<=[2]}, frontend_attributes={xla.sdy.sharding="#sdy.sharding<@mesh, [{\"fsdp\"}, {}]>"}, metadata={op_name="variables[\'decoder\'][\'block\'][\'23\'][\'layer\'][\'0\'][\'SelfAttention\'][\'k\'][\'kernel\']"}
  %dot_general.1140 = f32[4,128,1024]{2,1,0} dot(%mul.1586, %variables__decoder____block____23____layer____0____SelfAttention____k____kernel__.1), lhs_contracting_dims={2}, rhs_contracting_dims={0}, metadata={op_name="jit(predict_step)/FlaxT5ForConditionalGenerationModule/decoder/block/23/layer/0/SelfAttention/k/dot_general" stack_frame_id=60}
  %reshape.569 = f32[4,128,16,64]{3,2,1,0} reshape(%dot_general.1140), metadata={op_name="jit(predict_step)/FlaxT5ForConditionalGenerationModule/decoder/block/23/layer/0/SelfAttention/SelfAttention._split_heads/reshape" stack_frame_id=62}
  %dot_general.1142 = f32[4,16,128,128]{3,2,1,0} dot(%div.1927, %reshape.569), lhs_batch_dims={0,2}, lhs_contracting_dims={3}, rhs_batch_dims={0,2}, rhs_contracting_dims={3}, metadata={op_name="jit(predict_step)/FlaxT5ForConditionalGenerationModule/decoder/block/23/layer/0/SelfAttention/...qhd,...khd->...hqk/dot_general" stack_frame_id=63}
  %add.797 = f32[4,16,128,128]{3,2,1,0} add(%dot_general.1142, %add.589), metadata={op_name="jit(predict_step)/FlaxT5ForConditionalGenerationModule/decoder/block/23/layer/0/SelfAttention/add" stack_frame_id=96}
  %reduce_max.574 = f32[4,16,128]{2,1,0} reduce(%add.797, %constant.66), dimensions={3}, to_apply=%region_261.269, metadata={op_name="jit(predict_step)/FlaxT5ForConditionalGenerationModule/decoder/block/23/layer/0/SelfAttention/reduce_max" stack_frame_id=30}
  %max.142 = f32[4,16,128]{2,1,0} maximum(%reduce_max.574, %broadcast.18), metadata={op_name="jit(predict_step)/FlaxT5ForConditionalGenerationModule/decoder/block/23/layer/0/SelfAttention/max" stack_frame_id=30}
  %broadcast_in_dim.798 = f32[4,16,128,1]{3,2,1,0} reshape(%max.142), metadata={op_name="jit(predict_step)/FlaxT5ForConditionalGenerationModule/decoder/block/23/layer/0/SelfAttention/broadcast_in_dim" stack_frame_id=30}
  %sub.596 = f32[4,16,128,1]{3,2,1,0} broadcast(%broadcast_in_dim.798), dimensions={0,1,2,3}, metadata={op_name="jit(predict_step)/FlaxT5ForConditionalGenerationModule/decoder/block/23/layer/0/SelfAttention/sub" stack_frame_id=30}
  %sub.597 = f32[4,16,128]{2,1,0} reshape(%sub.596), metadata={op_name="jit(predict_step)/FlaxT5ForConditionalGenerationModule/decoder/block/23/layer/0/SelfAttention/sub" stack_frame_id=30}
  %sub.598 = f32[4,16,128,128]{3,2,1,0} broadcast(%sub.597), dimensions={0,1,2}, metadata={op_name="jit(predict_step)/FlaxT5ForConditionalGenerationModule/decoder/block/23/layer/0/SelfAttention/sub" stack_frame_id=30}
  %sub.599 = f32[4,16,128,128]{3,2,1,0} subtract(%add.797, %sub.598), metadata={op_name="jit(predict_step)/FlaxT5ForConditionalGenerationModule/decoder/block/23/layer/0/SelfAttention/sub" stack_frame_id=30}
  %exp.142 = f32[4,16,128,128]{3,2,1,0} exponential(%sub.599), metadata={op_name="jit(predict_step)/FlaxT5ForConditionalGenerationModule/decoder/block/23/layer/0/SelfAttention/exp" stack_frame_id=30}
  %reduce_sum.1547 = f32[4,16,128]{2,1,0} reduce(%exp.142, %constant.69), dimensions={3}, to_apply=%region_262.270, metadata={op_name="jit(predict_step)/FlaxT5ForConditionalGenerationModule/decoder/block/23/layer/0/SelfAttention/reduce_sum" stack_frame_id=30}
  %broadcast_in_dim.799 = f32[4,16,128,1]{3,2,1,0} reshape(%reduce_sum.1547), metadata={op_name="jit(predict_step)/FlaxT5ForConditionalGenerationModule/decoder/block/23/layer/0/SelfAttention/broadcast_in_dim" stack_frame_id=30}
  %div.1928 = f32[4,16,128,1]{3,2,1,0} broadcast(%broadcast_in_dim.799), dimensions={0,1,2,3}, metadata={op_name="jit(predict_step)/FlaxT5ForConditionalGenerationModule/decoder/block/23/layer/0/SelfAttention/div" stack_frame_id=30}
  %div.1929 = f32[4,16,128]{2,1,0} reshape(%div.1928), metadata={op_name="jit(predict_step)/FlaxT5ForConditionalGenerationModule/decoder/block/23/layer/0/SelfAttention/div" stack_frame_id=30}
  %div.1930 = f32[4,16,128,128]{3,2,1,0} broadcast(%div.1929), dimensions={0,1,2}, metadata={op_name="jit(predict_step)/FlaxT5ForConditionalGenerationModule/decoder/block/23/layer/0/SelfAttention/div" stack_frame_id=30}
  %div.1931 = f32[4,16,128,128]{3,2,1,0} divide(%exp.142, %div.1930), metadata={op_name="jit(predict_step)/FlaxT5ForConditionalGenerationModule/decoder/block/23/layer/0/SelfAttention/div" stack_frame_id=30}
  %dot_general.1143 = f32[4,16,64,128]{3,2,1,0} dot(%reshape.570, %div.1931), lhs_batch_dims={0,2}, lhs_contracting_dims={1}, rhs_batch_dims={0,1}, rhs_contracting_dims={3}, metadata={op_name="jit(predict_step)/FlaxT5ForConditionalGenerationModule/decoder/block/23/layer/0/SelfAttention/...hqk,...khd->...qhd/dot_general" stack_frame_id=97}
  %transpose.146 = f32[4,128,16,64]{1,3,2,0} transpose(%dot_general.1143), dimensions={0,3,1,2}, metadata={op_name="jit(predict_step)/FlaxT5ForConditionalGenerationModule/decoder/block/23/layer/0/SelfAttention/...hqk,...khd->...qhd/transpose" stack_frame_id=97}
  %reshape.571 = f32[4,128,1024]{2,1,0} reshape(%transpose.146), metadata={op_name="jit(predict_step)/FlaxT5ForConditionalGenerationModule/decoder/block/23/layer/0/SelfAttention/SelfAttention._merge_heads/reshape" stack_frame_id=99}
  %variables__decoder____block____23____layer____0____SelfAttention____o____kernel__.1 = f32[1024,1024]{1,0} parameter(226), sharding={devices=[2,1]<=[2]}, frontend_attributes={xla.sdy.sharding="#sdy.sharding<@mesh, [{\"fsdp\"}, {}]>"}, metadata={op_name="variables[\'decoder\'][\'block\'][\'23\'][\'layer\'][\'0\'][\'SelfAttention\'][\'o\'][\'kernel\']"}
  %dot_general.1144 = f32[4,128,1024]{2,1,0} dot(%reshape.571, %variables__decoder____block____23____layer____0____SelfAttention____o____kernel__.1), lhs_contracting_dims={2}, rhs_contracting_dims={0}, metadata={op_name="jit(predict_step)/FlaxT5ForConditionalGenerationModule/decoder/block/23/layer/0/SelfAttention/o/dot_general" stack_frame_id=101}
  %add.798 = f32[4,128,1024]{2,1,0} add(%add.795, %dot_general.1144), metadata={op_name="jit(predict_step)/FlaxT5ForConditionalGenerationModule/decoder/block/23/layer/0/add" stack_frame_id=102}
  %variables__decoder____block____23____layer____1____EncDecAttention____v____kernel__.1 = f32[1024,1024]{1,0} parameter(233), sharding={devices=[2,1]<=[2]}, frontend_attributes={xla.sdy.sharding="#sdy.sharding<@mesh, [{\"fsdp\"}, {}]>"}, metadata={op_name="variables[\'decoder\'][\'block\'][\'23\'][\'layer\'][\'1\'][\'EncDecAttention\'][\'v\'][\'kernel\']"}
  %dot_general.1147 = f32[4,128,1024]{2,1,0} dot(%mul.1144, %variables__decoder____block____23____layer____1____EncDecAttention____v____kernel__.1), lhs_contracting_dims={2}, rhs_contracting_dims={0}, metadata={op_name="jit(predict_step)/FlaxT5ForConditionalGenerationModule/decoder/block/23/layer/1/EncDecAttention/v/dot_general" stack_frame_id=172}
  %reshape.574 = f32[4,128,16,64]{3,2,1,0} reshape(%dot_general.1147), metadata={op_name="jit(predict_step)/FlaxT5ForConditionalGenerationModule/decoder/block/23/layer/1/EncDecAttention/EncDecAttention._split_heads/reshape" stack_frame_id=174}
  %variables__decoder____block____23____layer____1____layer_norm____weight__.1 = f32[1024]{0} parameter(234), sharding={devices=[2]<=[2]}, frontend_attributes={xla.sdy.sharding="#sdy.sharding<@mesh, [{\"fsdp\"}]>"}, metadata={op_name="variables[\'decoder\'][\'block\'][\'23\'][\'layer\'][\'1\'][\'layer_norm\'][\'weight\']"}
  %broadcast_in_dim.801 = f32[1,1,1024]{2,1,0} reshape(%variables__decoder____block____23____layer____1____layer_norm____weight__.1), metadata={op_name="jit(predict_step)/FlaxT5ForConditionalGenerationModule/decoder/block/23/layer/1/layer_norm/broadcast_in_dim" stack_frame_id=175}
  %mul.1588 = f32[1,1,1024]{2,1,0} broadcast(%broadcast_in_dim.801), dimensions={0,1,2}, metadata={op_name="jit(predict_step)/FlaxT5ForConditionalGenerationModule/decoder/block/23/layer/1/layer_norm/mul" stack_frame_id=175}
  %mul.1589 = f32[1024]{0} reshape(%mul.1588), metadata={op_name="jit(predict_step)/FlaxT5ForConditionalGenerationModule/decoder/block/23/layer/1/layer_norm/mul" stack_frame_id=175}
  %mul.1590 = f32[4,128,1024]{2,1,0} broadcast(%mul.1589), dimensions={2}, metadata={op_name="jit(predict_step)/FlaxT5ForConditionalGenerationModule/decoder/block/23/layer/1/layer_norm/mul" stack_frame_id=175}
  %integer_pow.431 = f32[4,128,1024]{2,1,0} multiply(%add.798, %add.798), metadata={op_name="jit(predict_step)/FlaxT5ForConditionalGenerationModule/decoder/block/23/layer/1/layer_norm/integer_pow" stack_frame_id=33}
  %reduce_sum.1548 = f32[4,128]{1,0} reduce(%integer_pow.431, %constant.69), dimensions={2}, to_apply=%region_263.271, metadata={op_name="jit(predict_step)/FlaxT5ForConditionalGenerationModule/decoder/block/23/layer/1/layer_norm/reduce_sum" stack_frame_id=33}
  %broadcast_in_dim.800 = f32[4,128,1]{2,1,0} reshape(%reduce_sum.1548), metadata={op_name="jit(predict_step)/FlaxT5ForConditionalGenerationModule/decoder/block/23/layer/1/layer_norm/broadcast_in_dim" stack_frame_id=33}
  %div.1932 = f32[4,128,1]{2,1,0} divide(%broadcast_in_dim.800, %broadcast.23), metadata={op_name="jit(predict_step)/FlaxT5ForConditionalGenerationModule/decoder/block/23/layer/1/layer_norm/div" stack_frame_id=33}
  %add.799 = f32[4,128,1]{2,1,0} add(%div.1932, %broadcast.22), metadata={op_name="jit(predict_step)/FlaxT5ForConditionalGenerationModule/decoder/block/23/layer/1/layer_norm/add" stack_frame_id=176}
  %sqrt.241 = f32[4,128,1]{2,1,0} sqrt(%add.799), metadata={op_name="jit(predict_step)/FlaxT5ForConditionalGenerationModule/decoder/block/23/layer/1/layer_norm/sqrt" stack_frame_id=177}
  %div.1933 = f32[4,128,1]{2,1,0} broadcast(%sqrt.241), dimensions={0,1,2}, metadata={op_name="jit(predict_step)/FlaxT5ForConditionalGenerationModule/decoder/block/23/layer/1/layer_norm/div" stack_frame_id=178}
  %div.1934 = f32[4,128]{1,0} reshape(%div.1933), metadata={op_name="jit(predict_step)/FlaxT5ForConditionalGenerationModule/decoder/block/23/layer/1/layer_norm/div" stack_frame_id=178}
  %div.1935 = f32[4,128,1024]{2,1,0} broadcast(%div.1934), dimensions={0,1}, metadata={op_name="jit(predict_step)/FlaxT5ForConditionalGenerationModule/decoder/block/23/layer/1/layer_norm/div" stack_frame_id=178}
  %div.1936 = f32[4,128,1024]{2,1,0} divide(%add.798, %div.1935), metadata={op_name="jit(predict_step)/FlaxT5ForConditionalGenerationModule/decoder/block/23/layer/1/layer_norm/div" stack_frame_id=178}
  %mul.1591 = f32[4,128,1024]{2,1,0} multiply(%mul.1590, %div.1936), metadata={op_name="jit(predict_step)/FlaxT5ForConditionalGenerationModule/decoder/block/23/layer/1/layer_norm/mul" stack_frame_id=175}
  %variables__decoder____block____23____layer____1____EncDecAttention____q____kernel__.1 = f32[1024,1024]{1,0} parameter(232), sharding={devices=[2,1]<=[2]}, frontend_attributes={xla.sdy.sharding="#sdy.sharding<@mesh, [{\"fsdp\"}, {}]>"}, metadata={op_name="variables[\'decoder\'][\'block\'][\'23\'][\'layer\'][\'1\'][\'EncDecAttention\'][\'q\'][\'kernel\']"}
  %dot_general.1145 = f32[4,128,1024]{2,1,0} dot(%mul.1591, %variables__decoder____block____23____layer____1____EncDecAttention____q____kernel__.1), lhs_contracting_dims={2}, rhs_contracting_dims={0}, metadata={op_name="jit(predict_step)/FlaxT5ForConditionalGenerationModule/decoder/block/23/layer/1/EncDecAttention/q/dot_general" stack_frame_id=180}
  %reshape.572 = f32[4,128,16,64]{3,2,1,0} reshape(%dot_general.1145), metadata={op_name="jit(predict_step)/FlaxT5ForConditionalGenerationModule/decoder/block/23/layer/1/EncDecAttention/EncDecAttention._split_heads/reshape" stack_frame_id=182}
  %mul.1592 = f32[4,128,16,64]{3,2,1,0} multiply(%reshape.572, %broadcast.21), metadata={op_name="jit(predict_step)/FlaxT5ForConditionalGenerationModule/decoder/block/23/layer/1/EncDecAttention/mul" stack_frame_id=183}
  %div.1937 = f32[4,128,16,64]{3,2,1,0} divide(%mul.1592, %broadcast.21), metadata={op_name="jit(predict_step)/FlaxT5ForConditionalGenerationModule/decoder/block/23/layer/1/EncDecAttention/div" stack_frame_id=184}
  %variables__decoder____block____23____layer____1____EncDecAttention____k____kernel__.1 = f32[1024,1024]{1,0} parameter(230), sharding={devices=[2,1]<=[2]}, frontend_attributes={xla.sdy.sharding="#sdy.sharding<@mesh, [{\"fsdp\"}, {}]>"}, metadata={op_name="variables[\'decoder\'][\'block\'][\'23\'][\'layer\'][\'1\'][\'EncDecAttention\'][\'k\'][\'kernel\']"}
  %dot_general.1146 = f32[4,128,1024]{2,1,0} dot(%mul.1144, %variables__decoder____block____23____layer____1____EncDecAttention____k____kernel__.1), lhs_contracting_dims={2}, rhs_contracting_dims={0}, metadata={op_name="jit(predict_step)/FlaxT5ForConditionalGenerationModule/decoder/block/23/layer/1/EncDecAttention/k/dot_general" stack_frame_id=186}
  %reshape.573 = f32[4,128,16,64]{3,2,1,0} reshape(%dot_general.1146), metadata={op_name="jit(predict_step)/FlaxT5ForConditionalGenerationModule/decoder/block/23/layer/1/EncDecAttention/EncDecAttention._split_heads/reshape" stack_frame_id=188}
  %dot_general.1148 = f32[4,16,128,128]{3,2,1,0} dot(%div.1937, %reshape.573), lhs_batch_dims={0,2}, lhs_contracting_dims={3}, rhs_batch_dims={0,2}, rhs_contracting_dims={3}, metadata={op_name="jit(predict_step)/FlaxT5ForConditionalGenerationModule/decoder/block/23/layer/1/EncDecAttention/...qhd,...khd->...hqk/dot_general" stack_frame_id=189}
  %reduce_max.575 = f32[4,16,128]{2,1,0} reduce(%dot_general.1148, %constant.66), dimensions={3}, to_apply=%region_264.272, metadata={op_name="jit(predict_step)/FlaxT5ForConditionalGenerationModule/decoder/block/23/layer/1/EncDecAttention/reduce_max" stack_frame_id=36}
  %max.143 = f32[4,16,128]{2,1,0} maximum(%reduce_max.575, %broadcast.18), metadata={op_name="jit(predict_step)/FlaxT5ForConditionalGenerationModule/decoder/block/23/layer/1/EncDecAttention/max" stack_frame_id=36}
  %broadcast_in_dim.802 = f32[4,16,128,1]{3,2,1,0} reshape(%max.143), metadata={op_name="jit(predict_step)/FlaxT5ForConditionalGenerationModule/decoder/block/23/layer/1/EncDecAttention/broadcast_in_dim" stack_frame_id=36}
  %sub.600 = f32[4,16,128,1]{3,2,1,0} broadcast(%broadcast_in_dim.802), dimensions={0,1,2,3}, metadata={op_name="jit(predict_step)/FlaxT5ForConditionalGenerationModule/decoder/block/23/layer/1/EncDecAttention/sub" stack_frame_id=36}
  %sub.601 = f32[4,16,128]{2,1,0} reshape(%sub.600), metadata={op_name="jit(predict_step)/FlaxT5ForConditionalGenerationModule/decoder/block/23/layer/1/EncDecAttention/sub" stack_frame_id=36}
  %sub.602 = f32[4,16,128,128]{3,2,1,0} broadcast(%sub.601), dimensions={0,1,2}, metadata={op_name="jit(predict_step)/FlaxT5ForConditionalGenerationModule/decoder/block/23/layer/1/EncDecAttention/sub" stack_frame_id=36}
  %sub.603 = f32[4,16,128,128]{3,2,1,0} subtract(%dot_general.1148, %sub.602), metadata={op_name="jit(predict_step)/FlaxT5ForConditionalGenerationModule/decoder/block/23/layer/1/EncDecAttention/sub" stack_frame_id=36}
  %exp.143 = f32[4,16,128,128]{3,2,1,0} exponential(%sub.603), metadata={op_name="jit(predict_step)/FlaxT5ForConditionalGenerationModule/decoder/block/23/layer/1/EncDecAttention/exp" stack_frame_id=36}
  %reduce_sum.1549 = f32[4,16,128]{2,1,0} reduce(%exp.143, %constant.69), dimensions={3}, to_apply=%region_265.273, metadata={op_name="jit(predict_step)/FlaxT5ForConditionalGenerationModule/decoder/block/23/layer/1/EncDecAttention/reduce_sum" stack_frame_id=36}
  %broadcast_in_dim.803 = f32[4,16,128,1]{3,2,1,0} reshape(%reduce_sum.1549), metadata={op_name="jit(predict_step)/FlaxT5ForConditionalGenerationModule/decoder/block/23/layer/1/EncDecAttention/broadcast_in_dim" stack_frame_id=36}
  %div.1938 = f32[4,16,128,1]{3,2,1,0} broadcast(%broadcast_in_dim.803), dimensions={0,1,2,3}, metadata={op_name="jit(predict_step)/FlaxT5ForConditionalGenerationModule/decoder/block/23/layer/1/EncDecAttention/div" stack_frame_id=36}
  %div.1939 = f32[4,16,128]{2,1,0} reshape(%div.1938), metadata={op_name="jit(predict_step)/FlaxT5ForConditionalGenerationModule/decoder/block/23/layer/1/EncDecAttention/div" stack_frame_id=36}
  %div.1940 = f32[4,16,128,128]{3,2,1,0} broadcast(%div.1939), dimensions={0,1,2}, metadata={op_name="jit(predict_step)/FlaxT5ForConditionalGenerationModule/decoder/block/23/layer/1/EncDecAttention/div" stack_frame_id=36}
  %div.1941 = f32[4,16,128,128]{3,2,1,0} divide(%exp.143, %div.1940), metadata={op_name="jit(predict_step)/FlaxT5ForConditionalGenerationModule/decoder/block/23/layer/1/EncDecAttention/div" stack_frame_id=36}
  %dot_general.1149 = f32[4,16,64,128]{3,2,1,0} dot(%reshape.574, %div.1941), lhs_batch_dims={0,2}, lhs_contracting_dims={1}, rhs_batch_dims={0,1}, rhs_contracting_dims={3}, metadata={op_name="jit(predict_step)/FlaxT5ForConditionalGenerationModule/decoder/block/23/layer/1/EncDecAttention/...hqk,...khd->...qhd/dot_general" stack_frame_id=190}
  %transpose.147 = f32[4,128,16,64]{1,3,2,0} transpose(%dot_general.1149), dimensions={0,3,1,2}, metadata={op_name="jit(predict_step)/FlaxT5ForConditionalGenerationModule/decoder/block/23/layer/1/EncDecAttention/...hqk,...khd->...qhd/transpose" stack_frame_id=190}
  %reshape.575 = f32[4,128,1024]{2,1,0} reshape(%transpose.147), metadata={op_name="jit(predict_step)/FlaxT5ForConditionalGenerationModule/decoder/block/23/layer/1/EncDecAttention/EncDecAttention._merge_heads/reshape" stack_frame_id=192}
  %variables__decoder____block____23____layer____1____EncDecAttention____o____kernel__.1 = f32[1024,1024]{1,0} parameter(231), sharding={devices=[2,1]<=[2]}, frontend_attributes={xla.sdy.sharding="#sdy.sharding<@mesh, [{\"fsdp\"}, {}]>"}, metadata={op_name="variables[\'decoder\'][\'block\'][\'23\'][\'layer\'][\'1\'][\'EncDecAttention\'][\'o\'][\'kernel\']"}
  %dot_general.1150 = f32[4,128,1024]{2,1,0} dot(%reshape.575, %variables__decoder____block____23____layer____1____EncDecAttention____o____kernel__.1), lhs_contracting_dims={2}, rhs_contracting_dims={0}, metadata={op_name="jit(predict_step)/FlaxT5ForConditionalGenerationModule/decoder/block/23/layer/1/EncDecAttention/o/dot_general" stack_frame_id=194}
  %add.800 = f32[4,128,1024]{2,1,0} add(%add.798, %dot_general.1150), metadata={op_name="jit(predict_step)/FlaxT5ForConditionalGenerationModule/decoder/block/23/layer/1/add" stack_frame_id=195}
  %variables__decoder____block____23____layer____2____layer_norm____weight__.1 = f32[1024]{0} parameter(238), sharding={devices=[2]<=[2]}, frontend_attributes={xla.sdy.sharding="#sdy.sharding<@mesh, [{\"fsdp\"}]>"}, metadata={op_name="variables[\'decoder\'][\'block\'][\'23\'][\'layer\'][\'2\'][\'layer_norm\'][\'weight\']"}
  %broadcast_in_dim.805 = f32[1,1,1024]{2,1,0} reshape(%variables__decoder____block____23____layer____2____layer_norm____weight__.1), metadata={op_name="jit(predict_step)/FlaxT5ForConditionalGenerationModule/decoder/block/23/layer/2/layer_norm/broadcast_in_dim" stack_frame_id=196}
  %mul.1593 = f32[1,1,1024]{2,1,0} broadcast(%broadcast_in_dim.805), dimensions={0,1,2}, metadata={op_name="jit(predict_step)/FlaxT5ForConditionalGenerationModule/decoder/block/23/layer/2/layer_norm/mul" stack_frame_id=196}
  %mul.1594 = f32[1024]{0} reshape(%mul.1593), metadata={op_name="jit(predict_step)/FlaxT5ForConditionalGenerationModule/decoder/block/23/layer/2/layer_norm/mul" stack_frame_id=196}
  %mul.1595 = f32[4,128,1024]{2,1,0} broadcast(%mul.1594), dimensions={2}, metadata={op_name="jit(predict_step)/FlaxT5ForConditionalGenerationModule/decoder/block/23/layer/2/layer_norm/mul" stack_frame_id=196}
  %integer_pow.432 = f32[4,128,1024]{2,1,0} multiply(%add.800, %add.800), metadata={op_name="jit(predict_step)/FlaxT5ForConditionalGenerationModule/decoder/block/23/layer/2/layer_norm/integer_pow" stack_frame_id=39}
  %reduce_sum.1550 = f32[4,128]{1,0} reduce(%integer_pow.432, %constant.69), dimensions={2}, to_apply=%region_266.274, metadata={op_name="jit(predict_step)/FlaxT5ForConditionalGenerationModule/decoder/block/23/layer/2/layer_norm/reduce_sum" stack_frame_id=39}
  %broadcast_in_dim.804 = f32[4,128,1]{2,1,0} reshape(%reduce_sum.1550), metadata={op_name="jit(predict_step)/FlaxT5ForConditionalGenerationModule/decoder/block/23/layer/2/layer_norm/broadcast_in_dim" stack_frame_id=39}
  %div.1942 = f32[4,128,1]{2,1,0} divide(%broadcast_in_dim.804, %broadcast.23), metadata={op_name="jit(predict_step)/FlaxT5ForConditionalGenerationModule/decoder/block/23/layer/2/layer_norm/div" stack_frame_id=39}
  %add.801 = f32[4,128,1]{2,1,0} add(%div.1942, %broadcast.22), metadata={op_name="jit(predict_step)/FlaxT5ForConditionalGenerationModule/decoder/block/23/layer/2/layer_norm/add" stack_frame_id=197}
  %sqrt.242 = f32[4,128,1]{2,1,0} sqrt(%add.801), metadata={op_name="jit(predict_step)/FlaxT5ForConditionalGenerationModule/decoder/block/23/layer/2/layer_norm/sqrt" stack_frame_id=198}
  %div.1943 = f32[4,128,1]{2,1,0} broadcast(%sqrt.242), dimensions={0,1,2}, metadata={op_name="jit(predict_step)/FlaxT5ForConditionalGenerationModule/decoder/block/23/layer/2/layer_norm/div" stack_frame_id=199}
  %div.1944 = f32[4,128]{1,0} reshape(%div.1943), metadata={op_name="jit(predict_step)/FlaxT5ForConditionalGenerationModule/decoder/block/23/layer/2/layer_norm/div" stack_frame_id=199}
  %div.1945 = f32[4,128,1024]{2,1,0} broadcast(%div.1944), dimensions={0,1}, metadata={op_name="jit(predict_step)/FlaxT5ForConditionalGenerationModule/decoder/block/23/layer/2/layer_norm/div" stack_frame_id=199}
  %div.1946 = f32[4,128,1024]{2,1,0} divide(%add.800, %div.1945), metadata={op_name="jit(predict_step)/FlaxT5ForConditionalGenerationModule/decoder/block/23/layer/2/layer_norm/div" stack_frame_id=199}
  %mul.1596 = f32[4,128,1024]{2,1,0} multiply(%mul.1595, %div.1946), metadata={op_name="jit(predict_step)/FlaxT5ForConditionalGenerationModule/decoder/block/23/layer/2/layer_norm/mul" stack_frame_id=196}
  %variables__decoder____block____23____layer____2____DenseReluDense____wi_0____kernel__.1 = f32[1024,2816]{1,0} parameter(235), sharding={devices=[2,1]<=[2]}, frontend_attributes={xla.sdy.sharding="#sdy.sharding<@mesh, [{\"fsdp\"}, {}]>"}, metadata={op_name="variables[\'decoder\'][\'block\'][\'23\'][\'layer\'][\'2\'][\'DenseReluDense\'][\'wi_0\'][\'kernel\']"}
  %dot_general.1151 = f32[4,128,2816]{2,1,0} dot(%mul.1596, %variables__decoder____block____23____layer____2____DenseReluDense____wi_0____kernel__.1), lhs_contracting_dims={2}, rhs_contracting_dims={0}, metadata={op_name="jit(predict_step)/FlaxT5ForConditionalGenerationModule/decoder/block/23/layer/2/DenseReluDense/wi_0/dot_general" stack_frame_id=202}
  %integer_pow.433 = f32[4,128,2816]{2,1,0} multiply(%dot_general.1151, %dot_general.1151), metadata={op_name="jit(predict_step)/FlaxT5ForConditionalGenerationModule/decoder/block/23/layer/2/DenseReluDense/integer_pow" stack_frame_id=203}
  %integer_pow.434 = f32[4,128,2816]{2,1,0} multiply(%integer_pow.433, %dot_general.1151), metadata={op_name="jit(predict_step)/FlaxT5ForConditionalGenerationModule/decoder/block/23/layer/2/DenseReluDense/integer_pow" stack_frame_id=203}
  %mul.1597 = f32[4,128,2816]{2,1,0} multiply(%integer_pow.434, %broadcast.17), metadata={op_name="jit(predict_step)/FlaxT5ForConditionalGenerationModule/decoder/block/23/layer/2/DenseReluDense/mul" stack_frame_id=203}
  %add.802 = f32[4,128,2816]{2,1,0} add(%dot_general.1151, %mul.1597), metadata={op_name="jit(predict_step)/FlaxT5ForConditionalGenerationModule/decoder/block/23/layer/2/DenseReluDense/add" stack_frame_id=203}
  %mul.1598 = f32[4,128,2816]{2,1,0} multiply(%add.802, %broadcast.16), metadata={op_name="jit(predict_step)/FlaxT5ForConditionalGenerationModule/decoder/block/23/layer/2/DenseReluDense/mul" stack_frame_id=203}
  %tanh.95 = f32[4,128,2816]{2,1,0} tanh(%mul.1598), metadata={op_name="jit(predict_step)/FlaxT5ForConditionalGenerationModule/decoder/block/23/layer/2/DenseReluDense/tanh" stack_frame_id=203}
  %add.803 = f32[4,128,2816]{2,1,0} add(%tanh.95, %broadcast.15), metadata={op_name="jit(predict_step)/FlaxT5ForConditionalGenerationModule/decoder/block/23/layer/2/DenseReluDense/add" stack_frame_id=203}
  %mul.1599 = f32[4,128,2816]{2,1,0} multiply(%add.803, %broadcast.14), metadata={op_name="jit(predict_step)/FlaxT5ForConditionalGenerationModule/decoder/block/23/layer/2/DenseReluDense/mul" stack_frame_id=203}
  %mul.1600 = f32[4,128,2816]{2,1,0} multiply(%dot_general.1151, %mul.1599), metadata={op_name="jit(predict_step)/FlaxT5ForConditionalGenerationModule/decoder/block/23/layer/2/DenseReluDense/mul" stack_frame_id=203}
  %variables__decoder____block____23____layer____2____DenseReluDense____wi_1____kernel__.1 = f32[1024,2816]{1,0} parameter(236), sharding={devices=[2,1]<=[2]}, frontend_attributes={xla.sdy.sharding="#sdy.sharding<@mesh, [{\"fsdp\"}, {}]>"}, metadata={op_name="variables[\'decoder\'][\'block\'][\'23\'][\'layer\'][\'2\'][\'DenseReluDense\'][\'wi_1\'][\'kernel\']"}
  %dot_general.1152 = f32[4,128,2816]{2,1,0} dot(%mul.1596, %variables__decoder____block____23____layer____2____DenseReluDense____wi_1____kernel__.1), lhs_contracting_dims={2}, rhs_contracting_dims={0}, metadata={op_name="jit(predict_step)/FlaxT5ForConditionalGenerationModule/decoder/block/23/layer/2/DenseReluDense/wi_1/dot_general" stack_frame_id=205}
  %mul.1601 = f32[4,128,2816]{2,1,0} multiply(%mul.1600, %dot_general.1152), metadata={op_name="jit(predict_step)/FlaxT5ForConditionalGenerationModule/decoder/block/23/layer/2/DenseReluDense/mul" stack_frame_id=206}
  %variables__decoder____block____23____layer____2____DenseReluDense____wo____kernel__.1 = f32[2816,1024]{1,0} parameter(237), sharding={devices=[2,1]<=[2]}, frontend_attributes={xla.sdy.sharding="#sdy.sharding<@mesh, [{\"fsdp\"}, {}]>"}, metadata={op_name="variables[\'decoder\'][\'block\'][\'23\'][\'layer\'][\'2\'][\'DenseReluDense\'][\'wo\'][\'kernel\']"}
  %dot_general.1153 = f32[4,128,1024]{2,1,0} dot(%mul.1601, %variables__decoder____block____23____layer____2____DenseReluDense____wo____kernel__.1), lhs_contracting_dims={2}, rhs_contracting_dims={0}, metadata={op_name="jit(predict_step)/FlaxT5ForConditionalGenerationModule/decoder/block/23/layer/2/DenseReluDense/wo/dot_general" stack_frame_id=208}
  %add.804 = f32[4,128,1024]{2,1,0} add(%add.800, %dot_general.1153), metadata={op_name="jit(predict_step)/FlaxT5ForConditionalGenerationModule/decoder/block/23/layer/2/add" stack_frame_id=209}
  %integer_pow.435 = f32[4,128,1024]{2,1,0} multiply(%add.804, %add.804), metadata={op_name="jit(predict_step)/FlaxT5ForConditionalGenerationModule/decoder/final_layer_norm/integer_pow" stack_frame_id=41}
  %reduce_sum.1551 = f32[4,128]{1,0} reduce(%integer_pow.435, %constant.69), dimensions={2}, to_apply=%region_267.275, metadata={op_name="jit(predict_step)/FlaxT5ForConditionalGenerationModule/decoder/final_layer_norm/reduce_sum" stack_frame_id=41}
  %broadcast_in_dim.806 = f32[4,128,1]{2,1,0} reshape(%reduce_sum.1551), metadata={op_name="jit(predict_step)/FlaxT5ForConditionalGenerationModule/decoder/final_layer_norm/broadcast_in_dim" stack_frame_id=41}
  %div.1947 = f32[4,128,1]{2,1,0} divide(%broadcast_in_dim.806, %broadcast.23), metadata={op_name="jit(predict_step)/FlaxT5ForConditionalGenerationModule/decoder/final_layer_norm/div" stack_frame_id=41}
  %add.805 = f32[4,128,1]{2,1,0} add(%div.1947, %broadcast.22), metadata={op_name="jit(predict_step)/FlaxT5ForConditionalGenerationModule/decoder/final_layer_norm/add" stack_frame_id=210}
  %sqrt.243 = f32[4,128,1]{2,1,0} sqrt(%add.805), metadata={op_name="jit(predict_step)/FlaxT5ForConditionalGenerationModule/decoder/final_layer_norm/sqrt" stack_frame_id=211}
  %div.1948 = f32[4,128,1]{2,1,0} broadcast(%sqrt.243), dimensions={0,1,2}, metadata={op_name="jit(predict_step)/FlaxT5ForConditionalGenerationModule/decoder/final_layer_norm/div" stack_frame_id=212}
  %div.1949 = f32[4,128]{1,0} reshape(%div.1948), metadata={op_name="jit(predict_step)/FlaxT5ForConditionalGenerationModule/decoder/final_layer_norm/div" stack_frame_id=212}
  %div.1950 = f32[4,128,1024]{2,1,0} broadcast(%div.1949), dimensions={0,1}, metadata={op_name="jit(predict_step)/FlaxT5ForConditionalGenerationModule/decoder/final_layer_norm/div" stack_frame_id=212}
  %div.1951 = f32[4,128,1024]{2,1,0} divide(%add.804, %div.1950), metadata={op_name="jit(predict_step)/FlaxT5ForConditionalGenerationModule/decoder/final_layer_norm/div" stack_frame_id=212}
  %mul.1605 = f32[4,128,1024]{2,1,0} multiply(%mul.1604, %div.1951), metadata={op_name="jit(predict_step)/FlaxT5ForConditionalGenerationModule/decoder/final_layer_norm/mul" stack_frame_id=42}
  %variables__lm_head____kernel__.1 = f32[1024,32128]{1,0} parameter(556), sharding={devices=[2,1]<=[2]}, frontend_attributes={xla.sdy.sharding="#sdy.sharding<@mesh, [{\"fsdp\"}, {}]>"}, metadata={op_name="variables[\'lm_head\'][\'kernel\']"}
  %dot_general.1154 = f32[4,128,32128]{2,1,0} dot(%mul.1605, %variables__lm_head____kernel__.1), lhs_contracting_dims={2}, rhs_contracting_dims={0}, metadata={op_name="jit(predict_step)/FlaxT5ForConditionalGenerationModule/lm_head/dot_general" stack_frame_id=214}
  %dot_general.1155 = f32[4,128,32128]{2,1,0} custom-call(%dot_general.1154), custom_call_target="xla.sdy.FuncResultSharding", custom_call_has_side_effect=true, frontend_attributes={xla.sdy.sharding="#sdy.sharding_per_value<[<@mesh, [{}, {}, {}]>]>"}, metadata={op_name="jit(predict_step)/FlaxT5ForConditionalGenerationModule/lm_head/dot_general" stack_frame_id=214}
  %tuple.1 = (f32[4,128,32128]{2,1,0}) tuple(%dot_general.1155)
  ROOT %get-tuple-element.1 = f32[4,128,32128]{2,1,0} get-tuple-element(%tuple.1), index=0, sharding={replicated}
}

