HloModule jit__prefill_jit, entry_computation_layout={(s32[64]{0}, f32[2560]{0}, f32[2560,5,10240]{2,1,0}, f32[2560,5,10240]{2,1,0}, f32[10240,5,2560]{2,1,0}, /*index=5*/f32[2560,5]{1,0}, f32[2560,5]{1,0}, f32[2560,5]{1,0}, f32[2560,5]{1,0}, f32[2560,5,4,256]{3,2,1,0}, /*index=10*/f32[256,5]{1,0}, f32[8,5,256,2560]{3,2,1,0}, f32[2560,5,8,256]{3,2,1,0}, f32[256,5]{1,0}, f32[2560,5,4,256]{3,2,1,0}, /*index=15*/f32[2560,5,10240]{2,1,0}, f32[2560,5,10240]{2,1,0}, f32[10240,5,2560]{2,1,0}, f32[2560,5]{1,0}, f32[2560,5]{1,0}, /*index=20*/f32[2560,5]{1,0}, f32[2560,5]{1,0}, f32[2560,5,4,256]{3,2,1,0}, f32[256,5]{1,0}, f32[8,5,256,2560]{3,2,1,0}, /*index=25*/f32[2560,5,8,256]{3,2,1,0}, f32[256,5]{1,0}, f32[2560,5,4,256]{3,2,1,0}, f32[2560,5,10240]{2,1,0}, f32[2560,5,10240]{2,1,0}, /*index=30*/f32[10240,5,2560]{2,1,0}, f32[2560,5]{1,0}, f32[2560,5]{1,0}, f32[2560,5]{1,0}, f32[2560,5]{1,0}, /*index=35*/f32[2560,5,4,256]{3,2,1,0}, f32[256,5]{1,0}, f32[8,5,256,2560]{3,2,1,0}, f32[2560,5,8,256]{3,2,1,0}, f32[256,5]{1,0}, /*index=40*/f32[2560,5,4,256]{3,2,1,0}, f32[2560,5,10240]{2,1,0}, f32[2560,5,10240]{2,1,0}, f32[10240,5,2560]{2,1,0}, f32[2560,5]{1,0}, /*index=45*/f32[2560,5]{1,0}, f32[2560,5]{1,0}, f32[2560,5]{1,0}, f32[2560,5,4,256]{3,2,1,0}, f32[256,5]{1,0}, /*index=50*/f32[8,5,256,2560]{3,2,1,0}, f32[2560,5,8,256]{3,2,1,0}, f32[256,5]{1,0}, f32[2560,5,4,256]{3,2,1,0}, f32[2560,5,10240]{2,1,0}, /*index=55*/f32[2560,5,10240]{2,1,0}, f32[10240,5,2560]{2,1,0}, f32[2560,5]{1,0}, f32[2560,5]{1,0}, f32[2560,5]{1,0}, /*index=60*/f32[2560,5]{1,0}, f32[2560,5,4,256]{3,2,1,0}, f32[256,5]{1,0}, f32[8,5,256,2560]{3,2,1,0}, f32[2560,5,8,256]{3,2,1,0}, /*index=65*/f32[256,5]{1,0}, f32[2560,5,4,256]{3,2,1,0}, f32[2560,5,10240]{2,1,0}, f32[2560,5,10240]{2,1,0}, f32[10240,5,2560]{2,1,0}, /*index=70*/f32[2560,5]{1,0}, f32[2560,5]{1,0}, f32[2560,5]{1,0}, f32[2560,5]{1,0}, f32[2560,5,4,256]{3,2,1,0}, /*index=75*/f32[256,5]{1,0}, f32[8,5,256,2560]{3,2,1,0}, f32[2560,5,8,256]{3,2,1,0}, f32[256,5]{1,0}, f32[2560,5,4,256]{3,2,1,0}, /*index=80*/f32[2560,10240]{1,0}, f32[2560,10240]{1,0}, f32[10240,2560]{1,0}, f32[2560]{0}, f32[2560]{0}, /*index=85*/f32[2560]{0}, f32[2560]{0}, f32[2560,4,256]{2,1,0}, f32[256]{0}, f32[8,256,2560]{2,1,0}, /*index=90*/f32[2560,8,256]{2,1,0}, f32[256]{0}, f32[2560,4,256]{2,1,0}, f32[2560,10240]{1,0}, f32[2560,10240]{1,0}, /*index=95*/f32[10240,2560]{1,0}, f32[2560]{0}, f32[2560]{0}, f32[2560]{0}, f32[2560]{0}, /*index=100*/f32[2560,4,256]{2,1,0}, f32[256]{0}, f32[8,256,2560]{2,1,0}, f32[2560,8,256]{2,1,0}, f32[256]{0}, /*index=105*/f32[2560,4,256]{2,1,0}, f32[2560,10240]{1,0}, f32[2560,10240]{1,0}, f32[10240,2560]{1,0}, f32[2560]{0}, /*index=110*/f32[2560]{0}, f32[2560]{0}, f32[2560]{0}, f32[2560,4,256]{2,1,0}, f32[256]{0}, /*index=115*/f32[8,256,2560]{2,1,0}, f32[2560,8,256]{2,1,0}, f32[256]{0}, f32[2560,4,256]{2,1,0}, f32[2560,10240]{1,0}, /*index=120*/f32[2560,10240]{1,0}, f32[10240,2560]{1,0}, f32[2560]{0}, f32[2560]{0}, f32[2560]{0}, /*index=125*/f32[2560]{0}, f32[2560,4,256]{2,1,0}, f32[256]{0}, f32[8,256,2560]{2,1,0}, f32[2560,8,256]{2,1,0}, /*index=130*/f32[256]{0}, f32[2560,4,256]{2,1,0}, f32[262144,2560]{1,0}, s32[])->(s32[5,1]{1,0}, s32[5,1,1984]{2,1,0}, s32[5,1,64]{2,1,0}, bf16[5,1984,4,1,256]{4,3,2,1,0}, s32[5,1]{1,0}, /*index=5*/bf16[5,1984,4,1,256]{4,3,2,1,0}, bf16[5,64,4,1,256]{4,3,2,1,0}, bf16[5,64,4,1,256]{4,3,2,1,0}, s32[5,1]{1,0}, s32[5,1,1984]{2,1,0}, /*index=10*/s32[5,1,64]{2,1,0}, bf16[5,1984,4,1,256]{4,3,2,1,0}, s32[5,1]{1,0}, bf16[5,1984,4,1,256]{4,3,2,1,0}, bf16[5,64,4,1,256]{4,3,2,1,0}, /*index=15*/bf16[5,64,4,1,256]{4,3,2,1,0}, s32[5,1]{1,0}, s32[5,1,1984]{2,1,0}, s32[5,1,64]{2,1,0}, bf16[5,1984,4,1,256]{4,3,2,1,0}, /*index=20*/s32[5,1]{1,0}, bf16[5,1984,4,1,256]{4,3,2,1,0}, bf16[5,64,4,1,256]{4,3,2,1,0}, bf16[5,64,4,1,256]{4,3,2,1,0}, s32[5,1]{1,0}, /*index=25*/s32[5,1,1984]{2,1,0}, s32[5,1,64]{2,1,0}, bf16[5,1984,4,1,256]{4,3,2,1,0}, s32[5,1]{1,0}, bf16[5,1984,4,1,256]{4,3,2,1,0}, /*index=30*/bf16[5,64,4,1,256]{4,3,2,1,0}, bf16[5,64,4,1,256]{4,3,2,1,0}, s32[5,1]{1,0}, s32[5,1,1984]{2,1,0}, s32[5,1,64]{2,1,0}, /*index=35*/bf16[5,1984,4,1,256]{4,3,2,1,0}, s32[5,1]{1,0}, bf16[5,1984,4,1,256]{4,3,2,1,0}, bf16[5,64,4,1,256]{4,3,2,1,0}, bf16[5,64,4,1,256]{4,3,2,1,0}, /*index=40*/s32[5,1]{1,0}, s32[5,1,1984]{2,1,0}, s32[5,1,64]{2,1,0}, bf16[5,1984,4,1,256]{4,3,2,1,0}, s32[5,1]{1,0}, /*index=45*/bf16[5,1984,4,1,256]{4,3,2,1,0}, bf16[5,64,4,1,256]{4,3,2,1,0}, bf16[5,64,4,1,256]{4,3,2,1,0}, s32[1]{0}, s32[1,1984]{1,0}, /*index=50*/s32[1,64]{1,0}, bf16[1984,4,1,256]{3,2,1,0}, s32[1]{0}, bf16[1984,4,1,256]{3,2,1,0}, bf16[64,4,1,256]{3,2,1,0}, /*index=55*/bf16[64,4,1,256]{3,2,1,0}, s32[1]{0}, s32[1,1984]{1,0}, s32[1,64]{1,0}, bf16[1984,4,1,256]{3,2,1,0}, /*index=60*/s32[1]{0}, bf16[1984,4,1,256]{3,2,1,0}, bf16[64,4,1,256]{3,2,1,0}, bf16[64,4,1,256]{3,2,1,0}, s32[1]{0}, /*index=65*/s32[1,1984]{1,0}, s32[1,64]{1,0}, bf16[1984,4,1,256]{3,2,1,0}, s32[1]{0}, bf16[1984,4,1,256]{3,2,1,0}, /*index=70*/bf16[64,4,1,256]{3,2,1,0}, bf16[64,4,1,256]{3,2,1,0}, s32[1]{0}, s32[1,1984]{1,0}, s32[1,64]{1,0}, /*index=75*/bf16[1984,4,1,256]{3,2,1,0}, s32[1]{0}, bf16[1984,4,1,256]{3,2,1,0}, bf16[64,4,1,256]{3,2,1,0}, bf16[64,4,1,256]{3,2,1,0}, /*index=80*/s32[1,1]{1,0}, f32[1,1,262144]{2,1,0}, s32[1,1]{1,0}, f32[1,1]{1,0}, s32[1,1]{1,0}, /*index=85*/s32[1,3]{1,0}, f32[1,1]{1,0})}, allow_spmd_sharding_propagation_to_parameters={true,false,false,false,false,false,false,false,false,false,false,false,false,false,false,false,false,false,false,false,false,false,false,false,false,false,false,false,false,false,false,false,false,false,false,false,false,false,false,false,false,false,false,false,false,false,false,false,false,false,false,false,false,false,false,false,false,false,false,false,false,false,false,false,false,false,false,false,false,false,false,false,false,false,false,false,false,false,false,false,false,false,false,false,false,false,false,false,false,false,false,false,false,false,false,false,false,false,false,false,false,false,false,false,false,false,false,false,false,false,false,false,false,false,false,false,false,false,false,false,false,false,false,false,false,false,false,false,false,false,false,false,false,false}, allow_spmd_sharding_propagation_to_output={true,true,true,true,true,true,true,true,true,true,true,true,true,true,true,true,true,true,true,true,true,true,true,true,true,true,true,true,true,true,true,true,true,true,true,true,true,true,true,true,true,true,true,true,true,true,true,true,true,true,true,true,true,true,true,true,true,true,true,true,true,true,true,true,true,true,true,true,true,true,true,true,true,true,true,true,true,true,true,true,true,true,true,true,true,true,true}, num_partitions=2, frontend_attributes={xla.sdy.meshes={empty_mesh = #sdy.mesh<[]>, mesh = #sdy.mesh<["diloco"=1, "data"=1, "stage"=1, "fsdp"=1, "fsdp_transpose"=1, "context"=1, "context_autoregressive"=1, "tensor"=2, "tensor_transpose"=1, "tensor_sequence"=1, "expert"=1, "autoregressive"=1]>}}

FileNames
1 "/tf/jax-lab/targets/maxtext_release/maxtext/src/maxtext/inference/maxengine/maxengine.py"
2 "/tf/jax-lab/targets/maxtext_release/maxtext/src/maxtext/models/models.py"
3 "/tf/jax-lab/targets/maxtext_release/maxtext/src/maxtext/layers/decoders.py"
4 "/usr/local/lib/python3.12/dist-packages/flax/core/axes_scan.py"
5 "/tf/jax-lab/targets/maxtext_release/maxtext/src/maxtext/layers/nnx_wrappers.py"
6 "/tf/jax-lab/targets/maxtext_release/maxtext/src/maxtext/models/gemma3.py"
7 "/tf/jax-lab/targets/maxtext_release/maxtext/src/maxtext/layers/normalizations.py"
8 "/tf/jax-lab/targets/maxtext_release/maxtext/src/maxtext/layers/attentions.py"
9 "/tf/jax-lab/targets/maxtext_release/maxtext/src/maxtext/layers/attention_op.py"
10 "/tf/jax-lab/targets/maxtext_release/maxtext/src/maxtext/utils/sharding.py"
11 "/tf/jax-lab/targets/maxtext_release/maxtext/src/maxtext/layers/linears.py"
12 "/tf/jax-lab/targets/maxtext_release/maxtext/src/maxtext/layers/embeddings.py"
13 "/tf/jax-lab/targets/maxtext_release/maxtext/src/maxtext/inference/kvcache.py"
14 "<frozen runpy>"
15 "/tf/jax-lab/targets/maxtext_release/maxtext/src/maxtext/inference/decode.py"
16 "/usr/local/lib/python3.12/dist-packages/absl/app.py"
17 "/tf/jax-lab/targets/maxtext_release/maxtext/src/maxtext/inference/inference_utils.py"

FunctionNames
1 "MaxEngine._prefill_jit"
2 "TransformerLinenPure.apply"
3 "TransformerLinenPure.__call__"
4 "Decoder.__call__"
5 "Decoder._apply_gemma3_scanned_blocks"
6 "scan.<locals>.scan_fn"
7 "scan.<locals>.scan_fn.<locals>.body_fn"
8 "ToLinen.__call__"
9 "Gemma3ScannableBlock.__call__"
10 "_fix_for_qwix_quantization.<locals>.wrap.<locals>.wrapped"
11 "Gemma3DecoderLayer.__call__"
12 "RMSNorm.__call__"
13 "Attention.__call__"
14 "AttentionOp.__call__"
15 "AttentionOp.apply_attention"
16 "AttentionOp.apply_attention_dot"
17 "AttentionOp.compute_local_attention"
18 "maybe_shard_with_logical"
19 "maybe_shard_with_name"
20 "Attention.kv_projection"
21 "DenseGeneral.__call__"
22 "_compute_dot_general_nnx"
23 "AttentionOp.generate_attention_mask"
24 "apply_mask_to_logits"
25 "Attention.apply_rotary_embedding"
26 "RotaryEmbedding.__call__"
27 "RotaryEmbedding.timescale"
28 "RotaryEmbedding.apply_rotary"
29 "RotaryEmbedding._rotate_half"
30 "Attention.query_projection"
31 "AttentionOp.qk_product"
32 "AttentionOp.wv_product"
33 "Attention.out_projection"
34 "MlpBlock.__call__"
35 "Attention.update_kv_caches"
36 "KVCache.__call__"
37 "KVCache.kv_cache_prefill"
38 "_run_module_as_main"
39 "_run_code"
40 "<module>"
41 "run"
42 "_run_main"
43 "main"
44 "MaxEngine.prefill"
45 "Decoder.apply_output_head"
46 "sampling"
47 "Decoder._apply_embedding"
48 "Embed.__call__"
49 "scan.<locals>.transpose_to_front"
50 "scan.<locals>.transpose_to_front.<locals>.trans"
51 "attend_on_embedding"

FileLocations
1 {file_name_id=1 function_name_id=1 line=798 end_line=815 column=32 end_column=9}
2 {file_name_id=2 function_name_id=2 line=71 end_line=71 column=11 end_column=51}
3 {file_name_id=2 function_name_id=3 line=202 end_line=215 column=38 end_column=5}
4 {file_name_id=3 function_name_id=4 line=1049 end_line=1058 column=14 end_column=11}
5 {file_name_id=3 function_name_id=5 line=1329 end_line=1338 column=13 end_column=48}
6 {file_name_id=4 function_name_id=6 line=200 end_line=203 column=14 end_column=7}
7 {file_name_id=4 function_name_id=7 line=157 end_line=157 column=29 end_column=53}
8 {file_name_id=5 function_name_id=8 line=549 end_line=549 column=10 end_column=44}
9 {file_name_id=6 function_name_id=9 line=335 end_line=344 column=10 end_column=7}
10 {file_name_id=5 function_name_id=10 line=383 end_line=383 column=15 end_column=39}
11 {file_name_id=6 function_name_id=11 line=208 end_line=208 column=10 end_column=46}
12 {file_name_id=7 function_name_id=12 line=72 end_line=72 column=12 end_column=59}
13 {file_name_id=6 function_name_id=11 line=212 end_line=222 column=30 end_column=5}
14 {file_name_id=8 function_name_id=13 line=1160 end_line=1160 column=14 end_column=36}
15 {file_name_id=8 function_name_id=13 line=1162 end_line=1162 column=14 end_column=32}
16 {file_name_id=8 function_name_id=13 line=1225 end_line=1236 column=12 end_column=7}
17 {file_name_id=9 function_name_id=14 line=2106 end_line=2123 column=86 end_column=5}
18 {file_name_id=9 function_name_id=15 line=972 end_line=986 column=13 end_column=7}
19 {file_name_id=9 function_name_id=16 line=1919 end_line=1919 column=11 end_column=109}
20 {file_name_id=9 function_name_id=17 line=1770 end_line=1770 column=16 end_column=55}
21 {file_name_id=9 function_name_id=17 line=1772 end_line=1772 column=16 end_column=68}
22 {file_name_id=6 function_name_id=11 line=224 end_line=224 column=22 end_column=66}
23 {file_name_id=6 function_name_id=11 line=230 end_line=230 column=18 end_column=50}
24 {file_name_id=6 function_name_id=11 line=235 end_line=235 column=16 end_column=43}
25 {file_name_id=7 function_name_id=12 line=90 end_line=90 column=12 end_column=42}
26 {file_name_id=7 function_name_id=12 line=71 end_line=71 column=8 end_column=35}
27 {file_name_id=7 function_name_id=12 line=72 end_line=72 column=21 end_column=34}
28 {file_name_id=7 function_name_id=12 line=73 end_line=73 column=34 end_column=54}
29 {file_name_id=7 function_name_id=12 line=73 end_line=73 column=24 end_column=55}
30 {file_name_id=7 function_name_id=12 line=73 end_line=73 column=20 end_column=55}
31 {file_name_id=7 function_name_id=12 line=73 end_line=73 column=8 end_column=68}
32 {file_name_id=7 function_name_id=12 line=92 end_line=92 column=11 end_column=84}
33 {file_name_id=8 function_name_id=13 line=1125 end_line=1125 column=16 end_column=75}
34 {file_name_id=10 function_name_id=18 line=147 end_line=155 column=9 end_column=3}
35 {file_name_id=10 function_name_id=19 line=113 end_line=113 column=11 end_column=67}
36 {file_name_id=8 function_name_id=13 line=1147 end_line=1147 column=16 end_column=91}
37 {file_name_id=8 function_name_id=20 line=670 end_line=670 column=13 end_column=61}
38 {file_name_id=11 function_name_id=21 line=231 end_line=231 column=15 end_column=46}
39 {file_name_id=11 function_name_id=21 line=238 end_line=247 column=13 end_column=5}
40 {file_name_id=11 function_name_id=22 line=102 end_line=104 column=9 end_column=3}
41 {file_name_id=8 function_name_id=13 line=1197 end_line=1197 column=14 end_column=82}
42 {file_name_id=9 function_name_id=16 line=1866 end_line=1874 column=16 end_column=5}
43 {file_name_id=9 function_name_id=23 line=741 end_line=741 column=24 end_column=79}
44 {file_name_id=9 function_name_id=23 line=742 end_line=742 column=22 end_column=84}
45 {file_name_id=9 function_name_id=23 line=740 end_line=740 column=24 end_column=78}
46 {file_name_id=9 function_name_id=23 line=742 end_line=742 column=41 end_column=83}
47 {file_name_id=9 function_name_id=23 line=743 end_line=743 column=10 end_column=44}
48 {file_name_id=9 function_name_id=23 line=742 end_line=744 column=21 end_column=7}
49 {file_name_id=9 function_name_id=23 line=745 end_line=745 column=20 end_column=46}
50 {file_name_id=9 function_name_id=23 line=700 end_line=700 column=13 end_column=44}
51 {file_name_id=9 function_name_id=23 line=700 end_line=700 column=48 end_column=79}
52 {file_name_id=9 function_name_id=23 line=701 end_line=701 column=13 end_column=38}
53 {file_name_id=9 function_name_id=23 line=723 end_line=723 column=16 end_column=66}
54 {file_name_id=9 function_name_id=23 line=722 end_line=722 column=16 end_column=66}
55 {file_name_id=9 function_name_id=23 line=726 end_line=726 column=21 end_column=50}
56 {file_name_id=9 function_name_id=23 line=726 end_line=726 column=20 end_column=75}
57 {file_name_id=9 function_name_id=23 line=730 end_line=730 column=20 end_column=54}
58 {file_name_id=9 function_name_id=23 line=787 end_line=787 column=11 end_column=58}
59 {file_name_id=9 function_name_id=16 line=1906 end_line=1906 column=21 end_column=66}
60 {file_name_id=9 function_name_id=24 line=121 end_line=121 column=20 end_column=52}
61 {file_name_id=8 function_name_id=13 line=1143 end_line=1143 column=12 end_column=85}
62 {file_name_id=8 function_name_id=20 line=668 end_line=668 column=13 end_column=59}
63 {file_name_id=8 function_name_id=13 line=1174 end_line=1174 column=14 end_column=106}
64 {file_name_id=8 function_name_id=25 line=935 end_line=935 column=13 end_column=60}
65 {file_name_id=12 function_name_id=26 line=359 end_line=359 column=15 end_column=55}
66 {file_name_id=12 function_name_id=26 line=360 end_line=360 column=19 end_column=44}
67 {file_name_id=12 function_name_id=26 line=360 end_line=360 column=30 end_column=44}
68 {file_name_id=12 function_name_id=27 line=317 end_line=317 column=19 end_column=52}
69 {file_name_id=12 function_name_id=27 line=317 end_line=317 column=15 end_column=52}
70 {file_name_id=12 function_name_id=27 line=318 end_line=318 column=37 end_column=90}
71 {file_name_id=12 function_name_id=26 line=362 end_line=362 column=15 end_column=36}
72 {file_name_id=12 function_name_id=26 line=365 end_line=365 column=10 end_column=56}
73 {file_name_id=12 function_name_id=26 line=367 end_line=367 column=12 end_column=47}
74 {file_name_id=12 function_name_id=28 line=330 end_line=330 column=12 end_column=24}
75 {file_name_id=12 function_name_id=28 line=330 end_line=330 column=29 end_column=54}
76 {file_name_id=12 function_name_id=29 line=325 end_line=325 column=13 end_column=37}
77 {file_name_id=12 function_name_id=29 line=326 end_line=326 column=28 end_column=31}
78 {file_name_id=12 function_name_id=29 line=326 end_line=326 column=11 end_column=46}
79 {file_name_id=12 function_name_id=26 line=361 end_line=361 column=15 end_column=36}
80 {file_name_id=12 function_name_id=26 line=364 end_line=364 column=10 end_column=56}
81 {file_name_id=12 function_name_id=28 line=330 end_line=330 column=11 end_column=61}
82 {file_name_id=8 function_name_id=13 line=1196 end_line=1196 column=12 end_column=76}
83 {file_name_id=8 function_name_id=13 line=1124 end_line=1124 column=15 end_column=73}
84 {file_name_id=8 function_name_id=13 line=1142 end_line=1142 column=14 end_column=72}
85 {file_name_id=8 function_name_id=30 line=614 end_line=614 column=11 end_column=58}
86 {file_name_id=8 function_name_id=13 line=1172 end_line=1172 column=14 end_column=108}
87 {file_name_id=8 function_name_id=13 line=1184 end_line=1184 column=14 end_column=48}
88 {file_name_id=8 function_name_id=13 line=1195 end_line=1195 column=14 end_column=82}
89 {file_name_id=9 function_name_id=16 line=1850 end_line=1850 column=19 end_column=88}
90 {file_name_id=9 function_name_id=31 line=1957 end_line=1957 column=14 end_column=60}
91 {file_name_id=9 function_name_id=31 line=1960 end_line=1960 column=15 end_column=74}
92 {file_name_id=9 function_name_id=24 line=121 end_line=121 column=9 end_column=82}
93 {file_name_id=9 function_name_id=17 line=1761 end_line=1761 column=13 end_column=54}
94 {file_name_id=9 function_name_id=17 line=1771 end_line=1771 column=34 end_column=52}
95 {file_name_id=9 function_name_id=17 line=1771 end_line=1771 column=26 end_column=53}
96 {file_name_id=9 function_name_id=17 line=1776 end_line=1776 column=17 end_column=60}
97 {file_name_id=9 function_name_id=17 line=1780 end_line=1780 column=16 end_column=81}
98 {file_name_id=9 function_name_id=32 line=2010 end_line=2010 column=12 end_column=80}
99 {file_name_id=9 function_name_id=32 line=2012 end_line=2012 column=15 end_column=52}
100 {file_name_id=9 function_name_id=17 line=1778 end_line=1778 column=16 end_column=54}
101 {file_name_id=9 function_name_id=14 line=2128 end_line=2128 column=15 end_column=69}
102 {file_name_id=8 function_name_id=13 line=1239 end_line=1239 column=12 end_column=76}
103 {file_name_id=8 function_name_id=13 line=1247 end_line=1247 column=10 end_column=61}
104 {file_name_id=8 function_name_id=33 line=733 end_line=733 column=11 end_column=51}
105 {file_name_id=6 function_name_id=11 line=227 end_line=227 column=4 end_column=27}
106 {file_name_id=6 function_name_id=11 line=233 end_line=233 column=14 end_column=64}
107 {file_name_id=11 function_name_id=34 line=517 end_line=517 column=12 end_column=62}
108 {file_name_id=11 function_name_id=34 line=521 end_line=521 column=12 end_column=54}
109 {file_name_id=11 function_name_id=34 line=525 end_line=525 column=8 end_column=51}
110 {file_name_id=11 function_name_id=34 line=528 end_line=528 column=8 end_column=68}
111 {file_name_id=11 function_name_id=34 line=529 end_line=529 column=13 end_column=50}
112 {file_name_id=6 function_name_id=11 line=238 end_line=238 column=26 end_column=44}
113 {file_name_id=12 function_name_id=27 line=320 end_line=320 column=18 end_column=61}
114 {file_name_id=8 function_name_id=13 line=1224 end_line=1224 column=24 end_column=106}
115 {file_name_id=8 function_name_id=35 line=994 end_line=1001 column=36 end_column=5}
116 {file_name_id=13 function_name_id=36 line=957 end_line=957 column=15 end_column=69}
117 {file_name_id=13 function_name_id=37 line=699 end_line=699 column=27 end_column=76}
118 {file_name_id=13 function_name_id=37 line=700 end_line=700 column=29 end_column=80}
119 {file_name_id=14 function_name_id=38 line=198 end_line=199 column=11 end_column=42}
120 {file_name_id=14 function_name_id=39 line=88 end_line=88 column=4 end_column=27}
121 {file_name_id=15 function_name_id=40 line=245 end_line=245 column=2 end_column=15}
122 {file_name_id=16 function_name_id=41 line=410 end_line=410 column=6 end_column=27}
123 {file_name_id=16 function_name_id=42 line=355 end_line=355 column=13 end_column=23}
124 {file_name_id=15 function_name_id=43 line=181 end_line=194 column=36 end_column=7}
125 {file_name_id=1 function_name_id=44 line=913 end_line=934 column=11 end_column=5}
126 {file_name_id=3 function_name_id=5 line=1348 end_line=1357 column=13 end_column=7}
127 {file_name_id=3 function_name_id=4 line=1289 end_line=1289 column=15 end_column=96}
128 {file_name_id=3 function_name_id=45 line=795 end_line=802 column=8 end_column=40}
129 {file_name_id=1 function_name_id=1 line=831 end_line=838 column=28 end_column=5}
130 {file_name_id=17 function_name_id=46 line=135 end_line=135 column=11 end_column=38}
131 {file_name_id=3 function_name_id=4 line=872 end_line=879 column=8 end_column=5}
132 {file_name_id=3 function_name_id=47 line=706 end_line=706 column=8 end_column=85}
133 {file_name_id=12 function_name_id=48 line=155 end_line=158 column=16 end_column=5}
134 {file_name_id=1 function_name_id=1 line=747 end_line=747 column=19 end_column=52}
135 {file_name_id=12 function_name_id=48 line=182 end_line=182 column=15 end_column=66}
136 {file_name_id=4 function_name_id=6 line=150 end_line=150 column=9 end_column=66}
137 {file_name_id=4 function_name_id=49 line=126 end_line=126 column=11 end_column=44}
138 {file_name_id=4 function_name_id=50 line=124 end_line=124 column=13 end_column=35}
139 {file_name_id=1 function_name_id=1 line=766 end_line=766 column=17 end_column=83}
140 {file_name_id=1 function_name_id=1 line=767 end_line=767 column=19 end_column=48}
141 {file_name_id=1 function_name_id=1 line=768 end_line=768 column=19 end_column=68}
142 {file_name_id=1 function_name_id=1 line=769 end_line=769 column=25 end_column=57}
143 {file_name_id=1 function_name_id=1 line=753 end_line=753 column=34 end_column=100}
144 {file_name_id=1 function_name_id=1 line=753 end_line=753 column=18 end_column=104}
145 {file_name_id=3 function_name_id=45 line=822 end_line=822 column=15 end_column=95}
146 {file_name_id=12 function_name_id=51 line=233 end_line=233 column=6 end_column=48}
147 {file_name_id=12 function_name_id=51 line=231 end_line=236 column=9 end_column=3}
148 {file_name_id=3 function_name_id=45 line=826 end_line=826 column=17 end_column=47}
149 {file_name_id=3 function_name_id=45 line=847 end_line=847 column=15 end_column=41}
150 {file_name_id=1 function_name_id=1 line=824 end_line=824 column=12 end_column=27}
151 {file_name_id=1 function_name_id=1 line=822 end_line=826 column=22 end_column=5}
152 {file_name_id=1 function_name_id=1 line=827 end_line=827 column=22 end_column=97}
153 {file_name_id=1 function_name_id=1 line=865 end_line=865 column=17 end_column=68}
154 {file_name_id=1 function_name_id=1 line=846 end_line=846 column=13 end_column=90}

StackFrames
1 {file_location_id=1 parent_frame_id=1}
2 {file_location_id=2 parent_frame_id=2}
3 {file_location_id=3 parent_frame_id=3}
4 {file_location_id=4 parent_frame_id=4}
5 {file_location_id=5 parent_frame_id=5}
6 {file_location_id=6 parent_frame_id=6}
7 {file_location_id=7 parent_frame_id=1}
8 {file_location_id=8 parent_frame_id=8}
9 {file_location_id=9 parent_frame_id=9}
10 {file_location_id=10 parent_frame_id=10}
11 {file_location_id=11 parent_frame_id=11}
12 {file_location_id=10 parent_frame_id=12}
13 {file_location_id=12 parent_frame_id=13}
14 {file_location_id=13 parent_frame_id=11}
15 {file_location_id=10 parent_frame_id=15}
16 {file_location_id=14 parent_frame_id=16}
17 {file_location_id=10 parent_frame_id=17}
18 {file_location_id=12 parent_frame_id=18}
19 {file_location_id=15 parent_frame_id=16}
20 {file_location_id=10 parent_frame_id=20}
21 {file_location_id=12 parent_frame_id=21}
22 {file_location_id=16 parent_frame_id=16}
23 {file_location_id=10 parent_frame_id=23}
24 {file_location_id=17 parent_frame_id=24}
25 {file_location_id=18 parent_frame_id=25}
26 {file_location_id=19 parent_frame_id=26}
27 {file_location_id=20 parent_frame_id=27}
28 {file_location_id=21 parent_frame_id=27}
29 {file_location_id=22 parent_frame_id=11}
30 {file_location_id=10 parent_frame_id=30}
31 {file_location_id=12 parent_frame_id=31}
32 {file_location_id=23 parent_frame_id=11}
33 {file_location_id=10 parent_frame_id=33}
34 {file_location_id=12 parent_frame_id=34}
35 {file_location_id=24 parent_frame_id=11}
36 {file_location_id=10 parent_frame_id=36}
37 {file_location_id=12 parent_frame_id=37}
38 {file_location_id=25 parent_frame_id=37}
39 {file_location_id=25 parent_frame_id=34}
40 {file_location_id=25 parent_frame_id=31}
41 {file_location_id=25 parent_frame_id=13}
42 {file_location_id=26 parent_frame_id=13}
43 {file_location_id=27 parent_frame_id=13}
44 {file_location_id=28 parent_frame_id=13}
45 {file_location_id=29 parent_frame_id=13}
46 {file_location_id=30 parent_frame_id=13}
47 {file_location_id=31 parent_frame_id=13}
48 {file_location_id=32 parent_frame_id=13}
49 {file_location_id=33 parent_frame_id=16}
50 {file_location_id=34 parent_frame_id=50}
51 {file_location_id=35 parent_frame_id=51}
52 {file_location_id=36 parent_frame_id=16}
53 {file_location_id=37 parent_frame_id=53}
54 {file_location_id=10 parent_frame_id=54}
55 {file_location_id=38 parent_frame_id=55}
56 {file_location_id=39 parent_frame_id=55}
57 {file_location_id=40 parent_frame_id=57}
58 {file_location_id=41 parent_frame_id=16}
59 {file_location_id=34 parent_frame_id=59}
60 {file_location_id=35 parent_frame_id=60}
61 {file_location_id=42 parent_frame_id=26}
62 {file_location_id=43 parent_frame_id=62}
63 {file_location_id=44 parent_frame_id=62}
64 {file_location_id=45 parent_frame_id=62}
65 {file_location_id=46 parent_frame_id=62}
66 {file_location_id=47 parent_frame_id=62}
67 {file_location_id=48 parent_frame_id=62}
68 {file_location_id=49 parent_frame_id=62}
69 {file_location_id=50 parent_frame_id=62}
70 {file_location_id=51 parent_frame_id=62}
71 {file_location_id=52 parent_frame_id=62}
72 {file_location_id=53 parent_frame_id=62}
73 {file_location_id=54 parent_frame_id=62}
74 {file_location_id=55 parent_frame_id=62}
75 {file_location_id=56 parent_frame_id=62}
76 {file_location_id=57 parent_frame_id=62}
77 {file_location_id=58 parent_frame_id=62}
78 {file_location_id=59 parent_frame_id=26}
79 {file_location_id=60 parent_frame_id=79}
80 {file_location_id=25 parent_frame_id=21}
81 {file_location_id=61 parent_frame_id=16}
82 {file_location_id=62 parent_frame_id=82}
83 {file_location_id=10 parent_frame_id=83}
84 {file_location_id=38 parent_frame_id=84}
85 {file_location_id=39 parent_frame_id=84}
86 {file_location_id=40 parent_frame_id=86}
87 {file_location_id=26 parent_frame_id=21}
88 {file_location_id=27 parent_frame_id=21}
89 {file_location_id=28 parent_frame_id=21}
90 {file_location_id=29 parent_frame_id=21}
91 {file_location_id=30 parent_frame_id=21}
92 {file_location_id=31 parent_frame_id=21}
93 {file_location_id=32 parent_frame_id=21}
94 {file_location_id=63 parent_frame_id=16}
95 {file_location_id=64 parent_frame_id=95}
96 {file_location_id=10 parent_frame_id=96}
97 {file_location_id=65 parent_frame_id=97}
98 {file_location_id=66 parent_frame_id=97}
99 {file_location_id=67 parent_frame_id=97}
100 {file_location_id=68 parent_frame_id=100}
101 {file_location_id=69 parent_frame_id=100}
102 {file_location_id=70 parent_frame_id=100}
103 {file_location_id=71 parent_frame_id=97}
104 {file_location_id=72 parent_frame_id=97}
105 {file_location_id=73 parent_frame_id=97}
106 {file_location_id=74 parent_frame_id=106}
107 {file_location_id=75 parent_frame_id=106}
108 {file_location_id=76 parent_frame_id=108}
109 {file_location_id=77 parent_frame_id=108}
110 {file_location_id=78 parent_frame_id=108}
111 {file_location_id=79 parent_frame_id=97}
112 {file_location_id=80 parent_frame_id=97}
113 {file_location_id=81 parent_frame_id=106}
114 {file_location_id=82 parent_frame_id=16}
115 {file_location_id=34 parent_frame_id=115}
116 {file_location_id=35 parent_frame_id=116}
117 {file_location_id=25 parent_frame_id=18}
118 {file_location_id=83 parent_frame_id=16}
119 {file_location_id=34 parent_frame_id=119}
120 {file_location_id=35 parent_frame_id=120}
121 {file_location_id=84 parent_frame_id=16}
122 {file_location_id=85 parent_frame_id=122}
123 {file_location_id=10 parent_frame_id=123}
124 {file_location_id=38 parent_frame_id=124}
125 {file_location_id=39 parent_frame_id=124}
126 {file_location_id=40 parent_frame_id=126}
127 {file_location_id=26 parent_frame_id=18}
128 {file_location_id=27 parent_frame_id=18}
129 {file_location_id=28 parent_frame_id=18}
130 {file_location_id=29 parent_frame_id=18}
131 {file_location_id=30 parent_frame_id=18}
132 {file_location_id=31 parent_frame_id=18}
133 {file_location_id=32 parent_frame_id=18}
134 {file_location_id=86 parent_frame_id=16}
135 {file_location_id=64 parent_frame_id=135}
136 {file_location_id=10 parent_frame_id=136}
137 {file_location_id=65 parent_frame_id=137}
138 {file_location_id=66 parent_frame_id=137}
139 {file_location_id=67 parent_frame_id=137}
140 {file_location_id=68 parent_frame_id=140}
141 {file_location_id=69 parent_frame_id=140}
142 {file_location_id=70 parent_frame_id=140}
143 {file_location_id=71 parent_frame_id=137}
144 {file_location_id=72 parent_frame_id=137}
145 {file_location_id=73 parent_frame_id=137}
146 {file_location_id=74 parent_frame_id=146}
147 {file_location_id=75 parent_frame_id=146}
148 {file_location_id=76 parent_frame_id=148}
149 {file_location_id=77 parent_frame_id=148}
150 {file_location_id=78 parent_frame_id=148}
151 {file_location_id=79 parent_frame_id=137}
152 {file_location_id=80 parent_frame_id=137}
153 {file_location_id=81 parent_frame_id=146}
154 {file_location_id=87 parent_frame_id=16}
155 {file_location_id=88 parent_frame_id=16}
156 {file_location_id=34 parent_frame_id=156}
157 {file_location_id=35 parent_frame_id=157}
158 {file_location_id=89 parent_frame_id=26}
159 {file_location_id=90 parent_frame_id=159}
160 {file_location_id=91 parent_frame_id=159}
161 {file_location_id=92 parent_frame_id=79}
162 {file_location_id=93 parent_frame_id=27}
163 {file_location_id=94 parent_frame_id=27}
164 {file_location_id=95 parent_frame_id=27}
165 {file_location_id=96 parent_frame_id=27}
166 {file_location_id=97 parent_frame_id=27}
167 {file_location_id=98 parent_frame_id=167}
168 {file_location_id=99 parent_frame_id=167}
169 {file_location_id=100 parent_frame_id=27}
170 {file_location_id=101 parent_frame_id=24}
171 {file_location_id=102 parent_frame_id=16}
172 {file_location_id=34 parent_frame_id=172}
173 {file_location_id=35 parent_frame_id=173}
174 {file_location_id=103 parent_frame_id=16}
175 {file_location_id=104 parent_frame_id=175}
176 {file_location_id=10 parent_frame_id=176}
177 {file_location_id=38 parent_frame_id=177}
178 {file_location_id=39 parent_frame_id=177}
179 {file_location_id=40 parent_frame_id=179}
180 {file_location_id=26 parent_frame_id=31}
181 {file_location_id=27 parent_frame_id=31}
182 {file_location_id=28 parent_frame_id=31}
183 {file_location_id=29 parent_frame_id=31}
184 {file_location_id=30 parent_frame_id=31}
185 {file_location_id=31 parent_frame_id=31}
186 {file_location_id=32 parent_frame_id=31}
187 {file_location_id=105 parent_frame_id=11}
188 {file_location_id=26 parent_frame_id=34}
189 {file_location_id=27 parent_frame_id=34}
190 {file_location_id=28 parent_frame_id=34}
191 {file_location_id=29 parent_frame_id=34}
192 {file_location_id=30 parent_frame_id=34}
193 {file_location_id=31 parent_frame_id=34}
194 {file_location_id=32 parent_frame_id=34}
195 {file_location_id=106 parent_frame_id=11}
196 {file_location_id=10 parent_frame_id=196}
197 {file_location_id=107 parent_frame_id=197}
198 {file_location_id=10 parent_frame_id=198}
199 {file_location_id=38 parent_frame_id=199}
200 {file_location_id=39 parent_frame_id=199}
201 {file_location_id=40 parent_frame_id=201}
202 {file_location_id=108 parent_frame_id=197}
203 {file_location_id=109 parent_frame_id=197}
204 {file_location_id=110 parent_frame_id=197}
205 {file_location_id=34 parent_frame_id=205}
206 {file_location_id=35 parent_frame_id=206}
207 {file_location_id=111 parent_frame_id=197}
208 {file_location_id=10 parent_frame_id=208}
209 {file_location_id=38 parent_frame_id=209}
210 {file_location_id=39 parent_frame_id=209}
211 {file_location_id=40 parent_frame_id=211}
212 {file_location_id=26 parent_frame_id=37}
213 {file_location_id=27 parent_frame_id=37}
214 {file_location_id=28 parent_frame_id=37}
215 {file_location_id=29 parent_frame_id=37}
216 {file_location_id=30 parent_frame_id=37}
217 {file_location_id=31 parent_frame_id=37}
218 {file_location_id=32 parent_frame_id=37}
219 {file_location_id=112 parent_frame_id=11}
220 {file_location_id=113 parent_frame_id=100}
221 {file_location_id=113 parent_frame_id=140}
222 {file_location_id=114 parent_frame_id=16}
223 {file_location_id=115 parent_frame_id=223}
224 {file_location_id=10 parent_frame_id=224}
225 {file_location_id=116 parent_frame_id=225}
226 {file_location_id=117 parent_frame_id=226}
227 {file_location_id=118 parent_frame_id=226}
228 {file_location_id=119 parent_frame_id=1}
229 {file_location_id=120 parent_frame_id=229}
230 {file_location_id=121 parent_frame_id=230}
231 {file_location_id=122 parent_frame_id=231}
232 {file_location_id=123 parent_frame_id=232}
233 {file_location_id=124 parent_frame_id=233}
234 {file_location_id=125 parent_frame_id=234}
235 {file_location_id=1 parent_frame_id=235}
236 {file_location_id=2 parent_frame_id=236}
237 {file_location_id=3 parent_frame_id=237}
238 {file_location_id=4 parent_frame_id=238}
239 {file_location_id=5 parent_frame_id=239}
240 {file_location_id=6 parent_frame_id=240}
241 {file_location_id=1 parent_frame_id=241}
242 {file_location_id=2 parent_frame_id=242}
243 {file_location_id=3 parent_frame_id=243}
244 {file_location_id=4 parent_frame_id=244}
245 {file_location_id=5 parent_frame_id=245}
246 {file_location_id=6 parent_frame_id=246}
247 {file_location_id=1 parent_frame_id=247}
248 {file_location_id=2 parent_frame_id=248}
249 {file_location_id=3 parent_frame_id=249}
250 {file_location_id=4 parent_frame_id=250}
251 {file_location_id=5 parent_frame_id=251}
252 {file_location_id=6 parent_frame_id=252}
253 {file_location_id=126 parent_frame_id=239}
254 {file_location_id=8 parent_frame_id=254}
255 {file_location_id=9 parent_frame_id=255}
256 {file_location_id=10 parent_frame_id=256}
257 {file_location_id=11 parent_frame_id=257}
258 {file_location_id=10 parent_frame_id=258}
259 {file_location_id=12 parent_frame_id=259}
260 {file_location_id=13 parent_frame_id=257}
261 {file_location_id=10 parent_frame_id=261}
262 {file_location_id=14 parent_frame_id=262}
263 {file_location_id=10 parent_frame_id=263}
264 {file_location_id=12 parent_frame_id=264}
265 {file_location_id=15 parent_frame_id=262}
266 {file_location_id=10 parent_frame_id=266}
267 {file_location_id=12 parent_frame_id=267}
268 {file_location_id=16 parent_frame_id=262}
269 {file_location_id=10 parent_frame_id=269}
270 {file_location_id=17 parent_frame_id=270}
271 {file_location_id=18 parent_frame_id=271}
272 {file_location_id=19 parent_frame_id=272}
273 {file_location_id=20 parent_frame_id=273}
274 {file_location_id=21 parent_frame_id=273}
275 {file_location_id=22 parent_frame_id=257}
276 {file_location_id=10 parent_frame_id=276}
277 {file_location_id=12 parent_frame_id=277}
278 {file_location_id=23 parent_frame_id=257}
279 {file_location_id=10 parent_frame_id=279}
280 {file_location_id=12 parent_frame_id=280}
281 {file_location_id=24 parent_frame_id=257}
282 {file_location_id=10 parent_frame_id=282}
283 {file_location_id=12 parent_frame_id=283}
284 {file_location_id=127 parent_frame_id=238}
285 {file_location_id=128 parent_frame_id=285}
286 {file_location_id=8 parent_frame_id=286}
287 {file_location_id=12 parent_frame_id=287}
288 {file_location_id=129 parent_frame_id=1}
289 {file_location_id=130 parent_frame_id=289}
290 {file_location_id=129 parent_frame_id=290}
291 {file_location_id=130 parent_frame_id=291}
292 {file_location_id=131 parent_frame_id=238}
293 {file_location_id=132 parent_frame_id=293}
294 {file_location_id=8 parent_frame_id=294}
295 {file_location_id=133 parent_frame_id=295}
296 {file_location_id=134 parent_frame_id=235}
297 {file_location_id=135 parent_frame_id=295}
298 {file_location_id=136 parent_frame_id=240}
299 {file_location_id=137 parent_frame_id=299}
300 {file_location_id=138 parent_frame_id=300}
301 {file_location_id=139 parent_frame_id=235}
302 {file_location_id=140 parent_frame_id=235}
303 {file_location_id=141 parent_frame_id=235}
304 {file_location_id=142 parent_frame_id=235}
305 {file_location_id=143 parent_frame_id=235}
306 {file_location_id=144 parent_frame_id=235}
307 {file_location_id=25 parent_frame_id=267}
308 {file_location_id=25 parent_frame_id=259}
309 {file_location_id=26 parent_frame_id=259}
310 {file_location_id=27 parent_frame_id=259}
311 {file_location_id=28 parent_frame_id=259}
312 {file_location_id=29 parent_frame_id=259}
313 {file_location_id=30 parent_frame_id=259}
314 {file_location_id=31 parent_frame_id=259}
315 {file_location_id=32 parent_frame_id=259}
316 {file_location_id=33 parent_frame_id=262}
317 {file_location_id=34 parent_frame_id=317}
318 {file_location_id=35 parent_frame_id=318}
319 {file_location_id=61 parent_frame_id=262}
320 {file_location_id=62 parent_frame_id=320}
321 {file_location_id=10 parent_frame_id=321}
322 {file_location_id=38 parent_frame_id=322}
323 {file_location_id=39 parent_frame_id=322}
324 {file_location_id=40 parent_frame_id=324}
325 {file_location_id=26 parent_frame_id=267}
326 {file_location_id=27 parent_frame_id=267}
327 {file_location_id=28 parent_frame_id=267}
328 {file_location_id=29 parent_frame_id=267}
329 {file_location_id=30 parent_frame_id=267}
330 {file_location_id=31 parent_frame_id=267}
331 {file_location_id=32 parent_frame_id=267}
332 {file_location_id=63 parent_frame_id=262}
333 {file_location_id=64 parent_frame_id=333}
334 {file_location_id=10 parent_frame_id=334}
335 {file_location_id=66 parent_frame_id=335}
336 {file_location_id=67 parent_frame_id=335}
337 {file_location_id=68 parent_frame_id=337}
338 {file_location_id=69 parent_frame_id=337}
339 {file_location_id=70 parent_frame_id=337}
340 {file_location_id=71 parent_frame_id=335}
341 {file_location_id=72 parent_frame_id=335}
342 {file_location_id=73 parent_frame_id=335}
343 {file_location_id=74 parent_frame_id=343}
344 {file_location_id=75 parent_frame_id=343}
345 {file_location_id=76 parent_frame_id=345}
346 {file_location_id=77 parent_frame_id=345}
347 {file_location_id=78 parent_frame_id=345}
348 {file_location_id=79 parent_frame_id=335}
349 {file_location_id=80 parent_frame_id=335}
350 {file_location_id=81 parent_frame_id=343}
351 {file_location_id=82 parent_frame_id=262}
352 {file_location_id=34 parent_frame_id=352}
353 {file_location_id=35 parent_frame_id=353}
354 {file_location_id=114 parent_frame_id=262}
355 {file_location_id=115 parent_frame_id=355}
356 {file_location_id=10 parent_frame_id=356}
357 {file_location_id=116 parent_frame_id=357}
358 {file_location_id=117 parent_frame_id=358}
359 {file_location_id=36 parent_frame_id=262}
360 {file_location_id=37 parent_frame_id=360}
361 {file_location_id=10 parent_frame_id=361}
362 {file_location_id=38 parent_frame_id=362}
363 {file_location_id=39 parent_frame_id=362}
364 {file_location_id=40 parent_frame_id=364}
365 {file_location_id=41 parent_frame_id=262}
366 {file_location_id=34 parent_frame_id=366}
367 {file_location_id=35 parent_frame_id=367}
368 {file_location_id=118 parent_frame_id=358}
369 {file_location_id=25 parent_frame_id=283}
370 {file_location_id=25 parent_frame_id=280}
371 {file_location_id=25 parent_frame_id=277}
372 {file_location_id=42 parent_frame_id=272}
373 {file_location_id=43 parent_frame_id=373}
374 {file_location_id=44 parent_frame_id=373}
375 {file_location_id=45 parent_frame_id=373}
376 {file_location_id=46 parent_frame_id=373}
377 {file_location_id=47 parent_frame_id=373}
378 {file_location_id=48 parent_frame_id=373}
379 {file_location_id=49 parent_frame_id=373}
380 {file_location_id=50 parent_frame_id=373}
381 {file_location_id=52 parent_frame_id=373}
382 {file_location_id=53 parent_frame_id=373}
383 {file_location_id=54 parent_frame_id=373}
384 {file_location_id=55 parent_frame_id=373}
385 {file_location_id=56 parent_frame_id=373}
386 {file_location_id=57 parent_frame_id=373}
387 {file_location_id=58 parent_frame_id=373}
388 {file_location_id=59 parent_frame_id=272}
389 {file_location_id=60 parent_frame_id=389}
390 {file_location_id=25 parent_frame_id=264}
391 {file_location_id=83 parent_frame_id=262}
392 {file_location_id=34 parent_frame_id=392}
393 {file_location_id=35 parent_frame_id=393}
394 {file_location_id=84 parent_frame_id=262}
395 {file_location_id=85 parent_frame_id=395}
396 {file_location_id=10 parent_frame_id=396}
397 {file_location_id=38 parent_frame_id=397}
398 {file_location_id=39 parent_frame_id=397}
399 {file_location_id=40 parent_frame_id=399}
400 {file_location_id=26 parent_frame_id=264}
401 {file_location_id=27 parent_frame_id=264}
402 {file_location_id=28 parent_frame_id=264}
403 {file_location_id=29 parent_frame_id=264}
404 {file_location_id=30 parent_frame_id=264}
405 {file_location_id=31 parent_frame_id=264}
406 {file_location_id=32 parent_frame_id=264}
407 {file_location_id=86 parent_frame_id=262}
408 {file_location_id=64 parent_frame_id=408}
409 {file_location_id=10 parent_frame_id=409}
410 {file_location_id=66 parent_frame_id=410}
411 {file_location_id=67 parent_frame_id=410}
412 {file_location_id=68 parent_frame_id=412}
413 {file_location_id=69 parent_frame_id=412}
414 {file_location_id=70 parent_frame_id=412}
415 {file_location_id=71 parent_frame_id=410}
416 {file_location_id=72 parent_frame_id=410}
417 {file_location_id=73 parent_frame_id=410}
418 {file_location_id=74 parent_frame_id=418}
419 {file_location_id=75 parent_frame_id=418}
420 {file_location_id=76 parent_frame_id=420}
421 {file_location_id=77 parent_frame_id=420}
422 {file_location_id=78 parent_frame_id=420}
423 {file_location_id=79 parent_frame_id=410}
424 {file_location_id=80 parent_frame_id=410}
425 {file_location_id=81 parent_frame_id=418}
426 {file_location_id=87 parent_frame_id=262}
427 {file_location_id=88 parent_frame_id=262}
428 {file_location_id=34 parent_frame_id=428}
429 {file_location_id=35 parent_frame_id=429}
430 {file_location_id=89 parent_frame_id=272}
431 {file_location_id=90 parent_frame_id=431}
432 {file_location_id=91 parent_frame_id=431}
433 {file_location_id=92 parent_frame_id=389}
434 {file_location_id=93 parent_frame_id=273}
435 {file_location_id=94 parent_frame_id=273}
436 {file_location_id=95 parent_frame_id=273}
437 {file_location_id=96 parent_frame_id=273}
438 {file_location_id=97 parent_frame_id=273}
439 {file_location_id=98 parent_frame_id=439}
440 {file_location_id=99 parent_frame_id=439}
441 {file_location_id=100 parent_frame_id=273}
442 {file_location_id=101 parent_frame_id=270}
443 {file_location_id=102 parent_frame_id=262}
444 {file_location_id=34 parent_frame_id=444}
445 {file_location_id=35 parent_frame_id=445}
446 {file_location_id=103 parent_frame_id=262}
447 {file_location_id=104 parent_frame_id=447}
448 {file_location_id=10 parent_frame_id=448}
449 {file_location_id=38 parent_frame_id=449}
450 {file_location_id=39 parent_frame_id=449}
451 {file_location_id=40 parent_frame_id=451}
452 {file_location_id=26 parent_frame_id=277}
453 {file_location_id=27 parent_frame_id=277}
454 {file_location_id=28 parent_frame_id=277}
455 {file_location_id=29 parent_frame_id=277}
456 {file_location_id=30 parent_frame_id=277}
457 {file_location_id=31 parent_frame_id=277}
458 {file_location_id=32 parent_frame_id=277}
459 {file_location_id=105 parent_frame_id=257}
460 {file_location_id=26 parent_frame_id=280}
461 {file_location_id=27 parent_frame_id=280}
462 {file_location_id=28 parent_frame_id=280}
463 {file_location_id=29 parent_frame_id=280}
464 {file_location_id=30 parent_frame_id=280}
465 {file_location_id=31 parent_frame_id=280}
466 {file_location_id=32 parent_frame_id=280}
467 {file_location_id=106 parent_frame_id=257}
468 {file_location_id=10 parent_frame_id=468}
469 {file_location_id=107 parent_frame_id=469}
470 {file_location_id=10 parent_frame_id=470}
471 {file_location_id=38 parent_frame_id=471}
472 {file_location_id=39 parent_frame_id=471}
473 {file_location_id=40 parent_frame_id=473}
474 {file_location_id=108 parent_frame_id=469}
475 {file_location_id=109 parent_frame_id=469}
476 {file_location_id=110 parent_frame_id=469}
477 {file_location_id=34 parent_frame_id=477}
478 {file_location_id=35 parent_frame_id=478}
479 {file_location_id=111 parent_frame_id=469}
480 {file_location_id=10 parent_frame_id=480}
481 {file_location_id=38 parent_frame_id=481}
482 {file_location_id=39 parent_frame_id=481}
483 {file_location_id=40 parent_frame_id=483}
484 {file_location_id=26 parent_frame_id=283}
485 {file_location_id=27 parent_frame_id=283}
486 {file_location_id=28 parent_frame_id=283}
487 {file_location_id=29 parent_frame_id=283}
488 {file_location_id=30 parent_frame_id=283}
489 {file_location_id=31 parent_frame_id=283}
490 {file_location_id=32 parent_frame_id=283}
491 {file_location_id=112 parent_frame_id=257}
492 {file_location_id=25 parent_frame_id=287}
493 {file_location_id=26 parent_frame_id=287}
494 {file_location_id=27 parent_frame_id=287}
495 {file_location_id=28 parent_frame_id=287}
496 {file_location_id=29 parent_frame_id=287}
497 {file_location_id=30 parent_frame_id=287}
498 {file_location_id=31 parent_frame_id=287}
499 {file_location_id=32 parent_frame_id=287}
500 {file_location_id=145 parent_frame_id=285}
501 {file_location_id=146 parent_frame_id=501}
502 {file_location_id=147 parent_frame_id=501}
503 {file_location_id=148 parent_frame_id=285}
504 {file_location_id=149 parent_frame_id=285}
505 {file_location_id=150 parent_frame_id=235}
506 {file_location_id=151 parent_frame_id=235}
507 {file_location_id=152 parent_frame_id=235}
508 {file_location_id=153 parent_frame_id=235}
509 {file_location_id=129 parent_frame_id=235}
510 {file_location_id=130 parent_frame_id=510}
511 {file_location_id=154 parent_frame_id=235}


%dynamic_index_in_dim.1 (Arg_0.1: f32[5,2560,10240], Arg_1.1: s32[]) -> f32[2560,10240] {
  %Arg_0.1 = f32[5,2560,10240]{2,1,0} parameter(0)
  %Arg_1.1 = s32[] parameter(1)
  %constant.38 = s32[] constant(0)
  %dynamic_slice.1 = f32[1,2560,10240]{2,1,0} dynamic-slice(%Arg_0.1, %Arg_1.1, %constant.38, %constant.38), dynamic_slice_sizes={1,2560,10240}, metadata={op_name="dynamic_slice" stack_frame_id=6}
  ROOT %squeeze.1 = f32[2560,10240]{1,0} reshape(%dynamic_slice.1), metadata={op_name="squeeze" stack_frame_id=6}
}

%dynamic_index_in_dim_0.2 (Arg_0.3: f32[5,10240,2560], Arg_1.3: s32[]) -> f32[10240,2560] {
  %Arg_0.3 = f32[5,10240,2560]{2,1,0} parameter(0)
  %Arg_1.3 = s32[] parameter(1)
  %constant.40 = s32[] constant(0)
  %dynamic_slice.3 = f32[1,10240,2560]{2,1,0} dynamic-slice(%Arg_0.3, %Arg_1.3, %constant.40, %constant.40), dynamic_slice_sizes={1,10240,2560}, metadata={op_name="dynamic_slice" stack_frame_id=6}
  ROOT %squeeze.3 = f32[10240,2560]{1,0} reshape(%dynamic_slice.3), metadata={op_name="squeeze" stack_frame_id=6}
}

%dynamic_index_in_dim_1.3 (Arg_0.5: f32[5,2560], Arg_1.5: s32[]) -> f32[2560] {
  %Arg_0.5 = f32[5,2560]{1,0} parameter(0)
  %Arg_1.5 = s32[] parameter(1)
  %constant.42 = s32[] constant(0)
  %dynamic_slice.5 = f32[1,2560]{1,0} dynamic-slice(%Arg_0.5, %Arg_1.5, %constant.42), dynamic_slice_sizes={1,2560}, metadata={op_name="dynamic_slice" stack_frame_id=6}
  ROOT %squeeze.5 = f32[2560]{0} reshape(%dynamic_slice.5), metadata={op_name="squeeze" stack_frame_id=6}
}

%dynamic_index_in_dim_2.4 (Arg_0.7: f32[5,2560,4,256], Arg_1.7: s32[]) -> f32[2560,4,256] {
  %Arg_0.7 = f32[5,2560,4,256]{3,2,1,0} parameter(0)
  %Arg_1.7 = s32[] parameter(1)
  %constant.44 = s32[] constant(0)
  %dynamic_slice.7 = f32[1,2560,4,256]{3,2,1,0} dynamic-slice(%Arg_0.7, %Arg_1.7, %constant.44, %constant.44, %constant.44), dynamic_slice_sizes={1,2560,4,256}, metadata={op_name="dynamic_slice" stack_frame_id=6}
  ROOT %squeeze.7 = f32[2560,4,256]{2,1,0} reshape(%dynamic_slice.7), metadata={op_name="squeeze" stack_frame_id=6}
}

%dynamic_index_in_dim_3.5 (Arg_0.9: f32[5,256], Arg_1.9: s32[]) -> f32[256] {
  %Arg_0.9 = f32[5,256]{1,0} parameter(0)
  %Arg_1.9 = s32[] parameter(1)
  %constant.46 = s32[] constant(0)
  %dynamic_slice.9 = f32[1,256]{1,0} dynamic-slice(%Arg_0.9, %Arg_1.9, %constant.46), dynamic_slice_sizes={1,256}, metadata={op_name="dynamic_slice" stack_frame_id=6}
  ROOT %squeeze.9 = f32[256]{0} reshape(%dynamic_slice.9), metadata={op_name="squeeze" stack_frame_id=6}
}

%dynamic_index_in_dim_4.6 (Arg_0.11: f32[5,8,256,2560], Arg_1.11: s32[]) -> f32[8,256,2560] {
  %Arg_0.11 = f32[5,8,256,2560]{3,2,1,0} parameter(0)
  %Arg_1.11 = s32[] parameter(1)
  %constant.48 = s32[] constant(0)
  %dynamic_slice.11 = f32[1,8,256,2560]{3,2,1,0} dynamic-slice(%Arg_0.11, %Arg_1.11, %constant.48, %constant.48, %constant.48), dynamic_slice_sizes={1,8,256,2560}, metadata={op_name="dynamic_slice" stack_frame_id=6}
  ROOT %squeeze.11 = f32[8,256,2560]{2,1,0} reshape(%dynamic_slice.11), metadata={op_name="squeeze" stack_frame_id=6}
}

%dynamic_index_in_dim_5.7 (Arg_0.13: f32[5,2560,8,256], Arg_1.13: s32[]) -> f32[2560,8,256] {
  %Arg_0.13 = f32[5,2560,8,256]{3,2,1,0} parameter(0)
  %Arg_1.13 = s32[] parameter(1)
  %constant.50 = s32[] constant(0)
  %dynamic_slice.13 = f32[1,2560,8,256]{3,2,1,0} dynamic-slice(%Arg_0.13, %Arg_1.13, %constant.50, %constant.50, %constant.50), dynamic_slice_sizes={1,2560,8,256}, metadata={op_name="dynamic_slice" stack_frame_id=6}
  ROOT %squeeze.13 = f32[2560,8,256]{2,1,0} reshape(%dynamic_slice.13), metadata={op_name="squeeze" stack_frame_id=6}
}

%region_1.8 (reduce_sum.3: f32[], reduce_sum.4: f32[]) -> f32[] {
  %reduce_sum.3 = f32[] parameter(0), metadata={op_name="reduce_sum"}
  %reduce_sum.4 = f32[] parameter(1), metadata={op_name="reduce_sum"}
  ROOT %reduce_sum.5 = f32[] add(%reduce_sum.3, %reduce_sum.4), metadata={op_name="checkpoint/layers/reduce_sum" stack_frame_id=13}
}

%_where.11 (Arg_0.16: pred[1,1,1,64,64], Arg_1.16: f32[], Arg_2.2: f32[]) -> f32[1,1,1,64,64] {
  %Arg_0.16 = pred[1,1,1,64,64]{4,3,2,1,0} parameter(0)
  %Arg_1.16 = f32[] parameter(1)
  %broadcast_in_dim.18 = f32[1,1,1,64,64]{4,3,2,1,0} broadcast(%Arg_1.16), dimensions={}, metadata={op_name="broadcast_in_dim"}
  %Arg_2.2 = f32[] parameter(2)
  %broadcast_in_dim.19 = f32[1,1,1,64,64]{4,3,2,1,0} broadcast(%Arg_2.2), dimensions={}, metadata={op_name="broadcast_in_dim"}
  ROOT %select_n.2 = f32[1,1,1,64,64]{4,3,2,1,0} select(%Arg_0.16, %broadcast_in_dim.18, %broadcast_in_dim.19), metadata={op_name="select_n"}
}

%region_3.10 (reduce_sum.17: f32[], reduce_sum.18: f32[]) -> f32[] {
  %reduce_sum.17 = f32[] parameter(0), metadata={op_name="reduce_sum"}
  %reduce_sum.18 = f32[] parameter(1), metadata={op_name="reduce_sum"}
  ROOT %reduce_sum.19 = f32[] add(%reduce_sum.17, %reduce_sum.18), metadata={op_name="checkpoint/layers/reduce_sum" stack_frame_id=21}
}

%region_2.9 (reduce_sum.10: f32[], reduce_sum.11: f32[]) -> f32[] {
  %reduce_sum.10 = f32[] parameter(0), metadata={op_name="reduce_sum"}
  %reduce_sum.11 = f32[] parameter(1), metadata={op_name="reduce_sum"}
  ROOT %reduce_sum.12 = f32[] add(%reduce_sum.10, %reduce_sum.11), metadata={op_name="checkpoint/layers/reduce_sum" stack_frame_id=18}
}

%_where_6.12 (Arg_0.18: pred[1,1,1,64,64], Arg_1.18: bf16[1,4,2,64,64], Arg_2.4: f32[]) -> bf16[1,4,2,64,64] {
  %Arg_0.18 = pred[1,1,1,64,64]{4,3,2,1,0} parameter(0)
  %broadcast_in_dim.24 = pred[1,1,1,64,64]{4,3,2,1,0} broadcast(%Arg_0.18), dimensions={0,1,2,3,4}, metadata={op_name="broadcast_in_dim"}
  %broadcast_in_dim.25 = pred[1,64,64]{2,1,0} reshape(%broadcast_in_dim.24), metadata={op_name="broadcast_in_dim"}
  %broadcast_in_dim.26 = pred[1,4,2,64,64]{4,3,2,1,0} broadcast(%broadcast_in_dim.25), dimensions={0,3,4}, metadata={op_name="broadcast_in_dim"}
  %Arg_1.18 = bf16[1,4,2,64,64]{4,3,2,1,0} parameter(1)
  %Arg_2.4 = f32[] parameter(2)
  %convert_element_type.23 = bf16[] convert(%Arg_2.4), metadata={op_name="convert_element_type"}
  %broadcast_in_dim.27 = bf16[1,4,2,64,64]{4,3,2,1,0} broadcast(%convert_element_type.23), dimensions={}, metadata={op_name="broadcast_in_dim"}
  ROOT %select_n.4 = bf16[1,4,2,64,64]{4,3,2,1,0} select(%broadcast_in_dim.26, %Arg_1.18, %broadcast_in_dim.27), metadata={op_name="select_n"}
}

%region_4.13 (reduce_max.3: bf16[], reduce_max.4: bf16[]) -> bf16[] {
  %reduce_max.3 = bf16[] parameter(0), metadata={op_name="reduce_max"}
  %reduce_max.4 = bf16[] parameter(1), metadata={op_name="reduce_max"}
  ROOT %reduce_max.5 = bf16[] maximum(%reduce_max.3, %reduce_max.4), metadata={op_name="checkpoint/layers/reduce_max" stack_frame_id=27}
}

%region_5.14 (reduce_sum.24: f32[], reduce_sum.25: f32[]) -> f32[] {
  %reduce_sum.24 = f32[] parameter(0), metadata={op_name="reduce_sum"}
  %reduce_sum.25 = f32[] parameter(1), metadata={op_name="reduce_sum"}
  ROOT %reduce_sum.26 = f32[] add(%reduce_sum.24, %reduce_sum.25), metadata={op_name="checkpoint/layers/reduce_sum" stack_frame_id=28}
}

%region_6.15 (reduce_sum.31: f32[], reduce_sum.32: f32[]) -> f32[] {
  %reduce_sum.31 = f32[] parameter(0), metadata={op_name="reduce_sum"}
  %reduce_sum.32 = f32[] parameter(1), metadata={op_name="reduce_sum"}
  ROOT %reduce_sum.33 = f32[] add(%reduce_sum.31, %reduce_sum.32), metadata={op_name="checkpoint/layers/reduce_sum" stack_frame_id=31}
}

%region_7.16 (reduce_sum.38: f32[], reduce_sum.39: f32[]) -> f32[] {
  %reduce_sum.38 = f32[] parameter(0), metadata={op_name="reduce_sum"}
  %reduce_sum.39 = f32[] parameter(1), metadata={op_name="reduce_sum"}
  ROOT %reduce_sum.40 = f32[] add(%reduce_sum.38, %reduce_sum.39), metadata={op_name="checkpoint/layers/reduce_sum" stack_frame_id=34}
}

%region_8.17 (reduce_sum.45: f32[], reduce_sum.46: f32[]) -> f32[] {
  %reduce_sum.45 = f32[] parameter(0), metadata={op_name="reduce_sum"}
  %reduce_sum.46 = f32[] parameter(1), metadata={op_name="reduce_sum"}
  ROOT %reduce_sum.47 = f32[] add(%reduce_sum.45, %reduce_sum.46), metadata={op_name="checkpoint/layers/reduce_sum" stack_frame_id=37}
}

%region_9.18 (reduce_sum.52: f32[], reduce_sum.53: f32[]) -> f32[] {
  %reduce_sum.52 = f32[] parameter(0), metadata={op_name="reduce_sum"}
  %reduce_sum.53 = f32[] parameter(1), metadata={op_name="reduce_sum"}
  ROOT %reduce_sum.54 = f32[] add(%reduce_sum.52, %reduce_sum.53), metadata={op_name="checkpoint/layers/reduce_sum" stack_frame_id=13}
}

%region_11.20 (reduce_sum.66: f32[], reduce_sum.67: f32[]) -> f32[] {
  %reduce_sum.66 = f32[] parameter(0), metadata={op_name="reduce_sum"}
  %reduce_sum.67 = f32[] parameter(1), metadata={op_name="reduce_sum"}
  ROOT %reduce_sum.68 = f32[] add(%reduce_sum.66, %reduce_sum.67), metadata={op_name="checkpoint/layers/reduce_sum" stack_frame_id=21}
}

%region_10.19 (reduce_sum.59: f32[], reduce_sum.60: f32[]) -> f32[] {
  %reduce_sum.59 = f32[] parameter(0), metadata={op_name="reduce_sum"}
  %reduce_sum.60 = f32[] parameter(1), metadata={op_name="reduce_sum"}
  ROOT %reduce_sum.61 = f32[] add(%reduce_sum.59, %reduce_sum.60), metadata={op_name="checkpoint/layers/reduce_sum" stack_frame_id=18}
}

%region_12.21 (reduce_max.10: bf16[], reduce_max.11: bf16[]) -> bf16[] {
  %reduce_max.10 = bf16[] parameter(0), metadata={op_name="reduce_max"}
  %reduce_max.11 = bf16[] parameter(1), metadata={op_name="reduce_max"}
  ROOT %reduce_max.12 = bf16[] maximum(%reduce_max.10, %reduce_max.11), metadata={op_name="checkpoint/layers/reduce_max" stack_frame_id=27}
}

%region_13.22 (reduce_sum.73: f32[], reduce_sum.74: f32[]) -> f32[] {
  %reduce_sum.73 = f32[] parameter(0), metadata={op_name="reduce_sum"}
  %reduce_sum.74 = f32[] parameter(1), metadata={op_name="reduce_sum"}
  ROOT %reduce_sum.75 = f32[] add(%reduce_sum.73, %reduce_sum.74), metadata={op_name="checkpoint/layers/reduce_sum" stack_frame_id=28}
}

%region_14.23 (reduce_sum.80: f32[], reduce_sum.81: f32[]) -> f32[] {
  %reduce_sum.80 = f32[] parameter(0), metadata={op_name="reduce_sum"}
  %reduce_sum.81 = f32[] parameter(1), metadata={op_name="reduce_sum"}
  ROOT %reduce_sum.82 = f32[] add(%reduce_sum.80, %reduce_sum.81), metadata={op_name="checkpoint/layers/reduce_sum" stack_frame_id=31}
}

%region_15.24 (reduce_sum.87: f32[], reduce_sum.88: f32[]) -> f32[] {
  %reduce_sum.87 = f32[] parameter(0), metadata={op_name="reduce_sum"}
  %reduce_sum.88 = f32[] parameter(1), metadata={op_name="reduce_sum"}
  ROOT %reduce_sum.89 = f32[] add(%reduce_sum.87, %reduce_sum.88), metadata={op_name="checkpoint/layers/reduce_sum" stack_frame_id=34}
}

%region_16.25 (reduce_sum.94: f32[], reduce_sum.95: f32[]) -> f32[] {
  %reduce_sum.94 = f32[] parameter(0), metadata={op_name="reduce_sum"}
  %reduce_sum.95 = f32[] parameter(1), metadata={op_name="reduce_sum"}
  ROOT %reduce_sum.96 = f32[] add(%reduce_sum.94, %reduce_sum.95), metadata={op_name="checkpoint/layers/reduce_sum" stack_frame_id=37}
}

%region_17.26 (reduce_sum.101: f32[], reduce_sum.102: f32[]) -> f32[] {
  %reduce_sum.101 = f32[] parameter(0), metadata={op_name="reduce_sum"}
  %reduce_sum.102 = f32[] parameter(1), metadata={op_name="reduce_sum"}
  ROOT %reduce_sum.103 = f32[] add(%reduce_sum.101, %reduce_sum.102), metadata={op_name="checkpoint/layers/reduce_sum" stack_frame_id=13}
}

%region_19.28 (reduce_sum.115: f32[], reduce_sum.116: f32[]) -> f32[] {
  %reduce_sum.115 = f32[] parameter(0), metadata={op_name="reduce_sum"}
  %reduce_sum.116 = f32[] parameter(1), metadata={op_name="reduce_sum"}
  ROOT %reduce_sum.117 = f32[] add(%reduce_sum.115, %reduce_sum.116), metadata={op_name="checkpoint/layers/reduce_sum" stack_frame_id=21}
}

%region_18.27 (reduce_sum.108: f32[], reduce_sum.109: f32[]) -> f32[] {
  %reduce_sum.108 = f32[] parameter(0), metadata={op_name="reduce_sum"}
  %reduce_sum.109 = f32[] parameter(1), metadata={op_name="reduce_sum"}
  ROOT %reduce_sum.110 = f32[] add(%reduce_sum.108, %reduce_sum.109), metadata={op_name="checkpoint/layers/reduce_sum" stack_frame_id=18}
}

%region_20.29 (reduce_max.17: bf16[], reduce_max.18: bf16[]) -> bf16[] {
  %reduce_max.17 = bf16[] parameter(0), metadata={op_name="reduce_max"}
  %reduce_max.18 = bf16[] parameter(1), metadata={op_name="reduce_max"}
  ROOT %reduce_max.19 = bf16[] maximum(%reduce_max.17, %reduce_max.18), metadata={op_name="checkpoint/layers/reduce_max" stack_frame_id=27}
}

%region_21.30 (reduce_sum.122: f32[], reduce_sum.123: f32[]) -> f32[] {
  %reduce_sum.122 = f32[] parameter(0), metadata={op_name="reduce_sum"}
  %reduce_sum.123 = f32[] parameter(1), metadata={op_name="reduce_sum"}
  ROOT %reduce_sum.124 = f32[] add(%reduce_sum.122, %reduce_sum.123), metadata={op_name="checkpoint/layers/reduce_sum" stack_frame_id=28}
}

%region_22.31 (reduce_sum.129: f32[], reduce_sum.130: f32[]) -> f32[] {
  %reduce_sum.129 = f32[] parameter(0), metadata={op_name="reduce_sum"}
  %reduce_sum.130 = f32[] parameter(1), metadata={op_name="reduce_sum"}
  ROOT %reduce_sum.131 = f32[] add(%reduce_sum.129, %reduce_sum.130), metadata={op_name="checkpoint/layers/reduce_sum" stack_frame_id=31}
}

%region_23.32 (reduce_sum.136: f32[], reduce_sum.137: f32[]) -> f32[] {
  %reduce_sum.136 = f32[] parameter(0), metadata={op_name="reduce_sum"}
  %reduce_sum.137 = f32[] parameter(1), metadata={op_name="reduce_sum"}
  ROOT %reduce_sum.138 = f32[] add(%reduce_sum.136, %reduce_sum.137), metadata={op_name="checkpoint/layers/reduce_sum" stack_frame_id=34}
}

%region_24.33 (reduce_sum.143: f32[], reduce_sum.144: f32[]) -> f32[] {
  %reduce_sum.143 = f32[] parameter(0), metadata={op_name="reduce_sum"}
  %reduce_sum.144 = f32[] parameter(1), metadata={op_name="reduce_sum"}
  ROOT %reduce_sum.145 = f32[] add(%reduce_sum.143, %reduce_sum.144), metadata={op_name="checkpoint/layers/reduce_sum" stack_frame_id=37}
}

%region_25.34 (reduce_sum.150: f32[], reduce_sum.151: f32[]) -> f32[] {
  %reduce_sum.150 = f32[] parameter(0), metadata={op_name="reduce_sum"}
  %reduce_sum.151 = f32[] parameter(1), metadata={op_name="reduce_sum"}
  ROOT %reduce_sum.152 = f32[] add(%reduce_sum.150, %reduce_sum.151), metadata={op_name="checkpoint/layers/reduce_sum" stack_frame_id=13}
}

%region_27.36 (reduce_sum.164: f32[], reduce_sum.165: f32[]) -> f32[] {
  %reduce_sum.164 = f32[] parameter(0), metadata={op_name="reduce_sum"}
  %reduce_sum.165 = f32[] parameter(1), metadata={op_name="reduce_sum"}
  ROOT %reduce_sum.166 = f32[] add(%reduce_sum.164, %reduce_sum.165), metadata={op_name="checkpoint/layers/reduce_sum" stack_frame_id=21}
}

%region_26.35 (reduce_sum.157: f32[], reduce_sum.158: f32[]) -> f32[] {
  %reduce_sum.157 = f32[] parameter(0), metadata={op_name="reduce_sum"}
  %reduce_sum.158 = f32[] parameter(1), metadata={op_name="reduce_sum"}
  ROOT %reduce_sum.159 = f32[] add(%reduce_sum.157, %reduce_sum.158), metadata={op_name="checkpoint/layers/reduce_sum" stack_frame_id=18}
}

%region_28.37 (reduce_max.24: bf16[], reduce_max.25: bf16[]) -> bf16[] {
  %reduce_max.24 = bf16[] parameter(0), metadata={op_name="reduce_max"}
  %reduce_max.25 = bf16[] parameter(1), metadata={op_name="reduce_max"}
  ROOT %reduce_max.26 = bf16[] maximum(%reduce_max.24, %reduce_max.25), metadata={op_name="checkpoint/layers/reduce_max" stack_frame_id=27}
}

%region_29.38 (reduce_sum.171: f32[], reduce_sum.172: f32[]) -> f32[] {
  %reduce_sum.171 = f32[] parameter(0), metadata={op_name="reduce_sum"}
  %reduce_sum.172 = f32[] parameter(1), metadata={op_name="reduce_sum"}
  ROOT %reduce_sum.173 = f32[] add(%reduce_sum.171, %reduce_sum.172), metadata={op_name="checkpoint/layers/reduce_sum" stack_frame_id=28}
}

%region_30.39 (reduce_sum.178: f32[], reduce_sum.179: f32[]) -> f32[] {
  %reduce_sum.178 = f32[] parameter(0), metadata={op_name="reduce_sum"}
  %reduce_sum.179 = f32[] parameter(1), metadata={op_name="reduce_sum"}
  ROOT %reduce_sum.180 = f32[] add(%reduce_sum.178, %reduce_sum.179), metadata={op_name="checkpoint/layers/reduce_sum" stack_frame_id=31}
}

%region_31.40 (reduce_sum.185: f32[], reduce_sum.186: f32[]) -> f32[] {
  %reduce_sum.185 = f32[] parameter(0), metadata={op_name="reduce_sum"}
  %reduce_sum.186 = f32[] parameter(1), metadata={op_name="reduce_sum"}
  ROOT %reduce_sum.187 = f32[] add(%reduce_sum.185, %reduce_sum.186), metadata={op_name="checkpoint/layers/reduce_sum" stack_frame_id=34}
}

%region_32.41 (reduce_sum.192: f32[], reduce_sum.193: f32[]) -> f32[] {
  %reduce_sum.192 = f32[] parameter(0), metadata={op_name="reduce_sum"}
  %reduce_sum.193 = f32[] parameter(1), metadata={op_name="reduce_sum"}
  ROOT %reduce_sum.194 = f32[] add(%reduce_sum.192, %reduce_sum.193), metadata={op_name="checkpoint/layers/reduce_sum" stack_frame_id=37}
}

%region_33.42 (reduce_sum.199: f32[], reduce_sum.200: f32[]) -> f32[] {
  %reduce_sum.199 = f32[] parameter(0), metadata={op_name="reduce_sum"}
  %reduce_sum.200 = f32[] parameter(1), metadata={op_name="reduce_sum"}
  ROOT %reduce_sum.201 = f32[] add(%reduce_sum.199, %reduce_sum.200), metadata={op_name="checkpoint/layers/reduce_sum" stack_frame_id=13}
}

%region_35.44 (reduce_sum.213: f32[], reduce_sum.214: f32[]) -> f32[] {
  %reduce_sum.213 = f32[] parameter(0), metadata={op_name="reduce_sum"}
  %reduce_sum.214 = f32[] parameter(1), metadata={op_name="reduce_sum"}
  ROOT %reduce_sum.215 = f32[] add(%reduce_sum.213, %reduce_sum.214), metadata={op_name="checkpoint/layers/reduce_sum" stack_frame_id=21}
}

%region_34.43 (reduce_sum.206: f32[], reduce_sum.207: f32[]) -> f32[] {
  %reduce_sum.206 = f32[] parameter(0), metadata={op_name="reduce_sum"}
  %reduce_sum.207 = f32[] parameter(1), metadata={op_name="reduce_sum"}
  ROOT %reduce_sum.208 = f32[] add(%reduce_sum.206, %reduce_sum.207), metadata={op_name="checkpoint/layers/reduce_sum" stack_frame_id=18}
}

%region_36.45 (reduce_max.31: bf16[], reduce_max.32: bf16[]) -> bf16[] {
  %reduce_max.31 = bf16[] parameter(0), metadata={op_name="reduce_max"}
  %reduce_max.32 = bf16[] parameter(1), metadata={op_name="reduce_max"}
  ROOT %reduce_max.33 = bf16[] maximum(%reduce_max.31, %reduce_max.32), metadata={op_name="checkpoint/layers/reduce_max" stack_frame_id=27}
}

%region_37.46 (reduce_sum.220: f32[], reduce_sum.221: f32[]) -> f32[] {
  %reduce_sum.220 = f32[] parameter(0), metadata={op_name="reduce_sum"}
  %reduce_sum.221 = f32[] parameter(1), metadata={op_name="reduce_sum"}
  ROOT %reduce_sum.222 = f32[] add(%reduce_sum.220, %reduce_sum.221), metadata={op_name="checkpoint/layers/reduce_sum" stack_frame_id=28}
}

%region_38.47 (reduce_sum.227: f32[], reduce_sum.228: f32[]) -> f32[] {
  %reduce_sum.227 = f32[] parameter(0), metadata={op_name="reduce_sum"}
  %reduce_sum.228 = f32[] parameter(1), metadata={op_name="reduce_sum"}
  ROOT %reduce_sum.229 = f32[] add(%reduce_sum.227, %reduce_sum.228), metadata={op_name="checkpoint/layers/reduce_sum" stack_frame_id=31}
}

%region_39.48 (reduce_sum.234: f32[], reduce_sum.235: f32[]) -> f32[] {
  %reduce_sum.234 = f32[] parameter(0), metadata={op_name="reduce_sum"}
  %reduce_sum.235 = f32[] parameter(1), metadata={op_name="reduce_sum"}
  ROOT %reduce_sum.236 = f32[] add(%reduce_sum.234, %reduce_sum.235), metadata={op_name="checkpoint/layers/reduce_sum" stack_frame_id=34}
}

%region_40.49 (reduce_sum.241: f32[], reduce_sum.242: f32[]) -> f32[] {
  %reduce_sum.241 = f32[] parameter(0), metadata={op_name="reduce_sum"}
  %reduce_sum.242 = f32[] parameter(1), metadata={op_name="reduce_sum"}
  ROOT %reduce_sum.243 = f32[] add(%reduce_sum.241, %reduce_sum.242), metadata={op_name="checkpoint/layers/reduce_sum" stack_frame_id=37}
}

%region_41.50 (reduce_sum.248: f32[], reduce_sum.249: f32[]) -> f32[] {
  %reduce_sum.248 = f32[] parameter(0), metadata={op_name="reduce_sum"}
  %reduce_sum.249 = f32[] parameter(1), metadata={op_name="reduce_sum"}
  ROOT %reduce_sum.250 = f32[] add(%reduce_sum.248, %reduce_sum.249), metadata={op_name="checkpoint/layers/reduce_sum" stack_frame_id=13}
}

%region_43.52 (reduce_sum.262: f32[], reduce_sum.263: f32[]) -> f32[] {
  %reduce_sum.262 = f32[] parameter(0), metadata={op_name="reduce_sum"}
  %reduce_sum.263 = f32[] parameter(1), metadata={op_name="reduce_sum"}
  ROOT %reduce_sum.264 = f32[] add(%reduce_sum.262, %reduce_sum.263), metadata={op_name="checkpoint/layers/reduce_sum" stack_frame_id=21}
}

%region_42.51 (reduce_sum.255: f32[], reduce_sum.256: f32[]) -> f32[] {
  %reduce_sum.255 = f32[] parameter(0), metadata={op_name="reduce_sum"}
  %reduce_sum.256 = f32[] parameter(1), metadata={op_name="reduce_sum"}
  ROOT %reduce_sum.257 = f32[] add(%reduce_sum.255, %reduce_sum.256), metadata={op_name="checkpoint/layers/reduce_sum" stack_frame_id=18}
}

%region_44.53 (reduce_max.38: bf16[], reduce_max.39: bf16[]) -> bf16[] {
  %reduce_max.38 = bf16[] parameter(0), metadata={op_name="reduce_max"}
  %reduce_max.39 = bf16[] parameter(1), metadata={op_name="reduce_max"}
  ROOT %reduce_max.40 = bf16[] maximum(%reduce_max.38, %reduce_max.39), metadata={op_name="checkpoint/layers/reduce_max" stack_frame_id=27}
}

%region_45.54 (reduce_sum.269: f32[], reduce_sum.270: f32[]) -> f32[] {
  %reduce_sum.269 = f32[] parameter(0), metadata={op_name="reduce_sum"}
  %reduce_sum.270 = f32[] parameter(1), metadata={op_name="reduce_sum"}
  ROOT %reduce_sum.271 = f32[] add(%reduce_sum.269, %reduce_sum.270), metadata={op_name="checkpoint/layers/reduce_sum" stack_frame_id=28}
}

%region_46.55 (reduce_sum.276: f32[], reduce_sum.277: f32[]) -> f32[] {
  %reduce_sum.276 = f32[] parameter(0), metadata={op_name="reduce_sum"}
  %reduce_sum.277 = f32[] parameter(1), metadata={op_name="reduce_sum"}
  ROOT %reduce_sum.278 = f32[] add(%reduce_sum.276, %reduce_sum.277), metadata={op_name="checkpoint/layers/reduce_sum" stack_frame_id=31}
}

%region_47.56 (reduce_sum.283: f32[], reduce_sum.284: f32[]) -> f32[] {
  %reduce_sum.283 = f32[] parameter(0), metadata={op_name="reduce_sum"}
  %reduce_sum.284 = f32[] parameter(1), metadata={op_name="reduce_sum"}
  ROOT %reduce_sum.285 = f32[] add(%reduce_sum.283, %reduce_sum.284), metadata={op_name="checkpoint/layers/reduce_sum" stack_frame_id=34}
}

%region_48.57 (reduce_sum.290: f32[], reduce_sum.291: f32[]) -> f32[] {
  %reduce_sum.290 = f32[] parameter(0), metadata={op_name="reduce_sum"}
  %reduce_sum.291 = f32[] parameter(1), metadata={op_name="reduce_sum"}
  ROOT %reduce_sum.292 = f32[] add(%reduce_sum.290, %reduce_sum.291), metadata={op_name="checkpoint/layers/reduce_sum" stack_frame_id=37}
}

%closed_call.58 (Arg_0.19: s32[1,64], Arg_1.19: s32[1,64], Arg_2.5: bf16[1,64,2560], Arg_3.1: f32[2560,10240], Arg_4.1: f32[2560,10240], Arg_5.1: f32[10240,2560], Arg_6.1: f32[2560], Arg_7.1: f32[2560], Arg_8.1: f32[2560], Arg_9.1: f32[2560], Arg_10.1: f32[2560,4,256], Arg_11.1: f32[256], Arg_12.1: f32[8,256,2560], Arg_13.1: f32[2560,8,256], Arg_14.1: f32[256], Arg_15.1: f32[2560,4,256], Arg_16.1: f32[2560,10240], Arg_17.1: f32[2560,10240], Arg_18.1: f32[10240,2560], Arg_19.1: f32[2560], Arg_20.1: f32[2560], Arg_21.1: f32[2560], Arg_22.1: f32[2560], Arg_23.1: f32[2560,4,256], Arg_24.1: f32[256], Arg_25.1: f32[8,256,2560], Arg_26.1: f32[2560,8,256], Arg_27.1: f32[256], Arg_28.1: f32[2560,4,256], Arg_29.1: f32[2560,10240], Arg_30.1: f32[2560,10240], Arg_31.1: f32[10240,2560], Arg_32.1: f32[2560], Arg_33.1: f32[2560], Arg_34.1: f32[2560], Arg_35.1: f32[2560], Arg_36.1: f32[2560,4,256], Arg_37.1: f32[256], Arg_38.1: f32[8,256,2560], Arg_39.1: f32[2560,8,256], Arg_40.1: f32[256], Arg_41.1: f32[2560,4,256], Arg_42.1: f32[2560,10240], Arg_43.1: f32[2560,10240], Arg_44.1: f32[10240,2560], Arg_45.1: f32[2560], Arg_46.1: f32[2560], Arg_47.1: f32[2560], Arg_48.1: f32[2560], Arg_49.1: f32[2560,4,256], Arg_50.1: f32[256], Arg_51.1: f32[8,256,2560], Arg_52.1: f32[2560,8,256], Arg_53.1: f32[256], Arg_54.1: f32[2560,4,256], Arg_55.1: f32[2560,10240], Arg_56.1: f32[2560,10240], Arg_57.1: f32[10240,2560], Arg_58.1: f32[2560], Arg_59.1: f32[2560], Arg_60.1: f32[2560], Arg_61.1: f32[2560], Arg_62.1: f32[2560,4,256], Arg_63.1: f32[256], Arg_64.1: f32[8,256,2560], Arg_65.1: f32[2560,8,256], Arg_66.1: f32[256], Arg_67.1: f32[2560,4,256], Arg_68.1: f32[2560,10240], Arg_69.1: f32[2560,10240], Arg_70.1: f32[10240,2560], Arg_71.1: f32[2560], Arg_72.1: f32[2560], Arg_73.1: f32[2560], Arg_74.1: f32[2560], Arg_75.1: f32[2560,4,256], Arg_76.1: f32[256], Arg_77.1: f32[8,256,2560], Arg_78.1: f32[2560,8,256], Arg_79.1: f32[256], Arg_80.1: f32[2560,4,256]) -> (bf16[1,64,2560], s32[1], s32[1,1984], s32[1,64], bf16[1984,4,1,256], /*index=5*/s32[1], bf16[1984,4,1,256], bf16[64,4,1,256], bf16[64,4,1,256], s32[1], /*index=10*/s32[1,1984], s32[1,64], bf16[1984,4,1,256], s32[1], bf16[1984,4,1,256], /*index=15*/bf16[64,4,1,256], bf16[64,4,1,256], s32[1], s32[1,1984], s32[1,64], /*index=20*/bf16[1984,4,1,256], s32[1], bf16[1984,4,1,256], bf16[64,4,1,256], bf16[64,4,1,256], /*index=25*/s32[1], s32[1,1984], s32[1,64], bf16[1984,4,1,256], s32[1], /*index=30*/bf16[1984,4,1,256], bf16[64,4,1,256], bf16[64,4,1,256], s32[1], s32[1,1984], /*index=35*/s32[1,64], bf16[1984,4,1,256], s32[1], bf16[1984,4,1,256], bf16[64,4,1,256], /*index=40*/bf16[64,4,1,256], s32[1], s32[1,1984], s32[1,64], bf16[1984,4,1,256], /*index=45*/s32[1], bf16[1984,4,1,256], bf16[64,4,1,256], bf16[64,4,1,256]) {
  %Arg_71.1 = f32[2560]{0} parameter(71)
  %convert_element_type.423 = bf16[2560]{0} convert(%Arg_71.1), metadata={op_name="checkpoint/layers/convert_element_type" stack_frame_id=38}
  %Arg_73.1 = f32[2560]{0} parameter(73)
  %convert_element_type.417 = bf16[2560]{0} convert(%Arg_73.1), metadata={op_name="checkpoint/layers/convert_element_type" stack_frame_id=39}
  %Arg_72.1 = f32[2560]{0} parameter(72)
  %convert_element_type.414 = bf16[2560]{0} convert(%Arg_72.1), metadata={op_name="checkpoint/layers/convert_element_type" stack_frame_id=40}
  %Arg_74.1 = f32[2560]{0} parameter(74)
  %convert_element_type.391 = bf16[2560]{0} convert(%Arg_74.1), metadata={op_name="checkpoint/layers/convert_element_type" stack_frame_id=41}
  %Arg_58.1 = f32[2560]{0} parameter(58)
  %convert_element_type.388 = bf16[2560]{0} convert(%Arg_58.1), metadata={op_name="checkpoint/layers/convert_element_type" stack_frame_id=38}
  %Arg_60.1 = f32[2560]{0} parameter(60)
  %convert_element_type.382 = bf16[2560]{0} convert(%Arg_60.1), metadata={op_name="checkpoint/layers/convert_element_type" stack_frame_id=39}
  %Arg_59.1 = f32[2560]{0} parameter(59)
  %convert_element_type.379 = bf16[2560]{0} convert(%Arg_59.1), metadata={op_name="checkpoint/layers/convert_element_type" stack_frame_id=40}
  %Arg_61.1 = f32[2560]{0} parameter(61)
  %convert_element_type.356 = bf16[2560]{0} convert(%Arg_61.1), metadata={op_name="checkpoint/layers/convert_element_type" stack_frame_id=41}
  %Arg_45.1 = f32[2560]{0} parameter(45)
  %convert_element_type.353 = bf16[2560]{0} convert(%Arg_45.1), metadata={op_name="checkpoint/layers/convert_element_type" stack_frame_id=38}
  %Arg_47.1 = f32[2560]{0} parameter(47)
  %convert_element_type.347 = bf16[2560]{0} convert(%Arg_47.1), metadata={op_name="checkpoint/layers/convert_element_type" stack_frame_id=39}
  %Arg_46.1 = f32[2560]{0} parameter(46)
  %convert_element_type.344 = bf16[2560]{0} convert(%Arg_46.1), metadata={op_name="checkpoint/layers/convert_element_type" stack_frame_id=40}
  %Arg_48.1 = f32[2560]{0} parameter(48)
  %convert_element_type.321 = bf16[2560]{0} convert(%Arg_48.1), metadata={op_name="checkpoint/layers/convert_element_type" stack_frame_id=41}
  %Arg_32.1 = f32[2560]{0} parameter(32)
  %convert_element_type.318 = bf16[2560]{0} convert(%Arg_32.1), metadata={op_name="checkpoint/layers/convert_element_type" stack_frame_id=38}
  %Arg_34.1 = f32[2560]{0} parameter(34)
  %convert_element_type.312 = bf16[2560]{0} convert(%Arg_34.1), metadata={op_name="checkpoint/layers/convert_element_type" stack_frame_id=39}
  %Arg_33.1 = f32[2560]{0} parameter(33)
  %convert_element_type.309 = bf16[2560]{0} convert(%Arg_33.1), metadata={op_name="checkpoint/layers/convert_element_type" stack_frame_id=40}
  %Arg_35.1 = f32[2560]{0} parameter(35)
  %convert_element_type.286 = bf16[2560]{0} convert(%Arg_35.1), metadata={op_name="checkpoint/layers/convert_element_type" stack_frame_id=41}
  %Arg_19.1 = f32[2560]{0} parameter(19)
  %convert_element_type.283 = bf16[2560]{0} convert(%Arg_19.1), metadata={op_name="checkpoint/layers/convert_element_type" stack_frame_id=38}
  %Arg_21.1 = f32[2560]{0} parameter(21)
  %convert_element_type.277 = bf16[2560]{0} convert(%Arg_21.1), metadata={op_name="checkpoint/layers/convert_element_type" stack_frame_id=39}
  %Arg_20.1 = f32[2560]{0} parameter(20)
  %convert_element_type.274 = bf16[2560]{0} convert(%Arg_20.1), metadata={op_name="checkpoint/layers/convert_element_type" stack_frame_id=40}
  %Arg_22.1 = f32[2560]{0} parameter(22)
  %convert_element_type.251 = bf16[2560]{0} convert(%Arg_22.1), metadata={op_name="checkpoint/layers/convert_element_type" stack_frame_id=41}
  %Arg_6.1 = f32[2560]{0} parameter(6)
  %convert_element_type.248 = bf16[2560]{0} convert(%Arg_6.1), metadata={op_name="checkpoint/layers/convert_element_type" stack_frame_id=38}
  %Arg_8.1 = f32[2560]{0} parameter(8)
  %convert_element_type.242 = bf16[2560]{0} convert(%Arg_8.1), metadata={op_name="checkpoint/layers/convert_element_type" stack_frame_id=39}
  %Arg_7.1 = f32[2560]{0} parameter(7)
  %convert_element_type.239 = bf16[2560]{0} convert(%Arg_7.1), metadata={op_name="checkpoint/layers/convert_element_type" stack_frame_id=40}
  %Arg_9.1 = f32[2560]{0} parameter(9)
  %convert_element_type.216 = bf16[2560]{0} convert(%Arg_9.1), metadata={op_name="checkpoint/layers/convert_element_type" stack_frame_id=41}
  %Arg_2.5 = bf16[1,64,2560]{2,1,0} parameter(2)
  %convert_element_type.214 = f32[1,64,2560]{2,1,0} convert(%Arg_2.5), metadata={op_name="checkpoint/layers/convert_element_type" stack_frame_id=42}
  %square.36 = f32[1,64,2560]{2,1,0} multiply(%convert_element_type.214, %convert_element_type.214), metadata={op_name="checkpoint/layers/square" stack_frame_id=43}
  %constant.95 = f32[] constant(0)
  %reduce_sum.294 = f32[1,64]{1,0} reduce(%square.36, %constant.95), dimensions={2}, to_apply=%region_1.8, metadata={op_name="checkpoint/layers/reduce_sum" stack_frame_id=13}
  %broadcast_in_dim.117 = f32[1,64,1]{2,1,0} reshape(%reduce_sum.294), metadata={op_name="checkpoint/layers/broadcast_in_dim" stack_frame_id=13}
  %constant.92 = f32[] constant(2560)
  %broadcast.60 = f32[1,64,1]{2,1,0} broadcast(%constant.92), dimensions={}
  %div.157 = f32[1,64,1]{2,1,0} divide(%broadcast_in_dim.117, %broadcast.60), metadata={op_name="checkpoint/layers/div" stack_frame_id=13}
  %constant.91 = f32[] constant(1e-06)
  %broadcast.59 = f32[1,64,1]{2,1,0} broadcast(%constant.91), dimensions={}
  %add.74 = f32[1,64,1]{2,1,0} add(%div.157, %broadcast.59), metadata={op_name="checkpoint/layers/add" stack_frame_id=44}
  %rsqrt.36 = f32[1,64,1]{2,1,0} rsqrt(%add.74), metadata={op_name="checkpoint/layers/rsqrt" stack_frame_id=45}
  %mul.290 = f32[1,64,1]{2,1,0} broadcast(%rsqrt.36), dimensions={0,1,2}, metadata={op_name="checkpoint/layers/mul" stack_frame_id=46}
  %mul.291 = f32[1,64]{1,0} reshape(%mul.290), metadata={op_name="checkpoint/layers/mul" stack_frame_id=46}
  %mul.292 = f32[1,64,2560]{2,1,0} broadcast(%mul.291), dimensions={0,1}, metadata={op_name="checkpoint/layers/mul" stack_frame_id=46}
  %mul.293 = f32[1,64,2560]{2,1,0} multiply(%convert_element_type.214, %mul.292), metadata={op_name="checkpoint/layers/mul" stack_frame_id=46}
  %convert_element_type.215 = bf16[1,64,2560]{2,1,0} convert(%mul.293), metadata={op_name="checkpoint/layers/convert_element_type" stack_frame_id=47}
  %dot_general.90 = bf16[2560,1,64]{2,1,0} dot(%convert_element_type.216, %convert_element_type.215), lhs_batch_dims={0}, lhs_contracting_dims={}, rhs_batch_dims={2}, rhs_contracting_dims={}, metadata={op_name="checkpoint/layers/...k,k->...k/dot_general" stack_frame_id=48}
  %transpose.144 = bf16[1,64,2560]{1,0,2} transpose(%dot_general.90), dimensions={1,2,0}, metadata={op_name="checkpoint/layers/...k,k->...k/transpose" stack_frame_id=48}
  %sharding_constraint.43 = bf16[1,64,2560]{2,1,0} custom-call(%transpose.144), custom_call_target="Sharding", sharding={devices=[1,1,2]<=[2]}, frontend_attributes={xla.sdy.sharding="#sdy.sharding_per_value<[<@mesh, [{}, {}, {\"tensor\"}]>]>"}, metadata={op_name="checkpoint/layers/sharding_constraint" stack_frame_id=51}
  %Arg_15.1 = f32[2560,4,256]{2,1,0} parameter(15)
  %convert_element_type.219 = bf16[2560,4,256]{2,1,0} convert(%Arg_15.1), metadata={op_name="checkpoint/layers/convert_element_type" stack_frame_id=55}
  %dot_general.93 = bf16[1,64,4,256]{3,2,1,0} dot(%sharding_constraint.43, %convert_element_type.219), lhs_contracting_dims={2}, rhs_contracting_dims={0}, metadata={op_name="checkpoint/layers/dot_general" stack_frame_id=57}
  %sharding_constraint.46 = bf16[1,64,4,256]{3,2,1,0} custom-call(%dot_general.93), custom_call_target="Sharding", sharding={devices=[1,1,2,1]<=[2]}, frontend_attributes={xla.sdy.sharding="#sdy.sharding_per_value<[<@mesh, [{}, {}, {\"tensor\"}, {}]>]>"}, metadata={op_name="checkpoint/layers/sharding_constraint" stack_frame_id=60}
  %iota.66 = s32[64]{0} iota(), iota_dimension=0, metadata={op_name="checkpoint/layers/iota" stack_frame_id=62}
  %iota.67 = s32[1,64]{1,0} reshape(%iota.66), metadata={op_name="checkpoint/layers/iota" stack_frame_id=62}
  %gt.35 = s32[1,64]{1,0} broadcast(%iota.67), dimensions={0,1}, metadata={op_name="checkpoint/layers/gt" stack_frame_id=63}
  %gt.36 = s32[64]{0} reshape(%gt.35), metadata={op_name="checkpoint/layers/gt" stack_frame_id=63}
  %gt.37 = s32[64,64]{1,0} broadcast(%gt.36), dimensions={1}, metadata={op_name="checkpoint/layers/gt" stack_frame_id=63}
  %iota.64 = s32[64]{0} iota(), iota_dimension=0, metadata={op_name="checkpoint/layers/iota" stack_frame_id=64}
  %iota.65 = s32[64,1]{1,0} reshape(%iota.64), metadata={op_name="checkpoint/layers/iota" stack_frame_id=64}
  %constant.82 = s32[] constant(1024)
  %broadcast.50 = s32[64,1]{1,0} broadcast(%constant.82), dimensions={}
  %sub.29 = s32[64,1]{1,0} subtract(%iota.65, %broadcast.50), metadata={op_name="checkpoint/layers/sub" stack_frame_id=65}
  %gt.38 = s32[64,1]{1,0} broadcast(%sub.29), dimensions={0,1}, metadata={op_name="checkpoint/layers/gt" stack_frame_id=63}
  %gt.39 = s32[64]{0} reshape(%gt.38), metadata={op_name="checkpoint/layers/gt" stack_frame_id=63}
  %gt.40 = s32[64,64]{1,0} broadcast(%gt.39), dimensions={0}, metadata={op_name="checkpoint/layers/gt" stack_frame_id=63}
  %gt.41 = pred[64,64]{1,0} compare(%gt.37, %gt.40), direction=GT, metadata={op_name="checkpoint/layers/gt" stack_frame_id=63}
  %le.42 = s32[1,64]{1,0} broadcast(%iota.67), dimensions={0,1}, metadata={op_name="checkpoint/layers/le" stack_frame_id=66}
  %le.43 = s32[64]{0} reshape(%le.42), metadata={op_name="checkpoint/layers/le" stack_frame_id=66}
  %le.44 = s32[64,64]{1,0} broadcast(%le.43), dimensions={1}, metadata={op_name="checkpoint/layers/le" stack_frame_id=66}
  %le.45 = s32[64,1]{1,0} broadcast(%iota.65), dimensions={0,1}, metadata={op_name="checkpoint/layers/le" stack_frame_id=66}
  %le.46 = s32[64]{0} reshape(%le.45), metadata={op_name="checkpoint/layers/le" stack_frame_id=66}
  %le.47 = s32[64,64]{1,0} broadcast(%le.46), dimensions={0}, metadata={op_name="checkpoint/layers/le" stack_frame_id=66}
  %le.48 = pred[64,64]{1,0} compare(%le.44, %le.47), direction=LE, metadata={op_name="checkpoint/layers/le" stack_frame_id=66}
  %and.17 = pred[64,64]{1,0} and(%gt.41, %le.48), metadata={op_name="checkpoint/layers/and" stack_frame_id=67}
  %broadcast_in_dim.128 = pred[1,1,1,64,64]{4,3,2,1,0} reshape(%and.17), metadata={op_name="checkpoint/layers/broadcast_in_dim" stack_frame_id=68}
  %Arg_0.19 = s32[1,64]{1,0} parameter(0)
  %broadcast_in_dim.124 = s32[1,64,1]{2,1,0} reshape(%Arg_0.19), metadata={op_name="checkpoint/layers/broadcast_in_dim" stack_frame_id=69}
  %eq.42 = s32[1,64,1]{2,1,0} broadcast(%broadcast_in_dim.124), dimensions={0,1,2}, metadata={op_name="checkpoint/layers/eq" stack_frame_id=69}
  %eq.43 = s32[1,64]{1,0} reshape(%eq.42), metadata={op_name="checkpoint/layers/eq" stack_frame_id=69}
  %eq.44 = s32[1,64,64]{2,1,0} broadcast(%eq.43), dimensions={0,1}, metadata={op_name="checkpoint/layers/eq" stack_frame_id=69}
  %broadcast_in_dim.125 = s32[1,1,64]{2,1,0} reshape(%Arg_0.19), metadata={op_name="checkpoint/layers/broadcast_in_dim" stack_frame_id=70}
  %eq.45 = s32[1,1,64]{2,1,0} broadcast(%broadcast_in_dim.125), dimensions={0,1,2}, metadata={op_name="checkpoint/layers/eq" stack_frame_id=69}
  %eq.46 = s32[1,64]{1,0} reshape(%eq.45), metadata={op_name="checkpoint/layers/eq" stack_frame_id=69}
  %eq.47 = s32[1,64,64]{2,1,0} broadcast(%eq.46), dimensions={0,2}, metadata={op_name="checkpoint/layers/eq" stack_frame_id=69}
  %eq.48 = pred[1,64,64]{2,1,0} compare(%eq.44, %eq.47), direction=EQ, metadata={op_name="checkpoint/layers/eq" stack_frame_id=69}
  %broadcast_in_dim.126 = pred[1,1,1,64,64]{4,3,2,1,0} reshape(%eq.48), metadata={op_name="checkpoint/layers/broadcast_in_dim" stack_frame_id=71}
  %iota.62 = s32[64]{0} iota(), iota_dimension=0, metadata={op_name="checkpoint/layers/iota" stack_frame_id=72}
  %iota.63 = s32[64,64]{1,0} broadcast(%iota.62), dimensions={1}, metadata={op_name="checkpoint/layers/iota" stack_frame_id=72}
  %iota.60 = s32[64]{0} iota(), iota_dimension=0, metadata={op_name="checkpoint/layers/iota" stack_frame_id=73}
  %iota.61 = s32[64,64]{1,0} broadcast(%iota.60), dimensions={0}, metadata={op_name="checkpoint/layers/iota" stack_frame_id=73}
  %le.41 = pred[64,64]{1,0} compare(%iota.63, %iota.61), direction=LE, metadata={op_name="checkpoint/layers/le" stack_frame_id=74}
  %broadcast_in_dim.127 = pred[1,1,1,64,64]{4,3,2,1,0} reshape(%le.41), metadata={op_name="checkpoint/layers/broadcast_in_dim" stack_frame_id=75}
  %and.16 = pred[1,1,1,64,64]{4,3,2,1,0} and(%broadcast_in_dim.126, %broadcast_in_dim.127), metadata={op_name="checkpoint/layers/and" stack_frame_id=76}
  %and.18 = pred[1,1,1,64,64]{4,3,2,1,0} and(%broadcast_in_dim.128, %and.16), metadata={op_name="checkpoint/layers/and" stack_frame_id=68}
  %constant.94 = f32[] constant(-2.38197633e+38)
  %jit__where_.12 = f32[1,1,1,64,64]{4,3,2,1,0} call(%and.18, %constant.95, %constant.94), to_apply=%_where.11, metadata={op_name="checkpoint/layers/jit(_where)" stack_frame_id=77}
  %constant.81 = f32[] constant(-1.19098816e+38)
  %broadcast.49 = f32[1,1,1,64,64]{4,3,2,1,0} broadcast(%constant.81), dimensions={}
  %ge.6 = pred[1,1,1,64,64]{4,3,2,1,0} compare(%jit__where_.12, %broadcast.49), direction=GE, metadata={op_name="checkpoint/layers/ge" stack_frame_id=79}
  %Arg_11.1 = f32[256]{0} parameter(11)
  %convert_element_type.225 = bf16[256]{0} convert(%Arg_11.1), metadata={op_name="checkpoint/layers/convert_element_type" stack_frame_id=80}
  %Arg_10.1 = f32[2560,4,256]{2,1,0} parameter(10)
  %convert_element_type.218 = bf16[2560,4,256]{2,1,0} convert(%Arg_10.1), metadata={op_name="checkpoint/layers/convert_element_type" stack_frame_id=84}
  %dot_general.92 = bf16[1,64,4,256]{3,2,1,0} dot(%sharding_constraint.43, %convert_element_type.218), lhs_contracting_dims={2}, rhs_contracting_dims={0}, metadata={op_name="checkpoint/layers/dot_general" stack_frame_id=86}
  %convert_element_type.223 = f32[1,64,4,256]{3,2,1,0} convert(%dot_general.92), metadata={op_name="checkpoint/layers/convert_element_type" stack_frame_id=87}
  %square.38 = f32[1,64,4,256]{3,2,1,0} multiply(%convert_element_type.223, %convert_element_type.223), metadata={op_name="checkpoint/layers/square" stack_frame_id=88}
  %reduce_sum.296 = f32[1,64,4]{2,1,0} reduce(%square.38, %constant.95), dimensions={3}, to_apply=%region_3.10, metadata={op_name="checkpoint/layers/reduce_sum" stack_frame_id=21}
  %broadcast_in_dim.119 = f32[1,64,4,1]{3,2,1,0} reshape(%reduce_sum.296), metadata={op_name="checkpoint/layers/broadcast_in_dim" stack_frame_id=21}
  %constant.88 = f32[] constant(256)
  %broadcast.56 = f32[1,64,4,1]{3,2,1,0} broadcast(%constant.88), dimensions={}
  %div.159 = f32[1,64,4,1]{3,2,1,0} divide(%broadcast_in_dim.119, %broadcast.56), metadata={op_name="checkpoint/layers/div" stack_frame_id=21}
  %constant.87 = f32[] constant(1e-06)
  %broadcast.55 = f32[1,64,4,1]{3,2,1,0} broadcast(%constant.87), dimensions={}
  %add.76 = f32[1,64,4,1]{3,2,1,0} add(%div.159, %broadcast.55), metadata={op_name="checkpoint/layers/add" stack_frame_id=89}
  %rsqrt.38 = f32[1,64,4,1]{3,2,1,0} rsqrt(%add.76), metadata={op_name="checkpoint/layers/rsqrt" stack_frame_id=90}
  %mul.298 = f32[1,64,4,1]{3,2,1,0} broadcast(%rsqrt.38), dimensions={0,1,2,3}, metadata={op_name="checkpoint/layers/mul" stack_frame_id=91}
  %mul.299 = f32[1,64,4]{2,1,0} reshape(%mul.298), metadata={op_name="checkpoint/layers/mul" stack_frame_id=91}
  %mul.300 = f32[1,64,4,256]{3,2,1,0} broadcast(%mul.299), dimensions={0,1,2}, metadata={op_name="checkpoint/layers/mul" stack_frame_id=91}
  %mul.301 = f32[1,64,4,256]{3,2,1,0} multiply(%convert_element_type.223, %mul.300), metadata={op_name="checkpoint/layers/mul" stack_frame_id=91}
  %convert_element_type.224 = bf16[1,64,4,256]{3,2,1,0} convert(%mul.301), metadata={op_name="checkpoint/layers/convert_element_type" stack_frame_id=92}
  %dot_general.95 = bf16[256,1,64,4]{3,2,1,0} dot(%convert_element_type.225, %convert_element_type.224), lhs_batch_dims={0}, lhs_contracting_dims={}, rhs_batch_dims={3}, rhs_contracting_dims={}, metadata={op_name="checkpoint/layers/...k,k->...k/dot_general" stack_frame_id=93}
  %transpose.146 = bf16[1,64,4,256]{2,1,0,3} transpose(%dot_general.95), dimensions={1,2,3,0}, metadata={op_name="checkpoint/layers/...k,k->...k/transpose" stack_frame_id=93}
  %Arg_1.19 = s32[1,64]{1,0} parameter(1)
  %broadcast_in_dim.122 = s32[1,64,1,1]{3,2,1,0} reshape(%Arg_1.19), metadata={op_name="checkpoint/layers/broadcast_in_dim" stack_frame_id=97}
  %convert_element_type.231 = f32[1,64,1,1]{3,2,1,0} convert(%broadcast_in_dim.122), metadata={op_name="checkpoint/layers/convert_element_type" stack_frame_id=98}
  %div.169 = f32[1,64,1,1]{3,2,1,0} broadcast(%convert_element_type.231), dimensions={0,1,2,3}, metadata={op_name="checkpoint/layers/div" stack_frame_id=98}
  %div.170 = f32[1,64,1]{2,1,0} reshape(%div.169), metadata={op_name="checkpoint/layers/div" stack_frame_id=98}
  %div.171 = f32[1,64,1,128]{3,2,1,0} broadcast(%div.170), dimensions={0,1,2}, metadata={op_name="checkpoint/layers/div" stack_frame_id=98}
  %constant.84 = f32[] constant(10000)
  %broadcast.52 = f32[128]{0} broadcast(%constant.84), dimensions={}
  %iota.59 = s32[128]{0} iota(), iota_dimension=0, metadata={op_name="checkpoint/layers/iota" stack_frame_id=100}
  %constant.86 = s32[] constant(2)
  %broadcast.54 = s32[128]{0} broadcast(%constant.86), dimensions={}
  %mul.311 = s32[128]{0} multiply(%iota.59, %broadcast.54), metadata={op_name="checkpoint/layers/mul" stack_frame_id=101}
  %convert_element_type.230 = f32[128]{0} convert(%mul.311), metadata={op_name="checkpoint/layers/convert_element_type" stack_frame_id=101}
  %constant.85 = f32[] constant(256)
  %broadcast.53 = f32[128]{0} broadcast(%constant.85), dimensions={}
  %div.168 = f32[128]{0} divide(%convert_element_type.230, %broadcast.53), metadata={op_name="checkpoint/layers/div" stack_frame_id=101}
  %pow.13 = f32[128]{0} power(%broadcast.52, %div.168), metadata={op_name="checkpoint/layers/pow" stack_frame_id=102}
  %broadcast_in_dim.123 = f32[1,1,1,128]{3,2,1,0} reshape(%pow.13), metadata={op_name="checkpoint/layers/broadcast_in_dim" stack_frame_id=98}
  %div.172 = f32[1,1,1,128]{3,2,1,0} broadcast(%broadcast_in_dim.123), dimensions={0,1,2,3}, metadata={op_name="checkpoint/layers/div" stack_frame_id=98}
  %div.173 = f32[1,1,128]{2,1,0} reshape(%div.172), metadata={op_name="checkpoint/layers/div" stack_frame_id=98}
  %div.174 = f32[1,64,1,128]{3,2,1,0} broadcast(%div.173), dimensions={0,2,3}, metadata={op_name="checkpoint/layers/div" stack_frame_id=98}
  %div.175 = f32[1,64,1,128]{3,2,1,0} divide(%div.171, %div.174), metadata={op_name="checkpoint/layers/div" stack_frame_id=98}
  %cos.13 = f32[1,64,1,128]{3,2,1,0} cosine(%div.175), metadata={op_name="checkpoint/layers/cos" stack_frame_id=103}
  %convert_element_type.233 = bf16[1,64,1,128]{3,2,1,0} convert(%cos.13), metadata={op_name="checkpoint/layers/convert_element_type" stack_frame_id=103}
  %concatenate.40 = bf16[1,64,1,256]{3,2,1,0} concatenate(%convert_element_type.233, %convert_element_type.233), dimensions={3}, metadata={op_name="checkpoint/layers/concatenate" stack_frame_id=104}
  %mul.312 = bf16[1,64,1,256]{3,2,1,0} broadcast(%concatenate.40), dimensions={0,1,2,3}, metadata={op_name="checkpoint/layers/mul" stack_frame_id=106}
  %mul.313 = bf16[1,64,256]{2,1,0} reshape(%mul.312), metadata={op_name="checkpoint/layers/mul" stack_frame_id=106}
  %mul.314 = bf16[1,64,4,256]{3,2,1,0} broadcast(%mul.313), dimensions={0,1,3}, metadata={op_name="checkpoint/layers/mul" stack_frame_id=106}
  %mul.315 = bf16[1,64,4,256]{2,1,0,3} multiply(%transpose.146, %mul.314), metadata={op_name="checkpoint/layers/mul" stack_frame_id=106}
  %split.27 = bf16[1,64,4,128]{3,2,1,0} slice(%transpose.146), slice={[0:1], [0:64], [0:4], [128:256]}, metadata={op_name="checkpoint/layers/split" stack_frame_id=108}
  %neg.13 = bf16[1,64,4,128]{3,2,1,0} negate(%split.27), metadata={op_name="checkpoint/layers/neg" stack_frame_id=109}
  %split.26 = bf16[1,64,4,128]{3,2,1,0} slice(%transpose.146), slice={[0:1], [0:64], [0:4], [0:128]}, metadata={op_name="checkpoint/layers/split" stack_frame_id=108}
  %concatenate.41 = bf16[1,64,4,256]{3,2,1,0} concatenate(%neg.13, %split.26), dimensions={3}, metadata={op_name="checkpoint/layers/concatenate" stack_frame_id=110}
  %sin.13 = f32[1,64,1,128]{3,2,1,0} sine(%div.175), metadata={op_name="checkpoint/layers/sin" stack_frame_id=111}
  %convert_element_type.232 = bf16[1,64,1,128]{3,2,1,0} convert(%sin.13), metadata={op_name="checkpoint/layers/convert_element_type" stack_frame_id=111}
  %concatenate.39 = bf16[1,64,1,256]{3,2,1,0} concatenate(%convert_element_type.232, %convert_element_type.232), dimensions={3}, metadata={op_name="checkpoint/layers/concatenate" stack_frame_id=112}
  %mul.316 = bf16[1,64,1,256]{3,2,1,0} broadcast(%concatenate.39), dimensions={0,1,2,3}, metadata={op_name="checkpoint/layers/mul" stack_frame_id=107}
  %mul.317 = bf16[1,64,256]{2,1,0} reshape(%mul.316), metadata={op_name="checkpoint/layers/mul" stack_frame_id=107}
  %mul.318 = bf16[1,64,4,256]{3,2,1,0} broadcast(%mul.317), dimensions={0,1,3}, metadata={op_name="checkpoint/layers/mul" stack_frame_id=107}
  %mul.319 = bf16[1,64,4,256]{3,2,1,0} multiply(%concatenate.41, %mul.318), metadata={op_name="checkpoint/layers/mul" stack_frame_id=107}
  %add.78 = bf16[1,64,4,256]{2,1,0,3} add(%mul.315, %mul.319), metadata={op_name="checkpoint/layers/add" stack_frame_id=113}
  %sharding_constraint.45 = bf16[1,64,4,256]{3,2,1,0} custom-call(%add.78), custom_call_target="Sharding", sharding={devices=[1,1,2,1]<=[2]}, frontend_attributes={xla.sdy.sharding="#sdy.sharding_per_value<[<@mesh, [{}, {}, {\"tensor\"}, {}]>]>"}, metadata={op_name="checkpoint/layers/sharding_constraint" stack_frame_id=116}
  %Arg_14.1 = f32[256]{0} parameter(14)
  %convert_element_type.222 = bf16[256]{0} convert(%Arg_14.1), metadata={op_name="checkpoint/layers/convert_element_type" stack_frame_id=117}
  %sharding_constraint.42 = bf16[1,64,2560]{2,1,0} custom-call(%transpose.144), custom_call_target="Sharding", sharding={devices=[1,1,2]<=[2]}, frontend_attributes={xla.sdy.sharding="#sdy.sharding_per_value<[<@mesh, [{}, {}, {\"tensor\"}]>]>"}, metadata={op_name="checkpoint/layers/sharding_constraint" stack_frame_id=120}
  %Arg_13.1 = f32[2560,8,256]{2,1,0} parameter(13)
  %convert_element_type.217 = bf16[2560,8,256]{2,1,0} convert(%Arg_13.1), metadata={op_name="checkpoint/layers/convert_element_type" stack_frame_id=124}
  %dot_general.91 = bf16[1,64,8,256]{3,2,1,0} dot(%sharding_constraint.42, %convert_element_type.217), lhs_contracting_dims={2}, rhs_contracting_dims={0}, metadata={op_name="checkpoint/layers/dot_general" stack_frame_id=126}
  %convert_element_type.220 = f32[1,64,8,256]{3,2,1,0} convert(%dot_general.91), metadata={op_name="checkpoint/layers/convert_element_type" stack_frame_id=127}
  %square.37 = f32[1,64,8,256]{3,2,1,0} multiply(%convert_element_type.220, %convert_element_type.220), metadata={op_name="checkpoint/layers/square" stack_frame_id=128}
  %reduce_sum.295 = f32[1,64,8]{2,1,0} reduce(%square.37, %constant.95), dimensions={3}, to_apply=%region_2.9, metadata={op_name="checkpoint/layers/reduce_sum" stack_frame_id=18}
  %broadcast_in_dim.118 = f32[1,64,8,1]{3,2,1,0} reshape(%reduce_sum.295), metadata={op_name="checkpoint/layers/broadcast_in_dim" stack_frame_id=18}
  %constant.90 = f32[] constant(256)
  %broadcast.58 = f32[1,64,8,1]{3,2,1,0} broadcast(%constant.90), dimensions={}
  %div.158 = f32[1,64,8,1]{3,2,1,0} divide(%broadcast_in_dim.118, %broadcast.58), metadata={op_name="checkpoint/layers/div" stack_frame_id=18}
  %constant.89 = f32[] constant(1e-06)
  %broadcast.57 = f32[1,64,8,1]{3,2,1,0} broadcast(%constant.89), dimensions={}
  %add.75 = f32[1,64,8,1]{3,2,1,0} add(%div.158, %broadcast.57), metadata={op_name="checkpoint/layers/add" stack_frame_id=129}
  %rsqrt.37 = f32[1,64,8,1]{3,2,1,0} rsqrt(%add.75), metadata={op_name="checkpoint/layers/rsqrt" stack_frame_id=130}
  %mul.294 = f32[1,64,8,1]{3,2,1,0} broadcast(%rsqrt.37), dimensions={0,1,2,3}, metadata={op_name="checkpoint/layers/mul" stack_frame_id=131}
  %mul.295 = f32[1,64,8]{2,1,0} reshape(%mul.294), metadata={op_name="checkpoint/layers/mul" stack_frame_id=131}
  %mul.296 = f32[1,64,8,256]{3,2,1,0} broadcast(%mul.295), dimensions={0,1,2}, metadata={op_name="checkpoint/layers/mul" stack_frame_id=131}
  %mul.297 = f32[1,64,8,256]{3,2,1,0} multiply(%convert_element_type.220, %mul.296), metadata={op_name="checkpoint/layers/mul" stack_frame_id=131}
  %convert_element_type.221 = bf16[1,64,8,256]{3,2,1,0} convert(%mul.297), metadata={op_name="checkpoint/layers/convert_element_type" stack_frame_id=132}
  %dot_general.94 = bf16[256,1,64,8]{3,2,1,0} dot(%convert_element_type.222, %convert_element_type.221), lhs_batch_dims={0}, lhs_contracting_dims={}, rhs_batch_dims={3}, rhs_contracting_dims={}, metadata={op_name="checkpoint/layers/...k,k->...k/dot_general" stack_frame_id=133}
  %transpose.145 = bf16[1,64,8,256]{2,1,0,3} transpose(%dot_general.94), dimensions={1,2,3,0}, metadata={op_name="checkpoint/layers/...k,k->...k/transpose" stack_frame_id=133}
  %broadcast_in_dim.120 = s32[1,64,1,1]{3,2,1,0} reshape(%Arg_1.19), metadata={op_name="checkpoint/layers/broadcast_in_dim" stack_frame_id=137}
  %convert_element_type.227 = f32[1,64,1,1]{3,2,1,0} convert(%broadcast_in_dim.120), metadata={op_name="checkpoint/layers/convert_element_type" stack_frame_id=138}
  %div.161 = f32[1,64,1,1]{3,2,1,0} broadcast(%convert_element_type.227), dimensions={0,1,2,3}, metadata={op_name="checkpoint/layers/div" stack_frame_id=138}
  %div.162 = f32[1,64,1]{2,1,0} reshape(%div.161), metadata={op_name="checkpoint/layers/div" stack_frame_id=138}
  %div.163 = f32[1,64,1,128]{3,2,1,0} broadcast(%div.162), dimensions={0,1,2}, metadata={op_name="checkpoint/layers/div" stack_frame_id=138}
  %iota.58 = s32[128]{0} iota(), iota_dimension=0, metadata={op_name="checkpoint/layers/iota" stack_frame_id=140}
  %mul.302 = s32[128]{0} multiply(%iota.58, %broadcast.54), metadata={op_name="checkpoint/layers/mul" stack_frame_id=141}
  %convert_element_type.226 = f32[128]{0} convert(%mul.302), metadata={op_name="checkpoint/layers/convert_element_type" stack_frame_id=141}
  %div.160 = f32[128]{0} divide(%convert_element_type.226, %broadcast.53), metadata={op_name="checkpoint/layers/div" stack_frame_id=141}
  %pow.12 = f32[128]{0} power(%broadcast.52, %div.160), metadata={op_name="checkpoint/layers/pow" stack_frame_id=142}
  %broadcast_in_dim.121 = f32[1,1,1,128]{3,2,1,0} reshape(%pow.12), metadata={op_name="checkpoint/layers/broadcast_in_dim" stack_frame_id=138}
  %div.164 = f32[1,1,1,128]{3,2,1,0} broadcast(%broadcast_in_dim.121), dimensions={0,1,2,3}, metadata={op_name="checkpoint/layers/div" stack_frame_id=138}
  %div.165 = f32[1,1,128]{2,1,0} reshape(%div.164), metadata={op_name="checkpoint/layers/div" stack_frame_id=138}
  %div.166 = f32[1,64,1,128]{3,2,1,0} broadcast(%div.165), dimensions={0,2,3}, metadata={op_name="checkpoint/layers/div" stack_frame_id=138}
  %div.167 = f32[1,64,1,128]{3,2,1,0} divide(%div.163, %div.166), metadata={op_name="checkpoint/layers/div" stack_frame_id=138}
  %cos.12 = f32[1,64,1,128]{3,2,1,0} cosine(%div.167), metadata={op_name="checkpoint/layers/cos" stack_frame_id=143}
  %convert_element_type.229 = bf16[1,64,1,128]{3,2,1,0} convert(%cos.12), metadata={op_name="checkpoint/layers/convert_element_type" stack_frame_id=143}
  %concatenate.37 = bf16[1,64,1,256]{3,2,1,0} concatenate(%convert_element_type.229, %convert_element_type.229), dimensions={3}, metadata={op_name="checkpoint/layers/concatenate" stack_frame_id=144}
  %mul.303 = bf16[1,64,1,256]{3,2,1,0} broadcast(%concatenate.37), dimensions={0,1,2,3}, metadata={op_name="checkpoint/layers/mul" stack_frame_id=146}
  %mul.304 = bf16[1,64,256]{2,1,0} reshape(%mul.303), metadata={op_name="checkpoint/layers/mul" stack_frame_id=146}
  %mul.305 = bf16[1,64,8,256]{3,2,1,0} broadcast(%mul.304), dimensions={0,1,3}, metadata={op_name="checkpoint/layers/mul" stack_frame_id=146}
  %mul.306 = bf16[1,64,8,256]{2,1,0,3} multiply(%transpose.145, %mul.305), metadata={op_name="checkpoint/layers/mul" stack_frame_id=146}
  %split.25 = bf16[1,64,8,128]{3,2,1,0} slice(%transpose.145), slice={[0:1], [0:64], [0:8], [128:256]}, metadata={op_name="checkpoint/layers/split" stack_frame_id=148}
  %neg.12 = bf16[1,64,8,128]{3,2,1,0} negate(%split.25), metadata={op_name="checkpoint/layers/neg" stack_frame_id=149}
  %split.24 = bf16[1,64,8,128]{3,2,1,0} slice(%transpose.145), slice={[0:1], [0:64], [0:8], [0:128]}, metadata={op_name="checkpoint/layers/split" stack_frame_id=148}
  %concatenate.38 = bf16[1,64,8,256]{3,2,1,0} concatenate(%neg.12, %split.24), dimensions={3}, metadata={op_name="checkpoint/layers/concatenate" stack_frame_id=150}
  %sin.12 = f32[1,64,1,128]{3,2,1,0} sine(%div.167), metadata={op_name="checkpoint/layers/sin" stack_frame_id=151}
  %convert_element_type.228 = bf16[1,64,1,128]{3,2,1,0} convert(%sin.12), metadata={op_name="checkpoint/layers/convert_element_type" stack_frame_id=151}
  %concatenate.36 = bf16[1,64,1,256]{3,2,1,0} concatenate(%convert_element_type.228, %convert_element_type.228), dimensions={3}, metadata={op_name="checkpoint/layers/concatenate" stack_frame_id=152}
  %mul.307 = bf16[1,64,1,256]{3,2,1,0} broadcast(%concatenate.36), dimensions={0,1,2,3}, metadata={op_name="checkpoint/layers/mul" stack_frame_id=147}
  %mul.308 = bf16[1,64,256]{2,1,0} reshape(%mul.307), metadata={op_name="checkpoint/layers/mul" stack_frame_id=147}
  %mul.309 = bf16[1,64,8,256]{3,2,1,0} broadcast(%mul.308), dimensions={0,1,3}, metadata={op_name="checkpoint/layers/mul" stack_frame_id=147}
  %mul.310 = bf16[1,64,8,256]{3,2,1,0} multiply(%concatenate.38, %mul.309), metadata={op_name="checkpoint/layers/mul" stack_frame_id=147}
  %add.77 = bf16[1,64,8,256]{2,1,0,3} add(%mul.306, %mul.310), metadata={op_name="checkpoint/layers/add" stack_frame_id=153}
  %constant.83 = bf16[] constant(0.0625)
  %broadcast.51 = bf16[1,64,8,256]{3,2,1,0} broadcast(%constant.83), dimensions={}
  %mul.320 = bf16[1,64,8,256]{2,1,0,3} multiply(%add.77, %broadcast.51), metadata={op_name="checkpoint/layers/mul" stack_frame_id=154}
  %sharding_constraint.44 = bf16[1,64,8,256]{3,2,1,0} custom-call(%mul.320), custom_call_target="Sharding", sharding={devices=[1,1,2,1]<=[2]}, frontend_attributes={xla.sdy.sharding="#sdy.sharding_per_value<[<@mesh, [{}, {}, {\"tensor\"}, {}]>]>"}, metadata={op_name="checkpoint/layers/sharding_constraint" stack_frame_id=157}
  %reshape.24 = bf16[1,64,4,2,256]{4,3,2,1,0} reshape(%sharding_constraint.44), metadata={op_name="checkpoint/layers/reshape" stack_frame_id=159}
  %dot_general.96 = bf16[1,4,64,64,2]{4,3,2,1,0} dot(%sharding_constraint.45, %reshape.24), lhs_batch_dims={0,2}, lhs_contracting_dims={3}, rhs_batch_dims={0,2}, rhs_contracting_dims={4}, metadata={op_name="checkpoint/layers/btkgd,bskd->bkgts/dot_general" stack_frame_id=160}
  %transpose.149 = bf16[1,4,2,64,64]{2,3,4,1,0} transpose(%dot_general.96), dimensions={0,1,4,3,2}, metadata={op_name="checkpoint/layers/btkgd,bskd->bkgts/transpose" stack_frame_id=160}
  %jit__where_.13 = bf16[1,4,2,64,64]{4,3,2,1,0} call(%ge.6, %transpose.149, %constant.94), to_apply=%_where_6.12, metadata={op_name="checkpoint/layers/jit(_where)" stack_frame_id=161}
  %reshape.25 = bf16[1,8,64,64]{3,2,1,0} reshape(%jit__where_.13), metadata={op_name="checkpoint/layers/reshape" stack_frame_id=162}
  %constant.93 = bf16[] constant(-inf)
  %reduce_max.42 = bf16[1,8,64]{2,1,0} reduce(%reshape.25, %constant.93), dimensions={3}, to_apply=%region_4.13, metadata={op_name="checkpoint/layers/reduce_max" stack_frame_id=27}
  %broadcast_in_dim.129 = bf16[1,8,64,1]{3,2,1,0} reshape(%reduce_max.42), metadata={op_name="checkpoint/layers/broadcast_in_dim" stack_frame_id=27}
  %sub.30 = bf16[1,8,64,1]{3,2,1,0} broadcast(%broadcast_in_dim.129), dimensions={0,1,2,3}, metadata={op_name="checkpoint/layers/sub" stack_frame_id=163}
  %sub.31 = bf16[1,8,64]{2,1,0} reshape(%sub.30), metadata={op_name="checkpoint/layers/sub" stack_frame_id=163}
  %sub.32 = bf16[1,8,64,64]{3,2,1,0} broadcast(%sub.31), dimensions={0,1,2}, metadata={op_name="checkpoint/layers/sub" stack_frame_id=163}
  %sub.33 = bf16[1,8,64,64]{3,2,1,0} subtract(%reshape.25, %sub.32), metadata={op_name="checkpoint/layers/sub" stack_frame_id=163}
  %exp.6 = bf16[1,8,64,64]{3,2,1,0} exponential(%sub.33), metadata={op_name="checkpoint/layers/exp" stack_frame_id=164}
  %reshape.26 = bf16[1,4,2,64,64]{4,3,2,1,0} reshape(%exp.6), metadata={op_name="checkpoint/layers/reshape" stack_frame_id=165}
  %dot_general.97 = bf16[1,4,256,2,64]{4,3,2,1,0} dot(%sharding_constraint.46, %reshape.26), lhs_batch_dims={0,2}, lhs_contracting_dims={1}, rhs_batch_dims={0,1}, rhs_contracting_dims={4}, metadata={op_name="checkpoint/layers/bkgts,bskd->btkgd/dot_general" stack_frame_id=167}
  %transpose.151 = bf16[1,64,4,2,256]{1,3,4,2,0} transpose(%dot_general.97), dimensions={0,4,1,3,2}, metadata={op_name="checkpoint/layers/bkgts,bskd->btkgd/transpose" stack_frame_id=167}
  %reshape.27 = bf16[1,64,8,256]{3,2,1,0} reshape(%transpose.151), metadata={op_name="checkpoint/layers/reshape" stack_frame_id=168}
  %convert_element_type.234 = f32[1,8,64,64]{3,2,1,0} convert(%exp.6), metadata={op_name="checkpoint/layers/convert_element_type" stack_frame_id=28}
  %reduce_sum.297 = f32[1,8,64]{2,1,0} reduce(%convert_element_type.234, %constant.95), dimensions={3}, to_apply=%region_5.14, metadata={op_name="checkpoint/layers/reduce_sum" stack_frame_id=28}
  %broadcast_in_dim.130 = f32[1,8,64,1]{3,2,1,0} reshape(%reduce_sum.297), metadata={op_name="checkpoint/layers/broadcast_in_dim" stack_frame_id=28}
  %convert_element_type.235 = bf16[1,8,64,1]{3,2,1,0} convert(%broadcast_in_dim.130), metadata={op_name="checkpoint/layers/convert_element_type" stack_frame_id=28}
  %transpose.150 = bf16[1,64,8,1]{3,1,2,0} transpose(%convert_element_type.235), dimensions={0,2,1,3}, metadata={op_name="checkpoint/layers/transpose" stack_frame_id=169}
  %div.176 = bf16[1,64,8,1]{3,2,1,0} broadcast(%transpose.150), dimensions={0,1,2,3}, metadata={op_name="checkpoint/layers/div" stack_frame_id=170}
  %div.177 = bf16[1,64,8]{2,1,0} reshape(%div.176), metadata={op_name="checkpoint/layers/div" stack_frame_id=170}
  %div.178 = bf16[1,64,8,256]{3,2,1,0} broadcast(%div.177), dimensions={0,1,2}, metadata={op_name="checkpoint/layers/div" stack_frame_id=170}
  %div.179 = bf16[1,64,8,256]{3,2,1,0} divide(%reshape.27, %div.178), metadata={op_name="checkpoint/layers/div" stack_frame_id=170}
  %sharding_constraint.47 = bf16[1,64,8,256]{3,2,1,0} custom-call(%div.179), custom_call_target="Sharding", sharding={devices=[1,1,2,1]<=[2]}, frontend_attributes={xla.sdy.sharding="#sdy.sharding_per_value<[<@mesh, [{}, {}, {\"tensor\"}, {}]>]>"}, metadata={op_name="checkpoint/layers/sharding_constraint" stack_frame_id=173}
  %Arg_12.1 = f32[8,256,2560]{2,1,0} parameter(12)
  %convert_element_type.236 = bf16[8,256,2560]{2,1,0} convert(%Arg_12.1), metadata={op_name="checkpoint/layers/convert_element_type" stack_frame_id=177}
  %dot_general.98 = bf16[1,64,2560]{2,1,0} dot(%sharding_constraint.47, %convert_element_type.236), lhs_contracting_dims={2,3}, rhs_contracting_dims={0,1}, metadata={op_name="checkpoint/layers/dot_general" stack_frame_id=179}
  %convert_element_type.237 = f32[1,64,2560]{2,1,0} convert(%dot_general.98), metadata={op_name="checkpoint/layers/convert_element_type" stack_frame_id=180}
  %square.39 = f32[1,64,2560]{2,1,0} multiply(%convert_element_type.237, %convert_element_type.237), metadata={op_name="checkpoint/layers/square" stack_frame_id=181}
  %reduce_sum.298 = f32[1,64]{1,0} reduce(%square.39, %constant.95), dimensions={2}, to_apply=%region_6.15, metadata={op_name="checkpoint/layers/reduce_sum" stack_frame_id=31}
  %broadcast_in_dim.131 = f32[1,64,1]{2,1,0} reshape(%reduce_sum.298), metadata={op_name="checkpoint/layers/broadcast_in_dim" stack_frame_id=31}
  %div.180 = f32[1,64,1]{2,1,0} divide(%broadcast_in_dim.131, %broadcast.60), metadata={op_name="checkpoint/layers/div" stack_frame_id=31}
  %add.79 = f32[1,64,1]{2,1,0} add(%div.180, %broadcast.59), metadata={op_name="checkpoint/layers/add" stack_frame_id=182}
  %rsqrt.39 = f32[1,64,1]{2,1,0} rsqrt(%add.79), metadata={op_name="checkpoint/layers/rsqrt" stack_frame_id=183}
  %mul.321 = f32[1,64,1]{2,1,0} broadcast(%rsqrt.39), dimensions={0,1,2}, metadata={op_name="checkpoint/layers/mul" stack_frame_id=184}
  %mul.322 = f32[1,64]{1,0} reshape(%mul.321), metadata={op_name="checkpoint/layers/mul" stack_frame_id=184}
  %mul.323 = f32[1,64,2560]{2,1,0} broadcast(%mul.322), dimensions={0,1}, metadata={op_name="checkpoint/layers/mul" stack_frame_id=184}
  %mul.324 = f32[1,64,2560]{2,1,0} multiply(%convert_element_type.237, %mul.323), metadata={op_name="checkpoint/layers/mul" stack_frame_id=184}
  %convert_element_type.238 = bf16[1,64,2560]{2,1,0} convert(%mul.324), metadata={op_name="checkpoint/layers/convert_element_type" stack_frame_id=185}
  %dot_general.99 = bf16[2560,1,64]{2,1,0} dot(%convert_element_type.239, %convert_element_type.238), lhs_batch_dims={0}, lhs_contracting_dims={}, rhs_batch_dims={2}, rhs_contracting_dims={}, metadata={op_name="checkpoint/layers/...k,k->...k/dot_general" stack_frame_id=186}
  %transpose.152 = bf16[1,64,2560]{1,0,2} transpose(%dot_general.99), dimensions={1,2,0}, metadata={op_name="checkpoint/layers/...k,k->...k/transpose" stack_frame_id=186}
  %add.80 = bf16[1,64,2560]{1,0,2} add(%transpose.152, %Arg_2.5), metadata={op_name="checkpoint/layers/add" stack_frame_id=187}
  %convert_element_type.240 = f32[1,64,2560]{1,0,2} convert(%add.80), metadata={op_name="checkpoint/layers/convert_element_type" stack_frame_id=188}
  %square.40 = f32[1,64,2560]{1,0,2} multiply(%convert_element_type.240, %convert_element_type.240), metadata={op_name="checkpoint/layers/square" stack_frame_id=189}
  %reduce_sum.299 = f32[1,64]{1,0} reduce(%square.40, %constant.95), dimensions={2}, to_apply=%region_7.16, metadata={op_name="checkpoint/layers/reduce_sum" stack_frame_id=34}
  %broadcast_in_dim.132 = f32[1,64,1]{2,1,0} reshape(%reduce_sum.299), metadata={op_name="checkpoint/layers/broadcast_in_dim" stack_frame_id=34}
  %div.181 = f32[1,64,1]{2,1,0} divide(%broadcast_in_dim.132, %broadcast.60), metadata={op_name="checkpoint/layers/div" stack_frame_id=34}
  %add.81 = f32[1,64,1]{2,1,0} add(%div.181, %broadcast.59), metadata={op_name="checkpoint/layers/add" stack_frame_id=190}
  %rsqrt.40 = f32[1,64,1]{2,1,0} rsqrt(%add.81), metadata={op_name="checkpoint/layers/rsqrt" stack_frame_id=191}
  %mul.325 = f32[1,64,1]{2,1,0} broadcast(%rsqrt.40), dimensions={0,1,2}, metadata={op_name="checkpoint/layers/mul" stack_frame_id=192}
  %mul.326 = f32[1,64]{1,0} reshape(%mul.325), metadata={op_name="checkpoint/layers/mul" stack_frame_id=192}
  %mul.327 = f32[1,64,2560]{2,1,0} broadcast(%mul.326), dimensions={0,1}, metadata={op_name="checkpoint/layers/mul" stack_frame_id=192}
  %mul.328 = f32[1,64,2560]{1,0,2} multiply(%convert_element_type.240, %mul.327), metadata={op_name="checkpoint/layers/mul" stack_frame_id=192}
  %convert_element_type.241 = bf16[1,64,2560]{1,0,2} convert(%mul.328), metadata={op_name="checkpoint/layers/convert_element_type" stack_frame_id=193}
  %dot_general.100 = bf16[2560,1,64]{2,1,0} dot(%convert_element_type.242, %convert_element_type.241), lhs_batch_dims={0}, lhs_contracting_dims={}, rhs_batch_dims={2}, rhs_contracting_dims={}, metadata={op_name="checkpoint/layers/...k,k->...k/dot_general" stack_frame_id=194}
  %transpose.153 = bf16[1,64,2560]{1,0,2} transpose(%dot_general.100), dimensions={1,2,0}, metadata={op_name="checkpoint/layers/...k,k->...k/transpose" stack_frame_id=194}
  %Arg_3.1 = f32[2560,10240]{1,0} parameter(3)
  %convert_element_type.243 = bf16[2560,10240]{1,0} convert(%Arg_3.1), metadata={op_name="checkpoint/layers/convert_element_type" stack_frame_id=199}
  %dot_general.101 = bf16[1,64,10240]{2,1,0} dot(%transpose.153, %convert_element_type.243), lhs_contracting_dims={2}, rhs_contracting_dims={0}, metadata={op_name="checkpoint/layers/dot_general" stack_frame_id=201}
  %integer_pow.12 = bf16[1,64,10240]{2,1,0} multiply(%dot_general.101, %dot_general.101), metadata={op_name="checkpoint/layers/integer_pow" stack_frame_id=202}
  %integer_pow.13 = bf16[1,64,10240]{2,1,0} multiply(%integer_pow.12, %dot_general.101), metadata={op_name="checkpoint/layers/integer_pow" stack_frame_id=202}
  %constant.80 = bf16[] constant(0.04468)
  %broadcast.48 = bf16[1,64,10240]{2,1,0} broadcast(%constant.80), dimensions={}
  %mul.329 = bf16[1,64,10240]{2,1,0} multiply(%integer_pow.13, %broadcast.48), metadata={op_name="checkpoint/layers/mul" stack_frame_id=202}
  %add.82 = bf16[1,64,10240]{2,1,0} add(%dot_general.101, %mul.329), metadata={op_name="checkpoint/layers/add" stack_frame_id=202}
  %constant.79 = bf16[] constant(0.7969)
  %broadcast.47 = bf16[1,64,10240]{2,1,0} broadcast(%constant.79), dimensions={}
  %mul.330 = bf16[1,64,10240]{2,1,0} multiply(%add.82, %broadcast.47), metadata={op_name="checkpoint/layers/mul" stack_frame_id=202}
  %tanh.6 = bf16[1,64,10240]{2,1,0} tanh(%mul.330), metadata={op_name="checkpoint/layers/tanh" stack_frame_id=202}
  %constant.78 = bf16[] constant(1)
  %broadcast.46 = bf16[1,64,10240]{2,1,0} broadcast(%constant.78), dimensions={}
  %add.83 = bf16[1,64,10240]{2,1,0} add(%tanh.6, %broadcast.46), metadata={op_name="checkpoint/layers/add" stack_frame_id=202}
  %constant.77 = bf16[] constant(0.5)
  %broadcast.45 = bf16[1,64,10240]{2,1,0} broadcast(%constant.77), dimensions={}
  %mul.331 = bf16[1,64,10240]{2,1,0} multiply(%add.83, %broadcast.45), metadata={op_name="checkpoint/layers/mul" stack_frame_id=202}
  %mul.332 = bf16[1,64,10240]{2,1,0} multiply(%dot_general.101, %mul.331), metadata={op_name="checkpoint/layers/mul" stack_frame_id=202}
  %Arg_4.1 = f32[2560,10240]{1,0} parameter(4)
  %convert_element_type.244 = bf16[2560,10240]{1,0} convert(%Arg_4.1), metadata={op_name="checkpoint/layers/convert_element_type" stack_frame_id=199}
  %dot_general.102 = bf16[1,64,10240]{2,1,0} dot(%transpose.153, %convert_element_type.244), lhs_contracting_dims={2}, rhs_contracting_dims={0}, metadata={op_name="checkpoint/layers/dot_general" stack_frame_id=201}
  %mul.333 = bf16[1,64,10240]{2,1,0} multiply(%mul.332, %dot_general.102), metadata={op_name="checkpoint/layers/mul" stack_frame_id=203}
  %sharding_constraint.48 = bf16[1,64,10240]{2,1,0} custom-call(%mul.333), custom_call_target="Sharding", sharding={devices=[1,1,2]<=[2]}, frontend_attributes={xla.sdy.sharding="#sdy.sharding_per_value<[<@mesh, [{}, {}, {\"tensor\"}]>]>"}, metadata={op_name="checkpoint/layers/sharding_constraint" stack_frame_id=206}
  %Arg_5.1 = f32[10240,2560]{1,0} parameter(5)
  %convert_element_type.245 = bf16[10240,2560]{1,0} convert(%Arg_5.1), metadata={op_name="checkpoint/layers/convert_element_type" stack_frame_id=209}
  %dot_general.103 = bf16[1,64,2560]{2,1,0} dot(%sharding_constraint.48, %convert_element_type.245), lhs_contracting_dims={2}, rhs_contracting_dims={0}, metadata={op_name="checkpoint/layers/dot_general" stack_frame_id=211}
  %convert_element_type.246 = f32[1,64,2560]{2,1,0} convert(%dot_general.103), metadata={op_name="checkpoint/layers/convert_element_type" stack_frame_id=212}
  %square.41 = f32[1,64,2560]{2,1,0} multiply(%convert_element_type.246, %convert_element_type.246), metadata={op_name="checkpoint/layers/square" stack_frame_id=213}
  %reduce_sum.300 = f32[1,64]{1,0} reduce(%square.41, %constant.95), dimensions={2}, to_apply=%region_8.17, metadata={op_name="checkpoint/layers/reduce_sum" stack_frame_id=37}
  %broadcast_in_dim.133 = f32[1,64,1]{2,1,0} reshape(%reduce_sum.300), metadata={op_name="checkpoint/layers/broadcast_in_dim" stack_frame_id=37}
  %div.182 = f32[1,64,1]{2,1,0} divide(%broadcast_in_dim.133, %broadcast.60), metadata={op_name="checkpoint/layers/div" stack_frame_id=37}
  %add.84 = f32[1,64,1]{2,1,0} add(%div.182, %broadcast.59), metadata={op_name="checkpoint/layers/add" stack_frame_id=214}
  %rsqrt.41 = f32[1,64,1]{2,1,0} rsqrt(%add.84), metadata={op_name="checkpoint/layers/rsqrt" stack_frame_id=215}
  %mul.334 = f32[1,64,1]{2,1,0} broadcast(%rsqrt.41), dimensions={0,1,2}, metadata={op_name="checkpoint/layers/mul" stack_frame_id=216}
  %mul.335 = f32[1,64]{1,0} reshape(%mul.334), metadata={op_name="checkpoint/layers/mul" stack_frame_id=216}
  %mul.336 = f32[1,64,2560]{2,1,0} broadcast(%mul.335), dimensions={0,1}, metadata={op_name="checkpoint/layers/mul" stack_frame_id=216}
  %mul.337 = f32[1,64,2560]{2,1,0} multiply(%convert_element_type.246, %mul.336), metadata={op_name="checkpoint/layers/mul" stack_frame_id=216}
  %convert_element_type.247 = bf16[1,64,2560]{2,1,0} convert(%mul.337), metadata={op_name="checkpoint/layers/convert_element_type" stack_frame_id=217}
  %dot_general.104 = bf16[2560,1,64]{2,1,0} dot(%convert_element_type.248, %convert_element_type.247), lhs_batch_dims={0}, lhs_contracting_dims={}, rhs_batch_dims={2}, rhs_contracting_dims={}, metadata={op_name="checkpoint/layers/...k,k->...k/dot_general" stack_frame_id=218}
  %transpose.154 = bf16[1,64,2560]{1,0,2} transpose(%dot_general.104), dimensions={1,2,0}, metadata={op_name="checkpoint/layers/...k,k->...k/transpose" stack_frame_id=218}
  %add.85 = bf16[1,64,2560]{1,0,2} add(%transpose.154, %add.80), metadata={op_name="checkpoint/layers/add" stack_frame_id=219}
  %convert_element_type.249 = f32[1,64,2560]{1,0,2} convert(%add.85), metadata={op_name="checkpoint/layers/convert_element_type" stack_frame_id=42}
  %square.42 = f32[1,64,2560]{1,0,2} multiply(%convert_element_type.249, %convert_element_type.249), metadata={op_name="checkpoint/layers/square" stack_frame_id=43}
  %reduce_sum.301 = f32[1,64]{1,0} reduce(%square.42, %constant.95), dimensions={2}, to_apply=%region_9.18, metadata={op_name="checkpoint/layers/reduce_sum" stack_frame_id=13}
  %broadcast_in_dim.134 = f32[1,64,1]{2,1,0} reshape(%reduce_sum.301), metadata={op_name="checkpoint/layers/broadcast_in_dim" stack_frame_id=13}
  %div.183 = f32[1,64,1]{2,1,0} divide(%broadcast_in_dim.134, %broadcast.60), metadata={op_name="checkpoint/layers/div" stack_frame_id=13}
  %add.86 = f32[1,64,1]{2,1,0} add(%div.183, %broadcast.59), metadata={op_name="checkpoint/layers/add" stack_frame_id=44}
  %rsqrt.42 = f32[1,64,1]{2,1,0} rsqrt(%add.86), metadata={op_name="checkpoint/layers/rsqrt" stack_frame_id=45}
  %mul.338 = f32[1,64,1]{2,1,0} broadcast(%rsqrt.42), dimensions={0,1,2}, metadata={op_name="checkpoint/layers/mul" stack_frame_id=46}
  %mul.339 = f32[1,64]{1,0} reshape(%mul.338), metadata={op_name="checkpoint/layers/mul" stack_frame_id=46}
  %mul.340 = f32[1,64,2560]{2,1,0} broadcast(%mul.339), dimensions={0,1}, metadata={op_name="checkpoint/layers/mul" stack_frame_id=46}
  %mul.341 = f32[1,64,2560]{1,0,2} multiply(%convert_element_type.249, %mul.340), metadata={op_name="checkpoint/layers/mul" stack_frame_id=46}
  %convert_element_type.250 = bf16[1,64,2560]{1,0,2} convert(%mul.341), metadata={op_name="checkpoint/layers/convert_element_type" stack_frame_id=47}
  %dot_general.105 = bf16[2560,1,64]{2,1,0} dot(%convert_element_type.251, %convert_element_type.250), lhs_batch_dims={0}, lhs_contracting_dims={}, rhs_batch_dims={2}, rhs_contracting_dims={}, metadata={op_name="checkpoint/layers/...k,k->...k/dot_general" stack_frame_id=48}
  %transpose.155 = bf16[1,64,2560]{1,0,2} transpose(%dot_general.105), dimensions={1,2,0}, metadata={op_name="checkpoint/layers/...k,k->...k/transpose" stack_frame_id=48}
  %sharding_constraint.50 = bf16[1,64,2560]{2,1,0} custom-call(%transpose.155), custom_call_target="Sharding", sharding={devices=[1,1,2]<=[2]}, frontend_attributes={xla.sdy.sharding="#sdy.sharding_per_value<[<@mesh, [{}, {}, {\"tensor\"}]>]>"}, metadata={op_name="checkpoint/layers/sharding_constraint" stack_frame_id=51}
  %Arg_28.1 = f32[2560,4,256]{2,1,0} parameter(28)
  %convert_element_type.254 = bf16[2560,4,256]{2,1,0} convert(%Arg_28.1), metadata={op_name="checkpoint/layers/convert_element_type" stack_frame_id=55}
  %dot_general.108 = bf16[1,64,4,256]{3,2,1,0} dot(%sharding_constraint.50, %convert_element_type.254), lhs_contracting_dims={2}, rhs_contracting_dims={0}, metadata={op_name="checkpoint/layers/dot_general" stack_frame_id=57}
  %sharding_constraint.53 = bf16[1,64,4,256]{3,2,1,0} custom-call(%dot_general.108), custom_call_target="Sharding", sharding={devices=[1,1,2,1]<=[2]}, frontend_attributes={xla.sdy.sharding="#sdy.sharding_per_value<[<@mesh, [{}, {}, {\"tensor\"}, {}]>]>"}, metadata={op_name="checkpoint/layers/sharding_constraint" stack_frame_id=60}
  %iota.76 = s32[64]{0} iota(), iota_dimension=0, metadata={op_name="checkpoint/layers/iota" stack_frame_id=62}
  %iota.77 = s32[1,64]{1,0} reshape(%iota.76), metadata={op_name="checkpoint/layers/iota" stack_frame_id=62}
  %gt.42 = s32[1,64]{1,0} broadcast(%iota.77), dimensions={0,1}, metadata={op_name="checkpoint/layers/gt" stack_frame_id=63}
  %gt.43 = s32[64]{0} reshape(%gt.42), metadata={op_name="checkpoint/layers/gt" stack_frame_id=63}
  %gt.44 = s32[64,64]{1,0} broadcast(%gt.43), dimensions={1}, metadata={op_name="checkpoint/layers/gt" stack_frame_id=63}
  %iota.74 = s32[64]{0} iota(), iota_dimension=0, metadata={op_name="checkpoint/layers/iota" stack_frame_id=64}
  %iota.75 = s32[64,1]{1,0} reshape(%iota.74), metadata={op_name="checkpoint/layers/iota" stack_frame_id=64}
  %sub.34 = s32[64,1]{1,0} subtract(%iota.75, %broadcast.50), metadata={op_name="checkpoint/layers/sub" stack_frame_id=65}
  %gt.45 = s32[64,1]{1,0} broadcast(%sub.34), dimensions={0,1}, metadata={op_name="checkpoint/layers/gt" stack_frame_id=63}
  %gt.46 = s32[64]{0} reshape(%gt.45), metadata={op_name="checkpoint/layers/gt" stack_frame_id=63}
  %gt.47 = s32[64,64]{1,0} broadcast(%gt.46), dimensions={0}, metadata={op_name="checkpoint/layers/gt" stack_frame_id=63}
  %gt.48 = pred[64,64]{1,0} compare(%gt.44, %gt.47), direction=GT, metadata={op_name="checkpoint/layers/gt" stack_frame_id=63}
  %le.50 = s32[1,64]{1,0} broadcast(%iota.77), dimensions={0,1}, metadata={op_name="checkpoint/layers/le" stack_frame_id=66}
  %le.51 = s32[64]{0} reshape(%le.50), metadata={op_name="checkpoint/layers/le" stack_frame_id=66}
  %le.52 = s32[64,64]{1,0} broadcast(%le.51), dimensions={1}, metadata={op_name="checkpoint/layers/le" stack_frame_id=66}
  %le.53 = s32[64,1]{1,0} broadcast(%iota.75), dimensions={0,1}, metadata={op_name="checkpoint/layers/le" stack_frame_id=66}
  %le.54 = s32[64]{0} reshape(%le.53), metadata={op_name="checkpoint/layers/le" stack_frame_id=66}
  %le.55 = s32[64,64]{1,0} broadcast(%le.54), dimensions={0}, metadata={op_name="checkpoint/layers/le" stack_frame_id=66}
  %le.56 = pred[64,64]{1,0} compare(%le.52, %le.55), direction=LE, metadata={op_name="checkpoint/layers/le" stack_frame_id=66}
  %and.20 = pred[64,64]{1,0} and(%gt.48, %le.56), metadata={op_name="checkpoint/layers/and" stack_frame_id=67}
  %broadcast_in_dim.145 = pred[1,1,1,64,64]{4,3,2,1,0} reshape(%and.20), metadata={op_name="checkpoint/layers/broadcast_in_dim" stack_frame_id=68}
  %broadcast_in_dim.141 = s32[1,64,1]{2,1,0} reshape(%Arg_0.19), metadata={op_name="checkpoint/layers/broadcast_in_dim" stack_frame_id=69}
  %eq.49 = s32[1,64,1]{2,1,0} broadcast(%broadcast_in_dim.141), dimensions={0,1,2}, metadata={op_name="checkpoint/layers/eq" stack_frame_id=69}
  %eq.50 = s32[1,64]{1,0} reshape(%eq.49), metadata={op_name="checkpoint/layers/eq" stack_frame_id=69}
  %eq.51 = s32[1,64,64]{2,1,0} broadcast(%eq.50), dimensions={0,1}, metadata={op_name="checkpoint/layers/eq" stack_frame_id=69}
  %broadcast_in_dim.142 = s32[1,1,64]{2,1,0} reshape(%Arg_0.19), metadata={op_name="checkpoint/layers/broadcast_in_dim" stack_frame_id=70}
  %eq.52 = s32[1,1,64]{2,1,0} broadcast(%broadcast_in_dim.142), dimensions={0,1,2}, metadata={op_name="checkpoint/layers/eq" stack_frame_id=69}
  %eq.53 = s32[1,64]{1,0} reshape(%eq.52), metadata={op_name="checkpoint/layers/eq" stack_frame_id=69}
  %eq.54 = s32[1,64,64]{2,1,0} broadcast(%eq.53), dimensions={0,2}, metadata={op_name="checkpoint/layers/eq" stack_frame_id=69}
  %eq.55 = pred[1,64,64]{2,1,0} compare(%eq.51, %eq.54), direction=EQ, metadata={op_name="checkpoint/layers/eq" stack_frame_id=69}
  %broadcast_in_dim.143 = pred[1,1,1,64,64]{4,3,2,1,0} reshape(%eq.55), metadata={op_name="checkpoint/layers/broadcast_in_dim" stack_frame_id=71}
  %iota.72 = s32[64]{0} iota(), iota_dimension=0, metadata={op_name="checkpoint/layers/iota" stack_frame_id=72}
  %iota.73 = s32[64,64]{1,0} broadcast(%iota.72), dimensions={1}, metadata={op_name="checkpoint/layers/iota" stack_frame_id=72}
  %iota.70 = s32[64]{0} iota(), iota_dimension=0, metadata={op_name="checkpoint/layers/iota" stack_frame_id=73}
  %iota.71 = s32[64,64]{1,0} broadcast(%iota.70), dimensions={0}, metadata={op_name="checkpoint/layers/iota" stack_frame_id=73}
  %le.49 = pred[64,64]{1,0} compare(%iota.73, %iota.71), direction=LE, metadata={op_name="checkpoint/layers/le" stack_frame_id=74}
  %broadcast_in_dim.144 = pred[1,1,1,64,64]{4,3,2,1,0} reshape(%le.49), metadata={op_name="checkpoint/layers/broadcast_in_dim" stack_frame_id=75}
  %and.19 = pred[1,1,1,64,64]{4,3,2,1,0} and(%broadcast_in_dim.143, %broadcast_in_dim.144), metadata={op_name="checkpoint/layers/and" stack_frame_id=76}
  %and.21 = pred[1,1,1,64,64]{4,3,2,1,0} and(%broadcast_in_dim.145, %and.19), metadata={op_name="checkpoint/layers/and" stack_frame_id=68}
  %jit__where_.14 = f32[1,1,1,64,64]{4,3,2,1,0} call(%and.21, %constant.95, %constant.94), to_apply=%_where.11, metadata={op_name="checkpoint/layers/jit(_where)" stack_frame_id=77}
  %ge.7 = pred[1,1,1,64,64]{4,3,2,1,0} compare(%jit__where_.14, %broadcast.49), direction=GE, metadata={op_name="checkpoint/layers/ge" stack_frame_id=79}
  %Arg_24.1 = f32[256]{0} parameter(24)
  %convert_element_type.260 = bf16[256]{0} convert(%Arg_24.1), metadata={op_name="checkpoint/layers/convert_element_type" stack_frame_id=80}
  %Arg_23.1 = f32[2560,4,256]{2,1,0} parameter(23)
  %convert_element_type.253 = bf16[2560,4,256]{2,1,0} convert(%Arg_23.1), metadata={op_name="checkpoint/layers/convert_element_type" stack_frame_id=84}
  %dot_general.107 = bf16[1,64,4,256]{3,2,1,0} dot(%sharding_constraint.50, %convert_element_type.253), lhs_contracting_dims={2}, rhs_contracting_dims={0}, metadata={op_name="checkpoint/layers/dot_general" stack_frame_id=86}
  %convert_element_type.258 = f32[1,64,4,256]{3,2,1,0} convert(%dot_general.107), metadata={op_name="checkpoint/layers/convert_element_type" stack_frame_id=87}
  %square.44 = f32[1,64,4,256]{3,2,1,0} multiply(%convert_element_type.258, %convert_element_type.258), metadata={op_name="checkpoint/layers/square" stack_frame_id=88}
  %reduce_sum.303 = f32[1,64,4]{2,1,0} reduce(%square.44, %constant.95), dimensions={3}, to_apply=%region_11.20, metadata={op_name="checkpoint/layers/reduce_sum" stack_frame_id=21}
  %broadcast_in_dim.136 = f32[1,64,4,1]{3,2,1,0} reshape(%reduce_sum.303), metadata={op_name="checkpoint/layers/broadcast_in_dim" stack_frame_id=21}
  %div.185 = f32[1,64,4,1]{3,2,1,0} divide(%broadcast_in_dim.136, %broadcast.56), metadata={op_name="checkpoint/layers/div" stack_frame_id=21}
  %add.88 = f32[1,64,4,1]{3,2,1,0} add(%div.185, %broadcast.55), metadata={op_name="checkpoint/layers/add" stack_frame_id=89}
  %rsqrt.44 = f32[1,64,4,1]{3,2,1,0} rsqrt(%add.88), metadata={op_name="checkpoint/layers/rsqrt" stack_frame_id=90}
  %mul.346 = f32[1,64,4,1]{3,2,1,0} broadcast(%rsqrt.44), dimensions={0,1,2,3}, metadata={op_name="checkpoint/layers/mul" stack_frame_id=91}
  %mul.347 = f32[1,64,4]{2,1,0} reshape(%mul.346), metadata={op_name="checkpoint/layers/mul" stack_frame_id=91}
  %mul.348 = f32[1,64,4,256]{3,2,1,0} broadcast(%mul.347), dimensions={0,1,2}, metadata={op_name="checkpoint/layers/mul" stack_frame_id=91}
  %mul.349 = f32[1,64,4,256]{3,2,1,0} multiply(%convert_element_type.258, %mul.348), metadata={op_name="checkpoint/layers/mul" stack_frame_id=91}
  %convert_element_type.259 = bf16[1,64,4,256]{3,2,1,0} convert(%mul.349), metadata={op_name="checkpoint/layers/convert_element_type" stack_frame_id=92}
  %dot_general.110 = bf16[256,1,64,4]{3,2,1,0} dot(%convert_element_type.260, %convert_element_type.259), lhs_batch_dims={0}, lhs_contracting_dims={}, rhs_batch_dims={3}, rhs_contracting_dims={}, metadata={op_name="checkpoint/layers/...k,k->...k/dot_general" stack_frame_id=93}
  %transpose.157 = bf16[1,64,4,256]{2,1,0,3} transpose(%dot_general.110), dimensions={1,2,3,0}, metadata={op_name="checkpoint/layers/...k,k->...k/transpose" stack_frame_id=93}
  %broadcast_in_dim.139 = s32[1,64,1,1]{3,2,1,0} reshape(%Arg_1.19), metadata={op_name="checkpoint/layers/broadcast_in_dim" stack_frame_id=97}
  %convert_element_type.266 = f32[1,64,1,1]{3,2,1,0} convert(%broadcast_in_dim.139), metadata={op_name="checkpoint/layers/convert_element_type" stack_frame_id=98}
  %div.195 = f32[1,64,1,1]{3,2,1,0} broadcast(%convert_element_type.266), dimensions={0,1,2,3}, metadata={op_name="checkpoint/layers/div" stack_frame_id=98}
  %div.196 = f32[1,64,1]{2,1,0} reshape(%div.195), metadata={op_name="checkpoint/layers/div" stack_frame_id=98}
  %div.197 = f32[1,64,1,128]{3,2,1,0} broadcast(%div.196), dimensions={0,1,2}, metadata={op_name="checkpoint/layers/div" stack_frame_id=98}
  %iota.69 = s32[128]{0} iota(), iota_dimension=0, metadata={op_name="checkpoint/layers/iota" stack_frame_id=100}
  %mul.359 = s32[128]{0} multiply(%iota.69, %broadcast.54), metadata={op_name="checkpoint/layers/mul" stack_frame_id=101}
  %convert_element_type.265 = f32[128]{0} convert(%mul.359), metadata={op_name="checkpoint/layers/convert_element_type" stack_frame_id=101}
  %div.194 = f32[128]{0} divide(%convert_element_type.265, %broadcast.53), metadata={op_name="checkpoint/layers/div" stack_frame_id=101}
  %pow.15 = f32[128]{0} power(%broadcast.52, %div.194), metadata={op_name="checkpoint/layers/pow" stack_frame_id=102}
  %broadcast_in_dim.140 = f32[1,1,1,128]{3,2,1,0} reshape(%pow.15), metadata={op_name="checkpoint/layers/broadcast_in_dim" stack_frame_id=98}
  %div.198 = f32[1,1,1,128]{3,2,1,0} broadcast(%broadcast_in_dim.140), dimensions={0,1,2,3}, metadata={op_name="checkpoint/layers/div" stack_frame_id=98}
  %div.199 = f32[1,1,128]{2,1,0} reshape(%div.198), metadata={op_name="checkpoint/layers/div" stack_frame_id=98}
  %div.200 = f32[1,64,1,128]{3,2,1,0} broadcast(%div.199), dimensions={0,2,3}, metadata={op_name="checkpoint/layers/div" stack_frame_id=98}
  %div.201 = f32[1,64,1,128]{3,2,1,0} divide(%div.197, %div.200), metadata={op_name="checkpoint/layers/div" stack_frame_id=98}
  %cos.15 = f32[1,64,1,128]{3,2,1,0} cosine(%div.201), metadata={op_name="checkpoint/layers/cos" stack_frame_id=103}
  %convert_element_type.268 = bf16[1,64,1,128]{3,2,1,0} convert(%cos.15), metadata={op_name="checkpoint/layers/convert_element_type" stack_frame_id=103}
  %concatenate.46 = bf16[1,64,1,256]{3,2,1,0} concatenate(%convert_element_type.268, %convert_element_type.268), dimensions={3}, metadata={op_name="checkpoint/layers/concatenate" stack_frame_id=104}
  %mul.360 = bf16[1,64,1,256]{3,2,1,0} broadcast(%concatenate.46), dimensions={0,1,2,3}, metadata={op_name="checkpoint/layers/mul" stack_frame_id=106}
  %mul.361 = bf16[1,64,256]{2,1,0} reshape(%mul.360), metadata={op_name="checkpoint/layers/mul" stack_frame_id=106}
  %mul.362 = bf16[1,64,4,256]{3,2,1,0} broadcast(%mul.361), dimensions={0,1,3}, metadata={op_name="checkpoint/layers/mul" stack_frame_id=106}
  %mul.363 = bf16[1,64,4,256]{2,1,0,3} multiply(%transpose.157, %mul.362), metadata={op_name="checkpoint/layers/mul" stack_frame_id=106}
  %split.31 = bf16[1,64,4,128]{3,2,1,0} slice(%transpose.157), slice={[0:1], [0:64], [0:4], [128:256]}, metadata={op_name="checkpoint/layers/split" stack_frame_id=108}
  %neg.15 = bf16[1,64,4,128]{3,2,1,0} negate(%split.31), metadata={op_name="checkpoint/layers/neg" stack_frame_id=109}
  %split.30 = bf16[1,64,4,128]{3,2,1,0} slice(%transpose.157), slice={[0:1], [0:64], [0:4], [0:128]}, metadata={op_name="checkpoint/layers/split" stack_frame_id=108}
  %concatenate.47 = bf16[1,64,4,256]{3,2,1,0} concatenate(%neg.15, %split.30), dimensions={3}, metadata={op_name="checkpoint/layers/concatenate" stack_frame_id=110}
  %sin.15 = f32[1,64,1,128]{3,2,1,0} sine(%div.201), metadata={op_name="checkpoint/layers/sin" stack_frame_id=111}
  %convert_element_type.267 = bf16[1,64,1,128]{3,2,1,0} convert(%sin.15), metadata={op_name="checkpoint/layers/convert_element_type" stack_frame_id=111}
  %concatenate.45 = bf16[1,64,1,256]{3,2,1,0} concatenate(%convert_element_type.267, %convert_element_type.267), dimensions={3}, metadata={op_name="checkpoint/layers/concatenate" stack_frame_id=112}
  %mul.364 = bf16[1,64,1,256]{3,2,1,0} broadcast(%concatenate.45), dimensions={0,1,2,3}, metadata={op_name="checkpoint/layers/mul" stack_frame_id=107}
  %mul.365 = bf16[1,64,256]{2,1,0} reshape(%mul.364), metadata={op_name="checkpoint/layers/mul" stack_frame_id=107}
  %mul.366 = bf16[1,64,4,256]{3,2,1,0} broadcast(%mul.365), dimensions={0,1,3}, metadata={op_name="checkpoint/layers/mul" stack_frame_id=107}
  %mul.367 = bf16[1,64,4,256]{3,2,1,0} multiply(%concatenate.47, %mul.366), metadata={op_name="checkpoint/layers/mul" stack_frame_id=107}
  %add.90 = bf16[1,64,4,256]{2,1,0,3} add(%mul.363, %mul.367), metadata={op_name="checkpoint/layers/add" stack_frame_id=113}
  %sharding_constraint.52 = bf16[1,64,4,256]{3,2,1,0} custom-call(%add.90), custom_call_target="Sharding", sharding={devices=[1,1,2,1]<=[2]}, frontend_attributes={xla.sdy.sharding="#sdy.sharding_per_value<[<@mesh, [{}, {}, {\"tensor\"}, {}]>]>"}, metadata={op_name="checkpoint/layers/sharding_constraint" stack_frame_id=116}
  %Arg_27.1 = f32[256]{0} parameter(27)
  %convert_element_type.257 = bf16[256]{0} convert(%Arg_27.1), metadata={op_name="checkpoint/layers/convert_element_type" stack_frame_id=117}
  %sharding_constraint.49 = bf16[1,64,2560]{2,1,0} custom-call(%transpose.155), custom_call_target="Sharding", sharding={devices=[1,1,2]<=[2]}, frontend_attributes={xla.sdy.sharding="#sdy.sharding_per_value<[<@mesh, [{}, {}, {\"tensor\"}]>]>"}, metadata={op_name="checkpoint/layers/sharding_constraint" stack_frame_id=120}
  %Arg_26.1 = f32[2560,8,256]{2,1,0} parameter(26)
  %convert_element_type.252 = bf16[2560,8,256]{2,1,0} convert(%Arg_26.1), metadata={op_name="checkpoint/layers/convert_element_type" stack_frame_id=124}
  %dot_general.106 = bf16[1,64,8,256]{3,2,1,0} dot(%sharding_constraint.49, %convert_element_type.252), lhs_contracting_dims={2}, rhs_contracting_dims={0}, metadata={op_name="checkpoint/layers/dot_general" stack_frame_id=126}
  %convert_element_type.255 = f32[1,64,8,256]{3,2,1,0} convert(%dot_general.106), metadata={op_name="checkpoint/layers/convert_element_type" stack_frame_id=127}
  %square.43 = f32[1,64,8,256]{3,2,1,0} multiply(%convert_element_type.255, %convert_element_type.255), metadata={op_name="checkpoint/layers/square" stack_frame_id=128}
  %reduce_sum.302 = f32[1,64,8]{2,1,0} reduce(%square.43, %constant.95), dimensions={3}, to_apply=%region_10.19, metadata={op_name="checkpoint/layers/reduce_sum" stack_frame_id=18}
  %broadcast_in_dim.135 = f32[1,64,8,1]{3,2,1,0} reshape(%reduce_sum.302), metadata={op_name="checkpoint/layers/broadcast_in_dim" stack_frame_id=18}
  %div.184 = f32[1,64,8,1]{3,2,1,0} divide(%broadcast_in_dim.135, %broadcast.58), metadata={op_name="checkpoint/layers/div" stack_frame_id=18}
  %add.87 = f32[1,64,8,1]{3,2,1,0} add(%div.184, %broadcast.57), metadata={op_name="checkpoint/layers/add" stack_frame_id=129}
  %rsqrt.43 = f32[1,64,8,1]{3,2,1,0} rsqrt(%add.87), metadata={op_name="checkpoint/layers/rsqrt" stack_frame_id=130}
  %mul.342 = f32[1,64,8,1]{3,2,1,0} broadcast(%rsqrt.43), dimensions={0,1,2,3}, metadata={op_name="checkpoint/layers/mul" stack_frame_id=131}
  %mul.343 = f32[1,64,8]{2,1,0} reshape(%mul.342), metadata={op_name="checkpoint/layers/mul" stack_frame_id=131}
  %mul.344 = f32[1,64,8,256]{3,2,1,0} broadcast(%mul.343), dimensions={0,1,2}, metadata={op_name="checkpoint/layers/mul" stack_frame_id=131}
  %mul.345 = f32[1,64,8,256]{3,2,1,0} multiply(%convert_element_type.255, %mul.344), metadata={op_name="checkpoint/layers/mul" stack_frame_id=131}
  %convert_element_type.256 = bf16[1,64,8,256]{3,2,1,0} convert(%mul.345), metadata={op_name="checkpoint/layers/convert_element_type" stack_frame_id=132}
  %dot_general.109 = bf16[256,1,64,8]{3,2,1,0} dot(%convert_element_type.257, %convert_element_type.256), lhs_batch_dims={0}, lhs_contracting_dims={}, rhs_batch_dims={3}, rhs_contracting_dims={}, metadata={op_name="checkpoint/layers/...k,k->...k/dot_general" stack_frame_id=133}
  %transpose.156 = bf16[1,64,8,256]{2,1,0,3} transpose(%dot_general.109), dimensions={1,2,3,0}, metadata={op_name="checkpoint/layers/...k,k->...k/transpose" stack_frame_id=133}
  %broadcast_in_dim.137 = s32[1,64,1,1]{3,2,1,0} reshape(%Arg_1.19), metadata={op_name="checkpoint/layers/broadcast_in_dim" stack_frame_id=137}
  %convert_element_type.262 = f32[1,64,1,1]{3,2,1,0} convert(%broadcast_in_dim.137), metadata={op_name="checkpoint/layers/convert_element_type" stack_frame_id=138}
  %div.187 = f32[1,64,1,1]{3,2,1,0} broadcast(%convert_element_type.262), dimensions={0,1,2,3}, metadata={op_name="checkpoint/layers/div" stack_frame_id=138}
  %div.188 = f32[1,64,1]{2,1,0} reshape(%div.187), metadata={op_name="checkpoint/layers/div" stack_frame_id=138}
  %div.189 = f32[1,64,1,128]{3,2,1,0} broadcast(%div.188), dimensions={0,1,2}, metadata={op_name="checkpoint/layers/div" stack_frame_id=138}
  %iota.68 = s32[128]{0} iota(), iota_dimension=0, metadata={op_name="checkpoint/layers/iota" stack_frame_id=140}
  %mul.350 = s32[128]{0} multiply(%iota.68, %broadcast.54), metadata={op_name="checkpoint/layers/mul" stack_frame_id=141}
  %convert_element_type.261 = f32[128]{0} convert(%mul.350), metadata={op_name="checkpoint/layers/convert_element_type" stack_frame_id=141}
  %div.186 = f32[128]{0} divide(%convert_element_type.261, %broadcast.53), metadata={op_name="checkpoint/layers/div" stack_frame_id=141}
  %pow.14 = f32[128]{0} power(%broadcast.52, %div.186), metadata={op_name="checkpoint/layers/pow" stack_frame_id=142}
  %broadcast_in_dim.138 = f32[1,1,1,128]{3,2,1,0} reshape(%pow.14), metadata={op_name="checkpoint/layers/broadcast_in_dim" stack_frame_id=138}
  %div.190 = f32[1,1,1,128]{3,2,1,0} broadcast(%broadcast_in_dim.138), dimensions={0,1,2,3}, metadata={op_name="checkpoint/layers/div" stack_frame_id=138}
  %div.191 = f32[1,1,128]{2,1,0} reshape(%div.190), metadata={op_name="checkpoint/layers/div" stack_frame_id=138}
  %div.192 = f32[1,64,1,128]{3,2,1,0} broadcast(%div.191), dimensions={0,2,3}, metadata={op_name="checkpoint/layers/div" stack_frame_id=138}
  %div.193 = f32[1,64,1,128]{3,2,1,0} divide(%div.189, %div.192), metadata={op_name="checkpoint/layers/div" stack_frame_id=138}
  %cos.14 = f32[1,64,1,128]{3,2,1,0} cosine(%div.193), metadata={op_name="checkpoint/layers/cos" stack_frame_id=143}
  %convert_element_type.264 = bf16[1,64,1,128]{3,2,1,0} convert(%cos.14), metadata={op_name="checkpoint/layers/convert_element_type" stack_frame_id=143}
  %concatenate.43 = bf16[1,64,1,256]{3,2,1,0} concatenate(%convert_element_type.264, %convert_element_type.264), dimensions={3}, metadata={op_name="checkpoint/layers/concatenate" stack_frame_id=144}
  %mul.351 = bf16[1,64,1,256]{3,2,1,0} broadcast(%concatenate.43), dimensions={0,1,2,3}, metadata={op_name="checkpoint/layers/mul" stack_frame_id=146}
  %mul.352 = bf16[1,64,256]{2,1,0} reshape(%mul.351), metadata={op_name="checkpoint/layers/mul" stack_frame_id=146}
  %mul.353 = bf16[1,64,8,256]{3,2,1,0} broadcast(%mul.352), dimensions={0,1,3}, metadata={op_name="checkpoint/layers/mul" stack_frame_id=146}
  %mul.354 = bf16[1,64,8,256]{2,1,0,3} multiply(%transpose.156, %mul.353), metadata={op_name="checkpoint/layers/mul" stack_frame_id=146}
  %split.29 = bf16[1,64,8,128]{3,2,1,0} slice(%transpose.156), slice={[0:1], [0:64], [0:8], [128:256]}, metadata={op_name="checkpoint/layers/split" stack_frame_id=148}
  %neg.14 = bf16[1,64,8,128]{3,2,1,0} negate(%split.29), metadata={op_name="checkpoint/layers/neg" stack_frame_id=149}
  %split.28 = bf16[1,64,8,128]{3,2,1,0} slice(%transpose.156), slice={[0:1], [0:64], [0:8], [0:128]}, metadata={op_name="checkpoint/layers/split" stack_frame_id=148}
  %concatenate.44 = bf16[1,64,8,256]{3,2,1,0} concatenate(%neg.14, %split.28), dimensions={3}, metadata={op_name="checkpoint/layers/concatenate" stack_frame_id=150}
  %sin.14 = f32[1,64,1,128]{3,2,1,0} sine(%div.193), metadata={op_name="checkpoint/layers/sin" stack_frame_id=151}
  %convert_element_type.263 = bf16[1,64,1,128]{3,2,1,0} convert(%sin.14), metadata={op_name="checkpoint/layers/convert_element_type" stack_frame_id=151}
  %concatenate.42 = bf16[1,64,1,256]{3,2,1,0} concatenate(%convert_element_type.263, %convert_element_type.263), dimensions={3}, metadata={op_name="checkpoint/layers/concatenate" stack_frame_id=152}
  %mul.355 = bf16[1,64,1,256]{3,2,1,0} broadcast(%concatenate.42), dimensions={0,1,2,3}, metadata={op_name="checkpoint/layers/mul" stack_frame_id=147}
  %mul.356 = bf16[1,64,256]{2,1,0} reshape(%mul.355), metadata={op_name="checkpoint/layers/mul" stack_frame_id=147}
  %mul.357 = bf16[1,64,8,256]{3,2,1,0} broadcast(%mul.356), dimensions={0,1,3}, metadata={op_name="checkpoint/layers/mul" stack_frame_id=147}
  %mul.358 = bf16[1,64,8,256]{3,2,1,0} multiply(%concatenate.44, %mul.357), metadata={op_name="checkpoint/layers/mul" stack_frame_id=147}
  %add.89 = bf16[1,64,8,256]{2,1,0,3} add(%mul.354, %mul.358), metadata={op_name="checkpoint/layers/add" stack_frame_id=153}
  %mul.368 = bf16[1,64,8,256]{2,1,0,3} multiply(%add.89, %broadcast.51), metadata={op_name="checkpoint/layers/mul" stack_frame_id=154}
  %sharding_constraint.51 = bf16[1,64,8,256]{3,2,1,0} custom-call(%mul.368), custom_call_target="Sharding", sharding={devices=[1,1,2,1]<=[2]}, frontend_attributes={xla.sdy.sharding="#sdy.sharding_per_value<[<@mesh, [{}, {}, {\"tensor\"}, {}]>]>"}, metadata={op_name="checkpoint/layers/sharding_constraint" stack_frame_id=157}
  %reshape.28 = bf16[1,64,4,2,256]{4,3,2,1,0} reshape(%sharding_constraint.51), metadata={op_name="checkpoint/layers/reshape" stack_frame_id=159}
  %dot_general.111 = bf16[1,4,64,64,2]{4,3,2,1,0} dot(%sharding_constraint.52, %reshape.28), lhs_batch_dims={0,2}, lhs_contracting_dims={3}, rhs_batch_dims={0,2}, rhs_contracting_dims={4}, metadata={op_name="checkpoint/layers/btkgd,bskd->bkgts/dot_general" stack_frame_id=160}
  %transpose.160 = bf16[1,4,2,64,64]{2,3,4,1,0} transpose(%dot_general.111), dimensions={0,1,4,3,2}, metadata={op_name="checkpoint/layers/btkgd,bskd->bkgts/transpose" stack_frame_id=160}
  %jit__where_.15 = bf16[1,4,2,64,64]{4,3,2,1,0} call(%ge.7, %transpose.160, %constant.94), to_apply=%_where_6.12, metadata={op_name="checkpoint/layers/jit(_where)" stack_frame_id=161}
  %reshape.29 = bf16[1,8,64,64]{3,2,1,0} reshape(%jit__where_.15), metadata={op_name="checkpoint/layers/reshape" stack_frame_id=162}
  %reduce_max.43 = bf16[1,8,64]{2,1,0} reduce(%reshape.29, %constant.93), dimensions={3}, to_apply=%region_12.21, metadata={op_name="checkpoint/layers/reduce_max" stack_frame_id=27}
  %broadcast_in_dim.146 = bf16[1,8,64,1]{3,2,1,0} reshape(%reduce_max.43), metadata={op_name="checkpoint/layers/broadcast_in_dim" stack_frame_id=27}
  %sub.35 = bf16[1,8,64,1]{3,2,1,0} broadcast(%broadcast_in_dim.146), dimensions={0,1,2,3}, metadata={op_name="checkpoint/layers/sub" stack_frame_id=163}
  %sub.36 = bf16[1,8,64]{2,1,0} reshape(%sub.35), metadata={op_name="checkpoint/layers/sub" stack_frame_id=163}
  %sub.37 = bf16[1,8,64,64]{3,2,1,0} broadcast(%sub.36), dimensions={0,1,2}, metadata={op_name="checkpoint/layers/sub" stack_frame_id=163}
  %sub.38 = bf16[1,8,64,64]{3,2,1,0} subtract(%reshape.29, %sub.37), metadata={op_name="checkpoint/layers/sub" stack_frame_id=163}
  %exp.7 = bf16[1,8,64,64]{3,2,1,0} exponential(%sub.38), metadata={op_name="checkpoint/layers/exp" stack_frame_id=164}
  %reshape.30 = bf16[1,4,2,64,64]{4,3,2,1,0} reshape(%exp.7), metadata={op_name="checkpoint/layers/reshape" stack_frame_id=165}
  %dot_general.112 = bf16[1,4,256,2,64]{4,3,2,1,0} dot(%sharding_constraint.53, %reshape.30), lhs_batch_dims={0,2}, lhs_contracting_dims={1}, rhs_batch_dims={0,1}, rhs_contracting_dims={4}, metadata={op_name="checkpoint/layers/bkgts,bskd->btkgd/dot_general" stack_frame_id=167}
  %transpose.162 = bf16[1,64,4,2,256]{1,3,4,2,0} transpose(%dot_general.112), dimensions={0,4,1,3,2}, metadata={op_name="checkpoint/layers/bkgts,bskd->btkgd/transpose" stack_frame_id=167}
  %reshape.31 = bf16[1,64,8,256]{3,2,1,0} reshape(%transpose.162), metadata={op_name="checkpoint/layers/reshape" stack_frame_id=168}
  %convert_element_type.269 = f32[1,8,64,64]{3,2,1,0} convert(%exp.7), metadata={op_name="checkpoint/layers/convert_element_type" stack_frame_id=28}
  %reduce_sum.304 = f32[1,8,64]{2,1,0} reduce(%convert_element_type.269, %constant.95), dimensions={3}, to_apply=%region_13.22, metadata={op_name="checkpoint/layers/reduce_sum" stack_frame_id=28}
  %broadcast_in_dim.147 = f32[1,8,64,1]{3,2,1,0} reshape(%reduce_sum.304), metadata={op_name="checkpoint/layers/broadcast_in_dim" stack_frame_id=28}
  %convert_element_type.270 = bf16[1,8,64,1]{3,2,1,0} convert(%broadcast_in_dim.147), metadata={op_name="checkpoint/layers/convert_element_type" stack_frame_id=28}
  %transpose.161 = bf16[1,64,8,1]{3,1,2,0} transpose(%convert_element_type.270), dimensions={0,2,1,3}, metadata={op_name="checkpoint/layers/transpose" stack_frame_id=169}
  %div.202 = bf16[1,64,8,1]{3,2,1,0} broadcast(%transpose.161), dimensions={0,1,2,3}, metadata={op_name="checkpoint/layers/div" stack_frame_id=170}
  %div.203 = bf16[1,64,8]{2,1,0} reshape(%div.202), metadata={op_name="checkpoint/layers/div" stack_frame_id=170}
  %div.204 = bf16[1,64,8,256]{3,2,1,0} broadcast(%div.203), dimensions={0,1,2}, metadata={op_name="checkpoint/layers/div" stack_frame_id=170}
  %div.205 = bf16[1,64,8,256]{3,2,1,0} divide(%reshape.31, %div.204), metadata={op_name="checkpoint/layers/div" stack_frame_id=170}
  %sharding_constraint.54 = bf16[1,64,8,256]{3,2,1,0} custom-call(%div.205), custom_call_target="Sharding", sharding={devices=[1,1,2,1]<=[2]}, frontend_attributes={xla.sdy.sharding="#sdy.sharding_per_value<[<@mesh, [{}, {}, {\"tensor\"}, {}]>]>"}, metadata={op_name="checkpoint/layers/sharding_constraint" stack_frame_id=173}
  %Arg_25.1 = f32[8,256,2560]{2,1,0} parameter(25)
  %convert_element_type.271 = bf16[8,256,2560]{2,1,0} convert(%Arg_25.1), metadata={op_name="checkpoint/layers/convert_element_type" stack_frame_id=177}
  %dot_general.113 = bf16[1,64,2560]{2,1,0} dot(%sharding_constraint.54, %convert_element_type.271), lhs_contracting_dims={2,3}, rhs_contracting_dims={0,1}, metadata={op_name="checkpoint/layers/dot_general" stack_frame_id=179}
  %convert_element_type.272 = f32[1,64,2560]{2,1,0} convert(%dot_general.113), metadata={op_name="checkpoint/layers/convert_element_type" stack_frame_id=180}
  %square.45 = f32[1,64,2560]{2,1,0} multiply(%convert_element_type.272, %convert_element_type.272), metadata={op_name="checkpoint/layers/square" stack_frame_id=181}
  %reduce_sum.305 = f32[1,64]{1,0} reduce(%square.45, %constant.95), dimensions={2}, to_apply=%region_14.23, metadata={op_name="checkpoint/layers/reduce_sum" stack_frame_id=31}
  %broadcast_in_dim.148 = f32[1,64,1]{2,1,0} reshape(%reduce_sum.305), metadata={op_name="checkpoint/layers/broadcast_in_dim" stack_frame_id=31}
  %div.206 = f32[1,64,1]{2,1,0} divide(%broadcast_in_dim.148, %broadcast.60), metadata={op_name="checkpoint/layers/div" stack_frame_id=31}
  %add.91 = f32[1,64,1]{2,1,0} add(%div.206, %broadcast.59), metadata={op_name="checkpoint/layers/add" stack_frame_id=182}
  %rsqrt.45 = f32[1,64,1]{2,1,0} rsqrt(%add.91), metadata={op_name="checkpoint/layers/rsqrt" stack_frame_id=183}
  %mul.369 = f32[1,64,1]{2,1,0} broadcast(%rsqrt.45), dimensions={0,1,2}, metadata={op_name="checkpoint/layers/mul" stack_frame_id=184}
  %mul.370 = f32[1,64]{1,0} reshape(%mul.369), metadata={op_name="checkpoint/layers/mul" stack_frame_id=184}
  %mul.371 = f32[1,64,2560]{2,1,0} broadcast(%mul.370), dimensions={0,1}, metadata={op_name="checkpoint/layers/mul" stack_frame_id=184}
  %mul.372 = f32[1,64,2560]{2,1,0} multiply(%convert_element_type.272, %mul.371), metadata={op_name="checkpoint/layers/mul" stack_frame_id=184}
  %convert_element_type.273 = bf16[1,64,2560]{2,1,0} convert(%mul.372), metadata={op_name="checkpoint/layers/convert_element_type" stack_frame_id=185}
  %dot_general.114 = bf16[2560,1,64]{2,1,0} dot(%convert_element_type.274, %convert_element_type.273), lhs_batch_dims={0}, lhs_contracting_dims={}, rhs_batch_dims={2}, rhs_contracting_dims={}, metadata={op_name="checkpoint/layers/...k,k->...k/dot_general" stack_frame_id=186}
  %transpose.163 = bf16[1,64,2560]{1,0,2} transpose(%dot_general.114), dimensions={1,2,0}, metadata={op_name="checkpoint/layers/...k,k->...k/transpose" stack_frame_id=186}
  %add.92 = bf16[1,64,2560]{1,0,2} add(%transpose.163, %add.85), metadata={op_name="checkpoint/layers/add" stack_frame_id=187}
  %convert_element_type.275 = f32[1,64,2560]{1,0,2} convert(%add.92), metadata={op_name="checkpoint/layers/convert_element_type" stack_frame_id=188}
  %square.46 = f32[1,64,2560]{1,0,2} multiply(%convert_element_type.275, %convert_element_type.275), metadata={op_name="checkpoint/layers/square" stack_frame_id=189}
  %reduce_sum.306 = f32[1,64]{1,0} reduce(%square.46, %constant.95), dimensions={2}, to_apply=%region_15.24, metadata={op_name="checkpoint/layers/reduce_sum" stack_frame_id=34}
  %broadcast_in_dim.149 = f32[1,64,1]{2,1,0} reshape(%reduce_sum.306), metadata={op_name="checkpoint/layers/broadcast_in_dim" stack_frame_id=34}
  %div.207 = f32[1,64,1]{2,1,0} divide(%broadcast_in_dim.149, %broadcast.60), metadata={op_name="checkpoint/layers/div" stack_frame_id=34}
  %add.93 = f32[1,64,1]{2,1,0} add(%div.207, %broadcast.59), metadata={op_name="checkpoint/layers/add" stack_frame_id=190}
  %rsqrt.46 = f32[1,64,1]{2,1,0} rsqrt(%add.93), metadata={op_name="checkpoint/layers/rsqrt" stack_frame_id=191}
  %mul.373 = f32[1,64,1]{2,1,0} broadcast(%rsqrt.46), dimensions={0,1,2}, metadata={op_name="checkpoint/layers/mul" stack_frame_id=192}
…
  %broadcast_in_dim.354 = f32[1,64,8,1]{3,2,1,0} reshape(%reduce_sum.561), metadata={op_name="jit(_prefill_jit)/TransformerLinenPure.apply/TransformerLinenPure/decoder/decoder._apply_gemma3_scanned_blocks/checkpoint/layers_remainder/broadcast_in_dim" stack_frame_id=264}
  %div.499 = f32[1,64,8,1]{3,2,1,0} divide(%broadcast_in_dim.354, %broadcast.76), metadata={op_name="jit(_prefill_jit)/TransformerLinenPure.apply/TransformerLinenPure/decoder/decoder._apply_gemma3_scanned_blocks/checkpoint/layers_remainder/div" stack_frame_id=264}
  %add.237 = f32[1,64,8,1]{3,2,1,0} add(%div.499, %broadcast.75), metadata={op_name="jit(_prefill_jit)/TransformerLinenPure.apply/TransformerLinenPure/decoder/decoder._apply_gemma3_scanned_blocks/checkpoint/layers_remainder/add" stack_frame_id=402}
  %rsqrt.116 = f32[1,64,8,1]{3,2,1,0} rsqrt(%add.237), metadata={op_name="jit(_prefill_jit)/TransformerLinenPure.apply/TransformerLinenPure/decoder/decoder._apply_gemma3_scanned_blocks/checkpoint/layers_remainder/rsqrt" stack_frame_id=403}
  %mul.924 = f32[1,64,8,1]{3,2,1,0} broadcast(%rsqrt.116), dimensions={0,1,2,3}, metadata={op_name="jit(_prefill_jit)/TransformerLinenPure.apply/TransformerLinenPure/decoder/decoder._apply_gemma3_scanned_blocks/checkpoint/layers_remainder/mul" stack_frame_id=404}
  %mul.925 = f32[1,64,8]{2,1,0} reshape(%mul.924), metadata={op_name="jit(_prefill_jit)/TransformerLinenPure.apply/TransformerLinenPure/decoder/decoder._apply_gemma3_scanned_blocks/checkpoint/layers_remainder/mul" stack_frame_id=404}
  %mul.926 = f32[1,64,8,256]{3,2,1,0} broadcast(%mul.925), dimensions={0,1,2}, metadata={op_name="jit(_prefill_jit)/TransformerLinenPure.apply/TransformerLinenPure/decoder/decoder._apply_gemma3_scanned_blocks/checkpoint/layers_remainder/mul" stack_frame_id=404}
  %mul.927 = f32[1,64,8,256]{3,2,1,0} multiply(%convert_element_type.682, %mul.926), metadata={op_name="jit(_prefill_jit)/TransformerLinenPure.apply/TransformerLinenPure/decoder/decoder._apply_gemma3_scanned_blocks/checkpoint/layers_remainder/mul" stack_frame_id=404}
  %convert_element_type.683 = bf16[1,64,8,256]{3,2,1,0} convert(%mul.927), metadata={op_name="jit(_prefill_jit)/TransformerLinenPure.apply/TransformerLinenPure/decoder/decoder._apply_gemma3_scanned_blocks/checkpoint/layers_remainder/convert_element_type" stack_frame_id=405}
  %dot_general.291 = bf16[256,1,64,8]{3,2,1,0} dot(%convert_element_type.684, %convert_element_type.683), lhs_batch_dims={0}, lhs_contracting_dims={}, rhs_batch_dims={3}, rhs_contracting_dims={}, metadata={op_name="jit(_prefill_jit)/TransformerLinenPure.apply/TransformerLinenPure/decoder/decoder._apply_gemma3_scanned_blocks/checkpoint/layers_remainder/...k,k->...k/dot_general" stack_frame_id=406}
  %transpose.368 = bf16[1,64,8,256]{2,1,0,3} transpose(%dot_general.291), dimensions={1,2,3,0}, metadata={op_name="jit(_prefill_jit)/TransformerLinenPure.apply/TransformerLinenPure/decoder/decoder._apply_gemma3_scanned_blocks/checkpoint/layers_remainder/...k,k->...k/transpose" stack_frame_id=406}
  %broadcast_in_dim.356 = s32[1,64,1,1]{3,2,1,0} reshape(%iota.158), metadata={op_name="jit(_prefill_jit)/TransformerLinenPure.apply/TransformerLinenPure/decoder/decoder._apply_gemma3_scanned_blocks/checkpoint/layers_remainder/broadcast_in_dim;jit(_prefill_jit)/broadcast_in_dim"}
  %convert_element_type.689 = f32[1,64,1,1]{3,2,1,0} convert(%broadcast_in_dim.356), metadata={op_name="jit(_prefill_jit)/TransformerLinenPure.apply/TransformerLinenPure/decoder/decoder._apply_gemma3_scanned_blocks/checkpoint/layers_remainder/convert_element_type" stack_frame_id=410}
  %div.502 = f32[1,64,1,1]{3,2,1,0} broadcast(%convert_element_type.689), dimensions={0,1,2,3}, metadata={op_name="jit(_prefill_jit)/TransformerLinenPure.apply/TransformerLinenPure/decoder/decoder._apply_gemma3_scanned_blocks/checkpoint/layers_remainder/div" stack_frame_id=410}
  %div.503 = f32[1,64,1]{2,1,0} reshape(%div.502), metadata={op_name="jit(_prefill_jit)/TransformerLinenPure.apply/TransformerLinenPure/decoder/decoder._apply_gemma3_scanned_blocks/checkpoint/layers_remainder/div" stack_frame_id=410}
  %div.504 = f32[1,64,1,128]{3,2,1,0} broadcast(%div.503), dimensions={0,1,2}, metadata={op_name="jit(_prefill_jit)/TransformerLinenPure.apply/TransformerLinenPure/decoder/decoder._apply_gemma3_scanned_blocks/checkpoint/layers_remainder/div" stack_frame_id=410}
  %iota.190 = s32[128]{0} iota(), iota_dimension=0, metadata={op_name="jit(_prefill_jit)/TransformerLinenPure.apply/TransformerLinenPure/decoder/decoder._apply_gemma3_scanned_blocks/checkpoint/layers_remainder/iota" stack_frame_id=412}
  %mul.932 = s32[128]{0} multiply(%iota.190, %broadcast.72), metadata={op_name="jit(_prefill_jit)/TransformerLinenPure.apply/TransformerLinenPure/decoder/decoder._apply_gemma3_scanned_blocks/checkpoint/layers_remainder/mul" stack_frame_id=413}
  %convert_element_type.688 = f32[128]{0} convert(%mul.932), metadata={op_name="jit(_prefill_jit)/TransformerLinenPure.apply/TransformerLinenPure/decoder/decoder._apply_gemma3_scanned_blocks/checkpoint/layers_remainder/convert_element_type" stack_frame_id=413}
  %div.501 = f32[128]{0} divide(%convert_element_type.688, %broadcast.71), metadata={op_name="jit(_prefill_jit)/TransformerLinenPure.apply/TransformerLinenPure/decoder/decoder._apply_gemma3_scanned_blocks/checkpoint/layers_remainder/div" stack_frame_id=413}
  %pow.38 = f32[128]{0} power(%broadcast.70, %div.501), metadata={op_name="jit(_prefill_jit)/TransformerLinenPure.apply/TransformerLinenPure/decoder/decoder._apply_gemma3_scanned_blocks/checkpoint/layers_remainder/pow" stack_frame_id=414}
  %broadcast_in_dim.357 = f32[1,1,1,128]{3,2,1,0} reshape(%pow.38), metadata={op_name="jit(_prefill_jit)/TransformerLinenPure.apply/TransformerLinenPure/decoder/decoder._apply_gemma3_scanned_blocks/checkpoint/layers_remainder/broadcast_in_dim" stack_frame_id=410}
  %div.505 = f32[1,1,1,128]{3,2,1,0} broadcast(%broadcast_in_dim.357), dimensions={0,1,2,3}, metadata={op_name="jit(_prefill_jit)/TransformerLinenPure.apply/TransformerLinenPure/decoder/decoder._apply_gemma3_scanned_blocks/checkpoint/layers_remainder/div" stack_frame_id=410}
  %div.506 = f32[1,1,128]{2,1,0} reshape(%div.505), metadata={op_name="jit(_prefill_jit)/TransformerLinenPure.apply/TransformerLinenPure/decoder/decoder._apply_gemma3_scanned_blocks/checkpoint/layers_remainder/div" stack_frame_id=410}
  %div.507 = f32[1,64,1,128]{3,2,1,0} broadcast(%div.506), dimensions={0,2,3}, metadata={op_name="jit(_prefill_jit)/TransformerLinenPure.apply/TransformerLinenPure/decoder/decoder._apply_gemma3_scanned_blocks/checkpoint/layers_remainder/div" stack_frame_id=410}
  %div.508 = f32[1,64,1,128]{3,2,1,0} divide(%div.504, %div.507), metadata={op_name="jit(_prefill_jit)/TransformerLinenPure.apply/TransformerLinenPure/decoder/decoder._apply_gemma3_scanned_blocks/checkpoint/layers_remainder/div" stack_frame_id=410}
  %cos.38 = f32[1,64,1,128]{3,2,1,0} cosine(%div.508), metadata={op_name="jit(_prefill_jit)/TransformerLinenPure.apply/TransformerLinenPure/decoder/decoder._apply_gemma3_scanned_blocks/checkpoint/layers_remainder/cos" stack_frame_id=415}
  %convert_element_type.691 = bf16[1,64,1,128]{3,2,1,0} convert(%cos.38), metadata={op_name="jit(_prefill_jit)/TransformerLinenPure.apply/TransformerLinenPure/decoder/decoder._apply_gemma3_scanned_blocks/checkpoint/layers_remainder/convert_element_type" stack_frame_id=415}
  %concatenate.116 = bf16[1,64,1,256]{3,2,1,0} concatenate(%convert_element_type.691, %convert_element_type.691), dimensions={3}, metadata={op_name="jit(_prefill_jit)/TransformerLinenPure.apply/TransformerLinenPure/decoder/decoder._apply_gemma3_scanned_blocks/checkpoint/layers_remainder/concatenate" stack_frame_id=416}
  %mul.933 = bf16[1,64,1,256]{3,2,1,0} broadcast(%concatenate.116), dimensions={0,1,2,3}, metadata={op_name="jit(_prefill_jit)/TransformerLinenPure.apply/TransformerLinenPure/decoder/decoder._apply_gemma3_scanned_blocks/checkpoint/layers_remainder/mul" stack_frame_id=418}
  %mul.934 = bf16[1,64,256]{2,1,0} reshape(%mul.933), metadata={op_name="jit(_prefill_jit)/TransformerLinenPure.apply/TransformerLinenPure/decoder/decoder._apply_gemma3_scanned_blocks/checkpoint/layers_remainder/mul" stack_frame_id=418}
  %mul.935 = bf16[1,64,8,256]{3,2,1,0} broadcast(%mul.934), dimensions={0,1,3}, metadata={op_name="jit(_prefill_jit)/TransformerLinenPure.apply/TransformerLinenPure/decoder/decoder._apply_gemma3_scanned_blocks/checkpoint/layers_remainder/mul" stack_frame_id=418}
  %mul.936 = bf16[1,64,8,256]{2,1,0,3} multiply(%transpose.368, %mul.935), metadata={op_name="jit(_prefill_jit)/TransformerLinenPure.apply/TransformerLinenPure/decoder/decoder._apply_gemma3_scanned_blocks/checkpoint/layers_remainder/mul" stack_frame_id=418}
  %split.77 = bf16[1,64,8,128]{3,2,1,0} slice(%transpose.368), slice={[0:1], [0:64], [0:8], [128:256]}, metadata={op_name="jit(_prefill_jit)/TransformerLinenPure.apply/TransformerLinenPure/decoder/decoder._apply_gemma3_scanned_blocks/checkpoint/layers_remainder/split" stack_frame_id=420}
  %neg.38 = bf16[1,64,8,128]{3,2,1,0} negate(%split.77), metadata={op_name="jit(_prefill_jit)/TransformerLinenPure.apply/TransformerLinenPure/decoder/decoder._apply_gemma3_scanned_blocks/checkpoint/layers_remainder/neg" stack_frame_id=421}
  %split.76 = bf16[1,64,8,128]{3,2,1,0} slice(%transpose.368), slice={[0:1], [0:64], [0:8], [0:128]}, metadata={op_name="jit(_prefill_jit)/TransformerLinenPure.apply/TransformerLinenPure/decoder/decoder._apply_gemma3_scanned_blocks/checkpoint/layers_remainder/split" stack_frame_id=420}
  %concatenate.117 = bf16[1,64,8,256]{3,2,1,0} concatenate(%neg.38, %split.76), dimensions={3}, metadata={op_name="jit(_prefill_jit)/TransformerLinenPure.apply/TransformerLinenPure/decoder/decoder._apply_gemma3_scanned_blocks/checkpoint/layers_remainder/concatenate" stack_frame_id=422}
  %sin.38 = f32[1,64,1,128]{3,2,1,0} sine(%div.508), metadata={op_name="jit(_prefill_jit)/TransformerLinenPure.apply/TransformerLinenPure/decoder/decoder._apply_gemma3_scanned_blocks/checkpoint/layers_remainder/sin" stack_frame_id=423}
  %convert_element_type.690 = bf16[1,64,1,128]{3,2,1,0} convert(%sin.38), metadata={op_name="jit(_prefill_jit)/TransformerLinenPure.apply/TransformerLinenPure/decoder/decoder._apply_gemma3_scanned_blocks/checkpoint/layers_remainder/convert_element_type" stack_frame_id=423}
  %concatenate.115 = bf16[1,64,1,256]{3,2,1,0} concatenate(%convert_element_type.690, %convert_element_type.690), dimensions={3}, metadata={op_name="jit(_prefill_jit)/TransformerLinenPure.apply/TransformerLinenPure/decoder/decoder._apply_gemma3_scanned_blocks/checkpoint/layers_remainder/concatenate" stack_frame_id=424}
  %mul.937 = bf16[1,64,1,256]{3,2,1,0} broadcast(%concatenate.115), dimensions={0,1,2,3}, metadata={op_name="jit(_prefill_jit)/TransformerLinenPure.apply/TransformerLinenPure/decoder/decoder._apply_gemma3_scanned_blocks/checkpoint/layers_remainder/mul" stack_frame_id=419}
  %mul.938 = bf16[1,64,256]{2,1,0} reshape(%mul.937), metadata={op_name="jit(_prefill_jit)/TransformerLinenPure.apply/TransformerLinenPure/decoder/decoder._apply_gemma3_scanned_blocks/checkpoint/layers_remainder/mul" stack_frame_id=419}
  %mul.939 = bf16[1,64,8,256]{3,2,1,0} broadcast(%mul.938), dimensions={0,1,3}, metadata={op_name="jit(_prefill_jit)/TransformerLinenPure.apply/TransformerLinenPure/decoder/decoder._apply_gemma3_scanned_blocks/checkpoint/layers_remainder/mul" stack_frame_id=419}
  %mul.940 = bf16[1,64,8,256]{3,2,1,0} multiply(%concatenate.117, %mul.939), metadata={op_name="jit(_prefill_jit)/TransformerLinenPure.apply/TransformerLinenPure/decoder/decoder._apply_gemma3_scanned_blocks/checkpoint/layers_remainder/mul" stack_frame_id=419}
  %add.239 = bf16[1,64,8,256]{2,1,0,3} add(%mul.936, %mul.940), metadata={op_name="jit(_prefill_jit)/TransformerLinenPure.apply/TransformerLinenPure/decoder/decoder._apply_gemma3_scanned_blocks/checkpoint/layers_remainder/add" stack_frame_id=425}
  %mul.950 = bf16[1,64,8,256]{2,1,0,3} multiply(%add.239, %broadcast.69), metadata={op_name="jit(_prefill_jit)/TransformerLinenPure.apply/TransformerLinenPure/decoder/decoder._apply_gemma3_scanned_blocks/checkpoint/layers_remainder/mul" stack_frame_id=426}
  %sharding_constraint.136 = bf16[1,64,8,256]{3,2,1,0} custom-call(%mul.950), custom_call_target="Sharding", sharding={devices=[1,1,2,1]<=[2]}, frontend_attributes={xla.sdy.sharding="#sdy.sharding_per_value<[<@mesh, [{}, {}, {\"tensor\"}, {}]>]>"}, metadata={op_name="jit(_prefill_jit)/TransformerLinenPure.apply/TransformerLinenPure/decoder/decoder._apply_gemma3_scanned_blocks/checkpoint/layers_remainder/sharding_constraint" stack_frame_id=429}
  %reshape.76 = bf16[1,64,4,2,256]{4,3,2,1,0} reshape(%sharding_constraint.136), metadata={op_name="jit(_prefill_jit)/TransformerLinenPure.apply/TransformerLinenPure/decoder/decoder._apply_gemma3_scanned_blocks/checkpoint/layers_remainder/reshape" stack_frame_id=431}
  %dot_general.293 = bf16[1,4,64,64,2]{4,3,2,1,0} dot(%sharding_constraint.137, %reshape.76), lhs_batch_dims={0,2}, lhs_contracting_dims={3}, rhs_batch_dims={0,2}, rhs_contracting_dims={4}, metadata={op_name="jit(_prefill_jit)/TransformerLinenPure.apply/TransformerLinenPure/decoder/decoder._apply_gemma3_scanned_blocks/checkpoint/layers_remainder/btkgd,bskd->bkgts/dot_general" stack_frame_id=432}
  %transpose.372 = bf16[1,4,2,64,64]{2,3,4,1,0} transpose(%dot_general.293), dimensions={0,1,4,3,2}, metadata={op_name="jit(_prefill_jit)/TransformerLinenPure.apply/TransformerLinenPure/decoder/decoder._apply_gemma3_scanned_blocks/checkpoint/layers_remainder/btkgd,bskd->bkgts/transpose" stack_frame_id=432}
  %jit__where_.39 = bf16[1,4,2,64,64]{4,3,2,1,0} call(%ge.19, %transpose.372, %constant.148), to_apply=%_where_6.12, metadata={op_name="jit(_prefill_jit)/TransformerLinenPure.apply/TransformerLinenPure/decoder/decoder._apply_gemma3_scanned_blocks/checkpoint/layers_remainder/jit(_where)" stack_frame_id=433}
  %reshape.77 = bf16[1,8,64,64]{3,2,1,0} reshape(%jit__where_.39), metadata={op_name="jit(_prefill_jit)/TransformerLinenPure.apply/TransformerLinenPure/decoder/decoder._apply_gemma3_scanned_blocks/checkpoint/layers_remainder/reshape" stack_frame_id=434}
  %reduce_max.79 = bf16[1,8,64]{2,1,0} reduce(%reshape.77, %constant.147), dimensions={3}, to_apply=%region_77.93, metadata={op_name="jit(_prefill_jit)/TransformerLinenPure.apply/TransformerLinenPure/decoder/decoder._apply_gemma3_scanned_blocks/checkpoint/layers_remainder/reduce_max" stack_frame_id=273}
  %broadcast_in_dim.365 = bf16[1,8,64,1]{3,2,1,0} reshape(%reduce_max.79), metadata={op_name="jit(_prefill_jit)/TransformerLinenPure.apply/TransformerLinenPure/decoder/decoder._apply_gemma3_scanned_blocks/checkpoint/layers_remainder/broadcast_in_dim" stack_frame_id=273}
  %sub.95 = bf16[1,8,64,1]{3,2,1,0} broadcast(%broadcast_in_dim.365), dimensions={0,1,2,3}, metadata={op_name="jit(_prefill_jit)/TransformerLinenPure.apply/TransformerLinenPure/decoder/decoder._apply_gemma3_scanned_blocks/checkpoint/layers_remainder/sub" stack_frame_id=435}
  %sub.96 = bf16[1,8,64]{2,1,0} reshape(%sub.95), metadata={op_name="jit(_prefill_jit)/TransformerLinenPure.apply/TransformerLinenPure/decoder/decoder._apply_gemma3_scanned_blocks/checkpoint/layers_remainder/sub" stack_frame_id=435}
  %sub.97 = bf16[1,8,64,64]{3,2,1,0} broadcast(%sub.96), dimensions={0,1,2}, metadata={op_name="jit(_prefill_jit)/TransformerLinenPure.apply/TransformerLinenPure/decoder/decoder._apply_gemma3_scanned_blocks/checkpoint/layers_remainder/sub" stack_frame_id=435}
  %sub.98 = bf16[1,8,64,64]{3,2,1,0} subtract(%reshape.77, %sub.97), metadata={op_name="jit(_prefill_jit)/TransformerLinenPure.apply/TransformerLinenPure/decoder/decoder._apply_gemma3_scanned_blocks/checkpoint/layers_remainder/sub" stack_frame_id=435}
  %exp.19 = bf16[1,8,64,64]{3,2,1,0} exponential(%sub.98), metadata={op_name="jit(_prefill_jit)/TransformerLinenPure.apply/TransformerLinenPure/decoder/decoder._apply_gemma3_scanned_blocks/checkpoint/layers_remainder/exp" stack_frame_id=436}
  %reshape.78 = bf16[1,4,2,64,64]{4,3,2,1,0} reshape(%exp.19), metadata={op_name="jit(_prefill_jit)/TransformerLinenPure.apply/TransformerLinenPure/decoder/decoder._apply_gemma3_scanned_blocks/checkpoint/layers_remainder/reshape" stack_frame_id=437}
  %dot_general.294 = bf16[1,4,256,2,64]{4,3,2,1,0} dot(%sharding_constraint.138, %reshape.78), lhs_batch_dims={0,2}, lhs_contracting_dims={1}, rhs_batch_dims={0,1}, rhs_contracting_dims={4}, metadata={op_name="jit(_prefill_jit)/TransformerLinenPure.apply/TransformerLinenPure/decoder/decoder._apply_gemma3_scanned_blocks/checkpoint/layers_remainder/bkgts,bskd->btkgd/dot_general" stack_frame_id=439}
  %transpose.374 = bf16[1,64,4,2,256]{1,3,4,2,0} transpose(%dot_general.294), dimensions={0,4,1,3,2}, metadata={op_name="jit(_prefill_jit)/TransformerLinenPure.apply/TransformerLinenPure/decoder/decoder._apply_gemma3_scanned_blocks/checkpoint/layers_remainder/bkgts,bskd->btkgd/transpose" stack_frame_id=439}
  %reshape.79 = bf16[1,64,8,256]{3,2,1,0} reshape(%transpose.374), metadata={op_name="jit(_prefill_jit)/TransformerLinenPure.apply/TransformerLinenPure/decoder/decoder._apply_gemma3_scanned_blocks/checkpoint/layers_remainder/reshape" stack_frame_id=440}
  %convert_element_type.696 = f32[1,8,64,64]{3,2,1,0} convert(%exp.19), metadata={op_name="jit(_prefill_jit)/TransformerLinenPure.apply/TransformerLinenPure/decoder/decoder._apply_gemma3_scanned_blocks/checkpoint/layers_remainder/convert_element_type" stack_frame_id=274}
  %reduce_sum.563 = f32[1,8,64]{2,1,0} reduce(%convert_element_type.696, %constant.149), dimensions={3}, to_apply=%region_78.94, metadata={op_name="jit(_prefill_jit)/TransformerLinenPure.apply/TransformerLinenPure/decoder/decoder._apply_gemma3_scanned_blocks/checkpoint/layers_remainder/reduce_sum" stack_frame_id=274}
  %broadcast_in_dim.366 = f32[1,8,64,1]{3,2,1,0} reshape(%reduce_sum.563), metadata={op_name="jit(_prefill_jit)/TransformerLinenPure.apply/TransformerLinenPure/decoder/decoder._apply_gemma3_scanned_blocks/checkpoint/layers_remainder/broadcast_in_dim" stack_frame_id=274}
  %convert_element_type.697 = bf16[1,8,64,1]{3,2,1,0} convert(%broadcast_in_dim.366), metadata={op_name="jit(_prefill_jit)/TransformerLinenPure.apply/TransformerLinenPure/decoder/decoder._apply_gemma3_scanned_blocks/checkpoint/layers_remainder/convert_element_type" stack_frame_id=274}
  %transpose.373 = bf16[1,64,8,1]{3,1,2,0} transpose(%convert_element_type.697), dimensions={0,2,1,3}, metadata={op_name="jit(_prefill_jit)/TransformerLinenPure.apply/TransformerLinenPure/decoder/decoder._apply_gemma3_scanned_blocks/checkpoint/layers_remainder/transpose" stack_frame_id=441}
  %div.517 = bf16[1,64,8,1]{3,2,1,0} broadcast(%transpose.373), dimensions={0,1,2,3}, metadata={op_name="jit(_prefill_jit)/TransformerLinenPure.apply/TransformerLinenPure/decoder/decoder._apply_gemma3_scanned_blocks/checkpoint/layers_remainder/div" stack_frame_id=442}
  %div.518 = bf16[1,64,8]{2,1,0} reshape(%div.517), metadata={op_name="jit(_prefill_jit)/TransformerLinenPure.apply/TransformerLinenPure/decoder/decoder._apply_gemma3_scanned_blocks/checkpoint/layers_remainder/div" stack_frame_id=442}
  %div.519 = bf16[1,64,8,256]{3,2,1,0} broadcast(%div.518), dimensions={0,1,2}, metadata={op_name="jit(_prefill_jit)/TransformerLinenPure.apply/TransformerLinenPure/decoder/decoder._apply_gemma3_scanned_blocks/checkpoint/layers_remainder/div" stack_frame_id=442}
  %div.520 = bf16[1,64,8,256]{3,2,1,0} divide(%reshape.79, %div.519), metadata={op_name="jit(_prefill_jit)/TransformerLinenPure.apply/TransformerLinenPure/decoder/decoder._apply_gemma3_scanned_blocks/checkpoint/layers_remainder/div" stack_frame_id=442}
  %sharding_constraint.139 = bf16[1,64,8,256]{3,2,1,0} custom-call(%div.520), custom_call_target="Sharding", sharding={devices=[1,1,2,1]<=[2]}, frontend_attributes={xla.sdy.sharding="#sdy.sharding_per_value<[<@mesh, [{}, {}, {\"tensor\"}, {}]>]>"}, metadata={op_name="jit(_prefill_jit)/TransformerLinenPure.apply/TransformerLinenPure/decoder/decoder._apply_gemma3_scanned_blocks/checkpoint/layers_remainder/sharding_constraint" stack_frame_id=445}
  %params__params____decoder____layers_remainder____layers_3____self_attention____out____kernel__.1 = f32[8,256,2560]{2,1,0} parameter(128), sharding={devices=[2,1,1]<=[2]}, frontend_attributes={xla.sdy.sharding="#sdy.sharding<@mesh, [{\"tensor\", \"tensor_transpose\", \"tensor_sequence\", \"autoregressive\"}, {}, {\"fsdp\", \"fsdp_transpose\", \"context\", \"expert\"}]>"}, metadata={op_name="params[\'params\'][\'decoder\'][\'layers_remainder\'][\'layers_3\'][\'self_attention\'][\'out\'][\'kernel\']"}
  %convert_element_type.698 = bf16[8,256,2560]{2,1,0} convert(%params__params____decoder____layers_remainder____layers_3____self_attention____out____kernel__.1), metadata={op_name="jit(_prefill_jit)/TransformerLinenPure.apply/TransformerLinenPure/decoder/decoder._apply_gemma3_scanned_blocks/checkpoint/layers_remainder/convert_element_type" stack_frame_id=449}
  %dot_general.295 = bf16[1,64,2560]{2,1,0} dot(%sharding_constraint.139, %convert_element_type.698), lhs_contracting_dims={2,3}, rhs_contracting_dims={0,1}, metadata={op_name="jit(_prefill_jit)/TransformerLinenPure.apply/TransformerLinenPure/decoder/decoder._apply_gemma3_scanned_blocks/checkpoint/layers_remainder/dot_general" stack_frame_id=451}
  %convert_element_type.699 = f32[1,64,2560]{2,1,0} convert(%dot_general.295), metadata={op_name="jit(_prefill_jit)/TransformerLinenPure.apply/TransformerLinenPure/decoder/decoder._apply_gemma3_scanned_blocks/checkpoint/layers_remainder/convert_element_type" stack_frame_id=452}
  %square.118 = f32[1,64,2560]{2,1,0} multiply(%convert_element_type.699, %convert_element_type.699), metadata={op_name="jit(_prefill_jit)/TransformerLinenPure.apply/TransformerLinenPure/decoder/decoder._apply_gemma3_scanned_blocks/checkpoint/layers_remainder/square" stack_frame_id=453}
  %reduce_sum.564 = f32[1,64]{1,0} reduce(%square.118, %constant.149), dimensions={2}, to_apply=%region_79.95, metadata={op_name="jit(_prefill_jit)/TransformerLinenPure.apply/TransformerLinenPure/decoder/decoder._apply_gemma3_scanned_blocks/checkpoint/layers_remainder/reduce_sum" stack_frame_id=277}
  %broadcast_in_dim.367 = f32[1,64,1]{2,1,0} reshape(%reduce_sum.564), metadata={op_name="jit(_prefill_jit)/TransformerLinenPure.apply/TransformerLinenPure/decoder/decoder._apply_gemma3_scanned_blocks/checkpoint/layers_remainder/broadcast_in_dim" stack_frame_id=277}
  %div.521 = f32[1,64,1]{2,1,0} divide(%broadcast_in_dim.367, %broadcast.78), metadata={op_name="jit(_prefill_jit)/TransformerLinenPure.apply/TransformerLinenPure/decoder/decoder._apply_gemma3_scanned_blocks/checkpoint/layers_remainder/div" stack_frame_id=277}
  %add.241 = f32[1,64,1]{2,1,0} add(%div.521, %broadcast.77), metadata={op_name="jit(_prefill_jit)/TransformerLinenPure.apply/TransformerLinenPure/decoder/decoder._apply_gemma3_scanned_blocks/checkpoint/layers_remainder/add" stack_frame_id=454}
  %rsqrt.118 = f32[1,64,1]{2,1,0} rsqrt(%add.241), metadata={op_name="jit(_prefill_jit)/TransformerLinenPure.apply/TransformerLinenPure/decoder/decoder._apply_gemma3_scanned_blocks/checkpoint/layers_remainder/rsqrt" stack_frame_id=455}
  %mul.951 = f32[1,64,1]{2,1,0} broadcast(%rsqrt.118), dimensions={0,1,2}, metadata={op_name="jit(_prefill_jit)/TransformerLinenPure.apply/TransformerLinenPure/decoder/decoder._apply_gemma3_scanned_blocks/checkpoint/layers_remainder/mul" stack_frame_id=456}
  %mul.952 = f32[1,64]{1,0} reshape(%mul.951), metadata={op_name="jit(_prefill_jit)/TransformerLinenPure.apply/TransformerLinenPure/decoder/decoder._apply_gemma3_scanned_blocks/checkpoint/layers_remainder/mul" stack_frame_id=456}
  %mul.953 = f32[1,64,2560]{2,1,0} broadcast(%mul.952), dimensions={0,1}, metadata={op_name="jit(_prefill_jit)/TransformerLinenPure.apply/TransformerLinenPure/decoder/decoder._apply_gemma3_scanned_blocks/checkpoint/layers_remainder/mul" stack_frame_id=456}
  %mul.954 = f32[1,64,2560]{2,1,0} multiply(%convert_element_type.699, %mul.953), metadata={op_name="jit(_prefill_jit)/TransformerLinenPure.apply/TransformerLinenPure/decoder/decoder._apply_gemma3_scanned_blocks/checkpoint/layers_remainder/mul" stack_frame_id=456}
  %convert_element_type.700 = bf16[1,64,2560]{2,1,0} convert(%mul.954), metadata={op_name="jit(_prefill_jit)/TransformerLinenPure.apply/TransformerLinenPure/decoder/decoder._apply_gemma3_scanned_blocks/checkpoint/layers_remainder/convert_element_type" stack_frame_id=457}
  %dot_general.296 = bf16[2560,1,64]{2,1,0} dot(%convert_element_type.701, %convert_element_type.700), lhs_batch_dims={0}, lhs_contracting_dims={}, rhs_batch_dims={2}, rhs_contracting_dims={}, metadata={op_name="jit(_prefill_jit)/TransformerLinenPure.apply/TransformerLinenPure/decoder/decoder._apply_gemma3_scanned_blocks/checkpoint/layers_remainder/...k,k->...k/dot_general" stack_frame_id=458}
  %transpose.375 = bf16[1,64,2560]{1,0,2} transpose(%dot_general.296), dimensions={1,2,0}, metadata={op_name="jit(_prefill_jit)/TransformerLinenPure.apply/TransformerLinenPure/decoder/decoder._apply_gemma3_scanned_blocks/checkpoint/layers_remainder/...k,k->...k/transpose" stack_frame_id=458}
  %add.242 = bf16[1,64,2560]{1,0,2} add(%transpose.375, %add.235), metadata={op_name="jit(_prefill_jit)/TransformerLinenPure.apply/TransformerLinenPure/decoder/decoder._apply_gemma3_scanned_blocks/checkpoint/layers_remainder/add" stack_frame_id=459}
  %convert_element_type.702 = f32[1,64,2560]{1,0,2} convert(%add.242), metadata={op_name="jit(_prefill_jit)/TransformerLinenPure.apply/TransformerLinenPure/decoder/decoder._apply_gemma3_scanned_blocks/checkpoint/layers_remainder/convert_element_type" stack_frame_id=460}
  %square.119 = f32[1,64,2560]{1,0,2} multiply(%convert_element_type.702, %convert_element_type.702), metadata={op_name="jit(_prefill_jit)/TransformerLinenPure.apply/TransformerLinenPure/decoder/decoder._apply_gemma3_scanned_blocks/checkpoint/layers_remainder/square" stack_frame_id=461}
  %reduce_sum.565 = f32[1,64]{1,0} reduce(%square.119, %constant.149), dimensions={2}, to_apply=%region_80.96, metadata={op_name="jit(_prefill_jit)/TransformerLinenPure.apply/TransformerLinenPure/decoder/decoder._apply_gemma3_scanned_blocks/checkpoint/layers_remainder/reduce_sum" stack_frame_id=280}
  %broadcast_in_dim.368 = f32[1,64,1]{2,1,0} reshape(%reduce_sum.565), metadata={op_name="jit(_prefill_jit)/TransformerLinenPure.apply/TransformerLinenPure/decoder/decoder._apply_gemma3_scanned_blocks/checkpoint/layers_remainder/broadcast_in_dim" stack_frame_id=280}
  %div.522 = f32[1,64,1]{2,1,0} divide(%broadcast_in_dim.368, %broadcast.78), metadata={op_name="jit(_prefill_jit)/TransformerLinenPure.apply/TransformerLinenPure/decoder/decoder._apply_gemma3_scanned_blocks/checkpoint/layers_remainder/div" stack_frame_id=280}
  %add.243 = f32[1,64,1]{2,1,0} add(%div.522, %broadcast.77), metadata={op_name="jit(_prefill_jit)/TransformerLinenPure.apply/TransformerLinenPure/decoder/decoder._apply_gemma3_scanned_blocks/checkpoint/layers_remainder/add" stack_frame_id=462}
  %rsqrt.119 = f32[1,64,1]{2,1,0} rsqrt(%add.243), metadata={op_name="jit(_prefill_jit)/TransformerLinenPure.apply/TransformerLinenPure/decoder/decoder._apply_gemma3_scanned_blocks/checkpoint/layers_remainder/rsqrt" stack_frame_id=463}
  %mul.955 = f32[1,64,1]{2,1,0} broadcast(%rsqrt.119), dimensions={0,1,2}, metadata={op_name="jit(_prefill_jit)/TransformerLinenPure.apply/TransformerLinenPure/decoder/decoder._apply_gemma3_scanned_blocks/checkpoint/layers_remainder/mul" stack_frame_id=464}
  %mul.956 = f32[1,64]{1,0} reshape(%mul.955), metadata={op_name="jit(_prefill_jit)/TransformerLinenPure.apply/TransformerLinenPure/decoder/decoder._apply_gemma3_scanned_blocks/checkpoint/layers_remainder/mul" stack_frame_id=464}
  %mul.957 = f32[1,64,2560]{2,1,0} broadcast(%mul.956), dimensions={0,1}, metadata={op_name="jit(_prefill_jit)/TransformerLinenPure.apply/TransformerLinenPure/decoder/decoder._apply_gemma3_scanned_blocks/checkpoint/layers_remainder/mul" stack_frame_id=464}
  %mul.958 = f32[1,64,2560]{1,0,2} multiply(%convert_element_type.702, %mul.957), metadata={op_name="jit(_prefill_jit)/TransformerLinenPure.apply/TransformerLinenPure/decoder/decoder._apply_gemma3_scanned_blocks/checkpoint/layers_remainder/mul" stack_frame_id=464}
  %convert_element_type.703 = bf16[1,64,2560]{1,0,2} convert(%mul.958), metadata={op_name="jit(_prefill_jit)/TransformerLinenPure.apply/TransformerLinenPure/decoder/decoder._apply_gemma3_scanned_blocks/checkpoint/layers_remainder/convert_element_type" stack_frame_id=465}
  %dot_general.297 = bf16[2560,1,64]{2,1,0} dot(%convert_element_type.704, %convert_element_type.703), lhs_batch_dims={0}, lhs_contracting_dims={}, rhs_batch_dims={2}, rhs_contracting_dims={}, metadata={op_name="jit(_prefill_jit)/TransformerLinenPure.apply/TransformerLinenPure/decoder/decoder._apply_gemma3_scanned_blocks/checkpoint/layers_remainder/...k,k->...k/dot_general" stack_frame_id=466}
  %transpose.376 = bf16[1,64,2560]{1,0,2} transpose(%dot_general.297), dimensions={1,2,0}, metadata={op_name="jit(_prefill_jit)/TransformerLinenPure.apply/TransformerLinenPure/decoder/decoder._apply_gemma3_scanned_blocks/checkpoint/layers_remainder/...k,k->...k/transpose" stack_frame_id=466}
  %params__params____decoder____layers_remainder____layers_3____mlp____wi_0____kernel__.1 = f32[2560,10240]{1,0} parameter(119), sharding={devices=[1,2]<=[2]}, frontend_attributes={xla.sdy.sharding="#sdy.sharding<@mesh, [{\"fsdp\", \"tensor_transpose\", \"context\", \"expert\"}, {\"fsdp_transpose\", \"tensor\", \"tensor_sequence\", \"autoregressive\"}]>"}, metadata={op_name="params[\'params\'][\'decoder\'][\'layers_remainder\'][\'layers_3\'][\'mlp\'][\'wi_0\'][\'kernel\']"}
  %convert_element_type.705 = bf16[2560,10240]{1,0} convert(%params__params____decoder____layers_remainder____layers_3____mlp____wi_0____kernel__.1), metadata={op_name="jit(_prefill_jit)/TransformerLinenPure.apply/TransformerLinenPure/decoder/decoder._apply_gemma3_scanned_blocks/checkpoint/layers_remainder/convert_element_type" stack_frame_id=471}
  %dot_general.298 = bf16[1,64,10240]{2,1,0} dot(%transpose.376, %convert_element_type.705), lhs_contracting_dims={2}, rhs_contracting_dims={0}, metadata={op_name="jit(_prefill_jit)/TransformerLinenPure.apply/TransformerLinenPure/decoder/decoder._apply_gemma3_scanned_blocks/checkpoint/layers_remainder/dot_general" stack_frame_id=473}
  %integer_pow.38 = bf16[1,64,10240]{2,1,0} multiply(%dot_general.298, %dot_general.298), metadata={op_name="jit(_prefill_jit)/TransformerLinenPure.apply/TransformerLinenPure/decoder/decoder._apply_gemma3_scanned_blocks/checkpoint/layers_remainder/integer_pow" stack_frame_id=474}
  %integer_pow.39 = bf16[1,64,10240]{2,1,0} multiply(%integer_pow.38, %dot_general.298), metadata={op_name="jit(_prefill_jit)/TransformerLinenPure.apply/TransformerLinenPure/decoder/decoder._apply_gemma3_scanned_blocks/checkpoint/layers_remainder/integer_pow" stack_frame_id=474}
  %mul.959 = bf16[1,64,10240]{2,1,0} multiply(%integer_pow.39, %broadcast.66), metadata={op_name="jit(_prefill_jit)/TransformerLinenPure.apply/TransformerLinenPure/decoder/decoder._apply_gemma3_scanned_blocks/checkpoint/layers_remainder/mul" stack_frame_id=474}
  %add.244 = bf16[1,64,10240]{2,1,0} add(%dot_general.298, %mul.959), metadata={op_name="jit(_prefill_jit)/TransformerLinenPure.apply/TransformerLinenPure/decoder/decoder._apply_gemma3_scanned_blocks/checkpoint/layers_remainder/add" stack_frame_id=474}
  %mul.960 = bf16[1,64,10240]{2,1,0} multiply(%add.244, %broadcast.65), metadata={op_name="jit(_prefill_jit)/TransformerLinenPure.apply/TransformerLinenPure/decoder/decoder._apply_gemma3_scanned_blocks/checkpoint/layers_remainder/mul" stack_frame_id=474}
  %tanh.19 = bf16[1,64,10240]{2,1,0} tanh(%mul.960), metadata={op_name="jit(_prefill_jit)/TransformerLinenPure.apply/TransformerLinenPure/decoder/decoder._apply_gemma3_scanned_blocks/checkpoint/layers_remainder/tanh" stack_frame_id=474}
  %add.245 = bf16[1,64,10240]{2,1,0} add(%tanh.19, %broadcast.64), metadata={op_name="jit(_prefill_jit)/TransformerLinenPure.apply/TransformerLinenPure/decoder/decoder._apply_gemma3_scanned_blocks/checkpoint/layers_remainder/add" stack_frame_id=474}
  %mul.961 = bf16[1,64,10240]{2,1,0} multiply(%add.245, %broadcast.63), metadata={op_name="jit(_prefill_jit)/TransformerLinenPure.apply/TransformerLinenPure/decoder/decoder._apply_gemma3_scanned_blocks/checkpoint/layers_remainder/mul" stack_frame_id=474}
  %mul.962 = bf16[1,64,10240]{2,1,0} multiply(%dot_general.298, %mul.961), metadata={op_name="jit(_prefill_jit)/TransformerLinenPure.apply/TransformerLinenPure/decoder/decoder._apply_gemma3_scanned_blocks/checkpoint/layers_remainder/mul" stack_frame_id=474}
  %params__params____decoder____layers_remainder____layers_3____mlp____wi_1____kernel__.1 = f32[2560,10240]{1,0} parameter(120), sharding={devices=[1,2]<=[2]}, frontend_attributes={xla.sdy.sharding="#sdy.sharding<@mesh, [{\"fsdp\", \"tensor_transpose\", \"context\", \"expert\"}, {\"fsdp_transpose\", \"tensor\", \"tensor_sequence\", \"autoregressive\"}]>"}, metadata={op_name="params[\'params\'][\'decoder\'][\'layers_remainder\'][\'layers_3\'][\'mlp\'][\'wi_1\'][\'kernel\']"}
  %convert_element_type.706 = bf16[2560,10240]{1,0} convert(%params__params____decoder____layers_remainder____layers_3____mlp____wi_1____kernel__.1), metadata={op_name="jit(_prefill_jit)/TransformerLinenPure.apply/TransformerLinenPure/decoder/decoder._apply_gemma3_scanned_blocks/checkpoint/layers_remainder/convert_element_type" stack_frame_id=471}
  %dot_general.299 = bf16[1,64,10240]{2,1,0} dot(%transpose.376, %convert_element_type.706), lhs_contracting_dims={2}, rhs_contracting_dims={0}, metadata={op_name="jit(_prefill_jit)/TransformerLinenPure.apply/TransformerLinenPure/decoder/decoder._apply_gemma3_scanned_blocks/checkpoint/layers_remainder/dot_general" stack_frame_id=473}
  %mul.963 = bf16[1,64,10240]{2,1,0} multiply(%mul.962, %dot_general.299), metadata={op_name="jit(_prefill_jit)/TransformerLinenPure.apply/TransformerLinenPure/decoder/decoder._apply_gemma3_scanned_blocks/checkpoint/layers_remainder/mul" stack_frame_id=475}
  %sharding_constraint.140 = bf16[1,64,10240]{2,1,0} custom-call(%mul.963), custom_call_target="Sharding", sharding={devices=[1,1,2]<=[2]}, frontend_attributes={xla.sdy.sharding="#sdy.sharding_per_value<[<@mesh, [{}, {}, {\"tensor\"}]>]>"}, metadata={op_name="jit(_prefill_jit)/TransformerLinenPure.apply/TransformerLinenPure/decoder/decoder._apply_gemma3_scanned_blocks/checkpoint/layers_remainder/sharding_constraint" stack_frame_id=478}
  %params__params____decoder____layers_remainder____layers_3____mlp____wo____kernel__.1 = f32[10240,2560]{1,0} parameter(121), sharding={devices=[2,1]<=[2]}, frontend_attributes={xla.sdy.sharding="#sdy.sharding<@mesh, [{\"fsdp_transpose\", \"tensor\", \"tensor_sequence\", \"autoregressive\"}, {\"fsdp\", \"tensor_transpose\", \"context\", \"expert\"}]>"}, metadata={op_name="params[\'params\'][\'decoder\'][\'layers_remainder\'][\'layers_3\'][\'mlp\'][\'wo\'][\'kernel\']"}
  %convert_element_type.707 = bf16[10240,2560]{1,0} convert(%params__params____decoder____layers_remainder____layers_3____mlp____wo____kernel__.1), metadata={op_name="jit(_prefill_jit)/TransformerLinenPure.apply/TransformerLinenPure/decoder/decoder._apply_gemma3_scanned_blocks/checkpoint/layers_remainder/convert_element_type" stack_frame_id=481}
  %dot_general.300 = bf16[1,64,2560]{2,1,0} dot(%sharding_constraint.140, %convert_element_type.707), lhs_contracting_dims={2}, rhs_contracting_dims={0}, metadata={op_name="jit(_prefill_jit)/TransformerLinenPure.apply/TransformerLinenPure/decoder/decoder._apply_gemma3_scanned_blocks/checkpoint/layers_remainder/dot_general" stack_frame_id=483}
  %convert_element_type.708 = f32[1,64,2560]{2,1,0} convert(%dot_general.300), metadata={op_name="jit(_prefill_jit)/TransformerLinenPure.apply/TransformerLinenPure/decoder/decoder._apply_gemma3_scanned_blocks/checkpoint/layers_remainder/convert_element_type" stack_frame_id=484}
  %square.120 = f32[1,64,2560]{2,1,0} multiply(%convert_element_type.708, %convert_element_type.708), metadata={op_name="jit(_prefill_jit)/TransformerLinenPure.apply/TransformerLinenPure/decoder/decoder._apply_gemma3_scanned_blocks/checkpoint/layers_remainder/square" stack_frame_id=485}
  %reduce_sum.566 = f32[1,64]{1,0} reduce(%square.120, %constant.149), dimensions={2}, to_apply=%region_81.97, metadata={op_name="jit(_prefill_jit)/TransformerLinenPure.apply/TransformerLinenPure/decoder/decoder._apply_gemma3_scanned_blocks/checkpoint/layers_remainder/reduce_sum" stack_frame_id=283}
  %broadcast_in_dim.369 = f32[1,64,1]{2,1,0} reshape(%reduce_sum.566), metadata={op_name="jit(_prefill_jit)/TransformerLinenPure.apply/TransformerLinenPure/decoder/decoder._apply_gemma3_scanned_blocks/checkpoint/layers_remainder/broadcast_in_dim" stack_frame_id=283}
  %div.523 = f32[1,64,1]{2,1,0} divide(%broadcast_in_dim.369, %broadcast.78), metadata={op_name="jit(_prefill_jit)/TransformerLinenPure.apply/TransformerLinenPure/decoder/decoder._apply_gemma3_scanned_blocks/checkpoint/layers_remainder/div" stack_frame_id=283}
  %add.246 = f32[1,64,1]{2,1,0} add(%div.523, %broadcast.77), metadata={op_name="jit(_prefill_jit)/TransformerLinenPure.apply/TransformerLinenPure/decoder/decoder._apply_gemma3_scanned_blocks/checkpoint/layers_remainder/add" stack_frame_id=486}
  %rsqrt.120 = f32[1,64,1]{2,1,0} rsqrt(%add.246), metadata={op_name="jit(_prefill_jit)/TransformerLinenPure.apply/TransformerLinenPure/decoder/decoder._apply_gemma3_scanned_blocks/checkpoint/layers_remainder/rsqrt" stack_frame_id=487}
  %mul.964 = f32[1,64,1]{2,1,0} broadcast(%rsqrt.120), dimensions={0,1,2}, metadata={op_name="jit(_prefill_jit)/TransformerLinenPure.apply/TransformerLinenPure/decoder/decoder._apply_gemma3_scanned_blocks/checkpoint/layers_remainder/mul" stack_frame_id=488}
  %mul.965 = f32[1,64]{1,0} reshape(%mul.964), metadata={op_name="jit(_prefill_jit)/TransformerLinenPure.apply/TransformerLinenPure/decoder/decoder._apply_gemma3_scanned_blocks/checkpoint/layers_remainder/mul" stack_frame_id=488}
  %mul.966 = f32[1,64,2560]{2,1,0} broadcast(%mul.965), dimensions={0,1}, metadata={op_name="jit(_prefill_jit)/TransformerLinenPure.apply/TransformerLinenPure/decoder/decoder._apply_gemma3_scanned_blocks/checkpoint/layers_remainder/mul" stack_frame_id=488}
  %mul.967 = f32[1,64,2560]{2,1,0} multiply(%convert_element_type.708, %mul.966), metadata={op_name="jit(_prefill_jit)/TransformerLinenPure.apply/TransformerLinenPure/decoder/decoder._apply_gemma3_scanned_blocks/checkpoint/layers_remainder/mul" stack_frame_id=488}
  %convert_element_type.709 = bf16[1,64,2560]{2,1,0} convert(%mul.967), metadata={op_name="jit(_prefill_jit)/TransformerLinenPure.apply/TransformerLinenPure/decoder/decoder._apply_gemma3_scanned_blocks/checkpoint/layers_remainder/convert_element_type" stack_frame_id=489}
  %dot_general.301 = bf16[2560,1,64]{2,1,0} dot(%convert_element_type.710, %convert_element_type.709), lhs_batch_dims={0}, lhs_contracting_dims={}, rhs_batch_dims={2}, rhs_contracting_dims={}, metadata={op_name="jit(_prefill_jit)/TransformerLinenPure.apply/TransformerLinenPure/decoder/decoder._apply_gemma3_scanned_blocks/checkpoint/layers_remainder/...k,k->...k/dot_general" stack_frame_id=490}
  %transpose.377 = bf16[1,64,2560]{1,0,2} transpose(%dot_general.301), dimensions={1,2,0}, metadata={op_name="jit(_prefill_jit)/TransformerLinenPure.apply/TransformerLinenPure/decoder/decoder._apply_gemma3_scanned_blocks/checkpoint/layers_remainder/...k,k->...k/transpose" stack_frame_id=490}
  %add.247 = bf16[1,64,2560]{1,0,2} add(%transpose.377, %add.242), metadata={op_name="jit(_prefill_jit)/TransformerLinenPure.apply/TransformerLinenPure/decoder/decoder._apply_gemma3_scanned_blocks/checkpoint/layers_remainder/add" stack_frame_id=491}
  %convert_element_type.711 = f32[1,64,2560]{1,0,2} convert(%add.247), metadata={op_name="jit(_prefill_jit)/TransformerLinenPure.apply/TransformerLinenPure/decoder/decoder.apply_output_head/decoder_norm/convert_element_type" stack_frame_id=493}
  %square.121 = f32[1,64,2560]{1,0,2} multiply(%convert_element_type.711, %convert_element_type.711), metadata={op_name="jit(_prefill_jit)/TransformerLinenPure.apply/TransformerLinenPure/decoder/decoder.apply_output_head/decoder_norm/square" stack_frame_id=494}
  %reduce_sum.567 = f32[1,64]{1,0} reduce(%square.121, %constant.149), dimensions={2}, to_apply=%region_82.98, metadata={op_name="jit(_prefill_jit)/TransformerLinenPure.apply/TransformerLinenPure/decoder/decoder.apply_output_head/decoder_norm/reduce_sum" stack_frame_id=287}
  %broadcast_in_dim.370 = f32[1,64,1]{2,1,0} reshape(%reduce_sum.567), metadata={op_name="jit(_prefill_jit)/TransformerLinenPure.apply/TransformerLinenPure/decoder/decoder.apply_output_head/decoder_norm/broadcast_in_dim" stack_frame_id=287}
  %div.524 = f32[1,64,1]{2,1,0} divide(%broadcast_in_dim.370, %broadcast.78), metadata={op_name="jit(_prefill_jit)/TransformerLinenPure.apply/TransformerLinenPure/decoder/decoder.apply_output_head/decoder_norm/div" stack_frame_id=287}
  %add.248 = f32[1,64,1]{2,1,0} add(%div.524, %broadcast.77), metadata={op_name="jit(_prefill_jit)/TransformerLinenPure.apply/TransformerLinenPure/decoder/decoder.apply_output_head/decoder_norm/add" stack_frame_id=495}
  %rsqrt.121 = f32[1,64,1]{2,1,0} rsqrt(%add.248), metadata={op_name="jit(_prefill_jit)/TransformerLinenPure.apply/TransformerLinenPure/decoder/decoder.apply_output_head/decoder_norm/rsqrt" stack_frame_id=496}
  %mul.968 = f32[1,64,1]{2,1,0} broadcast(%rsqrt.121), dimensions={0,1,2}, metadata={op_name="jit(_prefill_jit)/TransformerLinenPure.apply/TransformerLinenPure/decoder/decoder.apply_output_head/decoder_norm/mul" stack_frame_id=497}
  %mul.969 = f32[1,64]{1,0} reshape(%mul.968), metadata={op_name="jit(_prefill_jit)/TransformerLinenPure.apply/TransformerLinenPure/decoder/decoder.apply_output_head/decoder_norm/mul" stack_frame_id=497}
  %mul.970 = f32[1,64,2560]{2,1,0} broadcast(%mul.969), dimensions={0,1}, metadata={op_name="jit(_prefill_jit)/TransformerLinenPure.apply/TransformerLinenPure/decoder/decoder.apply_output_head/decoder_norm/mul" stack_frame_id=497}
  %mul.971 = f32[1,64,2560]{1,0,2} multiply(%convert_element_type.711, %mul.970), metadata={op_name="jit(_prefill_jit)/TransformerLinenPure.apply/TransformerLinenPure/decoder/decoder.apply_output_head/decoder_norm/mul" stack_frame_id=497}
  %convert_element_type.712 = bf16[1,64,2560]{1,0,2} convert(%mul.971), metadata={op_name="jit(_prefill_jit)/TransformerLinenPure.apply/TransformerLinenPure/decoder/decoder.apply_output_head/decoder_norm/convert_element_type" stack_frame_id=498}
  %dot_general.302 = bf16[2560,1,64]{2,1,0} dot(%convert_element_type.713, %convert_element_type.712), lhs_batch_dims={0}, lhs_contracting_dims={}, rhs_batch_dims={2}, rhs_contracting_dims={}, metadata={op_name="jit(_prefill_jit)/TransformerLinenPure.apply/TransformerLinenPure/decoder/decoder.apply_output_head/decoder_norm/...k,k->...k/dot_general" stack_frame_id=499}
  %transpose.378 = bf16[1,64,2560]{1,0,2} transpose(%dot_general.302), dimensions={1,2,0}, metadata={op_name="jit(_prefill_jit)/TransformerLinenPure.apply/TransformerLinenPure/decoder/decoder.apply_output_head/decoder_norm/...k,k->...k/transpose" stack_frame_id=499}
  %convert_element_type.714 = bf16[262144,2560]{1,0} convert(%params__params____token_embedder____embedding__.1), metadata={op_name="jit(_prefill_jit)/TransformerLinenPure.apply/TransformerLinenPure/decoder/decoder.apply_output_head/convert_element_type" stack_frame_id=501}
  %transpose.379 = bf16[2560,262144]{0,1} transpose(%convert_element_type.714), dimensions={1,0}, metadata={op_name="jit(_prefill_jit)/TransformerLinenPure.apply/TransformerLinenPure/decoder/decoder.apply_output_head/transpose" stack_frame_id=501}
  %dot_general.303 = bf16[1,64,262144]{2,1,0} dot(%transpose.378, %transpose.379), lhs_contracting_dims={2}, rhs_contracting_dims={0}, metadata={op_name="jit(_prefill_jit)/TransformerLinenPure.apply/TransformerLinenPure/decoder/decoder.apply_output_head/dot_general" stack_frame_id=502}
  %constant.119 = bf16[] constant(50.5)
  %div.419 = bf16[1,64,262144]{2,1,0} broadcast(%constant.119), dimensions={}, metadata={op_name="jit(_prefill_jit)/TransformerLinenPure.apply/TransformerLinenPure/decoder/decoder.apply_output_head/div" stack_frame_id=503}
  %div.525 = bf16[1,64,262144]{2,1,0} divide(%dot_general.303, %div.419), metadata={op_name="jit(_prefill_jit)/TransformerLinenPure.apply/TransformerLinenPure/decoder/decoder.apply_output_head/div" stack_frame_id=503}
  %convert_element_type.715 = f32[1,64,262144]{2,1,0} convert(%div.525), metadata={op_name="jit(_prefill_jit)/TransformerLinenPure.apply/TransformerLinenPure/decoder/decoder.apply_output_head/convert_element_type" stack_frame_id=504}
  %constant.150 = s32[] constant(1)
  %sub.99 = s32[] subtract(%true_length.1, %constant.150), metadata={op_name="jit(_prefill_jit)/sub" stack_frame_id=505}
  %lt.13 = pred[] compare(%sub.99, %constant.151), direction=LT, metadata={op_name="jit(_prefill_jit)/lt" stack_frame_id=506}
  %constant.146 = s32[] constant(64)
  %add.249 = s32[] add(%sub.99, %constant.146), metadata={op_name="jit(_prefill_jit)/add" stack_frame_id=506}
  %select_n.11 = s32[] select(%lt.13, %add.249, %sub.99), metadata={op_name="jit(_prefill_jit)/select_n" stack_frame_id=506}
  %dynamic_slice.15 = f32[1,1,262144]{2,1,0} dynamic-slice(%convert_element_type.715, %constant.151, %select_n.11, %constant.151), dynamic_slice_sizes={1,1,262144}, metadata={op_name="jit(_prefill_jit)/dynamic_slice" stack_frame_id=506}
  %sharding_constraint.141 = f32[1,1,262144]{2,1,0} custom-call(%dynamic_slice.15), custom_call_target="Sharding", sharding={replicated}, frontend_attributes={xla.sdy.sharding="#sdy.sharding_per_value<[<@mesh, [{}, {}, {}]>]>"}, metadata={op_name="jit(_prefill_jit)/sharding_constraint" stack_frame_id=507}
  %broadcast_in_dim.371 = s32[1,1]{1,0} reshape(%true_length.1), metadata={op_name="jit(_prefill_jit)/broadcast_in_dim" stack_frame_id=508}
  %constant.117 = f32[1,1]{1,0} constant({ {0} })
  %jit__prefill_jit_.3 = s32[1,1]{1,0} call(%sharding_constraint.141), to_apply=%argmax.100, metadata={op_name="jit(_prefill_jit)" stack_frame_id=510}
  %constant.116 = s32[1,1]{1,0} constant({ {1} })
  %concatenate.121 = s32[1,3]{1,0} concatenate(%jit__prefill_jit_.3, %constant.116, %constant.118), dimensions={1}, metadata={op_name="jit(_prefill_jit)/concatenate" stack_frame_id=511}
  ROOT %tuple.7 = (s32[5,1]{1,0}, s32[5,1,1984]{2,1,0}, s32[5,1,64]{2,1,0}, bf16[5,1984,4,1,256]{4,3,2,1,0}, s32[5,1]{1,0}, /*index=5*/bf16[5,1984,4,1,256]{4,3,2,1,0}, bf16[5,64,4,1,256]{4,3,2,1,0}, bf16[5,64,4,1,256]{4,3,2,1,0}, s32[5,1]{1,0}, s32[5,1,1984]{2,1,0}, /*index=10*/s32[5,1,64]{2,1,0}, bf16[5,1984,4,1,256]{4,3,2,1,0}, s32[5,1]{1,0}, bf16[5,1984,4,1,256]{4,3,2,1,0}, bf16[5,64,4,1,256]{4,3,2,1,0}, /*index=15*/bf16[5,64,4,1,256]{4,3,2,1,0}, s32[5,1]{1,0}, s32[5,1,1984]{2,1,0}, s32[5,1,64]{2,1,0}, bf16[5,1984,4,1,256]{4,3,2,1,0}, /*index=20*/s32[5,1]{1,0}, bf16[5,1984,4,1,256]{4,3,2,1,0}, bf16[5,64,4,1,256]{4,3,2,1,0}, bf16[5,64,4,1,256]{4,3,2,1,0}, s32[5,1]{1,0}, /*index=25*/s32[5,1,1984]{2,1,0}, s32[5,1,64]{2,1,0}, bf16[5,1984,4,1,256]{4,3,2,1,0}, s32[5,1]{1,0}, bf16[5,1984,4,1,256]{4,3,2,1,0}, /*index=30*/bf16[5,64,4,1,256]{4,3,2,1,0}, bf16[5,64,4,1,256]{4,3,2,1,0}, s32[5,1]{1,0}, s32[5,1,1984]{2,1,0}, s32[5,1,64]{2,1,0}, /*index=35*/bf16[5,1984,4,1,256]{4,3,2,1,0}, s32[5,1]{1,0}, bf16[5,1984,4,1,256]{4,3,2,1,0}, bf16[5,64,4,1,256]{4,3,2,1,0}, bf16[5,64,4,1,256]{4,3,2,1,0}, /*index=40*/s32[5,1]{1,0}, s32[5,1,1984]{2,1,0}, s32[5,1,64]{2,1,0}, bf16[5,1984,4,1,256]{4,3,2,1,0}, s32[5,1]{1,0}, /*index=45*/bf16[5,1984,4,1,256]{4,3,2,1,0}, bf16[5,64,4,1,256]{4,3,2,1,0}, bf16[5,64,4,1,256]{4,3,2,1,0}, s32[1]{0}, s32[1,1984]{1,0}, /*index=50*/s32[1,64]{1,0}, bf16[1984,4,1,256]{3,2,1,0}, s32[1]{0}, bf16[1984,4,1,256]{3,2,1,0}, bf16[64,4,1,256]{3,2,1,0}, /*index=55*/bf16[64,4,1,256]{3,2,1,0}, s32[1]{0}, s32[1,1984]{1,0}, s32[1,64]{1,0}, bf16[1984,4,1,256]{3,2,1,0}, /*index=60*/s32[1]{0}, bf16[1984,4,1,256]{3,2,1,0}, bf16[64,4,1,256]{3,2,1,0}, bf16[64,4,1,256]{3,2,1,0}, s32[1]{0}, /*index=65*/s32[1,1984]{1,0}, s32[1,64]{1,0}, bf16[1984,4,1,256]{3,2,1,0}, s32[1]{0}, bf16[1984,4,1,256]{3,2,1,0}, /*index=70*/bf16[64,4,1,256]{3,2,1,0}, bf16[64,4,1,256]{3,2,1,0}, s32[1]{0}, s32[1,1984]{1,0}, s32[1,64]{1,0}, /*index=75*/bf16[1984,4,1,256]{3,2,1,0}, s32[1]{0}, bf16[1984,4,1,256]{3,2,1,0}, bf16[64,4,1,256]{3,2,1,0}, bf16[64,4,1,256]{3,2,1,0}, /*index=80*/s32[1,1]{1,0}, f32[1,1,262144]{2,1,0}, s32[1,1]{1,0}, f32[1,1]{1,0}, s32[1,1]{1,0}, /*index=85*/s32[1,3]{1,0}, f32[1,1]{1,0}) tuple(%while.56, %while.57, %while.58, %while.59, %while.60, /*index=5*/%while.61, %while.62, %while.63, %while.64, %while.65, /*index=10*/%while.66, %while.67, %while.68, %while.69, %while.70, /*index=15*/%while.71, %while.72, %while.73, %while.74, %while.75, /*index=20*/%while.76, %while.77, %while.78, %while.79, %while.80, /*index=25*/%while.81, %while.82, %while.83, %while.84, %while.85, /*index=30*/%while.86, %while.87, %while.88, %while.89, %while.90, /*index=35*/%while.91, %while.92, %while.93, %while.94, %while.95, /*index=40*/%while.96, %while.97, %while.98, %while.99, %while.100, /*index=45*/%while.101, %while.102, %while.103, %constant.136, %broadcast.79, /*index=50*/%broadcast_in_dim.300, %broadcast.80, %constant.136, %broadcast.80, %transpose.337, /*index=55*/%transpose.338, %constant.136, %broadcast.79, %broadcast_in_dim.300, %broadcast.80, /*index=60*/%constant.136, %broadcast.80, %transpose.348, %transpose.349, %constant.136, /*index=65*/%broadcast.79, %broadcast_in_dim.300, %broadcast.80, %constant.136, %broadcast.80, /*index=70*/%transpose.359, %transpose.360, %constant.136, %broadcast.79, %broadcast_in_dim.300, /*index=75*/%broadcast.80, %constant.136, %broadcast.80, %transpose.370, %transpose.371, /*index=80*/%constant.118, %sharding_constraint.141, %broadcast_in_dim.371, %constant.117, %jit__prefill_jit_.3, /*index=85*/%concatenate.121, %constant.117)
}

